…
I1130 10:45:07.578202  1342 net.cpp:51] Initializing net from parameters: 
name: "GoogleNet-Places365-SCV-Pretty"
state {
  phase: TRAIN
  level: 0
  stage: ""
}
layer {
  name: "data"
  type: "Data"
  top: "data"
  top: "label"
  include {
    phase: TRAIN
  }
  transform_param {
    mirror: true
    crop_size: 224
    mean_file: "/idiap/temp/lmedina/fine-tuning/googlenet_places365/places365CNN_mean.binaryproto"
  }
  data_param {
    source: "/idiap/temp/lmedina/fine-tuning/data/Pretty/train_lmdb"
    batch_size: 32
    backend: LMDB
  }
}
layer {
  name: "conv1/7x7_s2"
  type: "Convolution"
  bottom: "data"
  top: "conv1/7x7_s2"
  param {
    lr_mult: 1
    decay_mult: 1
  }
  param {
    lr_mult: 2
    decay_mult: 0
  }
  convolution_param {
    num_output: 64
    pad: 3
    kernel_size: 7
    stride: 2
    weight_filler {
      type: "xavier"
      std: 0.1
    }
    bias_filler {
      type: "constant"
      value: 0.2
    }
  }
}
layer {
  name: "conv1/relu_7x7"
  type: "ReLU"
  bottom: "conv1/7x7_s2"
  top: "conv1/7x7_s2"
}
layer {
  name: "pool1/3x3_s2"
  type: "Pooling"
  bottom: "conv1/7x7_s2"
  top: "pool1/3x3_s2"
  pooling_param {
    pool: MAX
    kernel_size: 3
    stride: 2
  }
}
layer {
  name: "pool1/norm1"
  type: "LRN"
  bottom: "pool1/3x3_s2"
  top: "pool1/norm1"
  lrn_param {
    local_size: 5
    alpha: 0.0001
    beta: 0.75
  }
}
layer {
  name: "conv2/3x3_reduce"
  type: "Convolution"
  bottom: "pool1/norm1"
  top: "conv2/3x3_reduce"
  param {
    lr_mult: 1
    decay_mult: 1
  }
  param {
    lr_mult: 2
    decay_mult: 0
  }
  convolution_param {
    num_output: 64
    kernel_size: 1
    weight_filler {
      type: "xavier"
      std: 0.1
    }
    bias_filler {
      type: "constant"
      value: 0.2
    }
  }
}
layer {
  name: "conv2/relu_3x3_reduce"
  type: "ReLU"
  bottom: "conv2/3x3_reduce"
  top: "conv2/3x3_reduce"
}
layer {
  name: "conv2/3x3"
  type: "Convolution"
  bottom: "conv2/3x3_reduce"
  top: "conv2/3x3"
  param {
    lr_mult: 1
    decay_mult: 1
  }
  param {
    lr_mult: 2
    decay_mult: 0
  }
  convolution_param {
    num_output: 192
    pad: 1
    kernel_size: 3
    weight_filler {
      type: "xavier"
      std: 0.03
    }
    bias_filler {
      type: "constant"
      value: 0.2
    }
  }
}
layer {
  name: "conv2/relu_3x3"
  type: "ReLU"
  bottom: "conv2/3x3"
  top: "conv2/3x3"
}
layer {
  name: "conv2/norm2"
  type: "LRN"
  bottom: "conv2/3x3"
  top: "conv2/norm2"
  lrn_param {
    local_size: 5
    alpha: 0.0001
    beta: 0.75
  }
}
layer {
  name: "pool2/3x3_s2"
  type: "Pooling"
  bottom: "conv2/norm2"
  top: "pool2/3x3_s2"
  pooling_param {
    pool: MAX
    kernel_size: 3
    stride: 2
  }
}
layer {
  name: "inception_3a/1x1"
  type: "Convolution"
  bottom: "pool2/3x3_s2"
  top: "inception_3a/1x1"
  param {
    lr_mult: 1
    decay_mult: 1
  }
  param {
    lr_mult: 2
    decay_mult: 0
  }
  convolution_param {
    num_output: 64
    kernel_size: 1
    weight_filler {
      type: "xavier"
      std: 0.03
    }
    bias_filler {
      type: "constant"
      value: 0.2
    }
  }
}
layer {
  name: "inception_3a/relu_1x1"
  type: "ReLU"
  bottom: "inception_3a/1x1"
  top: "inception_3a/1x1"
}
layer {
  name: "inception_3a/3x3_reduce"
  type: "Convolution"
  bottom: "pool2/3x3_s2"
  top: "inception_3a/3x3_reduce"
  param {
    lr_mult: 1
    decay_mult: 1
  }
  param {
    lr_mult: 2
    decay_mult: 0
  }
  convolution_param {
    num_output: 96
    kernel_size: 1
    weight_filler {
      type: "xavier"
      std: 0.09
    }
    bias_filler {
      type: "constant"
      value: 0.2
    }
  }
}
layer {
  name: "inception_3a/relu_3x3_reduce"
  type: "ReLU"
  bottom: "inception_3a/3x3_reduce"
  top: "inception_3a/3x3_reduce"
}
layer {
  name: "inception_3a/3x3"
  type: "Convolution"
  bottom: "inception_3a/3x3_reduce"
  top: "inception_3a/3x3"
  param {
    lr_mult: 1
    decay_mult: 1
  }
  param {
    lr_mult: 2
    decay_mult: 0
  }
  convolution_param {
    num_output: 128
    pad: 1
    kernel_size: 3
    weight_filler {
      type: "xavier"
      std: 0.03
    }
    bias_filler {
      type: "constant"
      value: 0.2
    }
  }
}
layer {
  name: "inception_3a/relu_3x3"
  type: "ReLU"
  bottom: "inception_3a/3x3"
  top: "inception_3a/3x3"
}
layer {
  name: "inception_3a/5x5_reduce"
  type: "Convolution"
  bottom: "pool2/3x3_s2"
  top: "inception_3a/5x5_reduce"
  param {
    lr_mult: 1
    decay_mult: 1
  }
  param {
    lr_mult: 2
    decay_mult: 0
  }
  convolution_param {
    num_output: 16
    kernel_size: 1
    weight_filler {
      type: "xavier"
      std: 0.2
    }
    bias_filler {
      type: "constant"
      value: 0.2
    }
  }
}
layer {
  name: "inception_3a/relu_5x5_reduce"
  type: "ReLU"
  bottom: "inception_3a/5x5_reduce"
  top: "inception_3a/5x5_reduce"
}
layer {
  name: "inception_3a/5x5"
  type: "Convolution"
  bottom: "inception_3a/5x5_reduce"
  top: "inception_3a/5x5"
  param {
    lr_mult: 1
    decay_mult: 1
  }
  param {
    lr_mult: 2
    decay_mult: 0
  }
  convolution_param {
    num_output: 32
    pad: 2
    kernel_size: 5
    weight_filler {
      type: "xavier"
      std: 0.03
    }
    bias_filler {
      type: "constant"
      value: 0.2
    }
  }
}
layer {
  name: "inception_3a/relu_5x5"
  type: "ReLU"
  bottom: "inception_3a/5x5"
  top: "inception_3a/5x5"
}
layer {
  name: "inception_3a/pool"
  type: "Pooling"
  bottom: "pool2/3x3_s2"
  top: "inception_3a/pool"
  pooling_param {
    pool: MAX
    kernel_size: 3
    stride: 1
    pad: 1
  }
}
layer {
  name: "inception_3a/pool_proj"
  type: "Convolution"
  bottom: "inception_3a/pool"
  top: "inception_3a/pool_proj"
  param {
    lr_mult: 1
    decay_mult: 1
  }
  param {
    lr_mult: 2
    decay_mult: 0
  }
  convolution_param {
    num_output: 32
    kernel_size: 1
    weight_filler {
      type: "xavier"
      std: 0.1
    }
    bias_filler {
      type: "constant"
      value: 0.2
    }
  }
}
layer {
  name: "inception_3a/relu_pool_proj"
  type: "ReLU"
  bottom: "inception_3a/pool_proj"
  top: "inception_3a/pool_proj"
}
layer {
  name: "inception_3a/output"
  type: "Concat"
  bottom: "inception_3a/1x1"
  bottom: "inception_3a/3x3"
  bottom: "inception_3a/5x5"
  bottom: "inception_3a/pool_proj"
  top: "inception_3a/output"
}
layer {
  name: "inception_3b/1x1"
  type: "Convolution"
  bottom: "inception_3a/output"
  top: "inception_3b/1x1"
  param {
    lr_mult: 1
    decay_mult: 1
  }
  param {
    lr_mult: 2
    decay_mult: 0
  }
  convolution_param {
    num_output: 128
    kernel_size: 1
    weight_filler {
      type: "xavier"
      std: 0.03
    }
    bias_filler {
      type: "constant"
      value: 0.2
    }
  }
}
layer {
  name: "inception_3b/relu_1x1"
  type: "ReLU"
  bottom: "inception_3b/1x1"
  top: "inception_3b/1x1"
}
layer {
  name: "inception_3b/3x3_reduce"
  type: "Convolution"
  bottom: "inception_3a/output"
  top: "inception_3b/3x3_reduce"
  param {
    lr_mult: 1
    decay_mult: 1
  }
  param {
    lr_mult: 2
    decay_mult: 0
  }
  convolution_param {
    num_output: 128
    kernel_size: 1
    weight_filler {
      type: "xavier"
      std: 0.09
    }
    bias_filler {
      type: "constant"
      value: 0.2
    }
  }
}
layer {
  name: "inception_3b/relu_3x3_reduce"
  type: "ReLU"
  bottom: "inception_3b/3x3_reduce"
  top: "inception_3b/3x3_reduce"
}
layer {
  name: "inception_3b/3x3"
  type: "Convolution"
  bottom: "inception_3b/3x3_reduce"
  top: "inception_3b/3x3"
  param {
    lr_mult: 1
    decay_mult: 1
  }
  param {
    lr_mult: 2
    decay_mult: 0
  }
  convolution_param {
    num_output: 192
    pad: 1
    kernel_size: 3
    weight_filler {
      type: "xavier"
      std: 0.03
    }
    bias_filler {
      type: "constant"
      value: 0.2
    }
  }
}
layer {
  name: "inception_3b/relu_3x3"
  type: "ReLU"
  bottom: "inception_3b/3x3"
  top: "inception_3b/3x3"
}
layer {
  name: "inception_3b/5x5_reduce"
  type: "Convolution"
  bottom: "inception_3a/output"
  top: "inception_3b/5x5_reduce"
  param {
    lr_mult: 1
    decay_mult: 1
  }
  param {
    lr_mult: 2
    decay_mult: 0
  }
  convolution_param {
    num_output: 32
    kernel_size: 1
    weight_filler {
      type: "xavier"
      std: 0.2
    }
    bias_filler {
      type: "constant"
      value: 0.2
    }
  }
}
layer {
  name: "inception_3b/relu_5x5_reduce"
  type: "ReLU"
  bottom: "inception_3b/5x5_reduce"
  top: "inception_3b/5x5_reduce"
}
layer {
  name: "inception_3b/5x5"
  type: "Convolution"
  bottom: "inception_3b/5x5_reduce"
  top: "inception_3b/5x5"
  param {
    lr_mult: 1
    decay_mult: 1
  }
  param {
    lr_mult: 2
    decay_mult: 0
  }
  convolution_param {
    num_output: 96
    pad: 2
    kernel_size: 5
    weight_filler {
      type: "xavier"
      std: 0.03
    }
    bias_filler {
      type: "constant"
      value: 0.2
    }
  }
}
layer {
  name: "inception_3b/relu_5x5"
  type: "ReLU"
  bottom: "inception_3b/5x5"
  top: "inception_3b/5x5"
}
layer {
  name: "inception_3b/pool"
  type: "Pooling"
  bottom: "inception_3a/output"
  top: "inception_3b/pool"
  pooling_param {
    pool: MAX
    kernel_size: 3
    stride: 1
    pad: 1
  }
}
layer {
  name: "inception_3b/pool_proj"
  type: "Convolution"
  bottom: "inception_3b/pool"
  top: "inception_3b/pool_proj"
  param {
    lr_mult: 1
    decay_mult: 1
  }
  param {
    lr_mult: 2
    decay_mult: 0
  }
  convolution_param {
    num_output: 64
    kernel_size: 1
    weight_filler {
      type: "xavier"
      std: 0.1
    }
    bias_filler {
      type: "constant"
      value: 0.2
    }
  }
}
layer {
  name: "inception_3b/relu_pool_proj"
  type: "ReLU"
  bottom: "inception_3b/pool_proj"
  top: "inception_3b/pool_proj"
}
layer {
  name: "inception_3b/output"
  type: "Concat"
  bottom: "inception_3b/1x1"
  bottom: "inception_3b/3x3"
  bottom: "inception_3b/5x5"
  bottom: "inception_3b/pool_proj"
  top: "inception_3b/output"
}
layer {
  name: "pool3/3x3_s2"
  type: "Pooling"
  bottom: "inception_3b/output"
  top: "pool3/3x3_s2"
  pooling_param {
    pool: MAX
    kernel_size: 3
    stride: 2
  }
}
layer {
  name: "inception_4a/1x1"
  type: "Convolution"
  bottom: "pool3/3x3_s2"
  top: "inception_4a/1x1"
  param {
    lr_mult: 1
    decay_mult: 1
  }
  param {
    lr_mult: 2
    decay_mult: 0
  }
  convolution_param {
    num_output: 192
    kernel_size: 1
    weight_filler {
      type: "xavier"
      std: 0.03
    }
    bias_filler {
      type: "constant"
      value: 0.2
    }
  }
}
layer {
  name: "inception_4a/relu_1x1"
  type: "ReLU"
  bottom: "inception_4a/1x1"
  top: "inception_4a/1x1"
}
layer {
  name: "inception_4a/3x3_reduce"
  type: "Convolution"
  bottom: "pool3/3x3_s2"
  top: "inception_4a/3x3_reduce"
  param {
    lr_mult: 1
    decay_mult: 1
  }
  param {
    lr_mult: 2
    decay_mult: 0
  }
  convolution_param {
    num_output: 96
    kernel_size: 1
    weight_filler {
      type: "xavier"
      std: 0.09
    }
    bias_filler {
      type: "constant"
      value: 0.2
    }
  }
}
layer {
  name: "inception_4a/relu_3x3_reduce"
  type: "ReLU"
  bottom: "inception_4a/3x3_reduce"
  top: "inception_4a/3x3_reduce"
}
layer {
  name: "inception_4a/3x3"
  type: "Convolution"
  bottom: "inception_4a/3x3_reduce"
  top: "inception_4a/3x3"
  param {
    lr_mult: 1
    decay_mult: 1
  }
  param {
    lr_mult: 2
    decay_mult: 0
  }
  convolution_param {
    num_output: 208
    pad: 1
    kernel_size: 3
    weight_filler {
      type: "xavier"
      std: 0.03
    }
    bias_filler {
      type: "constant"
      value: 0.2
    }
  }
}
layer {
  name: "inception_4a/relu_3x3"
  type: "ReLU"
  bottom: "inception_4a/3x3"
  top: "inception_4a/3x3"
}
layer {
  name: "inception_4a/5x5_reduce"
  type: "Convolution"
  bottom: "pool3/3x3_s2"
  top: "inception_4a/5x5_reduce"
  param {
    lr_mult: 1
    decay_mult: 1
  }
  param {
    lr_mult: 2
    decay_mult: 0
  }
  convolution_param {
    num_output: 16
    kernel_size: 1
    weight_filler {
      type: "xavier"
      std: 0.2
    }
    bias_filler {
      type: "constant"
      value: 0.2
    }
  }
}
layer {
  name: "inception_4a/relu_5x5_reduce"
  type: "ReLU"
  bottom: "inception_4a/5x5_reduce"
  top: "inception_4a/5x5_reduce"
}
layer {
  name: "inception_4a/5x5"
  type: "Convolution"
  bottom: "inception_4a/5x5_reduce"
  top: "inception_4a/5x5"
  param {
    lr_mult: 1
    decay_mult: 1
  }
  param {
    lr_mult: 2
    decay_mult: 0
  }
  convolution_param {
    num_output: 48
    pad: 2
    kernel_size: 5
    weight_filler {
      type: "xavier"
      std: 0.03
    }
    bias_filler {
      type: "constant"
      value: 0.2
    }
  }
}
layer {
  name: "inception_4a/relu_5x5"
  type: "ReLU"
  bottom: "inception_4a/5x5"
  top: "inception_4a/5x5"
}
layer {
  name: "inception_4a/pool"
  type: "Pooling"
  bottom: "pool3/3x3_s2"
  top: "inception_4a/pool"
  pooling_param {
    pool: MAX
    kernel_size: 3
    stride: 1
    pad: 1
  }
}
layer {
  name: "inception_4a/pool_proj"
  type: "Convolution"
  bottom: "inception_4a/pool"
  top: "inception_4a/pool_proj"
  param {
    lr_mult: 1
    decay_mult: 1
  }
  param {
    lr_mult: 2
    decay_mult: 0
  }
  convolution_param {
    num_output: 64
    kernel_size: 1
    weight_filler {
      type: "xavier"
      std: 0.1
    }
    bias_filler {
      type: "constant"
      value: 0.2
    }
  }
}
layer {
  name: "inception_4a/relu_pool_proj"
  type: "ReLU"
  bottom: "inception_4a/pool_proj"
  top: "inception_4a/pool_proj"
}
layer {
  name: "inception_4a/output"
  type: "Concat"
  bottom: "inception_4a/1x1"
  bottom: "inception_4a/3x3"
  bottom: "inception_4a/5x5"
  bottom: "inception_4a/pool_proj"
  top: "inception_4a/output"
}
layer {
  name: "inception_4b/1x1"
  type: "Convolution"
  bottom: "inception_4a/output"
  top: "inception_4b/1x1"
  param {
    lr_mult: 1
    decay_mult: 1
  }
  param {
    lr_mult: 2
    decay_mult: 0
  }
  convolution_param {
    num_output: 160
    kernel_size: 1
    weight_filler {
      type: "xavier"
      std: 0.03
    }
    bias_filler {
      type: "constant"
      value: 0.2
    }
  }
}
layer {
  name: "inception_4b/relu_1x1"
  type: "ReLU"
  bottom: "inception_4b/1x1"
  top: "inception_4b/1x1"
}
layer {
  name: "inception_4b/3x3_reduce"
  type: "Convolution"
  bottom: "inception_4a/output"
  top: "inception_4b/3x3_reduce"
  param {
    lr_mult: 1
    decay_mult: 1
  }
  param {
    lr_mult: 2
    decay_mult: 0
  }
  convolution_param {
    num_output: 112
    kernel_size: 1
    weight_filler {
      type: "xavier"
      std: 0.09
    }
    bias_filler {
      type: "constant"
      value: 0.2
    }
  }
}
layer {
  name: "inception_4b/relu_3x3_reduce"
  type: "ReLU"
  bottom: "inception_4b/3x3_reduce"
  top: "inception_4b/3x3_reduce"
}
layer {
  name: "inception_4b/3x3"
  type: "Convolution"
  bottom: "inception_4b/3x3_reduce"
  top: "inception_4b/3x3"
  param {
    lr_mult: 1
    decay_mult: 1
  }
  param {
    lr_mult: 2
    decay_mult: 0
  }
  convolution_param {
    num_output: 224
    pad: 1
    kernel_size: 3
    weight_filler {
      type: "xavier"
      std: 0.03
    }
    bias_filler {
      type: "constant"
      value: 0.2
    }
  }
}
layer {
  name: "inception_4b/relu_3x3"
  type: "ReLU"
  bottom: "inception_4b/3x3"
  top: "inception_4b/3x3"
}
layer {
  name: "inception_4b/5x5_reduce"
  type: "Convolution"
  bottom: "inception_4a/output"
  top: "inception_4b/5x5_reduce"
  param {
    lr_mult: 1
    decay_mult: 1
  }
  param {
    lr_mult: 2
    decay_mult: 0
  }
  convolution_param {
    num_output: 24
    kernel_size: 1
    weight_filler {
      type: "xavier"
      std: 0.2
    }
    bias_filler {
      type: "constant"
      value: 0.2
    }
  }
}
layer {
  name: "inception_4b/relu_5x5_reduce"
  type: "ReLU"
  bottom: "inception_4b/5x5_reduce"
  top: "inception_4b/5x5_reduce"
}
layer {
  name: "inception_4b/5x5"
  type: "Convolution"
  bottom: "inception_4b/5x5_reduce"
  top: "inception_4b/5x5"
  param {
    lr_mult: 1
    decay_mult: 1
  }
  param {
    lr_mult: 2
    decay_mult: 0
  }
  convolution_param {
    num_output: 64
    pad: 2
    kernel_size: 5
    weight_filler {
      type: "xavier"
      std: 0.03
    }
    bias_filler {
      type: "constant"
      value: 0.2
    }
  }
}
layer {
  name: "inception_4b/relu_5x5"
  type: "ReLU"
  bottom: "inception_4b/5x5"
  top: "inception_4b/5x5"
}
layer {
  name: "inception_4b/pool"
  type: "Pooling"
  bottom: "inception_4a/output"
  top: "inception_4b/pool"
  pooling_param {
    pool: MAX
    kernel_size: 3
    stride: 1
    pad: 1
  }
}
layer {
  name: "inception_4b/pool_proj"
  type: "Convolution"
  bottom: "inception_4b/pool"
  top: "inception_4b/pool_proj"
  param {
    lr_mult: 1
    decay_mult: 1
  }
  param {
    lr_mult: 2
    decay_mult: 0
  }
  convolution_param {
    num_output: 64
    kernel_size: 1
    weight_filler {
      type: "xavier"
      std: 0.1
    }
    bias_filler {
      type: "constant"
      value: 0.2
    }
  }
}
layer {
  name: "inception_4b/relu_pool_proj"
  type: "ReLU"
  bottom: "inception_4b/pool_proj"
  top: "inception_4b/pool_proj"
}
layer {
  name: "inception_4b/output"
  type: "Concat"
  bottom: "inception_4b/1x1"
  bottom: "inception_4b/3x3"
  bottom: "inception_4b/5x5"
  bottom: "inception_4b/pool_proj"
  top: "inception_4b/output"
}
layer {
  name: "inception_4c/1x1"
  type: "Convolution"
  bottom: "inception_4b/output"
  top: "inception_4c/1x1"
  param {
    lr_mult: 1
    decay_mult: 1
  }
  param {
    lr_mult: 2
    decay_mult: 0
  }
  convolution_param {
    num_output: 128
    kernel_size: 1
    weight_filler {
      type: "xavier"
      std: 0.03
    }
    bias_filler {
      type: "constant"
      value: 0.2
    }
  }
}
layer {
  name: "inception_4c/relu_1x1"
  type: "ReLU"
  bottom: "inception_4c/1x1"
  top: "inception_4c/1x1"
}
layer {
  name: "inception_4c/3x3_reduce"
  type: "Convolution"
  bottom: "inception_4b/output"
  top: "inception_4c/3x3_reduce"
  param {
    lr_mult: 1
    decay_mult: 1
  }
  param {
    lr_mult: 2
    decay_mult: 0
  }
  convolution_param {
    num_output: 128
    kernel_size: 1
    weight_filler {
      type: "xavier"
      std: 0.09
    }
    bias_filler {
      type: "constant"
      value: 0.2
    }
  }
}
layer {
  name: "inception_4c/relu_3x3_reduce"
  type: "ReLU"
  bottom: "inception_4c/3x3_reduce"
  top: "inception_4c/3x3_reduce"
}
layer {
  name: "inception_4c/3x3"
  type: "Convolution"
  bottom: "inception_4c/3x3_reduce"
  top: "inception_4c/3x3"
  param {
    lr_mult: 1
    decay_mult: 1
  }
  param {
    lr_mult: 2
    decay_mult: 0
  }
  convolution_param {
    num_output: 256
    pad: 1
    kernel_size: 3
    weight_filler {
      type: "xavier"
      std: 0.03
    }
    bias_filler {
      type: "constant"
      value: 0.2
    }
  }
}
layer {
  name: "inception_4c/relu_3x3"
  type: "ReLU"
  bottom: "inception_4c/3x3"
  top: "inception_4c/3x3"
}
layer {
  name: "inception_4c/5x5_reduce"
  type: "Convolution"
  bottom: "inception_4b/output"
  top: "inception_4c/5x5_reduce"
  param {
    lr_mult: 1
    decay_mult: 1
  }
  param {
    lr_mult: 2
    decay_mult: 0
  }
  convolution_param {
    num_output: 24
    kernel_size: 1
    weight_filler {
      type: "xavier"
      std: 0.2
    }
    bias_filler {
      type: "constant"
      value: 0.2
    }
  }
}
layer {
  name: "inception_4c/relu_5x5_reduce"
  type: "ReLU"
  bottom: "inception_4c/5x5_reduce"
  top: "inception_4c/5x5_reduce"
}
layer {
  name: "inception_4c/5x5"
  type: "Convolution"
  bottom: "inception_4c/5x5_reduce"
  top: "inception_4c/5x5"
  param {
    lr_mult: 1
    decay_mult: 1
  }
  param {
    lr_mult: 2
    decay_mult: 0
  }
  convolution_param {
    num_output: 64
    pad: 2
    kernel_size: 5
    weight_filler {
      type: "xavier"
      std: 0.03
    }
    bias_filler {
      type: "constant"
      value: 0.2
    }
  }
}
layer {
  name: "inception_4c/relu_5x5"
  type: "ReLU"
  bottom: "inception_4c/5x5"
  top: "inception_4c/5x5"
}
layer {
  name: "inception_4c/pool"
  type: "Pooling"
  bottom: "inception_4b/output"
  top: "inception_4c/pool"
  pooling_param {
    pool: MAX
    kernel_size: 3
    stride: 1
    pad: 1
  }
}
layer {
  name: "inception_4c/pool_proj"
  type: "Convolution"
  bottom: "inception_4c/pool"
  top: "inception_4c/pool_proj"
  param {
    lr_mult: 1
    decay_mult: 1
  }
  param {
    lr_mult: 2
    decay_mult: 0
  }
  convolution_param {
    num_output: 64
    kernel_size: 1
    weight_filler {
      type: "xavier"
      std: 0.1
    }
    bias_filler {
      type: "constant"
      value: 0.2
    }
  }
}
layer {
  name: "inception_4c/relu_pool_proj"
  type: "ReLU"
  bottom: "inception_4c/pool_proj"
  top: "inception_4c/pool_proj"
}
layer {
  name: "inception_4c/output"
  type: "Concat"
  bottom: "inception_4c/1x1"
  bottom: "inception_4c/3x3"
  bottom: "inception_4c/5x5"
  bottom: "inception_4c/pool_proj"
  top: "inception_4c/output"
}
layer {
  name: "inception_4d/1x1"
  type: "Convolution"
  bottom: "inception_4c/output"
  top: "inception_4d/1x1"
  param {
    lr_mult: 1
    decay_mult: 1
  }
  param {
    lr_mult: 2
    decay_mult: 0
  }
  convolution_param {
    num_output: 112
    kernel_size: 1
    weight_filler {
      type: "xavier"
      std: 0.03
    }
    bias_filler {
      type: "constant"
      value: 0.2
    }
  }
}
layer {
  name: "inception_4d/relu_1x1"
  type: "ReLU"
  bottom: "inception_4d/1x1"
  top: "inception_4d/1x1"
}
layer {
  name: "inception_4d/3x3_reduce"
  type: "Convolution"
  bottom: "inception_4c/output"
  top: "inception_4d/3x3_reduce"
  param {
    lr_mult: 1
    decay_mult: 1
  }
  param {
    lr_mult: 2
    decay_mult: 0
  }
  convolution_param {
    num_output: 144
    kernel_size: 1
    weight_filler {
      type: "xavier"
      std: 0.09
    }
    bias_filler {
      type: "constant"
      value: 0.2
    }
  }
}
layer {
  name: "inception_4d/relu_3x3_reduce"
  type: "ReLU"
  bottom: "inception_4d/3x3_reduce"
  top: "inception_4d/3x3_reduce"
}
layer {
  name: "inception_4d/3x3"
  type: "Convolution"
  bottom: "inception_4d/3x3_reduce"
  top: "inception_4d/3x3"
  param {
    lr_mult: 1
    decay_mult: 1
  }
  param {
    lr_mult: 2
    decay_mult: 0
  }
  convolution_param {
    num_output: 288
    pad: 1
    kernel_size: 3
    weight_filler {
      type: "xavier"
      std: 0.03
    }
    bias_filler {
      type: "constant"
      value: 0.2
    }
  }
}
layer {
  name: "inception_4d/relu_3x3"
  type: "ReLU"
  bottom: "inception_4d/3x3"
  top: "inception_4d/3x3"
}
layer {
  name: "inception_4d/5x5_reduce"
  type: "Convolution"
  bottom: "inception_4c/output"
  top: "inception_4d/5x5_reduce"
  param {
    lr_mult: 1
    decay_mult: 1
  }
  param {
    lr_mult: 2
    decay_mult: 0
  }
  convolution_param {
    num_output: 32
    kernel_size: 1
    weight_filler {
      type: "xavier"
      std: 0.2
    }
    bias_filler {
      type: "constant"
      value: 0.2
    }
  }
}
layer {
  name: "inception_4d/relu_5x5_reduce"
  type: "ReLU"
  bottom: "inception_4d/5x5_reduce"
  top: "inception_4d/5x5_reduce"
}
layer {
  name: "inception_4d/5x5"
  type: "Convolution"
  bottom: "inception_4d/5x5_reduce"
  top: "inception_4d/5x5"
  param {
    lr_mult: 1
    decay_mult: 1
  }
  param {
    lr_mult: 2
    decay_mult: 0
  }
  convolution_param {
    num_output: 64
    pad: 2
    kernel_size: 5
    weight_filler {
      type: "xavier"
      std: 0.03
    }
    bias_filler {
      type: "constant"
      value: 0.2
    }
  }
}
layer {
  name: "inception_4d/relu_5x5"
  type: "ReLU"
  bottom: "inception_4d/5x5"
  top: "inception_4d/5x5"
}
layer {
  name: "inception_4d/pool"
  type: "Pooling"
  bottom: "inception_4c/output"
  top: "inception_4d/pool"
  pooling_param {
    pool: MAX
    kernel_size: 3
    stride: 1
    pad: 1
  }
}
layer {
  name: "inception_4d/pool_proj"
  type: "Convolution"
  bottom: "inception_4d/pool"
  top: "inception_4d/pool_proj"
  param {
    lr_mult: 1
    decay_mult: 1
  }
  param {
    lr_mult: 2
    decay_mult: 0
  }
  convolution_param {
    num_output: 64
    kernel_size: 1
    weight_filler {
      type: "xavier"
      std: 0.1
    }
    bias_filler {
      type: "constant"
      value: 0.2
    }
  }
}
layer {
  name: "inception_4d/relu_pool_proj"
  type: "ReLU"
  bottom: "inception_4d/pool_proj"
  top: "inception_4d/pool_proj"
}
layer {
  name: "inception_4d/output"
  type: "Concat"
  bottom: "inception_4d/1x1"
  bottom: "inception_4d/3x3"
  bottom: "inception_4d/5x5"
  bottom: "inception_4d/pool_proj"
  top: "inception_4d/output"
}
layer {
  name: "inception_4e/1x1"
  type: "Convolution"
  bottom: "inception_4d/output"
  top: "inception_4e/1x1"
  param {
    lr_mult: 1
    decay_mult: 1
  }
  param {
    lr_mult: 2
    decay_mult: 0
  }
  convolution_param {
    num_output: 256
    kernel_size: 1
    weight_filler {
      type: "xavier"
      std: 0.03
    }
    bias_filler {
      type: "constant"
      value: 0.2
    }
  }
}
layer {
  name: "inception_4e/relu_1x1"
  type: "ReLU"
  bottom: "inception_4e/1x1"
  top: "inception_4e/1x1"
}
layer {
  name: "inception_4e/3x3_reduce"
  type: "Convolution"
  bottom: "inception_4d/output"
  top: "inception_4e/3x3_reduce"
  param {
    lr_mult: 1
    decay_mult: 1
  }
  param {
    lr_mult: 2
    decay_mult: 0
  }
  convolution_param {
    num_output: 160
    kernel_size: 1
    weight_filler {
      type: "xavier"
      std: 0.09
    }
    bias_filler {
      type: "constant"
      value: 0.2
    }
  }
}
layer {
  name: "inception_4e/relu_3x3_reduce"
  type: "ReLU"
  bottom: "inception_4e/3x3_reduce"
  top: "inception_4e/3x3_reduce"
}
layer {
  name: "inception_4e/3x3"
  type: "Convolution"
  bottom: "inception_4e/3x3_reduce"
  top: "inception_4e/3x3"
  param {
    lr_mult: 1
    decay_mult: 1
  }
  param {
    lr_mult: 2
    decay_mult: 0
  }
  convolution_param {
    num_output: 320
    pad: 1
    kernel_size: 3
    weight_filler {
      type: "xavier"
      std: 0.03
    }
    bias_filler {
      type: "constant"
      value: 0.2
    }
  }
}
layer {
  name: "inception_4e/relu_3x3"
  type: "ReLU"
  bottom: "inception_4e/3x3"
  top: "inception_4e/3x3"
}
layer {
  name: "inception_4e/5x5_reduce"
  type: "Convolution"
  bottom: "inception_4d/output"
  top: "inception_4e/5x5_reduce"
  param {
    lr_mult: 1
    decay_mult: 1
  }
  param {
    lr_mult: 2
    decay_mult: 0
  }
  convolution_param {
    num_output: 32
    kernel_size: 1
    weight_filler {
      type: "xavier"
      std: 0.2
    }
    bias_filler {
      type: "constant"
      value: 0.2
    }
  }
}
layer {
  name: "inception_4e/relu_5x5_reduce"
  type: "ReLU"
  bottom: "inception_4e/5x5_reduce"
  top: "inception_4e/5x5_reduce"
}
layer {
  name: "inception_4e/5x5"
  type: "Convolution"
  bottom: "inception_4e/5x5_reduce"
  top: "inception_4e/5x5"
  param {
    lr_mult: 1
    decay_mult: 1
  }
  param {
    lr_mult: 2
    decay_mult: 0
  }
  convolution_param {
    num_output: 128
    pad: 2
    kernel_size: 5
    weight_filler {
      type: "xavier"
      std: 0.03
    }
    bias_filler {
      type: "constant"
      value: 0.2
    }
  }
}
layer {
  name: "inception_4e/relu_5x5"
  type: "ReLU"
  bottom: "inception_4e/5x5"
  top: "inception_4e/5x5"
}
layer {
  name: "inception_4e/pool"
  type: "Pooling"
  bottom: "inception_4d/output"
  top: "inception_4e/pool"
  pooling_param {
    pool: MAX
    kernel_size: 3
    stride: 1
    pad: 1
  }
}
layer {
  name: "inception_4e/pool_proj"
  type: "Convolution"
  bottom: "inception_4e/pool"
  top: "inception_4e/pool_proj"
  param {
    lr_mult: 1
    decay_mult: 1
  }
  param {
    lr_mult: 2
    decay_mult: 0
  }
  convolution_param {
    num_output: 128
    kernel_size: 1
    weight_filler {
      type: "xavier"
      std: 0.1
    }
    bias_filler {
      type: "constant"
      value: 0.2
    }
  }
}
layer {
  name: "inception_4e/relu_pool_proj"
  type: "ReLU"
  bottom: "inception_4e/pool_proj"
  top: "inception_4e/pool_proj"
}
layer {
  name: "inception_4e/output"
  type: "Concat"
  bottom: "inception_4e/1x1"
  bottom: "inception_4e/3x3"
  bottom: "inception_4e/5x5"
  bottom: "inception_4e/pool_proj"
  top: "inception_4e/output"
}
layer {
  name: "pool4/3x3_s2"
  type: "Pooling"
  bottom: "inception_4e/output"
  top: "pool4/3x3_s2"
  pooling_param {
    pool: MAX
    kernel_size: 3
    stride: 2
  }
}
layer {
  name: "inception_5a/1x1"
  type: "Convolution"
  bottom: "pool4/3x3_s2"
  top: "inception_5a/1x1"
  param {
    lr_mult: 1
    decay_mult: 1
  }
  param {
    lr_mult: 2
    decay_mult: 0
  }
  convolution_param {
    num_output: 256
    kernel_size: 1
    weight_filler {
      type: "xavier"
      std: 0.03
    }
    bias_filler {
      type: "constant"
      value: 0.2
    }
  }
}
layer {
  name: "inception_5a/relu_1x1"
  type: "ReLU"
  bottom: "inception_5a/1x1"
  top: "inception_5a/1x1"
}
layer {
  name: "inception_5a/3x3_reduce"
  type: "Convolution"
  bottom: "pool4/3x3_s2"
  top: "inception_5a/3x3_reduce"
  param {
    lr_mult: 1
    decay_mult: 1
  }
  param {
    lr_mult: 2
    decay_mult: 0
  }
  convolution_param {
    num_output: 160
    kernel_size: 1
    weight_filler {
      type: "xavier"
      std: 0.09
    }
    bias_filler {
      type: "constant"
      value: 0.2
    }
  }
}
layer {
  name: "inception_5a/relu_3x3_reduce"
  type: "ReLU"
  bottom: "inception_5a/3x3_reduce"
  top: "inception_5a/3x3_reduce"
}
layer {
  name: "inception_5a/3x3"
  type: "Convolution"
  bottom: "inception_5a/3x3_reduce"
  top: "inception_5a/3x3"
  param {
    lr_mult: 1
    decay_mult: 1
  }
  param {
    lr_mult: 2
    decay_mult: 0
  }
  convolution_param {
    num_output: 320
    pad: 1
    kernel_size: 3
    weight_filler {
      type: "xavier"
      std: 0.03
    }
    bias_filler {
      type: "constant"
      value: 0.2
    }
  }
}
layer {
  name: "inception_5a/relu_3x3"
  type: "ReLU"
  bottom: "inception_5a/3x3"
  top: "inception_5a/3x3"
}
layer {
  name: "inception_5a/5x5_reduce"
  type: "Convolution"
  bottom: "pool4/3x3_s2"
  top: "inception_5a/5x5_reduce"
I1130 10:45:07.578718  1342 layer_factory.hpp:77] Creating layer data
I1130 10:45:07.595944  1342 db_lmdb.cpp:35] Opened lmdb /idiap/temp/lmedina/fine-tuning/data/Pretty/train_lmdb
I1130 10:45:07.596341  1342 net.cpp:84] Creating Layer data
I1130 10:45:07.596356  1342 net.cpp:380] data -> data
I1130 10:45:07.596379  1342 net.cpp:380] data -> label
I1130 10:45:07.596395  1342 data_transformer.cpp:25] Loading mean file from: /idiap/temp/lmedina/fine-tuning/googlenet_places365/places365CNN_mean.binaryproto
I1130 10:45:07.599416  1342 data_layer.cpp:45] output data size: 32,3,224,224
I1130 10:45:07.635530  1342 net.cpp:122] Setting up data
I1130 10:45:07.635568  1342 net.cpp:129] Top shape: 32 3 224 224 (4816896)
I1130 10:45:07.635576  1342 net.cpp:129] Top shape: 32 (32)
I1130 10:45:07.635581  1342 net.cpp:137] Memory required for data: 19267712
I1130 10:45:07.635591  1342 layer_factory.hpp:77] Creating layer conv1/7x7_s2
I1130 10:45:07.635617  1342 net.cpp:84] Creating Layer conv1/7x7_s2
I1130 10:45:07.635623  1342 net.cpp:406] conv1/7x7_s2 <- data
I1130 10:45:07.635639  1342 net.cpp:380] conv1/7x7_s2 -> conv1/7x7_s2
I1130 10:45:07.636302  1342 net.cpp:122] Setting up conv1/7x7_s2
I1130 10:45:07.636313  1342 net.cpp:129] Top shape: 32 64 112 112 (25690112)
I1130 10:45:07.636317  1342 net.cpp:137] Memory required for data: 122028160
I1130 10:45:07.636332  1342 layer_factory.hpp:77] Creating layer conv1/relu_7x7
I1130 10:45:07.636339  1342 net.cpp:84] Creating Layer conv1/relu_7x7
I1130 10:45:07.636343  1342 net.cpp:406] conv1/relu_7x7 <- conv1/7x7_s2
I1130 10:45:07.636351  1342 net.cpp:367] conv1/relu_7x7 -> conv1/7x7_s2 (in-place)
I1130 10:45:07.636360  1342 net.cpp:122] Setting up conv1/relu_7x7
I1130 10:45:07.636368  1342 net.cpp:129] Top shape: 32 64 112 112 (25690112)
I1130 10:45:07.636373  1342 net.cpp:137] Memory required for data: 224788608
I1130 10:45:07.636378  1342 layer_factory.hpp:77] Creating layer pool1/3x3_s2
I1130 10:45:07.636386  1342 net.cpp:84] Creating Layer pool1/3x3_s2
I1130 10:45:07.636392  1342 net.cpp:406] pool1/3x3_s2 <- conv1/7x7_s2
I1130 10:45:07.636397  1342 net.cpp:380] pool1/3x3_s2 -> pool1/3x3_s2
I1130 10:45:07.636466  1342 net.cpp:122] Setting up pool1/3x3_s2
I1130 10:45:07.636476  1342 net.cpp:129] Top shape: 32 64 56 56 (6422528)
I1130 10:45:07.636481  1342 net.cpp:137] Memory required for data: 250478720
I1130 10:45:07.636485  1342 layer_factory.hpp:77] Creating layer pool1/norm1
I1130 10:45:07.636495  1342 net.cpp:84] Creating Layer pool1/norm1
I1130 10:45:07.636500  1342 net.cpp:406] pool1/norm1 <- pool1/3x3_s2
I1130 10:45:07.636507  1342 net.cpp:380] pool1/norm1 -> pool1/norm1
I1130 10:45:07.636538  1342 net.cpp:122] Setting up pool1/norm1
I1130 10:45:07.636545  1342 net.cpp:129] Top shape: 32 64 56 56 (6422528)
I1130 10:45:07.636550  1342 net.cpp:137] Memory required for data: 276168832
I1130 10:45:07.636556  1342 layer_factory.hpp:77] Creating layer conv2/3x3_reduce
I1130 10:45:07.636565  1342 net.cpp:84] Creating Layer conv2/3x3_reduce
I1130 10:45:07.636570  1342 net.cpp:406] conv2/3x3_reduce <- pool1/norm1
I1130 10:45:07.636576  1342 net.cpp:380] conv2/3x3_reduce -> conv2/3x3_reduce
I1130 10:45:07.638852  1342 net.cpp:122] Setting up conv2/3x3_reduce
I1130 10:45:07.638870  1342 net.cpp:129] Top shape: 32 64 56 56 (6422528)
I1130 10:45:07.638875  1342 net.cpp:137] Memory required for data: 301858944
I1130 10:45:07.638886  1342 layer_factory.hpp:77] Creating layer conv2/relu_3x3_reduce
I1130 10:45:07.638895  1342 net.cpp:84] Creating Layer conv2/relu_3x3_reduce
I1130 10:45:07.638900  1342 net.cpp:406] conv2/relu_3x3_reduce <- conv2/3x3_reduce
I1130 10:45:07.638907  1342 net.cpp:367] conv2/relu_3x3_reduce -> conv2/3x3_reduce (in-place)
I1130 10:45:07.638916  1342 net.cpp:122] Setting up conv2/relu_3x3_reduce
I1130 10:45:07.638922  1342 net.cpp:129] Top shape: 32 64 56 56 (6422528)
I1130 10:45:07.638926  1342 net.cpp:137] Memory required for data: 327549056
I1130 10:45:07.638931  1342 layer_factory.hpp:77] Creating layer conv2/3x3
I1130 10:45:07.638939  1342 net.cpp:84] Creating Layer conv2/3x3
I1130 10:45:07.638944  1342 net.cpp:406] conv2/3x3 <- conv2/3x3_reduce
I1130 10:45:07.638952  1342 net.cpp:380] conv2/3x3 -> conv2/3x3
I1130 10:45:07.640115  1342 net.cpp:122] Setting up conv2/3x3
I1130 10:45:07.640126  1342 net.cpp:129] Top shape: 32 192 56 56 (19267584)
I1130 10:45:07.640131  1342 net.cpp:137] Memory required for data: 404619392
I1130 10:45:07.640141  1342 layer_factory.hpp:77] Creating layer conv2/relu_3x3
I1130 10:45:07.640149  1342 net.cpp:84] Creating Layer conv2/relu_3x3
I1130 10:45:07.640154  1342 net.cpp:406] conv2/relu_3x3 <- conv2/3x3
I1130 10:45:07.640161  1342 net.cpp:367] conv2/relu_3x3 -> conv2/3x3 (in-place)
I1130 10:45:07.640169  1342 net.cpp:122] Setting up conv2/relu_3x3
I1130 10:45:07.640174  1342 net.cpp:129] Top shape: 32 192 56 56 (19267584)
I1130 10:45:07.640179  1342 net.cpp:137] Memory required for data: 481689728
I1130 10:45:07.640184  1342 layer_factory.hpp:77] Creating layer conv2/norm2
I1130 10:45:07.640192  1342 net.cpp:84] Creating Layer conv2/norm2
I1130 10:45:07.640197  1342 net.cpp:406] conv2/norm2 <- conv2/3x3
I1130 10:45:07.640202  1342 net.cpp:380] conv2/norm2 -> conv2/norm2
I1130 10:45:07.640234  1342 net.cpp:122] Setting up conv2/norm2
I1130 10:45:07.640241  1342 net.cpp:129] Top shape: 32 192 56 56 (19267584)
I1130 10:45:07.640246  1342 net.cpp:137] Memory required for data: 558760064
I1130 10:45:07.640251  1342 layer_factory.hpp:77] Creating layer pool2/3x3_s2
I1130 10:45:07.640257  1342 net.cpp:84] Creating Layer pool2/3x3_s2
I1130 10:45:07.640262  1342 net.cpp:406] pool2/3x3_s2 <- conv2/norm2
I1130 10:45:07.640269  1342 net.cpp:380] pool2/3x3_s2 -> pool2/3x3_s2
I1130 10:45:07.640297  1342 net.cpp:122] Setting up pool2/3x3_s2
I1130 10:45:07.640305  1342 net.cpp:129] Top shape: 32 192 28 28 (4816896)
I1130 10:45:07.640312  1342 net.cpp:137] Memory required for data: 578027648
I1130 10:45:07.640317  1342 layer_factory.hpp:77] Creating layer pool2/3x3_s2_pool2/3x3_s2_0_split
I1130 10:45:07.640324  1342 net.cpp:84] Creating Layer pool2/3x3_s2_pool2/3x3_s2_0_split
I1130 10:45:07.640329  1342 net.cpp:406] pool2/3x3_s2_pool2/3x3_s2_0_split <- pool2/3x3_s2
I1130 10:45:07.640336  1342 net.cpp:380] pool2/3x3_s2_pool2/3x3_s2_0_split -> pool2/3x3_s2_pool2/3x3_s2_0_split_0
I1130 10:45:07.640343  1342 net.cpp:380] pool2/3x3_s2_pool2/3x3_s2_0_split -> pool2/3x3_s2_pool2/3x3_s2_0_split_1
I1130 10:45:07.640350  1342 net.cpp:380] pool2/3x3_s2_pool2/3x3_s2_0_split -> pool2/3x3_s2_pool2/3x3_s2_0_split_2
I1130 10:45:07.640357  1342 net.cpp:380] pool2/3x3_s2_pool2/3x3_s2_0_split -> pool2/3x3_s2_pool2/3x3_s2_0_split_3
I1130 10:45:07.640398  1342 net.cpp:122] Setting up pool2/3x3_s2_pool2/3x3_s2_0_split
I1130 10:45:07.640404  1342 net.cpp:129] Top shape: 32 192 28 28 (4816896)
I1130 10:45:07.640410  1342 net.cpp:129] Top shape: 32 192 28 28 (4816896)
I1130 10:45:07.640415  1342 net.cpp:129] Top shape: 32 192 28 28 (4816896)
I1130 10:45:07.640420  1342 net.cpp:129] Top shape: 32 192 28 28 (4816896)
I1130 10:45:07.640425  1342 net.cpp:137] Memory required for data: 655097984
I1130 10:45:07.640429  1342 layer_factory.hpp:77] Creating layer inception_3a/1x1
I1130 10:45:07.640439  1342 net.cpp:84] Creating Layer inception_3a/1x1
I1130 10:45:07.640444  1342 net.cpp:406] inception_3a/1x1 <- pool2/3x3_s2_pool2/3x3_s2_0_split_0
I1130 10:45:07.640450  1342 net.cpp:380] inception_3a/1x1 -> inception_3a/1x1
I1130 10:45:07.641058  1342 net.cpp:122] Setting up inception_3a/1x1
I1130 10:45:07.641069  1342 net.cpp:129] Top shape: 32 64 28 28 (1605632)
I1130 10:45:07.641074  1342 net.cpp:137] Memory required for data: 661520512
I1130 10:45:07.641083  1342 layer_factory.hpp:77] Creating layer inception_3a/relu_1x1
I1130 10:45:07.641090  1342 net.cpp:84] Creating Layer inception_3a/relu_1x1
I1130 10:45:07.641095  1342 net.cpp:406] inception_3a/relu_1x1 <- inception_3a/1x1
I1130 10:45:07.641101  1342 net.cpp:367] inception_3a/relu_1x1 -> inception_3a/1x1 (in-place)
I1130 10:45:07.641109  1342 net.cpp:122] Setting up inception_3a/relu_1x1
I1130 10:45:07.641115  1342 net.cpp:129] Top shape: 32 64 28 28 (1605632)
I1130 10:45:07.641119  1342 net.cpp:137] Memory required for data: 667943040
I1130 10:45:07.641124  1342 layer_factory.hpp:77] Creating layer inception_3a/3x3_reduce
I1130 10:45:07.641131  1342 net.cpp:84] Creating Layer inception_3a/3x3_reduce
I1130 10:45:07.641136  1342 net.cpp:406] inception_3a/3x3_reduce <- pool2/3x3_s2_pool2/3x3_s2_0_split_1
I1130 10:45:07.641144  1342 net.cpp:380] inception_3a/3x3_reduce -> inception_3a/3x3_reduce
I1130 10:45:07.641784  1342 net.cpp:122] Setting up inception_3a/3x3_reduce
I1130 10:45:07.641795  1342 net.cpp:129] Top shape: 32 96 28 28 (2408448)
I1130 10:45:07.641799  1342 net.cpp:137] Memory required for data: 677576832
I1130 10:45:07.641810  1342 layer_factory.hpp:77] Creating layer inception_3a/relu_3x3_reduce
I1130 10:45:07.641818  1342 net.cpp:84] Creating Layer inception_3a/relu_3x3_reduce
I1130 10:45:07.641822  1342 net.cpp:406] inception_3a/relu_3x3_reduce <- inception_3a/3x3_reduce
I1130 10:45:07.641829  1342 net.cpp:367] inception_3a/relu_3x3_reduce -> inception_3a/3x3_reduce (in-place)
I1130 10:45:07.641837  1342 net.cpp:122] Setting up inception_3a/relu_3x3_reduce
I1130 10:45:07.641844  1342 net.cpp:129] Top shape: 32 96 28 28 (2408448)
I1130 10:45:07.641847  1342 net.cpp:137] Memory required for data: 687210624
I1130 10:45:07.641851  1342 layer_factory.hpp:77] Creating layer inception_3a/3x3
I1130 10:45:07.641861  1342 net.cpp:84] Creating Layer inception_3a/3x3
I1130 10:45:07.641865  1342 net.cpp:406] inception_3a/3x3 <- inception_3a/3x3_reduce
I1130 10:45:07.641872  1342 net.cpp:380] inception_3a/3x3 -> inception_3a/3x3
I1130 10:45:07.642648  1342 net.cpp:122] Setting up inception_3a/3x3
I1130 10:45:07.642658  1342 net.cpp:129] Top shape: 32 128 28 28 (3211264)
I1130 10:45:07.642665  1342 net.cpp:137] Memory required for data: 700055680
I1130 10:45:07.642673  1342 layer_factory.hpp:77] Creating layer inception_3a/relu_3x3
I1130 10:45:07.642680  1342 net.cpp:84] Creating Layer inception_3a/relu_3x3
I1130 10:45:07.642684  1342 net.cpp:406] inception_3a/relu_3x3 <- inception_3a/3x3
I1130 10:45:07.642690  1342 net.cpp:367] inception_3a/relu_3x3 -> inception_3a/3x3 (in-place)
I1130 10:45:07.642698  1342 net.cpp:122] Setting up inception_3a/relu_3x3
I1130 10:45:07.642704  1342 net.cpp:129] Top shape: 32 128 28 28 (3211264)
I1130 10:45:07.642707  1342 net.cpp:137] Memory required for data: 712900736
I1130 10:45:07.642712  1342 layer_factory.hpp:77] Creating layer inception_3a/5x5_reduce
I1130 10:45:07.642719  1342 net.cpp:84] Creating Layer inception_3a/5x5_reduce
I1130 10:45:07.642724  1342 net.cpp:406] inception_3a/5x5_reduce <- pool2/3x3_s2_pool2/3x3_s2_0_split_2
I1130 10:45:07.642730  1342 net.cpp:380] inception_3a/5x5_reduce -> inception_3a/5x5_reduce
I1130 10:45:07.642943  1342 net.cpp:122] Setting up inception_3a/5x5_reduce
I1130 10:45:07.642953  1342 net.cpp:129] Top shape: 32 16 28 28 (401408)
I1130 10:45:07.642957  1342 net.cpp:137] Memory required for data: 714506368
I1130 10:45:07.642964  1342 layer_factory.hpp:77] Creating layer inception_3a/relu_5x5_reduce
I1130 10:45:07.642971  1342 net.cpp:84] Creating Layer inception_3a/relu_5x5_reduce
I1130 10:45:07.642976  1342 net.cpp:406] inception_3a/relu_5x5_reduce <- inception_3a/5x5_reduce
I1130 10:45:07.642982  1342 net.cpp:367] inception_3a/relu_5x5_reduce -> inception_3a/5x5_reduce (in-place)
I1130 10:45:07.642989  1342 net.cpp:122] Setting up inception_3a/relu_5x5_reduce
I1130 10:45:07.642994  1342 net.cpp:129] Top shape: 32 16 28 28 (401408)
I1130 10:45:07.642999  1342 net.cpp:137] Memory required for data: 716112000
I1130 10:45:07.643002  1342 layer_factory.hpp:77] Creating layer inception_3a/5x5
I1130 10:45:07.643010  1342 net.cpp:84] Creating Layer inception_3a/5x5
I1130 10:45:07.643015  1342 net.cpp:406] inception_3a/5x5 <- inception_3a/5x5_reduce
I1130 10:45:07.643023  1342 net.cpp:380] inception_3a/5x5 -> inception_3a/5x5
I1130 10:45:07.643249  1342 net.cpp:122] Setting up inception_3a/5x5
I1130 10:45:07.643256  1342 net.cpp:129] Top shape: 32 32 28 28 (802816)
I1130 10:45:07.643261  1342 net.cpp:137] Memory required for data: 719323264
I1130 10:45:07.643267  1342 layer_factory.hpp:77] Creating layer inception_3a/relu_5x5
I1130 10:45:07.643275  1342 net.cpp:84] Creating Layer inception_3a/relu_5x5
I1130 10:45:07.643280  1342 net.cpp:406] inception_3a/relu_5x5 <- inception_3a/5x5
I1130 10:45:07.643285  1342 net.cpp:367] inception_3a/relu_5x5 -> inception_3a/5x5 (in-place)
I1130 10:45:07.643291  1342 net.cpp:122] Setting up inception_3a/relu_5x5
I1130 10:45:07.643297  1342 net.cpp:129] Top shape: 32 32 28 28 (802816)
I1130 10:45:07.643302  1342 net.cpp:137] Memory required for data: 722534528
I1130 10:45:07.643306  1342 layer_factory.hpp:77] Creating layer inception_3a/pool
I1130 10:45:07.643313  1342 net.cpp:84] Creating Layer inception_3a/pool
I1130 10:45:07.643318  1342 net.cpp:406] inception_3a/pool <- pool2/3x3_s2_pool2/3x3_s2_0_split_3
I1130 10:45:07.643324  1342 net.cpp:380] inception_3a/pool -> inception_3a/pool
I1130 10:45:07.643354  1342 net.cpp:122] Setting up inception_3a/pool
I1130 10:45:07.643362  1342 net.cpp:129] Top shape: 32 192 28 28 (4816896)
I1130 10:45:07.643365  1342 net.cpp:137] Memory required for data: 741802112
I1130 10:45:07.643369  1342 layer_factory.hpp:77] Creating layer inception_3a/pool_proj
I1130 10:45:07.643378  1342 net.cpp:84] Creating Layer inception_3a/pool_proj
I1130 10:45:07.643383  1342 net.cpp:406] inception_3a/pool_proj <- inception_3a/pool
I1130 10:45:07.643389  1342 net.cpp:380] inception_3a/pool_proj -> inception_3a/pool_proj
I1130 10:45:07.643580  1342 net.cpp:122] Setting up inception_3a/pool_proj
I1130 10:45:07.643589  1342 net.cpp:129] Top shape: 32 32 28 28 (802816)
I1130 10:45:07.643594  1342 net.cpp:137] Memory required for data: 745013376
I1130 10:45:07.643602  1342 layer_factory.hpp:77] Creating layer inception_3a/relu_pool_proj
I1130 10:45:07.643611  1342 net.cpp:84] Creating Layer inception_3a/relu_pool_proj
I1130 10:45:07.643616  1342 net.cpp:406] inception_3a/relu_pool_proj <- inception_3a/pool_proj
I1130 10:45:07.643622  1342 net.cpp:367] inception_3a/relu_pool_proj -> inception_3a/pool_proj (in-place)
I1130 10:45:07.643630  1342 net.cpp:122] Setting up inception_3a/relu_pool_proj
I1130 10:45:07.643635  1342 net.cpp:129] Top shape: 32 32 28 28 (802816)
I1130 10:45:07.643640  1342 net.cpp:137] Memory required for data: 748224640
I1130 10:45:07.643645  1342 layer_factory.hpp:77] Creating layer inception_3a/output
I1130 10:45:07.643651  1342 net.cpp:84] Creating Layer inception_3a/output
I1130 10:45:07.643656  1342 net.cpp:406] inception_3a/output <- inception_3a/1x1
I1130 10:45:07.643661  1342 net.cpp:406] inception_3a/output <- inception_3a/3x3
I1130 10:45:07.643666  1342 net.cpp:406] inception_3a/output <- inception_3a/5x5
I1130 10:45:07.643671  1342 net.cpp:406] inception_3a/output <- inception_3a/pool_proj
I1130 10:45:07.643677  1342 net.cpp:380] inception_3a/output -> inception_3a/output
I1130 10:45:07.643699  1342 net.cpp:122] Setting up inception_3a/output
I1130 10:45:07.643707  1342 net.cpp:129] Top shape: 32 256 28 28 (6422528)
I1130 10:45:07.643712  1342 net.cpp:137] Memory required for data: 773914752
I1130 10:45:07.643714  1342 layer_factory.hpp:77] Creating layer inception_3a/output_inception_3a/output_0_split
I1130 10:45:07.643721  1342 net.cpp:84] Creating Layer inception_3a/output_inception_3a/output_0_split
I1130 10:45:07.643726  1342 net.cpp:406] inception_3a/output_inception_3a/output_0_split <- inception_3a/output
I1130 10:45:07.643733  1342 net.cpp:380] inception_3a/output_inception_3a/output_0_split -> inception_3a/output_inception_3a/output_0_split_0
I1130 10:45:07.643739  1342 net.cpp:380] inception_3a/output_inception_3a/output_0_split -> inception_3a/output_inception_3a/output_0_split_1
I1130 10:45:07.643746  1342 net.cpp:380] inception_3a/output_inception_3a/output_0_split -> inception_3a/output_inception_3a/output_0_split_2
I1130 10:45:07.643754  1342 net.cpp:380] inception_3a/output_inception_3a/output_0_split -> inception_3a/output_inception_3a/output_0_split_3
I1130 10:45:07.643793  1342 net.cpp:122] Setting up inception_3a/output_inception_3a/output_0_split
I1130 10:45:07.643800  1342 net.cpp:129] Top shape: 32 256 28 28 (6422528)
I1130 10:45:07.643806  1342 net.cpp:129] Top shape: 32 256 28 28 (6422528)
I1130 10:45:07.643811  1342 net.cpp:129] Top shape: 32 256 28 28 (6422528)
I1130 10:45:07.643815  1342 net.cpp:129] Top shape: 32 256 28 28 (6422528)
I1130 10:45:07.643821  1342 net.cpp:137] Memory required for data: 876675200
I1130 10:45:07.643824  1342 layer_factory.hpp:77] Creating layer inception_3b/1x1
I1130 10:45:07.643832  1342 net.cpp:84] Creating Layer inception_3b/1x1
I1130 10:45:07.643837  1342 net.cpp:406] inception_3b/1x1 <- inception_3a/output_inception_3a/output_0_split_0
I1130 10:45:07.643844  1342 net.cpp:380] inception_3b/1x1 -> inception_3b/1x1
I1130 10:45:07.644174  1342 net.cpp:122] Setting up inception_3b/1x1
I1130 10:45:07.644183  1342 net.cpp:129] Top shape: 32 128 28 28 (3211264)
I1130 10:45:07.644187  1342 net.cpp:137] Memory required for data: 889520256
I1130 10:45:07.644194  1342 layer_factory.hpp:77] Creating layer inception_3b/relu_1x1
I1130 10:45:07.644201  1342 net.cpp:84] Creating Layer inception_3b/relu_1x1
I1130 10:45:07.644206  1342 net.cpp:406] inception_3b/relu_1x1 <- inception_3b/1x1
I1130 10:45:07.644212  1342 net.cpp:367] inception_3b/relu_1x1 -> inception_3b/1x1 (in-place)
I1130 10:45:07.644218  1342 net.cpp:122] Setting up inception_3b/relu_1x1
I1130 10:45:07.644224  1342 net.cpp:129] Top shape: 32 128 28 28 (3211264)
I1130 10:45:07.644228  1342 net.cpp:137] Memory required for data: 902365312
I1130 10:45:07.644232  1342 layer_factory.hpp:77] Creating layer inception_3b/3x3_reduce
I1130 10:45:07.644240  1342 net.cpp:84] Creating Layer inception_3b/3x3_reduce
I1130 10:45:07.644245  1342 net.cpp:406] inception_3b/3x3_reduce <- inception_3a/output_inception_3a/output_0_split_1
I1130 10:45:07.644253  1342 net.cpp:380] inception_3b/3x3_reduce -> inception_3b/3x3_reduce
I1130 10:45:07.644583  1342 net.cpp:122] Setting up inception_3b/3x3_reduce
I1130 10:45:07.644593  1342 net.cpp:129] Top shape: 32 128 28 28 (3211264)
I1130 10:45:07.644598  1342 net.cpp:137] Memory required for data: 915210368
I1130 10:45:07.644603  1342 layer_factory.hpp:77] Creating layer inception_3b/relu_3x3_reduce
I1130 10:45:07.644610  1342 net.cpp:84] Creating Layer inception_3b/relu_3x3_reduce
I1130 10:45:07.644615  1342 net.cpp:406] inception_3b/relu_3x3_reduce <- inception_3b/3x3_reduce
I1130 10:45:07.644623  1342 net.cpp:367] inception_3b/relu_3x3_reduce -> inception_3b/3x3_reduce (in-place)
I1130 10:45:07.644629  1342 net.cpp:122] Setting up inception_3b/relu_3x3_reduce
I1130 10:45:07.644634  1342 net.cpp:129] Top shape: 32 128 28 28 (3211264)
I1130 10:45:07.644639  1342 net.cpp:137] Memory required for data: 928055424
I1130 10:45:07.644642  1342 layer_factory.hpp:77] Creating layer inception_3b/3x3
I1130 10:45:07.644650  1342 net.cpp:84] Creating Layer inception_3b/3x3
I1130 10:45:07.644655  1342 net.cpp:406] inception_3b/3x3 <- inception_3b/3x3_reduce
I1130 10:45:07.644661  1342 net.cpp:380] inception_3b/3x3 -> inception_3b/3x3
I1130 10:45:07.646404  1342 net.cpp:122] Setting up inception_3b/3x3
I1130 10:45:07.646416  1342 net.cpp:129] Top shape: 32 192 28 28 (4816896)
I1130 10:45:07.646420  1342 net.cpp:137] Memory required for data: 947323008
I1130 10:45:07.646427  1342 layer_factory.hpp:77] Creating layer inception_3b/relu_3x3
I1130 10:45:07.646437  1342 net.cpp:84] Creating Layer inception_3b/relu_3x3
I1130 10:45:07.646442  1342 net.cpp:406] inception_3b/relu_3x3 <- inception_3b/3x3
I1130 10:45:07.646450  1342 net.cpp:367] inception_3b/relu_3x3 -> inception_3b/3x3 (in-place)
I1130 10:45:07.646457  1342 net.cpp:122] Setting up inception_3b/relu_3x3
I1130 10:45:07.646463  1342 net.cpp:129] Top shape: 32 192 28 28 (4816896)
I1130 10:45:07.646467  1342 net.cpp:137] Memory required for data: 966590592
I1130 10:45:07.646472  1342 layer_factory.hpp:77] Creating layer inception_3b/5x5_reduce
I1130 10:45:07.646479  1342 net.cpp:84] Creating Layer inception_3b/5x5_reduce
I1130 10:45:07.646484  1342 net.cpp:406] inception_3b/5x5_reduce <- inception_3a/output_inception_3a/output_0_split_2
I1130 10:45:07.646492  1342 net.cpp:380] inception_3b/5x5_reduce -> inception_3b/5x5_reduce
I1130 10:45:07.646700  1342 net.cpp:122] Setting up inception_3b/5x5_reduce
I1130 10:45:07.646709  1342 net.cpp:129] Top shape: 32 32 28 28 (802816)
I1130 10:45:07.646713  1342 net.cpp:137] Memory required for data: 969801856
I1130 10:45:07.646720  1342 layer_factory.hpp:77] Creating layer inception_3b/relu_5x5_reduce
I1130 10:45:07.646726  1342 net.cpp:84] Creating Layer inception_3b/relu_5x5_reduce
I1130 10:45:07.646733  1342 net.cpp:406] inception_3b/relu_5x5_reduce <- inception_3b/5x5_reduce
I1130 10:45:07.646739  1342 net.cpp:367] inception_3b/relu_5x5_reduce -> inception_3b/5x5_reduce (in-place)
I1130 10:45:07.646745  1342 net.cpp:122] Setting up inception_3b/relu_5x5_reduce
I1130 10:45:07.646750  1342 net.cpp:129] Top shape: 32 32 28 28 (802816)
I1130 10:45:07.646755  1342 net.cpp:137] Memory required for data: 973013120
I1130 10:45:07.646759  1342 layer_factory.hpp:77] Creating layer inception_3b/5x5
I1130 10:45:07.646778  1342 net.cpp:84] Creating Layer inception_3b/5x5
I1130 10:45:07.646785  1342 net.cpp:406] inception_3b/5x5 <- inception_3b/5x5_reduce
I1130 10:45:07.646790  1342 net.cpp:380] inception_3b/5x5 -> inception_3b/5x5
I1130 10:45:07.647740  1342 net.cpp:122] Setting up inception_3b/5x5
I1130 10:45:07.647752  1342 net.cpp:129] Top shape: 32 96 28 28 (2408448)
I1130 10:45:07.647755  1342 net.cpp:137] Memory required for data: 982646912
I1130 10:45:07.647763  1342 layer_factory.hpp:77] Creating layer inception_3b/relu_5x5
I1130 10:45:07.647769  1342 net.cpp:84] Creating Layer inception_3b/relu_5x5
I1130 10:45:07.647774  1342 net.cpp:406] inception_3b/relu_5x5 <- inception_3b/5x5
I1130 10:45:07.647786  1342 net.cpp:367] inception_3b/relu_5x5 -> inception_3b/5x5 (in-place)
I1130 10:45:07.647794  1342 net.cpp:122] Setting up inception_3b/relu_5x5
I1130 10:45:07.647800  1342 net.cpp:129] Top shape: 32 96 28 28 (2408448)
I1130 10:45:07.647804  1342 net.cpp:137] Memory required for data: 992280704
I1130 10:45:07.647809  1342 layer_factory.hpp:77] Creating layer inception_3b/pool
I1130 10:45:07.647814  1342 net.cpp:84] Creating Layer inception_3b/pool
I1130 10:45:07.647819  1342 net.cpp:406] inception_3b/pool <- inception_3a/output_inception_3a/output_0_split_3
I1130 10:45:07.647825  1342 net.cpp:380] inception_3b/pool -> inception_3b/pool
I1130 10:45:07.647856  1342 net.cpp:122] Setting up inception_3b/pool
I1130 10:45:07.647864  1342 net.cpp:129] Top shape: 32 256 28 28 (6422528)
I1130 10:45:07.647868  1342 net.cpp:137] Memory required for data: 1017970816
I1130 10:45:07.647872  1342 layer_factory.hpp:77] Creating layer inception_3b/pool_proj
I1130 10:45:07.647881  1342 net.cpp:84] Creating Layer inception_3b/pool_proj
I1130 10:45:07.647886  1342 net.cpp:406] inception_3b/pool_proj <- inception_3b/pool
I1130 10:45:07.647893  1342 net.cpp:380] inception_3b/pool_proj -> inception_3b/pool_proj
I1130 10:45:07.648141  1342 net.cpp:122] Setting up inception_3b/pool_proj
I1130 10:45:07.648150  1342 net.cpp:129] Top shape: 32 64 28 28 (1605632)
I1130 10:45:07.648154  1342 net.cpp:137] Memory required for data: 1024393344
I1130 10:45:07.648161  1342 layer_factory.hpp:77] Creating layer inception_3b/relu_pool_proj
I1130 10:45:07.648167  1342 net.cpp:84] Creating Layer inception_3b/relu_pool_proj
I1130 10:45:07.648172  1342 net.cpp:406] inception_3b/relu_pool_proj <- inception_3b/pool_proj
I1130 10:45:07.648180  1342 net.cpp:367] inception_3b/relu_pool_proj -> inception_3b/pool_proj (in-place)
I1130 10:45:07.648186  1342 net.cpp:122] Setting up inception_3b/relu_pool_proj
I1130 10:45:07.648192  1342 net.cpp:129] Top shape: 32 64 28 28 (1605632)
I1130 10:45:07.648197  1342 net.cpp:137] Memory required for data: 1030815872
I1130 10:45:07.648201  1342 layer_factory.hpp:77] Creating layer inception_3b/output
I1130 10:45:07.648207  1342 net.cpp:84] Creating Layer inception_3b/output
I1130 10:45:07.648212  1342 net.cpp:406] inception_3b/output <- inception_3b/1x1
I1130 10:45:07.648217  1342 net.cpp:406] inception_3b/output <- inception_3b/3x3
I1130 10:45:07.648223  1342 net.cpp:406] inception_3b/output <- inception_3b/5x5
I1130 10:45:07.648228  1342 net.cpp:406] inception_3b/output <- inception_3b/pool_proj
I1130 10:45:07.648233  1342 net.cpp:380] inception_3b/output -> inception_3b/output
I1130 10:45:07.648257  1342 net.cpp:122] Setting up inception_3b/output
I1130 10:45:07.648264  1342 net.cpp:129] Top shape: 32 480 28 28 (12042240)
I1130 10:45:07.648268  1342 net.cpp:137] Memory required for data: 1078984832
I1130 10:45:07.648272  1342 layer_factory.hpp:77] Creating layer pool3/3x3_s2
I1130 10:45:07.648278  1342 net.cpp:84] Creating Layer pool3/3x3_s2
I1130 10:45:07.648283  1342 net.cpp:406] pool3/3x3_s2 <- inception_3b/output
I1130 10:45:07.648289  1342 net.cpp:380] pool3/3x3_s2 -> pool3/3x3_s2
I1130 10:45:07.648316  1342 net.cpp:122] Setting up pool3/3x3_s2
I1130 10:45:07.648324  1342 net.cpp:129] Top shape: 32 480 14 14 (3010560)
I1130 10:45:07.648329  1342 net.cpp:137] Memory required for data: 1091027072
I1130 10:45:07.648332  1342 layer_factory.hpp:77] Creating layer pool3/3x3_s2_pool3/3x3_s2_0_split
I1130 10:45:07.648340  1342 net.cpp:84] Creating Layer pool3/3x3_s2_pool3/3x3_s2_0_split
I1130 10:45:07.648345  1342 net.cpp:406] pool3/3x3_s2_pool3/3x3_s2_0_split <- pool3/3x3_s2
I1130 10:45:07.648351  1342 net.cpp:380] pool3/3x3_s2_pool3/3x3_s2_0_split -> pool3/3x3_s2_pool3/3x3_s2_0_split_0
I1130 10:45:07.648358  1342 net.cpp:380] pool3/3x3_s2_pool3/3x3_s2_0_split -> pool3/3x3_s2_pool3/3x3_s2_0_split_1
I1130 10:45:07.648365  1342 net.cpp:380] pool3/3x3_s2_pool3/3x3_s2_0_split -> pool3/3x3_s2_pool3/3x3_s2_0_split_2
I1130 10:45:07.648371  1342 net.cpp:380] pool3/3x3_s2_pool3/3x3_s2_0_split -> pool3/3x3_s2_pool3/3x3_s2_0_split_3
I1130 10:45:07.648414  1342 net.cpp:122] Setting up pool3/3x3_s2_pool3/3x3_s2_0_split
I1130 10:45:07.648422  1342 net.cpp:129] Top shape: 32 480 14 14 (3010560)
I1130 10:45:07.648427  1342 net.cpp:129] Top shape: 32 480 14 14 (3010560)
I1130 10:45:07.648432  1342 net.cpp:129] Top shape: 32 480 14 14 (3010560)
I1130 10:45:07.648437  1342 net.cpp:129] Top shape: 32 480 14 14 (3010560)
I1130 10:45:07.648442  1342 net.cpp:137] Memory required for data: 1139196032
I1130 10:45:07.648447  1342 layer_factory.hpp:77] Creating layer inception_4a/1x1
I1130 10:45:07.648455  1342 net.cpp:84] Creating Layer inception_4a/1x1
I1130 10:45:07.648459  1342 net.cpp:406] inception_4a/1x1 <- pool3/3x3_s2_pool3/3x3_s2_0_split_0
I1130 10:45:07.648466  1342 net.cpp:380] inception_4a/1x1 -> inception_4a/1x1
I1130 10:45:07.649114  1342 net.cpp:122] Setting up inception_4a/1x1
I1130 10:45:07.649123  1342 net.cpp:129] Top shape: 32 192 14 14 (1204224)
I1130 10:45:07.649128  1342 net.cpp:137] Memory required for data: 1144012928
I1130 10:45:07.649137  1342 layer_factory.hpp:77] Creating layer inception_4a/relu_1x1
I1130 10:45:07.649142  1342 net.cpp:84] Creating Layer inception_4a/relu_1x1
I1130 10:45:07.649147  1342 net.cpp:406] inception_4a/relu_1x1 <- inception_4a/1x1
I1130 10:45:07.649153  1342 net.cpp:367] inception_4a/relu_1x1 -> inception_4a/1x1 (in-place)
I1130 10:45:07.649160  1342 net.cpp:122] Setting up inception_4a/relu_1x1
I1130 10:45:07.649166  1342 net.cpp:129] Top shape: 32 192 14 14 (1204224)
I1130 10:45:07.649170  1342 net.cpp:137] Memory required for data: 1148829824
I1130 10:45:07.649174  1342 layer_factory.hpp:77] Creating layer inception_4a/3x3_reduce
I1130 10:45:07.649183  1342 net.cpp:84] Creating Layer inception_4a/3x3_reduce
I1130 10:45:07.649188  1342 net.cpp:406] inception_4a/3x3_reduce <- pool3/3x3_s2_pool3/3x3_s2_0_split_1
I1130 10:45:07.649194  1342 net.cpp:380] inception_4a/3x3_reduce -> inception_4a/3x3_reduce
I1130 10:45:07.649616  1342 net.cpp:122] Setting up inception_4a/3x3_reduce
I1130 10:45:07.649626  1342 net.cpp:129] Top shape: 32 96 14 14 (602112)
I1130 10:45:07.649631  1342 net.cpp:137] Memory required for data: 1151238272
I1130 10:45:07.649641  1342 layer_factory.hpp:77] Creating layer inception_4a/relu_3x3_reduce
I1130 10:45:07.649647  1342 net.cpp:84] Creating Layer inception_4a/relu_3x3_reduce
I1130 10:45:07.649652  1342 net.cpp:406] inception_4a/relu_3x3_reduce <- inception_4a/3x3_reduce
I1130 10:45:07.649658  1342 net.cpp:367] inception_4a/relu_3x3_reduce -> inception_4a/3x3_reduce (in-place)
I1130 10:45:07.649665  1342 net.cpp:122] Setting up inception_4a/relu_3x3_reduce
I1130 10:45:07.649672  1342 net.cpp:129] Top shape: 32 96 14 14 (602112)
I1130 10:45:07.649675  1342 net.cpp:137] Memory required for data: 1153646720
I1130 10:45:07.649680  1342 layer_factory.hpp:77] Creating layer inception_4a/3x3
I1130 10:45:07.649688  1342 net.cpp:84] Creating Layer inception_4a/3x3
I1130 10:45:07.649693  1342 net.cpp:406] inception_4a/3x3 <- inception_4a/3x3_reduce
I1130 10:45:07.649698  1342 net.cpp:380] inception_4a/3x3 -> inception_4a/3x3
I1130 10:45:07.651226  1342 net.cpp:122] Setting up inception_4a/3x3
I1130 10:45:07.651238  1342 net.cpp:129] Top shape: 32 208 14 14 (1304576)
I1130 10:45:07.651243  1342 net.cpp:137] Memory required for data: 1158865024
I1130 10:45:07.651249  1342 layer_factory.hpp:77] Creating layer inception_4a/relu_3x3
I1130 10:45:07.651257  1342 net.cpp:84] Creating Layer inception_4a/relu_3x3
I1130 10:45:07.651262  1342 net.cpp:406] inception_4a/relu_3x3 <- inception_4a/3x3
I1130 10:45:07.651268  1342 net.cpp:367] inception_4a/relu_3x3 -> inception_4a/3x3 (in-place)
I1130 10:45:07.651274  1342 net.cpp:122] Setting up inception_4a/relu_3x3
I1130 10:45:07.651281  1342 net.cpp:129] Top shape: 32 208 14 14 (1304576)
I1130 10:45:07.651288  1342 net.cpp:137] Memory required for data: 1164083328
I1130 10:45:07.651291  1342 layer_factory.hpp:77] Creating layer inception_4a/5x5_reduce
I1130 10:45:07.651299  1342 net.cpp:84] Creating Layer inception_4a/5x5_reduce
I1130 10:45:07.651309  1342 net.cpp:406] inception_4a/5x5_reduce <- pool3/3x3_s2_pool3/3x3_s2_0_split_2
I1130 10:45:07.651315  1342 net.cpp:380] inception_4a/5x5_reduce -> inception_4a/5x5_reduce
I1130 10:45:07.651525  1342 net.cpp:122] Setting up inception_4a/5x5_reduce
I1130 10:45:07.651533  1342 net.cpp:129] Top shape: 32 16 14 14 (100352)
I1130 10:45:07.651538  1342 net.cpp:137] Memory required for data: 1164484736
I1130 10:45:07.651546  1342 layer_factory.hpp:77] Creating layer inception_4a/relu_5x5_reduce
I1130 10:45:07.651553  1342 net.cpp:84] Creating Layer inception_4a/relu_5x5_reduce
I1130 10:45:07.651558  1342 net.cpp:406] inception_4a/relu_5x5_reduce <- inception_4a/5x5_reduce
I1130 10:45:07.651566  1342 net.cpp:367] inception_4a/relu_5x5_reduce -> inception_4a/5x5_reduce (in-place)
I1130 10:45:07.651573  1342 net.cpp:122] Setting up inception_4a/relu_5x5_reduce
I1130 10:45:07.651579  1342 net.cpp:129] Top shape: 32 16 14 14 (100352)
I1130 10:45:07.651584  1342 net.cpp:137] Memory required for data: 1164886144
I1130 10:45:07.651590  1342 layer_factory.hpp:77] Creating layer inception_4a/5x5
I1130 10:45:07.651597  1342 net.cpp:84] Creating Layer inception_4a/5x5
I1130 10:45:07.651602  1342 net.cpp:406] inception_4a/5x5 <- inception_4a/5x5_reduce
I1130 10:45:07.651609  1342 net.cpp:380] inception_4a/5x5 -> inception_4a/5x5
I1130 10:45:07.651881  1342 net.cpp:122] Setting up inception_4a/5x5
I1130 10:45:07.651891  1342 net.cpp:129] Top shape: 32 48 14 14 (301056)
I1130 10:45:07.651895  1342 net.cpp:137] Memory required for data: 1166090368
I1130 10:45:07.651902  1342 layer_factory.hpp:77] Creating layer inception_4a/relu_5x5
I1130 10:45:07.651909  1342 net.cpp:84] Creating Layer inception_4a/relu_5x5
I1130 10:45:07.651913  1342 net.cpp:406] inception_4a/relu_5x5 <- inception_4a/5x5
I1130 10:45:07.651919  1342 net.cpp:367] inception_4a/relu_5x5 -> inception_4a/5x5 (in-place)
I1130 10:45:07.651926  1342 net.cpp:122] Setting up inception_4a/relu_5x5
I1130 10:45:07.651932  1342 net.cpp:129] Top shape: 32 48 14 14 (301056)
I1130 10:45:07.651937  1342 net.cpp:137] Memory required for data: 1167294592
I1130 10:45:07.651942  1342 layer_factory.hpp:77] Creating layer inception_4a/pool
I1130 10:45:07.651948  1342 net.cpp:84] Creating Layer inception_4a/pool
I1130 10:45:07.651953  1342 net.cpp:406] inception_4a/pool <- pool3/3x3_s2_pool3/3x3_s2_0_split_3
I1130 10:45:07.651959  1342 net.cpp:380] inception_4a/pool -> inception_4a/pool
I1130 10:45:07.651990  1342 net.cpp:122] Setting up inception_4a/pool
I1130 10:45:07.651998  1342 net.cpp:129] Top shape: 32 480 14 14 (3010560)
I1130 10:45:07.652003  1342 net.cpp:137] Memory required for data: 1179336832
I1130 10:45:07.652009  1342 layer_factory.hpp:77] Creating layer inception_4a/pool_proj
I1130 10:45:07.652017  1342 net.cpp:84] Creating Layer inception_4a/pool_proj
I1130 10:45:07.652024  1342 net.cpp:406] inception_4a/pool_proj <- inception_4a/pool
I1130 10:45:07.652031  1342 net.cpp:380] inception_4a/pool_proj -> inception_4a/pool_proj
I1130 10:45:07.654088  1342 net.cpp:122] Setting up inception_4a/pool_proj
I1130 10:45:07.654103  1342 net.cpp:129] Top shape: 32 64 14 14 (401408)
I1130 10:45:07.654109  1342 net.cpp:137] Memory required for data: 1180942464
I1130 10:45:07.654117  1342 layer_factory.hpp:77] Creating layer inception_4a/relu_pool_proj
I1130 10:45:07.654125  1342 net.cpp:84] Creating Layer inception_4a/relu_pool_proj
I1130 10:45:07.654131  1342 net.cpp:406] inception_4a/relu_pool_proj <- inception_4a/pool_proj
I1130 10:45:07.654139  1342 net.cpp:367] inception_4a/relu_pool_proj -> inception_4a/pool_proj (in-place)
I1130 10:45:07.654146  1342 net.cpp:122] Setting up inception_4a/relu_pool_proj
I1130 10:45:07.654152  1342 net.cpp:129] Top shape: 32 64 14 14 (401408)
I1130 10:45:07.654156  1342 net.cpp:137] Memory required for data: 1182548096
I1130 10:45:07.654161  1342 layer_factory.hpp:77] Creating layer inception_4a/output
I1130 10:45:07.654167  1342 net.cpp:84] Creating Layer inception_4a/output
I1130 10:45:07.654172  1342 net.cpp:406] inception_4a/output <- inception_4a/1x1
I1130 10:45:07.654213  1342 net.cpp:406] inception_4a/output <- inception_4a/3x3
I1130 10:45:07.654219  1342 net.cpp:406] inception_4a/output <- inception_4a/5x5
I1130 10:45:07.654224  1342 net.cpp:406] inception_4a/output <- inception_4a/pool_proj
I1130 10:45:07.654229  1342 net.cpp:380] inception_4a/output -> inception_4a/output
I1130 10:45:07.654253  1342 net.cpp:122] Setting up inception_4a/output
I1130 10:45:07.654261  1342 net.cpp:129] Top shape: 32 512 14 14 (3211264)
I1130 10:45:07.654265  1342 net.cpp:137] Memory required for data: 1195393152
I1130 10:45:07.654269  1342 layer_factory.hpp:77] Creating layer inception_4a/output_inception_4a/output_0_split
I1130 10:45:07.654276  1342 net.cpp:84] Creating Layer inception_4a/output_inception_4a/output_0_split
I1130 10:45:07.654280  1342 net.cpp:406] inception_4a/output_inception_4a/output_0_split <- inception_4a/output
I1130 10:45:07.654286  1342 net.cpp:380] inception_4a/output_inception_4a/output_0_split -> inception_4a/output_inception_4a/output_0_split_0
I1130 10:45:07.654294  1342 net.cpp:380] inception_4a/output_inception_4a/output_0_split -> inception_4a/output_inception_4a/output_0_split_1
I1130 10:45:07.654302  1342 net.cpp:380] inception_4a/output_inception_4a/output_0_split -> inception_4a/output_inception_4a/output_0_split_2
I1130 10:45:07.654309  1342 net.cpp:380] inception_4a/output_inception_4a/output_0_split -> inception_4a/output_inception_4a/output_0_split_3
I1130 10:45:07.654353  1342 net.cpp:122] Setting up inception_4a/output_inception_4a/output_0_split
I1130 10:45:07.654361  1342 net.cpp:129] Top shape: 32 512 14 14 (3211264)
I1130 10:45:07.654366  1342 net.cpp:129] Top shape: 32 512 14 14 (3211264)
I1130 10:45:07.654371  1342 net.cpp:129] Top shape: 32 512 14 14 (3211264)
I1130 10:45:07.654376  1342 net.cpp:129] Top shape: 32 512 14 14 (3211264)
I1130 10:45:07.654381  1342 net.cpp:137] Memory required for data: 1246773376
I1130 10:45:07.654384  1342 layer_factory.hpp:77] Creating layer inception_4b/1x1
I1130 10:45:07.654393  1342 net.cpp:84] Creating Layer inception_4b/1x1
I1130 10:45:07.654398  1342 net.cpp:406] inception_4b/1x1 <- inception_4a/output_inception_4a/output_0_split_0
I1130 10:45:07.654405  1342 net.cpp:380] inception_4b/1x1 -> inception_4b/1x1
I1130 10:45:07.655021  1342 net.cpp:122] Setting up inception_4b/1x1
I1130 10:45:07.655031  1342 net.cpp:129] Top shape: 32 160 14 14 (1003520)
I1130 10:45:07.655036  1342 net.cpp:137] Memory required for data: 1250787456
I1130 10:45:07.655043  1342 layer_factory.hpp:77] Creating layer inception_4b/relu_1x1
I1130 10:45:07.655050  1342 net.cpp:84] Creating Layer inception_4b/relu_1x1
I1130 10:45:07.655055  1342 net.cpp:406] inception_4b/relu_1x1 <- inception_4b/1x1
I1130 10:45:07.655062  1342 net.cpp:367] inception_4b/relu_1x1 -> inception_4b/1x1 (in-place)
I1130 10:45:07.655069  1342 net.cpp:122] Setting up inception_4b/relu_1x1
I1130 10:45:07.655076  1342 net.cpp:129] Top shape: 32 160 14 14 (1003520)
I1130 10:45:07.655081  1342 net.cpp:137] Memory required for data: 1254801536
I1130 10:45:07.655084  1342 layer_factory.hpp:77] Creating layer inception_4b/3x3_reduce
I1130 10:45:07.655092  1342 net.cpp:84] Creating Layer inception_4b/3x3_reduce
I1130 10:45:07.655098  1342 net.cpp:406] inception_4b/3x3_reduce <- inception_4a/output_inception_4a/output_0_split_1
I1130 10:45:07.655104  1342 net.cpp:380] inception_4b/3x3_reduce -> inception_4b/3x3_reduce
I1130 10:45:07.655588  1342 net.cpp:122] Setting up inception_4b/3x3_reduce
I1130 10:45:07.655597  1342 net.cpp:129] Top shape: 32 112 14 14 (702464)
I1130 10:45:07.655601  1342 net.cpp:137] Memory required for data: 1257611392
I1130 10:45:07.655608  1342 layer_factory.hpp:77] Creating layer inception_4b/relu_3x3_reduce
I1130 10:45:07.655614  1342 net.cpp:84] Creating Layer inception_4b/relu_3x3_reduce
I1130 10:45:07.655619  1342 net.cpp:406] inception_4b/relu_3x3_reduce <- inception_4b/3x3_reduce
I1130 10:45:07.655625  1342 net.cpp:367] inception_4b/relu_3x3_reduce -> inception_4b/3x3_reduce (in-place)
I1130 10:45:07.655632  1342 net.cpp:122] Setting up inception_4b/relu_3x3_reduce
I1130 10:45:07.655637  1342 net.cpp:129] Top shape: 32 112 14 14 (702464)
I1130 10:45:07.655642  1342 net.cpp:137] Memory required for data: 1260421248
I1130 10:45:07.655645  1342 layer_factory.hpp:77] Creating layer inception_4b/3x3
I1130 10:45:07.655653  1342 net.cpp:84] Creating Layer inception_4b/3x3
I1130 10:45:07.655658  1342 net.cpp:406] inception_4b/3x3 <- inception_4b/3x3_reduce
I1130 10:45:07.655664  1342 net.cpp:380] inception_4b/3x3 -> inception_4b/3x3
I1130 10:45:07.657441  1342 net.cpp:122] Setting up inception_4b/3x3
I1130 10:45:07.657454  1342 net.cpp:129] Top shape: 32 224 14 14 (1404928)
I1130 10:45:07.657457  1342 net.cpp:137] Memory required for data: 1266040960
I1130 10:45:07.657465  1342 layer_factory.hpp:77] Creating layer inception_4b/relu_3x3
I1130 10:45:07.657472  1342 net.cpp:84] Creating Layer inception_4b/relu_3x3
I1130 10:45:07.657480  1342 net.cpp:406] inception_4b/relu_3x3 <- inception_4b/3x3
I1130 10:45:07.657486  1342 net.cpp:367] inception_4b/relu_3x3 -> inception_4b/3x3 (in-place)
I1130 10:45:07.657495  1342 net.cpp:122] Setting up inception_4b/relu_3x3
I1130 10:45:07.657500  1342 net.cpp:129] Top shape: 32 224 14 14 (1404928)
I1130 10:45:07.657505  1342 net.cpp:137] Memory required for data: 1271660672
I1130 10:45:07.657510  1342 layer_factory.hpp:77] Creating layer inception_4b/5x5_reduce
I1130 10:45:07.657523  1342 net.cpp:84] Creating Layer inception_4b/5x5_reduce
I1130 10:45:07.657528  1342 net.cpp:406] inception_4b/5x5_reduce <- inception_4a/output_inception_4a/output_0_split_2
I1130 10:45:07.657534  1342 net.cpp:380] inception_4b/5x5_reduce -> inception_4b/5x5_reduce
I1130 10:45:07.657773  1342 net.cpp:122] Setting up inception_4b/5x5_reduce
I1130 10:45:07.657783  1342 net.cpp:129] Top shape: 32 24 14 14 (150528)
I1130 10:45:07.657786  1342 net.cpp:137] Memory required for data: 1272262784
I1130 10:45:07.657793  1342 layer_factory.hpp:77] Creating layer inception_4b/relu_5x5_reduce
I1130 10:45:07.657800  1342 net.cpp:84] Creating Layer inception_4b/relu_5x5_reduce
I1130 10:45:07.657805  1342 net.cpp:406] inception_4b/relu_5x5_reduce <- inception_4b/5x5_reduce
I1130 10:45:07.657811  1342 net.cpp:367] inception_4b/relu_5x5_reduce -> inception_4b/5x5_reduce (in-place)
I1130 10:45:07.657819  1342 net.cpp:122] Setting up inception_4b/relu_5x5_reduce
I1130 10:45:07.657824  1342 net.cpp:129] Top shape: 32 24 14 14 (150528)
I1130 10:45:07.657829  1342 net.cpp:137] Memory required for data: 1272864896
I1130 10:45:07.657833  1342 layer_factory.hpp:77] Creating layer inception_4b/5x5
I1130 10:45:07.657840  1342 net.cpp:84] Creating Layer inception_4b/5x5
I1130 10:45:07.657845  1342 net.cpp:406] inception_4b/5x5 <- inception_4b/5x5_reduce
I1130 10:45:07.657851  1342 net.cpp:380] inception_4b/5x5 -> inception_4b/5x5
I1130 10:45:07.658608  1342 net.cpp:122] Setting up inception_4b/5x5
I1130 10:45:07.658618  1342 net.cpp:129] Top shape: 32 64 14 14 (401408)
I1130 10:45:07.658622  1342 net.cpp:137] Memory required for data: 1274470528
I1130 10:45:07.658629  1342 layer_factory.hpp:77] Creating layer inception_4b/relu_5x5
I1130 10:45:07.658637  1342 net.cpp:84] Creating Layer inception_4b/relu_5x5
I1130 10:45:07.658641  1342 net.cpp:406] inception_4b/relu_5x5 <- inception_4b/5x5
I1130 10:45:07.658648  1342 net.cpp:367] inception_4b/relu_5x5 -> inception_4b/5x5 (in-place)
I1130 10:45:07.658655  1342 net.cpp:122] Setting up inception_4b/relu_5x5
I1130 10:45:07.658661  1342 net.cpp:129] Top shape: 32 64 14 14 (401408)
I1130 10:45:07.658666  1342 net.cpp:137] Memory required for data: 1276076160
I1130 10:45:07.658670  1342 layer_factory.hpp:77] Creating layer inception_4b/pool
I1130 10:45:07.658677  1342 net.cpp:84] Creating Layer inception_4b/pool
I1130 10:45:07.658682  1342 net.cpp:406] inception_4b/pool <- inception_4a/output_inception_4a/output_0_split_3
I1130 10:45:07.658689  1342 net.cpp:380] inception_4b/pool -> inception_4b/pool
I1130 10:45:07.658721  1342 net.cpp:122] Setting up inception_4b/pool
I1130 10:45:07.658730  1342 net.cpp:129] Top shape: 32 512 14 14 (3211264)
I1130 10:45:07.658733  1342 net.cpp:137] Memory required for data: 1288921216
I1130 10:45:07.658738  1342 layer_factory.hpp:77] Creating layer inception_4b/pool_proj
I1130 10:45:07.658746  1342 net.cpp:84] Creating Layer inception_4b/pool_proj
I1130 10:45:07.658751  1342 net.cpp:406] inception_4b/pool_proj <- inception_4b/pool
I1130 10:45:07.658757  1342 net.cpp:380] inception_4b/pool_proj -> inception_4b/pool_proj
I1130 10:45:07.659106  1342 net.cpp:122] Setting up inception_4b/pool_proj
I1130 10:45:07.659116  1342 net.cpp:129] Top shape: 32 64 14 14 (401408)
I1130 10:45:07.659121  1342 net.cpp:137] Memory required for data: 1290526848
I1130 10:45:07.659127  1342 layer_factory.hpp:77] Creating layer inception_4b/relu_pool_proj
I1130 10:45:07.659133  1342 net.cpp:84] Creating Layer inception_4b/relu_pool_proj
I1130 10:45:07.659138  1342 net.cpp:406] inception_4b/relu_pool_proj <- inception_4b/pool_proj
I1130 10:45:07.659145  1342 net.cpp:367] inception_4b/relu_pool_proj -> inception_4b/pool_proj (in-place)
I1130 10:45:07.659152  1342 net.cpp:122] Setting up inception_4b/relu_pool_proj
I1130 10:45:07.659158  1342 net.cpp:129] Top shape: 32 64 14 14 (401408)
I1130 10:45:07.659162  1342 net.cpp:137] Memory required for data: 1292132480
I1130 10:45:07.659168  1342 layer_factory.hpp:77] Creating layer inception_4b/output
I1130 10:45:07.659173  1342 net.cpp:84] Creating Layer inception_4b/output
I1130 10:45:07.659178  1342 net.cpp:406] inception_4b/output <- inception_4b/1x1
I1130 10:45:07.659183  1342 net.cpp:406] inception_4b/output <- inception_4b/3x3
I1130 10:45:07.659189  1342 net.cpp:406] inception_4b/output <- inception_4b/5x5
I1130 10:45:07.659194  1342 net.cpp:406] inception_4b/output <- inception_4b/pool_proj
I1130 10:45:07.659200  1342 net.cpp:380] inception_4b/output -> inception_4b/output
I1130 10:45:07.659222  1342 net.cpp:122] Setting up inception_4b/output
I1130 10:45:07.659229  1342 net.cpp:129] Top shape: 32 512 14 14 (3211264)
I1130 10:45:07.659234  1342 net.cpp:137] Memory required for data: 1304977536
I1130 10:45:07.659237  1342 layer_factory.hpp:77] Creating layer inception_4b/output_inception_4b/output_0_split
I1130 10:45:07.659245  1342 net.cpp:84] Creating Layer inception_4b/output_inception_4b/output_0_split
I1130 10:45:07.659250  1342 net.cpp:406] inception_4b/output_inception_4b/output_0_split <- inception_4b/output
I1130 10:45:07.659255  1342 net.cpp:380] inception_4b/output_inception_4b/output_0_split -> inception_4b/output_inception_4b/output_0_split_0
I1130 10:45:07.659263  1342 net.cpp:380] inception_4b/output_inception_4b/output_0_split -> inception_4b/output_inception_4b/output_0_split_1
I1130 10:45:07.659271  1342 net.cpp:380] inception_4b/output_inception_4b/output_0_split -> inception_4b/output_inception_4b/output_0_split_2
I1130 10:45:07.659277  1342 net.cpp:380] inception_4b/output_inception_4b/output_0_split -> inception_4b/output_inception_4b/output_0_split_3
I1130 10:45:07.659322  1342 net.cpp:122] Setting up inception_4b/output_inception_4b/output_0_split
I1130 10:45:07.659328  1342 net.cpp:129] Top shape: 32 512 14 14 (3211264)
I1130 10:45:07.659334  1342 net.cpp:129] Top shape: 32 512 14 14 (3211264)
I1130 10:45:07.659339  1342 net.cpp:129] Top shape: 32 512 14 14 (3211264)
I1130 10:45:07.659344  1342 net.cpp:129] Top shape: 32 512 14 14 (3211264)
I1130 10:45:07.659348  1342 net.cpp:137] Memory required for data: 1356357760
I1130 10:45:07.659353  1342 layer_factory.hpp:77] Creating layer inception_4c/1x1
I1130 10:45:07.659360  1342 net.cpp:84] Creating Layer inception_4c/1x1
I1130 10:45:07.659365  1342 net.cpp:406] inception_4c/1x1 <- inception_4b/output_inception_4b/output_0_split_0
I1130 10:45:07.659373  1342 net.cpp:380] inception_4c/1x1 -> inception_4c/1x1
I1130 10:45:07.659881  1342 net.cpp:122] Setting up inception_4c/1x1
I1130 10:45:07.659890  1342 net.cpp:129] Top shape: 32 128 14 14 (802816)
I1130 10:45:07.659894  1342 net.cpp:137] Memory required for data: 1359569024
I1130 10:45:07.659901  1342 layer_factory.hpp:77] Creating layer inception_4c/relu_1x1
I1130 10:45:07.659909  1342 net.cpp:84] Creating Layer inception_4c/relu_1x1
I1130 10:45:07.659914  1342 net.cpp:406] inception_4c/relu_1x1 <- inception_4c/1x1
I1130 10:45:07.659919  1342 net.cpp:367] inception_4c/relu_1x1 -> inception_4c/1x1 (in-place)
I1130 10:45:07.659926  1342 net.cpp:122] Setting up inception_4c/relu_1x1
I1130 10:45:07.659931  1342 net.cpp:129] Top shape: 32 128 14 14 (802816)
I1130 10:45:07.659936  1342 net.cpp:137] Memory required for data: 1362780288
I1130 10:45:07.659940  1342 layer_factory.hpp:77] Creating layer inception_4c/3x3_reduce
I1130 10:45:07.659947  1342 net.cpp:84] Creating Layer inception_4c/3x3_reduce
I1130 10:45:07.659952  1342 net.cpp:406] inception_4c/3x3_reduce <- inception_4b/output_inception_4b/output_0_split_1
I1130 10:45:07.659960  1342 net.cpp:380] inception_4c/3x3_reduce -> inception_4c/3x3_reduce
I1130 10:45:07.660470  1342 net.cpp:122] Setting up inception_4c/3x3_reduce
I1130 10:45:07.660480  1342 net.cpp:129] Top shape: 32 128 14 14 (802816)
I1130 10:45:07.660485  1342 net.cpp:137] Memory required for data: 1365991552
I1130 10:45:07.660490  1342 layer_factory.hpp:77] Creating layer inception_4c/relu_3x3_reduce
I1130 10:45:07.660496  1342 net.cpp:84] Creating Layer inception_4c/relu_3x3_reduce
I1130 10:45:07.660501  1342 net.cpp:406] inception_4c/relu_3x3_reduce <- inception_4c/3x3_reduce
I1130 10:45:07.660507  1342 net.cpp:367] inception_4c/relu_3x3_reduce -> inception_4c/3x3_reduce (in-place)
I1130 10:45:07.660514  1342 net.cpp:122] Setting up inception_4c/relu_3x3_reduce
I1130 10:45:07.660521  1342 net.cpp:129] Top shape: 32 128 14 14 (802816)
I1130 10:45:07.660524  1342 net.cpp:137] Memory required for data: 1369202816
I1130 10:45:07.660528  1342 layer_factory.hpp:77] Creating layer inception_4c/3x3
I1130 10:45:07.660537  1342 net.cpp:84] Creating Layer inception_4c/3x3
I1130 10:45:07.660542  1342 net.cpp:406] inception_4c/3x3 <- inception_4c/3x3_reduce
I1130 10:45:07.660547  1342 net.cpp:380] inception_4c/3x3 -> inception_4c/3x3
I1130 10:45:07.662714  1342 net.cpp:122] Setting up inception_4c/3x3
I1130 10:45:07.662727  1342 net.cpp:129] Top shape: 32 256 14 14 (1605632)
I1130 10:45:07.662731  1342 net.cpp:137] Memory required for data: 1375625344
I1130 10:45:07.662739  1342 layer_factory.hpp:77] Creating layer inception_4c/relu_3x3
I1130 10:45:07.662745  1342 net.cpp:84] Creating Layer inception_4c/relu_3x3
I1130 10:45:07.662751  1342 net.cpp:406] inception_4c/relu_3x3 <- inception_4c/3x3
I1130 10:45:07.662758  1342 net.cpp:367] inception_4c/relu_3x3 -> inception_4c/3x3 (in-place)
I1130 10:45:07.662777  1342 net.cpp:122] Setting up inception_4c/relu_3x3
I1130 10:45:07.662783  1342 net.cpp:129] Top shape: 32 256 14 14 (1605632)
I1130 10:45:07.662788  1342 net.cpp:137] Memory required for data: 1382047872
I1130 10:45:07.662792  1342 layer_factory.hpp:77] Creating layer inception_4c/5x5_reduce
I1130 10:45:07.662801  1342 net.cpp:84] Creating Layer inception_4c/5x5_reduce
I1130 10:45:07.662806  1342 net.cpp:406] inception_4c/5x5_reduce <- inception_4b/output_inception_4b/output_0_split_2
I1130 10:45:07.662812  1342 net.cpp:380] inception_4c/5x5_reduce -> inception_4c/5x5_reduce
I1130 10:45:07.663056  1342 net.cpp:122] Setting up inception_4c/5x5_reduce
I1130 10:45:07.663065  1342 net.cpp:129] Top shape: 32 24 14 14 (150528)
I1130 10:45:07.663070  1342 net.cpp:137] Memory required for data: 1382649984
I1130 10:45:07.663079  1342 layer_factory.hpp:77] Creating layer inception_4c/relu_5x5_reduce
I1130 10:45:07.663084  1342 net.cpp:84] Creating Layer inception_4c/relu_5x5_reduce
I1130 10:45:07.663089  1342 net.cpp:406] inception_4c/relu_5x5_reduce <- inception_4c/5x5_reduce
I1130 10:45:07.663095  1342 net.cpp:367] inception_4c/relu_5x5_reduce -> inception_4c/5x5_reduce (in-place)
I1130 10:45:07.663102  1342 net.cpp:122] Setting up inception_4c/relu_5x5_reduce
I1130 10:45:07.663107  1342 net.cpp:129] Top shape: 32 24 14 14 (150528)
I1130 10:45:07.663112  1342 net.cpp:137] Memory required for data: 1383252096
I1130 10:45:07.663115  1342 layer_factory.hpp:77] Creating layer inception_4c/5x5
I1130 10:45:07.663123  1342 net.cpp:84] Creating Layer inception_4c/5x5
I1130 10:45:07.663128  1342 net.cpp:406] inception_4c/5x5 <- inception_4c/5x5_reduce
I1130 10:45:07.663134  1342 net.cpp:380] inception_4c/5x5 -> inception_4c/5x5
I1130 10:45:07.663520  1342 net.cpp:122] Setting up inception_4c/5x5
I1130 10:45:07.663529  1342 net.cpp:129] Top shape: 32 64 14 14 (401408)
I1130 10:45:07.663534  1342 net.cpp:137] Memory required for data: 1384857728
I1130 10:45:07.663542  1342 layer_factory.hpp:77] Creating layer inception_4c/relu_5x5
I1130 10:45:07.663547  1342 net.cpp:84] Creating Layer inception_4c/relu_5x5
I1130 10:45:07.663553  1342 net.cpp:406] inception_4c/relu_5x5 <- inception_4c/5x5
I1130 10:45:07.663559  1342 net.cpp:367] inception_4c/relu_5x5 -> inception_4c/5x5 (in-place)
I1130 10:45:07.663566  1342 net.cpp:122] Setting up inception_4c/relu_5x5
I1130 10:45:07.663571  1342 net.cpp:129] Top shape: 32 64 14 14 (401408)
I1130 10:45:07.663575  1342 net.cpp:137] Memory required for data: 1386463360
I1130 10:45:07.663579  1342 layer_factory.hpp:77] Creating layer inception_4c/pool
I1130 10:45:07.663586  1342 net.cpp:84] Creating Layer inception_4c/pool
I1130 10:45:07.663591  1342 net.cpp:406] inception_4c/pool <- inception_4b/output_inception_4b/output_0_split_3
I1130 10:45:07.663597  1342 net.cpp:380] inception_4c/pool -> inception_4c/pool
I1130 10:45:07.663630  1342 net.cpp:122] Setting up inception_4c/pool
I1130 10:45:07.663638  1342 net.cpp:129] Top shape: 32 512 14 14 (3211264)
I1130 10:45:07.663642  1342 net.cpp:137] Memory required for data: 1399308416
I1130 10:45:07.663646  1342 layer_factory.hpp:77] Creating layer inception_4c/pool_proj
I1130 10:45:07.663655  1342 net.cpp:84] Creating Layer inception_4c/pool_proj
I1130 10:45:07.663661  1342 net.cpp:406] inception_4c/pool_proj <- inception_4c/pool
I1130 10:45:07.663666  1342 net.cpp:380] inception_4c/pool_proj -> inception_4c/pool_proj
I1130 10:45:07.664410  1342 net.cpp:122] Setting up inception_4c/pool_proj
I1130 10:45:07.664422  1342 net.cpp:129] Top shape: 32 64 14 14 (401408)
I1130 10:45:07.664425  1342 net.cpp:137] Memory required for data: 1400914048
I1130 10:45:07.664440  1342 layer_factory.hpp:77] Creating layer inception_4c/relu_pool_proj
I1130 10:45:07.664448  1342 net.cpp:84] Creating Layer inception_4c/relu_pool_proj
I1130 10:45:07.664453  1342 net.cpp:406] inception_4c/relu_pool_proj <- inception_4c/pool_proj
I1130 10:45:07.664459  1342 net.cpp:367] inception_4c/relu_pool_proj -> inception_4c/pool_proj (in-place)
I1130 10:45:07.664466  1342 net.cpp:122] Setting up inception_4c/relu_pool_proj
I1130 10:45:07.664472  1342 net.cpp:129] Top shape: 32 64 14 14 (401408)
I1130 10:45:07.664477  1342 net.cpp:137] Memory required for data: 1402519680
I1130 10:45:07.664480  1342 layer_factory.hpp:77] Creating layer inception_4c/output
I1130 10:45:07.664487  1342 net.cpp:84] Creating Layer inception_4c/output
I1130 10:45:07.664492  1342 net.cpp:406] inception_4c/output <- inception_4c/1x1
I1130 10:45:07.664497  1342 net.cpp:406] inception_4c/output <- inception_4c/3x3
I1130 10:45:07.664502  1342 net.cpp:406] inception_4c/output <- inception_4c/5x5
I1130 10:45:07.664506  1342 net.cpp:406] inception_4c/output <- inception_4c/pool_proj
I1130 10:45:07.664513  1342 net.cpp:380] inception_4c/output -> inception_4c/output
I1130 10:45:07.664535  1342 net.cpp:122] Setting up inception_4c/output
I1130 10:45:07.664543  1342 net.cpp:129] Top shape: 32 512 14 14 (3211264)
I1130 10:45:07.664547  1342 net.cpp:137] Memory required for data: 1415364736
I1130 10:45:07.664551  1342 layer_factory.hpp:77] Creating layer inception_4c/output_inception_4c/output_0_split
I1130 10:45:07.664558  1342 net.cpp:84] Creating Layer inception_4c/output_inception_4c/output_0_split
I1130 10:45:07.664563  1342 net.cpp:406] inception_4c/output_inception_4c/output_0_split <- inception_4c/output
I1130 10:45:07.664571  1342 net.cpp:380] inception_4c/output_inception_4c/output_0_split -> inception_4c/output_inception_4c/output_0_split_0
I1130 10:45:07.664578  1342 net.cpp:380] inception_4c/output_inception_4c/output_0_split -> inception_4c/output_inception_4c/output_0_split_1
I1130 10:45:07.664584  1342 net.cpp:380] inception_4c/output_inception_4c/output_0_split -> inception_4c/output_inception_4c/output_0_split_2
I1130 10:45:07.664592  1342 net.cpp:380] inception_4c/output_inception_4c/output_0_split -> inception_4c/output_inception_4c/output_0_split_3
I1130 10:45:07.664634  1342 net.cpp:122] Setting up inception_4c/output_inception_4c/output_0_split
I1130 10:45:07.664641  1342 net.cpp:129] Top shape: 32 512 14 14 (3211264)
I1130 10:45:07.664647  1342 net.cpp:129] Top shape: 32 512 14 14 (3211264)
I1130 10:45:07.664652  1342 net.cpp:129] Top shape: 32 512 14 14 (3211264)
I1130 10:45:07.664657  1342 net.cpp:129] Top shape: 32 512 14 14 (3211264)
I1130 10:45:07.664661  1342 net.cpp:137] Memory required for data: 1466744960
I1130 10:45:07.664665  1342 layer_factory.hpp:77] Creating layer inception_4d/1x1
I1130 10:45:07.664674  1342 net.cpp:84] Creating Layer inception_4d/1x1
I1130 10:45:07.664679  1342 net.cpp:406] inception_4d/1x1 <- inception_4c/output_inception_4c/output_0_split_0
I1130 10:45:07.664685  1342 net.cpp:380] inception_4d/1x1 -> inception_4d/1x1
I1130 10:45:07.665155  1342 net.cpp:122] Setting up inception_4d/1x1
I1130 10:45:07.665164  1342 net.cpp:129] Top shape: 32 112 14 14 (702464)
I1130 10:45:07.665169  1342 net.cpp:137] Memory required for data: 1469554816
I1130 10:45:07.665175  1342 layer_factory.hpp:77] Creating layer inception_4d/relu_1x1
I1130 10:45:07.665182  1342 net.cpp:84] Creating Layer inception_4d/relu_1x1
I1130 10:45:07.665187  1342 net.cpp:406] inception_4d/relu_1x1 <- inception_4d/1x1
I1130 10:45:07.665194  1342 net.cpp:367] inception_4d/relu_1x1 -> inception_4d/1x1 (in-place)
I1130 10:45:07.665199  1342 net.cpp:122] Setting up inception_4d/relu_1x1
I1130 10:45:07.665205  1342 net.cpp:129] Top shape: 32 112 14 14 (702464)
I1130 10:45:07.665210  1342 net.cpp:137] Memory required for data: 1472364672
I1130 10:45:07.665213  1342 layer_factory.hpp:77] Creating layer inception_4d/3x3_reduce
I1130 10:45:07.665222  1342 net.cpp:84] Creating Layer inception_4d/3x3_reduce
I1130 10:45:07.665226  1342 net.cpp:406] inception_4d/3x3_reduce <- inception_4c/output_inception_4c/output_0_split_1
I1130 10:45:07.665233  1342 net.cpp:380] inception_4d/3x3_reduce -> inception_4d/3x3_reduce
I1130 10:45:07.665848  1342 net.cpp:122] Setting up inception_4d/3x3_reduce
I1130 10:45:07.665858  1342 net.cpp:129] Top shape: 32 144 14 14 (903168)
I1130 10:45:07.665863  1342 net.cpp:137] Memory required for data: 1475977344
I1130 10:45:07.665869  1342 layer_factory.hpp:77] Creating layer inception_4d/relu_3x3_reduce
I1130 10:45:07.665876  1342 net.cpp:84] Creating Layer inception_4d/relu_3x3_reduce
I1130 10:45:07.665882  1342 net.cpp:406] inception_4d/relu_3x3_reduce <- inception_4d/3x3_reduce
I1130 10:45:07.665889  1342 net.cpp:367] inception_4d/relu_3x3_reduce -> inception_4d/3x3_reduce (in-place)
I1130 10:45:07.665897  1342 net.cpp:122] Setting up inception_4d/relu_3x3_reduce
I1130 10:45:07.665904  1342 net.cpp:129] Top shape: 32 144 14 14 (903168)
I1130 10:45:07.665910  1342 net.cpp:137] Memory required for data: 1479590016
I1130 10:45:07.665913  1342 layer_factory.hpp:77] Creating layer inception_4d/3x3
I1130 10:45:07.665922  1342 net.cpp:84] Creating Layer inception_4d/3x3
I1130 10:45:07.665930  1342 net.cpp:406] inception_4d/3x3 <- inception_4d/3x3_reduce
I1130 10:45:07.665936  1342 net.cpp:380] inception_4d/3x3 -> inception_4d/3x3
I1130 10:45:07.669101  1342 net.cpp:122] Setting up inception_4d/3x3
I1130 10:45:07.669112  1342 net.cpp:129] Top shape: 32 288 14 14 (1806336)
I1130 10:45:07.669117  1342 net.cpp:137] Memory required for data: 1486815360
I1130 10:45:07.669126  1342 layer_factory.hpp:77] Creating layer inception_4d/relu_3x3
I1130 10:45:07.669132  1342 net.cpp:84] Creating Layer inception_4d/relu_3x3
I1130 10:45:07.669138  1342 net.cpp:406] inception_4d/relu_3x3 <- inception_4d/3x3
I1130 10:45:07.669144  1342 net.cpp:367] inception_4d/relu_3x3 -> inception_4d/3x3 (in-place)
I1130 10:45:07.669152  1342 net.cpp:122] Setting up inception_4d/relu_3x3
I1130 10:45:07.669157  1342 net.cpp:129] Top shape: 32 288 14 14 (1806336)
I1130 10:45:07.669162  1342 net.cpp:137] Memory required for data: 1494040704
I1130 10:45:07.669165  1342 layer_factory.hpp:77] Creating layer inception_4d/5x5_reduce
I1130 10:45:07.669174  1342 net.cpp:84] Creating Layer inception_4d/5x5_reduce
I1130 10:45:07.669178  1342 net.cpp:406] inception_4d/5x5_reduce <- inception_4c/output_inception_4c/output_0_split_2
I1130 10:45:07.669185  1342 net.cpp:380] inception_4d/5x5_reduce -> inception_4d/5x5_reduce
I1130 10:45:07.669457  1342 net.cpp:122] Setting up inception_4d/5x5_reduce
I1130 10:45:07.669466  1342 net.cpp:129] Top shape: 32 32 14 14 (200704)
I1130 10:45:07.669471  1342 net.cpp:137] Memory required for data: 1494843520
I1130 10:45:07.669477  1342 layer_factory.hpp:77] Creating layer inception_4d/relu_5x5_reduce
I1130 10:45:07.669484  1342 net.cpp:84] Creating Layer inception_4d/relu_5x5_reduce
I1130 10:45:07.669489  1342 net.cpp:406] inception_4d/relu_5x5_reduce <- inception_4d/5x5_reduce
I1130 10:45:07.669495  1342 net.cpp:367] inception_4d/relu_5x5_reduce -> inception_4d/5x5_reduce (in-place)
I1130 10:45:07.669502  1342 net.cpp:122] Setting up inception_4d/relu_5x5_reduce
I1130 10:45:07.669507  1342 net.cpp:129] Top shape: 32 32 14 14 (200704)
I1130 10:45:07.669512  1342 net.cpp:137] Memory required for data: 1495646336
I1130 10:45:07.669515  1342 layer_factory.hpp:77] Creating layer inception_4d/5x5
I1130 10:45:07.669524  1342 net.cpp:84] Creating Layer inception_4d/5x5
I1130 10:45:07.669529  1342 net.cpp:406] inception_4d/5x5 <- inception_4d/5x5_reduce
I1130 10:45:07.669535  1342 net.cpp:380] inception_4d/5x5 -> inception_4d/5x5
I1130 10:45:07.669986  1342 net.cpp:122] Setting up inception_4d/5x5
I1130 10:45:07.669994  1342 net.cpp:129] Top shape: 32 64 14 14 (401408)
I1130 10:45:07.669999  1342 net.cpp:137] Memory required for data: 1497251968
I1130 10:45:07.670006  1342 layer_factory.hpp:77] Creating layer inception_4d/relu_5x5
I1130 10:45:07.670011  1342 net.cpp:84] Creating Layer inception_4d/relu_5x5
I1130 10:45:07.670017  1342 net.cpp:406] inception_4d/relu_5x5 <- inception_4d/5x5
I1130 10:45:07.670022  1342 net.cpp:367] inception_4d/relu_5x5 -> inception_4d/5x5 (in-place)
I1130 10:45:07.670029  1342 net.cpp:122] Setting up inception_4d/relu_5x5
I1130 10:45:07.670034  1342 net.cpp:129] Top shape: 32 64 14 14 (401408)
I1130 10:45:07.670038  1342 net.cpp:137] Memory required for data: 1498857600
I1130 10:45:07.670042  1342 layer_factory.hpp:77] Creating layer inception_4d/pool
I1130 10:45:07.670049  1342 net.cpp:84] Creating Layer inception_4d/pool
I1130 10:45:07.670054  1342 net.cpp:406] inception_4d/pool <- inception_4c/output_inception_4c/output_0_split_3
I1130 10:45:07.670060  1342 net.cpp:380] inception_4d/pool -> inception_4d/pool
I1130 10:45:07.670092  1342 net.cpp:122] Setting up inception_4d/pool
I1130 10:45:07.670099  1342 net.cpp:129] Top shape: 32 512 14 14 (3211264)
I1130 10:45:07.670104  1342 net.cpp:137] Memory required for data: 1511702656
I1130 10:45:07.670107  1342 layer_factory.hpp:77] Creating layer inception_4d/pool_proj
I1130 10:45:07.670117  1342 net.cpp:84] Creating Layer inception_4d/pool_proj
I1130 10:45:07.670122  1342 net.cpp:406] inception_4d/pool_proj <- inception_4d/pool
I1130 10:45:07.670130  1342 net.cpp:380] inception_4d/pool_proj -> inception_4d/pool_proj
I1130 10:45:07.670475  1342 net.cpp:122] Setting up inception_4d/pool_proj
I1130 10:45:07.670483  1342 net.cpp:129] Top shape: 32 64 14 14 (401408)
I1130 10:45:07.670487  1342 net.cpp:137] Memory required for data: 1513308288
I1130 10:45:07.670495  1342 layer_factory.hpp:77] Creating layer inception_4d/relu_pool_proj
I1130 10:45:07.670500  1342 net.cpp:84] Creating Layer inception_4d/relu_pool_proj
I1130 10:45:07.670506  1342 net.cpp:406] inception_4d/relu_pool_proj <- inception_4d/pool_proj
I1130 10:45:07.670511  1342 net.cpp:367] inception_4d/relu_pool_proj -> inception_4d/pool_proj (in-place)
I1130 10:45:07.670518  1342 net.cpp:122] Setting up inception_4d/relu_pool_proj
I1130 10:45:07.670523  1342 net.cpp:129] Top shape: 32 64 14 14 (401408)
I1130 10:45:07.670528  1342 net.cpp:137] Memory required for data: 1514913920
I1130 10:45:07.670531  1342 layer_factory.hpp:77] Creating layer inception_4d/output
I1130 10:45:07.670537  1342 net.cpp:84] Creating Layer inception_4d/output
I1130 10:45:07.670542  1342 net.cpp:406] inception_4d/output <- inception_4d/1x1
I1130 10:45:07.670547  1342 net.cpp:406] inception_4d/output <- inception_4d/3x3
I1130 10:45:07.670552  1342 net.cpp:406] inception_4d/output <- inception_4d/5x5
I1130 10:45:07.670557  1342 net.cpp:406] inception_4d/output <- inception_4d/pool_proj
I1130 10:45:07.670562  1342 net.cpp:380] inception_4d/output -> inception_4d/output
I1130 10:45:07.670584  1342 net.cpp:122] Setting up inception_4d/output
I1130 10:45:07.670593  1342 net.cpp:129] Top shape: 32 528 14 14 (3311616)
I1130 10:45:07.670596  1342 net.cpp:137] Memory required for data: 1528160384
I1130 10:45:07.670600  1342 layer_factory.hpp:77] Creating layer inception_4d/output_inception_4d/output_0_split
I1130 10:45:07.670608  1342 net.cpp:84] Creating Layer inception_4d/output_inception_4d/output_0_split
I1130 10:45:07.670613  1342 net.cpp:406] inception_4d/output_inception_4d/output_0_split <- inception_4d/output
I1130 10:45:07.670619  1342 net.cpp:380] inception_4d/output_inception_4d/output_0_split -> inception_4d/output_inception_4d/output_0_split_0
I1130 10:45:07.670626  1342 net.cpp:380] inception_4d/output_inception_4d/output_0_split -> inception_4d/output_inception_4d/output_0_split_1
I1130 10:45:07.670634  1342 net.cpp:380] inception_4d/output_inception_4d/output_0_split -> inception_4d/output_inception_4d/output_0_split_2
I1130 10:45:07.670641  1342 net.cpp:380] inception_4d/output_inception_4d/output_0_split -> inception_4d/output_inception_4d/output_0_split_3
I1130 10:45:07.670684  1342 net.cpp:122] Setting up inception_4d/output_inception_4d/output_0_split
I1130 10:45:07.670691  1342 net.cpp:129] Top shape: 32 528 14 14 (3311616)
I1130 10:45:07.670697  1342 net.cpp:129] Top shape: 32 528 14 14 (3311616)
I1130 10:45:07.670702  1342 net.cpp:129] Top shape: 32 528 14 14 (3311616)
I1130 10:45:07.670707  1342 net.cpp:129] Top shape: 32 528 14 14 (3311616)
I1130 10:45:07.670711  1342 net.cpp:137] Memory required for data: 1581146240
I1130 10:45:07.670716  1342 layer_factory.hpp:77] Creating layer inception_4e/1x1
I1130 10:45:07.670723  1342 net.cpp:84] Creating Layer inception_4e/1x1
I1130 10:45:07.670728  1342 net.cpp:406] inception_4e/1x1 <- inception_4d/output_inception_4d/output_0_split_0
I1130 10:45:07.670735  1342 net.cpp:380] inception_4e/1x1 -> inception_4e/1x1
I1130 10:45:07.672029  1342 net.cpp:122] Setting up inception_4e/1x1
I1130 10:45:07.672041  1342 net.cpp:129] Top shape: 32 256 14 14 (1605632)
I1130 10:45:07.672045  1342 net.cpp:137] Memory required for data: 1587568768
I1130 10:45:07.672053  1342 layer_factory.hpp:77] Creating layer inception_4e/relu_1x1
I1130 10:45:07.672061  1342 net.cpp:84] Creating Layer inception_4e/relu_1x1
I1130 10:45:07.672066  1342 net.cpp:406] inception_4e/relu_1x1 <- inception_4e/1x1
I1130 10:45:07.672073  1342 net.cpp:367] inception_4e/relu_1x1 -> inception_4e/1x1 (in-place)
I1130 10:45:07.672080  1342 net.cpp:122] Setting up inception_4e/relu_1x1
I1130 10:45:07.672086  1342 net.cpp:129] Top shape: 32 256 14 14 (1605632)
I1130 10:45:07.672091  1342 net.cpp:137] Memory required for data: 1593991296
I1130 10:45:07.672094  1342 layer_factory.hpp:77] Creating layer inception_4e/3x3_reduce
I1130 10:45:07.672102  1342 net.cpp:84] Creating Layer inception_4e/3x3_reduce
I1130 10:45:07.672107  1342 net.cpp:406] inception_4e/3x3_reduce <- inception_4d/output_inception_4d/output_0_split_1
I1130 10:45:07.672113  1342 net.cpp:380] inception_4e/3x3_reduce -> inception_4e/3x3_reduce
I1130 10:45:07.672732  1342 net.cpp:122] Setting up inception_4e/3x3_reduce
I1130 10:45:07.672741  1342 net.cpp:129] Top shape: 32 160 14 14 (1003520)
I1130 10:45:07.672746  1342 net.cpp:137] Memory required for data: 1598005376
I1130 10:45:07.672752  1342 layer_factory.hpp:77] Creating layer inception_4e/relu_3x3_reduce
I1130 10:45:07.672760  1342 net.cpp:84] Creating Layer inception_4e/relu_3x3_reduce
I1130 10:45:07.672763  1342 net.cpp:406] inception_4e/relu_3x3_reduce <- inception_4e/3x3_reduce
I1130 10:45:07.672770  1342 net.cpp:367] inception_4e/relu_3x3_reduce -> inception_4e/3x3_reduce (in-place)
I1130 10:45:07.672776  1342 net.cpp:122] Setting up inception_4e/relu_3x3_reduce
I1130 10:45:07.672782  1342 net.cpp:129] Top shape: 32 160 14 14 (1003520)
I1130 10:45:07.672785  1342 net.cpp:137] Memory required for data: 1602019456
I1130 10:45:07.672791  1342 layer_factory.hpp:77] Creating layer inception_4e/3x3
I1130 10:45:07.672797  1342 net.cpp:84] Creating Layer inception_4e/3x3
I1130 10:45:07.672802  1342 net.cpp:406] inception_4e/3x3 <- inception_4e/3x3_reduce
I1130 10:45:07.672808  1342 net.cpp:380] inception_4e/3x3 -> inception_4e/3x3
I1130 10:45:07.676033  1342 net.cpp:122] Setting up inception_4e/3x3
I1130 10:45:07.676053  1342 net.cpp:129] Top shape: 32 320 14 14 (2007040)
I1130 10:45:07.676056  1342 net.cpp:137] Memory required for data: 1610047616
I1130 10:45:07.676064  1342 layer_factory.hpp:77] Creating layer inception_4e/relu_3x3
I1130 10:45:07.676074  1342 net.cpp:84] Creating Layer inception_4e/relu_3x3
I1130 10:45:07.676079  1342 net.cpp:406] inception_4e/relu_3x3 <- inception_4e/3x3
I1130 10:45:07.676087  1342 net.cpp:367] inception_4e/relu_3x3 -> inception_4e/3x3 (in-place)
I1130 10:45:07.676096  1342 net.cpp:122] Setting up inception_4e/relu_3x3
I1130 10:45:07.676102  1342 net.cpp:129] Top shape: 32 320 14 14 (2007040)
I1130 10:45:07.676106  1342 net.cpp:137] Memory required for data: 1618075776
I1130 10:45:07.676111  1342 layer_factory.hpp:77] Creating layer inception_4e/5x5_reduce
I1130 10:45:07.676120  1342 net.cpp:84] Creating Layer inception_4e/5x5_reduce
I1130 10:45:07.676126  1342 net.cpp:406] inception_4e/5x5_reduce <- inception_4d/output_inception_4d/output_0_split_2
I1130 10:45:07.676131  1342 net.cpp:380] inception_4e/5x5_reduce -> inception_4e/5x5_reduce
I1130 10:45:07.676410  1342 net.cpp:122] Setting up inception_4e/5x5_reduce
I1130 10:45:07.676419  1342 net.cpp:129] Top shape: 32 32 14 14 (200704)
I1130 10:45:07.676424  1342 net.cpp:137] Memory required for data: 1618878592
I1130 10:45:07.676431  1342 layer_factory.hpp:77] Creating layer inception_4e/relu_5x5_reduce
I1130 10:45:07.676437  1342 net.cpp:84] Creating Layer inception_4e/relu_5x5_reduce
I1130 10:45:07.676442  1342 net.cpp:406] inception_4e/relu_5x5_reduce <- inception_4e/5x5_reduce
I1130 10:45:07.676450  1342 net.cpp:367] inception_4e/relu_5x5_reduce -> inception_4e/5x5_reduce (in-place)
I1130 10:45:07.676456  1342 net.cpp:122] Setting up inception_4e/relu_5x5_reduce
I1130 10:45:07.676462  1342 net.cpp:129] Top shape: 32 32 14 14 (200704)
I1130 10:45:07.676466  1342 net.cpp:137] Memory required for data: 1619681408
I1130 10:45:07.676470  1342 layer_factory.hpp:77] Creating layer inception_4e/5x5
I1130 10:45:07.676478  1342 net.cpp:84] Creating Layer inception_4e/5x5
I1130 10:45:07.676483  1342 net.cpp:406] inception_4e/5x5 <- inception_4e/5x5_reduce
I1130 10:45:07.676489  1342 net.cpp:380] inception_4e/5x5 -> inception_4e/5x5
I1130 10:45:07.677619  1342 net.cpp:122] Setting up inception_4e/5x5
I1130 10:45:07.677630  1342 net.cpp:129] Top shape: 32 128 14 14 (802816)
I1130 10:45:07.677634  1342 net.cpp:137] Memory required for data: 1622892672
I1130 10:45:07.677641  1342 layer_factory.hpp:77] Creating layer inception_4e/relu_5x5
I1130 10:45:07.677649  1342 net.cpp:84] Creating Layer inception_4e/relu_5x5
I1130 10:45:07.677654  1342 net.cpp:406] inception_4e/relu_5x5 <- inception_4e/5x5
I1130 10:45:07.677660  1342 net.cpp:367] inception_4e/relu_5x5 -> inception_4e/5x5 (in-place)
I1130 10:45:07.677669  1342 net.cpp:122] Setting up inception_4e/relu_5x5
I1130 10:45:07.677673  1342 net.cpp:129] Top shape: 32 128 14 14 (802816)
I1130 10:45:07.677678  1342 net.cpp:137] Memory required for data: 1626103936
I1130 10:45:07.677682  1342 layer_factory.hpp:77] Creating layer inception_4e/pool
I1130 10:45:07.677688  1342 net.cpp:84] Creating Layer inception_4e/pool
I1130 10:45:07.677693  1342 net.cpp:406] inception_4e/pool <- inception_4d/output_inception_4d/output_0_split_3
I1130 10:45:07.677700  1342 net.cpp:380] inception_4e/pool -> inception_4e/pool
I1130 10:45:07.677733  1342 net.cpp:122] Setting up inception_4e/pool
I1130 10:45:07.677741  1342 net.cpp:129] Top shape: 32 528 14 14 (3311616)
I1130 10:45:07.677745  1342 net.cpp:137] Memory required for data: 1639350400
I1130 10:45:07.677749  1342 layer_factory.hpp:77] Creating layer inception_4e/pool_proj
I1130 10:45:07.677758  1342 net.cpp:84] Creating Layer inception_4e/pool_proj
I1130 10:45:07.677764  1342 net.cpp:406] inception_4e/pool_proj <- inception_4e/pool
I1130 10:45:07.677772  1342 net.cpp:380] inception_4e/pool_proj -> inception_4e/pool_proj
I1130 10:45:07.678302  1342 net.cpp:122] Setting up inception_4e/pool_proj
I1130 10:45:07.678310  1342 net.cpp:129] Top shape: 32 128 14 14 (802816)
I1130 10:45:07.678315  1342 net.cpp:137] Memory required for data: 1642561664
I1130 10:45:07.678323  1342 layer_factory.hpp:77] Creating layer inception_4e/relu_pool_proj
I1130 10:45:07.678328  1342 net.cpp:84] Creating Layer inception_4e/relu_pool_proj
I1130 10:45:07.678333  1342 net.cpp:406] inception_4e/relu_pool_proj <- inception_4e/pool_proj
I1130 10:45:07.678339  1342 net.cpp:367] inception_4e/relu_pool_proj -> inception_4e/pool_proj (in-place)
I1130 10:45:07.678346  1342 net.cpp:122] Setting up inception_4e/relu_pool_proj
I1130 10:45:07.678352  1342 net.cpp:129] Top shape: 32 128 14 14 (802816)
I1130 10:45:07.678357  1342 net.cpp:137] Memory required for data: 1645772928
I1130 10:45:07.678361  1342 layer_factory.hpp:77] Creating layer inception_4e/output
I1130 10:45:07.678370  1342 net.cpp:84] Creating Layer inception_4e/output
I1130 10:45:07.678375  1342 net.cpp:406] inception_4e/output <- inception_4e/1x1
I1130 10:45:07.678380  1342 net.cpp:406] inception_4e/output <- inception_4e/3x3
I1130 10:45:07.678386  1342 net.cpp:406] inception_4e/output <- inception_4e/5x5
I1130 10:45:07.678390  1342 net.cpp:406] inception_4e/output <- inception_4e/pool_proj
I1130 10:45:07.678396  1342 net.cpp:380] inception_4e/output -> inception_4e/output
I1130 10:45:07.678419  1342 net.cpp:122] Setting up inception_4e/output
I1130 10:45:07.678426  1342 net.cpp:129] Top shape: 32 832 14 14 (5218304)
I1130 10:45:07.678431  1342 net.cpp:137] Memory required for data: 1666646144
I1130 10:45:07.678436  1342 layer_factory.hpp:77] Creating layer pool4/3x3_s2
I1130 10:45:07.678442  1342 net.cpp:84] Creating Layer pool4/3x3_s2
I1130 10:45:07.678447  1342 net.cpp:406] pool4/3x3_s2 <- inception_4e/output
I1130 10:45:07.678454  1342 net.cpp:380] pool4/3x3_s2 -> pool4/3x3_s2
I1130 10:45:07.678484  1342 net.cpp:122] Setting up pool4/3x3_s2
I1130 10:45:07.678491  1342 net.cpp:129] Top shape: 32 832 7 7 (1304576)
I1130 10:45:07.678496  1342 net.cpp:137] Memory required for data: 1671864448
I1130 10:45:07.678500  1342 layer_factory.hpp:77] Creating layer pool4/3x3_s2_pool4/3x3_s2_0_split
I1130 10:45:07.678509  1342 net.cpp:84] Creating Layer pool4/3x3_s2_pool4/3x3_s2_0_split
I1130 10:45:07.678514  1342 net.cpp:406] pool4/3x3_s2_pool4/3x3_s2_0_split <- pool4/3x3_s2
I1130 10:45:07.678520  1342 net.cpp:380] pool4/3x3_s2_pool4/3x3_s2_0_split -> pool4/3x3_s2_pool4/3x3_s2_0_split_0
I1130 10:45:07.678527  1342 net.cpp:380] pool4/3x3_s2_pool4/3x3_s2_0_split -> pool4/3x3_s2_pool4/3x3_s2_0_split_1
I1130 10:45:07.678534  1342 net.cpp:380] pool4/3x3_s2_pool4/3x3_s2_0_split -> pool4/3x3_s2_pool4/3x3_s2_0_split_2
I1130 10:45:07.678541  1342 net.cpp:380] pool4/3x3_s2_pool4/3x3_s2_0_split -> pool4/3x3_s2_pool4/3x3_s2_0_split_3
I1130 10:45:07.678588  1342 net.cpp:122] Setting up pool4/3x3_s2_pool4/3x3_s2_0_split
I1130 10:45:07.678596  1342 net.cpp:129] Top shape: 32 832 7 7 (1304576)
I1130 10:45:07.678601  1342 net.cpp:129] Top shape: 32 832 7 7 (1304576)
I1130 10:45:07.678606  1342 net.cpp:129] Top shape: 32 832 7 7 (1304576)
I1130 10:45:07.678611  1342 net.cpp:129] Top shape: 32 832 7 7 (1304576)
I1130 10:45:07.678616  1342 net.cpp:137] Memory required for data: 1692737664
I1130 10:45:07.678620  1342 layer_factory.hpp:77] Creating layer inception_5a/1x1
I1130 10:45:07.678628  1342 net.cpp:84] Creating Layer inception_5a/1x1
I1130 10:45:07.678634  1342 net.cpp:406] inception_5a/1x1 <- pool4/3x3_s2_pool4/3x3_s2_0_split_0
I1130 10:45:07.678642  1342 net.cpp:380] inception_5a/1x1 -> inception_5a/1x1
I1130 10:45:07.680348  1342 net.cpp:122] Setting up inception_5a/1x1
I1130 10:45:07.680361  1342 net.cpp:129] Top shape: 32 256 7 7 (401408)
I1130 10:45:07.680366  1342 net.cpp:137] Memory required for data: 1694343296
I1130 10:45:07.680373  1342 layer_factory.hpp:77] Creating layer inception_5a/relu_1x1
I1130 10:45:07.680382  1342 net.cpp:84] Creating Layer inception_5a/relu_1x1
I1130 10:45:07.680387  1342 net.cpp:406] inception_5a/relu_1x1 <- inception_5a/1x1
I1130 10:45:07.680397  1342 net.cpp:367] inception_5a/relu_1x1 -> inception_5a/1x1 (in-place)
I1130 10:45:07.680404  1342 net.cpp:122] Setting up inception_5a/relu_1x1
I1130 10:45:07.680411  1342 net.cpp:129] Top shape: 32 256 7 7 (401408)
I1130 10:45:07.680416  1342 net.cpp:137] Memory required for data: 1695948928
I1130 10:45:07.680420  1342 layer_factory.hpp:77] Creating layer inception_5a/3x3_reduce
I1130 10:45:07.680431  1342 net.cpp:84] Creating Layer inception_5a/3x3_reduce
I1130 10:45:07.680436  1342 net.cpp:406] inception_5a/3x3_reduce <- pool4/3x3_s2_pool4/3x3_s2_0_split_1
I1130 10:45:07.680444  1342 net.cpp:380] inception_5a/3x3_reduce -> inception_5a/3x3_reduce
I1130 10:45:07.683547  1342 net.cpp:122] Setting up inception_5a/3x3_reduce
I1130 10:45:07.683562  1342 net.cpp:129] Top shape: 32 160 7 7 (250880)
I1130 10:45:07.683568  1342 net.cpp:137] Memory required for data: 1696952448
I1130 10:45:07.683575  1342 layer_factory.hpp:77] Creating layer inception_5a/relu_3x3_reduce
I1130 10:45:07.683584  1342 net.cpp:84] Creating Layer inception_5a/relu_3x3_reduce
I1130 10:45:07.683589  1342 net.cpp:406] inception_5a/relu_3x3_reduce <- inception_5a/3x3_reduce
I1130 10:45:07.683598  1342 net.cpp:367] inception_5a/relu_3x3_reduce -> inception_5a/3x3_reduce (in-place)
I1130 10:45:07.683607  1342 net.cpp:122] Setting up inception_5a/relu_3x3_reduce
I1130 10:45:07.683612  1342 net.cpp:129] Top shape: 32 160 7 7 (250880)
I1130 10:45:07.683616  1342 net.cpp:137] Memory required for data: 1697955968
I1130 10:45:07.683621  1342 layer_factory.hpp:77] Creating layer inception_5a/3x3
I1130 10:45:07.683631  1342 net.cpp:84] Creating Layer inception_5a/3x3
I1130 10:45:07.683636  1342 net.cpp:406] inception_5a/3x3 <- inception_5a/3x3_reduce
I1130 10:45:07.683643  1342 net.cpp:380] inception_5a/3x3 -> inception_5a/3x3
I1130 10:45:07.686902  1342 net.cpp:122] Setting up inception_5a/3x3
I1130 10:45:07.686918  1342 net.cpp:129] Top shape: 32 320 7 7 (501760)
I1130 10:45:07.686923  1342 net.cpp:137] Memory required for data: 1699963008
I1130 10:45:07.686931  1342 layer_factory.hpp:77] Creating layer inception_5a/relu_3x3
I1130 10:45:07.686939  1342 net.cpp:84] Creating Layer inception_5a/relu_3x3
I1130 10:45:07.686945  1342 net.cpp:406] inception_5a/relu_3x3 <- inception_5a/3x3
I1130 10:45:07.686954  1342 net.cpp:367] inception_5a/relu_3x3 -> inception_5a/3x3 (in-place)
I1130 10:45:07.686962  1342 net.cpp:122] Setting up inception_5a/relu_3x3
I1130 10:45:07.686969  1342 net.cpp:129] Top shape: 32 320 7 7 (501760)
I1130 10:45:07.686974  1342 net.cpp:137] Memory required for data: 1701970048
I1130 10:45:07.686978  1342 layer_factory.hpp:77] Creating layer inception_5a/5x5_reduce
I1130 10:45:07.686990  1342 net.cpp:84] Creating Layer inception_5a/5x5_reduce
I1130 10:45:07.686995  1342 net.cpp:406] inception_5a/5x5_reduce <- pool4/3x3_s2_pool4/3x3_s2_0_split_2
I1130 10:45:07.687001  1342 net.cpp:380] inception_5a/5x5_reduce -> inception_5a/5x5_reduce
I1130 10:45:07.687345  1342 net.cpp:122] Setting up inception_5a/5x5_reduce
I1130 10:45:07.687355  1342 net.cpp:129] Top shape: 32 32 7 7 (50176)
I1130 10:45:07.687360  1342 net.cpp:137] Memory required for data: 1702170752
I1130 10:45:07.687366  1342 layer_factory.hpp:77] Creating layer inception_5a/relu_5x5_reduce
I1130 10:45:07.687372  1342 net.cpp:84] Creating Layer inception_5a/relu_5x5_reduce
I1130 10:45:07.687377  1342 net.cpp:406] inception_5a/relu_5x5_reduce <- inception_5a/5x5_reduce
I1130 10:45:07.687386  1342 net.cpp:367] inception_5a/relu_5x5_reduce -> inception_5a/5x5_reduce (in-place)
I1130 10:45:07.687393  1342 net.cpp:122] Setting up inception_5a/relu_5x5_reduce
I1130 10:45:07.687398  1342 net.cpp:129] Top shape: 32 32 7 7 (50176)
I1130 10:45:07.687403  1342 net.cpp:137] Memory required for data: 1702371456
I1130 10:45:07.687407  1342 layer_factory.hpp:77] Creating layer inception_5a/5x5
I1130 10:45:07.687417  1342 net.cpp:84] Creating Layer inception_5a/5x5
I1130 10:45:07.687423  1342 net.cpp:406] inception_5a/5x5 <- inception_5a/5x5_reduce
I1130 10:45:07.687432  1342 net.cpp:380] inception_5a/5x5 -> inception_5a/5x5
I1130 10:45:07.688176  1342 net.cpp:122] Setting up inception_5a/5x5
I1130 10:45:07.688185  1342 net.cpp:129] Top shape: 32 128 7 7 (200704)
I1130 10:45:07.688189  1342 net.cpp:137] Memory required for data: 1703174272
I1130 10:45:07.688196  1342 layer_factory.hpp:77] Creating layer inception_5a/relu_5x5
I1130 10:45:07.688218  1342 net.cpp:84] Creating Layer inception_5a/relu_5x5
I1130 10:45:07.688223  1342 net.cpp:406] inception_5a/relu_5x5 <- inception_5a/5x5
I1130 10:45:07.688230  1342 net.cpp:367] inception_5a/relu_5x5 -> inception_5a/5x5 (in-place)
I1130 10:45:07.688236  1342 net.cpp:122] Setting up inception_5a/relu_5x5
I1130 10:45:07.688242  1342 net.cpp:129] Top shape: 32 128 7 7 (200704)
I1130 10:45:07.688247  1342 net.cpp:137] Memory required for data: 1703977088
I1130 10:45:07.688252  1342 layer_factory.hpp:77] Creating layer inception_5a/pool
I1130 10:45:07.688259  1342 net.cpp:84] Creating Layer inception_5a/pool
I1130 10:45:07.688264  1342 net.cpp:406] inception_5a/pool <- pool4/3x3_s2_pool4/3x3_s2_0_split_3
I1130 10:45:07.688271  1342 net.cpp:380] inception_5a/pool -> inception_5a/pool
I1130 10:45:07.688308  1342 net.cpp:122] Setting up inception_5a/pool
I1130 10:45:07.688315  1342 net.cpp:129] Top shape: 32 832 7 7 (1304576)
I1130 10:45:07.688320  1342 net.cpp:137] Memory required for data: 1709195392
I1130 10:45:07.688324  1342 layer_factory.hpp:77] Creating layer inception_5a/pool_proj
I1130 10:45:07.688334  1342 net.cpp:84] Creating Layer inception_5a/pool_proj
I1130 10:45:07.688340  1342 net.cpp:406] inception_5a/pool_proj <- inception_5a/pool
I1130 10:45:07.688347  1342 net.cpp:380] inception_5a/pool_proj -> inception_5a/pool_proj
I1130 10:45:07.689525  1342 net.cpp:122] Setting up inception_5a/pool_proj
I1130 10:45:07.689537  1342 net.cpp:129] Top shape: 32 128 7 7 (200704)
I1130 10:45:07.689540  1342 net.cpp:137] Memory required for data: 1709998208
I1130 10:45:07.689548  1342 layer_factory.hpp:77] Creating layer inception_5a/relu_pool_proj
I1130 10:45:07.689556  1342 net.cpp:84] Creating Layer inception_5a/relu_pool_proj
I1130 10:45:07.689561  1342 net.cpp:406] inception_5a/relu_pool_proj <- inception_5a/pool_proj
I1130 10:45:07.689568  1342 net.cpp:367] inception_5a/relu_pool_proj -> inception_5a/pool_proj (in-place)
I1130 10:45:07.689575  1342 net.cpp:122] Setting up inception_5a/relu_pool_proj
I1130 10:45:07.689581  1342 net.cpp:129] Top shape: 32 128 7 7 (200704)
I1130 10:45:07.689586  1342 net.cpp:137] Memory required for data: 1710801024
I1130 10:45:07.689590  1342 layer_factory.hpp:77] Creating layer inception_5a/output
I1130 10:45:07.689599  1342 net.cpp:84] Creating Layer inception_5a/output
I1130 10:45:07.689604  1342 net.cpp:406] inception_5a/output <- inception_5a/1x1
I1130 10:45:07.689609  1342 net.cpp:406] inception_5a/output <- inception_5a/3x3
I1130 10:45:07.689615  1342 net.cpp:406] inception_5a/output <- inception_5a/5x5
I1130 10:45:07.689620  1342 net.cpp:406] inception_5a/output <- inception_5a/pool_proj
I1130 10:45:07.689625  1342 net.cpp:380] inception_5a/output -> inception_5a/output
I1130 10:45:07.689651  1342 net.cpp:122] Setting up inception_5a/output
I1130 10:45:07.689658  1342 net.cpp:129] Top shape: 32 832 7 7 (1304576)
I1130 10:45:07.689662  1342 net.cpp:137] Memory required for data: 1716019328
I1130 10:45:07.689667  1342 layer_factory.hpp:77] Creating layer inception_5a/output_inception_5a/output_0_split
I1130 10:45:07.689673  1342 net.cpp:84] Creating Layer inception_5a/output_inception_5a/output_0_split
I1130 10:45:07.689679  1342 net.cpp:406] inception_5a/output_inception_5a/output_0_split <- inception_5a/output
I1130 10:45:07.689685  1342 net.cpp:380] inception_5a/output_inception_5a/output_0_split -> inception_5a/output_inception_5a/output_0_split_0
I1130 10:45:07.689694  1342 net.cpp:380] inception_5a/output_inception_5a/output_0_split -> inception_5a/output_inception_5a/output_0_split_1
I1130 10:45:07.689702  1342 net.cpp:380] inception_5a/output_inception_5a/output_0_split -> inception_5a/output_inception_5a/output_0_split_2
I1130 10:45:07.689709  1342 net.cpp:380] inception_5a/output_inception_5a/output_0_split -> inception_5a/output_inception_5a/output_0_split_3
I1130 10:45:07.689759  1342 net.cpp:122] Setting up inception_5a/output_inception_5a/output_0_split
I1130 10:45:07.689767  1342 net.cpp:129] Top shape: 32 832 7 7 (1304576)
I1130 10:45:07.689772  1342 net.cpp:129] Top shape: 32 832 7 7 (1304576)
I1130 10:45:07.689777  1342 net.cpp:129] Top shape: 32 832 7 7 (1304576)
I1130 10:45:07.689782  1342 net.cpp:129] Top shape: 32 832 7 7 (1304576)
I1130 10:45:07.689787  1342 net.cpp:137] Memory required for data: 1736892544
I1130 10:45:07.689791  1342 layer_factory.hpp:77] Creating layer inception_5b/1x1
I1130 10:45:07.689800  1342 net.cpp:84] Creating Layer inception_5b/1x1
I1130 10:45:07.689805  1342 net.cpp:406] inception_5b/1x1 <- inception_5a/output_inception_5a/output_0_split_0
I1130 10:45:07.689815  1342 net.cpp:380] inception_5b/1x1 -> inception_5b/1x1
I1130 10:45:07.692139  1342 net.cpp:122] Setting up inception_5b/1x1
I1130 10:45:07.692154  1342 net.cpp:129] Top shape: 32 384 7 7 (602112)
I1130 10:45:07.692158  1342 net.cpp:137] Memory required for data: 1739300992
I1130 10:45:07.692165  1342 layer_factory.hpp:77] Creating layer inception_5b/relu_1x1
I1130 10:45:07.692173  1342 net.cpp:84] Creating Layer inception_5b/relu_1x1
I1130 10:45:07.692179  1342 net.cpp:406] inception_5b/relu_1x1 <- inception_5b/1x1
I1130 10:45:07.692185  1342 net.cpp:367] inception_5b/relu_1x1 -> inception_5b/1x1 (in-place)
I1130 10:45:07.692193  1342 net.cpp:122] Setting up inception_5b/relu_1x1
I1130 10:45:07.692199  1342 net.cpp:129] Top shape: 32 384 7 7 (602112)
I1130 10:45:07.692203  1342 net.cpp:137] Memory required for data: 1741709440
I1130 10:45:07.692207  1342 layer_factory.hpp:77] Creating layer inception_5b/3x3_reduce
I1130 10:45:07.692217  1342 net.cpp:84] Creating Layer inception_5b/3x3_reduce
I1130 10:45:07.692222  1342 net.cpp:406] inception_5b/3x3_reduce <- inception_5a/output_inception_5a/output_0_split_1
I1130 10:45:07.692230  1342 net.cpp:380] inception_5b/3x3_reduce -> inception_5b/3x3_reduce
I1130 10:45:07.693651  1342 net.cpp:122] Setting up inception_5b/3x3_reduce
I1130 10:45:07.693662  1342 net.cpp:129] Top shape: 32 192 7 7 (301056)
I1130 10:45:07.693666  1342 net.cpp:137] Memory required for data: 1742913664
I1130 10:45:07.693675  1342 layer_factory.hpp:77] Creating layer inception_5b/relu_3x3_reduce
I1130 10:45:07.693681  1342 net.cpp:84] Creating Layer inception_5b/relu_3x3_reduce
I1130 10:45:07.693687  1342 net.cpp:406] inception_5b/relu_3x3_reduce <- inception_5b/3x3_reduce
I1130 10:45:07.693696  1342 net.cpp:367] inception_5b/relu_3x3_reduce -> inception_5b/3x3_reduce (in-place)
I1130 10:45:07.693703  1342 net.cpp:122] Setting up inception_5b/relu_3x3_reduce
I1130 10:45:07.693708  1342 net.cpp:129] Top shape: 32 192 7 7 (301056)
I1130 10:45:07.693712  1342 net.cpp:137] Memory required for data: 1744117888
I1130 10:45:07.693717  1342 layer_factory.hpp:77] Creating layer inception_5b/3x3
I1130 10:45:07.693727  1342 net.cpp:84] Creating Layer inception_5b/3x3
I1130 10:45:07.693732  1342 net.cpp:406] inception_5b/3x3 <- inception_5b/3x3_reduce
I1130 10:45:07.693737  1342 net.cpp:380] inception_5b/3x3 -> inception_5b/3x3
I1130 10:45:07.698210  1342 net.cpp:122] Setting up inception_5b/3x3
I1130 10:45:07.698223  1342 net.cpp:129] Top shape: 32 384 7 7 (602112)
I1130 10:45:07.698227  1342 net.cpp:137] Memory required for data: 1746526336
I1130 10:45:07.698235  1342 layer_factory.hpp:77] Creating layer inception_5b/relu_3x3
I1130 10:45:07.698241  1342 net.cpp:84] Creating Layer inception_5b/relu_3x3
I1130 10:45:07.698247  1342 net.cpp:406] inception_5b/relu_3x3 <- inception_5b/3x3
I1130 10:45:07.698254  1342 net.cpp:367] inception_5b/relu_3x3 -> inception_5b/3x3 (in-place)
I1130 10:45:07.698262  1342 net.cpp:122] Setting up inception_5b/relu_3x3
I1130 10:45:07.698268  1342 net.cpp:129] Top shape: 32 384 7 7 (602112)
I1130 10:45:07.698272  1342 net.cpp:137] Memory required for data: 1748934784
I1130 10:45:07.698276  1342 layer_factory.hpp:77] Creating layer inception_5b/5x5_reduce
I1130 10:45:07.698287  1342 net.cpp:84] Creating Layer inception_5b/5x5_reduce
I1130 10:45:07.698292  1342 net.cpp:406] inception_5b/5x5_reduce <- inception_5a/output_inception_5a/output_0_split_2
I1130 10:45:07.698302  1342 net.cpp:380] inception_5b/5x5_reduce -> inception_5b/5x5_reduce
I1130 10:45:07.698724  1342 net.cpp:122] Setting up inception_5b/5x5_reduce
I1130 10:45:07.698732  1342 net.cpp:129] Top shape: 32 48 7 7 (75264)
I1130 10:45:07.698737  1342 net.cpp:137] Memory required for data: 1749235840
I1130 10:45:07.698745  1342 layer_factory.hpp:77] Creating layer inception_5b/relu_5x5_reduce
I1130 10:45:07.698753  1342 net.cpp:84] Creating Layer inception_5b/relu_5x5_reduce
I1130 10:45:07.698758  1342 net.cpp:406] inception_5b/relu_5x5_reduce <- inception_5b/5x5_reduce
I1130 10:45:07.698765  1342 net.cpp:367] inception_5b/relu_5x5_reduce -> inception_5b/5x5_reduce (in-place)
I1130 10:45:07.698777  1342 net.cpp:122] Setting up inception_5b/relu_5x5_reduce
I1130 10:45:07.698783  1342 net.cpp:129] Top shape: 32 48 7 7 (75264)
I1130 10:45:07.698788  1342 net.cpp:137] Memory required for data: 1749536896
I1130 10:45:07.698792  1342 layer_factory.hpp:77] Creating layer inception_5b/5x5
I1130 10:45:07.698801  1342 net.cpp:84] Creating Layer inception_5b/5x5
I1130 10:45:07.698807  1342 net.cpp:406] inception_5b/5x5 <- inception_5b/5x5_reduce
I1130 10:45:07.698813  1342 net.cpp:380] inception_5b/5x5 -> inception_5b/5x5
I1130 10:45:07.699849  1342 net.cpp:122] Setting up inception_5b/5x5
I1130 10:45:07.699858  1342 net.cpp:129] Top shape: 32 128 7 7 (200704)
I1130 10:45:07.699863  1342 net.cpp:137] Memory required for data: 1750339712
I1130 10:45:07.699869  1342 layer_factory.hpp:77] Creating layer inception_5b/relu_5x5
I1130 10:45:07.699877  1342 net.cpp:84] Creating Layer inception_5b/relu_5x5
I1130 10:45:07.699882  1342 net.cpp:406] inception_5b/relu_5x5 <- inception_5b/5x5
I1130 10:45:07.699887  1342 net.cpp:367] inception_5b/relu_5x5 -> inception_5b/5x5 (in-place)
I1130 10:45:07.699894  1342 net.cpp:122] Setting up inception_5b/relu_5x5
I1130 10:45:07.699900  1342 net.cpp:129] Top shape: 32 128 7 7 (200704)
I1130 10:45:07.699903  1342 net.cpp:137] Memory required for data: 1751142528
I1130 10:45:07.699908  1342 layer_factory.hpp:77] Creating layer inception_5b/pool
I1130 10:45:07.699915  1342 net.cpp:84] Creating Layer inception_5b/pool
I1130 10:45:07.699920  1342 net.cpp:406] inception_5b/pool <- inception_5a/output_inception_5a/output_0_split_3
I1130 10:45:07.699928  1342 net.cpp:380] inception_5b/pool -> inception_5b/pool
I1130 10:45:07.699965  1342 net.cpp:122] Setting up inception_5b/pool
I1130 10:45:07.699973  1342 net.cpp:129] Top shape: 32 832 7 7 (1304576)
I1130 10:45:07.699978  1342 net.cpp:137] Memory required for data: 1756360832
I1130 10:45:07.699982  1342 layer_factory.hpp:77] Creating layer inception_5b/pool_proj
I1130 10:45:07.699992  1342 net.cpp:84] Creating Layer inception_5b/pool_proj
I1130 10:45:07.699997  1342 net.cpp:406] inception_5b/pool_proj <- inception_5b/pool
I1130 10:45:07.700006  1342 net.cpp:380] inception_5b/pool_proj -> inception_5b/pool_proj
I1130 10:45:07.701140  1342 net.cpp:122] Setting up inception_5b/pool_proj
I1130 10:45:07.701150  1342 net.cpp:129] Top shape: 32 128 7 7 (200704)
I1130 10:45:07.701155  1342 net.cpp:137] Memory required for data: 1757163648
I1130 10:45:07.701162  1342 layer_factory.hpp:77] Creating layer inception_5b/relu_pool_proj
I1130 10:45:07.701169  1342 net.cpp:84] Creating Layer inception_5b/relu_pool_proj
I1130 10:45:07.701175  1342 net.cpp:406] inception_5b/relu_pool_proj <- inception_5b/pool_proj
I1130 10:45:07.701181  1342 net.cpp:367] inception_5b/relu_pool_proj -> inception_5b/pool_proj (in-place)
I1130 10:45:07.701189  1342 net.cpp:122] Setting up inception_5b/relu_pool_proj
I1130 10:45:07.701195  1342 net.cpp:129] Top shape: 32 128 7 7 (200704)
I1130 10:45:07.701198  1342 net.cpp:137] Memory required for data: 1757966464
I1130 10:45:07.701202  1342 layer_factory.hpp:77] Creating layer inception_5b/output
I1130 10:45:07.701210  1342 net.cpp:84] Creating Layer inception_5b/output
I1130 10:45:07.701215  1342 net.cpp:406] inception_5b/output <- inception_5b/1x1
I1130 10:45:07.701220  1342 net.cpp:406] inception_5b/output <- inception_5b/3x3
I1130 10:45:07.701226  1342 net.cpp:406] inception_5b/output <- inception_5b/5x5
I1130 10:45:07.701231  1342 net.cpp:406] inception_5b/output <- inception_5b/pool_proj
I1130 10:45:07.701237  1342 net.cpp:380] inception_5b/output -> inception_5b/output
I1130 10:45:07.701262  1342 net.cpp:122] Setting up inception_5b/output
I1130 10:45:07.701270  1342 net.cpp:129] Top shape: 32 1024 7 7 (1605632)
I1130 10:45:07.701274  1342 net.cpp:137] Memory required for data: 1764388992
I1130 10:45:07.701278  1342 layer_factory.hpp:77] Creating layer pool5/7x7_s1
I1130 10:45:07.701285  1342 net.cpp:84] Creating Layer pool5/7x7_s1
I1130 10:45:07.701290  1342 net.cpp:406] pool5/7x7_s1 <- inception_5b/output
I1130 10:45:07.701297  1342 net.cpp:380] pool5/7x7_s1 -> pool5/7x7_s1
I1130 10:45:07.701320  1342 net.cpp:122] Setting up pool5/7x7_s1
I1130 10:45:07.701329  1342 net.cpp:129] Top shape: 32 1024 1 1 (32768)
I1130 10:45:07.701334  1342 net.cpp:137] Memory required for data: 1764520064
I1130 10:45:07.701339  1342 layer_factory.hpp:77] Creating layer pool5/drop_7x7_s1
I1130 10:45:07.701349  1342 net.cpp:84] Creating Layer pool5/drop_7x7_s1
I1130 10:45:07.701354  1342 net.cpp:406] pool5/drop_7x7_s1 <- pool5/7x7_s1
I1130 10:45:07.701359  1342 net.cpp:367] pool5/drop_7x7_s1 -> pool5/7x7_s1 (in-place)
I1130 10:45:07.701383  1342 net.cpp:122] Setting up pool5/drop_7x7_s1
I1130 10:45:07.701391  1342 net.cpp:129] Top shape: 32 1024 1 1 (32768)
I1130 10:45:07.701395  1342 net.cpp:137] Memory required for data: 1764651136
I1130 10:45:07.701400  1342 layer_factory.hpp:77] Creating layer fc_scv_pretty
I1130 10:45:07.701408  1342 net.cpp:84] Creating Layer fc_scv_pretty
I1130 10:45:07.701413  1342 net.cpp:406] fc_scv_pretty <- pool5/7x7_s1
I1130 10:45:07.701421  1342 net.cpp:380] fc_scv_pretty -> fc_scv_pretty
I1130 10:45:07.701516  1342 net.cpp:122] Setting up fc_scv_pretty
I1130 10:45:07.701524  1342 net.cpp:129] Top shape: 32 1 (32)
I1130 10:45:07.701529  1342 net.cpp:137] Memory required for data: 1764651264
I1130 10:45:07.701537  1342 layer_factory.hpp:77] Creating layer loss
I1130 10:45:07.701545  1342 net.cpp:84] Creating Layer loss
I1130 10:45:07.701550  1342 net.cpp:406] loss <- fc_scv_pretty
I1130 10:45:07.701555  1342 net.cpp:406] loss <- label
I1130 10:45:07.701561  1342 net.cpp:380] loss -> loss
I1130 10:45:07.701601  1342 net.cpp:122] Setting up loss
…
I1130 10:45:07.705620  1342 net.cpp:294] The NetState phase (1) differed from the phase (0) specified by a rule in layer data
I1130 10:45:07.706364  1342 net.cpp:51] Initializing net from parameters: 
name: "GoogleNet-Places365-SCV-Pretty"
state {
  phase: TEST
}
layer {
  name: "data"
  type: "Data"
  top: "data"
  top: "label"
  include {
    phase: TEST
  }
  transform_param {
    mirror: false
    crop_size: 224
    mean_file: "/idiap/temp/lmedina/fine-tuning/googlenet_places365/places365CNN_mean.binaryproto"
  }
  data_param {
    source: "/idiap/temp/lmedina/fine-tuning/data/Pretty/validation_lmdb"
    batch_size: 32
    backend: LMDB
  }
}
layer {
  name: "conv1/7x7_s2"
  type: "Convolution"
  bottom: "data"
  top: "conv1/7x7_s2"
  param {
    lr_mult: 1
    decay_mult: 1
  }
  param {
    lr_mult: 2
    decay_mult: 0
  }
  convolution_param {
    num_output: 64
    pad: 3
    kernel_size: 7
    stride: 2
    weight_filler {
      type: "xavier"
      std: 0.1
    }
    bias_filler {
      type: "constant"
      value: 0.2
    }
  }
}
layer {
  name: "conv1/relu_7x7"
  type: "ReLU"
  bottom: "conv1/7x7_s2"
  top: "conv1/7x7_s2"
}
layer {
  name: "pool1/3x3_s2"
  type: "Pooling"
  bottom: "conv1/7x7_s2"
  top: "pool1/3x3_s2"
  pooling_param {
    pool: MAX
    kernel_size: 3
    stride: 2
  }
}
layer {
  name: "pool1/norm1"
  type: "LRN"
  bottom: "pool1/3x3_s2"
  top: "pool1/norm1"
  lrn_param {
    local_size: 5
    alpha: 0.0001
    beta: 0.75
  }
}
layer {
  name: "conv2/3x3_reduce"
  type: "Convolution"
  bottom: "pool1/norm1"
  top: "conv2/3x3_reduce"
  param {
    lr_mult: 1
    decay_mult: 1
  }
  param {
    lr_mult: 2
    decay_mult: 0
  }
  convolution_param {
    num_output: 64
    kernel_size: 1
    weight_filler {
      type: "xavier"
      std: 0.1
    }
    bias_filler {
      type: "constant"
      value: 0.2
    }
  }
}
layer {
  name: "conv2/relu_3x3_reduce"
  type: "ReLU"
  bottom: "conv2/3x3_reduce"
  top: "conv2/3x3_reduce"
}
layer {
  name: "conv2/3x3"
  type: "Convolution"
  bottom: "conv2/3x3_reduce"
  top: "conv2/3x3"
  param {
    lr_mult: 1
    decay_mult: 1
  }
  param {
    lr_mult: 2
    decay_mult: 0
  }
  convolution_param {
    num_output: 192
    pad: 1
    kernel_size: 3
    weight_filler {
      type: "xavier"
      std: 0.03
    }
    bias_filler {
      type: "constant"
      value: 0.2
    }
  }
}
layer {
  name: "conv2/relu_3x3"
  type: "ReLU"
  bottom: "conv2/3x3"
  top: "conv2/3x3"
}
layer {
  name: "conv2/norm2"
  type: "LRN"
  bottom: "conv2/3x3"
  top: "conv2/norm2"
  lrn_param {
    local_size: 5
    alpha: 0.0001
    beta: 0.75
  }
}
layer {
  name: "pool2/3x3_s2"
  type: "Pooling"
  bottom: "conv2/norm2"
  top: "pool2/3x3_s2"
  pooling_param {
    pool: MAX
    kernel_size: 3
    stride: 2
  }
}
layer {
  name: "inception_3a/1x1"
  type: "Convolution"
  bottom: "pool2/3x3_s2"
  top: "inception_3a/1x1"
  param {
    lr_mult: 1
    decay_mult: 1
  }
  param {
    lr_mult: 2
    decay_mult: 0
  }
  convolution_param {
    num_output: 64
    kernel_size: 1
    weight_filler {
      type: "xavier"
      std: 0.03
    }
    bias_filler {
      type: "constant"
      value: 0.2
    }
  }
}
layer {
  name: "inception_3a/relu_1x1"
  type: "ReLU"
  bottom: "inception_3a/1x1"
  top: "inception_3a/1x1"
}
layer {
  name: "inception_3a/3x3_reduce"
  type: "Convolution"
  bottom: "pool2/3x3_s2"
  top: "inception_3a/3x3_reduce"
  param {
    lr_mult: 1
    decay_mult: 1
  }
  param {
    lr_mult: 2
    decay_mult: 0
  }
  convolution_param {
    num_output: 96
    kernel_size: 1
    weight_filler {
      type: "xavier"
      std: 0.09
    }
    bias_filler {
      type: "constant"
      value: 0.2
    }
  }
}
layer {
  name: "inception_3a/relu_3x3_reduce"
  type: "ReLU"
  bottom: "inception_3a/3x3_reduce"
  top: "inception_3a/3x3_reduce"
}
layer {
  name: "inception_3a/3x3"
  type: "Convolution"
  bottom: "inception_3a/3x3_reduce"
  top: "inception_3a/3x3"
  param {
    lr_mult: 1
    decay_mult: 1
  }
  param {
    lr_mult: 2
    decay_mult: 0
  }
  convolution_param {
    num_output: 128
    pad: 1
    kernel_size: 3
    weight_filler {
      type: "xavier"
      std: 0.03
    }
    bias_filler {
      type: "constant"
      value: 0.2
    }
  }
}
layer {
  name: "inception_3a/relu_3x3"
  type: "ReLU"
  bottom: "inception_3a/3x3"
  top: "inception_3a/3x3"
}
layer {
  name: "inception_3a/5x5_reduce"
  type: "Convolution"
  bottom: "pool2/3x3_s2"
  top: "inception_3a/5x5_reduce"
  param {
    lr_mult: 1
    decay_mult: 1
  }
  param {
    lr_mult: 2
    decay_mult: 0
  }
  convolution_param {
    num_output: 16
    kernel_size: 1
    weight_filler {
      type: "xavier"
      std: 0.2
    }
    bias_filler {
      type: "constant"
      value: 0.2
    }
  }
}
layer {
  name: "inception_3a/relu_5x5_reduce"
  type: "ReLU"
  bottom: "inception_3a/5x5_reduce"
  top: "inception_3a/5x5_reduce"
}
layer {
  name: "inception_3a/5x5"
  type: "Convolution"
  bottom: "inception_3a/5x5_reduce"
  top: "inception_3a/5x5"
  param {
    lr_mult: 1
    decay_mult: 1
  }
  param {
    lr_mult: 2
    decay_mult: 0
  }
  convolution_param {
    num_output: 32
    pad: 2
    kernel_size: 5
    weight_filler {
      type: "xavier"
      std: 0.03
    }
    bias_filler {
      type: "constant"
      value: 0.2
    }
  }
}
layer {
  name: "inception_3a/relu_5x5"
  type: "ReLU"
  bottom: "inception_3a/5x5"
  top: "inception_3a/5x5"
}
layer {
  name: "inception_3a/pool"
  type: "Pooling"
  bottom: "pool2/3x3_s2"
  top: "inception_3a/pool"
  pooling_param {
    pool: MAX
    kernel_size: 3
    stride: 1
    pad: 1
  }
}
layer {
  name: "inception_3a/pool_proj"
  type: "Convolution"
  bottom: "inception_3a/pool"
  top: "inception_3a/pool_proj"
  param {
    lr_mult: 1
    decay_mult: 1
  }
  param {
    lr_mult: 2
    decay_mult: 0
  }
  convolution_param {
    num_output: 32
    kernel_size: 1
    weight_filler {
      type: "xavier"
      std: 0.1
    }
    bias_filler {
      type: "constant"
      value: 0.2
    }
  }
}
layer {
  name: "inception_3a/relu_pool_proj"
  type: "ReLU"
  bottom: "inception_3a/pool_proj"
  top: "inception_3a/pool_proj"
}
layer {
  name: "inception_3a/output"
  type: "Concat"
  bottom: "inception_3a/1x1"
  bottom: "inception_3a/3x3"
  bottom: "inception_3a/5x5"
  bottom: "inception_3a/pool_proj"
  top: "inception_3a/output"
}
layer {
  name: "inception_3b/1x1"
  type: "Convolution"
  bottom: "inception_3a/output"
  top: "inception_3b/1x1"
  param {
    lr_mult: 1
    decay_mult: 1
  }
  param {
    lr_mult: 2
    decay_mult: 0
  }
  convolution_param {
    num_output: 128
    kernel_size: 1
    weight_filler {
      type: "xavier"
      std: 0.03
    }
    bias_filler {
      type: "constant"
      value: 0.2
    }
  }
}
layer {
  name: "inception_3b/relu_1x1"
  type: "ReLU"
  bottom: "inception_3b/1x1"
  top: "inception_3b/1x1"
}
layer {
  name: "inception_3b/3x3_reduce"
  type: "Convolution"
  bottom: "inception_3a/output"
  top: "inception_3b/3x3_reduce"
  param {
    lr_mult: 1
    decay_mult: 1
  }
  param {
    lr_mult: 2
    decay_mult: 0
  }
  convolution_param {
    num_output: 128
    kernel_size: 1
    weight_filler {
      type: "xavier"
      std: 0.09
    }
    bias_filler {
      type: "constant"
      value: 0.2
    }
  }
}
layer {
  name: "inception_3b/relu_3x3_reduce"
  type: "ReLU"
  bottom: "inception_3b/3x3_reduce"
  top: "inception_3b/3x3_reduce"
}
layer {
  name: "inception_3b/3x3"
  type: "Convolution"
  bottom: "inception_3b/3x3_reduce"
  top: "inception_3b/3x3"
  param {
    lr_mult: 1
    decay_mult: 1
  }
  param {
    lr_mult: 2
    decay_mult: 0
  }
  convolution_param {
    num_output: 192
    pad: 1
    kernel_size: 3
    weight_filler {
      type: "xavier"
      std: 0.03
    }
    bias_filler {
      type: "constant"
      value: 0.2
    }
  }
}
layer {
  name: "inception_3b/relu_3x3"
  type: "ReLU"
  bottom: "inception_3b/3x3"
  top: "inception_3b/3x3"
}
layer {
  name: "inception_3b/5x5_reduce"
  type: "Convolution"
  bottom: "inception_3a/output"
  top: "inception_3b/5x5_reduce"
  param {
    lr_mult: 1
    decay_mult: 1
  }
  param {
    lr_mult: 2
    decay_mult: 0
  }
  convolution_param {
    num_output: 32
    kernel_size: 1
    weight_filler {
      type: "xavier"
      std: 0.2
    }
    bias_filler {
      type: "constant"
      value: 0.2
    }
  }
}
layer {
  name: "inception_3b/relu_5x5_reduce"
  type: "ReLU"
  bottom: "inception_3b/5x5_reduce"
  top: "inception_3b/5x5_reduce"
}
layer {
  name: "inception_3b/5x5"
  type: "Convolution"
  bottom: "inception_3b/5x5_reduce"
  top: "inception_3b/5x5"
  param {
    lr_mult: 1
    decay_mult: 1
  }
  param {
    lr_mult: 2
    decay_mult: 0
  }
  convolution_param {
    num_output: 96
    pad: 2
    kernel_size: 5
    weight_filler {
      type: "xavier"
      std: 0.03
    }
    bias_filler {
      type: "constant"
      value: 0.2
    }
  }
}
layer {
  name: "inception_3b/relu_5x5"
  type: "ReLU"
  bottom: "inception_3b/5x5"
  top: "inception_3b/5x5"
}
layer {
  name: "inception_3b/pool"
  type: "Pooling"
  bottom: "inception_3a/output"
  top: "inception_3b/pool"
  pooling_param {
    pool: MAX
    kernel_size: 3
    stride: 1
    pad: 1
  }
}
layer {
  name: "inception_3b/pool_proj"
  type: "Convolution"
  bottom: "inception_3b/pool"
  top: "inception_3b/pool_proj"
  param {
    lr_mult: 1
    decay_mult: 1
  }
  param {
    lr_mult: 2
    decay_mult: 0
  }
  convolution_param {
    num_output: 64
    kernel_size: 1
    weight_filler {
      type: "xavier"
      std: 0.1
    }
    bias_filler {
      type: "constant"
      value: 0.2
    }
  }
}
layer {
  name: "inception_3b/relu_pool_proj"
  type: "ReLU"
  bottom: "inception_3b/pool_proj"
  top: "inception_3b/pool_proj"
}
layer {
  name: "inception_3b/output"
  type: "Concat"
  bottom: "inception_3b/1x1"
  bottom: "inception_3b/3x3"
  bottom: "inception_3b/5x5"
  bottom: "inception_3b/pool_proj"
  top: "inception_3b/output"
}
layer {
  name: "pool3/3x3_s2"
  type: "Pooling"
  bottom: "inception_3b/output"
  top: "pool3/3x3_s2"
  pooling_param {
    pool: MAX
    kernel_size: 3
    stride: 2
  }
}
layer {
  name: "inception_4a/1x1"
  type: "Convolution"
  bottom: "pool3/3x3_s2"
  top: "inception_4a/1x1"
  param {
    lr_mult: 1
    decay_mult: 1
  }
  param {
    lr_mult: 2
    decay_mult: 0
  }
  convolution_param {
    num_output: 192
    kernel_size: 1
    weight_filler {
      type: "xavier"
      std: 0.03
    }
    bias_filler {
      type: "constant"
      value: 0.2
    }
  }
}
layer {
  name: "inception_4a/relu_1x1"
  type: "ReLU"
  bottom: "inception_4a/1x1"
  top: "inception_4a/1x1"
}
layer {
  name: "inception_4a/3x3_reduce"
  type: "Convolution"
  bottom: "pool3/3x3_s2"
  top: "inception_4a/3x3_reduce"
  param {
    lr_mult: 1
    decay_mult: 1
  }
  param {
    lr_mult: 2
    decay_mult: 0
  }
  convolution_param {
    num_output: 96
    kernel_size: 1
    weight_filler {
      type: "xavier"
      std: 0.09
    }
    bias_filler {
      type: "constant"
      value: 0.2
    }
  }
}
layer {
  name: "inception_4a/relu_3x3_reduce"
  type: "ReLU"
  bottom: "inception_4a/3x3_reduce"
  top: "inception_4a/3x3_reduce"
}
layer {
  name: "inception_4a/3x3"
  type: "Convolution"
  bottom: "inception_4a/3x3_reduce"
  top: "inception_4a/3x3"
  param {
    lr_mult: 1
    decay_mult: 1
  }
  param {
    lr_mult: 2
    decay_mult: 0
  }
  convolution_param {
    num_output: 208
    pad: 1
    kernel_size: 3
    weight_filler {
      type: "xavier"
      std: 0.03
    }
    bias_filler {
      type: "constant"
      value: 0.2
    }
  }
}
layer {
  name: "inception_4a/relu_3x3"
  type: "ReLU"
  bottom: "inception_4a/3x3"
  top: "inception_4a/3x3"
}
layer {
  name: "inception_4a/5x5_reduce"
  type: "Convolution"
  bottom: "pool3/3x3_s2"
  top: "inception_4a/5x5_reduce"
  param {
    lr_mult: 1
    decay_mult: 1
  }
  param {
    lr_mult: 2
    decay_mult: 0
  }
  convolution_param {
    num_output: 16
    kernel_size: 1
    weight_filler {
      type: "xavier"
      std: 0.2
    }
    bias_filler {
      type: "constant"
      value: 0.2
    }
  }
}
layer {
  name: "inception_4a/relu_5x5_reduce"
  type: "ReLU"
  bottom: "inception_4a/5x5_reduce"
  top: "inception_4a/5x5_reduce"
}
layer {
  name: "inception_4a/5x5"
  type: "Convolution"
  bottom: "inception_4a/5x5_reduce"
  top: "inception_4a/5x5"
  param {
    lr_mult: 1
    decay_mult: 1
  }
  param {
    lr_mult: 2
    decay_mult: 0
  }
  convolution_param {
    num_output: 48
    pad: 2
    kernel_size: 5
    weight_filler {
      type: "xavier"
      std: 0.03
    }
    bias_filler {
      type: "constant"
      value: 0.2
    }
  }
}
layer {
  name: "inception_4a/relu_5x5"
  type: "ReLU"
  bottom: "inception_4a/5x5"
  top: "inception_4a/5x5"
}
layer {
  name: "inception_4a/pool"
  type: "Pooling"
  bottom: "pool3/3x3_s2"
  top: "inception_4a/pool"
  pooling_param {
    pool: MAX
    kernel_size: 3
    stride: 1
    pad: 1
  }
}
layer {
  name: "inception_4a/pool_proj"
  type: "Convolution"
  bottom: "inception_4a/pool"
  top: "inception_4a/pool_proj"
  param {
    lr_mult: 1
    decay_mult: 1
  }
  param {
    lr_mult: 2
    decay_mult: 0
  }
  convolution_param {
    num_output: 64
    kernel_size: 1
    weight_filler {
      type: "xavier"
      std: 0.1
    }
    bias_filler {
      type: "constant"
      value: 0.2
    }
  }
}
layer {
  name: "inception_4a/relu_pool_proj"
  type: "ReLU"
  bottom: "inception_4a/pool_proj"
  top: "inception_4a/pool_proj"
}
layer {
  name: "inception_4a/output"
  type: "Concat"
  bottom: "inception_4a/1x1"
  bottom: "inception_4a/3x3"
  bottom: "inception_4a/5x5"
  bottom: "inception_4a/pool_proj"
  top: "inception_4a/output"
}
layer {
  name: "inception_4b/1x1"
  type: "Convolution"
  bottom: "inception_4a/output"
  top: "inception_4b/1x1"
  param {
    lr_mult: 1
    decay_mult: 1
  }
  param {
    lr_mult: 2
    decay_mult: 0
  }
  convolution_param {
    num_output: 160
    kernel_size: 1
    weight_filler {
      type: "xavier"
      std: 0.03
    }
    bias_filler {
      type: "constant"
      value: 0.2
    }
  }
}
layer {
  name: "inception_4b/relu_1x1"
  type: "ReLU"
  bottom: "inception_4b/1x1"
  top: "inception_4b/1x1"
}
layer {
  name: "inception_4b/3x3_reduce"
  type: "Convolution"
  bottom: "inception_4a/output"
  top: "inception_4b/3x3_reduce"
  param {
    lr_mult: 1
    decay_mult: 1
  }
  param {
    lr_mult: 2
    decay_mult: 0
  }
  convolution_param {
    num_output: 112
    kernel_size: 1
    weight_filler {
      type: "xavier"
      std: 0.09
    }
    bias_filler {
      type: "constant"
      value: 0.2
    }
  }
}
layer {
  name: "inception_4b/relu_3x3_reduce"
  type: "ReLU"
  bottom: "inception_4b/3x3_reduce"
  top: "inception_4b/3x3_reduce"
}
layer {
  name: "inception_4b/3x3"
  type: "Convolution"
  bottom: "inception_4b/3x3_reduce"
  top: "inception_4b/3x3"
  param {
    lr_mult: 1
    decay_mult: 1
  }
  param {
    lr_mult: 2
    decay_mult: 0
  }
  convolution_param {
    num_output: 224
    pad: 1
    kernel_size: 3
    weight_filler {
      type: "xavier"
      std: 0.03
    }
    bias_filler {
      type: "constant"
      value: 0.2
    }
  }
}
layer {
  name: "inception_4b/relu_3x3"
  type: "ReLU"
  bottom: "inception_4b/3x3"
  top: "inception_4b/3x3"
}
layer {
  name: "inception_4b/5x5_reduce"
  type: "Convolution"
  bottom: "inception_4a/output"
  top: "inception_4b/5x5_reduce"
  param {
    lr_mult: 1
    decay_mult: 1
  }
  param {
    lr_mult: 2
    decay_mult: 0
  }
  convolution_param {
    num_output: 24
    kernel_size: 1
    weight_filler {
      type: "xavier"
      std: 0.2
    }
    bias_filler {
      type: "constant"
      value: 0.2
    }
  }
}
layer {
  name: "inception_4b/relu_5x5_reduce"
  type: "ReLU"
  bottom: "inception_4b/5x5_reduce"
  top: "inception_4b/5x5_reduce"
}
layer {
  name: "inception_4b/5x5"
  type: "Convolution"
  bottom: "inception_4b/5x5_reduce"
  top: "inception_4b/5x5"
  param {
    lr_mult: 1
    decay_mult: 1
  }
  param {
    lr_mult: 2
    decay_mult: 0
  }
  convolution_param {
    num_output: 64
    pad: 2
    kernel_size: 5
    weight_filler {
      type: "xavier"
      std: 0.03
    }
    bias_filler {
      type: "constant"
      value: 0.2
    }
  }
}
layer {
  name: "inception_4b/relu_5x5"
  type: "ReLU"
  bottom: "inception_4b/5x5"
  top: "inception_4b/5x5"
}
layer {
  name: "inception_4b/pool"
  type: "Pooling"
  bottom: "inception_4a/output"
  top: "inception_4b/pool"
  pooling_param {
    pool: MAX
    kernel_size: 3
    stride: 1
    pad: 1
  }
}
layer {
  name: "inception_4b/pool_proj"
  type: "Convolution"
  bottom: "inception_4b/pool"
  top: "inception_4b/pool_proj"
  param {
    lr_mult: 1
    decay_mult: 1
  }
  param {
    lr_mult: 2
    decay_mult: 0
  }
  convolution_param {
    num_output: 64
    kernel_size: 1
    weight_filler {
      type: "xavier"
      std: 0.1
    }
    bias_filler {
      type: "constant"
      value: 0.2
    }
  }
}
layer {
  name: "inception_4b/relu_pool_proj"
  type: "ReLU"
  bottom: "inception_4b/pool_proj"
  top: "inception_4b/pool_proj"
}
layer {
  name: "inception_4b/output"
  type: "Concat"
  bottom: "inception_4b/1x1"
  bottom: "inception_4b/3x3"
  bottom: "inception_4b/5x5"
  bottom: "inception_4b/pool_proj"
  top: "inception_4b/output"
}
layer {
  name: "inception_4c/1x1"
  type: "Convolution"
  bottom: "inception_4b/output"
  top: "inception_4c/1x1"
  param {
    lr_mult: 1
    decay_mult: 1
  }
  param {
    lr_mult: 2
    decay_mult: 0
  }
  convolution_param {
    num_output: 128
    kernel_size: 1
    weight_filler {
      type: "xavier"
      std: 0.03
    }
    bias_filler {
      type: "constant"
      value: 0.2
    }
  }
}
layer {
  name: "inception_4c/relu_1x1"
  type: "ReLU"
  bottom: "inception_4c/1x1"
  top: "inception_4c/1x1"
}
layer {
  name: "inception_4c/3x3_reduce"
  type: "Convolution"
  bottom: "inception_4b/output"
  top: "inception_4c/3x3_reduce"
  param {
    lr_mult: 1
    decay_mult: 1
  }
  param {
    lr_mult: 2
    decay_mult: 0
  }
  convolution_param {
    num_output: 128
    kernel_size: 1
    weight_filler {
      type: "xavier"
      std: 0.09
    }
    bias_filler {
      type: "constant"
      value: 0.2
    }
  }
}
layer {
  name: "inception_4c/relu_3x3_reduce"
  type: "ReLU"
  bottom: "inception_4c/3x3_reduce"
  top: "inception_4c/3x3_reduce"
}
layer {
  name: "inception_4c/3x3"
  type: "Convolution"
  bottom: "inception_4c/3x3_reduce"
  top: "inception_4c/3x3"
  param {
    lr_mult: 1
    decay_mult: 1
  }
  param {
    lr_mult: 2
    decay_mult: 0
  }
  convolution_param {
    num_output: 256
    pad: 1
    kernel_size: 3
    weight_filler {
      type: "xavier"
      std: 0.03
    }
    bias_filler {
      type: "constant"
      value: 0.2
    }
  }
}
layer {
  name: "inception_4c/relu_3x3"
  type: "ReLU"
  bottom: "inception_4c/3x3"
  top: "inception_4c/3x3"
}
layer {
  name: "inception_4c/5x5_reduce"
  type: "Convolution"
  bottom: "inception_4b/output"
  top: "inception_4c/5x5_reduce"
  param {
    lr_mult: 1
    decay_mult: 1
  }
  param {
    lr_mult: 2
    decay_mult: 0
  }
  convolution_param {
    num_output: 24
    kernel_size: 1
    weight_filler {
      type: "xavier"
      std: 0.2
    }
    bias_filler {
      type: "constant"
      value: 0.2
    }
  }
}
layer {
  name: "inception_4c/relu_5x5_reduce"
  type: "ReLU"
  bottom: "inception_4c/5x5_reduce"
  top: "inception_4c/5x5_reduce"
}
layer {
  name: "inception_4c/5x5"
  type: "Convolution"
  bottom: "inception_4c/5x5_reduce"
  top: "inception_4c/5x5"
  param {
    lr_mult: 1
    decay_mult: 1
  }
  param {
    lr_mult: 2
    decay_mult: 0
  }
  convolution_param {
    num_output: 64
    pad: 2
    kernel_size: 5
    weight_filler {
      type: "xavier"
      std: 0.03
    }
    bias_filler {
      type: "constant"
      value: 0.2
    }
  }
}
layer {
  name: "inception_4c/relu_5x5"
  type: "ReLU"
  bottom: "inception_4c/5x5"
  top: "inception_4c/5x5"
}
layer {
  name: "inception_4c/pool"
  type: "Pooling"
  bottom: "inception_4b/output"
  top: "inception_4c/pool"
  pooling_param {
    pool: MAX
    kernel_size: 3
    stride: 1
    pad: 1
  }
}
layer {
  name: "inception_4c/pool_proj"
  type: "Convolution"
  bottom: "inception_4c/pool"
  top: "inception_4c/pool_proj"
  param {
    lr_mult: 1
    decay_mult: 1
  }
  param {
    lr_mult: 2
    decay_mult: 0
  }
  convolution_param {
    num_output: 64
    kernel_size: 1
    weight_filler {
      type: "xavier"
      std: 0.1
    }
    bias_filler {
      type: "constant"
      value: 0.2
    }
  }
}
layer {
  name: "inception_4c/relu_pool_proj"
  type: "ReLU"
  bottom: "inception_4c/pool_proj"
  top: "inception_4c/pool_proj"
}
layer {
  name: "inception_4c/output"
  type: "Concat"
  bottom: "inception_4c/1x1"
  bottom: "inception_4c/3x3"
  bottom: "inception_4c/5x5"
  bottom: "inception_4c/pool_proj"
  top: "inception_4c/output"
}
layer {
  name: "inception_4d/1x1"
  type: "Convolution"
  bottom: "inception_4c/output"
  top: "inception_4d/1x1"
  param {
    lr_mult: 1
    decay_mult: 1
  }
  param {
    lr_mult: 2
    decay_mult: 0
  }
  convolution_param {
    num_output: 112
    kernel_size: 1
    weight_filler {
      type: "xavier"
      std: 0.03
    }
    bias_filler {
      type: "constant"
      value: 0.2
    }
  }
}
layer {
  name: "inception_4d/relu_1x1"
  type: "ReLU"
  bottom: "inception_4d/1x1"
  top: "inception_4d/1x1"
}
layer {
  name: "inception_4d/3x3_reduce"
  type: "Convolution"
  bottom: "inception_4c/output"
  top: "inception_4d/3x3_reduce"
  param {
    lr_mult: 1
    decay_mult: 1
  }
  param {
    lr_mult: 2
    decay_mult: 0
  }
  convolution_param {
    num_output: 144
    kernel_size: 1
    weight_filler {
      type: "xavier"
      std: 0.09
    }
    bias_filler {
      type: "constant"
      value: 0.2
    }
  }
}
layer {
  name: "inception_4d/relu_3x3_reduce"
  type: "ReLU"
  bottom: "inception_4d/3x3_reduce"
  top: "inception_4d/3x3_reduce"
}
layer {
  name: "inception_4d/3x3"
  type: "Convolution"
  bottom: "inception_4d/3x3_reduce"
  top: "inception_4d/3x3"
  param {
    lr_mult: 1
    decay_mult: 1
  }
  param {
    lr_mult: 2
    decay_mult: 0
  }
  convolution_param {
    num_output: 288
    pad: 1
    kernel_size: 3
    weight_filler {
      type: "xavier"
      std: 0.03
    }
    bias_filler {
      type: "constant"
      value: 0.2
    }
  }
}
layer {
  name: "inception_4d/relu_3x3"
  type: "ReLU"
  bottom: "inception_4d/3x3"
  top: "inception_4d/3x3"
}
layer {
  name: "inception_4d/5x5_reduce"
  type: "Convolution"
  bottom: "inception_4c/output"
  top: "inception_4d/5x5_reduce"
  param {
    lr_mult: 1
    decay_mult: 1
  }
  param {
    lr_mult: 2
    decay_mult: 0
  }
  convolution_param {
    num_output: 32
    kernel_size: 1
    weight_filler {
      type: "xavier"
      std: 0.2
    }
    bias_filler {
      type: "constant"
      value: 0.2
    }
  }
}
layer {
  name: "inception_4d/relu_5x5_reduce"
  type: "ReLU"
  bottom: "inception_4d/5x5_reduce"
  top: "inception_4d/5x5_reduce"
}
layer {
  name: "inception_4d/5x5"
  type: "Convolution"
  bottom: "inception_4d/5x5_reduce"
  top: "inception_4d/5x5"
  param {
    lr_mult: 1
    decay_mult: 1
  }
  param {
    lr_mult: 2
    decay_mult: 0
  }
  convolution_param {
    num_output: 64
    pad: 2
    kernel_size: 5
    weight_filler {
      type: "xavier"
      std: 0.03
    }
    bias_filler {
      type: "constant"
      value: 0.2
    }
  }
}
layer {
  name: "inception_4d/relu_5x5"
  type: "ReLU"
  bottom: "inception_4d/5x5"
  top: "inception_4d/5x5"
}
layer {
  name: "inception_4d/pool"
  type: "Pooling"
  bottom: "inception_4c/output"
  top: "inception_4d/pool"
  pooling_param {
    pool: MAX
    kernel_size: 3
    stride: 1
    pad: 1
  }
}
layer {
  name: "inception_4d/pool_proj"
  type: "Convolution"
  bottom: "inception_4d/pool"
  top: "inception_4d/pool_proj"
  param {
    lr_mult: 1
    decay_mult: 1
  }
  param {
    lr_mult: 2
    decay_mult: 0
  }
  convolution_param {
    num_output: 64
    kernel_size: 1
    weight_filler {
      type: "xavier"
      std: 0.1
    }
    bias_filler {
      type: "constant"
      value: 0.2
    }
  }
}
layer {
  name: "inception_4d/relu_pool_proj"
  type: "ReLU"
  bottom: "inception_4d/pool_proj"
  top: "inception_4d/pool_proj"
}
layer {
  name: "inception_4d/output"
  type: "Concat"
  bottom: "inception_4d/1x1"
  bottom: "inception_4d/3x3"
  bottom: "inception_4d/5x5"
…
I1130 10:45:07.766284  1342 layer_factory.hpp:77] Creating layer inception_4c/1x1
I1130 10:45:07.766294  1342 net.cpp:84] Creating Layer inception_4c/1x1
I1130 10:45:07.766299  1342 net.cpp:406] inception_4c/1x1 <- inception_4b/output_inception_4b/output_0_split_0
I1130 10:45:07.766305  1342 net.cpp:380] inception_4c/1x1 -> inception_4c/1x1
I1130 10:45:07.766855  1342 net.cpp:122] Setting up inception_4c/1x1
I1130 10:45:07.766865  1342 net.cpp:129] Top shape: 32 128 14 14 (802816)
I1130 10:45:07.766870  1342 net.cpp:137] Memory required for data: 1359569280
I1130 10:45:07.766877  1342 layer_factory.hpp:77] Creating layer inception_4c/relu_1x1
I1130 10:45:07.766885  1342 net.cpp:84] Creating Layer inception_4c/relu_1x1
I1130 10:45:07.766890  1342 net.cpp:406] inception_4c/relu_1x1 <- inception_4c/1x1
I1130 10:45:07.766896  1342 net.cpp:367] inception_4c/relu_1x1 -> inception_4c/1x1 (in-place)
I1130 10:45:07.766903  1342 net.cpp:122] Setting up inception_4c/relu_1x1
I1130 10:45:07.766908  1342 net.cpp:129] Top shape: 32 128 14 14 (802816)
I1130 10:45:07.766913  1342 net.cpp:137] Memory required for data: 1362780544
I1130 10:45:07.766917  1342 layer_factory.hpp:77] Creating layer inception_4c/3x3_reduce
I1130 10:45:07.766924  1342 net.cpp:84] Creating Layer inception_4c/3x3_reduce
I1130 10:45:07.766929  1342 net.cpp:406] inception_4c/3x3_reduce <- inception_4b/output_inception_4b/output_0_split_1
I1130 10:45:07.766935  1342 net.cpp:380] inception_4c/3x3_reduce -> inception_4c/3x3_reduce
I1130 10:45:07.767470  1342 net.cpp:122] Setting up inception_4c/3x3_reduce
I1130 10:45:07.767480  1342 net.cpp:129] Top shape: 32 128 14 14 (802816)
I1130 10:45:07.767484  1342 net.cpp:137] Memory required for data: 1365991808
I1130 10:45:07.767491  1342 layer_factory.hpp:77] Creating layer inception_4c/relu_3x3_reduce
I1130 10:45:07.767498  1342 net.cpp:84] Creating Layer inception_4c/relu_3x3_reduce
I1130 10:45:07.767503  1342 net.cpp:406] inception_4c/relu_3x3_reduce <- inception_4c/3x3_reduce
I1130 10:45:07.767508  1342 net.cpp:367] inception_4c/relu_3x3_reduce -> inception_4c/3x3_reduce (in-place)
I1130 10:45:07.767515  1342 net.cpp:122] Setting up inception_4c/relu_3x3_reduce
I1130 10:45:07.767521  1342 net.cpp:129] Top shape: 32 128 14 14 (802816)
I1130 10:45:07.767525  1342 net.cpp:137] Memory required for data: 1369203072
I1130 10:45:07.767529  1342 layer_factory.hpp:77] Creating layer inception_4c/3x3
I1130 10:45:07.767537  1342 net.cpp:84] Creating Layer inception_4c/3x3
I1130 10:45:07.767541  1342 net.cpp:406] inception_4c/3x3 <- inception_4c/3x3_reduce
I1130 10:45:07.767549  1342 net.cpp:380] inception_4c/3x3 -> inception_4c/3x3
I1130 10:45:07.769680  1342 net.cpp:122] Setting up inception_4c/3x3
I1130 10:45:07.769692  1342 net.cpp:129] Top shape: 32 256 14 14 (1605632)
I1130 10:45:07.769696  1342 net.cpp:137] Memory required for data: 1375625600
I1130 10:45:07.769703  1342 layer_factory.hpp:77] Creating layer inception_4c/relu_3x3
I1130 10:45:07.769711  1342 net.cpp:84] Creating Layer inception_4c/relu_3x3
I1130 10:45:07.769716  1342 net.cpp:406] inception_4c/relu_3x3 <- inception_4c/3x3
I1130 10:45:07.769722  1342 net.cpp:367] inception_4c/relu_3x3 -> inception_4c/3x3 (in-place)
I1130 10:45:07.769731  1342 net.cpp:122] Setting up inception_4c/relu_3x3
I1130 10:45:07.769737  1342 net.cpp:129] Top shape: 32 256 14 14 (1605632)
I1130 10:45:07.769740  1342 net.cpp:137] Memory required for data: 1382048128
I1130 10:45:07.769744  1342 layer_factory.hpp:77] Creating layer inception_4c/5x5_reduce
I1130 10:45:07.769752  1342 net.cpp:84] Creating Layer inception_4c/5x5_reduce
I1130 10:45:07.769757  1342 net.cpp:406] inception_4c/5x5_reduce <- inception_4b/output_inception_4b/output_0_split_2
I1130 10:45:07.769764  1342 net.cpp:380] inception_4c/5x5_reduce -> inception_4c/5x5_reduce
I1130 10:45:07.770041  1342 net.cpp:122] Setting up inception_4c/5x5_reduce
I1130 10:45:07.770051  1342 net.cpp:129] Top shape: 32 24 14 14 (150528)
I1130 10:45:07.770054  1342 net.cpp:137] Memory required for data: 1382650240
I1130 10:45:07.770061  1342 layer_factory.hpp:77] Creating layer inception_4c/relu_5x5_reduce
I1130 10:45:07.770067  1342 net.cpp:84] Creating Layer inception_4c/relu_5x5_reduce
I1130 10:45:07.770072  1342 net.cpp:406] inception_4c/relu_5x5_reduce <- inception_4c/5x5_reduce
I1130 10:45:07.770078  1342 net.cpp:367] inception_4c/relu_5x5_reduce -> inception_4c/5x5_reduce (in-place)
I1130 10:45:07.770086  1342 net.cpp:122] Setting up inception_4c/relu_5x5_reduce
I1130 10:45:07.770092  1342 net.cpp:129] Top shape: 32 24 14 14 (150528)
I1130 10:45:07.770095  1342 net.cpp:137] Memory required for data: 1383252352
I1130 10:45:07.770100  1342 layer_factory.hpp:77] Creating layer inception_4c/5x5
I1130 10:45:07.770107  1342 net.cpp:84] Creating Layer inception_4c/5x5
I1130 10:45:07.770112  1342 net.cpp:406] inception_4c/5x5 <- inception_4c/5x5_reduce
I1130 10:45:07.770119  1342 net.cpp:380] inception_4c/5x5 -> inception_4c/5x5
I1130 10:45:07.770530  1342 net.cpp:122] Setting up inception_4c/5x5
I1130 10:45:07.770540  1342 net.cpp:129] Top shape: 32 64 14 14 (401408)
I1130 10:45:07.770545  1342 net.cpp:137] Memory required for data: 1384857984
I1130 10:45:07.770552  1342 layer_factory.hpp:77] Creating layer inception_4c/relu_5x5
I1130 10:45:07.770558  1342 net.cpp:84] Creating Layer inception_4c/relu_5x5
I1130 10:45:07.770563  1342 net.cpp:406] inception_4c/relu_5x5 <- inception_4c/5x5
I1130 10:45:07.770570  1342 net.cpp:367] inception_4c/relu_5x5 -> inception_4c/5x5 (in-place)
I1130 10:45:07.770576  1342 net.cpp:122] Setting up inception_4c/relu_5x5
I1130 10:45:07.770581  1342 net.cpp:129] Top shape: 32 64 14 14 (401408)
I1130 10:45:07.770586  1342 net.cpp:137] Memory required for data: 1386463616
I1130 10:45:07.770591  1342 layer_factory.hpp:77] Creating layer inception_4c/pool
I1130 10:45:07.770597  1342 net.cpp:84] Creating Layer inception_4c/pool
I1130 10:45:07.770602  1342 net.cpp:406] inception_4c/pool <- inception_4b/output_inception_4b/output_0_split_3
I1130 10:45:07.770608  1342 net.cpp:380] inception_4c/pool -> inception_4c/pool
I1130 10:45:07.770645  1342 net.cpp:122] Setting up inception_4c/pool
I1130 10:45:07.770653  1342 net.cpp:129] Top shape: 32 512 14 14 (3211264)
I1130 10:45:07.770658  1342 net.cpp:137] Memory required for data: 1399308672
I1130 10:45:07.770661  1342 layer_factory.hpp:77] Creating layer inception_4c/pool_proj
I1130 10:45:07.770670  1342 net.cpp:84] Creating Layer inception_4c/pool_proj
I1130 10:45:07.770676  1342 net.cpp:406] inception_4c/pool_proj <- inception_4c/pool
I1130 10:45:07.770684  1342 net.cpp:380] inception_4c/pool_proj -> inception_4c/pool_proj
I1130 10:45:07.771069  1342 net.cpp:122] Setting up inception_4c/pool_proj
I1130 10:45:07.771078  1342 net.cpp:129] Top shape: 32 64 14 14 (401408)
I1130 10:45:07.771083  1342 net.cpp:137] Memory required for data: 1400914304
I1130 10:45:07.771098  1342 layer_factory.hpp:77] Creating layer inception_4c/relu_pool_proj
I1130 10:45:07.771106  1342 net.cpp:84] Creating Layer inception_4c/relu_pool_proj
I1130 10:45:07.771111  1342 net.cpp:406] inception_4c/relu_pool_proj <- inception_4c/pool_proj
I1130 10:45:07.771117  1342 net.cpp:367] inception_4c/relu_pool_proj -> inception_4c/pool_proj (in-place)
I1130 10:45:07.771124  1342 net.cpp:122] Setting up inception_4c/relu_pool_proj
I1130 10:45:07.771131  1342 net.cpp:129] Top shape: 32 64 14 14 (401408)
I1130 10:45:07.771134  1342 net.cpp:137] Memory required for data: 1402519936
I1130 10:45:07.771138  1342 layer_factory.hpp:77] Creating layer inception_4c/output
I1130 10:45:07.771144  1342 net.cpp:84] Creating Layer inception_4c/output
I1130 10:45:07.771149  1342 net.cpp:406] inception_4c/output <- inception_4c/1x1
I1130 10:45:07.771154  1342 net.cpp:406] inception_4c/output <- inception_4c/3x3
I1130 10:45:07.771159  1342 net.cpp:406] inception_4c/output <- inception_4c/5x5
I1130 10:45:07.771164  1342 net.cpp:406] inception_4c/output <- inception_4c/pool_proj
I1130 10:45:07.771170  1342 net.cpp:380] inception_4c/output -> inception_4c/output
I1130 10:45:07.771195  1342 net.cpp:122] Setting up inception_4c/output
I1130 10:45:07.771203  1342 net.cpp:129] Top shape: 32 512 14 14 (3211264)
I1130 10:45:07.771209  1342 net.cpp:137] Memory required for data: 1415364992
I1130 10:45:07.771214  1342 layer_factory.hpp:77] Creating layer inception_4c/output_inception_4c/output_0_split
I1130 10:45:07.771220  1342 net.cpp:84] Creating Layer inception_4c/output_inception_4c/output_0_split
I1130 10:45:07.771225  1342 net.cpp:406] inception_4c/output_inception_4c/output_0_split <- inception_4c/output
I1130 10:45:07.771231  1342 net.cpp:380] inception_4c/output_inception_4c/output_0_split -> inception_4c/output_inception_4c/output_0_split_0
I1130 10:45:07.771239  1342 net.cpp:380] inception_4c/output_inception_4c/output_0_split -> inception_4c/output_inception_4c/output_0_split_1
I1130 10:45:07.771246  1342 net.cpp:380] inception_4c/output_inception_4c/output_0_split -> inception_4c/output_inception_4c/output_0_split_2
I1130 10:45:07.771253  1342 net.cpp:380] inception_4c/output_inception_4c/output_0_split -> inception_4c/output_inception_4c/output_0_split_3
I1130 10:45:07.771306  1342 net.cpp:122] Setting up inception_4c/output_inception_4c/output_0_split
I1130 10:45:07.771312  1342 net.cpp:129] Top shape: 32 512 14 14 (3211264)
I1130 10:45:07.771318  1342 net.cpp:129] Top shape: 32 512 14 14 (3211264)
I1130 10:45:07.771323  1342 net.cpp:129] Top shape: 32 512 14 14 (3211264)
I1130 10:45:07.771328  1342 net.cpp:129] Top shape: 32 512 14 14 (3211264)
I1130 10:45:07.771332  1342 net.cpp:137] Memory required for data: 1466745216
I1130 10:45:07.771337  1342 layer_factory.hpp:77] Creating layer inception_4d/1x1
I1130 10:45:07.771345  1342 net.cpp:84] Creating Layer inception_4d/1x1
I1130 10:45:07.771350  1342 net.cpp:406] inception_4d/1x1 <- inception_4c/output_inception_4c/output_0_split_0
I1130 10:45:07.771358  1342 net.cpp:380] inception_4d/1x1 -> inception_4d/1x1
I1130 10:45:07.772238  1342 net.cpp:122] Setting up inception_4d/1x1
I1130 10:45:07.772249  1342 net.cpp:129] Top shape: 32 112 14 14 (702464)
I1130 10:45:07.772253  1342 net.cpp:137] Memory required for data: 1469555072
I1130 10:45:07.772263  1342 layer_factory.hpp:77] Creating layer inception_4d/relu_1x1
I1130 10:45:07.772269  1342 net.cpp:84] Creating Layer inception_4d/relu_1x1
I1130 10:45:07.772275  1342 net.cpp:406] inception_4d/relu_1x1 <- inception_4d/1x1
I1130 10:45:07.772281  1342 net.cpp:367] inception_4d/relu_1x1 -> inception_4d/1x1 (in-place)
I1130 10:45:07.772289  1342 net.cpp:122] Setting up inception_4d/relu_1x1
I1130 10:45:07.772295  1342 net.cpp:129] Top shape: 32 112 14 14 (702464)
I1130 10:45:07.772300  1342 net.cpp:137] Memory required for data: 1472364928
I1130 10:45:07.772303  1342 layer_factory.hpp:77] Creating layer inception_4d/3x3_reduce
I1130 10:45:07.772310  1342 net.cpp:84] Creating Layer inception_4d/3x3_reduce
I1130 10:45:07.772315  1342 net.cpp:406] inception_4d/3x3_reduce <- inception_4c/output_inception_4c/output_0_split_1
I1130 10:45:07.772322  1342 net.cpp:380] inception_4d/3x3_reduce -> inception_4d/3x3_reduce
I1130 10:45:07.772935  1342 net.cpp:122] Setting up inception_4d/3x3_reduce
I1130 10:45:07.772944  1342 net.cpp:129] Top shape: 32 144 14 14 (903168)
I1130 10:45:07.772949  1342 net.cpp:137] Memory required for data: 1475977600
I1130 10:45:07.772956  1342 layer_factory.hpp:77] Creating layer inception_4d/relu_3x3_reduce
I1130 10:45:07.772963  1342 net.cpp:84] Creating Layer inception_4d/relu_3x3_reduce
I1130 10:45:07.772967  1342 net.cpp:406] inception_4d/relu_3x3_reduce <- inception_4d/3x3_reduce
I1130 10:45:07.772974  1342 net.cpp:367] inception_4d/relu_3x3_reduce -> inception_4d/3x3_reduce (in-place)
I1130 10:45:07.772981  1342 net.cpp:122] Setting up inception_4d/relu_3x3_reduce
I1130 10:45:07.772989  1342 net.cpp:129] Top shape: 32 144 14 14 (903168)
I1130 10:45:07.772994  1342 net.cpp:137] Memory required for data: 1479590272
I1130 10:45:07.772997  1342 layer_factory.hpp:77] Creating layer inception_4d/3x3
I1130 10:45:07.773006  1342 net.cpp:84] Creating Layer inception_4d/3x3
I1130 10:45:07.773012  1342 net.cpp:406] inception_4d/3x3 <- inception_4d/3x3_reduce
I1130 10:45:07.773020  1342 net.cpp:380] inception_4d/3x3 -> inception_4d/3x3
I1130 10:45:07.776720  1342 net.cpp:122] Setting up inception_4d/3x3
I1130 10:45:07.776731  1342 net.cpp:129] Top shape: 32 288 14 14 (1806336)
I1130 10:45:07.776734  1342 net.cpp:137] Memory required for data: 1486815616
I1130 10:45:07.776742  1342 layer_factory.hpp:77] Creating layer inception_4d/relu_3x3
I1130 10:45:07.776749  1342 net.cpp:84] Creating Layer inception_4d/relu_3x3
I1130 10:45:07.776756  1342 net.cpp:406] inception_4d/relu_3x3 <- inception_4d/3x3
I1130 10:45:07.776762  1342 net.cpp:367] inception_4d/relu_3x3 -> inception_4d/3x3 (in-place)
I1130 10:45:07.776769  1342 net.cpp:122] Setting up inception_4d/relu_3x3
I1130 10:45:07.776775  1342 net.cpp:129] Top shape: 32 288 14 14 (1806336)
I1130 10:45:07.776779  1342 net.cpp:137] Memory required for data: 1494040960
I1130 10:45:07.776783  1342 layer_factory.hpp:77] Creating layer inception_4d/5x5_reduce
I1130 10:45:07.776792  1342 net.cpp:84] Creating Layer inception_4d/5x5_reduce
I1130 10:45:07.776796  1342 net.cpp:406] inception_4d/5x5_reduce <- inception_4c/output_inception_4c/output_0_split_2
I1130 10:45:07.776804  1342 net.cpp:380] inception_4d/5x5_reduce -> inception_4d/5x5_reduce
I1130 10:45:07.777103  1342 net.cpp:122] Setting up inception_4d/5x5_reduce
I1130 10:45:07.777112  1342 net.cpp:129] Top shape: 32 32 14 14 (200704)
I1130 10:45:07.777117  1342 net.cpp:137] Memory required for data: 1494843776
I1130 10:45:07.777123  1342 layer_factory.hpp:77] Creating layer inception_4d/relu_5x5_reduce
I1130 10:45:07.777129  1342 net.cpp:84] Creating Layer inception_4d/relu_5x5_reduce
I1130 10:45:07.777135  1342 net.cpp:406] inception_4d/relu_5x5_reduce <- inception_4d/5x5_reduce
I1130 10:45:07.777142  1342 net.cpp:367] inception_4d/relu_5x5_reduce -> inception_4d/5x5_reduce (in-place)
I1130 10:45:07.777148  1342 net.cpp:122] Setting up inception_4d/relu_5x5_reduce
I1130 10:45:07.777153  1342 net.cpp:129] Top shape: 32 32 14 14 (200704)
I1130 10:45:07.777158  1342 net.cpp:137] Memory required for data: 1495646592
I1130 10:45:07.777163  1342 layer_factory.hpp:77] Creating layer inception_4d/5x5
I1130 10:45:07.777171  1342 net.cpp:84] Creating Layer inception_4d/5x5
I1130 10:45:07.777176  1342 net.cpp:406] inception_4d/5x5 <- inception_4d/5x5_reduce
I1130 10:45:07.777184  1342 net.cpp:380] inception_4d/5x5 -> inception_4d/5x5
I1130 10:45:07.777665  1342 net.cpp:122] Setting up inception_4d/5x5
I1130 10:45:07.777674  1342 net.cpp:129] Top shape: 32 64 14 14 (401408)
I1130 10:45:07.777678  1342 net.cpp:137] Memory required for data: 1497252224
I1130 10:45:07.777685  1342 layer_factory.hpp:77] Creating layer inception_4d/relu_5x5
I1130 10:45:07.777693  1342 net.cpp:84] Creating Layer inception_4d/relu_5x5
I1130 10:45:07.777698  1342 net.cpp:406] inception_4d/relu_5x5 <- inception_4d/5x5
I1130 10:45:07.777704  1342 net.cpp:367] inception_4d/relu_5x5 -> inception_4d/5x5 (in-place)
I1130 10:45:07.777710  1342 net.cpp:122] Setting up inception_4d/relu_5x5
I1130 10:45:07.777716  1342 net.cpp:129] Top shape: 32 64 14 14 (401408)
I1130 10:45:07.777721  1342 net.cpp:137] Memory required for data: 1498857856
I1130 10:45:07.777725  1342 layer_factory.hpp:77] Creating layer inception_4d/pool
I1130 10:45:07.777732  1342 net.cpp:84] Creating Layer inception_4d/pool
I1130 10:45:07.777737  1342 net.cpp:406] inception_4d/pool <- inception_4c/output_inception_4c/output_0_split_3
I1130 10:45:07.777743  1342 net.cpp:380] inception_4d/pool -> inception_4d/pool
I1130 10:45:07.777781  1342 net.cpp:122] Setting up inception_4d/pool
I1130 10:45:07.777788  1342 net.cpp:129] Top shape: 32 512 14 14 (3211264)
I1130 10:45:07.777792  1342 net.cpp:137] Memory required for data: 1511702912
I1130 10:45:07.777796  1342 layer_factory.hpp:77] Creating layer inception_4d/pool_proj
I1130 10:45:07.777804  1342 net.cpp:84] Creating Layer inception_4d/pool_proj
I1130 10:45:07.777811  1342 net.cpp:406] inception_4d/pool_proj <- inception_4d/pool
I1130 10:45:07.777817  1342 net.cpp:380] inception_4d/pool_proj -> inception_4d/pool_proj
I1130 10:45:07.778193  1342 net.cpp:122] Setting up inception_4d/pool_proj
I1130 10:45:07.778203  1342 net.cpp:129] Top shape: 32 64 14 14 (401408)
I1130 10:45:07.778206  1342 net.cpp:137] Memory required for data: 1513308544
I1130 10:45:07.778213  1342 layer_factory.hpp:77] Creating layer inception_4d/relu_pool_proj
I1130 10:45:07.778219  1342 net.cpp:84] Creating Layer inception_4d/relu_pool_proj
I1130 10:45:07.778225  1342 net.cpp:406] inception_4d/relu_pool_proj <- inception_4d/pool_proj
I1130 10:45:07.778231  1342 net.cpp:367] inception_4d/relu_pool_proj -> inception_4d/pool_proj (in-place)
I1130 10:45:07.778239  1342 net.cpp:122] Setting up inception_4d/relu_pool_proj
I1130 10:45:07.778244  1342 net.cpp:129] Top shape: 32 64 14 14 (401408)
I1130 10:45:07.778247  1342 net.cpp:137] Memory required for data: 1514914176
I1130 10:45:07.778252  1342 layer_factory.hpp:77] Creating layer inception_4d/output
I1130 10:45:07.778259  1342 net.cpp:84] Creating Layer inception_4d/output
I1130 10:45:07.778264  1342 net.cpp:406] inception_4d/output <- inception_4d/1x1
I1130 10:45:07.778270  1342 net.cpp:406] inception_4d/output <- inception_4d/3x3
I1130 10:45:07.778275  1342 net.cpp:406] inception_4d/output <- inception_4d/5x5
I1130 10:45:07.778280  1342 net.cpp:406] inception_4d/output <- inception_4d/pool_proj
I1130 10:45:07.778285  1342 net.cpp:380] inception_4d/output -> inception_4d/output
I1130 10:45:07.778311  1342 net.cpp:122] Setting up inception_4d/output
I1130 10:45:07.778318  1342 net.cpp:129] Top shape: 32 528 14 14 (3311616)
I1130 10:45:07.778322  1342 net.cpp:137] Memory required for data: 1528160640
I1130 10:45:07.778326  1342 layer_factory.hpp:77] Creating layer inception_4d/output_inception_4d/output_0_split
I1130 10:45:07.778333  1342 net.cpp:84] Creating Layer inception_4d/output_inception_4d/output_0_split
I1130 10:45:07.778338  1342 net.cpp:406] inception_4d/output_inception_4d/output_0_split <- inception_4d/output
I1130 10:45:07.778345  1342 net.cpp:380] inception_4d/output_inception_4d/output_0_split -> inception_4d/output_inception_4d/output_0_split_0
I1130 10:45:07.778352  1342 net.cpp:380] inception_4d/output_inception_4d/output_0_split -> inception_4d/output_inception_4d/output_0_split_1
I1130 10:45:07.778360  1342 net.cpp:380] inception_4d/output_inception_4d/output_0_split -> inception_4d/output_inception_4d/output_0_split_2
I1130 10:45:07.778367  1342 net.cpp:380] inception_4d/output_inception_4d/output_0_split -> inception_4d/output_inception_4d/output_0_split_3
I1130 10:45:07.778419  1342 net.cpp:122] Setting up inception_4d/output_inception_4d/output_0_split
I1130 10:45:07.778426  1342 net.cpp:129] Top shape: 32 528 14 14 (3311616)
I1130 10:45:07.778431  1342 net.cpp:129] Top shape: 32 528 14 14 (3311616)
I1130 10:45:07.778436  1342 net.cpp:129] Top shape: 32 528 14 14 (3311616)
I1130 10:45:07.778442  1342 net.cpp:129] Top shape: 32 528 14 14 (3311616)
I1130 10:45:07.778446  1342 net.cpp:137] Memory required for data: 1581146496
I1130 10:45:07.778450  1342 layer_factory.hpp:77] Creating layer inception_4e/1x1
I1130 10:45:07.778460  1342 net.cpp:84] Creating Layer inception_4e/1x1
I1130 10:45:07.778465  1342 net.cpp:406] inception_4e/1x1 <- inception_4d/output_inception_4d/output_0_split_0
I1130 10:45:07.778471  1342 net.cpp:380] inception_4e/1x1 -> inception_4e/1x1
I1130 10:45:07.779754  1342 net.cpp:122] Setting up inception_4e/1x1
I1130 10:45:07.779767  1342 net.cpp:129] Top shape: 32 256 14 14 (1605632)
I1130 10:45:07.779770  1342 net.cpp:137] Memory required for data: 1587569024
I1130 10:45:07.779777  1342 layer_factory.hpp:77] Creating layer inception_4e/relu_1x1
I1130 10:45:07.779783  1342 net.cpp:84] Creating Layer inception_4e/relu_1x1
I1130 10:45:07.779789  1342 net.cpp:406] inception_4e/relu_1x1 <- inception_4e/1x1
I1130 10:45:07.779795  1342 net.cpp:367] inception_4e/relu_1x1 -> inception_4e/1x1 (in-place)
I1130 10:45:07.779803  1342 net.cpp:122] Setting up inception_4e/relu_1x1
I1130 10:45:07.779808  1342 net.cpp:129] Top shape: 32 256 14 14 (1605632)
I1130 10:45:07.779812  1342 net.cpp:137] Memory required for data: 1593991552
I1130 10:45:07.779817  1342 layer_factory.hpp:77] Creating layer inception_4e/3x3_reduce
I1130 10:45:07.779824  1342 net.cpp:84] Creating Layer inception_4e/3x3_reduce
I1130 10:45:07.779830  1342 net.cpp:406] inception_4e/3x3_reduce <- inception_4d/output_inception_4d/output_0_split_1
I1130 10:45:07.779836  1342 net.cpp:380] inception_4e/3x3_reduce -> inception_4e/3x3_reduce
I1130 10:45:07.780483  1342 net.cpp:122] Setting up inception_4e/3x3_reduce
I1130 10:45:07.780493  1342 net.cpp:129] Top shape: 32 160 14 14 (1003520)
I1130 10:45:07.780496  1342 net.cpp:137] Memory required for data: 1598005632
I1130 10:45:07.780504  1342 layer_factory.hpp:77] Creating layer inception_4e/relu_3x3_reduce
I1130 10:45:07.780511  1342 net.cpp:84] Creating Layer inception_4e/relu_3x3_reduce
I1130 10:45:07.780516  1342 net.cpp:406] inception_4e/relu_3x3_reduce <- inception_4e/3x3_reduce
I1130 10:45:07.780522  1342 net.cpp:367] inception_4e/relu_3x3_reduce -> inception_4e/3x3_reduce (in-place)
I1130 10:45:07.780529  1342 net.cpp:122] Setting up inception_4e/relu_3x3_reduce
I1130 10:45:07.780535  1342 net.cpp:129] Top shape: 32 160 14 14 (1003520)
I1130 10:45:07.780539  1342 net.cpp:137] Memory required for data: 1602019712
I1130 10:45:07.780544  1342 layer_factory.hpp:77] Creating layer inception_4e/3x3
I1130 10:45:07.780551  1342 net.cpp:84] Creating Layer inception_4e/3x3
I1130 10:45:07.780556  1342 net.cpp:406] inception_4e/3x3 <- inception_4e/3x3_reduce
I1130 10:45:07.780562  1342 net.cpp:380] inception_4e/3x3 -> inception_4e/3x3
I1130 10:45:07.783737  1342 net.cpp:122] Setting up inception_4e/3x3
I1130 10:45:07.783756  1342 net.cpp:129] Top shape: 32 320 14 14 (2007040)
I1130 10:45:07.783761  1342 net.cpp:137] Memory required for data: 1610047872
I1130 10:45:07.783768  1342 layer_factory.hpp:77] Creating layer inception_4e/relu_3x3
I1130 10:45:07.783777  1342 net.cpp:84] Creating Layer inception_4e/relu_3x3
I1130 10:45:07.783783  1342 net.cpp:406] inception_4e/relu_3x3 <- inception_4e/3x3
I1130 10:45:07.783792  1342 net.cpp:367] inception_4e/relu_3x3 -> inception_4e/3x3 (in-place)
I1130 10:45:07.783800  1342 net.cpp:122] Setting up inception_4e/relu_3x3
I1130 10:45:07.783807  1342 net.cpp:129] Top shape: 32 320 14 14 (2007040)
I1130 10:45:07.783812  1342 net.cpp:137] Memory required for data: 1618076032
I1130 10:45:07.783816  1342 layer_factory.hpp:77] Creating layer inception_4e/5x5_reduce
I1130 10:45:07.783824  1342 net.cpp:84] Creating Layer inception_4e/5x5_reduce
I1130 10:45:07.783829  1342 net.cpp:406] inception_4e/5x5_reduce <- inception_4d/output_inception_4d/output_0_split_2
I1130 10:45:07.783836  1342 net.cpp:380] inception_4e/5x5_reduce -> inception_4e/5x5_reduce
I1130 10:45:07.784137  1342 net.cpp:122] Setting up inception_4e/5x5_reduce
I1130 10:45:07.784147  1342 net.cpp:129] Top shape: 32 32 14 14 (200704)
I1130 10:45:07.784152  1342 net.cpp:137] Memory required for data: 1618878848
I1130 10:45:07.784157  1342 layer_factory.hpp:77] Creating layer inception_4e/relu_5x5_reduce
I1130 10:45:07.784164  1342 net.cpp:84] Creating Layer inception_4e/relu_5x5_reduce
I1130 10:45:07.784169  1342 net.cpp:406] inception_4e/relu_5x5_reduce <- inception_4e/5x5_reduce
I1130 10:45:07.784175  1342 net.cpp:367] inception_4e/relu_5x5_reduce -> inception_4e/5x5_reduce (in-place)
I1130 10:45:07.784183  1342 net.cpp:122] Setting up inception_4e/relu_5x5_reduce
I1130 10:45:07.784188  1342 net.cpp:129] Top shape: 32 32 14 14 (200704)
I1130 10:45:07.784193  1342 net.cpp:137] Memory required for data: 1619681664
I1130 10:45:07.784196  1342 layer_factory.hpp:77] Creating layer inception_4e/5x5
I1130 10:45:07.784204  1342 net.cpp:84] Creating Layer inception_4e/5x5
I1130 10:45:07.784209  1342 net.cpp:406] inception_4e/5x5 <- inception_4e/5x5_reduce
I1130 10:45:07.784215  1342 net.cpp:380] inception_4e/5x5 -> inception_4e/5x5
I1130 10:45:07.785328  1342 net.cpp:122] Setting up inception_4e/5x5
I1130 10:45:07.785338  1342 net.cpp:129] Top shape: 32 128 14 14 (802816)
I1130 10:45:07.785342  1342 net.cpp:137] Memory required for data: 1622892928
I1130 10:45:07.785349  1342 layer_factory.hpp:77] Creating layer inception_4e/relu_5x5
I1130 10:45:07.785357  1342 net.cpp:84] Creating Layer inception_4e/relu_5x5
I1130 10:45:07.785362  1342 net.cpp:406] inception_4e/relu_5x5 <- inception_4e/5x5
I1130 10:45:07.785368  1342 net.cpp:367] inception_4e/relu_5x5 -> inception_4e/5x5 (in-place)
I1130 10:45:07.785377  1342 net.cpp:122] Setting up inception_4e/relu_5x5
I1130 10:45:07.785382  1342 net.cpp:129] Top shape: 32 128 14 14 (802816)
I1130 10:45:07.785387  1342 net.cpp:137] Memory required for data: 1626104192
I1130 10:45:07.785392  1342 layer_factory.hpp:77] Creating layer inception_4e/pool
I1130 10:45:07.785399  1342 net.cpp:84] Creating Layer inception_4e/pool
I1130 10:45:07.785404  1342 net.cpp:406] inception_4e/pool <- inception_4d/output_inception_4d/output_0_split_3
I1130 10:45:07.785411  1342 net.cpp:380] inception_4e/pool -> inception_4e/pool
I1130 10:45:07.785449  1342 net.cpp:122] Setting up inception_4e/pool
I1130 10:45:07.785457  1342 net.cpp:129] Top shape: 32 528 14 14 (3311616)
I1130 10:45:07.785462  1342 net.cpp:137] Memory required for data: 1639350656
I1130 10:45:07.785467  1342 layer_factory.hpp:77] Creating layer inception_4e/pool_proj
I1130 10:45:07.785476  1342 net.cpp:84] Creating Layer inception_4e/pool_proj
I1130 10:45:07.785481  1342 net.cpp:406] inception_4e/pool_proj <- inception_4e/pool
I1130 10:45:07.785490  1342 net.cpp:380] inception_4e/pool_proj -> inception_4e/pool_proj
I1130 10:45:07.786038  1342 net.cpp:122] Setting up inception_4e/pool_proj
I1130 10:45:07.786047  1342 net.cpp:129] Top shape: 32 128 14 14 (802816)
I1130 10:45:07.786051  1342 net.cpp:137] Memory required for data: 1642561920
I1130 10:45:07.786059  1342 layer_factory.hpp:77] Creating layer inception_4e/relu_pool_proj
I1130 10:45:07.786065  1342 net.cpp:84] Creating Layer inception_4e/relu_pool_proj
I1130 10:45:07.786070  1342 net.cpp:406] inception_4e/relu_pool_proj <- inception_4e/pool_proj
I1130 10:45:07.786077  1342 net.cpp:367] inception_4e/relu_pool_proj -> inception_4e/pool_proj (in-place)
I1130 10:45:07.786083  1342 net.cpp:122] Setting up inception_4e/relu_pool_proj
I1130 10:45:07.786089  1342 net.cpp:129] Top shape: 32 128 14 14 (802816)
I1130 10:45:07.786093  1342 net.cpp:137] Memory required for data: 1645773184
I1130 10:45:07.786098  1342 layer_factory.hpp:77] Creating layer inception_4e/output
I1130 10:45:07.786104  1342 net.cpp:84] Creating Layer inception_4e/output
I1130 10:45:07.786109  1342 net.cpp:406] inception_4e/output <- inception_4e/1x1
I1130 10:45:07.786114  1342 net.cpp:406] inception_4e/output <- inception_4e/3x3
I1130 10:45:07.786120  1342 net.cpp:406] inception_4e/output <- inception_4e/5x5
I1130 10:45:07.786125  1342 net.cpp:406] inception_4e/output <- inception_4e/pool_proj
I1130 10:45:07.786131  1342 net.cpp:380] inception_4e/output -> inception_4e/output
I1130 10:45:07.786155  1342 net.cpp:122] Setting up inception_4e/output
I1130 10:45:07.786164  1342 net.cpp:129] Top shape: 32 832 14 14 (5218304)
I1130 10:45:07.786168  1342 net.cpp:137] Memory required for data: 1666646400
I1130 10:45:07.786171  1342 layer_factory.hpp:77] Creating layer pool4/3x3_s2
I1130 10:45:07.786178  1342 net.cpp:84] Creating Layer pool4/3x3_s2
I1130 10:45:07.786183  1342 net.cpp:406] pool4/3x3_s2 <- inception_4e/output
I1130 10:45:07.786190  1342 net.cpp:380] pool4/3x3_s2 -> pool4/3x3_s2
I1130 10:45:07.786223  1342 net.cpp:122] Setting up pool4/3x3_s2
I1130 10:45:07.786231  1342 net.cpp:129] Top shape: 32 832 7 7 (1304576)
I1130 10:45:07.786236  1342 net.cpp:137] Memory required for data: 1671864704
I1130 10:45:07.786239  1342 layer_factory.hpp:77] Creating layer pool4/3x3_s2_pool4/3x3_s2_0_split
I1130 10:45:07.786247  1342 net.cpp:84] Creating Layer pool4/3x3_s2_pool4/3x3_s2_0_split
I1130 10:45:07.786252  1342 net.cpp:406] pool4/3x3_s2_pool4/3x3_s2_0_split <- pool4/3x3_s2
I1130 10:45:07.786257  1342 net.cpp:380] pool4/3x3_s2_pool4/3x3_s2_0_split -> pool4/3x3_s2_pool4/3x3_s2_0_split_0
I1130 10:45:07.786265  1342 net.cpp:380] pool4/3x3_s2_pool4/3x3_s2_0_split -> pool4/3x3_s2_pool4/3x3_s2_0_split_1
I1130 10:45:07.786276  1342 net.cpp:380] pool4/3x3_s2_pool4/3x3_s2_0_split -> pool4/3x3_s2_pool4/3x3_s2_0_split_2
I1130 10:45:07.786284  1342 net.cpp:380] pool4/3x3_s2_pool4/3x3_s2_0_split -> pool4/3x3_s2_pool4/3x3_s2_0_split_3
I1130 10:45:07.786335  1342 net.cpp:122] Setting up pool4/3x3_s2_pool4/3x3_s2_0_split
I1130 10:45:07.786343  1342 net.cpp:129] Top shape: 32 832 7 7 (1304576)
I1130 10:45:07.786350  1342 net.cpp:129] Top shape: 32 832 7 7 (1304576)
I1130 10:45:07.786355  1342 net.cpp:129] Top shape: 32 832 7 7 (1304576)
I1130 10:45:07.786360  1342 net.cpp:129] Top shape: 32 832 7 7 (1304576)
I1130 10:45:07.786363  1342 net.cpp:137] Memory required for data: 1692737920
I1130 10:45:07.786367  1342 layer_factory.hpp:77] Creating layer inception_5a/1x1
I1130 10:45:07.786377  1342 net.cpp:84] Creating Layer inception_5a/1x1
I1130 10:45:07.786382  1342 net.cpp:406] inception_5a/1x1 <- pool4/3x3_s2_pool4/3x3_s2_0_split_0
I1130 10:45:07.786391  1342 net.cpp:380] inception_5a/1x1 -> inception_5a/1x1
I1130 10:45:07.788074  1342 net.cpp:122] Setting up inception_5a/1x1
I1130 10:45:07.788089  1342 net.cpp:129] Top shape: 32 256 7 7 (401408)
I1130 10:45:07.788094  1342 net.cpp:137] Memory required for data: 1694343552
I1130 10:45:07.788101  1342 layer_factory.hpp:77] Creating layer inception_5a/relu_1x1
I1130 10:45:07.788110  1342 net.cpp:84] Creating Layer inception_5a/relu_1x1
I1130 10:45:07.788116  1342 net.cpp:406] inception_5a/relu_1x1 <- inception_5a/1x1
I1130 10:45:07.788123  1342 net.cpp:367] inception_5a/relu_1x1 -> inception_5a/1x1 (in-place)
I1130 10:45:07.788130  1342 net.cpp:122] Setting up inception_5a/relu_1x1
I1130 10:45:07.788136  1342 net.cpp:129] Top shape: 32 256 7 7 (401408)
I1130 10:45:07.788141  1342 net.cpp:137] Memory required for data: 1695949184
I1130 10:45:07.788146  1342 layer_factory.hpp:77] Creating layer inception_5a/3x3_reduce
I1130 10:45:07.788158  1342 net.cpp:84] Creating Layer inception_5a/3x3_reduce
I1130 10:45:07.788163  1342 net.cpp:406] inception_5a/3x3_reduce <- pool4/3x3_s2_pool4/3x3_s2_0_split_1
I1130 10:45:07.788172  1342 net.cpp:380] inception_5a/3x3_reduce -> inception_5a/3x3_reduce
I1130 10:45:07.791033  1342 net.cpp:122] Setting up inception_5a/3x3_reduce
I1130 10:45:07.791050  1342 net.cpp:129] Top shape: 32 160 7 7 (250880)
I1130 10:45:07.791055  1342 net.cpp:137] Memory required for data: 1696952704
I1130 10:45:07.791064  1342 layer_factory.hpp:77] Creating layer inception_5a/relu_3x3_reduce
I1130 10:45:07.791071  1342 net.cpp:84] Creating Layer inception_5a/relu_3x3_reduce
I1130 10:45:07.791077  1342 net.cpp:406] inception_5a/relu_3x3_reduce <- inception_5a/3x3_reduce
I1130 10:45:07.791085  1342 net.cpp:367] inception_5a/relu_3x3_reduce -> inception_5a/3x3_reduce (in-place)
I1130 10:45:07.791093  1342 net.cpp:122] Setting up inception_5a/relu_3x3_reduce
I1130 10:45:07.791100  1342 net.cpp:129] Top shape: 32 160 7 7 (250880)
I1130 10:45:07.791105  1342 net.cpp:137] Memory required for data: 1697956224
I1130 10:45:07.791107  1342 layer_factory.hpp:77] Creating layer inception_5a/3x3
I1130 10:45:07.791118  1342 net.cpp:84] Creating Layer inception_5a/3x3
I1130 10:45:07.791123  1342 net.cpp:406] inception_5a/3x3 <- inception_5a/3x3_reduce
I1130 10:45:07.791131  1342 net.cpp:380] inception_5a/3x3 -> inception_5a/3x3
I1130 10:45:07.794322  1342 net.cpp:122] Setting up inception_5a/3x3
I1130 10:45:07.794337  1342 net.cpp:129] Top shape: 32 320 7 7 (501760)
I1130 10:45:07.794342  1342 net.cpp:137] Memory required for data: 1699963264
I1130 10:45:07.794350  1342 layer_factory.hpp:77] Creating layer inception_5a/relu_3x3
I1130 10:45:07.794358  1342 net.cpp:84] Creating Layer inception_5a/relu_3x3
I1130 10:45:07.794364  1342 net.cpp:406] inception_5a/relu_3x3 <- inception_5a/3x3
I1130 10:45:07.794371  1342 net.cpp:367] inception_5a/relu_3x3 -> inception_5a/3x3 (in-place)
I1130 10:45:07.794380  1342 net.cpp:122] Setting up inception_5a/relu_3x3
I1130 10:45:07.794385  1342 net.cpp:129] Top shape: 32 320 7 7 (501760)
I1130 10:45:07.794390  1342 net.cpp:137] Memory required for data: 1701970304
I1130 10:45:07.794394  1342 layer_factory.hpp:77] Creating layer inception_5a/5x5_reduce
I1130 10:45:07.794404  1342 net.cpp:84] Creating Layer inception_5a/5x5_reduce
I1130 10:45:07.794409  1342 net.cpp:406] inception_5a/5x5_reduce <- pool4/3x3_s2_pool4/3x3_s2_0_split_2
I1130 10:45:07.794417  1342 net.cpp:380] inception_5a/5x5_reduce -> inception_5a/5x5_reduce
I1130 10:45:07.794807  1342 net.cpp:122] Setting up inception_5a/5x5_reduce
I1130 10:45:07.794817  1342 net.cpp:129] Top shape: 32 32 7 7 (50176)
I1130 10:45:07.794822  1342 net.cpp:137] Memory required for data: 1702171008
I1130 10:45:07.794829  1342 layer_factory.hpp:77] Creating layer inception_5a/relu_5x5_reduce
I1130 10:45:07.794838  1342 net.cpp:84] Creating Layer inception_5a/relu_5x5_reduce
I1130 10:45:07.794844  1342 net.cpp:406] inception_5a/relu_5x5_reduce <- inception_5a/5x5_reduce
I1130 10:45:07.794852  1342 net.cpp:367] inception_5a/relu_5x5_reduce -> inception_5a/5x5_reduce (in-place)
I1130 10:45:07.794858  1342 net.cpp:122] Setting up inception_5a/relu_5x5_reduce
I1130 10:45:07.794864  1342 net.cpp:129] Top shape: 32 32 7 7 (50176)
I1130 10:45:07.794868  1342 net.cpp:137] Memory required for data: 1702371712
I1130 10:45:07.794873  1342 layer_factory.hpp:77] Creating layer inception_5a/5x5
I1130 10:45:07.794896  1342 net.cpp:84] Creating Layer inception_5a/5x5
I1130 10:45:07.794903  1342 net.cpp:406] inception_5a/5x5 <- inception_5a/5x5_reduce
I1130 10:45:07.794910  1342 net.cpp:380] inception_5a/5x5 -> inception_5a/5x5
I1130 10:45:07.796072  1342 net.cpp:122] Setting up inception_5a/5x5
I1130 10:45:07.796084  1342 net.cpp:129] Top shape: 32 128 7 7 (200704)
I1130 10:45:07.796089  1342 net.cpp:137] Memory required for data: 1703174528
I1130 10:45:07.796097  1342 layer_factory.hpp:77] Creating layer inception_5a/relu_5x5
I1130 10:45:07.796104  1342 net.cpp:84] Creating Layer inception_5a/relu_5x5
I1130 10:45:07.796109  1342 net.cpp:406] inception_5a/relu_5x5 <- inception_5a/5x5
I1130 10:45:07.796116  1342 net.cpp:367] inception_5a/relu_5x5 -> inception_5a/5x5 (in-place)
I1130 10:45:07.796123  1342 net.cpp:122] Setting up inception_5a/relu_5x5
I1130 10:45:07.796129  1342 net.cpp:129] Top shape: 32 128 7 7 (200704)
I1130 10:45:07.796133  1342 net.cpp:137] Memory required for data: 1703977344
I1130 10:45:07.796139  1342 layer_factory.hpp:77] Creating layer inception_5a/pool
I1130 10:45:07.796145  1342 net.cpp:84] Creating Layer inception_5a/pool
I1130 10:45:07.796150  1342 net.cpp:406] inception_5a/pool <- pool4/3x3_s2_pool4/3x3_s2_0_split_3
I1130 10:45:07.796159  1342 net.cpp:380] inception_5a/pool -> inception_5a/pool
I1130 10:45:07.796196  1342 net.cpp:122] Setting up inception_5a/pool
I1130 10:45:07.796203  1342 net.cpp:129] Top shape: 32 832 7 7 (1304576)
I1130 10:45:07.796208  1342 net.cpp:137] Memory required for data: 1709195648
I1130 10:45:07.796213  1342 layer_factory.hpp:77] Creating layer inception_5a/pool_proj
I1130 10:45:07.796223  1342 net.cpp:84] Creating Layer inception_5a/pool_proj
I1130 10:45:07.796228  1342 net.cpp:406] inception_5a/pool_proj <- inception_5a/pool
I1130 10:45:07.796236  1342 net.cpp:380] inception_5a/pool_proj -> inception_5a/pool_proj
I1130 10:45:07.797307  1342 net.cpp:122] Setting up inception_5a/pool_proj
I1130 10:45:07.797317  1342 net.cpp:129] Top shape: 32 128 7 7 (200704)
I1130 10:45:07.797322  1342 net.cpp:137] Memory required for data: 1709998464
I1130 10:45:07.797328  1342 layer_factory.hpp:77] Creating layer inception_5a/relu_pool_proj
I1130 10:45:07.797335  1342 net.cpp:84] Creating Layer inception_5a/relu_pool_proj
I1130 10:45:07.797340  1342 net.cpp:406] inception_5a/relu_pool_proj <- inception_5a/pool_proj
I1130 10:45:07.797348  1342 net.cpp:367] inception_5a/relu_pool_proj -> inception_5a/pool_proj (in-place)
I1130 10:45:07.797355  1342 net.cpp:122] Setting up inception_5a/relu_pool_proj
I1130 10:45:07.797361  1342 net.cpp:129] Top shape: 32 128 7 7 (200704)
I1130 10:45:07.797365  1342 net.cpp:137] Memory required for data: 1710801280
I1130 10:45:07.797369  1342 layer_factory.hpp:77] Creating layer inception_5a/output
I1130 10:45:07.797377  1342 net.cpp:84] Creating Layer inception_5a/output
I1130 10:45:07.797384  1342 net.cpp:406] inception_5a/output <- inception_5a/1x1
I1130 10:45:07.797389  1342 net.cpp:406] inception_5a/output <- inception_5a/3x3
I1130 10:45:07.797394  1342 net.cpp:406] inception_5a/output <- inception_5a/5x5
I1130 10:45:07.797399  1342 net.cpp:406] inception_5a/output <- inception_5a/pool_proj
I1130 10:45:07.797405  1342 net.cpp:380] inception_5a/output -> inception_5a/output
I1130 10:45:07.797432  1342 net.cpp:122] Setting up inception_5a/output
I1130 10:45:07.797441  1342 net.cpp:129] Top shape: 32 832 7 7 (1304576)
I1130 10:45:07.797444  1342 net.cpp:137] Memory required for data: 1716019584
I1130 10:45:07.797448  1342 layer_factory.hpp:77] Creating layer inception_5a/output_inception_5a/output_0_split
I1130 10:45:07.797456  1342 net.cpp:84] Creating Layer inception_5a/output_inception_5a/output_0_split
I1130 10:45:07.797461  1342 net.cpp:406] inception_5a/output_inception_5a/output_0_split <- inception_5a/output
I1130 10:45:07.797467  1342 net.cpp:380] inception_5a/output_inception_5a/output_0_split -> inception_5a/output_inception_5a/output_0_split_0
I1130 10:45:07.797477  1342 net.cpp:380] inception_5a/output_inception_5a/output_0_split -> inception_5a/output_inception_5a/output_0_split_1
I1130 10:45:07.797484  1342 net.cpp:380] inception_5a/output_inception_5a/output_0_split -> inception_5a/output_inception_5a/output_0_split_2
I1130 10:45:07.797492  1342 net.cpp:380] inception_5a/output_inception_5a/output_0_split -> inception_5a/output_inception_5a/output_0_split_3
I1130 10:45:07.797539  1342 net.cpp:122] Setting up inception_5a/output_inception_5a/output_0_split
I1130 10:45:07.797547  1342 net.cpp:129] Top shape: 32 832 7 7 (1304576)
I1130 10:45:07.797552  1342 net.cpp:129] Top shape: 32 832 7 7 (1304576)
I1130 10:45:07.797557  1342 net.cpp:129] Top shape: 32 832 7 7 (1304576)
I1130 10:45:07.797564  1342 net.cpp:129] Top shape: 32 832 7 7 (1304576)
I1130 10:45:07.797567  1342 net.cpp:137] Memory required for data: 1736892800
I1130 10:45:07.797572  1342 layer_factory.hpp:77] Creating layer inception_5b/1x1
I1130 10:45:07.797581  1342 net.cpp:84] Creating Layer inception_5b/1x1
I1130 10:45:07.797587  1342 net.cpp:406] inception_5b/1x1 <- inception_5a/output_inception_5a/output_0_split_0
I1130 10:45:07.797596  1342 net.cpp:380] inception_5b/1x1 -> inception_5b/1x1
I1130 10:45:07.799875  1342 net.cpp:122] Setting up inception_5b/1x1
I1130 10:45:07.799888  1342 net.cpp:129] Top shape: 32 384 7 7 (602112)
I1130 10:45:07.799893  1342 net.cpp:137] Memory required for data: 1739301248
I1130 10:45:07.799901  1342 layer_factory.hpp:77] Creating layer inception_5b/relu_1x1
I1130 10:45:07.799909  1342 net.cpp:84] Creating Layer inception_5b/relu_1x1
I1130 10:45:07.799914  1342 net.cpp:406] inception_5b/relu_1x1 <- inception_5b/1x1
I1130 10:45:07.799922  1342 net.cpp:367] inception_5b/relu_1x1 -> inception_5b/1x1 (in-place)
I1130 10:45:07.799931  1342 net.cpp:122] Setting up inception_5b/relu_1x1
I1130 10:45:07.799935  1342 net.cpp:129] Top shape: 32 384 7 7 (602112)
I1130 10:45:07.799940  1342 net.cpp:137] Memory required for data: 1741709696
I1130 10:45:07.799944  1342 layer_factory.hpp:77] Creating layer inception_5b/3x3_reduce
I1130 10:45:07.799954  1342 net.cpp:84] Creating Layer inception_5b/3x3_reduce
I1130 10:45:07.799959  1342 net.cpp:406] inception_5b/3x3_reduce <- inception_5a/output_inception_5a/output_0_split_1
I1130 10:45:07.799967  1342 net.cpp:380] inception_5b/3x3_reduce -> inception_5b/3x3_reduce
I1130 10:45:07.801340  1342 net.cpp:122] Setting up inception_5b/3x3_reduce
I1130 10:45:07.801352  1342 net.cpp:129] Top shape: 32 192 7 7 (301056)
I1130 10:45:07.801355  1342 net.cpp:137] Memory required for data: 1742913920
I1130 10:45:07.801363  1342 layer_factory.hpp:77] Creating layer inception_5b/relu_3x3_reduce
I1130 10:45:07.801370  1342 net.cpp:84] Creating Layer inception_5b/relu_3x3_reduce
I1130 10:45:07.801376  1342 net.cpp:406] inception_5b/relu_3x3_reduce <- inception_5b/3x3_reduce
I1130 10:45:07.801383  1342 net.cpp:367] inception_5b/relu_3x3_reduce -> inception_5b/3x3_reduce (in-place)
I1130 10:45:07.801390  1342 net.cpp:122] Setting up inception_5b/relu_3x3_reduce
I1130 10:45:07.801396  1342 net.cpp:129] Top shape: 32 192 7 7 (301056)
I1130 10:45:07.801401  1342 net.cpp:137] Memory required for data: 1744118144
I1130 10:45:07.801405  1342 layer_factory.hpp:77] Creating layer inception_5b/3x3
I1130 10:45:07.801415  1342 net.cpp:84] Creating Layer inception_5b/3x3
I1130 10:45:07.801420  1342 net.cpp:406] inception_5b/3x3 <- inception_5b/3x3_reduce
I1130 10:45:07.801427  1342 net.cpp:380] inception_5b/3x3 -> inception_5b/3x3
I1130 10:45:07.805810  1342 net.cpp:122] Setting up inception_5b/3x3
I1130 10:45:07.805824  1342 net.cpp:129] Top shape: 32 384 7 7 (602112)
I1130 10:45:07.805829  1342 net.cpp:137] Memory required for data: 1746526592
I1130 10:45:07.805835  1342 layer_factory.hpp:77] Creating layer inception_5b/relu_3x3
I1130 10:45:07.805842  1342 net.cpp:84] Creating Layer inception_5b/relu_3x3
I1130 10:45:07.805848  1342 net.cpp:406] inception_5b/relu_3x3 <- inception_5b/3x3
I1130 10:45:07.805855  1342 net.cpp:367] inception_5b/relu_3x3 -> inception_5b/3x3 (in-place)
I1130 10:45:07.805862  1342 net.cpp:122] Setting up inception_5b/relu_3x3
I1130 10:45:07.805868  1342 net.cpp:129] Top shape: 32 384 7 7 (602112)
I1130 10:45:07.805872  1342 net.cpp:137] Memory required for data: 1748935040
I1130 10:45:07.805877  1342 layer_factory.hpp:77] Creating layer inception_5b/5x5_reduce
I1130 10:45:07.805886  1342 net.cpp:84] Creating Layer inception_5b/5x5_reduce
I1130 10:45:07.805891  1342 net.cpp:406] inception_5b/5x5_reduce <- inception_5a/output_inception_5a/output_0_split_2
I1130 10:45:07.805901  1342 net.cpp:380] inception_5b/5x5_reduce -> inception_5b/5x5_reduce
I1130 10:45:07.806313  1342 net.cpp:122] Setting up inception_5b/5x5_reduce
I1130 10:45:07.806322  1342 net.cpp:129] Top shape: 32 48 7 7 (75264)
I1130 10:45:07.806327  1342 net.cpp:137] Memory required for data: 1749236096
I1130 10:45:07.806334  1342 layer_factory.hpp:77] Creating layer inception_5b/relu_5x5_reduce
I1130 10:45:07.806342  1342 net.cpp:84] Creating Layer inception_5b/relu_5x5_reduce
I1130 10:45:07.806349  1342 net.cpp:406] inception_5b/relu_5x5_reduce <- inception_5b/5x5_reduce
I1130 10:45:07.806354  1342 net.cpp:367] inception_5b/relu_5x5_reduce -> inception_5b/5x5_reduce (in-place)
I1130 10:45:07.806361  1342 net.cpp:122] Setting up inception_5b/relu_5x5_reduce
I1130 10:45:07.806367  1342 net.cpp:129] Top shape: 32 48 7 7 (75264)
I1130 10:45:07.806371  1342 net.cpp:137] Memory required for data: 1749537152
I1130 10:45:07.806376  1342 layer_factory.hpp:77] Creating layer inception_5b/5x5
I1130 10:45:07.806386  1342 net.cpp:84] Creating Layer inception_5b/5x5
I1130 10:45:07.806391  1342 net.cpp:406] inception_5b/5x5 <- inception_5b/5x5_reduce
I1130 10:45:07.806402  1342 net.cpp:380] inception_5b/5x5 -> inception_5b/5x5
I1130 10:45:07.807436  1342 net.cpp:122] Setting up inception_5b/5x5
I1130 10:45:07.807446  1342 net.cpp:129] Top shape: 32 128 7 7 (200704)
I1130 10:45:07.807451  1342 net.cpp:137] Memory required for data: 1750339968
I1130 10:45:07.807458  1342 layer_factory.hpp:77] Creating layer inception_5b/relu_5x5
I1130 10:45:07.807497  1342 net.cpp:84] Creating Layer inception_5b/relu_5x5
I1130 10:45:07.807502  1342 net.cpp:406] inception_5b/relu_5x5 <- inception_5b/5x5
I1130 10:45:07.807507  1342 net.cpp:367] inception_5b/relu_5x5 -> inception_5b/5x5 (in-place)
I1130 10:45:07.807514  1342 net.cpp:122] Setting up inception_5b/relu_5x5
I1130 10:45:07.807520  1342 net.cpp:129] Top shape: 32 128 7 7 (200704)
I1130 10:45:07.807525  1342 net.cpp:137] Memory required for data: 1751142784
I1130 10:45:07.807529  1342 layer_factory.hpp:77] Creating layer inception_5b/pool
I1130 10:45:07.807536  1342 net.cpp:84] Creating Layer inception_5b/pool
I1130 10:45:07.807541  1342 net.cpp:406] inception_5b/pool <- inception_5a/output_inception_5a/output_0_split_3
I1130 10:45:07.807549  1342 net.cpp:380] inception_5b/pool -> inception_5b/pool
I1130 10:45:07.807586  1342 net.cpp:122] Setting up inception_5b/pool
I1130 10:45:07.807595  1342 net.cpp:129] Top shape: 32 832 7 7 (1304576)
I1130 10:45:07.807598  1342 net.cpp:137] Memory required for data: 1756361088
I1130 10:45:07.807602  1342 layer_factory.hpp:77] Creating layer inception_5b/pool_proj
I1130 10:45:07.807612  1342 net.cpp:84] Creating Layer inception_5b/pool_proj
I1130 10:45:07.807618  1342 net.cpp:406] inception_5b/pool_proj <- inception_5b/pool
I1130 10:45:07.807626  1342 net.cpp:380] inception_5b/pool_proj -> inception_5b/pool_proj
I1130 10:45:07.808702  1342 net.cpp:122] Setting up inception_5b/pool_proj
I1130 10:45:07.808713  1342 net.cpp:129] Top shape: 32 128 7 7 (200704)
I1130 10:45:07.808718  1342 net.cpp:137] Memory required for data: 1757163904
I1130 10:45:07.808725  1342 layer_factory.hpp:77] Creating layer inception_5b/relu_pool_proj
I1130 10:45:07.808732  1342 net.cpp:84] Creating Layer inception_5b/relu_pool_proj
I1130 10:45:07.808737  1342 net.cpp:406] inception_5b/relu_pool_proj <- inception_5b/pool_proj
I1130 10:45:07.808743  1342 net.cpp:367] inception_5b/relu_pool_proj -> inception_5b/pool_proj (in-place)
I1130 10:45:07.808751  1342 net.cpp:122] Setting up inception_5b/relu_pool_proj
I1130 10:45:07.808758  1342 net.cpp:129] Top shape: 32 128 7 7 (200704)
I1130 10:45:07.808761  1342 net.cpp:137] Memory required for data: 1757966720
I1130 10:45:07.808766  1342 layer_factory.hpp:77] Creating layer inception_5b/output
I1130 10:45:07.808773  1342 net.cpp:84] Creating Layer inception_5b/output
I1130 10:45:07.808779  1342 net.cpp:406] inception_5b/output <- inception_5b/1x1
I1130 10:45:07.808784  1342 net.cpp:406] inception_5b/output <- inception_5b/3x3
I1130 10:45:07.808790  1342 net.cpp:406] inception_5b/output <- inception_5b/5x5
I1130 10:45:07.808795  1342 net.cpp:406] inception_5b/output <- inception_5b/pool_proj
I1130 10:45:07.808802  1342 net.cpp:380] inception_5b/output -> inception_5b/output
I1130 10:45:07.808825  1342 net.cpp:122] Setting up inception_5b/output
I1130 10:45:07.808833  1342 net.cpp:129] Top shape: 32 1024 7 7 (1605632)
I1130 10:45:07.808837  1342 net.cpp:137] Memory required for data: 1764389248
I1130 10:45:07.808841  1342 layer_factory.hpp:77] Creating layer pool5/7x7_s1
I1130 10:45:07.808848  1342 net.cpp:84] Creating Layer pool5/7x7_s1
I1130 10:45:07.808854  1342 net.cpp:406] pool5/7x7_s1 <- inception_5b/output
I1130 10:45:07.808861  1342 net.cpp:380] pool5/7x7_s1 -> pool5/7x7_s1
I1130 10:45:07.808883  1342 net.cpp:122] Setting up pool5/7x7_s1
I1130 10:45:07.808890  1342 net.cpp:129] Top shape: 32 1024 1 1 (32768)
I1130 10:45:07.808895  1342 net.cpp:137] Memory required for data: 1764520320
I1130 10:45:07.808899  1342 layer_factory.hpp:77] Creating layer pool5/drop_7x7_s1
I1130 10:45:07.808908  1342 net.cpp:84] Creating Layer pool5/drop_7x7_s1
I1130 10:45:07.808914  1342 net.cpp:406] pool5/drop_7x7_s1 <- pool5/7x7_s1
I1130 10:45:07.808919  1342 net.cpp:367] pool5/drop_7x7_s1 -> pool5/7x7_s1 (in-place)
I1130 10:45:07.808943  1342 net.cpp:122] Setting up pool5/drop_7x7_s1
I1130 10:45:07.808949  1342 net.cpp:129] Top shape: 32 1024 1 1 (32768)
I1130 10:45:07.808954  1342 net.cpp:137] Memory required for data: 1764651392
I1130 10:45:07.808957  1342 layer_factory.hpp:77] Creating layer fc_scv_pretty
I1130 10:45:07.808966  1342 net.cpp:84] Creating Layer fc_scv_pretty
I1130 10:45:07.808970  1342 net.cpp:406] fc_scv_pretty <- pool5/7x7_s1
I1130 10:45:07.808980  1342 net.cpp:380] fc_scv_pretty -> fc_scv_pretty
I1130 10:45:07.809072  1342 net.cpp:122] Setting up fc_scv_pretty
I1130 10:45:07.809082  1342 net.cpp:129] Top shape: 32 1 (32)
I1130 10:45:07.809087  1342 net.cpp:137] Memory required for data: 1764651520
I1130 10:45:07.809093  1342 layer_factory.hpp:77] Creating layer fc_scv_pretty_fc_scv_pretty_0_split
I1130 10:45:07.809100  1342 net.cpp:84] Creating Layer fc_scv_pretty_fc_scv_pretty_0_split
I1130 10:45:07.809105  1342 net.cpp:406] fc_scv_pretty_fc_scv_pretty_0_split <- fc_scv_pretty
I1130 10:45:07.809111  1342 net.cpp:380] fc_scv_pretty_fc_scv_pretty_0_split -> fc_scv_pretty_fc_scv_pretty_0_split_0
I1130 10:45:07.809119  1342 net.cpp:380] fc_scv_pretty_fc_scv_pretty_0_split -> fc_scv_pretty_fc_scv_pretty_0_split_1
I1130 10:45:07.809154  1342 net.cpp:122] Setting up fc_scv_pretty_fc_scv_pretty_0_split
I1130 10:45:07.809161  1342 net.cpp:129] Top shape: 32 1 (32)
I1130 10:45:07.809167  1342 net.cpp:129] Top shape: 32 1 (32)
I1130 10:45:07.809171  1342 net.cpp:137] Memory required for data: 1764651776
I1130 10:45:07.809175  1342 layer_factory.hpp:77] Creating layer loss
I1130 10:45:07.809182  1342 net.cpp:84] Creating Layer loss
I1130 10:45:07.809187  1342 net.cpp:406] loss <- fc_scv_pretty_fc_scv_pretty_0_split_0
I1130 10:45:07.809193  1342 net.cpp:406] loss <- label_data_1_split_0
I1130 10:45:07.809201  1342 net.cpp:380] loss -> loss
…
