…
I1130 17:13:21.626818 14872 net.cpp:51] Initializing net from parameters: 
name: "GoogleNet-Places365-SCV-Dangerous"
state {
  phase: TRAIN
  level: 0
  stage: ""
}
layer {
  name: "data"
  type: "Data"
  top: "data"
  top: "label"
  include {
    phase: TRAIN
  }
  transform_param {
    mirror: true
    crop_size: 224
    mean_file: "/idiap/temp/lmedina/fine-tuning/googlenet_places365/places365CNN_mean.binaryproto"
  }
  data_param {
    source: "/idiap/temp/lmedina/fine-tuning/data/Dangerous/train_lmdb"
    batch_size: 32
    backend: LMDB
  }
}
layer {
  name: "conv1/7x7_s2"
  type: "Convolution"
  bottom: "data"
  top: "conv1/7x7_s2"
  param {
    lr_mult: 1
    decay_mult: 1
  }
  param {
    lr_mult: 2
    decay_mult: 0
  }
  convolution_param {
    num_output: 64
    pad: 3
    kernel_size: 7
    stride: 2
    weight_filler {
      type: "xavier"
      std: 0.1
    }
    bias_filler {
      type: "constant"
      value: 0.2
    }
  }
}
layer {
  name: "conv1/relu_7x7"
  type: "ReLU"
  bottom: "conv1/7x7_s2"
  top: "conv1/7x7_s2"
}
layer {
  name: "pool1/3x3_s2"
  type: "Pooling"
  bottom: "conv1/7x7_s2"
  top: "pool1/3x3_s2"
  pooling_param {
    pool: MAX
    kernel_size: 3
    stride: 2
  }
}
layer {
  name: "pool1/norm1"
  type: "LRN"
  bottom: "pool1/3x3_s2"
  top: "pool1/norm1"
  lrn_param {
    local_size: 5
    alpha: 0.0001
    beta: 0.75
  }
}
layer {
  name: "conv2/3x3_reduce"
  type: "Convolution"
  bottom: "pool1/norm1"
  top: "conv2/3x3_reduce"
  param {
    lr_mult: 1
    decay_mult: 1
  }
  param {
    lr_mult: 2
    decay_mult: 0
  }
  convolution_param {
    num_output: 64
    kernel_size: 1
    weight_filler {
      type: "xavier"
      std: 0.1
    }
    bias_filler {
      type: "constant"
      value: 0.2
    }
  }
}
layer {
  name: "conv2/relu_3x3_reduce"
  type: "ReLU"
  bottom: "conv2/3x3_reduce"
  top: "conv2/3x3_reduce"
}
layer {
  name: "conv2/3x3"
  type: "Convolution"
  bottom: "conv2/3x3_reduce"
  top: "conv2/3x3"
  param {
    lr_mult: 1
    decay_mult: 1
  }
  param {
    lr_mult: 2
    decay_mult: 0
  }
  convolution_param {
    num_output: 192
    pad: 1
    kernel_size: 3
    weight_filler {
      type: "xavier"
      std: 0.03
    }
    bias_filler {
      type: "constant"
      value: 0.2
    }
  }
}
layer {
  name: "conv2/relu_3x3"
  type: "ReLU"
  bottom: "conv2/3x3"
  top: "conv2/3x3"
}
layer {
  name: "conv2/norm2"
  type: "LRN"
  bottom: "conv2/3x3"
  top: "conv2/norm2"
  lrn_param {
    local_size: 5
    alpha: 0.0001
    beta: 0.75
  }
}
layer {
  name: "pool2/3x3_s2"
  type: "Pooling"
  bottom: "conv2/norm2"
  top: "pool2/3x3_s2"
  pooling_param {
    pool: MAX
    kernel_size: 3
    stride: 2
  }
}
layer {
  name: "inception_3a/1x1"
  type: "Convolution"
  bottom: "pool2/3x3_s2"
  top: "inception_3a/1x1"
  param {
    lr_mult: 1
    decay_mult: 1
  }
  param {
    lr_mult: 2
    decay_mult: 0
  }
  convolution_param {
    num_output: 64
    kernel_size: 1
    weight_filler {
      type: "xavier"
      std: 0.03
    }
    bias_filler {
      type: "constant"
      value: 0.2
    }
  }
}
layer {
  name: "inception_3a/relu_1x1"
  type: "ReLU"
  bottom: "inception_3a/1x1"
  top: "inception_3a/1x1"
}
layer {
  name: "inception_3a/3x3_reduce"
  type: "Convolution"
  bottom: "pool2/3x3_s2"
  top: "inception_3a/3x3_reduce"
  param {
    lr_mult: 1
    decay_mult: 1
  }
  param {
    lr_mult: 2
    decay_mult: 0
  }
  convolution_param {
    num_output: 96
    kernel_size: 1
    weight_filler {
      type: "xavier"
      std: 0.09
    }
    bias_filler {
      type: "constant"
      value: 0.2
    }
  }
}
layer {
  name: "inception_3a/relu_3x3_reduce"
  type: "ReLU"
  bottom: "inception_3a/3x3_reduce"
  top: "inception_3a/3x3_reduce"
}
layer {
  name: "inception_3a/3x3"
  type: "Convolution"
  bottom: "inception_3a/3x3_reduce"
  top: "inception_3a/3x3"
  param {
    lr_mult: 1
    decay_mult: 1
  }
  param {
    lr_mult: 2
    decay_mult: 0
  }
  convolution_param {
    num_output: 128
    pad: 1
    kernel_size: 3
    weight_filler {
      type: "xavier"
      std: 0.03
    }
    bias_filler {
      type: "constant"
      value: 0.2
    }
  }
}
layer {
  name: "inception_3a/relu_3x3"
  type: "ReLU"
  bottom: "inception_3a/3x3"
  top: "inception_3a/3x3"
}
layer {
  name: "inception_3a/5x5_reduce"
  type: "Convolution"
  bottom: "pool2/3x3_s2"
  top: "inception_3a/5x5_reduce"
  param {
    lr_mult: 1
    decay_mult: 1
  }
  param {
    lr_mult: 2
    decay_mult: 0
  }
  convolution_param {
    num_output: 16
    kernel_size: 1
    weight_filler {
      type: "xavier"
      std: 0.2
    }
    bias_filler {
      type: "constant"
      value: 0.2
    }
  }
}
layer {
  name: "inception_3a/relu_5x5_reduce"
  type: "ReLU"
  bottom: "inception_3a/5x5_reduce"
  top: "inception_3a/5x5_reduce"
}
layer {
  name: "inception_3a/5x5"
  type: "Convolution"
  bottom: "inception_3a/5x5_reduce"
  top: "inception_3a/5x5"
  param {
    lr_mult: 1
    decay_mult: 1
  }
  param {
    lr_mult: 2
    decay_mult: 0
  }
  convolution_param {
    num_output: 32
    pad: 2
    kernel_size: 5
    weight_filler {
      type: "xavier"
      std: 0.03
    }
    bias_filler {
      type: "constant"
      value: 0.2
    }
  }
}
layer {
  name: "inception_3a/relu_5x5"
  type: "ReLU"
  bottom: "inception_3a/5x5"
  top: "inception_3a/5x5"
}
layer {
  name: "inception_3a/pool"
  type: "Pooling"
  bottom: "pool2/3x3_s2"
  top: "inception_3a/pool"
  pooling_param {
    pool: MAX
    kernel_size: 3
    stride: 1
    pad: 1
  }
}
layer {
  name: "inception_3a/pool_proj"
  type: "Convolution"
  bottom: "inception_3a/pool"
  top: "inception_3a/pool_proj"
  param {
    lr_mult: 1
    decay_mult: 1
  }
  param {
    lr_mult: 2
    decay_mult: 0
  }
  convolution_param {
    num_output: 32
    kernel_size: 1
    weight_filler {
      type: "xavier"
      std: 0.1
    }
    bias_filler {
      type: "constant"
      value: 0.2
    }
  }
}
layer {
  name: "inception_3a/relu_pool_proj"
  type: "ReLU"
  bottom: "inception_3a/pool_proj"
  top: "inception_3a/pool_proj"
}
layer {
  name: "inception_3a/output"
  type: "Concat"
  bottom: "inception_3a/1x1"
  bottom: "inception_3a/3x3"
  bottom: "inception_3a/5x5"
  bottom: "inception_3a/pool_proj"
  top: "inception_3a/output"
}
layer {
  name: "inception_3b/1x1"
  type: "Convolution"
  bottom: "inception_3a/output"
  top: "inception_3b/1x1"
  param {
    lr_mult: 1
    decay_mult: 1
  }
  param {
    lr_mult: 2
    decay_mult: 0
  }
  convolution_param {
    num_output: 128
    kernel_size: 1
    weight_filler {
      type: "xavier"
      std: 0.03
    }
    bias_filler {
      type: "constant"
      value: 0.2
    }
  }
}
layer {
  name: "inception_3b/relu_1x1"
  type: "ReLU"
  bottom: "inception_3b/1x1"
  top: "inception_3b/1x1"
}
layer {
  name: "inception_3b/3x3_reduce"
  type: "Convolution"
  bottom: "inception_3a/output"
  top: "inception_3b/3x3_reduce"
  param {
    lr_mult: 1
    decay_mult: 1
  }
  param {
    lr_mult: 2
    decay_mult: 0
  }
  convolution_param {
    num_output: 128
    kernel_size: 1
    weight_filler {
      type: "xavier"
      std: 0.09
    }
    bias_filler {
      type: "constant"
      value: 0.2
    }
  }
}
layer {
  name: "inception_3b/relu_3x3_reduce"
  type: "ReLU"
  bottom: "inception_3b/3x3_reduce"
  top: "inception_3b/3x3_reduce"
}
layer {
  name: "inception_3b/3x3"
  type: "Convolution"
  bottom: "inception_3b/3x3_reduce"
  top: "inception_3b/3x3"
  param {
    lr_mult: 1
    decay_mult: 1
  }
  param {
    lr_mult: 2
    decay_mult: 0
  }
  convolution_param {
    num_output: 192
    pad: 1
    kernel_size: 3
    weight_filler {
      type: "xavier"
      std: 0.03
    }
    bias_filler {
      type: "constant"
      value: 0.2
    }
  }
}
layer {
  name: "inception_3b/relu_3x3"
  type: "ReLU"
  bottom: "inception_3b/3x3"
  top: "inception_3b/3x3"
}
layer {
  name: "inception_3b/5x5_reduce"
  type: "Convolution"
  bottom: "inception_3a/output"
  top: "inception_3b/5x5_reduce"
  param {
    lr_mult: 1
    decay_mult: 1
  }
  param {
    lr_mult: 2
    decay_mult: 0
  }
  convolution_param {
    num_output: 32
    kernel_size: 1
    weight_filler {
      type: "xavier"
      std: 0.2
    }
    bias_filler {
      type: "constant"
      value: 0.2
    }
  }
}
layer {
  name: "inception_3b/relu_5x5_reduce"
  type: "ReLU"
  bottom: "inception_3b/5x5_reduce"
  top: "inception_3b/5x5_reduce"
}
layer {
  name: "inception_3b/5x5"
  type: "Convolution"
  bottom: "inception_3b/5x5_reduce"
  top: "inception_3b/5x5"
  param {
    lr_mult: 1
    decay_mult: 1
  }
  param {
    lr_mult: 2
    decay_mult: 0
  }
  convolution_param {
    num_output: 96
    pad: 2
    kernel_size: 5
    weight_filler {
      type: "xavier"
      std: 0.03
    }
    bias_filler {
      type: "constant"
      value: 0.2
    }
  }
}
layer {
  name: "inception_3b/relu_5x5"
  type: "ReLU"
  bottom: "inception_3b/5x5"
  top: "inception_3b/5x5"
}
layer {
  name: "inception_3b/pool"
  type: "Pooling"
  bottom: "inception_3a/output"
  top: "inception_3b/pool"
  pooling_param {
    pool: MAX
    kernel_size: 3
    stride: 1
    pad: 1
  }
}
layer {
  name: "inception_3b/pool_proj"
  type: "Convolution"
  bottom: "inception_3b/pool"
  top: "inception_3b/pool_proj"
  param {
    lr_mult: 1
    decay_mult: 1
  }
  param {
    lr_mult: 2
    decay_mult: 0
  }
  convolution_param {
    num_output: 64
    kernel_size: 1
    weight_filler {
      type: "xavier"
      std: 0.1
    }
    bias_filler {
      type: "constant"
      value: 0.2
    }
  }
}
layer {
  name: "inception_3b/relu_pool_proj"
  type: "ReLU"
  bottom: "inception_3b/pool_proj"
  top: "inception_3b/pool_proj"
}
layer {
  name: "inception_3b/output"
  type: "Concat"
  bottom: "inception_3b/1x1"
  bottom: "inception_3b/3x3"
  bottom: "inception_3b/5x5"
  bottom: "inception_3b/pool_proj"
  top: "inception_3b/output"
}
layer {
  name: "pool3/3x3_s2"
  type: "Pooling"
  bottom: "inception_3b/output"
  top: "pool3/3x3_s2"
  pooling_param {
    pool: MAX
    kernel_size: 3
    stride: 2
  }
}
layer {
  name: "inception_4a/1x1"
  type: "Convolution"
  bottom: "pool3/3x3_s2"
  top: "inception_4a/1x1"
  param {
    lr_mult: 1
    decay_mult: 1
  }
  param {
    lr_mult: 2
    decay_mult: 0
  }
  convolution_param {
    num_output: 192
    kernel_size: 1
    weight_filler {
      type: "xavier"
      std: 0.03
    }
    bias_filler {
      type: "constant"
      value: 0.2
    }
  }
}
layer {
  name: "inception_4a/relu_1x1"
  type: "ReLU"
  bottom: "inception_4a/1x1"
  top: "inception_4a/1x1"
}
layer {
  name: "inception_4a/3x3_reduce"
  type: "Convolution"
  bottom: "pool3/3x3_s2"
  top: "inception_4a/3x3_reduce"
  param {
    lr_mult: 1
    decay_mult: 1
  }
  param {
    lr_mult: 2
    decay_mult: 0
  }
  convolution_param {
    num_output: 96
    kernel_size: 1
    weight_filler {
      type: "xavier"
      std: 0.09
    }
    bias_filler {
      type: "constant"
      value: 0.2
    }
  }
}
layer {
  name: "inception_4a/relu_3x3_reduce"
  type: "ReLU"
  bottom: "inception_4a/3x3_reduce"
  top: "inception_4a/3x3_reduce"
}
layer {
  name: "inception_4a/3x3"
  type: "Convolution"
  bottom: "inception_4a/3x3_reduce"
  top: "inception_4a/3x3"
  param {
    lr_mult: 1
    decay_mult: 1
  }
  param {
    lr_mult: 2
    decay_mult: 0
  }
  convolution_param {
    num_output: 208
    pad: 1
    kernel_size: 3
    weight_filler {
      type: "xavier"
      std: 0.03
    }
    bias_filler {
      type: "constant"
      value: 0.2
    }
  }
}
layer {
  name: "inception_4a/relu_3x3"
  type: "ReLU"
  bottom: "inception_4a/3x3"
  top: "inception_4a/3x3"
}
layer {
  name: "inception_4a/5x5_reduce"
  type: "Convolution"
  bottom: "pool3/3x3_s2"
  top: "inception_4a/5x5_reduce"
  param {
    lr_mult: 1
    decay_mult: 1
  }
  param {
    lr_mult: 2
    decay_mult: 0
  }
  convolution_param {
    num_output: 16
    kernel_size: 1
    weight_filler {
      type: "xavier"
      std: 0.2
    }
    bias_filler {
      type: "constant"
      value: 0.2
    }
  }
}
layer {
  name: "inception_4a/relu_5x5_reduce"
  type: "ReLU"
  bottom: "inception_4a/5x5_reduce"
  top: "inception_4a/5x5_reduce"
}
layer {
  name: "inception_4a/5x5"
  type: "Convolution"
  bottom: "inception_4a/5x5_reduce"
  top: "inception_4a/5x5"
  param {
    lr_mult: 1
    decay_mult: 1
  }
  param {
    lr_mult: 2
    decay_mult: 0
  }
  convolution_param {
    num_output: 48
    pad: 2
    kernel_size: 5
    weight_filler {
      type: "xavier"
      std: 0.03
    }
    bias_filler {
      type: "constant"
      value: 0.2
    }
  }
}
layer {
  name: "inception_4a/relu_5x5"
  type: "ReLU"
  bottom: "inception_4a/5x5"
  top: "inception_4a/5x5"
}
layer {
  name: "inception_4a/pool"
  type: "Pooling"
  bottom: "pool3/3x3_s2"
  top: "inception_4a/pool"
  pooling_param {
    pool: MAX
    kernel_size: 3
    stride: 1
    pad: 1
  }
}
layer {
  name: "inception_4a/pool_proj"
  type: "Convolution"
  bottom: "inception_4a/pool"
  top: "inception_4a/pool_proj"
  param {
    lr_mult: 1
    decay_mult: 1
  }
  param {
    lr_mult: 2
    decay_mult: 0
  }
  convolution_param {
    num_output: 64
    kernel_size: 1
    weight_filler {
      type: "xavier"
      std: 0.1
    }
    bias_filler {
      type: "constant"
      value: 0.2
    }
  }
}
layer {
  name: "inception_4a/relu_pool_proj"
  type: "ReLU"
  bottom: "inception_4a/pool_proj"
  top: "inception_4a/pool_proj"
}
layer {
  name: "inception_4a/output"
  type: "Concat"
  bottom: "inception_4a/1x1"
  bottom: "inception_4a/3x3"
  bottom: "inception_4a/5x5"
  bottom: "inception_4a/pool_proj"
  top: "inception_4a/output"
}
layer {
  name: "inception_4b/1x1"
  type: "Convolution"
  bottom: "inception_4a/output"
  top: "inception_4b/1x1"
  param {
    lr_mult: 1
    decay_mult: 1
  }
  param {
    lr_mult: 2
    decay_mult: 0
  }
  convolution_param {
    num_output: 160
    kernel_size: 1
    weight_filler {
      type: "xavier"
      std: 0.03
    }
    bias_filler {
      type: "constant"
      value: 0.2
    }
  }
}
layer {
  name: "inception_4b/relu_1x1"
  type: "ReLU"
  bottom: "inception_4b/1x1"
  top: "inception_4b/1x1"
}
layer {
  name: "inception_4b/3x3_reduce"
  type: "Convolution"
  bottom: "inception_4a/output"
  top: "inception_4b/3x3_reduce"
  param {
    lr_mult: 1
    decay_mult: 1
  }
  param {
    lr_mult: 2
    decay_mult: 0
  }
  convolution_param {
    num_output: 112
    kernel_size: 1
    weight_filler {
      type: "xavier"
      std: 0.09
    }
    bias_filler {
      type: "constant"
      value: 0.2
    }
  }
}
layer {
  name: "inception_4b/relu_3x3_reduce"
  type: "ReLU"
  bottom: "inception_4b/3x3_reduce"
  top: "inception_4b/3x3_reduce"
}
layer {
  name: "inception_4b/3x3"
  type: "Convolution"
  bottom: "inception_4b/3x3_reduce"
  top: "inception_4b/3x3"
  param {
    lr_mult: 1
    decay_mult: 1
  }
  param {
    lr_mult: 2
    decay_mult: 0
  }
  convolution_param {
    num_output: 224
    pad: 1
    kernel_size: 3
    weight_filler {
      type: "xavier"
      std: 0.03
    }
    bias_filler {
      type: "constant"
      value: 0.2
    }
  }
}
layer {
  name: "inception_4b/relu_3x3"
  type: "ReLU"
  bottom: "inception_4b/3x3"
  top: "inception_4b/3x3"
}
layer {
  name: "inception_4b/5x5_reduce"
  type: "Convolution"
  bottom: "inception_4a/output"
  top: "inception_4b/5x5_reduce"
  param {
    lr_mult: 1
    decay_mult: 1
  }
  param {
    lr_mult: 2
    decay_mult: 0
  }
  convolution_param {
    num_output: 24
    kernel_size: 1
    weight_filler {
      type: "xavier"
      std: 0.2
    }
    bias_filler {
      type: "constant"
      value: 0.2
    }
  }
}
layer {
  name: "inception_4b/relu_5x5_reduce"
  type: "ReLU"
  bottom: "inception_4b/5x5_reduce"
  top: "inception_4b/5x5_reduce"
}
layer {
  name: "inception_4b/5x5"
  type: "Convolution"
  bottom: "inception_4b/5x5_reduce"
  top: "inception_4b/5x5"
  param {
    lr_mult: 1
    decay_mult: 1
  }
  param {
    lr_mult: 2
    decay_mult: 0
  }
  convolution_param {
    num_output: 64
    pad: 2
    kernel_size: 5
    weight_filler {
      type: "xavier"
      std: 0.03
    }
    bias_filler {
      type: "constant"
      value: 0.2
    }
  }
}
layer {
  name: "inception_4b/relu_5x5"
  type: "ReLU"
  bottom: "inception_4b/5x5"
  top: "inception_4b/5x5"
}
layer {
  name: "inception_4b/pool"
  type: "Pooling"
  bottom: "inception_4a/output"
  top: "inception_4b/pool"
  pooling_param {
    pool: MAX
    kernel_size: 3
    stride: 1
    pad: 1
  }
}
layer {
  name: "inception_4b/pool_proj"
  type: "Convolution"
  bottom: "inception_4b/pool"
  top: "inception_4b/pool_proj"
  param {
    lr_mult: 1
    decay_mult: 1
  }
  param {
    lr_mult: 2
    decay_mult: 0
  }
  convolution_param {
    num_output: 64
    kernel_size: 1
    weight_filler {
      type: "xavier"
      std: 0.1
    }
    bias_filler {
      type: "constant"
      value: 0.2
    }
  }
}
layer {
  name: "inception_4b/relu_pool_proj"
  type: "ReLU"
  bottom: "inception_4b/pool_proj"
  top: "inception_4b/pool_proj"
}
layer {
  name: "inception_4b/output"
  type: "Concat"
  bottom: "inception_4b/1x1"
  bottom: "inception_4b/3x3"
  bottom: "inception_4b/5x5"
  bottom: "inception_4b/pool_proj"
  top: "inception_4b/output"
}
layer {
  name: "inception_4c/1x1"
  type: "Convolution"
  bottom: "inception_4b/output"
  top: "inception_4c/1x1"
  param {
    lr_mult: 1
    decay_mult: 1
  }
  param {
    lr_mult: 2
    decay_mult: 0
  }
  convolution_param {
    num_output: 128
    kernel_size: 1
    weight_filler {
      type: "xavier"
      std: 0.03
    }
    bias_filler {
      type: "constant"
      value: 0.2
    }
  }
}
layer {
  name: "inception_4c/relu_1x1"
  type: "ReLU"
  bottom: "inception_4c/1x1"
  top: "inception_4c/1x1"
}
layer {
  name: "inception_4c/3x3_reduce"
  type: "Convolution"
  bottom: "inception_4b/output"
  top: "inception_4c/3x3_reduce"
  param {
    lr_mult: 1
    decay_mult: 1
  }
  param {
    lr_mult: 2
    decay_mult: 0
  }
  convolution_param {
    num_output: 128
    kernel_size: 1
    weight_filler {
      type: "xavier"
      std: 0.09
    }
    bias_filler {
      type: "constant"
      value: 0.2
    }
  }
}
layer {
  name: "inception_4c/relu_3x3_reduce"
  type: "ReLU"
  bottom: "inception_4c/3x3_reduce"
  top: "inception_4c/3x3_reduce"
}
layer {
  name: "inception_4c/3x3"
  type: "Convolution"
  bottom: "inception_4c/3x3_reduce"
  top: "inception_4c/3x3"
  param {
    lr_mult: 1
    decay_mult: 1
  }
  param {
    lr_mult: 2
    decay_mult: 0
  }
  convolution_param {
    num_output: 256
    pad: 1
    kernel_size: 3
    weight_filler {
      type: "xavier"
      std: 0.03
    }
    bias_filler {
      type: "constant"
      value: 0.2
    }
  }
}
layer {
  name: "inception_4c/relu_3x3"
  type: "ReLU"
  bottom: "inception_4c/3x3"
  top: "inception_4c/3x3"
}
layer {
  name: "inception_4c/5x5_reduce"
  type: "Convolution"
  bottom: "inception_4b/output"
  top: "inception_4c/5x5_reduce"
  param {
    lr_mult: 1
    decay_mult: 1
  }
  param {
    lr_mult: 2
    decay_mult: 0
  }
  convolution_param {
    num_output: 24
    kernel_size: 1
    weight_filler {
      type: "xavier"
      std: 0.2
    }
    bias_filler {
      type: "constant"
      value: 0.2
    }
  }
}
layer {
  name: "inception_4c/relu_5x5_reduce"
  type: "ReLU"
  bottom: "inception_4c/5x5_reduce"
  top: "inception_4c/5x5_reduce"
}
layer {
  name: "inception_4c/5x5"
  type: "Convolution"
  bottom: "inception_4c/5x5_reduce"
  top: "inception_4c/5x5"
  param {
    lr_mult: 1
    decay_mult: 1
  }
  param {
    lr_mult: 2
    decay_mult: 0
  }
  convolution_param {
    num_output: 64
    pad: 2
    kernel_size: 5
    weight_filler {
      type: "xavier"
      std: 0.03
    }
    bias_filler {
      type: "constant"
      value: 0.2
    }
  }
}
layer {
  name: "inception_4c/relu_5x5"
  type: "ReLU"
  bottom: "inception_4c/5x5"
  top: "inception_4c/5x5"
}
layer {
  name: "inception_4c/pool"
  type: "Pooling"
  bottom: "inception_4b/output"
  top: "inception_4c/pool"
  pooling_param {
    pool: MAX
    kernel_size: 3
    stride: 1
    pad: 1
  }
}
layer {
  name: "inception_4c/pool_proj"
  type: "Convolution"
  bottom: "inception_4c/pool"
  top: "inception_4c/pool_proj"
  param {
    lr_mult: 1
    decay_mult: 1
  }
  param {
    lr_mult: 2
    decay_mult: 0
  }
  convolution_param {
    num_output: 64
    kernel_size: 1
    weight_filler {
      type: "xavier"
      std: 0.1
    }
    bias_filler {
      type: "constant"
      value: 0.2
    }
  }
}
layer {
  name: "inception_4c/relu_pool_proj"
  type: "ReLU"
  bottom: "inception_4c/pool_proj"
  top: "inception_4c/pool_proj"
}
layer {
  name: "inception_4c/output"
  type: "Concat"
  bottom: "inception_4c/1x1"
  bottom: "inception_4c/3x3"
  bottom: "inception_4c/5x5"
  bottom: "inception_4c/pool_proj"
  top: "inception_4c/output"
}
layer {
  name: "inception_4d/1x1"
  type: "Convolution"
  bottom: "inception_4c/output"
  top: "inception_4d/1x1"
  param {
    lr_mult: 1
    decay_mult: 1
  }
  param {
    lr_mult: 2
    decay_mult: 0
  }
  convolution_param {
    num_output: 112
    kernel_size: 1
    weight_filler {
      type: "xavier"
      std: 0.03
    }
    bias_filler {
      type: "constant"
      value: 0.2
    }
  }
}
layer {
  name: "inception_4d/relu_1x1"
  type: "ReLU"
  bottom: "inception_4d/1x1"
  top: "inception_4d/1x1"
}
layer {
  name: "inception_4d/3x3_reduce"
  type: "Convolution"
  bottom: "inception_4c/output"
  top: "inception_4d/3x3_reduce"
  param {
    lr_mult: 1
    decay_mult: 1
  }
  param {
    lr_mult: 2
    decay_mult: 0
  }
  convolution_param {
    num_output: 144
    kernel_size: 1
    weight_filler {
      type: "xavier"
      std: 0.09
    }
    bias_filler {
      type: "constant"
      value: 0.2
    }
  }
}
layer {
  name: "inception_4d/relu_3x3_reduce"
  type: "ReLU"
  bottom: "inception_4d/3x3_reduce"
  top: "inception_4d/3x3_reduce"
}
layer {
  name: "inception_4d/3x3"
  type: "Convolution"
  bottom: "inception_4d/3x3_reduce"
  top: "inception_4d/3x3"
  param {
    lr_mult: 1
    decay_mult: 1
  }
  param {
    lr_mult: 2
    decay_mult: 0
  }
  convolution_param {
    num_output: 288
    pad: 1
    kernel_size: 3
    weight_filler {
      type: "xavier"
      std: 0.03
    }
    bias_filler {
      type: "constant"
      value: 0.2
    }
  }
}
layer {
  name: "inception_4d/relu_3x3"
  type: "ReLU"
  bottom: "inception_4d/3x3"
  top: "inception_4d/3x3"
}
layer {
  name: "inception_4d/5x5_reduce"
  type: "Convolution"
  bottom: "inception_4c/output"
  top: "inception_4d/5x5_reduce"
  param {
    lr_mult: 1
    decay_mult: 1
  }
  param {
    lr_mult: 2
    decay_mult: 0
  }
  convolution_param {
    num_output: 32
    kernel_size: 1
    weight_filler {
      type: "xavier"
      std: 0.2
    }
    bias_filler {
      type: "constant"
      value: 0.2
    }
  }
}
layer {
  name: "inception_4d/relu_5x5_reduce"
  type: "ReLU"
  bottom: "inception_4d/5x5_reduce"
  top: "inception_4d/5x5_reduce"
}
layer {
  name: "inception_4d/5x5"
  type: "Convolution"
  bottom: "inception_4d/5x5_reduce"
  top: "inception_4d/5x5"
  param {
    lr_mult: 1
    decay_mult: 1
  }
  param {
    lr_mult: 2
    decay_mult: 0
  }
  convolution_param {
    num_output: 64
    pad: 2
    kernel_size: 5
    weight_filler {
      type: "xavier"
      std: 0.03
    }
    bias_filler {
      type: "constant"
      value: 0.2
    }
  }
}
layer {
  name: "inception_4d/relu_5x5"
  type: "ReLU"
  bottom: "inception_4d/5x5"
  top: "inception_4d/5x5"
}
layer {
  name: "inception_4d/pool"
  type: "Pooling"
  bottom: "inception_4c/output"
  top: "inception_4d/pool"
  pooling_param {
    pool: MAX
    kernel_size: 3
    stride: 1
    pad: 1
  }
}
layer {
  name: "inception_4d/pool_proj"
  type: "Convolution"
  bottom: "inception_4d/pool"
  top: "inception_4d/pool_proj"
  param {
    lr_mult: 1
    decay_mult: 1
  }
  param {
    lr_mult: 2
    decay_mult: 0
  }
  convolution_param {
    num_output: 64
    kernel_size: 1
    weight_filler {
      type: "xavier"
      std: 0.1
    }
    bias_filler {
      type: "constant"
      value: 0.2
    }
  }
}
layer {
  name: "inception_4d/relu_pool_proj"
  type: "ReLU"
  bottom: "inception_4d/pool_proj"
  top: "inception_4d/pool_proj"
}
layer {
  name: "inception_4d/output"
  type: "Concat"
  bottom: "inception_4d/1x1"
  bottom: "inception_4d/3x3"
  bottom: "inception_4d/5x5"
  bottom: "inception_4d/pool_proj"
  top: "inception_4d/output"
}
layer {
  name: "inception_4e/1x1"
  type: "Convolution"
  bottom: "inception_4d/output"
  top: "inception_4e/1x1"
  param {
    lr_mult: 1
    decay_mult: 1
  }
  param {
    lr_mult: 2
    decay_mult: 0
  }
  convolution_param {
    num_output: 256
    kernel_size: 1
    weight_filler {
      type: "xavier"
      std: 0.03
    }
    bias_filler {
      type: "constant"
      value: 0.2
    }
  }
}
layer {
  name: "inception_4e/relu_1x1"
  type: "ReLU"
  bottom: "inception_4e/1x1"
  top: "inception_4e/1x1"
}
layer {
  name: "inception_4e/3x3_reduce"
  type: "Convolution"
  bottom: "inception_4d/output"
  top: "inception_4e/3x3_reduce"
  param {
    lr_mult: 1
    decay_mult: 1
  }
  param {
    lr_mult: 2
    decay_mult: 0
  }
  convolution_param {
    num_output: 160
    kernel_size: 1
    weight_filler {
      type: "xavier"
      std: 0.09
    }
    bias_filler {
      type: "constant"
      value: 0.2
    }
  }
}
layer {
  name: "inception_4e/relu_3x3_reduce"
  type: "ReLU"
  bottom: "inception_4e/3x3_reduce"
  top: "inception_4e/3x3_reduce"
}
layer {
  name: "inception_4e/3x3"
  type: "Convolution"
  bottom: "inception_4e/3x3_reduce"
  top: "inception_4e/3x3"
  param {
    lr_mult: 1
    decay_mult: 1
  }
  param {
    lr_mult: 2
    decay_mult: 0
  }
  convolution_param {
    num_output: 320
    pad: 1
    kernel_size: 3
    weight_filler {
      type: "xavier"
      std: 0.03
    }
    bias_filler {
      type: "constant"
      value: 0.2
    }
  }
}
layer {
  name: "inception_4e/relu_3x3"
  type: "ReLU"
  bottom: "inception_4e/3x3"
  top: "inception_4e/3x3"
}
layer {
  name: "inception_4e/5x5_reduce"
  type: "Convolution"
  bottom: "inception_4d/output"
  top: "inception_4e/5x5_reduce"
  param {
    lr_mult: 1
    decay_mult: 1
  }
  param {
    lr_mult: 2
    decay_mult: 0
  }
  convolution_param {
    num_output: 32
    kernel_size: 1
    weight_filler {
      type: "xavier"
      std: 0.2
    }
    bias_filler {
      type: "constant"
      value: 0.2
    }
  }
}
layer {
  name: "inception_4e/relu_5x5_reduce"
  type: "ReLU"
  bottom: "inception_4e/5x5_reduce"
  top: "inception_4e/5x5_reduce"
}
layer {
  name: "inception_4e/5x5"
  type: "Convolution"
  bottom: "inception_4e/5x5_reduce"
  top: "inception_4e/5x5"
  param {
    lr_mult: 1
    decay_mult: 1
  }
  param {
    lr_mult: 2
    decay_mult: 0
  }
  convolution_param {
    num_output: 128
    pad: 2
    kernel_size: 5
    weight_filler {
      type: "xavier"
      std: 0.03
    }
    bias_filler {
      type: "constant"
      value: 0.2
    }
  }
}
layer {
  name: "inception_4e/relu_5x5"
  type: "ReLU"
  bottom: "inception_4e/5x5"
  top: "inception_4e/5x5"
}
layer {
  name: "inception_4e/pool"
  type: "Pooling"
  bottom: "inception_4d/output"
  top: "inception_4e/pool"
  pooling_param {
    pool: MAX
    kernel_size: 3
    stride: 1
    pad: 1
  }
}
layer {
  name: "inception_4e/pool_proj"
  type: "Convolution"
  bottom: "inception_4e/pool"
  top: "inception_4e/pool_proj"
  param {
    lr_mult: 1
    decay_mult: 1
  }
  param {
    lr_mult: 2
    decay_mult: 0
  }
  convolution_param {
    num_output: 128
    kernel_size: 1
    weight_filler {
      type: "xavier"
      std: 0.1
    }
    bias_filler {
      type: "constant"
      value: 0.2
    }
  }
}
layer {
  name: "inception_4e/relu_pool_proj"
  type: "ReLU"
  bottom: "inception_4e/pool_proj"
  top: "inception_4e/pool_proj"
}
layer {
  name: "inception_4e/output"
  type: "Concat"
  bottom: "inception_4e/1x1"
  bottom: "inception_4e/3x3"
  bottom: "inception_4e/5x5"
  bottom: "inception_4e/pool_proj"
  top: "inception_4e/output"
}
layer {
  name: "pool4/3x3_s2"
  type: "Pooling"
  bottom: "inception_4e/output"
  top: "pool4/3x3_s2"
  pooling_param {
    pool: MAX
    kernel_size: 3
    stride: 2
  }
}
layer {
  name: "inception_5a/1x1"
  type: "Convolution"
  bottom: "pool4/3x3_s2"
  top: "inception_5a/1x1"
  param {
    lr_mult: 1
    decay_mult: 1
  }
  param {
    lr_mult: 2
    decay_mult: 0
  }
  convolution_param {
    num_output: 256
    kernel_size: 1
    weight_filler {
      type: "xavier"
      std: 0.03
    }
    bias_filler {
      type: "constant"
      value: 0.2
    }
  }
}
layer {
  name: "inception_5a/relu_1x1"
  type: "ReLU"
  bottom: "inception_5a/1x1"
  top: "inception_5a/1x1"
}
layer {
  name: "inception_5a/3x3_reduce"
  type: "Convolution"
  bottom: "pool4/3x3_s2"
  top: "inception_5a/3x3_reduce"
  param {
    lr_mult: 1
    decay_mult: 1
  }
  param {
    lr_mult: 2
    decay_mult: 0
  }
  convolution_param {
    num_output: 160
    kernel_size: 1
    weight_filler {
      type: "xavier"
      std: 0.09
    }
    bias_filler {
      type: "constant"
      value: 0.2
    }
  }
}
layer {
  name: "inception_5a/relu_3x3_reduce"
  type: "ReLU"
  bottom: "inception_5a/3x3_reduce"
  top: "inception_5a/3x3_reduce"
}
layer {
  name: "inception_5a/3x3"
  type: "Convolution"
  bottom: "inception_5a/3x3_reduce"
  top: "inception_5a/3x3"
  param {
    lr_mult: 1
    decay_mult: 1
  }
  param {
    lr_mult: 2
    decay_mult: 0
  }
  convolution_param {
    num_output: 320
    pad: 1
    kernel_size: 3
    weight_filler {
      type: "xavier"
      std: 0.03
    }
    bias_filler {
      type: "constant"
      value: 0.2
    }
  }
}
layer {
  name: "inception_5a/relu_3x3"
  type: "ReLU"
  bottom: "inception_5a/3x3"
  top: "inception_5a/3x3"
}
layer {
  name: "inception_5a/5x5_reduce"
  type: "Convolution"
  bottom: "pool4/3x3_s2"
  top: "inception_5a/5x5_r
I1130 17:13:21.627612 14872 layer_factory.hpp:77] Creating layer data
I1130 17:13:21.652318 14872 db_lmdb.cpp:35] Opened lmdb /idiap/temp/lmedina/fine-tuning/data/Dangerous/train_lmdb
I1130 17:13:21.664712 14872 net.cpp:84] Creating Layer data
I1130 17:13:21.664755 14872 net.cpp:380] data -> data
I1130 17:13:21.664809 14872 net.cpp:380] data -> label
I1130 17:13:21.664832 14872 data_transformer.cpp:25] Loading mean file from: /idiap/temp/lmedina/fine-tuning/googlenet_places365/places365CNN_mean.binaryproto
I1130 17:13:21.677683 14872 data_layer.cpp:45] output data size: 32,3,224,224
I1130 17:13:21.731559 14872 net.cpp:122] Setting up data
I1130 17:13:21.731616 14872 net.cpp:129] Top shape: 32 3 224 224 (4816896)
I1130 17:13:21.731626 14872 net.cpp:129] Top shape: 32 (32)
I1130 17:13:21.731631 14872 net.cpp:137] Memory required for data: 19267712
I1130 17:13:21.731643 14872 layer_factory.hpp:77] Creating layer conv1/7x7_s2
I1130 17:13:21.731672 14872 net.cpp:84] Creating Layer conv1/7x7_s2
I1130 17:13:21.731680 14872 net.cpp:406] conv1/7x7_s2 <- data
I1130 17:13:21.731698 14872 net.cpp:380] conv1/7x7_s2 -> conv1/7x7_s2
I1130 17:13:21.732551 14872 net.cpp:122] Setting up conv1/7x7_s2
I1130 17:13:21.732566 14872 net.cpp:129] Top shape: 32 64 112 112 (25690112)
I1130 17:13:21.732571 14872 net.cpp:137] Memory required for data: 122028160
I1130 17:13:21.732589 14872 layer_factory.hpp:77] Creating layer conv1/relu_7x7
I1130 17:13:21.732599 14872 net.cpp:84] Creating Layer conv1/relu_7x7
I1130 17:13:21.732606 14872 net.cpp:406] conv1/relu_7x7 <- conv1/7x7_s2
I1130 17:13:21.732614 14872 net.cpp:367] conv1/relu_7x7 -> conv1/7x7_s2 (in-place)
I1130 17:13:21.732625 14872 net.cpp:122] Setting up conv1/relu_7x7
I1130 17:13:21.732635 14872 net.cpp:129] Top shape: 32 64 112 112 (25690112)
I1130 17:13:21.732640 14872 net.cpp:137] Memory required for data: 224788608
I1130 17:13:21.732645 14872 layer_factory.hpp:77] Creating layer pool1/3x3_s2
I1130 17:13:21.732655 14872 net.cpp:84] Creating Layer pool1/3x3_s2
I1130 17:13:21.732661 14872 net.cpp:406] pool1/3x3_s2 <- conv1/7x7_s2
I1130 17:13:21.732667 14872 net.cpp:380] pool1/3x3_s2 -> pool1/3x3_s2
I1130 17:13:21.732725 14872 net.cpp:122] Setting up pool1/3x3_s2
I1130 17:13:21.732735 14872 net.cpp:129] Top shape: 32 64 56 56 (6422528)
I1130 17:13:21.732741 14872 net.cpp:137] Memory required for data: 250478720
I1130 17:13:21.732746 14872 layer_factory.hpp:77] Creating layer pool1/norm1
I1130 17:13:21.732758 14872 net.cpp:84] Creating Layer pool1/norm1
I1130 17:13:21.732765 14872 net.cpp:406] pool1/norm1 <- pool1/3x3_s2
I1130 17:13:21.732772 14872 net.cpp:380] pool1/norm1 -> pool1/norm1
I1130 17:13:21.732817 14872 net.cpp:122] Setting up pool1/norm1
I1130 17:13:21.732826 14872 net.cpp:129] Top shape: 32 64 56 56 (6422528)
I1130 17:13:21.732833 14872 net.cpp:137] Memory required for data: 276168832
I1130 17:13:21.732838 14872 layer_factory.hpp:77] Creating layer conv2/3x3_reduce
I1130 17:13:21.732851 14872 net.cpp:84] Creating Layer conv2/3x3_reduce
I1130 17:13:21.732856 14872 net.cpp:406] conv2/3x3_reduce <- pool1/norm1
I1130 17:13:21.732866 14872 net.cpp:380] conv2/3x3_reduce -> conv2/3x3_reduce
I1130 17:13:21.735283 14872 net.cpp:122] Setting up conv2/3x3_reduce
I1130 17:13:21.735309 14872 net.cpp:129] Top shape: 32 64 56 56 (6422528)
I1130 17:13:21.735317 14872 net.cpp:137] Memory required for data: 301858944
I1130 17:13:21.735334 14872 layer_factory.hpp:77] Creating layer conv2/relu_3x3_reduce
I1130 17:13:21.735347 14872 net.cpp:84] Creating Layer conv2/relu_3x3_reduce
I1130 17:13:21.735354 14872 net.cpp:406] conv2/relu_3x3_reduce <- conv2/3x3_reduce
I1130 17:13:21.735364 14872 net.cpp:367] conv2/relu_3x3_reduce -> conv2/3x3_reduce (in-place)
I1130 17:13:21.735376 14872 net.cpp:122] Setting up conv2/relu_3x3_reduce
I1130 17:13:21.735384 14872 net.cpp:129] Top shape: 32 64 56 56 (6422528)
I1130 17:13:21.735391 14872 net.cpp:137] Memory required for data: 327549056
I1130 17:13:21.735397 14872 layer_factory.hpp:77] Creating layer conv2/3x3
I1130 17:13:21.735411 14872 net.cpp:84] Creating Layer conv2/3x3
I1130 17:13:21.735417 14872 net.cpp:406] conv2/3x3 <- conv2/3x3_reduce
I1130 17:13:21.735427 14872 net.cpp:380] conv2/3x3 -> conv2/3x3
I1130 17:13:21.737251 14872 net.cpp:122] Setting up conv2/3x3
I1130 17:13:21.737268 14872 net.cpp:129] Top shape: 32 192 56 56 (19267584)
I1130 17:13:21.737275 14872 net.cpp:137] Memory required for data: 404619392
I1130 17:13:21.737290 14872 layer_factory.hpp:77] Creating layer conv2/relu_3x3
I1130 17:13:21.737303 14872 net.cpp:84] Creating Layer conv2/relu_3x3
I1130 17:13:21.737310 14872 net.cpp:406] conv2/relu_3x3 <- conv2/3x3
I1130 17:13:21.737319 14872 net.cpp:367] conv2/relu_3x3 -> conv2/3x3 (in-place)
I1130 17:13:21.737330 14872 net.cpp:122] Setting up conv2/relu_3x3
I1130 17:13:21.737339 14872 net.cpp:129] Top shape: 32 192 56 56 (19267584)
I1130 17:13:21.737346 14872 net.cpp:137] Memory required for data: 481689728
I1130 17:13:21.737354 14872 layer_factory.hpp:77] Creating layer conv2/norm2
I1130 17:13:21.737363 14872 net.cpp:84] Creating Layer conv2/norm2
I1130 17:13:21.737370 14872 net.cpp:406] conv2/norm2 <- conv2/3x3
I1130 17:13:21.737380 14872 net.cpp:380] conv2/norm2 -> conv2/norm2
I1130 17:13:21.737428 14872 net.cpp:122] Setting up conv2/norm2
I1130 17:13:21.737439 14872 net.cpp:129] Top shape: 32 192 56 56 (19267584)
I1130 17:13:21.737447 14872 net.cpp:137] Memory required for data: 558760064
I1130 17:13:21.737452 14872 layer_factory.hpp:77] Creating layer pool2/3x3_s2
I1130 17:13:21.737462 14872 net.cpp:84] Creating Layer pool2/3x3_s2
I1130 17:13:21.737468 14872 net.cpp:406] pool2/3x3_s2 <- conv2/norm2
I1130 17:13:21.737478 14872 net.cpp:380] pool2/3x3_s2 -> pool2/3x3_s2
I1130 17:13:21.737524 14872 net.cpp:122] Setting up pool2/3x3_s2
I1130 17:13:21.737540 14872 net.cpp:129] Top shape: 32 192 28 28 (4816896)
I1130 17:13:21.737546 14872 net.cpp:137] Memory required for data: 578027648
I1130 17:13:21.737551 14872 layer_factory.hpp:77] Creating layer pool2/3x3_s2_pool2/3x3_s2_0_split
I1130 17:13:21.737562 14872 net.cpp:84] Creating Layer pool2/3x3_s2_pool2/3x3_s2_0_split
I1130 17:13:21.737568 14872 net.cpp:406] pool2/3x3_s2_pool2/3x3_s2_0_split <- pool2/3x3_s2
I1130 17:13:21.737578 14872 net.cpp:380] pool2/3x3_s2_pool2/3x3_s2_0_split -> pool2/3x3_s2_pool2/3x3_s2_0_split_0
I1130 17:13:21.737591 14872 net.cpp:380] pool2/3x3_s2_pool2/3x3_s2_0_split -> pool2/3x3_s2_pool2/3x3_s2_0_split_1
I1130 17:13:21.737601 14872 net.cpp:380] pool2/3x3_s2_pool2/3x3_s2_0_split -> pool2/3x3_s2_pool2/3x3_s2_0_split_2
I1130 17:13:21.737610 14872 net.cpp:380] pool2/3x3_s2_pool2/3x3_s2_0_split -> pool2/3x3_s2_pool2/3x3_s2_0_split_3
I1130 17:13:21.737675 14872 net.cpp:122] Setting up pool2/3x3_s2_pool2/3x3_s2_0_split
I1130 17:13:21.737686 14872 net.cpp:129] Top shape: 32 192 28 28 (4816896)
I1130 17:13:21.737694 14872 net.cpp:129] Top shape: 32 192 28 28 (4816896)
I1130 17:13:21.737702 14872 net.cpp:129] Top shape: 32 192 28 28 (4816896)
I1130 17:13:21.737709 14872 net.cpp:129] Top shape: 32 192 28 28 (4816896)
I1130 17:13:21.737716 14872 net.cpp:137] Memory required for data: 655097984
I1130 17:13:21.737722 14872 layer_factory.hpp:77] Creating layer inception_3a/1x1
I1130 17:13:21.737736 14872 net.cpp:84] Creating Layer inception_3a/1x1
I1130 17:13:21.737743 14872 net.cpp:406] inception_3a/1x1 <- pool2/3x3_s2_pool2/3x3_s2_0_split_0
I1130 17:13:21.737753 14872 net.cpp:380] inception_3a/1x1 -> inception_3a/1x1
I1130 17:13:21.738905 14872 net.cpp:122] Setting up inception_3a/1x1
I1130 17:13:21.738924 14872 net.cpp:129] Top shape: 32 64 28 28 (1605632)
I1130 17:13:21.738930 14872 net.cpp:137] Memory required for data: 661520512
I1130 17:13:21.738942 14872 layer_factory.hpp:77] Creating layer inception_3a/relu_1x1
I1130 17:13:21.738953 14872 net.cpp:84] Creating Layer inception_3a/relu_1x1
I1130 17:13:21.738961 14872 net.cpp:406] inception_3a/relu_1x1 <- inception_3a/1x1
I1130 17:13:21.738971 14872 net.cpp:367] inception_3a/relu_1x1 -> inception_3a/1x1 (in-place)
I1130 17:13:21.738983 14872 net.cpp:122] Setting up inception_3a/relu_1x1
I1130 17:13:21.738992 14872 net.cpp:129] Top shape: 32 64 28 28 (1605632)
I1130 17:13:21.738998 14872 net.cpp:137] Memory required for data: 667943040
I1130 17:13:21.739004 14872 layer_factory.hpp:77] Creating layer inception_3a/3x3_reduce
I1130 17:13:21.739017 14872 net.cpp:84] Creating Layer inception_3a/3x3_reduce
I1130 17:13:21.739024 14872 net.cpp:406] inception_3a/3x3_reduce <- pool2/3x3_s2_pool2/3x3_s2_0_split_1
I1130 17:13:21.739035 14872 net.cpp:380] inception_3a/3x3_reduce -> inception_3a/3x3_reduce
I1130 17:13:21.740033 14872 net.cpp:122] Setting up inception_3a/3x3_reduce
I1130 17:13:21.740051 14872 net.cpp:129] Top shape: 32 96 28 28 (2408448)
I1130 17:13:21.740056 14872 net.cpp:137] Memory required for data: 677576832
I1130 17:13:21.740072 14872 layer_factory.hpp:77] Creating layer inception_3a/relu_3x3_reduce
I1130 17:13:21.740082 14872 net.cpp:84] Creating Layer inception_3a/relu_3x3_reduce
I1130 17:13:21.740090 14872 net.cpp:406] inception_3a/relu_3x3_reduce <- inception_3a/3x3_reduce
I1130 17:13:21.740100 14872 net.cpp:367] inception_3a/relu_3x3_reduce -> inception_3a/3x3_reduce (in-place)
I1130 17:13:21.740113 14872 net.cpp:122] Setting up inception_3a/relu_3x3_reduce
I1130 17:13:21.740121 14872 net.cpp:129] Top shape: 32 96 28 28 (2408448)
I1130 17:13:21.740128 14872 net.cpp:137] Memory required for data: 687210624
I1130 17:13:21.740134 14872 layer_factory.hpp:77] Creating layer inception_3a/3x3
I1130 17:13:21.740149 14872 net.cpp:84] Creating Layer inception_3a/3x3
I1130 17:13:21.740156 14872 net.cpp:406] inception_3a/3x3 <- inception_3a/3x3_reduce
I1130 17:13:21.740167 14872 net.cpp:380] inception_3a/3x3 -> inception_3a/3x3
I1130 17:13:21.741439 14872 net.cpp:122] Setting up inception_3a/3x3
I1130 17:13:21.741454 14872 net.cpp:129] Top shape: 32 128 28 28 (3211264)
I1130 17:13:21.741466 14872 net.cpp:137] Memory required for data: 700055680
I1130 17:13:21.741477 14872 layer_factory.hpp:77] Creating layer inception_3a/relu_3x3
I1130 17:13:21.741487 14872 net.cpp:84] Creating Layer inception_3a/relu_3x3
I1130 17:13:21.741494 14872 net.cpp:406] inception_3a/relu_3x3 <- inception_3a/3x3
I1130 17:13:21.741504 14872 net.cpp:367] inception_3a/relu_3x3 -> inception_3a/3x3 (in-place)
I1130 17:13:21.741514 14872 net.cpp:122] Setting up inception_3a/relu_3x3
I1130 17:13:21.741523 14872 net.cpp:129] Top shape: 32 128 28 28 (3211264)
I1130 17:13:21.741529 14872 net.cpp:137] Memory required for data: 712900736
I1130 17:13:21.741536 14872 layer_factory.hpp:77] Creating layer inception_3a/5x5_reduce
I1130 17:13:21.741547 14872 net.cpp:84] Creating Layer inception_3a/5x5_reduce
I1130 17:13:21.741554 14872 net.cpp:406] inception_3a/5x5_reduce <- pool2/3x3_s2_pool2/3x3_s2_0_split_2
I1130 17:13:21.741565 14872 net.cpp:380] inception_3a/5x5_reduce -> inception_3a/5x5_reduce
I1130 17:13:21.741873 14872 net.cpp:122] Setting up inception_3a/5x5_reduce
I1130 17:13:21.741888 14872 net.cpp:129] Top shape: 32 16 28 28 (401408)
I1130 17:13:21.741894 14872 net.cpp:137] Memory required for data: 714506368
I1130 17:13:21.741904 14872 layer_factory.hpp:77] Creating layer inception_3a/relu_5x5_reduce
I1130 17:13:21.741914 14872 net.cpp:84] Creating Layer inception_3a/relu_5x5_reduce
I1130 17:13:21.741920 14872 net.cpp:406] inception_3a/relu_5x5_reduce <- inception_3a/5x5_reduce
I1130 17:13:21.741930 14872 net.cpp:367] inception_3a/relu_5x5_reduce -> inception_3a/5x5_reduce (in-place)
I1130 17:13:21.741940 14872 net.cpp:122] Setting up inception_3a/relu_5x5_reduce
I1130 17:13:21.741948 14872 net.cpp:129] Top shape: 32 16 28 28 (401408)
I1130 17:13:21.741955 14872 net.cpp:137] Memory required for data: 716112000
I1130 17:13:21.741961 14872 layer_factory.hpp:77] Creating layer inception_3a/5x5
I1130 17:13:21.741972 14872 net.cpp:84] Creating Layer inception_3a/5x5
I1130 17:13:21.741979 14872 net.cpp:406] inception_3a/5x5 <- inception_3a/5x5_reduce
I1130 17:13:21.741988 14872 net.cpp:380] inception_3a/5x5 -> inception_3a/5x5
I1130 17:13:21.742370 14872 net.cpp:122] Setting up inception_3a/5x5
I1130 17:13:21.742384 14872 net.cpp:129] Top shape: 32 32 28 28 (802816)
I1130 17:13:21.742391 14872 net.cpp:137] Memory required for data: 719323264
I1130 17:13:21.742400 14872 layer_factory.hpp:77] Creating layer inception_3a/relu_5x5
I1130 17:13:21.742410 14872 net.cpp:84] Creating Layer inception_3a/relu_5x5
I1130 17:13:21.742419 14872 net.cpp:406] inception_3a/relu_5x5 <- inception_3a/5x5
I1130 17:13:21.742426 14872 net.cpp:367] inception_3a/relu_5x5 -> inception_3a/5x5 (in-place)
I1130 17:13:21.742437 14872 net.cpp:122] Setting up inception_3a/relu_5x5
I1130 17:13:21.742445 14872 net.cpp:129] Top shape: 32 32 28 28 (802816)
I1130 17:13:21.742452 14872 net.cpp:137] Memory required for data: 722534528
I1130 17:13:21.742457 14872 layer_factory.hpp:77] Creating layer inception_3a/pool
I1130 17:13:21.742467 14872 net.cpp:84] Creating Layer inception_3a/pool
I1130 17:13:21.742475 14872 net.cpp:406] inception_3a/pool <- pool2/3x3_s2_pool2/3x3_s2_0_split_3
I1130 17:13:21.742485 14872 net.cpp:380] inception_3a/pool -> inception_3a/pool
I1130 17:13:21.742532 14872 net.cpp:122] Setting up inception_3a/pool
I1130 17:13:21.742544 14872 net.cpp:129] Top shape: 32 192 28 28 (4816896)
I1130 17:13:21.742550 14872 net.cpp:137] Memory required for data: 741802112
I1130 17:13:21.742557 14872 layer_factory.hpp:77] Creating layer inception_3a/pool_proj
I1130 17:13:21.742569 14872 net.cpp:84] Creating Layer inception_3a/pool_proj
I1130 17:13:21.742576 14872 net.cpp:406] inception_3a/pool_proj <- inception_3a/pool
I1130 17:13:21.742586 14872 net.cpp:380] inception_3a/pool_proj -> inception_3a/pool_proj
I1130 17:13:21.742936 14872 net.cpp:122] Setting up inception_3a/pool_proj
I1130 17:13:21.742950 14872 net.cpp:129] Top shape: 32 32 28 28 (802816)
I1130 17:13:21.742956 14872 net.cpp:137] Memory required for data: 745013376
I1130 17:13:21.742974 14872 layer_factory.hpp:77] Creating layer inception_3a/relu_pool_proj
I1130 17:13:21.742985 14872 net.cpp:84] Creating Layer inception_3a/relu_pool_proj
I1130 17:13:21.742990 14872 net.cpp:406] inception_3a/relu_pool_proj <- inception_3a/pool_proj
I1130 17:13:21.743000 14872 net.cpp:367] inception_3a/relu_pool_proj -> inception_3a/pool_proj (in-place)
I1130 17:13:21.743010 14872 net.cpp:122] Setting up inception_3a/relu_pool_proj
I1130 17:13:21.743018 14872 net.cpp:129] Top shape: 32 32 28 28 (802816)
I1130 17:13:21.743024 14872 net.cpp:137] Memory required for data: 748224640
I1130 17:13:21.743031 14872 layer_factory.hpp:77] Creating layer inception_3a/output
I1130 17:13:21.743041 14872 net.cpp:84] Creating Layer inception_3a/output
I1130 17:13:21.743046 14872 net.cpp:406] inception_3a/output <- inception_3a/1x1
I1130 17:13:21.743053 14872 net.cpp:406] inception_3a/output <- inception_3a/3x3
I1130 17:13:21.743062 14872 net.cpp:406] inception_3a/output <- inception_3a/5x5
I1130 17:13:21.743068 14872 net.cpp:406] inception_3a/output <- inception_3a/pool_proj
I1130 17:13:21.743077 14872 net.cpp:380] inception_3a/output -> inception_3a/output
I1130 17:13:21.743110 14872 net.cpp:122] Setting up inception_3a/output
I1130 17:13:21.743120 14872 net.cpp:129] Top shape: 32 256 28 28 (6422528)
I1130 17:13:21.743127 14872 net.cpp:137] Memory required for data: 773914752
I1130 17:13:21.743132 14872 layer_factory.hpp:77] Creating layer inception_3a/output_inception_3a/output_0_split
I1130 17:13:21.743142 14872 net.cpp:84] Creating Layer inception_3a/output_inception_3a/output_0_split
I1130 17:13:21.743149 14872 net.cpp:406] inception_3a/output_inception_3a/output_0_split <- inception_3a/output
I1130 17:13:21.743158 14872 net.cpp:380] inception_3a/output_inception_3a/output_0_split -> inception_3a/output_inception_3a/output_0_split_0
I1130 17:13:21.743170 14872 net.cpp:380] inception_3a/output_inception_3a/output_0_split -> inception_3a/output_inception_3a/output_0_split_1
I1130 17:13:21.743180 14872 net.cpp:380] inception_3a/output_inception_3a/output_0_split -> inception_3a/output_inception_3a/output_0_split_2
I1130 17:13:21.743190 14872 net.cpp:380] inception_3a/output_inception_3a/output_0_split -> inception_3a/output_inception_3a/output_0_split_3
I1130 17:13:21.743254 14872 net.cpp:122] Setting up inception_3a/output_inception_3a/output_0_split
I1130 17:13:21.743265 14872 net.cpp:129] Top shape: 32 256 28 28 (6422528)
I1130 17:13:21.743273 14872 net.cpp:129] Top shape: 32 256 28 28 (6422528)
I1130 17:13:21.743280 14872 net.cpp:129] Top shape: 32 256 28 28 (6422528)
I1130 17:13:21.743288 14872 net.cpp:129] Top shape: 32 256 28 28 (6422528)
I1130 17:13:21.743294 14872 net.cpp:137] Memory required for data: 876675200
I1130 17:13:21.743299 14872 layer_factory.hpp:77] Creating layer inception_3b/1x1
I1130 17:13:21.743311 14872 net.cpp:84] Creating Layer inception_3b/1x1
I1130 17:13:21.743319 14872 net.cpp:406] inception_3b/1x1 <- inception_3a/output_inception_3a/output_0_split_0
I1130 17:13:21.743329 14872 net.cpp:380] inception_3b/1x1 -> inception_3b/1x1
I1130 17:13:21.743862 14872 net.cpp:122] Setting up inception_3b/1x1
I1130 17:13:21.743876 14872 net.cpp:129] Top shape: 32 128 28 28 (3211264)
I1130 17:13:21.743882 14872 net.cpp:137] Memory required for data: 889520256
I1130 17:13:21.743891 14872 layer_factory.hpp:77] Creating layer inception_3b/relu_1x1
I1130 17:13:21.743901 14872 net.cpp:84] Creating Layer inception_3b/relu_1x1
I1130 17:13:21.743908 14872 net.cpp:406] inception_3b/relu_1x1 <- inception_3b/1x1
I1130 17:13:21.743917 14872 net.cpp:367] inception_3b/relu_1x1 -> inception_3b/1x1 (in-place)
I1130 17:13:21.743927 14872 net.cpp:122] Setting up inception_3b/relu_1x1
I1130 17:13:21.743935 14872 net.cpp:129] Top shape: 32 128 28 28 (3211264)
I1130 17:13:21.743942 14872 net.cpp:137] Memory required for data: 902365312
I1130 17:13:21.743947 14872 layer_factory.hpp:77] Creating layer inception_3b/3x3_reduce
I1130 17:13:21.743959 14872 net.cpp:84] Creating Layer inception_3b/3x3_reduce
I1130 17:13:21.743965 14872 net.cpp:406] inception_3b/3x3_reduce <- inception_3a/output_inception_3a/output_0_split_1
I1130 17:13:21.743978 14872 net.cpp:380] inception_3b/3x3_reduce -> inception_3b/3x3_reduce
I1130 17:13:21.744509 14872 net.cpp:122] Setting up inception_3b/3x3_reduce
I1130 17:13:21.744523 14872 net.cpp:129] Top shape: 32 128 28 28 (3211264)
I1130 17:13:21.744529 14872 net.cpp:137] Memory required for data: 915210368
I1130 17:13:21.744537 14872 layer_factory.hpp:77] Creating layer inception_3b/relu_3x3_reduce
I1130 17:13:21.744546 14872 net.cpp:84] Creating Layer inception_3b/relu_3x3_reduce
I1130 17:13:21.744554 14872 net.cpp:406] inception_3b/relu_3x3_reduce <- inception_3b/3x3_reduce
I1130 17:13:21.744563 14872 net.cpp:367] inception_3b/relu_3x3_reduce -> inception_3b/3x3_reduce (in-place)
I1130 17:13:21.744573 14872 net.cpp:122] Setting up inception_3b/relu_3x3_reduce
I1130 17:13:21.744581 14872 net.cpp:129] Top shape: 32 128 28 28 (3211264)
I1130 17:13:21.744587 14872 net.cpp:137] Memory required for data: 928055424
I1130 17:13:21.744593 14872 layer_factory.hpp:77] Creating layer inception_3b/3x3
I1130 17:13:21.744606 14872 net.cpp:84] Creating Layer inception_3b/3x3
I1130 17:13:21.744611 14872 net.cpp:406] inception_3b/3x3 <- inception_3b/3x3_reduce
I1130 17:13:21.744621 14872 net.cpp:380] inception_3b/3x3 -> inception_3b/3x3
I1130 17:13:21.747326 14872 net.cpp:122] Setting up inception_3b/3x3
I1130 17:13:21.747342 14872 net.cpp:129] Top shape: 32 192 28 28 (4816896)
I1130 17:13:21.747349 14872 net.cpp:137] Memory required for data: 947323008
I1130 17:13:21.747359 14872 layer_factory.hpp:77] Creating layer inception_3b/relu_3x3
I1130 17:13:21.747371 14872 net.cpp:84] Creating Layer inception_3b/relu_3x3
I1130 17:13:21.747378 14872 net.cpp:406] inception_3b/relu_3x3 <- inception_3b/3x3
I1130 17:13:21.747388 14872 net.cpp:367] inception_3b/relu_3x3 -> inception_3b/3x3 (in-place)
I1130 17:13:21.747400 14872 net.cpp:122] Setting up inception_3b/relu_3x3
I1130 17:13:21.747407 14872 net.cpp:129] Top shape: 32 192 28 28 (4816896)
I1130 17:13:21.747413 14872 net.cpp:137] Memory required for data: 966590592
I1130 17:13:21.747419 14872 layer_factory.hpp:77] Creating layer inception_3b/5x5_reduce
I1130 17:13:21.747431 14872 net.cpp:84] Creating Layer inception_3b/5x5_reduce
I1130 17:13:21.747438 14872 net.cpp:406] inception_3b/5x5_reduce <- inception_3a/output_inception_3a/output_0_split_2
I1130 17:13:21.747447 14872 net.cpp:380] inception_3b/5x5_reduce -> inception_3b/5x5_reduce
I1130 17:13:21.747783 14872 net.cpp:122] Setting up inception_3b/5x5_reduce
I1130 17:13:21.747797 14872 net.cpp:129] Top shape: 32 32 28 28 (802816)
I1130 17:13:21.747803 14872 net.cpp:137] Memory required for data: 969801856
I1130 17:13:21.747812 14872 layer_factory.hpp:77] Creating layer inception_3b/relu_5x5_reduce
I1130 17:13:21.747822 14872 net.cpp:84] Creating Layer inception_3b/relu_5x5_reduce
I1130 17:13:21.747829 14872 net.cpp:406] inception_3b/relu_5x5_reduce <- inception_3b/5x5_reduce
I1130 17:13:21.747838 14872 net.cpp:367] inception_3b/relu_5x5_reduce -> inception_3b/5x5_reduce (in-place)
I1130 17:13:21.747848 14872 net.cpp:122] Setting up inception_3b/relu_5x5_reduce
I1130 17:13:21.747856 14872 net.cpp:129] Top shape: 32 32 28 28 (802816)
I1130 17:13:21.747862 14872 net.cpp:137] Memory required for data: 973013120
I1130 17:13:21.747869 14872 layer_factory.hpp:77] Creating layer inception_3b/5x5
I1130 17:13:21.747879 14872 net.cpp:84] Creating Layer inception_3b/5x5
I1130 17:13:21.747885 14872 net.cpp:406] inception_3b/5x5 <- inception_3b/5x5_reduce
I1130 17:13:21.747895 14872 net.cpp:380] inception_3b/5x5 -> inception_3b/5x5
I1130 17:13:21.749344 14872 net.cpp:122] Setting up inception_3b/5x5
I1130 17:13:21.749361 14872 net.cpp:129] Top shape: 32 96 28 28 (2408448)
I1130 17:13:21.749367 14872 net.cpp:137] Memory required for data: 982646912
I1130 17:13:21.749377 14872 layer_factory.hpp:77] Creating layer inception_3b/relu_5x5
I1130 17:13:21.749385 14872 net.cpp:84] Creating Layer inception_3b/relu_5x5
I1130 17:13:21.749393 14872 net.cpp:406] inception_3b/relu_5x5 <- inception_3b/5x5
I1130 17:13:21.749410 14872 net.cpp:367] inception_3b/relu_5x5 -> inception_3b/5x5 (in-place)
I1130 17:13:21.749423 14872 net.cpp:122] Setting up inception_3b/relu_5x5
I1130 17:13:21.749430 14872 net.cpp:129] Top shape: 32 96 28 28 (2408448)
I1130 17:13:21.749436 14872 net.cpp:137] Memory required for data: 992280704
I1130 17:13:21.749442 14872 layer_factory.hpp:77] Creating layer inception_3b/pool
I1130 17:13:21.749452 14872 net.cpp:84] Creating Layer inception_3b/pool
I1130 17:13:21.749459 14872 net.cpp:406] inception_3b/pool <- inception_3a/output_inception_3a/output_0_split_3
I1130 17:13:21.749469 14872 net.cpp:380] inception_3b/pool -> inception_3b/pool
I1130 17:13:21.749517 14872 net.cpp:122] Setting up inception_3b/pool
I1130 17:13:21.749527 14872 net.cpp:129] Top shape: 32 256 28 28 (6422528)
I1130 17:13:21.749534 14872 net.cpp:137] Memory required for data: 1017970816
I1130 17:13:21.749539 14872 layer_factory.hpp:77] Creating layer inception_3b/pool_proj
I1130 17:13:21.749552 14872 net.cpp:84] Creating Layer inception_3b/pool_proj
I1130 17:13:21.749559 14872 net.cpp:406] inception_3b/pool_proj <- inception_3b/pool
I1130 17:13:21.749569 14872 net.cpp:380] inception_3b/pool_proj -> inception_3b/pool_proj
I1130 17:13:21.749969 14872 net.cpp:122] Setting up inception_3b/pool_proj
I1130 17:13:21.749982 14872 net.cpp:129] Top shape: 32 64 28 28 (1605632)
I1130 17:13:21.749989 14872 net.cpp:137] Memory required for data: 1024393344
I1130 17:13:21.749999 14872 layer_factory.hpp:77] Creating layer inception_3b/relu_pool_proj
I1130 17:13:21.750007 14872 net.cpp:84] Creating Layer inception_3b/relu_pool_proj
I1130 17:13:21.750013 14872 net.cpp:406] inception_3b/relu_pool_proj <- inception_3b/pool_proj
I1130 17:13:21.750022 14872 net.cpp:367] inception_3b/relu_pool_proj -> inception_3b/pool_proj (in-place)
I1130 17:13:21.750032 14872 net.cpp:122] Setting up inception_3b/relu_pool_proj
I1130 17:13:21.750041 14872 net.cpp:129] Top shape: 32 64 28 28 (1605632)
I1130 17:13:21.750046 14872 net.cpp:137] Memory required for data: 1030815872
I1130 17:13:21.750052 14872 layer_factory.hpp:77] Creating layer inception_3b/output
I1130 17:13:21.750061 14872 net.cpp:84] Creating Layer inception_3b/output
I1130 17:13:21.750068 14872 net.cpp:406] inception_3b/output <- inception_3b/1x1
I1130 17:13:21.750077 14872 net.cpp:406] inception_3b/output <- inception_3b/3x3
I1130 17:13:21.750083 14872 net.cpp:406] inception_3b/output <- inception_3b/5x5
I1130 17:13:21.750092 14872 net.cpp:406] inception_3b/output <- inception_3b/pool_proj
I1130 17:13:21.750099 14872 net.cpp:380] inception_3b/output -> inception_3b/output
I1130 17:13:21.750133 14872 net.cpp:122] Setting up inception_3b/output
I1130 17:13:21.750145 14872 net.cpp:129] Top shape: 32 480 28 28 (12042240)
I1130 17:13:21.750151 14872 net.cpp:137] Memory required for data: 1078984832
I1130 17:13:21.750156 14872 layer_factory.hpp:77] Creating layer pool3/3x3_s2
I1130 17:13:21.750166 14872 net.cpp:84] Creating Layer pool3/3x3_s2
I1130 17:13:21.750174 14872 net.cpp:406] pool3/3x3_s2 <- inception_3b/output
I1130 17:13:21.750182 14872 net.cpp:380] pool3/3x3_s2 -> pool3/3x3_s2
I1130 17:13:21.750226 14872 net.cpp:122] Setting up pool3/3x3_s2
I1130 17:13:21.750237 14872 net.cpp:129] Top shape: 32 480 14 14 (3010560)
I1130 17:13:21.750243 14872 net.cpp:137] Memory required for data: 1091027072
I1130 17:13:21.750249 14872 layer_factory.hpp:77] Creating layer pool3/3x3_s2_pool3/3x3_s2_0_split
I1130 17:13:21.750259 14872 net.cpp:84] Creating Layer pool3/3x3_s2_pool3/3x3_s2_0_split
I1130 17:13:21.750265 14872 net.cpp:406] pool3/3x3_s2_pool3/3x3_s2_0_split <- pool3/3x3_s2
I1130 17:13:21.750274 14872 net.cpp:380] pool3/3x3_s2_pool3/3x3_s2_0_split -> pool3/3x3_s2_pool3/3x3_s2_0_split_0
I1130 17:13:21.750284 14872 net.cpp:380] pool3/3x3_s2_pool3/3x3_s2_0_split -> pool3/3x3_s2_pool3/3x3_s2_0_split_1
I1130 17:13:21.750294 14872 net.cpp:380] pool3/3x3_s2_pool3/3x3_s2_0_split -> pool3/3x3_s2_pool3/3x3_s2_0_split_2
I1130 17:13:21.750304 14872 net.cpp:380] pool3/3x3_s2_pool3/3x3_s2_0_split -> pool3/3x3_s2_pool3/3x3_s2_0_split_3
I1130 17:13:21.750372 14872 net.cpp:122] Setting up pool3/3x3_s2_pool3/3x3_s2_0_split
I1130 17:13:21.750383 14872 net.cpp:129] Top shape: 32 480 14 14 (3010560)
I1130 17:13:21.750391 14872 net.cpp:129] Top shape: 32 480 14 14 (3010560)
I1130 17:13:21.750398 14872 net.cpp:129] Top shape: 32 480 14 14 (3010560)
I1130 17:13:21.750406 14872 net.cpp:129] Top shape: 32 480 14 14 (3010560)
I1130 17:13:21.750411 14872 net.cpp:137] Memory required for data: 1139196032
I1130 17:13:21.750417 14872 layer_factory.hpp:77] Creating layer inception_4a/1x1
I1130 17:13:21.750429 14872 net.cpp:84] Creating Layer inception_4a/1x1
I1130 17:13:21.750437 14872 net.cpp:406] inception_4a/1x1 <- pool3/3x3_s2_pool3/3x3_s2_0_split_0
I1130 17:13:21.750447 14872 net.cpp:380] inception_4a/1x1 -> inception_4a/1x1
I1130 17:13:21.751361 14872 net.cpp:122] Setting up inception_4a/1x1
I1130 17:13:21.751372 14872 net.cpp:129] Top shape: 32 192 14 14 (1204224)
I1130 17:13:21.751377 14872 net.cpp:137] Memory required for data: 1144012928
I1130 17:13:21.751386 14872 layer_factory.hpp:77] Creating layer inception_4a/relu_1x1
I1130 17:13:21.751394 14872 net.cpp:84] Creating Layer inception_4a/relu_1x1
I1130 17:13:21.751399 14872 net.cpp:406] inception_4a/relu_1x1 <- inception_4a/1x1
I1130 17:13:21.751406 14872 net.cpp:367] inception_4a/relu_1x1 -> inception_4a/1x1 (in-place)
I1130 17:13:21.751415 14872 net.cpp:122] Setting up inception_4a/relu_1x1
I1130 17:13:21.751421 14872 net.cpp:129] Top shape: 32 192 14 14 (1204224)
I1130 17:13:21.751425 14872 net.cpp:137] Memory required for data: 1148829824
I1130 17:13:21.751431 14872 layer_factory.hpp:77] Creating layer inception_4a/3x3_reduce
I1130 17:13:21.751441 14872 net.cpp:84] Creating Layer inception_4a/3x3_reduce
I1130 17:13:21.751446 14872 net.cpp:406] inception_4a/3x3_reduce <- pool3/3x3_s2_pool3/3x3_s2_0_split_1
I1130 17:13:21.751456 14872 net.cpp:380] inception_4a/3x3_reduce -> inception_4a/3x3_reduce
I1130 17:13:21.751981 14872 net.cpp:122] Setting up inception_4a/3x3_reduce
I1130 17:13:21.751992 14872 net.cpp:129] Top shape: 32 96 14 14 (602112)
I1130 17:13:21.751998 14872 net.cpp:137] Memory required for data: 1151238272
I1130 17:13:21.752010 14872 layer_factory.hpp:77] Creating layer inception_4a/relu_3x3_reduce
I1130 17:13:21.752017 14872 net.cpp:84] Creating Layer inception_4a/relu_3x3_reduce
I1130 17:13:21.752024 14872 net.cpp:406] inception_4a/relu_3x3_reduce <- inception_4a/3x3_reduce
I1130 17:13:21.752032 14872 net.cpp:367] inception_4a/relu_3x3_reduce -> inception_4a/3x3_reduce (in-place)
I1130 17:13:21.752040 14872 net.cpp:122] Setting up inception_4a/relu_3x3_reduce
I1130 17:13:21.752048 14872 net.cpp:129] Top shape: 32 96 14 14 (602112)
I1130 17:13:21.752053 14872 net.cpp:137] Memory required for data: 1153646720
I1130 17:13:21.752058 14872 layer_factory.hpp:77] Creating layer inception_4a/3x3
I1130 17:13:21.752068 14872 net.cpp:84] Creating Layer inception_4a/3x3
I1130 17:13:21.752074 14872 net.cpp:406] inception_4a/3x3 <- inception_4a/3x3_reduce
I1130 17:13:21.752081 14872 net.cpp:380] inception_4a/3x3 -> inception_4a/3x3
I1130 17:13:21.753916 14872 net.cpp:122] Setting up inception_4a/3x3
I1130 17:13:21.753928 14872 net.cpp:129] Top shape: 32 208 14 14 (1304576)
I1130 17:13:21.753933 14872 net.cpp:137] Memory required for data: 1158865024
I1130 17:13:21.753942 14872 layer_factory.hpp:77] Creating layer inception_4a/relu_3x3
I1130 17:13:21.753949 14872 net.cpp:84] Creating Layer inception_4a/relu_3x3
I1130 17:13:21.753957 14872 net.cpp:406] inception_4a/relu_3x3 <- inception_4a/3x3
I1130 17:13:21.753963 14872 net.cpp:367] inception_4a/relu_3x3 -> inception_4a/3x3 (in-place)
I1130 17:13:21.753971 14872 net.cpp:122] Setting up inception_4a/relu_3x3
I1130 17:13:21.753978 14872 net.cpp:129] Top shape: 32 208 14 14 (1304576)
I1130 17:13:21.753983 14872 net.cpp:137] Memory required for data: 1164083328
I1130 17:13:21.753988 14872 layer_factory.hpp:77] Creating layer inception_4a/5x5_reduce
I1130 17:13:21.753998 14872 net.cpp:84] Creating Layer inception_4a/5x5_reduce
I1130 17:13:21.754007 14872 net.cpp:406] inception_4a/5x5_reduce <- pool3/3x3_s2_pool3/3x3_s2_0_split_2
I1130 17:13:21.754015 14872 net.cpp:380] inception_4a/5x5_reduce -> inception_4a/5x5_reduce
I1130 17:13:21.754276 14872 net.cpp:122] Setting up inception_4a/5x5_reduce
I1130 17:13:21.754287 14872 net.cpp:129] Top shape: 32 16 14 14 (100352)
I1130 17:13:21.754293 14872 net.cpp:137] Memory required for data: 1164484736
I1130 17:13:21.754300 14872 layer_factory.hpp:77] Creating layer inception_4a/relu_5x5_reduce
I1130 17:13:21.754307 14872 net.cpp:84] Creating Layer inception_4a/relu_5x5_reduce
I1130 17:13:21.754313 14872 net.cpp:406] inception_4a/relu_5x5_reduce <- inception_4a/5x5_reduce
I1130 17:13:21.754321 14872 net.cpp:367] inception_4a/relu_5x5_reduce -> inception_4a/5x5_reduce (in-place)
I1130 17:13:21.754329 14872 net.cpp:122] Setting up inception_4a/relu_5x5_reduce
I1130 17:13:21.754338 14872 net.cpp:129] Top shape: 32 16 14 14 (100352)
I1130 17:13:21.754341 14872 net.cpp:137] Memory required for data: 1164886144
I1130 17:13:21.754346 14872 layer_factory.hpp:77] Creating layer inception_4a/5x5
I1130 17:13:21.754356 14872 net.cpp:84] Creating Layer inception_4a/5x5
I1130 17:13:21.754361 14872 net.cpp:406] inception_4a/5x5 <- inception_4a/5x5_reduce
I1130 17:13:21.754369 14872 net.cpp:380] inception_4a/5x5 -> inception_4a/5x5
I1130 17:13:21.754706 14872 net.cpp:122] Setting up inception_4a/5x5
I1130 17:13:21.754716 14872 net.cpp:129] Top shape: 32 48 14 14 (301056)
I1130 17:13:21.754722 14872 net.cpp:137] Memory required for data: 1166090368
I1130 17:13:21.754729 14872 layer_factory.hpp:77] Creating layer inception_4a/relu_5x5
I1130 17:13:21.754737 14872 net.cpp:84] Creating Layer inception_4a/relu_5x5
I1130 17:13:21.754742 14872 net.cpp:406] inception_4a/relu_5x5 <- inception_4a/5x5
I1130 17:13:21.754750 14872 net.cpp:367] inception_4a/relu_5x5 -> inception_4a/5x5 (in-place)
I1130 17:13:21.754757 14872 net.cpp:122] Setting up inception_4a/relu_5x5
I1130 17:13:21.754765 14872 net.cpp:129] Top shape: 32 48 14 14 (301056)
I1130 17:13:21.754781 14872 net.cpp:137] Memory required for data: 1167294592
I1130 17:13:21.754786 14872 layer_factory.hpp:77] Creating layer inception_4a/pool
I1130 17:13:21.754793 14872 net.cpp:84] Creating Layer inception_4a/pool
I1130 17:13:21.754799 14872 net.cpp:406] inception_4a/pool <- pool3/3x3_s2_pool3/3x3_s2_0_split_3
I1130 17:13:21.754807 14872 net.cpp:380] inception_4a/pool -> inception_4a/pool
I1130 17:13:21.754847 14872 net.cpp:122] Setting up inception_4a/pool
I1130 17:13:21.754855 14872 net.cpp:129] Top shape: 32 480 14 14 (3010560)
I1130 17:13:21.754860 14872 net.cpp:137] Memory required for data: 1179336832
I1130 17:13:21.754865 14872 layer_factory.hpp:77] Creating layer inception_4a/pool_proj
I1130 17:13:21.754876 14872 net.cpp:84] Creating Layer inception_4a/pool_proj
I1130 17:13:21.754882 14872 net.cpp:406] inception_4a/pool_proj <- inception_4a/pool
I1130 17:13:21.754890 14872 net.cpp:380] inception_4a/pool_proj -> inception_4a/pool_proj
I1130 17:13:21.755306 14872 net.cpp:122] Setting up inception_4a/pool_proj
I1130 17:13:21.755316 14872 net.cpp:129] Top shape: 32 64 14 14 (401408)
I1130 17:13:21.755322 14872 net.cpp:137] Memory required for data: 1180942464
I1130 17:13:21.755331 14872 layer_factory.hpp:77] Creating layer inception_4a/relu_pool_proj
I1130 17:13:21.755338 14872 net.cpp:84] Creating Layer inception_4a/relu_pool_proj
I1130 17:13:21.755344 14872 net.cpp:406] inception_4a/relu_pool_proj <- inception_4a/pool_proj
I1130 17:13:21.755352 14872 net.cpp:367] inception_4a/relu_pool_proj -> inception_4a/pool_proj (in-place)
I1130 17:13:21.755360 14872 net.cpp:122] Setting up inception_4a/relu_pool_proj
I1130 17:13:21.755367 14872 net.cpp:129] Top shape: 32 64 14 14 (401408)
I1130 17:13:21.755372 14872 net.cpp:137] Memory required for data: 1182548096
I1130 17:13:21.755376 14872 layer_factory.hpp:77] Creating layer inception_4a/output
I1130 17:13:21.755383 14872 net.cpp:84] Creating Layer inception_4a/output
I1130 17:13:21.755388 14872 net.cpp:406] inception_4a/output <- inception_4a/1x1
I1130 17:13:21.755431 14872 net.cpp:406] inception_4a/output <- inception_4a/3x3
I1130 17:13:21.755439 14872 net.cpp:406] inception_4a/output <- inception_4a/5x5
I1130 17:13:21.755445 14872 net.cpp:406] inception_4a/output <- inception_4a/pool_proj
I1130 17:13:21.755451 14872 net.cpp:380] inception_4a/output -> inception_4a/output
I1130 17:13:21.755481 14872 net.cpp:122] Setting up inception_4a/output
I1130 17:13:21.755488 14872 net.cpp:129] Top shape: 32 512 14 14 (3211264)
I1130 17:13:21.755494 14872 net.cpp:137] Memory required for data: 1195393152
I1130 17:13:21.755499 14872 layer_factory.hpp:77] Creating layer inception_4a/output_inception_4a/output_0_split
I1130 17:13:21.755507 14872 net.cpp:84] Creating Layer inception_4a/output_inception_4a/output_0_split
I1130 17:13:21.755513 14872 net.cpp:406] inception_4a/output_inception_4a/output_0_split <- inception_4a/output
I1130 17:13:21.755522 14872 net.cpp:380] inception_4a/output_inception_4a/output_0_split -> inception_4a/output_inception_4a/output_0_split_0
I1130 17:13:21.755530 14872 net.cpp:380] inception_4a/output_inception_4a/output_0_split -> inception_4a/output_inception_4a/output_0_split_1
I1130 17:13:21.755539 14872 net.cpp:380] inception_4a/output_inception_4a/output_0_split -> inception_4a/output_inception_4a/output_0_split_2
I1130 17:13:21.755548 14872 net.cpp:380] inception_4a/output_inception_4a/output_0_split -> inception_4a/output_inception_4a/output_0_split_3
I1130 17:13:21.755600 14872 net.cpp:122] Setting up inception_4a/output_inception_4a/output_0_split
I1130 17:13:21.755609 14872 net.cpp:129] Top shape: 32 512 14 14 (3211264)
I1130 17:13:21.755614 14872 net.cpp:129] Top shape: 32 512 14 14 (3211264)
I1130 17:13:21.755620 14872 net.cpp:129] Top shape: 32 512 14 14 (3211264)
I1130 17:13:21.755626 14872 net.cpp:129] Top shape: 32 512 14 14 (3211264)
I1130 17:13:21.755632 14872 net.cpp:137] Memory required for data: 1246773376
I1130 17:13:21.755637 14872 layer_factory.hpp:77] Creating layer inception_4b/1x1
I1130 17:13:21.755647 14872 net.cpp:84] Creating Layer inception_4b/1x1
I1130 17:13:21.755653 14872 net.cpp:406] inception_4b/1x1 <- inception_4a/output_inception_4a/output_0_split_0
I1130 17:13:21.755661 14872 net.cpp:380] inception_4b/1x1 -> inception_4b/1x1
I1130 17:13:21.756408 14872 net.cpp:122] Setting up inception_4b/1x1
I1130 17:13:21.756419 14872 net.cpp:129] Top shape: 32 160 14 14 (1003520)
I1130 17:13:21.756425 14872 net.cpp:137] Memory required for data: 1250787456
I1130 17:13:21.756434 14872 layer_factory.hpp:77] Creating layer inception_4b/relu_1x1
I1130 17:13:21.756441 14872 net.cpp:84] Creating Layer inception_4b/relu_1x1
I1130 17:13:21.756448 14872 net.cpp:406] inception_4b/relu_1x1 <- inception_4b/1x1
I1130 17:13:21.756454 14872 net.cpp:367] inception_4b/relu_1x1 -> inception_4b/1x1 (in-place)
I1130 17:13:21.756464 14872 net.cpp:122] Setting up inception_4b/relu_1x1
I1130 17:13:21.756470 14872 net.cpp:129] Top shape: 32 160 14 14 (1003520)
I1130 17:13:21.756474 14872 net.cpp:137] Memory required for data: 1254801536
I1130 17:13:21.756481 14872 layer_factory.hpp:77] Creating layer inception_4b/3x3_reduce
I1130 17:13:21.756490 14872 net.cpp:84] Creating Layer inception_4b/3x3_reduce
I1130 17:13:21.756496 14872 net.cpp:406] inception_4b/3x3_reduce <- inception_4a/output_inception_4a/output_0_split_1
I1130 17:13:21.756505 14872 net.cpp:380] inception_4b/3x3_reduce -> inception_4b/3x3_reduce
I1130 17:13:21.757102 14872 net.cpp:122] Setting up inception_4b/3x3_reduce
I1130 17:13:21.757113 14872 net.cpp:129] Top shape: 32 112 14 14 (702464)
I1130 17:13:21.757119 14872 net.cpp:137] Memory required for data: 1257611392
I1130 17:13:21.757128 14872 layer_factory.hpp:77] Creating layer inception_4b/relu_3x3_reduce
I1130 17:13:21.757135 14872 net.cpp:84] Creating Layer inception_4b/relu_3x3_reduce
I1130 17:13:21.757141 14872 net.cpp:406] inception_4b/relu_3x3_reduce <- inception_4b/3x3_reduce
I1130 17:13:21.757148 14872 net.cpp:367] inception_4b/relu_3x3_reduce -> inception_4b/3x3_reduce (in-place)
I1130 17:13:21.757156 14872 net.cpp:122] Setting up inception_4b/relu_3x3_reduce
I1130 17:13:21.757163 14872 net.cpp:129] Top shape: 32 112 14 14 (702464)
I1130 17:13:21.757169 14872 net.cpp:137] Memory required for data: 1260421248
I1130 17:13:21.757174 14872 layer_factory.hpp:77] Creating layer inception_4b/3x3
I1130 17:13:21.757184 14872 net.cpp:84] Creating Layer inception_4b/3x3
I1130 17:13:21.757189 14872 net.cpp:406] inception_4b/3x3 <- inception_4b/3x3_reduce
I1130 17:13:21.757196 14872 net.cpp:380] inception_4b/3x3 -> inception_4b/3x3
I1130 17:13:21.759342 14872 net.cpp:122] Setting up inception_4b/3x3
I1130 17:13:21.759356 14872 net.cpp:129] Top shape: 32 224 14 14 (1404928)
I1130 17:13:21.759361 14872 net.cpp:137] Memory required for data: 1266040960
I1130 17:13:21.759369 14872 layer_factory.hpp:77] Creating layer inception_4b/relu_3x3
I1130 17:13:21.759378 14872 net.cpp:84] Creating Layer inception_4b/relu_3x3
I1130 17:13:21.759385 14872 net.cpp:406] inception_4b/relu_3x3 <- inception_4b/3x3
I1130 17:13:21.759392 14872 net.cpp:367] inception_4b/relu_3x3 -> inception_4b/3x3 (in-place)
I1130 17:13:21.759402 14872 net.cpp:122] Setting up inception_4b/relu_3x3
I1130 17:13:21.759407 14872 net.cpp:129] Top shape: 32 224 14 14 (1404928)
I1130 17:13:21.759413 14872 net.cpp:137] Memory required for data: 1271660672
I1130 17:13:21.759418 14872 layer_factory.hpp:77] Creating layer inception_4b/5x5_reduce
I1130 17:13:21.759433 14872 net.cpp:84] Creating Layer inception_4b/5x5_reduce
I1130 17:13:21.759438 14872 net.cpp:406] inception_4b/5x5_reduce <- inception_4a/output_inception_4a/output_0_split_2
I1130 17:13:21.759446 14872 net.cpp:380] inception_4b/5x5_reduce -> inception_4b/5x5_reduce
I1130 17:13:21.759742 14872 net.cpp:122] Setting up inception_4b/5x5_reduce
I1130 17:13:21.759753 14872 net.cpp:129] Top shape: 32 24 14 14 (150528)
I1130 17:13:21.759758 14872 net.cpp:137] Memory required for data: 1272262784
I1130 17:13:21.759766 14872 layer_factory.hpp:77] Creating layer inception_4b/relu_5x5_reduce
I1130 17:13:21.759774 14872 net.cpp:84] Creating Layer inception_4b/relu_5x5_reduce
I1130 17:13:21.759781 14872 net.cpp:406] inception_4b/relu_5x5_reduce <- inception_4b/5x5_reduce
I1130 17:13:21.759788 14872 net.cpp:367] inception_4b/relu_5x5_reduce -> inception_4b/5x5_reduce (in-place)
I1130 17:13:21.759796 14872 net.cpp:122] Setting up inception_4b/relu_5x5_reduce
I1130 17:13:21.759804 14872 net.cpp:129] Top shape: 32 24 14 14 (150528)
I1130 17:13:21.759809 14872 net.cpp:137] Memory required for data: 1272864896
I1130 17:13:21.759812 14872 layer_factory.hpp:77] Creating layer inception_4b/5x5
I1130 17:13:21.759822 14872 net.cpp:84] Creating Layer inception_4b/5x5
I1130 17:13:21.759829 14872 net.cpp:406] inception_4b/5x5 <- inception_4b/5x5_reduce
I1130 17:13:21.759836 14872 net.cpp:380] inception_4b/5x5 -> inception_4b/5x5
I1130 17:13:21.760737 14872 net.cpp:122] Setting up inception_4b/5x5
I1130 17:13:21.760751 14872 net.cpp:129] Top shape: 32 64 14 14 (401408)
I1130 17:13:21.760754 14872 net.cpp:137] Memory required for data: 1274470528
I1130 17:13:21.760763 14872 layer_factory.hpp:77] Creating layer inception_4b/relu_5x5
I1130 17:13:21.760771 14872 net.cpp:84] Creating Layer inception_4b/relu_5x5
I1130 17:13:21.760777 14872 net.cpp:406] inception_4b/relu_5x5 <- inception_4b/5x5
I1130 17:13:21.760784 14872 net.cpp:367] inception_4b/relu_5x5 -> inception_4b/5x5 (in-place)
I1130 17:13:21.760794 14872 net.cpp:122] Setting up inception_4b/relu_5x5
I1130 17:13:21.760802 14872 net.cpp:129] Top shape: 32 64 14 14 (401408)
I1130 17:13:21.760807 14872 net.cpp:137] Memory required for data: 1276076160
I1130 17:13:21.760812 14872 layer_factory.hpp:77] Creating layer inception_4b/pool
I1130 17:13:21.760819 14872 net.cpp:84] Creating Layer inception_4b/pool
I1130 17:13:21.760825 14872 net.cpp:406] inception_4b/pool <- inception_4a/output_inception_4a/output_0_split_3
I1130 17:13:21.760833 14872 net.cpp:380] inception_4b/pool -> inception_4b/pool
I1130 17:13:21.760872 14872 net.cpp:122] Setting up inception_4b/pool
I1130 17:13:21.760881 14872 net.cpp:129] Top shape: 32 512 14 14 (3211264)
I1130 17:13:21.760886 14872 net.cpp:137] Memory required for data: 1288921216
I1130 17:13:21.760892 14872 layer_factory.hpp:77] Creating layer inception_4b/pool_proj
I1130 17:13:21.760902 14872 net.cpp:84] Creating Layer inception_4b/pool_proj
I1130 17:13:21.760908 14872 net.cpp:406] inception_4b/pool_proj <- inception_4b/pool
I1130 17:13:21.760916 14872 net.cpp:380] inception_4b/pool_proj -> inception_4b/pool_proj
I1130 17:13:21.761338 14872 net.cpp:122] Setting up inception_4b/pool_proj
I1130 17:13:21.761349 14872 net.cpp:129] Top shape: 32 64 14 14 (401408)
I1130 17:13:21.761354 14872 net.cpp:137] Memory required for data: 1290526848
I1130 17:13:21.761363 14872 layer_factory.hpp:77] Creating layer inception_4b/relu_pool_proj
I1130 17:13:21.761370 14872 net.cpp:84] Creating Layer inception_4b/relu_pool_proj
I1130 17:13:21.761375 14872 net.cpp:406] inception_4b/relu_pool_proj <- inception_4b/pool_proj
I1130 17:13:21.761384 14872 net.cpp:367] inception_4b/relu_pool_proj -> inception_4b/pool_proj (in-place)
I1130 17:13:21.761391 14872 net.cpp:122] Setting up inception_4b/relu_pool_proj
I1130 17:13:21.761399 14872 net.cpp:129] Top shape: 32 64 14 14 (401408)
I1130 17:13:21.761404 14872 net.cpp:137] Memory required for data: 1292132480
I1130 17:13:21.761407 14872 layer_factory.hpp:77] Creating layer inception_4b/output
I1130 17:13:21.761415 14872 net.cpp:84] Creating Layer inception_4b/output
I1130 17:13:21.761420 14872 net.cpp:406] inception_4b/output <- inception_4b/1x1
I1130 17:13:21.761426 14872 net.cpp:406] inception_4b/output <- inception_4b/3x3
I1130 17:13:21.761432 14872 net.cpp:406] inception_4b/output <- inception_4b/5x5
I1130 17:13:21.761440 14872 net.cpp:406] inception_4b/output <- inception_4b/pool_proj
I1130 17:13:21.761446 14872 net.cpp:380] inception_4b/output -> inception_4b/output
I1130 17:13:21.761472 14872 net.cpp:122] Setting up inception_4b/output
I1130 17:13:21.761482 14872 net.cpp:129] Top shape: 32 512 14 14 (3211264)
I1130 17:13:21.761487 14872 net.cpp:137] Memory required for data: 1304977536
I1130 17:13:21.761492 14872 layer_factory.hpp:77] Creating layer inception_4b/output_inception_4b/output_0_split
I1130 17:13:21.761500 14872 net.cpp:84] Creating Layer inception_4b/output_inception_4b/output_0_split
I1130 17:13:21.761507 14872 net.cpp:406] inception_4b/output_inception_4b/output_0_split <- inception_4b/output
I1130 17:13:21.761513 14872 net.cpp:380] inception_4b/output_inception_4b/output_0_split -> inception_4b/output_inception_4b/output_0_split_0
I1130 17:13:21.761521 14872 net.cpp:380] inception_4b/output_inception_4b/output_0_split -> inception_4b/output_inception_4b/output_0_split_1
I1130 17:13:21.761530 14872 net.cpp:380] inception_4b/output_inception_4b/output_0_split -> inception_4b/output_inception_4b/output_0_split_2
I1130 17:13:21.761538 14872 net.cpp:380] inception_4b/output_inception_4b/output_0_split -> inception_4b/output_inception_4b/output_0_split_3
I1130 17:13:21.761592 14872 net.cpp:122] Setting up inception_4b/output_inception_4b/output_0_split
I1130 17:13:21.761600 14872 net.cpp:129] Top shape: 32 512 14 14 (3211264)
I1130 17:13:21.761607 14872 net.cpp:129] Top shape: 32 512 14 14 (3211264)
I1130 17:13:21.761613 14872 net.cpp:129] Top shape: 32 512 14 14 (3211264)
I1130 17:13:21.761618 14872 net.cpp:129] Top shape: 32 512 14 14 (3211264)
I1130 17:13:21.761622 14872 net.cpp:137] Memory required for data: 1356357760
I1130 17:13:21.761628 14872 layer_factory.hpp:77] Creating layer inception_4c/1x1
I1130 17:13:21.761638 14872 net.cpp:84] Creating Layer inception_4c/1x1
I1130 17:13:21.761644 14872 net.cpp:406] inception_4c/1x1 <- inception_4b/output_inception_4b/output_0_split_0
I1130 17:13:21.761652 14872 net.cpp:380] inception_4c/1x1 -> inception_4c/1x1
I1130 17:13:21.762292 14872 net.cpp:122] Setting up inception_4c/1x1
I1130 17:13:21.762303 14872 net.cpp:129] Top shape: 32 128 14 14 (802816)
I1130 17:13:21.762310 14872 net.cpp:137] Memory required for data: 1359569024
I1130 17:13:21.762316 14872 layer_factory.hpp:77] Creating layer inception_4c/relu_1x1
I1130 17:13:21.762325 14872 net.cpp:84] Creating Layer inception_4c/relu_1x1
I1130 17:13:21.762331 14872 net.cpp:406] inception_4c/relu_1x1 <- inception_4c/1x1
I1130 17:13:21.762338 14872 net.cpp:367] inception_4c/relu_1x1 -> inception_4c/1x1 (in-place)
I1130 17:13:21.762346 14872 net.cpp:122] Setting up inception_4c/relu_1x1
I1130 17:13:21.762353 14872 net.cpp:129] Top shape: 32 128 14 14 (802816)
I1130 17:13:21.762358 14872 net.cpp:137] Memory required for data: 1362780288
I1130 17:13:21.762364 14872 layer_factory.hpp:77] Creating layer inception_4c/3x3_reduce
I1130 17:13:21.762373 14872 net.cpp:84] Creating Layer inception_4c/3x3_reduce
I1130 17:13:21.762380 14872 net.cpp:406] inception_4c/3x3_reduce <- inception_4b/output_inception_4b/output_0_split_1
I1130 17:13:21.762387 14872 net.cpp:380] inception_4c/3x3_reduce -> inception_4c/3x3_reduce
I1130 17:13:21.763038 14872 net.cpp:122] Setting up inception_4c/3x3_reduce
I1130 17:13:21.763049 14872 net.cpp:129] Top shape: 32 128 14 14 (802816)
I1130 17:13:21.763056 14872 net.cpp:137] Memory required for data: 1365991552
I1130 17:13:21.763063 14872 layer_factory.hpp:77] Creating layer inception_4c/relu_3x3_reduce
I1130 17:13:21.763072 14872 net.cpp:84] Creating Layer inception_4c/relu_3x3_reduce
I1130 17:13:21.763077 14872 net.cpp:406] inception_4c/relu_3x3_reduce <- inception_4c/3x3_reduce
I1130 17:13:21.763085 14872 net.cpp:367] inception_4c/relu_3x3_reduce -> inception_4c/3x3_reduce (in-place)
I1130 17:13:21.763093 14872 net.cpp:122] Setting up inception_4c/relu_3x3_reduce
I1130 17:13:21.763100 14872 net.cpp:129] Top shape: 32 128 14 14 (802816)
I1130 17:13:21.763104 14872 net.cpp:137] Memory required for data: 1369202816
I1130 17:13:21.763109 14872 layer_factory.hpp:77] Creating layer inception_4c/3x3
I1130 17:13:21.763118 14872 net.cpp:84] Creating Layer inception_4c/3x3
I1130 17:13:21.763123 14872 net.cpp:406] inception_4c/3x3 <- inception_4c/3x3_reduce
I1130 17:13:21.763131 14872 net.cpp:380] inception_4c/3x3 -> inception_4c/3x3
I1130 17:13:21.765775 14872 net.cpp:122] Setting up inception_4c/3x3
I1130 17:13:21.765789 14872 net.cpp:129] Top shape: 32 256 14 14 (1605632)
I1130 17:13:21.765794 14872 net.cpp:137] Memory required for data: 1375625344
I1130 17:13:21.765802 14872 layer_factory.hpp:77] Creating layer inception_4c/relu_3x3
I1130 17:13:21.765810 14872 net.cpp:84] Creating Layer inception_4c/relu_3x3
I1130 17:13:21.765816 14872 net.cpp:406] inception_4c/relu_3x3 <- inception_4c/3x3
I1130 17:13:21.765822 14872 net.cpp:367] inception_4c/relu_3x3 -> inception_4c/3x3 (in-place)
I1130 17:13:21.765831 14872 net.cpp:122] Setting up inception_4c/relu_3x3
I1130 17:13:21.765838 14872 net.cpp:129] Top shape: 32 256 14 14 (1605632)
I1130 17:13:21.765844 14872 net.cpp:137] Memory required for data: 1382047872
I1130 17:13:21.765849 14872 layer_factory.hpp:77] Creating layer inception_4c/5x5_reduce
I1130 17:13:21.765858 14872 net.cpp:84] Creating Layer inception_4c/5x5_reduce
I1130 17:13:21.765866 14872 net.cpp:406] inception_4c/5x5_reduce <- inception_4b/output_inception_4b/output_0_split_2
I1130 17:13:21.765872 14872 net.cpp:380] inception_4c/5x5_reduce -> inception_4c/5x5_reduce
I1130 17:13:21.766170 14872 net.cpp:122] Setting up inception_4c/5x5_reduce
I1130 17:13:21.766180 14872 net.cpp:129] Top shape: 32 24 14 14 (150528)
I1130 17:13:21.766185 14872 net.cpp:137] Memory required for data: 1382649984
I1130 17:13:21.766193 14872 layer_factory.hpp:77] Creating layer inception_4c/relu_5x5_reduce
I1130 17:13:21.766201 14872 net.cpp:84] Creating Layer inception_4c/relu_5x5_reduce
I1130 17:13:21.766207 14872 net.cpp:406] inception_4c/relu_5x5_reduce <- inception_4c/5x5_reduce
I1130 17:13:21.766214 14872 net.cpp:367] inception_4c/relu_5x5_reduce -> inception_4c/5x5_reduce (in-place)
I1130 17:13:21.766222 14872 net.cpp:122] Setting up inception_4c/relu_5x5_reduce
I1130 17:13:21.766229 14872 net.cpp:129] Top shape: 32 24 14 14 (150528)
I1130 17:13:21.766235 14872 net.cpp:137] Memory required for data: 1383252096
I1130 17:13:21.766239 14872 layer_factory.hpp:77] Creating layer inception_4c/5x5
I1130 17:13:21.766248 14872 net.cpp:84] Creating Layer inception_4c/5x5
I1130 17:13:21.766253 14872 net.cpp:406] inception_4c/5x5 <- inception_4c/5x5_reduce
I1130 17:13:21.766261 14872 net.cpp:380] inception_4c/5x5 -> inception_4c/5x5
I1130 17:13:21.766731 14872 net.cpp:122] Setting up inception_4c/5x5
I1130 17:13:21.766741 14872 net.cpp:129] Top shape: 32 64 14 14 (401408)
I1130 17:13:21.766746 14872 net.cpp:137] Memory required for data: 1384857728
I1130 17:13:21.766754 14872 layer_factory.hpp:77] Creating layer inception_4c/relu_5x5
I1130 17:13:21.766762 14872 net.cpp:84] Creating Layer inception_4c/relu_5x5
I1130 17:13:21.766779 14872 net.cpp:406] inception_4c/relu_5x5 <- inception_4c/5x5
I1130 17:13:21.766788 14872 net.cpp:367] inception_4c/relu_5x5 -> inception_4c/5x5 (in-place)
I1130 17:13:21.766795 14872 net.cpp:122] Setting up inception_4c/relu_5x5
I1130 17:13:21.766803 14872 net.cpp:129] Top shape: 32 64 14 14 (401408)
I1130 17:13:21.766808 14872 net.cpp:137] Memory required for data: 1386463360
I1130 17:13:21.766813 14872 layer_factory.hpp:77] Creating layer inception_4c/pool
I1130 17:13:21.766821 14872 net.cpp:84] Creating Layer inception_4c/pool
I1130 17:13:21.766827 14872 net.cpp:406] inception_4c/pool <- inception_4b/output_inception_4b/output_0_split_3
I1130 17:13:21.766834 14872 net.cpp:380] inception_4c/pool -> inception_4c/pool
I1130 17:13:21.766875 14872 net.cpp:122] Setting up inception_4c/pool
I1130 17:13:21.766883 14872 net.cpp:129] Top shape: 32 512 14 14 (3211264)
I1130 17:13:21.766888 14872 net.cpp:137] Memory required for data: 1399308416
I1130 17:13:21.766892 14872 layer_factory.hpp:77] Creating layer inception_4c/pool_proj
I1130 17:13:21.766904 14872 net.cpp:84] Creating Layer inception_4c/pool_proj
I1130 17:13:21.766911 14872 net.cpp:406] inception_4c/pool_proj <- inception_4c/pool
I1130 17:13:21.766918 14872 net.cpp:380] inception_4c/pool_proj -> inception_4c/pool_proj
I1130 17:13:21.767767 14872 net.cpp:122] Setting up inception_4c/pool_proj
I1130 17:13:21.767779 14872 net.cpp:129] Top shape: 32 64 14 14 (401408)
I1130 17:13:21.767784 14872 net.cpp:137] Memory required for data: 1400914048
I1130 17:13:21.767801 14872 layer_factory.hpp:77] Creating layer inception_4c/relu_pool_proj
I1130 17:13:21.767809 14872 net.cpp:84] Creating Layer inception_4c/relu_pool_proj
I1130 17:13:21.767815 14872 net.cpp:406] inception_4c/relu_pool_proj <- inception_4c/pool_proj
I1130 17:13:21.767822 14872 net.cpp:367] inception_4c/relu_pool_proj -> inception_4c/pool_proj (in-place)
I1130 17:13:21.767832 14872 net.cpp:122] Setting up inception_4c/relu_pool_proj
I1130 17:13:21.767838 14872 net.cpp:129] Top shape: 32 64 14 14 (401408)
I1130 17:13:21.767843 14872 net.cpp:137] Memory required for data: 1402519680
I1130 17:13:21.767848 14872 layer_factory.hpp:77] Creating layer inception_4c/output
I1130 17:13:21.767854 14872 net.cpp:84] Creating Layer inception_4c/output
I1130 17:13:21.767860 14872 net.cpp:406] inception_4c/output <- inception_4c/1x1
I1130 17:13:21.767866 14872 net.cpp:406] inception_4c/output <- inception_4c/3x3
I1130 17:13:21.767873 14872 net.cpp:406] inception_4c/output <- inception_4c/5x5
I1130 17:13:21.767879 14872 net.cpp:406] inception_4c/output <- inception_4c/pool_proj
I1130 17:13:21.767885 14872 net.cpp:380] inception_4c/output -> inception_4c/output
I1130 17:13:21.767912 14872 net.cpp:122] Setting up inception_4c/output
I1130 17:13:21.767920 14872 net.cpp:129] Top shape: 32 512 14 14 (3211264)
I1130 17:13:21.767926 14872 net.cpp:137] Memory required for data: 1415364736
I1130 17:13:21.767931 14872 layer_factory.hpp:77] Creating layer inception_4c/output_inception_4c/output_0_split
I1130 17:13:21.767940 14872 net.cpp:84] Creating Layer inception_4c/output_inception_4c/output_0_split
I1130 17:13:21.767946 14872 net.cpp:406] inception_4c/output_inception_4c/output_0_split <- inception_4c/output
I1130 17:13:21.767952 14872 net.cpp:380] inception_4c/output_inception_4c/output_0_split -> inception_4c/output_inception_4c/output_0_split_0
I1130 17:13:21.767961 14872 net.cpp:380] inception_4c/output_inception_4c/output_0_split -> inception_4c/output_inception_4c/output_0_split_1
I1130 17:13:21.767969 14872 net.cpp:380] inception_4c/output_inception_4c/output_0_split -> inception_4c/output_inception_4c/output_0_split_2
I1130 17:13:21.767977 14872 net.cpp:380] inception_4c/output_inception_4c/output_0_split -> inception_4c/output_inception_4c/output_0_split_3
I1130 17:13:21.768031 14872 net.cpp:122] Setting up inception_4c/output_inception_4c/output_0_split
I1130 17:13:21.768040 14872 net.cpp:129] Top shape: 32 512 14 14 (3211264)
I1130 17:13:21.768046 14872 net.cpp:129] Top shape: 32 512 14 14 (3211264)
I1130 17:13:21.768052 14872 net.cpp:129] Top shape: 32 512 14 14 (3211264)
I1130 17:13:21.768057 14872 net.cpp:129] Top shape: 32 512 14 14 (3211264)
I1130 17:13:21.768062 14872 net.cpp:137] Memory required for data: 1466744960
I1130 17:13:21.768066 14872 layer_factory.hpp:77] Creating layer inception_4d/1x1
I1130 17:13:21.768076 14872 net.cpp:84] Creating Layer inception_4d/1x1
I1130 17:13:21.768082 14872 net.cpp:406] inception_4d/1x1 <- inception_4c/output_inception_4c/output_0_split_0
I1130 17:13:21.768090 14872 net.cpp:380] inception_4d/1x1 -> inception_4d/1x1
I1130 17:13:21.768682 14872 net.cpp:122] Setting up inception_4d/1x1
I1130 17:13:21.768692 14872 net.cpp:129] Top shape: 32 112 14 14 (702464)
I1130 17:13:21.768697 14872 net.cpp:137] Memory required for data: 1469554816
I1130 17:13:21.768707 14872 layer_factory.hpp:77] Creating layer inception_4d/relu_1x1
I1130 17:13:21.768713 14872 net.cpp:84] Creating Layer inception_4d/relu_1x1
I1130 17:13:21.768719 14872 net.cpp:406] inception_4d/relu_1x1 <- inception_4d/1x1
I1130 17:13:21.768726 14872 net.cpp:367] inception_4d/relu_1x1 -> inception_4d/1x1 (in-place)
I1130 17:13:21.768734 14872 net.cpp:122] Setting up inception_4d/relu_1x1
I1130 17:13:21.768741 14872 net.cpp:129] Top shape: 32 112 14 14 (702464)
I1130 17:13:21.768745 14872 net.cpp:137] Memory required for data: 1472364672
I1130 17:13:21.768751 14872 layer_factory.hpp:77] Creating layer inception_4d/3x3_reduce
I1130 17:13:21.768760 14872 net.cpp:84] Creating Layer inception_4d/3x3_reduce
I1130 17:13:21.768766 14872 net.cpp:406] inception_4d/3x3_reduce <- inception_4c/output_inception_4c/output_0_split_1
I1130 17:13:21.768774 14872 net.cpp:380] inception_4d/3x3_reduce -> inception_4d/3x3_reduce
I1130 17:13:21.769502 14872 net.cpp:122] Setting up inception_4d/3x3_reduce
I1130 17:13:21.769513 14872 net.cpp:129] Top shape: 32 144 14 14 (903168)
I1130 17:13:21.769518 14872 net.cpp:137] Memory required for data: 1475977344
I1130 17:13:21.769527 14872 layer_factory.hpp:77] Creating layer inception_4d/relu_3x3_reduce
I1130 17:13:21.769534 14872 net.cpp:84] Creating Layer inception_4d/relu_3x3_reduce
I1130 17:13:21.769541 14872 net.cpp:406] inception_4d/relu_3x3_reduce <- inception_4d/3x3_reduce
I1130 17:13:21.769547 14872 net.cpp:367] inception_4d/relu_3x3_reduce -> inception_4d/3x3_reduce (in-place)
I1130 17:13:21.769556 14872 net.cpp:122] Setting up inception_4d/relu_3x3_reduce
I1130 17:13:21.769562 14872 net.cpp:129] Top shape: 32 144 14 14 (903168)
I1130 17:13:21.769567 14872 net.cpp:137] Memory required for data: 1479590016
I1130 17:13:21.769572 14872 layer_factory.hpp:77] Creating layer inception_4d/3x3
I1130 17:13:21.769580 14872 net.cpp:84] Creating Layer inception_4d/3x3
I1130 17:13:21.769587 14872 net.cpp:406] inception_4d/3x3 <- inception_4d/3x3_reduce
I1130 17:13:21.769593 14872 net.cpp:380] inception_4d/3x3 -> inception_4d/3x3
I1130 17:13:21.772831 14872 net.cpp:122] Setting up inception_4d/3x3
I1130 17:13:21.772845 14872 net.cpp:129] Top shape: 32 288 14 14 (1806336)
I1130 17:13:21.772850 14872 net.cpp:137] Memory required for data: 1486815360
I1130 17:13:21.772860 14872 layer_factory.hpp:77] Creating layer inception_4d/relu_3x3
I1130 17:13:21.772866 14872 net.cpp:84] Creating Layer inception_4d/relu_3x3
I1130 17:13:21.772874 14872 net.cpp:406] inception_4d/relu_3x3 <- inception_4d/3x3
I1130 17:13:21.772882 14872 net.cpp:367] inception_4d/relu_3x3 -> inception_4d/3x3 (in-place)
I1130 17:13:21.772891 14872 net.cpp:122] Setting up inception_4d/relu_3x3
I1130 17:13:21.772897 14872 net.cpp:129] Top shape: 32 288 14 14 (1806336)
I1130 17:13:21.772902 14872 net.cpp:137] Memory required for data: 1494040704
I1130 17:13:21.772909 14872 layer_factory.hpp:77] Creating layer inception_4d/5x5_reduce
I1130 17:13:21.772919 14872 net.cpp:84] Creating Layer inception_4d/5x5_reduce
I1130 17:13:21.772925 14872 net.cpp:406] inception_4d/5x5_reduce <- inception_4c/output_inception_4c/output_0_split_2
I1130 17:13:21.772933 14872 net.cpp:380] inception_4d/5x5_reduce -> inception_4d/5x5_reduce
I1130 17:13:21.773269 14872 net.cpp:122] Setting up inception_4d/5x5_reduce
I1130 17:13:21.773280 14872 net.cpp:129] Top shape: 32 32 14 14 (200704)
I1130 17:13:21.773286 14872 net.cpp:137] Memory required for data: 1494843520
I1130 17:13:21.773294 14872 layer_factory.hpp:77] Creating layer inception_4d/relu_5x5_reduce
I1130 17:13:21.773303 14872 net.cpp:84] Creating Layer inception_4d/relu_5x5_reduce
I1130 17:13:21.773308 14872 net.cpp:406] inception_4d/relu_5x5_reduce <- inception_4d/5x5_reduce
I1130 17:13:21.773315 14872 net.cpp:367] inception_4d/relu_5x5_reduce -> inception_4d/5x5_reduce (in-place)
I1130 17:13:21.773325 14872 net.cpp:122] Setting up inception_4d/relu_5x5_reduce
I1130 17:13:21.773331 14872 net.cpp:129] Top shape: 32 32 14 14 (200704)
I1130 17:13:21.773337 14872 net.cpp:137] Memory required for data: 1495646336
I1130 17:13:21.773342 14872 layer_factory.hpp:77] Creating layer inception_4d/5x5
I1130 17:13:21.773352 14872 net.cpp:84] Creating Layer inception_4d/5x5
I1130 17:13:21.773360 14872 net.cpp:406] inception_4d/5x5 <- inception_4d/5x5_reduce
I1130 17:13:21.773366 14872 net.cpp:380] inception_4d/5x5 -> inception_4d/5x5
I1130 17:13:21.773921 14872 net.cpp:122] Setting up inception_4d/5x5
I1130 17:13:21.773932 14872 net.cpp:129] Top shape: 32 64 14 14 (401408)
I1130 17:13:21.773938 14872 net.cpp:137] Memory required for data: 1497251968
I1130 17:13:21.773947 14872 layer_factory.hpp:77] Creating layer inception_4d/relu_5x5
I1130 17:13:21.773954 14872 net.cpp:84] Creating Layer inception_4d/relu_5x5
I1130 17:13:21.773960 14872 net.cpp:406] inception_4d/relu_5x5 <- inception_4d/5x5
I1130 17:13:21.773968 14872 net.cpp:367] inception_4d/relu_5x5 -> inception_4d/5x5 (in-place)
I1130 17:13:21.773977 14872 net.cpp:122] Setting up inception_4d/relu_5x5
I1130 17:13:21.773983 14872 net.cpp:129] Top shape: 32 64 14 14 (401408)
I1130 17:13:21.773988 14872 net.cpp:137] Memory required for data: 1498857600
I1130 17:13:21.773993 14872 layer_factory.hpp:77] Creating layer inception_4d/pool
I1130 17:13:21.774000 14872 net.cpp:84] Creating Layer inception_4d/pool
I1130 17:13:21.774008 14872 net.cpp:406] inception_4d/pool <- inception_4c/output_inception_4c/output_0_split_3
I1130 17:13:21.774014 14872 net.cpp:380] inception_4d/pool -> inception_4d/pool
I1130 17:13:21.774054 14872 net.cpp:122] Setting up inception_4d/pool
I1130 17:13:21.774062 14872 net.cpp:129] Top shape: 32 512 14 14 (3211264)
I1130 17:13:21.774068 14872 net.cpp:137] Memory required for data: 1511702656
I1130 17:13:21.774073 14872 layer_factory.hpp:77] Creating layer inception_4d/pool_proj
I1130 17:13:21.774085 14872 net.cpp:84] Creating Layer inception_4d/pool_proj
I1130 17:13:21.774091 14872 net.cpp:406] inception_4d/pool_proj <- inception_4d/pool
I1130 17:13:21.774098 14872 net.cpp:380] inception_4d/pool_proj -> inception_4d/pool_proj
I1130 17:13:21.774525 14872 net.cpp:122] Setting up inception_4d/pool_proj
I1130 17:13:21.774536 14872 net.cpp:129] Top shape: 32 64 14 14 (401408)
I1130 17:13:21.774541 14872 net.cpp:137] Memory required for data: 1513308288
I1130 17:13:21.774550 14872 layer_factory.hpp:77] Creating layer inception_4d/relu_pool_proj
I1130 17:13:21.774559 14872 net.cpp:84] Creating Layer inception_4d/relu_pool_proj
I1130 17:13:21.774564 14872 net.cpp:406] inception_4d/relu_pool_proj <- inception_4d/pool_proj
I1130 17:13:21.774571 14872 net.cpp:367] inception_4d/relu_pool_proj -> inception_4d/pool_proj (in-place)
I1130 17:13:21.774580 14872 net.cpp:122] Setting up inception_4d/relu_pool_proj
I1130 17:13:21.774585 14872 net.cpp:129] Top shape: 32 64 14 14 (401408)
I1130 17:13:21.774591 14872 net.cpp:137] Memory required for data: 1514913920
I1130 17:13:21.774595 14872 layer_factory.hpp:77] Creating layer inception_4d/output
I1130 17:13:21.774602 14872 net.cpp:84] Creating Layer inception_4d/output
I1130 17:13:21.774608 14872 net.cpp:406] inception_4d/output <- inception_4d/1x1
I1130 17:13:21.774616 14872 net.cpp:406] inception_4d/output <- inception_4d/3x3
I1130 17:13:21.774621 14872 net.cpp:406] inception_4d/output <- inception_4d/5x5
I1130 17:13:21.774628 14872 net.cpp:406] inception_4d/output <- inception_4d/pool_proj
I1130 17:13:21.774636 14872 net.cpp:380] inception_4d/output -> inception_4d/output
I1130 17:13:21.774662 14872 net.cpp:122] Setting up inception_4d/output
I1130 17:13:21.774670 14872 net.cpp:129] Top shape: 32 528 14 14 (3311616)
I1130 17:13:21.774674 14872 net.cpp:137] Memory required for data: 1528160384
I1130 17:13:21.774679 14872 layer_factory.hpp:77] Creating layer inception_4d/output_inception_4d/output_0_split
I1130 17:13:21.774686 14872 net.cpp:84] Creating Layer inception_4d/output_inception_4d/output_0_split
I1130 17:13:21.774693 14872 net.cpp:406] inception_4d/output_inception_4d/output_0_split <- inception_4d/output
I1130 17:13:21.774699 14872 net.cpp:380] inception_4d/output_inception_4d/output_0_split -> inception_4d/output_inception_4d/output_0_split_0
I1130 17:13:21.774708 14872 net.cpp:380] inception_4d/output_inception_4d/output_0_split -> inception_4d/output_inception_4d/output_0_split_1
I1130 17:13:21.774716 14872 net.cpp:380] inception_4d/output_inception_4d/output_0_split -> inception_4d/output_inception_4d/output_0_split_2
I1130 17:13:21.774724 14872 net.cpp:380] inception_4d/output_inception_4d/output_0_split -> inception_4d/output_inception_4d/output_0_split_3
I1130 17:13:21.774788 14872 net.cpp:122] Setting up inception_4d/output_inception_4d/output_0_split
I1130 17:13:21.774798 14872 net.cpp:129] Top shape: 32 528 14 14 (3311616)
I1130 17:13:21.774804 14872 net.cpp:129] Top shape: 32 528 14 14 (3311616)
I1130 17:13:21.774811 14872 net.cpp:129] Top shape: 32 528 14 14 (3311616)
I1130 17:13:21.774817 14872 net.cpp:129] Top shape: 32 528 14 14 (3311616)
I1130 17:13:21.774821 14872 net.cpp:137] Memory required for data: 1581146240
I1130 17:13:21.774827 14872 layer_factory.hpp:77] Creating layer inception_4e/1x1
I1130 17:13:21.774837 14872 net.cpp:84] Creating Layer inception_4e/1x1
I1130 17:13:21.774842 14872 net.cpp:406] inception_4e/1x1 <- inception_4d/output_inception_4d/output_0_split_0
I1130 17:13:21.774850 14872 net.cpp:380] inception_4e/1x1 -> inception_4e/1x1
I1130 17:13:21.776396 14872 net.cpp:122] Setting up inception_4e/1x1
I1130 17:13:21.776409 14872 net.cpp:129] Top shape: 32 256 14 14 (1605632)
I1130 17:13:21.776415 14872 net.cpp:137] Memory required for data: 1587568768
I1130 17:13:21.776423 14872 layer_factory.hpp:77] Creating layer inception_4e/relu_1x1
I1130 17:13:21.776432 14872 net.cpp:84] Creating Layer inception_4e/relu_1x1
I1130 17:13:21.776437 14872 net.cpp:406] inception_4e/relu_1x1 <- inception_4e/1x1
I1130 17:13:21.776445 14872 net.cpp:367] inception_4e/relu_1x1 -> inception_4e/1x1 (in-place)
I1130 17:13:21.776453 14872 net.cpp:122] Setting up inception_4e/relu_1x1
I1130 17:13:21.776460 14872 net.cpp:129] Top shape: 32 256 14 14 (1605632)
I1130 17:13:21.776465 14872 net.cpp:137] Memory required for data: 1593991296
I1130 17:13:21.776469 14872 layer_factory.hpp:77] Creating layer inception_4e/3x3_reduce
I1130 17:13:21.776479 14872 net.cpp:84] Creating Layer inception_4e/3x3_reduce
I1130 17:13:21.776485 14872 net.cpp:406] inception_4e/3x3_reduce <- inception_4d/output_inception_4d/output_0_split_1
I1130 17:13:21.776492 14872 net.cpp:380] inception_4e/3x3_reduce -> inception_4e/3x3_reduce
I1130 17:13:21.777268 14872 net.cpp:122] Setting up inception_4e/3x3_reduce
I1130 17:13:21.777281 14872 net.cpp:129] Top shape: 32 160 14 14 (1003520)
I1130 17:13:21.777285 14872 net.cpp:137] Memory required for data: 1598005376
I1130 17:13:21.777293 14872 layer_factory.hpp:77] Creating layer inception_4e/relu_3x3_reduce
I1130 17:13:21.777300 14872 net.cpp:84] Creating Layer inception_4e/relu_3x3_reduce
I1130 17:13:21.777307 14872 net.cpp:406] inception_4e/relu_3x3_reduce <- inception_4e/3x3_reduce
I1130 17:13:21.777314 14872 net.cpp:367] inception_4e/relu_3x3_reduce -> inception_4e/3x3_reduce (in-place)
I1130 17:13:21.777323 14872 net.cpp:122] Setting up inception_4e/relu_3x3_reduce
I1130 17:13:21.777329 14872 net.cpp:129] Top shape: 32 160 14 14 (1003520)
I1130 17:13:21.777334 14872 net.cpp:137] Memory required for data: 1602019456
I1130 17:13:21.777340 14872 layer_factory.hpp:77] Creating layer inception_4e/3x3
I1130 17:13:21.777350 14872 net.cpp:84] Creating Layer inception_4e/3x3
I1130 17:13:21.777356 14872 net.cpp:406] inception_4e/3x3 <- inception_4e/3x3_reduce
I1130 17:13:21.777364 14872 net.cpp:380] inception_4e/3x3 -> inception_4e/3x3
I1130 17:13:21.781229 14872 net.cpp:122] Setting up inception_4e/3x3
I1130 17:13:21.781241 14872 net.cpp:129] Top shape: 32 320 14 14 (2007040)
I1130 17:13:21.781245 14872 net.cpp:137] Memory required for data: 1610047616
I1130 17:13:21.781253 14872 layer_factory.hpp:77] Creating layer inception_4e/relu_3x3
I1130 17:13:21.781261 14872 net.cpp:84] Creating Layer inception_4e/relu_3x3
I1130 17:13:21.781267 14872 net.cpp:406] inception_4e/relu_3x3 <- inception_4e/3x3
I1130 17:13:21.781275 14872 net.cpp:367] inception_4e/relu_3x3 -> inception_4e/3x3 (in-place)
I1130 17:13:21.781283 14872 net.cpp:122] Setting up inception_4e/relu_3x3
I1130 17:13:21.781289 14872 net.cpp:129] Top shape: 32 320 14 14 (2007040)
I1130 17:13:21.781294 14872 net.cpp:137] Memory required for data: 1618075776
I1130 17:13:21.781298 14872 layer_factory.hpp:77] Creating layer inception_4e/5x5_reduce
I1130 17:13:21.781308 14872 net.cpp:84] Creating Layer inception_4e/5x5_reduce
I1130 17:13:21.781314 14872 net.cpp:406] inception_4e/5x5_reduce <- inception_4d/output_inception_4d/output_0_split_2
I1130 17:13:21.781322 14872 net.cpp:380] inception_4e/5x5_reduce -> inception_4e/5x5_reduce
I1130 17:13:21.781646 14872 net.cpp:122] Setting up inception_4e/5x5_reduce
I1130 17:13:21.781656 14872 net.cpp:129] Top shape: 32 32 14 14 (200704)
I1130 17:13:21.781662 14872 net.cpp:137] Memory required for data: 1618878592
I1130 17:13:21.781669 14872 layer_factory.hpp:77] Creating layer inception_4e/relu_5x5_reduce
I1130 17:13:21.781677 14872 net.cpp:84] Creating Layer inception_4e/relu_5x5_reduce
I1130 17:13:21.781683 14872 net.cpp:406] inception_4e/relu_5x5_reduce <- inception_4e/5x5_reduce
I1130 17:13:21.781689 14872 net.cpp:367] inception_4e/relu_5x5_reduce -> inception_4e/5x5_reduce (in-place)
I1130 17:13:21.781697 14872 net.cpp:122] Setting up inception_4e/relu_5x5_reduce
I1130 17:13:21.781704 14872 net.cpp:129] Top shape: 32 32 14 14 (200704)
I1130 17:13:21.781709 14872 net.cpp:137] Memory required for data: 1619681408
I1130 17:13:21.781714 14872 layer_factory.hpp:77] Creating layer inception_4e/5x5
I1130 17:13:21.781724 14872 net.cpp:84] Creating Layer inception_4e/5x5
I1130 17:13:21.781730 14872 net.cpp:406] inception_4e/5x5 <- inception_4e/5x5_reduce
I1130 17:13:21.781736 14872 net.cpp:380] inception_4e/5x5 -> inception_4e/5x5
I1130 17:13:21.783022 14872 net.cpp:122] Setting up inception_4e/5x5
I1130 17:13:21.783035 14872 net.cpp:129] Top shape: 32 128 14 14 (802816)
I1130 17:13:21.783041 14872 net.cpp:137] Memory required for data: 1622892672
I1130 17:13:21.783048 14872 layer_factory.hpp:77] Creating layer inception_4e/relu_5x5
I1130 17:13:21.783056 14872 net.cpp:84] Creating Layer inception_4e/relu_5x5
I1130 17:13:21.783063 14872 net.cpp:406] inception_4e/relu_5x5 <- inception_4e/5x5
I1130 17:13:21.783071 14872 net.cpp:367] inception_4e/relu_5x5 -> inception_4e/5x5 (in-place)
I1130 17:13:21.783079 14872 net.cpp:122] Setting up inception_4e/relu_5x5
I1130 17:13:21.783087 14872 net.cpp:129] Top shape: 32 128 14 14 (802816)
I1130 17:13:21.783092 14872 net.cpp:137] Memory required for data: 1626103936
I1130 17:13:21.783095 14872 layer_factory.hpp:77] Creating layer inception_4e/pool
I1130 17:13:21.783103 14872 net.cpp:84] Creating Layer inception_4e/pool
I1130 17:13:21.783109 14872 net.cpp:406] inception_4e/pool <- inception_4d/output_inception_4d/output_0_split_3
I1130 17:13:21.783118 14872 net.cpp:380] inception_4e/pool -> inception_4e/pool
I1130 17:13:21.783157 14872 net.cpp:122] Setting up inception_4e/pool
I1130 17:13:21.783166 14872 net.cpp:129] Top shape: 32 528 14 14 (3311616)
I1130 17:13:21.783171 14872 net.cpp:137] Memory required for data: 1639350400
I1130 17:13:21.783176 14872 layer_factory.hpp:77] Creating layer inception_4e/pool_proj
I1130 17:13:21.783185 14872 net.cpp:84] Creating Layer inception_4e/pool_proj
I1130 17:13:21.783191 14872 net.cpp:406] inception_4e/pool_proj <- inception_4e/pool
I1130 17:13:21.783200 14872 net.cpp:380] inception_4e/pool_proj -> inception_4e/pool_proj
I1130 17:13:21.783843 14872 net.cpp:122] Setting up inception_4e/pool_proj
I1130 17:13:21.783854 14872 net.cpp:129] Top shape: 32 128 14 14 (802816)
I1130 17:13:21.783859 14872 net.cpp:137] Memory required for data: 1642561664
I1130 17:13:21.783867 14872 layer_factory.hpp:77] Creating layer inception_4e/relu_pool_proj
I1130 17:13:21.783875 14872 net.cpp:84] Creating Layer inception_4e/relu_pool_proj
I1130 17:13:21.783881 14872 net.cpp:406] inception_4e/relu_pool_proj <- inception_4e/pool_proj
I1130 17:13:21.783890 14872 net.cpp:367] inception_4e/relu_pool_proj -> inception_4e/pool_proj (in-place)
I1130 17:13:21.783898 14872 net.cpp:122] Setting up inception_4e/relu_pool_proj
I1130 17:13:21.783905 14872 net.cpp:129] Top shape: 32 128 14 14 (802816)
I1130 17:13:21.783910 14872 net.cpp:137] Memory required for data: 1645772928
I1130 17:13:21.783915 14872 layer_factory.hpp:77] Creating layer inception_4e/output
I1130 17:13:21.783922 14872 net.cpp:84] Creating Layer inception_4e/output
I1130 17:13:21.783927 14872 net.cpp:406] inception_4e/output <- inception_4e/1x1
I1130 17:13:21.783934 14872 net.cpp:406] inception_4e/output <- inception_4e/3x3
I1130 17:13:21.783941 14872 net.cpp:406] inception_4e/output <- inception_4e/5x5
I1130 17:13:21.783946 14872 net.cpp:406] inception_4e/output <- inception_4e/pool_proj
I1130 17:13:21.783951 14872 net.cpp:380] inception_4e/output -> inception_4e/output
I1130 17:13:21.783978 14872 net.cpp:122] Setting up inception_4e/output
I1130 17:13:21.783987 14872 net.cpp:129] Top shape: 32 832 14 14 (5218304)
I1130 17:13:21.783993 14872 net.cpp:137] Memory required for data: 1666646144
I1130 17:13:21.783998 14872 layer_factory.hpp:77] Creating layer pool4/3x3_s2
I1130 17:13:21.784008 14872 net.cpp:84] Creating Layer pool4/3x3_s2
I1130 17:13:21.784014 14872 net.cpp:406] pool4/3x3_s2 <- inception_4e/output
I1130 17:13:21.784023 14872 net.cpp:380] pool4/3x3_s2 -> pool4/3x3_s2
I1130 17:13:21.784061 14872 net.cpp:122] Setting up pool4/3x3_s2
I1130 17:13:21.784070 14872 net.cpp:129] Top shape: 32 832 7 7 (1304576)
I1130 17:13:21.784075 14872 net.cpp:137] Memory required for data: 1671864448
I1130 17:13:21.784080 14872 layer_factory.hpp:77] Creating layer pool4/3x3_s2_pool4/3x3_s2_0_split
I1130 17:13:21.784087 14872 net.cpp:84] Creating Layer pool4/3x3_s2_pool4/3x3_s2_0_split
I1130 17:13:21.784092 14872 net.cpp:406] pool4/3x3_s2_pool4/3x3_s2_0_split <- pool4/3x3_s2
I1130 17:13:21.784098 14872 net.cpp:380] pool4/3x3_s2_pool4/3x3_s2_0_split -> pool4/3x3_s2_pool4/3x3_s2_0_split_0
I1130 17:13:21.784106 14872 net.cpp:380] pool4/3x3_s2_pool4/3x3_s2_0_split -> pool4/3x3_s2_pool4/3x3_s2_0_split_1
I1130 17:13:21.784114 14872 net.cpp:380] pool4/3x3_s2_pool4/3x3_s2_0_split -> pool4/3x3_s2_pool4/3x3_s2_0_split_2
I1130 17:13:21.784123 14872 net.cpp:380] pool4/3x3_s2_pool4/3x3_s2_0_split -> pool4/3x3_s2_pool4/3x3_s2_0_split_3
I1130 17:13:21.784178 14872 net.cpp:122] Setting up pool4/3x3_s2_pool4/3x3_s2_0_split
I1130 17:13:21.784186 14872 net.cpp:129] Top shape: 32 832 7 7 (1304576)
I1130 17:13:21.784193 14872 net.cpp:129] Top shape: 32 832 7 7 (1304576)
I1130 17:13:21.784198 14872 net.cpp:129] Top shape: 32 832 7 7 (1304576)
I1130 17:13:21.784204 14872 net.cpp:129] Top shape: 32 832 7 7 (1304576)
I1130 17:13:21.784209 14872 net.cpp:137] Memory required for data: 1692737664
I1130 17:13:21.784214 14872 layer_factory.hpp:77] Creating layer inception_5a/1x1
I1130 17:13:21.784224 14872 net.cpp:84] Creating Layer inception_5a/1x1
I1130 17:13:21.784229 14872 net.cpp:406] inception_5a/1x1 <- pool4/3x3_s2_pool4/3x3_s2_0_split_0
I1130 17:13:21.784238 14872 net.cpp:380] inception_5a/1x1 -> inception_5a/1x1
I1130 17:13:21.786310 14872 net.cpp:122] Setting up inception_5a/1x1
I1130 17:13:21.786324 14872 net.cpp:129] Top shape: 32 256 7 7 (401408)
I1130 17:13:21.786329 14872 net.cpp:137] Memory required for data: 1694343296
I1130 17:13:21.786337 14872 layer_factory.hpp:77] Creating layer inception_5a/relu_1x1
I1130 17:13:21.786345 14872 net.cpp:84] Creating Layer inception_5a/relu_1x1
I1130 17:13:21.786350 14872 net.cpp:406] inception_5a/relu_1x1 <- inception_5a/1x1
I1130 17:13:21.786358 14872 net.cpp:367] inception_5a/relu_1x1 -> inception_5a/1x1 (in-place)
I1130 17:13:21.786366 14872 net.cpp:122] Setting up inception_5a/relu_1x1
I1130 17:13:21.786372 14872 net.cpp:129] Top shape: 32 256 7 7 (401408)
I1130 17:13:21.786378 14872 net.cpp:137] Memory required for data: 1695948928
I1130 17:13:21.786382 14872 layer_factory.hpp:77] Creating layer inception_5a/3x3_reduce
I1130 17:13:21.786394 14872 net.cpp:84] Creating Layer inception_5a/3x3_reduce
I1130 17:13:21.786401 14872 net.cpp:406] inception_5a/3x3_reduce <- pool4/3x3_s2_pool4/3x3_s2_0_split_1
I1130 17:13:21.786411 14872 net.cpp:380] inception_5a/3x3_reduce -> inception_5a/3x3_reduce
I1130 17:13:21.787923 14872 net.cpp:122] Setting up inception_5a/3x3_reduce
I1130 17:13:21.787937 14872 net.cpp:129] Top shape: 32 160 7 7 (250880)
I1130 17:13:21.787941 14872 net.cpp:137] Memory required for data: 1696952448
I1130 17:13:21.787950 14872 layer_factory.hpp:77] Creating layer inception_5a/relu_3x3_reduce
I1130 17:13:21.787958 14872 net.cpp:84] Creating Layer inception_5a/relu_3x3_reduce
I1130 17:13:21.787964 14872 net.cpp:406] inception_5a/relu_3x3_reduce <- inception_5a/3x3_reduce
I1130 17:13:21.787972 14872 net.cpp:367] inception_5a/relu_3x3_reduce -> inception_5a/3x3_reduce (in-place)
I1130 17:13:21.787982 14872 net.cpp:122] Setting up inception_5a/relu_3x3_reduce
I1130 17:13:21.787989 14872 net.cpp:129] Top shape: 32 160 7 7 (250880)
I1130 17:13:21.787994 14872 net.cpp:137] Memory required for data: 1697955968
I1130 17:13:21.787998 14872 layer_factory.hpp:77] Creating layer inception_5a/3x3
I1130 17:13:21.788012 14872 net.cpp:84] Creating Layer inception_5a/3x3
I1130 17:13:21.788017 14872 net.cpp:406] inception_5a/3x3 <- inception_5a/3x3_reduce
I1130 17:13:21.788025 14872 net.cpp:380] inception_5a/3x3 -> inception_5a/3x3
I1130 17:13:21.791864 14872 net.cpp:122] Setting up inception_5a/3x3
I1130 17:13:21.791877 14872 net.cpp:129] Top shape: 32 320 7 7 (501760)
I1130 17:13:21.791882 14872 net.cpp:137] Memory required for data: 1699963008
I1130 17:13:21.791891 14872 layer_factory.hpp:77] Creating layer inception_5a/relu_3x3
I1130 17:13:21.791899 14872 net.cpp:84] Creating Layer inception_5a/relu_3x3
I1130 17:13:21.791906 14872 net.cpp:406] inception_5a/relu_3x3 <- inception_5a/3x3
I1130 17:13:21.791913 14872 net.cpp:367] inception_5a/relu_3x3 -> inception_5a/3x3 (in-place)
I1130 17:13:21.791923 14872 net.cpp:122] Setting up inception_5a/relu_3x3
I1130 17:13:21.791929 14872 net.cpp:129] Top shape: 32 320 7 7 (501760)
I1130 17:13:21.791934 14872 net.cpp:137] Memory required for data: 1701970048
I1130 17:13:21.791937 14872 layer_factory.hpp:77] Creating layer inception_5a/5x5_reduce
I1130 17:13:21.791949 14872 net.cpp:84] Creating Layer inception_5a/5x5_reduce
I1130 17:13:21.791955 14872 net.cpp:406] inception_5a/5x5_reduce <- pool4/3x3_s2_pool4/3x3_s2_0_split_2
I1130 17:13:21.791966 14872 net.cpp:380] inception_5a/5x5_reduce -> inception_5a/5x5_reduce
I1130 17:13:21.794080 14872 net.cpp:122] Setting up inception_5a/5x5_reduce
I1130 17:13:21.794097 14872 net.cpp:129] Top shape: 32 32 7 7 (50176)
I1130 17:13:21.794101 14872 net.cpp:137] Memory required for data: 1702170752
I1130 17:13:21.794111 14872 layer_factory.hpp:77] Creating layer inception_5a/relu_5x5_reduce
I1130 17:13:21.794121 14872 net.cpp:84] Creating Layer inception_5a/relu_5x5_reduce
I1130 17:13:21.794126 14872 net.cpp:406] inception_5a/relu_5x5_reduce <- inception_5a/5x5_reduce
I1130 17:13:21.794134 14872 net.cpp:367] inception_5a/relu_5x5_reduce -> inception_5a/5x5_reduce (in-place)
I1130 17:13:21.794144 14872 net.cpp:122] Setting up inception_5a/relu_5x5_reduce
I1130 17:13:21.794152 14872 net.cpp:129] Top shape: 32 32 7 7 (50176)
I1130 17:13:21.794157 14872 net.cpp:137] Memory required for data: 1702371456
I1130 17:13:21.794160 14872 layer_factory.hpp:77] Creating layer inception_5a/5x5
I1130 17:13:21.794173 14872 net.cpp:84] Creating Layer inception_5a/5x5
I1130 17:13:21.794178 14872 net.cpp:406] inception_5a/5x5 <- inception_5a/5x5_reduce
I1130 17:13:21.794188 14872 net.cpp:380] inception_5a/5x5 -> inception_5a/5x5
I1130 17:13:21.795074 14872 net.cpp:122] Setting up inception_5a/5x5
I1130 17:13:21.795085 14872 net.cpp:129] Top shape: 32 128 7 7 (200704)
I1130 17:13:21.795091 14872 net.cpp:137] Memory required for data: 1703174272
I1130 17:13:21.795099 14872 layer_factory.hpp:77] Creating layer inception_5a/relu_5x5
I1130 17:13:21.795125 14872 net.cpp:84] Creating Layer inception_5a/relu_5x5
I1130 17:13:21.795131 14872 net.cpp:406] inception_5a/relu_5x5 <- inception_5a/5x5
I1130 17:13:21.795137 14872 net.cpp:367] inception_5a/relu_5x5 -> inception_5a/5x5 (in-place)
I1130 17:13:21.795145 14872 net.cpp:122] Setting up inception_5a/relu_5x5
I1130 17:13:21.795152 14872 net.cpp:129] Top shape: 32 128 7 7 (200704)
I1130 17:13:21.795157 14872 net.cpp:137] Memory required for data: 1703977088
I1130 17:13:21.795163 14872 layer_factory.hpp:77] Creating layer inception_5a/pool
I1130 17:13:21.795173 14872 net.cpp:84] Creating Layer inception_5a/pool
I1130 17:13:21.795179 14872 net.cpp:406] inception_5a/pool <- pool4/3x3_s2_pool4/3x3_s2_0_split_3
I1130 17:13:21.795186 14872 net.cpp:380] inception_5a/pool -> inception_5a/pool
I1130 17:13:21.795228 14872 net.cpp:122] Setting up inception_5a/pool
I1130 17:13:21.795238 14872 net.cpp:129] Top shape: 32 832 7 7 (1304576)
I1130 17:13:21.795243 14872 net.cpp:137] Memory required for data: 1709195392
I1130 17:13:21.795248 14872 layer_factory.hpp:77] Creating layer inception_5a/pool_proj
I1130 17:13:21.795258 14872 net.cpp:84] Creating Layer inception_5a/pool_proj
I1130 17:13:21.795265 14872 net.cpp:406] inception_5a/pool_proj <- inception_5a/pool
I1130 17:13:21.795274 14872 net.cpp:380] inception_5a/pool_proj -> inception_5a/pool_proj
I1130 17:13:21.796577 14872 net.cpp:122] Setting up inception_5a/pool_proj
I1130 17:13:21.796589 14872 net.cpp:129] Top shape: 32 128 7 7 (200704)
I1130 17:13:21.796596 14872 net.cpp:137] Memory required for data: 1709998208
I1130 17:13:21.796603 14872 layer_factory.hpp:77] Creating layer inception_5a/relu_pool_proj
I1130 17:13:21.796612 14872 net.cpp:84] Creating Layer inception_5a/relu_pool_proj
I1130 17:13:21.796618 14872 net.cpp:406] inception_5a/relu_pool_proj <- inception_5a/pool_proj
I1130 17:13:21.796627 14872 net.cpp:367] inception_5a/relu_pool_proj -> inception_5a/pool_proj (in-place)
I1130 17:13:21.796635 14872 net.cpp:122] Setting up inception_5a/relu_pool_proj
I1130 17:13:21.796643 14872 net.cpp:129] Top shape: 32 128 7 7 (200704)
I1130 17:13:21.796645 14872 net.cpp:137] Memory required for data: 1710801024
I1130 17:13:21.796650 14872 layer_factory.hpp:77] Creating layer inception_5a/output
I1130 17:13:21.796658 14872 net.cpp:84] Creating Layer inception_5a/output
I1130 17:13:21.796665 14872 net.cpp:406] inception_5a/output <- inception_5a/1x1
I1130 17:13:21.796671 14872 net.cpp:406] inception_5a/output <- inception_5a/3x3
I1130 17:13:21.796677 14872 net.cpp:406] inception_5a/output <- inception_5a/5x5
I1130 17:13:21.796684 14872 net.cpp:406] inception_5a/output <- inception_5a/pool_proj
I1130 17:13:21.796690 14872 net.cpp:380] inception_5a/output -> inception_5a/output
I1130 17:13:21.796718 14872 net.cpp:122] Setting up inception_5a/output
I1130 17:13:21.796726 14872 net.cpp:129] Top shape: 32 832 7 7 (1304576)
I1130 17:13:21.796731 14872 net.cpp:137] Memory required for data: 1716019328
I1130 17:13:21.796736 14872 layer_factory.hpp:77] Creating layer inception_5a/output_inception_5a/output_0_split
I1130 17:13:21.796743 14872 net.cpp:84] Creating Layer inception_5a/output_inception_5a/output_0_split
I1130 17:13:21.796749 14872 net.cpp:406] inception_5a/output_inception_5a/output_0_split <- inception_5a/output
I1130 17:13:21.796757 14872 net.cpp:380] inception_5a/output_inception_5a/output_0_split -> inception_5a/output_inception_5a/output_0_split_0
I1130 17:13:21.796766 14872 net.cpp:380] inception_5a/output_inception_5a/output_0_split -> inception_5a/output_inception_5a/output_0_split_1
I1130 17:13:21.796774 14872 net.cpp:380] inception_5a/output_inception_5a/output_0_split -> inception_5a/output_inception_5a/output_0_split_2
I1130 17:13:21.796782 14872 net.cpp:380] inception_5a/output_inception_5a/output_0_split -> inception_5a/output_inception_5a/output_0_split_3
I1130 17:13:21.796841 14872 net.cpp:122] Setting up inception_5a/output_inception_5a/output_0_split
I1130 17:13:21.796849 14872 net.cpp:129] Top shape: 32 832 7 7 (1304576)
I1130 17:13:21.796855 14872 net.cpp:129] Top shape: 32 832 7 7 (1304576)
I1130 17:13:21.796861 14872 net.cpp:129] Top shape: 32 832 7 7 (1304576)
I1130 17:13:21.796866 14872 net.cpp:129] Top shape: 32 832 7 7 (1304576)
I1130 17:13:21.796871 14872 net.cpp:137] Memory required for data: 1736892544
I1130 17:13:21.796876 14872 layer_factory.hpp:77] Creating layer inception_5b/1x1
I1130 17:13:21.796887 14872 net.cpp:84] Creating Layer inception_5b/1x1
I1130 17:13:21.796893 14872 net.cpp:406] inception_5b/1x1 <- inception_5a/output_inception_5a/output_0_split_0
I1130 17:13:21.796900 14872 net.cpp:380] inception_5b/1x1 -> inception_5b/1x1
I1130 17:13:21.799563 14872 net.cpp:122] Setting up inception_5b/1x1
I1130 17:13:21.799576 14872 net.cpp:129] Top shape: 32 384 7 7 (602112)
I1130 17:13:21.799582 14872 net.cpp:137] Memory required for data: 1739300992
I1130 17:13:21.799590 14872 layer_factory.hpp:77] Creating layer inception_5b/relu_1x1
I1130 17:13:21.799599 14872 net.cpp:84] Creating Layer inception_5b/relu_1x1
I1130 17:13:21.799605 14872 net.cpp:406] inception_5b/relu_1x1 <- inception_5b/1x1
I1130 17:13:21.799613 14872 net.cpp:367] inception_5b/relu_1x1 -> inception_5b/1x1 (in-place)
I1130 17:13:21.799623 14872 net.cpp:122] Setting up inception_5b/relu_1x1
I1130 17:13:21.799629 14872 net.cpp:129] Top shape: 32 384 7 7 (602112)
I1130 17:13:21.799633 14872 net.cpp:137] Memory required for data: 1741709440
I1130 17:13:21.799638 14872 layer_factory.hpp:77] Creating layer inception_5b/3x3_reduce
I1130 17:13:21.799649 14872 net.cpp:84] Creating Layer inception_5b/3x3_reduce
I1130 17:13:21.799655 14872 net.cpp:406] inception_5b/3x3_reduce <- inception_5a/output_inception_5a/output_0_split_1
I1130 17:13:21.799664 14872 net.cpp:380] inception_5b/3x3_reduce -> inception_5b/3x3_reduce
I1130 17:13:21.801266 14872 net.cpp:122] Setting up inception_5b/3x3_reduce
I1130 17:13:21.801278 14872 net.cpp:129] Top shape: 32 192 7 7 (301056)
I1130 17:13:21.801285 14872 net.cpp:137] Memory required for data: 1742913664
I1130 17:13:21.801292 14872 layer_factory.hpp:77] Creating layer inception_5b/relu_3x3_reduce
I1130 17:13:21.801301 14872 net.cpp:84] Creating Layer inception_5b/relu_3x3_reduce
I1130 17:13:21.801307 14872 net.cpp:406] inception_5b/relu_3x3_reduce <- inception_5b/3x3_reduce
I1130 17:13:21.801316 14872 net.cpp:367] inception_5b/relu_3x3_reduce -> inception_5b/3x3_reduce (in-place)
I1130 17:13:21.801323 14872 net.cpp:122] Setting up inception_5b/relu_3x3_reduce
I1130 17:13:21.801331 14872 net.cpp:129] Top shape: 32 192 7 7 (301056)
I1130 17:13:21.801336 14872 net.cpp:137] Memory required for data: 1744117888
I1130 17:13:21.801339 14872 layer_factory.hpp:77] Creating layer inception_5b/3x3
I1130 17:13:21.801350 14872 net.cpp:84] Creating Layer inception_5b/3x3
I1130 17:13:21.801357 14872 net.cpp:406] inception_5b/3x3 <- inception_5b/3x3_reduce
I1130 17:13:21.801364 14872 net.cpp:380] inception_5b/3x3 -> inception_5b/3x3
I1130 17:13:21.806397 14872 net.cpp:122] Setting up inception_5b/3x3
I1130 17:13:21.806418 14872 net.cpp:129] Top shape: 32 384 7 7 (602112)
I1130 17:13:21.806422 14872 net.cpp:137] Memory required for data: 1746526336
I1130 17:13:21.806432 14872 layer_factory.hpp:77] Creating layer inception_5b/relu_3x3
I1130 17:13:21.806440 14872 net.cpp:84] Creating Layer inception_5b/relu_3x3
I1130 17:13:21.806448 14872 net.cpp:406] inception_5b/relu_3x3 <- inception_5b/3x3
I1130 17:13:21.806458 14872 net.cpp:367] inception_5b/relu_3x3 -> inception_5b/3x3 (in-place)
I1130 17:13:21.806468 14872 net.cpp:122] Setting up inception_5b/relu_3x3
I1130 17:13:21.806474 14872 net.cpp:129] Top shape: 32 384 7 7 (602112)
I1130 17:13:21.806479 14872 net.cpp:137] Memory required for data: 1748934784
I1130 17:13:21.806484 14872 layer_factory.hpp:77] Creating layer inception_5b/5x5_reduce
I1130 17:13:21.806496 14872 net.cpp:84] Creating Layer inception_5b/5x5_reduce
I1130 17:13:21.806502 14872 net.cpp:406] inception_5b/5x5_reduce <- inception_5a/output_inception_5a/output_0_split_2
I1130 17:13:21.806509 14872 net.cpp:380] inception_5b/5x5_reduce -> inception_5b/5x5_reduce
I1130 17:13:21.806989 14872 net.cpp:122] Setting up inception_5b/5x5_reduce
I1130 17:13:21.806999 14872 net.cpp:129] Top shape: 32 48 7 7 (75264)
I1130 17:13:21.807004 14872 net.cpp:137] Memory required for data: 1749235840
I1130 17:13:21.807010 14872 layer_factory.hpp:77] Creating layer inception_5b/relu_5x5_reduce
I1130 17:13:21.807029 14872 net.cpp:84] Creating Layer inception_5b/relu_5x5_reduce
I1130 17:13:21.807035 14872 net.cpp:406] inception_5b/relu_5x5_reduce <- inception_5b/5x5_reduce
I1130 17:13:21.807044 14872 net.cpp:367] inception_5b/relu_5x5_reduce -> inception_5b/5x5_reduce (in-place)
I1130 17:13:21.807052 14872 net.cpp:122] Setting up inception_5b/relu_5x5_reduce
I1130 17:13:21.807060 14872 net.cpp:129] Top shape: 32 48 7 7 (75264)
I1130 17:13:21.807063 14872 net.cpp:137] Memory required for data: 1749536896
I1130 17:13:21.807068 14872 layer_factory.hpp:77] Creating layer inception_5b/5x5
I1130 17:13:21.807078 14872 net.cpp:84] Creating Layer inception_5b/5x5
I1130 17:13:21.807085 14872 net.cpp:406] inception_5b/5x5 <- inception_5b/5x5_reduce
I1130 17:13:21.807090 14872 net.cpp:380] inception_5b/5x5 -> inception_5b/5x5
I1130 17:13:21.808259 14872 net.cpp:122] Setting up inception_5b/5x5
I1130 17:13:21.808269 14872 net.cpp:129] Top shape: 32 128 7 7 (200704)
I1130 17:13:21.808274 14872 net.cpp:137] Memory required for data: 1750339712
I1130 17:13:21.808280 14872 layer_factory.hpp:77] Creating layer inception_5b/relu_5x5
I1130 17:13:21.808288 14872 net.cpp:84] Creating Layer inception_5b/relu_5x5
I1130 17:13:21.808295 14872 net.cpp:406] inception_5b/relu_5x5 <- inception_5b/5x5
I1130 17:13:21.808300 14872 net.cpp:367] inception_5b/relu_5x5 -> inception_5b/5x5 (in-place)
I1130 17:13:21.808308 14872 net.cpp:122] Setting up inception_5b/relu_5x5
I1130 17:13:21.808315 14872 net.cpp:129] Top shape: 32 128 7 7 (200704)
I1130 17:13:21.808320 14872 net.cpp:137] Memory required for data: 1751142528
I1130 17:13:21.808326 14872 layer_factory.hpp:77] Creating layer inception_5b/pool
I1130 17:13:21.808333 14872 net.cpp:84] Creating Layer inception_5b/pool
I1130 17:13:21.808339 14872 net.cpp:406] inception_5b/pool <- inception_5a/output_inception_5a/output_0_split_3
I1130 17:13:21.808346 14872 net.cpp:380] inception_5b/pool -> inception_5b/pool
I1130 17:13:21.808390 14872 net.cpp:122] Setting up inception_5b/pool
I1130 17:13:21.808399 14872 net.cpp:129] Top shape: 32 832 7 7 (1304576)
I1130 17:13:21.808404 14872 net.cpp:137] Memory required for data: 1756360832
I1130 17:13:21.808409 14872 layer_factory.hpp:77] Creating layer inception_5b/pool_proj
I1130 17:13:21.808420 14872 net.cpp:84] Creating Layer inception_5b/pool_proj
I1130 17:13:21.808426 14872 net.cpp:406] inception_5b/pool_proj <- inception_5b/pool
I1130 17:13:21.808434 14872 net.cpp:380] inception_5b/pool_proj -> inception_5b/pool_proj
I1130 17:13:21.809722 14872 net.cpp:122] Setting up inception_5b/pool_proj
I1130 17:13:21.809733 14872 net.cpp:129] Top shape: 32 128 7 7 (200704)
I1130 17:13:21.809738 14872 net.cpp:137] Memory required for data: 1757163648
I1130 17:13:21.809746 14872 layer_factory.hpp:77] Creating layer inception_5b/relu_pool_proj
I1130 17:13:21.809754 14872 net.cpp:84] Creating Layer inception_5b/relu_pool_proj
I1130 17:13:21.809762 14872 net.cpp:406] inception_5b/relu_pool_proj <- inception_5b/pool_proj
I1130 17:13:21.809769 14872 net.cpp:367] inception_5b/relu_pool_proj -> inception_5b/pool_proj (in-place)
I1130 17:13:21.809778 14872 net.cpp:122] Setting up inception_5b/relu_pool_proj
I1130 17:13:21.809784 14872 net.cpp:129] Top shape: 32 128 7 7 (200704)
I1130 17:13:21.809789 14872 net.cpp:137] Memory required for data: 1757966464
I1130 17:13:21.809794 14872 layer_factory.hpp:77] Creating layer inception_5b/output
I1130 17:13:21.809803 14872 net.cpp:84] Creating Layer inception_5b/output
I1130 17:13:21.809808 14872 net.cpp:406] inception_5b/output <- inception_5b/1x1
I1130 17:13:21.809813 14872 net.cpp:406] inception_5b/output <- inception_5b/3x3
I1130 17:13:21.809819 14872 net.cpp:406] inception_5b/output <- inception_5b/5x5
I1130 17:13:21.809825 14872 net.cpp:406] inception_5b/output <- inception_5b/pool_proj
I1130 17:13:21.809834 14872 net.cpp:380] inception_5b/output -> inception_5b/output
I1130 17:13:21.809860 14872 net.cpp:122] Setting up inception_5b/output
I1130 17:13:21.809868 14872 net.cpp:129] Top shape: 32 1024 7 7 (1605632)
I1130 17:13:21.809873 14872 net.cpp:137] Memory required for data: 1764388992
I1130 17:13:21.809877 14872 layer_factory.hpp:77] Creating layer pool5/7x7_s1
I1130 17:13:21.809885 14872 net.cpp:84] Creating Layer pool5/7x7_s1
I1130 17:13:21.809891 14872 net.cpp:406] pool5/7x7_s1 <- inception_5b/output
I1130 17:13:21.809900 14872 net.cpp:380] pool5/7x7_s1 -> pool5/7x7_s1
I1130 17:13:21.809926 14872 net.cpp:122] Setting up pool5/7x7_s1
I1130 17:13:21.809936 14872 net.cpp:129] Top shape: 32 1024 1 1 (32768)
I1130 17:13:21.809940 14872 net.cpp:137] Memory required for data: 1764520064
I1130 17:13:21.809945 14872 layer_factory.hpp:77] Creating layer pool5/drop_7x7_s1
I1130 17:13:21.809957 14872 net.cpp:84] Creating Layer pool5/drop_7x7_s1
I1130 17:13:21.809962 14872 net.cpp:406] pool5/drop_7x7_s1 <- pool5/7x7_s1
I1130 17:13:21.809969 14872 net.cpp:367] pool5/drop_7x7_s1 -> pool5/7x7_s1 (in-place)
I1130 17:13:21.809998 14872 net.cpp:122] Setting up pool5/drop_7x7_s1
I1130 17:13:21.810006 14872 net.cpp:129] Top shape: 32 1024 1 1 (32768)
I1130 17:13:21.810011 14872 net.cpp:137] Memory required for data: 1764651136
I1130 17:13:21.810016 14872 layer_factory.hpp:77] Creating layer fc_scv_dangerous
I1130 17:13:21.810027 14872 net.cpp:84] Creating Layer fc_scv_dangerous
I1130 17:13:21.810032 14872 net.cpp:406] fc_scv_dangerous <- pool5/7x7_s1
I1130 17:13:21.810040 14872 net.cpp:380] fc_scv_dangerous -> fc_scv_dangerous
I1130 17:13:21.810150 14872 net.cpp:122] Setting up fc_scv_dangerous
I1130 17:13:21.810160 14872 net.cpp:129] Top shape: 32 1 (32)
I1130 17:13:21.810165 14872 net.cpp:137] Memory required for data: 1764651264
I1130 17:13:21.810173 14872 layer_factory.hpp:77] Creating layer loss
I1130 17:13:21.810180 14872 net.cpp:84] Creating Layer loss
I1130 17:13:21.810184 14872 net.cpp:406] loss <- fc_scv_dangerous
I1130 17:13:21.810191 14872 net.cpp:406] loss <- label
I1130 17:13:21.810201 14872 net.cpp:380] loss -> loss
I1130 17:13:21.810243 14872 net.cpp:122] Setting up loss
…
I1130 17:13:21.823587 14872 net.cpp:294] The NetState phase (1) differed from the phase (0) specified by a rule in layer data
I1130 17:13:21.824403 14872 net.cpp:51] Initializing net from parameters: 
name: "GoogleNet-Places365-SCV-Dangerous"
state {
  phase: TEST
}
layer {
  name: "data"
  type: "Data"
  top: "data"
  top: "label"
  include {
    phase: TEST
  }
  transform_param {
    mirror: false
    crop_size: 224
    mean_file: "/idiap/temp/lmedina/fine-tuning/googlenet_places365/places365CNN_mean.binaryproto"
  }
  data_param {
    source: "/idiap/temp/lmedina/fine-tuning/data/Dangerous/validation_lmdb"
    batch_size: 32
    backend: LMDB
  }
}
layer {
  name: "conv1/7x7_s2"
  type: "Convolution"
  bottom: "data"
  top: "conv1/7x7_s2"
  param {
    lr_mult: 1
    decay_mult: 1
  }
  param {
    lr_mult: 2
    decay_mult: 0
  }
  convolution_param {
    num_output: 64
    pad: 3
    kernel_size: 7
    stride: 2
    weight_filler {
      type: "xavier"
      std: 0.1
    }
    bias_filler {
      type: "constant"
      value: 0.2
    }
  }
}
layer {
  name: "conv1/relu_7x7"
  type: "ReLU"
  bottom: "conv1/7x7_s2"
  top: "conv1/7x7_s2"
}
layer {
  name: "pool1/3x3_s2"
  type: "Pooling"
  bottom: "conv1/7x7_s2"
  top: "pool1/3x3_s2"
  pooling_param {
    pool: MAX
    kernel_size: 3
    stride: 2
  }
}
layer {
  name: "pool1/norm1"
  type: "LRN"
  bottom: "pool1/3x3_s2"
  top: "pool1/norm1"
  lrn_param {
    local_size: 5
    alpha: 0.0001
    beta: 0.75
  }
}
layer {
  name: "conv2/3x3_reduce"
  type: "Convolution"
  bottom: "pool1/norm1"
  top: "conv2/3x3_reduce"
  param {
    lr_mult: 1
    decay_mult: 1
  }
  param {
    lr_mult: 2
    decay_mult: 0
  }
  convolution_param {
    num_output: 64
    kernel_size: 1
    weight_filler {
      type: "xavier"
      std: 0.1
    }
    bias_filler {
      type: "constant"
      value: 0.2
    }
  }
}
layer {
  name: "conv2/relu_3x3_reduce"
  type: "ReLU"
  bottom: "conv2/3x3_reduce"
  top: "conv2/3x3_reduce"
}
layer {
  name: "conv2/3x3"
  type: "Convolution"
  bottom: "conv2/3x3_reduce"
  top: "conv2/3x3"
  param {
    lr_mult: 1
    decay_mult: 1
  }
  param {
    lr_mult: 2
    decay_mult: 0
  }
  convolution_param {
    num_output: 192
    pad: 1
    kernel_size: 3
    weight_filler {
      type: "xavier"
      std: 0.03
    }
    bias_filler {
      type: "constant"
      value: 0.2
    }
  }
}
layer {
  name: "conv2/relu_3x3"
  type: "ReLU"
  bottom: "conv2/3x3"
  top: "conv2/3x3"
}
layer {
  name: "conv2/norm2"
  type: "LRN"
  bottom: "conv2/3x3"
  top: "conv2/norm2"
  lrn_param {
    local_size: 5
    alpha: 0.0001
    beta: 0.75
  }
}
layer {
  name: "pool2/3x3_s2"
  type: "Pooling"
  bottom: "conv2/norm2"
  top: "pool2/3x3_s2"
  pooling_param {
    pool: MAX
    kernel_size: 3
    stride: 2
  }
}
layer {
  name: "inception_3a/1x1"
  type: "Convolution"
  bottom: "pool2/3x3_s2"
  top: "inception_3a/1x1"
  param {
    lr_mult: 1
    decay_mult: 1
  }
  param {
    lr_mult: 2
    decay_mult: 0
  }
  convolution_param {
    num_output: 64
    kernel_size: 1
    weight_filler {
      type: "xavier"
      std: 0.03
    }
    bias_filler {
      type: "constant"
      value: 0.2
    }
  }
}
layer {
  name: "inception_3a/relu_1x1"
  type: "ReLU"
  bottom: "inception_3a/1x1"
  top: "inception_3a/1x1"
}
layer {
  name: "inception_3a/3x3_reduce"
  type: "Convolution"
  bottom: "pool2/3x3_s2"
  top: "inception_3a/3x3_reduce"
  param {
    lr_mult: 1
    decay_mult: 1
  }
  param {
    lr_mult: 2
    decay_mult: 0
  }
  convolution_param {
    num_output: 96
    kernel_size: 1
    weight_filler {
      type: "xavier"
      std: 0.09
    }
    bias_filler {
      type: "constant"
      value: 0.2
    }
  }
}
layer {
  name: "inception_3a/relu_3x3_reduce"
  type: "ReLU"
  bottom: "inception_3a/3x3_reduce"
  top: "inception_3a/3x3_reduce"
}
layer {
  name: "inception_3a/3x3"
  type: "Convolution"
  bottom: "inception_3a/3x3_reduce"
  top: "inception_3a/3x3"
  param {
    lr_mult: 1
    decay_mult: 1
  }
  param {
    lr_mult: 2
    decay_mult: 0
  }
  convolution_param {
    num_output: 128
    pad: 1
    kernel_size: 3
    weight_filler {
      type: "xavier"
      std: 0.03
    }
    bias_filler {
      type: "constant"
      value: 0.2
    }
  }
}
layer {
  name: "inception_3a/relu_3x3"
  type: "ReLU"
  bottom: "inception_3a/3x3"
  top: "inception_3a/3x3"
}
layer {
  name: "inception_3a/5x5_reduce"
  type: "Convolution"
  bottom: "pool2/3x3_s2"
  top: "inception_3a/5x5_reduce"
  param {
    lr_mult: 1
    decay_mult: 1
  }
  param {
    lr_mult: 2
    decay_mult: 0
  }
  convolution_param {
    num_output: 16
    kernel_size: 1
    weight_filler {
      type: "xavier"
      std: 0.2
    }
    bias_filler {
      type: "constant"
      value: 0.2
    }
  }
}
layer {
  name: "inception_3a/relu_5x5_reduce"
  type: "ReLU"
  bottom: "inception_3a/5x5_reduce"
  top: "inception_3a/5x5_reduce"
}
layer {
  name: "inception_3a/5x5"
  type: "Convolution"
  bottom: "inception_3a/5x5_reduce"
  top: "inception_3a/5x5"
  param {
    lr_mult: 1
    decay_mult: 1
  }
  param {
    lr_mult: 2
    decay_mult: 0
  }
  convolution_param {
    num_output: 32
    pad: 2
    kernel_size: 5
    weight_filler {
      type: "xavier"
      std: 0.03
    }
    bias_filler {
      type: "constant"
      value: 0.2
    }
  }
}
layer {
  name: "inception_3a/relu_5x5"
  type: "ReLU"
  bottom: "inception_3a/5x5"
  top: "inception_3a/5x5"
}
layer {
  name: "inception_3a/pool"
  type: "Pooling"
  bottom: "pool2/3x3_s2"
  top: "inception_3a/pool"
  pooling_param {
    pool: MAX
    kernel_size: 3
    stride: 1
    pad: 1
  }
}
layer {
  name: "inception_3a/pool_proj"
  type: "Convolution"
  bottom: "inception_3a/pool"
  top: "inception_3a/pool_proj"
  param {
    lr_mult: 1
    decay_mult: 1
  }
  param {
    lr_mult: 2
    decay_mult: 0
  }
  convolution_param {
    num_output: 32
    kernel_size: 1
    weight_filler {
      type: "xavier"
      std: 0.1
    }
    bias_filler {
      type: "constant"
      value: 0.2
    }
  }
}
layer {
  name: "inception_3a/relu_pool_proj"
  type: "ReLU"
  bottom: "inception_3a/pool_proj"
  top: "inception_3a/pool_proj"
}
layer {
  name: "inception_3a/output"
  type: "Concat"
  bottom: "inception_3a/1x1"
  bottom: "inception_3a/3x3"
  bottom: "inception_3a/5x5"
  bottom: "inception_3a/pool_proj"
  top: "inception_3a/output"
}
layer {
  name: "inception_3b/1x1"
  type: "Convolution"
  bottom: "inception_3a/output"
  top: "inception_3b/1x1"
  param {
    lr_mult: 1
    decay_mult: 1
  }
  param {
    lr_mult: 2
    decay_mult: 0
  }
  convolution_param {
    num_output: 128
    kernel_size: 1
    weight_filler {
      type: "xavier"
      std: 0.03
    }
    bias_filler {
      type: "constant"
      value: 0.2
    }
  }
}
layer {
  name: "inception_3b/relu_1x1"
  type: "ReLU"
  bottom: "inception_3b/1x1"
  top: "inception_3b/1x1"
}
layer {
  name: "inception_3b/3x3_reduce"
  type: "Convolution"
  bottom: "inception_3a/output"
  top: "inception_3b/3x3_reduce"
  param {
    lr_mult: 1
    decay_mult: 1
  }
  param {
    lr_mult: 2
    decay_mult: 0
  }
  convolution_param {
    num_output: 128
    kernel_size: 1
    weight_filler {
      type: "xavier"
      std: 0.09
    }
    bias_filler {
      type: "constant"
      value: 0.2
    }
  }
}
layer {
  name: "inception_3b/relu_3x3_reduce"
  type: "ReLU"
  bottom: "inception_3b/3x3_reduce"
  top: "inception_3b/3x3_reduce"
}
layer {
  name: "inception_3b/3x3"
  type: "Convolution"
  bottom: "inception_3b/3x3_reduce"
  top: "inception_3b/3x3"
  param {
    lr_mult: 1
    decay_mult: 1
  }
  param {
    lr_mult: 2
    decay_mult: 0
  }
  convolution_param {
    num_output: 192
    pad: 1
    kernel_size: 3
    weight_filler {
      type: "xavier"
      std: 0.03
    }
    bias_filler {
      type: "constant"
      value: 0.2
    }
  }
}
layer {
  name: "inception_3b/relu_3x3"
  type: "ReLU"
  bottom: "inception_3b/3x3"
  top: "inception_3b/3x3"
}
layer {
  name: "inception_3b/5x5_reduce"
  type: "Convolution"
  bottom: "inception_3a/output"
  top: "inception_3b/5x5_reduce"
  param {
    lr_mult: 1
    decay_mult: 1
  }
  param {
    lr_mult: 2
    decay_mult: 0
  }
  convolution_param {
    num_output: 32
    kernel_size: 1
    weight_filler {
      type: "xavier"
      std: 0.2
    }
    bias_filler {
      type: "constant"
      value: 0.2
    }
  }
}
layer {
  name: "inception_3b/relu_5x5_reduce"
  type: "ReLU"
  bottom: "inception_3b/5x5_reduce"
  top: "inception_3b/5x5_reduce"
}
layer {
  name: "inception_3b/5x5"
  type: "Convolution"
  bottom: "inception_3b/5x5_reduce"
  top: "inception_3b/5x5"
  param {
    lr_mult: 1
    decay_mult: 1
  }
  param {
    lr_mult: 2
    decay_mult: 0
  }
  convolution_param {
    num_output: 96
    pad: 2
    kernel_size: 5
    weight_filler {
      type: "xavier"
      std: 0.03
    }
    bias_filler {
      type: "constant"
      value: 0.2
    }
  }
}
layer {
  name: "inception_3b/relu_5x5"
  type: "ReLU"
  bottom: "inception_3b/5x5"
  top: "inception_3b/5x5"
}
layer {
  name: "inception_3b/pool"
  type: "Pooling"
  bottom: "inception_3a/output"
  top: "inception_3b/pool"
  pooling_param {
    pool: MAX
    kernel_size: 3
    stride: 1
    pad: 1
  }
}
layer {
  name: "inception_3b/pool_proj"
  type: "Convolution"
  bottom: "inception_3b/pool"
  top: "inception_3b/pool_proj"
  param {
    lr_mult: 1
    decay_mult: 1
  }
  param {
    lr_mult: 2
    decay_mult: 0
  }
  convolution_param {
    num_output: 64
    kernel_size: 1
    weight_filler {
      type: "xavier"
      std: 0.1
    }
    bias_filler {
      type: "constant"
      value: 0.2
    }
  }
}
layer {
  name: "inception_3b/relu_pool_proj"
  type: "ReLU"
  bottom: "inception_3b/pool_proj"
  top: "inception_3b/pool_proj"
}
layer {
  name: "inception_3b/output"
  type: "Concat"
  bottom: "inception_3b/1x1"
  bottom: "inception_3b/3x3"
  bottom: "inception_3b/5x5"
  bottom: "inception_3b/pool_proj"
  top: "inception_3b/output"
}
layer {
  name: "pool3/3x3_s2"
  type: "Pooling"
  bottom: "inception_3b/output"
  top: "pool3/3x3_s2"
  pooling_param {
    pool: MAX
    kernel_size: 3
    stride: 2
  }
}
layer {
  name: "inception_4a/1x1"
  type: "Convolution"
  bottom: "pool3/3x3_s2"
  top: "inception_4a/1x1"
  param {
    lr_mult: 1
    decay_mult: 1
  }
  param {
    lr_mult: 2
    decay_mult: 0
  }
  convolution_param {
    num_output: 192
    kernel_size: 1
    weight_filler {
      type: "xavier"
      std: 0.03
    }
    bias_filler {
      type: "constant"
      value: 0.2
    }
  }
}
layer {
  name: "inception_4a/relu_1x1"
  type: "ReLU"
  bottom: "inception_4a/1x1"
  top: "inception_4a/1x1"
}
layer {
  name: "inception_4a/3x3_reduce"
  type: "Convolution"
  bottom: "pool3/3x3_s2"
  top: "inception_4a/3x3_reduce"
  param {
    lr_mult: 1
    decay_mult: 1
  }
  param {
    lr_mult: 2
    decay_mult: 0
  }
  convolution_param {
    num_output: 96
    kernel_size: 1
    weight_filler {
      type: "xavier"
      std: 0.09
    }
    bias_filler {
      type: "constant"
      value: 0.2
    }
  }
}
layer {
  name: "inception_4a/relu_3x3_reduce"
  type: "ReLU"
  bottom: "inception_4a/3x3_reduce"
  top: "inception_4a/3x3_reduce"
}
layer {
  name: "inception_4a/3x3"
  type: "Convolution"
  bottom: "inception_4a/3x3_reduce"
  top: "inception_4a/3x3"
  param {
    lr_mult: 1
    decay_mult: 1
  }
  param {
    lr_mult: 2
    decay_mult: 0
  }
  convolution_param {
    num_output: 208
    pad: 1
    kernel_size: 3
    weight_filler {
      type: "xavier"
      std: 0.03
    }
    bias_filler {
      type: "constant"
      value: 0.2
    }
  }
}
layer {
  name: "inception_4a/relu_3x3"
  type: "ReLU"
  bottom: "inception_4a/3x3"
  top: "inception_4a/3x3"
}
layer {
  name: "inception_4a/5x5_reduce"
  type: "Convolution"
  bottom: "pool3/3x3_s2"
  top: "inception_4a/5x5_reduce"
  param {
    lr_mult: 1
    decay_mult: 1
  }
  param {
    lr_mult: 2
    decay_mult: 0
  }
  convolution_param {
    num_output: 16
    kernel_size: 1
    weight_filler {
      type: "xavier"
      std: 0.2
    }
    bias_filler {
      type: "constant"
      value: 0.2
    }
  }
}
layer {
  name: "inception_4a/relu_5x5_reduce"
  type: "ReLU"
  bottom: "inception_4a/5x5_reduce"
  top: "inception_4a/5x5_reduce"
}
layer {
  name: "inception_4a/5x5"
  type: "Convolution"
  bottom: "inception_4a/5x5_reduce"
  top: "inception_4a/5x5"
  param {
    lr_mult: 1
    decay_mult: 1
  }
  param {
    lr_mult: 2
    decay_mult: 0
  }
  convolution_param {
    num_output: 48
    pad: 2
    kernel_size: 5
    weight_filler {
      type: "xavier"
      std: 0.03
    }
    bias_filler {
      type: "constant"
      value: 0.2
    }
  }
}
layer {
  name: "inception_4a/relu_5x5"
  type: "ReLU"
  bottom: "inception_4a/5x5"
  top: "inception_4a/5x5"
}
layer {
  name: "inception_4a/pool"
  type: "Pooling"
  bottom: "pool3/3x3_s2"
  top: "inception_4a/pool"
  pooling_param {
    pool: MAX
    kernel_size: 3
    stride: 1
    pad: 1
  }
}
layer {
  name: "inception_4a/pool_proj"
  type: "Convolution"
  bottom: "inception_4a/pool"
  top: "inception_4a/pool_proj"
  param {
    lr_mult: 1
    decay_mult: 1
  }
  param {
    lr_mult: 2
    decay_mult: 0
  }
  convolution_param {
    num_output: 64
    kernel_size: 1
    weight_filler {
      type: "xavier"
      std: 0.1
    }
    bias_filler {
      type: "constant"
      value: 0.2
    }
  }
}
layer {
  name: "inception_4a/relu_pool_proj"
  type: "ReLU"
  bottom: "inception_4a/pool_proj"
  top: "inception_4a/pool_proj"
}
layer {
  name: "inception_4a/output"
  type: "Concat"
  bottom: "inception_4a/1x1"
  bottom: "inception_4a/3x3"
  bottom: "inception_4a/5x5"
  bottom: "inception_4a/pool_proj"
  top: "inception_4a/output"
}
layer {
  name: "inception_4b/1x1"
  type: "Convolution"
  bottom: "inception_4a/output"
  top: "inception_4b/1x1"
  param {
    lr_mult: 1
    decay_mult: 1
  }
  param {
    lr_mult: 2
    decay_mult: 0
  }
  convolution_param {
    num_output: 160
    kernel_size: 1
    weight_filler {
      type: "xavier"
      std: 0.03
    }
    bias_filler {
      type: "constant"
      value: 0.2
    }
  }
}
layer {
  name: "inception_4b/relu_1x1"
  type: "ReLU"
  bottom: "inception_4b/1x1"
  top: "inception_4b/1x1"
}
layer {
  name: "inception_4b/3x3_reduce"
  type: "Convolution"
  bottom: "inception_4a/output"
  top: "inception_4b/3x3_reduce"
  param {
    lr_mult: 1
    decay_mult: 1
  }
  param {
    lr_mult: 2
    decay_mult: 0
  }
  convolution_param {
    num_output: 112
    kernel_size: 1
    weight_filler {
      type: "xavier"
      std: 0.09
    }
    bias_filler {
      type: "constant"
      value: 0.2
    }
  }
}
layer {
  name: "inception_4b/relu_3x3_reduce"
  type: "ReLU"
  bottom: "inception_4b/3x3_reduce"
  top: "inception_4b/3x3_reduce"
}
layer {
  name: "inception_4b/3x3"
  type: "Convolution"
  bottom: "inception_4b/3x3_reduce"
  top: "inception_4b/3x3"
  param {
    lr_mult: 1
    decay_mult: 1
  }
  param {
    lr_mult: 2
    decay_mult: 0
  }
  convolution_param {
    num_output: 224
    pad: 1
    kernel_size: 3
    weight_filler {
      type: "xavier"
      std: 0.03
    }
    bias_filler {
      type: "constant"
      value: 0.2
    }
  }
}
layer {
  name: "inception_4b/relu_3x3"
  type: "ReLU"
  bottom: "inception_4b/3x3"
  top: "inception_4b/3x3"
}
layer {
  name: "inception_4b/5x5_reduce"
  type: "Convolution"
  bottom: "inception_4a/output"
  top: "inception_4b/5x5_reduce"
  param {
    lr_mult: 1
    decay_mult: 1
  }
  param {
    lr_mult: 2
    decay_mult: 0
  }
  convolution_param {
    num_output: 24
    kernel_size: 1
    weight_filler {
      type: "xavier"
      std: 0.2
    }
    bias_filler {
      type: "constant"
      value: 0.2
    }
  }
}
layer {
  name: "inception_4b/relu_5x5_reduce"
  type: "ReLU"
  bottom: "inception_4b/5x5_reduce"
  top: "inception_4b/5x5_reduce"
}
layer {
  name: "inception_4b/5x5"
  type: "Convolution"
  bottom: "inception_4b/5x5_reduce"
  top: "inception_4b/5x5"
  param {
    lr_mult: 1
    decay_mult: 1
  }
  param {
    lr_mult: 2
    decay_mult: 0
  }
  convolution_param {
    num_output: 64
    pad: 2
    kernel_size: 5
    weight_filler {
      type: "xavier"
      std: 0.03
    }
    bias_filler {
      type: "constant"
      value: 0.2
    }
  }
}
layer {
  name: "inception_4b/relu_5x5"
  type: "ReLU"
  bottom: "inception_4b/5x5"
  top: "inception_4b/5x5"
}
layer {
  name: "inception_4b/pool"
  type: "Pooling"
  bottom: "inception_4a/output"
  top: "inception_4b/pool"
  pooling_param {
    pool: MAX
    kernel_size: 3
    stride: 1
    pad: 1
  }
}
layer {
  name: "inception_4b/pool_proj"
  type: "Convolution"
  bottom: "inception_4b/pool"
  top: "inception_4b/pool_proj"
  param {
    lr_mult: 1
    decay_mult: 1
  }
  param {
    lr_mult: 2
    decay_mult: 0
  }
  convolution_param {
    num_output: 64
    kernel_size: 1
    weight_filler {
      type: "xavier"
      std: 0.1
    }
    bias_filler {
      type: "constant"
      value: 0.2
    }
  }
}
layer {
  name: "inception_4b/relu_pool_proj"
  type: "ReLU"
  bottom: "inception_4b/pool_proj"
  top: "inception_4b/pool_proj"
}
layer {
  name: "inception_4b/output"
  type: "Concat"
  bottom: "inception_4b/1x1"
  bottom: "inception_4b/3x3"
  bottom: "inception_4b/5x5"
  bottom: "inception_4b/pool_proj"
  top: "inception_4b/output"
}
layer {
  name: "inception_4c/1x1"
  type: "Convolution"
  bottom: "inception_4b/output"
  top: "inception_4c/1x1"
  param {
    lr_mult: 1
    decay_mult: 1
  }
  param {
    lr_mult: 2
    decay_mult: 0
  }
  convolution_param {
    num_output: 128
    kernel_size: 1
    weight_filler {
      type: "xavier"
      std: 0.03
    }
    bias_filler {
      type: "constant"
      value: 0.2
    }
  }
}
layer {
  name: "inception_4c/relu_1x1"
  type: "ReLU"
  bottom: "inception_4c/1x1"
  top: "inception_4c/1x1"
}
layer {
  name: "inception_4c/3x3_reduce"
  type: "Convolution"
  bottom: "inception_4b/output"
  top: "inception_4c/3x3_reduce"
  param {
    lr_mult: 1
    decay_mult: 1
  }
  param {
    lr_mult: 2
    decay_mult: 0
  }
  convolution_param {
    num_output: 128
    kernel_size: 1
    weight_filler {
      type: "xavier"
      std: 0.09
    }
    bias_filler {
      type: "constant"
      value: 0.2
    }
  }
}
layer {
  name: "inception_4c/relu_3x3_reduce"
  type: "ReLU"
  bottom: "inception_4c/3x3_reduce"
  top: "inception_4c/3x3_reduce"
}
layer {
  name: "inception_4c/3x3"
  type: "Convolution"
  bottom: "inception_4c/3x3_reduce"
  top: "inception_4c/3x3"
  param {
    lr_mult: 1
    decay_mult: 1
  }
  param {
    lr_mult: 2
    decay_mult: 0
  }
  convolution_param {
    num_output: 256
    pad: 1
    kernel_size: 3
    weight_filler {
      type: "xavier"
      std: 0.03
    }
    bias_filler {
      type: "constant"
      value: 0.2
    }
  }
}
layer {
  name: "inception_4c/relu_3x3"
  type: "ReLU"
  bottom: "inception_4c/3x3"
  top: "inception_4c/3x3"
}
layer {
  name: "inception_4c/5x5_reduce"
  type: "Convolution"
  bottom: "inception_4b/output"
  top: "inception_4c/5x5_reduce"
  param {
    lr_mult: 1
    decay_mult: 1
  }
  param {
    lr_mult: 2
    decay_mult: 0
  }
  convolution_param {
    num_output: 24
    kernel_size: 1
    weight_filler {
      type: "xavier"
      std: 0.2
    }
    bias_filler {
      type: "constant"
      value: 0.2
    }
  }
}
layer {
  name: "inception_4c/relu_5x5_reduce"
  type: "ReLU"
  bottom: "inception_4c/5x5_reduce"
  top: "inception_4c/5x5_reduce"
}
layer {
  name: "inception_4c/5x5"
  type: "Convolution"
  bottom: "inception_4c/5x5_reduce"
  top: "inception_4c/5x5"
  param {
    lr_mult: 1
    decay_mult: 1
  }
  param {
    lr_mult: 2
    decay_mult: 0
  }
  convolution_param {
    num_output: 64
    pad: 2
    kernel_size: 5
    weight_filler {
      type: "xavier"
      std: 0.03
    }
    bias_filler {
      type: "constant"
      value: 0.2
    }
  }
}
layer {
  name: "inception_4c/relu_5x5"
  type: "ReLU"
  bottom: "inception_4c/5x5"
  top: "inception_4c/5x5"
}
layer {
  name: "inception_4c/pool"
  type: "Pooling"
  bottom: "inception_4b/output"
  top: "inception_4c/pool"
  pooling_param {
    pool: MAX
    kernel_size: 3
    stride: 1
    pad: 1
  }
}
layer {
  name: "inception_4c/pool_proj"
  type: "Convolution"
  bottom: "inception_4c/pool"
  top: "inception_4c/pool_proj"
  param {
    lr_mult: 1
    decay_mult: 1
  }
  param {
    lr_mult: 2
    decay_mult: 0
  }
  convolution_param {
    num_output: 64
    kernel_size: 1
    weight_filler {
      type: "xavier"
      std: 0.1
    }
    bias_filler {
      type: "constant"
      value: 0.2
    }
  }
}
layer {
  name: "inception_4c/relu_pool_proj"
  type: "ReLU"
  bottom: "inception_4c/pool_proj"
  top: "inception_4c/pool_proj"
}
layer {
  name: "inception_4c/output"
  type: "Concat"
  bottom: "inception_4c/1x1"
  bottom: "inception_4c/3x3"
  bottom: "inception_4c/5x5"
  bottom: "inception_4c/pool_proj"
  top: "inception_4c/output"
}
layer {
  name: "inception_4d/1x1"
  type: "Convolution"
  bottom: "inception_4c/output"
  top: "inception_4d/1x1"
  param {
    lr_mult: 1
    decay_mult: 1
  }
  param {
    lr_mult: 2
    decay_mult: 0
  }
  convolution_param {
    num_output: 112
    kernel_size: 1
    weight_filler {
      type: "xavier"
      std: 0.03
    }
    bias_filler {
      type: "constant"
      value: 0.2
    }
  }
}
layer {
  name: "inception_4d/relu_1x1"
  type: "ReLU"
  bottom: "inception_4d/1x1"
  top: "inception_4d/1x1"
}
layer {
  name: "inception_4d/3x3_reduce"
  type: "Convolution"
  bottom: "inception_4c/output"
  top: "inception_4d/3x3_reduce"
  param {
    lr_mult: 1
    decay_mult: 1
  }
  param {
    lr_mult: 2
    decay_mult: 0
  }
  convolution_param {
    num_output: 144
    kernel_size: 1
    weight_filler {
      type: "xavier"
      std: 0.09
    }
    bias_filler {
      type: "constant"
      value: 0.2
    }
  }
}
layer {
  name: "inception_4d/relu_3x3_reduce"
  type: "ReLU"
  bottom: "inception_4d/3x3_reduce"
  top: "inception_4d/3x3_reduce"
}
layer {
  name: "inception_4d/3x3"
  type: "Convolution"
  bottom: "inception_4d/3x3_reduce"
  top: "inception_4d/3x3"
  param {
    lr_mult: 1
    decay_mult: 1
  }
  param {
    lr_mult: 2
    decay_mult: 0
  }
  convolution_param {
    num_output: 288
    pad: 1
    kernel_size: 3
    weight_filler {
      type: "xavier"
      std: 0.03
    }
    bias_filler {
      type: "constant"
      value: 0.2
    }
  }
}
layer {
  name: "inception_4d/relu_3x3"
  type: "ReLU"
  bottom: "inception_4d/3x3"
  top: "inception_4d/3x3"
}
layer {
  name: "inception_4d/5x5_reduce"
  type: "Convolution"
  bottom: "inception_4c/output"
  top: "inception_4d/5x5_reduce"
  param {
    lr_mult: 1
    decay_mult: 1
  }
  param {
    lr_mult: 2
    decay_mult: 0
  }
  convolution_param {
    num_output: 32
    kernel_size: 1
    weight_filler {
      type: "xavier"
      std: 0.2
    }
    bias_filler {
      type: "constant"
      value: 0.2
    }
  }
}
layer {
  name: "inception_4d/relu_5x5_reduce"
  type: "ReLU"
  bottom: "inception_4d/5x5_reduce"
  top: "inception_4d/5x5_reduce"
}
layer {
  name: "inception_4d/5x5"
  type: "Convolution"
  bottom: "inception_4d/5x5_reduce"
  top: "inception_4d/5x5"
  param {
    lr_mult: 1
    decay_mult: 1
  }
  param {
    lr_mult: 2
    decay_mult: 0
  }
  convolution_param {
    num_output: 64
    pad: 2
    kernel_size: 5
    weight_filler {
      type: "xavier"
      std: 0.03
    }
    bias_filler {
      type: "constant"
      value: 0.2
    }
  }
}
layer {
  name: "inception_4d/relu_5x5"
  type: "ReLU"
  bottom: "inception_4d/5x5"
  top: "inception_4d/5x5"
}
layer {
  name: "inception_4d/pool"
  type: "Pooling"
  bottom: "inception_4c/output"
  top: "inception_4d/pool"
  pooling_param {
    pool: MAX
    kernel_size: 3
    stride: 1
    pad: 1
  }
}
layer {
  name: "inception_4d/pool_proj"
  type: "Convolution"
  bottom: "inception_4d/pool"
  top: "inception_4d/pool_proj"
  param {
    lr_mult: 1
    decay_mult: 1
  }
  param {
    lr_mult: 2
    decay_mult: 0
  }
  convolution_param {
    num_output: 64
    kernel_size: 1
    weight_filler {
      type: "xavier"
      std: 0.1
    }
    bias_filler {
      type: "constant"
      value: 0.2
    }
  }
}
layer {
  name: "inception_4d/relu_pool_proj"
  type: "ReLU"
  bottom: "inception_4d/pool_proj"
  top: "inception_4d/pool_proj"
}
layer {
  name: "inception_4d/output"
  type: "Concat"
  bottom: "inception_4d/1x1"
  bottom: "inception_4d/3x3"
…
I1130 17:13:21.972146 14872 net.cpp:84] Creating Layer inception_4c/1x1
I1130 17:13:21.972151 14872 net.cpp:406] inception_4c/1x1 <- inception_4b/output_inception_4b/output_0_split_0
I1130 17:13:21.972158 14872 net.cpp:380] inception_4c/1x1 -> inception_4c/1x1
I1130 17:13:21.972714 14872 net.cpp:122] Setting up inception_4c/1x1
I1130 17:13:21.972724 14872 net.cpp:129] Top shape: 32 128 14 14 (802816)
I1130 17:13:21.972729 14872 net.cpp:137] Memory required for data: 1359569280
I1130 17:13:21.972736 14872 layer_factory.hpp:77] Creating layer inception_4c/relu_1x1
I1130 17:13:21.972743 14872 net.cpp:84] Creating Layer inception_4c/relu_1x1
I1130 17:13:21.972748 14872 net.cpp:406] inception_4c/relu_1x1 <- inception_4c/1x1
I1130 17:13:21.972754 14872 net.cpp:367] inception_4c/relu_1x1 -> inception_4c/1x1 (in-place)
I1130 17:13:21.972762 14872 net.cpp:122] Setting up inception_4c/relu_1x1
I1130 17:13:21.972767 14872 net.cpp:129] Top shape: 32 128 14 14 (802816)
I1130 17:13:21.972771 14872 net.cpp:137] Memory required for data: 1362780544
I1130 17:13:21.972775 14872 layer_factory.hpp:77] Creating layer inception_4c/3x3_reduce
I1130 17:13:21.972784 14872 net.cpp:84] Creating Layer inception_4c/3x3_reduce
I1130 17:13:21.972789 14872 net.cpp:406] inception_4c/3x3_reduce <- inception_4b/output_inception_4b/output_0_split_1
I1130 17:13:21.972795 14872 net.cpp:380] inception_4c/3x3_reduce -> inception_4c/3x3_reduce
I1130 17:13:21.973361 14872 net.cpp:122] Setting up inception_4c/3x3_reduce
I1130 17:13:21.973371 14872 net.cpp:129] Top shape: 32 128 14 14 (802816)
I1130 17:13:21.973376 14872 net.cpp:137] Memory required for data: 1365991808
I1130 17:13:21.973382 14872 layer_factory.hpp:77] Creating layer inception_4c/relu_3x3_reduce
I1130 17:13:21.973389 14872 net.cpp:84] Creating Layer inception_4c/relu_3x3_reduce
I1130 17:13:21.973394 14872 net.cpp:406] inception_4c/relu_3x3_reduce <- inception_4c/3x3_reduce
I1130 17:13:21.973400 14872 net.cpp:367] inception_4c/relu_3x3_reduce -> inception_4c/3x3_reduce (in-place)
I1130 17:13:21.973408 14872 net.cpp:122] Setting up inception_4c/relu_3x3_reduce
I1130 17:13:21.973414 14872 net.cpp:129] Top shape: 32 128 14 14 (802816)
I1130 17:13:21.973418 14872 net.cpp:137] Memory required for data: 1369203072
I1130 17:13:21.973423 14872 layer_factory.hpp:77] Creating layer inception_4c/3x3
I1130 17:13:21.973433 14872 net.cpp:84] Creating Layer inception_4c/3x3
I1130 17:13:21.973438 14872 net.cpp:406] inception_4c/3x3 <- inception_4c/3x3_reduce
I1130 17:13:21.973445 14872 net.cpp:380] inception_4c/3x3 -> inception_4c/3x3
I1130 17:13:21.975651 14872 net.cpp:122] Setting up inception_4c/3x3
I1130 17:13:21.975662 14872 net.cpp:129] Top shape: 32 256 14 14 (1605632)
I1130 17:13:21.975666 14872 net.cpp:137] Memory required for data: 1375625600
I1130 17:13:21.975673 14872 layer_factory.hpp:77] Creating layer inception_4c/relu_3x3
I1130 17:13:21.975680 14872 net.cpp:84] Creating Layer inception_4c/relu_3x3
I1130 17:13:21.975685 14872 net.cpp:406] inception_4c/relu_3x3 <- inception_4c/3x3
I1130 17:13:21.975693 14872 net.cpp:367] inception_4c/relu_3x3 -> inception_4c/3x3 (in-place)
I1130 17:13:21.975700 14872 net.cpp:122] Setting up inception_4c/relu_3x3
I1130 17:13:21.975706 14872 net.cpp:129] Top shape: 32 256 14 14 (1605632)
I1130 17:13:21.975711 14872 net.cpp:137] Memory required for data: 1382048128
I1130 17:13:21.975715 14872 layer_factory.hpp:77] Creating layer inception_4c/5x5_reduce
I1130 17:13:21.975724 14872 net.cpp:84] Creating Layer inception_4c/5x5_reduce
I1130 17:13:21.975729 14872 net.cpp:406] inception_4c/5x5_reduce <- inception_4b/output_inception_4b/output_0_split_2
I1130 17:13:21.975735 14872 net.cpp:380] inception_4c/5x5_reduce -> inception_4c/5x5_reduce
I1130 17:13:21.976012 14872 net.cpp:122] Setting up inception_4c/5x5_reduce
I1130 17:13:21.976022 14872 net.cpp:129] Top shape: 32 24 14 14 (150528)
I1130 17:13:21.976027 14872 net.cpp:137] Memory required for data: 1382650240
I1130 17:13:21.976032 14872 layer_factory.hpp:77] Creating layer inception_4c/relu_5x5_reduce
I1130 17:13:21.976039 14872 net.cpp:84] Creating Layer inception_4c/relu_5x5_reduce
I1130 17:13:21.976044 14872 net.cpp:406] inception_4c/relu_5x5_reduce <- inception_4c/5x5_reduce
I1130 17:13:21.976052 14872 net.cpp:367] inception_4c/relu_5x5_reduce -> inception_4c/5x5_reduce (in-place)
I1130 17:13:21.976058 14872 net.cpp:122] Setting up inception_4c/relu_5x5_reduce
I1130 17:13:21.976063 14872 net.cpp:129] Top shape: 32 24 14 14 (150528)
I1130 17:13:21.976068 14872 net.cpp:137] Memory required for data: 1383252352
I1130 17:13:21.976071 14872 layer_factory.hpp:77] Creating layer inception_4c/5x5
I1130 17:13:21.976079 14872 net.cpp:84] Creating Layer inception_4c/5x5
I1130 17:13:21.976084 14872 net.cpp:406] inception_4c/5x5 <- inception_4c/5x5_reduce
I1130 17:13:21.976091 14872 net.cpp:380] inception_4c/5x5 -> inception_4c/5x5
I1130 17:13:21.976511 14872 net.cpp:122] Setting up inception_4c/5x5
I1130 17:13:21.976519 14872 net.cpp:129] Top shape: 32 64 14 14 (401408)
I1130 17:13:21.976522 14872 net.cpp:137] Memory required for data: 1384857984
I1130 17:13:21.976529 14872 layer_factory.hpp:77] Creating layer inception_4c/relu_5x5
I1130 17:13:21.976536 14872 net.cpp:84] Creating Layer inception_4c/relu_5x5
I1130 17:13:21.976541 14872 net.cpp:406] inception_4c/relu_5x5 <- inception_4c/5x5
I1130 17:13:21.976546 14872 net.cpp:367] inception_4c/relu_5x5 -> inception_4c/5x5 (in-place)
I1130 17:13:21.976552 14872 net.cpp:122] Setting up inception_4c/relu_5x5
I1130 17:13:21.976558 14872 net.cpp:129] Top shape: 32 64 14 14 (401408)
I1130 17:13:21.976562 14872 net.cpp:137] Memory required for data: 1386463616
I1130 17:13:21.976567 14872 layer_factory.hpp:77] Creating layer inception_4c/pool
I1130 17:13:21.976573 14872 net.cpp:84] Creating Layer inception_4c/pool
I1130 17:13:21.976578 14872 net.cpp:406] inception_4c/pool <- inception_4b/output_inception_4b/output_0_split_3
I1130 17:13:21.976584 14872 net.cpp:380] inception_4c/pool -> inception_4c/pool
I1130 17:13:21.976619 14872 net.cpp:122] Setting up inception_4c/pool
I1130 17:13:21.976626 14872 net.cpp:129] Top shape: 32 512 14 14 (3211264)
I1130 17:13:21.976630 14872 net.cpp:137] Memory required for data: 1399308672
I1130 17:13:21.976635 14872 layer_factory.hpp:77] Creating layer inception_4c/pool_proj
I1130 17:13:21.976644 14872 net.cpp:84] Creating Layer inception_4c/pool_proj
I1130 17:13:21.976649 14872 net.cpp:406] inception_4c/pool_proj <- inception_4c/pool
I1130 17:13:21.976655 14872 net.cpp:380] inception_4c/pool_proj -> inception_4c/pool_proj
I1130 17:13:21.977044 14872 net.cpp:122] Setting up inception_4c/pool_proj
I1130 17:13:21.977053 14872 net.cpp:129] Top shape: 32 64 14 14 (401408)
I1130 17:13:21.977057 14872 net.cpp:137] Memory required for data: 1400914304
I1130 17:13:21.977072 14872 layer_factory.hpp:77] Creating layer inception_4c/relu_pool_proj
I1130 17:13:21.977078 14872 net.cpp:84] Creating Layer inception_4c/relu_pool_proj
I1130 17:13:21.977083 14872 net.cpp:406] inception_4c/relu_pool_proj <- inception_4c/pool_proj
I1130 17:13:21.977089 14872 net.cpp:367] inception_4c/relu_pool_proj -> inception_4c/pool_proj (in-place)
I1130 17:13:21.977097 14872 net.cpp:122] Setting up inception_4c/relu_pool_proj
I1130 17:13:21.977102 14872 net.cpp:129] Top shape: 32 64 14 14 (401408)
I1130 17:13:21.977107 14872 net.cpp:137] Memory required for data: 1402519936
I1130 17:13:21.977110 14872 layer_factory.hpp:77] Creating layer inception_4c/output
I1130 17:13:21.977116 14872 net.cpp:84] Creating Layer inception_4c/output
I1130 17:13:21.977121 14872 net.cpp:406] inception_4c/output <- inception_4c/1x1
I1130 17:13:21.977126 14872 net.cpp:406] inception_4c/output <- inception_4c/3x3
I1130 17:13:21.977131 14872 net.cpp:406] inception_4c/output <- inception_4c/5x5
I1130 17:13:21.977136 14872 net.cpp:406] inception_4c/output <- inception_4c/pool_proj
I1130 17:13:21.977143 14872 net.cpp:380] inception_4c/output -> inception_4c/output
I1130 17:13:21.977167 14872 net.cpp:122] Setting up inception_4c/output
I1130 17:13:21.977176 14872 net.cpp:129] Top shape: 32 512 14 14 (3211264)
I1130 17:13:21.977181 14872 net.cpp:137] Memory required for data: 1415364992
I1130 17:13:21.977185 14872 layer_factory.hpp:77] Creating layer inception_4c/output_inception_4c/output_0_split
I1130 17:13:21.977191 14872 net.cpp:84] Creating Layer inception_4c/output_inception_4c/output_0_split
I1130 17:13:21.977197 14872 net.cpp:406] inception_4c/output_inception_4c/output_0_split <- inception_4c/output
I1130 17:13:21.977203 14872 net.cpp:380] inception_4c/output_inception_4c/output_0_split -> inception_4c/output_inception_4c/output_0_split_0
I1130 17:13:21.977210 14872 net.cpp:380] inception_4c/output_inception_4c/output_0_split -> inception_4c/output_inception_4c/output_0_split_1
I1130 17:13:21.977217 14872 net.cpp:380] inception_4c/output_inception_4c/output_0_split -> inception_4c/output_inception_4c/output_0_split_2
I1130 17:13:21.977224 14872 net.cpp:380] inception_4c/output_inception_4c/output_0_split -> inception_4c/output_inception_4c/output_0_split_3
I1130 17:13:21.977277 14872 net.cpp:122] Setting up inception_4c/output_inception_4c/output_0_split
I1130 17:13:21.977285 14872 net.cpp:129] Top shape: 32 512 14 14 (3211264)
I1130 17:13:21.977290 14872 net.cpp:129] Top shape: 32 512 14 14 (3211264)
I1130 17:13:21.977298 14872 net.cpp:129] Top shape: 32 512 14 14 (3211264)
I1130 17:13:21.977303 14872 net.cpp:129] Top shape: 32 512 14 14 (3211264)
I1130 17:13:21.977306 14872 net.cpp:137] Memory required for data: 1466745216
I1130 17:13:21.977310 14872 layer_factory.hpp:77] Creating layer inception_4d/1x1
I1130 17:13:21.977319 14872 net.cpp:84] Creating Layer inception_4d/1x1
I1130 17:13:21.977324 14872 net.cpp:406] inception_4d/1x1 <- inception_4c/output_inception_4c/output_0_split_0
I1130 17:13:21.977331 14872 net.cpp:380] inception_4d/1x1 -> inception_4d/1x1
I1130 17:13:21.978176 14872 net.cpp:122] Setting up inception_4d/1x1
I1130 17:13:21.978188 14872 net.cpp:129] Top shape: 32 112 14 14 (702464)
I1130 17:13:21.978193 14872 net.cpp:137] Memory required for data: 1469555072
I1130 17:13:21.978199 14872 layer_factory.hpp:77] Creating layer inception_4d/relu_1x1
I1130 17:13:21.978206 14872 net.cpp:84] Creating Layer inception_4d/relu_1x1
I1130 17:13:21.978211 14872 net.cpp:406] inception_4d/relu_1x1 <- inception_4d/1x1
I1130 17:13:21.978219 14872 net.cpp:367] inception_4d/relu_1x1 -> inception_4d/1x1 (in-place)
I1130 17:13:21.978225 14872 net.cpp:122] Setting up inception_4d/relu_1x1
I1130 17:13:21.978231 14872 net.cpp:129] Top shape: 32 112 14 14 (702464)
I1130 17:13:21.978235 14872 net.cpp:137] Memory required for data: 1472364928
I1130 17:13:21.978240 14872 layer_factory.hpp:77] Creating layer inception_4d/3x3_reduce
I1130 17:13:21.978246 14872 net.cpp:84] Creating Layer inception_4d/3x3_reduce
I1130 17:13:21.978251 14872 net.cpp:406] inception_4d/3x3_reduce <- inception_4c/output_inception_4c/output_0_split_1
I1130 17:13:21.978258 14872 net.cpp:380] inception_4d/3x3_reduce -> inception_4d/3x3_reduce
I1130 17:13:21.978893 14872 net.cpp:122] Setting up inception_4d/3x3_reduce
I1130 17:13:21.978904 14872 net.cpp:129] Top shape: 32 144 14 14 (903168)
I1130 17:13:21.978906 14872 net.cpp:137] Memory required for data: 1475977600
I1130 17:13:21.978914 14872 layer_factory.hpp:77] Creating layer inception_4d/relu_3x3_reduce
I1130 17:13:21.978920 14872 net.cpp:84] Creating Layer inception_4d/relu_3x3_reduce
I1130 17:13:21.978926 14872 net.cpp:406] inception_4d/relu_3x3_reduce <- inception_4d/3x3_reduce
I1130 17:13:21.978931 14872 net.cpp:367] inception_4d/relu_3x3_reduce -> inception_4d/3x3_reduce (in-place)
I1130 17:13:21.978940 14872 net.cpp:122] Setting up inception_4d/relu_3x3_reduce
I1130 17:13:21.978945 14872 net.cpp:129] Top shape: 32 144 14 14 (903168)
I1130 17:13:21.978950 14872 net.cpp:137] Memory required for data: 1479590272
I1130 17:13:21.978953 14872 layer_factory.hpp:77] Creating layer inception_4d/3x3
I1130 17:13:21.978961 14872 net.cpp:84] Creating Layer inception_4d/3x3
I1130 17:13:21.978967 14872 net.cpp:406] inception_4d/3x3 <- inception_4d/3x3_reduce
I1130 17:13:21.978974 14872 net.cpp:380] inception_4d/3x3 -> inception_4d/3x3
I1130 17:13:21.981638 14872 net.cpp:122] Setting up inception_4d/3x3
I1130 17:13:21.981649 14872 net.cpp:129] Top shape: 32 288 14 14 (1806336)
I1130 17:13:21.981652 14872 net.cpp:137] Memory required for data: 1486815616
I1130 17:13:21.981659 14872 layer_factory.hpp:77] Creating layer inception_4d/relu_3x3
I1130 17:13:21.981667 14872 net.cpp:84] Creating Layer inception_4d/relu_3x3
I1130 17:13:21.981673 14872 net.cpp:406] inception_4d/relu_3x3 <- inception_4d/3x3
I1130 17:13:21.981680 14872 net.cpp:367] inception_4d/relu_3x3 -> inception_4d/3x3 (in-place)
I1130 17:13:21.981688 14872 net.cpp:122] Setting up inception_4d/relu_3x3
I1130 17:13:21.981693 14872 net.cpp:129] Top shape: 32 288 14 14 (1806336)
I1130 17:13:21.981698 14872 net.cpp:137] Memory required for data: 1494040960
I1130 17:13:21.981703 14872 layer_factory.hpp:77] Creating layer inception_4d/5x5_reduce
I1130 17:13:21.981710 14872 net.cpp:84] Creating Layer inception_4d/5x5_reduce
I1130 17:13:21.981715 14872 net.cpp:406] inception_4d/5x5_reduce <- inception_4c/output_inception_4c/output_0_split_2
I1130 17:13:21.981722 14872 net.cpp:380] inception_4d/5x5_reduce -> inception_4d/5x5_reduce
I1130 17:13:21.982023 14872 net.cpp:122] Setting up inception_4d/5x5_reduce
I1130 17:13:21.982031 14872 net.cpp:129] Top shape: 32 32 14 14 (200704)
I1130 17:13:21.982035 14872 net.cpp:137] Memory required for data: 1494843776
I1130 17:13:21.982043 14872 layer_factory.hpp:77] Creating layer inception_4d/relu_5x5_reduce
I1130 17:13:21.982048 14872 net.cpp:84] Creating Layer inception_4d/relu_5x5_reduce
I1130 17:13:21.982054 14872 net.cpp:406] inception_4d/relu_5x5_reduce <- inception_4d/5x5_reduce
I1130 17:13:21.982059 14872 net.cpp:367] inception_4d/relu_5x5_reduce -> inception_4d/5x5_reduce (in-place)
I1130 17:13:21.982067 14872 net.cpp:122] Setting up inception_4d/relu_5x5_reduce
I1130 17:13:21.982074 14872 net.cpp:129] Top shape: 32 32 14 14 (200704)
I1130 17:13:21.982076 14872 net.cpp:137] Memory required for data: 1495646592
I1130 17:13:21.982081 14872 layer_factory.hpp:77] Creating layer inception_4d/5x5
I1130 17:13:21.982089 14872 net.cpp:84] Creating Layer inception_4d/5x5
I1130 17:13:21.982094 14872 net.cpp:406] inception_4d/5x5 <- inception_4d/5x5_reduce
I1130 17:13:21.982100 14872 net.cpp:380] inception_4d/5x5 -> inception_4d/5x5
I1130 17:13:21.982584 14872 net.cpp:122] Setting up inception_4d/5x5
I1130 17:13:21.982594 14872 net.cpp:129] Top shape: 32 64 14 14 (401408)
I1130 17:13:21.982597 14872 net.cpp:137] Memory required for data: 1497252224
I1130 17:13:21.982604 14872 layer_factory.hpp:77] Creating layer inception_4d/relu_5x5
I1130 17:13:21.982609 14872 net.cpp:84] Creating Layer inception_4d/relu_5x5
I1130 17:13:21.982614 14872 net.cpp:406] inception_4d/relu_5x5 <- inception_4d/5x5
I1130 17:13:21.982620 14872 net.cpp:367] inception_4d/relu_5x5 -> inception_4d/5x5 (in-place)
I1130 17:13:21.982625 14872 net.cpp:122] Setting up inception_4d/relu_5x5
I1130 17:13:21.982630 14872 net.cpp:129] Top shape: 32 64 14 14 (401408)
I1130 17:13:21.982635 14872 net.cpp:137] Memory required for data: 1498857856
I1130 17:13:21.982638 14872 layer_factory.hpp:77] Creating layer inception_4d/pool
I1130 17:13:21.982645 14872 net.cpp:84] Creating Layer inception_4d/pool
I1130 17:13:21.982650 14872 net.cpp:406] inception_4d/pool <- inception_4c/output_inception_4c/output_0_split_3
I1130 17:13:21.982655 14872 net.cpp:380] inception_4d/pool -> inception_4d/pool
I1130 17:13:21.982691 14872 net.cpp:122] Setting up inception_4d/pool
I1130 17:13:21.982699 14872 net.cpp:129] Top shape: 32 512 14 14 (3211264)
I1130 17:13:21.982703 14872 net.cpp:137] Memory required for data: 1511702912
I1130 17:13:21.982708 14872 layer_factory.hpp:77] Creating layer inception_4d/pool_proj
I1130 17:13:21.982715 14872 net.cpp:84] Creating Layer inception_4d/pool_proj
I1130 17:13:21.982722 14872 net.cpp:406] inception_4d/pool_proj <- inception_4d/pool
I1130 17:13:21.982728 14872 net.cpp:380] inception_4d/pool_proj -> inception_4d/pool_proj
I1130 17:13:21.983115 14872 net.cpp:122] Setting up inception_4d/pool_proj
I1130 17:13:21.983125 14872 net.cpp:129] Top shape: 32 64 14 14 (401408)
I1130 17:13:21.983129 14872 net.cpp:137] Memory required for data: 1513308544
I1130 17:13:21.983136 14872 layer_factory.hpp:77] Creating layer inception_4d/relu_pool_proj
I1130 17:13:21.983142 14872 net.cpp:84] Creating Layer inception_4d/relu_pool_proj
I1130 17:13:21.983147 14872 net.cpp:406] inception_4d/relu_pool_proj <- inception_4d/pool_proj
I1130 17:13:21.983153 14872 net.cpp:367] inception_4d/relu_pool_proj -> inception_4d/pool_proj (in-place)
I1130 17:13:21.983160 14872 net.cpp:122] Setting up inception_4d/relu_pool_proj
I1130 17:13:21.983165 14872 net.cpp:129] Top shape: 32 64 14 14 (401408)
I1130 17:13:21.983171 14872 net.cpp:137] Memory required for data: 1514914176
I1130 17:13:21.983175 14872 layer_factory.hpp:77] Creating layer inception_4d/output
I1130 17:13:21.983181 14872 net.cpp:84] Creating Layer inception_4d/output
I1130 17:13:21.983186 14872 net.cpp:406] inception_4d/output <- inception_4d/1x1
I1130 17:13:21.983191 14872 net.cpp:406] inception_4d/output <- inception_4d/3x3
I1130 17:13:21.983197 14872 net.cpp:406] inception_4d/output <- inception_4d/5x5
I1130 17:13:21.983201 14872 net.cpp:406] inception_4d/output <- inception_4d/pool_proj
I1130 17:13:21.983207 14872 net.cpp:380] inception_4d/output -> inception_4d/output
I1130 17:13:21.983232 14872 net.cpp:122] Setting up inception_4d/output
I1130 17:13:21.983239 14872 net.cpp:129] Top shape: 32 528 14 14 (3311616)
I1130 17:13:21.983243 14872 net.cpp:137] Memory required for data: 1528160640
I1130 17:13:21.983248 14872 layer_factory.hpp:77] Creating layer inception_4d/output_inception_4d/output_0_split
I1130 17:13:21.983254 14872 net.cpp:84] Creating Layer inception_4d/output_inception_4d/output_0_split
I1130 17:13:21.983259 14872 net.cpp:406] inception_4d/output_inception_4d/output_0_split <- inception_4d/output
I1130 17:13:21.983265 14872 net.cpp:380] inception_4d/output_inception_4d/output_0_split -> inception_4d/output_inception_4d/output_0_split_0
I1130 17:13:21.983273 14872 net.cpp:380] inception_4d/output_inception_4d/output_0_split -> inception_4d/output_inception_4d/output_0_split_1
I1130 17:13:21.983279 14872 net.cpp:380] inception_4d/output_inception_4d/output_0_split -> inception_4d/output_inception_4d/output_0_split_2
I1130 17:13:21.983286 14872 net.cpp:380] inception_4d/output_inception_4d/output_0_split -> inception_4d/output_inception_4d/output_0_split_3
I1130 17:13:21.983340 14872 net.cpp:122] Setting up inception_4d/output_inception_4d/output_0_split
I1130 17:13:21.983346 14872 net.cpp:129] Top shape: 32 528 14 14 (3311616)
I1130 17:13:21.983352 14872 net.cpp:129] Top shape: 32 528 14 14 (3311616)
I1130 17:13:21.983357 14872 net.cpp:129] Top shape: 32 528 14 14 (3311616)
I1130 17:13:21.983363 14872 net.cpp:129] Top shape: 32 528 14 14 (3311616)
I1130 17:13:21.983366 14872 net.cpp:137] Memory required for data: 1581146496
I1130 17:13:21.983371 14872 layer_factory.hpp:77] Creating layer inception_4e/1x1
I1130 17:13:21.983379 14872 net.cpp:84] Creating Layer inception_4e/1x1
I1130 17:13:21.983384 14872 net.cpp:406] inception_4e/1x1 <- inception_4d/output_inception_4d/output_0_split_0
I1130 17:13:21.983392 14872 net.cpp:380] inception_4e/1x1 -> inception_4e/1x1
I1130 17:13:21.984674 14872 net.cpp:122] Setting up inception_4e/1x1
I1130 17:13:21.984684 14872 net.cpp:129] Top shape: 32 256 14 14 (1605632)
I1130 17:13:21.984689 14872 net.cpp:137] Memory required for data: 1587569024
I1130 17:13:21.984697 14872 layer_factory.hpp:77] Creating layer inception_4e/relu_1x1
I1130 17:13:21.984704 14872 net.cpp:84] Creating Layer inception_4e/relu_1x1
I1130 17:13:21.984710 14872 net.cpp:406] inception_4e/relu_1x1 <- inception_4e/1x1
I1130 17:13:21.984716 14872 net.cpp:367] inception_4e/relu_1x1 -> inception_4e/1x1 (in-place)
I1130 17:13:21.984724 14872 net.cpp:122] Setting up inception_4e/relu_1x1
I1130 17:13:21.984730 14872 net.cpp:129] Top shape: 32 256 14 14 (1605632)
I1130 17:13:21.984735 14872 net.cpp:137] Memory required for data: 1593991552
I1130 17:13:21.984740 14872 layer_factory.hpp:77] Creating layer inception_4e/3x3_reduce
I1130 17:13:21.984747 14872 net.cpp:84] Creating Layer inception_4e/3x3_reduce
I1130 17:13:21.984752 14872 net.cpp:406] inception_4e/3x3_reduce <- inception_4d/output_inception_4d/output_0_split_1
I1130 17:13:21.984758 14872 net.cpp:380] inception_4e/3x3_reduce -> inception_4e/3x3_reduce
I1130 17:13:21.985430 14872 net.cpp:122] Setting up inception_4e/3x3_reduce
I1130 17:13:21.985438 14872 net.cpp:129] Top shape: 32 160 14 14 (1003520)
I1130 17:13:21.985442 14872 net.cpp:137] Memory required for data: 1598005632
I1130 17:13:21.985450 14872 layer_factory.hpp:77] Creating layer inception_4e/relu_3x3_reduce
I1130 17:13:21.985456 14872 net.cpp:84] Creating Layer inception_4e/relu_3x3_reduce
I1130 17:13:21.985461 14872 net.cpp:406] inception_4e/relu_3x3_reduce <- inception_4e/3x3_reduce
I1130 17:13:21.985467 14872 net.cpp:367] inception_4e/relu_3x3_reduce -> inception_4e/3x3_reduce (in-place)
I1130 17:13:21.985474 14872 net.cpp:122] Setting up inception_4e/relu_3x3_reduce
I1130 17:13:21.985481 14872 net.cpp:129] Top shape: 32 160 14 14 (1003520)
I1130 17:13:21.985484 14872 net.cpp:137] Memory required for data: 1602019712
I1130 17:13:21.985488 14872 layer_factory.hpp:77] Creating layer inception_4e/3x3
I1130 17:13:21.985496 14872 net.cpp:84] Creating Layer inception_4e/3x3
I1130 17:13:21.985500 14872 net.cpp:406] inception_4e/3x3 <- inception_4e/3x3_reduce
I1130 17:13:21.985507 14872 net.cpp:380] inception_4e/3x3 -> inception_4e/3x3
I1130 17:13:21.988658 14872 net.cpp:122] Setting up inception_4e/3x3
I1130 17:13:21.988674 14872 net.cpp:129] Top shape: 32 320 14 14 (2007040)
I1130 17:13:21.988678 14872 net.cpp:137] Memory required for data: 1610047872
I1130 17:13:21.988687 14872 layer_factory.hpp:77] Creating layer inception_4e/relu_3x3
I1130 17:13:21.988695 14872 net.cpp:84] Creating Layer inception_4e/relu_3x3
I1130 17:13:21.988703 14872 net.cpp:406] inception_4e/relu_3x3 <- inception_4e/3x3
I1130 17:13:21.988710 14872 net.cpp:367] inception_4e/relu_3x3 -> inception_4e/3x3 (in-place)
I1130 17:13:21.988719 14872 net.cpp:122] Setting up inception_4e/relu_3x3
I1130 17:13:21.988725 14872 net.cpp:129] Top shape: 32 320 14 14 (2007040)
I1130 17:13:21.988729 14872 net.cpp:137] Memory required for data: 1618076032
I1130 17:13:21.988734 14872 layer_factory.hpp:77] Creating layer inception_4e/5x5_reduce
I1130 17:13:21.988744 14872 net.cpp:84] Creating Layer inception_4e/5x5_reduce
I1130 17:13:21.988749 14872 net.cpp:406] inception_4e/5x5_reduce <- inception_4d/output_inception_4d/output_0_split_2
I1130 17:13:21.988756 14872 net.cpp:380] inception_4e/5x5_reduce -> inception_4e/5x5_reduce
I1130 17:13:21.989058 14872 net.cpp:122] Setting up inception_4e/5x5_reduce
I1130 17:13:21.989066 14872 net.cpp:129] Top shape: 32 32 14 14 (200704)
I1130 17:13:21.989070 14872 net.cpp:137] Memory required for data: 1618878848
I1130 17:13:21.989078 14872 layer_factory.hpp:77] Creating layer inception_4e/relu_5x5_reduce
I1130 17:13:21.989084 14872 net.cpp:84] Creating Layer inception_4e/relu_5x5_reduce
I1130 17:13:21.989089 14872 net.cpp:406] inception_4e/relu_5x5_reduce <- inception_4e/5x5_reduce
I1130 17:13:21.989095 14872 net.cpp:367] inception_4e/relu_5x5_reduce -> inception_4e/5x5_reduce (in-place)
I1130 17:13:21.989102 14872 net.cpp:122] Setting up inception_4e/relu_5x5_reduce
I1130 17:13:21.989109 14872 net.cpp:129] Top shape: 32 32 14 14 (200704)
I1130 17:13:21.989112 14872 net.cpp:137] Memory required for data: 1619681664
I1130 17:13:21.989116 14872 layer_factory.hpp:77] Creating layer inception_4e/5x5
I1130 17:13:21.989123 14872 net.cpp:84] Creating Layer inception_4e/5x5
I1130 17:13:21.989128 14872 net.cpp:406] inception_4e/5x5 <- inception_4e/5x5_reduce
I1130 17:13:21.989135 14872 net.cpp:380] inception_4e/5x5 -> inception_4e/5x5
I1130 17:13:21.990221 14872 net.cpp:122] Setting up inception_4e/5x5
I1130 17:13:21.990231 14872 net.cpp:129] Top shape: 32 128 14 14 (802816)
I1130 17:13:21.990234 14872 net.cpp:137] Memory required for data: 1622892928
I1130 17:13:21.990242 14872 layer_factory.hpp:77] Creating layer inception_4e/relu_5x5
I1130 17:13:21.990248 14872 net.cpp:84] Creating Layer inception_4e/relu_5x5
I1130 17:13:21.990254 14872 net.cpp:406] inception_4e/relu_5x5 <- inception_4e/5x5
I1130 17:13:21.990260 14872 net.cpp:367] inception_4e/relu_5x5 -> inception_4e/5x5 (in-place)
I1130 17:13:21.990267 14872 net.cpp:122] Setting up inception_4e/relu_5x5
I1130 17:13:21.990273 14872 net.cpp:129] Top shape: 32 128 14 14 (802816)
I1130 17:13:21.990278 14872 net.cpp:137] Memory required for data: 1626104192
I1130 17:13:21.990281 14872 layer_factory.hpp:77] Creating layer inception_4e/pool
I1130 17:13:21.990288 14872 net.cpp:84] Creating Layer inception_4e/pool
I1130 17:13:21.990293 14872 net.cpp:406] inception_4e/pool <- inception_4d/output_inception_4d/output_0_split_3
I1130 17:13:21.990298 14872 net.cpp:380] inception_4e/pool -> inception_4e/pool
I1130 17:13:21.990335 14872 net.cpp:122] Setting up inception_4e/pool
I1130 17:13:21.990344 14872 net.cpp:129] Top shape: 32 528 14 14 (3311616)
I1130 17:13:21.990347 14872 net.cpp:137] Memory required for data: 1639350656
I1130 17:13:21.990352 14872 layer_factory.hpp:77] Creating layer inception_4e/pool_proj
I1130 17:13:21.990360 14872 net.cpp:84] Creating Layer inception_4e/pool_proj
I1130 17:13:21.990365 14872 net.cpp:406] inception_4e/pool_proj <- inception_4e/pool
I1130 17:13:21.990371 14872 net.cpp:380] inception_4e/pool_proj -> inception_4e/pool_proj
I1130 17:13:21.990926 14872 net.cpp:122] Setting up inception_4e/pool_proj
I1130 17:13:21.990936 14872 net.cpp:129] Top shape: 32 128 14 14 (802816)
I1130 17:13:21.990941 14872 net.cpp:137] Memory required for data: 1642561920
I1130 17:13:21.990948 14872 layer_factory.hpp:77] Creating layer inception_4e/relu_pool_proj
I1130 17:13:21.990955 14872 net.cpp:84] Creating Layer inception_4e/relu_pool_proj
I1130 17:13:21.990960 14872 net.cpp:406] inception_4e/relu_pool_proj <- inception_4e/pool_proj
I1130 17:13:21.990967 14872 net.cpp:367] inception_4e/relu_pool_proj -> inception_4e/pool_proj (in-place)
I1130 17:13:21.990973 14872 net.cpp:122] Setting up inception_4e/relu_pool_proj
I1130 17:13:21.990978 14872 net.cpp:129] Top shape: 32 128 14 14 (802816)
I1130 17:13:21.990984 14872 net.cpp:137] Memory required for data: 1645773184
I1130 17:13:21.990988 14872 layer_factory.hpp:77] Creating layer inception_4e/output
I1130 17:13:21.990995 14872 net.cpp:84] Creating Layer inception_4e/output
I1130 17:13:21.991000 14872 net.cpp:406] inception_4e/output <- inception_4e/1x1
I1130 17:13:21.991004 14872 net.cpp:406] inception_4e/output <- inception_4e/3x3
I1130 17:13:21.991010 14872 net.cpp:406] inception_4e/output <- inception_4e/5x5
I1130 17:13:21.991015 14872 net.cpp:406] inception_4e/output <- inception_4e/pool_proj
I1130 17:13:21.991021 14872 net.cpp:380] inception_4e/output -> inception_4e/output
I1130 17:13:21.991045 14872 net.cpp:122] Setting up inception_4e/output
I1130 17:13:21.991052 14872 net.cpp:129] Top shape: 32 832 14 14 (5218304)
I1130 17:13:21.991056 14872 net.cpp:137] Memory required for data: 1666646400
I1130 17:13:21.991061 14872 layer_factory.hpp:77] Creating layer pool4/3x3_s2
I1130 17:13:21.991067 14872 net.cpp:84] Creating Layer pool4/3x3_s2
I1130 17:13:21.991072 14872 net.cpp:406] pool4/3x3_s2 <- inception_4e/output
I1130 17:13:21.991078 14872 net.cpp:380] pool4/3x3_s2 -> pool4/3x3_s2
I1130 17:13:21.991111 14872 net.cpp:122] Setting up pool4/3x3_s2
I1130 17:13:21.991118 14872 net.cpp:129] Top shape: 32 832 7 7 (1304576)
I1130 17:13:21.991122 14872 net.cpp:137] Memory required for data: 1671864704
I1130 17:13:21.991127 14872 layer_factory.hpp:77] Creating layer pool4/3x3_s2_pool4/3x3_s2_0_split
I1130 17:13:21.991134 14872 net.cpp:84] Creating Layer pool4/3x3_s2_pool4/3x3_s2_0_split
I1130 17:13:21.991139 14872 net.cpp:406] pool4/3x3_s2_pool4/3x3_s2_0_split <- pool4/3x3_s2
I1130 17:13:21.991149 14872 net.cpp:380] pool4/3x3_s2_pool4/3x3_s2_0_split -> pool4/3x3_s2_pool4/3x3_s2_0_split_0
I1130 17:13:21.991156 14872 net.cpp:380] pool4/3x3_s2_pool4/3x3_s2_0_split -> pool4/3x3_s2_pool4/3x3_s2_0_split_1
I1130 17:13:21.991163 14872 net.cpp:380] pool4/3x3_s2_pool4/3x3_s2_0_split -> pool4/3x3_s2_pool4/3x3_s2_0_split_2
I1130 17:13:21.991170 14872 net.cpp:380] pool4/3x3_s2_pool4/3x3_s2_0_split -> pool4/3x3_s2_pool4/3x3_s2_0_split_3
I1130 17:13:21.991224 14872 net.cpp:122] Setting up pool4/3x3_s2_pool4/3x3_s2_0_split
I1130 17:13:21.991231 14872 net.cpp:129] Top shape: 32 832 7 7 (1304576)
I1130 17:13:21.991237 14872 net.cpp:129] Top shape: 32 832 7 7 (1304576)
I1130 17:13:21.991241 14872 net.cpp:129] Top shape: 32 832 7 7 (1304576)
I1130 17:13:21.991246 14872 net.cpp:129] Top shape: 32 832 7 7 (1304576)
I1130 17:13:21.991251 14872 net.cpp:137] Memory required for data: 1692737920
I1130 17:13:21.991255 14872 layer_factory.hpp:77] Creating layer inception_5a/1x1
I1130 17:13:21.991263 14872 net.cpp:84] Creating Layer inception_5a/1x1
I1130 17:13:21.991269 14872 net.cpp:406] inception_5a/1x1 <- pool4/3x3_s2_pool4/3x3_s2_0_split_0
I1130 17:13:21.991276 14872 net.cpp:380] inception_5a/1x1 -> inception_5a/1x1
I1130 17:13:21.992918 14872 net.cpp:122] Setting up inception_5a/1x1
I1130 17:13:21.992928 14872 net.cpp:129] Top shape: 32 256 7 7 (401408)
I1130 17:13:21.992931 14872 net.cpp:137] Memory required for data: 1694343552
I1130 17:13:21.992938 14872 layer_factory.hpp:77] Creating layer inception_5a/relu_1x1
I1130 17:13:21.992945 14872 net.cpp:84] Creating Layer inception_5a/relu_1x1
I1130 17:13:21.992951 14872 net.cpp:406] inception_5a/relu_1x1 <- inception_5a/1x1
I1130 17:13:21.992957 14872 net.cpp:367] inception_5a/relu_1x1 -> inception_5a/1x1 (in-place)
I1130 17:13:21.992966 14872 net.cpp:122] Setting up inception_5a/relu_1x1
I1130 17:13:21.992972 14872 net.cpp:129] Top shape: 32 256 7 7 (401408)
I1130 17:13:21.992976 14872 net.cpp:137] Memory required for data: 1695949184
I1130 17:13:21.992981 14872 layer_factory.hpp:77] Creating layer inception_5a/3x3_reduce
I1130 17:13:21.992990 14872 net.cpp:84] Creating Layer inception_5a/3x3_reduce
I1130 17:13:21.992995 14872 net.cpp:406] inception_5a/3x3_reduce <- pool4/3x3_s2_pool4/3x3_s2_0_split_1
I1130 17:13:21.993003 14872 net.cpp:380] inception_5a/3x3_reduce -> inception_5a/3x3_reduce
I1130 17:13:21.994240 14872 net.cpp:122] Setting up inception_5a/3x3_reduce
I1130 17:13:21.994249 14872 net.cpp:129] Top shape: 32 160 7 7 (250880)
I1130 17:13:21.994254 14872 net.cpp:137] Memory required for data: 1696952704
I1130 17:13:21.994261 14872 layer_factory.hpp:77] Creating layer inception_5a/relu_3x3_reduce
I1130 17:13:21.994267 14872 net.cpp:84] Creating Layer inception_5a/relu_3x3_reduce
I1130 17:13:21.994273 14872 net.cpp:406] inception_5a/relu_3x3_reduce <- inception_5a/3x3_reduce
I1130 17:13:21.994279 14872 net.cpp:367] inception_5a/relu_3x3_reduce -> inception_5a/3x3_reduce (in-place)
I1130 17:13:21.994288 14872 net.cpp:122] Setting up inception_5a/relu_3x3_reduce
I1130 17:13:21.994294 14872 net.cpp:129] Top shape: 32 160 7 7 (250880)
I1130 17:13:21.994297 14872 net.cpp:137] Memory required for data: 1697956224
I1130 17:13:21.994302 14872 layer_factory.hpp:77] Creating layer inception_5a/3x3
I1130 17:13:21.994309 14872 net.cpp:84] Creating Layer inception_5a/3x3
I1130 17:13:21.994314 14872 net.cpp:406] inception_5a/3x3 <- inception_5a/3x3_reduce
I1130 17:13:21.994321 14872 net.cpp:380] inception_5a/3x3 -> inception_5a/3x3
I1130 17:13:21.997448 14872 net.cpp:122] Setting up inception_5a/3x3
I1130 17:13:21.997462 14872 net.cpp:129] Top shape: 32 320 7 7 (501760)
I1130 17:13:21.997465 14872 net.cpp:137] Memory required for data: 1699963264
I1130 17:13:21.997473 14872 layer_factory.hpp:77] Creating layer inception_5a/relu_3x3
I1130 17:13:21.997480 14872 net.cpp:84] Creating Layer inception_5a/relu_3x3
I1130 17:13:21.997485 14872 net.cpp:406] inception_5a/relu_3x3 <- inception_5a/3x3
I1130 17:13:21.997493 14872 net.cpp:367] inception_5a/relu_3x3 -> inception_5a/3x3 (in-place)
I1130 17:13:21.997499 14872 net.cpp:122] Setting up inception_5a/relu_3x3
I1130 17:13:21.997505 14872 net.cpp:129] Top shape: 32 320 7 7 (501760)
I1130 17:13:21.997509 14872 net.cpp:137] Memory required for data: 1701970304
I1130 17:13:21.997514 14872 layer_factory.hpp:77] Creating layer inception_5a/5x5_reduce
I1130 17:13:21.997524 14872 net.cpp:84] Creating Layer inception_5a/5x5_reduce
I1130 17:13:21.997530 14872 net.cpp:406] inception_5a/5x5_reduce <- pool4/3x3_s2_pool4/3x3_s2_0_split_2
I1130 17:13:21.997539 14872 net.cpp:380] inception_5a/5x5_reduce -> inception_5a/5x5_reduce
I1130 17:13:21.997905 14872 net.cpp:122] Setting up inception_5a/5x5_reduce
I1130 17:13:21.997915 14872 net.cpp:129] Top shape: 32 32 7 7 (50176)
I1130 17:13:21.997918 14872 net.cpp:137] Memory required for data: 1702171008
I1130 17:13:21.997925 14872 layer_factory.hpp:77] Creating layer inception_5a/relu_5x5_reduce
I1130 17:13:21.997931 14872 net.cpp:84] Creating Layer inception_5a/relu_5x5_reduce
I1130 17:13:21.997937 14872 net.cpp:406] inception_5a/relu_5x5_reduce <- inception_5a/5x5_reduce
I1130 17:13:21.997943 14872 net.cpp:367] inception_5a/relu_5x5_reduce -> inception_5a/5x5_reduce (in-place)
I1130 17:13:21.997952 14872 net.cpp:122] Setting up inception_5a/relu_5x5_reduce
I1130 17:13:21.997958 14872 net.cpp:129] Top shape: 32 32 7 7 (50176)
I1130 17:13:21.997962 14872 net.cpp:137] Memory required for data: 1702371712
I1130 17:13:21.997967 14872 layer_factory.hpp:77] Creating layer inception_5a/5x5
I1130 17:13:21.997988 14872 net.cpp:84] Creating Layer inception_5a/5x5
I1130 17:13:21.997994 14872 net.cpp:406] inception_5a/5x5 <- inception_5a/5x5_reduce
I1130 17:13:21.998001 14872 net.cpp:380] inception_5a/5x5 -> inception_5a/5x5
I1130 17:13:21.999104 14872 net.cpp:122] Setting up inception_5a/5x5
I1130 17:13:21.999114 14872 net.cpp:129] Top shape: 32 128 7 7 (200704)
I1130 17:13:21.999119 14872 net.cpp:137] Memory required for data: 1703174528
I1130 17:13:21.999125 14872 layer_factory.hpp:77] Creating layer inception_5a/relu_5x5
I1130 17:13:21.999132 14872 net.cpp:84] Creating Layer inception_5a/relu_5x5
I1130 17:13:21.999138 14872 net.cpp:406] inception_5a/relu_5x5 <- inception_5a/5x5
I1130 17:13:21.999145 14872 net.cpp:367] inception_5a/relu_5x5 -> inception_5a/5x5 (in-place)
I1130 17:13:21.999151 14872 net.cpp:122] Setting up inception_5a/relu_5x5
I1130 17:13:21.999157 14872 net.cpp:129] Top shape: 32 128 7 7 (200704)
I1130 17:13:21.999161 14872 net.cpp:137] Memory required for data: 1703977344
I1130 17:13:21.999166 14872 layer_factory.hpp:77] Creating layer inception_5a/pool
I1130 17:13:21.999172 14872 net.cpp:84] Creating Layer inception_5a/pool
I1130 17:13:21.999178 14872 net.cpp:406] inception_5a/pool <- pool4/3x3_s2_pool4/3x3_s2_0_split_3
I1130 17:13:21.999184 14872 net.cpp:380] inception_5a/pool -> inception_5a/pool
I1130 17:13:21.999222 14872 net.cpp:122] Setting up inception_5a/pool
I1130 17:13:21.999229 14872 net.cpp:129] Top shape: 32 832 7 7 (1304576)
I1130 17:13:21.999233 14872 net.cpp:137] Memory required for data: 1709195648
I1130 17:13:21.999239 14872 layer_factory.hpp:77] Creating layer inception_5a/pool_proj
I1130 17:13:21.999249 14872 net.cpp:84] Creating Layer inception_5a/pool_proj
I1130 17:13:21.999254 14872 net.cpp:406] inception_5a/pool_proj <- inception_5a/pool
I1130 17:13:21.999260 14872 net.cpp:380] inception_5a/pool_proj -> inception_5a/pool_proj
I1130 17:13:22.000315 14872 net.cpp:122] Setting up inception_5a/pool_proj
I1130 17:13:22.000325 14872 net.cpp:129] Top shape: 32 128 7 7 (200704)
I1130 17:13:22.000329 14872 net.cpp:137] Memory required for data: 1709998464
I1130 17:13:22.000336 14872 layer_factory.hpp:77] Creating layer inception_5a/relu_pool_proj
I1130 17:13:22.000344 14872 net.cpp:84] Creating Layer inception_5a/relu_pool_proj
I1130 17:13:22.000349 14872 net.cpp:406] inception_5a/relu_pool_proj <- inception_5a/pool_proj
I1130 17:13:22.000356 14872 net.cpp:367] inception_5a/relu_pool_proj -> inception_5a/pool_proj (in-place)
I1130 17:13:22.000365 14872 net.cpp:122] Setting up inception_5a/relu_pool_proj
I1130 17:13:22.000370 14872 net.cpp:129] Top shape: 32 128 7 7 (200704)
I1130 17:13:22.000373 14872 net.cpp:137] Memory required for data: 1710801280
I1130 17:13:22.000378 14872 layer_factory.hpp:77] Creating layer inception_5a/output
I1130 17:13:22.000385 14872 net.cpp:84] Creating Layer inception_5a/output
I1130 17:13:22.000391 14872 net.cpp:406] inception_5a/output <- inception_5a/1x1
I1130 17:13:22.000396 14872 net.cpp:406] inception_5a/output <- inception_5a/3x3
I1130 17:13:22.000401 14872 net.cpp:406] inception_5a/output <- inception_5a/5x5
I1130 17:13:22.000406 14872 net.cpp:406] inception_5a/output <- inception_5a/pool_proj
I1130 17:13:22.000413 14872 net.cpp:380] inception_5a/output -> inception_5a/output
I1130 17:13:22.000437 14872 net.cpp:122] Setting up inception_5a/output
I1130 17:13:22.000443 14872 net.cpp:129] Top shape: 32 832 7 7 (1304576)
I1130 17:13:22.000448 14872 net.cpp:137] Memory required for data: 1716019584
I1130 17:13:22.000453 14872 layer_factory.hpp:77] Creating layer inception_5a/output_inception_5a/output_0_split
I1130 17:13:22.000460 14872 net.cpp:84] Creating Layer inception_5a/output_inception_5a/output_0_split
I1130 17:13:22.000465 14872 net.cpp:406] inception_5a/output_inception_5a/output_0_split <- inception_5a/output
I1130 17:13:22.000473 14872 net.cpp:380] inception_5a/output_inception_5a/output_0_split -> inception_5a/output_inception_5a/output_0_split_0
I1130 17:13:22.000480 14872 net.cpp:380] inception_5a/output_inception_5a/output_0_split -> inception_5a/output_inception_5a/output_0_split_1
I1130 17:13:22.000488 14872 net.cpp:380] inception_5a/output_inception_5a/output_0_split -> inception_5a/output_inception_5a/output_0_split_2
I1130 17:13:22.000494 14872 net.cpp:380] inception_5a/output_inception_5a/output_0_split -> inception_5a/output_inception_5a/output_0_split_3
I1130 17:13:22.000543 14872 net.cpp:122] Setting up inception_5a/output_inception_5a/output_0_split
I1130 17:13:22.000551 14872 net.cpp:129] Top shape: 32 832 7 7 (1304576)
I1130 17:13:22.000557 14872 net.cpp:129] Top shape: 32 832 7 7 (1304576)
I1130 17:13:22.000561 14872 net.cpp:129] Top shape: 32 832 7 7 (1304576)
I1130 17:13:22.000567 14872 net.cpp:129] Top shape: 32 832 7 7 (1304576)
I1130 17:13:22.000571 14872 net.cpp:137] Memory required for data: 1736892800
I1130 17:13:22.000576 14872 layer_factory.hpp:77] Creating layer inception_5b/1x1
I1130 17:13:22.000586 14872 net.cpp:84] Creating Layer inception_5b/1x1
I1130 17:13:22.000591 14872 net.cpp:406] inception_5b/1x1 <- inception_5a/output_inception_5a/output_0_split_0
I1130 17:13:22.000597 14872 net.cpp:380] inception_5b/1x1 -> inception_5b/1x1
I1130 17:13:22.002832 14872 net.cpp:122] Setting up inception_5b/1x1
I1130 17:13:22.002842 14872 net.cpp:129] Top shape: 32 384 7 7 (602112)
I1130 17:13:22.002846 14872 net.cpp:137] Memory required for data: 1739301248
I1130 17:13:22.002853 14872 layer_factory.hpp:77] Creating layer inception_5b/relu_1x1
I1130 17:13:22.002861 14872 net.cpp:84] Creating Layer inception_5b/relu_1x1
I1130 17:13:22.002866 14872 net.cpp:406] inception_5b/relu_1x1 <- inception_5b/1x1
I1130 17:13:22.002872 14872 net.cpp:367] inception_5b/relu_1x1 -> inception_5b/1x1 (in-place)
I1130 17:13:22.002879 14872 net.cpp:122] Setting up inception_5b/relu_1x1
I1130 17:13:22.002887 14872 net.cpp:129] Top shape: 32 384 7 7 (602112)
I1130 17:13:22.002889 14872 net.cpp:137] Memory required for data: 1741709696
I1130 17:13:22.002893 14872 layer_factory.hpp:77] Creating layer inception_5b/3x3_reduce
I1130 17:13:22.002903 14872 net.cpp:84] Creating Layer inception_5b/3x3_reduce
I1130 17:13:22.002909 14872 net.cpp:406] inception_5b/3x3_reduce <- inception_5a/output_inception_5a/output_0_split_1
I1130 17:13:22.002915 14872 net.cpp:380] inception_5b/3x3_reduce -> inception_5b/3x3_reduce
I1130 17:13:22.004276 14872 net.cpp:122] Setting up inception_5b/3x3_reduce
I1130 17:13:22.004285 14872 net.cpp:129] Top shape: 32 192 7 7 (301056)
I1130 17:13:22.004289 14872 net.cpp:137] Memory required for data: 1742913920
I1130 17:13:22.004297 14872 layer_factory.hpp:77] Creating layer inception_5b/relu_3x3_reduce
I1130 17:13:22.004305 14872 net.cpp:84] Creating Layer inception_5b/relu_3x3_reduce
I1130 17:13:22.004312 14872 net.cpp:406] inception_5b/relu_3x3_reduce <- inception_5b/3x3_reduce
I1130 17:13:22.004317 14872 net.cpp:367] inception_5b/relu_3x3_reduce -> inception_5b/3x3_reduce (in-place)
I1130 17:13:22.004325 14872 net.cpp:122] Setting up inception_5b/relu_3x3_reduce
I1130 17:13:22.004331 14872 net.cpp:129] Top shape: 32 192 7 7 (301056)
I1130 17:13:22.004334 14872 net.cpp:137] Memory required for data: 1744118144
I1130 17:13:22.004338 14872 layer_factory.hpp:77] Creating layer inception_5b/3x3
I1130 17:13:22.004348 14872 net.cpp:84] Creating Layer inception_5b/3x3
I1130 17:13:22.004354 14872 net.cpp:406] inception_5b/3x3 <- inception_5b/3x3_reduce
I1130 17:13:22.004359 14872 net.cpp:380] inception_5b/3x3 -> inception_5b/3x3
I1130 17:13:22.008831 14872 net.cpp:122] Setting up inception_5b/3x3
I1130 17:13:22.008844 14872 net.cpp:129] Top shape: 32 384 7 7 (602112)
I1130 17:13:22.008848 14872 net.cpp:137] Memory required for data: 1746526592
I1130 17:13:22.008855 14872 layer_factory.hpp:77] Creating layer inception_5b/relu_3x3
I1130 17:13:22.008862 14872 net.cpp:84] Creating Layer inception_5b/relu_3x3
I1130 17:13:22.008868 14872 net.cpp:406] inception_5b/relu_3x3 <- inception_5b/3x3
I1130 17:13:22.008877 14872 net.cpp:367] inception_5b/relu_3x3 -> inception_5b/3x3 (in-place)
I1130 17:13:22.008884 14872 net.cpp:122] Setting up inception_5b/relu_3x3
I1130 17:13:22.008889 14872 net.cpp:129] Top shape: 32 384 7 7 (602112)
I1130 17:13:22.008893 14872 net.cpp:137] Memory required for data: 1748935040
I1130 17:13:22.008898 14872 layer_factory.hpp:77] Creating layer inception_5b/5x5_reduce
I1130 17:13:22.008908 14872 net.cpp:84] Creating Layer inception_5b/5x5_reduce
I1130 17:13:22.008913 14872 net.cpp:406] inception_5b/5x5_reduce <- inception_5a/output_inception_5a/output_0_split_2
I1130 17:13:22.008919 14872 net.cpp:380] inception_5b/5x5_reduce -> inception_5b/5x5_reduce
I1130 17:13:22.009331 14872 net.cpp:122] Setting up inception_5b/5x5_reduce
I1130 17:13:22.009341 14872 net.cpp:129] Top shape: 32 48 7 7 (75264)
I1130 17:13:22.009346 14872 net.cpp:137] Memory required for data: 1749236096
I1130 17:13:22.009352 14872 layer_factory.hpp:77] Creating layer inception_5b/relu_5x5_reduce
I1130 17:13:22.009358 14872 net.cpp:84] Creating Layer inception_5b/relu_5x5_reduce
I1130 17:13:22.009364 14872 net.cpp:406] inception_5b/relu_5x5_reduce <- inception_5b/5x5_reduce
I1130 17:13:22.009371 14872 net.cpp:367] inception_5b/relu_5x5_reduce -> inception_5b/5x5_reduce (in-place)
I1130 17:13:22.009378 14872 net.cpp:122] Setting up inception_5b/relu_5x5_reduce
I1130 17:13:22.009383 14872 net.cpp:129] Top shape: 32 48 7 7 (75264)
I1130 17:13:22.009388 14872 net.cpp:137] Memory required for data: 1749537152
I1130 17:13:22.009392 14872 layer_factory.hpp:77] Creating layer inception_5b/5x5
I1130 17:13:22.009400 14872 net.cpp:84] Creating Layer inception_5b/5x5
I1130 17:13:22.009405 14872 net.cpp:406] inception_5b/5x5 <- inception_5b/5x5_reduce
I1130 17:13:22.009415 14872 net.cpp:380] inception_5b/5x5 -> inception_5b/5x5
I1130 17:13:22.010433 14872 net.cpp:122] Setting up inception_5b/5x5
I1130 17:13:22.010442 14872 net.cpp:129] Top shape: 32 128 7 7 (200704)
I1130 17:13:22.010447 14872 net.cpp:137] Memory required for data: 1750339968
I1130 17:13:22.010483 14872 layer_factory.hpp:77] Creating layer inception_5b/relu_5x5
I1130 17:13:22.010491 14872 net.cpp:84] Creating Layer inception_5b/relu_5x5
I1130 17:13:22.010496 14872 net.cpp:406] inception_5b/relu_5x5 <- inception_5b/5x5
I1130 17:13:22.010504 14872 net.cpp:367] inception_5b/relu_5x5 -> inception_5b/5x5 (in-place)
I1130 17:13:22.010510 14872 net.cpp:122] Setting up inception_5b/relu_5x5
I1130 17:13:22.010515 14872 net.cpp:129] Top shape: 32 128 7 7 (200704)
I1130 17:13:22.010519 14872 net.cpp:137] Memory required for data: 1751142784
I1130 17:13:22.010525 14872 layer_factory.hpp:77] Creating layer inception_5b/pool
I1130 17:13:22.010535 14872 net.cpp:84] Creating Layer inception_5b/pool
I1130 17:13:22.010540 14872 net.cpp:406] inception_5b/pool <- inception_5a/output_inception_5a/output_0_split_3
I1130 17:13:22.010545 14872 net.cpp:380] inception_5b/pool -> inception_5b/pool
I1130 17:13:22.010581 14872 net.cpp:122] Setting up inception_5b/pool
I1130 17:13:22.010588 14872 net.cpp:129] Top shape: 32 832 7 7 (1304576)
I1130 17:13:22.010592 14872 net.cpp:137] Memory required for data: 1756361088
I1130 17:13:22.010597 14872 layer_factory.hpp:77] Creating layer inception_5b/pool_proj
I1130 17:13:22.010608 14872 net.cpp:84] Creating Layer inception_5b/pool_proj
I1130 17:13:22.010613 14872 net.cpp:406] inception_5b/pool_proj <- inception_5b/pool
I1130 17:13:22.010620 14872 net.cpp:380] inception_5b/pool_proj -> inception_5b/pool_proj
I1130 17:13:22.011703 14872 net.cpp:122] Setting up inception_5b/pool_proj
I1130 17:13:22.011713 14872 net.cpp:129] Top shape: 32 128 7 7 (200704)
I1130 17:13:22.011718 14872 net.cpp:137] Memory required for data: 1757163904
I1130 17:13:22.011724 14872 layer_factory.hpp:77] Creating layer inception_5b/relu_pool_proj
I1130 17:13:22.011731 14872 net.cpp:84] Creating Layer inception_5b/relu_pool_proj
I1130 17:13:22.011736 14872 net.cpp:406] inception_5b/relu_pool_proj <- inception_5b/pool_proj
I1130 17:13:22.011744 14872 net.cpp:367] inception_5b/relu_pool_proj -> inception_5b/pool_proj (in-place)
I1130 17:13:22.011751 14872 net.cpp:122] Setting up inception_5b/relu_pool_proj
I1130 17:13:22.011757 14872 net.cpp:129] Top shape: 32 128 7 7 (200704)
I1130 17:13:22.011761 14872 net.cpp:137] Memory required for data: 1757966720
I1130 17:13:22.011766 14872 layer_factory.hpp:77] Creating layer inception_5b/output
I1130 17:13:22.011773 14872 net.cpp:84] Creating Layer inception_5b/output
I1130 17:13:22.011778 14872 net.cpp:406] inception_5b/output <- inception_5b/1x1
I1130 17:13:22.011783 14872 net.cpp:406] inception_5b/output <- inception_5b/3x3
I1130 17:13:22.011790 14872 net.cpp:406] inception_5b/output <- inception_5b/5x5
I1130 17:13:22.011795 14872 net.cpp:406] inception_5b/output <- inception_5b/pool_proj
I1130 17:13:22.011801 14872 net.cpp:380] inception_5b/output -> inception_5b/output
I1130 17:13:22.011824 14872 net.cpp:122] Setting up inception_5b/output
I1130 17:13:22.011831 14872 net.cpp:129] Top shape: 32 1024 7 7 (1605632)
I1130 17:13:22.011837 14872 net.cpp:137] Memory required for data: 1764389248
I1130 17:13:22.011840 14872 layer_factory.hpp:77] Creating layer pool5/7x7_s1
I1130 17:13:22.011847 14872 net.cpp:84] Creating Layer pool5/7x7_s1
I1130 17:13:22.011852 14872 net.cpp:406] pool5/7x7_s1 <- inception_5b/output
I1130 17:13:22.011859 14872 net.cpp:380] pool5/7x7_s1 -> pool5/7x7_s1
I1130 17:13:22.011881 14872 net.cpp:122] Setting up pool5/7x7_s1
I1130 17:13:22.011889 14872 net.cpp:129] Top shape: 32 1024 1 1 (32768)
I1130 17:13:22.011893 14872 net.cpp:137] Memory required for data: 1764520320
I1130 17:13:22.011898 14872 layer_factory.hpp:77] Creating layer pool5/drop_7x7_s1
I1130 17:13:22.011904 14872 net.cpp:84] Creating Layer pool5/drop_7x7_s1
I1130 17:13:22.011909 14872 net.cpp:406] pool5/drop_7x7_s1 <- pool5/7x7_s1
I1130 17:13:22.011915 14872 net.cpp:367] pool5/drop_7x7_s1 -> pool5/7x7_s1 (in-place)
I1130 17:13:22.011937 14872 net.cpp:122] Setting up pool5/drop_7x7_s1
I1130 17:13:22.011945 14872 net.cpp:129] Top shape: 32 1024 1 1 (32768)
I1130 17:13:22.011947 14872 net.cpp:137] Memory required for data: 1764651392
I1130 17:13:22.011952 14872 layer_factory.hpp:77] Creating layer fc_scv_dangerous
I1130 17:13:22.011960 14872 net.cpp:84] Creating Layer fc_scv_dangerous
I1130 17:13:22.011965 14872 net.cpp:406] fc_scv_dangerous <- pool5/7x7_s1
I1130 17:13:22.011973 14872 net.cpp:380] fc_scv_dangerous -> fc_scv_dangerous
I1130 17:13:22.012065 14872 net.cpp:122] Setting up fc_scv_dangerous
I1130 17:13:22.012074 14872 net.cpp:129] Top shape: 32 1 (32)
I1130 17:13:22.012079 14872 net.cpp:137] Memory required for data: 1764651520
I1130 17:13:22.012085 14872 layer_factory.hpp:77] Creating layer fc_scv_dangerous_fc_scv_dangerous_0_split
I1130 17:13:22.012092 14872 net.cpp:84] Creating Layer fc_scv_dangerous_fc_scv_dangerous_0_split
I1130 17:13:22.012097 14872 net.cpp:406] fc_scv_dangerous_fc_scv_dangerous_0_split <- fc_scv_dangerous
I1130 17:13:22.012104 14872 net.cpp:380] fc_scv_dangerous_fc_scv_dangerous_0_split -> fc_scv_dangerous_fc_scv_dangerous_0_split_0
I1130 17:13:22.012111 14872 net.cpp:380] fc_scv_dangerous_fc_scv_dangerous_0_split -> fc_scv_dangerous_fc_scv_dangerous_0_split_1
I1130 17:13:22.012145 14872 net.cpp:122] Setting up fc_scv_dangerous_fc_scv_dangerous_0_split
I1130 17:13:22.012153 14872 net.cpp:129] Top shape: 32 1 (32)
I1130 17:13:22.012159 14872 net.cpp:129] Top shape: 32 1 (32)
I1130 17:13:22.012163 14872 net.cpp:137] Memory required for data: 1764651776
I1130 17:13:22.012168 14872 layer_factory.hpp:77] Creating layer loss
I1130 17:13:22.012176 14872 net.cpp:84] Creating Layer loss
I1130 17:13:22.012179 14872 net.cpp:406] loss <- fc_scv_dangerous_fc_scv_dangerous_0_split_0
I1130 17:13:22.012186 14872 net.cpp:406] loss <- label_data_1_split_0
I1130 17:13:22.012192 14872 net.cpp:380] loss -> loss
…
