…
I1130 21:08:36.558406 27671 net.cpp:51] Initializing net from parameters: 
name: "CaffeNet-Places365-SCV-Picturesque"
state {
  phase: TRAIN
  level: 0
  stage: ""
}
layer {
  name: "data"
  type: "Data"
  top: "data"
  top: "label"
  include {
    phase: TRAIN
  }
  transform_param {
    mirror: true
    crop_size: 227
    mean_file: "/idiap/temp/lmedina/fine-tuning/alexnet_places365/places365CNN_mean.binaryproto"
  }
  data_param {
    source: "/idiap/temp/lmedina/fine-tuning/data/Picturesque/train_lmdb"
    batch_size: 32
    backend: LMDB
  }
}
layer {
  name: "conv1"
  type: "Convolution"
  bottom: "data"
  top: "conv1"
  param {
    lr_mult: 1
    decay_mult: 1
  }
  param {
    lr_mult: 2
    decay_mult: 0
  }
  convolution_param {
    num_output: 96
    kernel_size: 11
    stride: 4
    weight_filler {
      type: "gaussian"
      std: 0.01
    }
    bias_filler {
      type: "constant"
      value: 0
    }
  }
}
layer {
  name: "relu1"
  type: "ReLU"
  bottom: "conv1"
  top: "conv1"
}
layer {
  name: "pool1"
  type: "Pooling"
  bottom: "conv1"
  top: "pool1"
  pooling_param {
    pool: MAX
    kernel_size: 3
    stride: 2
  }
}
layer {
  name: "norm1"
  type: "LRN"
  bottom: "pool1"
  top: "norm1"
  lrn_param {
    local_size: 5
    alpha: 0.0001
    beta: 0.75
  }
}
layer {
  name: "conv2"
  type: "Convolution"
  bottom: "norm1"
  top: "conv2"
  param {
    lr_mult: 1
    decay_mult: 1
  }
  param {
    lr_mult: 2
    decay_mult: 0
  }
  convolution_param {
    num_output: 256
    pad: 2
    kernel_size: 5
    group: 2
    weight_filler {
      type: "gaussian"
      std: 0.01
    }
    bias_filler {
      type: "constant"
      value: 1
    }
  }
}
layer {
  name: "relu2"
  type: "ReLU"
  bottom: "conv2"
  top: "conv2"
}
layer {
  name: "pool2"
  type: "Pooling"
  bottom: "conv2"
  top: "pool2"
  pooling_param {
    pool: MAX
    kernel_size: 3
    stride: 2
  }
}
layer {
  name: "norm2"
  type: "LRN"
  bottom: "pool2"
  top: "norm2"
  lrn_param {
    local_size: 5
    alpha: 0.0001
    beta: 0.75
  }
}
layer {
  name: "conv3"
  type: "Convolution"
  bottom: "norm2"
  top: "conv3"
  param {
    lr_mult: 1
    decay_mult: 1
  }
  param {
    lr_mult: 2
    decay_mult: 0
  }
  convolution_param {
    num_output: 384
    pad: 1
    kernel_size: 3
    weight_filler {
      type: "gaussian"
      std: 0.01
    }
    bias_filler {
      type: "constant"
      value: 0
    }
  }
}
layer {
  name: "relu3"
  type: "ReLU"
  bottom: "conv3"
  top: "conv3"
}
layer {
  name: "conv4"
  type: "Convolution"
  bottom: "conv3"
  top: "conv4"
  param {
    lr_mult: 1
    decay_mult: 1
  }
  param {
    lr_mult: 2
    decay_mult: 0
  }
  convolution_param {
    num_output: 384
    pad: 1
    kernel_size: 3
    group: 2
    weight_filler {
      type: "gaussian"
      std: 0.01
    }
    bias_filler {
      type: "constant"
      value: 1
    }
  }
}
layer {
  name: "relu4"
  type: "ReLU"
  bottom: "conv4"
  top: "conv4"
}
layer {
  name: "conv5"
  type: "Convolution"
  bottom: "conv4"
  top: "conv5"
  param {
    lr_mult: 1
    decay_mult: 1
  }
  param {
    lr_mult: 2
    decay_mult: 0
  }
  convolution_param {
    num_output: 256
    pad: 1
    kernel_size: 3
    group: 2
    weight_filler {
      type: "gaussian"
      std: 0.01
    }
    bias_filler {
      type: "constant"
      value: 1
    }
  }
}
layer {
  name: "relu5"
  type: "ReLU"
  bottom: "conv5"
  top: "conv5"
}
layer {
  name: "pool5"
  type: "Pooling"
  bottom: "conv5"
  top: "pool5"
  pooling_param {
    pool: MAX
    kernel_size: 3
    stride: 2
  }
}
layer {
  name: "fc6"
  type: "InnerProduct"
  bottom: "pool5"
  top: "fc6"
  param {
    lr_mult: 1
    decay_mult: 1
  }
  param {
    lr_mult: 2
    decay_mult: 0
  }
  inner_product_param {
    num_output: 4096
    weight_filler {
      type: "gaussian"
      std: 0.005
    }
    bias_filler {
      type: "constant"
      value: 1
    }
  }
}
layer {
  name: "relu6"
  type: "ReLU"
  bottom: "fc6"
  top: "fc6"
}
layer {
  name: "drop6"
  type: "Dropout"
  bottom: "fc6"
  top: "fc6"
  dropout_param {
    dropout_ratio: 0.5
  }
}
layer {
  name: "fc7"
  type: "InnerProduct"
  bottom: "fc6"
  top: "fc7"
  param {
    lr_mult: 1
    decay_mult: 1
  }
  param {
    lr_mult: 2
    decay_mult: 0
  }
  inner_product_param {
    num_output: 4096
    weight_filler {
      type: "gaussian"
      std: 0.005
    }
    bias_filler {
      type: "constant"
      value: 1
    }
  }
}
layer {
  name: "relu7"
  type: "ReLU"
  bottom: "fc7"
  top: "fc7"
}
layer {
  name: "drop7"
  type: "Dropout"
  bottom: "fc7"
  top: "fc7"
  dropout_param {
    dropout_ratio: 0.5
  }
}
layer {
  name: "fc_scv_picturesque"
  type: "InnerProduct"
  bottom: "fc7"
  top: "fc_scv_picturesque"
  param {
    lr_mult: 10
    decay_mult: 1
  }
  param {
    lr_mult: 20
    decay_mult: 0
  }
  inner_product_param {
    num_output: 1
    weight_filler {
      type: "xavier"
      std: 0.01
    }
    bias_filler {
      type: "constant"
      value: 0
    }
  }
}
layer {
  name: "loss"
  type: "EuclideanLoss"
  bottom: "fc_scv_picturesque"
  bottom: "label"
  top: "loss"
}
I1130 21:08:36.558648 27671 layer_factory.hpp:77] Creating layer data
I1130 21:08:36.594638 27671 db_lmdb.cpp:35] Opened lmdb /idiap/temp/lmedina/fine-tuning/data/Picturesque/train_lmdb
I1130 21:08:36.608773 27671 net.cpp:84] Creating Layer data
I1130 21:08:36.608800 27671 net.cpp:380] data -> data
I1130 21:08:36.608822 27671 net.cpp:380] data -> label
I1130 21:08:36.608839 27671 data_transformer.cpp:25] Loading mean file from: /idiap/temp/lmedina/fine-tuning/alexnet_places365/places365CNN_mean.binaryproto
I1130 21:08:36.617312 27671 data_layer.cpp:45] output data size: 32,3,227,227
I1130 21:08:36.651614 27671 net.cpp:122] Setting up data
I1130 21:08:36.651650 27671 net.cpp:129] Top shape: 32 3 227 227 (4946784)
I1130 21:08:36.651656 27671 net.cpp:129] Top shape: 32 (32)
I1130 21:08:36.651659 27671 net.cpp:137] Memory required for data: 19787264
I1130 21:08:36.651669 27671 layer_factory.hpp:77] Creating layer conv1
I1130 21:08:36.651692 27671 net.cpp:84] Creating Layer conv1
I1130 21:08:36.651698 27671 net.cpp:406] conv1 <- data
I1130 21:08:36.651715 27671 net.cpp:380] conv1 -> conv1
I1130 21:08:36.652914 27671 net.cpp:122] Setting up conv1
I1130 21:08:36.652923 27671 net.cpp:129] Top shape: 32 96 55 55 (9292800)
I1130 21:08:36.652926 27671 net.cpp:137] Memory required for data: 56958464
I1130 21:08:36.652938 27671 layer_factory.hpp:77] Creating layer relu1
I1130 21:08:36.652945 27671 net.cpp:84] Creating Layer relu1
I1130 21:08:36.652948 27671 net.cpp:406] relu1 <- conv1
I1130 21:08:36.652952 27671 net.cpp:367] relu1 -> conv1 (in-place)
I1130 21:08:36.652961 27671 net.cpp:122] Setting up relu1
I1130 21:08:36.652966 27671 net.cpp:129] Top shape: 32 96 55 55 (9292800)
I1130 21:08:36.652969 27671 net.cpp:137] Memory required for data: 94129664
I1130 21:08:36.652971 27671 layer_factory.hpp:77] Creating layer pool1
I1130 21:08:36.652978 27671 net.cpp:84] Creating Layer pool1
I1130 21:08:36.652982 27671 net.cpp:406] pool1 <- conv1
I1130 21:08:36.652987 27671 net.cpp:380] pool1 -> pool1
I1130 21:08:36.654770 27671 net.cpp:122] Setting up pool1
I1130 21:08:36.654785 27671 net.cpp:129] Top shape: 32 96 27 27 (2239488)
I1130 21:08:36.654788 27671 net.cpp:137] Memory required for data: 103087616
I1130 21:08:36.654791 27671 layer_factory.hpp:77] Creating layer norm1
I1130 21:08:36.654801 27671 net.cpp:84] Creating Layer norm1
I1130 21:08:36.654805 27671 net.cpp:406] norm1 <- pool1
I1130 21:08:36.654809 27671 net.cpp:380] norm1 -> norm1
I1130 21:08:36.654844 27671 net.cpp:122] Setting up norm1
I1130 21:08:36.654850 27671 net.cpp:129] Top shape: 32 96 27 27 (2239488)
I1130 21:08:36.654855 27671 net.cpp:137] Memory required for data: 112045568
I1130 21:08:36.654856 27671 layer_factory.hpp:77] Creating layer conv2
I1130 21:08:36.654865 27671 net.cpp:84] Creating Layer conv2
I1130 21:08:36.654870 27671 net.cpp:406] conv2 <- norm1
I1130 21:08:36.654875 27671 net.cpp:380] conv2 -> conv2
I1130 21:08:36.658274 27671 net.cpp:122] Setting up conv2
I1130 21:08:36.658293 27671 net.cpp:129] Top shape: 32 256 27 27 (5971968)
I1130 21:08:36.658295 27671 net.cpp:137] Memory required for data: 135933440
I1130 21:08:36.658305 27671 layer_factory.hpp:77] Creating layer relu2
I1130 21:08:36.658313 27671 net.cpp:84] Creating Layer relu2
I1130 21:08:36.658319 27671 net.cpp:406] relu2 <- conv2
I1130 21:08:36.658325 27671 net.cpp:367] relu2 -> conv2 (in-place)
I1130 21:08:36.658332 27671 net.cpp:122] Setting up relu2
I1130 21:08:36.658337 27671 net.cpp:129] Top shape: 32 256 27 27 (5971968)
I1130 21:08:36.658340 27671 net.cpp:137] Memory required for data: 159821312
I1130 21:08:36.658344 27671 layer_factory.hpp:77] Creating layer pool2
I1130 21:08:36.658349 27671 net.cpp:84] Creating Layer pool2
I1130 21:08:36.658352 27671 net.cpp:406] pool2 <- conv2
I1130 21:08:36.658355 27671 net.cpp:380] pool2 -> pool2
I1130 21:08:36.658386 27671 net.cpp:122] Setting up pool2
I1130 21:08:36.658392 27671 net.cpp:129] Top shape: 32 256 13 13 (1384448)
I1130 21:08:36.658396 27671 net.cpp:137] Memory required for data: 165359104
I1130 21:08:36.658398 27671 layer_factory.hpp:77] Creating layer norm2
I1130 21:08:36.658406 27671 net.cpp:84] Creating Layer norm2
I1130 21:08:36.658409 27671 net.cpp:406] norm2 <- pool2
I1130 21:08:36.658413 27671 net.cpp:380] norm2 -> norm2
I1130 21:08:36.658438 27671 net.cpp:122] Setting up norm2
I1130 21:08:36.658444 27671 net.cpp:129] Top shape: 32 256 13 13 (1384448)
I1130 21:08:36.658447 27671 net.cpp:137] Memory required for data: 170896896
I1130 21:08:36.658450 27671 layer_factory.hpp:77] Creating layer conv3
I1130 21:08:36.658458 27671 net.cpp:84] Creating Layer conv3
I1130 21:08:36.658463 27671 net.cpp:406] conv3 <- norm2
I1130 21:08:36.658468 27671 net.cpp:380] conv3 -> conv3
I1130 21:08:36.666781 27671 net.cpp:122] Setting up conv3
I1130 21:08:36.666793 27671 net.cpp:129] Top shape: 32 384 13 13 (2076672)
I1130 21:08:36.666795 27671 net.cpp:137] Memory required for data: 179203584
I1130 21:08:36.666805 27671 layer_factory.hpp:77] Creating layer relu3
I1130 21:08:36.666811 27671 net.cpp:84] Creating Layer relu3
I1130 21:08:36.666815 27671 net.cpp:406] relu3 <- conv3
I1130 21:08:36.666820 27671 net.cpp:367] relu3 -> conv3 (in-place)
I1130 21:08:36.666826 27671 net.cpp:122] Setting up relu3
I1130 21:08:36.666831 27671 net.cpp:129] Top shape: 32 384 13 13 (2076672)
I1130 21:08:36.666833 27671 net.cpp:137] Memory required for data: 187510272
I1130 21:08:36.666836 27671 layer_factory.hpp:77] Creating layer conv4
I1130 21:08:36.666844 27671 net.cpp:84] Creating Layer conv4
I1130 21:08:36.666847 27671 net.cpp:406] conv4 <- conv3
I1130 21:08:36.666852 27671 net.cpp:380] conv4 -> conv4
I1130 21:08:36.673024 27671 net.cpp:122] Setting up conv4
I1130 21:08:36.673035 27671 net.cpp:129] Top shape: 32 384 13 13 (2076672)
I1130 21:08:36.673038 27671 net.cpp:137] Memory required for data: 195816960
I1130 21:08:36.673044 27671 layer_factory.hpp:77] Creating layer relu4
I1130 21:08:36.673050 27671 net.cpp:84] Creating Layer relu4
I1130 21:08:36.673054 27671 net.cpp:406] relu4 <- conv4
I1130 21:08:36.673058 27671 net.cpp:367] relu4 -> conv4 (in-place)
I1130 21:08:36.673069 27671 net.cpp:122] Setting up relu4
I1130 21:08:36.673074 27671 net.cpp:129] Top shape: 32 384 13 13 (2076672)
I1130 21:08:36.673077 27671 net.cpp:137] Memory required for data: 204123648
I1130 21:08:36.673079 27671 layer_factory.hpp:77] Creating layer conv5
I1130 21:08:36.673087 27671 net.cpp:84] Creating Layer conv5
I1130 21:08:36.673091 27671 net.cpp:406] conv5 <- conv4
I1130 21:08:36.673095 27671 net.cpp:380] conv5 -> conv5
I1130 21:08:36.677301 27671 net.cpp:122] Setting up conv5
I1130 21:08:36.677311 27671 net.cpp:129] Top shape: 32 256 13 13 (1384448)
I1130 21:08:36.677314 27671 net.cpp:137] Memory required for data: 209661440
I1130 21:08:36.677325 27671 layer_factory.hpp:77] Creating layer relu5
I1130 21:08:36.677330 27671 net.cpp:84] Creating Layer relu5
I1130 21:08:36.677335 27671 net.cpp:406] relu5 <- conv5
I1130 21:08:36.677338 27671 net.cpp:367] relu5 -> conv5 (in-place)
I1130 21:08:36.677345 27671 net.cpp:122] Setting up relu5
I1130 21:08:36.677348 27671 net.cpp:129] Top shape: 32 256 13 13 (1384448)
I1130 21:08:36.677351 27671 net.cpp:137] Memory required for data: 215199232
I1130 21:08:36.677354 27671 layer_factory.hpp:77] Creating layer pool5
I1130 21:08:36.677359 27671 net.cpp:84] Creating Layer pool5
I1130 21:08:36.677362 27671 net.cpp:406] pool5 <- conv5
I1130 21:08:36.677366 27671 net.cpp:380] pool5 -> pool5
I1130 21:08:36.677395 27671 net.cpp:122] Setting up pool5
I1130 21:08:36.677402 27671 net.cpp:129] Top shape: 32 256 6 6 (294912)
I1130 21:08:36.677405 27671 net.cpp:137] Memory required for data: 216378880
I1130 21:08:36.677407 27671 layer_factory.hpp:77] Creating layer fc6
I1130 21:08:36.677419 27671 net.cpp:84] Creating Layer fc6
I1130 21:08:36.677423 27671 net.cpp:406] fc6 <- pool5
I1130 21:08:36.677428 27671 net.cpp:380] fc6 -> fc6
I1130 21:08:37.024842 27671 net.cpp:122] Setting up fc6
I1130 21:08:37.024871 27671 net.cpp:129] Top shape: 32 4096 (131072)
I1130 21:08:37.024875 27671 net.cpp:137] Memory required for data: 216903168
I1130 21:08:37.024885 27671 layer_factory.hpp:77] Creating layer relu6
I1130 21:08:37.024895 27671 net.cpp:84] Creating Layer relu6
I1130 21:08:37.024899 27671 net.cpp:406] relu6 <- fc6
I1130 21:08:37.024906 27671 net.cpp:367] relu6 -> fc6 (in-place)
I1130 21:08:37.024919 27671 net.cpp:122] Setting up relu6
I1130 21:08:37.024924 27671 net.cpp:129] Top shape: 32 4096 (131072)
I1130 21:08:37.024926 27671 net.cpp:137] Memory required for data: 217427456
I1130 21:08:37.024930 27671 layer_factory.hpp:77] Creating layer drop6
I1130 21:08:37.024937 27671 net.cpp:84] Creating Layer drop6
I1130 21:08:37.024941 27671 net.cpp:406] drop6 <- fc6
I1130 21:08:37.024945 27671 net.cpp:367] drop6 -> fc6 (in-place)
I1130 21:08:37.024971 27671 net.cpp:122] Setting up drop6
I1130 21:08:37.024976 27671 net.cpp:129] Top shape: 32 4096 (131072)
I1130 21:08:37.024979 27671 net.cpp:137] Memory required for data: 217951744
I1130 21:08:37.024983 27671 layer_factory.hpp:77] Creating layer fc7
I1130 21:08:37.024991 27671 net.cpp:84] Creating Layer fc7
I1130 21:08:37.024994 27671 net.cpp:406] fc7 <- fc6
I1130 21:08:37.024998 27671 net.cpp:380] fc7 -> fc7
I1130 21:08:37.179344 27671 net.cpp:122] Setting up fc7
I1130 21:08:37.179373 27671 net.cpp:129] Top shape: 32 4096 (131072)
I1130 21:08:37.179375 27671 net.cpp:137] Memory required for data: 218476032
I1130 21:08:37.179385 27671 layer_factory.hpp:77] Creating layer relu7
I1130 21:08:37.179395 27671 net.cpp:84] Creating Layer relu7
I1130 21:08:37.179399 27671 net.cpp:406] relu7 <- fc7
I1130 21:08:37.179406 27671 net.cpp:367] relu7 -> fc7 (in-place)
I1130 21:08:37.179415 27671 net.cpp:122] Setting up relu7
I1130 21:08:37.179419 27671 net.cpp:129] Top shape: 32 4096 (131072)
I1130 21:08:37.179422 27671 net.cpp:137] Memory required for data: 219000320
I1130 21:08:37.179425 27671 layer_factory.hpp:77] Creating layer drop7
I1130 21:08:37.179431 27671 net.cpp:84] Creating Layer drop7
I1130 21:08:37.179435 27671 net.cpp:406] drop7 <- fc7
I1130 21:08:37.179438 27671 net.cpp:367] drop7 -> fc7 (in-place)
I1130 21:08:37.179461 27671 net.cpp:122] Setting up drop7
I1130 21:08:37.179474 27671 net.cpp:129] Top shape: 32 4096 (131072)
I1130 21:08:37.179477 27671 net.cpp:137] Memory required for data: 219524608
I1130 21:08:37.179481 27671 layer_factory.hpp:77] Creating layer fc_scv_picturesque
I1130 21:08:37.179487 27671 net.cpp:84] Creating Layer fc_scv_picturesque
I1130 21:08:37.179491 27671 net.cpp:406] fc_scv_picturesque <- fc7
I1130 21:08:37.179497 27671 net.cpp:380] fc_scv_picturesque -> fc_scv_picturesque
I1130 21:08:37.179606 27671 net.cpp:122] Setting up fc_scv_picturesque
I1130 21:08:37.179613 27671 net.cpp:129] Top shape: 32 1 (32)
I1130 21:08:37.179617 27671 net.cpp:137] Memory required for data: 219524736
I1130 21:08:37.179621 27671 layer_factory.hpp:77] Creating layer loss
I1130 21:08:37.179627 27671 net.cpp:84] Creating Layer loss
I1130 21:08:37.179631 27671 net.cpp:406] loss <- fc_scv_picturesque
I1130 21:08:37.179635 27671 net.cpp:406] loss <- label
I1130 21:08:37.179641 27671 net.cpp:380] loss -> loss
I1130 21:08:37.179672 27671 net.cpp:122] Setting up loss
…
I1130 21:08:37.181386 27671 net.cpp:294] The NetState phase (1) differed from the phase (0) specified by a rule in layer data
I1130 21:08:37.181551 27671 net.cpp:51] Initializing net from parameters: 
name: "CaffeNet-Places365-SCV-Picturesque"
state {
  phase: TEST
}
layer {
  name: "data"
  type: "Data"
  top: "data"
  top: "label"
  include {
    phase: TEST
  }
  transform_param {
    mirror: false
    crop_size: 227
    mean_file: "/idiap/temp/lmedina/fine-tuning/alexnet_places365/places365CNN_mean.binaryproto"
  }
  data_param {
    source: "/idiap/temp/lmedina/fine-tuning/data/Picturesque/validation_lmdb"
    batch_size: 32
    backend: LMDB
  }
}
layer {
  name: "conv1"
  type: "Convolution"
  bottom: "data"
  top: "conv1"
  param {
    lr_mult: 1
    decay_mult: 1
  }
  param {
    lr_mult: 2
    decay_mult: 0
  }
  convolution_param {
    num_output: 96
    kernel_size: 11
    stride: 4
    weight_filler {
      type: "gaussian"
      std: 0.01
    }
    bias_filler {
      type: "constant"
      value: 0
    }
  }
}
layer {
  name: "relu1"
  type: "ReLU"
  bottom: "conv1"
  top: "conv1"
}
layer {
  name: "pool1"
  type: "Pooling"
  bottom: "conv1"
  top: "pool1"
  pooling_param {
    pool: MAX
    kernel_size: 3
    stride: 2
  }
}
layer {
  name: "norm1"
  type: "LRN"
  bottom: "pool1"
  top: "norm1"
  lrn_param {
    local_size: 5
    alpha: 0.0001
    beta: 0.75
  }
}
layer {
  name: "conv2"
  type: "Convolution"
  bottom: "norm1"
  top: "conv2"
  param {
    lr_mult: 1
    decay_mult: 1
  }
  param {
    lr_mult: 2
    decay_mult: 0
  }
  convolution_param {
    num_output: 256
    pad: 2
    kernel_size: 5
    group: 2
    weight_filler {
      type: "gaussian"
      std: 0.01
    }
    bias_filler {
      type: "constant"
      value: 1
    }
  }
}
layer {
  name: "relu2"
  type: "ReLU"
  bottom: "conv2"
  top: "conv2"
}
layer {
  name: "pool2"
  type: "Pooling"
  bottom: "conv2"
  top: "pool2"
  pooling_param {
    pool: MAX
    kernel_size: 3
    stride: 2
  }
}
layer {
  name: "norm2"
  type: "LRN"
  bottom: "pool2"
  top: "norm2"
  lrn_param {
    local_size: 5
    alpha: 0.0001
    beta: 0.75
  }
}
layer {
  name: "conv3"
  type: "Convolution"
  bottom: "norm2"
  top: "conv3"
  param {
    lr_mult: 1
    decay_mult: 1
  }
  param {
    lr_mult: 2
    decay_mult: 0
  }
  convolution_param {
    num_output: 384
    pad: 1
    kernel_size: 3
    weight_filler {
      type: "gaussian"
      std: 0.01
    }
    bias_filler {
      type: "constant"
      value: 0
    }
  }
}
layer {
  name: "relu3"
  type: "ReLU"
  bottom: "conv3"
  top: "conv3"
}
layer {
  name: "conv4"
  type: "Convolution"
  bottom: "conv3"
  top: "conv4"
  param {
    lr_mult: 1
    decay_mult: 1
  }
  param {
    lr_mult: 2
    decay_mult: 0
  }
  convolution_param {
    num_output: 384
    pad: 1
    kernel_size: 3
    group: 2
    weight_filler {
      type: "gaussian"
      std: 0.01
    }
    bias_filler {
      type: "constant"
      value: 1
    }
  }
}
layer {
  name: "relu4"
  type: "ReLU"
  bottom: "conv4"
  top: "conv4"
}
layer {
  name: "conv5"
  type: "Convolution"
  bottom: "conv4"
  top: "conv5"
  param {
    lr_mult: 1
    decay_mult: 1
  }
  param {
    lr_mult: 2
    decay_mult: 0
  }
  convolution_param {
    num_output: 256
    pad: 1
    kernel_size: 3
    group: 2
    weight_filler {
      type: "gaussian"
      std: 0.01
    }
    bias_filler {
      type: "constant"
      value: 1
    }
  }
}
layer {
  name: "relu5"
  type: "ReLU"
  bottom: "conv5"
  top: "conv5"
}
layer {
  name: "pool5"
  type: "Pooling"
  bottom: "conv5"
  top: "pool5"
  pooling_param {
    pool: MAX
    kernel_size: 3
    stride: 2
  }
}
layer {
  name: "fc6"
  type: "InnerProduct"
  bottom: "pool5"
  top: "fc6"
  param {
    lr_mult: 1
    decay_mult: 1
  }
  param {
    lr_mult: 2
    decay_mult: 0
  }
  inner_product_param {
    num_output: 4096
    weight_filler {
      type: "gaussian"
      std: 0.005
    }
    bias_filler {
      type: "constant"
      value: 1
    }
  }
}
layer {
  name: "relu6"
  type: "ReLU"
  bottom: "fc6"
  top: "fc6"
}
layer {
  name: "drop6"
  type: "Dropout"
  bottom: "fc6"
  top: "fc6"
  dropout_param {
    dropout_ratio: 0.5
  }
}
layer {
  name: "fc7"
  type: "InnerProduct"
  bottom: "fc6"
  top: "fc7"
  param {
    lr_mult: 1
    decay_mult: 1
  }
  param {
    lr_mult: 2
    decay_mult: 0
  }
  inner_product_param {
    num_output: 4096
    weight_filler {
      type: "gaussian"
      std: 0.005
    }
    bias_filler {
      type: "constant"
      value: 1
    }
  }
}
layer {
  name: "relu7"
  type: "ReLU"
  bottom: "fc7"
  top: "fc7"
}
layer {
  name: "drop7"
  type: "Dropout"
  bottom: "fc7"
  top: "fc7"
  dropout_param {
    dropout_ratio: 0.5
  }
}
layer {
  name: "fc_scv_picturesque"
  type: "InnerProduct"
  bottom: "fc7"
  top: "fc_scv_picturesque"
  param {
    lr_mult: 10
    decay_mult: 1
  }
  param {
    lr_mult: 20
    decay_mult: 0
  }
  inner_product_param {
    num_output: 1
    weight_filler {
      type: "xavier"
      std: 0.01
    }
    bias_filler {
      type: "constant"
      value: 0
    }
  }
}
layer {
  name: "loss"
  type: "EuclideanLoss"
  bottom: "fc_scv_picturesque"
  bottom: "label"
  top: "loss"
}
layer {
  name: "losttest"
  type: "EuclideanLoss"
  bottom: "fc_scv_picturesque"
  bottom: "label"
  top: "losttest"
  include {
    phase: TEST
  }
}
I1130 21:08:37.181648 27671 layer_factory.hpp:77] Creating layer data
I1130 21:08:37.199898 27671 db_lmdb.cpp:35] Opened lmdb /idiap/temp/lmedina/fine-tuning/data/Picturesque/validation_lmdb
I1130 21:08:37.203557 27671 net.cpp:84] Creating Layer data
I1130 21:08:37.203586 27671 net.cpp:380] data -> data
I1130 21:08:37.203595 27671 net.cpp:380] data -> label
I1130 21:08:37.203603 27671 data_transformer.cpp:25] Loading mean file from: /idiap/temp/lmedina/fine-tuning/alexnet_places365/places365CNN_mean.binaryproto
I1130 21:08:37.211810 27671 data_layer.cpp:45] output data size: 32,3,227,227
I1130 21:08:37.252645 27671 net.cpp:122] Setting up data
I1130 21:08:37.252678 27671 net.cpp:129] Top shape: 32 3 227 227 (4946784)
I1130 21:08:37.252686 27671 net.cpp:129] Top shape: 32 (32)
I1130 21:08:37.252688 27671 net.cpp:137] Memory required for data: 19787264
I1130 21:08:37.252694 27671 layer_factory.hpp:77] Creating layer label_data_1_split
I1130 21:08:37.252722 27671 net.cpp:84] Creating Layer label_data_1_split
I1130 21:08:37.252725 27671 net.cpp:406] label_data_1_split <- label
I1130 21:08:37.252732 27671 net.cpp:380] label_data_1_split -> label_data_1_split_0
I1130 21:08:37.252744 27671 net.cpp:380] label_data_1_split -> label_data_1_split_1
I1130 21:08:37.252787 27671 net.cpp:122] Setting up label_data_1_split
I1130 21:08:37.252794 27671 net.cpp:129] Top shape: 32 (32)
I1130 21:08:37.252797 27671 net.cpp:129] Top shape: 32 (32)
I1130 21:08:37.252800 27671 net.cpp:137] Memory required for data: 19787520
I1130 21:08:37.252804 27671 layer_factory.hpp:77] Creating layer conv1
I1130 21:08:37.252817 27671 net.cpp:84] Creating Layer conv1
I1130 21:08:37.252821 27671 net.cpp:406] conv1 <- data
I1130 21:08:37.252826 27671 net.cpp:380] conv1 -> conv1
I1130 21:08:37.253315 27671 net.cpp:122] Setting up conv1
I1130 21:08:37.253324 27671 net.cpp:129] Top shape: 32 96 55 55 (9292800)
I1130 21:08:37.253326 27671 net.cpp:137] Memory required for data: 56958720
I1130 21:08:37.253335 27671 layer_factory.hpp:77] Creating layer relu1
I1130 21:08:37.253341 27671 net.cpp:84] Creating Layer relu1
I1130 21:08:37.253343 27671 net.cpp:406] relu1 <- conv1
I1130 21:08:37.253348 27671 net.cpp:367] relu1 -> conv1 (in-place)
I1130 21:08:37.253353 27671 net.cpp:122] Setting up relu1
I1130 21:08:37.253357 27671 net.cpp:129] Top shape: 32 96 55 55 (9292800)
I1130 21:08:37.253360 27671 net.cpp:137] Memory required for data: 94129920
I1130 21:08:37.253362 27671 layer_factory.hpp:77] Creating layer pool1
I1130 21:08:37.253370 27671 net.cpp:84] Creating Layer pool1
I1130 21:08:37.253372 27671 net.cpp:406] pool1 <- conv1
I1130 21:08:37.253376 27671 net.cpp:380] pool1 -> pool1
I1130 21:08:37.253409 27671 net.cpp:122] Setting up pool1
I1130 21:08:37.253415 27671 net.cpp:129] Top shape: 32 96 27 27 (2239488)
I1130 21:08:37.253418 27671 net.cpp:137] Memory required for data: 103087872
I1130 21:08:37.253422 27671 layer_factory.hpp:77] Creating layer norm1
I1130 21:08:37.253428 27671 net.cpp:84] Creating Layer norm1
I1130 21:08:37.253432 27671 net.cpp:406] norm1 <- pool1
I1130 21:08:37.253435 27671 net.cpp:380] norm1 -> norm1
I1130 21:08:37.253475 27671 net.cpp:122] Setting up norm1
I1130 21:08:37.253482 27671 net.cpp:129] Top shape: 32 96 27 27 (2239488)
I1130 21:08:37.253485 27671 net.cpp:137] Memory required for data: 112045824
I1130 21:08:37.253489 27671 layer_factory.hpp:77] Creating layer conv2
I1130 21:08:37.253496 27671 net.cpp:84] Creating Layer conv2
I1130 21:08:37.253502 27671 net.cpp:406] conv2 <- norm1
I1130 21:08:37.253507 27671 net.cpp:380] conv2 -> conv2
I1130 21:08:37.256847 27671 net.cpp:122] Setting up conv2
I1130 21:08:37.256861 27671 net.cpp:129] Top shape: 32 256 27 27 (5971968)
I1130 21:08:37.256865 27671 net.cpp:137] Memory required for data: 135933696
I1130 21:08:37.256876 27671 layer_factory.hpp:77] Creating layer relu2
I1130 21:08:37.256883 27671 net.cpp:84] Creating Layer relu2
I1130 21:08:37.256888 27671 net.cpp:406] relu2 <- conv2
I1130 21:08:37.256894 27671 net.cpp:367] relu2 -> conv2 (in-place)
I1130 21:08:37.256902 27671 net.cpp:122] Setting up relu2
I1130 21:08:37.256908 27671 net.cpp:129] Top shape: 32 256 27 27 (5971968)
I1130 21:08:37.256911 27671 net.cpp:137] Memory required for data: 159821568
I1130 21:08:37.256914 27671 layer_factory.hpp:77] Creating layer pool2
I1130 21:08:37.256922 27671 net.cpp:84] Creating Layer pool2
I1130 21:08:37.256927 27671 net.cpp:406] pool2 <- conv2
I1130 21:08:37.256932 27671 net.cpp:380] pool2 -> pool2
I1130 21:08:37.256969 27671 net.cpp:122] Setting up pool2
I1130 21:08:37.256978 27671 net.cpp:129] Top shape: 32 256 13 13 (1384448)
I1130 21:08:37.256983 27671 net.cpp:137] Memory required for data: 165359360
I1130 21:08:37.256985 27671 layer_factory.hpp:77] Creating layer norm2
I1130 21:08:37.256991 27671 net.cpp:84] Creating Layer norm2
I1130 21:08:37.256995 27671 net.cpp:406] norm2 <- pool2
I1130 21:08:37.257001 27671 net.cpp:380] norm2 -> norm2
I1130 21:08:37.257033 27671 net.cpp:122] Setting up norm2
I1130 21:08:37.257040 27671 net.cpp:129] Top shape: 32 256 13 13 (1384448)
I1130 21:08:37.257045 27671 net.cpp:137] Memory required for data: 170897152
I1130 21:08:37.257047 27671 layer_factory.hpp:77] Creating layer conv3
I1130 21:08:37.257057 27671 net.cpp:84] Creating Layer conv3
I1130 21:08:37.257061 27671 net.cpp:406] conv3 <- norm2
I1130 21:08:37.257067 27671 net.cpp:380] conv3 -> conv3
I1130 21:08:37.266887 27671 net.cpp:122] Setting up conv3
I1130 21:08:37.266911 27671 net.cpp:129] Top shape: 32 384 13 13 (2076672)
I1130 21:08:37.266914 27671 net.cpp:137] Memory required for data: 179203840
I1130 21:08:37.266928 27671 layer_factory.hpp:77] Creating layer relu3
I1130 21:08:37.266938 27671 net.cpp:84] Creating Layer relu3
I1130 21:08:37.266943 27671 net.cpp:406] relu3 <- conv3
I1130 21:08:37.266952 27671 net.cpp:367] relu3 -> conv3 (in-place)
I1130 21:08:37.266961 27671 net.cpp:122] Setting up relu3
I1130 21:08:37.266966 27671 net.cpp:129] Top shape: 32 384 13 13 (2076672)
I1130 21:08:37.266970 27671 net.cpp:137] Memory required for data: 187510528
I1130 21:08:37.266973 27671 layer_factory.hpp:77] Creating layer conv4
I1130 21:08:37.266983 27671 net.cpp:84] Creating Layer conv4
I1130 21:08:37.266988 27671 net.cpp:406] conv4 <- conv3
I1130 21:08:37.266993 27671 net.cpp:380] conv4 -> conv4
I1130 21:08:37.274220 27671 net.cpp:122] Setting up conv4
I1130 21:08:37.274236 27671 net.cpp:129] Top shape: 32 384 13 13 (2076672)
I1130 21:08:37.274240 27671 net.cpp:137] Memory required for data: 195817216
I1130 21:08:37.274247 27671 layer_factory.hpp:77] Creating layer relu4
I1130 21:08:37.274255 27671 net.cpp:84] Creating Layer relu4
I1130 21:08:37.274260 27671 net.cpp:406] relu4 <- conv4
I1130 21:08:37.274266 27671 net.cpp:367] relu4 -> conv4 (in-place)
I1130 21:08:37.274273 27671 net.cpp:122] Setting up relu4
I1130 21:08:37.274278 27671 net.cpp:129] Top shape: 32 384 13 13 (2076672)
I1130 21:08:37.274282 27671 net.cpp:137] Memory required for data: 204123904
I1130 21:08:37.274286 27671 layer_factory.hpp:77] Creating layer conv5
I1130 21:08:37.274294 27671 net.cpp:84] Creating Layer conv5
I1130 21:08:37.274298 27671 net.cpp:406] conv5 <- conv4
I1130 21:08:37.274303 27671 net.cpp:380] conv5 -> conv5
I1130 21:08:37.279104 27671 net.cpp:122] Setting up conv5
I1130 21:08:37.279116 27671 net.cpp:129] Top shape: 32 256 13 13 (1384448)
I1130 21:08:37.279119 27671 net.cpp:137] Memory required for data: 209661696
I1130 21:08:37.279131 27671 layer_factory.hpp:77] Creating layer relu5
I1130 21:08:37.279139 27671 net.cpp:84] Creating Layer relu5
I1130 21:08:37.279146 27671 net.cpp:406] relu5 <- conv5
I1130 21:08:37.279152 27671 net.cpp:367] relu5 -> conv5 (in-place)
I1130 21:08:37.279160 27671 net.cpp:122] Setting up relu5
I1130 21:08:37.279165 27671 net.cpp:129] Top shape: 32 256 13 13 (1384448)
I1130 21:08:37.279167 27671 net.cpp:137] Memory required for data: 215199488
I1130 21:08:37.279170 27671 layer_factory.hpp:77] Creating layer pool5
I1130 21:08:37.279178 27671 net.cpp:84] Creating Layer pool5
I1130 21:08:37.279182 27671 net.cpp:406] pool5 <- conv5
I1130 21:08:37.279186 27671 net.cpp:380] pool5 -> pool5
I1130 21:08:37.279222 27671 net.cpp:122] Setting up pool5
I1130 21:08:37.279229 27671 net.cpp:129] Top shape: 32 256 6 6 (294912)
I1130 21:08:37.279233 27671 net.cpp:137] Memory required for data: 216379136
I1130 21:08:37.279237 27671 layer_factory.hpp:77] Creating layer fc6
I1130 21:08:37.279243 27671 net.cpp:84] Creating Layer fc6
I1130 21:08:37.279247 27671 net.cpp:406] fc6 <- pool5
I1130 21:08:37.279253 27671 net.cpp:380] fc6 -> fc6
I1130 21:08:37.627044 27671 net.cpp:122] Setting up fc6
I1130 21:08:37.627074 27671 net.cpp:129] Top shape: 32 4096 (131072)
I1130 21:08:37.627077 27671 net.cpp:137] Memory required for data: 216903424
I1130 21:08:37.627087 27671 layer_factory.hpp:77] Creating layer relu6
I1130 21:08:37.627097 27671 net.cpp:84] Creating Layer relu6
I1130 21:08:37.627101 27671 net.cpp:406] relu6 <- fc6
I1130 21:08:37.627109 27671 net.cpp:367] relu6 -> fc6 (in-place)
I1130 21:08:37.627117 27671 net.cpp:122] Setting up relu6
I1130 21:08:37.627123 27671 net.cpp:129] Top shape: 32 4096 (131072)
I1130 21:08:37.627127 27671 net.cpp:137] Memory required for data: 217427712
I1130 21:08:37.627130 27671 layer_factory.hpp:77] Creating layer drop6
I1130 21:08:37.627136 27671 net.cpp:84] Creating Layer drop6
I1130 21:08:37.627140 27671 net.cpp:406] drop6 <- fc6
I1130 21:08:37.627143 27671 net.cpp:367] drop6 -> fc6 (in-place)
I1130 21:08:37.627167 27671 net.cpp:122] Setting up drop6
I1130 21:08:37.627172 27671 net.cpp:129] Top shape: 32 4096 (131072)
I1130 21:08:37.627176 27671 net.cpp:137] Memory required for data: 217952000
I1130 21:08:37.627178 27671 layer_factory.hpp:77] Creating layer fc7
I1130 21:08:37.627185 27671 net.cpp:84] Creating Layer fc7
I1130 21:08:37.627189 27671 net.cpp:406] fc7 <- fc6
I1130 21:08:37.627193 27671 net.cpp:380] fc7 -> fc7
I1130 21:08:37.780637 27671 net.cpp:122] Setting up fc7
I1130 21:08:37.780666 27671 net.cpp:129] Top shape: 32 4096 (131072)
I1130 21:08:37.780669 27671 net.cpp:137] Memory required for data: 218476288
I1130 21:08:37.780679 27671 layer_factory.hpp:77] Creating layer relu7
I1130 21:08:37.780690 27671 net.cpp:84] Creating Layer relu7
I1130 21:08:37.780694 27671 net.cpp:406] relu7 <- fc7
I1130 21:08:37.780702 27671 net.cpp:367] relu7 -> fc7 (in-place)
I1130 21:08:37.780711 27671 net.cpp:122] Setting up relu7
I1130 21:08:37.780715 27671 net.cpp:129] Top shape: 32 4096 (131072)
I1130 21:08:37.780719 27671 net.cpp:137] Memory required for data: 219000576
I1130 21:08:37.780721 27671 layer_factory.hpp:77] Creating layer drop7
I1130 21:08:37.780728 27671 net.cpp:84] Creating Layer drop7
I1130 21:08:37.780731 27671 net.cpp:406] drop7 <- fc7
I1130 21:08:37.780735 27671 net.cpp:367] drop7 -> fc7 (in-place)
I1130 21:08:37.780760 27671 net.cpp:122] Setting up drop7
I1130 21:08:37.780766 27671 net.cpp:129] Top shape: 32 4096 (131072)
I1130 21:08:37.780768 27671 net.cpp:137] Memory required for data: 219524864
I1130 21:08:37.780771 27671 layer_factory.hpp:77] Creating layer fc_scv_picturesque
I1130 21:08:37.780778 27671 net.cpp:84] Creating Layer fc_scv_picturesque
I1130 21:08:37.780782 27671 net.cpp:406] fc_scv_picturesque <- fc7
I1130 21:08:37.780787 27671 net.cpp:380] fc_scv_picturesque -> fc_scv_picturesque
I1130 21:08:37.780891 27671 net.cpp:122] Setting up fc_scv_picturesque
I1130 21:08:37.780899 27671 net.cpp:129] Top shape: 32 1 (32)
I1130 21:08:37.780901 27671 net.cpp:137] Memory required for data: 219524992
I1130 21:08:37.780907 27671 layer_factory.hpp:77] Creating layer fc_scv_picturesque_fc_scv_picturesque_0_split
I1130 21:08:37.780920 27671 net.cpp:84] Creating Layer fc_scv_picturesque_fc_scv_picturesque_0_split
I1130 21:08:37.780923 27671 net.cpp:406] fc_scv_picturesque_fc_scv_picturesque_0_split <- fc_scv_picturesque
I1130 21:08:37.780928 27671 net.cpp:380] fc_scv_picturesque_fc_scv_picturesque_0_split -> fc_scv_picturesque_fc_scv_picturesque_0_split_0
I1130 21:08:37.780933 27671 net.cpp:380] fc_scv_picturesque_fc_scv_picturesque_0_split -> fc_scv_picturesque_fc_scv_picturesque_0_split_1
I1130 21:08:37.780962 27671 net.cpp:122] Setting up fc_scv_picturesque_fc_scv_picturesque_0_split
I1130 21:08:37.780968 27671 net.cpp:129] Top shape: 32 1 (32)
I1130 21:08:37.780972 27671 net.cpp:129] Top shape: 32 1 (32)
I1130 21:08:37.780975 27671 net.cpp:137] Memory required for data: 219525248
I1130 21:08:37.780978 27671 layer_factory.hpp:77] Creating layer loss
I1130 21:08:37.780983 27671 net.cpp:84] Creating Layer loss
I1130 21:08:37.780987 27671 net.cpp:406] loss <- fc_scv_picturesque_fc_scv_picturesque_0_split_0
I1130 21:08:37.780990 27671 net.cpp:406] loss <- label_data_1_split_0
I1130 21:08:37.780995 27671 net.cpp:380] loss -> loss
…
