…
I1130 10:20:52.520612 30034 net.cpp:294] The NetState phase (0) differed from the phase (1) specified by a rule in layer losstest
I1130 10:20:52.521318 30034 net.cpp:51] Initializing net from parameters: 
name: "GoogleNet-Places365-SCV-Dirty"
state {
  phase: TRAIN
  level: 0
  stage: ""
}
layer {
  name: "data"
  type: "Data"
  top: "data"
  top: "label"
  include {
    phase: TRAIN
  }
  transform_param {
    mirror: true
    crop_size: 224
    mean_file: "/idiap/temp/lmedina/fine-tuning/googlenet_places365/places365CNN_mean.binaryproto"
  }
  data_param {
    source: "/idiap/temp/lmedina/fine-tuning/data/Dirty/train_lmdb"
    batch_size: 32
    backend: LMDB
  }
}
layer {
  name: "conv1/7x7_s2"
  type: "Convolution"
  bottom: "data"
  top: "conv1/7x7_s2"
  param {
    lr_mult: 1
    decay_mult: 1
  }
  param {
    lr_mult: 2
    decay_mult: 0
  }
  convolution_param {
    num_output: 64
    pad: 3
    kernel_size: 7
    stride: 2
    weight_filler {
      type: "xavier"
      std: 0.1
    }
    bias_filler {
      type: "constant"
      value: 0.2
    }
  }
}
layer {
  name: "conv1/relu_7x7"
  type: "ReLU"
  bottom: "conv1/7x7_s2"
  top: "conv1/7x7_s2"
}
layer {
  name: "pool1/3x3_s2"
  type: "Pooling"
  bottom: "conv1/7x7_s2"
  top: "pool1/3x3_s2"
  pooling_param {
    pool: MAX
    kernel_size: 3
    stride: 2
  }
}
layer {
  name: "pool1/norm1"
  type: "LRN"
  bottom: "pool1/3x3_s2"
  top: "pool1/norm1"
  lrn_param {
    local_size: 5
    alpha: 0.0001
    beta: 0.75
  }
}
layer {
  name: "conv2/3x3_reduce"
  type: "Convolution"
  bottom: "pool1/norm1"
  top: "conv2/3x3_reduce"
  param {
    lr_mult: 1
    decay_mult: 1
  }
  param {
    lr_mult: 2
    decay_mult: 0
  }
  convolution_param {
    num_output: 64
    kernel_size: 1
    weight_filler {
      type: "xavier"
      std: 0.1
    }
    bias_filler {
      type: "constant"
      value: 0.2
    }
  }
}
layer {
  name: "conv2/relu_3x3_reduce"
  type: "ReLU"
  bottom: "conv2/3x3_reduce"
  top: "conv2/3x3_reduce"
}
layer {
  name: "conv2/3x3"
  type: "Convolution"
  bottom: "conv2/3x3_reduce"
  top: "conv2/3x3"
  param {
    lr_mult: 1
    decay_mult: 1
  }
  param {
    lr_mult: 2
    decay_mult: 0
  }
  convolution_param {
    num_output: 192
    pad: 1
    kernel_size: 3
    weight_filler {
      type: "xavier"
      std: 0.03
    }
    bias_filler {
      type: "constant"
      value: 0.2
    }
  }
}
layer {
  name: "conv2/relu_3x3"
  type: "ReLU"
  bottom: "conv2/3x3"
  top: "conv2/3x3"
}
layer {
  name: "conv2/norm2"
  type: "LRN"
  bottom: "conv2/3x3"
  top: "conv2/norm2"
  lrn_param {
    local_size: 5
    alpha: 0.0001
    beta: 0.75
  }
}
layer {
  name: "pool2/3x3_s2"
  type: "Pooling"
  bottom: "conv2/norm2"
  top: "pool2/3x3_s2"
  pooling_param {
    pool: MAX
    kernel_size: 3
    stride: 2
  }
}
layer {
  name: "inception_3a/1x1"
  type: "Convolution"
  bottom: "pool2/3x3_s2"
  top: "inception_3a/1x1"
  param {
    lr_mult: 1
    decay_mult: 1
  }
  param {
    lr_mult: 2
    decay_mult: 0
  }
  convolution_param {
    num_output: 64
    kernel_size: 1
    weight_filler {
      type: "xavier"
      std: 0.03
    }
    bias_filler {
      type: "constant"
      value: 0.2
    }
  }
}
layer {
  name: "inception_3a/relu_1x1"
  type: "ReLU"
  bottom: "inception_3a/1x1"
  top: "inception_3a/1x1"
}
layer {
  name: "inception_3a/3x3_reduce"
  type: "Convolution"
  bottom: "pool2/3x3_s2"
  top: "inception_3a/3x3_reduce"
  param {
    lr_mult: 1
    decay_mult: 1
  }
  param {
    lr_mult: 2
    decay_mult: 0
  }
  convolution_param {
    num_output: 96
    kernel_size: 1
    weight_filler {
      type: "xavier"
      std: 0.09
    }
    bias_filler {
      type: "constant"
      value: 0.2
    }
  }
}
layer {
  name: "inception_3a/relu_3x3_reduce"
  type: "ReLU"
  bottom: "inception_3a/3x3_reduce"
  top: "inception_3a/3x3_reduce"
}
layer {
  name: "inception_3a/3x3"
  type: "Convolution"
  bottom: "inception_3a/3x3_reduce"
  top: "inception_3a/3x3"
  param {
    lr_mult: 1
    decay_mult: 1
  }
  param {
    lr_mult: 2
    decay_mult: 0
  }
  convolution_param {
    num_output: 128
    pad: 1
    kernel_size: 3
    weight_filler {
      type: "xavier"
      std: 0.03
    }
    bias_filler {
      type: "constant"
      value: 0.2
    }
  }
}
layer {
  name: "inception_3a/relu_3x3"
  type: "ReLU"
  bottom: "inception_3a/3x3"
  top: "inception_3a/3x3"
}
layer {
  name: "inception_3a/5x5_reduce"
  type: "Convolution"
  bottom: "pool2/3x3_s2"
  top: "inception_3a/5x5_reduce"
  param {
    lr_mult: 1
    decay_mult: 1
  }
  param {
    lr_mult: 2
    decay_mult: 0
  }
  convolution_param {
    num_output: 16
    kernel_size: 1
    weight_filler {
      type: "xavier"
      std: 0.2
    }
    bias_filler {
      type: "constant"
      value: 0.2
    }
  }
}
layer {
  name: "inception_3a/relu_5x5_reduce"
  type: "ReLU"
  bottom: "inception_3a/5x5_reduce"
  top: "inception_3a/5x5_reduce"
}
layer {
  name: "inception_3a/5x5"
  type: "Convolution"
  bottom: "inception_3a/5x5_reduce"
  top: "inception_3a/5x5"
  param {
    lr_mult: 1
    decay_mult: 1
  }
  param {
    lr_mult: 2
    decay_mult: 0
  }
  convolution_param {
    num_output: 32
    pad: 2
    kernel_size: 5
    weight_filler {
      type: "xavier"
      std: 0.03
    }
    bias_filler {
      type: "constant"
      value: 0.2
    }
  }
}
layer {
  name: "inception_3a/relu_5x5"
  type: "ReLU"
  bottom: "inception_3a/5x5"
  top: "inception_3a/5x5"
}
layer {
  name: "inception_3a/pool"
  type: "Pooling"
  bottom: "pool2/3x3_s2"
  top: "inception_3a/pool"
  pooling_param {
    pool: MAX
    kernel_size: 3
    stride: 1
    pad: 1
  }
}
layer {
  name: "inception_3a/pool_proj"
  type: "Convolution"
  bottom: "inception_3a/pool"
  top: "inception_3a/pool_proj"
  param {
    lr_mult: 1
    decay_mult: 1
  }
  param {
    lr_mult: 2
    decay_mult: 0
  }
  convolution_param {
    num_output: 32
    kernel_size: 1
    weight_filler {
      type: "xavier"
      std: 0.1
    }
    bias_filler {
      type: "constant"
      value: 0.2
    }
  }
}
layer {
  name: "inception_3a/relu_pool_proj"
  type: "ReLU"
  bottom: "inception_3a/pool_proj"
  top: "inception_3a/pool_proj"
}
layer {
  name: "inception_3a/output"
  type: "Concat"
  bottom: "inception_3a/1x1"
  bottom: "inception_3a/3x3"
  bottom: "inception_3a/5x5"
  bottom: "inception_3a/pool_proj"
  top: "inception_3a/output"
}
layer {
  name: "inception_3b/1x1"
  type: "Convolution"
  bottom: "inception_3a/output"
  top: "inception_3b/1x1"
  param {
    lr_mult: 1
    decay_mult: 1
  }
  param {
    lr_mult: 2
    decay_mult: 0
  }
  convolution_param {
    num_output: 128
    kernel_size: 1
    weight_filler {
      type: "xavier"
      std: 0.03
    }
    bias_filler {
      type: "constant"
      value: 0.2
    }
  }
}
layer {
  name: "inception_3b/relu_1x1"
  type: "ReLU"
  bottom: "inception_3b/1x1"
  top: "inception_3b/1x1"
}
layer {
  name: "inception_3b/3x3_reduce"
  type: "Convolution"
  bottom: "inception_3a/output"
  top: "inception_3b/3x3_reduce"
  param {
    lr_mult: 1
    decay_mult: 1
  }
  param {
    lr_mult: 2
    decay_mult: 0
  }
  convolution_param {
    num_output: 128
    kernel_size: 1
    weight_filler {
      type: "xavier"
      std: 0.09
    }
    bias_filler {
      type: "constant"
      value: 0.2
    }
  }
}
layer {
  name: "inception_3b/relu_3x3_reduce"
  type: "ReLU"
  bottom: "inception_3b/3x3_reduce"
  top: "inception_3b/3x3_reduce"
}
layer {
  name: "inception_3b/3x3"
  type: "Convolution"
  bottom: "inception_3b/3x3_reduce"
  top: "inception_3b/3x3"
  param {
    lr_mult: 1
    decay_mult: 1
  }
  param {
    lr_mult: 2
    decay_mult: 0
  }
  convolution_param {
    num_output: 192
    pad: 1
    kernel_size: 3
    weight_filler {
      type: "xavier"
      std: 0.03
    }
    bias_filler {
      type: "constant"
      value: 0.2
    }
  }
}
layer {
  name: "inception_3b/relu_3x3"
  type: "ReLU"
  bottom: "inception_3b/3x3"
  top: "inception_3b/3x3"
}
layer {
  name: "inception_3b/5x5_reduce"
  type: "Convolution"
  bottom: "inception_3a/output"
  top: "inception_3b/5x5_reduce"
  param {
    lr_mult: 1
    decay_mult: 1
  }
  param {
    lr_mult: 2
    decay_mult: 0
  }
  convolution_param {
    num_output: 32
    kernel_size: 1
    weight_filler {
      type: "xavier"
      std: 0.2
    }
    bias_filler {
      type: "constant"
      value: 0.2
    }
  }
}
layer {
  name: "inception_3b/relu_5x5_reduce"
  type: "ReLU"
  bottom: "inception_3b/5x5_reduce"
  top: "inception_3b/5x5_reduce"
}
layer {
  name: "inception_3b/5x5"
  type: "Convolution"
  bottom: "inception_3b/5x5_reduce"
  top: "inception_3b/5x5"
  param {
    lr_mult: 1
    decay_mult: 1
  }
  param {
    lr_mult: 2
    decay_mult: 0
  }
  convolution_param {
    num_output: 96
    pad: 2
    kernel_size: 5
    weight_filler {
      type: "xavier"
      std: 0.03
    }
    bias_filler {
      type: "constant"
      value: 0.2
    }
  }
}
layer {
  name: "inception_3b/relu_5x5"
  type: "ReLU"
  bottom: "inception_3b/5x5"
  top: "inception_3b/5x5"
}
layer {
  name: "inception_3b/pool"
  type: "Pooling"
  bottom: "inception_3a/output"
  top: "inception_3b/pool"
  pooling_param {
    pool: MAX
    kernel_size: 3
    stride: 1
    pad: 1
  }
}
layer {
  name: "inception_3b/pool_proj"
  type: "Convolution"
  bottom: "inception_3b/pool"
  top: "inception_3b/pool_proj"
  param {
    lr_mult: 1
    decay_mult: 1
  }
  param {
    lr_mult: 2
    decay_mult: 0
  }
  convolution_param {
    num_output: 64
    kernel_size: 1
    weight_filler {
      type: "xavier"
      std: 0.1
    }
    bias_filler {
      type: "constant"
      value: 0.2
    }
  }
}
layer {
  name: "inception_3b/relu_pool_proj"
  type: "ReLU"
  bottom: "inception_3b/pool_proj"
  top: "inception_3b/pool_proj"
}
layer {
  name: "inception_3b/output"
  type: "Concat"
  bottom: "inception_3b/1x1"
  bottom: "inception_3b/3x3"
  bottom: "inception_3b/5x5"
  bottom: "inception_3b/pool_proj"
  top: "inception_3b/output"
}
layer {
  name: "pool3/3x3_s2"
  type: "Pooling"
  bottom: "inception_3b/output"
  top: "pool3/3x3_s2"
  pooling_param {
    pool: MAX
    kernel_size: 3
    stride: 2
  }
}
layer {
  name: "inception_4a/1x1"
  type: "Convolution"
  bottom: "pool3/3x3_s2"
  top: "inception_4a/1x1"
  param {
    lr_mult: 1
    decay_mult: 1
  }
  param {
    lr_mult: 2
    decay_mult: 0
  }
  convolution_param {
    num_output: 192
    kernel_size: 1
    weight_filler {
      type: "xavier"
      std: 0.03
    }
    bias_filler {
      type: "constant"
      value: 0.2
    }
  }
}
layer {
  name: "inception_4a/relu_1x1"
  type: "ReLU"
  bottom: "inception_4a/1x1"
  top: "inception_4a/1x1"
}
layer {
  name: "inception_4a/3x3_reduce"
  type: "Convolution"
  bottom: "pool3/3x3_s2"
  top: "inception_4a/3x3_reduce"
  param {
    lr_mult: 1
    decay_mult: 1
  }
  param {
    lr_mult: 2
    decay_mult: 0
  }
  convolution_param {
    num_output: 96
    kernel_size: 1
    weight_filler {
      type: "xavier"
      std: 0.09
    }
    bias_filler {
      type: "constant"
      value: 0.2
    }
  }
}
layer {
  name: "inception_4a/relu_3x3_reduce"
  type: "ReLU"
  bottom: "inception_4a/3x3_reduce"
  top: "inception_4a/3x3_reduce"
}
layer {
  name: "inception_4a/3x3"
  type: "Convolution"
  bottom: "inception_4a/3x3_reduce"
  top: "inception_4a/3x3"
  param {
    lr_mult: 1
    decay_mult: 1
  }
  param {
    lr_mult: 2
    decay_mult: 0
  }
  convolution_param {
    num_output: 208
    pad: 1
    kernel_size: 3
    weight_filler {
      type: "xavier"
      std: 0.03
    }
    bias_filler {
      type: "constant"
      value: 0.2
    }
  }
}
layer {
  name: "inception_4a/relu_3x3"
  type: "ReLU"
  bottom: "inception_4a/3x3"
  top: "inception_4a/3x3"
}
layer {
  name: "inception_4a/5x5_reduce"
  type: "Convolution"
  bottom: "pool3/3x3_s2"
  top: "inception_4a/5x5_reduce"
  param {
    lr_mult: 1
    decay_mult: 1
  }
  param {
    lr_mult: 2
    decay_mult: 0
  }
  convolution_param {
    num_output: 16
    kernel_size: 1
    weight_filler {
      type: "xavier"
      std: 0.2
    }
    bias_filler {
      type: "constant"
      value: 0.2
    }
  }
}
layer {
  name: "inception_4a/relu_5x5_reduce"
  type: "ReLU"
  bottom: "inception_4a/5x5_reduce"
  top: "inception_4a/5x5_reduce"
}
layer {
  name: "inception_4a/5x5"
  type: "Convolution"
  bottom: "inception_4a/5x5_reduce"
  top: "inception_4a/5x5"
  param {
    lr_mult: 1
    decay_mult: 1
  }
  param {
    lr_mult: 2
    decay_mult: 0
  }
  convolution_param {
    num_output: 48
    pad: 2
    kernel_size: 5
    weight_filler {
      type: "xavier"
      std: 0.03
    }
    bias_filler {
      type: "constant"
      value: 0.2
    }
  }
}
layer {
  name: "inception_4a/relu_5x5"
  type: "ReLU"
  bottom: "inception_4a/5x5"
  top: "inception_4a/5x5"
}
layer {
  name: "inception_4a/pool"
  type: "Pooling"
  bottom: "pool3/3x3_s2"
  top: "inception_4a/pool"
  pooling_param {
    pool: MAX
    kernel_size: 3
    stride: 1
    pad: 1
  }
}
layer {
  name: "inception_4a/pool_proj"
  type: "Convolution"
  bottom: "inception_4a/pool"
  top: "inception_4a/pool_proj"
  param {
    lr_mult: 1
    decay_mult: 1
  }
  param {
    lr_mult: 2
    decay_mult: 0
  }
  convolution_param {
    num_output: 64
    kernel_size: 1
    weight_filler {
      type: "xavier"
      std: 0.1
    }
    bias_filler {
      type: "constant"
      value: 0.2
    }
  }
}
layer {
  name: "inception_4a/relu_pool_proj"
  type: "ReLU"
  bottom: "inception_4a/pool_proj"
  top: "inception_4a/pool_proj"
}
layer {
  name: "inception_4a/output"
  type: "Concat"
  bottom: "inception_4a/1x1"
  bottom: "inception_4a/3x3"
  bottom: "inception_4a/5x5"
  bottom: "inception_4a/pool_proj"
  top: "inception_4a/output"
}
layer {
  name: "inception_4b/1x1"
  type: "Convolution"
  bottom: "inception_4a/output"
  top: "inception_4b/1x1"
  param {
    lr_mult: 1
    decay_mult: 1
  }
  param {
    lr_mult: 2
    decay_mult: 0
  }
  convolution_param {
    num_output: 160
    kernel_size: 1
    weight_filler {
      type: "xavier"
      std: 0.03
    }
    bias_filler {
      type: "constant"
      value: 0.2
    }
  }
}
layer {
  name: "inception_4b/relu_1x1"
  type: "ReLU"
  bottom: "inception_4b/1x1"
  top: "inception_4b/1x1"
}
layer {
  name: "inception_4b/3x3_reduce"
  type: "Convolution"
  bottom: "inception_4a/output"
  top: "inception_4b/3x3_reduce"
  param {
    lr_mult: 1
    decay_mult: 1
  }
  param {
    lr_mult: 2
    decay_mult: 0
  }
  convolution_param {
    num_output: 112
    kernel_size: 1
    weight_filler {
      type: "xavier"
      std: 0.09
    }
    bias_filler {
      type: "constant"
      value: 0.2
    }
  }
}
layer {
  name: "inception_4b/relu_3x3_reduce"
  type: "ReLU"
  bottom: "inception_4b/3x3_reduce"
  top: "inception_4b/3x3_reduce"
}
layer {
  name: "inception_4b/3x3"
  type: "Convolution"
  bottom: "inception_4b/3x3_reduce"
  top: "inception_4b/3x3"
  param {
    lr_mult: 1
    decay_mult: 1
  }
  param {
    lr_mult: 2
    decay_mult: 0
  }
  convolution_param {
    num_output: 224
    pad: 1
    kernel_size: 3
    weight_filler {
      type: "xavier"
      std: 0.03
    }
    bias_filler {
      type: "constant"
      value: 0.2
    }
  }
}
layer {
  name: "inception_4b/relu_3x3"
  type: "ReLU"
  bottom: "inception_4b/3x3"
  top: "inception_4b/3x3"
}
layer {
  name: "inception_4b/5x5_reduce"
  type: "Convolution"
  bottom: "inception_4a/output"
  top: "inception_4b/5x5_reduce"
  param {
    lr_mult: 1
    decay_mult: 1
  }
  param {
    lr_mult: 2
    decay_mult: 0
  }
  convolution_param {
    num_output: 24
    kernel_size: 1
    weight_filler {
      type: "xavier"
      std: 0.2
    }
    bias_filler {
      type: "constant"
      value: 0.2
    }
  }
}
layer {
  name: "inception_4b/relu_5x5_reduce"
  type: "ReLU"
  bottom: "inception_4b/5x5_reduce"
  top: "inception_4b/5x5_reduce"
}
layer {
  name: "inception_4b/5x5"
  type: "Convolution"
  bottom: "inception_4b/5x5_reduce"
  top: "inception_4b/5x5"
  param {
    lr_mult: 1
    decay_mult: 1
  }
  param {
    lr_mult: 2
    decay_mult: 0
  }
  convolution_param {
    num_output: 64
    pad: 2
    kernel_size: 5
    weight_filler {
      type: "xavier"
      std: 0.03
    }
    bias_filler {
      type: "constant"
      value: 0.2
    }
  }
}
layer {
  name: "inception_4b/relu_5x5"
  type: "ReLU"
  bottom: "inception_4b/5x5"
  top: "inception_4b/5x5"
}
layer {
  name: "inception_4b/pool"
  type: "Pooling"
  bottom: "inception_4a/output"
  top: "inception_4b/pool"
  pooling_param {
    pool: MAX
    kernel_size: 3
    stride: 1
    pad: 1
  }
}
layer {
  name: "inception_4b/pool_proj"
  type: "Convolution"
  bottom: "inception_4b/pool"
  top: "inception_4b/pool_proj"
  param {
    lr_mult: 1
    decay_mult: 1
  }
  param {
    lr_mult: 2
    decay_mult: 0
  }
  convolution_param {
    num_output: 64
    kernel_size: 1
    weight_filler {
      type: "xavier"
      std: 0.1
    }
    bias_filler {
      type: "constant"
      value: 0.2
    }
  }
}
layer {
  name: "inception_4b/relu_pool_proj"
  type: "ReLU"
  bottom: "inception_4b/pool_proj"
  top: "inception_4b/pool_proj"
}
layer {
  name: "inception_4b/output"
  type: "Concat"
  bottom: "inception_4b/1x1"
  bottom: "inception_4b/3x3"
  bottom: "inception_4b/5x5"
  bottom: "inception_4b/pool_proj"
  top: "inception_4b/output"
}
layer {
  name: "inception_4c/1x1"
  type: "Convolution"
  bottom: "inception_4b/output"
  top: "inception_4c/1x1"
  param {
    lr_mult: 1
    decay_mult: 1
  }
  param {
    lr_mult: 2
    decay_mult: 0
  }
  convolution_param {
    num_output: 128
    kernel_size: 1
    weight_filler {
      type: "xavier"
      std: 0.03
    }
    bias_filler {
      type: "constant"
      value: 0.2
    }
  }
}
layer {
  name: "inception_4c/relu_1x1"
  type: "ReLU"
  bottom: "inception_4c/1x1"
  top: "inception_4c/1x1"
}
layer {
  name: "inception_4c/3x3_reduce"
  type: "Convolution"
  bottom: "inception_4b/output"
  top: "inception_4c/3x3_reduce"
  param {
    lr_mult: 1
    decay_mult: 1
  }
  param {
    lr_mult: 2
    decay_mult: 0
  }
  convolution_param {
    num_output: 128
    kernel_size: 1
    weight_filler {
      type: "xavier"
      std: 0.09
    }
    bias_filler {
      type: "constant"
      value: 0.2
    }
  }
}
layer {
  name: "inception_4c/relu_3x3_reduce"
  type: "ReLU"
  bottom: "inception_4c/3x3_reduce"
  top: "inception_4c/3x3_reduce"
}
layer {
  name: "inception_4c/3x3"
  type: "Convolution"
  bottom: "inception_4c/3x3_reduce"
  top: "inception_4c/3x3"
  param {
    lr_mult: 1
    decay_mult: 1
  }
  param {
    lr_mult: 2
    decay_mult: 0
  }
  convolution_param {
    num_output: 256
    pad: 1
    kernel_size: 3
    weight_filler {
      type: "xavier"
      std: 0.03
    }
    bias_filler {
      type: "constant"
      value: 0.2
    }
  }
}
layer {
  name: "inception_4c/relu_3x3"
  type: "ReLU"
  bottom: "inception_4c/3x3"
  top: "inception_4c/3x3"
}
layer {
  name: "inception_4c/5x5_reduce"
  type: "Convolution"
  bottom: "inception_4b/output"
  top: "inception_4c/5x5_reduce"
  param {
    lr_mult: 1
    decay_mult: 1
  }
  param {
    lr_mult: 2
    decay_mult: 0
  }
  convolution_param {
    num_output: 24
    kernel_size: 1
    weight_filler {
      type: "xavier"
      std: 0.2
    }
    bias_filler {
      type: "constant"
      value: 0.2
    }
  }
}
layer {
  name: "inception_4c/relu_5x5_reduce"
  type: "ReLU"
  bottom: "inception_4c/5x5_reduce"
  top: "inception_4c/5x5_reduce"
}
layer {
  name: "inception_4c/5x5"
  type: "Convolution"
  bottom: "inception_4c/5x5_reduce"
  top: "inception_4c/5x5"
  param {
    lr_mult: 1
    decay_mult: 1
  }
  param {
    lr_mult: 2
    decay_mult: 0
  }
  convolution_param {
    num_output: 64
    pad: 2
    kernel_size: 5
    weight_filler {
      type: "xavier"
      std: 0.03
    }
    bias_filler {
      type: "constant"
      value: 0.2
    }
  }
}
layer {
  name: "inception_4c/relu_5x5"
  type: "ReLU"
  bottom: "inception_4c/5x5"
  top: "inception_4c/5x5"
}
layer {
  name: "inception_4c/pool"
  type: "Pooling"
  bottom: "inception_4b/output"
  top: "inception_4c/pool"
  pooling_param {
    pool: MAX
    kernel_size: 3
    stride: 1
    pad: 1
  }
}
layer {
  name: "inception_4c/pool_proj"
  type: "Convolution"
  bottom: "inception_4c/pool"
  top: "inception_4c/pool_proj"
  param {
    lr_mult: 1
    decay_mult: 1
  }
  param {
    lr_mult: 2
    decay_mult: 0
  }
  convolution_param {
    num_output: 64
    kernel_size: 1
    weight_filler {
      type: "xavier"
      std: 0.1
    }
    bias_filler {
      type: "constant"
      value: 0.2
    }
  }
}
layer {
  name: "inception_4c/relu_pool_proj"
  type: "ReLU"
  bottom: "inception_4c/pool_proj"
  top: "inception_4c/pool_proj"
}
layer {
  name: "inception_4c/output"
  type: "Concat"
  bottom: "inception_4c/1x1"
  bottom: "inception_4c/3x3"
  bottom: "inception_4c/5x5"
  bottom: "inception_4c/pool_proj"
  top: "inception_4c/output"
}
layer {
  name: "inception_4d/1x1"
  type: "Convolution"
  bottom: "inception_4c/output"
  top: "inception_4d/1x1"
  param {
    lr_mult: 1
    decay_mult: 1
  }
  param {
    lr_mult: 2
    decay_mult: 0
  }
  convolution_param {
    num_output: 112
    kernel_size: 1
    weight_filler {
      type: "xavier"
      std: 0.03
    }
    bias_filler {
      type: "constant"
      value: 0.2
    }
  }
}
layer {
  name: "inception_4d/relu_1x1"
  type: "ReLU"
  bottom: "inception_4d/1x1"
  top: "inception_4d/1x1"
}
layer {
  name: "inception_4d/3x3_reduce"
  type: "Convolution"
  bottom: "inception_4c/output"
  top: "inception_4d/3x3_reduce"
  param {
    lr_mult: 1
    decay_mult: 1
  }
  param {
    lr_mult: 2
    decay_mult: 0
  }
  convolution_param {
    num_output: 144
    kernel_size: 1
    weight_filler {
      type: "xavier"
      std: 0.09
    }
    bias_filler {
      type: "constant"
      value: 0.2
    }
  }
}
layer {
  name: "inception_4d/relu_3x3_reduce"
  type: "ReLU"
  bottom: "inception_4d/3x3_reduce"
  top: "inception_4d/3x3_reduce"
}
layer {
  name: "inception_4d/3x3"
  type: "Convolution"
  bottom: "inception_4d/3x3_reduce"
  top: "inception_4d/3x3"
  param {
    lr_mult: 1
    decay_mult: 1
  }
  param {
    lr_mult: 2
    decay_mult: 0
  }
  convolution_param {
    num_output: 288
    pad: 1
    kernel_size: 3
    weight_filler {
      type: "xavier"
      std: 0.03
    }
    bias_filler {
      type: "constant"
      value: 0.2
    }
  }
}
layer {
  name: "inception_4d/relu_3x3"
  type: "ReLU"
  bottom: "inception_4d/3x3"
  top: "inception_4d/3x3"
}
layer {
  name: "inception_4d/5x5_reduce"
  type: "Convolution"
  bottom: "inception_4c/output"
  top: "inception_4d/5x5_reduce"
  param {
    lr_mult: 1
    decay_mult: 1
  }
  param {
    lr_mult: 2
    decay_mult: 0
  }
  convolution_param {
    num_output: 32
    kernel_size: 1
    weight_filler {
      type: "xavier"
      std: 0.2
    }
    bias_filler {
      type: "constant"
      value: 0.2
    }
  }
}
layer {
  name: "inception_4d/relu_5x5_reduce"
  type: "ReLU"
  bottom: "inception_4d/5x5_reduce"
  top: "inception_4d/5x5_reduce"
}
layer {
  name: "inception_4d/5x5"
  type: "Convolution"
  bottom: "inception_4d/5x5_reduce"
  top: "inception_4d/5x5"
  param {
    lr_mult: 1
    decay_mult: 1
  }
  param {
    lr_mult: 2
    decay_mult: 0
  }
  convolution_param {
    num_output: 64
    pad: 2
    kernel_size: 5
    weight_filler {
      type: "xavier"
      std: 0.03
    }
    bias_filler {
      type: "constant"
      value: 0.2
    }
  }
}
layer {
  name: "inception_4d/relu_5x5"
  type: "ReLU"
  bottom: "inception_4d/5x5"
  top: "inception_4d/5x5"
}
layer {
  name: "inception_4d/pool"
  type: "Pooling"
  bottom: "inception_4c/output"
  top: "inception_4d/pool"
  pooling_param {
    pool: MAX
    kernel_size: 3
    stride: 1
    pad: 1
  }
}
layer {
  name: "inception_4d/pool_proj"
  type: "Convolution"
  bottom: "inception_4d/pool"
  top: "inception_4d/pool_proj"
  param {
    lr_mult: 1
    decay_mult: 1
  }
  param {
    lr_mult: 2
    decay_mult: 0
  }
  convolution_param {
    num_output: 64
    kernel_size: 1
    weight_filler {
      type: "xavier"
      std: 0.1
    }
    bias_filler {
      type: "constant"
      value: 0.2
    }
  }
}
layer {
  name: "inception_4d/relu_pool_proj"
  type: "ReLU"
  bottom: "inception_4d/pool_proj"
  top: "inception_4d/pool_proj"
}
layer {
  name: "inception_4d/output"
  type: "Concat"
  bottom: "inception_4d/1x1"
  bottom: "inception_4d/3x3"
  bottom: "inception_4d/5x5"
  bottom: "inception_4d/pool_proj"
  top: "inception_4d/output"
}
layer {
  name: "inception_4e/1x1"
  type: "Convolution"
  bottom: "inception_4d/output"
  top: "inception_4e/1x1"
  param {
    lr_mult: 1
    decay_mult: 1
  }
  param {
    lr_mult: 2
    decay_mult: 0
  }
  convolution_param {
    num_output: 256
    kernel_size: 1
    weight_filler {
      type: "xavier"
      std: 0.03
    }
    bias_filler {
      type: "constant"
      value: 0.2
    }
  }
}
layer {
  name: "inception_4e/relu_1x1"
  type: "ReLU"
  bottom: "inception_4e/1x1"
  top: "inception_4e/1x1"
}
layer {
  name: "inception_4e/3x3_reduce"
  type: "Convolution"
  bottom: "inception_4d/output"
  top: "inception_4e/3x3_reduce"
  param {
    lr_mult: 1
    decay_mult: 1
  }
  param {
    lr_mult: 2
    decay_mult: 0
  }
  convolution_param {
    num_output: 160
    kernel_size: 1
    weight_filler {
      type: "xavier"
      std: 0.09
    }
    bias_filler {
      type: "constant"
      value: 0.2
    }
  }
}
layer {
  name: "inception_4e/relu_3x3_reduce"
  type: "ReLU"
  bottom: "inception_4e/3x3_reduce"
  top: "inception_4e/3x3_reduce"
}
layer {
  name: "inception_4e/3x3"
  type: "Convolution"
  bottom: "inception_4e/3x3_reduce"
  top: "inception_4e/3x3"
  param {
    lr_mult: 1
    decay_mult: 1
  }
  param {
    lr_mult: 2
    decay_mult: 0
  }
  convolution_param {
    num_output: 320
    pad: 1
    kernel_size: 3
    weight_filler {
      type: "xavier"
      std: 0.03
    }
    bias_filler {
      type: "constant"
      value: 0.2
    }
  }
}
layer {
  name: "inception_4e/relu_3x3"
  type: "ReLU"
  bottom: "inception_4e/3x3"
  top: "inception_4e/3x3"
}
layer {
  name: "inception_4e/5x5_reduce"
  type: "Convolution"
  bottom: "inception_4d/output"
  top: "inception_4e/5x5_reduce"
  param {
    lr_mult: 1
    decay_mult: 1
  }
  param {
    lr_mult: 2
    decay_mult: 0
  }
  convolution_param {
    num_output: 32
    kernel_size: 1
    weight_filler {
      type: "xavier"
      std: 0.2
    }
    bias_filler {
      type: "constant"
      value: 0.2
    }
  }
}
layer {
  name: "inception_4e/relu_5x5_reduce"
  type: "ReLU"
  bottom: "inception_4e/5x5_reduce"
  top: "inception_4e/5x5_reduce"
}
layer {
  name: "inception_4e/5x5"
  type: "Convolution"
  bottom: "inception_4e/5x5_reduce"
  top: "inception_4e/5x5"
  param {
    lr_mult: 1
    decay_mult: 1
  }
  param {
    lr_mult: 2
    decay_mult: 0
  }
  convolution_param {
    num_output: 128
    pad: 2
    kernel_size: 5
    weight_filler {
      type: "xavier"
      std: 0.03
    }
    bias_filler {
      type: "constant"
      value: 0.2
    }
  }
}
layer {
  name: "inception_4e/relu_5x5"
  type: "ReLU"
  bottom: "inception_4e/5x5"
  top: "inception_4e/5x5"
}
layer {
  name: "inception_4e/pool"
  type: "Pooling"
  bottom: "inception_4d/output"
  top: "inception_4e/pool"
  pooling_param {
    pool: MAX
    kernel_size: 3
    stride: 1
    pad: 1
  }
}
layer {
  name: "inception_4e/pool_proj"
  type: "Convolution"
  bottom: "inception_4e/pool"
  top: "inception_4e/pool_proj"
  param {
    lr_mult: 1
    decay_mult: 1
  }
  param {
    lr_mult: 2
    decay_mult: 0
  }
  convolution_param {
    num_output: 128
    kernel_size: 1
    weight_filler {
      type: "xavier"
      std: 0.1
    }
    bias_filler {
      type: "constant"
      value: 0.2
    }
  }
}
layer {
  name: "inception_4e/relu_pool_proj"
  type: "ReLU"
  bottom: "inception_4e/pool_proj"
  top: "inception_4e/pool_proj"
}
layer {
  name: "inception_4e/output"
  type: "Concat"
  bottom: "inception_4e/1x1"
  bottom: "inception_4e/3x3"
  bottom: "inception_4e/5x5"
  bottom: "inception_4e/pool_proj"
  top: "inception_4e/output"
}
layer {
  name: "pool4/3x3_s2"
  type: "Pooling"
  bottom: "inception_4e/output"
  top: "pool4/3x3_s2"
  pooling_param {
    pool: MAX
    kernel_size: 3
    stride: 2
  }
}
layer {
  name: "inception_5a/1x1"
  type: "Convolution"
  bottom: "pool4/3x3_s2"
  top: "inception_5a/1x1"
  param {
    lr_mult: 1
    decay_mult: 1
  }
  param {
    lr_mult: 2
    decay_mult: 0
  }
  convolution_param {
    num_output: 256
    kernel_size: 1
    weight_filler {
      type: "xavier"
      std: 0.03
    }
    bias_filler {
      type: "constant"
      value: 0.2
    }
  }
}
layer {
  name: "inception_5a/relu_1x1"
  type: "ReLU"
  bottom: "inception_5a/1x1"
  top: "inception_5a/1x1"
}
layer {
  name: "inception_5a/3x3_reduce"
  type: "Convolution"
  bottom: "pool4/3x3_s2"
  top: "inception_5a/3x3_reduce"
  param {
    lr_mult: 1
    decay_mult: 1
  }
  param {
    lr_mult: 2
    decay_mult: 0
  }
  convolution_param {
    num_output: 160
    kernel_size: 1
    weight_filler {
      type: "xavier"
      std: 0.09
    }
    bias_filler {
      type: "constant"
      value: 0.2
    }
  }
}
layer {
  name: "inception_5a/relu_3x3_reduce"
  type: "ReLU"
  bottom: "inception_5a/3x3_reduce"
  top: "inception_5a/3x3_reduce"
}
layer {
  name: "inception_5a/3x3"
  type: "Convolution"
  bottom: "inception_5a/3x3_reduce"
  top: "inception_5a/3x3"
  param {
    lr_mult: 1
    decay_mult: 1
  }
  param {
    lr_mult: 2
    decay_mult: 0
  }
  convolution_param {
    num_output: 320
    pad: 1
    kernel_size: 3
    weight_filler {
      type: "xavier"
      std: 0.03
    }
    bias_filler {
      type: "constant"
      value: 0.2
    }
  }
}
layer {
  name: "inception_5a/relu_3x3"
  type: "ReLU"
  bottom: "inception_5a/3x3"
  top: "inception_5a/3x3"
}
layer {
  name: "inception_5a/5x5_reduce"
  type: "Convolution"
  bottom: "pool4/3x3_s2"
  top: "inception_5a/5x5_reduce"
 
I1130 10:20:52.521833 30034 layer_factory.hpp:77] Creating layer data
I1130 10:20:52.547931 30034 db_lmdb.cpp:35] Opened lmdb /idiap/temp/lmedina/fine-tuning/data/Dirty/train_lmdb
I1130 10:20:52.563316 30034 net.cpp:84] Creating Layer data
I1130 10:20:52.563333 30034 net.cpp:380] data -> data
I1130 10:20:52.563355 30034 net.cpp:380] data -> label
I1130 10:20:52.563371 30034 data_transformer.cpp:25] Loading mean file from: /idiap/temp/lmedina/fine-tuning/googlenet_places365/places365CNN_mean.binaryproto
I1130 10:20:52.571527 30034 data_layer.cpp:45] output data size: 32,3,224,224
I1130 10:20:52.614060 30034 net.cpp:122] Setting up data
I1130 10:20:52.614101 30034 net.cpp:129] Top shape: 32 3 224 224 (4816896)
I1130 10:20:52.614109 30034 net.cpp:129] Top shape: 32 (32)
I1130 10:20:52.614112 30034 net.cpp:137] Memory required for data: 19267712
I1130 10:20:52.614123 30034 layer_factory.hpp:77] Creating layer conv1/7x7_s2
I1130 10:20:52.614150 30034 net.cpp:84] Creating Layer conv1/7x7_s2
I1130 10:20:52.614157 30034 net.cpp:406] conv1/7x7_s2 <- data
I1130 10:20:52.614172 30034 net.cpp:380] conv1/7x7_s2 -> conv1/7x7_s2
I1130 10:20:52.614995 30034 net.cpp:122] Setting up conv1/7x7_s2
I1130 10:20:52.615008 30034 net.cpp:129] Top shape: 32 64 112 112 (25690112)
I1130 10:20:52.615011 30034 net.cpp:137] Memory required for data: 122028160
I1130 10:20:52.615026 30034 layer_factory.hpp:77] Creating layer conv1/relu_7x7
I1130 10:20:52.615034 30034 net.cpp:84] Creating Layer conv1/relu_7x7
I1130 10:20:52.615038 30034 net.cpp:406] conv1/relu_7x7 <- conv1/7x7_s2
I1130 10:20:52.615046 30034 net.cpp:367] conv1/relu_7x7 -> conv1/7x7_s2 (in-place)
I1130 10:20:52.615057 30034 net.cpp:122] Setting up conv1/relu_7x7
I1130 10:20:52.615063 30034 net.cpp:129] Top shape: 32 64 112 112 (25690112)
I1130 10:20:52.615070 30034 net.cpp:137] Memory required for data: 224788608
I1130 10:20:52.615074 30034 layer_factory.hpp:77] Creating layer pool1/3x3_s2
I1130 10:20:52.615082 30034 net.cpp:84] Creating Layer pool1/3x3_s2
I1130 10:20:52.615087 30034 net.cpp:406] pool1/3x3_s2 <- conv1/7x7_s2
I1130 10:20:52.615092 30034 net.cpp:380] pool1/3x3_s2 -> pool1/3x3_s2
I1130 10:20:52.615144 30034 net.cpp:122] Setting up pool1/3x3_s2
I1130 10:20:52.615151 30034 net.cpp:129] Top shape: 32 64 56 56 (6422528)
I1130 10:20:52.615155 30034 net.cpp:137] Memory required for data: 250478720
I1130 10:20:52.615159 30034 layer_factory.hpp:77] Creating layer pool1/norm1
I1130 10:20:52.615170 30034 net.cpp:84] Creating Layer pool1/norm1
I1130 10:20:52.615173 30034 net.cpp:406] pool1/norm1 <- pool1/3x3_s2
I1130 10:20:52.615180 30034 net.cpp:380] pool1/norm1 -> pool1/norm1
I1130 10:20:52.615219 30034 net.cpp:122] Setting up pool1/norm1
I1130 10:20:52.615227 30034 net.cpp:129] Top shape: 32 64 56 56 (6422528)
I1130 10:20:52.615231 30034 net.cpp:137] Memory required for data: 276168832
I1130 10:20:52.615234 30034 layer_factory.hpp:77] Creating layer conv2/3x3_reduce
I1130 10:20:52.615244 30034 net.cpp:84] Creating Layer conv2/3x3_reduce
I1130 10:20:52.615248 30034 net.cpp:406] conv2/3x3_reduce <- pool1/norm1
I1130 10:20:52.615255 30034 net.cpp:380] conv2/3x3_reduce -> conv2/3x3_reduce
I1130 10:20:52.617686 30034 net.cpp:122] Setting up conv2/3x3_reduce
I1130 10:20:52.617705 30034 net.cpp:129] Top shape: 32 64 56 56 (6422528)
I1130 10:20:52.617712 30034 net.cpp:137] Memory required for data: 301858944
I1130 10:20:52.617722 30034 layer_factory.hpp:77] Creating layer conv2/relu_3x3_reduce
I1130 10:20:52.617730 30034 net.cpp:84] Creating Layer conv2/relu_3x3_reduce
I1130 10:20:52.617735 30034 net.cpp:406] conv2/relu_3x3_reduce <- conv2/3x3_reduce
I1130 10:20:52.617743 30034 net.cpp:367] conv2/relu_3x3_reduce -> conv2/3x3_reduce (in-place)
I1130 10:20:52.617751 30034 net.cpp:122] Setting up conv2/relu_3x3_reduce
I1130 10:20:52.617758 30034 net.cpp:129] Top shape: 32 64 56 56 (6422528)
I1130 10:20:52.617761 30034 net.cpp:137] Memory required for data: 327549056
I1130 10:20:52.617764 30034 layer_factory.hpp:77] Creating layer conv2/3x3
I1130 10:20:52.617774 30034 net.cpp:84] Creating Layer conv2/3x3
I1130 10:20:52.617779 30034 net.cpp:406] conv2/3x3 <- conv2/3x3_reduce
I1130 10:20:52.617785 30034 net.cpp:380] conv2/3x3 -> conv2/3x3
I1130 10:20:52.619205 30034 net.cpp:122] Setting up conv2/3x3
I1130 10:20:52.619218 30034 net.cpp:129] Top shape: 32 192 56 56 (19267584)
I1130 10:20:52.619222 30034 net.cpp:137] Memory required for data: 404619392
I1130 10:20:52.619232 30034 layer_factory.hpp:77] Creating layer conv2/relu_3x3
I1130 10:20:52.619241 30034 net.cpp:84] Creating Layer conv2/relu_3x3
I1130 10:20:52.619246 30034 net.cpp:406] conv2/relu_3x3 <- conv2/3x3
I1130 10:20:52.619252 30034 net.cpp:367] conv2/relu_3x3 -> conv2/3x3 (in-place)
I1130 10:20:52.619259 30034 net.cpp:122] Setting up conv2/relu_3x3
I1130 10:20:52.619266 30034 net.cpp:129] Top shape: 32 192 56 56 (19267584)
I1130 10:20:52.619269 30034 net.cpp:137] Memory required for data: 481689728
I1130 10:20:52.619272 30034 layer_factory.hpp:77] Creating layer conv2/norm2
I1130 10:20:52.619279 30034 net.cpp:84] Creating Layer conv2/norm2
I1130 10:20:52.619283 30034 net.cpp:406] conv2/norm2 <- conv2/3x3
I1130 10:20:52.619288 30034 net.cpp:380] conv2/norm2 -> conv2/norm2
I1130 10:20:52.619324 30034 net.cpp:122] Setting up conv2/norm2
I1130 10:20:52.619331 30034 net.cpp:129] Top shape: 32 192 56 56 (19267584)
I1130 10:20:52.619335 30034 net.cpp:137] Memory required for data: 558760064
I1130 10:20:52.619339 30034 layer_factory.hpp:77] Creating layer pool2/3x3_s2
I1130 10:20:52.619346 30034 net.cpp:84] Creating Layer pool2/3x3_s2
I1130 10:20:52.619350 30034 net.cpp:406] pool2/3x3_s2 <- conv2/norm2
I1130 10:20:52.619356 30034 net.cpp:380] pool2/3x3_s2 -> pool2/3x3_s2
I1130 10:20:52.619390 30034 net.cpp:122] Setting up pool2/3x3_s2
I1130 10:20:52.619397 30034 net.cpp:129] Top shape: 32 192 28 28 (4816896)
I1130 10:20:52.619405 30034 net.cpp:137] Memory required for data: 578027648
I1130 10:20:52.619408 30034 layer_factory.hpp:77] Creating layer pool2/3x3_s2_pool2/3x3_s2_0_split
I1130 10:20:52.619416 30034 net.cpp:84] Creating Layer pool2/3x3_s2_pool2/3x3_s2_0_split
I1130 10:20:52.619421 30034 net.cpp:406] pool2/3x3_s2_pool2/3x3_s2_0_split <- pool2/3x3_s2
I1130 10:20:52.619426 30034 net.cpp:380] pool2/3x3_s2_pool2/3x3_s2_0_split -> pool2/3x3_s2_pool2/3x3_s2_0_split_0
I1130 10:20:52.619432 30034 net.cpp:380] pool2/3x3_s2_pool2/3x3_s2_0_split -> pool2/3x3_s2_pool2/3x3_s2_0_split_1
I1130 10:20:52.619439 30034 net.cpp:380] pool2/3x3_s2_pool2/3x3_s2_0_split -> pool2/3x3_s2_pool2/3x3_s2_0_split_2
I1130 10:20:52.619446 30034 net.cpp:380] pool2/3x3_s2_pool2/3x3_s2_0_split -> pool2/3x3_s2_pool2/3x3_s2_0_split_3
I1130 10:20:52.619495 30034 net.cpp:122] Setting up pool2/3x3_s2_pool2/3x3_s2_0_split
I1130 10:20:52.619503 30034 net.cpp:129] Top shape: 32 192 28 28 (4816896)
I1130 10:20:52.619508 30034 net.cpp:129] Top shape: 32 192 28 28 (4816896)
I1130 10:20:52.619513 30034 net.cpp:129] Top shape: 32 192 28 28 (4816896)
I1130 10:20:52.619518 30034 net.cpp:129] Top shape: 32 192 28 28 (4816896)
I1130 10:20:52.619521 30034 net.cpp:137] Memory required for data: 655097984
I1130 10:20:52.619525 30034 layer_factory.hpp:77] Creating layer inception_3a/1x1
I1130 10:20:52.619534 30034 net.cpp:84] Creating Layer inception_3a/1x1
I1130 10:20:52.619539 30034 net.cpp:406] inception_3a/1x1 <- pool2/3x3_s2_pool2/3x3_s2_0_split_0
I1130 10:20:52.619545 30034 net.cpp:380] inception_3a/1x1 -> inception_3a/1x1
I1130 10:20:52.620488 30034 net.cpp:122] Setting up inception_3a/1x1
I1130 10:20:52.620501 30034 net.cpp:129] Top shape: 32 64 28 28 (1605632)
I1130 10:20:52.620506 30034 net.cpp:137] Memory required for data: 661520512
I1130 10:20:52.620513 30034 layer_factory.hpp:77] Creating layer inception_3a/relu_1x1
I1130 10:20:52.620520 30034 net.cpp:84] Creating Layer inception_3a/relu_1x1
I1130 10:20:52.620525 30034 net.cpp:406] inception_3a/relu_1x1 <- inception_3a/1x1
I1130 10:20:52.620532 30034 net.cpp:367] inception_3a/relu_1x1 -> inception_3a/1x1 (in-place)
I1130 10:20:52.620539 30034 net.cpp:122] Setting up inception_3a/relu_1x1
I1130 10:20:52.620544 30034 net.cpp:129] Top shape: 32 64 28 28 (1605632)
I1130 10:20:52.620548 30034 net.cpp:137] Memory required for data: 667943040
I1130 10:20:52.620551 30034 layer_factory.hpp:77] Creating layer inception_3a/3x3_reduce
I1130 10:20:52.620559 30034 net.cpp:84] Creating Layer inception_3a/3x3_reduce
I1130 10:20:52.620564 30034 net.cpp:406] inception_3a/3x3_reduce <- pool2/3x3_s2_pool2/3x3_s2_0_split_1
I1130 10:20:52.620571 30034 net.cpp:380] inception_3a/3x3_reduce -> inception_3a/3x3_reduce
I1130 10:20:52.621320 30034 net.cpp:122] Setting up inception_3a/3x3_reduce
I1130 10:20:52.621332 30034 net.cpp:129] Top shape: 32 96 28 28 (2408448)
I1130 10:20:52.621336 30034 net.cpp:137] Memory required for data: 677576832
I1130 10:20:52.621346 30034 layer_factory.hpp:77] Creating layer inception_3a/relu_3x3_reduce
I1130 10:20:52.621353 30034 net.cpp:84] Creating Layer inception_3a/relu_3x3_reduce
I1130 10:20:52.621358 30034 net.cpp:406] inception_3a/relu_3x3_reduce <- inception_3a/3x3_reduce
I1130 10:20:52.621364 30034 net.cpp:367] inception_3a/relu_3x3_reduce -> inception_3a/3x3_reduce (in-place)
I1130 10:20:52.621372 30034 net.cpp:122] Setting up inception_3a/relu_3x3_reduce
I1130 10:20:52.621377 30034 net.cpp:129] Top shape: 32 96 28 28 (2408448)
I1130 10:20:52.621381 30034 net.cpp:137] Memory required for data: 687210624
I1130 10:20:52.621384 30034 layer_factory.hpp:77] Creating layer inception_3a/3x3
I1130 10:20:52.621395 30034 net.cpp:84] Creating Layer inception_3a/3x3
I1130 10:20:52.621399 30034 net.cpp:406] inception_3a/3x3 <- inception_3a/3x3_reduce
I1130 10:20:52.621407 30034 net.cpp:380] inception_3a/3x3 -> inception_3a/3x3
I1130 10:20:52.622354 30034 net.cpp:122] Setting up inception_3a/3x3
I1130 10:20:52.622364 30034 net.cpp:129] Top shape: 32 128 28 28 (3211264)
I1130 10:20:52.622370 30034 net.cpp:137] Memory required for data: 700055680
I1130 10:20:52.622377 30034 layer_factory.hpp:77] Creating layer inception_3a/relu_3x3
I1130 10:20:52.622383 30034 net.cpp:84] Creating Layer inception_3a/relu_3x3
I1130 10:20:52.622388 30034 net.cpp:406] inception_3a/relu_3x3 <- inception_3a/3x3
I1130 10:20:52.622395 30034 net.cpp:367] inception_3a/relu_3x3 -> inception_3a/3x3 (in-place)
I1130 10:20:52.622401 30034 net.cpp:122] Setting up inception_3a/relu_3x3
I1130 10:20:52.622406 30034 net.cpp:129] Top shape: 32 128 28 28 (3211264)
I1130 10:20:52.622411 30034 net.cpp:137] Memory required for data: 712900736
I1130 10:20:52.622413 30034 layer_factory.hpp:77] Creating layer inception_3a/5x5_reduce
I1130 10:20:52.622421 30034 net.cpp:84] Creating Layer inception_3a/5x5_reduce
I1130 10:20:52.622426 30034 net.cpp:406] inception_3a/5x5_reduce <- pool2/3x3_s2_pool2/3x3_s2_0_split_2
I1130 10:20:52.622433 30034 net.cpp:380] inception_3a/5x5_reduce -> inception_3a/5x5_reduce
I1130 10:20:52.622663 30034 net.cpp:122] Setting up inception_3a/5x5_reduce
I1130 10:20:52.622671 30034 net.cpp:129] Top shape: 32 16 28 28 (401408)
I1130 10:20:52.622675 30034 net.cpp:137] Memory required for data: 714506368
I1130 10:20:52.622681 30034 layer_factory.hpp:77] Creating layer inception_3a/relu_5x5_reduce
I1130 10:20:52.622689 30034 net.cpp:84] Creating Layer inception_3a/relu_5x5_reduce
I1130 10:20:52.622692 30034 net.cpp:406] inception_3a/relu_5x5_reduce <- inception_3a/5x5_reduce
I1130 10:20:52.622699 30034 net.cpp:367] inception_3a/relu_5x5_reduce -> inception_3a/5x5_reduce (in-place)
I1130 10:20:52.622705 30034 net.cpp:122] Setting up inception_3a/relu_5x5_reduce
I1130 10:20:52.622710 30034 net.cpp:129] Top shape: 32 16 28 28 (401408)
I1130 10:20:52.622714 30034 net.cpp:137] Memory required for data: 716112000
I1130 10:20:52.622717 30034 layer_factory.hpp:77] Creating layer inception_3a/5x5
I1130 10:20:52.622725 30034 net.cpp:84] Creating Layer inception_3a/5x5
I1130 10:20:52.622730 30034 net.cpp:406] inception_3a/5x5 <- inception_3a/5x5_reduce
I1130 10:20:52.622736 30034 net.cpp:380] inception_3a/5x5 -> inception_3a/5x5
I1130 10:20:52.623023 30034 net.cpp:122] Setting up inception_3a/5x5
I1130 10:20:52.623033 30034 net.cpp:129] Top shape: 32 32 28 28 (802816)
I1130 10:20:52.623035 30034 net.cpp:137] Memory required for data: 719323264
I1130 10:20:52.623042 30034 layer_factory.hpp:77] Creating layer inception_3a/relu_5x5
I1130 10:20:52.623049 30034 net.cpp:84] Creating Layer inception_3a/relu_5x5
I1130 10:20:52.623052 30034 net.cpp:406] inception_3a/relu_5x5 <- inception_3a/5x5
I1130 10:20:52.623059 30034 net.cpp:367] inception_3a/relu_5x5 -> inception_3a/5x5 (in-place)
I1130 10:20:52.623065 30034 net.cpp:122] Setting up inception_3a/relu_5x5
I1130 10:20:52.623070 30034 net.cpp:129] Top shape: 32 32 28 28 (802816)
I1130 10:20:52.623073 30034 net.cpp:137] Memory required for data: 722534528
I1130 10:20:52.623076 30034 layer_factory.hpp:77] Creating layer inception_3a/pool
I1130 10:20:52.623083 30034 net.cpp:84] Creating Layer inception_3a/pool
I1130 10:20:52.623087 30034 net.cpp:406] inception_3a/pool <- pool2/3x3_s2_pool2/3x3_s2_0_split_3
I1130 10:20:52.623095 30034 net.cpp:380] inception_3a/pool -> inception_3a/pool
I1130 10:20:52.623129 30034 net.cpp:122] Setting up inception_3a/pool
I1130 10:20:52.623136 30034 net.cpp:129] Top shape: 32 192 28 28 (4816896)
I1130 10:20:52.623141 30034 net.cpp:137] Memory required for data: 741802112
I1130 10:20:52.623143 30034 layer_factory.hpp:77] Creating layer inception_3a/pool_proj
I1130 10:20:52.623152 30034 net.cpp:84] Creating Layer inception_3a/pool_proj
I1130 10:20:52.623157 30034 net.cpp:406] inception_3a/pool_proj <- inception_3a/pool
I1130 10:20:52.623163 30034 net.cpp:380] inception_3a/pool_proj -> inception_3a/pool_proj
I1130 10:20:52.623401 30034 net.cpp:122] Setting up inception_3a/pool_proj
I1130 10:20:52.623409 30034 net.cpp:129] Top shape: 32 32 28 28 (802816)
I1130 10:20:52.623414 30034 net.cpp:137] Memory required for data: 745013376
I1130 10:20:52.623423 30034 layer_factory.hpp:77] Creating layer inception_3a/relu_pool_proj
I1130 10:20:52.623432 30034 net.cpp:84] Creating Layer inception_3a/relu_pool_proj
I1130 10:20:52.623437 30034 net.cpp:406] inception_3a/relu_pool_proj <- inception_3a/pool_proj
I1130 10:20:52.623443 30034 net.cpp:367] inception_3a/relu_pool_proj -> inception_3a/pool_proj (in-place)
I1130 10:20:52.623450 30034 net.cpp:122] Setting up inception_3a/relu_pool_proj
I1130 10:20:52.623456 30034 net.cpp:129] Top shape: 32 32 28 28 (802816)
I1130 10:20:52.623459 30034 net.cpp:137] Memory required for data: 748224640
I1130 10:20:52.623462 30034 layer_factory.hpp:77] Creating layer inception_3a/output
I1130 10:20:52.623468 30034 net.cpp:84] Creating Layer inception_3a/output
I1130 10:20:52.623472 30034 net.cpp:406] inception_3a/output <- inception_3a/1x1
I1130 10:20:52.623477 30034 net.cpp:406] inception_3a/output <- inception_3a/3x3
I1130 10:20:52.623482 30034 net.cpp:406] inception_3a/output <- inception_3a/5x5
I1130 10:20:52.623486 30034 net.cpp:406] inception_3a/output <- inception_3a/pool_proj
I1130 10:20:52.623492 30034 net.cpp:380] inception_3a/output -> inception_3a/output
I1130 10:20:52.623517 30034 net.cpp:122] Setting up inception_3a/output
I1130 10:20:52.623524 30034 net.cpp:129] Top shape: 32 256 28 28 (6422528)
I1130 10:20:52.623528 30034 net.cpp:137] Memory required for data: 773914752
I1130 10:20:52.623531 30034 layer_factory.hpp:77] Creating layer inception_3a/output_inception_3a/output_0_split
I1130 10:20:52.623538 30034 net.cpp:84] Creating Layer inception_3a/output_inception_3a/output_0_split
I1130 10:20:52.623543 30034 net.cpp:406] inception_3a/output_inception_3a/output_0_split <- inception_3a/output
I1130 10:20:52.623549 30034 net.cpp:380] inception_3a/output_inception_3a/output_0_split -> inception_3a/output_inception_3a/output_0_split_0
I1130 10:20:52.623556 30034 net.cpp:380] inception_3a/output_inception_3a/output_0_split -> inception_3a/output_inception_3a/output_0_split_1
I1130 10:20:52.623564 30034 net.cpp:380] inception_3a/output_inception_3a/output_0_split -> inception_3a/output_inception_3a/output_0_split_2
I1130 10:20:52.623569 30034 net.cpp:380] inception_3a/output_inception_3a/output_0_split -> inception_3a/output_inception_3a/output_0_split_3
I1130 10:20:52.623618 30034 net.cpp:122] Setting up inception_3a/output_inception_3a/output_0_split
I1130 10:20:52.623626 30034 net.cpp:129] Top shape: 32 256 28 28 (6422528)
I1130 10:20:52.623631 30034 net.cpp:129] Top shape: 32 256 28 28 (6422528)
I1130 10:20:52.623636 30034 net.cpp:129] Top shape: 32 256 28 28 (6422528)
I1130 10:20:52.623641 30034 net.cpp:129] Top shape: 32 256 28 28 (6422528)
I1130 10:20:52.623644 30034 net.cpp:137] Memory required for data: 876675200
I1130 10:20:52.623647 30034 layer_factory.hpp:77] Creating layer inception_3b/1x1
I1130 10:20:52.623656 30034 net.cpp:84] Creating Layer inception_3b/1x1
I1130 10:20:52.623661 30034 net.cpp:406] inception_3b/1x1 <- inception_3a/output_inception_3a/output_0_split_0
I1130 10:20:52.623667 30034 net.cpp:380] inception_3b/1x1 -> inception_3b/1x1
I1130 10:20:52.624091 30034 net.cpp:122] Setting up inception_3b/1x1
I1130 10:20:52.624101 30034 net.cpp:129] Top shape: 32 128 28 28 (3211264)
I1130 10:20:52.624104 30034 net.cpp:137] Memory required for data: 889520256
I1130 10:20:52.624110 30034 layer_factory.hpp:77] Creating layer inception_3b/relu_1x1
I1130 10:20:52.624117 30034 net.cpp:84] Creating Layer inception_3b/relu_1x1
I1130 10:20:52.624121 30034 net.cpp:406] inception_3b/relu_1x1 <- inception_3b/1x1
I1130 10:20:52.624126 30034 net.cpp:367] inception_3b/relu_1x1 -> inception_3b/1x1 (in-place)
I1130 10:20:52.624133 30034 net.cpp:122] Setting up inception_3b/relu_1x1
I1130 10:20:52.624138 30034 net.cpp:129] Top shape: 32 128 28 28 (3211264)
I1130 10:20:52.624142 30034 net.cpp:137] Memory required for data: 902365312
I1130 10:20:52.624145 30034 layer_factory.hpp:77] Creating layer inception_3b/3x3_reduce
I1130 10:20:52.624152 30034 net.cpp:84] Creating Layer inception_3b/3x3_reduce
I1130 10:20:52.624156 30034 net.cpp:406] inception_3b/3x3_reduce <- inception_3a/output_inception_3a/output_0_split_1
I1130 10:20:52.624166 30034 net.cpp:380] inception_3b/3x3_reduce -> inception_3b/3x3_reduce
I1130 10:20:52.624579 30034 net.cpp:122] Setting up inception_3b/3x3_reduce
I1130 10:20:52.624588 30034 net.cpp:129] Top shape: 32 128 28 28 (3211264)
I1130 10:20:52.624593 30034 net.cpp:137] Memory required for data: 915210368
I1130 10:20:52.624598 30034 layer_factory.hpp:77] Creating layer inception_3b/relu_3x3_reduce
I1130 10:20:52.624605 30034 net.cpp:84] Creating Layer inception_3b/relu_3x3_reduce
I1130 10:20:52.624609 30034 net.cpp:406] inception_3b/relu_3x3_reduce <- inception_3b/3x3_reduce
I1130 10:20:52.624615 30034 net.cpp:367] inception_3b/relu_3x3_reduce -> inception_3b/3x3_reduce (in-place)
I1130 10:20:52.624622 30034 net.cpp:122] Setting up inception_3b/relu_3x3_reduce
I1130 10:20:52.624627 30034 net.cpp:129] Top shape: 32 128 28 28 (3211264)
I1130 10:20:52.624630 30034 net.cpp:137] Memory required for data: 928055424
I1130 10:20:52.624634 30034 layer_factory.hpp:77] Creating layer inception_3b/3x3
I1130 10:20:52.624642 30034 net.cpp:84] Creating Layer inception_3b/3x3
I1130 10:20:52.624646 30034 net.cpp:406] inception_3b/3x3 <- inception_3b/3x3_reduce
I1130 10:20:52.624652 30034 net.cpp:380] inception_3b/3x3 -> inception_3b/3x3
I1130 10:20:52.626760 30034 net.cpp:122] Setting up inception_3b/3x3
I1130 10:20:52.626770 30034 net.cpp:129] Top shape: 32 192 28 28 (4816896)
I1130 10:20:52.626775 30034 net.cpp:137] Memory required for data: 947323008
I1130 10:20:52.626781 30034 layer_factory.hpp:77] Creating layer inception_3b/relu_3x3
I1130 10:20:52.626791 30034 net.cpp:84] Creating Layer inception_3b/relu_3x3
I1130 10:20:52.626796 30034 net.cpp:406] inception_3b/relu_3x3 <- inception_3b/3x3
I1130 10:20:52.626801 30034 net.cpp:367] inception_3b/relu_3x3 -> inception_3b/3x3 (in-place)
I1130 10:20:52.626809 30034 net.cpp:122] Setting up inception_3b/relu_3x3
I1130 10:20:52.626814 30034 net.cpp:129] Top shape: 32 192 28 28 (4816896)
I1130 10:20:52.626818 30034 net.cpp:137] Memory required for data: 966590592
I1130 10:20:52.626821 30034 layer_factory.hpp:77] Creating layer inception_3b/5x5_reduce
I1130 10:20:52.626829 30034 net.cpp:84] Creating Layer inception_3b/5x5_reduce
I1130 10:20:52.626833 30034 net.cpp:406] inception_3b/5x5_reduce <- inception_3a/output_inception_3a/output_0_split_2
I1130 10:20:52.626839 30034 net.cpp:380] inception_3b/5x5_reduce -> inception_3b/5x5_reduce
I1130 10:20:52.627099 30034 net.cpp:122] Setting up inception_3b/5x5_reduce
I1130 10:20:52.627107 30034 net.cpp:129] Top shape: 32 32 28 28 (802816)
I1130 10:20:52.627111 30034 net.cpp:137] Memory required for data: 969801856
I1130 10:20:52.627117 30034 layer_factory.hpp:77] Creating layer inception_3b/relu_5x5_reduce
I1130 10:20:52.627123 30034 net.cpp:84] Creating Layer inception_3b/relu_5x5_reduce
I1130 10:20:52.627127 30034 net.cpp:406] inception_3b/relu_5x5_reduce <- inception_3b/5x5_reduce
I1130 10:20:52.627133 30034 net.cpp:367] inception_3b/relu_5x5_reduce -> inception_3b/5x5_reduce (in-place)
I1130 10:20:52.627140 30034 net.cpp:122] Setting up inception_3b/relu_5x5_reduce
I1130 10:20:52.627146 30034 net.cpp:129] Top shape: 32 32 28 28 (802816)
I1130 10:20:52.627149 30034 net.cpp:137] Memory required for data: 973013120
I1130 10:20:52.627152 30034 layer_factory.hpp:77] Creating layer inception_3b/5x5
I1130 10:20:52.627161 30034 net.cpp:84] Creating Layer inception_3b/5x5
I1130 10:20:52.627164 30034 net.cpp:406] inception_3b/5x5 <- inception_3b/5x5_reduce
I1130 10:20:52.627171 30034 net.cpp:380] inception_3b/5x5 -> inception_3b/5x5
I1130 10:20:52.628306 30034 net.cpp:122] Setting up inception_3b/5x5
I1130 10:20:52.628319 30034 net.cpp:129] Top shape: 32 96 28 28 (2408448)
I1130 10:20:52.628322 30034 net.cpp:137] Memory required for data: 982646912
I1130 10:20:52.628329 30034 layer_factory.hpp:77] Creating layer inception_3b/relu_5x5
I1130 10:20:52.628336 30034 net.cpp:84] Creating Layer inception_3b/relu_5x5
I1130 10:20:52.628340 30034 net.cpp:406] inception_3b/relu_5x5 <- inception_3b/5x5
I1130 10:20:52.628350 30034 net.cpp:367] inception_3b/relu_5x5 -> inception_3b/5x5 (in-place)
I1130 10:20:52.628357 30034 net.cpp:122] Setting up inception_3b/relu_5x5
I1130 10:20:52.628362 30034 net.cpp:129] Top shape: 32 96 28 28 (2408448)
I1130 10:20:52.628366 30034 net.cpp:137] Memory required for data: 992280704
I1130 10:20:52.628370 30034 layer_factory.hpp:77] Creating layer inception_3b/pool
I1130 10:20:52.628376 30034 net.cpp:84] Creating Layer inception_3b/pool
I1130 10:20:52.628381 30034 net.cpp:406] inception_3b/pool <- inception_3a/output_inception_3a/output_0_split_3
I1130 10:20:52.628386 30034 net.cpp:380] inception_3b/pool -> inception_3b/pool
I1130 10:20:52.628422 30034 net.cpp:122] Setting up inception_3b/pool
I1130 10:20:52.628428 30034 net.cpp:129] Top shape: 32 256 28 28 (6422528)
I1130 10:20:52.628432 30034 net.cpp:137] Memory required for data: 1017970816
I1130 10:20:52.628435 30034 layer_factory.hpp:77] Creating layer inception_3b/pool_proj
I1130 10:20:52.628444 30034 net.cpp:84] Creating Layer inception_3b/pool_proj
I1130 10:20:52.628448 30034 net.cpp:406] inception_3b/pool_proj <- inception_3b/pool
I1130 10:20:52.628455 30034 net.cpp:380] inception_3b/pool_proj -> inception_3b/pool_proj
I1130 10:20:52.628765 30034 net.cpp:122] Setting up inception_3b/pool_proj
I1130 10:20:52.628774 30034 net.cpp:129] Top shape: 32 64 28 28 (1605632)
I1130 10:20:52.628778 30034 net.cpp:137] Memory required for data: 1024393344
I1130 10:20:52.628784 30034 layer_factory.hpp:77] Creating layer inception_3b/relu_pool_proj
I1130 10:20:52.628792 30034 net.cpp:84] Creating Layer inception_3b/relu_pool_proj
I1130 10:20:52.628795 30034 net.cpp:406] inception_3b/relu_pool_proj <- inception_3b/pool_proj
I1130 10:20:52.628803 30034 net.cpp:367] inception_3b/relu_pool_proj -> inception_3b/pool_proj (in-place)
I1130 10:20:52.628809 30034 net.cpp:122] Setting up inception_3b/relu_pool_proj
I1130 10:20:52.628814 30034 net.cpp:129] Top shape: 32 64 28 28 (1605632)
I1130 10:20:52.628818 30034 net.cpp:137] Memory required for data: 1030815872
I1130 10:20:52.628821 30034 layer_factory.hpp:77] Creating layer inception_3b/output
I1130 10:20:52.628828 30034 net.cpp:84] Creating Layer inception_3b/output
I1130 10:20:52.628831 30034 net.cpp:406] inception_3b/output <- inception_3b/1x1
I1130 10:20:52.628835 30034 net.cpp:406] inception_3b/output <- inception_3b/3x3
I1130 10:20:52.628840 30034 net.cpp:406] inception_3b/output <- inception_3b/5x5
I1130 10:20:52.628845 30034 net.cpp:406] inception_3b/output <- inception_3b/pool_proj
I1130 10:20:52.628850 30034 net.cpp:380] inception_3b/output -> inception_3b/output
I1130 10:20:52.628875 30034 net.cpp:122] Setting up inception_3b/output
I1130 10:20:52.628883 30034 net.cpp:129] Top shape: 32 480 28 28 (12042240)
I1130 10:20:52.628887 30034 net.cpp:137] Memory required for data: 1078984832
I1130 10:20:52.628890 30034 layer_factory.hpp:77] Creating layer pool3/3x3_s2
I1130 10:20:52.628896 30034 net.cpp:84] Creating Layer pool3/3x3_s2
I1130 10:20:52.628901 30034 net.cpp:406] pool3/3x3_s2 <- inception_3b/output
I1130 10:20:52.628906 30034 net.cpp:380] pool3/3x3_s2 -> pool3/3x3_s2
I1130 10:20:52.628938 30034 net.cpp:122] Setting up pool3/3x3_s2
I1130 10:20:52.628945 30034 net.cpp:129] Top shape: 32 480 14 14 (3010560)
I1130 10:20:52.628949 30034 net.cpp:137] Memory required for data: 1091027072
I1130 10:20:52.628952 30034 layer_factory.hpp:77] Creating layer pool3/3x3_s2_pool3/3x3_s2_0_split
I1130 10:20:52.628959 30034 net.cpp:84] Creating Layer pool3/3x3_s2_pool3/3x3_s2_0_split
I1130 10:20:52.628963 30034 net.cpp:406] pool3/3x3_s2_pool3/3x3_s2_0_split <- pool3/3x3_s2
I1130 10:20:52.628968 30034 net.cpp:380] pool3/3x3_s2_pool3/3x3_s2_0_split -> pool3/3x3_s2_pool3/3x3_s2_0_split_0
I1130 10:20:52.628975 30034 net.cpp:380] pool3/3x3_s2_pool3/3x3_s2_0_split -> pool3/3x3_s2_pool3/3x3_s2_0_split_1
I1130 10:20:52.628983 30034 net.cpp:380] pool3/3x3_s2_pool3/3x3_s2_0_split -> pool3/3x3_s2_pool3/3x3_s2_0_split_2
I1130 10:20:52.628989 30034 net.cpp:380] pool3/3x3_s2_pool3/3x3_s2_0_split -> pool3/3x3_s2_pool3/3x3_s2_0_split_3
I1130 10:20:52.629041 30034 net.cpp:122] Setting up pool3/3x3_s2_pool3/3x3_s2_0_split
I1130 10:20:52.629048 30034 net.cpp:129] Top shape: 32 480 14 14 (3010560)
I1130 10:20:52.629053 30034 net.cpp:129] Top shape: 32 480 14 14 (3010560)
I1130 10:20:52.629058 30034 net.cpp:129] Top shape: 32 480 14 14 (3010560)
I1130 10:20:52.629063 30034 net.cpp:129] Top shape: 32 480 14 14 (3010560)
I1130 10:20:52.629066 30034 net.cpp:137] Memory required for data: 1139196032
I1130 10:20:52.629070 30034 layer_factory.hpp:77] Creating layer inception_4a/1x1
I1130 10:20:52.629078 30034 net.cpp:84] Creating Layer inception_4a/1x1
I1130 10:20:52.629083 30034 net.cpp:406] inception_4a/1x1 <- pool3/3x3_s2_pool3/3x3_s2_0_split_0
I1130 10:20:52.629089 30034 net.cpp:380] inception_4a/1x1 -> inception_4a/1x1
I1130 10:20:52.629902 30034 net.cpp:122] Setting up inception_4a/1x1
I1130 10:20:52.629912 30034 net.cpp:129] Top shape: 32 192 14 14 (1204224)
I1130 10:20:52.629915 30034 net.cpp:137] Memory required for data: 1144012928
I1130 10:20:52.629922 30034 layer_factory.hpp:77] Creating layer inception_4a/relu_1x1
I1130 10:20:52.629928 30034 net.cpp:84] Creating Layer inception_4a/relu_1x1
I1130 10:20:52.629932 30034 net.cpp:406] inception_4a/relu_1x1 <- inception_4a/1x1
I1130 10:20:52.629938 30034 net.cpp:367] inception_4a/relu_1x1 -> inception_4a/1x1 (in-place)
I1130 10:20:52.629945 30034 net.cpp:122] Setting up inception_4a/relu_1x1
I1130 10:20:52.629951 30034 net.cpp:129] Top shape: 32 192 14 14 (1204224)
I1130 10:20:52.629953 30034 net.cpp:137] Memory required for data: 1148829824
I1130 10:20:52.629957 30034 layer_factory.hpp:77] Creating layer inception_4a/3x3_reduce
I1130 10:20:52.629966 30034 net.cpp:84] Creating Layer inception_4a/3x3_reduce
I1130 10:20:52.629969 30034 net.cpp:406] inception_4a/3x3_reduce <- pool3/3x3_s2_pool3/3x3_s2_0_split_1
I1130 10:20:52.629976 30034 net.cpp:380] inception_4a/3x3_reduce -> inception_4a/3x3_reduce
I1130 10:20:52.630498 30034 net.cpp:122] Setting up inception_4a/3x3_reduce
I1130 10:20:52.630508 30034 net.cpp:129] Top shape: 32 96 14 14 (602112)
I1130 10:20:52.630512 30034 net.cpp:137] Memory required for data: 1151238272
I1130 10:20:52.630522 30034 layer_factory.hpp:77] Creating layer inception_4a/relu_3x3_reduce
I1130 10:20:52.630529 30034 net.cpp:84] Creating Layer inception_4a/relu_3x3_reduce
I1130 10:20:52.630534 30034 net.cpp:406] inception_4a/relu_3x3_reduce <- inception_4a/3x3_reduce
I1130 10:20:52.630540 30034 net.cpp:367] inception_4a/relu_3x3_reduce -> inception_4a/3x3_reduce (in-place)
I1130 10:20:52.630548 30034 net.cpp:122] Setting up inception_4a/relu_3x3_reduce
I1130 10:20:52.630553 30034 net.cpp:129] Top shape: 32 96 14 14 (602112)
I1130 10:20:52.630556 30034 net.cpp:137] Memory required for data: 1153646720
I1130 10:20:52.630559 30034 layer_factory.hpp:77] Creating layer inception_4a/3x3
I1130 10:20:52.630568 30034 net.cpp:84] Creating Layer inception_4a/3x3
I1130 10:20:52.630573 30034 net.cpp:406] inception_4a/3x3 <- inception_4a/3x3_reduce
I1130 10:20:52.630578 30034 net.cpp:380] inception_4a/3x3 -> inception_4a/3x3
I1130 10:20:52.632288 30034 net.cpp:122] Setting up inception_4a/3x3
I1130 10:20:52.632299 30034 net.cpp:129] Top shape: 32 208 14 14 (1304576)
I1130 10:20:52.632303 30034 net.cpp:137] Memory required for data: 1158865024
I1130 10:20:52.632310 30034 layer_factory.hpp:77] Creating layer inception_4a/relu_3x3
I1130 10:20:52.632318 30034 net.cpp:84] Creating Layer inception_4a/relu_3x3
I1130 10:20:52.632321 30034 net.cpp:406] inception_4a/relu_3x3 <- inception_4a/3x3
I1130 10:20:52.632328 30034 net.cpp:367] inception_4a/relu_3x3 -> inception_4a/3x3 (in-place)
I1130 10:20:52.632334 30034 net.cpp:122] Setting up inception_4a/relu_3x3
I1130 10:20:52.632339 30034 net.cpp:129] Top shape: 32 208 14 14 (1304576)
I1130 10:20:52.632344 30034 net.cpp:137] Memory required for data: 1164083328
I1130 10:20:52.632346 30034 layer_factory.hpp:77] Creating layer inception_4a/5x5_reduce
I1130 10:20:52.632354 30034 net.cpp:84] Creating Layer inception_4a/5x5_reduce
I1130 10:20:52.632360 30034 net.cpp:406] inception_4a/5x5_reduce <- pool3/3x3_s2_pool3/3x3_s2_0_split_2
I1130 10:20:52.632366 30034 net.cpp:380] inception_4a/5x5_reduce -> inception_4a/5x5_reduce
I1130 10:20:52.632618 30034 net.cpp:122] Setting up inception_4a/5x5_reduce
I1130 10:20:52.632627 30034 net.cpp:129] Top shape: 32 16 14 14 (100352)
I1130 10:20:52.632630 30034 net.cpp:137] Memory required for data: 1164484736
I1130 10:20:52.632637 30034 layer_factory.hpp:77] Creating layer inception_4a/relu_5x5_reduce
I1130 10:20:52.632642 30034 net.cpp:84] Creating Layer inception_4a/relu_5x5_reduce
I1130 10:20:52.632647 30034 net.cpp:406] inception_4a/relu_5x5_reduce <- inception_4a/5x5_reduce
I1130 10:20:52.632652 30034 net.cpp:367] inception_4a/relu_5x5_reduce -> inception_4a/5x5_reduce (in-place)
I1130 10:20:52.632659 30034 net.cpp:122] Setting up inception_4a/relu_5x5_reduce
I1130 10:20:52.632664 30034 net.cpp:129] Top shape: 32 16 14 14 (100352)
I1130 10:20:52.632668 30034 net.cpp:137] Memory required for data: 1164886144
I1130 10:20:52.632671 30034 layer_factory.hpp:77] Creating layer inception_4a/5x5
I1130 10:20:52.632679 30034 net.cpp:84] Creating Layer inception_4a/5x5
I1130 10:20:52.632683 30034 net.cpp:406] inception_4a/5x5 <- inception_4a/5x5_reduce
I1130 10:20:52.632688 30034 net.cpp:380] inception_4a/5x5 -> inception_4a/5x5
I1130 10:20:52.633013 30034 net.cpp:122] Setting up inception_4a/5x5
I1130 10:20:52.633023 30034 net.cpp:129] Top shape: 32 48 14 14 (301056)
I1130 10:20:52.633026 30034 net.cpp:137] Memory required for data: 1166090368
I1130 10:20:52.633031 30034 layer_factory.hpp:77] Creating layer inception_4a/relu_5x5
I1130 10:20:52.633038 30034 net.cpp:84] Creating Layer inception_4a/relu_5x5
I1130 10:20:52.633043 30034 net.cpp:406] inception_4a/relu_5x5 <- inception_4a/5x5
I1130 10:20:52.633047 30034 net.cpp:367] inception_4a/relu_5x5 -> inception_4a/5x5 (in-place)
I1130 10:20:52.633054 30034 net.cpp:122] Setting up inception_4a/relu_5x5
I1130 10:20:52.633059 30034 net.cpp:129] Top shape: 32 48 14 14 (301056)
I1130 10:20:52.633062 30034 net.cpp:137] Memory required for data: 1167294592
I1130 10:20:52.633065 30034 layer_factory.hpp:77] Creating layer inception_4a/pool
I1130 10:20:52.633070 30034 net.cpp:84] Creating Layer inception_4a/pool
I1130 10:20:52.633074 30034 net.cpp:406] inception_4a/pool <- pool3/3x3_s2_pool3/3x3_s2_0_split_3
I1130 10:20:52.633080 30034 net.cpp:380] inception_4a/pool -> inception_4a/pool
I1130 10:20:52.633116 30034 net.cpp:122] Setting up inception_4a/pool
I1130 10:20:52.633122 30034 net.cpp:129] Top shape: 32 480 14 14 (3010560)
I1130 10:20:52.633126 30034 net.cpp:137] Memory required for data: 1179336832
I1130 10:20:52.633129 30034 layer_factory.hpp:77] Creating layer inception_4a/pool_proj
I1130 10:20:52.633137 30034 net.cpp:84] Creating Layer inception_4a/pool_proj
I1130 10:20:52.633142 30034 net.cpp:406] inception_4a/pool_proj <- inception_4a/pool
I1130 10:20:52.633159 30034 net.cpp:380] inception_4a/pool_proj -> inception_4a/pool_proj
I1130 10:20:52.633491 30034 net.cpp:122] Setting up inception_4a/pool_proj
I1130 10:20:52.633497 30034 net.cpp:129] Top shape: 32 64 14 14 (401408)
I1130 10:20:52.633500 30034 net.cpp:137] Memory required for data: 1180942464
I1130 10:20:52.633505 30034 layer_factory.hpp:77] Creating layer inception_4a/relu_pool_proj
I1130 10:20:52.633510 30034 net.cpp:84] Creating Layer inception_4a/relu_pool_proj
I1130 10:20:52.633514 30034 net.cpp:406] inception_4a/relu_pool_proj <- inception_4a/pool_proj
I1130 10:20:52.633518 30034 net.cpp:367] inception_4a/relu_pool_proj -> inception_4a/pool_proj (in-place)
I1130 10:20:52.633524 30034 net.cpp:122] Setting up inception_4a/relu_pool_proj
I1130 10:20:52.633528 30034 net.cpp:129] Top shape: 32 64 14 14 (401408)
I1130 10:20:52.633532 30034 net.cpp:137] Memory required for data: 1182548096
I1130 10:20:52.633533 30034 layer_factory.hpp:77] Creating layer inception_4a/output
I1130 10:20:52.633538 30034 net.cpp:84] Creating Layer inception_4a/output
I1130 10:20:52.633541 30034 net.cpp:406] inception_4a/output <- inception_4a/1x1
I1130 10:20:52.633579 30034 net.cpp:406] inception_4a/output <- inception_4a/3x3
I1130 10:20:52.633582 30034 net.cpp:406] inception_4a/output <- inception_4a/5x5
I1130 10:20:52.633586 30034 net.cpp:406] inception_4a/output <- inception_4a/pool_proj
I1130 10:20:52.633591 30034 net.cpp:380] inception_4a/output -> inception_4a/output
I1130 10:20:52.633611 30034 net.cpp:122] Setting up inception_4a/output
I1130 10:20:52.633617 30034 net.cpp:129] Top shape: 32 512 14 14 (3211264)
I1130 10:20:52.633620 30034 net.cpp:137] Memory required for data: 1195393152
I1130 10:20:52.633623 30034 layer_factory.hpp:77] Creating layer inception_4a/output_inception_4a/output_0_split
I1130 10:20:52.633628 30034 net.cpp:84] Creating Layer inception_4a/output_inception_4a/output_0_split
I1130 10:20:52.633631 30034 net.cpp:406] inception_4a/output_inception_4a/output_0_split <- inception_4a/output
I1130 10:20:52.633636 30034 net.cpp:380] inception_4a/output_inception_4a/output_0_split -> inception_4a/output_inception_4a/output_0_split_0
I1130 10:20:52.633641 30034 net.cpp:380] inception_4a/output_inception_4a/output_0_split -> inception_4a/output_inception_4a/output_0_split_1
I1130 10:20:52.633647 30034 net.cpp:380] inception_4a/output_inception_4a/output_0_split -> inception_4a/output_inception_4a/output_0_split_2
I1130 10:20:52.633653 30034 net.cpp:380] inception_4a/output_inception_4a/output_0_split -> inception_4a/output_inception_4a/output_0_split_3
I1130 10:20:52.633693 30034 net.cpp:122] Setting up inception_4a/output_inception_4a/output_0_split
I1130 10:20:52.633699 30034 net.cpp:129] Top shape: 32 512 14 14 (3211264)
I1130 10:20:52.633703 30034 net.cpp:129] Top shape: 32 512 14 14 (3211264)
I1130 10:20:52.633708 30034 net.cpp:129] Top shape: 32 512 14 14 (3211264)
I1130 10:20:52.633711 30034 net.cpp:129] Top shape: 32 512 14 14 (3211264)
I1130 10:20:52.633714 30034 net.cpp:137] Memory required for data: 1246773376
I1130 10:20:52.633718 30034 layer_factory.hpp:77] Creating layer inception_4b/1x1
I1130 10:20:52.633736 30034 net.cpp:84] Creating Layer inception_4b/1x1
I1130 10:20:52.633740 30034 net.cpp:406] inception_4b/1x1 <- inception_4a/output_inception_4a/output_0_split_0
I1130 10:20:52.633746 30034 net.cpp:380] inception_4b/1x1 -> inception_4b/1x1
I1130 10:20:52.634466 30034 net.cpp:122] Setting up inception_4b/1x1
I1130 10:20:52.634476 30034 net.cpp:129] Top shape: 32 160 14 14 (1003520)
I1130 10:20:52.634480 30034 net.cpp:137] Memory required for data: 1250787456
I1130 10:20:52.634486 30034 layer_factory.hpp:77] Creating layer inception_4b/relu_1x1
I1130 10:20:52.634492 30034 net.cpp:84] Creating Layer inception_4b/relu_1x1
I1130 10:20:52.634496 30034 net.cpp:406] inception_4b/relu_1x1 <- inception_4b/1x1
I1130 10:20:52.634501 30034 net.cpp:367] inception_4b/relu_1x1 -> inception_4b/1x1 (in-place)
I1130 10:20:52.634508 30034 net.cpp:122] Setting up inception_4b/relu_1x1
I1130 10:20:52.634513 30034 net.cpp:129] Top shape: 32 160 14 14 (1003520)
I1130 10:20:52.634516 30034 net.cpp:137] Memory required for data: 1254801536
I1130 10:20:52.634521 30034 layer_factory.hpp:77] Creating layer inception_4b/3x3_reduce
I1130 10:20:52.634528 30034 net.cpp:84] Creating Layer inception_4b/3x3_reduce
I1130 10:20:52.634532 30034 net.cpp:406] inception_4b/3x3_reduce <- inception_4a/output_inception_4a/output_0_split_1
I1130 10:20:52.634538 30034 net.cpp:380] inception_4b/3x3_reduce -> inception_4b/3x3_reduce
I1130 10:20:52.635116 30034 net.cpp:122] Setting up inception_4b/3x3_reduce
I1130 10:20:52.635125 30034 net.cpp:129] Top shape: 32 112 14 14 (702464)
I1130 10:20:52.635129 30034 net.cpp:137] Memory required for data: 1257611392
I1130 10:20:52.635135 30034 layer_factory.hpp:77] Creating layer inception_4b/relu_3x3_reduce
I1130 10:20:52.635141 30034 net.cpp:84] Creating Layer inception_4b/relu_3x3_reduce
I1130 10:20:52.635145 30034 net.cpp:406] inception_4b/relu_3x3_reduce <- inception_4b/3x3_reduce
I1130 10:20:52.635150 30034 net.cpp:367] inception_4b/relu_3x3_reduce -> inception_4b/3x3_reduce (in-place)
I1130 10:20:52.635157 30034 net.cpp:122] Setting up inception_4b/relu_3x3_reduce
I1130 10:20:52.635162 30034 net.cpp:129] Top shape: 32 112 14 14 (702464)
I1130 10:20:52.635165 30034 net.cpp:137] Memory required for data: 1260421248
I1130 10:20:52.635169 30034 layer_factory.hpp:77] Creating layer inception_4b/3x3
I1130 10:20:52.635176 30034 net.cpp:84] Creating Layer inception_4b/3x3
I1130 10:20:52.635180 30034 net.cpp:406] inception_4b/3x3 <- inception_4b/3x3_reduce
I1130 10:20:52.635185 30034 net.cpp:380] inception_4b/3x3 -> inception_4b/3x3
I1130 10:20:52.637244 30034 net.cpp:122] Setting up inception_4b/3x3
I1130 10:20:52.637256 30034 net.cpp:129] Top shape: 32 224 14 14 (1404928)
I1130 10:20:52.637260 30034 net.cpp:137] Memory required for data: 1266040960
I1130 10:20:52.637266 30034 layer_factory.hpp:77] Creating layer inception_4b/relu_3x3
I1130 10:20:52.637272 30034 net.cpp:84] Creating Layer inception_4b/relu_3x3
I1130 10:20:52.637277 30034 net.cpp:406] inception_4b/relu_3x3 <- inception_4b/3x3
I1130 10:20:52.637284 30034 net.cpp:367] inception_4b/relu_3x3 -> inception_4b/3x3 (in-place)
I1130 10:20:52.637290 30034 net.cpp:122] Setting up inception_4b/relu_3x3
I1130 10:20:52.637295 30034 net.cpp:129] Top shape: 32 224 14 14 (1404928)
I1130 10:20:52.637300 30034 net.cpp:137] Memory required for data: 1271660672
I1130 10:20:52.637302 30034 layer_factory.hpp:77] Creating layer inception_4b/5x5_reduce
I1130 10:20:52.637315 30034 net.cpp:84] Creating Layer inception_4b/5x5_reduce
I1130 10:20:52.637320 30034 net.cpp:406] inception_4b/5x5_reduce <- inception_4a/output_inception_4a/output_0_split_2
I1130 10:20:52.637326 30034 net.cpp:380] inception_4b/5x5_reduce -> inception_4b/5x5_reduce
I1130 10:20:52.637614 30034 net.cpp:122] Setting up inception_4b/5x5_reduce
I1130 10:20:52.637622 30034 net.cpp:129] Top shape: 32 24 14 14 (150528)
I1130 10:20:52.637626 30034 net.cpp:137] Memory required for data: 1272262784
I1130 10:20:52.637632 30034 layer_factory.hpp:77] Creating layer inception_4b/relu_5x5_reduce
I1130 10:20:52.637639 30034 net.cpp:84] Creating Layer inception_4b/relu_5x5_reduce
I1130 10:20:52.637642 30034 net.cpp:406] inception_4b/relu_5x5_reduce <- inception_4b/5x5_reduce
I1130 10:20:52.637648 30034 net.cpp:367] inception_4b/relu_5x5_reduce -> inception_4b/5x5_reduce (in-place)
I1130 10:20:52.637655 30034 net.cpp:122] Setting up inception_4b/relu_5x5_reduce
I1130 10:20:52.637660 30034 net.cpp:129] Top shape: 32 24 14 14 (150528)
I1130 10:20:52.637665 30034 net.cpp:137] Memory required for data: 1272864896
I1130 10:20:52.637667 30034 layer_factory.hpp:77] Creating layer inception_4b/5x5
I1130 10:20:52.637675 30034 net.cpp:84] Creating Layer inception_4b/5x5
I1130 10:20:52.637678 30034 net.cpp:406] inception_4b/5x5 <- inception_4b/5x5_reduce
I1130 10:20:52.637686 30034 net.cpp:380] inception_4b/5x5 -> inception_4b/5x5
I1130 10:20:52.638536 30034 net.cpp:122] Setting up inception_4b/5x5
I1130 10:20:52.638546 30034 net.cpp:129] Top shape: 32 64 14 14 (401408)
I1130 10:20:52.638550 30034 net.cpp:137] Memory required for data: 1274470528
I1130 10:20:52.638557 30034 layer_factory.hpp:77] Creating layer inception_4b/relu_5x5
I1130 10:20:52.638563 30034 net.cpp:84] Creating Layer inception_4b/relu_5x5
I1130 10:20:52.638567 30034 net.cpp:406] inception_4b/relu_5x5 <- inception_4b/5x5
I1130 10:20:52.638574 30034 net.cpp:367] inception_4b/relu_5x5 -> inception_4b/5x5 (in-place)
I1130 10:20:52.638581 30034 net.cpp:122] Setting up inception_4b/relu_5x5
I1130 10:20:52.638586 30034 net.cpp:129] Top shape: 32 64 14 14 (401408)
I1130 10:20:52.638589 30034 net.cpp:137] Memory required for data: 1276076160
I1130 10:20:52.638595 30034 layer_factory.hpp:77] Creating layer inception_4b/pool
I1130 10:20:52.638602 30034 net.cpp:84] Creating Layer inception_4b/pool
I1130 10:20:52.638605 30034 net.cpp:406] inception_4b/pool <- inception_4a/output_inception_4a/output_0_split_3
I1130 10:20:52.638610 30034 net.cpp:380] inception_4b/pool -> inception_4b/pool
I1130 10:20:52.638650 30034 net.cpp:122] Setting up inception_4b/pool
I1130 10:20:52.638658 30034 net.cpp:129] Top shape: 32 512 14 14 (3211264)
I1130 10:20:52.638660 30034 net.cpp:137] Memory required for data: 1288921216
I1130 10:20:52.638664 30034 layer_factory.hpp:77] Creating layer inception_4b/pool_proj
I1130 10:20:52.638674 30034 net.cpp:84] Creating Layer inception_4b/pool_proj
I1130 10:20:52.638679 30034 net.cpp:406] inception_4b/pool_proj <- inception_4b/pool
I1130 10:20:52.638685 30034 net.cpp:380] inception_4b/pool_proj -> inception_4b/pool_proj
I1130 10:20:52.639078 30034 net.cpp:122] Setting up inception_4b/pool_proj
I1130 10:20:52.639086 30034 net.cpp:129] Top shape: 32 64 14 14 (401408)
I1130 10:20:52.639088 30034 net.cpp:137] Memory required for data: 1290526848
I1130 10:20:52.639093 30034 layer_factory.hpp:77] Creating layer inception_4b/relu_pool_proj
I1130 10:20:52.639098 30034 net.cpp:84] Creating Layer inception_4b/relu_pool_proj
I1130 10:20:52.639102 30034 net.cpp:406] inception_4b/relu_pool_proj <- inception_4b/pool_proj
I1130 10:20:52.639107 30034 net.cpp:367] inception_4b/relu_pool_proj -> inception_4b/pool_proj (in-place)
I1130 10:20:52.639125 30034 net.cpp:122] Setting up inception_4b/relu_pool_proj
I1130 10:20:52.639130 30034 net.cpp:129] Top shape: 32 64 14 14 (401408)
I1130 10:20:52.639134 30034 net.cpp:137] Memory required for data: 1292132480
I1130 10:20:52.639137 30034 layer_factory.hpp:77] Creating layer inception_4b/output
I1130 10:20:52.639142 30034 net.cpp:84] Creating Layer inception_4b/output
I1130 10:20:52.639147 30034 net.cpp:406] inception_4b/output <- inception_4b/1x1
I1130 10:20:52.639150 30034 net.cpp:406] inception_4b/output <- inception_4b/3x3
I1130 10:20:52.639155 30034 net.cpp:406] inception_4b/output <- inception_4b/5x5
I1130 10:20:52.639159 30034 net.cpp:406] inception_4b/output <- inception_4b/pool_proj
I1130 10:20:52.639166 30034 net.cpp:380] inception_4b/output -> inception_4b/output
I1130 10:20:52.639190 30034 net.cpp:122] Setting up inception_4b/output
I1130 10:20:52.639197 30034 net.cpp:129] Top shape: 32 512 14 14 (3211264)
I1130 10:20:52.639201 30034 net.cpp:137] Memory required for data: 1304977536
I1130 10:20:52.639204 30034 layer_factory.hpp:77] Creating layer inception_4b/output_inception_4b/output_0_split
I1130 10:20:52.639210 30034 net.cpp:84] Creating Layer inception_4b/output_inception_4b/output_0_split
I1130 10:20:52.639214 30034 net.cpp:406] inception_4b/output_inception_4b/output_0_split <- inception_4b/output
I1130 10:20:52.639221 30034 net.cpp:380] inception_4b/output_inception_4b/output_0_split -> inception_4b/output_inception_4b/output_0_split_0
I1130 10:20:52.639230 30034 net.cpp:380] inception_4b/output_inception_4b/output_0_split -> inception_4b/output_inception_4b/output_0_split_1
I1130 10:20:52.639236 30034 net.cpp:380] inception_4b/output_inception_4b/output_0_split -> inception_4b/output_inception_4b/output_0_split_2
I1130 10:20:52.639242 30034 net.cpp:380] inception_4b/output_inception_4b/output_0_split -> inception_4b/output_inception_4b/output_0_split_3
I1130 10:20:52.639297 30034 net.cpp:122] Setting up inception_4b/output_inception_4b/output_0_split
I1130 10:20:52.639305 30034 net.cpp:129] Top shape: 32 512 14 14 (3211264)
I1130 10:20:52.639309 30034 net.cpp:129] Top shape: 32 512 14 14 (3211264)
I1130 10:20:52.639314 30034 net.cpp:129] Top shape: 32 512 14 14 (3211264)
I1130 10:20:52.639319 30034 net.cpp:129] Top shape: 32 512 14 14 (3211264)
I1130 10:20:52.639322 30034 net.cpp:137] Memory required for data: 1356357760
I1130 10:20:52.639325 30034 layer_factory.hpp:77] Creating layer inception_4c/1x1
I1130 10:20:52.639335 30034 net.cpp:84] Creating Layer inception_4c/1x1
I1130 10:20:52.639339 30034 net.cpp:406] inception_4c/1x1 <- inception_4b/output_inception_4b/output_0_split_0
I1130 10:20:52.639345 30034 net.cpp:380] inception_4c/1x1 -> inception_4c/1x1
I1130 10:20:52.639977 30034 net.cpp:122] Setting up inception_4c/1x1
I1130 10:20:52.639987 30034 net.cpp:129] Top shape: 32 128 14 14 (802816)
I1130 10:20:52.639991 30034 net.cpp:137] Memory required for data: 1359569024
I1130 10:20:52.639997 30034 layer_factory.hpp:77] Creating layer inception_4c/relu_1x1
I1130 10:20:52.640003 30034 net.cpp:84] Creating Layer inception_4c/relu_1x1
I1130 10:20:52.640008 30034 net.cpp:406] inception_4c/relu_1x1 <- inception_4c/1x1
I1130 10:20:52.640015 30034 net.cpp:367] inception_4c/relu_1x1 -> inception_4c/1x1 (in-place)
I1130 10:20:52.640022 30034 net.cpp:122] Setting up inception_4c/relu_1x1
I1130 10:20:52.640027 30034 net.cpp:129] Top shape: 32 128 14 14 (802816)
I1130 10:20:52.640031 30034 net.cpp:137] Memory required for data: 1362780288
I1130 10:20:52.640034 30034 layer_factory.hpp:77] Creating layer inception_4c/3x3_reduce
I1130 10:20:52.640041 30034 net.cpp:84] Creating Layer inception_4c/3x3_reduce
I1130 10:20:52.640045 30034 net.cpp:406] inception_4c/3x3_reduce <- inception_4b/output_inception_4b/output_0_split_1
I1130 10:20:52.640053 30034 net.cpp:380] inception_4c/3x3_reduce -> inception_4c/3x3_reduce
I1130 10:20:52.640683 30034 net.cpp:122] Setting up inception_4c/3x3_reduce
I1130 10:20:52.640692 30034 net.cpp:129] Top shape: 32 128 14 14 (802816)
I1130 10:20:52.640697 30034 net.cpp:137] Memory required for data: 1365991552
I1130 10:20:52.640702 30034 layer_factory.hpp:77] Creating layer inception_4c/relu_3x3_reduce
I1130 10:20:52.640707 30034 net.cpp:84] Creating Layer inception_4c/relu_3x3_reduce
I1130 10:20:52.640712 30034 net.cpp:406] inception_4c/relu_3x3_reduce <- inception_4c/3x3_reduce
I1130 10:20:52.640717 30034 net.cpp:367] inception_4c/relu_3x3_reduce -> inception_4c/3x3_reduce (in-place)
I1130 10:20:52.640723 30034 net.cpp:122] Setting up inception_4c/relu_3x3_reduce
I1130 10:20:52.640728 30034 net.cpp:129] Top shape: 32 128 14 14 (802816)
I1130 10:20:52.640733 30034 net.cpp:137] Memory required for data: 1369202816
I1130 10:20:52.640735 30034 layer_factory.hpp:77] Creating layer inception_4c/3x3
I1130 10:20:52.640744 30034 net.cpp:84] Creating Layer inception_4c/3x3
I1130 10:20:52.640749 30034 net.cpp:406] inception_4c/3x3 <- inception_4c/3x3_reduce
I1130 10:20:52.640756 30034 net.cpp:380] inception_4c/3x3 -> inception_4c/3x3
I1130 10:20:52.643117 30034 net.cpp:122] Setting up inception_4c/3x3
I1130 10:20:52.643127 30034 net.cpp:129] Top shape: 32 256 14 14 (1605632)
I1130 10:20:52.643131 30034 net.cpp:137] Memory required for data: 1375625344
I1130 10:20:52.643136 30034 layer_factory.hpp:77] Creating layer inception_4c/relu_3x3
I1130 10:20:52.643142 30034 net.cpp:84] Creating Layer inception_4c/relu_3x3
I1130 10:20:52.643146 30034 net.cpp:406] inception_4c/relu_3x3 <- inception_4c/3x3
I1130 10:20:52.643151 30034 net.cpp:367] inception_4c/relu_3x3 -> inception_4c/3x3 (in-place)
I1130 10:20:52.643157 30034 net.cpp:122] Setting up inception_4c/relu_3x3
I1130 10:20:52.643162 30034 net.cpp:129] Top shape: 32 256 14 14 (1605632)
I1130 10:20:52.643165 30034 net.cpp:137] Memory required for data: 1382047872
I1130 10:20:52.643167 30034 layer_factory.hpp:77] Creating layer inception_4c/5x5_reduce
I1130 10:20:52.643175 30034 net.cpp:84] Creating Layer inception_4c/5x5_reduce
I1130 10:20:52.643179 30034 net.cpp:406] inception_4c/5x5_reduce <- inception_4b/output_inception_4b/output_0_split_2
I1130 10:20:52.643184 30034 net.cpp:380] inception_4c/5x5_reduce -> inception_4c/5x5_reduce
I1130 10:20:52.643429 30034 net.cpp:122] Setting up inception_4c/5x5_reduce
I1130 10:20:52.643437 30034 net.cpp:129] Top shape: 32 24 14 14 (150528)
I1130 10:20:52.643440 30034 net.cpp:137] Memory required for data: 1382649984
I1130 10:20:52.643445 30034 layer_factory.hpp:77] Creating layer inception_4c/relu_5x5_reduce
I1130 10:20:52.643450 30034 net.cpp:84] Creating Layer inception_4c/relu_5x5_reduce
I1130 10:20:52.643455 30034 net.cpp:406] inception_4c/relu_5x5_reduce <- inception_4c/5x5_reduce
I1130 10:20:52.643460 30034 net.cpp:367] inception_4c/relu_5x5_reduce -> inception_4c/5x5_reduce (in-place)
I1130 10:20:52.643465 30034 net.cpp:122] Setting up inception_4c/relu_5x5_reduce
I1130 10:20:52.643471 30034 net.cpp:129] Top shape: 32 24 14 14 (150528)
I1130 10:20:52.643473 30034 net.cpp:137] Memory required for data: 1383252096
I1130 10:20:52.643476 30034 layer_factory.hpp:77] Creating layer inception_4c/5x5
I1130 10:20:52.643482 30034 net.cpp:84] Creating Layer inception_4c/5x5
I1130 10:20:52.643486 30034 net.cpp:406] inception_4c/5x5 <- inception_4c/5x5_reduce
I1130 10:20:52.643491 30034 net.cpp:380] inception_4c/5x5 -> inception_4c/5x5
I1130 10:20:52.643884 30034 net.cpp:122] Setting up inception_4c/5x5
I1130 10:20:52.643893 30034 net.cpp:129] Top shape: 32 64 14 14 (401408)
I1130 10:20:52.643895 30034 net.cpp:137] Memory required for data: 1384857728
I1130 10:20:52.643900 30034 layer_factory.hpp:77] Creating layer inception_4c/relu_5x5
I1130 10:20:52.643905 30034 net.cpp:84] Creating Layer inception_4c/relu_5x5
I1130 10:20:52.643909 30034 net.cpp:406] inception_4c/relu_5x5 <- inception_4c/5x5
I1130 10:20:52.643916 30034 net.cpp:367] inception_4c/relu_5x5 -> inception_4c/5x5 (in-place)
I1130 10:20:52.643921 30034 net.cpp:122] Setting up inception_4c/relu_5x5
I1130 10:20:52.643926 30034 net.cpp:129] Top shape: 32 64 14 14 (401408)
I1130 10:20:52.643929 30034 net.cpp:137] Memory required for data: 1386463360
I1130 10:20:52.643931 30034 layer_factory.hpp:77] Creating layer inception_4c/pool
I1130 10:20:52.643936 30034 net.cpp:84] Creating Layer inception_4c/pool
I1130 10:20:52.643940 30034 net.cpp:406] inception_4c/pool <- inception_4b/output_inception_4b/output_0_split_3
I1130 10:20:52.643945 30034 net.cpp:380] inception_4c/pool -> inception_4c/pool
I1130 10:20:52.643977 30034 net.cpp:122] Setting up inception_4c/pool
I1130 10:20:52.643983 30034 net.cpp:129] Top shape: 32 512 14 14 (3211264)
I1130 10:20:52.643986 30034 net.cpp:137] Memory required for data: 1399308416
I1130 10:20:52.643988 30034 layer_factory.hpp:77] Creating layer inception_4c/pool_proj
I1130 10:20:52.644001 30034 net.cpp:84] Creating Layer inception_4c/pool_proj
I1130 10:20:52.644004 30034 net.cpp:406] inception_4c/pool_proj <- inception_4c/pool
I1130 10:20:52.644011 30034 net.cpp:380] inception_4c/pool_proj -> inception_4c/pool_proj
I1130 10:20:52.644721 30034 net.cpp:122] Setting up inception_4c/pool_proj
I1130 10:20:52.644731 30034 net.cpp:129] Top shape: 32 64 14 14 (401408)
I1130 10:20:52.644734 30034 net.cpp:137] Memory required for data: 1400914048
I1130 10:20:52.644753 30034 layer_factory.hpp:77] Creating layer inception_4c/relu_pool_proj
I1130 10:20:52.644759 30034 net.cpp:84] Creating Layer inception_4c/relu_pool_proj
I1130 10:20:52.644763 30034 net.cpp:406] inception_4c/relu_pool_proj <- inception_4c/pool_proj
I1130 10:20:52.644767 30034 net.cpp:367] inception_4c/relu_pool_proj -> inception_4c/pool_proj (in-place)
I1130 10:20:52.644773 30034 net.cpp:122] Setting up inception_4c/relu_pool_proj
I1130 10:20:52.644778 30034 net.cpp:129] Top shape: 32 64 14 14 (401408)
I1130 10:20:52.644781 30034 net.cpp:137] Memory required for data: 1402519680
I1130 10:20:52.644783 30034 layer_factory.hpp:77] Creating layer inception_4c/output
I1130 10:20:52.644788 30034 net.cpp:84] Creating Layer inception_4c/output
I1130 10:20:52.644791 30034 net.cpp:406] inception_4c/output <- inception_4c/1x1
I1130 10:20:52.644795 30034 net.cpp:406] inception_4c/output <- inception_4c/3x3
I1130 10:20:52.644799 30034 net.cpp:406] inception_4c/output <- inception_4c/5x5
I1130 10:20:52.644803 30034 net.cpp:406] inception_4c/output <- inception_4c/pool_proj
I1130 10:20:52.644809 30034 net.cpp:380] inception_4c/output -> inception_4c/output
I1130 10:20:52.644830 30034 net.cpp:122] Setting up inception_4c/output
I1130 10:20:52.644836 30034 net.cpp:129] Top shape: 32 512 14 14 (3211264)
I1130 10:20:52.644840 30034 net.cpp:137] Memory required for data: 1415364736
I1130 10:20:52.644842 30034 layer_factory.hpp:77] Creating layer inception_4c/output_inception_4c/output_0_split
I1130 10:20:52.644847 30034 net.cpp:84] Creating Layer inception_4c/output_inception_4c/output_0_split
I1130 10:20:52.644851 30034 net.cpp:406] inception_4c/output_inception_4c/output_0_split <- inception_4c/output
I1130 10:20:52.644856 30034 net.cpp:380] inception_4c/output_inception_4c/output_0_split -> inception_4c/output_inception_4c/output_0_split_0
I1130 10:20:52.644862 30034 net.cpp:380] inception_4c/output_inception_4c/output_0_split -> inception_4c/output_inception_4c/output_0_split_1
I1130 10:20:52.644868 30034 net.cpp:380] inception_4c/output_inception_4c/output_0_split -> inception_4c/output_inception_4c/output_0_split_2
I1130 10:20:52.644875 30034 net.cpp:380] inception_4c/output_inception_4c/output_0_split -> inception_4c/output_inception_4c/output_0_split_3
I1130 10:20:52.644919 30034 net.cpp:122] Setting up inception_4c/output_inception_4c/output_0_split
I1130 10:20:52.644927 30034 net.cpp:129] Top shape: 32 512 14 14 (3211264)
I1130 10:20:52.644930 30034 net.cpp:129] Top shape: 32 512 14 14 (3211264)
I1130 10:20:52.644934 30034 net.cpp:129] Top shape: 32 512 14 14 (3211264)
I1130 10:20:52.644938 30034 net.cpp:129] Top shape: 32 512 14 14 (3211264)
I1130 10:20:52.644942 30034 net.cpp:137] Memory required for data: 1466744960
I1130 10:20:52.644943 30034 layer_factory.hpp:77] Creating layer inception_4d/1x1
I1130 10:20:52.644953 30034 net.cpp:84] Creating Layer inception_4d/1x1
I1130 10:20:52.644956 30034 net.cpp:406] inception_4d/1x1 <- inception_4c/output_inception_4c/output_0_split_0
I1130 10:20:52.644961 30034 net.cpp:380] inception_4d/1x1 -> inception_4d/1x1
I1130 10:20:52.645473 30034 net.cpp:122] Setting up inception_4d/1x1
I1130 10:20:52.645483 30034 net.cpp:129] Top shape: 32 112 14 14 (702464)
I1130 10:20:52.645485 30034 net.cpp:137] Memory required for data: 1469554816
I1130 10:20:52.645491 30034 layer_factory.hpp:77] Creating layer inception_4d/relu_1x1
I1130 10:20:52.645498 30034 net.cpp:84] Creating Layer inception_4d/relu_1x1
I1130 10:20:52.645503 30034 net.cpp:406] inception_4d/relu_1x1 <- inception_4d/1x1
I1130 10:20:52.645509 30034 net.cpp:367] inception_4d/relu_1x1 -> inception_4d/1x1 (in-place)
I1130 10:20:52.645514 30034 net.cpp:122] Setting up inception_4d/relu_1x1
I1130 10:20:52.645519 30034 net.cpp:129] Top shape: 32 112 14 14 (702464)
I1130 10:20:52.645524 30034 net.cpp:137] Memory required for data: 1472364672
I1130 10:20:52.645526 30034 layer_factory.hpp:77] Creating layer inception_4d/3x3_reduce
I1130 10:20:52.645534 30034 net.cpp:84] Creating Layer inception_4d/3x3_reduce
I1130 10:20:52.645539 30034 net.cpp:406] inception_4d/3x3_reduce <- inception_4c/output_inception_4c/output_0_split_1
I1130 10:20:52.645545 30034 net.cpp:380] inception_4d/3x3_reduce -> inception_4d/3x3_reduce
I1130 10:20:52.646209 30034 net.cpp:122] Setting up inception_4d/3x3_reduce
I1130 10:20:52.646219 30034 net.cpp:129] Top shape: 32 144 14 14 (903168)
I1130 10:20:52.646221 30034 net.cpp:137] Memory required for data: 1475977344
I1130 10:20:52.646227 30034 layer_factory.hpp:77] Creating layer inception_4d/relu_3x3_reduce
I1130 10:20:52.646234 30034 net.cpp:84] Creating Layer inception_4d/relu_3x3_reduce
I1130 10:20:52.646237 30034 net.cpp:406] inception_4d/relu_3x3_reduce <- inception_4d/3x3_reduce
I1130 10:20:52.646245 30034 net.cpp:367] inception_4d/relu_3x3_reduce -> inception_4d/3x3_reduce (in-place)
I1130 10:20:52.646250 30034 net.cpp:122] Setting up inception_4d/relu_3x3_reduce
I1130 10:20:52.646255 30034 net.cpp:129] Top shape: 32 144 14 14 (903168)
I1130 10:20:52.646258 30034 net.cpp:137] Memory required for data: 1479590016
I1130 10:20:52.646261 30034 layer_factory.hpp:77] Creating layer inception_4d/3x3
I1130 10:20:52.646270 30034 net.cpp:84] Creating Layer inception_4d/3x3
I1130 10:20:52.646275 30034 net.cpp:406] inception_4d/3x3 <- inception_4d/3x3_reduce
I1130 10:20:52.646281 30034 net.cpp:380] inception_4d/3x3 -> inception_4d/3x3
I1130 10:20:52.649230 30034 net.cpp:122] Setting up inception_4d/3x3
I1130 10:20:52.649240 30034 net.cpp:129] Top shape: 32 288 14 14 (1806336)
I1130 10:20:52.649245 30034 net.cpp:137] Memory required for data: 1486815360
I1130 10:20:52.649251 30034 layer_factory.hpp:77] Creating layer inception_4d/relu_3x3
I1130 10:20:52.649258 30034 net.cpp:84] Creating Layer inception_4d/relu_3x3
I1130 10:20:52.649262 30034 net.cpp:406] inception_4d/relu_3x3 <- inception_4d/3x3
I1130 10:20:52.649269 30034 net.cpp:367] inception_4d/relu_3x3 -> inception_4d/3x3 (in-place)
I1130 10:20:52.649276 30034 net.cpp:122] Setting up inception_4d/relu_3x3
I1130 10:20:52.649281 30034 net.cpp:129] Top shape: 32 288 14 14 (1806336)
I1130 10:20:52.649283 30034 net.cpp:137] Memory required for data: 1494040704
I1130 10:20:52.649286 30034 layer_factory.hpp:77] Creating layer inception_4d/5x5_reduce
I1130 10:20:52.649296 30034 net.cpp:84] Creating Layer inception_4d/5x5_reduce
I1130 10:20:52.649299 30034 net.cpp:406] inception_4d/5x5_reduce <- inception_4c/output_inception_4c/output_0_split_2
I1130 10:20:52.649304 30034 net.cpp:380] inception_4d/5x5_reduce -> inception_4d/5x5_reduce
I1130 10:20:52.649621 30034 net.cpp:122] Setting up inception_4d/5x5_reduce
I1130 10:20:52.649629 30034 net.cpp:129] Top shape: 32 32 14 14 (200704)
I1130 10:20:52.649633 30034 net.cpp:137] Memory required for data: 1494843520
I1130 10:20:52.649639 30034 layer_factory.hpp:77] Creating layer inception_4d/relu_5x5_reduce
I1130 10:20:52.649644 30034 net.cpp:84] Creating Layer inception_4d/relu_5x5_reduce
I1130 10:20:52.649649 30034 net.cpp:406] inception_4d/relu_5x5_reduce <- inception_4d/5x5_reduce
I1130 10:20:52.649655 30034 net.cpp:367] inception_4d/relu_5x5_reduce -> inception_4d/5x5_reduce (in-place)
I1130 10:20:52.649662 30034 net.cpp:122] Setting up inception_4d/relu_5x5_reduce
I1130 10:20:52.649667 30034 net.cpp:129] Top shape: 32 32 14 14 (200704)
I1130 10:20:52.649670 30034 net.cpp:137] Memory required for data: 1495646336
I1130 10:20:52.649673 30034 layer_factory.hpp:77] Creating layer inception_4d/5x5
I1130 10:20:52.649682 30034 net.cpp:84] Creating Layer inception_4d/5x5
I1130 10:20:52.649686 30034 net.cpp:406] inception_4d/5x5 <- inception_4d/5x5_reduce
I1130 10:20:52.649691 30034 net.cpp:380] inception_4d/5x5 -> inception_4d/5x5
I1130 10:20:52.650204 30034 net.cpp:122] Setting up inception_4d/5x5
I1130 10:20:52.650213 30034 net.cpp:129] Top shape: 32 64 14 14 (401408)
I1130 10:20:52.650216 30034 net.cpp:137] Memory required for data: 1497251968
I1130 10:20:52.650221 30034 layer_factory.hpp:77] Creating layer inception_4d/relu_5x5
I1130 10:20:52.650228 30034 net.cpp:84] Creating Layer inception_4d/relu_5x5
I1130 10:20:52.650231 30034 net.cpp:406] inception_4d/relu_5x5 <- inception_4d/5x5
I1130 10:20:52.650238 30034 net.cpp:367] inception_4d/relu_5x5 -> inception_4d/5x5 (in-place)
I1130 10:20:52.650244 30034 net.cpp:122] Setting up inception_4d/relu_5x5
I1130 10:20:52.650249 30034 net.cpp:129] Top shape: 32 64 14 14 (401408)
I1130 10:20:52.650252 30034 net.cpp:137] Memory required for data: 1498857600
I1130 10:20:52.650256 30034 layer_factory.hpp:77] Creating layer inception_4d/pool
I1130 10:20:52.650262 30034 net.cpp:84] Creating Layer inception_4d/pool
I1130 10:20:52.650266 30034 net.cpp:406] inception_4d/pool <- inception_4c/output_inception_4c/output_0_split_3
I1130 10:20:52.650271 30034 net.cpp:380] inception_4d/pool -> inception_4d/pool
I1130 10:20:52.650308 30034 net.cpp:122] Setting up inception_4d/pool
I1130 10:20:52.650315 30034 net.cpp:129] Top shape: 32 512 14 14 (3211264)
I1130 10:20:52.650318 30034 net.cpp:137] Memory required for data: 1511702656
I1130 10:20:52.650322 30034 layer_factory.hpp:77] Creating layer inception_4d/pool_proj
I1130 10:20:52.650331 30034 net.cpp:84] Creating Layer inception_4d/pool_proj
I1130 10:20:52.650336 30034 net.cpp:406] inception_4d/pool_proj <- inception_4d/pool
I1130 10:20:52.650343 30034 net.cpp:380] inception_4d/pool_proj -> inception_4d/pool_proj
I1130 10:20:52.650740 30034 net.cpp:122] Setting up inception_4d/pool_proj
I1130 10:20:52.650749 30034 net.cpp:129] Top shape: 32 64 14 14 (401408)
I1130 10:20:52.650753 30034 net.cpp:137] Memory required for data: 1513308288
I1130 10:20:52.650758 30034 layer_factory.hpp:77] Creating layer inception_4d/relu_pool_proj
I1130 10:20:52.650764 30034 net.cpp:84] Creating Layer inception_4d/relu_pool_proj
I1130 10:20:52.650768 30034 net.cpp:406] inception_4d/relu_pool_proj <- inception_4d/pool_proj
I1130 10:20:52.650774 30034 net.cpp:367] inception_4d/relu_pool_proj -> inception_4d/pool_proj (in-place)
I1130 10:20:52.650779 30034 net.cpp:122] Setting up inception_4d/relu_pool_proj
I1130 10:20:52.650784 30034 net.cpp:129] Top shape: 32 64 14 14 (401408)
I1130 10:20:52.650789 30034 net.cpp:137] Memory required for data: 1514913920
I1130 10:20:52.650790 30034 layer_factory.hpp:77] Creating layer inception_4d/output
I1130 10:20:52.650796 30034 net.cpp:84] Creating Layer inception_4d/output
I1130 10:20:52.650800 30034 net.cpp:406] inception_4d/output <- inception_4d/1x1
I1130 10:20:52.650804 30034 net.cpp:406] inception_4d/output <- inception_4d/3x3
I1130 10:20:52.650809 30034 net.cpp:406] inception_4d/output <- inception_4d/5x5
I1130 10:20:52.650812 30034 net.cpp:406] inception_4d/output <- inception_4d/pool_proj
I1130 10:20:52.650820 30034 net.cpp:380] inception_4d/output -> inception_4d/output
I1130 10:20:52.650842 30034 net.cpp:122] Setting up inception_4d/output
I1130 10:20:52.650851 30034 net.cpp:129] Top shape: 32 528 14 14 (3311616)
I1130 10:20:52.650854 30034 net.cpp:137] Memory required for data: 1528160384
I1130 10:20:52.650857 30034 layer_factory.hpp:77] Creating layer inception_4d/output_inception_4d/output_0_split
I1130 10:20:52.650863 30034 net.cpp:84] Creating Layer inception_4d/output_inception_4d/output_0_split
I1130 10:20:52.650867 30034 net.cpp:406] inception_4d/output_inception_4d/output_0_split <- inception_4d/output
I1130 10:20:52.650872 30034 net.cpp:380] inception_4d/output_inception_4d/output_0_split -> inception_4d/output_inception_4d/output_0_split_0
I1130 10:20:52.650879 30034 net.cpp:380] inception_4d/output_inception_4d/output_0_split -> inception_4d/output_inception_4d/output_0_split_1
I1130 10:20:52.650887 30034 net.cpp:380] inception_4d/output_inception_4d/output_0_split -> inception_4d/output_inception_4d/output_0_split_2
I1130 10:20:52.650893 30034 net.cpp:380] inception_4d/output_inception_4d/output_0_split -> inception_4d/output_inception_4d/output_0_split_3
I1130 10:20:52.650946 30034 net.cpp:122] Setting up inception_4d/output_inception_4d/output_0_split
I1130 10:20:52.650952 30034 net.cpp:129] Top shape: 32 528 14 14 (3311616)
I1130 10:20:52.650957 30034 net.cpp:129] Top shape: 32 528 14 14 (3311616)
I1130 10:20:52.650961 30034 net.cpp:129] Top shape: 32 528 14 14 (3311616)
I1130 10:20:52.650966 30034 net.cpp:129] Top shape: 32 528 14 14 (3311616)
I1130 10:20:52.650969 30034 net.cpp:137] Memory required for data: 1581146240
I1130 10:20:52.650974 30034 layer_factory.hpp:77] Creating layer inception_4e/1x1
I1130 10:20:52.650982 30034 net.cpp:84] Creating Layer inception_4e/1x1
I1130 10:20:52.650986 30034 net.cpp:406] inception_4e/1x1 <- inception_4d/output_inception_4d/output_0_split_0
I1130 10:20:52.650995 30034 net.cpp:380] inception_4e/1x1 -> inception_4e/1x1
I1130 10:20:52.652384 30034 net.cpp:122] Setting up inception_4e/1x1
I1130 10:20:52.652396 30034 net.cpp:129] Top shape: 32 256 14 14 (1605632)
I1130 10:20:52.652400 30034 net.cpp:137] Memory required for data: 1587568768
I1130 10:20:52.652406 30034 layer_factory.hpp:77] Creating layer inception_4e/relu_1x1
I1130 10:20:52.652412 30034 net.cpp:84] Creating Layer inception_4e/relu_1x1
I1130 10:20:52.652416 30034 net.cpp:406] inception_4e/relu_1x1 <- inception_4e/1x1
I1130 10:20:52.652422 30034 net.cpp:367] inception_4e/relu_1x1 -> inception_4e/1x1 (in-place)
I1130 10:20:52.652429 30034 net.cpp:122] Setting up inception_4e/relu_1x1
I1130 10:20:52.652433 30034 net.cpp:129] Top shape: 32 256 14 14 (1605632)
I1130 10:20:52.652437 30034 net.cpp:137] Memory required for data: 1593991296
I1130 10:20:52.652441 30034 layer_factory.hpp:77] Creating layer inception_4e/3x3_reduce
I1130 10:20:52.652449 30034 net.cpp:84] Creating Layer inception_4e/3x3_reduce
I1130 10:20:52.652453 30034 net.cpp:406] inception_4e/3x3_reduce <- inception_4d/output_inception_4d/output_0_split_1
I1130 10:20:52.652459 30034 net.cpp:380] inception_4e/3x3_reduce -> inception_4e/3x3_reduce
I1130 10:20:52.653168 30034 net.cpp:122] Setting up inception_4e/3x3_reduce
I1130 10:20:52.653177 30034 net.cpp:129] Top shape: 32 160 14 14 (1003520)
I1130 10:20:52.653180 30034 net.cpp:137] Memory required for data: 1598005376
I1130 10:20:52.653185 30034 layer_factory.hpp:77] Creating layer inception_4e/relu_3x3_reduce
I1130 10:20:52.653194 30034 net.cpp:84] Creating Layer inception_4e/relu_3x3_reduce
I1130 10:20:52.653198 30034 net.cpp:406] inception_4e/relu_3x3_reduce <- inception_4e/3x3_reduce
I1130 10:20:52.653204 30034 net.cpp:367] inception_4e/relu_3x3_reduce -> inception_4e/3x3_reduce (in-place)
I1130 10:20:52.653210 30034 net.cpp:122] Setting up inception_4e/relu_3x3_reduce
I1130 10:20:52.653215 30034 net.cpp:129] Top shape: 32 160 14 14 (1003520)
I1130 10:20:52.653218 30034 net.cpp:137] Memory required for data: 1602019456
I1130 10:20:52.653221 30034 layer_factory.hpp:77] Creating layer inception_4e/3x3
I1130 10:20:52.653230 30034 net.cpp:84] Creating Layer inception_4e/3x3
I1130 10:20:52.653234 30034 net.cpp:406] inception_4e/3x3 <- inception_4e/3x3_reduce
I1130 10:20:52.653239 30034 net.cpp:380] inception_4e/3x3 -> inception_4e/3x3
I1130 10:20:52.656533 30034 net.cpp:122] Setting up inception_4e/3x3
I1130 10:20:52.656548 30034 net.cpp:129] Top shape: 32 320 14 14 (2007040)
I1130 10:20:52.656551 30034 net.cpp:137] Memory required for data: 1610047616
I1130 10:20:52.656558 30034 layer_factory.hpp:77] Creating layer inception_4e/relu_3x3
I1130 10:20:52.656566 30034 net.cpp:84] Creating Layer inception_4e/relu_3x3
I1130 10:20:52.656571 30034 net.cpp:406] inception_4e/relu_3x3 <- inception_4e/3x3
I1130 10:20:52.656576 30034 net.cpp:367] inception_4e/relu_3x3 -> inception_4e/3x3 (in-place)
I1130 10:20:52.656584 30034 net.cpp:122] Setting up inception_4e/relu_3x3
I1130 10:20:52.656589 30034 net.cpp:129] Top shape: 32 320 14 14 (2007040)
I1130 10:20:52.656591 30034 net.cpp:137] Memory required for data: 1618075776
I1130 10:20:52.656594 30034 layer_factory.hpp:77] Creating layer inception_4e/5x5_reduce
I1130 10:20:52.656603 30034 net.cpp:84] Creating Layer inception_4e/5x5_reduce
I1130 10:20:52.656607 30034 net.cpp:406] inception_4e/5x5_reduce <- inception_4d/output_inception_4d/output_0_split_2
I1130 10:20:52.656613 30034 net.cpp:380] inception_4e/5x5_reduce -> inception_4e/5x5_reduce
I1130 10:20:52.656924 30034 net.cpp:122] Setting up inception_4e/5x5_reduce
I1130 10:20:52.656932 30034 net.cpp:129] Top shape: 32 32 14 14 (200704)
I1130 10:20:52.656936 30034 net.cpp:137] Memory required for data: 1618878592
I1130 10:20:52.656942 30034 layer_factory.hpp:77] Creating layer inception_4e/relu_5x5_reduce
I1130 10:20:52.656947 30034 net.cpp:84] Creating Layer inception_4e/relu_5x5_reduce
I1130 10:20:52.656952 30034 net.cpp:406] inception_4e/relu_5x5_reduce <- inception_4e/5x5_reduce
I1130 10:20:52.656957 30034 net.cpp:367] inception_4e/relu_5x5_reduce -> inception_4e/5x5_reduce (in-place)
I1130 10:20:52.656963 30034 net.cpp:122] Setting up inception_4e/relu_5x5_reduce
I1130 10:20:52.656967 30034 net.cpp:129] Top shape: 32 32 14 14 (200704)
I1130 10:20:52.656971 30034 net.cpp:137] Memory required for data: 1619681408
I1130 10:20:52.656973 30034 layer_factory.hpp:77] Creating layer inception_4e/5x5
I1130 10:20:52.656982 30034 net.cpp:84] Creating Layer inception_4e/5x5
I1130 10:20:52.656986 30034 net.cpp:406] inception_4e/5x5 <- inception_4e/5x5_reduce
I1130 10:20:52.656992 30034 net.cpp:380] inception_4e/5x5 -> inception_4e/5x5
I1130 10:20:52.658143 30034 net.cpp:122] Setting up inception_4e/5x5
I1130 10:20:52.658152 30034 net.cpp:129] Top shape: 32 128 14 14 (802816)
I1130 10:20:52.658155 30034 net.cpp:137] Memory required for data: 1622892672
I1130 10:20:52.658161 30034 layer_factory.hpp:77] Creating layer inception_4e/relu_5x5
I1130 10:20:52.658166 30034 net.cpp:84] Creating Layer inception_4e/relu_5x5
I1130 10:20:52.658176 30034 net.cpp:406] inception_4e/relu_5x5 <- inception_4e/5x5
I1130 10:20:52.658181 30034 net.cpp:367] inception_4e/relu_5x5 -> inception_4e/5x5 (in-place)
I1130 10:20:52.658187 30034 net.cpp:122] Setting up inception_4e/relu_5x5
I1130 10:20:52.658192 30034 net.cpp:129] Top shape: 32 128 14 14 (802816)
I1130 10:20:52.658195 30034 net.cpp:137] Memory required for data: 1626103936
I1130 10:20:52.658197 30034 layer_factory.hpp:77] Creating layer inception_4e/pool
I1130 10:20:52.658202 30034 net.cpp:84] Creating Layer inception_4e/pool
I1130 10:20:52.658206 30034 net.cpp:406] inception_4e/pool <- inception_4d/output_inception_4d/output_0_split_3
I1130 10:20:52.658212 30034 net.cpp:380] inception_4e/pool -> inception_4e/pool
I1130 10:20:52.658246 30034 net.cpp:122] Setting up inception_4e/pool
I1130 10:20:52.658253 30034 net.cpp:129] Top shape: 32 528 14 14 (3311616)
I1130 10:20:52.658257 30034 net.cpp:137] Memory required for data: 1639350400
I1130 10:20:52.658258 30034 layer_factory.hpp:77] Creating layer inception_4e/pool_proj
I1130 10:20:52.658267 30034 net.cpp:84] Creating Layer inception_4e/pool_proj
I1130 10:20:52.658272 30034 net.cpp:406] inception_4e/pool_proj <- inception_4e/pool
I1130 10:20:52.658278 30034 net.cpp:380] inception_4e/pool_proj -> inception_4e/pool_proj
I1130 10:20:52.658839 30034 net.cpp:122] Setting up inception_4e/pool_proj
I1130 10:20:52.658848 30034 net.cpp:129] Top shape: 32 128 14 14 (802816)
I1130 10:20:52.658850 30034 net.cpp:137] Memory required for data: 1642561664
I1130 10:20:52.658855 30034 layer_factory.hpp:77] Creating layer inception_4e/relu_pool_proj
I1130 10:20:52.658864 30034 net.cpp:84] Creating Layer inception_4e/relu_pool_proj
I1130 10:20:52.658867 30034 net.cpp:406] inception_4e/relu_pool_proj <- inception_4e/pool_proj
I1130 10:20:52.658874 30034 net.cpp:367] inception_4e/relu_pool_proj -> inception_4e/pool_proj (in-place)
I1130 10:20:52.658879 30034 net.cpp:122] Setting up inception_4e/relu_pool_proj
I1130 10:20:52.658884 30034 net.cpp:129] Top shape: 32 128 14 14 (802816)
I1130 10:20:52.658887 30034 net.cpp:137] Memory required for data: 1645772928
I1130 10:20:52.658890 30034 layer_factory.hpp:77] Creating layer inception_4e/output
I1130 10:20:52.658895 30034 net.cpp:84] Creating Layer inception_4e/output
I1130 10:20:52.658900 30034 net.cpp:406] inception_4e/output <- inception_4e/1x1
I1130 10:20:52.658905 30034 net.cpp:406] inception_4e/output <- inception_4e/3x3
I1130 10:20:52.658910 30034 net.cpp:406] inception_4e/output <- inception_4e/5x5
I1130 10:20:52.658913 30034 net.cpp:406] inception_4e/output <- inception_4e/pool_proj
I1130 10:20:52.658918 30034 net.cpp:380] inception_4e/output -> inception_4e/output
I1130 10:20:52.658941 30034 net.cpp:122] Setting up inception_4e/output
I1130 10:20:52.658949 30034 net.cpp:129] Top shape: 32 832 14 14 (5218304)
I1130 10:20:52.658953 30034 net.cpp:137] Memory required for data: 1666646144
I1130 10:20:52.658957 30034 layer_factory.hpp:77] Creating layer pool4/3x3_s2
I1130 10:20:52.658962 30034 net.cpp:84] Creating Layer pool4/3x3_s2
I1130 10:20:52.658965 30034 net.cpp:406] pool4/3x3_s2 <- inception_4e/output
I1130 10:20:52.658970 30034 net.cpp:380] pool4/3x3_s2 -> pool4/3x3_s2
I1130 10:20:52.659004 30034 net.cpp:122] Setting up pool4/3x3_s2
I1130 10:20:52.659011 30034 net.cpp:129] Top shape: 32 832 7 7 (1304576)
I1130 10:20:52.659014 30034 net.cpp:137] Memory required for data: 1671864448
I1130 10:20:52.659018 30034 layer_factory.hpp:77] Creating layer pool4/3x3_s2_pool4/3x3_s2_0_split
I1130 10:20:52.659024 30034 net.cpp:84] Creating Layer pool4/3x3_s2_pool4/3x3_s2_0_split
I1130 10:20:52.659027 30034 net.cpp:406] pool4/3x3_s2_pool4/3x3_s2_0_split <- pool4/3x3_s2
I1130 10:20:52.659034 30034 net.cpp:380] pool4/3x3_s2_pool4/3x3_s2_0_split -> pool4/3x3_s2_pool4/3x3_s2_0_split_0
I1130 10:20:52.659039 30034 net.cpp:380] pool4/3x3_s2_pool4/3x3_s2_0_split -> pool4/3x3_s2_pool4/3x3_s2_0_split_1
I1130 10:20:52.659046 30034 net.cpp:380] pool4/3x3_s2_pool4/3x3_s2_0_split -> pool4/3x3_s2_pool4/3x3_s2_0_split_2
I1130 10:20:52.659052 30034 net.cpp:380] pool4/3x3_s2_pool4/3x3_s2_0_split -> pool4/3x3_s2_pool4/3x3_s2_0_split_3
I1130 10:20:52.659101 30034 net.cpp:122] Setting up pool4/3x3_s2_pool4/3x3_s2_0_split
I1130 10:20:52.659109 30034 net.cpp:129] Top shape: 32 832 7 7 (1304576)
I1130 10:20:52.659114 30034 net.cpp:129] Top shape: 32 832 7 7 (1304576)
I1130 10:20:52.659118 30034 net.cpp:129] Top shape: 32 832 7 7 (1304576)
I1130 10:20:52.659122 30034 net.cpp:129] Top shape: 32 832 7 7 (1304576)
I1130 10:20:52.659124 30034 net.cpp:137] Memory required for data: 1692737664
I1130 10:20:52.659127 30034 layer_factory.hpp:77] Creating layer inception_5a/1x1
I1130 10:20:52.659137 30034 net.cpp:84] Creating Layer inception_5a/1x1
I1130 10:20:52.659140 30034 net.cpp:406] inception_5a/1x1 <- pool4/3x3_s2_pool4/3x3_s2_0_split_0
I1130 10:20:52.659147 30034 net.cpp:380] inception_5a/1x1 -> inception_5a/1x1
I1130 10:20:52.660964 30034 net.cpp:122] Setting up inception_5a/1x1
I1130 10:20:52.660974 30034 net.cpp:129] Top shape: 32 256 7 7 (401408)
I1130 10:20:52.660977 30034 net.cpp:137] Memory required for data: 1694343296
I1130 10:20:52.660982 30034 layer_factory.hpp:77] Creating layer inception_5a/relu_1x1
I1130 10:20:52.660989 30034 net.cpp:84] Creating Layer inception_5a/relu_1x1
I1130 10:20:52.660993 30034 net.cpp:406] inception_5a/relu_1x1 <- inception_5a/1x1
I1130 10:20:52.661000 30034 net.cpp:367] inception_5a/relu_1x1 -> inception_5a/1x1 (in-place)
I1130 10:20:52.661006 30034 net.cpp:122] Setting up inception_5a/relu_1x1
I1130 10:20:52.661011 30034 net.cpp:129] Top shape: 32 256 7 7 (401408)
I1130 10:20:52.661015 30034 net.cpp:137] Memory required for data: 1695948928
I1130 10:20:52.661017 30034 layer_factory.hpp:77] Creating layer inception_5a/3x3_reduce
I1130 10:20:52.661025 30034 net.cpp:84] Creating Layer inception_5a/3x3_reduce
I1130 10:20:52.661028 30034 net.cpp:406] inception_5a/3x3_reduce <- pool4/3x3_s2_pool4/3x3_s2_0_split_1
I1130 10:20:52.661037 30034 net.cpp:380] inception_5a/3x3_reduce -> inception_5a/3x3_reduce
I1130 10:20:52.662387 30034 net.cpp:122] Setting up inception_5a/3x3_reduce
I1130 10:20:52.662397 30034 net.cpp:129] Top shape: 32 160 7 7 (250880)
I1130 10:20:52.662400 30034 net.cpp:137] Memory required for data: 1696952448
I1130 10:20:52.662406 30034 layer_factory.hpp:77] Creating layer inception_5a/relu_3x3_reduce
I1130 10:20:52.662412 30034 net.cpp:84] Creating Layer inception_5a/relu_3x3_reduce
I1130 10:20:52.662416 30034 net.cpp:406] inception_5a/relu_3x3_reduce <- inception_5a/3x3_reduce
I1130 10:20:52.662423 30034 net.cpp:367] inception_5a/relu_3x3_reduce -> inception_5a/3x3_reduce (in-place)
I1130 10:20:52.662431 30034 net.cpp:122] Setting up inception_5a/relu_3x3_reduce
I1130 10:20:52.662434 30034 net.cpp:129] Top shape: 32 160 7 7 (250880)
I1130 10:20:52.662438 30034 net.cpp:137] Memory required for data: 1697955968
I1130 10:20:52.662441 30034 layer_factory.hpp:77] Creating layer inception_5a/3x3
I1130 10:20:52.662448 30034 net.cpp:84] Creating Layer inception_5a/3x3
I1130 10:20:52.662452 30034 net.cpp:406] inception_5a/3x3 <- inception_5a/3x3_reduce
I1130 10:20:52.662459 30034 net.cpp:380] inception_5a/3x3 -> inception_5a/3x3
I1130 10:20:52.665819 30034 net.cpp:122] Setting up inception_5a/3x3
I1130 10:20:52.665832 30034 net.cpp:129] Top shape: 32 320 7 7 (501760)
I1130 10:20:52.665834 30034 net.cpp:137] Memory required for data: 1699963008
I1130 10:20:52.665841 30034 layer_factory.hpp:77] Creating layer inception_5a/relu_3x3
I1130 10:20:52.665848 30034 net.cpp:84] Creating Layer inception_5a/relu_3x3
I1130 10:20:52.665853 30034 net.cpp:406] inception_5a/relu_3x3 <- inception_5a/3x3
I1130 10:20:52.665858 30034 net.cpp:367] inception_5a/relu_3x3 -> inception_5a/3x3 (in-place)
I1130 10:20:52.665866 30034 net.cpp:122] Setting up inception_5a/relu_3x3
I1130 10:20:52.665871 30034 net.cpp:129] Top shape: 32 320 7 7 (501760)
I1130 10:20:52.665874 30034 net.cpp:137] Memory required for data: 1701970048
I1130 10:20:52.665877 30034 layer_factory.hpp:77] Creating layer inception_5a/5x5_reduce
I1130 10:20:52.665884 30034 net.cpp:84] Creating Layer inception_5a/5x5_reduce
I1130 10:20:52.665887 30034 net.cpp:406] inception_5a/5x5_reduce <- pool4/3x3_s2_pool4/3x3_s2_0_split_2
I1130 10:20:52.665894 30034 net.cpp:380] inception_5a/5x5_reduce -> inception_5a/5x5_reduce
I1130 10:20:52.666259 30034 net.cpp:122] Setting up inception_5a/5x5_reduce
I1130 10:20:52.666265 30034 net.cpp:129] Top shape: 32 32 7 7 (50176)
I1130 10:20:52.666270 30034 net.cpp:137] Memory required for data: 1702170752
I1130 10:20:52.666275 30034 layer_factory.hpp:77] Creating layer inception_5a/relu_5x5_reduce
I1130 10:20:52.666280 30034 net.cpp:84] Creating Layer inception_5a/relu_5x5_reduce
I1130 10:20:52.666283 30034 net.cpp:406] inception_5a/relu_5x5_reduce <- inception_5a/5x5_reduce
I1130 10:20:52.666287 30034 net.cpp:367] inception_5a/relu_5x5_reduce -> inception_5a/5x5_reduce (in-place)
I1130 10:20:52.666293 30034 net.cpp:122] Setting up inception_5a/relu_5x5_reduce
I1130 10:20:52.666297 30034 net.cpp:129] Top shape: 32 32 7 7 (50176)
I1130 10:20:52.666301 30034 net.cpp:137] Memory required for data: 1702371456
I1130 10:20:52.666303 30034 layer_factory.hpp:77] Creating layer inception_5a/5x5
I1130 10:20:52.666311 30034 net.cpp:84] Creating Layer inception_5a/5x5
I1130 10:20:52.666314 30034 net.cpp:406] inception_5a/5x5 <- inception_5a/5x5_reduce
I1130 10:20:52.666321 30034 net.cpp:380] inception_5a/5x5 -> inception_5a/5x5
I1130 10:20:52.667062 30034 net.cpp:122] Setting up inception_5a/5x5
I1130 10:20:52.667070 30034 net.cpp:129] Top shape: 32 128 7 7 (200704)
I1130 10:20:52.667073 30034 net.cpp:137] Memory required for data: 1703174272
I1130 10:20:52.667078 30034 layer_factory.hpp:77] Creating layer inception_5a/relu_5x5
I1130 10:20:52.667098 30034 net.cpp:84] Creating Layer inception_5a/relu_5x5
I1130 10:20:52.667102 30034 net.cpp:406] inception_5a/relu_5x5 <- inception_5a/5x5
I1130 10:20:52.667107 30034 net.cpp:367] inception_5a/relu_5x5 -> inception_5a/5x5 (in-place)
I1130 10:20:52.667112 30034 net.cpp:122] Setting up inception_5a/relu_5x5
I1130 10:20:52.667117 30034 net.cpp:129] Top shape: 32 128 7 7 (200704)
I1130 10:20:52.667120 30034 net.cpp:137] Memory required for data: 1703977088
I1130 10:20:52.667124 30034 layer_factory.hpp:77] Creating layer inception_5a/pool
I1130 10:20:52.667129 30034 net.cpp:84] Creating Layer inception_5a/pool
I1130 10:20:52.667132 30034 net.cpp:406] inception_5a/pool <- pool4/3x3_s2_pool4/3x3_s2_0_split_3
I1130 10:20:52.667136 30034 net.cpp:380] inception_5a/pool -> inception_5a/pool
I1130 10:20:52.667171 30034 net.cpp:122] Setting up inception_5a/pool
I1130 10:20:52.667177 30034 net.cpp:129] Top shape: 32 832 7 7 (1304576)
I1130 10:20:52.667181 30034 net.cpp:137] Memory required for data: 1709195392
I1130 10:20:52.667183 30034 layer_factory.hpp:77] Creating layer inception_5a/pool_proj
I1130 10:20:52.667191 30034 net.cpp:84] Creating Layer inception_5a/pool_proj
I1130 10:20:52.667196 30034 net.cpp:406] inception_5a/pool_proj <- inception_5a/pool
I1130 10:20:52.667202 30034 net.cpp:380] inception_5a/pool_proj -> inception_5a/pool_proj
I1130 10:20:52.669234 30034 net.cpp:122] Setting up inception_5a/pool_proj
I1130 10:20:52.669245 30034 net.cpp:129] Top shape: 32 128 7 7 (200704)
I1130 10:20:52.669247 30034 net.cpp:137] Memory required for data: 1709998208
I1130 10:20:52.669255 30034 layer_factory.hpp:77] Creating layer inception_5a/relu_pool_proj
I1130 10:20:52.669261 30034 net.cpp:84] Creating Layer inception_5a/relu_pool_proj
I1130 10:20:52.669266 30034 net.cpp:406] inception_5a/relu_pool_proj <- inception_5a/pool_proj
I1130 10:20:52.669271 30034 net.cpp:367] inception_5a/relu_pool_proj -> inception_5a/pool_proj (in-place)
I1130 10:20:52.669277 30034 net.cpp:122] Setting up inception_5a/relu_pool_proj
I1130 10:20:52.669282 30034 net.cpp:129] Top shape: 32 128 7 7 (200704)
I1130 10:20:52.669286 30034 net.cpp:137] Memory required for data: 1710801024
I1130 10:20:52.669289 30034 layer_factory.hpp:77] Creating layer inception_5a/output
I1130 10:20:52.669294 30034 net.cpp:84] Creating Layer inception_5a/output
I1130 10:20:52.669297 30034 net.cpp:406] inception_5a/output <- inception_5a/1x1
I1130 10:20:52.669301 30034 net.cpp:406] inception_5a/output <- inception_5a/3x3
I1130 10:20:52.669306 30034 net.cpp:406] inception_5a/output <- inception_5a/5x5
I1130 10:20:52.669309 30034 net.cpp:406] inception_5a/output <- inception_5a/pool_proj
I1130 10:20:52.669315 30034 net.cpp:380] inception_5a/output -> inception_5a/output
I1130 10:20:52.669338 30034 net.cpp:122] Setting up inception_5a/output
I1130 10:20:52.669344 30034 net.cpp:129] Top shape: 32 832 7 7 (1304576)
I1130 10:20:52.669348 30034 net.cpp:137] Memory required for data: 1716019328
I1130 10:20:52.669350 30034 layer_factory.hpp:77] Creating layer inception_5a/output_inception_5a/output_0_split
I1130 10:20:52.669358 30034 net.cpp:84] Creating Layer inception_5a/output_inception_5a/output_0_split
I1130 10:20:52.669363 30034 net.cpp:406] inception_5a/output_inception_5a/output_0_split <- inception_5a/output
I1130 10:20:52.669368 30034 net.cpp:380] inception_5a/output_inception_5a/output_0_split -> inception_5a/output_inception_5a/output_0_split_0
I1130 10:20:52.669374 30034 net.cpp:380] inception_5a/output_inception_5a/output_0_split -> inception_5a/output_inception_5a/output_0_split_1
I1130 10:20:52.669380 30034 net.cpp:380] inception_5a/output_inception_5a/output_0_split -> inception_5a/output_inception_5a/output_0_split_2
I1130 10:20:52.669387 30034 net.cpp:380] inception_5a/output_inception_5a/output_0_split -> inception_5a/output_inception_5a/output_0_split_3
I1130 10:20:52.669437 30034 net.cpp:122] Setting up inception_5a/output_inception_5a/output_0_split
I1130 10:20:52.669443 30034 net.cpp:129] Top shape: 32 832 7 7 (1304576)
I1130 10:20:52.669448 30034 net.cpp:129] Top shape: 32 832 7 7 (1304576)
I1130 10:20:52.669452 30034 net.cpp:129] Top shape: 32 832 7 7 (1304576)
I1130 10:20:52.669456 30034 net.cpp:129] Top shape: 32 832 7 7 (1304576)
I1130 10:20:52.669459 30034 net.cpp:137] Memory required for data: 1736892544
I1130 10:20:52.669463 30034 layer_factory.hpp:77] Creating layer inception_5b/1x1
I1130 10:20:52.669471 30034 net.cpp:84] Creating Layer inception_5b/1x1
I1130 10:20:52.669476 30034 net.cpp:406] inception_5b/1x1 <- inception_5a/output_inception_5a/output_0_split_0
I1130 10:20:52.669483 30034 net.cpp:380] inception_5b/1x1 -> inception_5b/1x1
I1130 10:20:52.671895 30034 net.cpp:122] Setting up inception_5b/1x1
I1130 10:20:52.671905 30034 net.cpp:129] Top shape: 32 384 7 7 (602112)
I1130 10:20:52.671910 30034 net.cpp:137] Memory required for data: 1739300992
I1130 10:20:52.671916 30034 layer_factory.hpp:77] Creating layer inception_5b/relu_1x1
I1130 10:20:52.671922 30034 net.cpp:84] Creating Layer inception_5b/relu_1x1
I1130 10:20:52.671926 30034 net.cpp:406] inception_5b/relu_1x1 <- inception_5b/1x1
I1130 10:20:52.671932 30034 net.cpp:367] inception_5b/relu_1x1 -> inception_5b/1x1 (in-place)
I1130 10:20:52.671938 30034 net.cpp:122] Setting up inception_5b/relu_1x1
I1130 10:20:52.671943 30034 net.cpp:129] Top shape: 32 384 7 7 (602112)
I1130 10:20:52.671947 30034 net.cpp:137] Memory required for data: 1741709440
I1130 10:20:52.671948 30034 layer_factory.hpp:77] Creating layer inception_5b/3x3_reduce
I1130 10:20:52.671957 30034 net.cpp:84] Creating Layer inception_5b/3x3_reduce
I1130 10:20:52.671962 30034 net.cpp:406] inception_5b/3x3_reduce <- inception_5a/output_inception_5a/output_0_split_1
I1130 10:20:52.671967 30034 net.cpp:380] inception_5b/3x3_reduce -> inception_5b/3x3_reduce
I1130 10:20:52.674731 30034 net.cpp:122] Setting up inception_5b/3x3_reduce
I1130 10:20:52.674744 30034 net.cpp:129] Top shape: 32 192 7 7 (301056)
I1130 10:20:52.674748 30034 net.cpp:137] Memory required for data: 1742913664
I1130 10:20:52.674754 30034 layer_factory.hpp:77] Creating layer inception_5b/relu_3x3_reduce
I1130 10:20:52.674767 30034 net.cpp:84] Creating Layer inception_5b/relu_3x3_reduce
I1130 10:20:52.674772 30034 net.cpp:406] inception_5b/relu_3x3_reduce <- inception_5b/3x3_reduce
I1130 10:20:52.674777 30034 net.cpp:367] inception_5b/relu_3x3_reduce -> inception_5b/3x3_reduce (in-place)
I1130 10:20:52.674783 30034 net.cpp:122] Setting up inception_5b/relu_3x3_reduce
I1130 10:20:52.674788 30034 net.cpp:129] Top shape: 32 192 7 7 (301056)
I1130 10:20:52.674791 30034 net.cpp:137] Memory required for data: 1744117888
I1130 10:20:52.674794 30034 layer_factory.hpp:77] Creating layer inception_5b/3x3
I1130 10:20:52.674803 30034 net.cpp:84] Creating Layer inception_5b/3x3
I1130 10:20:52.674806 30034 net.cpp:406] inception_5b/3x3 <- inception_5b/3x3_reduce
I1130 10:20:52.674813 30034 net.cpp:380] inception_5b/3x3 -> inception_5b/3x3
I1130 10:20:52.679436 30034 net.cpp:122] Setting up inception_5b/3x3
I1130 10:20:52.679455 30034 net.cpp:129] Top shape: 32 384 7 7 (602112)
I1130 10:20:52.679458 30034 net.cpp:137] Memory required for data: 1746526336
I1130 10:20:52.679466 30034 layer_factory.hpp:77] Creating layer inception_5b/relu_3x3
I1130 10:20:52.679474 30034 net.cpp:84] Creating Layer inception_5b/relu_3x3
I1130 10:20:52.679481 30034 net.cpp:406] inception_5b/relu_3x3 <- inception_5b/3x3
I1130 10:20:52.679488 30034 net.cpp:367] inception_5b/relu_3x3 -> inception_5b/3x3 (in-place)
I1130 10:20:52.679497 30034 net.cpp:122] Setting up inception_5b/relu_3x3
I1130 10:20:52.679502 30034 net.cpp:129] Top shape: 32 384 7 7 (602112)
I1130 10:20:52.679505 30034 net.cpp:137] Memory required for data: 1748934784
I1130 10:20:52.679507 30034 layer_factory.hpp:77] Creating layer inception_5b/5x5_reduce
I1130 10:20:52.679518 30034 net.cpp:84] Creating Layer inception_5b/5x5_reduce
I1130 10:20:52.679522 30034 net.cpp:406] inception_5b/5x5_reduce <- inception_5a/output_inception_5a/output_0_split_2
I1130 10:20:52.679528 30034 net.cpp:380] inception_5b/5x5_reduce -> inception_5b/5x5_reduce
I1130 10:20:52.679991 30034 net.cpp:122] Setting up inception_5b/5x5_reduce
I1130 10:20:52.679998 30034 net.cpp:129] Top shape: 32 48 7 7 (75264)
I1130 10:20:52.680001 30034 net.cpp:137] Memory required for data: 1749235840
I1130 10:20:52.680007 30034 layer_factory.hpp:77] Creating layer inception_5b/relu_5x5_reduce
I1130 10:20:52.680012 30034 net.cpp:84] Creating Layer inception_5b/relu_5x5_reduce
I1130 10:20:52.680019 30034 net.cpp:406] inception_5b/relu_5x5_reduce <- inception_5b/5x5_reduce
I1130 10:20:52.680024 30034 net.cpp:367] inception_5b/relu_5x5_reduce -> inception_5b/5x5_reduce (in-place)
I1130 10:20:52.680030 30034 net.cpp:122] Setting up inception_5b/relu_5x5_reduce
I1130 10:20:52.680034 30034 net.cpp:129] Top shape: 32 48 7 7 (75264)
I1130 10:20:52.680037 30034 net.cpp:137] Memory required for data: 1749536896
I1130 10:20:52.680040 30034 layer_factory.hpp:77] Creating layer inception_5b/5x5
I1130 10:20:52.680048 30034 net.cpp:84] Creating Layer inception_5b/5x5
I1130 10:20:52.680063 30034 net.cpp:406] inception_5b/5x5 <- inception_5b/5x5_reduce
I1130 10:20:52.680068 30034 net.cpp:380] inception_5b/5x5 -> inception_5b/5x5
I1130 10:20:52.681141 30034 net.cpp:122] Setting up inception_5b/5x5
I1130 10:20:52.681149 30034 net.cpp:129] Top shape: 32 128 7 7 (200704)
I1130 10:20:52.681152 30034 net.cpp:137] Memory required for data: 1750339712
I1130 10:20:52.681157 30034 layer_factory.hpp:77] Creating layer inception_5b/relu_5x5
I1130 10:20:52.681162 30034 net.cpp:84] Creating Layer inception_5b/relu_5x5
I1130 10:20:52.681166 30034 net.cpp:406] inception_5b/relu_5x5 <- inception_5b/5x5
I1130 10:20:52.681171 30034 net.cpp:367] inception_5b/relu_5x5 -> inception_5b/5x5 (in-place)
I1130 10:20:52.681176 30034 net.cpp:122] Setting up inception_5b/relu_5x5
I1130 10:20:52.681180 30034 net.cpp:129] Top shape: 32 128 7 7 (200704)
I1130 10:20:52.681183 30034 net.cpp:137] Memory required for data: 1751142528
I1130 10:20:52.681186 30034 layer_factory.hpp:77] Creating layer inception_5b/pool
I1130 10:20:52.681192 30034 net.cpp:84] Creating Layer inception_5b/pool
I1130 10:20:52.681197 30034 net.cpp:406] inception_5b/pool <- inception_5a/output_inception_5a/output_0_split_3
I1130 10:20:52.681202 30034 net.cpp:380] inception_5b/pool -> inception_5b/pool
I1130 10:20:52.681238 30034 net.cpp:122] Setting up inception_5b/pool
I1130 10:20:52.681244 30034 net.cpp:129] Top shape: 32 832 7 7 (1304576)
I1130 10:20:52.681247 30034 net.cpp:137] Memory required for data: 1756360832
I1130 10:20:52.681251 30034 layer_factory.hpp:77] Creating layer inception_5b/pool_proj
I1130 10:20:52.681259 30034 net.cpp:84] Creating Layer inception_5b/pool_proj
I1130 10:20:52.681263 30034 net.cpp:406] inception_5b/pool_proj <- inception_5b/pool
I1130 10:20:52.681269 30034 net.cpp:380] inception_5b/pool_proj -> inception_5b/pool_proj
I1130 10:20:52.682469 30034 net.cpp:122] Setting up inception_5b/pool_proj
I1130 10:20:52.682478 30034 net.cpp:129] Top shape: 32 128 7 7 (200704)
I1130 10:20:52.682482 30034 net.cpp:137] Memory required for data: 1757163648
I1130 10:20:52.682487 30034 layer_factory.hpp:77] Creating layer inception_5b/relu_pool_proj
I1130 10:20:52.682494 30034 net.cpp:84] Creating Layer inception_5b/relu_pool_proj
I1130 10:20:52.682499 30034 net.cpp:406] inception_5b/relu_pool_proj <- inception_5b/pool_proj
I1130 10:20:52.682505 30034 net.cpp:367] inception_5b/relu_pool_proj -> inception_5b/pool_proj (in-place)
I1130 10:20:52.682512 30034 net.cpp:122] Setting up inception_5b/relu_pool_proj
I1130 10:20:52.682516 30034 net.cpp:129] Top shape: 32 128 7 7 (200704)
I1130 10:20:52.682519 30034 net.cpp:137] Memory required for data: 1757966464
I1130 10:20:52.682521 30034 layer_factory.hpp:77] Creating layer inception_5b/output
I1130 10:20:52.682528 30034 net.cpp:84] Creating Layer inception_5b/output
I1130 10:20:52.682530 30034 net.cpp:406] inception_5b/output <- inception_5b/1x1
I1130 10:20:52.682534 30034 net.cpp:406] inception_5b/output <- inception_5b/3x3
I1130 10:20:52.682538 30034 net.cpp:406] inception_5b/output <- inception_5b/5x5
I1130 10:20:52.682543 30034 net.cpp:406] inception_5b/output <- inception_5b/pool_proj
I1130 10:20:52.682548 30034 net.cpp:380] inception_5b/output -> inception_5b/output
I1130 10:20:52.682571 30034 net.cpp:122] Setting up inception_5b/output
I1130 10:20:52.682577 30034 net.cpp:129] Top shape: 32 1024 7 7 (1605632)
I1130 10:20:52.682580 30034 net.cpp:137] Memory required for data: 1764388992
I1130 10:20:52.682584 30034 layer_factory.hpp:77] Creating layer pool5/7x7_s1
I1130 10:20:52.682590 30034 net.cpp:84] Creating Layer pool5/7x7_s1
I1130 10:20:52.682595 30034 net.cpp:406] pool5/7x7_s1 <- inception_5b/output
I1130 10:20:52.682600 30034 net.cpp:380] pool5/7x7_s1 -> pool5/7x7_s1
I1130 10:20:52.682622 30034 net.cpp:122] Setting up pool5/7x7_s1
I1130 10:20:52.682628 30034 net.cpp:129] Top shape: 32 1024 1 1 (32768)
I1130 10:20:52.682631 30034 net.cpp:137] Memory required for data: 1764520064
I1130 10:20:52.682633 30034 layer_factory.hpp:77] Creating layer pool5/drop_7x7_s1
I1130 10:20:52.682642 30034 net.cpp:84] Creating Layer pool5/drop_7x7_s1
I1130 10:20:52.682646 30034 net.cpp:406] pool5/drop_7x7_s1 <- pool5/7x7_s1
I1130 10:20:52.682651 30034 net.cpp:367] pool5/drop_7x7_s1 -> pool5/7x7_s1 (in-place)
I1130 10:20:52.682675 30034 net.cpp:122] Setting up pool5/drop_7x7_s1
I1130 10:20:52.682683 30034 net.cpp:129] Top shape: 32 1024 1 1 (32768)
I1130 10:20:52.682687 30034 net.cpp:137] Memory required for data: 1764651136
I1130 10:20:52.682689 30034 layer_factory.hpp:77] Creating layer fc_scv_dirty
I1130 10:20:52.682696 30034 net.cpp:84] Creating Layer fc_scv_dirty
I1130 10:20:52.682700 30034 net.cpp:406] fc_scv_dirty <- pool5/7x7_s1
I1130 10:20:52.682708 30034 net.cpp:380] fc_scv_dirty -> fc_scv_dirty
I1130 10:20:52.682806 30034 net.cpp:122] Setting up fc_scv_dirty
I1130 10:20:52.682812 30034 net.cpp:129] Top shape: 32 1 (32)
I1130 10:20:52.682816 30034 net.cpp:137] Memory required for data: 1764651264
I1130 10:20:52.682821 30034 layer_factory.hpp:77] Creating layer loss
I1130 10:20:52.682827 30034 net.cpp:84] Creating Layer loss
I1130 10:20:52.682832 30034 net.cpp:406] loss <- fc_scv_dirty
I1130 10:20:52.682837 30034 net.cpp:406] loss <- label
I1130 10:20:52.682843 30034 net.cpp:380] loss -> loss
I1130 10:20:52.682879 30034 net.cpp:122] Setting up loss
…
I1130 10:20:52.690865 30034 net.cpp:294] The NetState phase (1) differed from the phase (0) specified by a rule in layer data
I1130 10:20:52.691632 30034 net.cpp:51] Initializing net from parameters: 
name: "GoogleNet-Places365-SCV-Dirty"
state {
  phase: TEST
}
layer {
  name: "data"
  type: "Data"
  top: "data"
  top: "label"
  include {
    phase: TEST
  }
  transform_param {
    mirror: false
    crop_size: 224
    mean_file: "/idiap/temp/lmedina/fine-tuning/googlenet_places365/places365CNN_mean.binaryproto"
  }
  data_param {
    source: "/idiap/temp/lmedina/fine-tuning/data/Dirty/validation_lmdb"
    batch_size: 32
    backend: LMDB
  }
}
layer {
  name: "conv1/7x7_s2"
  type: "Convolution"
  bottom: "data"
  top: "conv1/7x7_s2"
  param {
    lr_mult: 1
    decay_mult: 1
  }
  param {
    lr_mult: 2
    decay_mult: 0
  }
  convolution_param {
    num_output: 64
    pad: 3
    kernel_size: 7
    stride: 2
    weight_filler {
      type: "xavier"
      std: 0.1
    }
    bias_filler {
      type: "constant"
      value: 0.2
    }
  }
}
layer {
  name: "conv1/relu_7x7"
  type: "ReLU"
  bottom: "conv1/7x7_s2"
  top: "conv1/7x7_s2"
}
layer {
  name: "pool1/3x3_s2"
  type: "Pooling"
  bottom: "conv1/7x7_s2"
  top: "pool1/3x3_s2"
  pooling_param {
    pool: MAX
    kernel_size: 3
    stride: 2
  }
}
layer {
  name: "pool1/norm1"
  type: "LRN"
  bottom: "pool1/3x3_s2"
  top: "pool1/norm1"
  lrn_param {
    local_size: 5
    alpha: 0.0001
    beta: 0.75
  }
}
layer {
  name: "conv2/3x3_reduce"
  type: "Convolution"
  bottom: "pool1/norm1"
  top: "conv2/3x3_reduce"
  param {
    lr_mult: 1
    decay_mult: 1
  }
  param {
    lr_mult: 2
    decay_mult: 0
  }
  convolution_param {
    num_output: 64
    kernel_size: 1
    weight_filler {
      type: "xavier"
      std: 0.1
    }
    bias_filler {
      type: "constant"
      value: 0.2
    }
  }
}
layer {
  name: "conv2/relu_3x3_reduce"
  type: "ReLU"
  bottom: "conv2/3x3_reduce"
  top: "conv2/3x3_reduce"
}
layer {
  name: "conv2/3x3"
  type: "Convolution"
  bottom: "conv2/3x3_reduce"
  top: "conv2/3x3"
  param {
    lr_mult: 1
    decay_mult: 1
  }
  param {
    lr_mult: 2
    decay_mult: 0
  }
  convolution_param {
    num_output: 192
    pad: 1
    kernel_size: 3
    weight_filler {
      type: "xavier"
      std: 0.03
    }
    bias_filler {
      type: "constant"
      value: 0.2
    }
  }
}
layer {
  name: "conv2/relu_3x3"
  type: "ReLU"
  bottom: "conv2/3x3"
  top: "conv2/3x3"
}
layer {
  name: "conv2/norm2"
  type: "LRN"
  bottom: "conv2/3x3"
  top: "conv2/norm2"
  lrn_param {
    local_size: 5
    alpha: 0.0001
    beta: 0.75
  }
}
layer {
  name: "pool2/3x3_s2"
  type: "Pooling"
  bottom: "conv2/norm2"
  top: "pool2/3x3_s2"
  pooling_param {
    pool: MAX
    kernel_size: 3
    stride: 2
  }
}
layer {
  name: "inception_3a/1x1"
  type: "Convolution"
  bottom: "pool2/3x3_s2"
  top: "inception_3a/1x1"
  param {
    lr_mult: 1
    decay_mult: 1
  }
  param {
    lr_mult: 2
    decay_mult: 0
  }
  convolution_param {
    num_output: 64
    kernel_size: 1
    weight_filler {
      type: "xavier"
      std: 0.03
    }
    bias_filler {
      type: "constant"
      value: 0.2
    }
  }
}
layer {
  name: "inception_3a/relu_1x1"
  type: "ReLU"
  bottom: "inception_3a/1x1"
  top: "inception_3a/1x1"
}
layer {
  name: "inception_3a/3x3_reduce"
  type: "Convolution"
  bottom: "pool2/3x3_s2"
  top: "inception_3a/3x3_reduce"
  param {
    lr_mult: 1
    decay_mult: 1
  }
  param {
    lr_mult: 2
    decay_mult: 0
  }
  convolution_param {
    num_output: 96
    kernel_size: 1
    weight_filler {
      type: "xavier"
      std: 0.09
    }
    bias_filler {
      type: "constant"
      value: 0.2
    }
  }
}
layer {
  name: "inception_3a/relu_3x3_reduce"
  type: "ReLU"
  bottom: "inception_3a/3x3_reduce"
  top: "inception_3a/3x3_reduce"
}
layer {
  name: "inception_3a/3x3"
  type: "Convolution"
  bottom: "inception_3a/3x3_reduce"
  top: "inception_3a/3x3"
  param {
    lr_mult: 1
    decay_mult: 1
  }
  param {
    lr_mult: 2
    decay_mult: 0
  }
  convolution_param {
    num_output: 128
    pad: 1
    kernel_size: 3
    weight_filler {
      type: "xavier"
      std: 0.03
    }
    bias_filler {
      type: "constant"
      value: 0.2
    }
  }
}
layer {
  name: "inception_3a/relu_3x3"
  type: "ReLU"
  bottom: "inception_3a/3x3"
  top: "inception_3a/3x3"
}
layer {
  name: "inception_3a/5x5_reduce"
  type: "Convolution"
  bottom: "pool2/3x3_s2"
  top: "inception_3a/5x5_reduce"
  param {
    lr_mult: 1
    decay_mult: 1
  }
  param {
    lr_mult: 2
    decay_mult: 0
  }
  convolution_param {
    num_output: 16
    kernel_size: 1
    weight_filler {
      type: "xavier"
      std: 0.2
    }
    bias_filler {
      type: "constant"
      value: 0.2
    }
  }
}
layer {
  name: "inception_3a/relu_5x5_reduce"
  type: "ReLU"
  bottom: "inception_3a/5x5_reduce"
  top: "inception_3a/5x5_reduce"
}
layer {
  name: "inception_3a/5x5"
  type: "Convolution"
  bottom: "inception_3a/5x5_reduce"
  top: "inception_3a/5x5"
  param {
    lr_mult: 1
    decay_mult: 1
  }
  param {
    lr_mult: 2
    decay_mult: 0
  }
  convolution_param {
    num_output: 32
    pad: 2
    kernel_size: 5
    weight_filler {
      type: "xavier"
      std: 0.03
    }
    bias_filler {
      type: "constant"
      value: 0.2
    }
  }
}
layer {
  name: "inception_3a/relu_5x5"
  type: "ReLU"
  bottom: "inception_3a/5x5"
  top: "inception_3a/5x5"
}
layer {
  name: "inception_3a/pool"
  type: "Pooling"
  bottom: "pool2/3x3_s2"
  top: "inception_3a/pool"
  pooling_param {
    pool: MAX
    kernel_size: 3
    stride: 1
    pad: 1
  }
}
layer {
  name: "inception_3a/pool_proj"
  type: "Convolution"
  bottom: "inception_3a/pool"
  top: "inception_3a/pool_proj"
  param {
    lr_mult: 1
    decay_mult: 1
  }
  param {
    lr_mult: 2
    decay_mult: 0
  }
  convolution_param {
    num_output: 32
    kernel_size: 1
    weight_filler {
      type: "xavier"
      std: 0.1
    }
    bias_filler {
      type: "constant"
      value: 0.2
    }
  }
}
layer {
  name: "inception_3a/relu_pool_proj"
  type: "ReLU"
  bottom: "inception_3a/pool_proj"
  top: "inception_3a/pool_proj"
}
layer {
  name: "inception_3a/output"
  type: "Concat"
  bottom: "inception_3a/1x1"
  bottom: "inception_3a/3x3"
  bottom: "inception_3a/5x5"
  bottom: "inception_3a/pool_proj"
  top: "inception_3a/output"
}
layer {
  name: "inception_3b/1x1"
  type: "Convolution"
  bottom: "inception_3a/output"
  top: "inception_3b/1x1"
  param {
    lr_mult: 1
    decay_mult: 1
  }
  param {
    lr_mult: 2
    decay_mult: 0
  }
  convolution_param {
    num_output: 128
    kernel_size: 1
    weight_filler {
      type: "xavier"
      std: 0.03
    }
    bias_filler {
      type: "constant"
      value: 0.2
    }
  }
}
layer {
  name: "inception_3b/relu_1x1"
  type: "ReLU"
  bottom: "inception_3b/1x1"
  top: "inception_3b/1x1"
}
layer {
  name: "inception_3b/3x3_reduce"
  type: "Convolution"
  bottom: "inception_3a/output"
  top: "inception_3b/3x3_reduce"
  param {
    lr_mult: 1
    decay_mult: 1
  }
  param {
    lr_mult: 2
    decay_mult: 0
  }
  convolution_param {
    num_output: 128
    kernel_size: 1
    weight_filler {
      type: "xavier"
      std: 0.09
    }
    bias_filler {
      type: "constant"
      value: 0.2
    }
  }
}
layer {
  name: "inception_3b/relu_3x3_reduce"
  type: "ReLU"
  bottom: "inception_3b/3x3_reduce"
  top: "inception_3b/3x3_reduce"
}
layer {
  name: "inception_3b/3x3"
  type: "Convolution"
  bottom: "inception_3b/3x3_reduce"
  top: "inception_3b/3x3"
  param {
    lr_mult: 1
    decay_mult: 1
  }
  param {
    lr_mult: 2
    decay_mult: 0
  }
  convolution_param {
    num_output: 192
    pad: 1
    kernel_size: 3
    weight_filler {
      type: "xavier"
      std: 0.03
    }
    bias_filler {
      type: "constant"
      value: 0.2
    }
  }
}
layer {
  name: "inception_3b/relu_3x3"
  type: "ReLU"
  bottom: "inception_3b/3x3"
  top: "inception_3b/3x3"
}
layer {
  name: "inception_3b/5x5_reduce"
  type: "Convolution"
  bottom: "inception_3a/output"
  top: "inception_3b/5x5_reduce"
  param {
    lr_mult: 1
    decay_mult: 1
  }
  param {
    lr_mult: 2
    decay_mult: 0
  }
  convolution_param {
    num_output: 32
    kernel_size: 1
    weight_filler {
      type: "xavier"
      std: 0.2
    }
    bias_filler {
      type: "constant"
      value: 0.2
    }
  }
}
layer {
  name: "inception_3b/relu_5x5_reduce"
  type: "ReLU"
  bottom: "inception_3b/5x5_reduce"
  top: "inception_3b/5x5_reduce"
}
layer {
  name: "inception_3b/5x5"
  type: "Convolution"
  bottom: "inception_3b/5x5_reduce"
  top: "inception_3b/5x5"
  param {
    lr_mult: 1
    decay_mult: 1
  }
  param {
    lr_mult: 2
    decay_mult: 0
  }
  convolution_param {
    num_output: 96
    pad: 2
    kernel_size: 5
    weight_filler {
      type: "xavier"
      std: 0.03
    }
    bias_filler {
      type: "constant"
      value: 0.2
    }
  }
}
layer {
  name: "inception_3b/relu_5x5"
  type: "ReLU"
  bottom: "inception_3b/5x5"
  top: "inception_3b/5x5"
}
layer {
  name: "inception_3b/pool"
  type: "Pooling"
  bottom: "inception_3a/output"
  top: "inception_3b/pool"
  pooling_param {
    pool: MAX
    kernel_size: 3
    stride: 1
    pad: 1
  }
}
layer {
  name: "inception_3b/pool_proj"
  type: "Convolution"
  bottom: "inception_3b/pool"
  top: "inception_3b/pool_proj"
  param {
    lr_mult: 1
    decay_mult: 1
  }
  param {
    lr_mult: 2
    decay_mult: 0
  }
  convolution_param {
    num_output: 64
    kernel_size: 1
    weight_filler {
      type: "xavier"
      std: 0.1
    }
    bias_filler {
      type: "constant"
      value: 0.2
    }
  }
}
layer {
  name: "inception_3b/relu_pool_proj"
  type: "ReLU"
  bottom: "inception_3b/pool_proj"
  top: "inception_3b/pool_proj"
}
layer {
  name: "inception_3b/output"
  type: "Concat"
  bottom: "inception_3b/1x1"
  bottom: "inception_3b/3x3"
  bottom: "inception_3b/5x5"
  bottom: "inception_3b/pool_proj"
  top: "inception_3b/output"
}
layer {
  name: "pool3/3x3_s2"
  type: "Pooling"
  bottom: "inception_3b/output"
  top: "pool3/3x3_s2"
  pooling_param {
    pool: MAX
    kernel_size: 3
    stride: 2
  }
}
layer {
  name: "inception_4a/1x1"
  type: "Convolution"
  bottom: "pool3/3x3_s2"
  top: "inception_4a/1x1"
  param {
    lr_mult: 1
    decay_mult: 1
  }
  param {
    lr_mult: 2
    decay_mult: 0
  }
  convolution_param {
    num_output: 192
    kernel_size: 1
    weight_filler {
      type: "xavier"
      std: 0.03
    }
    bias_filler {
      type: "constant"
      value: 0.2
    }
  }
}
layer {
  name: "inception_4a/relu_1x1"
  type: "ReLU"
  bottom: "inception_4a/1x1"
  top: "inception_4a/1x1"
}
layer {
  name: "inception_4a/3x3_reduce"
  type: "Convolution"
  bottom: "pool3/3x3_s2"
  top: "inception_4a/3x3_reduce"
  param {
    lr_mult: 1
    decay_mult: 1
  }
  param {
    lr_mult: 2
    decay_mult: 0
  }
  convolution_param {
    num_output: 96
    kernel_size: 1
    weight_filler {
      type: "xavier"
      std: 0.09
    }
    bias_filler {
      type: "constant"
      value: 0.2
    }
  }
}
layer {
  name: "inception_4a/relu_3x3_reduce"
  type: "ReLU"
  bottom: "inception_4a/3x3_reduce"
  top: "inception_4a/3x3_reduce"
}
layer {
  name: "inception_4a/3x3"
  type: "Convolution"
  bottom: "inception_4a/3x3_reduce"
  top: "inception_4a/3x3"
  param {
    lr_mult: 1
    decay_mult: 1
  }
  param {
    lr_mult: 2
    decay_mult: 0
  }
  convolution_param {
    num_output: 208
    pad: 1
    kernel_size: 3
    weight_filler {
      type: "xavier"
      std: 0.03
    }
    bias_filler {
      type: "constant"
      value: 0.2
    }
  }
}
layer {
  name: "inception_4a/relu_3x3"
  type: "ReLU"
  bottom: "inception_4a/3x3"
  top: "inception_4a/3x3"
}
layer {
  name: "inception_4a/5x5_reduce"
  type: "Convolution"
  bottom: "pool3/3x3_s2"
  top: "inception_4a/5x5_reduce"
  param {
    lr_mult: 1
    decay_mult: 1
  }
  param {
    lr_mult: 2
    decay_mult: 0
  }
  convolution_param {
    num_output: 16
    kernel_size: 1
    weight_filler {
      type: "xavier"
      std: 0.2
    }
    bias_filler {
      type: "constant"
      value: 0.2
    }
  }
}
layer {
  name: "inception_4a/relu_5x5_reduce"
  type: "ReLU"
  bottom: "inception_4a/5x5_reduce"
  top: "inception_4a/5x5_reduce"
}
layer {
  name: "inception_4a/5x5"
  type: "Convolution"
  bottom: "inception_4a/5x5_reduce"
  top: "inception_4a/5x5"
  param {
    lr_mult: 1
    decay_mult: 1
  }
  param {
    lr_mult: 2
    decay_mult: 0
  }
  convolution_param {
    num_output: 48
    pad: 2
    kernel_size: 5
    weight_filler {
      type: "xavier"
      std: 0.03
    }
    bias_filler {
      type: "constant"
      value: 0.2
    }
  }
}
layer {
  name: "inception_4a/relu_5x5"
  type: "ReLU"
  bottom: "inception_4a/5x5"
  top: "inception_4a/5x5"
}
layer {
  name: "inception_4a/pool"
  type: "Pooling"
  bottom: "pool3/3x3_s2"
  top: "inception_4a/pool"
  pooling_param {
    pool: MAX
    kernel_size: 3
    stride: 1
    pad: 1
  }
}
layer {
  name: "inception_4a/pool_proj"
  type: "Convolution"
  bottom: "inception_4a/pool"
  top: "inception_4a/pool_proj"
  param {
    lr_mult: 1
    decay_mult: 1
  }
  param {
    lr_mult: 2
    decay_mult: 0
  }
  convolution_param {
    num_output: 64
    kernel_size: 1
    weight_filler {
      type: "xavier"
      std: 0.1
    }
    bias_filler {
      type: "constant"
      value: 0.2
    }
  }
}
layer {
  name: "inception_4a/relu_pool_proj"
  type: "ReLU"
  bottom: "inception_4a/pool_proj"
  top: "inception_4a/pool_proj"
}
layer {
  name: "inception_4a/output"
  type: "Concat"
  bottom: "inception_4a/1x1"
  bottom: "inception_4a/3x3"
  bottom: "inception_4a/5x5"
  bottom: "inception_4a/pool_proj"
  top: "inception_4a/output"
}
layer {
  name: "inception_4b/1x1"
  type: "Convolution"
  bottom: "inception_4a/output"
  top: "inception_4b/1x1"
  param {
    lr_mult: 1
    decay_mult: 1
  }
  param {
    lr_mult: 2
    decay_mult: 0
  }
  convolution_param {
    num_output: 160
    kernel_size: 1
    weight_filler {
      type: "xavier"
      std: 0.03
    }
    bias_filler {
      type: "constant"
      value: 0.2
    }
  }
}
layer {
  name: "inception_4b/relu_1x1"
  type: "ReLU"
  bottom: "inception_4b/1x1"
  top: "inception_4b/1x1"
}
layer {
  name: "inception_4b/3x3_reduce"
  type: "Convolution"
  bottom: "inception_4a/output"
  top: "inception_4b/3x3_reduce"
  param {
    lr_mult: 1
    decay_mult: 1
  }
  param {
    lr_mult: 2
    decay_mult: 0
  }
  convolution_param {
    num_output: 112
    kernel_size: 1
    weight_filler {
      type: "xavier"
      std: 0.09
    }
    bias_filler {
      type: "constant"
      value: 0.2
    }
  }
}
layer {
  name: "inception_4b/relu_3x3_reduce"
  type: "ReLU"
  bottom: "inception_4b/3x3_reduce"
  top: "inception_4b/3x3_reduce"
}
layer {
  name: "inception_4b/3x3"
  type: "Convolution"
  bottom: "inception_4b/3x3_reduce"
  top: "inception_4b/3x3"
  param {
    lr_mult: 1
    decay_mult: 1
  }
  param {
    lr_mult: 2
    decay_mult: 0
  }
  convolution_param {
    num_output: 224
    pad: 1
    kernel_size: 3
    weight_filler {
      type: "xavier"
      std: 0.03
    }
    bias_filler {
      type: "constant"
      value: 0.2
    }
  }
}
layer {
  name: "inception_4b/relu_3x3"
  type: "ReLU"
  bottom: "inception_4b/3x3"
  top: "inception_4b/3x3"
}
layer {
  name: "inception_4b/5x5_reduce"
  type: "Convolution"
  bottom: "inception_4a/output"
  top: "inception_4b/5x5_reduce"
  param {
    lr_mult: 1
    decay_mult: 1
  }
  param {
    lr_mult: 2
    decay_mult: 0
  }
  convolution_param {
    num_output: 24
    kernel_size: 1
    weight_filler {
      type: "xavier"
      std: 0.2
    }
    bias_filler {
      type: "constant"
      value: 0.2
    }
  }
}
layer {
  name: "inception_4b/relu_5x5_reduce"
  type: "ReLU"
  bottom: "inception_4b/5x5_reduce"
  top: "inception_4b/5x5_reduce"
}
layer {
  name: "inception_4b/5x5"
  type: "Convolution"
  bottom: "inception_4b/5x5_reduce"
  top: "inception_4b/5x5"
  param {
    lr_mult: 1
    decay_mult: 1
  }
  param {
    lr_mult: 2
    decay_mult: 0
  }
  convolution_param {
    num_output: 64
    pad: 2
    kernel_size: 5
    weight_filler {
      type: "xavier"
      std: 0.03
    }
    bias_filler {
      type: "constant"
      value: 0.2
    }
  }
}
layer {
  name: "inception_4b/relu_5x5"
  type: "ReLU"
  bottom: "inception_4b/5x5"
  top: "inception_4b/5x5"
}
layer {
  name: "inception_4b/pool"
  type: "Pooling"
  bottom: "inception_4a/output"
  top: "inception_4b/pool"
  pooling_param {
    pool: MAX
    kernel_size: 3
    stride: 1
    pad: 1
  }
}
layer {
  name: "inception_4b/pool_proj"
  type: "Convolution"
  bottom: "inception_4b/pool"
  top: "inception_4b/pool_proj"
  param {
    lr_mult: 1
    decay_mult: 1
  }
  param {
    lr_mult: 2
    decay_mult: 0
  }
  convolution_param {
    num_output: 64
    kernel_size: 1
    weight_filler {
      type: "xavier"
      std: 0.1
    }
    bias_filler {
      type: "constant"
      value: 0.2
    }
  }
}
layer {
  name: "inception_4b/relu_pool_proj"
  type: "ReLU"
  bottom: "inception_4b/pool_proj"
  top: "inception_4b/pool_proj"
}
layer {
  name: "inception_4b/output"
  type: "Concat"
  bottom: "inception_4b/1x1"
  bottom: "inception_4b/3x3"
  bottom: "inception_4b/5x5"
  bottom: "inception_4b/pool_proj"
  top: "inception_4b/output"
}
layer {
  name: "inception_4c/1x1"
  type: "Convolution"
  bottom: "inception_4b/output"
  top: "inception_4c/1x1"
  param {
    lr_mult: 1
    decay_mult: 1
  }
  param {
    lr_mult: 2
    decay_mult: 0
  }
  convolution_param {
    num_output: 128
    kernel_size: 1
    weight_filler {
      type: "xavier"
      std: 0.03
    }
    bias_filler {
      type: "constant"
      value: 0.2
    }
  }
}
layer {
  name: "inception_4c/relu_1x1"
  type: "ReLU"
  bottom: "inception_4c/1x1"
  top: "inception_4c/1x1"
}
layer {
  name: "inception_4c/3x3_reduce"
  type: "Convolution"
  bottom: "inception_4b/output"
  top: "inception_4c/3x3_reduce"
  param {
    lr_mult: 1
    decay_mult: 1
  }
  param {
    lr_mult: 2
    decay_mult: 0
  }
  convolution_param {
    num_output: 128
    kernel_size: 1
    weight_filler {
      type: "xavier"
      std: 0.09
    }
    bias_filler {
      type: "constant"
      value: 0.2
    }
  }
}
layer {
  name: "inception_4c/relu_3x3_reduce"
  type: "ReLU"
  bottom: "inception_4c/3x3_reduce"
  top: "inception_4c/3x3_reduce"
}
layer {
  name: "inception_4c/3x3"
  type: "Convolution"
  bottom: "inception_4c/3x3_reduce"
  top: "inception_4c/3x3"
  param {
    lr_mult: 1
    decay_mult: 1
  }
  param {
    lr_mult: 2
    decay_mult: 0
  }
  convolution_param {
    num_output: 256
    pad: 1
    kernel_size: 3
    weight_filler {
      type: "xavier"
      std: 0.03
    }
    bias_filler {
      type: "constant"
      value: 0.2
    }
  }
}
layer {
  name: "inception_4c/relu_3x3"
  type: "ReLU"
  bottom: "inception_4c/3x3"
  top: "inception_4c/3x3"
}
layer {
  name: "inception_4c/5x5_reduce"
  type: "Convolution"
  bottom: "inception_4b/output"
  top: "inception_4c/5x5_reduce"
  param {
    lr_mult: 1
    decay_mult: 1
  }
  param {
    lr_mult: 2
    decay_mult: 0
  }
  convolution_param {
    num_output: 24
    kernel_size: 1
    weight_filler {
      type: "xavier"
      std: 0.2
    }
    bias_filler {
      type: "constant"
      value: 0.2
    }
  }
}
layer {
  name: "inception_4c/relu_5x5_reduce"
  type: "ReLU"
  bottom: "inception_4c/5x5_reduce"
  top: "inception_4c/5x5_reduce"
}
layer {
  name: "inception_4c/5x5"
  type: "Convolution"
  bottom: "inception_4c/5x5_reduce"
  top: "inception_4c/5x5"
  param {
    lr_mult: 1
    decay_mult: 1
  }
  param {
    lr_mult: 2
    decay_mult: 0
  }
  convolution_param {
    num_output: 64
    pad: 2
    kernel_size: 5
    weight_filler {
      type: "xavier"
      std: 0.03
    }
    bias_filler {
      type: "constant"
      value: 0.2
    }
  }
}
layer {
  name: "inception_4c/relu_5x5"
  type: "ReLU"
  bottom: "inception_4c/5x5"
  top: "inception_4c/5x5"
}
layer {
  name: "inception_4c/pool"
  type: "Pooling"
  bottom: "inception_4b/output"
  top: "inception_4c/pool"
  pooling_param {
    pool: MAX
    kernel_size: 3
    stride: 1
    pad: 1
  }
}
layer {
  name: "inception_4c/pool_proj"
  type: "Convolution"
  bottom: "inception_4c/pool"
  top: "inception_4c/pool_proj"
  param {
    lr_mult: 1
    decay_mult: 1
  }
  param {
    lr_mult: 2
    decay_mult: 0
  }
  convolution_param {
    num_output: 64
    kernel_size: 1
    weight_filler {
      type: "xavier"
      std: 0.1
    }
    bias_filler {
      type: "constant"
      value: 0.2
    }
  }
}
layer {
  name: "inception_4c/relu_pool_proj"
  type: "ReLU"
  bottom: "inception_4c/pool_proj"
  top: "inception_4c/pool_proj"
}
layer {
  name: "inception_4c/output"
  type: "Concat"
  bottom: "inception_4c/1x1"
  bottom: "inception_4c/3x3"
  bottom: "inception_4c/5x5"
  bottom: "inception_4c/pool_proj"
  top: "inception_4c/output"
}
layer {
  name: "inception_4d/1x1"
  type: "Convolution"
  bottom: "inception_4c/output"
  top: "inception_4d/1x1"
  param {
    lr_mult: 1
    decay_mult: 1
  }
  param {
    lr_mult: 2
    decay_mult: 0
  }
  convolution_param {
    num_output: 112
    kernel_size: 1
    weight_filler {
      type: "xavier"
      std: 0.03
    }
    bias_filler {
      type: "constant"
      value: 0.2
    }
  }
}
layer {
  name: "inception_4d/relu_1x1"
  type: "ReLU"
  bottom: "inception_4d/1x1"
  top: "inception_4d/1x1"
}
layer {
  name: "inception_4d/3x3_reduce"
  type: "Convolution"
  bottom: "inception_4c/output"
  top: "inception_4d/3x3_reduce"
  param {
    lr_mult: 1
    decay_mult: 1
  }
  param {
    lr_mult: 2
    decay_mult: 0
  }
  convolution_param {
    num_output: 144
    kernel_size: 1
    weight_filler {
      type: "xavier"
      std: 0.09
    }
    bias_filler {
      type: "constant"
      value: 0.2
    }
  }
}
layer {
  name: "inception_4d/relu_3x3_reduce"
  type: "ReLU"
  bottom: "inception_4d/3x3_reduce"
  top: "inception_4d/3x3_reduce"
}
layer {
  name: "inception_4d/3x3"
  type: "Convolution"
  bottom: "inception_4d/3x3_reduce"
  top: "inception_4d/3x3"
  param {
    lr_mult: 1
    decay_mult: 1
  }
  param {
    lr_mult: 2
    decay_mult: 0
  }
  convolution_param {
    num_output: 288
    pad: 1
    kernel_size: 3
    weight_filler {
      type: "xavier"
      std: 0.03
    }
    bias_filler {
      type: "constant"
      value: 0.2
    }
  }
}
layer {
  name: "inception_4d/relu_3x3"
  type: "ReLU"
  bottom: "inception_4d/3x3"
  top: "inception_4d/3x3"
}
layer {
  name: "inception_4d/5x5_reduce"
  type: "Convolution"
  bottom: "inception_4c/output"
  top: "inception_4d/5x5_reduce"
  param {
    lr_mult: 1
    decay_mult: 1
  }
  param {
    lr_mult: 2
    decay_mult: 0
  }
  convolution_param {
    num_output: 32
    kernel_size: 1
    weight_filler {
      type: "xavier"
      std: 0.2
    }
    bias_filler {
      type: "constant"
      value: 0.2
    }
  }
}
layer {
  name: "inception_4d/relu_5x5_reduce"
  type: "ReLU"
  bottom: "inception_4d/5x5_reduce"
  top: "inception_4d/5x5_reduce"
}
layer {
  name: "inception_4d/5x5"
  type: "Convolution"
  bottom: "inception_4d/5x5_reduce"
  top: "inception_4d/5x5"
  param {
    lr_mult: 1
    decay_mult: 1
  }
  param {
    lr_mult: 2
    decay_mult: 0
  }
  convolution_param {
    num_output: 64
    pad: 2
    kernel_size: 5
    weight_filler {
      type: "xavier"
      std: 0.03
    }
    bias_filler {
      type: "constant"
      value: 0.2
    }
  }
}
layer {
  name: "inception_4d/relu_5x5"
  type: "ReLU"
  bottom: "inception_4d/5x5"
  top: "inception_4d/5x5"
}
layer {
  name: "inception_4d/pool"
  type: "Pooling"
  bottom: "inception_4c/output"
  top: "inception_4d/pool"
  pooling_param {
    pool: MAX
    kernel_size: 3
    stride: 1
    pad: 1
  }
}
layer {
  name: "inception_4d/pool_proj"
  type: "Convolution"
  bottom: "inception_4d/pool"
  top: "inception_4d/pool_proj"
  param {
    lr_mult: 1
    decay_mult: 1
  }
  param {
    lr_mult: 2
    decay_mult: 0
  }
  convolution_param {
    num_output: 64
    kernel_size: 1
    weight_filler {
      type: "xavier"
      std: 0.1
    }
    bias_filler {
      type: "constant"
      value: 0.2
    }
  }
}
layer {
  name: "inception_4d/relu_pool_proj"
  type: "ReLU"
  bottom: "inception_4d/pool_proj"
  top: "inception_4d/pool_proj"
}
layer {
…
I1130 10:20:52.831904 30034 layer_factory.hpp:77] Creating layer inception_4c/1x1
I1130 10:20:52.831912 30034 net.cpp:84] Creating Layer inception_4c/1x1
I1130 10:20:52.831914 30034 net.cpp:406] inception_4c/1x1 <- inception_4b/output_inception_4b/output_0_split_0
I1130 10:20:52.831920 30034 net.cpp:380] inception_4c/1x1 -> inception_4c/1x1
I1130 10:20:52.832464 30034 net.cpp:122] Setting up inception_4c/1x1
I1130 10:20:52.832473 30034 net.cpp:129] Top shape: 32 128 14 14 (802816)
I1130 10:20:52.832475 30034 net.cpp:137] Memory required for data: 1359569280
I1130 10:20:52.832480 30034 layer_factory.hpp:77] Creating layer inception_4c/relu_1x1
I1130 10:20:52.832486 30034 net.cpp:84] Creating Layer inception_4c/relu_1x1
I1130 10:20:52.832491 30034 net.cpp:406] inception_4c/relu_1x1 <- inception_4c/1x1
I1130 10:20:52.832496 30034 net.cpp:367] inception_4c/relu_1x1 -> inception_4c/1x1 (in-place)
I1130 10:20:52.832502 30034 net.cpp:122] Setting up inception_4c/relu_1x1
I1130 10:20:52.832506 30034 net.cpp:129] Top shape: 32 128 14 14 (802816)
I1130 10:20:52.832509 30034 net.cpp:137] Memory required for data: 1362780544
I1130 10:20:52.832511 30034 layer_factory.hpp:77] Creating layer inception_4c/3x3_reduce
I1130 10:20:52.832516 30034 net.cpp:84] Creating Layer inception_4c/3x3_reduce
I1130 10:20:52.832520 30034 net.cpp:406] inception_4c/3x3_reduce <- inception_4b/output_inception_4b/output_0_split_1
I1130 10:20:52.832525 30034 net.cpp:380] inception_4c/3x3_reduce -> inception_4c/3x3_reduce
I1130 10:20:52.833067 30034 net.cpp:122] Setting up inception_4c/3x3_reduce
I1130 10:20:52.833076 30034 net.cpp:129] Top shape: 32 128 14 14 (802816)
I1130 10:20:52.833078 30034 net.cpp:137] Memory required for data: 1365991808
I1130 10:20:52.833083 30034 layer_factory.hpp:77] Creating layer inception_4c/relu_3x3_reduce
I1130 10:20:52.833088 30034 net.cpp:84] Creating Layer inception_4c/relu_3x3_reduce
I1130 10:20:52.833092 30034 net.cpp:406] inception_4c/relu_3x3_reduce <- inception_4c/3x3_reduce
I1130 10:20:52.833097 30034 net.cpp:367] inception_4c/relu_3x3_reduce -> inception_4c/3x3_reduce (in-place)
I1130 10:20:52.833102 30034 net.cpp:122] Setting up inception_4c/relu_3x3_reduce
I1130 10:20:52.833107 30034 net.cpp:129] Top shape: 32 128 14 14 (802816)
I1130 10:20:52.833109 30034 net.cpp:137] Memory required for data: 1369203072
I1130 10:20:52.833112 30034 layer_factory.hpp:77] Creating layer inception_4c/3x3
I1130 10:20:52.833118 30034 net.cpp:84] Creating Layer inception_4c/3x3
I1130 10:20:52.833122 30034 net.cpp:406] inception_4c/3x3 <- inception_4c/3x3_reduce
I1130 10:20:52.833128 30034 net.cpp:380] inception_4c/3x3 -> inception_4c/3x3
I1130 10:20:52.835216 30034 net.cpp:122] Setting up inception_4c/3x3
I1130 10:20:52.835225 30034 net.cpp:129] Top shape: 32 256 14 14 (1605632)
I1130 10:20:52.835229 30034 net.cpp:137] Memory required for data: 1375625600
I1130 10:20:52.835235 30034 layer_factory.hpp:77] Creating layer inception_4c/relu_3x3
I1130 10:20:52.835242 30034 net.cpp:84] Creating Layer inception_4c/relu_3x3
I1130 10:20:52.835245 30034 net.cpp:406] inception_4c/relu_3x3 <- inception_4c/3x3
I1130 10:20:52.835249 30034 net.cpp:367] inception_4c/relu_3x3 -> inception_4c/3x3 (in-place)
I1130 10:20:52.835255 30034 net.cpp:122] Setting up inception_4c/relu_3x3
I1130 10:20:52.835259 30034 net.cpp:129] Top shape: 32 256 14 14 (1605632)
I1130 10:20:52.835261 30034 net.cpp:137] Memory required for data: 1382048128
I1130 10:20:52.835264 30034 layer_factory.hpp:77] Creating layer inception_4c/5x5_reduce
I1130 10:20:52.835271 30034 net.cpp:84] Creating Layer inception_4c/5x5_reduce
I1130 10:20:52.835274 30034 net.cpp:406] inception_4c/5x5_reduce <- inception_4b/output_inception_4b/output_0_split_2
I1130 10:20:52.835279 30034 net.cpp:380] inception_4c/5x5_reduce -> inception_4c/5x5_reduce
I1130 10:20:52.835554 30034 net.cpp:122] Setting up inception_4c/5x5_reduce
I1130 10:20:52.835561 30034 net.cpp:129] Top shape: 32 24 14 14 (150528)
I1130 10:20:52.835564 30034 net.cpp:137] Memory required for data: 1382650240
I1130 10:20:52.835569 30034 layer_factory.hpp:77] Creating layer inception_4c/relu_5x5_reduce
I1130 10:20:52.835573 30034 net.cpp:84] Creating Layer inception_4c/relu_5x5_reduce
I1130 10:20:52.835577 30034 net.cpp:406] inception_4c/relu_5x5_reduce <- inception_4c/5x5_reduce
I1130 10:20:52.835582 30034 net.cpp:367] inception_4c/relu_5x5_reduce -> inception_4c/5x5_reduce (in-place)
I1130 10:20:52.835588 30034 net.cpp:122] Setting up inception_4c/relu_5x5_reduce
I1130 10:20:52.835592 30034 net.cpp:129] Top shape: 32 24 14 14 (150528)
I1130 10:20:52.835595 30034 net.cpp:137] Memory required for data: 1383252352
I1130 10:20:52.835598 30034 layer_factory.hpp:77] Creating layer inception_4c/5x5
I1130 10:20:52.835605 30034 net.cpp:84] Creating Layer inception_4c/5x5
I1130 10:20:52.835609 30034 net.cpp:406] inception_4c/5x5 <- inception_4c/5x5_reduce
I1130 10:20:52.835614 30034 net.cpp:380] inception_4c/5x5 -> inception_4c/5x5
I1130 10:20:52.836031 30034 net.cpp:122] Setting up inception_4c/5x5
I1130 10:20:52.836040 30034 net.cpp:129] Top shape: 32 64 14 14 (401408)
I1130 10:20:52.836042 30034 net.cpp:137] Memory required for data: 1384857984
I1130 10:20:52.836047 30034 layer_factory.hpp:77] Creating layer inception_4c/relu_5x5
I1130 10:20:52.836055 30034 net.cpp:84] Creating Layer inception_4c/relu_5x5
I1130 10:20:52.836058 30034 net.cpp:406] inception_4c/relu_5x5 <- inception_4c/5x5
I1130 10:20:52.836062 30034 net.cpp:367] inception_4c/relu_5x5 -> inception_4c/5x5 (in-place)
I1130 10:20:52.836066 30034 net.cpp:122] Setting up inception_4c/relu_5x5
I1130 10:20:52.836071 30034 net.cpp:129] Top shape: 32 64 14 14 (401408)
I1130 10:20:52.836072 30034 net.cpp:137] Memory required for data: 1386463616
I1130 10:20:52.836074 30034 layer_factory.hpp:77] Creating layer inception_4c/pool
I1130 10:20:52.836079 30034 net.cpp:84] Creating Layer inception_4c/pool
I1130 10:20:52.836082 30034 net.cpp:406] inception_4c/pool <- inception_4b/output_inception_4b/output_0_split_3
I1130 10:20:52.836088 30034 net.cpp:380] inception_4c/pool -> inception_4c/pool
I1130 10:20:52.836125 30034 net.cpp:122] Setting up inception_4c/pool
I1130 10:20:52.836132 30034 net.cpp:129] Top shape: 32 512 14 14 (3211264)
I1130 10:20:52.836133 30034 net.cpp:137] Memory required for data: 1399308672
I1130 10:20:52.836138 30034 layer_factory.hpp:77] Creating layer inception_4c/pool_proj
I1130 10:20:52.836144 30034 net.cpp:84] Creating Layer inception_4c/pool_proj
I1130 10:20:52.836148 30034 net.cpp:406] inception_4c/pool_proj <- inception_4c/pool
I1130 10:20:52.836155 30034 net.cpp:380] inception_4c/pool_proj -> inception_4c/pool_proj
I1130 10:20:52.836531 30034 net.cpp:122] Setting up inception_4c/pool_proj
I1130 10:20:52.836539 30034 net.cpp:129] Top shape: 32 64 14 14 (401408)
I1130 10:20:52.836541 30034 net.cpp:137] Memory required for data: 1400914304
I1130 10:20:52.836556 30034 layer_factory.hpp:77] Creating layer inception_4c/relu_pool_proj
I1130 10:20:52.836562 30034 net.cpp:84] Creating Layer inception_4c/relu_pool_proj
I1130 10:20:52.836565 30034 net.cpp:406] inception_4c/relu_pool_proj <- inception_4c/pool_proj
I1130 10:20:52.836570 30034 net.cpp:367] inception_4c/relu_pool_proj -> inception_4c/pool_proj (in-place)
I1130 10:20:52.836575 30034 net.cpp:122] Setting up inception_4c/relu_pool_proj
I1130 10:20:52.836580 30034 net.cpp:129] Top shape: 32 64 14 14 (401408)
I1130 10:20:52.836581 30034 net.cpp:137] Memory required for data: 1402519936
I1130 10:20:52.836583 30034 layer_factory.hpp:77] Creating layer inception_4c/output
I1130 10:20:52.836588 30034 net.cpp:84] Creating Layer inception_4c/output
I1130 10:20:52.836591 30034 net.cpp:406] inception_4c/output <- inception_4c/1x1
I1130 10:20:52.836596 30034 net.cpp:406] inception_4c/output <- inception_4c/3x3
I1130 10:20:52.836599 30034 net.cpp:406] inception_4c/output <- inception_4c/5x5
I1130 10:20:52.836603 30034 net.cpp:406] inception_4c/output <- inception_4c/pool_proj
I1130 10:20:52.836607 30034 net.cpp:380] inception_4c/output -> inception_4c/output
I1130 10:20:52.836629 30034 net.cpp:122] Setting up inception_4c/output
I1130 10:20:52.836637 30034 net.cpp:129] Top shape: 32 512 14 14 (3211264)
I1130 10:20:52.836640 30034 net.cpp:137] Memory required for data: 1415364992
I1130 10:20:52.836643 30034 layer_factory.hpp:77] Creating layer inception_4c/output_inception_4c/output_0_split
I1130 10:20:52.836648 30034 net.cpp:84] Creating Layer inception_4c/output_inception_4c/output_0_split
I1130 10:20:52.836652 30034 net.cpp:406] inception_4c/output_inception_4c/output_0_split <- inception_4c/output
I1130 10:20:52.836657 30034 net.cpp:380] inception_4c/output_inception_4c/output_0_split -> inception_4c/output_inception_4c/output_0_split_0
I1130 10:20:52.836663 30034 net.cpp:380] inception_4c/output_inception_4c/output_0_split -> inception_4c/output_inception_4c/output_0_split_1
I1130 10:20:52.836669 30034 net.cpp:380] inception_4c/output_inception_4c/output_0_split -> inception_4c/output_inception_4c/output_0_split_2
I1130 10:20:52.836674 30034 net.cpp:380] inception_4c/output_inception_4c/output_0_split -> inception_4c/output_inception_4c/output_0_split_3
I1130 10:20:52.836727 30034 net.cpp:122] Setting up inception_4c/output_inception_4c/output_0_split
I1130 10:20:52.836735 30034 net.cpp:129] Top shape: 32 512 14 14 (3211264)
I1130 10:20:52.836738 30034 net.cpp:129] Top shape: 32 512 14 14 (3211264)
I1130 10:20:52.836742 30034 net.cpp:129] Top shape: 32 512 14 14 (3211264)
I1130 10:20:52.836746 30034 net.cpp:129] Top shape: 32 512 14 14 (3211264)
I1130 10:20:52.836750 30034 net.cpp:137] Memory required for data: 1466745216
I1130 10:20:52.836751 30034 layer_factory.hpp:77] Creating layer inception_4d/1x1
I1130 10:20:52.836760 30034 net.cpp:84] Creating Layer inception_4d/1x1
I1130 10:20:52.836762 30034 net.cpp:406] inception_4d/1x1 <- inception_4c/output_inception_4c/output_0_split_0
I1130 10:20:52.836768 30034 net.cpp:380] inception_4d/1x1 -> inception_4d/1x1
I1130 10:20:52.837582 30034 net.cpp:122] Setting up inception_4d/1x1
I1130 10:20:52.837591 30034 net.cpp:129] Top shape: 32 112 14 14 (702464)
I1130 10:20:52.837594 30034 net.cpp:137] Memory required for data: 1469555072
I1130 10:20:52.837600 30034 layer_factory.hpp:77] Creating layer inception_4d/relu_1x1
I1130 10:20:52.837607 30034 net.cpp:84] Creating Layer inception_4d/relu_1x1
I1130 10:20:52.837611 30034 net.cpp:406] inception_4d/relu_1x1 <- inception_4d/1x1
I1130 10:20:52.837616 30034 net.cpp:367] inception_4d/relu_1x1 -> inception_4d/1x1 (in-place)
I1130 10:20:52.837621 30034 net.cpp:122] Setting up inception_4d/relu_1x1
I1130 10:20:52.837625 30034 net.cpp:129] Top shape: 32 112 14 14 (702464)
I1130 10:20:52.837628 30034 net.cpp:137] Memory required for data: 1472364928
I1130 10:20:52.837630 30034 layer_factory.hpp:77] Creating layer inception_4d/3x3_reduce
I1130 10:20:52.837638 30034 net.cpp:84] Creating Layer inception_4d/3x3_reduce
I1130 10:20:52.837642 30034 net.cpp:406] inception_4d/3x3_reduce <- inception_4c/output_inception_4c/output_0_split_1
I1130 10:20:52.837647 30034 net.cpp:380] inception_4d/3x3_reduce -> inception_4d/3x3_reduce
I1130 10:20:52.838263 30034 net.cpp:122] Setting up inception_4d/3x3_reduce
I1130 10:20:52.838271 30034 net.cpp:129] Top shape: 32 144 14 14 (903168)
I1130 10:20:52.838274 30034 net.cpp:137] Memory required for data: 1475977600
I1130 10:20:52.838279 30034 layer_factory.hpp:77] Creating layer inception_4d/relu_3x3_reduce
I1130 10:20:52.838285 30034 net.cpp:84] Creating Layer inception_4d/relu_3x3_reduce
I1130 10:20:52.838289 30034 net.cpp:406] inception_4d/relu_3x3_reduce <- inception_4d/3x3_reduce
I1130 10:20:52.838292 30034 net.cpp:367] inception_4d/relu_3x3_reduce -> inception_4d/3x3_reduce (in-place)
I1130 10:20:52.838297 30034 net.cpp:122] Setting up inception_4d/relu_3x3_reduce
I1130 10:20:52.838300 30034 net.cpp:129] Top shape: 32 144 14 14 (903168)
I1130 10:20:52.838304 30034 net.cpp:137] Memory required for data: 1479590272
I1130 10:20:52.838305 30034 layer_factory.hpp:77] Creating layer inception_4d/3x3
I1130 10:20:52.838312 30034 net.cpp:84] Creating Layer inception_4d/3x3
I1130 10:20:52.838316 30034 net.cpp:406] inception_4d/3x3 <- inception_4d/3x3_reduce
I1130 10:20:52.838321 30034 net.cpp:380] inception_4d/3x3 -> inception_4d/3x3
I1130 10:20:52.840917 30034 net.cpp:122] Setting up inception_4d/3x3
I1130 10:20:52.840929 30034 net.cpp:129] Top shape: 32 288 14 14 (1806336)
I1130 10:20:52.840931 30034 net.cpp:137] Memory required for data: 1486815616
I1130 10:20:52.840936 30034 layer_factory.hpp:77] Creating layer inception_4d/relu_3x3
I1130 10:20:52.840941 30034 net.cpp:84] Creating Layer inception_4d/relu_3x3
I1130 10:20:52.840945 30034 net.cpp:406] inception_4d/relu_3x3 <- inception_4d/3x3
I1130 10:20:52.840950 30034 net.cpp:367] inception_4d/relu_3x3 -> inception_4d/3x3 (in-place)
I1130 10:20:52.840955 30034 net.cpp:122] Setting up inception_4d/relu_3x3
I1130 10:20:52.840958 30034 net.cpp:129] Top shape: 32 288 14 14 (1806336)
I1130 10:20:52.840962 30034 net.cpp:137] Memory required for data: 1494040960
I1130 10:20:52.840965 30034 layer_factory.hpp:77] Creating layer inception_4d/5x5_reduce
I1130 10:20:52.840973 30034 net.cpp:84] Creating Layer inception_4d/5x5_reduce
I1130 10:20:52.840977 30034 net.cpp:406] inception_4d/5x5_reduce <- inception_4c/output_inception_4c/output_0_split_2
I1130 10:20:52.840982 30034 net.cpp:380] inception_4d/5x5_reduce -> inception_4d/5x5_reduce
I1130 10:20:52.841286 30034 net.cpp:122] Setting up inception_4d/5x5_reduce
I1130 10:20:52.841295 30034 net.cpp:129] Top shape: 32 32 14 14 (200704)
I1130 10:20:52.841296 30034 net.cpp:137] Memory required for data: 1494843776
I1130 10:20:52.841301 30034 layer_factory.hpp:77] Creating layer inception_4d/relu_5x5_reduce
I1130 10:20:52.841306 30034 net.cpp:84] Creating Layer inception_4d/relu_5x5_reduce
I1130 10:20:52.841310 30034 net.cpp:406] inception_4d/relu_5x5_reduce <- inception_4d/5x5_reduce
I1130 10:20:52.841315 30034 net.cpp:367] inception_4d/relu_5x5_reduce -> inception_4d/5x5_reduce (in-place)
I1130 10:20:52.841320 30034 net.cpp:122] Setting up inception_4d/relu_5x5_reduce
I1130 10:20:52.841323 30034 net.cpp:129] Top shape: 32 32 14 14 (200704)
I1130 10:20:52.841327 30034 net.cpp:137] Memory required for data: 1495646592
I1130 10:20:52.841331 30034 layer_factory.hpp:77] Creating layer inception_4d/5x5
I1130 10:20:52.841338 30034 net.cpp:84] Creating Layer inception_4d/5x5
I1130 10:20:52.841342 30034 net.cpp:406] inception_4d/5x5 <- inception_4d/5x5_reduce
I1130 10:20:52.841347 30034 net.cpp:380] inception_4d/5x5 -> inception_4d/5x5
I1130 10:20:52.841837 30034 net.cpp:122] Setting up inception_4d/5x5
I1130 10:20:52.841845 30034 net.cpp:129] Top shape: 32 64 14 14 (401408)
I1130 10:20:52.841848 30034 net.cpp:137] Memory required for data: 1497252224
I1130 10:20:52.841853 30034 layer_factory.hpp:77] Creating layer inception_4d/relu_5x5
I1130 10:20:52.841858 30034 net.cpp:84] Creating Layer inception_4d/relu_5x5
I1130 10:20:52.841864 30034 net.cpp:406] inception_4d/relu_5x5 <- inception_4d/5x5
I1130 10:20:52.841868 30034 net.cpp:367] inception_4d/relu_5x5 -> inception_4d/5x5 (in-place)
I1130 10:20:52.841874 30034 net.cpp:122] Setting up inception_4d/relu_5x5
I1130 10:20:52.841878 30034 net.cpp:129] Top shape: 32 64 14 14 (401408)
I1130 10:20:52.841881 30034 net.cpp:137] Memory required for data: 1498857856
I1130 10:20:52.841883 30034 layer_factory.hpp:77] Creating layer inception_4d/pool
I1130 10:20:52.841888 30034 net.cpp:84] Creating Layer inception_4d/pool
I1130 10:20:52.841892 30034 net.cpp:406] inception_4d/pool <- inception_4c/output_inception_4c/output_0_split_3
I1130 10:20:52.841897 30034 net.cpp:380] inception_4d/pool -> inception_4d/pool
I1130 10:20:52.841934 30034 net.cpp:122] Setting up inception_4d/pool
I1130 10:20:52.841941 30034 net.cpp:129] Top shape: 32 512 14 14 (3211264)
I1130 10:20:52.841944 30034 net.cpp:137] Memory required for data: 1511702912
I1130 10:20:52.841946 30034 layer_factory.hpp:77] Creating layer inception_4d/pool_proj
I1130 10:20:52.841955 30034 net.cpp:84] Creating Layer inception_4d/pool_proj
I1130 10:20:52.841959 30034 net.cpp:406] inception_4d/pool_proj <- inception_4d/pool
I1130 10:20:52.841965 30034 net.cpp:380] inception_4d/pool_proj -> inception_4d/pool_proj
I1130 10:20:52.842350 30034 net.cpp:122] Setting up inception_4d/pool_proj
I1130 10:20:52.842356 30034 net.cpp:129] Top shape: 32 64 14 14 (401408)
I1130 10:20:52.842360 30034 net.cpp:137] Memory required for data: 1513308544
I1130 10:20:52.842365 30034 layer_factory.hpp:77] Creating layer inception_4d/relu_pool_proj
I1130 10:20:52.842370 30034 net.cpp:84] Creating Layer inception_4d/relu_pool_proj
I1130 10:20:52.842373 30034 net.cpp:406] inception_4d/relu_pool_proj <- inception_4d/pool_proj
I1130 10:20:52.842378 30034 net.cpp:367] inception_4d/relu_pool_proj -> inception_4d/pool_proj (in-place)
I1130 10:20:52.842384 30034 net.cpp:122] Setting up inception_4d/relu_pool_proj
I1130 10:20:52.842388 30034 net.cpp:129] Top shape: 32 64 14 14 (401408)
I1130 10:20:52.842391 30034 net.cpp:137] Memory required for data: 1514914176
I1130 10:20:52.842393 30034 layer_factory.hpp:77] Creating layer inception_4d/output
I1130 10:20:52.842401 30034 net.cpp:84] Creating Layer inception_4d/output
I1130 10:20:52.842406 30034 net.cpp:406] inception_4d/output <- inception_4d/1x1
I1130 10:20:52.842408 30034 net.cpp:406] inception_4d/output <- inception_4d/3x3
I1130 10:20:52.842412 30034 net.cpp:406] inception_4d/output <- inception_4d/5x5
I1130 10:20:52.842417 30034 net.cpp:406] inception_4d/output <- inception_4d/pool_proj
I1130 10:20:52.842422 30034 net.cpp:380] inception_4d/output -> inception_4d/output
I1130 10:20:52.842444 30034 net.cpp:122] Setting up inception_4d/output
I1130 10:20:52.842452 30034 net.cpp:129] Top shape: 32 528 14 14 (3311616)
I1130 10:20:52.842454 30034 net.cpp:137] Memory required for data: 1528160640
I1130 10:20:52.842458 30034 layer_factory.hpp:77] Creating layer inception_4d/output_inception_4d/output_0_split
I1130 10:20:52.842463 30034 net.cpp:84] Creating Layer inception_4d/output_inception_4d/output_0_split
I1130 10:20:52.842466 30034 net.cpp:406] inception_4d/output_inception_4d/output_0_split <- inception_4d/output
I1130 10:20:52.842473 30034 net.cpp:380] inception_4d/output_inception_4d/output_0_split -> inception_4d/output_inception_4d/output_0_split_0
I1130 10:20:52.842478 30034 net.cpp:380] inception_4d/output_inception_4d/output_0_split -> inception_4d/output_inception_4d/output_0_split_1
I1130 10:20:52.842484 30034 net.cpp:380] inception_4d/output_inception_4d/output_0_split -> inception_4d/output_inception_4d/output_0_split_2
I1130 10:20:52.842489 30034 net.cpp:380] inception_4d/output_inception_4d/output_0_split -> inception_4d/output_inception_4d/output_0_split_3
I1130 10:20:52.842545 30034 net.cpp:122] Setting up inception_4d/output_inception_4d/output_0_split
I1130 10:20:52.842552 30034 net.cpp:129] Top shape: 32 528 14 14 (3311616)
I1130 10:20:52.842556 30034 net.cpp:129] Top shape: 32 528 14 14 (3311616)
I1130 10:20:52.842559 30034 net.cpp:129] Top shape: 32 528 14 14 (3311616)
I1130 10:20:52.842563 30034 net.cpp:129] Top shape: 32 528 14 14 (3311616)
I1130 10:20:52.842566 30034 net.cpp:137] Memory required for data: 1581146496
I1130 10:20:52.842569 30034 layer_factory.hpp:77] Creating layer inception_4e/1x1
I1130 10:20:52.842577 30034 net.cpp:84] Creating Layer inception_4e/1x1
I1130 10:20:52.842581 30034 net.cpp:406] inception_4e/1x1 <- inception_4d/output_inception_4d/output_0_split_0
I1130 10:20:52.842588 30034 net.cpp:380] inception_4e/1x1 -> inception_4e/1x1
I1130 10:20:52.843828 30034 net.cpp:122] Setting up inception_4e/1x1
I1130 10:20:52.843837 30034 net.cpp:129] Top shape: 32 256 14 14 (1605632)
I1130 10:20:52.843842 30034 net.cpp:137] Memory required for data: 1587569024
I1130 10:20:52.843847 30034 layer_factory.hpp:77] Creating layer inception_4e/relu_1x1
I1130 10:20:52.843852 30034 net.cpp:84] Creating Layer inception_4e/relu_1x1
I1130 10:20:52.843857 30034 net.cpp:406] inception_4e/relu_1x1 <- inception_4e/1x1
I1130 10:20:52.843861 30034 net.cpp:367] inception_4e/relu_1x1 -> inception_4e/1x1 (in-place)
I1130 10:20:52.843868 30034 net.cpp:122] Setting up inception_4e/relu_1x1
I1130 10:20:52.843871 30034 net.cpp:129] Top shape: 32 256 14 14 (1605632)
I1130 10:20:52.843874 30034 net.cpp:137] Memory required for data: 1593991552
I1130 10:20:52.843878 30034 layer_factory.hpp:77] Creating layer inception_4e/3x3_reduce
I1130 10:20:52.843885 30034 net.cpp:84] Creating Layer inception_4e/3x3_reduce
I1130 10:20:52.843889 30034 net.cpp:406] inception_4e/3x3_reduce <- inception_4d/output_inception_4d/output_0_split_1
I1130 10:20:52.843895 30034 net.cpp:380] inception_4e/3x3_reduce -> inception_4e/3x3_reduce
I1130 10:20:52.844550 30034 net.cpp:122] Setting up inception_4e/3x3_reduce
I1130 10:20:52.844558 30034 net.cpp:129] Top shape: 32 160 14 14 (1003520)
I1130 10:20:52.844561 30034 net.cpp:137] Memory required for data: 1598005632
I1130 10:20:52.844566 30034 layer_factory.hpp:77] Creating layer inception_4e/relu_3x3_reduce
I1130 10:20:52.844571 30034 net.cpp:84] Creating Layer inception_4e/relu_3x3_reduce
I1130 10:20:52.844575 30034 net.cpp:406] inception_4e/relu_3x3_reduce <- inception_4e/3x3_reduce
I1130 10:20:52.844580 30034 net.cpp:367] inception_4e/relu_3x3_reduce -> inception_4e/3x3_reduce (in-place)
I1130 10:20:52.844586 30034 net.cpp:122] Setting up inception_4e/relu_3x3_reduce
I1130 10:20:52.844590 30034 net.cpp:129] Top shape: 32 160 14 14 (1003520)
I1130 10:20:52.844594 30034 net.cpp:137] Memory required for data: 1602019712
I1130 10:20:52.844596 30034 layer_factory.hpp:77] Creating layer inception_4e/3x3
I1130 10:20:52.844604 30034 net.cpp:84] Creating Layer inception_4e/3x3
I1130 10:20:52.844609 30034 net.cpp:406] inception_4e/3x3 <- inception_4e/3x3_reduce
I1130 10:20:52.844614 30034 net.cpp:380] inception_4e/3x3 -> inception_4e/3x3
I1130 10:20:52.847733 30034 net.cpp:122] Setting up inception_4e/3x3
I1130 10:20:52.847743 30034 net.cpp:129] Top shape: 32 320 14 14 (2007040)
I1130 10:20:52.847745 30034 net.cpp:137] Memory required for data: 1610047872
I1130 10:20:52.847751 30034 layer_factory.hpp:77] Creating layer inception_4e/relu_3x3
I1130 10:20:52.847756 30034 net.cpp:84] Creating Layer inception_4e/relu_3x3
I1130 10:20:52.847761 30034 net.cpp:406] inception_4e/relu_3x3 <- inception_4e/3x3
I1130 10:20:52.847765 30034 net.cpp:367] inception_4e/relu_3x3 -> inception_4e/3x3 (in-place)
I1130 10:20:52.847771 30034 net.cpp:122] Setting up inception_4e/relu_3x3
I1130 10:20:52.847776 30034 net.cpp:129] Top shape: 32 320 14 14 (2007040)
I1130 10:20:52.847779 30034 net.cpp:137] Memory required for data: 1618076032
I1130 10:20:52.847781 30034 layer_factory.hpp:77] Creating layer inception_4e/5x5_reduce
I1130 10:20:52.847790 30034 net.cpp:84] Creating Layer inception_4e/5x5_reduce
I1130 10:20:52.847793 30034 net.cpp:406] inception_4e/5x5_reduce <- inception_4d/output_inception_4d/output_0_split_2
I1130 10:20:52.847800 30034 net.cpp:380] inception_4e/5x5_reduce -> inception_4e/5x5_reduce
I1130 10:20:52.848104 30034 net.cpp:122] Setting up inception_4e/5x5_reduce
I1130 10:20:52.848112 30034 net.cpp:129] Top shape: 32 32 14 14 (200704)
I1130 10:20:52.848115 30034 net.cpp:137] Memory required for data: 1618878848
I1130 10:20:52.848120 30034 layer_factory.hpp:77] Creating layer inception_4e/relu_5x5_reduce
I1130 10:20:52.848127 30034 net.cpp:84] Creating Layer inception_4e/relu_5x5_reduce
I1130 10:20:52.848131 30034 net.cpp:406] inception_4e/relu_5x5_reduce <- inception_4e/5x5_reduce
I1130 10:20:52.848136 30034 net.cpp:367] inception_4e/relu_5x5_reduce -> inception_4e/5x5_reduce (in-place)
I1130 10:20:52.848141 30034 net.cpp:122] Setting up inception_4e/relu_5x5_reduce
I1130 10:20:52.848145 30034 net.cpp:129] Top shape: 32 32 14 14 (200704)
I1130 10:20:52.848148 30034 net.cpp:137] Memory required for data: 1619681664
I1130 10:20:52.848150 30034 layer_factory.hpp:77] Creating layer inception_4e/5x5
I1130 10:20:52.848160 30034 net.cpp:84] Creating Layer inception_4e/5x5
I1130 10:20:52.848165 30034 net.cpp:406] inception_4e/5x5 <- inception_4e/5x5_reduce
I1130 10:20:52.848170 30034 net.cpp:380] inception_4e/5x5 -> inception_4e/5x5
I1130 10:20:52.849234 30034 net.cpp:122] Setting up inception_4e/5x5
I1130 10:20:52.849244 30034 net.cpp:129] Top shape: 32 128 14 14 (802816)
I1130 10:20:52.849248 30034 net.cpp:137] Memory required for data: 1622892928
I1130 10:20:52.849254 30034 layer_factory.hpp:77] Creating layer inception_4e/relu_5x5
I1130 10:20:52.849261 30034 net.cpp:84] Creating Layer inception_4e/relu_5x5
I1130 10:20:52.849265 30034 net.cpp:406] inception_4e/relu_5x5 <- inception_4e/5x5
I1130 10:20:52.849270 30034 net.cpp:367] inception_4e/relu_5x5 -> inception_4e/5x5 (in-place)
I1130 10:20:52.849277 30034 net.cpp:122] Setting up inception_4e/relu_5x5
I1130 10:20:52.849280 30034 net.cpp:129] Top shape: 32 128 14 14 (802816)
I1130 10:20:52.849283 30034 net.cpp:137] Memory required for data: 1626104192
I1130 10:20:52.849285 30034 layer_factory.hpp:77] Creating layer inception_4e/pool
I1130 10:20:52.849292 30034 net.cpp:84] Creating Layer inception_4e/pool
I1130 10:20:52.849297 30034 net.cpp:406] inception_4e/pool <- inception_4d/output_inception_4d/output_0_split_3
I1130 10:20:52.849301 30034 net.cpp:380] inception_4e/pool -> inception_4e/pool
I1130 10:20:52.849339 30034 net.cpp:122] Setting up inception_4e/pool
I1130 10:20:52.849346 30034 net.cpp:129] Top shape: 32 528 14 14 (3311616)
I1130 10:20:52.849349 30034 net.cpp:137] Memory required for data: 1639350656
I1130 10:20:52.849352 30034 layer_factory.hpp:77] Creating layer inception_4e/pool_proj
I1130 10:20:52.849359 30034 net.cpp:84] Creating Layer inception_4e/pool_proj
I1130 10:20:52.849364 30034 net.cpp:406] inception_4e/pool_proj <- inception_4e/pool
I1130 10:20:52.849370 30034 net.cpp:380] inception_4e/pool_proj -> inception_4e/pool_proj
I1130 10:20:52.849928 30034 net.cpp:122] Setting up inception_4e/pool_proj
I1130 10:20:52.849936 30034 net.cpp:129] Top shape: 32 128 14 14 (802816)
I1130 10:20:52.849938 30034 net.cpp:137] Memory required for data: 1642561920
I1130 10:20:52.849944 30034 layer_factory.hpp:77] Creating layer inception_4e/relu_pool_proj
I1130 10:20:52.849949 30034 net.cpp:84] Creating Layer inception_4e/relu_pool_proj
I1130 10:20:52.849953 30034 net.cpp:406] inception_4e/relu_pool_proj <- inception_4e/pool_proj
I1130 10:20:52.849957 30034 net.cpp:367] inception_4e/relu_pool_proj -> inception_4e/pool_proj (in-place)
I1130 10:20:52.849963 30034 net.cpp:122] Setting up inception_4e/relu_pool_proj
I1130 10:20:52.849967 30034 net.cpp:129] Top shape: 32 128 14 14 (802816)
I1130 10:20:52.849970 30034 net.cpp:137] Memory required for data: 1645773184
I1130 10:20:52.849973 30034 layer_factory.hpp:77] Creating layer inception_4e/output
I1130 10:20:52.849979 30034 net.cpp:84] Creating Layer inception_4e/output
I1130 10:20:52.849983 30034 net.cpp:406] inception_4e/output <- inception_4e/1x1
I1130 10:20:52.849987 30034 net.cpp:406] inception_4e/output <- inception_4e/3x3
I1130 10:20:52.849990 30034 net.cpp:406] inception_4e/output <- inception_4e/5x5
I1130 10:20:52.849994 30034 net.cpp:406] inception_4e/output <- inception_4e/pool_proj
I1130 10:20:52.849999 30034 net.cpp:380] inception_4e/output -> inception_4e/output
I1130 10:20:52.850023 30034 net.cpp:122] Setting up inception_4e/output
I1130 10:20:52.850029 30034 net.cpp:129] Top shape: 32 832 14 14 (5218304)
I1130 10:20:52.850033 30034 net.cpp:137] Memory required for data: 1666646400
I1130 10:20:52.850035 30034 layer_factory.hpp:77] Creating layer pool4/3x3_s2
I1130 10:20:52.850039 30034 net.cpp:84] Creating Layer pool4/3x3_s2
I1130 10:20:52.850044 30034 net.cpp:406] pool4/3x3_s2 <- inception_4e/output
I1130 10:20:52.850049 30034 net.cpp:380] pool4/3x3_s2 -> pool4/3x3_s2
I1130 10:20:52.850083 30034 net.cpp:122] Setting up pool4/3x3_s2
I1130 10:20:52.850090 30034 net.cpp:129] Top shape: 32 832 7 7 (1304576)
I1130 10:20:52.850092 30034 net.cpp:137] Memory required for data: 1671864704
I1130 10:20:52.850095 30034 layer_factory.hpp:77] Creating layer pool4/3x3_s2_pool4/3x3_s2_0_split
I1130 10:20:52.850100 30034 net.cpp:84] Creating Layer pool4/3x3_s2_pool4/3x3_s2_0_split
I1130 10:20:52.850103 30034 net.cpp:406] pool4/3x3_s2_pool4/3x3_s2_0_split <- pool4/3x3_s2
I1130 10:20:52.850109 30034 net.cpp:380] pool4/3x3_s2_pool4/3x3_s2_0_split -> pool4/3x3_s2_pool4/3x3_s2_0_split_0
I1130 10:20:52.850116 30034 net.cpp:380] pool4/3x3_s2_pool4/3x3_s2_0_split -> pool4/3x3_s2_pool4/3x3_s2_0_split_1
I1130 10:20:52.850121 30034 net.cpp:380] pool4/3x3_s2_pool4/3x3_s2_0_split -> pool4/3x3_s2_pool4/3x3_s2_0_split_2
I1130 10:20:52.850126 30034 net.cpp:380] pool4/3x3_s2_pool4/3x3_s2_0_split -> pool4/3x3_s2_pool4/3x3_s2_0_split_3
I1130 10:20:52.850180 30034 net.cpp:122] Setting up pool4/3x3_s2_pool4/3x3_s2_0_split
I1130 10:20:52.850188 30034 net.cpp:129] Top shape: 32 832 7 7 (1304576)
I1130 10:20:52.850191 30034 net.cpp:129] Top shape: 32 832 7 7 (1304576)
I1130 10:20:52.850195 30034 net.cpp:129] Top shape: 32 832 7 7 (1304576)
I1130 10:20:52.850198 30034 net.cpp:129] Top shape: 32 832 7 7 (1304576)
I1130 10:20:52.850201 30034 net.cpp:137] Memory required for data: 1692737920
I1130 10:20:52.850204 30034 layer_factory.hpp:77] Creating layer inception_5a/1x1
I1130 10:20:52.850212 30034 net.cpp:84] Creating Layer inception_5a/1x1
I1130 10:20:52.850216 30034 net.cpp:406] inception_5a/1x1 <- pool4/3x3_s2_pool4/3x3_s2_0_split_0
I1130 10:20:52.850222 30034 net.cpp:380] inception_5a/1x1 -> inception_5a/1x1
I1130 10:20:52.851866 30034 net.cpp:122] Setting up inception_5a/1x1
I1130 10:20:52.851876 30034 net.cpp:129] Top shape: 32 256 7 7 (401408)
I1130 10:20:52.851878 30034 net.cpp:137] Memory required for data: 1694343552
I1130 10:20:52.851884 30034 layer_factory.hpp:77] Creating layer inception_5a/relu_1x1
I1130 10:20:52.851889 30034 net.cpp:84] Creating Layer inception_5a/relu_1x1
I1130 10:20:52.851892 30034 net.cpp:406] inception_5a/relu_1x1 <- inception_5a/1x1
I1130 10:20:52.851898 30034 net.cpp:367] inception_5a/relu_1x1 -> inception_5a/1x1 (in-place)
I1130 10:20:52.851903 30034 net.cpp:122] Setting up inception_5a/relu_1x1
I1130 10:20:52.851910 30034 net.cpp:129] Top shape: 32 256 7 7 (401408)
I1130 10:20:52.851914 30034 net.cpp:137] Memory required for data: 1695949184
I1130 10:20:52.851917 30034 layer_factory.hpp:77] Creating layer inception_5a/3x3_reduce
I1130 10:20:52.851924 30034 net.cpp:84] Creating Layer inception_5a/3x3_reduce
I1130 10:20:52.851928 30034 net.cpp:406] inception_5a/3x3_reduce <- pool4/3x3_s2_pool4/3x3_s2_0_split_1
I1130 10:20:52.851933 30034 net.cpp:380] inception_5a/3x3_reduce -> inception_5a/3x3_reduce
I1130 10:20:52.853175 30034 net.cpp:122] Setting up inception_5a/3x3_reduce
I1130 10:20:52.853185 30034 net.cpp:129] Top shape: 32 160 7 7 (250880)
I1130 10:20:52.853188 30034 net.cpp:137] Memory required for data: 1696952704
I1130 10:20:52.853193 30034 layer_factory.hpp:77] Creating layer inception_5a/relu_3x3_reduce
I1130 10:20:52.853199 30034 net.cpp:84] Creating Layer inception_5a/relu_3x3_reduce
I1130 10:20:52.853201 30034 net.cpp:406] inception_5a/relu_3x3_reduce <- inception_5a/3x3_reduce
I1130 10:20:52.853209 30034 net.cpp:367] inception_5a/relu_3x3_reduce -> inception_5a/3x3_reduce (in-place)
I1130 10:20:52.853219 30034 net.cpp:122] Setting up inception_5a/relu_3x3_reduce
I1130 10:20:52.853222 30034 net.cpp:129] Top shape: 32 160 7 7 (250880)
I1130 10:20:52.853225 30034 net.cpp:137] Memory required for data: 1697956224
I1130 10:20:52.853229 30034 layer_factory.hpp:77] Creating layer inception_5a/3x3
I1130 10:20:52.853236 30034 net.cpp:84] Creating Layer inception_5a/3x3
I1130 10:20:52.853240 30034 net.cpp:406] inception_5a/3x3 <- inception_5a/3x3_reduce
I1130 10:20:52.853245 30034 net.cpp:380] inception_5a/3x3 -> inception_5a/3x3
I1130 10:20:52.856374 30034 net.cpp:122] Setting up inception_5a/3x3
I1130 10:20:52.856384 30034 net.cpp:129] Top shape: 32 320 7 7 (501760)
I1130 10:20:52.856386 30034 net.cpp:137] Memory required for data: 1699963264
I1130 10:20:52.856391 30034 layer_factory.hpp:77] Creating layer inception_5a/relu_3x3
I1130 10:20:52.856397 30034 net.cpp:84] Creating Layer inception_5a/relu_3x3
I1130 10:20:52.856400 30034 net.cpp:406] inception_5a/relu_3x3 <- inception_5a/3x3
I1130 10:20:52.856406 30034 net.cpp:367] inception_5a/relu_3x3 -> inception_5a/3x3 (in-place)
I1130 10:20:52.856411 30034 net.cpp:122] Setting up inception_5a/relu_3x3
I1130 10:20:52.856416 30034 net.cpp:129] Top shape: 32 320 7 7 (501760)
I1130 10:20:52.856420 30034 net.cpp:137] Memory required for data: 1701970304
I1130 10:20:52.856422 30034 layer_factory.hpp:77] Creating layer inception_5a/5x5_reduce
I1130 10:20:52.856431 30034 net.cpp:84] Creating Layer inception_5a/5x5_reduce
I1130 10:20:52.856434 30034 net.cpp:406] inception_5a/5x5_reduce <- pool4/3x3_s2_pool4/3x3_s2_0_split_2
I1130 10:20:52.856439 30034 net.cpp:380] inception_5a/5x5_reduce -> inception_5a/5x5_reduce
I1130 10:20:52.856808 30034 net.cpp:122] Setting up inception_5a/5x5_reduce
I1130 10:20:52.856817 30034 net.cpp:129] Top shape: 32 32 7 7 (50176)
I1130 10:20:52.856819 30034 net.cpp:137] Memory required for data: 1702171008
I1130 10:20:52.856824 30034 layer_factory.hpp:77] Creating layer inception_5a/relu_5x5_reduce
I1130 10:20:52.856829 30034 net.cpp:84] Creating Layer inception_5a/relu_5x5_reduce
I1130 10:20:52.856833 30034 net.cpp:406] inception_5a/relu_5x5_reduce <- inception_5a/5x5_reduce
I1130 10:20:52.856839 30034 net.cpp:367] inception_5a/relu_5x5_reduce -> inception_5a/5x5_reduce (in-place)
I1130 10:20:52.856845 30034 net.cpp:122] Setting up inception_5a/relu_5x5_reduce
I1130 10:20:52.856850 30034 net.cpp:129] Top shape: 32 32 7 7 (50176)
I1130 10:20:52.856853 30034 net.cpp:137] Memory required for data: 1702371712
I1130 10:20:52.856855 30034 layer_factory.hpp:77] Creating layer inception_5a/5x5
I1130 10:20:52.856878 30034 net.cpp:84] Creating Layer inception_5a/5x5
I1130 10:20:52.856881 30034 net.cpp:406] inception_5a/5x5 <- inception_5a/5x5_reduce
I1130 10:20:52.856887 30034 net.cpp:380] inception_5a/5x5 -> inception_5a/5x5
I1130 10:20:52.857966 30034 net.cpp:122] Setting up inception_5a/5x5
I1130 10:20:52.857975 30034 net.cpp:129] Top shape: 32 128 7 7 (200704)
I1130 10:20:52.857978 30034 net.cpp:137] Memory required for data: 1703174528
I1130 10:20:52.857985 30034 layer_factory.hpp:77] Creating layer inception_5a/relu_5x5
I1130 10:20:52.857990 30034 net.cpp:84] Creating Layer inception_5a/relu_5x5
I1130 10:20:52.857995 30034 net.cpp:406] inception_5a/relu_5x5 <- inception_5a/5x5
I1130 10:20:52.858000 30034 net.cpp:367] inception_5a/relu_5x5 -> inception_5a/5x5 (in-place)
I1130 10:20:52.858006 30034 net.cpp:122] Setting up inception_5a/relu_5x5
I1130 10:20:52.858011 30034 net.cpp:129] Top shape: 32 128 7 7 (200704)
I1130 10:20:52.858013 30034 net.cpp:137] Memory required for data: 1703977344
I1130 10:20:52.858016 30034 layer_factory.hpp:77] Creating layer inception_5a/pool
I1130 10:20:52.858021 30034 net.cpp:84] Creating Layer inception_5a/pool
I1130 10:20:52.858024 30034 net.cpp:406] inception_5a/pool <- pool4/3x3_s2_pool4/3x3_s2_0_split_3
I1130 10:20:52.858029 30034 net.cpp:380] inception_5a/pool -> inception_5a/pool
I1130 10:20:52.858065 30034 net.cpp:122] Setting up inception_5a/pool
I1130 10:20:52.858072 30034 net.cpp:129] Top shape: 32 832 7 7 (1304576)
I1130 10:20:52.858074 30034 net.cpp:137] Memory required for data: 1709195648
I1130 10:20:52.858078 30034 layer_factory.hpp:77] Creating layer inception_5a/pool_proj
I1130 10:20:52.858085 30034 net.cpp:84] Creating Layer inception_5a/pool_proj
I1130 10:20:52.858089 30034 net.cpp:406] inception_5a/pool_proj <- inception_5a/pool
I1130 10:20:52.858095 30034 net.cpp:380] inception_5a/pool_proj -> inception_5a/pool_proj
I1130 10:20:52.859154 30034 net.cpp:122] Setting up inception_5a/pool_proj
I1130 10:20:52.859163 30034 net.cpp:129] Top shape: 32 128 7 7 (200704)
I1130 10:20:52.859166 30034 net.cpp:137] Memory required for data: 1709998464
I1130 10:20:52.859172 30034 layer_factory.hpp:77] Creating layer inception_5a/relu_pool_proj
I1130 10:20:52.859177 30034 net.cpp:84] Creating Layer inception_5a/relu_pool_proj
I1130 10:20:52.859181 30034 net.cpp:406] inception_5a/relu_pool_proj <- inception_5a/pool_proj
I1130 10:20:52.859187 30034 net.cpp:367] inception_5a/relu_pool_proj -> inception_5a/pool_proj (in-place)
I1130 10:20:52.859194 30034 net.cpp:122] Setting up inception_5a/relu_pool_proj
I1130 10:20:52.859199 30034 net.cpp:129] Top shape: 32 128 7 7 (200704)
I1130 10:20:52.859201 30034 net.cpp:137] Memory required for data: 1710801280
I1130 10:20:52.859203 30034 layer_factory.hpp:77] Creating layer inception_5a/output
I1130 10:20:52.859208 30034 net.cpp:84] Creating Layer inception_5a/output
I1130 10:20:52.859212 30034 net.cpp:406] inception_5a/output <- inception_5a/1x1
I1130 10:20:52.859216 30034 net.cpp:406] inception_5a/output <- inception_5a/3x3
I1130 10:20:52.859220 30034 net.cpp:406] inception_5a/output <- inception_5a/5x5
I1130 10:20:52.859223 30034 net.cpp:406] inception_5a/output <- inception_5a/pool_proj
I1130 10:20:52.859230 30034 net.cpp:380] inception_5a/output -> inception_5a/output
I1130 10:20:52.859251 30034 net.cpp:122] Setting up inception_5a/output
I1130 10:20:52.859257 30034 net.cpp:129] Top shape: 32 832 7 7 (1304576)
I1130 10:20:52.859261 30034 net.cpp:137] Memory required for data: 1716019584
I1130 10:20:52.859262 30034 layer_factory.hpp:77] Creating layer inception_5a/output_inception_5a/output_0_split
I1130 10:20:52.859269 30034 net.cpp:84] Creating Layer inception_5a/output_inception_5a/output_0_split
I1130 10:20:52.859273 30034 net.cpp:406] inception_5a/output_inception_5a/output_0_split <- inception_5a/output
I1130 10:20:52.859278 30034 net.cpp:380] inception_5a/output_inception_5a/output_0_split -> inception_5a/output_inception_5a/output_0_split_0
I1130 10:20:52.859284 30034 net.cpp:380] inception_5a/output_inception_5a/output_0_split -> inception_5a/output_inception_5a/output_0_split_1
I1130 10:20:52.859290 30034 net.cpp:380] inception_5a/output_inception_5a/output_0_split -> inception_5a/output_inception_5a/output_0_split_2
I1130 10:20:52.859297 30034 net.cpp:380] inception_5a/output_inception_5a/output_0_split -> inception_5a/output_inception_5a/output_0_split_3
I1130 10:20:52.859346 30034 net.cpp:122] Setting up inception_5a/output_inception_5a/output_0_split
I1130 10:20:52.859352 30034 net.cpp:129] Top shape: 32 832 7 7 (1304576)
I1130 10:20:52.859356 30034 net.cpp:129] Top shape: 32 832 7 7 (1304576)
I1130 10:20:52.859360 30034 net.cpp:129] Top shape: 32 832 7 7 (1304576)
I1130 10:20:52.859364 30034 net.cpp:129] Top shape: 32 832 7 7 (1304576)
I1130 10:20:52.859366 30034 net.cpp:137] Memory required for data: 1736892800
I1130 10:20:52.859369 30034 layer_factory.hpp:77] Creating layer inception_5b/1x1
I1130 10:20:52.859378 30034 net.cpp:84] Creating Layer inception_5b/1x1
I1130 10:20:52.859381 30034 net.cpp:406] inception_5b/1x1 <- inception_5a/output_inception_5a/output_0_split_0
I1130 10:20:52.859387 30034 net.cpp:380] inception_5b/1x1 -> inception_5b/1x1
I1130 10:20:52.861629 30034 net.cpp:122] Setting up inception_5b/1x1
I1130 10:20:52.861639 30034 net.cpp:129] Top shape: 32 384 7 7 (602112)
I1130 10:20:52.861641 30034 net.cpp:137] Memory required for data: 1739301248
I1130 10:20:52.861647 30034 layer_factory.hpp:77] Creating layer inception_5b/relu_1x1
I1130 10:20:52.861654 30034 net.cpp:84] Creating Layer inception_5b/relu_1x1
I1130 10:20:52.861659 30034 net.cpp:406] inception_5b/relu_1x1 <- inception_5b/1x1
I1130 10:20:52.861663 30034 net.cpp:367] inception_5b/relu_1x1 -> inception_5b/1x1 (in-place)
I1130 10:20:52.861670 30034 net.cpp:122] Setting up inception_5b/relu_1x1
I1130 10:20:52.861673 30034 net.cpp:129] Top shape: 32 384 7 7 (602112)
I1130 10:20:52.861676 30034 net.cpp:137] Memory required for data: 1741709696
I1130 10:20:52.861680 30034 layer_factory.hpp:77] Creating layer inception_5b/3x3_reduce
I1130 10:20:52.861686 30034 net.cpp:84] Creating Layer inception_5b/3x3_reduce
I1130 10:20:52.861690 30034 net.cpp:406] inception_5b/3x3_reduce <- inception_5a/output_inception_5a/output_0_split_1
I1130 10:20:52.861694 30034 net.cpp:380] inception_5b/3x3_reduce -> inception_5b/3x3_reduce
I1130 10:20:52.863030 30034 net.cpp:122] Setting up inception_5b/3x3_reduce
I1130 10:20:52.863039 30034 net.cpp:129] Top shape: 32 192 7 7 (301056)
I1130 10:20:52.863042 30034 net.cpp:137] Memory required for data: 1742913920
I1130 10:20:52.863049 30034 layer_factory.hpp:77] Creating layer inception_5b/relu_3x3_reduce
I1130 10:20:52.863054 30034 net.cpp:84] Creating Layer inception_5b/relu_3x3_reduce
I1130 10:20:52.863059 30034 net.cpp:406] inception_5b/relu_3x3_reduce <- inception_5b/3x3_reduce
I1130 10:20:52.863064 30034 net.cpp:367] inception_5b/relu_3x3_reduce -> inception_5b/3x3_reduce (in-place)
I1130 10:20:52.863070 30034 net.cpp:122] Setting up inception_5b/relu_3x3_reduce
I1130 10:20:52.863075 30034 net.cpp:129] Top shape: 32 192 7 7 (301056)
I1130 10:20:52.863077 30034 net.cpp:137] Memory required for data: 1744118144
I1130 10:20:52.863080 30034 layer_factory.hpp:77] Creating layer inception_5b/3x3
I1130 10:20:52.863087 30034 net.cpp:84] Creating Layer inception_5b/3x3
I1130 10:20:52.863091 30034 net.cpp:406] inception_5b/3x3 <- inception_5b/3x3_reduce
I1130 10:20:52.863097 30034 net.cpp:380] inception_5b/3x3 -> inception_5b/3x3
I1130 10:20:52.867486 30034 net.cpp:122] Setting up inception_5b/3x3
I1130 10:20:52.867503 30034 net.cpp:129] Top shape: 32 384 7 7 (602112)
I1130 10:20:52.867506 30034 net.cpp:137] Memory required for data: 1746526592
I1130 10:20:52.867513 30034 layer_factory.hpp:77] Creating layer inception_5b/relu_3x3
I1130 10:20:52.867521 30034 net.cpp:84] Creating Layer inception_5b/relu_3x3
I1130 10:20:52.867525 30034 net.cpp:406] inception_5b/relu_3x3 <- inception_5b/3x3
I1130 10:20:52.867534 30034 net.cpp:367] inception_5b/relu_3x3 -> inception_5b/3x3 (in-place)
I1130 10:20:52.867542 30034 net.cpp:122] Setting up inception_5b/relu_3x3
I1130 10:20:52.867547 30034 net.cpp:129] Top shape: 32 384 7 7 (602112)
I1130 10:20:52.867549 30034 net.cpp:137] Memory required for data: 1748935040
I1130 10:20:52.867552 30034 layer_factory.hpp:77] Creating layer inception_5b/5x5_reduce
I1130 10:20:52.867560 30034 net.cpp:84] Creating Layer inception_5b/5x5_reduce
I1130 10:20:52.867564 30034 net.cpp:406] inception_5b/5x5_reduce <- inception_5a/output_inception_5a/output_0_split_2
I1130 10:20:52.867570 30034 net.cpp:380] inception_5b/5x5_reduce -> inception_5b/5x5_reduce
I1130 10:20:52.868000 30034 net.cpp:122] Setting up inception_5b/5x5_reduce
I1130 10:20:52.868007 30034 net.cpp:129] Top shape: 32 48 7 7 (75264)
I1130 10:20:52.868011 30034 net.cpp:137] Memory required for data: 1749236096
I1130 10:20:52.868016 30034 layer_factory.hpp:77] Creating layer inception_5b/relu_5x5_reduce
I1130 10:20:52.868021 30034 net.cpp:84] Creating Layer inception_5b/relu_5x5_reduce
I1130 10:20:52.868026 30034 net.cpp:406] inception_5b/relu_5x5_reduce <- inception_5b/5x5_reduce
I1130 10:20:52.868032 30034 net.cpp:367] inception_5b/relu_5x5_reduce -> inception_5b/5x5_reduce (in-place)
I1130 10:20:52.868038 30034 net.cpp:122] Setting up inception_5b/relu_5x5_reduce
I1130 10:20:52.868042 30034 net.cpp:129] Top shape: 32 48 7 7 (75264)
I1130 10:20:52.868046 30034 net.cpp:137] Memory required for data: 1749537152
I1130 10:20:52.868048 30034 layer_factory.hpp:77] Creating layer inception_5b/5x5
I1130 10:20:52.868057 30034 net.cpp:84] Creating Layer inception_5b/5x5
I1130 10:20:52.868060 30034 net.cpp:406] inception_5b/5x5 <- inception_5b/5x5_reduce
I1130 10:20:52.868065 30034 net.cpp:380] inception_5b/5x5 -> inception_5b/5x5
I1130 10:20:52.869097 30034 net.cpp:122] Setting up inception_5b/5x5
I1130 10:20:52.869105 30034 net.cpp:129] Top shape: 32 128 7 7 (200704)
I1130 10:20:52.869108 30034 net.cpp:137] Memory required for data: 1750339968
I1130 10:20:52.869113 30034 layer_factory.hpp:77] Creating layer inception_5b/relu_5x5
I1130 10:20:52.869149 30034 net.cpp:84] Creating Layer inception_5b/relu_5x5
I1130 10:20:52.869154 30034 net.cpp:406] inception_5b/relu_5x5 <- inception_5b/5x5
I1130 10:20:52.869159 30034 net.cpp:367] inception_5b/relu_5x5 -> inception_5b/5x5 (in-place)
I1130 10:20:52.869164 30034 net.cpp:122] Setting up inception_5b/relu_5x5
I1130 10:20:52.869169 30034 net.cpp:129] Top shape: 32 128 7 7 (200704)
I1130 10:20:52.869173 30034 net.cpp:137] Memory required for data: 1751142784
I1130 10:20:52.869174 30034 layer_factory.hpp:77] Creating layer inception_5b/pool
I1130 10:20:52.869182 30034 net.cpp:84] Creating Layer inception_5b/pool
I1130 10:20:52.869185 30034 net.cpp:406] inception_5b/pool <- inception_5a/output_inception_5a/output_0_split_3
I1130 10:20:52.869190 30034 net.cpp:380] inception_5b/pool -> inception_5b/pool
I1130 10:20:52.869227 30034 net.cpp:122] Setting up inception_5b/pool
I1130 10:20:52.869233 30034 net.cpp:129] Top shape: 32 832 7 7 (1304576)
I1130 10:20:52.869236 30034 net.cpp:137] Memory required for data: 1756361088
I1130 10:20:52.869240 30034 layer_factory.hpp:77] Creating layer inception_5b/pool_proj
I1130 10:20:52.869248 30034 net.cpp:84] Creating Layer inception_5b/pool_proj
I1130 10:20:52.869252 30034 net.cpp:406] inception_5b/pool_proj <- inception_5b/pool
I1130 10:20:52.869258 30034 net.cpp:380] inception_5b/pool_proj -> inception_5b/pool_proj
I1130 10:20:52.870355 30034 net.cpp:122] Setting up inception_5b/pool_proj
I1130 10:20:52.870364 30034 net.cpp:129] Top shape: 32 128 7 7 (200704)
I1130 10:20:52.870368 30034 net.cpp:137] Memory required for data: 1757163904
I1130 10:20:52.870373 30034 layer_factory.hpp:77] Creating layer inception_5b/relu_pool_proj
I1130 10:20:52.870378 30034 net.cpp:84] Creating Layer inception_5b/relu_pool_proj
I1130 10:20:52.870383 30034 net.cpp:406] inception_5b/relu_pool_proj <- inception_5b/pool_proj
I1130 10:20:52.870389 30034 net.cpp:367] inception_5b/relu_pool_proj -> inception_5b/pool_proj (in-place)
I1130 10:20:52.870395 30034 net.cpp:122] Setting up inception_5b/relu_pool_proj
I1130 10:20:52.870399 30034 net.cpp:129] Top shape: 32 128 7 7 (200704)
I1130 10:20:52.870402 30034 net.cpp:137] Memory required for data: 1757966720
I1130 10:20:52.870405 30034 layer_factory.hpp:77] Creating layer inception_5b/output
I1130 10:20:52.870410 30034 net.cpp:84] Creating Layer inception_5b/output
I1130 10:20:52.870414 30034 net.cpp:406] inception_5b/output <- inception_5b/1x1
I1130 10:20:52.870419 30034 net.cpp:406] inception_5b/output <- inception_5b/3x3
I1130 10:20:52.870421 30034 net.cpp:406] inception_5b/output <- inception_5b/5x5
I1130 10:20:52.870425 30034 net.cpp:406] inception_5b/output <- inception_5b/pool_proj
I1130 10:20:52.870431 30034 net.cpp:380] inception_5b/output -> inception_5b/output
I1130 10:20:52.870452 30034 net.cpp:122] Setting up inception_5b/output
I1130 10:20:52.870458 30034 net.cpp:129] Top shape: 32 1024 7 7 (1605632)
I1130 10:20:52.870461 30034 net.cpp:137] Memory required for data: 1764389248
I1130 10:20:52.870465 30034 layer_factory.hpp:77] Creating layer pool5/7x7_s1
I1130 10:20:52.870471 30034 net.cpp:84] Creating Layer pool5/7x7_s1
I1130 10:20:52.870474 30034 net.cpp:406] pool5/7x7_s1 <- inception_5b/output
I1130 10:20:52.870479 30034 net.cpp:380] pool5/7x7_s1 -> pool5/7x7_s1
I1130 10:20:52.870501 30034 net.cpp:122] Setting up pool5/7x7_s1
I1130 10:20:52.870507 30034 net.cpp:129] Top shape: 32 1024 1 1 (32768)
I1130 10:20:52.870509 30034 net.cpp:137] Memory required for data: 1764520320
I1130 10:20:52.870512 30034 layer_factory.hpp:77] Creating layer pool5/drop_7x7_s1
I1130 10:20:52.870518 30034 net.cpp:84] Creating Layer pool5/drop_7x7_s1
I1130 10:20:52.870522 30034 net.cpp:406] pool5/drop_7x7_s1 <- pool5/7x7_s1
I1130 10:20:52.870527 30034 net.cpp:367] pool5/drop_7x7_s1 -> pool5/7x7_s1 (in-place)
I1130 10:20:52.870548 30034 net.cpp:122] Setting up pool5/drop_7x7_s1
I1130 10:20:52.870554 30034 net.cpp:129] Top shape: 32 1024 1 1 (32768)
I1130 10:20:52.870558 30034 net.cpp:137] Memory required for data: 1764651392
I1130 10:20:52.870560 30034 layer_factory.hpp:77] Creating layer fc_scv_dirty
I1130 10:20:52.870565 30034 net.cpp:84] Creating Layer fc_scv_dirty
I1130 10:20:52.870569 30034 net.cpp:406] fc_scv_dirty <- pool5/7x7_s1
I1130 10:20:52.870575 30034 net.cpp:380] fc_scv_dirty -> fc_scv_dirty
I1130 10:20:52.870671 30034 net.cpp:122] Setting up fc_scv_dirty
I1130 10:20:52.870677 30034 net.cpp:129] Top shape: 32 1 (32)
I1130 10:20:52.870681 30034 net.cpp:137] Memory required for data: 1764651520
I1130 10:20:52.870685 30034 layer_factory.hpp:77] Creating layer fc_scv_dirty_fc_scv_dirty_0_split
I1130 10:20:52.870692 30034 net.cpp:84] Creating Layer fc_scv_dirty_fc_scv_dirty_0_split
I1130 10:20:52.870694 30034 net.cpp:406] fc_scv_dirty_fc_scv_dirty_0_split <- fc_scv_dirty
I1130 10:20:52.870702 30034 net.cpp:380] fc_scv_dirty_fc_scv_dirty_0_split -> fc_scv_dirty_fc_scv_dirty_0_split_0
I1130 10:20:52.870708 30034 net.cpp:380] fc_scv_dirty_fc_scv_dirty_0_split -> fc_scv_dirty_fc_scv_dirty_0_split_1
I1130 10:20:52.870740 30034 net.cpp:122] Setting up fc_scv_dirty_fc_scv_dirty_0_split
I1130 10:20:52.870748 30034 net.cpp:129] Top shape: 32 1 (32)
I1130 10:20:52.870751 30034 net.cpp:129] Top shape: 32 1 (32)
I1130 10:20:52.870754 30034 net.cpp:137] Memory required for data: 1764651776
I1130 10:20:52.870757 30034 layer_factory.hpp:77] Creating layer loss
I1130 10:20:52.870764 30034 net.cpp:84] Creating Layer loss
I1130 10:20:52.870766 30034 net.cpp:406] loss <- fc_scv_dirty_fc_scv_dirty_0_split_0
I1130 10:20:52.870770 30034 net.cpp:406] loss <- label_data_1_split_0
I1130 10:20:52.870775 30034 net.cpp:380] loss -> loss
…
