…
I1130 08:30:07.518321 30089 net.cpp:294] The NetState phase (0) differed from the phase (1) specified by a rule in layer losstest
I1130 08:30:07.519037 30089 net.cpp:51] Initializing net from parameters: 
name: "GoogleNet-Places365-SCV-Happy"
state {
  phase: TRAIN
  level: 0
  stage: ""
}
layer {
  name: "data"
  type: "Data"
  top: "data"
  top: "label"
  include {
    phase: TRAIN
  }
  transform_param {
    mirror: true
    crop_size: 224
    mean_file: "/idiap/temp/lmedina/fine-tuning/googlenet_places365/places365CNN_mean.binaryproto"
  }
  data_param {
    source: "/idiap/temp/lmedina/fine-tuning/data/Happy/train_lmdb"
    batch_size: 32
    backend: LMDB
  }
}
layer {
  name: "conv1/7x7_s2"
  type: "Convolution"
  bottom: "data"
  top: "conv1/7x7_s2"
  param {
    lr_mult: 1
    decay_mult: 1
  }
  param {
    lr_mult: 2
    decay_mult: 0
  }
  convolution_param {
    num_output: 64
    pad: 3
    kernel_size: 7
    stride: 2
    weight_filler {
      type: "xavier"
      std: 0.1
    }
    bias_filler {
      type: "constant"
      value: 0.2
    }
  }
}
layer {
  name: "conv1/relu_7x7"
  type: "ReLU"
  bottom: "conv1/7x7_s2"
  top: "conv1/7x7_s2"
}
layer {
  name: "pool1/3x3_s2"
  type: "Pooling"
  bottom: "conv1/7x7_s2"
  top: "pool1/3x3_s2"
  pooling_param {
    pool: MAX
    kernel_size: 3
    stride: 2
  }
}
layer {
  name: "pool1/norm1"
  type: "LRN"
  bottom: "pool1/3x3_s2"
  top: "pool1/norm1"
  lrn_param {
    local_size: 5
    alpha: 0.0001
    beta: 0.75
  }
}
layer {
  name: "conv2/3x3_reduce"
  type: "Convolution"
  bottom: "pool1/norm1"
  top: "conv2/3x3_reduce"
  param {
    lr_mult: 1
    decay_mult: 1
  }
  param {
    lr_mult: 2
    decay_mult: 0
  }
  convolution_param {
    num_output: 64
    kernel_size: 1
    weight_filler {
      type: "xavier"
      std: 0.1
    }
    bias_filler {
      type: "constant"
      value: 0.2
    }
  }
}
layer {
  name: "conv2/relu_3x3_reduce"
  type: "ReLU"
  bottom: "conv2/3x3_reduce"
  top: "conv2/3x3_reduce"
}
layer {
  name: "conv2/3x3"
  type: "Convolution"
  bottom: "conv2/3x3_reduce"
  top: "conv2/3x3"
  param {
    lr_mult: 1
    decay_mult: 1
  }
  param {
    lr_mult: 2
    decay_mult: 0
  }
  convolution_param {
    num_output: 192
    pad: 1
    kernel_size: 3
    weight_filler {
      type: "xavier"
      std: 0.03
    }
    bias_filler {
      type: "constant"
      value: 0.2
    }
  }
}
layer {
  name: "conv2/relu_3x3"
  type: "ReLU"
  bottom: "conv2/3x3"
  top: "conv2/3x3"
}
layer {
  name: "conv2/norm2"
  type: "LRN"
  bottom: "conv2/3x3"
  top: "conv2/norm2"
  lrn_param {
    local_size: 5
    alpha: 0.0001
    beta: 0.75
  }
}
layer {
  name: "pool2/3x3_s2"
  type: "Pooling"
  bottom: "conv2/norm2"
  top: "pool2/3x3_s2"
  pooling_param {
    pool: MAX
    kernel_size: 3
    stride: 2
  }
}
layer {
  name: "inception_3a/1x1"
  type: "Convolution"
  bottom: "pool2/3x3_s2"
  top: "inception_3a/1x1"
  param {
    lr_mult: 1
    decay_mult: 1
  }
  param {
    lr_mult: 2
    decay_mult: 0
  }
  convolution_param {
    num_output: 64
    kernel_size: 1
    weight_filler {
      type: "xavier"
      std: 0.03
    }
    bias_filler {
      type: "constant"
      value: 0.2
    }
  }
}
layer {
  name: "inception_3a/relu_1x1"
  type: "ReLU"
  bottom: "inception_3a/1x1"
  top: "inception_3a/1x1"
}
layer {
  name: "inception_3a/3x3_reduce"
  type: "Convolution"
  bottom: "pool2/3x3_s2"
  top: "inception_3a/3x3_reduce"
  param {
    lr_mult: 1
    decay_mult: 1
  }
  param {
    lr_mult: 2
    decay_mult: 0
  }
  convolution_param {
    num_output: 96
    kernel_size: 1
    weight_filler {
      type: "xavier"
      std: 0.09
    }
    bias_filler {
      type: "constant"
      value: 0.2
    }
  }
}
layer {
  name: "inception_3a/relu_3x3_reduce"
  type: "ReLU"
  bottom: "inception_3a/3x3_reduce"
  top: "inception_3a/3x3_reduce"
}
layer {
  name: "inception_3a/3x3"
  type: "Convolution"
  bottom: "inception_3a/3x3_reduce"
  top: "inception_3a/3x3"
  param {
    lr_mult: 1
    decay_mult: 1
  }
  param {
    lr_mult: 2
    decay_mult: 0
  }
  convolution_param {
    num_output: 128
    pad: 1
    kernel_size: 3
    weight_filler {
      type: "xavier"
      std: 0.03
    }
    bias_filler {
      type: "constant"
      value: 0.2
    }
  }
}
layer {
  name: "inception_3a/relu_3x3"
  type: "ReLU"
  bottom: "inception_3a/3x3"
  top: "inception_3a/3x3"
}
layer {
  name: "inception_3a/5x5_reduce"
  type: "Convolution"
  bottom: "pool2/3x3_s2"
  top: "inception_3a/5x5_reduce"
  param {
    lr_mult: 1
    decay_mult: 1
  }
  param {
    lr_mult: 2
    decay_mult: 0
  }
  convolution_param {
    num_output: 16
    kernel_size: 1
    weight_filler {
      type: "xavier"
      std: 0.2
    }
    bias_filler {
      type: "constant"
      value: 0.2
    }
  }
}
layer {
  name: "inception_3a/relu_5x5_reduce"
  type: "ReLU"
  bottom: "inception_3a/5x5_reduce"
  top: "inception_3a/5x5_reduce"
}
layer {
  name: "inception_3a/5x5"
  type: "Convolution"
  bottom: "inception_3a/5x5_reduce"
  top: "inception_3a/5x5"
  param {
    lr_mult: 1
    decay_mult: 1
  }
  param {
    lr_mult: 2
    decay_mult: 0
  }
  convolution_param {
    num_output: 32
    pad: 2
    kernel_size: 5
    weight_filler {
      type: "xavier"
      std: 0.03
    }
    bias_filler {
      type: "constant"
      value: 0.2
    }
  }
}
layer {
  name: "inception_3a/relu_5x5"
  type: "ReLU"
  bottom: "inception_3a/5x5"
  top: "inception_3a/5x5"
}
layer {
  name: "inception_3a/pool"
  type: "Pooling"
  bottom: "pool2/3x3_s2"
  top: "inception_3a/pool"
  pooling_param {
    pool: MAX
    kernel_size: 3
    stride: 1
    pad: 1
  }
}
layer {
  name: "inception_3a/pool_proj"
  type: "Convolution"
  bottom: "inception_3a/pool"
  top: "inception_3a/pool_proj"
  param {
    lr_mult: 1
    decay_mult: 1
  }
  param {
    lr_mult: 2
    decay_mult: 0
  }
  convolution_param {
    num_output: 32
    kernel_size: 1
    weight_filler {
      type: "xavier"
      std: 0.1
    }
    bias_filler {
      type: "constant"
      value: 0.2
    }
  }
}
layer {
  name: "inception_3a/relu_pool_proj"
  type: "ReLU"
  bottom: "inception_3a/pool_proj"
  top: "inception_3a/pool_proj"
}
layer {
  name: "inception_3a/output"
  type: "Concat"
  bottom: "inception_3a/1x1"
  bottom: "inception_3a/3x3"
  bottom: "inception_3a/5x5"
  bottom: "inception_3a/pool_proj"
  top: "inception_3a/output"
}
layer {
  name: "inception_3b/1x1"
  type: "Convolution"
  bottom: "inception_3a/output"
  top: "inception_3b/1x1"
  param {
    lr_mult: 1
    decay_mult: 1
  }
  param {
    lr_mult: 2
    decay_mult: 0
  }
  convolution_param {
    num_output: 128
    kernel_size: 1
    weight_filler {
      type: "xavier"
      std: 0.03
    }
    bias_filler {
      type: "constant"
      value: 0.2
    }
  }
}
layer {
  name: "inception_3b/relu_1x1"
  type: "ReLU"
  bottom: "inception_3b/1x1"
  top: "inception_3b/1x1"
}
layer {
  name: "inception_3b/3x3_reduce"
  type: "Convolution"
  bottom: "inception_3a/output"
  top: "inception_3b/3x3_reduce"
  param {
    lr_mult: 1
    decay_mult: 1
  }
  param {
    lr_mult: 2
    decay_mult: 0
  }
  convolution_param {
    num_output: 128
    kernel_size: 1
    weight_filler {
      type: "xavier"
      std: 0.09
    }
    bias_filler {
      type: "constant"
      value: 0.2
    }
  }
}
layer {
  name: "inception_3b/relu_3x3_reduce"
  type: "ReLU"
  bottom: "inception_3b/3x3_reduce"
  top: "inception_3b/3x3_reduce"
}
layer {
  name: "inception_3b/3x3"
  type: "Convolution"
  bottom: "inception_3b/3x3_reduce"
  top: "inception_3b/3x3"
  param {
    lr_mult: 1
    decay_mult: 1
  }
  param {
    lr_mult: 2
    decay_mult: 0
  }
  convolution_param {
    num_output: 192
    pad: 1
    kernel_size: 3
    weight_filler {
      type: "xavier"
      std: 0.03
    }
    bias_filler {
      type: "constant"
      value: 0.2
    }
  }
}
layer {
  name: "inception_3b/relu_3x3"
  type: "ReLU"
  bottom: "inception_3b/3x3"
  top: "inception_3b/3x3"
}
layer {
  name: "inception_3b/5x5_reduce"
  type: "Convolution"
  bottom: "inception_3a/output"
  top: "inception_3b/5x5_reduce"
  param {
    lr_mult: 1
    decay_mult: 1
  }
  param {
    lr_mult: 2
    decay_mult: 0
  }
  convolution_param {
    num_output: 32
    kernel_size: 1
    weight_filler {
      type: "xavier"
      std: 0.2
    }
    bias_filler {
      type: "constant"
      value: 0.2
    }
  }
}
layer {
  name: "inception_3b/relu_5x5_reduce"
  type: "ReLU"
  bottom: "inception_3b/5x5_reduce"
  top: "inception_3b/5x5_reduce"
}
layer {
  name: "inception_3b/5x5"
  type: "Convolution"
  bottom: "inception_3b/5x5_reduce"
  top: "inception_3b/5x5"
  param {
    lr_mult: 1
    decay_mult: 1
  }
  param {
    lr_mult: 2
    decay_mult: 0
  }
  convolution_param {
    num_output: 96
    pad: 2
    kernel_size: 5
    weight_filler {
      type: "xavier"
      std: 0.03
    }
    bias_filler {
      type: "constant"
      value: 0.2
    }
  }
}
layer {
  name: "inception_3b/relu_5x5"
  type: "ReLU"
  bottom: "inception_3b/5x5"
  top: "inception_3b/5x5"
}
layer {
  name: "inception_3b/pool"
  type: "Pooling"
  bottom: "inception_3a/output"
  top: "inception_3b/pool"
  pooling_param {
    pool: MAX
    kernel_size: 3
    stride: 1
    pad: 1
  }
}
layer {
  name: "inception_3b/pool_proj"
  type: "Convolution"
  bottom: "inception_3b/pool"
  top: "inception_3b/pool_proj"
  param {
    lr_mult: 1
    decay_mult: 1
  }
  param {
    lr_mult: 2
    decay_mult: 0
  }
  convolution_param {
    num_output: 64
    kernel_size: 1
    weight_filler {
      type: "xavier"
      std: 0.1
    }
    bias_filler {
      type: "constant"
      value: 0.2
    }
  }
}
layer {
  name: "inception_3b/relu_pool_proj"
  type: "ReLU"
  bottom: "inception_3b/pool_proj"
  top: "inception_3b/pool_proj"
}
layer {
  name: "inception_3b/output"
  type: "Concat"
  bottom: "inception_3b/1x1"
  bottom: "inception_3b/3x3"
  bottom: "inception_3b/5x5"
  bottom: "inception_3b/pool_proj"
  top: "inception_3b/output"
}
layer {
  name: "pool3/3x3_s2"
  type: "Pooling"
  bottom: "inception_3b/output"
  top: "pool3/3x3_s2"
  pooling_param {
    pool: MAX
    kernel_size: 3
    stride: 2
  }
}
layer {
  name: "inception_4a/1x1"
  type: "Convolution"
  bottom: "pool3/3x3_s2"
  top: "inception_4a/1x1"
  param {
    lr_mult: 1
    decay_mult: 1
  }
  param {
    lr_mult: 2
    decay_mult: 0
  }
  convolution_param {
    num_output: 192
    kernel_size: 1
    weight_filler {
      type: "xavier"
      std: 0.03
    }
    bias_filler {
      type: "constant"
      value: 0.2
    }
  }
}
layer {
  name: "inception_4a/relu_1x1"
  type: "ReLU"
  bottom: "inception_4a/1x1"
  top: "inception_4a/1x1"
}
layer {
  name: "inception_4a/3x3_reduce"
  type: "Convolution"
  bottom: "pool3/3x3_s2"
  top: "inception_4a/3x3_reduce"
  param {
    lr_mult: 1
    decay_mult: 1
  }
  param {
    lr_mult: 2
    decay_mult: 0
  }
  convolution_param {
    num_output: 96
    kernel_size: 1
    weight_filler {
      type: "xavier"
      std: 0.09
    }
    bias_filler {
      type: "constant"
      value: 0.2
    }
  }
}
layer {
  name: "inception_4a/relu_3x3_reduce"
  type: "ReLU"
  bottom: "inception_4a/3x3_reduce"
  top: "inception_4a/3x3_reduce"
}
layer {
  name: "inception_4a/3x3"
  type: "Convolution"
  bottom: "inception_4a/3x3_reduce"
  top: "inception_4a/3x3"
  param {
    lr_mult: 1
    decay_mult: 1
  }
  param {
    lr_mult: 2
    decay_mult: 0
  }
  convolution_param {
    num_output: 208
    pad: 1
    kernel_size: 3
    weight_filler {
      type: "xavier"
      std: 0.03
    }
    bias_filler {
      type: "constant"
      value: 0.2
    }
  }
}
layer {
  name: "inception_4a/relu_3x3"
  type: "ReLU"
  bottom: "inception_4a/3x3"
  top: "inception_4a/3x3"
}
layer {
  name: "inception_4a/5x5_reduce"
  type: "Convolution"
  bottom: "pool3/3x3_s2"
  top: "inception_4a/5x5_reduce"
  param {
    lr_mult: 1
    decay_mult: 1
  }
  param {
    lr_mult: 2
    decay_mult: 0
  }
  convolution_param {
    num_output: 16
    kernel_size: 1
    weight_filler {
      type: "xavier"
      std: 0.2
    }
    bias_filler {
      type: "constant"
      value: 0.2
    }
  }
}
layer {
  name: "inception_4a/relu_5x5_reduce"
  type: "ReLU"
  bottom: "inception_4a/5x5_reduce"
  top: "inception_4a/5x5_reduce"
}
layer {
  name: "inception_4a/5x5"
  type: "Convolution"
  bottom: "inception_4a/5x5_reduce"
  top: "inception_4a/5x5"
  param {
    lr_mult: 1
    decay_mult: 1
  }
  param {
    lr_mult: 2
    decay_mult: 0
  }
  convolution_param {
    num_output: 48
    pad: 2
    kernel_size: 5
    weight_filler {
      type: "xavier"
      std: 0.03
    }
    bias_filler {
      type: "constant"
      value: 0.2
    }
  }
}
layer {
  name: "inception_4a/relu_5x5"
  type: "ReLU"
  bottom: "inception_4a/5x5"
  top: "inception_4a/5x5"
}
layer {
  name: "inception_4a/pool"
  type: "Pooling"
  bottom: "pool3/3x3_s2"
  top: "inception_4a/pool"
  pooling_param {
    pool: MAX
    kernel_size: 3
    stride: 1
    pad: 1
  }
}
layer {
  name: "inception_4a/pool_proj"
  type: "Convolution"
  bottom: "inception_4a/pool"
  top: "inception_4a/pool_proj"
  param {
    lr_mult: 1
    decay_mult: 1
  }
  param {
    lr_mult: 2
    decay_mult: 0
  }
  convolution_param {
    num_output: 64
    kernel_size: 1
    weight_filler {
      type: "xavier"
      std: 0.1
    }
    bias_filler {
      type: "constant"
      value: 0.2
    }
  }
}
layer {
  name: "inception_4a/relu_pool_proj"
  type: "ReLU"
  bottom: "inception_4a/pool_proj"
  top: "inception_4a/pool_proj"
}
layer {
  name: "inception_4a/output"
  type: "Concat"
  bottom: "inception_4a/1x1"
  bottom: "inception_4a/3x3"
  bottom: "inception_4a/5x5"
  bottom: "inception_4a/pool_proj"
  top: "inception_4a/output"
}
layer {
  name: "inception_4b/1x1"
  type: "Convolution"
  bottom: "inception_4a/output"
  top: "inception_4b/1x1"
  param {
    lr_mult: 1
    decay_mult: 1
  }
  param {
    lr_mult: 2
    decay_mult: 0
  }
  convolution_param {
    num_output: 160
    kernel_size: 1
    weight_filler {
      type: "xavier"
      std: 0.03
    }
    bias_filler {
      type: "constant"
      value: 0.2
    }
  }
}
layer {
  name: "inception_4b/relu_1x1"
  type: "ReLU"
  bottom: "inception_4b/1x1"
  top: "inception_4b/1x1"
}
layer {
  name: "inception_4b/3x3_reduce"
  type: "Convolution"
  bottom: "inception_4a/output"
  top: "inception_4b/3x3_reduce"
  param {
    lr_mult: 1
    decay_mult: 1
  }
  param {
    lr_mult: 2
    decay_mult: 0
  }
  convolution_param {
    num_output: 112
    kernel_size: 1
    weight_filler {
      type: "xavier"
      std: 0.09
    }
    bias_filler {
      type: "constant"
      value: 0.2
    }
  }
}
layer {
  name: "inception_4b/relu_3x3_reduce"
  type: "ReLU"
  bottom: "inception_4b/3x3_reduce"
  top: "inception_4b/3x3_reduce"
}
layer {
  name: "inception_4b/3x3"
  type: "Convolution"
  bottom: "inception_4b/3x3_reduce"
  top: "inception_4b/3x3"
  param {
    lr_mult: 1
    decay_mult: 1
  }
  param {
    lr_mult: 2
    decay_mult: 0
  }
  convolution_param {
    num_output: 224
    pad: 1
    kernel_size: 3
    weight_filler {
      type: "xavier"
      std: 0.03
    }
    bias_filler {
      type: "constant"
      value: 0.2
    }
  }
}
layer {
  name: "inception_4b/relu_3x3"
  type: "ReLU"
  bottom: "inception_4b/3x3"
  top: "inception_4b/3x3"
}
layer {
  name: "inception_4b/5x5_reduce"
  type: "Convolution"
  bottom: "inception_4a/output"
  top: "inception_4b/5x5_reduce"
  param {
    lr_mult: 1
    decay_mult: 1
  }
  param {
    lr_mult: 2
    decay_mult: 0
  }
  convolution_param {
    num_output: 24
    kernel_size: 1
    weight_filler {
      type: "xavier"
      std: 0.2
    }
    bias_filler {
      type: "constant"
      value: 0.2
    }
  }
}
layer {
  name: "inception_4b/relu_5x5_reduce"
  type: "ReLU"
  bottom: "inception_4b/5x5_reduce"
  top: "inception_4b/5x5_reduce"
}
layer {
  name: "inception_4b/5x5"
  type: "Convolution"
  bottom: "inception_4b/5x5_reduce"
  top: "inception_4b/5x5"
  param {
    lr_mult: 1
    decay_mult: 1
  }
  param {
    lr_mult: 2
    decay_mult: 0
  }
  convolution_param {
    num_output: 64
    pad: 2
    kernel_size: 5
    weight_filler {
      type: "xavier"
      std: 0.03
    }
    bias_filler {
      type: "constant"
      value: 0.2
    }
  }
}
layer {
  name: "inception_4b/relu_5x5"
  type: "ReLU"
  bottom: "inception_4b/5x5"
  top: "inception_4b/5x5"
}
layer {
  name: "inception_4b/pool"
  type: "Pooling"
  bottom: "inception_4a/output"
  top: "inception_4b/pool"
  pooling_param {
    pool: MAX
    kernel_size: 3
    stride: 1
    pad: 1
  }
}
layer {
  name: "inception_4b/pool_proj"
  type: "Convolution"
  bottom: "inception_4b/pool"
  top: "inception_4b/pool_proj"
  param {
    lr_mult: 1
    decay_mult: 1
  }
  param {
    lr_mult: 2
    decay_mult: 0
  }
  convolution_param {
    num_output: 64
    kernel_size: 1
    weight_filler {
      type: "xavier"
      std: 0.1
    }
    bias_filler {
      type: "constant"
      value: 0.2
    }
  }
}
layer {
  name: "inception_4b/relu_pool_proj"
  type: "ReLU"
  bottom: "inception_4b/pool_proj"
  top: "inception_4b/pool_proj"
}
layer {
  name: "inception_4b/output"
  type: "Concat"
  bottom: "inception_4b/1x1"
  bottom: "inception_4b/3x3"
  bottom: "inception_4b/5x5"
  bottom: "inception_4b/pool_proj"
  top: "inception_4b/output"
}
layer {
  name: "inception_4c/1x1"
  type: "Convolution"
  bottom: "inception_4b/output"
  top: "inception_4c/1x1"
  param {
    lr_mult: 1
    decay_mult: 1
  }
  param {
    lr_mult: 2
    decay_mult: 0
  }
  convolution_param {
    num_output: 128
    kernel_size: 1
    weight_filler {
      type: "xavier"
      std: 0.03
    }
    bias_filler {
      type: "constant"
      value: 0.2
    }
  }
}
layer {
  name: "inception_4c/relu_1x1"
  type: "ReLU"
  bottom: "inception_4c/1x1"
  top: "inception_4c/1x1"
}
layer {
  name: "inception_4c/3x3_reduce"
  type: "Convolution"
  bottom: "inception_4b/output"
  top: "inception_4c/3x3_reduce"
  param {
    lr_mult: 1
    decay_mult: 1
  }
  param {
    lr_mult: 2
    decay_mult: 0
  }
  convolution_param {
    num_output: 128
    kernel_size: 1
    weight_filler {
      type: "xavier"
      std: 0.09
    }
    bias_filler {
      type: "constant"
      value: 0.2
    }
  }
}
layer {
  name: "inception_4c/relu_3x3_reduce"
  type: "ReLU"
  bottom: "inception_4c/3x3_reduce"
  top: "inception_4c/3x3_reduce"
}
layer {
  name: "inception_4c/3x3"
  type: "Convolution"
  bottom: "inception_4c/3x3_reduce"
  top: "inception_4c/3x3"
  param {
    lr_mult: 1
    decay_mult: 1
  }
  param {
    lr_mult: 2
    decay_mult: 0
  }
  convolution_param {
    num_output: 256
    pad: 1
    kernel_size: 3
    weight_filler {
      type: "xavier"
      std: 0.03
    }
    bias_filler {
      type: "constant"
      value: 0.2
    }
  }
}
layer {
  name: "inception_4c/relu_3x3"
  type: "ReLU"
  bottom: "inception_4c/3x3"
  top: "inception_4c/3x3"
}
layer {
  name: "inception_4c/5x5_reduce"
  type: "Convolution"
  bottom: "inception_4b/output"
  top: "inception_4c/5x5_reduce"
  param {
    lr_mult: 1
    decay_mult: 1
  }
  param {
    lr_mult: 2
    decay_mult: 0
  }
  convolution_param {
    num_output: 24
    kernel_size: 1
    weight_filler {
      type: "xavier"
      std: 0.2
    }
    bias_filler {
      type: "constant"
      value: 0.2
    }
  }
}
layer {
  name: "inception_4c/relu_5x5_reduce"
  type: "ReLU"
  bottom: "inception_4c/5x5_reduce"
  top: "inception_4c/5x5_reduce"
}
layer {
  name: "inception_4c/5x5"
  type: "Convolution"
  bottom: "inception_4c/5x5_reduce"
  top: "inception_4c/5x5"
  param {
    lr_mult: 1
    decay_mult: 1
  }
  param {
    lr_mult: 2
    decay_mult: 0
  }
  convolution_param {
    num_output: 64
    pad: 2
    kernel_size: 5
    weight_filler {
      type: "xavier"
      std: 0.03
    }
    bias_filler {
      type: "constant"
      value: 0.2
    }
  }
}
layer {
  name: "inception_4c/relu_5x5"
  type: "ReLU"
  bottom: "inception_4c/5x5"
  top: "inception_4c/5x5"
}
layer {
  name: "inception_4c/pool"
  type: "Pooling"
  bottom: "inception_4b/output"
  top: "inception_4c/pool"
  pooling_param {
    pool: MAX
    kernel_size: 3
    stride: 1
    pad: 1
  }
}
layer {
  name: "inception_4c/pool_proj"
  type: "Convolution"
  bottom: "inception_4c/pool"
  top: "inception_4c/pool_proj"
  param {
    lr_mult: 1
    decay_mult: 1
  }
  param {
    lr_mult: 2
    decay_mult: 0
  }
  convolution_param {
    num_output: 64
    kernel_size: 1
    weight_filler {
      type: "xavier"
      std: 0.1
    }
    bias_filler {
      type: "constant"
      value: 0.2
    }
  }
}
layer {
  name: "inception_4c/relu_pool_proj"
  type: "ReLU"
  bottom: "inception_4c/pool_proj"
  top: "inception_4c/pool_proj"
}
layer {
  name: "inception_4c/output"
  type: "Concat"
  bottom: "inception_4c/1x1"
  bottom: "inception_4c/3x3"
  bottom: "inception_4c/5x5"
  bottom: "inception_4c/pool_proj"
  top: "inception_4c/output"
}
layer {
  name: "inception_4d/1x1"
  type: "Convolution"
  bottom: "inception_4c/output"
  top: "inception_4d/1x1"
  param {
    lr_mult: 1
    decay_mult: 1
  }
  param {
    lr_mult: 2
    decay_mult: 0
  }
  convolution_param {
    num_output: 112
    kernel_size: 1
    weight_filler {
      type: "xavier"
      std: 0.03
    }
    bias_filler {
      type: "constant"
      value: 0.2
    }
  }
}
layer {
  name: "inception_4d/relu_1x1"
  type: "ReLU"
  bottom: "inception_4d/1x1"
  top: "inception_4d/1x1"
}
layer {
  name: "inception_4d/3x3_reduce"
  type: "Convolution"
  bottom: "inception_4c/output"
  top: "inception_4d/3x3_reduce"
  param {
    lr_mult: 1
    decay_mult: 1
  }
  param {
    lr_mult: 2
    decay_mult: 0
  }
  convolution_param {
    num_output: 144
    kernel_size: 1
    weight_filler {
      type: "xavier"
      std: 0.09
    }
    bias_filler {
      type: "constant"
      value: 0.2
    }
  }
}
layer {
  name: "inception_4d/relu_3x3_reduce"
  type: "ReLU"
  bottom: "inception_4d/3x3_reduce"
  top: "inception_4d/3x3_reduce"
}
layer {
  name: "inception_4d/3x3"
  type: "Convolution"
  bottom: "inception_4d/3x3_reduce"
  top: "inception_4d/3x3"
  param {
    lr_mult: 1
    decay_mult: 1
  }
  param {
    lr_mult: 2
    decay_mult: 0
  }
  convolution_param {
    num_output: 288
    pad: 1
    kernel_size: 3
    weight_filler {
      type: "xavier"
      std: 0.03
    }
    bias_filler {
      type: "constant"
      value: 0.2
    }
  }
}
layer {
  name: "inception_4d/relu_3x3"
  type: "ReLU"
  bottom: "inception_4d/3x3"
  top: "inception_4d/3x3"
}
layer {
  name: "inception_4d/5x5_reduce"
  type: "Convolution"
  bottom: "inception_4c/output"
  top: "inception_4d/5x5_reduce"
  param {
    lr_mult: 1
    decay_mult: 1
  }
  param {
    lr_mult: 2
    decay_mult: 0
  }
  convolution_param {
    num_output: 32
    kernel_size: 1
    weight_filler {
      type: "xavier"
      std: 0.2
    }
    bias_filler {
      type: "constant"
      value: 0.2
    }
  }
}
layer {
  name: "inception_4d/relu_5x5_reduce"
  type: "ReLU"
  bottom: "inception_4d/5x5_reduce"
  top: "inception_4d/5x5_reduce"
}
layer {
  name: "inception_4d/5x5"
  type: "Convolution"
  bottom: "inception_4d/5x5_reduce"
  top: "inception_4d/5x5"
  param {
    lr_mult: 1
    decay_mult: 1
  }
  param {
    lr_mult: 2
    decay_mult: 0
  }
  convolution_param {
    num_output: 64
    pad: 2
    kernel_size: 5
    weight_filler {
      type: "xavier"
      std: 0.03
    }
    bias_filler {
      type: "constant"
      value: 0.2
    }
  }
}
layer {
  name: "inception_4d/relu_5x5"
  type: "ReLU"
  bottom: "inception_4d/5x5"
  top: "inception_4d/5x5"
}
layer {
  name: "inception_4d/pool"
  type: "Pooling"
  bottom: "inception_4c/output"
  top: "inception_4d/pool"
  pooling_param {
    pool: MAX
    kernel_size: 3
    stride: 1
    pad: 1
  }
}
layer {
  name: "inception_4d/pool_proj"
  type: "Convolution"
  bottom: "inception_4d/pool"
  top: "inception_4d/pool_proj"
  param {
    lr_mult: 1
    decay_mult: 1
  }
  param {
    lr_mult: 2
    decay_mult: 0
  }
  convolution_param {
    num_output: 64
    kernel_size: 1
    weight_filler {
      type: "xavier"
      std: 0.1
    }
    bias_filler {
      type: "constant"
      value: 0.2
    }
  }
}
layer {
  name: "inception_4d/relu_pool_proj"
  type: "ReLU"
  bottom: "inception_4d/pool_proj"
  top: "inception_4d/pool_proj"
}
layer {
  name: "inception_4d/output"
  type: "Concat"
  bottom: "inception_4d/1x1"
  bottom: "inception_4d/3x3"
  bottom: "inception_4d/5x5"
  bottom: "inception_4d/pool_proj"
  top: "inception_4d/output"
}
layer {
  name: "inception_4e/1x1"
  type: "Convolution"
  bottom: "inception_4d/output"
  top: "inception_4e/1x1"
  param {
    lr_mult: 1
    decay_mult: 1
  }
  param {
    lr_mult: 2
    decay_mult: 0
  }
  convolution_param {
    num_output: 256
    kernel_size: 1
    weight_filler {
      type: "xavier"
      std: 0.03
    }
    bias_filler {
      type: "constant"
      value: 0.2
    }
  }
}
layer {
  name: "inception_4e/relu_1x1"
  type: "ReLU"
  bottom: "inception_4e/1x1"
  top: "inception_4e/1x1"
}
layer {
  name: "inception_4e/3x3_reduce"
  type: "Convolution"
  bottom: "inception_4d/output"
  top: "inception_4e/3x3_reduce"
  param {
    lr_mult: 1
    decay_mult: 1
  }
  param {
    lr_mult: 2
    decay_mult: 0
  }
  convolution_param {
    num_output: 160
    kernel_size: 1
    weight_filler {
      type: "xavier"
      std: 0.09
    }
    bias_filler {
      type: "constant"
      value: 0.2
    }
  }
}
layer {
  name: "inception_4e/relu_3x3_reduce"
  type: "ReLU"
  bottom: "inception_4e/3x3_reduce"
  top: "inception_4e/3x3_reduce"
}
layer {
  name: "inception_4e/3x3"
  type: "Convolution"
  bottom: "inception_4e/3x3_reduce"
  top: "inception_4e/3x3"
  param {
    lr_mult: 1
    decay_mult: 1
  }
  param {
    lr_mult: 2
    decay_mult: 0
  }
  convolution_param {
    num_output: 320
    pad: 1
    kernel_size: 3
    weight_filler {
      type: "xavier"
      std: 0.03
    }
    bias_filler {
      type: "constant"
      value: 0.2
    }
  }
}
layer {
  name: "inception_4e/relu_3x3"
  type: "ReLU"
  bottom: "inception_4e/3x3"
  top: "inception_4e/3x3"
}
layer {
  name: "inception_4e/5x5_reduce"
  type: "Convolution"
  bottom: "inception_4d/output"
  top: "inception_4e/5x5_reduce"
  param {
    lr_mult: 1
    decay_mult: 1
  }
  param {
    lr_mult: 2
    decay_mult: 0
  }
  convolution_param {
    num_output: 32
    kernel_size: 1
    weight_filler {
      type: "xavier"
      std: 0.2
    }
    bias_filler {
      type: "constant"
      value: 0.2
    }
  }
}
layer {
  name: "inception_4e/relu_5x5_reduce"
  type: "ReLU"
  bottom: "inception_4e/5x5_reduce"
  top: "inception_4e/5x5_reduce"
}
layer {
  name: "inception_4e/5x5"
  type: "Convolution"
  bottom: "inception_4e/5x5_reduce"
  top: "inception_4e/5x5"
  param {
    lr_mult: 1
    decay_mult: 1
  }
  param {
    lr_mult: 2
    decay_mult: 0
  }
  convolution_param {
    num_output: 128
    pad: 2
    kernel_size: 5
    weight_filler {
      type: "xavier"
      std: 0.03
    }
    bias_filler {
      type: "constant"
      value: 0.2
    }
  }
}
layer {
  name: "inception_4e/relu_5x5"
  type: "ReLU"
  bottom: "inception_4e/5x5"
  top: "inception_4e/5x5"
}
layer {
  name: "inception_4e/pool"
  type: "Pooling"
  bottom: "inception_4d/output"
  top: "inception_4e/pool"
  pooling_param {
    pool: MAX
    kernel_size: 3
    stride: 1
    pad: 1
  }
}
layer {
  name: "inception_4e/pool_proj"
  type: "Convolution"
  bottom: "inception_4e/pool"
  top: "inception_4e/pool_proj"
  param {
    lr_mult: 1
    decay_mult: 1
  }
  param {
    lr_mult: 2
    decay_mult: 0
  }
  convolution_param {
    num_output: 128
    kernel_size: 1
    weight_filler {
      type: "xavier"
      std: 0.1
    }
    bias_filler {
      type: "constant"
      value: 0.2
    }
  }
}
layer {
  name: "inception_4e/relu_pool_proj"
  type: "ReLU"
  bottom: "inception_4e/pool_proj"
  top: "inception_4e/pool_proj"
}
layer {
  name: "inception_4e/output"
  type: "Concat"
  bottom: "inception_4e/1x1"
  bottom: "inception_4e/3x3"
  bottom: "inception_4e/5x5"
  bottom: "inception_4e/pool_proj"
  top: "inception_4e/output"
}
layer {
  name: "pool4/3x3_s2"
  type: "Pooling"
  bottom: "inception_4e/output"
  top: "pool4/3x3_s2"
  pooling_param {
    pool: MAX
    kernel_size: 3
    stride: 2
  }
}
layer {
  name: "inception_5a/1x1"
  type: "Convolution"
  bottom: "pool4/3x3_s2"
  top: "inception_5a/1x1"
  param {
    lr_mult: 1
    decay_mult: 1
  }
  param {
    lr_mult: 2
    decay_mult: 0
  }
  convolution_param {
    num_output: 256
    kernel_size: 1
    weight_filler {
      type: "xavier"
      std: 0.03
    }
    bias_filler {
      type: "constant"
      value: 0.2
    }
  }
}
layer {
  name: "inception_5a/relu_1x1"
  type: "ReLU"
  bottom: "inception_5a/1x1"
  top: "inception_5a/1x1"
}
layer {
  name: "inception_5a/3x3_reduce"
  type: "Convolution"
  bottom: "pool4/3x3_s2"
  top: "inception_5a/3x3_reduce"
  param {
    lr_mult: 1
    decay_mult: 1
  }
  param {
    lr_mult: 2
    decay_mult: 0
  }
  convolution_param {
    num_output: 160
    kernel_size: 1
    weight_filler {
      type: "xavier"
      std: 0.09
    }
    bias_filler {
      type: "constant"
      value: 0.2
    }
  }
}
layer {
  name: "inception_5a/relu_3x3_reduce"
  type: "ReLU"
  bottom: "inception_5a/3x3_reduce"
  top: "inception_5a/3x3_reduce"
}
layer {
  name: "inception_5a/3x3"
  type: "Convolution"
  bottom: "inception_5a/3x3_reduce"
  top: "inception_5a/3x3"
  param {
    lr_mult: 1
    decay_mult: 1
  }
  param {
    lr_mult: 2
    decay_mult: 0
  }
  convolution_param {
    num_output: 320
    pad: 1
    kernel_size: 3
    weight_filler {
      type: "xavier"
      std: 0.03
    }
    bias_filler {
      type: "constant"
      value: 0.2
    }
  }
}
layer {
  name: "inception_5a/relu_3x3"
  type: "ReLU"
  bottom: "inception_5a/3x3"
  top: "inception_5a/3x3"
}
layer {
  name: "inception_5a/5x5_reduce"
  type: "Convolution"
  bottom: "pool4/3x3_s2"
  top: "inception_5a/5x5_reduce"
 
I1130 08:30:07.519549 30089 layer_factory.hpp:77] Creating layer data
I1130 08:30:07.547505 30089 db_lmdb.cpp:35] Opened lmdb /idiap/temp/lmedina/fine-tuning/data/Happy/train_lmdb
I1130 08:30:07.581852 30089 net.cpp:84] Creating Layer data
I1130 08:30:07.581871 30089 net.cpp:380] data -> data
I1130 08:30:07.581893 30089 net.cpp:380] data -> label
I1130 08:30:07.581912 30089 data_transformer.cpp:25] Loading mean file from: /idiap/temp/lmedina/fine-tuning/googlenet_places365/places365CNN_mean.binaryproto
I1130 08:30:07.588588 30089 data_layer.cpp:45] output data size: 32,3,224,224
I1130 08:30:07.621762 30089 net.cpp:122] Setting up data
I1130 08:30:07.621798 30089 net.cpp:129] Top shape: 32 3 224 224 (4816896)
I1130 08:30:07.621803 30089 net.cpp:129] Top shape: 32 (32)
I1130 08:30:07.621807 30089 net.cpp:137] Memory required for data: 19267712
I1130 08:30:07.621817 30089 layer_factory.hpp:77] Creating layer conv1/7x7_s2
I1130 08:30:07.621840 30089 net.cpp:84] Creating Layer conv1/7x7_s2
I1130 08:30:07.621847 30089 net.cpp:406] conv1/7x7_s2 <- data
I1130 08:30:07.621860 30089 net.cpp:380] conv1/7x7_s2 -> conv1/7x7_s2
I1130 08:30:07.622521 30089 net.cpp:122] Setting up conv1/7x7_s2
I1130 08:30:07.622534 30089 net.cpp:129] Top shape: 32 64 112 112 (25690112)
I1130 08:30:07.622537 30089 net.cpp:137] Memory required for data: 122028160
I1130 08:30:07.622550 30089 layer_factory.hpp:77] Creating layer conv1/relu_7x7
I1130 08:30:07.622557 30089 net.cpp:84] Creating Layer conv1/relu_7x7
I1130 08:30:07.622562 30089 net.cpp:406] conv1/relu_7x7 <- conv1/7x7_s2
I1130 08:30:07.622568 30089 net.cpp:367] conv1/relu_7x7 -> conv1/7x7_s2 (in-place)
I1130 08:30:07.622577 30089 net.cpp:122] Setting up conv1/relu_7x7
I1130 08:30:07.622583 30089 net.cpp:129] Top shape: 32 64 112 112 (25690112)
I1130 08:30:07.622589 30089 net.cpp:137] Memory required for data: 224788608
I1130 08:30:07.622593 30089 layer_factory.hpp:77] Creating layer pool1/3x3_s2
I1130 08:30:07.622601 30089 net.cpp:84] Creating Layer pool1/3x3_s2
I1130 08:30:07.622606 30089 net.cpp:406] pool1/3x3_s2 <- conv1/7x7_s2
I1130 08:30:07.622612 30089 net.cpp:380] pool1/3x3_s2 -> pool1/3x3_s2
I1130 08:30:07.622690 30089 net.cpp:122] Setting up pool1/3x3_s2
I1130 08:30:07.622699 30089 net.cpp:129] Top shape: 32 64 56 56 (6422528)
I1130 08:30:07.622704 30089 net.cpp:137] Memory required for data: 250478720
I1130 08:30:07.622707 30089 layer_factory.hpp:77] Creating layer pool1/norm1
I1130 08:30:07.622717 30089 net.cpp:84] Creating Layer pool1/norm1
I1130 08:30:07.622721 30089 net.cpp:406] pool1/norm1 <- pool1/3x3_s2
I1130 08:30:07.622727 30089 net.cpp:380] pool1/norm1 -> pool1/norm1
I1130 08:30:07.622757 30089 net.cpp:122] Setting up pool1/norm1
I1130 08:30:07.622764 30089 net.cpp:129] Top shape: 32 64 56 56 (6422528)
I1130 08:30:07.622769 30089 net.cpp:137] Memory required for data: 276168832
I1130 08:30:07.622774 30089 layer_factory.hpp:77] Creating layer conv2/3x3_reduce
I1130 08:30:07.622783 30089 net.cpp:84] Creating Layer conv2/3x3_reduce
I1130 08:30:07.622788 30089 net.cpp:406] conv2/3x3_reduce <- pool1/norm1
I1130 08:30:07.622794 30089 net.cpp:380] conv2/3x3_reduce -> conv2/3x3_reduce
I1130 08:30:07.625098 30089 net.cpp:122] Setting up conv2/3x3_reduce
I1130 08:30:07.625115 30089 net.cpp:129] Top shape: 32 64 56 56 (6422528)
I1130 08:30:07.625120 30089 net.cpp:137] Memory required for data: 301858944
I1130 08:30:07.625131 30089 layer_factory.hpp:77] Creating layer conv2/relu_3x3_reduce
I1130 08:30:07.625138 30089 net.cpp:84] Creating Layer conv2/relu_3x3_reduce
I1130 08:30:07.625144 30089 net.cpp:406] conv2/relu_3x3_reduce <- conv2/3x3_reduce
I1130 08:30:07.625150 30089 net.cpp:367] conv2/relu_3x3_reduce -> conv2/3x3_reduce (in-place)
I1130 08:30:07.625159 30089 net.cpp:122] Setting up conv2/relu_3x3_reduce
I1130 08:30:07.625164 30089 net.cpp:129] Top shape: 32 64 56 56 (6422528)
I1130 08:30:07.625169 30089 net.cpp:137] Memory required for data: 327549056
I1130 08:30:07.625174 30089 layer_factory.hpp:77] Creating layer conv2/3x3
I1130 08:30:07.625181 30089 net.cpp:84] Creating Layer conv2/3x3
I1130 08:30:07.625186 30089 net.cpp:406] conv2/3x3 <- conv2/3x3_reduce
I1130 08:30:07.625192 30089 net.cpp:380] conv2/3x3 -> conv2/3x3
I1130 08:30:07.626325 30089 net.cpp:122] Setting up conv2/3x3
I1130 08:30:07.626335 30089 net.cpp:129] Top shape: 32 192 56 56 (19267584)
I1130 08:30:07.626340 30089 net.cpp:137] Memory required for data: 404619392
I1130 08:30:07.626350 30089 layer_factory.hpp:77] Creating layer conv2/relu_3x3
I1130 08:30:07.626358 30089 net.cpp:84] Creating Layer conv2/relu_3x3
I1130 08:30:07.626363 30089 net.cpp:406] conv2/relu_3x3 <- conv2/3x3
I1130 08:30:07.626369 30089 net.cpp:367] conv2/relu_3x3 -> conv2/3x3 (in-place)
I1130 08:30:07.626376 30089 net.cpp:122] Setting up conv2/relu_3x3
I1130 08:30:07.626382 30089 net.cpp:129] Top shape: 32 192 56 56 (19267584)
I1130 08:30:07.626386 30089 net.cpp:137] Memory required for data: 481689728
I1130 08:30:07.626390 30089 layer_factory.hpp:77] Creating layer conv2/norm2
I1130 08:30:07.626396 30089 net.cpp:84] Creating Layer conv2/norm2
I1130 08:30:07.626401 30089 net.cpp:406] conv2/norm2 <- conv2/3x3
I1130 08:30:07.626407 30089 net.cpp:380] conv2/norm2 -> conv2/norm2
I1130 08:30:07.626436 30089 net.cpp:122] Setting up conv2/norm2
I1130 08:30:07.626443 30089 net.cpp:129] Top shape: 32 192 56 56 (19267584)
I1130 08:30:07.626448 30089 net.cpp:137] Memory required for data: 558760064
I1130 08:30:07.626452 30089 layer_factory.hpp:77] Creating layer pool2/3x3_s2
I1130 08:30:07.626459 30089 net.cpp:84] Creating Layer pool2/3x3_s2
I1130 08:30:07.626464 30089 net.cpp:406] pool2/3x3_s2 <- conv2/norm2
I1130 08:30:07.626469 30089 net.cpp:380] pool2/3x3_s2 -> pool2/3x3_s2
I1130 08:30:07.626497 30089 net.cpp:122] Setting up pool2/3x3_s2
I1130 08:30:07.626503 30089 net.cpp:129] Top shape: 32 192 28 28 (4816896)
I1130 08:30:07.626512 30089 net.cpp:137] Memory required for data: 578027648
I1130 08:30:07.626515 30089 layer_factory.hpp:77] Creating layer pool2/3x3_s2_pool2/3x3_s2_0_split
I1130 08:30:07.626523 30089 net.cpp:84] Creating Layer pool2/3x3_s2_pool2/3x3_s2_0_split
I1130 08:30:07.626528 30089 net.cpp:406] pool2/3x3_s2_pool2/3x3_s2_0_split <- pool2/3x3_s2
I1130 08:30:07.626533 30089 net.cpp:380] pool2/3x3_s2_pool2/3x3_s2_0_split -> pool2/3x3_s2_pool2/3x3_s2_0_split_0
I1130 08:30:07.626539 30089 net.cpp:380] pool2/3x3_s2_pool2/3x3_s2_0_split -> pool2/3x3_s2_pool2/3x3_s2_0_split_1
I1130 08:30:07.626546 30089 net.cpp:380] pool2/3x3_s2_pool2/3x3_s2_0_split -> pool2/3x3_s2_pool2/3x3_s2_0_split_2
I1130 08:30:07.626554 30089 net.cpp:380] pool2/3x3_s2_pool2/3x3_s2_0_split -> pool2/3x3_s2_pool2/3x3_s2_0_split_3
I1130 08:30:07.626592 30089 net.cpp:122] Setting up pool2/3x3_s2_pool2/3x3_s2_0_split
I1130 08:30:07.626600 30089 net.cpp:129] Top shape: 32 192 28 28 (4816896)
I1130 08:30:07.626605 30089 net.cpp:129] Top shape: 32 192 28 28 (4816896)
I1130 08:30:07.626610 30089 net.cpp:129] Top shape: 32 192 28 28 (4816896)
I1130 08:30:07.626615 30089 net.cpp:129] Top shape: 32 192 28 28 (4816896)
I1130 08:30:07.626619 30089 net.cpp:137] Memory required for data: 655097984
I1130 08:30:07.626623 30089 layer_factory.hpp:77] Creating layer inception_3a/1x1
I1130 08:30:07.626631 30089 net.cpp:84] Creating Layer inception_3a/1x1
I1130 08:30:07.626636 30089 net.cpp:406] inception_3a/1x1 <- pool2/3x3_s2_pool2/3x3_s2_0_split_0
I1130 08:30:07.626643 30089 net.cpp:380] inception_3a/1x1 -> inception_3a/1x1
I1130 08:30:07.627367 30089 net.cpp:122] Setting up inception_3a/1x1
I1130 08:30:07.627378 30089 net.cpp:129] Top shape: 32 64 28 28 (1605632)
I1130 08:30:07.627384 30089 net.cpp:137] Memory required for data: 661520512
I1130 08:30:07.627391 30089 layer_factory.hpp:77] Creating layer inception_3a/relu_1x1
I1130 08:30:07.627398 30089 net.cpp:84] Creating Layer inception_3a/relu_1x1
I1130 08:30:07.627403 30089 net.cpp:406] inception_3a/relu_1x1 <- inception_3a/1x1
I1130 08:30:07.627410 30089 net.cpp:367] inception_3a/relu_1x1 -> inception_3a/1x1 (in-place)
I1130 08:30:07.627418 30089 net.cpp:122] Setting up inception_3a/relu_1x1
I1130 08:30:07.627424 30089 net.cpp:129] Top shape: 32 64 28 28 (1605632)
I1130 08:30:07.627427 30089 net.cpp:137] Memory required for data: 667943040
I1130 08:30:07.627432 30089 layer_factory.hpp:77] Creating layer inception_3a/3x3_reduce
I1130 08:30:07.627440 30089 net.cpp:84] Creating Layer inception_3a/3x3_reduce
I1130 08:30:07.627445 30089 net.cpp:406] inception_3a/3x3_reduce <- pool2/3x3_s2_pool2/3x3_s2_0_split_1
I1130 08:30:07.627451 30089 net.cpp:380] inception_3a/3x3_reduce -> inception_3a/3x3_reduce
I1130 08:30:07.628073 30089 net.cpp:122] Setting up inception_3a/3x3_reduce
I1130 08:30:07.628084 30089 net.cpp:129] Top shape: 32 96 28 28 (2408448)
I1130 08:30:07.628088 30089 net.cpp:137] Memory required for data: 677576832
I1130 08:30:07.628098 30089 layer_factory.hpp:77] Creating layer inception_3a/relu_3x3_reduce
I1130 08:30:07.628104 30089 net.cpp:84] Creating Layer inception_3a/relu_3x3_reduce
I1130 08:30:07.628109 30089 net.cpp:406] inception_3a/relu_3x3_reduce <- inception_3a/3x3_reduce
I1130 08:30:07.628118 30089 net.cpp:367] inception_3a/relu_3x3_reduce -> inception_3a/3x3_reduce (in-place)
I1130 08:30:07.628124 30089 net.cpp:122] Setting up inception_3a/relu_3x3_reduce
I1130 08:30:07.628130 30089 net.cpp:129] Top shape: 32 96 28 28 (2408448)
I1130 08:30:07.628134 30089 net.cpp:137] Memory required for data: 687210624
I1130 08:30:07.628139 30089 layer_factory.hpp:77] Creating layer inception_3a/3x3
I1130 08:30:07.628149 30089 net.cpp:84] Creating Layer inception_3a/3x3
I1130 08:30:07.628152 30089 net.cpp:406] inception_3a/3x3 <- inception_3a/3x3_reduce
I1130 08:30:07.628159 30089 net.cpp:380] inception_3a/3x3 -> inception_3a/3x3
I1130 08:30:07.628916 30089 net.cpp:122] Setting up inception_3a/3x3
I1130 08:30:07.628926 30089 net.cpp:129] Top shape: 32 128 28 28 (3211264)
I1130 08:30:07.628932 30089 net.cpp:137] Memory required for data: 700055680
I1130 08:30:07.628939 30089 layer_factory.hpp:77] Creating layer inception_3a/relu_3x3
I1130 08:30:07.628945 30089 net.cpp:84] Creating Layer inception_3a/relu_3x3
I1130 08:30:07.628950 30089 net.cpp:406] inception_3a/relu_3x3 <- inception_3a/3x3
I1130 08:30:07.628957 30089 net.cpp:367] inception_3a/relu_3x3 -> inception_3a/3x3 (in-place)
I1130 08:30:07.628963 30089 net.cpp:122] Setting up inception_3a/relu_3x3
I1130 08:30:07.628969 30089 net.cpp:129] Top shape: 32 128 28 28 (3211264)
I1130 08:30:07.628973 30089 net.cpp:137] Memory required for data: 712900736
I1130 08:30:07.628978 30089 layer_factory.hpp:77] Creating layer inception_3a/5x5_reduce
I1130 08:30:07.628986 30089 net.cpp:84] Creating Layer inception_3a/5x5_reduce
I1130 08:30:07.628991 30089 net.cpp:406] inception_3a/5x5_reduce <- pool2/3x3_s2_pool2/3x3_s2_0_split_2
I1130 08:30:07.628998 30089 net.cpp:380] inception_3a/5x5_reduce -> inception_3a/5x5_reduce
I1130 08:30:07.629184 30089 net.cpp:122] Setting up inception_3a/5x5_reduce
I1130 08:30:07.629191 30089 net.cpp:129] Top shape: 32 16 28 28 (401408)
I1130 08:30:07.629196 30089 net.cpp:137] Memory required for data: 714506368
I1130 08:30:07.629204 30089 layer_factory.hpp:77] Creating layer inception_3a/relu_5x5_reduce
I1130 08:30:07.629209 30089 net.cpp:84] Creating Layer inception_3a/relu_5x5_reduce
I1130 08:30:07.629215 30089 net.cpp:406] inception_3a/relu_5x5_reduce <- inception_3a/5x5_reduce
I1130 08:30:07.629220 30089 net.cpp:367] inception_3a/relu_5x5_reduce -> inception_3a/5x5_reduce (in-place)
I1130 08:30:07.629227 30089 net.cpp:122] Setting up inception_3a/relu_5x5_reduce
I1130 08:30:07.629233 30089 net.cpp:129] Top shape: 32 16 28 28 (401408)
I1130 08:30:07.629237 30089 net.cpp:137] Memory required for data: 716112000
I1130 08:30:07.629241 30089 layer_factory.hpp:77] Creating layer inception_3a/5x5
I1130 08:30:07.629250 30089 net.cpp:84] Creating Layer inception_3a/5x5
I1130 08:30:07.629254 30089 net.cpp:406] inception_3a/5x5 <- inception_3a/5x5_reduce
I1130 08:30:07.629261 30089 net.cpp:380] inception_3a/5x5 -> inception_3a/5x5
I1130 08:30:07.629489 30089 net.cpp:122] Setting up inception_3a/5x5
I1130 08:30:07.629498 30089 net.cpp:129] Top shape: 32 32 28 28 (802816)
I1130 08:30:07.629503 30089 net.cpp:137] Memory required for data: 719323264
I1130 08:30:07.629508 30089 layer_factory.hpp:77] Creating layer inception_3a/relu_5x5
I1130 08:30:07.629514 30089 net.cpp:84] Creating Layer inception_3a/relu_5x5
I1130 08:30:07.629520 30089 net.cpp:406] inception_3a/relu_5x5 <- inception_3a/5x5
I1130 08:30:07.629526 30089 net.cpp:367] inception_3a/relu_5x5 -> inception_3a/5x5 (in-place)
I1130 08:30:07.629534 30089 net.cpp:122] Setting up inception_3a/relu_5x5
I1130 08:30:07.629539 30089 net.cpp:129] Top shape: 32 32 28 28 (802816)
I1130 08:30:07.629542 30089 net.cpp:137] Memory required for data: 722534528
I1130 08:30:07.629547 30089 layer_factory.hpp:77] Creating layer inception_3a/pool
I1130 08:30:07.629554 30089 net.cpp:84] Creating Layer inception_3a/pool
I1130 08:30:07.629559 30089 net.cpp:406] inception_3a/pool <- pool2/3x3_s2_pool2/3x3_s2_0_split_3
I1130 08:30:07.629565 30089 net.cpp:380] inception_3a/pool -> inception_3a/pool
I1130 08:30:07.629593 30089 net.cpp:122] Setting up inception_3a/pool
I1130 08:30:07.629601 30089 net.cpp:129] Top shape: 32 192 28 28 (4816896)
I1130 08:30:07.629606 30089 net.cpp:137] Memory required for data: 741802112
I1130 08:30:07.629609 30089 layer_factory.hpp:77] Creating layer inception_3a/pool_proj
I1130 08:30:07.629617 30089 net.cpp:84] Creating Layer inception_3a/pool_proj
I1130 08:30:07.629621 30089 net.cpp:406] inception_3a/pool_proj <- inception_3a/pool
I1130 08:30:07.629628 30089 net.cpp:380] inception_3a/pool_proj -> inception_3a/pool_proj
I1130 08:30:07.629818 30089 net.cpp:122] Setting up inception_3a/pool_proj
I1130 08:30:07.629827 30089 net.cpp:129] Top shape: 32 32 28 28 (802816)
I1130 08:30:07.629832 30089 net.cpp:137] Memory required for data: 745013376
I1130 08:30:07.629840 30089 layer_factory.hpp:77] Creating layer inception_3a/relu_pool_proj
I1130 08:30:07.629848 30089 net.cpp:84] Creating Layer inception_3a/relu_pool_proj
I1130 08:30:07.629853 30089 net.cpp:406] inception_3a/relu_pool_proj <- inception_3a/pool_proj
I1130 08:30:07.629859 30089 net.cpp:367] inception_3a/relu_pool_proj -> inception_3a/pool_proj (in-place)
I1130 08:30:07.629866 30089 net.cpp:122] Setting up inception_3a/relu_pool_proj
I1130 08:30:07.629873 30089 net.cpp:129] Top shape: 32 32 28 28 (802816)
I1130 08:30:07.629878 30089 net.cpp:137] Memory required for data: 748224640
I1130 08:30:07.629881 30089 layer_factory.hpp:77] Creating layer inception_3a/output
I1130 08:30:07.629889 30089 net.cpp:84] Creating Layer inception_3a/output
I1130 08:30:07.629894 30089 net.cpp:406] inception_3a/output <- inception_3a/1x1
I1130 08:30:07.629899 30089 net.cpp:406] inception_3a/output <- inception_3a/3x3
I1130 08:30:07.629904 30089 net.cpp:406] inception_3a/output <- inception_3a/5x5
I1130 08:30:07.629909 30089 net.cpp:406] inception_3a/output <- inception_3a/pool_proj
I1130 08:30:07.629914 30089 net.cpp:380] inception_3a/output -> inception_3a/output
I1130 08:30:07.629935 30089 net.cpp:122] Setting up inception_3a/output
I1130 08:30:07.629942 30089 net.cpp:129] Top shape: 32 256 28 28 (6422528)
I1130 08:30:07.629947 30089 net.cpp:137] Memory required for data: 773914752
I1130 08:30:07.629951 30089 layer_factory.hpp:77] Creating layer inception_3a/output_inception_3a/output_0_split
I1130 08:30:07.629957 30089 net.cpp:84] Creating Layer inception_3a/output_inception_3a/output_0_split
I1130 08:30:07.629962 30089 net.cpp:406] inception_3a/output_inception_3a/output_0_split <- inception_3a/output
I1130 08:30:07.629969 30089 net.cpp:380] inception_3a/output_inception_3a/output_0_split -> inception_3a/output_inception_3a/output_0_split_0
I1130 08:30:07.629976 30089 net.cpp:380] inception_3a/output_inception_3a/output_0_split -> inception_3a/output_inception_3a/output_0_split_1
I1130 08:30:07.629983 30089 net.cpp:380] inception_3a/output_inception_3a/output_0_split -> inception_3a/output_inception_3a/output_0_split_2
I1130 08:30:07.629990 30089 net.cpp:380] inception_3a/output_inception_3a/output_0_split -> inception_3a/output_inception_3a/output_0_split_3
I1130 08:30:07.630029 30089 net.cpp:122] Setting up inception_3a/output_inception_3a/output_0_split
I1130 08:30:07.630036 30089 net.cpp:129] Top shape: 32 256 28 28 (6422528)
I1130 08:30:07.630041 30089 net.cpp:129] Top shape: 32 256 28 28 (6422528)
I1130 08:30:07.630046 30089 net.cpp:129] Top shape: 32 256 28 28 (6422528)
I1130 08:30:07.630051 30089 net.cpp:129] Top shape: 32 256 28 28 (6422528)
I1130 08:30:07.630055 30089 net.cpp:137] Memory required for data: 876675200
I1130 08:30:07.630060 30089 layer_factory.hpp:77] Creating layer inception_3b/1x1
I1130 08:30:07.630069 30089 net.cpp:84] Creating Layer inception_3b/1x1
I1130 08:30:07.630074 30089 net.cpp:406] inception_3b/1x1 <- inception_3a/output_inception_3a/output_0_split_0
I1130 08:30:07.630080 30089 net.cpp:380] inception_3b/1x1 -> inception_3b/1x1
I1130 08:30:07.630421 30089 net.cpp:122] Setting up inception_3b/1x1
I1130 08:30:07.630430 30089 net.cpp:129] Top shape: 32 128 28 28 (3211264)
I1130 08:30:07.630435 30089 net.cpp:137] Memory required for data: 889520256
I1130 08:30:07.630442 30089 layer_factory.hpp:77] Creating layer inception_3b/relu_1x1
I1130 08:30:07.630448 30089 net.cpp:84] Creating Layer inception_3b/relu_1x1
I1130 08:30:07.630453 30089 net.cpp:406] inception_3b/relu_1x1 <- inception_3b/1x1
I1130 08:30:07.630460 30089 net.cpp:367] inception_3b/relu_1x1 -> inception_3b/1x1 (in-place)
I1130 08:30:07.630466 30089 net.cpp:122] Setting up inception_3b/relu_1x1
I1130 08:30:07.630472 30089 net.cpp:129] Top shape: 32 128 28 28 (3211264)
I1130 08:30:07.630476 30089 net.cpp:137] Memory required for data: 902365312
I1130 08:30:07.630481 30089 layer_factory.hpp:77] Creating layer inception_3b/3x3_reduce
I1130 08:30:07.630488 30089 net.cpp:84] Creating Layer inception_3b/3x3_reduce
I1130 08:30:07.630493 30089 net.cpp:406] inception_3b/3x3_reduce <- inception_3a/output_inception_3a/output_0_split_1
I1130 08:30:07.630502 30089 net.cpp:380] inception_3b/3x3_reduce -> inception_3b/3x3_reduce
I1130 08:30:07.630830 30089 net.cpp:122] Setting up inception_3b/3x3_reduce
I1130 08:30:07.630837 30089 net.cpp:129] Top shape: 32 128 28 28 (3211264)
I1130 08:30:07.630842 30089 net.cpp:137] Memory required for data: 915210368
I1130 08:30:07.630849 30089 layer_factory.hpp:77] Creating layer inception_3b/relu_3x3_reduce
I1130 08:30:07.630856 30089 net.cpp:84] Creating Layer inception_3b/relu_3x3_reduce
I1130 08:30:07.630861 30089 net.cpp:406] inception_3b/relu_3x3_reduce <- inception_3b/3x3_reduce
I1130 08:30:07.630866 30089 net.cpp:367] inception_3b/relu_3x3_reduce -> inception_3b/3x3_reduce (in-place)
I1130 08:30:07.630872 30089 net.cpp:122] Setting up inception_3b/relu_3x3_reduce
I1130 08:30:07.630878 30089 net.cpp:129] Top shape: 32 128 28 28 (3211264)
I1130 08:30:07.630882 30089 net.cpp:137] Memory required for data: 928055424
I1130 08:30:07.630887 30089 layer_factory.hpp:77] Creating layer inception_3b/3x3
I1130 08:30:07.630894 30089 net.cpp:84] Creating Layer inception_3b/3x3
I1130 08:30:07.630899 30089 net.cpp:406] inception_3b/3x3 <- inception_3b/3x3_reduce
I1130 08:30:07.630905 30089 net.cpp:380] inception_3b/3x3 -> inception_3b/3x3
I1130 08:30:07.632598 30089 net.cpp:122] Setting up inception_3b/3x3
I1130 08:30:07.632609 30089 net.cpp:129] Top shape: 32 192 28 28 (4816896)
I1130 08:30:07.632613 30089 net.cpp:137] Memory required for data: 947323008
I1130 08:30:07.632621 30089 layer_factory.hpp:77] Creating layer inception_3b/relu_3x3
I1130 08:30:07.632629 30089 net.cpp:84] Creating Layer inception_3b/relu_3x3
I1130 08:30:07.632634 30089 net.cpp:406] inception_3b/relu_3x3 <- inception_3b/3x3
I1130 08:30:07.632640 30089 net.cpp:367] inception_3b/relu_3x3 -> inception_3b/3x3 (in-place)
I1130 08:30:07.632647 30089 net.cpp:122] Setting up inception_3b/relu_3x3
I1130 08:30:07.632653 30089 net.cpp:129] Top shape: 32 192 28 28 (4816896)
I1130 08:30:07.632658 30089 net.cpp:137] Memory required for data: 966590592
I1130 08:30:07.632663 30089 layer_factory.hpp:77] Creating layer inception_3b/5x5_reduce
I1130 08:30:07.632669 30089 net.cpp:84] Creating Layer inception_3b/5x5_reduce
I1130 08:30:07.632674 30089 net.cpp:406] inception_3b/5x5_reduce <- inception_3a/output_inception_3a/output_0_split_2
I1130 08:30:07.632681 30089 net.cpp:380] inception_3b/5x5_reduce -> inception_3b/5x5_reduce
I1130 08:30:07.632885 30089 net.cpp:122] Setting up inception_3b/5x5_reduce
I1130 08:30:07.632894 30089 net.cpp:129] Top shape: 32 32 28 28 (802816)
I1130 08:30:07.632899 30089 net.cpp:137] Memory required for data: 969801856
I1130 08:30:07.632905 30089 layer_factory.hpp:77] Creating layer inception_3b/relu_5x5_reduce
I1130 08:30:07.632911 30089 net.cpp:84] Creating Layer inception_3b/relu_5x5_reduce
I1130 08:30:07.632916 30089 net.cpp:406] inception_3b/relu_5x5_reduce <- inception_3b/5x5_reduce
I1130 08:30:07.632922 30089 net.cpp:367] inception_3b/relu_5x5_reduce -> inception_3b/5x5_reduce (in-place)
I1130 08:30:07.632930 30089 net.cpp:122] Setting up inception_3b/relu_5x5_reduce
I1130 08:30:07.632935 30089 net.cpp:129] Top shape: 32 32 28 28 (802816)
I1130 08:30:07.632939 30089 net.cpp:137] Memory required for data: 973013120
I1130 08:30:07.632943 30089 layer_factory.hpp:77] Creating layer inception_3b/5x5
I1130 08:30:07.632951 30089 net.cpp:84] Creating Layer inception_3b/5x5
I1130 08:30:07.632956 30089 net.cpp:406] inception_3b/5x5 <- inception_3b/5x5_reduce
I1130 08:30:07.632963 30089 net.cpp:380] inception_3b/5x5 -> inception_3b/5x5
I1130 08:30:07.633884 30089 net.cpp:122] Setting up inception_3b/5x5
I1130 08:30:07.633894 30089 net.cpp:129] Top shape: 32 96 28 28 (2408448)
I1130 08:30:07.633899 30089 net.cpp:137] Memory required for data: 982646912
I1130 08:30:07.633906 30089 layer_factory.hpp:77] Creating layer inception_3b/relu_5x5
I1130 08:30:07.633913 30089 net.cpp:84] Creating Layer inception_3b/relu_5x5
I1130 08:30:07.633919 30089 net.cpp:406] inception_3b/relu_5x5 <- inception_3b/5x5
I1130 08:30:07.633927 30089 net.cpp:367] inception_3b/relu_5x5 -> inception_3b/5x5 (in-place)
I1130 08:30:07.633934 30089 net.cpp:122] Setting up inception_3b/relu_5x5
I1130 08:30:07.633940 30089 net.cpp:129] Top shape: 32 96 28 28 (2408448)
I1130 08:30:07.633944 30089 net.cpp:137] Memory required for data: 992280704
I1130 08:30:07.633949 30089 layer_factory.hpp:77] Creating layer inception_3b/pool
I1130 08:30:07.633955 30089 net.cpp:84] Creating Layer inception_3b/pool
I1130 08:30:07.633960 30089 net.cpp:406] inception_3b/pool <- inception_3a/output_inception_3a/output_0_split_3
I1130 08:30:07.633965 30089 net.cpp:380] inception_3b/pool -> inception_3b/pool
I1130 08:30:07.633996 30089 net.cpp:122] Setting up inception_3b/pool
I1130 08:30:07.634002 30089 net.cpp:129] Top shape: 32 256 28 28 (6422528)
I1130 08:30:07.634007 30089 net.cpp:137] Memory required for data: 1017970816
I1130 08:30:07.634011 30089 layer_factory.hpp:77] Creating layer inception_3b/pool_proj
I1130 08:30:07.634021 30089 net.cpp:84] Creating Layer inception_3b/pool_proj
I1130 08:30:07.634026 30089 net.cpp:406] inception_3b/pool_proj <- inception_3b/pool
I1130 08:30:07.634032 30089 net.cpp:380] inception_3b/pool_proj -> inception_3b/pool_proj
I1130 08:30:07.634279 30089 net.cpp:122] Setting up inception_3b/pool_proj
I1130 08:30:07.634296 30089 net.cpp:129] Top shape: 32 64 28 28 (1605632)
I1130 08:30:07.634301 30089 net.cpp:137] Memory required for data: 1024393344
I1130 08:30:07.634307 30089 layer_factory.hpp:77] Creating layer inception_3b/relu_pool_proj
I1130 08:30:07.634315 30089 net.cpp:84] Creating Layer inception_3b/relu_pool_proj
I1130 08:30:07.634320 30089 net.cpp:406] inception_3b/relu_pool_proj <- inception_3b/pool_proj
I1130 08:30:07.634325 30089 net.cpp:367] inception_3b/relu_pool_proj -> inception_3b/pool_proj (in-place)
I1130 08:30:07.634331 30089 net.cpp:122] Setting up inception_3b/relu_pool_proj
I1130 08:30:07.634337 30089 net.cpp:129] Top shape: 32 64 28 28 (1605632)
I1130 08:30:07.634341 30089 net.cpp:137] Memory required for data: 1030815872
I1130 08:30:07.634346 30089 layer_factory.hpp:77] Creating layer inception_3b/output
I1130 08:30:07.634351 30089 net.cpp:84] Creating Layer inception_3b/output
I1130 08:30:07.634356 30089 net.cpp:406] inception_3b/output <- inception_3b/1x1
I1130 08:30:07.634361 30089 net.cpp:406] inception_3b/output <- inception_3b/3x3
I1130 08:30:07.634366 30089 net.cpp:406] inception_3b/output <- inception_3b/5x5
I1130 08:30:07.634371 30089 net.cpp:406] inception_3b/output <- inception_3b/pool_proj
I1130 08:30:07.634377 30089 net.cpp:380] inception_3b/output -> inception_3b/output
I1130 08:30:07.634398 30089 net.cpp:122] Setting up inception_3b/output
I1130 08:30:07.634407 30089 net.cpp:129] Top shape: 32 480 28 28 (12042240)
I1130 08:30:07.634410 30089 net.cpp:137] Memory required for data: 1078984832
I1130 08:30:07.634415 30089 layer_factory.hpp:77] Creating layer pool3/3x3_s2
I1130 08:30:07.634421 30089 net.cpp:84] Creating Layer pool3/3x3_s2
I1130 08:30:07.634426 30089 net.cpp:406] pool3/3x3_s2 <- inception_3b/output
I1130 08:30:07.634433 30089 net.cpp:380] pool3/3x3_s2 -> pool3/3x3_s2
I1130 08:30:07.634459 30089 net.cpp:122] Setting up pool3/3x3_s2
I1130 08:30:07.634465 30089 net.cpp:129] Top shape: 32 480 14 14 (3010560)
I1130 08:30:07.634470 30089 net.cpp:137] Memory required for data: 1091027072
I1130 08:30:07.634475 30089 layer_factory.hpp:77] Creating layer pool3/3x3_s2_pool3/3x3_s2_0_split
I1130 08:30:07.634481 30089 net.cpp:84] Creating Layer pool3/3x3_s2_pool3/3x3_s2_0_split
I1130 08:30:07.634486 30089 net.cpp:406] pool3/3x3_s2_pool3/3x3_s2_0_split <- pool3/3x3_s2
I1130 08:30:07.634492 30089 net.cpp:380] pool3/3x3_s2_pool3/3x3_s2_0_split -> pool3/3x3_s2_pool3/3x3_s2_0_split_0
I1130 08:30:07.634498 30089 net.cpp:380] pool3/3x3_s2_pool3/3x3_s2_0_split -> pool3/3x3_s2_pool3/3x3_s2_0_split_1
I1130 08:30:07.634505 30089 net.cpp:380] pool3/3x3_s2_pool3/3x3_s2_0_split -> pool3/3x3_s2_pool3/3x3_s2_0_split_2
I1130 08:30:07.634512 30089 net.cpp:380] pool3/3x3_s2_pool3/3x3_s2_0_split -> pool3/3x3_s2_pool3/3x3_s2_0_split_3
I1130 08:30:07.634554 30089 net.cpp:122] Setting up pool3/3x3_s2_pool3/3x3_s2_0_split
I1130 08:30:07.634562 30089 net.cpp:129] Top shape: 32 480 14 14 (3010560)
I1130 08:30:07.634567 30089 net.cpp:129] Top shape: 32 480 14 14 (3010560)
I1130 08:30:07.634572 30089 net.cpp:129] Top shape: 32 480 14 14 (3010560)
I1130 08:30:07.634577 30089 net.cpp:129] Top shape: 32 480 14 14 (3010560)
I1130 08:30:07.634582 30089 net.cpp:137] Memory required for data: 1139196032
I1130 08:30:07.634585 30089 layer_factory.hpp:77] Creating layer inception_4a/1x1
I1130 08:30:07.634593 30089 net.cpp:84] Creating Layer inception_4a/1x1
I1130 08:30:07.634598 30089 net.cpp:406] inception_4a/1x1 <- pool3/3x3_s2_pool3/3x3_s2_0_split_0
I1130 08:30:07.634605 30089 net.cpp:380] inception_4a/1x1 -> inception_4a/1x1
I1130 08:30:07.635252 30089 net.cpp:122] Setting up inception_4a/1x1
I1130 08:30:07.635260 30089 net.cpp:129] Top shape: 32 192 14 14 (1204224)
I1130 08:30:07.635265 30089 net.cpp:137] Memory required for data: 1144012928
I1130 08:30:07.635272 30089 layer_factory.hpp:77] Creating layer inception_4a/relu_1x1
I1130 08:30:07.635278 30089 net.cpp:84] Creating Layer inception_4a/relu_1x1
I1130 08:30:07.635284 30089 net.cpp:406] inception_4a/relu_1x1 <- inception_4a/1x1
I1130 08:30:07.635290 30089 net.cpp:367] inception_4a/relu_1x1 -> inception_4a/1x1 (in-place)
I1130 08:30:07.635298 30089 net.cpp:122] Setting up inception_4a/relu_1x1
I1130 08:30:07.635303 30089 net.cpp:129] Top shape: 32 192 14 14 (1204224)
I1130 08:30:07.635308 30089 net.cpp:137] Memory required for data: 1148829824
I1130 08:30:07.635313 30089 layer_factory.hpp:77] Creating layer inception_4a/3x3_reduce
I1130 08:30:07.635320 30089 net.cpp:84] Creating Layer inception_4a/3x3_reduce
I1130 08:30:07.635324 30089 net.cpp:406] inception_4a/3x3_reduce <- pool3/3x3_s2_pool3/3x3_s2_0_split_1
I1130 08:30:07.635331 30089 net.cpp:380] inception_4a/3x3_reduce -> inception_4a/3x3_reduce
I1130 08:30:07.635746 30089 net.cpp:122] Setting up inception_4a/3x3_reduce
I1130 08:30:07.635756 30089 net.cpp:129] Top shape: 32 96 14 14 (602112)
I1130 08:30:07.635761 30089 net.cpp:137] Memory required for data: 1151238272
I1130 08:30:07.635771 30089 layer_factory.hpp:77] Creating layer inception_4a/relu_3x3_reduce
I1130 08:30:07.635776 30089 net.cpp:84] Creating Layer inception_4a/relu_3x3_reduce
I1130 08:30:07.635782 30089 net.cpp:406] inception_4a/relu_3x3_reduce <- inception_4a/3x3_reduce
I1130 08:30:07.635788 30089 net.cpp:367] inception_4a/relu_3x3_reduce -> inception_4a/3x3_reduce (in-place)
I1130 08:30:07.635795 30089 net.cpp:122] Setting up inception_4a/relu_3x3_reduce
I1130 08:30:07.635802 30089 net.cpp:129] Top shape: 32 96 14 14 (602112)
I1130 08:30:07.635805 30089 net.cpp:137] Memory required for data: 1153646720
I1130 08:30:07.635809 30089 layer_factory.hpp:77] Creating layer inception_4a/3x3
I1130 08:30:07.635818 30089 net.cpp:84] Creating Layer inception_4a/3x3
I1130 08:30:07.635823 30089 net.cpp:406] inception_4a/3x3 <- inception_4a/3x3_reduce
I1130 08:30:07.635828 30089 net.cpp:380] inception_4a/3x3 -> inception_4a/3x3
I1130 08:30:07.637297 30089 net.cpp:122] Setting up inception_4a/3x3
I1130 08:30:07.637307 30089 net.cpp:129] Top shape: 32 208 14 14 (1304576)
I1130 08:30:07.637312 30089 net.cpp:137] Memory required for data: 1158865024
I1130 08:30:07.637320 30089 layer_factory.hpp:77] Creating layer inception_4a/relu_3x3
I1130 08:30:07.637326 30089 net.cpp:84] Creating Layer inception_4a/relu_3x3
I1130 08:30:07.637331 30089 net.cpp:406] inception_4a/relu_3x3 <- inception_4a/3x3
I1130 08:30:07.637336 30089 net.cpp:367] inception_4a/relu_3x3 -> inception_4a/3x3 (in-place)
I1130 08:30:07.637344 30089 net.cpp:122] Setting up inception_4a/relu_3x3
I1130 08:30:07.637349 30089 net.cpp:129] Top shape: 32 208 14 14 (1304576)
I1130 08:30:07.637353 30089 net.cpp:137] Memory required for data: 1164083328
I1130 08:30:07.637357 30089 layer_factory.hpp:77] Creating layer inception_4a/5x5_reduce
I1130 08:30:07.637365 30089 net.cpp:84] Creating Layer inception_4a/5x5_reduce
I1130 08:30:07.637373 30089 net.cpp:406] inception_4a/5x5_reduce <- pool3/3x3_s2_pool3/3x3_s2_0_split_2
I1130 08:30:07.637379 30089 net.cpp:380] inception_4a/5x5_reduce -> inception_4a/5x5_reduce
I1130 08:30:07.637583 30089 net.cpp:122] Setting up inception_4a/5x5_reduce
I1130 08:30:07.637591 30089 net.cpp:129] Top shape: 32 16 14 14 (100352)
I1130 08:30:07.637596 30089 net.cpp:137] Memory required for data: 1164484736
I1130 08:30:07.637603 30089 layer_factory.hpp:77] Creating layer inception_4a/relu_5x5_reduce
I1130 08:30:07.637609 30089 net.cpp:84] Creating Layer inception_4a/relu_5x5_reduce
I1130 08:30:07.637614 30089 net.cpp:406] inception_4a/relu_5x5_reduce <- inception_4a/5x5_reduce
I1130 08:30:07.637619 30089 net.cpp:367] inception_4a/relu_5x5_reduce -> inception_4a/5x5_reduce (in-place)
I1130 08:30:07.637626 30089 net.cpp:122] Setting up inception_4a/relu_5x5_reduce
I1130 08:30:07.637632 30089 net.cpp:129] Top shape: 32 16 14 14 (100352)
I1130 08:30:07.637636 30089 net.cpp:137] Memory required for data: 1164886144
I1130 08:30:07.637642 30089 layer_factory.hpp:77] Creating layer inception_4a/5x5
I1130 08:30:07.637651 30089 net.cpp:84] Creating Layer inception_4a/5x5
I1130 08:30:07.637655 30089 net.cpp:406] inception_4a/5x5 <- inception_4a/5x5_reduce
I1130 08:30:07.637662 30089 net.cpp:380] inception_4a/5x5 -> inception_4a/5x5
I1130 08:30:07.637930 30089 net.cpp:122] Setting up inception_4a/5x5
I1130 08:30:07.637939 30089 net.cpp:129] Top shape: 32 48 14 14 (301056)
I1130 08:30:07.637944 30089 net.cpp:137] Memory required for data: 1166090368
I1130 08:30:07.637950 30089 layer_factory.hpp:77] Creating layer inception_4a/relu_5x5
I1130 08:30:07.637958 30089 net.cpp:84] Creating Layer inception_4a/relu_5x5
I1130 08:30:07.637961 30089 net.cpp:406] inception_4a/relu_5x5 <- inception_4a/5x5
I1130 08:30:07.637967 30089 net.cpp:367] inception_4a/relu_5x5 -> inception_4a/5x5 (in-place)
I1130 08:30:07.637974 30089 net.cpp:122] Setting up inception_4a/relu_5x5
I1130 08:30:07.637979 30089 net.cpp:129] Top shape: 32 48 14 14 (301056)
I1130 08:30:07.637986 30089 net.cpp:137] Memory required for data: 1167294592
I1130 08:30:07.637991 30089 layer_factory.hpp:77] Creating layer inception_4a/pool
I1130 08:30:07.637998 30089 net.cpp:84] Creating Layer inception_4a/pool
I1130 08:30:07.638003 30089 net.cpp:406] inception_4a/pool <- pool3/3x3_s2_pool3/3x3_s2_0_split_3
I1130 08:30:07.638010 30089 net.cpp:380] inception_4a/pool -> inception_4a/pool
I1130 08:30:07.638039 30089 net.cpp:122] Setting up inception_4a/pool
I1130 08:30:07.638046 30089 net.cpp:129] Top shape: 32 480 14 14 (3010560)
I1130 08:30:07.638051 30089 net.cpp:137] Memory required for data: 1179336832
I1130 08:30:07.638056 30089 layer_factory.hpp:77] Creating layer inception_4a/pool_proj
I1130 08:30:07.638064 30089 net.cpp:84] Creating Layer inception_4a/pool_proj
I1130 08:30:07.638068 30089 net.cpp:406] inception_4a/pool_proj <- inception_4a/pool
I1130 08:30:07.638075 30089 net.cpp:380] inception_4a/pool_proj -> inception_4a/pool_proj
I1130 08:30:07.638413 30089 net.cpp:122] Setting up inception_4a/pool_proj
I1130 08:30:07.638422 30089 net.cpp:129] Top shape: 32 64 14 14 (401408)
I1130 08:30:07.638425 30089 net.cpp:137] Memory required for data: 1180942464
I1130 08:30:07.638433 30089 layer_factory.hpp:77] Creating layer inception_4a/relu_pool_proj
I1130 08:30:07.638439 30089 net.cpp:84] Creating Layer inception_4a/relu_pool_proj
I1130 08:30:07.638445 30089 net.cpp:406] inception_4a/relu_pool_proj <- inception_4a/pool_proj
I1130 08:30:07.638450 30089 net.cpp:367] inception_4a/relu_pool_proj -> inception_4a/pool_proj (in-place)
I1130 08:30:07.638458 30089 net.cpp:122] Setting up inception_4a/relu_pool_proj
I1130 08:30:07.638463 30089 net.cpp:129] Top shape: 32 64 14 14 (401408)
I1130 08:30:07.638468 30089 net.cpp:137] Memory required for data: 1182548096
I1130 08:30:07.638473 30089 layer_factory.hpp:77] Creating layer inception_4a/output
I1130 08:30:07.638478 30089 net.cpp:84] Creating Layer inception_4a/output
I1130 08:30:07.638484 30089 net.cpp:406] inception_4a/output <- inception_4a/1x1
I1130 08:30:07.638520 30089 net.cpp:406] inception_4a/output <- inception_4a/3x3
I1130 08:30:07.638525 30089 net.cpp:406] inception_4a/output <- inception_4a/5x5
I1130 08:30:07.638530 30089 net.cpp:406] inception_4a/output <- inception_4a/pool_proj
I1130 08:30:07.638536 30089 net.cpp:380] inception_4a/output -> inception_4a/output
I1130 08:30:07.638558 30089 net.cpp:122] Setting up inception_4a/output
I1130 08:30:07.638566 30089 net.cpp:129] Top shape: 32 512 14 14 (3211264)
I1130 08:30:07.638569 30089 net.cpp:137] Memory required for data: 1195393152
I1130 08:30:07.638573 30089 layer_factory.hpp:77] Creating layer inception_4a/output_inception_4a/output_0_split
I1130 08:30:07.638579 30089 net.cpp:84] Creating Layer inception_4a/output_inception_4a/output_0_split
I1130 08:30:07.638586 30089 net.cpp:406] inception_4a/output_inception_4a/output_0_split <- inception_4a/output
I1130 08:30:07.638592 30089 net.cpp:380] inception_4a/output_inception_4a/output_0_split -> inception_4a/output_inception_4a/output_0_split_0
I1130 08:30:07.638598 30089 net.cpp:380] inception_4a/output_inception_4a/output_0_split -> inception_4a/output_inception_4a/output_0_split_1
I1130 08:30:07.638605 30089 net.cpp:380] inception_4a/output_inception_4a/output_0_split -> inception_4a/output_inception_4a/output_0_split_2
I1130 08:30:07.638612 30089 net.cpp:380] inception_4a/output_inception_4a/output_0_split -> inception_4a/output_inception_4a/output_0_split_3
I1130 08:30:07.638654 30089 net.cpp:122] Setting up inception_4a/output_inception_4a/output_0_split
I1130 08:30:07.638661 30089 net.cpp:129] Top shape: 32 512 14 14 (3211264)
I1130 08:30:07.638666 30089 net.cpp:129] Top shape: 32 512 14 14 (3211264)
I1130 08:30:07.638671 30089 net.cpp:129] Top shape: 32 512 14 14 (3211264)
I1130 08:30:07.638676 30089 net.cpp:129] Top shape: 32 512 14 14 (3211264)
I1130 08:30:07.638681 30089 net.cpp:137] Memory required for data: 1246773376
I1130 08:30:07.638686 30089 layer_factory.hpp:77] Creating layer inception_4b/1x1
I1130 08:30:07.638695 30089 net.cpp:84] Creating Layer inception_4b/1x1
I1130 08:30:07.638700 30089 net.cpp:406] inception_4b/1x1 <- inception_4a/output_inception_4a/output_0_split_0
I1130 08:30:07.638705 30089 net.cpp:380] inception_4b/1x1 -> inception_4b/1x1
I1130 08:30:07.639300 30089 net.cpp:122] Setting up inception_4b/1x1
I1130 08:30:07.639309 30089 net.cpp:129] Top shape: 32 160 14 14 (1003520)
I1130 08:30:07.639313 30089 net.cpp:137] Memory required for data: 1250787456
I1130 08:30:07.639319 30089 layer_factory.hpp:77] Creating layer inception_4b/relu_1x1
I1130 08:30:07.639327 30089 net.cpp:84] Creating Layer inception_4b/relu_1x1
I1130 08:30:07.639331 30089 net.cpp:406] inception_4b/relu_1x1 <- inception_4b/1x1
I1130 08:30:07.639338 30089 net.cpp:367] inception_4b/relu_1x1 -> inception_4b/1x1 (in-place)
I1130 08:30:07.639344 30089 net.cpp:122] Setting up inception_4b/relu_1x1
I1130 08:30:07.639349 30089 net.cpp:129] Top shape: 32 160 14 14 (1003520)
I1130 08:30:07.639354 30089 net.cpp:137] Memory required for data: 1254801536
I1130 08:30:07.639358 30089 layer_factory.hpp:77] Creating layer inception_4b/3x3_reduce
I1130 08:30:07.639365 30089 net.cpp:84] Creating Layer inception_4b/3x3_reduce
I1130 08:30:07.639370 30089 net.cpp:406] inception_4b/3x3_reduce <- inception_4a/output_inception_4a/output_0_split_1
I1130 08:30:07.639376 30089 net.cpp:380] inception_4b/3x3_reduce -> inception_4b/3x3_reduce
I1130 08:30:07.639854 30089 net.cpp:122] Setting up inception_4b/3x3_reduce
I1130 08:30:07.639863 30089 net.cpp:129] Top shape: 32 112 14 14 (702464)
I1130 08:30:07.639868 30089 net.cpp:137] Memory required for data: 1257611392
I1130 08:30:07.639873 30089 layer_factory.hpp:77] Creating layer inception_4b/relu_3x3_reduce
I1130 08:30:07.639879 30089 net.cpp:84] Creating Layer inception_4b/relu_3x3_reduce
I1130 08:30:07.639885 30089 net.cpp:406] inception_4b/relu_3x3_reduce <- inception_4b/3x3_reduce
I1130 08:30:07.639890 30089 net.cpp:367] inception_4b/relu_3x3_reduce -> inception_4b/3x3_reduce (in-place)
I1130 08:30:07.639897 30089 net.cpp:122] Setting up inception_4b/relu_3x3_reduce
I1130 08:30:07.639904 30089 net.cpp:129] Top shape: 32 112 14 14 (702464)
I1130 08:30:07.639907 30089 net.cpp:137] Memory required for data: 1260421248
I1130 08:30:07.639911 30089 layer_factory.hpp:77] Creating layer inception_4b/3x3
I1130 08:30:07.639919 30089 net.cpp:84] Creating Layer inception_4b/3x3
I1130 08:30:07.639925 30089 net.cpp:406] inception_4b/3x3 <- inception_4b/3x3_reduce
I1130 08:30:07.639930 30089 net.cpp:380] inception_4b/3x3 -> inception_4b/3x3
I1130 08:30:07.641647 30089 net.cpp:122] Setting up inception_4b/3x3
I1130 08:30:07.641657 30089 net.cpp:129] Top shape: 32 224 14 14 (1404928)
I1130 08:30:07.641662 30089 net.cpp:137] Memory required for data: 1266040960
I1130 08:30:07.641669 30089 layer_factory.hpp:77] Creating layer inception_4b/relu_3x3
I1130 08:30:07.641676 30089 net.cpp:84] Creating Layer inception_4b/relu_3x3
I1130 08:30:07.641681 30089 net.cpp:406] inception_4b/relu_3x3 <- inception_4b/3x3
I1130 08:30:07.641687 30089 net.cpp:367] inception_4b/relu_3x3 -> inception_4b/3x3 (in-place)
I1130 08:30:07.641693 30089 net.cpp:122] Setting up inception_4b/relu_3x3
I1130 08:30:07.641700 30089 net.cpp:129] Top shape: 32 224 14 14 (1404928)
I1130 08:30:07.641705 30089 net.cpp:137] Memory required for data: 1271660672
I1130 08:30:07.641708 30089 layer_factory.hpp:77] Creating layer inception_4b/5x5_reduce
I1130 08:30:07.641721 30089 net.cpp:84] Creating Layer inception_4b/5x5_reduce
I1130 08:30:07.641726 30089 net.cpp:406] inception_4b/5x5_reduce <- inception_4a/output_inception_4a/output_0_split_2
I1130 08:30:07.641731 30089 net.cpp:380] inception_4b/5x5_reduce -> inception_4b/5x5_reduce
I1130 08:30:07.641964 30089 net.cpp:122] Setting up inception_4b/5x5_reduce
I1130 08:30:07.641973 30089 net.cpp:129] Top shape: 32 24 14 14 (150528)
I1130 08:30:07.641978 30089 net.cpp:137] Memory required for data: 1272262784
I1130 08:30:07.641985 30089 layer_factory.hpp:77] Creating layer inception_4b/relu_5x5_reduce
I1130 08:30:07.641993 30089 net.cpp:84] Creating Layer inception_4b/relu_5x5_reduce
I1130 08:30:07.641997 30089 net.cpp:406] inception_4b/relu_5x5_reduce <- inception_4b/5x5_reduce
I1130 08:30:07.642004 30089 net.cpp:367] inception_4b/relu_5x5_reduce -> inception_4b/5x5_reduce (in-place)
I1130 08:30:07.642010 30089 net.cpp:122] Setting up inception_4b/relu_5x5_reduce
I1130 08:30:07.642016 30089 net.cpp:129] Top shape: 32 24 14 14 (150528)
I1130 08:30:07.642021 30089 net.cpp:137] Memory required for data: 1272864896
I1130 08:30:07.642025 30089 layer_factory.hpp:77] Creating layer inception_4b/5x5
I1130 08:30:07.642032 30089 net.cpp:84] Creating Layer inception_4b/5x5
I1130 08:30:07.642037 30089 net.cpp:406] inception_4b/5x5 <- inception_4b/5x5_reduce
I1130 08:30:07.642043 30089 net.cpp:380] inception_4b/5x5 -> inception_4b/5x5
I1130 08:30:07.642776 30089 net.cpp:122] Setting up inception_4b/5x5
I1130 08:30:07.642786 30089 net.cpp:129] Top shape: 32 64 14 14 (401408)
I1130 08:30:07.642791 30089 net.cpp:137] Memory required for data: 1274470528
I1130 08:30:07.642797 30089 layer_factory.hpp:77] Creating layer inception_4b/relu_5x5
I1130 08:30:07.642804 30089 net.cpp:84] Creating Layer inception_4b/relu_5x5
I1130 08:30:07.642810 30089 net.cpp:406] inception_4b/relu_5x5 <- inception_4b/5x5
I1130 08:30:07.642817 30089 net.cpp:367] inception_4b/relu_5x5 -> inception_4b/5x5 (in-place)
I1130 08:30:07.642824 30089 net.cpp:122] Setting up inception_4b/relu_5x5
I1130 08:30:07.642829 30089 net.cpp:129] Top shape: 32 64 14 14 (401408)
I1130 08:30:07.642834 30089 net.cpp:137] Memory required for data: 1276076160
I1130 08:30:07.642839 30089 layer_factory.hpp:77] Creating layer inception_4b/pool
I1130 08:30:07.642844 30089 net.cpp:84] Creating Layer inception_4b/pool
I1130 08:30:07.642850 30089 net.cpp:406] inception_4b/pool <- inception_4a/output_inception_4a/output_0_split_3
I1130 08:30:07.642855 30089 net.cpp:380] inception_4b/pool -> inception_4b/pool
I1130 08:30:07.642886 30089 net.cpp:122] Setting up inception_4b/pool
I1130 08:30:07.642894 30089 net.cpp:129] Top shape: 32 512 14 14 (3211264)
I1130 08:30:07.642897 30089 net.cpp:137] Memory required for data: 1288921216
I1130 08:30:07.642902 30089 layer_factory.hpp:77] Creating layer inception_4b/pool_proj
I1130 08:30:07.642911 30089 net.cpp:84] Creating Layer inception_4b/pool_proj
I1130 08:30:07.642915 30089 net.cpp:406] inception_4b/pool_proj <- inception_4b/pool
I1130 08:30:07.642921 30089 net.cpp:380] inception_4b/pool_proj -> inception_4b/pool_proj
I1130 08:30:07.643257 30089 net.cpp:122] Setting up inception_4b/pool_proj
I1130 08:30:07.643265 30089 net.cpp:129] Top shape: 32 64 14 14 (401408)
I1130 08:30:07.643270 30089 net.cpp:137] Memory required for data: 1290526848
I1130 08:30:07.643276 30089 layer_factory.hpp:77] Creating layer inception_4b/relu_pool_proj
I1130 08:30:07.643282 30089 net.cpp:84] Creating Layer inception_4b/relu_pool_proj
I1130 08:30:07.643287 30089 net.cpp:406] inception_4b/relu_pool_proj <- inception_4b/pool_proj
I1130 08:30:07.643293 30089 net.cpp:367] inception_4b/relu_pool_proj -> inception_4b/pool_proj (in-place)
I1130 08:30:07.643301 30089 net.cpp:122] Setting up inception_4b/relu_pool_proj
I1130 08:30:07.643306 30089 net.cpp:129] Top shape: 32 64 14 14 (401408)
I1130 08:30:07.643311 30089 net.cpp:137] Memory required for data: 1292132480
I1130 08:30:07.643313 30089 layer_factory.hpp:77] Creating layer inception_4b/output
I1130 08:30:07.643321 30089 net.cpp:84] Creating Layer inception_4b/output
I1130 08:30:07.643326 30089 net.cpp:406] inception_4b/output <- inception_4b/1x1
I1130 08:30:07.643330 30089 net.cpp:406] inception_4b/output <- inception_4b/3x3
I1130 08:30:07.643337 30089 net.cpp:406] inception_4b/output <- inception_4b/5x5
I1130 08:30:07.643340 30089 net.cpp:406] inception_4b/output <- inception_4b/pool_proj
I1130 08:30:07.643347 30089 net.cpp:380] inception_4b/output -> inception_4b/output
I1130 08:30:07.643368 30089 net.cpp:122] Setting up inception_4b/output
I1130 08:30:07.643374 30089 net.cpp:129] Top shape: 32 512 14 14 (3211264)
I1130 08:30:07.643379 30089 net.cpp:137] Memory required for data: 1304977536
I1130 08:30:07.643383 30089 layer_factory.hpp:77] Creating layer inception_4b/output_inception_4b/output_0_split
I1130 08:30:07.643391 30089 net.cpp:84] Creating Layer inception_4b/output_inception_4b/output_0_split
I1130 08:30:07.643398 30089 net.cpp:406] inception_4b/output_inception_4b/output_0_split <- inception_4b/output
I1130 08:30:07.643404 30089 net.cpp:380] inception_4b/output_inception_4b/output_0_split -> inception_4b/output_inception_4b/output_0_split_0
I1130 08:30:07.643410 30089 net.cpp:380] inception_4b/output_inception_4b/output_0_split -> inception_4b/output_inception_4b/output_0_split_1
I1130 08:30:07.643417 30089 net.cpp:380] inception_4b/output_inception_4b/output_0_split -> inception_4b/output_inception_4b/output_0_split_2
I1130 08:30:07.643424 30089 net.cpp:380] inception_4b/output_inception_4b/output_0_split -> inception_4b/output_inception_4b/output_0_split_3
I1130 08:30:07.643466 30089 net.cpp:122] Setting up inception_4b/output_inception_4b/output_0_split
I1130 08:30:07.643473 30089 net.cpp:129] Top shape: 32 512 14 14 (3211264)
I1130 08:30:07.643478 30089 net.cpp:129] Top shape: 32 512 14 14 (3211264)
I1130 08:30:07.643484 30089 net.cpp:129] Top shape: 32 512 14 14 (3211264)
I1130 08:30:07.643491 30089 net.cpp:129] Top shape: 32 512 14 14 (3211264)
I1130 08:30:07.643497 30089 net.cpp:137] Memory required for data: 1356357760
I1130 08:30:07.643501 30089 layer_factory.hpp:77] Creating layer inception_4c/1x1
I1130 08:30:07.643510 30089 net.cpp:84] Creating Layer inception_4c/1x1
I1130 08:30:07.643514 30089 net.cpp:406] inception_4c/1x1 <- inception_4b/output_inception_4b/output_0_split_0
I1130 08:30:07.643522 30089 net.cpp:380] inception_4c/1x1 -> inception_4c/1x1
I1130 08:30:07.644028 30089 net.cpp:122] Setting up inception_4c/1x1
I1130 08:30:07.644037 30089 net.cpp:129] Top shape: 32 128 14 14 (802816)
I1130 08:30:07.644042 30089 net.cpp:137] Memory required for data: 1359569024
I1130 08:30:07.644048 30089 layer_factory.hpp:77] Creating layer inception_4c/relu_1x1
I1130 08:30:07.644054 30089 net.cpp:84] Creating Layer inception_4c/relu_1x1
I1130 08:30:07.644059 30089 net.cpp:406] inception_4c/relu_1x1 <- inception_4c/1x1
I1130 08:30:07.644064 30089 net.cpp:367] inception_4c/relu_1x1 -> inception_4c/1x1 (in-place)
I1130 08:30:07.644071 30089 net.cpp:122] Setting up inception_4c/relu_1x1
I1130 08:30:07.644076 30089 net.cpp:129] Top shape: 32 128 14 14 (802816)
I1130 08:30:07.644080 30089 net.cpp:137] Memory required for data: 1362780288
I1130 08:30:07.644084 30089 layer_factory.hpp:77] Creating layer inception_4c/3x3_reduce
I1130 08:30:07.644091 30089 net.cpp:84] Creating Layer inception_4c/3x3_reduce
I1130 08:30:07.644098 30089 net.cpp:406] inception_4c/3x3_reduce <- inception_4b/output_inception_4b/output_0_split_1
I1130 08:30:07.644104 30089 net.cpp:380] inception_4c/3x3_reduce -> inception_4c/3x3_reduce
I1130 08:30:07.644613 30089 net.cpp:122] Setting up inception_4c/3x3_reduce
I1130 08:30:07.644621 30089 net.cpp:129] Top shape: 32 128 14 14 (802816)
I1130 08:30:07.644626 30089 net.cpp:137] Memory required for data: 1365991552
I1130 08:30:07.644632 30089 layer_factory.hpp:77] Creating layer inception_4c/relu_3x3_reduce
I1130 08:30:07.644639 30089 net.cpp:84] Creating Layer inception_4c/relu_3x3_reduce
I1130 08:30:07.644644 30089 net.cpp:406] inception_4c/relu_3x3_reduce <- inception_4c/3x3_reduce
I1130 08:30:07.644649 30089 net.cpp:367] inception_4c/relu_3x3_reduce -> inception_4c/3x3_reduce (in-place)
I1130 08:30:07.644656 30089 net.cpp:122] Setting up inception_4c/relu_3x3_reduce
I1130 08:30:07.644662 30089 net.cpp:129] Top shape: 32 128 14 14 (802816)
I1130 08:30:07.644665 30089 net.cpp:137] Memory required for data: 1369202816
I1130 08:30:07.644670 30089 layer_factory.hpp:77] Creating layer inception_4c/3x3
I1130 08:30:07.644678 30089 net.cpp:84] Creating Layer inception_4c/3x3
I1130 08:30:07.644683 30089 net.cpp:406] inception_4c/3x3 <- inception_4c/3x3_reduce
I1130 08:30:07.644690 30089 net.cpp:380] inception_4c/3x3 -> inception_4c/3x3
I1130 08:30:07.646813 30089 net.cpp:122] Setting up inception_4c/3x3
I1130 08:30:07.646826 30089 net.cpp:129] Top shape: 32 256 14 14 (1605632)
I1130 08:30:07.646831 30089 net.cpp:137] Memory required for data: 1375625344
I1130 08:30:07.646838 30089 layer_factory.hpp:77] Creating layer inception_4c/relu_3x3
I1130 08:30:07.646844 30089 net.cpp:84] Creating Layer inception_4c/relu_3x3
I1130 08:30:07.646850 30089 net.cpp:406] inception_4c/relu_3x3 <- inception_4c/3x3
I1130 08:30:07.646855 30089 net.cpp:367] inception_4c/relu_3x3 -> inception_4c/3x3 (in-place)
I1130 08:30:07.646862 30089 net.cpp:122] Setting up inception_4c/relu_3x3
I1130 08:30:07.646868 30089 net.cpp:129] Top shape: 32 256 14 14 (1605632)
I1130 08:30:07.646873 30089 net.cpp:137] Memory required for data: 1382047872
I1130 08:30:07.646878 30089 layer_factory.hpp:77] Creating layer inception_4c/5x5_reduce
I1130 08:30:07.646886 30089 net.cpp:84] Creating Layer inception_4c/5x5_reduce
I1130 08:30:07.646891 30089 net.cpp:406] inception_4c/5x5_reduce <- inception_4b/output_inception_4b/output_0_split_2
I1130 08:30:07.646898 30089 net.cpp:380] inception_4c/5x5_reduce -> inception_4c/5x5_reduce
I1130 08:30:07.647135 30089 net.cpp:122] Setting up inception_4c/5x5_reduce
I1130 08:30:07.647143 30089 net.cpp:129] Top shape: 32 24 14 14 (150528)
I1130 08:30:07.647148 30089 net.cpp:137] Memory required for data: 1382649984
I1130 08:30:07.647155 30089 layer_factory.hpp:77] Creating layer inception_4c/relu_5x5_reduce
I1130 08:30:07.647161 30089 net.cpp:84] Creating Layer inception_4c/relu_5x5_reduce
I1130 08:30:07.647166 30089 net.cpp:406] inception_4c/relu_5x5_reduce <- inception_4c/5x5_reduce
I1130 08:30:07.647171 30089 net.cpp:367] inception_4c/relu_5x5_reduce -> inception_4c/5x5_reduce (in-place)
I1130 08:30:07.647177 30089 net.cpp:122] Setting up inception_4c/relu_5x5_reduce
I1130 08:30:07.647183 30089 net.cpp:129] Top shape: 32 24 14 14 (150528)
I1130 08:30:07.647188 30089 net.cpp:137] Memory required for data: 1383252096
I1130 08:30:07.647192 30089 layer_factory.hpp:77] Creating layer inception_4c/5x5
I1130 08:30:07.647202 30089 net.cpp:84] Creating Layer inception_4c/5x5
I1130 08:30:07.647207 30089 net.cpp:406] inception_4c/5x5 <- inception_4c/5x5_reduce
I1130 08:30:07.647213 30089 net.cpp:380] inception_4c/5x5 -> inception_4c/5x5
I1130 08:30:07.647586 30089 net.cpp:122] Setting up inception_4c/5x5
I1130 08:30:07.647595 30089 net.cpp:129] Top shape: 32 64 14 14 (401408)
I1130 08:30:07.647600 30089 net.cpp:137] Memory required for data: 1384857728
I1130 08:30:07.647606 30089 layer_factory.hpp:77] Creating layer inception_4c/relu_5x5
I1130 08:30:07.647614 30089 net.cpp:84] Creating Layer inception_4c/relu_5x5
I1130 08:30:07.647619 30089 net.cpp:406] inception_4c/relu_5x5 <- inception_4c/5x5
I1130 08:30:07.647624 30089 net.cpp:367] inception_4c/relu_5x5 -> inception_4c/5x5 (in-place)
I1130 08:30:07.647630 30089 net.cpp:122] Setting up inception_4c/relu_5x5
I1130 08:30:07.647635 30089 net.cpp:129] Top shape: 32 64 14 14 (401408)
I1130 08:30:07.647641 30089 net.cpp:137] Memory required for data: 1386463360
I1130 08:30:07.647644 30089 layer_factory.hpp:77] Creating layer inception_4c/pool
I1130 08:30:07.647651 30089 net.cpp:84] Creating Layer inception_4c/pool
I1130 08:30:07.647657 30089 net.cpp:406] inception_4c/pool <- inception_4b/output_inception_4b/output_0_split_3
I1130 08:30:07.647662 30089 net.cpp:380] inception_4c/pool -> inception_4c/pool
I1130 08:30:07.647692 30089 net.cpp:122] Setting up inception_4c/pool
I1130 08:30:07.647701 30089 net.cpp:129] Top shape: 32 512 14 14 (3211264)
I1130 08:30:07.647706 30089 net.cpp:137] Memory required for data: 1399308416
I1130 08:30:07.647709 30089 layer_factory.hpp:77] Creating layer inception_4c/pool_proj
I1130 08:30:07.647716 30089 net.cpp:84] Creating Layer inception_4c/pool_proj
I1130 08:30:07.647722 30089 net.cpp:406] inception_4c/pool_proj <- inception_4c/pool
I1130 08:30:07.647729 30089 net.cpp:380] inception_4c/pool_proj -> inception_4c/pool_proj
I1130 08:30:07.648418 30089 net.cpp:122] Setting up inception_4c/pool_proj
I1130 08:30:07.648428 30089 net.cpp:129] Top shape: 32 64 14 14 (401408)
I1130 08:30:07.648433 30089 net.cpp:137] Memory required for data: 1400914048
I1130 08:30:07.648447 30089 layer_factory.hpp:77] Creating layer inception_4c/relu_pool_proj
I1130 08:30:07.648453 30089 net.cpp:84] Creating Layer inception_4c/relu_pool_proj
I1130 08:30:07.648458 30089 net.cpp:406] inception_4c/relu_pool_proj <- inception_4c/pool_proj
I1130 08:30:07.648464 30089 net.cpp:367] inception_4c/relu_pool_proj -> inception_4c/pool_proj (in-place)
I1130 08:30:07.648471 30089 net.cpp:122] Setting up inception_4c/relu_pool_proj
I1130 08:30:07.648478 30089 net.cpp:129] Top shape: 32 64 14 14 (401408)
I1130 08:30:07.648481 30089 net.cpp:137] Memory required for data: 1402519680
I1130 08:30:07.648486 30089 layer_factory.hpp:77] Creating layer inception_4c/output
I1130 08:30:07.648492 30089 net.cpp:84] Creating Layer inception_4c/output
I1130 08:30:07.648496 30089 net.cpp:406] inception_4c/output <- inception_4c/1x1
I1130 08:30:07.648501 30089 net.cpp:406] inception_4c/output <- inception_4c/3x3
I1130 08:30:07.648507 30089 net.cpp:406] inception_4c/output <- inception_4c/5x5
I1130 08:30:07.648511 30089 net.cpp:406] inception_4c/output <- inception_4c/pool_proj
I1130 08:30:07.648517 30089 net.cpp:380] inception_4c/output -> inception_4c/output
I1130 08:30:07.648540 30089 net.cpp:122] Setting up inception_4c/output
I1130 08:30:07.648546 30089 net.cpp:129] Top shape: 32 512 14 14 (3211264)
I1130 08:30:07.648551 30089 net.cpp:137] Memory required for data: 1415364736
I1130 08:30:07.648556 30089 layer_factory.hpp:77] Creating layer inception_4c/output_inception_4c/output_0_split
I1130 08:30:07.648562 30089 net.cpp:84] Creating Layer inception_4c/output_inception_4c/output_0_split
I1130 08:30:07.648567 30089 net.cpp:406] inception_4c/output_inception_4c/output_0_split <- inception_4c/output
I1130 08:30:07.648573 30089 net.cpp:380] inception_4c/output_inception_4c/output_0_split -> inception_4c/output_inception_4c/output_0_split_0
I1130 08:30:07.648581 30089 net.cpp:380] inception_4c/output_inception_4c/output_0_split -> inception_4c/output_inception_4c/output_0_split_1
I1130 08:30:07.648588 30089 net.cpp:380] inception_4c/output_inception_4c/output_0_split -> inception_4c/output_inception_4c/output_0_split_2
I1130 08:30:07.648597 30089 net.cpp:380] inception_4c/output_inception_4c/output_0_split -> inception_4c/output_inception_4c/output_0_split_3
I1130 08:30:07.648639 30089 net.cpp:122] Setting up inception_4c/output_inception_4c/output_0_split
I1130 08:30:07.648645 30089 net.cpp:129] Top shape: 32 512 14 14 (3211264)
I1130 08:30:07.648651 30089 net.cpp:129] Top shape: 32 512 14 14 (3211264)
I1130 08:30:07.648656 30089 net.cpp:129] Top shape: 32 512 14 14 (3211264)
I1130 08:30:07.648661 30089 net.cpp:129] Top shape: 32 512 14 14 (3211264)
I1130 08:30:07.648665 30089 net.cpp:137] Memory required for data: 1466744960
I1130 08:30:07.648669 30089 layer_factory.hpp:77] Creating layer inception_4d/1x1
I1130 08:30:07.648677 30089 net.cpp:84] Creating Layer inception_4d/1x1
I1130 08:30:07.648681 30089 net.cpp:406] inception_4d/1x1 <- inception_4c/output_inception_4c/output_0_split_0
I1130 08:30:07.648689 30089 net.cpp:380] inception_4d/1x1 -> inception_4d/1x1
I1130 08:30:07.649158 30089 net.cpp:122] Setting up inception_4d/1x1
I1130 08:30:07.649166 30089 net.cpp:129] Top shape: 32 112 14 14 (702464)
I1130 08:30:07.649171 30089 net.cpp:137] Memory required for data: 1469554816
I1130 08:30:07.649178 30089 layer_factory.hpp:77] Creating layer inception_4d/relu_1x1
I1130 08:30:07.649185 30089 net.cpp:84] Creating Layer inception_4d/relu_1x1
I1130 08:30:07.649190 30089 net.cpp:406] inception_4d/relu_1x1 <- inception_4d/1x1
I1130 08:30:07.649195 30089 net.cpp:367] inception_4d/relu_1x1 -> inception_4d/1x1 (in-place)
I1130 08:30:07.649202 30089 net.cpp:122] Setting up inception_4d/relu_1x1
I1130 08:30:07.649207 30089 net.cpp:129] Top shape: 32 112 14 14 (702464)
I1130 08:30:07.649212 30089 net.cpp:137] Memory required for data: 1472364672
I1130 08:30:07.649216 30089 layer_factory.hpp:77] Creating layer inception_4d/3x3_reduce
I1130 08:30:07.649224 30089 net.cpp:84] Creating Layer inception_4d/3x3_reduce
I1130 08:30:07.649230 30089 net.cpp:406] inception_4d/3x3_reduce <- inception_4c/output_inception_4c/output_0_split_1
I1130 08:30:07.649235 30089 net.cpp:380] inception_4d/3x3_reduce -> inception_4d/3x3_reduce
I1130 08:30:07.649811 30089 net.cpp:122] Setting up inception_4d/3x3_reduce
I1130 08:30:07.649819 30089 net.cpp:129] Top shape: 32 144 14 14 (903168)
I1130 08:30:07.649823 30089 net.cpp:137] Memory required for data: 1475977344
I1130 08:30:07.649830 30089 layer_factory.hpp:77] Creating layer inception_4d/relu_3x3_reduce
I1130 08:30:07.649837 30089 net.cpp:84] Creating Layer inception_4d/relu_3x3_reduce
I1130 08:30:07.649842 30089 net.cpp:406] inception_4d/relu_3x3_reduce <- inception_4d/3x3_reduce
I1130 08:30:07.649847 30089 net.cpp:367] inception_4d/relu_3x3_reduce -> inception_4d/3x3_reduce (in-place)
I1130 08:30:07.649853 30089 net.cpp:122] Setting up inception_4d/relu_3x3_reduce
I1130 08:30:07.649859 30089 net.cpp:129] Top shape: 32 144 14 14 (903168)
I1130 08:30:07.649863 30089 net.cpp:137] Memory required for data: 1479590016
I1130 08:30:07.649868 30089 layer_factory.hpp:77] Creating layer inception_4d/3x3
I1130 08:30:07.649876 30089 net.cpp:84] Creating Layer inception_4d/3x3
I1130 08:30:07.649880 30089 net.cpp:406] inception_4d/3x3 <- inception_4d/3x3_reduce
I1130 08:30:07.649886 30089 net.cpp:380] inception_4d/3x3 -> inception_4d/3x3
I1130 08:30:07.652498 30089 net.cpp:122] Setting up inception_4d/3x3
I1130 08:30:07.652509 30089 net.cpp:129] Top shape: 32 288 14 14 (1806336)
I1130 08:30:07.652513 30089 net.cpp:137] Memory required for data: 1486815360
I1130 08:30:07.652521 30089 layer_factory.hpp:77] Creating layer inception_4d/relu_3x3
I1130 08:30:07.652529 30089 net.cpp:84] Creating Layer inception_4d/relu_3x3
I1130 08:30:07.652534 30089 net.cpp:406] inception_4d/relu_3x3 <- inception_4d/3x3
I1130 08:30:07.652539 30089 net.cpp:367] inception_4d/relu_3x3 -> inception_4d/3x3 (in-place)
I1130 08:30:07.652547 30089 net.cpp:122] Setting up inception_4d/relu_3x3
I1130 08:30:07.652552 30089 net.cpp:129] Top shape: 32 288 14 14 (1806336)
I1130 08:30:07.652557 30089 net.cpp:137] Memory required for data: 1494040704
I1130 08:30:07.652561 30089 layer_factory.hpp:77] Creating layer inception_4d/5x5_reduce
I1130 08:30:07.652570 30089 net.cpp:84] Creating Layer inception_4d/5x5_reduce
I1130 08:30:07.652575 30089 net.cpp:406] inception_4d/5x5_reduce <- inception_4c/output_inception_4c/output_0_split_2
I1130 08:30:07.652581 30089 net.cpp:380] inception_4d/5x5_reduce -> inception_4d/5x5_reduce
I1130 08:30:07.652849 30089 net.cpp:122] Setting up inception_4d/5x5_reduce
I1130 08:30:07.652858 30089 net.cpp:129] Top shape: 32 32 14 14 (200704)
I1130 08:30:07.652863 30089 net.cpp:137] Memory required for data: 1494843520
I1130 08:30:07.652868 30089 layer_factory.hpp:77] Creating layer inception_4d/relu_5x5_reduce
I1130 08:30:07.652875 30089 net.cpp:84] Creating Layer inception_4d/relu_5x5_reduce
I1130 08:30:07.652880 30089 net.cpp:406] inception_4d/relu_5x5_reduce <- inception_4d/5x5_reduce
I1130 08:30:07.652885 30089 net.cpp:367] inception_4d/relu_5x5_reduce -> inception_4d/5x5_reduce (in-place)
I1130 08:30:07.652894 30089 net.cpp:122] Setting up inception_4d/relu_5x5_reduce
I1130 08:30:07.652899 30089 net.cpp:129] Top shape: 32 32 14 14 (200704)
I1130 08:30:07.652904 30089 net.cpp:137] Memory required for data: 1495646336
I1130 08:30:07.652907 30089 layer_factory.hpp:77] Creating layer inception_4d/5x5
I1130 08:30:07.652915 30089 net.cpp:84] Creating Layer inception_4d/5x5
I1130 08:30:07.652920 30089 net.cpp:406] inception_4d/5x5 <- inception_4d/5x5_reduce
I1130 08:30:07.652927 30089 net.cpp:380] inception_4d/5x5 -> inception_4d/5x5
I1130 08:30:07.653372 30089 net.cpp:122] Setting up inception_4d/5x5
I1130 08:30:07.653379 30089 net.cpp:129] Top shape: 32 64 14 14 (401408)
I1130 08:30:07.653384 30089 net.cpp:137] Memory required for data: 1497251968
I1130 08:30:07.653391 30089 layer_factory.hpp:77] Creating layer inception_4d/relu_5x5
I1130 08:30:07.653398 30089 net.cpp:84] Creating Layer inception_4d/relu_5x5
I1130 08:30:07.653403 30089 net.cpp:406] inception_4d/relu_5x5 <- inception_4d/5x5
I1130 08:30:07.653409 30089 net.cpp:367] inception_4d/relu_5x5 -> inception_4d/5x5 (in-place)
I1130 08:30:07.653417 30089 net.cpp:122] Setting up inception_4d/relu_5x5
I1130 08:30:07.653422 30089 net.cpp:129] Top shape: 32 64 14 14 (401408)
I1130 08:30:07.653427 30089 net.cpp:137] Memory required for data: 1498857600
I1130 08:30:07.653431 30089 layer_factory.hpp:77] Creating layer inception_4d/pool
I1130 08:30:07.653439 30089 net.cpp:84] Creating Layer inception_4d/pool
I1130 08:30:07.653443 30089 net.cpp:406] inception_4d/pool <- inception_4c/output_inception_4c/output_0_split_3
I1130 08:30:07.653450 30089 net.cpp:380] inception_4d/pool -> inception_4d/pool
I1130 08:30:07.653481 30089 net.cpp:122] Setting up inception_4d/pool
I1130 08:30:07.653487 30089 net.cpp:129] Top shape: 32 512 14 14 (3211264)
I1130 08:30:07.653492 30089 net.cpp:137] Memory required for data: 1511702656
I1130 08:30:07.653496 30089 layer_factory.hpp:77] Creating layer inception_4d/pool_proj
I1130 08:30:07.653504 30089 net.cpp:84] Creating Layer inception_4d/pool_proj
I1130 08:30:07.653509 30089 net.cpp:406] inception_4d/pool_proj <- inception_4d/pool
I1130 08:30:07.653517 30089 net.cpp:380] inception_4d/pool_proj -> inception_4d/pool_proj
I1130 08:30:07.653857 30089 net.cpp:122] Setting up inception_4d/pool_proj
I1130 08:30:07.653867 30089 net.cpp:129] Top shape: 32 64 14 14 (401408)
I1130 08:30:07.653872 30089 net.cpp:137] Memory required for data: 1513308288
I1130 08:30:07.653878 30089 layer_factory.hpp:77] Creating layer inception_4d/relu_pool_proj
I1130 08:30:07.653885 30089 net.cpp:84] Creating Layer inception_4d/relu_pool_proj
I1130 08:30:07.653890 30089 net.cpp:406] inception_4d/relu_pool_proj <- inception_4d/pool_proj
I1130 08:30:07.653895 30089 net.cpp:367] inception_4d/relu_pool_proj -> inception_4d/pool_proj (in-place)
I1130 08:30:07.653903 30089 net.cpp:122] Setting up inception_4d/relu_pool_proj
I1130 08:30:07.653908 30089 net.cpp:129] Top shape: 32 64 14 14 (401408)
I1130 08:30:07.653914 30089 net.cpp:137] Memory required for data: 1514913920
I1130 08:30:07.653918 30089 layer_factory.hpp:77] Creating layer inception_4d/output
I1130 08:30:07.653924 30089 net.cpp:84] Creating Layer inception_4d/output
I1130 08:30:07.653928 30089 net.cpp:406] inception_4d/output <- inception_4d/1x1
I1130 08:30:07.653934 30089 net.cpp:406] inception_4d/output <- inception_4d/3x3
I1130 08:30:07.653939 30089 net.cpp:406] inception_4d/output <- inception_4d/5x5
I1130 08:30:07.653944 30089 net.cpp:406] inception_4d/output <- inception_4d/pool_proj
I1130 08:30:07.653949 30089 net.cpp:380] inception_4d/output -> inception_4d/output
I1130 08:30:07.653971 30089 net.cpp:122] Setting up inception_4d/output
I1130 08:30:07.653977 30089 net.cpp:129] Top shape: 32 528 14 14 (3311616)
I1130 08:30:07.653982 30089 net.cpp:137] Memory required for data: 1528160384
I1130 08:30:07.653986 30089 layer_factory.hpp:77] Creating layer inception_4d/output_inception_4d/output_0_split
I1130 08:30:07.653992 30089 net.cpp:84] Creating Layer inception_4d/output_inception_4d/output_0_split
I1130 08:30:07.654000 30089 net.cpp:406] inception_4d/output_inception_4d/output_0_split <- inception_4d/output
I1130 08:30:07.654006 30089 net.cpp:380] inception_4d/output_inception_4d/output_0_split -> inception_4d/output_inception_4d/output_0_split_0
I1130 08:30:07.654012 30089 net.cpp:380] inception_4d/output_inception_4d/output_0_split -> inception_4d/output_inception_4d/output_0_split_1
I1130 08:30:07.654019 30089 net.cpp:380] inception_4d/output_inception_4d/output_0_split -> inception_4d/output_inception_4d/output_0_split_2
I1130 08:30:07.654026 30089 net.cpp:380] inception_4d/output_inception_4d/output_0_split -> inception_4d/output_inception_4d/output_0_split_3
I1130 08:30:07.654069 30089 net.cpp:122] Setting up inception_4d/output_inception_4d/output_0_split
I1130 08:30:07.654076 30089 net.cpp:129] Top shape: 32 528 14 14 (3311616)
I1130 08:30:07.654081 30089 net.cpp:129] Top shape: 32 528 14 14 (3311616)
I1130 08:30:07.654086 30089 net.cpp:129] Top shape: 32 528 14 14 (3311616)
I1130 08:30:07.654091 30089 net.cpp:129] Top shape: 32 528 14 14 (3311616)
I1130 08:30:07.654096 30089 net.cpp:137] Memory required for data: 1581146240
I1130 08:30:07.654100 30089 layer_factory.hpp:77] Creating layer inception_4e/1x1
I1130 08:30:07.654109 30089 net.cpp:84] Creating Layer inception_4e/1x1
I1130 08:30:07.654114 30089 net.cpp:406] inception_4e/1x1 <- inception_4d/output_inception_4d/output_0_split_0
I1130 08:30:07.654120 30089 net.cpp:380] inception_4e/1x1 -> inception_4e/1x1
I1130 08:30:07.655364 30089 net.cpp:122] Setting up inception_4e/1x1
I1130 08:30:07.655375 30089 net.cpp:129] Top shape: 32 256 14 14 (1605632)
I1130 08:30:07.655380 30089 net.cpp:137] Memory required for data: 1587568768
I1130 08:30:07.655386 30089 layer_factory.hpp:77] Creating layer inception_4e/relu_1x1
I1130 08:30:07.655393 30089 net.cpp:84] Creating Layer inception_4e/relu_1x1
I1130 08:30:07.655400 30089 net.cpp:406] inception_4e/relu_1x1 <- inception_4e/1x1
I1130 08:30:07.655405 30089 net.cpp:367] inception_4e/relu_1x1 -> inception_4e/1x1 (in-place)
I1130 08:30:07.655412 30089 net.cpp:122] Setting up inception_4e/relu_1x1
I1130 08:30:07.655418 30089 net.cpp:129] Top shape: 32 256 14 14 (1605632)
I1130 08:30:07.655423 30089 net.cpp:137] Memory required for data: 1593991296
I1130 08:30:07.655427 30089 layer_factory.hpp:77] Creating layer inception_4e/3x3_reduce
I1130 08:30:07.655436 30089 net.cpp:84] Creating Layer inception_4e/3x3_reduce
I1130 08:30:07.655441 30089 net.cpp:406] inception_4e/3x3_reduce <- inception_4d/output_inception_4d/output_0_split_1
I1130 08:30:07.655447 30089 net.cpp:380] inception_4e/3x3_reduce -> inception_4e/3x3_reduce
I1130 08:30:07.656066 30089 net.cpp:122] Setting up inception_4e/3x3_reduce
I1130 08:30:07.656075 30089 net.cpp:129] Top shape: 32 160 14 14 (1003520)
I1130 08:30:07.656080 30089 net.cpp:137] Memory required for data: 1598005376
I1130 08:30:07.656085 30089 layer_factory.hpp:77] Creating layer inception_4e/relu_3x3_reduce
I1130 08:30:07.656092 30089 net.cpp:84] Creating Layer inception_4e/relu_3x3_reduce
I1130 08:30:07.656098 30089 net.cpp:406] inception_4e/relu_3x3_reduce <- inception_4e/3x3_reduce
I1130 08:30:07.656105 30089 net.cpp:367] inception_4e/relu_3x3_reduce -> inception_4e/3x3_reduce (in-place)
I1130 08:30:07.656111 30089 net.cpp:122] Setting up inception_4e/relu_3x3_reduce
I1130 08:30:07.656117 30089 net.cpp:129] Top shape: 32 160 14 14 (1003520)
I1130 08:30:07.656121 30089 net.cpp:137] Memory required for data: 1602019456
I1130 08:30:07.656124 30089 layer_factory.hpp:77] Creating layer inception_4e/3x3
I1130 08:30:07.656133 30089 net.cpp:84] Creating Layer inception_4e/3x3
I1130 08:30:07.656138 30089 net.cpp:406] inception_4e/3x3 <- inception_4e/3x3_reduce
I1130 08:30:07.656146 30089 net.cpp:380] inception_4e/3x3 -> inception_4e/3x3
I1130 08:30:07.659293 30089 net.cpp:122] Setting up inception_4e/3x3
I1130 08:30:07.659306 30089 net.cpp:129] Top shape: 32 320 14 14 (2007040)
I1130 08:30:07.659309 30089 net.cpp:137] Memory required for data: 1610047616
I1130 08:30:07.659317 30089 layer_factory.hpp:77] Creating layer inception_4e/relu_3x3
I1130 08:30:07.659323 30089 net.cpp:84] Creating Layer inception_4e/relu_3x3
I1130 08:30:07.659328 30089 net.cpp:406] inception_4e/relu_3x3 <- inception_4e/3x3
I1130 08:30:07.659334 30089 net.cpp:367] inception_4e/relu_3x3 -> inception_4e/3x3 (in-place)
I1130 08:30:07.659343 30089 net.cpp:122] Setting up inception_4e/relu_3x3
I1130 08:30:07.659349 30089 net.cpp:129] Top shape: 32 320 14 14 (2007040)
I1130 08:30:07.659354 30089 net.cpp:137] Memory required for data: 1618075776
I1130 08:30:07.659358 30089 layer_factory.hpp:77] Creating layer inception_4e/5x5_reduce
I1130 08:30:07.659368 30089 net.cpp:84] Creating Layer inception_4e/5x5_reduce
I1130 08:30:07.659371 30089 net.cpp:406] inception_4e/5x5_reduce <- inception_4d/output_inception_4d/output_0_split_2
I1130 08:30:07.659379 30089 net.cpp:380] inception_4e/5x5_reduce -> inception_4e/5x5_reduce
I1130 08:30:07.659649 30089 net.cpp:122] Setting up inception_4e/5x5_reduce
I1130 08:30:07.659658 30089 net.cpp:129] Top shape: 32 32 14 14 (200704)
I1130 08:30:07.659662 30089 net.cpp:137] Memory required for data: 1618878592
I1130 08:30:07.659668 30089 layer_factory.hpp:77] Creating layer inception_4e/relu_5x5_reduce
I1130 08:30:07.659674 30089 net.cpp:84] Creating Layer inception_4e/relu_5x5_reduce
I1130 08:30:07.659679 30089 net.cpp:406] inception_4e/relu_5x5_reduce <- inception_4e/5x5_reduce
I1130 08:30:07.659685 30089 net.cpp:367] inception_4e/relu_5x5_reduce -> inception_4e/5x5_reduce (in-place)
I1130 08:30:07.659693 30089 net.cpp:122] Setting up inception_4e/relu_5x5_reduce
I1130 08:30:07.659698 30089 net.cpp:129] Top shape: 32 32 14 14 (200704)
I1130 08:30:07.659703 30089 net.cpp:137] Memory required for data: 1619681408
I1130 08:30:07.659708 30089 layer_factory.hpp:77] Creating layer inception_4e/5x5
I1130 08:30:07.659715 30089 net.cpp:84] Creating Layer inception_4e/5x5
I1130 08:30:07.659720 30089 net.cpp:406] inception_4e/5x5 <- inception_4e/5x5_reduce
I1130 08:30:07.659725 30089 net.cpp:380] inception_4e/5x5 -> inception_4e/5x5
I1130 08:30:07.660791 30089 net.cpp:122] Setting up inception_4e/5x5
I1130 08:30:07.660801 30089 net.cpp:129] Top shape: 32 128 14 14 (802816)
I1130 08:30:07.660806 30089 net.cpp:137] Memory required for data: 1622892672
I1130 08:30:07.660814 30089 layer_factory.hpp:77] Creating layer inception_4e/relu_5x5
I1130 08:30:07.660820 30089 net.cpp:84] Creating Layer inception_4e/relu_5x5
I1130 08:30:07.660825 30089 net.cpp:406] inception_4e/relu_5x5 <- inception_4e/5x5
I1130 08:30:07.660831 30089 net.cpp:367] inception_4e/relu_5x5 -> inception_4e/5x5 (in-place)
I1130 08:30:07.660837 30089 net.cpp:122] Setting up inception_4e/relu_5x5
I1130 08:30:07.660843 30089 net.cpp:129] Top shape: 32 128 14 14 (802816)
I1130 08:30:07.660848 30089 net.cpp:137] Memory required for data: 1626103936
I1130 08:30:07.660852 30089 layer_factory.hpp:77] Creating layer inception_4e/pool
I1130 08:30:07.660859 30089 net.cpp:84] Creating Layer inception_4e/pool
I1130 08:30:07.660864 30089 net.cpp:406] inception_4e/pool <- inception_4d/output_inception_4d/output_0_split_3
I1130 08:30:07.660871 30089 net.cpp:380] inception_4e/pool -> inception_4e/pool
I1130 08:30:07.660903 30089 net.cpp:122] Setting up inception_4e/pool
I1130 08:30:07.660910 30089 net.cpp:129] Top shape: 32 528 14 14 (3311616)
I1130 08:30:07.660914 30089 net.cpp:137] Memory required for data: 1639350400
I1130 08:30:07.660918 30089 layer_factory.hpp:77] Creating layer inception_4e/pool_proj
I1130 08:30:07.660926 30089 net.cpp:84] Creating Layer inception_4e/pool_proj
I1130 08:30:07.660931 30089 net.cpp:406] inception_4e/pool_proj <- inception_4e/pool
I1130 08:30:07.660938 30089 net.cpp:380] inception_4e/pool_proj -> inception_4e/pool_proj
I1130 08:30:07.661463 30089 net.cpp:122] Setting up inception_4e/pool_proj
I1130 08:30:07.661473 30089 net.cpp:129] Top shape: 32 128 14 14 (802816)
I1130 08:30:07.661476 30089 net.cpp:137] Memory required for data: 1642561664
I1130 08:30:07.661483 30089 layer_factory.hpp:77] Creating layer inception_4e/relu_pool_proj
I1130 08:30:07.661489 30089 net.cpp:84] Creating Layer inception_4e/relu_pool_proj
I1130 08:30:07.661495 30089 net.cpp:406] inception_4e/relu_pool_proj <- inception_4e/pool_proj
I1130 08:30:07.661504 30089 net.cpp:367] inception_4e/relu_pool_proj -> inception_4e/pool_proj (in-place)
I1130 08:30:07.661511 30089 net.cpp:122] Setting up inception_4e/relu_pool_proj
I1130 08:30:07.661517 30089 net.cpp:129] Top shape: 32 128 14 14 (802816)
I1130 08:30:07.661522 30089 net.cpp:137] Memory required for data: 1645772928
I1130 08:30:07.661526 30089 layer_factory.hpp:77] Creating layer inception_4e/output
I1130 08:30:07.661533 30089 net.cpp:84] Creating Layer inception_4e/output
I1130 08:30:07.661538 30089 net.cpp:406] inception_4e/output <- inception_4e/1x1
I1130 08:30:07.661542 30089 net.cpp:406] inception_4e/output <- inception_4e/3x3
I1130 08:30:07.661548 30089 net.cpp:406] inception_4e/output <- inception_4e/5x5
I1130 08:30:07.661553 30089 net.cpp:406] inception_4e/output <- inception_4e/pool_proj
I1130 08:30:07.661559 30089 net.cpp:380] inception_4e/output -> inception_4e/output
I1130 08:30:07.661581 30089 net.cpp:122] Setting up inception_4e/output
I1130 08:30:07.661588 30089 net.cpp:129] Top shape: 32 832 14 14 (5218304)
I1130 08:30:07.661592 30089 net.cpp:137] Memory required for data: 1666646144
I1130 08:30:07.661597 30089 layer_factory.hpp:77] Creating layer pool4/3x3_s2
I1130 08:30:07.661602 30089 net.cpp:84] Creating Layer pool4/3x3_s2
I1130 08:30:07.661609 30089 net.cpp:406] pool4/3x3_s2 <- inception_4e/output
I1130 08:30:07.661617 30089 net.cpp:380] pool4/3x3_s2 -> pool4/3x3_s2
I1130 08:30:07.661645 30089 net.cpp:122] Setting up pool4/3x3_s2
I1130 08:30:07.661653 30089 net.cpp:129] Top shape: 32 832 7 7 (1304576)
I1130 08:30:07.661658 30089 net.cpp:137] Memory required for data: 1671864448
I1130 08:30:07.661661 30089 layer_factory.hpp:77] Creating layer pool4/3x3_s2_pool4/3x3_s2_0_split
I1130 08:30:07.661669 30089 net.cpp:84] Creating Layer pool4/3x3_s2_pool4/3x3_s2_0_split
I1130 08:30:07.661674 30089 net.cpp:406] pool4/3x3_s2_pool4/3x3_s2_0_split <- pool4/3x3_s2
I1130 08:30:07.661680 30089 net.cpp:380] pool4/3x3_s2_pool4/3x3_s2_0_split -> pool4/3x3_s2_pool4/3x3_s2_0_split_0
I1130 08:30:07.661687 30089 net.cpp:380] pool4/3x3_s2_pool4/3x3_s2_0_split -> pool4/3x3_s2_pool4/3x3_s2_0_split_1
I1130 08:30:07.661695 30089 net.cpp:380] pool4/3x3_s2_pool4/3x3_s2_0_split -> pool4/3x3_s2_pool4/3x3_s2_0_split_2
I1130 08:30:07.661701 30089 net.cpp:380] pool4/3x3_s2_pool4/3x3_s2_0_split -> pool4/3x3_s2_pool4/3x3_s2_0_split_3
I1130 08:30:07.661746 30089 net.cpp:122] Setting up pool4/3x3_s2_pool4/3x3_s2_0_split
I1130 08:30:07.661753 30089 net.cpp:129] Top shape: 32 832 7 7 (1304576)
I1130 08:30:07.661759 30089 net.cpp:129] Top shape: 32 832 7 7 (1304576)
I1130 08:30:07.661765 30089 net.cpp:129] Top shape: 32 832 7 7 (1304576)
I1130 08:30:07.661772 30089 net.cpp:129] Top shape: 32 832 7 7 (1304576)
I1130 08:30:07.661775 30089 net.cpp:137] Memory required for data: 1692737664
I1130 08:30:07.661779 30089 layer_factory.hpp:77] Creating layer inception_5a/1x1
I1130 08:30:07.661787 30089 net.cpp:84] Creating Layer inception_5a/1x1
I1130 08:30:07.661792 30089 net.cpp:406] inception_5a/1x1 <- pool4/3x3_s2_pool4/3x3_s2_0_split_0
I1130 08:30:07.661800 30089 net.cpp:380] inception_5a/1x1 -> inception_5a/1x1
I1130 08:30:07.663461 30089 net.cpp:122] Setting up inception_5a/1x1
I1130 08:30:07.663472 30089 net.cpp:129] Top shape: 32 256 7 7 (401408)
I1130 08:30:07.663477 30089 net.cpp:137] Memory required for data: 1694343296
I1130 08:30:07.663486 30089 layer_factory.hpp:77] Creating layer inception_5a/relu_1x1
I1130 08:30:07.663492 30089 net.cpp:84] Creating Layer inception_5a/relu_1x1
I1130 08:30:07.663499 30089 net.cpp:406] inception_5a/relu_1x1 <- inception_5a/1x1
I1130 08:30:07.663506 30089 net.cpp:367] inception_5a/relu_1x1 -> inception_5a/1x1 (in-place)
I1130 08:30:07.663512 30089 net.cpp:122] Setting up inception_5a/relu_1x1
I1130 08:30:07.663517 30089 net.cpp:129] Top shape: 32 256 7 7 (401408)
I1130 08:30:07.663522 30089 net.cpp:137] Memory required for data: 1695948928
I1130 08:30:07.663527 30089 layer_factory.hpp:77] Creating layer inception_5a/3x3_reduce
I1130 08:30:07.663535 30089 net.cpp:84] Creating Layer inception_5a/3x3_reduce
I1130 08:30:07.663540 30089 net.cpp:406] inception_5a/3x3_reduce <- pool4/3x3_s2_pool4/3x3_s2_0_split_1
I1130 08:30:07.663547 30089 net.cpp:380] inception_5a/3x3_reduce -> inception_5a/3x3_reduce
I1130 08:30:07.664783 30089 net.cpp:122] Setting up inception_5a/3x3_reduce
I1130 08:30:07.664793 30089 net.cpp:129] Top shape: 32 160 7 7 (250880)
I1130 08:30:07.664798 30089 net.cpp:137] Memory required for data: 1696952448
I1130 08:30:07.664804 30089 layer_factory.hpp:77] Creating layer inception_5a/relu_3x3_reduce
I1130 08:30:07.664813 30089 net.cpp:84] Creating Layer inception_5a/relu_3x3_reduce
I1130 08:30:07.664819 30089 net.cpp:406] inception_5a/relu_3x3_reduce <- inception_5a/3x3_reduce
I1130 08:30:07.664824 30089 net.cpp:367] inception_5a/relu_3x3_reduce -> inception_5a/3x3_reduce (in-place)
I1130 08:30:07.664831 30089 net.cpp:122] Setting up inception_5a/relu_3x3_reduce
I1130 08:30:07.664837 30089 net.cpp:129] Top shape: 32 160 7 7 (250880)
I1130 08:30:07.664842 30089 net.cpp:137] Memory required for data: 1697955968
I1130 08:30:07.664846 30089 layer_factory.hpp:77] Creating layer inception_5a/3x3
I1130 08:30:07.664855 30089 net.cpp:84] Creating Layer inception_5a/3x3
I1130 08:30:07.664860 30089 net.cpp:406] inception_5a/3x3 <- inception_5a/3x3_reduce
I1130 08:30:07.664866 30089 net.cpp:380] inception_5a/3x3 -> inception_5a/3x3
I1130 08:30:07.668014 30089 net.cpp:122] Setting up inception_5a/3x3
I1130 08:30:07.668023 30089 net.cpp:129] Top shape: 32 320 7 7 (501760)
I1130 08:30:07.668027 30089 net.cpp:137] Memory required for data: 1699963008
I1130 08:30:07.668035 30089 layer_factory.hpp:77] Creating layer inception_5a/relu_3x3
I1130 08:30:07.668043 30089 net.cpp:84] Creating Layer inception_5a/relu_3x3
I1130 08:30:07.668048 30089 net.cpp:406] inception_5a/relu_3x3 <- inception_5a/3x3
I1130 08:30:07.668054 30089 net.cpp:367] inception_5a/relu_3x3 -> inception_5a/3x3 (in-place)
I1130 08:30:07.668061 30089 net.cpp:122] Setting up inception_5a/relu_3x3
I1130 08:30:07.668067 30089 net.cpp:129] Top shape: 32 320 7 7 (501760)
I1130 08:30:07.668071 30089 net.cpp:137] Memory required for data: 1701970048
I1130 08:30:07.668076 30089 layer_factory.hpp:77] Creating layer inception_5a/5x5_reduce
I1130 08:30:07.668085 30089 net.cpp:84] Creating Layer inception_5a/5x5_reduce
I1130 08:30:07.668089 30089 net.cpp:406] inception_5a/5x5_reduce <- pool4/3x3_s2_pool4/3x3_s2_0_split_2
I1130 08:30:07.668097 30089 net.cpp:380] inception_5a/5x5_reduce -> inception_5a/5x5_reduce
I1130 08:30:07.668427 30089 net.cpp:122] Setting up inception_5a/5x5_reduce
I1130 08:30:07.668437 30089 net.cpp:129] Top shape: 32 32 7 7 (50176)
I1130 08:30:07.668442 30089 net.cpp:137] Memory required for data: 1702170752
I1130 08:30:07.668449 30089 layer_factory.hpp:77] Creating layer inception_5a/relu_5x5_reduce
I1130 08:30:07.668457 30089 net.cpp:84] Creating Layer inception_5a/relu_5x5_reduce
I1130 08:30:07.668462 30089 net.cpp:406] inception_5a/relu_5x5_reduce <- inception_5a/5x5_reduce
I1130 08:30:07.668468 30089 net.cpp:367] inception_5a/relu_5x5_reduce -> inception_5a/5x5_reduce (in-place)
I1130 08:30:07.668474 30089 net.cpp:122] Setting up inception_5a/relu_5x5_reduce
I1130 08:30:07.668480 30089 net.cpp:129] Top shape: 32 32 7 7 (50176)
I1130 08:30:07.668485 30089 net.cpp:137] Memory required for data: 1702371456
I1130 08:30:07.668489 30089 layer_factory.hpp:77] Creating layer inception_5a/5x5
I1130 08:30:07.668500 30089 net.cpp:84] Creating Layer inception_5a/5x5
I1130 08:30:07.668505 30089 net.cpp:406] inception_5a/5x5 <- inception_5a/5x5_reduce
I1130 08:30:07.668512 30089 net.cpp:380] inception_5a/5x5 -> inception_5a/5x5
I1130 08:30:07.669234 30089 net.cpp:122] Setting up inception_5a/5x5
I1130 08:30:07.669243 30089 net.cpp:129] Top shape: 32 128 7 7 (200704)
I1130 08:30:07.669248 30089 net.cpp:137] Memory required for data: 1703174272
I1130 08:30:07.669255 30089 layer_factory.hpp:77] Creating layer inception_5a/relu_5x5
I1130 08:30:07.669275 30089 net.cpp:84] Creating Layer inception_5a/relu_5x5
I1130 08:30:07.669281 30089 net.cpp:406] inception_5a/relu_5x5 <- inception_5a/5x5
I1130 08:30:07.669287 30089 net.cpp:367] inception_5a/relu_5x5 -> inception_5a/5x5 (in-place)
I1130 08:30:07.669294 30089 net.cpp:122] Setting up inception_5a/relu_5x5
I1130 08:30:07.669301 30089 net.cpp:129] Top shape: 32 128 7 7 (200704)
I1130 08:30:07.669306 30089 net.cpp:137] Memory required for data: 1703977088
I1130 08:30:07.669309 30089 layer_factory.hpp:77] Creating layer inception_5a/pool
I1130 08:30:07.669317 30089 net.cpp:84] Creating Layer inception_5a/pool
I1130 08:30:07.669322 30089 net.cpp:406] inception_5a/pool <- pool4/3x3_s2_pool4/3x3_s2_0_split_3
I1130 08:30:07.669327 30089 net.cpp:380] inception_5a/pool -> inception_5a/pool
I1130 08:30:07.669361 30089 net.cpp:122] Setting up inception_5a/pool
I1130 08:30:07.669369 30089 net.cpp:129] Top shape: 32 832 7 7 (1304576)
I1130 08:30:07.669373 30089 net.cpp:137] Memory required for data: 1709195392
I1130 08:30:07.669378 30089 layer_factory.hpp:77] Creating layer inception_5a/pool_proj
I1130 08:30:07.669387 30089 net.cpp:84] Creating Layer inception_5a/pool_proj
I1130 08:30:07.669392 30089 net.cpp:406] inception_5a/pool_proj <- inception_5a/pool
I1130 08:30:07.669399 30089 net.cpp:380] inception_5a/pool_proj -> inception_5a/pool_proj
I1130 08:30:07.670495 30089 net.cpp:122] Setting up inception_5a/pool_proj
I1130 08:30:07.670505 30089 net.cpp:129] Top shape: 32 128 7 7 (200704)
I1130 08:30:07.670509 30089 net.cpp:137] Memory required for data: 1709998208
I1130 08:30:07.670516 30089 layer_factory.hpp:77] Creating layer inception_5a/relu_pool_proj
I1130 08:30:07.670523 30089 net.cpp:84] Creating Layer inception_5a/relu_pool_proj
I1130 08:30:07.670529 30089 net.cpp:406] inception_5a/relu_pool_proj <- inception_5a/pool_proj
I1130 08:30:07.670536 30089 net.cpp:367] inception_5a/relu_pool_proj -> inception_5a/pool_proj (in-place)
I1130 08:30:07.670544 30089 net.cpp:122] Setting up inception_5a/relu_pool_proj
I1130 08:30:07.670549 30089 net.cpp:129] Top shape: 32 128 7 7 (200704)
I1130 08:30:07.670554 30089 net.cpp:137] Memory required for data: 1710801024
I1130 08:30:07.670559 30089 layer_factory.hpp:77] Creating layer inception_5a/output
I1130 08:30:07.670564 30089 net.cpp:84] Creating Layer inception_5a/output
I1130 08:30:07.670572 30089 net.cpp:406] inception_5a/output <- inception_5a/1x1
I1130 08:30:07.670577 30089 net.cpp:406] inception_5a/output <- inception_5a/3x3
I1130 08:30:07.670581 30089 net.cpp:406] inception_5a/output <- inception_5a/5x5
I1130 08:30:07.670586 30089 net.cpp:406] inception_5a/output <- inception_5a/pool_proj
I1130 08:30:07.670591 30089 net.cpp:380] inception_5a/output -> inception_5a/output
I1130 08:30:07.670615 30089 net.cpp:122] Setting up inception_5a/output
I1130 08:30:07.670622 30089 net.cpp:129] Top shape: 32 832 7 7 (1304576)
I1130 08:30:07.670629 30089 net.cpp:137] Memory required for data: 1716019328
I1130 08:30:07.670634 30089 layer_factory.hpp:77] Creating layer inception_5a/output_inception_5a/output_0_split
I1130 08:30:07.670640 30089 net.cpp:84] Creating Layer inception_5a/output_inception_5a/output_0_split
I1130 08:30:07.670645 30089 net.cpp:406] inception_5a/output_inception_5a/output_0_split <- inception_5a/output
I1130 08:30:07.670653 30089 net.cpp:380] inception_5a/output_inception_5a/output_0_split -> inception_5a/output_inception_5a/output_0_split_0
I1130 08:30:07.670660 30089 net.cpp:380] inception_5a/output_inception_5a/output_0_split -> inception_5a/output_inception_5a/output_0_split_1
I1130 08:30:07.670667 30089 net.cpp:380] inception_5a/output_inception_5a/output_0_split -> inception_5a/output_inception_5a/output_0_split_2
I1130 08:30:07.670675 30089 net.cpp:380] inception_5a/output_inception_5a/output_0_split -> inception_5a/output_inception_5a/output_0_split_3
I1130 08:30:07.670724 30089 net.cpp:122] Setting up inception_5a/output_inception_5a/output_0_split
I1130 08:30:07.670732 30089 net.cpp:129] Top shape: 32 832 7 7 (1304576)
I1130 08:30:07.670737 30089 net.cpp:129] Top shape: 32 832 7 7 (1304576)
I1130 08:30:07.670742 30089 net.cpp:129] Top shape: 32 832 7 7 (1304576)
I1130 08:30:07.670747 30089 net.cpp:129] Top shape: 32 832 7 7 (1304576)
I1130 08:30:07.670753 30089 net.cpp:137] Memory required for data: 1736892544
I1130 08:30:07.670756 30089 layer_factory.hpp:77] Creating layer inception_5b/1x1
I1130 08:30:07.670765 30089 net.cpp:84] Creating Layer inception_5b/1x1
I1130 08:30:07.670771 30089 net.cpp:406] inception_5b/1x1 <- inception_5a/output_inception_5a/output_0_split_0
I1130 08:30:07.670778 30089 net.cpp:380] inception_5b/1x1 -> inception_5b/1x1
I1130 08:30:07.673043 30089 net.cpp:122] Setting up inception_5b/1x1
I1130 08:30:07.673054 30089 net.cpp:129] Top shape: 32 384 7 7 (602112)
I1130 08:30:07.673058 30089 net.cpp:137] Memory required for data: 1739300992
I1130 08:30:07.673065 30089 layer_factory.hpp:77] Creating layer inception_5b/relu_1x1
I1130 08:30:07.673074 30089 net.cpp:84] Creating Layer inception_5b/relu_1x1
I1130 08:30:07.673079 30089 net.cpp:406] inception_5b/relu_1x1 <- inception_5b/1x1
I1130 08:30:07.673086 30089 net.cpp:367] inception_5b/relu_1x1 -> inception_5b/1x1 (in-place)
I1130 08:30:07.673094 30089 net.cpp:122] Setting up inception_5b/relu_1x1
I1130 08:30:07.673099 30089 net.cpp:129] Top shape: 32 384 7 7 (602112)
I1130 08:30:07.673105 30089 net.cpp:137] Memory required for data: 1741709440
I1130 08:30:07.673108 30089 layer_factory.hpp:77] Creating layer inception_5b/3x3_reduce
I1130 08:30:07.673117 30089 net.cpp:84] Creating Layer inception_5b/3x3_reduce
I1130 08:30:07.673122 30089 net.cpp:406] inception_5b/3x3_reduce <- inception_5a/output_inception_5a/output_0_split_1
I1130 08:30:07.673128 30089 net.cpp:380] inception_5b/3x3_reduce -> inception_5b/3x3_reduce
I1130 08:30:07.674520 30089 net.cpp:122] Setting up inception_5b/3x3_reduce
I1130 08:30:07.674531 30089 net.cpp:129] Top shape: 32 192 7 7 (301056)
I1130 08:30:07.674535 30089 net.cpp:137] Memory required for data: 1742913664
I1130 08:30:07.674542 30089 layer_factory.hpp:77] Creating layer inception_5b/relu_3x3_reduce
I1130 08:30:07.674549 30089 net.cpp:84] Creating Layer inception_5b/relu_3x3_reduce
I1130 08:30:07.674556 30089 net.cpp:406] inception_5b/relu_3x3_reduce <- inception_5b/3x3_reduce
I1130 08:30:07.674562 30089 net.cpp:367] inception_5b/relu_3x3_reduce -> inception_5b/3x3_reduce (in-place)
I1130 08:30:07.674569 30089 net.cpp:122] Setting up inception_5b/relu_3x3_reduce
I1130 08:30:07.674576 30089 net.cpp:129] Top shape: 32 192 7 7 (301056)
I1130 08:30:07.674579 30089 net.cpp:137] Memory required for data: 1744117888
I1130 08:30:07.674584 30089 layer_factory.hpp:77] Creating layer inception_5b/3x3
I1130 08:30:07.674592 30089 net.cpp:84] Creating Layer inception_5b/3x3
I1130 08:30:07.674597 30089 net.cpp:406] inception_5b/3x3 <- inception_5b/3x3_reduce
I1130 08:30:07.674603 30089 net.cpp:380] inception_5b/3x3 -> inception_5b/3x3
I1130 08:30:07.679042 30089 net.cpp:122] Setting up inception_5b/3x3
I1130 08:30:07.679056 30089 net.cpp:129] Top shape: 32 384 7 7 (602112)
I1130 08:30:07.679060 30089 net.cpp:137] Memory required for data: 1746526336
I1130 08:30:07.679069 30089 layer_factory.hpp:77] Creating layer inception_5b/relu_3x3
I1130 08:30:07.679076 30089 net.cpp:84] Creating Layer inception_5b/relu_3x3
I1130 08:30:07.679082 30089 net.cpp:406] inception_5b/relu_3x3 <- inception_5b/3x3
I1130 08:30:07.679090 30089 net.cpp:367] inception_5b/relu_3x3 -> inception_5b/3x3 (in-place)
I1130 08:30:07.679097 30089 net.cpp:122] Setting up inception_5b/relu_3x3
I1130 08:30:07.679103 30089 net.cpp:129] Top shape: 32 384 7 7 (602112)
I1130 08:30:07.679107 30089 net.cpp:137] Memory required for data: 1748934784
I1130 08:30:07.679112 30089 layer_factory.hpp:77] Creating layer inception_5b/5x5_reduce
I1130 08:30:07.679121 30089 net.cpp:84] Creating Layer inception_5b/5x5_reduce
I1130 08:30:07.679126 30089 net.cpp:406] inception_5b/5x5_reduce <- inception_5a/output_inception_5a/output_0_split_2
I1130 08:30:07.679133 30089 net.cpp:380] inception_5b/5x5_reduce -> inception_5b/5x5_reduce
I1130 08:30:07.679556 30089 net.cpp:122] Setting up inception_5b/5x5_reduce
I1130 08:30:07.679565 30089 net.cpp:129] Top shape: 32 48 7 7 (75264)
I1130 08:30:07.679570 30089 net.cpp:137] Memory required for data: 1749235840
I1130 08:30:07.679577 30089 layer_factory.hpp:77] Creating layer inception_5b/relu_5x5_reduce
I1130 08:30:07.679584 30089 net.cpp:84] Creating Layer inception_5b/relu_5x5_reduce
I1130 08:30:07.679589 30089 net.cpp:406] inception_5b/relu_5x5_reduce <- inception_5b/5x5_reduce
I1130 08:30:07.679594 30089 net.cpp:367] inception_5b/relu_5x5_reduce -> inception_5b/5x5_reduce (in-place)
I1130 08:30:07.679601 30089 net.cpp:122] Setting up inception_5b/relu_5x5_reduce
I1130 08:30:07.679608 30089 net.cpp:129] Top shape: 32 48 7 7 (75264)
I1130 08:30:07.679612 30089 net.cpp:137] Memory required for data: 1749536896
I1130 08:30:07.679617 30089 layer_factory.hpp:77] Creating layer inception_5b/5x5
I1130 08:30:07.679626 30089 net.cpp:84] Creating Layer inception_5b/5x5
I1130 08:30:07.679631 30089 net.cpp:406] inception_5b/5x5 <- inception_5b/5x5_reduce
I1130 08:30:07.679638 30089 net.cpp:380] inception_5b/5x5 -> inception_5b/5x5
I1130 08:30:07.680665 30089 net.cpp:122] Setting up inception_5b/5x5
I1130 08:30:07.680675 30089 net.cpp:129] Top shape: 32 128 7 7 (200704)
I1130 08:30:07.680678 30089 net.cpp:137] Memory required for data: 1750339712
I1130 08:30:07.680685 30089 layer_factory.hpp:77] Creating layer inception_5b/relu_5x5
I1130 08:30:07.680691 30089 net.cpp:84] Creating Layer inception_5b/relu_5x5
I1130 08:30:07.680697 30089 net.cpp:406] inception_5b/relu_5x5 <- inception_5b/5x5
I1130 08:30:07.680702 30089 net.cpp:367] inception_5b/relu_5x5 -> inception_5b/5x5 (in-place)
I1130 08:30:07.680711 30089 net.cpp:122] Setting up inception_5b/relu_5x5
I1130 08:30:07.680716 30089 net.cpp:129] Top shape: 32 128 7 7 (200704)
I1130 08:30:07.680721 30089 net.cpp:137] Memory required for data: 1751142528
I1130 08:30:07.680724 30089 layer_factory.hpp:77] Creating layer inception_5b/pool
I1130 08:30:07.680732 30089 net.cpp:84] Creating Layer inception_5b/pool
I1130 08:30:07.680738 30089 net.cpp:406] inception_5b/pool <- inception_5a/output_inception_5a/output_0_split_3
I1130 08:30:07.680744 30089 net.cpp:380] inception_5b/pool -> inception_5b/pool
I1130 08:30:07.680780 30089 net.cpp:122] Setting up inception_5b/pool
I1130 08:30:07.680788 30089 net.cpp:129] Top shape: 32 832 7 7 (1304576)
I1130 08:30:07.680793 30089 net.cpp:137] Memory required for data: 1756360832
I1130 08:30:07.680796 30089 layer_factory.hpp:77] Creating layer inception_5b/pool_proj
I1130 08:30:07.680806 30089 net.cpp:84] Creating Layer inception_5b/pool_proj
I1130 08:30:07.680812 30089 net.cpp:406] inception_5b/pool_proj <- inception_5b/pool
I1130 08:30:07.680819 30089 net.cpp:380] inception_5b/pool_proj -> inception_5b/pool_proj
I1130 08:30:07.681939 30089 net.cpp:122] Setting up inception_5b/pool_proj
I1130 08:30:07.681949 30089 net.cpp:129] Top shape: 32 128 7 7 (200704)
I1130 08:30:07.681954 30089 net.cpp:137] Memory required for data: 1757163648
I1130 08:30:07.681960 30089 layer_factory.hpp:77] Creating layer inception_5b/relu_pool_proj
I1130 08:30:07.681967 30089 net.cpp:84] Creating Layer inception_5b/relu_pool_proj
I1130 08:30:07.681972 30089 net.cpp:406] inception_5b/relu_pool_proj <- inception_5b/pool_proj
I1130 08:30:07.681978 30089 net.cpp:367] inception_5b/relu_pool_proj -> inception_5b/pool_proj (in-place)
I1130 08:30:07.681988 30089 net.cpp:122] Setting up inception_5b/relu_pool_proj
I1130 08:30:07.681994 30089 net.cpp:129] Top shape: 32 128 7 7 (200704)
I1130 08:30:07.681998 30089 net.cpp:137] Memory required for data: 1757966464
I1130 08:30:07.682003 30089 layer_factory.hpp:77] Creating layer inception_5b/output
I1130 08:30:07.682009 30089 net.cpp:84] Creating Layer inception_5b/output
I1130 08:30:07.682014 30089 net.cpp:406] inception_5b/output <- inception_5b/1x1
I1130 08:30:07.682019 30089 net.cpp:406] inception_5b/output <- inception_5b/3x3
I1130 08:30:07.682025 30089 net.cpp:406] inception_5b/output <- inception_5b/5x5
I1130 08:30:07.682030 30089 net.cpp:406] inception_5b/output <- inception_5b/pool_proj
I1130 08:30:07.682035 30089 net.cpp:380] inception_5b/output -> inception_5b/output
I1130 08:30:07.682060 30089 net.cpp:122] Setting up inception_5b/output
I1130 08:30:07.682067 30089 net.cpp:129] Top shape: 32 1024 7 7 (1605632)
I1130 08:30:07.682071 30089 net.cpp:137] Memory required for data: 1764388992
I1130 08:30:07.682075 30089 layer_factory.hpp:77] Creating layer pool5/7x7_s1
I1130 08:30:07.682082 30089 net.cpp:84] Creating Layer pool5/7x7_s1
I1130 08:30:07.682087 30089 net.cpp:406] pool5/7x7_s1 <- inception_5b/output
I1130 08:30:07.682093 30089 net.cpp:380] pool5/7x7_s1 -> pool5/7x7_s1
I1130 08:30:07.682114 30089 net.cpp:122] Setting up pool5/7x7_s1
I1130 08:30:07.682126 30089 net.cpp:129] Top shape: 32 1024 1 1 (32768)
I1130 08:30:07.682132 30089 net.cpp:137] Memory required for data: 1764520064
I1130 08:30:07.682135 30089 layer_factory.hpp:77] Creating layer pool5/drop_7x7_s1
I1130 08:30:07.682147 30089 net.cpp:84] Creating Layer pool5/drop_7x7_s1
I1130 08:30:07.682152 30089 net.cpp:406] pool5/drop_7x7_s1 <- pool5/7x7_s1
I1130 08:30:07.682155 30089 net.cpp:367] pool5/drop_7x7_s1 -> pool5/7x7_s1 (in-place)
I1130 08:30:07.682181 30089 net.cpp:122] Setting up pool5/drop_7x7_s1
I1130 08:30:07.682188 30089 net.cpp:129] Top shape: 32 1024 1 1 (32768)
I1130 08:30:07.682193 30089 net.cpp:137] Memory required for data: 1764651136
I1130 08:30:07.682198 30089 layer_factory.hpp:77] Creating layer fc_scv_happy
I1130 08:30:07.682207 30089 net.cpp:84] Creating Layer fc_scv_happy
I1130 08:30:07.682212 30089 net.cpp:406] fc_scv_happy <- pool5/7x7_s1
I1130 08:30:07.682219 30089 net.cpp:380] fc_scv_happy -> fc_scv_happy
I1130 08:30:07.682322 30089 net.cpp:122] Setting up fc_scv_happy
I1130 08:30:07.682332 30089 net.cpp:129] Top shape: 32 1 (32)
I1130 08:30:07.682334 30089 net.cpp:137] Memory required for data: 1764651264
I1130 08:30:07.682341 30089 layer_factory.hpp:77] Creating layer loss
I1130 08:30:07.682348 30089 net.cpp:84] Creating Layer loss
I1130 08:30:07.682353 30089 net.cpp:406] loss <- fc_scv_happy
I1130 08:30:07.682359 30089 net.cpp:406] loss <- label
I1130 08:30:07.682368 30089 net.cpp:380] loss -> loss
I1130 08:30:07.682404 30089 net.cpp:122] Setting up loss
…
I1130 08:30:07.687129 30089 net.cpp:294] The NetState phase (1) differed from the phase (0) specified by a rule in layer data
I1130 08:30:07.687891 30089 net.cpp:51] Initializing net from parameters: 
name: "GoogleNet-Places365-SCV-Happy"
state {
  phase: TEST
}
layer {
  name: "data"
  type: "Data"
  top: "data"
  top: "label"
  include {
    phase: TEST
  }
  transform_param {
    mirror: false
    crop_size: 224
    mean_file: "/idiap/temp/lmedina/fine-tuning/googlenet_places365/places365CNN_mean.binaryproto"
  }
  data_param {
    source: "/idiap/temp/lmedina/fine-tuning/data/Happy/validation_lmdb"
    batch_size: 32
    backend: LMDB
  }
}
layer {
  name: "conv1/7x7_s2"
  type: "Convolution"
  bottom: "data"
  top: "conv1/7x7_s2"
  param {
    lr_mult: 1
    decay_mult: 1
  }
  param {
    lr_mult: 2
    decay_mult: 0
  }
  convolution_param {
    num_output: 64
    pad: 3
    kernel_size: 7
    stride: 2
    weight_filler {
      type: "xavier"
      std: 0.1
    }
    bias_filler {
      type: "constant"
      value: 0.2
    }
  }
}
layer {
  name: "conv1/relu_7x7"
  type: "ReLU"
  bottom: "conv1/7x7_s2"
  top: "conv1/7x7_s2"
}
layer {
  name: "pool1/3x3_s2"
  type: "Pooling"
  bottom: "conv1/7x7_s2"
  top: "pool1/3x3_s2"
  pooling_param {
    pool: MAX
    kernel_size: 3
    stride: 2
  }
}
layer {
  name: "pool1/norm1"
  type: "LRN"
  bottom: "pool1/3x3_s2"
  top: "pool1/norm1"
  lrn_param {
    local_size: 5
    alpha: 0.0001
    beta: 0.75
  }
}
layer {
  name: "conv2/3x3_reduce"
  type: "Convolution"
  bottom: "pool1/norm1"
  top: "conv2/3x3_reduce"
  param {
    lr_mult: 1
    decay_mult: 1
  }
  param {
    lr_mult: 2
    decay_mult: 0
  }
  convolution_param {
    num_output: 64
    kernel_size: 1
    weight_filler {
      type: "xavier"
      std: 0.1
    }
    bias_filler {
      type: "constant"
      value: 0.2
    }
  }
}
layer {
  name: "conv2/relu_3x3_reduce"
  type: "ReLU"
  bottom: "conv2/3x3_reduce"
  top: "conv2/3x3_reduce"
}
layer {
  name: "conv2/3x3"
  type: "Convolution"
  bottom: "conv2/3x3_reduce"
  top: "conv2/3x3"
  param {
    lr_mult: 1
    decay_mult: 1
  }
  param {
    lr_mult: 2
    decay_mult: 0
  }
  convolution_param {
    num_output: 192
    pad: 1
    kernel_size: 3
    weight_filler {
      type: "xavier"
      std: 0.03
    }
    bias_filler {
      type: "constant"
      value: 0.2
    }
  }
}
layer {
  name: "conv2/relu_3x3"
  type: "ReLU"
  bottom: "conv2/3x3"
  top: "conv2/3x3"
}
layer {
  name: "conv2/norm2"
  type: "LRN"
  bottom: "conv2/3x3"
  top: "conv2/norm2"
  lrn_param {
    local_size: 5
    alpha: 0.0001
    beta: 0.75
  }
}
layer {
  name: "pool2/3x3_s2"
  type: "Pooling"
  bottom: "conv2/norm2"
  top: "pool2/3x3_s2"
  pooling_param {
    pool: MAX
    kernel_size: 3
    stride: 2
  }
}
layer {
  name: "inception_3a/1x1"
  type: "Convolution"
  bottom: "pool2/3x3_s2"
  top: "inception_3a/1x1"
  param {
    lr_mult: 1
    decay_mult: 1
  }
  param {
    lr_mult: 2
    decay_mult: 0
  }
  convolution_param {
    num_output: 64
    kernel_size: 1
    weight_filler {
      type: "xavier"
      std: 0.03
    }
    bias_filler {
      type: "constant"
      value: 0.2
    }
  }
}
layer {
  name: "inception_3a/relu_1x1"
  type: "ReLU"
  bottom: "inception_3a/1x1"
  top: "inception_3a/1x1"
}
layer {
  name: "inception_3a/3x3_reduce"
  type: "Convolution"
  bottom: "pool2/3x3_s2"
  top: "inception_3a/3x3_reduce"
  param {
    lr_mult: 1
    decay_mult: 1
  }
  param {
    lr_mult: 2
    decay_mult: 0
  }
  convolution_param {
    num_output: 96
    kernel_size: 1
    weight_filler {
      type: "xavier"
      std: 0.09
    }
    bias_filler {
      type: "constant"
      value: 0.2
    }
  }
}
layer {
  name: "inception_3a/relu_3x3_reduce"
  type: "ReLU"
  bottom: "inception_3a/3x3_reduce"
  top: "inception_3a/3x3_reduce"
}
layer {
  name: "inception_3a/3x3"
  type: "Convolution"
  bottom: "inception_3a/3x3_reduce"
  top: "inception_3a/3x3"
  param {
    lr_mult: 1
    decay_mult: 1
  }
  param {
    lr_mult: 2
    decay_mult: 0
  }
  convolution_param {
    num_output: 128
    pad: 1
    kernel_size: 3
    weight_filler {
      type: "xavier"
      std: 0.03
    }
    bias_filler {
      type: "constant"
      value: 0.2
    }
  }
}
layer {
  name: "inception_3a/relu_3x3"
  type: "ReLU"
  bottom: "inception_3a/3x3"
  top: "inception_3a/3x3"
}
layer {
  name: "inception_3a/5x5_reduce"
  type: "Convolution"
  bottom: "pool2/3x3_s2"
  top: "inception_3a/5x5_reduce"
  param {
    lr_mult: 1
    decay_mult: 1
  }
  param {
    lr_mult: 2
    decay_mult: 0
  }
  convolution_param {
    num_output: 16
    kernel_size: 1
    weight_filler {
      type: "xavier"
      std: 0.2
    }
    bias_filler {
      type: "constant"
      value: 0.2
    }
  }
}
layer {
  name: "inception_3a/relu_5x5_reduce"
  type: "ReLU"
  bottom: "inception_3a/5x5_reduce"
  top: "inception_3a/5x5_reduce"
}
layer {
  name: "inception_3a/5x5"
  type: "Convolution"
  bottom: "inception_3a/5x5_reduce"
  top: "inception_3a/5x5"
  param {
    lr_mult: 1
    decay_mult: 1
  }
  param {
    lr_mult: 2
    decay_mult: 0
  }
  convolution_param {
    num_output: 32
    pad: 2
    kernel_size: 5
    weight_filler {
      type: "xavier"
      std: 0.03
    }
    bias_filler {
      type: "constant"
      value: 0.2
    }
  }
}
layer {
  name: "inception_3a/relu_5x5"
  type: "ReLU"
  bottom: "inception_3a/5x5"
  top: "inception_3a/5x5"
}
layer {
  name: "inception_3a/pool"
  type: "Pooling"
  bottom: "pool2/3x3_s2"
  top: "inception_3a/pool"
  pooling_param {
    pool: MAX
    kernel_size: 3
    stride: 1
    pad: 1
  }
}
layer {
  name: "inception_3a/pool_proj"
  type: "Convolution"
  bottom: "inception_3a/pool"
  top: "inception_3a/pool_proj"
  param {
    lr_mult: 1
    decay_mult: 1
  }
  param {
    lr_mult: 2
    decay_mult: 0
  }
  convolution_param {
    num_output: 32
    kernel_size: 1
    weight_filler {
      type: "xavier"
      std: 0.1
    }
    bias_filler {
      type: "constant"
      value: 0.2
    }
  }
}
layer {
  name: "inception_3a/relu_pool_proj"
  type: "ReLU"
  bottom: "inception_3a/pool_proj"
  top: "inception_3a/pool_proj"
}
layer {
  name: "inception_3a/output"
  type: "Concat"
  bottom: "inception_3a/1x1"
  bottom: "inception_3a/3x3"
  bottom: "inception_3a/5x5"
  bottom: "inception_3a/pool_proj"
  top: "inception_3a/output"
}
layer {
  name: "inception_3b/1x1"
  type: "Convolution"
  bottom: "inception_3a/output"
  top: "inception_3b/1x1"
  param {
    lr_mult: 1
    decay_mult: 1
  }
  param {
    lr_mult: 2
    decay_mult: 0
  }
  convolution_param {
    num_output: 128
    kernel_size: 1
    weight_filler {
      type: "xavier"
      std: 0.03
    }
    bias_filler {
      type: "constant"
      value: 0.2
    }
  }
}
layer {
  name: "inception_3b/relu_1x1"
  type: "ReLU"
  bottom: "inception_3b/1x1"
  top: "inception_3b/1x1"
}
layer {
  name: "inception_3b/3x3_reduce"
  type: "Convolution"
  bottom: "inception_3a/output"
  top: "inception_3b/3x3_reduce"
  param {
    lr_mult: 1
    decay_mult: 1
  }
  param {
    lr_mult: 2
    decay_mult: 0
  }
  convolution_param {
    num_output: 128
    kernel_size: 1
    weight_filler {
      type: "xavier"
      std: 0.09
    }
    bias_filler {
      type: "constant"
      value: 0.2
    }
  }
}
layer {
  name: "inception_3b/relu_3x3_reduce"
  type: "ReLU"
  bottom: "inception_3b/3x3_reduce"
  top: "inception_3b/3x3_reduce"
}
layer {
  name: "inception_3b/3x3"
  type: "Convolution"
  bottom: "inception_3b/3x3_reduce"
  top: "inception_3b/3x3"
  param {
    lr_mult: 1
    decay_mult: 1
  }
  param {
    lr_mult: 2
    decay_mult: 0
  }
  convolution_param {
    num_output: 192
    pad: 1
    kernel_size: 3
    weight_filler {
      type: "xavier"
      std: 0.03
    }
    bias_filler {
      type: "constant"
      value: 0.2
    }
  }
}
layer {
  name: "inception_3b/relu_3x3"
  type: "ReLU"
  bottom: "inception_3b/3x3"
  top: "inception_3b/3x3"
}
layer {
  name: "inception_3b/5x5_reduce"
  type: "Convolution"
  bottom: "inception_3a/output"
  top: "inception_3b/5x5_reduce"
  param {
    lr_mult: 1
    decay_mult: 1
  }
  param {
    lr_mult: 2
    decay_mult: 0
  }
  convolution_param {
    num_output: 32
    kernel_size: 1
    weight_filler {
      type: "xavier"
      std: 0.2
    }
    bias_filler {
      type: "constant"
      value: 0.2
    }
  }
}
layer {
  name: "inception_3b/relu_5x5_reduce"
  type: "ReLU"
  bottom: "inception_3b/5x5_reduce"
  top: "inception_3b/5x5_reduce"
}
layer {
  name: "inception_3b/5x5"
  type: "Convolution"
  bottom: "inception_3b/5x5_reduce"
  top: "inception_3b/5x5"
  param {
    lr_mult: 1
    decay_mult: 1
  }
  param {
    lr_mult: 2
    decay_mult: 0
  }
  convolution_param {
    num_output: 96
    pad: 2
    kernel_size: 5
    weight_filler {
      type: "xavier"
      std: 0.03
    }
    bias_filler {
      type: "constant"
      value: 0.2
    }
  }
}
layer {
  name: "inception_3b/relu_5x5"
  type: "ReLU"
  bottom: "inception_3b/5x5"
  top: "inception_3b/5x5"
}
layer {
  name: "inception_3b/pool"
  type: "Pooling"
  bottom: "inception_3a/output"
  top: "inception_3b/pool"
  pooling_param {
    pool: MAX
    kernel_size: 3
    stride: 1
    pad: 1
  }
}
layer {
  name: "inception_3b/pool_proj"
  type: "Convolution"
  bottom: "inception_3b/pool"
  top: "inception_3b/pool_proj"
  param {
    lr_mult: 1
    decay_mult: 1
  }
  param {
    lr_mult: 2
    decay_mult: 0
  }
  convolution_param {
    num_output: 64
    kernel_size: 1
    weight_filler {
      type: "xavier"
      std: 0.1
    }
    bias_filler {
      type: "constant"
      value: 0.2
    }
  }
}
layer {
  name: "inception_3b/relu_pool_proj"
  type: "ReLU"
  bottom: "inception_3b/pool_proj"
  top: "inception_3b/pool_proj"
}
layer {
  name: "inception_3b/output"
  type: "Concat"
  bottom: "inception_3b/1x1"
  bottom: "inception_3b/3x3"
  bottom: "inception_3b/5x5"
  bottom: "inception_3b/pool_proj"
  top: "inception_3b/output"
}
layer {
  name: "pool3/3x3_s2"
  type: "Pooling"
  bottom: "inception_3b/output"
  top: "pool3/3x3_s2"
  pooling_param {
    pool: MAX
    kernel_size: 3
    stride: 2
  }
}
layer {
  name: "inception_4a/1x1"
  type: "Convolution"
  bottom: "pool3/3x3_s2"
  top: "inception_4a/1x1"
  param {
    lr_mult: 1
    decay_mult: 1
  }
  param {
    lr_mult: 2
    decay_mult: 0
  }
  convolution_param {
    num_output: 192
    kernel_size: 1
    weight_filler {
      type: "xavier"
      std: 0.03
    }
    bias_filler {
      type: "constant"
      value: 0.2
    }
  }
}
layer {
  name: "inception_4a/relu_1x1"
  type: "ReLU"
  bottom: "inception_4a/1x1"
  top: "inception_4a/1x1"
}
layer {
  name: "inception_4a/3x3_reduce"
  type: "Convolution"
  bottom: "pool3/3x3_s2"
  top: "inception_4a/3x3_reduce"
  param {
    lr_mult: 1
    decay_mult: 1
  }
  param {
    lr_mult: 2
    decay_mult: 0
  }
  convolution_param {
    num_output: 96
    kernel_size: 1
    weight_filler {
      type: "xavier"
      std: 0.09
    }
    bias_filler {
      type: "constant"
      value: 0.2
    }
  }
}
layer {
  name: "inception_4a/relu_3x3_reduce"
  type: "ReLU"
  bottom: "inception_4a/3x3_reduce"
  top: "inception_4a/3x3_reduce"
}
layer {
  name: "inception_4a/3x3"
  type: "Convolution"
  bottom: "inception_4a/3x3_reduce"
  top: "inception_4a/3x3"
  param {
    lr_mult: 1
    decay_mult: 1
  }
  param {
    lr_mult: 2
    decay_mult: 0
  }
  convolution_param {
    num_output: 208
    pad: 1
    kernel_size: 3
    weight_filler {
      type: "xavier"
      std: 0.03
    }
    bias_filler {
      type: "constant"
      value: 0.2
    }
  }
}
layer {
  name: "inception_4a/relu_3x3"
  type: "ReLU"
  bottom: "inception_4a/3x3"
  top: "inception_4a/3x3"
}
layer {
  name: "inception_4a/5x5_reduce"
  type: "Convolution"
  bottom: "pool3/3x3_s2"
  top: "inception_4a/5x5_reduce"
  param {
    lr_mult: 1
    decay_mult: 1
  }
  param {
    lr_mult: 2
    decay_mult: 0
  }
  convolution_param {
    num_output: 16
    kernel_size: 1
    weight_filler {
      type: "xavier"
      std: 0.2
    }
    bias_filler {
      type: "constant"
      value: 0.2
    }
  }
}
layer {
  name: "inception_4a/relu_5x5_reduce"
  type: "ReLU"
  bottom: "inception_4a/5x5_reduce"
  top: "inception_4a/5x5_reduce"
}
layer {
  name: "inception_4a/5x5"
  type: "Convolution"
  bottom: "inception_4a/5x5_reduce"
  top: "inception_4a/5x5"
  param {
    lr_mult: 1
    decay_mult: 1
  }
  param {
    lr_mult: 2
    decay_mult: 0
  }
  convolution_param {
    num_output: 48
    pad: 2
    kernel_size: 5
    weight_filler {
      type: "xavier"
      std: 0.03
    }
    bias_filler {
      type: "constant"
      value: 0.2
    }
  }
}
layer {
  name: "inception_4a/relu_5x5"
  type: "ReLU"
  bottom: "inception_4a/5x5"
  top: "inception_4a/5x5"
}
layer {
  name: "inception_4a/pool"
  type: "Pooling"
  bottom: "pool3/3x3_s2"
  top: "inception_4a/pool"
  pooling_param {
    pool: MAX
    kernel_size: 3
    stride: 1
    pad: 1
  }
}
layer {
  name: "inception_4a/pool_proj"
  type: "Convolution"
  bottom: "inception_4a/pool"
  top: "inception_4a/pool_proj"
  param {
    lr_mult: 1
    decay_mult: 1
  }
  param {
    lr_mult: 2
    decay_mult: 0
  }
  convolution_param {
    num_output: 64
    kernel_size: 1
    weight_filler {
      type: "xavier"
      std: 0.1
    }
    bias_filler {
      type: "constant"
      value: 0.2
    }
  }
}
layer {
  name: "inception_4a/relu_pool_proj"
  type: "ReLU"
  bottom: "inception_4a/pool_proj"
  top: "inception_4a/pool_proj"
}
layer {
  name: "inception_4a/output"
  type: "Concat"
  bottom: "inception_4a/1x1"
  bottom: "inception_4a/3x3"
  bottom: "inception_4a/5x5"
  bottom: "inception_4a/pool_proj"
  top: "inception_4a/output"
}
layer {
  name: "inception_4b/1x1"
  type: "Convolution"
  bottom: "inception_4a/output"
  top: "inception_4b/1x1"
  param {
    lr_mult: 1
    decay_mult: 1
  }
  param {
    lr_mult: 2
    decay_mult: 0
  }
  convolution_param {
    num_output: 160
    kernel_size: 1
    weight_filler {
      type: "xavier"
      std: 0.03
    }
    bias_filler {
      type: "constant"
      value: 0.2
    }
  }
}
layer {
  name: "inception_4b/relu_1x1"
  type: "ReLU"
  bottom: "inception_4b/1x1"
  top: "inception_4b/1x1"
}
layer {
  name: "inception_4b/3x3_reduce"
  type: "Convolution"
  bottom: "inception_4a/output"
  top: "inception_4b/3x3_reduce"
  param {
    lr_mult: 1
    decay_mult: 1
  }
  param {
    lr_mult: 2
    decay_mult: 0
  }
  convolution_param {
    num_output: 112
    kernel_size: 1
    weight_filler {
      type: "xavier"
      std: 0.09
    }
    bias_filler {
      type: "constant"
      value: 0.2
    }
  }
}
layer {
  name: "inception_4b/relu_3x3_reduce"
  type: "ReLU"
  bottom: "inception_4b/3x3_reduce"
  top: "inception_4b/3x3_reduce"
}
layer {
  name: "inception_4b/3x3"
  type: "Convolution"
  bottom: "inception_4b/3x3_reduce"
  top: "inception_4b/3x3"
  param {
    lr_mult: 1
    decay_mult: 1
  }
  param {
    lr_mult: 2
    decay_mult: 0
  }
  convolution_param {
    num_output: 224
    pad: 1
    kernel_size: 3
    weight_filler {
      type: "xavier"
      std: 0.03
    }
    bias_filler {
      type: "constant"
      value: 0.2
    }
  }
}
layer {
  name: "inception_4b/relu_3x3"
  type: "ReLU"
  bottom: "inception_4b/3x3"
  top: "inception_4b/3x3"
}
layer {
  name: "inception_4b/5x5_reduce"
  type: "Convolution"
  bottom: "inception_4a/output"
  top: "inception_4b/5x5_reduce"
  param {
    lr_mult: 1
    decay_mult: 1
  }
  param {
    lr_mult: 2
    decay_mult: 0
  }
  convolution_param {
    num_output: 24
    kernel_size: 1
    weight_filler {
      type: "xavier"
      std: 0.2
    }
    bias_filler {
      type: "constant"
      value: 0.2
    }
  }
}
layer {
  name: "inception_4b/relu_5x5_reduce"
  type: "ReLU"
  bottom: "inception_4b/5x5_reduce"
  top: "inception_4b/5x5_reduce"
}
layer {
  name: "inception_4b/5x5"
  type: "Convolution"
  bottom: "inception_4b/5x5_reduce"
  top: "inception_4b/5x5"
  param {
    lr_mult: 1
    decay_mult: 1
  }
  param {
    lr_mult: 2
    decay_mult: 0
  }
  convolution_param {
    num_output: 64
    pad: 2
    kernel_size: 5
    weight_filler {
      type: "xavier"
      std: 0.03
    }
    bias_filler {
      type: "constant"
      value: 0.2
    }
  }
}
layer {
  name: "inception_4b/relu_5x5"
  type: "ReLU"
  bottom: "inception_4b/5x5"
  top: "inception_4b/5x5"
}
layer {
  name: "inception_4b/pool"
  type: "Pooling"
  bottom: "inception_4a/output"
  top: "inception_4b/pool"
  pooling_param {
    pool: MAX
    kernel_size: 3
    stride: 1
    pad: 1
  }
}
layer {
  name: "inception_4b/pool_proj"
  type: "Convolution"
  bottom: "inception_4b/pool"
  top: "inception_4b/pool_proj"
  param {
    lr_mult: 1
    decay_mult: 1
  }
  param {
    lr_mult: 2
    decay_mult: 0
  }
  convolution_param {
    num_output: 64
    kernel_size: 1
    weight_filler {
      type: "xavier"
      std: 0.1
    }
    bias_filler {
      type: "constant"
      value: 0.2
    }
  }
}
layer {
  name: "inception_4b/relu_pool_proj"
  type: "ReLU"
  bottom: "inception_4b/pool_proj"
  top: "inception_4b/pool_proj"
}
layer {
  name: "inception_4b/output"
  type: "Concat"
  bottom: "inception_4b/1x1"
  bottom: "inception_4b/3x3"
  bottom: "inception_4b/5x5"
  bottom: "inception_4b/pool_proj"
  top: "inception_4b/output"
}
layer {
  name: "inception_4c/1x1"
  type: "Convolution"
  bottom: "inception_4b/output"
  top: "inception_4c/1x1"
  param {
    lr_mult: 1
    decay_mult: 1
  }
  param {
    lr_mult: 2
    decay_mult: 0
  }
  convolution_param {
    num_output: 128
    kernel_size: 1
    weight_filler {
      type: "xavier"
      std: 0.03
    }
    bias_filler {
      type: "constant"
      value: 0.2
    }
  }
}
layer {
  name: "inception_4c/relu_1x1"
  type: "ReLU"
  bottom: "inception_4c/1x1"
  top: "inception_4c/1x1"
}
layer {
  name: "inception_4c/3x3_reduce"
  type: "Convolution"
  bottom: "inception_4b/output"
  top: "inception_4c/3x3_reduce"
  param {
    lr_mult: 1
    decay_mult: 1
  }
  param {
    lr_mult: 2
    decay_mult: 0
  }
  convolution_param {
    num_output: 128
    kernel_size: 1
    weight_filler {
      type: "xavier"
      std: 0.09
    }
    bias_filler {
      type: "constant"
      value: 0.2
    }
  }
}
layer {
  name: "inception_4c/relu_3x3_reduce"
  type: "ReLU"
  bottom: "inception_4c/3x3_reduce"
  top: "inception_4c/3x3_reduce"
}
layer {
  name: "inception_4c/3x3"
  type: "Convolution"
  bottom: "inception_4c/3x3_reduce"
  top: "inception_4c/3x3"
  param {
    lr_mult: 1
    decay_mult: 1
  }
  param {
    lr_mult: 2
    decay_mult: 0
  }
  convolution_param {
    num_output: 256
    pad: 1
    kernel_size: 3
    weight_filler {
      type: "xavier"
      std: 0.03
    }
    bias_filler {
      type: "constant"
      value: 0.2
    }
  }
}
layer {
  name: "inception_4c/relu_3x3"
  type: "ReLU"
  bottom: "inception_4c/3x3"
  top: "inception_4c/3x3"
}
layer {
  name: "inception_4c/5x5_reduce"
  type: "Convolution"
  bottom: "inception_4b/output"
  top: "inception_4c/5x5_reduce"
  param {
    lr_mult: 1
    decay_mult: 1
  }
  param {
    lr_mult: 2
    decay_mult: 0
  }
  convolution_param {
    num_output: 24
    kernel_size: 1
    weight_filler {
      type: "xavier"
      std: 0.2
    }
    bias_filler {
      type: "constant"
      value: 0.2
    }
  }
}
layer {
  name: "inception_4c/relu_5x5_reduce"
  type: "ReLU"
  bottom: "inception_4c/5x5_reduce"
  top: "inception_4c/5x5_reduce"
}
layer {
  name: "inception_4c/5x5"
  type: "Convolution"
  bottom: "inception_4c/5x5_reduce"
  top: "inception_4c/5x5"
  param {
    lr_mult: 1
    decay_mult: 1
  }
  param {
    lr_mult: 2
    decay_mult: 0
  }
  convolution_param {
    num_output: 64
    pad: 2
    kernel_size: 5
    weight_filler {
      type: "xavier"
      std: 0.03
    }
    bias_filler {
      type: "constant"
      value: 0.2
    }
  }
}
layer {
  name: "inception_4c/relu_5x5"
  type: "ReLU"
  bottom: "inception_4c/5x5"
  top: "inception_4c/5x5"
}
layer {
  name: "inception_4c/pool"
  type: "Pooling"
  bottom: "inception_4b/output"
  top: "inception_4c/pool"
  pooling_param {
    pool: MAX
    kernel_size: 3
    stride: 1
    pad: 1
  }
}
layer {
  name: "inception_4c/pool_proj"
  type: "Convolution"
  bottom: "inception_4c/pool"
  top: "inception_4c/pool_proj"
  param {
    lr_mult: 1
    decay_mult: 1
  }
  param {
    lr_mult: 2
    decay_mult: 0
  }
  convolution_param {
    num_output: 64
    kernel_size: 1
    weight_filler {
      type: "xavier"
      std: 0.1
    }
    bias_filler {
      type: "constant"
      value: 0.2
    }
  }
}
layer {
  name: "inception_4c/relu_pool_proj"
  type: "ReLU"
  bottom: "inception_4c/pool_proj"
  top: "inception_4c/pool_proj"
}
layer {
  name: "inception_4c/output"
  type: "Concat"
  bottom: "inception_4c/1x1"
  bottom: "inception_4c/3x3"
  bottom: "inception_4c/5x5"
  bottom: "inception_4c/pool_proj"
  top: "inception_4c/output"
}
layer {
  name: "inception_4d/1x1"
  type: "Convolution"
  bottom: "inception_4c/output"
  top: "inception_4d/1x1"
  param {
    lr_mult: 1
    decay_mult: 1
  }
  param {
    lr_mult: 2
    decay_mult: 0
  }
  convolution_param {
    num_output: 112
    kernel_size: 1
    weight_filler {
      type: "xavier"
      std: 0.03
    }
    bias_filler {
      type: "constant"
      value: 0.2
    }
  }
}
layer {
  name: "inception_4d/relu_1x1"
  type: "ReLU"
  bottom: "inception_4d/1x1"
  top: "inception_4d/1x1"
}
layer {
  name: "inception_4d/3x3_reduce"
  type: "Convolution"
  bottom: "inception_4c/output"
  top: "inception_4d/3x3_reduce"
  param {
    lr_mult: 1
    decay_mult: 1
  }
  param {
    lr_mult: 2
    decay_mult: 0
  }
  convolution_param {
    num_output: 144
    kernel_size: 1
    weight_filler {
      type: "xavier"
      std: 0.09
    }
    bias_filler {
      type: "constant"
      value: 0.2
    }
  }
}
layer {
  name: "inception_4d/relu_3x3_reduce"
  type: "ReLU"
  bottom: "inception_4d/3x3_reduce"
  top: "inception_4d/3x3_reduce"
}
layer {
  name: "inception_4d/3x3"
  type: "Convolution"
  bottom: "inception_4d/3x3_reduce"
  top: "inception_4d/3x3"
  param {
    lr_mult: 1
    decay_mult: 1
  }
  param {
    lr_mult: 2
    decay_mult: 0
  }
  convolution_param {
    num_output: 288
    pad: 1
    kernel_size: 3
    weight_filler {
      type: "xavier"
      std: 0.03
    }
    bias_filler {
      type: "constant"
      value: 0.2
    }
  }
}
layer {
  name: "inception_4d/relu_3x3"
  type: "ReLU"
  bottom: "inception_4d/3x3"
  top: "inception_4d/3x3"
}
layer {
  name: "inception_4d/5x5_reduce"
  type: "Convolution"
  bottom: "inception_4c/output"
  top: "inception_4d/5x5_reduce"
  param {
    lr_mult: 1
    decay_mult: 1
  }
  param {
    lr_mult: 2
    decay_mult: 0
  }
  convolution_param {
    num_output: 32
    kernel_size: 1
    weight_filler {
      type: "xavier"
      std: 0.2
    }
    bias_filler {
      type: "constant"
      value: 0.2
    }
  }
}
layer {
  name: "inception_4d/relu_5x5_reduce"
  type: "ReLU"
  bottom: "inception_4d/5x5_reduce"
  top: "inception_4d/5x5_reduce"
}
layer {
  name: "inception_4d/5x5"
  type: "Convolution"
  bottom: "inception_4d/5x5_reduce"
  top: "inception_4d/5x5"
  param {
    lr_mult: 1
    decay_mult: 1
  }
  param {
    lr_mult: 2
    decay_mult: 0
  }
  convolution_param {
    num_output: 64
    pad: 2
    kernel_size: 5
    weight_filler {
      type: "xavier"
      std: 0.03
    }
    bias_filler {
      type: "constant"
      value: 0.2
    }
  }
}
layer {
  name: "inception_4d/relu_5x5"
  type: "ReLU"
  bottom: "inception_4d/5x5"
  top: "inception_4d/5x5"
}
layer {
  name: "inception_4d/pool"
  type: "Pooling"
  bottom: "inception_4c/output"
  top: "inception_4d/pool"
  pooling_param {
    pool: MAX
    kernel_size: 3
    stride: 1
    pad: 1
  }
}
layer {
  name: "inception_4d/pool_proj"
  type: "Convolution"
  bottom: "inception_4d/pool"
  top: "inception_4d/pool_proj"
  param {
    lr_mult: 1
    decay_mult: 1
  }
  param {
    lr_mult: 2
    decay_mult: 0
  }
  convolution_param {
    num_output: 64
    kernel_size: 1
    weight_filler {
      type: "xavier"
      std: 0.1
    }
    bias_filler {
      type: "constant"
      value: 0.2
    }
  }
}
layer {
  name: "inception_4d/relu_pool_proj"
  type: "ReLU"
  bottom: "inception_4d/pool_proj"
  top: "inception_4d/pool_proj"
}
layer {
…
I1130 08:30:07.892089 30089 layer_factory.hpp:77] Creating layer inception_4c/1x1
I1130 08:30:07.892098 30089 net.cpp:84] Creating Layer inception_4c/1x1
I1130 08:30:07.892103 30089 net.cpp:406] inception_4c/1x1 <- inception_4b/output_inception_4b/output_0_split_0
I1130 08:30:07.892110 30089 net.cpp:380] inception_4c/1x1 -> inception_4c/1x1
I1130 08:30:07.892700 30089 net.cpp:122] Setting up inception_4c/1x1
I1130 08:30:07.892710 30089 net.cpp:129] Top shape: 32 128 14 14 (802816)
I1130 08:30:07.892715 30089 net.cpp:137] Memory required for data: 1359569280
I1130 08:30:07.892724 30089 layer_factory.hpp:77] Creating layer inception_4c/relu_1x1
I1130 08:30:07.892729 30089 net.cpp:84] Creating Layer inception_4c/relu_1x1
I1130 08:30:07.892735 30089 net.cpp:406] inception_4c/relu_1x1 <- inception_4c/1x1
I1130 08:30:07.892741 30089 net.cpp:367] inception_4c/relu_1x1 -> inception_4c/1x1 (in-place)
I1130 08:30:07.892748 30089 net.cpp:122] Setting up inception_4c/relu_1x1
I1130 08:30:07.892755 30089 net.cpp:129] Top shape: 32 128 14 14 (802816)
I1130 08:30:07.892760 30089 net.cpp:137] Memory required for data: 1362780544
I1130 08:30:07.892762 30089 layer_factory.hpp:77] Creating layer inception_4c/3x3_reduce
I1130 08:30:07.892771 30089 net.cpp:84] Creating Layer inception_4c/3x3_reduce
I1130 08:30:07.892776 30089 net.cpp:406] inception_4c/3x3_reduce <- inception_4b/output_inception_4b/output_0_split_1
I1130 08:30:07.892782 30089 net.cpp:380] inception_4c/3x3_reduce -> inception_4c/3x3_reduce
I1130 08:30:07.893393 30089 net.cpp:122] Setting up inception_4c/3x3_reduce
I1130 08:30:07.893404 30089 net.cpp:129] Top shape: 32 128 14 14 (802816)
I1130 08:30:07.893409 30089 net.cpp:137] Memory required for data: 1365991808
I1130 08:30:07.893417 30089 layer_factory.hpp:77] Creating layer inception_4c/relu_3x3_reduce
I1130 08:30:07.893425 30089 net.cpp:84] Creating Layer inception_4c/relu_3x3_reduce
I1130 08:30:07.893431 30089 net.cpp:406] inception_4c/relu_3x3_reduce <- inception_4c/3x3_reduce
I1130 08:30:07.893437 30089 net.cpp:367] inception_4c/relu_3x3_reduce -> inception_4c/3x3_reduce (in-place)
I1130 08:30:07.893445 30089 net.cpp:122] Setting up inception_4c/relu_3x3_reduce
I1130 08:30:07.893450 30089 net.cpp:129] Top shape: 32 128 14 14 (802816)
I1130 08:30:07.893455 30089 net.cpp:137] Memory required for data: 1369203072
I1130 08:30:07.893460 30089 layer_factory.hpp:77] Creating layer inception_4c/3x3
I1130 08:30:07.893467 30089 net.cpp:84] Creating Layer inception_4c/3x3
I1130 08:30:07.893472 30089 net.cpp:406] inception_4c/3x3 <- inception_4c/3x3_reduce
I1130 08:30:07.893478 30089 net.cpp:380] inception_4c/3x3 -> inception_4c/3x3
I1130 08:30:07.895797 30089 net.cpp:122] Setting up inception_4c/3x3
I1130 08:30:07.895808 30089 net.cpp:129] Top shape: 32 256 14 14 (1605632)
I1130 08:30:07.895813 30089 net.cpp:137] Memory required for data: 1375625600
I1130 08:30:07.895819 30089 layer_factory.hpp:77] Creating layer inception_4c/relu_3x3
I1130 08:30:07.895826 30089 net.cpp:84] Creating Layer inception_4c/relu_3x3
I1130 08:30:07.895833 30089 net.cpp:406] inception_4c/relu_3x3 <- inception_4c/3x3
I1130 08:30:07.895839 30089 net.cpp:367] inception_4c/relu_3x3 -> inception_4c/3x3 (in-place)
I1130 08:30:07.895846 30089 net.cpp:122] Setting up inception_4c/relu_3x3
I1130 08:30:07.895853 30089 net.cpp:129] Top shape: 32 256 14 14 (1605632)
I1130 08:30:07.895856 30089 net.cpp:137] Memory required for data: 1382048128
I1130 08:30:07.895861 30089 layer_factory.hpp:77] Creating layer inception_4c/5x5_reduce
I1130 08:30:07.895869 30089 net.cpp:84] Creating Layer inception_4c/5x5_reduce
I1130 08:30:07.895875 30089 net.cpp:406] inception_4c/5x5_reduce <- inception_4b/output_inception_4b/output_0_split_2
I1130 08:30:07.895881 30089 net.cpp:380] inception_4c/5x5_reduce -> inception_4c/5x5_reduce
I1130 08:30:07.896163 30089 net.cpp:122] Setting up inception_4c/5x5_reduce
I1130 08:30:07.896173 30089 net.cpp:129] Top shape: 32 24 14 14 (150528)
I1130 08:30:07.896178 30089 net.cpp:137] Memory required for data: 1382650240
I1130 08:30:07.896185 30089 layer_factory.hpp:77] Creating layer inception_4c/relu_5x5_reduce
I1130 08:30:07.896193 30089 net.cpp:84] Creating Layer inception_4c/relu_5x5_reduce
I1130 08:30:07.896198 30089 net.cpp:406] inception_4c/relu_5x5_reduce <- inception_4c/5x5_reduce
I1130 08:30:07.896204 30089 net.cpp:367] inception_4c/relu_5x5_reduce -> inception_4c/5x5_reduce (in-place)
I1130 08:30:07.896211 30089 net.cpp:122] Setting up inception_4c/relu_5x5_reduce
I1130 08:30:07.896217 30089 net.cpp:129] Top shape: 32 24 14 14 (150528)
I1130 08:30:07.896221 30089 net.cpp:137] Memory required for data: 1383252352
I1130 08:30:07.896226 30089 layer_factory.hpp:77] Creating layer inception_4c/5x5
I1130 08:30:07.896234 30089 net.cpp:84] Creating Layer inception_4c/5x5
I1130 08:30:07.896239 30089 net.cpp:406] inception_4c/5x5 <- inception_4c/5x5_reduce
I1130 08:30:07.896245 30089 net.cpp:380] inception_4c/5x5 -> inception_4c/5x5
I1130 08:30:07.896668 30089 net.cpp:122] Setting up inception_4c/5x5
I1130 08:30:07.896678 30089 net.cpp:129] Top shape: 32 64 14 14 (401408)
I1130 08:30:07.896682 30089 net.cpp:137] Memory required for data: 1384857984
I1130 08:30:07.896690 30089 layer_factory.hpp:77] Creating layer inception_4c/relu_5x5
I1130 08:30:07.896697 30089 net.cpp:84] Creating Layer inception_4c/relu_5x5
I1130 08:30:07.896703 30089 net.cpp:406] inception_4c/relu_5x5 <- inception_4c/5x5
I1130 08:30:07.896709 30089 net.cpp:367] inception_4c/relu_5x5 -> inception_4c/5x5 (in-place)
I1130 08:30:07.896716 30089 net.cpp:122] Setting up inception_4c/relu_5x5
I1130 08:30:07.896723 30089 net.cpp:129] Top shape: 32 64 14 14 (401408)
I1130 08:30:07.896726 30089 net.cpp:137] Memory required for data: 1386463616
I1130 08:30:07.896731 30089 layer_factory.hpp:77] Creating layer inception_4c/pool
I1130 08:30:07.896737 30089 net.cpp:84] Creating Layer inception_4c/pool
I1130 08:30:07.896742 30089 net.cpp:406] inception_4c/pool <- inception_4b/output_inception_4b/output_0_split_3
I1130 08:30:07.896747 30089 net.cpp:380] inception_4c/pool -> inception_4c/pool
I1130 08:30:07.896785 30089 net.cpp:122] Setting up inception_4c/pool
I1130 08:30:07.896792 30089 net.cpp:129] Top shape: 32 512 14 14 (3211264)
I1130 08:30:07.896796 30089 net.cpp:137] Memory required for data: 1399308672
I1130 08:30:07.896800 30089 layer_factory.hpp:77] Creating layer inception_4c/pool_proj
I1130 08:30:07.896809 30089 net.cpp:84] Creating Layer inception_4c/pool_proj
I1130 08:30:07.896814 30089 net.cpp:406] inception_4c/pool_proj <- inception_4c/pool
I1130 08:30:07.896821 30089 net.cpp:380] inception_4c/pool_proj -> inception_4c/pool_proj
I1130 08:30:07.897210 30089 net.cpp:122] Setting up inception_4c/pool_proj
I1130 08:30:07.897219 30089 net.cpp:129] Top shape: 32 64 14 14 (401408)
I1130 08:30:07.897223 30089 net.cpp:137] Memory required for data: 1400914304
I1130 08:30:07.897238 30089 layer_factory.hpp:77] Creating layer inception_4c/relu_pool_proj
I1130 08:30:07.897244 30089 net.cpp:84] Creating Layer inception_4c/relu_pool_proj
I1130 08:30:07.897250 30089 net.cpp:406] inception_4c/relu_pool_proj <- inception_4c/pool_proj
I1130 08:30:07.897256 30089 net.cpp:367] inception_4c/relu_pool_proj -> inception_4c/pool_proj (in-place)
I1130 08:30:07.897264 30089 net.cpp:122] Setting up inception_4c/relu_pool_proj
I1130 08:30:07.897269 30089 net.cpp:129] Top shape: 32 64 14 14 (401408)
I1130 08:30:07.897272 30089 net.cpp:137] Memory required for data: 1402519936
I1130 08:30:07.897277 30089 layer_factory.hpp:77] Creating layer inception_4c/output
I1130 08:30:07.897284 30089 net.cpp:84] Creating Layer inception_4c/output
I1130 08:30:07.897289 30089 net.cpp:406] inception_4c/output <- inception_4c/1x1
I1130 08:30:07.897294 30089 net.cpp:406] inception_4c/output <- inception_4c/3x3
I1130 08:30:07.897298 30089 net.cpp:406] inception_4c/output <- inception_4c/5x5
I1130 08:30:07.897303 30089 net.cpp:406] inception_4c/output <- inception_4c/pool_proj
I1130 08:30:07.897310 30089 net.cpp:380] inception_4c/output -> inception_4c/output
I1130 08:30:07.897334 30089 net.cpp:122] Setting up inception_4c/output
I1130 08:30:07.897341 30089 net.cpp:129] Top shape: 32 512 14 14 (3211264)
I1130 08:30:07.897346 30089 net.cpp:137] Memory required for data: 1415364992
I1130 08:30:07.897351 30089 layer_factory.hpp:77] Creating layer inception_4c/output_inception_4c/output_0_split
I1130 08:30:07.897357 30089 net.cpp:84] Creating Layer inception_4c/output_inception_4c/output_0_split
I1130 08:30:07.897362 30089 net.cpp:406] inception_4c/output_inception_4c/output_0_split <- inception_4c/output
I1130 08:30:07.897368 30089 net.cpp:380] inception_4c/output_inception_4c/output_0_split -> inception_4c/output_inception_4c/output_0_split_0
I1130 08:30:07.897377 30089 net.cpp:380] inception_4c/output_inception_4c/output_0_split -> inception_4c/output_inception_4c/output_0_split_1
I1130 08:30:07.897384 30089 net.cpp:380] inception_4c/output_inception_4c/output_0_split -> inception_4c/output_inception_4c/output_0_split_2
I1130 08:30:07.897392 30089 net.cpp:380] inception_4c/output_inception_4c/output_0_split -> inception_4c/output_inception_4c/output_0_split_3
I1130 08:30:07.897444 30089 net.cpp:122] Setting up inception_4c/output_inception_4c/output_0_split
I1130 08:30:07.897452 30089 net.cpp:129] Top shape: 32 512 14 14 (3211264)
I1130 08:30:07.897459 30089 net.cpp:129] Top shape: 32 512 14 14 (3211264)
I1130 08:30:07.897464 30089 net.cpp:129] Top shape: 32 512 14 14 (3211264)
I1130 08:30:07.897469 30089 net.cpp:129] Top shape: 32 512 14 14 (3211264)
I1130 08:30:07.897474 30089 net.cpp:137] Memory required for data: 1466745216
I1130 08:30:07.897477 30089 layer_factory.hpp:77] Creating layer inception_4d/1x1
I1130 08:30:07.897486 30089 net.cpp:84] Creating Layer inception_4d/1x1
I1130 08:30:07.897491 30089 net.cpp:406] inception_4d/1x1 <- inception_4c/output_inception_4c/output_0_split_0
I1130 08:30:07.897498 30089 net.cpp:380] inception_4d/1x1 -> inception_4d/1x1
I1130 08:30:07.898399 30089 net.cpp:122] Setting up inception_4d/1x1
I1130 08:30:07.898411 30089 net.cpp:129] Top shape: 32 112 14 14 (702464)
I1130 08:30:07.898416 30089 net.cpp:137] Memory required for data: 1469555072
I1130 08:30:07.898423 30089 layer_factory.hpp:77] Creating layer inception_4d/relu_1x1
I1130 08:30:07.898430 30089 net.cpp:84] Creating Layer inception_4d/relu_1x1
I1130 08:30:07.898437 30089 net.cpp:406] inception_4d/relu_1x1 <- inception_4d/1x1
I1130 08:30:07.898443 30089 net.cpp:367] inception_4d/relu_1x1 -> inception_4d/1x1 (in-place)
I1130 08:30:07.898452 30089 net.cpp:122] Setting up inception_4d/relu_1x1
I1130 08:30:07.898458 30089 net.cpp:129] Top shape: 32 112 14 14 (702464)
I1130 08:30:07.898463 30089 net.cpp:137] Memory required for data: 1472364928
I1130 08:30:07.898468 30089 layer_factory.hpp:77] Creating layer inception_4d/3x3_reduce
I1130 08:30:07.898474 30089 net.cpp:84] Creating Layer inception_4d/3x3_reduce
I1130 08:30:07.898479 30089 net.cpp:406] inception_4d/3x3_reduce <- inception_4c/output_inception_4c/output_0_split_1
I1130 08:30:07.898486 30089 net.cpp:380] inception_4d/3x3_reduce -> inception_4d/3x3_reduce
I1130 08:30:07.899123 30089 net.cpp:122] Setting up inception_4d/3x3_reduce
I1130 08:30:07.899132 30089 net.cpp:129] Top shape: 32 144 14 14 (903168)
I1130 08:30:07.899137 30089 net.cpp:137] Memory required for data: 1475977600
I1130 08:30:07.899145 30089 layer_factory.hpp:77] Creating layer inception_4d/relu_3x3_reduce
I1130 08:30:07.899152 30089 net.cpp:84] Creating Layer inception_4d/relu_3x3_reduce
I1130 08:30:07.899158 30089 net.cpp:406] inception_4d/relu_3x3_reduce <- inception_4d/3x3_reduce
I1130 08:30:07.899164 30089 net.cpp:367] inception_4d/relu_3x3_reduce -> inception_4d/3x3_reduce (in-place)
I1130 08:30:07.899171 30089 net.cpp:122] Setting up inception_4d/relu_3x3_reduce
I1130 08:30:07.899178 30089 net.cpp:129] Top shape: 32 144 14 14 (903168)
I1130 08:30:07.899181 30089 net.cpp:137] Memory required for data: 1479590272
I1130 08:30:07.899186 30089 layer_factory.hpp:77] Creating layer inception_4d/3x3
I1130 08:30:07.899194 30089 net.cpp:84] Creating Layer inception_4d/3x3
I1130 08:30:07.899199 30089 net.cpp:406] inception_4d/3x3 <- inception_4d/3x3_reduce
I1130 08:30:07.899205 30089 net.cpp:380] inception_4d/3x3 -> inception_4d/3x3
I1130 08:30:07.901962 30089 net.cpp:122] Setting up inception_4d/3x3
I1130 08:30:07.901973 30089 net.cpp:129] Top shape: 32 288 14 14 (1806336)
I1130 08:30:07.901978 30089 net.cpp:137] Memory required for data: 1486815616
I1130 08:30:07.901984 30089 layer_factory.hpp:77] Creating layer inception_4d/relu_3x3
I1130 08:30:07.901991 30089 net.cpp:84] Creating Layer inception_4d/relu_3x3
I1130 08:30:07.901996 30089 net.cpp:406] inception_4d/relu_3x3 <- inception_4d/3x3
I1130 08:30:07.902004 30089 net.cpp:367] inception_4d/relu_3x3 -> inception_4d/3x3 (in-place)
I1130 08:30:07.902010 30089 net.cpp:122] Setting up inception_4d/relu_3x3
I1130 08:30:07.902016 30089 net.cpp:129] Top shape: 32 288 14 14 (1806336)
I1130 08:30:07.902022 30089 net.cpp:137] Memory required for data: 1494040960
I1130 08:30:07.902026 30089 layer_factory.hpp:77] Creating layer inception_4d/5x5_reduce
I1130 08:30:07.902034 30089 net.cpp:84] Creating Layer inception_4d/5x5_reduce
I1130 08:30:07.902040 30089 net.cpp:406] inception_4d/5x5_reduce <- inception_4c/output_inception_4c/output_0_split_2
I1130 08:30:07.902047 30089 net.cpp:380] inception_4d/5x5_reduce -> inception_4d/5x5_reduce
I1130 08:30:07.902372 30089 net.cpp:122] Setting up inception_4d/5x5_reduce
I1130 08:30:07.902381 30089 net.cpp:129] Top shape: 32 32 14 14 (200704)
I1130 08:30:07.902386 30089 net.cpp:137] Memory required for data: 1494843776
I1130 08:30:07.902393 30089 layer_factory.hpp:77] Creating layer inception_4d/relu_5x5_reduce
I1130 08:30:07.902400 30089 net.cpp:84] Creating Layer inception_4d/relu_5x5_reduce
I1130 08:30:07.902405 30089 net.cpp:406] inception_4d/relu_5x5_reduce <- inception_4d/5x5_reduce
I1130 08:30:07.902410 30089 net.cpp:367] inception_4d/relu_5x5_reduce -> inception_4d/5x5_reduce (in-place)
I1130 08:30:07.902420 30089 net.cpp:122] Setting up inception_4d/relu_5x5_reduce
I1130 08:30:07.902426 30089 net.cpp:129] Top shape: 32 32 14 14 (200704)
I1130 08:30:07.902428 30089 net.cpp:137] Memory required for data: 1495646592
I1130 08:30:07.902433 30089 layer_factory.hpp:77] Creating layer inception_4d/5x5
I1130 08:30:07.902441 30089 net.cpp:84] Creating Layer inception_4d/5x5
I1130 08:30:07.902446 30089 net.cpp:406] inception_4d/5x5 <- inception_4d/5x5_reduce
I1130 08:30:07.902452 30089 net.cpp:380] inception_4d/5x5 -> inception_4d/5x5
I1130 08:30:07.902947 30089 net.cpp:122] Setting up inception_4d/5x5
I1130 08:30:07.902956 30089 net.cpp:129] Top shape: 32 64 14 14 (401408)
I1130 08:30:07.902961 30089 net.cpp:137] Memory required for data: 1497252224
I1130 08:30:07.902967 30089 layer_factory.hpp:77] Creating layer inception_4d/relu_5x5
I1130 08:30:07.902974 30089 net.cpp:84] Creating Layer inception_4d/relu_5x5
I1130 08:30:07.902979 30089 net.cpp:406] inception_4d/relu_5x5 <- inception_4d/5x5
I1130 08:30:07.902986 30089 net.cpp:367] inception_4d/relu_5x5 -> inception_4d/5x5 (in-place)
I1130 08:30:07.902992 30089 net.cpp:122] Setting up inception_4d/relu_5x5
I1130 08:30:07.902997 30089 net.cpp:129] Top shape: 32 64 14 14 (401408)
I1130 08:30:07.903002 30089 net.cpp:137] Memory required for data: 1498857856
I1130 08:30:07.903005 30089 layer_factory.hpp:77] Creating layer inception_4d/pool
I1130 08:30:07.903012 30089 net.cpp:84] Creating Layer inception_4d/pool
I1130 08:30:07.903017 30089 net.cpp:406] inception_4d/pool <- inception_4c/output_inception_4c/output_0_split_3
I1130 08:30:07.903023 30089 net.cpp:380] inception_4d/pool -> inception_4d/pool
I1130 08:30:07.903059 30089 net.cpp:122] Setting up inception_4d/pool
I1130 08:30:07.903067 30089 net.cpp:129] Top shape: 32 512 14 14 (3211264)
I1130 08:30:07.903071 30089 net.cpp:137] Memory required for data: 1511702912
I1130 08:30:07.903075 30089 layer_factory.hpp:77] Creating layer inception_4d/pool_proj
I1130 08:30:07.903084 30089 net.cpp:84] Creating Layer inception_4d/pool_proj
I1130 08:30:07.903090 30089 net.cpp:406] inception_4d/pool_proj <- inception_4d/pool
I1130 08:30:07.903095 30089 net.cpp:380] inception_4d/pool_proj -> inception_4d/pool_proj
I1130 08:30:07.903476 30089 net.cpp:122] Setting up inception_4d/pool_proj
I1130 08:30:07.903484 30089 net.cpp:129] Top shape: 32 64 14 14 (401408)
I1130 08:30:07.903489 30089 net.cpp:137] Memory required for data: 1513308544
I1130 08:30:07.903496 30089 layer_factory.hpp:77] Creating layer inception_4d/relu_pool_proj
I1130 08:30:07.903501 30089 net.cpp:84] Creating Layer inception_4d/relu_pool_proj
I1130 08:30:07.903507 30089 net.cpp:406] inception_4d/relu_pool_proj <- inception_4d/pool_proj
I1130 08:30:07.903512 30089 net.cpp:367] inception_4d/relu_pool_proj -> inception_4d/pool_proj (in-place)
I1130 08:30:07.903519 30089 net.cpp:122] Setting up inception_4d/relu_pool_proj
I1130 08:30:07.903527 30089 net.cpp:129] Top shape: 32 64 14 14 (401408)
I1130 08:30:07.903530 30089 net.cpp:137] Memory required for data: 1514914176
I1130 08:30:07.903535 30089 layer_factory.hpp:77] Creating layer inception_4d/output
I1130 08:30:07.903540 30089 net.cpp:84] Creating Layer inception_4d/output
I1130 08:30:07.903547 30089 net.cpp:406] inception_4d/output <- inception_4d/1x1
I1130 08:30:07.903550 30089 net.cpp:406] inception_4d/output <- inception_4d/3x3
I1130 08:30:07.903556 30089 net.cpp:406] inception_4d/output <- inception_4d/5x5
I1130 08:30:07.903561 30089 net.cpp:406] inception_4d/output <- inception_4d/pool_proj
I1130 08:30:07.903568 30089 net.cpp:380] inception_4d/output -> inception_4d/output
I1130 08:30:07.903592 30089 net.cpp:122] Setting up inception_4d/output
I1130 08:30:07.903599 30089 net.cpp:129] Top shape: 32 528 14 14 (3311616)
I1130 08:30:07.903604 30089 net.cpp:137] Memory required for data: 1528160640
I1130 08:30:07.903609 30089 layer_factory.hpp:77] Creating layer inception_4d/output_inception_4d/output_0_split
I1130 08:30:07.903614 30089 net.cpp:84] Creating Layer inception_4d/output_inception_4d/output_0_split
I1130 08:30:07.903620 30089 net.cpp:406] inception_4d/output_inception_4d/output_0_split <- inception_4d/output
I1130 08:30:07.903625 30089 net.cpp:380] inception_4d/output_inception_4d/output_0_split -> inception_4d/output_inception_4d/output_0_split_0
I1130 08:30:07.903632 30089 net.cpp:380] inception_4d/output_inception_4d/output_0_split -> inception_4d/output_inception_4d/output_0_split_1
I1130 08:30:07.903640 30089 net.cpp:380] inception_4d/output_inception_4d/output_0_split -> inception_4d/output_inception_4d/output_0_split_2
I1130 08:30:07.903646 30089 net.cpp:380] inception_4d/output_inception_4d/output_0_split -> inception_4d/output_inception_4d/output_0_split_3
I1130 08:30:07.903709 30089 net.cpp:122] Setting up inception_4d/output_inception_4d/output_0_split
I1130 08:30:07.903717 30089 net.cpp:129] Top shape: 32 528 14 14 (3311616)
I1130 08:30:07.903723 30089 net.cpp:129] Top shape: 32 528 14 14 (3311616)
I1130 08:30:07.903728 30089 net.cpp:129] Top shape: 32 528 14 14 (3311616)
I1130 08:30:07.903733 30089 net.cpp:129] Top shape: 32 528 14 14 (3311616)
I1130 08:30:07.903738 30089 net.cpp:137] Memory required for data: 1581146496
I1130 08:30:07.903741 30089 layer_factory.hpp:77] Creating layer inception_4e/1x1
I1130 08:30:07.903749 30089 net.cpp:84] Creating Layer inception_4e/1x1
I1130 08:30:07.903754 30089 net.cpp:406] inception_4e/1x1 <- inception_4d/output_inception_4d/output_0_split_0
I1130 08:30:07.903761 30089 net.cpp:380] inception_4e/1x1 -> inception_4e/1x1
I1130 08:30:07.905089 30089 net.cpp:122] Setting up inception_4e/1x1
I1130 08:30:07.905100 30089 net.cpp:129] Top shape: 32 256 14 14 (1605632)
I1130 08:30:07.905105 30089 net.cpp:137] Memory required for data: 1587569024
I1130 08:30:07.905112 30089 layer_factory.hpp:77] Creating layer inception_4e/relu_1x1
I1130 08:30:07.905119 30089 net.cpp:84] Creating Layer inception_4e/relu_1x1
I1130 08:30:07.905124 30089 net.cpp:406] inception_4e/relu_1x1 <- inception_4e/1x1
I1130 08:30:07.905131 30089 net.cpp:367] inception_4e/relu_1x1 -> inception_4e/1x1 (in-place)
I1130 08:30:07.905139 30089 net.cpp:122] Setting up inception_4e/relu_1x1
I1130 08:30:07.905145 30089 net.cpp:129] Top shape: 32 256 14 14 (1605632)
I1130 08:30:07.905149 30089 net.cpp:137] Memory required for data: 1593991552
I1130 08:30:07.905154 30089 layer_factory.hpp:77] Creating layer inception_4e/3x3_reduce
I1130 08:30:07.905163 30089 net.cpp:84] Creating Layer inception_4e/3x3_reduce
I1130 08:30:07.905167 30089 net.cpp:406] inception_4e/3x3_reduce <- inception_4d/output_inception_4d/output_0_split_1
I1130 08:30:07.905174 30089 net.cpp:380] inception_4e/3x3_reduce -> inception_4e/3x3_reduce
I1130 08:30:07.905867 30089 net.cpp:122] Setting up inception_4e/3x3_reduce
I1130 08:30:07.905877 30089 net.cpp:129] Top shape: 32 160 14 14 (1003520)
I1130 08:30:07.905882 30089 net.cpp:137] Memory required for data: 1598005632
I1130 08:30:07.905889 30089 layer_factory.hpp:77] Creating layer inception_4e/relu_3x3_reduce
I1130 08:30:07.905895 30089 net.cpp:84] Creating Layer inception_4e/relu_3x3_reduce
I1130 08:30:07.905901 30089 net.cpp:406] inception_4e/relu_3x3_reduce <- inception_4e/3x3_reduce
I1130 08:30:07.905907 30089 net.cpp:367] inception_4e/relu_3x3_reduce -> inception_4e/3x3_reduce (in-place)
I1130 08:30:07.905915 30089 net.cpp:122] Setting up inception_4e/relu_3x3_reduce
I1130 08:30:07.905920 30089 net.cpp:129] Top shape: 32 160 14 14 (1003520)
I1130 08:30:07.905925 30089 net.cpp:137] Memory required for data: 1602019712
I1130 08:30:07.905928 30089 layer_factory.hpp:77] Creating layer inception_4e/3x3
I1130 08:30:07.905936 30089 net.cpp:84] Creating Layer inception_4e/3x3
I1130 08:30:07.905941 30089 net.cpp:406] inception_4e/3x3 <- inception_4e/3x3_reduce
I1130 08:30:07.905947 30089 net.cpp:380] inception_4e/3x3 -> inception_4e/3x3
I1130 08:30:07.909162 30089 net.cpp:122] Setting up inception_4e/3x3
I1130 08:30:07.909173 30089 net.cpp:129] Top shape: 32 320 14 14 (2007040)
I1130 08:30:07.909178 30089 net.cpp:137] Memory required for data: 1610047872
I1130 08:30:07.909184 30089 layer_factory.hpp:77] Creating layer inception_4e/relu_3x3
I1130 08:30:07.909191 30089 net.cpp:84] Creating Layer inception_4e/relu_3x3
I1130 08:30:07.909198 30089 net.cpp:406] inception_4e/relu_3x3 <- inception_4e/3x3
I1130 08:30:07.909204 30089 net.cpp:367] inception_4e/relu_3x3 -> inception_4e/3x3 (in-place)
I1130 08:30:07.909211 30089 net.cpp:122] Setting up inception_4e/relu_3x3
I1130 08:30:07.909217 30089 net.cpp:129] Top shape: 32 320 14 14 (2007040)
I1130 08:30:07.909221 30089 net.cpp:137] Memory required for data: 1618076032
I1130 08:30:07.909225 30089 layer_factory.hpp:77] Creating layer inception_4e/5x5_reduce
I1130 08:30:07.909234 30089 net.cpp:84] Creating Layer inception_4e/5x5_reduce
I1130 08:30:07.909238 30089 net.cpp:406] inception_4e/5x5_reduce <- inception_4d/output_inception_4d/output_0_split_2
I1130 08:30:07.909245 30089 net.cpp:380] inception_4e/5x5_reduce -> inception_4e/5x5_reduce
I1130 08:30:07.909548 30089 net.cpp:122] Setting up inception_4e/5x5_reduce
I1130 08:30:07.909556 30089 net.cpp:129] Top shape: 32 32 14 14 (200704)
I1130 08:30:07.909561 30089 net.cpp:137] Memory required for data: 1618878848
I1130 08:30:07.909567 30089 layer_factory.hpp:77] Creating layer inception_4e/relu_5x5_reduce
I1130 08:30:07.909574 30089 net.cpp:84] Creating Layer inception_4e/relu_5x5_reduce
I1130 08:30:07.909579 30089 net.cpp:406] inception_4e/relu_5x5_reduce <- inception_4e/5x5_reduce
I1130 08:30:07.909584 30089 net.cpp:367] inception_4e/relu_5x5_reduce -> inception_4e/5x5_reduce (in-place)
I1130 08:30:07.909591 30089 net.cpp:122] Setting up inception_4e/relu_5x5_reduce
I1130 08:30:07.909597 30089 net.cpp:129] Top shape: 32 32 14 14 (200704)
I1130 08:30:07.909602 30089 net.cpp:137] Memory required for data: 1619681664
I1130 08:30:07.909606 30089 layer_factory.hpp:77] Creating layer inception_4e/5x5
I1130 08:30:07.909615 30089 net.cpp:84] Creating Layer inception_4e/5x5
I1130 08:30:07.909618 30089 net.cpp:406] inception_4e/5x5 <- inception_4e/5x5_reduce
I1130 08:30:07.909626 30089 net.cpp:380] inception_4e/5x5 -> inception_4e/5x5
I1130 08:30:07.910717 30089 net.cpp:122] Setting up inception_4e/5x5
I1130 08:30:07.910728 30089 net.cpp:129] Top shape: 32 128 14 14 (802816)
I1130 08:30:07.910733 30089 net.cpp:137] Memory required for data: 1622892928
I1130 08:30:07.910742 30089 layer_factory.hpp:77] Creating layer inception_4e/relu_5x5
I1130 08:30:07.910748 30089 net.cpp:84] Creating Layer inception_4e/relu_5x5
I1130 08:30:07.910753 30089 net.cpp:406] inception_4e/relu_5x5 <- inception_4e/5x5
I1130 08:30:07.910759 30089 net.cpp:367] inception_4e/relu_5x5 -> inception_4e/5x5 (in-place)
I1130 08:30:07.910766 30089 net.cpp:122] Setting up inception_4e/relu_5x5
I1130 08:30:07.910773 30089 net.cpp:129] Top shape: 32 128 14 14 (802816)
I1130 08:30:07.910778 30089 net.cpp:137] Memory required for data: 1626104192
I1130 08:30:07.910781 30089 layer_factory.hpp:77] Creating layer inception_4e/pool
I1130 08:30:07.910789 30089 net.cpp:84] Creating Layer inception_4e/pool
I1130 08:30:07.910794 30089 net.cpp:406] inception_4e/pool <- inception_4d/output_inception_4d/output_0_split_3
I1130 08:30:07.910799 30089 net.cpp:380] inception_4e/pool -> inception_4e/pool
I1130 08:30:07.910836 30089 net.cpp:122] Setting up inception_4e/pool
I1130 08:30:07.910843 30089 net.cpp:129] Top shape: 32 528 14 14 (3311616)
I1130 08:30:07.910848 30089 net.cpp:137] Memory required for data: 1639350656
I1130 08:30:07.910852 30089 layer_factory.hpp:77] Creating layer inception_4e/pool_proj
I1130 08:30:07.910861 30089 net.cpp:84] Creating Layer inception_4e/pool_proj
I1130 08:30:07.910866 30089 net.cpp:406] inception_4e/pool_proj <- inception_4e/pool
I1130 08:30:07.910873 30089 net.cpp:380] inception_4e/pool_proj -> inception_4e/pool_proj
I1130 08:30:07.911439 30089 net.cpp:122] Setting up inception_4e/pool_proj
I1130 08:30:07.911448 30089 net.cpp:129] Top shape: 32 128 14 14 (802816)
I1130 08:30:07.911453 30089 net.cpp:137] Memory required for data: 1642561920
I1130 08:30:07.911459 30089 layer_factory.hpp:77] Creating layer inception_4e/relu_pool_proj
I1130 08:30:07.911465 30089 net.cpp:84] Creating Layer inception_4e/relu_pool_proj
I1130 08:30:07.911470 30089 net.cpp:406] inception_4e/relu_pool_proj <- inception_4e/pool_proj
I1130 08:30:07.911476 30089 net.cpp:367] inception_4e/relu_pool_proj -> inception_4e/pool_proj (in-place)
I1130 08:30:07.911484 30089 net.cpp:122] Setting up inception_4e/relu_pool_proj
I1130 08:30:07.911489 30089 net.cpp:129] Top shape: 32 128 14 14 (802816)
I1130 08:30:07.911494 30089 net.cpp:137] Memory required for data: 1645773184
I1130 08:30:07.911499 30089 layer_factory.hpp:77] Creating layer inception_4e/output
I1130 08:30:07.911504 30089 net.cpp:84] Creating Layer inception_4e/output
I1130 08:30:07.911509 30089 net.cpp:406] inception_4e/output <- inception_4e/1x1
I1130 08:30:07.911514 30089 net.cpp:406] inception_4e/output <- inception_4e/3x3
I1130 08:30:07.911520 30089 net.cpp:406] inception_4e/output <- inception_4e/5x5
I1130 08:30:07.911523 30089 net.cpp:406] inception_4e/output <- inception_4e/pool_proj
I1130 08:30:07.911530 30089 net.cpp:380] inception_4e/output -> inception_4e/output
I1130 08:30:07.911553 30089 net.cpp:122] Setting up inception_4e/output
I1130 08:30:07.911561 30089 net.cpp:129] Top shape: 32 832 14 14 (5218304)
I1130 08:30:07.911566 30089 net.cpp:137] Memory required for data: 1666646400
I1130 08:30:07.911569 30089 layer_factory.hpp:77] Creating layer pool4/3x3_s2
I1130 08:30:07.911576 30089 net.cpp:84] Creating Layer pool4/3x3_s2
I1130 08:30:07.911581 30089 net.cpp:406] pool4/3x3_s2 <- inception_4e/output
I1130 08:30:07.911586 30089 net.cpp:380] pool4/3x3_s2 -> pool4/3x3_s2
I1130 08:30:07.911619 30089 net.cpp:122] Setting up pool4/3x3_s2
I1130 08:30:07.911628 30089 net.cpp:129] Top shape: 32 832 7 7 (1304576)
I1130 08:30:07.911631 30089 net.cpp:137] Memory required for data: 1671864704
I1130 08:30:07.911635 30089 layer_factory.hpp:77] Creating layer pool4/3x3_s2_pool4/3x3_s2_0_split
I1130 08:30:07.911641 30089 net.cpp:84] Creating Layer pool4/3x3_s2_pool4/3x3_s2_0_split
I1130 08:30:07.911646 30089 net.cpp:406] pool4/3x3_s2_pool4/3x3_s2_0_split <- pool4/3x3_s2
I1130 08:30:07.911653 30089 net.cpp:380] pool4/3x3_s2_pool4/3x3_s2_0_split -> pool4/3x3_s2_pool4/3x3_s2_0_split_0
I1130 08:30:07.911664 30089 net.cpp:380] pool4/3x3_s2_pool4/3x3_s2_0_split -> pool4/3x3_s2_pool4/3x3_s2_0_split_1
I1130 08:30:07.911671 30089 net.cpp:380] pool4/3x3_s2_pool4/3x3_s2_0_split -> pool4/3x3_s2_pool4/3x3_s2_0_split_2
I1130 08:30:07.911679 30089 net.cpp:380] pool4/3x3_s2_pool4/3x3_s2_0_split -> pool4/3x3_s2_pool4/3x3_s2_0_split_3
I1130 08:30:07.911731 30089 net.cpp:122] Setting up pool4/3x3_s2_pool4/3x3_s2_0_split
I1130 08:30:07.911738 30089 net.cpp:129] Top shape: 32 832 7 7 (1304576)
I1130 08:30:07.911744 30089 net.cpp:129] Top shape: 32 832 7 7 (1304576)
I1130 08:30:07.911749 30089 net.cpp:129] Top shape: 32 832 7 7 (1304576)
I1130 08:30:07.911754 30089 net.cpp:129] Top shape: 32 832 7 7 (1304576)
I1130 08:30:07.911758 30089 net.cpp:137] Memory required for data: 1692737920
I1130 08:30:07.911763 30089 layer_factory.hpp:77] Creating layer inception_5a/1x1
I1130 08:30:07.911773 30089 net.cpp:84] Creating Layer inception_5a/1x1
I1130 08:30:07.911778 30089 net.cpp:406] inception_5a/1x1 <- pool4/3x3_s2_pool4/3x3_s2_0_split_0
I1130 08:30:07.911784 30089 net.cpp:380] inception_5a/1x1 -> inception_5a/1x1
I1130 08:30:07.913478 30089 net.cpp:122] Setting up inception_5a/1x1
I1130 08:30:07.913489 30089 net.cpp:129] Top shape: 32 256 7 7 (401408)
I1130 08:30:07.913494 30089 net.cpp:137] Memory required for data: 1694343552
I1130 08:30:07.913502 30089 layer_factory.hpp:77] Creating layer inception_5a/relu_1x1
I1130 08:30:07.913509 30089 net.cpp:84] Creating Layer inception_5a/relu_1x1
I1130 08:30:07.913516 30089 net.cpp:406] inception_5a/relu_1x1 <- inception_5a/1x1
I1130 08:30:07.913522 30089 net.cpp:367] inception_5a/relu_1x1 -> inception_5a/1x1 (in-place)
I1130 08:30:07.913528 30089 net.cpp:122] Setting up inception_5a/relu_1x1
I1130 08:30:07.913534 30089 net.cpp:129] Top shape: 32 256 7 7 (401408)
I1130 08:30:07.913538 30089 net.cpp:137] Memory required for data: 1695949184
I1130 08:30:07.913543 30089 layer_factory.hpp:77] Creating layer inception_5a/3x3_reduce
I1130 08:30:07.913552 30089 net.cpp:84] Creating Layer inception_5a/3x3_reduce
I1130 08:30:07.913558 30089 net.cpp:406] inception_5a/3x3_reduce <- pool4/3x3_s2_pool4/3x3_s2_0_split_1
I1130 08:30:07.913565 30089 net.cpp:380] inception_5a/3x3_reduce -> inception_5a/3x3_reduce
I1130 08:30:07.914845 30089 net.cpp:122] Setting up inception_5a/3x3_reduce
I1130 08:30:07.914856 30089 net.cpp:129] Top shape: 32 160 7 7 (250880)
I1130 08:30:07.914860 30089 net.cpp:137] Memory required for data: 1696952704
I1130 08:30:07.914866 30089 layer_factory.hpp:77] Creating layer inception_5a/relu_3x3_reduce
I1130 08:30:07.914873 30089 net.cpp:84] Creating Layer inception_5a/relu_3x3_reduce
I1130 08:30:07.914880 30089 net.cpp:406] inception_5a/relu_3x3_reduce <- inception_5a/3x3_reduce
I1130 08:30:07.914885 30089 net.cpp:367] inception_5a/relu_3x3_reduce -> inception_5a/3x3_reduce (in-place)
I1130 08:30:07.914892 30089 net.cpp:122] Setting up inception_5a/relu_3x3_reduce
I1130 08:30:07.914898 30089 net.cpp:129] Top shape: 32 160 7 7 (250880)
I1130 08:30:07.914903 30089 net.cpp:137] Memory required for data: 1697956224
I1130 08:30:07.914906 30089 layer_factory.hpp:77] Creating layer inception_5a/3x3
I1130 08:30:07.914916 30089 net.cpp:84] Creating Layer inception_5a/3x3
I1130 08:30:07.914921 30089 net.cpp:406] inception_5a/3x3 <- inception_5a/3x3_reduce
I1130 08:30:07.914929 30089 net.cpp:380] inception_5a/3x3 -> inception_5a/3x3
I1130 08:30:07.918136 30089 net.cpp:122] Setting up inception_5a/3x3
I1130 08:30:07.918148 30089 net.cpp:129] Top shape: 32 320 7 7 (501760)
I1130 08:30:07.918153 30089 net.cpp:137] Memory required for data: 1699963264
I1130 08:30:07.918160 30089 layer_factory.hpp:77] Creating layer inception_5a/relu_3x3
I1130 08:30:07.918167 30089 net.cpp:84] Creating Layer inception_5a/relu_3x3
I1130 08:30:07.918172 30089 net.cpp:406] inception_5a/relu_3x3 <- inception_5a/3x3
I1130 08:30:07.918179 30089 net.cpp:367] inception_5a/relu_3x3 -> inception_5a/3x3 (in-place)
I1130 08:30:07.918187 30089 net.cpp:122] Setting up inception_5a/relu_3x3
I1130 08:30:07.918193 30089 net.cpp:129] Top shape: 32 320 7 7 (501760)
I1130 08:30:07.918196 30089 net.cpp:137] Memory required for data: 1701970304
I1130 08:30:07.918201 30089 layer_factory.hpp:77] Creating layer inception_5a/5x5_reduce
I1130 08:30:07.918210 30089 net.cpp:84] Creating Layer inception_5a/5x5_reduce
I1130 08:30:07.918216 30089 net.cpp:406] inception_5a/5x5_reduce <- pool4/3x3_s2_pool4/3x3_s2_0_split_2
I1130 08:30:07.918223 30089 net.cpp:380] inception_5a/5x5_reduce -> inception_5a/5x5_reduce
I1130 08:30:07.918613 30089 net.cpp:122] Setting up inception_5a/5x5_reduce
I1130 08:30:07.918623 30089 net.cpp:129] Top shape: 32 32 7 7 (50176)
I1130 08:30:07.918628 30089 net.cpp:137] Memory required for data: 1702171008
I1130 08:30:07.918635 30089 layer_factory.hpp:77] Creating layer inception_5a/relu_5x5_reduce
I1130 08:30:07.918643 30089 net.cpp:84] Creating Layer inception_5a/relu_5x5_reduce
I1130 08:30:07.918649 30089 net.cpp:406] inception_5a/relu_5x5_reduce <- inception_5a/5x5_reduce
I1130 08:30:07.918655 30089 net.cpp:367] inception_5a/relu_5x5_reduce -> inception_5a/5x5_reduce (in-place)
I1130 08:30:07.918661 30089 net.cpp:122] Setting up inception_5a/relu_5x5_reduce
I1130 08:30:07.918668 30089 net.cpp:129] Top shape: 32 32 7 7 (50176)
I1130 08:30:07.918673 30089 net.cpp:137] Memory required for data: 1702371712
I1130 08:30:07.918678 30089 layer_factory.hpp:77] Creating layer inception_5a/5x5
I1130 08:30:07.918699 30089 net.cpp:84] Creating Layer inception_5a/5x5
I1130 08:30:07.918705 30089 net.cpp:406] inception_5a/5x5 <- inception_5a/5x5_reduce
I1130 08:30:07.918711 30089 net.cpp:380] inception_5a/5x5 -> inception_5a/5x5
I1130 08:30:07.919802 30089 net.cpp:122] Setting up inception_5a/5x5
I1130 08:30:07.919812 30089 net.cpp:129] Top shape: 32 128 7 7 (200704)
I1130 08:30:07.919817 30089 net.cpp:137] Memory required for data: 1703174528
I1130 08:30:07.919824 30089 layer_factory.hpp:77] Creating layer inception_5a/relu_5x5
I1130 08:30:07.919831 30089 net.cpp:84] Creating Layer inception_5a/relu_5x5
I1130 08:30:07.919837 30089 net.cpp:406] inception_5a/relu_5x5 <- inception_5a/5x5
I1130 08:30:07.919843 30089 net.cpp:367] inception_5a/relu_5x5 -> inception_5a/5x5 (in-place)
I1130 08:30:07.919850 30089 net.cpp:122] Setting up inception_5a/relu_5x5
I1130 08:30:07.919855 30089 net.cpp:129] Top shape: 32 128 7 7 (200704)
I1130 08:30:07.919860 30089 net.cpp:137] Memory required for data: 1703977344
I1130 08:30:07.919863 30089 layer_factory.hpp:77] Creating layer inception_5a/pool
I1130 08:30:07.919872 30089 net.cpp:84] Creating Layer inception_5a/pool
I1130 08:30:07.919878 30089 net.cpp:406] inception_5a/pool <- pool4/3x3_s2_pool4/3x3_s2_0_split_3
I1130 08:30:07.919883 30089 net.cpp:380] inception_5a/pool -> inception_5a/pool
I1130 08:30:07.919919 30089 net.cpp:122] Setting up inception_5a/pool
I1130 08:30:07.919926 30089 net.cpp:129] Top shape: 32 832 7 7 (1304576)
I1130 08:30:07.919931 30089 net.cpp:137] Memory required for data: 1709195648
I1130 08:30:07.919934 30089 layer_factory.hpp:77] Creating layer inception_5a/pool_proj
I1130 08:30:07.919945 30089 net.cpp:84] Creating Layer inception_5a/pool_proj
I1130 08:30:07.919951 30089 net.cpp:406] inception_5a/pool_proj <- inception_5a/pool
I1130 08:30:07.919958 30089 net.cpp:380] inception_5a/pool_proj -> inception_5a/pool_proj
I1130 08:30:07.921020 30089 net.cpp:122] Setting up inception_5a/pool_proj
I1130 08:30:07.921031 30089 net.cpp:129] Top shape: 32 128 7 7 (200704)
I1130 08:30:07.921036 30089 net.cpp:137] Memory required for data: 1709998464
I1130 08:30:07.921042 30089 layer_factory.hpp:77] Creating layer inception_5a/relu_pool_proj
I1130 08:30:07.921049 30089 net.cpp:84] Creating Layer inception_5a/relu_pool_proj
I1130 08:30:07.921056 30089 net.cpp:406] inception_5a/relu_pool_proj <- inception_5a/pool_proj
I1130 08:30:07.921061 30089 net.cpp:367] inception_5a/relu_pool_proj -> inception_5a/pool_proj (in-place)
I1130 08:30:07.921068 30089 net.cpp:122] Setting up inception_5a/relu_pool_proj
I1130 08:30:07.921073 30089 net.cpp:129] Top shape: 32 128 7 7 (200704)
I1130 08:30:07.921078 30089 net.cpp:137] Memory required for data: 1710801280
I1130 08:30:07.921082 30089 layer_factory.hpp:77] Creating layer inception_5a/output
I1130 08:30:07.921089 30089 net.cpp:84] Creating Layer inception_5a/output
I1130 08:30:07.921095 30089 net.cpp:406] inception_5a/output <- inception_5a/1x1
I1130 08:30:07.921100 30089 net.cpp:406] inception_5a/output <- inception_5a/3x3
I1130 08:30:07.921105 30089 net.cpp:406] inception_5a/output <- inception_5a/5x5
I1130 08:30:07.921111 30089 net.cpp:406] inception_5a/output <- inception_5a/pool_proj
I1130 08:30:07.921116 30089 net.cpp:380] inception_5a/output -> inception_5a/output
I1130 08:30:07.921141 30089 net.cpp:122] Setting up inception_5a/output
I1130 08:30:07.921149 30089 net.cpp:129] Top shape: 32 832 7 7 (1304576)
I1130 08:30:07.921152 30089 net.cpp:137] Memory required for data: 1716019584
I1130 08:30:07.921156 30089 layer_factory.hpp:77] Creating layer inception_5a/output_inception_5a/output_0_split
I1130 08:30:07.921164 30089 net.cpp:84] Creating Layer inception_5a/output_inception_5a/output_0_split
I1130 08:30:07.921169 30089 net.cpp:406] inception_5a/output_inception_5a/output_0_split <- inception_5a/output
I1130 08:30:07.921175 30089 net.cpp:380] inception_5a/output_inception_5a/output_0_split -> inception_5a/output_inception_5a/output_0_split_0
I1130 08:30:07.921182 30089 net.cpp:380] inception_5a/output_inception_5a/output_0_split -> inception_5a/output_inception_5a/output_0_split_1
I1130 08:30:07.921190 30089 net.cpp:380] inception_5a/output_inception_5a/output_0_split -> inception_5a/output_inception_5a/output_0_split_2
I1130 08:30:07.921196 30089 net.cpp:380] inception_5a/output_inception_5a/output_0_split -> inception_5a/output_inception_5a/output_0_split_3
I1130 08:30:07.921244 30089 net.cpp:122] Setting up inception_5a/output_inception_5a/output_0_split
I1130 08:30:07.921252 30089 net.cpp:129] Top shape: 32 832 7 7 (1304576)
I1130 08:30:07.921258 30089 net.cpp:129] Top shape: 32 832 7 7 (1304576)
I1130 08:30:07.921263 30089 net.cpp:129] Top shape: 32 832 7 7 (1304576)
I1130 08:30:07.921268 30089 net.cpp:129] Top shape: 32 832 7 7 (1304576)
I1130 08:30:07.921273 30089 net.cpp:137] Memory required for data: 1736892800
I1130 08:30:07.921277 30089 layer_factory.hpp:77] Creating layer inception_5b/1x1
I1130 08:30:07.921288 30089 net.cpp:84] Creating Layer inception_5b/1x1
I1130 08:30:07.921293 30089 net.cpp:406] inception_5b/1x1 <- inception_5a/output_inception_5a/output_0_split_0
I1130 08:30:07.921299 30089 net.cpp:380] inception_5b/1x1 -> inception_5b/1x1
I1130 08:30:07.923573 30089 net.cpp:122] Setting up inception_5b/1x1
I1130 08:30:07.923584 30089 net.cpp:129] Top shape: 32 384 7 7 (602112)
I1130 08:30:07.923588 30089 net.cpp:137] Memory required for data: 1739301248
I1130 08:30:07.923595 30089 layer_factory.hpp:77] Creating layer inception_5b/relu_1x1
I1130 08:30:07.923602 30089 net.cpp:84] Creating Layer inception_5b/relu_1x1
I1130 08:30:07.923609 30089 net.cpp:406] inception_5b/relu_1x1 <- inception_5b/1x1
I1130 08:30:07.923616 30089 net.cpp:367] inception_5b/relu_1x1 -> inception_5b/1x1 (in-place)
I1130 08:30:07.923624 30089 net.cpp:122] Setting up inception_5b/relu_1x1
I1130 08:30:07.923629 30089 net.cpp:129] Top shape: 32 384 7 7 (602112)
I1130 08:30:07.923635 30089 net.cpp:137] Memory required for data: 1741709696
I1130 08:30:07.923638 30089 layer_factory.hpp:77] Creating layer inception_5b/3x3_reduce
I1130 08:30:07.923645 30089 net.cpp:84] Creating Layer inception_5b/3x3_reduce
I1130 08:30:07.923651 30089 net.cpp:406] inception_5b/3x3_reduce <- inception_5a/output_inception_5a/output_0_split_1
I1130 08:30:07.923658 30089 net.cpp:380] inception_5b/3x3_reduce -> inception_5b/3x3_reduce
I1130 08:30:07.925017 30089 net.cpp:122] Setting up inception_5b/3x3_reduce
I1130 08:30:07.925027 30089 net.cpp:129] Top shape: 32 192 7 7 (301056)
I1130 08:30:07.925031 30089 net.cpp:137] Memory required for data: 1742913920
I1130 08:30:07.925038 30089 layer_factory.hpp:77] Creating layer inception_5b/relu_3x3_reduce
I1130 08:30:07.925045 30089 net.cpp:84] Creating Layer inception_5b/relu_3x3_reduce
I1130 08:30:07.925051 30089 net.cpp:406] inception_5b/relu_3x3_reduce <- inception_5b/3x3_reduce
I1130 08:30:07.925060 30089 net.cpp:367] inception_5b/relu_3x3_reduce -> inception_5b/3x3_reduce (in-place)
I1130 08:30:07.925066 30089 net.cpp:122] Setting up inception_5b/relu_3x3_reduce
I1130 08:30:07.925071 30089 net.cpp:129] Top shape: 32 192 7 7 (301056)
I1130 08:30:07.925077 30089 net.cpp:137] Memory required for data: 1744118144
I1130 08:30:07.925081 30089 layer_factory.hpp:77] Creating layer inception_5b/3x3
I1130 08:30:07.925091 30089 net.cpp:84] Creating Layer inception_5b/3x3
I1130 08:30:07.925094 30089 net.cpp:406] inception_5b/3x3 <- inception_5b/3x3_reduce
I1130 08:30:07.925101 30089 net.cpp:380] inception_5b/3x3 -> inception_5b/3x3
I1130 08:30:07.929453 30089 net.cpp:122] Setting up inception_5b/3x3
I1130 08:30:07.929466 30089 net.cpp:129] Top shape: 32 384 7 7 (602112)
I1130 08:30:07.929469 30089 net.cpp:137] Memory required for data: 1746526592
I1130 08:30:07.929477 30089 layer_factory.hpp:77] Creating layer inception_5b/relu_3x3
I1130 08:30:07.929486 30089 net.cpp:84] Creating Layer inception_5b/relu_3x3
I1130 08:30:07.929492 30089 net.cpp:406] inception_5b/relu_3x3 <- inception_5b/3x3
I1130 08:30:07.929499 30089 net.cpp:367] inception_5b/relu_3x3 -> inception_5b/3x3 (in-place)
I1130 08:30:07.929507 30089 net.cpp:122] Setting up inception_5b/relu_3x3
I1130 08:30:07.929513 30089 net.cpp:129] Top shape: 32 384 7 7 (602112)
I1130 08:30:07.929517 30089 net.cpp:137] Memory required for data: 1748935040
I1130 08:30:07.929522 30089 layer_factory.hpp:77] Creating layer inception_5b/5x5_reduce
I1130 08:30:07.929530 30089 net.cpp:84] Creating Layer inception_5b/5x5_reduce
I1130 08:30:07.929536 30089 net.cpp:406] inception_5b/5x5_reduce <- inception_5a/output_inception_5a/output_0_split_2
I1130 08:30:07.929544 30089 net.cpp:380] inception_5b/5x5_reduce -> inception_5b/5x5_reduce
I1130 08:30:07.929952 30089 net.cpp:122] Setting up inception_5b/5x5_reduce
I1130 08:30:07.929961 30089 net.cpp:129] Top shape: 32 48 7 7 (75264)
I1130 08:30:07.929966 30089 net.cpp:137] Memory required for data: 1749236096
I1130 08:30:07.929973 30089 layer_factory.hpp:77] Creating layer inception_5b/relu_5x5_reduce
I1130 08:30:07.929980 30089 net.cpp:84] Creating Layer inception_5b/relu_5x5_reduce
I1130 08:30:07.929986 30089 net.cpp:406] inception_5b/relu_5x5_reduce <- inception_5b/5x5_reduce
I1130 08:30:07.929991 30089 net.cpp:367] inception_5b/relu_5x5_reduce -> inception_5b/5x5_reduce (in-place)
I1130 08:30:07.929997 30089 net.cpp:122] Setting up inception_5b/relu_5x5_reduce
I1130 08:30:07.930003 30089 net.cpp:129] Top shape: 32 48 7 7 (75264)
I1130 08:30:07.930008 30089 net.cpp:137] Memory required for data: 1749537152
I1130 08:30:07.930012 30089 layer_factory.hpp:77] Creating layer inception_5b/5x5
I1130 08:30:07.930022 30089 net.cpp:84] Creating Layer inception_5b/5x5
I1130 08:30:07.930027 30089 net.cpp:406] inception_5b/5x5 <- inception_5b/5x5_reduce
I1130 08:30:07.930037 30089 net.cpp:380] inception_5b/5x5 -> inception_5b/5x5
I1130 08:30:07.931064 30089 net.cpp:122] Setting up inception_5b/5x5
I1130 08:30:07.931073 30089 net.cpp:129] Top shape: 32 128 7 7 (200704)
I1130 08:30:07.931078 30089 net.cpp:137] Memory required for data: 1750339968
I1130 08:30:07.931084 30089 layer_factory.hpp:77] Creating layer inception_5b/relu_5x5
I1130 08:30:07.931118 30089 net.cpp:84] Creating Layer inception_5b/relu_5x5
I1130 08:30:07.931124 30089 net.cpp:406] inception_5b/relu_5x5 <- inception_5b/5x5
I1130 08:30:07.931130 30089 net.cpp:367] inception_5b/relu_5x5 -> inception_5b/5x5 (in-place)
I1130 08:30:07.931138 30089 net.cpp:122] Setting up inception_5b/relu_5x5
I1130 08:30:07.931144 30089 net.cpp:129] Top shape: 32 128 7 7 (200704)
I1130 08:30:07.931149 30089 net.cpp:137] Memory required for data: 1751142784
I1130 08:30:07.931154 30089 layer_factory.hpp:77] Creating layer inception_5b/pool
I1130 08:30:07.931159 30089 net.cpp:84] Creating Layer inception_5b/pool
I1130 08:30:07.931164 30089 net.cpp:406] inception_5b/pool <- inception_5a/output_inception_5a/output_0_split_3
I1130 08:30:07.931171 30089 net.cpp:380] inception_5b/pool -> inception_5b/pool
I1130 08:30:07.931207 30089 net.cpp:122] Setting up inception_5b/pool
I1130 08:30:07.931215 30089 net.cpp:129] Top shape: 32 832 7 7 (1304576)
I1130 08:30:07.931218 30089 net.cpp:137] Memory required for data: 1756361088
I1130 08:30:07.931223 30089 layer_factory.hpp:77] Creating layer inception_5b/pool_proj
I1130 08:30:07.931233 30089 net.cpp:84] Creating Layer inception_5b/pool_proj
I1130 08:30:07.931239 30089 net.cpp:406] inception_5b/pool_proj <- inception_5b/pool
I1130 08:30:07.931246 30089 net.cpp:380] inception_5b/pool_proj -> inception_5b/pool_proj
I1130 08:30:07.932327 30089 net.cpp:122] Setting up inception_5b/pool_proj
I1130 08:30:07.932337 30089 net.cpp:129] Top shape: 32 128 7 7 (200704)
I1130 08:30:07.932341 30089 net.cpp:137] Memory required for data: 1757163904
I1130 08:30:07.932349 30089 layer_factory.hpp:77] Creating layer inception_5b/relu_pool_proj
I1130 08:30:07.932356 30089 net.cpp:84] Creating Layer inception_5b/relu_pool_proj
I1130 08:30:07.932363 30089 net.cpp:406] inception_5b/relu_pool_proj <- inception_5b/pool_proj
I1130 08:30:07.932369 30089 net.cpp:367] inception_5b/relu_pool_proj -> inception_5b/pool_proj (in-place)
I1130 08:30:07.932379 30089 net.cpp:122] Setting up inception_5b/relu_pool_proj
I1130 08:30:07.932384 30089 net.cpp:129] Top shape: 32 128 7 7 (200704)
I1130 08:30:07.932390 30089 net.cpp:137] Memory required for data: 1757966720
I1130 08:30:07.932394 30089 layer_factory.hpp:77] Creating layer inception_5b/output
I1130 08:30:07.932404 30089 net.cpp:84] Creating Layer inception_5b/output
I1130 08:30:07.932409 30089 net.cpp:406] inception_5b/output <- inception_5b/1x1
I1130 08:30:07.932413 30089 net.cpp:406] inception_5b/output <- inception_5b/3x3
I1130 08:30:07.932420 30089 net.cpp:406] inception_5b/output <- inception_5b/5x5
I1130 08:30:07.932425 30089 net.cpp:406] inception_5b/output <- inception_5b/pool_proj
I1130 08:30:07.932432 30089 net.cpp:380] inception_5b/output -> inception_5b/output
I1130 08:30:07.932456 30089 net.cpp:122] Setting up inception_5b/output
I1130 08:30:07.932466 30089 net.cpp:129] Top shape: 32 1024 7 7 (1605632)
I1130 08:30:07.932471 30089 net.cpp:137] Memory required for data: 1764389248
I1130 08:30:07.932476 30089 layer_factory.hpp:77] Creating layer pool5/7x7_s1
I1130 08:30:07.932484 30089 net.cpp:84] Creating Layer pool5/7x7_s1
I1130 08:30:07.932489 30089 net.cpp:406] pool5/7x7_s1 <- inception_5b/output
I1130 08:30:07.932497 30089 net.cpp:380] pool5/7x7_s1 -> pool5/7x7_s1
I1130 08:30:07.932518 30089 net.cpp:122] Setting up pool5/7x7_s1
I1130 08:30:07.932528 30089 net.cpp:129] Top shape: 32 1024 1 1 (32768)
I1130 08:30:07.932533 30089 net.cpp:137] Memory required for data: 1764520320
I1130 08:30:07.932538 30089 layer_factory.hpp:77] Creating layer pool5/drop_7x7_s1
I1130 08:30:07.932545 30089 net.cpp:84] Creating Layer pool5/drop_7x7_s1
I1130 08:30:07.932552 30089 net.cpp:406] pool5/drop_7x7_s1 <- pool5/7x7_s1
I1130 08:30:07.932557 30089 net.cpp:367] pool5/drop_7x7_s1 -> pool5/7x7_s1 (in-place)
I1130 08:30:07.932580 30089 net.cpp:122] Setting up pool5/drop_7x7_s1
I1130 08:30:07.932587 30089 net.cpp:129] Top shape: 32 1024 1 1 (32768)
I1130 08:30:07.932592 30089 net.cpp:137] Memory required for data: 1764651392
I1130 08:30:07.932598 30089 layer_factory.hpp:77] Creating layer fc_scv_happy
I1130 08:30:07.932607 30089 net.cpp:84] Creating Layer fc_scv_happy
I1130 08:30:07.932613 30089 net.cpp:406] fc_scv_happy <- pool5/7x7_s1
I1130 08:30:07.932621 30089 net.cpp:380] fc_scv_happy -> fc_scv_happy
I1130 08:30:07.932713 30089 net.cpp:122] Setting up fc_scv_happy
I1130 08:30:07.932723 30089 net.cpp:129] Top shape: 32 1 (32)
I1130 08:30:07.932730 30089 net.cpp:137] Memory required for data: 1764651520
I1130 08:30:07.932739 30089 layer_factory.hpp:77] Creating layer fc_scv_happy_fc_scv_happy_0_split
I1130 08:30:07.932745 30089 net.cpp:84] Creating Layer fc_scv_happy_fc_scv_happy_0_split
I1130 08:30:07.932751 30089 net.cpp:406] fc_scv_happy_fc_scv_happy_0_split <- fc_scv_happy
I1130 08:30:07.932757 30089 net.cpp:380] fc_scv_happy_fc_scv_happy_0_split -> fc_scv_happy_fc_scv_happy_0_split_0
I1130 08:30:07.932767 30089 net.cpp:380] fc_scv_happy_fc_scv_happy_0_split -> fc_scv_happy_fc_scv_happy_0_split_1
I1130 08:30:07.932801 30089 net.cpp:122] Setting up fc_scv_happy_fc_scv_happy_0_split
I1130 08:30:07.932808 30089 net.cpp:129] Top shape: 32 1 (32)
I1130 08:30:07.932814 30089 net.cpp:129] Top shape: 32 1 (32)
I1130 08:30:07.932821 30089 net.cpp:137] Memory required for data: 1764651776
I1130 08:30:07.932824 30089 layer_factory.hpp:77] Creating layer loss
I1130 08:30:07.932832 30089 net.cpp:84] Creating Layer loss
I1130 08:30:07.932838 30089 net.cpp:406] loss <- fc_scv_happy_fc_scv_happy_0_split_0
I1130 08:30:07.932845 30089 net.cpp:406] loss <- label_data_1_split_0
I1130 08:30:07.932852 30089 net.cpp:380] loss -> loss
…
