…
I1130 17:54:36.770372 29383 net.cpp:294] The NetState phase (0) differed from the phase (1) specified by a rule in layer losttest
I1130 17:54:36.770524 29383 net.cpp:51] Initializing net from parameters: 
name: "CaffeNet-Places365-SCV-Accessible"
state {
  phase: TRAIN
  level: 0
  stage: ""
}
layer {
  name: "data"
  type: "Data"
  top: "data"
  top: "label"
  include {
    phase: TRAIN
  }
  transform_param {
    mirror: true
    crop_size: 227
    mean_file: "/idiap/temp/lmedina/fine-tuning/alexnet_places365/places365CNN_mean.binaryproto"
  }
  data_param {
    source: "/idiap/temp/lmedina/fine-tuning/data/Accessible/train_lmdb"
    batch_size: 32
    backend: LMDB
  }
}
layer {
  name: "conv1"
  type: "Convolution"
  bottom: "data"
  top: "conv1"
  param {
    lr_mult: 1
    decay_mult: 1
  }
  param {
    lr_mult: 2
    decay_mult: 0
  }
  convolution_param {
    num_output: 96
    kernel_size: 11
    stride: 4
    weight_filler {
      type: "gaussian"
      std: 0.01
    }
    bias_filler {
      type: "constant"
      value: 0
    }
  }
}
layer {
  name: "relu1"
  type: "ReLU"
  bottom: "conv1"
  top: "conv1"
}
layer {
  name: "pool1"
  type: "Pooling"
  bottom: "conv1"
  top: "pool1"
  pooling_param {
    pool: MAX
    kernel_size: 3
    stride: 2
  }
}
layer {
  name: "norm1"
  type: "LRN"
  bottom: "pool1"
  top: "norm1"
  lrn_param {
    local_size: 5
    alpha: 0.0001
    beta: 0.75
  }
}
layer {
  name: "conv2"
  type: "Convolution"
  bottom: "norm1"
  top: "conv2"
  param {
    lr_mult: 1
    decay_mult: 1
  }
  param {
    lr_mult: 2
    decay_mult: 0
  }
  convolution_param {
    num_output: 256
    pad: 2
    kernel_size: 5
    group: 2
    weight_filler {
      type: "gaussian"
      std: 0.01
    }
    bias_filler {
      type: "constant"
      value: 1
    }
  }
}
layer {
  name: "relu2"
  type: "ReLU"
  bottom: "conv2"
  top: "conv2"
}
layer {
  name: "pool2"
  type: "Pooling"
  bottom: "conv2"
  top: "pool2"
  pooling_param {
    pool: MAX
    kernel_size: 3
    stride: 2
  }
}
layer {
  name: "norm2"
  type: "LRN"
  bottom: "pool2"
  top: "norm2"
  lrn_param {
    local_size: 5
    alpha: 0.0001
    beta: 0.75
  }
}
layer {
  name: "conv3"
  type: "Convolution"
  bottom: "norm2"
  top: "conv3"
  param {
    lr_mult: 1
    decay_mult: 1
  }
  param {
    lr_mult: 2
    decay_mult: 0
  }
  convolution_param {
    num_output: 384
    pad: 1
    kernel_size: 3
    weight_filler {
      type: "gaussian"
      std: 0.01
    }
    bias_filler {
      type: "constant"
      value: 0
    }
  }
}
layer {
  name: "relu3"
  type: "ReLU"
  bottom: "conv3"
  top: "conv3"
}
layer {
  name: "conv4"
  type: "Convolution"
  bottom: "conv3"
  top: "conv4"
  param {
    lr_mult: 1
    decay_mult: 1
  }
  param {
    lr_mult: 2
    decay_mult: 0
  }
  convolution_param {
    num_output: 384
    pad: 1
    kernel_size: 3
    group: 2
    weight_filler {
      type: "gaussian"
      std: 0.01
    }
    bias_filler {
      type: "constant"
      value: 1
    }
  }
}
layer {
  name: "relu4"
  type: "ReLU"
  bottom: "conv4"
  top: "conv4"
}
layer {
  name: "conv5"
  type: "Convolution"
  bottom: "conv4"
  top: "conv5"
  param {
    lr_mult: 1
    decay_mult: 1
  }
  param {
    lr_mult: 2
    decay_mult: 0
  }
  convolution_param {
    num_output: 256
    pad: 1
    kernel_size: 3
    group: 2
    weight_filler {
      type: "gaussian"
      std: 0.01
    }
    bias_filler {
      type: "constant"
      value: 1
    }
  }
}
layer {
  name: "relu5"
  type: "ReLU"
  bottom: "conv5"
  top: "conv5"
}
layer {
  name: "pool5"
  type: "Pooling"
  bottom: "conv5"
  top: "pool5"
  pooling_param {
    pool: MAX
    kernel_size: 3
    stride: 2
  }
}
layer {
  name: "fc6"
  type: "InnerProduct"
  bottom: "pool5"
  top: "fc6"
  param {
    lr_mult: 1
    decay_mult: 1
  }
  param {
    lr_mult: 2
    decay_mult: 0
  }
  inner_product_param {
    num_output: 4096
    weight_filler {
      type: "gaussian"
      std: 0.005
    }
    bias_filler {
      type: "constant"
      value: 1
    }
  }
}
layer {
  name: "relu6"
  type: "ReLU"
  bottom: "fc6"
  top: "fc6"
}
layer {
  name: "drop6"
  type: "Dropout"
  bottom: "fc6"
  top: "fc6"
  dropout_param {
    dropout_ratio: 0.5
  }
}
layer {
  name: "fc7"
  type: "InnerProduct"
  bottom: "fc6"
  top: "fc7"
  param {
    lr_mult: 1
    decay_mult: 1
  }
  param {
    lr_mult: 2
    decay_mult: 0
  }
  inner_product_param {
    num_output: 4096
    weight_filler {
      type: "gaussian"
      std: 0.005
    }
    bias_filler {
      type: "constant"
      value: 1
    }
  }
}
layer {
  name: "relu7"
  type: "ReLU"
  bottom: "fc7"
  top: "fc7"
}
layer {
  name: "drop7"
  type: "Dropout"
  bottom: "fc7"
  top: "fc7"
  dropout_param {
    dropout_ratio: 0.5
  }
}
layer {
  name: "fc_scv_accessible"
  type: "InnerProduct"
  bottom: "fc7"
  top: "fc_scv_accessible"
  param {
    lr_mult: 10
    decay_mult: 1
  }
  param {
    lr_mult: 20
    decay_mult: 0
  }
  inner_product_param {
    num_output: 1
    weight_filler {
      type: "xavier"
      std: 0.01
    }
    bias_filler {
      type: "constant"
      value: 0
    }
  }
}
layer {
  name: "loss"
  type: "EuclideanLoss"
  bottom: "fc_scv_accessible"
  bottom: "label"
  top: "loss"
}
I1130 17:54:36.770615 29383 layer_factory.hpp:77] Creating layer data
I1130 17:54:36.796862 29383 db_lmdb.cpp:35] Opened lmdb /idiap/temp/lmedina/fine-tuning/data/Accessible/train_lmdb
I1130 17:54:36.807476 29383 net.cpp:84] Creating Layer data
I1130 17:54:36.807505 29383 net.cpp:380] data -> data
I1130 17:54:36.807529 29383 net.cpp:380] data -> label
I1130 17:54:36.807544 29383 data_transformer.cpp:25] Loading mean file from: /idiap/temp/lmedina/fine-tuning/alexnet_places365/places365CNN_mean.binaryproto
I1130 17:54:36.838513 29383 data_layer.cpp:45] output data size: 32,3,227,227
I1130 17:54:36.888056 29383 net.cpp:122] Setting up data
I1130 17:54:36.888103 29383 net.cpp:129] Top shape: 32 3 227 227 (4946784)
I1130 17:54:36.888113 29383 net.cpp:129] Top shape: 32 (32)
I1130 17:54:36.888119 29383 net.cpp:137] Memory required for data: 19787264
I1130 17:54:36.888134 29383 layer_factory.hpp:77] Creating layer conv1
I1130 17:54:36.888166 29383 net.cpp:84] Creating Layer conv1
I1130 17:54:36.888177 29383 net.cpp:406] conv1 <- data
I1130 17:54:36.888197 29383 net.cpp:380] conv1 -> conv1
I1130 17:54:36.890004 29383 net.cpp:122] Setting up conv1
I1130 17:54:36.890022 29383 net.cpp:129] Top shape: 32 96 55 55 (9292800)
I1130 17:54:36.890028 29383 net.cpp:137] Memory required for data: 56958464
I1130 17:54:36.890049 29383 layer_factory.hpp:77] Creating layer relu1
I1130 17:54:36.890063 29383 net.cpp:84] Creating Layer relu1
I1130 17:54:36.890072 29383 net.cpp:406] relu1 <- conv1
I1130 17:54:36.890081 29383 net.cpp:367] relu1 -> conv1 (in-place)
I1130 17:54:36.890096 29383 net.cpp:122] Setting up relu1
I1130 17:54:36.890107 29383 net.cpp:129] Top shape: 32 96 55 55 (9292800)
I1130 17:54:36.890116 29383 net.cpp:137] Memory required for data: 94129664
I1130 17:54:36.890122 29383 layer_factory.hpp:77] Creating layer pool1
I1130 17:54:36.890135 29383 net.cpp:84] Creating Layer pool1
I1130 17:54:36.890142 29383 net.cpp:406] pool1 <- conv1
I1130 17:54:36.890151 29383 net.cpp:380] pool1 -> pool1
I1130 17:54:36.891762 29383 net.cpp:122] Setting up pool1
I1130 17:54:36.891791 29383 net.cpp:129] Top shape: 32 96 27 27 (2239488)
I1130 17:54:36.891810 29383 net.cpp:137] Memory required for data: 103087616
I1130 17:54:36.891819 29383 layer_factory.hpp:77] Creating layer norm1
I1130 17:54:36.891834 29383 net.cpp:84] Creating Layer norm1
I1130 17:54:36.891844 29383 net.cpp:406] norm1 <- pool1
I1130 17:54:36.891854 29383 net.cpp:380] norm1 -> norm1
I1130 17:54:36.891906 29383 net.cpp:122] Setting up norm1
I1130 17:54:36.891918 29383 net.cpp:129] Top shape: 32 96 27 27 (2239488)
I1130 17:54:36.891926 29383 net.cpp:137] Memory required for data: 112045568
I1130 17:54:36.891932 29383 layer_factory.hpp:77] Creating layer conv2
I1130 17:54:36.891947 29383 net.cpp:84] Creating Layer conv2
I1130 17:54:36.891954 29383 net.cpp:406] conv2 <- norm1
I1130 17:54:36.891964 29383 net.cpp:380] conv2 -> conv2
I1130 17:54:36.897495 29383 net.cpp:122] Setting up conv2
I1130 17:54:36.897518 29383 net.cpp:129] Top shape: 32 256 27 27 (5971968)
I1130 17:54:36.897524 29383 net.cpp:137] Memory required for data: 135933440
I1130 17:54:36.897544 29383 layer_factory.hpp:77] Creating layer relu2
I1130 17:54:36.897558 29383 net.cpp:84] Creating Layer relu2
I1130 17:54:36.897567 29383 net.cpp:406] relu2 <- conv2
I1130 17:54:36.897578 29383 net.cpp:367] relu2 -> conv2 (in-place)
I1130 17:54:36.897590 29383 net.cpp:122] Setting up relu2
I1130 17:54:36.897599 29383 net.cpp:129] Top shape: 32 256 27 27 (5971968)
I1130 17:54:36.897608 29383 net.cpp:137] Memory required for data: 159821312
I1130 17:54:36.897614 29383 layer_factory.hpp:77] Creating layer pool2
I1130 17:54:36.897624 29383 net.cpp:84] Creating Layer pool2
I1130 17:54:36.897630 29383 net.cpp:406] pool2 <- conv2
I1130 17:54:36.897639 29383 net.cpp:380] pool2 -> pool2
I1130 17:54:36.897689 29383 net.cpp:122] Setting up pool2
I1130 17:54:36.897701 29383 net.cpp:129] Top shape: 32 256 13 13 (1384448)
I1130 17:54:36.897707 29383 net.cpp:137] Memory required for data: 165359104
I1130 17:54:36.897713 29383 layer_factory.hpp:77] Creating layer norm2
I1130 17:54:36.897727 29383 net.cpp:84] Creating Layer norm2
I1130 17:54:36.897734 29383 net.cpp:406] norm2 <- pool2
I1130 17:54:36.897743 29383 net.cpp:380] norm2 -> norm2
I1130 17:54:36.897784 29383 net.cpp:122] Setting up norm2
I1130 17:54:36.897795 29383 net.cpp:129] Top shape: 32 256 13 13 (1384448)
I1130 17:54:36.897800 29383 net.cpp:137] Memory required for data: 170896896
I1130 17:54:36.897809 29383 layer_factory.hpp:77] Creating layer conv3
I1130 17:54:36.897824 29383 net.cpp:84] Creating Layer conv3
I1130 17:54:36.897831 29383 net.cpp:406] conv3 <- norm2
I1130 17:54:36.897840 29383 net.cpp:380] conv3 -> conv3
I1130 17:54:36.910923 29383 net.cpp:122] Setting up conv3
I1130 17:54:36.910943 29383 net.cpp:129] Top shape: 32 384 13 13 (2076672)
I1130 17:54:36.910949 29383 net.cpp:137] Memory required for data: 179203584
I1130 17:54:36.910964 29383 layer_factory.hpp:77] Creating layer relu3
I1130 17:54:36.910974 29383 net.cpp:84] Creating Layer relu3
I1130 17:54:36.910981 29383 net.cpp:406] relu3 <- conv3
I1130 17:54:36.910990 29383 net.cpp:367] relu3 -> conv3 (in-place)
I1130 17:54:36.911000 29383 net.cpp:122] Setting up relu3
I1130 17:54:36.911008 29383 net.cpp:129] Top shape: 32 384 13 13 (2076672)
I1130 17:54:36.911013 29383 net.cpp:137] Memory required for data: 187510272
I1130 17:54:36.911020 29383 layer_factory.hpp:77] Creating layer conv4
I1130 17:54:36.911044 29383 net.cpp:84] Creating Layer conv4
I1130 17:54:36.911051 29383 net.cpp:406] conv4 <- conv3
I1130 17:54:36.911061 29383 net.cpp:380] conv4 -> conv4
I1130 17:54:36.919606 29383 net.cpp:122] Setting up conv4
I1130 17:54:36.919633 29383 net.cpp:129] Top shape: 32 384 13 13 (2076672)
I1130 17:54:36.919639 29383 net.cpp:137] Memory required for data: 195816960
I1130 17:54:36.919652 29383 layer_factory.hpp:77] Creating layer relu4
I1130 17:54:36.919667 29383 net.cpp:84] Creating Layer relu4
I1130 17:54:36.919675 29383 net.cpp:406] relu4 <- conv4
I1130 17:54:36.919685 29383 net.cpp:367] relu4 -> conv4 (in-place)
I1130 17:54:36.919703 29383 net.cpp:122] Setting up relu4
I1130 17:54:36.919713 29383 net.cpp:129] Top shape: 32 384 13 13 (2076672)
I1130 17:54:36.919719 29383 net.cpp:137] Memory required for data: 204123648
I1130 17:54:36.919725 29383 layer_factory.hpp:77] Creating layer conv5
I1130 17:54:36.919740 29383 net.cpp:84] Creating Layer conv5
I1130 17:54:36.919746 29383 net.cpp:406] conv5 <- conv4
I1130 17:54:36.919755 29383 net.cpp:380] conv5 -> conv5
I1130 17:54:36.925458 29383 net.cpp:122] Setting up conv5
I1130 17:54:36.925475 29383 net.cpp:129] Top shape: 32 256 13 13 (1384448)
I1130 17:54:36.925479 29383 net.cpp:137] Memory required for data: 209661440
I1130 17:54:36.925494 29383 layer_factory.hpp:77] Creating layer relu5
I1130 17:54:36.925504 29383 net.cpp:84] Creating Layer relu5
I1130 17:54:36.925511 29383 net.cpp:406] relu5 <- conv5
I1130 17:54:36.925518 29383 net.cpp:367] relu5 -> conv5 (in-place)
I1130 17:54:36.925529 29383 net.cpp:122] Setting up relu5
I1130 17:54:36.925535 29383 net.cpp:129] Top shape: 32 256 13 13 (1384448)
I1130 17:54:36.925554 29383 net.cpp:137] Memory required for data: 215199232
I1130 17:54:36.925559 29383 layer_factory.hpp:77] Creating layer pool5
I1130 17:54:36.925568 29383 net.cpp:84] Creating Layer pool5
I1130 17:54:36.925575 29383 net.cpp:406] pool5 <- conv5
I1130 17:54:36.925585 29383 net.cpp:380] pool5 -> pool5
I1130 17:54:36.925627 29383 net.cpp:122] Setting up pool5
I1130 17:54:36.925637 29383 net.cpp:129] Top shape: 32 256 6 6 (294912)
I1130 17:54:36.925644 29383 net.cpp:137] Memory required for data: 216378880
I1130 17:54:36.925649 29383 layer_factory.hpp:77] Creating layer fc6
I1130 17:54:36.925667 29383 net.cpp:84] Creating Layer fc6
I1130 17:54:36.925673 29383 net.cpp:406] fc6 <- pool5
I1130 17:54:36.925681 29383 net.cpp:380] fc6 -> fc6
I1130 17:54:37.280999 29383 net.cpp:122] Setting up fc6
I1130 17:54:37.281033 29383 net.cpp:129] Top shape: 32 4096 (131072)
I1130 17:54:37.281038 29383 net.cpp:137] Memory required for data: 216903168
I1130 17:54:37.281049 29383 layer_factory.hpp:77] Creating layer relu6
I1130 17:54:37.281060 29383 net.cpp:84] Creating Layer relu6
I1130 17:54:37.281066 29383 net.cpp:406] relu6 <- fc6
I1130 17:54:37.281075 29383 net.cpp:367] relu6 -> fc6 (in-place)
I1130 17:54:37.281085 29383 net.cpp:122] Setting up relu6
I1130 17:54:37.281091 29383 net.cpp:129] Top shape: 32 4096 (131072)
I1130 17:54:37.281096 29383 net.cpp:137] Memory required for data: 217427456
I1130 17:54:37.281101 29383 layer_factory.hpp:77] Creating layer drop6
I1130 17:54:37.281111 29383 net.cpp:84] Creating Layer drop6
I1130 17:54:37.281117 29383 net.cpp:406] drop6 <- fc6
I1130 17:54:37.281122 29383 net.cpp:367] drop6 -> fc6 (in-place)
I1130 17:54:37.281149 29383 net.cpp:122] Setting up drop6
I1130 17:54:37.281157 29383 net.cpp:129] Top shape: 32 4096 (131072)
I1130 17:54:37.281160 29383 net.cpp:137] Memory required for data: 217951744
I1130 17:54:37.281165 29383 layer_factory.hpp:77] Creating layer fc7
I1130 17:54:37.281173 29383 net.cpp:84] Creating Layer fc7
I1130 17:54:37.281178 29383 net.cpp:406] fc7 <- fc6
I1130 17:54:37.281185 29383 net.cpp:380] fc7 -> fc7
I1130 17:54:37.434262 29383 net.cpp:122] Setting up fc7
I1130 17:54:37.434291 29383 net.cpp:129] Top shape: 32 4096 (131072)
I1130 17:54:37.434295 29383 net.cpp:137] Memory required for data: 218476032
I1130 17:54:37.434307 29383 layer_factory.hpp:77] Creating layer relu7
I1130 17:54:37.434319 29383 net.cpp:84] Creating Layer relu7
I1130 17:54:37.434324 29383 net.cpp:406] relu7 <- fc7
I1130 17:54:37.434331 29383 net.cpp:367] relu7 -> fc7 (in-place)
I1130 17:54:37.434343 29383 net.cpp:122] Setting up relu7
I1130 17:54:37.434350 29383 net.cpp:129] Top shape: 32 4096 (131072)
I1130 17:54:37.434353 29383 net.cpp:137] Memory required for data: 219000320
I1130 17:54:37.434358 29383 layer_factory.hpp:77] Creating layer drop7
I1130 17:54:37.434366 29383 net.cpp:84] Creating Layer drop7
I1130 17:54:37.434371 29383 net.cpp:406] drop7 <- fc7
I1130 17:54:37.434376 29383 net.cpp:367] drop7 -> fc7 (in-place)
I1130 17:54:37.434401 29383 net.cpp:122] Setting up drop7
I1130 17:54:37.434414 29383 net.cpp:129] Top shape: 32 4096 (131072)
I1130 17:54:37.434419 29383 net.cpp:137] Memory required for data: 219524608
I1130 17:54:37.434423 29383 layer_factory.hpp:77] Creating layer fc_scv_accessible
I1130 17:54:37.434432 29383 net.cpp:84] Creating Layer fc_scv_accessible
I1130 17:54:37.434437 29383 net.cpp:406] fc_scv_accessible <- fc7
I1130 17:54:37.434444 29383 net.cpp:380] fc_scv_accessible -> fc_scv_accessible
I1130 17:54:37.434564 29383 net.cpp:122] Setting up fc_scv_accessible
I1130 17:54:37.434572 29383 net.cpp:129] Top shape: 32 1 (32)
I1130 17:54:37.434577 29383 net.cpp:137] Memory required for data: 219524736
I1130 17:54:37.434586 29383 layer_factory.hpp:77] Creating layer loss
I1130 17:54:37.434592 29383 net.cpp:84] Creating Layer loss
I1130 17:54:37.434597 29383 net.cpp:406] loss <- fc_scv_accessible
I1130 17:54:37.434602 29383 net.cpp:406] loss <- label
I1130 17:54:37.434610 29383 net.cpp:380] loss -> loss
I1130 17:54:37.434643 29383 net.cpp:122] Setting up loss
…
I1130 17:54:37.436133 29383 net.cpp:294] The NetState phase (1) differed from the phase (0) specified by a rule in layer data
I1130 17:54:37.436401 29383 net.cpp:51] Initializing net from parameters: 
name: "CaffeNet-Places365-SCV-Accessible"
state {
  phase: TEST
}
layer {
  name: "data"
  type: "Data"
  top: "data"
  top: "label"
  include {
    phase: TEST
  }
  transform_param {
    mirror: false
    crop_size: 227
    mean_file: "/idiap/temp/lmedina/fine-tuning/alexnet_places365/places365CNN_mean.binaryproto"
  }
  data_param {
    source: "/idiap/temp/lmedina/fine-tuning/data/Accessible/validation_lmdb"
    batch_size: 32
    backend: LMDB
  }
}
layer {
  name: "conv1"
  type: "Convolution"
  bottom: "data"
  top: "conv1"
  param {
    lr_mult: 1
    decay_mult: 1
  }
  param {
    lr_mult: 2
    decay_mult: 0
  }
  convolution_param {
    num_output: 96
    kernel_size: 11
    stride: 4
    weight_filler {
      type: "gaussian"
      std: 0.01
    }
    bias_filler {
      type: "constant"
      value: 0
    }
  }
}
layer {
  name: "relu1"
  type: "ReLU"
  bottom: "conv1"
  top: "conv1"
}
layer {
  name: "pool1"
  type: "Pooling"
  bottom: "conv1"
  top: "pool1"
  pooling_param {
    pool: MAX
    kernel_size: 3
    stride: 2
  }
}
layer {
  name: "norm1"
  type: "LRN"
  bottom: "pool1"
  top: "norm1"
  lrn_param {
    local_size: 5
    alpha: 0.0001
    beta: 0.75
  }
}
layer {
  name: "conv2"
  type: "Convolution"
  bottom: "norm1"
  top: "conv2"
  param {
    lr_mult: 1
    decay_mult: 1
  }
  param {
    lr_mult: 2
    decay_mult: 0
  }
  convolution_param {
    num_output: 256
    pad: 2
    kernel_size: 5
    group: 2
    weight_filler {
      type: "gaussian"
      std: 0.01
    }
    bias_filler {
      type: "constant"
      value: 1
    }
  }
}
layer {
  name: "relu2"
  type: "ReLU"
  bottom: "conv2"
  top: "conv2"
}
layer {
  name: "pool2"
  type: "Pooling"
  bottom: "conv2"
  top: "pool2"
  pooling_param {
    pool: MAX
    kernel_size: 3
    stride: 2
  }
}
layer {
  name: "norm2"
  type: "LRN"
  bottom: "pool2"
  top: "norm2"
  lrn_param {
    local_size: 5
    alpha: 0.0001
    beta: 0.75
  }
}
layer {
  name: "conv3"
  type: "Convolution"
  bottom: "norm2"
  top: "conv3"
  param {
    lr_mult: 1
    decay_mult: 1
  }
  param {
    lr_mult: 2
    decay_mult: 0
  }
  convolution_param {
    num_output: 384
    pad: 1
    kernel_size: 3
    weight_filler {
      type: "gaussian"
      std: 0.01
    }
    bias_filler {
      type: "constant"
      value: 0
    }
  }
}
layer {
  name: "relu3"
  type: "ReLU"
  bottom: "conv3"
  top: "conv3"
}
layer {
  name: "conv4"
  type: "Convolution"
  bottom: "conv3"
  top: "conv4"
  param {
    lr_mult: 1
    decay_mult: 1
  }
  param {
    lr_mult: 2
    decay_mult: 0
  }
  convolution_param {
    num_output: 384
    pad: 1
    kernel_size: 3
    group: 2
    weight_filler {
      type: "gaussian"
      std: 0.01
    }
    bias_filler {
      type: "constant"
      value: 1
    }
  }
}
layer {
  name: "relu4"
  type: "ReLU"
  bottom: "conv4"
  top: "conv4"
}
layer {
  name: "conv5"
  type: "Convolution"
  bottom: "conv4"
  top: "conv5"
  param {
    lr_mult: 1
    decay_mult: 1
  }
  param {
    lr_mult: 2
    decay_mult: 0
  }
  convolution_param {
    num_output: 256
    pad: 1
    kernel_size: 3
    group: 2
    weight_filler {
      type: "gaussian"
      std: 0.01
    }
    bias_filler {
      type: "constant"
      value: 1
    }
  }
}
layer {
  name: "relu5"
  type: "ReLU"
  bottom: "conv5"
  top: "conv5"
}
layer {
  name: "pool5"
  type: "Pooling"
  bottom: "conv5"
  top: "pool5"
  pooling_param {
    pool: MAX
    kernel_size: 3
    stride: 2
  }
}
layer {
  name: "fc6"
  type: "InnerProduct"
  bottom: "pool5"
  top: "fc6"
  param {
    lr_mult: 1
    decay_mult: 1
  }
  param {
    lr_mult: 2
    decay_mult: 0
  }
  inner_product_param {
    num_output: 4096
    weight_filler {
      type: "gaussian"
      std: 0.005
    }
    bias_filler {
      type: "constant"
      value: 1
    }
  }
}
layer {
  name: "relu6"
  type: "ReLU"
  bottom: "fc6"
  top: "fc6"
}
layer {
  name: "drop6"
  type: "Dropout"
  bottom: "fc6"
  top: "fc6"
  dropout_param {
    dropout_ratio: 0.5
  }
}
layer {
  name: "fc7"
  type: "InnerProduct"
  bottom: "fc6"
  top: "fc7"
  param {
    lr_mult: 1
    decay_mult: 1
  }
  param {
    lr_mult: 2
    decay_mult: 0
  }
  inner_product_param {
    num_output: 4096
    weight_filler {
      type: "gaussian"
      std: 0.005
    }
    bias_filler {
      type: "constant"
      value: 1
    }
  }
}
layer {
  name: "relu7"
  type: "ReLU"
  bottom: "fc7"
  top: "fc7"
}
layer {
  name: "drop7"
  type: "Dropout"
  bottom: "fc7"
  top: "fc7"
  dropout_param {
    dropout_ratio: 0.5
  }
}
layer {
  name: "fc_scv_accessible"
  type: "InnerProduct"
  bottom: "fc7"
  top: "fc_scv_accessible"
  param {
    lr_mult: 10
    decay_mult: 1
  }
  param {
    lr_mult: 20
    decay_mult: 0
  }
  inner_product_param {
    num_output: 1
    weight_filler {
      type: "xavier"
      std: 0.01
    }
    bias_filler {
      type: "constant"
      value: 0
    }
  }
}
layer {
  name: "loss"
  type: "EuclideanLoss"
  bottom: "fc_scv_accessible"
  bottom: "label"
  top: "loss"
}
layer {
  name: "losttest"
  type: "EuclideanLoss"
  bottom: "fc_scv_accessible"
  bottom: "label"
  top: "losttest"
  include {
    phase: TEST
  }
}
I1130 17:54:37.436560 29383 layer_factory.hpp:77] Creating layer data
I1130 17:54:37.449460 29383 db_lmdb.cpp:35] Opened lmdb /idiap/temp/lmedina/fine-tuning/data/Accessible/validation_lmdb
I1130 17:54:37.455166 29383 net.cpp:84] Creating Layer data
I1130 17:54:37.455199 29383 net.cpp:380] data -> data
I1130 17:54:37.455209 29383 net.cpp:380] data -> label
I1130 17:54:37.455219 29383 data_transformer.cpp:25] Loading mean file from: /idiap/temp/lmedina/fine-tuning/alexnet_places365/places365CNN_mean.binaryproto
I1130 17:54:37.461326 29383 data_layer.cpp:45] output data size: 32,3,227,227
I1130 17:54:37.500186 29383 net.cpp:122] Setting up data
I1130 17:54:37.500221 29383 net.cpp:129] Top shape: 32 3 227 227 (4946784)
I1130 17:54:37.500229 29383 net.cpp:129] Top shape: 32 (32)
I1130 17:54:37.500233 29383 net.cpp:137] Memory required for data: 19787264
I1130 17:54:37.500241 29383 layer_factory.hpp:77] Creating layer label_data_1_split
I1130 17:54:37.500258 29383 net.cpp:84] Creating Layer label_data_1_split
I1130 17:54:37.500264 29383 net.cpp:406] label_data_1_split <- label
I1130 17:54:37.500279 29383 net.cpp:380] label_data_1_split -> label_data_1_split_0
I1130 17:54:37.500294 29383 net.cpp:380] label_data_1_split -> label_data_1_split_1
I1130 17:54:37.500380 29383 net.cpp:122] Setting up label_data_1_split
I1130 17:54:37.500392 29383 net.cpp:129] Top shape: 32 (32)
I1130 17:54:37.500401 29383 net.cpp:129] Top shape: 32 (32)
I1130 17:54:37.500406 29383 net.cpp:137] Memory required for data: 19787520
I1130 17:54:37.500412 29383 layer_factory.hpp:77] Creating layer conv1
I1130 17:54:37.500428 29383 net.cpp:84] Creating Layer conv1
I1130 17:54:37.500434 29383 net.cpp:406] conv1 <- data
I1130 17:54:37.500442 29383 net.cpp:380] conv1 -> conv1
I1130 17:54:37.501070 29383 net.cpp:122] Setting up conv1
I1130 17:54:37.501082 29383 net.cpp:129] Top shape: 32 96 55 55 (9292800)
I1130 17:54:37.501086 29383 net.cpp:137] Memory required for data: 56958720
I1130 17:54:37.501101 29383 layer_factory.hpp:77] Creating layer relu1
I1130 17:54:37.501109 29383 net.cpp:84] Creating Layer relu1
I1130 17:54:37.501114 29383 net.cpp:406] relu1 <- conv1
I1130 17:54:37.501122 29383 net.cpp:367] relu1 -> conv1 (in-place)
I1130 17:54:37.501132 29383 net.cpp:122] Setting up relu1
I1130 17:54:37.501138 29383 net.cpp:129] Top shape: 32 96 55 55 (9292800)
I1130 17:54:37.501143 29383 net.cpp:137] Memory required for data: 94129920
I1130 17:54:37.501148 29383 layer_factory.hpp:77] Creating layer pool1
I1130 17:54:37.501158 29383 net.cpp:84] Creating Layer pool1
I1130 17:54:37.501163 29383 net.cpp:406] pool1 <- conv1
I1130 17:54:37.501169 29383 net.cpp:380] pool1 -> pool1
I1130 17:54:37.501214 29383 net.cpp:122] Setting up pool1
I1130 17:54:37.501222 29383 net.cpp:129] Top shape: 32 96 27 27 (2239488)
I1130 17:54:37.501229 29383 net.cpp:137] Memory required for data: 103087872
I1130 17:54:37.501233 29383 layer_factory.hpp:77] Creating layer norm1
I1130 17:54:37.501243 29383 net.cpp:84] Creating Layer norm1
I1130 17:54:37.501250 29383 net.cpp:406] norm1 <- pool1
I1130 17:54:37.501255 29383 net.cpp:380] norm1 -> norm1
I1130 17:54:37.501291 29383 net.cpp:122] Setting up norm1
I1130 17:54:37.501301 29383 net.cpp:129] Top shape: 32 96 27 27 (2239488)
I1130 17:54:37.501305 29383 net.cpp:137] Memory required for data: 112045824
I1130 17:54:37.501310 29383 layer_factory.hpp:77] Creating layer conv2
I1130 17:54:37.501320 29383 net.cpp:84] Creating Layer conv2
I1130 17:54:37.501328 29383 net.cpp:406] conv2 <- norm1
I1130 17:54:37.501339 29383 net.cpp:380] conv2 -> conv2
I1130 17:54:37.506970 29383 net.cpp:122] Setting up conv2
I1130 17:54:37.506992 29383 net.cpp:129] Top shape: 32 256 27 27 (5971968)
I1130 17:54:37.507001 29383 net.cpp:137] Memory required for data: 135933696
I1130 17:54:37.507015 29383 layer_factory.hpp:77] Creating layer relu2
I1130 17:54:37.507026 29383 net.cpp:84] Creating Layer relu2
I1130 17:54:37.507033 29383 net.cpp:406] relu2 <- conv2
I1130 17:54:37.507043 29383 net.cpp:367] relu2 -> conv2 (in-place)
I1130 17:54:37.507053 29383 net.cpp:122] Setting up relu2
I1130 17:54:37.507061 29383 net.cpp:129] Top shape: 32 256 27 27 (5971968)
I1130 17:54:37.507066 29383 net.cpp:137] Memory required for data: 159821568
I1130 17:54:37.507072 29383 layer_factory.hpp:77] Creating layer pool2
I1130 17:54:37.507081 29383 net.cpp:84] Creating Layer pool2
I1130 17:54:37.507087 29383 net.cpp:406] pool2 <- conv2
I1130 17:54:37.507095 29383 net.cpp:380] pool2 -> pool2
I1130 17:54:37.507138 29383 net.cpp:122] Setting up pool2
I1130 17:54:37.507148 29383 net.cpp:129] Top shape: 32 256 13 13 (1384448)
I1130 17:54:37.507153 29383 net.cpp:137] Memory required for data: 165359360
I1130 17:54:37.507158 29383 layer_factory.hpp:77] Creating layer norm2
I1130 17:54:37.507167 29383 net.cpp:84] Creating Layer norm2
I1130 17:54:37.507174 29383 net.cpp:406] norm2 <- pool2
I1130 17:54:37.507182 29383 net.cpp:380] norm2 -> norm2
I1130 17:54:37.507220 29383 net.cpp:122] Setting up norm2
I1130 17:54:37.507228 29383 net.cpp:129] Top shape: 32 256 13 13 (1384448)
I1130 17:54:37.507233 29383 net.cpp:137] Memory required for data: 170897152
I1130 17:54:37.507239 29383 layer_factory.hpp:77] Creating layer conv3
I1130 17:54:37.507251 29383 net.cpp:84] Creating Layer conv3
I1130 17:54:37.507257 29383 net.cpp:406] conv3 <- norm2
I1130 17:54:37.507266 29383 net.cpp:380] conv3 -> conv3
I1130 17:54:37.517732 29383 net.cpp:122] Setting up conv3
I1130 17:54:37.517752 29383 net.cpp:129] Top shape: 32 384 13 13 (2076672)
I1130 17:54:37.517757 29383 net.cpp:137] Memory required for data: 179203840
I1130 17:54:37.517772 29383 layer_factory.hpp:77] Creating layer relu3
I1130 17:54:37.517783 29383 net.cpp:84] Creating Layer relu3
I1130 17:54:37.517791 29383 net.cpp:406] relu3 <- conv3
I1130 17:54:37.517799 29383 net.cpp:367] relu3 -> conv3 (in-place)
I1130 17:54:37.517810 29383 net.cpp:122] Setting up relu3
I1130 17:54:37.517817 29383 net.cpp:129] Top shape: 32 384 13 13 (2076672)
I1130 17:54:37.517822 29383 net.cpp:137] Memory required for data: 187510528
I1130 17:54:37.517827 29383 layer_factory.hpp:77] Creating layer conv4
I1130 17:54:37.517838 29383 net.cpp:84] Creating Layer conv4
I1130 17:54:37.517843 29383 net.cpp:406] conv4 <- conv3
I1130 17:54:37.517851 29383 net.cpp:380] conv4 -> conv4
I1130 17:54:37.525591 29383 net.cpp:122] Setting up conv4
I1130 17:54:37.525612 29383 net.cpp:129] Top shape: 32 384 13 13 (2076672)
I1130 17:54:37.525619 29383 net.cpp:137] Memory required for data: 195817216
I1130 17:54:37.525629 29383 layer_factory.hpp:77] Creating layer relu4
I1130 17:54:37.525640 29383 net.cpp:84] Creating Layer relu4
I1130 17:54:37.525646 29383 net.cpp:406] relu4 <- conv4
I1130 17:54:37.525655 29383 net.cpp:367] relu4 -> conv4 (in-place)
I1130 17:54:37.525665 29383 net.cpp:122] Setting up relu4
I1130 17:54:37.525672 29383 net.cpp:129] Top shape: 32 384 13 13 (2076672)
I1130 17:54:37.525677 29383 net.cpp:137] Memory required for data: 204123904
I1130 17:54:37.525682 29383 layer_factory.hpp:77] Creating layer conv5
I1130 17:54:37.525693 29383 net.cpp:84] Creating Layer conv5
I1130 17:54:37.525699 29383 net.cpp:406] conv5 <- conv4
I1130 17:54:37.525707 29383 net.cpp:380] conv5 -> conv5
I1130 17:54:37.530843 29383 net.cpp:122] Setting up conv5
I1130 17:54:37.530855 29383 net.cpp:129] Top shape: 32 256 13 13 (1384448)
I1130 17:54:37.530860 29383 net.cpp:137] Memory required for data: 209661696
I1130 17:54:37.530874 29383 layer_factory.hpp:77] Creating layer relu5
I1130 17:54:37.530882 29383 net.cpp:84] Creating Layer relu5
I1130 17:54:37.530894 29383 net.cpp:406] relu5 <- conv5
I1130 17:54:37.530901 29383 net.cpp:367] relu5 -> conv5 (in-place)
I1130 17:54:37.530911 29383 net.cpp:122] Setting up relu5
I1130 17:54:37.530917 29383 net.cpp:129] Top shape: 32 256 13 13 (1384448)
I1130 17:54:37.530921 29383 net.cpp:137] Memory required for data: 215199488
I1130 17:54:37.530927 29383 layer_factory.hpp:77] Creating layer pool5
I1130 17:54:37.530936 29383 net.cpp:84] Creating Layer pool5
I1130 17:54:37.530942 29383 net.cpp:406] pool5 <- conv5
I1130 17:54:37.530948 29383 net.cpp:380] pool5 -> pool5
I1130 17:54:37.530987 29383 net.cpp:122] Setting up pool5
I1130 17:54:37.530997 29383 net.cpp:129] Top shape: 32 256 6 6 (294912)
I1130 17:54:37.531002 29383 net.cpp:137] Memory required for data: 216379136
I1130 17:54:37.531008 29383 layer_factory.hpp:77] Creating layer fc6
I1130 17:54:37.531018 29383 net.cpp:84] Creating Layer fc6
I1130 17:54:37.531023 29383 net.cpp:406] fc6 <- pool5
I1130 17:54:37.531029 29383 net.cpp:380] fc6 -> fc6
I1130 17:54:37.879915 29383 net.cpp:122] Setting up fc6
I1130 17:54:37.879950 29383 net.cpp:129] Top shape: 32 4096 (131072)
I1130 17:54:37.879954 29383 net.cpp:137] Memory required for data: 216903424
I1130 17:54:37.879966 29383 layer_factory.hpp:77] Creating layer relu6
I1130 17:54:37.879978 29383 net.cpp:84] Creating Layer relu6
I1130 17:54:37.879984 29383 net.cpp:406] relu6 <- fc6
I1130 17:54:37.879999 29383 net.cpp:367] relu6 -> fc6 (in-place)
I1130 17:54:37.880010 29383 net.cpp:122] Setting up relu6
I1130 17:54:37.880017 29383 net.cpp:129] Top shape: 32 4096 (131072)
I1130 17:54:37.880020 29383 net.cpp:137] Memory required for data: 217427712
I1130 17:54:37.880025 29383 layer_factory.hpp:77] Creating layer drop6
I1130 17:54:37.880033 29383 net.cpp:84] Creating Layer drop6
I1130 17:54:37.880038 29383 net.cpp:406] drop6 <- fc6
I1130 17:54:37.880043 29383 net.cpp:367] drop6 -> fc6 (in-place)
I1130 17:54:37.880069 29383 net.cpp:122] Setting up drop6
I1130 17:54:37.880075 29383 net.cpp:129] Top shape: 32 4096 (131072)
I1130 17:54:37.880080 29383 net.cpp:137] Memory required for data: 217952000
I1130 17:54:37.880084 29383 layer_factory.hpp:77] Creating layer fc7
I1130 17:54:37.880093 29383 net.cpp:84] Creating Layer fc7
I1130 17:54:37.880098 29383 net.cpp:406] fc7 <- fc6
I1130 17:54:37.880105 29383 net.cpp:380] fc7 -> fc7
I1130 17:54:38.033095 29383 net.cpp:122] Setting up fc7
I1130 17:54:38.033126 29383 net.cpp:129] Top shape: 32 4096 (131072)
I1130 17:54:38.033130 29383 net.cpp:137] Memory required for data: 218476288
I1130 17:54:38.033143 29383 layer_factory.hpp:77] Creating layer relu7
I1130 17:54:38.033154 29383 net.cpp:84] Creating Layer relu7
I1130 17:54:38.033161 29383 net.cpp:406] relu7 <- fc7
I1130 17:54:38.033170 29383 net.cpp:367] relu7 -> fc7 (in-place)
I1130 17:54:38.033181 29383 net.cpp:122] Setting up relu7
I1130 17:54:38.033186 29383 net.cpp:129] Top shape: 32 4096 (131072)
I1130 17:54:38.033190 29383 net.cpp:137] Memory required for data: 219000576
I1130 17:54:38.033195 29383 layer_factory.hpp:77] Creating layer drop7
I1130 17:54:38.033202 29383 net.cpp:84] Creating Layer drop7
I1130 17:54:38.033207 29383 net.cpp:406] drop7 <- fc7
I1130 17:54:38.033212 29383 net.cpp:367] drop7 -> fc7 (in-place)
I1130 17:54:38.033239 29383 net.cpp:122] Setting up drop7
I1130 17:54:38.033246 29383 net.cpp:129] Top shape: 32 4096 (131072)
I1130 17:54:38.033251 29383 net.cpp:137] Memory required for data: 219524864
I1130 17:54:38.033254 29383 layer_factory.hpp:77] Creating layer fc_scv_accessible
I1130 17:54:38.033264 29383 net.cpp:84] Creating Layer fc_scv_accessible
I1130 17:54:38.033268 29383 net.cpp:406] fc_scv_accessible <- fc7
I1130 17:54:38.033275 29383 net.cpp:380] fc_scv_accessible -> fc_scv_accessible
I1130 17:54:38.033378 29383 net.cpp:122] Setting up fc_scv_accessible
I1130 17:54:38.033387 29383 net.cpp:129] Top shape: 32 1 (32)
I1130 17:54:38.033392 29383 net.cpp:137] Memory required for data: 219524992
I1130 17:54:38.033399 29383 layer_factory.hpp:77] Creating layer fc_scv_accessible_fc_scv_accessible_0_split
I1130 17:54:38.033416 29383 net.cpp:84] Creating Layer fc_scv_accessible_fc_scv_accessible_0_split
I1130 17:54:38.033419 29383 net.cpp:406] fc_scv_accessible_fc_scv_accessible_0_split <- fc_scv_accessible
I1130 17:54:38.033426 29383 net.cpp:380] fc_scv_accessible_fc_scv_accessible_0_split -> fc_scv_accessible_fc_scv_accessible_0_split_0
I1130 17:54:38.033433 29383 net.cpp:380] fc_scv_accessible_fc_scv_accessible_0_split -> fc_scv_accessible_fc_scv_accessible_0_split_1
I1130 17:54:38.033463 29383 net.cpp:122] Setting up fc_scv_accessible_fc_scv_accessible_0_split
I1130 17:54:38.033471 29383 net.cpp:129] Top shape: 32 1 (32)
I1130 17:54:38.033476 29383 net.cpp:129] Top shape: 32 1 (32)
I1130 17:54:38.033480 29383 net.cpp:137] Memory required for data: 219525248
I1130 17:54:38.033484 29383 layer_factory.hpp:77] Creating layer loss
I1130 17:54:38.033493 29383 net.cpp:84] Creating Layer loss
I1130 17:54:38.033498 29383 net.cpp:406] loss <- fc_scv_accessible_fc_scv_accessible_0_split_0
I1130 17:54:38.033502 29383 net.cpp:406] loss <- label_data_1_split_0
I1130 17:54:38.033509 29383 net.cpp:380] loss -> loss
…
