…
I1205 09:54:57.068245 14583 net.cpp:294] The NetState phase (0) differed from the phase (1) specified by a rule in layer losttest
I1205 09:54:57.068658 14583 net.cpp:51] Initializing net from parameters: 
name: "VGG-Places365-SCV-Interesting"
state {
  phase: TRAIN
  level: 0
  stage: ""
}
layer {
  name: "data"
  type: "Data"
  top: "data"
  top: "label"
  include {
    phase: TRAIN
  }
  transform_param {
    mirror: true
    crop_size: 224
    mean_file: "/idiap/temp/lmedina/fine-tuning/vgg16_places365/places365CNN_mean.binaryproto"
  }
  data_param {
    source: "/idiap/temp/lmedina/fine-tuning/data/Interesting/train_lmdb"
    batch_size: 16
    backend: LMDB
  }
}
layer {
  name: "conv1_1"
  type: "Convolution"
  bottom: "data"
  top: "conv1_1"
  param {
    lr_mult: 1
    decay_mult: 1
  }
  param {
    lr_mult: 2
    decay_mult: 0
  }
  convolution_param {
    num_output: 64
    pad: 1
    kernel_size: 3
    weight_filler {
      type: "gaussian"
      std: 0.01
    }
    bias_filler {
      type: "constant"
      value: 0
    }
  }
}
layer {
  name: "relu1_1"
  type: "ReLU"
  bottom: "conv1_1"
  top: "conv1_1"
}
layer {
  name: "conv1_2"
  type: "Convolution"
  bottom: "conv1_1"
  top: "conv1_2"
  param {
    lr_mult: 1
    decay_mult: 1
  }
  param {
    lr_mult: 2
    decay_mult: 0
  }
  convolution_param {
    num_output: 64
    pad: 1
    kernel_size: 3
    weight_filler {
      type: "gaussian"
      std: 0.01
    }
    bias_filler {
      type: "constant"
      value: 0
    }
  }
}
layer {
  name: "relu1_2"
  type: "ReLU"
  bottom: "conv1_2"
  top: "conv1_2"
}
layer {
  name: "pool1"
  type: "Pooling"
  bottom: "conv1_2"
  top: "pool1"
  pooling_param {
    pool: MAX
    kernel_size: 2
    stride: 2
  }
}
layer {
  name: "conv2_1"
  type: "Convolution"
  bottom: "pool1"
  top: "conv2_1"
  param {
    lr_mult: 1
    decay_mult: 1
  }
  param {
    lr_mult: 2
    decay_mult: 0
  }
  convolution_param {
    num_output: 128
    pad: 1
    kernel_size: 3
    weight_filler {
      type: "gaussian"
      std: 0.01
    }
    bias_filler {
      type: "constant"
      value: 0
    }
  }
}
layer {
  name: "relu2_1"
  type: "ReLU"
  bottom: "conv2_1"
  top: "conv2_1"
}
layer {
  name: "conv2_2"
  type: "Convolution"
  bottom: "conv2_1"
  top: "conv2_2"
  param {
    lr_mult: 1
    decay_mult: 1
  }
  param {
    lr_mult: 2
    decay_mult: 0
  }
  convolution_param {
    num_output: 128
    pad: 1
    kernel_size: 3
    weight_filler {
      type: "gaussian"
      std: 0.01
    }
    bias_filler {
      type: "constant"
      value: 0
    }
  }
}
layer {
  name: "relu2_2"
  type: "ReLU"
  bottom: "conv2_2"
  top: "conv2_2"
}
layer {
  name: "pool2"
  type: "Pooling"
  bottom: "conv2_2"
  top: "pool2"
  pooling_param {
    pool: MAX
    kernel_size: 2
    stride: 2
  }
}
layer {
  name: "conv3_1"
  type: "Convolution"
  bottom: "pool2"
  top: "conv3_1"
  param {
    lr_mult: 1
    decay_mult: 1
  }
  param {
    lr_mult: 2
    decay_mult: 0
  }
  convolution_param {
    num_output: 256
    pad: 1
    kernel_size: 3
    weight_filler {
      type: "gaussian"
      std: 0.01
    }
    bias_filler {
      type: "constant"
      value: 0
    }
  }
}
layer {
  name: "relu3_1"
  type: "ReLU"
  bottom: "conv3_1"
  top: "conv3_1"
}
layer {
  name: "conv3_2"
  type: "Convolution"
  bottom: "conv3_1"
  top: "conv3_2"
  param {
    lr_mult: 1
    decay_mult: 1
  }
  param {
    lr_mult: 2
    decay_mult: 0
  }
  convolution_param {
    num_output: 256
    pad: 1
    kernel_size: 3
    weight_filler {
      type: "gaussian"
      std: 0.01
    }
    bias_filler {
      type: "constant"
      value: 0
    }
  }
}
layer {
  name: "relu3_2"
  type: "ReLU"
  bottom: "conv3_2"
  top: "conv3_2"
}
layer {
  name: "conv3_3"
  type: "Convolution"
  bottom: "conv3_2"
  top: "conv3_3"
  param {
    lr_mult: 1
    decay_mult: 1
  }
  param {
    lr_mult: 2
    decay_mult: 0
  }
  convolution_param {
    num_output: 256
    pad: 1
    kernel_size: 3
    weight_filler {
      type: "gaussian"
      std: 0.01
    }
    bias_filler {
      type: "constant"
      value: 0
    }
  }
}
layer {
  name: "relu3_3"
  type: "ReLU"
  bottom: "conv3_3"
  top: "conv3_3"
}
layer {
  name: "pool3"
  type: "Pooling"
  bottom: "conv3_3"
  top: "pool3"
  pooling_param {
    pool: MAX
    kernel_size: 2
    stride: 2
  }
}
layer {
  name: "conv4_1"
  type: "Convolution"
  bottom: "pool3"
  top: "conv4_1"
  param {
    lr_mult: 1
    decay_mult: 1
  }
  param {
    lr_mult: 2
    decay_mult: 0
  }
  convolution_param {
    num_output: 512
    pad: 1
    kernel_size: 3
    weight_filler {
      type: "gaussian"
      std: 0.01
    }
    bias_filler {
      type: "constant"
      value: 0
    }
  }
}
layer {
  name: "relu4_1"
  type: "ReLU"
  bottom: "conv4_1"
  top: "conv4_1"
}
layer {
  name: "conv4_2"
  type: "Convolution"
  bottom: "conv4_1"
  top: "conv4_2"
  param {
    lr_mult: 1
    decay_mult: 1
  }
  param {
    lr_mult: 2
    decay_mult: 0
  }
  convolution_param {
    num_output: 512
    pad: 1
    kernel_size: 3
    weight_filler {
      type: "gaussian"
      std: 0.01
    }
    bias_filler {
      type: "constant"
      value: 0
    }
  }
}
layer {
  name: "relu4_2"
  type: "ReLU"
  bottom: "conv4_2"
  top: "conv4_2"
}
layer {
  name: "conv4_3"
  type: "Convolution"
  bottom: "conv4_2"
  top: "conv4_3"
  param {
    lr_mult: 1
    decay_mult: 1
  }
  param {
    lr_mult: 2
    decay_mult: 0
  }
  convolution_param {
    num_output: 512
    pad: 1
    kernel_size: 3
    weight_filler {
      type: "gaussian"
      std: 0.01
    }
    bias_filler {
      type: "constant"
      value: 0
    }
  }
}
layer {
  name: "relu4_3"
  type: "ReLU"
  bottom: "conv4_3"
  top: "conv4_3"
}
layer {
  name: "pool4"
  type: "Pooling"
  bottom: "conv4_3"
  top: "pool4"
  pooling_param {
    pool: MAX
    kernel_size: 2
    stride: 2
  }
}
layer {
  name: "conv5_1"
  type: "Convolution"
  bottom: "pool4"
  top: "conv5_1"
  param {
    lr_mult: 1
    decay_mult: 1
  }
  param {
    lr_mult: 2
    decay_mult: 0
  }
  convolution_param {
    num_output: 512
    pad: 1
    kernel_size: 3
    weight_filler {
      type: "gaussian"
      std: 0.01
    }
    bias_filler {
      type: "constant"
      value: 0
    }
  }
}
layer {
  name: "relu5_1"
  type: "ReLU"
  bottom: "conv5_1"
  top: "conv5_1"
}
layer {
  name: "conv5_2"
  type: "Convolution"
  bottom: "conv5_1"
  top: "conv5_2"
  param {
    lr_mult: 1
    decay_mult: 1
  }
  param {
    lr_mult: 2
    decay_mult: 0
  }
  convolution_param {
    num_output: 512
    pad: 1
    kernel_size: 3
    weight_filler {
      type: "gaussian"
      std: 0.01
    }
    bias_filler {
      type: "constant"
      value: 0
    }
  }
}
layer {
  name: "relu5_2"
  type: "ReLU"
  bottom: "conv5_2"
  top: "conv5_2"
}
layer {
  name: "conv5_3"
  type: "Convolution"
  bottom: "conv5_2"
  top: "conv5_3"
  param {
    lr_mult: 1
    decay_mult: 1
  }
  param {
    lr_mult: 2
    decay_mult: 0
  }
  convolution_param {
    num_output: 512
    pad: 1
    kernel_size: 3
    weight_filler {
      type: "gaussian"
      std: 0.01
    }
    bias_filler {
      type: "constant"
      value: 0
    }
  }
}
layer {
  name: "relu5_3"
  type: "ReLU"
  bottom: "conv5_3"
  top: "conv5_3"
}
layer {
  name: "pool5"
  type: "Pooling"
  bottom: "conv5_3"
  top: "pool5"
  pooling_param {
    pool: MAX
    kernel_size: 2
    stride: 2
  }
}
layer {
  name: "fc6"
  type: "InnerProduct"
  bottom: "pool5"
  top: "fc6"
  param {
    lr_mult: 1
    decay_mult: 1
  }
  param {
    lr_mult: 2
    decay_mult: 0
  }
  inner_product_param {
    num_output: 4096
    weight_filler {
      type: "gaussian"
      std: 0.01
    }
    bias_filler {
      type: "constant"
      value: 0
    }
  }
}
layer {
  name: "relu6"
  type: "ReLU"
  bottom: "fc6"
  top: "fc6"
}
layer {
  name: "drop6"
  type: "Dropout"
  bottom: "fc6"
  top: "fc6"
  dropout_param {
    dropout_ratio: 0.5
  }
}
layer {
  name: "fc7"
  type: "InnerProduct"
  bottom: "fc6"
  top: "fc7"
  param {
    lr_mult: 1
    decay_mult: 1
  }
  param {
    lr_mult: 2
    decay_mult: 0
  }
  inner_product_param {
    num_output: 4096
    weight_filler {
      type: "gaussian"
      std: 0.01
    }
    bias_filler {
      type: "constant"
      value: 0
    }
  }
}
layer {
  name: "relu7"
  type: "ReLU"
  bottom: "fc7"
  top: "fc7"
}
layer {
  name: "drop7"
  type: "Dropout"
  bottom: "fc7"
  top: "fc7"
  dropout_param {
    dropout_ratio: 0.5
  }
}
layer {
  name: "fc_scv_interesting"
  type: "InnerProduct"
  bottom: "fc7"
  top: "fc_scv_interesting"
  param {
    lr_mult: 10
    decay_mult: 1
  }
  param {
    lr_mult: 20
    decay_mult: 0
  }
  inner_product_param {
    num_output: 1
    weight_filler {
      type: "xavier"
      std: 0.01
    }
    bias_filler {
      type: "constant"
      value: 0
    }
  }
}
layer {
  name: "loss"
  type: "EuclideanLoss"
  bottom: "fc_scv_interesting"
  bottom: "label"
  top: "loss"
}
I1205 09:54:57.068938 14583 layer_factory.hpp:77] Creating layer data
I1205 09:54:57.164871 14583 db_lmdb.cpp:35] Opened lmdb /idiap/temp/lmedina/fine-tuning/data/Interesting/train_lmdb
I1205 09:54:57.185760 14583 net.cpp:84] Creating Layer data
I1205 09:54:57.185837 14583 net.cpp:380] data -> data
I1205 09:54:57.185901 14583 net.cpp:380] data -> label
I1205 09:54:57.185952 14583 data_transformer.cpp:25] Loading mean file from: /idiap/temp/lmedina/fine-tuning/vgg16_places365/places365CNN_mean.binaryproto
I1205 09:54:57.203183 14583 data_layer.cpp:45] output data size: 16,3,224,224
I1205 09:54:57.239609 14583 net.cpp:122] Setting up data
I1205 09:54:57.239675 14583 net.cpp:129] Top shape: 16 3 224 224 (2408448)
I1205 09:54:57.239694 14583 net.cpp:129] Top shape: 16 (16)
I1205 09:54:57.239708 14583 net.cpp:137] Memory required for data: 9633856
I1205 09:54:57.239737 14583 layer_factory.hpp:77] Creating layer conv1_1
I1205 09:54:57.239785 14583 net.cpp:84] Creating Layer conv1_1
I1205 09:54:57.239802 14583 net.cpp:406] conv1_1 <- data
I1205 09:54:57.239831 14583 net.cpp:380] conv1_1 -> conv1_1
I1205 09:54:57.241928 14583 net.cpp:122] Setting up conv1_1
I1205 09:54:57.241957 14583 net.cpp:129] Top shape: 16 64 224 224 (51380224)
I1205 09:54:57.241972 14583 net.cpp:137] Memory required for data: 215154752
I1205 09:54:57.242002 14583 layer_factory.hpp:77] Creating layer relu1_1
I1205 09:54:57.242023 14583 net.cpp:84] Creating Layer relu1_1
I1205 09:54:57.242038 14583 net.cpp:406] relu1_1 <- conv1_1
I1205 09:54:57.242055 14583 net.cpp:367] relu1_1 -> conv1_1 (in-place)
I1205 09:54:57.242076 14583 net.cpp:122] Setting up relu1_1
I1205 09:54:57.242092 14583 net.cpp:129] Top shape: 16 64 224 224 (51380224)
I1205 09:54:57.242105 14583 net.cpp:137] Memory required for data: 420675648
I1205 09:54:57.242120 14583 layer_factory.hpp:77] Creating layer conv1_2
I1205 09:54:57.242141 14583 net.cpp:84] Creating Layer conv1_2
I1205 09:54:57.242156 14583 net.cpp:406] conv1_2 <- conv1_1
I1205 09:54:57.242173 14583 net.cpp:380] conv1_2 -> conv1_2
I1205 09:54:57.244215 14583 net.cpp:122] Setting up conv1_2
I1205 09:54:57.244249 14583 net.cpp:129] Top shape: 16 64 224 224 (51380224)
I1205 09:54:57.244264 14583 net.cpp:137] Memory required for data: 626196544
I1205 09:54:57.244288 14583 layer_factory.hpp:77] Creating layer relu1_2
I1205 09:54:57.244309 14583 net.cpp:84] Creating Layer relu1_2
I1205 09:54:57.244331 14583 net.cpp:406] relu1_2 <- conv1_2
I1205 09:54:57.244349 14583 net.cpp:367] relu1_2 -> conv1_2 (in-place)
I1205 09:54:57.244369 14583 net.cpp:122] Setting up relu1_2
I1205 09:54:57.244384 14583 net.cpp:129] Top shape: 16 64 224 224 (51380224)
I1205 09:54:57.244397 14583 net.cpp:137] Memory required for data: 831717440
I1205 09:54:57.244410 14583 layer_factory.hpp:77] Creating layer pool1
I1205 09:54:57.244431 14583 net.cpp:84] Creating Layer pool1
I1205 09:54:57.244444 14583 net.cpp:406] pool1 <- conv1_2
I1205 09:54:57.244462 14583 net.cpp:380] pool1 -> pool1
I1205 09:54:57.244532 14583 net.cpp:122] Setting up pool1
I1205 09:54:57.244550 14583 net.cpp:129] Top shape: 16 64 112 112 (12845056)
I1205 09:54:57.244563 14583 net.cpp:137] Memory required for data: 883097664
I1205 09:54:57.244576 14583 layer_factory.hpp:77] Creating layer conv2_1
I1205 09:54:57.244598 14583 net.cpp:84] Creating Layer conv2_1
I1205 09:54:57.244612 14583 net.cpp:406] conv2_1 <- pool1
I1205 09:54:57.244630 14583 net.cpp:380] conv2_1 -> conv2_1
I1205 09:54:57.247845 14583 net.cpp:122] Setting up conv2_1
I1205 09:54:57.247877 14583 net.cpp:129] Top shape: 16 128 112 112 (25690112)
I1205 09:54:57.247891 14583 net.cpp:137] Memory required for data: 985858112
I1205 09:54:57.247915 14583 layer_factory.hpp:77] Creating layer relu2_1
I1205 09:54:57.247936 14583 net.cpp:84] Creating Layer relu2_1
I1205 09:54:57.247949 14583 net.cpp:406] relu2_1 <- conv2_1
I1205 09:54:57.247967 14583 net.cpp:367] relu2_1 -> conv2_1 (in-place)
I1205 09:54:57.247985 14583 net.cpp:122] Setting up relu2_1
I1205 09:54:57.248000 14583 net.cpp:129] Top shape: 16 128 112 112 (25690112)
I1205 09:54:57.248013 14583 net.cpp:137] Memory required for data: 1088618560
I1205 09:54:57.248026 14583 layer_factory.hpp:77] Creating layer conv2_2
I1205 09:54:57.248049 14583 net.cpp:84] Creating Layer conv2_2
I1205 09:54:57.248064 14583 net.cpp:406] conv2_2 <- conv2_1
I1205 09:54:57.248083 14583 net.cpp:380] conv2_2 -> conv2_2
I1205 09:54:57.250232 14583 net.cpp:122] Setting up conv2_2
I1205 09:54:57.250257 14583 net.cpp:129] Top shape: 16 128 112 112 (25690112)
I1205 09:54:57.250272 14583 net.cpp:137] Memory required for data: 1191379008
I1205 09:54:57.250289 14583 layer_factory.hpp:77] Creating layer relu2_2
I1205 09:54:57.250308 14583 net.cpp:84] Creating Layer relu2_2
I1205 09:54:57.250320 14583 net.cpp:406] relu2_2 <- conv2_2
I1205 09:54:57.250345 14583 net.cpp:367] relu2_2 -> conv2_2 (in-place)
I1205 09:54:57.250363 14583 net.cpp:122] Setting up relu2_2
I1205 09:54:57.250380 14583 net.cpp:129] Top shape: 16 128 112 112 (25690112)
I1205 09:54:57.250392 14583 net.cpp:137] Memory required for data: 1294139456
I1205 09:54:57.250406 14583 layer_factory.hpp:77] Creating layer pool2
I1205 09:54:57.250423 14583 net.cpp:84] Creating Layer pool2
I1205 09:54:57.250437 14583 net.cpp:406] pool2 <- conv2_2
I1205 09:54:57.250455 14583 net.cpp:380] pool2 -> pool2
I1205 09:54:57.250512 14583 net.cpp:122] Setting up pool2
I1205 09:54:57.250531 14583 net.cpp:129] Top shape: 16 128 56 56 (6422528)
I1205 09:54:57.250545 14583 net.cpp:137] Memory required for data: 1319829568
I1205 09:54:57.250557 14583 layer_factory.hpp:77] Creating layer conv3_1
I1205 09:54:57.250581 14583 net.cpp:84] Creating Layer conv3_1
I1205 09:54:57.250604 14583 net.cpp:406] conv3_1 <- pool2
I1205 09:54:57.250622 14583 net.cpp:380] conv3_1 -> conv3_1
I1205 09:54:57.255199 14583 net.cpp:122] Setting up conv3_1
I1205 09:54:57.255228 14583 net.cpp:129] Top shape: 16 256 56 56 (12845056)
I1205 09:54:57.255241 14583 net.cpp:137] Memory required for data: 1371209792
I1205 09:54:57.255266 14583 layer_factory.hpp:77] Creating layer relu3_1
I1205 09:54:57.255286 14583 net.cpp:84] Creating Layer relu3_1
I1205 09:54:57.255300 14583 net.cpp:406] relu3_1 <- conv3_1
I1205 09:54:57.255316 14583 net.cpp:367] relu3_1 -> conv3_1 (in-place)
I1205 09:54:57.255334 14583 net.cpp:122] Setting up relu3_1
I1205 09:54:57.255350 14583 net.cpp:129] Top shape: 16 256 56 56 (12845056)
I1205 09:54:57.255363 14583 net.cpp:137] Memory required for data: 1422590016
I1205 09:54:57.255383 14583 layer_factory.hpp:77] Creating layer conv3_2
I1205 09:54:57.255403 14583 net.cpp:84] Creating Layer conv3_2
I1205 09:54:57.255417 14583 net.cpp:406] conv3_2 <- conv3_1
I1205 09:54:57.255435 14583 net.cpp:380] conv3_2 -> conv3_2
I1205 09:54:57.264092 14583 net.cpp:122] Setting up conv3_2
I1205 09:54:57.264128 14583 net.cpp:129] Top shape: 16 256 56 56 (12845056)
I1205 09:54:57.264142 14583 net.cpp:137] Memory required for data: 1473970240
I1205 09:54:57.264161 14583 layer_factory.hpp:77] Creating layer relu3_2
I1205 09:54:57.264180 14583 net.cpp:84] Creating Layer relu3_2
I1205 09:54:57.264194 14583 net.cpp:406] relu3_2 <- conv3_2
I1205 09:54:57.264212 14583 net.cpp:367] relu3_2 -> conv3_2 (in-place)
I1205 09:54:57.264230 14583 net.cpp:122] Setting up relu3_2
I1205 09:54:57.264245 14583 net.cpp:129] Top shape: 16 256 56 56 (12845056)
I1205 09:54:57.264256 14583 net.cpp:137] Memory required for data: 1525350464
I1205 09:54:57.264271 14583 layer_factory.hpp:77] Creating layer conv3_3
I1205 09:54:57.264292 14583 net.cpp:84] Creating Layer conv3_3
I1205 09:54:57.264304 14583 net.cpp:406] conv3_3 <- conv3_2
I1205 09:54:57.264322 14583 net.cpp:380] conv3_3 -> conv3_3
I1205 09:54:57.273051 14583 net.cpp:122] Setting up conv3_3
I1205 09:54:57.273087 14583 net.cpp:129] Top shape: 16 256 56 56 (12845056)
I1205 09:54:57.273100 14583 net.cpp:137] Memory required for data: 1576730688
I1205 09:54:57.273119 14583 layer_factory.hpp:77] Creating layer relu3_3
I1205 09:54:57.273144 14583 net.cpp:84] Creating Layer relu3_3
I1205 09:54:57.273157 14583 net.cpp:406] relu3_3 <- conv3_3
I1205 09:54:57.273175 14583 net.cpp:367] relu3_3 -> conv3_3 (in-place)
I1205 09:54:57.273192 14583 net.cpp:122] Setting up relu3_3
I1205 09:54:57.273206 14583 net.cpp:129] Top shape: 16 256 56 56 (12845056)
I1205 09:54:57.273217 14583 net.cpp:137] Memory required for data: 1628110912
I1205 09:54:57.273231 14583 layer_factory.hpp:77] Creating layer pool3
I1205 09:54:57.273247 14583 net.cpp:84] Creating Layer pool3
I1205 09:54:57.273259 14583 net.cpp:406] pool3 <- conv3_3
I1205 09:54:57.273274 14583 net.cpp:380] pool3 -> pool3
I1205 09:54:57.273371 14583 net.cpp:122] Setting up pool3
I1205 09:54:57.273388 14583 net.cpp:129] Top shape: 16 256 28 28 (3211264)
I1205 09:54:57.273401 14583 net.cpp:137] Memory required for data: 1640955968
I1205 09:54:57.273412 14583 layer_factory.hpp:77] Creating layer conv4_1
I1205 09:54:57.273433 14583 net.cpp:84] Creating Layer conv4_1
I1205 09:54:57.273445 14583 net.cpp:406] conv4_1 <- pool3
I1205 09:54:57.273461 14583 net.cpp:380] conv4_1 -> conv4_1
I1205 09:54:57.290065 14583 net.cpp:122] Setting up conv4_1
I1205 09:54:57.290112 14583 net.cpp:129] Top shape: 16 512 28 28 (6422528)
I1205 09:54:57.290124 14583 net.cpp:137] Memory required for data: 1666646080
I1205 09:54:57.290145 14583 layer_factory.hpp:77] Creating layer relu4_1
I1205 09:54:57.290169 14583 net.cpp:84] Creating Layer relu4_1
I1205 09:54:57.290184 14583 net.cpp:406] relu4_1 <- conv4_1
I1205 09:54:57.290201 14583 net.cpp:367] relu4_1 -> conv4_1 (in-place)
I1205 09:54:57.290222 14583 net.cpp:122] Setting up relu4_1
I1205 09:54:57.290235 14583 net.cpp:129] Top shape: 16 512 28 28 (6422528)
I1205 09:54:57.290246 14583 net.cpp:137] Memory required for data: 1692336192
I1205 09:54:57.290258 14583 layer_factory.hpp:77] Creating layer conv4_2
I1205 09:54:57.290282 14583 net.cpp:84] Creating Layer conv4_2
I1205 09:54:57.290293 14583 net.cpp:406] conv4_2 <- conv4_1
I1205 09:54:57.290309 14583 net.cpp:380] conv4_2 -> conv4_2
I1205 09:54:57.321490 14583 net.cpp:122] Setting up conv4_2
I1205 09:54:57.321539 14583 net.cpp:129] Top shape: 16 512 28 28 (6422528)
I1205 09:54:57.321553 14583 net.cpp:137] Memory required for data: 1718026304
I1205 09:54:57.321586 14583 layer_factory.hpp:77] Creating layer relu4_2
I1205 09:54:57.321610 14583 net.cpp:84] Creating Layer relu4_2
I1205 09:54:57.321624 14583 net.cpp:406] relu4_2 <- conv4_2
I1205 09:54:57.321643 14583 net.cpp:367] relu4_2 -> conv4_2 (in-place)
I1205 09:54:57.321665 14583 net.cpp:122] Setting up relu4_2
I1205 09:54:57.321686 14583 net.cpp:129] Top shape: 16 512 28 28 (6422528)
I1205 09:54:57.321697 14583 net.cpp:137] Memory required for data: 1743716416
I1205 09:54:57.321710 14583 layer_factory.hpp:77] Creating layer conv4_3
I1205 09:54:57.321732 14583 net.cpp:84] Creating Layer conv4_3
I1205 09:54:57.321744 14583 net.cpp:406] conv4_3 <- conv4_2
I1205 09:54:57.321760 14583 net.cpp:380] conv4_3 -> conv4_3
I1205 09:54:57.352303 14583 net.cpp:122] Setting up conv4_3
I1205 09:54:57.352344 14583 net.cpp:129] Top shape: 16 512 28 28 (6422528)
I1205 09:54:57.352357 14583 net.cpp:137] Memory required for data: 1769406528
I1205 09:54:57.352377 14583 layer_factory.hpp:77] Creating layer relu4_3
I1205 09:54:57.352398 14583 net.cpp:84] Creating Layer relu4_3
I1205 09:54:57.352416 14583 net.cpp:406] relu4_3 <- conv4_3
I1205 09:54:57.352433 14583 net.cpp:367] relu4_3 -> conv4_3 (in-place)
I1205 09:54:57.352453 14583 net.cpp:122] Setting up relu4_3
I1205 09:54:57.352468 14583 net.cpp:129] Top shape: 16 512 28 28 (6422528)
I1205 09:54:57.352478 14583 net.cpp:137] Memory required for data: 1795096640
I1205 09:54:57.352493 14583 layer_factory.hpp:77] Creating layer pool4
I1205 09:54:57.352509 14583 net.cpp:84] Creating Layer pool4
I1205 09:54:57.352522 14583 net.cpp:406] pool4 <- conv4_3
I1205 09:54:57.352538 14583 net.cpp:380] pool4 -> pool4
I1205 09:54:57.352591 14583 net.cpp:122] Setting up pool4
I1205 09:54:57.352608 14583 net.cpp:129] Top shape: 16 512 14 14 (1605632)
I1205 09:54:57.352620 14583 net.cpp:137] Memory required for data: 1801519168
I1205 09:54:57.352632 14583 layer_factory.hpp:77] Creating layer conv5_1
I1205 09:54:57.352654 14583 net.cpp:84] Creating Layer conv5_1
I1205 09:54:57.352668 14583 net.cpp:406] conv5_1 <- pool4
I1205 09:54:57.352684 14583 net.cpp:380] conv5_1 -> conv5_1
I1205 09:54:57.383253 14583 net.cpp:122] Setting up conv5_1
I1205 09:54:57.383291 14583 net.cpp:129] Top shape: 16 512 14 14 (1605632)
I1205 09:54:57.383306 14583 net.cpp:137] Memory required for data: 1807941696
I1205 09:54:57.383325 14583 layer_factory.hpp:77] Creating layer relu5_1
I1205 09:54:57.383345 14583 net.cpp:84] Creating Layer relu5_1
I1205 09:54:57.383360 14583 net.cpp:406] relu5_1 <- conv5_1
I1205 09:54:57.383378 14583 net.cpp:367] relu5_1 -> conv5_1 (in-place)
I1205 09:54:57.383396 14583 net.cpp:122] Setting up relu5_1
I1205 09:54:57.383410 14583 net.cpp:129] Top shape: 16 512 14 14 (1605632)
I1205 09:54:57.383422 14583 net.cpp:137] Memory required for data: 1814364224
I1205 09:54:57.383435 14583 layer_factory.hpp:77] Creating layer conv5_2
I1205 09:54:57.383458 14583 net.cpp:84] Creating Layer conv5_2
I1205 09:54:57.383471 14583 net.cpp:406] conv5_2 <- conv5_1
I1205 09:54:57.383486 14583 net.cpp:380] conv5_2 -> conv5_2
I1205 09:54:57.413951 14583 net.cpp:122] Setting up conv5_2
I1205 09:54:57.413985 14583 net.cpp:129] Top shape: 16 512 14 14 (1605632)
I1205 09:54:57.413998 14583 net.cpp:137] Memory required for data: 1820786752
I1205 09:54:57.414016 14583 layer_factory.hpp:77] Creating layer relu5_2
I1205 09:54:57.414036 14583 net.cpp:84] Creating Layer relu5_2
I1205 09:54:57.414049 14583 net.cpp:406] relu5_2 <- conv5_2
I1205 09:54:57.414067 14583 net.cpp:367] relu5_2 -> conv5_2 (in-place)
I1205 09:54:57.414084 14583 net.cpp:122] Setting up relu5_2
I1205 09:54:57.414099 14583 net.cpp:129] Top shape: 16 512 14 14 (1605632)
I1205 09:54:57.414110 14583 net.cpp:137] Memory required for data: 1827209280
I1205 09:54:57.414124 14583 layer_factory.hpp:77] Creating layer conv5_3
I1205 09:54:57.414144 14583 net.cpp:84] Creating Layer conv5_3
I1205 09:54:57.414156 14583 net.cpp:406] conv5_3 <- conv5_2
I1205 09:54:57.414173 14583 net.cpp:380] conv5_3 -> conv5_3
I1205 09:54:57.444420 14583 net.cpp:122] Setting up conv5_3
I1205 09:54:57.444468 14583 net.cpp:129] Top shape: 16 512 14 14 (1605632)
I1205 09:54:57.444481 14583 net.cpp:137] Memory required for data: 1833631808
I1205 09:54:57.444500 14583 layer_factory.hpp:77] Creating layer relu5_3
I1205 09:54:57.444519 14583 net.cpp:84] Creating Layer relu5_3
I1205 09:54:57.444541 14583 net.cpp:406] relu5_3 <- conv5_3
I1205 09:54:57.444558 14583 net.cpp:367] relu5_3 -> conv5_3 (in-place)
I1205 09:54:57.444576 14583 net.cpp:122] Setting up relu5_3
I1205 09:54:57.444589 14583 net.cpp:129] Top shape: 16 512 14 14 (1605632)
I1205 09:54:57.444600 14583 net.cpp:137] Memory required for data: 1840054336
I1205 09:54:57.444617 14583 layer_factory.hpp:77] Creating layer pool5
I1205 09:54:57.444634 14583 net.cpp:84] Creating Layer pool5
I1205 09:54:57.444645 14583 net.cpp:406] pool5 <- conv5_3
I1205 09:54:57.444661 14583 net.cpp:380] pool5 -> pool5
I1205 09:54:57.444725 14583 net.cpp:122] Setting up pool5
I1205 09:54:57.444744 14583 net.cpp:129] Top shape: 16 512 7 7 (401408)
I1205 09:54:57.444756 14583 net.cpp:137] Memory required for data: 1841659968
I1205 09:54:57.444768 14583 layer_factory.hpp:77] Creating layer fc6
I1205 09:54:57.444797 14583 net.cpp:84] Creating Layer fc6
I1205 09:54:57.444811 14583 net.cpp:406] fc6 <- pool5
I1205 09:54:57.444828 14583 net.cpp:380] fc6 -> fc6
I1205 09:54:58.679391 14583 net.cpp:122] Setting up fc6
I1205 09:54:58.679450 14583 net.cpp:129] Top shape: 16 4096 (65536)
I1205 09:54:58.679461 14583 net.cpp:137] Memory required for data: 1841922112
I1205 09:54:58.679483 14583 layer_factory.hpp:77] Creating layer relu6
I1205 09:54:58.679517 14583 net.cpp:84] Creating Layer relu6
I1205 09:54:58.679530 14583 net.cpp:406] relu6 <- fc6
I1205 09:54:58.679548 14583 net.cpp:367] relu6 -> fc6 (in-place)
I1205 09:54:58.679569 14583 net.cpp:122] Setting up relu6
I1205 09:54:58.679581 14583 net.cpp:129] Top shape: 16 4096 (65536)
I1205 09:54:58.679591 14583 net.cpp:137] Memory required for data: 1842184256
I1205 09:54:58.679606 14583 layer_factory.hpp:77] Creating layer drop6
I1205 09:54:58.679625 14583 net.cpp:84] Creating Layer drop6
I1205 09:54:58.679636 14583 net.cpp:406] drop6 <- fc6
I1205 09:54:58.679651 14583 net.cpp:367] drop6 -> fc6 (in-place)
I1205 09:54:58.679694 14583 net.cpp:122] Setting up drop6
I1205 09:54:58.679716 14583 net.cpp:129] Top shape: 16 4096 (65536)
I1205 09:54:58.679726 14583 net.cpp:137] Memory required for data: 1842446400
I1205 09:54:58.679738 14583 layer_factory.hpp:77] Creating layer fc7
I1205 09:54:58.679755 14583 net.cpp:84] Creating Layer fc7
I1205 09:54:58.679769 14583 net.cpp:406] fc7 <- fc6
I1205 09:54:58.679782 14583 net.cpp:380] fc7 -> fc7
I1205 09:54:58.880161 14583 net.cpp:122] Setting up fc7
I1205 09:54:58.880228 14583 net.cpp:129] Top shape: 16 4096 (65536)
I1205 09:54:58.880241 14583 net.cpp:137] Memory required for data: 1842708544
I1205 09:54:58.880262 14583 layer_factory.hpp:77] Creating layer relu7
I1205 09:54:58.880283 14583 net.cpp:84] Creating Layer relu7
I1205 09:54:58.880306 14583 net.cpp:406] relu7 <- fc7
I1205 09:54:58.880323 14583 net.cpp:367] relu7 -> fc7 (in-place)
I1205 09:54:58.880343 14583 net.cpp:122] Setting up relu7
I1205 09:54:58.880355 14583 net.cpp:129] Top shape: 16 4096 (65536)
I1205 09:54:58.880373 14583 net.cpp:137] Memory required for data: 1842970688
I1205 09:54:58.880383 14583 layer_factory.hpp:77] Creating layer drop7
I1205 09:54:58.880399 14583 net.cpp:84] Creating Layer drop7
I1205 09:54:58.880411 14583 net.cpp:406] drop7 <- fc7
I1205 09:54:58.880424 14583 net.cpp:367] drop7 -> fc7 (in-place)
I1205 09:54:58.880465 14583 net.cpp:122] Setting up drop7
I1205 09:54:58.880481 14583 net.cpp:129] Top shape: 16 4096 (65536)
I1205 09:54:58.880491 14583 net.cpp:137] Memory required for data: 1843232832
I1205 09:54:58.880502 14583 layer_factory.hpp:77] Creating layer fc_scv_interesting
I1205 09:54:58.880520 14583 net.cpp:84] Creating Layer fc_scv_interesting
I1205 09:54:58.880532 14583 net.cpp:406] fc_scv_interesting <- fc7
I1205 09:54:58.880548 14583 net.cpp:380] fc_scv_interesting -> fc_scv_interesting
I1205 09:54:58.880719 14583 net.cpp:122] Setting up fc_scv_interesting
I1205 09:54:58.880738 14583 net.cpp:129] Top shape: 16 1 (16)
I1205 09:54:58.880749 14583 net.cpp:137] Memory required for data: 1843232896
I1205 09:54:58.880762 14583 layer_factory.hpp:77] Creating layer loss
I1205 09:54:58.880777 14583 net.cpp:84] Creating Layer loss
I1205 09:54:58.880795 14583 net.cpp:406] loss <- fc_scv_interesting
I1205 09:54:58.880810 14583 net.cpp:406] loss <- label
I1205 09:54:58.880825 14583 net.cpp:380] loss -> loss
I1205 09:54:58.880875 14583 net.cpp:122] Setting up loss
…
I1205 09:54:58.884104 14583 net.cpp:294] The NetState phase (1) differed from the phase (0) specified by a rule in layer data
I1205 09:54:58.884594 14583 net.cpp:51] Initializing net from parameters: 
name: "VGG-Places365-SCV-Interesting"
state {
  phase: TEST
}
layer {
  name: "data"
  type: "Data"
  top: "data"
  top: "label"
  include {
    phase: TEST
  }
  transform_param {
    mirror: false
    crop_size: 224
    mean_file: "/idiap/temp/lmedina/fine-tuning/vgg16_places365/places365CNN_mean.binaryproto"
  }
  data_param {
    source: "/idiap/temp/lmedina/fine-tuning/data/Interesting/validation_lmdb"
    batch_size: 16
    backend: LMDB
  }
}
layer {
  name: "conv1_1"
  type: "Convolution"
  bottom: "data"
  top: "conv1_1"
  param {
    lr_mult: 1
    decay_mult: 1
  }
  param {
    lr_mult: 2
    decay_mult: 0
  }
  convolution_param {
    num_output: 64
    pad: 1
    kernel_size: 3
    weight_filler {
      type: "gaussian"
      std: 0.01
    }
    bias_filler {
      type: "constant"
      value: 0
    }
  }
}
layer {
  name: "relu1_1"
  type: "ReLU"
  bottom: "conv1_1"
  top: "conv1_1"
}
layer {
  name: "conv1_2"
  type: "Convolution"
  bottom: "conv1_1"
  top: "conv1_2"
  param {
    lr_mult: 1
    decay_mult: 1
  }
  param {
    lr_mult: 2
    decay_mult: 0
  }
  convolution_param {
    num_output: 64
    pad: 1
    kernel_size: 3
    weight_filler {
      type: "gaussian"
      std: 0.01
    }
    bias_filler {
      type: "constant"
      value: 0
    }
  }
}
layer {
  name: "relu1_2"
  type: "ReLU"
  bottom: "conv1_2"
  top: "conv1_2"
}
layer {
  name: "pool1"
  type: "Pooling"
  bottom: "conv1_2"
  top: "pool1"
  pooling_param {
    pool: MAX
    kernel_size: 2
    stride: 2
  }
}
layer {
  name: "conv2_1"
  type: "Convolution"
  bottom: "pool1"
  top: "conv2_1"
  param {
    lr_mult: 1
    decay_mult: 1
  }
  param {
    lr_mult: 2
    decay_mult: 0
  }
  convolution_param {
    num_output: 128
    pad: 1
    kernel_size: 3
    weight_filler {
      type: "gaussian"
      std: 0.01
    }
    bias_filler {
      type: "constant"
      value: 0
    }
  }
}
layer {
  name: "relu2_1"
  type: "ReLU"
  bottom: "conv2_1"
  top: "conv2_1"
}
layer {
  name: "conv2_2"
  type: "Convolution"
  bottom: "conv2_1"
  top: "conv2_2"
  param {
    lr_mult: 1
    decay_mult: 1
  }
  param {
    lr_mult: 2
    decay_mult: 0
  }
  convolution_param {
    num_output: 128
    pad: 1
    kernel_size: 3
    weight_filler {
      type: "gaussian"
      std: 0.01
    }
    bias_filler {
      type: "constant"
      value: 0
    }
  }
}
layer {
  name: "relu2_2"
  type: "ReLU"
  bottom: "conv2_2"
  top: "conv2_2"
}
layer {
  name: "pool2"
  type: "Pooling"
  bottom: "conv2_2"
  top: "pool2"
  pooling_param {
    pool: MAX
    kernel_size: 2
    stride: 2
  }
}
layer {
  name: "conv3_1"
  type: "Convolution"
  bottom: "pool2"
  top: "conv3_1"
  param {
    lr_mult: 1
    decay_mult: 1
  }
  param {
    lr_mult: 2
    decay_mult: 0
  }
  convolution_param {
    num_output: 256
    pad: 1
    kernel_size: 3
    weight_filler {
      type: "gaussian"
      std: 0.01
    }
    bias_filler {
      type: "constant"
      value: 0
    }
  }
}
layer {
  name: "relu3_1"
  type: "ReLU"
  bottom: "conv3_1"
  top: "conv3_1"
}
layer {
  name: "conv3_2"
  type: "Convolution"
  bottom: "conv3_1"
  top: "conv3_2"
  param {
    lr_mult: 1
    decay_mult: 1
  }
  param {
    lr_mult: 2
    decay_mult: 0
  }
  convolution_param {
    num_output: 256
    pad: 1
    kernel_size: 3
    weight_filler {
      type: "gaussian"
      std: 0.01
    }
    bias_filler {
      type: "constant"
      value: 0
    }
  }
}
layer {
  name: "relu3_2"
  type: "ReLU"
  bottom: "conv3_2"
  top: "conv3_2"
}
layer {
  name: "conv3_3"
  type: "Convolution"
  bottom: "conv3_2"
  top: "conv3_3"
  param {
    lr_mult: 1
    decay_mult: 1
  }
  param {
    lr_mult: 2
    decay_mult: 0
  }
  convolution_param {
    num_output: 256
    pad: 1
    kernel_size: 3
    weight_filler {
      type: "gaussian"
      std: 0.01
    }
    bias_filler {
      type: "constant"
      value: 0
    }
  }
}
layer {
  name: "relu3_3"
  type: "ReLU"
  bottom: "conv3_3"
  top: "conv3_3"
}
layer {
  name: "pool3"
  type: "Pooling"
  bottom: "conv3_3"
  top: "pool3"
  pooling_param {
    pool: MAX
    kernel_size: 2
    stride: 2
  }
}
layer {
  name: "conv4_1"
  type: "Convolution"
  bottom: "pool3"
  top: "conv4_1"
  param {
    lr_mult: 1
    decay_mult: 1
  }
  param {
    lr_mult: 2
    decay_mult: 0
  }
  convolution_param {
    num_output: 512
    pad: 1
    kernel_size: 3
    weight_filler {
      type: "gaussian"
      std: 0.01
    }
    bias_filler {
      type: "constant"
      value: 0
    }
  }
}
layer {
  name: "relu4_1"
  type: "ReLU"
  bottom: "conv4_1"
  top: "conv4_1"
}
layer {
  name: "conv4_2"
  type: "Convolution"
  bottom: "conv4_1"
  top: "conv4_2"
  param {
    lr_mult: 1
    decay_mult: 1
  }
  param {
    lr_mult: 2
    decay_mult: 0
  }
  convolution_param {
    num_output: 512
    pad: 1
    kernel_size: 3
    weight_filler {
      type: "gaussian"
      std: 0.01
    }
    bias_filler {
      type: "constant"
      value: 0
    }
  }
}
layer {
  name: "relu4_2"
  type: "ReLU"
  bottom: "conv4_2"
  top: "conv4_2"
}
layer {
  name: "conv4_3"
  type: "Convolution"
  bottom: "conv4_2"
  top: "conv4_3"
  param {
    lr_mult: 1
    decay_mult: 1
  }
  param {
    lr_mult: 2
    decay_mult: 0
  }
  convolution_param {
    num_output: 512
    pad: 1
    kernel_size: 3
    weight_filler {
      type: "gaussian"
      std: 0.01
    }
    bias_filler {
      type: "constant"
      value: 0
    }
  }
}
layer {
  name: "relu4_3"
  type: "ReLU"
  bottom: "conv4_3"
  top: "conv4_3"
}
layer {
  name: "pool4"
  type: "Pooling"
  bottom: "conv4_3"
  top: "pool4"
  pooling_param {
    pool: MAX
    kernel_size: 2
    stride: 2
  }
}
layer {
  name: "conv5_1"
  type: "Convolution"
  bottom: "pool4"
  top: "conv5_1"
  param {
    lr_mult: 1
    decay_mult: 1
  }
  param {
    lr_mult: 2
    decay_mult: 0
  }
  convolution_param {
    num_output: 512
    pad: 1
    kernel_size: 3
    weight_filler {
      type: "gaussian"
      std: 0.01
    }
    bias_filler {
      type: "constant"
      value: 0
    }
  }
}
layer {
  name: "relu5_1"
  type: "ReLU"
  bottom: "conv5_1"
  top: "conv5_1"
}
layer {
  name: "conv5_2"
  type: "Convolution"
  bottom: "conv5_1"
  top: "conv5_2"
  param {
    lr_mult: 1
    decay_mult: 1
  }
  param {
    lr_mult: 2
    decay_mult: 0
  }
  convolution_param {
    num_output: 512
    pad: 1
    kernel_size: 3
    weight_filler {
      type: "gaussian"
      std: 0.01
    }
    bias_filler {
      type: "constant"
      value: 0
    }
  }
}
layer {
  name: "relu5_2"
  type: "ReLU"
  bottom: "conv5_2"
  top: "conv5_2"
}
layer {
  name: "conv5_3"
  type: "Convolution"
  bottom: "conv5_2"
  top: "conv5_3"
  param {
    lr_mult: 1
    decay_mult: 1
  }
  param {
    lr_mult: 2
    decay_mult: 0
  }
  convolution_param {
    num_output: 512
    pad: 1
    kernel_size: 3
    weight_filler {
      type: "gaussian"
      std: 0.01
    }
    bias_filler {
      type: "constant"
      value: 0
    }
  }
}
layer {
  name: "relu5_3"
  type: "ReLU"
  bottom: "conv5_3"
  top: "conv5_3"
}
layer {
  name: "pool5"
  type: "Pooling"
  bottom: "conv5_3"
  top: "pool5"
  pooling_param {
    pool: MAX
    kernel_size: 2
    stride: 2
  }
}
layer {
  name: "fc6"
  type: "InnerProduct"
  bottom: "pool5"
  top: "fc6"
  param {
    lr_mult: 1
    decay_mult: 1
  }
  param {
    lr_mult: 2
    decay_mult: 0
  }
  inner_product_param {
    num_output: 4096
    weight_filler {
      type: "gaussian"
      std: 0.01
    }
    bias_filler {
      type: "constant"
      value: 0
    }
  }
}
layer {
  name: "relu6"
  type: "ReLU"
  bottom: "fc6"
  top: "fc6"
}
layer {
  name: "drop6"
  type: "Dropout"
  bottom: "fc6"
  top: "fc6"
  dropout_param {
    dropout_ratio: 0.5
  }
}
layer {
  name: "fc7"
  type: "InnerProduct"
  bottom: "fc6"
  top: "fc7"
  param {
    lr_mult: 1
    decay_mult: 1
  }
  param {
    lr_mult: 2
    decay_mult: 0
  }
  inner_product_param {
    num_output: 4096
    weight_filler {
      type: "gaussian"
      std: 0.01
    }
    bias_filler {
      type: "constant"
      value: 0
    }
  }
}
layer {
  name: "relu7"
  type: "ReLU"
  bottom: "fc7"
  top: "fc7"
}
layer {
  name: "drop7"
  type: "Dropout"
  bottom: "fc7"
  top: "fc7"
  dropout_param {
    dropout_ratio: 0.5
  }
}
layer {
  name: "fc_scv_interesting"
  type: "InnerProduct"
  bottom: "fc7"
  top: "fc_scv_interesting"
  param {
    lr_mult: 10
    decay_mult: 1
  }
  param {
    lr_mult: 20
    decay_mult: 0
  }
  inner_product_param {
    num_output: 1
    weight_filler {
      type: "xavier"
      std: 0.01
    }
    bias_filler {
      type: "constant"
      value: 0
    }
  }
}
layer {
  name: "loss"
  type: "EuclideanLoss"
  bottom: "fc_scv_interesting"
  bottom: "label"
  top: "loss"
}
layer {
  name: "losttest"
  type: "EuclideanLoss"
  bottom: "fc_scv_interesting"
  bottom: "label"
  top: "losttest"
  include {
    phase: TEST
  }
}
I1205 09:54:58.884910 14583 layer_factory.hpp:77] Creating layer data
I1205 09:54:58.906188 14583 db_lmdb.cpp:35] Opened lmdb /idiap/temp/lmedina/fine-tuning/data/Interesting/validation_lmdb
I1205 09:54:58.924214 14583 net.cpp:84] Creating Layer data
I1205 09:54:58.924620 14583 net.cpp:380] data -> data
I1205 09:54:58.925770 14583 net.cpp:380] data -> label
I1205 09:54:58.925889 14583 data_transformer.cpp:25] Loading mean file from: /idiap/temp/lmedina/fine-tuning/vgg16_places365/places365CNN_mean.binaryproto
I1205 09:54:58.943225 14583 data_layer.cpp:45] output data size: 16,3,224,224
I1205 09:54:58.986660 14583 net.cpp:122] Setting up data
I1205 09:54:58.986714 14583 net.cpp:129] Top shape: 16 3 224 224 (2408448)
I1205 09:54:58.986732 14583 net.cpp:129] Top shape: 16 (16)
I1205 09:54:58.986747 14583 net.cpp:137] Memory required for data: 9633856
I1205 09:54:58.986764 14583 layer_factory.hpp:77] Creating layer label_data_1_split
I1205 09:54:58.986794 14583 net.cpp:84] Creating Layer label_data_1_split
I1205 09:54:58.986810 14583 net.cpp:406] label_data_1_split <- label
I1205 09:54:58.986830 14583 net.cpp:380] label_data_1_split -> label_data_1_split_0
I1205 09:54:58.986855 14583 net.cpp:380] label_data_1_split -> label_data_1_split_1
I1205 09:54:58.986940 14583 net.cpp:122] Setting up label_data_1_split
I1205 09:54:58.986960 14583 net.cpp:129] Top shape: 16 (16)
I1205 09:54:58.986974 14583 net.cpp:129] Top shape: 16 (16)
I1205 09:54:58.986987 14583 net.cpp:137] Memory required for data: 9633984
I1205 09:54:58.987000 14583 layer_factory.hpp:77] Creating layer conv1_1
I1205 09:54:58.987028 14583 net.cpp:84] Creating Layer conv1_1
I1205 09:54:58.987042 14583 net.cpp:406] conv1_1 <- data
I1205 09:54:58.987059 14583 net.cpp:380] conv1_1 -> conv1_1
I1205 09:54:58.987468 14583 net.cpp:122] Setting up conv1_1
I1205 09:54:58.987488 14583 net.cpp:129] Top shape: 16 64 224 224 (51380224)
I1205 09:54:58.987501 14583 net.cpp:137] Memory required for data: 215154880
I1205 09:54:58.987525 14583 layer_factory.hpp:77] Creating layer relu1_1
I1205 09:54:58.987546 14583 net.cpp:84] Creating Layer relu1_1
I1205 09:54:58.987560 14583 net.cpp:406] relu1_1 <- conv1_1
I1205 09:54:58.987576 14583 net.cpp:367] relu1_1 -> conv1_1 (in-place)
I1205 09:54:58.987592 14583 net.cpp:122] Setting up relu1_1
I1205 09:54:58.987608 14583 net.cpp:129] Top shape: 16 64 224 224 (51380224)
I1205 09:54:58.987622 14583 net.cpp:137] Memory required for data: 420675776
I1205 09:54:58.987637 14583 layer_factory.hpp:77] Creating layer conv1_2
I1205 09:54:58.987659 14583 net.cpp:84] Creating Layer conv1_2
I1205 09:54:58.987673 14583 net.cpp:406] conv1_2 <- conv1_1
I1205 09:54:58.987690 14583 net.cpp:380] conv1_2 -> conv1_2
I1205 09:54:58.989228 14583 net.cpp:122] Setting up conv1_2
I1205 09:54:58.989256 14583 net.cpp:129] Top shape: 16 64 224 224 (51380224)
I1205 09:54:58.989270 14583 net.cpp:137] Memory required for data: 626196672
I1205 09:54:58.989292 14583 layer_factory.hpp:77] Creating layer relu1_2
I1205 09:54:58.989343 14583 net.cpp:84] Creating Layer relu1_2
I1205 09:54:58.989358 14583 net.cpp:406] relu1_2 <- conv1_2
I1205 09:54:58.989377 14583 net.cpp:367] relu1_2 -> conv1_2 (in-place)
I1205 09:54:58.989397 14583 net.cpp:122] Setting up relu1_2
I1205 09:54:58.989413 14583 net.cpp:129] Top shape: 16 64 224 224 (51380224)
I1205 09:54:58.989424 14583 net.cpp:137] Memory required for data: 831717568
I1205 09:54:58.989442 14583 layer_factory.hpp:77] Creating layer pool1
I1205 09:54:58.989461 14583 net.cpp:84] Creating Layer pool1
I1205 09:54:58.989475 14583 net.cpp:406] pool1 <- conv1_2
I1205 09:54:58.989490 14583 net.cpp:380] pool1 -> pool1
I1205 09:54:58.989558 14583 net.cpp:122] Setting up pool1
I1205 09:54:58.989575 14583 net.cpp:129] Top shape: 16 64 112 112 (12845056)
I1205 09:54:58.989588 14583 net.cpp:137] Memory required for data: 883097792
I1205 09:54:58.989600 14583 layer_factory.hpp:77] Creating layer conv2_1
I1205 09:54:58.989622 14583 net.cpp:84] Creating Layer conv2_1
I1205 09:54:58.989635 14583 net.cpp:406] conv2_1 <- pool1
I1205 09:54:58.989652 14583 net.cpp:380] conv2_1 -> conv2_1
I1205 09:54:58.992141 14583 net.cpp:122] Setting up conv2_1
I1205 09:54:58.992174 14583 net.cpp:129] Top shape: 16 128 112 112 (25690112)
I1205 09:54:58.992188 14583 net.cpp:137] Memory required for data: 985858240
I1205 09:54:58.992210 14583 layer_factory.hpp:77] Creating layer relu2_1
I1205 09:54:58.992231 14583 net.cpp:84] Creating Layer relu2_1
I1205 09:54:58.992244 14583 net.cpp:406] relu2_1 <- conv2_1
I1205 09:54:58.992260 14583 net.cpp:367] relu2_1 -> conv2_1 (in-place)
I1205 09:54:58.992277 14583 net.cpp:122] Setting up relu2_1
I1205 09:54:58.992291 14583 net.cpp:129] Top shape: 16 128 112 112 (25690112)
I1205 09:54:58.992303 14583 net.cpp:137] Memory required for data: 1088618688
I1205 09:54:58.992316 14583 layer_factory.hpp:77] Creating layer conv2_2
I1205 09:54:58.992334 14583 net.cpp:84] Creating Layer conv2_2
I1205 09:54:58.992347 14583 net.cpp:406] conv2_2 <- conv2_1
I1205 09:54:58.992362 14583 net.cpp:380] conv2_2 -> conv2_2
I1205 09:54:58.994361 14583 net.cpp:122] Setting up conv2_2
I1205 09:54:58.994385 14583 net.cpp:129] Top shape: 16 128 112 112 (25690112)
I1205 09:54:58.994397 14583 net.cpp:137] Memory required for data: 1191379136
I1205 09:54:58.994413 14583 layer_factory.hpp:77] Creating layer relu2_2
I1205 09:54:58.994431 14583 net.cpp:84] Creating Layer relu2_2
I1205 09:54:58.994443 14583 net.cpp:406] relu2_2 <- conv2_2
I1205 09:54:58.994458 14583 net.cpp:367] relu2_2 -> conv2_2 (in-place)
I1205 09:54:58.994473 14583 net.cpp:122] Setting up relu2_2
I1205 09:54:58.994488 14583 net.cpp:129] Top shape: 16 128 112 112 (25690112)
I1205 09:54:58.994499 14583 net.cpp:137] Memory required for data: 1294139584
I1205 09:54:58.994511 14583 layer_factory.hpp:77] Creating layer pool2
I1205 09:54:58.994527 14583 net.cpp:84] Creating Layer pool2
I1205 09:54:58.994539 14583 net.cpp:406] pool2 <- conv2_2
I1205 09:54:58.994554 14583 net.cpp:380] pool2 -> pool2
I1205 09:54:58.994611 14583 net.cpp:122] Setting up pool2
I1205 09:54:58.994626 14583 net.cpp:129] Top shape: 16 128 56 56 (6422528)
I1205 09:54:58.994638 14583 net.cpp:137] Memory required for data: 1319829696
I1205 09:54:58.994650 14583 layer_factory.hpp:77] Creating layer conv3_1
I1205 09:54:58.994669 14583 net.cpp:84] Creating Layer conv3_1
I1205 09:54:58.994683 14583 net.cpp:406] conv3_1 <- pool2
I1205 09:54:58.994700 14583 net.cpp:380] conv3_1 -> conv3_1
I1205 09:54:59.001538 14583 net.cpp:122] Setting up conv3_1
I1205 09:54:59.001566 14583 net.cpp:129] Top shape: 16 256 56 56 (12845056)
I1205 09:54:59.001580 14583 net.cpp:137] Memory required for data: 1371209920
I1205 09:54:59.001602 14583 layer_factory.hpp:77] Creating layer relu3_1
I1205 09:54:59.001622 14583 net.cpp:84] Creating Layer relu3_1
I1205 09:54:59.001636 14583 net.cpp:406] relu3_1 <- conv3_1
I1205 09:54:59.001653 14583 net.cpp:367] relu3_1 -> conv3_1 (in-place)
I1205 09:54:59.001672 14583 net.cpp:122] Setting up relu3_1
I1205 09:54:59.001688 14583 net.cpp:129] Top shape: 16 256 56 56 (12845056)
I1205 09:54:59.001699 14583 net.cpp:137] Memory required for data: 1422590144
I1205 09:54:59.001711 14583 layer_factory.hpp:77] Creating layer conv3_2
I1205 09:54:59.001730 14583 net.cpp:84] Creating Layer conv3_2
I1205 09:54:59.001745 14583 net.cpp:406] conv3_2 <- conv3_1
I1205 09:54:59.001762 14583 net.cpp:380] conv3_2 -> conv3_2
I1205 09:54:59.009948 14583 net.cpp:122] Setting up conv3_2
I1205 09:54:59.009982 14583 net.cpp:129] Top shape: 16 256 56 56 (12845056)
I1205 09:54:59.009995 14583 net.cpp:137] Memory required for data: 1473970368
I1205 09:54:59.010011 14583 layer_factory.hpp:77] Creating layer relu3_2
I1205 09:54:59.010047 14583 net.cpp:84] Creating Layer relu3_2
I1205 09:54:59.010064 14583 net.cpp:406] relu3_2 <- conv3_2
I1205 09:54:59.010080 14583 net.cpp:367] relu3_2 -> conv3_2 (in-place)
I1205 09:54:59.010097 14583 net.cpp:122] Setting up relu3_2
I1205 09:54:59.010112 14583 net.cpp:129] Top shape: 16 256 56 56 (12845056)
I1205 09:54:59.010124 14583 net.cpp:137] Memory required for data: 1525350592
I1205 09:54:59.010136 14583 layer_factory.hpp:77] Creating layer conv3_3
I1205 09:54:59.010159 14583 net.cpp:84] Creating Layer conv3_3
I1205 09:54:59.010190 14583 net.cpp:406] conv3_3 <- conv3_2
I1205 09:54:59.010205 14583 net.cpp:380] conv3_3 -> conv3_3
I1205 09:54:59.018402 14583 net.cpp:122] Setting up conv3_3
I1205 09:54:59.018431 14583 net.cpp:129] Top shape: 16 256 56 56 (12845056)
I1205 09:54:59.018445 14583 net.cpp:137] Memory required for data: 1576730816
I1205 09:54:59.018460 14583 layer_factory.hpp:77] Creating layer relu3_3
I1205 09:54:59.018477 14583 net.cpp:84] Creating Layer relu3_3
I1205 09:54:59.018491 14583 net.cpp:406] relu3_3 <- conv3_3
I1205 09:54:59.018507 14583 net.cpp:367] relu3_3 -> conv3_3 (in-place)
I1205 09:54:59.018523 14583 net.cpp:122] Setting up relu3_3
I1205 09:54:59.018537 14583 net.cpp:129] Top shape: 16 256 56 56 (12845056)
I1205 09:54:59.018548 14583 net.cpp:137] Memory required for data: 1628111040
I1205 09:54:59.018561 14583 layer_factory.hpp:77] Creating layer pool3
I1205 09:54:59.018577 14583 net.cpp:84] Creating Layer pool3
I1205 09:54:59.018590 14583 net.cpp:406] pool3 <- conv3_3
I1205 09:54:59.018605 14583 net.cpp:380] pool3 -> pool3
I1205 09:54:59.018663 14583 net.cpp:122] Setting up pool3
I1205 09:54:59.018693 14583 net.cpp:129] Top shape: 16 256 28 28 (3211264)
I1205 09:54:59.018705 14583 net.cpp:137] Memory required for data: 1640956096
I1205 09:54:59.018718 14583 layer_factory.hpp:77] Creating layer conv4_1
I1205 09:54:59.018738 14583 net.cpp:84] Creating Layer conv4_1
I1205 09:54:59.018750 14583 net.cpp:406] conv4_1 <- pool3
I1205 09:54:59.018766 14583 net.cpp:380] conv4_1 -> conv4_1
I1205 09:54:59.042434 14583 net.cpp:122] Setting up conv4_1
I1205 09:54:59.042469 14583 net.cpp:129] Top shape: 16 512 28 28 (6422528)
I1205 09:54:59.042481 14583 net.cpp:137] Memory required for data: 1666646208
I1205 09:54:59.042500 14583 layer_factory.hpp:77] Creating layer relu4_1
I1205 09:54:59.042517 14583 net.cpp:84] Creating Layer relu4_1
I1205 09:54:59.042531 14583 net.cpp:406] relu4_1 <- conv4_1
I1205 09:54:59.042547 14583 net.cpp:367] relu4_1 -> conv4_1 (in-place)
I1205 09:54:59.042564 14583 net.cpp:122] Setting up relu4_1
I1205 09:54:59.042629 14583 net.cpp:129] Top shape: 16 512 28 28 (6422528)
I1205 09:54:59.042644 14583 net.cpp:137] Memory required for data: 1692336320
I1205 09:54:59.042656 14583 layer_factory.hpp:77] Creating layer conv4_2
I1205 09:54:59.042719 14583 net.cpp:84] Creating Layer conv4_2
I1205 09:54:59.042732 14583 net.cpp:406] conv4_2 <- conv4_1
I1205 09:54:59.042749 14583 net.cpp:380] conv4_2 -> conv4_2
I1205 09:54:59.090713 14583 net.cpp:122] Setting up conv4_2
I1205 09:54:59.090765 14583 net.cpp:129] Top shape: 16 512 28 28 (6422528)
I1205 09:54:59.090780 14583 net.cpp:137] Memory required for data: 1718026432
I1205 09:54:59.090808 14583 layer_factory.hpp:77] Creating layer relu4_2
I1205 09:54:59.090833 14583 net.cpp:84] Creating Layer relu4_2
I1205 09:54:59.090849 14583 net.cpp:406] relu4_2 <- conv4_2
I1205 09:54:59.090867 14583 net.cpp:367] relu4_2 -> conv4_2 (in-place)
I1205 09:54:59.090888 14583 net.cpp:122] Setting up relu4_2
I1205 09:54:59.090903 14583 net.cpp:129] Top shape: 16 512 28 28 (6422528)
I1205 09:54:59.090915 14583 net.cpp:137] Memory required for data: 1743716544
I1205 09:54:59.090929 14583 layer_factory.hpp:77] Creating layer conv4_3
I1205 09:54:59.090951 14583 net.cpp:84] Creating Layer conv4_3
I1205 09:54:59.090975 14583 net.cpp:406] conv4_3 <- conv4_2
I1205 09:54:59.090989 14583 net.cpp:380] conv4_3 -> conv4_3
I1205 09:54:59.130455 14583 net.cpp:122] Setting up conv4_3
I1205 09:54:59.130502 14583 net.cpp:129] Top shape: 16 512 28 28 (6422528)
I1205 09:54:59.130517 14583 net.cpp:137] Memory required for data: 1769406656
I1205 09:54:59.130537 14583 layer_factory.hpp:77] Creating layer relu4_3
I1205 09:54:59.130558 14583 net.cpp:84] Creating Layer relu4_3
I1205 09:54:59.130573 14583 net.cpp:406] relu4_3 <- conv4_3
I1205 09:54:59.130590 14583 net.cpp:367] relu4_3 -> conv4_3 (in-place)
I1205 09:54:59.130612 14583 net.cpp:122] Setting up relu4_3
I1205 09:54:59.130627 14583 net.cpp:129] Top shape: 16 512 28 28 (6422528)
I1205 09:54:59.130638 14583 net.cpp:137] Memory required for data: 1795096768
I1205 09:54:59.130651 14583 layer_factory.hpp:77] Creating layer pool4
I1205 09:54:59.130671 14583 net.cpp:84] Creating Layer pool4
I1205 09:54:59.130683 14583 net.cpp:406] pool4 <- conv4_3
I1205 09:54:59.130700 14583 net.cpp:380] pool4 -> pool4
I1205 09:54:59.130761 14583 net.cpp:122] Setting up pool4
I1205 09:54:59.130781 14583 net.cpp:129] Top shape: 16 512 14 14 (1605632)
I1205 09:54:59.130794 14583 net.cpp:137] Memory required for data: 1801519296
I1205 09:54:59.130806 14583 layer_factory.hpp:77] Creating layer conv5_1
I1205 09:54:59.130832 14583 net.cpp:84] Creating Layer conv5_1
I1205 09:54:59.130846 14583 net.cpp:406] conv5_1 <- pool4
I1205 09:54:59.130861 14583 net.cpp:380] conv5_1 -> conv5_1
I1205 09:54:59.183946 14583 net.cpp:122] Setting up conv5_1
I1205 09:54:59.184018 14583 net.cpp:129] Top shape: 16 512 14 14 (1605632)
I1205 09:54:59.184034 14583 net.cpp:137] Memory required for data: 1807941824
I1205 09:54:59.184065 14583 layer_factory.hpp:77] Creating layer relu5_1
I1205 09:54:59.184115 14583 net.cpp:84] Creating Layer relu5_1
I1205 09:54:59.184134 14583 net.cpp:406] relu5_1 <- conv5_1
I1205 09:54:59.184155 14583 net.cpp:367] relu5_1 -> conv5_1 (in-place)
I1205 09:54:59.184177 14583 net.cpp:122] Setting up relu5_1
I1205 09:54:59.184193 14583 net.cpp:129] Top shape: 16 512 14 14 (1605632)
I1205 09:54:59.184206 14583 net.cpp:137] Memory required for data: 1814364352
I1205 09:54:59.184219 14583 layer_factory.hpp:77] Creating layer conv5_2
I1205 09:54:59.184243 14583 net.cpp:84] Creating Layer conv5_2
I1205 09:54:59.184259 14583 net.cpp:406] conv5_2 <- conv5_1
I1205 09:54:59.184275 14583 net.cpp:380] conv5_2 -> conv5_2
I1205 09:54:59.224360 14583 net.cpp:122] Setting up conv5_2
I1205 09:54:59.224416 14583 net.cpp:129] Top shape: 16 512 14 14 (1605632)
I1205 09:54:59.224429 14583 net.cpp:137] Memory required for data: 1820786880
I1205 09:54:59.224450 14583 layer_factory.hpp:77] Creating layer relu5_2
I1205 09:54:59.224472 14583 net.cpp:84] Creating Layer relu5_2
I1205 09:54:59.224488 14583 net.cpp:406] relu5_2 <- conv5_2
I1205 09:54:59.224506 14583 net.cpp:367] relu5_2 -> conv5_2 (in-place)
I1205 09:54:59.224526 14583 net.cpp:122] Setting up relu5_2
I1205 09:54:59.224540 14583 net.cpp:129] Top shape: 16 512 14 14 (1605632)
I1205 09:54:59.224557 14583 net.cpp:137] Memory required for data: 1827209408
I1205 09:54:59.224570 14583 layer_factory.hpp:77] Creating layer conv5_3
I1205 09:54:59.224594 14583 net.cpp:84] Creating Layer conv5_3
I1205 09:54:59.224608 14583 net.cpp:406] conv5_3 <- conv5_2
I1205 09:54:59.224627 14583 net.cpp:380] conv5_3 -> conv5_3
I1205 09:54:59.255230 14583 net.cpp:122] Setting up conv5_3
I1205 09:54:59.255270 14583 net.cpp:129] Top shape: 16 512 14 14 (1605632)
I1205 09:54:59.255282 14583 net.cpp:137] Memory required for data: 1833631936
I1205 09:54:59.255302 14583 layer_factory.hpp:77] Creating layer relu5_3
I1205 09:54:59.255322 14583 net.cpp:84] Creating Layer relu5_3
I1205 09:54:59.255336 14583 net.cpp:406] relu5_3 <- conv5_3
I1205 09:54:59.255357 14583 net.cpp:367] relu5_3 -> conv5_3 (in-place)
I1205 09:54:59.255376 14583 net.cpp:122] Setting up relu5_3
I1205 09:54:59.255391 14583 net.cpp:129] Top shape: 16 512 14 14 (1605632)
I1205 09:54:59.255403 14583 net.cpp:137] Memory required for data: 1840054464
I1205 09:54:59.255421 14583 layer_factory.hpp:77] Creating layer pool5
I1205 09:54:59.255445 14583 net.cpp:84] Creating Layer pool5
I1205 09:54:59.255467 14583 net.cpp:406] pool5 <- conv5_3
I1205 09:54:59.255486 14583 net.cpp:380] pool5 -> pool5
I1205 09:54:59.255553 14583 net.cpp:122] Setting up pool5
I1205 09:54:59.255573 14583 net.cpp:129] Top shape: 16 512 7 7 (401408)
I1205 09:54:59.255585 14583 net.cpp:137] Memory required for data: 1841660096
I1205 09:54:59.255597 14583 layer_factory.hpp:77] Creating layer fc6
I1205 09:54:59.255620 14583 net.cpp:84] Creating Layer fc6
I1205 09:54:59.255633 14583 net.cpp:406] fc6 <- pool5
I1205 09:54:59.255650 14583 net.cpp:380] fc6 -> fc6
I1205 09:55:00.482240 14583 net.cpp:122] Setting up fc6
I1205 09:55:00.482306 14583 net.cpp:129] Top shape: 16 4096 (65536)
I1205 09:55:00.482319 14583 net.cpp:137] Memory required for data: 1841922240
I1205 09:55:00.482345 14583 layer_factory.hpp:77] Creating layer relu6
I1205 09:55:00.482369 14583 net.cpp:84] Creating Layer relu6
I1205 09:55:00.482381 14583 net.cpp:406] relu6 <- fc6
I1205 09:55:00.482398 14583 net.cpp:367] relu6 -> fc6 (in-place)
I1205 09:55:00.482419 14583 net.cpp:122] Setting up relu6
I1205 09:55:00.482434 14583 net.cpp:129] Top shape: 16 4096 (65536)
I1205 09:55:00.482444 14583 net.cpp:137] Memory required for data: 1842184384
I1205 09:55:00.482453 14583 layer_factory.hpp:77] Creating layer drop6
I1205 09:55:00.482468 14583 net.cpp:84] Creating Layer drop6
I1205 09:55:00.482478 14583 net.cpp:406] drop6 <- fc6
I1205 09:55:00.482491 14583 net.cpp:367] drop6 -> fc6 (in-place)
I1205 09:55:00.482535 14583 net.cpp:122] Setting up drop6
I1205 09:55:00.482548 14583 net.cpp:129] Top shape: 16 4096 (65536)
I1205 09:55:00.482558 14583 net.cpp:137] Memory required for data: 1842446528
I1205 09:55:00.482568 14583 layer_factory.hpp:77] Creating layer fc7
I1205 09:55:00.482585 14583 net.cpp:84] Creating Layer fc7
I1205 09:55:00.482595 14583 net.cpp:406] fc7 <- fc6
I1205 09:55:00.482610 14583 net.cpp:380] fc7 -> fc7
I1205 09:55:00.675992 14583 net.cpp:122] Setting up fc7
I1205 09:55:00.676057 14583 net.cpp:129] Top shape: 16 4096 (65536)
I1205 09:55:00.676069 14583 net.cpp:137] Memory required for data: 1842708672
I1205 09:55:00.676092 14583 layer_factory.hpp:77] Creating layer relu7
I1205 09:55:00.676115 14583 net.cpp:84] Creating Layer relu7
I1205 09:55:00.676129 14583 net.cpp:406] relu7 <- fc7
I1205 09:55:00.676148 14583 net.cpp:367] relu7 -> fc7 (in-place)
I1205 09:55:00.676169 14583 net.cpp:122] Setting up relu7
I1205 09:55:00.676182 14583 net.cpp:129] Top shape: 16 4096 (65536)
I1205 09:55:00.676196 14583 net.cpp:137] Memory required for data: 1842970816
I1205 09:55:00.676206 14583 layer_factory.hpp:77] Creating layer drop7
I1205 09:55:00.676221 14583 net.cpp:84] Creating Layer drop7
I1205 09:55:00.676234 14583 net.cpp:406] drop7 <- fc7
I1205 09:55:00.676245 14583 net.cpp:367] drop7 -> fc7 (in-place)
I1205 09:55:00.676292 14583 net.cpp:122] Setting up drop7
I1205 09:55:00.676309 14583 net.cpp:129] Top shape: 16 4096 (65536)
I1205 09:55:00.676321 14583 net.cpp:137] Memory required for data: 1843232960
I1205 09:55:00.676331 14583 layer_factory.hpp:77] Creating layer fc_scv_interesting
I1205 09:55:00.676352 14583 net.cpp:84] Creating Layer fc_scv_interesting
I1205 09:55:00.676362 14583 net.cpp:406] fc_scv_interesting <- fc7
I1205 09:55:00.676375 14583 net.cpp:380] fc_scv_interesting -> fc_scv_interesting
I1205 09:55:00.676522 14583 net.cpp:122] Setting up fc_scv_interesting
I1205 09:55:00.676539 14583 net.cpp:129] Top shape: 16 1 (16)
I1205 09:55:00.676550 14583 net.cpp:137] Memory required for data: 1843233024
I1205 09:55:00.676564 14583 layer_factory.hpp:77] Creating layer fc_scv_interesting_fc_scv_interesting_0_split
I1205 09:55:00.676579 14583 net.cpp:84] Creating Layer fc_scv_interesting_fc_scv_interesting_0_split
I1205 09:55:00.676590 14583 net.cpp:406] fc_scv_interesting_fc_scv_interesting_0_split <- fc_scv_interesting
I1205 09:55:00.676606 14583 net.cpp:380] fc_scv_interesting_fc_scv_interesting_0_split -> fc_scv_interesting_fc_scv_interesting_0_split_0
I1205 09:55:00.676626 14583 net.cpp:380] fc_scv_interesting_fc_scv_interesting_0_split -> fc_scv_interesting_fc_scv_interesting_0_split_1
I1205 09:55:00.676676 14583 net.cpp:122] Setting up fc_scv_interesting_fc_scv_interesting_0_split
I1205 09:55:00.676692 14583 net.cpp:129] Top shape: 16 1 (16)
I1205 09:55:00.676703 14583 net.cpp:129] Top shape: 16 1 (16)
I1205 09:55:00.676713 14583 net.cpp:137] Memory required for data: 1843233152
I1205 09:55:00.676724 14583 layer_factory.hpp:77] Creating layer loss
I1205 09:55:00.676743 14583 net.cpp:84] Creating Layer loss
I1205 09:55:00.676754 14583 net.cpp:406] loss <- fc_scv_interesting_fc_scv_interesting_0_split_0
I1205 09:55:00.676765 14583 net.cpp:406] loss <- label_data_1_split_0
I1205 09:55:00.676779 14583 net.cpp:380] loss -> loss
…
