…
I1130 04:07:52.682610 17494 net.cpp:51] Initializing net from parameters: 
name: "GoogleNet-Places365-SCV-Wealthy"
state {
  phase: TRAIN
  level: 0
  stage: ""
}
layer {
  name: "data"
  type: "Data"
  top: "data"
  top: "label"
  include {
    phase: TRAIN
  }
  transform_param {
    mirror: true
    crop_size: 224
    mean_file: "/idiap/temp/lmedina/fine-tuning/googlenet_places365/places365CNN_mean.binaryproto"
  }
  data_param {
    source: "/idiap/temp/lmedina/fine-tuning/data/Wealthy/train_lmdb"
    batch_size: 32
    backend: LMDB
  }
}
layer {
  name: "conv1/7x7_s2"
  type: "Convolution"
  bottom: "data"
  top: "conv1/7x7_s2"
  param {
    lr_mult: 1
    decay_mult: 1
  }
  param {
    lr_mult: 2
    decay_mult: 0
  }
  convolution_param {
    num_output: 64
    pad: 3
    kernel_size: 7
    stride: 2
    weight_filler {
      type: "xavier"
      std: 0.1
    }
    bias_filler {
      type: "constant"
      value: 0.2
    }
  }
}
layer {
  name: "conv1/relu_7x7"
  type: "ReLU"
  bottom: "conv1/7x7_s2"
  top: "conv1/7x7_s2"
}
layer {
  name: "pool1/3x3_s2"
  type: "Pooling"
  bottom: "conv1/7x7_s2"
  top: "pool1/3x3_s2"
  pooling_param {
    pool: MAX
    kernel_size: 3
    stride: 2
  }
}
layer {
  name: "pool1/norm1"
  type: "LRN"
  bottom: "pool1/3x3_s2"
  top: "pool1/norm1"
  lrn_param {
    local_size: 5
    alpha: 0.0001
    beta: 0.75
  }
}
layer {
  name: "conv2/3x3_reduce"
  type: "Convolution"
  bottom: "pool1/norm1"
  top: "conv2/3x3_reduce"
  param {
    lr_mult: 1
    decay_mult: 1
  }
  param {
    lr_mult: 2
    decay_mult: 0
  }
  convolution_param {
    num_output: 64
    kernel_size: 1
    weight_filler {
      type: "xavier"
      std: 0.1
    }
    bias_filler {
      type: "constant"
      value: 0.2
    }
  }
}
layer {
  name: "conv2/relu_3x3_reduce"
  type: "ReLU"
  bottom: "conv2/3x3_reduce"
  top: "conv2/3x3_reduce"
}
layer {
  name: "conv2/3x3"
  type: "Convolution"
  bottom: "conv2/3x3_reduce"
  top: "conv2/3x3"
  param {
    lr_mult: 1
    decay_mult: 1
  }
  param {
    lr_mult: 2
    decay_mult: 0
  }
  convolution_param {
    num_output: 192
    pad: 1
    kernel_size: 3
    weight_filler {
      type: "xavier"
      std: 0.03
    }
    bias_filler {
      type: "constant"
      value: 0.2
    }
  }
}
layer {
  name: "conv2/relu_3x3"
  type: "ReLU"
  bottom: "conv2/3x3"
  top: "conv2/3x3"
}
layer {
  name: "conv2/norm2"
  type: "LRN"
  bottom: "conv2/3x3"
  top: "conv2/norm2"
  lrn_param {
    local_size: 5
    alpha: 0.0001
    beta: 0.75
  }
}
layer {
  name: "pool2/3x3_s2"
  type: "Pooling"
  bottom: "conv2/norm2"
  top: "pool2/3x3_s2"
  pooling_param {
    pool: MAX
    kernel_size: 3
    stride: 2
  }
}
layer {
  name: "inception_3a/1x1"
  type: "Convolution"
  bottom: "pool2/3x3_s2"
  top: "inception_3a/1x1"
  param {
    lr_mult: 1
    decay_mult: 1
  }
  param {
    lr_mult: 2
    decay_mult: 0
  }
  convolution_param {
    num_output: 64
    kernel_size: 1
    weight_filler {
      type: "xavier"
      std: 0.03
    }
    bias_filler {
      type: "constant"
      value: 0.2
    }
  }
}
layer {
  name: "inception_3a/relu_1x1"
  type: "ReLU"
  bottom: "inception_3a/1x1"
  top: "inception_3a/1x1"
}
layer {
  name: "inception_3a/3x3_reduce"
  type: "Convolution"
  bottom: "pool2/3x3_s2"
  top: "inception_3a/3x3_reduce"
  param {
    lr_mult: 1
    decay_mult: 1
  }
  param {
    lr_mult: 2
    decay_mult: 0
  }
  convolution_param {
    num_output: 96
    kernel_size: 1
    weight_filler {
      type: "xavier"
      std: 0.09
    }
    bias_filler {
      type: "constant"
      value: 0.2
    }
  }
}
layer {
  name: "inception_3a/relu_3x3_reduce"
  type: "ReLU"
  bottom: "inception_3a/3x3_reduce"
  top: "inception_3a/3x3_reduce"
}
layer {
  name: "inception_3a/3x3"
  type: "Convolution"
  bottom: "inception_3a/3x3_reduce"
  top: "inception_3a/3x3"
  param {
    lr_mult: 1
    decay_mult: 1
  }
  param {
    lr_mult: 2
    decay_mult: 0
  }
  convolution_param {
    num_output: 128
    pad: 1
    kernel_size: 3
    weight_filler {
      type: "xavier"
      std: 0.03
    }
    bias_filler {
      type: "constant"
      value: 0.2
    }
  }
}
layer {
  name: "inception_3a/relu_3x3"
  type: "ReLU"
  bottom: "inception_3a/3x3"
  top: "inception_3a/3x3"
}
layer {
  name: "inception_3a/5x5_reduce"
  type: "Convolution"
  bottom: "pool2/3x3_s2"
  top: "inception_3a/5x5_reduce"
  param {
    lr_mult: 1
    decay_mult: 1
  }
  param {
    lr_mult: 2
    decay_mult: 0
  }
  convolution_param {
    num_output: 16
    kernel_size: 1
    weight_filler {
      type: "xavier"
      std: 0.2
    }
    bias_filler {
      type: "constant"
      value: 0.2
    }
  }
}
layer {
  name: "inception_3a/relu_5x5_reduce"
  type: "ReLU"
  bottom: "inception_3a/5x5_reduce"
  top: "inception_3a/5x5_reduce"
}
layer {
  name: "inception_3a/5x5"
  type: "Convolution"
  bottom: "inception_3a/5x5_reduce"
  top: "inception_3a/5x5"
  param {
    lr_mult: 1
    decay_mult: 1
  }
  param {
    lr_mult: 2
    decay_mult: 0
  }
  convolution_param {
    num_output: 32
    pad: 2
    kernel_size: 5
    weight_filler {
      type: "xavier"
      std: 0.03
    }
    bias_filler {
      type: "constant"
      value: 0.2
    }
  }
}
layer {
  name: "inception_3a/relu_5x5"
  type: "ReLU"
  bottom: "inception_3a/5x5"
  top: "inception_3a/5x5"
}
layer {
  name: "inception_3a/pool"
  type: "Pooling"
  bottom: "pool2/3x3_s2"
  top: "inception_3a/pool"
  pooling_param {
    pool: MAX
    kernel_size: 3
    stride: 1
    pad: 1
  }
}
layer {
  name: "inception_3a/pool_proj"
  type: "Convolution"
  bottom: "inception_3a/pool"
  top: "inception_3a/pool_proj"
  param {
    lr_mult: 1
    decay_mult: 1
  }
  param {
    lr_mult: 2
    decay_mult: 0
  }
  convolution_param {
    num_output: 32
    kernel_size: 1
    weight_filler {
      type: "xavier"
      std: 0.1
    }
    bias_filler {
      type: "constant"
      value: 0.2
    }
  }
}
layer {
  name: "inception_3a/relu_pool_proj"
  type: "ReLU"
  bottom: "inception_3a/pool_proj"
  top: "inception_3a/pool_proj"
}
layer {
  name: "inception_3a/output"
  type: "Concat"
  bottom: "inception_3a/1x1"
  bottom: "inception_3a/3x3"
  bottom: "inception_3a/5x5"
  bottom: "inception_3a/pool_proj"
  top: "inception_3a/output"
}
layer {
  name: "inception_3b/1x1"
  type: "Convolution"
  bottom: "inception_3a/output"
  top: "inception_3b/1x1"
  param {
    lr_mult: 1
    decay_mult: 1
  }
  param {
    lr_mult: 2
    decay_mult: 0
  }
  convolution_param {
    num_output: 128
    kernel_size: 1
    weight_filler {
      type: "xavier"
      std: 0.03
    }
    bias_filler {
      type: "constant"
      value: 0.2
    }
  }
}
layer {
  name: "inception_3b/relu_1x1"
  type: "ReLU"
  bottom: "inception_3b/1x1"
  top: "inception_3b/1x1"
}
layer {
  name: "inception_3b/3x3_reduce"
  type: "Convolution"
  bottom: "inception_3a/output"
  top: "inception_3b/3x3_reduce"
  param {
    lr_mult: 1
    decay_mult: 1
  }
  param {
    lr_mult: 2
    decay_mult: 0
  }
  convolution_param {
    num_output: 128
    kernel_size: 1
    weight_filler {
      type: "xavier"
      std: 0.09
    }
    bias_filler {
      type: "constant"
      value: 0.2
    }
  }
}
layer {
  name: "inception_3b/relu_3x3_reduce"
  type: "ReLU"
  bottom: "inception_3b/3x3_reduce"
  top: "inception_3b/3x3_reduce"
}
layer {
  name: "inception_3b/3x3"
  type: "Convolution"
  bottom: "inception_3b/3x3_reduce"
  top: "inception_3b/3x3"
  param {
    lr_mult: 1
    decay_mult: 1
  }
  param {
    lr_mult: 2
    decay_mult: 0
  }
  convolution_param {
    num_output: 192
    pad: 1
    kernel_size: 3
    weight_filler {
      type: "xavier"
      std: 0.03
    }
    bias_filler {
      type: "constant"
      value: 0.2
    }
  }
}
layer {
  name: "inception_3b/relu_3x3"
  type: "ReLU"
  bottom: "inception_3b/3x3"
  top: "inception_3b/3x3"
}
layer {
  name: "inception_3b/5x5_reduce"
  type: "Convolution"
  bottom: "inception_3a/output"
  top: "inception_3b/5x5_reduce"
  param {
    lr_mult: 1
    decay_mult: 1
  }
  param {
    lr_mult: 2
    decay_mult: 0
  }
  convolution_param {
    num_output: 32
    kernel_size: 1
    weight_filler {
      type: "xavier"
      std: 0.2
    }
    bias_filler {
      type: "constant"
      value: 0.2
    }
  }
}
layer {
  name: "inception_3b/relu_5x5_reduce"
  type: "ReLU"
  bottom: "inception_3b/5x5_reduce"
  top: "inception_3b/5x5_reduce"
}
layer {
  name: "inception_3b/5x5"
  type: "Convolution"
  bottom: "inception_3b/5x5_reduce"
  top: "inception_3b/5x5"
  param {
    lr_mult: 1
    decay_mult: 1
  }
  param {
    lr_mult: 2
    decay_mult: 0
  }
  convolution_param {
    num_output: 96
    pad: 2
    kernel_size: 5
    weight_filler {
      type: "xavier"
      std: 0.03
    }
    bias_filler {
      type: "constant"
      value: 0.2
    }
  }
}
layer {
  name: "inception_3b/relu_5x5"
  type: "ReLU"
  bottom: "inception_3b/5x5"
  top: "inception_3b/5x5"
}
layer {
  name: "inception_3b/pool"
  type: "Pooling"
  bottom: "inception_3a/output"
  top: "inception_3b/pool"
  pooling_param {
    pool: MAX
    kernel_size: 3
    stride: 1
    pad: 1
  }
}
layer {
  name: "inception_3b/pool_proj"
  type: "Convolution"
  bottom: "inception_3b/pool"
  top: "inception_3b/pool_proj"
  param {
    lr_mult: 1
    decay_mult: 1
  }
  param {
    lr_mult: 2
    decay_mult: 0
  }
  convolution_param {
    num_output: 64
    kernel_size: 1
    weight_filler {
      type: "xavier"
      std: 0.1
    }
    bias_filler {
      type: "constant"
      value: 0.2
    }
  }
}
layer {
  name: "inception_3b/relu_pool_proj"
  type: "ReLU"
  bottom: "inception_3b/pool_proj"
  top: "inception_3b/pool_proj"
}
layer {
  name: "inception_3b/output"
  type: "Concat"
  bottom: "inception_3b/1x1"
  bottom: "inception_3b/3x3"
  bottom: "inception_3b/5x5"
  bottom: "inception_3b/pool_proj"
  top: "inception_3b/output"
}
layer {
  name: "pool3/3x3_s2"
  type: "Pooling"
  bottom: "inception_3b/output"
  top: "pool3/3x3_s2"
  pooling_param {
    pool: MAX
    kernel_size: 3
    stride: 2
  }
}
layer {
  name: "inception_4a/1x1"
  type: "Convolution"
  bottom: "pool3/3x3_s2"
  top: "inception_4a/1x1"
  param {
    lr_mult: 1
    decay_mult: 1
  }
  param {
    lr_mult: 2
    decay_mult: 0
  }
  convolution_param {
    num_output: 192
    kernel_size: 1
    weight_filler {
      type: "xavier"
      std: 0.03
    }
    bias_filler {
      type: "constant"
      value: 0.2
    }
  }
}
layer {
  name: "inception_4a/relu_1x1"
  type: "ReLU"
  bottom: "inception_4a/1x1"
  top: "inception_4a/1x1"
}
layer {
  name: "inception_4a/3x3_reduce"
  type: "Convolution"
  bottom: "pool3/3x3_s2"
  top: "inception_4a/3x3_reduce"
  param {
    lr_mult: 1
    decay_mult: 1
  }
  param {
    lr_mult: 2
    decay_mult: 0
  }
  convolution_param {
    num_output: 96
    kernel_size: 1
    weight_filler {
      type: "xavier"
      std: 0.09
    }
    bias_filler {
      type: "constant"
      value: 0.2
    }
  }
}
layer {
  name: "inception_4a/relu_3x3_reduce"
  type: "ReLU"
  bottom: "inception_4a/3x3_reduce"
  top: "inception_4a/3x3_reduce"
}
layer {
  name: "inception_4a/3x3"
  type: "Convolution"
  bottom: "inception_4a/3x3_reduce"
  top: "inception_4a/3x3"
  param {
    lr_mult: 1
    decay_mult: 1
  }
  param {
    lr_mult: 2
    decay_mult: 0
  }
  convolution_param {
    num_output: 208
    pad: 1
    kernel_size: 3
    weight_filler {
      type: "xavier"
      std: 0.03
    }
    bias_filler {
      type: "constant"
      value: 0.2
    }
  }
}
layer {
  name: "inception_4a/relu_3x3"
  type: "ReLU"
  bottom: "inception_4a/3x3"
  top: "inception_4a/3x3"
}
layer {
  name: "inception_4a/5x5_reduce"
  type: "Convolution"
  bottom: "pool3/3x3_s2"
  top: "inception_4a/5x5_reduce"
  param {
    lr_mult: 1
    decay_mult: 1
  }
  param {
    lr_mult: 2
    decay_mult: 0
  }
  convolution_param {
    num_output: 16
    kernel_size: 1
    weight_filler {
      type: "xavier"
      std: 0.2
    }
    bias_filler {
      type: "constant"
      value: 0.2
    }
  }
}
layer {
  name: "inception_4a/relu_5x5_reduce"
  type: "ReLU"
  bottom: "inception_4a/5x5_reduce"
  top: "inception_4a/5x5_reduce"
}
layer {
  name: "inception_4a/5x5"
  type: "Convolution"
  bottom: "inception_4a/5x5_reduce"
  top: "inception_4a/5x5"
  param {
    lr_mult: 1
    decay_mult: 1
  }
  param {
    lr_mult: 2
    decay_mult: 0
  }
  convolution_param {
    num_output: 48
    pad: 2
    kernel_size: 5
    weight_filler {
      type: "xavier"
      std: 0.03
    }
    bias_filler {
      type: "constant"
      value: 0.2
    }
  }
}
layer {
  name: "inception_4a/relu_5x5"
  type: "ReLU"
  bottom: "inception_4a/5x5"
  top: "inception_4a/5x5"
}
layer {
  name: "inception_4a/pool"
  type: "Pooling"
  bottom: "pool3/3x3_s2"
  top: "inception_4a/pool"
  pooling_param {
    pool: MAX
    kernel_size: 3
    stride: 1
    pad: 1
  }
}
layer {
  name: "inception_4a/pool_proj"
  type: "Convolution"
  bottom: "inception_4a/pool"
  top: "inception_4a/pool_proj"
  param {
    lr_mult: 1
    decay_mult: 1
  }
  param {
    lr_mult: 2
    decay_mult: 0
  }
  convolution_param {
    num_output: 64
    kernel_size: 1
    weight_filler {
      type: "xavier"
      std: 0.1
    }
    bias_filler {
      type: "constant"
      value: 0.2
    }
  }
}
layer {
  name: "inception_4a/relu_pool_proj"
  type: "ReLU"
  bottom: "inception_4a/pool_proj"
  top: "inception_4a/pool_proj"
}
layer {
  name: "inception_4a/output"
  type: "Concat"
  bottom: "inception_4a/1x1"
  bottom: "inception_4a/3x3"
  bottom: "inception_4a/5x5"
  bottom: "inception_4a/pool_proj"
  top: "inception_4a/output"
}
layer {
  name: "inception_4b/1x1"
  type: "Convolution"
  bottom: "inception_4a/output"
  top: "inception_4b/1x1"
  param {
    lr_mult: 1
    decay_mult: 1
  }
  param {
    lr_mult: 2
    decay_mult: 0
  }
  convolution_param {
    num_output: 160
    kernel_size: 1
    weight_filler {
      type: "xavier"
      std: 0.03
    }
    bias_filler {
      type: "constant"
      value: 0.2
    }
  }
}
layer {
  name: "inception_4b/relu_1x1"
  type: "ReLU"
  bottom: "inception_4b/1x1"
  top: "inception_4b/1x1"
}
layer {
  name: "inception_4b/3x3_reduce"
  type: "Convolution"
  bottom: "inception_4a/output"
  top: "inception_4b/3x3_reduce"
  param {
    lr_mult: 1
    decay_mult: 1
  }
  param {
    lr_mult: 2
    decay_mult: 0
  }
  convolution_param {
    num_output: 112
    kernel_size: 1
    weight_filler {
      type: "xavier"
      std: 0.09
    }
    bias_filler {
      type: "constant"
      value: 0.2
    }
  }
}
layer {
  name: "inception_4b/relu_3x3_reduce"
  type: "ReLU"
  bottom: "inception_4b/3x3_reduce"
  top: "inception_4b/3x3_reduce"
}
layer {
  name: "inception_4b/3x3"
  type: "Convolution"
  bottom: "inception_4b/3x3_reduce"
  top: "inception_4b/3x3"
  param {
    lr_mult: 1
    decay_mult: 1
  }
  param {
    lr_mult: 2
    decay_mult: 0
  }
  convolution_param {
    num_output: 224
    pad: 1
    kernel_size: 3
    weight_filler {
      type: "xavier"
      std: 0.03
    }
    bias_filler {
      type: "constant"
      value: 0.2
    }
  }
}
layer {
  name: "inception_4b/relu_3x3"
  type: "ReLU"
  bottom: "inception_4b/3x3"
  top: "inception_4b/3x3"
}
layer {
  name: "inception_4b/5x5_reduce"
  type: "Convolution"
  bottom: "inception_4a/output"
  top: "inception_4b/5x5_reduce"
  param {
    lr_mult: 1
    decay_mult: 1
  }
  param {
    lr_mult: 2
    decay_mult: 0
  }
  convolution_param {
    num_output: 24
    kernel_size: 1
    weight_filler {
      type: "xavier"
      std: 0.2
    }
    bias_filler {
      type: "constant"
      value: 0.2
    }
  }
}
layer {
  name: "inception_4b/relu_5x5_reduce"
  type: "ReLU"
  bottom: "inception_4b/5x5_reduce"
  top: "inception_4b/5x5_reduce"
}
layer {
  name: "inception_4b/5x5"
  type: "Convolution"
  bottom: "inception_4b/5x5_reduce"
  top: "inception_4b/5x5"
  param {
    lr_mult: 1
    decay_mult: 1
  }
  param {
    lr_mult: 2
    decay_mult: 0
  }
  convolution_param {
    num_output: 64
    pad: 2
    kernel_size: 5
    weight_filler {
      type: "xavier"
      std: 0.03
    }
    bias_filler {
      type: "constant"
      value: 0.2
    }
  }
}
layer {
  name: "inception_4b/relu_5x5"
  type: "ReLU"
  bottom: "inception_4b/5x5"
  top: "inception_4b/5x5"
}
layer {
  name: "inception_4b/pool"
  type: "Pooling"
  bottom: "inception_4a/output"
  top: "inception_4b/pool"
  pooling_param {
    pool: MAX
    kernel_size: 3
    stride: 1
    pad: 1
  }
}
layer {
  name: "inception_4b/pool_proj"
  type: "Convolution"
  bottom: "inception_4b/pool"
  top: "inception_4b/pool_proj"
  param {
    lr_mult: 1
    decay_mult: 1
  }
  param {
    lr_mult: 2
    decay_mult: 0
  }
  convolution_param {
    num_output: 64
    kernel_size: 1
    weight_filler {
      type: "xavier"
      std: 0.1
    }
    bias_filler {
      type: "constant"
      value: 0.2
    }
  }
}
layer {
  name: "inception_4b/relu_pool_proj"
  type: "ReLU"
  bottom: "inception_4b/pool_proj"
  top: "inception_4b/pool_proj"
}
layer {
  name: "inception_4b/output"
  type: "Concat"
  bottom: "inception_4b/1x1"
  bottom: "inception_4b/3x3"
  bottom: "inception_4b/5x5"
  bottom: "inception_4b/pool_proj"
  top: "inception_4b/output"
}
layer {
  name: "inception_4c/1x1"
  type: "Convolution"
  bottom: "inception_4b/output"
  top: "inception_4c/1x1"
  param {
    lr_mult: 1
    decay_mult: 1
  }
  param {
    lr_mult: 2
    decay_mult: 0
  }
  convolution_param {
    num_output: 128
    kernel_size: 1
    weight_filler {
      type: "xavier"
      std: 0.03
    }
    bias_filler {
      type: "constant"
      value: 0.2
    }
  }
}
layer {
  name: "inception_4c/relu_1x1"
  type: "ReLU"
  bottom: "inception_4c/1x1"
  top: "inception_4c/1x1"
}
layer {
  name: "inception_4c/3x3_reduce"
  type: "Convolution"
  bottom: "inception_4b/output"
  top: "inception_4c/3x3_reduce"
  param {
    lr_mult: 1
    decay_mult: 1
  }
  param {
    lr_mult: 2
    decay_mult: 0
  }
  convolution_param {
    num_output: 128
    kernel_size: 1
    weight_filler {
      type: "xavier"
      std: 0.09
    }
    bias_filler {
      type: "constant"
      value: 0.2
    }
  }
}
layer {
  name: "inception_4c/relu_3x3_reduce"
  type: "ReLU"
  bottom: "inception_4c/3x3_reduce"
  top: "inception_4c/3x3_reduce"
}
layer {
  name: "inception_4c/3x3"
  type: "Convolution"
  bottom: "inception_4c/3x3_reduce"
  top: "inception_4c/3x3"
  param {
    lr_mult: 1
    decay_mult: 1
  }
  param {
    lr_mult: 2
    decay_mult: 0
  }
  convolution_param {
    num_output: 256
    pad: 1
    kernel_size: 3
    weight_filler {
      type: "xavier"
      std: 0.03
    }
    bias_filler {
      type: "constant"
      value: 0.2
    }
  }
}
layer {
  name: "inception_4c/relu_3x3"
  type: "ReLU"
  bottom: "inception_4c/3x3"
  top: "inception_4c/3x3"
}
layer {
  name: "inception_4c/5x5_reduce"
  type: "Convolution"
  bottom: "inception_4b/output"
  top: "inception_4c/5x5_reduce"
  param {
    lr_mult: 1
    decay_mult: 1
  }
  param {
    lr_mult: 2
    decay_mult: 0
  }
  convolution_param {
    num_output: 24
    kernel_size: 1
    weight_filler {
      type: "xavier"
      std: 0.2
    }
    bias_filler {
      type: "constant"
      value: 0.2
    }
  }
}
layer {
  name: "inception_4c/relu_5x5_reduce"
  type: "ReLU"
  bottom: "inception_4c/5x5_reduce"
  top: "inception_4c/5x5_reduce"
}
layer {
  name: "inception_4c/5x5"
  type: "Convolution"
  bottom: "inception_4c/5x5_reduce"
  top: "inception_4c/5x5"
  param {
    lr_mult: 1
    decay_mult: 1
  }
  param {
    lr_mult: 2
    decay_mult: 0
  }
  convolution_param {
    num_output: 64
    pad: 2
    kernel_size: 5
    weight_filler {
      type: "xavier"
      std: 0.03
    }
    bias_filler {
      type: "constant"
      value: 0.2
    }
  }
}
layer {
  name: "inception_4c/relu_5x5"
  type: "ReLU"
  bottom: "inception_4c/5x5"
  top: "inception_4c/5x5"
}
layer {
  name: "inception_4c/pool"
  type: "Pooling"
  bottom: "inception_4b/output"
  top: "inception_4c/pool"
  pooling_param {
    pool: MAX
    kernel_size: 3
    stride: 1
    pad: 1
  }
}
layer {
  name: "inception_4c/pool_proj"
  type: "Convolution"
  bottom: "inception_4c/pool"
  top: "inception_4c/pool_proj"
  param {
    lr_mult: 1
    decay_mult: 1
  }
  param {
    lr_mult: 2
    decay_mult: 0
  }
  convolution_param {
    num_output: 64
    kernel_size: 1
    weight_filler {
      type: "xavier"
      std: 0.1
    }
    bias_filler {
      type: "constant"
      value: 0.2
    }
  }
}
layer {
  name: "inception_4c/relu_pool_proj"
  type: "ReLU"
  bottom: "inception_4c/pool_proj"
  top: "inception_4c/pool_proj"
}
layer {
  name: "inception_4c/output"
  type: "Concat"
  bottom: "inception_4c/1x1"
  bottom: "inception_4c/3x3"
  bottom: "inception_4c/5x5"
  bottom: "inception_4c/pool_proj"
  top: "inception_4c/output"
}
layer {
  name: "inception_4d/1x1"
  type: "Convolution"
  bottom: "inception_4c/output"
  top: "inception_4d/1x1"
  param {
    lr_mult: 1
    decay_mult: 1
  }
  param {
    lr_mult: 2
    decay_mult: 0
  }
  convolution_param {
    num_output: 112
    kernel_size: 1
    weight_filler {
      type: "xavier"
      std: 0.03
    }
    bias_filler {
      type: "constant"
      value: 0.2
    }
  }
}
layer {
  name: "inception_4d/relu_1x1"
  type: "ReLU"
  bottom: "inception_4d/1x1"
  top: "inception_4d/1x1"
}
layer {
  name: "inception_4d/3x3_reduce"
  type: "Convolution"
  bottom: "inception_4c/output"
  top: "inception_4d/3x3_reduce"
  param {
    lr_mult: 1
    decay_mult: 1
  }
  param {
    lr_mult: 2
    decay_mult: 0
  }
  convolution_param {
    num_output: 144
    kernel_size: 1
    weight_filler {
      type: "xavier"
      std: 0.09
    }
    bias_filler {
      type: "constant"
      value: 0.2
    }
  }
}
layer {
  name: "inception_4d/relu_3x3_reduce"
  type: "ReLU"
  bottom: "inception_4d/3x3_reduce"
  top: "inception_4d/3x3_reduce"
}
layer {
  name: "inception_4d/3x3"
  type: "Convolution"
  bottom: "inception_4d/3x3_reduce"
  top: "inception_4d/3x3"
  param {
    lr_mult: 1
    decay_mult: 1
  }
  param {
    lr_mult: 2
    decay_mult: 0
  }
  convolution_param {
    num_output: 288
    pad: 1
    kernel_size: 3
    weight_filler {
      type: "xavier"
      std: 0.03
    }
    bias_filler {
      type: "constant"
      value: 0.2
    }
  }
}
layer {
  name: "inception_4d/relu_3x3"
  type: "ReLU"
  bottom: "inception_4d/3x3"
  top: "inception_4d/3x3"
}
layer {
  name: "inception_4d/5x5_reduce"
  type: "Convolution"
  bottom: "inception_4c/output"
  top: "inception_4d/5x5_reduce"
  param {
    lr_mult: 1
    decay_mult: 1
  }
  param {
    lr_mult: 2
    decay_mult: 0
  }
  convolution_param {
    num_output: 32
    kernel_size: 1
    weight_filler {
      type: "xavier"
      std: 0.2
    }
    bias_filler {
      type: "constant"
      value: 0.2
    }
  }
}
layer {
  name: "inception_4d/relu_5x5_reduce"
  type: "ReLU"
  bottom: "inception_4d/5x5_reduce"
  top: "inception_4d/5x5_reduce"
}
layer {
  name: "inception_4d/5x5"
  type: "Convolution"
  bottom: "inception_4d/5x5_reduce"
  top: "inception_4d/5x5"
  param {
    lr_mult: 1
    decay_mult: 1
  }
  param {
    lr_mult: 2
    decay_mult: 0
  }
  convolution_param {
    num_output: 64
    pad: 2
    kernel_size: 5
    weight_filler {
      type: "xavier"
      std: 0.03
    }
    bias_filler {
      type: "constant"
      value: 0.2
    }
  }
}
layer {
  name: "inception_4d/relu_5x5"
  type: "ReLU"
  bottom: "inception_4d/5x5"
  top: "inception_4d/5x5"
}
layer {
  name: "inception_4d/pool"
  type: "Pooling"
  bottom: "inception_4c/output"
  top: "inception_4d/pool"
  pooling_param {
    pool: MAX
    kernel_size: 3
    stride: 1
    pad: 1
  }
}
layer {
  name: "inception_4d/pool_proj"
  type: "Convolution"
  bottom: "inception_4d/pool"
  top: "inception_4d/pool_proj"
  param {
    lr_mult: 1
    decay_mult: 1
  }
  param {
    lr_mult: 2
    decay_mult: 0
  }
  convolution_param {
    num_output: 64
    kernel_size: 1
    weight_filler {
      type: "xavier"
      std: 0.1
    }
    bias_filler {
      type: "constant"
      value: 0.2
    }
  }
}
layer {
  name: "inception_4d/relu_pool_proj"
  type: "ReLU"
  bottom: "inception_4d/pool_proj"
  top: "inception_4d/pool_proj"
}
layer {
  name: "inception_4d/output"
  type: "Concat"
  bottom: "inception_4d/1x1"
  bottom: "inception_4d/3x3"
  bottom: "inception_4d/5x5"
  bottom: "inception_4d/pool_proj"
  top: "inception_4d/output"
}
layer {
  name: "inception_4e/1x1"
  type: "Convolution"
  bottom: "inception_4d/output"
  top: "inception_4e/1x1"
  param {
    lr_mult: 1
    decay_mult: 1
  }
  param {
    lr_mult: 2
    decay_mult: 0
  }
  convolution_param {
    num_output: 256
    kernel_size: 1
    weight_filler {
      type: "xavier"
      std: 0.03
    }
    bias_filler {
      type: "constant"
      value: 0.2
    }
  }
}
layer {
  name: "inception_4e/relu_1x1"
  type: "ReLU"
  bottom: "inception_4e/1x1"
  top: "inception_4e/1x1"
}
layer {
  name: "inception_4e/3x3_reduce"
  type: "Convolution"
  bottom: "inception_4d/output"
  top: "inception_4e/3x3_reduce"
  param {
    lr_mult: 1
    decay_mult: 1
  }
  param {
    lr_mult: 2
    decay_mult: 0
  }
  convolution_param {
    num_output: 160
    kernel_size: 1
    weight_filler {
      type: "xavier"
      std: 0.09
    }
    bias_filler {
      type: "constant"
      value: 0.2
    }
  }
}
layer {
  name: "inception_4e/relu_3x3_reduce"
  type: "ReLU"
  bottom: "inception_4e/3x3_reduce"
  top: "inception_4e/3x3_reduce"
}
layer {
  name: "inception_4e/3x3"
  type: "Convolution"
  bottom: "inception_4e/3x3_reduce"
  top: "inception_4e/3x3"
  param {
    lr_mult: 1
    decay_mult: 1
  }
  param {
    lr_mult: 2
    decay_mult: 0
  }
  convolution_param {
    num_output: 320
    pad: 1
    kernel_size: 3
    weight_filler {
      type: "xavier"
      std: 0.03
    }
    bias_filler {
      type: "constant"
      value: 0.2
    }
  }
}
layer {
  name: "inception_4e/relu_3x3"
  type: "ReLU"
  bottom: "inception_4e/3x3"
  top: "inception_4e/3x3"
}
layer {
  name: "inception_4e/5x5_reduce"
  type: "Convolution"
  bottom: "inception_4d/output"
  top: "inception_4e/5x5_reduce"
  param {
    lr_mult: 1
    decay_mult: 1
  }
  param {
    lr_mult: 2
    decay_mult: 0
  }
  convolution_param {
    num_output: 32
    kernel_size: 1
    weight_filler {
      type: "xavier"
      std: 0.2
    }
    bias_filler {
      type: "constant"
      value: 0.2
    }
  }
}
layer {
  name: "inception_4e/relu_5x5_reduce"
  type: "ReLU"
  bottom: "inception_4e/5x5_reduce"
  top: "inception_4e/5x5_reduce"
}
layer {
  name: "inception_4e/5x5"
  type: "Convolution"
  bottom: "inception_4e/5x5_reduce"
  top: "inception_4e/5x5"
  param {
    lr_mult: 1
    decay_mult: 1
  }
  param {
    lr_mult: 2
    decay_mult: 0
  }
  convolution_param {
    num_output: 128
    pad: 2
    kernel_size: 5
    weight_filler {
      type: "xavier"
      std: 0.03
    }
    bias_filler {
      type: "constant"
      value: 0.2
    }
  }
}
layer {
  name: "inception_4e/relu_5x5"
  type: "ReLU"
  bottom: "inception_4e/5x5"
  top: "inception_4e/5x5"
}
layer {
  name: "inception_4e/pool"
  type: "Pooling"
  bottom: "inception_4d/output"
  top: "inception_4e/pool"
  pooling_param {
    pool: MAX
    kernel_size: 3
    stride: 1
    pad: 1
  }
}
layer {
  name: "inception_4e/pool_proj"
  type: "Convolution"
  bottom: "inception_4e/pool"
  top: "inception_4e/pool_proj"
  param {
    lr_mult: 1
    decay_mult: 1
  }
  param {
    lr_mult: 2
    decay_mult: 0
  }
  convolution_param {
    num_output: 128
    kernel_size: 1
    weight_filler {
      type: "xavier"
      std: 0.1
    }
    bias_filler {
      type: "constant"
      value: 0.2
    }
  }
}
layer {
  name: "inception_4e/relu_pool_proj"
  type: "ReLU"
  bottom: "inception_4e/pool_proj"
  top: "inception_4e/pool_proj"
}
layer {
  name: "inception_4e/output"
  type: "Concat"
  bottom: "inception_4e/1x1"
  bottom: "inception_4e/3x3"
  bottom: "inception_4e/5x5"
  bottom: "inception_4e/pool_proj"
  top: "inception_4e/output"
}
layer {
  name: "pool4/3x3_s2"
  type: "Pooling"
  bottom: "inception_4e/output"
  top: "pool4/3x3_s2"
  pooling_param {
    pool: MAX
    kernel_size: 3
    stride: 2
  }
}
layer {
  name: "inception_5a/1x1"
  type: "Convolution"
  bottom: "pool4/3x3_s2"
  top: "inception_5a/1x1"
  param {
    lr_mult: 1
    decay_mult: 1
  }
  param {
    lr_mult: 2
    decay_mult: 0
  }
  convolution_param {
    num_output: 256
    kernel_size: 1
    weight_filler {
      type: "xavier"
      std: 0.03
    }
    bias_filler {
      type: "constant"
      value: 0.2
    }
  }
}
layer {
  name: "inception_5a/relu_1x1"
  type: "ReLU"
  bottom: "inception_5a/1x1"
  top: "inception_5a/1x1"
}
layer {
  name: "inception_5a/3x3_reduce"
  type: "Convolution"
  bottom: "pool4/3x3_s2"
  top: "inception_5a/3x3_reduce"
  param {
    lr_mult: 1
    decay_mult: 1
  }
  param {
    lr_mult: 2
    decay_mult: 0
  }
  convolution_param {
    num_output: 160
    kernel_size: 1
    weight_filler {
      type: "xavier"
      std: 0.09
    }
    bias_filler {
      type: "constant"
      value: 0.2
    }
  }
}
layer {
  name: "inception_5a/relu_3x3_reduce"
  type: "ReLU"
  bottom: "inception_5a/3x3_reduce"
  top: "inception_5a/3x3_reduce"
}
layer {
  name: "inception_5a/3x3"
  type: "Convolution"
  bottom: "inception_5a/3x3_reduce"
  top: "inception_5a/3x3"
  param {
    lr_mult: 1
    decay_mult: 1
  }
  param {
    lr_mult: 2
    decay_mult: 0
  }
  convolution_param {
    num_output: 320
    pad: 1
    kernel_size: 3
    weight_filler {
      type: "xavier"
      std: 0.03
    }
    bias_filler {
      type: "constant"
      value: 0.2
    }
  }
}
layer {
  name: "inception_5a/relu_3x3"
  type: "ReLU"
  bottom: "inception_5a/3x3"
  top: "inception_5a/3x3"
}
layer {
  name: "inception_5a/5x5_reduce"
  type: "Convolution"
  bottom: "pool4/3x3_s2"
  top: "inception_5a/5x5_reduc
I1130 04:07:52.683135 17494 layer_factory.hpp:77] Creating layer data
I1130 04:07:52.716481 17494 db_lmdb.cpp:35] Opened lmdb /idiap/temp/lmedina/fine-tuning/data/Wealthy/train_lmdb
I1130 04:07:52.764529 17494 net.cpp:84] Creating Layer data
I1130 04:07:52.764561 17494 net.cpp:380] data -> data
I1130 04:07:52.764583 17494 net.cpp:380] data -> label
I1130 04:07:52.764600 17494 data_transformer.cpp:25] Loading mean file from: /idiap/temp/lmedina/fine-tuning/googlenet_places365/places365CNN_mean.binaryproto
I1130 04:07:52.770331 17494 data_layer.cpp:45] output data size: 32,3,224,224
I1130 04:07:52.805069 17494 net.cpp:122] Setting up data
I1130 04:07:52.805109 17494 net.cpp:129] Top shape: 32 3 224 224 (4816896)
I1130 04:07:52.805115 17494 net.cpp:129] Top shape: 32 (32)
I1130 04:07:52.805120 17494 net.cpp:137] Memory required for data: 19267712
I1130 04:07:52.805131 17494 layer_factory.hpp:77] Creating layer conv1/7x7_s2
I1130 04:07:52.805156 17494 net.cpp:84] Creating Layer conv1/7x7_s2
I1130 04:07:52.805163 17494 net.cpp:406] conv1/7x7_s2 <- data
I1130 04:07:52.805177 17494 net.cpp:380] conv1/7x7_s2 -> conv1/7x7_s2
I1130 04:07:52.805821 17494 net.cpp:122] Setting up conv1/7x7_s2
I1130 04:07:52.805832 17494 net.cpp:129] Top shape: 32 64 112 112 (25690112)
I1130 04:07:52.805836 17494 net.cpp:137] Memory required for data: 122028160
I1130 04:07:52.805850 17494 layer_factory.hpp:77] Creating layer conv1/relu_7x7
I1130 04:07:52.805856 17494 net.cpp:84] Creating Layer conv1/relu_7x7
I1130 04:07:52.805865 17494 net.cpp:406] conv1/relu_7x7 <- conv1/7x7_s2
I1130 04:07:52.805871 17494 net.cpp:367] conv1/relu_7x7 -> conv1/7x7_s2 (in-place)
I1130 04:07:52.805881 17494 net.cpp:122] Setting up conv1/relu_7x7
I1130 04:07:52.805886 17494 net.cpp:129] Top shape: 32 64 112 112 (25690112)
I1130 04:07:52.805892 17494 net.cpp:137] Memory required for data: 224788608
I1130 04:07:52.805896 17494 layer_factory.hpp:77] Creating layer pool1/3x3_s2
I1130 04:07:52.805904 17494 net.cpp:84] Creating Layer pool1/3x3_s2
I1130 04:07:52.805910 17494 net.cpp:406] pool1/3x3_s2 <- conv1/7x7_s2
I1130 04:07:52.805917 17494 net.cpp:380] pool1/3x3_s2 -> pool1/3x3_s2
I1130 04:07:52.805987 17494 net.cpp:122] Setting up pool1/3x3_s2
I1130 04:07:52.805995 17494 net.cpp:129] Top shape: 32 64 56 56 (6422528)
I1130 04:07:52.806000 17494 net.cpp:137] Memory required for data: 250478720
I1130 04:07:52.806005 17494 layer_factory.hpp:77] Creating layer pool1/norm1
I1130 04:07:52.806015 17494 net.cpp:84] Creating Layer pool1/norm1
I1130 04:07:52.806020 17494 net.cpp:406] pool1/norm1 <- pool1/3x3_s2
I1130 04:07:52.806025 17494 net.cpp:380] pool1/norm1 -> pool1/norm1
I1130 04:07:52.806053 17494 net.cpp:122] Setting up pool1/norm1
I1130 04:07:52.806061 17494 net.cpp:129] Top shape: 32 64 56 56 (6422528)
I1130 04:07:52.806066 17494 net.cpp:137] Memory required for data: 276168832
I1130 04:07:52.806069 17494 layer_factory.hpp:77] Creating layer conv2/3x3_reduce
I1130 04:07:52.806078 17494 net.cpp:84] Creating Layer conv2/3x3_reduce
I1130 04:07:52.806083 17494 net.cpp:406] conv2/3x3_reduce <- pool1/norm1
I1130 04:07:52.806090 17494 net.cpp:380] conv2/3x3_reduce -> conv2/3x3_reduce
I1130 04:07:52.808315 17494 net.cpp:122] Setting up conv2/3x3_reduce
I1130 04:07:52.808331 17494 net.cpp:129] Top shape: 32 64 56 56 (6422528)
I1130 04:07:52.808336 17494 net.cpp:137] Memory required for data: 301858944
I1130 04:07:52.808348 17494 layer_factory.hpp:77] Creating layer conv2/relu_3x3_reduce
I1130 04:07:52.808357 17494 net.cpp:84] Creating Layer conv2/relu_3x3_reduce
I1130 04:07:52.808362 17494 net.cpp:406] conv2/relu_3x3_reduce <- conv2/3x3_reduce
I1130 04:07:52.808367 17494 net.cpp:367] conv2/relu_3x3_reduce -> conv2/3x3_reduce (in-place)
I1130 04:07:52.808375 17494 net.cpp:122] Setting up conv2/relu_3x3_reduce
I1130 04:07:52.808382 17494 net.cpp:129] Top shape: 32 64 56 56 (6422528)
I1130 04:07:52.808385 17494 net.cpp:137] Memory required for data: 327549056
I1130 04:07:52.808389 17494 layer_factory.hpp:77] Creating layer conv2/3x3
I1130 04:07:52.808400 17494 net.cpp:84] Creating Layer conv2/3x3
I1130 04:07:52.808404 17494 net.cpp:406] conv2/3x3 <- conv2/3x3_reduce
I1130 04:07:52.808411 17494 net.cpp:380] conv2/3x3 -> conv2/3x3
I1130 04:07:52.809546 17494 net.cpp:122] Setting up conv2/3x3
I1130 04:07:52.809557 17494 net.cpp:129] Top shape: 32 192 56 56 (19267584)
I1130 04:07:52.809562 17494 net.cpp:137] Memory required for data: 404619392
I1130 04:07:52.809572 17494 layer_factory.hpp:77] Creating layer conv2/relu_3x3
I1130 04:07:52.809581 17494 net.cpp:84] Creating Layer conv2/relu_3x3
I1130 04:07:52.809586 17494 net.cpp:406] conv2/relu_3x3 <- conv2/3x3
I1130 04:07:52.809592 17494 net.cpp:367] conv2/relu_3x3 -> conv2/3x3 (in-place)
I1130 04:07:52.809599 17494 net.cpp:122] Setting up conv2/relu_3x3
I1130 04:07:52.809604 17494 net.cpp:129] Top shape: 32 192 56 56 (19267584)
I1130 04:07:52.809610 17494 net.cpp:137] Memory required for data: 481689728
I1130 04:07:52.809614 17494 layer_factory.hpp:77] Creating layer conv2/norm2
I1130 04:07:52.809623 17494 net.cpp:84] Creating Layer conv2/norm2
I1130 04:07:52.809626 17494 net.cpp:406] conv2/norm2 <- conv2/3x3
I1130 04:07:52.809633 17494 net.cpp:380] conv2/norm2 -> conv2/norm2
I1130 04:07:52.809662 17494 net.cpp:122] Setting up conv2/norm2
I1130 04:07:52.809669 17494 net.cpp:129] Top shape: 32 192 56 56 (19267584)
I1130 04:07:52.809674 17494 net.cpp:137] Memory required for data: 558760064
I1130 04:07:52.809679 17494 layer_factory.hpp:77] Creating layer pool2/3x3_s2
I1130 04:07:52.809685 17494 net.cpp:84] Creating Layer pool2/3x3_s2
I1130 04:07:52.809690 17494 net.cpp:406] pool2/3x3_s2 <- conv2/norm2
I1130 04:07:52.809696 17494 net.cpp:380] pool2/3x3_s2 -> pool2/3x3_s2
I1130 04:07:52.809723 17494 net.cpp:122] Setting up pool2/3x3_s2
I1130 04:07:52.809731 17494 net.cpp:129] Top shape: 32 192 28 28 (4816896)
I1130 04:07:52.809738 17494 net.cpp:137] Memory required for data: 578027648
I1130 04:07:52.809743 17494 layer_factory.hpp:77] Creating layer pool2/3x3_s2_pool2/3x3_s2_0_split
I1130 04:07:52.809751 17494 net.cpp:84] Creating Layer pool2/3x3_s2_pool2/3x3_s2_0_split
I1130 04:07:52.809756 17494 net.cpp:406] pool2/3x3_s2_pool2/3x3_s2_0_split <- pool2/3x3_s2
I1130 04:07:52.809762 17494 net.cpp:380] pool2/3x3_s2_pool2/3x3_s2_0_split -> pool2/3x3_s2_pool2/3x3_s2_0_split_0
I1130 04:07:52.809768 17494 net.cpp:380] pool2/3x3_s2_pool2/3x3_s2_0_split -> pool2/3x3_s2_pool2/3x3_s2_0_split_1
I1130 04:07:52.809775 17494 net.cpp:380] pool2/3x3_s2_pool2/3x3_s2_0_split -> pool2/3x3_s2_pool2/3x3_s2_0_split_2
I1130 04:07:52.809782 17494 net.cpp:380] pool2/3x3_s2_pool2/3x3_s2_0_split -> pool2/3x3_s2_pool2/3x3_s2_0_split_3
I1130 04:07:52.809821 17494 net.cpp:122] Setting up pool2/3x3_s2_pool2/3x3_s2_0_split
I1130 04:07:52.809828 17494 net.cpp:129] Top shape: 32 192 28 28 (4816896)
I1130 04:07:52.809834 17494 net.cpp:129] Top shape: 32 192 28 28 (4816896)
I1130 04:07:52.809839 17494 net.cpp:129] Top shape: 32 192 28 28 (4816896)
I1130 04:07:52.809844 17494 net.cpp:129] Top shape: 32 192 28 28 (4816896)
I1130 04:07:52.809847 17494 net.cpp:137] Memory required for data: 655097984
I1130 04:07:52.809852 17494 layer_factory.hpp:77] Creating layer inception_3a/1x1
I1130 04:07:52.809861 17494 net.cpp:84] Creating Layer inception_3a/1x1
I1130 04:07:52.809866 17494 net.cpp:406] inception_3a/1x1 <- pool2/3x3_s2_pool2/3x3_s2_0_split_0
I1130 04:07:52.809873 17494 net.cpp:380] inception_3a/1x1 -> inception_3a/1x1
I1130 04:07:52.810626 17494 net.cpp:122] Setting up inception_3a/1x1
I1130 04:07:52.810637 17494 net.cpp:129] Top shape: 32 64 28 28 (1605632)
I1130 04:07:52.810642 17494 net.cpp:137] Memory required for data: 661520512
I1130 04:07:52.810652 17494 layer_factory.hpp:77] Creating layer inception_3a/relu_1x1
I1130 04:07:52.810658 17494 net.cpp:84] Creating Layer inception_3a/relu_1x1
I1130 04:07:52.810663 17494 net.cpp:406] inception_3a/relu_1x1 <- inception_3a/1x1
I1130 04:07:52.810669 17494 net.cpp:367] inception_3a/relu_1x1 -> inception_3a/1x1 (in-place)
I1130 04:07:52.810676 17494 net.cpp:122] Setting up inception_3a/relu_1x1
I1130 04:07:52.810683 17494 net.cpp:129] Top shape: 32 64 28 28 (1605632)
I1130 04:07:52.810686 17494 net.cpp:137] Memory required for data: 667943040
I1130 04:07:52.810691 17494 layer_factory.hpp:77] Creating layer inception_3a/3x3_reduce
I1130 04:07:52.810699 17494 net.cpp:84] Creating Layer inception_3a/3x3_reduce
I1130 04:07:52.810704 17494 net.cpp:406] inception_3a/3x3_reduce <- pool2/3x3_s2_pool2/3x3_s2_0_split_1
I1130 04:07:52.810711 17494 net.cpp:380] inception_3a/3x3_reduce -> inception_3a/3x3_reduce
I1130 04:07:52.811357 17494 net.cpp:122] Setting up inception_3a/3x3_reduce
I1130 04:07:52.811368 17494 net.cpp:129] Top shape: 32 96 28 28 (2408448)
I1130 04:07:52.811373 17494 net.cpp:137] Memory required for data: 677576832
I1130 04:07:52.811384 17494 layer_factory.hpp:77] Creating layer inception_3a/relu_3x3_reduce
I1130 04:07:52.811391 17494 net.cpp:84] Creating Layer inception_3a/relu_3x3_reduce
I1130 04:07:52.811398 17494 net.cpp:406] inception_3a/relu_3x3_reduce <- inception_3a/3x3_reduce
I1130 04:07:52.811403 17494 net.cpp:367] inception_3a/relu_3x3_reduce -> inception_3a/3x3_reduce (in-place)
I1130 04:07:52.811410 17494 net.cpp:122] Setting up inception_3a/relu_3x3_reduce
I1130 04:07:52.811416 17494 net.cpp:129] Top shape: 32 96 28 28 (2408448)
I1130 04:07:52.811420 17494 net.cpp:137] Memory required for data: 687210624
I1130 04:07:52.811425 17494 layer_factory.hpp:77] Creating layer inception_3a/3x3
I1130 04:07:52.811435 17494 net.cpp:84] Creating Layer inception_3a/3x3
I1130 04:07:52.811440 17494 net.cpp:406] inception_3a/3x3 <- inception_3a/3x3_reduce
I1130 04:07:52.811447 17494 net.cpp:380] inception_3a/3x3 -> inception_3a/3x3
I1130 04:07:52.812203 17494 net.cpp:122] Setting up inception_3a/3x3
I1130 04:07:52.812213 17494 net.cpp:129] Top shape: 32 128 28 28 (3211264)
I1130 04:07:52.812222 17494 net.cpp:137] Memory required for data: 700055680
I1130 04:07:52.812229 17494 layer_factory.hpp:77] Creating layer inception_3a/relu_3x3
I1130 04:07:52.812237 17494 net.cpp:84] Creating Layer inception_3a/relu_3x3
I1130 04:07:52.812242 17494 net.cpp:406] inception_3a/relu_3x3 <- inception_3a/3x3
I1130 04:07:52.812247 17494 net.cpp:367] inception_3a/relu_3x3 -> inception_3a/3x3 (in-place)
I1130 04:07:52.812254 17494 net.cpp:122] Setting up inception_3a/relu_3x3
I1130 04:07:52.812259 17494 net.cpp:129] Top shape: 32 128 28 28 (3211264)
I1130 04:07:52.812263 17494 net.cpp:137] Memory required for data: 712900736
I1130 04:07:52.812268 17494 layer_factory.hpp:77] Creating layer inception_3a/5x5_reduce
I1130 04:07:52.812276 17494 net.cpp:84] Creating Layer inception_3a/5x5_reduce
I1130 04:07:52.812281 17494 net.cpp:406] inception_3a/5x5_reduce <- pool2/3x3_s2_pool2/3x3_s2_0_split_2
I1130 04:07:52.812288 17494 net.cpp:380] inception_3a/5x5_reduce -> inception_3a/5x5_reduce
I1130 04:07:52.812471 17494 net.cpp:122] Setting up inception_3a/5x5_reduce
I1130 04:07:52.812481 17494 net.cpp:129] Top shape: 32 16 28 28 (401408)
I1130 04:07:52.812485 17494 net.cpp:137] Memory required for data: 714506368
I1130 04:07:52.812492 17494 layer_factory.hpp:77] Creating layer inception_3a/relu_5x5_reduce
I1130 04:07:52.812500 17494 net.cpp:84] Creating Layer inception_3a/relu_5x5_reduce
I1130 04:07:52.812505 17494 net.cpp:406] inception_3a/relu_5x5_reduce <- inception_3a/5x5_reduce
I1130 04:07:52.812510 17494 net.cpp:367] inception_3a/relu_5x5_reduce -> inception_3a/5x5_reduce (in-place)
I1130 04:07:52.812516 17494 net.cpp:122] Setting up inception_3a/relu_5x5_reduce
I1130 04:07:52.812522 17494 net.cpp:129] Top shape: 32 16 28 28 (401408)
I1130 04:07:52.812527 17494 net.cpp:137] Memory required for data: 716112000
I1130 04:07:52.812531 17494 layer_factory.hpp:77] Creating layer inception_3a/5x5
I1130 04:07:52.812541 17494 net.cpp:84] Creating Layer inception_3a/5x5
I1130 04:07:52.812546 17494 net.cpp:406] inception_3a/5x5 <- inception_3a/5x5_reduce
I1130 04:07:52.812553 17494 net.cpp:380] inception_3a/5x5 -> inception_3a/5x5
I1130 04:07:52.812780 17494 net.cpp:122] Setting up inception_3a/5x5
I1130 04:07:52.812789 17494 net.cpp:129] Top shape: 32 32 28 28 (802816)
I1130 04:07:52.812793 17494 net.cpp:137] Memory required for data: 719323264
I1130 04:07:52.812799 17494 layer_factory.hpp:77] Creating layer inception_3a/relu_5x5
I1130 04:07:52.812806 17494 net.cpp:84] Creating Layer inception_3a/relu_5x5
I1130 04:07:52.812811 17494 net.cpp:406] inception_3a/relu_5x5 <- inception_3a/5x5
I1130 04:07:52.812818 17494 net.cpp:367] inception_3a/relu_5x5 -> inception_3a/5x5 (in-place)
I1130 04:07:52.812824 17494 net.cpp:122] Setting up inception_3a/relu_5x5
I1130 04:07:52.812829 17494 net.cpp:129] Top shape: 32 32 28 28 (802816)
I1130 04:07:52.812834 17494 net.cpp:137] Memory required for data: 722534528
I1130 04:07:52.812837 17494 layer_factory.hpp:77] Creating layer inception_3a/pool
I1130 04:07:52.812844 17494 net.cpp:84] Creating Layer inception_3a/pool
I1130 04:07:52.812849 17494 net.cpp:406] inception_3a/pool <- pool2/3x3_s2_pool2/3x3_s2_0_split_3
I1130 04:07:52.812855 17494 net.cpp:380] inception_3a/pool -> inception_3a/pool
I1130 04:07:52.812885 17494 net.cpp:122] Setting up inception_3a/pool
I1130 04:07:52.812891 17494 net.cpp:129] Top shape: 32 192 28 28 (4816896)
I1130 04:07:52.812896 17494 net.cpp:137] Memory required for data: 741802112
I1130 04:07:52.812901 17494 layer_factory.hpp:77] Creating layer inception_3a/pool_proj
I1130 04:07:52.812909 17494 net.cpp:84] Creating Layer inception_3a/pool_proj
I1130 04:07:52.812913 17494 net.cpp:406] inception_3a/pool_proj <- inception_3a/pool
I1130 04:07:52.812921 17494 net.cpp:380] inception_3a/pool_proj -> inception_3a/pool_proj
I1130 04:07:52.813112 17494 net.cpp:122] Setting up inception_3a/pool_proj
I1130 04:07:52.813120 17494 net.cpp:129] Top shape: 32 32 28 28 (802816)
I1130 04:07:52.813124 17494 net.cpp:137] Memory required for data: 745013376
I1130 04:07:52.813136 17494 layer_factory.hpp:77] Creating layer inception_3a/relu_pool_proj
I1130 04:07:52.813143 17494 net.cpp:84] Creating Layer inception_3a/relu_pool_proj
I1130 04:07:52.813149 17494 net.cpp:406] inception_3a/relu_pool_proj <- inception_3a/pool_proj
I1130 04:07:52.813156 17494 net.cpp:367] inception_3a/relu_pool_proj -> inception_3a/pool_proj (in-place)
I1130 04:07:52.813163 17494 net.cpp:122] Setting up inception_3a/relu_pool_proj
I1130 04:07:52.813169 17494 net.cpp:129] Top shape: 32 32 28 28 (802816)
I1130 04:07:52.813172 17494 net.cpp:137] Memory required for data: 748224640
I1130 04:07:52.813177 17494 layer_factory.hpp:77] Creating layer inception_3a/output
I1130 04:07:52.813184 17494 net.cpp:84] Creating Layer inception_3a/output
I1130 04:07:52.813189 17494 net.cpp:406] inception_3a/output <- inception_3a/1x1
I1130 04:07:52.813194 17494 net.cpp:406] inception_3a/output <- inception_3a/3x3
I1130 04:07:52.813200 17494 net.cpp:406] inception_3a/output <- inception_3a/5x5
I1130 04:07:52.813205 17494 net.cpp:406] inception_3a/output <- inception_3a/pool_proj
I1130 04:07:52.813210 17494 net.cpp:380] inception_3a/output -> inception_3a/output
I1130 04:07:52.813231 17494 net.cpp:122] Setting up inception_3a/output
I1130 04:07:52.813238 17494 net.cpp:129] Top shape: 32 256 28 28 (6422528)
I1130 04:07:52.813242 17494 net.cpp:137] Memory required for data: 773914752
I1130 04:07:52.813247 17494 layer_factory.hpp:77] Creating layer inception_3a/output_inception_3a/output_0_split
I1130 04:07:52.813254 17494 net.cpp:84] Creating Layer inception_3a/output_inception_3a/output_0_split
I1130 04:07:52.813259 17494 net.cpp:406] inception_3a/output_inception_3a/output_0_split <- inception_3a/output
I1130 04:07:52.813266 17494 net.cpp:380] inception_3a/output_inception_3a/output_0_split -> inception_3a/output_inception_3a/output_0_split_0
I1130 04:07:52.813273 17494 net.cpp:380] inception_3a/output_inception_3a/output_0_split -> inception_3a/output_inception_3a/output_0_split_1
I1130 04:07:52.813280 17494 net.cpp:380] inception_3a/output_inception_3a/output_0_split -> inception_3a/output_inception_3a/output_0_split_2
I1130 04:07:52.813287 17494 net.cpp:380] inception_3a/output_inception_3a/output_0_split -> inception_3a/output_inception_3a/output_0_split_3
I1130 04:07:52.813328 17494 net.cpp:122] Setting up inception_3a/output_inception_3a/output_0_split
I1130 04:07:52.813335 17494 net.cpp:129] Top shape: 32 256 28 28 (6422528)
I1130 04:07:52.813341 17494 net.cpp:129] Top shape: 32 256 28 28 (6422528)
I1130 04:07:52.813346 17494 net.cpp:129] Top shape: 32 256 28 28 (6422528)
I1130 04:07:52.813351 17494 net.cpp:129] Top shape: 32 256 28 28 (6422528)
I1130 04:07:52.813355 17494 net.cpp:137] Memory required for data: 876675200
I1130 04:07:52.813359 17494 layer_factory.hpp:77] Creating layer inception_3b/1x1
I1130 04:07:52.813369 17494 net.cpp:84] Creating Layer inception_3b/1x1
I1130 04:07:52.813372 17494 net.cpp:406] inception_3b/1x1 <- inception_3a/output_inception_3a/output_0_split_0
I1130 04:07:52.813380 17494 net.cpp:380] inception_3b/1x1 -> inception_3b/1x1
I1130 04:07:52.813710 17494 net.cpp:122] Setting up inception_3b/1x1
I1130 04:07:52.813719 17494 net.cpp:129] Top shape: 32 128 28 28 (3211264)
I1130 04:07:52.813724 17494 net.cpp:137] Memory required for data: 889520256
I1130 04:07:52.813731 17494 layer_factory.hpp:77] Creating layer inception_3b/relu_1x1
I1130 04:07:52.813737 17494 net.cpp:84] Creating Layer inception_3b/relu_1x1
I1130 04:07:52.813742 17494 net.cpp:406] inception_3b/relu_1x1 <- inception_3b/1x1
I1130 04:07:52.813748 17494 net.cpp:367] inception_3b/relu_1x1 -> inception_3b/1x1 (in-place)
I1130 04:07:52.813755 17494 net.cpp:122] Setting up inception_3b/relu_1x1
I1130 04:07:52.813761 17494 net.cpp:129] Top shape: 32 128 28 28 (3211264)
I1130 04:07:52.813766 17494 net.cpp:137] Memory required for data: 902365312
I1130 04:07:52.813769 17494 layer_factory.hpp:77] Creating layer inception_3b/3x3_reduce
I1130 04:07:52.813778 17494 net.cpp:84] Creating Layer inception_3b/3x3_reduce
I1130 04:07:52.813783 17494 net.cpp:406] inception_3b/3x3_reduce <- inception_3a/output_inception_3a/output_0_split_1
I1130 04:07:52.813792 17494 net.cpp:380] inception_3b/3x3_reduce -> inception_3b/3x3_reduce
I1130 04:07:52.814121 17494 net.cpp:122] Setting up inception_3b/3x3_reduce
I1130 04:07:52.814129 17494 net.cpp:129] Top shape: 32 128 28 28 (3211264)
I1130 04:07:52.814133 17494 net.cpp:137] Memory required for data: 915210368
I1130 04:07:52.814141 17494 layer_factory.hpp:77] Creating layer inception_3b/relu_3x3_reduce
I1130 04:07:52.814146 17494 net.cpp:84] Creating Layer inception_3b/relu_3x3_reduce
I1130 04:07:52.814152 17494 net.cpp:406] inception_3b/relu_3x3_reduce <- inception_3b/3x3_reduce
I1130 04:07:52.814158 17494 net.cpp:367] inception_3b/relu_3x3_reduce -> inception_3b/3x3_reduce (in-place)
I1130 04:07:52.814164 17494 net.cpp:122] Setting up inception_3b/relu_3x3_reduce
I1130 04:07:52.814170 17494 net.cpp:129] Top shape: 32 128 28 28 (3211264)
I1130 04:07:52.814174 17494 net.cpp:137] Memory required for data: 928055424
I1130 04:07:52.814178 17494 layer_factory.hpp:77] Creating layer inception_3b/3x3
I1130 04:07:52.814188 17494 net.cpp:84] Creating Layer inception_3b/3x3
I1130 04:07:52.814193 17494 net.cpp:406] inception_3b/3x3 <- inception_3b/3x3_reduce
I1130 04:07:52.814199 17494 net.cpp:380] inception_3b/3x3 -> inception_3b/3x3
I1130 04:07:52.815914 17494 net.cpp:122] Setting up inception_3b/3x3
I1130 04:07:52.815925 17494 net.cpp:129] Top shape: 32 192 28 28 (4816896)
I1130 04:07:52.815930 17494 net.cpp:137] Memory required for data: 947323008
I1130 04:07:52.815938 17494 layer_factory.hpp:77] Creating layer inception_3b/relu_3x3
I1130 04:07:52.815948 17494 net.cpp:84] Creating Layer inception_3b/relu_3x3
I1130 04:07:52.815953 17494 net.cpp:406] inception_3b/relu_3x3 <- inception_3b/3x3
I1130 04:07:52.815958 17494 net.cpp:367] inception_3b/relu_3x3 -> inception_3b/3x3 (in-place)
I1130 04:07:52.815965 17494 net.cpp:122] Setting up inception_3b/relu_3x3
I1130 04:07:52.815971 17494 net.cpp:129] Top shape: 32 192 28 28 (4816896)
I1130 04:07:52.815975 17494 net.cpp:137] Memory required for data: 966590592
I1130 04:07:52.815979 17494 layer_factory.hpp:77] Creating layer inception_3b/5x5_reduce
I1130 04:07:52.815987 17494 net.cpp:84] Creating Layer inception_3b/5x5_reduce
I1130 04:07:52.815992 17494 net.cpp:406] inception_3b/5x5_reduce <- inception_3a/output_inception_3a/output_0_split_2
I1130 04:07:52.815999 17494 net.cpp:380] inception_3b/5x5_reduce -> inception_3b/5x5_reduce
I1130 04:07:52.816202 17494 net.cpp:122] Setting up inception_3b/5x5_reduce
I1130 04:07:52.816211 17494 net.cpp:129] Top shape: 32 32 28 28 (802816)
I1130 04:07:52.816216 17494 net.cpp:137] Memory required for data: 969801856
I1130 04:07:52.816223 17494 layer_factory.hpp:77] Creating layer inception_3b/relu_5x5_reduce
I1130 04:07:52.816229 17494 net.cpp:84] Creating Layer inception_3b/relu_5x5_reduce
I1130 04:07:52.816234 17494 net.cpp:406] inception_3b/relu_5x5_reduce <- inception_3b/5x5_reduce
I1130 04:07:52.816241 17494 net.cpp:367] inception_3b/relu_5x5_reduce -> inception_3b/5x5_reduce (in-place)
I1130 04:07:52.816247 17494 net.cpp:122] Setting up inception_3b/relu_5x5_reduce
I1130 04:07:52.816253 17494 net.cpp:129] Top shape: 32 32 28 28 (802816)
I1130 04:07:52.816257 17494 net.cpp:137] Memory required for data: 973013120
I1130 04:07:52.816262 17494 layer_factory.hpp:77] Creating layer inception_3b/5x5
I1130 04:07:52.816269 17494 net.cpp:84] Creating Layer inception_3b/5x5
I1130 04:07:52.816273 17494 net.cpp:406] inception_3b/5x5 <- inception_3b/5x5_reduce
I1130 04:07:52.816280 17494 net.cpp:380] inception_3b/5x5 -> inception_3b/5x5
I1130 04:07:52.817210 17494 net.cpp:122] Setting up inception_3b/5x5
I1130 04:07:52.817220 17494 net.cpp:129] Top shape: 32 96 28 28 (2408448)
I1130 04:07:52.817225 17494 net.cpp:137] Memory required for data: 982646912
I1130 04:07:52.817232 17494 layer_factory.hpp:77] Creating layer inception_3b/relu_5x5
I1130 04:07:52.817239 17494 net.cpp:84] Creating Layer inception_3b/relu_5x5
I1130 04:07:52.817245 17494 net.cpp:406] inception_3b/relu_5x5 <- inception_3b/5x5
I1130 04:07:52.817253 17494 net.cpp:367] inception_3b/relu_5x5 -> inception_3b/5x5 (in-place)
I1130 04:07:52.817260 17494 net.cpp:122] Setting up inception_3b/relu_5x5
I1130 04:07:52.817266 17494 net.cpp:129] Top shape: 32 96 28 28 (2408448)
I1130 04:07:52.817270 17494 net.cpp:137] Memory required for data: 992280704
I1130 04:07:52.817275 17494 layer_factory.hpp:77] Creating layer inception_3b/pool
I1130 04:07:52.817281 17494 net.cpp:84] Creating Layer inception_3b/pool
I1130 04:07:52.817286 17494 net.cpp:406] inception_3b/pool <- inception_3a/output_inception_3a/output_0_split_3
I1130 04:07:52.817292 17494 net.cpp:380] inception_3b/pool -> inception_3b/pool
I1130 04:07:52.817322 17494 net.cpp:122] Setting up inception_3b/pool
I1130 04:07:52.817329 17494 net.cpp:129] Top shape: 32 256 28 28 (6422528)
I1130 04:07:52.817333 17494 net.cpp:137] Memory required for data: 1017970816
I1130 04:07:52.817338 17494 layer_factory.hpp:77] Creating layer inception_3b/pool_proj
I1130 04:07:52.817347 17494 net.cpp:84] Creating Layer inception_3b/pool_proj
I1130 04:07:52.817351 17494 net.cpp:406] inception_3b/pool_proj <- inception_3b/pool
I1130 04:07:52.817358 17494 net.cpp:380] inception_3b/pool_proj -> inception_3b/pool_proj
I1130 04:07:52.817603 17494 net.cpp:122] Setting up inception_3b/pool_proj
I1130 04:07:52.817611 17494 net.cpp:129] Top shape: 32 64 28 28 (1605632)
I1130 04:07:52.817616 17494 net.cpp:137] Memory required for data: 1024393344
I1130 04:07:52.817622 17494 layer_factory.hpp:77] Creating layer inception_3b/relu_pool_proj
I1130 04:07:52.817628 17494 net.cpp:84] Creating Layer inception_3b/relu_pool_proj
I1130 04:07:52.817633 17494 net.cpp:406] inception_3b/relu_pool_proj <- inception_3b/pool_proj
I1130 04:07:52.817639 17494 net.cpp:367] inception_3b/relu_pool_proj -> inception_3b/pool_proj (in-place)
I1130 04:07:52.817646 17494 net.cpp:122] Setting up inception_3b/relu_pool_proj
I1130 04:07:52.817652 17494 net.cpp:129] Top shape: 32 64 28 28 (1605632)
I1130 04:07:52.817656 17494 net.cpp:137] Memory required for data: 1030815872
I1130 04:07:52.817661 17494 layer_factory.hpp:77] Creating layer inception_3b/output
I1130 04:07:52.817667 17494 net.cpp:84] Creating Layer inception_3b/output
I1130 04:07:52.817672 17494 net.cpp:406] inception_3b/output <- inception_3b/1x1
I1130 04:07:52.817677 17494 net.cpp:406] inception_3b/output <- inception_3b/3x3
I1130 04:07:52.817682 17494 net.cpp:406] inception_3b/output <- inception_3b/5x5
I1130 04:07:52.817687 17494 net.cpp:406] inception_3b/output <- inception_3b/pool_proj
I1130 04:07:52.817692 17494 net.cpp:380] inception_3b/output -> inception_3b/output
I1130 04:07:52.817714 17494 net.cpp:122] Setting up inception_3b/output
I1130 04:07:52.817721 17494 net.cpp:129] Top shape: 32 480 28 28 (12042240)
I1130 04:07:52.817726 17494 net.cpp:137] Memory required for data: 1078984832
I1130 04:07:52.817730 17494 layer_factory.hpp:77] Creating layer pool3/3x3_s2
I1130 04:07:52.817739 17494 net.cpp:84] Creating Layer pool3/3x3_s2
I1130 04:07:52.817744 17494 net.cpp:406] pool3/3x3_s2 <- inception_3b/output
I1130 04:07:52.817749 17494 net.cpp:380] pool3/3x3_s2 -> pool3/3x3_s2
I1130 04:07:52.817776 17494 net.cpp:122] Setting up pool3/3x3_s2
I1130 04:07:52.817783 17494 net.cpp:129] Top shape: 32 480 14 14 (3010560)
I1130 04:07:52.817788 17494 net.cpp:137] Memory required for data: 1091027072
I1130 04:07:52.817793 17494 layer_factory.hpp:77] Creating layer pool3/3x3_s2_pool3/3x3_s2_0_split
I1130 04:07:52.817800 17494 net.cpp:84] Creating Layer pool3/3x3_s2_pool3/3x3_s2_0_split
I1130 04:07:52.817804 17494 net.cpp:406] pool3/3x3_s2_pool3/3x3_s2_0_split <- pool3/3x3_s2
I1130 04:07:52.817811 17494 net.cpp:380] pool3/3x3_s2_pool3/3x3_s2_0_split -> pool3/3x3_s2_pool3/3x3_s2_0_split_0
I1130 04:07:52.817818 17494 net.cpp:380] pool3/3x3_s2_pool3/3x3_s2_0_split -> pool3/3x3_s2_pool3/3x3_s2_0_split_1
I1130 04:07:52.817826 17494 net.cpp:380] pool3/3x3_s2_pool3/3x3_s2_0_split -> pool3/3x3_s2_pool3/3x3_s2_0_split_2
I1130 04:07:52.817832 17494 net.cpp:380] pool3/3x3_s2_pool3/3x3_s2_0_split -> pool3/3x3_s2_pool3/3x3_s2_0_split_3
I1130 04:07:52.817874 17494 net.cpp:122] Setting up pool3/3x3_s2_pool3/3x3_s2_0_split
I1130 04:07:52.817881 17494 net.cpp:129] Top shape: 32 480 14 14 (3010560)
I1130 04:07:52.817886 17494 net.cpp:129] Top shape: 32 480 14 14 (3010560)
I1130 04:07:52.817891 17494 net.cpp:129] Top shape: 32 480 14 14 (3010560)
I1130 04:07:52.817896 17494 net.cpp:129] Top shape: 32 480 14 14 (3010560)
I1130 04:07:52.817900 17494 net.cpp:137] Memory required for data: 1139196032
I1130 04:07:52.817904 17494 layer_factory.hpp:77] Creating layer inception_4a/1x1
I1130 04:07:52.817914 17494 net.cpp:84] Creating Layer inception_4a/1x1
I1130 04:07:52.817919 17494 net.cpp:406] inception_4a/1x1 <- pool3/3x3_s2_pool3/3x3_s2_0_split_0
I1130 04:07:52.817924 17494 net.cpp:380] inception_4a/1x1 -> inception_4a/1x1
I1130 04:07:52.818568 17494 net.cpp:122] Setting up inception_4a/1x1
I1130 04:07:52.818578 17494 net.cpp:129] Top shape: 32 192 14 14 (1204224)
I1130 04:07:52.818583 17494 net.cpp:137] Memory required for data: 1144012928
I1130 04:07:52.818589 17494 layer_factory.hpp:77] Creating layer inception_4a/relu_1x1
I1130 04:07:52.818596 17494 net.cpp:84] Creating Layer inception_4a/relu_1x1
I1130 04:07:52.818601 17494 net.cpp:406] inception_4a/relu_1x1 <- inception_4a/1x1
I1130 04:07:52.818608 17494 net.cpp:367] inception_4a/relu_1x1 -> inception_4a/1x1 (in-place)
I1130 04:07:52.818614 17494 net.cpp:122] Setting up inception_4a/relu_1x1
I1130 04:07:52.818620 17494 net.cpp:129] Top shape: 32 192 14 14 (1204224)
I1130 04:07:52.818624 17494 net.cpp:137] Memory required for data: 1148829824
I1130 04:07:52.818629 17494 layer_factory.hpp:77] Creating layer inception_4a/3x3_reduce
I1130 04:07:52.818636 17494 net.cpp:84] Creating Layer inception_4a/3x3_reduce
I1130 04:07:52.818640 17494 net.cpp:406] inception_4a/3x3_reduce <- pool3/3x3_s2_pool3/3x3_s2_0_split_1
I1130 04:07:52.818648 17494 net.cpp:380] inception_4a/3x3_reduce -> inception_4a/3x3_reduce
I1130 04:07:52.819072 17494 net.cpp:122] Setting up inception_4a/3x3_reduce
I1130 04:07:52.819082 17494 net.cpp:129] Top shape: 32 96 14 14 (602112)
I1130 04:07:52.819087 17494 net.cpp:137] Memory required for data: 1151238272
I1130 04:07:52.819097 17494 layer_factory.hpp:77] Creating layer inception_4a/relu_3x3_reduce
I1130 04:07:52.819103 17494 net.cpp:84] Creating Layer inception_4a/relu_3x3_reduce
I1130 04:07:52.819108 17494 net.cpp:406] inception_4a/relu_3x3_reduce <- inception_4a/3x3_reduce
I1130 04:07:52.819114 17494 net.cpp:367] inception_4a/relu_3x3_reduce -> inception_4a/3x3_reduce (in-place)
I1130 04:07:52.819121 17494 net.cpp:122] Setting up inception_4a/relu_3x3_reduce
I1130 04:07:52.819128 17494 net.cpp:129] Top shape: 32 96 14 14 (602112)
I1130 04:07:52.819131 17494 net.cpp:137] Memory required for data: 1153646720
I1130 04:07:52.819135 17494 layer_factory.hpp:77] Creating layer inception_4a/3x3
I1130 04:07:52.819144 17494 net.cpp:84] Creating Layer inception_4a/3x3
I1130 04:07:52.819149 17494 net.cpp:406] inception_4a/3x3 <- inception_4a/3x3_reduce
I1130 04:07:52.819155 17494 net.cpp:380] inception_4a/3x3 -> inception_4a/3x3
I1130 04:07:52.820626 17494 net.cpp:122] Setting up inception_4a/3x3
I1130 04:07:52.820637 17494 net.cpp:129] Top shape: 32 208 14 14 (1304576)
I1130 04:07:52.820642 17494 net.cpp:137] Memory required for data: 1158865024
I1130 04:07:52.820649 17494 layer_factory.hpp:77] Creating layer inception_4a/relu_3x3
I1130 04:07:52.820657 17494 net.cpp:84] Creating Layer inception_4a/relu_3x3
I1130 04:07:52.820662 17494 net.cpp:406] inception_4a/relu_3x3 <- inception_4a/3x3
I1130 04:07:52.820668 17494 net.cpp:367] inception_4a/relu_3x3 -> inception_4a/3x3 (in-place)
I1130 04:07:52.820675 17494 net.cpp:122] Setting up inception_4a/relu_3x3
I1130 04:07:52.820682 17494 net.cpp:129] Top shape: 32 208 14 14 (1304576)
I1130 04:07:52.820685 17494 net.cpp:137] Memory required for data: 1164083328
I1130 04:07:52.820689 17494 layer_factory.hpp:77] Creating layer inception_4a/5x5_reduce
I1130 04:07:52.820696 17494 net.cpp:84] Creating Layer inception_4a/5x5_reduce
I1130 04:07:52.820704 17494 net.cpp:406] inception_4a/5x5_reduce <- pool3/3x3_s2_pool3/3x3_s2_0_split_2
I1130 04:07:52.820711 17494 net.cpp:380] inception_4a/5x5_reduce -> inception_4a/5x5_reduce
I1130 04:07:52.820915 17494 net.cpp:122] Setting up inception_4a/5x5_reduce
I1130 04:07:52.820924 17494 net.cpp:129] Top shape: 32 16 14 14 (100352)
I1130 04:07:52.820929 17494 net.cpp:137] Memory required for data: 1164484736
I1130 04:07:52.820935 17494 layer_factory.hpp:77] Creating layer inception_4a/relu_5x5_reduce
I1130 04:07:52.820942 17494 net.cpp:84] Creating Layer inception_4a/relu_5x5_reduce
I1130 04:07:52.820946 17494 net.cpp:406] inception_4a/relu_5x5_reduce <- inception_4a/5x5_reduce
I1130 04:07:52.820952 17494 net.cpp:367] inception_4a/relu_5x5_reduce -> inception_4a/5x5_reduce (in-place)
I1130 04:07:52.820960 17494 net.cpp:122] Setting up inception_4a/relu_5x5_reduce
I1130 04:07:52.820966 17494 net.cpp:129] Top shape: 32 16 14 14 (100352)
I1130 04:07:52.820969 17494 net.cpp:137] Memory required for data: 1164886144
I1130 04:07:52.820973 17494 layer_factory.hpp:77] Creating layer inception_4a/5x5
I1130 04:07:52.820981 17494 net.cpp:84] Creating Layer inception_4a/5x5
I1130 04:07:52.820986 17494 net.cpp:406] inception_4a/5x5 <- inception_4a/5x5_reduce
I1130 04:07:52.820992 17494 net.cpp:380] inception_4a/5x5 -> inception_4a/5x5
I1130 04:07:52.821259 17494 net.cpp:122] Setting up inception_4a/5x5
I1130 04:07:52.821267 17494 net.cpp:129] Top shape: 32 48 14 14 (301056)
I1130 04:07:52.821272 17494 net.cpp:137] Memory required for data: 1166090368
I1130 04:07:52.821279 17494 layer_factory.hpp:77] Creating layer inception_4a/relu_5x5
I1130 04:07:52.821285 17494 net.cpp:84] Creating Layer inception_4a/relu_5x5
I1130 04:07:52.821290 17494 net.cpp:406] inception_4a/relu_5x5 <- inception_4a/5x5
I1130 04:07:52.821295 17494 net.cpp:367] inception_4a/relu_5x5 -> inception_4a/5x5 (in-place)
I1130 04:07:52.821302 17494 net.cpp:122] Setting up inception_4a/relu_5x5
I1130 04:07:52.821307 17494 net.cpp:129] Top shape: 32 48 14 14 (301056)
I1130 04:07:52.821311 17494 net.cpp:137] Memory required for data: 1167294592
I1130 04:07:52.821316 17494 layer_factory.hpp:77] Creating layer inception_4a/pool
I1130 04:07:52.821322 17494 net.cpp:84] Creating Layer inception_4a/pool
I1130 04:07:52.821326 17494 net.cpp:406] inception_4a/pool <- pool3/3x3_s2_pool3/3x3_s2_0_split_3
I1130 04:07:52.821332 17494 net.cpp:380] inception_4a/pool -> inception_4a/pool
I1130 04:07:52.821362 17494 net.cpp:122] Setting up inception_4a/pool
I1130 04:07:52.821369 17494 net.cpp:129] Top shape: 32 480 14 14 (3010560)
I1130 04:07:52.821374 17494 net.cpp:137] Memory required for data: 1179336832
I1130 04:07:52.821379 17494 layer_factory.hpp:77] Creating layer inception_4a/pool_proj
I1130 04:07:52.821388 17494 net.cpp:84] Creating Layer inception_4a/pool_proj
I1130 04:07:52.821393 17494 net.cpp:406] inception_4a/pool_proj <- inception_4a/pool
I1130 04:07:52.821398 17494 net.cpp:380] inception_4a/pool_proj -> inception_4a/pool_proj
I1130 04:07:52.821725 17494 net.cpp:122] Setting up inception_4a/pool_proj
I1130 04:07:52.821734 17494 net.cpp:129] Top shape: 32 64 14 14 (401408)
I1130 04:07:52.821739 17494 net.cpp:137] Memory required for data: 1180942464
I1130 04:07:52.821746 17494 layer_factory.hpp:77] Creating layer inception_4a/relu_pool_proj
I1130 04:07:52.821753 17494 net.cpp:84] Creating Layer inception_4a/relu_pool_proj
I1130 04:07:52.821758 17494 net.cpp:406] inception_4a/relu_pool_proj <- inception_4a/pool_proj
I1130 04:07:52.821763 17494 net.cpp:367] inception_4a/relu_pool_proj -> inception_4a/pool_proj (in-place)
I1130 04:07:52.821770 17494 net.cpp:122] Setting up inception_4a/relu_pool_proj
I1130 04:07:52.821776 17494 net.cpp:129] Top shape: 32 64 14 14 (401408)
I1130 04:07:52.821780 17494 net.cpp:137] Memory required for data: 1182548096
I1130 04:07:52.821784 17494 layer_factory.hpp:77] Creating layer inception_4a/output
I1130 04:07:52.821790 17494 net.cpp:84] Creating Layer inception_4a/output
I1130 04:07:52.821795 17494 net.cpp:406] inception_4a/output <- inception_4a/1x1
I1130 04:07:52.821835 17494 net.cpp:406] inception_4a/output <- inception_4a/3x3
I1130 04:07:52.821841 17494 net.cpp:406] inception_4a/output <- inception_4a/5x5
I1130 04:07:52.821844 17494 net.cpp:406] inception_4a/output <- inception_4a/pool_proj
I1130 04:07:52.821851 17494 net.cpp:380] inception_4a/output -> inception_4a/output
I1130 04:07:52.821873 17494 net.cpp:122] Setting up inception_4a/output
I1130 04:07:52.821880 17494 net.cpp:129] Top shape: 32 512 14 14 (3211264)
I1130 04:07:52.821885 17494 net.cpp:137] Memory required for data: 1195393152
I1130 04:07:52.821889 17494 layer_factory.hpp:77] Creating layer inception_4a/output_inception_4a/output_0_split
I1130 04:07:52.821897 17494 net.cpp:84] Creating Layer inception_4a/output_inception_4a/output_0_split
I1130 04:07:52.821902 17494 net.cpp:406] inception_4a/output_inception_4a/output_0_split <- inception_4a/output
I1130 04:07:52.821907 17494 net.cpp:380] inception_4a/output_inception_4a/output_0_split -> inception_4a/output_inception_4a/output_0_split_0
I1130 04:07:52.821914 17494 net.cpp:380] inception_4a/output_inception_4a/output_0_split -> inception_4a/output_inception_4a/output_0_split_1
I1130 04:07:52.821921 17494 net.cpp:380] inception_4a/output_inception_4a/output_0_split -> inception_4a/output_inception_4a/output_0_split_2
I1130 04:07:52.821928 17494 net.cpp:380] inception_4a/output_inception_4a/output_0_split -> inception_4a/output_inception_4a/output_0_split_3
I1130 04:07:52.821970 17494 net.cpp:122] Setting up inception_4a/output_inception_4a/output_0_split
I1130 04:07:52.821977 17494 net.cpp:129] Top shape: 32 512 14 14 (3211264)
I1130 04:07:52.821982 17494 net.cpp:129] Top shape: 32 512 14 14 (3211264)
I1130 04:07:52.821987 17494 net.cpp:129] Top shape: 32 512 14 14 (3211264)
I1130 04:07:52.821992 17494 net.cpp:129] Top shape: 32 512 14 14 (3211264)
I1130 04:07:52.821997 17494 net.cpp:137] Memory required for data: 1246773376
I1130 04:07:52.822001 17494 layer_factory.hpp:77] Creating layer inception_4b/1x1
I1130 04:07:52.822010 17494 net.cpp:84] Creating Layer inception_4b/1x1
I1130 04:07:52.822015 17494 net.cpp:406] inception_4b/1x1 <- inception_4a/output_inception_4a/output_0_split_0
I1130 04:07:52.822022 17494 net.cpp:380] inception_4b/1x1 -> inception_4b/1x1
I1130 04:07:52.822613 17494 net.cpp:122] Setting up inception_4b/1x1
I1130 04:07:52.822621 17494 net.cpp:129] Top shape: 32 160 14 14 (1003520)
I1130 04:07:52.822626 17494 net.cpp:137] Memory required for data: 1250787456
I1130 04:07:52.822633 17494 layer_factory.hpp:77] Creating layer inception_4b/relu_1x1
I1130 04:07:52.822639 17494 net.cpp:84] Creating Layer inception_4b/relu_1x1
I1130 04:07:52.822643 17494 net.cpp:406] inception_4b/relu_1x1 <- inception_4b/1x1
I1130 04:07:52.822649 17494 net.cpp:367] inception_4b/relu_1x1 -> inception_4b/1x1 (in-place)
I1130 04:07:52.822656 17494 net.cpp:122] Setting up inception_4b/relu_1x1
I1130 04:07:52.822662 17494 net.cpp:129] Top shape: 32 160 14 14 (1003520)
I1130 04:07:52.822666 17494 net.cpp:137] Memory required for data: 1254801536
I1130 04:07:52.822670 17494 layer_factory.hpp:77] Creating layer inception_4b/3x3_reduce
I1130 04:07:52.822677 17494 net.cpp:84] Creating Layer inception_4b/3x3_reduce
I1130 04:07:52.822682 17494 net.cpp:406] inception_4b/3x3_reduce <- inception_4a/output_inception_4a/output_0_split_1
I1130 04:07:52.822690 17494 net.cpp:380] inception_4b/3x3_reduce -> inception_4b/3x3_reduce
I1130 04:07:52.823187 17494 net.cpp:122] Setting up inception_4b/3x3_reduce
I1130 04:07:52.823196 17494 net.cpp:129] Top shape: 32 112 14 14 (702464)
I1130 04:07:52.823201 17494 net.cpp:137] Memory required for data: 1257611392
I1130 04:07:52.823209 17494 layer_factory.hpp:77] Creating layer inception_4b/relu_3x3_reduce
I1130 04:07:52.823215 17494 net.cpp:84] Creating Layer inception_4b/relu_3x3_reduce
I1130 04:07:52.823220 17494 net.cpp:406] inception_4b/relu_3x3_reduce <- inception_4b/3x3_reduce
I1130 04:07:52.823225 17494 net.cpp:367] inception_4b/relu_3x3_reduce -> inception_4b/3x3_reduce (in-place)
I1130 04:07:52.823233 17494 net.cpp:122] Setting up inception_4b/relu_3x3_reduce
I1130 04:07:52.823238 17494 net.cpp:129] Top shape: 32 112 14 14 (702464)
I1130 04:07:52.823242 17494 net.cpp:137] Memory required for data: 1260421248
I1130 04:07:52.823247 17494 layer_factory.hpp:77] Creating layer inception_4b/3x3
I1130 04:07:52.823256 17494 net.cpp:84] Creating Layer inception_4b/3x3
I1130 04:07:52.823261 17494 net.cpp:406] inception_4b/3x3 <- inception_4b/3x3_reduce
I1130 04:07:52.823267 17494 net.cpp:380] inception_4b/3x3 -> inception_4b/3x3
I1130 04:07:52.824975 17494 net.cpp:122] Setting up inception_4b/3x3
I1130 04:07:52.824985 17494 net.cpp:129] Top shape: 32 224 14 14 (1404928)
I1130 04:07:52.824990 17494 net.cpp:137] Memory required for data: 1266040960
I1130 04:07:52.824996 17494 layer_factory.hpp:77] Creating layer inception_4b/relu_3x3
I1130 04:07:52.825003 17494 net.cpp:84] Creating Layer inception_4b/relu_3x3
I1130 04:07:52.825008 17494 net.cpp:406] inception_4b/relu_3x3 <- inception_4b/3x3
I1130 04:07:52.825014 17494 net.cpp:367] inception_4b/relu_3x3 -> inception_4b/3x3 (in-place)
I1130 04:07:52.825022 17494 net.cpp:122] Setting up inception_4b/relu_3x3
I1130 04:07:52.825028 17494 net.cpp:129] Top shape: 32 224 14 14 (1404928)
I1130 04:07:52.825032 17494 net.cpp:137] Memory required for data: 1271660672
I1130 04:07:52.825037 17494 layer_factory.hpp:77] Creating layer inception_4b/5x5_reduce
I1130 04:07:52.825047 17494 net.cpp:84] Creating Layer inception_4b/5x5_reduce
I1130 04:07:52.825052 17494 net.cpp:406] inception_4b/5x5_reduce <- inception_4a/output_inception_4a/output_0_split_2
I1130 04:07:52.825059 17494 net.cpp:380] inception_4b/5x5_reduce -> inception_4b/5x5_reduce
I1130 04:07:52.825292 17494 net.cpp:122] Setting up inception_4b/5x5_reduce
I1130 04:07:52.825300 17494 net.cpp:129] Top shape: 32 24 14 14 (150528)
I1130 04:07:52.825306 17494 net.cpp:137] Memory required for data: 1272262784
I1130 04:07:52.825314 17494 layer_factory.hpp:77] Creating layer inception_4b/relu_5x5_reduce
I1130 04:07:52.825320 17494 net.cpp:84] Creating Layer inception_4b/relu_5x5_reduce
I1130 04:07:52.825325 17494 net.cpp:406] inception_4b/relu_5x5_reduce <- inception_4b/5x5_reduce
I1130 04:07:52.825330 17494 net.cpp:367] inception_4b/relu_5x5_reduce -> inception_4b/5x5_reduce (in-place)
I1130 04:07:52.825337 17494 net.cpp:122] Setting up inception_4b/relu_5x5_reduce
I1130 04:07:52.825343 17494 net.cpp:129] Top shape: 32 24 14 14 (150528)
I1130 04:07:52.825347 17494 net.cpp:137] Memory required for data: 1272864896
I1130 04:07:52.825351 17494 layer_factory.hpp:77] Creating layer inception_4b/5x5
I1130 04:07:52.825359 17494 net.cpp:84] Creating Layer inception_4b/5x5
I1130 04:07:52.825364 17494 net.cpp:406] inception_4b/5x5 <- inception_4b/5x5_reduce
I1130 04:07:52.825372 17494 net.cpp:380] inception_4b/5x5 -> inception_4b/5x5
I1130 04:07:52.826099 17494 net.cpp:122] Setting up inception_4b/5x5
I1130 04:07:52.826110 17494 net.cpp:129] Top shape: 32 64 14 14 (401408)
I1130 04:07:52.826115 17494 net.cpp:137] Memory required for data: 1274470528
I1130 04:07:52.826122 17494 layer_factory.hpp:77] Creating layer inception_4b/relu_5x5
I1130 04:07:52.826128 17494 net.cpp:84] Creating Layer inception_4b/relu_5x5
I1130 04:07:52.826134 17494 net.cpp:406] inception_4b/relu_5x5 <- inception_4b/5x5
I1130 04:07:52.826139 17494 net.cpp:367] inception_4b/relu_5x5 -> inception_4b/5x5 (in-place)
I1130 04:07:52.826148 17494 net.cpp:122] Setting up inception_4b/relu_5x5
I1130 04:07:52.826153 17494 net.cpp:129] Top shape: 32 64 14 14 (401408)
I1130 04:07:52.826159 17494 net.cpp:137] Memory required for data: 1276076160
I1130 04:07:52.826162 17494 layer_factory.hpp:77] Creating layer inception_4b/pool
I1130 04:07:52.826169 17494 net.cpp:84] Creating Layer inception_4b/pool
I1130 04:07:52.826174 17494 net.cpp:406] inception_4b/pool <- inception_4a/output_inception_4a/output_0_split_3
I1130 04:07:52.826179 17494 net.cpp:380] inception_4b/pool -> inception_4b/pool
I1130 04:07:52.826211 17494 net.cpp:122] Setting up inception_4b/pool
I1130 04:07:52.826220 17494 net.cpp:129] Top shape: 32 512 14 14 (3211264)
I1130 04:07:52.826223 17494 net.cpp:137] Memory required for data: 1288921216
I1130 04:07:52.826228 17494 layer_factory.hpp:77] Creating layer inception_4b/pool_proj
I1130 04:07:52.826236 17494 net.cpp:84] Creating Layer inception_4b/pool_proj
I1130 04:07:52.826242 17494 net.cpp:406] inception_4b/pool_proj <- inception_4b/pool
I1130 04:07:52.826249 17494 net.cpp:380] inception_4b/pool_proj -> inception_4b/pool_proj
I1130 04:07:52.826583 17494 net.cpp:122] Setting up inception_4b/pool_proj
I1130 04:07:52.826592 17494 net.cpp:129] Top shape: 32 64 14 14 (401408)
I1130 04:07:52.826597 17494 net.cpp:137] Memory required for data: 1290526848
I1130 04:07:52.826604 17494 layer_factory.hpp:77] Creating layer inception_4b/relu_pool_proj
I1130 04:07:52.826611 17494 net.cpp:84] Creating Layer inception_4b/relu_pool_proj
I1130 04:07:52.826616 17494 net.cpp:406] inception_4b/relu_pool_proj <- inception_4b/pool_proj
I1130 04:07:52.826622 17494 net.cpp:367] inception_4b/relu_pool_proj -> inception_4b/pool_proj (in-place)
I1130 04:07:52.826628 17494 net.cpp:122] Setting up inception_4b/relu_pool_proj
I1130 04:07:52.826633 17494 net.cpp:129] Top shape: 32 64 14 14 (401408)
I1130 04:07:52.826637 17494 net.cpp:137] Memory required for data: 1292132480
I1130 04:07:52.826642 17494 layer_factory.hpp:77] Creating layer inception_4b/output
I1130 04:07:52.826647 17494 net.cpp:84] Creating Layer inception_4b/output
I1130 04:07:52.826653 17494 net.cpp:406] inception_4b/output <- inception_4b/1x1
I1130 04:07:52.826658 17494 net.cpp:406] inception_4b/output <- inception_4b/3x3
I1130 04:07:52.826663 17494 net.cpp:406] inception_4b/output <- inception_4b/5x5
I1130 04:07:52.826668 17494 net.cpp:406] inception_4b/output <- inception_4b/pool_proj
I1130 04:07:52.826673 17494 net.cpp:380] inception_4b/output -> inception_4b/output
I1130 04:07:52.826694 17494 net.cpp:122] Setting up inception_4b/output
I1130 04:07:52.826701 17494 net.cpp:129] Top shape: 32 512 14 14 (3211264)
I1130 04:07:52.826706 17494 net.cpp:137] Memory required for data: 1304977536
I1130 04:07:52.826711 17494 layer_factory.hpp:77] Creating layer inception_4b/output_inception_4b/output_0_split
I1130 04:07:52.826719 17494 net.cpp:84] Creating Layer inception_4b/output_inception_4b/output_0_split
I1130 04:07:52.826723 17494 net.cpp:406] inception_4b/output_inception_4b/output_0_split <- inception_4b/output
I1130 04:07:52.826730 17494 net.cpp:380] inception_4b/output_inception_4b/output_0_split -> inception_4b/output_inception_4b/output_0_split_0
I1130 04:07:52.826736 17494 net.cpp:380] inception_4b/output_inception_4b/output_0_split -> inception_4b/output_inception_4b/output_0_split_1
I1130 04:07:52.826743 17494 net.cpp:380] inception_4b/output_inception_4b/output_0_split -> inception_4b/output_inception_4b/output_0_split_2
I1130 04:07:52.826750 17494 net.cpp:380] inception_4b/output_inception_4b/output_0_split -> inception_4b/output_inception_4b/output_0_split_3
I1130 04:07:52.826803 17494 net.cpp:122] Setting up inception_4b/output_inception_4b/output_0_split
I1130 04:07:52.826812 17494 net.cpp:129] Top shape: 32 512 14 14 (3211264)
I1130 04:07:52.826817 17494 net.cpp:129] Top shape: 32 512 14 14 (3211264)
I1130 04:07:52.826822 17494 net.cpp:129] Top shape: 32 512 14 14 (3211264)
I1130 04:07:52.826827 17494 net.cpp:129] Top shape: 32 512 14 14 (3211264)
I1130 04:07:52.826830 17494 net.cpp:137] Memory required for data: 1356357760
I1130 04:07:52.826835 17494 layer_factory.hpp:77] Creating layer inception_4c/1x1
I1130 04:07:52.826843 17494 net.cpp:84] Creating Layer inception_4c/1x1
I1130 04:07:52.826848 17494 net.cpp:406] inception_4c/1x1 <- inception_4b/output_inception_4b/output_0_split_0
I1130 04:07:52.826855 17494 net.cpp:380] inception_4c/1x1 -> inception_4c/1x1
I1130 04:07:52.827361 17494 net.cpp:122] Setting up inception_4c/1x1
I1130 04:07:52.827370 17494 net.cpp:129] Top shape: 32 128 14 14 (802816)
I1130 04:07:52.827375 17494 net.cpp:137] Memory required for data: 1359569024
I1130 04:07:52.827383 17494 layer_factory.hpp:77] Creating layer inception_4c/relu_1x1
I1130 04:07:52.827389 17494 net.cpp:84] Creating Layer inception_4c/relu_1x1
I1130 04:07:52.827394 17494 net.cpp:406] inception_4c/relu_1x1 <- inception_4c/1x1
I1130 04:07:52.827399 17494 net.cpp:367] inception_4c/relu_1x1 -> inception_4c/1x1 (in-place)
I1130 04:07:52.827405 17494 net.cpp:122] Setting up inception_4c/relu_1x1
I1130 04:07:52.827411 17494 net.cpp:129] Top shape: 32 128 14 14 (802816)
I1130 04:07:52.827415 17494 net.cpp:137] Memory required for data: 1362780288
I1130 04:07:52.827419 17494 layer_factory.hpp:77] Creating layer inception_4c/3x3_reduce
I1130 04:07:52.827427 17494 net.cpp:84] Creating Layer inception_4c/3x3_reduce
I1130 04:07:52.827432 17494 net.cpp:406] inception_4c/3x3_reduce <- inception_4b/output_inception_4b/output_0_split_1
I1130 04:07:52.827440 17494 net.cpp:380] inception_4c/3x3_reduce -> inception_4c/3x3_reduce
I1130 04:07:52.827945 17494 net.cpp:122] Setting up inception_4c/3x3_reduce
I1130 04:07:52.827955 17494 net.cpp:129] Top shape: 32 128 14 14 (802816)
I1130 04:07:52.827960 17494 net.cpp:137] Memory required for data: 1365991552
I1130 04:07:52.827966 17494 layer_factory.hpp:77] Creating layer inception_4c/relu_3x3_reduce
I1130 04:07:52.827972 17494 net.cpp:84] Creating Layer inception_4c/relu_3x3_reduce
I1130 04:07:52.827977 17494 net.cpp:406] inception_4c/relu_3x3_reduce <- inception_4c/3x3_reduce
I1130 04:07:52.827983 17494 net.cpp:367] inception_4c/relu_3x3_reduce -> inception_4c/3x3_reduce (in-place)
I1130 04:07:52.827991 17494 net.cpp:122] Setting up inception_4c/relu_3x3_reduce
I1130 04:07:52.827996 17494 net.cpp:129] Top shape: 32 128 14 14 (802816)
I1130 04:07:52.828001 17494 net.cpp:137] Memory required for data: 1369202816
I1130 04:07:52.828004 17494 layer_factory.hpp:77] Creating layer inception_4c/3x3
I1130 04:07:52.828012 17494 net.cpp:84] Creating Layer inception_4c/3x3
I1130 04:07:52.828017 17494 net.cpp:406] inception_4c/3x3 <- inception_4c/3x3_reduce
I1130 04:07:52.828024 17494 net.cpp:380] inception_4c/3x3 -> inception_4c/3x3
I1130 04:07:52.830132 17494 net.cpp:122] Setting up inception_4c/3x3
I1130 04:07:52.830142 17494 net.cpp:129] Top shape: 32 256 14 14 (1605632)
I1130 04:07:52.830148 17494 net.cpp:137] Memory required for data: 1375625344
I1130 04:07:52.830155 17494 layer_factory.hpp:77] Creating layer inception_4c/relu_3x3
I1130 04:07:52.830162 17494 net.cpp:84] Creating Layer inception_4c/relu_3x3
I1130 04:07:52.830166 17494 net.cpp:406] inception_4c/relu_3x3 <- inception_4c/3x3
I1130 04:07:52.830173 17494 net.cpp:367] inception_4c/relu_3x3 -> inception_4c/3x3 (in-place)
I1130 04:07:52.830180 17494 net.cpp:122] Setting up inception_4c/relu_3x3
I1130 04:07:52.830185 17494 net.cpp:129] Top shape: 32 256 14 14 (1605632)
I1130 04:07:52.830190 17494 net.cpp:137] Memory required for data: 1382047872
I1130 04:07:52.830194 17494 layer_factory.hpp:77] Creating layer inception_4c/5x5_reduce
I1130 04:07:52.830202 17494 net.cpp:84] Creating Layer inception_4c/5x5_reduce
I1130 04:07:52.830207 17494 net.cpp:406] inception_4c/5x5_reduce <- inception_4b/output_inception_4b/output_0_split_2
I1130 04:07:52.830214 17494 net.cpp:380] inception_4c/5x5_reduce -> inception_4c/5x5_reduce
I1130 04:07:52.830449 17494 net.cpp:122] Setting up inception_4c/5x5_reduce
I1130 04:07:52.830458 17494 net.cpp:129] Top shape: 32 24 14 14 (150528)
I1130 04:07:52.830462 17494 net.cpp:137] Memory required for data: 1382649984
I1130 04:07:52.830469 17494 layer_factory.hpp:77] Creating layer inception_4c/relu_5x5_reduce
I1130 04:07:52.830476 17494 net.cpp:84] Creating Layer inception_4c/relu_5x5_reduce
I1130 04:07:52.830482 17494 net.cpp:406] inception_4c/relu_5x5_reduce <- inception_4c/5x5_reduce
I1130 04:07:52.830487 17494 net.cpp:367] inception_4c/relu_5x5_reduce -> inception_4c/5x5_reduce (in-place)
I1130 04:07:52.830493 17494 net.cpp:122] Setting up inception_4c/relu_5x5_reduce
I1130 04:07:52.830499 17494 net.cpp:129] Top shape: 32 24 14 14 (150528)
I1130 04:07:52.830503 17494 net.cpp:137] Memory required for data: 1383252096
I1130 04:07:52.830507 17494 layer_factory.hpp:77] Creating layer inception_4c/5x5
I1130 04:07:52.830515 17494 net.cpp:84] Creating Layer inception_4c/5x5
I1130 04:07:52.830520 17494 net.cpp:406] inception_4c/5x5 <- inception_4c/5x5_reduce
I1130 04:07:52.830528 17494 net.cpp:380] inception_4c/5x5 -> inception_4c/5x5
I1130 04:07:52.830905 17494 net.cpp:122] Setting up inception_4c/5x5
I1130 04:07:52.830915 17494 net.cpp:129] Top shape: 32 64 14 14 (401408)
I1130 04:07:52.830919 17494 net.cpp:137] Memory required for data: 1384857728
I1130 04:07:52.830926 17494 layer_factory.hpp:77] Creating layer inception_4c/relu_5x5
I1130 04:07:52.830934 17494 net.cpp:84] Creating Layer inception_4c/relu_5x5
I1130 04:07:52.830940 17494 net.cpp:406] inception_4c/relu_5x5 <- inception_4c/5x5
I1130 04:07:52.830946 17494 net.cpp:367] inception_4c/relu_5x5 -> inception_4c/5x5 (in-place)
I1130 04:07:52.830952 17494 net.cpp:122] Setting up inception_4c/relu_5x5
I1130 04:07:52.830958 17494 net.cpp:129] Top shape: 32 64 14 14 (401408)
I1130 04:07:52.830963 17494 net.cpp:137] Memory required for data: 1386463360
I1130 04:07:52.830966 17494 layer_factory.hpp:77] Creating layer inception_4c/pool
I1130 04:07:52.830972 17494 net.cpp:84] Creating Layer inception_4c/pool
I1130 04:07:52.830978 17494 net.cpp:406] inception_4c/pool <- inception_4b/output_inception_4b/output_0_split_3
I1130 04:07:52.830984 17494 net.cpp:380] inception_4c/pool -> inception_4c/pool
I1130 04:07:52.831017 17494 net.cpp:122] Setting up inception_4c/pool
I1130 04:07:52.831023 17494 net.cpp:129] Top shape: 32 512 14 14 (3211264)
I1130 04:07:52.831028 17494 net.cpp:137] Memory required for data: 1399308416
I1130 04:07:52.831033 17494 layer_factory.hpp:77] Creating layer inception_4c/pool_proj
I1130 04:07:52.831041 17494 net.cpp:84] Creating Layer inception_4c/pool_proj
I1130 04:07:52.831046 17494 net.cpp:406] inception_4c/pool_proj <- inception_4c/pool
I1130 04:07:52.831053 17494 net.cpp:380] inception_4c/pool_proj -> inception_4c/pool_proj
I1130 04:07:52.831745 17494 net.cpp:122] Setting up inception_4c/pool_proj
I1130 04:07:52.831755 17494 net.cpp:129] Top shape: 32 64 14 14 (401408)
I1130 04:07:52.831761 17494 net.cpp:137] Memory required for data: 1400914048
I1130 04:07:52.831775 17494 layer_factory.hpp:77] Creating layer inception_4c/relu_pool_proj
I1130 04:07:52.831782 17494 net.cpp:84] Creating Layer inception_4c/relu_pool_proj
I1130 04:07:52.831789 17494 net.cpp:406] inception_4c/relu_pool_proj <- inception_4c/pool_proj
I1130 04:07:52.831794 17494 net.cpp:367] inception_4c/relu_pool_proj -> inception_4c/pool_proj (in-place)
I1130 04:07:52.831801 17494 net.cpp:122] Setting up inception_4c/relu_pool_proj
I1130 04:07:52.831807 17494 net.cpp:129] Top shape: 32 64 14 14 (401408)
I1130 04:07:52.831810 17494 net.cpp:137] Memory required for data: 1402519680
I1130 04:07:52.831816 17494 layer_factory.hpp:77] Creating layer inception_4c/output
I1130 04:07:52.831822 17494 net.cpp:84] Creating Layer inception_4c/output
I1130 04:07:52.831828 17494 net.cpp:406] inception_4c/output <- inception_4c/1x1
I1130 04:07:52.831833 17494 net.cpp:406] inception_4c/output <- inception_4c/3x3
I1130 04:07:52.831838 17494 net.cpp:406] inception_4c/output <- inception_4c/5x5
I1130 04:07:52.831843 17494 net.cpp:406] inception_4c/output <- inception_4c/pool_proj
I1130 04:07:52.831849 17494 net.cpp:380] inception_4c/output -> inception_4c/output
I1130 04:07:52.831871 17494 net.cpp:122] Setting up inception_4c/output
I1130 04:07:52.831878 17494 net.cpp:129] Top shape: 32 512 14 14 (3211264)
I1130 04:07:52.831883 17494 net.cpp:137] Memory required for data: 1415364736
I1130 04:07:52.831887 17494 layer_factory.hpp:77] Creating layer inception_4c/output_inception_4c/output_0_split
I1130 04:07:52.831894 17494 net.cpp:84] Creating Layer inception_4c/output_inception_4c/output_0_split
I1130 04:07:52.831899 17494 net.cpp:406] inception_4c/output_inception_4c/output_0_split <- inception_4c/output
I1130 04:07:52.831905 17494 net.cpp:380] inception_4c/output_inception_4c/output_0_split -> inception_4c/output_inception_4c/output_0_split_0
I1130 04:07:52.831913 17494 net.cpp:380] inception_4c/output_inception_4c/output_0_split -> inception_4c/output_inception_4c/output_0_split_1
I1130 04:07:52.831920 17494 net.cpp:380] inception_4c/output_inception_4c/output_0_split -> inception_4c/output_inception_4c/output_0_split_2
I1130 04:07:52.831928 17494 net.cpp:380] inception_4c/output_inception_4c/output_0_split -> inception_4c/output_inception_4c/output_0_split_3
I1130 04:07:52.831970 17494 net.cpp:122] Setting up inception_4c/output_inception_4c/output_0_split
I1130 04:07:52.831977 17494 net.cpp:129] Top shape: 32 512 14 14 (3211264)
I1130 04:07:52.831984 17494 net.cpp:129] Top shape: 32 512 14 14 (3211264)
I1130 04:07:52.831989 17494 net.cpp:129] Top shape: 32 512 14 14 (3211264)
I1130 04:07:52.831993 17494 net.cpp:129] Top shape: 32 512 14 14 (3211264)
I1130 04:07:52.831998 17494 net.cpp:137] Memory required for data: 1466744960
I1130 04:07:52.832002 17494 layer_factory.hpp:77] Creating layer inception_4d/1x1
I1130 04:07:52.832010 17494 net.cpp:84] Creating Layer inception_4d/1x1
I1130 04:07:52.832015 17494 net.cpp:406] inception_4d/1x1 <- inception_4c/output_inception_4c/output_0_split_0
I1130 04:07:52.832021 17494 net.cpp:380] inception_4d/1x1 -> inception_4d/1x1
I1130 04:07:52.832489 17494 net.cpp:122] Setting up inception_4d/1x1
I1130 04:07:52.832497 17494 net.cpp:129] Top shape: 32 112 14 14 (702464)
I1130 04:07:52.832502 17494 net.cpp:137] Memory required for data: 1469554816
I1130 04:07:52.832509 17494 layer_factory.hpp:77] Creating layer inception_4d/relu_1x1
I1130 04:07:52.832515 17494 net.cpp:84] Creating Layer inception_4d/relu_1x1
I1130 04:07:52.832520 17494 net.cpp:406] inception_4d/relu_1x1 <- inception_4d/1x1
I1130 04:07:52.832526 17494 net.cpp:367] inception_4d/relu_1x1 -> inception_4d/1x1 (in-place)
I1130 04:07:52.832533 17494 net.cpp:122] Setting up inception_4d/relu_1x1
I1130 04:07:52.832540 17494 net.cpp:129] Top shape: 32 112 14 14 (702464)
I1130 04:07:52.832543 17494 net.cpp:137] Memory required for data: 1472364672
I1130 04:07:52.832547 17494 layer_factory.hpp:77] Creating layer inception_4d/3x3_reduce
I1130 04:07:52.832556 17494 net.cpp:84] Creating Layer inception_4d/3x3_reduce
I1130 04:07:52.832561 17494 net.cpp:406] inception_4d/3x3_reduce <- inception_4c/output_inception_4c/output_0_split_1
I1130 04:07:52.832567 17494 net.cpp:380] inception_4d/3x3_reduce -> inception_4d/3x3_reduce
I1130 04:07:52.833138 17494 net.cpp:122] Setting up inception_4d/3x3_reduce
I1130 04:07:52.833148 17494 net.cpp:129] Top shape: 32 144 14 14 (903168)
I1130 04:07:52.833153 17494 net.cpp:137] Memory required for data: 1475977344
I1130 04:07:52.833160 17494 layer_factory.hpp:77] Creating layer inception_4d/relu_3x3_reduce
I1130 04:07:52.833166 17494 net.cpp:84] Creating Layer inception_4d/relu_3x3_reduce
I1130 04:07:52.833171 17494 net.cpp:406] inception_4d/relu_3x3_reduce <- inception_4d/3x3_reduce
I1130 04:07:52.833178 17494 net.cpp:367] inception_4d/relu_3x3_reduce -> inception_4d/3x3_reduce (in-place)
I1130 04:07:52.833185 17494 net.cpp:122] Setting up inception_4d/relu_3x3_reduce
I1130 04:07:52.833191 17494 net.cpp:129] Top shape: 32 144 14 14 (903168)
I1130 04:07:52.833195 17494 net.cpp:137] Memory required for data: 1479590016
I1130 04:07:52.833199 17494 layer_factory.hpp:77] Creating layer inception_4d/3x3
I1130 04:07:52.833207 17494 net.cpp:84] Creating Layer inception_4d/3x3
I1130 04:07:52.833212 17494 net.cpp:406] inception_4d/3x3 <- inception_4d/3x3_reduce
I1130 04:07:52.833220 17494 net.cpp:380] inception_4d/3x3 -> inception_4d/3x3
I1130 04:07:52.835830 17494 net.cpp:122] Setting up inception_4d/3x3
I1130 04:07:52.835841 17494 net.cpp:129] Top shape: 32 288 14 14 (1806336)
I1130 04:07:52.835846 17494 net.cpp:137] Memory required for data: 1486815360
I1130 04:07:52.835853 17494 layer_factory.hpp:77] Creating layer inception_4d/relu_3x3
I1130 04:07:52.835860 17494 net.cpp:84] Creating Layer inception_4d/relu_3x3
I1130 04:07:52.835865 17494 net.cpp:406] inception_4d/relu_3x3 <- inception_4d/3x3
I1130 04:07:52.835871 17494 net.cpp:367] inception_4d/relu_3x3 -> inception_4d/3x3 (in-place)
I1130 04:07:52.835878 17494 net.cpp:122] Setting up inception_4d/relu_3x3
I1130 04:07:52.835886 17494 net.cpp:129] Top shape: 32 288 14 14 (1806336)
I1130 04:07:52.835891 17494 net.cpp:137] Memory required for data: 1494040704
I1130 04:07:52.835896 17494 layer_factory.hpp:77] Creating layer inception_4d/5x5_reduce
I1130 04:07:52.835904 17494 net.cpp:84] Creating Layer inception_4d/5x5_reduce
I1130 04:07:52.835909 17494 net.cpp:406] inception_4d/5x5_reduce <- inception_4c/output_inception_4c/output_0_split_2
I1130 04:07:52.835916 17494 net.cpp:380] inception_4d/5x5_reduce -> inception_4d/5x5_reduce
I1130 04:07:52.836185 17494 net.cpp:122] Setting up inception_4d/5x5_reduce
I1130 04:07:52.836194 17494 net.cpp:129] Top shape: 32 32 14 14 (200704)
I1130 04:07:52.836199 17494 net.cpp:137] Memory required for data: 1494843520
I1130 04:07:52.836206 17494 layer_factory.hpp:77] Creating layer inception_4d/relu_5x5_reduce
I1130 04:07:52.836212 17494 net.cpp:84] Creating Layer inception_4d/relu_5x5_reduce
I1130 04:07:52.836217 17494 net.cpp:406] inception_4d/relu_5x5_reduce <- inception_4d/5x5_reduce
I1130 04:07:52.836223 17494 net.cpp:367] inception_4d/relu_5x5_reduce -> inception_4d/5x5_reduce (in-place)
I1130 04:07:52.836230 17494 net.cpp:122] Setting up inception_4d/relu_5x5_reduce
I1130 04:07:52.836236 17494 net.cpp:129] Top shape: 32 32 14 14 (200704)
I1130 04:07:52.836241 17494 net.cpp:137] Memory required for data: 1495646336
I1130 04:07:52.836246 17494 layer_factory.hpp:77] Creating layer inception_4d/5x5
I1130 04:07:52.836252 17494 net.cpp:84] Creating Layer inception_4d/5x5
I1130 04:07:52.836257 17494 net.cpp:406] inception_4d/5x5 <- inception_4d/5x5_reduce
I1130 04:07:52.836263 17494 net.cpp:380] inception_4d/5x5 -> inception_4d/5x5
I1130 04:07:52.836706 17494 net.cpp:122] Setting up inception_4d/5x5
I1130 04:07:52.836715 17494 net.cpp:129] Top shape: 32 64 14 14 (401408)
I1130 04:07:52.836720 17494 net.cpp:137] Memory required for data: 1497251968
I1130 04:07:52.836726 17494 layer_factory.hpp:77] Creating layer inception_4d/relu_5x5
I1130 04:07:52.836733 17494 net.cpp:84] Creating Layer inception_4d/relu_5x5
I1130 04:07:52.836738 17494 net.cpp:406] inception_4d/relu_5x5 <- inception_4d/5x5
I1130 04:07:52.836745 17494 net.cpp:367] inception_4d/relu_5x5 -> inception_4d/5x5 (in-place)
I1130 04:07:52.836751 17494 net.cpp:122] Setting up inception_4d/relu_5x5
I1130 04:07:52.836757 17494 net.cpp:129] Top shape: 32 64 14 14 (401408)
I1130 04:07:52.836762 17494 net.cpp:137] Memory required for data: 1498857600
I1130 04:07:52.836766 17494 layer_factory.hpp:77] Creating layer inception_4d/pool
I1130 04:07:52.836772 17494 net.cpp:84] Creating Layer inception_4d/pool
I1130 04:07:52.836777 17494 net.cpp:406] inception_4d/pool <- inception_4c/output_inception_4c/output_0_split_3
I1130 04:07:52.836782 17494 net.cpp:380] inception_4d/pool -> inception_4d/pool
I1130 04:07:52.836814 17494 net.cpp:122] Setting up inception_4d/pool
I1130 04:07:52.836822 17494 net.cpp:129] Top shape: 32 512 14 14 (3211264)
I1130 04:07:52.836827 17494 net.cpp:137] Memory required for data: 1511702656
I1130 04:07:52.836830 17494 layer_factory.hpp:77] Creating layer inception_4d/pool_proj
I1130 04:07:52.836839 17494 net.cpp:84] Creating Layer inception_4d/pool_proj
I1130 04:07:52.836844 17494 net.cpp:406] inception_4d/pool_proj <- inception_4d/pool
I1130 04:07:52.836851 17494 net.cpp:380] inception_4d/pool_proj -> inception_4d/pool_proj
I1130 04:07:52.837191 17494 net.cpp:122] Setting up inception_4d/pool_proj
I1130 04:07:52.837200 17494 net.cpp:129] Top shape: 32 64 14 14 (401408)
I1130 04:07:52.837204 17494 net.cpp:137] Memory required for data: 1513308288
I1130 04:07:52.837211 17494 layer_factory.hpp:77] Creating layer inception_4d/relu_pool_proj
I1130 04:07:52.837218 17494 net.cpp:84] Creating Layer inception_4d/relu_pool_proj
I1130 04:07:52.837222 17494 net.cpp:406] inception_4d/relu_pool_proj <- inception_4d/pool_proj
I1130 04:07:52.837229 17494 net.cpp:367] inception_4d/relu_pool_proj -> inception_4d/pool_proj (in-place)
I1130 04:07:52.837235 17494 net.cpp:122] Setting up inception_4d/relu_pool_proj
I1130 04:07:52.837240 17494 net.cpp:129] Top shape: 32 64 14 14 (401408)
I1130 04:07:52.837246 17494 net.cpp:137] Memory required for data: 1514913920
I1130 04:07:52.837249 17494 layer_factory.hpp:77] Creating layer inception_4d/output
I1130 04:07:52.837256 17494 net.cpp:84] Creating Layer inception_4d/output
I1130 04:07:52.837260 17494 net.cpp:406] inception_4d/output <- inception_4d/1x1
I1130 04:07:52.837265 17494 net.cpp:406] inception_4d/output <- inception_4d/3x3
I1130 04:07:52.837271 17494 net.cpp:406] inception_4d/output <- inception_4d/5x5
I1130 04:07:52.837276 17494 net.cpp:406] inception_4d/output <- inception_4d/pool_proj
I1130 04:07:52.837282 17494 net.cpp:380] inception_4d/output -> inception_4d/output
I1130 04:07:52.837303 17494 net.cpp:122] Setting up inception_4d/output
I1130 04:07:52.837311 17494 net.cpp:129] Top shape: 32 528 14 14 (3311616)
I1130 04:07:52.837316 17494 net.cpp:137] Memory required for data: 1528160384
I1130 04:07:52.837319 17494 layer_factory.hpp:77] Creating layer inception_4d/output_inception_4d/output_0_split
I1130 04:07:52.837326 17494 net.cpp:84] Creating Layer inception_4d/output_inception_4d/output_0_split
I1130 04:07:52.837330 17494 net.cpp:406] inception_4d/output_inception_4d/output_0_split <- inception_4d/output
I1130 04:07:52.837337 17494 net.cpp:380] inception_4d/output_inception_4d/output_0_split -> inception_4d/output_inception_4d/output_0_split_0
I1130 04:07:52.837344 17494 net.cpp:380] inception_4d/output_inception_4d/output_0_split -> inception_4d/output_inception_4d/output_0_split_1
I1130 04:07:52.837352 17494 net.cpp:380] inception_4d/output_inception_4d/output_0_split -> inception_4d/output_inception_4d/output_0_split_2
I1130 04:07:52.837357 17494 net.cpp:380] inception_4d/output_inception_4d/output_0_split -> inception_4d/output_inception_4d/output_0_split_3
I1130 04:07:52.837401 17494 net.cpp:122] Setting up inception_4d/output_inception_4d/output_0_split
I1130 04:07:52.837409 17494 net.cpp:129] Top shape: 32 528 14 14 (3311616)
I1130 04:07:52.837414 17494 net.cpp:129] Top shape: 32 528 14 14 (3311616)
I1130 04:07:52.837419 17494 net.cpp:129] Top shape: 32 528 14 14 (3311616)
I1130 04:07:52.837424 17494 net.cpp:129] Top shape: 32 528 14 14 (3311616)
I1130 04:07:52.837429 17494 net.cpp:137] Memory required for data: 1581146240
I1130 04:07:52.837433 17494 layer_factory.hpp:77] Creating layer inception_4e/1x1
I1130 04:07:52.837443 17494 net.cpp:84] Creating Layer inception_4e/1x1
I1130 04:07:52.837448 17494 net.cpp:406] inception_4e/1x1 <- inception_4d/output_inception_4d/output_0_split_0
I1130 04:07:52.837455 17494 net.cpp:380] inception_4e/1x1 -> inception_4e/1x1
I1130 04:07:52.838696 17494 net.cpp:122] Setting up inception_4e/1x1
I1130 04:07:52.838707 17494 net.cpp:129] Top shape: 32 256 14 14 (1605632)
I1130 04:07:52.838711 17494 net.cpp:137] Memory required for data: 1587568768
I1130 04:07:52.838718 17494 layer_factory.hpp:77] Creating layer inception_4e/relu_1x1
I1130 04:07:52.838726 17494 net.cpp:84] Creating Layer inception_4e/relu_1x1
I1130 04:07:52.838731 17494 net.cpp:406] inception_4e/relu_1x1 <- inception_4e/1x1
I1130 04:07:52.838737 17494 net.cpp:367] inception_4e/relu_1x1 -> inception_4e/1x1 (in-place)
I1130 04:07:52.838743 17494 net.cpp:122] Setting up inception_4e/relu_1x1
I1130 04:07:52.838749 17494 net.cpp:129] Top shape: 32 256 14 14 (1605632)
I1130 04:07:52.838752 17494 net.cpp:137] Memory required for data: 1593991296
I1130 04:07:52.838757 17494 layer_factory.hpp:77] Creating layer inception_4e/3x3_reduce
I1130 04:07:52.838764 17494 net.cpp:84] Creating Layer inception_4e/3x3_reduce
I1130 04:07:52.838778 17494 net.cpp:406] inception_4e/3x3_reduce <- inception_4d/output_inception_4d/output_0_split_1
I1130 04:07:52.838785 17494 net.cpp:380] inception_4e/3x3_reduce -> inception_4e/3x3_reduce
I1130 04:07:52.839402 17494 net.cpp:122] Setting up inception_4e/3x3_reduce
I1130 04:07:52.839412 17494 net.cpp:129] Top shape: 32 160 14 14 (1003520)
I1130 04:07:52.839417 17494 net.cpp:137] Memory required for data: 1598005376
I1130 04:07:52.839423 17494 layer_factory.hpp:77] Creating layer inception_4e/relu_3x3_reduce
I1130 04:07:52.839431 17494 net.cpp:84] Creating Layer inception_4e/relu_3x3_reduce
I1130 04:07:52.839435 17494 net.cpp:406] inception_4e/relu_3x3_reduce <- inception_4e/3x3_reduce
I1130 04:07:52.839440 17494 net.cpp:367] inception_4e/relu_3x3_reduce -> inception_4e/3x3_reduce (in-place)
I1130 04:07:52.839447 17494 net.cpp:122] Setting up inception_4e/relu_3x3_reduce
I1130 04:07:52.839453 17494 net.cpp:129] Top shape: 32 160 14 14 (1003520)
I1130 04:07:52.839457 17494 net.cpp:137] Memory required for data: 1602019456
I1130 04:07:52.839462 17494 layer_factory.hpp:77] Creating layer inception_4e/3x3
I1130 04:07:52.839469 17494 net.cpp:84] Creating Layer inception_4e/3x3
I1130 04:07:52.839474 17494 net.cpp:406] inception_4e/3x3 <- inception_4e/3x3_reduce
I1130 04:07:52.839480 17494 net.cpp:380] inception_4e/3x3 -> inception_4e/3x3
I1130 04:07:52.842622 17494 net.cpp:122] Setting up inception_4e/3x3
I1130 04:07:52.842633 17494 net.cpp:129] Top shape: 32 320 14 14 (2007040)
I1130 04:07:52.842638 17494 net.cpp:137] Memory required for data: 1610047616
I1130 04:07:52.842644 17494 layer_factory.hpp:77] Creating layer inception_4e/relu_3x3
I1130 04:07:52.842651 17494 net.cpp:84] Creating Layer inception_4e/relu_3x3
I1130 04:07:52.842656 17494 net.cpp:406] inception_4e/relu_3x3 <- inception_4e/3x3
I1130 04:07:52.842664 17494 net.cpp:367] inception_4e/relu_3x3 -> inception_4e/3x3 (in-place)
I1130 04:07:52.842670 17494 net.cpp:122] Setting up inception_4e/relu_3x3
I1130 04:07:52.842676 17494 net.cpp:129] Top shape: 32 320 14 14 (2007040)
I1130 04:07:52.842680 17494 net.cpp:137] Memory required for data: 1618075776
I1130 04:07:52.842684 17494 layer_factory.hpp:77] Creating layer inception_4e/5x5_reduce
I1130 04:07:52.842692 17494 net.cpp:84] Creating Layer inception_4e/5x5_reduce
I1130 04:07:52.842697 17494 net.cpp:406] inception_4e/5x5_reduce <- inception_4d/output_inception_4d/output_0_split_2
I1130 04:07:52.842705 17494 net.cpp:380] inception_4e/5x5_reduce -> inception_4e/5x5_reduce
I1130 04:07:52.842979 17494 net.cpp:122] Setting up inception_4e/5x5_reduce
I1130 04:07:52.842988 17494 net.cpp:129] Top shape: 32 32 14 14 (200704)
I1130 04:07:52.842993 17494 net.cpp:137] Memory required for data: 1618878592
I1130 04:07:52.843001 17494 layer_factory.hpp:77] Creating layer inception_4e/relu_5x5_reduce
I1130 04:07:52.843008 17494 net.cpp:84] Creating Layer inception_4e/relu_5x5_reduce
I1130 04:07:52.843013 17494 net.cpp:406] inception_4e/relu_5x5_reduce <- inception_4e/5x5_reduce
I1130 04:07:52.843019 17494 net.cpp:367] inception_4e/relu_5x5_reduce -> inception_4e/5x5_reduce (in-place)
I1130 04:07:52.843025 17494 net.cpp:122] Setting up inception_4e/relu_5x5_reduce
I1130 04:07:52.843030 17494 net.cpp:129] Top shape: 32 32 14 14 (200704)
I1130 04:07:52.843035 17494 net.cpp:137] Memory required for data: 1619681408
I1130 04:07:52.843039 17494 layer_factory.hpp:77] Creating layer inception_4e/5x5
I1130 04:07:52.843046 17494 net.cpp:84] Creating Layer inception_4e/5x5
I1130 04:07:52.843051 17494 net.cpp:406] inception_4e/5x5 <- inception_4e/5x5_reduce
I1130 04:07:52.843057 17494 net.cpp:380] inception_4e/5x5 -> inception_4e/5x5
I1130 04:07:52.844130 17494 net.cpp:122] Setting up inception_4e/5x5
I1130 04:07:52.844139 17494 net.cpp:129] Top shape: 32 128 14 14 (802816)
I1130 04:07:52.844143 17494 net.cpp:137] Memory required for data: 1622892672
I1130 04:07:52.844151 17494 layer_factory.hpp:77] Creating layer inception_4e/relu_5x5
I1130 04:07:52.844157 17494 net.cpp:84] Creating Layer inception_4e/relu_5x5
I1130 04:07:52.844162 17494 net.cpp:406] inception_4e/relu_5x5 <- inception_4e/5x5
I1130 04:07:52.844168 17494 net.cpp:367] inception_4e/relu_5x5 -> inception_4e/5x5 (in-place)
I1130 04:07:52.844174 17494 net.cpp:122] Setting up inception_4e/relu_5x5
I1130 04:07:52.844180 17494 net.cpp:129] Top shape: 32 128 14 14 (802816)
I1130 04:07:52.844185 17494 net.cpp:137] Memory required for data: 1626103936
I1130 04:07:52.844189 17494 layer_factory.hpp:77] Creating layer inception_4e/pool
I1130 04:07:52.844195 17494 net.cpp:84] Creating Layer inception_4e/pool
I1130 04:07:52.844200 17494 net.cpp:406] inception_4e/pool <- inception_4d/output_inception_4d/output_0_split_3
I1130 04:07:52.844207 17494 net.cpp:380] inception_4e/pool -> inception_4e/pool
I1130 04:07:52.844238 17494 net.cpp:122] Setting up inception_4e/pool
I1130 04:07:52.844246 17494 net.cpp:129] Top shape: 32 528 14 14 (3311616)
I1130 04:07:52.844250 17494 net.cpp:137] Memory required for data: 1639350400
I1130 04:07:52.844254 17494 layer_factory.hpp:77] Creating layer inception_4e/pool_proj
I1130 04:07:52.844264 17494 net.cpp:84] Creating Layer inception_4e/pool_proj
I1130 04:07:52.844269 17494 net.cpp:406] inception_4e/pool_proj <- inception_4e/pool
I1130 04:07:52.844276 17494 net.cpp:380] inception_4e/pool_proj -> inception_4e/pool_proj
I1130 04:07:52.844802 17494 net.cpp:122] Setting up inception_4e/pool_proj
I1130 04:07:52.844811 17494 net.cpp:129] Top shape: 32 128 14 14 (802816)
I1130 04:07:52.844816 17494 net.cpp:137] Memory required for data: 1642561664
I1130 04:07:52.844823 17494 layer_factory.hpp:77] Creating layer inception_4e/relu_pool_proj
I1130 04:07:52.844830 17494 net.cpp:84] Creating Layer inception_4e/relu_pool_proj
I1130 04:07:52.844835 17494 net.cpp:406] inception_4e/relu_pool_proj <- inception_4e/pool_proj
I1130 04:07:52.844844 17494 net.cpp:367] inception_4e/relu_pool_proj -> inception_4e/pool_proj (in-place)
I1130 04:07:52.844851 17494 net.cpp:122] Setting up inception_4e/relu_pool_proj
I1130 04:07:52.844856 17494 net.cpp:129] Top shape: 32 128 14 14 (802816)
I1130 04:07:52.844861 17494 net.cpp:137] Memory required for data: 1645772928
I1130 04:07:52.844866 17494 layer_factory.hpp:77] Creating layer inception_4e/output
I1130 04:07:52.844872 17494 net.cpp:84] Creating Layer inception_4e/output
I1130 04:07:52.844877 17494 net.cpp:406] inception_4e/output <- inception_4e/1x1
I1130 04:07:52.844883 17494 net.cpp:406] inception_4e/output <- inception_4e/3x3
I1130 04:07:52.844888 17494 net.cpp:406] inception_4e/output <- inception_4e/5x5
I1130 04:07:52.844893 17494 net.cpp:406] inception_4e/output <- inception_4e/pool_proj
I1130 04:07:52.844898 17494 net.cpp:380] inception_4e/output -> inception_4e/output
I1130 04:07:52.844920 17494 net.cpp:122] Setting up inception_4e/output
I1130 04:07:52.844928 17494 net.cpp:129] Top shape: 32 832 14 14 (5218304)
I1130 04:07:52.844931 17494 net.cpp:137] Memory required for data: 1666646144
I1130 04:07:52.844935 17494 layer_factory.hpp:77] Creating layer pool4/3x3_s2
I1130 04:07:52.844943 17494 net.cpp:84] Creating Layer pool4/3x3_s2
I1130 04:07:52.844947 17494 net.cpp:406] pool4/3x3_s2 <- inception_4e/output
I1130 04:07:52.844955 17494 net.cpp:380] pool4/3x3_s2 -> pool4/3x3_s2
I1130 04:07:52.844985 17494 net.cpp:122] Setting up pool4/3x3_s2
I1130 04:07:52.844992 17494 net.cpp:129] Top shape: 32 832 7 7 (1304576)
I1130 04:07:52.844996 17494 net.cpp:137] Memory required for data: 1671864448
I1130 04:07:52.845000 17494 layer_factory.hpp:77] Creating layer pool4/3x3_s2_pool4/3x3_s2_0_split
I1130 04:07:52.845008 17494 net.cpp:84] Creating Layer pool4/3x3_s2_pool4/3x3_s2_0_split
I1130 04:07:52.845013 17494 net.cpp:406] pool4/3x3_s2_pool4/3x3_s2_0_split <- pool4/3x3_s2
I1130 04:07:52.845019 17494 net.cpp:380] pool4/3x3_s2_pool4/3x3_s2_0_split -> pool4/3x3_s2_pool4/3x3_s2_0_split_0
I1130 04:07:52.845026 17494 net.cpp:380] pool4/3x3_s2_pool4/3x3_s2_0_split -> pool4/3x3_s2_pool4/3x3_s2_0_split_1
I1130 04:07:52.845034 17494 net.cpp:380] pool4/3x3_s2_pool4/3x3_s2_0_split -> pool4/3x3_s2_pool4/3x3_s2_0_split_2
I1130 04:07:52.845041 17494 net.cpp:380] pool4/3x3_s2_pool4/3x3_s2_0_split -> pool4/3x3_s2_pool4/3x3_s2_0_split_3
I1130 04:07:52.845086 17494 net.cpp:122] Setting up pool4/3x3_s2_pool4/3x3_s2_0_split
I1130 04:07:52.845093 17494 net.cpp:129] Top shape: 32 832 7 7 (1304576)
I1130 04:07:52.845098 17494 net.cpp:129] Top shape: 32 832 7 7 (1304576)
I1130 04:07:52.845103 17494 net.cpp:129] Top shape: 32 832 7 7 (1304576)
I1130 04:07:52.845108 17494 net.cpp:129] Top shape: 32 832 7 7 (1304576)
I1130 04:07:52.845113 17494 net.cpp:137] Memory required for data: 1692737664
I1130 04:07:52.845116 17494 layer_factory.hpp:77] Creating layer inception_5a/1x1
I1130 04:07:52.845125 17494 net.cpp:84] Creating Layer inception_5a/1x1
I1130 04:07:52.845130 17494 net.cpp:406] inception_5a/1x1 <- pool4/3x3_s2_pool4/3x3_s2_0_split_0
I1130 04:07:52.845137 17494 net.cpp:380] inception_5a/1x1 -> inception_5a/1x1
I1130 04:07:52.846802 17494 net.cpp:122] Setting up inception_5a/1x1
I1130 04:07:52.846813 17494 net.cpp:129] Top shape: 32 256 7 7 (401408)
I1130 04:07:52.846818 17494 net.cpp:137] Memory required for data: 1694343296
I1130 04:07:52.846825 17494 layer_factory.hpp:77] Creating layer inception_5a/relu_1x1
I1130 04:07:52.846833 17494 net.cpp:84] Creating Layer inception_5a/relu_1x1
I1130 04:07:52.846839 17494 net.cpp:406] inception_5a/relu_1x1 <- inception_5a/1x1
I1130 04:07:52.846845 17494 net.cpp:367] inception_5a/relu_1x1 -> inception_5a/1x1 (in-place)
I1130 04:07:52.846853 17494 net.cpp:122] Setting up inception_5a/relu_1x1
I1130 04:07:52.846858 17494 net.cpp:129] Top shape: 32 256 7 7 (401408)
I1130 04:07:52.846863 17494 net.cpp:137] Memory required for data: 1695948928
I1130 04:07:52.846868 17494 layer_factory.hpp:77] Creating layer inception_5a/3x3_reduce
I1130 04:07:52.846877 17494 net.cpp:84] Creating Layer inception_5a/3x3_reduce
I1130 04:07:52.846882 17494 net.cpp:406] inception_5a/3x3_reduce <- pool4/3x3_s2_pool4/3x3_s2_0_split_1
I1130 04:07:52.846889 17494 net.cpp:380] inception_5a/3x3_reduce -> inception_5a/3x3_reduce
I1130 04:07:52.848125 17494 net.cpp:122] Setting up inception_5a/3x3_reduce
I1130 04:07:52.848135 17494 net.cpp:129] Top shape: 32 160 7 7 (250880)
I1130 04:07:52.848141 17494 net.cpp:137] Memory required for data: 1696952448
I1130 04:07:52.848150 17494 layer_factory.hpp:77] Creating layer inception_5a/relu_3x3_reduce
I1130 04:07:52.848157 17494 net.cpp:84] Creating Layer inception_5a/relu_3x3_reduce
I1130 04:07:52.848162 17494 net.cpp:406] inception_5a/relu_3x3_reduce <- inception_5a/3x3_reduce
I1130 04:07:52.848168 17494 net.cpp:367] inception_5a/relu_3x3_reduce -> inception_5a/3x3_reduce (in-place)
I1130 04:07:52.848176 17494 net.cpp:122] Setting up inception_5a/relu_3x3_reduce
I1130 04:07:52.848182 17494 net.cpp:129] Top shape: 32 160 7 7 (250880)
I1130 04:07:52.848186 17494 net.cpp:137] Memory required for data: 1697955968
I1130 04:07:52.848191 17494 layer_factory.hpp:77] Creating layer inception_5a/3x3
I1130 04:07:52.848201 17494 net.cpp:84] Creating Layer inception_5a/3x3
I1130 04:07:52.848206 17494 net.cpp:406] inception_5a/3x3 <- inception_5a/3x3_reduce
I1130 04:07:52.848212 17494 net.cpp:380] inception_5a/3x3 -> inception_5a/3x3
I1130 04:07:52.851374 17494 net.cpp:122] Setting up inception_5a/3x3
I1130 04:07:52.851387 17494 net.cpp:129] Top shape: 32 320 7 7 (501760)
I1130 04:07:52.851390 17494 net.cpp:137] Memory required for data: 1699963008
I1130 04:07:52.851398 17494 layer_factory.hpp:77] Creating layer inception_5a/relu_3x3
I1130 04:07:52.851409 17494 net.cpp:84] Creating Layer inception_5a/relu_3x3
I1130 04:07:52.851415 17494 net.cpp:406] inception_5a/relu_3x3 <- inception_5a/3x3
I1130 04:07:52.851421 17494 net.cpp:367] inception_5a/relu_3x3 -> inception_5a/3x3 (in-place)
I1130 04:07:52.851429 17494 net.cpp:122] Setting up inception_5a/relu_3x3
I1130 04:07:52.851434 17494 net.cpp:129] Top shape: 32 320 7 7 (501760)
I1130 04:07:52.851439 17494 net.cpp:137] Memory required for data: 1701970048
I1130 04:07:52.851444 17494 layer_factory.hpp:77] Creating layer inception_5a/5x5_reduce
I1130 04:07:52.851452 17494 net.cpp:84] Creating Layer inception_5a/5x5_reduce
I1130 04:07:52.851459 17494 net.cpp:406] inception_5a/5x5_reduce <- pool4/3x3_s2_pool4/3x3_s2_0_split_2
I1130 04:07:52.851464 17494 net.cpp:380] inception_5a/5x5_reduce -> inception_5a/5x5_reduce
I1130 04:07:52.851801 17494 net.cpp:122] Setting up inception_5a/5x5_reduce
I1130 04:07:52.851812 17494 net.cpp:129] Top shape: 32 32 7 7 (50176)
I1130 04:07:52.851817 17494 net.cpp:137] Memory required for data: 1702170752
I1130 04:07:52.851824 17494 layer_factory.hpp:77] Creating layer inception_5a/relu_5x5_reduce
I1130 04:07:52.851831 17494 net.cpp:84] Creating Layer inception_5a/relu_5x5_reduce
I1130 04:07:52.851836 17494 net.cpp:406] inception_5a/relu_5x5_reduce <- inception_5a/5x5_reduce
I1130 04:07:52.851841 17494 net.cpp:367] inception_5a/relu_5x5_reduce -> inception_5a/5x5_reduce (in-place)
I1130 04:07:52.851848 17494 net.cpp:122] Setting up inception_5a/relu_5x5_reduce
I1130 04:07:52.851855 17494 net.cpp:129] Top shape: 32 32 7 7 (50176)
I1130 04:07:52.851861 17494 net.cpp:137] Memory required for data: 1702371456
I1130 04:07:52.851864 17494 layer_factory.hpp:77] Creating layer inception_5a/5x5
I1130 04:07:52.851873 17494 net.cpp:84] Creating Layer inception_5a/5x5
I1130 04:07:52.851879 17494 net.cpp:406] inception_5a/5x5 <- inception_5a/5x5_reduce
I1130 04:07:52.851887 17494 net.cpp:380] inception_5a/5x5 -> inception_5a/5x5
I1130 04:07:52.852617 17494 net.cpp:122] Setting up inception_5a/5x5
I1130 04:07:52.852627 17494 net.cpp:129] Top shape: 32 128 7 7 (200704)
I1130 04:07:52.852630 17494 net.cpp:137] Memory required for data: 1703174272
I1130 04:07:52.852638 17494 layer_factory.hpp:77] Creating layer inception_5a/relu_5x5
I1130 04:07:52.852658 17494 net.cpp:84] Creating Layer inception_5a/relu_5x5
I1130 04:07:52.852663 17494 net.cpp:406] inception_5a/relu_5x5 <- inception_5a/5x5
I1130 04:07:52.852669 17494 net.cpp:367] inception_5a/relu_5x5 -> inception_5a/5x5 (in-place)
I1130 04:07:52.852676 17494 net.cpp:122] Setting up inception_5a/relu_5x5
I1130 04:07:52.852682 17494 net.cpp:129] Top shape: 32 128 7 7 (200704)
I1130 04:07:52.852686 17494 net.cpp:137] Memory required for data: 1703977088
I1130 04:07:52.852691 17494 layer_factory.hpp:77] Creating layer inception_5a/pool
I1130 04:07:52.852699 17494 net.cpp:84] Creating Layer inception_5a/pool
I1130 04:07:52.852706 17494 net.cpp:406] inception_5a/pool <- pool4/3x3_s2_pool4/3x3_s2_0_split_3
I1130 04:07:52.852712 17494 net.cpp:380] inception_5a/pool -> inception_5a/pool
I1130 04:07:52.852747 17494 net.cpp:122] Setting up inception_5a/pool
I1130 04:07:52.852756 17494 net.cpp:129] Top shape: 32 832 7 7 (1304576)
I1130 04:07:52.852761 17494 net.cpp:137] Memory required for data: 1709195392
I1130 04:07:52.852766 17494 layer_factory.hpp:77] Creating layer inception_5a/pool_proj
I1130 04:07:52.852776 17494 net.cpp:84] Creating Layer inception_5a/pool_proj
I1130 04:07:52.852782 17494 net.cpp:406] inception_5a/pool_proj <- inception_5a/pool
I1130 04:07:52.852788 17494 net.cpp:380] inception_5a/pool_proj -> inception_5a/pool_proj
I1130 04:07:52.853929 17494 net.cpp:122] Setting up inception_5a/pool_proj
I1130 04:07:52.853938 17494 net.cpp:129] Top shape: 32 128 7 7 (200704)
I1130 04:07:52.853943 17494 net.cpp:137] Memory required for data: 1709998208
I1130 04:07:52.853950 17494 layer_factory.hpp:77] Creating layer inception_5a/relu_pool_proj
I1130 04:07:52.853957 17494 net.cpp:84] Creating Layer inception_5a/relu_pool_proj
I1130 04:07:52.853963 17494 net.cpp:406] inception_5a/relu_pool_proj <- inception_5a/pool_proj
I1130 04:07:52.853971 17494 net.cpp:367] inception_5a/relu_pool_proj -> inception_5a/pool_proj (in-place)
I1130 04:07:52.853978 17494 net.cpp:122] Setting up inception_5a/relu_pool_proj
I1130 04:07:52.853983 17494 net.cpp:129] Top shape: 32 128 7 7 (200704)
I1130 04:07:52.853988 17494 net.cpp:137] Memory required for data: 1710801024
I1130 04:07:52.853992 17494 layer_factory.hpp:77] Creating layer inception_5a/output
I1130 04:07:52.853999 17494 net.cpp:84] Creating Layer inception_5a/output
I1130 04:07:52.854004 17494 net.cpp:406] inception_5a/output <- inception_5a/1x1
I1130 04:07:52.854008 17494 net.cpp:406] inception_5a/output <- inception_5a/3x3
I1130 04:07:52.854015 17494 net.cpp:406] inception_5a/output <- inception_5a/5x5
I1130 04:07:52.854019 17494 net.cpp:406] inception_5a/output <- inception_5a/pool_proj
I1130 04:07:52.854025 17494 net.cpp:380] inception_5a/output -> inception_5a/output
I1130 04:07:52.854050 17494 net.cpp:122] Setting up inception_5a/output
I1130 04:07:52.854058 17494 net.cpp:129] Top shape: 32 832 7 7 (1304576)
I1130 04:07:52.854063 17494 net.cpp:137] Memory required for data: 1716019328
I1130 04:07:52.854066 17494 layer_factory.hpp:77] Creating layer inception_5a/output_inception_5a/output_0_split
I1130 04:07:52.854074 17494 net.cpp:84] Creating Layer inception_5a/output_inception_5a/output_0_split
I1130 04:07:52.854079 17494 net.cpp:406] inception_5a/output_inception_5a/output_0_split <- inception_5a/output
I1130 04:07:52.854086 17494 net.cpp:380] inception_5a/output_inception_5a/output_0_split -> inception_5a/output_inception_5a/output_0_split_0
I1130 04:07:52.854094 17494 net.cpp:380] inception_5a/output_inception_5a/output_0_split -> inception_5a/output_inception_5a/output_0_split_1
I1130 04:07:52.854101 17494 net.cpp:380] inception_5a/output_inception_5a/output_0_split -> inception_5a/output_inception_5a/output_0_split_2
I1130 04:07:52.854109 17494 net.cpp:380] inception_5a/output_inception_5a/output_0_split -> inception_5a/output_inception_5a/output_0_split_3
I1130 04:07:52.854158 17494 net.cpp:122] Setting up inception_5a/output_inception_5a/output_0_split
I1130 04:07:52.854167 17494 net.cpp:129] Top shape: 32 832 7 7 (1304576)
I1130 04:07:52.854173 17494 net.cpp:129] Top shape: 32 832 7 7 (1304576)
I1130 04:07:52.854178 17494 net.cpp:129] Top shape: 32 832 7 7 (1304576)
I1130 04:07:52.854183 17494 net.cpp:129] Top shape: 32 832 7 7 (1304576)
I1130 04:07:52.854188 17494 net.cpp:137] Memory required for data: 1736892544
I1130 04:07:52.854192 17494 layer_factory.hpp:77] Creating layer inception_5b/1x1
I1130 04:07:52.854203 17494 net.cpp:84] Creating Layer inception_5b/1x1
I1130 04:07:52.854208 17494 net.cpp:406] inception_5b/1x1 <- inception_5a/output_inception_5a/output_0_split_0
I1130 04:07:52.854215 17494 net.cpp:380] inception_5b/1x1 -> inception_5b/1x1
I1130 04:07:52.856508 17494 net.cpp:122] Setting up inception_5b/1x1
I1130 04:07:52.856518 17494 net.cpp:129] Top shape: 32 384 7 7 (602112)
I1130 04:07:52.856523 17494 net.cpp:137] Memory required for data: 1739300992
I1130 04:07:52.856530 17494 layer_factory.hpp:77] Creating layer inception_5b/relu_1x1
I1130 04:07:52.856536 17494 net.cpp:84] Creating Layer inception_5b/relu_1x1
I1130 04:07:52.856541 17494 net.cpp:406] inception_5b/relu_1x1 <- inception_5b/1x1
I1130 04:07:52.856549 17494 net.cpp:367] inception_5b/relu_1x1 -> inception_5b/1x1 (in-place)
I1130 04:07:52.856557 17494 net.cpp:122] Setting up inception_5b/relu_1x1
I1130 04:07:52.856564 17494 net.cpp:129] Top shape: 32 384 7 7 (602112)
I1130 04:07:52.856568 17494 net.cpp:137] Memory required for data: 1741709440
I1130 04:07:52.856571 17494 layer_factory.hpp:77] Creating layer inception_5b/3x3_reduce
I1130 04:07:52.856581 17494 net.cpp:84] Creating Layer inception_5b/3x3_reduce
I1130 04:07:52.856586 17494 net.cpp:406] inception_5b/3x3_reduce <- inception_5a/output_inception_5a/output_0_split_1
I1130 04:07:52.856593 17494 net.cpp:380] inception_5b/3x3_reduce -> inception_5b/3x3_reduce
I1130 04:07:52.857987 17494 net.cpp:122] Setting up inception_5b/3x3_reduce
I1130 04:07:52.857998 17494 net.cpp:129] Top shape: 32 192 7 7 (301056)
I1130 04:07:52.858003 17494 net.cpp:137] Memory required for data: 1742913664
I1130 04:07:52.858011 17494 layer_factory.hpp:77] Creating layer inception_5b/relu_3x3_reduce
I1130 04:07:52.858017 17494 net.cpp:84] Creating Layer inception_5b/relu_3x3_reduce
I1130 04:07:52.858023 17494 net.cpp:406] inception_5b/relu_3x3_reduce <- inception_5b/3x3_reduce
I1130 04:07:52.858031 17494 net.cpp:367] inception_5b/relu_3x3_reduce -> inception_5b/3x3_reduce (in-place)
I1130 04:07:52.858037 17494 net.cpp:122] Setting up inception_5b/relu_3x3_reduce
I1130 04:07:52.858044 17494 net.cpp:129] Top shape: 32 192 7 7 (301056)
I1130 04:07:52.858047 17494 net.cpp:137] Memory required for data: 1744117888
I1130 04:07:52.858054 17494 layer_factory.hpp:77] Creating layer inception_5b/3x3
I1130 04:07:52.858063 17494 net.cpp:84] Creating Layer inception_5b/3x3
I1130 04:07:52.858068 17494 net.cpp:406] inception_5b/3x3 <- inception_5b/3x3_reduce
I1130 04:07:52.858074 17494 net.cpp:380] inception_5b/3x3 -> inception_5b/3x3
I1130 04:07:52.862524 17494 net.cpp:122] Setting up inception_5b/3x3
I1130 04:07:52.862538 17494 net.cpp:129] Top shape: 32 384 7 7 (602112)
I1130 04:07:52.862542 17494 net.cpp:137] Memory required for data: 1746526336
I1130 04:07:52.862550 17494 layer_factory.hpp:77] Creating layer inception_5b/relu_3x3
I1130 04:07:52.862557 17494 net.cpp:84] Creating Layer inception_5b/relu_3x3
I1130 04:07:52.862562 17494 net.cpp:406] inception_5b/relu_3x3 <- inception_5b/3x3
I1130 04:07:52.862570 17494 net.cpp:367] inception_5b/relu_3x3 -> inception_5b/3x3 (in-place)
I1130 04:07:52.862579 17494 net.cpp:122] Setting up inception_5b/relu_3x3
I1130 04:07:52.862584 17494 net.cpp:129] Top shape: 32 384 7 7 (602112)
I1130 04:07:52.862589 17494 net.cpp:137] Memory required for data: 1748934784
I1130 04:07:52.862593 17494 layer_factory.hpp:77] Creating layer inception_5b/5x5_reduce
I1130 04:07:52.862601 17494 net.cpp:84] Creating Layer inception_5b/5x5_reduce
I1130 04:07:52.862607 17494 net.cpp:406] inception_5b/5x5_reduce <- inception_5a/output_inception_5a/output_0_split_2
I1130 04:07:52.862614 17494 net.cpp:380] inception_5b/5x5_reduce -> inception_5b/5x5_reduce
I1130 04:07:52.863047 17494 net.cpp:122] Setting up inception_5b/5x5_reduce
I1130 04:07:52.863056 17494 net.cpp:129] Top shape: 32 48 7 7 (75264)
I1130 04:07:52.863062 17494 net.cpp:137] Memory required for data: 1749235840
I1130 04:07:52.863070 17494 layer_factory.hpp:77] Creating layer inception_5b/relu_5x5_reduce
I1130 04:07:52.863075 17494 net.cpp:84] Creating Layer inception_5b/relu_5x5_reduce
I1130 04:07:52.863081 17494 net.cpp:406] inception_5b/relu_5x5_reduce <- inception_5b/5x5_reduce
I1130 04:07:52.863086 17494 net.cpp:367] inception_5b/relu_5x5_reduce -> inception_5b/5x5_reduce (in-place)
I1130 04:07:52.863095 17494 net.cpp:122] Setting up inception_5b/relu_5x5_reduce
I1130 04:07:52.863101 17494 net.cpp:129] Top shape: 32 48 7 7 (75264)
I1130 04:07:52.863106 17494 net.cpp:137] Memory required for data: 1749536896
I1130 04:07:52.863109 17494 layer_factory.hpp:77] Creating layer inception_5b/5x5
I1130 04:07:52.863118 17494 net.cpp:84] Creating Layer inception_5b/5x5
I1130 04:07:52.863122 17494 net.cpp:406] inception_5b/5x5 <- inception_5b/5x5_reduce
I1130 04:07:52.863131 17494 net.cpp:380] inception_5b/5x5 -> inception_5b/5x5
I1130 04:07:52.864152 17494 net.cpp:122] Setting up inception_5b/5x5
I1130 04:07:52.864162 17494 net.cpp:129] Top shape: 32 128 7 7 (200704)
I1130 04:07:52.864166 17494 net.cpp:137] Memory required for data: 1750339712
I1130 04:07:52.864172 17494 layer_factory.hpp:77] Creating layer inception_5b/relu_5x5
I1130 04:07:52.864179 17494 net.cpp:84] Creating Layer inception_5b/relu_5x5
I1130 04:07:52.864184 17494 net.cpp:406] inception_5b/relu_5x5 <- inception_5b/5x5
I1130 04:07:52.864190 17494 net.cpp:367] inception_5b/relu_5x5 -> inception_5b/5x5 (in-place)
I1130 04:07:52.864197 17494 net.cpp:122] Setting up inception_5b/relu_5x5
I1130 04:07:52.864202 17494 net.cpp:129] Top shape: 32 128 7 7 (200704)
I1130 04:07:52.864207 17494 net.cpp:137] Memory required for data: 1751142528
I1130 04:07:52.864212 17494 layer_factory.hpp:77] Creating layer inception_5b/pool
I1130 04:07:52.864218 17494 net.cpp:84] Creating Layer inception_5b/pool
I1130 04:07:52.864224 17494 net.cpp:406] inception_5b/pool <- inception_5a/output_inception_5a/output_0_split_3
I1130 04:07:52.864229 17494 net.cpp:380] inception_5b/pool -> inception_5b/pool
I1130 04:07:52.864265 17494 net.cpp:122] Setting up inception_5b/pool
I1130 04:07:52.864272 17494 net.cpp:129] Top shape: 32 832 7 7 (1304576)
I1130 04:07:52.864276 17494 net.cpp:137] Memory required for data: 1756360832
I1130 04:07:52.864280 17494 layer_factory.hpp:77] Creating layer inception_5b/pool_proj
I1130 04:07:52.864291 17494 net.cpp:84] Creating Layer inception_5b/pool_proj
I1130 04:07:52.864296 17494 net.cpp:406] inception_5b/pool_proj <- inception_5b/pool
I1130 04:07:52.864305 17494 net.cpp:380] inception_5b/pool_proj -> inception_5b/pool_proj
I1130 04:07:52.865427 17494 net.cpp:122] Setting up inception_5b/pool_proj
I1130 04:07:52.865437 17494 net.cpp:129] Top shape: 32 128 7 7 (200704)
I1130 04:07:52.865442 17494 net.cpp:137] Memory required for data: 1757163648
I1130 04:07:52.865448 17494 layer_factory.hpp:77] Creating layer inception_5b/relu_pool_proj
I1130 04:07:52.865455 17494 net.cpp:84] Creating Layer inception_5b/relu_pool_proj
I1130 04:07:52.865460 17494 net.cpp:406] inception_5b/relu_pool_proj <- inception_5b/pool_proj
I1130 04:07:52.865468 17494 net.cpp:367] inception_5b/relu_pool_proj -> inception_5b/pool_proj (in-place)
I1130 04:07:52.865474 17494 net.cpp:122] Setting up inception_5b/relu_pool_proj
I1130 04:07:52.865480 17494 net.cpp:129] Top shape: 32 128 7 7 (200704)
I1130 04:07:52.865484 17494 net.cpp:137] Memory required for data: 1757966464
I1130 04:07:52.865489 17494 layer_factory.hpp:77] Creating layer inception_5b/output
I1130 04:07:52.865494 17494 net.cpp:84] Creating Layer inception_5b/output
I1130 04:07:52.865499 17494 net.cpp:406] inception_5b/output <- inception_5b/1x1
I1130 04:07:52.865504 17494 net.cpp:406] inception_5b/output <- inception_5b/3x3
I1130 04:07:52.865509 17494 net.cpp:406] inception_5b/output <- inception_5b/5x5
I1130 04:07:52.865514 17494 net.cpp:406] inception_5b/output <- inception_5b/pool_proj
I1130 04:07:52.865520 17494 net.cpp:380] inception_5b/output -> inception_5b/output
I1130 04:07:52.865545 17494 net.cpp:122] Setting up inception_5b/output
I1130 04:07:52.865551 17494 net.cpp:129] Top shape: 32 1024 7 7 (1605632)
I1130 04:07:52.865556 17494 net.cpp:137] Memory required for data: 1764388992
I1130 04:07:52.865559 17494 layer_factory.hpp:77] Creating layer pool5/7x7_s1
I1130 04:07:52.865566 17494 net.cpp:84] Creating Layer pool5/7x7_s1
I1130 04:07:52.865571 17494 net.cpp:406] pool5/7x7_s1 <- inception_5b/output
I1130 04:07:52.865578 17494 net.cpp:380] pool5/7x7_s1 -> pool5/7x7_s1
I1130 04:07:52.865599 17494 net.cpp:122] Setting up pool5/7x7_s1
I1130 04:07:52.865608 17494 net.cpp:129] Top shape: 32 1024 1 1 (32768)
I1130 04:07:52.865612 17494 net.cpp:137] Memory required for data: 1764520064
I1130 04:07:52.865617 17494 layer_factory.hpp:77] Creating layer pool5/drop_7x7_s1
I1130 04:07:52.865627 17494 net.cpp:84] Creating Layer pool5/drop_7x7_s1
I1130 04:07:52.865631 17494 net.cpp:406] pool5/drop_7x7_s1 <- pool5/7x7_s1
I1130 04:07:52.865636 17494 net.cpp:367] pool5/drop_7x7_s1 -> pool5/7x7_s1 (in-place)
I1130 04:07:52.865661 17494 net.cpp:122] Setting up pool5/drop_7x7_s1
I1130 04:07:52.865669 17494 net.cpp:129] Top shape: 32 1024 1 1 (32768)
I1130 04:07:52.865674 17494 net.cpp:137] Memory required for data: 1764651136
I1130 04:07:52.865677 17494 layer_factory.hpp:77] Creating layer fc_scv_wealthy
I1130 04:07:52.865687 17494 net.cpp:84] Creating Layer fc_scv_wealthy
I1130 04:07:52.865692 17494 net.cpp:406] fc_scv_wealthy <- pool5/7x7_s1
I1130 04:07:52.865700 17494 net.cpp:380] fc_scv_wealthy -> fc_scv_wealthy
I1130 04:07:52.865794 17494 net.cpp:122] Setting up fc_scv_wealthy
I1130 04:07:52.865803 17494 net.cpp:129] Top shape: 32 1 (32)
I1130 04:07:52.865808 17494 net.cpp:137] Memory required for data: 1764651264
I1130 04:07:52.865813 17494 layer_factory.hpp:77] Creating layer loss
I1130 04:07:52.865820 17494 net.cpp:84] Creating Layer loss
I1130 04:07:52.865825 17494 net.cpp:406] loss <- fc_scv_wealthy
I1130 04:07:52.865830 17494 net.cpp:406] loss <- label
I1130 04:07:52.865839 17494 net.cpp:380] loss -> loss
I1130 04:07:52.865877 17494 net.cpp:122] Setting up loss
…
I1130 04:07:52.869662 17494 net.cpp:294] The NetState phase (1) differed from the phase (0) specified by a rule in layer data
I1130 04:07:52.870404 17494 net.cpp:51] Initializing net from parameters: 
name: "GoogleNet-Places365-SCV-Wealthy"
state {
  phase: TEST
}
layer {
  name: "data"
  type: "Data"
  top: "data"
  top: "label"
  include {
    phase: TEST
  }
  transform_param {
    mirror: false
    crop_size: 224
    mean_file: "/idiap/temp/lmedina/fine-tuning/googlenet_places365/places365CNN_mean.binaryproto"
  }
  data_param {
    source: "/idiap/temp/lmedina/fine-tuning/data/Wealthy/validation_lmdb"
    batch_size: 32
    backend: LMDB
  }
}
layer {
  name: "conv1/7x7_s2"
  type: "Convolution"
  bottom: "data"
  top: "conv1/7x7_s2"
  param {
    lr_mult: 1
    decay_mult: 1
  }
  param {
    lr_mult: 2
    decay_mult: 0
  }
  convolution_param {
    num_output: 64
    pad: 3
    kernel_size: 7
    stride: 2
    weight_filler {
      type: "xavier"
      std: 0.1
    }
    bias_filler {
      type: "constant"
      value: 0.2
    }
  }
}
layer {
  name: "conv1/relu_7x7"
  type: "ReLU"
  bottom: "conv1/7x7_s2"
  top: "conv1/7x7_s2"
}
layer {
  name: "pool1/3x3_s2"
  type: "Pooling"
  bottom: "conv1/7x7_s2"
  top: "pool1/3x3_s2"
  pooling_param {
    pool: MAX
    kernel_size: 3
    stride: 2
  }
}
layer {
  name: "pool1/norm1"
  type: "LRN"
  bottom: "pool1/3x3_s2"
  top: "pool1/norm1"
  lrn_param {
    local_size: 5
    alpha: 0.0001
    beta: 0.75
  }
}
layer {
  name: "conv2/3x3_reduce"
  type: "Convolution"
  bottom: "pool1/norm1"
  top: "conv2/3x3_reduce"
  param {
    lr_mult: 1
    decay_mult: 1
  }
  param {
    lr_mult: 2
    decay_mult: 0
  }
  convolution_param {
    num_output: 64
    kernel_size: 1
    weight_filler {
      type: "xavier"
      std: 0.1
    }
    bias_filler {
      type: "constant"
      value: 0.2
    }
  }
}
layer {
  name: "conv2/relu_3x3_reduce"
  type: "ReLU"
  bottom: "conv2/3x3_reduce"
  top: "conv2/3x3_reduce"
}
layer {
  name: "conv2/3x3"
  type: "Convolution"
  bottom: "conv2/3x3_reduce"
  top: "conv2/3x3"
  param {
    lr_mult: 1
    decay_mult: 1
  }
  param {
    lr_mult: 2
    decay_mult: 0
  }
  convolution_param {
    num_output: 192
    pad: 1
    kernel_size: 3
    weight_filler {
      type: "xavier"
      std: 0.03
    }
    bias_filler {
      type: "constant"
      value: 0.2
    }
  }
}
layer {
  name: "conv2/relu_3x3"
  type: "ReLU"
  bottom: "conv2/3x3"
  top: "conv2/3x3"
}
layer {
  name: "conv2/norm2"
  type: "LRN"
  bottom: "conv2/3x3"
  top: "conv2/norm2"
  lrn_param {
    local_size: 5
    alpha: 0.0001
    beta: 0.75
  }
}
layer {
  name: "pool2/3x3_s2"
  type: "Pooling"
  bottom: "conv2/norm2"
  top: "pool2/3x3_s2"
  pooling_param {
    pool: MAX
    kernel_size: 3
    stride: 2
  }
}
layer {
  name: "inception_3a/1x1"
  type: "Convolution"
  bottom: "pool2/3x3_s2"
  top: "inception_3a/1x1"
  param {
    lr_mult: 1
    decay_mult: 1
  }
  param {
    lr_mult: 2
    decay_mult: 0
  }
  convolution_param {
    num_output: 64
    kernel_size: 1
    weight_filler {
      type: "xavier"
      std: 0.03
    }
    bias_filler {
      type: "constant"
      value: 0.2
    }
  }
}
layer {
  name: "inception_3a/relu_1x1"
  type: "ReLU"
  bottom: "inception_3a/1x1"
  top: "inception_3a/1x1"
}
layer {
  name: "inception_3a/3x3_reduce"
  type: "Convolution"
  bottom: "pool2/3x3_s2"
  top: "inception_3a/3x3_reduce"
  param {
    lr_mult: 1
    decay_mult: 1
  }
  param {
    lr_mult: 2
    decay_mult: 0
  }
  convolution_param {
    num_output: 96
    kernel_size: 1
    weight_filler {
      type: "xavier"
      std: 0.09
    }
    bias_filler {
      type: "constant"
      value: 0.2
    }
  }
}
layer {
  name: "inception_3a/relu_3x3_reduce"
  type: "ReLU"
  bottom: "inception_3a/3x3_reduce"
  top: "inception_3a/3x3_reduce"
}
layer {
  name: "inception_3a/3x3"
  type: "Convolution"
  bottom: "inception_3a/3x3_reduce"
  top: "inception_3a/3x3"
  param {
    lr_mult: 1
    decay_mult: 1
  }
  param {
    lr_mult: 2
    decay_mult: 0
  }
  convolution_param {
    num_output: 128
    pad: 1
    kernel_size: 3
    weight_filler {
      type: "xavier"
      std: 0.03
    }
    bias_filler {
      type: "constant"
      value: 0.2
    }
  }
}
layer {
  name: "inception_3a/relu_3x3"
  type: "ReLU"
  bottom: "inception_3a/3x3"
  top: "inception_3a/3x3"
}
layer {
  name: "inception_3a/5x5_reduce"
  type: "Convolution"
  bottom: "pool2/3x3_s2"
  top: "inception_3a/5x5_reduce"
  param {
    lr_mult: 1
    decay_mult: 1
  }
  param {
    lr_mult: 2
    decay_mult: 0
  }
  convolution_param {
    num_output: 16
    kernel_size: 1
    weight_filler {
      type: "xavier"
      std: 0.2
    }
    bias_filler {
      type: "constant"
      value: 0.2
    }
  }
}
layer {
  name: "inception_3a/relu_5x5_reduce"
  type: "ReLU"
  bottom: "inception_3a/5x5_reduce"
  top: "inception_3a/5x5_reduce"
}
layer {
  name: "inception_3a/5x5"
  type: "Convolution"
  bottom: "inception_3a/5x5_reduce"
  top: "inception_3a/5x5"
  param {
    lr_mult: 1
    decay_mult: 1
  }
  param {
    lr_mult: 2
    decay_mult: 0
  }
  convolution_param {
    num_output: 32
    pad: 2
    kernel_size: 5
    weight_filler {
      type: "xavier"
      std: 0.03
    }
    bias_filler {
      type: "constant"
      value: 0.2
    }
  }
}
layer {
  name: "inception_3a/relu_5x5"
  type: "ReLU"
  bottom: "inception_3a/5x5"
  top: "inception_3a/5x5"
}
layer {
  name: "inception_3a/pool"
  type: "Pooling"
  bottom: "pool2/3x3_s2"
  top: "inception_3a/pool"
  pooling_param {
    pool: MAX
    kernel_size: 3
    stride: 1
    pad: 1
  }
}
layer {
  name: "inception_3a/pool_proj"
  type: "Convolution"
  bottom: "inception_3a/pool"
  top: "inception_3a/pool_proj"
  param {
    lr_mult: 1
    decay_mult: 1
  }
  param {
    lr_mult: 2
    decay_mult: 0
  }
  convolution_param {
    num_output: 32
    kernel_size: 1
    weight_filler {
      type: "xavier"
      std: 0.1
    }
    bias_filler {
      type: "constant"
      value: 0.2
    }
  }
}
layer {
  name: "inception_3a/relu_pool_proj"
  type: "ReLU"
  bottom: "inception_3a/pool_proj"
  top: "inception_3a/pool_proj"
}
layer {
  name: "inception_3a/output"
  type: "Concat"
  bottom: "inception_3a/1x1"
  bottom: "inception_3a/3x3"
  bottom: "inception_3a/5x5"
  bottom: "inception_3a/pool_proj"
  top: "inception_3a/output"
}
layer {
  name: "inception_3b/1x1"
  type: "Convolution"
  bottom: "inception_3a/output"
  top: "inception_3b/1x1"
  param {
    lr_mult: 1
    decay_mult: 1
  }
  param {
    lr_mult: 2
    decay_mult: 0
  }
  convolution_param {
    num_output: 128
    kernel_size: 1
    weight_filler {
      type: "xavier"
      std: 0.03
    }
    bias_filler {
      type: "constant"
      value: 0.2
    }
  }
}
layer {
  name: "inception_3b/relu_1x1"
  type: "ReLU"
  bottom: "inception_3b/1x1"
  top: "inception_3b/1x1"
}
layer {
  name: "inception_3b/3x3_reduce"
  type: "Convolution"
  bottom: "inception_3a/output"
  top: "inception_3b/3x3_reduce"
  param {
    lr_mult: 1
    decay_mult: 1
  }
  param {
    lr_mult: 2
    decay_mult: 0
  }
  convolution_param {
    num_output: 128
    kernel_size: 1
    weight_filler {
      type: "xavier"
      std: 0.09
    }
    bias_filler {
      type: "constant"
      value: 0.2
    }
  }
}
layer {
  name: "inception_3b/relu_3x3_reduce"
  type: "ReLU"
  bottom: "inception_3b/3x3_reduce"
  top: "inception_3b/3x3_reduce"
}
layer {
  name: "inception_3b/3x3"
  type: "Convolution"
  bottom: "inception_3b/3x3_reduce"
  top: "inception_3b/3x3"
  param {
    lr_mult: 1
    decay_mult: 1
  }
  param {
    lr_mult: 2
    decay_mult: 0
  }
  convolution_param {
    num_output: 192
    pad: 1
    kernel_size: 3
    weight_filler {
      type: "xavier"
      std: 0.03
    }
    bias_filler {
      type: "constant"
      value: 0.2
    }
  }
}
layer {
  name: "inception_3b/relu_3x3"
  type: "ReLU"
  bottom: "inception_3b/3x3"
  top: "inception_3b/3x3"
}
layer {
  name: "inception_3b/5x5_reduce"
  type: "Convolution"
  bottom: "inception_3a/output"
  top: "inception_3b/5x5_reduce"
  param {
    lr_mult: 1
    decay_mult: 1
  }
  param {
    lr_mult: 2
    decay_mult: 0
  }
  convolution_param {
    num_output: 32
    kernel_size: 1
    weight_filler {
      type: "xavier"
      std: 0.2
    }
    bias_filler {
      type: "constant"
      value: 0.2
    }
  }
}
layer {
  name: "inception_3b/relu_5x5_reduce"
  type: "ReLU"
  bottom: "inception_3b/5x5_reduce"
  top: "inception_3b/5x5_reduce"
}
layer {
  name: "inception_3b/5x5"
  type: "Convolution"
  bottom: "inception_3b/5x5_reduce"
  top: "inception_3b/5x5"
  param {
    lr_mult: 1
    decay_mult: 1
  }
  param {
    lr_mult: 2
    decay_mult: 0
  }
  convolution_param {
    num_output: 96
    pad: 2
    kernel_size: 5
    weight_filler {
      type: "xavier"
      std: 0.03
    }
    bias_filler {
      type: "constant"
      value: 0.2
    }
  }
}
layer {
  name: "inception_3b/relu_5x5"
  type: "ReLU"
  bottom: "inception_3b/5x5"
  top: "inception_3b/5x5"
}
layer {
  name: "inception_3b/pool"
  type: "Pooling"
  bottom: "inception_3a/output"
  top: "inception_3b/pool"
  pooling_param {
    pool: MAX
    kernel_size: 3
    stride: 1
    pad: 1
  }
}
layer {
  name: "inception_3b/pool_proj"
  type: "Convolution"
  bottom: "inception_3b/pool"
  top: "inception_3b/pool_proj"
  param {
    lr_mult: 1
    decay_mult: 1
  }
  param {
    lr_mult: 2
    decay_mult: 0
  }
  convolution_param {
    num_output: 64
    kernel_size: 1
    weight_filler {
      type: "xavier"
      std: 0.1
    }
    bias_filler {
      type: "constant"
      value: 0.2
    }
  }
}
layer {
  name: "inception_3b/relu_pool_proj"
  type: "ReLU"
  bottom: "inception_3b/pool_proj"
  top: "inception_3b/pool_proj"
}
layer {
  name: "inception_3b/output"
  type: "Concat"
  bottom: "inception_3b/1x1"
  bottom: "inception_3b/3x3"
  bottom: "inception_3b/5x5"
  bottom: "inception_3b/pool_proj"
  top: "inception_3b/output"
}
layer {
  name: "pool3/3x3_s2"
  type: "Pooling"
  bottom: "inception_3b/output"
  top: "pool3/3x3_s2"
  pooling_param {
    pool: MAX
    kernel_size: 3
    stride: 2
  }
}
layer {
  name: "inception_4a/1x1"
  type: "Convolution"
  bottom: "pool3/3x3_s2"
  top: "inception_4a/1x1"
  param {
    lr_mult: 1
    decay_mult: 1
  }
  param {
    lr_mult: 2
    decay_mult: 0
  }
  convolution_param {
    num_output: 192
    kernel_size: 1
    weight_filler {
      type: "xavier"
      std: 0.03
    }
    bias_filler {
      type: "constant"
      value: 0.2
    }
  }
}
layer {
  name: "inception_4a/relu_1x1"
  type: "ReLU"
  bottom: "inception_4a/1x1"
  top: "inception_4a/1x1"
}
layer {
  name: "inception_4a/3x3_reduce"
  type: "Convolution"
  bottom: "pool3/3x3_s2"
  top: "inception_4a/3x3_reduce"
  param {
    lr_mult: 1
    decay_mult: 1
  }
  param {
    lr_mult: 2
    decay_mult: 0
  }
  convolution_param {
    num_output: 96
    kernel_size: 1
    weight_filler {
      type: "xavier"
      std: 0.09
    }
    bias_filler {
      type: "constant"
      value: 0.2
    }
  }
}
layer {
  name: "inception_4a/relu_3x3_reduce"
  type: "ReLU"
  bottom: "inception_4a/3x3_reduce"
  top: "inception_4a/3x3_reduce"
}
layer {
  name: "inception_4a/3x3"
  type: "Convolution"
  bottom: "inception_4a/3x3_reduce"
  top: "inception_4a/3x3"
  param {
    lr_mult: 1
    decay_mult: 1
  }
  param {
    lr_mult: 2
    decay_mult: 0
  }
  convolution_param {
    num_output: 208
    pad: 1
    kernel_size: 3
    weight_filler {
      type: "xavier"
      std: 0.03
    }
    bias_filler {
      type: "constant"
      value: 0.2
    }
  }
}
layer {
  name: "inception_4a/relu_3x3"
  type: "ReLU"
  bottom: "inception_4a/3x3"
  top: "inception_4a/3x3"
}
layer {
  name: "inception_4a/5x5_reduce"
  type: "Convolution"
  bottom: "pool3/3x3_s2"
  top: "inception_4a/5x5_reduce"
  param {
    lr_mult: 1
    decay_mult: 1
  }
  param {
    lr_mult: 2
    decay_mult: 0
  }
  convolution_param {
    num_output: 16
    kernel_size: 1
    weight_filler {
      type: "xavier"
      std: 0.2
    }
    bias_filler {
      type: "constant"
      value: 0.2
    }
  }
}
layer {
  name: "inception_4a/relu_5x5_reduce"
  type: "ReLU"
  bottom: "inception_4a/5x5_reduce"
  top: "inception_4a/5x5_reduce"
}
layer {
  name: "inception_4a/5x5"
  type: "Convolution"
  bottom: "inception_4a/5x5_reduce"
  top: "inception_4a/5x5"
  param {
    lr_mult: 1
    decay_mult: 1
  }
  param {
    lr_mult: 2
    decay_mult: 0
  }
  convolution_param {
    num_output: 48
    pad: 2
    kernel_size: 5
    weight_filler {
      type: "xavier"
      std: 0.03
    }
    bias_filler {
      type: "constant"
      value: 0.2
    }
  }
}
layer {
  name: "inception_4a/relu_5x5"
  type: "ReLU"
  bottom: "inception_4a/5x5"
  top: "inception_4a/5x5"
}
layer {
  name: "inception_4a/pool"
  type: "Pooling"
  bottom: "pool3/3x3_s2"
  top: "inception_4a/pool"
  pooling_param {
    pool: MAX
    kernel_size: 3
    stride: 1
    pad: 1
  }
}
layer {
  name: "inception_4a/pool_proj"
  type: "Convolution"
  bottom: "inception_4a/pool"
  top: "inception_4a/pool_proj"
  param {
    lr_mult: 1
    decay_mult: 1
  }
  param {
    lr_mult: 2
    decay_mult: 0
  }
  convolution_param {
    num_output: 64
    kernel_size: 1
    weight_filler {
      type: "xavier"
      std: 0.1
    }
    bias_filler {
      type: "constant"
      value: 0.2
    }
  }
}
layer {
  name: "inception_4a/relu_pool_proj"
  type: "ReLU"
  bottom: "inception_4a/pool_proj"
  top: "inception_4a/pool_proj"
}
layer {
  name: "inception_4a/output"
  type: "Concat"
  bottom: "inception_4a/1x1"
  bottom: "inception_4a/3x3"
  bottom: "inception_4a/5x5"
  bottom: "inception_4a/pool_proj"
  top: "inception_4a/output"
}
layer {
  name: "inception_4b/1x1"
  type: "Convolution"
  bottom: "inception_4a/output"
  top: "inception_4b/1x1"
  param {
    lr_mult: 1
    decay_mult: 1
  }
  param {
    lr_mult: 2
    decay_mult: 0
  }
  convolution_param {
    num_output: 160
    kernel_size: 1
    weight_filler {
      type: "xavier"
      std: 0.03
    }
    bias_filler {
      type: "constant"
      value: 0.2
    }
  }
}
layer {
  name: "inception_4b/relu_1x1"
  type: "ReLU"
  bottom: "inception_4b/1x1"
  top: "inception_4b/1x1"
}
layer {
  name: "inception_4b/3x3_reduce"
  type: "Convolution"
  bottom: "inception_4a/output"
  top: "inception_4b/3x3_reduce"
  param {
    lr_mult: 1
    decay_mult: 1
  }
  param {
    lr_mult: 2
    decay_mult: 0
  }
  convolution_param {
    num_output: 112
    kernel_size: 1
    weight_filler {
      type: "xavier"
      std: 0.09
    }
    bias_filler {
      type: "constant"
      value: 0.2
    }
  }
}
layer {
  name: "inception_4b/relu_3x3_reduce"
  type: "ReLU"
  bottom: "inception_4b/3x3_reduce"
  top: "inception_4b/3x3_reduce"
}
layer {
  name: "inception_4b/3x3"
  type: "Convolution"
  bottom: "inception_4b/3x3_reduce"
  top: "inception_4b/3x3"
  param {
    lr_mult: 1
    decay_mult: 1
  }
  param {
    lr_mult: 2
    decay_mult: 0
  }
  convolution_param {
    num_output: 224
    pad: 1
    kernel_size: 3
    weight_filler {
      type: "xavier"
      std: 0.03
    }
    bias_filler {
      type: "constant"
      value: 0.2
    }
  }
}
layer {
  name: "inception_4b/relu_3x3"
  type: "ReLU"
  bottom: "inception_4b/3x3"
  top: "inception_4b/3x3"
}
layer {
  name: "inception_4b/5x5_reduce"
  type: "Convolution"
  bottom: "inception_4a/output"
  top: "inception_4b/5x5_reduce"
  param {
    lr_mult: 1
    decay_mult: 1
  }
  param {
    lr_mult: 2
    decay_mult: 0
  }
  convolution_param {
    num_output: 24
    kernel_size: 1
    weight_filler {
      type: "xavier"
      std: 0.2
    }
    bias_filler {
      type: "constant"
      value: 0.2
    }
  }
}
layer {
  name: "inception_4b/relu_5x5_reduce"
  type: "ReLU"
  bottom: "inception_4b/5x5_reduce"
  top: "inception_4b/5x5_reduce"
}
layer {
  name: "inception_4b/5x5"
  type: "Convolution"
  bottom: "inception_4b/5x5_reduce"
  top: "inception_4b/5x5"
  param {
    lr_mult: 1
    decay_mult: 1
  }
  param {
    lr_mult: 2
    decay_mult: 0
  }
  convolution_param {
    num_output: 64
    pad: 2
    kernel_size: 5
    weight_filler {
      type: "xavier"
      std: 0.03
    }
    bias_filler {
      type: "constant"
      value: 0.2
    }
  }
}
layer {
  name: "inception_4b/relu_5x5"
  type: "ReLU"
  bottom: "inception_4b/5x5"
  top: "inception_4b/5x5"
}
layer {
  name: "inception_4b/pool"
  type: "Pooling"
  bottom: "inception_4a/output"
  top: "inception_4b/pool"
  pooling_param {
    pool: MAX
    kernel_size: 3
    stride: 1
    pad: 1
  }
}
layer {
  name: "inception_4b/pool_proj"
  type: "Convolution"
  bottom: "inception_4b/pool"
  top: "inception_4b/pool_proj"
  param {
    lr_mult: 1
    decay_mult: 1
  }
  param {
    lr_mult: 2
    decay_mult: 0
  }
  convolution_param {
    num_output: 64
    kernel_size: 1
    weight_filler {
      type: "xavier"
      std: 0.1
    }
    bias_filler {
      type: "constant"
      value: 0.2
    }
  }
}
layer {
  name: "inception_4b/relu_pool_proj"
  type: "ReLU"
  bottom: "inception_4b/pool_proj"
  top: "inception_4b/pool_proj"
}
layer {
  name: "inception_4b/output"
  type: "Concat"
  bottom: "inception_4b/1x1"
  bottom: "inception_4b/3x3"
  bottom: "inception_4b/5x5"
  bottom: "inception_4b/pool_proj"
  top: "inception_4b/output"
}
layer {
  name: "inception_4c/1x1"
  type: "Convolution"
  bottom: "inception_4b/output"
  top: "inception_4c/1x1"
  param {
    lr_mult: 1
    decay_mult: 1
  }
  param {
    lr_mult: 2
    decay_mult: 0
  }
  convolution_param {
    num_output: 128
    kernel_size: 1
    weight_filler {
      type: "xavier"
      std: 0.03
    }
    bias_filler {
      type: "constant"
      value: 0.2
    }
  }
}
layer {
  name: "inception_4c/relu_1x1"
  type: "ReLU"
  bottom: "inception_4c/1x1"
  top: "inception_4c/1x1"
}
layer {
  name: "inception_4c/3x3_reduce"
  type: "Convolution"
  bottom: "inception_4b/output"
  top: "inception_4c/3x3_reduce"
  param {
    lr_mult: 1
    decay_mult: 1
  }
  param {
    lr_mult: 2
    decay_mult: 0
  }
  convolution_param {
    num_output: 128
    kernel_size: 1
    weight_filler {
      type: "xavier"
      std: 0.09
    }
    bias_filler {
      type: "constant"
      value: 0.2
    }
  }
}
layer {
  name: "inception_4c/relu_3x3_reduce"
  type: "ReLU"
  bottom: "inception_4c/3x3_reduce"
  top: "inception_4c/3x3_reduce"
}
layer {
  name: "inception_4c/3x3"
  type: "Convolution"
  bottom: "inception_4c/3x3_reduce"
  top: "inception_4c/3x3"
  param {
    lr_mult: 1
    decay_mult: 1
  }
  param {
    lr_mult: 2
    decay_mult: 0
  }
  convolution_param {
    num_output: 256
    pad: 1
    kernel_size: 3
    weight_filler {
      type: "xavier"
      std: 0.03
    }
    bias_filler {
      type: "constant"
      value: 0.2
    }
  }
}
layer {
  name: "inception_4c/relu_3x3"
  type: "ReLU"
  bottom: "inception_4c/3x3"
  top: "inception_4c/3x3"
}
layer {
  name: "inception_4c/5x5_reduce"
  type: "Convolution"
  bottom: "inception_4b/output"
  top: "inception_4c/5x5_reduce"
  param {
    lr_mult: 1
    decay_mult: 1
  }
  param {
    lr_mult: 2
    decay_mult: 0
  }
  convolution_param {
    num_output: 24
    kernel_size: 1
    weight_filler {
      type: "xavier"
      std: 0.2
    }
    bias_filler {
      type: "constant"
      value: 0.2
    }
  }
}
layer {
  name: "inception_4c/relu_5x5_reduce"
  type: "ReLU"
  bottom: "inception_4c/5x5_reduce"
  top: "inception_4c/5x5_reduce"
}
layer {
  name: "inception_4c/5x5"
  type: "Convolution"
  bottom: "inception_4c/5x5_reduce"
  top: "inception_4c/5x5"
  param {
    lr_mult: 1
    decay_mult: 1
  }
  param {
    lr_mult: 2
    decay_mult: 0
  }
  convolution_param {
    num_output: 64
    pad: 2
    kernel_size: 5
    weight_filler {
      type: "xavier"
      std: 0.03
    }
    bias_filler {
      type: "constant"
      value: 0.2
    }
  }
}
layer {
  name: "inception_4c/relu_5x5"
  type: "ReLU"
  bottom: "inception_4c/5x5"
  top: "inception_4c/5x5"
}
layer {
  name: "inception_4c/pool"
  type: "Pooling"
  bottom: "inception_4b/output"
  top: "inception_4c/pool"
  pooling_param {
    pool: MAX
    kernel_size: 3
    stride: 1
    pad: 1
  }
}
layer {
  name: "inception_4c/pool_proj"
  type: "Convolution"
  bottom: "inception_4c/pool"
  top: "inception_4c/pool_proj"
  param {
    lr_mult: 1
    decay_mult: 1
  }
  param {
    lr_mult: 2
    decay_mult: 0
  }
  convolution_param {
    num_output: 64
    kernel_size: 1
    weight_filler {
      type: "xavier"
      std: 0.1
    }
    bias_filler {
      type: "constant"
      value: 0.2
    }
  }
}
layer {
  name: "inception_4c/relu_pool_proj"
  type: "ReLU"
  bottom: "inception_4c/pool_proj"
  top: "inception_4c/pool_proj"
}
layer {
  name: "inception_4c/output"
  type: "Concat"
  bottom: "inception_4c/1x1"
  bottom: "inception_4c/3x3"
  bottom: "inception_4c/5x5"
  bottom: "inception_4c/pool_proj"
  top: "inception_4c/output"
}
layer {
  name: "inception_4d/1x1"
  type: "Convolution"
  bottom: "inception_4c/output"
  top: "inception_4d/1x1"
  param {
    lr_mult: 1
    decay_mult: 1
  }
  param {
    lr_mult: 2
    decay_mult: 0
  }
  convolution_param {
    num_output: 112
    kernel_size: 1
    weight_filler {
      type: "xavier"
      std: 0.03
    }
    bias_filler {
      type: "constant"
      value: 0.2
    }
  }
}
layer {
  name: "inception_4d/relu_1x1"
  type: "ReLU"
  bottom: "inception_4d/1x1"
  top: "inception_4d/1x1"
}
layer {
  name: "inception_4d/3x3_reduce"
  type: "Convolution"
  bottom: "inception_4c/output"
  top: "inception_4d/3x3_reduce"
  param {
    lr_mult: 1
    decay_mult: 1
  }
  param {
    lr_mult: 2
    decay_mult: 0
  }
  convolution_param {
    num_output: 144
    kernel_size: 1
    weight_filler {
      type: "xavier"
      std: 0.09
    }
    bias_filler {
      type: "constant"
      value: 0.2
    }
  }
}
layer {
  name: "inception_4d/relu_3x3_reduce"
  type: "ReLU"
  bottom: "inception_4d/3x3_reduce"
  top: "inception_4d/3x3_reduce"
}
layer {
  name: "inception_4d/3x3"
  type: "Convolution"
  bottom: "inception_4d/3x3_reduce"
  top: "inception_4d/3x3"
  param {
    lr_mult: 1
    decay_mult: 1
  }
  param {
    lr_mult: 2
    decay_mult: 0
  }
  convolution_param {
    num_output: 288
    pad: 1
    kernel_size: 3
    weight_filler {
      type: "xavier"
      std: 0.03
    }
    bias_filler {
      type: "constant"
      value: 0.2
    }
  }
}
layer {
  name: "inception_4d/relu_3x3"
  type: "ReLU"
  bottom: "inception_4d/3x3"
  top: "inception_4d/3x3"
}
layer {
  name: "inception_4d/5x5_reduce"
  type: "Convolution"
  bottom: "inception_4c/output"
  top: "inception_4d/5x5_reduce"
  param {
    lr_mult: 1
    decay_mult: 1
  }
  param {
    lr_mult: 2
    decay_mult: 0
  }
  convolution_param {
    num_output: 32
    kernel_size: 1
    weight_filler {
      type: "xavier"
      std: 0.2
    }
    bias_filler {
      type: "constant"
      value: 0.2
    }
  }
}
layer {
  name: "inception_4d/relu_5x5_reduce"
  type: "ReLU"
  bottom: "inception_4d/5x5_reduce"
  top: "inception_4d/5x5_reduce"
}
layer {
  name: "inception_4d/5x5"
  type: "Convolution"
  bottom: "inception_4d/5x5_reduce"
  top: "inception_4d/5x5"
  param {
    lr_mult: 1
    decay_mult: 1
  }
  param {
    lr_mult: 2
    decay_mult: 0
  }
  convolution_param {
    num_output: 64
    pad: 2
    kernel_size: 5
    weight_filler {
      type: "xavier"
      std: 0.03
    }
    bias_filler {
      type: "constant"
      value: 0.2
    }
  }
}
layer {
  name: "inception_4d/relu_5x5"
  type: "ReLU"
  bottom: "inception_4d/5x5"
  top: "inception_4d/5x5"
}
layer {
  name: "inception_4d/pool"
  type: "Pooling"
  bottom: "inception_4c/output"
  top: "inception_4d/pool"
  pooling_param {
    pool: MAX
    kernel_size: 3
    stride: 1
    pad: 1
  }
}
layer {
  name: "inception_4d/pool_proj"
  type: "Convolution"
  bottom: "inception_4d/pool"
  top: "inception_4d/pool_proj"
  param {
    lr_mult: 1
    decay_mult: 1
  }
  param {
    lr_mult: 2
    decay_mult: 0
  }
  convolution_param {
    num_output: 64
    kernel_size: 1
    weight_filler {
      type: "xavier"
      std: 0.1
    }
    bias_filler {
      type: "constant"
      value: 0.2
    }
  }
}
layer {
  name: "inception_4d/relu_pool_proj"
  type: "ReLU"
  bottom: "inception_4d/pool_proj"
  top: "inception_4d/pool_proj"
}
layer {
  name: "inception_4d/output"
  type: "Concat"
  bottom: "inception_4d/1x1"
  bottom: "inception_4d/3x3"
  bottom: "inception_4d/5x5"
…
I1130 04:07:52.980985 17494 layer_factory.hpp:77] Creating layer inception_4c/1x1
I1130 04:07:52.980993 17494 net.cpp:84] Creating Layer inception_4c/1x1
I1130 04:07:52.980998 17494 net.cpp:406] inception_4c/1x1 <- inception_4b/output_inception_4b/output_0_split_0
I1130 04:07:52.981005 17494 net.cpp:380] inception_4c/1x1 -> inception_4c/1x1
I1130 04:07:52.981541 17494 net.cpp:122] Setting up inception_4c/1x1
I1130 04:07:52.981550 17494 net.cpp:129] Top shape: 32 128 14 14 (802816)
I1130 04:07:52.981556 17494 net.cpp:137] Memory required for data: 1359569280
I1130 04:07:52.981564 17494 layer_factory.hpp:77] Creating layer inception_4c/relu_1x1
I1130 04:07:52.981570 17494 net.cpp:84] Creating Layer inception_4c/relu_1x1
I1130 04:07:52.981575 17494 net.cpp:406] inception_4c/relu_1x1 <- inception_4c/1x1
I1130 04:07:52.981581 17494 net.cpp:367] inception_4c/relu_1x1 -> inception_4c/1x1 (in-place)
I1130 04:07:52.981588 17494 net.cpp:122] Setting up inception_4c/relu_1x1
I1130 04:07:52.981595 17494 net.cpp:129] Top shape: 32 128 14 14 (802816)
I1130 04:07:52.981598 17494 net.cpp:137] Memory required for data: 1362780544
I1130 04:07:52.981602 17494 layer_factory.hpp:77] Creating layer inception_4c/3x3_reduce
I1130 04:07:52.981611 17494 net.cpp:84] Creating Layer inception_4c/3x3_reduce
I1130 04:07:52.981616 17494 net.cpp:406] inception_4c/3x3_reduce <- inception_4b/output_inception_4b/output_0_split_1
I1130 04:07:52.981621 17494 net.cpp:380] inception_4c/3x3_reduce -> inception_4c/3x3_reduce
I1130 04:07:52.982154 17494 net.cpp:122] Setting up inception_4c/3x3_reduce
I1130 04:07:52.982163 17494 net.cpp:129] Top shape: 32 128 14 14 (802816)
I1130 04:07:52.982168 17494 net.cpp:137] Memory required for data: 1365991808
I1130 04:07:52.982175 17494 layer_factory.hpp:77] Creating layer inception_4c/relu_3x3_reduce
I1130 04:07:52.982182 17494 net.cpp:84] Creating Layer inception_4c/relu_3x3_reduce
I1130 04:07:52.982187 17494 net.cpp:406] inception_4c/relu_3x3_reduce <- inception_4c/3x3_reduce
I1130 04:07:52.982192 17494 net.cpp:367] inception_4c/relu_3x3_reduce -> inception_4c/3x3_reduce (in-place)
I1130 04:07:52.982199 17494 net.cpp:122] Setting up inception_4c/relu_3x3_reduce
I1130 04:07:52.982205 17494 net.cpp:129] Top shape: 32 128 14 14 (802816)
I1130 04:07:52.982209 17494 net.cpp:137] Memory required for data: 1369203072
I1130 04:07:52.982214 17494 layer_factory.hpp:77] Creating layer inception_4c/3x3
I1130 04:07:52.982221 17494 net.cpp:84] Creating Layer inception_4c/3x3
I1130 04:07:52.982226 17494 net.cpp:406] inception_4c/3x3 <- inception_4c/3x3_reduce
I1130 04:07:52.982233 17494 net.cpp:380] inception_4c/3x3 -> inception_4c/3x3
I1130 04:07:52.984338 17494 net.cpp:122] Setting up inception_4c/3x3
I1130 04:07:52.984349 17494 net.cpp:129] Top shape: 32 256 14 14 (1605632)
I1130 04:07:52.984354 17494 net.cpp:137] Memory required for data: 1375625600
I1130 04:07:52.984360 17494 layer_factory.hpp:77] Creating layer inception_4c/relu_3x3
I1130 04:07:52.984367 17494 net.cpp:84] Creating Layer inception_4c/relu_3x3
I1130 04:07:52.984374 17494 net.cpp:406] inception_4c/relu_3x3 <- inception_4c/3x3
I1130 04:07:52.984380 17494 net.cpp:367] inception_4c/relu_3x3 -> inception_4c/3x3 (in-place)
I1130 04:07:52.984386 17494 net.cpp:122] Setting up inception_4c/relu_3x3
I1130 04:07:52.984392 17494 net.cpp:129] Top shape: 32 256 14 14 (1605632)
I1130 04:07:52.984396 17494 net.cpp:137] Memory required for data: 1382048128
I1130 04:07:52.984400 17494 layer_factory.hpp:77] Creating layer inception_4c/5x5_reduce
I1130 04:07:52.984408 17494 net.cpp:84] Creating Layer inception_4c/5x5_reduce
I1130 04:07:52.984413 17494 net.cpp:406] inception_4c/5x5_reduce <- inception_4b/output_inception_4b/output_0_split_2
I1130 04:07:52.984419 17494 net.cpp:380] inception_4c/5x5_reduce -> inception_4c/5x5_reduce
I1130 04:07:52.984686 17494 net.cpp:122] Setting up inception_4c/5x5_reduce
I1130 04:07:52.984695 17494 net.cpp:129] Top shape: 32 24 14 14 (150528)
I1130 04:07:52.984700 17494 net.cpp:137] Memory required for data: 1382650240
I1130 04:07:52.984707 17494 layer_factory.hpp:77] Creating layer inception_4c/relu_5x5_reduce
I1130 04:07:52.984714 17494 net.cpp:84] Creating Layer inception_4c/relu_5x5_reduce
I1130 04:07:52.984719 17494 net.cpp:406] inception_4c/relu_5x5_reduce <- inception_4c/5x5_reduce
I1130 04:07:52.984725 17494 net.cpp:367] inception_4c/relu_5x5_reduce -> inception_4c/5x5_reduce (in-place)
I1130 04:07:52.984731 17494 net.cpp:122] Setting up inception_4c/relu_5x5_reduce
I1130 04:07:52.984737 17494 net.cpp:129] Top shape: 32 24 14 14 (150528)
I1130 04:07:52.984741 17494 net.cpp:137] Memory required for data: 1383252352
I1130 04:07:52.984746 17494 layer_factory.hpp:77] Creating layer inception_4c/5x5
I1130 04:07:52.984753 17494 net.cpp:84] Creating Layer inception_4c/5x5
I1130 04:07:52.984758 17494 net.cpp:406] inception_4c/5x5 <- inception_4c/5x5_reduce
I1130 04:07:52.984764 17494 net.cpp:380] inception_4c/5x5 -> inception_4c/5x5
I1130 04:07:52.985165 17494 net.cpp:122] Setting up inception_4c/5x5
I1130 04:07:52.985175 17494 net.cpp:129] Top shape: 32 64 14 14 (401408)
I1130 04:07:52.985179 17494 net.cpp:137] Memory required for data: 1384857984
I1130 04:07:52.985186 17494 layer_factory.hpp:77] Creating layer inception_4c/relu_5x5
I1130 04:07:52.985193 17494 net.cpp:84] Creating Layer inception_4c/relu_5x5
I1130 04:07:52.985198 17494 net.cpp:406] inception_4c/relu_5x5 <- inception_4c/5x5
I1130 04:07:52.985204 17494 net.cpp:367] inception_4c/relu_5x5 -> inception_4c/5x5 (in-place)
I1130 04:07:52.985211 17494 net.cpp:122] Setting up inception_4c/relu_5x5
I1130 04:07:52.985218 17494 net.cpp:129] Top shape: 32 64 14 14 (401408)
I1130 04:07:52.985222 17494 net.cpp:137] Memory required for data: 1386463616
I1130 04:07:52.985226 17494 layer_factory.hpp:77] Creating layer inception_4c/pool
I1130 04:07:52.985232 17494 net.cpp:84] Creating Layer inception_4c/pool
I1130 04:07:52.985237 17494 net.cpp:406] inception_4c/pool <- inception_4b/output_inception_4b/output_0_split_3
I1130 04:07:52.985244 17494 net.cpp:380] inception_4c/pool -> inception_4c/pool
I1130 04:07:52.985278 17494 net.cpp:122] Setting up inception_4c/pool
I1130 04:07:52.985286 17494 net.cpp:129] Top shape: 32 512 14 14 (3211264)
I1130 04:07:52.985291 17494 net.cpp:137] Memory required for data: 1399308672
I1130 04:07:52.985294 17494 layer_factory.hpp:77] Creating layer inception_4c/pool_proj
I1130 04:07:52.985302 17494 net.cpp:84] Creating Layer inception_4c/pool_proj
I1130 04:07:52.985308 17494 net.cpp:406] inception_4c/pool_proj <- inception_4c/pool
I1130 04:07:52.985314 17494 net.cpp:380] inception_4c/pool_proj -> inception_4c/pool_proj
I1130 04:07:52.985682 17494 net.cpp:122] Setting up inception_4c/pool_proj
I1130 04:07:52.985690 17494 net.cpp:129] Top shape: 32 64 14 14 (401408)
I1130 04:07:52.985695 17494 net.cpp:137] Memory required for data: 1400914304
I1130 04:07:52.985708 17494 layer_factory.hpp:77] Creating layer inception_4c/relu_pool_proj
I1130 04:07:52.985715 17494 net.cpp:84] Creating Layer inception_4c/relu_pool_proj
I1130 04:07:52.985720 17494 net.cpp:406] inception_4c/relu_pool_proj <- inception_4c/pool_proj
I1130 04:07:52.985726 17494 net.cpp:367] inception_4c/relu_pool_proj -> inception_4c/pool_proj (in-place)
I1130 04:07:52.985733 17494 net.cpp:122] Setting up inception_4c/relu_pool_proj
I1130 04:07:52.985739 17494 net.cpp:129] Top shape: 32 64 14 14 (401408)
I1130 04:07:52.985743 17494 net.cpp:137] Memory required for data: 1402519936
I1130 04:07:52.985746 17494 layer_factory.hpp:77] Creating layer inception_4c/output
I1130 04:07:52.985752 17494 net.cpp:84] Creating Layer inception_4c/output
I1130 04:07:52.985757 17494 net.cpp:406] inception_4c/output <- inception_4c/1x1
I1130 04:07:52.985762 17494 net.cpp:406] inception_4c/output <- inception_4c/3x3
I1130 04:07:52.985767 17494 net.cpp:406] inception_4c/output <- inception_4c/5x5
I1130 04:07:52.985772 17494 net.cpp:406] inception_4c/output <- inception_4c/pool_proj
I1130 04:07:52.985779 17494 net.cpp:380] inception_4c/output -> inception_4c/output
I1130 04:07:52.985802 17494 net.cpp:122] Setting up inception_4c/output
I1130 04:07:52.985810 17494 net.cpp:129] Top shape: 32 512 14 14 (3211264)
I1130 04:07:52.985815 17494 net.cpp:137] Memory required for data: 1415364992
I1130 04:07:52.985819 17494 layer_factory.hpp:77] Creating layer inception_4c/output_inception_4c/output_0_split
I1130 04:07:52.985826 17494 net.cpp:84] Creating Layer inception_4c/output_inception_4c/output_0_split
I1130 04:07:52.985831 17494 net.cpp:406] inception_4c/output_inception_4c/output_0_split <- inception_4c/output
I1130 04:07:52.985836 17494 net.cpp:380] inception_4c/output_inception_4c/output_0_split -> inception_4c/output_inception_4c/output_0_split_0
I1130 04:07:52.985844 17494 net.cpp:380] inception_4c/output_inception_4c/output_0_split -> inception_4c/output_inception_4c/output_0_split_1
I1130 04:07:52.985852 17494 net.cpp:380] inception_4c/output_inception_4c/output_0_split -> inception_4c/output_inception_4c/output_0_split_2
I1130 04:07:52.985858 17494 net.cpp:380] inception_4c/output_inception_4c/output_0_split -> inception_4c/output_inception_4c/output_0_split_3
I1130 04:07:52.985910 17494 net.cpp:122] Setting up inception_4c/output_inception_4c/output_0_split
I1130 04:07:52.985918 17494 net.cpp:129] Top shape: 32 512 14 14 (3211264)
I1130 04:07:52.985922 17494 net.cpp:129] Top shape: 32 512 14 14 (3211264)
I1130 04:07:52.985927 17494 net.cpp:129] Top shape: 32 512 14 14 (3211264)
I1130 04:07:52.985932 17494 net.cpp:129] Top shape: 32 512 14 14 (3211264)
I1130 04:07:52.985936 17494 net.cpp:137] Memory required for data: 1466745216
I1130 04:07:52.985942 17494 layer_factory.hpp:77] Creating layer inception_4d/1x1
I1130 04:07:52.985950 17494 net.cpp:84] Creating Layer inception_4d/1x1
I1130 04:07:52.985955 17494 net.cpp:406] inception_4d/1x1 <- inception_4c/output_inception_4c/output_0_split_0
I1130 04:07:52.985962 17494 net.cpp:380] inception_4d/1x1 -> inception_4d/1x1
I1130 04:07:52.986806 17494 net.cpp:122] Setting up inception_4d/1x1
I1130 04:07:52.986817 17494 net.cpp:129] Top shape: 32 112 14 14 (702464)
I1130 04:07:52.986821 17494 net.cpp:137] Memory required for data: 1469555072
I1130 04:07:52.986829 17494 layer_factory.hpp:77] Creating layer inception_4d/relu_1x1
I1130 04:07:52.986836 17494 net.cpp:84] Creating Layer inception_4d/relu_1x1
I1130 04:07:52.986842 17494 net.cpp:406] inception_4d/relu_1x1 <- inception_4d/1x1
I1130 04:07:52.986850 17494 net.cpp:367] inception_4d/relu_1x1 -> inception_4d/1x1 (in-place)
I1130 04:07:52.986856 17494 net.cpp:122] Setting up inception_4d/relu_1x1
I1130 04:07:52.986861 17494 net.cpp:129] Top shape: 32 112 14 14 (702464)
I1130 04:07:52.986865 17494 net.cpp:137] Memory required for data: 1472364928
I1130 04:07:52.986870 17494 layer_factory.hpp:77] Creating layer inception_4d/3x3_reduce
I1130 04:07:52.986877 17494 net.cpp:84] Creating Layer inception_4d/3x3_reduce
I1130 04:07:52.986881 17494 net.cpp:406] inception_4d/3x3_reduce <- inception_4c/output_inception_4c/output_0_split_1
I1130 04:07:52.986888 17494 net.cpp:380] inception_4d/3x3_reduce -> inception_4d/3x3_reduce
I1130 04:07:52.987495 17494 net.cpp:122] Setting up inception_4d/3x3_reduce
I1130 04:07:52.987504 17494 net.cpp:129] Top shape: 32 144 14 14 (903168)
I1130 04:07:52.987509 17494 net.cpp:137] Memory required for data: 1475977600
I1130 04:07:52.987516 17494 layer_factory.hpp:77] Creating layer inception_4d/relu_3x3_reduce
I1130 04:07:52.987522 17494 net.cpp:84] Creating Layer inception_4d/relu_3x3_reduce
I1130 04:07:52.987529 17494 net.cpp:406] inception_4d/relu_3x3_reduce <- inception_4d/3x3_reduce
I1130 04:07:52.987534 17494 net.cpp:367] inception_4d/relu_3x3_reduce -> inception_4d/3x3_reduce (in-place)
I1130 04:07:52.987541 17494 net.cpp:122] Setting up inception_4d/relu_3x3_reduce
I1130 04:07:52.987548 17494 net.cpp:129] Top shape: 32 144 14 14 (903168)
I1130 04:07:52.987552 17494 net.cpp:137] Memory required for data: 1479590272
I1130 04:07:52.987557 17494 layer_factory.hpp:77] Creating layer inception_4d/3x3
I1130 04:07:52.987565 17494 net.cpp:84] Creating Layer inception_4d/3x3
I1130 04:07:52.987571 17494 net.cpp:406] inception_4d/3x3 <- inception_4d/3x3_reduce
I1130 04:07:52.987577 17494 net.cpp:380] inception_4d/3x3 -> inception_4d/3x3
I1130 04:07:52.990181 17494 net.cpp:122] Setting up inception_4d/3x3
I1130 04:07:52.990195 17494 net.cpp:129] Top shape: 32 288 14 14 (1806336)
I1130 04:07:52.990198 17494 net.cpp:137] Memory required for data: 1486815616
I1130 04:07:52.990206 17494 layer_factory.hpp:77] Creating layer inception_4d/relu_3x3
I1130 04:07:52.990213 17494 net.cpp:84] Creating Layer inception_4d/relu_3x3
I1130 04:07:52.990218 17494 net.cpp:406] inception_4d/relu_3x3 <- inception_4d/3x3
I1130 04:07:52.990226 17494 net.cpp:367] inception_4d/relu_3x3 -> inception_4d/3x3 (in-place)
I1130 04:07:52.990233 17494 net.cpp:122] Setting up inception_4d/relu_3x3
I1130 04:07:52.990239 17494 net.cpp:129] Top shape: 32 288 14 14 (1806336)
I1130 04:07:52.990243 17494 net.cpp:137] Memory required for data: 1494040960
I1130 04:07:52.990247 17494 layer_factory.hpp:77] Creating layer inception_4d/5x5_reduce
I1130 04:07:52.990255 17494 net.cpp:84] Creating Layer inception_4d/5x5_reduce
I1130 04:07:52.990262 17494 net.cpp:406] inception_4d/5x5_reduce <- inception_4c/output_inception_4c/output_0_split_2
I1130 04:07:52.990267 17494 net.cpp:380] inception_4d/5x5_reduce -> inception_4d/5x5_reduce
I1130 04:07:52.990564 17494 net.cpp:122] Setting up inception_4d/5x5_reduce
I1130 04:07:52.990574 17494 net.cpp:129] Top shape: 32 32 14 14 (200704)
I1130 04:07:52.990579 17494 net.cpp:137] Memory required for data: 1494843776
I1130 04:07:52.990586 17494 layer_factory.hpp:77] Creating layer inception_4d/relu_5x5_reduce
I1130 04:07:52.990593 17494 net.cpp:84] Creating Layer inception_4d/relu_5x5_reduce
I1130 04:07:52.990598 17494 net.cpp:406] inception_4d/relu_5x5_reduce <- inception_4d/5x5_reduce
I1130 04:07:52.990604 17494 net.cpp:367] inception_4d/relu_5x5_reduce -> inception_4d/5x5_reduce (in-place)
I1130 04:07:52.990612 17494 net.cpp:122] Setting up inception_4d/relu_5x5_reduce
I1130 04:07:52.990617 17494 net.cpp:129] Top shape: 32 32 14 14 (200704)
I1130 04:07:52.990622 17494 net.cpp:137] Memory required for data: 1495646592
I1130 04:07:52.990627 17494 layer_factory.hpp:77] Creating layer inception_4d/5x5
I1130 04:07:52.990635 17494 net.cpp:84] Creating Layer inception_4d/5x5
I1130 04:07:52.990640 17494 net.cpp:406] inception_4d/5x5 <- inception_4d/5x5_reduce
I1130 04:07:52.990646 17494 net.cpp:380] inception_4d/5x5 -> inception_4d/5x5
I1130 04:07:52.991144 17494 net.cpp:122] Setting up inception_4d/5x5
I1130 04:07:52.991154 17494 net.cpp:129] Top shape: 32 64 14 14 (401408)
I1130 04:07:52.991158 17494 net.cpp:137] Memory required for data: 1497252224
I1130 04:07:52.991165 17494 layer_factory.hpp:77] Creating layer inception_4d/relu_5x5
I1130 04:07:52.991171 17494 net.cpp:84] Creating Layer inception_4d/relu_5x5
I1130 04:07:52.991176 17494 net.cpp:406] inception_4d/relu_5x5 <- inception_4d/5x5
I1130 04:07:52.991183 17494 net.cpp:367] inception_4d/relu_5x5 -> inception_4d/5x5 (in-place)
I1130 04:07:52.991191 17494 net.cpp:122] Setting up inception_4d/relu_5x5
I1130 04:07:52.991197 17494 net.cpp:129] Top shape: 32 64 14 14 (401408)
I1130 04:07:52.991201 17494 net.cpp:137] Memory required for data: 1498857856
I1130 04:07:52.991205 17494 layer_factory.hpp:77] Creating layer inception_4d/pool
I1130 04:07:52.991212 17494 net.cpp:84] Creating Layer inception_4d/pool
I1130 04:07:52.991217 17494 net.cpp:406] inception_4d/pool <- inception_4c/output_inception_4c/output_0_split_3
I1130 04:07:52.991224 17494 net.cpp:380] inception_4d/pool -> inception_4d/pool
I1130 04:07:52.991259 17494 net.cpp:122] Setting up inception_4d/pool
I1130 04:07:52.991267 17494 net.cpp:129] Top shape: 32 512 14 14 (3211264)
I1130 04:07:52.991271 17494 net.cpp:137] Memory required for data: 1511702912
I1130 04:07:52.991276 17494 layer_factory.hpp:77] Creating layer inception_4d/pool_proj
I1130 04:07:52.991286 17494 net.cpp:84] Creating Layer inception_4d/pool_proj
I1130 04:07:52.991291 17494 net.cpp:406] inception_4d/pool_proj <- inception_4d/pool
I1130 04:07:52.991297 17494 net.cpp:380] inception_4d/pool_proj -> inception_4d/pool_proj
I1130 04:07:52.991672 17494 net.cpp:122] Setting up inception_4d/pool_proj
I1130 04:07:52.991681 17494 net.cpp:129] Top shape: 32 64 14 14 (401408)
I1130 04:07:52.991685 17494 net.cpp:137] Memory required for data: 1513308544
I1130 04:07:52.991693 17494 layer_factory.hpp:77] Creating layer inception_4d/relu_pool_proj
I1130 04:07:52.991698 17494 net.cpp:84] Creating Layer inception_4d/relu_pool_proj
I1130 04:07:52.991703 17494 net.cpp:406] inception_4d/relu_pool_proj <- inception_4d/pool_proj
I1130 04:07:52.991709 17494 net.cpp:367] inception_4d/relu_pool_proj -> inception_4d/pool_proj (in-place)
I1130 04:07:52.991716 17494 net.cpp:122] Setting up inception_4d/relu_pool_proj
I1130 04:07:52.991722 17494 net.cpp:129] Top shape: 32 64 14 14 (401408)
I1130 04:07:52.991726 17494 net.cpp:137] Memory required for data: 1514914176
I1130 04:07:52.991730 17494 layer_factory.hpp:77] Creating layer inception_4d/output
I1130 04:07:52.991737 17494 net.cpp:84] Creating Layer inception_4d/output
I1130 04:07:52.991741 17494 net.cpp:406] inception_4d/output <- inception_4d/1x1
I1130 04:07:52.991746 17494 net.cpp:406] inception_4d/output <- inception_4d/3x3
I1130 04:07:52.991751 17494 net.cpp:406] inception_4d/output <- inception_4d/5x5
I1130 04:07:52.991756 17494 net.cpp:406] inception_4d/output <- inception_4d/pool_proj
I1130 04:07:52.991762 17494 net.cpp:380] inception_4d/output -> inception_4d/output
I1130 04:07:52.991787 17494 net.cpp:122] Setting up inception_4d/output
I1130 04:07:52.991794 17494 net.cpp:129] Top shape: 32 528 14 14 (3311616)
I1130 04:07:52.991798 17494 net.cpp:137] Memory required for data: 1528160640
I1130 04:07:52.991802 17494 layer_factory.hpp:77] Creating layer inception_4d/output_inception_4d/output_0_split
I1130 04:07:52.991811 17494 net.cpp:84] Creating Layer inception_4d/output_inception_4d/output_0_split
I1130 04:07:52.991816 17494 net.cpp:406] inception_4d/output_inception_4d/output_0_split <- inception_4d/output
I1130 04:07:52.991822 17494 net.cpp:380] inception_4d/output_inception_4d/output_0_split -> inception_4d/output_inception_4d/output_0_split_0
I1130 04:07:52.991828 17494 net.cpp:380] inception_4d/output_inception_4d/output_0_split -> inception_4d/output_inception_4d/output_0_split_1
I1130 04:07:52.991837 17494 net.cpp:380] inception_4d/output_inception_4d/output_0_split -> inception_4d/output_inception_4d/output_0_split_2
I1130 04:07:52.991843 17494 net.cpp:380] inception_4d/output_inception_4d/output_0_split -> inception_4d/output_inception_4d/output_0_split_3
I1130 04:07:52.991894 17494 net.cpp:122] Setting up inception_4d/output_inception_4d/output_0_split
I1130 04:07:52.991902 17494 net.cpp:129] Top shape: 32 528 14 14 (3311616)
I1130 04:07:52.991907 17494 net.cpp:129] Top shape: 32 528 14 14 (3311616)
I1130 04:07:52.991912 17494 net.cpp:129] Top shape: 32 528 14 14 (3311616)
I1130 04:07:52.991917 17494 net.cpp:129] Top shape: 32 528 14 14 (3311616)
I1130 04:07:52.991921 17494 net.cpp:137] Memory required for data: 1581146496
I1130 04:07:52.991926 17494 layer_factory.hpp:77] Creating layer inception_4e/1x1
I1130 04:07:52.991935 17494 net.cpp:84] Creating Layer inception_4e/1x1
I1130 04:07:52.991940 17494 net.cpp:406] inception_4e/1x1 <- inception_4d/output_inception_4d/output_0_split_0
I1130 04:07:52.991947 17494 net.cpp:380] inception_4e/1x1 -> inception_4e/1x1
I1130 04:07:52.993232 17494 net.cpp:122] Setting up inception_4e/1x1
I1130 04:07:52.993242 17494 net.cpp:129] Top shape: 32 256 14 14 (1605632)
I1130 04:07:52.993247 17494 net.cpp:137] Memory required for data: 1587569024
I1130 04:07:52.993253 17494 layer_factory.hpp:77] Creating layer inception_4e/relu_1x1
I1130 04:07:52.993260 17494 net.cpp:84] Creating Layer inception_4e/relu_1x1
I1130 04:07:52.993265 17494 net.cpp:406] inception_4e/relu_1x1 <- inception_4e/1x1
I1130 04:07:52.993273 17494 net.cpp:367] inception_4e/relu_1x1 -> inception_4e/1x1 (in-place)
I1130 04:07:52.993279 17494 net.cpp:122] Setting up inception_4e/relu_1x1
I1130 04:07:52.993284 17494 net.cpp:129] Top shape: 32 256 14 14 (1605632)
I1130 04:07:52.993289 17494 net.cpp:137] Memory required for data: 1593991552
I1130 04:07:52.993294 17494 layer_factory.hpp:77] Creating layer inception_4e/3x3_reduce
I1130 04:07:52.993302 17494 net.cpp:84] Creating Layer inception_4e/3x3_reduce
I1130 04:07:52.993307 17494 net.cpp:406] inception_4e/3x3_reduce <- inception_4d/output_inception_4d/output_0_split_1
I1130 04:07:52.993314 17494 net.cpp:380] inception_4e/3x3_reduce -> inception_4e/3x3_reduce
I1130 04:07:52.993958 17494 net.cpp:122] Setting up inception_4e/3x3_reduce
I1130 04:07:52.993968 17494 net.cpp:129] Top shape: 32 160 14 14 (1003520)
I1130 04:07:52.993973 17494 net.cpp:137] Memory required for data: 1598005632
I1130 04:07:52.993978 17494 layer_factory.hpp:77] Creating layer inception_4e/relu_3x3_reduce
I1130 04:07:52.993984 17494 net.cpp:84] Creating Layer inception_4e/relu_3x3_reduce
I1130 04:07:52.993990 17494 net.cpp:406] inception_4e/relu_3x3_reduce <- inception_4e/3x3_reduce
I1130 04:07:52.993995 17494 net.cpp:367] inception_4e/relu_3x3_reduce -> inception_4e/3x3_reduce (in-place)
I1130 04:07:52.994002 17494 net.cpp:122] Setting up inception_4e/relu_3x3_reduce
I1130 04:07:52.994009 17494 net.cpp:129] Top shape: 32 160 14 14 (1003520)
I1130 04:07:52.994012 17494 net.cpp:137] Memory required for data: 1602019712
I1130 04:07:52.994016 17494 layer_factory.hpp:77] Creating layer inception_4e/3x3
I1130 04:07:52.994024 17494 net.cpp:84] Creating Layer inception_4e/3x3
I1130 04:07:52.994029 17494 net.cpp:406] inception_4e/3x3 <- inception_4e/3x3_reduce
I1130 04:07:52.994035 17494 net.cpp:380] inception_4e/3x3 -> inception_4e/3x3
I1130 04:07:52.997359 17494 net.cpp:122] Setting up inception_4e/3x3
I1130 04:07:52.997372 17494 net.cpp:129] Top shape: 32 320 14 14 (2007040)
I1130 04:07:52.997375 17494 net.cpp:137] Memory required for data: 1610047872
I1130 04:07:52.997385 17494 layer_factory.hpp:77] Creating layer inception_4e/relu_3x3
I1130 04:07:52.997392 17494 net.cpp:84] Creating Layer inception_4e/relu_3x3
I1130 04:07:52.997398 17494 net.cpp:406] inception_4e/relu_3x3 <- inception_4e/3x3
I1130 04:07:52.997404 17494 net.cpp:367] inception_4e/relu_3x3 -> inception_4e/3x3 (in-place)
I1130 04:07:52.997411 17494 net.cpp:122] Setting up inception_4e/relu_3x3
I1130 04:07:52.997416 17494 net.cpp:129] Top shape: 32 320 14 14 (2007040)
I1130 04:07:52.997421 17494 net.cpp:137] Memory required for data: 1618076032
I1130 04:07:52.997424 17494 layer_factory.hpp:77] Creating layer inception_4e/5x5_reduce
I1130 04:07:52.997434 17494 net.cpp:84] Creating Layer inception_4e/5x5_reduce
I1130 04:07:52.997439 17494 net.cpp:406] inception_4e/5x5_reduce <- inception_4d/output_inception_4d/output_0_split_2
I1130 04:07:52.997445 17494 net.cpp:380] inception_4e/5x5_reduce -> inception_4e/5x5_reduce
I1130 04:07:52.997740 17494 net.cpp:122] Setting up inception_4e/5x5_reduce
I1130 04:07:52.997750 17494 net.cpp:129] Top shape: 32 32 14 14 (200704)
I1130 04:07:52.997753 17494 net.cpp:137] Memory required for data: 1618878848
I1130 04:07:52.997761 17494 layer_factory.hpp:77] Creating layer inception_4e/relu_5x5_reduce
I1130 04:07:52.997766 17494 net.cpp:84] Creating Layer inception_4e/relu_5x5_reduce
I1130 04:07:52.997771 17494 net.cpp:406] inception_4e/relu_5x5_reduce <- inception_4e/5x5_reduce
I1130 04:07:52.997777 17494 net.cpp:367] inception_4e/relu_5x5_reduce -> inception_4e/5x5_reduce (in-place)
I1130 04:07:52.997784 17494 net.cpp:122] Setting up inception_4e/relu_5x5_reduce
I1130 04:07:52.997790 17494 net.cpp:129] Top shape: 32 32 14 14 (200704)
I1130 04:07:52.997794 17494 net.cpp:137] Memory required for data: 1619681664
I1130 04:07:52.997797 17494 layer_factory.hpp:77] Creating layer inception_4e/5x5
I1130 04:07:52.997805 17494 net.cpp:84] Creating Layer inception_4e/5x5
I1130 04:07:52.997810 17494 net.cpp:406] inception_4e/5x5 <- inception_4e/5x5_reduce
I1130 04:07:52.997817 17494 net.cpp:380] inception_4e/5x5 -> inception_4e/5x5
I1130 04:07:52.998883 17494 net.cpp:122] Setting up inception_4e/5x5
I1130 04:07:52.998893 17494 net.cpp:129] Top shape: 32 128 14 14 (802816)
I1130 04:07:52.998898 17494 net.cpp:137] Memory required for data: 1622892928
I1130 04:07:52.998905 17494 layer_factory.hpp:77] Creating layer inception_4e/relu_5x5
I1130 04:07:52.998913 17494 net.cpp:84] Creating Layer inception_4e/relu_5x5
I1130 04:07:52.998917 17494 net.cpp:406] inception_4e/relu_5x5 <- inception_4e/5x5
I1130 04:07:52.998924 17494 net.cpp:367] inception_4e/relu_5x5 -> inception_4e/5x5 (in-place)
I1130 04:07:52.998931 17494 net.cpp:122] Setting up inception_4e/relu_5x5
I1130 04:07:52.998936 17494 net.cpp:129] Top shape: 32 128 14 14 (802816)
I1130 04:07:52.998941 17494 net.cpp:137] Memory required for data: 1626104192
I1130 04:07:52.998944 17494 layer_factory.hpp:77] Creating layer inception_4e/pool
I1130 04:07:52.998952 17494 net.cpp:84] Creating Layer inception_4e/pool
I1130 04:07:52.998957 17494 net.cpp:406] inception_4e/pool <- inception_4d/output_inception_4d/output_0_split_3
I1130 04:07:52.998962 17494 net.cpp:380] inception_4e/pool -> inception_4e/pool
I1130 04:07:52.998999 17494 net.cpp:122] Setting up inception_4e/pool
I1130 04:07:52.999006 17494 net.cpp:129] Top shape: 32 528 14 14 (3311616)
I1130 04:07:52.999011 17494 net.cpp:137] Memory required for data: 1639350656
I1130 04:07:52.999017 17494 layer_factory.hpp:77] Creating layer inception_4e/pool_proj
I1130 04:07:52.999024 17494 net.cpp:84] Creating Layer inception_4e/pool_proj
I1130 04:07:52.999030 17494 net.cpp:406] inception_4e/pool_proj <- inception_4e/pool
I1130 04:07:52.999037 17494 net.cpp:380] inception_4e/pool_proj -> inception_4e/pool_proj
I1130 04:07:52.999584 17494 net.cpp:122] Setting up inception_4e/pool_proj
I1130 04:07:52.999594 17494 net.cpp:129] Top shape: 32 128 14 14 (802816)
I1130 04:07:52.999598 17494 net.cpp:137] Memory required for data: 1642561920
I1130 04:07:52.999604 17494 layer_factory.hpp:77] Creating layer inception_4e/relu_pool_proj
I1130 04:07:52.999611 17494 net.cpp:84] Creating Layer inception_4e/relu_pool_proj
I1130 04:07:52.999616 17494 net.cpp:406] inception_4e/relu_pool_proj <- inception_4e/pool_proj
I1130 04:07:52.999622 17494 net.cpp:367] inception_4e/relu_pool_proj -> inception_4e/pool_proj (in-place)
I1130 04:07:52.999629 17494 net.cpp:122] Setting up inception_4e/relu_pool_proj
I1130 04:07:52.999635 17494 net.cpp:129] Top shape: 32 128 14 14 (802816)
I1130 04:07:52.999640 17494 net.cpp:137] Memory required for data: 1645773184
I1130 04:07:52.999644 17494 layer_factory.hpp:77] Creating layer inception_4e/output
I1130 04:07:52.999650 17494 net.cpp:84] Creating Layer inception_4e/output
I1130 04:07:52.999655 17494 net.cpp:406] inception_4e/output <- inception_4e/1x1
I1130 04:07:52.999660 17494 net.cpp:406] inception_4e/output <- inception_4e/3x3
I1130 04:07:52.999665 17494 net.cpp:406] inception_4e/output <- inception_4e/5x5
I1130 04:07:52.999670 17494 net.cpp:406] inception_4e/output <- inception_4e/pool_proj
I1130 04:07:52.999676 17494 net.cpp:380] inception_4e/output -> inception_4e/output
I1130 04:07:52.999701 17494 net.cpp:122] Setting up inception_4e/output
I1130 04:07:52.999707 17494 net.cpp:129] Top shape: 32 832 14 14 (5218304)
I1130 04:07:52.999711 17494 net.cpp:137] Memory required for data: 1666646400
I1130 04:07:52.999716 17494 layer_factory.hpp:77] Creating layer pool4/3x3_s2
I1130 04:07:52.999722 17494 net.cpp:84] Creating Layer pool4/3x3_s2
I1130 04:07:52.999727 17494 net.cpp:406] pool4/3x3_s2 <- inception_4e/output
I1130 04:07:52.999734 17494 net.cpp:380] pool4/3x3_s2 -> pool4/3x3_s2
I1130 04:07:52.999766 17494 net.cpp:122] Setting up pool4/3x3_s2
I1130 04:07:52.999774 17494 net.cpp:129] Top shape: 32 832 7 7 (1304576)
I1130 04:07:52.999778 17494 net.cpp:137] Memory required for data: 1671864704
I1130 04:07:52.999783 17494 layer_factory.hpp:77] Creating layer pool4/3x3_s2_pool4/3x3_s2_0_split
I1130 04:07:52.999789 17494 net.cpp:84] Creating Layer pool4/3x3_s2_pool4/3x3_s2_0_split
I1130 04:07:52.999795 17494 net.cpp:406] pool4/3x3_s2_pool4/3x3_s2_0_split <- pool4/3x3_s2
I1130 04:07:52.999804 17494 net.cpp:380] pool4/3x3_s2_pool4/3x3_s2_0_split -> pool4/3x3_s2_pool4/3x3_s2_0_split_0
I1130 04:07:52.999811 17494 net.cpp:380] pool4/3x3_s2_pool4/3x3_s2_0_split -> pool4/3x3_s2_pool4/3x3_s2_0_split_1
I1130 04:07:52.999819 17494 net.cpp:380] pool4/3x3_s2_pool4/3x3_s2_0_split -> pool4/3x3_s2_pool4/3x3_s2_0_split_2
I1130 04:07:52.999825 17494 net.cpp:380] pool4/3x3_s2_pool4/3x3_s2_0_split -> pool4/3x3_s2_pool4/3x3_s2_0_split_3
I1130 04:07:52.999879 17494 net.cpp:122] Setting up pool4/3x3_s2_pool4/3x3_s2_0_split
I1130 04:07:52.999888 17494 net.cpp:129] Top shape: 32 832 7 7 (1304576)
I1130 04:07:52.999894 17494 net.cpp:129] Top shape: 32 832 7 7 (1304576)
I1130 04:07:52.999899 17494 net.cpp:129] Top shape: 32 832 7 7 (1304576)
I1130 04:07:52.999904 17494 net.cpp:129] Top shape: 32 832 7 7 (1304576)
I1130 04:07:52.999909 17494 net.cpp:137] Memory required for data: 1692737920
I1130 04:07:52.999913 17494 layer_factory.hpp:77] Creating layer inception_5a/1x1
I1130 04:07:52.999922 17494 net.cpp:84] Creating Layer inception_5a/1x1
I1130 04:07:52.999927 17494 net.cpp:406] inception_5a/1x1 <- pool4/3x3_s2_pool4/3x3_s2_0_split_0
I1130 04:07:52.999935 17494 net.cpp:380] inception_5a/1x1 -> inception_5a/1x1
I1130 04:07:53.001585 17494 net.cpp:122] Setting up inception_5a/1x1
I1130 04:07:53.001596 17494 net.cpp:129] Top shape: 32 256 7 7 (401408)
I1130 04:07:53.001600 17494 net.cpp:137] Memory required for data: 1694343552
I1130 04:07:53.001608 17494 layer_factory.hpp:77] Creating layer inception_5a/relu_1x1
I1130 04:07:53.001617 17494 net.cpp:84] Creating Layer inception_5a/relu_1x1
I1130 04:07:53.001622 17494 net.cpp:406] inception_5a/relu_1x1 <- inception_5a/1x1
I1130 04:07:53.001628 17494 net.cpp:367] inception_5a/relu_1x1 -> inception_5a/1x1 (in-place)
I1130 04:07:53.001638 17494 net.cpp:122] Setting up inception_5a/relu_1x1
I1130 04:07:53.001644 17494 net.cpp:129] Top shape: 32 256 7 7 (401408)
I1130 04:07:53.001648 17494 net.cpp:137] Memory required for data: 1695949184
I1130 04:07:53.001652 17494 layer_factory.hpp:77] Creating layer inception_5a/3x3_reduce
I1130 04:07:53.001660 17494 net.cpp:84] Creating Layer inception_5a/3x3_reduce
I1130 04:07:53.001667 17494 net.cpp:406] inception_5a/3x3_reduce <- pool4/3x3_s2_pool4/3x3_s2_0_split_1
I1130 04:07:53.001674 17494 net.cpp:380] inception_5a/3x3_reduce -> inception_5a/3x3_reduce
I1130 04:07:53.002921 17494 net.cpp:122] Setting up inception_5a/3x3_reduce
I1130 04:07:53.002933 17494 net.cpp:129] Top shape: 32 160 7 7 (250880)
I1130 04:07:53.002936 17494 net.cpp:137] Memory required for data: 1696952704
I1130 04:07:53.002943 17494 layer_factory.hpp:77] Creating layer inception_5a/relu_3x3_reduce
I1130 04:07:53.002950 17494 net.cpp:84] Creating Layer inception_5a/relu_3x3_reduce
I1130 04:07:53.002955 17494 net.cpp:406] inception_5a/relu_3x3_reduce <- inception_5a/3x3_reduce
I1130 04:07:53.002962 17494 net.cpp:367] inception_5a/relu_3x3_reduce -> inception_5a/3x3_reduce (in-place)
I1130 04:07:53.002970 17494 net.cpp:122] Setting up inception_5a/relu_3x3_reduce
I1130 04:07:53.002976 17494 net.cpp:129] Top shape: 32 160 7 7 (250880)
I1130 04:07:53.002980 17494 net.cpp:137] Memory required for data: 1697956224
I1130 04:07:53.002985 17494 layer_factory.hpp:77] Creating layer inception_5a/3x3
I1130 04:07:53.002992 17494 net.cpp:84] Creating Layer inception_5a/3x3
I1130 04:07:53.002997 17494 net.cpp:406] inception_5a/3x3 <- inception_5a/3x3_reduce
I1130 04:07:53.003006 17494 net.cpp:380] inception_5a/3x3 -> inception_5a/3x3
I1130 04:07:53.006124 17494 net.cpp:122] Setting up inception_5a/3x3
I1130 04:07:53.006134 17494 net.cpp:129] Top shape: 32 320 7 7 (501760)
I1130 04:07:53.006137 17494 net.cpp:137] Memory required for data: 1699963264
I1130 04:07:53.006145 17494 layer_factory.hpp:77] Creating layer inception_5a/relu_3x3
I1130 04:07:53.006152 17494 net.cpp:84] Creating Layer inception_5a/relu_3x3
I1130 04:07:53.006157 17494 net.cpp:406] inception_5a/relu_3x3 <- inception_5a/3x3
I1130 04:07:53.006163 17494 net.cpp:367] inception_5a/relu_3x3 -> inception_5a/3x3 (in-place)
I1130 04:07:53.006170 17494 net.cpp:122] Setting up inception_5a/relu_3x3
I1130 04:07:53.006176 17494 net.cpp:129] Top shape: 32 320 7 7 (501760)
I1130 04:07:53.006181 17494 net.cpp:137] Memory required for data: 1701970304
I1130 04:07:53.006184 17494 layer_factory.hpp:77] Creating layer inception_5a/5x5_reduce
I1130 04:07:53.006193 17494 net.cpp:84] Creating Layer inception_5a/5x5_reduce
I1130 04:07:53.006199 17494 net.cpp:406] inception_5a/5x5_reduce <- pool4/3x3_s2_pool4/3x3_s2_0_split_2
I1130 04:07:53.006207 17494 net.cpp:380] inception_5a/5x5_reduce -> inception_5a/5x5_reduce
I1130 04:07:53.006572 17494 net.cpp:122] Setting up inception_5a/5x5_reduce
I1130 04:07:53.006582 17494 net.cpp:129] Top shape: 32 32 7 7 (50176)
I1130 04:07:53.006587 17494 net.cpp:137] Memory required for data: 1702171008
I1130 04:07:53.006593 17494 layer_factory.hpp:77] Creating layer inception_5a/relu_5x5_reduce
I1130 04:07:53.006600 17494 net.cpp:84] Creating Layer inception_5a/relu_5x5_reduce
I1130 04:07:53.006605 17494 net.cpp:406] inception_5a/relu_5x5_reduce <- inception_5a/5x5_reduce
I1130 04:07:53.006611 17494 net.cpp:367] inception_5a/relu_5x5_reduce -> inception_5a/5x5_reduce (in-place)
I1130 04:07:53.006620 17494 net.cpp:122] Setting up inception_5a/relu_5x5_reduce
I1130 04:07:53.006626 17494 net.cpp:129] Top shape: 32 32 7 7 (50176)
I1130 04:07:53.006630 17494 net.cpp:137] Memory required for data: 1702371712
I1130 04:07:53.006635 17494 layer_factory.hpp:77] Creating layer inception_5a/5x5
I1130 04:07:53.006656 17494 net.cpp:84] Creating Layer inception_5a/5x5
I1130 04:07:53.006662 17494 net.cpp:406] inception_5a/5x5 <- inception_5a/5x5_reduce
I1130 04:07:53.006669 17494 net.cpp:380] inception_5a/5x5 -> inception_5a/5x5
I1130 04:07:53.007760 17494 net.cpp:122] Setting up inception_5a/5x5
I1130 04:07:53.007771 17494 net.cpp:129] Top shape: 32 128 7 7 (200704)
I1130 04:07:53.007774 17494 net.cpp:137] Memory required for data: 1703174528
I1130 04:07:53.007783 17494 layer_factory.hpp:77] Creating layer inception_5a/relu_5x5
I1130 04:07:53.007791 17494 net.cpp:84] Creating Layer inception_5a/relu_5x5
I1130 04:07:53.007797 17494 net.cpp:406] inception_5a/relu_5x5 <- inception_5a/5x5
I1130 04:07:53.007802 17494 net.cpp:367] inception_5a/relu_5x5 -> inception_5a/5x5 (in-place)
I1130 04:07:53.007809 17494 net.cpp:122] Setting up inception_5a/relu_5x5
I1130 04:07:53.007814 17494 net.cpp:129] Top shape: 32 128 7 7 (200704)
I1130 04:07:53.007818 17494 net.cpp:137] Memory required for data: 1703977344
I1130 04:07:53.007823 17494 layer_factory.hpp:77] Creating layer inception_5a/pool
I1130 04:07:53.007830 17494 net.cpp:84] Creating Layer inception_5a/pool
I1130 04:07:53.007835 17494 net.cpp:406] inception_5a/pool <- pool4/3x3_s2_pool4/3x3_s2_0_split_3
I1130 04:07:53.007841 17494 net.cpp:380] inception_5a/pool -> inception_5a/pool
I1130 04:07:53.007879 17494 net.cpp:122] Setting up inception_5a/pool
I1130 04:07:53.007885 17494 net.cpp:129] Top shape: 32 832 7 7 (1304576)
I1130 04:07:53.007890 17494 net.cpp:137] Memory required for data: 1709195648
I1130 04:07:53.007894 17494 layer_factory.hpp:77] Creating layer inception_5a/pool_proj
I1130 04:07:53.007905 17494 net.cpp:84] Creating Layer inception_5a/pool_proj
I1130 04:07:53.007910 17494 net.cpp:406] inception_5a/pool_proj <- inception_5a/pool
I1130 04:07:53.007917 17494 net.cpp:380] inception_5a/pool_proj -> inception_5a/pool_proj
I1130 04:07:53.008985 17494 net.cpp:122] Setting up inception_5a/pool_proj
I1130 04:07:53.008996 17494 net.cpp:129] Top shape: 32 128 7 7 (200704)
I1130 04:07:53.009001 17494 net.cpp:137] Memory required for data: 1709998464
I1130 04:07:53.009007 17494 layer_factory.hpp:77] Creating layer inception_5a/relu_pool_proj
I1130 04:07:53.009013 17494 net.cpp:84] Creating Layer inception_5a/relu_pool_proj
I1130 04:07:53.009019 17494 net.cpp:406] inception_5a/relu_pool_proj <- inception_5a/pool_proj
I1130 04:07:53.009027 17494 net.cpp:367] inception_5a/relu_pool_proj -> inception_5a/pool_proj (in-place)
I1130 04:07:53.009034 17494 net.cpp:122] Setting up inception_5a/relu_pool_proj
I1130 04:07:53.009039 17494 net.cpp:129] Top shape: 32 128 7 7 (200704)
I1130 04:07:53.009045 17494 net.cpp:137] Memory required for data: 1710801280
I1130 04:07:53.009049 17494 layer_factory.hpp:77] Creating layer inception_5a/output
I1130 04:07:53.009055 17494 net.cpp:84] Creating Layer inception_5a/output
I1130 04:07:53.009061 17494 net.cpp:406] inception_5a/output <- inception_5a/1x1
I1130 04:07:53.009068 17494 net.cpp:406] inception_5a/output <- inception_5a/3x3
I1130 04:07:53.009073 17494 net.cpp:406] inception_5a/output <- inception_5a/5x5
I1130 04:07:53.009078 17494 net.cpp:406] inception_5a/output <- inception_5a/pool_proj
I1130 04:07:53.009084 17494 net.cpp:380] inception_5a/output -> inception_5a/output
I1130 04:07:53.009109 17494 net.cpp:122] Setting up inception_5a/output
I1130 04:07:53.009115 17494 net.cpp:129] Top shape: 32 832 7 7 (1304576)
I1130 04:07:53.009119 17494 net.cpp:137] Memory required for data: 1716019584
I1130 04:07:53.009125 17494 layer_factory.hpp:77] Creating layer inception_5a/output_inception_5a/output_0_split
I1130 04:07:53.009132 17494 net.cpp:84] Creating Layer inception_5a/output_inception_5a/output_0_split
I1130 04:07:53.009138 17494 net.cpp:406] inception_5a/output_inception_5a/output_0_split <- inception_5a/output
I1130 04:07:53.009145 17494 net.cpp:380] inception_5a/output_inception_5a/output_0_split -> inception_5a/output_inception_5a/output_0_split_0
I1130 04:07:53.009153 17494 net.cpp:380] inception_5a/output_inception_5a/output_0_split -> inception_5a/output_inception_5a/output_0_split_1
I1130 04:07:53.009160 17494 net.cpp:380] inception_5a/output_inception_5a/output_0_split -> inception_5a/output_inception_5a/output_0_split_2
I1130 04:07:53.009168 17494 net.cpp:380] inception_5a/output_inception_5a/output_0_split -> inception_5a/output_inception_5a/output_0_split_3
I1130 04:07:53.009217 17494 net.cpp:122] Setting up inception_5a/output_inception_5a/output_0_split
I1130 04:07:53.009224 17494 net.cpp:129] Top shape: 32 832 7 7 (1304576)
I1130 04:07:53.009230 17494 net.cpp:129] Top shape: 32 832 7 7 (1304576)
I1130 04:07:53.009236 17494 net.cpp:129] Top shape: 32 832 7 7 (1304576)
I1130 04:07:53.009241 17494 net.cpp:129] Top shape: 32 832 7 7 (1304576)
I1130 04:07:53.009245 17494 net.cpp:137] Memory required for data: 1736892800
I1130 04:07:53.009249 17494 layer_factory.hpp:77] Creating layer inception_5b/1x1
I1130 04:07:53.009260 17494 net.cpp:84] Creating Layer inception_5b/1x1
I1130 04:07:53.009266 17494 net.cpp:406] inception_5b/1x1 <- inception_5a/output_inception_5a/output_0_split_0
I1130 04:07:53.009274 17494 net.cpp:380] inception_5b/1x1 -> inception_5b/1x1
I1130 04:07:53.011535 17494 net.cpp:122] Setting up inception_5b/1x1
I1130 04:07:53.011546 17494 net.cpp:129] Top shape: 32 384 7 7 (602112)
I1130 04:07:53.011550 17494 net.cpp:137] Memory required for data: 1739301248
I1130 04:07:53.011559 17494 layer_factory.hpp:77] Creating layer inception_5b/relu_1x1
I1130 04:07:53.011565 17494 net.cpp:84] Creating Layer inception_5b/relu_1x1
I1130 04:07:53.011571 17494 net.cpp:406] inception_5b/relu_1x1 <- inception_5b/1x1
I1130 04:07:53.011579 17494 net.cpp:367] inception_5b/relu_1x1 -> inception_5b/1x1 (in-place)
I1130 04:07:53.011587 17494 net.cpp:122] Setting up inception_5b/relu_1x1
I1130 04:07:53.011595 17494 net.cpp:129] Top shape: 32 384 7 7 (602112)
I1130 04:07:53.011598 17494 net.cpp:137] Memory required for data: 1741709696
I1130 04:07:53.011602 17494 layer_factory.hpp:77] Creating layer inception_5b/3x3_reduce
I1130 04:07:53.011612 17494 net.cpp:84] Creating Layer inception_5b/3x3_reduce
I1130 04:07:53.011618 17494 net.cpp:406] inception_5b/3x3_reduce <- inception_5a/output_inception_5a/output_0_split_1
I1130 04:07:53.011624 17494 net.cpp:380] inception_5b/3x3_reduce -> inception_5b/3x3_reduce
I1130 04:07:53.012980 17494 net.cpp:122] Setting up inception_5b/3x3_reduce
I1130 04:07:53.012990 17494 net.cpp:129] Top shape: 32 192 7 7 (301056)
I1130 04:07:53.012995 17494 net.cpp:137] Memory required for data: 1742913920
I1130 04:07:53.013001 17494 layer_factory.hpp:77] Creating layer inception_5b/relu_3x3_reduce
I1130 04:07:53.013010 17494 net.cpp:84] Creating Layer inception_5b/relu_3x3_reduce
I1130 04:07:53.013015 17494 net.cpp:406] inception_5b/relu_3x3_reduce <- inception_5b/3x3_reduce
I1130 04:07:53.013021 17494 net.cpp:367] inception_5b/relu_3x3_reduce -> inception_5b/3x3_reduce (in-place)
I1130 04:07:53.013028 17494 net.cpp:122] Setting up inception_5b/relu_3x3_reduce
I1130 04:07:53.013033 17494 net.cpp:129] Top shape: 32 192 7 7 (301056)
I1130 04:07:53.013038 17494 net.cpp:137] Memory required for data: 1744118144
I1130 04:07:53.013041 17494 layer_factory.hpp:77] Creating layer inception_5b/3x3
I1130 04:07:53.013051 17494 net.cpp:84] Creating Layer inception_5b/3x3
I1130 04:07:53.013056 17494 net.cpp:406] inception_5b/3x3 <- inception_5b/3x3_reduce
I1130 04:07:53.013062 17494 net.cpp:380] inception_5b/3x3 -> inception_5b/3x3
I1130 04:07:53.017419 17494 net.cpp:122] Setting up inception_5b/3x3
I1130 04:07:53.017431 17494 net.cpp:129] Top shape: 32 384 7 7 (602112)
I1130 04:07:53.017434 17494 net.cpp:137] Memory required for data: 1746526592
I1130 04:07:53.017442 17494 layer_factory.hpp:77] Creating layer inception_5b/relu_3x3
I1130 04:07:53.017449 17494 net.cpp:84] Creating Layer inception_5b/relu_3x3
I1130 04:07:53.017455 17494 net.cpp:406] inception_5b/relu_3x3 <- inception_5b/3x3
I1130 04:07:53.017462 17494 net.cpp:367] inception_5b/relu_3x3 -> inception_5b/3x3 (in-place)
I1130 04:07:53.017470 17494 net.cpp:122] Setting up inception_5b/relu_3x3
I1130 04:07:53.017475 17494 net.cpp:129] Top shape: 32 384 7 7 (602112)
I1130 04:07:53.017480 17494 net.cpp:137] Memory required for data: 1748935040
I1130 04:07:53.017484 17494 layer_factory.hpp:77] Creating layer inception_5b/5x5_reduce
I1130 04:07:53.017494 17494 net.cpp:84] Creating Layer inception_5b/5x5_reduce
I1130 04:07:53.017500 17494 net.cpp:406] inception_5b/5x5_reduce <- inception_5a/output_inception_5a/output_0_split_2
I1130 04:07:53.017506 17494 net.cpp:380] inception_5b/5x5_reduce -> inception_5b/5x5_reduce
I1130 04:07:53.017917 17494 net.cpp:122] Setting up inception_5b/5x5_reduce
I1130 04:07:53.017927 17494 net.cpp:129] Top shape: 32 48 7 7 (75264)
I1130 04:07:53.017931 17494 net.cpp:137] Memory required for data: 1749236096
I1130 04:07:53.017937 17494 layer_factory.hpp:77] Creating layer inception_5b/relu_5x5_reduce
I1130 04:07:53.017944 17494 net.cpp:84] Creating Layer inception_5b/relu_5x5_reduce
I1130 04:07:53.017951 17494 net.cpp:406] inception_5b/relu_5x5_reduce <- inception_5b/5x5_reduce
I1130 04:07:53.017958 17494 net.cpp:367] inception_5b/relu_5x5_reduce -> inception_5b/5x5_reduce (in-place)
I1130 04:07:53.017966 17494 net.cpp:122] Setting up inception_5b/relu_5x5_reduce
I1130 04:07:53.017971 17494 net.cpp:129] Top shape: 32 48 7 7 (75264)
I1130 04:07:53.017976 17494 net.cpp:137] Memory required for data: 1749537152
I1130 04:07:53.017979 17494 layer_factory.hpp:77] Creating layer inception_5b/5x5
I1130 04:07:53.017987 17494 net.cpp:84] Creating Layer inception_5b/5x5
I1130 04:07:53.017993 17494 net.cpp:406] inception_5b/5x5 <- inception_5b/5x5_reduce
I1130 04:07:53.018005 17494 net.cpp:380] inception_5b/5x5 -> inception_5b/5x5
I1130 04:07:53.019037 17494 net.cpp:122] Setting up inception_5b/5x5
I1130 04:07:53.019047 17494 net.cpp:129] Top shape: 32 128 7 7 (200704)
I1130 04:07:53.019050 17494 net.cpp:137] Memory required for data: 1750339968
I1130 04:07:53.019086 17494 layer_factory.hpp:77] Creating layer inception_5b/relu_5x5
I1130 04:07:53.019093 17494 net.cpp:84] Creating Layer inception_5b/relu_5x5
I1130 04:07:53.019100 17494 net.cpp:406] inception_5b/relu_5x5 <- inception_5b/5x5
I1130 04:07:53.019105 17494 net.cpp:367] inception_5b/relu_5x5 -> inception_5b/5x5 (in-place)
I1130 04:07:53.019112 17494 net.cpp:122] Setting up inception_5b/relu_5x5
I1130 04:07:53.019119 17494 net.cpp:129] Top shape: 32 128 7 7 (200704)
I1130 04:07:53.019124 17494 net.cpp:137] Memory required for data: 1751142784
I1130 04:07:53.019127 17494 layer_factory.hpp:77] Creating layer inception_5b/pool
I1130 04:07:53.019138 17494 net.cpp:84] Creating Layer inception_5b/pool
I1130 04:07:53.019143 17494 net.cpp:406] inception_5b/pool <- inception_5a/output_inception_5a/output_0_split_3
I1130 04:07:53.019150 17494 net.cpp:380] inception_5b/pool -> inception_5b/pool
I1130 04:07:53.019186 17494 net.cpp:122] Setting up inception_5b/pool
I1130 04:07:53.019192 17494 net.cpp:129] Top shape: 32 832 7 7 (1304576)
I1130 04:07:53.019197 17494 net.cpp:137] Memory required for data: 1756361088
I1130 04:07:53.019201 17494 layer_factory.hpp:77] Creating layer inception_5b/pool_proj
I1130 04:07:53.019212 17494 net.cpp:84] Creating Layer inception_5b/pool_proj
I1130 04:07:53.019218 17494 net.cpp:406] inception_5b/pool_proj <- inception_5b/pool
I1130 04:07:53.019225 17494 net.cpp:380] inception_5b/pool_proj -> inception_5b/pool_proj
I1130 04:07:53.020292 17494 net.cpp:122] Setting up inception_5b/pool_proj
I1130 04:07:53.020303 17494 net.cpp:129] Top shape: 32 128 7 7 (200704)
I1130 04:07:53.020308 17494 net.cpp:137] Memory required for data: 1757163904
I1130 04:07:53.020314 17494 layer_factory.hpp:77] Creating layer inception_5b/relu_pool_proj
I1130 04:07:53.020320 17494 net.cpp:84] Creating Layer inception_5b/relu_pool_proj
I1130 04:07:53.020326 17494 net.cpp:406] inception_5b/relu_pool_proj <- inception_5b/pool_proj
I1130 04:07:53.020334 17494 net.cpp:367] inception_5b/relu_pool_proj -> inception_5b/pool_proj (in-place)
I1130 04:07:53.020341 17494 net.cpp:122] Setting up inception_5b/relu_pool_proj
I1130 04:07:53.020347 17494 net.cpp:129] Top shape: 32 128 7 7 (200704)
I1130 04:07:53.020351 17494 net.cpp:137] Memory required for data: 1757966720
I1130 04:07:53.020357 17494 layer_factory.hpp:77] Creating layer inception_5b/output
I1130 04:07:53.020364 17494 net.cpp:84] Creating Layer inception_5b/output
I1130 04:07:53.020370 17494 net.cpp:406] inception_5b/output <- inception_5b/1x1
I1130 04:07:53.020375 17494 net.cpp:406] inception_5b/output <- inception_5b/3x3
I1130 04:07:53.020380 17494 net.cpp:406] inception_5b/output <- inception_5b/5x5
I1130 04:07:53.020385 17494 net.cpp:406] inception_5b/output <- inception_5b/pool_proj
I1130 04:07:53.020390 17494 net.cpp:380] inception_5b/output -> inception_5b/output
I1130 04:07:53.020414 17494 net.cpp:122] Setting up inception_5b/output
I1130 04:07:53.020422 17494 net.cpp:129] Top shape: 32 1024 7 7 (1605632)
I1130 04:07:53.020426 17494 net.cpp:137] Memory required for data: 1764389248
I1130 04:07:53.020431 17494 layer_factory.hpp:77] Creating layer pool5/7x7_s1
I1130 04:07:53.020437 17494 net.cpp:84] Creating Layer pool5/7x7_s1
I1130 04:07:53.020442 17494 net.cpp:406] pool5/7x7_s1 <- inception_5b/output
I1130 04:07:53.020449 17494 net.cpp:380] pool5/7x7_s1 -> pool5/7x7_s1
I1130 04:07:53.020472 17494 net.cpp:122] Setting up pool5/7x7_s1
I1130 04:07:53.020478 17494 net.cpp:129] Top shape: 32 1024 1 1 (32768)
I1130 04:07:53.020483 17494 net.cpp:137] Memory required for data: 1764520320
I1130 04:07:53.020488 17494 layer_factory.hpp:77] Creating layer pool5/drop_7x7_s1
I1130 04:07:53.020494 17494 net.cpp:84] Creating Layer pool5/drop_7x7_s1
I1130 04:07:53.020498 17494 net.cpp:406] pool5/drop_7x7_s1 <- pool5/7x7_s1
I1130 04:07:53.020504 17494 net.cpp:367] pool5/drop_7x7_s1 -> pool5/7x7_s1 (in-place)
I1130 04:07:53.020526 17494 net.cpp:122] Setting up pool5/drop_7x7_s1
I1130 04:07:53.020534 17494 net.cpp:129] Top shape: 32 1024 1 1 (32768)
I1130 04:07:53.020537 17494 net.cpp:137] Memory required for data: 1764651392
I1130 04:07:53.020541 17494 layer_factory.hpp:77] Creating layer fc_scv_wealthy
I1130 04:07:53.020551 17494 net.cpp:84] Creating Layer fc_scv_wealthy
I1130 04:07:53.020556 17494 net.cpp:406] fc_scv_wealthy <- pool5/7x7_s1
I1130 04:07:53.020562 17494 net.cpp:380] fc_scv_wealthy -> fc_scv_wealthy
I1130 04:07:53.020656 17494 net.cpp:122] Setting up fc_scv_wealthy
I1130 04:07:53.020664 17494 net.cpp:129] Top shape: 32 1 (32)
I1130 04:07:53.020669 17494 net.cpp:137] Memory required for data: 1764651520
I1130 04:07:53.020675 17494 layer_factory.hpp:77] Creating layer fc_scv_wealthy_fc_scv_wealthy_0_split
I1130 04:07:53.020683 17494 net.cpp:84] Creating Layer fc_scv_wealthy_fc_scv_wealthy_0_split
I1130 04:07:53.020687 17494 net.cpp:406] fc_scv_wealthy_fc_scv_wealthy_0_split <- fc_scv_wealthy
I1130 04:07:53.020695 17494 net.cpp:380] fc_scv_wealthy_fc_scv_wealthy_0_split -> fc_scv_wealthy_fc_scv_wealthy_0_split_0
I1130 04:07:53.020702 17494 net.cpp:380] fc_scv_wealthy_fc_scv_wealthy_0_split -> fc_scv_wealthy_fc_scv_wealthy_0_split_1
I1130 04:07:53.020735 17494 net.cpp:122] Setting up fc_scv_wealthy_fc_scv_wealthy_0_split
I1130 04:07:53.020743 17494 net.cpp:129] Top shape: 32 1 (32)
I1130 04:07:53.020750 17494 net.cpp:129] Top shape: 32 1 (32)
I1130 04:07:53.020753 17494 net.cpp:137] Memory required for data: 1764651776
I1130 04:07:53.020758 17494 layer_factory.hpp:77] Creating layer loss
I1130 04:07:53.020766 17494 net.cpp:84] Creating Layer loss
I1130 04:07:53.020771 17494 net.cpp:406] loss <- fc_scv_wealthy_fc_scv_wealthy_0_split_0
I1130 04:07:53.020776 17494 net.cpp:406] loss <- label_data_1_split_0
I1130 04:07:53.020782 17494 net.cpp:380] loss -> loss
…
