…
I1206 14:14:32.809804 19534 net.cpp:294] The NetState phase (0) differed from the phase (1) specified by a rule in layer losttest
I1206 14:14:32.810086 19534 net.cpp:51] Initializing net from parameters: 
name: "VGG-Places365-SCV-Pretty"
state {
  phase: TRAIN
  level: 0
  stage: ""
}
layer {
  name: "data"
  type: "Data"
  top: "data"
  top: "label"
  include {
    phase: TRAIN
  }
  transform_param {
    mirror: true
    crop_size: 224
    mean_file: "/idiap/temp/lmedina/fine-tuning/vgg16_places365/places365CNN_mean.binaryproto"
  }
  data_param {
    source: "/idiap/temp/lmedina/fine-tuning/data/Pretty/train_lmdb"
    batch_size: 16
    backend: LMDB
  }
}
layer {
  name: "conv1_1"
  type: "Convolution"
  bottom: "data"
  top: "conv1_1"
  param {
    lr_mult: 1
    decay_mult: 1
  }
  param {
    lr_mult: 2
    decay_mult: 0
  }
  convolution_param {
    num_output: 64
    pad: 1
    kernel_size: 3
    weight_filler {
      type: "gaussian"
      std: 0.01
    }
    bias_filler {
      type: "constant"
      value: 0
    }
  }
}
layer {
  name: "relu1_1"
  type: "ReLU"
  bottom: "conv1_1"
  top: "conv1_1"
}
layer {
  name: "conv1_2"
  type: "Convolution"
  bottom: "conv1_1"
  top: "conv1_2"
  param {
    lr_mult: 1
    decay_mult: 1
  }
  param {
    lr_mult: 2
    decay_mult: 0
  }
  convolution_param {
    num_output: 64
    pad: 1
    kernel_size: 3
    weight_filler {
      type: "gaussian"
      std: 0.01
    }
    bias_filler {
      type: "constant"
      value: 0
    }
  }
}
layer {
  name: "relu1_2"
  type: "ReLU"
  bottom: "conv1_2"
  top: "conv1_2"
}
layer {
  name: "pool1"
  type: "Pooling"
  bottom: "conv1_2"
  top: "pool1"
  pooling_param {
    pool: MAX
    kernel_size: 2
    stride: 2
  }
}
layer {
  name: "conv2_1"
  type: "Convolution"
  bottom: "pool1"
  top: "conv2_1"
  param {
    lr_mult: 1
    decay_mult: 1
  }
  param {
    lr_mult: 2
    decay_mult: 0
  }
  convolution_param {
    num_output: 128
    pad: 1
    kernel_size: 3
    weight_filler {
      type: "gaussian"
      std: 0.01
    }
    bias_filler {
      type: "constant"
      value: 0
    }
  }
}
layer {
  name: "relu2_1"
  type: "ReLU"
  bottom: "conv2_1"
  top: "conv2_1"
}
layer {
  name: "conv2_2"
  type: "Convolution"
  bottom: "conv2_1"
  top: "conv2_2"
  param {
    lr_mult: 1
    decay_mult: 1
  }
  param {
    lr_mult: 2
    decay_mult: 0
  }
  convolution_param {
    num_output: 128
    pad: 1
    kernel_size: 3
    weight_filler {
      type: "gaussian"
      std: 0.01
    }
    bias_filler {
      type: "constant"
      value: 0
    }
  }
}
layer {
  name: "relu2_2"
  type: "ReLU"
  bottom: "conv2_2"
  top: "conv2_2"
}
layer {
  name: "pool2"
  type: "Pooling"
  bottom: "conv2_2"
  top: "pool2"
  pooling_param {
    pool: MAX
    kernel_size: 2
    stride: 2
  }
}
layer {
  name: "conv3_1"
  type: "Convolution"
  bottom: "pool2"
  top: "conv3_1"
  param {
    lr_mult: 1
    decay_mult: 1
  }
  param {
    lr_mult: 2
    decay_mult: 0
  }
  convolution_param {
    num_output: 256
    pad: 1
    kernel_size: 3
    weight_filler {
      type: "gaussian"
      std: 0.01
    }
    bias_filler {
      type: "constant"
      value: 0
    }
  }
}
layer {
  name: "relu3_1"
  type: "ReLU"
  bottom: "conv3_1"
  top: "conv3_1"
}
layer {
  name: "conv3_2"
  type: "Convolution"
  bottom: "conv3_1"
  top: "conv3_2"
  param {
    lr_mult: 1
    decay_mult: 1
  }
  param {
    lr_mult: 2
    decay_mult: 0
  }
  convolution_param {
    num_output: 256
    pad: 1
    kernel_size: 3
    weight_filler {
      type: "gaussian"
      std: 0.01
    }
    bias_filler {
      type: "constant"
      value: 0
    }
  }
}
layer {
  name: "relu3_2"
  type: "ReLU"
  bottom: "conv3_2"
  top: "conv3_2"
}
layer {
  name: "conv3_3"
  type: "Convolution"
  bottom: "conv3_2"
  top: "conv3_3"
  param {
    lr_mult: 1
    decay_mult: 1
  }
  param {
    lr_mult: 2
    decay_mult: 0
  }
  convolution_param {
    num_output: 256
    pad: 1
    kernel_size: 3
    weight_filler {
      type: "gaussian"
      std: 0.01
    }
    bias_filler {
      type: "constant"
      value: 0
    }
  }
}
layer {
  name: "relu3_3"
  type: "ReLU"
  bottom: "conv3_3"
  top: "conv3_3"
}
layer {
  name: "pool3"
  type: "Pooling"
  bottom: "conv3_3"
  top: "pool3"
  pooling_param {
    pool: MAX
    kernel_size: 2
    stride: 2
  }
}
layer {
  name: "conv4_1"
  type: "Convolution"
  bottom: "pool3"
  top: "conv4_1"
  param {
    lr_mult: 1
    decay_mult: 1
  }
  param {
    lr_mult: 2
    decay_mult: 0
  }
  convolution_param {
    num_output: 512
    pad: 1
    kernel_size: 3
    weight_filler {
      type: "gaussian"
      std: 0.01
    }
    bias_filler {
      type: "constant"
      value: 0
    }
  }
}
layer {
  name: "relu4_1"
  type: "ReLU"
  bottom: "conv4_1"
  top: "conv4_1"
}
layer {
  name: "conv4_2"
  type: "Convolution"
  bottom: "conv4_1"
  top: "conv4_2"
  param {
    lr_mult: 1
    decay_mult: 1
  }
  param {
    lr_mult: 2
    decay_mult: 0
  }
  convolution_param {
    num_output: 512
    pad: 1
    kernel_size: 3
    weight_filler {
      type: "gaussian"
      std: 0.01
    }
    bias_filler {
      type: "constant"
      value: 0
    }
  }
}
layer {
  name: "relu4_2"
  type: "ReLU"
  bottom: "conv4_2"
  top: "conv4_2"
}
layer {
  name: "conv4_3"
  type: "Convolution"
  bottom: "conv4_2"
  top: "conv4_3"
  param {
    lr_mult: 1
    decay_mult: 1
  }
  param {
    lr_mult: 2
    decay_mult: 0
  }
  convolution_param {
    num_output: 512
    pad: 1
    kernel_size: 3
    weight_filler {
      type: "gaussian"
      std: 0.01
    }
    bias_filler {
      type: "constant"
      value: 0
    }
  }
}
layer {
  name: "relu4_3"
  type: "ReLU"
  bottom: "conv4_3"
  top: "conv4_3"
}
layer {
  name: "pool4"
  type: "Pooling"
  bottom: "conv4_3"
  top: "pool4"
  pooling_param {
    pool: MAX
    kernel_size: 2
    stride: 2
  }
}
layer {
  name: "conv5_1"
  type: "Convolution"
  bottom: "pool4"
  top: "conv5_1"
  param {
    lr_mult: 1
    decay_mult: 1
  }
  param {
    lr_mult: 2
    decay_mult: 0
  }
  convolution_param {
    num_output: 512
    pad: 1
    kernel_size: 3
    weight_filler {
      type: "gaussian"
      std: 0.01
    }
    bias_filler {
      type: "constant"
      value: 0
    }
  }
}
layer {
  name: "relu5_1"
  type: "ReLU"
  bottom: "conv5_1"
  top: "conv5_1"
}
layer {
  name: "conv5_2"
  type: "Convolution"
  bottom: "conv5_1"
  top: "conv5_2"
  param {
    lr_mult: 1
    decay_mult: 1
  }
  param {
    lr_mult: 2
    decay_mult: 0
  }
  convolution_param {
    num_output: 512
    pad: 1
    kernel_size: 3
    weight_filler {
      type: "gaussian"
      std: 0.01
    }
    bias_filler {
      type: "constant"
      value: 0
    }
  }
}
layer {
  name: "relu5_2"
  type: "ReLU"
  bottom: "conv5_2"
  top: "conv5_2"
}
layer {
  name: "conv5_3"
  type: "Convolution"
  bottom: "conv5_2"
  top: "conv5_3"
  param {
    lr_mult: 1
    decay_mult: 1
  }
  param {
    lr_mult: 2
    decay_mult: 0
  }
  convolution_param {
    num_output: 512
    pad: 1
    kernel_size: 3
    weight_filler {
      type: "gaussian"
      std: 0.01
    }
    bias_filler {
      type: "constant"
      value: 0
    }
  }
}
layer {
  name: "relu5_3"
  type: "ReLU"
  bottom: "conv5_3"
  top: "conv5_3"
}
layer {
  name: "pool5"
  type: "Pooling"
  bottom: "conv5_3"
  top: "pool5"
  pooling_param {
    pool: MAX
    kernel_size: 2
    stride: 2
  }
}
layer {
  name: "fc6"
  type: "InnerProduct"
  bottom: "pool5"
  top: "fc6"
  param {
    lr_mult: 1
    decay_mult: 1
  }
  param {
    lr_mult: 2
    decay_mult: 0
  }
  inner_product_param {
    num_output: 4096
    weight_filler {
      type: "gaussian"
      std: 0.01
    }
    bias_filler {
      type: "constant"
      value: 0
    }
  }
}
layer {
  name: "relu6"
  type: "ReLU"
  bottom: "fc6"
  top: "fc6"
}
layer {
  name: "drop6"
  type: "Dropout"
  bottom: "fc6"
  top: "fc6"
  dropout_param {
    dropout_ratio: 0.5
  }
}
layer {
  name: "fc7"
  type: "InnerProduct"
  bottom: "fc6"
  top: "fc7"
  param {
    lr_mult: 1
    decay_mult: 1
  }
  param {
    lr_mult: 2
    decay_mult: 0
  }
  inner_product_param {
    num_output: 4096
    weight_filler {
      type: "gaussian"
      std: 0.01
    }
    bias_filler {
      type: "constant"
      value: 0
    }
  }
}
layer {
  name: "relu7"
  type: "ReLU"
  bottom: "fc7"
  top: "fc7"
}
layer {
  name: "drop7"
  type: "Dropout"
  bottom: "fc7"
  top: "fc7"
  dropout_param {
    dropout_ratio: 0.5
  }
}
layer {
  name: "fc_scv_pretty"
  type: "InnerProduct"
  bottom: "fc7"
  top: "fc_scv_pretty"
  param {
    lr_mult: 10
    decay_mult: 1
  }
  param {
    lr_mult: 20
    decay_mult: 0
  }
  inner_product_param {
    num_output: 1
    weight_filler {
      type: "xavier"
      std: 0.01
    }
    bias_filler {
      type: "constant"
      value: 0
    }
  }
}
layer {
  name: "loss"
  type: "EuclideanLoss"
  bottom: "fc_scv_pretty"
  bottom: "label"
  top: "loss"
}
I1206 14:14:32.810277 19534 layer_factory.hpp:77] Creating layer data
I1206 14:14:32.905937 19534 db_lmdb.cpp:35] Opened lmdb /idiap/temp/lmedina/fine-tuning/data/Pretty/train_lmdb
I1206 14:14:32.924891 19534 net.cpp:84] Creating Layer data
I1206 14:14:32.924933 19534 net.cpp:380] data -> data
I1206 14:14:32.924984 19534 net.cpp:380] data -> label
I1206 14:14:32.925022 19534 data_transformer.cpp:25] Loading mean file from: /idiap/temp/lmedina/fine-tuning/vgg16_places365/places365CNN_mean.binaryproto
I1206 14:14:32.947307 19534 data_layer.cpp:45] output data size: 16,3,224,224
I1206 14:14:32.983815 19534 net.cpp:122] Setting up data
I1206 14:14:32.983870 19534 net.cpp:129] Top shape: 16 3 224 224 (2408448)
I1206 14:14:32.983889 19534 net.cpp:129] Top shape: 16 (16)
I1206 14:14:32.983902 19534 net.cpp:137] Memory required for data: 9633856
I1206 14:14:32.983925 19534 layer_factory.hpp:77] Creating layer conv1_1
I1206 14:14:32.983965 19534 net.cpp:84] Creating Layer conv1_1
I1206 14:14:32.983983 19534 net.cpp:406] conv1_1 <- data
I1206 14:14:32.984007 19534 net.cpp:380] conv1_1 -> conv1_1
I1206 14:14:32.985709 19534 net.cpp:122] Setting up conv1_1
I1206 14:14:32.985738 19534 net.cpp:129] Top shape: 16 64 224 224 (51380224)
I1206 14:14:32.985751 19534 net.cpp:137] Memory required for data: 215154752
I1206 14:14:32.985780 19534 layer_factory.hpp:77] Creating layer relu1_1
I1206 14:14:32.985801 19534 net.cpp:84] Creating Layer relu1_1
I1206 14:14:32.985816 19534 net.cpp:406] relu1_1 <- conv1_1
I1206 14:14:32.985832 19534 net.cpp:367] relu1_1 -> conv1_1 (in-place)
I1206 14:14:32.985852 19534 net.cpp:122] Setting up relu1_1
I1206 14:14:32.985868 19534 net.cpp:129] Top shape: 16 64 224 224 (51380224)
I1206 14:14:32.985882 19534 net.cpp:137] Memory required for data: 420675648
I1206 14:14:32.985894 19534 layer_factory.hpp:77] Creating layer conv1_2
I1206 14:14:32.985916 19534 net.cpp:84] Creating Layer conv1_2
I1206 14:14:32.985929 19534 net.cpp:406] conv1_2 <- conv1_1
I1206 14:14:32.985946 19534 net.cpp:380] conv1_2 -> conv1_2
I1206 14:14:32.987677 19534 net.cpp:122] Setting up conv1_2
I1206 14:14:32.987710 19534 net.cpp:129] Top shape: 16 64 224 224 (51380224)
I1206 14:14:32.987725 19534 net.cpp:137] Memory required for data: 626196544
I1206 14:14:32.987783 19534 layer_factory.hpp:77] Creating layer relu1_2
I1206 14:14:32.987807 19534 net.cpp:84] Creating Layer relu1_2
I1206 14:14:32.987821 19534 net.cpp:406] relu1_2 <- conv1_2
I1206 14:14:32.987848 19534 net.cpp:367] relu1_2 -> conv1_2 (in-place)
I1206 14:14:32.987866 19534 net.cpp:122] Setting up relu1_2
I1206 14:14:32.987882 19534 net.cpp:129] Top shape: 16 64 224 224 (51380224)
I1206 14:14:32.987895 19534 net.cpp:137] Memory required for data: 831717440
I1206 14:14:32.987908 19534 layer_factory.hpp:77] Creating layer pool1
I1206 14:14:32.987927 19534 net.cpp:84] Creating Layer pool1
I1206 14:14:32.987941 19534 net.cpp:406] pool1 <- conv1_2
I1206 14:14:32.987957 19534 net.cpp:380] pool1 -> pool1
I1206 14:14:32.988023 19534 net.cpp:122] Setting up pool1
I1206 14:14:32.988041 19534 net.cpp:129] Top shape: 16 64 112 112 (12845056)
I1206 14:14:32.988054 19534 net.cpp:137] Memory required for data: 883097664
I1206 14:14:32.988067 19534 layer_factory.hpp:77] Creating layer conv2_1
I1206 14:14:32.988088 19534 net.cpp:84] Creating Layer conv2_1
I1206 14:14:32.988101 19534 net.cpp:406] conv2_1 <- pool1
I1206 14:14:32.988119 19534 net.cpp:380] conv2_1 -> conv2_1
I1206 14:14:32.992878 19534 net.cpp:122] Setting up conv2_1
I1206 14:14:32.992908 19534 net.cpp:129] Top shape: 16 128 112 112 (25690112)
I1206 14:14:32.992923 19534 net.cpp:137] Memory required for data: 985858112
I1206 14:14:32.992945 19534 layer_factory.hpp:77] Creating layer relu2_1
I1206 14:14:32.992964 19534 net.cpp:84] Creating Layer relu2_1
I1206 14:14:32.992979 19534 net.cpp:406] relu2_1 <- conv2_1
I1206 14:14:32.993000 19534 net.cpp:367] relu2_1 -> conv2_1 (in-place)
I1206 14:14:32.993018 19534 net.cpp:122] Setting up relu2_1
I1206 14:14:32.993033 19534 net.cpp:129] Top shape: 16 128 112 112 (25690112)
I1206 14:14:32.993046 19534 net.cpp:137] Memory required for data: 1088618560
I1206 14:14:32.993059 19534 layer_factory.hpp:77] Creating layer conv2_2
I1206 14:14:32.993083 19534 net.cpp:84] Creating Layer conv2_2
I1206 14:14:32.993095 19534 net.cpp:406] conv2_2 <- conv2_1
I1206 14:14:32.993113 19534 net.cpp:380] conv2_2 -> conv2_2
I1206 14:14:32.995204 19534 net.cpp:122] Setting up conv2_2
I1206 14:14:32.995231 19534 net.cpp:129] Top shape: 16 128 112 112 (25690112)
I1206 14:14:32.995245 19534 net.cpp:137] Memory required for data: 1191379008
I1206 14:14:32.995265 19534 layer_factory.hpp:77] Creating layer relu2_2
I1206 14:14:32.995282 19534 net.cpp:84] Creating Layer relu2_2
I1206 14:14:32.995297 19534 net.cpp:406] relu2_2 <- conv2_2
I1206 14:14:32.995314 19534 net.cpp:367] relu2_2 -> conv2_2 (in-place)
I1206 14:14:32.995332 19534 net.cpp:122] Setting up relu2_2
I1206 14:14:32.995347 19534 net.cpp:129] Top shape: 16 128 112 112 (25690112)
I1206 14:14:32.995362 19534 net.cpp:137] Memory required for data: 1294139456
I1206 14:14:32.995375 19534 layer_factory.hpp:77] Creating layer pool2
I1206 14:14:32.995393 19534 net.cpp:84] Creating Layer pool2
I1206 14:14:32.995410 19534 net.cpp:406] pool2 <- conv2_2
I1206 14:14:32.995429 19534 net.cpp:380] pool2 -> pool2
I1206 14:14:32.995484 19534 net.cpp:122] Setting up pool2
I1206 14:14:32.995506 19534 net.cpp:129] Top shape: 16 128 56 56 (6422528)
I1206 14:14:32.995518 19534 net.cpp:137] Memory required for data: 1319829568
I1206 14:14:32.995533 19534 layer_factory.hpp:77] Creating layer conv3_1
I1206 14:14:32.995564 19534 net.cpp:84] Creating Layer conv3_1
I1206 14:14:32.995580 19534 net.cpp:406] conv3_1 <- pool2
I1206 14:14:32.995597 19534 net.cpp:380] conv3_1 -> conv3_1
I1206 14:14:33.000196 19534 net.cpp:122] Setting up conv3_1
I1206 14:14:33.000268 19534 net.cpp:129] Top shape: 16 256 56 56 (12845056)
I1206 14:14:33.000320 19534 net.cpp:137] Memory required for data: 1371209792
I1206 14:14:33.000346 19534 layer_factory.hpp:77] Creating layer relu3_1
I1206 14:14:33.000424 19534 net.cpp:84] Creating Layer relu3_1
I1206 14:14:33.000443 19534 net.cpp:406] relu3_1 <- conv3_1
I1206 14:14:33.000461 19534 net.cpp:367] relu3_1 -> conv3_1 (in-place)
I1206 14:14:33.000481 19534 net.cpp:122] Setting up relu3_1
I1206 14:14:33.000499 19534 net.cpp:129] Top shape: 16 256 56 56 (12845056)
I1206 14:14:33.000512 19534 net.cpp:137] Memory required for data: 1422590016
I1206 14:14:33.000525 19534 layer_factory.hpp:77] Creating layer conv3_2
I1206 14:14:33.000552 19534 net.cpp:84] Creating Layer conv3_2
I1206 14:14:33.000567 19534 net.cpp:406] conv3_2 <- conv3_1
I1206 14:14:33.000586 19534 net.cpp:380] conv3_2 -> conv3_2
I1206 14:14:33.018268 19534 net.cpp:122] Setting up conv3_2
I1206 14:14:33.018420 19534 net.cpp:129] Top shape: 16 256 56 56 (12845056)
I1206 14:14:33.018482 19534 net.cpp:137] Memory required for data: 1473970240
I1206 14:14:33.018502 19534 layer_factory.hpp:77] Creating layer relu3_2
I1206 14:14:33.018654 19534 net.cpp:84] Creating Layer relu3_2
I1206 14:14:33.018676 19534 net.cpp:406] relu3_2 <- conv3_2
I1206 14:14:33.018754 19534 net.cpp:367] relu3_2 -> conv3_2 (in-place)
I1206 14:14:33.018826 19534 net.cpp:122] Setting up relu3_2
I1206 14:14:33.018842 19534 net.cpp:129] Top shape: 16 256 56 56 (12845056)
I1206 14:14:33.018981 19534 net.cpp:137] Memory required for data: 1525350464
I1206 14:14:33.018996 19534 layer_factory.hpp:77] Creating layer conv3_3
I1206 14:14:33.019084 19534 net.cpp:84] Creating Layer conv3_3
I1206 14:14:33.019238 19534 net.cpp:406] conv3_3 <- conv3_2
I1206 14:14:33.019327 19534 net.cpp:380] conv3_3 -> conv3_3
I1206 14:14:33.033324 19534 net.cpp:122] Setting up conv3_3
I1206 14:14:33.033351 19534 net.cpp:129] Top shape: 16 256 56 56 (12845056)
I1206 14:14:33.033365 19534 net.cpp:137] Memory required for data: 1576730688
I1206 14:14:33.033380 19534 layer_factory.hpp:77] Creating layer relu3_3
I1206 14:14:33.033399 19534 net.cpp:84] Creating Layer relu3_3
I1206 14:14:33.033412 19534 net.cpp:406] relu3_3 <- conv3_3
I1206 14:14:33.033427 19534 net.cpp:367] relu3_3 -> conv3_3 (in-place)
I1206 14:14:33.033443 19534 net.cpp:122] Setting up relu3_3
I1206 14:14:33.033457 19534 net.cpp:129] Top shape: 16 256 56 56 (12845056)
I1206 14:14:33.033471 19534 net.cpp:137] Memory required for data: 1628110912
I1206 14:14:33.033483 19534 layer_factory.hpp:77] Creating layer pool3
I1206 14:14:33.033499 19534 net.cpp:84] Creating Layer pool3
I1206 14:14:33.033511 19534 net.cpp:406] pool3 <- conv3_3
I1206 14:14:33.033527 19534 net.cpp:380] pool3 -> pool3
I1206 14:14:33.033578 19534 net.cpp:122] Setting up pool3
I1206 14:14:33.033597 19534 net.cpp:129] Top shape: 16 256 28 28 (3211264)
I1206 14:14:33.033609 19534 net.cpp:137] Memory required for data: 1640955968
I1206 14:14:33.033622 19534 layer_factory.hpp:77] Creating layer conv4_1
I1206 14:14:33.033640 19534 net.cpp:84] Creating Layer conv4_1
I1206 14:14:33.033653 19534 net.cpp:406] conv4_1 <- pool3
I1206 14:14:33.033668 19534 net.cpp:380] conv4_1 -> conv4_1
I1206 14:14:33.056188 19534 net.cpp:122] Setting up conv4_1
I1206 14:14:33.056224 19534 net.cpp:129] Top shape: 16 512 28 28 (6422528)
I1206 14:14:33.056237 19534 net.cpp:137] Memory required for data: 1666646080
I1206 14:14:33.056270 19534 layer_factory.hpp:77] Creating layer relu4_1
I1206 14:14:33.056291 19534 net.cpp:84] Creating Layer relu4_1
I1206 14:14:33.056305 19534 net.cpp:406] relu4_1 <- conv4_1
I1206 14:14:33.056321 19534 net.cpp:367] relu4_1 -> conv4_1 (in-place)
I1206 14:14:33.056339 19534 net.cpp:122] Setting up relu4_1
I1206 14:14:33.056354 19534 net.cpp:129] Top shape: 16 512 28 28 (6422528)
I1206 14:14:33.056365 19534 net.cpp:137] Memory required for data: 1692336192
I1206 14:14:33.056377 19534 layer_factory.hpp:77] Creating layer conv4_2
I1206 14:14:33.056397 19534 net.cpp:84] Creating Layer conv4_2
I1206 14:14:33.056409 19534 net.cpp:406] conv4_2 <- conv4_1
I1206 14:14:33.056426 19534 net.cpp:380] conv4_2 -> conv4_2
I1206 14:14:33.109977 19534 net.cpp:122] Setting up conv4_2
I1206 14:14:33.110018 19534 net.cpp:129] Top shape: 16 512 28 28 (6422528)
I1206 14:14:33.110030 19534 net.cpp:137] Memory required for data: 1718026304
I1206 14:14:33.110056 19534 layer_factory.hpp:77] Creating layer relu4_2
I1206 14:14:33.110077 19534 net.cpp:84] Creating Layer relu4_2
I1206 14:14:33.110090 19534 net.cpp:406] relu4_2 <- conv4_2
I1206 14:14:33.110106 19534 net.cpp:367] relu4_2 -> conv4_2 (in-place)
I1206 14:14:33.110124 19534 net.cpp:122] Setting up relu4_2
I1206 14:14:33.110137 19534 net.cpp:129] Top shape: 16 512 28 28 (6422528)
I1206 14:14:33.110157 19534 net.cpp:137] Memory required for data: 1743716416
I1206 14:14:33.110167 19534 layer_factory.hpp:77] Creating layer conv4_3
I1206 14:14:33.110188 19534 net.cpp:84] Creating Layer conv4_3
I1206 14:14:33.110199 19534 net.cpp:406] conv4_3 <- conv4_2
I1206 14:14:33.110214 19534 net.cpp:380] conv4_3 -> conv4_3
I1206 14:14:33.149574 19534 net.cpp:122] Setting up conv4_3
I1206 14:14:33.158890 19534 net.cpp:129] Top shape: 16 512 28 28 (6422528)
I1206 14:14:33.158946 19534 net.cpp:137] Memory required for data: 1769406528
I1206 14:14:33.159008 19534 layer_factory.hpp:77] Creating layer relu4_3
I1206 14:14:33.159056 19534 net.cpp:84] Creating Layer relu4_3
I1206 14:14:33.159092 19534 net.cpp:406] relu4_3 <- conv4_3
I1206 14:14:33.159132 19534 net.cpp:367] relu4_3 -> conv4_3 (in-place)
I1206 14:14:33.159173 19534 net.cpp:122] Setting up relu4_3
I1206 14:14:33.159209 19534 net.cpp:129] Top shape: 16 512 28 28 (6422528)
I1206 14:14:33.159241 19534 net.cpp:137] Memory required for data: 1795096640
I1206 14:14:33.159274 19534 layer_factory.hpp:77] Creating layer pool4
I1206 14:14:33.159312 19534 net.cpp:84] Creating Layer pool4
I1206 14:14:33.159346 19534 net.cpp:406] pool4 <- conv4_3
I1206 14:14:33.159382 19534 net.cpp:380] pool4 -> pool4
I1206 14:14:33.159461 19534 net.cpp:122] Setting up pool4
I1206 14:14:33.159500 19534 net.cpp:129] Top shape: 16 512 14 14 (1605632)
I1206 14:14:33.159533 19534 net.cpp:137] Memory required for data: 1801519168
I1206 14:14:33.159565 19534 layer_factory.hpp:77] Creating layer conv5_1
I1206 14:14:33.159606 19534 net.cpp:84] Creating Layer conv5_1
I1206 14:14:33.159641 19534 net.cpp:406] conv5_1 <- pool4
I1206 14:14:33.159677 19534 net.cpp:380] conv5_1 -> conv5_1
I1206 14:14:33.189303 19534 net.cpp:122] Setting up conv5_1
I1206 14:14:33.190080 19534 net.cpp:129] Top shape: 16 512 14 14 (1605632)
I1206 14:14:33.190124 19534 net.cpp:137] Memory required for data: 1807941696
I1206 14:14:33.190156 19534 layer_factory.hpp:77] Creating layer relu5_1
I1206 14:14:33.190189 19534 net.cpp:84] Creating Layer relu5_1
I1206 14:14:33.190214 19534 net.cpp:406] relu5_1 <- conv5_1
I1206 14:14:33.190243 19534 net.cpp:367] relu5_1 -> conv5_1 (in-place)
I1206 14:14:33.190274 19534 net.cpp:122] Setting up relu5_1
I1206 14:14:33.190300 19534 net.cpp:129] Top shape: 16 512 14 14 (1605632)
I1206 14:14:33.190322 19534 net.cpp:137] Memory required for data: 1814364224
I1206 14:14:33.190346 19534 layer_factory.hpp:77] Creating layer conv5_2
I1206 14:14:33.190379 19534 net.cpp:84] Creating Layer conv5_2
I1206 14:14:33.190407 19534 net.cpp:406] conv5_2 <- conv5_1
I1206 14:14:33.190434 19534 net.cpp:380] conv5_2 -> conv5_2
I1206 14:14:33.238803 19534 net.cpp:122] Setting up conv5_2
I1206 14:14:33.238844 19534 net.cpp:129] Top shape: 16 512 14 14 (1605632)
I1206 14:14:33.238862 19534 net.cpp:137] Memory required for data: 1820786752
I1206 14:14:33.238884 19534 layer_factory.hpp:77] Creating layer relu5_2
I1206 14:14:33.238906 19534 net.cpp:84] Creating Layer relu5_2
I1206 14:14:33.238925 19534 net.cpp:406] relu5_2 <- conv5_2
I1206 14:14:33.238945 19534 net.cpp:367] relu5_2 -> conv5_2 (in-place)
I1206 14:14:33.238970 19534 net.cpp:122] Setting up relu5_2
I1206 14:14:33.238987 19534 net.cpp:129] Top shape: 16 512 14 14 (1605632)
I1206 14:14:33.239003 19534 net.cpp:137] Memory required for data: 1827209280
I1206 14:14:33.239018 19534 layer_factory.hpp:77] Creating layer conv5_3
I1206 14:14:33.239049 19534 net.cpp:84] Creating Layer conv5_3
I1206 14:14:33.239065 19534 net.cpp:406] conv5_3 <- conv5_2
I1206 14:14:33.239261 19534 net.cpp:380] conv5_3 -> conv5_3
I1206 14:14:33.277083 19534 net.cpp:122] Setting up conv5_3
I1206 14:14:33.277115 19534 net.cpp:129] Top shape: 16 512 14 14 (1605632)
I1206 14:14:33.277129 19534 net.cpp:137] Memory required for data: 1833631808
I1206 14:14:33.277148 19534 layer_factory.hpp:77] Creating layer relu5_3
I1206 14:14:33.277190 19534 net.cpp:84] Creating Layer relu5_3
I1206 14:14:33.277209 19534 net.cpp:406] relu5_3 <- conv5_3
I1206 14:14:33.277233 19534 net.cpp:367] relu5_3 -> conv5_3 (in-place)
I1206 14:14:33.277252 19534 net.cpp:122] Setting up relu5_3
I1206 14:14:33.277267 19534 net.cpp:129] Top shape: 16 512 14 14 (1605632)
I1206 14:14:33.277281 19534 net.cpp:137] Memory required for data: 1840054336
I1206 14:14:33.277294 19534 layer_factory.hpp:77] Creating layer pool5
I1206 14:14:33.277314 19534 net.cpp:84] Creating Layer pool5
I1206 14:14:33.277328 19534 net.cpp:406] pool5 <- conv5_3
I1206 14:14:33.277345 19534 net.cpp:380] pool5 -> pool5
I1206 14:14:33.277405 19534 net.cpp:122] Setting up pool5
I1206 14:14:33.277426 19534 net.cpp:129] Top shape: 16 512 7 7 (401408)
I1206 14:14:33.277439 19534 net.cpp:137] Memory required for data: 1841659968
I1206 14:14:33.277452 19534 layer_factory.hpp:77] Creating layer fc6
I1206 14:14:33.277480 19534 net.cpp:84] Creating Layer fc6
I1206 14:14:33.277495 19534 net.cpp:406] fc6 <- pool5
I1206 14:14:33.277513 19534 net.cpp:380] fc6 -> fc6
I1206 14:14:34.495605 19534 net.cpp:122] Setting up fc6
I1206 14:14:34.495666 19534 net.cpp:129] Top shape: 16 4096 (65536)
I1206 14:14:34.495693 19534 net.cpp:137] Memory required for data: 1841922112
I1206 14:14:34.495718 19534 layer_factory.hpp:77] Creating layer relu6
I1206 14:14:34.495772 19534 net.cpp:84] Creating Layer relu6
I1206 14:14:34.495788 19534 net.cpp:406] relu6 <- fc6
I1206 14:14:34.495806 19534 net.cpp:367] relu6 -> fc6 (in-place)
I1206 14:14:34.495831 19534 net.cpp:122] Setting up relu6
I1206 14:14:34.495846 19534 net.cpp:129] Top shape: 16 4096 (65536)
I1206 14:14:34.495858 19534 net.cpp:137] Memory required for data: 1842184256
I1206 14:14:34.495872 19534 layer_factory.hpp:77] Creating layer drop6
I1206 14:14:34.495898 19534 net.cpp:84] Creating Layer drop6
I1206 14:14:34.495913 19534 net.cpp:406] drop6 <- fc6
I1206 14:14:34.495929 19534 net.cpp:367] drop6 -> fc6 (in-place)
I1206 14:14:34.495991 19534 net.cpp:122] Setting up drop6
I1206 14:14:34.496011 19534 net.cpp:129] Top shape: 16 4096 (65536)
I1206 14:14:34.496024 19534 net.cpp:137] Memory required for data: 1842446400
I1206 14:14:34.496037 19534 layer_factory.hpp:77] Creating layer fc7
I1206 14:14:34.496059 19534 net.cpp:84] Creating Layer fc7
I1206 14:14:34.496074 19534 net.cpp:406] fc7 <- fc6
I1206 14:14:34.496093 19534 net.cpp:380] fc7 -> fc7
I1206 14:14:34.717388 19534 net.cpp:122] Setting up fc7
I1206 14:14:34.717437 19534 net.cpp:129] Top shape: 16 4096 (65536)
I1206 14:14:34.717452 19534 net.cpp:137] Memory required for data: 1842708544
I1206 14:14:34.717473 19534 layer_factory.hpp:77] Creating layer relu7
I1206 14:14:34.717495 19534 net.cpp:84] Creating Layer relu7
I1206 14:14:34.717509 19534 net.cpp:406] relu7 <- fc7
I1206 14:14:34.717526 19534 net.cpp:367] relu7 -> fc7 (in-place)
I1206 14:14:34.717546 19534 net.cpp:122] Setting up relu7
I1206 14:14:34.717559 19534 net.cpp:129] Top shape: 16 4096 (65536)
I1206 14:14:34.717571 19534 net.cpp:137] Memory required for data: 1842970688
I1206 14:14:34.717582 19534 layer_factory.hpp:77] Creating layer drop7
I1206 14:14:34.717598 19534 net.cpp:84] Creating Layer drop7
I1206 14:14:34.717610 19534 net.cpp:406] drop7 <- fc7
I1206 14:14:34.717624 19534 net.cpp:367] drop7 -> fc7 (in-place)
I1206 14:14:34.717667 19534 net.cpp:122] Setting up drop7
I1206 14:14:34.717682 19534 net.cpp:129] Top shape: 16 4096 (65536)
I1206 14:14:34.717694 19534 net.cpp:137] Memory required for data: 1843232832
I1206 14:14:34.717705 19534 layer_factory.hpp:77] Creating layer fc_scv_pretty
I1206 14:14:34.717725 19534 net.cpp:84] Creating Layer fc_scv_pretty
I1206 14:14:34.717736 19534 net.cpp:406] fc_scv_pretty <- fc7
I1206 14:14:34.717752 19534 net.cpp:380] fc_scv_pretty -> fc_scv_pretty
I1206 14:14:34.717936 19534 net.cpp:122] Setting up fc_scv_pretty
I1206 14:14:34.717952 19534 net.cpp:129] Top shape: 16 1 (16)
I1206 14:14:34.717964 19534 net.cpp:137] Memory required for data: 1843232896
I1206 14:14:34.717979 19534 layer_factory.hpp:77] Creating layer loss
I1206 14:14:34.717994 19534 net.cpp:84] Creating Layer loss
I1206 14:14:34.718006 19534 net.cpp:406] loss <- fc_scv_pretty
I1206 14:14:34.718032 19534 net.cpp:406] loss <- label
I1206 14:14:34.718049 19534 net.cpp:380] loss -> loss
I1206 14:14:34.718103 19534 net.cpp:122] Setting up loss
…
I1206 14:14:34.722076 19534 net.cpp:294] The NetState phase (1) differed from the phase (0) specified by a rule in layer data
I1206 14:14:34.722373 19534 net.cpp:51] Initializing net from parameters: 
name: "VGG-Places365-SCV-Pretty"
state {
  phase: TEST
}
layer {
  name: "data"
  type: "Data"
  top: "data"
  top: "label"
  include {
    phase: TEST
  }
  transform_param {
    mirror: false
    crop_size: 224
    mean_file: "/idiap/temp/lmedina/fine-tuning/vgg16_places365/places365CNN_mean.binaryproto"
  }
  data_param {
    source: "/idiap/temp/lmedina/fine-tuning/data/Pretty/validation_lmdb"
    batch_size: 16
    backend: LMDB
  }
}
layer {
  name: "conv1_1"
  type: "Convolution"
  bottom: "data"
  top: "conv1_1"
  param {
    lr_mult: 1
    decay_mult: 1
  }
  param {
    lr_mult: 2
    decay_mult: 0
  }
  convolution_param {
    num_output: 64
    pad: 1
    kernel_size: 3
    weight_filler {
      type: "gaussian"
      std: 0.01
    }
    bias_filler {
      type: "constant"
      value: 0
    }
  }
}
layer {
  name: "relu1_1"
  type: "ReLU"
  bottom: "conv1_1"
  top: "conv1_1"
}
layer {
  name: "conv1_2"
  type: "Convolution"
  bottom: "conv1_1"
  top: "conv1_2"
  param {
    lr_mult: 1
    decay_mult: 1
  }
  param {
    lr_mult: 2
    decay_mult: 0
  }
  convolution_param {
    num_output: 64
    pad: 1
    kernel_size: 3
    weight_filler {
      type: "gaussian"
      std: 0.01
    }
    bias_filler {
      type: "constant"
      value: 0
    }
  }
}
layer {
  name: "relu1_2"
  type: "ReLU"
  bottom: "conv1_2"
  top: "conv1_2"
}
layer {
  name: "pool1"
  type: "Pooling"
  bottom: "conv1_2"
  top: "pool1"
  pooling_param {
    pool: MAX
    kernel_size: 2
    stride: 2
  }
}
layer {
  name: "conv2_1"
  type: "Convolution"
  bottom: "pool1"
  top: "conv2_1"
  param {
    lr_mult: 1
    decay_mult: 1
  }
  param {
    lr_mult: 2
    decay_mult: 0
  }
  convolution_param {
    num_output: 128
    pad: 1
    kernel_size: 3
    weight_filler {
      type: "gaussian"
      std: 0.01
    }
    bias_filler {
      type: "constant"
      value: 0
    }
  }
}
layer {
  name: "relu2_1"
  type: "ReLU"
  bottom: "conv2_1"
  top: "conv2_1"
}
layer {
  name: "conv2_2"
  type: "Convolution"
  bottom: "conv2_1"
  top: "conv2_2"
  param {
    lr_mult: 1
    decay_mult: 1
  }
  param {
    lr_mult: 2
    decay_mult: 0
  }
  convolution_param {
    num_output: 128
    pad: 1
    kernel_size: 3
    weight_filler {
      type: "gaussian"
      std: 0.01
    }
    bias_filler {
      type: "constant"
      value: 0
    }
  }
}
layer {
  name: "relu2_2"
  type: "ReLU"
  bottom: "conv2_2"
  top: "conv2_2"
}
layer {
  name: "pool2"
  type: "Pooling"
  bottom: "conv2_2"
  top: "pool2"
  pooling_param {
    pool: MAX
    kernel_size: 2
    stride: 2
  }
}
layer {
  name: "conv3_1"
  type: "Convolution"
  bottom: "pool2"
  top: "conv3_1"
  param {
    lr_mult: 1
    decay_mult: 1
  }
  param {
    lr_mult: 2
    decay_mult: 0
  }
  convolution_param {
    num_output: 256
    pad: 1
    kernel_size: 3
    weight_filler {
      type: "gaussian"
      std: 0.01
    }
    bias_filler {
      type: "constant"
      value: 0
    }
  }
}
layer {
  name: "relu3_1"
  type: "ReLU"
  bottom: "conv3_1"
  top: "conv3_1"
}
layer {
  name: "conv3_2"
  type: "Convolution"
  bottom: "conv3_1"
  top: "conv3_2"
  param {
    lr_mult: 1
    decay_mult: 1
  }
  param {
    lr_mult: 2
    decay_mult: 0
  }
  convolution_param {
    num_output: 256
    pad: 1
    kernel_size: 3
    weight_filler {
      type: "gaussian"
      std: 0.01
    }
    bias_filler {
      type: "constant"
      value: 0
    }
  }
}
layer {
  name: "relu3_2"
  type: "ReLU"
  bottom: "conv3_2"
  top: "conv3_2"
}
layer {
  name: "conv3_3"
  type: "Convolution"
  bottom: "conv3_2"
  top: "conv3_3"
  param {
    lr_mult: 1
    decay_mult: 1
  }
  param {
    lr_mult: 2
    decay_mult: 0
  }
  convolution_param {
    num_output: 256
    pad: 1
    kernel_size: 3
    weight_filler {
      type: "gaussian"
      std: 0.01
    }
    bias_filler {
      type: "constant"
      value: 0
    }
  }
}
layer {
  name: "relu3_3"
  type: "ReLU"
  bottom: "conv3_3"
  top: "conv3_3"
}
layer {
  name: "pool3"
  type: "Pooling"
  bottom: "conv3_3"
  top: "pool3"
  pooling_param {
    pool: MAX
    kernel_size: 2
    stride: 2
  }
}
layer {
  name: "conv4_1"
  type: "Convolution"
  bottom: "pool3"
  top: "conv4_1"
  param {
    lr_mult: 1
    decay_mult: 1
  }
  param {
    lr_mult: 2
    decay_mult: 0
  }
  convolution_param {
    num_output: 512
    pad: 1
    kernel_size: 3
    weight_filler {
      type: "gaussian"
      std: 0.01
    }
    bias_filler {
      type: "constant"
      value: 0
    }
  }
}
layer {
  name: "relu4_1"
  type: "ReLU"
  bottom: "conv4_1"
  top: "conv4_1"
}
layer {
  name: "conv4_2"
  type: "Convolution"
  bottom: "conv4_1"
  top: "conv4_2"
  param {
    lr_mult: 1
    decay_mult: 1
  }
  param {
    lr_mult: 2
    decay_mult: 0
  }
  convolution_param {
    num_output: 512
    pad: 1
    kernel_size: 3
    weight_filler {
      type: "gaussian"
      std: 0.01
    }
    bias_filler {
      type: "constant"
      value: 0
    }
  }
}
layer {
  name: "relu4_2"
  type: "ReLU"
  bottom: "conv4_2"
  top: "conv4_2"
}
layer {
  name: "conv4_3"
  type: "Convolution"
  bottom: "conv4_2"
  top: "conv4_3"
  param {
    lr_mult: 1
    decay_mult: 1
  }
  param {
    lr_mult: 2
    decay_mult: 0
  }
  convolution_param {
    num_output: 512
    pad: 1
    kernel_size: 3
    weight_filler {
      type: "gaussian"
      std: 0.01
    }
    bias_filler {
      type: "constant"
      value: 0
    }
  }
}
layer {
  name: "relu4_3"
  type: "ReLU"
  bottom: "conv4_3"
  top: "conv4_3"
}
layer {
  name: "pool4"
  type: "Pooling"
  bottom: "conv4_3"
  top: "pool4"
  pooling_param {
    pool: MAX
    kernel_size: 2
    stride: 2
  }
}
layer {
  name: "conv5_1"
  type: "Convolution"
  bottom: "pool4"
  top: "conv5_1"
  param {
    lr_mult: 1
    decay_mult: 1
  }
  param {
    lr_mult: 2
    decay_mult: 0
  }
  convolution_param {
    num_output: 512
    pad: 1
    kernel_size: 3
    weight_filler {
      type: "gaussian"
      std: 0.01
    }
    bias_filler {
      type: "constant"
      value: 0
    }
  }
}
layer {
  name: "relu5_1"
  type: "ReLU"
  bottom: "conv5_1"
  top: "conv5_1"
}
layer {
  name: "conv5_2"
  type: "Convolution"
  bottom: "conv5_1"
  top: "conv5_2"
  param {
    lr_mult: 1
    decay_mult: 1
  }
  param {
    lr_mult: 2
    decay_mult: 0
  }
  convolution_param {
    num_output: 512
    pad: 1
    kernel_size: 3
    weight_filler {
      type: "gaussian"
      std: 0.01
    }
    bias_filler {
      type: "constant"
      value: 0
    }
  }
}
layer {
  name: "relu5_2"
  type: "ReLU"
  bottom: "conv5_2"
  top: "conv5_2"
}
layer {
  name: "conv5_3"
  type: "Convolution"
  bottom: "conv5_2"
  top: "conv5_3"
  param {
    lr_mult: 1
    decay_mult: 1
  }
  param {
    lr_mult: 2
    decay_mult: 0
  }
  convolution_param {
    num_output: 512
    pad: 1
    kernel_size: 3
    weight_filler {
      type: "gaussian"
      std: 0.01
    }
    bias_filler {
      type: "constant"
      value: 0
    }
  }
}
layer {
  name: "relu5_3"
  type: "ReLU"
  bottom: "conv5_3"
  top: "conv5_3"
}
layer {
  name: "pool5"
  type: "Pooling"
  bottom: "conv5_3"
  top: "pool5"
  pooling_param {
    pool: MAX
    kernel_size: 2
    stride: 2
  }
}
layer {
  name: "fc6"
  type: "InnerProduct"
  bottom: "pool5"
  top: "fc6"
  param {
    lr_mult: 1
    decay_mult: 1
  }
  param {
    lr_mult: 2
    decay_mult: 0
  }
  inner_product_param {
    num_output: 4096
    weight_filler {
      type: "gaussian"
      std: 0.01
    }
    bias_filler {
      type: "constant"
      value: 0
    }
  }
}
layer {
  name: "relu6"
  type: "ReLU"
  bottom: "fc6"
  top: "fc6"
}
layer {
  name: "drop6"
  type: "Dropout"
  bottom: "fc6"
  top: "fc6"
  dropout_param {
    dropout_ratio: 0.5
  }
}
layer {
  name: "fc7"
  type: "InnerProduct"
  bottom: "fc6"
  top: "fc7"
  param {
    lr_mult: 1
    decay_mult: 1
  }
  param {
    lr_mult: 2
    decay_mult: 0
  }
  inner_product_param {
    num_output: 4096
    weight_filler {
      type: "gaussian"
      std: 0.01
    }
    bias_filler {
      type: "constant"
      value: 0
    }
  }
}
layer {
  name: "relu7"
  type: "ReLU"
  bottom: "fc7"
  top: "fc7"
}
layer {
  name: "drop7"
  type: "Dropout"
  bottom: "fc7"
  top: "fc7"
  dropout_param {
    dropout_ratio: 0.5
  }
}
layer {
  name: "fc_scv_pretty"
  type: "InnerProduct"
  bottom: "fc7"
  top: "fc_scv_pretty"
  param {
    lr_mult: 10
    decay_mult: 1
  }
  param {
    lr_mult: 20
    decay_mult: 0
  }
  inner_product_param {
    num_output: 1
    weight_filler {
      type: "xavier"
      std: 0.01
    }
    bias_filler {
      type: "constant"
      value: 0
    }
  }
}
layer {
  name: "loss"
  type: "EuclideanLoss"
  bottom: "fc_scv_pretty"
  bottom: "label"
  top: "loss"
}
layer {
  name: "losttest"
  type: "EuclideanLoss"
  bottom: "fc_scv_pretty"
  bottom: "label"
  top: "losttest"
  include {
    phase: TEST
  }
}
I1206 14:14:34.722571 19534 layer_factory.hpp:77] Creating layer data
I1206 14:14:34.741624 19534 db_lmdb.cpp:35] Opened lmdb /idiap/temp/lmedina/fine-tuning/data/Pretty/validation_lmdb
I1206 14:14:34.751080 19534 net.cpp:84] Creating Layer data
I1206 14:14:34.754842 19534 net.cpp:380] data -> data
I1206 14:14:34.754902 19534 net.cpp:380] data -> label
I1206 14:14:34.754925 19534 data_transformer.cpp:25] Loading mean file from: /idiap/temp/lmedina/fine-tuning/vgg16_places365/places365CNN_mean.binaryproto
I1206 14:14:34.766963 19534 data_layer.cpp:45] output data size: 16,3,224,224
I1206 14:14:34.802039 19534 net.cpp:122] Setting up data
I1206 14:14:34.802081 19534 net.cpp:129] Top shape: 16 3 224 224 (2408448)
I1206 14:14:34.802095 19534 net.cpp:129] Top shape: 16 (16)
I1206 14:14:34.802105 19534 net.cpp:137] Memory required for data: 9633856
I1206 14:14:34.802119 19534 layer_factory.hpp:77] Creating layer label_data_1_split
I1206 14:14:34.802142 19534 net.cpp:84] Creating Layer label_data_1_split
I1206 14:14:34.802155 19534 net.cpp:406] label_data_1_split <- label
I1206 14:14:34.802170 19534 net.cpp:380] label_data_1_split -> label_data_1_split_0
I1206 14:14:34.802189 19534 net.cpp:380] label_data_1_split -> label_data_1_split_1
I1206 14:14:34.802248 19534 net.cpp:122] Setting up label_data_1_split
I1206 14:14:34.802261 19534 net.cpp:129] Top shape: 16 (16)
I1206 14:14:34.802273 19534 net.cpp:129] Top shape: 16 (16)
I1206 14:14:34.802284 19534 net.cpp:137] Memory required for data: 9633984
I1206 14:14:34.802295 19534 layer_factory.hpp:77] Creating layer conv1_1
I1206 14:14:34.802317 19534 net.cpp:84] Creating Layer conv1_1
I1206 14:14:34.802328 19534 net.cpp:406] conv1_1 <- data
I1206 14:14:34.802342 19534 net.cpp:380] conv1_1 -> conv1_1
I1206 14:14:34.802659 19534 net.cpp:122] Setting up conv1_1
I1206 14:14:34.802675 19534 net.cpp:129] Top shape: 16 64 224 224 (51380224)
I1206 14:14:34.802685 19534 net.cpp:137] Memory required for data: 215154880
I1206 14:14:34.802705 19534 layer_factory.hpp:77] Creating layer relu1_1
I1206 14:14:34.802719 19534 net.cpp:84] Creating Layer relu1_1
I1206 14:14:34.802729 19534 net.cpp:406] relu1_1 <- conv1_1
I1206 14:14:34.802742 19534 net.cpp:367] relu1_1 -> conv1_1 (in-place)
I1206 14:14:34.802755 19534 net.cpp:122] Setting up relu1_1
I1206 14:14:34.802767 19534 net.cpp:129] Top shape: 16 64 224 224 (51380224)
I1206 14:14:34.802776 19534 net.cpp:137] Memory required for data: 420675776
I1206 14:14:34.802786 19534 layer_factory.hpp:77] Creating layer conv1_2
I1206 14:14:34.802803 19534 net.cpp:84] Creating Layer conv1_2
I1206 14:14:34.802814 19534 net.cpp:406] conv1_2 <- conv1_1
I1206 14:14:34.802826 19534 net.cpp:380] conv1_2 -> conv1_2
I1206 14:14:34.804074 19534 net.cpp:122] Setting up conv1_2
I1206 14:14:34.804093 19534 net.cpp:129] Top shape: 16 64 224 224 (51380224)
I1206 14:14:34.804105 19534 net.cpp:137] Memory required for data: 626196672
I1206 14:14:34.804121 19534 layer_factory.hpp:77] Creating layer relu1_2
I1206 14:14:34.804137 19534 net.cpp:84] Creating Layer relu1_2
I1206 14:14:34.804150 19534 net.cpp:406] relu1_2 <- conv1_2
I1206 14:14:34.804164 19534 net.cpp:367] relu1_2 -> conv1_2 (in-place)
I1206 14:14:34.804178 19534 net.cpp:122] Setting up relu1_2
I1206 14:14:34.804190 19534 net.cpp:129] Top shape: 16 64 224 224 (51380224)
I1206 14:14:34.804200 19534 net.cpp:137] Memory required for data: 831717568
I1206 14:14:34.804211 19534 layer_factory.hpp:77] Creating layer pool1
I1206 14:14:34.804226 19534 net.cpp:84] Creating Layer pool1
I1206 14:14:34.804240 19534 net.cpp:406] pool1 <- conv1_2
I1206 14:14:34.804253 19534 net.cpp:380] pool1 -> pool1
I1206 14:14:34.805464 19534 net.cpp:122] Setting up pool1
I1206 14:14:34.805479 19534 net.cpp:129] Top shape: 16 64 112 112 (12845056)
I1206 14:14:34.805488 19534 net.cpp:137] Memory required for data: 883097792
I1206 14:14:34.805500 19534 layer_factory.hpp:77] Creating layer conv2_1
I1206 14:14:34.805516 19534 net.cpp:84] Creating Layer conv2_1
I1206 14:14:34.805526 19534 net.cpp:406] conv2_1 <- pool1
I1206 14:14:34.805541 19534 net.cpp:380] conv2_1 -> conv2_1
I1206 14:14:34.807056 19534 net.cpp:122] Setting up conv2_1
I1206 14:14:34.807077 19534 net.cpp:129] Top shape: 16 128 112 112 (25690112)
I1206 14:14:34.807088 19534 net.cpp:137] Memory required for data: 985858240
I1206 14:14:34.807104 19534 layer_factory.hpp:77] Creating layer relu2_1
I1206 14:14:34.807121 19534 net.cpp:84] Creating Layer relu2_1
I1206 14:14:34.807132 19534 net.cpp:406] relu2_1 <- conv2_1
I1206 14:14:34.807143 19534 net.cpp:367] relu2_1 -> conv2_1 (in-place)
I1206 14:14:34.807157 19534 net.cpp:122] Setting up relu2_1
I1206 14:14:34.807168 19534 net.cpp:129] Top shape: 16 128 112 112 (25690112)
I1206 14:14:34.807178 19534 net.cpp:137] Memory required for data: 1088618688
I1206 14:14:34.807188 19534 layer_factory.hpp:77] Creating layer conv2_2
I1206 14:14:34.807204 19534 net.cpp:84] Creating Layer conv2_2
I1206 14:14:34.807214 19534 net.cpp:406] conv2_2 <- conv2_1
I1206 14:14:34.807229 19534 net.cpp:380] conv2_2 -> conv2_2
I1206 14:14:34.808878 19534 net.cpp:122] Setting up conv2_2
I1206 14:14:34.808897 19534 net.cpp:129] Top shape: 16 128 112 112 (25690112)
I1206 14:14:34.808908 19534 net.cpp:137] Memory required for data: 1191379136
I1206 14:14:34.808921 19534 layer_factory.hpp:77] Creating layer relu2_2
I1206 14:14:34.808935 19534 net.cpp:84] Creating Layer relu2_2
I1206 14:14:34.808945 19534 net.cpp:406] relu2_2 <- conv2_2
I1206 14:14:34.808959 19534 net.cpp:367] relu2_2 -> conv2_2 (in-place)
I1206 14:14:34.808970 19534 net.cpp:122] Setting up relu2_2
I1206 14:14:34.808982 19534 net.cpp:129] Top shape: 16 128 112 112 (25690112)
I1206 14:14:34.808992 19534 net.cpp:137] Memory required for data: 1294139584
I1206 14:14:34.809002 19534 layer_factory.hpp:77] Creating layer pool2
I1206 14:14:34.809015 19534 net.cpp:84] Creating Layer pool2
I1206 14:14:34.809025 19534 net.cpp:406] pool2 <- conv2_2
I1206 14:14:34.809037 19534 net.cpp:380] pool2 -> pool2
I1206 14:14:34.809083 19534 net.cpp:122] Setting up pool2
I1206 14:14:34.809096 19534 net.cpp:129] Top shape: 16 128 56 56 (6422528)
I1206 14:14:34.809106 19534 net.cpp:137] Memory required for data: 1319829696
I1206 14:14:34.809116 19534 layer_factory.hpp:77] Creating layer conv3_1
I1206 14:14:34.809131 19534 net.cpp:84] Creating Layer conv3_1
I1206 14:14:34.809141 19534 net.cpp:406] conv3_1 <- pool2
I1206 14:14:34.809154 19534 net.cpp:380] conv3_1 -> conv3_1
I1206 14:14:34.813845 19534 net.cpp:122] Setting up conv3_1
I1206 14:14:34.813905 19534 net.cpp:129] Top shape: 16 256 56 56 (12845056)
I1206 14:14:34.813916 19534 net.cpp:137] Memory required for data: 1371209920
I1206 14:14:34.814072 19534 layer_factory.hpp:77] Creating layer relu3_1
I1206 14:14:34.814091 19534 net.cpp:84] Creating Layer relu3_1
I1206 14:14:34.814149 19534 net.cpp:406] relu3_1 <- conv3_1
I1206 14:14:34.814163 19534 net.cpp:367] relu3_1 -> conv3_1 (in-place)
I1206 14:14:34.814178 19534 net.cpp:122] Setting up relu3_1
I1206 14:14:34.814232 19534 net.cpp:129] Top shape: 16 256 56 56 (12845056)
I1206 14:14:34.814242 19534 net.cpp:137] Memory required for data: 1422590144
I1206 14:14:34.814252 19534 layer_factory.hpp:77] Creating layer conv3_2
I1206 14:14:34.814304 19534 net.cpp:84] Creating Layer conv3_2
I1206 14:14:34.814316 19534 net.cpp:406] conv3_2 <- conv3_1
I1206 14:14:34.814328 19534 net.cpp:380] conv3_2 -> conv3_2
I1206 14:14:34.821305 19534 net.cpp:122] Setting up conv3_2
I1206 14:14:34.821357 19534 net.cpp:129] Top shape: 16 256 56 56 (12845056)
I1206 14:14:34.821369 19534 net.cpp:137] Memory required for data: 1473970368
I1206 14:14:34.821388 19534 layer_factory.hpp:77] Creating layer relu3_2
I1206 14:14:34.821429 19534 net.cpp:84] Creating Layer relu3_2
I1206 14:14:34.821440 19534 net.cpp:406] relu3_2 <- conv3_2
I1206 14:14:34.821455 19534 net.cpp:367] relu3_2 -> conv3_2 (in-place)
I1206 14:14:34.821470 19534 net.cpp:122] Setting up relu3_2
I1206 14:14:34.821506 19534 net.cpp:129] Top shape: 16 256 56 56 (12845056)
I1206 14:14:34.821517 19534 net.cpp:137] Memory required for data: 1525350592
I1206 14:14:34.821528 19534 layer_factory.hpp:77] Creating layer conv3_3
I1206 14:14:34.821548 19534 net.cpp:84] Creating Layer conv3_3
I1206 14:14:34.821583 19534 net.cpp:406] conv3_3 <- conv3_2
I1206 14:14:34.821599 19534 net.cpp:380] conv3_3 -> conv3_3
I1206 14:14:34.830155 19534 net.cpp:122] Setting up conv3_3
I1206 14:14:34.830181 19534 net.cpp:129] Top shape: 16 256 56 56 (12845056)
I1206 14:14:34.830193 19534 net.cpp:137] Memory required for data: 1576730816
I1206 14:14:34.830207 19534 layer_factory.hpp:77] Creating layer relu3_3
I1206 14:14:34.830224 19534 net.cpp:84] Creating Layer relu3_3
I1206 14:14:34.830235 19534 net.cpp:406] relu3_3 <- conv3_3
I1206 14:14:34.830250 19534 net.cpp:367] relu3_3 -> conv3_3 (in-place)
I1206 14:14:34.830265 19534 net.cpp:122] Setting up relu3_3
I1206 14:14:34.830277 19534 net.cpp:129] Top shape: 16 256 56 56 (12845056)
I1206 14:14:34.830288 19534 net.cpp:137] Memory required for data: 1628111040
I1206 14:14:34.830299 19534 layer_factory.hpp:77] Creating layer pool3
I1206 14:14:34.830313 19534 net.cpp:84] Creating Layer pool3
I1206 14:14:34.830323 19534 net.cpp:406] pool3 <- conv3_3
I1206 14:14:34.830338 19534 net.cpp:380] pool3 -> pool3
I1206 14:14:34.830385 19534 net.cpp:122] Setting up pool3
I1206 14:14:34.830402 19534 net.cpp:129] Top shape: 16 256 28 28 (3211264)
I1206 14:14:34.830415 19534 net.cpp:137] Memory required for data: 1640956096
I1206 14:14:34.830425 19534 layer_factory.hpp:77] Creating layer conv4_1
I1206 14:14:34.830443 19534 net.cpp:84] Creating Layer conv4_1
I1206 14:14:34.830456 19534 net.cpp:406] conv4_1 <- pool3
I1206 14:14:34.830469 19534 net.cpp:380] conv4_1 -> conv4_1
I1206 14:14:34.846820 19534 net.cpp:122] Setting up conv4_1
I1206 14:14:34.846846 19534 net.cpp:129] Top shape: 16 512 28 28 (6422528)
I1206 14:14:34.846858 19534 net.cpp:137] Memory required for data: 1666646208
I1206 14:14:34.846873 19534 layer_factory.hpp:77] Creating layer relu4_1
I1206 14:14:34.846889 19534 net.cpp:84] Creating Layer relu4_1
I1206 14:14:34.846899 19534 net.cpp:406] relu4_1 <- conv4_1
I1206 14:14:34.846915 19534 net.cpp:367] relu4_1 -> conv4_1 (in-place)
I1206 14:14:34.846930 19534 net.cpp:122] Setting up relu4_1
I1206 14:14:34.846942 19534 net.cpp:129] Top shape: 16 512 28 28 (6422528)
I1206 14:14:34.846952 19534 net.cpp:137] Memory required for data: 1692336320
I1206 14:14:34.846963 19534 layer_factory.hpp:77] Creating layer conv4_2
I1206 14:14:34.846981 19534 net.cpp:84] Creating Layer conv4_2
I1206 14:14:34.846990 19534 net.cpp:406] conv4_2 <- conv4_1
I1206 14:14:34.847005 19534 net.cpp:380] conv4_2 -> conv4_2
I1206 14:14:34.880514 19534 net.cpp:122] Setting up conv4_2
I1206 14:14:34.880551 19534 net.cpp:129] Top shape: 16 512 28 28 (6422528)
I1206 14:14:34.880625 19534 net.cpp:137] Memory required for data: 1718026432
I1206 14:14:34.880648 19534 layer_factory.hpp:77] Creating layer relu4_2
I1206 14:14:34.880669 19534 net.cpp:84] Creating Layer relu4_2
I1206 14:14:34.880682 19534 net.cpp:406] relu4_2 <- conv4_2
I1206 14:14:34.880697 19534 net.cpp:367] relu4_2 -> conv4_2 (in-place)
I1206 14:14:34.880715 19534 net.cpp:122] Setting up relu4_2
I1206 14:14:34.880754 19534 net.cpp:129] Top shape: 16 512 28 28 (6422528)
I1206 14:14:34.880765 19534 net.cpp:137] Memory required for data: 1743716544
I1206 14:14:34.880776 19534 layer_factory.hpp:77] Creating layer conv4_3
I1206 14:14:34.880797 19534 net.cpp:84] Creating Layer conv4_3
I1206 14:14:34.880834 19534 net.cpp:406] conv4_3 <- conv4_2
I1206 14:14:34.880849 19534 net.cpp:380] conv4_3 -> conv4_3
I1206 14:14:34.924368 19534 net.cpp:122] Setting up conv4_3
I1206 14:14:34.924521 19534 net.cpp:129] Top shape: 16 512 28 28 (6422528)
I1206 14:14:34.924598 19534 net.cpp:137] Memory required for data: 1769406656
I1206 14:14:34.924664 19534 layer_factory.hpp:77] Creating layer relu4_3
I1206 14:14:34.924685 19534 net.cpp:84] Creating Layer relu4_3
I1206 14:14:34.924748 19534 net.cpp:406] relu4_3 <- conv4_3
I1206 14:14:34.924764 19534 net.cpp:367] relu4_3 -> conv4_3 (in-place)
I1206 14:14:34.924830 19534 net.cpp:122] Setting up relu4_3
I1206 14:14:34.924844 19534 net.cpp:129] Top shape: 16 512 28 28 (6422528)
I1206 14:14:34.924854 19534 net.cpp:137] Memory required for data: 1795096768
I1206 14:14:34.924917 19534 layer_factory.hpp:77] Creating layer pool4
I1206 14:14:34.924932 19534 net.cpp:84] Creating Layer pool4
I1206 14:14:34.924995 19534 net.cpp:406] pool4 <- conv4_3
I1206 14:14:34.925009 19534 net.cpp:380] pool4 -> pool4
I1206 14:14:34.925256 19534 net.cpp:122] Setting up pool4
I1206 14:14:34.925313 19534 net.cpp:129] Top shape: 16 512 14 14 (1605632)
I1206 14:14:34.925325 19534 net.cpp:137] Memory required for data: 1801519296
I1206 14:14:34.925336 19534 layer_factory.hpp:77] Creating layer conv5_1
I1206 14:14:34.925417 19534 net.cpp:84] Creating Layer conv5_1
I1206 14:14:34.925475 19534 net.cpp:406] conv5_1 <- pool4
I1206 14:14:34.925494 19534 net.cpp:380] conv5_1 -> conv5_1
I1206 14:14:34.967082 19534 net.cpp:122] Setting up conv5_1
I1206 14:14:34.967144 19534 net.cpp:129] Top shape: 16 512 14 14 (1605632)
I1206 14:14:34.967156 19534 net.cpp:137] Memory required for data: 1807941824
I1206 14:14:34.967172 19534 layer_factory.hpp:77] Creating layer relu5_1
I1206 14:14:34.967216 19534 net.cpp:84] Creating Layer relu5_1
I1206 14:14:34.967231 19534 net.cpp:406] relu5_1 <- conv5_1
I1206 14:14:34.967247 19534 net.cpp:367] relu5_1 -> conv5_1 (in-place)
I1206 14:14:34.967288 19534 net.cpp:122] Setting up relu5_1
I1206 14:14:34.967300 19534 net.cpp:129] Top shape: 16 512 14 14 (1605632)
I1206 14:14:34.967311 19534 net.cpp:137] Memory required for data: 1814364352
I1206 14:14:34.967322 19534 layer_factory.hpp:77] Creating layer conv5_2
I1206 14:14:34.967365 19534 net.cpp:84] Creating Layer conv5_2
I1206 14:14:34.967377 19534 net.cpp:406] conv5_2 <- conv5_1
I1206 14:14:34.967391 19534 net.cpp:380] conv5_2 -> conv5_2
I1206 14:14:34.994673 19534 net.cpp:122] Setting up conv5_2
I1206 14:14:34.994699 19534 net.cpp:129] Top shape: 16 512 14 14 (1605632)
I1206 14:14:34.994710 19534 net.cpp:137] Memory required for data: 1820786880
I1206 14:14:34.994726 19534 layer_factory.hpp:77] Creating layer relu5_2
I1206 14:14:34.994745 19534 net.cpp:84] Creating Layer relu5_2
I1206 14:14:34.994756 19534 net.cpp:406] relu5_2 <- conv5_2
I1206 14:14:34.994770 19534 net.cpp:367] relu5_2 -> conv5_2 (in-place)
I1206 14:14:34.994786 19534 net.cpp:122] Setting up relu5_2
I1206 14:14:34.994799 19534 net.cpp:129] Top shape: 16 512 14 14 (1605632)
I1206 14:14:34.994809 19534 net.cpp:137] Memory required for data: 1827209408
I1206 14:14:34.994819 19534 layer_factory.hpp:77] Creating layer conv5_3
I1206 14:14:34.994839 19534 net.cpp:84] Creating Layer conv5_3
I1206 14:14:34.994851 19534 net.cpp:406] conv5_3 <- conv5_2
I1206 14:14:34.994868 19534 net.cpp:380] conv5_3 -> conv5_3
I1206 14:14:35.021201 19534 net.cpp:122] Setting up conv5_3
I1206 14:14:35.021229 19534 net.cpp:129] Top shape: 16 512 14 14 (1605632)
I1206 14:14:35.021240 19534 net.cpp:137] Memory required for data: 1833631936
I1206 14:14:35.021255 19534 layer_factory.hpp:77] Creating layer relu5_3
I1206 14:14:35.021270 19534 net.cpp:84] Creating Layer relu5_3
I1206 14:14:35.021281 19534 net.cpp:406] relu5_3 <- conv5_3
I1206 14:14:35.021294 19534 net.cpp:367] relu5_3 -> conv5_3 (in-place)
I1206 14:14:35.021309 19534 net.cpp:122] Setting up relu5_3
I1206 14:14:35.021322 19534 net.cpp:129] Top shape: 16 512 14 14 (1605632)
I1206 14:14:35.021332 19534 net.cpp:137] Memory required for data: 1840054464
I1206 14:14:35.021344 19534 layer_factory.hpp:77] Creating layer pool5
I1206 14:14:35.021370 19534 net.cpp:84] Creating Layer pool5
I1206 14:14:35.021389 19534 net.cpp:406] pool5 <- conv5_3
I1206 14:14:35.021404 19534 net.cpp:380] pool5 -> pool5
I1206 14:14:35.021457 19534 net.cpp:122] Setting up pool5
I1206 14:14:35.021476 19534 net.cpp:129] Top shape: 16 512 7 7 (401408)
I1206 14:14:35.021486 19534 net.cpp:137] Memory required for data: 1841660096
I1206 14:14:35.021497 19534 layer_factory.hpp:77] Creating layer fc6
I1206 14:14:35.021515 19534 net.cpp:84] Creating Layer fc6
I1206 14:14:35.021528 19534 net.cpp:406] fc6 <- pool5
I1206 14:14:35.021540 19534 net.cpp:380] fc6 -> fc6
I1206 14:14:36.172921 19534 net.cpp:122] Setting up fc6
I1206 14:14:36.172966 19534 net.cpp:129] Top shape: 16 4096 (65536)
I1206 14:14:36.172979 19534 net.cpp:137] Memory required for data: 1841922240
I1206 14:14:36.172998 19534 layer_factory.hpp:77] Creating layer relu6
I1206 14:14:36.173018 19534 net.cpp:84] Creating Layer relu6
I1206 14:14:36.173032 19534 net.cpp:406] relu6 <- fc6
I1206 14:14:36.173048 19534 net.cpp:367] relu6 -> fc6 (in-place)
I1206 14:14:36.173066 19534 net.cpp:122] Setting up relu6
I1206 14:14:36.173079 19534 net.cpp:129] Top shape: 16 4096 (65536)
I1206 14:14:36.173089 19534 net.cpp:137] Memory required for data: 1842184384
I1206 14:14:36.173100 19534 layer_factory.hpp:77] Creating layer drop6
I1206 14:14:36.173115 19534 net.cpp:84] Creating Layer drop6
I1206 14:14:36.173126 19534 net.cpp:406] drop6 <- fc6
I1206 14:14:36.173138 19534 net.cpp:367] drop6 -> fc6 (in-place)
I1206 14:14:36.173178 19534 net.cpp:122] Setting up drop6
I1206 14:14:36.173197 19534 net.cpp:129] Top shape: 16 4096 (65536)
I1206 14:14:36.173207 19534 net.cpp:137] Memory required for data: 1842446528
I1206 14:14:36.173218 19534 layer_factory.hpp:77] Creating layer fc7
I1206 14:14:36.173234 19534 net.cpp:84] Creating Layer fc7
I1206 14:14:36.173245 19534 net.cpp:406] fc7 <- fc6
I1206 14:14:36.173259 19534 net.cpp:380] fc7 -> fc7
I1206 14:14:36.361889 19534 net.cpp:122] Setting up fc7
I1206 14:14:36.361937 19534 net.cpp:129] Top shape: 16 4096 (65536)
I1206 14:14:36.361949 19534 net.cpp:137] Memory required for data: 1842708672
I1206 14:14:36.361968 19534 layer_factory.hpp:77] Creating layer relu7
I1206 14:14:36.361989 19534 net.cpp:84] Creating Layer relu7
I1206 14:14:36.362001 19534 net.cpp:406] relu7 <- fc7
I1206 14:14:36.362020 19534 net.cpp:367] relu7 -> fc7 (in-place)
I1206 14:14:36.362038 19534 net.cpp:122] Setting up relu7
I1206 14:14:36.362051 19534 net.cpp:129] Top shape: 16 4096 (65536)
I1206 14:14:36.362061 19534 net.cpp:137] Memory required for data: 1842970816
I1206 14:14:36.362071 19534 layer_factory.hpp:77] Creating layer drop7
I1206 14:14:36.362095 19534 net.cpp:84] Creating Layer drop7
I1206 14:14:36.362105 19534 net.cpp:406] drop7 <- fc7
I1206 14:14:36.362120 19534 net.cpp:367] drop7 -> fc7 (in-place)
I1206 14:14:36.362160 19534 net.cpp:122] Setting up drop7
I1206 14:14:36.362174 19534 net.cpp:129] Top shape: 16 4096 (65536)
I1206 14:14:36.362185 19534 net.cpp:137] Memory required for data: 1843232960
I1206 14:14:36.362195 19534 layer_factory.hpp:77] Creating layer fc_scv_pretty
I1206 14:14:36.362215 19534 net.cpp:84] Creating Layer fc_scv_pretty
I1206 14:14:36.362226 19534 net.cpp:406] fc_scv_pretty <- fc7
I1206 14:14:36.362239 19534 net.cpp:380] fc_scv_pretty -> fc_scv_pretty
I1206 14:14:36.362380 19534 net.cpp:122] Setting up fc_scv_pretty
I1206 14:14:36.362398 19534 net.cpp:129] Top shape: 16 1 (16)
I1206 14:14:36.362409 19534 net.cpp:137] Memory required for data: 1843233024
I1206 14:14:36.362423 19534 layer_factory.hpp:77] Creating layer fc_scv_pretty_fc_scv_pretty_0_split
I1206 14:14:36.362437 19534 net.cpp:84] Creating Layer fc_scv_pretty_fc_scv_pretty_0_split
I1206 14:14:36.362448 19534 net.cpp:406] fc_scv_pretty_fc_scv_pretty_0_split <- fc_scv_pretty
I1206 14:14:36.362463 19534 net.cpp:380] fc_scv_pretty_fc_scv_pretty_0_split -> fc_scv_pretty_fc_scv_pretty_0_split_0
I1206 14:14:36.362478 19534 net.cpp:380] fc_scv_pretty_fc_scv_pretty_0_split -> fc_scv_pretty_fc_scv_pretty_0_split_1
I1206 14:14:36.362524 19534 net.cpp:122] Setting up fc_scv_pretty_fc_scv_pretty_0_split
I1206 14:14:36.362547 19534 net.cpp:129] Top shape: 16 1 (16)
I1206 14:14:36.362560 19534 net.cpp:129] Top shape: 16 1 (16)
I1206 14:14:36.362570 19534 net.cpp:137] Memory required for data: 1843233152
I1206 14:14:36.362581 19534 layer_factory.hpp:77] Creating layer loss
I1206 14:14:36.362596 19534 net.cpp:84] Creating Layer loss
I1206 14:14:36.362606 19534 net.cpp:406] loss <- fc_scv_pretty_fc_scv_pretty_0_split_0
I1206 14:14:36.362618 19534 net.cpp:406] loss <- label_data_1_split_0
I1206 14:14:36.362632 19534 net.cpp:380] loss -> loss
…
