…
I1205 19:20:53.948555 17869 net.cpp:294] The NetState phase (0) differed from the phase (1) specified by a rule in layer losttest
I1205 19:20:53.949051 17869 net.cpp:51] Initializing net from parameters: 
name: "VGG-Places365-SCV-Preserved"
state {
  phase: TRAIN
  level: 0
  stage: ""
}
layer {
  name: "data"
  type: "Data"
  top: "data"
  top: "label"
  include {
    phase: TRAIN
  }
  transform_param {
    mirror: true
    crop_size: 224
    mean_file: "/idiap/temp/lmedina/fine-tuning/vgg16_places365/places365CNN_mean.binaryproto"
  }
  data_param {
    source: "/idiap/temp/lmedina/fine-tuning/data/Preserved/train_lmdb"
    batch_size: 16
    backend: LMDB
  }
}
layer {
  name: "conv1_1"
  type: "Convolution"
  bottom: "data"
  top: "conv1_1"
  param {
    lr_mult: 1
    decay_mult: 1
  }
  param {
    lr_mult: 2
    decay_mult: 0
  }
  convolution_param {
    num_output: 64
    pad: 1
    kernel_size: 3
    weight_filler {
      type: "gaussian"
      std: 0.01
    }
    bias_filler {
      type: "constant"
      value: 0
    }
  }
}
layer {
  name: "relu1_1"
  type: "ReLU"
  bottom: "conv1_1"
  top: "conv1_1"
}
layer {
  name: "conv1_2"
  type: "Convolution"
  bottom: "conv1_1"
  top: "conv1_2"
  param {
    lr_mult: 1
    decay_mult: 1
  }
  param {
    lr_mult: 2
    decay_mult: 0
  }
  convolution_param {
    num_output: 64
    pad: 1
    kernel_size: 3
    weight_filler {
      type: "gaussian"
      std: 0.01
    }
    bias_filler {
      type: "constant"
      value: 0
    }
  }
}
layer {
  name: "relu1_2"
  type: "ReLU"
  bottom: "conv1_2"
  top: "conv1_2"
}
layer {
  name: "pool1"
  type: "Pooling"
  bottom: "conv1_2"
  top: "pool1"
  pooling_param {
    pool: MAX
    kernel_size: 2
    stride: 2
  }
}
layer {
  name: "conv2_1"
  type: "Convolution"
  bottom: "pool1"
  top: "conv2_1"
  param {
    lr_mult: 1
    decay_mult: 1
  }
  param {
    lr_mult: 2
    decay_mult: 0
  }
  convolution_param {
    num_output: 128
    pad: 1
    kernel_size: 3
    weight_filler {
      type: "gaussian"
      std: 0.01
    }
    bias_filler {
      type: "constant"
      value: 0
    }
  }
}
layer {
  name: "relu2_1"
  type: "ReLU"
  bottom: "conv2_1"
  top: "conv2_1"
}
layer {
  name: "conv2_2"
  type: "Convolution"
  bottom: "conv2_1"
  top: "conv2_2"
  param {
    lr_mult: 1
    decay_mult: 1
  }
  param {
    lr_mult: 2
    decay_mult: 0
  }
  convolution_param {
    num_output: 128
    pad: 1
    kernel_size: 3
    weight_filler {
      type: "gaussian"
      std: 0.01
    }
    bias_filler {
      type: "constant"
      value: 0
    }
  }
}
layer {
  name: "relu2_2"
  type: "ReLU"
  bottom: "conv2_2"
  top: "conv2_2"
}
layer {
  name: "pool2"
  type: "Pooling"
  bottom: "conv2_2"
  top: "pool2"
  pooling_param {
    pool: MAX
    kernel_size: 2
    stride: 2
  }
}
layer {
  name: "conv3_1"
  type: "Convolution"
  bottom: "pool2"
  top: "conv3_1"
  param {
    lr_mult: 1
    decay_mult: 1
  }
  param {
    lr_mult: 2
    decay_mult: 0
  }
  convolution_param {
    num_output: 256
    pad: 1
    kernel_size: 3
    weight_filler {
      type: "gaussian"
      std: 0.01
    }
    bias_filler {
      type: "constant"
      value: 0
    }
  }
}
layer {
  name: "relu3_1"
  type: "ReLU"
  bottom: "conv3_1"
  top: "conv3_1"
}
layer {
  name: "conv3_2"
  type: "Convolution"
  bottom: "conv3_1"
  top: "conv3_2"
  param {
    lr_mult: 1
    decay_mult: 1
  }
  param {
    lr_mult: 2
    decay_mult: 0
  }
  convolution_param {
    num_output: 256
    pad: 1
    kernel_size: 3
    weight_filler {
      type: "gaussian"
      std: 0.01
    }
    bias_filler {
      type: "constant"
      value: 0
    }
  }
}
layer {
  name: "relu3_2"
  type: "ReLU"
  bottom: "conv3_2"
  top: "conv3_2"
}
layer {
  name: "conv3_3"
  type: "Convolution"
  bottom: "conv3_2"
  top: "conv3_3"
  param {
    lr_mult: 1
    decay_mult: 1
  }
  param {
    lr_mult: 2
    decay_mult: 0
  }
  convolution_param {
    num_output: 256
    pad: 1
    kernel_size: 3
    weight_filler {
      type: "gaussian"
      std: 0.01
    }
    bias_filler {
      type: "constant"
      value: 0
    }
  }
}
layer {
  name: "relu3_3"
  type: "ReLU"
  bottom: "conv3_3"
  top: "conv3_3"
}
layer {
  name: "pool3"
  type: "Pooling"
  bottom: "conv3_3"
  top: "pool3"
  pooling_param {
    pool: MAX
    kernel_size: 2
    stride: 2
  }
}
layer {
  name: "conv4_1"
  type: "Convolution"
  bottom: "pool3"
  top: "conv4_1"
  param {
    lr_mult: 1
    decay_mult: 1
  }
  param {
    lr_mult: 2
    decay_mult: 0
  }
  convolution_param {
    num_output: 512
    pad: 1
    kernel_size: 3
    weight_filler {
      type: "gaussian"
      std: 0.01
    }
    bias_filler {
      type: "constant"
      value: 0
    }
  }
}
layer {
  name: "relu4_1"
  type: "ReLU"
  bottom: "conv4_1"
  top: "conv4_1"
}
layer {
  name: "conv4_2"
  type: "Convolution"
  bottom: "conv4_1"
  top: "conv4_2"
  param {
    lr_mult: 1
    decay_mult: 1
  }
  param {
    lr_mult: 2
    decay_mult: 0
  }
  convolution_param {
    num_output: 512
    pad: 1
    kernel_size: 3
    weight_filler {
      type: "gaussian"
      std: 0.01
    }
    bias_filler {
      type: "constant"
      value: 0
    }
  }
}
layer {
  name: "relu4_2"
  type: "ReLU"
  bottom: "conv4_2"
  top: "conv4_2"
}
layer {
  name: "conv4_3"
  type: "Convolution"
  bottom: "conv4_2"
  top: "conv4_3"
  param {
    lr_mult: 1
    decay_mult: 1
  }
  param {
    lr_mult: 2
    decay_mult: 0
  }
  convolution_param {
    num_output: 512
    pad: 1
    kernel_size: 3
    weight_filler {
      type: "gaussian"
      std: 0.01
    }
    bias_filler {
      type: "constant"
      value: 0
    }
  }
}
layer {
  name: "relu4_3"
  type: "ReLU"
  bottom: "conv4_3"
  top: "conv4_3"
}
layer {
  name: "pool4"
  type: "Pooling"
  bottom: "conv4_3"
  top: "pool4"
  pooling_param {
    pool: MAX
    kernel_size: 2
    stride: 2
  }
}
layer {
  name: "conv5_1"
  type: "Convolution"
  bottom: "pool4"
  top: "conv5_1"
  param {
    lr_mult: 1
    decay_mult: 1
  }
  param {
    lr_mult: 2
    decay_mult: 0
  }
  convolution_param {
    num_output: 512
    pad: 1
    kernel_size: 3
    weight_filler {
      type: "gaussian"
      std: 0.01
    }
    bias_filler {
      type: "constant"
      value: 0
    }
  }
}
layer {
  name: "relu5_1"
  type: "ReLU"
  bottom: "conv5_1"
  top: "conv5_1"
}
layer {
  name: "conv5_2"
  type: "Convolution"
  bottom: "conv5_1"
  top: "conv5_2"
  param {
    lr_mult: 1
    decay_mult: 1
  }
  param {
    lr_mult: 2
    decay_mult: 0
  }
  convolution_param {
    num_output: 512
    pad: 1
    kernel_size: 3
    weight_filler {
      type: "gaussian"
      std: 0.01
    }
    bias_filler {
      type: "constant"
      value: 0
    }
  }
}
layer {
  name: "relu5_2"
  type: "ReLU"
  bottom: "conv5_2"
  top: "conv5_2"
}
layer {
  name: "conv5_3"
  type: "Convolution"
  bottom: "conv5_2"
  top: "conv5_3"
  param {
    lr_mult: 1
    decay_mult: 1
  }
  param {
    lr_mult: 2
    decay_mult: 0
  }
  convolution_param {
    num_output: 512
    pad: 1
    kernel_size: 3
    weight_filler {
      type: "gaussian"
      std: 0.01
    }
    bias_filler {
      type: "constant"
      value: 0
    }
  }
}
layer {
  name: "relu5_3"
  type: "ReLU"
  bottom: "conv5_3"
  top: "conv5_3"
}
layer {
  name: "pool5"
  type: "Pooling"
  bottom: "conv5_3"
  top: "pool5"
  pooling_param {
    pool: MAX
    kernel_size: 2
    stride: 2
  }
}
layer {
  name: "fc6"
  type: "InnerProduct"
  bottom: "pool5"
  top: "fc6"
  param {
    lr_mult: 1
    decay_mult: 1
  }
  param {
    lr_mult: 2
    decay_mult: 0
  }
  inner_product_param {
    num_output: 4096
    weight_filler {
      type: "gaussian"
      std: 0.01
    }
    bias_filler {
      type: "constant"
      value: 0
    }
  }
}
layer {
  name: "relu6"
  type: "ReLU"
  bottom: "fc6"
  top: "fc6"
}
layer {
  name: "drop6"
  type: "Dropout"
  bottom: "fc6"
  top: "fc6"
  dropout_param {
    dropout_ratio: 0.5
  }
}
layer {
  name: "fc7"
  type: "InnerProduct"
  bottom: "fc6"
  top: "fc7"
  param {
    lr_mult: 1
    decay_mult: 1
  }
  param {
    lr_mult: 2
    decay_mult: 0
  }
  inner_product_param {
    num_output: 4096
    weight_filler {
      type: "gaussian"
      std: 0.01
    }
    bias_filler {
      type: "constant"
      value: 0
    }
  }
}
layer {
  name: "relu7"
  type: "ReLU"
  bottom: "fc7"
  top: "fc7"
}
layer {
  name: "drop7"
  type: "Dropout"
  bottom: "fc7"
  top: "fc7"
  dropout_param {
    dropout_ratio: 0.5
  }
}
layer {
  name: "fc_scv_preserved"
  type: "InnerProduct"
  bottom: "fc7"
  top: "fc_scv_preserved"
  param {
    lr_mult: 10
    decay_mult: 1
  }
  param {
    lr_mult: 20
    decay_mult: 0
  }
  inner_product_param {
    num_output: 1
    weight_filler {
      type: "xavier"
      std: 0.01
    }
    bias_filler {
      type: "constant"
      value: 0
    }
  }
}
layer {
  name: "loss"
  type: "EuclideanLoss"
  bottom: "fc_scv_preserved"
  bottom: "label"
  top: "loss"
}
I1205 19:20:53.949497 17869 layer_factory.hpp:77] Creating layer data
I1205 19:20:53.976048 17869 db_lmdb.cpp:35] Opened lmdb /idiap/temp/lmedina/fine-tuning/data/Preserved/train_lmdb
I1205 19:20:53.992291 17869 net.cpp:84] Creating Layer data
I1205 19:20:53.992450 17869 net.cpp:380] data -> data
I1205 19:20:53.992610 17869 net.cpp:380] data -> label
I1205 19:20:53.992729 17869 data_transformer.cpp:25] Loading mean file from: /idiap/temp/lmedina/fine-tuning/vgg16_places365/places365CNN_mean.binaryproto
I1205 19:20:54.016147 17869 data_layer.cpp:45] output data size: 16,3,224,224
I1205 19:20:54.047530 17869 net.cpp:122] Setting up data
I1205 19:20:54.047591 17869 net.cpp:129] Top shape: 16 3 224 224 (2408448)
I1205 19:20:54.047611 17869 net.cpp:129] Top shape: 16 (16)
I1205 19:20:54.047626 17869 net.cpp:137] Memory required for data: 9633856
I1205 19:20:54.047649 17869 layer_factory.hpp:77] Creating layer conv1_1
I1205 19:20:54.047691 17869 net.cpp:84] Creating Layer conv1_1
I1205 19:20:54.047708 17869 net.cpp:406] conv1_1 <- data
I1205 19:20:54.047736 17869 net.cpp:380] conv1_1 -> conv1_1
I1205 19:20:54.049589 17869 net.cpp:122] Setting up conv1_1
I1205 19:20:54.049619 17869 net.cpp:129] Top shape: 16 64 224 224 (51380224)
I1205 19:20:54.049634 17869 net.cpp:137] Memory required for data: 215154752
I1205 19:20:54.049664 17869 layer_factory.hpp:77] Creating layer relu1_1
I1205 19:20:54.049686 17869 net.cpp:84] Creating Layer relu1_1
I1205 19:20:54.049701 17869 net.cpp:406] relu1_1 <- conv1_1
I1205 19:20:54.049720 17869 net.cpp:367] relu1_1 -> conv1_1 (in-place)
I1205 19:20:54.049741 17869 net.cpp:122] Setting up relu1_1
I1205 19:20:54.049757 17869 net.cpp:129] Top shape: 16 64 224 224 (51380224)
I1205 19:20:54.049772 17869 net.cpp:137] Memory required for data: 420675648
I1205 19:20:54.049785 17869 layer_factory.hpp:77] Creating layer conv1_2
I1205 19:20:54.049808 17869 net.cpp:84] Creating Layer conv1_2
I1205 19:20:54.049821 17869 net.cpp:406] conv1_2 <- conv1_1
I1205 19:20:54.049839 17869 net.cpp:380] conv1_2 -> conv1_2
I1205 19:20:54.051520 17869 net.cpp:122] Setting up conv1_2
I1205 19:20:54.051547 17869 net.cpp:129] Top shape: 16 64 224 224 (51380224)
I1205 19:20:54.051561 17869 net.cpp:137] Memory required for data: 626196544
I1205 19:20:54.051584 17869 layer_factory.hpp:77] Creating layer relu1_2
I1205 19:20:54.051604 17869 net.cpp:84] Creating Layer relu1_2
I1205 19:20:54.051618 17869 net.cpp:406] relu1_2 <- conv1_2
I1205 19:20:54.051641 17869 net.cpp:367] relu1_2 -> conv1_2 (in-place)
I1205 19:20:54.051661 17869 net.cpp:122] Setting up relu1_2
I1205 19:20:54.051676 17869 net.cpp:129] Top shape: 16 64 224 224 (51380224)
I1205 19:20:54.051690 17869 net.cpp:137] Memory required for data: 831717440
I1205 19:20:54.051704 17869 layer_factory.hpp:77] Creating layer pool1
I1205 19:20:54.051724 17869 net.cpp:84] Creating Layer pool1
I1205 19:20:54.051738 17869 net.cpp:406] pool1 <- conv1_2
I1205 19:20:54.051755 17869 net.cpp:380] pool1 -> pool1
I1205 19:20:54.051825 17869 net.cpp:122] Setting up pool1
I1205 19:20:54.051843 17869 net.cpp:129] Top shape: 16 64 112 112 (12845056)
I1205 19:20:54.051857 17869 net.cpp:137] Memory required for data: 883097664
I1205 19:20:54.051872 17869 layer_factory.hpp:77] Creating layer conv2_1
I1205 19:20:54.051892 17869 net.cpp:84] Creating Layer conv2_1
I1205 19:20:54.051908 17869 net.cpp:406] conv2_1 <- pool1
I1205 19:20:54.051925 17869 net.cpp:380] conv2_1 -> conv2_1
I1205 19:20:54.077874 17869 net.cpp:122] Setting up conv2_1
I1205 19:20:54.077920 17869 net.cpp:129] Top shape: 16 128 112 112 (25690112)
I1205 19:20:54.077935 17869 net.cpp:137] Memory required for data: 985858112
I1205 19:20:54.077966 17869 layer_factory.hpp:77] Creating layer relu2_1
I1205 19:20:54.077989 17869 net.cpp:84] Creating Layer relu2_1
I1205 19:20:54.078004 17869 net.cpp:406] relu2_1 <- conv2_1
I1205 19:20:54.078023 17869 net.cpp:367] relu2_1 -> conv2_1 (in-place)
I1205 19:20:54.078047 17869 net.cpp:122] Setting up relu2_1
I1205 19:20:54.078061 17869 net.cpp:129] Top shape: 16 128 112 112 (25690112)
I1205 19:20:54.078074 17869 net.cpp:137] Memory required for data: 1088618560
I1205 19:20:54.078088 17869 layer_factory.hpp:77] Creating layer conv2_2
I1205 19:20:54.078114 17869 net.cpp:84] Creating Layer conv2_2
I1205 19:20:54.078127 17869 net.cpp:406] conv2_2 <- conv2_1
I1205 19:20:54.078143 17869 net.cpp:380] conv2_2 -> conv2_2
I1205 19:20:54.080193 17869 net.cpp:122] Setting up conv2_2
I1205 19:20:54.080214 17869 net.cpp:129] Top shape: 16 128 112 112 (25690112)
I1205 19:20:54.080226 17869 net.cpp:137] Memory required for data: 1191379008
I1205 19:20:54.080242 17869 layer_factory.hpp:77] Creating layer relu2_2
I1205 19:20:54.080260 17869 net.cpp:84] Creating Layer relu2_2
I1205 19:20:54.080273 17869 net.cpp:406] relu2_2 <- conv2_2
I1205 19:20:54.080289 17869 net.cpp:367] relu2_2 -> conv2_2 (in-place)
I1205 19:20:54.080307 17869 net.cpp:122] Setting up relu2_2
I1205 19:20:54.080320 17869 net.cpp:129] Top shape: 16 128 112 112 (25690112)
I1205 19:20:54.080332 17869 net.cpp:137] Memory required for data: 1294139456
I1205 19:20:54.080344 17869 layer_factory.hpp:77] Creating layer pool2
I1205 19:20:54.080361 17869 net.cpp:84] Creating Layer pool2
I1205 19:20:54.080374 17869 net.cpp:406] pool2 <- conv2_2
I1205 19:20:54.080387 17869 net.cpp:380] pool2 -> pool2
I1205 19:20:54.080440 17869 net.cpp:122] Setting up pool2
I1205 19:20:54.080454 17869 net.cpp:129] Top shape: 16 128 56 56 (6422528)
I1205 19:20:54.080466 17869 net.cpp:137] Memory required for data: 1319829568
I1205 19:20:54.080479 17869 layer_factory.hpp:77] Creating layer conv3_1
I1205 19:20:54.080497 17869 net.cpp:84] Creating Layer conv3_1
I1205 19:20:54.080509 17869 net.cpp:406] conv3_1 <- pool2
I1205 19:20:54.080525 17869 net.cpp:380] conv3_1 -> conv3_1
I1205 19:20:54.084864 17869 net.cpp:122] Setting up conv3_1
I1205 19:20:54.084944 17869 net.cpp:129] Top shape: 16 256 56 56 (12845056)
I1205 19:20:54.084959 17869 net.cpp:137] Memory required for data: 1371209792
I1205 19:20:54.084983 17869 layer_factory.hpp:77] Creating layer relu3_1
I1205 19:20:54.085002 17869 net.cpp:84] Creating Layer relu3_1
I1205 19:20:54.085016 17869 net.cpp:406] relu3_1 <- conv3_1
I1205 19:20:54.085031 17869 net.cpp:367] relu3_1 -> conv3_1 (in-place)
I1205 19:20:54.085049 17869 net.cpp:122] Setting up relu3_1
I1205 19:20:54.085063 17869 net.cpp:129] Top shape: 16 256 56 56 (12845056)
I1205 19:20:54.085075 17869 net.cpp:137] Memory required for data: 1422590016
I1205 19:20:54.085093 17869 layer_factory.hpp:77] Creating layer conv3_2
I1205 19:20:54.085114 17869 net.cpp:84] Creating Layer conv3_2
I1205 19:20:54.085125 17869 net.cpp:406] conv3_2 <- conv3_1
I1205 19:20:54.085141 17869 net.cpp:380] conv3_2 -> conv3_2
I1205 19:20:54.093188 17869 net.cpp:122] Setting up conv3_2
I1205 19:20:54.093220 17869 net.cpp:129] Top shape: 16 256 56 56 (12845056)
I1205 19:20:54.093233 17869 net.cpp:137] Memory required for data: 1473970240
I1205 19:20:54.093250 17869 layer_factory.hpp:77] Creating layer relu3_2
I1205 19:20:54.093269 17869 net.cpp:84] Creating Layer relu3_2
I1205 19:20:54.093282 17869 net.cpp:406] relu3_2 <- conv3_2
I1205 19:20:54.093298 17869 net.cpp:367] relu3_2 -> conv3_2 (in-place)
I1205 19:20:54.093376 17869 net.cpp:122] Setting up relu3_2
I1205 19:20:54.093392 17869 net.cpp:129] Top shape: 16 256 56 56 (12845056)
I1205 19:20:54.093403 17869 net.cpp:137] Memory required for data: 1525350464
I1205 19:20:54.093416 17869 layer_factory.hpp:77] Creating layer conv3_3
I1205 19:20:54.093436 17869 net.cpp:84] Creating Layer conv3_3
I1205 19:20:54.093448 17869 net.cpp:406] conv3_3 <- conv3_2
I1205 19:20:54.093464 17869 net.cpp:380] conv3_3 -> conv3_3
I1205 19:20:54.101210 17869 net.cpp:122] Setting up conv3_3
I1205 19:20:54.101241 17869 net.cpp:129] Top shape: 16 256 56 56 (12845056)
I1205 19:20:54.101254 17869 net.cpp:137] Memory required for data: 1576730688
I1205 19:20:54.101271 17869 layer_factory.hpp:77] Creating layer relu3_3
I1205 19:20:54.101294 17869 net.cpp:84] Creating Layer relu3_3
I1205 19:20:54.101347 17869 net.cpp:406] relu3_3 <- conv3_3
I1205 19:20:54.101367 17869 net.cpp:367] relu3_3 -> conv3_3 (in-place)
I1205 19:20:54.101385 17869 net.cpp:122] Setting up relu3_3
I1205 19:20:54.101399 17869 net.cpp:129] Top shape: 16 256 56 56 (12845056)
I1205 19:20:54.101411 17869 net.cpp:137] Memory required for data: 1628110912
I1205 19:20:54.101423 17869 layer_factory.hpp:77] Creating layer pool3
I1205 19:20:54.101439 17869 net.cpp:84] Creating Layer pool3
I1205 19:20:54.101451 17869 net.cpp:406] pool3 <- conv3_3
I1205 19:20:54.101466 17869 net.cpp:380] pool3 -> pool3
I1205 19:20:54.101524 17869 net.cpp:122] Setting up pool3
I1205 19:20:54.101541 17869 net.cpp:129] Top shape: 16 256 28 28 (3211264)
I1205 19:20:54.101552 17869 net.cpp:137] Memory required for data: 1640955968
I1205 19:20:54.101563 17869 layer_factory.hpp:77] Creating layer conv4_1
I1205 19:20:54.101583 17869 net.cpp:84] Creating Layer conv4_1
I1205 19:20:54.101594 17869 net.cpp:406] conv4_1 <- pool3
I1205 19:20:54.101610 17869 net.cpp:380] conv4_1 -> conv4_1
I1205 19:20:54.117511 17869 net.cpp:122] Setting up conv4_1
I1205 19:20:54.117550 17869 net.cpp:129] Top shape: 16 512 28 28 (6422528)
I1205 19:20:54.117563 17869 net.cpp:137] Memory required for data: 1666646080
I1205 19:20:54.117583 17869 layer_factory.hpp:77] Creating layer relu4_1
I1205 19:20:54.117604 17869 net.cpp:84] Creating Layer relu4_1
I1205 19:20:54.117617 17869 net.cpp:406] relu4_1 <- conv4_1
I1205 19:20:54.117635 17869 net.cpp:367] relu4_1 -> conv4_1 (in-place)
I1205 19:20:54.117655 17869 net.cpp:122] Setting up relu4_1
I1205 19:20:54.117669 17869 net.cpp:129] Top shape: 16 512 28 28 (6422528)
I1205 19:20:54.117681 17869 net.cpp:137] Memory required for data: 1692336192
I1205 19:20:54.117692 17869 layer_factory.hpp:77] Creating layer conv4_2
I1205 19:20:54.117712 17869 net.cpp:84] Creating Layer conv4_2
I1205 19:20:54.117724 17869 net.cpp:406] conv4_2 <- conv4_1
I1205 19:20:54.117740 17869 net.cpp:380] conv4_2 -> conv4_2
I1205 19:20:54.148022 17869 net.cpp:122] Setting up conv4_2
I1205 19:20:54.148063 17869 net.cpp:129] Top shape: 16 512 28 28 (6422528)
I1205 19:20:54.148077 17869 net.cpp:137] Memory required for data: 1718026304
I1205 19:20:54.148104 17869 layer_factory.hpp:77] Creating layer relu4_2
I1205 19:20:54.148124 17869 net.cpp:84] Creating Layer relu4_2
I1205 19:20:54.148138 17869 net.cpp:406] relu4_2 <- conv4_2
I1205 19:20:54.148155 17869 net.cpp:367] relu4_2 -> conv4_2 (in-place)
I1205 19:20:54.148175 17869 net.cpp:122] Setting up relu4_2
I1205 19:20:54.148195 17869 net.cpp:129] Top shape: 16 512 28 28 (6422528)
I1205 19:20:54.148207 17869 net.cpp:137] Memory required for data: 1743716416
I1205 19:20:54.148218 17869 layer_factory.hpp:77] Creating layer conv4_3
I1205 19:20:54.148238 17869 net.cpp:84] Creating Layer conv4_3
I1205 19:20:54.148252 17869 net.cpp:406] conv4_3 <- conv4_2
I1205 19:20:54.148267 17869 net.cpp:380] conv4_3 -> conv4_3
I1205 19:20:54.178505 17869 net.cpp:122] Setting up conv4_3
I1205 19:20:54.178552 17869 net.cpp:129] Top shape: 16 512 28 28 (6422528)
I1205 19:20:54.178565 17869 net.cpp:137] Memory required for data: 1769406528
I1205 19:20:54.178586 17869 layer_factory.hpp:77] Creating layer relu4_3
I1205 19:20:54.178609 17869 net.cpp:84] Creating Layer relu4_3
I1205 19:20:54.178627 17869 net.cpp:406] relu4_3 <- conv4_3
I1205 19:20:54.178644 17869 net.cpp:367] relu4_3 -> conv4_3 (in-place)
I1205 19:20:54.178664 17869 net.cpp:122] Setting up relu4_3
I1205 19:20:54.178678 17869 net.cpp:129] Top shape: 16 512 28 28 (6422528)
I1205 19:20:54.178689 17869 net.cpp:137] Memory required for data: 1795096640
I1205 19:20:54.178702 17869 layer_factory.hpp:77] Creating layer pool4
I1205 19:20:54.178719 17869 net.cpp:84] Creating Layer pool4
I1205 19:20:54.178731 17869 net.cpp:406] pool4 <- conv4_3
I1205 19:20:54.178746 17869 net.cpp:380] pool4 -> pool4
I1205 19:20:54.178798 17869 net.cpp:122] Setting up pool4
I1205 19:20:54.178813 17869 net.cpp:129] Top shape: 16 512 14 14 (1605632)
I1205 19:20:54.178825 17869 net.cpp:137] Memory required for data: 1801519168
I1205 19:20:54.178838 17869 layer_factory.hpp:77] Creating layer conv5_1
I1205 19:20:54.178858 17869 net.cpp:84] Creating Layer conv5_1
I1205 19:20:54.178869 17869 net.cpp:406] conv5_1 <- pool4
I1205 19:20:54.178885 17869 net.cpp:380] conv5_1 -> conv5_1
I1205 19:20:54.209355 17869 net.cpp:122] Setting up conv5_1
I1205 19:20:54.209400 17869 net.cpp:129] Top shape: 16 512 14 14 (1605632)
I1205 19:20:54.209414 17869 net.cpp:137] Memory required for data: 1807941696
I1205 19:20:54.209432 17869 layer_factory.hpp:77] Creating layer relu5_1
I1205 19:20:54.209455 17869 net.cpp:84] Creating Layer relu5_1
I1205 19:20:54.209470 17869 net.cpp:406] relu5_1 <- conv5_1
I1205 19:20:54.209486 17869 net.cpp:367] relu5_1 -> conv5_1 (in-place)
I1205 19:20:54.209506 17869 net.cpp:122] Setting up relu5_1
I1205 19:20:54.209519 17869 net.cpp:129] Top shape: 16 512 14 14 (1605632)
I1205 19:20:54.209532 17869 net.cpp:137] Memory required for data: 1814364224
I1205 19:20:54.209543 17869 layer_factory.hpp:77] Creating layer conv5_2
I1205 19:20:54.209563 17869 net.cpp:84] Creating Layer conv5_2
I1205 19:20:54.209575 17869 net.cpp:406] conv5_2 <- conv5_1
I1205 19:20:54.209592 17869 net.cpp:380] conv5_2 -> conv5_2
I1205 19:20:54.239795 17869 net.cpp:122] Setting up conv5_2
I1205 19:20:54.239848 17869 net.cpp:129] Top shape: 16 512 14 14 (1605632)
I1205 19:20:54.239862 17869 net.cpp:137] Memory required for data: 1820786752
I1205 19:20:54.239882 17869 layer_factory.hpp:77] Creating layer relu5_2
I1205 19:20:54.239903 17869 net.cpp:84] Creating Layer relu5_2
I1205 19:20:54.239919 17869 net.cpp:406] relu5_2 <- conv5_2
I1205 19:20:54.239936 17869 net.cpp:367] relu5_2 -> conv5_2 (in-place)
I1205 19:20:54.239959 17869 net.cpp:122] Setting up relu5_2
I1205 19:20:54.239972 17869 net.cpp:129] Top shape: 16 512 14 14 (1605632)
I1205 19:20:54.239984 17869 net.cpp:137] Memory required for data: 1827209280
I1205 19:20:54.239998 17869 layer_factory.hpp:77] Creating layer conv5_3
I1205 19:20:54.240018 17869 net.cpp:84] Creating Layer conv5_3
I1205 19:20:54.240036 17869 net.cpp:406] conv5_3 <- conv5_2
I1205 19:20:54.240052 17869 net.cpp:380] conv5_3 -> conv5_3
I1205 19:20:54.270196 17869 net.cpp:122] Setting up conv5_3
I1205 19:20:54.270246 17869 net.cpp:129] Top shape: 16 512 14 14 (1605632)
I1205 19:20:54.270261 17869 net.cpp:137] Memory required for data: 1833631808
I1205 19:20:54.270280 17869 layer_factory.hpp:77] Creating layer relu5_3
I1205 19:20:54.270301 17869 net.cpp:84] Creating Layer relu5_3
I1205 19:20:54.270316 17869 net.cpp:406] relu5_3 <- conv5_3
I1205 19:20:54.270345 17869 net.cpp:367] relu5_3 -> conv5_3 (in-place)
I1205 19:20:54.270366 17869 net.cpp:122] Setting up relu5_3
I1205 19:20:54.270380 17869 net.cpp:129] Top shape: 16 512 14 14 (1605632)
I1205 19:20:54.270390 17869 net.cpp:137] Memory required for data: 1840054336
I1205 19:20:54.270403 17869 layer_factory.hpp:77] Creating layer pool5
I1205 19:20:54.270421 17869 net.cpp:84] Creating Layer pool5
I1205 19:20:54.270432 17869 net.cpp:406] pool5 <- conv5_3
I1205 19:20:54.270448 17869 net.cpp:380] pool5 -> pool5
I1205 19:20:54.270506 17869 net.cpp:122] Setting up pool5
I1205 19:20:54.270526 17869 net.cpp:129] Top shape: 16 512 7 7 (401408)
I1205 19:20:54.270539 17869 net.cpp:137] Memory required for data: 1841659968
I1205 19:20:54.270550 17869 layer_factory.hpp:77] Creating layer fc6
I1205 19:20:54.270579 17869 net.cpp:84] Creating Layer fc6
I1205 19:20:54.270593 17869 net.cpp:406] fc6 <- pool5
I1205 19:20:54.270609 17869 net.cpp:380] fc6 -> fc6
I1205 19:20:55.454924 17869 net.cpp:122] Setting up fc6
I1205 19:20:55.456234 17869 net.cpp:129] Top shape: 16 4096 (65536)
I1205 19:20:55.456275 17869 net.cpp:137] Memory required for data: 1841922112
I1205 19:20:55.456303 17869 layer_factory.hpp:77] Creating layer relu6
I1205 19:20:55.456334 17869 net.cpp:84] Creating Layer relu6
I1205 19:20:55.456352 17869 net.cpp:406] relu6 <- fc6
I1205 19:20:55.456373 17869 net.cpp:367] relu6 -> fc6 (in-place)
I1205 19:20:55.456401 17869 net.cpp:122] Setting up relu6
I1205 19:20:55.456418 17869 net.cpp:129] Top shape: 16 4096 (65536)
I1205 19:20:55.456430 17869 net.cpp:137] Memory required for data: 1842184256
I1205 19:20:55.456444 17869 layer_factory.hpp:77] Creating layer drop6
I1205 19:20:55.456468 17869 net.cpp:84] Creating Layer drop6
I1205 19:20:55.456483 17869 net.cpp:406] drop6 <- fc6
I1205 19:20:55.456499 17869 net.cpp:367] drop6 -> fc6 (in-place)
I1205 19:20:55.456605 17869 net.cpp:122] Setting up drop6
I1205 19:20:55.456626 17869 net.cpp:129] Top shape: 16 4096 (65536)
I1205 19:20:55.456640 17869 net.cpp:137] Memory required for data: 1842446400
I1205 19:20:55.456655 17869 layer_factory.hpp:77] Creating layer fc7
I1205 19:20:55.456676 17869 net.cpp:84] Creating Layer fc7
I1205 19:20:55.456691 17869 net.cpp:406] fc7 <- fc6
I1205 19:20:55.456709 17869 net.cpp:380] fc7 -> fc7
I1205 19:20:55.695189 17869 net.cpp:122] Setting up fc7
I1205 19:20:55.695241 17869 net.cpp:129] Top shape: 16 4096 (65536)
I1205 19:20:55.695253 17869 net.cpp:137] Memory required for data: 1842708544
I1205 19:20:55.695273 17869 layer_factory.hpp:77] Creating layer relu7
I1205 19:20:55.695294 17869 net.cpp:84] Creating Layer relu7
I1205 19:20:55.695307 17869 net.cpp:406] relu7 <- fc7
I1205 19:20:55.695322 17869 net.cpp:367] relu7 -> fc7 (in-place)
I1205 19:20:55.695340 17869 net.cpp:122] Setting up relu7
I1205 19:20:55.695353 17869 net.cpp:129] Top shape: 16 4096 (65536)
I1205 19:20:55.695363 17869 net.cpp:137] Memory required for data: 1842970688
I1205 19:20:55.695374 17869 layer_factory.hpp:77] Creating layer drop7
I1205 19:20:55.695389 17869 net.cpp:84] Creating Layer drop7
I1205 19:20:55.695399 17869 net.cpp:406] drop7 <- fc7
I1205 19:20:55.695411 17869 net.cpp:367] drop7 -> fc7 (in-place)
I1205 19:20:55.695449 17869 net.cpp:122] Setting up drop7
I1205 19:20:55.695464 17869 net.cpp:129] Top shape: 16 4096 (65536)
I1205 19:20:55.695474 17869 net.cpp:137] Memory required for data: 1843232832
I1205 19:20:55.695484 17869 layer_factory.hpp:77] Creating layer fc_scv_preserved
I1205 19:20:55.695502 17869 net.cpp:84] Creating Layer fc_scv_preserved
I1205 19:20:55.695511 17869 net.cpp:406] fc_scv_preserved <- fc7
I1205 19:20:55.695526 17869 net.cpp:380] fc_scv_preserved -> fc_scv_preserved
I1205 19:20:55.695688 17869 net.cpp:122] Setting up fc_scv_preserved
I1205 19:20:55.695703 17869 net.cpp:129] Top shape: 16 1 (16)
I1205 19:20:55.695713 17869 net.cpp:137] Memory required for data: 1843232896
I1205 19:20:55.695726 17869 layer_factory.hpp:77] Creating layer loss
I1205 19:20:55.695741 17869 net.cpp:84] Creating Layer loss
I1205 19:20:55.695760 17869 net.cpp:406] loss <- fc_scv_preserved
I1205 19:20:55.695772 17869 net.cpp:406] loss <- label
I1205 19:20:55.695787 17869 net.cpp:380] loss -> loss
I1205 19:20:55.695835 17869 net.cpp:122] Setting up loss
…
I1205 19:20:55.697937 17869 net.cpp:294] The NetState phase (1) differed from the phase (0) specified by a rule in layer data
I1205 19:20:55.698206 17869 net.cpp:51] Initializing net from parameters: 
name: "VGG-Places365-SCV-Preserved"
state {
  phase: TEST
}
layer {
  name: "data"
  type: "Data"
  top: "data"
  top: "label"
  include {
    phase: TEST
  }
  transform_param {
    mirror: false
    crop_size: 224
    mean_file: "/idiap/temp/lmedina/fine-tuning/vgg16_places365/places365CNN_mean.binaryproto"
  }
  data_param {
    source: "/idiap/temp/lmedina/fine-tuning/data/Preserved/validation_lmdb"
    batch_size: 16
    backend: LMDB
  }
}
layer {
  name: "conv1_1"
  type: "Convolution"
  bottom: "data"
  top: "conv1_1"
  param {
    lr_mult: 1
    decay_mult: 1
  }
  param {
    lr_mult: 2
    decay_mult: 0
  }
  convolution_param {
    num_output: 64
    pad: 1
    kernel_size: 3
    weight_filler {
      type: "gaussian"
      std: 0.01
    }
    bias_filler {
      type: "constant"
      value: 0
    }
  }
}
layer {
  name: "relu1_1"
  type: "ReLU"
  bottom: "conv1_1"
  top: "conv1_1"
}
layer {
  name: "conv1_2"
  type: "Convolution"
  bottom: "conv1_1"
  top: "conv1_2"
  param {
    lr_mult: 1
    decay_mult: 1
  }
  param {
    lr_mult: 2
    decay_mult: 0
  }
  convolution_param {
    num_output: 64
    pad: 1
    kernel_size: 3
    weight_filler {
      type: "gaussian"
      std: 0.01
    }
    bias_filler {
      type: "constant"
      value: 0
    }
  }
}
layer {
  name: "relu1_2"
  type: "ReLU"
  bottom: "conv1_2"
  top: "conv1_2"
}
layer {
  name: "pool1"
  type: "Pooling"
  bottom: "conv1_2"
  top: "pool1"
  pooling_param {
    pool: MAX
    kernel_size: 2
    stride: 2
  }
}
layer {
  name: "conv2_1"
  type: "Convolution"
  bottom: "pool1"
  top: "conv2_1"
  param {
    lr_mult: 1
    decay_mult: 1
  }
  param {
    lr_mult: 2
    decay_mult: 0
  }
  convolution_param {
    num_output: 128
    pad: 1
    kernel_size: 3
    weight_filler {
      type: "gaussian"
      std: 0.01
    }
    bias_filler {
      type: "constant"
      value: 0
    }
  }
}
layer {
  name: "relu2_1"
  type: "ReLU"
  bottom: "conv2_1"
  top: "conv2_1"
}
layer {
  name: "conv2_2"
  type: "Convolution"
  bottom: "conv2_1"
  top: "conv2_2"
  param {
    lr_mult: 1
    decay_mult: 1
  }
  param {
    lr_mult: 2
    decay_mult: 0
  }
  convolution_param {
    num_output: 128
    pad: 1
    kernel_size: 3
    weight_filler {
      type: "gaussian"
      std: 0.01
    }
    bias_filler {
      type: "constant"
      value: 0
    }
  }
}
layer {
  name: "relu2_2"
  type: "ReLU"
  bottom: "conv2_2"
  top: "conv2_2"
}
layer {
  name: "pool2"
  type: "Pooling"
  bottom: "conv2_2"
  top: "pool2"
  pooling_param {
    pool: MAX
    kernel_size: 2
    stride: 2
  }
}
layer {
  name: "conv3_1"
  type: "Convolution"
  bottom: "pool2"
  top: "conv3_1"
  param {
    lr_mult: 1
    decay_mult: 1
  }
  param {
    lr_mult: 2
    decay_mult: 0
  }
  convolution_param {
    num_output: 256
    pad: 1
    kernel_size: 3
    weight_filler {
      type: "gaussian"
      std: 0.01
    }
    bias_filler {
      type: "constant"
      value: 0
    }
  }
}
layer {
  name: "relu3_1"
  type: "ReLU"
  bottom: "conv3_1"
  top: "conv3_1"
}
layer {
  name: "conv3_2"
  type: "Convolution"
  bottom: "conv3_1"
  top: "conv3_2"
  param {
    lr_mult: 1
    decay_mult: 1
  }
  param {
    lr_mult: 2
    decay_mult: 0
  }
  convolution_param {
    num_output: 256
    pad: 1
    kernel_size: 3
    weight_filler {
      type: "gaussian"
      std: 0.01
    }
    bias_filler {
      type: "constant"
      value: 0
    }
  }
}
layer {
  name: "relu3_2"
  type: "ReLU"
  bottom: "conv3_2"
  top: "conv3_2"
}
layer {
  name: "conv3_3"
  type: "Convolution"
  bottom: "conv3_2"
  top: "conv3_3"
  param {
    lr_mult: 1
    decay_mult: 1
  }
  param {
    lr_mult: 2
    decay_mult: 0
  }
  convolution_param {
    num_output: 256
    pad: 1
    kernel_size: 3
    weight_filler {
      type: "gaussian"
      std: 0.01
    }
    bias_filler {
      type: "constant"
      value: 0
    }
  }
}
layer {
  name: "relu3_3"
  type: "ReLU"
  bottom: "conv3_3"
  top: "conv3_3"
}
layer {
  name: "pool3"
  type: "Pooling"
  bottom: "conv3_3"
  top: "pool3"
  pooling_param {
    pool: MAX
    kernel_size: 2
    stride: 2
  }
}
layer {
  name: "conv4_1"
  type: "Convolution"
  bottom: "pool3"
  top: "conv4_1"
  param {
    lr_mult: 1
    decay_mult: 1
  }
  param {
    lr_mult: 2
    decay_mult: 0
  }
  convolution_param {
    num_output: 512
    pad: 1
    kernel_size: 3
    weight_filler {
      type: "gaussian"
      std: 0.01
    }
    bias_filler {
      type: "constant"
      value: 0
    }
  }
}
layer {
  name: "relu4_1"
  type: "ReLU"
  bottom: "conv4_1"
  top: "conv4_1"
}
layer {
  name: "conv4_2"
  type: "Convolution"
  bottom: "conv4_1"
  top: "conv4_2"
  param {
    lr_mult: 1
    decay_mult: 1
  }
  param {
    lr_mult: 2
    decay_mult: 0
  }
  convolution_param {
    num_output: 512
    pad: 1
    kernel_size: 3
    weight_filler {
      type: "gaussian"
      std: 0.01
    }
    bias_filler {
      type: "constant"
      value: 0
    }
  }
}
layer {
  name: "relu4_2"
  type: "ReLU"
  bottom: "conv4_2"
  top: "conv4_2"
}
layer {
  name: "conv4_3"
  type: "Convolution"
  bottom: "conv4_2"
  top: "conv4_3"
  param {
    lr_mult: 1
    decay_mult: 1
  }
  param {
    lr_mult: 2
    decay_mult: 0
  }
  convolution_param {
    num_output: 512
    pad: 1
    kernel_size: 3
    weight_filler {
      type: "gaussian"
      std: 0.01
    }
    bias_filler {
      type: "constant"
      value: 0
    }
  }
}
layer {
  name: "relu4_3"
  type: "ReLU"
  bottom: "conv4_3"
  top: "conv4_3"
}
layer {
  name: "pool4"
  type: "Pooling"
  bottom: "conv4_3"
  top: "pool4"
  pooling_param {
    pool: MAX
    kernel_size: 2
    stride: 2
  }
}
layer {
  name: "conv5_1"
  type: "Convolution"
  bottom: "pool4"
  top: "conv5_1"
  param {
    lr_mult: 1
    decay_mult: 1
  }
  param {
    lr_mult: 2
    decay_mult: 0
  }
  convolution_param {
    num_output: 512
    pad: 1
    kernel_size: 3
    weight_filler {
      type: "gaussian"
      std: 0.01
    }
    bias_filler {
      type: "constant"
      value: 0
    }
  }
}
layer {
  name: "relu5_1"
  type: "ReLU"
  bottom: "conv5_1"
  top: "conv5_1"
}
layer {
  name: "conv5_2"
  type: "Convolution"
  bottom: "conv5_1"
  top: "conv5_2"
  param {
    lr_mult: 1
    decay_mult: 1
  }
  param {
    lr_mult: 2
    decay_mult: 0
  }
  convolution_param {
    num_output: 512
    pad: 1
    kernel_size: 3
    weight_filler {
      type: "gaussian"
      std: 0.01
    }
    bias_filler {
      type: "constant"
      value: 0
    }
  }
}
layer {
  name: "relu5_2"
  type: "ReLU"
  bottom: "conv5_2"
  top: "conv5_2"
}
layer {
  name: "conv5_3"
  type: "Convolution"
  bottom: "conv5_2"
  top: "conv5_3"
  param {
    lr_mult: 1
    decay_mult: 1
  }
  param {
    lr_mult: 2
    decay_mult: 0
  }
  convolution_param {
    num_output: 512
    pad: 1
    kernel_size: 3
    weight_filler {
      type: "gaussian"
      std: 0.01
    }
    bias_filler {
      type: "constant"
      value: 0
    }
  }
}
layer {
  name: "relu5_3"
  type: "ReLU"
  bottom: "conv5_3"
  top: "conv5_3"
}
layer {
  name: "pool5"
  type: "Pooling"
  bottom: "conv5_3"
  top: "pool5"
  pooling_param {
    pool: MAX
    kernel_size: 2
    stride: 2
  }
}
layer {
  name: "fc6"
  type: "InnerProduct"
  bottom: "pool5"
  top: "fc6"
  param {
    lr_mult: 1
    decay_mult: 1
  }
  param {
    lr_mult: 2
    decay_mult: 0
  }
  inner_product_param {
    num_output: 4096
    weight_filler {
      type: "gaussian"
      std: 0.01
    }
    bias_filler {
      type: "constant"
      value: 0
    }
  }
}
layer {
  name: "relu6"
  type: "ReLU"
  bottom: "fc6"
  top: "fc6"
}
layer {
  name: "drop6"
  type: "Dropout"
  bottom: "fc6"
  top: "fc6"
  dropout_param {
    dropout_ratio: 0.5
  }
}
layer {
  name: "fc7"
  type: "InnerProduct"
  bottom: "fc6"
  top: "fc7"
  param {
    lr_mult: 1
    decay_mult: 1
  }
  param {
    lr_mult: 2
    decay_mult: 0
  }
  inner_product_param {
    num_output: 4096
    weight_filler {
      type: "gaussian"
      std: 0.01
    }
    bias_filler {
      type: "constant"
      value: 0
    }
  }
}
layer {
  name: "relu7"
  type: "ReLU"
  bottom: "fc7"
  top: "fc7"
}
layer {
  name: "drop7"
  type: "Dropout"
  bottom: "fc7"
  top: "fc7"
  dropout_param {
    dropout_ratio: 0.5
  }
}
layer {
  name: "fc_scv_preserved"
  type: "InnerProduct"
  bottom: "fc7"
  top: "fc_scv_preserved"
  param {
    lr_mult: 10
    decay_mult: 1
  }
  param {
    lr_mult: 20
    decay_mult: 0
  }
  inner_product_param {
    num_output: 1
    weight_filler {
      type: "xavier"
      std: 0.01
    }
    bias_filler {
      type: "constant"
      value: 0
    }
  }
}
layer {
  name: "loss"
  type: "EuclideanLoss"
  bottom: "fc_scv_preserved"
  bottom: "label"
  top: "loss"
}
layer {
  name: "losttest"
  type: "EuclideanLoss"
  bottom: "fc_scv_preserved"
  bottom: "label"
  top: "losttest"
  include {
    phase: TEST
  }
}
I1205 19:20:55.698380 17869 layer_factory.hpp:77] Creating layer data
I1205 19:20:55.716220 17869 db_lmdb.cpp:35] Opened lmdb /idiap/temp/lmedina/fine-tuning/data/Preserved/validation_lmdb
I1205 19:20:55.723716 17869 net.cpp:84] Creating Layer data
I1205 19:20:55.723958 17869 net.cpp:380] data -> data
I1205 19:20:55.724205 17869 net.cpp:380] data -> label
I1205 19:20:55.724846 17869 data_transformer.cpp:25] Loading mean file from: /idiap/temp/lmedina/fine-tuning/vgg16_places365/places365CNN_mean.binaryproto
I1205 19:20:55.732600 17869 data_layer.cpp:45] output data size: 16,3,224,224
I1205 19:20:55.775167 17869 net.cpp:122] Setting up data
I1205 19:20:55.775233 17869 net.cpp:129] Top shape: 16 3 224 224 (2408448)
I1205 19:20:55.775260 17869 net.cpp:129] Top shape: 16 (16)
I1205 19:20:55.775282 17869 net.cpp:137] Memory required for data: 9633856
I1205 19:20:55.775308 17869 layer_factory.hpp:77] Creating layer label_data_1_split
I1205 19:20:55.775347 17869 net.cpp:84] Creating Layer label_data_1_split
I1205 19:20:55.775372 17869 net.cpp:406] label_data_1_split <- label
I1205 19:20:55.775401 17869 net.cpp:380] label_data_1_split -> label_data_1_split_0
I1205 19:20:55.775436 17869 net.cpp:380] label_data_1_split -> label_data_1_split_1
I1205 19:20:55.775555 17869 net.cpp:122] Setting up label_data_1_split
I1205 19:20:55.775583 17869 net.cpp:129] Top shape: 16 (16)
I1205 19:20:55.775606 17869 net.cpp:129] Top shape: 16 (16)
I1205 19:20:55.775627 17869 net.cpp:137] Memory required for data: 9633984
I1205 19:20:55.775650 17869 layer_factory.hpp:77] Creating layer conv1_1
I1205 19:20:55.775686 17869 net.cpp:84] Creating Layer conv1_1
I1205 19:20:55.775707 17869 net.cpp:406] conv1_1 <- data
I1205 19:20:55.775735 17869 net.cpp:380] conv1_1 -> conv1_1
I1205 19:20:55.776372 17869 net.cpp:122] Setting up conv1_1
I1205 19:20:55.776408 17869 net.cpp:129] Top shape: 16 64 224 224 (51380224)
I1205 19:20:55.776430 17869 net.cpp:137] Memory required for data: 215154880
I1205 19:20:55.776466 17869 layer_factory.hpp:77] Creating layer relu1_1
I1205 19:20:55.776495 17869 net.cpp:84] Creating Layer relu1_1
I1205 19:20:55.776516 17869 net.cpp:406] relu1_1 <- conv1_1
I1205 19:20:55.776542 17869 net.cpp:367] relu1_1 -> conv1_1 (in-place)
I1205 19:20:55.776569 17869 net.cpp:122] Setting up relu1_1
I1205 19:20:55.776593 17869 net.cpp:129] Top shape: 16 64 224 224 (51380224)
I1205 19:20:55.776614 17869 net.cpp:137] Memory required for data: 420675776
I1205 19:20:55.776636 17869 layer_factory.hpp:77] Creating layer conv1_2
I1205 19:20:55.776669 17869 net.cpp:84] Creating Layer conv1_2
I1205 19:20:55.776690 17869 net.cpp:406] conv1_2 <- conv1_1
I1205 19:20:55.776718 17869 net.cpp:380] conv1_2 -> conv1_2
I1205 19:20:55.780035 17869 net.cpp:122] Setting up conv1_2
I1205 19:20:55.780077 17869 net.cpp:129] Top shape: 16 64 224 224 (51380224)
I1205 19:20:55.780139 17869 net.cpp:137] Memory required for data: 626196672
I1205 19:20:55.780238 17869 layer_factory.hpp:77] Creating layer relu1_2
I1205 19:20:55.780284 17869 net.cpp:84] Creating Layer relu1_2
I1205 19:20:55.780313 17869 net.cpp:406] relu1_2 <- conv1_2
I1205 19:20:55.780356 17869 net.cpp:367] relu1_2 -> conv1_2 (in-place)
I1205 19:20:55.780390 17869 net.cpp:122] Setting up relu1_2
I1205 19:20:55.780432 17869 net.cpp:129] Top shape: 16 64 224 224 (51380224)
I1205 19:20:55.780457 17869 net.cpp:137] Memory required for data: 831717568
I1205 19:20:55.780478 17869 layer_factory.hpp:77] Creating layer pool1
I1205 19:20:55.780539 17869 net.cpp:84] Creating Layer pool1
I1205 19:20:55.780607 17869 net.cpp:406] pool1 <- conv1_2
I1205 19:20:55.780635 17869 net.cpp:380] pool1 -> pool1
I1205 19:20:55.781008 17869 net.cpp:122] Setting up pool1
I1205 19:20:55.781038 17869 net.cpp:129] Top shape: 16 64 112 112 (12845056)
I1205 19:20:55.781108 17869 net.cpp:137] Memory required for data: 883097792
I1205 19:20:55.781167 17869 layer_factory.hpp:77] Creating layer conv2_1
I1205 19:20:55.781440 17869 net.cpp:84] Creating Layer conv2_1
I1205 19:20:55.781512 17869 net.cpp:406] conv2_1 <- pool1
I1205 19:20:55.781607 17869 net.cpp:380] conv2_1 -> conv2_1
I1205 19:20:55.786638 17869 net.cpp:122] Setting up conv2_1
I1205 19:20:55.786685 17869 net.cpp:129] Top shape: 16 128 112 112 (25690112)
I1205 19:20:55.786711 17869 net.cpp:137] Memory required for data: 985858240
I1205 19:20:55.786749 17869 layer_factory.hpp:77] Creating layer relu2_1
I1205 19:20:55.786783 17869 net.cpp:84] Creating Layer relu2_1
I1205 19:20:55.786810 17869 net.cpp:406] relu2_1 <- conv2_1
I1205 19:20:55.786839 17869 net.cpp:367] relu2_1 -> conv2_1 (in-place)
I1205 19:20:55.786871 17869 net.cpp:122] Setting up relu2_1
I1205 19:20:55.786900 17869 net.cpp:129] Top shape: 16 128 112 112 (25690112)
I1205 19:20:55.786923 17869 net.cpp:137] Memory required for data: 1088618688
I1205 19:20:55.786947 17869 layer_factory.hpp:77] Creating layer conv2_2
I1205 19:20:55.786981 17869 net.cpp:84] Creating Layer conv2_2
I1205 19:20:55.787025 17869 net.cpp:406] conv2_2 <- conv2_1
I1205 19:20:55.787058 17869 net.cpp:380] conv2_2 -> conv2_2
I1205 19:20:55.793794 17869 net.cpp:122] Setting up conv2_2
I1205 19:20:55.793874 17869 net.cpp:129] Top shape: 16 128 112 112 (25690112)
I1205 19:20:55.793901 17869 net.cpp:137] Memory required for data: 1191379136
I1205 19:20:55.793964 17869 layer_factory.hpp:77] Creating layer relu2_2
I1205 19:20:55.793995 17869 net.cpp:84] Creating Layer relu2_2
I1205 19:20:55.794057 17869 net.cpp:406] relu2_2 <- conv2_2
I1205 19:20:55.794131 17869 net.cpp:367] relu2_2 -> conv2_2 (in-place)
I1205 19:20:55.794162 17869 net.cpp:122] Setting up relu2_2
I1205 19:20:55.794237 17869 net.cpp:129] Top shape: 16 128 112 112 (25690112)
I1205 19:20:55.794296 17869 net.cpp:137] Memory required for data: 1294139584
I1205 19:20:55.794317 17869 layer_factory.hpp:77] Creating layer pool2
I1205 19:20:55.794462 17869 net.cpp:84] Creating Layer pool2
I1205 19:20:55.794486 17869 net.cpp:406] pool2 <- conv2_2
I1205 19:20:55.794553 17869 net.cpp:380] pool2 -> pool2
I1205 19:20:55.794718 17869 net.cpp:122] Setting up pool2
I1205 19:20:55.794785 17869 net.cpp:129] Top shape: 16 128 56 56 (6422528)
I1205 19:20:55.794806 17869 net.cpp:137] Memory required for data: 1319829696
I1205 19:20:55.794947 17869 layer_factory.hpp:77] Creating layer conv3_1
I1205 19:20:55.794981 17869 net.cpp:84] Creating Layer conv3_1
I1205 19:20:55.795130 17869 net.cpp:406] conv3_1 <- pool2
I1205 19:20:55.795217 17869 net.cpp:380] conv3_1 -> conv3_1
I1205 19:20:55.803463 17869 net.cpp:122] Setting up conv3_1
I1205 19:20:55.803500 17869 net.cpp:129] Top shape: 16 256 56 56 (12845056)
I1205 19:20:55.803520 17869 net.cpp:137] Memory required for data: 1371209920
I1205 19:20:55.803555 17869 layer_factory.hpp:77] Creating layer relu3_1
I1205 19:20:55.803580 17869 net.cpp:84] Creating Layer relu3_1
I1205 19:20:55.803602 17869 net.cpp:406] relu3_1 <- conv3_1
I1205 19:20:55.803624 17869 net.cpp:367] relu3_1 -> conv3_1 (in-place)
I1205 19:20:55.803653 17869 net.cpp:122] Setting up relu3_1
I1205 19:20:55.803675 17869 net.cpp:129] Top shape: 16 256 56 56 (12845056)
I1205 19:20:55.803694 17869 net.cpp:137] Memory required for data: 1422590144
I1205 19:20:55.803712 17869 layer_factory.hpp:77] Creating layer conv3_2
I1205 19:20:55.803741 17869 net.cpp:84] Creating Layer conv3_2
I1205 19:20:55.803762 17869 net.cpp:406] conv3_2 <- conv3_1
I1205 19:20:55.803787 17869 net.cpp:380] conv3_2 -> conv3_2
I1205 19:20:55.828085 17869 net.cpp:122] Setting up conv3_2
I1205 19:20:55.828122 17869 net.cpp:129] Top shape: 16 256 56 56 (12845056)
I1205 19:20:55.828199 17869 net.cpp:137] Memory required for data: 1473970368
I1205 19:20:55.828274 17869 layer_factory.hpp:77] Creating layer relu3_2
I1205 19:20:55.828426 17869 net.cpp:84] Creating Layer relu3_2
I1205 19:20:55.828449 17869 net.cpp:406] relu3_2 <- conv3_2
I1205 19:20:55.828519 17869 net.cpp:367] relu3_2 -> conv3_2 (in-place)
I1205 19:20:55.828580 17869 net.cpp:122] Setting up relu3_2
I1205 19:20:55.828601 17869 net.cpp:129] Top shape: 16 256 56 56 (12845056)
I1205 19:20:55.828618 17869 net.cpp:137] Memory required for data: 1525350592
I1205 19:20:55.828680 17869 layer_factory.hpp:77] Creating layer conv3_3
I1205 19:20:55.828763 17869 net.cpp:84] Creating Layer conv3_3
I1205 19:20:55.828783 17869 net.cpp:406] conv3_3 <- conv3_2
I1205 19:20:55.828848 17869 net.cpp:380] conv3_3 -> conv3_3
I1205 19:20:55.848160 17869 net.cpp:122] Setting up conv3_3
I1205 19:20:55.848198 17869 net.cpp:129] Top shape: 16 256 56 56 (12845056)
I1205 19:20:55.848214 17869 net.cpp:137] Memory required for data: 1576730816
I1205 19:20:55.848235 17869 layer_factory.hpp:77] Creating layer relu3_3
I1205 19:20:55.848260 17869 net.cpp:84] Creating Layer relu3_3
I1205 19:20:55.848276 17869 net.cpp:406] relu3_3 <- conv3_3
I1205 19:20:55.848297 17869 net.cpp:367] relu3_3 -> conv3_3 (in-place)
I1205 19:20:55.848320 17869 net.cpp:122] Setting up relu3_3
I1205 19:20:55.848340 17869 net.cpp:129] Top shape: 16 256 56 56 (12845056)
I1205 19:20:55.848354 17869 net.cpp:137] Memory required for data: 1628111040
I1205 19:20:55.848371 17869 layer_factory.hpp:77] Creating layer pool3
I1205 19:20:55.848390 17869 net.cpp:84] Creating Layer pool3
I1205 19:20:55.848407 17869 net.cpp:406] pool3 <- conv3_3
I1205 19:20:55.848425 17869 net.cpp:380] pool3 -> pool3
I1205 19:20:55.848492 17869 net.cpp:122] Setting up pool3
I1205 19:20:55.848515 17869 net.cpp:129] Top shape: 16 256 28 28 (3211264)
I1205 19:20:55.848529 17869 net.cpp:137] Memory required for data: 1640956096
I1205 19:20:55.848546 17869 layer_factory.hpp:77] Creating layer conv4_1
I1205 19:20:55.848569 17869 net.cpp:84] Creating Layer conv4_1
I1205 19:20:55.848585 17869 net.cpp:406] conv4_1 <- pool3
I1205 19:20:55.848605 17869 net.cpp:380] conv4_1 -> conv4_1
I1205 19:20:55.870491 17869 net.cpp:122] Setting up conv4_1
I1205 19:20:55.870524 17869 net.cpp:129] Top shape: 16 512 28 28 (6422528)
I1205 19:20:55.870539 17869 net.cpp:137] Memory required for data: 1666646208
I1205 19:20:55.870558 17869 layer_factory.hpp:77] Creating layer relu4_1
I1205 19:20:55.870580 17869 net.cpp:84] Creating Layer relu4_1
I1205 19:20:55.870596 17869 net.cpp:406] relu4_1 <- conv4_1
I1205 19:20:55.870616 17869 net.cpp:367] relu4_1 -> conv4_1 (in-place)
I1205 19:20:55.870636 17869 net.cpp:122] Setting up relu4_1
I1205 19:20:55.870654 17869 net.cpp:129] Top shape: 16 512 28 28 (6422528)
I1205 19:20:55.870668 17869 net.cpp:137] Memory required for data: 1692336320
I1205 19:20:55.870683 17869 layer_factory.hpp:77] Creating layer conv4_2
I1205 19:20:55.870704 17869 net.cpp:84] Creating Layer conv4_2
I1205 19:20:55.870720 17869 net.cpp:406] conv4_2 <- conv4_1
I1205 19:20:55.870739 17869 net.cpp:380] conv4_2 -> conv4_2
I1205 19:20:55.917804 17869 net.cpp:122] Setting up conv4_2
I1205 19:20:55.917842 17869 net.cpp:129] Top shape: 16 512 28 28 (6422528)
I1205 19:20:55.917853 17869 net.cpp:137] Memory required for data: 1718026432
I1205 19:20:55.917878 17869 layer_factory.hpp:77] Creating layer relu4_2
I1205 19:20:55.917897 17869 net.cpp:84] Creating Layer relu4_2
I1205 19:20:55.917912 17869 net.cpp:406] relu4_2 <- conv4_2
I1205 19:20:55.917925 17869 net.cpp:367] relu4_2 -> conv4_2 (in-place)
I1205 19:20:55.917943 17869 net.cpp:122] Setting up relu4_2
I1205 19:20:55.917954 17869 net.cpp:129] Top shape: 16 512 28 28 (6422528)
I1205 19:20:55.917964 17869 net.cpp:137] Memory required for data: 1743716544
I1205 19:20:55.917975 17869 layer_factory.hpp:77] Creating layer conv4_3
I1205 19:20:55.917994 17869 net.cpp:84] Creating Layer conv4_3
I1205 19:20:55.918004 17869 net.cpp:406] conv4_3 <- conv4_2
I1205 19:20:55.918022 17869 net.cpp:380] conv4_3 -> conv4_3
I1205 19:20:55.943922 17869 net.cpp:122] Setting up conv4_3
I1205 19:20:55.943962 17869 net.cpp:129] Top shape: 16 512 28 28 (6422528)
I1205 19:20:55.943974 17869 net.cpp:137] Memory required for data: 1769406656
I1205 19:20:55.943992 17869 layer_factory.hpp:77] Creating layer relu4_3
I1205 19:20:55.944010 17869 net.cpp:84] Creating Layer relu4_3
I1205 19:20:55.944023 17869 net.cpp:406] relu4_3 <- conv4_3
I1205 19:20:55.944038 17869 net.cpp:367] relu4_3 -> conv4_3 (in-place)
I1205 19:20:55.944056 17869 net.cpp:122] Setting up relu4_3
I1205 19:20:55.944068 17869 net.cpp:129] Top shape: 16 512 28 28 (6422528)
I1205 19:20:55.944079 17869 net.cpp:137] Memory required for data: 1795096768
I1205 19:20:55.944092 17869 layer_factory.hpp:77] Creating layer pool4
I1205 19:20:55.944108 17869 net.cpp:84] Creating Layer pool4
I1205 19:20:55.944120 17869 net.cpp:406] pool4 <- conv4_3
I1205 19:20:55.944135 17869 net.cpp:380] pool4 -> pool4
I1205 19:20:55.944187 17869 net.cpp:122] Setting up pool4
I1205 19:20:55.944205 17869 net.cpp:129] Top shape: 16 512 14 14 (1605632)
I1205 19:20:55.944217 17869 net.cpp:137] Memory required for data: 1801519296
I1205 19:20:55.944228 17869 layer_factory.hpp:77] Creating layer conv5_1
I1205 19:20:55.944249 17869 net.cpp:84] Creating Layer conv5_1
I1205 19:20:55.944262 17869 net.cpp:406] conv5_1 <- pool4
I1205 19:20:55.944278 17869 net.cpp:380] conv5_1 -> conv5_1
I1205 19:20:55.970517 17869 net.cpp:122] Setting up conv5_1
I1205 19:20:55.970549 17869 net.cpp:129] Top shape: 16 512 14 14 (1605632)
I1205 19:20:55.970566 17869 net.cpp:137] Memory required for data: 1807941824
I1205 19:20:55.970582 17869 layer_factory.hpp:77] Creating layer relu5_1
I1205 19:20:55.970597 17869 net.cpp:84] Creating Layer relu5_1
I1205 19:20:55.970610 17869 net.cpp:406] relu5_1 <- conv5_1
I1205 19:20:55.970624 17869 net.cpp:367] relu5_1 -> conv5_1 (in-place)
I1205 19:20:55.970640 17869 net.cpp:122] Setting up relu5_1
I1205 19:20:55.970652 17869 net.cpp:129] Top shape: 16 512 14 14 (1605632)
I1205 19:20:55.970664 17869 net.cpp:137] Memory required for data: 1814364352
I1205 19:20:55.970674 17869 layer_factory.hpp:77] Creating layer conv5_2
I1205 19:20:55.970692 17869 net.cpp:84] Creating Layer conv5_2
I1205 19:20:55.970705 17869 net.cpp:406] conv5_2 <- conv5_1
I1205 19:20:55.970721 17869 net.cpp:380] conv5_2 -> conv5_2
I1205 19:20:55.997007 17869 net.cpp:122] Setting up conv5_2
I1205 19:20:55.997037 17869 net.cpp:129] Top shape: 16 512 14 14 (1605632)
I1205 19:20:55.997053 17869 net.cpp:137] Memory required for data: 1820786880
I1205 19:20:55.997069 17869 layer_factory.hpp:77] Creating layer relu5_2
I1205 19:20:55.997086 17869 net.cpp:84] Creating Layer relu5_2
I1205 19:20:55.997097 17869 net.cpp:406] relu5_2 <- conv5_2
I1205 19:20:55.997112 17869 net.cpp:367] relu5_2 -> conv5_2 (in-place)
I1205 19:20:55.997129 17869 net.cpp:122] Setting up relu5_2
I1205 19:20:55.997141 17869 net.cpp:129] Top shape: 16 512 14 14 (1605632)
I1205 19:20:55.997151 17869 net.cpp:137] Memory required for data: 1827209408
I1205 19:20:55.997161 17869 layer_factory.hpp:77] Creating layer conv5_3
I1205 19:20:55.997180 17869 net.cpp:84] Creating Layer conv5_3
I1205 19:20:55.997191 17869 net.cpp:406] conv5_3 <- conv5_2
I1205 19:20:55.997210 17869 net.cpp:380] conv5_3 -> conv5_3
I1205 19:20:56.023495 17869 net.cpp:122] Setting up conv5_3
I1205 19:20:56.023524 17869 net.cpp:129] Top shape: 16 512 14 14 (1605632)
I1205 19:20:56.023535 17869 net.cpp:137] Memory required for data: 1833631936
I1205 19:20:56.023551 17869 layer_factory.hpp:77] Creating layer relu5_3
I1205 19:20:56.023569 17869 net.cpp:84] Creating Layer relu5_3
I1205 19:20:56.023582 17869 net.cpp:406] relu5_3 <- conv5_3
I1205 19:20:56.023597 17869 net.cpp:367] relu5_3 -> conv5_3 (in-place)
I1205 19:20:56.023613 17869 net.cpp:122] Setting up relu5_3
I1205 19:20:56.023625 17869 net.cpp:129] Top shape: 16 512 14 14 (1605632)
I1205 19:20:56.023636 17869 net.cpp:137] Memory required for data: 1840054464
I1205 19:20:56.023648 17869 layer_factory.hpp:77] Creating layer pool5
I1205 19:20:56.023674 17869 net.cpp:84] Creating Layer pool5
I1205 19:20:56.023687 17869 net.cpp:406] pool5 <- conv5_3
I1205 19:20:56.023701 17869 net.cpp:380] pool5 -> pool5
I1205 19:20:56.023758 17869 net.cpp:122] Setting up pool5
I1205 19:20:56.023782 17869 net.cpp:129] Top shape: 16 512 7 7 (401408)
I1205 19:20:56.023793 17869 net.cpp:137] Memory required for data: 1841660096
I1205 19:20:56.023804 17869 layer_factory.hpp:77] Creating layer fc6
I1205 19:20:56.023821 17869 net.cpp:84] Creating Layer fc6
I1205 19:20:56.023833 17869 net.cpp:406] fc6 <- pool5
I1205 19:20:56.023849 17869 net.cpp:380] fc6 -> fc6
I1205 19:20:57.291699 17869 net.cpp:122] Setting up fc6
I1205 19:20:57.291752 17869 net.cpp:129] Top shape: 16 4096 (65536)
I1205 19:20:57.291765 17869 net.cpp:137] Memory required for data: 1841922240
I1205 19:20:57.291786 17869 layer_factory.hpp:77] Creating layer relu6
I1205 19:20:57.291815 17869 net.cpp:84] Creating Layer relu6
I1205 19:20:57.291828 17869 net.cpp:406] relu6 <- fc6
I1205 19:20:57.291847 17869 net.cpp:367] relu6 -> fc6 (in-place)
I1205 19:20:57.291867 17869 net.cpp:122] Setting up relu6
I1205 19:20:57.291882 17869 net.cpp:129] Top shape: 16 4096 (65536)
I1205 19:20:57.291893 17869 net.cpp:137] Memory required for data: 1842184384
I1205 19:20:57.291905 17869 layer_factory.hpp:77] Creating layer drop6
I1205 19:20:57.291921 17869 net.cpp:84] Creating Layer drop6
I1205 19:20:57.291934 17869 net.cpp:406] drop6 <- fc6
I1205 19:20:57.291950 17869 net.cpp:367] drop6 -> fc6 (in-place)
I1205 19:20:57.291995 17869 net.cpp:122] Setting up drop6
I1205 19:20:57.292011 17869 net.cpp:129] Top shape: 16 4096 (65536)
I1205 19:20:57.292021 17869 net.cpp:137] Memory required for data: 1842446528
I1205 19:20:57.292032 17869 layer_factory.hpp:77] Creating layer fc7
I1205 19:20:57.292052 17869 net.cpp:84] Creating Layer fc7
I1205 19:20:57.292079 17869 net.cpp:406] fc7 <- fc6
I1205 19:20:57.292093 17869 net.cpp:380] fc7 -> fc7
I1205 19:20:57.489547 17869 net.cpp:122] Setting up fc7
I1205 19:20:57.489603 17869 net.cpp:129] Top shape: 16 4096 (65536)
I1205 19:20:57.489615 17869 net.cpp:137] Memory required for data: 1842708672
I1205 19:20:57.489637 17869 layer_factory.hpp:77] Creating layer relu7
I1205 19:20:57.489663 17869 net.cpp:84] Creating Layer relu7
I1205 19:20:57.489678 17869 net.cpp:406] relu7 <- fc7
I1205 19:20:57.489696 17869 net.cpp:367] relu7 -> fc7 (in-place)
I1205 19:20:57.489717 17869 net.cpp:122] Setting up relu7
I1205 19:20:57.489729 17869 net.cpp:129] Top shape: 16 4096 (65536)
I1205 19:20:57.489740 17869 net.cpp:137] Memory required for data: 1842970816
I1205 19:20:57.489751 17869 layer_factory.hpp:77] Creating layer drop7
I1205 19:20:57.489768 17869 net.cpp:84] Creating Layer drop7
I1205 19:20:57.489779 17869 net.cpp:406] drop7 <- fc7
I1205 19:20:57.489791 17869 net.cpp:367] drop7 -> fc7 (in-place)
I1205 19:20:57.489835 17869 net.cpp:122] Setting up drop7
I1205 19:20:57.489856 17869 net.cpp:129] Top shape: 16 4096 (65536)
I1205 19:20:57.489867 17869 net.cpp:137] Memory required for data: 1843232960
I1205 19:20:57.489878 17869 layer_factory.hpp:77] Creating layer fc_scv_preserved
I1205 19:20:57.489897 17869 net.cpp:84] Creating Layer fc_scv_preserved
I1205 19:20:57.489907 17869 net.cpp:406] fc_scv_preserved <- fc7
I1205 19:20:57.489923 17869 net.cpp:380] fc_scv_preserved -> fc_scv_preserved
I1205 19:20:57.490073 17869 net.cpp:122] Setting up fc_scv_preserved
I1205 19:20:57.490093 17869 net.cpp:129] Top shape: 16 1 (16)
I1205 19:20:57.490104 17869 net.cpp:137] Memory required for data: 1843233024
I1205 19:20:57.490119 17869 layer_factory.hpp:77] Creating layer fc_scv_preserved_fc_scv_preserved_0_split
I1205 19:20:57.490134 17869 net.cpp:84] Creating Layer fc_scv_preserved_fc_scv_preserved_0_split
I1205 19:20:57.490144 17869 net.cpp:406] fc_scv_preserved_fc_scv_preserved_0_split <- fc_scv_preserved
I1205 19:20:57.490157 17869 net.cpp:380] fc_scv_preserved_fc_scv_preserved_0_split -> fc_scv_preserved_fc_scv_preserved_0_split_0
I1205 19:20:57.490172 17869 net.cpp:380] fc_scv_preserved_fc_scv_preserved_0_split -> fc_scv_preserved_fc_scv_preserved_0_split_1
I1205 19:20:57.490242 17869 net.cpp:122] Setting up fc_scv_preserved_fc_scv_preserved_0_split
I1205 19:20:57.490260 17869 net.cpp:129] Top shape: 16 1 (16)
I1205 19:20:57.490272 17869 net.cpp:129] Top shape: 16 1 (16)
I1205 19:20:57.490281 17869 net.cpp:137] Memory required for data: 1843233152
I1205 19:20:57.490293 17869 layer_factory.hpp:77] Creating layer loss
I1205 19:20:57.490308 17869 net.cpp:84] Creating Layer loss
I1205 19:20:57.490319 17869 net.cpp:406] loss <- fc_scv_preserved_fc_scv_preserved_0_split_0
I1205 19:20:57.490330 17869 net.cpp:406] loss <- label_data_1_split_0
I1205 19:20:57.490347 17869 net.cpp:380] loss -> loss
…
