…
I1205 18:45:38.549306 25120 net.cpp:294] The NetState phase (0) differed from the phase (1) specified by a rule in layer losttest
I1205 18:45:38.549574 25120 net.cpp:51] Initializing net from parameters: 
name: "VGG-Places365-SCV-Pleasant"
state {
  phase: TRAIN
  level: 0
  stage: ""
}
layer {
  name: "data"
  type: "Data"
  top: "data"
  top: "label"
  include {
    phase: TRAIN
  }
  transform_param {
    mirror: true
    crop_size: 224
    mean_file: "/idiap/temp/lmedina/fine-tuning/vgg16_places365/places365CNN_mean.binaryproto"
  }
  data_param {
    source: "/idiap/temp/lmedina/fine-tuning/data/Pleasant/train_lmdb"
    batch_size: 16
    backend: LMDB
  }
}
layer {
  name: "conv1_1"
  type: "Convolution"
  bottom: "data"
  top: "conv1_1"
  param {
    lr_mult: 1
    decay_mult: 1
  }
  param {
    lr_mult: 2
    decay_mult: 0
  }
  convolution_param {
    num_output: 64
    pad: 1
    kernel_size: 3
    weight_filler {
      type: "gaussian"
      std: 0.01
    }
    bias_filler {
      type: "constant"
      value: 0
    }
  }
}
layer {
  name: "relu1_1"
  type: "ReLU"
  bottom: "conv1_1"
  top: "conv1_1"
}
layer {
  name: "conv1_2"
  type: "Convolution"
  bottom: "conv1_1"
  top: "conv1_2"
  param {
    lr_mult: 1
    decay_mult: 1
  }
  param {
    lr_mult: 2
    decay_mult: 0
  }
  convolution_param {
    num_output: 64
    pad: 1
    kernel_size: 3
    weight_filler {
      type: "gaussian"
      std: 0.01
    }
    bias_filler {
      type: "constant"
      value: 0
    }
  }
}
layer {
  name: "relu1_2"
  type: "ReLU"
  bottom: "conv1_2"
  top: "conv1_2"
}
layer {
  name: "pool1"
  type: "Pooling"
  bottom: "conv1_2"
  top: "pool1"
  pooling_param {
    pool: MAX
    kernel_size: 2
    stride: 2
  }
}
layer {
  name: "conv2_1"
  type: "Convolution"
  bottom: "pool1"
  top: "conv2_1"
  param {
    lr_mult: 1
    decay_mult: 1
  }
  param {
    lr_mult: 2
    decay_mult: 0
  }
  convolution_param {
    num_output: 128
    pad: 1
    kernel_size: 3
    weight_filler {
      type: "gaussian"
      std: 0.01
    }
    bias_filler {
      type: "constant"
      value: 0
    }
  }
}
layer {
  name: "relu2_1"
  type: "ReLU"
  bottom: "conv2_1"
  top: "conv2_1"
}
layer {
  name: "conv2_2"
  type: "Convolution"
  bottom: "conv2_1"
  top: "conv2_2"
  param {
    lr_mult: 1
    decay_mult: 1
  }
  param {
    lr_mult: 2
    decay_mult: 0
  }
  convolution_param {
    num_output: 128
    pad: 1
    kernel_size: 3
    weight_filler {
      type: "gaussian"
      std: 0.01
    }
    bias_filler {
      type: "constant"
      value: 0
    }
  }
}
layer {
  name: "relu2_2"
  type: "ReLU"
  bottom: "conv2_2"
  top: "conv2_2"
}
layer {
  name: "pool2"
  type: "Pooling"
  bottom: "conv2_2"
  top: "pool2"
  pooling_param {
    pool: MAX
    kernel_size: 2
    stride: 2
  }
}
layer {
  name: "conv3_1"
  type: "Convolution"
  bottom: "pool2"
  top: "conv3_1"
  param {
    lr_mult: 1
    decay_mult: 1
  }
  param {
    lr_mult: 2
    decay_mult: 0
  }
  convolution_param {
    num_output: 256
    pad: 1
    kernel_size: 3
    weight_filler {
      type: "gaussian"
      std: 0.01
    }
    bias_filler {
      type: "constant"
      value: 0
    }
  }
}
layer {
  name: "relu3_1"
  type: "ReLU"
  bottom: "conv3_1"
  top: "conv3_1"
}
layer {
  name: "conv3_2"
  type: "Convolution"
  bottom: "conv3_1"
  top: "conv3_2"
  param {
    lr_mult: 1
    decay_mult: 1
  }
  param {
    lr_mult: 2
    decay_mult: 0
  }
  convolution_param {
    num_output: 256
    pad: 1
    kernel_size: 3
    weight_filler {
      type: "gaussian"
      std: 0.01
    }
    bias_filler {
      type: "constant"
      value: 0
    }
  }
}
layer {
  name: "relu3_2"
  type: "ReLU"
  bottom: "conv3_2"
  top: "conv3_2"
}
layer {
  name: "conv3_3"
  type: "Convolution"
  bottom: "conv3_2"
  top: "conv3_3"
  param {
    lr_mult: 1
    decay_mult: 1
  }
  param {
    lr_mult: 2
    decay_mult: 0
  }
  convolution_param {
    num_output: 256
    pad: 1
    kernel_size: 3
    weight_filler {
      type: "gaussian"
      std: 0.01
    }
    bias_filler {
      type: "constant"
      value: 0
    }
  }
}
layer {
  name: "relu3_3"
  type: "ReLU"
  bottom: "conv3_3"
  top: "conv3_3"
}
layer {
  name: "pool3"
  type: "Pooling"
  bottom: "conv3_3"
  top: "pool3"
  pooling_param {
    pool: MAX
    kernel_size: 2
    stride: 2
  }
}
layer {
  name: "conv4_1"
  type: "Convolution"
  bottom: "pool3"
  top: "conv4_1"
  param {
    lr_mult: 1
    decay_mult: 1
  }
  param {
    lr_mult: 2
    decay_mult: 0
  }
  convolution_param {
    num_output: 512
    pad: 1
    kernel_size: 3
    weight_filler {
      type: "gaussian"
      std: 0.01
    }
    bias_filler {
      type: "constant"
      value: 0
    }
  }
}
layer {
  name: "relu4_1"
  type: "ReLU"
  bottom: "conv4_1"
  top: "conv4_1"
}
layer {
  name: "conv4_2"
  type: "Convolution"
  bottom: "conv4_1"
  top: "conv4_2"
  param {
    lr_mult: 1
    decay_mult: 1
  }
  param {
    lr_mult: 2
    decay_mult: 0
  }
  convolution_param {
    num_output: 512
    pad: 1
    kernel_size: 3
    weight_filler {
      type: "gaussian"
      std: 0.01
    }
    bias_filler {
      type: "constant"
      value: 0
    }
  }
}
layer {
  name: "relu4_2"
  type: "ReLU"
  bottom: "conv4_2"
  top: "conv4_2"
}
layer {
  name: "conv4_3"
  type: "Convolution"
  bottom: "conv4_2"
  top: "conv4_3"
  param {
    lr_mult: 1
    decay_mult: 1
  }
  param {
    lr_mult: 2
    decay_mult: 0
  }
  convolution_param {
    num_output: 512
    pad: 1
    kernel_size: 3
    weight_filler {
      type: "gaussian"
      std: 0.01
    }
    bias_filler {
      type: "constant"
      value: 0
    }
  }
}
layer {
  name: "relu4_3"
  type: "ReLU"
  bottom: "conv4_3"
  top: "conv4_3"
}
layer {
  name: "pool4"
  type: "Pooling"
  bottom: "conv4_3"
  top: "pool4"
  pooling_param {
    pool: MAX
    kernel_size: 2
    stride: 2
  }
}
layer {
  name: "conv5_1"
  type: "Convolution"
  bottom: "pool4"
  top: "conv5_1"
  param {
    lr_mult: 1
    decay_mult: 1
  }
  param {
    lr_mult: 2
    decay_mult: 0
  }
  convolution_param {
    num_output: 512
    pad: 1
    kernel_size: 3
    weight_filler {
      type: "gaussian"
      std: 0.01
    }
    bias_filler {
      type: "constant"
      value: 0
    }
  }
}
layer {
  name: "relu5_1"
  type: "ReLU"
  bottom: "conv5_1"
  top: "conv5_1"
}
layer {
  name: "conv5_2"
  type: "Convolution"
  bottom: "conv5_1"
  top: "conv5_2"
  param {
    lr_mult: 1
    decay_mult: 1
  }
  param {
    lr_mult: 2
    decay_mult: 0
  }
  convolution_param {
    num_output: 512
    pad: 1
    kernel_size: 3
    weight_filler {
      type: "gaussian"
      std: 0.01
    }
    bias_filler {
      type: "constant"
      value: 0
    }
  }
}
layer {
  name: "relu5_2"
  type: "ReLU"
  bottom: "conv5_2"
  top: "conv5_2"
}
layer {
  name: "conv5_3"
  type: "Convolution"
  bottom: "conv5_2"
  top: "conv5_3"
  param {
    lr_mult: 1
    decay_mult: 1
  }
  param {
    lr_mult: 2
    decay_mult: 0
  }
  convolution_param {
    num_output: 512
    pad: 1
    kernel_size: 3
    weight_filler {
      type: "gaussian"
      std: 0.01
    }
    bias_filler {
      type: "constant"
      value: 0
    }
  }
}
layer {
  name: "relu5_3"
  type: "ReLU"
  bottom: "conv5_3"
  top: "conv5_3"
}
layer {
  name: "pool5"
  type: "Pooling"
  bottom: "conv5_3"
  top: "pool5"
  pooling_param {
    pool: MAX
    kernel_size: 2
    stride: 2
  }
}
layer {
  name: "fc6"
  type: "InnerProduct"
  bottom: "pool5"
  top: "fc6"
  param {
    lr_mult: 1
    decay_mult: 1
  }
  param {
    lr_mult: 2
    decay_mult: 0
  }
  inner_product_param {
    num_output: 4096
    weight_filler {
      type: "gaussian"
      std: 0.01
    }
    bias_filler {
      type: "constant"
      value: 0
    }
  }
}
layer {
  name: "relu6"
  type: "ReLU"
  bottom: "fc6"
  top: "fc6"
}
layer {
  name: "drop6"
  type: "Dropout"
  bottom: "fc6"
  top: "fc6"
  dropout_param {
    dropout_ratio: 0.5
  }
}
layer {
  name: "fc7"
  type: "InnerProduct"
  bottom: "fc6"
  top: "fc7"
  param {
    lr_mult: 1
    decay_mult: 1
  }
  param {
    lr_mult: 2
    decay_mult: 0
  }
  inner_product_param {
    num_output: 4096
    weight_filler {
      type: "gaussian"
      std: 0.01
    }
    bias_filler {
      type: "constant"
      value: 0
    }
  }
}
layer {
  name: "relu7"
  type: "ReLU"
  bottom: "fc7"
  top: "fc7"
}
layer {
  name: "drop7"
  type: "Dropout"
  bottom: "fc7"
  top: "fc7"
  dropout_param {
    dropout_ratio: 0.5
  }
}
layer {
  name: "fc_scv_pleasant"
  type: "InnerProduct"
  bottom: "fc7"
  top: "fc_scv_pleasant"
  param {
    lr_mult: 10
    decay_mult: 1
  }
  param {
    lr_mult: 20
    decay_mult: 0
  }
  inner_product_param {
    num_output: 1
    weight_filler {
      type: "xavier"
      std: 0.01
    }
    bias_filler {
      type: "constant"
      value: 0
    }
  }
}
layer {
  name: "loss"
  type: "EuclideanLoss"
  bottom: "fc_scv_pleasant"
  bottom: "label"
  top: "loss"
}
I1205 18:45:38.549765 25120 layer_factory.hpp:77] Creating layer data
I1205 18:45:38.573355 25120 db_lmdb.cpp:35] Opened lmdb /idiap/temp/lmedina/fine-tuning/data/Pleasant/train_lmdb
I1205 18:45:38.599733 25120 net.cpp:84] Creating Layer data
I1205 18:45:38.599781 25120 net.cpp:380] data -> data
I1205 18:45:38.599838 25120 net.cpp:380] data -> label
I1205 18:45:38.599879 25120 data_transformer.cpp:25] Loading mean file from: /idiap/temp/lmedina/fine-tuning/vgg16_places365/places365CNN_mean.binaryproto
I1205 18:45:38.622207 25120 data_layer.cpp:45] output data size: 16,3,224,224
I1205 18:45:38.657634 25120 net.cpp:122] Setting up data
I1205 18:45:38.657699 25120 net.cpp:129] Top shape: 16 3 224 224 (2408448)
I1205 18:45:38.657716 25120 net.cpp:129] Top shape: 16 (16)
I1205 18:45:38.657729 25120 net.cpp:137] Memory required for data: 9633856
I1205 18:45:38.657753 25120 layer_factory.hpp:77] Creating layer conv1_1
I1205 18:45:38.657799 25120 net.cpp:84] Creating Layer conv1_1
I1205 18:45:38.657816 25120 net.cpp:406] conv1_1 <- data
I1205 18:45:38.657843 25120 net.cpp:380] conv1_1 -> conv1_1
I1205 18:45:38.659912 25120 net.cpp:122] Setting up conv1_1
I1205 18:45:38.659939 25120 net.cpp:129] Top shape: 16 64 224 224 (51380224)
I1205 18:45:38.659951 25120 net.cpp:137] Memory required for data: 215154752
I1205 18:45:38.659978 25120 layer_factory.hpp:77] Creating layer relu1_1
I1205 18:45:38.659999 25120 net.cpp:84] Creating Layer relu1_1
I1205 18:45:38.660012 25120 net.cpp:406] relu1_1 <- conv1_1
I1205 18:45:38.660027 25120 net.cpp:367] relu1_1 -> conv1_1 (in-place)
I1205 18:45:38.660048 25120 net.cpp:122] Setting up relu1_1
I1205 18:45:38.660061 25120 net.cpp:129] Top shape: 16 64 224 224 (51380224)
I1205 18:45:38.660073 25120 net.cpp:137] Memory required for data: 420675648
I1205 18:45:38.660084 25120 layer_factory.hpp:77] Creating layer conv1_2
I1205 18:45:38.660105 25120 net.cpp:84] Creating Layer conv1_2
I1205 18:45:38.660117 25120 net.cpp:406] conv1_2 <- conv1_1
I1205 18:45:38.660132 25120 net.cpp:380] conv1_2 -> conv1_2
I1205 18:45:38.661571 25120 net.cpp:122] Setting up conv1_2
I1205 18:45:38.661598 25120 net.cpp:129] Top shape: 16 64 224 224 (51380224)
I1205 18:45:38.661612 25120 net.cpp:137] Memory required for data: 626196544
I1205 18:45:38.661631 25120 layer_factory.hpp:77] Creating layer relu1_2
I1205 18:45:38.661649 25120 net.cpp:84] Creating Layer relu1_2
I1205 18:45:38.661662 25120 net.cpp:406] relu1_2 <- conv1_2
I1205 18:45:38.661684 25120 net.cpp:367] relu1_2 -> conv1_2 (in-place)
I1205 18:45:38.661700 25120 net.cpp:122] Setting up relu1_2
I1205 18:45:38.661713 25120 net.cpp:129] Top shape: 16 64 224 224 (51380224)
I1205 18:45:38.661725 25120 net.cpp:137] Memory required for data: 831717440
I1205 18:45:38.661736 25120 layer_factory.hpp:77] Creating layer pool1
I1205 18:45:38.661753 25120 net.cpp:84] Creating Layer pool1
I1205 18:45:38.661765 25120 net.cpp:406] pool1 <- conv1_2
I1205 18:45:38.661779 25120 net.cpp:380] pool1 -> pool1
I1205 18:45:38.661839 25120 net.cpp:122] Setting up pool1
I1205 18:45:38.661855 25120 net.cpp:129] Top shape: 16 64 112 112 (12845056)
I1205 18:45:38.661866 25120 net.cpp:137] Memory required for data: 883097664
I1205 18:45:38.661878 25120 layer_factory.hpp:77] Creating layer conv2_1
I1205 18:45:38.661897 25120 net.cpp:84] Creating Layer conv2_1
I1205 18:45:38.661909 25120 net.cpp:406] conv2_1 <- pool1
I1205 18:45:38.661926 25120 net.cpp:380] conv2_1 -> conv2_1
I1205 18:45:38.664387 25120 net.cpp:122] Setting up conv2_1
I1205 18:45:38.664412 25120 net.cpp:129] Top shape: 16 128 112 112 (25690112)
I1205 18:45:38.664423 25120 net.cpp:137] Memory required for data: 985858112
I1205 18:45:38.664443 25120 layer_factory.hpp:77] Creating layer relu2_1
I1205 18:45:38.664460 25120 net.cpp:84] Creating Layer relu2_1
I1205 18:45:38.664472 25120 net.cpp:406] relu2_1 <- conv2_1
I1205 18:45:38.664487 25120 net.cpp:367] relu2_1 -> conv2_1 (in-place)
I1205 18:45:38.664503 25120 net.cpp:122] Setting up relu2_1
I1205 18:45:38.664517 25120 net.cpp:129] Top shape: 16 128 112 112 (25690112)
I1205 18:45:38.664528 25120 net.cpp:137] Memory required for data: 1088618560
I1205 18:45:38.664539 25120 layer_factory.hpp:77] Creating layer conv2_2
I1205 18:45:38.664561 25120 net.cpp:84] Creating Layer conv2_2
I1205 18:45:38.664572 25120 net.cpp:406] conv2_2 <- conv2_1
I1205 18:45:38.664587 25120 net.cpp:380] conv2_2 -> conv2_2
I1205 18:45:38.666553 25120 net.cpp:122] Setting up conv2_2
I1205 18:45:38.666574 25120 net.cpp:129] Top shape: 16 128 112 112 (25690112)
I1205 18:45:38.666604 25120 net.cpp:137] Memory required for data: 1191379008
I1205 18:45:38.666620 25120 layer_factory.hpp:77] Creating layer relu2_2
I1205 18:45:38.666636 25120 net.cpp:84] Creating Layer relu2_2
I1205 18:45:38.666661 25120 net.cpp:406] relu2_2 <- conv2_2
I1205 18:45:38.666676 25120 net.cpp:367] relu2_2 -> conv2_2 (in-place)
I1205 18:45:38.666692 25120 net.cpp:122] Setting up relu2_2
I1205 18:45:38.666704 25120 net.cpp:129] Top shape: 16 128 112 112 (25690112)
I1205 18:45:38.666715 25120 net.cpp:137] Memory required for data: 1294139456
I1205 18:45:38.666849 25120 layer_factory.hpp:77] Creating layer pool2
I1205 18:45:38.666893 25120 net.cpp:84] Creating Layer pool2
I1205 18:45:38.666906 25120 net.cpp:406] pool2 <- conv2_2
I1205 18:45:38.666923 25120 net.cpp:380] pool2 -> pool2
I1205 18:45:38.666995 25120 net.cpp:122] Setting up pool2
I1205 18:45:38.667011 25120 net.cpp:129] Top shape: 16 128 56 56 (6422528)
I1205 18:45:38.667050 25120 net.cpp:137] Memory required for data: 1319829568
I1205 18:45:38.667063 25120 layer_factory.hpp:77] Creating layer conv3_1
I1205 18:45:38.667084 25120 net.cpp:84] Creating Layer conv3_1
I1205 18:45:38.667106 25120 net.cpp:406] conv3_1 <- pool2
I1205 18:45:38.667124 25120 net.cpp:380] conv3_1 -> conv3_1
I1205 18:45:38.674136 25120 net.cpp:122] Setting up conv3_1
I1205 18:45:38.674162 25120 net.cpp:129] Top shape: 16 256 56 56 (12845056)
I1205 18:45:38.674175 25120 net.cpp:137] Memory required for data: 1371209792
I1205 18:45:38.674196 25120 layer_factory.hpp:77] Creating layer relu3_1
I1205 18:45:38.674214 25120 net.cpp:84] Creating Layer relu3_1
I1205 18:45:38.674226 25120 net.cpp:406] relu3_1 <- conv3_1
I1205 18:45:38.674242 25120 net.cpp:367] relu3_1 -> conv3_1 (in-place)
I1205 18:45:38.674257 25120 net.cpp:122] Setting up relu3_1
I1205 18:45:38.674271 25120 net.cpp:129] Top shape: 16 256 56 56 (12845056)
I1205 18:45:38.674283 25120 net.cpp:137] Memory required for data: 1422590016
I1205 18:45:38.674299 25120 layer_factory.hpp:77] Creating layer conv3_2
I1205 18:45:38.674317 25120 net.cpp:84] Creating Layer conv3_2
I1205 18:45:38.674329 25120 net.cpp:406] conv3_2 <- conv3_1
I1205 18:45:38.674345 25120 net.cpp:380] conv3_2 -> conv3_2
I1205 18:45:38.683671 25120 net.cpp:122] Setting up conv3_2
I1205 18:45:38.683696 25120 net.cpp:129] Top shape: 16 256 56 56 (12845056)
I1205 18:45:38.683709 25120 net.cpp:137] Memory required for data: 1473970240
I1205 18:45:38.683725 25120 layer_factory.hpp:77] Creating layer relu3_2
I1205 18:45:38.683743 25120 net.cpp:84] Creating Layer relu3_2
I1205 18:45:38.683755 25120 net.cpp:406] relu3_2 <- conv3_2
I1205 18:45:38.683770 25120 net.cpp:367] relu3_2 -> conv3_2 (in-place)
I1205 18:45:38.683787 25120 net.cpp:122] Setting up relu3_2
I1205 18:45:38.683800 25120 net.cpp:129] Top shape: 16 256 56 56 (12845056)
I1205 18:45:38.683812 25120 net.cpp:137] Memory required for data: 1525350464
I1205 18:45:38.683823 25120 layer_factory.hpp:77] Creating layer conv3_3
I1205 18:45:38.683842 25120 net.cpp:84] Creating Layer conv3_3
I1205 18:45:38.683854 25120 net.cpp:406] conv3_3 <- conv3_2
I1205 18:45:38.683871 25120 net.cpp:380] conv3_3 -> conv3_3
I1205 18:45:38.693923 25120 net.cpp:122] Setting up conv3_3
I1205 18:45:38.693996 25120 net.cpp:129] Top shape: 16 256 56 56 (12845056)
I1205 18:45:38.694010 25120 net.cpp:137] Memory required for data: 1576730688
I1205 18:45:38.694067 25120 layer_factory.hpp:77] Creating layer relu3_3
I1205 18:45:38.694088 25120 net.cpp:84] Creating Layer relu3_3
I1205 18:45:38.694159 25120 net.cpp:406] relu3_3 <- conv3_3
I1205 18:45:38.694173 25120 net.cpp:367] relu3_3 -> conv3_3 (in-place)
I1205 18:45:38.694223 25120 net.cpp:122] Setting up relu3_3
I1205 18:45:38.694238 25120 net.cpp:129] Top shape: 16 256 56 56 (12845056)
I1205 18:45:38.694249 25120 net.cpp:137] Memory required for data: 1628110912
I1205 18:45:38.694339 25120 layer_factory.hpp:77] Creating layer pool3
I1205 18:45:38.694398 25120 net.cpp:84] Creating Layer pool3
I1205 18:45:38.694411 25120 net.cpp:406] pool3 <- conv3_3
I1205 18:45:38.694465 25120 net.cpp:380] pool3 -> pool3
I1205 18:45:38.694582 25120 net.cpp:122] Setting up pool3
I1205 18:45:38.694653 25120 net.cpp:129] Top shape: 16 256 28 28 (3211264)
I1205 18:45:38.694665 25120 net.cpp:137] Memory required for data: 1640955968
I1205 18:45:38.694722 25120 layer_factory.hpp:77] Creating layer conv4_1
I1205 18:45:38.694743 25120 net.cpp:84] Creating Layer conv4_1
I1205 18:45:38.694809 25120 net.cpp:406] conv4_1 <- pool3
I1205 18:45:38.694828 25120 net.cpp:380] conv4_1 -> conv4_1
I1205 18:45:38.720557 25120 net.cpp:122] Setting up conv4_1
I1205 18:45:38.720592 25120 net.cpp:129] Top shape: 16 512 28 28 (6422528)
I1205 18:45:38.720604 25120 net.cpp:137] Memory required for data: 1666646080
I1205 18:45:38.720623 25120 layer_factory.hpp:77] Creating layer relu4_1
I1205 18:45:38.720643 25120 net.cpp:84] Creating Layer relu4_1
I1205 18:45:38.720657 25120 net.cpp:406] relu4_1 <- conv4_1
I1205 18:45:38.720674 25120 net.cpp:367] relu4_1 -> conv4_1 (in-place)
I1205 18:45:38.720693 25120 net.cpp:122] Setting up relu4_1
I1205 18:45:38.720713 25120 net.cpp:129] Top shape: 16 512 28 28 (6422528)
I1205 18:45:38.720726 25120 net.cpp:137] Memory required for data: 1692336192
I1205 18:45:38.720736 25120 layer_factory.hpp:77] Creating layer conv4_2
I1205 18:45:38.720757 25120 net.cpp:84] Creating Layer conv4_2
I1205 18:45:38.720769 25120 net.cpp:406] conv4_2 <- conv4_1
I1205 18:45:38.720785 25120 net.cpp:380] conv4_2 -> conv4_2
I1205 18:45:38.778569 25120 net.cpp:122] Setting up conv4_2
I1205 18:45:38.778653 25120 net.cpp:129] Top shape: 16 512 28 28 (6422528)
I1205 18:45:38.778668 25120 net.cpp:137] Memory required for data: 1718026304
I1205 18:45:38.778740 25120 layer_factory.hpp:77] Creating layer relu4_2
I1205 18:45:38.778765 25120 net.cpp:84] Creating Layer relu4_2
I1205 18:45:38.778821 25120 net.cpp:406] relu4_2 <- conv4_2
I1205 18:45:38.778841 25120 net.cpp:367] relu4_2 -> conv4_2 (in-place)
I1205 18:45:38.778949 25120 net.cpp:122] Setting up relu4_2
I1205 18:45:38.778975 25120 net.cpp:129] Top shape: 16 512 28 28 (6422528)
I1205 18:45:38.778987 25120 net.cpp:137] Memory required for data: 1743716416
I1205 18:45:38.779000 25120 layer_factory.hpp:77] Creating layer conv4_3
I1205 18:45:38.779022 25120 net.cpp:84] Creating Layer conv4_3
I1205 18:45:38.779034 25120 net.cpp:406] conv4_3 <- conv4_2
I1205 18:45:38.779052 25120 net.cpp:380] conv4_3 -> conv4_3
I1205 18:45:38.829046 25120 net.cpp:122] Setting up conv4_3
I1205 18:45:38.829085 25120 net.cpp:129] Top shape: 16 512 28 28 (6422528)
I1205 18:45:38.829098 25120 net.cpp:137] Memory required for data: 1769406528
I1205 18:45:38.829118 25120 layer_factory.hpp:77] Creating layer relu4_3
I1205 18:45:38.829141 25120 net.cpp:84] Creating Layer relu4_3
I1205 18:45:38.829155 25120 net.cpp:406] relu4_3 <- conv4_3
I1205 18:45:38.829174 25120 net.cpp:367] relu4_3 -> conv4_3 (in-place)
I1205 18:45:38.829193 25120 net.cpp:122] Setting up relu4_3
I1205 18:45:38.829206 25120 net.cpp:129] Top shape: 16 512 28 28 (6422528)
I1205 18:45:38.829218 25120 net.cpp:137] Memory required for data: 1795096640
I1205 18:45:38.829229 25120 layer_factory.hpp:77] Creating layer pool4
I1205 18:45:38.829246 25120 net.cpp:84] Creating Layer pool4
I1205 18:45:38.829258 25120 net.cpp:406] pool4 <- conv4_3
I1205 18:45:38.829273 25120 net.cpp:380] pool4 -> pool4
I1205 18:45:38.829326 25120 net.cpp:122] Setting up pool4
I1205 18:45:38.829341 25120 net.cpp:129] Top shape: 16 512 14 14 (1605632)
I1205 18:45:38.829354 25120 net.cpp:137] Memory required for data: 1801519168
I1205 18:45:38.829365 25120 layer_factory.hpp:77] Creating layer conv5_1
I1205 18:45:38.829386 25120 net.cpp:84] Creating Layer conv5_1
I1205 18:45:38.829398 25120 net.cpp:406] conv5_1 <- pool4
I1205 18:45:38.829414 25120 net.cpp:380] conv5_1 -> conv5_1
I1205 18:45:38.859824 25120 net.cpp:122] Setting up conv5_1
I1205 18:45:38.859863 25120 net.cpp:129] Top shape: 16 512 14 14 (1605632)
I1205 18:45:38.859876 25120 net.cpp:137] Memory required for data: 1807941696
I1205 18:45:38.859894 25120 layer_factory.hpp:77] Creating layer relu5_1
I1205 18:45:38.859930 25120 net.cpp:84] Creating Layer relu5_1
I1205 18:45:38.859943 25120 net.cpp:406] relu5_1 <- conv5_1
I1205 18:45:38.859961 25120 net.cpp:367] relu5_1 -> conv5_1 (in-place)
I1205 18:45:38.859978 25120 net.cpp:122] Setting up relu5_1
I1205 18:45:38.859993 25120 net.cpp:129] Top shape: 16 512 14 14 (1605632)
I1205 18:45:38.860007 25120 net.cpp:137] Memory required for data: 1814364224
I1205 18:45:38.860019 25120 layer_factory.hpp:77] Creating layer conv5_2
I1205 18:45:38.860043 25120 net.cpp:84] Creating Layer conv5_2
I1205 18:45:38.860054 25120 net.cpp:406] conv5_2 <- conv5_1
I1205 18:45:38.860071 25120 net.cpp:380] conv5_2 -> conv5_2
I1205 18:45:38.890341 25120 net.cpp:122] Setting up conv5_2
I1205 18:45:38.890377 25120 net.cpp:129] Top shape: 16 512 14 14 (1605632)
I1205 18:45:38.890389 25120 net.cpp:137] Memory required for data: 1820786752
I1205 18:45:38.890406 25120 layer_factory.hpp:77] Creating layer relu5_2
I1205 18:45:38.890426 25120 net.cpp:84] Creating Layer relu5_2
I1205 18:45:38.890440 25120 net.cpp:406] relu5_2 <- conv5_2
I1205 18:45:38.890457 25120 net.cpp:367] relu5_2 -> conv5_2 (in-place)
I1205 18:45:38.890477 25120 net.cpp:122] Setting up relu5_2
I1205 18:45:38.890491 25120 net.cpp:129] Top shape: 16 512 14 14 (1605632)
I1205 18:45:38.890507 25120 net.cpp:137] Memory required for data: 1827209280
I1205 18:45:38.890519 25120 layer_factory.hpp:77] Creating layer conv5_3
I1205 18:45:38.890542 25120 net.cpp:84] Creating Layer conv5_3
I1205 18:45:38.890555 25120 net.cpp:406] conv5_3 <- conv5_2
I1205 18:45:38.890575 25120 net.cpp:380] conv5_3 -> conv5_3
I1205 18:45:38.920807 25120 net.cpp:122] Setting up conv5_3
I1205 18:45:38.920840 25120 net.cpp:129] Top shape: 16 512 14 14 (1605632)
I1205 18:45:38.920852 25120 net.cpp:137] Memory required for data: 1833631808
I1205 18:45:38.920869 25120 layer_factory.hpp:77] Creating layer relu5_3
I1205 18:45:38.920887 25120 net.cpp:84] Creating Layer relu5_3
I1205 18:45:38.920900 25120 net.cpp:406] relu5_3 <- conv5_3
I1205 18:45:38.920925 25120 net.cpp:367] relu5_3 -> conv5_3 (in-place)
I1205 18:45:38.920943 25120 net.cpp:122] Setting up relu5_3
I1205 18:45:38.920958 25120 net.cpp:129] Top shape: 16 512 14 14 (1605632)
I1205 18:45:38.920971 25120 net.cpp:137] Memory required for data: 1840054336
I1205 18:45:38.920985 25120 layer_factory.hpp:77] Creating layer pool5
I1205 18:45:38.921005 25120 net.cpp:84] Creating Layer pool5
I1205 18:45:38.921017 25120 net.cpp:406] pool5 <- conv5_3
I1205 18:45:38.921033 25120 net.cpp:380] pool5 -> pool5
I1205 18:45:38.921092 25120 net.cpp:122] Setting up pool5
I1205 18:45:38.921111 25120 net.cpp:129] Top shape: 16 512 7 7 (401408)
I1205 18:45:38.921124 25120 net.cpp:137] Memory required for data: 1841659968
I1205 18:45:38.921136 25120 layer_factory.hpp:77] Creating layer fc6
I1205 18:45:38.921169 25120 net.cpp:84] Creating Layer fc6
I1205 18:45:38.921185 25120 net.cpp:406] fc6 <- pool5
I1205 18:45:38.921201 25120 net.cpp:380] fc6 -> fc6
I1205 18:45:40.218044 25120 net.cpp:122] Setting up fc6
I1205 18:45:40.220227 25120 net.cpp:129] Top shape: 16 4096 (65536)
I1205 18:45:40.220280 25120 net.cpp:137] Memory required for data: 1841922112
I1205 18:45:40.220343 25120 layer_factory.hpp:77] Creating layer relu6
I1205 18:45:40.220386 25120 net.cpp:84] Creating Layer relu6
I1205 18:45:40.220419 25120 net.cpp:406] relu6 <- fc6
I1205 18:45:40.220455 25120 net.cpp:367] relu6 -> fc6 (in-place)
I1205 18:45:40.220495 25120 net.cpp:122] Setting up relu6
I1205 18:45:40.220527 25120 net.cpp:129] Top shape: 16 4096 (65536)
I1205 18:45:40.220558 25120 net.cpp:137] Memory required for data: 1842184256
I1205 18:45:40.220589 25120 layer_factory.hpp:77] Creating layer drop6
I1205 18:45:40.220626 25120 net.cpp:84] Creating Layer drop6
I1205 18:45:40.220657 25120 net.cpp:406] drop6 <- fc6
I1205 18:45:40.220690 25120 net.cpp:367] drop6 -> fc6 (in-place)
I1205 18:45:40.220764 25120 net.cpp:122] Setting up drop6
I1205 18:45:40.220801 25120 net.cpp:129] Top shape: 16 4096 (65536)
I1205 18:45:40.220832 25120 net.cpp:137] Memory required for data: 1842446400
I1205 18:45:40.220862 25120 layer_factory.hpp:77] Creating layer fc7
I1205 18:45:40.220901 25120 net.cpp:84] Creating Layer fc7
I1205 18:45:40.220930 25120 net.cpp:406] fc7 <- fc6
I1205 18:45:40.220971 25120 net.cpp:380] fc7 -> fc7
I1205 18:45:40.410284 25120 net.cpp:122] Setting up fc7
I1205 18:45:40.410339 25120 net.cpp:129] Top shape: 16 4096 (65536)
I1205 18:45:40.410351 25120 net.cpp:137] Memory required for data: 1842708544
I1205 18:45:40.410372 25120 layer_factory.hpp:77] Creating layer relu7
I1205 18:45:40.410392 25120 net.cpp:84] Creating Layer relu7
I1205 18:45:40.410405 25120 net.cpp:406] relu7 <- fc7
I1205 18:45:40.410421 25120 net.cpp:367] relu7 -> fc7 (in-place)
I1205 18:45:40.410441 25120 net.cpp:122] Setting up relu7
I1205 18:45:40.410454 25120 net.cpp:129] Top shape: 16 4096 (65536)
I1205 18:45:40.410465 25120 net.cpp:137] Memory required for data: 1842970688
I1205 18:45:40.410477 25120 layer_factory.hpp:77] Creating layer drop7
I1205 18:45:40.410493 25120 net.cpp:84] Creating Layer drop7
I1205 18:45:40.410504 25120 net.cpp:406] drop7 <- fc7
I1205 18:45:40.410518 25120 net.cpp:367] drop7 -> fc7 (in-place)
I1205 18:45:40.410557 25120 net.cpp:122] Setting up drop7
I1205 18:45:40.410574 25120 net.cpp:129] Top shape: 16 4096 (65536)
I1205 18:45:40.410588 25120 net.cpp:137] Memory required for data: 1843232832
I1205 18:45:40.410599 25120 layer_factory.hpp:77] Creating layer fc_scv_pleasant
I1205 18:45:40.410617 25120 net.cpp:84] Creating Layer fc_scv_pleasant
I1205 18:45:40.410629 25120 net.cpp:406] fc_scv_pleasant <- fc7
I1205 18:45:40.410643 25120 net.cpp:380] fc_scv_pleasant -> fc_scv_pleasant
I1205 18:45:40.410791 25120 net.cpp:122] Setting up fc_scv_pleasant
I1205 18:45:40.410809 25120 net.cpp:129] Top shape: 16 1 (16)
I1205 18:45:40.410821 25120 net.cpp:137] Memory required for data: 1843232896
I1205 18:45:40.410836 25120 layer_factory.hpp:77] Creating layer loss
I1205 18:45:40.410852 25120 net.cpp:84] Creating Layer loss
I1205 18:45:40.410864 25120 net.cpp:406] loss <- fc_scv_pleasant
I1205 18:45:40.410887 25120 net.cpp:406] loss <- label
I1205 18:45:40.410903 25120 net.cpp:380] loss -> loss
I1205 18:45:40.410953 25120 net.cpp:122] Setting up loss
…
I1205 18:45:40.416064 25120 net.cpp:294] The NetState phase (1) differed from the phase (0) specified by a rule in layer data
I1205 18:45:40.416330 25120 net.cpp:51] Initializing net from parameters: 
name: "VGG-Places365-SCV-Pleasant"
state {
  phase: TEST
}
layer {
  name: "data"
  type: "Data"
  top: "data"
  top: "label"
  include {
    phase: TEST
  }
  transform_param {
    mirror: false
    crop_size: 224
    mean_file: "/idiap/temp/lmedina/fine-tuning/vgg16_places365/places365CNN_mean.binaryproto"
  }
  data_param {
    source: "/idiap/temp/lmedina/fine-tuning/data/Pleasant/validation_lmdb"
    batch_size: 16
    backend: LMDB
  }
}
layer {
  name: "conv1_1"
  type: "Convolution"
  bottom: "data"
  top: "conv1_1"
  param {
    lr_mult: 1
    decay_mult: 1
  }
  param {
    lr_mult: 2
    decay_mult: 0
  }
  convolution_param {
    num_output: 64
    pad: 1
    kernel_size: 3
    weight_filler {
      type: "gaussian"
      std: 0.01
    }
    bias_filler {
      type: "constant"
      value: 0
    }
  }
}
layer {
  name: "relu1_1"
  type: "ReLU"
  bottom: "conv1_1"
  top: "conv1_1"
}
layer {
  name: "conv1_2"
  type: "Convolution"
  bottom: "conv1_1"
  top: "conv1_2"
  param {
    lr_mult: 1
    decay_mult: 1
  }
  param {
    lr_mult: 2
    decay_mult: 0
  }
  convolution_param {
    num_output: 64
    pad: 1
    kernel_size: 3
    weight_filler {
      type: "gaussian"
      std: 0.01
    }
    bias_filler {
      type: "constant"
      value: 0
    }
  }
}
layer {
  name: "relu1_2"
  type: "ReLU"
  bottom: "conv1_2"
  top: "conv1_2"
}
layer {
  name: "pool1"
  type: "Pooling"
  bottom: "conv1_2"
  top: "pool1"
  pooling_param {
    pool: MAX
    kernel_size: 2
    stride: 2
  }
}
layer {
  name: "conv2_1"
  type: "Convolution"
  bottom: "pool1"
  top: "conv2_1"
  param {
    lr_mult: 1
    decay_mult: 1
  }
  param {
    lr_mult: 2
    decay_mult: 0
  }
  convolution_param {
    num_output: 128
    pad: 1
    kernel_size: 3
    weight_filler {
      type: "gaussian"
      std: 0.01
    }
    bias_filler {
      type: "constant"
      value: 0
    }
  }
}
layer {
  name: "relu2_1"
  type: "ReLU"
  bottom: "conv2_1"
  top: "conv2_1"
}
layer {
  name: "conv2_2"
  type: "Convolution"
  bottom: "conv2_1"
  top: "conv2_2"
  param {
    lr_mult: 1
    decay_mult: 1
  }
  param {
    lr_mult: 2
    decay_mult: 0
  }
  convolution_param {
    num_output: 128
    pad: 1
    kernel_size: 3
    weight_filler {
      type: "gaussian"
      std: 0.01
    }
    bias_filler {
      type: "constant"
      value: 0
    }
  }
}
layer {
  name: "relu2_2"
  type: "ReLU"
  bottom: "conv2_2"
  top: "conv2_2"
}
layer {
  name: "pool2"
  type: "Pooling"
  bottom: "conv2_2"
  top: "pool2"
  pooling_param {
    pool: MAX
    kernel_size: 2
    stride: 2
  }
}
layer {
  name: "conv3_1"
  type: "Convolution"
  bottom: "pool2"
  top: "conv3_1"
  param {
    lr_mult: 1
    decay_mult: 1
  }
  param {
    lr_mult: 2
    decay_mult: 0
  }
  convolution_param {
    num_output: 256
    pad: 1
    kernel_size: 3
    weight_filler {
      type: "gaussian"
      std: 0.01
    }
    bias_filler {
      type: "constant"
      value: 0
    }
  }
}
layer {
  name: "relu3_1"
  type: "ReLU"
  bottom: "conv3_1"
  top: "conv3_1"
}
layer {
  name: "conv3_2"
  type: "Convolution"
  bottom: "conv3_1"
  top: "conv3_2"
  param {
    lr_mult: 1
    decay_mult: 1
  }
  param {
    lr_mult: 2
    decay_mult: 0
  }
  convolution_param {
    num_output: 256
    pad: 1
    kernel_size: 3
    weight_filler {
      type: "gaussian"
      std: 0.01
    }
    bias_filler {
      type: "constant"
      value: 0
    }
  }
}
layer {
  name: "relu3_2"
  type: "ReLU"
  bottom: "conv3_2"
  top: "conv3_2"
}
layer {
  name: "conv3_3"
  type: "Convolution"
  bottom: "conv3_2"
  top: "conv3_3"
  param {
    lr_mult: 1
    decay_mult: 1
  }
  param {
    lr_mult: 2
    decay_mult: 0
  }
  convolution_param {
    num_output: 256
    pad: 1
    kernel_size: 3
    weight_filler {
      type: "gaussian"
      std: 0.01
    }
    bias_filler {
      type: "constant"
      value: 0
    }
  }
}
layer {
  name: "relu3_3"
  type: "ReLU"
  bottom: "conv3_3"
  top: "conv3_3"
}
layer {
  name: "pool3"
  type: "Pooling"
  bottom: "conv3_3"
  top: "pool3"
  pooling_param {
    pool: MAX
    kernel_size: 2
    stride: 2
  }
}
layer {
  name: "conv4_1"
  type: "Convolution"
  bottom: "pool3"
  top: "conv4_1"
  param {
    lr_mult: 1
    decay_mult: 1
  }
  param {
    lr_mult: 2
    decay_mult: 0
  }
  convolution_param {
    num_output: 512
    pad: 1
    kernel_size: 3
    weight_filler {
      type: "gaussian"
      std: 0.01
    }
    bias_filler {
      type: "constant"
      value: 0
    }
  }
}
layer {
  name: "relu4_1"
  type: "ReLU"
  bottom: "conv4_1"
  top: "conv4_1"
}
layer {
  name: "conv4_2"
  type: "Convolution"
  bottom: "conv4_1"
  top: "conv4_2"
  param {
    lr_mult: 1
    decay_mult: 1
  }
  param {
    lr_mult: 2
    decay_mult: 0
  }
  convolution_param {
    num_output: 512
    pad: 1
    kernel_size: 3
    weight_filler {
      type: "gaussian"
      std: 0.01
    }
    bias_filler {
      type: "constant"
      value: 0
    }
  }
}
layer {
  name: "relu4_2"
  type: "ReLU"
  bottom: "conv4_2"
  top: "conv4_2"
}
layer {
  name: "conv4_3"
  type: "Convolution"
  bottom: "conv4_2"
  top: "conv4_3"
  param {
    lr_mult: 1
    decay_mult: 1
  }
  param {
    lr_mult: 2
    decay_mult: 0
  }
  convolution_param {
    num_output: 512
    pad: 1
    kernel_size: 3
    weight_filler {
      type: "gaussian"
      std: 0.01
    }
    bias_filler {
      type: "constant"
      value: 0
    }
  }
}
layer {
  name: "relu4_3"
  type: "ReLU"
  bottom: "conv4_3"
  top: "conv4_3"
}
layer {
  name: "pool4"
  type: "Pooling"
  bottom: "conv4_3"
  top: "pool4"
  pooling_param {
    pool: MAX
    kernel_size: 2
    stride: 2
  }
}
layer {
  name: "conv5_1"
  type: "Convolution"
  bottom: "pool4"
  top: "conv5_1"
  param {
    lr_mult: 1
    decay_mult: 1
  }
  param {
    lr_mult: 2
    decay_mult: 0
  }
  convolution_param {
    num_output: 512
    pad: 1
    kernel_size: 3
    weight_filler {
      type: "gaussian"
      std: 0.01
    }
    bias_filler {
      type: "constant"
      value: 0
    }
  }
}
layer {
  name: "relu5_1"
  type: "ReLU"
  bottom: "conv5_1"
  top: "conv5_1"
}
layer {
  name: "conv5_2"
  type: "Convolution"
  bottom: "conv5_1"
  top: "conv5_2"
  param {
    lr_mult: 1
    decay_mult: 1
  }
  param {
    lr_mult: 2
    decay_mult: 0
  }
  convolution_param {
    num_output: 512
    pad: 1
    kernel_size: 3
    weight_filler {
      type: "gaussian"
      std: 0.01
    }
    bias_filler {
      type: "constant"
      value: 0
    }
  }
}
layer {
  name: "relu5_2"
  type: "ReLU"
  bottom: "conv5_2"
  top: "conv5_2"
}
layer {
  name: "conv5_3"
  type: "Convolution"
  bottom: "conv5_2"
  top: "conv5_3"
  param {
    lr_mult: 1
    decay_mult: 1
  }
  param {
    lr_mult: 2
    decay_mult: 0
  }
  convolution_param {
    num_output: 512
    pad: 1
    kernel_size: 3
    weight_filler {
      type: "gaussian"
      std: 0.01
    }
    bias_filler {
      type: "constant"
      value: 0
    }
  }
}
layer {
  name: "relu5_3"
  type: "ReLU"
  bottom: "conv5_3"
  top: "conv5_3"
}
layer {
  name: "pool5"
  type: "Pooling"
  bottom: "conv5_3"
  top: "pool5"
  pooling_param {
    pool: MAX
    kernel_size: 2
    stride: 2
  }
}
layer {
  name: "fc6"
  type: "InnerProduct"
  bottom: "pool5"
  top: "fc6"
  param {
    lr_mult: 1
    decay_mult: 1
  }
  param {
    lr_mult: 2
    decay_mult: 0
  }
  inner_product_param {
    num_output: 4096
    weight_filler {
      type: "gaussian"
      std: 0.01
    }
    bias_filler {
      type: "constant"
      value: 0
    }
  }
}
layer {
  name: "relu6"
  type: "ReLU"
  bottom: "fc6"
  top: "fc6"
}
layer {
  name: "drop6"
  type: "Dropout"
  bottom: "fc6"
  top: "fc6"
  dropout_param {
    dropout_ratio: 0.5
  }
}
layer {
  name: "fc7"
  type: "InnerProduct"
  bottom: "fc6"
  top: "fc7"
  param {
    lr_mult: 1
    decay_mult: 1
  }
  param {
    lr_mult: 2
    decay_mult: 0
  }
  inner_product_param {
    num_output: 4096
    weight_filler {
      type: "gaussian"
      std: 0.01
    }
    bias_filler {
      type: "constant"
      value: 0
    }
  }
}
layer {
  name: "relu7"
  type: "ReLU"
  bottom: "fc7"
  top: "fc7"
}
layer {
  name: "drop7"
  type: "Dropout"
  bottom: "fc7"
  top: "fc7"
  dropout_param {
    dropout_ratio: 0.5
  }
}
layer {
  name: "fc_scv_pleasant"
  type: "InnerProduct"
  bottom: "fc7"
  top: "fc_scv_pleasant"
  param {
    lr_mult: 10
    decay_mult: 1
  }
  param {
    lr_mult: 20
    decay_mult: 0
  }
  inner_product_param {
    num_output: 1
    weight_filler {
      type: "xavier"
      std: 0.01
    }
    bias_filler {
      type: "constant"
      value: 0
    }
  }
}
layer {
  name: "loss"
  type: "EuclideanLoss"
  bottom: "fc_scv_pleasant"
  bottom: "label"
  top: "loss"
}
layer {
  name: "losttest"
  type: "EuclideanLoss"
  bottom: "fc_scv_pleasant"
  bottom: "label"
  top: "losttest"
  include {
    phase: TEST
  }
}
I1205 18:45:40.416512 25120 layer_factory.hpp:77] Creating layer data
I1205 18:45:40.430696 25120 db_lmdb.cpp:35] Opened lmdb /idiap/temp/lmedina/fine-tuning/data/Pleasant/validation_lmdb
I1205 18:45:40.441004 25120 net.cpp:84] Creating Layer data
I1205 18:45:40.441071 25120 net.cpp:380] data -> data
I1205 18:45:40.441105 25120 net.cpp:380] data -> label
I1205 18:45:40.441131 25120 data_transformer.cpp:25] Loading mean file from: /idiap/temp/lmedina/fine-tuning/vgg16_places365/places365CNN_mean.binaryproto
I1205 18:45:40.452158 25120 data_layer.cpp:45] output data size: 16,3,224,224
I1205 18:45:40.483417 25120 net.cpp:122] Setting up data
I1205 18:45:40.483476 25120 net.cpp:129] Top shape: 16 3 224 224 (2408448)
I1205 18:45:40.483496 25120 net.cpp:129] Top shape: 16 (16)
I1205 18:45:40.483510 25120 net.cpp:137] Memory required for data: 9633856
I1205 18:45:40.483530 25120 layer_factory.hpp:77] Creating layer label_data_1_split
I1205 18:45:40.483561 25120 net.cpp:84] Creating Layer label_data_1_split
I1205 18:45:40.483577 25120 net.cpp:406] label_data_1_split <- label
I1205 18:45:40.483598 25120 net.cpp:380] label_data_1_split -> label_data_1_split_0
I1205 18:45:40.483625 25120 net.cpp:380] label_data_1_split -> label_data_1_split_1
I1205 18:45:40.483696 25120 net.cpp:122] Setting up label_data_1_split
I1205 18:45:40.483716 25120 net.cpp:129] Top shape: 16 (16)
I1205 18:45:40.483732 25120 net.cpp:129] Top shape: 16 (16)
I1205 18:45:40.483747 25120 net.cpp:137] Memory required for data: 9633984
I1205 18:45:40.483762 25120 layer_factory.hpp:77] Creating layer conv1_1
I1205 18:45:40.483791 25120 net.cpp:84] Creating Layer conv1_1
I1205 18:45:40.483806 25120 net.cpp:406] conv1_1 <- data
I1205 18:45:40.483826 25120 net.cpp:380] conv1_1 -> conv1_1
I1205 18:45:40.484208 25120 net.cpp:122] Setting up conv1_1
I1205 18:45:40.484230 25120 net.cpp:129] Top shape: 16 64 224 224 (51380224)
I1205 18:45:40.484243 25120 net.cpp:137] Memory required for data: 215154880
I1205 18:45:40.484268 25120 layer_factory.hpp:77] Creating layer relu1_1
I1205 18:45:40.484289 25120 net.cpp:84] Creating Layer relu1_1
I1205 18:45:40.484303 25120 net.cpp:406] relu1_1 <- conv1_1
I1205 18:45:40.484320 25120 net.cpp:367] relu1_1 -> conv1_1 (in-place)
I1205 18:45:40.484339 25120 net.cpp:122] Setting up relu1_1
I1205 18:45:40.484355 25120 net.cpp:129] Top shape: 16 64 224 224 (51380224)
I1205 18:45:40.484369 25120 net.cpp:137] Memory required for data: 420675776
I1205 18:45:40.484382 25120 layer_factory.hpp:77] Creating layer conv1_2
I1205 18:45:40.484405 25120 net.cpp:84] Creating Layer conv1_2
I1205 18:45:40.484419 25120 net.cpp:406] conv1_2 <- conv1_1
I1205 18:45:40.484438 25120 net.cpp:380] conv1_2 -> conv1_2
I1205 18:45:40.487202 25120 net.cpp:122] Setting up conv1_2
I1205 18:45:40.487272 25120 net.cpp:129] Top shape: 16 64 224 224 (51380224)
I1205 18:45:40.487289 25120 net.cpp:137] Memory required for data: 626196672
I1205 18:45:40.487313 25120 layer_factory.hpp:77] Creating layer relu1_2
I1205 18:45:40.487334 25120 net.cpp:84] Creating Layer relu1_2
I1205 18:45:40.487349 25120 net.cpp:406] relu1_2 <- conv1_2
I1205 18:45:40.487365 25120 net.cpp:367] relu1_2 -> conv1_2 (in-place)
I1205 18:45:40.487385 25120 net.cpp:122] Setting up relu1_2
I1205 18:45:40.487401 25120 net.cpp:129] Top shape: 16 64 224 224 (51380224)
I1205 18:45:40.487414 25120 net.cpp:137] Memory required for data: 831717568
I1205 18:45:40.487428 25120 layer_factory.hpp:77] Creating layer pool1
I1205 18:45:40.487452 25120 net.cpp:84] Creating Layer pool1
I1205 18:45:40.487465 25120 net.cpp:406] pool1 <- conv1_2
I1205 18:45:40.487483 25120 net.cpp:380] pool1 -> pool1
I1205 18:45:40.487548 25120 net.cpp:122] Setting up pool1
I1205 18:45:40.487567 25120 net.cpp:129] Top shape: 16 64 112 112 (12845056)
I1205 18:45:40.487581 25120 net.cpp:137] Memory required for data: 883097792
I1205 18:45:40.487594 25120 layer_factory.hpp:77] Creating layer conv2_1
I1205 18:45:40.487618 25120 net.cpp:84] Creating Layer conv2_1
I1205 18:45:40.487632 25120 net.cpp:406] conv2_1 <- pool1
I1205 18:45:40.487650 25120 net.cpp:380] conv2_1 -> conv2_1
I1205 18:45:40.489433 25120 net.cpp:122] Setting up conv2_1
I1205 18:45:40.489460 25120 net.cpp:129] Top shape: 16 128 112 112 (25690112)
I1205 18:45:40.489475 25120 net.cpp:137] Memory required for data: 985858240
I1205 18:45:40.489498 25120 layer_factory.hpp:77] Creating layer relu2_1
I1205 18:45:40.489518 25120 net.cpp:84] Creating Layer relu2_1
I1205 18:45:40.489533 25120 net.cpp:406] relu2_1 <- conv2_1
I1205 18:45:40.489549 25120 net.cpp:367] relu2_1 -> conv2_1 (in-place)
I1205 18:45:40.489568 25120 net.cpp:122] Setting up relu2_1
I1205 18:45:40.489585 25120 net.cpp:129] Top shape: 16 128 112 112 (25690112)
I1205 18:45:40.489598 25120 net.cpp:137] Memory required for data: 1088618688
I1205 18:45:40.489614 25120 layer_factory.hpp:77] Creating layer conv2_2
I1205 18:45:40.489637 25120 net.cpp:84] Creating Layer conv2_2
I1205 18:45:40.489651 25120 net.cpp:406] conv2_2 <- conv2_1
I1205 18:45:40.489670 25120 net.cpp:380] conv2_2 -> conv2_2
I1205 18:45:40.493535 25120 net.cpp:122] Setting up conv2_2
I1205 18:45:40.493566 25120 net.cpp:129] Top shape: 16 128 112 112 (25690112)
I1205 18:45:40.493580 25120 net.cpp:137] Memory required for data: 1191379136
I1205 18:45:40.493600 25120 layer_factory.hpp:77] Creating layer relu2_2
I1205 18:45:40.493619 25120 net.cpp:84] Creating Layer relu2_2
I1205 18:45:40.493633 25120 net.cpp:406] relu2_2 <- conv2_2
I1205 18:45:40.493651 25120 net.cpp:367] relu2_2 -> conv2_2 (in-place)
I1205 18:45:40.493671 25120 net.cpp:122] Setting up relu2_2
I1205 18:45:40.493687 25120 net.cpp:129] Top shape: 16 128 112 112 (25690112)
I1205 18:45:40.493700 25120 net.cpp:137] Memory required for data: 1294139584
I1205 18:45:40.493715 25120 layer_factory.hpp:77] Creating layer pool2
I1205 18:45:40.493732 25120 net.cpp:84] Creating Layer pool2
I1205 18:45:40.493746 25120 net.cpp:406] pool2 <- conv2_2
I1205 18:45:40.493763 25120 net.cpp:380] pool2 -> pool2
I1205 18:45:40.493877 25120 net.cpp:122] Setting up pool2
I1205 18:45:40.493898 25120 net.cpp:129] Top shape: 16 128 56 56 (6422528)
I1205 18:45:40.493911 25120 net.cpp:137] Memory required for data: 1319829696
I1205 18:45:40.493926 25120 layer_factory.hpp:77] Creating layer conv3_1
I1205 18:45:40.493948 25120 net.cpp:84] Creating Layer conv3_1
I1205 18:45:40.493963 25120 net.cpp:406] conv3_1 <- pool2
I1205 18:45:40.493981 25120 net.cpp:380] conv3_1 -> conv3_1
I1205 18:45:40.498934 25120 net.cpp:122] Setting up conv3_1
I1205 18:45:40.498967 25120 net.cpp:129] Top shape: 16 256 56 56 (12845056)
I1205 18:45:40.498982 25120 net.cpp:137] Memory required for data: 1371209920
I1205 18:45:40.499008 25120 layer_factory.hpp:77] Creating layer relu3_1
I1205 18:45:40.499028 25120 net.cpp:84] Creating Layer relu3_1
I1205 18:45:40.499044 25120 net.cpp:406] relu3_1 <- conv3_1
I1205 18:45:40.499073 25120 net.cpp:367] relu3_1 -> conv3_1 (in-place)
I1205 18:45:40.499094 25120 net.cpp:122] Setting up relu3_1
I1205 18:45:40.499110 25120 net.cpp:129] Top shape: 16 256 56 56 (12845056)
I1205 18:45:40.499125 25120 net.cpp:137] Memory required for data: 1422590144
I1205 18:45:40.499138 25120 layer_factory.hpp:77] Creating layer conv3_2
I1205 18:45:40.499161 25120 net.cpp:84] Creating Layer conv3_2
I1205 18:45:40.499176 25120 net.cpp:406] conv3_2 <- conv3_1
I1205 18:45:40.499193 25120 net.cpp:380] conv3_2 -> conv3_2
I1205 18:45:40.507297 25120 net.cpp:122] Setting up conv3_2
I1205 18:45:40.507323 25120 net.cpp:129] Top shape: 16 256 56 56 (12845056)
I1205 18:45:40.507344 25120 net.cpp:137] Memory required for data: 1473970368
I1205 18:45:40.507364 25120 layer_factory.hpp:77] Creating layer relu3_2
I1205 18:45:40.507385 25120 net.cpp:84] Creating Layer relu3_2
I1205 18:45:40.507400 25120 net.cpp:406] relu3_2 <- conv3_2
I1205 18:45:40.507418 25120 net.cpp:367] relu3_2 -> conv3_2 (in-place)
I1205 18:45:40.507438 25120 net.cpp:122] Setting up relu3_2
I1205 18:45:40.507454 25120 net.cpp:129] Top shape: 16 256 56 56 (12845056)
I1205 18:45:40.507468 25120 net.cpp:137] Memory required for data: 1525350592
I1205 18:45:40.507483 25120 layer_factory.hpp:77] Creating layer conv3_3
I1205 18:45:40.507506 25120 net.cpp:84] Creating Layer conv3_3
I1205 18:45:40.507524 25120 net.cpp:406] conv3_3 <- conv3_2
I1205 18:45:40.507544 25120 net.cpp:380] conv3_3 -> conv3_3
I1205 18:45:40.515542 25120 net.cpp:122] Setting up conv3_3
I1205 18:45:40.515573 25120 net.cpp:129] Top shape: 16 256 56 56 (12845056)
I1205 18:45:40.515588 25120 net.cpp:137] Memory required for data: 1576730816
I1205 18:45:40.515606 25120 layer_factory.hpp:77] Creating layer relu3_3
I1205 18:45:40.515625 25120 net.cpp:84] Creating Layer relu3_3
I1205 18:45:40.515641 25120 net.cpp:406] relu3_3 <- conv3_3
I1205 18:45:40.515658 25120 net.cpp:367] relu3_3 -> conv3_3 (in-place)
I1205 18:45:40.515678 25120 net.cpp:122] Setting up relu3_3
I1205 18:45:40.515694 25120 net.cpp:129] Top shape: 16 256 56 56 (12845056)
I1205 18:45:40.515708 25120 net.cpp:137] Memory required for data: 1628111040
I1205 18:45:40.515722 25120 layer_factory.hpp:77] Creating layer pool3
I1205 18:45:40.515743 25120 net.cpp:84] Creating Layer pool3
I1205 18:45:40.515758 25120 net.cpp:406] pool3 <- conv3_3
I1205 18:45:40.515775 25120 net.cpp:380] pool3 -> pool3
I1205 18:45:40.515837 25120 net.cpp:122] Setting up pool3
I1205 18:45:40.515858 25120 net.cpp:129] Top shape: 16 256 28 28 (3211264)
I1205 18:45:40.515872 25120 net.cpp:137] Memory required for data: 1640956096
I1205 18:45:40.515887 25120 layer_factory.hpp:77] Creating layer conv4_1
I1205 18:45:40.515909 25120 net.cpp:84] Creating Layer conv4_1
I1205 18:45:40.515924 25120 net.cpp:406] conv4_1 <- pool3
I1205 18:45:40.515943 25120 net.cpp:380] conv4_1 -> conv4_1
I1205 18:45:40.532169 25120 net.cpp:122] Setting up conv4_1
I1205 18:45:40.532207 25120 net.cpp:129] Top shape: 16 512 28 28 (6422528)
I1205 18:45:40.532220 25120 net.cpp:137] Memory required for data: 1666646208
I1205 18:45:40.532239 25120 layer_factory.hpp:77] Creating layer relu4_1
I1205 18:45:40.532260 25120 net.cpp:84] Creating Layer relu4_1
I1205 18:45:40.532274 25120 net.cpp:406] relu4_1 <- conv4_1
I1205 18:45:40.532292 25120 net.cpp:367] relu4_1 -> conv4_1 (in-place)
I1205 18:45:40.532312 25120 net.cpp:122] Setting up relu4_1
I1205 18:45:40.532326 25120 net.cpp:129] Top shape: 16 512 28 28 (6422528)
I1205 18:45:40.532340 25120 net.cpp:137] Memory required for data: 1692336320
I1205 18:45:40.532352 25120 layer_factory.hpp:77] Creating layer conv4_2
I1205 18:45:40.532374 25120 net.cpp:84] Creating Layer conv4_2
I1205 18:45:40.532387 25120 net.cpp:406] conv4_2 <- conv4_1
I1205 18:45:40.532405 25120 net.cpp:380] conv4_2 -> conv4_2
I1205 18:45:40.560511 25120 net.cpp:122] Setting up conv4_2
I1205 18:45:40.560557 25120 net.cpp:129] Top shape: 16 512 28 28 (6422528)
I1205 18:45:40.560571 25120 net.cpp:137] Memory required for data: 1718026432
I1205 18:45:40.560602 25120 layer_factory.hpp:77] Creating layer relu4_2
I1205 18:45:40.560624 25120 net.cpp:84] Creating Layer relu4_2
I1205 18:45:40.560638 25120 net.cpp:406] relu4_2 <- conv4_2
I1205 18:45:40.560657 25120 net.cpp:367] relu4_2 -> conv4_2 (in-place)
I1205 18:45:40.560676 25120 net.cpp:122] Setting up relu4_2
I1205 18:45:40.560690 25120 net.cpp:129] Top shape: 16 512 28 28 (6422528)
I1205 18:45:40.560703 25120 net.cpp:137] Memory required for data: 1743716544
I1205 18:45:40.560726 25120 layer_factory.hpp:77] Creating layer conv4_3
I1205 18:45:40.560840 25120 net.cpp:84] Creating Layer conv4_3
I1205 18:45:40.560855 25120 net.cpp:406] conv4_3 <- conv4_2
I1205 18:45:40.560875 25120 net.cpp:380] conv4_3 -> conv4_3
I1205 18:45:40.588454 25120 net.cpp:122] Setting up conv4_3
I1205 18:45:40.588505 25120 net.cpp:129] Top shape: 16 512 28 28 (6422528)
I1205 18:45:40.588518 25120 net.cpp:137] Memory required for data: 1769406656
I1205 18:45:40.588541 25120 layer_factory.hpp:77] Creating layer relu4_3
I1205 18:45:40.588564 25120 net.cpp:84] Creating Layer relu4_3
I1205 18:45:40.588579 25120 net.cpp:406] relu4_3 <- conv4_3
I1205 18:45:40.588599 25120 net.cpp:367] relu4_3 -> conv4_3 (in-place)
I1205 18:45:40.588621 25120 net.cpp:122] Setting up relu4_3
I1205 18:45:40.588635 25120 net.cpp:129] Top shape: 16 512 28 28 (6422528)
I1205 18:45:40.588647 25120 net.cpp:137] Memory required for data: 1795096768
I1205 18:45:40.588660 25120 layer_factory.hpp:77] Creating layer pool4
I1205 18:45:40.588677 25120 net.cpp:84] Creating Layer pool4
I1205 18:45:40.588690 25120 net.cpp:406] pool4 <- conv4_3
I1205 18:45:40.588714 25120 net.cpp:380] pool4 -> pool4
I1205 18:45:40.588773 25120 net.cpp:122] Setting up pool4
I1205 18:45:40.588790 25120 net.cpp:129] Top shape: 16 512 14 14 (1605632)
I1205 18:45:40.588805 25120 net.cpp:137] Memory required for data: 1801519296
I1205 18:45:40.588819 25120 layer_factory.hpp:77] Creating layer conv5_1
I1205 18:45:40.588843 25120 net.cpp:84] Creating Layer conv5_1
I1205 18:45:40.588857 25120 net.cpp:406] conv5_1 <- pool4
I1205 18:45:40.588877 25120 net.cpp:380] conv5_1 -> conv5_1
I1205 18:45:40.617204 25120 net.cpp:122] Setting up conv5_1
I1205 18:45:40.617242 25120 net.cpp:129] Top shape: 16 512 14 14 (1605632)
I1205 18:45:40.617255 25120 net.cpp:137] Memory required for data: 1807941824
I1205 18:45:40.617274 25120 layer_factory.hpp:77] Creating layer relu5_1
I1205 18:45:40.617293 25120 net.cpp:84] Creating Layer relu5_1
I1205 18:45:40.617307 25120 net.cpp:406] relu5_1 <- conv5_1
I1205 18:45:40.617323 25120 net.cpp:367] relu5_1 -> conv5_1 (in-place)
I1205 18:45:40.617341 25120 net.cpp:122] Setting up relu5_1
I1205 18:45:40.617355 25120 net.cpp:129] Top shape: 16 512 14 14 (1605632)
I1205 18:45:40.617367 25120 net.cpp:137] Memory required for data: 1814364352
I1205 18:45:40.617383 25120 layer_factory.hpp:77] Creating layer conv5_2
I1205 18:45:40.617406 25120 net.cpp:84] Creating Layer conv5_2
I1205 18:45:40.617419 25120 net.cpp:406] conv5_2 <- conv5_1
I1205 18:45:40.617440 25120 net.cpp:380] conv5_2 -> conv5_2
I1205 18:45:40.644073 25120 net.cpp:122] Setting up conv5_2
I1205 18:45:40.644106 25120 net.cpp:129] Top shape: 16 512 14 14 (1605632)
I1205 18:45:40.644119 25120 net.cpp:137] Memory required for data: 1820786880
I1205 18:45:40.644137 25120 layer_factory.hpp:77] Creating layer relu5_2
I1205 18:45:40.644155 25120 net.cpp:84] Creating Layer relu5_2
I1205 18:45:40.644170 25120 net.cpp:406] relu5_2 <- conv5_2
I1205 18:45:40.644186 25120 net.cpp:367] relu5_2 -> conv5_2 (in-place)
I1205 18:45:40.644207 25120 net.cpp:122] Setting up relu5_2
I1205 18:45:40.644220 25120 net.cpp:129] Top shape: 16 512 14 14 (1605632)
I1205 18:45:40.644232 25120 net.cpp:137] Memory required for data: 1827209408
I1205 18:45:40.644244 25120 layer_factory.hpp:77] Creating layer conv5_3
I1205 18:45:40.644264 25120 net.cpp:84] Creating Layer conv5_3
I1205 18:45:40.644279 25120 net.cpp:406] conv5_3 <- conv5_2
I1205 18:45:40.644296 25120 net.cpp:380] conv5_3 -> conv5_3
I1205 18:45:40.670686 25120 net.cpp:122] Setting up conv5_3
I1205 18:45:40.670719 25120 net.cpp:129] Top shape: 16 512 14 14 (1605632)
I1205 18:45:40.670732 25120 net.cpp:137] Memory required for data: 1833631936
I1205 18:45:40.670750 25120 layer_factory.hpp:77] Creating layer relu5_3
I1205 18:45:40.670768 25120 net.cpp:84] Creating Layer relu5_3
I1205 18:45:40.670796 25120 net.cpp:406] relu5_3 <- conv5_3
I1205 18:45:40.670816 25120 net.cpp:367] relu5_3 -> conv5_3 (in-place)
I1205 18:45:40.670835 25120 net.cpp:122] Setting up relu5_3
I1205 18:45:40.670850 25120 net.cpp:129] Top shape: 16 512 14 14 (1605632)
I1205 18:45:40.670864 25120 net.cpp:137] Memory required for data: 1840054464
I1205 18:45:40.670879 25120 layer_factory.hpp:77] Creating layer pool5
I1205 18:45:40.670912 25120 net.cpp:84] Creating Layer pool5
I1205 18:45:40.670929 25120 net.cpp:406] pool5 <- conv5_3
I1205 18:45:40.670945 25120 net.cpp:380] pool5 -> pool5
I1205 18:45:40.671007 25120 net.cpp:122] Setting up pool5
I1205 18:45:40.671032 25120 net.cpp:129] Top shape: 16 512 7 7 (401408)
I1205 18:45:40.671046 25120 net.cpp:137] Memory required for data: 1841660096
I1205 18:45:40.671074 25120 layer_factory.hpp:77] Creating layer fc6
I1205 18:45:40.671094 25120 net.cpp:84] Creating Layer fc6
I1205 18:45:40.671110 25120 net.cpp:406] fc6 <- pool5
I1205 18:45:40.671129 25120 net.cpp:380] fc6 -> fc6
I1205 18:45:41.880761 25120 net.cpp:122] Setting up fc6
I1205 18:45:41.880825 25120 net.cpp:129] Top shape: 16 4096 (65536)
I1205 18:45:41.880839 25120 net.cpp:137] Memory required for data: 1841922240
I1205 18:45:41.880867 25120 layer_factory.hpp:77] Creating layer relu6
I1205 18:45:41.880893 25120 net.cpp:84] Creating Layer relu6
I1205 18:45:41.880910 25120 net.cpp:406] relu6 <- fc6
I1205 18:45:41.880934 25120 net.cpp:367] relu6 -> fc6 (in-place)
I1205 18:45:41.880962 25120 net.cpp:122] Setting up relu6
I1205 18:45:41.880978 25120 net.cpp:129] Top shape: 16 4096 (65536)
I1205 18:45:41.880992 25120 net.cpp:137] Memory required for data: 1842184384
I1205 18:45:41.881006 25120 layer_factory.hpp:77] Creating layer drop6
I1205 18:45:41.881026 25120 net.cpp:84] Creating Layer drop6
I1205 18:45:41.881041 25120 net.cpp:406] drop6 <- fc6
I1205 18:45:41.881057 25120 net.cpp:367] drop6 -> fc6 (in-place)
I1205 18:45:41.881106 25120 net.cpp:122] Setting up drop6
I1205 18:45:41.881126 25120 net.cpp:129] Top shape: 16 4096 (65536)
I1205 18:45:41.881139 25120 net.cpp:137] Memory required for data: 1842446528
I1205 18:45:41.881155 25120 layer_factory.hpp:77] Creating layer fc7
I1205 18:45:41.881177 25120 net.cpp:84] Creating Layer fc7
I1205 18:45:41.881192 25120 net.cpp:406] fc7 <- fc6
I1205 18:45:41.881211 25120 net.cpp:380] fc7 -> fc7
I1205 18:45:42.078431 25120 net.cpp:122] Setting up fc7
I1205 18:45:42.080874 25120 net.cpp:129] Top shape: 16 4096 (65536)
I1205 18:45:42.080915 25120 net.cpp:137] Memory required for data: 1842708672
I1205 18:45:42.080956 25120 layer_factory.hpp:77] Creating layer relu7
I1205 18:45:42.081004 25120 net.cpp:84] Creating Layer relu7
I1205 18:45:42.081034 25120 net.cpp:406] relu7 <- fc7
I1205 18:45:42.081066 25120 net.cpp:367] relu7 -> fc7 (in-place)
I1205 18:45:42.081104 25120 net.cpp:122] Setting up relu7
I1205 18:45:42.081133 25120 net.cpp:129] Top shape: 16 4096 (65536)
I1205 18:45:42.081156 25120 net.cpp:137] Memory required for data: 1842970816
I1205 18:45:42.081181 25120 layer_factory.hpp:77] Creating layer drop7
I1205 18:45:42.081214 25120 net.cpp:84] Creating Layer drop7
I1205 18:45:42.081239 25120 net.cpp:406] drop7 <- fc7
I1205 18:45:42.081266 25120 net.cpp:367] drop7 -> fc7 (in-place)
I1205 18:45:42.081365 25120 net.cpp:122] Setting up drop7
I1205 18:45:42.081398 25120 net.cpp:129] Top shape: 16 4096 (65536)
I1205 18:45:42.081421 25120 net.cpp:137] Memory required for data: 1843232960
I1205 18:45:42.081445 25120 layer_factory.hpp:77] Creating layer fc_scv_pleasant
I1205 18:45:42.081485 25120 net.cpp:84] Creating Layer fc_scv_pleasant
I1205 18:45:42.081509 25120 net.cpp:406] fc_scv_pleasant <- fc7
I1205 18:45:42.081542 25120 net.cpp:380] fc_scv_pleasant -> fc_scv_pleasant
I1205 18:45:42.081833 25120 net.cpp:122] Setting up fc_scv_pleasant
I1205 18:45:42.081866 25120 net.cpp:129] Top shape: 16 1 (16)
I1205 18:45:42.081892 25120 net.cpp:137] Memory required for data: 1843233024
I1205 18:45:42.081921 25120 layer_factory.hpp:77] Creating layer fc_scv_pleasant_fc_scv_pleasant_0_split
I1205 18:45:42.081954 25120 net.cpp:84] Creating Layer fc_scv_pleasant_fc_scv_pleasant_0_split
I1205 18:45:42.081982 25120 net.cpp:406] fc_scv_pleasant_fc_scv_pleasant_0_split <- fc_scv_pleasant
I1205 18:45:42.082010 25120 net.cpp:380] fc_scv_pleasant_fc_scv_pleasant_0_split -> fc_scv_pleasant_fc_scv_pleasant_0_split_0
I1205 18:45:42.082041 25120 net.cpp:380] fc_scv_pleasant_fc_scv_pleasant_0_split -> fc_scv_pleasant_fc_scv_pleasant_0_split_1
I1205 18:45:42.082142 25120 net.cpp:122] Setting up fc_scv_pleasant_fc_scv_pleasant_0_split
I1205 18:45:42.082171 25120 net.cpp:129] Top shape: 16 1 (16)
I1205 18:45:42.082197 25120 net.cpp:129] Top shape: 16 1 (16)
I1205 18:45:42.082221 25120 net.cpp:137] Memory required for data: 1843233152
I1205 18:45:42.082245 25120 layer_factory.hpp:77] Creating layer loss
I1205 18:45:42.082274 25120 net.cpp:84] Creating Layer loss
I1205 18:45:42.082300 25120 net.cpp:406] loss <- fc_scv_pleasant_fc_scv_pleasant_0_split_0
I1205 18:45:42.082327 25120 net.cpp:406] loss <- label_data_1_split_0
I1205 18:45:42.082355 25120 net.cpp:380] loss -> loss
…
