…
I1130 06:10:52.660858 22785 net.cpp:294] The NetState phase (0) differed from the phase (1) specified by a rule in layer losstest
I1130 06:10:52.661561 22785 net.cpp:51] Initializing net from parameters: 
name: "GoogleNet-Places365-SCV-Quiet"
state {
  phase: TRAIN
  level: 0
  stage: ""
}
layer {
  name: "data"
  type: "Data"
  top: "data"
  top: "label"
  include {
    phase: TRAIN
  }
  transform_param {
    mirror: true
    crop_size: 224
    mean_file: "/idiap/temp/lmedina/fine-tuning/googlenet_places365/places365CNN_mean.binaryproto"
  }
  data_param {
    source: "/idiap/temp/lmedina/fine-tuning/data/Quiet/train_lmdb"
    batch_size: 32
    backend: LMDB
  }
}
layer {
  name: "conv1/7x7_s2"
  type: "Convolution"
  bottom: "data"
  top: "conv1/7x7_s2"
  param {
    lr_mult: 1
    decay_mult: 1
  }
  param {
    lr_mult: 2
    decay_mult: 0
  }
  convolution_param {
    num_output: 64
    pad: 3
    kernel_size: 7
    stride: 2
    weight_filler {
      type: "xavier"
      std: 0.1
    }
    bias_filler {
      type: "constant"
      value: 0.2
    }
  }
}
layer {
  name: "conv1/relu_7x7"
  type: "ReLU"
  bottom: "conv1/7x7_s2"
  top: "conv1/7x7_s2"
}
layer {
  name: "pool1/3x3_s2"
  type: "Pooling"
  bottom: "conv1/7x7_s2"
  top: "pool1/3x3_s2"
  pooling_param {
    pool: MAX
    kernel_size: 3
    stride: 2
  }
}
layer {
  name: "pool1/norm1"
  type: "LRN"
  bottom: "pool1/3x3_s2"
  top: "pool1/norm1"
  lrn_param {
    local_size: 5
    alpha: 0.0001
    beta: 0.75
  }
}
layer {
  name: "conv2/3x3_reduce"
  type: "Convolution"
  bottom: "pool1/norm1"
  top: "conv2/3x3_reduce"
  param {
    lr_mult: 1
    decay_mult: 1
  }
  param {
    lr_mult: 2
    decay_mult: 0
  }
  convolution_param {
    num_output: 64
    kernel_size: 1
    weight_filler {
      type: "xavier"
      std: 0.1
    }
    bias_filler {
      type: "constant"
      value: 0.2
    }
  }
}
layer {
  name: "conv2/relu_3x3_reduce"
  type: "ReLU"
  bottom: "conv2/3x3_reduce"
  top: "conv2/3x3_reduce"
}
layer {
  name: "conv2/3x3"
  type: "Convolution"
  bottom: "conv2/3x3_reduce"
  top: "conv2/3x3"
  param {
    lr_mult: 1
    decay_mult: 1
  }
  param {
    lr_mult: 2
    decay_mult: 0
  }
  convolution_param {
    num_output: 192
    pad: 1
    kernel_size: 3
    weight_filler {
      type: "xavier"
      std: 0.03
    }
    bias_filler {
      type: "constant"
      value: 0.2
    }
  }
}
layer {
  name: "conv2/relu_3x3"
  type: "ReLU"
  bottom: "conv2/3x3"
  top: "conv2/3x3"
}
layer {
  name: "conv2/norm2"
  type: "LRN"
  bottom: "conv2/3x3"
  top: "conv2/norm2"
  lrn_param {
    local_size: 5
    alpha: 0.0001
    beta: 0.75
  }
}
layer {
  name: "pool2/3x3_s2"
  type: "Pooling"
  bottom: "conv2/norm2"
  top: "pool2/3x3_s2"
  pooling_param {
    pool: MAX
    kernel_size: 3
    stride: 2
  }
}
layer {
  name: "inception_3a/1x1"
  type: "Convolution"
  bottom: "pool2/3x3_s2"
  top: "inception_3a/1x1"
  param {
    lr_mult: 1
    decay_mult: 1
  }
  param {
    lr_mult: 2
    decay_mult: 0
  }
  convolution_param {
    num_output: 64
    kernel_size: 1
    weight_filler {
      type: "xavier"
      std: 0.03
    }
    bias_filler {
      type: "constant"
      value: 0.2
    }
  }
}
layer {
  name: "inception_3a/relu_1x1"
  type: "ReLU"
  bottom: "inception_3a/1x1"
  top: "inception_3a/1x1"
}
layer {
  name: "inception_3a/3x3_reduce"
  type: "Convolution"
  bottom: "pool2/3x3_s2"
  top: "inception_3a/3x3_reduce"
  param {
    lr_mult: 1
    decay_mult: 1
  }
  param {
    lr_mult: 2
    decay_mult: 0
  }
  convolution_param {
    num_output: 96
    kernel_size: 1
    weight_filler {
      type: "xavier"
      std: 0.09
    }
    bias_filler {
      type: "constant"
      value: 0.2
    }
  }
}
layer {
  name: "inception_3a/relu_3x3_reduce"
  type: "ReLU"
  bottom: "inception_3a/3x3_reduce"
  top: "inception_3a/3x3_reduce"
}
layer {
  name: "inception_3a/3x3"
  type: "Convolution"
  bottom: "inception_3a/3x3_reduce"
  top: "inception_3a/3x3"
  param {
    lr_mult: 1
    decay_mult: 1
  }
  param {
    lr_mult: 2
    decay_mult: 0
  }
  convolution_param {
    num_output: 128
    pad: 1
    kernel_size: 3
    weight_filler {
      type: "xavier"
      std: 0.03
    }
    bias_filler {
      type: "constant"
      value: 0.2
    }
  }
}
layer {
  name: "inception_3a/relu_3x3"
  type: "ReLU"
  bottom: "inception_3a/3x3"
  top: "inception_3a/3x3"
}
layer {
  name: "inception_3a/5x5_reduce"
  type: "Convolution"
  bottom: "pool2/3x3_s2"
  top: "inception_3a/5x5_reduce"
  param {
    lr_mult: 1
    decay_mult: 1
  }
  param {
    lr_mult: 2
    decay_mult: 0
  }
  convolution_param {
    num_output: 16
    kernel_size: 1
    weight_filler {
      type: "xavier"
      std: 0.2
    }
    bias_filler {
      type: "constant"
      value: 0.2
    }
  }
}
layer {
  name: "inception_3a/relu_5x5_reduce"
  type: "ReLU"
  bottom: "inception_3a/5x5_reduce"
  top: "inception_3a/5x5_reduce"
}
layer {
  name: "inception_3a/5x5"
  type: "Convolution"
  bottom: "inception_3a/5x5_reduce"
  top: "inception_3a/5x5"
  param {
    lr_mult: 1
    decay_mult: 1
  }
  param {
    lr_mult: 2
    decay_mult: 0
  }
  convolution_param {
    num_output: 32
    pad: 2
    kernel_size: 5
    weight_filler {
      type: "xavier"
      std: 0.03
    }
    bias_filler {
      type: "constant"
      value: 0.2
    }
  }
}
layer {
  name: "inception_3a/relu_5x5"
  type: "ReLU"
  bottom: "inception_3a/5x5"
  top: "inception_3a/5x5"
}
layer {
  name: "inception_3a/pool"
  type: "Pooling"
  bottom: "pool2/3x3_s2"
  top: "inception_3a/pool"
  pooling_param {
    pool: MAX
    kernel_size: 3
    stride: 1
    pad: 1
  }
}
layer {
  name: "inception_3a/pool_proj"
  type: "Convolution"
  bottom: "inception_3a/pool"
  top: "inception_3a/pool_proj"
  param {
    lr_mult: 1
    decay_mult: 1
  }
  param {
    lr_mult: 2
    decay_mult: 0
  }
  convolution_param {
    num_output: 32
    kernel_size: 1
    weight_filler {
      type: "xavier"
      std: 0.1
    }
    bias_filler {
      type: "constant"
      value: 0.2
    }
  }
}
layer {
  name: "inception_3a/relu_pool_proj"
  type: "ReLU"
  bottom: "inception_3a/pool_proj"
  top: "inception_3a/pool_proj"
}
layer {
  name: "inception_3a/output"
  type: "Concat"
  bottom: "inception_3a/1x1"
  bottom: "inception_3a/3x3"
  bottom: "inception_3a/5x5"
  bottom: "inception_3a/pool_proj"
  top: "inception_3a/output"
}
layer {
  name: "inception_3b/1x1"
  type: "Convolution"
  bottom: "inception_3a/output"
  top: "inception_3b/1x1"
  param {
    lr_mult: 1
    decay_mult: 1
  }
  param {
    lr_mult: 2
    decay_mult: 0
  }
  convolution_param {
    num_output: 128
    kernel_size: 1
    weight_filler {
      type: "xavier"
      std: 0.03
    }
    bias_filler {
      type: "constant"
      value: 0.2
    }
  }
}
layer {
  name: "inception_3b/relu_1x1"
  type: "ReLU"
  bottom: "inception_3b/1x1"
  top: "inception_3b/1x1"
}
layer {
  name: "inception_3b/3x3_reduce"
  type: "Convolution"
  bottom: "inception_3a/output"
  top: "inception_3b/3x3_reduce"
  param {
    lr_mult: 1
    decay_mult: 1
  }
  param {
    lr_mult: 2
    decay_mult: 0
  }
  convolution_param {
    num_output: 128
    kernel_size: 1
    weight_filler {
      type: "xavier"
      std: 0.09
    }
    bias_filler {
      type: "constant"
      value: 0.2
    }
  }
}
layer {
  name: "inception_3b/relu_3x3_reduce"
  type: "ReLU"
  bottom: "inception_3b/3x3_reduce"
  top: "inception_3b/3x3_reduce"
}
layer {
  name: "inception_3b/3x3"
  type: "Convolution"
  bottom: "inception_3b/3x3_reduce"
  top: "inception_3b/3x3"
  param {
    lr_mult: 1
    decay_mult: 1
  }
  param {
    lr_mult: 2
    decay_mult: 0
  }
  convolution_param {
    num_output: 192
    pad: 1
    kernel_size: 3
    weight_filler {
      type: "xavier"
      std: 0.03
    }
    bias_filler {
      type: "constant"
      value: 0.2
    }
  }
}
layer {
  name: "inception_3b/relu_3x3"
  type: "ReLU"
  bottom: "inception_3b/3x3"
  top: "inception_3b/3x3"
}
layer {
  name: "inception_3b/5x5_reduce"
  type: "Convolution"
  bottom: "inception_3a/output"
  top: "inception_3b/5x5_reduce"
  param {
    lr_mult: 1
    decay_mult: 1
  }
  param {
    lr_mult: 2
    decay_mult: 0
  }
  convolution_param {
    num_output: 32
    kernel_size: 1
    weight_filler {
      type: "xavier"
      std: 0.2
    }
    bias_filler {
      type: "constant"
      value: 0.2
    }
  }
}
layer {
  name: "inception_3b/relu_5x5_reduce"
  type: "ReLU"
  bottom: "inception_3b/5x5_reduce"
  top: "inception_3b/5x5_reduce"
}
layer {
  name: "inception_3b/5x5"
  type: "Convolution"
  bottom: "inception_3b/5x5_reduce"
  top: "inception_3b/5x5"
  param {
    lr_mult: 1
    decay_mult: 1
  }
  param {
    lr_mult: 2
    decay_mult: 0
  }
  convolution_param {
    num_output: 96
    pad: 2
    kernel_size: 5
    weight_filler {
      type: "xavier"
      std: 0.03
    }
    bias_filler {
      type: "constant"
      value: 0.2
    }
  }
}
layer {
  name: "inception_3b/relu_5x5"
  type: "ReLU"
  bottom: "inception_3b/5x5"
  top: "inception_3b/5x5"
}
layer {
  name: "inception_3b/pool"
  type: "Pooling"
  bottom: "inception_3a/output"
  top: "inception_3b/pool"
  pooling_param {
    pool: MAX
    kernel_size: 3
    stride: 1
    pad: 1
  }
}
layer {
  name: "inception_3b/pool_proj"
  type: "Convolution"
  bottom: "inception_3b/pool"
  top: "inception_3b/pool_proj"
  param {
    lr_mult: 1
    decay_mult: 1
  }
  param {
    lr_mult: 2
    decay_mult: 0
  }
  convolution_param {
    num_output: 64
    kernel_size: 1
    weight_filler {
      type: "xavier"
      std: 0.1
    }
    bias_filler {
      type: "constant"
      value: 0.2
    }
  }
}
layer {
  name: "inception_3b/relu_pool_proj"
  type: "ReLU"
  bottom: "inception_3b/pool_proj"
  top: "inception_3b/pool_proj"
}
layer {
  name: "inception_3b/output"
  type: "Concat"
  bottom: "inception_3b/1x1"
  bottom: "inception_3b/3x3"
  bottom: "inception_3b/5x5"
  bottom: "inception_3b/pool_proj"
  top: "inception_3b/output"
}
layer {
  name: "pool3/3x3_s2"
  type: "Pooling"
  bottom: "inception_3b/output"
  top: "pool3/3x3_s2"
  pooling_param {
    pool: MAX
    kernel_size: 3
    stride: 2
  }
}
layer {
  name: "inception_4a/1x1"
  type: "Convolution"
  bottom: "pool3/3x3_s2"
  top: "inception_4a/1x1"
  param {
    lr_mult: 1
    decay_mult: 1
  }
  param {
    lr_mult: 2
    decay_mult: 0
  }
  convolution_param {
    num_output: 192
    kernel_size: 1
    weight_filler {
      type: "xavier"
      std: 0.03
    }
    bias_filler {
      type: "constant"
      value: 0.2
    }
  }
}
layer {
  name: "inception_4a/relu_1x1"
  type: "ReLU"
  bottom: "inception_4a/1x1"
  top: "inception_4a/1x1"
}
layer {
  name: "inception_4a/3x3_reduce"
  type: "Convolution"
  bottom: "pool3/3x3_s2"
  top: "inception_4a/3x3_reduce"
  param {
    lr_mult: 1
    decay_mult: 1
  }
  param {
    lr_mult: 2
    decay_mult: 0
  }
  convolution_param {
    num_output: 96
    kernel_size: 1
    weight_filler {
      type: "xavier"
      std: 0.09
    }
    bias_filler {
      type: "constant"
      value: 0.2
    }
  }
}
layer {
  name: "inception_4a/relu_3x3_reduce"
  type: "ReLU"
  bottom: "inception_4a/3x3_reduce"
  top: "inception_4a/3x3_reduce"
}
layer {
  name: "inception_4a/3x3"
  type: "Convolution"
  bottom: "inception_4a/3x3_reduce"
  top: "inception_4a/3x3"
  param {
    lr_mult: 1
    decay_mult: 1
  }
  param {
    lr_mult: 2
    decay_mult: 0
  }
  convolution_param {
    num_output: 208
    pad: 1
    kernel_size: 3
    weight_filler {
      type: "xavier"
      std: 0.03
    }
    bias_filler {
      type: "constant"
      value: 0.2
    }
  }
}
layer {
  name: "inception_4a/relu_3x3"
  type: "ReLU"
  bottom: "inception_4a/3x3"
  top: "inception_4a/3x3"
}
layer {
  name: "inception_4a/5x5_reduce"
  type: "Convolution"
  bottom: "pool3/3x3_s2"
  top: "inception_4a/5x5_reduce"
  param {
    lr_mult: 1
    decay_mult: 1
  }
  param {
    lr_mult: 2
    decay_mult: 0
  }
  convolution_param {
    num_output: 16
    kernel_size: 1
    weight_filler {
      type: "xavier"
      std: 0.2
    }
    bias_filler {
      type: "constant"
      value: 0.2
    }
  }
}
layer {
  name: "inception_4a/relu_5x5_reduce"
  type: "ReLU"
  bottom: "inception_4a/5x5_reduce"
  top: "inception_4a/5x5_reduce"
}
layer {
  name: "inception_4a/5x5"
  type: "Convolution"
  bottom: "inception_4a/5x5_reduce"
  top: "inception_4a/5x5"
  param {
    lr_mult: 1
    decay_mult: 1
  }
  param {
    lr_mult: 2
    decay_mult: 0
  }
  convolution_param {
    num_output: 48
    pad: 2
    kernel_size: 5
    weight_filler {
      type: "xavier"
      std: 0.03
    }
    bias_filler {
      type: "constant"
      value: 0.2
    }
  }
}
layer {
  name: "inception_4a/relu_5x5"
  type: "ReLU"
  bottom: "inception_4a/5x5"
  top: "inception_4a/5x5"
}
layer {
  name: "inception_4a/pool"
  type: "Pooling"
  bottom: "pool3/3x3_s2"
  top: "inception_4a/pool"
  pooling_param {
    pool: MAX
    kernel_size: 3
    stride: 1
    pad: 1
  }
}
layer {
  name: "inception_4a/pool_proj"
  type: "Convolution"
  bottom: "inception_4a/pool"
  top: "inception_4a/pool_proj"
  param {
    lr_mult: 1
    decay_mult: 1
  }
  param {
    lr_mult: 2
    decay_mult: 0
  }
  convolution_param {
    num_output: 64
    kernel_size: 1
    weight_filler {
      type: "xavier"
      std: 0.1
    }
    bias_filler {
      type: "constant"
      value: 0.2
    }
  }
}
layer {
  name: "inception_4a/relu_pool_proj"
  type: "ReLU"
  bottom: "inception_4a/pool_proj"
  top: "inception_4a/pool_proj"
}
layer {
  name: "inception_4a/output"
  type: "Concat"
  bottom: "inception_4a/1x1"
  bottom: "inception_4a/3x3"
  bottom: "inception_4a/5x5"
  bottom: "inception_4a/pool_proj"
  top: "inception_4a/output"
}
layer {
  name: "inception_4b/1x1"
  type: "Convolution"
  bottom: "inception_4a/output"
  top: "inception_4b/1x1"
  param {
    lr_mult: 1
    decay_mult: 1
  }
  param {
    lr_mult: 2
    decay_mult: 0
  }
  convolution_param {
    num_output: 160
    kernel_size: 1
    weight_filler {
      type: "xavier"
      std: 0.03
    }
    bias_filler {
      type: "constant"
      value: 0.2
    }
  }
}
layer {
  name: "inception_4b/relu_1x1"
  type: "ReLU"
  bottom: "inception_4b/1x1"
  top: "inception_4b/1x1"
}
layer {
  name: "inception_4b/3x3_reduce"
  type: "Convolution"
  bottom: "inception_4a/output"
  top: "inception_4b/3x3_reduce"
  param {
    lr_mult: 1
    decay_mult: 1
  }
  param {
    lr_mult: 2
    decay_mult: 0
  }
  convolution_param {
    num_output: 112
    kernel_size: 1
    weight_filler {
      type: "xavier"
      std: 0.09
    }
    bias_filler {
      type: "constant"
      value: 0.2
    }
  }
}
layer {
  name: "inception_4b/relu_3x3_reduce"
  type: "ReLU"
  bottom: "inception_4b/3x3_reduce"
  top: "inception_4b/3x3_reduce"
}
layer {
  name: "inception_4b/3x3"
  type: "Convolution"
  bottom: "inception_4b/3x3_reduce"
  top: "inception_4b/3x3"
  param {
    lr_mult: 1
    decay_mult: 1
  }
  param {
    lr_mult: 2
    decay_mult: 0
  }
  convolution_param {
    num_output: 224
    pad: 1
    kernel_size: 3
    weight_filler {
      type: "xavier"
      std: 0.03
    }
    bias_filler {
      type: "constant"
      value: 0.2
    }
  }
}
layer {
  name: "inception_4b/relu_3x3"
  type: "ReLU"
  bottom: "inception_4b/3x3"
  top: "inception_4b/3x3"
}
layer {
  name: "inception_4b/5x5_reduce"
  type: "Convolution"
  bottom: "inception_4a/output"
  top: "inception_4b/5x5_reduce"
  param {
    lr_mult: 1
    decay_mult: 1
  }
  param {
    lr_mult: 2
    decay_mult: 0
  }
  convolution_param {
    num_output: 24
    kernel_size: 1
    weight_filler {
      type: "xavier"
      std: 0.2
    }
    bias_filler {
      type: "constant"
      value: 0.2
    }
  }
}
layer {
  name: "inception_4b/relu_5x5_reduce"
  type: "ReLU"
  bottom: "inception_4b/5x5_reduce"
  top: "inception_4b/5x5_reduce"
}
layer {
  name: "inception_4b/5x5"
  type: "Convolution"
  bottom: "inception_4b/5x5_reduce"
  top: "inception_4b/5x5"
  param {
    lr_mult: 1
    decay_mult: 1
  }
  param {
    lr_mult: 2
    decay_mult: 0
  }
  convolution_param {
    num_output: 64
    pad: 2
    kernel_size: 5
    weight_filler {
      type: "xavier"
      std: 0.03
    }
    bias_filler {
      type: "constant"
      value: 0.2
    }
  }
}
layer {
  name: "inception_4b/relu_5x5"
  type: "ReLU"
  bottom: "inception_4b/5x5"
  top: "inception_4b/5x5"
}
layer {
  name: "inception_4b/pool"
  type: "Pooling"
  bottom: "inception_4a/output"
  top: "inception_4b/pool"
  pooling_param {
    pool: MAX
    kernel_size: 3
    stride: 1
    pad: 1
  }
}
layer {
  name: "inception_4b/pool_proj"
  type: "Convolution"
  bottom: "inception_4b/pool"
  top: "inception_4b/pool_proj"
  param {
    lr_mult: 1
    decay_mult: 1
  }
  param {
    lr_mult: 2
    decay_mult: 0
  }
  convolution_param {
    num_output: 64
    kernel_size: 1
    weight_filler {
      type: "xavier"
      std: 0.1
    }
    bias_filler {
      type: "constant"
      value: 0.2
    }
  }
}
layer {
  name: "inception_4b/relu_pool_proj"
  type: "ReLU"
  bottom: "inception_4b/pool_proj"
  top: "inception_4b/pool_proj"
}
layer {
  name: "inception_4b/output"
  type: "Concat"
  bottom: "inception_4b/1x1"
  bottom: "inception_4b/3x3"
  bottom: "inception_4b/5x5"
  bottom: "inception_4b/pool_proj"
  top: "inception_4b/output"
}
layer {
  name: "inception_4c/1x1"
  type: "Convolution"
  bottom: "inception_4b/output"
  top: "inception_4c/1x1"
  param {
    lr_mult: 1
    decay_mult: 1
  }
  param {
    lr_mult: 2
    decay_mult: 0
  }
  convolution_param {
    num_output: 128
    kernel_size: 1
    weight_filler {
      type: "xavier"
      std: 0.03
    }
    bias_filler {
      type: "constant"
      value: 0.2
    }
  }
}
layer {
  name: "inception_4c/relu_1x1"
  type: "ReLU"
  bottom: "inception_4c/1x1"
  top: "inception_4c/1x1"
}
layer {
  name: "inception_4c/3x3_reduce"
  type: "Convolution"
  bottom: "inception_4b/output"
  top: "inception_4c/3x3_reduce"
  param {
    lr_mult: 1
    decay_mult: 1
  }
  param {
    lr_mult: 2
    decay_mult: 0
  }
  convolution_param {
    num_output: 128
    kernel_size: 1
    weight_filler {
      type: "xavier"
      std: 0.09
    }
    bias_filler {
      type: "constant"
      value: 0.2
    }
  }
}
layer {
  name: "inception_4c/relu_3x3_reduce"
  type: "ReLU"
  bottom: "inception_4c/3x3_reduce"
  top: "inception_4c/3x3_reduce"
}
layer {
  name: "inception_4c/3x3"
  type: "Convolution"
  bottom: "inception_4c/3x3_reduce"
  top: "inception_4c/3x3"
  param {
    lr_mult: 1
    decay_mult: 1
  }
  param {
    lr_mult: 2
    decay_mult: 0
  }
  convolution_param {
    num_output: 256
    pad: 1
    kernel_size: 3
    weight_filler {
      type: "xavier"
      std: 0.03
    }
    bias_filler {
      type: "constant"
      value: 0.2
    }
  }
}
layer {
  name: "inception_4c/relu_3x3"
  type: "ReLU"
  bottom: "inception_4c/3x3"
  top: "inception_4c/3x3"
}
layer {
  name: "inception_4c/5x5_reduce"
  type: "Convolution"
  bottom: "inception_4b/output"
  top: "inception_4c/5x5_reduce"
  param {
    lr_mult: 1
    decay_mult: 1
  }
  param {
    lr_mult: 2
    decay_mult: 0
  }
  convolution_param {
    num_output: 24
    kernel_size: 1
    weight_filler {
      type: "xavier"
      std: 0.2
    }
    bias_filler {
      type: "constant"
      value: 0.2
    }
  }
}
layer {
  name: "inception_4c/relu_5x5_reduce"
  type: "ReLU"
  bottom: "inception_4c/5x5_reduce"
  top: "inception_4c/5x5_reduce"
}
layer {
  name: "inception_4c/5x5"
  type: "Convolution"
  bottom: "inception_4c/5x5_reduce"
  top: "inception_4c/5x5"
  param {
    lr_mult: 1
    decay_mult: 1
  }
  param {
    lr_mult: 2
    decay_mult: 0
  }
  convolution_param {
    num_output: 64
    pad: 2
    kernel_size: 5
    weight_filler {
      type: "xavier"
      std: 0.03
    }
    bias_filler {
      type: "constant"
      value: 0.2
    }
  }
}
layer {
  name: "inception_4c/relu_5x5"
  type: "ReLU"
  bottom: "inception_4c/5x5"
  top: "inception_4c/5x5"
}
layer {
  name: "inception_4c/pool"
  type: "Pooling"
  bottom: "inception_4b/output"
  top: "inception_4c/pool"
  pooling_param {
    pool: MAX
    kernel_size: 3
    stride: 1
    pad: 1
  }
}
layer {
  name: "inception_4c/pool_proj"
  type: "Convolution"
  bottom: "inception_4c/pool"
  top: "inception_4c/pool_proj"
  param {
    lr_mult: 1
    decay_mult: 1
  }
  param {
    lr_mult: 2
    decay_mult: 0
  }
  convolution_param {
    num_output: 64
    kernel_size: 1
    weight_filler {
      type: "xavier"
      std: 0.1
    }
    bias_filler {
      type: "constant"
      value: 0.2
    }
  }
}
layer {
  name: "inception_4c/relu_pool_proj"
  type: "ReLU"
  bottom: "inception_4c/pool_proj"
  top: "inception_4c/pool_proj"
}
layer {
  name: "inception_4c/output"
  type: "Concat"
  bottom: "inception_4c/1x1"
  bottom: "inception_4c/3x3"
  bottom: "inception_4c/5x5"
  bottom: "inception_4c/pool_proj"
  top: "inception_4c/output"
}
layer {
  name: "inception_4d/1x1"
  type: "Convolution"
  bottom: "inception_4c/output"
  top: "inception_4d/1x1"
  param {
    lr_mult: 1
    decay_mult: 1
  }
  param {
    lr_mult: 2
    decay_mult: 0
  }
  convolution_param {
    num_output: 112
    kernel_size: 1
    weight_filler {
      type: "xavier"
      std: 0.03
    }
    bias_filler {
      type: "constant"
      value: 0.2
    }
  }
}
layer {
  name: "inception_4d/relu_1x1"
  type: "ReLU"
  bottom: "inception_4d/1x1"
  top: "inception_4d/1x1"
}
layer {
  name: "inception_4d/3x3_reduce"
  type: "Convolution"
  bottom: "inception_4c/output"
  top: "inception_4d/3x3_reduce"
  param {
    lr_mult: 1
    decay_mult: 1
  }
  param {
    lr_mult: 2
    decay_mult: 0
  }
  convolution_param {
    num_output: 144
    kernel_size: 1
    weight_filler {
      type: "xavier"
      std: 0.09
    }
    bias_filler {
      type: "constant"
      value: 0.2
    }
  }
}
layer {
  name: "inception_4d/relu_3x3_reduce"
  type: "ReLU"
  bottom: "inception_4d/3x3_reduce"
  top: "inception_4d/3x3_reduce"
}
layer {
  name: "inception_4d/3x3"
  type: "Convolution"
  bottom: "inception_4d/3x3_reduce"
  top: "inception_4d/3x3"
  param {
    lr_mult: 1
    decay_mult: 1
  }
  param {
    lr_mult: 2
    decay_mult: 0
  }
  convolution_param {
    num_output: 288
    pad: 1
    kernel_size: 3
    weight_filler {
      type: "xavier"
      std: 0.03
    }
    bias_filler {
      type: "constant"
      value: 0.2
    }
  }
}
layer {
  name: "inception_4d/relu_3x3"
  type: "ReLU"
  bottom: "inception_4d/3x3"
  top: "inception_4d/3x3"
}
layer {
  name: "inception_4d/5x5_reduce"
  type: "Convolution"
  bottom: "inception_4c/output"
  top: "inception_4d/5x5_reduce"
  param {
    lr_mult: 1
    decay_mult: 1
  }
  param {
    lr_mult: 2
    decay_mult: 0
  }
  convolution_param {
    num_output: 32
    kernel_size: 1
    weight_filler {
      type: "xavier"
      std: 0.2
    }
    bias_filler {
      type: "constant"
      value: 0.2
    }
  }
}
layer {
  name: "inception_4d/relu_5x5_reduce"
  type: "ReLU"
  bottom: "inception_4d/5x5_reduce"
  top: "inception_4d/5x5_reduce"
}
layer {
  name: "inception_4d/5x5"
  type: "Convolution"
  bottom: "inception_4d/5x5_reduce"
  top: "inception_4d/5x5"
  param {
    lr_mult: 1
    decay_mult: 1
  }
  param {
    lr_mult: 2
    decay_mult: 0
  }
  convolution_param {
    num_output: 64
    pad: 2
    kernel_size: 5
    weight_filler {
      type: "xavier"
      std: 0.03
    }
    bias_filler {
      type: "constant"
      value: 0.2
    }
  }
}
layer {
  name: "inception_4d/relu_5x5"
  type: "ReLU"
  bottom: "inception_4d/5x5"
  top: "inception_4d/5x5"
}
layer {
  name: "inception_4d/pool"
  type: "Pooling"
  bottom: "inception_4c/output"
  top: "inception_4d/pool"
  pooling_param {
    pool: MAX
    kernel_size: 3
    stride: 1
    pad: 1
  }
}
layer {
  name: "inception_4d/pool_proj"
  type: "Convolution"
  bottom: "inception_4d/pool"
  top: "inception_4d/pool_proj"
  param {
    lr_mult: 1
    decay_mult: 1
  }
  param {
    lr_mult: 2
    decay_mult: 0
  }
  convolution_param {
    num_output: 64
    kernel_size: 1
    weight_filler {
      type: "xavier"
      std: 0.1
    }
    bias_filler {
      type: "constant"
      value: 0.2
    }
  }
}
layer {
  name: "inception_4d/relu_pool_proj"
  type: "ReLU"
  bottom: "inception_4d/pool_proj"
  top: "inception_4d/pool_proj"
}
layer {
  name: "inception_4d/output"
  type: "Concat"
  bottom: "inception_4d/1x1"
  bottom: "inception_4d/3x3"
  bottom: "inception_4d/5x5"
  bottom: "inception_4d/pool_proj"
  top: "inception_4d/output"
}
layer {
  name: "inception_4e/1x1"
  type: "Convolution"
  bottom: "inception_4d/output"
  top: "inception_4e/1x1"
  param {
    lr_mult: 1
    decay_mult: 1
  }
  param {
    lr_mult: 2
    decay_mult: 0
  }
  convolution_param {
    num_output: 256
    kernel_size: 1
    weight_filler {
      type: "xavier"
      std: 0.03
    }
    bias_filler {
      type: "constant"
      value: 0.2
    }
  }
}
layer {
  name: "inception_4e/relu_1x1"
  type: "ReLU"
  bottom: "inception_4e/1x1"
  top: "inception_4e/1x1"
}
layer {
  name: "inception_4e/3x3_reduce"
  type: "Convolution"
  bottom: "inception_4d/output"
  top: "inception_4e/3x3_reduce"
  param {
    lr_mult: 1
    decay_mult: 1
  }
  param {
    lr_mult: 2
    decay_mult: 0
  }
  convolution_param {
    num_output: 160
    kernel_size: 1
    weight_filler {
      type: "xavier"
      std: 0.09
    }
    bias_filler {
      type: "constant"
      value: 0.2
    }
  }
}
layer {
  name: "inception_4e/relu_3x3_reduce"
  type: "ReLU"
  bottom: "inception_4e/3x3_reduce"
  top: "inception_4e/3x3_reduce"
}
layer {
  name: "inception_4e/3x3"
  type: "Convolution"
  bottom: "inception_4e/3x3_reduce"
  top: "inception_4e/3x3"
  param {
    lr_mult: 1
    decay_mult: 1
  }
  param {
    lr_mult: 2
    decay_mult: 0
  }
  convolution_param {
    num_output: 320
    pad: 1
    kernel_size: 3
    weight_filler {
      type: "xavier"
      std: 0.03
    }
    bias_filler {
      type: "constant"
      value: 0.2
    }
  }
}
layer {
  name: "inception_4e/relu_3x3"
  type: "ReLU"
  bottom: "inception_4e/3x3"
  top: "inception_4e/3x3"
}
layer {
  name: "inception_4e/5x5_reduce"
  type: "Convolution"
  bottom: "inception_4d/output"
  top: "inception_4e/5x5_reduce"
  param {
    lr_mult: 1
    decay_mult: 1
  }
  param {
    lr_mult: 2
    decay_mult: 0
  }
  convolution_param {
    num_output: 32
    kernel_size: 1
    weight_filler {
      type: "xavier"
      std: 0.2
    }
    bias_filler {
      type: "constant"
      value: 0.2
    }
  }
}
layer {
  name: "inception_4e/relu_5x5_reduce"
  type: "ReLU"
  bottom: "inception_4e/5x5_reduce"
  top: "inception_4e/5x5_reduce"
}
layer {
  name: "inception_4e/5x5"
  type: "Convolution"
  bottom: "inception_4e/5x5_reduce"
  top: "inception_4e/5x5"
  param {
    lr_mult: 1
    decay_mult: 1
  }
  param {
    lr_mult: 2
    decay_mult: 0
  }
  convolution_param {
    num_output: 128
    pad: 2
    kernel_size: 5
    weight_filler {
      type: "xavier"
      std: 0.03
    }
    bias_filler {
      type: "constant"
      value: 0.2
    }
  }
}
layer {
  name: "inception_4e/relu_5x5"
  type: "ReLU"
  bottom: "inception_4e/5x5"
  top: "inception_4e/5x5"
}
layer {
  name: "inception_4e/pool"
  type: "Pooling"
  bottom: "inception_4d/output"
  top: "inception_4e/pool"
  pooling_param {
    pool: MAX
    kernel_size: 3
    stride: 1
    pad: 1
  }
}
layer {
  name: "inception_4e/pool_proj"
  type: "Convolution"
  bottom: "inception_4e/pool"
  top: "inception_4e/pool_proj"
  param {
    lr_mult: 1
    decay_mult: 1
  }
  param {
    lr_mult: 2
    decay_mult: 0
  }
  convolution_param {
    num_output: 128
    kernel_size: 1
    weight_filler {
      type: "xavier"
      std: 0.1
    }
    bias_filler {
      type: "constant"
      value: 0.2
    }
  }
}
layer {
  name: "inception_4e/relu_pool_proj"
  type: "ReLU"
  bottom: "inception_4e/pool_proj"
  top: "inception_4e/pool_proj"
}
layer {
  name: "inception_4e/output"
  type: "Concat"
  bottom: "inception_4e/1x1"
  bottom: "inception_4e/3x3"
  bottom: "inception_4e/5x5"
  bottom: "inception_4e/pool_proj"
  top: "inception_4e/output"
}
layer {
  name: "pool4/3x3_s2"
  type: "Pooling"
  bottom: "inception_4e/output"
  top: "pool4/3x3_s2"
  pooling_param {
    pool: MAX
    kernel_size: 3
    stride: 2
  }
}
layer {
  name: "inception_5a/1x1"
  type: "Convolution"
  bottom: "pool4/3x3_s2"
  top: "inception_5a/1x1"
  param {
    lr_mult: 1
    decay_mult: 1
  }
  param {
    lr_mult: 2
    decay_mult: 0
  }
  convolution_param {
    num_output: 256
    kernel_size: 1
    weight_filler {
      type: "xavier"
      std: 0.03
    }
    bias_filler {
      type: "constant"
      value: 0.2
    }
  }
}
layer {
  name: "inception_5a/relu_1x1"
  type: "ReLU"
  bottom: "inception_5a/1x1"
  top: "inception_5a/1x1"
}
layer {
  name: "inception_5a/3x3_reduce"
  type: "Convolution"
  bottom: "pool4/3x3_s2"
  top: "inception_5a/3x3_reduce"
  param {
    lr_mult: 1
    decay_mult: 1
  }
  param {
    lr_mult: 2
    decay_mult: 0
  }
  convolution_param {
    num_output: 160
    kernel_size: 1
    weight_filler {
      type: "xavier"
      std: 0.09
    }
    bias_filler {
      type: "constant"
      value: 0.2
    }
  }
}
layer {
  name: "inception_5a/relu_3x3_reduce"
  type: "ReLU"
  bottom: "inception_5a/3x3_reduce"
  top: "inception_5a/3x3_reduce"
}
layer {
  name: "inception_5a/3x3"
  type: "Convolution"
  bottom: "inception_5a/3x3_reduce"
  top: "inception_5a/3x3"
  param {
    lr_mult: 1
    decay_mult: 1
  }
  param {
    lr_mult: 2
    decay_mult: 0
  }
  convolution_param {
    num_output: 320
    pad: 1
    kernel_size: 3
    weight_filler {
      type: "xavier"
      std: 0.03
    }
    bias_filler {
      type: "constant"
      value: 0.2
    }
  }
}
layer {
  name: "inception_5a/relu_3x3"
  type: "ReLU"
  bottom: "inception_5a/3x3"
  top: "inception_5a/3x3"
}
layer {
  name: "inception_5a/5x5_reduce"
  type: "Convolution"
  bottom: "pool4/3x3_s2"
  top: "inception_5a/5x5_reduce"
 
I1130 06:10:52.662077 22785 layer_factory.hpp:77] Creating layer data
I1130 06:10:52.692220 22785 db_lmdb.cpp:35] Opened lmdb /idiap/temp/lmedina/fine-tuning/data/Quiet/train_lmdb
I1130 06:10:52.732844 22785 net.cpp:84] Creating Layer data
I1130 06:10:52.732864 22785 net.cpp:380] data -> data
I1130 06:10:52.732890 22785 net.cpp:380] data -> label
I1130 06:10:52.732908 22785 data_transformer.cpp:25] Loading mean file from: /idiap/temp/lmedina/fine-tuning/googlenet_places365/places365CNN_mean.binaryproto
I1130 06:10:52.738818 22785 data_layer.cpp:45] output data size: 32,3,224,224
I1130 06:10:52.773424 22785 net.cpp:122] Setting up data
I1130 06:10:52.773463 22785 net.cpp:129] Top shape: 32 3 224 224 (4816896)
I1130 06:10:52.773470 22785 net.cpp:129] Top shape: 32 (32)
I1130 06:10:52.773475 22785 net.cpp:137] Memory required for data: 19267712
I1130 06:10:52.773497 22785 layer_factory.hpp:77] Creating layer conv1/7x7_s2
I1130 06:10:52.773521 22785 net.cpp:84] Creating Layer conv1/7x7_s2
I1130 06:10:52.773528 22785 net.cpp:406] conv1/7x7_s2 <- data
I1130 06:10:52.773543 22785 net.cpp:380] conv1/7x7_s2 -> conv1/7x7_s2
I1130 06:10:52.774129 22785 net.cpp:122] Setting up conv1/7x7_s2
I1130 06:10:52.774140 22785 net.cpp:129] Top shape: 32 64 112 112 (25690112)
I1130 06:10:52.774144 22785 net.cpp:137] Memory required for data: 122028160
I1130 06:10:52.774158 22785 layer_factory.hpp:77] Creating layer conv1/relu_7x7
I1130 06:10:52.774165 22785 net.cpp:84] Creating Layer conv1/relu_7x7
I1130 06:10:52.774171 22785 net.cpp:406] conv1/relu_7x7 <- conv1/7x7_s2
I1130 06:10:52.774178 22785 net.cpp:367] conv1/relu_7x7 -> conv1/7x7_s2 (in-place)
I1130 06:10:52.774186 22785 net.cpp:122] Setting up conv1/relu_7x7
I1130 06:10:52.774193 22785 net.cpp:129] Top shape: 32 64 112 112 (25690112)
I1130 06:10:52.774199 22785 net.cpp:137] Memory required for data: 224788608
I1130 06:10:52.774204 22785 layer_factory.hpp:77] Creating layer pool1/3x3_s2
I1130 06:10:52.774211 22785 net.cpp:84] Creating Layer pool1/3x3_s2
I1130 06:10:52.774219 22785 net.cpp:406] pool1/3x3_s2 <- conv1/7x7_s2
I1130 06:10:52.774224 22785 net.cpp:380] pool1/3x3_s2 -> pool1/3x3_s2
I1130 06:10:52.774302 22785 net.cpp:122] Setting up pool1/3x3_s2
I1130 06:10:52.774310 22785 net.cpp:129] Top shape: 32 64 56 56 (6422528)
I1130 06:10:52.774315 22785 net.cpp:137] Memory required for data: 250478720
I1130 06:10:52.774319 22785 layer_factory.hpp:77] Creating layer pool1/norm1
I1130 06:10:52.774330 22785 net.cpp:84] Creating Layer pool1/norm1
I1130 06:10:52.774335 22785 net.cpp:406] pool1/norm1 <- pool1/3x3_s2
I1130 06:10:52.774341 22785 net.cpp:380] pool1/norm1 -> pool1/norm1
I1130 06:10:52.774370 22785 net.cpp:122] Setting up pool1/norm1
I1130 06:10:52.774379 22785 net.cpp:129] Top shape: 32 64 56 56 (6422528)
I1130 06:10:52.774384 22785 net.cpp:137] Memory required for data: 276168832
I1130 06:10:52.774387 22785 layer_factory.hpp:77] Creating layer conv2/3x3_reduce
I1130 06:10:52.774396 22785 net.cpp:84] Creating Layer conv2/3x3_reduce
I1130 06:10:52.774401 22785 net.cpp:406] conv2/3x3_reduce <- pool1/norm1
I1130 06:10:52.774407 22785 net.cpp:380] conv2/3x3_reduce -> conv2/3x3_reduce
I1130 06:10:52.776480 22785 net.cpp:122] Setting up conv2/3x3_reduce
I1130 06:10:52.776499 22785 net.cpp:129] Top shape: 32 64 56 56 (6422528)
I1130 06:10:52.776504 22785 net.cpp:137] Memory required for data: 301858944
I1130 06:10:52.776515 22785 layer_factory.hpp:77] Creating layer conv2/relu_3x3_reduce
I1130 06:10:52.776522 22785 net.cpp:84] Creating Layer conv2/relu_3x3_reduce
I1130 06:10:52.776528 22785 net.cpp:406] conv2/relu_3x3_reduce <- conv2/3x3_reduce
I1130 06:10:52.776535 22785 net.cpp:367] conv2/relu_3x3_reduce -> conv2/3x3_reduce (in-place)
I1130 06:10:52.776542 22785 net.cpp:122] Setting up conv2/relu_3x3_reduce
I1130 06:10:52.776548 22785 net.cpp:129] Top shape: 32 64 56 56 (6422528)
I1130 06:10:52.776553 22785 net.cpp:137] Memory required for data: 327549056
I1130 06:10:52.776558 22785 layer_factory.hpp:77] Creating layer conv2/3x3
I1130 06:10:52.776567 22785 net.cpp:84] Creating Layer conv2/3x3
I1130 06:10:52.776572 22785 net.cpp:406] conv2/3x3 <- conv2/3x3_reduce
I1130 06:10:52.776578 22785 net.cpp:380] conv2/3x3 -> conv2/3x3
I1130 06:10:52.777663 22785 net.cpp:122] Setting up conv2/3x3
I1130 06:10:52.777674 22785 net.cpp:129] Top shape: 32 192 56 56 (19267584)
I1130 06:10:52.777679 22785 net.cpp:137] Memory required for data: 404619392
I1130 06:10:52.777688 22785 layer_factory.hpp:77] Creating layer conv2/relu_3x3
I1130 06:10:52.777698 22785 net.cpp:84] Creating Layer conv2/relu_3x3
I1130 06:10:52.777701 22785 net.cpp:406] conv2/relu_3x3 <- conv2/3x3
I1130 06:10:52.777709 22785 net.cpp:367] conv2/relu_3x3 -> conv2/3x3 (in-place)
I1130 06:10:52.777716 22785 net.cpp:122] Setting up conv2/relu_3x3
I1130 06:10:52.777722 22785 net.cpp:129] Top shape: 32 192 56 56 (19267584)
I1130 06:10:52.777727 22785 net.cpp:137] Memory required for data: 481689728
I1130 06:10:52.777731 22785 layer_factory.hpp:77] Creating layer conv2/norm2
I1130 06:10:52.777739 22785 net.cpp:84] Creating Layer conv2/norm2
I1130 06:10:52.777743 22785 net.cpp:406] conv2/norm2 <- conv2/3x3
I1130 06:10:52.777750 22785 net.cpp:380] conv2/norm2 -> conv2/norm2
I1130 06:10:52.777779 22785 net.cpp:122] Setting up conv2/norm2
I1130 06:10:52.777786 22785 net.cpp:129] Top shape: 32 192 56 56 (19267584)
I1130 06:10:52.777791 22785 net.cpp:137] Memory required for data: 558760064
I1130 06:10:52.777796 22785 layer_factory.hpp:77] Creating layer pool2/3x3_s2
I1130 06:10:52.777802 22785 net.cpp:84] Creating Layer pool2/3x3_s2
I1130 06:10:52.777807 22785 net.cpp:406] pool2/3x3_s2 <- conv2/norm2
I1130 06:10:52.777813 22785 net.cpp:380] pool2/3x3_s2 -> pool2/3x3_s2
I1130 06:10:52.777842 22785 net.cpp:122] Setting up pool2/3x3_s2
I1130 06:10:52.777849 22785 net.cpp:129] Top shape: 32 192 28 28 (4816896)
I1130 06:10:52.777856 22785 net.cpp:137] Memory required for data: 578027648
I1130 06:10:52.777861 22785 layer_factory.hpp:77] Creating layer pool2/3x3_s2_pool2/3x3_s2_0_split
I1130 06:10:52.777868 22785 net.cpp:84] Creating Layer pool2/3x3_s2_pool2/3x3_s2_0_split
I1130 06:10:52.777873 22785 net.cpp:406] pool2/3x3_s2_pool2/3x3_s2_0_split <- pool2/3x3_s2
I1130 06:10:52.777880 22785 net.cpp:380] pool2/3x3_s2_pool2/3x3_s2_0_split -> pool2/3x3_s2_pool2/3x3_s2_0_split_0
I1130 06:10:52.777887 22785 net.cpp:380] pool2/3x3_s2_pool2/3x3_s2_0_split -> pool2/3x3_s2_pool2/3x3_s2_0_split_1
I1130 06:10:52.777894 22785 net.cpp:380] pool2/3x3_s2_pool2/3x3_s2_0_split -> pool2/3x3_s2_pool2/3x3_s2_0_split_2
I1130 06:10:52.777901 22785 net.cpp:380] pool2/3x3_s2_pool2/3x3_s2_0_split -> pool2/3x3_s2_pool2/3x3_s2_0_split_3
I1130 06:10:52.777940 22785 net.cpp:122] Setting up pool2/3x3_s2_pool2/3x3_s2_0_split
I1130 06:10:52.777947 22785 net.cpp:129] Top shape: 32 192 28 28 (4816896)
I1130 06:10:52.777953 22785 net.cpp:129] Top shape: 32 192 28 28 (4816896)
I1130 06:10:52.777958 22785 net.cpp:129] Top shape: 32 192 28 28 (4816896)
I1130 06:10:52.777963 22785 net.cpp:129] Top shape: 32 192 28 28 (4816896)
I1130 06:10:52.777967 22785 net.cpp:137] Memory required for data: 655097984
I1130 06:10:52.777972 22785 layer_factory.hpp:77] Creating layer inception_3a/1x1
I1130 06:10:52.777981 22785 net.cpp:84] Creating Layer inception_3a/1x1
I1130 06:10:52.777987 22785 net.cpp:406] inception_3a/1x1 <- pool2/3x3_s2_pool2/3x3_s2_0_split_0
I1130 06:10:52.777994 22785 net.cpp:380] inception_3a/1x1 -> inception_3a/1x1
I1130 06:10:52.778662 22785 net.cpp:122] Setting up inception_3a/1x1
I1130 06:10:52.778673 22785 net.cpp:129] Top shape: 32 64 28 28 (1605632)
I1130 06:10:52.778677 22785 net.cpp:137] Memory required for data: 661520512
I1130 06:10:52.778687 22785 layer_factory.hpp:77] Creating layer inception_3a/relu_1x1
I1130 06:10:52.778693 22785 net.cpp:84] Creating Layer inception_3a/relu_1x1
I1130 06:10:52.778699 22785 net.cpp:406] inception_3a/relu_1x1 <- inception_3a/1x1
I1130 06:10:52.778705 22785 net.cpp:367] inception_3a/relu_1x1 -> inception_3a/1x1 (in-place)
I1130 06:10:52.778713 22785 net.cpp:122] Setting up inception_3a/relu_1x1
I1130 06:10:52.778719 22785 net.cpp:129] Top shape: 32 64 28 28 (1605632)
I1130 06:10:52.778724 22785 net.cpp:137] Memory required for data: 667943040
I1130 06:10:52.778728 22785 layer_factory.hpp:77] Creating layer inception_3a/3x3_reduce
I1130 06:10:52.778736 22785 net.cpp:84] Creating Layer inception_3a/3x3_reduce
I1130 06:10:52.778741 22785 net.cpp:406] inception_3a/3x3_reduce <- pool2/3x3_s2_pool2/3x3_s2_0_split_1
I1130 06:10:52.778748 22785 net.cpp:380] inception_3a/3x3_reduce -> inception_3a/3x3_reduce
I1130 06:10:52.779321 22785 net.cpp:122] Setting up inception_3a/3x3_reduce
I1130 06:10:52.779332 22785 net.cpp:129] Top shape: 32 96 28 28 (2408448)
I1130 06:10:52.779336 22785 net.cpp:137] Memory required for data: 677576832
I1130 06:10:52.779347 22785 layer_factory.hpp:77] Creating layer inception_3a/relu_3x3_reduce
I1130 06:10:52.779355 22785 net.cpp:84] Creating Layer inception_3a/relu_3x3_reduce
I1130 06:10:52.779361 22785 net.cpp:406] inception_3a/relu_3x3_reduce <- inception_3a/3x3_reduce
I1130 06:10:52.779366 22785 net.cpp:367] inception_3a/relu_3x3_reduce -> inception_3a/3x3_reduce (in-place)
I1130 06:10:52.779376 22785 net.cpp:122] Setting up inception_3a/relu_3x3_reduce
I1130 06:10:52.779381 22785 net.cpp:129] Top shape: 32 96 28 28 (2408448)
I1130 06:10:52.779386 22785 net.cpp:137] Memory required for data: 687210624
I1130 06:10:52.779391 22785 layer_factory.hpp:77] Creating layer inception_3a/3x3
I1130 06:10:52.779400 22785 net.cpp:84] Creating Layer inception_3a/3x3
I1130 06:10:52.779404 22785 net.cpp:406] inception_3a/3x3 <- inception_3a/3x3_reduce
I1130 06:10:52.779412 22785 net.cpp:380] inception_3a/3x3 -> inception_3a/3x3
I1130 06:10:52.780180 22785 net.cpp:122] Setting up inception_3a/3x3
I1130 06:10:52.780190 22785 net.cpp:129] Top shape: 32 128 28 28 (3211264)
I1130 06:10:52.780200 22785 net.cpp:137] Memory required for data: 700055680
I1130 06:10:52.780206 22785 layer_factory.hpp:77] Creating layer inception_3a/relu_3x3
I1130 06:10:52.780213 22785 net.cpp:84] Creating Layer inception_3a/relu_3x3
I1130 06:10:52.780218 22785 net.cpp:406] inception_3a/relu_3x3 <- inception_3a/3x3
I1130 06:10:52.780225 22785 net.cpp:367] inception_3a/relu_3x3 -> inception_3a/3x3 (in-place)
I1130 06:10:52.780232 22785 net.cpp:122] Setting up inception_3a/relu_3x3
I1130 06:10:52.780238 22785 net.cpp:129] Top shape: 32 128 28 28 (3211264)
I1130 06:10:52.780243 22785 net.cpp:137] Memory required for data: 712900736
I1130 06:10:52.780247 22785 layer_factory.hpp:77] Creating layer inception_3a/5x5_reduce
I1130 06:10:52.780256 22785 net.cpp:84] Creating Layer inception_3a/5x5_reduce
I1130 06:10:52.780261 22785 net.cpp:406] inception_3a/5x5_reduce <- pool2/3x3_s2_pool2/3x3_s2_0_split_2
I1130 06:10:52.780268 22785 net.cpp:380] inception_3a/5x5_reduce -> inception_3a/5x5_reduce
I1130 06:10:52.780454 22785 net.cpp:122] Setting up inception_3a/5x5_reduce
I1130 06:10:52.780464 22785 net.cpp:129] Top shape: 32 16 28 28 (401408)
I1130 06:10:52.780469 22785 net.cpp:137] Memory required for data: 714506368
I1130 06:10:52.780477 22785 layer_factory.hpp:77] Creating layer inception_3a/relu_5x5_reduce
I1130 06:10:52.780484 22785 net.cpp:84] Creating Layer inception_3a/relu_5x5_reduce
I1130 06:10:52.780489 22785 net.cpp:406] inception_3a/relu_5x5_reduce <- inception_3a/5x5_reduce
I1130 06:10:52.780496 22785 net.cpp:367] inception_3a/relu_5x5_reduce -> inception_3a/5x5_reduce (in-place)
I1130 06:10:52.780503 22785 net.cpp:122] Setting up inception_3a/relu_5x5_reduce
I1130 06:10:52.780509 22785 net.cpp:129] Top shape: 32 16 28 28 (401408)
I1130 06:10:52.780514 22785 net.cpp:137] Memory required for data: 716112000
I1130 06:10:52.780517 22785 layer_factory.hpp:77] Creating layer inception_3a/5x5
I1130 06:10:52.780526 22785 net.cpp:84] Creating Layer inception_3a/5x5
I1130 06:10:52.780530 22785 net.cpp:406] inception_3a/5x5 <- inception_3a/5x5_reduce
I1130 06:10:52.780537 22785 net.cpp:380] inception_3a/5x5 -> inception_3a/5x5
I1130 06:10:52.780766 22785 net.cpp:122] Setting up inception_3a/5x5
I1130 06:10:52.780776 22785 net.cpp:129] Top shape: 32 32 28 28 (802816)
I1130 06:10:52.780781 22785 net.cpp:137] Memory required for data: 719323264
I1130 06:10:52.780787 22785 layer_factory.hpp:77] Creating layer inception_3a/relu_5x5
I1130 06:10:52.780794 22785 net.cpp:84] Creating Layer inception_3a/relu_5x5
I1130 06:10:52.780799 22785 net.cpp:406] inception_3a/relu_5x5 <- inception_3a/5x5
I1130 06:10:52.780805 22785 net.cpp:367] inception_3a/relu_5x5 -> inception_3a/5x5 (in-place)
I1130 06:10:52.780812 22785 net.cpp:122] Setting up inception_3a/relu_5x5
I1130 06:10:52.780817 22785 net.cpp:129] Top shape: 32 32 28 28 (802816)
I1130 06:10:52.780822 22785 net.cpp:137] Memory required for data: 722534528
I1130 06:10:52.780827 22785 layer_factory.hpp:77] Creating layer inception_3a/pool
I1130 06:10:52.780833 22785 net.cpp:84] Creating Layer inception_3a/pool
I1130 06:10:52.780838 22785 net.cpp:406] inception_3a/pool <- pool2/3x3_s2_pool2/3x3_s2_0_split_3
I1130 06:10:52.780844 22785 net.cpp:380] inception_3a/pool -> inception_3a/pool
I1130 06:10:52.780874 22785 net.cpp:122] Setting up inception_3a/pool
I1130 06:10:52.780881 22785 net.cpp:129] Top shape: 32 192 28 28 (4816896)
I1130 06:10:52.780886 22785 net.cpp:137] Memory required for data: 741802112
I1130 06:10:52.780890 22785 layer_factory.hpp:77] Creating layer inception_3a/pool_proj
I1130 06:10:52.780900 22785 net.cpp:84] Creating Layer inception_3a/pool_proj
I1130 06:10:52.780905 22785 net.cpp:406] inception_3a/pool_proj <- inception_3a/pool
I1130 06:10:52.780912 22785 net.cpp:380] inception_3a/pool_proj -> inception_3a/pool_proj
I1130 06:10:52.781102 22785 net.cpp:122] Setting up inception_3a/pool_proj
I1130 06:10:52.781111 22785 net.cpp:129] Top shape: 32 32 28 28 (802816)
I1130 06:10:52.781116 22785 net.cpp:137] Memory required for data: 745013376
I1130 06:10:52.781126 22785 layer_factory.hpp:77] Creating layer inception_3a/relu_pool_proj
I1130 06:10:52.781134 22785 net.cpp:84] Creating Layer inception_3a/relu_pool_proj
I1130 06:10:52.781139 22785 net.cpp:406] inception_3a/relu_pool_proj <- inception_3a/pool_proj
I1130 06:10:52.781146 22785 net.cpp:367] inception_3a/relu_pool_proj -> inception_3a/pool_proj (in-place)
I1130 06:10:52.781153 22785 net.cpp:122] Setting up inception_3a/relu_pool_proj
I1130 06:10:52.781158 22785 net.cpp:129] Top shape: 32 32 28 28 (802816)
I1130 06:10:52.781163 22785 net.cpp:137] Memory required for data: 748224640
I1130 06:10:52.781167 22785 layer_factory.hpp:77] Creating layer inception_3a/output
I1130 06:10:52.781174 22785 net.cpp:84] Creating Layer inception_3a/output
I1130 06:10:52.781179 22785 net.cpp:406] inception_3a/output <- inception_3a/1x1
I1130 06:10:52.781184 22785 net.cpp:406] inception_3a/output <- inception_3a/3x3
I1130 06:10:52.781190 22785 net.cpp:406] inception_3a/output <- inception_3a/5x5
I1130 06:10:52.781195 22785 net.cpp:406] inception_3a/output <- inception_3a/pool_proj
I1130 06:10:52.781201 22785 net.cpp:380] inception_3a/output -> inception_3a/output
I1130 06:10:52.781224 22785 net.cpp:122] Setting up inception_3a/output
I1130 06:10:52.781230 22785 net.cpp:129] Top shape: 32 256 28 28 (6422528)
I1130 06:10:52.781236 22785 net.cpp:137] Memory required for data: 773914752
I1130 06:10:52.781240 22785 layer_factory.hpp:77] Creating layer inception_3a/output_inception_3a/output_0_split
I1130 06:10:52.781249 22785 net.cpp:84] Creating Layer inception_3a/output_inception_3a/output_0_split
I1130 06:10:52.781253 22785 net.cpp:406] inception_3a/output_inception_3a/output_0_split <- inception_3a/output
I1130 06:10:52.781260 22785 net.cpp:380] inception_3a/output_inception_3a/output_0_split -> inception_3a/output_inception_3a/output_0_split_0
I1130 06:10:52.781266 22785 net.cpp:380] inception_3a/output_inception_3a/output_0_split -> inception_3a/output_inception_3a/output_0_split_1
I1130 06:10:52.781275 22785 net.cpp:380] inception_3a/output_inception_3a/output_0_split -> inception_3a/output_inception_3a/output_0_split_2
I1130 06:10:52.781281 22785 net.cpp:380] inception_3a/output_inception_3a/output_0_split -> inception_3a/output_inception_3a/output_0_split_3
I1130 06:10:52.781335 22785 net.cpp:122] Setting up inception_3a/output_inception_3a/output_0_split
I1130 06:10:52.781343 22785 net.cpp:129] Top shape: 32 256 28 28 (6422528)
I1130 06:10:52.781348 22785 net.cpp:129] Top shape: 32 256 28 28 (6422528)
I1130 06:10:52.781354 22785 net.cpp:129] Top shape: 32 256 28 28 (6422528)
I1130 06:10:52.781360 22785 net.cpp:129] Top shape: 32 256 28 28 (6422528)
I1130 06:10:52.781365 22785 net.cpp:137] Memory required for data: 876675200
I1130 06:10:52.781369 22785 layer_factory.hpp:77] Creating layer inception_3b/1x1
I1130 06:10:52.781378 22785 net.cpp:84] Creating Layer inception_3b/1x1
I1130 06:10:52.781384 22785 net.cpp:406] inception_3b/1x1 <- inception_3a/output_inception_3a/output_0_split_0
I1130 06:10:52.781391 22785 net.cpp:380] inception_3b/1x1 -> inception_3b/1x1
I1130 06:10:52.781755 22785 net.cpp:122] Setting up inception_3b/1x1
I1130 06:10:52.781765 22785 net.cpp:129] Top shape: 32 128 28 28 (3211264)
I1130 06:10:52.781771 22785 net.cpp:137] Memory required for data: 889520256
I1130 06:10:52.781780 22785 layer_factory.hpp:77] Creating layer inception_3b/relu_1x1
I1130 06:10:52.781786 22785 net.cpp:84] Creating Layer inception_3b/relu_1x1
I1130 06:10:52.781791 22785 net.cpp:406] inception_3b/relu_1x1 <- inception_3b/1x1
I1130 06:10:52.781798 22785 net.cpp:367] inception_3b/relu_1x1 -> inception_3b/1x1 (in-place)
I1130 06:10:52.781805 22785 net.cpp:122] Setting up inception_3b/relu_1x1
I1130 06:10:52.781811 22785 net.cpp:129] Top shape: 32 128 28 28 (3211264)
I1130 06:10:52.781816 22785 net.cpp:137] Memory required for data: 902365312
I1130 06:10:52.781821 22785 layer_factory.hpp:77] Creating layer inception_3b/3x3_reduce
I1130 06:10:52.781829 22785 net.cpp:84] Creating Layer inception_3b/3x3_reduce
I1130 06:10:52.781834 22785 net.cpp:406] inception_3b/3x3_reduce <- inception_3a/output_inception_3a/output_0_split_1
I1130 06:10:52.781843 22785 net.cpp:380] inception_3b/3x3_reduce -> inception_3b/3x3_reduce
I1130 06:10:52.782207 22785 net.cpp:122] Setting up inception_3b/3x3_reduce
I1130 06:10:52.782217 22785 net.cpp:129] Top shape: 32 128 28 28 (3211264)
I1130 06:10:52.782222 22785 net.cpp:137] Memory required for data: 915210368
I1130 06:10:52.782229 22785 layer_factory.hpp:77] Creating layer inception_3b/relu_3x3_reduce
I1130 06:10:52.782236 22785 net.cpp:84] Creating Layer inception_3b/relu_3x3_reduce
I1130 06:10:52.782243 22785 net.cpp:406] inception_3b/relu_3x3_reduce <- inception_3b/3x3_reduce
I1130 06:10:52.782248 22785 net.cpp:367] inception_3b/relu_3x3_reduce -> inception_3b/3x3_reduce (in-place)
I1130 06:10:52.782256 22785 net.cpp:122] Setting up inception_3b/relu_3x3_reduce
I1130 06:10:52.782263 22785 net.cpp:129] Top shape: 32 128 28 28 (3211264)
I1130 06:10:52.782268 22785 net.cpp:137] Memory required for data: 928055424
I1130 06:10:52.782272 22785 layer_factory.hpp:77] Creating layer inception_3b/3x3
I1130 06:10:52.782280 22785 net.cpp:84] Creating Layer inception_3b/3x3
I1130 06:10:52.782285 22785 net.cpp:406] inception_3b/3x3 <- inception_3b/3x3_reduce
I1130 06:10:52.782294 22785 net.cpp:380] inception_3b/3x3 -> inception_3b/3x3
I1130 06:10:52.784103 22785 net.cpp:122] Setting up inception_3b/3x3
I1130 06:10:52.784116 22785 net.cpp:129] Top shape: 32 192 28 28 (4816896)
I1130 06:10:52.784121 22785 net.cpp:137] Memory required for data: 947323008
I1130 06:10:52.784128 22785 layer_factory.hpp:77] Creating layer inception_3b/relu_3x3
I1130 06:10:52.784137 22785 net.cpp:84] Creating Layer inception_3b/relu_3x3
I1130 06:10:52.784143 22785 net.cpp:406] inception_3b/relu_3x3 <- inception_3b/3x3
I1130 06:10:52.784149 22785 net.cpp:367] inception_3b/relu_3x3 -> inception_3b/3x3 (in-place)
I1130 06:10:52.784158 22785 net.cpp:122] Setting up inception_3b/relu_3x3
I1130 06:10:52.784164 22785 net.cpp:129] Top shape: 32 192 28 28 (4816896)
I1130 06:10:52.784169 22785 net.cpp:137] Memory required for data: 966590592
I1130 06:10:52.784174 22785 layer_factory.hpp:77] Creating layer inception_3b/5x5_reduce
I1130 06:10:52.784183 22785 net.cpp:84] Creating Layer inception_3b/5x5_reduce
I1130 06:10:52.784188 22785 net.cpp:406] inception_3b/5x5_reduce <- inception_3a/output_inception_3a/output_0_split_2
I1130 06:10:52.784195 22785 net.cpp:380] inception_3b/5x5_reduce -> inception_3b/5x5_reduce
I1130 06:10:52.784421 22785 net.cpp:122] Setting up inception_3b/5x5_reduce
I1130 06:10:52.784431 22785 net.cpp:129] Top shape: 32 32 28 28 (802816)
I1130 06:10:52.784436 22785 net.cpp:137] Memory required for data: 969801856
I1130 06:10:52.784446 22785 layer_factory.hpp:77] Creating layer inception_3b/relu_5x5_reduce
I1130 06:10:52.784452 22785 net.cpp:84] Creating Layer inception_3b/relu_5x5_reduce
I1130 06:10:52.784458 22785 net.cpp:406] inception_3b/relu_5x5_reduce <- inception_3b/5x5_reduce
I1130 06:10:52.784466 22785 net.cpp:367] inception_3b/relu_5x5_reduce -> inception_3b/5x5_reduce (in-place)
I1130 06:10:52.784472 22785 net.cpp:122] Setting up inception_3b/relu_5x5_reduce
I1130 06:10:52.784478 22785 net.cpp:129] Top shape: 32 32 28 28 (802816)
I1130 06:10:52.784483 22785 net.cpp:137] Memory required for data: 973013120
I1130 06:10:52.784487 22785 layer_factory.hpp:77] Creating layer inception_3b/5x5
I1130 06:10:52.784497 22785 net.cpp:84] Creating Layer inception_3b/5x5
I1130 06:10:52.784502 22785 net.cpp:406] inception_3b/5x5 <- inception_3b/5x5_reduce
I1130 06:10:52.784508 22785 net.cpp:380] inception_3b/5x5 -> inception_3b/5x5
I1130 06:10:52.785464 22785 net.cpp:122] Setting up inception_3b/5x5
I1130 06:10:52.785475 22785 net.cpp:129] Top shape: 32 96 28 28 (2408448)
I1130 06:10:52.785480 22785 net.cpp:137] Memory required for data: 982646912
I1130 06:10:52.785487 22785 layer_factory.hpp:77] Creating layer inception_3b/relu_5x5
I1130 06:10:52.785495 22785 net.cpp:84] Creating Layer inception_3b/relu_5x5
I1130 06:10:52.785501 22785 net.cpp:406] inception_3b/relu_5x5 <- inception_3b/5x5
I1130 06:10:52.785509 22785 net.cpp:367] inception_3b/relu_5x5 -> inception_3b/5x5 (in-place)
I1130 06:10:52.785517 22785 net.cpp:122] Setting up inception_3b/relu_5x5
I1130 06:10:52.785523 22785 net.cpp:129] Top shape: 32 96 28 28 (2408448)
I1130 06:10:52.785528 22785 net.cpp:137] Memory required for data: 992280704
I1130 06:10:52.785533 22785 layer_factory.hpp:77] Creating layer inception_3b/pool
I1130 06:10:52.785540 22785 net.cpp:84] Creating Layer inception_3b/pool
I1130 06:10:52.785545 22785 net.cpp:406] inception_3b/pool <- inception_3a/output_inception_3a/output_0_split_3
I1130 06:10:52.785552 22785 net.cpp:380] inception_3b/pool -> inception_3b/pool
I1130 06:10:52.785585 22785 net.cpp:122] Setting up inception_3b/pool
I1130 06:10:52.785593 22785 net.cpp:129] Top shape: 32 256 28 28 (6422528)
I1130 06:10:52.785598 22785 net.cpp:137] Memory required for data: 1017970816
I1130 06:10:52.785603 22785 layer_factory.hpp:77] Creating layer inception_3b/pool_proj
I1130 06:10:52.785612 22785 net.cpp:84] Creating Layer inception_3b/pool_proj
I1130 06:10:52.785619 22785 net.cpp:406] inception_3b/pool_proj <- inception_3b/pool
I1130 06:10:52.785626 22785 net.cpp:380] inception_3b/pool_proj -> inception_3b/pool_proj
I1130 06:10:52.785898 22785 net.cpp:122] Setting up inception_3b/pool_proj
I1130 06:10:52.785908 22785 net.cpp:129] Top shape: 32 64 28 28 (1605632)
I1130 06:10:52.785913 22785 net.cpp:137] Memory required for data: 1024393344
I1130 06:10:52.785923 22785 layer_factory.hpp:77] Creating layer inception_3b/relu_pool_proj
I1130 06:10:52.785929 22785 net.cpp:84] Creating Layer inception_3b/relu_pool_proj
I1130 06:10:52.785934 22785 net.cpp:406] inception_3b/relu_pool_proj <- inception_3b/pool_proj
I1130 06:10:52.785941 22785 net.cpp:367] inception_3b/relu_pool_proj -> inception_3b/pool_proj (in-place)
I1130 06:10:52.785949 22785 net.cpp:122] Setting up inception_3b/relu_pool_proj
I1130 06:10:52.785955 22785 net.cpp:129] Top shape: 32 64 28 28 (1605632)
I1130 06:10:52.785960 22785 net.cpp:137] Memory required for data: 1030815872
I1130 06:10:52.785965 22785 layer_factory.hpp:77] Creating layer inception_3b/output
I1130 06:10:52.785972 22785 net.cpp:84] Creating Layer inception_3b/output
I1130 06:10:52.785977 22785 net.cpp:406] inception_3b/output <- inception_3b/1x1
I1130 06:10:52.785984 22785 net.cpp:406] inception_3b/output <- inception_3b/3x3
I1130 06:10:52.785989 22785 net.cpp:406] inception_3b/output <- inception_3b/5x5
I1130 06:10:52.785995 22785 net.cpp:406] inception_3b/output <- inception_3b/pool_proj
I1130 06:10:52.786001 22785 net.cpp:380] inception_3b/output -> inception_3b/output
I1130 06:10:52.786026 22785 net.cpp:122] Setting up inception_3b/output
I1130 06:10:52.786034 22785 net.cpp:129] Top shape: 32 480 28 28 (12042240)
I1130 06:10:52.786041 22785 net.cpp:137] Memory required for data: 1078984832
I1130 06:10:52.786044 22785 layer_factory.hpp:77] Creating layer pool3/3x3_s2
I1130 06:10:52.786052 22785 net.cpp:84] Creating Layer pool3/3x3_s2
I1130 06:10:52.786057 22785 net.cpp:406] pool3/3x3_s2 <- inception_3b/output
I1130 06:10:52.786064 22785 net.cpp:380] pool3/3x3_s2 -> pool3/3x3_s2
I1130 06:10:52.786094 22785 net.cpp:122] Setting up pool3/3x3_s2
I1130 06:10:52.786103 22785 net.cpp:129] Top shape: 32 480 14 14 (3010560)
I1130 06:10:52.786108 22785 net.cpp:137] Memory required for data: 1091027072
I1130 06:10:52.786113 22785 layer_factory.hpp:77] Creating layer pool3/3x3_s2_pool3/3x3_s2_0_split
I1130 06:10:52.786119 22785 net.cpp:84] Creating Layer pool3/3x3_s2_pool3/3x3_s2_0_split
I1130 06:10:52.786124 22785 net.cpp:406] pool3/3x3_s2_pool3/3x3_s2_0_split <- pool3/3x3_s2
I1130 06:10:52.786131 22785 net.cpp:380] pool3/3x3_s2_pool3/3x3_s2_0_split -> pool3/3x3_s2_pool3/3x3_s2_0_split_0
I1130 06:10:52.786139 22785 net.cpp:380] pool3/3x3_s2_pool3/3x3_s2_0_split -> pool3/3x3_s2_pool3/3x3_s2_0_split_1
I1130 06:10:52.786146 22785 net.cpp:380] pool3/3x3_s2_pool3/3x3_s2_0_split -> pool3/3x3_s2_pool3/3x3_s2_0_split_2
I1130 06:10:52.786154 22785 net.cpp:380] pool3/3x3_s2_pool3/3x3_s2_0_split -> pool3/3x3_s2_pool3/3x3_s2_0_split_3
I1130 06:10:52.786201 22785 net.cpp:122] Setting up pool3/3x3_s2_pool3/3x3_s2_0_split
I1130 06:10:52.786207 22785 net.cpp:129] Top shape: 32 480 14 14 (3010560)
I1130 06:10:52.786213 22785 net.cpp:129] Top shape: 32 480 14 14 (3010560)
I1130 06:10:52.786219 22785 net.cpp:129] Top shape: 32 480 14 14 (3010560)
I1130 06:10:52.786226 22785 net.cpp:129] Top shape: 32 480 14 14 (3010560)
I1130 06:10:52.786229 22785 net.cpp:137] Memory required for data: 1139196032
I1130 06:10:52.786234 22785 layer_factory.hpp:77] Creating layer inception_4a/1x1
I1130 06:10:52.786243 22785 net.cpp:84] Creating Layer inception_4a/1x1
I1130 06:10:52.786248 22785 net.cpp:406] inception_4a/1x1 <- pool3/3x3_s2_pool3/3x3_s2_0_split_0
I1130 06:10:52.786257 22785 net.cpp:380] inception_4a/1x1 -> inception_4a/1x1
I1130 06:10:52.786963 22785 net.cpp:122] Setting up inception_4a/1x1
I1130 06:10:52.786973 22785 net.cpp:129] Top shape: 32 192 14 14 (1204224)
I1130 06:10:52.786978 22785 net.cpp:137] Memory required for data: 1144012928
I1130 06:10:52.786985 22785 layer_factory.hpp:77] Creating layer inception_4a/relu_1x1
I1130 06:10:52.786993 22785 net.cpp:84] Creating Layer inception_4a/relu_1x1
I1130 06:10:52.786998 22785 net.cpp:406] inception_4a/relu_1x1 <- inception_4a/1x1
I1130 06:10:52.787005 22785 net.cpp:367] inception_4a/relu_1x1 -> inception_4a/1x1 (in-place)
I1130 06:10:52.787014 22785 net.cpp:122] Setting up inception_4a/relu_1x1
I1130 06:10:52.787019 22785 net.cpp:129] Top shape: 32 192 14 14 (1204224)
I1130 06:10:52.787024 22785 net.cpp:137] Memory required for data: 1148829824
I1130 06:10:52.787029 22785 layer_factory.hpp:77] Creating layer inception_4a/3x3_reduce
I1130 06:10:52.787037 22785 net.cpp:84] Creating Layer inception_4a/3x3_reduce
I1130 06:10:52.787042 22785 net.cpp:406] inception_4a/3x3_reduce <- pool3/3x3_s2_pool3/3x3_s2_0_split_1
I1130 06:10:52.787050 22785 net.cpp:380] inception_4a/3x3_reduce -> inception_4a/3x3_reduce
I1130 06:10:52.787508 22785 net.cpp:122] Setting up inception_4a/3x3_reduce
I1130 06:10:52.787518 22785 net.cpp:129] Top shape: 32 96 14 14 (602112)
I1130 06:10:52.787523 22785 net.cpp:137] Memory required for data: 1151238272
I1130 06:10:52.787533 22785 layer_factory.hpp:77] Creating layer inception_4a/relu_3x3_reduce
I1130 06:10:52.787540 22785 net.cpp:84] Creating Layer inception_4a/relu_3x3_reduce
I1130 06:10:52.787546 22785 net.cpp:406] inception_4a/relu_3x3_reduce <- inception_4a/3x3_reduce
I1130 06:10:52.787554 22785 net.cpp:367] inception_4a/relu_3x3_reduce -> inception_4a/3x3_reduce (in-place)
I1130 06:10:52.787560 22785 net.cpp:122] Setting up inception_4a/relu_3x3_reduce
I1130 06:10:52.787567 22785 net.cpp:129] Top shape: 32 96 14 14 (602112)
I1130 06:10:52.787571 22785 net.cpp:137] Memory required for data: 1153646720
I1130 06:10:52.787576 22785 layer_factory.hpp:77] Creating layer inception_4a/3x3
I1130 06:10:52.787585 22785 net.cpp:84] Creating Layer inception_4a/3x3
I1130 06:10:52.787590 22785 net.cpp:406] inception_4a/3x3 <- inception_4a/3x3_reduce
I1130 06:10:52.787597 22785 net.cpp:380] inception_4a/3x3 -> inception_4a/3x3
I1130 06:10:52.789151 22785 net.cpp:122] Setting up inception_4a/3x3
I1130 06:10:52.789162 22785 net.cpp:129] Top shape: 32 208 14 14 (1304576)
I1130 06:10:52.789167 22785 net.cpp:137] Memory required for data: 1158865024
I1130 06:10:52.789175 22785 layer_factory.hpp:77] Creating layer inception_4a/relu_3x3
I1130 06:10:52.789182 22785 net.cpp:84] Creating Layer inception_4a/relu_3x3
I1130 06:10:52.789187 22785 net.cpp:406] inception_4a/relu_3x3 <- inception_4a/3x3
I1130 06:10:52.789194 22785 net.cpp:367] inception_4a/relu_3x3 -> inception_4a/3x3 (in-place)
I1130 06:10:52.789202 22785 net.cpp:122] Setting up inception_4a/relu_3x3
I1130 06:10:52.789209 22785 net.cpp:129] Top shape: 32 208 14 14 (1304576)
I1130 06:10:52.789213 22785 net.cpp:137] Memory required for data: 1164083328
I1130 06:10:52.789218 22785 layer_factory.hpp:77] Creating layer inception_4a/5x5_reduce
I1130 06:10:52.789227 22785 net.cpp:84] Creating Layer inception_4a/5x5_reduce
I1130 06:10:52.789235 22785 net.cpp:406] inception_4a/5x5_reduce <- pool3/3x3_s2_pool3/3x3_s2_0_split_2
I1130 06:10:52.789242 22785 net.cpp:380] inception_4a/5x5_reduce -> inception_4a/5x5_reduce
I1130 06:10:52.789469 22785 net.cpp:122] Setting up inception_4a/5x5_reduce
I1130 06:10:52.789477 22785 net.cpp:129] Top shape: 32 16 14 14 (100352)
I1130 06:10:52.789484 22785 net.cpp:137] Memory required for data: 1164484736
I1130 06:10:52.789491 22785 layer_factory.hpp:77] Creating layer inception_4a/relu_5x5_reduce
I1130 06:10:52.789499 22785 net.cpp:84] Creating Layer inception_4a/relu_5x5_reduce
I1130 06:10:52.789505 22785 net.cpp:406] inception_4a/relu_5x5_reduce <- inception_4a/5x5_reduce
I1130 06:10:52.789510 22785 net.cpp:367] inception_4a/relu_5x5_reduce -> inception_4a/5x5_reduce (in-place)
I1130 06:10:52.789518 22785 net.cpp:122] Setting up inception_4a/relu_5x5_reduce
I1130 06:10:52.789525 22785 net.cpp:129] Top shape: 32 16 14 14 (100352)
I1130 06:10:52.789530 22785 net.cpp:137] Memory required for data: 1164886144
I1130 06:10:52.789535 22785 layer_factory.hpp:77] Creating layer inception_4a/5x5
I1130 06:10:52.789544 22785 net.cpp:84] Creating Layer inception_4a/5x5
I1130 06:10:52.789549 22785 net.cpp:406] inception_4a/5x5 <- inception_4a/5x5_reduce
I1130 06:10:52.789556 22785 net.cpp:380] inception_4a/5x5 -> inception_4a/5x5
I1130 06:10:52.789850 22785 net.cpp:122] Setting up inception_4a/5x5
I1130 06:10:52.789860 22785 net.cpp:129] Top shape: 32 48 14 14 (301056)
I1130 06:10:52.789865 22785 net.cpp:137] Memory required for data: 1166090368
I1130 06:10:52.789873 22785 layer_factory.hpp:77] Creating layer inception_4a/relu_5x5
I1130 06:10:52.789880 22785 net.cpp:84] Creating Layer inception_4a/relu_5x5
I1130 06:10:52.789885 22785 net.cpp:406] inception_4a/relu_5x5 <- inception_4a/5x5
I1130 06:10:52.789892 22785 net.cpp:367] inception_4a/relu_5x5 -> inception_4a/5x5 (in-place)
I1130 06:10:52.789901 22785 net.cpp:122] Setting up inception_4a/relu_5x5
I1130 06:10:52.789906 22785 net.cpp:129] Top shape: 32 48 14 14 (301056)
I1130 06:10:52.789911 22785 net.cpp:137] Memory required for data: 1167294592
I1130 06:10:52.789916 22785 layer_factory.hpp:77] Creating layer inception_4a/pool
I1130 06:10:52.789923 22785 net.cpp:84] Creating Layer inception_4a/pool
I1130 06:10:52.789928 22785 net.cpp:406] inception_4a/pool <- pool3/3x3_s2_pool3/3x3_s2_0_split_3
I1130 06:10:52.789935 22785 net.cpp:380] inception_4a/pool -> inception_4a/pool
I1130 06:10:52.789968 22785 net.cpp:122] Setting up inception_4a/pool
I1130 06:10:52.789976 22785 net.cpp:129] Top shape: 32 480 14 14 (3010560)
I1130 06:10:52.789981 22785 net.cpp:137] Memory required for data: 1179336832
I1130 06:10:52.789986 22785 layer_factory.hpp:77] Creating layer inception_4a/pool_proj
I1130 06:10:52.789995 22785 net.cpp:84] Creating Layer inception_4a/pool_proj
I1130 06:10:52.790000 22785 net.cpp:406] inception_4a/pool_proj <- inception_4a/pool
I1130 06:10:52.790009 22785 net.cpp:380] inception_4a/pool_proj -> inception_4a/pool_proj
I1130 06:10:52.790366 22785 net.cpp:122] Setting up inception_4a/pool_proj
I1130 06:10:52.790376 22785 net.cpp:129] Top shape: 32 64 14 14 (401408)
I1130 06:10:52.790381 22785 net.cpp:137] Memory required for data: 1180942464
I1130 06:10:52.790390 22785 layer_factory.hpp:77] Creating layer inception_4a/relu_pool_proj
I1130 06:10:52.790397 22785 net.cpp:84] Creating Layer inception_4a/relu_pool_proj
I1130 06:10:52.790403 22785 net.cpp:406] inception_4a/relu_pool_proj <- inception_4a/pool_proj
I1130 06:10:52.790410 22785 net.cpp:367] inception_4a/relu_pool_proj -> inception_4a/pool_proj (in-place)
I1130 06:10:52.790418 22785 net.cpp:122] Setting up inception_4a/relu_pool_proj
I1130 06:10:52.790424 22785 net.cpp:129] Top shape: 32 64 14 14 (401408)
I1130 06:10:52.790428 22785 net.cpp:137] Memory required for data: 1182548096
I1130 06:10:52.790433 22785 layer_factory.hpp:77] Creating layer inception_4a/output
I1130 06:10:52.790439 22785 net.cpp:84] Creating Layer inception_4a/output
I1130 06:10:52.790446 22785 net.cpp:406] inception_4a/output <- inception_4a/1x1
I1130 06:10:52.790482 22785 net.cpp:406] inception_4a/output <- inception_4a/3x3
I1130 06:10:52.790488 22785 net.cpp:406] inception_4a/output <- inception_4a/5x5
I1130 06:10:52.790493 22785 net.cpp:406] inception_4a/output <- inception_4a/pool_proj
I1130 06:10:52.790499 22785 net.cpp:380] inception_4a/output -> inception_4a/output
I1130 06:10:52.790524 22785 net.cpp:122] Setting up inception_4a/output
I1130 06:10:52.790531 22785 net.cpp:129] Top shape: 32 512 14 14 (3211264)
I1130 06:10:52.790536 22785 net.cpp:137] Memory required for data: 1195393152
I1130 06:10:52.790541 22785 layer_factory.hpp:77] Creating layer inception_4a/output_inception_4a/output_0_split
I1130 06:10:52.790549 22785 net.cpp:84] Creating Layer inception_4a/output_inception_4a/output_0_split
I1130 06:10:52.790555 22785 net.cpp:406] inception_4a/output_inception_4a/output_0_split <- inception_4a/output
I1130 06:10:52.790561 22785 net.cpp:380] inception_4a/output_inception_4a/output_0_split -> inception_4a/output_inception_4a/output_0_split_0
I1130 06:10:52.790570 22785 net.cpp:380] inception_4a/output_inception_4a/output_0_split -> inception_4a/output_inception_4a/output_0_split_1
I1130 06:10:52.790577 22785 net.cpp:380] inception_4a/output_inception_4a/output_0_split -> inception_4a/output_inception_4a/output_0_split_2
I1130 06:10:52.790585 22785 net.cpp:380] inception_4a/output_inception_4a/output_0_split -> inception_4a/output_inception_4a/output_0_split_3
I1130 06:10:52.790630 22785 net.cpp:122] Setting up inception_4a/output_inception_4a/output_0_split
I1130 06:10:52.790638 22785 net.cpp:129] Top shape: 32 512 14 14 (3211264)
I1130 06:10:52.790644 22785 net.cpp:129] Top shape: 32 512 14 14 (3211264)
I1130 06:10:52.790649 22785 net.cpp:129] Top shape: 32 512 14 14 (3211264)
I1130 06:10:52.790655 22785 net.cpp:129] Top shape: 32 512 14 14 (3211264)
I1130 06:10:52.790659 22785 net.cpp:137] Memory required for data: 1246773376
I1130 06:10:52.790664 22785 layer_factory.hpp:77] Creating layer inception_4b/1x1
I1130 06:10:52.790673 22785 net.cpp:84] Creating Layer inception_4b/1x1
I1130 06:10:52.790678 22785 net.cpp:406] inception_4b/1x1 <- inception_4a/output_inception_4a/output_0_split_0
I1130 06:10:52.790685 22785 net.cpp:380] inception_4b/1x1 -> inception_4b/1x1
I1130 06:10:52.791301 22785 net.cpp:122] Setting up inception_4b/1x1
I1130 06:10:52.791309 22785 net.cpp:129] Top shape: 32 160 14 14 (1003520)
I1130 06:10:52.791314 22785 net.cpp:137] Memory required for data: 1250787456
I1130 06:10:52.791321 22785 layer_factory.hpp:77] Creating layer inception_4b/relu_1x1
I1130 06:10:52.791328 22785 net.cpp:84] Creating Layer inception_4b/relu_1x1
I1130 06:10:52.791333 22785 net.cpp:406] inception_4b/relu_1x1 <- inception_4b/1x1
I1130 06:10:52.791339 22785 net.cpp:367] inception_4b/relu_1x1 -> inception_4b/1x1 (in-place)
I1130 06:10:52.791347 22785 net.cpp:122] Setting up inception_4b/relu_1x1
I1130 06:10:52.791352 22785 net.cpp:129] Top shape: 32 160 14 14 (1003520)
I1130 06:10:52.791357 22785 net.cpp:137] Memory required for data: 1254801536
I1130 06:10:52.791362 22785 layer_factory.hpp:77] Creating layer inception_4b/3x3_reduce
I1130 06:10:52.791369 22785 net.cpp:84] Creating Layer inception_4b/3x3_reduce
I1130 06:10:52.791374 22785 net.cpp:406] inception_4b/3x3_reduce <- inception_4a/output_inception_4a/output_0_split_1
I1130 06:10:52.791393 22785 net.cpp:380] inception_4b/3x3_reduce -> inception_4b/3x3_reduce
I1130 06:10:52.791929 22785 net.cpp:122] Setting up inception_4b/3x3_reduce
I1130 06:10:52.791939 22785 net.cpp:129] Top shape: 32 112 14 14 (702464)
I1130 06:10:52.791944 22785 net.cpp:137] Memory required for data: 1257611392
I1130 06:10:52.791951 22785 layer_factory.hpp:77] Creating layer inception_4b/relu_3x3_reduce
I1130 06:10:52.791959 22785 net.cpp:84] Creating Layer inception_4b/relu_3x3_reduce
I1130 06:10:52.791965 22785 net.cpp:406] inception_4b/relu_3x3_reduce <- inception_4b/3x3_reduce
I1130 06:10:52.791970 22785 net.cpp:367] inception_4b/relu_3x3_reduce -> inception_4b/3x3_reduce (in-place)
I1130 06:10:52.791978 22785 net.cpp:122] Setting up inception_4b/relu_3x3_reduce
I1130 06:10:52.791983 22785 net.cpp:129] Top shape: 32 112 14 14 (702464)
I1130 06:10:52.791988 22785 net.cpp:137] Memory required for data: 1260421248
I1130 06:10:52.791993 22785 layer_factory.hpp:77] Creating layer inception_4b/3x3
I1130 06:10:52.792001 22785 net.cpp:84] Creating Layer inception_4b/3x3
I1130 06:10:52.792006 22785 net.cpp:406] inception_4b/3x3 <- inception_4b/3x3_reduce
I1130 06:10:52.792012 22785 net.cpp:380] inception_4b/3x3 -> inception_4b/3x3
I1130 06:10:52.793678 22785 net.cpp:122] Setting up inception_4b/3x3
I1130 06:10:52.793687 22785 net.cpp:129] Top shape: 32 224 14 14 (1404928)
I1130 06:10:52.793692 22785 net.cpp:137] Memory required for data: 1266040960
I1130 06:10:52.793700 22785 layer_factory.hpp:77] Creating layer inception_4b/relu_3x3
I1130 06:10:52.793707 22785 net.cpp:84] Creating Layer inception_4b/relu_3x3
I1130 06:10:52.793712 22785 net.cpp:406] inception_4b/relu_3x3 <- inception_4b/3x3
I1130 06:10:52.793718 22785 net.cpp:367] inception_4b/relu_3x3 -> inception_4b/3x3 (in-place)
I1130 06:10:52.793725 22785 net.cpp:122] Setting up inception_4b/relu_3x3
I1130 06:10:52.793731 22785 net.cpp:129] Top shape: 32 224 14 14 (1404928)
I1130 06:10:52.793735 22785 net.cpp:137] Memory required for data: 1271660672
I1130 06:10:52.793740 22785 layer_factory.hpp:77] Creating layer inception_4b/5x5_reduce
I1130 06:10:52.793752 22785 net.cpp:84] Creating Layer inception_4b/5x5_reduce
I1130 06:10:52.793757 22785 net.cpp:406] inception_4b/5x5_reduce <- inception_4a/output_inception_4a/output_0_split_2
I1130 06:10:52.793764 22785 net.cpp:380] inception_4b/5x5_reduce -> inception_4b/5x5_reduce
I1130 06:10:52.794003 22785 net.cpp:122] Setting up inception_4b/5x5_reduce
I1130 06:10:52.794011 22785 net.cpp:129] Top shape: 32 24 14 14 (150528)
I1130 06:10:52.794016 22785 net.cpp:137] Memory required for data: 1272262784
I1130 06:10:52.794023 22785 layer_factory.hpp:77] Creating layer inception_4b/relu_5x5_reduce
I1130 06:10:52.794030 22785 net.cpp:84] Creating Layer inception_4b/relu_5x5_reduce
I1130 06:10:52.794036 22785 net.cpp:406] inception_4b/relu_5x5_reduce <- inception_4b/5x5_reduce
I1130 06:10:52.794041 22785 net.cpp:367] inception_4b/relu_5x5_reduce -> inception_4b/5x5_reduce (in-place)
I1130 06:10:52.794049 22785 net.cpp:122] Setting up inception_4b/relu_5x5_reduce
I1130 06:10:52.794055 22785 net.cpp:129] Top shape: 32 24 14 14 (150528)
I1130 06:10:52.794059 22785 net.cpp:137] Memory required for data: 1272864896
I1130 06:10:52.794064 22785 layer_factory.hpp:77] Creating layer inception_4b/5x5
I1130 06:10:52.794071 22785 net.cpp:84] Creating Layer inception_4b/5x5
I1130 06:10:52.794076 22785 net.cpp:406] inception_4b/5x5 <- inception_4b/5x5_reduce
I1130 06:10:52.794083 22785 net.cpp:380] inception_4b/5x5 -> inception_4b/5x5
I1130 06:10:52.794759 22785 net.cpp:122] Setting up inception_4b/5x5
I1130 06:10:52.794770 22785 net.cpp:129] Top shape: 32 64 14 14 (401408)
I1130 06:10:52.794775 22785 net.cpp:137] Memory required for data: 1274470528
I1130 06:10:52.794782 22785 layer_factory.hpp:77] Creating layer inception_4b/relu_5x5
I1130 06:10:52.794790 22785 net.cpp:84] Creating Layer inception_4b/relu_5x5
I1130 06:10:52.794795 22785 net.cpp:406] inception_4b/relu_5x5 <- inception_4b/5x5
I1130 06:10:52.794801 22785 net.cpp:367] inception_4b/relu_5x5 -> inception_4b/5x5 (in-place)
I1130 06:10:52.794808 22785 net.cpp:122] Setting up inception_4b/relu_5x5
I1130 06:10:52.794814 22785 net.cpp:129] Top shape: 32 64 14 14 (401408)
I1130 06:10:52.794818 22785 net.cpp:137] Memory required for data: 1276076160
I1130 06:10:52.794823 22785 layer_factory.hpp:77] Creating layer inception_4b/pool
I1130 06:10:52.794829 22785 net.cpp:84] Creating Layer inception_4b/pool
I1130 06:10:52.794834 22785 net.cpp:406] inception_4b/pool <- inception_4a/output_inception_4a/output_0_split_3
I1130 06:10:52.794842 22785 net.cpp:380] inception_4b/pool -> inception_4b/pool
I1130 06:10:52.794872 22785 net.cpp:122] Setting up inception_4b/pool
I1130 06:10:52.794880 22785 net.cpp:129] Top shape: 32 512 14 14 (3211264)
I1130 06:10:52.794884 22785 net.cpp:137] Memory required for data: 1288921216
I1130 06:10:52.794889 22785 layer_factory.hpp:77] Creating layer inception_4b/pool_proj
I1130 06:10:52.794898 22785 net.cpp:84] Creating Layer inception_4b/pool_proj
I1130 06:10:52.794903 22785 net.cpp:406] inception_4b/pool_proj <- inception_4b/pool
I1130 06:10:52.794910 22785 net.cpp:380] inception_4b/pool_proj -> inception_4b/pool_proj
I1130 06:10:52.795248 22785 net.cpp:122] Setting up inception_4b/pool_proj
I1130 06:10:52.795258 22785 net.cpp:129] Top shape: 32 64 14 14 (401408)
I1130 06:10:52.795262 22785 net.cpp:137] Memory required for data: 1290526848
I1130 06:10:52.795269 22785 layer_factory.hpp:77] Creating layer inception_4b/relu_pool_proj
I1130 06:10:52.795276 22785 net.cpp:84] Creating Layer inception_4b/relu_pool_proj
I1130 06:10:52.795281 22785 net.cpp:406] inception_4b/relu_pool_proj <- inception_4b/pool_proj
I1130 06:10:52.795287 22785 net.cpp:367] inception_4b/relu_pool_proj -> inception_4b/pool_proj (in-place)
I1130 06:10:52.795295 22785 net.cpp:122] Setting up inception_4b/relu_pool_proj
I1130 06:10:52.795300 22785 net.cpp:129] Top shape: 32 64 14 14 (401408)
I1130 06:10:52.795305 22785 net.cpp:137] Memory required for data: 1292132480
I1130 06:10:52.795308 22785 layer_factory.hpp:77] Creating layer inception_4b/output
I1130 06:10:52.795315 22785 net.cpp:84] Creating Layer inception_4b/output
I1130 06:10:52.795320 22785 net.cpp:406] inception_4b/output <- inception_4b/1x1
I1130 06:10:52.795325 22785 net.cpp:406] inception_4b/output <- inception_4b/3x3
I1130 06:10:52.795331 22785 net.cpp:406] inception_4b/output <- inception_4b/5x5
I1130 06:10:52.795336 22785 net.cpp:406] inception_4b/output <- inception_4b/pool_proj
I1130 06:10:52.795342 22785 net.cpp:380] inception_4b/output -> inception_4b/output
I1130 06:10:52.795363 22785 net.cpp:122] Setting up inception_4b/output
I1130 06:10:52.795370 22785 net.cpp:129] Top shape: 32 512 14 14 (3211264)
I1130 06:10:52.795375 22785 net.cpp:137] Memory required for data: 1304977536
I1130 06:10:52.795380 22785 layer_factory.hpp:77] Creating layer inception_4b/output_inception_4b/output_0_split
I1130 06:10:52.795387 22785 net.cpp:84] Creating Layer inception_4b/output_inception_4b/output_0_split
I1130 06:10:52.795392 22785 net.cpp:406] inception_4b/output_inception_4b/output_0_split <- inception_4b/output
I1130 06:10:52.795397 22785 net.cpp:380] inception_4b/output_inception_4b/output_0_split -> inception_4b/output_inception_4b/output_0_split_0
I1130 06:10:52.795404 22785 net.cpp:380] inception_4b/output_inception_4b/output_0_split -> inception_4b/output_inception_4b/output_0_split_1
I1130 06:10:52.795411 22785 net.cpp:380] inception_4b/output_inception_4b/output_0_split -> inception_4b/output_inception_4b/output_0_split_2
I1130 06:10:52.795419 22785 net.cpp:380] inception_4b/output_inception_4b/output_0_split -> inception_4b/output_inception_4b/output_0_split_3
I1130 06:10:52.795462 22785 net.cpp:122] Setting up inception_4b/output_inception_4b/output_0_split
I1130 06:10:52.795469 22785 net.cpp:129] Top shape: 32 512 14 14 (3211264)
I1130 06:10:52.795475 22785 net.cpp:129] Top shape: 32 512 14 14 (3211264)
I1130 06:10:52.795480 22785 net.cpp:129] Top shape: 32 512 14 14 (3211264)
I1130 06:10:52.795486 22785 net.cpp:129] Top shape: 32 512 14 14 (3211264)
I1130 06:10:52.795491 22785 net.cpp:137] Memory required for data: 1356357760
I1130 06:10:52.795497 22785 layer_factory.hpp:77] Creating layer inception_4c/1x1
I1130 06:10:52.795506 22785 net.cpp:84] Creating Layer inception_4c/1x1
I1130 06:10:52.795509 22785 net.cpp:406] inception_4c/1x1 <- inception_4b/output_inception_4b/output_0_split_0
I1130 06:10:52.795517 22785 net.cpp:380] inception_4c/1x1 -> inception_4c/1x1
I1130 06:10:52.796033 22785 net.cpp:122] Setting up inception_4c/1x1
I1130 06:10:52.796042 22785 net.cpp:129] Top shape: 32 128 14 14 (802816)
I1130 06:10:52.796047 22785 net.cpp:137] Memory required for data: 1359569024
I1130 06:10:52.796054 22785 layer_factory.hpp:77] Creating layer inception_4c/relu_1x1
I1130 06:10:52.796061 22785 net.cpp:84] Creating Layer inception_4c/relu_1x1
I1130 06:10:52.796066 22785 net.cpp:406] inception_4c/relu_1x1 <- inception_4c/1x1
I1130 06:10:52.796072 22785 net.cpp:367] inception_4c/relu_1x1 -> inception_4c/1x1 (in-place)
I1130 06:10:52.796080 22785 net.cpp:122] Setting up inception_4c/relu_1x1
I1130 06:10:52.796087 22785 net.cpp:129] Top shape: 32 128 14 14 (802816)
I1130 06:10:52.796090 22785 net.cpp:137] Memory required for data: 1362780288
I1130 06:10:52.796095 22785 layer_factory.hpp:77] Creating layer inception_4c/3x3_reduce
I1130 06:10:52.796103 22785 net.cpp:84] Creating Layer inception_4c/3x3_reduce
I1130 06:10:52.796108 22785 net.cpp:406] inception_4c/3x3_reduce <- inception_4b/output_inception_4b/output_0_split_1
I1130 06:10:52.796114 22785 net.cpp:380] inception_4c/3x3_reduce -> inception_4c/3x3_reduce
I1130 06:10:52.796623 22785 net.cpp:122] Setting up inception_4c/3x3_reduce
I1130 06:10:52.796633 22785 net.cpp:129] Top shape: 32 128 14 14 (802816)
I1130 06:10:52.796638 22785 net.cpp:137] Memory required for data: 1365991552
I1130 06:10:52.796645 22785 layer_factory.hpp:77] Creating layer inception_4c/relu_3x3_reduce
I1130 06:10:52.796653 22785 net.cpp:84] Creating Layer inception_4c/relu_3x3_reduce
I1130 06:10:52.796658 22785 net.cpp:406] inception_4c/relu_3x3_reduce <- inception_4c/3x3_reduce
I1130 06:10:52.796663 22785 net.cpp:367] inception_4c/relu_3x3_reduce -> inception_4c/3x3_reduce (in-place)
I1130 06:10:52.796671 22785 net.cpp:122] Setting up inception_4c/relu_3x3_reduce
I1130 06:10:52.796677 22785 net.cpp:129] Top shape: 32 128 14 14 (802816)
I1130 06:10:52.796681 22785 net.cpp:137] Memory required for data: 1369202816
I1130 06:10:52.796685 22785 layer_factory.hpp:77] Creating layer inception_4c/3x3
I1130 06:10:52.796695 22785 net.cpp:84] Creating Layer inception_4c/3x3
I1130 06:10:52.796700 22785 net.cpp:406] inception_4c/3x3 <- inception_4c/3x3_reduce
I1130 06:10:52.796706 22785 net.cpp:380] inception_4c/3x3 -> inception_4c/3x3
I1130 06:10:52.798764 22785 net.cpp:122] Setting up inception_4c/3x3
I1130 06:10:52.798775 22785 net.cpp:129] Top shape: 32 256 14 14 (1605632)
I1130 06:10:52.798780 22785 net.cpp:137] Memory required for data: 1375625344
I1130 06:10:52.798789 22785 layer_factory.hpp:77] Creating layer inception_4c/relu_3x3
I1130 06:10:52.798795 22785 net.cpp:84] Creating Layer inception_4c/relu_3x3
I1130 06:10:52.798800 22785 net.cpp:406] inception_4c/relu_3x3 <- inception_4c/3x3
I1130 06:10:52.798807 22785 net.cpp:367] inception_4c/relu_3x3 -> inception_4c/3x3 (in-place)
I1130 06:10:52.798816 22785 net.cpp:122] Setting up inception_4c/relu_3x3
I1130 06:10:52.798821 22785 net.cpp:129] Top shape: 32 256 14 14 (1605632)
I1130 06:10:52.798826 22785 net.cpp:137] Memory required for data: 1382047872
I1130 06:10:52.798831 22785 layer_factory.hpp:77] Creating layer inception_4c/5x5_reduce
I1130 06:10:52.798840 22785 net.cpp:84] Creating Layer inception_4c/5x5_reduce
I1130 06:10:52.798844 22785 net.cpp:406] inception_4c/5x5_reduce <- inception_4b/output_inception_4b/output_0_split_2
I1130 06:10:52.798851 22785 net.cpp:380] inception_4c/5x5_reduce -> inception_4c/5x5_reduce
I1130 06:10:52.799088 22785 net.cpp:122] Setting up inception_4c/5x5_reduce
I1130 06:10:52.799096 22785 net.cpp:129] Top shape: 32 24 14 14 (150528)
I1130 06:10:52.799101 22785 net.cpp:137] Memory required for data: 1382649984
I1130 06:10:52.799109 22785 layer_factory.hpp:77] Creating layer inception_4c/relu_5x5_reduce
I1130 06:10:52.799115 22785 net.cpp:84] Creating Layer inception_4c/relu_5x5_reduce
I1130 06:10:52.799120 22785 net.cpp:406] inception_4c/relu_5x5_reduce <- inception_4c/5x5_reduce
I1130 06:10:52.799127 22785 net.cpp:367] inception_4c/relu_5x5_reduce -> inception_4c/5x5_reduce (in-place)
I1130 06:10:52.799134 22785 net.cpp:122] Setting up inception_4c/relu_5x5_reduce
I1130 06:10:52.799139 22785 net.cpp:129] Top shape: 32 24 14 14 (150528)
I1130 06:10:52.799144 22785 net.cpp:137] Memory required for data: 1383252096
I1130 06:10:52.799149 22785 layer_factory.hpp:77] Creating layer inception_4c/5x5
I1130 06:10:52.799156 22785 net.cpp:84] Creating Layer inception_4c/5x5
I1130 06:10:52.799161 22785 net.cpp:406] inception_4c/5x5 <- inception_4c/5x5_reduce
I1130 06:10:52.799168 22785 net.cpp:380] inception_4c/5x5 -> inception_4c/5x5
I1130 06:10:52.799540 22785 net.cpp:122] Setting up inception_4c/5x5
I1130 06:10:52.799549 22785 net.cpp:129] Top shape: 32 64 14 14 (401408)
I1130 06:10:52.799554 22785 net.cpp:137] Memory required for data: 1384857728
I1130 06:10:52.799562 22785 layer_factory.hpp:77] Creating layer inception_4c/relu_5x5
I1130 06:10:52.799568 22785 net.cpp:84] Creating Layer inception_4c/relu_5x5
I1130 06:10:52.799573 22785 net.cpp:406] inception_4c/relu_5x5 <- inception_4c/5x5
I1130 06:10:52.799579 22785 net.cpp:367] inception_4c/relu_5x5 -> inception_4c/5x5 (in-place)
I1130 06:10:52.799587 22785 net.cpp:122] Setting up inception_4c/relu_5x5
I1130 06:10:52.799592 22785 net.cpp:129] Top shape: 32 64 14 14 (401408)
I1130 06:10:52.799597 22785 net.cpp:137] Memory required for data: 1386463360
I1130 06:10:52.799602 22785 layer_factory.hpp:77] Creating layer inception_4c/pool
I1130 06:10:52.799608 22785 net.cpp:84] Creating Layer inception_4c/pool
I1130 06:10:52.799612 22785 net.cpp:406] inception_4c/pool <- inception_4b/output_inception_4b/output_0_split_3
I1130 06:10:52.799619 22785 net.cpp:380] inception_4c/pool -> inception_4c/pool
I1130 06:10:52.799651 22785 net.cpp:122] Setting up inception_4c/pool
I1130 06:10:52.799659 22785 net.cpp:129] Top shape: 32 512 14 14 (3211264)
I1130 06:10:52.799664 22785 net.cpp:137] Memory required for data: 1399308416
I1130 06:10:52.799667 22785 layer_factory.hpp:77] Creating layer inception_4c/pool_proj
I1130 06:10:52.799676 22785 net.cpp:84] Creating Layer inception_4c/pool_proj
I1130 06:10:52.799681 22785 net.cpp:406] inception_4c/pool_proj <- inception_4c/pool
I1130 06:10:52.799688 22785 net.cpp:380] inception_4c/pool_proj -> inception_4c/pool_proj
I1130 06:10:52.800348 22785 net.cpp:122] Setting up inception_4c/pool_proj
I1130 06:10:52.800359 22785 net.cpp:129] Top shape: 32 64 14 14 (401408)
I1130 06:10:52.800362 22785 net.cpp:137] Memory required for data: 1400914048
I1130 06:10:52.800377 22785 layer_factory.hpp:77] Creating layer inception_4c/relu_pool_proj
I1130 06:10:52.800385 22785 net.cpp:84] Creating Layer inception_4c/relu_pool_proj
I1130 06:10:52.800390 22785 net.cpp:406] inception_4c/relu_pool_proj <- inception_4c/pool_proj
I1130 06:10:52.800396 22785 net.cpp:367] inception_4c/relu_pool_proj -> inception_4c/pool_proj (in-place)
I1130 06:10:52.800403 22785 net.cpp:122] Setting up inception_4c/relu_pool_proj
I1130 06:10:52.800410 22785 net.cpp:129] Top shape: 32 64 14 14 (401408)
I1130 06:10:52.800413 22785 net.cpp:137] Memory required for data: 1402519680
I1130 06:10:52.800418 22785 layer_factory.hpp:77] Creating layer inception_4c/output
I1130 06:10:52.800424 22785 net.cpp:84] Creating Layer inception_4c/output
I1130 06:10:52.800429 22785 net.cpp:406] inception_4c/output <- inception_4c/1x1
I1130 06:10:52.800434 22785 net.cpp:406] inception_4c/output <- inception_4c/3x3
I1130 06:10:52.800439 22785 net.cpp:406] inception_4c/output <- inception_4c/5x5
I1130 06:10:52.800443 22785 net.cpp:406] inception_4c/output <- inception_4c/pool_proj
I1130 06:10:52.800449 22785 net.cpp:380] inception_4c/output -> inception_4c/output
I1130 06:10:52.800472 22785 net.cpp:122] Setting up inception_4c/output
I1130 06:10:52.800479 22785 net.cpp:129] Top shape: 32 512 14 14 (3211264)
I1130 06:10:52.800483 22785 net.cpp:137] Memory required for data: 1415364736
I1130 06:10:52.800489 22785 layer_factory.hpp:77] Creating layer inception_4c/output_inception_4c/output_0_split
I1130 06:10:52.800495 22785 net.cpp:84] Creating Layer inception_4c/output_inception_4c/output_0_split
I1130 06:10:52.800501 22785 net.cpp:406] inception_4c/output_inception_4c/output_0_split <- inception_4c/output
I1130 06:10:52.800508 22785 net.cpp:380] inception_4c/output_inception_4c/output_0_split -> inception_4c/output_inception_4c/output_0_split_0
I1130 06:10:52.800514 22785 net.cpp:380] inception_4c/output_inception_4c/output_0_split -> inception_4c/output_inception_4c/output_0_split_1
I1130 06:10:52.800521 22785 net.cpp:380] inception_4c/output_inception_4c/output_0_split -> inception_4c/output_inception_4c/output_0_split_2
I1130 06:10:52.800529 22785 net.cpp:380] inception_4c/output_inception_4c/output_0_split -> inception_4c/output_inception_4c/output_0_split_3
I1130 06:10:52.800572 22785 net.cpp:122] Setting up inception_4c/output_inception_4c/output_0_split
I1130 06:10:52.800580 22785 net.cpp:129] Top shape: 32 512 14 14 (3211264)
I1130 06:10:52.800585 22785 net.cpp:129] Top shape: 32 512 14 14 (3211264)
I1130 06:10:52.800590 22785 net.cpp:129] Top shape: 32 512 14 14 (3211264)
I1130 06:10:52.800595 22785 net.cpp:129] Top shape: 32 512 14 14 (3211264)
I1130 06:10:52.800598 22785 net.cpp:137] Memory required for data: 1466744960
I1130 06:10:52.800602 22785 layer_factory.hpp:77] Creating layer inception_4d/1x1
I1130 06:10:52.800611 22785 net.cpp:84] Creating Layer inception_4d/1x1
I1130 06:10:52.800616 22785 net.cpp:406] inception_4d/1x1 <- inception_4c/output_inception_4c/output_0_split_0
I1130 06:10:52.800623 22785 net.cpp:380] inception_4d/1x1 -> inception_4d/1x1
I1130 06:10:52.801093 22785 net.cpp:122] Setting up inception_4d/1x1
I1130 06:10:52.801102 22785 net.cpp:129] Top shape: 32 112 14 14 (702464)
I1130 06:10:52.801107 22785 net.cpp:137] Memory required for data: 1469554816
I1130 06:10:52.801115 22785 layer_factory.hpp:77] Creating layer inception_4d/relu_1x1
I1130 06:10:52.801121 22785 net.cpp:84] Creating Layer inception_4d/relu_1x1
I1130 06:10:52.801126 22785 net.cpp:406] inception_4d/relu_1x1 <- inception_4d/1x1
I1130 06:10:52.801132 22785 net.cpp:367] inception_4d/relu_1x1 -> inception_4d/1x1 (in-place)
I1130 06:10:52.801139 22785 net.cpp:122] Setting up inception_4d/relu_1x1
I1130 06:10:52.801146 22785 net.cpp:129] Top shape: 32 112 14 14 (702464)
I1130 06:10:52.801149 22785 net.cpp:137] Memory required for data: 1472364672
I1130 06:10:52.801153 22785 layer_factory.hpp:77] Creating layer inception_4d/3x3_reduce
I1130 06:10:52.801160 22785 net.cpp:84] Creating Layer inception_4d/3x3_reduce
I1130 06:10:52.801165 22785 net.cpp:406] inception_4d/3x3_reduce <- inception_4c/output_inception_4c/output_0_split_1
I1130 06:10:52.801172 22785 net.cpp:380] inception_4d/3x3_reduce -> inception_4d/3x3_reduce
I1130 06:10:52.801753 22785 net.cpp:122] Setting up inception_4d/3x3_reduce
I1130 06:10:52.801762 22785 net.cpp:129] Top shape: 32 144 14 14 (903168)
I1130 06:10:52.801766 22785 net.cpp:137] Memory required for data: 1475977344
I1130 06:10:52.801775 22785 layer_factory.hpp:77] Creating layer inception_4d/relu_3x3_reduce
I1130 06:10:52.801782 22785 net.cpp:84] Creating Layer inception_4d/relu_3x3_reduce
I1130 06:10:52.801787 22785 net.cpp:406] inception_4d/relu_3x3_reduce <- inception_4d/3x3_reduce
I1130 06:10:52.801792 22785 net.cpp:367] inception_4d/relu_3x3_reduce -> inception_4d/3x3_reduce (in-place)
I1130 06:10:52.801801 22785 net.cpp:122] Setting up inception_4d/relu_3x3_reduce
I1130 06:10:52.801807 22785 net.cpp:129] Top shape: 32 144 14 14 (903168)
I1130 06:10:52.801811 22785 net.cpp:137] Memory required for data: 1479590016
I1130 06:10:52.801815 22785 layer_factory.hpp:77] Creating layer inception_4d/3x3
I1130 06:10:52.801823 22785 net.cpp:84] Creating Layer inception_4d/3x3
I1130 06:10:52.801828 22785 net.cpp:406] inception_4d/3x3 <- inception_4d/3x3_reduce
I1130 06:10:52.801834 22785 net.cpp:380] inception_4d/3x3 -> inception_4d/3x3
I1130 06:10:52.804386 22785 net.cpp:122] Setting up inception_4d/3x3
I1130 06:10:52.804397 22785 net.cpp:129] Top shape: 32 288 14 14 (1806336)
I1130 06:10:52.804401 22785 net.cpp:137] Memory required for data: 1486815360
I1130 06:10:52.804409 22785 layer_factory.hpp:77] Creating layer inception_4d/relu_3x3
I1130 06:10:52.804416 22785 net.cpp:84] Creating Layer inception_4d/relu_3x3
I1130 06:10:52.804422 22785 net.cpp:406] inception_4d/relu_3x3 <- inception_4d/3x3
I1130 06:10:52.804428 22785 net.cpp:367] inception_4d/relu_3x3 -> inception_4d/3x3 (in-place)
I1130 06:10:52.804435 22785 net.cpp:122] Setting up inception_4d/relu_3x3
I1130 06:10:52.804441 22785 net.cpp:129] Top shape: 32 288 14 14 (1806336)
I1130 06:10:52.804445 22785 net.cpp:137] Memory required for data: 1494040704
I1130 06:10:52.804450 22785 layer_factory.hpp:77] Creating layer inception_4d/5x5_reduce
I1130 06:10:52.804457 22785 net.cpp:84] Creating Layer inception_4d/5x5_reduce
I1130 06:10:52.804463 22785 net.cpp:406] inception_4d/5x5_reduce <- inception_4c/output_inception_4c/output_0_split_2
I1130 06:10:52.804471 22785 net.cpp:380] inception_4d/5x5_reduce -> inception_4d/5x5_reduce
I1130 06:10:52.804741 22785 net.cpp:122] Setting up inception_4d/5x5_reduce
I1130 06:10:52.804749 22785 net.cpp:129] Top shape: 32 32 14 14 (200704)
I1130 06:10:52.804754 22785 net.cpp:137] Memory required for data: 1494843520
I1130 06:10:52.804761 22785 layer_factory.hpp:77] Creating layer inception_4d/relu_5x5_reduce
I1130 06:10:52.804769 22785 net.cpp:84] Creating Layer inception_4d/relu_5x5_reduce
I1130 06:10:52.804774 22785 net.cpp:406] inception_4d/relu_5x5_reduce <- inception_4d/5x5_reduce
I1130 06:10:52.804780 22785 net.cpp:367] inception_4d/relu_5x5_reduce -> inception_4d/5x5_reduce (in-place)
I1130 06:10:52.804787 22785 net.cpp:122] Setting up inception_4d/relu_5x5_reduce
I1130 06:10:52.804793 22785 net.cpp:129] Top shape: 32 32 14 14 (200704)
I1130 06:10:52.804797 22785 net.cpp:137] Memory required for data: 1495646336
I1130 06:10:52.804801 22785 layer_factory.hpp:77] Creating layer inception_4d/5x5
I1130 06:10:52.804810 22785 net.cpp:84] Creating Layer inception_4d/5x5
I1130 06:10:52.804814 22785 net.cpp:406] inception_4d/5x5 <- inception_4d/5x5_reduce
I1130 06:10:52.804821 22785 net.cpp:380] inception_4d/5x5 -> inception_4d/5x5
I1130 06:10:52.805263 22785 net.cpp:122] Setting up inception_4d/5x5
I1130 06:10:52.805272 22785 net.cpp:129] Top shape: 32 64 14 14 (401408)
I1130 06:10:52.805276 22785 net.cpp:137] Memory required for data: 1497251968
I1130 06:10:52.805282 22785 layer_factory.hpp:77] Creating layer inception_4d/relu_5x5
I1130 06:10:52.805289 22785 net.cpp:84] Creating Layer inception_4d/relu_5x5
I1130 06:10:52.805294 22785 net.cpp:406] inception_4d/relu_5x5 <- inception_4d/5x5
I1130 06:10:52.805299 22785 net.cpp:367] inception_4d/relu_5x5 -> inception_4d/5x5 (in-place)
I1130 06:10:52.805306 22785 net.cpp:122] Setting up inception_4d/relu_5x5
I1130 06:10:52.805312 22785 net.cpp:129] Top shape: 32 64 14 14 (401408)
I1130 06:10:52.805316 22785 net.cpp:137] Memory required for data: 1498857600
I1130 06:10:52.805321 22785 layer_factory.hpp:77] Creating layer inception_4d/pool
I1130 06:10:52.805328 22785 net.cpp:84] Creating Layer inception_4d/pool
I1130 06:10:52.805333 22785 net.cpp:406] inception_4d/pool <- inception_4c/output_inception_4c/output_0_split_3
I1130 06:10:52.805338 22785 net.cpp:380] inception_4d/pool -> inception_4d/pool
I1130 06:10:52.805371 22785 net.cpp:122] Setting up inception_4d/pool
I1130 06:10:52.805378 22785 net.cpp:129] Top shape: 32 512 14 14 (3211264)
I1130 06:10:52.805382 22785 net.cpp:137] Memory required for data: 1511702656
I1130 06:10:52.805387 22785 layer_factory.hpp:77] Creating layer inception_4d/pool_proj
I1130 06:10:52.805395 22785 net.cpp:84] Creating Layer inception_4d/pool_proj
I1130 06:10:52.805400 22785 net.cpp:406] inception_4d/pool_proj <- inception_4d/pool
I1130 06:10:52.805408 22785 net.cpp:380] inception_4d/pool_proj -> inception_4d/pool_proj
I1130 06:10:52.805749 22785 net.cpp:122] Setting up inception_4d/pool_proj
I1130 06:10:52.805759 22785 net.cpp:129] Top shape: 32 64 14 14 (401408)
I1130 06:10:52.805763 22785 net.cpp:137] Memory required for data: 1513308288
I1130 06:10:52.805771 22785 layer_factory.hpp:77] Creating layer inception_4d/relu_pool_proj
I1130 06:10:52.805778 22785 net.cpp:84] Creating Layer inception_4d/relu_pool_proj
I1130 06:10:52.805783 22785 net.cpp:406] inception_4d/relu_pool_proj <- inception_4d/pool_proj
I1130 06:10:52.805789 22785 net.cpp:367] inception_4d/relu_pool_proj -> inception_4d/pool_proj (in-place)
I1130 06:10:52.805796 22785 net.cpp:122] Setting up inception_4d/relu_pool_proj
I1130 06:10:52.805801 22785 net.cpp:129] Top shape: 32 64 14 14 (401408)
I1130 06:10:52.805806 22785 net.cpp:137] Memory required for data: 1514913920
I1130 06:10:52.805810 22785 layer_factory.hpp:77] Creating layer inception_4d/output
I1130 06:10:52.805817 22785 net.cpp:84] Creating Layer inception_4d/output
I1130 06:10:52.805822 22785 net.cpp:406] inception_4d/output <- inception_4d/1x1
I1130 06:10:52.805827 22785 net.cpp:406] inception_4d/output <- inception_4d/3x3
I1130 06:10:52.805833 22785 net.cpp:406] inception_4d/output <- inception_4d/5x5
I1130 06:10:52.805837 22785 net.cpp:406] inception_4d/output <- inception_4d/pool_proj
I1130 06:10:52.805843 22785 net.cpp:380] inception_4d/output -> inception_4d/output
I1130 06:10:52.805866 22785 net.cpp:122] Setting up inception_4d/output
I1130 06:10:52.805872 22785 net.cpp:129] Top shape: 32 528 14 14 (3311616)
I1130 06:10:52.805876 22785 net.cpp:137] Memory required for data: 1528160384
I1130 06:10:52.805881 22785 layer_factory.hpp:77] Creating layer inception_4d/output_inception_4d/output_0_split
I1130 06:10:52.805888 22785 net.cpp:84] Creating Layer inception_4d/output_inception_4d/output_0_split
I1130 06:10:52.805892 22785 net.cpp:406] inception_4d/output_inception_4d/output_0_split <- inception_4d/output
I1130 06:10:52.805898 22785 net.cpp:380] inception_4d/output_inception_4d/output_0_split -> inception_4d/output_inception_4d/output_0_split_0
I1130 06:10:52.805905 22785 net.cpp:380] inception_4d/output_inception_4d/output_0_split -> inception_4d/output_inception_4d/output_0_split_1
I1130 06:10:52.805913 22785 net.cpp:380] inception_4d/output_inception_4d/output_0_split -> inception_4d/output_inception_4d/output_0_split_2
I1130 06:10:52.805920 22785 net.cpp:380] inception_4d/output_inception_4d/output_0_split -> inception_4d/output_inception_4d/output_0_split_3
I1130 06:10:52.805964 22785 net.cpp:122] Setting up inception_4d/output_inception_4d/output_0_split
I1130 06:10:52.805972 22785 net.cpp:129] Top shape: 32 528 14 14 (3311616)
I1130 06:10:52.805976 22785 net.cpp:129] Top shape: 32 528 14 14 (3311616)
I1130 06:10:52.805982 22785 net.cpp:129] Top shape: 32 528 14 14 (3311616)
I1130 06:10:52.805987 22785 net.cpp:129] Top shape: 32 528 14 14 (3311616)
I1130 06:10:52.805992 22785 net.cpp:137] Memory required for data: 1581146240
I1130 06:10:52.805997 22785 layer_factory.hpp:77] Creating layer inception_4e/1x1
I1130 06:10:52.806005 22785 net.cpp:84] Creating Layer inception_4e/1x1
I1130 06:10:52.806010 22785 net.cpp:406] inception_4e/1x1 <- inception_4d/output_inception_4d/output_0_split_0
I1130 06:10:52.806017 22785 net.cpp:380] inception_4e/1x1 -> inception_4e/1x1
I1130 06:10:52.807206 22785 net.cpp:122] Setting up inception_4e/1x1
I1130 06:10:52.807217 22785 net.cpp:129] Top shape: 32 256 14 14 (1605632)
I1130 06:10:52.807222 22785 net.cpp:137] Memory required for data: 1587568768
I1130 06:10:52.807229 22785 layer_factory.hpp:77] Creating layer inception_4e/relu_1x1
I1130 06:10:52.807236 22785 net.cpp:84] Creating Layer inception_4e/relu_1x1
I1130 06:10:52.807242 22785 net.cpp:406] inception_4e/relu_1x1 <- inception_4e/1x1
I1130 06:10:52.807248 22785 net.cpp:367] inception_4e/relu_1x1 -> inception_4e/1x1 (in-place)
I1130 06:10:52.807255 22785 net.cpp:122] Setting up inception_4e/relu_1x1
I1130 06:10:52.807261 22785 net.cpp:129] Top shape: 32 256 14 14 (1605632)
I1130 06:10:52.807265 22785 net.cpp:137] Memory required for data: 1593991296
I1130 06:10:52.807271 22785 layer_factory.hpp:77] Creating layer inception_4e/3x3_reduce
I1130 06:10:52.807279 22785 net.cpp:84] Creating Layer inception_4e/3x3_reduce
I1130 06:10:52.807284 22785 net.cpp:406] inception_4e/3x3_reduce <- inception_4d/output_inception_4d/output_0_split_1
I1130 06:10:52.807291 22785 net.cpp:380] inception_4e/3x3_reduce -> inception_4e/3x3_reduce
I1130 06:10:52.807915 22785 net.cpp:122] Setting up inception_4e/3x3_reduce
I1130 06:10:52.807925 22785 net.cpp:129] Top shape: 32 160 14 14 (1003520)
I1130 06:10:52.807930 22785 net.cpp:137] Memory required for data: 1598005376
I1130 06:10:52.807936 22785 layer_factory.hpp:77] Creating layer inception_4e/relu_3x3_reduce
I1130 06:10:52.807943 22785 net.cpp:84] Creating Layer inception_4e/relu_3x3_reduce
I1130 06:10:52.807950 22785 net.cpp:406] inception_4e/relu_3x3_reduce <- inception_4e/3x3_reduce
I1130 06:10:52.807956 22785 net.cpp:367] inception_4e/relu_3x3_reduce -> inception_4e/3x3_reduce (in-place)
I1130 06:10:52.807963 22785 net.cpp:122] Setting up inception_4e/relu_3x3_reduce
I1130 06:10:52.807968 22785 net.cpp:129] Top shape: 32 160 14 14 (1003520)
I1130 06:10:52.807972 22785 net.cpp:137] Memory required for data: 1602019456
I1130 06:10:52.807976 22785 layer_factory.hpp:77] Creating layer inception_4e/3x3
I1130 06:10:52.807984 22785 net.cpp:84] Creating Layer inception_4e/3x3
I1130 06:10:52.807989 22785 net.cpp:406] inception_4e/3x3 <- inception_4e/3x3_reduce
I1130 06:10:52.807996 22785 net.cpp:380] inception_4e/3x3 -> inception_4e/3x3
I1130 06:10:52.811050 22785 net.cpp:122] Setting up inception_4e/3x3
I1130 06:10:52.811062 22785 net.cpp:129] Top shape: 32 320 14 14 (2007040)
I1130 06:10:52.811066 22785 net.cpp:137] Memory required for data: 1610047616
I1130 06:10:52.811074 22785 layer_factory.hpp:77] Creating layer inception_4e/relu_3x3
I1130 06:10:52.811082 22785 net.cpp:84] Creating Layer inception_4e/relu_3x3
I1130 06:10:52.811089 22785 net.cpp:406] inception_4e/relu_3x3 <- inception_4e/3x3
I1130 06:10:52.811095 22785 net.cpp:367] inception_4e/relu_3x3 -> inception_4e/3x3 (in-place)
I1130 06:10:52.811102 22785 net.cpp:122] Setting up inception_4e/relu_3x3
I1130 06:10:52.811108 22785 net.cpp:129] Top shape: 32 320 14 14 (2007040)
I1130 06:10:52.811112 22785 net.cpp:137] Memory required for data: 1618075776
I1130 06:10:52.811116 22785 layer_factory.hpp:77] Creating layer inception_4e/5x5_reduce
I1130 06:10:52.811125 22785 net.cpp:84] Creating Layer inception_4e/5x5_reduce
I1130 06:10:52.811131 22785 net.cpp:406] inception_4e/5x5_reduce <- inception_4d/output_inception_4d/output_0_split_2
I1130 06:10:52.811137 22785 net.cpp:380] inception_4e/5x5_reduce -> inception_4e/5x5_reduce
I1130 06:10:52.811410 22785 net.cpp:122] Setting up inception_4e/5x5_reduce
I1130 06:10:52.811419 22785 net.cpp:129] Top shape: 32 32 14 14 (200704)
I1130 06:10:52.811424 22785 net.cpp:137] Memory required for data: 1618878592
I1130 06:10:52.811431 22785 layer_factory.hpp:77] Creating layer inception_4e/relu_5x5_reduce
I1130 06:10:52.811437 22785 net.cpp:84] Creating Layer inception_4e/relu_5x5_reduce
I1130 06:10:52.811444 22785 net.cpp:406] inception_4e/relu_5x5_reduce <- inception_4e/5x5_reduce
I1130 06:10:52.811450 22785 net.cpp:367] inception_4e/relu_5x5_reduce -> inception_4e/5x5_reduce (in-place)
I1130 06:10:52.811456 22785 net.cpp:122] Setting up inception_4e/relu_5x5_reduce
I1130 06:10:52.811462 22785 net.cpp:129] Top shape: 32 32 14 14 (200704)
I1130 06:10:52.811466 22785 net.cpp:137] Memory required for data: 1619681408
I1130 06:10:52.811470 22785 layer_factory.hpp:77] Creating layer inception_4e/5x5
I1130 06:10:52.811478 22785 net.cpp:84] Creating Layer inception_4e/5x5
I1130 06:10:52.811483 22785 net.cpp:406] inception_4e/5x5 <- inception_4e/5x5_reduce
I1130 06:10:52.811491 22785 net.cpp:380] inception_4e/5x5 -> inception_4e/5x5
I1130 06:10:52.812531 22785 net.cpp:122] Setting up inception_4e/5x5
I1130 06:10:52.812542 22785 net.cpp:129] Top shape: 32 128 14 14 (802816)
I1130 06:10:52.812546 22785 net.cpp:137] Memory required for data: 1622892672
I1130 06:10:52.812554 22785 layer_factory.hpp:77] Creating layer inception_4e/relu_5x5
I1130 06:10:52.812561 22785 net.cpp:84] Creating Layer inception_4e/relu_5x5
I1130 06:10:52.812566 22785 net.cpp:406] inception_4e/relu_5x5 <- inception_4e/5x5
I1130 06:10:52.812572 22785 net.cpp:367] inception_4e/relu_5x5 -> inception_4e/5x5 (in-place)
I1130 06:10:52.812580 22785 net.cpp:122] Setting up inception_4e/relu_5x5
I1130 06:10:52.812587 22785 net.cpp:129] Top shape: 32 128 14 14 (802816)
I1130 06:10:52.812590 22785 net.cpp:137] Memory required for data: 1626103936
I1130 06:10:52.812594 22785 layer_factory.hpp:77] Creating layer inception_4e/pool
I1130 06:10:52.812602 22785 net.cpp:84] Creating Layer inception_4e/pool
I1130 06:10:52.812607 22785 net.cpp:406] inception_4e/pool <- inception_4d/output_inception_4d/output_0_split_3
I1130 06:10:52.812613 22785 net.cpp:380] inception_4e/pool -> inception_4e/pool
I1130 06:10:52.812646 22785 net.cpp:122] Setting up inception_4e/pool
I1130 06:10:52.812654 22785 net.cpp:129] Top shape: 32 528 14 14 (3311616)
I1130 06:10:52.812659 22785 net.cpp:137] Memory required for data: 1639350400
I1130 06:10:52.812664 22785 layer_factory.hpp:77] Creating layer inception_4e/pool_proj
I1130 06:10:52.812671 22785 net.cpp:84] Creating Layer inception_4e/pool_proj
I1130 06:10:52.812677 22785 net.cpp:406] inception_4e/pool_proj <- inception_4e/pool
I1130 06:10:52.812683 22785 net.cpp:380] inception_4e/pool_proj -> inception_4e/pool_proj
I1130 06:10:52.813215 22785 net.cpp:122] Setting up inception_4e/pool_proj
I1130 06:10:52.813223 22785 net.cpp:129] Top shape: 32 128 14 14 (802816)
I1130 06:10:52.813228 22785 net.cpp:137] Memory required for data: 1642561664
I1130 06:10:52.813235 22785 layer_factory.hpp:77] Creating layer inception_4e/relu_pool_proj
I1130 06:10:52.813241 22785 net.cpp:84] Creating Layer inception_4e/relu_pool_proj
I1130 06:10:52.813247 22785 net.cpp:406] inception_4e/relu_pool_proj <- inception_4e/pool_proj
I1130 06:10:52.813252 22785 net.cpp:367] inception_4e/relu_pool_proj -> inception_4e/pool_proj (in-place)
I1130 06:10:52.813259 22785 net.cpp:122] Setting up inception_4e/relu_pool_proj
I1130 06:10:52.813266 22785 net.cpp:129] Top shape: 32 128 14 14 (802816)
I1130 06:10:52.813269 22785 net.cpp:137] Memory required for data: 1645772928
I1130 06:10:52.813274 22785 layer_factory.hpp:77] Creating layer inception_4e/output
I1130 06:10:52.813282 22785 net.cpp:84] Creating Layer inception_4e/output
I1130 06:10:52.813287 22785 net.cpp:406] inception_4e/output <- inception_4e/1x1
I1130 06:10:52.813292 22785 net.cpp:406] inception_4e/output <- inception_4e/3x3
I1130 06:10:52.813297 22785 net.cpp:406] inception_4e/output <- inception_4e/5x5
I1130 06:10:52.813302 22785 net.cpp:406] inception_4e/output <- inception_4e/pool_proj
I1130 06:10:52.813310 22785 net.cpp:380] inception_4e/output -> inception_4e/output
I1130 06:10:52.813333 22785 net.cpp:122] Setting up inception_4e/output
I1130 06:10:52.813340 22785 net.cpp:129] Top shape: 32 832 14 14 (5218304)
I1130 06:10:52.813344 22785 net.cpp:137] Memory required for data: 1666646144
I1130 06:10:52.813349 22785 layer_factory.hpp:77] Creating layer pool4/3x3_s2
I1130 06:10:52.813356 22785 net.cpp:84] Creating Layer pool4/3x3_s2
I1130 06:10:52.813361 22785 net.cpp:406] pool4/3x3_s2 <- inception_4e/output
I1130 06:10:52.813367 22785 net.cpp:380] pool4/3x3_s2 -> pool4/3x3_s2
I1130 06:10:52.813400 22785 net.cpp:122] Setting up pool4/3x3_s2
I1130 06:10:52.813407 22785 net.cpp:129] Top shape: 32 832 7 7 (1304576)
I1130 06:10:52.813411 22785 net.cpp:137] Memory required for data: 1671864448
I1130 06:10:52.813416 22785 layer_factory.hpp:77] Creating layer pool4/3x3_s2_pool4/3x3_s2_0_split
I1130 06:10:52.813423 22785 net.cpp:84] Creating Layer pool4/3x3_s2_pool4/3x3_s2_0_split
I1130 06:10:52.813428 22785 net.cpp:406] pool4/3x3_s2_pool4/3x3_s2_0_split <- pool4/3x3_s2
I1130 06:10:52.813436 22785 net.cpp:380] pool4/3x3_s2_pool4/3x3_s2_0_split -> pool4/3x3_s2_pool4/3x3_s2_0_split_0
I1130 06:10:52.813443 22785 net.cpp:380] pool4/3x3_s2_pool4/3x3_s2_0_split -> pool4/3x3_s2_pool4/3x3_s2_0_split_1
I1130 06:10:52.813452 22785 net.cpp:380] pool4/3x3_s2_pool4/3x3_s2_0_split -> pool4/3x3_s2_pool4/3x3_s2_0_split_2
I1130 06:10:52.813458 22785 net.cpp:380] pool4/3x3_s2_pool4/3x3_s2_0_split -> pool4/3x3_s2_pool4/3x3_s2_0_split_3
I1130 06:10:52.813504 22785 net.cpp:122] Setting up pool4/3x3_s2_pool4/3x3_s2_0_split
I1130 06:10:52.813513 22785 net.cpp:129] Top shape: 32 832 7 7 (1304576)
I1130 06:10:52.813519 22785 net.cpp:129] Top shape: 32 832 7 7 (1304576)
I1130 06:10:52.813524 22785 net.cpp:129] Top shape: 32 832 7 7 (1304576)
I1130 06:10:52.813529 22785 net.cpp:129] Top shape: 32 832 7 7 (1304576)
I1130 06:10:52.813532 22785 net.cpp:137] Memory required for data: 1692737664
I1130 06:10:52.813537 22785 layer_factory.hpp:77] Creating layer inception_5a/1x1
I1130 06:10:52.813545 22785 net.cpp:84] Creating Layer inception_5a/1x1
I1130 06:10:52.813551 22785 net.cpp:406] inception_5a/1x1 <- pool4/3x3_s2_pool4/3x3_s2_0_split_0
I1130 06:10:52.813557 22785 net.cpp:380] inception_5a/1x1 -> inception_5a/1x1
I1130 06:10:52.815166 22785 net.cpp:122] Setting up inception_5a/1x1
I1130 06:10:52.815176 22785 net.cpp:129] Top shape: 32 256 7 7 (401408)
I1130 06:10:52.815181 22785 net.cpp:137] Memory required for data: 1694343296
I1130 06:10:52.815189 22785 layer_factory.hpp:77] Creating layer inception_5a/relu_1x1
I1130 06:10:52.815196 22785 net.cpp:84] Creating Layer inception_5a/relu_1x1
I1130 06:10:52.815202 22785 net.cpp:406] inception_5a/relu_1x1 <- inception_5a/1x1
I1130 06:10:52.815209 22785 net.cpp:367] inception_5a/relu_1x1 -> inception_5a/1x1 (in-place)
I1130 06:10:52.815217 22785 net.cpp:122] Setting up inception_5a/relu_1x1
I1130 06:10:52.815223 22785 net.cpp:129] Top shape: 32 256 7 7 (401408)
I1130 06:10:52.815229 22785 net.cpp:137] Memory required for data: 1695948928
I1130 06:10:52.815233 22785 layer_factory.hpp:77] Creating layer inception_5a/3x3_reduce
I1130 06:10:52.815243 22785 net.cpp:84] Creating Layer inception_5a/3x3_reduce
I1130 06:10:52.815249 22785 net.cpp:406] inception_5a/3x3_reduce <- pool4/3x3_s2_pool4/3x3_s2_0_split_1
I1130 06:10:52.815256 22785 net.cpp:380] inception_5a/3x3_reduce -> inception_5a/3x3_reduce
I1130 06:10:52.816462 22785 net.cpp:122] Setting up inception_5a/3x3_reduce
I1130 06:10:52.816473 22785 net.cpp:129] Top shape: 32 160 7 7 (250880)
I1130 06:10:52.816476 22785 net.cpp:137] Memory required for data: 1696952448
I1130 06:10:52.816484 22785 layer_factory.hpp:77] Creating layer inception_5a/relu_3x3_reduce
I1130 06:10:52.816491 22785 net.cpp:84] Creating Layer inception_5a/relu_3x3_reduce
I1130 06:10:52.816498 22785 net.cpp:406] inception_5a/relu_3x3_reduce <- inception_5a/3x3_reduce
I1130 06:10:52.816503 22785 net.cpp:367] inception_5a/relu_3x3_reduce -> inception_5a/3x3_reduce (in-place)
I1130 06:10:52.816510 22785 net.cpp:122] Setting up inception_5a/relu_3x3_reduce
I1130 06:10:52.816516 22785 net.cpp:129] Top shape: 32 160 7 7 (250880)
I1130 06:10:52.816519 22785 net.cpp:137] Memory required for data: 1697955968
I1130 06:10:52.816524 22785 layer_factory.hpp:77] Creating layer inception_5a/3x3
I1130 06:10:52.816534 22785 net.cpp:84] Creating Layer inception_5a/3x3
I1130 06:10:52.816540 22785 net.cpp:406] inception_5a/3x3 <- inception_5a/3x3_reduce
I1130 06:10:52.816546 22785 net.cpp:380] inception_5a/3x3 -> inception_5a/3x3
I1130 06:10:52.819609 22785 net.cpp:122] Setting up inception_5a/3x3
I1130 06:10:52.819619 22785 net.cpp:129] Top shape: 32 320 7 7 (501760)
I1130 06:10:52.819623 22785 net.cpp:137] Memory required for data: 1699963008
I1130 06:10:52.819631 22785 layer_factory.hpp:77] Creating layer inception_5a/relu_3x3
I1130 06:10:52.819638 22785 net.cpp:84] Creating Layer inception_5a/relu_3x3
I1130 06:10:52.819644 22785 net.cpp:406] inception_5a/relu_3x3 <- inception_5a/3x3
I1130 06:10:52.819651 22785 net.cpp:367] inception_5a/relu_3x3 -> inception_5a/3x3 (in-place)
I1130 06:10:52.819658 22785 net.cpp:122] Setting up inception_5a/relu_3x3
I1130 06:10:52.819664 22785 net.cpp:129] Top shape: 32 320 7 7 (501760)
I1130 06:10:52.819667 22785 net.cpp:137] Memory required for data: 1701970048
I1130 06:10:52.819672 22785 layer_factory.hpp:77] Creating layer inception_5a/5x5_reduce
I1130 06:10:52.819682 22785 net.cpp:84] Creating Layer inception_5a/5x5_reduce
I1130 06:10:52.819687 22785 net.cpp:406] inception_5a/5x5_reduce <- pool4/3x3_s2_pool4/3x3_s2_0_split_2
I1130 06:10:52.819695 22785 net.cpp:380] inception_5a/5x5_reduce -> inception_5a/5x5_reduce
I1130 06:10:52.820037 22785 net.cpp:122] Setting up inception_5a/5x5_reduce
I1130 06:10:52.820046 22785 net.cpp:129] Top shape: 32 32 7 7 (50176)
I1130 06:10:52.820051 22785 net.cpp:137] Memory required for data: 1702170752
I1130 06:10:52.820058 22785 layer_factory.hpp:77] Creating layer inception_5a/relu_5x5_reduce
I1130 06:10:52.820066 22785 net.cpp:84] Creating Layer inception_5a/relu_5x5_reduce
I1130 06:10:52.820072 22785 net.cpp:406] inception_5a/relu_5x5_reduce <- inception_5a/5x5_reduce
I1130 06:10:52.820078 22785 net.cpp:367] inception_5a/relu_5x5_reduce -> inception_5a/5x5_reduce (in-place)
I1130 06:10:52.820086 22785 net.cpp:122] Setting up inception_5a/relu_5x5_reduce
I1130 06:10:52.820091 22785 net.cpp:129] Top shape: 32 32 7 7 (50176)
I1130 06:10:52.820096 22785 net.cpp:137] Memory required for data: 1702371456
I1130 06:10:52.820101 22785 layer_factory.hpp:77] Creating layer inception_5a/5x5
I1130 06:10:52.820109 22785 net.cpp:84] Creating Layer inception_5a/5x5
I1130 06:10:52.820114 22785 net.cpp:406] inception_5a/5x5 <- inception_5a/5x5_reduce
I1130 06:10:52.820122 22785 net.cpp:380] inception_5a/5x5 -> inception_5a/5x5
I1130 06:10:52.820844 22785 net.cpp:122] Setting up inception_5a/5x5
I1130 06:10:52.820854 22785 net.cpp:129] Top shape: 32 128 7 7 (200704)
I1130 06:10:52.820858 22785 net.cpp:137] Memory required for data: 1703174272
I1130 06:10:52.820865 22785 layer_factory.hpp:77] Creating layer inception_5a/relu_5x5
I1130 06:10:52.820886 22785 net.cpp:84] Creating Layer inception_5a/relu_5x5
I1130 06:10:52.820893 22785 net.cpp:406] inception_5a/relu_5x5 <- inception_5a/5x5
I1130 06:10:52.820899 22785 net.cpp:367] inception_5a/relu_5x5 -> inception_5a/5x5 (in-place)
I1130 06:10:52.820905 22785 net.cpp:122] Setting up inception_5a/relu_5x5
I1130 06:10:52.820911 22785 net.cpp:129] Top shape: 32 128 7 7 (200704)
I1130 06:10:52.820914 22785 net.cpp:137] Memory required for data: 1703977088
I1130 06:10:52.820919 22785 layer_factory.hpp:77] Creating layer inception_5a/pool
I1130 06:10:52.820926 22785 net.cpp:84] Creating Layer inception_5a/pool
I1130 06:10:52.820931 22785 net.cpp:406] inception_5a/pool <- pool4/3x3_s2_pool4/3x3_s2_0_split_3
I1130 06:10:52.820937 22785 net.cpp:380] inception_5a/pool -> inception_5a/pool
I1130 06:10:52.820972 22785 net.cpp:122] Setting up inception_5a/pool
I1130 06:10:52.820981 22785 net.cpp:129] Top shape: 32 832 7 7 (1304576)
I1130 06:10:52.820986 22785 net.cpp:137] Memory required for data: 1709195392
I1130 06:10:52.820991 22785 layer_factory.hpp:77] Creating layer inception_5a/pool_proj
I1130 06:10:52.820999 22785 net.cpp:84] Creating Layer inception_5a/pool_proj
I1130 06:10:52.821005 22785 net.cpp:406] inception_5a/pool_proj <- inception_5a/pool
I1130 06:10:52.821012 22785 net.cpp:380] inception_5a/pool_proj -> inception_5a/pool_proj
I1130 06:10:52.822055 22785 net.cpp:122] Setting up inception_5a/pool_proj
I1130 06:10:52.822067 22785 net.cpp:129] Top shape: 32 128 7 7 (200704)
I1130 06:10:52.822072 22785 net.cpp:137] Memory required for data: 1709998208
I1130 06:10:52.822079 22785 layer_factory.hpp:77] Creating layer inception_5a/relu_pool_proj
I1130 06:10:52.822087 22785 net.cpp:84] Creating Layer inception_5a/relu_pool_proj
I1130 06:10:52.822093 22785 net.cpp:406] inception_5a/relu_pool_proj <- inception_5a/pool_proj
I1130 06:10:52.822098 22785 net.cpp:367] inception_5a/relu_pool_proj -> inception_5a/pool_proj (in-place)
I1130 06:10:52.822105 22785 net.cpp:122] Setting up inception_5a/relu_pool_proj
I1130 06:10:52.822111 22785 net.cpp:129] Top shape: 32 128 7 7 (200704)
I1130 06:10:52.822115 22785 net.cpp:137] Memory required for data: 1710801024
I1130 06:10:52.822119 22785 layer_factory.hpp:77] Creating layer inception_5a/output
I1130 06:10:52.822126 22785 net.cpp:84] Creating Layer inception_5a/output
I1130 06:10:52.822132 22785 net.cpp:406] inception_5a/output <- inception_5a/1x1
I1130 06:10:52.822136 22785 net.cpp:406] inception_5a/output <- inception_5a/3x3
I1130 06:10:52.822142 22785 net.cpp:406] inception_5a/output <- inception_5a/5x5
I1130 06:10:52.822147 22785 net.cpp:406] inception_5a/output <- inception_5a/pool_proj
I1130 06:10:52.822154 22785 net.cpp:380] inception_5a/output -> inception_5a/output
I1130 06:10:52.822178 22785 net.cpp:122] Setting up inception_5a/output
I1130 06:10:52.822186 22785 net.cpp:129] Top shape: 32 832 7 7 (1304576)
I1130 06:10:52.822190 22785 net.cpp:137] Memory required for data: 1716019328
I1130 06:10:52.822194 22785 layer_factory.hpp:77] Creating layer inception_5a/output_inception_5a/output_0_split
I1130 06:10:52.822204 22785 net.cpp:84] Creating Layer inception_5a/output_inception_5a/output_0_split
I1130 06:10:52.822209 22785 net.cpp:406] inception_5a/output_inception_5a/output_0_split <- inception_5a/output
I1130 06:10:52.822216 22785 net.cpp:380] inception_5a/output_inception_5a/output_0_split -> inception_5a/output_inception_5a/output_0_split_0
I1130 06:10:52.822223 22785 net.cpp:380] inception_5a/output_inception_5a/output_0_split -> inception_5a/output_inception_5a/output_0_split_1
I1130 06:10:52.822230 22785 net.cpp:380] inception_5a/output_inception_5a/output_0_split -> inception_5a/output_inception_5a/output_0_split_2
I1130 06:10:52.822238 22785 net.cpp:380] inception_5a/output_inception_5a/output_0_split -> inception_5a/output_inception_5a/output_0_split_3
I1130 06:10:52.822288 22785 net.cpp:122] Setting up inception_5a/output_inception_5a/output_0_split
I1130 06:10:52.822295 22785 net.cpp:129] Top shape: 32 832 7 7 (1304576)
I1130 06:10:52.822301 22785 net.cpp:129] Top shape: 32 832 7 7 (1304576)
I1130 06:10:52.822306 22785 net.cpp:129] Top shape: 32 832 7 7 (1304576)
I1130 06:10:52.822312 22785 net.cpp:129] Top shape: 32 832 7 7 (1304576)
I1130 06:10:52.822316 22785 net.cpp:137] Memory required for data: 1736892544
I1130 06:10:52.822320 22785 layer_factory.hpp:77] Creating layer inception_5b/1x1
I1130 06:10:52.822329 22785 net.cpp:84] Creating Layer inception_5b/1x1
I1130 06:10:52.822335 22785 net.cpp:406] inception_5b/1x1 <- inception_5a/output_inception_5a/output_0_split_0
I1130 06:10:52.822342 22785 net.cpp:380] inception_5b/1x1 -> inception_5b/1x1
I1130 06:10:52.824578 22785 net.cpp:122] Setting up inception_5b/1x1
I1130 06:10:52.824590 22785 net.cpp:129] Top shape: 32 384 7 7 (602112)
I1130 06:10:52.824595 22785 net.cpp:137] Memory required for data: 1739300992
I1130 06:10:52.824604 22785 layer_factory.hpp:77] Creating layer inception_5b/relu_1x1
I1130 06:10:52.824610 22785 net.cpp:84] Creating Layer inception_5b/relu_1x1
I1130 06:10:52.824616 22785 net.cpp:406] inception_5b/relu_1x1 <- inception_5b/1x1
I1130 06:10:52.824622 22785 net.cpp:367] inception_5b/relu_1x1 -> inception_5b/1x1 (in-place)
I1130 06:10:52.824630 22785 net.cpp:122] Setting up inception_5b/relu_1x1
I1130 06:10:52.824635 22785 net.cpp:129] Top shape: 32 384 7 7 (602112)
I1130 06:10:52.824640 22785 net.cpp:137] Memory required for data: 1741709440
I1130 06:10:52.824643 22785 layer_factory.hpp:77] Creating layer inception_5b/3x3_reduce
I1130 06:10:52.824653 22785 net.cpp:84] Creating Layer inception_5b/3x3_reduce
I1130 06:10:52.824659 22785 net.cpp:406] inception_5b/3x3_reduce <- inception_5a/output_inception_5a/output_0_split_1
I1130 06:10:52.824666 22785 net.cpp:380] inception_5b/3x3_reduce -> inception_5b/3x3_reduce
I1130 06:10:52.826010 22785 net.cpp:122] Setting up inception_5b/3x3_reduce
I1130 06:10:52.826022 22785 net.cpp:129] Top shape: 32 192 7 7 (301056)
I1130 06:10:52.826027 22785 net.cpp:137] Memory required for data: 1742913664
I1130 06:10:52.826035 22785 layer_factory.hpp:77] Creating layer inception_5b/relu_3x3_reduce
I1130 06:10:52.826041 22785 net.cpp:84] Creating Layer inception_5b/relu_3x3_reduce
I1130 06:10:52.826047 22785 net.cpp:406] inception_5b/relu_3x3_reduce <- inception_5b/3x3_reduce
I1130 06:10:52.826055 22785 net.cpp:367] inception_5b/relu_3x3_reduce -> inception_5b/3x3_reduce (in-place)
I1130 06:10:52.826062 22785 net.cpp:122] Setting up inception_5b/relu_3x3_reduce
I1130 06:10:52.826068 22785 net.cpp:129] Top shape: 32 192 7 7 (301056)
I1130 06:10:52.826072 22785 net.cpp:137] Memory required for data: 1744117888
I1130 06:10:52.826076 22785 layer_factory.hpp:77] Creating layer inception_5b/3x3
I1130 06:10:52.826086 22785 net.cpp:84] Creating Layer inception_5b/3x3
I1130 06:10:52.826092 22785 net.cpp:406] inception_5b/3x3 <- inception_5b/3x3_reduce
I1130 06:10:52.826098 22785 net.cpp:380] inception_5b/3x3 -> inception_5b/3x3
I1130 06:10:52.830402 22785 net.cpp:122] Setting up inception_5b/3x3
I1130 06:10:52.830418 22785 net.cpp:129] Top shape: 32 384 7 7 (602112)
I1130 06:10:52.830422 22785 net.cpp:137] Memory required for data: 1746526336
I1130 06:10:52.830430 22785 layer_factory.hpp:77] Creating layer inception_5b/relu_3x3
I1130 06:10:52.830440 22785 net.cpp:84] Creating Layer inception_5b/relu_3x3
I1130 06:10:52.830446 22785 net.cpp:406] inception_5b/relu_3x3 <- inception_5b/3x3
I1130 06:10:52.830453 22785 net.cpp:367] inception_5b/relu_3x3 -> inception_5b/3x3 (in-place)
I1130 06:10:52.830462 22785 net.cpp:122] Setting up inception_5b/relu_3x3
I1130 06:10:52.830468 22785 net.cpp:129] Top shape: 32 384 7 7 (602112)
I1130 06:10:52.830472 22785 net.cpp:137] Memory required for data: 1748934784
I1130 06:10:52.830477 22785 layer_factory.hpp:77] Creating layer inception_5b/5x5_reduce
I1130 06:10:52.830487 22785 net.cpp:84] Creating Layer inception_5b/5x5_reduce
I1130 06:10:52.830492 22785 net.cpp:406] inception_5b/5x5_reduce <- inception_5a/output_inception_5a/output_0_split_2
I1130 06:10:52.830499 22785 net.cpp:380] inception_5b/5x5_reduce -> inception_5b/5x5_reduce
I1130 06:10:52.832511 22785 net.cpp:122] Setting up inception_5b/5x5_reduce
I1130 06:10:52.832526 22785 net.cpp:129] Top shape: 32 48 7 7 (75264)
I1130 06:10:52.832532 22785 net.cpp:137] Memory required for data: 1749235840
I1130 06:10:52.832540 22785 layer_factory.hpp:77] Creating layer inception_5b/relu_5x5_reduce
I1130 06:10:52.832550 22785 net.cpp:84] Creating Layer inception_5b/relu_5x5_reduce
I1130 06:10:52.832554 22785 net.cpp:406] inception_5b/relu_5x5_reduce <- inception_5b/5x5_reduce
I1130 06:10:52.832563 22785 net.cpp:367] inception_5b/relu_5x5_reduce -> inception_5b/5x5_reduce (in-place)
I1130 06:10:52.832572 22785 net.cpp:122] Setting up inception_5b/relu_5x5_reduce
I1130 06:10:52.832577 22785 net.cpp:129] Top shape: 32 48 7 7 (75264)
I1130 06:10:52.832582 22785 net.cpp:137] Memory required for data: 1749536896
I1130 06:10:52.832587 22785 layer_factory.hpp:77] Creating layer inception_5b/5x5
I1130 06:10:52.832597 22785 net.cpp:84] Creating Layer inception_5b/5x5
I1130 06:10:52.832602 22785 net.cpp:406] inception_5b/5x5 <- inception_5b/5x5_reduce
I1130 06:10:52.832608 22785 net.cpp:380] inception_5b/5x5 -> inception_5b/5x5
I1130 06:10:52.833648 22785 net.cpp:122] Setting up inception_5b/5x5
I1130 06:10:52.833658 22785 net.cpp:129] Top shape: 32 128 7 7 (200704)
I1130 06:10:52.833663 22785 net.cpp:137] Memory required for data: 1750339712
I1130 06:10:52.833672 22785 layer_factory.hpp:77] Creating layer inception_5b/relu_5x5
I1130 06:10:52.833678 22785 net.cpp:84] Creating Layer inception_5b/relu_5x5
I1130 06:10:52.833683 22785 net.cpp:406] inception_5b/relu_5x5 <- inception_5b/5x5
I1130 06:10:52.833689 22785 net.cpp:367] inception_5b/relu_5x5 -> inception_5b/5x5 (in-place)
I1130 06:10:52.833698 22785 net.cpp:122] Setting up inception_5b/relu_5x5
I1130 06:10:52.833704 22785 net.cpp:129] Top shape: 32 128 7 7 (200704)
I1130 06:10:52.833709 22785 net.cpp:137] Memory required for data: 1751142528
I1130 06:10:52.833714 22785 layer_factory.hpp:77] Creating layer inception_5b/pool
I1130 06:10:52.833721 22785 net.cpp:84] Creating Layer inception_5b/pool
I1130 06:10:52.833726 22785 net.cpp:406] inception_5b/pool <- inception_5a/output_inception_5a/output_0_split_3
I1130 06:10:52.833734 22785 net.cpp:380] inception_5b/pool -> inception_5b/pool
I1130 06:10:52.833773 22785 net.cpp:122] Setting up inception_5b/pool
I1130 06:10:52.833781 22785 net.cpp:129] Top shape: 32 832 7 7 (1304576)
I1130 06:10:52.833786 22785 net.cpp:137] Memory required for data: 1756360832
I1130 06:10:52.833791 22785 layer_factory.hpp:77] Creating layer inception_5b/pool_proj
I1130 06:10:52.833801 22785 net.cpp:84] Creating Layer inception_5b/pool_proj
I1130 06:10:52.833806 22785 net.cpp:406] inception_5b/pool_proj <- inception_5b/pool
I1130 06:10:52.833813 22785 net.cpp:380] inception_5b/pool_proj -> inception_5b/pool_proj
I1130 06:10:52.834934 22785 net.cpp:122] Setting up inception_5b/pool_proj
I1130 06:10:52.834945 22785 net.cpp:129] Top shape: 32 128 7 7 (200704)
I1130 06:10:52.834949 22785 net.cpp:137] Memory required for data: 1757163648
I1130 06:10:52.834959 22785 layer_factory.hpp:77] Creating layer inception_5b/relu_pool_proj
I1130 06:10:52.834966 22785 net.cpp:84] Creating Layer inception_5b/relu_pool_proj
I1130 06:10:52.834971 22785 net.cpp:406] inception_5b/relu_pool_proj <- inception_5b/pool_proj
I1130 06:10:52.834978 22785 net.cpp:367] inception_5b/relu_pool_proj -> inception_5b/pool_proj (in-place)
I1130 06:10:52.834986 22785 net.cpp:122] Setting up inception_5b/relu_pool_proj
I1130 06:10:52.834992 22785 net.cpp:129] Top shape: 32 128 7 7 (200704)
I1130 06:10:52.834998 22785 net.cpp:137] Memory required for data: 1757966464
I1130 06:10:52.835002 22785 layer_factory.hpp:77] Creating layer inception_5b/output
I1130 06:10:52.835009 22785 net.cpp:84] Creating Layer inception_5b/output
I1130 06:10:52.835014 22785 net.cpp:406] inception_5b/output <- inception_5b/1x1
I1130 06:10:52.835021 22785 net.cpp:406] inception_5b/output <- inception_5b/3x3
I1130 06:10:52.835026 22785 net.cpp:406] inception_5b/output <- inception_5b/5x5
I1130 06:10:52.835031 22785 net.cpp:406] inception_5b/output <- inception_5b/pool_proj
I1130 06:10:52.835036 22785 net.cpp:380] inception_5b/output -> inception_5b/output
I1130 06:10:52.835062 22785 net.cpp:122] Setting up inception_5b/output
I1130 06:10:52.835070 22785 net.cpp:129] Top shape: 32 1024 7 7 (1605632)
I1130 06:10:52.835075 22785 net.cpp:137] Memory required for data: 1764388992
I1130 06:10:52.835079 22785 layer_factory.hpp:77] Creating layer pool5/7x7_s1
I1130 06:10:52.835088 22785 net.cpp:84] Creating Layer pool5/7x7_s1
I1130 06:10:52.835093 22785 net.cpp:406] pool5/7x7_s1 <- inception_5b/output
I1130 06:10:52.835100 22785 net.cpp:380] pool5/7x7_s1 -> pool5/7x7_s1
I1130 06:10:52.835124 22785 net.cpp:122] Setting up pool5/7x7_s1
I1130 06:10:52.835131 22785 net.cpp:129] Top shape: 32 1024 1 1 (32768)
I1130 06:10:52.835136 22785 net.cpp:137] Memory required for data: 1764520064
I1130 06:10:52.835140 22785 layer_factory.hpp:77] Creating layer pool5/drop_7x7_s1
I1130 06:10:52.835150 22785 net.cpp:84] Creating Layer pool5/drop_7x7_s1
I1130 06:10:52.835155 22785 net.cpp:406] pool5/drop_7x7_s1 <- pool5/7x7_s1
I1130 06:10:52.835161 22785 net.cpp:367] pool5/drop_7x7_s1 -> pool5/7x7_s1 (in-place)
I1130 06:10:52.835186 22785 net.cpp:122] Setting up pool5/drop_7x7_s1
I1130 06:10:52.835193 22785 net.cpp:129] Top shape: 32 1024 1 1 (32768)
I1130 06:10:52.835198 22785 net.cpp:137] Memory required for data: 1764651136
I1130 06:10:52.835203 22785 layer_factory.hpp:77] Creating layer fc_scv_quiet
I1130 06:10:52.835213 22785 net.cpp:84] Creating Layer fc_scv_quiet
I1130 06:10:52.835218 22785 net.cpp:406] fc_scv_quiet <- pool5/7x7_s1
I1130 06:10:52.835227 22785 net.cpp:380] fc_scv_quiet -> fc_scv_quiet
I1130 06:10:52.835324 22785 net.cpp:122] Setting up fc_scv_quiet
I1130 06:10:52.835331 22785 net.cpp:129] Top shape: 32 1 (32)
I1130 06:10:52.835336 22785 net.cpp:137] Memory required for data: 1764651264
I1130 06:10:52.835345 22785 layer_factory.hpp:77] Creating layer loss
I1130 06:10:52.835351 22785 net.cpp:84] Creating Layer loss
I1130 06:10:52.835357 22785 net.cpp:406] loss <- fc_scv_quiet
I1130 06:10:52.835363 22785 net.cpp:406] loss <- label
I1130 06:10:52.835371 22785 net.cpp:380] loss -> loss
I1130 06:10:52.835409 22785 net.cpp:122] Setting up loss
…
I1130 06:10:52.839233 22785 net.cpp:294] The NetState phase (1) differed from the phase (0) specified by a rule in layer data
I1130 06:10:52.839988 22785 net.cpp:51] Initializing net from parameters: 
name: "GoogleNet-Places365-SCV-Quiet"
state {
  phase: TEST
}
layer {
  name: "data"
  type: "Data"
  top: "data"
  top: "label"
  include {
    phase: TEST
  }
  transform_param {
    mirror: false
    crop_size: 224
    mean_file: "/idiap/temp/lmedina/fine-tuning/googlenet_places365/places365CNN_mean.binaryproto"
  }
  data_param {
    source: "/idiap/temp/lmedina/fine-tuning/data/Quiet/validation_lmdb"
    batch_size: 32
    backend: LMDB
  }
}
layer {
  name: "conv1/7x7_s2"
  type: "Convolution"
  bottom: "data"
  top: "conv1/7x7_s2"
  param {
    lr_mult: 1
    decay_mult: 1
  }
  param {
    lr_mult: 2
    decay_mult: 0
  }
  convolution_param {
    num_output: 64
    pad: 3
    kernel_size: 7
    stride: 2
    weight_filler {
      type: "xavier"
      std: 0.1
    }
    bias_filler {
      type: "constant"
      value: 0.2
    }
  }
}
layer {
  name: "conv1/relu_7x7"
  type: "ReLU"
  bottom: "conv1/7x7_s2"
  top: "conv1/7x7_s2"
}
layer {
  name: "pool1/3x3_s2"
  type: "Pooling"
  bottom: "conv1/7x7_s2"
  top: "pool1/3x3_s2"
  pooling_param {
    pool: MAX
    kernel_size: 3
    stride: 2
  }
}
layer {
  name: "pool1/norm1"
  type: "LRN"
  bottom: "pool1/3x3_s2"
  top: "pool1/norm1"
  lrn_param {
    local_size: 5
    alpha: 0.0001
    beta: 0.75
  }
}
layer {
  name: "conv2/3x3_reduce"
  type: "Convolution"
  bottom: "pool1/norm1"
  top: "conv2/3x3_reduce"
  param {
    lr_mult: 1
    decay_mult: 1
  }
  param {
    lr_mult: 2
    decay_mult: 0
  }
  convolution_param {
    num_output: 64
    kernel_size: 1
    weight_filler {
      type: "xavier"
      std: 0.1
    }
    bias_filler {
      type: "constant"
      value: 0.2
    }
  }
}
layer {
  name: "conv2/relu_3x3_reduce"
  type: "ReLU"
  bottom: "conv2/3x3_reduce"
  top: "conv2/3x3_reduce"
}
layer {
  name: "conv2/3x3"
  type: "Convolution"
  bottom: "conv2/3x3_reduce"
  top: "conv2/3x3"
  param {
    lr_mult: 1
    decay_mult: 1
  }
  param {
    lr_mult: 2
    decay_mult: 0
  }
  convolution_param {
    num_output: 192
    pad: 1
    kernel_size: 3
    weight_filler {
      type: "xavier"
      std: 0.03
    }
    bias_filler {
      type: "constant"
      value: 0.2
    }
  }
}
layer {
  name: "conv2/relu_3x3"
  type: "ReLU"
  bottom: "conv2/3x3"
  top: "conv2/3x3"
}
layer {
  name: "conv2/norm2"
  type: "LRN"
  bottom: "conv2/3x3"
  top: "conv2/norm2"
  lrn_param {
    local_size: 5
    alpha: 0.0001
    beta: 0.75
  }
}
layer {
  name: "pool2/3x3_s2"
  type: "Pooling"
  bottom: "conv2/norm2"
  top: "pool2/3x3_s2"
  pooling_param {
    pool: MAX
    kernel_size: 3
    stride: 2
  }
}
layer {
  name: "inception_3a/1x1"
  type: "Convolution"
  bottom: "pool2/3x3_s2"
  top: "inception_3a/1x1"
  param {
    lr_mult: 1
    decay_mult: 1
  }
  param {
    lr_mult: 2
    decay_mult: 0
  }
  convolution_param {
    num_output: 64
    kernel_size: 1
    weight_filler {
      type: "xavier"
      std: 0.03
    }
    bias_filler {
      type: "constant"
      value: 0.2
    }
  }
}
layer {
  name: "inception_3a/relu_1x1"
  type: "ReLU"
  bottom: "inception_3a/1x1"
  top: "inception_3a/1x1"
}
layer {
  name: "inception_3a/3x3_reduce"
  type: "Convolution"
  bottom: "pool2/3x3_s2"
  top: "inception_3a/3x3_reduce"
  param {
    lr_mult: 1
    decay_mult: 1
  }
  param {
    lr_mult: 2
    decay_mult: 0
  }
  convolution_param {
    num_output: 96
    kernel_size: 1
    weight_filler {
      type: "xavier"
      std: 0.09
    }
    bias_filler {
      type: "constant"
      value: 0.2
    }
  }
}
layer {
  name: "inception_3a/relu_3x3_reduce"
  type: "ReLU"
  bottom: "inception_3a/3x3_reduce"
  top: "inception_3a/3x3_reduce"
}
layer {
  name: "inception_3a/3x3"
  type: "Convolution"
  bottom: "inception_3a/3x3_reduce"
  top: "inception_3a/3x3"
  param {
    lr_mult: 1
    decay_mult: 1
  }
  param {
    lr_mult: 2
    decay_mult: 0
  }
  convolution_param {
    num_output: 128
    pad: 1
    kernel_size: 3
    weight_filler {
      type: "xavier"
      std: 0.03
    }
    bias_filler {
      type: "constant"
      value: 0.2
    }
  }
}
layer {
  name: "inception_3a/relu_3x3"
  type: "ReLU"
  bottom: "inception_3a/3x3"
  top: "inception_3a/3x3"
}
layer {
  name: "inception_3a/5x5_reduce"
  type: "Convolution"
  bottom: "pool2/3x3_s2"
  top: "inception_3a/5x5_reduce"
  param {
    lr_mult: 1
    decay_mult: 1
  }
  param {
    lr_mult: 2
    decay_mult: 0
  }
  convolution_param {
    num_output: 16
    kernel_size: 1
    weight_filler {
      type: "xavier"
      std: 0.2
    }
    bias_filler {
      type: "constant"
      value: 0.2
    }
  }
}
layer {
  name: "inception_3a/relu_5x5_reduce"
  type: "ReLU"
  bottom: "inception_3a/5x5_reduce"
  top: "inception_3a/5x5_reduce"
}
layer {
  name: "inception_3a/5x5"
  type: "Convolution"
  bottom: "inception_3a/5x5_reduce"
  top: "inception_3a/5x5"
  param {
    lr_mult: 1
    decay_mult: 1
  }
  param {
    lr_mult: 2
    decay_mult: 0
  }
  convolution_param {
    num_output: 32
    pad: 2
    kernel_size: 5
    weight_filler {
      type: "xavier"
      std: 0.03
    }
    bias_filler {
      type: "constant"
      value: 0.2
    }
  }
}
layer {
  name: "inception_3a/relu_5x5"
  type: "ReLU"
  bottom: "inception_3a/5x5"
  top: "inception_3a/5x5"
}
layer {
  name: "inception_3a/pool"
  type: "Pooling"
  bottom: "pool2/3x3_s2"
  top: "inception_3a/pool"
  pooling_param {
    pool: MAX
    kernel_size: 3
    stride: 1
    pad: 1
  }
}
layer {
  name: "inception_3a/pool_proj"
  type: "Convolution"
  bottom: "inception_3a/pool"
  top: "inception_3a/pool_proj"
  param {
    lr_mult: 1
    decay_mult: 1
  }
  param {
    lr_mult: 2
    decay_mult: 0
  }
  convolution_param {
    num_output: 32
    kernel_size: 1
    weight_filler {
      type: "xavier"
      std: 0.1
    }
    bias_filler {
      type: "constant"
      value: 0.2
    }
  }
}
layer {
  name: "inception_3a/relu_pool_proj"
  type: "ReLU"
  bottom: "inception_3a/pool_proj"
  top: "inception_3a/pool_proj"
}
layer {
  name: "inception_3a/output"
  type: "Concat"
  bottom: "inception_3a/1x1"
  bottom: "inception_3a/3x3"
  bottom: "inception_3a/5x5"
  bottom: "inception_3a/pool_proj"
  top: "inception_3a/output"
}
layer {
  name: "inception_3b/1x1"
  type: "Convolution"
  bottom: "inception_3a/output"
  top: "inception_3b/1x1"
  param {
    lr_mult: 1
    decay_mult: 1
  }
  param {
    lr_mult: 2
    decay_mult: 0
  }
  convolution_param {
    num_output: 128
    kernel_size: 1
    weight_filler {
      type: "xavier"
      std: 0.03
    }
    bias_filler {
      type: "constant"
      value: 0.2
    }
  }
}
layer {
  name: "inception_3b/relu_1x1"
  type: "ReLU"
  bottom: "inception_3b/1x1"
  top: "inception_3b/1x1"
}
layer {
  name: "inception_3b/3x3_reduce"
  type: "Convolution"
  bottom: "inception_3a/output"
  top: "inception_3b/3x3_reduce"
  param {
    lr_mult: 1
    decay_mult: 1
  }
  param {
    lr_mult: 2
    decay_mult: 0
  }
  convolution_param {
    num_output: 128
    kernel_size: 1
    weight_filler {
      type: "xavier"
      std: 0.09
    }
    bias_filler {
      type: "constant"
      value: 0.2
    }
  }
}
layer {
  name: "inception_3b/relu_3x3_reduce"
  type: "ReLU"
  bottom: "inception_3b/3x3_reduce"
  top: "inception_3b/3x3_reduce"
}
layer {
  name: "inception_3b/3x3"
  type: "Convolution"
  bottom: "inception_3b/3x3_reduce"
  top: "inception_3b/3x3"
  param {
    lr_mult: 1
    decay_mult: 1
  }
  param {
    lr_mult: 2
    decay_mult: 0
  }
  convolution_param {
    num_output: 192
    pad: 1
    kernel_size: 3
    weight_filler {
      type: "xavier"
      std: 0.03
    }
    bias_filler {
      type: "constant"
      value: 0.2
    }
  }
}
layer {
  name: "inception_3b/relu_3x3"
  type: "ReLU"
  bottom: "inception_3b/3x3"
  top: "inception_3b/3x3"
}
layer {
  name: "inception_3b/5x5_reduce"
  type: "Convolution"
  bottom: "inception_3a/output"
  top: "inception_3b/5x5_reduce"
  param {
    lr_mult: 1
    decay_mult: 1
  }
  param {
    lr_mult: 2
    decay_mult: 0
  }
  convolution_param {
    num_output: 32
    kernel_size: 1
    weight_filler {
      type: "xavier"
      std: 0.2
    }
    bias_filler {
      type: "constant"
      value: 0.2
    }
  }
}
layer {
  name: "inception_3b/relu_5x5_reduce"
  type: "ReLU"
  bottom: "inception_3b/5x5_reduce"
  top: "inception_3b/5x5_reduce"
}
layer {
  name: "inception_3b/5x5"
  type: "Convolution"
  bottom: "inception_3b/5x5_reduce"
  top: "inception_3b/5x5"
  param {
    lr_mult: 1
    decay_mult: 1
  }
  param {
    lr_mult: 2
    decay_mult: 0
  }
  convolution_param {
    num_output: 96
    pad: 2
    kernel_size: 5
    weight_filler {
      type: "xavier"
      std: 0.03
    }
    bias_filler {
      type: "constant"
      value: 0.2
    }
  }
}
layer {
  name: "inception_3b/relu_5x5"
  type: "ReLU"
  bottom: "inception_3b/5x5"
  top: "inception_3b/5x5"
}
layer {
  name: "inception_3b/pool"
  type: "Pooling"
  bottom: "inception_3a/output"
  top: "inception_3b/pool"
  pooling_param {
    pool: MAX
    kernel_size: 3
    stride: 1
    pad: 1
  }
}
layer {
  name: "inception_3b/pool_proj"
  type: "Convolution"
  bottom: "inception_3b/pool"
  top: "inception_3b/pool_proj"
  param {
    lr_mult: 1
    decay_mult: 1
  }
  param {
    lr_mult: 2
    decay_mult: 0
  }
  convolution_param {
    num_output: 64
    kernel_size: 1
    weight_filler {
      type: "xavier"
      std: 0.1
    }
    bias_filler {
      type: "constant"
      value: 0.2
    }
  }
}
layer {
  name: "inception_3b/relu_pool_proj"
  type: "ReLU"
  bottom: "inception_3b/pool_proj"
  top: "inception_3b/pool_proj"
}
layer {
  name: "inception_3b/output"
  type: "Concat"
  bottom: "inception_3b/1x1"
  bottom: "inception_3b/3x3"
  bottom: "inception_3b/5x5"
  bottom: "inception_3b/pool_proj"
  top: "inception_3b/output"
}
layer {
  name: "pool3/3x3_s2"
  type: "Pooling"
  bottom: "inception_3b/output"
  top: "pool3/3x3_s2"
  pooling_param {
    pool: MAX
    kernel_size: 3
    stride: 2
  }
}
layer {
  name: "inception_4a/1x1"
  type: "Convolution"
  bottom: "pool3/3x3_s2"
  top: "inception_4a/1x1"
  param {
    lr_mult: 1
    decay_mult: 1
  }
  param {
    lr_mult: 2
    decay_mult: 0
  }
  convolution_param {
    num_output: 192
    kernel_size: 1
    weight_filler {
      type: "xavier"
      std: 0.03
    }
    bias_filler {
      type: "constant"
      value: 0.2
    }
  }
}
layer {
  name: "inception_4a/relu_1x1"
  type: "ReLU"
  bottom: "inception_4a/1x1"
  top: "inception_4a/1x1"
}
layer {
  name: "inception_4a/3x3_reduce"
  type: "Convolution"
  bottom: "pool3/3x3_s2"
  top: "inception_4a/3x3_reduce"
  param {
    lr_mult: 1
    decay_mult: 1
  }
  param {
    lr_mult: 2
    decay_mult: 0
  }
  convolution_param {
    num_output: 96
    kernel_size: 1
    weight_filler {
      type: "xavier"
      std: 0.09
    }
    bias_filler {
      type: "constant"
      value: 0.2
    }
  }
}
layer {
  name: "inception_4a/relu_3x3_reduce"
  type: "ReLU"
  bottom: "inception_4a/3x3_reduce"
  top: "inception_4a/3x3_reduce"
}
layer {
  name: "inception_4a/3x3"
  type: "Convolution"
  bottom: "inception_4a/3x3_reduce"
  top: "inception_4a/3x3"
  param {
    lr_mult: 1
    decay_mult: 1
  }
  param {
    lr_mult: 2
    decay_mult: 0
  }
  convolution_param {
    num_output: 208
    pad: 1
    kernel_size: 3
    weight_filler {
      type: "xavier"
      std: 0.03
    }
    bias_filler {
      type: "constant"
      value: 0.2
    }
  }
}
layer {
  name: "inception_4a/relu_3x3"
  type: "ReLU"
  bottom: "inception_4a/3x3"
  top: "inception_4a/3x3"
}
layer {
  name: "inception_4a/5x5_reduce"
  type: "Convolution"
  bottom: "pool3/3x3_s2"
  top: "inception_4a/5x5_reduce"
  param {
    lr_mult: 1
    decay_mult: 1
  }
  param {
    lr_mult: 2
    decay_mult: 0
  }
  convolution_param {
    num_output: 16
    kernel_size: 1
    weight_filler {
      type: "xavier"
      std: 0.2
    }
    bias_filler {
      type: "constant"
      value: 0.2
    }
  }
}
layer {
  name: "inception_4a/relu_5x5_reduce"
  type: "ReLU"
  bottom: "inception_4a/5x5_reduce"
  top: "inception_4a/5x5_reduce"
}
layer {
  name: "inception_4a/5x5"
  type: "Convolution"
  bottom: "inception_4a/5x5_reduce"
  top: "inception_4a/5x5"
  param {
    lr_mult: 1
    decay_mult: 1
  }
  param {
    lr_mult: 2
    decay_mult: 0
  }
  convolution_param {
    num_output: 48
    pad: 2
    kernel_size: 5
    weight_filler {
      type: "xavier"
      std: 0.03
    }
    bias_filler {
      type: "constant"
      value: 0.2
    }
  }
}
layer {
  name: "inception_4a/relu_5x5"
  type: "ReLU"
  bottom: "inception_4a/5x5"
  top: "inception_4a/5x5"
}
layer {
  name: "inception_4a/pool"
  type: "Pooling"
  bottom: "pool3/3x3_s2"
  top: "inception_4a/pool"
  pooling_param {
    pool: MAX
    kernel_size: 3
    stride: 1
    pad: 1
  }
}
layer {
  name: "inception_4a/pool_proj"
  type: "Convolution"
  bottom: "inception_4a/pool"
  top: "inception_4a/pool_proj"
  param {
    lr_mult: 1
    decay_mult: 1
  }
  param {
    lr_mult: 2
    decay_mult: 0
  }
  convolution_param {
    num_output: 64
    kernel_size: 1
    weight_filler {
      type: "xavier"
      std: 0.1
    }
    bias_filler {
      type: "constant"
      value: 0.2
    }
  }
}
layer {
  name: "inception_4a/relu_pool_proj"
  type: "ReLU"
  bottom: "inception_4a/pool_proj"
  top: "inception_4a/pool_proj"
}
layer {
  name: "inception_4a/output"
  type: "Concat"
  bottom: "inception_4a/1x1"
  bottom: "inception_4a/3x3"
  bottom: "inception_4a/5x5"
  bottom: "inception_4a/pool_proj"
  top: "inception_4a/output"
}
layer {
  name: "inception_4b/1x1"
  type: "Convolution"
  bottom: "inception_4a/output"
  top: "inception_4b/1x1"
  param {
    lr_mult: 1
    decay_mult: 1
  }
  param {
    lr_mult: 2
    decay_mult: 0
  }
  convolution_param {
    num_output: 160
    kernel_size: 1
    weight_filler {
      type: "xavier"
      std: 0.03
    }
    bias_filler {
      type: "constant"
      value: 0.2
    }
  }
}
layer {
  name: "inception_4b/relu_1x1"
  type: "ReLU"
  bottom: "inception_4b/1x1"
  top: "inception_4b/1x1"
}
layer {
  name: "inception_4b/3x3_reduce"
  type: "Convolution"
  bottom: "inception_4a/output"
  top: "inception_4b/3x3_reduce"
  param {
    lr_mult: 1
    decay_mult: 1
  }
  param {
    lr_mult: 2
    decay_mult: 0
  }
  convolution_param {
    num_output: 112
    kernel_size: 1
    weight_filler {
      type: "xavier"
      std: 0.09
    }
    bias_filler {
      type: "constant"
      value: 0.2
    }
  }
}
layer {
  name: "inception_4b/relu_3x3_reduce"
  type: "ReLU"
  bottom: "inception_4b/3x3_reduce"
  top: "inception_4b/3x3_reduce"
}
layer {
  name: "inception_4b/3x3"
  type: "Convolution"
  bottom: "inception_4b/3x3_reduce"
  top: "inception_4b/3x3"
  param {
    lr_mult: 1
    decay_mult: 1
  }
  param {
    lr_mult: 2
    decay_mult: 0
  }
  convolution_param {
    num_output: 224
    pad: 1
    kernel_size: 3
    weight_filler {
      type: "xavier"
      std: 0.03
    }
    bias_filler {
      type: "constant"
      value: 0.2
    }
  }
}
layer {
  name: "inception_4b/relu_3x3"
  type: "ReLU"
  bottom: "inception_4b/3x3"
  top: "inception_4b/3x3"
}
layer {
  name: "inception_4b/5x5_reduce"
  type: "Convolution"
  bottom: "inception_4a/output"
  top: "inception_4b/5x5_reduce"
  param {
    lr_mult: 1
    decay_mult: 1
  }
  param {
    lr_mult: 2
    decay_mult: 0
  }
  convolution_param {
    num_output: 24
    kernel_size: 1
    weight_filler {
      type: "xavier"
      std: 0.2
    }
    bias_filler {
      type: "constant"
      value: 0.2
    }
  }
}
layer {
  name: "inception_4b/relu_5x5_reduce"
  type: "ReLU"
  bottom: "inception_4b/5x5_reduce"
  top: "inception_4b/5x5_reduce"
}
layer {
  name: "inception_4b/5x5"
  type: "Convolution"
  bottom: "inception_4b/5x5_reduce"
  top: "inception_4b/5x5"
  param {
    lr_mult: 1
    decay_mult: 1
  }
  param {
    lr_mult: 2
    decay_mult: 0
  }
  convolution_param {
    num_output: 64
    pad: 2
    kernel_size: 5
    weight_filler {
      type: "xavier"
      std: 0.03
    }
    bias_filler {
      type: "constant"
      value: 0.2
    }
  }
}
layer {
  name: "inception_4b/relu_5x5"
  type: "ReLU"
  bottom: "inception_4b/5x5"
  top: "inception_4b/5x5"
}
layer {
  name: "inception_4b/pool"
  type: "Pooling"
  bottom: "inception_4a/output"
  top: "inception_4b/pool"
  pooling_param {
    pool: MAX
    kernel_size: 3
    stride: 1
    pad: 1
  }
}
layer {
  name: "inception_4b/pool_proj"
  type: "Convolution"
  bottom: "inception_4b/pool"
  top: "inception_4b/pool_proj"
  param {
    lr_mult: 1
    decay_mult: 1
  }
  param {
    lr_mult: 2
    decay_mult: 0
  }
  convolution_param {
    num_output: 64
    kernel_size: 1
    weight_filler {
      type: "xavier"
      std: 0.1
    }
    bias_filler {
      type: "constant"
      value: 0.2
    }
  }
}
layer {
  name: "inception_4b/relu_pool_proj"
  type: "ReLU"
  bottom: "inception_4b/pool_proj"
  top: "inception_4b/pool_proj"
}
layer {
  name: "inception_4b/output"
  type: "Concat"
  bottom: "inception_4b/1x1"
  bottom: "inception_4b/3x3"
  bottom: "inception_4b/5x5"
  bottom: "inception_4b/pool_proj"
  top: "inception_4b/output"
}
layer {
  name: "inception_4c/1x1"
  type: "Convolution"
  bottom: "inception_4b/output"
  top: "inception_4c/1x1"
  param {
    lr_mult: 1
    decay_mult: 1
  }
  param {
    lr_mult: 2
    decay_mult: 0
  }
  convolution_param {
    num_output: 128
    kernel_size: 1
    weight_filler {
      type: "xavier"
      std: 0.03
    }
    bias_filler {
      type: "constant"
      value: 0.2
    }
  }
}
layer {
  name: "inception_4c/relu_1x1"
  type: "ReLU"
  bottom: "inception_4c/1x1"
  top: "inception_4c/1x1"
}
layer {
  name: "inception_4c/3x3_reduce"
  type: "Convolution"
  bottom: "inception_4b/output"
  top: "inception_4c/3x3_reduce"
  param {
    lr_mult: 1
    decay_mult: 1
  }
  param {
    lr_mult: 2
    decay_mult: 0
  }
  convolution_param {
    num_output: 128
    kernel_size: 1
    weight_filler {
      type: "xavier"
      std: 0.09
    }
    bias_filler {
      type: "constant"
      value: 0.2
    }
  }
}
layer {
  name: "inception_4c/relu_3x3_reduce"
  type: "ReLU"
  bottom: "inception_4c/3x3_reduce"
  top: "inception_4c/3x3_reduce"
}
layer {
  name: "inception_4c/3x3"
  type: "Convolution"
  bottom: "inception_4c/3x3_reduce"
  top: "inception_4c/3x3"
  param {
    lr_mult: 1
    decay_mult: 1
  }
  param {
    lr_mult: 2
    decay_mult: 0
  }
  convolution_param {
    num_output: 256
    pad: 1
    kernel_size: 3
    weight_filler {
      type: "xavier"
      std: 0.03
    }
    bias_filler {
      type: "constant"
      value: 0.2
    }
  }
}
layer {
  name: "inception_4c/relu_3x3"
  type: "ReLU"
  bottom: "inception_4c/3x3"
  top: "inception_4c/3x3"
}
layer {
  name: "inception_4c/5x5_reduce"
  type: "Convolution"
  bottom: "inception_4b/output"
  top: "inception_4c/5x5_reduce"
  param {
    lr_mult: 1
    decay_mult: 1
  }
  param {
    lr_mult: 2
    decay_mult: 0
  }
  convolution_param {
    num_output: 24
    kernel_size: 1
    weight_filler {
      type: "xavier"
      std: 0.2
    }
    bias_filler {
      type: "constant"
      value: 0.2
    }
  }
}
layer {
  name: "inception_4c/relu_5x5_reduce"
  type: "ReLU"
  bottom: "inception_4c/5x5_reduce"
  top: "inception_4c/5x5_reduce"
}
layer {
  name: "inception_4c/5x5"
  type: "Convolution"
  bottom: "inception_4c/5x5_reduce"
  top: "inception_4c/5x5"
  param {
    lr_mult: 1
    decay_mult: 1
  }
  param {
    lr_mult: 2
    decay_mult: 0
  }
  convolution_param {
    num_output: 64
    pad: 2
    kernel_size: 5
    weight_filler {
      type: "xavier"
      std: 0.03
    }
    bias_filler {
      type: "constant"
      value: 0.2
    }
  }
}
layer {
  name: "inception_4c/relu_5x5"
  type: "ReLU"
  bottom: "inception_4c/5x5"
  top: "inception_4c/5x5"
}
layer {
  name: "inception_4c/pool"
  type: "Pooling"
  bottom: "inception_4b/output"
  top: "inception_4c/pool"
  pooling_param {
    pool: MAX
    kernel_size: 3
    stride: 1
    pad: 1
  }
}
layer {
  name: "inception_4c/pool_proj"
  type: "Convolution"
  bottom: "inception_4c/pool"
  top: "inception_4c/pool_proj"
  param {
    lr_mult: 1
    decay_mult: 1
  }
  param {
    lr_mult: 2
    decay_mult: 0
  }
  convolution_param {
    num_output: 64
    kernel_size: 1
    weight_filler {
      type: "xavier"
      std: 0.1
    }
    bias_filler {
      type: "constant"
      value: 0.2
    }
  }
}
layer {
  name: "inception_4c/relu_pool_proj"
  type: "ReLU"
  bottom: "inception_4c/pool_proj"
  top: "inception_4c/pool_proj"
}
layer {
  name: "inception_4c/output"
  type: "Concat"
  bottom: "inception_4c/1x1"
  bottom: "inception_4c/3x3"
  bottom: "inception_4c/5x5"
  bottom: "inception_4c/pool_proj"
  top: "inception_4c/output"
}
layer {
  name: "inception_4d/1x1"
  type: "Convolution"
  bottom: "inception_4c/output"
  top: "inception_4d/1x1"
  param {
    lr_mult: 1
    decay_mult: 1
  }
  param {
    lr_mult: 2
    decay_mult: 0
  }
  convolution_param {
    num_output: 112
    kernel_size: 1
    weight_filler {
      type: "xavier"
      std: 0.03
    }
    bias_filler {
      type: "constant"
      value: 0.2
    }
  }
}
layer {
  name: "inception_4d/relu_1x1"
  type: "ReLU"
  bottom: "inception_4d/1x1"
  top: "inception_4d/1x1"
}
layer {
  name: "inception_4d/3x3_reduce"
  type: "Convolution"
  bottom: "inception_4c/output"
  top: "inception_4d/3x3_reduce"
  param {
    lr_mult: 1
    decay_mult: 1
  }
  param {
    lr_mult: 2
    decay_mult: 0
  }
  convolution_param {
    num_output: 144
    kernel_size: 1
    weight_filler {
      type: "xavier"
      std: 0.09
    }
    bias_filler {
      type: "constant"
      value: 0.2
    }
  }
}
layer {
  name: "inception_4d/relu_3x3_reduce"
  type: "ReLU"
  bottom: "inception_4d/3x3_reduce"
  top: "inception_4d/3x3_reduce"
}
layer {
  name: "inception_4d/3x3"
  type: "Convolution"
  bottom: "inception_4d/3x3_reduce"
  top: "inception_4d/3x3"
  param {
    lr_mult: 1
    decay_mult: 1
  }
  param {
    lr_mult: 2
    decay_mult: 0
  }
  convolution_param {
    num_output: 288
    pad: 1
    kernel_size: 3
    weight_filler {
      type: "xavier"
      std: 0.03
    }
    bias_filler {
      type: "constant"
      value: 0.2
    }
  }
}
layer {
  name: "inception_4d/relu_3x3"
  type: "ReLU"
  bottom: "inception_4d/3x3"
  top: "inception_4d/3x3"
}
layer {
  name: "inception_4d/5x5_reduce"
  type: "Convolution"
  bottom: "inception_4c/output"
  top: "inception_4d/5x5_reduce"
  param {
    lr_mult: 1
    decay_mult: 1
  }
  param {
    lr_mult: 2
    decay_mult: 0
  }
  convolution_param {
    num_output: 32
    kernel_size: 1
    weight_filler {
      type: "xavier"
      std: 0.2
    }
    bias_filler {
      type: "constant"
      value: 0.2
    }
  }
}
layer {
  name: "inception_4d/relu_5x5_reduce"
  type: "ReLU"
  bottom: "inception_4d/5x5_reduce"
  top: "inception_4d/5x5_reduce"
}
layer {
  name: "inception_4d/5x5"
  type: "Convolution"
  bottom: "inception_4d/5x5_reduce"
  top: "inception_4d/5x5"
  param {
    lr_mult: 1
    decay_mult: 1
  }
  param {
    lr_mult: 2
    decay_mult: 0
  }
  convolution_param {
    num_output: 64
    pad: 2
    kernel_size: 5
    weight_filler {
      type: "xavier"
      std: 0.03
    }
    bias_filler {
      type: "constant"
      value: 0.2
    }
  }
}
layer {
  name: "inception_4d/relu_5x5"
  type: "ReLU"
  bottom: "inception_4d/5x5"
  top: "inception_4d/5x5"
}
layer {
  name: "inception_4d/pool"
  type: "Pooling"
  bottom: "inception_4c/output"
  top: "inception_4d/pool"
  pooling_param {
    pool: MAX
    kernel_size: 3
    stride: 1
    pad: 1
  }
}
layer {
  name: "inception_4d/pool_proj"
  type: "Convolution"
  bottom: "inception_4d/pool"
  top: "inception_4d/pool_proj"
  param {
    lr_mult: 1
    decay_mult: 1
  }
  param {
    lr_mult: 2
    decay_mult: 0
  }
  convolution_param {
    num_output: 64
    kernel_size: 1
    weight_filler {
      type: "xavier"
      std: 0.1
    }
    bias_filler {
      type: "constant"
      value: 0.2
    }
  }
}
layer {
  name: "inception_4d/relu_pool_proj"
  type: "ReLU"
  bottom: "inception_4d/pool_proj"
  top: "inception_4d/pool_proj"
}
layer {
…
I1130 06:10:52.978171 22785 layer_factory.hpp:77] Creating layer inception_4c/1x1
I1130 06:10:52.978181 22785 net.cpp:84] Creating Layer inception_4c/1x1
I1130 06:10:52.978188 22785 net.cpp:406] inception_4c/1x1 <- inception_4b/output_inception_4b/output_0_split_0
I1130 06:10:52.978194 22785 net.cpp:380] inception_4c/1x1 -> inception_4c/1x1
I1130 06:10:52.978783 22785 net.cpp:122] Setting up inception_4c/1x1
I1130 06:10:52.978794 22785 net.cpp:129] Top shape: 32 128 14 14 (802816)
I1130 06:10:52.978801 22785 net.cpp:137] Memory required for data: 1359569280
I1130 06:10:52.978811 22785 layer_factory.hpp:77] Creating layer inception_4c/relu_1x1
I1130 06:10:52.978818 22785 net.cpp:84] Creating Layer inception_4c/relu_1x1
I1130 06:10:52.978826 22785 net.cpp:406] inception_4c/relu_1x1 <- inception_4c/1x1
I1130 06:10:52.978833 22785 net.cpp:367] inception_4c/relu_1x1 -> inception_4c/1x1 (in-place)
I1130 06:10:52.978842 22785 net.cpp:122] Setting up inception_4c/relu_1x1
I1130 06:10:52.978848 22785 net.cpp:129] Top shape: 32 128 14 14 (802816)
I1130 06:10:52.978854 22785 net.cpp:137] Memory required for data: 1362780544
I1130 06:10:52.978860 22785 layer_factory.hpp:77] Creating layer inception_4c/3x3_reduce
I1130 06:10:52.978868 22785 net.cpp:84] Creating Layer inception_4c/3x3_reduce
I1130 06:10:52.978874 22785 net.cpp:406] inception_4c/3x3_reduce <- inception_4b/output_inception_4b/output_0_split_1
I1130 06:10:52.978883 22785 net.cpp:380] inception_4c/3x3_reduce -> inception_4c/3x3_reduce
I1130 06:10:52.981007 22785 net.cpp:122] Setting up inception_4c/3x3_reduce
I1130 06:10:52.981022 22785 net.cpp:129] Top shape: 32 128 14 14 (802816)
I1130 06:10:52.981027 22785 net.cpp:137] Memory required for data: 1365991808
I1130 06:10:52.981036 22785 layer_factory.hpp:77] Creating layer inception_4c/relu_3x3_reduce
I1130 06:10:52.981045 22785 net.cpp:84] Creating Layer inception_4c/relu_3x3_reduce
I1130 06:10:52.981050 22785 net.cpp:406] inception_4c/relu_3x3_reduce <- inception_4c/3x3_reduce
I1130 06:10:52.981057 22785 net.cpp:367] inception_4c/relu_3x3_reduce -> inception_4c/3x3_reduce (in-place)
I1130 06:10:52.981065 22785 net.cpp:122] Setting up inception_4c/relu_3x3_reduce
I1130 06:10:52.981071 22785 net.cpp:129] Top shape: 32 128 14 14 (802816)
I1130 06:10:52.981076 22785 net.cpp:137] Memory required for data: 1369203072
I1130 06:10:52.981081 22785 layer_factory.hpp:77] Creating layer inception_4c/3x3
I1130 06:10:52.981091 22785 net.cpp:84] Creating Layer inception_4c/3x3
I1130 06:10:52.981096 22785 net.cpp:406] inception_4c/3x3 <- inception_4c/3x3_reduce
I1130 06:10:52.981102 22785 net.cpp:380] inception_4c/3x3 -> inception_4c/3x3
I1130 06:10:52.983292 22785 net.cpp:122] Setting up inception_4c/3x3
I1130 06:10:52.983304 22785 net.cpp:129] Top shape: 32 256 14 14 (1605632)
I1130 06:10:52.983309 22785 net.cpp:137] Memory required for data: 1375625600
I1130 06:10:52.983317 22785 layer_factory.hpp:77] Creating layer inception_4c/relu_3x3
I1130 06:10:52.983325 22785 net.cpp:84] Creating Layer inception_4c/relu_3x3
I1130 06:10:52.983331 22785 net.cpp:406] inception_4c/relu_3x3 <- inception_4c/3x3
I1130 06:10:52.983337 22785 net.cpp:367] inception_4c/relu_3x3 -> inception_4c/3x3 (in-place)
I1130 06:10:52.983346 22785 net.cpp:122] Setting up inception_4c/relu_3x3
I1130 06:10:52.983352 22785 net.cpp:129] Top shape: 32 256 14 14 (1605632)
I1130 06:10:52.983357 22785 net.cpp:137] Memory required for data: 1382048128
I1130 06:10:52.983361 22785 layer_factory.hpp:77] Creating layer inception_4c/5x5_reduce
I1130 06:10:52.983371 22785 net.cpp:84] Creating Layer inception_4c/5x5_reduce
I1130 06:10:52.983376 22785 net.cpp:406] inception_4c/5x5_reduce <- inception_4b/output_inception_4b/output_0_split_2
I1130 06:10:52.983384 22785 net.cpp:380] inception_4c/5x5_reduce -> inception_4c/5x5_reduce
I1130 06:10:52.983672 22785 net.cpp:122] Setting up inception_4c/5x5_reduce
I1130 06:10:52.983682 22785 net.cpp:129] Top shape: 32 24 14 14 (150528)
I1130 06:10:52.983687 22785 net.cpp:137] Memory required for data: 1382650240
I1130 06:10:52.983695 22785 layer_factory.hpp:77] Creating layer inception_4c/relu_5x5_reduce
I1130 06:10:52.983702 22785 net.cpp:84] Creating Layer inception_4c/relu_5x5_reduce
I1130 06:10:52.983708 22785 net.cpp:406] inception_4c/relu_5x5_reduce <- inception_4c/5x5_reduce
I1130 06:10:52.983716 22785 net.cpp:367] inception_4c/relu_5x5_reduce -> inception_4c/5x5_reduce (in-place)
I1130 06:10:52.983722 22785 net.cpp:122] Setting up inception_4c/relu_5x5_reduce
I1130 06:10:52.983728 22785 net.cpp:129] Top shape: 32 24 14 14 (150528)
I1130 06:10:52.983734 22785 net.cpp:137] Memory required for data: 1383252352
I1130 06:10:52.983738 22785 layer_factory.hpp:77] Creating layer inception_4c/5x5
I1130 06:10:52.983747 22785 net.cpp:84] Creating Layer inception_4c/5x5
I1130 06:10:52.983752 22785 net.cpp:406] inception_4c/5x5 <- inception_4c/5x5_reduce
I1130 06:10:52.983759 22785 net.cpp:380] inception_4c/5x5 -> inception_4c/5x5
I1130 06:10:52.984202 22785 net.cpp:122] Setting up inception_4c/5x5
I1130 06:10:52.984213 22785 net.cpp:129] Top shape: 32 64 14 14 (401408)
I1130 06:10:52.984218 22785 net.cpp:137] Memory required for data: 1384857984
I1130 06:10:52.984226 22785 layer_factory.hpp:77] Creating layer inception_4c/relu_5x5
I1130 06:10:52.984233 22785 net.cpp:84] Creating Layer inception_4c/relu_5x5
I1130 06:10:52.984239 22785 net.cpp:406] inception_4c/relu_5x5 <- inception_4c/5x5
I1130 06:10:52.984246 22785 net.cpp:367] inception_4c/relu_5x5 -> inception_4c/5x5 (in-place)
I1130 06:10:52.984253 22785 net.cpp:122] Setting up inception_4c/relu_5x5
I1130 06:10:52.984259 22785 net.cpp:129] Top shape: 32 64 14 14 (401408)
I1130 06:10:52.984263 22785 net.cpp:137] Memory required for data: 1386463616
I1130 06:10:52.984268 22785 layer_factory.hpp:77] Creating layer inception_4c/pool
I1130 06:10:52.984275 22785 net.cpp:84] Creating Layer inception_4c/pool
I1130 06:10:52.984280 22785 net.cpp:406] inception_4c/pool <- inception_4b/output_inception_4b/output_0_split_3
I1130 06:10:52.984287 22785 net.cpp:380] inception_4c/pool -> inception_4c/pool
I1130 06:10:52.984325 22785 net.cpp:122] Setting up inception_4c/pool
I1130 06:10:52.984333 22785 net.cpp:129] Top shape: 32 512 14 14 (3211264)
I1130 06:10:52.984339 22785 net.cpp:137] Memory required for data: 1399308672
I1130 06:10:52.984344 22785 layer_factory.hpp:77] Creating layer inception_4c/pool_proj
I1130 06:10:52.984354 22785 net.cpp:84] Creating Layer inception_4c/pool_proj
I1130 06:10:52.984359 22785 net.cpp:406] inception_4c/pool_proj <- inception_4c/pool
I1130 06:10:52.984366 22785 net.cpp:380] inception_4c/pool_proj -> inception_4c/pool_proj
I1130 06:10:52.984761 22785 net.cpp:122] Setting up inception_4c/pool_proj
I1130 06:10:52.984771 22785 net.cpp:129] Top shape: 32 64 14 14 (401408)
I1130 06:10:52.984776 22785 net.cpp:137] Memory required for data: 1400914304
I1130 06:10:52.984791 22785 layer_factory.hpp:77] Creating layer inception_4c/relu_pool_proj
I1130 06:10:52.984799 22785 net.cpp:84] Creating Layer inception_4c/relu_pool_proj
I1130 06:10:52.984805 22785 net.cpp:406] inception_4c/relu_pool_proj <- inception_4c/pool_proj
I1130 06:10:52.984812 22785 net.cpp:367] inception_4c/relu_pool_proj -> inception_4c/pool_proj (in-place)
I1130 06:10:52.984819 22785 net.cpp:122] Setting up inception_4c/relu_pool_proj
I1130 06:10:52.984825 22785 net.cpp:129] Top shape: 32 64 14 14 (401408)
I1130 06:10:52.984829 22785 net.cpp:137] Memory required for data: 1402519936
I1130 06:10:52.984834 22785 layer_factory.hpp:77] Creating layer inception_4c/output
I1130 06:10:52.984841 22785 net.cpp:84] Creating Layer inception_4c/output
I1130 06:10:52.984846 22785 net.cpp:406] inception_4c/output <- inception_4c/1x1
I1130 06:10:52.984853 22785 net.cpp:406] inception_4c/output <- inception_4c/3x3
I1130 06:10:52.984858 22785 net.cpp:406] inception_4c/output <- inception_4c/5x5
I1130 06:10:52.984863 22785 net.cpp:406] inception_4c/output <- inception_4c/pool_proj
I1130 06:10:52.984869 22785 net.cpp:380] inception_4c/output -> inception_4c/output
I1130 06:10:52.984896 22785 net.cpp:122] Setting up inception_4c/output
I1130 06:10:52.984905 22785 net.cpp:129] Top shape: 32 512 14 14 (3211264)
I1130 06:10:52.984910 22785 net.cpp:137] Memory required for data: 1415364992
I1130 06:10:52.984913 22785 layer_factory.hpp:77] Creating layer inception_4c/output_inception_4c/output_0_split
I1130 06:10:52.984921 22785 net.cpp:84] Creating Layer inception_4c/output_inception_4c/output_0_split
I1130 06:10:52.984926 22785 net.cpp:406] inception_4c/output_inception_4c/output_0_split <- inception_4c/output
I1130 06:10:52.984932 22785 net.cpp:380] inception_4c/output_inception_4c/output_0_split -> inception_4c/output_inception_4c/output_0_split_0
I1130 06:10:52.984941 22785 net.cpp:380] inception_4c/output_inception_4c/output_0_split -> inception_4c/output_inception_4c/output_0_split_1
I1130 06:10:52.984948 22785 net.cpp:380] inception_4c/output_inception_4c/output_0_split -> inception_4c/output_inception_4c/output_0_split_2
I1130 06:10:52.984956 22785 net.cpp:380] inception_4c/output_inception_4c/output_0_split -> inception_4c/output_inception_4c/output_0_split_3
I1130 06:10:52.985011 22785 net.cpp:122] Setting up inception_4c/output_inception_4c/output_0_split
I1130 06:10:52.985019 22785 net.cpp:129] Top shape: 32 512 14 14 (3211264)
I1130 06:10:52.985025 22785 net.cpp:129] Top shape: 32 512 14 14 (3211264)
I1130 06:10:52.985030 22785 net.cpp:129] Top shape: 32 512 14 14 (3211264)
I1130 06:10:52.985036 22785 net.cpp:129] Top shape: 32 512 14 14 (3211264)
I1130 06:10:52.985041 22785 net.cpp:137] Memory required for data: 1466745216
I1130 06:10:52.985045 22785 layer_factory.hpp:77] Creating layer inception_4d/1x1
I1130 06:10:52.985054 22785 net.cpp:84] Creating Layer inception_4d/1x1
I1130 06:10:52.985059 22785 net.cpp:406] inception_4d/1x1 <- inception_4c/output_inception_4c/output_0_split_0
I1130 06:10:52.985067 22785 net.cpp:380] inception_4d/1x1 -> inception_4d/1x1
I1130 06:10:52.985940 22785 net.cpp:122] Setting up inception_4d/1x1
I1130 06:10:52.985951 22785 net.cpp:129] Top shape: 32 112 14 14 (702464)
I1130 06:10:52.985956 22785 net.cpp:137] Memory required for data: 1469555072
I1130 06:10:52.985965 22785 layer_factory.hpp:77] Creating layer inception_4d/relu_1x1
I1130 06:10:52.985972 22785 net.cpp:84] Creating Layer inception_4d/relu_1x1
I1130 06:10:52.985978 22785 net.cpp:406] inception_4d/relu_1x1 <- inception_4d/1x1
I1130 06:10:52.985985 22785 net.cpp:367] inception_4d/relu_1x1 -> inception_4d/1x1 (in-place)
I1130 06:10:52.985993 22785 net.cpp:122] Setting up inception_4d/relu_1x1
I1130 06:10:52.985999 22785 net.cpp:129] Top shape: 32 112 14 14 (702464)
I1130 06:10:52.986004 22785 net.cpp:137] Memory required for data: 1472364928
I1130 06:10:52.986009 22785 layer_factory.hpp:77] Creating layer inception_4d/3x3_reduce
I1130 06:10:52.986018 22785 net.cpp:84] Creating Layer inception_4d/3x3_reduce
I1130 06:10:52.986023 22785 net.cpp:406] inception_4d/3x3_reduce <- inception_4c/output_inception_4c/output_0_split_1
I1130 06:10:52.986032 22785 net.cpp:380] inception_4d/3x3_reduce -> inception_4d/3x3_reduce
I1130 06:10:52.986676 22785 net.cpp:122] Setting up inception_4d/3x3_reduce
I1130 06:10:52.986686 22785 net.cpp:129] Top shape: 32 144 14 14 (903168)
I1130 06:10:52.986692 22785 net.cpp:137] Memory required for data: 1475977600
I1130 06:10:52.986699 22785 layer_factory.hpp:77] Creating layer inception_4d/relu_3x3_reduce
I1130 06:10:52.986707 22785 net.cpp:84] Creating Layer inception_4d/relu_3x3_reduce
I1130 06:10:52.986713 22785 net.cpp:406] inception_4d/relu_3x3_reduce <- inception_4d/3x3_reduce
I1130 06:10:52.986719 22785 net.cpp:367] inception_4d/relu_3x3_reduce -> inception_4d/3x3_reduce (in-place)
I1130 06:10:52.986726 22785 net.cpp:122] Setting up inception_4d/relu_3x3_reduce
I1130 06:10:52.986733 22785 net.cpp:129] Top shape: 32 144 14 14 (903168)
I1130 06:10:52.986737 22785 net.cpp:137] Memory required for data: 1479590272
I1130 06:10:52.986742 22785 layer_factory.hpp:77] Creating layer inception_4d/3x3
I1130 06:10:52.986750 22785 net.cpp:84] Creating Layer inception_4d/3x3
I1130 06:10:52.986755 22785 net.cpp:406] inception_4d/3x3 <- inception_4d/3x3_reduce
I1130 06:10:52.986763 22785 net.cpp:380] inception_4d/3x3 -> inception_4d/3x3
I1130 06:10:52.989498 22785 net.cpp:122] Setting up inception_4d/3x3
I1130 06:10:52.989509 22785 net.cpp:129] Top shape: 32 288 14 14 (1806336)
I1130 06:10:52.989514 22785 net.cpp:137] Memory required for data: 1486815616
I1130 06:10:52.989523 22785 layer_factory.hpp:77] Creating layer inception_4d/relu_3x3
I1130 06:10:52.989531 22785 net.cpp:84] Creating Layer inception_4d/relu_3x3
I1130 06:10:52.989537 22785 net.cpp:406] inception_4d/relu_3x3 <- inception_4d/3x3
I1130 06:10:52.989543 22785 net.cpp:367] inception_4d/relu_3x3 -> inception_4d/3x3 (in-place)
I1130 06:10:52.989552 22785 net.cpp:122] Setting up inception_4d/relu_3x3
I1130 06:10:52.989557 22785 net.cpp:129] Top shape: 32 288 14 14 (1806336)
I1130 06:10:52.989562 22785 net.cpp:137] Memory required for data: 1494040960
I1130 06:10:52.989567 22785 layer_factory.hpp:77] Creating layer inception_4d/5x5_reduce
I1130 06:10:52.989575 22785 net.cpp:84] Creating Layer inception_4d/5x5_reduce
I1130 06:10:52.989580 22785 net.cpp:406] inception_4d/5x5_reduce <- inception_4c/output_inception_4c/output_0_split_2
I1130 06:10:52.989588 22785 net.cpp:380] inception_4d/5x5_reduce -> inception_4d/5x5_reduce
I1130 06:10:52.989900 22785 net.cpp:122] Setting up inception_4d/5x5_reduce
I1130 06:10:52.989910 22785 net.cpp:129] Top shape: 32 32 14 14 (200704)
I1130 06:10:52.989915 22785 net.cpp:137] Memory required for data: 1494843776
I1130 06:10:52.989924 22785 layer_factory.hpp:77] Creating layer inception_4d/relu_5x5_reduce
I1130 06:10:52.989931 22785 net.cpp:84] Creating Layer inception_4d/relu_5x5_reduce
I1130 06:10:52.989936 22785 net.cpp:406] inception_4d/relu_5x5_reduce <- inception_4d/5x5_reduce
I1130 06:10:52.989943 22785 net.cpp:367] inception_4d/relu_5x5_reduce -> inception_4d/5x5_reduce (in-place)
I1130 06:10:52.989951 22785 net.cpp:122] Setting up inception_4d/relu_5x5_reduce
I1130 06:10:52.989958 22785 net.cpp:129] Top shape: 32 32 14 14 (200704)
I1130 06:10:52.989961 22785 net.cpp:137] Memory required for data: 1495646592
I1130 06:10:52.989966 22785 layer_factory.hpp:77] Creating layer inception_4d/5x5
I1130 06:10:52.989974 22785 net.cpp:84] Creating Layer inception_4d/5x5
I1130 06:10:52.989980 22785 net.cpp:406] inception_4d/5x5 <- inception_4d/5x5_reduce
I1130 06:10:52.989986 22785 net.cpp:380] inception_4d/5x5 -> inception_4d/5x5
I1130 06:10:52.990490 22785 net.cpp:122] Setting up inception_4d/5x5
I1130 06:10:52.990499 22785 net.cpp:129] Top shape: 32 64 14 14 (401408)
I1130 06:10:52.990505 22785 net.cpp:137] Memory required for data: 1497252224
I1130 06:10:52.990514 22785 layer_factory.hpp:77] Creating layer inception_4d/relu_5x5
I1130 06:10:52.990520 22785 net.cpp:84] Creating Layer inception_4d/relu_5x5
I1130 06:10:52.990526 22785 net.cpp:406] inception_4d/relu_5x5 <- inception_4d/5x5
I1130 06:10:52.990532 22785 net.cpp:367] inception_4d/relu_5x5 -> inception_4d/5x5 (in-place)
I1130 06:10:52.990540 22785 net.cpp:122] Setting up inception_4d/relu_5x5
I1130 06:10:52.990546 22785 net.cpp:129] Top shape: 32 64 14 14 (401408)
I1130 06:10:52.990552 22785 net.cpp:137] Memory required for data: 1498857856
I1130 06:10:52.990556 22785 layer_factory.hpp:77] Creating layer inception_4d/pool
I1130 06:10:52.990563 22785 net.cpp:84] Creating Layer inception_4d/pool
I1130 06:10:52.990568 22785 net.cpp:406] inception_4d/pool <- inception_4c/output_inception_4c/output_0_split_3
I1130 06:10:52.990576 22785 net.cpp:380] inception_4d/pool -> inception_4d/pool
I1130 06:10:52.990613 22785 net.cpp:122] Setting up inception_4d/pool
I1130 06:10:52.990622 22785 net.cpp:129] Top shape: 32 512 14 14 (3211264)
I1130 06:10:52.990627 22785 net.cpp:137] Memory required for data: 1511702912
I1130 06:10:52.990631 22785 layer_factory.hpp:77] Creating layer inception_4d/pool_proj
I1130 06:10:52.990640 22785 net.cpp:84] Creating Layer inception_4d/pool_proj
I1130 06:10:52.990646 22785 net.cpp:406] inception_4d/pool_proj <- inception_4d/pool
I1130 06:10:52.990654 22785 net.cpp:380] inception_4d/pool_proj -> inception_4d/pool_proj
I1130 06:10:52.991045 22785 net.cpp:122] Setting up inception_4d/pool_proj
I1130 06:10:52.991055 22785 net.cpp:129] Top shape: 32 64 14 14 (401408)
I1130 06:10:52.991061 22785 net.cpp:137] Memory required for data: 1513308544
I1130 06:10:52.991070 22785 layer_factory.hpp:77] Creating layer inception_4d/relu_pool_proj
I1130 06:10:52.991076 22785 net.cpp:84] Creating Layer inception_4d/relu_pool_proj
I1130 06:10:52.991082 22785 net.cpp:406] inception_4d/relu_pool_proj <- inception_4d/pool_proj
I1130 06:10:52.991088 22785 net.cpp:367] inception_4d/relu_pool_proj -> inception_4d/pool_proj (in-place)
I1130 06:10:52.991096 22785 net.cpp:122] Setting up inception_4d/relu_pool_proj
I1130 06:10:52.991101 22785 net.cpp:129] Top shape: 32 64 14 14 (401408)
I1130 06:10:52.991107 22785 net.cpp:137] Memory required for data: 1514914176
I1130 06:10:52.991111 22785 layer_factory.hpp:77] Creating layer inception_4d/output
I1130 06:10:52.991118 22785 net.cpp:84] Creating Layer inception_4d/output
I1130 06:10:52.991123 22785 net.cpp:406] inception_4d/output <- inception_4d/1x1
I1130 06:10:52.991129 22785 net.cpp:406] inception_4d/output <- inception_4d/3x3
I1130 06:10:52.991135 22785 net.cpp:406] inception_4d/output <- inception_4d/5x5
I1130 06:10:52.991140 22785 net.cpp:406] inception_4d/output <- inception_4d/pool_proj
I1130 06:10:52.991147 22785 net.cpp:380] inception_4d/output -> inception_4d/output
I1130 06:10:52.991173 22785 net.cpp:122] Setting up inception_4d/output
I1130 06:10:52.991181 22785 net.cpp:129] Top shape: 32 528 14 14 (3311616)
I1130 06:10:52.991186 22785 net.cpp:137] Memory required for data: 1528160640
I1130 06:10:52.991190 22785 layer_factory.hpp:77] Creating layer inception_4d/output_inception_4d/output_0_split
I1130 06:10:52.991197 22785 net.cpp:84] Creating Layer inception_4d/output_inception_4d/output_0_split
I1130 06:10:52.991204 22785 net.cpp:406] inception_4d/output_inception_4d/output_0_split <- inception_4d/output
I1130 06:10:52.991210 22785 net.cpp:380] inception_4d/output_inception_4d/output_0_split -> inception_4d/output_inception_4d/output_0_split_0
I1130 06:10:52.991219 22785 net.cpp:380] inception_4d/output_inception_4d/output_0_split -> inception_4d/output_inception_4d/output_0_split_1
I1130 06:10:52.991226 22785 net.cpp:380] inception_4d/output_inception_4d/output_0_split -> inception_4d/output_inception_4d/output_0_split_2
I1130 06:10:52.991235 22785 net.cpp:380] inception_4d/output_inception_4d/output_0_split -> inception_4d/output_inception_4d/output_0_split_3
I1130 06:10:52.991289 22785 net.cpp:122] Setting up inception_4d/output_inception_4d/output_0_split
I1130 06:10:52.991297 22785 net.cpp:129] Top shape: 32 528 14 14 (3311616)
I1130 06:10:52.991302 22785 net.cpp:129] Top shape: 32 528 14 14 (3311616)
I1130 06:10:52.991308 22785 net.cpp:129] Top shape: 32 528 14 14 (3311616)
I1130 06:10:52.991313 22785 net.cpp:129] Top shape: 32 528 14 14 (3311616)
I1130 06:10:52.991318 22785 net.cpp:137] Memory required for data: 1581146496
I1130 06:10:52.991322 22785 layer_factory.hpp:77] Creating layer inception_4e/1x1
I1130 06:10:52.991331 22785 net.cpp:84] Creating Layer inception_4e/1x1
I1130 06:10:52.991338 22785 net.cpp:406] inception_4e/1x1 <- inception_4d/output_inception_4d/output_0_split_0
I1130 06:10:52.991344 22785 net.cpp:380] inception_4e/1x1 -> inception_4e/1x1
I1130 06:10:52.992624 22785 net.cpp:122] Setting up inception_4e/1x1
I1130 06:10:52.992646 22785 net.cpp:129] Top shape: 32 256 14 14 (1605632)
I1130 06:10:52.992651 22785 net.cpp:137] Memory required for data: 1587569024
I1130 06:10:52.992658 22785 layer_factory.hpp:77] Creating layer inception_4e/relu_1x1
I1130 06:10:52.992666 22785 net.cpp:84] Creating Layer inception_4e/relu_1x1
I1130 06:10:52.992671 22785 net.cpp:406] inception_4e/relu_1x1 <- inception_4e/1x1
I1130 06:10:52.992678 22785 net.cpp:367] inception_4e/relu_1x1 -> inception_4e/1x1 (in-place)
I1130 06:10:52.992686 22785 net.cpp:122] Setting up inception_4e/relu_1x1
I1130 06:10:52.992691 22785 net.cpp:129] Top shape: 32 256 14 14 (1605632)
I1130 06:10:52.992697 22785 net.cpp:137] Memory required for data: 1593991552
I1130 06:10:52.992700 22785 layer_factory.hpp:77] Creating layer inception_4e/3x3_reduce
I1130 06:10:52.992708 22785 net.cpp:84] Creating Layer inception_4e/3x3_reduce
I1130 06:10:52.992713 22785 net.cpp:406] inception_4e/3x3_reduce <- inception_4d/output_inception_4d/output_0_split_1
I1130 06:10:52.992722 22785 net.cpp:380] inception_4e/3x3_reduce -> inception_4e/3x3_reduce
I1130 06:10:52.993386 22785 net.cpp:122] Setting up inception_4e/3x3_reduce
I1130 06:10:52.993394 22785 net.cpp:129] Top shape: 32 160 14 14 (1003520)
I1130 06:10:52.993399 22785 net.cpp:137] Memory required for data: 1598005632
I1130 06:10:52.993407 22785 layer_factory.hpp:77] Creating layer inception_4e/relu_3x3_reduce
I1130 06:10:52.993414 22785 net.cpp:84] Creating Layer inception_4e/relu_3x3_reduce
I1130 06:10:52.993419 22785 net.cpp:406] inception_4e/relu_3x3_reduce <- inception_4e/3x3_reduce
I1130 06:10:52.993427 22785 net.cpp:367] inception_4e/relu_3x3_reduce -> inception_4e/3x3_reduce (in-place)
I1130 06:10:52.993433 22785 net.cpp:122] Setting up inception_4e/relu_3x3_reduce
I1130 06:10:52.993439 22785 net.cpp:129] Top shape: 32 160 14 14 (1003520)
I1130 06:10:52.993443 22785 net.cpp:137] Memory required for data: 1602019712
I1130 06:10:52.993448 22785 layer_factory.hpp:77] Creating layer inception_4e/3x3
I1130 06:10:52.993455 22785 net.cpp:84] Creating Layer inception_4e/3x3
I1130 06:10:52.993460 22785 net.cpp:406] inception_4e/3x3 <- inception_4e/3x3_reduce
I1130 06:10:52.993468 22785 net.cpp:380] inception_4e/3x3 -> inception_4e/3x3
I1130 06:10:52.996639 22785 net.cpp:122] Setting up inception_4e/3x3
I1130 06:10:52.996652 22785 net.cpp:129] Top shape: 32 320 14 14 (2007040)
I1130 06:10:52.996656 22785 net.cpp:137] Memory required for data: 1610047872
I1130 06:10:52.996665 22785 layer_factory.hpp:77] Creating layer inception_4e/relu_3x3
I1130 06:10:52.996673 22785 net.cpp:84] Creating Layer inception_4e/relu_3x3
I1130 06:10:52.996680 22785 net.cpp:406] inception_4e/relu_3x3 <- inception_4e/3x3
I1130 06:10:52.996686 22785 net.cpp:367] inception_4e/relu_3x3 -> inception_4e/3x3 (in-place)
I1130 06:10:52.996693 22785 net.cpp:122] Setting up inception_4e/relu_3x3
I1130 06:10:52.996701 22785 net.cpp:129] Top shape: 32 320 14 14 (2007040)
I1130 06:10:52.996706 22785 net.cpp:137] Memory required for data: 1618076032
I1130 06:10:52.996709 22785 layer_factory.hpp:77] Creating layer inception_4e/5x5_reduce
I1130 06:10:52.996718 22785 net.cpp:84] Creating Layer inception_4e/5x5_reduce
I1130 06:10:52.996723 22785 net.cpp:406] inception_4e/5x5_reduce <- inception_4d/output_inception_4d/output_0_split_2
I1130 06:10:52.996731 22785 net.cpp:380] inception_4e/5x5_reduce -> inception_4e/5x5_reduce
I1130 06:10:52.997035 22785 net.cpp:122] Setting up inception_4e/5x5_reduce
I1130 06:10:52.997045 22785 net.cpp:129] Top shape: 32 32 14 14 (200704)
I1130 06:10:52.997050 22785 net.cpp:137] Memory required for data: 1618878848
I1130 06:10:52.997057 22785 layer_factory.hpp:77] Creating layer inception_4e/relu_5x5_reduce
I1130 06:10:52.997064 22785 net.cpp:84] Creating Layer inception_4e/relu_5x5_reduce
I1130 06:10:52.997071 22785 net.cpp:406] inception_4e/relu_5x5_reduce <- inception_4e/5x5_reduce
I1130 06:10:52.997076 22785 net.cpp:367] inception_4e/relu_5x5_reduce -> inception_4e/5x5_reduce (in-place)
I1130 06:10:52.997083 22785 net.cpp:122] Setting up inception_4e/relu_5x5_reduce
I1130 06:10:52.997089 22785 net.cpp:129] Top shape: 32 32 14 14 (200704)
I1130 06:10:52.997094 22785 net.cpp:137] Memory required for data: 1619681664
I1130 06:10:52.997098 22785 layer_factory.hpp:77] Creating layer inception_4e/5x5
I1130 06:10:52.997107 22785 net.cpp:84] Creating Layer inception_4e/5x5
I1130 06:10:52.997112 22785 net.cpp:406] inception_4e/5x5 <- inception_4e/5x5_reduce
I1130 06:10:52.997117 22785 net.cpp:380] inception_4e/5x5 -> inception_4e/5x5
I1130 06:10:52.998193 22785 net.cpp:122] Setting up inception_4e/5x5
I1130 06:10:52.998203 22785 net.cpp:129] Top shape: 32 128 14 14 (802816)
I1130 06:10:52.998208 22785 net.cpp:137] Memory required for data: 1622892928
I1130 06:10:52.998216 22785 layer_factory.hpp:77] Creating layer inception_4e/relu_5x5
I1130 06:10:52.998224 22785 net.cpp:84] Creating Layer inception_4e/relu_5x5
I1130 06:10:52.998229 22785 net.cpp:406] inception_4e/relu_5x5 <- inception_4e/5x5
I1130 06:10:52.998235 22785 net.cpp:367] inception_4e/relu_5x5 -> inception_4e/5x5 (in-place)
I1130 06:10:52.998245 22785 net.cpp:122] Setting up inception_4e/relu_5x5
I1130 06:10:52.998250 22785 net.cpp:129] Top shape: 32 128 14 14 (802816)
I1130 06:10:52.998255 22785 net.cpp:137] Memory required for data: 1626104192
I1130 06:10:52.998258 22785 layer_factory.hpp:77] Creating layer inception_4e/pool
I1130 06:10:52.998265 22785 net.cpp:84] Creating Layer inception_4e/pool
I1130 06:10:52.998271 22785 net.cpp:406] inception_4e/pool <- inception_4d/output_inception_4d/output_0_split_3
I1130 06:10:52.998277 22785 net.cpp:380] inception_4e/pool -> inception_4e/pool
I1130 06:10:52.998316 22785 net.cpp:122] Setting up inception_4e/pool
I1130 06:10:52.998323 22785 net.cpp:129] Top shape: 32 528 14 14 (3311616)
I1130 06:10:52.998328 22785 net.cpp:137] Memory required for data: 1639350656
I1130 06:10:52.998332 22785 layer_factory.hpp:77] Creating layer inception_4e/pool_proj
I1130 06:10:52.998342 22785 net.cpp:84] Creating Layer inception_4e/pool_proj
I1130 06:10:52.998347 22785 net.cpp:406] inception_4e/pool_proj <- inception_4e/pool
I1130 06:10:52.998355 22785 net.cpp:380] inception_4e/pool_proj -> inception_4e/pool_proj
I1130 06:10:52.998919 22785 net.cpp:122] Setting up inception_4e/pool_proj
I1130 06:10:52.998929 22785 net.cpp:129] Top shape: 32 128 14 14 (802816)
I1130 06:10:52.998934 22785 net.cpp:137] Memory required for data: 1642561920
I1130 06:10:52.998940 22785 layer_factory.hpp:77] Creating layer inception_4e/relu_pool_proj
I1130 06:10:52.998948 22785 net.cpp:84] Creating Layer inception_4e/relu_pool_proj
I1130 06:10:52.998953 22785 net.cpp:406] inception_4e/relu_pool_proj <- inception_4e/pool_proj
I1130 06:10:52.998960 22785 net.cpp:367] inception_4e/relu_pool_proj -> inception_4e/pool_proj (in-place)
I1130 06:10:52.998967 22785 net.cpp:122] Setting up inception_4e/relu_pool_proj
I1130 06:10:52.998973 22785 net.cpp:129] Top shape: 32 128 14 14 (802816)
I1130 06:10:52.998977 22785 net.cpp:137] Memory required for data: 1645773184
I1130 06:10:52.998983 22785 layer_factory.hpp:77] Creating layer inception_4e/output
I1130 06:10:52.998991 22785 net.cpp:84] Creating Layer inception_4e/output
I1130 06:10:52.998997 22785 net.cpp:406] inception_4e/output <- inception_4e/1x1
I1130 06:10:52.999002 22785 net.cpp:406] inception_4e/output <- inception_4e/3x3
I1130 06:10:52.999008 22785 net.cpp:406] inception_4e/output <- inception_4e/5x5
I1130 06:10:52.999013 22785 net.cpp:406] inception_4e/output <- inception_4e/pool_proj
I1130 06:10:52.999019 22785 net.cpp:380] inception_4e/output -> inception_4e/output
I1130 06:10:52.999045 22785 net.cpp:122] Setting up inception_4e/output
I1130 06:10:52.999053 22785 net.cpp:129] Top shape: 32 832 14 14 (5218304)
I1130 06:10:52.999058 22785 net.cpp:137] Memory required for data: 1666646400
I1130 06:10:52.999061 22785 layer_factory.hpp:77] Creating layer pool4/3x3_s2
I1130 06:10:52.999068 22785 net.cpp:84] Creating Layer pool4/3x3_s2
I1130 06:10:52.999073 22785 net.cpp:406] pool4/3x3_s2 <- inception_4e/output
I1130 06:10:52.999079 22785 net.cpp:380] pool4/3x3_s2 -> pool4/3x3_s2
I1130 06:10:52.999119 22785 net.cpp:122] Setting up pool4/3x3_s2
I1130 06:10:52.999126 22785 net.cpp:129] Top shape: 32 832 7 7 (1304576)
I1130 06:10:52.999131 22785 net.cpp:137] Memory required for data: 1671864704
I1130 06:10:52.999135 22785 layer_factory.hpp:77] Creating layer pool4/3x3_s2_pool4/3x3_s2_0_split
I1130 06:10:52.999142 22785 net.cpp:84] Creating Layer pool4/3x3_s2_pool4/3x3_s2_0_split
I1130 06:10:52.999147 22785 net.cpp:406] pool4/3x3_s2_pool4/3x3_s2_0_split <- pool4/3x3_s2
I1130 06:10:52.999155 22785 net.cpp:380] pool4/3x3_s2_pool4/3x3_s2_0_split -> pool4/3x3_s2_pool4/3x3_s2_0_split_0
I1130 06:10:52.999161 22785 net.cpp:380] pool4/3x3_s2_pool4/3x3_s2_0_split -> pool4/3x3_s2_pool4/3x3_s2_0_split_1
I1130 06:10:52.999169 22785 net.cpp:380] pool4/3x3_s2_pool4/3x3_s2_0_split -> pool4/3x3_s2_pool4/3x3_s2_0_split_2
I1130 06:10:52.999177 22785 net.cpp:380] pool4/3x3_s2_pool4/3x3_s2_0_split -> pool4/3x3_s2_pool4/3x3_s2_0_split_3
I1130 06:10:52.999233 22785 net.cpp:122] Setting up pool4/3x3_s2_pool4/3x3_s2_0_split
I1130 06:10:52.999239 22785 net.cpp:129] Top shape: 32 832 7 7 (1304576)
I1130 06:10:52.999245 22785 net.cpp:129] Top shape: 32 832 7 7 (1304576)
I1130 06:10:52.999250 22785 net.cpp:129] Top shape: 32 832 7 7 (1304576)
I1130 06:10:52.999256 22785 net.cpp:129] Top shape: 32 832 7 7 (1304576)
I1130 06:10:52.999260 22785 net.cpp:137] Memory required for data: 1692737920
I1130 06:10:52.999264 22785 layer_factory.hpp:77] Creating layer inception_5a/1x1
I1130 06:10:52.999274 22785 net.cpp:84] Creating Layer inception_5a/1x1
I1130 06:10:52.999279 22785 net.cpp:406] inception_5a/1x1 <- pool4/3x3_s2_pool4/3x3_s2_0_split_0
I1130 06:10:52.999287 22785 net.cpp:380] inception_5a/1x1 -> inception_5a/1x1
I1130 06:10:53.000973 22785 net.cpp:122] Setting up inception_5a/1x1
I1130 06:10:53.000984 22785 net.cpp:129] Top shape: 32 256 7 7 (401408)
I1130 06:10:53.000990 22785 net.cpp:137] Memory required for data: 1694343552
I1130 06:10:53.000998 22785 layer_factory.hpp:77] Creating layer inception_5a/relu_1x1
I1130 06:10:53.001005 22785 net.cpp:84] Creating Layer inception_5a/relu_1x1
I1130 06:10:53.001011 22785 net.cpp:406] inception_5a/relu_1x1 <- inception_5a/1x1
I1130 06:10:53.001019 22785 net.cpp:367] inception_5a/relu_1x1 -> inception_5a/1x1 (in-place)
I1130 06:10:53.001027 22785 net.cpp:122] Setting up inception_5a/relu_1x1
I1130 06:10:53.001034 22785 net.cpp:129] Top shape: 32 256 7 7 (401408)
I1130 06:10:53.001039 22785 net.cpp:137] Memory required for data: 1695949184
I1130 06:10:53.001042 22785 layer_factory.hpp:77] Creating layer inception_5a/3x3_reduce
I1130 06:10:53.001050 22785 net.cpp:84] Creating Layer inception_5a/3x3_reduce
I1130 06:10:53.001056 22785 net.cpp:406] inception_5a/3x3_reduce <- pool4/3x3_s2_pool4/3x3_s2_0_split_1
I1130 06:10:53.001065 22785 net.cpp:380] inception_5a/3x3_reduce -> inception_5a/3x3_reduce
I1130 06:10:53.002316 22785 net.cpp:122] Setting up inception_5a/3x3_reduce
I1130 06:10:53.002326 22785 net.cpp:129] Top shape: 32 160 7 7 (250880)
I1130 06:10:53.002332 22785 net.cpp:137] Memory required for data: 1696952704
I1130 06:10:53.002341 22785 layer_factory.hpp:77] Creating layer inception_5a/relu_3x3_reduce
I1130 06:10:53.002346 22785 net.cpp:84] Creating Layer inception_5a/relu_3x3_reduce
I1130 06:10:53.002352 22785 net.cpp:406] inception_5a/relu_3x3_reduce <- inception_5a/3x3_reduce
I1130 06:10:53.002360 22785 net.cpp:367] inception_5a/relu_3x3_reduce -> inception_5a/3x3_reduce (in-place)
I1130 06:10:53.002368 22785 net.cpp:122] Setting up inception_5a/relu_3x3_reduce
I1130 06:10:53.002374 22785 net.cpp:129] Top shape: 32 160 7 7 (250880)
I1130 06:10:53.002378 22785 net.cpp:137] Memory required for data: 1697956224
I1130 06:10:53.002383 22785 layer_factory.hpp:77] Creating layer inception_5a/3x3
I1130 06:10:53.002390 22785 net.cpp:84] Creating Layer inception_5a/3x3
I1130 06:10:53.002395 22785 net.cpp:406] inception_5a/3x3 <- inception_5a/3x3_reduce
I1130 06:10:53.002403 22785 net.cpp:380] inception_5a/3x3 -> inception_5a/3x3
I1130 06:10:53.005609 22785 net.cpp:122] Setting up inception_5a/3x3
I1130 06:10:53.005626 22785 net.cpp:129] Top shape: 32 320 7 7 (501760)
I1130 06:10:53.005630 22785 net.cpp:137] Memory required for data: 1699963264
I1130 06:10:53.005638 22785 layer_factory.hpp:77] Creating layer inception_5a/relu_3x3
I1130 06:10:53.005647 22785 net.cpp:84] Creating Layer inception_5a/relu_3x3
I1130 06:10:53.005655 22785 net.cpp:406] inception_5a/relu_3x3 <- inception_5a/3x3
I1130 06:10:53.005662 22785 net.cpp:367] inception_5a/relu_3x3 -> inception_5a/3x3 (in-place)
I1130 06:10:53.005671 22785 net.cpp:122] Setting up inception_5a/relu_3x3
I1130 06:10:53.005678 22785 net.cpp:129] Top shape: 32 320 7 7 (501760)
I1130 06:10:53.005682 22785 net.cpp:137] Memory required for data: 1701970304
I1130 06:10:53.005686 22785 layer_factory.hpp:77] Creating layer inception_5a/5x5_reduce
I1130 06:10:53.005697 22785 net.cpp:84] Creating Layer inception_5a/5x5_reduce
I1130 06:10:53.005702 22785 net.cpp:406] inception_5a/5x5_reduce <- pool4/3x3_s2_pool4/3x3_s2_0_split_2
I1130 06:10:53.005710 22785 net.cpp:380] inception_5a/5x5_reduce -> inception_5a/5x5_reduce
I1130 06:10:53.006083 22785 net.cpp:122] Setting up inception_5a/5x5_reduce
I1130 06:10:53.006104 22785 net.cpp:129] Top shape: 32 32 7 7 (50176)
I1130 06:10:53.006108 22785 net.cpp:137] Memory required for data: 1702171008
I1130 06:10:53.006116 22785 layer_factory.hpp:77] Creating layer inception_5a/relu_5x5_reduce
I1130 06:10:53.006124 22785 net.cpp:84] Creating Layer inception_5a/relu_5x5_reduce
I1130 06:10:53.006129 22785 net.cpp:406] inception_5a/relu_5x5_reduce <- inception_5a/5x5_reduce
I1130 06:10:53.006135 22785 net.cpp:367] inception_5a/relu_5x5_reduce -> inception_5a/5x5_reduce (in-place)
I1130 06:10:53.006144 22785 net.cpp:122] Setting up inception_5a/relu_5x5_reduce
I1130 06:10:53.006150 22785 net.cpp:129] Top shape: 32 32 7 7 (50176)
I1130 06:10:53.006155 22785 net.cpp:137] Memory required for data: 1702371712
I1130 06:10:53.006160 22785 layer_factory.hpp:77] Creating layer inception_5a/5x5
I1130 06:10:53.006181 22785 net.cpp:84] Creating Layer inception_5a/5x5
I1130 06:10:53.006187 22785 net.cpp:406] inception_5a/5x5 <- inception_5a/5x5_reduce
I1130 06:10:53.006196 22785 net.cpp:380] inception_5a/5x5 -> inception_5a/5x5
I1130 06:10:53.007334 22785 net.cpp:122] Setting up inception_5a/5x5
I1130 06:10:53.007344 22785 net.cpp:129] Top shape: 32 128 7 7 (200704)
I1130 06:10:53.007350 22785 net.cpp:137] Memory required for data: 1703174528
I1130 06:10:53.007359 22785 layer_factory.hpp:77] Creating layer inception_5a/relu_5x5
I1130 06:10:53.007365 22785 net.cpp:84] Creating Layer inception_5a/relu_5x5
I1130 06:10:53.007371 22785 net.cpp:406] inception_5a/relu_5x5 <- inception_5a/5x5
I1130 06:10:53.007380 22785 net.cpp:367] inception_5a/relu_5x5 -> inception_5a/5x5 (in-place)
I1130 06:10:53.007387 22785 net.cpp:122] Setting up inception_5a/relu_5x5
I1130 06:10:53.007393 22785 net.cpp:129] Top shape: 32 128 7 7 (200704)
I1130 06:10:53.007398 22785 net.cpp:137] Memory required for data: 1703977344
I1130 06:10:53.007402 22785 layer_factory.hpp:77] Creating layer inception_5a/pool
I1130 06:10:53.007410 22785 net.cpp:84] Creating Layer inception_5a/pool
I1130 06:10:53.007414 22785 net.cpp:406] inception_5a/pool <- pool4/3x3_s2_pool4/3x3_s2_0_split_3
I1130 06:10:53.007421 22785 net.cpp:380] inception_5a/pool -> inception_5a/pool
I1130 06:10:53.007458 22785 net.cpp:122] Setting up inception_5a/pool
I1130 06:10:53.007467 22785 net.cpp:129] Top shape: 32 832 7 7 (1304576)
I1130 06:10:53.007472 22785 net.cpp:137] Memory required for data: 1709195648
I1130 06:10:53.007475 22785 layer_factory.hpp:77] Creating layer inception_5a/pool_proj
I1130 06:10:53.007486 22785 net.cpp:84] Creating Layer inception_5a/pool_proj
I1130 06:10:53.007493 22785 net.cpp:406] inception_5a/pool_proj <- inception_5a/pool
I1130 06:10:53.007499 22785 net.cpp:380] inception_5a/pool_proj -> inception_5a/pool_proj
I1130 06:10:53.008596 22785 net.cpp:122] Setting up inception_5a/pool_proj
I1130 06:10:53.008607 22785 net.cpp:129] Top shape: 32 128 7 7 (200704)
I1130 06:10:53.008612 22785 net.cpp:137] Memory required for data: 1709998464
I1130 06:10:53.008620 22785 layer_factory.hpp:77] Creating layer inception_5a/relu_pool_proj
I1130 06:10:53.008627 22785 net.cpp:84] Creating Layer inception_5a/relu_pool_proj
I1130 06:10:53.008635 22785 net.cpp:406] inception_5a/relu_pool_proj <- inception_5a/pool_proj
I1130 06:10:53.008641 22785 net.cpp:367] inception_5a/relu_pool_proj -> inception_5a/pool_proj (in-place)
I1130 06:10:53.008649 22785 net.cpp:122] Setting up inception_5a/relu_pool_proj
I1130 06:10:53.008656 22785 net.cpp:129] Top shape: 32 128 7 7 (200704)
I1130 06:10:53.008661 22785 net.cpp:137] Memory required for data: 1710801280
I1130 06:10:53.008663 22785 layer_factory.hpp:77] Creating layer inception_5a/output
I1130 06:10:53.008671 22785 net.cpp:84] Creating Layer inception_5a/output
I1130 06:10:53.008677 22785 net.cpp:406] inception_5a/output <- inception_5a/1x1
I1130 06:10:53.008682 22785 net.cpp:406] inception_5a/output <- inception_5a/3x3
I1130 06:10:53.008687 22785 net.cpp:406] inception_5a/output <- inception_5a/5x5
I1130 06:10:53.008692 22785 net.cpp:406] inception_5a/output <- inception_5a/pool_proj
I1130 06:10:53.008698 22785 net.cpp:380] inception_5a/output -> inception_5a/output
I1130 06:10:53.008723 22785 net.cpp:122] Setting up inception_5a/output
I1130 06:10:53.008731 22785 net.cpp:129] Top shape: 32 832 7 7 (1304576)
I1130 06:10:53.008735 22785 net.cpp:137] Memory required for data: 1716019584
I1130 06:10:53.008739 22785 layer_factory.hpp:77] Creating layer inception_5a/output_inception_5a/output_0_split
I1130 06:10:53.008749 22785 net.cpp:84] Creating Layer inception_5a/output_inception_5a/output_0_split
I1130 06:10:53.008754 22785 net.cpp:406] inception_5a/output_inception_5a/output_0_split <- inception_5a/output
I1130 06:10:53.008761 22785 net.cpp:380] inception_5a/output_inception_5a/output_0_split -> inception_5a/output_inception_5a/output_0_split_0
I1130 06:10:53.008769 22785 net.cpp:380] inception_5a/output_inception_5a/output_0_split -> inception_5a/output_inception_5a/output_0_split_1
I1130 06:10:53.008776 22785 net.cpp:380] inception_5a/output_inception_5a/output_0_split -> inception_5a/output_inception_5a/output_0_split_2
I1130 06:10:53.008785 22785 net.cpp:380] inception_5a/output_inception_5a/output_0_split -> inception_5a/output_inception_5a/output_0_split_3
I1130 06:10:53.008833 22785 net.cpp:122] Setting up inception_5a/output_inception_5a/output_0_split
I1130 06:10:53.008841 22785 net.cpp:129] Top shape: 32 832 7 7 (1304576)
I1130 06:10:53.008846 22785 net.cpp:129] Top shape: 32 832 7 7 (1304576)
I1130 06:10:53.008852 22785 net.cpp:129] Top shape: 32 832 7 7 (1304576)
I1130 06:10:53.008857 22785 net.cpp:129] Top shape: 32 832 7 7 (1304576)
I1130 06:10:53.008862 22785 net.cpp:137] Memory required for data: 1736892800
I1130 06:10:53.008865 22785 layer_factory.hpp:77] Creating layer inception_5b/1x1
I1130 06:10:53.008875 22785 net.cpp:84] Creating Layer inception_5b/1x1
I1130 06:10:53.008882 22785 net.cpp:406] inception_5b/1x1 <- inception_5a/output_inception_5a/output_0_split_0
I1130 06:10:53.008888 22785 net.cpp:380] inception_5b/1x1 -> inception_5b/1x1
I1130 06:10:53.011113 22785 net.cpp:122] Setting up inception_5b/1x1
I1130 06:10:53.011123 22785 net.cpp:129] Top shape: 32 384 7 7 (602112)
I1130 06:10:53.011127 22785 net.cpp:137] Memory required for data: 1739301248
I1130 06:10:53.011135 22785 layer_factory.hpp:77] Creating layer inception_5b/relu_1x1
I1130 06:10:53.011144 22785 net.cpp:84] Creating Layer inception_5b/relu_1x1
I1130 06:10:53.011150 22785 net.cpp:406] inception_5b/relu_1x1 <- inception_5b/1x1
I1130 06:10:53.011157 22785 net.cpp:367] inception_5b/relu_1x1 -> inception_5b/1x1 (in-place)
I1130 06:10:53.011164 22785 net.cpp:122] Setting up inception_5b/relu_1x1
I1130 06:10:53.011171 22785 net.cpp:129] Top shape: 32 384 7 7 (602112)
I1130 06:10:53.011175 22785 net.cpp:137] Memory required for data: 1741709696
I1130 06:10:53.011180 22785 layer_factory.hpp:77] Creating layer inception_5b/3x3_reduce
I1130 06:10:53.011189 22785 net.cpp:84] Creating Layer inception_5b/3x3_reduce
I1130 06:10:53.011195 22785 net.cpp:406] inception_5b/3x3_reduce <- inception_5a/output_inception_5a/output_0_split_1
I1130 06:10:53.011201 22785 net.cpp:380] inception_5b/3x3_reduce -> inception_5b/3x3_reduce
I1130 06:10:53.012538 22785 net.cpp:122] Setting up inception_5b/3x3_reduce
I1130 06:10:53.012549 22785 net.cpp:129] Top shape: 32 192 7 7 (301056)
I1130 06:10:53.012555 22785 net.cpp:137] Memory required for data: 1742913920
I1130 06:10:53.012562 22785 layer_factory.hpp:77] Creating layer inception_5b/relu_3x3_reduce
I1130 06:10:53.012569 22785 net.cpp:84] Creating Layer inception_5b/relu_3x3_reduce
I1130 06:10:53.012575 22785 net.cpp:406] inception_5b/relu_3x3_reduce <- inception_5b/3x3_reduce
I1130 06:10:53.012581 22785 net.cpp:367] inception_5b/relu_3x3_reduce -> inception_5b/3x3_reduce (in-place)
I1130 06:10:53.012589 22785 net.cpp:122] Setting up inception_5b/relu_3x3_reduce
I1130 06:10:53.012595 22785 net.cpp:129] Top shape: 32 192 7 7 (301056)
I1130 06:10:53.012600 22785 net.cpp:137] Memory required for data: 1744118144
I1130 06:10:53.012603 22785 layer_factory.hpp:77] Creating layer inception_5b/3x3
I1130 06:10:53.012614 22785 net.cpp:84] Creating Layer inception_5b/3x3
I1130 06:10:53.012619 22785 net.cpp:406] inception_5b/3x3 <- inception_5b/3x3_reduce
I1130 06:10:53.012625 22785 net.cpp:380] inception_5b/3x3 -> inception_5b/3x3
I1130 06:10:53.016985 22785 net.cpp:122] Setting up inception_5b/3x3
I1130 06:10:53.017007 22785 net.cpp:129] Top shape: 32 384 7 7 (602112)
I1130 06:10:53.017011 22785 net.cpp:137] Memory required for data: 1746526592
I1130 06:10:53.017021 22785 layer_factory.hpp:77] Creating layer inception_5b/relu_3x3
I1130 06:10:53.017030 22785 net.cpp:84] Creating Layer inception_5b/relu_3x3
I1130 06:10:53.017037 22785 net.cpp:406] inception_5b/relu_3x3 <- inception_5b/3x3
I1130 06:10:53.017048 22785 net.cpp:367] inception_5b/relu_3x3 -> inception_5b/3x3 (in-place)
I1130 06:10:53.017058 22785 net.cpp:122] Setting up inception_5b/relu_3x3
I1130 06:10:53.017065 22785 net.cpp:129] Top shape: 32 384 7 7 (602112)
I1130 06:10:53.017068 22785 net.cpp:137] Memory required for data: 1748935040
I1130 06:10:53.017074 22785 layer_factory.hpp:77] Creating layer inception_5b/5x5_reduce
I1130 06:10:53.017083 22785 net.cpp:84] Creating Layer inception_5b/5x5_reduce
I1130 06:10:53.017088 22785 net.cpp:406] inception_5b/5x5_reduce <- inception_5a/output_inception_5a/output_0_split_2
I1130 06:10:53.017096 22785 net.cpp:380] inception_5b/5x5_reduce -> inception_5b/5x5_reduce
I1130 06:10:53.017518 22785 net.cpp:122] Setting up inception_5b/5x5_reduce
I1130 06:10:53.017527 22785 net.cpp:129] Top shape: 32 48 7 7 (75264)
I1130 06:10:53.017532 22785 net.cpp:137] Memory required for data: 1749236096
I1130 06:10:53.017540 22785 layer_factory.hpp:77] Creating layer inception_5b/relu_5x5_reduce
I1130 06:10:53.017547 22785 net.cpp:84] Creating Layer inception_5b/relu_5x5_reduce
I1130 06:10:53.017554 22785 net.cpp:406] inception_5b/relu_5x5_reduce <- inception_5b/5x5_reduce
I1130 06:10:53.017565 22785 net.cpp:367] inception_5b/relu_5x5_reduce -> inception_5b/5x5_reduce (in-place)
I1130 06:10:53.017573 22785 net.cpp:122] Setting up inception_5b/relu_5x5_reduce
I1130 06:10:53.017580 22785 net.cpp:129] Top shape: 32 48 7 7 (75264)
I1130 06:10:53.017583 22785 net.cpp:137] Memory required for data: 1749537152
I1130 06:10:53.017588 22785 layer_factory.hpp:77] Creating layer inception_5b/5x5
I1130 06:10:53.017598 22785 net.cpp:84] Creating Layer inception_5b/5x5
I1130 06:10:53.017603 22785 net.cpp:406] inception_5b/5x5 <- inception_5b/5x5_reduce
I1130 06:10:53.017611 22785 net.cpp:380] inception_5b/5x5 -> inception_5b/5x5
I1130 06:10:53.018640 22785 net.cpp:122] Setting up inception_5b/5x5
I1130 06:10:53.018651 22785 net.cpp:129] Top shape: 32 128 7 7 (200704)
I1130 06:10:53.018656 22785 net.cpp:137] Memory required for data: 1750339968
I1130 06:10:53.018662 22785 layer_factory.hpp:77] Creating layer inception_5b/relu_5x5
I1130 06:10:53.018699 22785 net.cpp:84] Creating Layer inception_5b/relu_5x5
I1130 06:10:53.018707 22785 net.cpp:406] inception_5b/relu_5x5 <- inception_5b/5x5
I1130 06:10:53.018712 22785 net.cpp:367] inception_5b/relu_5x5 -> inception_5b/5x5 (in-place)
I1130 06:10:53.018720 22785 net.cpp:122] Setting up inception_5b/relu_5x5
I1130 06:10:53.018726 22785 net.cpp:129] Top shape: 32 128 7 7 (200704)
I1130 06:10:53.018731 22785 net.cpp:137] Memory required for data: 1751142784
I1130 06:10:53.018736 22785 layer_factory.hpp:77] Creating layer inception_5b/pool
I1130 06:10:53.018745 22785 net.cpp:84] Creating Layer inception_5b/pool
I1130 06:10:53.018750 22785 net.cpp:406] inception_5b/pool <- inception_5a/output_inception_5a/output_0_split_3
I1130 06:10:53.018757 22785 net.cpp:380] inception_5b/pool -> inception_5b/pool
I1130 06:10:53.018795 22785 net.cpp:122] Setting up inception_5b/pool
I1130 06:10:53.018803 22785 net.cpp:129] Top shape: 32 832 7 7 (1304576)
I1130 06:10:53.018807 22785 net.cpp:137] Memory required for data: 1756361088
I1130 06:10:53.018811 22785 layer_factory.hpp:77] Creating layer inception_5b/pool_proj
I1130 06:10:53.018822 22785 net.cpp:84] Creating Layer inception_5b/pool_proj
I1130 06:10:53.018827 22785 net.cpp:406] inception_5b/pool_proj <- inception_5b/pool
I1130 06:10:53.018836 22785 net.cpp:380] inception_5b/pool_proj -> inception_5b/pool_proj
I1130 06:10:53.019960 22785 net.cpp:122] Setting up inception_5b/pool_proj
I1130 06:10:53.019971 22785 net.cpp:129] Top shape: 32 128 7 7 (200704)
I1130 06:10:53.019976 22785 net.cpp:137] Memory required for data: 1757163904
I1130 06:10:53.019984 22785 layer_factory.hpp:77] Creating layer inception_5b/relu_pool_proj
I1130 06:10:53.019990 22785 net.cpp:84] Creating Layer inception_5b/relu_pool_proj
I1130 06:10:53.019996 22785 net.cpp:406] inception_5b/relu_pool_proj <- inception_5b/pool_proj
I1130 06:10:53.020004 22785 net.cpp:367] inception_5b/relu_pool_proj -> inception_5b/pool_proj (in-place)
I1130 06:10:53.020012 22785 net.cpp:122] Setting up inception_5b/relu_pool_proj
I1130 06:10:53.020018 22785 net.cpp:129] Top shape: 32 128 7 7 (200704)
I1130 06:10:53.020023 22785 net.cpp:137] Memory required for data: 1757966720
I1130 06:10:53.020028 22785 layer_factory.hpp:77] Creating layer inception_5b/output
I1130 06:10:53.020035 22785 net.cpp:84] Creating Layer inception_5b/output
I1130 06:10:53.020040 22785 net.cpp:406] inception_5b/output <- inception_5b/1x1
I1130 06:10:53.020046 22785 net.cpp:406] inception_5b/output <- inception_5b/3x3
I1130 06:10:53.020051 22785 net.cpp:406] inception_5b/output <- inception_5b/5x5
I1130 06:10:53.020056 22785 net.cpp:406] inception_5b/output <- inception_5b/pool_proj
I1130 06:10:53.020063 22785 net.cpp:380] inception_5b/output -> inception_5b/output
I1130 06:10:53.020087 22785 net.cpp:122] Setting up inception_5b/output
I1130 06:10:53.020094 22785 net.cpp:129] Top shape: 32 1024 7 7 (1605632)
I1130 06:10:53.020099 22785 net.cpp:137] Memory required for data: 1764389248
I1130 06:10:53.020103 22785 layer_factory.hpp:77] Creating layer pool5/7x7_s1
I1130 06:10:53.020110 22785 net.cpp:84] Creating Layer pool5/7x7_s1
I1130 06:10:53.020117 22785 net.cpp:406] pool5/7x7_s1 <- inception_5b/output
I1130 06:10:53.020123 22785 net.cpp:380] pool5/7x7_s1 -> pool5/7x7_s1
I1130 06:10:53.020146 22785 net.cpp:122] Setting up pool5/7x7_s1
I1130 06:10:53.020154 22785 net.cpp:129] Top shape: 32 1024 1 1 (32768)
I1130 06:10:53.020159 22785 net.cpp:137] Memory required for data: 1764520320
I1130 06:10:53.020162 22785 layer_factory.hpp:77] Creating layer pool5/drop_7x7_s1
I1130 06:10:53.020169 22785 net.cpp:84] Creating Layer pool5/drop_7x7_s1
I1130 06:10:53.020175 22785 net.cpp:406] pool5/drop_7x7_s1 <- pool5/7x7_s1
I1130 06:10:53.020182 22785 net.cpp:367] pool5/drop_7x7_s1 -> pool5/7x7_s1 (in-place)
I1130 06:10:53.020205 22785 net.cpp:122] Setting up pool5/drop_7x7_s1
I1130 06:10:53.020211 22785 net.cpp:129] Top shape: 32 1024 1 1 (32768)
I1130 06:10:53.020215 22785 net.cpp:137] Memory required for data: 1764651392
I1130 06:10:53.020220 22785 layer_factory.hpp:77] Creating layer fc_scv_quiet
I1130 06:10:53.020231 22785 net.cpp:84] Creating Layer fc_scv_quiet
I1130 06:10:53.020236 22785 net.cpp:406] fc_scv_quiet <- pool5/7x7_s1
I1130 06:10:53.020246 22785 net.cpp:380] fc_scv_quiet -> fc_scv_quiet
I1130 06:10:53.020340 22785 net.cpp:122] Setting up fc_scv_quiet
I1130 06:10:53.020349 22785 net.cpp:129] Top shape: 32 1 (32)
I1130 06:10:53.020354 22785 net.cpp:137] Memory required for data: 1764651520
I1130 06:10:53.020361 22785 layer_factory.hpp:77] Creating layer fc_scv_quiet_fc_scv_quiet_0_split
I1130 06:10:53.020368 22785 net.cpp:84] Creating Layer fc_scv_quiet_fc_scv_quiet_0_split
I1130 06:10:53.020375 22785 net.cpp:406] fc_scv_quiet_fc_scv_quiet_0_split <- fc_scv_quiet
I1130 06:10:53.020381 22785 net.cpp:380] fc_scv_quiet_fc_scv_quiet_0_split -> fc_scv_quiet_fc_scv_quiet_0_split_0
I1130 06:10:53.020388 22785 net.cpp:380] fc_scv_quiet_fc_scv_quiet_0_split -> fc_scv_quiet_fc_scv_quiet_0_split_1
I1130 06:10:53.020423 22785 net.cpp:122] Setting up fc_scv_quiet_fc_scv_quiet_0_split
I1130 06:10:53.020431 22785 net.cpp:129] Top shape: 32 1 (32)
I1130 06:10:53.020437 22785 net.cpp:129] Top shape: 32 1 (32)
I1130 06:10:53.020440 22785 net.cpp:137] Memory required for data: 1764651776
I1130 06:10:53.020444 22785 layer_factory.hpp:77] Creating layer loss
I1130 06:10:53.020452 22785 net.cpp:84] Creating Layer loss
I1130 06:10:53.020457 22785 net.cpp:406] loss <- fc_scv_quiet_fc_scv_quiet_0_split_0
I1130 06:10:53.020462 22785 net.cpp:406] loss <- label_data_1_split_0
I1130 06:10:53.020468 22785 net.cpp:380] loss -> loss
…
