…
I1130 21:52:51.584578 30662 net.cpp:294] The NetState phase (0) differed from the phase (1) specified by a rule in layer losttest
I1130 21:52:51.584729 30662 net.cpp:51] Initializing net from parameters: 
name: "CaffeNet-Places365-SCV-Wealthy"
state {
  phase: TRAIN
  level: 0
  stage: ""
}
layer {
  name: "data"
  type: "Data"
  top: "data"
  top: "label"
  include {
    phase: TRAIN
  }
  transform_param {
    mirror: true
    crop_size: 227
    mean_file: "/idiap/temp/lmedina/fine-tuning/alexnet_places365/places365CNN_mean.binaryproto"
  }
  data_param {
    source: "/idiap/temp/lmedina/fine-tuning/data/Wealthy/train_lmdb"
    batch_size: 32
    backend: LMDB
  }
}
layer {
  name: "conv1"
  type: "Convolution"
  bottom: "data"
  top: "conv1"
  param {
    lr_mult: 1
    decay_mult: 1
  }
  param {
    lr_mult: 2
    decay_mult: 0
  }
  convolution_param {
    num_output: 96
    kernel_size: 11
    stride: 4
    weight_filler {
      type: "gaussian"
      std: 0.01
    }
    bias_filler {
      type: "constant"
      value: 0
    }
  }
}
layer {
  name: "relu1"
  type: "ReLU"
  bottom: "conv1"
  top: "conv1"
}
layer {
  name: "pool1"
  type: "Pooling"
  bottom: "conv1"
  top: "pool1"
  pooling_param {
    pool: MAX
    kernel_size: 3
    stride: 2
  }
}
layer {
  name: "norm1"
  type: "LRN"
  bottom: "pool1"
  top: "norm1"
  lrn_param {
    local_size: 5
    alpha: 0.0001
    beta: 0.75
  }
}
layer {
  name: "conv2"
  type: "Convolution"
  bottom: "norm1"
  top: "conv2"
  param {
    lr_mult: 1
    decay_mult: 1
  }
  param {
    lr_mult: 2
    decay_mult: 0
  }
  convolution_param {
    num_output: 256
    pad: 2
    kernel_size: 5
    group: 2
    weight_filler {
      type: "gaussian"
      std: 0.01
    }
    bias_filler {
      type: "constant"
      value: 1
    }
  }
}
layer {
  name: "relu2"
  type: "ReLU"
  bottom: "conv2"
  top: "conv2"
}
layer {
  name: "pool2"
  type: "Pooling"
  bottom: "conv2"
  top: "pool2"
  pooling_param {
    pool: MAX
    kernel_size: 3
    stride: 2
  }
}
layer {
  name: "norm2"
  type: "LRN"
  bottom: "pool2"
  top: "norm2"
  lrn_param {
    local_size: 5
    alpha: 0.0001
    beta: 0.75
  }
}
layer {
  name: "conv3"
  type: "Convolution"
  bottom: "norm2"
  top: "conv3"
  param {
    lr_mult: 1
    decay_mult: 1
  }
  param {
    lr_mult: 2
    decay_mult: 0
  }
  convolution_param {
    num_output: 384
    pad: 1
    kernel_size: 3
    weight_filler {
      type: "gaussian"
      std: 0.01
    }
    bias_filler {
      type: "constant"
      value: 0
    }
  }
}
layer {
  name: "relu3"
  type: "ReLU"
  bottom: "conv3"
  top: "conv3"
}
layer {
  name: "conv4"
  type: "Convolution"
  bottom: "conv3"
  top: "conv4"
  param {
    lr_mult: 1
    decay_mult: 1
  }
  param {
    lr_mult: 2
    decay_mult: 0
  }
  convolution_param {
    num_output: 384
    pad: 1
    kernel_size: 3
    group: 2
    weight_filler {
      type: "gaussian"
      std: 0.01
    }
    bias_filler {
      type: "constant"
      value: 1
    }
  }
}
layer {
  name: "relu4"
  type: "ReLU"
  bottom: "conv4"
  top: "conv4"
}
layer {
  name: "conv5"
  type: "Convolution"
  bottom: "conv4"
  top: "conv5"
  param {
    lr_mult: 1
    decay_mult: 1
  }
  param {
    lr_mult: 2
    decay_mult: 0
  }
  convolution_param {
    num_output: 256
    pad: 1
    kernel_size: 3
    group: 2
    weight_filler {
      type: "gaussian"
      std: 0.01
    }
    bias_filler {
      type: "constant"
      value: 1
    }
  }
}
layer {
  name: "relu5"
  type: "ReLU"
  bottom: "conv5"
  top: "conv5"
}
layer {
  name: "pool5"
  type: "Pooling"
  bottom: "conv5"
  top: "pool5"
  pooling_param {
    pool: MAX
    kernel_size: 3
    stride: 2
  }
}
layer {
  name: "fc6"
  type: "InnerProduct"
  bottom: "pool5"
  top: "fc6"
  param {
    lr_mult: 1
    decay_mult: 1
  }
  param {
    lr_mult: 2
    decay_mult: 0
  }
  inner_product_param {
    num_output: 4096
    weight_filler {
      type: "gaussian"
      std: 0.005
    }
    bias_filler {
      type: "constant"
      value: 1
    }
  }
}
layer {
  name: "relu6"
  type: "ReLU"
  bottom: "fc6"
  top: "fc6"
}
layer {
  name: "drop6"
  type: "Dropout"
  bottom: "fc6"
  top: "fc6"
  dropout_param {
    dropout_ratio: 0.5
  }
}
layer {
  name: "fc7"
  type: "InnerProduct"
  bottom: "fc6"
  top: "fc7"
  param {
    lr_mult: 1
    decay_mult: 1
  }
  param {
    lr_mult: 2
    decay_mult: 0
  }
  inner_product_param {
    num_output: 4096
    weight_filler {
      type: "gaussian"
      std: 0.005
    }
    bias_filler {
      type: "constant"
      value: 1
    }
  }
}
layer {
  name: "relu7"
  type: "ReLU"
  bottom: "fc7"
  top: "fc7"
}
layer {
  name: "drop7"
  type: "Dropout"
  bottom: "fc7"
  top: "fc7"
  dropout_param {
    dropout_ratio: 0.5
  }
}
layer {
  name: "fc_scv_wealthy"
  type: "InnerProduct"
  bottom: "fc7"
  top: "fc_scv_wealthy"
  param {
    lr_mult: 10
    decay_mult: 1
  }
  param {
    lr_mult: 20
    decay_mult: 0
  }
  inner_product_param {
    num_output: 1
    weight_filler {
      type: "xavier"
      std: 0.01
    }
    bias_filler {
      type: "constant"
      value: 0
    }
  }
}
layer {
  name: "loss"
  type: "EuclideanLoss"
  bottom: "fc_scv_wealthy"
  bottom: "label"
  top: "loss"
}
I1130 21:52:51.584822 30662 layer_factory.hpp:77] Creating layer data
I1130 21:52:51.614869 30662 db_lmdb.cpp:35] Opened lmdb /idiap/temp/lmedina/fine-tuning/data/Wealthy/train_lmdb
I1130 21:52:51.631065 30662 net.cpp:84] Creating Layer data
I1130 21:52:51.631093 30662 net.cpp:380] data -> data
I1130 21:52:51.631124 30662 net.cpp:380] data -> label
I1130 21:52:51.631155 30662 data_transformer.cpp:25] Loading mean file from: /idiap/temp/lmedina/fine-tuning/alexnet_places365/places365CNN_mean.binaryproto
I1130 21:52:51.639945 30662 data_layer.cpp:45] output data size: 32,3,227,227
I1130 21:52:51.683208 30662 net.cpp:122] Setting up data
I1130 21:52:51.683264 30662 net.cpp:129] Top shape: 32 3 227 227 (4946784)
I1130 21:52:51.683271 30662 net.cpp:129] Top shape: 32 (32)
I1130 21:52:51.683276 30662 net.cpp:137] Memory required for data: 19787264
I1130 21:52:51.683290 30662 layer_factory.hpp:77] Creating layer conv1
I1130 21:52:51.683316 30662 net.cpp:84] Creating Layer conv1
I1130 21:52:51.683324 30662 net.cpp:406] conv1 <- data
I1130 21:52:51.683341 30662 net.cpp:380] conv1 -> conv1
I1130 21:52:51.684909 30662 net.cpp:122] Setting up conv1
I1130 21:52:51.684926 30662 net.cpp:129] Top shape: 32 96 55 55 (9292800)
I1130 21:52:51.684931 30662 net.cpp:137] Memory required for data: 56958464
I1130 21:52:51.684950 30662 layer_factory.hpp:77] Creating layer relu1
I1130 21:52:51.684979 30662 net.cpp:84] Creating Layer relu1
I1130 21:52:51.684985 30662 net.cpp:406] relu1 <- conv1
I1130 21:52:51.684993 30662 net.cpp:367] relu1 -> conv1 (in-place)
I1130 21:52:51.685003 30662 net.cpp:122] Setting up relu1
I1130 21:52:51.685009 30662 net.cpp:129] Top shape: 32 96 55 55 (9292800)
I1130 21:52:51.685015 30662 net.cpp:137] Memory required for data: 94129664
I1130 21:52:51.685021 30662 layer_factory.hpp:77] Creating layer pool1
I1130 21:52:51.685030 30662 net.cpp:84] Creating Layer pool1
I1130 21:52:51.685036 30662 net.cpp:406] pool1 <- conv1
I1130 21:52:51.685044 30662 net.cpp:380] pool1 -> pool1
I1130 21:52:51.686635 30662 net.cpp:122] Setting up pool1
I1130 21:52:51.686661 30662 net.cpp:129] Top shape: 32 96 27 27 (2239488)
I1130 21:52:51.686667 30662 net.cpp:137] Memory required for data: 103087616
I1130 21:52:51.686673 30662 layer_factory.hpp:77] Creating layer norm1
I1130 21:52:51.686687 30662 net.cpp:84] Creating Layer norm1
I1130 21:52:51.686693 30662 net.cpp:406] norm1 <- pool1
I1130 21:52:51.686703 30662 net.cpp:380] norm1 -> norm1
I1130 21:52:51.686753 30662 net.cpp:122] Setting up norm1
I1130 21:52:51.686761 30662 net.cpp:129] Top shape: 32 96 27 27 (2239488)
I1130 21:52:51.686766 30662 net.cpp:137] Memory required for data: 112045568
I1130 21:52:51.686771 30662 layer_factory.hpp:77] Creating layer conv2
I1130 21:52:51.686784 30662 net.cpp:84] Creating Layer conv2
I1130 21:52:51.686789 30662 net.cpp:406] conv2 <- norm1
I1130 21:52:51.686794 30662 net.cpp:380] conv2 -> conv2
I1130 21:52:51.690711 30662 net.cpp:122] Setting up conv2
I1130 21:52:51.690731 30662 net.cpp:129] Top shape: 32 256 27 27 (5971968)
I1130 21:52:51.690735 30662 net.cpp:137] Memory required for data: 135933440
I1130 21:52:51.690750 30662 layer_factory.hpp:77] Creating layer relu2
I1130 21:52:51.690762 30662 net.cpp:84] Creating Layer relu2
I1130 21:52:51.690768 30662 net.cpp:406] relu2 <- conv2
I1130 21:52:51.690775 30662 net.cpp:367] relu2 -> conv2 (in-place)
I1130 21:52:51.690785 30662 net.cpp:122] Setting up relu2
I1130 21:52:51.690791 30662 net.cpp:129] Top shape: 32 256 27 27 (5971968)
I1130 21:52:51.690796 30662 net.cpp:137] Memory required for data: 159821312
I1130 21:52:51.690801 30662 layer_factory.hpp:77] Creating layer pool2
I1130 21:52:51.690809 30662 net.cpp:84] Creating Layer pool2
I1130 21:52:51.690814 30662 net.cpp:406] pool2 <- conv2
I1130 21:52:51.690819 30662 net.cpp:380] pool2 -> pool2
I1130 21:52:51.690856 30662 net.cpp:122] Setting up pool2
I1130 21:52:51.690865 30662 net.cpp:129] Top shape: 32 256 13 13 (1384448)
I1130 21:52:51.690871 30662 net.cpp:137] Memory required for data: 165359104
I1130 21:52:51.690876 30662 layer_factory.hpp:77] Creating layer norm2
I1130 21:52:51.690884 30662 net.cpp:84] Creating Layer norm2
I1130 21:52:51.690889 30662 net.cpp:406] norm2 <- pool2
I1130 21:52:51.690896 30662 net.cpp:380] norm2 -> norm2
I1130 21:52:51.690925 30662 net.cpp:122] Setting up norm2
I1130 21:52:51.690933 30662 net.cpp:129] Top shape: 32 256 13 13 (1384448)
I1130 21:52:51.690938 30662 net.cpp:137] Memory required for data: 170896896
I1130 21:52:51.690943 30662 layer_factory.hpp:77] Creating layer conv3
I1130 21:52:51.690953 30662 net.cpp:84] Creating Layer conv3
I1130 21:52:51.690958 30662 net.cpp:406] conv3 <- norm2
I1130 21:52:51.690966 30662 net.cpp:380] conv3 -> conv3
I1130 21:52:51.700562 30662 net.cpp:122] Setting up conv3
I1130 21:52:51.700578 30662 net.cpp:129] Top shape: 32 384 13 13 (2076672)
I1130 21:52:51.700583 30662 net.cpp:137] Memory required for data: 179203584
I1130 21:52:51.700595 30662 layer_factory.hpp:77] Creating layer relu3
I1130 21:52:51.700603 30662 net.cpp:84] Creating Layer relu3
I1130 21:52:51.700609 30662 net.cpp:406] relu3 <- conv3
I1130 21:52:51.700618 30662 net.cpp:367] relu3 -> conv3 (in-place)
I1130 21:52:51.700626 30662 net.cpp:122] Setting up relu3
I1130 21:52:51.700634 30662 net.cpp:129] Top shape: 32 384 13 13 (2076672)
I1130 21:52:51.700639 30662 net.cpp:137] Memory required for data: 187510272
I1130 21:52:51.700642 30662 layer_factory.hpp:77] Creating layer conv4
I1130 21:52:51.700652 30662 net.cpp:84] Creating Layer conv4
I1130 21:52:51.700657 30662 net.cpp:406] conv4 <- conv3
I1130 21:52:51.700664 30662 net.cpp:380] conv4 -> conv4
I1130 21:52:51.707621 30662 net.cpp:122] Setting up conv4
I1130 21:52:51.707638 30662 net.cpp:129] Top shape: 32 384 13 13 (2076672)
I1130 21:52:51.707643 30662 net.cpp:137] Memory required for data: 195816960
I1130 21:52:51.707653 30662 layer_factory.hpp:77] Creating layer relu4
I1130 21:52:51.707662 30662 net.cpp:84] Creating Layer relu4
I1130 21:52:51.707669 30662 net.cpp:406] relu4 <- conv4
I1130 21:52:51.707675 30662 net.cpp:367] relu4 -> conv4 (in-place)
I1130 21:52:51.707684 30662 net.cpp:122] Setting up relu4
I1130 21:52:51.707695 30662 net.cpp:129] Top shape: 32 384 13 13 (2076672)
I1130 21:52:51.707700 30662 net.cpp:137] Memory required for data: 204123648
I1130 21:52:51.707705 30662 layer_factory.hpp:77] Creating layer conv5
I1130 21:52:51.707715 30662 net.cpp:84] Creating Layer conv5
I1130 21:52:51.707720 30662 net.cpp:406] conv5 <- conv4
I1130 21:52:51.707727 30662 net.cpp:380] conv5 -> conv5
I1130 21:52:51.712622 30662 net.cpp:122] Setting up conv5
I1130 21:52:51.712635 30662 net.cpp:129] Top shape: 32 256 13 13 (1384448)
I1130 21:52:51.712640 30662 net.cpp:137] Memory required for data: 209661440
I1130 21:52:51.712652 30662 layer_factory.hpp:77] Creating layer relu5
I1130 21:52:51.712659 30662 net.cpp:84] Creating Layer relu5
I1130 21:52:51.712666 30662 net.cpp:406] relu5 <- conv5
I1130 21:52:51.712671 30662 net.cpp:367] relu5 -> conv5 (in-place)
I1130 21:52:51.712679 30662 net.cpp:122] Setting up relu5
I1130 21:52:51.712685 30662 net.cpp:129] Top shape: 32 256 13 13 (1384448)
I1130 21:52:51.712690 30662 net.cpp:137] Memory required for data: 215199232
I1130 21:52:51.712695 30662 layer_factory.hpp:77] Creating layer pool5
I1130 21:52:51.712702 30662 net.cpp:84] Creating Layer pool5
I1130 21:52:51.712707 30662 net.cpp:406] pool5 <- conv5
I1130 21:52:51.712713 30662 net.cpp:380] pool5 -> pool5
I1130 21:52:51.712749 30662 net.cpp:122] Setting up pool5
I1130 21:52:51.712756 30662 net.cpp:129] Top shape: 32 256 6 6 (294912)
I1130 21:52:51.712761 30662 net.cpp:137] Memory required for data: 216378880
I1130 21:52:51.712767 30662 layer_factory.hpp:77] Creating layer fc6
I1130 21:52:51.712780 30662 net.cpp:84] Creating Layer fc6
I1130 21:52:51.712786 30662 net.cpp:406] fc6 <- pool5
I1130 21:52:51.712793 30662 net.cpp:380] fc6 -> fc6
I1130 21:52:52.059583 30662 net.cpp:122] Setting up fc6
I1130 21:52:52.059613 30662 net.cpp:129] Top shape: 32 4096 (131072)
I1130 21:52:52.059617 30662 net.cpp:137] Memory required for data: 216903168
I1130 21:52:52.059628 30662 layer_factory.hpp:77] Creating layer relu6
I1130 21:52:52.059639 30662 net.cpp:84] Creating Layer relu6
I1130 21:52:52.059645 30662 net.cpp:406] relu6 <- fc6
I1130 21:52:52.059653 30662 net.cpp:367] relu6 -> fc6 (in-place)
I1130 21:52:52.059665 30662 net.cpp:122] Setting up relu6
I1130 21:52:52.059670 30662 net.cpp:129] Top shape: 32 4096 (131072)
I1130 21:52:52.059674 30662 net.cpp:137] Memory required for data: 217427456
I1130 21:52:52.059677 30662 layer_factory.hpp:77] Creating layer drop6
I1130 21:52:52.059687 30662 net.cpp:84] Creating Layer drop6
I1130 21:52:52.059691 30662 net.cpp:406] drop6 <- fc6
I1130 21:52:52.059696 30662 net.cpp:367] drop6 -> fc6 (in-place)
I1130 21:52:52.059723 30662 net.cpp:122] Setting up drop6
I1130 21:52:52.059731 30662 net.cpp:129] Top shape: 32 4096 (131072)
I1130 21:52:52.059736 30662 net.cpp:137] Memory required for data: 217951744
I1130 21:52:52.059739 30662 layer_factory.hpp:77] Creating layer fc7
I1130 21:52:52.059747 30662 net.cpp:84] Creating Layer fc7
I1130 21:52:52.059751 30662 net.cpp:406] fc7 <- fc6
I1130 21:52:52.059757 30662 net.cpp:380] fc7 -> fc7
I1130 21:52:52.212858 30662 net.cpp:122] Setting up fc7
I1130 21:52:52.212885 30662 net.cpp:129] Top shape: 32 4096 (131072)
I1130 21:52:52.212890 30662 net.cpp:137] Memory required for data: 218476032
I1130 21:52:52.212901 30662 layer_factory.hpp:77] Creating layer relu7
I1130 21:52:52.212913 30662 net.cpp:84] Creating Layer relu7
I1130 21:52:52.212918 30662 net.cpp:406] relu7 <- fc7
I1130 21:52:52.212925 30662 net.cpp:367] relu7 -> fc7 (in-place)
I1130 21:52:52.212936 30662 net.cpp:122] Setting up relu7
I1130 21:52:52.212942 30662 net.cpp:129] Top shape: 32 4096 (131072)
I1130 21:52:52.212946 30662 net.cpp:137] Memory required for data: 219000320
I1130 21:52:52.212951 30662 layer_factory.hpp:77] Creating layer drop7
I1130 21:52:52.212958 30662 net.cpp:84] Creating Layer drop7
I1130 21:52:52.212962 30662 net.cpp:406] drop7 <- fc7
I1130 21:52:52.212968 30662 net.cpp:367] drop7 -> fc7 (in-place)
I1130 21:52:52.212992 30662 net.cpp:122] Setting up drop7
I1130 21:52:52.213004 30662 net.cpp:129] Top shape: 32 4096 (131072)
I1130 21:52:52.213008 30662 net.cpp:137] Memory required for data: 219524608
I1130 21:52:52.213013 30662 layer_factory.hpp:77] Creating layer fc_scv_wealthy
I1130 21:52:52.213021 30662 net.cpp:84] Creating Layer fc_scv_wealthy
I1130 21:52:52.213027 30662 net.cpp:406] fc_scv_wealthy <- fc7
I1130 21:52:52.213033 30662 net.cpp:380] fc_scv_wealthy -> fc_scv_wealthy
I1130 21:52:52.213145 30662 net.cpp:122] Setting up fc_scv_wealthy
I1130 21:52:52.213155 30662 net.cpp:129] Top shape: 32 1 (32)
I1130 21:52:52.213158 30662 net.cpp:137] Memory required for data: 219524736
I1130 21:52:52.213165 30662 layer_factory.hpp:77] Creating layer loss
I1130 21:52:52.213172 30662 net.cpp:84] Creating Layer loss
I1130 21:52:52.213177 30662 net.cpp:406] loss <- fc_scv_wealthy
I1130 21:52:52.213182 30662 net.cpp:406] loss <- label
I1130 21:52:52.213189 30662 net.cpp:380] loss -> loss
I1130 21:52:52.213222 30662 net.cpp:122] Setting up loss
…
I1130 21:52:52.214313 30662 net.cpp:294] The NetState phase (1) differed from the phase (0) specified by a rule in layer data
I1130 21:52:52.214478 30662 net.cpp:51] Initializing net from parameters: 
name: "CaffeNet-Places365-SCV-Wealthy"
state {
  phase: TEST
}
layer {
  name: "data"
  type: "Data"
  top: "data"
  top: "label"
  include {
    phase: TEST
  }
  transform_param {
    mirror: false
    crop_size: 227
    mean_file: "/idiap/temp/lmedina/fine-tuning/alexnet_places365/places365CNN_mean.binaryproto"
  }
  data_param {
    source: "/idiap/temp/lmedina/fine-tuning/data/Wealthy/validation_lmdb"
    batch_size: 32
    backend: LMDB
  }
}
layer {
  name: "conv1"
  type: "Convolution"
  bottom: "data"
  top: "conv1"
  param {
    lr_mult: 1
    decay_mult: 1
  }
  param {
    lr_mult: 2
    decay_mult: 0
  }
  convolution_param {
    num_output: 96
    kernel_size: 11
    stride: 4
    weight_filler {
      type: "gaussian"
      std: 0.01
    }
    bias_filler {
      type: "constant"
      value: 0
    }
  }
}
layer {
  name: "relu1"
  type: "ReLU"
  bottom: "conv1"
  top: "conv1"
}
layer {
  name: "pool1"
  type: "Pooling"
  bottom: "conv1"
  top: "pool1"
  pooling_param {
    pool: MAX
    kernel_size: 3
    stride: 2
  }
}
layer {
  name: "norm1"
  type: "LRN"
  bottom: "pool1"
  top: "norm1"
  lrn_param {
    local_size: 5
    alpha: 0.0001
    beta: 0.75
  }
}
layer {
  name: "conv2"
  type: "Convolution"
  bottom: "norm1"
  top: "conv2"
  param {
    lr_mult: 1
    decay_mult: 1
  }
  param {
    lr_mult: 2
    decay_mult: 0
  }
  convolution_param {
    num_output: 256
    pad: 2
    kernel_size: 5
    group: 2
    weight_filler {
      type: "gaussian"
      std: 0.01
    }
    bias_filler {
      type: "constant"
      value: 1
    }
  }
}
layer {
  name: "relu2"
  type: "ReLU"
  bottom: "conv2"
  top: "conv2"
}
layer {
  name: "pool2"
  type: "Pooling"
  bottom: "conv2"
  top: "pool2"
  pooling_param {
    pool: MAX
    kernel_size: 3
    stride: 2
  }
}
layer {
  name: "norm2"
  type: "LRN"
  bottom: "pool2"
  top: "norm2"
  lrn_param {
    local_size: 5
    alpha: 0.0001
    beta: 0.75
  }
}
layer {
  name: "conv3"
  type: "Convolution"
  bottom: "norm2"
  top: "conv3"
  param {
    lr_mult: 1
    decay_mult: 1
  }
  param {
    lr_mult: 2
    decay_mult: 0
  }
  convolution_param {
    num_output: 384
    pad: 1
    kernel_size: 3
    weight_filler {
      type: "gaussian"
      std: 0.01
    }
    bias_filler {
      type: "constant"
      value: 0
    }
  }
}
layer {
  name: "relu3"
  type: "ReLU"
  bottom: "conv3"
  top: "conv3"
}
layer {
  name: "conv4"
  type: "Convolution"
  bottom: "conv3"
  top: "conv4"
  param {
    lr_mult: 1
    decay_mult: 1
  }
  param {
    lr_mult: 2
    decay_mult: 0
  }
  convolution_param {
    num_output: 384
    pad: 1
    kernel_size: 3
    group: 2
    weight_filler {
      type: "gaussian"
      std: 0.01
    }
    bias_filler {
      type: "constant"
      value: 1
    }
  }
}
layer {
  name: "relu4"
  type: "ReLU"
  bottom: "conv4"
  top: "conv4"
}
layer {
  name: "conv5"
  type: "Convolution"
  bottom: "conv4"
  top: "conv5"
  param {
    lr_mult: 1
    decay_mult: 1
  }
  param {
    lr_mult: 2
    decay_mult: 0
  }
  convolution_param {
    num_output: 256
    pad: 1
    kernel_size: 3
    group: 2
    weight_filler {
      type: "gaussian"
      std: 0.01
    }
    bias_filler {
      type: "constant"
      value: 1
    }
  }
}
layer {
  name: "relu5"
  type: "ReLU"
  bottom: "conv5"
  top: "conv5"
}
layer {
  name: "pool5"
  type: "Pooling"
  bottom: "conv5"
  top: "pool5"
  pooling_param {
    pool: MAX
    kernel_size: 3
    stride: 2
  }
}
layer {
  name: "fc6"
  type: "InnerProduct"
  bottom: "pool5"
  top: "fc6"
  param {
    lr_mult: 1
    decay_mult: 1
  }
  param {
    lr_mult: 2
    decay_mult: 0
  }
  inner_product_param {
    num_output: 4096
    weight_filler {
      type: "gaussian"
      std: 0.005
    }
    bias_filler {
      type: "constant"
      value: 1
    }
  }
}
layer {
  name: "relu6"
  type: "ReLU"
  bottom: "fc6"
  top: "fc6"
}
layer {
  name: "drop6"
  type: "Dropout"
  bottom: "fc6"
  top: "fc6"
  dropout_param {
    dropout_ratio: 0.5
  }
}
layer {
  name: "fc7"
  type: "InnerProduct"
  bottom: "fc6"
  top: "fc7"
  param {
    lr_mult: 1
    decay_mult: 1
  }
  param {
    lr_mult: 2
    decay_mult: 0
  }
  inner_product_param {
    num_output: 4096
    weight_filler {
      type: "gaussian"
      std: 0.005
    }
    bias_filler {
      type: "constant"
      value: 1
    }
  }
}
layer {
  name: "relu7"
  type: "ReLU"
  bottom: "fc7"
  top: "fc7"
}
layer {
  name: "drop7"
  type: "Dropout"
  bottom: "fc7"
  top: "fc7"
  dropout_param {
    dropout_ratio: 0.5
  }
}
layer {
  name: "fc_scv_wealthy"
  type: "InnerProduct"
  bottom: "fc7"
  top: "fc_scv_wealthy"
  param {
    lr_mult: 10
    decay_mult: 1
  }
  param {
    lr_mult: 20
    decay_mult: 0
  }
  inner_product_param {
    num_output: 1
    weight_filler {
      type: "xavier"
      std: 0.01
    }
    bias_filler {
      type: "constant"
      value: 0
    }
  }
}
layer {
  name: "loss"
  type: "EuclideanLoss"
  bottom: "fc_scv_wealthy"
  bottom: "label"
  top: "loss"
}
layer {
  name: "losttest"
  type: "EuclideanLoss"
  bottom: "fc_scv_wealthy"
  bottom: "label"
  top: "losttest"
  include {
    phase: TEST
  }
}
I1130 21:52:52.214576 30662 layer_factory.hpp:77] Creating layer data
I1130 21:52:52.227622 30662 db_lmdb.cpp:35] Opened lmdb /idiap/temp/lmedina/fine-tuning/data/Wealthy/validation_lmdb
I1130 21:52:52.233960 30662 net.cpp:84] Creating Layer data
I1130 21:52:52.233976 30662 net.cpp:380] data -> data
I1130 21:52:52.233986 30662 net.cpp:380] data -> label
I1130 21:52:52.233995 30662 data_transformer.cpp:25] Loading mean file from: /idiap/temp/lmedina/fine-tuning/alexnet_places365/places365CNN_mean.binaryproto
I1130 21:52:52.240015 30662 data_layer.cpp:45] output data size: 32,3,227,227
I1130 21:52:52.272022 30662 net.cpp:122] Setting up data
I1130 21:52:52.272053 30662 net.cpp:129] Top shape: 32 3 227 227 (4946784)
I1130 21:52:52.272059 30662 net.cpp:129] Top shape: 32 (32)
I1130 21:52:52.272063 30662 net.cpp:137] Memory required for data: 19787264
I1130 21:52:52.272073 30662 layer_factory.hpp:77] Creating layer label_data_1_split
I1130 21:52:52.272086 30662 net.cpp:84] Creating Layer label_data_1_split
I1130 21:52:52.272094 30662 net.cpp:406] label_data_1_split <- label
I1130 21:52:52.272104 30662 net.cpp:380] label_data_1_split -> label_data_1_split_0
I1130 21:52:52.272116 30662 net.cpp:380] label_data_1_split -> label_data_1_split_1
I1130 21:52:52.272159 30662 net.cpp:122] Setting up label_data_1_split
I1130 21:52:52.272167 30662 net.cpp:129] Top shape: 32 (32)
I1130 21:52:52.272173 30662 net.cpp:129] Top shape: 32 (32)
I1130 21:52:52.272177 30662 net.cpp:137] Memory required for data: 19787520
I1130 21:52:52.272181 30662 layer_factory.hpp:77] Creating layer conv1
I1130 21:52:52.272195 30662 net.cpp:84] Creating Layer conv1
I1130 21:52:52.272200 30662 net.cpp:406] conv1 <- data
I1130 21:52:52.272207 30662 net.cpp:380] conv1 -> conv1
I1130 21:52:52.272696 30662 net.cpp:122] Setting up conv1
I1130 21:52:52.272706 30662 net.cpp:129] Top shape: 32 96 55 55 (9292800)
I1130 21:52:52.272709 30662 net.cpp:137] Memory required for data: 56958720
I1130 21:52:52.272719 30662 layer_factory.hpp:77] Creating layer relu1
I1130 21:52:52.272727 30662 net.cpp:84] Creating Layer relu1
I1130 21:52:52.272730 30662 net.cpp:406] relu1 <- conv1
I1130 21:52:52.272735 30662 net.cpp:367] relu1 -> conv1 (in-place)
I1130 21:52:52.272742 30662 net.cpp:122] Setting up relu1
I1130 21:52:52.272748 30662 net.cpp:129] Top shape: 32 96 55 55 (9292800)
I1130 21:52:52.272753 30662 net.cpp:137] Memory required for data: 94129920
I1130 21:52:52.272756 30662 layer_factory.hpp:77] Creating layer pool1
I1130 21:52:52.272763 30662 net.cpp:84] Creating Layer pool1
I1130 21:52:52.272768 30662 net.cpp:406] pool1 <- conv1
I1130 21:52:52.272773 30662 net.cpp:380] pool1 -> pool1
I1130 21:52:52.272809 30662 net.cpp:122] Setting up pool1
I1130 21:52:52.272815 30662 net.cpp:129] Top shape: 32 96 27 27 (2239488)
I1130 21:52:52.272819 30662 net.cpp:137] Memory required for data: 103087872
I1130 21:52:52.272825 30662 layer_factory.hpp:77] Creating layer norm1
I1130 21:52:52.272832 30662 net.cpp:84] Creating Layer norm1
I1130 21:52:52.272836 30662 net.cpp:406] norm1 <- pool1
I1130 21:52:52.272842 30662 net.cpp:380] norm1 -> norm1
I1130 21:52:52.272874 30662 net.cpp:122] Setting up norm1
I1130 21:52:52.272881 30662 net.cpp:129] Top shape: 32 96 27 27 (2239488)
I1130 21:52:52.272886 30662 net.cpp:137] Memory required for data: 112045824
I1130 21:52:52.272891 30662 layer_factory.hpp:77] Creating layer conv2
I1130 21:52:52.272899 30662 net.cpp:84] Creating Layer conv2
I1130 21:52:52.272904 30662 net.cpp:406] conv2 <- norm1
I1130 21:52:52.272912 30662 net.cpp:380] conv2 -> conv2
I1130 21:52:52.275964 30662 net.cpp:122] Setting up conv2
I1130 21:52:52.275977 30662 net.cpp:129] Top shape: 32 256 27 27 (5971968)
I1130 21:52:52.275981 30662 net.cpp:137] Memory required for data: 135933696
I1130 21:52:52.275992 30662 layer_factory.hpp:77] Creating layer relu2
I1130 21:52:52.276000 30662 net.cpp:84] Creating Layer relu2
I1130 21:52:52.276005 30662 net.cpp:406] relu2 <- conv2
I1130 21:52:52.276010 30662 net.cpp:367] relu2 -> conv2 (in-place)
I1130 21:52:52.276018 30662 net.cpp:122] Setting up relu2
I1130 21:52:52.276024 30662 net.cpp:129] Top shape: 32 256 27 27 (5971968)
I1130 21:52:52.276028 30662 net.cpp:137] Memory required for data: 159821568
I1130 21:52:52.276032 30662 layer_factory.hpp:77] Creating layer pool2
I1130 21:52:52.276039 30662 net.cpp:84] Creating Layer pool2
I1130 21:52:52.276044 30662 net.cpp:406] pool2 <- conv2
I1130 21:52:52.276051 30662 net.cpp:380] pool2 -> pool2
I1130 21:52:52.276083 30662 net.cpp:122] Setting up pool2
I1130 21:52:52.276090 30662 net.cpp:129] Top shape: 32 256 13 13 (1384448)
I1130 21:52:52.276094 30662 net.cpp:137] Memory required for data: 165359360
I1130 21:52:52.276098 30662 layer_factory.hpp:77] Creating layer norm2
I1130 21:52:52.276105 30662 net.cpp:84] Creating Layer norm2
I1130 21:52:52.276110 30662 net.cpp:406] norm2 <- pool2
I1130 21:52:52.276116 30662 net.cpp:380] norm2 -> norm2
I1130 21:52:52.276144 30662 net.cpp:122] Setting up norm2
I1130 21:52:52.276150 30662 net.cpp:129] Top shape: 32 256 13 13 (1384448)
I1130 21:52:52.276155 30662 net.cpp:137] Memory required for data: 170897152
I1130 21:52:52.276160 30662 layer_factory.hpp:77] Creating layer conv3
I1130 21:52:52.276168 30662 net.cpp:84] Creating Layer conv3
I1130 21:52:52.276172 30662 net.cpp:406] conv3 <- norm2
I1130 21:52:52.276180 30662 net.cpp:380] conv3 -> conv3
I1130 21:52:52.284379 30662 net.cpp:122] Setting up conv3
I1130 21:52:52.284402 30662 net.cpp:129] Top shape: 32 384 13 13 (2076672)
I1130 21:52:52.284406 30662 net.cpp:137] Memory required for data: 179203840
I1130 21:52:52.284421 30662 layer_factory.hpp:77] Creating layer relu3
I1130 21:52:52.284431 30662 net.cpp:84] Creating Layer relu3
I1130 21:52:52.284438 30662 net.cpp:406] relu3 <- conv3
I1130 21:52:52.284447 30662 net.cpp:367] relu3 -> conv3 (in-place)
I1130 21:52:52.284456 30662 net.cpp:122] Setting up relu3
I1130 21:52:52.284462 30662 net.cpp:129] Top shape: 32 384 13 13 (2076672)
I1130 21:52:52.284466 30662 net.cpp:137] Memory required for data: 187510528
I1130 21:52:52.284469 30662 layer_factory.hpp:77] Creating layer conv4
I1130 21:52:52.284481 30662 net.cpp:84] Creating Layer conv4
I1130 21:52:52.284485 30662 net.cpp:406] conv4 <- conv3
I1130 21:52:52.284492 30662 net.cpp:380] conv4 -> conv4
I1130 21:52:52.290735 30662 net.cpp:122] Setting up conv4
I1130 21:52:52.290750 30662 net.cpp:129] Top shape: 32 384 13 13 (2076672)
I1130 21:52:52.290753 30662 net.cpp:137] Memory required for data: 195817216
I1130 21:52:52.290761 30662 layer_factory.hpp:77] Creating layer relu4
I1130 21:52:52.290769 30662 net.cpp:84] Creating Layer relu4
I1130 21:52:52.290774 30662 net.cpp:406] relu4 <- conv4
I1130 21:52:52.290781 30662 net.cpp:367] relu4 -> conv4 (in-place)
I1130 21:52:52.290788 30662 net.cpp:122] Setting up relu4
I1130 21:52:52.290796 30662 net.cpp:129] Top shape: 32 384 13 13 (2076672)
I1130 21:52:52.290799 30662 net.cpp:137] Memory required for data: 204123904
I1130 21:52:52.290804 30662 layer_factory.hpp:77] Creating layer conv5
I1130 21:52:52.290812 30662 net.cpp:84] Creating Layer conv5
I1130 21:52:52.290817 30662 net.cpp:406] conv5 <- conv4
I1130 21:52:52.290823 30662 net.cpp:380] conv5 -> conv5
I1130 21:52:52.295040 30662 net.cpp:122] Setting up conv5
I1130 21:52:52.295051 30662 net.cpp:129] Top shape: 32 256 13 13 (1384448)
I1130 21:52:52.295055 30662 net.cpp:137] Memory required for data: 209661696
I1130 21:52:52.295066 30662 layer_factory.hpp:77] Creating layer relu5
I1130 21:52:52.295074 30662 net.cpp:84] Creating Layer relu5
I1130 21:52:52.295079 30662 net.cpp:406] relu5 <- conv5
I1130 21:52:52.295086 30662 net.cpp:367] relu5 -> conv5 (in-place)
I1130 21:52:52.295097 30662 net.cpp:122] Setting up relu5
I1130 21:52:52.295104 30662 net.cpp:129] Top shape: 32 256 13 13 (1384448)
I1130 21:52:52.295109 30662 net.cpp:137] Memory required for data: 215199488
I1130 21:52:52.295114 30662 layer_factory.hpp:77] Creating layer pool5
I1130 21:52:52.295121 30662 net.cpp:84] Creating Layer pool5
I1130 21:52:52.295126 30662 net.cpp:406] pool5 <- conv5
I1130 21:52:52.295132 30662 net.cpp:380] pool5 -> pool5
I1130 21:52:52.295166 30662 net.cpp:122] Setting up pool5
I1130 21:52:52.295173 30662 net.cpp:129] Top shape: 32 256 6 6 (294912)
I1130 21:52:52.295177 30662 net.cpp:137] Memory required for data: 216379136
I1130 21:52:52.295182 30662 layer_factory.hpp:77] Creating layer fc6
I1130 21:52:52.295189 30662 net.cpp:84] Creating Layer fc6
I1130 21:52:52.295194 30662 net.cpp:406] fc6 <- pool5
I1130 21:52:52.295202 30662 net.cpp:380] fc6 -> fc6
I1130 21:52:52.640280 30662 net.cpp:122] Setting up fc6
I1130 21:52:52.640311 30662 net.cpp:129] Top shape: 32 4096 (131072)
I1130 21:52:52.640314 30662 net.cpp:137] Memory required for data: 216903424
I1130 21:52:52.640326 30662 layer_factory.hpp:77] Creating layer relu6
I1130 21:52:52.640336 30662 net.cpp:84] Creating Layer relu6
I1130 21:52:52.640342 30662 net.cpp:406] relu6 <- fc6
I1130 21:52:52.640350 30662 net.cpp:367] relu6 -> fc6 (in-place)
I1130 21:52:52.640362 30662 net.cpp:122] Setting up relu6
I1130 21:52:52.640367 30662 net.cpp:129] Top shape: 32 4096 (131072)
I1130 21:52:52.640370 30662 net.cpp:137] Memory required for data: 217427712
I1130 21:52:52.640374 30662 layer_factory.hpp:77] Creating layer drop6
I1130 21:52:52.640381 30662 net.cpp:84] Creating Layer drop6
I1130 21:52:52.640385 30662 net.cpp:406] drop6 <- fc6
I1130 21:52:52.640390 30662 net.cpp:367] drop6 -> fc6 (in-place)
I1130 21:52:52.640416 30662 net.cpp:122] Setting up drop6
I1130 21:52:52.640422 30662 net.cpp:129] Top shape: 32 4096 (131072)
I1130 21:52:52.640427 30662 net.cpp:137] Memory required for data: 217952000
I1130 21:52:52.640431 30662 layer_factory.hpp:77] Creating layer fc7
I1130 21:52:52.640439 30662 net.cpp:84] Creating Layer fc7
I1130 21:52:52.640444 30662 net.cpp:406] fc7 <- fc6
I1130 21:52:52.640450 30662 net.cpp:380] fc7 -> fc7
I1130 21:52:52.793644 30662 net.cpp:122] Setting up fc7
I1130 21:52:52.793674 30662 net.cpp:129] Top shape: 32 4096 (131072)
I1130 21:52:52.793679 30662 net.cpp:137] Memory required for data: 218476288
I1130 21:52:52.793689 30662 layer_factory.hpp:77] Creating layer relu7
I1130 21:52:52.793701 30662 net.cpp:84] Creating Layer relu7
I1130 21:52:52.793706 30662 net.cpp:406] relu7 <- fc7
I1130 21:52:52.793715 30662 net.cpp:367] relu7 -> fc7 (in-place)
I1130 21:52:52.793725 30662 net.cpp:122] Setting up relu7
I1130 21:52:52.793730 30662 net.cpp:129] Top shape: 32 4096 (131072)
I1130 21:52:52.793735 30662 net.cpp:137] Memory required for data: 219000576
I1130 21:52:52.793738 30662 layer_factory.hpp:77] Creating layer drop7
I1130 21:52:52.793745 30662 net.cpp:84] Creating Layer drop7
I1130 21:52:52.793751 30662 net.cpp:406] drop7 <- fc7
I1130 21:52:52.793756 30662 net.cpp:367] drop7 -> fc7 (in-place)
I1130 21:52:52.793782 30662 net.cpp:122] Setting up drop7
I1130 21:52:52.793788 30662 net.cpp:129] Top shape: 32 4096 (131072)
I1130 21:52:52.793792 30662 net.cpp:137] Memory required for data: 219524864
I1130 21:52:52.793798 30662 layer_factory.hpp:77] Creating layer fc_scv_wealthy
I1130 21:52:52.793807 30662 net.cpp:84] Creating Layer fc_scv_wealthy
I1130 21:52:52.793812 30662 net.cpp:406] fc_scv_wealthy <- fc7
I1130 21:52:52.793817 30662 net.cpp:380] fc_scv_wealthy -> fc_scv_wealthy
I1130 21:52:52.793922 30662 net.cpp:122] Setting up fc_scv_wealthy
I1130 21:52:52.793931 30662 net.cpp:129] Top shape: 32 1 (32)
I1130 21:52:52.793936 30662 net.cpp:137] Memory required for data: 219524992
I1130 21:52:52.793943 30662 layer_factory.hpp:77] Creating layer fc_scv_wealthy_fc_scv_wealthy_0_split
I1130 21:52:52.793951 30662 net.cpp:84] Creating Layer fc_scv_wealthy_fc_scv_wealthy_0_split
I1130 21:52:52.793956 30662 net.cpp:406] fc_scv_wealthy_fc_scv_wealthy_0_split <- fc_scv_wealthy
I1130 21:52:52.793968 30662 net.cpp:380] fc_scv_wealthy_fc_scv_wealthy_0_split -> fc_scv_wealthy_fc_scv_wealthy_0_split_0
I1130 21:52:52.793975 30662 net.cpp:380] fc_scv_wealthy_fc_scv_wealthy_0_split -> fc_scv_wealthy_fc_scv_wealthy_0_split_1
I1130 21:52:52.794005 30662 net.cpp:122] Setting up fc_scv_wealthy_fc_scv_wealthy_0_split
I1130 21:52:52.794013 30662 net.cpp:129] Top shape: 32 1 (32)
I1130 21:52:52.794018 30662 net.cpp:129] Top shape: 32 1 (32)
I1130 21:52:52.794023 30662 net.cpp:137] Memory required for data: 219525248
I1130 21:52:52.794026 30662 layer_factory.hpp:77] Creating layer loss
I1130 21:52:52.794033 30662 net.cpp:84] Creating Layer loss
I1130 21:52:52.794037 30662 net.cpp:406] loss <- fc_scv_wealthy_fc_scv_wealthy_0_split_0
I1130 21:52:52.794042 30662 net.cpp:406] loss <- label_data_1_split_0
I1130 21:52:52.794049 30662 net.cpp:380] loss -> loss
…
