…
I1130 20:32:23.676723 32431 net.cpp:294] The NetState phase (0) differed from the phase (1) specified by a rule in layer losttest
I1130 20:32:23.677058 32431 net.cpp:51] Initializing net from parameters: 
name: "CaffeNet-Places365-SCV-Happy"
state {
  phase: TRAIN
  level: 0
  stage: ""
}
layer {
  name: "data"
  type: "Data"
  top: "data"
  top: "label"
  include {
    phase: TRAIN
  }
  transform_param {
    mirror: true
    crop_size: 227
    mean_file: "/idiap/temp/lmedina/fine-tuning/alexnet_places365/places365CNN_mean.binaryproto"
  }
  data_param {
    source: "/idiap/temp/lmedina/fine-tuning/data/Happy/train_lmdb"
    batch_size: 32
    backend: LMDB
  }
}
layer {
  name: "conv1"
  type: "Convolution"
  bottom: "data"
  top: "conv1"
  param {
    lr_mult: 1
    decay_mult: 1
  }
  param {
    lr_mult: 2
    decay_mult: 0
  }
  convolution_param {
    num_output: 96
    kernel_size: 11
    stride: 4
    weight_filler {
      type: "gaussian"
      std: 0.01
    }
    bias_filler {
      type: "constant"
      value: 0
    }
  }
}
layer {
  name: "relu1"
  type: "ReLU"
  bottom: "conv1"
  top: "conv1"
}
layer {
  name: "pool1"
  type: "Pooling"
  bottom: "conv1"
  top: "pool1"
  pooling_param {
    pool: MAX
    kernel_size: 3
    stride: 2
  }
}
layer {
  name: "norm1"
  type: "LRN"
  bottom: "pool1"
  top: "norm1"
  lrn_param {
    local_size: 5
    alpha: 0.0001
    beta: 0.75
  }
}
layer {
  name: "conv2"
  type: "Convolution"
  bottom: "norm1"
  top: "conv2"
  param {
    lr_mult: 1
    decay_mult: 1
  }
  param {
    lr_mult: 2
    decay_mult: 0
  }
  convolution_param {
    num_output: 256
    pad: 2
    kernel_size: 5
    group: 2
    weight_filler {
      type: "gaussian"
      std: 0.01
    }
    bias_filler {
      type: "constant"
      value: 1
    }
  }
}
layer {
  name: "relu2"
  type: "ReLU"
  bottom: "conv2"
  top: "conv2"
}
layer {
  name: "pool2"
  type: "Pooling"
  bottom: "conv2"
  top: "pool2"
  pooling_param {
    pool: MAX
    kernel_size: 3
    stride: 2
  }
}
layer {
  name: "norm2"
  type: "LRN"
  bottom: "pool2"
  top: "norm2"
  lrn_param {
    local_size: 5
    alpha: 0.0001
    beta: 0.75
  }
}
layer {
  name: "conv3"
  type: "Convolution"
  bottom: "norm2"
  top: "conv3"
  param {
    lr_mult: 1
    decay_mult: 1
  }
  param {
    lr_mult: 2
    decay_mult: 0
  }
  convolution_param {
    num_output: 384
    pad: 1
    kernel_size: 3
    weight_filler {
      type: "gaussian"
      std: 0.01
    }
    bias_filler {
      type: "constant"
      value: 0
    }
  }
}
layer {
  name: "relu3"
  type: "ReLU"
  bottom: "conv3"
  top: "conv3"
}
layer {
  name: "conv4"
  type: "Convolution"
  bottom: "conv3"
  top: "conv4"
  param {
    lr_mult: 1
    decay_mult: 1
  }
  param {
    lr_mult: 2
    decay_mult: 0
  }
  convolution_param {
    num_output: 384
    pad: 1
    kernel_size: 3
    group: 2
    weight_filler {
      type: "gaussian"
      std: 0.01
    }
    bias_filler {
      type: "constant"
      value: 1
    }
  }
}
layer {
  name: "relu4"
  type: "ReLU"
  bottom: "conv4"
  top: "conv4"
}
layer {
  name: "conv5"
  type: "Convolution"
  bottom: "conv4"
  top: "conv5"
  param {
    lr_mult: 1
    decay_mult: 1
  }
  param {
    lr_mult: 2
    decay_mult: 0
  }
  convolution_param {
    num_output: 256
    pad: 1
    kernel_size: 3
    group: 2
    weight_filler {
      type: "gaussian"
      std: 0.01
    }
    bias_filler {
      type: "constant"
      value: 1
    }
  }
}
layer {
  name: "relu5"
  type: "ReLU"
  bottom: "conv5"
  top: "conv5"
}
layer {
  name: "pool5"
  type: "Pooling"
  bottom: "conv5"
  top: "pool5"
  pooling_param {
    pool: MAX
    kernel_size: 3
    stride: 2
  }
}
layer {
  name: "fc6"
  type: "InnerProduct"
  bottom: "pool5"
  top: "fc6"
  param {
    lr_mult: 1
    decay_mult: 1
  }
  param {
    lr_mult: 2
    decay_mult: 0
  }
  inner_product_param {
    num_output: 4096
    weight_filler {
      type: "gaussian"
      std: 0.005
    }
    bias_filler {
      type: "constant"
      value: 1
    }
  }
}
layer {
  name: "relu6"
  type: "ReLU"
  bottom: "fc6"
  top: "fc6"
}
layer {
  name: "drop6"
  type: "Dropout"
  bottom: "fc6"
  top: "fc6"
  dropout_param {
    dropout_ratio: 0.5
  }
}
layer {
  name: "fc7"
  type: "InnerProduct"
  bottom: "fc6"
  top: "fc7"
  param {
    lr_mult: 1
    decay_mult: 1
  }
  param {
    lr_mult: 2
    decay_mult: 0
  }
  inner_product_param {
    num_output: 4096
    weight_filler {
      type: "gaussian"
      std: 0.005
    }
    bias_filler {
      type: "constant"
      value: 1
    }
  }
}
layer {
  name: "relu7"
  type: "ReLU"
  bottom: "fc7"
  top: "fc7"
}
layer {
  name: "drop7"
  type: "Dropout"
  bottom: "fc7"
  top: "fc7"
  dropout_param {
    dropout_ratio: 0.5
  }
}
layer {
  name: "fc_scv_happy"
  type: "InnerProduct"
  bottom: "fc7"
  top: "fc_scv_happy"
  param {
    lr_mult: 10
    decay_mult: 1
  }
  param {
    lr_mult: 20
    decay_mult: 0
  }
  inner_product_param {
    num_output: 1
    weight_filler {
      type: "xavier"
      std: 0.01
    }
    bias_filler {
      type: "constant"
      value: 0
    }
  }
}
layer {
  name: "loss"
  type: "EuclideanLoss"
  bottom: "fc_scv_happy"
  bottom: "label"
  top: "loss"
}
I1130 20:32:23.677251 32431 layer_factory.hpp:77] Creating layer data
I1130 20:32:23.716048 32431 db_lmdb.cpp:35] Opened lmdb /idiap/temp/lmedina/fine-tuning/data/Happy/train_lmdb
I1130 20:32:23.728432 32431 net.cpp:84] Creating Layer data
I1130 20:32:23.728474 32431 net.cpp:380] data -> data
I1130 20:32:23.728530 32431 net.cpp:380] data -> label
I1130 20:32:23.728565 32431 data_transformer.cpp:25] Loading mean file from: /idiap/temp/lmedina/fine-tuning/alexnet_places365/places365CNN_mean.binaryproto
I1130 20:32:23.746603 32431 data_layer.cpp:45] output data size: 32,3,227,227
I1130 20:32:23.801672 32431 net.cpp:122] Setting up data
I1130 20:32:23.801723 32431 net.cpp:129] Top shape: 32 3 227 227 (4946784)
I1130 20:32:23.801733 32431 net.cpp:129] Top shape: 32 (32)
I1130 20:32:23.801743 32431 net.cpp:137] Memory required for data: 19787264
I1130 20:32:23.801760 32431 layer_factory.hpp:77] Creating layer conv1
I1130 20:32:23.801795 32431 net.cpp:84] Creating Layer conv1
I1130 20:32:23.801806 32431 net.cpp:406] conv1 <- data
I1130 20:32:23.801827 32431 net.cpp:380] conv1 -> conv1
I1130 20:32:23.803848 32431 net.cpp:122] Setting up conv1
I1130 20:32:23.803866 32431 net.cpp:129] Top shape: 32 96 55 55 (9292800)
I1130 20:32:23.803874 32431 net.cpp:137] Memory required for data: 56958464
I1130 20:32:23.803895 32431 layer_factory.hpp:77] Creating layer relu1
I1130 20:32:23.803910 32431 net.cpp:84] Creating Layer relu1
I1130 20:32:23.803917 32431 net.cpp:406] relu1 <- conv1
I1130 20:32:23.803926 32431 net.cpp:367] relu1 -> conv1 (in-place)
I1130 20:32:23.803941 32431 net.cpp:122] Setting up relu1
I1130 20:32:23.803952 32431 net.cpp:129] Top shape: 32 96 55 55 (9292800)
I1130 20:32:23.803961 32431 net.cpp:137] Memory required for data: 94129664
I1130 20:32:23.803968 32431 layer_factory.hpp:77] Creating layer pool1
I1130 20:32:23.803980 32431 net.cpp:84] Creating Layer pool1
I1130 20:32:23.803988 32431 net.cpp:406] pool1 <- conv1
I1130 20:32:23.803997 32431 net.cpp:380] pool1 -> pool1
I1130 20:32:23.805783 32431 net.cpp:122] Setting up pool1
I1130 20:32:23.805810 32431 net.cpp:129] Top shape: 32 96 27 27 (2239488)
I1130 20:32:23.805825 32431 net.cpp:137] Memory required for data: 103087616
I1130 20:32:23.805832 32431 layer_factory.hpp:77] Creating layer norm1
I1130 20:32:23.805850 32431 net.cpp:84] Creating Layer norm1
I1130 20:32:23.805858 32431 net.cpp:406] norm1 <- pool1
I1130 20:32:23.805868 32431 net.cpp:380] norm1 -> norm1
I1130 20:32:23.805922 32431 net.cpp:122] Setting up norm1
I1130 20:32:23.805934 32431 net.cpp:129] Top shape: 32 96 27 27 (2239488)
I1130 20:32:23.805941 32431 net.cpp:137] Memory required for data: 112045568
I1130 20:32:23.805948 32431 layer_factory.hpp:77] Creating layer conv2
I1130 20:32:23.805963 32431 net.cpp:84] Creating Layer conv2
I1130 20:32:23.805970 32431 net.cpp:406] conv2 <- norm1
I1130 20:32:23.805980 32431 net.cpp:380] conv2 -> conv2
I1130 20:32:23.811779 32431 net.cpp:122] Setting up conv2
I1130 20:32:23.811805 32431 net.cpp:129] Top shape: 32 256 27 27 (5971968)
I1130 20:32:23.811810 32431 net.cpp:137] Memory required for data: 135933440
I1130 20:32:23.811828 32431 layer_factory.hpp:77] Creating layer relu2
I1130 20:32:23.811841 32431 net.cpp:84] Creating Layer relu2
I1130 20:32:23.811848 32431 net.cpp:406] relu2 <- conv2
I1130 20:32:23.811858 32431 net.cpp:367] relu2 -> conv2 (in-place)
I1130 20:32:23.811872 32431 net.cpp:122] Setting up relu2
I1130 20:32:23.811879 32431 net.cpp:129] Top shape: 32 256 27 27 (5971968)
I1130 20:32:23.811884 32431 net.cpp:137] Memory required for data: 159821312
I1130 20:32:23.811889 32431 layer_factory.hpp:77] Creating layer pool2
I1130 20:32:23.811898 32431 net.cpp:84] Creating Layer pool2
I1130 20:32:23.811903 32431 net.cpp:406] pool2 <- conv2
I1130 20:32:23.811910 32431 net.cpp:380] pool2 -> pool2
I1130 20:32:23.811962 32431 net.cpp:122] Setting up pool2
I1130 20:32:23.811974 32431 net.cpp:129] Top shape: 32 256 13 13 (1384448)
I1130 20:32:23.811980 32431 net.cpp:137] Memory required for data: 165359104
I1130 20:32:23.811985 32431 layer_factory.hpp:77] Creating layer norm2
I1130 20:32:23.811996 32431 net.cpp:84] Creating Layer norm2
I1130 20:32:23.812003 32431 net.cpp:406] norm2 <- pool2
I1130 20:32:23.812011 32431 net.cpp:380] norm2 -> norm2
I1130 20:32:23.812052 32431 net.cpp:122] Setting up norm2
I1130 20:32:23.812063 32431 net.cpp:129] Top shape: 32 256 13 13 (1384448)
I1130 20:32:23.812069 32431 net.cpp:137] Memory required for data: 170896896
I1130 20:32:23.812074 32431 layer_factory.hpp:77] Creating layer conv3
I1130 20:32:23.812088 32431 net.cpp:84] Creating Layer conv3
I1130 20:32:23.812095 32431 net.cpp:406] conv3 <- norm2
I1130 20:32:23.812104 32431 net.cpp:380] conv3 -> conv3
I1130 20:32:23.825945 32431 net.cpp:122] Setting up conv3
I1130 20:32:23.825970 32431 net.cpp:129] Top shape: 32 384 13 13 (2076672)
I1130 20:32:23.825976 32431 net.cpp:137] Memory required for data: 179203584
I1130 20:32:23.825994 32431 layer_factory.hpp:77] Creating layer relu3
I1130 20:32:23.826004 32431 net.cpp:84] Creating Layer relu3
I1130 20:32:23.826011 32431 net.cpp:406] relu3 <- conv3
I1130 20:32:23.826020 32431 net.cpp:367] relu3 -> conv3 (in-place)
I1130 20:32:23.826033 32431 net.cpp:122] Setting up relu3
I1130 20:32:23.826041 32431 net.cpp:129] Top shape: 32 384 13 13 (2076672)
I1130 20:32:23.826046 32431 net.cpp:137] Memory required for data: 187510272
I1130 20:32:23.826050 32431 layer_factory.hpp:77] Creating layer conv4
I1130 20:32:23.826061 32431 net.cpp:84] Creating Layer conv4
I1130 20:32:23.826067 32431 net.cpp:406] conv4 <- conv3
I1130 20:32:23.826076 32431 net.cpp:380] conv4 -> conv4
I1130 20:32:23.835173 32431 net.cpp:122] Setting up conv4
I1130 20:32:23.835198 32431 net.cpp:129] Top shape: 32 384 13 13 (2076672)
I1130 20:32:23.835204 32431 net.cpp:137] Memory required for data: 195816960
I1130 20:32:23.835216 32431 layer_factory.hpp:77] Creating layer relu4
I1130 20:32:23.835227 32431 net.cpp:84] Creating Layer relu4
I1130 20:32:23.835235 32431 net.cpp:406] relu4 <- conv4
I1130 20:32:23.835244 32431 net.cpp:367] relu4 -> conv4 (in-place)
I1130 20:32:23.835258 32431 net.cpp:122] Setting up relu4
I1130 20:32:23.835270 32431 net.cpp:129] Top shape: 32 384 13 13 (2076672)
I1130 20:32:23.835275 32431 net.cpp:137] Memory required for data: 204123648
I1130 20:32:23.835283 32431 layer_factory.hpp:77] Creating layer conv5
I1130 20:32:23.835294 32431 net.cpp:84] Creating Layer conv5
I1130 20:32:23.835300 32431 net.cpp:406] conv5 <- conv4
I1130 20:32:23.835309 32431 net.cpp:380] conv5 -> conv5
I1130 20:32:23.841506 32431 net.cpp:122] Setting up conv5
I1130 20:32:23.841526 32431 net.cpp:129] Top shape: 32 256 13 13 (1384448)
I1130 20:32:23.841531 32431 net.cpp:137] Memory required for data: 209661440
I1130 20:32:23.841547 32431 layer_factory.hpp:77] Creating layer relu5
I1130 20:32:23.841557 32431 net.cpp:84] Creating Layer relu5
I1130 20:32:23.841564 32431 net.cpp:406] relu5 <- conv5
I1130 20:32:23.841572 32431 net.cpp:367] relu5 -> conv5 (in-place)
I1130 20:32:23.841583 32431 net.cpp:122] Setting up relu5
I1130 20:32:23.841588 32431 net.cpp:129] Top shape: 32 256 13 13 (1384448)
I1130 20:32:23.841593 32431 net.cpp:137] Memory required for data: 215199232
I1130 20:32:23.841598 32431 layer_factory.hpp:77] Creating layer pool5
I1130 20:32:23.841606 32431 net.cpp:84] Creating Layer pool5
I1130 20:32:23.841611 32431 net.cpp:406] pool5 <- conv5
I1130 20:32:23.841617 32431 net.cpp:380] pool5 -> pool5
I1130 20:32:23.841661 32431 net.cpp:122] Setting up pool5
I1130 20:32:23.841671 32431 net.cpp:129] Top shape: 32 256 6 6 (294912)
I1130 20:32:23.841676 32431 net.cpp:137] Memory required for data: 216378880
I1130 20:32:23.841682 32431 layer_factory.hpp:77] Creating layer fc6
I1130 20:32:23.841699 32431 net.cpp:84] Creating Layer fc6
I1130 20:32:23.841706 32431 net.cpp:406] fc6 <- pool5
I1130 20:32:23.841714 32431 net.cpp:380] fc6 -> fc6
I1130 20:32:24.209458 32431 net.cpp:122] Setting up fc6
I1130 20:32:24.209487 32431 net.cpp:129] Top shape: 32 4096 (131072)
I1130 20:32:24.209492 32431 net.cpp:137] Memory required for data: 216903168
I1130 20:32:24.209502 32431 layer_factory.hpp:77] Creating layer relu6
I1130 20:32:24.209513 32431 net.cpp:84] Creating Layer relu6
I1130 20:32:24.209518 32431 net.cpp:406] relu6 <- fc6
I1130 20:32:24.209527 32431 net.cpp:367] relu6 -> fc6 (in-place)
I1130 20:32:24.209538 32431 net.cpp:122] Setting up relu6
I1130 20:32:24.209543 32431 net.cpp:129] Top shape: 32 4096 (131072)
I1130 20:32:24.209547 32431 net.cpp:137] Memory required for data: 217427456
I1130 20:32:24.209552 32431 layer_factory.hpp:77] Creating layer drop6
I1130 20:32:24.209561 32431 net.cpp:84] Creating Layer drop6
I1130 20:32:24.209565 32431 net.cpp:406] drop6 <- fc6
I1130 20:32:24.209570 32431 net.cpp:367] drop6 -> fc6 (in-place)
I1130 20:32:24.209597 32431 net.cpp:122] Setting up drop6
I1130 20:32:24.209604 32431 net.cpp:129] Top shape: 32 4096 (131072)
I1130 20:32:24.209607 32431 net.cpp:137] Memory required for data: 217951744
I1130 20:32:24.209612 32431 layer_factory.hpp:77] Creating layer fc7
I1130 20:32:24.209621 32431 net.cpp:84] Creating Layer fc7
I1130 20:32:24.209625 32431 net.cpp:406] fc7 <- fc6
I1130 20:32:24.209632 32431 net.cpp:380] fc7 -> fc7
I1130 20:32:24.365695 32431 net.cpp:122] Setting up fc7
I1130 20:32:24.365725 32431 net.cpp:129] Top shape: 32 4096 (131072)
I1130 20:32:24.365730 32431 net.cpp:137] Memory required for data: 218476032
I1130 20:32:24.365741 32431 layer_factory.hpp:77] Creating layer relu7
I1130 20:32:24.365751 32431 net.cpp:84] Creating Layer relu7
I1130 20:32:24.365756 32431 net.cpp:406] relu7 <- fc7
I1130 20:32:24.365764 32431 net.cpp:367] relu7 -> fc7 (in-place)
I1130 20:32:24.365774 32431 net.cpp:122] Setting up relu7
I1130 20:32:24.365780 32431 net.cpp:129] Top shape: 32 4096 (131072)
I1130 20:32:24.365784 32431 net.cpp:137] Memory required for data: 219000320
I1130 20:32:24.365788 32431 layer_factory.hpp:77] Creating layer drop7
I1130 20:32:24.365795 32431 net.cpp:84] Creating Layer drop7
I1130 20:32:24.365800 32431 net.cpp:406] drop7 <- fc7
I1130 20:32:24.365806 32431 net.cpp:367] drop7 -> fc7 (in-place)
I1130 20:32:24.365830 32431 net.cpp:122] Setting up drop7
I1130 20:32:24.365836 32431 net.cpp:129] Top shape: 32 4096 (131072)
I1130 20:32:24.365849 32431 net.cpp:137] Memory required for data: 219524608
I1130 20:32:24.365852 32431 layer_factory.hpp:77] Creating layer fc_scv_happy
I1130 20:32:24.365861 32431 net.cpp:84] Creating Layer fc_scv_happy
I1130 20:32:24.365865 32431 net.cpp:406] fc_scv_happy <- fc7
I1130 20:32:24.365872 32431 net.cpp:380] fc_scv_happy -> fc_scv_happy
I1130 20:32:24.365984 32431 net.cpp:122] Setting up fc_scv_happy
I1130 20:32:24.365993 32431 net.cpp:129] Top shape: 32 1 (32)
I1130 20:32:24.365996 32431 net.cpp:137] Memory required for data: 219524736
I1130 20:32:24.366003 32431 layer_factory.hpp:77] Creating layer loss
I1130 20:32:24.366009 32431 net.cpp:84] Creating Layer loss
I1130 20:32:24.366014 32431 net.cpp:406] loss <- fc_scv_happy
I1130 20:32:24.366020 32431 net.cpp:406] loss <- label
I1130 20:32:24.366027 32431 net.cpp:380] loss -> loss
I1130 20:32:24.366058 32431 net.cpp:122] Setting up loss
…
I1130 20:32:24.367225 32431 net.cpp:294] The NetState phase (1) differed from the phase (0) specified by a rule in layer data
I1130 20:32:24.367404 32431 net.cpp:51] Initializing net from parameters: 
name: "CaffeNet-Places365-SCV-Happy"
state {
  phase: TEST
}
layer {
  name: "data"
  type: "Data"
  top: "data"
  top: "label"
  include {
    phase: TEST
  }
  transform_param {
    mirror: false
    crop_size: 227
    mean_file: "/idiap/temp/lmedina/fine-tuning/alexnet_places365/places365CNN_mean.binaryproto"
  }
  data_param {
    source: "/idiap/temp/lmedina/fine-tuning/data/Happy/validation_lmdb"
    batch_size: 32
    backend: LMDB
  }
}
layer {
  name: "conv1"
  type: "Convolution"
  bottom: "data"
  top: "conv1"
  param {
    lr_mult: 1
    decay_mult: 1
  }
  param {
    lr_mult: 2
    decay_mult: 0
  }
  convolution_param {
    num_output: 96
    kernel_size: 11
    stride: 4
    weight_filler {
      type: "gaussian"
      std: 0.01
    }
    bias_filler {
      type: "constant"
      value: 0
    }
  }
}
layer {
  name: "relu1"
  type: "ReLU"
  bottom: "conv1"
  top: "conv1"
}
layer {
  name: "pool1"
  type: "Pooling"
  bottom: "conv1"
  top: "pool1"
  pooling_param {
    pool: MAX
    kernel_size: 3
    stride: 2
  }
}
layer {
  name: "norm1"
  type: "LRN"
  bottom: "pool1"
  top: "norm1"
  lrn_param {
    local_size: 5
    alpha: 0.0001
    beta: 0.75
  }
}
layer {
  name: "conv2"
  type: "Convolution"
  bottom: "norm1"
  top: "conv2"
  param {
    lr_mult: 1
    decay_mult: 1
  }
  param {
    lr_mult: 2
    decay_mult: 0
  }
  convolution_param {
    num_output: 256
    pad: 2
    kernel_size: 5
    group: 2
    weight_filler {
      type: "gaussian"
      std: 0.01
    }
    bias_filler {
      type: "constant"
      value: 1
    }
  }
}
layer {
  name: "relu2"
  type: "ReLU"
  bottom: "conv2"
  top: "conv2"
}
layer {
  name: "pool2"
  type: "Pooling"
  bottom: "conv2"
  top: "pool2"
  pooling_param {
    pool: MAX
    kernel_size: 3
    stride: 2
  }
}
layer {
  name: "norm2"
  type: "LRN"
  bottom: "pool2"
  top: "norm2"
  lrn_param {
    local_size: 5
    alpha: 0.0001
    beta: 0.75
  }
}
layer {
  name: "conv3"
  type: "Convolution"
  bottom: "norm2"
  top: "conv3"
  param {
    lr_mult: 1
    decay_mult: 1
  }
  param {
    lr_mult: 2
    decay_mult: 0
  }
  convolution_param {
    num_output: 384
    pad: 1
    kernel_size: 3
    weight_filler {
      type: "gaussian"
      std: 0.01
    }
    bias_filler {
      type: "constant"
      value: 0
    }
  }
}
layer {
  name: "relu3"
  type: "ReLU"
  bottom: "conv3"
  top: "conv3"
}
layer {
  name: "conv4"
  type: "Convolution"
  bottom: "conv3"
  top: "conv4"
  param {
    lr_mult: 1
    decay_mult: 1
  }
  param {
    lr_mult: 2
    decay_mult: 0
  }
  convolution_param {
    num_output: 384
    pad: 1
    kernel_size: 3
    group: 2
    weight_filler {
      type: "gaussian"
      std: 0.01
    }
    bias_filler {
      type: "constant"
      value: 1
    }
  }
}
layer {
  name: "relu4"
  type: "ReLU"
  bottom: "conv4"
  top: "conv4"
}
layer {
  name: "conv5"
  type: "Convolution"
  bottom: "conv4"
  top: "conv5"
  param {
    lr_mult: 1
    decay_mult: 1
  }
  param {
    lr_mult: 2
    decay_mult: 0
  }
  convolution_param {
    num_output: 256
    pad: 1
    kernel_size: 3
    group: 2
    weight_filler {
      type: "gaussian"
      std: 0.01
    }
    bias_filler {
      type: "constant"
      value: 1
    }
  }
}
layer {
  name: "relu5"
  type: "ReLU"
  bottom: "conv5"
  top: "conv5"
}
layer {
  name: "pool5"
  type: "Pooling"
  bottom: "conv5"
  top: "pool5"
  pooling_param {
    pool: MAX
    kernel_size: 3
    stride: 2
  }
}
layer {
  name: "fc6"
  type: "InnerProduct"
  bottom: "pool5"
  top: "fc6"
  param {
    lr_mult: 1
    decay_mult: 1
  }
  param {
    lr_mult: 2
    decay_mult: 0
  }
  inner_product_param {
    num_output: 4096
    weight_filler {
      type: "gaussian"
      std: 0.005
    }
    bias_filler {
      type: "constant"
      value: 1
    }
  }
}
layer {
  name: "relu6"
  type: "ReLU"
  bottom: "fc6"
  top: "fc6"
}
layer {
  name: "drop6"
  type: "Dropout"
  bottom: "fc6"
  top: "fc6"
  dropout_param {
    dropout_ratio: 0.5
  }
}
layer {
  name: "fc7"
  type: "InnerProduct"
  bottom: "fc6"
  top: "fc7"
  param {
    lr_mult: 1
    decay_mult: 1
  }
  param {
    lr_mult: 2
    decay_mult: 0
  }
  inner_product_param {
    num_output: 4096
    weight_filler {
      type: "gaussian"
      std: 0.005
    }
    bias_filler {
      type: "constant"
      value: 1
    }
  }
}
layer {
  name: "relu7"
  type: "ReLU"
  bottom: "fc7"
  top: "fc7"
}
layer {
  name: "drop7"
  type: "Dropout"
  bottom: "fc7"
  top: "fc7"
  dropout_param {
    dropout_ratio: 0.5
  }
}
layer {
  name: "fc_scv_happy"
  type: "InnerProduct"
  bottom: "fc7"
  top: "fc_scv_happy"
  param {
    lr_mult: 10
    decay_mult: 1
  }
  param {
    lr_mult: 20
    decay_mult: 0
  }
  inner_product_param {
    num_output: 1
    weight_filler {
      type: "xavier"
      std: 0.01
    }
    bias_filler {
      type: "constant"
      value: 0
    }
  }
}
layer {
  name: "loss"
  type: "EuclideanLoss"
  bottom: "fc_scv_happy"
  bottom: "label"
  top: "loss"
}
layer {
  name: "losttest"
  type: "EuclideanLoss"
  bottom: "fc_scv_happy"
  bottom: "label"
  top: "losttest"
  include {
    phase: TEST
  }
}
I1130 20:32:24.367502 32431 layer_factory.hpp:77] Creating layer data
I1130 20:32:24.385076 32431 db_lmdb.cpp:35] Opened lmdb /idiap/temp/lmedina/fine-tuning/data/Happy/validation_lmdb
I1130 20:32:24.390619 32431 net.cpp:84] Creating Layer data
I1130 20:32:24.390648 32431 net.cpp:380] data -> data
I1130 20:32:24.390660 32431 net.cpp:380] data -> label
I1130 20:32:24.390667 32431 data_transformer.cpp:25] Loading mean file from: /idiap/temp/lmedina/fine-tuning/alexnet_places365/places365CNN_mean.binaryproto
I1130 20:32:24.396778 32431 data_layer.cpp:45] output data size: 32,3,227,227
I1130 20:32:24.436861 32431 net.cpp:122] Setting up data
I1130 20:32:24.436897 32431 net.cpp:129] Top shape: 32 3 227 227 (4946784)
I1130 20:32:24.436914 32431 net.cpp:129] Top shape: 32 (32)
I1130 20:32:24.436918 32431 net.cpp:137] Memory required for data: 19787264
I1130 20:32:24.436924 32431 layer_factory.hpp:77] Creating layer label_data_1_split
I1130 20:32:24.436939 32431 net.cpp:84] Creating Layer label_data_1_split
I1130 20:32:24.436944 32431 net.cpp:406] label_data_1_split <- label
I1130 20:32:24.436952 32431 net.cpp:380] label_data_1_split -> label_data_1_split_0
I1130 20:32:24.436965 32431 net.cpp:380] label_data_1_split -> label_data_1_split_1
I1130 20:32:24.437033 32431 net.cpp:122] Setting up label_data_1_split
I1130 20:32:24.437042 32431 net.cpp:129] Top shape: 32 (32)
I1130 20:32:24.437047 32431 net.cpp:129] Top shape: 32 (32)
I1130 20:32:24.437052 32431 net.cpp:137] Memory required for data: 19787520
I1130 20:32:24.437055 32431 layer_factory.hpp:77] Creating layer conv1
I1130 20:32:24.437068 32431 net.cpp:84] Creating Layer conv1
I1130 20:32:24.437073 32431 net.cpp:406] conv1 <- data
I1130 20:32:24.437081 32431 net.cpp:380] conv1 -> conv1
I1130 20:32:24.437567 32431 net.cpp:122] Setting up conv1
I1130 20:32:24.437577 32431 net.cpp:129] Top shape: 32 96 55 55 (9292800)
I1130 20:32:24.437580 32431 net.cpp:137] Memory required for data: 56958720
I1130 20:32:24.437590 32431 layer_factory.hpp:77] Creating layer relu1
I1130 20:32:24.437597 32431 net.cpp:84] Creating Layer relu1
I1130 20:32:24.437602 32431 net.cpp:406] relu1 <- conv1
I1130 20:32:24.437607 32431 net.cpp:367] relu1 -> conv1 (in-place)
I1130 20:32:24.437613 32431 net.cpp:122] Setting up relu1
I1130 20:32:24.437618 32431 net.cpp:129] Top shape: 32 96 55 55 (9292800)
I1130 20:32:24.437623 32431 net.cpp:137] Memory required for data: 94129920
I1130 20:32:24.437626 32431 layer_factory.hpp:77] Creating layer pool1
I1130 20:32:24.437633 32431 net.cpp:84] Creating Layer pool1
I1130 20:32:24.437638 32431 net.cpp:406] pool1 <- conv1
I1130 20:32:24.437644 32431 net.cpp:380] pool1 -> pool1
I1130 20:32:24.437723 32431 net.cpp:122] Setting up pool1
I1130 20:32:24.437731 32431 net.cpp:129] Top shape: 32 96 27 27 (2239488)
I1130 20:32:24.437736 32431 net.cpp:137] Memory required for data: 103087872
I1130 20:32:24.437741 32431 layer_factory.hpp:77] Creating layer norm1
I1130 20:32:24.437748 32431 net.cpp:84] Creating Layer norm1
I1130 20:32:24.437752 32431 net.cpp:406] norm1 <- pool1
I1130 20:32:24.437758 32431 net.cpp:380] norm1 -> norm1
I1130 20:32:24.437786 32431 net.cpp:122] Setting up norm1
I1130 20:32:24.437793 32431 net.cpp:129] Top shape: 32 96 27 27 (2239488)
I1130 20:32:24.437796 32431 net.cpp:137] Memory required for data: 112045824
I1130 20:32:24.437801 32431 layer_factory.hpp:77] Creating layer conv2
I1130 20:32:24.437810 32431 net.cpp:84] Creating Layer conv2
I1130 20:32:24.437814 32431 net.cpp:406] conv2 <- norm1
I1130 20:32:24.437821 32431 net.cpp:380] conv2 -> conv2
I1130 20:32:24.441016 32431 net.cpp:122] Setting up conv2
I1130 20:32:24.441033 32431 net.cpp:129] Top shape: 32 256 27 27 (5971968)
I1130 20:32:24.441037 32431 net.cpp:137] Memory required for data: 135933696
I1130 20:32:24.441047 32431 layer_factory.hpp:77] Creating layer relu2
I1130 20:32:24.441056 32431 net.cpp:84] Creating Layer relu2
I1130 20:32:24.441061 32431 net.cpp:406] relu2 <- conv2
I1130 20:32:24.441067 32431 net.cpp:367] relu2 -> conv2 (in-place)
I1130 20:32:24.441074 32431 net.cpp:122] Setting up relu2
I1130 20:32:24.441081 32431 net.cpp:129] Top shape: 32 256 27 27 (5971968)
I1130 20:32:24.441084 32431 net.cpp:137] Memory required for data: 159821568
I1130 20:32:24.441089 32431 layer_factory.hpp:77] Creating layer pool2
I1130 20:32:24.441095 32431 net.cpp:84] Creating Layer pool2
I1130 20:32:24.441102 32431 net.cpp:406] pool2 <- conv2
I1130 20:32:24.441107 32431 net.cpp:380] pool2 -> pool2
I1130 20:32:24.441138 32431 net.cpp:122] Setting up pool2
I1130 20:32:24.441146 32431 net.cpp:129] Top shape: 32 256 13 13 (1384448)
I1130 20:32:24.441150 32431 net.cpp:137] Memory required for data: 165359360
I1130 20:32:24.441155 32431 layer_factory.hpp:77] Creating layer norm2
I1130 20:32:24.441162 32431 net.cpp:84] Creating Layer norm2
I1130 20:32:24.441167 32431 net.cpp:406] norm2 <- pool2
I1130 20:32:24.441174 32431 net.cpp:380] norm2 -> norm2
I1130 20:32:24.441200 32431 net.cpp:122] Setting up norm2
I1130 20:32:24.441207 32431 net.cpp:129] Top shape: 32 256 13 13 (1384448)
I1130 20:32:24.441210 32431 net.cpp:137] Memory required for data: 170897152
I1130 20:32:24.441215 32431 layer_factory.hpp:77] Creating layer conv3
I1130 20:32:24.441224 32431 net.cpp:84] Creating Layer conv3
I1130 20:32:24.441229 32431 net.cpp:406] conv3 <- norm2
I1130 20:32:24.441236 32431 net.cpp:380] conv3 -> conv3
I1130 20:32:24.449784 32431 net.cpp:122] Setting up conv3
I1130 20:32:24.449805 32431 net.cpp:129] Top shape: 32 384 13 13 (2076672)
I1130 20:32:24.449810 32431 net.cpp:137] Memory required for data: 179203840
I1130 20:32:24.449823 32431 layer_factory.hpp:77] Creating layer relu3
I1130 20:32:24.449832 32431 net.cpp:84] Creating Layer relu3
I1130 20:32:24.449838 32431 net.cpp:406] relu3 <- conv3
I1130 20:32:24.449846 32431 net.cpp:367] relu3 -> conv3 (in-place)
I1130 20:32:24.449856 32431 net.cpp:122] Setting up relu3
I1130 20:32:24.449862 32431 net.cpp:129] Top shape: 32 384 13 13 (2076672)
I1130 20:32:24.449867 32431 net.cpp:137] Memory required for data: 187510528
I1130 20:32:24.449870 32431 layer_factory.hpp:77] Creating layer conv4
I1130 20:32:24.449879 32431 net.cpp:84] Creating Layer conv4
I1130 20:32:24.449884 32431 net.cpp:406] conv4 <- conv3
I1130 20:32:24.449892 32431 net.cpp:380] conv4 -> conv4
I1130 20:32:24.456395 32431 net.cpp:122] Setting up conv4
I1130 20:32:24.456406 32431 net.cpp:129] Top shape: 32 384 13 13 (2076672)
I1130 20:32:24.456410 32431 net.cpp:137] Memory required for data: 195817216
I1130 20:32:24.456418 32431 layer_factory.hpp:77] Creating layer relu4
I1130 20:32:24.456427 32431 net.cpp:84] Creating Layer relu4
I1130 20:32:24.456432 32431 net.cpp:406] relu4 <- conv4
I1130 20:32:24.456439 32431 net.cpp:367] relu4 -> conv4 (in-place)
I1130 20:32:24.456446 32431 net.cpp:122] Setting up relu4
I1130 20:32:24.456452 32431 net.cpp:129] Top shape: 32 384 13 13 (2076672)
I1130 20:32:24.456455 32431 net.cpp:137] Memory required for data: 204123904
I1130 20:32:24.456460 32431 layer_factory.hpp:77] Creating layer conv5
I1130 20:32:24.456470 32431 net.cpp:84] Creating Layer conv5
I1130 20:32:24.456475 32431 net.cpp:406] conv5 <- conv4
I1130 20:32:24.456480 32431 net.cpp:380] conv5 -> conv5
I1130 20:32:24.460852 32431 net.cpp:122] Setting up conv5
I1130 20:32:24.460865 32431 net.cpp:129] Top shape: 32 256 13 13 (1384448)
I1130 20:32:24.460870 32431 net.cpp:137] Memory required for data: 209661696
I1130 20:32:24.460880 32431 layer_factory.hpp:77] Creating layer relu5
I1130 20:32:24.460887 32431 net.cpp:84] Creating Layer relu5
I1130 20:32:24.460892 32431 net.cpp:406] relu5 <- conv5
I1130 20:32:24.460898 32431 net.cpp:367] relu5 -> conv5 (in-place)
I1130 20:32:24.460907 32431 net.cpp:122] Setting up relu5
I1130 20:32:24.460916 32431 net.cpp:129] Top shape: 32 256 13 13 (1384448)
I1130 20:32:24.460921 32431 net.cpp:137] Memory required for data: 215199488
I1130 20:32:24.460924 32431 layer_factory.hpp:77] Creating layer pool5
I1130 20:32:24.460934 32431 net.cpp:84] Creating Layer pool5
I1130 20:32:24.460939 32431 net.cpp:406] pool5 <- conv5
I1130 20:32:24.460945 32431 net.cpp:380] pool5 -> pool5
I1130 20:32:24.460978 32431 net.cpp:122] Setting up pool5
I1130 20:32:24.460986 32431 net.cpp:129] Top shape: 32 256 6 6 (294912)
I1130 20:32:24.460990 32431 net.cpp:137] Memory required for data: 216379136
I1130 20:32:24.460995 32431 layer_factory.hpp:77] Creating layer fc6
I1130 20:32:24.461004 32431 net.cpp:84] Creating Layer fc6
I1130 20:32:24.461009 32431 net.cpp:406] fc6 <- pool5
I1130 20:32:24.461015 32431 net.cpp:380] fc6 -> fc6
I1130 20:32:24.809895 32431 net.cpp:122] Setting up fc6
I1130 20:32:24.809926 32431 net.cpp:129] Top shape: 32 4096 (131072)
I1130 20:32:24.809931 32431 net.cpp:137] Memory required for data: 216903424
I1130 20:32:24.809940 32431 layer_factory.hpp:77] Creating layer relu6
I1130 20:32:24.809952 32431 net.cpp:84] Creating Layer relu6
I1130 20:32:24.809957 32431 net.cpp:406] relu6 <- fc6
I1130 20:32:24.809967 32431 net.cpp:367] relu6 -> fc6 (in-place)
I1130 20:32:24.809979 32431 net.cpp:122] Setting up relu6
I1130 20:32:24.809984 32431 net.cpp:129] Top shape: 32 4096 (131072)
I1130 20:32:24.809988 32431 net.cpp:137] Memory required for data: 217427712
I1130 20:32:24.809993 32431 layer_factory.hpp:77] Creating layer drop6
I1130 20:32:24.810000 32431 net.cpp:84] Creating Layer drop6
I1130 20:32:24.810004 32431 net.cpp:406] drop6 <- fc6
I1130 20:32:24.810009 32431 net.cpp:367] drop6 -> fc6 (in-place)
I1130 20:32:24.810034 32431 net.cpp:122] Setting up drop6
I1130 20:32:24.810041 32431 net.cpp:129] Top shape: 32 4096 (131072)
I1130 20:32:24.810045 32431 net.cpp:137] Memory required for data: 217952000
I1130 20:32:24.810050 32431 layer_factory.hpp:77] Creating layer fc7
I1130 20:32:24.810058 32431 net.cpp:84] Creating Layer fc7
I1130 20:32:24.810062 32431 net.cpp:406] fc7 <- fc6
I1130 20:32:24.810070 32431 net.cpp:380] fc7 -> fc7
I1130 20:32:24.965010 32431 net.cpp:122] Setting up fc7
I1130 20:32:24.965040 32431 net.cpp:129] Top shape: 32 4096 (131072)
I1130 20:32:24.965045 32431 net.cpp:137] Memory required for data: 218476288
I1130 20:32:24.965055 32431 layer_factory.hpp:77] Creating layer relu7
I1130 20:32:24.965066 32431 net.cpp:84] Creating Layer relu7
I1130 20:32:24.965072 32431 net.cpp:406] relu7 <- fc7
I1130 20:32:24.965080 32431 net.cpp:367] relu7 -> fc7 (in-place)
I1130 20:32:24.965090 32431 net.cpp:122] Setting up relu7
I1130 20:32:24.965096 32431 net.cpp:129] Top shape: 32 4096 (131072)
I1130 20:32:24.965101 32431 net.cpp:137] Memory required for data: 219000576
I1130 20:32:24.965104 32431 layer_factory.hpp:77] Creating layer drop7
I1130 20:32:24.965112 32431 net.cpp:84] Creating Layer drop7
I1130 20:32:24.965117 32431 net.cpp:406] drop7 <- fc7
I1130 20:32:24.965123 32431 net.cpp:367] drop7 -> fc7 (in-place)
I1130 20:32:24.965148 32431 net.cpp:122] Setting up drop7
I1130 20:32:24.965155 32431 net.cpp:129] Top shape: 32 4096 (131072)
I1130 20:32:24.965160 32431 net.cpp:137] Memory required for data: 219524864
I1130 20:32:24.965165 32431 layer_factory.hpp:77] Creating layer fc_scv_happy
I1130 20:32:24.965173 32431 net.cpp:84] Creating Layer fc_scv_happy
I1130 20:32:24.965178 32431 net.cpp:406] fc_scv_happy <- fc7
I1130 20:32:24.965184 32431 net.cpp:380] fc_scv_happy -> fc_scv_happy
I1130 20:32:24.965288 32431 net.cpp:122] Setting up fc_scv_happy
I1130 20:32:24.965296 32431 net.cpp:129] Top shape: 32 1 (32)
I1130 20:32:24.965301 32431 net.cpp:137] Memory required for data: 219524992
I1130 20:32:24.965307 32431 layer_factory.hpp:77] Creating layer fc_scv_happy_fc_scv_happy_0_split
I1130 20:32:24.965315 32431 net.cpp:84] Creating Layer fc_scv_happy_fc_scv_happy_0_split
I1130 20:32:24.965320 32431 net.cpp:406] fc_scv_happy_fc_scv_happy_0_split <- fc_scv_happy
I1130 20:32:24.965325 32431 net.cpp:380] fc_scv_happy_fc_scv_happy_0_split -> fc_scv_happy_fc_scv_happy_0_split_0
I1130 20:32:24.965339 32431 net.cpp:380] fc_scv_happy_fc_scv_happy_0_split -> fc_scv_happy_fc_scv_happy_0_split_1
I1130 20:32:24.965368 32431 net.cpp:122] Setting up fc_scv_happy_fc_scv_happy_0_split
I1130 20:32:24.965376 32431 net.cpp:129] Top shape: 32 1 (32)
I1130 20:32:24.965380 32431 net.cpp:129] Top shape: 32 1 (32)
I1130 20:32:24.965385 32431 net.cpp:137] Memory required for data: 219525248
I1130 20:32:24.965389 32431 layer_factory.hpp:77] Creating layer loss
I1130 20:32:24.965396 32431 net.cpp:84] Creating Layer loss
I1130 20:32:24.965400 32431 net.cpp:406] loss <- fc_scv_happy_fc_scv_happy_0_split_0
I1130 20:32:24.965406 32431 net.cpp:406] loss <- label_data_1_split_0
I1130 20:32:24.965412 32431 net.cpp:380] loss -> loss
…
