…
I1130 19:50:36.504542 24558 net.cpp:294] The NetState phase (0) differed from the phase (1) specified by a rule in layer losttest
I1130 19:50:36.504694 24558 net.cpp:51] Initializing net from parameters: 
name: "CaffeNet-Places365-SCV-Preserved"
state {
  phase: TRAIN
  level: 0
  stage: ""
}
layer {
  name: "data"
  type: "Data"
  top: "data"
  top: "label"
  include {
    phase: TRAIN
  }
  transform_param {
    mirror: true
    crop_size: 227
    mean_file: "/idiap/temp/lmedina/fine-tuning/alexnet_places365/places365CNN_mean.binaryproto"
  }
  data_param {
    source: "/idiap/temp/lmedina/fine-tuning/data/Preserved/train_lmdb"
    batch_size: 32
    backend: LMDB
  }
}
layer {
  name: "conv1"
  type: "Convolution"
  bottom: "data"
  top: "conv1"
  param {
    lr_mult: 1
    decay_mult: 1
  }
  param {
    lr_mult: 2
    decay_mult: 0
  }
  convolution_param {
    num_output: 96
    kernel_size: 11
    stride: 4
    weight_filler {
      type: "gaussian"
      std: 0.01
    }
    bias_filler {
      type: "constant"
      value: 0
    }
  }
}
layer {
  name: "relu1"
  type: "ReLU"
  bottom: "conv1"
  top: "conv1"
}
layer {
  name: "pool1"
  type: "Pooling"
  bottom: "conv1"
  top: "pool1"
  pooling_param {
    pool: MAX
    kernel_size: 3
    stride: 2
  }
}
layer {
  name: "norm1"
  type: "LRN"
  bottom: "pool1"
  top: "norm1"
  lrn_param {
    local_size: 5
    alpha: 0.0001
    beta: 0.75
  }
}
layer {
  name: "conv2"
  type: "Convolution"
  bottom: "norm1"
  top: "conv2"
  param {
    lr_mult: 1
    decay_mult: 1
  }
  param {
    lr_mult: 2
    decay_mult: 0
  }
  convolution_param {
    num_output: 256
    pad: 2
    kernel_size: 5
    group: 2
    weight_filler {
      type: "gaussian"
      std: 0.01
    }
    bias_filler {
      type: "constant"
      value: 1
    }
  }
}
layer {
  name: "relu2"
  type: "ReLU"
  bottom: "conv2"
  top: "conv2"
}
layer {
  name: "pool2"
  type: "Pooling"
  bottom: "conv2"
  top: "pool2"
  pooling_param {
    pool: MAX
    kernel_size: 3
    stride: 2
  }
}
layer {
  name: "norm2"
  type: "LRN"
  bottom: "pool2"
  top: "norm2"
  lrn_param {
    local_size: 5
    alpha: 0.0001
    beta: 0.75
  }
}
layer {
  name: "conv3"
  type: "Convolution"
  bottom: "norm2"
  top: "conv3"
  param {
    lr_mult: 1
    decay_mult: 1
  }
  param {
    lr_mult: 2
    decay_mult: 0
  }
  convolution_param {
    num_output: 384
    pad: 1
    kernel_size: 3
    weight_filler {
      type: "gaussian"
      std: 0.01
    }
    bias_filler {
      type: "constant"
      value: 0
    }
  }
}
layer {
  name: "relu3"
  type: "ReLU"
  bottom: "conv3"
  top: "conv3"
}
layer {
  name: "conv4"
  type: "Convolution"
  bottom: "conv3"
  top: "conv4"
  param {
    lr_mult: 1
    decay_mult: 1
  }
  param {
    lr_mult: 2
    decay_mult: 0
  }
  convolution_param {
    num_output: 384
    pad: 1
    kernel_size: 3
    group: 2
    weight_filler {
      type: "gaussian"
      std: 0.01
    }
    bias_filler {
      type: "constant"
      value: 1
    }
  }
}
layer {
  name: "relu4"
  type: "ReLU"
  bottom: "conv4"
  top: "conv4"
}
layer {
  name: "conv5"
  type: "Convolution"
  bottom: "conv4"
  top: "conv5"
  param {
    lr_mult: 1
    decay_mult: 1
  }
  param {
    lr_mult: 2
    decay_mult: 0
  }
  convolution_param {
    num_output: 256
    pad: 1
    kernel_size: 3
    group: 2
    weight_filler {
      type: "gaussian"
      std: 0.01
    }
    bias_filler {
      type: "constant"
      value: 1
    }
  }
}
layer {
  name: "relu5"
  type: "ReLU"
  bottom: "conv5"
  top: "conv5"
}
layer {
  name: "pool5"
  type: "Pooling"
  bottom: "conv5"
  top: "pool5"
  pooling_param {
    pool: MAX
    kernel_size: 3
    stride: 2
  }
}
layer {
  name: "fc6"
  type: "InnerProduct"
  bottom: "pool5"
  top: "fc6"
  param {
    lr_mult: 1
    decay_mult: 1
  }
  param {
    lr_mult: 2
    decay_mult: 0
  }
  inner_product_param {
    num_output: 4096
    weight_filler {
      type: "gaussian"
      std: 0.005
    }
    bias_filler {
      type: "constant"
      value: 1
    }
  }
}
layer {
  name: "relu6"
  type: "ReLU"
  bottom: "fc6"
  top: "fc6"
}
layer {
  name: "drop6"
  type: "Dropout"
  bottom: "fc6"
  top: "fc6"
  dropout_param {
    dropout_ratio: 0.5
  }
}
layer {
  name: "fc7"
  type: "InnerProduct"
  bottom: "fc6"
  top: "fc7"
  param {
    lr_mult: 1
    decay_mult: 1
  }
  param {
    lr_mult: 2
    decay_mult: 0
  }
  inner_product_param {
    num_output: 4096
    weight_filler {
      type: "gaussian"
      std: 0.005
    }
    bias_filler {
      type: "constant"
      value: 1
    }
  }
}
layer {
  name: "relu7"
  type: "ReLU"
  bottom: "fc7"
  top: "fc7"
}
layer {
  name: "drop7"
  type: "Dropout"
  bottom: "fc7"
  top: "fc7"
  dropout_param {
    dropout_ratio: 0.5
  }
}
layer {
  name: "fc_scv_preserved"
  type: "InnerProduct"
  bottom: "fc7"
  top: "fc_scv_preserved"
  param {
    lr_mult: 10
    decay_mult: 1
  }
  param {
    lr_mult: 20
    decay_mult: 0
  }
  inner_product_param {
    num_output: 1
    weight_filler {
      type: "xavier"
      std: 0.01
    }
    bias_filler {
      type: "constant"
      value: 0
    }
  }
}
layer {
  name: "loss"
  type: "EuclideanLoss"
  bottom: "fc_scv_preserved"
  bottom: "label"
  top: "loss"
}
I1130 19:50:36.504786 24558 layer_factory.hpp:77] Creating layer data
I1130 19:50:36.533962 24558 db_lmdb.cpp:35] Opened lmdb /idiap/temp/lmedina/fine-tuning/data/Preserved/train_lmdb
I1130 19:50:36.545717 24558 net.cpp:84] Creating Layer data
I1130 19:50:36.545747 24558 net.cpp:380] data -> data
I1130 19:50:36.545770 24558 net.cpp:380] data -> label
I1130 19:50:36.545785 24558 data_transformer.cpp:25] Loading mean file from: /idiap/temp/lmedina/fine-tuning/alexnet_places365/places365CNN_mean.binaryproto
I1130 19:50:36.557344 24558 data_layer.cpp:45] output data size: 32,3,227,227
I1130 19:50:36.592691 24558 net.cpp:122] Setting up data
I1130 19:50:36.592728 24558 net.cpp:129] Top shape: 32 3 227 227 (4946784)
I1130 19:50:36.592733 24558 net.cpp:129] Top shape: 32 (32)
I1130 19:50:36.592736 24558 net.cpp:137] Memory required for data: 19787264
I1130 19:50:36.592746 24558 layer_factory.hpp:77] Creating layer conv1
I1130 19:50:36.592770 24558 net.cpp:84] Creating Layer conv1
I1130 19:50:36.592777 24558 net.cpp:406] conv1 <- data
I1130 19:50:36.592789 24558 net.cpp:380] conv1 -> conv1
I1130 19:50:36.593962 24558 net.cpp:122] Setting up conv1
I1130 19:50:36.593971 24558 net.cpp:129] Top shape: 32 96 55 55 (9292800)
I1130 19:50:36.593974 24558 net.cpp:137] Memory required for data: 56958464
I1130 19:50:36.593986 24558 layer_factory.hpp:77] Creating layer relu1
I1130 19:50:36.593994 24558 net.cpp:84] Creating Layer relu1
I1130 19:50:36.593997 24558 net.cpp:406] relu1 <- conv1
I1130 19:50:36.594005 24558 net.cpp:367] relu1 -> conv1 (in-place)
I1130 19:50:36.594013 24558 net.cpp:122] Setting up relu1
I1130 19:50:36.594017 24558 net.cpp:129] Top shape: 32 96 55 55 (9292800)
I1130 19:50:36.594020 24558 net.cpp:137] Memory required for data: 94129664
I1130 19:50:36.594023 24558 layer_factory.hpp:77] Creating layer pool1
I1130 19:50:36.594029 24558 net.cpp:84] Creating Layer pool1
I1130 19:50:36.594033 24558 net.cpp:406] pool1 <- conv1
I1130 19:50:36.594036 24558 net.cpp:380] pool1 -> pool1
I1130 19:50:36.595834 24558 net.cpp:122] Setting up pool1
I1130 19:50:36.595852 24558 net.cpp:129] Top shape: 32 96 27 27 (2239488)
I1130 19:50:36.595855 24558 net.cpp:137] Memory required for data: 103087616
I1130 19:50:36.595860 24558 layer_factory.hpp:77] Creating layer norm1
I1130 19:50:36.595868 24558 net.cpp:84] Creating Layer norm1
I1130 19:50:36.595872 24558 net.cpp:406] norm1 <- pool1
I1130 19:50:36.595877 24558 net.cpp:380] norm1 -> norm1
I1130 19:50:36.595906 24558 net.cpp:122] Setting up norm1
I1130 19:50:36.595913 24558 net.cpp:129] Top shape: 32 96 27 27 (2239488)
I1130 19:50:36.595916 24558 net.cpp:137] Memory required for data: 112045568
I1130 19:50:36.595921 24558 layer_factory.hpp:77] Creating layer conv2
I1130 19:50:36.595929 24558 net.cpp:84] Creating Layer conv2
I1130 19:50:36.595932 24558 net.cpp:406] conv2 <- norm1
I1130 19:50:36.595937 24558 net.cpp:380] conv2 -> conv2
I1130 19:50:36.599335 24558 net.cpp:122] Setting up conv2
I1130 19:50:36.599351 24558 net.cpp:129] Top shape: 32 256 27 27 (5971968)
I1130 19:50:36.599354 24558 net.cpp:137] Memory required for data: 135933440
I1130 19:50:36.599364 24558 layer_factory.hpp:77] Creating layer relu2
I1130 19:50:36.599372 24558 net.cpp:84] Creating Layer relu2
I1130 19:50:36.599377 24558 net.cpp:406] relu2 <- conv2
I1130 19:50:36.599383 24558 net.cpp:367] relu2 -> conv2 (in-place)
I1130 19:50:36.599390 24558 net.cpp:122] Setting up relu2
I1130 19:50:36.599395 24558 net.cpp:129] Top shape: 32 256 27 27 (5971968)
I1130 19:50:36.599397 24558 net.cpp:137] Memory required for data: 159821312
I1130 19:50:36.599400 24558 layer_factory.hpp:77] Creating layer pool2
I1130 19:50:36.599406 24558 net.cpp:84] Creating Layer pool2
I1130 19:50:36.599408 24558 net.cpp:406] pool2 <- conv2
I1130 19:50:36.599412 24558 net.cpp:380] pool2 -> pool2
I1130 19:50:36.599442 24558 net.cpp:122] Setting up pool2
I1130 19:50:36.599448 24558 net.cpp:129] Top shape: 32 256 13 13 (1384448)
I1130 19:50:36.599452 24558 net.cpp:137] Memory required for data: 165359104
I1130 19:50:36.599454 24558 layer_factory.hpp:77] Creating layer norm2
I1130 19:50:36.599462 24558 net.cpp:84] Creating Layer norm2
I1130 19:50:36.599465 24558 net.cpp:406] norm2 <- pool2
I1130 19:50:36.599469 24558 net.cpp:380] norm2 -> norm2
I1130 19:50:36.599493 24558 net.cpp:122] Setting up norm2
I1130 19:50:36.599498 24558 net.cpp:129] Top shape: 32 256 13 13 (1384448)
I1130 19:50:36.599501 24558 net.cpp:137] Memory required for data: 170896896
I1130 19:50:36.599504 24558 layer_factory.hpp:77] Creating layer conv3
I1130 19:50:36.599514 24558 net.cpp:84] Creating Layer conv3
I1130 19:50:36.599517 24558 net.cpp:406] conv3 <- norm2
I1130 19:50:36.599521 24558 net.cpp:380] conv3 -> conv3
I1130 19:50:36.607810 24558 net.cpp:122] Setting up conv3
I1130 19:50:36.607823 24558 net.cpp:129] Top shape: 32 384 13 13 (2076672)
I1130 19:50:36.607826 24558 net.cpp:137] Memory required for data: 179203584
I1130 19:50:36.607836 24558 layer_factory.hpp:77] Creating layer relu3
I1130 19:50:36.607842 24558 net.cpp:84] Creating Layer relu3
I1130 19:50:36.607846 24558 net.cpp:406] relu3 <- conv3
I1130 19:50:36.607851 24558 net.cpp:367] relu3 -> conv3 (in-place)
I1130 19:50:36.607856 24558 net.cpp:122] Setting up relu3
I1130 19:50:36.607861 24558 net.cpp:129] Top shape: 32 384 13 13 (2076672)
I1130 19:50:36.607864 24558 net.cpp:137] Memory required for data: 187510272
I1130 19:50:36.607867 24558 layer_factory.hpp:77] Creating layer conv4
I1130 19:50:36.607875 24558 net.cpp:84] Creating Layer conv4
I1130 19:50:36.607878 24558 net.cpp:406] conv4 <- conv3
I1130 19:50:36.607883 24558 net.cpp:380] conv4 -> conv4
I1130 19:50:36.614089 24558 net.cpp:122] Setting up conv4
I1130 19:50:36.614100 24558 net.cpp:129] Top shape: 32 384 13 13 (2076672)
I1130 19:50:36.614104 24558 net.cpp:137] Memory required for data: 195816960
I1130 19:50:36.614109 24558 layer_factory.hpp:77] Creating layer relu4
I1130 19:50:36.614114 24558 net.cpp:84] Creating Layer relu4
I1130 19:50:36.614118 24558 net.cpp:406] relu4 <- conv4
I1130 19:50:36.614122 24558 net.cpp:367] relu4 -> conv4 (in-place)
I1130 19:50:36.614133 24558 net.cpp:122] Setting up relu4
I1130 19:50:36.614136 24558 net.cpp:129] Top shape: 32 384 13 13 (2076672)
I1130 19:50:36.614140 24558 net.cpp:137] Memory required for data: 204123648
I1130 19:50:36.614141 24558 layer_factory.hpp:77] Creating layer conv5
I1130 19:50:36.614150 24558 net.cpp:84] Creating Layer conv5
I1130 19:50:36.614152 24558 net.cpp:406] conv5 <- conv4
I1130 19:50:36.614157 24558 net.cpp:380] conv5 -> conv5
I1130 19:50:36.618386 24558 net.cpp:122] Setting up conv5
I1130 19:50:36.618396 24558 net.cpp:129] Top shape: 32 256 13 13 (1384448)
I1130 19:50:36.618397 24558 net.cpp:137] Memory required for data: 209661440
I1130 19:50:36.618407 24558 layer_factory.hpp:77] Creating layer relu5
I1130 19:50:36.618413 24558 net.cpp:84] Creating Layer relu5
I1130 19:50:36.618417 24558 net.cpp:406] relu5 <- conv5
I1130 19:50:36.618422 24558 net.cpp:367] relu5 -> conv5 (in-place)
I1130 19:50:36.618427 24558 net.cpp:122] Setting up relu5
I1130 19:50:36.618432 24558 net.cpp:129] Top shape: 32 256 13 13 (1384448)
I1130 19:50:36.618434 24558 net.cpp:137] Memory required for data: 215199232
I1130 19:50:36.618436 24558 layer_factory.hpp:77] Creating layer pool5
I1130 19:50:36.618441 24558 net.cpp:84] Creating Layer pool5
I1130 19:50:36.618445 24558 net.cpp:406] pool5 <- conv5
I1130 19:50:36.618449 24558 net.cpp:380] pool5 -> pool5
I1130 19:50:36.618477 24558 net.cpp:122] Setting up pool5
I1130 19:50:36.618484 24558 net.cpp:129] Top shape: 32 256 6 6 (294912)
I1130 19:50:36.618486 24558 net.cpp:137] Memory required for data: 216378880
I1130 19:50:36.618489 24558 layer_factory.hpp:77] Creating layer fc6
I1130 19:50:36.618500 24558 net.cpp:84] Creating Layer fc6
I1130 19:50:36.618504 24558 net.cpp:406] fc6 <- pool5
I1130 19:50:36.618508 24558 net.cpp:380] fc6 -> fc6
I1130 19:50:36.966019 24558 net.cpp:122] Setting up fc6
I1130 19:50:36.966051 24558 net.cpp:129] Top shape: 32 4096 (131072)
I1130 19:50:36.966054 24558 net.cpp:137] Memory required for data: 216903168
I1130 19:50:36.966064 24558 layer_factory.hpp:77] Creating layer relu6
I1130 19:50:36.966074 24558 net.cpp:84] Creating Layer relu6
I1130 19:50:36.966078 24558 net.cpp:406] relu6 <- fc6
I1130 19:50:36.966086 24558 net.cpp:367] relu6 -> fc6 (in-place)
I1130 19:50:36.966094 24558 net.cpp:122] Setting up relu6
I1130 19:50:36.966102 24558 net.cpp:129] Top shape: 32 4096 (131072)
I1130 19:50:36.966104 24558 net.cpp:137] Memory required for data: 217427456
I1130 19:50:36.966109 24558 layer_factory.hpp:77] Creating layer drop6
I1130 19:50:36.966116 24558 net.cpp:84] Creating Layer drop6
I1130 19:50:36.966120 24558 net.cpp:406] drop6 <- fc6
I1130 19:50:36.966123 24558 net.cpp:367] drop6 -> fc6 (in-place)
I1130 19:50:36.966150 24558 net.cpp:122] Setting up drop6
I1130 19:50:36.966156 24558 net.cpp:129] Top shape: 32 4096 (131072)
I1130 19:50:36.966158 24558 net.cpp:137] Memory required for data: 217951744
I1130 19:50:36.966161 24558 layer_factory.hpp:77] Creating layer fc7
I1130 19:50:36.966168 24558 net.cpp:84] Creating Layer fc7
I1130 19:50:36.966172 24558 net.cpp:406] fc7 <- fc6
I1130 19:50:36.966177 24558 net.cpp:380] fc7 -> fc7
I1130 19:50:37.120554 24558 net.cpp:122] Setting up fc7
I1130 19:50:37.120579 24558 net.cpp:129] Top shape: 32 4096 (131072)
I1130 19:50:37.120582 24558 net.cpp:137] Memory required for data: 218476032
I1130 19:50:37.120591 24558 layer_factory.hpp:77] Creating layer relu7
I1130 19:50:37.120601 24558 net.cpp:84] Creating Layer relu7
I1130 19:50:37.120605 24558 net.cpp:406] relu7 <- fc7
I1130 19:50:37.120611 24558 net.cpp:367] relu7 -> fc7 (in-place)
I1130 19:50:37.120622 24558 net.cpp:122] Setting up relu7
I1130 19:50:37.120626 24558 net.cpp:129] Top shape: 32 4096 (131072)
I1130 19:50:37.120628 24558 net.cpp:137] Memory required for data: 219000320
I1130 19:50:37.120632 24558 layer_factory.hpp:77] Creating layer drop7
I1130 19:50:37.120638 24558 net.cpp:84] Creating Layer drop7
I1130 19:50:37.120642 24558 net.cpp:406] drop7 <- fc7
I1130 19:50:37.120645 24558 net.cpp:367] drop7 -> fc7 (in-place)
I1130 19:50:37.120668 24558 net.cpp:122] Setting up drop7
I1130 19:50:37.120678 24558 net.cpp:129] Top shape: 32 4096 (131072)
I1130 19:50:37.120682 24558 net.cpp:137] Memory required for data: 219524608
I1130 19:50:37.120683 24558 layer_factory.hpp:77] Creating layer fc_scv_preserved
I1130 19:50:37.120692 24558 net.cpp:84] Creating Layer fc_scv_preserved
I1130 19:50:37.120694 24558 net.cpp:406] fc_scv_preserved <- fc7
I1130 19:50:37.120699 24558 net.cpp:380] fc_scv_preserved -> fc_scv_preserved
I1130 19:50:37.120808 24558 net.cpp:122] Setting up fc_scv_preserved
I1130 19:50:37.120815 24558 net.cpp:129] Top shape: 32 1 (32)
I1130 19:50:37.120818 24558 net.cpp:137] Memory required for data: 219524736
I1130 19:50:37.120823 24558 layer_factory.hpp:77] Creating layer loss
I1130 19:50:37.120829 24558 net.cpp:84] Creating Layer loss
I1130 19:50:37.120833 24558 net.cpp:406] loss <- fc_scv_preserved
I1130 19:50:37.120836 24558 net.cpp:406] loss <- label
I1130 19:50:37.120842 24558 net.cpp:380] loss -> loss
I1130 19:50:37.120872 24558 net.cpp:122] Setting up loss
…
I1130 19:50:37.122190 24558 net.cpp:294] The NetState phase (1) differed from the phase (0) specified by a rule in layer data
I1130 19:50:37.122443 24558 net.cpp:51] Initializing net from parameters: 
name: "CaffeNet-Places365-SCV-Preserved"
state {
  phase: TEST
}
layer {
  name: "data"
  type: "Data"
  top: "data"
  top: "label"
  include {
    phase: TEST
  }
  transform_param {
    mirror: false
    crop_size: 227
    mean_file: "/idiap/temp/lmedina/fine-tuning/alexnet_places365/places365CNN_mean.binaryproto"
  }
  data_param {
    source: "/idiap/temp/lmedina/fine-tuning/data/Preserved/validation_lmdb"
    batch_size: 32
    backend: LMDB
  }
}
layer {
  name: "conv1"
  type: "Convolution"
  bottom: "data"
  top: "conv1"
  param {
    lr_mult: 1
    decay_mult: 1
  }
  param {
    lr_mult: 2
    decay_mult: 0
  }
  convolution_param {
    num_output: 96
    kernel_size: 11
    stride: 4
    weight_filler {
      type: "gaussian"
      std: 0.01
    }
    bias_filler {
      type: "constant"
      value: 0
    }
  }
}
layer {
  name: "relu1"
  type: "ReLU"
  bottom: "conv1"
  top: "conv1"
}
layer {
  name: "pool1"
  type: "Pooling"
  bottom: "conv1"
  top: "pool1"
  pooling_param {
    pool: MAX
    kernel_size: 3
    stride: 2
  }
}
layer {
  name: "norm1"
  type: "LRN"
  bottom: "pool1"
  top: "norm1"
  lrn_param {
    local_size: 5
    alpha: 0.0001
    beta: 0.75
  }
}
layer {
  name: "conv2"
  type: "Convolution"
  bottom: "norm1"
  top: "conv2"
  param {
    lr_mult: 1
    decay_mult: 1
  }
  param {
    lr_mult: 2
    decay_mult: 0
  }
  convolution_param {
    num_output: 256
    pad: 2
    kernel_size: 5
    group: 2
    weight_filler {
      type: "gaussian"
      std: 0.01
    }
    bias_filler {
      type: "constant"
      value: 1
    }
  }
}
layer {
  name: "relu2"
  type: "ReLU"
  bottom: "conv2"
  top: "conv2"
}
layer {
  name: "pool2"
  type: "Pooling"
  bottom: "conv2"
  top: "pool2"
  pooling_param {
    pool: MAX
    kernel_size: 3
    stride: 2
  }
}
layer {
  name: "norm2"
  type: "LRN"
  bottom: "pool2"
  top: "norm2"
  lrn_param {
    local_size: 5
    alpha: 0.0001
    beta: 0.75
  }
}
layer {
  name: "conv3"
  type: "Convolution"
  bottom: "norm2"
  top: "conv3"
  param {
    lr_mult: 1
    decay_mult: 1
  }
  param {
    lr_mult: 2
    decay_mult: 0
  }
  convolution_param {
    num_output: 384
    pad: 1
    kernel_size: 3
    weight_filler {
      type: "gaussian"
      std: 0.01
    }
    bias_filler {
      type: "constant"
      value: 0
    }
  }
}
layer {
  name: "relu3"
  type: "ReLU"
  bottom: "conv3"
  top: "conv3"
}
layer {
  name: "conv4"
  type: "Convolution"
  bottom: "conv3"
  top: "conv4"
  param {
    lr_mult: 1
    decay_mult: 1
  }
  param {
    lr_mult: 2
    decay_mult: 0
  }
  convolution_param {
    num_output: 384
    pad: 1
    kernel_size: 3
    group: 2
    weight_filler {
      type: "gaussian"
      std: 0.01
    }
    bias_filler {
      type: "constant"
      value: 1
    }
  }
}
layer {
  name: "relu4"
  type: "ReLU"
  bottom: "conv4"
  top: "conv4"
}
layer {
  name: "conv5"
  type: "Convolution"
  bottom: "conv4"
  top: "conv5"
  param {
    lr_mult: 1
    decay_mult: 1
  }
  param {
    lr_mult: 2
    decay_mult: 0
  }
  convolution_param {
    num_output: 256
    pad: 1
    kernel_size: 3
    group: 2
    weight_filler {
      type: "gaussian"
      std: 0.01
    }
    bias_filler {
      type: "constant"
      value: 1
    }
  }
}
layer {
  name: "relu5"
  type: "ReLU"
  bottom: "conv5"
  top: "conv5"
}
layer {
  name: "pool5"
  type: "Pooling"
  bottom: "conv5"
  top: "pool5"
  pooling_param {
    pool: MAX
    kernel_size: 3
    stride: 2
  }
}
layer {
  name: "fc6"
  type: "InnerProduct"
  bottom: "pool5"
  top: "fc6"
  param {
    lr_mult: 1
    decay_mult: 1
  }
  param {
    lr_mult: 2
    decay_mult: 0
  }
  inner_product_param {
    num_output: 4096
    weight_filler {
      type: "gaussian"
      std: 0.005
    }
    bias_filler {
      type: "constant"
      value: 1
    }
  }
}
layer {
  name: "relu6"
  type: "ReLU"
  bottom: "fc6"
  top: "fc6"
}
layer {
  name: "drop6"
  type: "Dropout"
  bottom: "fc6"
  top: "fc6"
  dropout_param {
    dropout_ratio: 0.5
  }
}
layer {
  name: "fc7"
  type: "InnerProduct"
  bottom: "fc6"
  top: "fc7"
  param {
    lr_mult: 1
    decay_mult: 1
  }
  param {
    lr_mult: 2
    decay_mult: 0
  }
  inner_product_param {
    num_output: 4096
    weight_filler {
      type: "gaussian"
      std: 0.005
    }
    bias_filler {
      type: "constant"
      value: 1
    }
  }
}
layer {
  name: "relu7"
  type: "ReLU"
  bottom: "fc7"
  top: "fc7"
}
layer {
  name: "drop7"
  type: "Dropout"
  bottom: "fc7"
  top: "fc7"
  dropout_param {
    dropout_ratio: 0.5
  }
}
layer {
  name: "fc_scv_preserved"
  type: "InnerProduct"
  bottom: "fc7"
  top: "fc_scv_preserved"
  param {
    lr_mult: 10
    decay_mult: 1
  }
  param {
    lr_mult: 20
    decay_mult: 0
  }
  inner_product_param {
    num_output: 1
    weight_filler {
      type: "xavier"
      std: 0.01
    }
    bias_filler {
      type: "constant"
      value: 0
    }
  }
}
layer {
  name: "loss"
  type: "EuclideanLoss"
  bottom: "fc_scv_preserved"
  bottom: "label"
  top: "loss"
}
layer {
  name: "losttest"
  type: "EuclideanLoss"
  bottom: "fc_scv_preserved"
  bottom: "label"
  top: "losttest"
  include {
    phase: TEST
  }
}
I1130 19:50:37.122596 24558 layer_factory.hpp:77] Creating layer data
I1130 19:50:37.141409 24558 db_lmdb.cpp:35] Opened lmdb /idiap/temp/lmedina/fine-tuning/data/Preserved/validation_lmdb
I1130 19:50:37.146929 24558 net.cpp:84] Creating Layer data
I1130 19:50:37.146944 24558 net.cpp:380] data -> data
I1130 19:50:37.146953 24558 net.cpp:380] data -> label
I1130 19:50:37.146960 24558 data_transformer.cpp:25] Loading mean file from: /idiap/temp/lmedina/fine-tuning/alexnet_places365/places365CNN_mean.binaryproto
I1130 19:50:37.153225 24558 data_layer.cpp:45] output data size: 32,3,227,227
I1130 19:50:37.196372 24558 net.cpp:122] Setting up data
I1130 19:50:37.196408 24558 net.cpp:129] Top shape: 32 3 227 227 (4946784)
I1130 19:50:37.196414 24558 net.cpp:129] Top shape: 32 (32)
I1130 19:50:37.196418 24558 net.cpp:137] Memory required for data: 19787264
I1130 19:50:37.196424 24558 layer_factory.hpp:77] Creating layer label_data_1_split
I1130 19:50:37.196440 24558 net.cpp:84] Creating Layer label_data_1_split
I1130 19:50:37.196446 24558 net.cpp:406] label_data_1_split <- label
I1130 19:50:37.196460 24558 net.cpp:380] label_data_1_split -> label_data_1_split_0
I1130 19:50:37.196475 24558 net.cpp:380] label_data_1_split -> label_data_1_split_1
I1130 19:50:37.196557 24558 net.cpp:122] Setting up label_data_1_split
I1130 19:50:37.196566 24558 net.cpp:129] Top shape: 32 (32)
I1130 19:50:37.196571 24558 net.cpp:129] Top shape: 32 (32)
I1130 19:50:37.196576 24558 net.cpp:137] Memory required for data: 19787520
I1130 19:50:37.196581 24558 layer_factory.hpp:77] Creating layer conv1
I1130 19:50:37.196597 24558 net.cpp:84] Creating Layer conv1
I1130 19:50:37.196604 24558 net.cpp:406] conv1 <- data
I1130 19:50:37.196610 24558 net.cpp:380] conv1 -> conv1
I1130 19:50:37.197289 24558 net.cpp:122] Setting up conv1
I1130 19:50:37.197301 24558 net.cpp:129] Top shape: 32 96 55 55 (9292800)
I1130 19:50:37.197304 24558 net.cpp:137] Memory required for data: 56958720
I1130 19:50:37.197317 24558 layer_factory.hpp:77] Creating layer relu1
I1130 19:50:37.197324 24558 net.cpp:84] Creating Layer relu1
I1130 19:50:37.197329 24558 net.cpp:406] relu1 <- conv1
I1130 19:50:37.197335 24558 net.cpp:367] relu1 -> conv1 (in-place)
I1130 19:50:37.197343 24558 net.cpp:122] Setting up relu1
I1130 19:50:37.197350 24558 net.cpp:129] Top shape: 32 96 55 55 (9292800)
I1130 19:50:37.197353 24558 net.cpp:137] Memory required for data: 94129920
I1130 19:50:37.197357 24558 layer_factory.hpp:77] Creating layer pool1
I1130 19:50:37.197365 24558 net.cpp:84] Creating Layer pool1
I1130 19:50:37.197369 24558 net.cpp:406] pool1 <- conv1
I1130 19:50:37.197374 24558 net.cpp:380] pool1 -> pool1
I1130 19:50:37.197433 24558 net.cpp:122] Setting up pool1
I1130 19:50:37.197443 24558 net.cpp:129] Top shape: 32 96 27 27 (2239488)
I1130 19:50:37.197446 24558 net.cpp:137] Memory required for data: 103087872
I1130 19:50:37.197450 24558 layer_factory.hpp:77] Creating layer norm1
I1130 19:50:37.197458 24558 net.cpp:84] Creating Layer norm1
I1130 19:50:37.197463 24558 net.cpp:406] norm1 <- pool1
I1130 19:50:37.197469 24558 net.cpp:380] norm1 -> norm1
I1130 19:50:37.197506 24558 net.cpp:122] Setting up norm1
I1130 19:50:37.197515 24558 net.cpp:129] Top shape: 32 96 27 27 (2239488)
I1130 19:50:37.197518 24558 net.cpp:137] Memory required for data: 112045824
I1130 19:50:37.197522 24558 layer_factory.hpp:77] Creating layer conv2
I1130 19:50:37.197532 24558 net.cpp:84] Creating Layer conv2
I1130 19:50:37.197536 24558 net.cpp:406] conv2 <- norm1
I1130 19:50:37.197547 24558 net.cpp:380] conv2 -> conv2
I1130 19:50:37.203760 24558 net.cpp:122] Setting up conv2
I1130 19:50:37.203783 24558 net.cpp:129] Top shape: 32 256 27 27 (5971968)
I1130 19:50:37.203786 24558 net.cpp:137] Memory required for data: 135933696
I1130 19:50:37.203802 24558 layer_factory.hpp:77] Creating layer relu2
I1130 19:50:37.203812 24558 net.cpp:84] Creating Layer relu2
I1130 19:50:37.203817 24558 net.cpp:406] relu2 <- conv2
I1130 19:50:37.203826 24558 net.cpp:367] relu2 -> conv2 (in-place)
I1130 19:50:37.203836 24558 net.cpp:122] Setting up relu2
I1130 19:50:37.203841 24558 net.cpp:129] Top shape: 32 256 27 27 (5971968)
I1130 19:50:37.203846 24558 net.cpp:137] Memory required for data: 159821568
I1130 19:50:37.203850 24558 layer_factory.hpp:77] Creating layer pool2
I1130 19:50:37.203858 24558 net.cpp:84] Creating Layer pool2
I1130 19:50:37.203863 24558 net.cpp:406] pool2 <- conv2
I1130 19:50:37.203869 24558 net.cpp:380] pool2 -> pool2
I1130 19:50:37.203912 24558 net.cpp:122] Setting up pool2
I1130 19:50:37.203922 24558 net.cpp:129] Top shape: 32 256 13 13 (1384448)
I1130 19:50:37.203925 24558 net.cpp:137] Memory required for data: 165359360
I1130 19:50:37.203929 24558 layer_factory.hpp:77] Creating layer norm2
I1130 19:50:37.203936 24558 net.cpp:84] Creating Layer norm2
I1130 19:50:37.203940 24558 net.cpp:406] norm2 <- pool2
I1130 19:50:37.203946 24558 net.cpp:380] norm2 -> norm2
I1130 19:50:37.203980 24558 net.cpp:122] Setting up norm2
I1130 19:50:37.203989 24558 net.cpp:129] Top shape: 32 256 13 13 (1384448)
I1130 19:50:37.203992 24558 net.cpp:137] Memory required for data: 170897152
I1130 19:50:37.203996 24558 layer_factory.hpp:77] Creating layer conv3
I1130 19:50:37.204006 24558 net.cpp:84] Creating Layer conv3
I1130 19:50:37.204011 24558 net.cpp:406] conv3 <- norm2
I1130 19:50:37.204018 24558 net.cpp:380] conv3 -> conv3
I1130 19:50:37.215140 24558 net.cpp:122] Setting up conv3
I1130 19:50:37.215159 24558 net.cpp:129] Top shape: 32 384 13 13 (2076672)
I1130 19:50:37.215163 24558 net.cpp:137] Memory required for data: 179203840
I1130 19:50:37.215179 24558 layer_factory.hpp:77] Creating layer relu3
I1130 19:50:37.215188 24558 net.cpp:84] Creating Layer relu3
I1130 19:50:37.215193 24558 net.cpp:406] relu3 <- conv3
I1130 19:50:37.215201 24558 net.cpp:367] relu3 -> conv3 (in-place)
I1130 19:50:37.215211 24558 net.cpp:122] Setting up relu3
I1130 19:50:37.215216 24558 net.cpp:129] Top shape: 32 384 13 13 (2076672)
I1130 19:50:37.215220 24558 net.cpp:137] Memory required for data: 187510528
I1130 19:50:37.215224 24558 layer_factory.hpp:77] Creating layer conv4
I1130 19:50:37.215234 24558 net.cpp:84] Creating Layer conv4
I1130 19:50:37.215240 24558 net.cpp:406] conv4 <- conv3
I1130 19:50:37.215245 24558 net.cpp:380] conv4 -> conv4
I1130 19:50:37.223367 24558 net.cpp:122] Setting up conv4
I1130 19:50:37.223390 24558 net.cpp:129] Top shape: 32 384 13 13 (2076672)
I1130 19:50:37.223394 24558 net.cpp:137] Memory required for data: 195817216
I1130 19:50:37.223403 24558 layer_factory.hpp:77] Creating layer relu4
I1130 19:50:37.223412 24558 net.cpp:84] Creating Layer relu4
I1130 19:50:37.223418 24558 net.cpp:406] relu4 <- conv4
I1130 19:50:37.223428 24558 net.cpp:367] relu4 -> conv4 (in-place)
I1130 19:50:37.223438 24558 net.cpp:122] Setting up relu4
I1130 19:50:37.223443 24558 net.cpp:129] Top shape: 32 384 13 13 (2076672)
I1130 19:50:37.223448 24558 net.cpp:137] Memory required for data: 204123904
I1130 19:50:37.223450 24558 layer_factory.hpp:77] Creating layer conv5
I1130 19:50:37.223461 24558 net.cpp:84] Creating Layer conv5
I1130 19:50:37.223465 24558 net.cpp:406] conv5 <- conv4
I1130 19:50:37.223471 24558 net.cpp:380] conv5 -> conv5
I1130 19:50:37.228765 24558 net.cpp:122] Setting up conv5
I1130 19:50:37.228777 24558 net.cpp:129] Top shape: 32 256 13 13 (1384448)
I1130 19:50:37.228781 24558 net.cpp:137] Memory required for data: 209661696
I1130 19:50:37.228792 24558 layer_factory.hpp:77] Creating layer relu5
I1130 19:50:37.228798 24558 net.cpp:84] Creating Layer relu5
I1130 19:50:37.228802 24558 net.cpp:406] relu5 <- conv5
I1130 19:50:37.228811 24558 net.cpp:367] relu5 -> conv5 (in-place)
I1130 19:50:37.228817 24558 net.cpp:122] Setting up relu5
I1130 19:50:37.228822 24558 net.cpp:129] Top shape: 32 256 13 13 (1384448)
I1130 19:50:37.228824 24558 net.cpp:137] Memory required for data: 215199488
I1130 19:50:37.228827 24558 layer_factory.hpp:77] Creating layer pool5
I1130 19:50:37.228834 24558 net.cpp:84] Creating Layer pool5
I1130 19:50:37.228837 24558 net.cpp:406] pool5 <- conv5
I1130 19:50:37.228842 24558 net.cpp:380] pool5 -> pool5
I1130 19:50:37.228873 24558 net.cpp:122] Setting up pool5
I1130 19:50:37.228879 24558 net.cpp:129] Top shape: 32 256 6 6 (294912)
I1130 19:50:37.228883 24558 net.cpp:137] Memory required for data: 216379136
I1130 19:50:37.228885 24558 layer_factory.hpp:77] Creating layer fc6
I1130 19:50:37.228893 24558 net.cpp:84] Creating Layer fc6
I1130 19:50:37.228896 24558 net.cpp:406] fc6 <- pool5
I1130 19:50:37.228900 24558 net.cpp:380] fc6 -> fc6
I1130 19:50:37.580206 24558 net.cpp:122] Setting up fc6
I1130 19:50:37.580238 24558 net.cpp:129] Top shape: 32 4096 (131072)
I1130 19:50:37.580241 24558 net.cpp:137] Memory required for data: 216903424
I1130 19:50:37.580252 24558 layer_factory.hpp:77] Creating layer relu6
I1130 19:50:37.580262 24558 net.cpp:84] Creating Layer relu6
I1130 19:50:37.580266 24558 net.cpp:406] relu6 <- fc6
I1130 19:50:37.580273 24558 net.cpp:367] relu6 -> fc6 (in-place)
I1130 19:50:37.580282 24558 net.cpp:122] Setting up relu6
I1130 19:50:37.580289 24558 net.cpp:129] Top shape: 32 4096 (131072)
I1130 19:50:37.580292 24558 net.cpp:137] Memory required for data: 217427712
I1130 19:50:37.580296 24558 layer_factory.hpp:77] Creating layer drop6
I1130 19:50:37.580302 24558 net.cpp:84] Creating Layer drop6
I1130 19:50:37.580305 24558 net.cpp:406] drop6 <- fc6
I1130 19:50:37.580309 24558 net.cpp:367] drop6 -> fc6 (in-place)
I1130 19:50:37.580333 24558 net.cpp:122] Setting up drop6
I1130 19:50:37.580338 24558 net.cpp:129] Top shape: 32 4096 (131072)
I1130 19:50:37.580341 24558 net.cpp:137] Memory required for data: 217952000
I1130 19:50:37.580344 24558 layer_factory.hpp:77] Creating layer fc7
I1130 19:50:37.580351 24558 net.cpp:84] Creating Layer fc7
I1130 19:50:37.580354 24558 net.cpp:406] fc7 <- fc6
I1130 19:50:37.580359 24558 net.cpp:380] fc7 -> fc7
I1130 19:50:37.734102 24558 net.cpp:122] Setting up fc7
I1130 19:50:37.734129 24558 net.cpp:129] Top shape: 32 4096 (131072)
I1130 19:50:37.734133 24558 net.cpp:137] Memory required for data: 218476288
I1130 19:50:37.734143 24558 layer_factory.hpp:77] Creating layer relu7
I1130 19:50:37.734153 24558 net.cpp:84] Creating Layer relu7
I1130 19:50:37.734158 24558 net.cpp:406] relu7 <- fc7
I1130 19:50:37.734164 24558 net.cpp:367] relu7 -> fc7 (in-place)
I1130 19:50:37.734176 24558 net.cpp:122] Setting up relu7
I1130 19:50:37.734180 24558 net.cpp:129] Top shape: 32 4096 (131072)
I1130 19:50:37.734184 24558 net.cpp:137] Memory required for data: 219000576
I1130 19:50:37.734186 24558 layer_factory.hpp:77] Creating layer drop7
I1130 19:50:37.734194 24558 net.cpp:84] Creating Layer drop7
I1130 19:50:37.734196 24558 net.cpp:406] drop7 <- fc7
I1130 19:50:37.734200 24558 net.cpp:367] drop7 -> fc7 (in-place)
I1130 19:50:37.734223 24558 net.cpp:122] Setting up drop7
I1130 19:50:37.734230 24558 net.cpp:129] Top shape: 32 4096 (131072)
I1130 19:50:37.734232 24558 net.cpp:137] Memory required for data: 219524864
I1130 19:50:37.734236 24558 layer_factory.hpp:77] Creating layer fc_scv_preserved
I1130 19:50:37.734243 24558 net.cpp:84] Creating Layer fc_scv_preserved
I1130 19:50:37.734246 24558 net.cpp:406] fc_scv_preserved <- fc7
I1130 19:50:37.734251 24558 net.cpp:380] fc_scv_preserved -> fc_scv_preserved
I1130 19:50:37.734352 24558 net.cpp:122] Setting up fc_scv_preserved
I1130 19:50:37.734359 24558 net.cpp:129] Top shape: 32 1 (32)
I1130 19:50:37.734362 24558 net.cpp:137] Memory required for data: 219524992
I1130 19:50:37.734367 24558 layer_factory.hpp:77] Creating layer fc_scv_preserved_fc_scv_preserved_0_split
I1130 19:50:37.734374 24558 net.cpp:84] Creating Layer fc_scv_preserved_fc_scv_preserved_0_split
I1130 19:50:37.734382 24558 net.cpp:406] fc_scv_preserved_fc_scv_preserved_0_split <- fc_scv_preserved
I1130 19:50:37.734388 24558 net.cpp:380] fc_scv_preserved_fc_scv_preserved_0_split -> fc_scv_preserved_fc_scv_preserved_0_split_0
I1130 19:50:37.734395 24558 net.cpp:380] fc_scv_preserved_fc_scv_preserved_0_split -> fc_scv_preserved_fc_scv_preserved_0_split_1
I1130 19:50:37.734422 24558 net.cpp:122] Setting up fc_scv_preserved_fc_scv_preserved_0_split
I1130 19:50:37.734428 24558 net.cpp:129] Top shape: 32 1 (32)
I1130 19:50:37.734432 24558 net.cpp:129] Top shape: 32 1 (32)
I1130 19:50:37.734436 24558 net.cpp:137] Memory required for data: 219525248
I1130 19:50:37.734438 24558 layer_factory.hpp:77] Creating layer loss
I1130 19:50:37.734444 24558 net.cpp:84] Creating Layer loss
I1130 19:50:37.734447 24558 net.cpp:406] loss <- fc_scv_preserved_fc_scv_preserved_0_split_0
I1130 19:50:37.734452 24558 net.cpp:406] loss <- label_data_1_split_0
I1130 19:50:37.734455 24558 net.cpp:380] loss -> loss
…
