…
I1130 18:32:36.620198 21566 net.cpp:294] The NetState phase (0) differed from the phase (1) specified by a rule in layer losttest
I1130 18:32:36.620359 21566 net.cpp:51] Initializing net from parameters: 
name: "CaffeNet-Places365-SCV-Dirty"
state {
  phase: TRAIN
  level: 0
  stage: ""
}
layer {
  name: "data"
  type: "Data"
  top: "data"
  top: "label"
  include {
    phase: TRAIN
  }
  transform_param {
    mirror: true
    crop_size: 227
    mean_file: "/idiap/temp/lmedina/fine-tuning/alexnet_places365/places365CNN_mean.binaryproto"
  }
  data_param {
    source: "/idiap/temp/lmedina/fine-tuning/data/Dirty/train_lmdb"
    batch_size: 32
    backend: LMDB
  }
}
layer {
  name: "conv1"
  type: "Convolution"
  bottom: "data"
  top: "conv1"
  param {
    lr_mult: 1
    decay_mult: 1
  }
  param {
    lr_mult: 2
    decay_mult: 0
  }
  convolution_param {
    num_output: 96
    kernel_size: 11
    stride: 4
    weight_filler {
      type: "gaussian"
      std: 0.01
    }
    bias_filler {
      type: "constant"
      value: 0
    }
  }
}
layer {
  name: "relu1"
  type: "ReLU"
  bottom: "conv1"
  top: "conv1"
}
layer {
  name: "pool1"
  type: "Pooling"
  bottom: "conv1"
  top: "pool1"
  pooling_param {
    pool: MAX
    kernel_size: 3
    stride: 2
  }
}
layer {
  name: "norm1"
  type: "LRN"
  bottom: "pool1"
  top: "norm1"
  lrn_param {
    local_size: 5
    alpha: 0.0001
    beta: 0.75
  }
}
layer {
  name: "conv2"
  type: "Convolution"
  bottom: "norm1"
  top: "conv2"
  param {
    lr_mult: 1
    decay_mult: 1
  }
  param {
    lr_mult: 2
    decay_mult: 0
  }
  convolution_param {
    num_output: 256
    pad: 2
    kernel_size: 5
    group: 2
    weight_filler {
      type: "gaussian"
      std: 0.01
    }
    bias_filler {
      type: "constant"
      value: 1
    }
  }
}
layer {
  name: "relu2"
  type: "ReLU"
  bottom: "conv2"
  top: "conv2"
}
layer {
  name: "pool2"
  type: "Pooling"
  bottom: "conv2"
  top: "pool2"
  pooling_param {
    pool: MAX
    kernel_size: 3
    stride: 2
  }
}
layer {
  name: "norm2"
  type: "LRN"
  bottom: "pool2"
  top: "norm2"
  lrn_param {
    local_size: 5
    alpha: 0.0001
    beta: 0.75
  }
}
layer {
  name: "conv3"
  type: "Convolution"
  bottom: "norm2"
  top: "conv3"
  param {
    lr_mult: 1
    decay_mult: 1
  }
  param {
    lr_mult: 2
    decay_mult: 0
  }
  convolution_param {
    num_output: 384
    pad: 1
    kernel_size: 3
    weight_filler {
      type: "gaussian"
      std: 0.01
    }
    bias_filler {
      type: "constant"
      value: 0
    }
  }
}
layer {
  name: "relu3"
  type: "ReLU"
  bottom: "conv3"
  top: "conv3"
}
layer {
  name: "conv4"
  type: "Convolution"
  bottom: "conv3"
  top: "conv4"
  param {
    lr_mult: 1
    decay_mult: 1
  }
  param {
    lr_mult: 2
    decay_mult: 0
  }
  convolution_param {
    num_output: 384
    pad: 1
    kernel_size: 3
    group: 2
    weight_filler {
      type: "gaussian"
      std: 0.01
    }
    bias_filler {
      type: "constant"
      value: 1
    }
  }
}
layer {
  name: "relu4"
  type: "ReLU"
  bottom: "conv4"
  top: "conv4"
}
layer {
  name: "conv5"
  type: "Convolution"
  bottom: "conv4"
  top: "conv5"
  param {
    lr_mult: 1
    decay_mult: 1
  }
  param {
    lr_mult: 2
    decay_mult: 0
  }
  convolution_param {
    num_output: 256
    pad: 1
    kernel_size: 3
    group: 2
    weight_filler {
      type: "gaussian"
      std: 0.01
    }
    bias_filler {
      type: "constant"
      value: 1
    }
  }
}
layer {
  name: "relu5"
  type: "ReLU"
  bottom: "conv5"
  top: "conv5"
}
layer {
  name: "pool5"
  type: "Pooling"
  bottom: "conv5"
  top: "pool5"
  pooling_param {
    pool: MAX
    kernel_size: 3
    stride: 2
  }
}
layer {
  name: "fc6"
  type: "InnerProduct"
  bottom: "pool5"
  top: "fc6"
  param {
    lr_mult: 1
    decay_mult: 1
  }
  param {
    lr_mult: 2
    decay_mult: 0
  }
  inner_product_param {
    num_output: 4096
    weight_filler {
      type: "gaussian"
      std: 0.005
    }
    bias_filler {
      type: "constant"
      value: 1
    }
  }
}
layer {
  name: "relu6"
  type: "ReLU"
  bottom: "fc6"
  top: "fc6"
}
layer {
  name: "drop6"
  type: "Dropout"
  bottom: "fc6"
  top: "fc6"
  dropout_param {
    dropout_ratio: 0.5
  }
}
layer {
  name: "fc7"
  type: "InnerProduct"
  bottom: "fc6"
  top: "fc7"
  param {
    lr_mult: 1
    decay_mult: 1
  }
  param {
    lr_mult: 2
    decay_mult: 0
  }
  inner_product_param {
    num_output: 4096
    weight_filler {
      type: "gaussian"
      std: 0.005
    }
    bias_filler {
      type: "constant"
      value: 1
    }
  }
}
layer {
  name: "relu7"
  type: "ReLU"
  bottom: "fc7"
  top: "fc7"
}
layer {
  name: "drop7"
  type: "Dropout"
  bottom: "fc7"
  top: "fc7"
  dropout_param {
    dropout_ratio: 0.5
  }
}
layer {
  name: "fc_scv_dirty"
  type: "InnerProduct"
  bottom: "fc7"
  top: "fc_scv_dirty"
  param {
    lr_mult: 10
    decay_mult: 1
  }
  param {
    lr_mult: 20
    decay_mult: 0
  }
  inner_product_param {
    num_output: 1
    weight_filler {
      type: "xavier"
      std: 0.01
    }
    bias_filler {
      type: "constant"
      value: 0
    }
  }
}
layer {
  name: "loss"
  type: "EuclideanLoss"
  bottom: "fc_scv_dirty"
  bottom: "label"
  top: "loss"
}
I1130 18:32:36.620450 21566 layer_factory.hpp:77] Creating layer data
I1130 18:32:36.638407 21566 db_lmdb.cpp:35] Opened lmdb /idiap/temp/lmedina/fine-tuning/data/Dirty/train_lmdb
I1130 18:32:36.638911 21566 net.cpp:84] Creating Layer data
I1130 18:32:36.638923 21566 net.cpp:380] data -> data
I1130 18:32:36.638945 21566 net.cpp:380] data -> label
I1130 18:32:36.638958 21566 data_transformer.cpp:25] Loading mean file from: /idiap/temp/lmedina/fine-tuning/alexnet_places365/places365CNN_mean.binaryproto
I1130 18:32:36.648906 21566 data_layer.cpp:45] output data size: 32,3,227,227
I1130 18:32:36.682785 21566 net.cpp:122] Setting up data
I1130 18:32:36.682819 21566 net.cpp:129] Top shape: 32 3 227 227 (4946784)
I1130 18:32:36.682824 21566 net.cpp:129] Top shape: 32 (32)
I1130 18:32:36.682827 21566 net.cpp:137] Memory required for data: 19787264
I1130 18:32:36.682837 21566 layer_factory.hpp:77] Creating layer conv1
I1130 18:32:36.682860 21566 net.cpp:84] Creating Layer conv1
I1130 18:32:36.682867 21566 net.cpp:406] conv1 <- data
I1130 18:32:36.682879 21566 net.cpp:380] conv1 -> conv1
I1130 18:32:36.684084 21566 net.cpp:122] Setting up conv1
I1130 18:32:36.684094 21566 net.cpp:129] Top shape: 32 96 55 55 (9292800)
I1130 18:32:36.684096 21566 net.cpp:137] Memory required for data: 56958464
I1130 18:32:36.684109 21566 layer_factory.hpp:77] Creating layer relu1
I1130 18:32:36.684118 21566 net.cpp:84] Creating Layer relu1
I1130 18:32:36.684120 21566 net.cpp:406] relu1 <- conv1
I1130 18:32:36.684124 21566 net.cpp:367] relu1 -> conv1 (in-place)
I1130 18:32:36.684132 21566 net.cpp:122] Setting up relu1
I1130 18:32:36.684136 21566 net.cpp:129] Top shape: 32 96 55 55 (9292800)
I1130 18:32:36.684140 21566 net.cpp:137] Memory required for data: 94129664
I1130 18:32:36.684144 21566 layer_factory.hpp:77] Creating layer pool1
I1130 18:32:36.684150 21566 net.cpp:84] Creating Layer pool1
I1130 18:32:36.684154 21566 net.cpp:406] pool1 <- conv1
I1130 18:32:36.684157 21566 net.cpp:380] pool1 -> pool1
I1130 18:32:36.685969 21566 net.cpp:122] Setting up pool1
I1130 18:32:36.685984 21566 net.cpp:129] Top shape: 32 96 27 27 (2239488)
I1130 18:32:36.685993 21566 net.cpp:137] Memory required for data: 103087616
I1130 18:32:36.685998 21566 layer_factory.hpp:77] Creating layer norm1
I1130 18:32:36.686008 21566 net.cpp:84] Creating Layer norm1
I1130 18:32:36.686012 21566 net.cpp:406] norm1 <- pool1
I1130 18:32:36.686018 21566 net.cpp:380] norm1 -> norm1
I1130 18:32:36.686048 21566 net.cpp:122] Setting up norm1
I1130 18:32:36.686055 21566 net.cpp:129] Top shape: 32 96 27 27 (2239488)
I1130 18:32:36.686058 21566 net.cpp:137] Memory required for data: 112045568
I1130 18:32:36.686061 21566 layer_factory.hpp:77] Creating layer conv2
I1130 18:32:36.686069 21566 net.cpp:84] Creating Layer conv2
I1130 18:32:36.686074 21566 net.cpp:406] conv2 <- norm1
I1130 18:32:36.686077 21566 net.cpp:380] conv2 -> conv2
I1130 18:32:36.689469 21566 net.cpp:122] Setting up conv2
I1130 18:32:36.689487 21566 net.cpp:129] Top shape: 32 256 27 27 (5971968)
I1130 18:32:36.689491 21566 net.cpp:137] Memory required for data: 135933440
I1130 18:32:36.689501 21566 layer_factory.hpp:77] Creating layer relu2
I1130 18:32:36.689508 21566 net.cpp:84] Creating Layer relu2
I1130 18:32:36.689512 21566 net.cpp:406] relu2 <- conv2
I1130 18:32:36.689517 21566 net.cpp:367] relu2 -> conv2 (in-place)
I1130 18:32:36.689525 21566 net.cpp:122] Setting up relu2
I1130 18:32:36.689529 21566 net.cpp:129] Top shape: 32 256 27 27 (5971968)
I1130 18:32:36.689532 21566 net.cpp:137] Memory required for data: 159821312
I1130 18:32:36.689535 21566 layer_factory.hpp:77] Creating layer pool2
I1130 18:32:36.689541 21566 net.cpp:84] Creating Layer pool2
I1130 18:32:36.689545 21566 net.cpp:406] pool2 <- conv2
I1130 18:32:36.689549 21566 net.cpp:380] pool2 -> pool2
I1130 18:32:36.689580 21566 net.cpp:122] Setting up pool2
I1130 18:32:36.689586 21566 net.cpp:129] Top shape: 32 256 13 13 (1384448)
I1130 18:32:36.689589 21566 net.cpp:137] Memory required for data: 165359104
I1130 18:32:36.689591 21566 layer_factory.hpp:77] Creating layer norm2
I1130 18:32:36.689599 21566 net.cpp:84] Creating Layer norm2
I1130 18:32:36.689602 21566 net.cpp:406] norm2 <- pool2
I1130 18:32:36.689606 21566 net.cpp:380] norm2 -> norm2
I1130 18:32:36.689630 21566 net.cpp:122] Setting up norm2
I1130 18:32:36.689636 21566 net.cpp:129] Top shape: 32 256 13 13 (1384448)
I1130 18:32:36.689640 21566 net.cpp:137] Memory required for data: 170896896
I1130 18:32:36.689641 21566 layer_factory.hpp:77] Creating layer conv3
I1130 18:32:36.689651 21566 net.cpp:84] Creating Layer conv3
I1130 18:32:36.689653 21566 net.cpp:406] conv3 <- norm2
I1130 18:32:36.689657 21566 net.cpp:380] conv3 -> conv3
I1130 18:32:36.697913 21566 net.cpp:122] Setting up conv3
I1130 18:32:36.697938 21566 net.cpp:129] Top shape: 32 384 13 13 (2076672)
I1130 18:32:36.697942 21566 net.cpp:137] Memory required for data: 179203584
I1130 18:32:36.697955 21566 layer_factory.hpp:77] Creating layer relu3
I1130 18:32:36.697964 21566 net.cpp:84] Creating Layer relu3
I1130 18:32:36.697969 21566 net.cpp:406] relu3 <- conv3
I1130 18:32:36.697976 21566 net.cpp:367] relu3 -> conv3 (in-place)
I1130 18:32:36.697985 21566 net.cpp:122] Setting up relu3
I1130 18:32:36.697990 21566 net.cpp:129] Top shape: 32 384 13 13 (2076672)
I1130 18:32:36.697993 21566 net.cpp:137] Memory required for data: 187510272
I1130 18:32:36.697996 21566 layer_factory.hpp:77] Creating layer conv4
I1130 18:32:36.698005 21566 net.cpp:84] Creating Layer conv4
I1130 18:32:36.698009 21566 net.cpp:406] conv4 <- conv3
I1130 18:32:36.698014 21566 net.cpp:380] conv4 -> conv4
I1130 18:32:36.705008 21566 net.cpp:122] Setting up conv4
I1130 18:32:36.705029 21566 net.cpp:129] Top shape: 32 384 13 13 (2076672)
I1130 18:32:36.705031 21566 net.cpp:137] Memory required for data: 195816960
I1130 18:32:36.705039 21566 layer_factory.hpp:77] Creating layer relu4
I1130 18:32:36.705047 21566 net.cpp:84] Creating Layer relu4
I1130 18:32:36.705052 21566 net.cpp:406] relu4 <- conv4
I1130 18:32:36.705060 21566 net.cpp:367] relu4 -> conv4 (in-place)
I1130 18:32:36.705067 21566 net.cpp:122] Setting up relu4
I1130 18:32:36.705076 21566 net.cpp:129] Top shape: 32 384 13 13 (2076672)
I1130 18:32:36.705080 21566 net.cpp:137] Memory required for data: 204123648
I1130 18:32:36.705082 21566 layer_factory.hpp:77] Creating layer conv5
I1130 18:32:36.705091 21566 net.cpp:84] Creating Layer conv5
I1130 18:32:36.705094 21566 net.cpp:406] conv5 <- conv4
I1130 18:32:36.705099 21566 net.cpp:380] conv5 -> conv5
I1130 18:32:36.709434 21566 net.cpp:122] Setting up conv5
I1130 18:32:36.709453 21566 net.cpp:129] Top shape: 32 256 13 13 (1384448)
I1130 18:32:36.709456 21566 net.cpp:137] Memory required for data: 209661440
I1130 18:32:36.709468 21566 layer_factory.hpp:77] Creating layer relu5
I1130 18:32:36.709477 21566 net.cpp:84] Creating Layer relu5
I1130 18:32:36.709481 21566 net.cpp:406] relu5 <- conv5
I1130 18:32:36.709488 21566 net.cpp:367] relu5 -> conv5 (in-place)
I1130 18:32:36.709496 21566 net.cpp:122] Setting up relu5
I1130 18:32:36.709501 21566 net.cpp:129] Top shape: 32 256 13 13 (1384448)
I1130 18:32:36.709503 21566 net.cpp:137] Memory required for data: 215199232
I1130 18:32:36.709506 21566 layer_factory.hpp:77] Creating layer pool5
I1130 18:32:36.709512 21566 net.cpp:84] Creating Layer pool5
I1130 18:32:36.709516 21566 net.cpp:406] pool5 <- conv5
I1130 18:32:36.709519 21566 net.cpp:380] pool5 -> pool5
I1130 18:32:36.709552 21566 net.cpp:122] Setting up pool5
I1130 18:32:36.709558 21566 net.cpp:129] Top shape: 32 256 6 6 (294912)
I1130 18:32:36.709560 21566 net.cpp:137] Memory required for data: 216378880
I1130 18:32:36.709563 21566 layer_factory.hpp:77] Creating layer fc6
I1130 18:32:36.709575 21566 net.cpp:84] Creating Layer fc6
I1130 18:32:36.709579 21566 net.cpp:406] fc6 <- pool5
I1130 18:32:36.709583 21566 net.cpp:380] fc6 -> fc6
I1130 18:32:37.057605 21566 net.cpp:122] Setting up fc6
I1130 18:32:37.057636 21566 net.cpp:129] Top shape: 32 4096 (131072)
I1130 18:32:37.057639 21566 net.cpp:137] Memory required for data: 216903168
I1130 18:32:37.057649 21566 layer_factory.hpp:77] Creating layer relu6
I1130 18:32:37.057662 21566 net.cpp:84] Creating Layer relu6
I1130 18:32:37.057667 21566 net.cpp:406] relu6 <- fc6
I1130 18:32:37.057675 21566 net.cpp:367] relu6 -> fc6 (in-place)
I1130 18:32:37.057684 21566 net.cpp:122] Setting up relu6
I1130 18:32:37.057688 21566 net.cpp:129] Top shape: 32 4096 (131072)
I1130 18:32:37.057693 21566 net.cpp:137] Memory required for data: 217427456
I1130 18:32:37.057694 21566 layer_factory.hpp:77] Creating layer drop6
I1130 18:32:37.057703 21566 net.cpp:84] Creating Layer drop6
I1130 18:32:37.057706 21566 net.cpp:406] drop6 <- fc6
I1130 18:32:37.057710 21566 net.cpp:367] drop6 -> fc6 (in-place)
I1130 18:32:37.057736 21566 net.cpp:122] Setting up drop6
I1130 18:32:37.057741 21566 net.cpp:129] Top shape: 32 4096 (131072)
I1130 18:32:37.057744 21566 net.cpp:137] Memory required for data: 217951744
I1130 18:32:37.057749 21566 layer_factory.hpp:77] Creating layer fc7
I1130 18:32:37.057755 21566 net.cpp:84] Creating Layer fc7
I1130 18:32:37.057759 21566 net.cpp:406] fc7 <- fc6
I1130 18:32:37.057763 21566 net.cpp:380] fc7 -> fc7
I1130 18:32:37.212393 21566 net.cpp:122] Setting up fc7
I1130 18:32:37.212420 21566 net.cpp:129] Top shape: 32 4096 (131072)
I1130 18:32:37.212424 21566 net.cpp:137] Memory required for data: 218476032
I1130 18:32:37.212433 21566 layer_factory.hpp:77] Creating layer relu7
I1130 18:32:37.212445 21566 net.cpp:84] Creating Layer relu7
I1130 18:32:37.212448 21566 net.cpp:406] relu7 <- fc7
I1130 18:32:37.212455 21566 net.cpp:367] relu7 -> fc7 (in-place)
I1130 18:32:37.212465 21566 net.cpp:122] Setting up relu7
I1130 18:32:37.212468 21566 net.cpp:129] Top shape: 32 4096 (131072)
I1130 18:32:37.212471 21566 net.cpp:137] Memory required for data: 219000320
I1130 18:32:37.212474 21566 layer_factory.hpp:77] Creating layer drop7
I1130 18:32:37.212481 21566 net.cpp:84] Creating Layer drop7
I1130 18:32:37.212484 21566 net.cpp:406] drop7 <- fc7
I1130 18:32:37.212488 21566 net.cpp:367] drop7 -> fc7 (in-place)
I1130 18:32:37.212510 21566 net.cpp:122] Setting up drop7
I1130 18:32:37.212515 21566 net.cpp:129] Top shape: 32 4096 (131072)
I1130 18:32:37.212525 21566 net.cpp:137] Memory required for data: 219524608
I1130 18:32:37.212528 21566 layer_factory.hpp:77] Creating layer fc_scv_dirty
I1130 18:32:37.212537 21566 net.cpp:84] Creating Layer fc_scv_dirty
I1130 18:32:37.212539 21566 net.cpp:406] fc_scv_dirty <- fc7
I1130 18:32:37.212544 21566 net.cpp:380] fc_scv_dirty -> fc_scv_dirty
I1130 18:32:37.212652 21566 net.cpp:122] Setting up fc_scv_dirty
I1130 18:32:37.212659 21566 net.cpp:129] Top shape: 32 1 (32)
I1130 18:32:37.212662 21566 net.cpp:137] Memory required for data: 219524736
I1130 18:32:37.212667 21566 layer_factory.hpp:77] Creating layer loss
I1130 18:32:37.212673 21566 net.cpp:84] Creating Layer loss
I1130 18:32:37.212677 21566 net.cpp:406] loss <- fc_scv_dirty
I1130 18:32:37.212680 21566 net.cpp:406] loss <- label
I1130 18:32:37.212687 21566 net.cpp:380] loss -> loss
I1130 18:32:37.212716 21566 net.cpp:122] Setting up loss
…
I1130 18:32:37.213743 21566 net.cpp:294] The NetState phase (1) differed from the phase (0) specified by a rule in layer data
I1130 18:32:37.213909 21566 net.cpp:51] Initializing net from parameters: 
name: "CaffeNet-Places365-SCV-Dirty"
state {
  phase: TEST
}
layer {
  name: "data"
  type: "Data"
  top: "data"
  top: "label"
  include {
    phase: TEST
  }
  transform_param {
    mirror: false
    crop_size: 227
    mean_file: "/idiap/temp/lmedina/fine-tuning/alexnet_places365/places365CNN_mean.binaryproto"
  }
  data_param {
    source: "/idiap/temp/lmedina/fine-tuning/data/Dirty/validation_lmdb"
    batch_size: 32
    backend: LMDB
  }
}
layer {
  name: "conv1"
  type: "Convolution"
  bottom: "data"
  top: "conv1"
  param {
    lr_mult: 1
    decay_mult: 1
  }
  param {
    lr_mult: 2
    decay_mult: 0
  }
  convolution_param {
    num_output: 96
    kernel_size: 11
    stride: 4
    weight_filler {
      type: "gaussian"
      std: 0.01
    }
    bias_filler {
      type: "constant"
      value: 0
    }
  }
}
layer {
  name: "relu1"
  type: "ReLU"
  bottom: "conv1"
  top: "conv1"
}
layer {
  name: "pool1"
  type: "Pooling"
  bottom: "conv1"
  top: "pool1"
  pooling_param {
    pool: MAX
    kernel_size: 3
    stride: 2
  }
}
layer {
  name: "norm1"
  type: "LRN"
  bottom: "pool1"
  top: "norm1"
  lrn_param {
    local_size: 5
    alpha: 0.0001
    beta: 0.75
  }
}
layer {
  name: "conv2"
  type: "Convolution"
  bottom: "norm1"
  top: "conv2"
  param {
    lr_mult: 1
    decay_mult: 1
  }
  param {
    lr_mult: 2
    decay_mult: 0
  }
  convolution_param {
    num_output: 256
    pad: 2
    kernel_size: 5
    group: 2
    weight_filler {
      type: "gaussian"
      std: 0.01
    }
    bias_filler {
      type: "constant"
      value: 1
    }
  }
}
layer {
  name: "relu2"
  type: "ReLU"
  bottom: "conv2"
  top: "conv2"
}
layer {
  name: "pool2"
  type: "Pooling"
  bottom: "conv2"
  top: "pool2"
  pooling_param {
    pool: MAX
    kernel_size: 3
    stride: 2
  }
}
layer {
  name: "norm2"
  type: "LRN"
  bottom: "pool2"
  top: "norm2"
  lrn_param {
    local_size: 5
    alpha: 0.0001
    beta: 0.75
  }
}
layer {
  name: "conv3"
  type: "Convolution"
  bottom: "norm2"
  top: "conv3"
  param {
    lr_mult: 1
    decay_mult: 1
  }
  param {
    lr_mult: 2
    decay_mult: 0
  }
  convolution_param {
    num_output: 384
    pad: 1
    kernel_size: 3
    weight_filler {
      type: "gaussian"
      std: 0.01
    }
    bias_filler {
      type: "constant"
      value: 0
    }
  }
}
layer {
  name: "relu3"
  type: "ReLU"
  bottom: "conv3"
  top: "conv3"
}
layer {
  name: "conv4"
  type: "Convolution"
  bottom: "conv3"
  top: "conv4"
  param {
    lr_mult: 1
    decay_mult: 1
  }
  param {
    lr_mult: 2
    decay_mult: 0
  }
  convolution_param {
    num_output: 384
    pad: 1
    kernel_size: 3
    group: 2
    weight_filler {
      type: "gaussian"
      std: 0.01
    }
    bias_filler {
      type: "constant"
      value: 1
    }
  }
}
layer {
  name: "relu4"
  type: "ReLU"
  bottom: "conv4"
  top: "conv4"
}
layer {
  name: "conv5"
  type: "Convolution"
  bottom: "conv4"
  top: "conv5"
  param {
    lr_mult: 1
    decay_mult: 1
  }
  param {
    lr_mult: 2
    decay_mult: 0
  }
  convolution_param {
    num_output: 256
    pad: 1
    kernel_size: 3
    group: 2
    weight_filler {
      type: "gaussian"
      std: 0.01
    }
    bias_filler {
      type: "constant"
      value: 1
    }
  }
}
layer {
  name: "relu5"
  type: "ReLU"
  bottom: "conv5"
  top: "conv5"
}
layer {
  name: "pool5"
  type: "Pooling"
  bottom: "conv5"
  top: "pool5"
  pooling_param {
    pool: MAX
    kernel_size: 3
    stride: 2
  }
}
layer {
  name: "fc6"
  type: "InnerProduct"
  bottom: "pool5"
  top: "fc6"
  param {
    lr_mult: 1
    decay_mult: 1
  }
  param {
    lr_mult: 2
    decay_mult: 0
  }
  inner_product_param {
    num_output: 4096
    weight_filler {
      type: "gaussian"
      std: 0.005
    }
    bias_filler {
      type: "constant"
      value: 1
    }
  }
}
layer {
  name: "relu6"
  type: "ReLU"
  bottom: "fc6"
  top: "fc6"
}
layer {
  name: "drop6"
  type: "Dropout"
  bottom: "fc6"
  top: "fc6"
  dropout_param {
    dropout_ratio: 0.5
  }
}
layer {
  name: "fc7"
  type: "InnerProduct"
  bottom: "fc6"
  top: "fc7"
  param {
    lr_mult: 1
    decay_mult: 1
  }
  param {
    lr_mult: 2
    decay_mult: 0
  }
  inner_product_param {
    num_output: 4096
    weight_filler {
      type: "gaussian"
      std: 0.005
    }
    bias_filler {
      type: "constant"
      value: 1
    }
  }
}
layer {
  name: "relu7"
  type: "ReLU"
  bottom: "fc7"
  top: "fc7"
}
layer {
  name: "drop7"
  type: "Dropout"
  bottom: "fc7"
  top: "fc7"
  dropout_param {
    dropout_ratio: 0.5
  }
}
layer {
  name: "fc_scv_dirty"
  type: "InnerProduct"
  bottom: "fc7"
  top: "fc_scv_dirty"
  param {
    lr_mult: 10
    decay_mult: 1
  }
  param {
    lr_mult: 20
    decay_mult: 0
  }
  inner_product_param {
    num_output: 1
    weight_filler {
      type: "xavier"
      std: 0.01
    }
    bias_filler {
      type: "constant"
      value: 0
    }
  }
}
layer {
  name: "loss"
  type: "EuclideanLoss"
  bottom: "fc_scv_dirty"
  bottom: "label"
  top: "loss"
}
layer {
  name: "losttest"
  type: "EuclideanLoss"
  bottom: "fc_scv_dirty"
  bottom: "label"
  top: "losttest"
  include {
    phase: TEST
  }
}
I1130 18:32:37.214005 21566 layer_factory.hpp:77] Creating layer data
I1130 18:32:37.217175 21566 db_lmdb.cpp:35] Opened lmdb /idiap/temp/lmedina/fine-tuning/data/Dirty/validation_lmdb
I1130 18:32:37.217803 21566 net.cpp:84] Creating Layer data
I1130 18:32:37.217815 21566 net.cpp:380] data -> data
I1130 18:32:37.217824 21566 net.cpp:380] data -> label
I1130 18:32:37.217831 21566 data_transformer.cpp:25] Loading mean file from: /idiap/temp/lmedina/fine-tuning/alexnet_places365/places365CNN_mean.binaryproto
I1130 18:32:37.219904 21566 data_layer.cpp:45] output data size: 32,3,227,227
I1130 18:32:37.261274 21566 net.cpp:122] Setting up data
I1130 18:32:37.261308 21566 net.cpp:129] Top shape: 32 3 227 227 (4946784)
I1130 18:32:37.261315 21566 net.cpp:129] Top shape: 32 (32)
I1130 18:32:37.261318 21566 net.cpp:137] Memory required for data: 19787264
I1130 18:32:37.261325 21566 layer_factory.hpp:77] Creating layer label_data_1_split
I1130 18:32:37.261351 21566 net.cpp:84] Creating Layer label_data_1_split
I1130 18:32:37.261355 21566 net.cpp:406] label_data_1_split <- label
I1130 18:32:37.261369 21566 net.cpp:380] label_data_1_split -> label_data_1_split_0
I1130 18:32:37.261380 21566 net.cpp:380] label_data_1_split -> label_data_1_split_1
I1130 18:32:37.261440 21566 net.cpp:122] Setting up label_data_1_split
I1130 18:32:37.261447 21566 net.cpp:129] Top shape: 32 (32)
I1130 18:32:37.261451 21566 net.cpp:129] Top shape: 32 (32)
I1130 18:32:37.261454 21566 net.cpp:137] Memory required for data: 19787520
I1130 18:32:37.261457 21566 layer_factory.hpp:77] Creating layer conv1
I1130 18:32:37.261471 21566 net.cpp:84] Creating Layer conv1
I1130 18:32:37.261474 21566 net.cpp:406] conv1 <- data
I1130 18:32:37.261479 21566 net.cpp:380] conv1 -> conv1
I1130 18:32:37.261970 21566 net.cpp:122] Setting up conv1
I1130 18:32:37.261977 21566 net.cpp:129] Top shape: 32 96 55 55 (9292800)
I1130 18:32:37.261981 21566 net.cpp:137] Memory required for data: 56958720
I1130 18:32:37.261989 21566 layer_factory.hpp:77] Creating layer relu1
I1130 18:32:37.261994 21566 net.cpp:84] Creating Layer relu1
I1130 18:32:37.261997 21566 net.cpp:406] relu1 <- conv1
I1130 18:32:37.262001 21566 net.cpp:367] relu1 -> conv1 (in-place)
I1130 18:32:37.262006 21566 net.cpp:122] Setting up relu1
I1130 18:32:37.262010 21566 net.cpp:129] Top shape: 32 96 55 55 (9292800)
I1130 18:32:37.262013 21566 net.cpp:137] Memory required for data: 94129920
I1130 18:32:37.262017 21566 layer_factory.hpp:77] Creating layer pool1
I1130 18:32:37.262023 21566 net.cpp:84] Creating Layer pool1
I1130 18:32:37.262027 21566 net.cpp:406] pool1 <- conv1
I1130 18:32:37.262029 21566 net.cpp:380] pool1 -> pool1
I1130 18:32:37.262105 21566 net.cpp:122] Setting up pool1
I1130 18:32:37.262112 21566 net.cpp:129] Top shape: 32 96 27 27 (2239488)
I1130 18:32:37.262115 21566 net.cpp:137] Memory required for data: 103087872
I1130 18:32:37.262118 21566 layer_factory.hpp:77] Creating layer norm1
I1130 18:32:37.262125 21566 net.cpp:84] Creating Layer norm1
I1130 18:32:37.262128 21566 net.cpp:406] norm1 <- pool1
I1130 18:32:37.262132 21566 net.cpp:380] norm1 -> norm1
I1130 18:32:37.262159 21566 net.cpp:122] Setting up norm1
I1130 18:32:37.262164 21566 net.cpp:129] Top shape: 32 96 27 27 (2239488)
I1130 18:32:37.262167 21566 net.cpp:137] Memory required for data: 112045824
I1130 18:32:37.262171 21566 layer_factory.hpp:77] Creating layer conv2
I1130 18:32:37.262178 21566 net.cpp:84] Creating Layer conv2
I1130 18:32:37.262181 21566 net.cpp:406] conv2 <- norm1
I1130 18:32:37.262187 21566 net.cpp:380] conv2 -> conv2
I1130 18:32:37.267096 21566 net.cpp:122] Setting up conv2
I1130 18:32:37.267117 21566 net.cpp:129] Top shape: 32 256 27 27 (5971968)
I1130 18:32:37.267120 21566 net.cpp:137] Memory required for data: 135933696
I1130 18:32:37.267132 21566 layer_factory.hpp:77] Creating layer relu2
I1130 18:32:37.267139 21566 net.cpp:84] Creating Layer relu2
I1130 18:32:37.267143 21566 net.cpp:406] relu2 <- conv2
I1130 18:32:37.267149 21566 net.cpp:367] relu2 -> conv2 (in-place)
I1130 18:32:37.267158 21566 net.cpp:122] Setting up relu2
I1130 18:32:37.267161 21566 net.cpp:129] Top shape: 32 256 27 27 (5971968)
I1130 18:32:37.267164 21566 net.cpp:137] Memory required for data: 159821568
I1130 18:32:37.267166 21566 layer_factory.hpp:77] Creating layer pool2
I1130 18:32:37.267174 21566 net.cpp:84] Creating Layer pool2
I1130 18:32:37.267176 21566 net.cpp:406] pool2 <- conv2
I1130 18:32:37.267180 21566 net.cpp:380] pool2 -> pool2
I1130 18:32:37.267213 21566 net.cpp:122] Setting up pool2
I1130 18:32:37.267220 21566 net.cpp:129] Top shape: 32 256 13 13 (1384448)
I1130 18:32:37.267222 21566 net.cpp:137] Memory required for data: 165359360
I1130 18:32:37.267225 21566 layer_factory.hpp:77] Creating layer norm2
I1130 18:32:37.267231 21566 net.cpp:84] Creating Layer norm2
I1130 18:32:37.267235 21566 net.cpp:406] norm2 <- pool2
I1130 18:32:37.267238 21566 net.cpp:380] norm2 -> norm2
I1130 18:32:37.267264 21566 net.cpp:122] Setting up norm2
I1130 18:32:37.267269 21566 net.cpp:129] Top shape: 32 256 13 13 (1384448)
I1130 18:32:37.267272 21566 net.cpp:137] Memory required for data: 170897152
I1130 18:32:37.267276 21566 layer_factory.hpp:77] Creating layer conv3
I1130 18:32:37.267284 21566 net.cpp:84] Creating Layer conv3
I1130 18:32:37.267287 21566 net.cpp:406] conv3 <- norm2
I1130 18:32:37.267292 21566 net.cpp:380] conv3 -> conv3
I1130 18:32:37.276962 21566 net.cpp:122] Setting up conv3
I1130 18:32:37.276989 21566 net.cpp:129] Top shape: 32 384 13 13 (2076672)
I1130 18:32:37.276993 21566 net.cpp:137] Memory required for data: 179203840
I1130 18:32:37.277007 21566 layer_factory.hpp:77] Creating layer relu3
I1130 18:32:37.277017 21566 net.cpp:84] Creating Layer relu3
I1130 18:32:37.277022 21566 net.cpp:406] relu3 <- conv3
I1130 18:32:37.277029 21566 net.cpp:367] relu3 -> conv3 (in-place)
I1130 18:32:37.277040 21566 net.cpp:122] Setting up relu3
I1130 18:32:37.277043 21566 net.cpp:129] Top shape: 32 384 13 13 (2076672)
I1130 18:32:37.277047 21566 net.cpp:137] Memory required for data: 187510528
I1130 18:32:37.277050 21566 layer_factory.hpp:77] Creating layer conv4
I1130 18:32:37.277060 21566 net.cpp:84] Creating Layer conv4
I1130 18:32:37.277063 21566 net.cpp:406] conv4 <- conv3
I1130 18:32:37.277068 21566 net.cpp:380] conv4 -> conv4
I1130 18:32:37.284569 21566 net.cpp:122] Setting up conv4
I1130 18:32:37.284590 21566 net.cpp:129] Top shape: 32 384 13 13 (2076672)
I1130 18:32:37.284595 21566 net.cpp:137] Memory required for data: 195817216
I1130 18:32:37.284602 21566 layer_factory.hpp:77] Creating layer relu4
I1130 18:32:37.284611 21566 net.cpp:84] Creating Layer relu4
I1130 18:32:37.284616 21566 net.cpp:406] relu4 <- conv4
I1130 18:32:37.284624 21566 net.cpp:367] relu4 -> conv4 (in-place)
I1130 18:32:37.284632 21566 net.cpp:122] Setting up relu4
I1130 18:32:37.284637 21566 net.cpp:129] Top shape: 32 384 13 13 (2076672)
I1130 18:32:37.284641 21566 net.cpp:137] Memory required for data: 204123904
I1130 18:32:37.284643 21566 layer_factory.hpp:77] Creating layer conv5
I1130 18:32:37.284653 21566 net.cpp:84] Creating Layer conv5
I1130 18:32:37.284657 21566 net.cpp:406] conv5 <- conv4
I1130 18:32:37.284662 21566 net.cpp:380] conv5 -> conv5
I1130 18:32:37.289255 21566 net.cpp:122] Setting up conv5
I1130 18:32:37.289279 21566 net.cpp:129] Top shape: 32 256 13 13 (1384448)
I1130 18:32:37.289283 21566 net.cpp:137] Memory required for data: 209661696
I1130 18:32:37.289294 21566 layer_factory.hpp:77] Creating layer relu5
I1130 18:32:37.289304 21566 net.cpp:84] Creating Layer relu5
I1130 18:32:37.289309 21566 net.cpp:406] relu5 <- conv5
I1130 18:32:37.289314 21566 net.cpp:367] relu5 -> conv5 (in-place)
I1130 18:32:37.289324 21566 net.cpp:122] Setting up relu5
I1130 18:32:37.289333 21566 net.cpp:129] Top shape: 32 256 13 13 (1384448)
I1130 18:32:37.289336 21566 net.cpp:137] Memory required for data: 215199488
I1130 18:32:37.289340 21566 layer_factory.hpp:77] Creating layer pool5
I1130 18:32:37.289347 21566 net.cpp:84] Creating Layer pool5
I1130 18:32:37.289350 21566 net.cpp:406] pool5 <- conv5
I1130 18:32:37.289355 21566 net.cpp:380] pool5 -> pool5
I1130 18:32:37.289391 21566 net.cpp:122] Setting up pool5
I1130 18:32:37.289397 21566 net.cpp:129] Top shape: 32 256 6 6 (294912)
I1130 18:32:37.289399 21566 net.cpp:137] Memory required for data: 216379136
I1130 18:32:37.289402 21566 layer_factory.hpp:77] Creating layer fc6
I1130 18:32:37.289410 21566 net.cpp:84] Creating Layer fc6
I1130 18:32:37.289413 21566 net.cpp:406] fc6 <- pool5
I1130 18:32:37.289418 21566 net.cpp:380] fc6 -> fc6
I1130 18:32:37.637277 21566 net.cpp:122] Setting up fc6
I1130 18:32:37.637306 21566 net.cpp:129] Top shape: 32 4096 (131072)
I1130 18:32:37.637310 21566 net.cpp:137] Memory required for data: 216903424
I1130 18:32:37.637320 21566 layer_factory.hpp:77] Creating layer relu6
I1130 18:32:37.637331 21566 net.cpp:84] Creating Layer relu6
I1130 18:32:37.637336 21566 net.cpp:406] relu6 <- fc6
I1130 18:32:37.637343 21566 net.cpp:367] relu6 -> fc6 (in-place)
I1130 18:32:37.637352 21566 net.cpp:122] Setting up relu6
I1130 18:32:37.637356 21566 net.cpp:129] Top shape: 32 4096 (131072)
I1130 18:32:37.637361 21566 net.cpp:137] Memory required for data: 217427712
I1130 18:32:37.637362 21566 layer_factory.hpp:77] Creating layer drop6
I1130 18:32:37.637368 21566 net.cpp:84] Creating Layer drop6
I1130 18:32:37.637372 21566 net.cpp:406] drop6 <- fc6
I1130 18:32:37.637374 21566 net.cpp:367] drop6 -> fc6 (in-place)
I1130 18:32:37.637398 21566 net.cpp:122] Setting up drop6
I1130 18:32:37.637404 21566 net.cpp:129] Top shape: 32 4096 (131072)
I1130 18:32:37.637408 21566 net.cpp:137] Memory required for data: 217952000
I1130 18:32:37.637410 21566 layer_factory.hpp:77] Creating layer fc7
I1130 18:32:37.637418 21566 net.cpp:84] Creating Layer fc7
I1130 18:32:37.637420 21566 net.cpp:406] fc7 <- fc6
I1130 18:32:37.637425 21566 net.cpp:380] fc7 -> fc7
I1130 18:32:37.791445 21566 net.cpp:122] Setting up fc7
I1130 18:32:37.791473 21566 net.cpp:129] Top shape: 32 4096 (131072)
I1130 18:32:37.791476 21566 net.cpp:137] Memory required for data: 218476288
I1130 18:32:37.791486 21566 layer_factory.hpp:77] Creating layer relu7
I1130 18:32:37.791497 21566 net.cpp:84] Creating Layer relu7
I1130 18:32:37.791502 21566 net.cpp:406] relu7 <- fc7
I1130 18:32:37.791509 21566 net.cpp:367] relu7 -> fc7 (in-place)
I1130 18:32:37.791518 21566 net.cpp:122] Setting up relu7
I1130 18:32:37.791523 21566 net.cpp:129] Top shape: 32 4096 (131072)
I1130 18:32:37.791527 21566 net.cpp:137] Memory required for data: 219000576
I1130 18:32:37.791529 21566 layer_factory.hpp:77] Creating layer drop7
I1130 18:32:37.791535 21566 net.cpp:84] Creating Layer drop7
I1130 18:32:37.791538 21566 net.cpp:406] drop7 <- fc7
I1130 18:32:37.791541 21566 net.cpp:367] drop7 -> fc7 (in-place)
I1130 18:32:37.791566 21566 net.cpp:122] Setting up drop7
I1130 18:32:37.791571 21566 net.cpp:129] Top shape: 32 4096 (131072)
I1130 18:32:37.791574 21566 net.cpp:137] Memory required for data: 219524864
I1130 18:32:37.791577 21566 layer_factory.hpp:77] Creating layer fc_scv_dirty
I1130 18:32:37.791585 21566 net.cpp:84] Creating Layer fc_scv_dirty
I1130 18:32:37.791589 21566 net.cpp:406] fc_scv_dirty <- fc7
I1130 18:32:37.791594 21566 net.cpp:380] fc_scv_dirty -> fc_scv_dirty
I1130 18:32:37.791694 21566 net.cpp:122] Setting up fc_scv_dirty
I1130 18:32:37.791702 21566 net.cpp:129] Top shape: 32 1 (32)
I1130 18:32:37.791705 21566 net.cpp:137] Memory required for data: 219524992
I1130 18:32:37.791714 21566 layer_factory.hpp:77] Creating layer fc_scv_dirty_fc_scv_dirty_0_split
I1130 18:32:37.791719 21566 net.cpp:84] Creating Layer fc_scv_dirty_fc_scv_dirty_0_split
I1130 18:32:37.791723 21566 net.cpp:406] fc_scv_dirty_fc_scv_dirty_0_split <- fc_scv_dirty
I1130 18:32:37.791728 21566 net.cpp:380] fc_scv_dirty_fc_scv_dirty_0_split -> fc_scv_dirty_fc_scv_dirty_0_split_0
I1130 18:32:37.791740 21566 net.cpp:380] fc_scv_dirty_fc_scv_dirty_0_split -> fc_scv_dirty_fc_scv_dirty_0_split_1
I1130 18:32:37.791769 21566 net.cpp:122] Setting up fc_scv_dirty_fc_scv_dirty_0_split
I1130 18:32:37.791775 21566 net.cpp:129] Top shape: 32 1 (32)
I1130 18:32:37.791779 21566 net.cpp:129] Top shape: 32 1 (32)
I1130 18:32:37.791782 21566 net.cpp:137] Memory required for data: 219525248
I1130 18:32:37.791785 21566 layer_factory.hpp:77] Creating layer loss
I1130 18:32:37.791790 21566 net.cpp:84] Creating Layer loss
I1130 18:32:37.791795 21566 net.cpp:406] loss <- fc_scv_dirty_fc_scv_dirty_0_split_0
I1130 18:32:37.791797 21566 net.cpp:406] loss <- label_data_1_split_0
I1130 18:32:37.791802 21566 net.cpp:380] loss -> loss
…
