…
I1130 01:44:52.592916 10030 net.cpp:51] Initializing net from parameters: 
name: "GoogleNet-Places365-SCV-Accessible"
state {
  phase: TRAIN
  level: 0
  stage: ""
}
layer {
  name: "data"
  type: "Data"
  top: "data"
  top: "label"
  include {
    phase: TRAIN
  }
  transform_param {
    mirror: true
    crop_size: 224
    mean_file: "/idiap/temp/lmedina/fine-tuning/googlenet_places365/places365CNN_mean.binaryproto"
  }
  data_param {
    source: "/idiap/temp/lmedina/fine-tuning/data/Accessible/train_lmdb"
    batch_size: 32
    backend: LMDB
  }
}
layer {
  name: "conv1/7x7_s2"
  type: "Convolution"
  bottom: "data"
  top: "conv1/7x7_s2"
  param {
    lr_mult: 1
    decay_mult: 1
  }
  param {
    lr_mult: 2
    decay_mult: 0
  }
  convolution_param {
    num_output: 64
    pad: 3
    kernel_size: 7
    stride: 2
    weight_filler {
      type: "xavier"
      std: 0.1
    }
    bias_filler {
      type: "constant"
      value: 0.2
    }
  }
}
layer {
  name: "conv1/relu_7x7"
  type: "ReLU"
  bottom: "conv1/7x7_s2"
  top: "conv1/7x7_s2"
}
layer {
  name: "pool1/3x3_s2"
  type: "Pooling"
  bottom: "conv1/7x7_s2"
  top: "pool1/3x3_s2"
  pooling_param {
    pool: MAX
    kernel_size: 3
    stride: 2
  }
}
layer {
  name: "pool1/norm1"
  type: "LRN"
  bottom: "pool1/3x3_s2"
  top: "pool1/norm1"
  lrn_param {
    local_size: 5
    alpha: 0.0001
    beta: 0.75
  }
}
layer {
  name: "conv2/3x3_reduce"
  type: "Convolution"
  bottom: "pool1/norm1"
  top: "conv2/3x3_reduce"
  param {
    lr_mult: 1
    decay_mult: 1
  }
  param {
    lr_mult: 2
    decay_mult: 0
  }
  convolution_param {
    num_output: 64
    kernel_size: 1
    weight_filler {
      type: "xavier"
      std: 0.1
    }
    bias_filler {
      type: "constant"
      value: 0.2
    }
  }
}
layer {
  name: "conv2/relu_3x3_reduce"
  type: "ReLU"
  bottom: "conv2/3x3_reduce"
  top: "conv2/3x3_reduce"
}
layer {
  name: "conv2/3x3"
  type: "Convolution"
  bottom: "conv2/3x3_reduce"
  top: "conv2/3x3"
  param {
    lr_mult: 1
    decay_mult: 1
  }
  param {
    lr_mult: 2
    decay_mult: 0
  }
  convolution_param {
    num_output: 192
    pad: 1
    kernel_size: 3
    weight_filler {
      type: "xavier"
      std: 0.03
    }
    bias_filler {
      type: "constant"
      value: 0.2
    }
  }
}
layer {
  name: "conv2/relu_3x3"
  type: "ReLU"
  bottom: "conv2/3x3"
  top: "conv2/3x3"
}
layer {
  name: "conv2/norm2"
  type: "LRN"
  bottom: "conv2/3x3"
  top: "conv2/norm2"
  lrn_param {
    local_size: 5
    alpha: 0.0001
    beta: 0.75
  }
}
layer {
  name: "pool2/3x3_s2"
  type: "Pooling"
  bottom: "conv2/norm2"
  top: "pool2/3x3_s2"
  pooling_param {
    pool: MAX
    kernel_size: 3
    stride: 2
  }
}
layer {
  name: "inception_3a/1x1"
  type: "Convolution"
  bottom: "pool2/3x3_s2"
  top: "inception_3a/1x1"
  param {
    lr_mult: 1
    decay_mult: 1
  }
  param {
    lr_mult: 2
    decay_mult: 0
  }
  convolution_param {
    num_output: 64
    kernel_size: 1
    weight_filler {
      type: "xavier"
      std: 0.03
    }
    bias_filler {
      type: "constant"
      value: 0.2
    }
  }
}
layer {
  name: "inception_3a/relu_1x1"
  type: "ReLU"
  bottom: "inception_3a/1x1"
  top: "inception_3a/1x1"
}
layer {
  name: "inception_3a/3x3_reduce"
  type: "Convolution"
  bottom: "pool2/3x3_s2"
  top: "inception_3a/3x3_reduce"
  param {
    lr_mult: 1
    decay_mult: 1
  }
  param {
    lr_mult: 2
    decay_mult: 0
  }
  convolution_param {
    num_output: 96
    kernel_size: 1
    weight_filler {
      type: "xavier"
      std: 0.09
    }
    bias_filler {
      type: "constant"
      value: 0.2
    }
  }
}
layer {
  name: "inception_3a/relu_3x3_reduce"
  type: "ReLU"
  bottom: "inception_3a/3x3_reduce"
  top: "inception_3a/3x3_reduce"
}
layer {
  name: "inception_3a/3x3"
  type: "Convolution"
  bottom: "inception_3a/3x3_reduce"
  top: "inception_3a/3x3"
  param {
    lr_mult: 1
    decay_mult: 1
  }
  param {
    lr_mult: 2
    decay_mult: 0
  }
  convolution_param {
    num_output: 128
    pad: 1
    kernel_size: 3
    weight_filler {
      type: "xavier"
      std: 0.03
    }
    bias_filler {
      type: "constant"
      value: 0.2
    }
  }
}
layer {
  name: "inception_3a/relu_3x3"
  type: "ReLU"
  bottom: "inception_3a/3x3"
  top: "inception_3a/3x3"
}
layer {
  name: "inception_3a/5x5_reduce"
  type: "Convolution"
  bottom: "pool2/3x3_s2"
  top: "inception_3a/5x5_reduce"
  param {
    lr_mult: 1
    decay_mult: 1
  }
  param {
    lr_mult: 2
    decay_mult: 0
  }
  convolution_param {
    num_output: 16
    kernel_size: 1
    weight_filler {
      type: "xavier"
      std: 0.2
    }
    bias_filler {
      type: "constant"
      value: 0.2
    }
  }
}
layer {
  name: "inception_3a/relu_5x5_reduce"
  type: "ReLU"
  bottom: "inception_3a/5x5_reduce"
  top: "inception_3a/5x5_reduce"
}
layer {
  name: "inception_3a/5x5"
  type: "Convolution"
  bottom: "inception_3a/5x5_reduce"
  top: "inception_3a/5x5"
  param {
    lr_mult: 1
    decay_mult: 1
  }
  param {
    lr_mult: 2
    decay_mult: 0
  }
  convolution_param {
    num_output: 32
    pad: 2
    kernel_size: 5
    weight_filler {
      type: "xavier"
      std: 0.03
    }
    bias_filler {
      type: "constant"
      value: 0.2
    }
  }
}
layer {
  name: "inception_3a/relu_5x5"
  type: "ReLU"
  bottom: "inception_3a/5x5"
  top: "inception_3a/5x5"
}
layer {
  name: "inception_3a/pool"
  type: "Pooling"
  bottom: "pool2/3x3_s2"
  top: "inception_3a/pool"
  pooling_param {
    pool: MAX
    kernel_size: 3
    stride: 1
    pad: 1
  }
}
layer {
  name: "inception_3a/pool_proj"
  type: "Convolution"
  bottom: "inception_3a/pool"
  top: "inception_3a/pool_proj"
  param {
    lr_mult: 1
    decay_mult: 1
  }
  param {
    lr_mult: 2
    decay_mult: 0
  }
  convolution_param {
    num_output: 32
    kernel_size: 1
    weight_filler {
      type: "xavier"
      std: 0.1
    }
    bias_filler {
      type: "constant"
      value: 0.2
    }
  }
}
layer {
  name: "inception_3a/relu_pool_proj"
  type: "ReLU"
  bottom: "inception_3a/pool_proj"
  top: "inception_3a/pool_proj"
}
layer {
  name: "inception_3a/output"
  type: "Concat"
  bottom: "inception_3a/1x1"
  bottom: "inception_3a/3x3"
  bottom: "inception_3a/5x5"
  bottom: "inception_3a/pool_proj"
  top: "inception_3a/output"
}
layer {
  name: "inception_3b/1x1"
  type: "Convolution"
  bottom: "inception_3a/output"
  top: "inception_3b/1x1"
  param {
    lr_mult: 1
    decay_mult: 1
  }
  param {
    lr_mult: 2
    decay_mult: 0
  }
  convolution_param {
    num_output: 128
    kernel_size: 1
    weight_filler {
      type: "xavier"
      std: 0.03
    }
    bias_filler {
      type: "constant"
      value: 0.2
    }
  }
}
layer {
  name: "inception_3b/relu_1x1"
  type: "ReLU"
  bottom: "inception_3b/1x1"
  top: "inception_3b/1x1"
}
layer {
  name: "inception_3b/3x3_reduce"
  type: "Convolution"
  bottom: "inception_3a/output"
  top: "inception_3b/3x3_reduce"
  param {
    lr_mult: 1
    decay_mult: 1
  }
  param {
    lr_mult: 2
    decay_mult: 0
  }
  convolution_param {
    num_output: 128
    kernel_size: 1
    weight_filler {
      type: "xavier"
      std: 0.09
    }
    bias_filler {
      type: "constant"
      value: 0.2
    }
  }
}
layer {
  name: "inception_3b/relu_3x3_reduce"
  type: "ReLU"
  bottom: "inception_3b/3x3_reduce"
  top: "inception_3b/3x3_reduce"
}
layer {
  name: "inception_3b/3x3"
  type: "Convolution"
  bottom: "inception_3b/3x3_reduce"
  top: "inception_3b/3x3"
  param {
    lr_mult: 1
    decay_mult: 1
  }
  param {
    lr_mult: 2
    decay_mult: 0
  }
  convolution_param {
    num_output: 192
    pad: 1
    kernel_size: 3
    weight_filler {
      type: "xavier"
      std: 0.03
    }
    bias_filler {
      type: "constant"
      value: 0.2
    }
  }
}
layer {
  name: "inception_3b/relu_3x3"
  type: "ReLU"
  bottom: "inception_3b/3x3"
  top: "inception_3b/3x3"
}
layer {
  name: "inception_3b/5x5_reduce"
  type: "Convolution"
  bottom: "inception_3a/output"
  top: "inception_3b/5x5_reduce"
  param {
    lr_mult: 1
    decay_mult: 1
  }
  param {
    lr_mult: 2
    decay_mult: 0
  }
  convolution_param {
    num_output: 32
    kernel_size: 1
    weight_filler {
      type: "xavier"
      std: 0.2
    }
    bias_filler {
      type: "constant"
      value: 0.2
    }
  }
}
layer {
  name: "inception_3b/relu_5x5_reduce"
  type: "ReLU"
  bottom: "inception_3b/5x5_reduce"
  top: "inception_3b/5x5_reduce"
}
layer {
  name: "inception_3b/5x5"
  type: "Convolution"
  bottom: "inception_3b/5x5_reduce"
  top: "inception_3b/5x5"
  param {
    lr_mult: 1
    decay_mult: 1
  }
  param {
    lr_mult: 2
    decay_mult: 0
  }
  convolution_param {
    num_output: 96
    pad: 2
    kernel_size: 5
    weight_filler {
      type: "xavier"
      std: 0.03
    }
    bias_filler {
      type: "constant"
      value: 0.2
    }
  }
}
layer {
  name: "inception_3b/relu_5x5"
  type: "ReLU"
  bottom: "inception_3b/5x5"
  top: "inception_3b/5x5"
}
layer {
  name: "inception_3b/pool"
  type: "Pooling"
  bottom: "inception_3a/output"
  top: "inception_3b/pool"
  pooling_param {
    pool: MAX
    kernel_size: 3
    stride: 1
    pad: 1
  }
}
layer {
  name: "inception_3b/pool_proj"
  type: "Convolution"
  bottom: "inception_3b/pool"
  top: "inception_3b/pool_proj"
  param {
    lr_mult: 1
    decay_mult: 1
  }
  param {
    lr_mult: 2
    decay_mult: 0
  }
  convolution_param {
    num_output: 64
    kernel_size: 1
    weight_filler {
      type: "xavier"
      std: 0.1
    }
    bias_filler {
      type: "constant"
      value: 0.2
    }
  }
}
layer {
  name: "inception_3b/relu_pool_proj"
  type: "ReLU"
  bottom: "inception_3b/pool_proj"
  top: "inception_3b/pool_proj"
}
layer {
  name: "inception_3b/output"
  type: "Concat"
  bottom: "inception_3b/1x1"
  bottom: "inception_3b/3x3"
  bottom: "inception_3b/5x5"
  bottom: "inception_3b/pool_proj"
  top: "inception_3b/output"
}
layer {
  name: "pool3/3x3_s2"
  type: "Pooling"
  bottom: "inception_3b/output"
  top: "pool3/3x3_s2"
  pooling_param {
    pool: MAX
    kernel_size: 3
    stride: 2
  }
}
layer {
  name: "inception_4a/1x1"
  type: "Convolution"
  bottom: "pool3/3x3_s2"
  top: "inception_4a/1x1"
  param {
    lr_mult: 1
    decay_mult: 1
  }
  param {
    lr_mult: 2
    decay_mult: 0
  }
  convolution_param {
    num_output: 192
    kernel_size: 1
    weight_filler {
      type: "xavier"
      std: 0.03
    }
    bias_filler {
      type: "constant"
      value: 0.2
    }
  }
}
layer {
  name: "inception_4a/relu_1x1"
  type: "ReLU"
  bottom: "inception_4a/1x1"
  top: "inception_4a/1x1"
}
layer {
  name: "inception_4a/3x3_reduce"
  type: "Convolution"
  bottom: "pool3/3x3_s2"
  top: "inception_4a/3x3_reduce"
  param {
    lr_mult: 1
    decay_mult: 1
  }
  param {
    lr_mult: 2
    decay_mult: 0
  }
  convolution_param {
    num_output: 96
    kernel_size: 1
    weight_filler {
      type: "xavier"
      std: 0.09
    }
    bias_filler {
      type: "constant"
      value: 0.2
    }
  }
}
layer {
  name: "inception_4a/relu_3x3_reduce"
  type: "ReLU"
  bottom: "inception_4a/3x3_reduce"
  top: "inception_4a/3x3_reduce"
}
layer {
  name: "inception_4a/3x3"
  type: "Convolution"
  bottom: "inception_4a/3x3_reduce"
  top: "inception_4a/3x3"
  param {
    lr_mult: 1
    decay_mult: 1
  }
  param {
    lr_mult: 2
    decay_mult: 0
  }
  convolution_param {
    num_output: 208
    pad: 1
    kernel_size: 3
    weight_filler {
      type: "xavier"
      std: 0.03
    }
    bias_filler {
      type: "constant"
      value: 0.2
    }
  }
}
layer {
  name: "inception_4a/relu_3x3"
  type: "ReLU"
  bottom: "inception_4a/3x3"
  top: "inception_4a/3x3"
}
layer {
  name: "inception_4a/5x5_reduce"
  type: "Convolution"
  bottom: "pool3/3x3_s2"
  top: "inception_4a/5x5_reduce"
  param {
    lr_mult: 1
    decay_mult: 1
  }
  param {
    lr_mult: 2
    decay_mult: 0
  }
  convolution_param {
    num_output: 16
    kernel_size: 1
    weight_filler {
      type: "xavier"
      std: 0.2
    }
    bias_filler {
      type: "constant"
      value: 0.2
    }
  }
}
layer {
  name: "inception_4a/relu_5x5_reduce"
  type: "ReLU"
  bottom: "inception_4a/5x5_reduce"
  top: "inception_4a/5x5_reduce"
}
layer {
  name: "inception_4a/5x5"
  type: "Convolution"
  bottom: "inception_4a/5x5_reduce"
  top: "inception_4a/5x5"
  param {
    lr_mult: 1
    decay_mult: 1
  }
  param {
    lr_mult: 2
    decay_mult: 0
  }
  convolution_param {
    num_output: 48
    pad: 2
    kernel_size: 5
    weight_filler {
      type: "xavier"
      std: 0.03
    }
    bias_filler {
      type: "constant"
      value: 0.2
    }
  }
}
layer {
  name: "inception_4a/relu_5x5"
  type: "ReLU"
  bottom: "inception_4a/5x5"
  top: "inception_4a/5x5"
}
layer {
  name: "inception_4a/pool"
  type: "Pooling"
  bottom: "pool3/3x3_s2"
  top: "inception_4a/pool"
  pooling_param {
    pool: MAX
    kernel_size: 3
    stride: 1
    pad: 1
  }
}
layer {
  name: "inception_4a/pool_proj"
  type: "Convolution"
  bottom: "inception_4a/pool"
  top: "inception_4a/pool_proj"
  param {
    lr_mult: 1
    decay_mult: 1
  }
  param {
    lr_mult: 2
    decay_mult: 0
  }
  convolution_param {
    num_output: 64
    kernel_size: 1
    weight_filler {
      type: "xavier"
      std: 0.1
    }
    bias_filler {
      type: "constant"
      value: 0.2
    }
  }
}
layer {
  name: "inception_4a/relu_pool_proj"
  type: "ReLU"
  bottom: "inception_4a/pool_proj"
  top: "inception_4a/pool_proj"
}
layer {
  name: "inception_4a/output"
  type: "Concat"
  bottom: "inception_4a/1x1"
  bottom: "inception_4a/3x3"
  bottom: "inception_4a/5x5"
  bottom: "inception_4a/pool_proj"
  top: "inception_4a/output"
}
layer {
  name: "inception_4b/1x1"
  type: "Convolution"
  bottom: "inception_4a/output"
  top: "inception_4b/1x1"
  param {
    lr_mult: 1
    decay_mult: 1
  }
  param {
    lr_mult: 2
    decay_mult: 0
  }
  convolution_param {
    num_output: 160
    kernel_size: 1
    weight_filler {
      type: "xavier"
      std: 0.03
    }
    bias_filler {
      type: "constant"
      value: 0.2
    }
  }
}
layer {
  name: "inception_4b/relu_1x1"
  type: "ReLU"
  bottom: "inception_4b/1x1"
  top: "inception_4b/1x1"
}
layer {
  name: "inception_4b/3x3_reduce"
  type: "Convolution"
  bottom: "inception_4a/output"
  top: "inception_4b/3x3_reduce"
  param {
    lr_mult: 1
    decay_mult: 1
  }
  param {
    lr_mult: 2
    decay_mult: 0
  }
  convolution_param {
    num_output: 112
    kernel_size: 1
    weight_filler {
      type: "xavier"
      std: 0.09
    }
    bias_filler {
      type: "constant"
      value: 0.2
    }
  }
}
layer {
  name: "inception_4b/relu_3x3_reduce"
  type: "ReLU"
  bottom: "inception_4b/3x3_reduce"
  top: "inception_4b/3x3_reduce"
}
layer {
  name: "inception_4b/3x3"
  type: "Convolution"
  bottom: "inception_4b/3x3_reduce"
  top: "inception_4b/3x3"
  param {
    lr_mult: 1
    decay_mult: 1
  }
  param {
    lr_mult: 2
    decay_mult: 0
  }
  convolution_param {
    num_output: 224
    pad: 1
    kernel_size: 3
    weight_filler {
      type: "xavier"
      std: 0.03
    }
    bias_filler {
      type: "constant"
      value: 0.2
    }
  }
}
layer {
  name: "inception_4b/relu_3x3"
  type: "ReLU"
  bottom: "inception_4b/3x3"
  top: "inception_4b/3x3"
}
layer {
  name: "inception_4b/5x5_reduce"
  type: "Convolution"
  bottom: "inception_4a/output"
  top: "inception_4b/5x5_reduce"
  param {
    lr_mult: 1
    decay_mult: 1
  }
  param {
    lr_mult: 2
    decay_mult: 0
  }
  convolution_param {
    num_output: 24
    kernel_size: 1
    weight_filler {
      type: "xavier"
      std: 0.2
    }
    bias_filler {
      type: "constant"
      value: 0.2
    }
  }
}
layer {
  name: "inception_4b/relu_5x5_reduce"
  type: "ReLU"
  bottom: "inception_4b/5x5_reduce"
  top: "inception_4b/5x5_reduce"
}
layer {
  name: "inception_4b/5x5"
  type: "Convolution"
  bottom: "inception_4b/5x5_reduce"
  top: "inception_4b/5x5"
  param {
    lr_mult: 1
    decay_mult: 1
  }
  param {
    lr_mult: 2
    decay_mult: 0
  }
  convolution_param {
    num_output: 64
    pad: 2
    kernel_size: 5
    weight_filler {
      type: "xavier"
      std: 0.03
    }
    bias_filler {
      type: "constant"
      value: 0.2
    }
  }
}
layer {
  name: "inception_4b/relu_5x5"
  type: "ReLU"
  bottom: "inception_4b/5x5"
  top: "inception_4b/5x5"
}
layer {
  name: "inception_4b/pool"
  type: "Pooling"
  bottom: "inception_4a/output"
  top: "inception_4b/pool"
  pooling_param {
    pool: MAX
    kernel_size: 3
    stride: 1
    pad: 1
  }
}
layer {
  name: "inception_4b/pool_proj"
  type: "Convolution"
  bottom: "inception_4b/pool"
  top: "inception_4b/pool_proj"
  param {
    lr_mult: 1
    decay_mult: 1
  }
  param {
    lr_mult: 2
    decay_mult: 0
  }
  convolution_param {
    num_output: 64
    kernel_size: 1
    weight_filler {
      type: "xavier"
      std: 0.1
    }
    bias_filler {
      type: "constant"
      value: 0.2
    }
  }
}
layer {
  name: "inception_4b/relu_pool_proj"
  type: "ReLU"
  bottom: "inception_4b/pool_proj"
  top: "inception_4b/pool_proj"
}
layer {
  name: "inception_4b/output"
  type: "Concat"
  bottom: "inception_4b/1x1"
  bottom: "inception_4b/3x3"
  bottom: "inception_4b/5x5"
  bottom: "inception_4b/pool_proj"
  top: "inception_4b/output"
}
layer {
  name: "inception_4c/1x1"
  type: "Convolution"
  bottom: "inception_4b/output"
  top: "inception_4c/1x1"
  param {
    lr_mult: 1
    decay_mult: 1
  }
  param {
    lr_mult: 2
    decay_mult: 0
  }
  convolution_param {
    num_output: 128
    kernel_size: 1
    weight_filler {
      type: "xavier"
      std: 0.03
    }
    bias_filler {
      type: "constant"
      value: 0.2
    }
  }
}
layer {
  name: "inception_4c/relu_1x1"
  type: "ReLU"
  bottom: "inception_4c/1x1"
  top: "inception_4c/1x1"
}
layer {
  name: "inception_4c/3x3_reduce"
  type: "Convolution"
  bottom: "inception_4b/output"
  top: "inception_4c/3x3_reduce"
  param {
    lr_mult: 1
    decay_mult: 1
  }
  param {
    lr_mult: 2
    decay_mult: 0
  }
  convolution_param {
    num_output: 128
    kernel_size: 1
    weight_filler {
      type: "xavier"
      std: 0.09
    }
    bias_filler {
      type: "constant"
      value: 0.2
    }
  }
}
layer {
  name: "inception_4c/relu_3x3_reduce"
  type: "ReLU"
  bottom: "inception_4c/3x3_reduce"
  top: "inception_4c/3x3_reduce"
}
layer {
  name: "inception_4c/3x3"
  type: "Convolution"
  bottom: "inception_4c/3x3_reduce"
  top: "inception_4c/3x3"
  param {
    lr_mult: 1
    decay_mult: 1
  }
  param {
    lr_mult: 2
    decay_mult: 0
  }
  convolution_param {
    num_output: 256
    pad: 1
    kernel_size: 3
    weight_filler {
      type: "xavier"
      std: 0.03
    }
    bias_filler {
      type: "constant"
      value: 0.2
    }
  }
}
layer {
  name: "inception_4c/relu_3x3"
  type: "ReLU"
  bottom: "inception_4c/3x3"
  top: "inception_4c/3x3"
}
layer {
  name: "inception_4c/5x5_reduce"
  type: "Convolution"
  bottom: "inception_4b/output"
  top: "inception_4c/5x5_reduce"
  param {
    lr_mult: 1
    decay_mult: 1
  }
  param {
    lr_mult: 2
    decay_mult: 0
  }
  convolution_param {
    num_output: 24
    kernel_size: 1
    weight_filler {
      type: "xavier"
      std: 0.2
    }
    bias_filler {
      type: "constant"
      value: 0.2
    }
  }
}
layer {
  name: "inception_4c/relu_5x5_reduce"
  type: "ReLU"
  bottom: "inception_4c/5x5_reduce"
  top: "inception_4c/5x5_reduce"
}
layer {
  name: "inception_4c/5x5"
  type: "Convolution"
  bottom: "inception_4c/5x5_reduce"
  top: "inception_4c/5x5"
  param {
    lr_mult: 1
    decay_mult: 1
  }
  param {
    lr_mult: 2
    decay_mult: 0
  }
  convolution_param {
    num_output: 64
    pad: 2
    kernel_size: 5
    weight_filler {
      type: "xavier"
      std: 0.03
    }
    bias_filler {
      type: "constant"
      value: 0.2
    }
  }
}
layer {
  name: "inception_4c/relu_5x5"
  type: "ReLU"
  bottom: "inception_4c/5x5"
  top: "inception_4c/5x5"
}
layer {
  name: "inception_4c/pool"
  type: "Pooling"
  bottom: "inception_4b/output"
  top: "inception_4c/pool"
  pooling_param {
    pool: MAX
    kernel_size: 3
    stride: 1
    pad: 1
  }
}
layer {
  name: "inception_4c/pool_proj"
  type: "Convolution"
  bottom: "inception_4c/pool"
  top: "inception_4c/pool_proj"
  param {
    lr_mult: 1
    decay_mult: 1
  }
  param {
    lr_mult: 2
    decay_mult: 0
  }
  convolution_param {
    num_output: 64
    kernel_size: 1
    weight_filler {
      type: "xavier"
      std: 0.1
    }
    bias_filler {
      type: "constant"
      value: 0.2
    }
  }
}
layer {
  name: "inception_4c/relu_pool_proj"
  type: "ReLU"
  bottom: "inception_4c/pool_proj"
  top: "inception_4c/pool_proj"
}
layer {
  name: "inception_4c/output"
  type: "Concat"
  bottom: "inception_4c/1x1"
  bottom: "inception_4c/3x3"
  bottom: "inception_4c/5x5"
  bottom: "inception_4c/pool_proj"
  top: "inception_4c/output"
}
layer {
  name: "inception_4d/1x1"
  type: "Convolution"
  bottom: "inception_4c/output"
  top: "inception_4d/1x1"
  param {
    lr_mult: 1
    decay_mult: 1
  }
  param {
    lr_mult: 2
    decay_mult: 0
  }
  convolution_param {
    num_output: 112
    kernel_size: 1
    weight_filler {
      type: "xavier"
      std: 0.03
    }
    bias_filler {
      type: "constant"
      value: 0.2
    }
  }
}
layer {
  name: "inception_4d/relu_1x1"
  type: "ReLU"
  bottom: "inception_4d/1x1"
  top: "inception_4d/1x1"
}
layer {
  name: "inception_4d/3x3_reduce"
  type: "Convolution"
  bottom: "inception_4c/output"
  top: "inception_4d/3x3_reduce"
  param {
    lr_mult: 1
    decay_mult: 1
  }
  param {
    lr_mult: 2
    decay_mult: 0
  }
  convolution_param {
    num_output: 144
    kernel_size: 1
    weight_filler {
      type: "xavier"
      std: 0.09
    }
    bias_filler {
      type: "constant"
      value: 0.2
    }
  }
}
layer {
  name: "inception_4d/relu_3x3_reduce"
  type: "ReLU"
  bottom: "inception_4d/3x3_reduce"
  top: "inception_4d/3x3_reduce"
}
layer {
  name: "inception_4d/3x3"
  type: "Convolution"
  bottom: "inception_4d/3x3_reduce"
  top: "inception_4d/3x3"
  param {
    lr_mult: 1
    decay_mult: 1
  }
  param {
    lr_mult: 2
    decay_mult: 0
  }
  convolution_param {
    num_output: 288
    pad: 1
    kernel_size: 3
    weight_filler {
      type: "xavier"
      std: 0.03
    }
    bias_filler {
      type: "constant"
      value: 0.2
    }
  }
}
layer {
  name: "inception_4d/relu_3x3"
  type: "ReLU"
  bottom: "inception_4d/3x3"
  top: "inception_4d/3x3"
}
layer {
  name: "inception_4d/5x5_reduce"
  type: "Convolution"
  bottom: "inception_4c/output"
  top: "inception_4d/5x5_reduce"
  param {
    lr_mult: 1
    decay_mult: 1
  }
  param {
    lr_mult: 2
    decay_mult: 0
  }
  convolution_param {
    num_output: 32
    kernel_size: 1
    weight_filler {
      type: "xavier"
      std: 0.2
    }
    bias_filler {
      type: "constant"
      value: 0.2
    }
  }
}
layer {
  name: "inception_4d/relu_5x5_reduce"
  type: "ReLU"
  bottom: "inception_4d/5x5_reduce"
  top: "inception_4d/5x5_reduce"
}
layer {
  name: "inception_4d/5x5"
  type: "Convolution"
  bottom: "inception_4d/5x5_reduce"
  top: "inception_4d/5x5"
  param {
    lr_mult: 1
    decay_mult: 1
  }
  param {
    lr_mult: 2
    decay_mult: 0
  }
  convolution_param {
    num_output: 64
    pad: 2
    kernel_size: 5
    weight_filler {
      type: "xavier"
      std: 0.03
    }
    bias_filler {
      type: "constant"
      value: 0.2
    }
  }
}
layer {
  name: "inception_4d/relu_5x5"
  type: "ReLU"
  bottom: "inception_4d/5x5"
  top: "inception_4d/5x5"
}
layer {
  name: "inception_4d/pool"
  type: "Pooling"
  bottom: "inception_4c/output"
  top: "inception_4d/pool"
  pooling_param {
    pool: MAX
    kernel_size: 3
    stride: 1
    pad: 1
  }
}
layer {
  name: "inception_4d/pool_proj"
  type: "Convolution"
  bottom: "inception_4d/pool"
  top: "inception_4d/pool_proj"
  param {
    lr_mult: 1
    decay_mult: 1
  }
  param {
    lr_mult: 2
    decay_mult: 0
  }
  convolution_param {
    num_output: 64
    kernel_size: 1
    weight_filler {
      type: "xavier"
      std: 0.1
    }
    bias_filler {
      type: "constant"
      value: 0.2
    }
  }
}
layer {
  name: "inception_4d/relu_pool_proj"
  type: "ReLU"
  bottom: "inception_4d/pool_proj"
  top: "inception_4d/pool_proj"
}
layer {
  name: "inception_4d/output"
  type: "Concat"
  bottom: "inception_4d/1x1"
  bottom: "inception_4d/3x3"
  bottom: "inception_4d/5x5"
  bottom: "inception_4d/pool_proj"
  top: "inception_4d/output"
}
layer {
  name: "inception_4e/1x1"
  type: "Convolution"
  bottom: "inception_4d/output"
  top: "inception_4e/1x1"
  param {
    lr_mult: 1
    decay_mult: 1
  }
  param {
    lr_mult: 2
    decay_mult: 0
  }
  convolution_param {
    num_output: 256
    kernel_size: 1
    weight_filler {
      type: "xavier"
      std: 0.03
    }
    bias_filler {
      type: "constant"
      value: 0.2
    }
  }
}
layer {
  name: "inception_4e/relu_1x1"
  type: "ReLU"
  bottom: "inception_4e/1x1"
  top: "inception_4e/1x1"
}
layer {
  name: "inception_4e/3x3_reduce"
  type: "Convolution"
  bottom: "inception_4d/output"
  top: "inception_4e/3x3_reduce"
  param {
    lr_mult: 1
    decay_mult: 1
  }
  param {
    lr_mult: 2
    decay_mult: 0
  }
  convolution_param {
    num_output: 160
    kernel_size: 1
    weight_filler {
      type: "xavier"
      std: 0.09
    }
    bias_filler {
      type: "constant"
      value: 0.2
    }
  }
}
layer {
  name: "inception_4e/relu_3x3_reduce"
  type: "ReLU"
  bottom: "inception_4e/3x3_reduce"
  top: "inception_4e/3x3_reduce"
}
layer {
  name: "inception_4e/3x3"
  type: "Convolution"
  bottom: "inception_4e/3x3_reduce"
  top: "inception_4e/3x3"
  param {
    lr_mult: 1
    decay_mult: 1
  }
  param {
    lr_mult: 2
    decay_mult: 0
  }
  convolution_param {
    num_output: 320
    pad: 1
    kernel_size: 3
    weight_filler {
      type: "xavier"
      std: 0.03
    }
    bias_filler {
      type: "constant"
      value: 0.2
    }
  }
}
layer {
  name: "inception_4e/relu_3x3"
  type: "ReLU"
  bottom: "inception_4e/3x3"
  top: "inception_4e/3x3"
}
layer {
  name: "inception_4e/5x5_reduce"
  type: "Convolution"
  bottom: "inception_4d/output"
  top: "inception_4e/5x5_reduce"
  param {
    lr_mult: 1
    decay_mult: 1
  }
  param {
    lr_mult: 2
    decay_mult: 0
  }
  convolution_param {
    num_output: 32
    kernel_size: 1
    weight_filler {
      type: "xavier"
      std: 0.2
    }
    bias_filler {
      type: "constant"
      value: 0.2
    }
  }
}
layer {
  name: "inception_4e/relu_5x5_reduce"
  type: "ReLU"
  bottom: "inception_4e/5x5_reduce"
  top: "inception_4e/5x5_reduce"
}
layer {
  name: "inception_4e/5x5"
  type: "Convolution"
  bottom: "inception_4e/5x5_reduce"
  top: "inception_4e/5x5"
  param {
    lr_mult: 1
    decay_mult: 1
  }
  param {
    lr_mult: 2
    decay_mult: 0
  }
  convolution_param {
    num_output: 128
    pad: 2
    kernel_size: 5
    weight_filler {
      type: "xavier"
      std: 0.03
    }
    bias_filler {
      type: "constant"
      value: 0.2
    }
  }
}
layer {
  name: "inception_4e/relu_5x5"
  type: "ReLU"
  bottom: "inception_4e/5x5"
  top: "inception_4e/5x5"
}
layer {
  name: "inception_4e/pool"
  type: "Pooling"
  bottom: "inception_4d/output"
  top: "inception_4e/pool"
  pooling_param {
    pool: MAX
    kernel_size: 3
    stride: 1
    pad: 1
  }
}
layer {
  name: "inception_4e/pool_proj"
  type: "Convolution"
  bottom: "inception_4e/pool"
  top: "inception_4e/pool_proj"
  param {
    lr_mult: 1
    decay_mult: 1
  }
  param {
    lr_mult: 2
    decay_mult: 0
  }
  convolution_param {
    num_output: 128
    kernel_size: 1
    weight_filler {
      type: "xavier"
      std: 0.1
    }
    bias_filler {
      type: "constant"
      value: 0.2
    }
  }
}
layer {
  name: "inception_4e/relu_pool_proj"
  type: "ReLU"
  bottom: "inception_4e/pool_proj"
  top: "inception_4e/pool_proj"
}
layer {
  name: "inception_4e/output"
  type: "Concat"
  bottom: "inception_4e/1x1"
  bottom: "inception_4e/3x3"
  bottom: "inception_4e/5x5"
  bottom: "inception_4e/pool_proj"
  top: "inception_4e/output"
}
layer {
  name: "pool4/3x3_s2"
  type: "Pooling"
  bottom: "inception_4e/output"
  top: "pool4/3x3_s2"
  pooling_param {
    pool: MAX
    kernel_size: 3
    stride: 2
  }
}
layer {
  name: "inception_5a/1x1"
  type: "Convolution"
  bottom: "pool4/3x3_s2"
  top: "inception_5a/1x1"
  param {
    lr_mult: 1
    decay_mult: 1
  }
  param {
    lr_mult: 2
    decay_mult: 0
  }
  convolution_param {
    num_output: 256
    kernel_size: 1
    weight_filler {
      type: "xavier"
      std: 0.03
    }
    bias_filler {
      type: "constant"
      value: 0.2
    }
  }
}
layer {
  name: "inception_5a/relu_1x1"
  type: "ReLU"
  bottom: "inception_5a/1x1"
  top: "inception_5a/1x1"
}
layer {
  name: "inception_5a/3x3_reduce"
  type: "Convolution"
  bottom: "pool4/3x3_s2"
  top: "inception_5a/3x3_reduce"
  param {
    lr_mult: 1
    decay_mult: 1
  }
  param {
    lr_mult: 2
    decay_mult: 0
  }
  convolution_param {
    num_output: 160
    kernel_size: 1
    weight_filler {
      type: "xavier"
      std: 0.09
    }
    bias_filler {
      type: "constant"
      value: 0.2
    }
  }
}
layer {
  name: "inception_5a/relu_3x3_reduce"
  type: "ReLU"
  bottom: "inception_5a/3x3_reduce"
  top: "inception_5a/3x3_reduce"
}
layer {
  name: "inception_5a/3x3"
  type: "Convolution"
  bottom: "inception_5a/3x3_reduce"
  top: "inception_5a/3x3"
  param {
    lr_mult: 1
    decay_mult: 1
  }
  param {
    lr_mult: 2
    decay_mult: 0
  }
  convolution_param {
    num_output: 320
    pad: 1
    kernel_size: 3
    weight_filler {
      type: "xavier"
      std: 0.03
    }
    bias_filler {
      type: "constant"
      value: 0.2
    }
  }
}
layer {
  name: "inception_5a/relu_3x3"
  type: "ReLU"
  bottom: "inception_5a/3x3"
  top: "inception_5a/3x3"
}
layer {
  name: "inception_5a/5x5_reduce"
  type: "Convolution"
  bottom: "pool4/3x3_s2"
  top: "inception_5a/5x5
I1130 01:44:52.593427 10030 layer_factory.hpp:77] Creating layer data
I1130 01:44:52.622777 10030 db_lmdb.cpp:35] Opened lmdb /idiap/temp/lmedina/fine-tuning/data/Accessible/train_lmdb
I1130 01:44:52.637666 10030 net.cpp:84] Creating Layer data
I1130 01:44:52.637683 10030 net.cpp:380] data -> data
I1130 01:44:52.637708 10030 net.cpp:380] data -> label
I1130 01:44:52.637722 10030 data_transformer.cpp:25] Loading mean file from: /idiap/temp/lmedina/fine-tuning/googlenet_places365/places365CNN_mean.binaryproto
I1130 01:44:52.645390 10030 data_layer.cpp:45] output data size: 32,3,224,224
I1130 01:44:52.691610 10030 net.cpp:122] Setting up data
I1130 01:44:52.691655 10030 net.cpp:129] Top shape: 32 3 224 224 (4816896)
I1130 01:44:52.691663 10030 net.cpp:129] Top shape: 32 (32)
I1130 01:44:52.691668 10030 net.cpp:137] Memory required for data: 19267712
I1130 01:44:52.691680 10030 layer_factory.hpp:77] Creating layer conv1/7x7_s2
I1130 01:44:52.691715 10030 net.cpp:84] Creating Layer conv1/7x7_s2
I1130 01:44:52.691725 10030 net.cpp:406] conv1/7x7_s2 <- data
I1130 01:44:52.691742 10030 net.cpp:380] conv1/7x7_s2 -> conv1/7x7_s2
I1130 01:44:52.692651 10030 net.cpp:122] Setting up conv1/7x7_s2
I1130 01:44:52.692667 10030 net.cpp:129] Top shape: 32 64 112 112 (25690112)
I1130 01:44:52.692672 10030 net.cpp:137] Memory required for data: 122028160
I1130 01:44:52.692688 10030 layer_factory.hpp:77] Creating layer conv1/relu_7x7
I1130 01:44:52.692699 10030 net.cpp:84] Creating Layer conv1/relu_7x7
I1130 01:44:52.692708 10030 net.cpp:406] conv1/relu_7x7 <- conv1/7x7_s2
I1130 01:44:52.692718 10030 net.cpp:367] conv1/relu_7x7 -> conv1/7x7_s2 (in-place)
I1130 01:44:52.692729 10030 net.cpp:122] Setting up conv1/relu_7x7
I1130 01:44:52.692741 10030 net.cpp:129] Top shape: 32 64 112 112 (25690112)
I1130 01:44:52.692745 10030 net.cpp:137] Memory required for data: 224788608
I1130 01:44:52.692749 10030 layer_factory.hpp:77] Creating layer pool1/3x3_s2
I1130 01:44:52.692757 10030 net.cpp:84] Creating Layer pool1/3x3_s2
I1130 01:44:52.692762 10030 net.cpp:406] pool1/3x3_s2 <- conv1/7x7_s2
I1130 01:44:52.692769 10030 net.cpp:380] pool1/3x3_s2 -> pool1/3x3_s2
I1130 01:44:52.692823 10030 net.cpp:122] Setting up pool1/3x3_s2
I1130 01:44:52.692833 10030 net.cpp:129] Top shape: 32 64 56 56 (6422528)
I1130 01:44:52.692838 10030 net.cpp:137] Memory required for data: 250478720
I1130 01:44:52.692842 10030 layer_factory.hpp:77] Creating layer pool1/norm1
I1130 01:44:52.692853 10030 net.cpp:84] Creating Layer pool1/norm1
I1130 01:44:52.692859 10030 net.cpp:406] pool1/norm1 <- pool1/3x3_s2
I1130 01:44:52.692867 10030 net.cpp:380] pool1/norm1 -> pool1/norm1
I1130 01:44:52.692909 10030 net.cpp:122] Setting up pool1/norm1
I1130 01:44:52.692917 10030 net.cpp:129] Top shape: 32 64 56 56 (6422528)
I1130 01:44:52.692922 10030 net.cpp:137] Memory required for data: 276168832
I1130 01:44:52.692926 10030 layer_factory.hpp:77] Creating layer conv2/3x3_reduce
I1130 01:44:52.692939 10030 net.cpp:84] Creating Layer conv2/3x3_reduce
I1130 01:44:52.692944 10030 net.cpp:406] conv2/3x3_reduce <- pool1/norm1
I1130 01:44:52.692951 10030 net.cpp:380] conv2/3x3_reduce -> conv2/3x3_reduce
I1130 01:44:52.693727 10030 net.cpp:122] Setting up conv2/3x3_reduce
I1130 01:44:52.693740 10030 net.cpp:129] Top shape: 32 64 56 56 (6422528)
I1130 01:44:52.693745 10030 net.cpp:137] Memory required for data: 301858944
I1130 01:44:52.693758 10030 layer_factory.hpp:77] Creating layer conv2/relu_3x3_reduce
I1130 01:44:52.693766 10030 net.cpp:84] Creating Layer conv2/relu_3x3_reduce
I1130 01:44:52.693773 10030 net.cpp:406] conv2/relu_3x3_reduce <- conv2/3x3_reduce
I1130 01:44:52.693780 10030 net.cpp:367] conv2/relu_3x3_reduce -> conv2/3x3_reduce (in-place)
I1130 01:44:52.693789 10030 net.cpp:122] Setting up conv2/relu_3x3_reduce
I1130 01:44:52.693796 10030 net.cpp:129] Top shape: 32 64 56 56 (6422528)
I1130 01:44:52.693801 10030 net.cpp:137] Memory required for data: 327549056
I1130 01:44:52.693804 10030 layer_factory.hpp:77] Creating layer conv2/3x3
I1130 01:44:52.693816 10030 net.cpp:84] Creating Layer conv2/3x3
I1130 01:44:52.693821 10030 net.cpp:406] conv2/3x3 <- conv2/3x3_reduce
I1130 01:44:52.693828 10030 net.cpp:380] conv2/3x3 -> conv2/3x3
I1130 01:44:52.697345 10030 net.cpp:122] Setting up conv2/3x3
I1130 01:44:52.697366 10030 net.cpp:129] Top shape: 32 192 56 56 (19267584)
I1130 01:44:52.697372 10030 net.cpp:137] Memory required for data: 404619392
I1130 01:44:52.697387 10030 layer_factory.hpp:77] Creating layer conv2/relu_3x3
I1130 01:44:52.697399 10030 net.cpp:84] Creating Layer conv2/relu_3x3
I1130 01:44:52.697405 10030 net.cpp:406] conv2/relu_3x3 <- conv2/3x3
I1130 01:44:52.697414 10030 net.cpp:367] conv2/relu_3x3 -> conv2/3x3 (in-place)
I1130 01:44:52.697425 10030 net.cpp:122] Setting up conv2/relu_3x3
I1130 01:44:52.697432 10030 net.cpp:129] Top shape: 32 192 56 56 (19267584)
I1130 01:44:52.697438 10030 net.cpp:137] Memory required for data: 481689728
I1130 01:44:52.697441 10030 layer_factory.hpp:77] Creating layer conv2/norm2
I1130 01:44:52.697449 10030 net.cpp:84] Creating Layer conv2/norm2
I1130 01:44:52.697454 10030 net.cpp:406] conv2/norm2 <- conv2/3x3
I1130 01:44:52.697460 10030 net.cpp:380] conv2/norm2 -> conv2/norm2
I1130 01:44:52.697504 10030 net.cpp:122] Setting up conv2/norm2
I1130 01:44:52.697513 10030 net.cpp:129] Top shape: 32 192 56 56 (19267584)
I1130 01:44:52.697518 10030 net.cpp:137] Memory required for data: 558760064
I1130 01:44:52.697522 10030 layer_factory.hpp:77] Creating layer pool2/3x3_s2
I1130 01:44:52.697530 10030 net.cpp:84] Creating Layer pool2/3x3_s2
I1130 01:44:52.697535 10030 net.cpp:406] pool2/3x3_s2 <- conv2/norm2
I1130 01:44:52.697542 10030 net.cpp:380] pool2/3x3_s2 -> pool2/3x3_s2
I1130 01:44:52.697583 10030 net.cpp:122] Setting up pool2/3x3_s2
I1130 01:44:52.697597 10030 net.cpp:129] Top shape: 32 192 28 28 (4816896)
I1130 01:44:52.697602 10030 net.cpp:137] Memory required for data: 578027648
I1130 01:44:52.697605 10030 layer_factory.hpp:77] Creating layer pool2/3x3_s2_pool2/3x3_s2_0_split
I1130 01:44:52.697614 10030 net.cpp:84] Creating Layer pool2/3x3_s2_pool2/3x3_s2_0_split
I1130 01:44:52.697620 10030 net.cpp:406] pool2/3x3_s2_pool2/3x3_s2_0_split <- pool2/3x3_s2
I1130 01:44:52.697628 10030 net.cpp:380] pool2/3x3_s2_pool2/3x3_s2_0_split -> pool2/3x3_s2_pool2/3x3_s2_0_split_0
I1130 01:44:52.697636 10030 net.cpp:380] pool2/3x3_s2_pool2/3x3_s2_0_split -> pool2/3x3_s2_pool2/3x3_s2_0_split_1
I1130 01:44:52.697645 10030 net.cpp:380] pool2/3x3_s2_pool2/3x3_s2_0_split -> pool2/3x3_s2_pool2/3x3_s2_0_split_2
I1130 01:44:52.697654 10030 net.cpp:380] pool2/3x3_s2_pool2/3x3_s2_0_split -> pool2/3x3_s2_pool2/3x3_s2_0_split_3
I1130 01:44:52.697710 10030 net.cpp:122] Setting up pool2/3x3_s2_pool2/3x3_s2_0_split
I1130 01:44:52.697718 10030 net.cpp:129] Top shape: 32 192 28 28 (4816896)
I1130 01:44:52.697726 10030 net.cpp:129] Top shape: 32 192 28 28 (4816896)
I1130 01:44:52.697731 10030 net.cpp:129] Top shape: 32 192 28 28 (4816896)
I1130 01:44:52.697737 10030 net.cpp:129] Top shape: 32 192 28 28 (4816896)
I1130 01:44:52.697741 10030 net.cpp:137] Memory required for data: 655097984
I1130 01:44:52.697746 10030 layer_factory.hpp:77] Creating layer inception_3a/1x1
I1130 01:44:52.697757 10030 net.cpp:84] Creating Layer inception_3a/1x1
I1130 01:44:52.697763 10030 net.cpp:406] inception_3a/1x1 <- pool2/3x3_s2_pool2/3x3_s2_0_split_0
I1130 01:44:52.697772 10030 net.cpp:380] inception_3a/1x1 -> inception_3a/1x1
I1130 01:44:52.698792 10030 net.cpp:122] Setting up inception_3a/1x1
I1130 01:44:52.698807 10030 net.cpp:129] Top shape: 32 64 28 28 (1605632)
I1130 01:44:52.698812 10030 net.cpp:137] Memory required for data: 661520512
I1130 01:44:52.698822 10030 layer_factory.hpp:77] Creating layer inception_3a/relu_1x1
I1130 01:44:52.698830 10030 net.cpp:84] Creating Layer inception_3a/relu_1x1
I1130 01:44:52.698837 10030 net.cpp:406] inception_3a/relu_1x1 <- inception_3a/1x1
I1130 01:44:52.698845 10030 net.cpp:367] inception_3a/relu_1x1 -> inception_3a/1x1 (in-place)
I1130 01:44:52.698854 10030 net.cpp:122] Setting up inception_3a/relu_1x1
I1130 01:44:52.698861 10030 net.cpp:129] Top shape: 32 64 28 28 (1605632)
I1130 01:44:52.698866 10030 net.cpp:137] Memory required for data: 667943040
I1130 01:44:52.698869 10030 layer_factory.hpp:77] Creating layer inception_3a/3x3_reduce
I1130 01:44:52.698880 10030 net.cpp:84] Creating Layer inception_3a/3x3_reduce
I1130 01:44:52.698886 10030 net.cpp:406] inception_3a/3x3_reduce <- pool2/3x3_s2_pool2/3x3_s2_0_split_1
I1130 01:44:52.698894 10030 net.cpp:380] inception_3a/3x3_reduce -> inception_3a/3x3_reduce
I1130 01:44:52.699810 10030 net.cpp:122] Setting up inception_3a/3x3_reduce
I1130 01:44:52.699823 10030 net.cpp:129] Top shape: 32 96 28 28 (2408448)
I1130 01:44:52.699828 10030 net.cpp:137] Memory required for data: 677576832
I1130 01:44:52.699841 10030 layer_factory.hpp:77] Creating layer inception_3a/relu_3x3_reduce
I1130 01:44:52.699851 10030 net.cpp:84] Creating Layer inception_3a/relu_3x3_reduce
I1130 01:44:52.699856 10030 net.cpp:406] inception_3a/relu_3x3_reduce <- inception_3a/3x3_reduce
I1130 01:44:52.699863 10030 net.cpp:367] inception_3a/relu_3x3_reduce -> inception_3a/3x3_reduce (in-place)
I1130 01:44:52.699872 10030 net.cpp:122] Setting up inception_3a/relu_3x3_reduce
I1130 01:44:52.699879 10030 net.cpp:129] Top shape: 32 96 28 28 (2408448)
I1130 01:44:52.699883 10030 net.cpp:137] Memory required for data: 687210624
I1130 01:44:52.699887 10030 layer_factory.hpp:77] Creating layer inception_3a/3x3
I1130 01:44:52.699899 10030 net.cpp:84] Creating Layer inception_3a/3x3
I1130 01:44:52.699904 10030 net.cpp:406] inception_3a/3x3 <- inception_3a/3x3_reduce
I1130 01:44:52.699913 10030 net.cpp:380] inception_3a/3x3 -> inception_3a/3x3
I1130 01:44:52.701019 10030 net.cpp:122] Setting up inception_3a/3x3
I1130 01:44:52.701030 10030 net.cpp:129] Top shape: 32 128 28 28 (3211264)
I1130 01:44:52.701040 10030 net.cpp:137] Memory required for data: 700055680
I1130 01:44:52.701047 10030 layer_factory.hpp:77] Creating layer inception_3a/relu_3x3
I1130 01:44:52.701056 10030 net.cpp:84] Creating Layer inception_3a/relu_3x3
I1130 01:44:52.701061 10030 net.cpp:406] inception_3a/relu_3x3 <- inception_3a/3x3
I1130 01:44:52.701067 10030 net.cpp:367] inception_3a/relu_3x3 -> inception_3a/3x3 (in-place)
I1130 01:44:52.701076 10030 net.cpp:122] Setting up inception_3a/relu_3x3
I1130 01:44:52.701082 10030 net.cpp:129] Top shape: 32 128 28 28 (3211264)
I1130 01:44:52.701086 10030 net.cpp:137] Memory required for data: 712900736
I1130 01:44:52.701090 10030 layer_factory.hpp:77] Creating layer inception_3a/5x5_reduce
I1130 01:44:52.701099 10030 net.cpp:84] Creating Layer inception_3a/5x5_reduce
I1130 01:44:52.701105 10030 net.cpp:406] inception_3a/5x5_reduce <- pool2/3x3_s2_pool2/3x3_s2_0_split_2
I1130 01:44:52.701112 10030 net.cpp:380] inception_3a/5x5_reduce -> inception_3a/5x5_reduce
I1130 01:44:52.701378 10030 net.cpp:122] Setting up inception_3a/5x5_reduce
I1130 01:44:52.701390 10030 net.cpp:129] Top shape: 32 16 28 28 (401408)
I1130 01:44:52.701395 10030 net.cpp:137] Memory required for data: 714506368
I1130 01:44:52.701402 10030 layer_factory.hpp:77] Creating layer inception_3a/relu_5x5_reduce
I1130 01:44:52.701409 10030 net.cpp:84] Creating Layer inception_3a/relu_5x5_reduce
I1130 01:44:52.701416 10030 net.cpp:406] inception_3a/relu_5x5_reduce <- inception_3a/5x5_reduce
I1130 01:44:52.701422 10030 net.cpp:367] inception_3a/relu_5x5_reduce -> inception_3a/5x5_reduce (in-place)
I1130 01:44:52.701431 10030 net.cpp:122] Setting up inception_3a/relu_5x5_reduce
I1130 01:44:52.701437 10030 net.cpp:129] Top shape: 32 16 28 28 (401408)
I1130 01:44:52.701442 10030 net.cpp:137] Memory required for data: 716112000
I1130 01:44:52.701445 10030 layer_factory.hpp:77] Creating layer inception_3a/5x5
I1130 01:44:52.701454 10030 net.cpp:84] Creating Layer inception_3a/5x5
I1130 01:44:52.701459 10030 net.cpp:406] inception_3a/5x5 <- inception_3a/5x5_reduce
I1130 01:44:52.701467 10030 net.cpp:380] inception_3a/5x5 -> inception_3a/5x5
I1130 01:44:52.701797 10030 net.cpp:122] Setting up inception_3a/5x5
I1130 01:44:52.701808 10030 net.cpp:129] Top shape: 32 32 28 28 (802816)
I1130 01:44:52.701812 10030 net.cpp:137] Memory required for data: 719323264
I1130 01:44:52.701820 10030 layer_factory.hpp:77] Creating layer inception_3a/relu_5x5
I1130 01:44:52.701828 10030 net.cpp:84] Creating Layer inception_3a/relu_5x5
I1130 01:44:52.701833 10030 net.cpp:406] inception_3a/relu_5x5 <- inception_3a/5x5
I1130 01:44:52.701839 10030 net.cpp:367] inception_3a/relu_5x5 -> inception_3a/5x5 (in-place)
I1130 01:44:52.701848 10030 net.cpp:122] Setting up inception_3a/relu_5x5
I1130 01:44:52.701853 10030 net.cpp:129] Top shape: 32 32 28 28 (802816)
I1130 01:44:52.701858 10030 net.cpp:137] Memory required for data: 722534528
I1130 01:44:52.701861 10030 layer_factory.hpp:77] Creating layer inception_3a/pool
I1130 01:44:52.701869 10030 net.cpp:84] Creating Layer inception_3a/pool
I1130 01:44:52.701874 10030 net.cpp:406] inception_3a/pool <- pool2/3x3_s2_pool2/3x3_s2_0_split_3
I1130 01:44:52.701880 10030 net.cpp:380] inception_3a/pool -> inception_3a/pool
I1130 01:44:52.701922 10030 net.cpp:122] Setting up inception_3a/pool
I1130 01:44:52.701930 10030 net.cpp:129] Top shape: 32 192 28 28 (4816896)
I1130 01:44:52.701936 10030 net.cpp:137] Memory required for data: 741802112
I1130 01:44:52.701939 10030 layer_factory.hpp:77] Creating layer inception_3a/pool_proj
I1130 01:44:52.701949 10030 net.cpp:84] Creating Layer inception_3a/pool_proj
I1130 01:44:52.701954 10030 net.cpp:406] inception_3a/pool_proj <- inception_3a/pool
I1130 01:44:52.701962 10030 net.cpp:380] inception_3a/pool_proj -> inception_3a/pool_proj
I1130 01:44:52.702237 10030 net.cpp:122] Setting up inception_3a/pool_proj
I1130 01:44:52.702249 10030 net.cpp:129] Top shape: 32 32 28 28 (802816)
I1130 01:44:52.702253 10030 net.cpp:137] Memory required for data: 745013376
I1130 01:44:52.702270 10030 layer_factory.hpp:77] Creating layer inception_3a/relu_pool_proj
I1130 01:44:52.702276 10030 net.cpp:84] Creating Layer inception_3a/relu_pool_proj
I1130 01:44:52.702282 10030 net.cpp:406] inception_3a/relu_pool_proj <- inception_3a/pool_proj
I1130 01:44:52.702289 10030 net.cpp:367] inception_3a/relu_pool_proj -> inception_3a/pool_proj (in-place)
I1130 01:44:52.702297 10030 net.cpp:122] Setting up inception_3a/relu_pool_proj
I1130 01:44:52.702304 10030 net.cpp:129] Top shape: 32 32 28 28 (802816)
I1130 01:44:52.702308 10030 net.cpp:137] Memory required for data: 748224640
I1130 01:44:52.702313 10030 layer_factory.hpp:77] Creating layer inception_3a/output
I1130 01:44:52.702322 10030 net.cpp:84] Creating Layer inception_3a/output
I1130 01:44:52.702327 10030 net.cpp:406] inception_3a/output <- inception_3a/1x1
I1130 01:44:52.702332 10030 net.cpp:406] inception_3a/output <- inception_3a/3x3
I1130 01:44:52.702337 10030 net.cpp:406] inception_3a/output <- inception_3a/5x5
I1130 01:44:52.702342 10030 net.cpp:406] inception_3a/output <- inception_3a/pool_proj
I1130 01:44:52.702349 10030 net.cpp:380] inception_3a/output -> inception_3a/output
I1130 01:44:52.702378 10030 net.cpp:122] Setting up inception_3a/output
I1130 01:44:52.702386 10030 net.cpp:129] Top shape: 32 256 28 28 (6422528)
I1130 01:44:52.702390 10030 net.cpp:137] Memory required for data: 773914752
I1130 01:44:52.702394 10030 layer_factory.hpp:77] Creating layer inception_3a/output_inception_3a/output_0_split
I1130 01:44:52.702402 10030 net.cpp:84] Creating Layer inception_3a/output_inception_3a/output_0_split
I1130 01:44:52.702407 10030 net.cpp:406] inception_3a/output_inception_3a/output_0_split <- inception_3a/output
I1130 01:44:52.702414 10030 net.cpp:380] inception_3a/output_inception_3a/output_0_split -> inception_3a/output_inception_3a/output_0_split_0
I1130 01:44:52.702422 10030 net.cpp:380] inception_3a/output_inception_3a/output_0_split -> inception_3a/output_inception_3a/output_0_split_1
I1130 01:44:52.702431 10030 net.cpp:380] inception_3a/output_inception_3a/output_0_split -> inception_3a/output_inception_3a/output_0_split_2
I1130 01:44:52.702440 10030 net.cpp:380] inception_3a/output_inception_3a/output_0_split -> inception_3a/output_inception_3a/output_0_split_3
I1130 01:44:52.702495 10030 net.cpp:122] Setting up inception_3a/output_inception_3a/output_0_split
I1130 01:44:52.702504 10030 net.cpp:129] Top shape: 32 256 28 28 (6422528)
I1130 01:44:52.702510 10030 net.cpp:129] Top shape: 32 256 28 28 (6422528)
I1130 01:44:52.702517 10030 net.cpp:129] Top shape: 32 256 28 28 (6422528)
I1130 01:44:52.702522 10030 net.cpp:129] Top shape: 32 256 28 28 (6422528)
I1130 01:44:52.702527 10030 net.cpp:137] Memory required for data: 876675200
I1130 01:44:52.702531 10030 layer_factory.hpp:77] Creating layer inception_3b/1x1
I1130 01:44:52.702541 10030 net.cpp:84] Creating Layer inception_3b/1x1
I1130 01:44:52.702546 10030 net.cpp:406] inception_3b/1x1 <- inception_3a/output_inception_3a/output_0_split_0
I1130 01:44:52.702554 10030 net.cpp:380] inception_3b/1x1 -> inception_3b/1x1
I1130 01:44:52.703035 10030 net.cpp:122] Setting up inception_3b/1x1
I1130 01:44:52.703047 10030 net.cpp:129] Top shape: 32 128 28 28 (3211264)
I1130 01:44:52.703052 10030 net.cpp:137] Memory required for data: 889520256
I1130 01:44:52.703059 10030 layer_factory.hpp:77] Creating layer inception_3b/relu_1x1
I1130 01:44:52.703066 10030 net.cpp:84] Creating Layer inception_3b/relu_1x1
I1130 01:44:52.703073 10030 net.cpp:406] inception_3b/relu_1x1 <- inception_3b/1x1
I1130 01:44:52.703078 10030 net.cpp:367] inception_3b/relu_1x1 -> inception_3b/1x1 (in-place)
I1130 01:44:52.703086 10030 net.cpp:122] Setting up inception_3b/relu_1x1
I1130 01:44:52.703094 10030 net.cpp:129] Top shape: 32 128 28 28 (3211264)
I1130 01:44:52.703097 10030 net.cpp:137] Memory required for data: 902365312
I1130 01:44:52.703101 10030 layer_factory.hpp:77] Creating layer inception_3b/3x3_reduce
I1130 01:44:52.703111 10030 net.cpp:84] Creating Layer inception_3b/3x3_reduce
I1130 01:44:52.703116 10030 net.cpp:406] inception_3b/3x3_reduce <- inception_3a/output_inception_3a/output_0_split_1
I1130 01:44:52.703126 10030 net.cpp:380] inception_3b/3x3_reduce -> inception_3b/3x3_reduce
I1130 01:44:52.703604 10030 net.cpp:122] Setting up inception_3b/3x3_reduce
I1130 01:44:52.703615 10030 net.cpp:129] Top shape: 32 128 28 28 (3211264)
I1130 01:44:52.703620 10030 net.cpp:137] Memory required for data: 915210368
I1130 01:44:52.703627 10030 layer_factory.hpp:77] Creating layer inception_3b/relu_3x3_reduce
I1130 01:44:52.703635 10030 net.cpp:84] Creating Layer inception_3b/relu_3x3_reduce
I1130 01:44:52.703641 10030 net.cpp:406] inception_3b/relu_3x3_reduce <- inception_3b/3x3_reduce
I1130 01:44:52.703647 10030 net.cpp:367] inception_3b/relu_3x3_reduce -> inception_3b/3x3_reduce (in-place)
I1130 01:44:52.703655 10030 net.cpp:122] Setting up inception_3b/relu_3x3_reduce
I1130 01:44:52.703662 10030 net.cpp:129] Top shape: 32 128 28 28 (3211264)
I1130 01:44:52.703666 10030 net.cpp:137] Memory required for data: 928055424
I1130 01:44:52.703670 10030 layer_factory.hpp:77] Creating layer inception_3b/3x3
I1130 01:44:52.703680 10030 net.cpp:84] Creating Layer inception_3b/3x3
I1130 01:44:52.703685 10030 net.cpp:406] inception_3b/3x3 <- inception_3b/3x3_reduce
I1130 01:44:52.703692 10030 net.cpp:380] inception_3b/3x3 -> inception_3b/3x3
I1130 01:44:52.705826 10030 net.cpp:122] Setting up inception_3b/3x3
I1130 01:44:52.705838 10030 net.cpp:129] Top shape: 32 192 28 28 (4816896)
I1130 01:44:52.705842 10030 net.cpp:137] Memory required for data: 947323008
I1130 01:44:52.705849 10030 layer_factory.hpp:77] Creating layer inception_3b/relu_3x3
I1130 01:44:52.705859 10030 net.cpp:84] Creating Layer inception_3b/relu_3x3
I1130 01:44:52.705864 10030 net.cpp:406] inception_3b/relu_3x3 <- inception_3b/3x3
I1130 01:44:52.705870 10030 net.cpp:367] inception_3b/relu_3x3 -> inception_3b/3x3 (in-place)
I1130 01:44:52.705878 10030 net.cpp:122] Setting up inception_3b/relu_3x3
I1130 01:44:52.705884 10030 net.cpp:129] Top shape: 32 192 28 28 (4816896)
I1130 01:44:52.705888 10030 net.cpp:137] Memory required for data: 966590592
I1130 01:44:52.705890 10030 layer_factory.hpp:77] Creating layer inception_3b/5x5_reduce
I1130 01:44:52.705899 10030 net.cpp:84] Creating Layer inception_3b/5x5_reduce
I1130 01:44:52.705904 10030 net.cpp:406] inception_3b/5x5_reduce <- inception_3a/output_inception_3a/output_0_split_2
I1130 01:44:52.705910 10030 net.cpp:380] inception_3b/5x5_reduce -> inception_3b/5x5_reduce
I1130 01:44:52.706166 10030 net.cpp:122] Setting up inception_3b/5x5_reduce
I1130 01:44:52.706176 10030 net.cpp:129] Top shape: 32 32 28 28 (802816)
I1130 01:44:52.706181 10030 net.cpp:137] Memory required for data: 969801856
I1130 01:44:52.706187 10030 layer_factory.hpp:77] Creating layer inception_3b/relu_5x5_reduce
I1130 01:44:52.706193 10030 net.cpp:84] Creating Layer inception_3b/relu_5x5_reduce
I1130 01:44:52.706197 10030 net.cpp:406] inception_3b/relu_5x5_reduce <- inception_3b/5x5_reduce
I1130 01:44:52.706204 10030 net.cpp:367] inception_3b/relu_5x5_reduce -> inception_3b/5x5_reduce (in-place)
I1130 01:44:52.706210 10030 net.cpp:122] Setting up inception_3b/relu_5x5_reduce
I1130 01:44:52.706217 10030 net.cpp:129] Top shape: 32 32 28 28 (802816)
I1130 01:44:52.706219 10030 net.cpp:137] Memory required for data: 973013120
I1130 01:44:52.706223 10030 layer_factory.hpp:77] Creating layer inception_3b/5x5
I1130 01:44:52.706231 10030 net.cpp:84] Creating Layer inception_3b/5x5
I1130 01:44:52.706235 10030 net.cpp:406] inception_3b/5x5 <- inception_3b/5x5_reduce
I1130 01:44:52.706241 10030 net.cpp:380] inception_3b/5x5 -> inception_3b/5x5
I1130 01:44:52.707365 10030 net.cpp:122] Setting up inception_3b/5x5
I1130 01:44:52.707377 10030 net.cpp:129] Top shape: 32 96 28 28 (2408448)
I1130 01:44:52.707381 10030 net.cpp:137] Memory required for data: 982646912
I1130 01:44:52.707388 10030 layer_factory.hpp:77] Creating layer inception_3b/relu_5x5
I1130 01:44:52.707396 10030 net.cpp:84] Creating Layer inception_3b/relu_5x5
I1130 01:44:52.707401 10030 net.cpp:406] inception_3b/relu_5x5 <- inception_3b/5x5
I1130 01:44:52.707409 10030 net.cpp:367] inception_3b/relu_5x5 -> inception_3b/5x5 (in-place)
I1130 01:44:52.707417 10030 net.cpp:122] Setting up inception_3b/relu_5x5
I1130 01:44:52.707422 10030 net.cpp:129] Top shape: 32 96 28 28 (2408448)
I1130 01:44:52.707427 10030 net.cpp:137] Memory required for data: 992280704
I1130 01:44:52.707429 10030 layer_factory.hpp:77] Creating layer inception_3b/pool
I1130 01:44:52.707437 10030 net.cpp:84] Creating Layer inception_3b/pool
I1130 01:44:52.707440 10030 net.cpp:406] inception_3b/pool <- inception_3a/output_inception_3a/output_0_split_3
I1130 01:44:52.707446 10030 net.cpp:380] inception_3b/pool -> inception_3b/pool
I1130 01:44:52.707481 10030 net.cpp:122] Setting up inception_3b/pool
I1130 01:44:52.707489 10030 net.cpp:129] Top shape: 32 256 28 28 (6422528)
I1130 01:44:52.707492 10030 net.cpp:137] Memory required for data: 1017970816
I1130 01:44:52.707495 10030 layer_factory.hpp:77] Creating layer inception_3b/pool_proj
I1130 01:44:52.707504 10030 net.cpp:84] Creating Layer inception_3b/pool_proj
I1130 01:44:52.707509 10030 net.cpp:406] inception_3b/pool_proj <- inception_3b/pool
I1130 01:44:52.707516 10030 net.cpp:380] inception_3b/pool_proj -> inception_3b/pool_proj
I1130 01:44:52.707830 10030 net.cpp:122] Setting up inception_3b/pool_proj
I1130 01:44:52.707840 10030 net.cpp:129] Top shape: 32 64 28 28 (1605632)
I1130 01:44:52.707844 10030 net.cpp:137] Memory required for data: 1024393344
I1130 01:44:52.707851 10030 layer_factory.hpp:77] Creating layer inception_3b/relu_pool_proj
I1130 01:44:52.707857 10030 net.cpp:84] Creating Layer inception_3b/relu_pool_proj
I1130 01:44:52.707862 10030 net.cpp:406] inception_3b/relu_pool_proj <- inception_3b/pool_proj
I1130 01:44:52.707868 10030 net.cpp:367] inception_3b/relu_pool_proj -> inception_3b/pool_proj (in-place)
I1130 01:44:52.707875 10030 net.cpp:122] Setting up inception_3b/relu_pool_proj
I1130 01:44:52.707881 10030 net.cpp:129] Top shape: 32 64 28 28 (1605632)
I1130 01:44:52.707885 10030 net.cpp:137] Memory required for data: 1030815872
I1130 01:44:52.707888 10030 layer_factory.hpp:77] Creating layer inception_3b/output
I1130 01:44:52.707895 10030 net.cpp:84] Creating Layer inception_3b/output
I1130 01:44:52.707898 10030 net.cpp:406] inception_3b/output <- inception_3b/1x1
I1130 01:44:52.707902 10030 net.cpp:406] inception_3b/output <- inception_3b/3x3
I1130 01:44:52.707907 10030 net.cpp:406] inception_3b/output <- inception_3b/5x5
I1130 01:44:52.707912 10030 net.cpp:406] inception_3b/output <- inception_3b/pool_proj
I1130 01:44:52.707917 10030 net.cpp:380] inception_3b/output -> inception_3b/output
I1130 01:44:52.707942 10030 net.cpp:122] Setting up inception_3b/output
I1130 01:44:52.707950 10030 net.cpp:129] Top shape: 32 480 28 28 (12042240)
I1130 01:44:52.707954 10030 net.cpp:137] Memory required for data: 1078984832
I1130 01:44:52.707957 10030 layer_factory.hpp:77] Creating layer pool3/3x3_s2
I1130 01:44:52.707964 10030 net.cpp:84] Creating Layer pool3/3x3_s2
I1130 01:44:52.707968 10030 net.cpp:406] pool3/3x3_s2 <- inception_3b/output
I1130 01:44:52.707974 10030 net.cpp:380] pool3/3x3_s2 -> pool3/3x3_s2
I1130 01:44:52.708006 10030 net.cpp:122] Setting up pool3/3x3_s2
I1130 01:44:52.708014 10030 net.cpp:129] Top shape: 32 480 14 14 (3010560)
I1130 01:44:52.708017 10030 net.cpp:137] Memory required for data: 1091027072
I1130 01:44:52.708020 10030 layer_factory.hpp:77] Creating layer pool3/3x3_s2_pool3/3x3_s2_0_split
I1130 01:44:52.708027 10030 net.cpp:84] Creating Layer pool3/3x3_s2_pool3/3x3_s2_0_split
I1130 01:44:52.708031 10030 net.cpp:406] pool3/3x3_s2_pool3/3x3_s2_0_split <- pool3/3x3_s2
I1130 01:44:52.708037 10030 net.cpp:380] pool3/3x3_s2_pool3/3x3_s2_0_split -> pool3/3x3_s2_pool3/3x3_s2_0_split_0
I1130 01:44:52.708045 10030 net.cpp:380] pool3/3x3_s2_pool3/3x3_s2_0_split -> pool3/3x3_s2_pool3/3x3_s2_0_split_1
I1130 01:44:52.708051 10030 net.cpp:380] pool3/3x3_s2_pool3/3x3_s2_0_split -> pool3/3x3_s2_pool3/3x3_s2_0_split_2
I1130 01:44:52.708058 10030 net.cpp:380] pool3/3x3_s2_pool3/3x3_s2_0_split -> pool3/3x3_s2_pool3/3x3_s2_0_split_3
I1130 01:44:52.708108 10030 net.cpp:122] Setting up pool3/3x3_s2_pool3/3x3_s2_0_split
I1130 01:44:52.708115 10030 net.cpp:129] Top shape: 32 480 14 14 (3010560)
I1130 01:44:52.708120 10030 net.cpp:129] Top shape: 32 480 14 14 (3010560)
I1130 01:44:52.708125 10030 net.cpp:129] Top shape: 32 480 14 14 (3010560)
I1130 01:44:52.708130 10030 net.cpp:129] Top shape: 32 480 14 14 (3010560)
I1130 01:44:52.708134 10030 net.cpp:137] Memory required for data: 1139196032
I1130 01:44:52.708137 10030 layer_factory.hpp:77] Creating layer inception_4a/1x1
I1130 01:44:52.708147 10030 net.cpp:84] Creating Layer inception_4a/1x1
I1130 01:44:52.708150 10030 net.cpp:406] inception_4a/1x1 <- pool3/3x3_s2_pool3/3x3_s2_0_split_0
I1130 01:44:52.708158 10030 net.cpp:380] inception_4a/1x1 -> inception_4a/1x1
I1130 01:44:52.708966 10030 net.cpp:122] Setting up inception_4a/1x1
I1130 01:44:52.708976 10030 net.cpp:129] Top shape: 32 192 14 14 (1204224)
I1130 01:44:52.708981 10030 net.cpp:137] Memory required for data: 1144012928
I1130 01:44:52.708987 10030 layer_factory.hpp:77] Creating layer inception_4a/relu_1x1
I1130 01:44:52.708993 10030 net.cpp:84] Creating Layer inception_4a/relu_1x1
I1130 01:44:52.708998 10030 net.cpp:406] inception_4a/relu_1x1 <- inception_4a/1x1
I1130 01:44:52.709004 10030 net.cpp:367] inception_4a/relu_1x1 -> inception_4a/1x1 (in-place)
I1130 01:44:52.709012 10030 net.cpp:122] Setting up inception_4a/relu_1x1
I1130 01:44:52.709017 10030 net.cpp:129] Top shape: 32 192 14 14 (1204224)
I1130 01:44:52.709020 10030 net.cpp:137] Memory required for data: 1148829824
I1130 01:44:52.709023 10030 layer_factory.hpp:77] Creating layer inception_4a/3x3_reduce
I1130 01:44:52.709031 10030 net.cpp:84] Creating Layer inception_4a/3x3_reduce
I1130 01:44:52.709035 10030 net.cpp:406] inception_4a/3x3_reduce <- pool3/3x3_s2_pool3/3x3_s2_0_split_1
I1130 01:44:52.709041 10030 net.cpp:380] inception_4a/3x3_reduce -> inception_4a/3x3_reduce
I1130 01:44:52.709560 10030 net.cpp:122] Setting up inception_4a/3x3_reduce
I1130 01:44:52.709570 10030 net.cpp:129] Top shape: 32 96 14 14 (602112)
I1130 01:44:52.709574 10030 net.cpp:137] Memory required for data: 1151238272
I1130 01:44:52.709585 10030 layer_factory.hpp:77] Creating layer inception_4a/relu_3x3_reduce
I1130 01:44:52.709591 10030 net.cpp:84] Creating Layer inception_4a/relu_3x3_reduce
I1130 01:44:52.709596 10030 net.cpp:406] inception_4a/relu_3x3_reduce <- inception_4a/3x3_reduce
I1130 01:44:52.709602 10030 net.cpp:367] inception_4a/relu_3x3_reduce -> inception_4a/3x3_reduce (in-place)
I1130 01:44:52.709610 10030 net.cpp:122] Setting up inception_4a/relu_3x3_reduce
I1130 01:44:52.709615 10030 net.cpp:129] Top shape: 32 96 14 14 (602112)
I1130 01:44:52.709619 10030 net.cpp:137] Memory required for data: 1153646720
I1130 01:44:52.709622 10030 layer_factory.hpp:77] Creating layer inception_4a/3x3
I1130 01:44:52.709630 10030 net.cpp:84] Creating Layer inception_4a/3x3
I1130 01:44:52.709635 10030 net.cpp:406] inception_4a/3x3 <- inception_4a/3x3_reduce
I1130 01:44:52.709641 10030 net.cpp:380] inception_4a/3x3 -> inception_4a/3x3
I1130 01:44:52.711452 10030 net.cpp:122] Setting up inception_4a/3x3
I1130 01:44:52.711463 10030 net.cpp:129] Top shape: 32 208 14 14 (1304576)
I1130 01:44:52.711467 10030 net.cpp:137] Memory required for data: 1158865024
I1130 01:44:52.711474 10030 layer_factory.hpp:77] Creating layer inception_4a/relu_3x3
I1130 01:44:52.711480 10030 net.cpp:84] Creating Layer inception_4a/relu_3x3
I1130 01:44:52.711485 10030 net.cpp:406] inception_4a/relu_3x3 <- inception_4a/3x3
I1130 01:44:52.711491 10030 net.cpp:367] inception_4a/relu_3x3 -> inception_4a/3x3 (in-place)
I1130 01:44:52.711499 10030 net.cpp:122] Setting up inception_4a/relu_3x3
I1130 01:44:52.711504 10030 net.cpp:129] Top shape: 32 208 14 14 (1304576)
I1130 01:44:52.711508 10030 net.cpp:137] Memory required for data: 1164083328
I1130 01:44:52.711511 10030 layer_factory.hpp:77] Creating layer inception_4a/5x5_reduce
I1130 01:44:52.711519 10030 net.cpp:84] Creating Layer inception_4a/5x5_reduce
I1130 01:44:52.711527 10030 net.cpp:406] inception_4a/5x5_reduce <- pool3/3x3_s2_pool3/3x3_s2_0_split_2
I1130 01:44:52.711534 10030 net.cpp:380] inception_4a/5x5_reduce -> inception_4a/5x5_reduce
I1130 01:44:52.711802 10030 net.cpp:122] Setting up inception_4a/5x5_reduce
I1130 01:44:52.711809 10030 net.cpp:129] Top shape: 32 16 14 14 (100352)
I1130 01:44:52.711812 10030 net.cpp:137] Memory required for data: 1164484736
I1130 01:44:52.711817 10030 layer_factory.hpp:77] Creating layer inception_4a/relu_5x5_reduce
I1130 01:44:52.711823 10030 net.cpp:84] Creating Layer inception_4a/relu_5x5_reduce
I1130 01:44:52.711827 10030 net.cpp:406] inception_4a/relu_5x5_reduce <- inception_4a/5x5_reduce
I1130 01:44:52.711833 10030 net.cpp:367] inception_4a/relu_5x5_reduce -> inception_4a/5x5_reduce (in-place)
I1130 01:44:52.711838 10030 net.cpp:122] Setting up inception_4a/relu_5x5_reduce
I1130 01:44:52.711843 10030 net.cpp:129] Top shape: 32 16 14 14 (100352)
I1130 01:44:52.711846 10030 net.cpp:137] Memory required for data: 1164886144
I1130 01:44:52.711848 10030 layer_factory.hpp:77] Creating layer inception_4a/5x5
I1130 01:44:52.711855 10030 net.cpp:84] Creating Layer inception_4a/5x5
I1130 01:44:52.711859 10030 net.cpp:406] inception_4a/5x5 <- inception_4a/5x5_reduce
I1130 01:44:52.711864 10030 net.cpp:380] inception_4a/5x5 -> inception_4a/5x5
I1130 01:44:52.712190 10030 net.cpp:122] Setting up inception_4a/5x5
I1130 01:44:52.712199 10030 net.cpp:129] Top shape: 32 48 14 14 (301056)
I1130 01:44:52.712203 10030 net.cpp:137] Memory required for data: 1166090368
I1130 01:44:52.712209 10030 layer_factory.hpp:77] Creating layer inception_4a/relu_5x5
I1130 01:44:52.712216 10030 net.cpp:84] Creating Layer inception_4a/relu_5x5
I1130 01:44:52.712220 10030 net.cpp:406] inception_4a/relu_5x5 <- inception_4a/5x5
I1130 01:44:52.712227 10030 net.cpp:367] inception_4a/relu_5x5 -> inception_4a/5x5 (in-place)
I1130 01:44:52.712234 10030 net.cpp:122] Setting up inception_4a/relu_5x5
I1130 01:44:52.712239 10030 net.cpp:129] Top shape: 32 48 14 14 (301056)
I1130 01:44:52.712244 10030 net.cpp:137] Memory required for data: 1167294592
I1130 01:44:52.712246 10030 layer_factory.hpp:77] Creating layer inception_4a/pool
I1130 01:44:52.712252 10030 net.cpp:84] Creating Layer inception_4a/pool
I1130 01:44:52.712257 10030 net.cpp:406] inception_4a/pool <- pool3/3x3_s2_pool3/3x3_s2_0_split_3
I1130 01:44:52.712262 10030 net.cpp:380] inception_4a/pool -> inception_4a/pool
I1130 01:44:52.712297 10030 net.cpp:122] Setting up inception_4a/pool
I1130 01:44:52.712306 10030 net.cpp:129] Top shape: 32 480 14 14 (3010560)
I1130 01:44:52.712309 10030 net.cpp:137] Memory required for data: 1179336832
I1130 01:44:52.712313 10030 layer_factory.hpp:77] Creating layer inception_4a/pool_proj
I1130 01:44:52.712321 10030 net.cpp:84] Creating Layer inception_4a/pool_proj
I1130 01:44:52.712327 10030 net.cpp:406] inception_4a/pool_proj <- inception_4a/pool
I1130 01:44:52.712334 10030 net.cpp:380] inception_4a/pool_proj -> inception_4a/pool_proj
I1130 01:44:52.712745 10030 net.cpp:122] Setting up inception_4a/pool_proj
I1130 01:44:52.712754 10030 net.cpp:129] Top shape: 32 64 14 14 (401408)
I1130 01:44:52.712759 10030 net.cpp:137] Memory required for data: 1180942464
I1130 01:44:52.712764 10030 layer_factory.hpp:77] Creating layer inception_4a/relu_pool_proj
I1130 01:44:52.712771 10030 net.cpp:84] Creating Layer inception_4a/relu_pool_proj
I1130 01:44:52.712775 10030 net.cpp:406] inception_4a/relu_pool_proj <- inception_4a/pool_proj
I1130 01:44:52.712781 10030 net.cpp:367] inception_4a/relu_pool_proj -> inception_4a/pool_proj (in-place)
I1130 01:44:52.712788 10030 net.cpp:122] Setting up inception_4a/relu_pool_proj
I1130 01:44:52.712795 10030 net.cpp:129] Top shape: 32 64 14 14 (401408)
I1130 01:44:52.712798 10030 net.cpp:137] Memory required for data: 1182548096
I1130 01:44:52.712801 10030 layer_factory.hpp:77] Creating layer inception_4a/output
I1130 01:44:52.712807 10030 net.cpp:84] Creating Layer inception_4a/output
I1130 01:44:52.712811 10030 net.cpp:406] inception_4a/output <- inception_4a/1x1
I1130 01:44:52.712852 10030 net.cpp:406] inception_4a/output <- inception_4a/3x3
I1130 01:44:52.712857 10030 net.cpp:406] inception_4a/output <- inception_4a/5x5
I1130 01:44:52.712862 10030 net.cpp:406] inception_4a/output <- inception_4a/pool_proj
I1130 01:44:52.712867 10030 net.cpp:380] inception_4a/output -> inception_4a/output
I1130 01:44:52.712893 10030 net.cpp:122] Setting up inception_4a/output
I1130 01:44:52.712900 10030 net.cpp:129] Top shape: 32 512 14 14 (3211264)
I1130 01:44:52.712904 10030 net.cpp:137] Memory required for data: 1195393152
I1130 01:44:52.712908 10030 layer_factory.hpp:77] Creating layer inception_4a/output_inception_4a/output_0_split
I1130 01:44:52.712914 10030 net.cpp:84] Creating Layer inception_4a/output_inception_4a/output_0_split
I1130 01:44:52.712919 10030 net.cpp:406] inception_4a/output_inception_4a/output_0_split <- inception_4a/output
I1130 01:44:52.712926 10030 net.cpp:380] inception_4a/output_inception_4a/output_0_split -> inception_4a/output_inception_4a/output_0_split_0
I1130 01:44:52.712934 10030 net.cpp:380] inception_4a/output_inception_4a/output_0_split -> inception_4a/output_inception_4a/output_0_split_1
I1130 01:44:52.712941 10030 net.cpp:380] inception_4a/output_inception_4a/output_0_split -> inception_4a/output_inception_4a/output_0_split_2
I1130 01:44:52.712949 10030 net.cpp:380] inception_4a/output_inception_4a/output_0_split -> inception_4a/output_inception_4a/output_0_split_3
I1130 01:44:52.712999 10030 net.cpp:122] Setting up inception_4a/output_inception_4a/output_0_split
I1130 01:44:52.713006 10030 net.cpp:129] Top shape: 32 512 14 14 (3211264)
I1130 01:44:52.713011 10030 net.cpp:129] Top shape: 32 512 14 14 (3211264)
I1130 01:44:52.713016 10030 net.cpp:129] Top shape: 32 512 14 14 (3211264)
I1130 01:44:52.713021 10030 net.cpp:129] Top shape: 32 512 14 14 (3211264)
I1130 01:44:52.713023 10030 net.cpp:137] Memory required for data: 1246773376
I1130 01:44:52.713027 10030 layer_factory.hpp:77] Creating layer inception_4b/1x1
I1130 01:44:52.713035 10030 net.cpp:84] Creating Layer inception_4b/1x1
I1130 01:44:52.713039 10030 net.cpp:406] inception_4b/1x1 <- inception_4a/output_inception_4a/output_0_split_0
I1130 01:44:52.713047 10030 net.cpp:380] inception_4b/1x1 -> inception_4b/1x1
I1130 01:44:52.713790 10030 net.cpp:122] Setting up inception_4b/1x1
I1130 01:44:52.713800 10030 net.cpp:129] Top shape: 32 160 14 14 (1003520)
I1130 01:44:52.713804 10030 net.cpp:137] Memory required for data: 1250787456
I1130 01:44:52.713811 10030 layer_factory.hpp:77] Creating layer inception_4b/relu_1x1
I1130 01:44:52.713817 10030 net.cpp:84] Creating Layer inception_4b/relu_1x1
I1130 01:44:52.713822 10030 net.cpp:406] inception_4b/relu_1x1 <- inception_4b/1x1
I1130 01:44:52.713827 10030 net.cpp:367] inception_4b/relu_1x1 -> inception_4b/1x1 (in-place)
I1130 01:44:52.713835 10030 net.cpp:122] Setting up inception_4b/relu_1x1
I1130 01:44:52.713840 10030 net.cpp:129] Top shape: 32 160 14 14 (1003520)
I1130 01:44:52.713845 10030 net.cpp:137] Memory required for data: 1254801536
I1130 01:44:52.713847 10030 layer_factory.hpp:77] Creating layer inception_4b/3x3_reduce
I1130 01:44:52.713855 10030 net.cpp:84] Creating Layer inception_4b/3x3_reduce
I1130 01:44:52.713860 10030 net.cpp:406] inception_4b/3x3_reduce <- inception_4a/output_inception_4a/output_0_split_1
I1130 01:44:52.713865 10030 net.cpp:380] inception_4b/3x3_reduce -> inception_4b/3x3_reduce
I1130 01:44:52.714459 10030 net.cpp:122] Setting up inception_4b/3x3_reduce
I1130 01:44:52.714469 10030 net.cpp:129] Top shape: 32 112 14 14 (702464)
I1130 01:44:52.714473 10030 net.cpp:137] Memory required for data: 1257611392
I1130 01:44:52.714479 10030 layer_factory.hpp:77] Creating layer inception_4b/relu_3x3_reduce
I1130 01:44:52.714485 10030 net.cpp:84] Creating Layer inception_4b/relu_3x3_reduce
I1130 01:44:52.714490 10030 net.cpp:406] inception_4b/relu_3x3_reduce <- inception_4b/3x3_reduce
I1130 01:44:52.714496 10030 net.cpp:367] inception_4b/relu_3x3_reduce -> inception_4b/3x3_reduce (in-place)
I1130 01:44:52.714504 10030 net.cpp:122] Setting up inception_4b/relu_3x3_reduce
I1130 01:44:52.714509 10030 net.cpp:129] Top shape: 32 112 14 14 (702464)
I1130 01:44:52.714512 10030 net.cpp:137] Memory required for data: 1260421248
I1130 01:44:52.714516 10030 layer_factory.hpp:77] Creating layer inception_4b/3x3
I1130 01:44:52.714524 10030 net.cpp:84] Creating Layer inception_4b/3x3
I1130 01:44:52.714529 10030 net.cpp:406] inception_4b/3x3 <- inception_4b/3x3_reduce
I1130 01:44:52.714534 10030 net.cpp:380] inception_4b/3x3 -> inception_4b/3x3
I1130 01:44:52.716657 10030 net.cpp:122] Setting up inception_4b/3x3
I1130 01:44:52.716670 10030 net.cpp:129] Top shape: 32 224 14 14 (1404928)
I1130 01:44:52.716675 10030 net.cpp:137] Memory required for data: 1266040960
I1130 01:44:52.716681 10030 layer_factory.hpp:77] Creating layer inception_4b/relu_3x3
I1130 01:44:52.716688 10030 net.cpp:84] Creating Layer inception_4b/relu_3x3
I1130 01:44:52.716693 10030 net.cpp:406] inception_4b/relu_3x3 <- inception_4b/3x3
I1130 01:44:52.716699 10030 net.cpp:367] inception_4b/relu_3x3 -> inception_4b/3x3 (in-place)
I1130 01:44:52.716706 10030 net.cpp:122] Setting up inception_4b/relu_3x3
I1130 01:44:52.716712 10030 net.cpp:129] Top shape: 32 224 14 14 (1404928)
I1130 01:44:52.716717 10030 net.cpp:137] Memory required for data: 1271660672
I1130 01:44:52.716719 10030 layer_factory.hpp:77] Creating layer inception_4b/5x5_reduce
I1130 01:44:52.716732 10030 net.cpp:84] Creating Layer inception_4b/5x5_reduce
I1130 01:44:52.716737 10030 net.cpp:406] inception_4b/5x5_reduce <- inception_4a/output_inception_4a/output_0_split_2
I1130 01:44:52.716744 10030 net.cpp:380] inception_4b/5x5_reduce -> inception_4b/5x5_reduce
I1130 01:44:52.717041 10030 net.cpp:122] Setting up inception_4b/5x5_reduce
I1130 01:44:52.717051 10030 net.cpp:129] Top shape: 32 24 14 14 (150528)
I1130 01:44:52.717054 10030 net.cpp:137] Memory required for data: 1272262784
I1130 01:44:52.717061 10030 layer_factory.hpp:77] Creating layer inception_4b/relu_5x5_reduce
I1130 01:44:52.717070 10030 net.cpp:84] Creating Layer inception_4b/relu_5x5_reduce
I1130 01:44:52.717075 10030 net.cpp:406] inception_4b/relu_5x5_reduce <- inception_4b/5x5_reduce
I1130 01:44:52.717082 10030 net.cpp:367] inception_4b/relu_5x5_reduce -> inception_4b/5x5_reduce (in-place)
I1130 01:44:52.717088 10030 net.cpp:122] Setting up inception_4b/relu_5x5_reduce
I1130 01:44:52.717093 10030 net.cpp:129] Top shape: 32 24 14 14 (150528)
I1130 01:44:52.717097 10030 net.cpp:137] Memory required for data: 1272864896
I1130 01:44:52.717100 10030 layer_factory.hpp:77] Creating layer inception_4b/5x5
I1130 01:44:52.717109 10030 net.cpp:84] Creating Layer inception_4b/5x5
I1130 01:44:52.717113 10030 net.cpp:406] inception_4b/5x5 <- inception_4b/5x5_reduce
I1130 01:44:52.717121 10030 net.cpp:380] inception_4b/5x5 -> inception_4b/5x5
I1130 01:44:52.718000 10030 net.cpp:122] Setting up inception_4b/5x5
I1130 01:44:52.718013 10030 net.cpp:129] Top shape: 32 64 14 14 (401408)
I1130 01:44:52.718016 10030 net.cpp:137] Memory required for data: 1274470528
I1130 01:44:52.718024 10030 layer_factory.hpp:77] Creating layer inception_4b/relu_5x5
I1130 01:44:52.718029 10030 net.cpp:84] Creating Layer inception_4b/relu_5x5
I1130 01:44:52.718034 10030 net.cpp:406] inception_4b/relu_5x5 <- inception_4b/5x5
I1130 01:44:52.718041 10030 net.cpp:367] inception_4b/relu_5x5 -> inception_4b/5x5 (in-place)
I1130 01:44:52.718049 10030 net.cpp:122] Setting up inception_4b/relu_5x5
I1130 01:44:52.718055 10030 net.cpp:129] Top shape: 32 64 14 14 (401408)
I1130 01:44:52.718057 10030 net.cpp:137] Memory required for data: 1276076160
I1130 01:44:52.718060 10030 layer_factory.hpp:77] Creating layer inception_4b/pool
I1130 01:44:52.718068 10030 net.cpp:84] Creating Layer inception_4b/pool
I1130 01:44:52.718073 10030 net.cpp:406] inception_4b/pool <- inception_4a/output_inception_4a/output_0_split_3
I1130 01:44:52.718080 10030 net.cpp:380] inception_4b/pool -> inception_4b/pool
I1130 01:44:52.718122 10030 net.cpp:122] Setting up inception_4b/pool
I1130 01:44:52.718129 10030 net.cpp:129] Top shape: 32 512 14 14 (3211264)
I1130 01:44:52.718132 10030 net.cpp:137] Memory required for data: 1288921216
I1130 01:44:52.718137 10030 layer_factory.hpp:77] Creating layer inception_4b/pool_proj
I1130 01:44:52.718147 10030 net.cpp:84] Creating Layer inception_4b/pool_proj
I1130 01:44:52.718152 10030 net.cpp:406] inception_4b/pool_proj <- inception_4b/pool
I1130 01:44:52.718158 10030 net.cpp:380] inception_4b/pool_proj -> inception_4b/pool_proj
I1130 01:44:52.718588 10030 net.cpp:122] Setting up inception_4b/pool_proj
I1130 01:44:52.718598 10030 net.cpp:129] Top shape: 32 64 14 14 (401408)
I1130 01:44:52.718602 10030 net.cpp:137] Memory required for data: 1290526848
I1130 01:44:52.718608 10030 layer_factory.hpp:77] Creating layer inception_4b/relu_pool_proj
I1130 01:44:52.718616 10030 net.cpp:84] Creating Layer inception_4b/relu_pool_proj
I1130 01:44:52.718621 10030 net.cpp:406] inception_4b/relu_pool_proj <- inception_4b/pool_proj
I1130 01:44:52.718628 10030 net.cpp:367] inception_4b/relu_pool_proj -> inception_4b/pool_proj (in-place)
I1130 01:44:52.718636 10030 net.cpp:122] Setting up inception_4b/relu_pool_proj
I1130 01:44:52.718641 10030 net.cpp:129] Top shape: 32 64 14 14 (401408)
I1130 01:44:52.718644 10030 net.cpp:137] Memory required for data: 1292132480
I1130 01:44:52.718648 10030 layer_factory.hpp:77] Creating layer inception_4b/output
I1130 01:44:52.718654 10030 net.cpp:84] Creating Layer inception_4b/output
I1130 01:44:52.718658 10030 net.cpp:406] inception_4b/output <- inception_4b/1x1
I1130 01:44:52.718663 10030 net.cpp:406] inception_4b/output <- inception_4b/3x3
I1130 01:44:52.718668 10030 net.cpp:406] inception_4b/output <- inception_4b/5x5
I1130 01:44:52.718672 10030 net.cpp:406] inception_4b/output <- inception_4b/pool_proj
I1130 01:44:52.718679 10030 net.cpp:380] inception_4b/output -> inception_4b/output
I1130 01:44:52.718703 10030 net.cpp:122] Setting up inception_4b/output
I1130 01:44:52.718711 10030 net.cpp:129] Top shape: 32 512 14 14 (3211264)
I1130 01:44:52.718714 10030 net.cpp:137] Memory required for data: 1304977536
I1130 01:44:52.718719 10030 layer_factory.hpp:77] Creating layer inception_4b/output_inception_4b/output_0_split
I1130 01:44:52.718724 10030 net.cpp:84] Creating Layer inception_4b/output_inception_4b/output_0_split
I1130 01:44:52.718729 10030 net.cpp:406] inception_4b/output_inception_4b/output_0_split <- inception_4b/output
I1130 01:44:52.718736 10030 net.cpp:380] inception_4b/output_inception_4b/output_0_split -> inception_4b/output_inception_4b/output_0_split_0
I1130 01:44:52.718744 10030 net.cpp:380] inception_4b/output_inception_4b/output_0_split -> inception_4b/output_inception_4b/output_0_split_1
I1130 01:44:52.718751 10030 net.cpp:380] inception_4b/output_inception_4b/output_0_split -> inception_4b/output_inception_4b/output_0_split_2
I1130 01:44:52.718758 10030 net.cpp:380] inception_4b/output_inception_4b/output_0_split -> inception_4b/output_inception_4b/output_0_split_3
I1130 01:44:52.718814 10030 net.cpp:122] Setting up inception_4b/output_inception_4b/output_0_split
I1130 01:44:52.718822 10030 net.cpp:129] Top shape: 32 512 14 14 (3211264)
I1130 01:44:52.718827 10030 net.cpp:129] Top shape: 32 512 14 14 (3211264)
I1130 01:44:52.718832 10030 net.cpp:129] Top shape: 32 512 14 14 (3211264)
I1130 01:44:52.718837 10030 net.cpp:129] Top shape: 32 512 14 14 (3211264)
I1130 01:44:52.718840 10030 net.cpp:137] Memory required for data: 1356357760
I1130 01:44:52.718844 10030 layer_factory.hpp:77] Creating layer inception_4c/1x1
I1130 01:44:52.718854 10030 net.cpp:84] Creating Layer inception_4c/1x1
I1130 01:44:52.718858 10030 net.cpp:406] inception_4c/1x1 <- inception_4b/output_inception_4b/output_0_split_0
I1130 01:44:52.718865 10030 net.cpp:380] inception_4c/1x1 -> inception_4c/1x1
I1130 01:44:52.719532 10030 net.cpp:122] Setting up inception_4c/1x1
I1130 01:44:52.719542 10030 net.cpp:129] Top shape: 32 128 14 14 (802816)
I1130 01:44:52.719547 10030 net.cpp:137] Memory required for data: 1359569024
I1130 01:44:52.719553 10030 layer_factory.hpp:77] Creating layer inception_4c/relu_1x1
I1130 01:44:52.719560 10030 net.cpp:84] Creating Layer inception_4c/relu_1x1
I1130 01:44:52.719565 10030 net.cpp:406] inception_4c/relu_1x1 <- inception_4c/1x1
I1130 01:44:52.719573 10030 net.cpp:367] inception_4c/relu_1x1 -> inception_4c/1x1 (in-place)
I1130 01:44:52.719580 10030 net.cpp:122] Setting up inception_4c/relu_1x1
I1130 01:44:52.719586 10030 net.cpp:129] Top shape: 32 128 14 14 (802816)
I1130 01:44:52.719590 10030 net.cpp:137] Memory required for data: 1362780288
I1130 01:44:52.719594 10030 layer_factory.hpp:77] Creating layer inception_4c/3x3_reduce
I1130 01:44:52.719602 10030 net.cpp:84] Creating Layer inception_4c/3x3_reduce
I1130 01:44:52.719606 10030 net.cpp:406] inception_4c/3x3_reduce <- inception_4b/output_inception_4b/output_0_split_1
I1130 01:44:52.719614 10030 net.cpp:380] inception_4c/3x3_reduce -> inception_4c/3x3_reduce
I1130 01:44:52.720307 10030 net.cpp:122] Setting up inception_4c/3x3_reduce
I1130 01:44:52.720319 10030 net.cpp:129] Top shape: 32 128 14 14 (802816)
I1130 01:44:52.720322 10030 net.cpp:137] Memory required for data: 1365991552
I1130 01:44:52.720329 10030 layer_factory.hpp:77] Creating layer inception_4c/relu_3x3_reduce
I1130 01:44:52.720336 10030 net.cpp:84] Creating Layer inception_4c/relu_3x3_reduce
I1130 01:44:52.720341 10030 net.cpp:406] inception_4c/relu_3x3_reduce <- inception_4c/3x3_reduce
I1130 01:44:52.720347 10030 net.cpp:367] inception_4c/relu_3x3_reduce -> inception_4c/3x3_reduce (in-place)
I1130 01:44:52.720355 10030 net.cpp:122] Setting up inception_4c/relu_3x3_reduce
I1130 01:44:52.720360 10030 net.cpp:129] Top shape: 32 128 14 14 (802816)
I1130 01:44:52.720365 10030 net.cpp:137] Memory required for data: 1369202816
I1130 01:44:52.720379 10030 layer_factory.hpp:77] Creating layer inception_4c/3x3
I1130 01:44:52.720389 10030 net.cpp:84] Creating Layer inception_4c/3x3
I1130 01:44:52.720394 10030 net.cpp:406] inception_4c/3x3 <- inception_4c/3x3_reduce
I1130 01:44:52.720402 10030 net.cpp:380] inception_4c/3x3 -> inception_4c/3x3
I1130 01:44:52.723032 10030 net.cpp:122] Setting up inception_4c/3x3
I1130 01:44:52.723048 10030 net.cpp:129] Top shape: 32 256 14 14 (1605632)
I1130 01:44:52.723052 10030 net.cpp:137] Memory required for data: 1375625344
I1130 01:44:52.723059 10030 layer_factory.hpp:77] Creating layer inception_4c/relu_3x3
I1130 01:44:52.723067 10030 net.cpp:84] Creating Layer inception_4c/relu_3x3
I1130 01:44:52.723073 10030 net.cpp:406] inception_4c/relu_3x3 <- inception_4c/3x3
I1130 01:44:52.723081 10030 net.cpp:367] inception_4c/relu_3x3 -> inception_4c/3x3 (in-place)
I1130 01:44:52.723089 10030 net.cpp:122] Setting up inception_4c/relu_3x3
I1130 01:44:52.723095 10030 net.cpp:129] Top shape: 32 256 14 14 (1605632)
I1130 01:44:52.723098 10030 net.cpp:137] Memory required for data: 1382047872
I1130 01:44:52.723101 10030 layer_factory.hpp:77] Creating layer inception_4c/5x5_reduce
I1130 01:44:52.723112 10030 net.cpp:84] Creating Layer inception_4c/5x5_reduce
I1130 01:44:52.723117 10030 net.cpp:406] inception_4c/5x5_reduce <- inception_4b/output_inception_4b/output_0_split_2
I1130 01:44:52.723124 10030 net.cpp:380] inception_4c/5x5_reduce -> inception_4c/5x5_reduce
I1130 01:44:52.723430 10030 net.cpp:122] Setting up inception_4c/5x5_reduce
I1130 01:44:52.723439 10030 net.cpp:129] Top shape: 32 24 14 14 (150528)
I1130 01:44:52.723443 10030 net.cpp:137] Memory required for data: 1382649984
I1130 01:44:52.723450 10030 layer_factory.hpp:77] Creating layer inception_4c/relu_5x5_reduce
I1130 01:44:52.723456 10030 net.cpp:84] Creating Layer inception_4c/relu_5x5_reduce
I1130 01:44:52.723461 10030 net.cpp:406] inception_4c/relu_5x5_reduce <- inception_4c/5x5_reduce
I1130 01:44:52.723469 10030 net.cpp:367] inception_4c/relu_5x5_reduce -> inception_4c/5x5_reduce (in-place)
I1130 01:44:52.723476 10030 net.cpp:122] Setting up inception_4c/relu_5x5_reduce
I1130 01:44:52.723482 10030 net.cpp:129] Top shape: 32 24 14 14 (150528)
I1130 01:44:52.723486 10030 net.cpp:137] Memory required for data: 1383252096
I1130 01:44:52.723489 10030 layer_factory.hpp:77] Creating layer inception_4c/5x5
I1130 01:44:52.723498 10030 net.cpp:84] Creating Layer inception_4c/5x5
I1130 01:44:52.723503 10030 net.cpp:406] inception_4c/5x5 <- inception_4c/5x5_reduce
I1130 01:44:52.723510 10030 net.cpp:380] inception_4c/5x5 -> inception_4c/5x5
I1130 01:44:52.724035 10030 net.cpp:122] Setting up inception_4c/5x5
I1130 01:44:52.724046 10030 net.cpp:129] Top shape: 32 64 14 14 (401408)
I1130 01:44:52.724050 10030 net.cpp:137] Memory required for data: 1384857728
I1130 01:44:52.724056 10030 layer_factory.hpp:77] Creating layer inception_4c/relu_5x5
I1130 01:44:52.724063 10030 net.cpp:84] Creating Layer inception_4c/relu_5x5
I1130 01:44:52.724068 10030 net.cpp:406] inception_4c/relu_5x5 <- inception_4c/5x5
I1130 01:44:52.724077 10030 net.cpp:367] inception_4c/relu_5x5 -> inception_4c/5x5 (in-place)
I1130 01:44:52.724084 10030 net.cpp:122] Setting up inception_4c/relu_5x5
I1130 01:44:52.724090 10030 net.cpp:129] Top shape: 32 64 14 14 (401408)
I1130 01:44:52.724093 10030 net.cpp:137] Memory required for data: 1386463360
I1130 01:44:52.724097 10030 layer_factory.hpp:77] Creating layer inception_4c/pool
I1130 01:44:52.724103 10030 net.cpp:84] Creating Layer inception_4c/pool
I1130 01:44:52.724108 10030 net.cpp:406] inception_4c/pool <- inception_4b/output_inception_4b/output_0_split_3
I1130 01:44:52.724114 10030 net.cpp:380] inception_4c/pool -> inception_4c/pool
I1130 01:44:52.724155 10030 net.cpp:122] Setting up inception_4c/pool
I1130 01:44:52.724164 10030 net.cpp:129] Top shape: 32 512 14 14 (3211264)
I1130 01:44:52.724167 10030 net.cpp:137] Memory required for data: 1399308416
I1130 01:44:52.724170 10030 layer_factory.hpp:77] Creating layer inception_4c/pool_proj
I1130 01:44:52.724179 10030 net.cpp:84] Creating Layer inception_4c/pool_proj
I1130 01:44:52.724184 10030 net.cpp:406] inception_4c/pool_proj <- inception_4c/pool
I1130 01:44:52.724194 10030 net.cpp:380] inception_4c/pool_proj -> inception_4c/pool_proj
I1130 01:44:52.725188 10030 net.cpp:122] Setting up inception_4c/pool_proj
I1130 01:44:52.725199 10030 net.cpp:129] Top shape: 32 64 14 14 (401408)
I1130 01:44:52.725204 10030 net.cpp:137] Memory required for data: 1400914048
I1130 01:44:52.725222 10030 layer_factory.hpp:77] Creating layer inception_4c/relu_pool_proj
I1130 01:44:52.725231 10030 net.cpp:84] Creating Layer inception_4c/relu_pool_proj
I1130 01:44:52.725237 10030 net.cpp:406] inception_4c/relu_pool_proj <- inception_4c/pool_proj
I1130 01:44:52.725244 10030 net.cpp:367] inception_4c/relu_pool_proj -> inception_4c/pool_proj (in-place)
I1130 01:44:52.725251 10030 net.cpp:122] Setting up inception_4c/relu_pool_proj
I1130 01:44:52.725257 10030 net.cpp:129] Top shape: 32 64 14 14 (401408)
I1130 01:44:52.725260 10030 net.cpp:137] Memory required for data: 1402519680
I1130 01:44:52.725265 10030 layer_factory.hpp:77] Creating layer inception_4c/output
I1130 01:44:52.725270 10030 net.cpp:84] Creating Layer inception_4c/output
I1130 01:44:52.725275 10030 net.cpp:406] inception_4c/output <- inception_4c/1x1
I1130 01:44:52.725280 10030 net.cpp:406] inception_4c/output <- inception_4c/3x3
I1130 01:44:52.725284 10030 net.cpp:406] inception_4c/output <- inception_4c/5x5
I1130 01:44:52.725289 10030 net.cpp:406] inception_4c/output <- inception_4c/pool_proj
I1130 01:44:52.725296 10030 net.cpp:380] inception_4c/output -> inception_4c/output
I1130 01:44:52.725322 10030 net.cpp:122] Setting up inception_4c/output
I1130 01:44:52.725330 10030 net.cpp:129] Top shape: 32 512 14 14 (3211264)
I1130 01:44:52.725334 10030 net.cpp:137] Memory required for data: 1415364736
I1130 01:44:52.725337 10030 layer_factory.hpp:77] Creating layer inception_4c/output_inception_4c/output_0_split
I1130 01:44:52.725344 10030 net.cpp:84] Creating Layer inception_4c/output_inception_4c/output_0_split
I1130 01:44:52.725348 10030 net.cpp:406] inception_4c/output_inception_4c/output_0_split <- inception_4c/output
I1130 01:44:52.725356 10030 net.cpp:380] inception_4c/output_inception_4c/output_0_split -> inception_4c/output_inception_4c/output_0_split_0
I1130 01:44:52.725364 10030 net.cpp:380] inception_4c/output_inception_4c/output_0_split -> inception_4c/output_inception_4c/output_0_split_1
I1130 01:44:52.725371 10030 net.cpp:380] inception_4c/output_inception_4c/output_0_split -> inception_4c/output_inception_4c/output_0_split_2
I1130 01:44:52.725378 10030 net.cpp:380] inception_4c/output_inception_4c/output_0_split -> inception_4c/output_inception_4c/output_0_split_3
I1130 01:44:52.725435 10030 net.cpp:122] Setting up inception_4c/output_inception_4c/output_0_split
I1130 01:44:52.725445 10030 net.cpp:129] Top shape: 32 512 14 14 (3211264)
I1130 01:44:52.725450 10030 net.cpp:129] Top shape: 32 512 14 14 (3211264)
I1130 01:44:52.725455 10030 net.cpp:129] Top shape: 32 512 14 14 (3211264)
I1130 01:44:52.725459 10030 net.cpp:129] Top shape: 32 512 14 14 (3211264)
I1130 01:44:52.725462 10030 net.cpp:137] Memory required for data: 1466744960
I1130 01:44:52.725466 10030 layer_factory.hpp:77] Creating layer inception_4d/1x1
I1130 01:44:52.725477 10030 net.cpp:84] Creating Layer inception_4d/1x1
I1130 01:44:52.725482 10030 net.cpp:406] inception_4d/1x1 <- inception_4c/output_inception_4c/output_0_split_0
I1130 01:44:52.725489 10030 net.cpp:380] inception_4d/1x1 -> inception_4d/1x1
I1130 01:44:52.726083 10030 net.cpp:122] Setting up inception_4d/1x1
I1130 01:44:52.726092 10030 net.cpp:129] Top shape: 32 112 14 14 (702464)
I1130 01:44:52.726096 10030 net.cpp:137] Memory required for data: 1469554816
I1130 01:44:52.726102 10030 layer_factory.hpp:77] Creating layer inception_4d/relu_1x1
I1130 01:44:52.726109 10030 net.cpp:84] Creating Layer inception_4d/relu_1x1
I1130 01:44:52.726115 10030 net.cpp:406] inception_4d/relu_1x1 <- inception_4d/1x1
I1130 01:44:52.726121 10030 net.cpp:367] inception_4d/relu_1x1 -> inception_4d/1x1 (in-place)
I1130 01:44:52.726128 10030 net.cpp:122] Setting up inception_4d/relu_1x1
I1130 01:44:52.726133 10030 net.cpp:129] Top shape: 32 112 14 14 (702464)
I1130 01:44:52.726137 10030 net.cpp:137] Memory required for data: 1472364672
I1130 01:44:52.726140 10030 layer_factory.hpp:77] Creating layer inception_4d/3x3_reduce
I1130 01:44:52.726150 10030 net.cpp:84] Creating Layer inception_4d/3x3_reduce
I1130 01:44:52.726155 10030 net.cpp:406] inception_4d/3x3_reduce <- inception_4c/output_inception_4c/output_0_split_1
I1130 01:44:52.726161 10030 net.cpp:380] inception_4d/3x3_reduce -> inception_4d/3x3_reduce
I1130 01:44:52.726891 10030 net.cpp:122] Setting up inception_4d/3x3_reduce
I1130 01:44:52.726900 10030 net.cpp:129] Top shape: 32 144 14 14 (903168)
I1130 01:44:52.726904 10030 net.cpp:137] Memory required for data: 1475977344
I1130 01:44:52.726910 10030 layer_factory.hpp:77] Creating layer inception_4d/relu_3x3_reduce
I1130 01:44:52.726917 10030 net.cpp:84] Creating Layer inception_4d/relu_3x3_reduce
I1130 01:44:52.726922 10030 net.cpp:406] inception_4d/relu_3x3_reduce <- inception_4d/3x3_reduce
I1130 01:44:52.726929 10030 net.cpp:367] inception_4d/relu_3x3_reduce -> inception_4d/3x3_reduce (in-place)
I1130 01:44:52.726936 10030 net.cpp:122] Setting up inception_4d/relu_3x3_reduce
I1130 01:44:52.726943 10030 net.cpp:129] Top shape: 32 144 14 14 (903168)
I1130 01:44:52.726946 10030 net.cpp:137] Memory required for data: 1479590016
I1130 01:44:52.726950 10030 layer_factory.hpp:77] Creating layer inception_4d/3x3
I1130 01:44:52.726960 10030 net.cpp:84] Creating Layer inception_4d/3x3
I1130 01:44:52.726965 10030 net.cpp:406] inception_4d/3x3 <- inception_4d/3x3_reduce
I1130 01:44:52.726971 10030 net.cpp:380] inception_4d/3x3 -> inception_4d/3x3
I1130 01:44:52.730226 10030 net.cpp:122] Setting up inception_4d/3x3
I1130 01:44:52.730239 10030 net.cpp:129] Top shape: 32 288 14 14 (1806336)
I1130 01:44:52.730243 10030 net.cpp:137] Memory required for data: 1486815360
I1130 01:44:52.730252 10030 layer_factory.hpp:77] Creating layer inception_4d/relu_3x3
I1130 01:44:52.730259 10030 net.cpp:84] Creating Layer inception_4d/relu_3x3
I1130 01:44:52.730264 10030 net.cpp:406] inception_4d/relu_3x3 <- inception_4d/3x3
I1130 01:44:52.730271 10030 net.cpp:367] inception_4d/relu_3x3 -> inception_4d/3x3 (in-place)
I1130 01:44:52.730279 10030 net.cpp:122] Setting up inception_4d/relu_3x3
I1130 01:44:52.730285 10030 net.cpp:129] Top shape: 32 288 14 14 (1806336)
I1130 01:44:52.730289 10030 net.cpp:137] Memory required for data: 1494040704
I1130 01:44:52.730293 10030 layer_factory.hpp:77] Creating layer inception_4d/5x5_reduce
I1130 01:44:52.730303 10030 net.cpp:84] Creating Layer inception_4d/5x5_reduce
I1130 01:44:52.730307 10030 net.cpp:406] inception_4d/5x5_reduce <- inception_4c/output_inception_4c/output_0_split_2
I1130 01:44:52.730314 10030 net.cpp:380] inception_4d/5x5_reduce -> inception_4d/5x5_reduce
I1130 01:44:52.730659 10030 net.cpp:122] Setting up inception_4d/5x5_reduce
I1130 01:44:52.730669 10030 net.cpp:129] Top shape: 32 32 14 14 (200704)
I1130 01:44:52.730672 10030 net.cpp:137] Memory required for data: 1494843520
I1130 01:44:52.730679 10030 layer_factory.hpp:77] Creating layer inception_4d/relu_5x5_reduce
I1130 01:44:52.730686 10030 net.cpp:84] Creating Layer inception_4d/relu_5x5_reduce
I1130 01:44:52.730691 10030 net.cpp:406] inception_4d/relu_5x5_reduce <- inception_4d/5x5_reduce
I1130 01:44:52.730698 10030 net.cpp:367] inception_4d/relu_5x5_reduce -> inception_4d/5x5_reduce (in-place)
I1130 01:44:52.730705 10030 net.cpp:122] Setting up inception_4d/relu_5x5_reduce
I1130 01:44:52.730711 10030 net.cpp:129] Top shape: 32 32 14 14 (200704)
I1130 01:44:52.730715 10030 net.cpp:137] Memory required for data: 1495646336
I1130 01:44:52.730718 10030 layer_factory.hpp:77] Creating layer inception_4d/5x5
I1130 01:44:52.730726 10030 net.cpp:84] Creating Layer inception_4d/5x5
I1130 01:44:52.730731 10030 net.cpp:406] inception_4d/5x5 <- inception_4d/5x5_reduce
I1130 01:44:52.730738 10030 net.cpp:380] inception_4d/5x5 -> inception_4d/5x5
I1130 01:44:52.731305 10030 net.cpp:122] Setting up inception_4d/5x5
I1130 01:44:52.731315 10030 net.cpp:129] Top shape: 32 64 14 14 (401408)
I1130 01:44:52.731319 10030 net.cpp:137] Memory required for data: 1497251968
I1130 01:44:52.731325 10030 layer_factory.hpp:77] Creating layer inception_4d/relu_5x5
I1130 01:44:52.731333 10030 net.cpp:84] Creating Layer inception_4d/relu_5x5
I1130 01:44:52.731336 10030 net.cpp:406] inception_4d/relu_5x5 <- inception_4d/5x5
I1130 01:44:52.731344 10030 net.cpp:367] inception_4d/relu_5x5 -> inception_4d/5x5 (in-place)
I1130 01:44:52.731351 10030 net.cpp:122] Setting up inception_4d/relu_5x5
I1130 01:44:52.731357 10030 net.cpp:129] Top shape: 32 64 14 14 (401408)
I1130 01:44:52.731360 10030 net.cpp:137] Memory required for data: 1498857600
I1130 01:44:52.731364 10030 layer_factory.hpp:77] Creating layer inception_4d/pool
I1130 01:44:52.731371 10030 net.cpp:84] Creating Layer inception_4d/pool
I1130 01:44:52.731375 10030 net.cpp:406] inception_4d/pool <- inception_4c/output_inception_4c/output_0_split_3
I1130 01:44:52.731380 10030 net.cpp:380] inception_4d/pool -> inception_4d/pool
I1130 01:44:52.731425 10030 net.cpp:122] Setting up inception_4d/pool
I1130 01:44:52.731432 10030 net.cpp:129] Top shape: 32 512 14 14 (3211264)
I1130 01:44:52.731436 10030 net.cpp:137] Memory required for data: 1511702656
I1130 01:44:52.731439 10030 layer_factory.hpp:77] Creating layer inception_4d/pool_proj
I1130 01:44:52.731449 10030 net.cpp:84] Creating Layer inception_4d/pool_proj
I1130 01:44:52.731454 10030 net.cpp:406] inception_4d/pool_proj <- inception_4d/pool
I1130 01:44:52.731463 10030 net.cpp:380] inception_4d/pool_proj -> inception_4d/pool_proj
I1130 01:44:52.731907 10030 net.cpp:122] Setting up inception_4d/pool_proj
I1130 01:44:52.731917 10030 net.cpp:129] Top shape: 32 64 14 14 (401408)
I1130 01:44:52.731921 10030 net.cpp:137] Memory required for data: 1513308288
I1130 01:44:52.731927 10030 layer_factory.hpp:77] Creating layer inception_4d/relu_pool_proj
I1130 01:44:52.731935 10030 net.cpp:84] Creating Layer inception_4d/relu_pool_proj
I1130 01:44:52.731940 10030 net.cpp:406] inception_4d/relu_pool_proj <- inception_4d/pool_proj
I1130 01:44:52.731945 10030 net.cpp:367] inception_4d/relu_pool_proj -> inception_4d/pool_proj (in-place)
I1130 01:44:52.731952 10030 net.cpp:122] Setting up inception_4d/relu_pool_proj
I1130 01:44:52.731957 10030 net.cpp:129] Top shape: 32 64 14 14 (401408)
I1130 01:44:52.731961 10030 net.cpp:137] Memory required for data: 1514913920
I1130 01:44:52.731964 10030 layer_factory.hpp:77] Creating layer inception_4d/output
I1130 01:44:52.731971 10030 net.cpp:84] Creating Layer inception_4d/output
I1130 01:44:52.731974 10030 net.cpp:406] inception_4d/output <- inception_4d/1x1
I1130 01:44:52.731979 10030 net.cpp:406] inception_4d/output <- inception_4d/3x3
I1130 01:44:52.731984 10030 net.cpp:406] inception_4d/output <- inception_4d/5x5
I1130 01:44:52.731989 10030 net.cpp:406] inception_4d/output <- inception_4d/pool_proj
I1130 01:44:52.731997 10030 net.cpp:380] inception_4d/output -> inception_4d/output
I1130 01:44:52.732023 10030 net.cpp:122] Setting up inception_4d/output
I1130 01:44:52.732031 10030 net.cpp:129] Top shape: 32 528 14 14 (3311616)
I1130 01:44:52.732035 10030 net.cpp:137] Memory required for data: 1528160384
I1130 01:44:52.732039 10030 layer_factory.hpp:77] Creating layer inception_4d/output_inception_4d/output_0_split
I1130 01:44:52.732045 10030 net.cpp:84] Creating Layer inception_4d/output_inception_4d/output_0_split
I1130 01:44:52.732050 10030 net.cpp:406] inception_4d/output_inception_4d/output_0_split <- inception_4d/output
I1130 01:44:52.732056 10030 net.cpp:380] inception_4d/output_inception_4d/output_0_split -> inception_4d/output_inception_4d/output_0_split_0
I1130 01:44:52.732064 10030 net.cpp:380] inception_4d/output_inception_4d/output_0_split -> inception_4d/output_inception_4d/output_0_split_1
I1130 01:44:52.732070 10030 net.cpp:380] inception_4d/output_inception_4d/output_0_split -> inception_4d/output_inception_4d/output_0_split_2
I1130 01:44:52.732079 10030 net.cpp:380] inception_4d/output_inception_4d/output_0_split -> inception_4d/output_inception_4d/output_0_split_3
I1130 01:44:52.732137 10030 net.cpp:122] Setting up inception_4d/output_inception_4d/output_0_split
I1130 01:44:52.732146 10030 net.cpp:129] Top shape: 32 528 14 14 (3311616)
I1130 01:44:52.732151 10030 net.cpp:129] Top shape: 32 528 14 14 (3311616)
I1130 01:44:52.732156 10030 net.cpp:129] Top shape: 32 528 14 14 (3311616)
I1130 01:44:52.732161 10030 net.cpp:129] Top shape: 32 528 14 14 (3311616)
I1130 01:44:52.732163 10030 net.cpp:137] Memory required for data: 1581146240
I1130 01:44:52.732167 10030 layer_factory.hpp:77] Creating layer inception_4e/1x1
I1130 01:44:52.732177 10030 net.cpp:84] Creating Layer inception_4e/1x1
I1130 01:44:52.732182 10030 net.cpp:406] inception_4e/1x1 <- inception_4d/output_inception_4d/output_0_split_0
I1130 01:44:52.732190 10030 net.cpp:380] inception_4e/1x1 -> inception_4e/1x1
I1130 01:44:52.733723 10030 net.cpp:122] Setting up inception_4e/1x1
I1130 01:44:52.733737 10030 net.cpp:129] Top shape: 32 256 14 14 (1605632)
I1130 01:44:52.733741 10030 net.cpp:137] Memory required for data: 1587568768
I1130 01:44:52.733748 10030 layer_factory.hpp:77] Creating layer inception_4e/relu_1x1
I1130 01:44:52.733755 10030 net.cpp:84] Creating Layer inception_4e/relu_1x1
I1130 01:44:52.733760 10030 net.cpp:406] inception_4e/relu_1x1 <- inception_4e/1x1
I1130 01:44:52.733767 10030 net.cpp:367] inception_4e/relu_1x1 -> inception_4e/1x1 (in-place)
I1130 01:44:52.733774 10030 net.cpp:122] Setting up inception_4e/relu_1x1
I1130 01:44:52.733779 10030 net.cpp:129] Top shape: 32 256 14 14 (1605632)
I1130 01:44:52.733783 10030 net.cpp:137] Memory required for data: 1593991296
I1130 01:44:52.733788 10030 layer_factory.hpp:77] Creating layer inception_4e/3x3_reduce
I1130 01:44:52.733798 10030 net.cpp:84] Creating Layer inception_4e/3x3_reduce
I1130 01:44:52.733803 10030 net.cpp:406] inception_4e/3x3_reduce <- inception_4d/output_inception_4d/output_0_split_1
I1130 01:44:52.733810 10030 net.cpp:380] inception_4e/3x3_reduce -> inception_4e/3x3_reduce
I1130 01:44:52.734597 10030 net.cpp:122] Setting up inception_4e/3x3_reduce
I1130 01:44:52.734607 10030 net.cpp:129] Top shape: 32 160 14 14 (1003520)
I1130 01:44:52.734611 10030 net.cpp:137] Memory required for data: 1598005376
I1130 01:44:52.734617 10030 layer_factory.hpp:77] Creating layer inception_4e/relu_3x3_reduce
I1130 01:44:52.734627 10030 net.cpp:84] Creating Layer inception_4e/relu_3x3_reduce
I1130 01:44:52.734632 10030 net.cpp:406] inception_4e/relu_3x3_reduce <- inception_4e/3x3_reduce
I1130 01:44:52.734637 10030 net.cpp:367] inception_4e/relu_3x3_reduce -> inception_4e/3x3_reduce (in-place)
I1130 01:44:52.734644 10030 net.cpp:122] Setting up inception_4e/relu_3x3_reduce
I1130 01:44:52.734650 10030 net.cpp:129] Top shape: 32 160 14 14 (1003520)
I1130 01:44:52.734654 10030 net.cpp:137] Memory required for data: 1602019456
I1130 01:44:52.734658 10030 layer_factory.hpp:77] Creating layer inception_4e/3x3
I1130 01:44:52.734668 10030 net.cpp:84] Creating Layer inception_4e/3x3
I1130 01:44:52.734671 10030 net.cpp:406] inception_4e/3x3 <- inception_4e/3x3_reduce
I1130 01:44:52.734678 10030 net.cpp:380] inception_4e/3x3 -> inception_4e/3x3
I1130 01:44:52.738489 10030 net.cpp:122] Setting up inception_4e/3x3
I1130 01:44:52.738500 10030 net.cpp:129] Top shape: 32 320 14 14 (2007040)
I1130 01:44:52.738505 10030 net.cpp:137] Memory required for data: 1610047616
I1130 01:44:52.738512 10030 layer_factory.hpp:77] Creating layer inception_4e/relu_3x3
I1130 01:44:52.738523 10030 net.cpp:84] Creating Layer inception_4e/relu_3x3
I1130 01:44:52.738528 10030 net.cpp:406] inception_4e/relu_3x3 <- inception_4e/3x3
I1130 01:44:52.738533 10030 net.cpp:367] inception_4e/relu_3x3 -> inception_4e/3x3 (in-place)
I1130 01:44:52.738541 10030 net.cpp:122] Setting up inception_4e/relu_3x3
I1130 01:44:52.738546 10030 net.cpp:129] Top shape: 32 320 14 14 (2007040)
I1130 01:44:52.738549 10030 net.cpp:137] Memory required for data: 1618075776
I1130 01:44:52.738554 10030 layer_factory.hpp:77] Creating layer inception_4e/5x5_reduce
I1130 01:44:52.738562 10030 net.cpp:84] Creating Layer inception_4e/5x5_reduce
I1130 01:44:52.738567 10030 net.cpp:406] inception_4e/5x5_reduce <- inception_4d/output_inception_4d/output_0_split_2
I1130 01:44:52.738574 10030 net.cpp:380] inception_4e/5x5_reduce -> inception_4e/5x5_reduce
I1130 01:44:52.738907 10030 net.cpp:122] Setting up inception_4e/5x5_reduce
I1130 01:44:52.738919 10030 net.cpp:129] Top shape: 32 32 14 14 (200704)
I1130 01:44:52.738922 10030 net.cpp:137] Memory required for data: 1618878592
I1130 01:44:52.738929 10030 layer_factory.hpp:77] Creating layer inception_4e/relu_5x5_reduce
I1130 01:44:52.738934 10030 net.cpp:84] Creating Layer inception_4e/relu_5x5_reduce
I1130 01:44:52.738940 10030 net.cpp:406] inception_4e/relu_5x5_reduce <- inception_4e/5x5_reduce
I1130 01:44:52.738945 10030 net.cpp:367] inception_4e/relu_5x5_reduce -> inception_4e/5x5_reduce (in-place)
I1130 01:44:52.738952 10030 net.cpp:122] Setting up inception_4e/relu_5x5_reduce
I1130 01:44:52.738957 10030 net.cpp:129] Top shape: 32 32 14 14 (200704)
I1130 01:44:52.738961 10030 net.cpp:137] Memory required for data: 1619681408
I1130 01:44:52.738965 10030 layer_factory.hpp:77] Creating layer inception_4e/5x5
I1130 01:44:52.738975 10030 net.cpp:84] Creating Layer inception_4e/5x5
I1130 01:44:52.738979 10030 net.cpp:406] inception_4e/5x5 <- inception_4e/5x5_reduce
I1130 01:44:52.738986 10030 net.cpp:380] inception_4e/5x5 -> inception_4e/5x5
I1130 01:44:52.740260 10030 net.cpp:122] Setting up inception_4e/5x5
I1130 01:44:52.740272 10030 net.cpp:129] Top shape: 32 128 14 14 (802816)
I1130 01:44:52.740276 10030 net.cpp:137] Memory required for data: 1622892672
I1130 01:44:52.740283 10030 layer_factory.hpp:77] Creating layer inception_4e/relu_5x5
I1130 01:44:52.740289 10030 net.cpp:84] Creating Layer inception_4e/relu_5x5
I1130 01:44:52.740295 10030 net.cpp:406] inception_4e/relu_5x5 <- inception_4e/5x5
I1130 01:44:52.740301 10030 net.cpp:367] inception_4e/relu_5x5 -> inception_4e/5x5 (in-place)
I1130 01:44:52.740309 10030 net.cpp:122] Setting up inception_4e/relu_5x5
I1130 01:44:52.740314 10030 net.cpp:129] Top shape: 32 128 14 14 (802816)
I1130 01:44:52.740317 10030 net.cpp:137] Memory required for data: 1626103936
I1130 01:44:52.740320 10030 layer_factory.hpp:77] Creating layer inception_4e/pool
I1130 01:44:52.740326 10030 net.cpp:84] Creating Layer inception_4e/pool
I1130 01:44:52.740330 10030 net.cpp:406] inception_4e/pool <- inception_4d/output_inception_4d/output_0_split_3
I1130 01:44:52.740337 10030 net.cpp:380] inception_4e/pool -> inception_4e/pool
I1130 01:44:52.740377 10030 net.cpp:122] Setting up inception_4e/pool
I1130 01:44:52.740386 10030 net.cpp:129] Top shape: 32 528 14 14 (3311616)
I1130 01:44:52.740388 10030 net.cpp:137] Memory required for data: 1639350400
I1130 01:44:52.740391 10030 layer_factory.hpp:77] Creating layer inception_4e/pool_proj
I1130 01:44:52.740401 10030 net.cpp:84] Creating Layer inception_4e/pool_proj
I1130 01:44:52.740406 10030 net.cpp:406] inception_4e/pool_proj <- inception_4e/pool
I1130 01:44:52.740414 10030 net.cpp:380] inception_4e/pool_proj -> inception_4e/pool_proj
I1130 01:44:52.741062 10030 net.cpp:122] Setting up inception_4e/pool_proj
I1130 01:44:52.741072 10030 net.cpp:129] Top shape: 32 128 14 14 (802816)
I1130 01:44:52.741076 10030 net.cpp:137] Memory required for data: 1642561664
I1130 01:44:52.741082 10030 layer_factory.hpp:77] Creating layer inception_4e/relu_pool_proj
I1130 01:44:52.741091 10030 net.cpp:84] Creating Layer inception_4e/relu_pool_proj
I1130 01:44:52.741096 10030 net.cpp:406] inception_4e/relu_pool_proj <- inception_4e/pool_proj
I1130 01:44:52.741101 10030 net.cpp:367] inception_4e/relu_pool_proj -> inception_4e/pool_proj (in-place)
I1130 01:44:52.741108 10030 net.cpp:122] Setting up inception_4e/relu_pool_proj
I1130 01:44:52.741113 10030 net.cpp:129] Top shape: 32 128 14 14 (802816)
I1130 01:44:52.741117 10030 net.cpp:137] Memory required for data: 1645772928
I1130 01:44:52.741119 10030 layer_factory.hpp:77] Creating layer inception_4e/output
I1130 01:44:52.741125 10030 net.cpp:84] Creating Layer inception_4e/output
I1130 01:44:52.741132 10030 net.cpp:406] inception_4e/output <- inception_4e/1x1
I1130 01:44:52.741137 10030 net.cpp:406] inception_4e/output <- inception_4e/3x3
I1130 01:44:52.741142 10030 net.cpp:406] inception_4e/output <- inception_4e/5x5
I1130 01:44:52.741147 10030 net.cpp:406] inception_4e/output <- inception_4e/pool_proj
I1130 01:44:52.741153 10030 net.cpp:380] inception_4e/output -> inception_4e/output
I1130 01:44:52.741176 10030 net.cpp:122] Setting up inception_4e/output
I1130 01:44:52.741183 10030 net.cpp:129] Top shape: 32 832 14 14 (5218304)
I1130 01:44:52.741188 10030 net.cpp:137] Memory required for data: 1666646144
I1130 01:44:52.741190 10030 layer_factory.hpp:77] Creating layer pool4/3x3_s2
I1130 01:44:52.741199 10030 net.cpp:84] Creating Layer pool4/3x3_s2
I1130 01:44:52.741204 10030 net.cpp:406] pool4/3x3_s2 <- inception_4e/output
I1130 01:44:52.741209 10030 net.cpp:380] pool4/3x3_s2 -> pool4/3x3_s2
I1130 01:44:52.741246 10030 net.cpp:122] Setting up pool4/3x3_s2
I1130 01:44:52.741253 10030 net.cpp:129] Top shape: 32 832 7 7 (1304576)
I1130 01:44:52.741257 10030 net.cpp:137] Memory required for data: 1671864448
I1130 01:44:52.741261 10030 layer_factory.hpp:77] Creating layer pool4/3x3_s2_pool4/3x3_s2_0_split
I1130 01:44:52.741266 10030 net.cpp:84] Creating Layer pool4/3x3_s2_pool4/3x3_s2_0_split
I1130 01:44:52.741271 10030 net.cpp:406] pool4/3x3_s2_pool4/3x3_s2_0_split <- pool4/3x3_s2
I1130 01:44:52.741278 10030 net.cpp:380] pool4/3x3_s2_pool4/3x3_s2_0_split -> pool4/3x3_s2_pool4/3x3_s2_0_split_0
I1130 01:44:52.741286 10030 net.cpp:380] pool4/3x3_s2_pool4/3x3_s2_0_split -> pool4/3x3_s2_pool4/3x3_s2_0_split_1
I1130 01:44:52.741292 10030 net.cpp:380] pool4/3x3_s2_pool4/3x3_s2_0_split -> pool4/3x3_s2_pool4/3x3_s2_0_split_2
I1130 01:44:52.741298 10030 net.cpp:380] pool4/3x3_s2_pool4/3x3_s2_0_split -> pool4/3x3_s2_pool4/3x3_s2_0_split_3
I1130 01:44:52.741353 10030 net.cpp:122] Setting up pool4/3x3_s2_pool4/3x3_s2_0_split
I1130 01:44:52.741360 10030 net.cpp:129] Top shape: 32 832 7 7 (1304576)
I1130 01:44:52.741365 10030 net.cpp:129] Top shape: 32 832 7 7 (1304576)
I1130 01:44:52.741370 10030 net.cpp:129] Top shape: 32 832 7 7 (1304576)
I1130 01:44:52.741375 10030 net.cpp:129] Top shape: 32 832 7 7 (1304576)
I1130 01:44:52.741379 10030 net.cpp:137] Memory required for data: 1692737664
I1130 01:44:52.741381 10030 layer_factory.hpp:77] Creating layer inception_5a/1x1
I1130 01:44:52.741391 10030 net.cpp:84] Creating Layer inception_5a/1x1
I1130 01:44:52.741396 10030 net.cpp:406] inception_5a/1x1 <- pool4/3x3_s2_pool4/3x3_s2_0_split_0
I1130 01:44:52.741403 10030 net.cpp:380] inception_5a/1x1 -> inception_5a/1x1
I1130 01:44:52.743378 10030 net.cpp:122] Setting up inception_5a/1x1
I1130 01:44:52.743389 10030 net.cpp:129] Top shape: 32 256 7 7 (401408)
I1130 01:44:52.743393 10030 net.cpp:137] Memory required for data: 1694343296
I1130 01:44:52.743401 10030 layer_factory.hpp:77] Creating layer inception_5a/relu_1x1
I1130 01:44:52.743407 10030 net.cpp:84] Creating Layer inception_5a/relu_1x1
I1130 01:44:52.743412 10030 net.cpp:406] inception_5a/relu_1x1 <- inception_5a/1x1
I1130 01:44:52.743419 10030 net.cpp:367] inception_5a/relu_1x1 -> inception_5a/1x1 (in-place)
I1130 01:44:52.743427 10030 net.cpp:122] Setting up inception_5a/relu_1x1
I1130 01:44:52.743432 10030 net.cpp:129] Top shape: 32 256 7 7 (401408)
I1130 01:44:52.743435 10030 net.cpp:137] Memory required for data: 1695948928
I1130 01:44:52.743438 10030 layer_factory.hpp:77] Creating layer inception_5a/3x3_reduce
I1130 01:44:52.743446 10030 net.cpp:84] Creating Layer inception_5a/3x3_reduce
I1130 01:44:52.743451 10030 net.cpp:406] inception_5a/3x3_reduce <- pool4/3x3_s2_pool4/3x3_s2_0_split_1
I1130 01:44:52.743461 10030 net.cpp:380] inception_5a/3x3_reduce -> inception_5a/3x3_reduce
I1130 01:44:52.744940 10030 net.cpp:122] Setting up inception_5a/3x3_reduce
I1130 01:44:52.744951 10030 net.cpp:129] Top shape: 32 160 7 7 (250880)
I1130 01:44:52.744956 10030 net.cpp:137] Memory required for data: 1696952448
I1130 01:44:52.744962 10030 layer_factory.hpp:77] Creating layer inception_5a/relu_3x3_reduce
I1130 01:44:52.744969 10030 net.cpp:84] Creating Layer inception_5a/relu_3x3_reduce
I1130 01:44:52.744974 10030 net.cpp:406] inception_5a/relu_3x3_reduce <- inception_5a/3x3_reduce
I1130 01:44:52.744982 10030 net.cpp:367] inception_5a/relu_3x3_reduce -> inception_5a/3x3_reduce (in-place)
I1130 01:44:52.744989 10030 net.cpp:122] Setting up inception_5a/relu_3x3_reduce
I1130 01:44:52.744994 10030 net.cpp:129] Top shape: 32 160 7 7 (250880)
I1130 01:44:52.744998 10030 net.cpp:137] Memory required for data: 1697955968
I1130 01:44:52.745002 10030 layer_factory.hpp:77] Creating layer inception_5a/3x3
I1130 01:44:52.745010 10030 net.cpp:84] Creating Layer inception_5a/3x3
I1130 01:44:52.745014 10030 net.cpp:406] inception_5a/3x3 <- inception_5a/3x3_reduce
I1130 01:44:52.745023 10030 net.cpp:380] inception_5a/3x3 -> inception_5a/3x3
I1130 01:44:52.748769 10030 net.cpp:122] Setting up inception_5a/3x3
I1130 01:44:52.748781 10030 net.cpp:129] Top shape: 32 320 7 7 (501760)
I1130 01:44:52.748785 10030 net.cpp:137] Memory required for data: 1699963008
I1130 01:44:52.748792 10030 layer_factory.hpp:77] Creating layer inception_5a/relu_3x3
I1130 01:44:52.748798 10030 net.cpp:84] Creating Layer inception_5a/relu_3x3
I1130 01:44:52.748803 10030 net.cpp:406] inception_5a/relu_3x3 <- inception_5a/3x3
I1130 01:44:52.748809 10030 net.cpp:367] inception_5a/relu_3x3 -> inception_5a/3x3 (in-place)
I1130 01:44:52.748818 10030 net.cpp:122] Setting up inception_5a/relu_3x3
I1130 01:44:52.748823 10030 net.cpp:129] Top shape: 32 320 7 7 (501760)
I1130 01:44:52.748827 10030 net.cpp:137] Memory required for data: 1701970048
I1130 01:44:52.748831 10030 layer_factory.hpp:77] Creating layer inception_5a/5x5_reduce
I1130 01:44:52.748838 10030 net.cpp:84] Creating Layer inception_5a/5x5_reduce
I1130 01:44:52.748842 10030 net.cpp:406] inception_5a/5x5_reduce <- pool4/3x3_s2_pool4/3x3_s2_0_split_2
I1130 01:44:52.748850 10030 net.cpp:380] inception_5a/5x5_reduce -> inception_5a/5x5_reduce
I1130 01:44:52.749236 10030 net.cpp:122] Setting up inception_5a/5x5_reduce
I1130 01:44:52.749246 10030 net.cpp:129] Top shape: 32 32 7 7 (50176)
I1130 01:44:52.749249 10030 net.cpp:137] Memory required for data: 1702170752
I1130 01:44:52.749255 10030 layer_factory.hpp:77] Creating layer inception_5a/relu_5x5_reduce
I1130 01:44:52.749261 10030 net.cpp:84] Creating Layer inception_5a/relu_5x5_reduce
I1130 01:44:52.749266 10030 net.cpp:406] inception_5a/relu_5x5_reduce <- inception_5a/5x5_reduce
I1130 01:44:52.749271 10030 net.cpp:367] inception_5a/relu_5x5_reduce -> inception_5a/5x5_reduce (in-place)
I1130 01:44:52.749279 10030 net.cpp:122] Setting up inception_5a/relu_5x5_reduce
I1130 01:44:52.749284 10030 net.cpp:129] Top shape: 32 32 7 7 (50176)
I1130 01:44:52.749286 10030 net.cpp:137] Memory required for data: 1702371456
I1130 01:44:52.749290 10030 layer_factory.hpp:77] Creating layer inception_5a/5x5
I1130 01:44:52.749300 10030 net.cpp:84] Creating Layer inception_5a/5x5
I1130 01:44:52.749305 10030 net.cpp:406] inception_5a/5x5 <- inception_5a/5x5_reduce
I1130 01:44:52.749313 10030 net.cpp:380] inception_5a/5x5 -> inception_5a/5x5
I1130 01:44:52.750155 10030 net.cpp:122] Setting up inception_5a/5x5
I1130 01:44:52.750165 10030 net.cpp:129] Top shape: 32 128 7 7 (200704)
I1130 01:44:52.750169 10030 net.cpp:137] Memory required for data: 1703174272
I1130 01:44:52.750175 10030 layer_factory.hpp:77] Creating layer inception_5a/relu_5x5
I1130 01:44:52.750195 10030 net.cpp:84] Creating Layer inception_5a/relu_5x5
I1130 01:44:52.750200 10030 net.cpp:406] inception_5a/relu_5x5 <- inception_5a/5x5
I1130 01:44:52.750206 10030 net.cpp:367] inception_5a/relu_5x5 -> inception_5a/5x5 (in-place)
I1130 01:44:52.750212 10030 net.cpp:122] Setting up inception_5a/relu_5x5
I1130 01:44:52.750217 10030 net.cpp:129] Top shape: 32 128 7 7 (200704)
I1130 01:44:52.750221 10030 net.cpp:137] Memory required for data: 1703977088
I1130 01:44:52.750224 10030 layer_factory.hpp:77] Creating layer inception_5a/pool
I1130 01:44:52.750231 10030 net.cpp:84] Creating Layer inception_5a/pool
I1130 01:44:52.750236 10030 net.cpp:406] inception_5a/pool <- pool4/3x3_s2_pool4/3x3_s2_0_split_3
I1130 01:44:52.750241 10030 net.cpp:380] inception_5a/pool -> inception_5a/pool
I1130 01:44:52.750279 10030 net.cpp:122] Setting up inception_5a/pool
I1130 01:44:52.750288 10030 net.cpp:129] Top shape: 32 832 7 7 (1304576)
I1130 01:44:52.750290 10030 net.cpp:137] Memory required for data: 1709195392
I1130 01:44:52.750293 10030 layer_factory.hpp:77] Creating layer inception_5a/pool_proj
I1130 01:44:52.750303 10030 net.cpp:84] Creating Layer inception_5a/pool_proj
I1130 01:44:52.750308 10030 net.cpp:406] inception_5a/pool_proj <- inception_5a/pool
I1130 01:44:52.750316 10030 net.cpp:380] inception_5a/pool_proj -> inception_5a/pool_proj
I1130 01:44:52.751562 10030 net.cpp:122] Setting up inception_5a/pool_proj
I1130 01:44:52.751574 10030 net.cpp:129] Top shape: 32 128 7 7 (200704)
I1130 01:44:52.751577 10030 net.cpp:137] Memory required for data: 1709998208
I1130 01:44:52.751583 10030 layer_factory.hpp:77] Creating layer inception_5a/relu_pool_proj
I1130 01:44:52.751590 10030 net.cpp:84] Creating Layer inception_5a/relu_pool_proj
I1130 01:44:52.751595 10030 net.cpp:406] inception_5a/relu_pool_proj <- inception_5a/pool_proj
I1130 01:44:52.751601 10030 net.cpp:367] inception_5a/relu_pool_proj -> inception_5a/pool_proj (in-place)
I1130 01:44:52.751608 10030 net.cpp:122] Setting up inception_5a/relu_pool_proj
I1130 01:44:52.751613 10030 net.cpp:129] Top shape: 32 128 7 7 (200704)
I1130 01:44:52.751617 10030 net.cpp:137] Memory required for data: 1710801024
I1130 01:44:52.751621 10030 layer_factory.hpp:77] Creating layer inception_5a/output
I1130 01:44:52.751626 10030 net.cpp:84] Creating Layer inception_5a/output
I1130 01:44:52.751631 10030 net.cpp:406] inception_5a/output <- inception_5a/1x1
I1130 01:44:52.751634 10030 net.cpp:406] inception_5a/output <- inception_5a/3x3
I1130 01:44:52.751639 10030 net.cpp:406] inception_5a/output <- inception_5a/5x5
I1130 01:44:52.751643 10030 net.cpp:406] inception_5a/output <- inception_5a/pool_proj
I1130 01:44:52.751651 10030 net.cpp:380] inception_5a/output -> inception_5a/output
I1130 01:44:52.751675 10030 net.cpp:122] Setting up inception_5a/output
I1130 01:44:52.751682 10030 net.cpp:129] Top shape: 32 832 7 7 (1304576)
I1130 01:44:52.751685 10030 net.cpp:137] Memory required for data: 1716019328
I1130 01:44:52.751688 10030 layer_factory.hpp:77] Creating layer inception_5a/output_inception_5a/output_0_split
I1130 01:44:52.751696 10030 net.cpp:84] Creating Layer inception_5a/output_inception_5a/output_0_split
I1130 01:44:52.751700 10030 net.cpp:406] inception_5a/output_inception_5a/output_0_split <- inception_5a/output
I1130 01:44:52.751711 10030 net.cpp:380] inception_5a/output_inception_5a/output_0_split -> inception_5a/output_inception_5a/output_0_split_0
I1130 01:44:52.751719 10030 net.cpp:380] inception_5a/output_inception_5a/output_0_split -> inception_5a/output_inception_5a/output_0_split_1
I1130 01:44:52.751726 10030 net.cpp:380] inception_5a/output_inception_5a/output_0_split -> inception_5a/output_inception_5a/output_0_split_2
I1130 01:44:52.751734 10030 net.cpp:380] inception_5a/output_inception_5a/output_0_split -> inception_5a/output_inception_5a/output_0_split_3
I1130 01:44:52.751793 10030 net.cpp:122] Setting up inception_5a/output_inception_5a/output_0_split
I1130 01:44:52.751801 10030 net.cpp:129] Top shape: 32 832 7 7 (1304576)
I1130 01:44:52.751806 10030 net.cpp:129] Top shape: 32 832 7 7 (1304576)
I1130 01:44:52.751811 10030 net.cpp:129] Top shape: 32 832 7 7 (1304576)
I1130 01:44:52.751814 10030 net.cpp:129] Top shape: 32 832 7 7 (1304576)
I1130 01:44:52.751817 10030 net.cpp:137] Memory required for data: 1736892544
I1130 01:44:52.751821 10030 layer_factory.hpp:77] Creating layer inception_5b/1x1
I1130 01:44:52.751829 10030 net.cpp:84] Creating Layer inception_5b/1x1
I1130 01:44:52.751834 10030 net.cpp:406] inception_5b/1x1 <- inception_5a/output_inception_5a/output_0_split_0
I1130 01:44:52.751843 10030 net.cpp:380] inception_5b/1x1 -> inception_5b/1x1
I1130 01:44:52.754462 10030 net.cpp:122] Setting up inception_5b/1x1
I1130 01:44:52.754472 10030 net.cpp:129] Top shape: 32 384 7 7 (602112)
I1130 01:44:52.754477 10030 net.cpp:137] Memory required for data: 1739300992
I1130 01:44:52.754483 10030 layer_factory.hpp:77] Creating layer inception_5b/relu_1x1
I1130 01:44:52.754494 10030 net.cpp:84] Creating Layer inception_5b/relu_1x1
I1130 01:44:52.754499 10030 net.cpp:406] inception_5b/relu_1x1 <- inception_5b/1x1
I1130 01:44:52.754504 10030 net.cpp:367] inception_5b/relu_1x1 -> inception_5b/1x1 (in-place)
I1130 01:44:52.754511 10030 net.cpp:122] Setting up inception_5b/relu_1x1
I1130 01:44:52.754518 10030 net.cpp:129] Top shape: 32 384 7 7 (602112)
I1130 01:44:52.754520 10030 net.cpp:137] Memory required for data: 1741709440
I1130 01:44:52.754523 10030 layer_factory.hpp:77] Creating layer inception_5b/3x3_reduce
I1130 01:44:52.754534 10030 net.cpp:84] Creating Layer inception_5b/3x3_reduce
I1130 01:44:52.754539 10030 net.cpp:406] inception_5b/3x3_reduce <- inception_5a/output_inception_5a/output_0_split_1
I1130 01:44:52.754544 10030 net.cpp:380] inception_5b/3x3_reduce -> inception_5b/3x3_reduce
I1130 01:44:52.756134 10030 net.cpp:122] Setting up inception_5b/3x3_reduce
I1130 01:44:52.756146 10030 net.cpp:129] Top shape: 32 192 7 7 (301056)
I1130 01:44:52.756150 10030 net.cpp:137] Memory required for data: 1742913664
I1130 01:44:52.756156 10030 layer_factory.hpp:77] Creating layer inception_5b/relu_3x3_reduce
I1130 01:44:52.756166 10030 net.cpp:84] Creating Layer inception_5b/relu_3x3_reduce
I1130 01:44:52.756172 10030 net.cpp:406] inception_5b/relu_3x3_reduce <- inception_5b/3x3_reduce
I1130 01:44:52.756178 10030 net.cpp:367] inception_5b/relu_3x3_reduce -> inception_5b/3x3_reduce (in-place)
I1130 01:44:52.756186 10030 net.cpp:122] Setting up inception_5b/relu_3x3_reduce
I1130 01:44:52.756191 10030 net.cpp:129] Top shape: 32 192 7 7 (301056)
I1130 01:44:52.756194 10030 net.cpp:137] Memory required for data: 1744117888
I1130 01:44:52.756197 10030 layer_factory.hpp:77] Creating layer inception_5b/3x3
I1130 01:44:52.756207 10030 net.cpp:84] Creating Layer inception_5b/3x3
I1130 01:44:52.756211 10030 net.cpp:406] inception_5b/3x3 <- inception_5b/3x3_reduce
I1130 01:44:52.756218 10030 net.cpp:380] inception_5b/3x3 -> inception_5b/3x3
I1130 01:44:52.761317 10030 net.cpp:122] Setting up inception_5b/3x3
I1130 01:44:52.761333 10030 net.cpp:129] Top shape: 32 384 7 7 (602112)
I1130 01:44:52.761337 10030 net.cpp:137] Memory required for data: 1746526336
I1130 01:44:52.761345 10030 layer_factory.hpp:77] Creating layer inception_5b/relu_3x3
I1130 01:44:52.761353 10030 net.cpp:84] Creating Layer inception_5b/relu_3x3
I1130 01:44:52.761359 10030 net.cpp:406] inception_5b/relu_3x3 <- inception_5b/3x3
I1130 01:44:52.761368 10030 net.cpp:367] inception_5b/relu_3x3 -> inception_5b/3x3 (in-place)
I1130 01:44:52.761378 10030 net.cpp:122] Setting up inception_5b/relu_3x3
I1130 01:44:52.761382 10030 net.cpp:129] Top shape: 32 384 7 7 (602112)
I1130 01:44:52.761386 10030 net.cpp:137] Memory required for data: 1748934784
I1130 01:44:52.761389 10030 layer_factory.hpp:77] Creating layer inception_5b/5x5_reduce
I1130 01:44:52.761399 10030 net.cpp:84] Creating Layer inception_5b/5x5_reduce
I1130 01:44:52.761404 10030 net.cpp:406] inception_5b/5x5_reduce <- inception_5a/output_inception_5a/output_0_split_2
I1130 01:44:52.761409 10030 net.cpp:380] inception_5b/5x5_reduce -> inception_5b/5x5_reduce
I1130 01:44:52.761909 10030 net.cpp:122] Setting up inception_5b/5x5_reduce
I1130 01:44:52.761916 10030 net.cpp:129] Top shape: 32 48 7 7 (75264)
I1130 01:44:52.761920 10030 net.cpp:137] Memory required for data: 1749235840
I1130 01:44:52.761925 10030 layer_factory.hpp:77] Creating layer inception_5b/relu_5x5_reduce
I1130 01:44:52.761931 10030 net.cpp:84] Creating Layer inception_5b/relu_5x5_reduce
I1130 01:44:52.761941 10030 net.cpp:406] inception_5b/relu_5x5_reduce <- inception_5b/5x5_reduce
I1130 01:44:52.761946 10030 net.cpp:367] inception_5b/relu_5x5_reduce -> inception_5b/5x5_reduce (in-place)
I1130 01:44:52.761951 10030 net.cpp:122] Setting up inception_5b/relu_5x5_reduce
I1130 01:44:52.761956 10030 net.cpp:129] Top shape: 32 48 7 7 (75264)
I1130 01:44:52.761960 10030 net.cpp:137] Memory required for data: 1749536896
I1130 01:44:52.761962 10030 layer_factory.hpp:77] Creating layer inception_5b/5x5
I1130 01:44:52.761970 10030 net.cpp:84] Creating Layer inception_5b/5x5
I1130 01:44:52.761975 10030 net.cpp:406] inception_5b/5x5 <- inception_5b/5x5_reduce
I1130 01:44:52.761981 10030 net.cpp:380] inception_5b/5x5 -> inception_5b/5x5
I1130 01:44:52.763145 10030 net.cpp:122] Setting up inception_5b/5x5
I1130 01:44:52.763155 10030 net.cpp:129] Top shape: 32 128 7 7 (200704)
I1130 01:44:52.763159 10030 net.cpp:137] Memory required for data: 1750339712
I1130 01:44:52.763164 10030 layer_factory.hpp:77] Creating layer inception_5b/relu_5x5
I1130 01:44:52.763170 10030 net.cpp:84] Creating Layer inception_5b/relu_5x5
I1130 01:44:52.763175 10030 net.cpp:406] inception_5b/relu_5x5 <- inception_5b/5x5
I1130 01:44:52.763180 10030 net.cpp:367] inception_5b/relu_5x5 -> inception_5b/5x5 (in-place)
I1130 01:44:52.763186 10030 net.cpp:122] Setting up inception_5b/relu_5x5
I1130 01:44:52.763191 10030 net.cpp:129] Top shape: 32 128 7 7 (200704)
I1130 01:44:52.763195 10030 net.cpp:137] Memory required for data: 1751142528
I1130 01:44:52.763197 10030 layer_factory.hpp:77] Creating layer inception_5b/pool
I1130 01:44:52.763206 10030 net.cpp:84] Creating Layer inception_5b/pool
I1130 01:44:52.763209 10030 net.cpp:406] inception_5b/pool <- inception_5a/output_inception_5a/output_0_split_3
I1130 01:44:52.763216 10030 net.cpp:380] inception_5b/pool -> inception_5b/pool
I1130 01:44:52.763254 10030 net.cpp:122] Setting up inception_5b/pool
I1130 01:44:52.763262 10030 net.cpp:129] Top shape: 32 832 7 7 (1304576)
I1130 01:44:52.763265 10030 net.cpp:137] Memory required for data: 1756360832
I1130 01:44:52.763268 10030 layer_factory.hpp:77] Creating layer inception_5b/pool_proj
I1130 01:44:52.763278 10030 net.cpp:84] Creating Layer inception_5b/pool_proj
I1130 01:44:52.763283 10030 net.cpp:406] inception_5b/pool_proj <- inception_5b/pool
I1130 01:44:52.763289 10030 net.cpp:380] inception_5b/pool_proj -> inception_5b/pool_proj
I1130 01:44:52.764560 10030 net.cpp:122] Setting up inception_5b/pool_proj
I1130 01:44:52.764571 10030 net.cpp:129] Top shape: 32 128 7 7 (200704)
I1130 01:44:52.764575 10030 net.cpp:137] Memory required for data: 1757163648
I1130 01:44:52.764581 10030 layer_factory.hpp:77] Creating layer inception_5b/relu_pool_proj
I1130 01:44:52.764590 10030 net.cpp:84] Creating Layer inception_5b/relu_pool_proj
I1130 01:44:52.764595 10030 net.cpp:406] inception_5b/relu_pool_proj <- inception_5b/pool_proj
I1130 01:44:52.764600 10030 net.cpp:367] inception_5b/relu_pool_proj -> inception_5b/pool_proj (in-place)
I1130 01:44:52.764607 10030 net.cpp:122] Setting up inception_5b/relu_pool_proj
I1130 01:44:52.764612 10030 net.cpp:129] Top shape: 32 128 7 7 (200704)
I1130 01:44:52.764616 10030 net.cpp:137] Memory required for data: 1757966464
I1130 01:44:52.764618 10030 layer_factory.hpp:77] Creating layer inception_5b/output
I1130 01:44:52.764624 10030 net.cpp:84] Creating Layer inception_5b/output
I1130 01:44:52.764628 10030 net.cpp:406] inception_5b/output <- inception_5b/1x1
I1130 01:44:52.764632 10030 net.cpp:406] inception_5b/output <- inception_5b/3x3
I1130 01:44:52.764637 10030 net.cpp:406] inception_5b/output <- inception_5b/5x5
I1130 01:44:52.764642 10030 net.cpp:406] inception_5b/output <- inception_5b/pool_proj
I1130 01:44:52.764648 10030 net.cpp:380] inception_5b/output -> inception_5b/output
I1130 01:44:52.764673 10030 net.cpp:122] Setting up inception_5b/output
I1130 01:44:52.764680 10030 net.cpp:129] Top shape: 32 1024 7 7 (1605632)
I1130 01:44:52.764684 10030 net.cpp:137] Memory required for data: 1764388992
I1130 01:44:52.764688 10030 layer_factory.hpp:77] Creating layer pool5/7x7_s1
I1130 01:44:52.764693 10030 net.cpp:84] Creating Layer pool5/7x7_s1
I1130 01:44:52.764698 10030 net.cpp:406] pool5/7x7_s1 <- inception_5b/output
I1130 01:44:52.764704 10030 net.cpp:380] pool5/7x7_s1 -> pool5/7x7_s1
I1130 01:44:52.764729 10030 net.cpp:122] Setting up pool5/7x7_s1
I1130 01:44:52.764735 10030 net.cpp:129] Top shape: 32 1024 1 1 (32768)
I1130 01:44:52.764739 10030 net.cpp:137] Memory required for data: 1764520064
I1130 01:44:52.764742 10030 layer_factory.hpp:77] Creating layer pool5/drop_7x7_s1
I1130 01:44:52.764751 10030 net.cpp:84] Creating Layer pool5/drop_7x7_s1
I1130 01:44:52.764755 10030 net.cpp:406] pool5/drop_7x7_s1 <- pool5/7x7_s1
I1130 01:44:52.764765 10030 net.cpp:367] pool5/drop_7x7_s1 -> pool5/7x7_s1 (in-place)
I1130 01:44:52.764791 10030 net.cpp:122] Setting up pool5/drop_7x7_s1
I1130 01:44:52.764801 10030 net.cpp:129] Top shape: 32 1024 1 1 (32768)
I1130 01:44:52.764803 10030 net.cpp:137] Memory required for data: 1764651136
I1130 01:44:52.764806 10030 layer_factory.hpp:77] Creating layer fc_scv_accessible
I1130 01:44:52.764816 10030 net.cpp:84] Creating Layer fc_scv_accessible
I1130 01:44:52.764819 10030 net.cpp:406] fc_scv_accessible <- pool5/7x7_s1
I1130 01:44:52.764827 10030 net.cpp:380] fc_scv_accessible -> fc_scv_accessible
I1130 01:44:52.764932 10030 net.cpp:122] Setting up fc_scv_accessible
I1130 01:44:52.764940 10030 net.cpp:129] Top shape: 32 1 (32)
I1130 01:44:52.764945 10030 net.cpp:137] Memory required for data: 1764651264
I1130 01:44:52.764950 10030 layer_factory.hpp:77] Creating layer loss
I1130 01:44:52.764956 10030 net.cpp:84] Creating Layer loss
I1130 01:44:52.764961 10030 net.cpp:406] loss <- fc_scv_accessible
I1130 01:44:52.764967 10030 net.cpp:406] loss <- label
I1130 01:44:52.764974 10030 net.cpp:380] loss -> loss
I1130 01:44:52.765013 10030 net.cpp:122] Setting up loss
…
I1130 01:44:52.769775 10030 net.cpp:294] The NetState phase (1) differed from the phase (0) specified by a rule in layer data
I1130 01:44:52.770611 10030 net.cpp:51] Initializing net from parameters: 
name: "GoogleNet-Places365-SCV-Accessible"
state {
  phase: TEST
}
layer {
  name: "data"
  type: "Data"
  top: "data"
  top: "label"
  include {
    phase: TEST
  }
  transform_param {
    mirror: false
    crop_size: 224
    mean_file: "/idiap/temp/lmedina/fine-tuning/googlenet_places365/places365CNN_mean.binaryproto"
  }
  data_param {
    source: "/idiap/temp/lmedina/fine-tuning/data/Accessible/validation_lmdb"
    batch_size: 32
    backend: LMDB
  }
}
layer {
  name: "conv1/7x7_s2"
  type: "Convolution"
  bottom: "data"
  top: "conv1/7x7_s2"
  param {
    lr_mult: 1
    decay_mult: 1
  }
  param {
    lr_mult: 2
    decay_mult: 0
  }
  convolution_param {
    num_output: 64
    pad: 3
    kernel_size: 7
    stride: 2
    weight_filler {
      type: "xavier"
      std: 0.1
    }
    bias_filler {
      type: "constant"
      value: 0.2
    }
  }
}
layer {
  name: "conv1/relu_7x7"
  type: "ReLU"
  bottom: "conv1/7x7_s2"
  top: "conv1/7x7_s2"
}
layer {
  name: "pool1/3x3_s2"
  type: "Pooling"
  bottom: "conv1/7x7_s2"
  top: "pool1/3x3_s2"
  pooling_param {
    pool: MAX
    kernel_size: 3
    stride: 2
  }
}
layer {
  name: "pool1/norm1"
  type: "LRN"
  bottom: "pool1/3x3_s2"
  top: "pool1/norm1"
  lrn_param {
    local_size: 5
    alpha: 0.0001
    beta: 0.75
  }
}
layer {
  name: "conv2/3x3_reduce"
  type: "Convolution"
  bottom: "pool1/norm1"
  top: "conv2/3x3_reduce"
  param {
    lr_mult: 1
    decay_mult: 1
  }
  param {
    lr_mult: 2
    decay_mult: 0
  }
  convolution_param {
    num_output: 64
    kernel_size: 1
    weight_filler {
      type: "xavier"
      std: 0.1
    }
    bias_filler {
      type: "constant"
      value: 0.2
    }
  }
}
layer {
  name: "conv2/relu_3x3_reduce"
  type: "ReLU"
  bottom: "conv2/3x3_reduce"
  top: "conv2/3x3_reduce"
}
layer {
  name: "conv2/3x3"
  type: "Convolution"
  bottom: "conv2/3x3_reduce"
  top: "conv2/3x3"
  param {
    lr_mult: 1
    decay_mult: 1
  }
  param {
    lr_mult: 2
    decay_mult: 0
  }
  convolution_param {
    num_output: 192
    pad: 1
    kernel_size: 3
    weight_filler {
      type: "xavier"
      std: 0.03
    }
    bias_filler {
      type: "constant"
      value: 0.2
    }
  }
}
layer {
  name: "conv2/relu_3x3"
  type: "ReLU"
  bottom: "conv2/3x3"
  top: "conv2/3x3"
}
layer {
  name: "conv2/norm2"
  type: "LRN"
  bottom: "conv2/3x3"
  top: "conv2/norm2"
  lrn_param {
    local_size: 5
    alpha: 0.0001
    beta: 0.75
  }
}
layer {
  name: "pool2/3x3_s2"
  type: "Pooling"
  bottom: "conv2/norm2"
  top: "pool2/3x3_s2"
  pooling_param {
    pool: MAX
    kernel_size: 3
    stride: 2
  }
}
layer {
  name: "inception_3a/1x1"
  type: "Convolution"
  bottom: "pool2/3x3_s2"
  top: "inception_3a/1x1"
  param {
    lr_mult: 1
    decay_mult: 1
  }
  param {
    lr_mult: 2
    decay_mult: 0
  }
  convolution_param {
    num_output: 64
    kernel_size: 1
    weight_filler {
      type: "xavier"
      std: 0.03
    }
    bias_filler {
      type: "constant"
      value: 0.2
    }
  }
}
layer {
  name: "inception_3a/relu_1x1"
  type: "ReLU"
  bottom: "inception_3a/1x1"
  top: "inception_3a/1x1"
}
layer {
  name: "inception_3a/3x3_reduce"
  type: "Convolution"
  bottom: "pool2/3x3_s2"
  top: "inception_3a/3x3_reduce"
  param {
    lr_mult: 1
    decay_mult: 1
  }
  param {
    lr_mult: 2
    decay_mult: 0
  }
  convolution_param {
    num_output: 96
    kernel_size: 1
    weight_filler {
      type: "xavier"
      std: 0.09
    }
    bias_filler {
      type: "constant"
      value: 0.2
    }
  }
}
layer {
  name: "inception_3a/relu_3x3_reduce"
  type: "ReLU"
  bottom: "inception_3a/3x3_reduce"
  top: "inception_3a/3x3_reduce"
}
layer {
  name: "inception_3a/3x3"
  type: "Convolution"
  bottom: "inception_3a/3x3_reduce"
  top: "inception_3a/3x3"
  param {
    lr_mult: 1
    decay_mult: 1
  }
  param {
    lr_mult: 2
    decay_mult: 0
  }
  convolution_param {
    num_output: 128
    pad: 1
    kernel_size: 3
    weight_filler {
      type: "xavier"
      std: 0.03
    }
    bias_filler {
      type: "constant"
      value: 0.2
    }
  }
}
layer {
  name: "inception_3a/relu_3x3"
  type: "ReLU"
  bottom: "inception_3a/3x3"
  top: "inception_3a/3x3"
}
layer {
  name: "inception_3a/5x5_reduce"
  type: "Convolution"
  bottom: "pool2/3x3_s2"
  top: "inception_3a/5x5_reduce"
  param {
    lr_mult: 1
    decay_mult: 1
  }
  param {
    lr_mult: 2
    decay_mult: 0
  }
  convolution_param {
    num_output: 16
    kernel_size: 1
    weight_filler {
      type: "xavier"
      std: 0.2
    }
    bias_filler {
      type: "constant"
      value: 0.2
    }
  }
}
layer {
  name: "inception_3a/relu_5x5_reduce"
  type: "ReLU"
  bottom: "inception_3a/5x5_reduce"
  top: "inception_3a/5x5_reduce"
}
layer {
  name: "inception_3a/5x5"
  type: "Convolution"
  bottom: "inception_3a/5x5_reduce"
  top: "inception_3a/5x5"
  param {
    lr_mult: 1
    decay_mult: 1
  }
  param {
    lr_mult: 2
    decay_mult: 0
  }
  convolution_param {
    num_output: 32
    pad: 2
    kernel_size: 5
    weight_filler {
      type: "xavier"
      std: 0.03
    }
    bias_filler {
      type: "constant"
      value: 0.2
    }
  }
}
layer {
  name: "inception_3a/relu_5x5"
  type: "ReLU"
  bottom: "inception_3a/5x5"
  top: "inception_3a/5x5"
}
layer {
  name: "inception_3a/pool"
  type: "Pooling"
  bottom: "pool2/3x3_s2"
  top: "inception_3a/pool"
  pooling_param {
    pool: MAX
    kernel_size: 3
    stride: 1
    pad: 1
  }
}
layer {
  name: "inception_3a/pool_proj"
  type: "Convolution"
  bottom: "inception_3a/pool"
  top: "inception_3a/pool_proj"
  param {
    lr_mult: 1
    decay_mult: 1
  }
  param {
    lr_mult: 2
    decay_mult: 0
  }
  convolution_param {
    num_output: 32
    kernel_size: 1
    weight_filler {
      type: "xavier"
      std: 0.1
    }
    bias_filler {
      type: "constant"
      value: 0.2
    }
  }
}
layer {
  name: "inception_3a/relu_pool_proj"
  type: "ReLU"
  bottom: "inception_3a/pool_proj"
  top: "inception_3a/pool_proj"
}
layer {
  name: "inception_3a/output"
  type: "Concat"
  bottom: "inception_3a/1x1"
  bottom: "inception_3a/3x3"
  bottom: "inception_3a/5x5"
  bottom: "inception_3a/pool_proj"
  top: "inception_3a/output"
}
layer {
  name: "inception_3b/1x1"
  type: "Convolution"
  bottom: "inception_3a/output"
  top: "inception_3b/1x1"
  param {
    lr_mult: 1
    decay_mult: 1
  }
  param {
    lr_mult: 2
    decay_mult: 0
  }
  convolution_param {
    num_output: 128
    kernel_size: 1
    weight_filler {
      type: "xavier"
      std: 0.03
    }
    bias_filler {
      type: "constant"
      value: 0.2
    }
  }
}
layer {
  name: "inception_3b/relu_1x1"
  type: "ReLU"
  bottom: "inception_3b/1x1"
  top: "inception_3b/1x1"
}
layer {
  name: "inception_3b/3x3_reduce"
  type: "Convolution"
  bottom: "inception_3a/output"
  top: "inception_3b/3x3_reduce"
  param {
    lr_mult: 1
    decay_mult: 1
  }
  param {
    lr_mult: 2
    decay_mult: 0
  }
  convolution_param {
    num_output: 128
    kernel_size: 1
    weight_filler {
      type: "xavier"
      std: 0.09
    }
    bias_filler {
      type: "constant"
      value: 0.2
    }
  }
}
layer {
  name: "inception_3b/relu_3x3_reduce"
  type: "ReLU"
  bottom: "inception_3b/3x3_reduce"
  top: "inception_3b/3x3_reduce"
}
layer {
  name: "inception_3b/3x3"
  type: "Convolution"
  bottom: "inception_3b/3x3_reduce"
  top: "inception_3b/3x3"
  param {
    lr_mult: 1
    decay_mult: 1
  }
  param {
    lr_mult: 2
    decay_mult: 0
  }
  convolution_param {
    num_output: 192
    pad: 1
    kernel_size: 3
    weight_filler {
      type: "xavier"
      std: 0.03
    }
    bias_filler {
      type: "constant"
      value: 0.2
    }
  }
}
layer {
  name: "inception_3b/relu_3x3"
  type: "ReLU"
  bottom: "inception_3b/3x3"
  top: "inception_3b/3x3"
}
layer {
  name: "inception_3b/5x5_reduce"
  type: "Convolution"
  bottom: "inception_3a/output"
  top: "inception_3b/5x5_reduce"
  param {
    lr_mult: 1
    decay_mult: 1
  }
  param {
    lr_mult: 2
    decay_mult: 0
  }
  convolution_param {
    num_output: 32
    kernel_size: 1
    weight_filler {
      type: "xavier"
      std: 0.2
    }
    bias_filler {
      type: "constant"
      value: 0.2
    }
  }
}
layer {
  name: "inception_3b/relu_5x5_reduce"
  type: "ReLU"
  bottom: "inception_3b/5x5_reduce"
  top: "inception_3b/5x5_reduce"
}
layer {
  name: "inception_3b/5x5"
  type: "Convolution"
  bottom: "inception_3b/5x5_reduce"
  top: "inception_3b/5x5"
  param {
    lr_mult: 1
    decay_mult: 1
  }
  param {
    lr_mult: 2
    decay_mult: 0
  }
  convolution_param {
    num_output: 96
    pad: 2
    kernel_size: 5
    weight_filler {
      type: "xavier"
      std: 0.03
    }
    bias_filler {
      type: "constant"
      value: 0.2
    }
  }
}
layer {
  name: "inception_3b/relu_5x5"
  type: "ReLU"
  bottom: "inception_3b/5x5"
  top: "inception_3b/5x5"
}
layer {
  name: "inception_3b/pool"
  type: "Pooling"
  bottom: "inception_3a/output"
  top: "inception_3b/pool"
  pooling_param {
    pool: MAX
    kernel_size: 3
    stride: 1
    pad: 1
  }
}
layer {
  name: "inception_3b/pool_proj"
  type: "Convolution"
  bottom: "inception_3b/pool"
  top: "inception_3b/pool_proj"
  param {
    lr_mult: 1
    decay_mult: 1
  }
  param {
    lr_mult: 2
    decay_mult: 0
  }
  convolution_param {
    num_output: 64
    kernel_size: 1
    weight_filler {
      type: "xavier"
      std: 0.1
    }
    bias_filler {
      type: "constant"
      value: 0.2
    }
  }
}
layer {
  name: "inception_3b/relu_pool_proj"
  type: "ReLU"
  bottom: "inception_3b/pool_proj"
  top: "inception_3b/pool_proj"
}
layer {
  name: "inception_3b/output"
  type: "Concat"
  bottom: "inception_3b/1x1"
  bottom: "inception_3b/3x3"
  bottom: "inception_3b/5x5"
  bottom: "inception_3b/pool_proj"
  top: "inception_3b/output"
}
layer {
  name: "pool3/3x3_s2"
  type: "Pooling"
  bottom: "inception_3b/output"
  top: "pool3/3x3_s2"
  pooling_param {
    pool: MAX
    kernel_size: 3
    stride: 2
  }
}
layer {
  name: "inception_4a/1x1"
  type: "Convolution"
  bottom: "pool3/3x3_s2"
  top: "inception_4a/1x1"
  param {
    lr_mult: 1
    decay_mult: 1
  }
  param {
    lr_mult: 2
    decay_mult: 0
  }
  convolution_param {
    num_output: 192
    kernel_size: 1
    weight_filler {
      type: "xavier"
      std: 0.03
    }
    bias_filler {
      type: "constant"
      value: 0.2
    }
  }
}
layer {
  name: "inception_4a/relu_1x1"
  type: "ReLU"
  bottom: "inception_4a/1x1"
  top: "inception_4a/1x1"
}
layer {
  name: "inception_4a/3x3_reduce"
  type: "Convolution"
  bottom: "pool3/3x3_s2"
  top: "inception_4a/3x3_reduce"
  param {
    lr_mult: 1
    decay_mult: 1
  }
  param {
    lr_mult: 2
    decay_mult: 0
  }
  convolution_param {
    num_output: 96
    kernel_size: 1
    weight_filler {
      type: "xavier"
      std: 0.09
    }
    bias_filler {
      type: "constant"
      value: 0.2
    }
  }
}
layer {
  name: "inception_4a/relu_3x3_reduce"
  type: "ReLU"
  bottom: "inception_4a/3x3_reduce"
  top: "inception_4a/3x3_reduce"
}
layer {
  name: "inception_4a/3x3"
  type: "Convolution"
  bottom: "inception_4a/3x3_reduce"
  top: "inception_4a/3x3"
  param {
    lr_mult: 1
    decay_mult: 1
  }
  param {
    lr_mult: 2
    decay_mult: 0
  }
  convolution_param {
    num_output: 208
    pad: 1
    kernel_size: 3
    weight_filler {
      type: "xavier"
      std: 0.03
    }
    bias_filler {
      type: "constant"
      value: 0.2
    }
  }
}
layer {
  name: "inception_4a/relu_3x3"
  type: "ReLU"
  bottom: "inception_4a/3x3"
  top: "inception_4a/3x3"
}
layer {
  name: "inception_4a/5x5_reduce"
  type: "Convolution"
  bottom: "pool3/3x3_s2"
  top: "inception_4a/5x5_reduce"
  param {
    lr_mult: 1
    decay_mult: 1
  }
  param {
    lr_mult: 2
    decay_mult: 0
  }
  convolution_param {
    num_output: 16
    kernel_size: 1
    weight_filler {
      type: "xavier"
      std: 0.2
    }
    bias_filler {
      type: "constant"
      value: 0.2
    }
  }
}
layer {
  name: "inception_4a/relu_5x5_reduce"
  type: "ReLU"
  bottom: "inception_4a/5x5_reduce"
  top: "inception_4a/5x5_reduce"
}
layer {
  name: "inception_4a/5x5"
  type: "Convolution"
  bottom: "inception_4a/5x5_reduce"
  top: "inception_4a/5x5"
  param {
    lr_mult: 1
    decay_mult: 1
  }
  param {
    lr_mult: 2
    decay_mult: 0
  }
  convolution_param {
    num_output: 48
    pad: 2
    kernel_size: 5
    weight_filler {
      type: "xavier"
      std: 0.03
    }
    bias_filler {
      type: "constant"
      value: 0.2
    }
  }
}
layer {
  name: "inception_4a/relu_5x5"
  type: "ReLU"
  bottom: "inception_4a/5x5"
  top: "inception_4a/5x5"
}
layer {
  name: "inception_4a/pool"
  type: "Pooling"
  bottom: "pool3/3x3_s2"
  top: "inception_4a/pool"
  pooling_param {
    pool: MAX
    kernel_size: 3
    stride: 1
    pad: 1
  }
}
layer {
  name: "inception_4a/pool_proj"
  type: "Convolution"
  bottom: "inception_4a/pool"
  top: "inception_4a/pool_proj"
  param {
    lr_mult: 1
    decay_mult: 1
  }
  param {
    lr_mult: 2
    decay_mult: 0
  }
  convolution_param {
    num_output: 64
    kernel_size: 1
    weight_filler {
      type: "xavier"
      std: 0.1
    }
    bias_filler {
      type: "constant"
      value: 0.2
    }
  }
}
layer {
  name: "inception_4a/relu_pool_proj"
  type: "ReLU"
  bottom: "inception_4a/pool_proj"
  top: "inception_4a/pool_proj"
}
layer {
  name: "inception_4a/output"
  type: "Concat"
  bottom: "inception_4a/1x1"
  bottom: "inception_4a/3x3"
  bottom: "inception_4a/5x5"
  bottom: "inception_4a/pool_proj"
  top: "inception_4a/output"
}
layer {
  name: "inception_4b/1x1"
  type: "Convolution"
  bottom: "inception_4a/output"
  top: "inception_4b/1x1"
  param {
    lr_mult: 1
    decay_mult: 1
  }
  param {
    lr_mult: 2
    decay_mult: 0
  }
  convolution_param {
    num_output: 160
    kernel_size: 1
    weight_filler {
      type: "xavier"
      std: 0.03
    }
    bias_filler {
      type: "constant"
      value: 0.2
    }
  }
}
layer {
  name: "inception_4b/relu_1x1"
  type: "ReLU"
  bottom: "inception_4b/1x1"
  top: "inception_4b/1x1"
}
layer {
  name: "inception_4b/3x3_reduce"
  type: "Convolution"
  bottom: "inception_4a/output"
  top: "inception_4b/3x3_reduce"
  param {
    lr_mult: 1
    decay_mult: 1
  }
  param {
    lr_mult: 2
    decay_mult: 0
  }
  convolution_param {
    num_output: 112
    kernel_size: 1
    weight_filler {
      type: "xavier"
      std: 0.09
    }
    bias_filler {
      type: "constant"
      value: 0.2
    }
  }
}
layer {
  name: "inception_4b/relu_3x3_reduce"
  type: "ReLU"
  bottom: "inception_4b/3x3_reduce"
  top: "inception_4b/3x3_reduce"
}
layer {
  name: "inception_4b/3x3"
  type: "Convolution"
  bottom: "inception_4b/3x3_reduce"
  top: "inception_4b/3x3"
  param {
    lr_mult: 1
    decay_mult: 1
  }
  param {
    lr_mult: 2
    decay_mult: 0
  }
  convolution_param {
    num_output: 224
    pad: 1
    kernel_size: 3
    weight_filler {
      type: "xavier"
      std: 0.03
    }
    bias_filler {
      type: "constant"
      value: 0.2
    }
  }
}
layer {
  name: "inception_4b/relu_3x3"
  type: "ReLU"
  bottom: "inception_4b/3x3"
  top: "inception_4b/3x3"
}
layer {
  name: "inception_4b/5x5_reduce"
  type: "Convolution"
  bottom: "inception_4a/output"
  top: "inception_4b/5x5_reduce"
  param {
    lr_mult: 1
    decay_mult: 1
  }
  param {
    lr_mult: 2
    decay_mult: 0
  }
  convolution_param {
    num_output: 24
    kernel_size: 1
    weight_filler {
      type: "xavier"
      std: 0.2
    }
    bias_filler {
      type: "constant"
      value: 0.2
    }
  }
}
layer {
  name: "inception_4b/relu_5x5_reduce"
  type: "ReLU"
  bottom: "inception_4b/5x5_reduce"
  top: "inception_4b/5x5_reduce"
}
layer {
  name: "inception_4b/5x5"
  type: "Convolution"
  bottom: "inception_4b/5x5_reduce"
  top: "inception_4b/5x5"
  param {
    lr_mult: 1
    decay_mult: 1
  }
  param {
    lr_mult: 2
    decay_mult: 0
  }
  convolution_param {
    num_output: 64
    pad: 2
    kernel_size: 5
    weight_filler {
      type: "xavier"
      std: 0.03
    }
    bias_filler {
      type: "constant"
      value: 0.2
    }
  }
}
layer {
  name: "inception_4b/relu_5x5"
  type: "ReLU"
  bottom: "inception_4b/5x5"
  top: "inception_4b/5x5"
}
layer {
  name: "inception_4b/pool"
  type: "Pooling"
  bottom: "inception_4a/output"
  top: "inception_4b/pool"
  pooling_param {
    pool: MAX
    kernel_size: 3
    stride: 1
    pad: 1
  }
}
layer {
  name: "inception_4b/pool_proj"
  type: "Convolution"
  bottom: "inception_4b/pool"
  top: "inception_4b/pool_proj"
  param {
    lr_mult: 1
    decay_mult: 1
  }
  param {
    lr_mult: 2
    decay_mult: 0
  }
  convolution_param {
    num_output: 64
    kernel_size: 1
    weight_filler {
      type: "xavier"
      std: 0.1
    }
    bias_filler {
      type: "constant"
      value: 0.2
    }
  }
}
layer {
  name: "inception_4b/relu_pool_proj"
  type: "ReLU"
  bottom: "inception_4b/pool_proj"
  top: "inception_4b/pool_proj"
}
layer {
  name: "inception_4b/output"
  type: "Concat"
  bottom: "inception_4b/1x1"
  bottom: "inception_4b/3x3"
  bottom: "inception_4b/5x5"
  bottom: "inception_4b/pool_proj"
  top: "inception_4b/output"
}
layer {
  name: "inception_4c/1x1"
  type: "Convolution"
  bottom: "inception_4b/output"
  top: "inception_4c/1x1"
  param {
    lr_mult: 1
    decay_mult: 1
  }
  param {
    lr_mult: 2
    decay_mult: 0
  }
  convolution_param {
    num_output: 128
    kernel_size: 1
    weight_filler {
      type: "xavier"
      std: 0.03
    }
    bias_filler {
      type: "constant"
      value: 0.2
    }
  }
}
layer {
  name: "inception_4c/relu_1x1"
  type: "ReLU"
  bottom: "inception_4c/1x1"
  top: "inception_4c/1x1"
}
layer {
  name: "inception_4c/3x3_reduce"
  type: "Convolution"
  bottom: "inception_4b/output"
  top: "inception_4c/3x3_reduce"
  param {
    lr_mult: 1
    decay_mult: 1
  }
  param {
    lr_mult: 2
    decay_mult: 0
  }
  convolution_param {
    num_output: 128
    kernel_size: 1
    weight_filler {
      type: "xavier"
      std: 0.09
    }
    bias_filler {
      type: "constant"
      value: 0.2
    }
  }
}
layer {
  name: "inception_4c/relu_3x3_reduce"
  type: "ReLU"
  bottom: "inception_4c/3x3_reduce"
  top: "inception_4c/3x3_reduce"
}
layer {
  name: "inception_4c/3x3"
  type: "Convolution"
  bottom: "inception_4c/3x3_reduce"
  top: "inception_4c/3x3"
  param {
    lr_mult: 1
    decay_mult: 1
  }
  param {
    lr_mult: 2
    decay_mult: 0
  }
  convolution_param {
    num_output: 256
    pad: 1
    kernel_size: 3
    weight_filler {
      type: "xavier"
      std: 0.03
    }
    bias_filler {
      type: "constant"
      value: 0.2
    }
  }
}
layer {
  name: "inception_4c/relu_3x3"
  type: "ReLU"
  bottom: "inception_4c/3x3"
  top: "inception_4c/3x3"
}
layer {
  name: "inception_4c/5x5_reduce"
  type: "Convolution"
  bottom: "inception_4b/output"
  top: "inception_4c/5x5_reduce"
  param {
    lr_mult: 1
    decay_mult: 1
  }
  param {
    lr_mult: 2
    decay_mult: 0
  }
  convolution_param {
    num_output: 24
    kernel_size: 1
    weight_filler {
      type: "xavier"
      std: 0.2
    }
    bias_filler {
      type: "constant"
      value: 0.2
    }
  }
}
layer {
  name: "inception_4c/relu_5x5_reduce"
  type: "ReLU"
  bottom: "inception_4c/5x5_reduce"
  top: "inception_4c/5x5_reduce"
}
layer {
  name: "inception_4c/5x5"
  type: "Convolution"
  bottom: "inception_4c/5x5_reduce"
  top: "inception_4c/5x5"
  param {
    lr_mult: 1
    decay_mult: 1
  }
  param {
    lr_mult: 2
    decay_mult: 0
  }
  convolution_param {
    num_output: 64
    pad: 2
    kernel_size: 5
    weight_filler {
      type: "xavier"
      std: 0.03
    }
    bias_filler {
      type: "constant"
      value: 0.2
    }
  }
}
layer {
  name: "inception_4c/relu_5x5"
  type: "ReLU"
  bottom: "inception_4c/5x5"
  top: "inception_4c/5x5"
}
layer {
  name: "inception_4c/pool"
  type: "Pooling"
  bottom: "inception_4b/output"
  top: "inception_4c/pool"
  pooling_param {
    pool: MAX
    kernel_size: 3
    stride: 1
    pad: 1
  }
}
layer {
  name: "inception_4c/pool_proj"
  type: "Convolution"
  bottom: "inception_4c/pool"
  top: "inception_4c/pool_proj"
  param {
    lr_mult: 1
    decay_mult: 1
  }
  param {
    lr_mult: 2
    decay_mult: 0
  }
  convolution_param {
    num_output: 64
    kernel_size: 1
    weight_filler {
      type: "xavier"
      std: 0.1
    }
    bias_filler {
      type: "constant"
      value: 0.2
    }
  }
}
layer {
  name: "inception_4c/relu_pool_proj"
  type: "ReLU"
  bottom: "inception_4c/pool_proj"
  top: "inception_4c/pool_proj"
}
layer {
  name: "inception_4c/output"
  type: "Concat"
  bottom: "inception_4c/1x1"
  bottom: "inception_4c/3x3"
  bottom: "inception_4c/5x5"
  bottom: "inception_4c/pool_proj"
  top: "inception_4c/output"
}
layer {
  name: "inception_4d/1x1"
  type: "Convolution"
  bottom: "inception_4c/output"
  top: "inception_4d/1x1"
  param {
    lr_mult: 1
    decay_mult: 1
  }
  param {
    lr_mult: 2
    decay_mult: 0
  }
  convolution_param {
    num_output: 112
    kernel_size: 1
    weight_filler {
      type: "xavier"
      std: 0.03
    }
    bias_filler {
      type: "constant"
      value: 0.2
    }
  }
}
layer {
  name: "inception_4d/relu_1x1"
  type: "ReLU"
  bottom: "inception_4d/1x1"
  top: "inception_4d/1x1"
}
layer {
  name: "inception_4d/3x3_reduce"
  type: "Convolution"
  bottom: "inception_4c/output"
  top: "inception_4d/3x3_reduce"
  param {
    lr_mult: 1
    decay_mult: 1
  }
  param {
    lr_mult: 2
    decay_mult: 0
  }
  convolution_param {
    num_output: 144
    kernel_size: 1
    weight_filler {
      type: "xavier"
      std: 0.09
    }
    bias_filler {
      type: "constant"
      value: 0.2
    }
  }
}
layer {
  name: "inception_4d/relu_3x3_reduce"
  type: "ReLU"
  bottom: "inception_4d/3x3_reduce"
  top: "inception_4d/3x3_reduce"
}
layer {
  name: "inception_4d/3x3"
  type: "Convolution"
  bottom: "inception_4d/3x3_reduce"
  top: "inception_4d/3x3"
  param {
    lr_mult: 1
    decay_mult: 1
  }
  param {
    lr_mult: 2
    decay_mult: 0
  }
  convolution_param {
    num_output: 288
    pad: 1
    kernel_size: 3
    weight_filler {
      type: "xavier"
      std: 0.03
    }
    bias_filler {
      type: "constant"
      value: 0.2
    }
  }
}
layer {
  name: "inception_4d/relu_3x3"
  type: "ReLU"
  bottom: "inception_4d/3x3"
  top: "inception_4d/3x3"
}
layer {
  name: "inception_4d/5x5_reduce"
  type: "Convolution"
  bottom: "inception_4c/output"
  top: "inception_4d/5x5_reduce"
  param {
    lr_mult: 1
    decay_mult: 1
  }
  param {
    lr_mult: 2
    decay_mult: 0
  }
  convolution_param {
    num_output: 32
    kernel_size: 1
    weight_filler {
      type: "xavier"
      std: 0.2
    }
    bias_filler {
      type: "constant"
      value: 0.2
    }
  }
}
layer {
  name: "inception_4d/relu_5x5_reduce"
  type: "ReLU"
  bottom: "inception_4d/5x5_reduce"
  top: "inception_4d/5x5_reduce"
}
layer {
  name: "inception_4d/5x5"
  type: "Convolution"
  bottom: "inception_4d/5x5_reduce"
  top: "inception_4d/5x5"
  param {
    lr_mult: 1
    decay_mult: 1
  }
  param {
    lr_mult: 2
    decay_mult: 0
  }
  convolution_param {
    num_output: 64
    pad: 2
    kernel_size: 5
    weight_filler {
      type: "xavier"
      std: 0.03
    }
    bias_filler {
      type: "constant"
      value: 0.2
    }
  }
}
layer {
  name: "inception_4d/relu_5x5"
  type: "ReLU"
  bottom: "inception_4d/5x5"
  top: "inception_4d/5x5"
}
layer {
  name: "inception_4d/pool"
  type: "Pooling"
  bottom: "inception_4c/output"
  top: "inception_4d/pool"
  pooling_param {
    pool: MAX
    kernel_size: 3
    stride: 1
    pad: 1
  }
}
layer {
  name: "inception_4d/pool_proj"
  type: "Convolution"
  bottom: "inception_4d/pool"
  top: "inception_4d/pool_proj"
  param {
    lr_mult: 1
    decay_mult: 1
  }
  param {
    lr_mult: 2
    decay_mult: 0
  }
  convolution_param {
    num_output: 64
    kernel_size: 1
    weight_filler {
      type: "xavier"
      std: 0.1
    }
    bias_filler {
      type: "constant"
      value: 0.2
    }
  }
}
layer {
  name: "inception_4d/relu_pool_proj"
  type: "ReLU"
  bottom: "inception_4d/pool_proj"
  top: "inception_4d/pool_proj"
}
layer {
  name: "inception_4d/output"
  type: "Concat"
  bottom: "inception_4d/1x1"
  bottom: "inception_4d/3x3"
…
I1130 01:44:52.894626 10030 net.cpp:84] Creating Layer inception_4c/1x1
I1130 01:44:52.894630 10030 net.cpp:406] inception_4c/1x1 <- inception_4b/output_inception_4b/output_0_split_0
I1130 01:44:52.894637 10030 net.cpp:380] inception_4c/1x1 -> inception_4c/1x1
I1130 01:44:52.895184 10030 net.cpp:122] Setting up inception_4c/1x1
I1130 01:44:52.895192 10030 net.cpp:129] Top shape: 32 128 14 14 (802816)
I1130 01:44:52.895195 10030 net.cpp:137] Memory required for data: 1359569280
I1130 01:44:52.895200 10030 layer_factory.hpp:77] Creating layer inception_4c/relu_1x1
I1130 01:44:52.895205 10030 net.cpp:84] Creating Layer inception_4c/relu_1x1
I1130 01:44:52.895210 10030 net.cpp:406] inception_4c/relu_1x1 <- inception_4c/1x1
I1130 01:44:52.895215 10030 net.cpp:367] inception_4c/relu_1x1 -> inception_4c/1x1 (in-place)
I1130 01:44:52.895221 10030 net.cpp:122] Setting up inception_4c/relu_1x1
I1130 01:44:52.895226 10030 net.cpp:129] Top shape: 32 128 14 14 (802816)
I1130 01:44:52.895228 10030 net.cpp:137] Memory required for data: 1362780544
I1130 01:44:52.895231 10030 layer_factory.hpp:77] Creating layer inception_4c/3x3_reduce
I1130 01:44:52.895237 10030 net.cpp:84] Creating Layer inception_4c/3x3_reduce
I1130 01:44:52.895241 10030 net.cpp:406] inception_4c/3x3_reduce <- inception_4b/output_inception_4b/output_0_split_1
I1130 01:44:52.895247 10030 net.cpp:380] inception_4c/3x3_reduce -> inception_4c/3x3_reduce
I1130 01:44:52.895795 10030 net.cpp:122] Setting up inception_4c/3x3_reduce
I1130 01:44:52.895804 10030 net.cpp:129] Top shape: 32 128 14 14 (802816)
I1130 01:44:52.895807 10030 net.cpp:137] Memory required for data: 1365991808
I1130 01:44:52.895812 10030 layer_factory.hpp:77] Creating layer inception_4c/relu_3x3_reduce
I1130 01:44:52.895817 10030 net.cpp:84] Creating Layer inception_4c/relu_3x3_reduce
I1130 01:44:52.895822 10030 net.cpp:406] inception_4c/relu_3x3_reduce <- inception_4c/3x3_reduce
I1130 01:44:52.895826 10030 net.cpp:367] inception_4c/relu_3x3_reduce -> inception_4c/3x3_reduce (in-place)
I1130 01:44:52.895831 10030 net.cpp:122] Setting up inception_4c/relu_3x3_reduce
I1130 01:44:52.895836 10030 net.cpp:129] Top shape: 32 128 14 14 (802816)
I1130 01:44:52.895838 10030 net.cpp:137] Memory required for data: 1369203072
I1130 01:44:52.895841 10030 layer_factory.hpp:77] Creating layer inception_4c/3x3
I1130 01:44:52.895849 10030 net.cpp:84] Creating Layer inception_4c/3x3
I1130 01:44:52.895853 10030 net.cpp:406] inception_4c/3x3 <- inception_4c/3x3_reduce
I1130 01:44:52.895859 10030 net.cpp:380] inception_4c/3x3 -> inception_4c/3x3
I1130 01:44:52.897979 10030 net.cpp:122] Setting up inception_4c/3x3
I1130 01:44:52.897992 10030 net.cpp:129] Top shape: 32 256 14 14 (1605632)
I1130 01:44:52.897995 10030 net.cpp:137] Memory required for data: 1375625600
I1130 01:44:52.898001 10030 layer_factory.hpp:77] Creating layer inception_4c/relu_3x3
I1130 01:44:52.898007 10030 net.cpp:84] Creating Layer inception_4c/relu_3x3
I1130 01:44:52.898011 10030 net.cpp:406] inception_4c/relu_3x3 <- inception_4c/3x3
I1130 01:44:52.898016 10030 net.cpp:367] inception_4c/relu_3x3 -> inception_4c/3x3 (in-place)
I1130 01:44:52.898023 10030 net.cpp:122] Setting up inception_4c/relu_3x3
I1130 01:44:52.898027 10030 net.cpp:129] Top shape: 32 256 14 14 (1605632)
I1130 01:44:52.898030 10030 net.cpp:137] Memory required for data: 1382048128
I1130 01:44:52.898033 10030 layer_factory.hpp:77] Creating layer inception_4c/5x5_reduce
I1130 01:44:52.898041 10030 net.cpp:84] Creating Layer inception_4c/5x5_reduce
I1130 01:44:52.898046 10030 net.cpp:406] inception_4c/5x5_reduce <- inception_4b/output_inception_4b/output_0_split_2
I1130 01:44:52.898051 10030 net.cpp:380] inception_4c/5x5_reduce -> inception_4c/5x5_reduce
I1130 01:44:52.898326 10030 net.cpp:122] Setting up inception_4c/5x5_reduce
I1130 01:44:52.898334 10030 net.cpp:129] Top shape: 32 24 14 14 (150528)
I1130 01:44:52.898337 10030 net.cpp:137] Memory required for data: 1382650240
I1130 01:44:52.898344 10030 layer_factory.hpp:77] Creating layer inception_4c/relu_5x5_reduce
I1130 01:44:52.898349 10030 net.cpp:84] Creating Layer inception_4c/relu_5x5_reduce
I1130 01:44:52.898352 10030 net.cpp:406] inception_4c/relu_5x5_reduce <- inception_4c/5x5_reduce
I1130 01:44:52.898360 10030 net.cpp:367] inception_4c/relu_5x5_reduce -> inception_4c/5x5_reduce (in-place)
I1130 01:44:52.898365 10030 net.cpp:122] Setting up inception_4c/relu_5x5_reduce
I1130 01:44:52.898370 10030 net.cpp:129] Top shape: 32 24 14 14 (150528)
I1130 01:44:52.898373 10030 net.cpp:137] Memory required for data: 1383252352
I1130 01:44:52.898376 10030 layer_factory.hpp:77] Creating layer inception_4c/5x5
I1130 01:44:52.898385 10030 net.cpp:84] Creating Layer inception_4c/5x5
I1130 01:44:52.898388 10030 net.cpp:406] inception_4c/5x5 <- inception_4c/5x5_reduce
I1130 01:44:52.898393 10030 net.cpp:380] inception_4c/5x5 -> inception_4c/5x5
I1130 01:44:52.898808 10030 net.cpp:122] Setting up inception_4c/5x5
I1130 01:44:52.898815 10030 net.cpp:129] Top shape: 32 64 14 14 (401408)
I1130 01:44:52.898818 10030 net.cpp:137] Memory required for data: 1384857984
I1130 01:44:52.898823 10030 layer_factory.hpp:77] Creating layer inception_4c/relu_5x5
I1130 01:44:52.898829 10030 net.cpp:84] Creating Layer inception_4c/relu_5x5
I1130 01:44:52.898833 10030 net.cpp:406] inception_4c/relu_5x5 <- inception_4c/5x5
I1130 01:44:52.898838 10030 net.cpp:367] inception_4c/relu_5x5 -> inception_4c/5x5 (in-place)
I1130 01:44:52.898844 10030 net.cpp:122] Setting up inception_4c/relu_5x5
I1130 01:44:52.898849 10030 net.cpp:129] Top shape: 32 64 14 14 (401408)
I1130 01:44:52.898852 10030 net.cpp:137] Memory required for data: 1386463616
I1130 01:44:52.898854 10030 layer_factory.hpp:77] Creating layer inception_4c/pool
I1130 01:44:52.898860 10030 net.cpp:84] Creating Layer inception_4c/pool
I1130 01:44:52.898864 10030 net.cpp:406] inception_4c/pool <- inception_4b/output_inception_4b/output_0_split_3
I1130 01:44:52.898870 10030 net.cpp:380] inception_4c/pool -> inception_4c/pool
I1130 01:44:52.898906 10030 net.cpp:122] Setting up inception_4c/pool
I1130 01:44:52.898912 10030 net.cpp:129] Top shape: 32 512 14 14 (3211264)
I1130 01:44:52.898916 10030 net.cpp:137] Memory required for data: 1399308672
I1130 01:44:52.898918 10030 layer_factory.hpp:77] Creating layer inception_4c/pool_proj
I1130 01:44:52.898926 10030 net.cpp:84] Creating Layer inception_4c/pool_proj
I1130 01:44:52.898931 10030 net.cpp:406] inception_4c/pool_proj <- inception_4c/pool
I1130 01:44:52.898937 10030 net.cpp:380] inception_4c/pool_proj -> inception_4c/pool_proj
I1130 01:44:52.899314 10030 net.cpp:122] Setting up inception_4c/pool_proj
I1130 01:44:52.899322 10030 net.cpp:129] Top shape: 32 64 14 14 (401408)
I1130 01:44:52.899325 10030 net.cpp:137] Memory required for data: 1400914304
I1130 01:44:52.899340 10030 layer_factory.hpp:77] Creating layer inception_4c/relu_pool_proj
I1130 01:44:52.899346 10030 net.cpp:84] Creating Layer inception_4c/relu_pool_proj
I1130 01:44:52.899350 10030 net.cpp:406] inception_4c/relu_pool_proj <- inception_4c/pool_proj
I1130 01:44:52.899356 10030 net.cpp:367] inception_4c/relu_pool_proj -> inception_4c/pool_proj (in-place)
I1130 01:44:52.899363 10030 net.cpp:122] Setting up inception_4c/relu_pool_proj
I1130 01:44:52.899368 10030 net.cpp:129] Top shape: 32 64 14 14 (401408)
I1130 01:44:52.899369 10030 net.cpp:137] Memory required for data: 1402519936
I1130 01:44:52.899372 10030 layer_factory.hpp:77] Creating layer inception_4c/output
I1130 01:44:52.899377 10030 net.cpp:84] Creating Layer inception_4c/output
I1130 01:44:52.899381 10030 net.cpp:406] inception_4c/output <- inception_4c/1x1
I1130 01:44:52.899385 10030 net.cpp:406] inception_4c/output <- inception_4c/3x3
I1130 01:44:52.899389 10030 net.cpp:406] inception_4c/output <- inception_4c/5x5
I1130 01:44:52.899392 10030 net.cpp:406] inception_4c/output <- inception_4c/pool_proj
I1130 01:44:52.899397 10030 net.cpp:380] inception_4c/output -> inception_4c/output
I1130 01:44:52.899420 10030 net.cpp:122] Setting up inception_4c/output
I1130 01:44:52.899427 10030 net.cpp:129] Top shape: 32 512 14 14 (3211264)
I1130 01:44:52.899430 10030 net.cpp:137] Memory required for data: 1415364992
I1130 01:44:52.899432 10030 layer_factory.hpp:77] Creating layer inception_4c/output_inception_4c/output_0_split
I1130 01:44:52.899440 10030 net.cpp:84] Creating Layer inception_4c/output_inception_4c/output_0_split
I1130 01:44:52.899443 10030 net.cpp:406] inception_4c/output_inception_4c/output_0_split <- inception_4c/output
I1130 01:44:52.899448 10030 net.cpp:380] inception_4c/output_inception_4c/output_0_split -> inception_4c/output_inception_4c/output_0_split_0
I1130 01:44:52.899454 10030 net.cpp:380] inception_4c/output_inception_4c/output_0_split -> inception_4c/output_inception_4c/output_0_split_1
I1130 01:44:52.899462 10030 net.cpp:380] inception_4c/output_inception_4c/output_0_split -> inception_4c/output_inception_4c/output_0_split_2
I1130 01:44:52.899468 10030 net.cpp:380] inception_4c/output_inception_4c/output_0_split -> inception_4c/output_inception_4c/output_0_split_3
I1130 01:44:52.899520 10030 net.cpp:122] Setting up inception_4c/output_inception_4c/output_0_split
I1130 01:44:52.899528 10030 net.cpp:129] Top shape: 32 512 14 14 (3211264)
I1130 01:44:52.899531 10030 net.cpp:129] Top shape: 32 512 14 14 (3211264)
I1130 01:44:52.899535 10030 net.cpp:129] Top shape: 32 512 14 14 (3211264)
I1130 01:44:52.899539 10030 net.cpp:129] Top shape: 32 512 14 14 (3211264)
I1130 01:44:52.899541 10030 net.cpp:137] Memory required for data: 1466745216
I1130 01:44:52.899544 10030 layer_factory.hpp:77] Creating layer inception_4d/1x1
I1130 01:44:52.899552 10030 net.cpp:84] Creating Layer inception_4d/1x1
I1130 01:44:52.899556 10030 net.cpp:406] inception_4d/1x1 <- inception_4c/output_inception_4c/output_0_split_0
I1130 01:44:52.899564 10030 net.cpp:380] inception_4d/1x1 -> inception_4d/1x1
I1130 01:44:52.900413 10030 net.cpp:122] Setting up inception_4d/1x1
I1130 01:44:52.900423 10030 net.cpp:129] Top shape: 32 112 14 14 (702464)
I1130 01:44:52.900425 10030 net.cpp:137] Memory required for data: 1469555072
I1130 01:44:52.900431 10030 layer_factory.hpp:77] Creating layer inception_4d/relu_1x1
I1130 01:44:52.900439 10030 net.cpp:84] Creating Layer inception_4d/relu_1x1
I1130 01:44:52.900442 10030 net.cpp:406] inception_4d/relu_1x1 <- inception_4d/1x1
I1130 01:44:52.900447 10030 net.cpp:367] inception_4d/relu_1x1 -> inception_4d/1x1 (in-place)
I1130 01:44:52.900454 10030 net.cpp:122] Setting up inception_4d/relu_1x1
I1130 01:44:52.900457 10030 net.cpp:129] Top shape: 32 112 14 14 (702464)
I1130 01:44:52.900460 10030 net.cpp:137] Memory required for data: 1472364928
I1130 01:44:52.900463 10030 layer_factory.hpp:77] Creating layer inception_4d/3x3_reduce
I1130 01:44:52.900471 10030 net.cpp:84] Creating Layer inception_4d/3x3_reduce
I1130 01:44:52.900475 10030 net.cpp:406] inception_4d/3x3_reduce <- inception_4c/output_inception_4c/output_0_split_1
I1130 01:44:52.900480 10030 net.cpp:380] inception_4d/3x3_reduce -> inception_4d/3x3_reduce
I1130 01:44:52.901091 10030 net.cpp:122] Setting up inception_4d/3x3_reduce
I1130 01:44:52.901099 10030 net.cpp:129] Top shape: 32 144 14 14 (903168)
I1130 01:44:52.901103 10030 net.cpp:137] Memory required for data: 1475977600
I1130 01:44:52.901108 10030 layer_factory.hpp:77] Creating layer inception_4d/relu_3x3_reduce
I1130 01:44:52.901115 10030 net.cpp:84] Creating Layer inception_4d/relu_3x3_reduce
I1130 01:44:52.901120 10030 net.cpp:406] inception_4d/relu_3x3_reduce <- inception_4d/3x3_reduce
I1130 01:44:52.901124 10030 net.cpp:367] inception_4d/relu_3x3_reduce -> inception_4d/3x3_reduce (in-place)
I1130 01:44:52.901129 10030 net.cpp:122] Setting up inception_4d/relu_3x3_reduce
I1130 01:44:52.901134 10030 net.cpp:129] Top shape: 32 144 14 14 (903168)
I1130 01:44:52.901135 10030 net.cpp:137] Memory required for data: 1479590272
I1130 01:44:52.901139 10030 layer_factory.hpp:77] Creating layer inception_4d/3x3
I1130 01:44:52.901145 10030 net.cpp:84] Creating Layer inception_4d/3x3
I1130 01:44:52.901149 10030 net.cpp:406] inception_4d/3x3 <- inception_4d/3x3_reduce
I1130 01:44:52.901154 10030 net.cpp:380] inception_4d/3x3 -> inception_4d/3x3
I1130 01:44:52.903762 10030 net.cpp:122] Setting up inception_4d/3x3
I1130 01:44:52.903772 10030 net.cpp:129] Top shape: 32 288 14 14 (1806336)
I1130 01:44:52.903775 10030 net.cpp:137] Memory required for data: 1486815616
I1130 01:44:52.903780 10030 layer_factory.hpp:77] Creating layer inception_4d/relu_3x3
I1130 01:44:52.903786 10030 net.cpp:84] Creating Layer inception_4d/relu_3x3
I1130 01:44:52.903790 10030 net.cpp:406] inception_4d/relu_3x3 <- inception_4d/3x3
I1130 01:44:52.903795 10030 net.cpp:367] inception_4d/relu_3x3 -> inception_4d/3x3 (in-place)
I1130 01:44:52.903800 10030 net.cpp:122] Setting up inception_4d/relu_3x3
I1130 01:44:52.903805 10030 net.cpp:129] Top shape: 32 288 14 14 (1806336)
I1130 01:44:52.903808 10030 net.cpp:137] Memory required for data: 1494040960
I1130 01:44:52.903811 10030 layer_factory.hpp:77] Creating layer inception_4d/5x5_reduce
I1130 01:44:52.903818 10030 net.cpp:84] Creating Layer inception_4d/5x5_reduce
I1130 01:44:52.903822 10030 net.cpp:406] inception_4d/5x5_reduce <- inception_4c/output_inception_4c/output_0_split_2
I1130 01:44:52.903827 10030 net.cpp:380] inception_4d/5x5_reduce -> inception_4d/5x5_reduce
I1130 01:44:52.904130 10030 net.cpp:122] Setting up inception_4d/5x5_reduce
I1130 01:44:52.904139 10030 net.cpp:129] Top shape: 32 32 14 14 (200704)
I1130 01:44:52.904140 10030 net.cpp:137] Memory required for data: 1494843776
I1130 01:44:52.904145 10030 layer_factory.hpp:77] Creating layer inception_4d/relu_5x5_reduce
I1130 01:44:52.904151 10030 net.cpp:84] Creating Layer inception_4d/relu_5x5_reduce
I1130 01:44:52.904155 10030 net.cpp:406] inception_4d/relu_5x5_reduce <- inception_4d/5x5_reduce
I1130 01:44:52.904161 10030 net.cpp:367] inception_4d/relu_5x5_reduce -> inception_4d/5x5_reduce (in-place)
I1130 01:44:52.904167 10030 net.cpp:122] Setting up inception_4d/relu_5x5_reduce
I1130 01:44:52.904171 10030 net.cpp:129] Top shape: 32 32 14 14 (200704)
I1130 01:44:52.904175 10030 net.cpp:137] Memory required for data: 1495646592
I1130 01:44:52.904177 10030 layer_factory.hpp:77] Creating layer inception_4d/5x5
I1130 01:44:52.904186 10030 net.cpp:84] Creating Layer inception_4d/5x5
I1130 01:44:52.904191 10030 net.cpp:406] inception_4d/5x5 <- inception_4d/5x5_reduce
I1130 01:44:52.904196 10030 net.cpp:380] inception_4d/5x5 -> inception_4d/5x5
I1130 01:44:52.904680 10030 net.cpp:122] Setting up inception_4d/5x5
I1130 01:44:52.904688 10030 net.cpp:129] Top shape: 32 64 14 14 (401408)
I1130 01:44:52.904692 10030 net.cpp:137] Memory required for data: 1497252224
I1130 01:44:52.904697 10030 layer_factory.hpp:77] Creating layer inception_4d/relu_5x5
I1130 01:44:52.904702 10030 net.cpp:84] Creating Layer inception_4d/relu_5x5
I1130 01:44:52.904706 10030 net.cpp:406] inception_4d/relu_5x5 <- inception_4d/5x5
I1130 01:44:52.904712 10030 net.cpp:367] inception_4d/relu_5x5 -> inception_4d/5x5 (in-place)
I1130 01:44:52.904718 10030 net.cpp:122] Setting up inception_4d/relu_5x5
I1130 01:44:52.904722 10030 net.cpp:129] Top shape: 32 64 14 14 (401408)
I1130 01:44:52.904726 10030 net.cpp:137] Memory required for data: 1498857856
I1130 01:44:52.904727 10030 layer_factory.hpp:77] Creating layer inception_4d/pool
I1130 01:44:52.904732 10030 net.cpp:84] Creating Layer inception_4d/pool
I1130 01:44:52.904736 10030 net.cpp:406] inception_4d/pool <- inception_4c/output_inception_4c/output_0_split_3
I1130 01:44:52.904741 10030 net.cpp:380] inception_4d/pool -> inception_4d/pool
I1130 01:44:52.904778 10030 net.cpp:122] Setting up inception_4d/pool
I1130 01:44:52.904783 10030 net.cpp:129] Top shape: 32 512 14 14 (3211264)
I1130 01:44:52.904788 10030 net.cpp:137] Memory required for data: 1511702912
I1130 01:44:52.904789 10030 layer_factory.hpp:77] Creating layer inception_4d/pool_proj
I1130 01:44:52.904798 10030 net.cpp:84] Creating Layer inception_4d/pool_proj
I1130 01:44:52.904801 10030 net.cpp:406] inception_4d/pool_proj <- inception_4d/pool
I1130 01:44:52.904808 10030 net.cpp:380] inception_4d/pool_proj -> inception_4d/pool_proj
I1130 01:44:52.905184 10030 net.cpp:122] Setting up inception_4d/pool_proj
I1130 01:44:52.905192 10030 net.cpp:129] Top shape: 32 64 14 14 (401408)
I1130 01:44:52.905195 10030 net.cpp:137] Memory required for data: 1513308544
I1130 01:44:52.905200 10030 layer_factory.hpp:77] Creating layer inception_4d/relu_pool_proj
I1130 01:44:52.905207 10030 net.cpp:84] Creating Layer inception_4d/relu_pool_proj
I1130 01:44:52.905211 10030 net.cpp:406] inception_4d/relu_pool_proj <- inception_4d/pool_proj
I1130 01:44:52.905216 10030 net.cpp:367] inception_4d/relu_pool_proj -> inception_4d/pool_proj (in-place)
I1130 01:44:52.905221 10030 net.cpp:122] Setting up inception_4d/relu_pool_proj
I1130 01:44:52.905226 10030 net.cpp:129] Top shape: 32 64 14 14 (401408)
I1130 01:44:52.905228 10030 net.cpp:137] Memory required for data: 1514914176
I1130 01:44:52.905231 10030 layer_factory.hpp:77] Creating layer inception_4d/output
I1130 01:44:52.905236 10030 net.cpp:84] Creating Layer inception_4d/output
I1130 01:44:52.905239 10030 net.cpp:406] inception_4d/output <- inception_4d/1x1
I1130 01:44:52.905242 10030 net.cpp:406] inception_4d/output <- inception_4d/3x3
I1130 01:44:52.905247 10030 net.cpp:406] inception_4d/output <- inception_4d/5x5
I1130 01:44:52.905252 10030 net.cpp:406] inception_4d/output <- inception_4d/pool_proj
I1130 01:44:52.905256 10030 net.cpp:380] inception_4d/output -> inception_4d/output
I1130 01:44:52.905279 10030 net.cpp:122] Setting up inception_4d/output
I1130 01:44:52.905285 10030 net.cpp:129] Top shape: 32 528 14 14 (3311616)
I1130 01:44:52.905288 10030 net.cpp:137] Memory required for data: 1528160640
I1130 01:44:52.905292 10030 layer_factory.hpp:77] Creating layer inception_4d/output_inception_4d/output_0_split
I1130 01:44:52.905298 10030 net.cpp:84] Creating Layer inception_4d/output_inception_4d/output_0_split
I1130 01:44:52.905303 10030 net.cpp:406] inception_4d/output_inception_4d/output_0_split <- inception_4d/output
I1130 01:44:52.905308 10030 net.cpp:380] inception_4d/output_inception_4d/output_0_split -> inception_4d/output_inception_4d/output_0_split_0
I1130 01:44:52.905314 10030 net.cpp:380] inception_4d/output_inception_4d/output_0_split -> inception_4d/output_inception_4d/output_0_split_1
I1130 01:44:52.905320 10030 net.cpp:380] inception_4d/output_inception_4d/output_0_split -> inception_4d/output_inception_4d/output_0_split_2
I1130 01:44:52.905326 10030 net.cpp:380] inception_4d/output_inception_4d/output_0_split -> inception_4d/output_inception_4d/output_0_split_3
I1130 01:44:52.905378 10030 net.cpp:122] Setting up inception_4d/output_inception_4d/output_0_split
I1130 01:44:52.905385 10030 net.cpp:129] Top shape: 32 528 14 14 (3311616)
I1130 01:44:52.905388 10030 net.cpp:129] Top shape: 32 528 14 14 (3311616)
I1130 01:44:52.905393 10030 net.cpp:129] Top shape: 32 528 14 14 (3311616)
I1130 01:44:52.905396 10030 net.cpp:129] Top shape: 32 528 14 14 (3311616)
I1130 01:44:52.905400 10030 net.cpp:137] Memory required for data: 1581146496
I1130 01:44:52.905403 10030 layer_factory.hpp:77] Creating layer inception_4e/1x1
I1130 01:44:52.905411 10030 net.cpp:84] Creating Layer inception_4e/1x1
I1130 01:44:52.905416 10030 net.cpp:406] inception_4e/1x1 <- inception_4d/output_inception_4d/output_0_split_0
I1130 01:44:52.905422 10030 net.cpp:380] inception_4e/1x1 -> inception_4e/1x1
I1130 01:44:52.906672 10030 net.cpp:122] Setting up inception_4e/1x1
I1130 01:44:52.906680 10030 net.cpp:129] Top shape: 32 256 14 14 (1605632)
I1130 01:44:52.906683 10030 net.cpp:137] Memory required for data: 1587569024
I1130 01:44:52.906689 10030 layer_factory.hpp:77] Creating layer inception_4e/relu_1x1
I1130 01:44:52.906697 10030 net.cpp:84] Creating Layer inception_4e/relu_1x1
I1130 01:44:52.906700 10030 net.cpp:406] inception_4e/relu_1x1 <- inception_4e/1x1
I1130 01:44:52.906705 10030 net.cpp:367] inception_4e/relu_1x1 -> inception_4e/1x1 (in-place)
I1130 01:44:52.906711 10030 net.cpp:122] Setting up inception_4e/relu_1x1
I1130 01:44:52.906715 10030 net.cpp:129] Top shape: 32 256 14 14 (1605632)
I1130 01:44:52.906718 10030 net.cpp:137] Memory required for data: 1593991552
I1130 01:44:52.906721 10030 layer_factory.hpp:77] Creating layer inception_4e/3x3_reduce
I1130 01:44:52.906729 10030 net.cpp:84] Creating Layer inception_4e/3x3_reduce
I1130 01:44:52.906733 10030 net.cpp:406] inception_4e/3x3_reduce <- inception_4d/output_inception_4d/output_0_split_1
I1130 01:44:52.906739 10030 net.cpp:380] inception_4e/3x3_reduce -> inception_4e/3x3_reduce
I1130 01:44:52.907389 10030 net.cpp:122] Setting up inception_4e/3x3_reduce
I1130 01:44:52.907397 10030 net.cpp:129] Top shape: 32 160 14 14 (1003520)
I1130 01:44:52.907400 10030 net.cpp:137] Memory required for data: 1598005632
I1130 01:44:52.907407 10030 layer_factory.hpp:77] Creating layer inception_4e/relu_3x3_reduce
I1130 01:44:52.907411 10030 net.cpp:84] Creating Layer inception_4e/relu_3x3_reduce
I1130 01:44:52.907415 10030 net.cpp:406] inception_4e/relu_3x3_reduce <- inception_4e/3x3_reduce
I1130 01:44:52.907420 10030 net.cpp:367] inception_4e/relu_3x3_reduce -> inception_4e/3x3_reduce (in-place)
I1130 01:44:52.907425 10030 net.cpp:122] Setting up inception_4e/relu_3x3_reduce
I1130 01:44:52.907430 10030 net.cpp:129] Top shape: 32 160 14 14 (1003520)
I1130 01:44:52.907433 10030 net.cpp:137] Memory required for data: 1602019712
I1130 01:44:52.907435 10030 layer_factory.hpp:77] Creating layer inception_4e/3x3
I1130 01:44:52.907444 10030 net.cpp:84] Creating Layer inception_4e/3x3
I1130 01:44:52.907447 10030 net.cpp:406] inception_4e/3x3 <- inception_4e/3x3_reduce
I1130 01:44:52.907454 10030 net.cpp:380] inception_4e/3x3 -> inception_4e/3x3
I1130 01:44:52.910591 10030 net.cpp:122] Setting up inception_4e/3x3
I1130 01:44:52.910601 10030 net.cpp:129] Top shape: 32 320 14 14 (2007040)
I1130 01:44:52.910605 10030 net.cpp:137] Memory required for data: 1610047872
I1130 01:44:52.910610 10030 layer_factory.hpp:77] Creating layer inception_4e/relu_3x3
I1130 01:44:52.910616 10030 net.cpp:84] Creating Layer inception_4e/relu_3x3
I1130 01:44:52.910621 10030 net.cpp:406] inception_4e/relu_3x3 <- inception_4e/3x3
I1130 01:44:52.910626 10030 net.cpp:367] inception_4e/relu_3x3 -> inception_4e/3x3 (in-place)
I1130 01:44:52.910632 10030 net.cpp:122] Setting up inception_4e/relu_3x3
I1130 01:44:52.910637 10030 net.cpp:129] Top shape: 32 320 14 14 (2007040)
I1130 01:44:52.910640 10030 net.cpp:137] Memory required for data: 1618076032
I1130 01:44:52.910642 10030 layer_factory.hpp:77] Creating layer inception_4e/5x5_reduce
I1130 01:44:52.910650 10030 net.cpp:84] Creating Layer inception_4e/5x5_reduce
I1130 01:44:52.910655 10030 net.cpp:406] inception_4e/5x5_reduce <- inception_4d/output_inception_4d/output_0_split_2
I1130 01:44:52.910661 10030 net.cpp:380] inception_4e/5x5_reduce -> inception_4e/5x5_reduce
I1130 01:44:52.910961 10030 net.cpp:122] Setting up inception_4e/5x5_reduce
I1130 01:44:52.910969 10030 net.cpp:129] Top shape: 32 32 14 14 (200704)
I1130 01:44:52.910972 10030 net.cpp:137] Memory required for data: 1618878848
I1130 01:44:52.910979 10030 layer_factory.hpp:77] Creating layer inception_4e/relu_5x5_reduce
I1130 01:44:52.910985 10030 net.cpp:84] Creating Layer inception_4e/relu_5x5_reduce
I1130 01:44:52.910989 10030 net.cpp:406] inception_4e/relu_5x5_reduce <- inception_4e/5x5_reduce
I1130 01:44:52.910993 10030 net.cpp:367] inception_4e/relu_5x5_reduce -> inception_4e/5x5_reduce (in-place)
I1130 01:44:52.911000 10030 net.cpp:122] Setting up inception_4e/relu_5x5_reduce
I1130 01:44:52.911003 10030 net.cpp:129] Top shape: 32 32 14 14 (200704)
I1130 01:44:52.911006 10030 net.cpp:137] Memory required for data: 1619681664
I1130 01:44:52.911010 10030 layer_factory.hpp:77] Creating layer inception_4e/5x5
I1130 01:44:52.911016 10030 net.cpp:84] Creating Layer inception_4e/5x5
I1130 01:44:52.911020 10030 net.cpp:406] inception_4e/5x5 <- inception_4e/5x5_reduce
I1130 01:44:52.911026 10030 net.cpp:380] inception_4e/5x5 -> inception_4e/5x5
I1130 01:44:52.912098 10030 net.cpp:122] Setting up inception_4e/5x5
I1130 01:44:52.912107 10030 net.cpp:129] Top shape: 32 128 14 14 (802816)
I1130 01:44:52.912111 10030 net.cpp:137] Memory required for data: 1622892928
I1130 01:44:52.912117 10030 layer_factory.hpp:77] Creating layer inception_4e/relu_5x5
I1130 01:44:52.912122 10030 net.cpp:84] Creating Layer inception_4e/relu_5x5
I1130 01:44:52.912127 10030 net.cpp:406] inception_4e/relu_5x5 <- inception_4e/5x5
I1130 01:44:52.912132 10030 net.cpp:367] inception_4e/relu_5x5 -> inception_4e/5x5 (in-place)
I1130 01:44:52.912138 10030 net.cpp:122] Setting up inception_4e/relu_5x5
I1130 01:44:52.912143 10030 net.cpp:129] Top shape: 32 128 14 14 (802816)
I1130 01:44:52.912147 10030 net.cpp:137] Memory required for data: 1626104192
I1130 01:44:52.912148 10030 layer_factory.hpp:77] Creating layer inception_4e/pool
I1130 01:44:52.912154 10030 net.cpp:84] Creating Layer inception_4e/pool
I1130 01:44:52.912159 10030 net.cpp:406] inception_4e/pool <- inception_4d/output_inception_4d/output_0_split_3
I1130 01:44:52.912163 10030 net.cpp:380] inception_4e/pool -> inception_4e/pool
I1130 01:44:52.912199 10030 net.cpp:122] Setting up inception_4e/pool
I1130 01:44:52.912206 10030 net.cpp:129] Top shape: 32 528 14 14 (3311616)
I1130 01:44:52.912209 10030 net.cpp:137] Memory required for data: 1639350656
I1130 01:44:52.912212 10030 layer_factory.hpp:77] Creating layer inception_4e/pool_proj
I1130 01:44:52.912220 10030 net.cpp:84] Creating Layer inception_4e/pool_proj
I1130 01:44:52.912225 10030 net.cpp:406] inception_4e/pool_proj <- inception_4e/pool
I1130 01:44:52.912231 10030 net.cpp:380] inception_4e/pool_proj -> inception_4e/pool_proj
I1130 01:44:52.912782 10030 net.cpp:122] Setting up inception_4e/pool_proj
I1130 01:44:52.912791 10030 net.cpp:129] Top shape: 32 128 14 14 (802816)
I1130 01:44:52.912793 10030 net.cpp:137] Memory required for data: 1642561920
I1130 01:44:52.912799 10030 layer_factory.hpp:77] Creating layer inception_4e/relu_pool_proj
I1130 01:44:52.912804 10030 net.cpp:84] Creating Layer inception_4e/relu_pool_proj
I1130 01:44:52.912809 10030 net.cpp:406] inception_4e/relu_pool_proj <- inception_4e/pool_proj
I1130 01:44:52.912813 10030 net.cpp:367] inception_4e/relu_pool_proj -> inception_4e/pool_proj (in-place)
I1130 01:44:52.912819 10030 net.cpp:122] Setting up inception_4e/relu_pool_proj
I1130 01:44:52.912824 10030 net.cpp:129] Top shape: 32 128 14 14 (802816)
I1130 01:44:52.912827 10030 net.cpp:137] Memory required for data: 1645773184
I1130 01:44:52.912829 10030 layer_factory.hpp:77] Creating layer inception_4e/output
I1130 01:44:52.912834 10030 net.cpp:84] Creating Layer inception_4e/output
I1130 01:44:52.912837 10030 net.cpp:406] inception_4e/output <- inception_4e/1x1
I1130 01:44:52.912842 10030 net.cpp:406] inception_4e/output <- inception_4e/3x3
I1130 01:44:52.912845 10030 net.cpp:406] inception_4e/output <- inception_4e/5x5
I1130 01:44:52.912849 10030 net.cpp:406] inception_4e/output <- inception_4e/pool_proj
I1130 01:44:52.912854 10030 net.cpp:380] inception_4e/output -> inception_4e/output
I1130 01:44:52.912878 10030 net.cpp:122] Setting up inception_4e/output
I1130 01:44:52.912886 10030 net.cpp:129] Top shape: 32 832 14 14 (5218304)
I1130 01:44:52.912889 10030 net.cpp:137] Memory required for data: 1666646400
I1130 01:44:52.912892 10030 layer_factory.hpp:77] Creating layer pool4/3x3_s2
I1130 01:44:52.912897 10030 net.cpp:84] Creating Layer pool4/3x3_s2
I1130 01:44:52.912901 10030 net.cpp:406] pool4/3x3_s2 <- inception_4e/output
I1130 01:44:52.912906 10030 net.cpp:380] pool4/3x3_s2 -> pool4/3x3_s2
I1130 01:44:52.912940 10030 net.cpp:122] Setting up pool4/3x3_s2
I1130 01:44:52.912947 10030 net.cpp:129] Top shape: 32 832 7 7 (1304576)
I1130 01:44:52.912950 10030 net.cpp:137] Memory required for data: 1671864704
I1130 01:44:52.912953 10030 layer_factory.hpp:77] Creating layer pool4/3x3_s2_pool4/3x3_s2_0_split
I1130 01:44:52.912958 10030 net.cpp:84] Creating Layer pool4/3x3_s2_pool4/3x3_s2_0_split
I1130 01:44:52.912961 10030 net.cpp:406] pool4/3x3_s2_pool4/3x3_s2_0_split <- pool4/3x3_s2
I1130 01:44:52.912967 10030 net.cpp:380] pool4/3x3_s2_pool4/3x3_s2_0_split -> pool4/3x3_s2_pool4/3x3_s2_0_split_0
I1130 01:44:52.912973 10030 net.cpp:380] pool4/3x3_s2_pool4/3x3_s2_0_split -> pool4/3x3_s2_pool4/3x3_s2_0_split_1
I1130 01:44:52.912979 10030 net.cpp:380] pool4/3x3_s2_pool4/3x3_s2_0_split -> pool4/3x3_s2_pool4/3x3_s2_0_split_2
I1130 01:44:52.912984 10030 net.cpp:380] pool4/3x3_s2_pool4/3x3_s2_0_split -> pool4/3x3_s2_pool4/3x3_s2_0_split_3
I1130 01:44:52.913036 10030 net.cpp:122] Setting up pool4/3x3_s2_pool4/3x3_s2_0_split
I1130 01:44:52.913043 10030 net.cpp:129] Top shape: 32 832 7 7 (1304576)
I1130 01:44:52.913048 10030 net.cpp:129] Top shape: 32 832 7 7 (1304576)
I1130 01:44:52.913051 10030 net.cpp:129] Top shape: 32 832 7 7 (1304576)
I1130 01:44:52.913055 10030 net.cpp:129] Top shape: 32 832 7 7 (1304576)
I1130 01:44:52.913058 10030 net.cpp:137] Memory required for data: 1692737920
I1130 01:44:52.913061 10030 layer_factory.hpp:77] Creating layer inception_5a/1x1
I1130 01:44:52.913069 10030 net.cpp:84] Creating Layer inception_5a/1x1
I1130 01:44:52.913072 10030 net.cpp:406] inception_5a/1x1 <- pool4/3x3_s2_pool4/3x3_s2_0_split_0
I1130 01:44:52.913079 10030 net.cpp:380] inception_5a/1x1 -> inception_5a/1x1
I1130 01:44:52.914731 10030 net.cpp:122] Setting up inception_5a/1x1
I1130 01:44:52.914741 10030 net.cpp:129] Top shape: 32 256 7 7 (401408)
I1130 01:44:52.914744 10030 net.cpp:137] Memory required for data: 1694343552
I1130 01:44:52.914750 10030 layer_factory.hpp:77] Creating layer inception_5a/relu_1x1
I1130 01:44:52.914755 10030 net.cpp:84] Creating Layer inception_5a/relu_1x1
I1130 01:44:52.914760 10030 net.cpp:406] inception_5a/relu_1x1 <- inception_5a/1x1
I1130 01:44:52.914767 10030 net.cpp:367] inception_5a/relu_1x1 -> inception_5a/1x1 (in-place)
I1130 01:44:52.914772 10030 net.cpp:122] Setting up inception_5a/relu_1x1
I1130 01:44:52.914777 10030 net.cpp:129] Top shape: 32 256 7 7 (401408)
I1130 01:44:52.914779 10030 net.cpp:137] Memory required for data: 1695949184
I1130 01:44:52.914783 10030 layer_factory.hpp:77] Creating layer inception_5a/3x3_reduce
I1130 01:44:52.914789 10030 net.cpp:84] Creating Layer inception_5a/3x3_reduce
I1130 01:44:52.914794 10030 net.cpp:406] inception_5a/3x3_reduce <- pool4/3x3_s2_pool4/3x3_s2_0_split_1
I1130 01:44:52.914800 10030 net.cpp:380] inception_5a/3x3_reduce -> inception_5a/3x3_reduce
I1130 01:44:52.916046 10030 net.cpp:122] Setting up inception_5a/3x3_reduce
I1130 01:44:52.916056 10030 net.cpp:129] Top shape: 32 160 7 7 (250880)
I1130 01:44:52.916060 10030 net.cpp:137] Memory required for data: 1696952704
I1130 01:44:52.916065 10030 layer_factory.hpp:77] Creating layer inception_5a/relu_3x3_reduce
I1130 01:44:52.916071 10030 net.cpp:84] Creating Layer inception_5a/relu_3x3_reduce
I1130 01:44:52.916075 10030 net.cpp:406] inception_5a/relu_3x3_reduce <- inception_5a/3x3_reduce
I1130 01:44:52.916083 10030 net.cpp:367] inception_5a/relu_3x3_reduce -> inception_5a/3x3_reduce (in-place)
I1130 01:44:52.916090 10030 net.cpp:122] Setting up inception_5a/relu_3x3_reduce
I1130 01:44:52.916095 10030 net.cpp:129] Top shape: 32 160 7 7 (250880)
I1130 01:44:52.916098 10030 net.cpp:137] Memory required for data: 1697956224
I1130 01:44:52.916100 10030 layer_factory.hpp:77] Creating layer inception_5a/3x3
I1130 01:44:52.916108 10030 net.cpp:84] Creating Layer inception_5a/3x3
I1130 01:44:52.916112 10030 net.cpp:406] inception_5a/3x3 <- inception_5a/3x3_reduce
I1130 01:44:52.916117 10030 net.cpp:380] inception_5a/3x3 -> inception_5a/3x3
I1130 01:44:52.919252 10030 net.cpp:122] Setting up inception_5a/3x3
I1130 01:44:52.919263 10030 net.cpp:129] Top shape: 32 320 7 7 (501760)
I1130 01:44:52.919266 10030 net.cpp:137] Memory required for data: 1699963264
I1130 01:44:52.919272 10030 layer_factory.hpp:77] Creating layer inception_5a/relu_3x3
I1130 01:44:52.919277 10030 net.cpp:84] Creating Layer inception_5a/relu_3x3
I1130 01:44:52.919281 10030 net.cpp:406] inception_5a/relu_3x3 <- inception_5a/3x3
I1130 01:44:52.919286 10030 net.cpp:367] inception_5a/relu_3x3 -> inception_5a/3x3 (in-place)
I1130 01:44:52.919294 10030 net.cpp:122] Setting up inception_5a/relu_3x3
I1130 01:44:52.919298 10030 net.cpp:129] Top shape: 32 320 7 7 (501760)
I1130 01:44:52.919303 10030 net.cpp:137] Memory required for data: 1701970304
I1130 01:44:52.919306 10030 layer_factory.hpp:77] Creating layer inception_5a/5x5_reduce
I1130 01:44:52.919313 10030 net.cpp:84] Creating Layer inception_5a/5x5_reduce
I1130 01:44:52.919317 10030 net.cpp:406] inception_5a/5x5_reduce <- pool4/3x3_s2_pool4/3x3_s2_0_split_2
I1130 01:44:52.919324 10030 net.cpp:380] inception_5a/5x5_reduce -> inception_5a/5x5_reduce
I1130 01:44:52.919688 10030 net.cpp:122] Setting up inception_5a/5x5_reduce
I1130 01:44:52.919697 10030 net.cpp:129] Top shape: 32 32 7 7 (50176)
I1130 01:44:52.919699 10030 net.cpp:137] Memory required for data: 1702171008
I1130 01:44:52.919704 10030 layer_factory.hpp:77] Creating layer inception_5a/relu_5x5_reduce
I1130 01:44:52.919713 10030 net.cpp:84] Creating Layer inception_5a/relu_5x5_reduce
I1130 01:44:52.919716 10030 net.cpp:406] inception_5a/relu_5x5_reduce <- inception_5a/5x5_reduce
I1130 01:44:52.919723 10030 net.cpp:367] inception_5a/relu_5x5_reduce -> inception_5a/5x5_reduce (in-place)
I1130 01:44:52.919728 10030 net.cpp:122] Setting up inception_5a/relu_5x5_reduce
I1130 01:44:52.919734 10030 net.cpp:129] Top shape: 32 32 7 7 (50176)
I1130 01:44:52.919736 10030 net.cpp:137] Memory required for data: 1702371712
I1130 01:44:52.919739 10030 layer_factory.hpp:77] Creating layer inception_5a/5x5
I1130 01:44:52.919759 10030 net.cpp:84] Creating Layer inception_5a/5x5
I1130 01:44:52.919762 10030 net.cpp:406] inception_5a/5x5 <- inception_5a/5x5_reduce
I1130 01:44:52.919767 10030 net.cpp:380] inception_5a/5x5 -> inception_5a/5x5
I1130 01:44:52.920850 10030 net.cpp:122] Setting up inception_5a/5x5
I1130 01:44:52.920858 10030 net.cpp:129] Top shape: 32 128 7 7 (200704)
I1130 01:44:52.920861 10030 net.cpp:137] Memory required for data: 1703174528
I1130 01:44:52.920866 10030 layer_factory.hpp:77] Creating layer inception_5a/relu_5x5
I1130 01:44:52.920871 10030 net.cpp:84] Creating Layer inception_5a/relu_5x5
I1130 01:44:52.920876 10030 net.cpp:406] inception_5a/relu_5x5 <- inception_5a/5x5
I1130 01:44:52.920879 10030 net.cpp:367] inception_5a/relu_5x5 -> inception_5a/5x5 (in-place)
I1130 01:44:52.920884 10030 net.cpp:122] Setting up inception_5a/relu_5x5
I1130 01:44:52.920888 10030 net.cpp:129] Top shape: 32 128 7 7 (200704)
I1130 01:44:52.920892 10030 net.cpp:137] Memory required for data: 1703977344
I1130 01:44:52.920893 10030 layer_factory.hpp:77] Creating layer inception_5a/pool
I1130 01:44:52.920900 10030 net.cpp:84] Creating Layer inception_5a/pool
I1130 01:44:52.920904 10030 net.cpp:406] inception_5a/pool <- pool4/3x3_s2_pool4/3x3_s2_0_split_3
I1130 01:44:52.920909 10030 net.cpp:380] inception_5a/pool -> inception_5a/pool
I1130 01:44:52.920944 10030 net.cpp:122] Setting up inception_5a/pool
I1130 01:44:52.920950 10030 net.cpp:129] Top shape: 32 832 7 7 (1304576)
I1130 01:44:52.920953 10030 net.cpp:137] Memory required for data: 1709195648
I1130 01:44:52.920956 10030 layer_factory.hpp:77] Creating layer inception_5a/pool_proj
I1130 01:44:52.920964 10030 net.cpp:84] Creating Layer inception_5a/pool_proj
I1130 01:44:52.920969 10030 net.cpp:406] inception_5a/pool_proj <- inception_5a/pool
I1130 01:44:52.920974 10030 net.cpp:380] inception_5a/pool_proj -> inception_5a/pool_proj
I1130 01:44:52.922056 10030 net.cpp:122] Setting up inception_5a/pool_proj
I1130 01:44:52.922067 10030 net.cpp:129] Top shape: 32 128 7 7 (200704)
I1130 01:44:52.922070 10030 net.cpp:137] Memory required for data: 1709998464
I1130 01:44:52.922075 10030 layer_factory.hpp:77] Creating layer inception_5a/relu_pool_proj
I1130 01:44:52.922081 10030 net.cpp:84] Creating Layer inception_5a/relu_pool_proj
I1130 01:44:52.922086 10030 net.cpp:406] inception_5a/relu_pool_proj <- inception_5a/pool_proj
I1130 01:44:52.922092 10030 net.cpp:367] inception_5a/relu_pool_proj -> inception_5a/pool_proj (in-place)
I1130 01:44:52.922099 10030 net.cpp:122] Setting up inception_5a/relu_pool_proj
I1130 01:44:52.922103 10030 net.cpp:129] Top shape: 32 128 7 7 (200704)
I1130 01:44:52.922107 10030 net.cpp:137] Memory required for data: 1710801280
I1130 01:44:52.922109 10030 layer_factory.hpp:77] Creating layer inception_5a/output
I1130 01:44:52.922116 10030 net.cpp:84] Creating Layer inception_5a/output
I1130 01:44:52.922119 10030 net.cpp:406] inception_5a/output <- inception_5a/1x1
I1130 01:44:52.922123 10030 net.cpp:406] inception_5a/output <- inception_5a/3x3
I1130 01:44:52.922127 10030 net.cpp:406] inception_5a/output <- inception_5a/5x5
I1130 01:44:52.922132 10030 net.cpp:406] inception_5a/output <- inception_5a/pool_proj
I1130 01:44:52.922137 10030 net.cpp:380] inception_5a/output -> inception_5a/output
I1130 01:44:52.922159 10030 net.cpp:122] Setting up inception_5a/output
I1130 01:44:52.922165 10030 net.cpp:129] Top shape: 32 832 7 7 (1304576)
I1130 01:44:52.922168 10030 net.cpp:137] Memory required for data: 1716019584
I1130 01:44:52.922171 10030 layer_factory.hpp:77] Creating layer inception_5a/output_inception_5a/output_0_split
I1130 01:44:52.922176 10030 net.cpp:84] Creating Layer inception_5a/output_inception_5a/output_0_split
I1130 01:44:52.922180 10030 net.cpp:406] inception_5a/output_inception_5a/output_0_split <- inception_5a/output
I1130 01:44:52.922186 10030 net.cpp:380] inception_5a/output_inception_5a/output_0_split -> inception_5a/output_inception_5a/output_0_split_0
I1130 01:44:52.922193 10030 net.cpp:380] inception_5a/output_inception_5a/output_0_split -> inception_5a/output_inception_5a/output_0_split_1
I1130 01:44:52.922199 10030 net.cpp:380] inception_5a/output_inception_5a/output_0_split -> inception_5a/output_inception_5a/output_0_split_2
I1130 01:44:52.922204 10030 net.cpp:380] inception_5a/output_inception_5a/output_0_split -> inception_5a/output_inception_5a/output_0_split_3
I1130 01:44:52.922251 10030 net.cpp:122] Setting up inception_5a/output_inception_5a/output_0_split
I1130 01:44:52.922257 10030 net.cpp:129] Top shape: 32 832 7 7 (1304576)
I1130 01:44:52.922261 10030 net.cpp:129] Top shape: 32 832 7 7 (1304576)
I1130 01:44:52.922266 10030 net.cpp:129] Top shape: 32 832 7 7 (1304576)
I1130 01:44:52.922269 10030 net.cpp:129] Top shape: 32 832 7 7 (1304576)
I1130 01:44:52.922271 10030 net.cpp:137] Memory required for data: 1736892800
I1130 01:44:52.922276 10030 layer_factory.hpp:77] Creating layer inception_5b/1x1
I1130 01:44:52.922282 10030 net.cpp:84] Creating Layer inception_5b/1x1
I1130 01:44:52.922287 10030 net.cpp:406] inception_5b/1x1 <- inception_5a/output_inception_5a/output_0_split_0
I1130 01:44:52.922292 10030 net.cpp:380] inception_5b/1x1 -> inception_5b/1x1
I1130 01:44:52.924571 10030 net.cpp:122] Setting up inception_5b/1x1
I1130 01:44:52.924582 10030 net.cpp:129] Top shape: 32 384 7 7 (602112)
I1130 01:44:52.924584 10030 net.cpp:137] Memory required for data: 1739301248
I1130 01:44:52.924589 10030 layer_factory.hpp:77] Creating layer inception_5b/relu_1x1
I1130 01:44:52.924595 10030 net.cpp:84] Creating Layer inception_5b/relu_1x1
I1130 01:44:52.924600 10030 net.cpp:406] inception_5b/relu_1x1 <- inception_5b/1x1
I1130 01:44:52.924607 10030 net.cpp:367] inception_5b/relu_1x1 -> inception_5b/1x1 (in-place)
I1130 01:44:52.924612 10030 net.cpp:122] Setting up inception_5b/relu_1x1
I1130 01:44:52.924618 10030 net.cpp:129] Top shape: 32 384 7 7 (602112)
I1130 01:44:52.924620 10030 net.cpp:137] Memory required for data: 1741709696
I1130 01:44:52.924623 10030 layer_factory.hpp:77] Creating layer inception_5b/3x3_reduce
I1130 01:44:52.924630 10030 net.cpp:84] Creating Layer inception_5b/3x3_reduce
I1130 01:44:52.924634 10030 net.cpp:406] inception_5b/3x3_reduce <- inception_5a/output_inception_5a/output_0_split_1
I1130 01:44:52.924639 10030 net.cpp:380] inception_5b/3x3_reduce -> inception_5b/3x3_reduce
I1130 01:44:52.925992 10030 net.cpp:122] Setting up inception_5b/3x3_reduce
I1130 01:44:52.926002 10030 net.cpp:129] Top shape: 32 192 7 7 (301056)
I1130 01:44:52.926004 10030 net.cpp:137] Memory required for data: 1742913920
I1130 01:44:52.926010 10030 layer_factory.hpp:77] Creating layer inception_5b/relu_3x3_reduce
I1130 01:44:52.926017 10030 net.cpp:84] Creating Layer inception_5b/relu_3x3_reduce
I1130 01:44:52.926023 10030 net.cpp:406] inception_5b/relu_3x3_reduce <- inception_5b/3x3_reduce
I1130 01:44:52.926028 10030 net.cpp:367] inception_5b/relu_3x3_reduce -> inception_5b/3x3_reduce (in-place)
I1130 01:44:52.926033 10030 net.cpp:122] Setting up inception_5b/relu_3x3_reduce
I1130 01:44:52.926038 10030 net.cpp:129] Top shape: 32 192 7 7 (301056)
I1130 01:44:52.926041 10030 net.cpp:137] Memory required for data: 1744118144
I1130 01:44:52.926044 10030 layer_factory.hpp:77] Creating layer inception_5b/3x3
I1130 01:44:52.926053 10030 net.cpp:84] Creating Layer inception_5b/3x3
I1130 01:44:52.926056 10030 net.cpp:406] inception_5b/3x3 <- inception_5b/3x3_reduce
I1130 01:44:52.926061 10030 net.cpp:380] inception_5b/3x3 -> inception_5b/3x3
I1130 01:44:52.931483 10030 net.cpp:122] Setting up inception_5b/3x3
I1130 01:44:52.931504 10030 net.cpp:129] Top shape: 32 384 7 7 (602112)
I1130 01:44:52.931506 10030 net.cpp:137] Memory required for data: 1746526592
I1130 01:44:52.931514 10030 layer_factory.hpp:77] Creating layer inception_5b/relu_3x3
I1130 01:44:52.931521 10030 net.cpp:84] Creating Layer inception_5b/relu_3x3
I1130 01:44:52.931526 10030 net.cpp:406] inception_5b/relu_3x3 <- inception_5b/3x3
I1130 01:44:52.931533 10030 net.cpp:367] inception_5b/relu_3x3 -> inception_5b/3x3 (in-place)
I1130 01:44:52.931541 10030 net.cpp:122] Setting up inception_5b/relu_3x3
I1130 01:44:52.931546 10030 net.cpp:129] Top shape: 32 384 7 7 (602112)
I1130 01:44:52.931550 10030 net.cpp:137] Memory required for data: 1748935040
I1130 01:44:52.931552 10030 layer_factory.hpp:77] Creating layer inception_5b/5x5_reduce
I1130 01:44:52.931562 10030 net.cpp:84] Creating Layer inception_5b/5x5_reduce
I1130 01:44:52.931566 10030 net.cpp:406] inception_5b/5x5_reduce <- inception_5a/output_inception_5a/output_0_split_2
I1130 01:44:52.931572 10030 net.cpp:380] inception_5b/5x5_reduce -> inception_5b/5x5_reduce
I1130 01:44:52.932026 10030 net.cpp:122] Setting up inception_5b/5x5_reduce
I1130 01:44:52.932035 10030 net.cpp:129] Top shape: 32 48 7 7 (75264)
I1130 01:44:52.932039 10030 net.cpp:137] Memory required for data: 1749236096
I1130 01:44:52.932044 10030 layer_factory.hpp:77] Creating layer inception_5b/relu_5x5_reduce
I1130 01:44:52.932049 10030 net.cpp:84] Creating Layer inception_5b/relu_5x5_reduce
I1130 01:44:52.932052 10030 net.cpp:406] inception_5b/relu_5x5_reduce <- inception_5b/5x5_reduce
I1130 01:44:52.932057 10030 net.cpp:367] inception_5b/relu_5x5_reduce -> inception_5b/5x5_reduce (in-place)
I1130 01:44:52.932065 10030 net.cpp:122] Setting up inception_5b/relu_5x5_reduce
I1130 01:44:52.932068 10030 net.cpp:129] Top shape: 32 48 7 7 (75264)
I1130 01:44:52.932071 10030 net.cpp:137] Memory required for data: 1749537152
I1130 01:44:52.932075 10030 layer_factory.hpp:77] Creating layer inception_5b/5x5
I1130 01:44:52.932081 10030 net.cpp:84] Creating Layer inception_5b/5x5
I1130 01:44:52.932085 10030 net.cpp:406] inception_5b/5x5 <- inception_5b/5x5_reduce
I1130 01:44:52.932091 10030 net.cpp:380] inception_5b/5x5 -> inception_5b/5x5
I1130 01:44:52.933117 10030 net.cpp:122] Setting up inception_5b/5x5
I1130 01:44:52.933125 10030 net.cpp:129] Top shape: 32 128 7 7 (200704)
I1130 01:44:52.933128 10030 net.cpp:137] Memory required for data: 1750339968
I1130 01:44:52.933167 10030 layer_factory.hpp:77] Creating layer inception_5b/relu_5x5
I1130 01:44:52.933173 10030 net.cpp:84] Creating Layer inception_5b/relu_5x5
I1130 01:44:52.933178 10030 net.cpp:406] inception_5b/relu_5x5 <- inception_5b/5x5
I1130 01:44:52.933183 10030 net.cpp:367] inception_5b/relu_5x5 -> inception_5b/5x5 (in-place)
I1130 01:44:52.933189 10030 net.cpp:122] Setting up inception_5b/relu_5x5
I1130 01:44:52.933193 10030 net.cpp:129] Top shape: 32 128 7 7 (200704)
I1130 01:44:52.933197 10030 net.cpp:137] Memory required for data: 1751142784
I1130 01:44:52.933198 10030 layer_factory.hpp:77] Creating layer inception_5b/pool
I1130 01:44:52.933207 10030 net.cpp:84] Creating Layer inception_5b/pool
I1130 01:44:52.933210 10030 net.cpp:406] inception_5b/pool <- inception_5a/output_inception_5a/output_0_split_3
I1130 01:44:52.933215 10030 net.cpp:380] inception_5b/pool -> inception_5b/pool
I1130 01:44:52.933249 10030 net.cpp:122] Setting up inception_5b/pool
I1130 01:44:52.933256 10030 net.cpp:129] Top shape: 32 832 7 7 (1304576)
I1130 01:44:52.933259 10030 net.cpp:137] Memory required for data: 1756361088
I1130 01:44:52.933261 10030 layer_factory.hpp:77] Creating layer inception_5b/pool_proj
I1130 01:44:52.933272 10030 net.cpp:84] Creating Layer inception_5b/pool_proj
I1130 01:44:52.933276 10030 net.cpp:406] inception_5b/pool_proj <- inception_5b/pool
I1130 01:44:52.933282 10030 net.cpp:380] inception_5b/pool_proj -> inception_5b/pool_proj
I1130 01:44:52.934403 10030 net.cpp:122] Setting up inception_5b/pool_proj
I1130 01:44:52.934413 10030 net.cpp:129] Top shape: 32 128 7 7 (200704)
I1130 01:44:52.934415 10030 net.cpp:137] Memory required for data: 1757163904
I1130 01:44:52.934422 10030 layer_factory.hpp:77] Creating layer inception_5b/relu_pool_proj
I1130 01:44:52.934427 10030 net.cpp:84] Creating Layer inception_5b/relu_pool_proj
I1130 01:44:52.934432 10030 net.cpp:406] inception_5b/relu_pool_proj <- inception_5b/pool_proj
I1130 01:44:52.934438 10030 net.cpp:367] inception_5b/relu_pool_proj -> inception_5b/pool_proj (in-place)
I1130 01:44:52.934445 10030 net.cpp:122] Setting up inception_5b/relu_pool_proj
I1130 01:44:52.934449 10030 net.cpp:129] Top shape: 32 128 7 7 (200704)
I1130 01:44:52.934453 10030 net.cpp:137] Memory required for data: 1757966720
I1130 01:44:52.934454 10030 layer_factory.hpp:77] Creating layer inception_5b/output
I1130 01:44:52.934460 10030 net.cpp:84] Creating Layer inception_5b/output
I1130 01:44:52.934464 10030 net.cpp:406] inception_5b/output <- inception_5b/1x1
I1130 01:44:52.934468 10030 net.cpp:406] inception_5b/output <- inception_5b/3x3
I1130 01:44:52.934473 10030 net.cpp:406] inception_5b/output <- inception_5b/5x5
I1130 01:44:52.934476 10030 net.cpp:406] inception_5b/output <- inception_5b/pool_proj
I1130 01:44:52.934484 10030 net.cpp:380] inception_5b/output -> inception_5b/output
I1130 01:44:52.934505 10030 net.cpp:122] Setting up inception_5b/output
I1130 01:44:52.934511 10030 net.cpp:129] Top shape: 32 1024 7 7 (1605632)
I1130 01:44:52.934514 10030 net.cpp:137] Memory required for data: 1764389248
I1130 01:44:52.934517 10030 layer_factory.hpp:77] Creating layer pool5/7x7_s1
I1130 01:44:52.934522 10030 net.cpp:84] Creating Layer pool5/7x7_s1
I1130 01:44:52.934526 10030 net.cpp:406] pool5/7x7_s1 <- inception_5b/output
I1130 01:44:52.934532 10030 net.cpp:380] pool5/7x7_s1 -> pool5/7x7_s1
I1130 01:44:52.934554 10030 net.cpp:122] Setting up pool5/7x7_s1
I1130 01:44:52.934561 10030 net.cpp:129] Top shape: 32 1024 1 1 (32768)
I1130 01:44:52.934563 10030 net.cpp:137] Memory required for data: 1764520320
I1130 01:44:52.934566 10030 layer_factory.hpp:77] Creating layer pool5/drop_7x7_s1
I1130 01:44:52.934571 10030 net.cpp:84] Creating Layer pool5/drop_7x7_s1
I1130 01:44:52.934576 10030 net.cpp:406] pool5/drop_7x7_s1 <- pool5/7x7_s1
I1130 01:44:52.934581 10030 net.cpp:367] pool5/drop_7x7_s1 -> pool5/7x7_s1 (in-place)
I1130 01:44:52.934600 10030 net.cpp:122] Setting up pool5/drop_7x7_s1
I1130 01:44:52.934607 10030 net.cpp:129] Top shape: 32 1024 1 1 (32768)
I1130 01:44:52.934608 10030 net.cpp:137] Memory required for data: 1764651392
I1130 01:44:52.934612 10030 layer_factory.hpp:77] Creating layer fc_scv_accessible
I1130 01:44:52.934620 10030 net.cpp:84] Creating Layer fc_scv_accessible
I1130 01:44:52.934623 10030 net.cpp:406] fc_scv_accessible <- pool5/7x7_s1
I1130 01:44:52.934629 10030 net.cpp:380] fc_scv_accessible -> fc_scv_accessible
I1130 01:44:52.934722 10030 net.cpp:122] Setting up fc_scv_accessible
I1130 01:44:52.934729 10030 net.cpp:129] Top shape: 32 1 (32)
I1130 01:44:52.934733 10030 net.cpp:137] Memory required for data: 1764651520
I1130 01:44:52.934738 10030 layer_factory.hpp:77] Creating layer fc_scv_accessible_fc_scv_accessible_0_split
I1130 01:44:52.934744 10030 net.cpp:84] Creating Layer fc_scv_accessible_fc_scv_accessible_0_split
I1130 01:44:52.934747 10030 net.cpp:406] fc_scv_accessible_fc_scv_accessible_0_split <- fc_scv_accessible
I1130 01:44:52.934753 10030 net.cpp:380] fc_scv_accessible_fc_scv_accessible_0_split -> fc_scv_accessible_fc_scv_accessible_0_split_0
I1130 01:44:52.934759 10030 net.cpp:380] fc_scv_accessible_fc_scv_accessible_0_split -> fc_scv_accessible_fc_scv_accessible_0_split_1
I1130 01:44:52.934792 10030 net.cpp:122] Setting up fc_scv_accessible_fc_scv_accessible_0_split
I1130 01:44:52.934798 10030 net.cpp:129] Top shape: 32 1 (32)
I1130 01:44:52.934803 10030 net.cpp:129] Top shape: 32 1 (32)
I1130 01:44:52.934806 10030 net.cpp:137] Memory required for data: 1764651776
I1130 01:44:52.934809 10030 layer_factory.hpp:77] Creating layer loss
I1130 01:44:52.934815 10030 net.cpp:84] Creating Layer loss
I1130 01:44:52.934819 10030 net.cpp:406] loss <- fc_scv_accessible_fc_scv_accessible_0_split_0
I1130 01:44:52.934823 10030 net.cpp:406] loss <- label_data_1_split_0
I1130 01:44:52.934828 10030 net.cpp:380] loss -> loss
…
