…
I1206 08:05:25.191334 19145 net.cpp:294] The NetState phase (0) differed from the phase (1) specified by a rule in layer losttest
I1206 08:05:25.191859 19145 net.cpp:51] Initializing net from parameters: 
name: "VGG-Places365-SCV-Picturesque"
state {
  phase: TRAIN
  level: 0
  stage: ""
}
layer {
  name: "data"
  type: "Data"
  top: "data"
  top: "label"
  include {
    phase: TRAIN
  }
  transform_param {
    mirror: true
    crop_size: 224
    mean_file: "/idiap/temp/lmedina/fine-tuning/vgg16_places365/places365CNN_mean.binaryproto"
  }
  data_param {
    source: "/idiap/temp/lmedina/fine-tuning/data/Picturesque/train_lmdb"
    batch_size: 16
    backend: LMDB
  }
}
layer {
  name: "conv1_1"
  type: "Convolution"
  bottom: "data"
  top: "conv1_1"
  param {
    lr_mult: 1
    decay_mult: 1
  }
  param {
    lr_mult: 2
    decay_mult: 0
  }
  convolution_param {
    num_output: 64
    pad: 1
    kernel_size: 3
    weight_filler {
      type: "gaussian"
      std: 0.01
    }
    bias_filler {
      type: "constant"
      value: 0
    }
  }
}
layer {
  name: "relu1_1"
  type: "ReLU"
  bottom: "conv1_1"
  top: "conv1_1"
}
layer {
  name: "conv1_2"
  type: "Convolution"
  bottom: "conv1_1"
  top: "conv1_2"
  param {
    lr_mult: 1
    decay_mult: 1
  }
  param {
    lr_mult: 2
    decay_mult: 0
  }
  convolution_param {
    num_output: 64
    pad: 1
    kernel_size: 3
    weight_filler {
      type: "gaussian"
      std: 0.01
    }
    bias_filler {
      type: "constant"
      value: 0
    }
  }
}
layer {
  name: "relu1_2"
  type: "ReLU"
  bottom: "conv1_2"
  top: "conv1_2"
}
layer {
  name: "pool1"
  type: "Pooling"
  bottom: "conv1_2"
  top: "pool1"
  pooling_param {
    pool: MAX
    kernel_size: 2
    stride: 2
  }
}
layer {
  name: "conv2_1"
  type: "Convolution"
  bottom: "pool1"
  top: "conv2_1"
  param {
    lr_mult: 1
    decay_mult: 1
  }
  param {
    lr_mult: 2
    decay_mult: 0
  }
  convolution_param {
    num_output: 128
    pad: 1
    kernel_size: 3
    weight_filler {
      type: "gaussian"
      std: 0.01
    }
    bias_filler {
      type: "constant"
      value: 0
    }
  }
}
layer {
  name: "relu2_1"
  type: "ReLU"
  bottom: "conv2_1"
  top: "conv2_1"
}
layer {
  name: "conv2_2"
  type: "Convolution"
  bottom: "conv2_1"
  top: "conv2_2"
  param {
    lr_mult: 1
    decay_mult: 1
  }
  param {
    lr_mult: 2
    decay_mult: 0
  }
  convolution_param {
    num_output: 128
    pad: 1
    kernel_size: 3
    weight_filler {
      type: "gaussian"
      std: 0.01
    }
    bias_filler {
      type: "constant"
      value: 0
    }
  }
}
layer {
  name: "relu2_2"
  type: "ReLU"
  bottom: "conv2_2"
  top: "conv2_2"
}
layer {
  name: "pool2"
  type: "Pooling"
  bottom: "conv2_2"
  top: "pool2"
  pooling_param {
    pool: MAX
    kernel_size: 2
    stride: 2
  }
}
layer {
  name: "conv3_1"
  type: "Convolution"
  bottom: "pool2"
  top: "conv3_1"
  param {
    lr_mult: 1
    decay_mult: 1
  }
  param {
    lr_mult: 2
    decay_mult: 0
  }
  convolution_param {
    num_output: 256
    pad: 1
    kernel_size: 3
    weight_filler {
      type: "gaussian"
      std: 0.01
    }
    bias_filler {
      type: "constant"
      value: 0
    }
  }
}
layer {
  name: "relu3_1"
  type: "ReLU"
  bottom: "conv3_1"
  top: "conv3_1"
}
layer {
  name: "conv3_2"
  type: "Convolution"
  bottom: "conv3_1"
  top: "conv3_2"
  param {
    lr_mult: 1
    decay_mult: 1
  }
  param {
    lr_mult: 2
    decay_mult: 0
  }
  convolution_param {
    num_output: 256
    pad: 1
    kernel_size: 3
    weight_filler {
      type: "gaussian"
      std: 0.01
    }
    bias_filler {
      type: "constant"
      value: 0
    }
  }
}
layer {
  name: "relu3_2"
  type: "ReLU"
  bottom: "conv3_2"
  top: "conv3_2"
}
layer {
  name: "conv3_3"
  type: "Convolution"
  bottom: "conv3_2"
  top: "conv3_3"
  param {
    lr_mult: 1
    decay_mult: 1
  }
  param {
    lr_mult: 2
    decay_mult: 0
  }
  convolution_param {
    num_output: 256
    pad: 1
    kernel_size: 3
    weight_filler {
      type: "gaussian"
      std: 0.01
    }
    bias_filler {
      type: "constant"
      value: 0
    }
  }
}
layer {
  name: "relu3_3"
  type: "ReLU"
  bottom: "conv3_3"
  top: "conv3_3"
}
layer {
  name: "pool3"
  type: "Pooling"
  bottom: "conv3_3"
  top: "pool3"
  pooling_param {
    pool: MAX
    kernel_size: 2
    stride: 2
  }
}
layer {
  name: "conv4_1"
  type: "Convolution"
  bottom: "pool3"
  top: "conv4_1"
  param {
    lr_mult: 1
    decay_mult: 1
  }
  param {
    lr_mult: 2
    decay_mult: 0
  }
  convolution_param {
    num_output: 512
    pad: 1
    kernel_size: 3
    weight_filler {
      type: "gaussian"
      std: 0.01
    }
    bias_filler {
      type: "constant"
      value: 0
    }
  }
}
layer {
  name: "relu4_1"
  type: "ReLU"
  bottom: "conv4_1"
  top: "conv4_1"
}
layer {
  name: "conv4_2"
  type: "Convolution"
  bottom: "conv4_1"
  top: "conv4_2"
  param {
    lr_mult: 1
    decay_mult: 1
  }
  param {
    lr_mult: 2
    decay_mult: 0
  }
  convolution_param {
    num_output: 512
    pad: 1
    kernel_size: 3
    weight_filler {
      type: "gaussian"
      std: 0.01
    }
    bias_filler {
      type: "constant"
      value: 0
    }
  }
}
layer {
  name: "relu4_2"
  type: "ReLU"
  bottom: "conv4_2"
  top: "conv4_2"
}
layer {
  name: "conv4_3"
  type: "Convolution"
  bottom: "conv4_2"
  top: "conv4_3"
  param {
    lr_mult: 1
    decay_mult: 1
  }
  param {
    lr_mult: 2
    decay_mult: 0
  }
  convolution_param {
    num_output: 512
    pad: 1
    kernel_size: 3
    weight_filler {
      type: "gaussian"
      std: 0.01
    }
    bias_filler {
      type: "constant"
      value: 0
    }
  }
}
layer {
  name: "relu4_3"
  type: "ReLU"
  bottom: "conv4_3"
  top: "conv4_3"
}
layer {
  name: "pool4"
  type: "Pooling"
  bottom: "conv4_3"
  top: "pool4"
  pooling_param {
    pool: MAX
    kernel_size: 2
    stride: 2
  }
}
layer {
  name: "conv5_1"
  type: "Convolution"
  bottom: "pool4"
  top: "conv5_1"
  param {
    lr_mult: 1
    decay_mult: 1
  }
  param {
    lr_mult: 2
    decay_mult: 0
  }
  convolution_param {
    num_output: 512
    pad: 1
    kernel_size: 3
    weight_filler {
      type: "gaussian"
      std: 0.01
    }
    bias_filler {
      type: "constant"
      value: 0
    }
  }
}
layer {
  name: "relu5_1"
  type: "ReLU"
  bottom: "conv5_1"
  top: "conv5_1"
}
layer {
  name: "conv5_2"
  type: "Convolution"
  bottom: "conv5_1"
  top: "conv5_2"
  param {
    lr_mult: 1
    decay_mult: 1
  }
  param {
    lr_mult: 2
    decay_mult: 0
  }
  convolution_param {
    num_output: 512
    pad: 1
    kernel_size: 3
    weight_filler {
      type: "gaussian"
      std: 0.01
    }
    bias_filler {
      type: "constant"
      value: 0
    }
  }
}
layer {
  name: "relu5_2"
  type: "ReLU"
  bottom: "conv5_2"
  top: "conv5_2"
}
layer {
  name: "conv5_3"
  type: "Convolution"
  bottom: "conv5_2"
  top: "conv5_3"
  param {
    lr_mult: 1
    decay_mult: 1
  }
  param {
    lr_mult: 2
    decay_mult: 0
  }
  convolution_param {
    num_output: 512
    pad: 1
    kernel_size: 3
    weight_filler {
      type: "gaussian"
      std: 0.01
    }
    bias_filler {
      type: "constant"
      value: 0
    }
  }
}
layer {
  name: "relu5_3"
  type: "ReLU"
  bottom: "conv5_3"
  top: "conv5_3"
}
layer {
  name: "pool5"
  type: "Pooling"
  bottom: "conv5_3"
  top: "pool5"
  pooling_param {
    pool: MAX
    kernel_size: 2
    stride: 2
  }
}
layer {
  name: "fc6"
  type: "InnerProduct"
  bottom: "pool5"
  top: "fc6"
  param {
    lr_mult: 1
    decay_mult: 1
  }
  param {
    lr_mult: 2
    decay_mult: 0
  }
  inner_product_param {
    num_output: 4096
    weight_filler {
      type: "gaussian"
      std: 0.01
    }
    bias_filler {
      type: "constant"
      value: 0
    }
  }
}
layer {
  name: "relu6"
  type: "ReLU"
  bottom: "fc6"
  top: "fc6"
}
layer {
  name: "drop6"
  type: "Dropout"
  bottom: "fc6"
  top: "fc6"
  dropout_param {
    dropout_ratio: 0.5
  }
}
layer {
  name: "fc7"
  type: "InnerProduct"
  bottom: "fc6"
  top: "fc7"
  param {
    lr_mult: 1
    decay_mult: 1
  }
  param {
    lr_mult: 2
    decay_mult: 0
  }
  inner_product_param {
    num_output: 4096
    weight_filler {
      type: "gaussian"
      std: 0.01
    }
    bias_filler {
      type: "constant"
      value: 0
    }
  }
}
layer {
  name: "relu7"
  type: "ReLU"
  bottom: "fc7"
  top: "fc7"
}
layer {
  name: "drop7"
  type: "Dropout"
  bottom: "fc7"
  top: "fc7"
  dropout_param {
    dropout_ratio: 0.5
  }
}
layer {
  name: "fc_scv_picturesque"
  type: "InnerProduct"
  bottom: "fc7"
  top: "fc_scv_picturesque"
  param {
    lr_mult: 10
    decay_mult: 1
  }
  param {
    lr_mult: 20
    decay_mult: 0
  }
  inner_product_param {
    num_output: 1
    weight_filler {
      type: "xavier"
      std: 0.01
    }
    bias_filler {
      type: "constant"
      value: 0
    }
  }
}
layer {
  name: "loss"
  type: "EuclideanLoss"
  bottom: "fc_scv_picturesque"
  bottom: "label"
  top: "loss"
}
I1206 08:05:25.192193 19145 layer_factory.hpp:77] Creating layer data
I1206 08:05:25.335424 19145 db_lmdb.cpp:35] Opened lmdb /idiap/temp/lmedina/fine-tuning/data/Picturesque/train_lmdb
I1206 08:05:25.356817 19145 net.cpp:84] Creating Layer data
I1206 08:05:25.357059 19145 net.cpp:380] data -> data
I1206 08:05:25.357404 19145 net.cpp:380] data -> label
I1206 08:05:25.357555 19145 data_transformer.cpp:25] Loading mean file from: /idiap/temp/lmedina/fine-tuning/vgg16_places365/places365CNN_mean.binaryproto
I1206 08:05:25.376827 19145 data_layer.cpp:45] output data size: 16,3,224,224
I1206 08:05:25.417556 19145 net.cpp:122] Setting up data
I1206 08:05:25.417623 19145 net.cpp:129] Top shape: 16 3 224 224 (2408448)
I1206 08:05:25.417640 19145 net.cpp:129] Top shape: 16 (16)
I1206 08:05:25.417654 19145 net.cpp:137] Memory required for data: 9633856
I1206 08:05:25.417678 19145 layer_factory.hpp:77] Creating layer conv1_1
I1206 08:05:25.417724 19145 net.cpp:84] Creating Layer conv1_1
I1206 08:05:25.417742 19145 net.cpp:406] conv1_1 <- data
I1206 08:05:25.417768 19145 net.cpp:380] conv1_1 -> conv1_1
I1206 08:05:25.419792 19145 net.cpp:122] Setting up conv1_1
I1206 08:05:25.419821 19145 net.cpp:129] Top shape: 16 64 224 224 (51380224)
I1206 08:05:25.419834 19145 net.cpp:137] Memory required for data: 215154752
I1206 08:05:25.419862 19145 layer_factory.hpp:77] Creating layer relu1_1
I1206 08:05:25.419885 19145 net.cpp:84] Creating Layer relu1_1
I1206 08:05:25.419899 19145 net.cpp:406] relu1_1 <- conv1_1
I1206 08:05:25.419916 19145 net.cpp:367] relu1_1 -> conv1_1 (in-place)
I1206 08:05:25.419937 19145 net.cpp:122] Setting up relu1_1
I1206 08:05:25.419951 19145 net.cpp:129] Top shape: 16 64 224 224 (51380224)
I1206 08:05:25.419965 19145 net.cpp:137] Memory required for data: 420675648
I1206 08:05:25.419977 19145 layer_factory.hpp:77] Creating layer conv1_2
I1206 08:05:25.419997 19145 net.cpp:84] Creating Layer conv1_2
I1206 08:05:25.420011 19145 net.cpp:406] conv1_2 <- conv1_1
I1206 08:05:25.420028 19145 net.cpp:380] conv1_2 -> conv1_2
I1206 08:05:25.421241 19145 net.cpp:122] Setting up conv1_2
I1206 08:05:25.421264 19145 net.cpp:129] Top shape: 16 64 224 224 (51380224)
I1206 08:05:25.421277 19145 net.cpp:137] Memory required for data: 626196544
I1206 08:05:25.421299 19145 layer_factory.hpp:77] Creating layer relu1_2
I1206 08:05:25.421317 19145 net.cpp:84] Creating Layer relu1_2
I1206 08:05:25.421336 19145 net.cpp:406] relu1_2 <- conv1_2
I1206 08:05:25.421353 19145 net.cpp:367] relu1_2 -> conv1_2 (in-place)
I1206 08:05:25.421370 19145 net.cpp:122] Setting up relu1_2
I1206 08:05:25.421385 19145 net.cpp:129] Top shape: 16 64 224 224 (51380224)
I1206 08:05:25.421397 19145 net.cpp:137] Memory required for data: 831717440
I1206 08:05:25.421409 19145 layer_factory.hpp:77] Creating layer pool1
I1206 08:05:25.421429 19145 net.cpp:84] Creating Layer pool1
I1206 08:05:25.421442 19145 net.cpp:406] pool1 <- conv1_2
I1206 08:05:25.421458 19145 net.cpp:380] pool1 -> pool1
I1206 08:05:25.421526 19145 net.cpp:122] Setting up pool1
I1206 08:05:25.421543 19145 net.cpp:129] Top shape: 16 64 112 112 (12845056)
I1206 08:05:25.421555 19145 net.cpp:137] Memory required for data: 883097664
I1206 08:05:25.421568 19145 layer_factory.hpp:77] Creating layer conv2_1
I1206 08:05:25.421589 19145 net.cpp:84] Creating Layer conv2_1
I1206 08:05:25.421602 19145 net.cpp:406] conv2_1 <- pool1
I1206 08:05:25.421619 19145 net.cpp:380] conv2_1 -> conv2_1
I1206 08:05:25.425696 19145 net.cpp:122] Setting up conv2_1
I1206 08:05:25.425750 19145 net.cpp:129] Top shape: 16 128 112 112 (25690112)
I1206 08:05:25.425765 19145 net.cpp:137] Memory required for data: 985858112
I1206 08:05:25.425786 19145 layer_factory.hpp:77] Creating layer relu2_1
I1206 08:05:25.425879 19145 net.cpp:84] Creating Layer relu2_1
I1206 08:05:25.425920 19145 net.cpp:406] relu2_1 <- conv2_1
I1206 08:05:25.425935 19145 net.cpp:367] relu2_1 -> conv2_1 (in-place)
I1206 08:05:25.425953 19145 net.cpp:122] Setting up relu2_1
I1206 08:05:25.425994 19145 net.cpp:129] Top shape: 16 128 112 112 (25690112)
I1206 08:05:25.426007 19145 net.cpp:137] Memory required for data: 1088618560
I1206 08:05:25.426019 19145 layer_factory.hpp:77] Creating layer conv2_2
I1206 08:05:25.426043 19145 net.cpp:84] Creating Layer conv2_2
I1206 08:05:25.426081 19145 net.cpp:406] conv2_2 <- conv2_1
I1206 08:05:25.426098 19145 net.cpp:380] conv2_2 -> conv2_2
I1206 08:05:25.428504 19145 net.cpp:122] Setting up conv2_2
I1206 08:05:25.428529 19145 net.cpp:129] Top shape: 16 128 112 112 (25690112)
I1206 08:05:25.428542 19145 net.cpp:137] Memory required for data: 1191379008
I1206 08:05:25.428558 19145 layer_factory.hpp:77] Creating layer relu2_2
I1206 08:05:25.428575 19145 net.cpp:84] Creating Layer relu2_2
I1206 08:05:25.428587 19145 net.cpp:406] relu2_2 <- conv2_2
I1206 08:05:25.428603 19145 net.cpp:367] relu2_2 -> conv2_2 (in-place)
I1206 08:05:25.428619 19145 net.cpp:122] Setting up relu2_2
I1206 08:05:25.428633 19145 net.cpp:129] Top shape: 16 128 112 112 (25690112)
I1206 08:05:25.428645 19145 net.cpp:137] Memory required for data: 1294139456
I1206 08:05:25.428658 19145 layer_factory.hpp:77] Creating layer pool2
I1206 08:05:25.428673 19145 net.cpp:84] Creating Layer pool2
I1206 08:05:25.428684 19145 net.cpp:406] pool2 <- conv2_2
I1206 08:05:25.428699 19145 net.cpp:380] pool2 -> pool2
I1206 08:05:25.428751 19145 net.cpp:122] Setting up pool2
I1206 08:05:25.428766 19145 net.cpp:129] Top shape: 16 128 56 56 (6422528)
I1206 08:05:25.428778 19145 net.cpp:137] Memory required for data: 1319829568
I1206 08:05:25.428791 19145 layer_factory.hpp:77] Creating layer conv3_1
I1206 08:05:25.428810 19145 net.cpp:84] Creating Layer conv3_1
I1206 08:05:25.428822 19145 net.cpp:406] conv3_1 <- pool2
I1206 08:05:25.428838 19145 net.cpp:380] conv3_1 -> conv3_1
I1206 08:05:25.433357 19145 net.cpp:122] Setting up conv3_1
I1206 08:05:25.433385 19145 net.cpp:129] Top shape: 16 256 56 56 (12845056)
I1206 08:05:25.433398 19145 net.cpp:137] Memory required for data: 1371209792
I1206 08:05:25.433421 19145 layer_factory.hpp:77] Creating layer relu3_1
I1206 08:05:25.433439 19145 net.cpp:84] Creating Layer relu3_1
I1206 08:05:25.433454 19145 net.cpp:406] relu3_1 <- conv3_1
I1206 08:05:25.433470 19145 net.cpp:367] relu3_1 -> conv3_1 (in-place)
I1206 08:05:25.433491 19145 net.cpp:122] Setting up relu3_1
I1206 08:05:25.433506 19145 net.cpp:129] Top shape: 16 256 56 56 (12845056)
I1206 08:05:25.433519 19145 net.cpp:137] Memory required for data: 1422590016
I1206 08:05:25.433537 19145 layer_factory.hpp:77] Creating layer conv3_2
I1206 08:05:25.433558 19145 net.cpp:84] Creating Layer conv3_2
I1206 08:05:25.433573 19145 net.cpp:406] conv3_2 <- conv3_1
I1206 08:05:25.433590 19145 net.cpp:380] conv3_2 -> conv3_2
I1206 08:05:25.444924 19145 net.cpp:122] Setting up conv3_2
I1206 08:05:25.444978 19145 net.cpp:129] Top shape: 16 256 56 56 (12845056)
I1206 08:05:25.444991 19145 net.cpp:137] Memory required for data: 1473970240
I1206 08:05:25.445080 19145 layer_factory.hpp:77] Creating layer relu3_2
I1206 08:05:25.445127 19145 net.cpp:84] Creating Layer relu3_2
I1206 08:05:25.445142 19145 net.cpp:406] relu3_2 <- conv3_2
I1206 08:05:25.445159 19145 net.cpp:367] relu3_2 -> conv3_2 (in-place)
I1206 08:05:25.445209 19145 net.cpp:122] Setting up relu3_2
I1206 08:05:25.445225 19145 net.cpp:129] Top shape: 16 256 56 56 (12845056)
I1206 08:05:25.445237 19145 net.cpp:137] Memory required for data: 1525350464
I1206 08:05:25.445250 19145 layer_factory.hpp:77] Creating layer conv3_3
I1206 08:05:25.445297 19145 net.cpp:84] Creating Layer conv3_3
I1206 08:05:25.445309 19145 net.cpp:406] conv3_3 <- conv3_2
I1206 08:05:25.445327 19145 net.cpp:380] conv3_3 -> conv3_3
I1206 08:05:25.458510 19145 net.cpp:122] Setting up conv3_3
I1206 08:05:25.458556 19145 net.cpp:129] Top shape: 16 256 56 56 (12845056)
I1206 08:05:25.458570 19145 net.cpp:137] Memory required for data: 1576730688
I1206 08:05:25.458590 19145 layer_factory.hpp:77] Creating layer relu3_3
I1206 08:05:25.458619 19145 net.cpp:84] Creating Layer relu3_3
I1206 08:05:25.458632 19145 net.cpp:406] relu3_3 <- conv3_3
I1206 08:05:25.458652 19145 net.cpp:367] relu3_3 -> conv3_3 (in-place)
I1206 08:05:25.458673 19145 net.cpp:122] Setting up relu3_3
I1206 08:05:25.458685 19145 net.cpp:129] Top shape: 16 256 56 56 (12845056)
I1206 08:05:25.458696 19145 net.cpp:137] Memory required for data: 1628110912
I1206 08:05:25.458708 19145 layer_factory.hpp:77] Creating layer pool3
I1206 08:05:25.458724 19145 net.cpp:84] Creating Layer pool3
I1206 08:05:25.458734 19145 net.cpp:406] pool3 <- conv3_3
I1206 08:05:25.458750 19145 net.cpp:380] pool3 -> pool3
I1206 08:05:25.458802 19145 net.cpp:122] Setting up pool3
I1206 08:05:25.458817 19145 net.cpp:129] Top shape: 16 256 28 28 (3211264)
I1206 08:05:25.458837 19145 net.cpp:137] Memory required for data: 1640955968
I1206 08:05:25.458847 19145 layer_factory.hpp:77] Creating layer conv4_1
I1206 08:05:25.458868 19145 net.cpp:84] Creating Layer conv4_1
I1206 08:05:25.458880 19145 net.cpp:406] conv4_1 <- pool3
I1206 08:05:25.458895 19145 net.cpp:380] conv4_1 -> conv4_1
I1206 08:05:25.476824 19145 net.cpp:122] Setting up conv4_1
I1206 08:05:25.476864 19145 net.cpp:129] Top shape: 16 512 28 28 (6422528)
I1206 08:05:25.476876 19145 net.cpp:137] Memory required for data: 1666646080
I1206 08:05:25.476893 19145 layer_factory.hpp:77] Creating layer relu4_1
I1206 08:05:25.476922 19145 net.cpp:84] Creating Layer relu4_1
I1206 08:05:25.476936 19145 net.cpp:406] relu4_1 <- conv4_1
I1206 08:05:25.476953 19145 net.cpp:367] relu4_1 -> conv4_1 (in-place)
I1206 08:05:25.476972 19145 net.cpp:122] Setting up relu4_1
I1206 08:05:25.476984 19145 net.cpp:129] Top shape: 16 512 28 28 (6422528)
I1206 08:05:25.476994 19145 net.cpp:137] Memory required for data: 1692336192
I1206 08:05:25.477005 19145 layer_factory.hpp:77] Creating layer conv4_2
I1206 08:05:25.477025 19145 net.cpp:84] Creating Layer conv4_2
I1206 08:05:25.477036 19145 net.cpp:406] conv4_2 <- conv4_1
I1206 08:05:25.477051 19145 net.cpp:380] conv4_2 -> conv4_2
I1206 08:05:25.514472 19145 net.cpp:122] Setting up conv4_2
I1206 08:05:25.514521 19145 net.cpp:129] Top shape: 16 512 28 28 (6422528)
I1206 08:05:25.514575 19145 net.cpp:137] Memory required for data: 1718026304
I1206 08:05:25.514606 19145 layer_factory.hpp:77] Creating layer relu4_2
I1206 08:05:25.514652 19145 net.cpp:84] Creating Layer relu4_2
I1206 08:05:25.514667 19145 net.cpp:406] relu4_2 <- conv4_2
I1206 08:05:25.514683 19145 net.cpp:367] relu4_2 -> conv4_2 (in-place)
I1206 08:05:25.514767 19145 net.cpp:122] Setting up relu4_2
I1206 08:05:25.514812 19145 net.cpp:129] Top shape: 16 512 28 28 (6422528)
I1206 08:05:25.514829 19145 net.cpp:137] Memory required for data: 1743716416
I1206 08:05:25.514840 19145 layer_factory.hpp:77] Creating layer conv4_3
I1206 08:05:25.514885 19145 net.cpp:84] Creating Layer conv4_3
I1206 08:05:25.514896 19145 net.cpp:406] conv4_3 <- conv4_2
I1206 08:05:25.514911 19145 net.cpp:380] conv4_3 -> conv4_3
I1206 08:05:25.557665 19145 net.cpp:122] Setting up conv4_3
I1206 08:05:25.557767 19145 net.cpp:129] Top shape: 16 512 28 28 (6422528)
I1206 08:05:25.557804 19145 net.cpp:137] Memory required for data: 1769406528
I1206 08:05:25.557823 19145 layer_factory.hpp:77] Creating layer relu4_3
I1206 08:05:25.557845 19145 net.cpp:84] Creating Layer relu4_3
I1206 08:05:25.557881 19145 net.cpp:406] relu4_3 <- conv4_3
I1206 08:05:25.557900 19145 net.cpp:367] relu4_3 -> conv4_3 (in-place)
I1206 08:05:25.557919 19145 net.cpp:122] Setting up relu4_3
I1206 08:05:25.557934 19145 net.cpp:129] Top shape: 16 512 28 28 (6422528)
I1206 08:05:25.557967 19145 net.cpp:137] Memory required for data: 1795096640
I1206 08:05:25.557978 19145 layer_factory.hpp:77] Creating layer pool4
I1206 08:05:25.557994 19145 net.cpp:84] Creating Layer pool4
I1206 08:05:25.558007 19145 net.cpp:406] pool4 <- conv4_3
I1206 08:05:25.558042 19145 net.cpp:380] pool4 -> pool4
I1206 08:05:25.558095 19145 net.cpp:122] Setting up pool4
I1206 08:05:25.558141 19145 net.cpp:129] Top shape: 16 512 14 14 (1605632)
I1206 08:05:25.558151 19145 net.cpp:137] Memory required for data: 1801519168
I1206 08:05:25.558162 19145 layer_factory.hpp:77] Creating layer conv5_1
I1206 08:05:25.558266 19145 net.cpp:84] Creating Layer conv5_1
I1206 08:05:25.558305 19145 net.cpp:406] conv5_1 <- pool4
I1206 08:05:25.558321 19145 net.cpp:380] conv5_1 -> conv5_1
I1206 08:05:25.588093 19145 net.cpp:122] Setting up conv5_1
I1206 08:05:25.588138 19145 net.cpp:129] Top shape: 16 512 14 14 (1605632)
I1206 08:05:25.588150 19145 net.cpp:137] Memory required for data: 1807941696
I1206 08:05:25.588168 19145 layer_factory.hpp:77] Creating layer relu5_1
I1206 08:05:25.588191 19145 net.cpp:84] Creating Layer relu5_1
I1206 08:05:25.588202 19145 net.cpp:406] relu5_1 <- conv5_1
I1206 08:05:25.588218 19145 net.cpp:367] relu5_1 -> conv5_1 (in-place)
I1206 08:05:25.588238 19145 net.cpp:122] Setting up relu5_1
I1206 08:05:25.588249 19145 net.cpp:129] Top shape: 16 512 14 14 (1605632)
I1206 08:05:25.588259 19145 net.cpp:137] Memory required for data: 1814364224
I1206 08:05:25.588270 19145 layer_factory.hpp:77] Creating layer conv5_2
I1206 08:05:25.588289 19145 net.cpp:84] Creating Layer conv5_2
I1206 08:05:25.588299 19145 net.cpp:406] conv5_2 <- conv5_1
I1206 08:05:25.588313 19145 net.cpp:380] conv5_2 -> conv5_2
I1206 08:05:25.615551 19145 net.cpp:122] Setting up conv5_2
I1206 08:05:25.615604 19145 net.cpp:129] Top shape: 16 512 14 14 (1605632)
I1206 08:05:25.615615 19145 net.cpp:137] Memory required for data: 1820786752
I1206 08:05:25.615633 19145 layer_factory.hpp:77] Creating layer relu5_2
I1206 08:05:25.615654 19145 net.cpp:84] Creating Layer relu5_2
I1206 08:05:25.615669 19145 net.cpp:406] relu5_2 <- conv5_2
I1206 08:05:25.615685 19145 net.cpp:367] relu5_2 -> conv5_2 (in-place)
I1206 08:05:25.615705 19145 net.cpp:122] Setting up relu5_2
I1206 08:05:25.615716 19145 net.cpp:129] Top shape: 16 512 14 14 (1605632)
I1206 08:05:25.615726 19145 net.cpp:137] Memory required for data: 1827209280
I1206 08:05:25.615736 19145 layer_factory.hpp:77] Creating layer conv5_3
I1206 08:05:25.615756 19145 net.cpp:84] Creating Layer conv5_3
I1206 08:05:25.615769 19145 net.cpp:406] conv5_3 <- conv5_2
I1206 08:05:25.615783 19145 net.cpp:380] conv5_3 -> conv5_3
I1206 08:05:25.643478 19145 net.cpp:122] Setting up conv5_3
I1206 08:05:25.643529 19145 net.cpp:129] Top shape: 16 512 14 14 (1605632)
I1206 08:05:25.643541 19145 net.cpp:137] Memory required for data: 1833631808
I1206 08:05:25.643558 19145 layer_factory.hpp:77] Creating layer relu5_3
I1206 08:05:25.643590 19145 net.cpp:84] Creating Layer relu5_3
I1206 08:05:25.643616 19145 net.cpp:406] relu5_3 <- conv5_3
I1206 08:05:25.643633 19145 net.cpp:367] relu5_3 -> conv5_3 (in-place)
I1206 08:05:25.643651 19145 net.cpp:122] Setting up relu5_3
I1206 08:05:25.643663 19145 net.cpp:129] Top shape: 16 512 14 14 (1605632)
I1206 08:05:25.643672 19145 net.cpp:137] Memory required for data: 1840054336
I1206 08:05:25.643682 19145 layer_factory.hpp:77] Creating layer pool5
I1206 08:05:25.643697 19145 net.cpp:84] Creating Layer pool5
I1206 08:05:25.643708 19145 net.cpp:406] pool5 <- conv5_3
I1206 08:05:25.643721 19145 net.cpp:380] pool5 -> pool5
I1206 08:05:25.643780 19145 net.cpp:122] Setting up pool5
I1206 08:05:25.643800 19145 net.cpp:129] Top shape: 16 512 7 7 (401408)
I1206 08:05:25.643810 19145 net.cpp:137] Memory required for data: 1841659968
I1206 08:05:25.643821 19145 layer_factory.hpp:77] Creating layer fc6
I1206 08:05:25.643848 19145 net.cpp:84] Creating Layer fc6
I1206 08:05:25.643859 19145 net.cpp:406] fc6 <- pool5
I1206 08:05:25.643873 19145 net.cpp:380] fc6 -> fc6
I1206 08:05:27.031733 19145 net.cpp:122] Setting up fc6
I1206 08:05:27.031785 19145 net.cpp:129] Top shape: 16 4096 (65536)
I1206 08:05:27.031798 19145 net.cpp:137] Memory required for data: 1841922112
I1206 08:05:27.031818 19145 layer_factory.hpp:77] Creating layer relu6
I1206 08:05:27.031842 19145 net.cpp:84] Creating Layer relu6
I1206 08:05:27.031855 19145 net.cpp:406] relu6 <- fc6
I1206 08:05:27.031873 19145 net.cpp:367] relu6 -> fc6 (in-place)
I1206 08:05:27.031894 19145 net.cpp:122] Setting up relu6
I1206 08:05:27.031908 19145 net.cpp:129] Top shape: 16 4096 (65536)
I1206 08:05:27.031919 19145 net.cpp:137] Memory required for data: 1842184256
I1206 08:05:27.031929 19145 layer_factory.hpp:77] Creating layer drop6
I1206 08:05:27.031956 19145 net.cpp:84] Creating Layer drop6
I1206 08:05:27.031970 19145 net.cpp:406] drop6 <- fc6
I1206 08:05:27.031985 19145 net.cpp:367] drop6 -> fc6 (in-place)
I1206 08:05:27.032030 19145 net.cpp:122] Setting up drop6
I1206 08:05:27.032073 19145 net.cpp:129] Top shape: 16 4096 (65536)
I1206 08:05:27.032084 19145 net.cpp:137] Memory required for data: 1842446400
I1206 08:05:27.032096 19145 layer_factory.hpp:77] Creating layer fc7
I1206 08:05:27.032115 19145 net.cpp:84] Creating Layer fc7
I1206 08:05:27.032127 19145 net.cpp:406] fc7 <- fc6
I1206 08:05:27.032145 19145 net.cpp:380] fc7 -> fc7
I1206 08:05:27.227150 19145 net.cpp:122] Setting up fc7
I1206 08:05:27.227200 19145 net.cpp:129] Top shape: 16 4096 (65536)
I1206 08:05:27.227211 19145 net.cpp:137] Memory required for data: 1842708544
I1206 08:05:27.227229 19145 layer_factory.hpp:77] Creating layer relu7
I1206 08:05:27.227249 19145 net.cpp:84] Creating Layer relu7
I1206 08:05:27.227263 19145 net.cpp:406] relu7 <- fc7
I1206 08:05:27.227280 19145 net.cpp:367] relu7 -> fc7 (in-place)
I1206 08:05:27.227298 19145 net.cpp:122] Setting up relu7
I1206 08:05:27.227310 19145 net.cpp:129] Top shape: 16 4096 (65536)
I1206 08:05:27.227320 19145 net.cpp:137] Memory required for data: 1842970688
I1206 08:05:27.227329 19145 layer_factory.hpp:77] Creating layer drop7
I1206 08:05:27.227344 19145 net.cpp:84] Creating Layer drop7
I1206 08:05:27.227355 19145 net.cpp:406] drop7 <- fc7
I1206 08:05:27.227367 19145 net.cpp:367] drop7 -> fc7 (in-place)
I1206 08:05:27.227404 19145 net.cpp:122] Setting up drop7
I1206 08:05:27.227421 19145 net.cpp:129] Top shape: 16 4096 (65536)
I1206 08:05:27.227432 19145 net.cpp:137] Memory required for data: 1843232832
I1206 08:05:27.227442 19145 layer_factory.hpp:77] Creating layer fc_scv_picturesque
I1206 08:05:27.227458 19145 net.cpp:84] Creating Layer fc_scv_picturesque
I1206 08:05:27.227469 19145 net.cpp:406] fc_scv_picturesque <- fc7
I1206 08:05:27.227483 19145 net.cpp:380] fc_scv_picturesque -> fc_scv_picturesque
I1206 08:05:27.227632 19145 net.cpp:122] Setting up fc_scv_picturesque
I1206 08:05:27.227650 19145 net.cpp:129] Top shape: 16 1 (16)
I1206 08:05:27.227660 19145 net.cpp:137] Memory required for data: 1843232896
I1206 08:05:27.227674 19145 layer_factory.hpp:77] Creating layer loss
I1206 08:05:27.227689 19145 net.cpp:84] Creating Layer loss
I1206 08:05:27.227708 19145 net.cpp:406] loss <- fc_scv_picturesque
I1206 08:05:27.227720 19145 net.cpp:406] loss <- label
I1206 08:05:27.227743 19145 net.cpp:380] loss -> loss
I1206 08:05:27.227792 19145 net.cpp:122] Setting up loss
…
I1206 08:05:27.229820 19145 net.cpp:294] The NetState phase (1) differed from the phase (0) specified by a rule in layer data
I1206 08:05:27.230090 19145 net.cpp:51] Initializing net from parameters: 
name: "VGG-Places365-SCV-Picturesque"
state {
  phase: TEST
}
layer {
  name: "data"
  type: "Data"
  top: "data"
  top: "label"
  include {
    phase: TEST
  }
  transform_param {
    mirror: false
    crop_size: 224
    mean_file: "/idiap/temp/lmedina/fine-tuning/vgg16_places365/places365CNN_mean.binaryproto"
  }
  data_param {
    source: "/idiap/temp/lmedina/fine-tuning/data/Picturesque/validation_lmdb"
    batch_size: 16
    backend: LMDB
  }
}
layer {
  name: "conv1_1"
  type: "Convolution"
  bottom: "data"
  top: "conv1_1"
  param {
    lr_mult: 1
    decay_mult: 1
  }
  param {
    lr_mult: 2
    decay_mult: 0
  }
  convolution_param {
    num_output: 64
    pad: 1
    kernel_size: 3
    weight_filler {
      type: "gaussian"
      std: 0.01
    }
    bias_filler {
      type: "constant"
      value: 0
    }
  }
}
layer {
  name: "relu1_1"
  type: "ReLU"
  bottom: "conv1_1"
  top: "conv1_1"
}
layer {
  name: "conv1_2"
  type: "Convolution"
  bottom: "conv1_1"
  top: "conv1_2"
  param {
    lr_mult: 1
    decay_mult: 1
  }
  param {
    lr_mult: 2
    decay_mult: 0
  }
  convolution_param {
    num_output: 64
    pad: 1
    kernel_size: 3
    weight_filler {
      type: "gaussian"
      std: 0.01
    }
    bias_filler {
      type: "constant"
      value: 0
    }
  }
}
layer {
  name: "relu1_2"
  type: "ReLU"
  bottom: "conv1_2"
  top: "conv1_2"
}
layer {
  name: "pool1"
  type: "Pooling"
  bottom: "conv1_2"
  top: "pool1"
  pooling_param {
    pool: MAX
    kernel_size: 2
    stride: 2
  }
}
layer {
  name: "conv2_1"
  type: "Convolution"
  bottom: "pool1"
  top: "conv2_1"
  param {
    lr_mult: 1
    decay_mult: 1
  }
  param {
    lr_mult: 2
    decay_mult: 0
  }
  convolution_param {
    num_output: 128
    pad: 1
    kernel_size: 3
    weight_filler {
      type: "gaussian"
      std: 0.01
    }
    bias_filler {
      type: "constant"
      value: 0
    }
  }
}
layer {
  name: "relu2_1"
  type: "ReLU"
  bottom: "conv2_1"
  top: "conv2_1"
}
layer {
  name: "conv2_2"
  type: "Convolution"
  bottom: "conv2_1"
  top: "conv2_2"
  param {
    lr_mult: 1
    decay_mult: 1
  }
  param {
    lr_mult: 2
    decay_mult: 0
  }
  convolution_param {
    num_output: 128
    pad: 1
    kernel_size: 3
    weight_filler {
      type: "gaussian"
      std: 0.01
    }
    bias_filler {
      type: "constant"
      value: 0
    }
  }
}
layer {
  name: "relu2_2"
  type: "ReLU"
  bottom: "conv2_2"
  top: "conv2_2"
}
layer {
  name: "pool2"
  type: "Pooling"
  bottom: "conv2_2"
  top: "pool2"
  pooling_param {
    pool: MAX
    kernel_size: 2
    stride: 2
  }
}
layer {
  name: "conv3_1"
  type: "Convolution"
  bottom: "pool2"
  top: "conv3_1"
  param {
    lr_mult: 1
    decay_mult: 1
  }
  param {
    lr_mult: 2
    decay_mult: 0
  }
  convolution_param {
    num_output: 256
    pad: 1
    kernel_size: 3
    weight_filler {
      type: "gaussian"
      std: 0.01
    }
    bias_filler {
      type: "constant"
      value: 0
    }
  }
}
layer {
  name: "relu3_1"
  type: "ReLU"
  bottom: "conv3_1"
  top: "conv3_1"
}
layer {
  name: "conv3_2"
  type: "Convolution"
  bottom: "conv3_1"
  top: "conv3_2"
  param {
    lr_mult: 1
    decay_mult: 1
  }
  param {
    lr_mult: 2
    decay_mult: 0
  }
  convolution_param {
    num_output: 256
    pad: 1
    kernel_size: 3
    weight_filler {
      type: "gaussian"
      std: 0.01
    }
    bias_filler {
      type: "constant"
      value: 0
    }
  }
}
layer {
  name: "relu3_2"
  type: "ReLU"
  bottom: "conv3_2"
  top: "conv3_2"
}
layer {
  name: "conv3_3"
  type: "Convolution"
  bottom: "conv3_2"
  top: "conv3_3"
  param {
    lr_mult: 1
    decay_mult: 1
  }
  param {
    lr_mult: 2
    decay_mult: 0
  }
  convolution_param {
    num_output: 256
    pad: 1
    kernel_size: 3
    weight_filler {
      type: "gaussian"
      std: 0.01
    }
    bias_filler {
      type: "constant"
      value: 0
    }
  }
}
layer {
  name: "relu3_3"
  type: "ReLU"
  bottom: "conv3_3"
  top: "conv3_3"
}
layer {
  name: "pool3"
  type: "Pooling"
  bottom: "conv3_3"
  top: "pool3"
  pooling_param {
    pool: MAX
    kernel_size: 2
    stride: 2
  }
}
layer {
  name: "conv4_1"
  type: "Convolution"
  bottom: "pool3"
  top: "conv4_1"
  param {
    lr_mult: 1
    decay_mult: 1
  }
  param {
    lr_mult: 2
    decay_mult: 0
  }
  convolution_param {
    num_output: 512
    pad: 1
    kernel_size: 3
    weight_filler {
      type: "gaussian"
      std: 0.01
    }
    bias_filler {
      type: "constant"
      value: 0
    }
  }
}
layer {
  name: "relu4_1"
  type: "ReLU"
  bottom: "conv4_1"
  top: "conv4_1"
}
layer {
  name: "conv4_2"
  type: "Convolution"
  bottom: "conv4_1"
  top: "conv4_2"
  param {
    lr_mult: 1
    decay_mult: 1
  }
  param {
    lr_mult: 2
    decay_mult: 0
  }
  convolution_param {
    num_output: 512
    pad: 1
    kernel_size: 3
    weight_filler {
      type: "gaussian"
      std: 0.01
    }
    bias_filler {
      type: "constant"
      value: 0
    }
  }
}
layer {
  name: "relu4_2"
  type: "ReLU"
  bottom: "conv4_2"
  top: "conv4_2"
}
layer {
  name: "conv4_3"
  type: "Convolution"
  bottom: "conv4_2"
  top: "conv4_3"
  param {
    lr_mult: 1
    decay_mult: 1
  }
  param {
    lr_mult: 2
    decay_mult: 0
  }
  convolution_param {
    num_output: 512
    pad: 1
    kernel_size: 3
    weight_filler {
      type: "gaussian"
      std: 0.01
    }
    bias_filler {
      type: "constant"
      value: 0
    }
  }
}
layer {
  name: "relu4_3"
  type: "ReLU"
  bottom: "conv4_3"
  top: "conv4_3"
}
layer {
  name: "pool4"
  type: "Pooling"
  bottom: "conv4_3"
  top: "pool4"
  pooling_param {
    pool: MAX
    kernel_size: 2
    stride: 2
  }
}
layer {
  name: "conv5_1"
  type: "Convolution"
  bottom: "pool4"
  top: "conv5_1"
  param {
    lr_mult: 1
    decay_mult: 1
  }
  param {
    lr_mult: 2
    decay_mult: 0
  }
  convolution_param {
    num_output: 512
    pad: 1
    kernel_size: 3
    weight_filler {
      type: "gaussian"
      std: 0.01
    }
    bias_filler {
      type: "constant"
      value: 0
    }
  }
}
layer {
  name: "relu5_1"
  type: "ReLU"
  bottom: "conv5_1"
  top: "conv5_1"
}
layer {
  name: "conv5_2"
  type: "Convolution"
  bottom: "conv5_1"
  top: "conv5_2"
  param {
    lr_mult: 1
    decay_mult: 1
  }
  param {
    lr_mult: 2
    decay_mult: 0
  }
  convolution_param {
    num_output: 512
    pad: 1
    kernel_size: 3
    weight_filler {
      type: "gaussian"
      std: 0.01
    }
    bias_filler {
      type: "constant"
      value: 0
    }
  }
}
layer {
  name: "relu5_2"
  type: "ReLU"
  bottom: "conv5_2"
  top: "conv5_2"
}
layer {
  name: "conv5_3"
  type: "Convolution"
  bottom: "conv5_2"
  top: "conv5_3"
  param {
    lr_mult: 1
    decay_mult: 1
  }
  param {
    lr_mult: 2
    decay_mult: 0
  }
  convolution_param {
    num_output: 512
    pad: 1
    kernel_size: 3
    weight_filler {
      type: "gaussian"
      std: 0.01
    }
    bias_filler {
      type: "constant"
      value: 0
    }
  }
}
layer {
  name: "relu5_3"
  type: "ReLU"
  bottom: "conv5_3"
  top: "conv5_3"
}
layer {
  name: "pool5"
  type: "Pooling"
  bottom: "conv5_3"
  top: "pool5"
  pooling_param {
    pool: MAX
    kernel_size: 2
    stride: 2
  }
}
layer {
  name: "fc6"
  type: "InnerProduct"
  bottom: "pool5"
  top: "fc6"
  param {
    lr_mult: 1
    decay_mult: 1
  }
  param {
    lr_mult: 2
    decay_mult: 0
  }
  inner_product_param {
    num_output: 4096
    weight_filler {
      type: "gaussian"
      std: 0.01
    }
    bias_filler {
      type: "constant"
      value: 0
    }
  }
}
layer {
  name: "relu6"
  type: "ReLU"
  bottom: "fc6"
  top: "fc6"
}
layer {
  name: "drop6"
  type: "Dropout"
  bottom: "fc6"
  top: "fc6"
  dropout_param {
    dropout_ratio: 0.5
  }
}
layer {
  name: "fc7"
  type: "InnerProduct"
  bottom: "fc6"
  top: "fc7"
  param {
    lr_mult: 1
    decay_mult: 1
  }
  param {
    lr_mult: 2
    decay_mult: 0
  }
  inner_product_param {
    num_output: 4096
    weight_filler {
      type: "gaussian"
      std: 0.01
    }
    bias_filler {
      type: "constant"
      value: 0
    }
  }
}
layer {
  name: "relu7"
  type: "ReLU"
  bottom: "fc7"
  top: "fc7"
}
layer {
  name: "drop7"
  type: "Dropout"
  bottom: "fc7"
  top: "fc7"
  dropout_param {
    dropout_ratio: 0.5
  }
}
layer {
  name: "fc_scv_picturesque"
  type: "InnerProduct"
  bottom: "fc7"
  top: "fc_scv_picturesque"
  param {
    lr_mult: 10
    decay_mult: 1
  }
  param {
    lr_mult: 20
    decay_mult: 0
  }
  inner_product_param {
    num_output: 1
    weight_filler {
      type: "xavier"
      std: 0.01
    }
    bias_filler {
      type: "constant"
      value: 0
    }
  }
}
layer {
  name: "loss"
  type: "EuclideanLoss"
  bottom: "fc_scv_picturesque"
  bottom: "label"
  top: "loss"
}
layer {
  name: "losttest"
  type: "EuclideanLoss"
  bottom: "fc_scv_picturesque"
  bottom: "label"
  top: "losttest"
  include {
    phase: TEST
  }
}
I1206 08:05:27.230309 19145 layer_factory.hpp:77] Creating layer data
I1206 08:05:27.249230 19145 db_lmdb.cpp:35] Opened lmdb /idiap/temp/lmedina/fine-tuning/data/Picturesque/validation_lmdb
I1206 08:05:27.259258 19145 net.cpp:84] Creating Layer data
I1206 08:05:27.259315 19145 net.cpp:380] data -> data
I1206 08:05:27.259358 19145 net.cpp:380] data -> label
I1206 08:05:27.259390 19145 data_transformer.cpp:25] Loading mean file from: /idiap/temp/lmedina/fine-tuning/vgg16_places365/places365CNN_mean.binaryproto
I1206 08:05:27.272509 19145 data_layer.cpp:45] output data size: 16,3,224,224
I1206 08:05:27.312053 19145 net.cpp:122] Setting up data
I1206 08:05:27.312105 19145 net.cpp:129] Top shape: 16 3 224 224 (2408448)
I1206 08:05:27.312126 19145 net.cpp:129] Top shape: 16 (16)
I1206 08:05:27.312140 19145 net.cpp:137] Memory required for data: 9633856
I1206 08:05:27.312160 19145 layer_factory.hpp:77] Creating layer label_data_1_split
I1206 08:05:27.312189 19145 net.cpp:84] Creating Layer label_data_1_split
I1206 08:05:27.312206 19145 net.cpp:406] label_data_1_split <- label
I1206 08:05:27.312227 19145 net.cpp:380] label_data_1_split -> label_data_1_split_0
I1206 08:05:27.312252 19145 net.cpp:380] label_data_1_split -> label_data_1_split_1
I1206 08:05:27.312489 19145 net.cpp:122] Setting up label_data_1_split
I1206 08:05:27.312515 19145 net.cpp:129] Top shape: 16 (16)
I1206 08:05:27.312531 19145 net.cpp:129] Top shape: 16 (16)
I1206 08:05:27.312546 19145 net.cpp:137] Memory required for data: 9633984
I1206 08:05:27.312563 19145 layer_factory.hpp:77] Creating layer conv1_1
I1206 08:05:27.312594 19145 net.cpp:84] Creating Layer conv1_1
I1206 08:05:27.312610 19145 net.cpp:406] conv1_1 <- data
I1206 08:05:27.312630 19145 net.cpp:380] conv1_1 -> conv1_1
I1206 08:05:27.313084 19145 net.cpp:122] Setting up conv1_1
I1206 08:05:27.313107 19145 net.cpp:129] Top shape: 16 64 224 224 (51380224)
I1206 08:05:27.313122 19145 net.cpp:137] Memory required for data: 215154880
I1206 08:05:27.313148 19145 layer_factory.hpp:77] Creating layer relu1_1
I1206 08:05:27.313169 19145 net.cpp:84] Creating Layer relu1_1
I1206 08:05:27.313184 19145 net.cpp:406] relu1_1 <- conv1_1
I1206 08:05:27.313201 19145 net.cpp:367] relu1_1 -> conv1_1 (in-place)
I1206 08:05:27.313220 19145 net.cpp:122] Setting up relu1_1
I1206 08:05:27.313236 19145 net.cpp:129] Top shape: 16 64 224 224 (51380224)
I1206 08:05:27.313251 19145 net.cpp:137] Memory required for data: 420675776
I1206 08:05:27.313266 19145 layer_factory.hpp:77] Creating layer conv1_2
I1206 08:05:27.313287 19145 net.cpp:84] Creating Layer conv1_2
I1206 08:05:27.313302 19145 net.cpp:406] conv1_2 <- conv1_1
I1206 08:05:27.313321 19145 net.cpp:380] conv1_2 -> conv1_2
I1206 08:05:27.315042 19145 net.cpp:122] Setting up conv1_2
I1206 08:05:27.315071 19145 net.cpp:129] Top shape: 16 64 224 224 (51380224)
I1206 08:05:27.315088 19145 net.cpp:137] Memory required for data: 626196672
I1206 08:05:27.315112 19145 layer_factory.hpp:77] Creating layer relu1_2
I1206 08:05:27.315134 19145 net.cpp:84] Creating Layer relu1_2
I1206 08:05:27.315150 19145 net.cpp:406] relu1_2 <- conv1_2
I1206 08:05:27.315170 19145 net.cpp:367] relu1_2 -> conv1_2 (in-place)
I1206 08:05:27.315191 19145 net.cpp:122] Setting up relu1_2
I1206 08:05:27.315207 19145 net.cpp:129] Top shape: 16 64 224 224 (51380224)
I1206 08:05:27.315223 19145 net.cpp:137] Memory required for data: 831717568
I1206 08:05:27.315243 19145 layer_factory.hpp:77] Creating layer pool1
I1206 08:05:27.315264 19145 net.cpp:84] Creating Layer pool1
I1206 08:05:27.315279 19145 net.cpp:406] pool1 <- conv1_2
I1206 08:05:27.315297 19145 net.cpp:380] pool1 -> pool1
I1206 08:05:27.316498 19145 net.cpp:122] Setting up pool1
I1206 08:05:27.316541 19145 net.cpp:129] Top shape: 16 64 112 112 (12845056)
I1206 08:05:27.316557 19145 net.cpp:137] Memory required for data: 883097792
I1206 08:05:27.316573 19145 layer_factory.hpp:77] Creating layer conv2_1
I1206 08:05:27.316599 19145 net.cpp:84] Creating Layer conv2_1
I1206 08:05:27.316615 19145 net.cpp:406] conv2_1 <- pool1
I1206 08:05:27.316637 19145 net.cpp:380] conv2_1 -> conv2_1
I1206 08:05:27.318764 19145 net.cpp:122] Setting up conv2_1
I1206 08:05:27.318795 19145 net.cpp:129] Top shape: 16 128 112 112 (25690112)
I1206 08:05:27.318810 19145 net.cpp:137] Memory required for data: 985858240
I1206 08:05:27.318851 19145 layer_factory.hpp:77] Creating layer relu2_1
I1206 08:05:27.318873 19145 net.cpp:84] Creating Layer relu2_1
I1206 08:05:27.318889 19145 net.cpp:406] relu2_1 <- conv2_1
I1206 08:05:27.318907 19145 net.cpp:367] relu2_1 -> conv2_1 (in-place)
I1206 08:05:27.318928 19145 net.cpp:122] Setting up relu2_1
I1206 08:05:27.318945 19145 net.cpp:129] Top shape: 16 128 112 112 (25690112)
I1206 08:05:27.318959 19145 net.cpp:137] Memory required for data: 1088618688
I1206 08:05:27.318974 19145 layer_factory.hpp:77] Creating layer conv2_2
I1206 08:05:27.318995 19145 net.cpp:84] Creating Layer conv2_2
I1206 08:05:27.319010 19145 net.cpp:406] conv2_2 <- conv2_1
I1206 08:05:27.319028 19145 net.cpp:380] conv2_2 -> conv2_2
I1206 08:05:27.321322 19145 net.cpp:122] Setting up conv2_2
I1206 08:05:27.321350 19145 net.cpp:129] Top shape: 16 128 112 112 (25690112)
I1206 08:05:27.321364 19145 net.cpp:137] Memory required for data: 1191379136
I1206 08:05:27.321382 19145 layer_factory.hpp:77] Creating layer relu2_2
I1206 08:05:27.321400 19145 net.cpp:84] Creating Layer relu2_2
I1206 08:05:27.321415 19145 net.cpp:406] relu2_2 <- conv2_2
I1206 08:05:27.321432 19145 net.cpp:367] relu2_2 -> conv2_2 (in-place)
I1206 08:05:27.321450 19145 net.cpp:122] Setting up relu2_2
I1206 08:05:27.321468 19145 net.cpp:129] Top shape: 16 128 112 112 (25690112)
I1206 08:05:27.321482 19145 net.cpp:137] Memory required for data: 1294139584
I1206 08:05:27.321496 19145 layer_factory.hpp:77] Creating layer pool2
I1206 08:05:27.321513 19145 net.cpp:84] Creating Layer pool2
I1206 08:05:27.321527 19145 net.cpp:406] pool2 <- conv2_2
I1206 08:05:27.321544 19145 net.cpp:380] pool2 -> pool2
I1206 08:05:27.321606 19145 net.cpp:122] Setting up pool2
I1206 08:05:27.321625 19145 net.cpp:129] Top shape: 16 128 56 56 (6422528)
I1206 08:05:27.321666 19145 net.cpp:137] Memory required for data: 1319829696
I1206 08:05:27.321679 19145 layer_factory.hpp:77] Creating layer conv3_1
I1206 08:05:27.321702 19145 net.cpp:84] Creating Layer conv3_1
I1206 08:05:27.321715 19145 net.cpp:406] conv3_1 <- pool2
I1206 08:05:27.321734 19145 net.cpp:380] conv3_1 -> conv3_1
I1206 08:05:27.327584 19145 net.cpp:122] Setting up conv3_1
I1206 08:05:27.327620 19145 net.cpp:129] Top shape: 16 256 56 56 (12845056)
I1206 08:05:27.327636 19145 net.cpp:137] Memory required for data: 1371209920
I1206 08:05:27.327662 19145 layer_factory.hpp:77] Creating layer relu3_1
I1206 08:05:27.327682 19145 net.cpp:84] Creating Layer relu3_1
I1206 08:05:27.327697 19145 net.cpp:406] relu3_1 <- conv3_1
I1206 08:05:27.327715 19145 net.cpp:367] relu3_1 -> conv3_1 (in-place)
I1206 08:05:27.327735 19145 net.cpp:122] Setting up relu3_1
I1206 08:05:27.327751 19145 net.cpp:129] Top shape: 16 256 56 56 (12845056)
I1206 08:05:27.327765 19145 net.cpp:137] Memory required for data: 1422590144
I1206 08:05:27.327778 19145 layer_factory.hpp:77] Creating layer conv3_2
I1206 08:05:27.327800 19145 net.cpp:84] Creating Layer conv3_2
I1206 08:05:27.327814 19145 net.cpp:406] conv3_2 <- conv3_1
I1206 08:05:27.327833 19145 net.cpp:380] conv3_2 -> conv3_2
I1206 08:05:27.337024 19145 net.cpp:122] Setting up conv3_2
I1206 08:05:27.337086 19145 net.cpp:129] Top shape: 16 256 56 56 (12845056)
I1206 08:05:27.337101 19145 net.cpp:137] Memory required for data: 1473970368
I1206 08:05:27.337123 19145 layer_factory.hpp:77] Creating layer relu3_2
I1206 08:05:27.337147 19145 net.cpp:84] Creating Layer relu3_2
I1206 08:05:27.337162 19145 net.cpp:406] relu3_2 <- conv3_2
I1206 08:05:27.337182 19145 net.cpp:367] relu3_2 -> conv3_2 (in-place)
I1206 08:05:27.337204 19145 net.cpp:122] Setting up relu3_2
I1206 08:05:27.337220 19145 net.cpp:129] Top shape: 16 256 56 56 (12845056)
I1206 08:05:27.337235 19145 net.cpp:137] Memory required for data: 1525350592
I1206 08:05:27.337249 19145 layer_factory.hpp:77] Creating layer conv3_3
I1206 08:05:27.337275 19145 net.cpp:84] Creating Layer conv3_3
I1206 08:05:27.337290 19145 net.cpp:406] conv3_3 <- conv3_2
I1206 08:05:27.337307 19145 net.cpp:380] conv3_3 -> conv3_3
I1206 08:05:27.346452 19145 net.cpp:122] Setting up conv3_3
I1206 08:05:27.346498 19145 net.cpp:129] Top shape: 16 256 56 56 (12845056)
I1206 08:05:27.346513 19145 net.cpp:137] Memory required for data: 1576730816
I1206 08:05:27.346534 19145 layer_factory.hpp:77] Creating layer relu3_3
I1206 08:05:27.346555 19145 net.cpp:84] Creating Layer relu3_3
I1206 08:05:27.346570 19145 net.cpp:406] relu3_3 <- conv3_3
I1206 08:05:27.346590 19145 net.cpp:367] relu3_3 -> conv3_3 (in-place)
I1206 08:05:27.346611 19145 net.cpp:122] Setting up relu3_3
I1206 08:05:27.346627 19145 net.cpp:129] Top shape: 16 256 56 56 (12845056)
I1206 08:05:27.346640 19145 net.cpp:137] Memory required for data: 1628111040
I1206 08:05:27.346653 19145 layer_factory.hpp:77] Creating layer pool3
I1206 08:05:27.346673 19145 net.cpp:84] Creating Layer pool3
I1206 08:05:27.346686 19145 net.cpp:406] pool3 <- conv3_3
I1206 08:05:27.346704 19145 net.cpp:380] pool3 -> pool3
I1206 08:05:27.346766 19145 net.cpp:122] Setting up pool3
I1206 08:05:27.346786 19145 net.cpp:129] Top shape: 16 256 28 28 (3211264)
I1206 08:05:27.346799 19145 net.cpp:137] Memory required for data: 1640956096
I1206 08:05:27.346812 19145 layer_factory.hpp:77] Creating layer conv4_1
I1206 08:05:27.346842 19145 net.cpp:84] Creating Layer conv4_1
I1206 08:05:27.346855 19145 net.cpp:406] conv4_1 <- pool3
I1206 08:05:27.346873 19145 net.cpp:380] conv4_1 -> conv4_1
I1206 08:05:27.363032 19145 net.cpp:122] Setting up conv4_1
I1206 08:05:27.363077 19145 net.cpp:129] Top shape: 16 512 28 28 (6422528)
I1206 08:05:27.363090 19145 net.cpp:137] Memory required for data: 1666646208
I1206 08:05:27.363111 19145 layer_factory.hpp:77] Creating layer relu4_1
I1206 08:05:27.363131 19145 net.cpp:84] Creating Layer relu4_1
I1206 08:05:27.363144 19145 net.cpp:406] relu4_1 <- conv4_1
I1206 08:05:27.363162 19145 net.cpp:367] relu4_1 -> conv4_1 (in-place)
I1206 08:05:27.363183 19145 net.cpp:122] Setting up relu4_1
I1206 08:05:27.363198 19145 net.cpp:129] Top shape: 16 512 28 28 (6422528)
I1206 08:05:27.363209 19145 net.cpp:137] Memory required for data: 1692336320
I1206 08:05:27.363220 19145 layer_factory.hpp:77] Creating layer conv4_2
I1206 08:05:27.363240 19145 net.cpp:84] Creating Layer conv4_2
I1206 08:05:27.363252 19145 net.cpp:406] conv4_2 <- conv4_1
I1206 08:05:27.363270 19145 net.cpp:380] conv4_2 -> conv4_2
I1206 08:05:27.393347 19145 net.cpp:122] Setting up conv4_2
I1206 08:05:27.393395 19145 net.cpp:129] Top shape: 16 512 28 28 (6422528)
I1206 08:05:27.393409 19145 net.cpp:137] Memory required for data: 1718026432
I1206 08:05:27.393436 19145 layer_factory.hpp:77] Creating layer relu4_2
I1206 08:05:27.393460 19145 net.cpp:84] Creating Layer relu4_2
I1206 08:05:27.393476 19145 net.cpp:406] relu4_2 <- conv4_2
I1206 08:05:27.393492 19145 net.cpp:367] relu4_2 -> conv4_2 (in-place)
I1206 08:05:27.393512 19145 net.cpp:122] Setting up relu4_2
I1206 08:05:27.393524 19145 net.cpp:129] Top shape: 16 512 28 28 (6422528)
I1206 08:05:27.393538 19145 net.cpp:137] Memory required for data: 1743716544
I1206 08:05:27.393550 19145 layer_factory.hpp:77] Creating layer conv4_3
I1206 08:05:27.393571 19145 net.cpp:84] Creating Layer conv4_3
I1206 08:05:27.393589 19145 net.cpp:406] conv4_3 <- conv4_2
I1206 08:05:27.393602 19145 net.cpp:380] conv4_3 -> conv4_3
I1206 08:05:27.423665 19145 net.cpp:122] Setting up conv4_3
I1206 08:05:27.423707 19145 net.cpp:129] Top shape: 16 512 28 28 (6422528)
I1206 08:05:27.423720 19145 net.cpp:137] Memory required for data: 1769406656
I1206 08:05:27.423738 19145 layer_factory.hpp:77] Creating layer relu4_3
I1206 08:05:27.423784 19145 net.cpp:84] Creating Layer relu4_3
I1206 08:05:27.423799 19145 net.cpp:406] relu4_3 <- conv4_3
I1206 08:05:27.423816 19145 net.cpp:367] relu4_3 -> conv4_3 (in-place)
I1206 08:05:27.423835 19145 net.cpp:122] Setting up relu4_3
I1206 08:05:27.423853 19145 net.cpp:129] Top shape: 16 512 28 28 (6422528)
I1206 08:05:27.423866 19145 net.cpp:137] Memory required for data: 1795096768
I1206 08:05:27.423877 19145 layer_factory.hpp:77] Creating layer pool4
I1206 08:05:27.423895 19145 net.cpp:84] Creating Layer pool4
I1206 08:05:27.423908 19145 net.cpp:406] pool4 <- conv4_3
I1206 08:05:27.423923 19145 net.cpp:380] pool4 -> pool4
I1206 08:05:27.423984 19145 net.cpp:122] Setting up pool4
I1206 08:05:27.424003 19145 net.cpp:129] Top shape: 16 512 14 14 (1605632)
I1206 08:05:27.424015 19145 net.cpp:137] Memory required for data: 1801519296
I1206 08:05:27.424027 19145 layer_factory.hpp:77] Creating layer conv5_1
I1206 08:05:27.424051 19145 net.cpp:84] Creating Layer conv5_1
I1206 08:05:27.424063 19145 net.cpp:406] conv5_1 <- pool4
I1206 08:05:27.424078 19145 net.cpp:380] conv5_1 -> conv5_1
I1206 08:05:27.453953 19145 net.cpp:122] Setting up conv5_1
I1206 08:05:27.454001 19145 net.cpp:129] Top shape: 16 512 14 14 (1605632)
I1206 08:05:27.454015 19145 net.cpp:137] Memory required for data: 1807941824
I1206 08:05:27.454035 19145 layer_factory.hpp:77] Creating layer relu5_1
I1206 08:05:27.454056 19145 net.cpp:84] Creating Layer relu5_1
I1206 08:05:27.454069 19145 net.cpp:406] relu5_1 <- conv5_1
I1206 08:05:27.454090 19145 net.cpp:367] relu5_1 -> conv5_1 (in-place)
I1206 08:05:27.454110 19145 net.cpp:122] Setting up relu5_1
I1206 08:05:27.454123 19145 net.cpp:129] Top shape: 16 512 14 14 (1605632)
I1206 08:05:27.454134 19145 net.cpp:137] Memory required for data: 1814364352
I1206 08:05:27.454145 19145 layer_factory.hpp:77] Creating layer conv5_2
I1206 08:05:27.454167 19145 net.cpp:84] Creating Layer conv5_2
I1206 08:05:27.454207 19145 net.cpp:406] conv5_2 <- conv5_1
I1206 08:05:27.454223 19145 net.cpp:380] conv5_2 -> conv5_2
I1206 08:05:27.484064 19145 net.cpp:122] Setting up conv5_2
I1206 08:05:27.484117 19145 net.cpp:129] Top shape: 16 512 14 14 (1605632)
I1206 08:05:27.484129 19145 net.cpp:137] Memory required for data: 1820786880
I1206 08:05:27.484149 19145 layer_factory.hpp:77] Creating layer relu5_2
I1206 08:05:27.484175 19145 net.cpp:84] Creating Layer relu5_2
I1206 08:05:27.484201 19145 net.cpp:406] relu5_2 <- conv5_2
I1206 08:05:27.484218 19145 net.cpp:367] relu5_2 -> conv5_2 (in-place)
I1206 08:05:27.484239 19145 net.cpp:122] Setting up relu5_2
I1206 08:05:27.484264 19145 net.cpp:129] Top shape: 16 512 14 14 (1605632)
I1206 08:05:27.484277 19145 net.cpp:137] Memory required for data: 1827209408
I1206 08:05:27.484292 19145 layer_factory.hpp:77] Creating layer conv5_3
I1206 08:05:27.484314 19145 net.cpp:84] Creating Layer conv5_3
I1206 08:05:27.484328 19145 net.cpp:406] conv5_3 <- conv5_2
I1206 08:05:27.484344 19145 net.cpp:380] conv5_3 -> conv5_3
I1206 08:05:27.514667 19145 net.cpp:122] Setting up conv5_3
I1206 08:05:27.514716 19145 net.cpp:129] Top shape: 16 512 14 14 (1605632)
I1206 08:05:27.514729 19145 net.cpp:137] Memory required for data: 1833631936
I1206 08:05:27.514747 19145 layer_factory.hpp:77] Creating layer relu5_3
I1206 08:05:27.514770 19145 net.cpp:84] Creating Layer relu5_3
I1206 08:05:27.514783 19145 net.cpp:406] relu5_3 <- conv5_3
I1206 08:05:27.514803 19145 net.cpp:367] relu5_3 -> conv5_3 (in-place)
I1206 08:05:27.514838 19145 net.cpp:122] Setting up relu5_3
I1206 08:05:27.514853 19145 net.cpp:129] Top shape: 16 512 14 14 (1605632)
I1206 08:05:27.514866 19145 net.cpp:137] Memory required for data: 1840054464
I1206 08:05:27.514883 19145 layer_factory.hpp:77] Creating layer pool5
I1206 08:05:27.514907 19145 net.cpp:84] Creating Layer pool5
I1206 08:05:27.514920 19145 net.cpp:406] pool5 <- conv5_3
I1206 08:05:27.514937 19145 net.cpp:380] pool5 -> pool5
I1206 08:05:27.515007 19145 net.cpp:122] Setting up pool5
I1206 08:05:27.515027 19145 net.cpp:129] Top shape: 16 512 7 7 (401408)
I1206 08:05:27.515038 19145 net.cpp:137] Memory required for data: 1841660096
I1206 08:05:27.515050 19145 layer_factory.hpp:77] Creating layer fc6
I1206 08:05:27.515070 19145 net.cpp:84] Creating Layer fc6
I1206 08:05:27.515082 19145 net.cpp:406] fc6 <- pool5
I1206 08:05:27.515101 19145 net.cpp:380] fc6 -> fc6
I1206 08:05:28.791617 19145 net.cpp:122] Setting up fc6
I1206 08:05:28.791677 19145 net.cpp:129] Top shape: 16 4096 (65536)
I1206 08:05:28.791690 19145 net.cpp:137] Memory required for data: 1841922240
I1206 08:05:28.791710 19145 layer_factory.hpp:77] Creating layer relu6
I1206 08:05:28.791734 19145 net.cpp:84] Creating Layer relu6
I1206 08:05:28.791749 19145 net.cpp:406] relu6 <- fc6
I1206 08:05:28.791765 19145 net.cpp:367] relu6 -> fc6 (in-place)
I1206 08:05:28.791787 19145 net.cpp:122] Setting up relu6
I1206 08:05:28.791800 19145 net.cpp:129] Top shape: 16 4096 (65536)
I1206 08:05:28.791810 19145 net.cpp:137] Memory required for data: 1842184384
I1206 08:05:28.791820 19145 layer_factory.hpp:77] Creating layer drop6
I1206 08:05:28.791837 19145 net.cpp:84] Creating Layer drop6
I1206 08:05:28.791851 19145 net.cpp:406] drop6 <- fc6
I1206 08:05:28.791862 19145 net.cpp:367] drop6 -> fc6 (in-place)
I1206 08:05:28.791906 19145 net.cpp:122] Setting up drop6
I1206 08:05:28.791923 19145 net.cpp:129] Top shape: 16 4096 (65536)
I1206 08:05:28.791934 19145 net.cpp:137] Memory required for data: 1842446528
I1206 08:05:28.791944 19145 layer_factory.hpp:77] Creating layer fc7
I1206 08:05:28.791961 19145 net.cpp:84] Creating Layer fc7
I1206 08:05:28.791975 19145 net.cpp:406] fc7 <- fc6
I1206 08:05:28.791990 19145 net.cpp:380] fc7 -> fc7
I1206 08:05:28.990633 19145 net.cpp:122] Setting up fc7
I1206 08:05:28.990687 19145 net.cpp:129] Top shape: 16 4096 (65536)
I1206 08:05:28.990700 19145 net.cpp:137] Memory required for data: 1842708672
I1206 08:05:28.990720 19145 layer_factory.hpp:77] Creating layer relu7
I1206 08:05:28.990743 19145 net.cpp:84] Creating Layer relu7
I1206 08:05:28.990757 19145 net.cpp:406] relu7 <- fc7
I1206 08:05:28.990777 19145 net.cpp:367] relu7 -> fc7 (in-place)
I1206 08:05:28.990797 19145 net.cpp:122] Setting up relu7
I1206 08:05:28.990808 19145 net.cpp:129] Top shape: 16 4096 (65536)
I1206 08:05:28.990823 19145 net.cpp:137] Memory required for data: 1842970816
I1206 08:05:28.990833 19145 layer_factory.hpp:77] Creating layer drop7
I1206 08:05:28.990849 19145 net.cpp:84] Creating Layer drop7
I1206 08:05:28.990859 19145 net.cpp:406] drop7 <- fc7
I1206 08:05:28.990876 19145 net.cpp:367] drop7 -> fc7 (in-place)
I1206 08:05:28.990922 19145 net.cpp:122] Setting up drop7
I1206 08:05:28.990955 19145 net.cpp:129] Top shape: 16 4096 (65536)
I1206 08:05:28.990967 19145 net.cpp:137] Memory required for data: 1843232960
I1206 08:05:28.990978 19145 layer_factory.hpp:77] Creating layer fc_scv_picturesque
I1206 08:05:28.990998 19145 net.cpp:84] Creating Layer fc_scv_picturesque
I1206 08:05:28.991010 19145 net.cpp:406] fc_scv_picturesque <- fc7
I1206 08:05:28.991024 19145 net.cpp:380] fc_scv_picturesque -> fc_scv_picturesque
I1206 08:05:28.991173 19145 net.cpp:122] Setting up fc_scv_picturesque
I1206 08:05:28.991190 19145 net.cpp:129] Top shape: 16 1 (16)
I1206 08:05:28.991201 19145 net.cpp:137] Memory required for data: 1843233024
I1206 08:05:28.991216 19145 layer_factory.hpp:77] Creating layer fc_scv_picturesque_fc_scv_picturesque_0_split
I1206 08:05:28.991232 19145 net.cpp:84] Creating Layer fc_scv_picturesque_fc_scv_picturesque_0_split
I1206 08:05:28.991243 19145 net.cpp:406] fc_scv_picturesque_fc_scv_picturesque_0_split <- fc_scv_picturesque
I1206 08:05:28.991261 19145 net.cpp:380] fc_scv_picturesque_fc_scv_picturesque_0_split -> fc_scv_picturesque_fc_scv_picturesque_0_split_0
I1206 08:05:28.991281 19145 net.cpp:380] fc_scv_picturesque_fc_scv_picturesque_0_split -> fc_scv_picturesque_fc_scv_picturesque_0_split_1
I1206 08:05:28.991333 19145 net.cpp:122] Setting up fc_scv_picturesque_fc_scv_picturesque_0_split
I1206 08:05:28.991349 19145 net.cpp:129] Top shape: 16 1 (16)
I1206 08:05:28.991361 19145 net.cpp:129] Top shape: 16 1 (16)
I1206 08:05:28.991371 19145 net.cpp:137] Memory required for data: 1843233152
I1206 08:05:28.991382 19145 layer_factory.hpp:77] Creating layer loss
I1206 08:05:28.991400 19145 net.cpp:84] Creating Layer loss
I1206 08:05:28.991412 19145 net.cpp:406] loss <- fc_scv_picturesque_fc_scv_picturesque_0_split_0
I1206 08:05:28.991425 19145 net.cpp:406] loss <- label_data_1_split_0
I1206 08:05:28.991437 19145 net.cpp:380] loss -> loss
…
