…
I1130 04:00:07.594488 19834 net.cpp:51] Initializing net from parameters: 
name: "GoogleNet-Places365-SCV-Picturesque"
state {
  phase: TRAIN
  level: 0
  stage: ""
}
layer {
  name: "data"
  type: "Data"
  top: "data"
  top: "label"
  include {
    phase: TRAIN
  }
  transform_param {
    mirror: true
    crop_size: 224
    mean_file: "/idiap/temp/lmedina/fine-tuning/googlenet_places365/places365CNN_mean.binaryproto"
  }
  data_param {
    source: "/idiap/temp/lmedina/fine-tuning/data/Picturesque/train_lmdb"
    batch_size: 32
    backend: LMDB
  }
}
layer {
  name: "conv1/7x7_s2"
  type: "Convolution"
  bottom: "data"
  top: "conv1/7x7_s2"
  param {
    lr_mult: 1
    decay_mult: 1
  }
  param {
    lr_mult: 2
    decay_mult: 0
  }
  convolution_param {
    num_output: 64
    pad: 3
    kernel_size: 7
    stride: 2
    weight_filler {
      type: "xavier"
      std: 0.1
    }
    bias_filler {
      type: "constant"
      value: 0.2
    }
  }
}
layer {
  name: "conv1/relu_7x7"
  type: "ReLU"
  bottom: "conv1/7x7_s2"
  top: "conv1/7x7_s2"
}
layer {
  name: "pool1/3x3_s2"
  type: "Pooling"
  bottom: "conv1/7x7_s2"
  top: "pool1/3x3_s2"
  pooling_param {
    pool: MAX
    kernel_size: 3
    stride: 2
  }
}
layer {
  name: "pool1/norm1"
  type: "LRN"
  bottom: "pool1/3x3_s2"
  top: "pool1/norm1"
  lrn_param {
    local_size: 5
    alpha: 0.0001
    beta: 0.75
  }
}
layer {
  name: "conv2/3x3_reduce"
  type: "Convolution"
  bottom: "pool1/norm1"
  top: "conv2/3x3_reduce"
  param {
    lr_mult: 1
    decay_mult: 1
  }
  param {
    lr_mult: 2
    decay_mult: 0
  }
  convolution_param {
    num_output: 64
    kernel_size: 1
    weight_filler {
      type: "xavier"
      std: 0.1
    }
    bias_filler {
      type: "constant"
      value: 0.2
    }
  }
}
layer {
  name: "conv2/relu_3x3_reduce"
  type: "ReLU"
  bottom: "conv2/3x3_reduce"
  top: "conv2/3x3_reduce"
}
layer {
  name: "conv2/3x3"
  type: "Convolution"
  bottom: "conv2/3x3_reduce"
  top: "conv2/3x3"
  param {
    lr_mult: 1
    decay_mult: 1
  }
  param {
    lr_mult: 2
    decay_mult: 0
  }
  convolution_param {
    num_output: 192
    pad: 1
    kernel_size: 3
    weight_filler {
      type: "xavier"
      std: 0.03
    }
    bias_filler {
      type: "constant"
      value: 0.2
    }
  }
}
layer {
  name: "conv2/relu_3x3"
  type: "ReLU"
  bottom: "conv2/3x3"
  top: "conv2/3x3"
}
layer {
  name: "conv2/norm2"
  type: "LRN"
  bottom: "conv2/3x3"
  top: "conv2/norm2"
  lrn_param {
    local_size: 5
    alpha: 0.0001
    beta: 0.75
  }
}
layer {
  name: "pool2/3x3_s2"
  type: "Pooling"
  bottom: "conv2/norm2"
  top: "pool2/3x3_s2"
  pooling_param {
    pool: MAX
    kernel_size: 3
    stride: 2
  }
}
layer {
  name: "inception_3a/1x1"
  type: "Convolution"
  bottom: "pool2/3x3_s2"
  top: "inception_3a/1x1"
  param {
    lr_mult: 1
    decay_mult: 1
  }
  param {
    lr_mult: 2
    decay_mult: 0
  }
  convolution_param {
    num_output: 64
    kernel_size: 1
    weight_filler {
      type: "xavier"
      std: 0.03
    }
    bias_filler {
      type: "constant"
      value: 0.2
    }
  }
}
layer {
  name: "inception_3a/relu_1x1"
  type: "ReLU"
  bottom: "inception_3a/1x1"
  top: "inception_3a/1x1"
}
layer {
  name: "inception_3a/3x3_reduce"
  type: "Convolution"
  bottom: "pool2/3x3_s2"
  top: "inception_3a/3x3_reduce"
  param {
    lr_mult: 1
    decay_mult: 1
  }
  param {
    lr_mult: 2
    decay_mult: 0
  }
  convolution_param {
    num_output: 96
    kernel_size: 1
    weight_filler {
      type: "xavier"
      std: 0.09
    }
    bias_filler {
      type: "constant"
      value: 0.2
    }
  }
}
layer {
  name: "inception_3a/relu_3x3_reduce"
  type: "ReLU"
  bottom: "inception_3a/3x3_reduce"
  top: "inception_3a/3x3_reduce"
}
layer {
  name: "inception_3a/3x3"
  type: "Convolution"
  bottom: "inception_3a/3x3_reduce"
  top: "inception_3a/3x3"
  param {
    lr_mult: 1
    decay_mult: 1
  }
  param {
    lr_mult: 2
    decay_mult: 0
  }
  convolution_param {
    num_output: 128
    pad: 1
    kernel_size: 3
    weight_filler {
      type: "xavier"
      std: 0.03
    }
    bias_filler {
      type: "constant"
      value: 0.2
    }
  }
}
layer {
  name: "inception_3a/relu_3x3"
  type: "ReLU"
  bottom: "inception_3a/3x3"
  top: "inception_3a/3x3"
}
layer {
  name: "inception_3a/5x5_reduce"
  type: "Convolution"
  bottom: "pool2/3x3_s2"
  top: "inception_3a/5x5_reduce"
  param {
    lr_mult: 1
    decay_mult: 1
  }
  param {
    lr_mult: 2
    decay_mult: 0
  }
  convolution_param {
    num_output: 16
    kernel_size: 1
    weight_filler {
      type: "xavier"
      std: 0.2
    }
    bias_filler {
      type: "constant"
      value: 0.2
    }
  }
}
layer {
  name: "inception_3a/relu_5x5_reduce"
  type: "ReLU"
  bottom: "inception_3a/5x5_reduce"
  top: "inception_3a/5x5_reduce"
}
layer {
  name: "inception_3a/5x5"
  type: "Convolution"
  bottom: "inception_3a/5x5_reduce"
  top: "inception_3a/5x5"
  param {
    lr_mult: 1
    decay_mult: 1
  }
  param {
    lr_mult: 2
    decay_mult: 0
  }
  convolution_param {
    num_output: 32
    pad: 2
    kernel_size: 5
    weight_filler {
      type: "xavier"
      std: 0.03
    }
    bias_filler {
      type: "constant"
      value: 0.2
    }
  }
}
layer {
  name: "inception_3a/relu_5x5"
  type: "ReLU"
  bottom: "inception_3a/5x5"
  top: "inception_3a/5x5"
}
layer {
  name: "inception_3a/pool"
  type: "Pooling"
  bottom: "pool2/3x3_s2"
  top: "inception_3a/pool"
  pooling_param {
    pool: MAX
    kernel_size: 3
    stride: 1
    pad: 1
  }
}
layer {
  name: "inception_3a/pool_proj"
  type: "Convolution"
  bottom: "inception_3a/pool"
  top: "inception_3a/pool_proj"
  param {
    lr_mult: 1
    decay_mult: 1
  }
  param {
    lr_mult: 2
    decay_mult: 0
  }
  convolution_param {
    num_output: 32
    kernel_size: 1
    weight_filler {
      type: "xavier"
      std: 0.1
    }
    bias_filler {
      type: "constant"
      value: 0.2
    }
  }
}
layer {
  name: "inception_3a/relu_pool_proj"
  type: "ReLU"
  bottom: "inception_3a/pool_proj"
  top: "inception_3a/pool_proj"
}
layer {
  name: "inception_3a/output"
  type: "Concat"
  bottom: "inception_3a/1x1"
  bottom: "inception_3a/3x3"
  bottom: "inception_3a/5x5"
  bottom: "inception_3a/pool_proj"
  top: "inception_3a/output"
}
layer {
  name: "inception_3b/1x1"
  type: "Convolution"
  bottom: "inception_3a/output"
  top: "inception_3b/1x1"
  param {
    lr_mult: 1
    decay_mult: 1
  }
  param {
    lr_mult: 2
    decay_mult: 0
  }
  convolution_param {
    num_output: 128
    kernel_size: 1
    weight_filler {
      type: "xavier"
      std: 0.03
    }
    bias_filler {
      type: "constant"
      value: 0.2
    }
  }
}
layer {
  name: "inception_3b/relu_1x1"
  type: "ReLU"
  bottom: "inception_3b/1x1"
  top: "inception_3b/1x1"
}
layer {
  name: "inception_3b/3x3_reduce"
  type: "Convolution"
  bottom: "inception_3a/output"
  top: "inception_3b/3x3_reduce"
  param {
    lr_mult: 1
    decay_mult: 1
  }
  param {
    lr_mult: 2
    decay_mult: 0
  }
  convolution_param {
    num_output: 128
    kernel_size: 1
    weight_filler {
      type: "xavier"
      std: 0.09
    }
    bias_filler {
      type: "constant"
      value: 0.2
    }
  }
}
layer {
  name: "inception_3b/relu_3x3_reduce"
  type: "ReLU"
  bottom: "inception_3b/3x3_reduce"
  top: "inception_3b/3x3_reduce"
}
layer {
  name: "inception_3b/3x3"
  type: "Convolution"
  bottom: "inception_3b/3x3_reduce"
  top: "inception_3b/3x3"
  param {
    lr_mult: 1
    decay_mult: 1
  }
  param {
    lr_mult: 2
    decay_mult: 0
  }
  convolution_param {
    num_output: 192
    pad: 1
    kernel_size: 3
    weight_filler {
      type: "xavier"
      std: 0.03
    }
    bias_filler {
      type: "constant"
      value: 0.2
    }
  }
}
layer {
  name: "inception_3b/relu_3x3"
  type: "ReLU"
  bottom: "inception_3b/3x3"
  top: "inception_3b/3x3"
}
layer {
  name: "inception_3b/5x5_reduce"
  type: "Convolution"
  bottom: "inception_3a/output"
  top: "inception_3b/5x5_reduce"
  param {
    lr_mult: 1
    decay_mult: 1
  }
  param {
    lr_mult: 2
    decay_mult: 0
  }
  convolution_param {
    num_output: 32
    kernel_size: 1
    weight_filler {
      type: "xavier"
      std: 0.2
    }
    bias_filler {
      type: "constant"
      value: 0.2
    }
  }
}
layer {
  name: "inception_3b/relu_5x5_reduce"
  type: "ReLU"
  bottom: "inception_3b/5x5_reduce"
  top: "inception_3b/5x5_reduce"
}
layer {
  name: "inception_3b/5x5"
  type: "Convolution"
  bottom: "inception_3b/5x5_reduce"
  top: "inception_3b/5x5"
  param {
    lr_mult: 1
    decay_mult: 1
  }
  param {
    lr_mult: 2
    decay_mult: 0
  }
  convolution_param {
    num_output: 96
    pad: 2
    kernel_size: 5
    weight_filler {
      type: "xavier"
      std: 0.03
    }
    bias_filler {
      type: "constant"
      value: 0.2
    }
  }
}
layer {
  name: "inception_3b/relu_5x5"
  type: "ReLU"
  bottom: "inception_3b/5x5"
  top: "inception_3b/5x5"
}
layer {
  name: "inception_3b/pool"
  type: "Pooling"
  bottom: "inception_3a/output"
  top: "inception_3b/pool"
  pooling_param {
    pool: MAX
    kernel_size: 3
    stride: 1
    pad: 1
  }
}
layer {
  name: "inception_3b/pool_proj"
  type: "Convolution"
  bottom: "inception_3b/pool"
  top: "inception_3b/pool_proj"
  param {
    lr_mult: 1
    decay_mult: 1
  }
  param {
    lr_mult: 2
    decay_mult: 0
  }
  convolution_param {
    num_output: 64
    kernel_size: 1
    weight_filler {
      type: "xavier"
      std: 0.1
    }
    bias_filler {
      type: "constant"
      value: 0.2
    }
  }
}
layer {
  name: "inception_3b/relu_pool_proj"
  type: "ReLU"
  bottom: "inception_3b/pool_proj"
  top: "inception_3b/pool_proj"
}
layer {
  name: "inception_3b/output"
  type: "Concat"
  bottom: "inception_3b/1x1"
  bottom: "inception_3b/3x3"
  bottom: "inception_3b/5x5"
  bottom: "inception_3b/pool_proj"
  top: "inception_3b/output"
}
layer {
  name: "pool3/3x3_s2"
  type: "Pooling"
  bottom: "inception_3b/output"
  top: "pool3/3x3_s2"
  pooling_param {
    pool: MAX
    kernel_size: 3
    stride: 2
  }
}
layer {
  name: "inception_4a/1x1"
  type: "Convolution"
  bottom: "pool3/3x3_s2"
  top: "inception_4a/1x1"
  param {
    lr_mult: 1
    decay_mult: 1
  }
  param {
    lr_mult: 2
    decay_mult: 0
  }
  convolution_param {
    num_output: 192
    kernel_size: 1
    weight_filler {
      type: "xavier"
      std: 0.03
    }
    bias_filler {
      type: "constant"
      value: 0.2
    }
  }
}
layer {
  name: "inception_4a/relu_1x1"
  type: "ReLU"
  bottom: "inception_4a/1x1"
  top: "inception_4a/1x1"
}
layer {
  name: "inception_4a/3x3_reduce"
  type: "Convolution"
  bottom: "pool3/3x3_s2"
  top: "inception_4a/3x3_reduce"
  param {
    lr_mult: 1
    decay_mult: 1
  }
  param {
    lr_mult: 2
    decay_mult: 0
  }
  convolution_param {
    num_output: 96
    kernel_size: 1
    weight_filler {
      type: "xavier"
      std: 0.09
    }
    bias_filler {
      type: "constant"
      value: 0.2
    }
  }
}
layer {
  name: "inception_4a/relu_3x3_reduce"
  type: "ReLU"
  bottom: "inception_4a/3x3_reduce"
  top: "inception_4a/3x3_reduce"
}
layer {
  name: "inception_4a/3x3"
  type: "Convolution"
  bottom: "inception_4a/3x3_reduce"
  top: "inception_4a/3x3"
  param {
    lr_mult: 1
    decay_mult: 1
  }
  param {
    lr_mult: 2
    decay_mult: 0
  }
  convolution_param {
    num_output: 208
    pad: 1
    kernel_size: 3
    weight_filler {
      type: "xavier"
      std: 0.03
    }
    bias_filler {
      type: "constant"
      value: 0.2
    }
  }
}
layer {
  name: "inception_4a/relu_3x3"
  type: "ReLU"
  bottom: "inception_4a/3x3"
  top: "inception_4a/3x3"
}
layer {
  name: "inception_4a/5x5_reduce"
  type: "Convolution"
  bottom: "pool3/3x3_s2"
  top: "inception_4a/5x5_reduce"
  param {
    lr_mult: 1
    decay_mult: 1
  }
  param {
    lr_mult: 2
    decay_mult: 0
  }
  convolution_param {
    num_output: 16
    kernel_size: 1
    weight_filler {
      type: "xavier"
      std: 0.2
    }
    bias_filler {
      type: "constant"
      value: 0.2
    }
  }
}
layer {
  name: "inception_4a/relu_5x5_reduce"
  type: "ReLU"
  bottom: "inception_4a/5x5_reduce"
  top: "inception_4a/5x5_reduce"
}
layer {
  name: "inception_4a/5x5"
  type: "Convolution"
  bottom: "inception_4a/5x5_reduce"
  top: "inception_4a/5x5"
  param {
    lr_mult: 1
    decay_mult: 1
  }
  param {
    lr_mult: 2
    decay_mult: 0
  }
  convolution_param {
    num_output: 48
    pad: 2
    kernel_size: 5
    weight_filler {
      type: "xavier"
      std: 0.03
    }
    bias_filler {
      type: "constant"
      value: 0.2
    }
  }
}
layer {
  name: "inception_4a/relu_5x5"
  type: "ReLU"
  bottom: "inception_4a/5x5"
  top: "inception_4a/5x5"
}
layer {
  name: "inception_4a/pool"
  type: "Pooling"
  bottom: "pool3/3x3_s2"
  top: "inception_4a/pool"
  pooling_param {
    pool: MAX
    kernel_size: 3
    stride: 1
    pad: 1
  }
}
layer {
  name: "inception_4a/pool_proj"
  type: "Convolution"
  bottom: "inception_4a/pool"
  top: "inception_4a/pool_proj"
  param {
    lr_mult: 1
    decay_mult: 1
  }
  param {
    lr_mult: 2
    decay_mult: 0
  }
  convolution_param {
    num_output: 64
    kernel_size: 1
    weight_filler {
      type: "xavier"
      std: 0.1
    }
    bias_filler {
      type: "constant"
      value: 0.2
    }
  }
}
layer {
  name: "inception_4a/relu_pool_proj"
  type: "ReLU"
  bottom: "inception_4a/pool_proj"
  top: "inception_4a/pool_proj"
}
layer {
  name: "inception_4a/output"
  type: "Concat"
  bottom: "inception_4a/1x1"
  bottom: "inception_4a/3x3"
  bottom: "inception_4a/5x5"
  bottom: "inception_4a/pool_proj"
  top: "inception_4a/output"
}
layer {
  name: "inception_4b/1x1"
  type: "Convolution"
  bottom: "inception_4a/output"
  top: "inception_4b/1x1"
  param {
    lr_mult: 1
    decay_mult: 1
  }
  param {
    lr_mult: 2
    decay_mult: 0
  }
  convolution_param {
    num_output: 160
    kernel_size: 1
    weight_filler {
      type: "xavier"
      std: 0.03
    }
    bias_filler {
      type: "constant"
      value: 0.2
    }
  }
}
layer {
  name: "inception_4b/relu_1x1"
  type: "ReLU"
  bottom: "inception_4b/1x1"
  top: "inception_4b/1x1"
}
layer {
  name: "inception_4b/3x3_reduce"
  type: "Convolution"
  bottom: "inception_4a/output"
  top: "inception_4b/3x3_reduce"
  param {
    lr_mult: 1
    decay_mult: 1
  }
  param {
    lr_mult: 2
    decay_mult: 0
  }
  convolution_param {
    num_output: 112
    kernel_size: 1
    weight_filler {
      type: "xavier"
      std: 0.09
    }
    bias_filler {
      type: "constant"
      value: 0.2
    }
  }
}
layer {
  name: "inception_4b/relu_3x3_reduce"
  type: "ReLU"
  bottom: "inception_4b/3x3_reduce"
  top: "inception_4b/3x3_reduce"
}
layer {
  name: "inception_4b/3x3"
  type: "Convolution"
  bottom: "inception_4b/3x3_reduce"
  top: "inception_4b/3x3"
  param {
    lr_mult: 1
    decay_mult: 1
  }
  param {
    lr_mult: 2
    decay_mult: 0
  }
  convolution_param {
    num_output: 224
    pad: 1
    kernel_size: 3
    weight_filler {
      type: "xavier"
      std: 0.03
    }
    bias_filler {
      type: "constant"
      value: 0.2
    }
  }
}
layer {
  name: "inception_4b/relu_3x3"
  type: "ReLU"
  bottom: "inception_4b/3x3"
  top: "inception_4b/3x3"
}
layer {
  name: "inception_4b/5x5_reduce"
  type: "Convolution"
  bottom: "inception_4a/output"
  top: "inception_4b/5x5_reduce"
  param {
    lr_mult: 1
    decay_mult: 1
  }
  param {
    lr_mult: 2
    decay_mult: 0
  }
  convolution_param {
    num_output: 24
    kernel_size: 1
    weight_filler {
      type: "xavier"
      std: 0.2
    }
    bias_filler {
      type: "constant"
      value: 0.2
    }
  }
}
layer {
  name: "inception_4b/relu_5x5_reduce"
  type: "ReLU"
  bottom: "inception_4b/5x5_reduce"
  top: "inception_4b/5x5_reduce"
}
layer {
  name: "inception_4b/5x5"
  type: "Convolution"
  bottom: "inception_4b/5x5_reduce"
  top: "inception_4b/5x5"
  param {
    lr_mult: 1
    decay_mult: 1
  }
  param {
    lr_mult: 2
    decay_mult: 0
  }
  convolution_param {
    num_output: 64
    pad: 2
    kernel_size: 5
    weight_filler {
      type: "xavier"
      std: 0.03
    }
    bias_filler {
      type: "constant"
      value: 0.2
    }
  }
}
layer {
  name: "inception_4b/relu_5x5"
  type: "ReLU"
  bottom: "inception_4b/5x5"
  top: "inception_4b/5x5"
}
layer {
  name: "inception_4b/pool"
  type: "Pooling"
  bottom: "inception_4a/output"
  top: "inception_4b/pool"
  pooling_param {
    pool: MAX
    kernel_size: 3
    stride: 1
    pad: 1
  }
}
layer {
  name: "inception_4b/pool_proj"
  type: "Convolution"
  bottom: "inception_4b/pool"
  top: "inception_4b/pool_proj"
  param {
    lr_mult: 1
    decay_mult: 1
  }
  param {
    lr_mult: 2
    decay_mult: 0
  }
  convolution_param {
    num_output: 64
    kernel_size: 1
    weight_filler {
      type: "xavier"
      std: 0.1
    }
    bias_filler {
      type: "constant"
      value: 0.2
    }
  }
}
layer {
  name: "inception_4b/relu_pool_proj"
  type: "ReLU"
  bottom: "inception_4b/pool_proj"
  top: "inception_4b/pool_proj"
}
layer {
  name: "inception_4b/output"
  type: "Concat"
  bottom: "inception_4b/1x1"
  bottom: "inception_4b/3x3"
  bottom: "inception_4b/5x5"
  bottom: "inception_4b/pool_proj"
  top: "inception_4b/output"
}
layer {
  name: "inception_4c/1x1"
  type: "Convolution"
  bottom: "inception_4b/output"
  top: "inception_4c/1x1"
  param {
    lr_mult: 1
    decay_mult: 1
  }
  param {
    lr_mult: 2
    decay_mult: 0
  }
  convolution_param {
    num_output: 128
    kernel_size: 1
    weight_filler {
      type: "xavier"
      std: 0.03
    }
    bias_filler {
      type: "constant"
      value: 0.2
    }
  }
}
layer {
  name: "inception_4c/relu_1x1"
  type: "ReLU"
  bottom: "inception_4c/1x1"
  top: "inception_4c/1x1"
}
layer {
  name: "inception_4c/3x3_reduce"
  type: "Convolution"
  bottom: "inception_4b/output"
  top: "inception_4c/3x3_reduce"
  param {
    lr_mult: 1
    decay_mult: 1
  }
  param {
    lr_mult: 2
    decay_mult: 0
  }
  convolution_param {
    num_output: 128
    kernel_size: 1
    weight_filler {
      type: "xavier"
      std: 0.09
    }
    bias_filler {
      type: "constant"
      value: 0.2
    }
  }
}
layer {
  name: "inception_4c/relu_3x3_reduce"
  type: "ReLU"
  bottom: "inception_4c/3x3_reduce"
  top: "inception_4c/3x3_reduce"
}
layer {
  name: "inception_4c/3x3"
  type: "Convolution"
  bottom: "inception_4c/3x3_reduce"
  top: "inception_4c/3x3"
  param {
    lr_mult: 1
    decay_mult: 1
  }
  param {
    lr_mult: 2
    decay_mult: 0
  }
  convolution_param {
    num_output: 256
    pad: 1
    kernel_size: 3
    weight_filler {
      type: "xavier"
      std: 0.03
    }
    bias_filler {
      type: "constant"
      value: 0.2
    }
  }
}
layer {
  name: "inception_4c/relu_3x3"
  type: "ReLU"
  bottom: "inception_4c/3x3"
  top: "inception_4c/3x3"
}
layer {
  name: "inception_4c/5x5_reduce"
  type: "Convolution"
  bottom: "inception_4b/output"
  top: "inception_4c/5x5_reduce"
  param {
    lr_mult: 1
    decay_mult: 1
  }
  param {
    lr_mult: 2
    decay_mult: 0
  }
  convolution_param {
    num_output: 24
    kernel_size: 1
    weight_filler {
      type: "xavier"
      std: 0.2
    }
    bias_filler {
      type: "constant"
      value: 0.2
    }
  }
}
layer {
  name: "inception_4c/relu_5x5_reduce"
  type: "ReLU"
  bottom: "inception_4c/5x5_reduce"
  top: "inception_4c/5x5_reduce"
}
layer {
  name: "inception_4c/5x5"
  type: "Convolution"
  bottom: "inception_4c/5x5_reduce"
  top: "inception_4c/5x5"
  param {
    lr_mult: 1
    decay_mult: 1
  }
  param {
    lr_mult: 2
    decay_mult: 0
  }
  convolution_param {
    num_output: 64
    pad: 2
    kernel_size: 5
    weight_filler {
      type: "xavier"
      std: 0.03
    }
    bias_filler {
      type: "constant"
      value: 0.2
    }
  }
}
layer {
  name: "inception_4c/relu_5x5"
  type: "ReLU"
  bottom: "inception_4c/5x5"
  top: "inception_4c/5x5"
}
layer {
  name: "inception_4c/pool"
  type: "Pooling"
  bottom: "inception_4b/output"
  top: "inception_4c/pool"
  pooling_param {
    pool: MAX
    kernel_size: 3
    stride: 1
    pad: 1
  }
}
layer {
  name: "inception_4c/pool_proj"
  type: "Convolution"
  bottom: "inception_4c/pool"
  top: "inception_4c/pool_proj"
  param {
    lr_mult: 1
    decay_mult: 1
  }
  param {
    lr_mult: 2
    decay_mult: 0
  }
  convolution_param {
    num_output: 64
    kernel_size: 1
    weight_filler {
      type: "xavier"
      std: 0.1
    }
    bias_filler {
      type: "constant"
      value: 0.2
    }
  }
}
layer {
  name: "inception_4c/relu_pool_proj"
  type: "ReLU"
  bottom: "inception_4c/pool_proj"
  top: "inception_4c/pool_proj"
}
layer {
  name: "inception_4c/output"
  type: "Concat"
  bottom: "inception_4c/1x1"
  bottom: "inception_4c/3x3"
  bottom: "inception_4c/5x5"
  bottom: "inception_4c/pool_proj"
  top: "inception_4c/output"
}
layer {
  name: "inception_4d/1x1"
  type: "Convolution"
  bottom: "inception_4c/output"
  top: "inception_4d/1x1"
  param {
    lr_mult: 1
    decay_mult: 1
  }
  param {
    lr_mult: 2
    decay_mult: 0
  }
  convolution_param {
    num_output: 112
    kernel_size: 1
    weight_filler {
      type: "xavier"
      std: 0.03
    }
    bias_filler {
      type: "constant"
      value: 0.2
    }
  }
}
layer {
  name: "inception_4d/relu_1x1"
  type: "ReLU"
  bottom: "inception_4d/1x1"
  top: "inception_4d/1x1"
}
layer {
  name: "inception_4d/3x3_reduce"
  type: "Convolution"
  bottom: "inception_4c/output"
  top: "inception_4d/3x3_reduce"
  param {
    lr_mult: 1
    decay_mult: 1
  }
  param {
    lr_mult: 2
    decay_mult: 0
  }
  convolution_param {
    num_output: 144
    kernel_size: 1
    weight_filler {
      type: "xavier"
      std: 0.09
    }
    bias_filler {
      type: "constant"
      value: 0.2
    }
  }
}
layer {
  name: "inception_4d/relu_3x3_reduce"
  type: "ReLU"
  bottom: "inception_4d/3x3_reduce"
  top: "inception_4d/3x3_reduce"
}
layer {
  name: "inception_4d/3x3"
  type: "Convolution"
  bottom: "inception_4d/3x3_reduce"
  top: "inception_4d/3x3"
  param {
    lr_mult: 1
    decay_mult: 1
  }
  param {
    lr_mult: 2
    decay_mult: 0
  }
  convolution_param {
    num_output: 288
    pad: 1
    kernel_size: 3
    weight_filler {
      type: "xavier"
      std: 0.03
    }
    bias_filler {
      type: "constant"
      value: 0.2
    }
  }
}
layer {
  name: "inception_4d/relu_3x3"
  type: "ReLU"
  bottom: "inception_4d/3x3"
  top: "inception_4d/3x3"
}
layer {
  name: "inception_4d/5x5_reduce"
  type: "Convolution"
  bottom: "inception_4c/output"
  top: "inception_4d/5x5_reduce"
  param {
    lr_mult: 1
    decay_mult: 1
  }
  param {
    lr_mult: 2
    decay_mult: 0
  }
  convolution_param {
    num_output: 32
    kernel_size: 1
    weight_filler {
      type: "xavier"
      std: 0.2
    }
    bias_filler {
      type: "constant"
      value: 0.2
    }
  }
}
layer {
  name: "inception_4d/relu_5x5_reduce"
  type: "ReLU"
  bottom: "inception_4d/5x5_reduce"
  top: "inception_4d/5x5_reduce"
}
layer {
  name: "inception_4d/5x5"
  type: "Convolution"
  bottom: "inception_4d/5x5_reduce"
  top: "inception_4d/5x5"
  param {
    lr_mult: 1
    decay_mult: 1
  }
  param {
    lr_mult: 2
    decay_mult: 0
  }
  convolution_param {
    num_output: 64
    pad: 2
    kernel_size: 5
    weight_filler {
      type: "xavier"
      std: 0.03
    }
    bias_filler {
      type: "constant"
      value: 0.2
    }
  }
}
layer {
  name: "inception_4d/relu_5x5"
  type: "ReLU"
  bottom: "inception_4d/5x5"
  top: "inception_4d/5x5"
}
layer {
  name: "inception_4d/pool"
  type: "Pooling"
  bottom: "inception_4c/output"
  top: "inception_4d/pool"
  pooling_param {
    pool: MAX
    kernel_size: 3
    stride: 1
    pad: 1
  }
}
layer {
  name: "inception_4d/pool_proj"
  type: "Convolution"
  bottom: "inception_4d/pool"
  top: "inception_4d/pool_proj"
  param {
    lr_mult: 1
    decay_mult: 1
  }
  param {
    lr_mult: 2
    decay_mult: 0
  }
  convolution_param {
    num_output: 64
    kernel_size: 1
    weight_filler {
      type: "xavier"
      std: 0.1
    }
    bias_filler {
      type: "constant"
      value: 0.2
    }
  }
}
layer {
  name: "inception_4d/relu_pool_proj"
  type: "ReLU"
  bottom: "inception_4d/pool_proj"
  top: "inception_4d/pool_proj"
}
layer {
  name: "inception_4d/output"
  type: "Concat"
  bottom: "inception_4d/1x1"
  bottom: "inception_4d/3x3"
  bottom: "inception_4d/5x5"
  bottom: "inception_4d/pool_proj"
  top: "inception_4d/output"
}
layer {
  name: "inception_4e/1x1"
  type: "Convolution"
  bottom: "inception_4d/output"
  top: "inception_4e/1x1"
  param {
    lr_mult: 1
    decay_mult: 1
  }
  param {
    lr_mult: 2
    decay_mult: 0
  }
  convolution_param {
    num_output: 256
    kernel_size: 1
    weight_filler {
      type: "xavier"
      std: 0.03
    }
    bias_filler {
      type: "constant"
      value: 0.2
    }
  }
}
layer {
  name: "inception_4e/relu_1x1"
  type: "ReLU"
  bottom: "inception_4e/1x1"
  top: "inception_4e/1x1"
}
layer {
  name: "inception_4e/3x3_reduce"
  type: "Convolution"
  bottom: "inception_4d/output"
  top: "inception_4e/3x3_reduce"
  param {
    lr_mult: 1
    decay_mult: 1
  }
  param {
    lr_mult: 2
    decay_mult: 0
  }
  convolution_param {
    num_output: 160
    kernel_size: 1
    weight_filler {
      type: "xavier"
      std: 0.09
    }
    bias_filler {
      type: "constant"
      value: 0.2
    }
  }
}
layer {
  name: "inception_4e/relu_3x3_reduce"
  type: "ReLU"
  bottom: "inception_4e/3x3_reduce"
  top: "inception_4e/3x3_reduce"
}
layer {
  name: "inception_4e/3x3"
  type: "Convolution"
  bottom: "inception_4e/3x3_reduce"
  top: "inception_4e/3x3"
  param {
    lr_mult: 1
    decay_mult: 1
  }
  param {
    lr_mult: 2
    decay_mult: 0
  }
  convolution_param {
    num_output: 320
    pad: 1
    kernel_size: 3
    weight_filler {
      type: "xavier"
      std: 0.03
    }
    bias_filler {
      type: "constant"
      value: 0.2
    }
  }
}
layer {
  name: "inception_4e/relu_3x3"
  type: "ReLU"
  bottom: "inception_4e/3x3"
  top: "inception_4e/3x3"
}
layer {
  name: "inception_4e/5x5_reduce"
  type: "Convolution"
  bottom: "inception_4d/output"
  top: "inception_4e/5x5_reduce"
  param {
    lr_mult: 1
    decay_mult: 1
  }
  param {
    lr_mult: 2
    decay_mult: 0
  }
  convolution_param {
    num_output: 32
    kernel_size: 1
    weight_filler {
      type: "xavier"
      std: 0.2
    }
    bias_filler {
      type: "constant"
      value: 0.2
    }
  }
}
layer {
  name: "inception_4e/relu_5x5_reduce"
  type: "ReLU"
  bottom: "inception_4e/5x5_reduce"
  top: "inception_4e/5x5_reduce"
}
layer {
  name: "inception_4e/5x5"
  type: "Convolution"
  bottom: "inception_4e/5x5_reduce"
  top: "inception_4e/5x5"
  param {
    lr_mult: 1
    decay_mult: 1
  }
  param {
    lr_mult: 2
    decay_mult: 0
  }
  convolution_param {
    num_output: 128
    pad: 2
    kernel_size: 5
    weight_filler {
      type: "xavier"
      std: 0.03
    }
    bias_filler {
      type: "constant"
      value: 0.2
    }
  }
}
layer {
  name: "inception_4e/relu_5x5"
  type: "ReLU"
  bottom: "inception_4e/5x5"
  top: "inception_4e/5x5"
}
layer {
  name: "inception_4e/pool"
  type: "Pooling"
  bottom: "inception_4d/output"
  top: "inception_4e/pool"
  pooling_param {
    pool: MAX
    kernel_size: 3
    stride: 1
    pad: 1
  }
}
layer {
  name: "inception_4e/pool_proj"
  type: "Convolution"
  bottom: "inception_4e/pool"
  top: "inception_4e/pool_proj"
  param {
    lr_mult: 1
    decay_mult: 1
  }
  param {
    lr_mult: 2
    decay_mult: 0
  }
  convolution_param {
    num_output: 128
    kernel_size: 1
    weight_filler {
      type: "xavier"
      std: 0.1
    }
    bias_filler {
      type: "constant"
      value: 0.2
    }
  }
}
layer {
  name: "inception_4e/relu_pool_proj"
  type: "ReLU"
  bottom: "inception_4e/pool_proj"
  top: "inception_4e/pool_proj"
}
layer {
  name: "inception_4e/output"
  type: "Concat"
  bottom: "inception_4e/1x1"
  bottom: "inception_4e/3x3"
  bottom: "inception_4e/5x5"
  bottom: "inception_4e/pool_proj"
  top: "inception_4e/output"
}
layer {
  name: "pool4/3x3_s2"
  type: "Pooling"
  bottom: "inception_4e/output"
  top: "pool4/3x3_s2"
  pooling_param {
    pool: MAX
    kernel_size: 3
    stride: 2
  }
}
layer {
  name: "inception_5a/1x1"
  type: "Convolution"
  bottom: "pool4/3x3_s2"
  top: "inception_5a/1x1"
  param {
    lr_mult: 1
    decay_mult: 1
  }
  param {
    lr_mult: 2
    decay_mult: 0
  }
  convolution_param {
    num_output: 256
    kernel_size: 1
    weight_filler {
      type: "xavier"
      std: 0.03
    }
    bias_filler {
      type: "constant"
      value: 0.2
    }
  }
}
layer {
  name: "inception_5a/relu_1x1"
  type: "ReLU"
  bottom: "inception_5a/1x1"
  top: "inception_5a/1x1"
}
layer {
  name: "inception_5a/3x3_reduce"
  type: "Convolution"
  bottom: "pool4/3x3_s2"
  top: "inception_5a/3x3_reduce"
  param {
    lr_mult: 1
    decay_mult: 1
  }
  param {
    lr_mult: 2
    decay_mult: 0
  }
  convolution_param {
    num_output: 160
    kernel_size: 1
    weight_filler {
      type: "xavier"
      std: 0.09
    }
    bias_filler {
      type: "constant"
      value: 0.2
    }
  }
}
layer {
  name: "inception_5a/relu_3x3_reduce"
  type: "ReLU"
  bottom: "inception_5a/3x3_reduce"
  top: "inception_5a/3x3_reduce"
}
layer {
  name: "inception_5a/3x3"
  type: "Convolution"
  bottom: "inception_5a/3x3_reduce"
  top: "inception_5a/3x3"
  param {
    lr_mult: 1
    decay_mult: 1
  }
  param {
    lr_mult: 2
    decay_mult: 0
  }
  convolution_param {
    num_output: 320
    pad: 1
    kernel_size: 3
    weight_filler {
      type: "xavier"
      std: 0.03
    }
    bias_filler {
      type: "constant"
      value: 0.2
    }
  }
}
layer {
  name: "inception_5a/relu_3x3"
  type: "ReLU"
  bottom: "inception_5a/3x3"
  top: "inception_5a/3x3"
}
layer {
  name: "inception_5a/5x5_reduce"
  type: "Convolution"
  bottom: "pool4/3x3_s2"
  top: "inception_5a/5
I1130 04:00:07.595638 19834 layer_factory.hpp:77] Creating layer data
I1130 04:00:07.636279 19834 db_lmdb.cpp:35] Opened lmdb /idiap/temp/lmedina/fine-tuning/data/Picturesque/train_lmdb
I1130 04:00:07.671751 19834 net.cpp:84] Creating Layer data
I1130 04:00:07.671769 19834 net.cpp:380] data -> data
I1130 04:00:07.671794 19834 net.cpp:380] data -> label
I1130 04:00:07.671809 19834 data_transformer.cpp:25] Loading mean file from: /idiap/temp/lmedina/fine-tuning/googlenet_places365/places365CNN_mean.binaryproto
I1130 04:00:07.680549 19834 data_layer.cpp:45] output data size: 32,3,224,224
I1130 04:00:07.714071 19834 net.cpp:122] Setting up data
I1130 04:00:07.714104 19834 net.cpp:129] Top shape: 32 3 224 224 (4816896)
I1130 04:00:07.714112 19834 net.cpp:129] Top shape: 32 (32)
I1130 04:00:07.714117 19834 net.cpp:137] Memory required for data: 19267712
I1130 04:00:07.714126 19834 layer_factory.hpp:77] Creating layer conv1/7x7_s2
I1130 04:00:07.714148 19834 net.cpp:84] Creating Layer conv1/7x7_s2
I1130 04:00:07.714155 19834 net.cpp:406] conv1/7x7_s2 <- data
I1130 04:00:07.714169 19834 net.cpp:380] conv1/7x7_s2 -> conv1/7x7_s2
I1130 04:00:07.714809 19834 net.cpp:122] Setting up conv1/7x7_s2
I1130 04:00:07.714820 19834 net.cpp:129] Top shape: 32 64 112 112 (25690112)
I1130 04:00:07.714824 19834 net.cpp:137] Memory required for data: 122028160
I1130 04:00:07.714836 19834 layer_factory.hpp:77] Creating layer conv1/relu_7x7
I1130 04:00:07.714844 19834 net.cpp:84] Creating Layer conv1/relu_7x7
I1130 04:00:07.714849 19834 net.cpp:406] conv1/relu_7x7 <- conv1/7x7_s2
I1130 04:00:07.714855 19834 net.cpp:367] conv1/relu_7x7 -> conv1/7x7_s2 (in-place)
I1130 04:00:07.714864 19834 net.cpp:122] Setting up conv1/relu_7x7
I1130 04:00:07.714872 19834 net.cpp:129] Top shape: 32 64 112 112 (25690112)
I1130 04:00:07.714876 19834 net.cpp:137] Memory required for data: 224788608
I1130 04:00:07.714880 19834 layer_factory.hpp:77] Creating layer pool1/3x3_s2
I1130 04:00:07.714889 19834 net.cpp:84] Creating Layer pool1/3x3_s2
I1130 04:00:07.714893 19834 net.cpp:406] pool1/3x3_s2 <- conv1/7x7_s2
I1130 04:00:07.714898 19834 net.cpp:380] pool1/3x3_s2 -> pool1/3x3_s2
I1130 04:00:07.714980 19834 net.cpp:122] Setting up pool1/3x3_s2
I1130 04:00:07.714988 19834 net.cpp:129] Top shape: 32 64 56 56 (6422528)
I1130 04:00:07.714993 19834 net.cpp:137] Memory required for data: 250478720
I1130 04:00:07.714998 19834 layer_factory.hpp:77] Creating layer pool1/norm1
I1130 04:00:07.715008 19834 net.cpp:84] Creating Layer pool1/norm1
I1130 04:00:07.715013 19834 net.cpp:406] pool1/norm1 <- pool1/3x3_s2
I1130 04:00:07.715019 19834 net.cpp:380] pool1/norm1 -> pool1/norm1
I1130 04:00:07.715049 19834 net.cpp:122] Setting up pool1/norm1
I1130 04:00:07.715055 19834 net.cpp:129] Top shape: 32 64 56 56 (6422528)
I1130 04:00:07.715060 19834 net.cpp:137] Memory required for data: 276168832
I1130 04:00:07.715064 19834 layer_factory.hpp:77] Creating layer conv2/3x3_reduce
I1130 04:00:07.715072 19834 net.cpp:84] Creating Layer conv2/3x3_reduce
I1130 04:00:07.715077 19834 net.cpp:406] conv2/3x3_reduce <- pool1/norm1
I1130 04:00:07.715083 19834 net.cpp:380] conv2/3x3_reduce -> conv2/3x3_reduce
I1130 04:00:07.717423 19834 net.cpp:122] Setting up conv2/3x3_reduce
I1130 04:00:07.717439 19834 net.cpp:129] Top shape: 32 64 56 56 (6422528)
I1130 04:00:07.717444 19834 net.cpp:137] Memory required for data: 301858944
I1130 04:00:07.717455 19834 layer_factory.hpp:77] Creating layer conv2/relu_3x3_reduce
I1130 04:00:07.717463 19834 net.cpp:84] Creating Layer conv2/relu_3x3_reduce
I1130 04:00:07.717468 19834 net.cpp:406] conv2/relu_3x3_reduce <- conv2/3x3_reduce
I1130 04:00:07.717475 19834 net.cpp:367] conv2/relu_3x3_reduce -> conv2/3x3_reduce (in-place)
I1130 04:00:07.717483 19834 net.cpp:122] Setting up conv2/relu_3x3_reduce
I1130 04:00:07.717489 19834 net.cpp:129] Top shape: 32 64 56 56 (6422528)
I1130 04:00:07.717494 19834 net.cpp:137] Memory required for data: 327549056
I1130 04:00:07.717497 19834 layer_factory.hpp:77] Creating layer conv2/3x3
I1130 04:00:07.717505 19834 net.cpp:84] Creating Layer conv2/3x3
I1130 04:00:07.717510 19834 net.cpp:406] conv2/3x3 <- conv2/3x3_reduce
I1130 04:00:07.717516 19834 net.cpp:380] conv2/3x3 -> conv2/3x3
I1130 04:00:07.718658 19834 net.cpp:122] Setting up conv2/3x3
I1130 04:00:07.718670 19834 net.cpp:129] Top shape: 32 192 56 56 (19267584)
I1130 04:00:07.718675 19834 net.cpp:137] Memory required for data: 404619392
I1130 04:00:07.718684 19834 layer_factory.hpp:77] Creating layer conv2/relu_3x3
I1130 04:00:07.718693 19834 net.cpp:84] Creating Layer conv2/relu_3x3
I1130 04:00:07.718698 19834 net.cpp:406] conv2/relu_3x3 <- conv2/3x3
I1130 04:00:07.718703 19834 net.cpp:367] conv2/relu_3x3 -> conv2/3x3 (in-place)
I1130 04:00:07.718710 19834 net.cpp:122] Setting up conv2/relu_3x3
I1130 04:00:07.718716 19834 net.cpp:129] Top shape: 32 192 56 56 (19267584)
I1130 04:00:07.718720 19834 net.cpp:137] Memory required for data: 481689728
I1130 04:00:07.718725 19834 layer_factory.hpp:77] Creating layer conv2/norm2
I1130 04:00:07.718731 19834 net.cpp:84] Creating Layer conv2/norm2
I1130 04:00:07.718736 19834 net.cpp:406] conv2/norm2 <- conv2/3x3
I1130 04:00:07.718741 19834 net.cpp:380] conv2/norm2 -> conv2/norm2
I1130 04:00:07.718770 19834 net.cpp:122] Setting up conv2/norm2
I1130 04:00:07.718777 19834 net.cpp:129] Top shape: 32 192 56 56 (19267584)
I1130 04:00:07.718781 19834 net.cpp:137] Memory required for data: 558760064
I1130 04:00:07.718786 19834 layer_factory.hpp:77] Creating layer pool2/3x3_s2
I1130 04:00:07.718792 19834 net.cpp:84] Creating Layer pool2/3x3_s2
I1130 04:00:07.718796 19834 net.cpp:406] pool2/3x3_s2 <- conv2/norm2
I1130 04:00:07.718802 19834 net.cpp:380] pool2/3x3_s2 -> pool2/3x3_s2
I1130 04:00:07.718830 19834 net.cpp:122] Setting up pool2/3x3_s2
I1130 04:00:07.718842 19834 net.cpp:129] Top shape: 32 192 28 28 (4816896)
I1130 04:00:07.718845 19834 net.cpp:137] Memory required for data: 578027648
I1130 04:00:07.718849 19834 layer_factory.hpp:77] Creating layer pool2/3x3_s2_pool2/3x3_s2_0_split
I1130 04:00:07.718857 19834 net.cpp:84] Creating Layer pool2/3x3_s2_pool2/3x3_s2_0_split
I1130 04:00:07.718860 19834 net.cpp:406] pool2/3x3_s2_pool2/3x3_s2_0_split <- pool2/3x3_s2
I1130 04:00:07.718866 19834 net.cpp:380] pool2/3x3_s2_pool2/3x3_s2_0_split -> pool2/3x3_s2_pool2/3x3_s2_0_split_0
I1130 04:00:07.718874 19834 net.cpp:380] pool2/3x3_s2_pool2/3x3_s2_0_split -> pool2/3x3_s2_pool2/3x3_s2_0_split_1
I1130 04:00:07.718880 19834 net.cpp:380] pool2/3x3_s2_pool2/3x3_s2_0_split -> pool2/3x3_s2_pool2/3x3_s2_0_split_2
I1130 04:00:07.718888 19834 net.cpp:380] pool2/3x3_s2_pool2/3x3_s2_0_split -> pool2/3x3_s2_pool2/3x3_s2_0_split_3
I1130 04:00:07.718925 19834 net.cpp:122] Setting up pool2/3x3_s2_pool2/3x3_s2_0_split
I1130 04:00:07.718932 19834 net.cpp:129] Top shape: 32 192 28 28 (4816896)
I1130 04:00:07.718938 19834 net.cpp:129] Top shape: 32 192 28 28 (4816896)
I1130 04:00:07.718943 19834 net.cpp:129] Top shape: 32 192 28 28 (4816896)
I1130 04:00:07.718948 19834 net.cpp:129] Top shape: 32 192 28 28 (4816896)
I1130 04:00:07.718952 19834 net.cpp:137] Memory required for data: 655097984
I1130 04:00:07.718956 19834 layer_factory.hpp:77] Creating layer inception_3a/1x1
I1130 04:00:07.718966 19834 net.cpp:84] Creating Layer inception_3a/1x1
I1130 04:00:07.718971 19834 net.cpp:406] inception_3a/1x1 <- pool2/3x3_s2_pool2/3x3_s2_0_split_0
I1130 04:00:07.718976 19834 net.cpp:380] inception_3a/1x1 -> inception_3a/1x1
I1130 04:00:07.719702 19834 net.cpp:122] Setting up inception_3a/1x1
I1130 04:00:07.719713 19834 net.cpp:129] Top shape: 32 64 28 28 (1605632)
I1130 04:00:07.719718 19834 net.cpp:137] Memory required for data: 661520512
I1130 04:00:07.719725 19834 layer_factory.hpp:77] Creating layer inception_3a/relu_1x1
I1130 04:00:07.719732 19834 net.cpp:84] Creating Layer inception_3a/relu_1x1
I1130 04:00:07.719738 19834 net.cpp:406] inception_3a/relu_1x1 <- inception_3a/1x1
I1130 04:00:07.719743 19834 net.cpp:367] inception_3a/relu_1x1 -> inception_3a/1x1 (in-place)
I1130 04:00:07.719751 19834 net.cpp:122] Setting up inception_3a/relu_1x1
I1130 04:00:07.719756 19834 net.cpp:129] Top shape: 32 64 28 28 (1605632)
I1130 04:00:07.719761 19834 net.cpp:137] Memory required for data: 667943040
I1130 04:00:07.719765 19834 layer_factory.hpp:77] Creating layer inception_3a/3x3_reduce
I1130 04:00:07.719772 19834 net.cpp:84] Creating Layer inception_3a/3x3_reduce
I1130 04:00:07.719777 19834 net.cpp:406] inception_3a/3x3_reduce <- pool2/3x3_s2_pool2/3x3_s2_0_split_1
I1130 04:00:07.719784 19834 net.cpp:380] inception_3a/3x3_reduce -> inception_3a/3x3_reduce
I1130 04:00:07.720405 19834 net.cpp:122] Setting up inception_3a/3x3_reduce
I1130 04:00:07.720417 19834 net.cpp:129] Top shape: 32 96 28 28 (2408448)
I1130 04:00:07.720420 19834 net.cpp:137] Memory required for data: 677576832
I1130 04:00:07.720432 19834 layer_factory.hpp:77] Creating layer inception_3a/relu_3x3_reduce
I1130 04:00:07.720438 19834 net.cpp:84] Creating Layer inception_3a/relu_3x3_reduce
I1130 04:00:07.720443 19834 net.cpp:406] inception_3a/relu_3x3_reduce <- inception_3a/3x3_reduce
I1130 04:00:07.720449 19834 net.cpp:367] inception_3a/relu_3x3_reduce -> inception_3a/3x3_reduce (in-place)
I1130 04:00:07.720458 19834 net.cpp:122] Setting up inception_3a/relu_3x3_reduce
I1130 04:00:07.720463 19834 net.cpp:129] Top shape: 32 96 28 28 (2408448)
I1130 04:00:07.720468 19834 net.cpp:137] Memory required for data: 687210624
I1130 04:00:07.720472 19834 layer_factory.hpp:77] Creating layer inception_3a/3x3
I1130 04:00:07.720481 19834 net.cpp:84] Creating Layer inception_3a/3x3
I1130 04:00:07.720485 19834 net.cpp:406] inception_3a/3x3 <- inception_3a/3x3_reduce
I1130 04:00:07.720492 19834 net.cpp:380] inception_3a/3x3 -> inception_3a/3x3
I1130 04:00:07.721246 19834 net.cpp:122] Setting up inception_3a/3x3
I1130 04:00:07.721254 19834 net.cpp:129] Top shape: 32 128 28 28 (3211264)
I1130 04:00:07.721262 19834 net.cpp:137] Memory required for data: 700055680
I1130 04:00:07.721269 19834 layer_factory.hpp:77] Creating layer inception_3a/relu_3x3
I1130 04:00:07.721276 19834 net.cpp:84] Creating Layer inception_3a/relu_3x3
I1130 04:00:07.721282 19834 net.cpp:406] inception_3a/relu_3x3 <- inception_3a/3x3
I1130 04:00:07.721287 19834 net.cpp:367] inception_3a/relu_3x3 -> inception_3a/3x3 (in-place)
I1130 04:00:07.721294 19834 net.cpp:122] Setting up inception_3a/relu_3x3
I1130 04:00:07.721300 19834 net.cpp:129] Top shape: 32 128 28 28 (3211264)
I1130 04:00:07.721304 19834 net.cpp:137] Memory required for data: 712900736
I1130 04:00:07.721309 19834 layer_factory.hpp:77] Creating layer inception_3a/5x5_reduce
I1130 04:00:07.721318 19834 net.cpp:84] Creating Layer inception_3a/5x5_reduce
I1130 04:00:07.721323 19834 net.cpp:406] inception_3a/5x5_reduce <- pool2/3x3_s2_pool2/3x3_s2_0_split_2
I1130 04:00:07.721328 19834 net.cpp:380] inception_3a/5x5_reduce -> inception_3a/5x5_reduce
I1130 04:00:07.721513 19834 net.cpp:122] Setting up inception_3a/5x5_reduce
I1130 04:00:07.721523 19834 net.cpp:129] Top shape: 32 16 28 28 (401408)
I1130 04:00:07.721527 19834 net.cpp:137] Memory required for data: 714506368
I1130 04:00:07.721534 19834 layer_factory.hpp:77] Creating layer inception_3a/relu_5x5_reduce
I1130 04:00:07.721540 19834 net.cpp:84] Creating Layer inception_3a/relu_5x5_reduce
I1130 04:00:07.721545 19834 net.cpp:406] inception_3a/relu_5x5_reduce <- inception_3a/5x5_reduce
I1130 04:00:07.721551 19834 net.cpp:367] inception_3a/relu_5x5_reduce -> inception_3a/5x5_reduce (in-place)
I1130 04:00:07.721559 19834 net.cpp:122] Setting up inception_3a/relu_5x5_reduce
I1130 04:00:07.721565 19834 net.cpp:129] Top shape: 32 16 28 28 (401408)
I1130 04:00:07.721568 19834 net.cpp:137] Memory required for data: 716112000
I1130 04:00:07.721572 19834 layer_factory.hpp:77] Creating layer inception_3a/5x5
I1130 04:00:07.721580 19834 net.cpp:84] Creating Layer inception_3a/5x5
I1130 04:00:07.721585 19834 net.cpp:406] inception_3a/5x5 <- inception_3a/5x5_reduce
I1130 04:00:07.721591 19834 net.cpp:380] inception_3a/5x5 -> inception_3a/5x5
I1130 04:00:07.721822 19834 net.cpp:122] Setting up inception_3a/5x5
I1130 04:00:07.721829 19834 net.cpp:129] Top shape: 32 32 28 28 (802816)
I1130 04:00:07.721833 19834 net.cpp:137] Memory required for data: 719323264
I1130 04:00:07.721840 19834 layer_factory.hpp:77] Creating layer inception_3a/relu_5x5
I1130 04:00:07.721846 19834 net.cpp:84] Creating Layer inception_3a/relu_5x5
I1130 04:00:07.721851 19834 net.cpp:406] inception_3a/relu_5x5 <- inception_3a/5x5
I1130 04:00:07.721858 19834 net.cpp:367] inception_3a/relu_5x5 -> inception_3a/5x5 (in-place)
I1130 04:00:07.721863 19834 net.cpp:122] Setting up inception_3a/relu_5x5
I1130 04:00:07.721869 19834 net.cpp:129] Top shape: 32 32 28 28 (802816)
I1130 04:00:07.721874 19834 net.cpp:137] Memory required for data: 722534528
I1130 04:00:07.721877 19834 layer_factory.hpp:77] Creating layer inception_3a/pool
I1130 04:00:07.721884 19834 net.cpp:84] Creating Layer inception_3a/pool
I1130 04:00:07.721889 19834 net.cpp:406] inception_3a/pool <- pool2/3x3_s2_pool2/3x3_s2_0_split_3
I1130 04:00:07.721895 19834 net.cpp:380] inception_3a/pool -> inception_3a/pool
I1130 04:00:07.721925 19834 net.cpp:122] Setting up inception_3a/pool
I1130 04:00:07.721932 19834 net.cpp:129] Top shape: 32 192 28 28 (4816896)
I1130 04:00:07.721936 19834 net.cpp:137] Memory required for data: 741802112
I1130 04:00:07.721940 19834 layer_factory.hpp:77] Creating layer inception_3a/pool_proj
I1130 04:00:07.721948 19834 net.cpp:84] Creating Layer inception_3a/pool_proj
I1130 04:00:07.721954 19834 net.cpp:406] inception_3a/pool_proj <- inception_3a/pool
I1130 04:00:07.721962 19834 net.cpp:380] inception_3a/pool_proj -> inception_3a/pool_proj
I1130 04:00:07.722154 19834 net.cpp:122] Setting up inception_3a/pool_proj
I1130 04:00:07.722162 19834 net.cpp:129] Top shape: 32 32 28 28 (802816)
I1130 04:00:07.722167 19834 net.cpp:137] Memory required for data: 745013376
I1130 04:00:07.722177 19834 layer_factory.hpp:77] Creating layer inception_3a/relu_pool_proj
I1130 04:00:07.722184 19834 net.cpp:84] Creating Layer inception_3a/relu_pool_proj
I1130 04:00:07.722189 19834 net.cpp:406] inception_3a/relu_pool_proj <- inception_3a/pool_proj
I1130 04:00:07.722195 19834 net.cpp:367] inception_3a/relu_pool_proj -> inception_3a/pool_proj (in-place)
I1130 04:00:07.722203 19834 net.cpp:122] Setting up inception_3a/relu_pool_proj
I1130 04:00:07.722208 19834 net.cpp:129] Top shape: 32 32 28 28 (802816)
I1130 04:00:07.722213 19834 net.cpp:137] Memory required for data: 748224640
I1130 04:00:07.722216 19834 layer_factory.hpp:77] Creating layer inception_3a/output
I1130 04:00:07.722223 19834 net.cpp:84] Creating Layer inception_3a/output
I1130 04:00:07.722228 19834 net.cpp:406] inception_3a/output <- inception_3a/1x1
I1130 04:00:07.722232 19834 net.cpp:406] inception_3a/output <- inception_3a/3x3
I1130 04:00:07.722237 19834 net.cpp:406] inception_3a/output <- inception_3a/5x5
I1130 04:00:07.722242 19834 net.cpp:406] inception_3a/output <- inception_3a/pool_proj
I1130 04:00:07.722249 19834 net.cpp:380] inception_3a/output -> inception_3a/output
I1130 04:00:07.722270 19834 net.cpp:122] Setting up inception_3a/output
I1130 04:00:07.722276 19834 net.cpp:129] Top shape: 32 256 28 28 (6422528)
I1130 04:00:07.722292 19834 net.cpp:137] Memory required for data: 773914752
I1130 04:00:07.722296 19834 layer_factory.hpp:77] Creating layer inception_3a/output_inception_3a/output_0_split
I1130 04:00:07.722304 19834 net.cpp:84] Creating Layer inception_3a/output_inception_3a/output_0_split
I1130 04:00:07.722308 19834 net.cpp:406] inception_3a/output_inception_3a/output_0_split <- inception_3a/output
I1130 04:00:07.722314 19834 net.cpp:380] inception_3a/output_inception_3a/output_0_split -> inception_3a/output_inception_3a/output_0_split_0
I1130 04:00:07.722322 19834 net.cpp:380] inception_3a/output_inception_3a/output_0_split -> inception_3a/output_inception_3a/output_0_split_1
I1130 04:00:07.722329 19834 net.cpp:380] inception_3a/output_inception_3a/output_0_split -> inception_3a/output_inception_3a/output_0_split_2
I1130 04:00:07.722337 19834 net.cpp:380] inception_3a/output_inception_3a/output_0_split -> inception_3a/output_inception_3a/output_0_split_3
I1130 04:00:07.722379 19834 net.cpp:122] Setting up inception_3a/output_inception_3a/output_0_split
I1130 04:00:07.722386 19834 net.cpp:129] Top shape: 32 256 28 28 (6422528)
I1130 04:00:07.722391 19834 net.cpp:129] Top shape: 32 256 28 28 (6422528)
I1130 04:00:07.722396 19834 net.cpp:129] Top shape: 32 256 28 28 (6422528)
I1130 04:00:07.722401 19834 net.cpp:129] Top shape: 32 256 28 28 (6422528)
I1130 04:00:07.722405 19834 net.cpp:137] Memory required for data: 876675200
I1130 04:00:07.722409 19834 layer_factory.hpp:77] Creating layer inception_3b/1x1
I1130 04:00:07.722419 19834 net.cpp:84] Creating Layer inception_3b/1x1
I1130 04:00:07.722424 19834 net.cpp:406] inception_3b/1x1 <- inception_3a/output_inception_3a/output_0_split_0
I1130 04:00:07.722429 19834 net.cpp:380] inception_3b/1x1 -> inception_3b/1x1
I1130 04:00:07.722764 19834 net.cpp:122] Setting up inception_3b/1x1
I1130 04:00:07.722772 19834 net.cpp:129] Top shape: 32 128 28 28 (3211264)
I1130 04:00:07.722776 19834 net.cpp:137] Memory required for data: 889520256
I1130 04:00:07.722784 19834 layer_factory.hpp:77] Creating layer inception_3b/relu_1x1
I1130 04:00:07.722790 19834 net.cpp:84] Creating Layer inception_3b/relu_1x1
I1130 04:00:07.722795 19834 net.cpp:406] inception_3b/relu_1x1 <- inception_3b/1x1
I1130 04:00:07.722800 19834 net.cpp:367] inception_3b/relu_1x1 -> inception_3b/1x1 (in-place)
I1130 04:00:07.722806 19834 net.cpp:122] Setting up inception_3b/relu_1x1
I1130 04:00:07.722812 19834 net.cpp:129] Top shape: 32 128 28 28 (3211264)
I1130 04:00:07.722816 19834 net.cpp:137] Memory required for data: 902365312
I1130 04:00:07.722820 19834 layer_factory.hpp:77] Creating layer inception_3b/3x3_reduce
I1130 04:00:07.722828 19834 net.cpp:84] Creating Layer inception_3b/3x3_reduce
I1130 04:00:07.722836 19834 net.cpp:406] inception_3b/3x3_reduce <- inception_3a/output_inception_3a/output_0_split_1
I1130 04:00:07.722842 19834 net.cpp:380] inception_3b/3x3_reduce -> inception_3b/3x3_reduce
I1130 04:00:07.723171 19834 net.cpp:122] Setting up inception_3b/3x3_reduce
I1130 04:00:07.723181 19834 net.cpp:129] Top shape: 32 128 28 28 (3211264)
I1130 04:00:07.723184 19834 net.cpp:137] Memory required for data: 915210368
I1130 04:00:07.723191 19834 layer_factory.hpp:77] Creating layer inception_3b/relu_3x3_reduce
I1130 04:00:07.723197 19834 net.cpp:84] Creating Layer inception_3b/relu_3x3_reduce
I1130 04:00:07.723202 19834 net.cpp:406] inception_3b/relu_3x3_reduce <- inception_3b/3x3_reduce
I1130 04:00:07.723208 19834 net.cpp:367] inception_3b/relu_3x3_reduce -> inception_3b/3x3_reduce (in-place)
I1130 04:00:07.723215 19834 net.cpp:122] Setting up inception_3b/relu_3x3_reduce
I1130 04:00:07.723220 19834 net.cpp:129] Top shape: 32 128 28 28 (3211264)
I1130 04:00:07.723224 19834 net.cpp:137] Memory required for data: 928055424
I1130 04:00:07.723228 19834 layer_factory.hpp:77] Creating layer inception_3b/3x3
I1130 04:00:07.723237 19834 net.cpp:84] Creating Layer inception_3b/3x3
I1130 04:00:07.723242 19834 net.cpp:406] inception_3b/3x3 <- inception_3b/3x3_reduce
I1130 04:00:07.723248 19834 net.cpp:380] inception_3b/3x3 -> inception_3b/3x3
I1130 04:00:07.724947 19834 net.cpp:122] Setting up inception_3b/3x3
I1130 04:00:07.724957 19834 net.cpp:129] Top shape: 32 192 28 28 (4816896)
I1130 04:00:07.724962 19834 net.cpp:137] Memory required for data: 947323008
I1130 04:00:07.724968 19834 layer_factory.hpp:77] Creating layer inception_3b/relu_3x3
I1130 04:00:07.724977 19834 net.cpp:84] Creating Layer inception_3b/relu_3x3
I1130 04:00:07.724983 19834 net.cpp:406] inception_3b/relu_3x3 <- inception_3b/3x3
I1130 04:00:07.724989 19834 net.cpp:367] inception_3b/relu_3x3 -> inception_3b/3x3 (in-place)
I1130 04:00:07.724997 19834 net.cpp:122] Setting up inception_3b/relu_3x3
I1130 04:00:07.725003 19834 net.cpp:129] Top shape: 32 192 28 28 (4816896)
I1130 04:00:07.725008 19834 net.cpp:137] Memory required for data: 966590592
I1130 04:00:07.725011 19834 layer_factory.hpp:77] Creating layer inception_3b/5x5_reduce
I1130 04:00:07.725019 19834 net.cpp:84] Creating Layer inception_3b/5x5_reduce
I1130 04:00:07.725024 19834 net.cpp:406] inception_3b/5x5_reduce <- inception_3a/output_inception_3a/output_0_split_2
I1130 04:00:07.725030 19834 net.cpp:380] inception_3b/5x5_reduce -> inception_3b/5x5_reduce
I1130 04:00:07.725239 19834 net.cpp:122] Setting up inception_3b/5x5_reduce
I1130 04:00:07.725247 19834 net.cpp:129] Top shape: 32 32 28 28 (802816)
I1130 04:00:07.725251 19834 net.cpp:137] Memory required for data: 969801856
I1130 04:00:07.725257 19834 layer_factory.hpp:77] Creating layer inception_3b/relu_5x5_reduce
I1130 04:00:07.725263 19834 net.cpp:84] Creating Layer inception_3b/relu_5x5_reduce
I1130 04:00:07.725268 19834 net.cpp:406] inception_3b/relu_5x5_reduce <- inception_3b/5x5_reduce
I1130 04:00:07.725275 19834 net.cpp:367] inception_3b/relu_5x5_reduce -> inception_3b/5x5_reduce (in-place)
I1130 04:00:07.725281 19834 net.cpp:122] Setting up inception_3b/relu_5x5_reduce
I1130 04:00:07.725287 19834 net.cpp:129] Top shape: 32 32 28 28 (802816)
I1130 04:00:07.725291 19834 net.cpp:137] Memory required for data: 973013120
I1130 04:00:07.725296 19834 layer_factory.hpp:77] Creating layer inception_3b/5x5
I1130 04:00:07.725303 19834 net.cpp:84] Creating Layer inception_3b/5x5
I1130 04:00:07.725307 19834 net.cpp:406] inception_3b/5x5 <- inception_3b/5x5_reduce
I1130 04:00:07.725313 19834 net.cpp:380] inception_3b/5x5 -> inception_3b/5x5
I1130 04:00:07.726235 19834 net.cpp:122] Setting up inception_3b/5x5
I1130 04:00:07.726245 19834 net.cpp:129] Top shape: 32 96 28 28 (2408448)
I1130 04:00:07.726250 19834 net.cpp:137] Memory required for data: 982646912
I1130 04:00:07.726256 19834 layer_factory.hpp:77] Creating layer inception_3b/relu_5x5
I1130 04:00:07.726263 19834 net.cpp:84] Creating Layer inception_3b/relu_5x5
I1130 04:00:07.726269 19834 net.cpp:406] inception_3b/relu_5x5 <- inception_3b/5x5
I1130 04:00:07.726277 19834 net.cpp:367] inception_3b/relu_5x5 -> inception_3b/5x5 (in-place)
I1130 04:00:07.726295 19834 net.cpp:122] Setting up inception_3b/relu_5x5
I1130 04:00:07.726302 19834 net.cpp:129] Top shape: 32 96 28 28 (2408448)
I1130 04:00:07.726306 19834 net.cpp:137] Memory required for data: 992280704
I1130 04:00:07.726310 19834 layer_factory.hpp:77] Creating layer inception_3b/pool
I1130 04:00:07.726316 19834 net.cpp:84] Creating Layer inception_3b/pool
I1130 04:00:07.726322 19834 net.cpp:406] inception_3b/pool <- inception_3a/output_inception_3a/output_0_split_3
I1130 04:00:07.726328 19834 net.cpp:380] inception_3b/pool -> inception_3b/pool
I1130 04:00:07.726358 19834 net.cpp:122] Setting up inception_3b/pool
I1130 04:00:07.726366 19834 net.cpp:129] Top shape: 32 256 28 28 (6422528)
I1130 04:00:07.726371 19834 net.cpp:137] Memory required for data: 1017970816
I1130 04:00:07.726373 19834 layer_factory.hpp:77] Creating layer inception_3b/pool_proj
I1130 04:00:07.726382 19834 net.cpp:84] Creating Layer inception_3b/pool_proj
I1130 04:00:07.726388 19834 net.cpp:406] inception_3b/pool_proj <- inception_3b/pool
I1130 04:00:07.726395 19834 net.cpp:380] inception_3b/pool_proj -> inception_3b/pool_proj
I1130 04:00:07.726642 19834 net.cpp:122] Setting up inception_3b/pool_proj
I1130 04:00:07.726650 19834 net.cpp:129] Top shape: 32 64 28 28 (1605632)
I1130 04:00:07.726655 19834 net.cpp:137] Memory required for data: 1024393344
I1130 04:00:07.726661 19834 layer_factory.hpp:77] Creating layer inception_3b/relu_pool_proj
I1130 04:00:07.726667 19834 net.cpp:84] Creating Layer inception_3b/relu_pool_proj
I1130 04:00:07.726672 19834 net.cpp:406] inception_3b/relu_pool_proj <- inception_3b/pool_proj
I1130 04:00:07.726678 19834 net.cpp:367] inception_3b/relu_pool_proj -> inception_3b/pool_proj (in-place)
I1130 04:00:07.726686 19834 net.cpp:122] Setting up inception_3b/relu_pool_proj
I1130 04:00:07.726691 19834 net.cpp:129] Top shape: 32 64 28 28 (1605632)
I1130 04:00:07.726696 19834 net.cpp:137] Memory required for data: 1030815872
I1130 04:00:07.726699 19834 layer_factory.hpp:77] Creating layer inception_3b/output
I1130 04:00:07.726706 19834 net.cpp:84] Creating Layer inception_3b/output
I1130 04:00:07.726709 19834 net.cpp:406] inception_3b/output <- inception_3b/1x1
I1130 04:00:07.726716 19834 net.cpp:406] inception_3b/output <- inception_3b/3x3
I1130 04:00:07.726721 19834 net.cpp:406] inception_3b/output <- inception_3b/5x5
I1130 04:00:07.726725 19834 net.cpp:406] inception_3b/output <- inception_3b/pool_proj
I1130 04:00:07.726732 19834 net.cpp:380] inception_3b/output -> inception_3b/output
I1130 04:00:07.726752 19834 net.cpp:122] Setting up inception_3b/output
I1130 04:00:07.726759 19834 net.cpp:129] Top shape: 32 480 28 28 (12042240)
I1130 04:00:07.726764 19834 net.cpp:137] Memory required for data: 1078984832
I1130 04:00:07.726768 19834 layer_factory.hpp:77] Creating layer pool3/3x3_s2
I1130 04:00:07.726774 19834 net.cpp:84] Creating Layer pool3/3x3_s2
I1130 04:00:07.726779 19834 net.cpp:406] pool3/3x3_s2 <- inception_3b/output
I1130 04:00:07.726785 19834 net.cpp:380] pool3/3x3_s2 -> pool3/3x3_s2
I1130 04:00:07.726812 19834 net.cpp:122] Setting up pool3/3x3_s2
I1130 04:00:07.726819 19834 net.cpp:129] Top shape: 32 480 14 14 (3010560)
I1130 04:00:07.726824 19834 net.cpp:137] Memory required for data: 1091027072
I1130 04:00:07.726827 19834 layer_factory.hpp:77] Creating layer pool3/3x3_s2_pool3/3x3_s2_0_split
I1130 04:00:07.726835 19834 net.cpp:84] Creating Layer pool3/3x3_s2_pool3/3x3_s2_0_split
I1130 04:00:07.726840 19834 net.cpp:406] pool3/3x3_s2_pool3/3x3_s2_0_split <- pool3/3x3_s2
I1130 04:00:07.726845 19834 net.cpp:380] pool3/3x3_s2_pool3/3x3_s2_0_split -> pool3/3x3_s2_pool3/3x3_s2_0_split_0
I1130 04:00:07.726851 19834 net.cpp:380] pool3/3x3_s2_pool3/3x3_s2_0_split -> pool3/3x3_s2_pool3/3x3_s2_0_split_1
I1130 04:00:07.726858 19834 net.cpp:380] pool3/3x3_s2_pool3/3x3_s2_0_split -> pool3/3x3_s2_pool3/3x3_s2_0_split_2
I1130 04:00:07.726866 19834 net.cpp:380] pool3/3x3_s2_pool3/3x3_s2_0_split -> pool3/3x3_s2_pool3/3x3_s2_0_split_3
I1130 04:00:07.726907 19834 net.cpp:122] Setting up pool3/3x3_s2_pool3/3x3_s2_0_split
I1130 04:00:07.726913 19834 net.cpp:129] Top shape: 32 480 14 14 (3010560)
I1130 04:00:07.726919 19834 net.cpp:129] Top shape: 32 480 14 14 (3010560)
I1130 04:00:07.726924 19834 net.cpp:129] Top shape: 32 480 14 14 (3010560)
I1130 04:00:07.726929 19834 net.cpp:129] Top shape: 32 480 14 14 (3010560)
I1130 04:00:07.726933 19834 net.cpp:137] Memory required for data: 1139196032
I1130 04:00:07.726938 19834 layer_factory.hpp:77] Creating layer inception_4a/1x1
I1130 04:00:07.726945 19834 net.cpp:84] Creating Layer inception_4a/1x1
I1130 04:00:07.726950 19834 net.cpp:406] inception_4a/1x1 <- pool3/3x3_s2_pool3/3x3_s2_0_split_0
I1130 04:00:07.726958 19834 net.cpp:380] inception_4a/1x1 -> inception_4a/1x1
I1130 04:00:07.727607 19834 net.cpp:122] Setting up inception_4a/1x1
I1130 04:00:07.727615 19834 net.cpp:129] Top shape: 32 192 14 14 (1204224)
I1130 04:00:07.727619 19834 net.cpp:137] Memory required for data: 1144012928
I1130 04:00:07.727625 19834 layer_factory.hpp:77] Creating layer inception_4a/relu_1x1
I1130 04:00:07.727632 19834 net.cpp:84] Creating Layer inception_4a/relu_1x1
I1130 04:00:07.727638 19834 net.cpp:406] inception_4a/relu_1x1 <- inception_4a/1x1
I1130 04:00:07.727643 19834 net.cpp:367] inception_4a/relu_1x1 -> inception_4a/1x1 (in-place)
I1130 04:00:07.727649 19834 net.cpp:122] Setting up inception_4a/relu_1x1
I1130 04:00:07.727655 19834 net.cpp:129] Top shape: 32 192 14 14 (1204224)
I1130 04:00:07.727659 19834 net.cpp:137] Memory required for data: 1148829824
I1130 04:00:07.727663 19834 layer_factory.hpp:77] Creating layer inception_4a/3x3_reduce
I1130 04:00:07.727671 19834 net.cpp:84] Creating Layer inception_4a/3x3_reduce
I1130 04:00:07.727676 19834 net.cpp:406] inception_4a/3x3_reduce <- pool3/3x3_s2_pool3/3x3_s2_0_split_1
I1130 04:00:07.727682 19834 net.cpp:380] inception_4a/3x3_reduce -> inception_4a/3x3_reduce
I1130 04:00:07.728101 19834 net.cpp:122] Setting up inception_4a/3x3_reduce
I1130 04:00:07.728111 19834 net.cpp:129] Top shape: 32 96 14 14 (602112)
I1130 04:00:07.728116 19834 net.cpp:137] Memory required for data: 1151238272
I1130 04:00:07.728127 19834 layer_factory.hpp:77] Creating layer inception_4a/relu_3x3_reduce
I1130 04:00:07.728132 19834 net.cpp:84] Creating Layer inception_4a/relu_3x3_reduce
I1130 04:00:07.728137 19834 net.cpp:406] inception_4a/relu_3x3_reduce <- inception_4a/3x3_reduce
I1130 04:00:07.728143 19834 net.cpp:367] inception_4a/relu_3x3_reduce -> inception_4a/3x3_reduce (in-place)
I1130 04:00:07.728150 19834 net.cpp:122] Setting up inception_4a/relu_3x3_reduce
I1130 04:00:07.728157 19834 net.cpp:129] Top shape: 32 96 14 14 (602112)
I1130 04:00:07.728162 19834 net.cpp:137] Memory required for data: 1153646720
I1130 04:00:07.728164 19834 layer_factory.hpp:77] Creating layer inception_4a/3x3
I1130 04:00:07.728173 19834 net.cpp:84] Creating Layer inception_4a/3x3
I1130 04:00:07.728179 19834 net.cpp:406] inception_4a/3x3 <- inception_4a/3x3_reduce
I1130 04:00:07.728185 19834 net.cpp:380] inception_4a/3x3 -> inception_4a/3x3
I1130 04:00:07.729655 19834 net.cpp:122] Setting up inception_4a/3x3
I1130 04:00:07.729665 19834 net.cpp:129] Top shape: 32 208 14 14 (1304576)
I1130 04:00:07.729671 19834 net.cpp:137] Memory required for data: 1158865024
I1130 04:00:07.729677 19834 layer_factory.hpp:77] Creating layer inception_4a/relu_3x3
I1130 04:00:07.729684 19834 net.cpp:84] Creating Layer inception_4a/relu_3x3
I1130 04:00:07.729689 19834 net.cpp:406] inception_4a/relu_3x3 <- inception_4a/3x3
I1130 04:00:07.729696 19834 net.cpp:367] inception_4a/relu_3x3 -> inception_4a/3x3 (in-place)
I1130 04:00:07.729703 19834 net.cpp:122] Setting up inception_4a/relu_3x3
I1130 04:00:07.729709 19834 net.cpp:129] Top shape: 32 208 14 14 (1304576)
I1130 04:00:07.729713 19834 net.cpp:137] Memory required for data: 1164083328
I1130 04:00:07.729717 19834 layer_factory.hpp:77] Creating layer inception_4a/5x5_reduce
I1130 04:00:07.729725 19834 net.cpp:84] Creating Layer inception_4a/5x5_reduce
I1130 04:00:07.729733 19834 net.cpp:406] inception_4a/5x5_reduce <- pool3/3x3_s2_pool3/3x3_s2_0_split_2
I1130 04:00:07.729740 19834 net.cpp:380] inception_4a/5x5_reduce -> inception_4a/5x5_reduce
I1130 04:00:07.729948 19834 net.cpp:122] Setting up inception_4a/5x5_reduce
I1130 04:00:07.729957 19834 net.cpp:129] Top shape: 32 16 14 14 (100352)
I1130 04:00:07.729961 19834 net.cpp:137] Memory required for data: 1164484736
I1130 04:00:07.729969 19834 layer_factory.hpp:77] Creating layer inception_4a/relu_5x5_reduce
I1130 04:00:07.729974 19834 net.cpp:84] Creating Layer inception_4a/relu_5x5_reduce
I1130 04:00:07.729979 19834 net.cpp:406] inception_4a/relu_5x5_reduce <- inception_4a/5x5_reduce
I1130 04:00:07.729985 19834 net.cpp:367] inception_4a/relu_5x5_reduce -> inception_4a/5x5_reduce (in-place)
I1130 04:00:07.729991 19834 net.cpp:122] Setting up inception_4a/relu_5x5_reduce
I1130 04:00:07.729997 19834 net.cpp:129] Top shape: 32 16 14 14 (100352)
I1130 04:00:07.730001 19834 net.cpp:137] Memory required for data: 1164886144
I1130 04:00:07.730005 19834 layer_factory.hpp:77] Creating layer inception_4a/5x5
I1130 04:00:07.730012 19834 net.cpp:84] Creating Layer inception_4a/5x5
I1130 04:00:07.730017 19834 net.cpp:406] inception_4a/5x5 <- inception_4a/5x5_reduce
I1130 04:00:07.730024 19834 net.cpp:380] inception_4a/5x5 -> inception_4a/5x5
I1130 04:00:07.730305 19834 net.cpp:122] Setting up inception_4a/5x5
I1130 04:00:07.730314 19834 net.cpp:129] Top shape: 32 48 14 14 (301056)
I1130 04:00:07.730319 19834 net.cpp:137] Memory required for data: 1166090368
I1130 04:00:07.730326 19834 layer_factory.hpp:77] Creating layer inception_4a/relu_5x5
I1130 04:00:07.730332 19834 net.cpp:84] Creating Layer inception_4a/relu_5x5
I1130 04:00:07.730337 19834 net.cpp:406] inception_4a/relu_5x5 <- inception_4a/5x5
I1130 04:00:07.730343 19834 net.cpp:367] inception_4a/relu_5x5 -> inception_4a/5x5 (in-place)
I1130 04:00:07.730350 19834 net.cpp:122] Setting up inception_4a/relu_5x5
I1130 04:00:07.730355 19834 net.cpp:129] Top shape: 32 48 14 14 (301056)
I1130 04:00:07.730360 19834 net.cpp:137] Memory required for data: 1167294592
I1130 04:00:07.730363 19834 layer_factory.hpp:77] Creating layer inception_4a/pool
I1130 04:00:07.730370 19834 net.cpp:84] Creating Layer inception_4a/pool
I1130 04:00:07.730376 19834 net.cpp:406] inception_4a/pool <- pool3/3x3_s2_pool3/3x3_s2_0_split_3
I1130 04:00:07.730381 19834 net.cpp:380] inception_4a/pool -> inception_4a/pool
I1130 04:00:07.730410 19834 net.cpp:122] Setting up inception_4a/pool
I1130 04:00:07.730417 19834 net.cpp:129] Top shape: 32 480 14 14 (3010560)
I1130 04:00:07.730422 19834 net.cpp:137] Memory required for data: 1179336832
I1130 04:00:07.730427 19834 layer_factory.hpp:77] Creating layer inception_4a/pool_proj
I1130 04:00:07.730434 19834 net.cpp:84] Creating Layer inception_4a/pool_proj
I1130 04:00:07.730440 19834 net.cpp:406] inception_4a/pool_proj <- inception_4a/pool
I1130 04:00:07.730446 19834 net.cpp:380] inception_4a/pool_proj -> inception_4a/pool_proj
I1130 04:00:07.730777 19834 net.cpp:122] Setting up inception_4a/pool_proj
I1130 04:00:07.730785 19834 net.cpp:129] Top shape: 32 64 14 14 (401408)
I1130 04:00:07.730789 19834 net.cpp:137] Memory required for data: 1180942464
I1130 04:00:07.730796 19834 layer_factory.hpp:77] Creating layer inception_4a/relu_pool_proj
I1130 04:00:07.730803 19834 net.cpp:84] Creating Layer inception_4a/relu_pool_proj
I1130 04:00:07.730808 19834 net.cpp:406] inception_4a/relu_pool_proj <- inception_4a/pool_proj
I1130 04:00:07.730813 19834 net.cpp:367] inception_4a/relu_pool_proj -> inception_4a/pool_proj (in-place)
I1130 04:00:07.730820 19834 net.cpp:122] Setting up inception_4a/relu_pool_proj
I1130 04:00:07.730826 19834 net.cpp:129] Top shape: 32 64 14 14 (401408)
I1130 04:00:07.730830 19834 net.cpp:137] Memory required for data: 1182548096
I1130 04:00:07.730834 19834 layer_factory.hpp:77] Creating layer inception_4a/output
I1130 04:00:07.730839 19834 net.cpp:84] Creating Layer inception_4a/output
I1130 04:00:07.730844 19834 net.cpp:406] inception_4a/output <- inception_4a/1x1
I1130 04:00:07.730881 19834 net.cpp:406] inception_4a/output <- inception_4a/3x3
I1130 04:00:07.730887 19834 net.cpp:406] inception_4a/output <- inception_4a/5x5
I1130 04:00:07.730893 19834 net.cpp:406] inception_4a/output <- inception_4a/pool_proj
I1130 04:00:07.730900 19834 net.cpp:380] inception_4a/output -> inception_4a/output
I1130 04:00:07.730921 19834 net.cpp:122] Setting up inception_4a/output
I1130 04:00:07.730928 19834 net.cpp:129] Top shape: 32 512 14 14 (3211264)
I1130 04:00:07.730933 19834 net.cpp:137] Memory required for data: 1195393152
I1130 04:00:07.730937 19834 layer_factory.hpp:77] Creating layer inception_4a/output_inception_4a/output_0_split
I1130 04:00:07.730943 19834 net.cpp:84] Creating Layer inception_4a/output_inception_4a/output_0_split
I1130 04:00:07.730949 19834 net.cpp:406] inception_4a/output_inception_4a/output_0_split <- inception_4a/output
I1130 04:00:07.730955 19834 net.cpp:380] inception_4a/output_inception_4a/output_0_split -> inception_4a/output_inception_4a/output_0_split_0
I1130 04:00:07.730963 19834 net.cpp:380] inception_4a/output_inception_4a/output_0_split -> inception_4a/output_inception_4a/output_0_split_1
I1130 04:00:07.730970 19834 net.cpp:380] inception_4a/output_inception_4a/output_0_split -> inception_4a/output_inception_4a/output_0_split_2
I1130 04:00:07.730978 19834 net.cpp:380] inception_4a/output_inception_4a/output_0_split -> inception_4a/output_inception_4a/output_0_split_3
I1130 04:00:07.731020 19834 net.cpp:122] Setting up inception_4a/output_inception_4a/output_0_split
I1130 04:00:07.731027 19834 net.cpp:129] Top shape: 32 512 14 14 (3211264)
I1130 04:00:07.731032 19834 net.cpp:129] Top shape: 32 512 14 14 (3211264)
I1130 04:00:07.731039 19834 net.cpp:129] Top shape: 32 512 14 14 (3211264)
I1130 04:00:07.731042 19834 net.cpp:129] Top shape: 32 512 14 14 (3211264)
I1130 04:00:07.731046 19834 net.cpp:137] Memory required for data: 1246773376
I1130 04:00:07.731050 19834 layer_factory.hpp:77] Creating layer inception_4b/1x1
I1130 04:00:07.731058 19834 net.cpp:84] Creating Layer inception_4b/1x1
I1130 04:00:07.731065 19834 net.cpp:406] inception_4b/1x1 <- inception_4a/output_inception_4a/output_0_split_0
I1130 04:00:07.731071 19834 net.cpp:380] inception_4b/1x1 -> inception_4b/1x1
I1130 04:00:07.731668 19834 net.cpp:122] Setting up inception_4b/1x1
I1130 04:00:07.731678 19834 net.cpp:129] Top shape: 32 160 14 14 (1003520)
I1130 04:00:07.731683 19834 net.cpp:137] Memory required for data: 1250787456
I1130 04:00:07.731689 19834 layer_factory.hpp:77] Creating layer inception_4b/relu_1x1
I1130 04:00:07.731695 19834 net.cpp:84] Creating Layer inception_4b/relu_1x1
I1130 04:00:07.731701 19834 net.cpp:406] inception_4b/relu_1x1 <- inception_4b/1x1
I1130 04:00:07.731706 19834 net.cpp:367] inception_4b/relu_1x1 -> inception_4b/1x1 (in-place)
I1130 04:00:07.731714 19834 net.cpp:122] Setting up inception_4b/relu_1x1
I1130 04:00:07.731719 19834 net.cpp:129] Top shape: 32 160 14 14 (1003520)
I1130 04:00:07.731724 19834 net.cpp:137] Memory required for data: 1254801536
I1130 04:00:07.731727 19834 layer_factory.hpp:77] Creating layer inception_4b/3x3_reduce
I1130 04:00:07.731735 19834 net.cpp:84] Creating Layer inception_4b/3x3_reduce
I1130 04:00:07.731740 19834 net.cpp:406] inception_4b/3x3_reduce <- inception_4a/output_inception_4a/output_0_split_1
I1130 04:00:07.731746 19834 net.cpp:380] inception_4b/3x3_reduce -> inception_4b/3x3_reduce
I1130 04:00:07.732224 19834 net.cpp:122] Setting up inception_4b/3x3_reduce
I1130 04:00:07.732234 19834 net.cpp:129] Top shape: 32 112 14 14 (702464)
I1130 04:00:07.732237 19834 net.cpp:137] Memory required for data: 1257611392
I1130 04:00:07.732244 19834 layer_factory.hpp:77] Creating layer inception_4b/relu_3x3_reduce
I1130 04:00:07.732251 19834 net.cpp:84] Creating Layer inception_4b/relu_3x3_reduce
I1130 04:00:07.732256 19834 net.cpp:406] inception_4b/relu_3x3_reduce <- inception_4b/3x3_reduce
I1130 04:00:07.732261 19834 net.cpp:367] inception_4b/relu_3x3_reduce -> inception_4b/3x3_reduce (in-place)
I1130 04:00:07.732269 19834 net.cpp:122] Setting up inception_4b/relu_3x3_reduce
I1130 04:00:07.732273 19834 net.cpp:129] Top shape: 32 112 14 14 (702464)
I1130 04:00:07.732280 19834 net.cpp:137] Memory required for data: 1260421248
I1130 04:00:07.732282 19834 layer_factory.hpp:77] Creating layer inception_4b/3x3
I1130 04:00:07.732290 19834 net.cpp:84] Creating Layer inception_4b/3x3
I1130 04:00:07.732296 19834 net.cpp:406] inception_4b/3x3 <- inception_4b/3x3_reduce
I1130 04:00:07.732302 19834 net.cpp:380] inception_4b/3x3 -> inception_4b/3x3
I1130 04:00:07.734015 19834 net.cpp:122] Setting up inception_4b/3x3
I1130 04:00:07.734025 19834 net.cpp:129] Top shape: 32 224 14 14 (1404928)
I1130 04:00:07.734030 19834 net.cpp:137] Memory required for data: 1266040960
I1130 04:00:07.734037 19834 layer_factory.hpp:77] Creating layer inception_4b/relu_3x3
I1130 04:00:07.734045 19834 net.cpp:84] Creating Layer inception_4b/relu_3x3
I1130 04:00:07.734050 19834 net.cpp:406] inception_4b/relu_3x3 <- inception_4b/3x3
I1130 04:00:07.734055 19834 net.cpp:367] inception_4b/relu_3x3 -> inception_4b/3x3 (in-place)
I1130 04:00:07.734062 19834 net.cpp:122] Setting up inception_4b/relu_3x3
I1130 04:00:07.734068 19834 net.cpp:129] Top shape: 32 224 14 14 (1404928)
I1130 04:00:07.734071 19834 net.cpp:137] Memory required for data: 1271660672
I1130 04:00:07.734076 19834 layer_factory.hpp:77] Creating layer inception_4b/5x5_reduce
I1130 04:00:07.734086 19834 net.cpp:84] Creating Layer inception_4b/5x5_reduce
I1130 04:00:07.734091 19834 net.cpp:406] inception_4b/5x5_reduce <- inception_4a/output_inception_4a/output_0_split_2
I1130 04:00:07.734098 19834 net.cpp:380] inception_4b/5x5_reduce -> inception_4b/5x5_reduce
I1130 04:00:07.734345 19834 net.cpp:122] Setting up inception_4b/5x5_reduce
I1130 04:00:07.734354 19834 net.cpp:129] Top shape: 32 24 14 14 (150528)
I1130 04:00:07.734357 19834 net.cpp:137] Memory required for data: 1272262784
I1130 04:00:07.734364 19834 layer_factory.hpp:77] Creating layer inception_4b/relu_5x5_reduce
I1130 04:00:07.734370 19834 net.cpp:84] Creating Layer inception_4b/relu_5x5_reduce
I1130 04:00:07.734375 19834 net.cpp:406] inception_4b/relu_5x5_reduce <- inception_4b/5x5_reduce
I1130 04:00:07.734380 19834 net.cpp:367] inception_4b/relu_5x5_reduce -> inception_4b/5x5_reduce (in-place)
I1130 04:00:07.734387 19834 net.cpp:122] Setting up inception_4b/relu_5x5_reduce
I1130 04:00:07.734393 19834 net.cpp:129] Top shape: 32 24 14 14 (150528)
I1130 04:00:07.734396 19834 net.cpp:137] Memory required for data: 1272864896
I1130 04:00:07.734401 19834 layer_factory.hpp:77] Creating layer inception_4b/5x5
I1130 04:00:07.734408 19834 net.cpp:84] Creating Layer inception_4b/5x5
I1130 04:00:07.734413 19834 net.cpp:406] inception_4b/5x5 <- inception_4b/5x5_reduce
I1130 04:00:07.734421 19834 net.cpp:380] inception_4b/5x5 -> inception_4b/5x5
I1130 04:00:07.735133 19834 net.cpp:122] Setting up inception_4b/5x5
I1130 04:00:07.735143 19834 net.cpp:129] Top shape: 32 64 14 14 (401408)
I1130 04:00:07.735147 19834 net.cpp:137] Memory required for data: 1274470528
I1130 04:00:07.735154 19834 layer_factory.hpp:77] Creating layer inception_4b/relu_5x5
I1130 04:00:07.735160 19834 net.cpp:84] Creating Layer inception_4b/relu_5x5
I1130 04:00:07.735165 19834 net.cpp:406] inception_4b/relu_5x5 <- inception_4b/5x5
I1130 04:00:07.735172 19834 net.cpp:367] inception_4b/relu_5x5 -> inception_4b/5x5 (in-place)
I1130 04:00:07.735178 19834 net.cpp:122] Setting up inception_4b/relu_5x5
I1130 04:00:07.735184 19834 net.cpp:129] Top shape: 32 64 14 14 (401408)
I1130 04:00:07.735188 19834 net.cpp:137] Memory required for data: 1276076160
I1130 04:00:07.735193 19834 layer_factory.hpp:77] Creating layer inception_4b/pool
I1130 04:00:07.735199 19834 net.cpp:84] Creating Layer inception_4b/pool
I1130 04:00:07.735204 19834 net.cpp:406] inception_4b/pool <- inception_4a/output_inception_4a/output_0_split_3
I1130 04:00:07.735210 19834 net.cpp:380] inception_4b/pool -> inception_4b/pool
I1130 04:00:07.735242 19834 net.cpp:122] Setting up inception_4b/pool
I1130 04:00:07.735249 19834 net.cpp:129] Top shape: 32 512 14 14 (3211264)
I1130 04:00:07.735255 19834 net.cpp:137] Memory required for data: 1288921216
I1130 04:00:07.735260 19834 layer_factory.hpp:77] Creating layer inception_4b/pool_proj
I1130 04:00:07.735266 19834 net.cpp:84] Creating Layer inception_4b/pool_proj
I1130 04:00:07.735272 19834 net.cpp:406] inception_4b/pool_proj <- inception_4b/pool
I1130 04:00:07.735278 19834 net.cpp:380] inception_4b/pool_proj -> inception_4b/pool_proj
I1130 04:00:07.735617 19834 net.cpp:122] Setting up inception_4b/pool_proj
I1130 04:00:07.735626 19834 net.cpp:129] Top shape: 32 64 14 14 (401408)
I1130 04:00:07.735631 19834 net.cpp:137] Memory required for data: 1290526848
I1130 04:00:07.735637 19834 layer_factory.hpp:77] Creating layer inception_4b/relu_pool_proj
I1130 04:00:07.735643 19834 net.cpp:84] Creating Layer inception_4b/relu_pool_proj
I1130 04:00:07.735651 19834 net.cpp:406] inception_4b/relu_pool_proj <- inception_4b/pool_proj
I1130 04:00:07.735656 19834 net.cpp:367] inception_4b/relu_pool_proj -> inception_4b/pool_proj (in-place)
I1130 04:00:07.735663 19834 net.cpp:122] Setting up inception_4b/relu_pool_proj
I1130 04:00:07.735669 19834 net.cpp:129] Top shape: 32 64 14 14 (401408)
I1130 04:00:07.735673 19834 net.cpp:137] Memory required for data: 1292132480
I1130 04:00:07.735678 19834 layer_factory.hpp:77] Creating layer inception_4b/output
I1130 04:00:07.735684 19834 net.cpp:84] Creating Layer inception_4b/output
I1130 04:00:07.735689 19834 net.cpp:406] inception_4b/output <- inception_4b/1x1
I1130 04:00:07.735694 19834 net.cpp:406] inception_4b/output <- inception_4b/3x3
I1130 04:00:07.735699 19834 net.cpp:406] inception_4b/output <- inception_4b/5x5
I1130 04:00:07.735704 19834 net.cpp:406] inception_4b/output <- inception_4b/pool_proj
I1130 04:00:07.735710 19834 net.cpp:380] inception_4b/output -> inception_4b/output
I1130 04:00:07.735731 19834 net.cpp:122] Setting up inception_4b/output
I1130 04:00:07.735739 19834 net.cpp:129] Top shape: 32 512 14 14 (3211264)
I1130 04:00:07.735743 19834 net.cpp:137] Memory required for data: 1304977536
I1130 04:00:07.735747 19834 layer_factory.hpp:77] Creating layer inception_4b/output_inception_4b/output_0_split
I1130 04:00:07.735754 19834 net.cpp:84] Creating Layer inception_4b/output_inception_4b/output_0_split
I1130 04:00:07.735759 19834 net.cpp:406] inception_4b/output_inception_4b/output_0_split <- inception_4b/output
I1130 04:00:07.735764 19834 net.cpp:380] inception_4b/output_inception_4b/output_0_split -> inception_4b/output_inception_4b/output_0_split_0
I1130 04:00:07.735772 19834 net.cpp:380] inception_4b/output_inception_4b/output_0_split -> inception_4b/output_inception_4b/output_0_split_1
I1130 04:00:07.735780 19834 net.cpp:380] inception_4b/output_inception_4b/output_0_split -> inception_4b/output_inception_4b/output_0_split_2
I1130 04:00:07.735786 19834 net.cpp:380] inception_4b/output_inception_4b/output_0_split -> inception_4b/output_inception_4b/output_0_split_3
I1130 04:00:07.735831 19834 net.cpp:122] Setting up inception_4b/output_inception_4b/output_0_split
I1130 04:00:07.735837 19834 net.cpp:129] Top shape: 32 512 14 14 (3211264)
I1130 04:00:07.735842 19834 net.cpp:129] Top shape: 32 512 14 14 (3211264)
I1130 04:00:07.735848 19834 net.cpp:129] Top shape: 32 512 14 14 (3211264)
I1130 04:00:07.735853 19834 net.cpp:129] Top shape: 32 512 14 14 (3211264)
I1130 04:00:07.735857 19834 net.cpp:137] Memory required for data: 1356357760
I1130 04:00:07.735862 19834 layer_factory.hpp:77] Creating layer inception_4c/1x1
I1130 04:00:07.735869 19834 net.cpp:84] Creating Layer inception_4c/1x1
I1130 04:00:07.735874 19834 net.cpp:406] inception_4c/1x1 <- inception_4b/output_inception_4b/output_0_split_0
I1130 04:00:07.735882 19834 net.cpp:380] inception_4c/1x1 -> inception_4c/1x1
I1130 04:00:07.736392 19834 net.cpp:122] Setting up inception_4c/1x1
I1130 04:00:07.736400 19834 net.cpp:129] Top shape: 32 128 14 14 (802816)
I1130 04:00:07.736404 19834 net.cpp:137] Memory required for data: 1359569024
I1130 04:00:07.736412 19834 layer_factory.hpp:77] Creating layer inception_4c/relu_1x1
I1130 04:00:07.736418 19834 net.cpp:84] Creating Layer inception_4c/relu_1x1
I1130 04:00:07.736423 19834 net.cpp:406] inception_4c/relu_1x1 <- inception_4c/1x1
I1130 04:00:07.736429 19834 net.cpp:367] inception_4c/relu_1x1 -> inception_4c/1x1 (in-place)
I1130 04:00:07.736435 19834 net.cpp:122] Setting up inception_4c/relu_1x1
I1130 04:00:07.736441 19834 net.cpp:129] Top shape: 32 128 14 14 (802816)
I1130 04:00:07.736445 19834 net.cpp:137] Memory required for data: 1362780288
I1130 04:00:07.736450 19834 layer_factory.hpp:77] Creating layer inception_4c/3x3_reduce
I1130 04:00:07.736457 19834 net.cpp:84] Creating Layer inception_4c/3x3_reduce
I1130 04:00:07.736464 19834 net.cpp:406] inception_4c/3x3_reduce <- inception_4b/output_inception_4b/output_0_split_1
I1130 04:00:07.736469 19834 net.cpp:380] inception_4c/3x3_reduce -> inception_4c/3x3_reduce
I1130 04:00:07.736980 19834 net.cpp:122] Setting up inception_4c/3x3_reduce
I1130 04:00:07.736989 19834 net.cpp:129] Top shape: 32 128 14 14 (802816)
I1130 04:00:07.736994 19834 net.cpp:137] Memory required for data: 1365991552
I1130 04:00:07.737001 19834 layer_factory.hpp:77] Creating layer inception_4c/relu_3x3_reduce
I1130 04:00:07.737007 19834 net.cpp:84] Creating Layer inception_4c/relu_3x3_reduce
I1130 04:00:07.737012 19834 net.cpp:406] inception_4c/relu_3x3_reduce <- inception_4c/3x3_reduce
I1130 04:00:07.737017 19834 net.cpp:367] inception_4c/relu_3x3_reduce -> inception_4c/3x3_reduce (in-place)
I1130 04:00:07.737025 19834 net.cpp:122] Setting up inception_4c/relu_3x3_reduce
I1130 04:00:07.737030 19834 net.cpp:129] Top shape: 32 128 14 14 (802816)
I1130 04:00:07.737035 19834 net.cpp:137] Memory required for data: 1369202816
I1130 04:00:07.737038 19834 layer_factory.hpp:77] Creating layer inception_4c/3x3
I1130 04:00:07.737046 19834 net.cpp:84] Creating Layer inception_4c/3x3
I1130 04:00:07.737051 19834 net.cpp:406] inception_4c/3x3 <- inception_4c/3x3_reduce
I1130 04:00:07.737057 19834 net.cpp:380] inception_4c/3x3 -> inception_4c/3x3
I1130 04:00:07.739178 19834 net.cpp:122] Setting up inception_4c/3x3
I1130 04:00:07.739190 19834 net.cpp:129] Top shape: 32 256 14 14 (1605632)
I1130 04:00:07.739195 19834 net.cpp:137] Memory required for data: 1375625344
I1130 04:00:07.739202 19834 layer_factory.hpp:77] Creating layer inception_4c/relu_3x3
I1130 04:00:07.739209 19834 net.cpp:84] Creating Layer inception_4c/relu_3x3
I1130 04:00:07.739214 19834 net.cpp:406] inception_4c/relu_3x3 <- inception_4c/3x3
I1130 04:00:07.739220 19834 net.cpp:367] inception_4c/relu_3x3 -> inception_4c/3x3 (in-place)
I1130 04:00:07.739228 19834 net.cpp:122] Setting up inception_4c/relu_3x3
I1130 04:00:07.739233 19834 net.cpp:129] Top shape: 32 256 14 14 (1605632)
I1130 04:00:07.739238 19834 net.cpp:137] Memory required for data: 1382047872
I1130 04:00:07.739241 19834 layer_factory.hpp:77] Creating layer inception_4c/5x5_reduce
I1130 04:00:07.739249 19834 net.cpp:84] Creating Layer inception_4c/5x5_reduce
I1130 04:00:07.739254 19834 net.cpp:406] inception_4c/5x5_reduce <- inception_4b/output_inception_4b/output_0_split_2
I1130 04:00:07.739260 19834 net.cpp:380] inception_4c/5x5_reduce -> inception_4c/5x5_reduce
I1130 04:00:07.739500 19834 net.cpp:122] Setting up inception_4c/5x5_reduce
I1130 04:00:07.739508 19834 net.cpp:129] Top shape: 32 24 14 14 (150528)
I1130 04:00:07.739511 19834 net.cpp:137] Memory required for data: 1382649984
I1130 04:00:07.739517 19834 layer_factory.hpp:77] Creating layer inception_4c/relu_5x5_reduce
I1130 04:00:07.739523 19834 net.cpp:84] Creating Layer inception_4c/relu_5x5_reduce
I1130 04:00:07.739527 19834 net.cpp:406] inception_4c/relu_5x5_reduce <- inception_4c/5x5_reduce
I1130 04:00:07.739532 19834 net.cpp:367] inception_4c/relu_5x5_reduce -> inception_4c/5x5_reduce (in-place)
I1130 04:00:07.739539 19834 net.cpp:122] Setting up inception_4c/relu_5x5_reduce
I1130 04:00:07.739545 19834 net.cpp:129] Top shape: 32 24 14 14 (150528)
I1130 04:00:07.739548 19834 net.cpp:137] Memory required for data: 1383252096
I1130 04:00:07.739553 19834 layer_factory.hpp:77] Creating layer inception_4c/5x5
I1130 04:00:07.739560 19834 net.cpp:84] Creating Layer inception_4c/5x5
I1130 04:00:07.739565 19834 net.cpp:406] inception_4c/5x5 <- inception_4c/5x5_reduce
I1130 04:00:07.739572 19834 net.cpp:380] inception_4c/5x5 -> inception_4c/5x5
I1130 04:00:07.739946 19834 net.cpp:122] Setting up inception_4c/5x5
I1130 04:00:07.739955 19834 net.cpp:129] Top shape: 32 64 14 14 (401408)
I1130 04:00:07.739959 19834 net.cpp:137] Memory required for data: 1384857728
I1130 04:00:07.739965 19834 layer_factory.hpp:77] Creating layer inception_4c/relu_5x5
I1130 04:00:07.739970 19834 net.cpp:84] Creating Layer inception_4c/relu_5x5
I1130 04:00:07.739974 19834 net.cpp:406] inception_4c/relu_5x5 <- inception_4c/5x5
I1130 04:00:07.739980 19834 net.cpp:367] inception_4c/relu_5x5 -> inception_4c/5x5 (in-place)
I1130 04:00:07.739987 19834 net.cpp:122] Setting up inception_4c/relu_5x5
I1130 04:00:07.739994 19834 net.cpp:129] Top shape: 32 64 14 14 (401408)
I1130 04:00:07.739997 19834 net.cpp:137] Memory required for data: 1386463360
I1130 04:00:07.740002 19834 layer_factory.hpp:77] Creating layer inception_4c/pool
I1130 04:00:07.740007 19834 net.cpp:84] Creating Layer inception_4c/pool
I1130 04:00:07.740012 19834 net.cpp:406] inception_4c/pool <- inception_4b/output_inception_4b/output_0_split_3
I1130 04:00:07.740017 19834 net.cpp:380] inception_4c/pool -> inception_4c/pool
I1130 04:00:07.740049 19834 net.cpp:122] Setting up inception_4c/pool
I1130 04:00:07.740056 19834 net.cpp:129] Top shape: 32 512 14 14 (3211264)
I1130 04:00:07.740061 19834 net.cpp:137] Memory required for data: 1399308416
I1130 04:00:07.740065 19834 layer_factory.hpp:77] Creating layer inception_4c/pool_proj
I1130 04:00:07.740073 19834 net.cpp:84] Creating Layer inception_4c/pool_proj
I1130 04:00:07.740078 19834 net.cpp:406] inception_4c/pool_proj <- inception_4c/pool
I1130 04:00:07.740085 19834 net.cpp:380] inception_4c/pool_proj -> inception_4c/pool_proj
I1130 04:00:07.740774 19834 net.cpp:122] Setting up inception_4c/pool_proj
I1130 04:00:07.740784 19834 net.cpp:129] Top shape: 32 64 14 14 (401408)
I1130 04:00:07.740789 19834 net.cpp:137] Memory required for data: 1400914048
I1130 04:00:07.740803 19834 layer_factory.hpp:77] Creating layer inception_4c/relu_pool_proj
I1130 04:00:07.740809 19834 net.cpp:84] Creating Layer inception_4c/relu_pool_proj
I1130 04:00:07.740814 19834 net.cpp:406] inception_4c/relu_pool_proj <- inception_4c/pool_proj
I1130 04:00:07.740820 19834 net.cpp:367] inception_4c/relu_pool_proj -> inception_4c/pool_proj (in-place)
I1130 04:00:07.740828 19834 net.cpp:122] Setting up inception_4c/relu_pool_proj
I1130 04:00:07.740833 19834 net.cpp:129] Top shape: 32 64 14 14 (401408)
I1130 04:00:07.740837 19834 net.cpp:137] Memory required for data: 1402519680
I1130 04:00:07.740841 19834 layer_factory.hpp:77] Creating layer inception_4c/output
I1130 04:00:07.740847 19834 net.cpp:84] Creating Layer inception_4c/output
I1130 04:00:07.740852 19834 net.cpp:406] inception_4c/output <- inception_4c/1x1
I1130 04:00:07.740857 19834 net.cpp:406] inception_4c/output <- inception_4c/3x3
I1130 04:00:07.740864 19834 net.cpp:406] inception_4c/output <- inception_4c/5x5
I1130 04:00:07.740869 19834 net.cpp:406] inception_4c/output <- inception_4c/pool_proj
I1130 04:00:07.740873 19834 net.cpp:380] inception_4c/output -> inception_4c/output
I1130 04:00:07.740896 19834 net.cpp:122] Setting up inception_4c/output
I1130 04:00:07.740903 19834 net.cpp:129] Top shape: 32 512 14 14 (3211264)
I1130 04:00:07.740907 19834 net.cpp:137] Memory required for data: 1415364736
I1130 04:00:07.740912 19834 layer_factory.hpp:77] Creating layer inception_4c/output_inception_4c/output_0_split
I1130 04:00:07.740918 19834 net.cpp:84] Creating Layer inception_4c/output_inception_4c/output_0_split
I1130 04:00:07.740922 19834 net.cpp:406] inception_4c/output_inception_4c/output_0_split <- inception_4c/output
I1130 04:00:07.740929 19834 net.cpp:380] inception_4c/output_inception_4c/output_0_split -> inception_4c/output_inception_4c/output_0_split_0
I1130 04:00:07.740936 19834 net.cpp:380] inception_4c/output_inception_4c/output_0_split -> inception_4c/output_inception_4c/output_0_split_1
I1130 04:00:07.740943 19834 net.cpp:380] inception_4c/output_inception_4c/output_0_split -> inception_4c/output_inception_4c/output_0_split_2
I1130 04:00:07.740950 19834 net.cpp:380] inception_4c/output_inception_4c/output_0_split -> inception_4c/output_inception_4c/output_0_split_3
I1130 04:00:07.740993 19834 net.cpp:122] Setting up inception_4c/output_inception_4c/output_0_split
I1130 04:00:07.741000 19834 net.cpp:129] Top shape: 32 512 14 14 (3211264)
I1130 04:00:07.741006 19834 net.cpp:129] Top shape: 32 512 14 14 (3211264)
I1130 04:00:07.741011 19834 net.cpp:129] Top shape: 32 512 14 14 (3211264)
I1130 04:00:07.741016 19834 net.cpp:129] Top shape: 32 512 14 14 (3211264)
I1130 04:00:07.741020 19834 net.cpp:137] Memory required for data: 1466744960
I1130 04:00:07.741025 19834 layer_factory.hpp:77] Creating layer inception_4d/1x1
I1130 04:00:07.741032 19834 net.cpp:84] Creating Layer inception_4d/1x1
I1130 04:00:07.741037 19834 net.cpp:406] inception_4d/1x1 <- inception_4c/output_inception_4c/output_0_split_0
I1130 04:00:07.741044 19834 net.cpp:380] inception_4d/1x1 -> inception_4d/1x1
I1130 04:00:07.741515 19834 net.cpp:122] Setting up inception_4d/1x1
I1130 04:00:07.741524 19834 net.cpp:129] Top shape: 32 112 14 14 (702464)
I1130 04:00:07.741528 19834 net.cpp:137] Memory required for data: 1469554816
I1130 04:00:07.741535 19834 layer_factory.hpp:77] Creating layer inception_4d/relu_1x1
I1130 04:00:07.741542 19834 net.cpp:84] Creating Layer inception_4d/relu_1x1
I1130 04:00:07.741547 19834 net.cpp:406] inception_4d/relu_1x1 <- inception_4d/1x1
I1130 04:00:07.741552 19834 net.cpp:367] inception_4d/relu_1x1 -> inception_4d/1x1 (in-place)
I1130 04:00:07.741559 19834 net.cpp:122] Setting up inception_4d/relu_1x1
I1130 04:00:07.741565 19834 net.cpp:129] Top shape: 32 112 14 14 (702464)
I1130 04:00:07.741569 19834 net.cpp:137] Memory required for data: 1472364672
I1130 04:00:07.741574 19834 layer_factory.hpp:77] Creating layer inception_4d/3x3_reduce
I1130 04:00:07.741580 19834 net.cpp:84] Creating Layer inception_4d/3x3_reduce
I1130 04:00:07.741585 19834 net.cpp:406] inception_4d/3x3_reduce <- inception_4c/output_inception_4c/output_0_split_1
I1130 04:00:07.741591 19834 net.cpp:380] inception_4d/3x3_reduce -> inception_4d/3x3_reduce
I1130 04:00:07.742167 19834 net.cpp:122] Setting up inception_4d/3x3_reduce
I1130 04:00:07.742177 19834 net.cpp:129] Top shape: 32 144 14 14 (903168)
I1130 04:00:07.742182 19834 net.cpp:137] Memory required for data: 1475977344
I1130 04:00:07.742188 19834 layer_factory.hpp:77] Creating layer inception_4d/relu_3x3_reduce
I1130 04:00:07.742195 19834 net.cpp:84] Creating Layer inception_4d/relu_3x3_reduce
I1130 04:00:07.742200 19834 net.cpp:406] inception_4d/relu_3x3_reduce <- inception_4d/3x3_reduce
I1130 04:00:07.742207 19834 net.cpp:367] inception_4d/relu_3x3_reduce -> inception_4d/3x3_reduce (in-place)
I1130 04:00:07.742213 19834 net.cpp:122] Setting up inception_4d/relu_3x3_reduce
I1130 04:00:07.742219 19834 net.cpp:129] Top shape: 32 144 14 14 (903168)
I1130 04:00:07.742223 19834 net.cpp:137] Memory required for data: 1479590016
I1130 04:00:07.742228 19834 layer_factory.hpp:77] Creating layer inception_4d/3x3
I1130 04:00:07.742234 19834 net.cpp:84] Creating Layer inception_4d/3x3
I1130 04:00:07.742239 19834 net.cpp:406] inception_4d/3x3 <- inception_4d/3x3_reduce
I1130 04:00:07.742245 19834 net.cpp:380] inception_4d/3x3 -> inception_4d/3x3
I1130 04:00:07.744875 19834 net.cpp:122] Setting up inception_4d/3x3
I1130 04:00:07.744890 19834 net.cpp:129] Top shape: 32 288 14 14 (1806336)
I1130 04:00:07.744894 19834 net.cpp:137] Memory required for data: 1486815360
I1130 04:00:07.744902 19834 layer_factory.hpp:77] Creating layer inception_4d/relu_3x3
I1130 04:00:07.744910 19834 net.cpp:84] Creating Layer inception_4d/relu_3x3
I1130 04:00:07.744915 19834 net.cpp:406] inception_4d/relu_3x3 <- inception_4d/3x3
I1130 04:00:07.744922 19834 net.cpp:367] inception_4d/relu_3x3 -> inception_4d/3x3 (in-place)
I1130 04:00:07.744931 19834 net.cpp:122] Setting up inception_4d/relu_3x3
I1130 04:00:07.744937 19834 net.cpp:129] Top shape: 32 288 14 14 (1806336)
I1130 04:00:07.744941 19834 net.cpp:137] Memory required for data: 1494040704
I1130 04:00:07.744946 19834 layer_factory.hpp:77] Creating layer inception_4d/5x5_reduce
I1130 04:00:07.744953 19834 net.cpp:84] Creating Layer inception_4d/5x5_reduce
I1130 04:00:07.744958 19834 net.cpp:406] inception_4d/5x5_reduce <- inception_4c/output_inception_4c/output_0_split_2
I1130 04:00:07.744966 19834 net.cpp:380] inception_4d/5x5_reduce -> inception_4d/5x5_reduce
I1130 04:00:07.745237 19834 net.cpp:122] Setting up inception_4d/5x5_reduce
I1130 04:00:07.745246 19834 net.cpp:129] Top shape: 32 32 14 14 (200704)
I1130 04:00:07.745250 19834 net.cpp:137] Memory required for data: 1494843520
I1130 04:00:07.745257 19834 layer_factory.hpp:77] Creating layer inception_4d/relu_5x5_reduce
I1130 04:00:07.745265 19834 net.cpp:84] Creating Layer inception_4d/relu_5x5_reduce
I1130 04:00:07.745270 19834 net.cpp:406] inception_4d/relu_5x5_reduce <- inception_4d/5x5_reduce
I1130 04:00:07.745275 19834 net.cpp:367] inception_4d/relu_5x5_reduce -> inception_4d/5x5_reduce (in-place)
I1130 04:00:07.745282 19834 net.cpp:122] Setting up inception_4d/relu_5x5_reduce
I1130 04:00:07.745288 19834 net.cpp:129] Top shape: 32 32 14 14 (200704)
I1130 04:00:07.745292 19834 net.cpp:137] Memory required for data: 1495646336
I1130 04:00:07.745297 19834 layer_factory.hpp:77] Creating layer inception_4d/5x5
I1130 04:00:07.745306 19834 net.cpp:84] Creating Layer inception_4d/5x5
I1130 04:00:07.745311 19834 net.cpp:406] inception_4d/5x5 <- inception_4d/5x5_reduce
I1130 04:00:07.745316 19834 net.cpp:380] inception_4d/5x5 -> inception_4d/5x5
I1130 04:00:07.745767 19834 net.cpp:122] Setting up inception_4d/5x5
I1130 04:00:07.745777 19834 net.cpp:129] Top shape: 32 64 14 14 (401408)
I1130 04:00:07.745782 19834 net.cpp:137] Memory required for data: 1497251968
I1130 04:00:07.745788 19834 layer_factory.hpp:77] Creating layer inception_4d/relu_5x5
I1130 04:00:07.745795 19834 net.cpp:84] Creating Layer inception_4d/relu_5x5
I1130 04:00:07.745800 19834 net.cpp:406] inception_4d/relu_5x5 <- inception_4d/5x5
I1130 04:00:07.745806 19834 net.cpp:367] inception_4d/relu_5x5 -> inception_4d/5x5 (in-place)
I1130 04:00:07.745813 19834 net.cpp:122] Setting up inception_4d/relu_5x5
I1130 04:00:07.745818 19834 net.cpp:129] Top shape: 32 64 14 14 (401408)
I1130 04:00:07.745823 19834 net.cpp:137] Memory required for data: 1498857600
I1130 04:00:07.745827 19834 layer_factory.hpp:77] Creating layer inception_4d/pool
I1130 04:00:07.745833 19834 net.cpp:84] Creating Layer inception_4d/pool
I1130 04:00:07.745839 19834 net.cpp:406] inception_4d/pool <- inception_4c/output_inception_4c/output_0_split_3
I1130 04:00:07.745846 19834 net.cpp:380] inception_4d/pool -> inception_4d/pool
I1130 04:00:07.745877 19834 net.cpp:122] Setting up inception_4d/pool
I1130 04:00:07.745884 19834 net.cpp:129] Top shape: 32 512 14 14 (3211264)
I1130 04:00:07.745889 19834 net.cpp:137] Memory required for data: 1511702656
I1130 04:00:07.745893 19834 layer_factory.hpp:77] Creating layer inception_4d/pool_proj
I1130 04:00:07.745900 19834 net.cpp:84] Creating Layer inception_4d/pool_proj
I1130 04:00:07.745906 19834 net.cpp:406] inception_4d/pool_proj <- inception_4d/pool
I1130 04:00:07.745913 19834 net.cpp:380] inception_4d/pool_proj -> inception_4d/pool_proj
I1130 04:00:07.746260 19834 net.cpp:122] Setting up inception_4d/pool_proj
I1130 04:00:07.746269 19834 net.cpp:129] Top shape: 32 64 14 14 (401408)
I1130 04:00:07.746274 19834 net.cpp:137] Memory required for data: 1513308288
I1130 04:00:07.746290 19834 layer_factory.hpp:77] Creating layer inception_4d/relu_pool_proj
I1130 04:00:07.746297 19834 net.cpp:84] Creating Layer inception_4d/relu_pool_proj
I1130 04:00:07.746304 19834 net.cpp:406] inception_4d/relu_pool_proj <- inception_4d/pool_proj
I1130 04:00:07.746309 19834 net.cpp:367] inception_4d/relu_pool_proj -> inception_4d/pool_proj (in-place)
I1130 04:00:07.746315 19834 net.cpp:122] Setting up inception_4d/relu_pool_proj
I1130 04:00:07.746321 19834 net.cpp:129] Top shape: 32 64 14 14 (401408)
I1130 04:00:07.746326 19834 net.cpp:137] Memory required for data: 1514913920
I1130 04:00:07.746330 19834 layer_factory.hpp:77] Creating layer inception_4d/output
I1130 04:00:07.746337 19834 net.cpp:84] Creating Layer inception_4d/output
I1130 04:00:07.746342 19834 net.cpp:406] inception_4d/output <- inception_4d/1x1
I1130 04:00:07.746347 19834 net.cpp:406] inception_4d/output <- inception_4d/3x3
I1130 04:00:07.746353 19834 net.cpp:406] inception_4d/output <- inception_4d/5x5
I1130 04:00:07.746358 19834 net.cpp:406] inception_4d/output <- inception_4d/pool_proj
I1130 04:00:07.746364 19834 net.cpp:380] inception_4d/output -> inception_4d/output
I1130 04:00:07.746387 19834 net.cpp:122] Setting up inception_4d/output
I1130 04:00:07.746393 19834 net.cpp:129] Top shape: 32 528 14 14 (3311616)
I1130 04:00:07.746397 19834 net.cpp:137] Memory required for data: 1528160384
I1130 04:00:07.746402 19834 layer_factory.hpp:77] Creating layer inception_4d/output_inception_4d/output_0_split
I1130 04:00:07.746408 19834 net.cpp:84] Creating Layer inception_4d/output_inception_4d/output_0_split
I1130 04:00:07.746413 19834 net.cpp:406] inception_4d/output_inception_4d/output_0_split <- inception_4d/output
I1130 04:00:07.746419 19834 net.cpp:380] inception_4d/output_inception_4d/output_0_split -> inception_4d/output_inception_4d/output_0_split_0
I1130 04:00:07.746426 19834 net.cpp:380] inception_4d/output_inception_4d/output_0_split -> inception_4d/output_inception_4d/output_0_split_1
I1130 04:00:07.746434 19834 net.cpp:380] inception_4d/output_inception_4d/output_0_split -> inception_4d/output_inception_4d/output_0_split_2
I1130 04:00:07.746441 19834 net.cpp:380] inception_4d/output_inception_4d/output_0_split -> inception_4d/output_inception_4d/output_0_split_3
I1130 04:00:07.746485 19834 net.cpp:122] Setting up inception_4d/output_inception_4d/output_0_split
I1130 04:00:07.746492 19834 net.cpp:129] Top shape: 32 528 14 14 (3311616)
I1130 04:00:07.746497 19834 net.cpp:129] Top shape: 32 528 14 14 (3311616)
I1130 04:00:07.746502 19834 net.cpp:129] Top shape: 32 528 14 14 (3311616)
I1130 04:00:07.746507 19834 net.cpp:129] Top shape: 32 528 14 14 (3311616)
I1130 04:00:07.746511 19834 net.cpp:137] Memory required for data: 1581146240
I1130 04:00:07.746516 19834 layer_factory.hpp:77] Creating layer inception_4e/1x1
I1130 04:00:07.746523 19834 net.cpp:84] Creating Layer inception_4e/1x1
I1130 04:00:07.746528 19834 net.cpp:406] inception_4e/1x1 <- inception_4d/output_inception_4d/output_0_split_0
I1130 04:00:07.746534 19834 net.cpp:380] inception_4e/1x1 -> inception_4e/1x1
I1130 04:00:07.747793 19834 net.cpp:122] Setting up inception_4e/1x1
I1130 04:00:07.747803 19834 net.cpp:129] Top shape: 32 256 14 14 (1605632)
I1130 04:00:07.747808 19834 net.cpp:137] Memory required for data: 1587568768
I1130 04:00:07.747815 19834 layer_factory.hpp:77] Creating layer inception_4e/relu_1x1
I1130 04:00:07.747822 19834 net.cpp:84] Creating Layer inception_4e/relu_1x1
I1130 04:00:07.747828 19834 net.cpp:406] inception_4e/relu_1x1 <- inception_4e/1x1
I1130 04:00:07.747834 19834 net.cpp:367] inception_4e/relu_1x1 -> inception_4e/1x1 (in-place)
I1130 04:00:07.747841 19834 net.cpp:122] Setting up inception_4e/relu_1x1
I1130 04:00:07.747848 19834 net.cpp:129] Top shape: 32 256 14 14 (1605632)
I1130 04:00:07.747851 19834 net.cpp:137] Memory required for data: 1593991296
I1130 04:00:07.747855 19834 layer_factory.hpp:77] Creating layer inception_4e/3x3_reduce
I1130 04:00:07.747864 19834 net.cpp:84] Creating Layer inception_4e/3x3_reduce
I1130 04:00:07.747869 19834 net.cpp:406] inception_4e/3x3_reduce <- inception_4d/output_inception_4d/output_0_split_1
I1130 04:00:07.747875 19834 net.cpp:380] inception_4e/3x3_reduce -> inception_4e/3x3_reduce
I1130 04:00:07.748493 19834 net.cpp:122] Setting up inception_4e/3x3_reduce
I1130 04:00:07.748502 19834 net.cpp:129] Top shape: 32 160 14 14 (1003520)
I1130 04:00:07.748508 19834 net.cpp:137] Memory required for data: 1598005376
I1130 04:00:07.748514 19834 layer_factory.hpp:77] Creating layer inception_4e/relu_3x3_reduce
I1130 04:00:07.748520 19834 net.cpp:84] Creating Layer inception_4e/relu_3x3_reduce
I1130 04:00:07.748527 19834 net.cpp:406] inception_4e/relu_3x3_reduce <- inception_4e/3x3_reduce
I1130 04:00:07.748531 19834 net.cpp:367] inception_4e/relu_3x3_reduce -> inception_4e/3x3_reduce (in-place)
I1130 04:00:07.748539 19834 net.cpp:122] Setting up inception_4e/relu_3x3_reduce
I1130 04:00:07.748545 19834 net.cpp:129] Top shape: 32 160 14 14 (1003520)
I1130 04:00:07.748550 19834 net.cpp:137] Memory required for data: 1602019456
I1130 04:00:07.748554 19834 layer_factory.hpp:77] Creating layer inception_4e/3x3
I1130 04:00:07.748561 19834 net.cpp:84] Creating Layer inception_4e/3x3
I1130 04:00:07.748566 19834 net.cpp:406] inception_4e/3x3 <- inception_4e/3x3_reduce
I1130 04:00:07.748574 19834 net.cpp:380] inception_4e/3x3 -> inception_4e/3x3
I1130 04:00:07.751713 19834 net.cpp:122] Setting up inception_4e/3x3
I1130 04:00:07.751725 19834 net.cpp:129] Top shape: 32 320 14 14 (2007040)
I1130 04:00:07.751729 19834 net.cpp:137] Memory required for data: 1610047616
I1130 04:00:07.751737 19834 layer_factory.hpp:77] Creating layer inception_4e/relu_3x3
I1130 04:00:07.751745 19834 net.cpp:84] Creating Layer inception_4e/relu_3x3
I1130 04:00:07.751751 19834 net.cpp:406] inception_4e/relu_3x3 <- inception_4e/3x3
I1130 04:00:07.751757 19834 net.cpp:367] inception_4e/relu_3x3 -> inception_4e/3x3 (in-place)
I1130 04:00:07.751765 19834 net.cpp:122] Setting up inception_4e/relu_3x3
I1130 04:00:07.751770 19834 net.cpp:129] Top shape: 32 320 14 14 (2007040)
I1130 04:00:07.751775 19834 net.cpp:137] Memory required for data: 1618075776
I1130 04:00:07.751780 19834 layer_factory.hpp:77] Creating layer inception_4e/5x5_reduce
I1130 04:00:07.751786 19834 net.cpp:84] Creating Layer inception_4e/5x5_reduce
I1130 04:00:07.751792 19834 net.cpp:406] inception_4e/5x5_reduce <- inception_4d/output_inception_4d/output_0_split_2
I1130 04:00:07.751798 19834 net.cpp:380] inception_4e/5x5_reduce -> inception_4e/5x5_reduce
I1130 04:00:07.752071 19834 net.cpp:122] Setting up inception_4e/5x5_reduce
I1130 04:00:07.752080 19834 net.cpp:129] Top shape: 32 32 14 14 (200704)
I1130 04:00:07.752084 19834 net.cpp:137] Memory required for data: 1618878592
I1130 04:00:07.752092 19834 layer_factory.hpp:77] Creating layer inception_4e/relu_5x5_reduce
I1130 04:00:07.752099 19834 net.cpp:84] Creating Layer inception_4e/relu_5x5_reduce
I1130 04:00:07.752104 19834 net.cpp:406] inception_4e/relu_5x5_reduce <- inception_4e/5x5_reduce
I1130 04:00:07.752110 19834 net.cpp:367] inception_4e/relu_5x5_reduce -> inception_4e/5x5_reduce (in-place)
I1130 04:00:07.752116 19834 net.cpp:122] Setting up inception_4e/relu_5x5_reduce
I1130 04:00:07.752122 19834 net.cpp:129] Top shape: 32 32 14 14 (200704)
I1130 04:00:07.752126 19834 net.cpp:137] Memory required for data: 1619681408
I1130 04:00:07.752130 19834 layer_factory.hpp:77] Creating layer inception_4e/5x5
I1130 04:00:07.752138 19834 net.cpp:84] Creating Layer inception_4e/5x5
I1130 04:00:07.752143 19834 net.cpp:406] inception_4e/5x5 <- inception_4e/5x5_reduce
I1130 04:00:07.752151 19834 net.cpp:380] inception_4e/5x5 -> inception_4e/5x5
I1130 04:00:07.753221 19834 net.cpp:122] Setting up inception_4e/5x5
I1130 04:00:07.753232 19834 net.cpp:129] Top shape: 32 128 14 14 (802816)
I1130 04:00:07.753235 19834 net.cpp:137] Memory required for data: 1622892672
I1130 04:00:07.753243 19834 layer_factory.hpp:77] Creating layer inception_4e/relu_5x5
I1130 04:00:07.753250 19834 net.cpp:84] Creating Layer inception_4e/relu_5x5
I1130 04:00:07.753257 19834 net.cpp:406] inception_4e/relu_5x5 <- inception_4e/5x5
I1130 04:00:07.753262 19834 net.cpp:367] inception_4e/relu_5x5 -> inception_4e/5x5 (in-place)
I1130 04:00:07.753269 19834 net.cpp:122] Setting up inception_4e/relu_5x5
I1130 04:00:07.753275 19834 net.cpp:129] Top shape: 32 128 14 14 (802816)
I1130 04:00:07.753280 19834 net.cpp:137] Memory required for data: 1626103936
I1130 04:00:07.753284 19834 layer_factory.hpp:77] Creating layer inception_4e/pool
I1130 04:00:07.753291 19834 net.cpp:84] Creating Layer inception_4e/pool
I1130 04:00:07.753296 19834 net.cpp:406] inception_4e/pool <- inception_4d/output_inception_4d/output_0_split_3
I1130 04:00:07.753304 19834 net.cpp:380] inception_4e/pool -> inception_4e/pool
I1130 04:00:07.753336 19834 net.cpp:122] Setting up inception_4e/pool
I1130 04:00:07.753345 19834 net.cpp:129] Top shape: 32 528 14 14 (3311616)
I1130 04:00:07.753348 19834 net.cpp:137] Memory required for data: 1639350400
I1130 04:00:07.753352 19834 layer_factory.hpp:77] Creating layer inception_4e/pool_proj
I1130 04:00:07.753361 19834 net.cpp:84] Creating Layer inception_4e/pool_proj
I1130 04:00:07.753366 19834 net.cpp:406] inception_4e/pool_proj <- inception_4e/pool
I1130 04:00:07.753373 19834 net.cpp:380] inception_4e/pool_proj -> inception_4e/pool_proj
I1130 04:00:07.753901 19834 net.cpp:122] Setting up inception_4e/pool_proj
I1130 04:00:07.753911 19834 net.cpp:129] Top shape: 32 128 14 14 (802816)
I1130 04:00:07.753916 19834 net.cpp:137] Memory required for data: 1642561664
I1130 04:00:07.753921 19834 layer_factory.hpp:77] Creating layer inception_4e/relu_pool_proj
I1130 04:00:07.753931 19834 net.cpp:84] Creating Layer inception_4e/relu_pool_proj
I1130 04:00:07.753937 19834 net.cpp:406] inception_4e/relu_pool_proj <- inception_4e/pool_proj
I1130 04:00:07.753942 19834 net.cpp:367] inception_4e/relu_pool_proj -> inception_4e/pool_proj (in-place)
I1130 04:00:07.753949 19834 net.cpp:122] Setting up inception_4e/relu_pool_proj
I1130 04:00:07.753957 19834 net.cpp:129] Top shape: 32 128 14 14 (802816)
I1130 04:00:07.753960 19834 net.cpp:137] Memory required for data: 1645772928
I1130 04:00:07.753964 19834 layer_factory.hpp:77] Creating layer inception_4e/output
I1130 04:00:07.753970 19834 net.cpp:84] Creating Layer inception_4e/output
I1130 04:00:07.753975 19834 net.cpp:406] inception_4e/output <- inception_4e/1x1
I1130 04:00:07.753980 19834 net.cpp:406] inception_4e/output <- inception_4e/3x3
I1130 04:00:07.753985 19834 net.cpp:406] inception_4e/output <- inception_4e/5x5
I1130 04:00:07.753990 19834 net.cpp:406] inception_4e/output <- inception_4e/pool_proj
I1130 04:00:07.753998 19834 net.cpp:380] inception_4e/output -> inception_4e/output
I1130 04:00:07.754020 19834 net.cpp:122] Setting up inception_4e/output
I1130 04:00:07.754029 19834 net.cpp:129] Top shape: 32 832 14 14 (5218304)
I1130 04:00:07.754034 19834 net.cpp:137] Memory required for data: 1666646144
I1130 04:00:07.754040 19834 layer_factory.hpp:77] Creating layer pool4/3x3_s2
I1130 04:00:07.754046 19834 net.cpp:84] Creating Layer pool4/3x3_s2
I1130 04:00:07.754051 19834 net.cpp:406] pool4/3x3_s2 <- inception_4e/output
I1130 04:00:07.754057 19834 net.cpp:380] pool4/3x3_s2 -> pool4/3x3_s2
I1130 04:00:07.754088 19834 net.cpp:122] Setting up pool4/3x3_s2
I1130 04:00:07.754096 19834 net.cpp:129] Top shape: 32 832 7 7 (1304576)
I1130 04:00:07.754101 19834 net.cpp:137] Memory required for data: 1671864448
I1130 04:00:07.754106 19834 layer_factory.hpp:77] Creating layer pool4/3x3_s2_pool4/3x3_s2_0_split
I1130 04:00:07.754112 19834 net.cpp:84] Creating Layer pool4/3x3_s2_pool4/3x3_s2_0_split
I1130 04:00:07.754117 19834 net.cpp:406] pool4/3x3_s2_pool4/3x3_s2_0_split <- pool4/3x3_s2
I1130 04:00:07.754122 19834 net.cpp:380] pool4/3x3_s2_pool4/3x3_s2_0_split -> pool4/3x3_s2_pool4/3x3_s2_0_split_0
I1130 04:00:07.754129 19834 net.cpp:380] pool4/3x3_s2_pool4/3x3_s2_0_split -> pool4/3x3_s2_pool4/3x3_s2_0_split_1
I1130 04:00:07.754137 19834 net.cpp:380] pool4/3x3_s2_pool4/3x3_s2_0_split -> pool4/3x3_s2_pool4/3x3_s2_0_split_2
I1130 04:00:07.754143 19834 net.cpp:380] pool4/3x3_s2_pool4/3x3_s2_0_split -> pool4/3x3_s2_pool4/3x3_s2_0_split_3
I1130 04:00:07.754189 19834 net.cpp:122] Setting up pool4/3x3_s2_pool4/3x3_s2_0_split
I1130 04:00:07.754197 19834 net.cpp:129] Top shape: 32 832 7 7 (1304576)
I1130 04:00:07.754204 19834 net.cpp:129] Top shape: 32 832 7 7 (1304576)
I1130 04:00:07.754209 19834 net.cpp:129] Top shape: 32 832 7 7 (1304576)
I1130 04:00:07.754214 19834 net.cpp:129] Top shape: 32 832 7 7 (1304576)
I1130 04:00:07.754217 19834 net.cpp:137] Memory required for data: 1692737664
I1130 04:00:07.754221 19834 layer_factory.hpp:77] Creating layer inception_5a/1x1
I1130 04:00:07.754230 19834 net.cpp:84] Creating Layer inception_5a/1x1
I1130 04:00:07.754236 19834 net.cpp:406] inception_5a/1x1 <- pool4/3x3_s2_pool4/3x3_s2_0_split_0
I1130 04:00:07.754243 19834 net.cpp:380] inception_5a/1x1 -> inception_5a/1x1
I1130 04:00:07.755909 19834 net.cpp:122] Setting up inception_5a/1x1
I1130 04:00:07.755920 19834 net.cpp:129] Top shape: 32 256 7 7 (401408)
I1130 04:00:07.755925 19834 net.cpp:137] Memory required for data: 1694343296
I1130 04:00:07.755933 19834 layer_factory.hpp:77] Creating layer inception_5a/relu_1x1
I1130 04:00:07.755939 19834 net.cpp:84] Creating Layer inception_5a/relu_1x1
I1130 04:00:07.755944 19834 net.cpp:406] inception_5a/relu_1x1 <- inception_5a/1x1
I1130 04:00:07.755951 19834 net.cpp:367] inception_5a/relu_1x1 -> inception_5a/1x1 (in-place)
I1130 04:00:07.755959 19834 net.cpp:122] Setting up inception_5a/relu_1x1
I1130 04:00:07.755964 19834 net.cpp:129] Top shape: 32 256 7 7 (401408)
I1130 04:00:07.755970 19834 net.cpp:137] Memory required for data: 1695948928
I1130 04:00:07.755975 19834 layer_factory.hpp:77] Creating layer inception_5a/3x3_reduce
I1130 04:00:07.755983 19834 net.cpp:84] Creating Layer inception_5a/3x3_reduce
I1130 04:00:07.755988 19834 net.cpp:406] inception_5a/3x3_reduce <- pool4/3x3_s2_pool4/3x3_s2_0_split_1
I1130 04:00:07.755997 19834 net.cpp:380] inception_5a/3x3_reduce -> inception_5a/3x3_reduce
I1130 04:00:07.757244 19834 net.cpp:122] Setting up inception_5a/3x3_reduce
I1130 04:00:07.757254 19834 net.cpp:129] Top shape: 32 160 7 7 (250880)
I1130 04:00:07.757259 19834 net.cpp:137] Memory required for data: 1696952448
I1130 04:00:07.757267 19834 layer_factory.hpp:77] Creating layer inception_5a/relu_3x3_reduce
I1130 04:00:07.757274 19834 net.cpp:84] Creating Layer inception_5a/relu_3x3_reduce
I1130 04:00:07.757279 19834 net.cpp:406] inception_5a/relu_3x3_reduce <- inception_5a/3x3_reduce
I1130 04:00:07.757287 19834 net.cpp:367] inception_5a/relu_3x3_reduce -> inception_5a/3x3_reduce (in-place)
I1130 04:00:07.757294 19834 net.cpp:122] Setting up inception_5a/relu_3x3_reduce
I1130 04:00:07.757300 19834 net.cpp:129] Top shape: 32 160 7 7 (250880)
I1130 04:00:07.757304 19834 net.cpp:137] Memory required for data: 1697955968
I1130 04:00:07.757308 19834 layer_factory.hpp:77] Creating layer inception_5a/3x3
I1130 04:00:07.757316 19834 net.cpp:84] Creating Layer inception_5a/3x3
I1130 04:00:07.757321 19834 net.cpp:406] inception_5a/3x3 <- inception_5a/3x3_reduce
I1130 04:00:07.757329 19834 net.cpp:380] inception_5a/3x3 -> inception_5a/3x3
I1130 04:00:07.760501 19834 net.cpp:122] Setting up inception_5a/3x3
I1130 04:00:07.760515 19834 net.cpp:129] Top shape: 32 320 7 7 (501760)
I1130 04:00:07.760519 19834 net.cpp:137] Memory required for data: 1699963008
I1130 04:00:07.760527 19834 layer_factory.hpp:77] Creating layer inception_5a/relu_3x3
I1130 04:00:07.760535 19834 net.cpp:84] Creating Layer inception_5a/relu_3x3
I1130 04:00:07.760540 19834 net.cpp:406] inception_5a/relu_3x3 <- inception_5a/3x3
I1130 04:00:07.760550 19834 net.cpp:367] inception_5a/relu_3x3 -> inception_5a/3x3 (in-place)
I1130 04:00:07.760557 19834 net.cpp:122] Setting up inception_5a/relu_3x3
I1130 04:00:07.760565 19834 net.cpp:129] Top shape: 32 320 7 7 (501760)
I1130 04:00:07.760570 19834 net.cpp:137] Memory required for data: 1701970048
I1130 04:00:07.760572 19834 layer_factory.hpp:77] Creating layer inception_5a/5x5_reduce
I1130 04:00:07.760583 19834 net.cpp:84] Creating Layer inception_5a/5x5_reduce
I1130 04:00:07.760588 19834 net.cpp:406] inception_5a/5x5_reduce <- pool4/3x3_s2_pool4/3x3_s2_0_split_2
I1130 04:00:07.760596 19834 net.cpp:380] inception_5a/5x5_reduce -> inception_5a/5x5_reduce
I1130 04:00:07.760941 19834 net.cpp:122] Setting up inception_5a/5x5_reduce
I1130 04:00:07.760949 19834 net.cpp:129] Top shape: 32 32 7 7 (50176)
I1130 04:00:07.760953 19834 net.cpp:137] Memory required for data: 1702170752
I1130 04:00:07.760960 19834 layer_factory.hpp:77] Creating layer inception_5a/relu_5x5_reduce
I1130 04:00:07.760967 19834 net.cpp:84] Creating Layer inception_5a/relu_5x5_reduce
I1130 04:00:07.760972 19834 net.cpp:406] inception_5a/relu_5x5_reduce <- inception_5a/5x5_reduce
I1130 04:00:07.760977 19834 net.cpp:367] inception_5a/relu_5x5_reduce -> inception_5a/5x5_reduce (in-place)
I1130 04:00:07.760985 19834 net.cpp:122] Setting up inception_5a/relu_5x5_reduce
I1130 04:00:07.760992 19834 net.cpp:129] Top shape: 32 32 7 7 (50176)
I1130 04:00:07.760994 19834 net.cpp:137] Memory required for data: 1702371456
I1130 04:00:07.760999 19834 layer_factory.hpp:77] Creating layer inception_5a/5x5
I1130 04:00:07.761009 19834 net.cpp:84] Creating Layer inception_5a/5x5
I1130 04:00:07.761016 19834 net.cpp:406] inception_5a/5x5 <- inception_5a/5x5_reduce
I1130 04:00:07.761024 19834 net.cpp:380] inception_5a/5x5 -> inception_5a/5x5
I1130 04:00:07.761780 19834 net.cpp:122] Setting up inception_5a/5x5
I1130 04:00:07.761790 19834 net.cpp:129] Top shape: 32 128 7 7 (200704)
I1130 04:00:07.761795 19834 net.cpp:137] Memory required for data: 1703174272
I1130 04:00:07.761801 19834 layer_factory.hpp:77] Creating layer inception_5a/relu_5x5
I1130 04:00:07.761823 19834 net.cpp:84] Creating Layer inception_5a/relu_5x5
I1130 04:00:07.761831 19834 net.cpp:406] inception_5a/relu_5x5 <- inception_5a/5x5
I1130 04:00:07.761837 19834 net.cpp:367] inception_5a/relu_5x5 -> inception_5a/5x5 (in-place)
I1130 04:00:07.761844 19834 net.cpp:122] Setting up inception_5a/relu_5x5
I1130 04:00:07.761852 19834 net.cpp:129] Top shape: 32 128 7 7 (200704)
I1130 04:00:07.761857 19834 net.cpp:137] Memory required for data: 1703977088
I1130 04:00:07.761862 19834 layer_factory.hpp:77] Creating layer inception_5a/pool
I1130 04:00:07.761871 19834 net.cpp:84] Creating Layer inception_5a/pool
I1130 04:00:07.761878 19834 net.cpp:406] inception_5a/pool <- pool4/3x3_s2_pool4/3x3_s2_0_split_3
I1130 04:00:07.761885 19834 net.cpp:380] inception_5a/pool -> inception_5a/pool
I1130 04:00:07.761920 19834 net.cpp:122] Setting up inception_5a/pool
I1130 04:00:07.761929 19834 net.cpp:129] Top shape: 32 832 7 7 (1304576)
I1130 04:00:07.761934 19834 net.cpp:137] Memory required for data: 1709195392
I1130 04:00:07.761940 19834 layer_factory.hpp:77] Creating layer inception_5a/pool_proj
I1130 04:00:07.761950 19834 net.cpp:84] Creating Layer inception_5a/pool_proj
I1130 04:00:07.761956 19834 net.cpp:406] inception_5a/pool_proj <- inception_5a/pool
I1130 04:00:07.761966 19834 net.cpp:380] inception_5a/pool_proj -> inception_5a/pool_proj
I1130 04:00:07.764874 19834 net.cpp:122] Setting up inception_5a/pool_proj
I1130 04:00:07.764889 19834 net.cpp:129] Top shape: 32 128 7 7 (200704)
I1130 04:00:07.764894 19834 net.cpp:137] Memory required for data: 1709998208
I1130 04:00:07.764904 19834 layer_factory.hpp:77] Creating layer inception_5a/relu_pool_proj
I1130 04:00:07.764914 19834 net.cpp:84] Creating Layer inception_5a/relu_pool_proj
I1130 04:00:07.764919 19834 net.cpp:406] inception_5a/relu_pool_proj <- inception_5a/pool_proj
I1130 04:00:07.764926 19834 net.cpp:367] inception_5a/relu_pool_proj -> inception_5a/pool_proj (in-place)
I1130 04:00:07.764935 19834 net.cpp:122] Setting up inception_5a/relu_pool_proj
I1130 04:00:07.764941 19834 net.cpp:129] Top shape: 32 128 7 7 (200704)
I1130 04:00:07.764945 19834 net.cpp:137] Memory required for data: 1710801024
I1130 04:00:07.764950 19834 layer_factory.hpp:77] Creating layer inception_5a/output
I1130 04:00:07.764957 19834 net.cpp:84] Creating Layer inception_5a/output
I1130 04:00:07.764962 19834 net.cpp:406] inception_5a/output <- inception_5a/1x1
I1130 04:00:07.764968 19834 net.cpp:406] inception_5a/output <- inception_5a/3x3
I1130 04:00:07.764974 19834 net.cpp:406] inception_5a/output <- inception_5a/5x5
I1130 04:00:07.764978 19834 net.cpp:406] inception_5a/output <- inception_5a/pool_proj
I1130 04:00:07.764984 19834 net.cpp:380] inception_5a/output -> inception_5a/output
I1130 04:00:07.765008 19834 net.cpp:122] Setting up inception_5a/output
I1130 04:00:07.765017 19834 net.cpp:129] Top shape: 32 832 7 7 (1304576)
I1130 04:00:07.765022 19834 net.cpp:137] Memory required for data: 1716019328
I1130 04:00:07.765027 19834 layer_factory.hpp:77] Creating layer inception_5a/output_inception_5a/output_0_split
I1130 04:00:07.765033 19834 net.cpp:84] Creating Layer inception_5a/output_inception_5a/output_0_split
I1130 04:00:07.765038 19834 net.cpp:406] inception_5a/output_inception_5a/output_0_split <- inception_5a/output
I1130 04:00:07.765045 19834 net.cpp:380] inception_5a/output_inception_5a/output_0_split -> inception_5a/output_inception_5a/output_0_split_0
I1130 04:00:07.765053 19834 net.cpp:380] inception_5a/output_inception_5a/output_0_split -> inception_5a/output_inception_5a/output_0_split_1
I1130 04:00:07.765063 19834 net.cpp:380] inception_5a/output_inception_5a/output_0_split -> inception_5a/output_inception_5a/output_0_split_2
I1130 04:00:07.765069 19834 net.cpp:380] inception_5a/output_inception_5a/output_0_split -> inception_5a/output_inception_5a/output_0_split_3
I1130 04:00:07.765118 19834 net.cpp:122] Setting up inception_5a/output_inception_5a/output_0_split
I1130 04:00:07.765125 19834 net.cpp:129] Top shape: 32 832 7 7 (1304576)
I1130 04:00:07.765131 19834 net.cpp:129] Top shape: 32 832 7 7 (1304576)
I1130 04:00:07.765136 19834 net.cpp:129] Top shape: 32 832 7 7 (1304576)
I1130 04:00:07.765141 19834 net.cpp:129] Top shape: 32 832 7 7 (1304576)
I1130 04:00:07.765146 19834 net.cpp:137] Memory required for data: 1736892544
I1130 04:00:07.765151 19834 layer_factory.hpp:77] Creating layer inception_5b/1x1
I1130 04:00:07.765161 19834 net.cpp:84] Creating Layer inception_5b/1x1
I1130 04:00:07.765166 19834 net.cpp:406] inception_5b/1x1 <- inception_5a/output_inception_5a/output_0_split_0
I1130 04:00:07.765173 19834 net.cpp:380] inception_5b/1x1 -> inception_5b/1x1
I1130 04:00:07.767498 19834 net.cpp:122] Setting up inception_5b/1x1
I1130 04:00:07.767508 19834 net.cpp:129] Top shape: 32 384 7 7 (602112)
I1130 04:00:07.767513 19834 net.cpp:137] Memory required for data: 1739300992
I1130 04:00:07.767521 19834 layer_factory.hpp:77] Creating layer inception_5b/relu_1x1
I1130 04:00:07.767529 19834 net.cpp:84] Creating Layer inception_5b/relu_1x1
I1130 04:00:07.767534 19834 net.cpp:406] inception_5b/relu_1x1 <- inception_5b/1x1
I1130 04:00:07.767541 19834 net.cpp:367] inception_5b/relu_1x1 -> inception_5b/1x1 (in-place)
I1130 04:00:07.767549 19834 net.cpp:122] Setting up inception_5b/relu_1x1
I1130 04:00:07.767555 19834 net.cpp:129] Top shape: 32 384 7 7 (602112)
I1130 04:00:07.767560 19834 net.cpp:137] Memory required for data: 1741709440
I1130 04:00:07.767563 19834 layer_factory.hpp:77] Creating layer inception_5b/3x3_reduce
I1130 04:00:07.767572 19834 net.cpp:84] Creating Layer inception_5b/3x3_reduce
I1130 04:00:07.767578 19834 net.cpp:406] inception_5b/3x3_reduce <- inception_5a/output_inception_5a/output_0_split_1
I1130 04:00:07.767586 19834 net.cpp:380] inception_5b/3x3_reduce -> inception_5b/3x3_reduce
I1130 04:00:07.768978 19834 net.cpp:122] Setting up inception_5b/3x3_reduce
I1130 04:00:07.768990 19834 net.cpp:129] Top shape: 32 192 7 7 (301056)
I1130 04:00:07.768995 19834 net.cpp:137] Memory required for data: 1742913664
I1130 04:00:07.769001 19834 layer_factory.hpp:77] Creating layer inception_5b/relu_3x3_reduce
I1130 04:00:07.769008 19834 net.cpp:84] Creating Layer inception_5b/relu_3x3_reduce
I1130 04:00:07.769013 19834 net.cpp:406] inception_5b/relu_3x3_reduce <- inception_5b/3x3_reduce
I1130 04:00:07.769019 19834 net.cpp:367] inception_5b/relu_3x3_reduce -> inception_5b/3x3_reduce (in-place)
I1130 04:00:07.769027 19834 net.cpp:122] Setting up inception_5b/relu_3x3_reduce
I1130 04:00:07.769033 19834 net.cpp:129] Top shape: 32 192 7 7 (301056)
I1130 04:00:07.769037 19834 net.cpp:137] Memory required for data: 1744117888
I1130 04:00:07.769042 19834 layer_factory.hpp:77] Creating layer inception_5b/3x3
I1130 04:00:07.769050 19834 net.cpp:84] Creating Layer inception_5b/3x3
I1130 04:00:07.769055 19834 net.cpp:406] inception_5b/3x3 <- inception_5b/3x3_reduce
I1130 04:00:07.769062 19834 net.cpp:380] inception_5b/3x3 -> inception_5b/3x3
I1130 04:00:07.773463 19834 net.cpp:122] Setting up inception_5b/3x3
I1130 04:00:07.773474 19834 net.cpp:129] Top shape: 32 384 7 7 (602112)
I1130 04:00:07.773480 19834 net.cpp:137] Memory required for data: 1746526336
I1130 04:00:07.773488 19834 layer_factory.hpp:77] Creating layer inception_5b/relu_3x3
I1130 04:00:07.773495 19834 net.cpp:84] Creating Layer inception_5b/relu_3x3
I1130 04:00:07.773501 19834 net.cpp:406] inception_5b/relu_3x3 <- inception_5b/3x3
I1130 04:00:07.773507 19834 net.cpp:367] inception_5b/relu_3x3 -> inception_5b/3x3 (in-place)
I1130 04:00:07.773515 19834 net.cpp:122] Setting up inception_5b/relu_3x3
I1130 04:00:07.773520 19834 net.cpp:129] Top shape: 32 384 7 7 (602112)
I1130 04:00:07.773525 19834 net.cpp:137] Memory required for data: 1748934784
I1130 04:00:07.773530 19834 layer_factory.hpp:77] Creating layer inception_5b/5x5_reduce
I1130 04:00:07.773538 19834 net.cpp:84] Creating Layer inception_5b/5x5_reduce
I1130 04:00:07.773543 19834 net.cpp:406] inception_5b/5x5_reduce <- inception_5a/output_inception_5a/output_0_split_2
I1130 04:00:07.773551 19834 net.cpp:380] inception_5b/5x5_reduce -> inception_5b/5x5_reduce
I1130 04:00:07.773967 19834 net.cpp:122] Setting up inception_5b/5x5_reduce
I1130 04:00:07.773978 19834 net.cpp:129] Top shape: 32 48 7 7 (75264)
I1130 04:00:07.773983 19834 net.cpp:137] Memory required for data: 1749235840
I1130 04:00:07.773990 19834 layer_factory.hpp:77] Creating layer inception_5b/relu_5x5_reduce
I1130 04:00:07.773998 19834 net.cpp:84] Creating Layer inception_5b/relu_5x5_reduce
I1130 04:00:07.774003 19834 net.cpp:406] inception_5b/relu_5x5_reduce <- inception_5b/5x5_reduce
I1130 04:00:07.774009 19834 net.cpp:367] inception_5b/relu_5x5_reduce -> inception_5b/5x5_reduce (in-place)
I1130 04:00:07.774015 19834 net.cpp:122] Setting up inception_5b/relu_5x5_reduce
I1130 04:00:07.774021 19834 net.cpp:129] Top shape: 32 48 7 7 (75264)
I1130 04:00:07.774026 19834 net.cpp:137] Memory required for data: 1749536896
I1130 04:00:07.774029 19834 layer_factory.hpp:77] Creating layer inception_5b/5x5
I1130 04:00:07.774039 19834 net.cpp:84] Creating Layer inception_5b/5x5
I1130 04:00:07.774044 19834 net.cpp:406] inception_5b/5x5 <- inception_5b/5x5_reduce
I1130 04:00:07.774052 19834 net.cpp:380] inception_5b/5x5 -> inception_5b/5x5
I1130 04:00:07.775072 19834 net.cpp:122] Setting up inception_5b/5x5
I1130 04:00:07.775082 19834 net.cpp:129] Top shape: 32 128 7 7 (200704)
I1130 04:00:07.775086 19834 net.cpp:137] Memory required for data: 1750339712
I1130 04:00:07.775094 19834 layer_factory.hpp:77] Creating layer inception_5b/relu_5x5
I1130 04:00:07.775099 19834 net.cpp:84] Creating Layer inception_5b/relu_5x5
I1130 04:00:07.775104 19834 net.cpp:406] inception_5b/relu_5x5 <- inception_5b/5x5
I1130 04:00:07.775112 19834 net.cpp:367] inception_5b/relu_5x5 -> inception_5b/5x5 (in-place)
I1130 04:00:07.775120 19834 net.cpp:122] Setting up inception_5b/relu_5x5
I1130 04:00:07.775125 19834 net.cpp:129] Top shape: 32 128 7 7 (200704)
I1130 04:00:07.775130 19834 net.cpp:137] Memory required for data: 1751142528
I1130 04:00:07.775135 19834 layer_factory.hpp:77] Creating layer inception_5b/pool
I1130 04:00:07.775141 19834 net.cpp:84] Creating Layer inception_5b/pool
I1130 04:00:07.775146 19834 net.cpp:406] inception_5b/pool <- inception_5a/output_inception_5a/output_0_split_3
I1130 04:00:07.775152 19834 net.cpp:380] inception_5b/pool -> inception_5b/pool
I1130 04:00:07.775188 19834 net.cpp:122] Setting up inception_5b/pool
I1130 04:00:07.775195 19834 net.cpp:129] Top shape: 32 832 7 7 (1304576)
I1130 04:00:07.775200 19834 net.cpp:137] Memory required for data: 1756360832
I1130 04:00:07.775204 19834 layer_factory.hpp:77] Creating layer inception_5b/pool_proj
I1130 04:00:07.775214 19834 net.cpp:84] Creating Layer inception_5b/pool_proj
I1130 04:00:07.775220 19834 net.cpp:406] inception_5b/pool_proj <- inception_5b/pool
I1130 04:00:07.775228 19834 net.cpp:380] inception_5b/pool_proj -> inception_5b/pool_proj
I1130 04:00:07.776331 19834 net.cpp:122] Setting up inception_5b/pool_proj
I1130 04:00:07.776342 19834 net.cpp:129] Top shape: 32 128 7 7 (200704)
I1130 04:00:07.776346 19834 net.cpp:137] Memory required for data: 1757163648
I1130 04:00:07.776353 19834 layer_factory.hpp:77] Creating layer inception_5b/relu_pool_proj
I1130 04:00:07.776361 19834 net.cpp:84] Creating Layer inception_5b/relu_pool_proj
I1130 04:00:07.776367 19834 net.cpp:406] inception_5b/relu_pool_proj <- inception_5b/pool_proj
I1130 04:00:07.776373 19834 net.cpp:367] inception_5b/relu_pool_proj -> inception_5b/pool_proj (in-place)
I1130 04:00:07.776381 19834 net.cpp:122] Setting up inception_5b/relu_pool_proj
I1130 04:00:07.776386 19834 net.cpp:129] Top shape: 32 128 7 7 (200704)
I1130 04:00:07.776389 19834 net.cpp:137] Memory required for data: 1757966464
I1130 04:00:07.776393 19834 layer_factory.hpp:77] Creating layer inception_5b/output
I1130 04:00:07.776401 19834 net.cpp:84] Creating Layer inception_5b/output
I1130 04:00:07.776407 19834 net.cpp:406] inception_5b/output <- inception_5b/1x1
I1130 04:00:07.776412 19834 net.cpp:406] inception_5b/output <- inception_5b/3x3
I1130 04:00:07.776417 19834 net.cpp:406] inception_5b/output <- inception_5b/5x5
I1130 04:00:07.776422 19834 net.cpp:406] inception_5b/output <- inception_5b/pool_proj
I1130 04:00:07.776427 19834 net.cpp:380] inception_5b/output -> inception_5b/output
I1130 04:00:07.776450 19834 net.cpp:122] Setting up inception_5b/output
I1130 04:00:07.776459 19834 net.cpp:129] Top shape: 32 1024 7 7 (1605632)
I1130 04:00:07.776463 19834 net.cpp:137] Memory required for data: 1764388992
I1130 04:00:07.776468 19834 layer_factory.hpp:77] Creating layer pool5/7x7_s1
I1130 04:00:07.776474 19834 net.cpp:84] Creating Layer pool5/7x7_s1
I1130 04:00:07.776479 19834 net.cpp:406] pool5/7x7_s1 <- inception_5b/output
I1130 04:00:07.776485 19834 net.cpp:380] pool5/7x7_s1 -> pool5/7x7_s1
I1130 04:00:07.776510 19834 net.cpp:122] Setting up pool5/7x7_s1
I1130 04:00:07.776516 19834 net.cpp:129] Top shape: 32 1024 1 1 (32768)
I1130 04:00:07.776520 19834 net.cpp:137] Memory required for data: 1764520064
I1130 04:00:07.776525 19834 layer_factory.hpp:77] Creating layer pool5/drop_7x7_s1
I1130 04:00:07.776533 19834 net.cpp:84] Creating Layer pool5/drop_7x7_s1
I1130 04:00:07.776538 19834 net.cpp:406] pool5/drop_7x7_s1 <- pool5/7x7_s1
I1130 04:00:07.776546 19834 net.cpp:367] pool5/drop_7x7_s1 -> pool5/7x7_s1 (in-place)
I1130 04:00:07.776571 19834 net.cpp:122] Setting up pool5/drop_7x7_s1
I1130 04:00:07.776578 19834 net.cpp:129] Top shape: 32 1024 1 1 (32768)
I1130 04:00:07.776583 19834 net.cpp:137] Memory required for data: 1764651136
I1130 04:00:07.776587 19834 layer_factory.hpp:77] Creating layer fc_scv_picturesque
I1130 04:00:07.776597 19834 net.cpp:84] Creating Layer fc_scv_picturesque
I1130 04:00:07.776600 19834 net.cpp:406] fc_scv_picturesque <- pool5/7x7_s1
I1130 04:00:07.776608 19834 net.cpp:380] fc_scv_picturesque -> fc_scv_picturesque
I1130 04:00:07.776705 19834 net.cpp:122] Setting up fc_scv_picturesque
I1130 04:00:07.776712 19834 net.cpp:129] Top shape: 32 1 (32)
I1130 04:00:07.776717 19834 net.cpp:137] Memory required for data: 1764651264
I1130 04:00:07.776723 19834 layer_factory.hpp:77] Creating layer loss
I1130 04:00:07.776731 19834 net.cpp:84] Creating Layer loss
I1130 04:00:07.776737 19834 net.cpp:406] loss <- fc_scv_picturesque
I1130 04:00:07.776743 19834 net.cpp:406] loss <- label
I1130 04:00:07.776751 19834 net.cpp:380] loss -> loss
I1130 04:00:07.776788 19834 net.cpp:122] Setting up loss
…
I1130 04:00:07.782341 19834 net.cpp:294] The NetState phase (1) differed from the phase (0) specified by a rule in layer data
I1130 04:00:07.783082 19834 net.cpp:51] Initializing net from parameters: 
name: "GoogleNet-Places365-SCV-Picturesque"
state {
  phase: TEST
}
layer {
  name: "data"
  type: "Data"
  top: "data"
  top: "label"
  include {
    phase: TEST
  }
  transform_param {
    mirror: false
    crop_size: 224
    mean_file: "/idiap/temp/lmedina/fine-tuning/googlenet_places365/places365CNN_mean.binaryproto"
  }
  data_param {
    source: "/idiap/temp/lmedina/fine-tuning/data/Picturesque/validation_lmdb"
    batch_size: 32
    backend: LMDB
  }
}
layer {
  name: "conv1/7x7_s2"
  type: "Convolution"
  bottom: "data"
  top: "conv1/7x7_s2"
  param {
    lr_mult: 1
    decay_mult: 1
  }
  param {
    lr_mult: 2
    decay_mult: 0
  }
  convolution_param {
    num_output: 64
    pad: 3
    kernel_size: 7
    stride: 2
    weight_filler {
      type: "xavier"
      std: 0.1
    }
    bias_filler {
      type: "constant"
      value: 0.2
    }
  }
}
layer {
  name: "conv1/relu_7x7"
  type: "ReLU"
  bottom: "conv1/7x7_s2"
  top: "conv1/7x7_s2"
}
layer {
  name: "pool1/3x3_s2"
  type: "Pooling"
  bottom: "conv1/7x7_s2"
  top: "pool1/3x3_s2"
  pooling_param {
    pool: MAX
    kernel_size: 3
    stride: 2
  }
}
layer {
  name: "pool1/norm1"
  type: "LRN"
  bottom: "pool1/3x3_s2"
  top: "pool1/norm1"
  lrn_param {
    local_size: 5
    alpha: 0.0001
    beta: 0.75
  }
}
layer {
  name: "conv2/3x3_reduce"
  type: "Convolution"
  bottom: "pool1/norm1"
  top: "conv2/3x3_reduce"
  param {
    lr_mult: 1
    decay_mult: 1
  }
  param {
    lr_mult: 2
    decay_mult: 0
  }
  convolution_param {
    num_output: 64
    kernel_size: 1
    weight_filler {
      type: "xavier"
      std: 0.1
    }
    bias_filler {
      type: "constant"
      value: 0.2
    }
  }
}
layer {
  name: "conv2/relu_3x3_reduce"
  type: "ReLU"
  bottom: "conv2/3x3_reduce"
  top: "conv2/3x3_reduce"
}
layer {
  name: "conv2/3x3"
  type: "Convolution"
  bottom: "conv2/3x3_reduce"
  top: "conv2/3x3"
  param {
    lr_mult: 1
    decay_mult: 1
  }
  param {
    lr_mult: 2
    decay_mult: 0
  }
  convolution_param {
    num_output: 192
    pad: 1
    kernel_size: 3
    weight_filler {
      type: "xavier"
      std: 0.03
    }
    bias_filler {
      type: "constant"
      value: 0.2
    }
  }
}
layer {
  name: "conv2/relu_3x3"
  type: "ReLU"
  bottom: "conv2/3x3"
  top: "conv2/3x3"
}
layer {
  name: "conv2/norm2"
  type: "LRN"
  bottom: "conv2/3x3"
  top: "conv2/norm2"
  lrn_param {
    local_size: 5
    alpha: 0.0001
    beta: 0.75
  }
}
layer {
  name: "pool2/3x3_s2"
  type: "Pooling"
  bottom: "conv2/norm2"
  top: "pool2/3x3_s2"
  pooling_param {
    pool: MAX
    kernel_size: 3
    stride: 2
  }
}
layer {
  name: "inception_3a/1x1"
  type: "Convolution"
  bottom: "pool2/3x3_s2"
  top: "inception_3a/1x1"
  param {
    lr_mult: 1
    decay_mult: 1
  }
  param {
    lr_mult: 2
    decay_mult: 0
  }
  convolution_param {
    num_output: 64
    kernel_size: 1
    weight_filler {
      type: "xavier"
      std: 0.03
    }
    bias_filler {
      type: "constant"
      value: 0.2
    }
  }
}
layer {
  name: "inception_3a/relu_1x1"
  type: "ReLU"
  bottom: "inception_3a/1x1"
  top: "inception_3a/1x1"
}
layer {
  name: "inception_3a/3x3_reduce"
  type: "Convolution"
  bottom: "pool2/3x3_s2"
  top: "inception_3a/3x3_reduce"
  param {
    lr_mult: 1
    decay_mult: 1
  }
  param {
    lr_mult: 2
    decay_mult: 0
  }
  convolution_param {
    num_output: 96
    kernel_size: 1
    weight_filler {
      type: "xavier"
      std: 0.09
    }
    bias_filler {
      type: "constant"
      value: 0.2
    }
  }
}
layer {
  name: "inception_3a/relu_3x3_reduce"
  type: "ReLU"
  bottom: "inception_3a/3x3_reduce"
  top: "inception_3a/3x3_reduce"
}
layer {
  name: "inception_3a/3x3"
  type: "Convolution"
  bottom: "inception_3a/3x3_reduce"
  top: "inception_3a/3x3"
  param {
    lr_mult: 1
    decay_mult: 1
  }
  param {
    lr_mult: 2
    decay_mult: 0
  }
  convolution_param {
    num_output: 128
    pad: 1
    kernel_size: 3
    weight_filler {
      type: "xavier"
      std: 0.03
    }
    bias_filler {
      type: "constant"
      value: 0.2
    }
  }
}
layer {
  name: "inception_3a/relu_3x3"
  type: "ReLU"
  bottom: "inception_3a/3x3"
  top: "inception_3a/3x3"
}
layer {
  name: "inception_3a/5x5_reduce"
  type: "Convolution"
  bottom: "pool2/3x3_s2"
  top: "inception_3a/5x5_reduce"
  param {
    lr_mult: 1
    decay_mult: 1
  }
  param {
    lr_mult: 2
    decay_mult: 0
  }
  convolution_param {
    num_output: 16
    kernel_size: 1
    weight_filler {
      type: "xavier"
      std: 0.2
    }
    bias_filler {
      type: "constant"
      value: 0.2
    }
  }
}
layer {
  name: "inception_3a/relu_5x5_reduce"
  type: "ReLU"
  bottom: "inception_3a/5x5_reduce"
  top: "inception_3a/5x5_reduce"
}
layer {
  name: "inception_3a/5x5"
  type: "Convolution"
  bottom: "inception_3a/5x5_reduce"
  top: "inception_3a/5x5"
  param {
    lr_mult: 1
    decay_mult: 1
  }
  param {
    lr_mult: 2
    decay_mult: 0
  }
  convolution_param {
    num_output: 32
    pad: 2
    kernel_size: 5
    weight_filler {
      type: "xavier"
      std: 0.03
    }
    bias_filler {
      type: "constant"
      value: 0.2
    }
  }
}
layer {
  name: "inception_3a/relu_5x5"
  type: "ReLU"
  bottom: "inception_3a/5x5"
  top: "inception_3a/5x5"
}
layer {
  name: "inception_3a/pool"
  type: "Pooling"
  bottom: "pool2/3x3_s2"
  top: "inception_3a/pool"
  pooling_param {
    pool: MAX
    kernel_size: 3
    stride: 1
    pad: 1
  }
}
layer {
  name: "inception_3a/pool_proj"
  type: "Convolution"
  bottom: "inception_3a/pool"
  top: "inception_3a/pool_proj"
  param {
    lr_mult: 1
    decay_mult: 1
  }
  param {
    lr_mult: 2
    decay_mult: 0
  }
  convolution_param {
    num_output: 32
    kernel_size: 1
    weight_filler {
      type: "xavier"
      std: 0.1
    }
    bias_filler {
      type: "constant"
      value: 0.2
    }
  }
}
layer {
  name: "inception_3a/relu_pool_proj"
  type: "ReLU"
  bottom: "inception_3a/pool_proj"
  top: "inception_3a/pool_proj"
}
layer {
  name: "inception_3a/output"
  type: "Concat"
  bottom: "inception_3a/1x1"
  bottom: "inception_3a/3x3"
  bottom: "inception_3a/5x5"
  bottom: "inception_3a/pool_proj"
  top: "inception_3a/output"
}
layer {
  name: "inception_3b/1x1"
  type: "Convolution"
  bottom: "inception_3a/output"
  top: "inception_3b/1x1"
  param {
    lr_mult: 1
    decay_mult: 1
  }
  param {
    lr_mult: 2
    decay_mult: 0
  }
  convolution_param {
    num_output: 128
    kernel_size: 1
    weight_filler {
      type: "xavier"
      std: 0.03
    }
    bias_filler {
      type: "constant"
      value: 0.2
    }
  }
}
layer {
  name: "inception_3b/relu_1x1"
  type: "ReLU"
  bottom: "inception_3b/1x1"
  top: "inception_3b/1x1"
}
layer {
  name: "inception_3b/3x3_reduce"
  type: "Convolution"
  bottom: "inception_3a/output"
  top: "inception_3b/3x3_reduce"
  param {
    lr_mult: 1
    decay_mult: 1
  }
  param {
    lr_mult: 2
    decay_mult: 0
  }
  convolution_param {
    num_output: 128
    kernel_size: 1
    weight_filler {
      type: "xavier"
      std: 0.09
    }
    bias_filler {
      type: "constant"
      value: 0.2
    }
  }
}
layer {
  name: "inception_3b/relu_3x3_reduce"
  type: "ReLU"
  bottom: "inception_3b/3x3_reduce"
  top: "inception_3b/3x3_reduce"
}
layer {
  name: "inception_3b/3x3"
  type: "Convolution"
  bottom: "inception_3b/3x3_reduce"
  top: "inception_3b/3x3"
  param {
    lr_mult: 1
    decay_mult: 1
  }
  param {
    lr_mult: 2
    decay_mult: 0
  }
  convolution_param {
    num_output: 192
    pad: 1
    kernel_size: 3
    weight_filler {
      type: "xavier"
      std: 0.03
    }
    bias_filler {
      type: "constant"
      value: 0.2
    }
  }
}
layer {
  name: "inception_3b/relu_3x3"
  type: "ReLU"
  bottom: "inception_3b/3x3"
  top: "inception_3b/3x3"
}
layer {
  name: "inception_3b/5x5_reduce"
  type: "Convolution"
  bottom: "inception_3a/output"
  top: "inception_3b/5x5_reduce"
  param {
    lr_mult: 1
    decay_mult: 1
  }
  param {
    lr_mult: 2
    decay_mult: 0
  }
  convolution_param {
    num_output: 32
    kernel_size: 1
    weight_filler {
      type: "xavier"
      std: 0.2
    }
    bias_filler {
      type: "constant"
      value: 0.2
    }
  }
}
layer {
  name: "inception_3b/relu_5x5_reduce"
  type: "ReLU"
  bottom: "inception_3b/5x5_reduce"
  top: "inception_3b/5x5_reduce"
}
layer {
  name: "inception_3b/5x5"
  type: "Convolution"
  bottom: "inception_3b/5x5_reduce"
  top: "inception_3b/5x5"
  param {
    lr_mult: 1
    decay_mult: 1
  }
  param {
    lr_mult: 2
    decay_mult: 0
  }
  convolution_param {
    num_output: 96
    pad: 2
    kernel_size: 5
    weight_filler {
      type: "xavier"
      std: 0.03
    }
    bias_filler {
      type: "constant"
      value: 0.2
    }
  }
}
layer {
  name: "inception_3b/relu_5x5"
  type: "ReLU"
  bottom: "inception_3b/5x5"
  top: "inception_3b/5x5"
}
layer {
  name: "inception_3b/pool"
  type: "Pooling"
  bottom: "inception_3a/output"
  top: "inception_3b/pool"
  pooling_param {
    pool: MAX
    kernel_size: 3
    stride: 1
    pad: 1
  }
}
layer {
  name: "inception_3b/pool_proj"
  type: "Convolution"
  bottom: "inception_3b/pool"
  top: "inception_3b/pool_proj"
  param {
    lr_mult: 1
    decay_mult: 1
  }
  param {
    lr_mult: 2
    decay_mult: 0
  }
  convolution_param {
    num_output: 64
    kernel_size: 1
    weight_filler {
      type: "xavier"
      std: 0.1
    }
    bias_filler {
      type: "constant"
      value: 0.2
    }
  }
}
layer {
  name: "inception_3b/relu_pool_proj"
  type: "ReLU"
  bottom: "inception_3b/pool_proj"
  top: "inception_3b/pool_proj"
}
layer {
  name: "inception_3b/output"
  type: "Concat"
  bottom: "inception_3b/1x1"
  bottom: "inception_3b/3x3"
  bottom: "inception_3b/5x5"
  bottom: "inception_3b/pool_proj"
  top: "inception_3b/output"
}
layer {
  name: "pool3/3x3_s2"
  type: "Pooling"
  bottom: "inception_3b/output"
  top: "pool3/3x3_s2"
  pooling_param {
    pool: MAX
    kernel_size: 3
    stride: 2
  }
}
layer {
  name: "inception_4a/1x1"
  type: "Convolution"
  bottom: "pool3/3x3_s2"
  top: "inception_4a/1x1"
  param {
    lr_mult: 1
    decay_mult: 1
  }
  param {
    lr_mult: 2
    decay_mult: 0
  }
  convolution_param {
    num_output: 192
    kernel_size: 1
    weight_filler {
      type: "xavier"
      std: 0.03
    }
    bias_filler {
      type: "constant"
      value: 0.2
    }
  }
}
layer {
  name: "inception_4a/relu_1x1"
  type: "ReLU"
  bottom: "inception_4a/1x1"
  top: "inception_4a/1x1"
}
layer {
  name: "inception_4a/3x3_reduce"
  type: "Convolution"
  bottom: "pool3/3x3_s2"
  top: "inception_4a/3x3_reduce"
  param {
    lr_mult: 1
    decay_mult: 1
  }
  param {
    lr_mult: 2
    decay_mult: 0
  }
  convolution_param {
    num_output: 96
    kernel_size: 1
    weight_filler {
      type: "xavier"
      std: 0.09
    }
    bias_filler {
      type: "constant"
      value: 0.2
    }
  }
}
layer {
  name: "inception_4a/relu_3x3_reduce"
  type: "ReLU"
  bottom: "inception_4a/3x3_reduce"
  top: "inception_4a/3x3_reduce"
}
layer {
  name: "inception_4a/3x3"
  type: "Convolution"
  bottom: "inception_4a/3x3_reduce"
  top: "inception_4a/3x3"
  param {
    lr_mult: 1
    decay_mult: 1
  }
  param {
    lr_mult: 2
    decay_mult: 0
  }
  convolution_param {
    num_output: 208
    pad: 1
    kernel_size: 3
    weight_filler {
      type: "xavier"
      std: 0.03
    }
    bias_filler {
      type: "constant"
      value: 0.2
    }
  }
}
layer {
  name: "inception_4a/relu_3x3"
  type: "ReLU"
  bottom: "inception_4a/3x3"
  top: "inception_4a/3x3"
}
layer {
  name: "inception_4a/5x5_reduce"
  type: "Convolution"
  bottom: "pool3/3x3_s2"
  top: "inception_4a/5x5_reduce"
  param {
    lr_mult: 1
    decay_mult: 1
  }
  param {
    lr_mult: 2
    decay_mult: 0
  }
  convolution_param {
    num_output: 16
    kernel_size: 1
    weight_filler {
      type: "xavier"
      std: 0.2
    }
    bias_filler {
      type: "constant"
      value: 0.2
    }
  }
}
layer {
  name: "inception_4a/relu_5x5_reduce"
  type: "ReLU"
  bottom: "inception_4a/5x5_reduce"
  top: "inception_4a/5x5_reduce"
}
layer {
  name: "inception_4a/5x5"
  type: "Convolution"
  bottom: "inception_4a/5x5_reduce"
  top: "inception_4a/5x5"
  param {
    lr_mult: 1
    decay_mult: 1
  }
  param {
    lr_mult: 2
    decay_mult: 0
  }
  convolution_param {
    num_output: 48
    pad: 2
    kernel_size: 5
    weight_filler {
      type: "xavier"
      std: 0.03
    }
    bias_filler {
      type: "constant"
      value: 0.2
    }
  }
}
layer {
  name: "inception_4a/relu_5x5"
  type: "ReLU"
  bottom: "inception_4a/5x5"
  top: "inception_4a/5x5"
}
layer {
  name: "inception_4a/pool"
  type: "Pooling"
  bottom: "pool3/3x3_s2"
  top: "inception_4a/pool"
  pooling_param {
    pool: MAX
    kernel_size: 3
    stride: 1
    pad: 1
  }
}
layer {
  name: "inception_4a/pool_proj"
  type: "Convolution"
  bottom: "inception_4a/pool"
  top: "inception_4a/pool_proj"
  param {
    lr_mult: 1
    decay_mult: 1
  }
  param {
    lr_mult: 2
    decay_mult: 0
  }
  convolution_param {
    num_output: 64
    kernel_size: 1
    weight_filler {
      type: "xavier"
      std: 0.1
    }
    bias_filler {
      type: "constant"
      value: 0.2
    }
  }
}
layer {
  name: "inception_4a/relu_pool_proj"
  type: "ReLU"
  bottom: "inception_4a/pool_proj"
  top: "inception_4a/pool_proj"
}
layer {
  name: "inception_4a/output"
  type: "Concat"
  bottom: "inception_4a/1x1"
  bottom: "inception_4a/3x3"
  bottom: "inception_4a/5x5"
  bottom: "inception_4a/pool_proj"
  top: "inception_4a/output"
}
layer {
  name: "inception_4b/1x1"
  type: "Convolution"
  bottom: "inception_4a/output"
  top: "inception_4b/1x1"
  param {
    lr_mult: 1
    decay_mult: 1
  }
  param {
    lr_mult: 2
    decay_mult: 0
  }
  convolution_param {
    num_output: 160
    kernel_size: 1
    weight_filler {
      type: "xavier"
      std: 0.03
    }
    bias_filler {
      type: "constant"
      value: 0.2
    }
  }
}
layer {
  name: "inception_4b/relu_1x1"
  type: "ReLU"
  bottom: "inception_4b/1x1"
  top: "inception_4b/1x1"
}
layer {
  name: "inception_4b/3x3_reduce"
  type: "Convolution"
  bottom: "inception_4a/output"
  top: "inception_4b/3x3_reduce"
  param {
    lr_mult: 1
    decay_mult: 1
  }
  param {
    lr_mult: 2
    decay_mult: 0
  }
  convolution_param {
    num_output: 112
    kernel_size: 1
    weight_filler {
      type: "xavier"
      std: 0.09
    }
    bias_filler {
      type: "constant"
      value: 0.2
    }
  }
}
layer {
  name: "inception_4b/relu_3x3_reduce"
  type: "ReLU"
  bottom: "inception_4b/3x3_reduce"
  top: "inception_4b/3x3_reduce"
}
layer {
  name: "inception_4b/3x3"
  type: "Convolution"
  bottom: "inception_4b/3x3_reduce"
  top: "inception_4b/3x3"
  param {
    lr_mult: 1
    decay_mult: 1
  }
  param {
    lr_mult: 2
    decay_mult: 0
  }
  convolution_param {
    num_output: 224
    pad: 1
    kernel_size: 3
    weight_filler {
      type: "xavier"
      std: 0.03
    }
    bias_filler {
      type: "constant"
      value: 0.2
    }
  }
}
layer {
  name: "inception_4b/relu_3x3"
  type: "ReLU"
  bottom: "inception_4b/3x3"
  top: "inception_4b/3x3"
}
layer {
  name: "inception_4b/5x5_reduce"
  type: "Convolution"
  bottom: "inception_4a/output"
  top: "inception_4b/5x5_reduce"
  param {
    lr_mult: 1
    decay_mult: 1
  }
  param {
    lr_mult: 2
    decay_mult: 0
  }
  convolution_param {
    num_output: 24
    kernel_size: 1
    weight_filler {
      type: "xavier"
      std: 0.2
    }
    bias_filler {
      type: "constant"
      value: 0.2
    }
  }
}
layer {
  name: "inception_4b/relu_5x5_reduce"
  type: "ReLU"
  bottom: "inception_4b/5x5_reduce"
  top: "inception_4b/5x5_reduce"
}
layer {
  name: "inception_4b/5x5"
  type: "Convolution"
  bottom: "inception_4b/5x5_reduce"
  top: "inception_4b/5x5"
  param {
    lr_mult: 1
    decay_mult: 1
  }
  param {
    lr_mult: 2
    decay_mult: 0
  }
  convolution_param {
    num_output: 64
    pad: 2
    kernel_size: 5
    weight_filler {
      type: "xavier"
      std: 0.03
    }
    bias_filler {
      type: "constant"
      value: 0.2
    }
  }
}
layer {
  name: "inception_4b/relu_5x5"
  type: "ReLU"
  bottom: "inception_4b/5x5"
  top: "inception_4b/5x5"
}
layer {
  name: "inception_4b/pool"
  type: "Pooling"
  bottom: "inception_4a/output"
  top: "inception_4b/pool"
  pooling_param {
    pool: MAX
    kernel_size: 3
    stride: 1
    pad: 1
  }
}
layer {
  name: "inception_4b/pool_proj"
  type: "Convolution"
  bottom: "inception_4b/pool"
  top: "inception_4b/pool_proj"
  param {
    lr_mult: 1
    decay_mult: 1
  }
  param {
    lr_mult: 2
    decay_mult: 0
  }
  convolution_param {
    num_output: 64
    kernel_size: 1
    weight_filler {
      type: "xavier"
      std: 0.1
    }
    bias_filler {
      type: "constant"
      value: 0.2
    }
  }
}
layer {
  name: "inception_4b/relu_pool_proj"
  type: "ReLU"
  bottom: "inception_4b/pool_proj"
  top: "inception_4b/pool_proj"
}
layer {
  name: "inception_4b/output"
  type: "Concat"
  bottom: "inception_4b/1x1"
  bottom: "inception_4b/3x3"
  bottom: "inception_4b/5x5"
  bottom: "inception_4b/pool_proj"
  top: "inception_4b/output"
}
layer {
  name: "inception_4c/1x1"
  type: "Convolution"
  bottom: "inception_4b/output"
  top: "inception_4c/1x1"
  param {
    lr_mult: 1
    decay_mult: 1
  }
  param {
    lr_mult: 2
    decay_mult: 0
  }
  convolution_param {
    num_output: 128
    kernel_size: 1
    weight_filler {
      type: "xavier"
      std: 0.03
    }
    bias_filler {
      type: "constant"
      value: 0.2
    }
  }
}
layer {
  name: "inception_4c/relu_1x1"
  type: "ReLU"
  bottom: "inception_4c/1x1"
  top: "inception_4c/1x1"
}
layer {
  name: "inception_4c/3x3_reduce"
  type: "Convolution"
  bottom: "inception_4b/output"
  top: "inception_4c/3x3_reduce"
  param {
    lr_mult: 1
    decay_mult: 1
  }
  param {
    lr_mult: 2
    decay_mult: 0
  }
  convolution_param {
    num_output: 128
    kernel_size: 1
    weight_filler {
      type: "xavier"
      std: 0.09
    }
    bias_filler {
      type: "constant"
      value: 0.2
    }
  }
}
layer {
  name: "inception_4c/relu_3x3_reduce"
  type: "ReLU"
  bottom: "inception_4c/3x3_reduce"
  top: "inception_4c/3x3_reduce"
}
layer {
  name: "inception_4c/3x3"
  type: "Convolution"
  bottom: "inception_4c/3x3_reduce"
  top: "inception_4c/3x3"
  param {
    lr_mult: 1
    decay_mult: 1
  }
  param {
    lr_mult: 2
    decay_mult: 0
  }
  convolution_param {
    num_output: 256
    pad: 1
    kernel_size: 3
    weight_filler {
      type: "xavier"
      std: 0.03
    }
    bias_filler {
      type: "constant"
      value: 0.2
    }
  }
}
layer {
  name: "inception_4c/relu_3x3"
  type: "ReLU"
  bottom: "inception_4c/3x3"
  top: "inception_4c/3x3"
}
layer {
  name: "inception_4c/5x5_reduce"
  type: "Convolution"
  bottom: "inception_4b/output"
  top: "inception_4c/5x5_reduce"
  param {
    lr_mult: 1
    decay_mult: 1
  }
  param {
    lr_mult: 2
    decay_mult: 0
  }
  convolution_param {
    num_output: 24
    kernel_size: 1
    weight_filler {
      type: "xavier"
      std: 0.2
    }
    bias_filler {
      type: "constant"
      value: 0.2
    }
  }
}
layer {
  name: "inception_4c/relu_5x5_reduce"
  type: "ReLU"
  bottom: "inception_4c/5x5_reduce"
  top: "inception_4c/5x5_reduce"
}
layer {
  name: "inception_4c/5x5"
  type: "Convolution"
  bottom: "inception_4c/5x5_reduce"
  top: "inception_4c/5x5"
  param {
    lr_mult: 1
    decay_mult: 1
  }
  param {
    lr_mult: 2
    decay_mult: 0
  }
  convolution_param {
    num_output: 64
    pad: 2
    kernel_size: 5
    weight_filler {
      type: "xavier"
      std: 0.03
    }
    bias_filler {
      type: "constant"
      value: 0.2
    }
  }
}
layer {
  name: "inception_4c/relu_5x5"
  type: "ReLU"
  bottom: "inception_4c/5x5"
  top: "inception_4c/5x5"
}
layer {
  name: "inception_4c/pool"
  type: "Pooling"
  bottom: "inception_4b/output"
  top: "inception_4c/pool"
  pooling_param {
    pool: MAX
    kernel_size: 3
    stride: 1
    pad: 1
  }
}
layer {
  name: "inception_4c/pool_proj"
  type: "Convolution"
  bottom: "inception_4c/pool"
  top: "inception_4c/pool_proj"
  param {
    lr_mult: 1
    decay_mult: 1
  }
  param {
    lr_mult: 2
    decay_mult: 0
  }
  convolution_param {
    num_output: 64
    kernel_size: 1
    weight_filler {
      type: "xavier"
      std: 0.1
    }
    bias_filler {
      type: "constant"
      value: 0.2
    }
  }
}
layer {
  name: "inception_4c/relu_pool_proj"
  type: "ReLU"
  bottom: "inception_4c/pool_proj"
  top: "inception_4c/pool_proj"
}
layer {
  name: "inception_4c/output"
  type: "Concat"
  bottom: "inception_4c/1x1"
  bottom: "inception_4c/3x3"
  bottom: "inception_4c/5x5"
  bottom: "inception_4c/pool_proj"
  top: "inception_4c/output"
}
layer {
  name: "inception_4d/1x1"
  type: "Convolution"
  bottom: "inception_4c/output"
  top: "inception_4d/1x1"
  param {
    lr_mult: 1
    decay_mult: 1
  }
  param {
    lr_mult: 2
    decay_mult: 0
  }
  convolution_param {
    num_output: 112
    kernel_size: 1
    weight_filler {
      type: "xavier"
      std: 0.03
    }
    bias_filler {
      type: "constant"
      value: 0.2
    }
  }
}
layer {
  name: "inception_4d/relu_1x1"
  type: "ReLU"
  bottom: "inception_4d/1x1"
  top: "inception_4d/1x1"
}
layer {
  name: "inception_4d/3x3_reduce"
  type: "Convolution"
  bottom: "inception_4c/output"
  top: "inception_4d/3x3_reduce"
  param {
    lr_mult: 1
    decay_mult: 1
  }
  param {
    lr_mult: 2
    decay_mult: 0
  }
  convolution_param {
    num_output: 144
    kernel_size: 1
    weight_filler {
      type: "xavier"
      std: 0.09
    }
    bias_filler {
      type: "constant"
      value: 0.2
    }
  }
}
layer {
  name: "inception_4d/relu_3x3_reduce"
  type: "ReLU"
  bottom: "inception_4d/3x3_reduce"
  top: "inception_4d/3x3_reduce"
}
layer {
  name: "inception_4d/3x3"
  type: "Convolution"
  bottom: "inception_4d/3x3_reduce"
  top: "inception_4d/3x3"
  param {
    lr_mult: 1
    decay_mult: 1
  }
  param {
    lr_mult: 2
    decay_mult: 0
  }
  convolution_param {
    num_output: 288
    pad: 1
    kernel_size: 3
    weight_filler {
      type: "xavier"
      std: 0.03
    }
    bias_filler {
      type: "constant"
      value: 0.2
    }
  }
}
layer {
  name: "inception_4d/relu_3x3"
  type: "ReLU"
  bottom: "inception_4d/3x3"
  top: "inception_4d/3x3"
}
layer {
  name: "inception_4d/5x5_reduce"
  type: "Convolution"
  bottom: "inception_4c/output"
  top: "inception_4d/5x5_reduce"
  param {
    lr_mult: 1
    decay_mult: 1
  }
  param {
    lr_mult: 2
    decay_mult: 0
  }
  convolution_param {
    num_output: 32
    kernel_size: 1
    weight_filler {
      type: "xavier"
      std: 0.2
    }
    bias_filler {
      type: "constant"
      value: 0.2
    }
  }
}
layer {
  name: "inception_4d/relu_5x5_reduce"
  type: "ReLU"
  bottom: "inception_4d/5x5_reduce"
  top: "inception_4d/5x5_reduce"
}
layer {
  name: "inception_4d/5x5"
  type: "Convolution"
  bottom: "inception_4d/5x5_reduce"
  top: "inception_4d/5x5"
  param {
    lr_mult: 1
    decay_mult: 1
  }
  param {
    lr_mult: 2
    decay_mult: 0
  }
  convolution_param {
    num_output: 64
    pad: 2
    kernel_size: 5
    weight_filler {
      type: "xavier"
      std: 0.03
    }
    bias_filler {
      type: "constant"
      value: 0.2
    }
  }
}
layer {
  name: "inception_4d/relu_5x5"
  type: "ReLU"
  bottom: "inception_4d/5x5"
  top: "inception_4d/5x5"
}
layer {
  name: "inception_4d/pool"
  type: "Pooling"
  bottom: "inception_4c/output"
  top: "inception_4d/pool"
  pooling_param {
    pool: MAX
    kernel_size: 3
    stride: 1
    pad: 1
  }
}
layer {
  name: "inception_4d/pool_proj"
  type: "Convolution"
  bottom: "inception_4d/pool"
  top: "inception_4d/pool_proj"
  param {
    lr_mult: 1
    decay_mult: 1
  }
  param {
    lr_mult: 2
    decay_mult: 0
  }
  convolution_param {
    num_output: 64
    kernel_size: 1
    weight_filler {
      type: "xavier"
      std: 0.1
    }
    bias_filler {
      type: "constant"
      value: 0.2
    }
  }
}
layer {
  name: "inception_4d/relu_pool_proj"
  type: "ReLU"
  bottom: "inception_4d/pool_proj"
  top: "inception_4d/pool_proj"
}
layer {
  name: "inception_4d/output"
  type: "Concat"
  bottom: "inception_4d/1x1"
…
I1130 04:00:07.932250 19834 net.cpp:406] inception_4c/1x1 <- inception_4b/output_inception_4b/output_0_split_0
I1130 04:00:07.932257 19834 net.cpp:380] inception_4c/1x1 -> inception_4c/1x1
I1130 04:00:07.932814 19834 net.cpp:122] Setting up inception_4c/1x1
I1130 04:00:07.932824 19834 net.cpp:129] Top shape: 32 128 14 14 (802816)
I1130 04:00:07.932828 19834 net.cpp:137] Memory required for data: 1359569280
I1130 04:00:07.932837 19834 layer_factory.hpp:77] Creating layer inception_4c/relu_1x1
I1130 04:00:07.932842 19834 net.cpp:84] Creating Layer inception_4c/relu_1x1
I1130 04:00:07.932848 19834 net.cpp:406] inception_4c/relu_1x1 <- inception_4c/1x1
I1130 04:00:07.932853 19834 net.cpp:367] inception_4c/relu_1x1 -> inception_4c/1x1 (in-place)
I1130 04:00:07.932860 19834 net.cpp:122] Setting up inception_4c/relu_1x1
I1130 04:00:07.932867 19834 net.cpp:129] Top shape: 32 128 14 14 (802816)
I1130 04:00:07.932871 19834 net.cpp:137] Memory required for data: 1362780544
I1130 04:00:07.932875 19834 layer_factory.hpp:77] Creating layer inception_4c/3x3_reduce
I1130 04:00:07.932883 19834 net.cpp:84] Creating Layer inception_4c/3x3_reduce
I1130 04:00:07.932888 19834 net.cpp:406] inception_4c/3x3_reduce <- inception_4b/output_inception_4b/output_0_split_1
I1130 04:00:07.932893 19834 net.cpp:380] inception_4c/3x3_reduce -> inception_4c/3x3_reduce
I1130 04:00:07.933446 19834 net.cpp:122] Setting up inception_4c/3x3_reduce
I1130 04:00:07.933456 19834 net.cpp:129] Top shape: 32 128 14 14 (802816)
I1130 04:00:07.933460 19834 net.cpp:137] Memory required for data: 1365991808
I1130 04:00:07.933467 19834 layer_factory.hpp:77] Creating layer inception_4c/relu_3x3_reduce
I1130 04:00:07.933473 19834 net.cpp:84] Creating Layer inception_4c/relu_3x3_reduce
I1130 04:00:07.933478 19834 net.cpp:406] inception_4c/relu_3x3_reduce <- inception_4c/3x3_reduce
I1130 04:00:07.933485 19834 net.cpp:367] inception_4c/relu_3x3_reduce -> inception_4c/3x3_reduce (in-place)
I1130 04:00:07.933492 19834 net.cpp:122] Setting up inception_4c/relu_3x3_reduce
I1130 04:00:07.933498 19834 net.cpp:129] Top shape: 32 128 14 14 (802816)
I1130 04:00:07.933502 19834 net.cpp:137] Memory required for data: 1369203072
I1130 04:00:07.933506 19834 layer_factory.hpp:77] Creating layer inception_4c/3x3
I1130 04:00:07.933514 19834 net.cpp:84] Creating Layer inception_4c/3x3
I1130 04:00:07.933519 19834 net.cpp:406] inception_4c/3x3 <- inception_4c/3x3_reduce
I1130 04:00:07.933526 19834 net.cpp:380] inception_4c/3x3 -> inception_4c/3x3
I1130 04:00:07.935730 19834 net.cpp:122] Setting up inception_4c/3x3
I1130 04:00:07.935741 19834 net.cpp:129] Top shape: 32 256 14 14 (1605632)
I1130 04:00:07.935746 19834 net.cpp:137] Memory required for data: 1375625600
I1130 04:00:07.935755 19834 layer_factory.hpp:77] Creating layer inception_4c/relu_3x3
I1130 04:00:07.935761 19834 net.cpp:84] Creating Layer inception_4c/relu_3x3
I1130 04:00:07.935767 19834 net.cpp:406] inception_4c/relu_3x3 <- inception_4c/3x3
I1130 04:00:07.935773 19834 net.cpp:367] inception_4c/relu_3x3 -> inception_4c/3x3 (in-place)
I1130 04:00:07.935781 19834 net.cpp:122] Setting up inception_4c/relu_3x3
I1130 04:00:07.935786 19834 net.cpp:129] Top shape: 32 256 14 14 (1605632)
I1130 04:00:07.935791 19834 net.cpp:137] Memory required for data: 1382048128
I1130 04:00:07.935794 19834 layer_factory.hpp:77] Creating layer inception_4c/5x5_reduce
I1130 04:00:07.935803 19834 net.cpp:84] Creating Layer inception_4c/5x5_reduce
I1130 04:00:07.935808 19834 net.cpp:406] inception_4c/5x5_reduce <- inception_4b/output_inception_4b/output_0_split_2
I1130 04:00:07.935814 19834 net.cpp:380] inception_4c/5x5_reduce -> inception_4c/5x5_reduce
I1130 04:00:07.936092 19834 net.cpp:122] Setting up inception_4c/5x5_reduce
I1130 04:00:07.936101 19834 net.cpp:129] Top shape: 32 24 14 14 (150528)
I1130 04:00:07.936105 19834 net.cpp:137] Memory required for data: 1382650240
I1130 04:00:07.936112 19834 layer_factory.hpp:77] Creating layer inception_4c/relu_5x5_reduce
I1130 04:00:07.936118 19834 net.cpp:84] Creating Layer inception_4c/relu_5x5_reduce
I1130 04:00:07.936125 19834 net.cpp:406] inception_4c/relu_5x5_reduce <- inception_4c/5x5_reduce
I1130 04:00:07.936130 19834 net.cpp:367] inception_4c/relu_5x5_reduce -> inception_4c/5x5_reduce (in-place)
I1130 04:00:07.936137 19834 net.cpp:122] Setting up inception_4c/relu_5x5_reduce
I1130 04:00:07.936143 19834 net.cpp:129] Top shape: 32 24 14 14 (150528)
I1130 04:00:07.936147 19834 net.cpp:137] Memory required for data: 1383252352
I1130 04:00:07.936152 19834 layer_factory.hpp:77] Creating layer inception_4c/5x5
I1130 04:00:07.936159 19834 net.cpp:84] Creating Layer inception_4c/5x5
I1130 04:00:07.936164 19834 net.cpp:406] inception_4c/5x5 <- inception_4c/5x5_reduce
I1130 04:00:07.936170 19834 net.cpp:380] inception_4c/5x5 -> inception_4c/5x5
I1130 04:00:07.936585 19834 net.cpp:122] Setting up inception_4c/5x5
I1130 04:00:07.936595 19834 net.cpp:129] Top shape: 32 64 14 14 (401408)
I1130 04:00:07.936599 19834 net.cpp:137] Memory required for data: 1384857984
I1130 04:00:07.936605 19834 layer_factory.hpp:77] Creating layer inception_4c/relu_5x5
I1130 04:00:07.936612 19834 net.cpp:84] Creating Layer inception_4c/relu_5x5
I1130 04:00:07.936617 19834 net.cpp:406] inception_4c/relu_5x5 <- inception_4c/5x5
I1130 04:00:07.936624 19834 net.cpp:367] inception_4c/relu_5x5 -> inception_4c/5x5 (in-place)
I1130 04:00:07.936630 19834 net.cpp:122] Setting up inception_4c/relu_5x5
I1130 04:00:07.936636 19834 net.cpp:129] Top shape: 32 64 14 14 (401408)
I1130 04:00:07.936640 19834 net.cpp:137] Memory required for data: 1386463616
I1130 04:00:07.936645 19834 layer_factory.hpp:77] Creating layer inception_4c/pool
I1130 04:00:07.936650 19834 net.cpp:84] Creating Layer inception_4c/pool
I1130 04:00:07.936655 19834 net.cpp:406] inception_4c/pool <- inception_4b/output_inception_4b/output_0_split_3
I1130 04:00:07.936661 19834 net.cpp:380] inception_4c/pool -> inception_4c/pool
I1130 04:00:07.936698 19834 net.cpp:122] Setting up inception_4c/pool
I1130 04:00:07.936707 19834 net.cpp:129] Top shape: 32 512 14 14 (3211264)
I1130 04:00:07.936712 19834 net.cpp:137] Memory required for data: 1399308672
I1130 04:00:07.936715 19834 layer_factory.hpp:77] Creating layer inception_4c/pool_proj
I1130 04:00:07.936724 19834 net.cpp:84] Creating Layer inception_4c/pool_proj
I1130 04:00:07.936730 19834 net.cpp:406] inception_4c/pool_proj <- inception_4c/pool
I1130 04:00:07.936738 19834 net.cpp:380] inception_4c/pool_proj -> inception_4c/pool_proj
I1130 04:00:07.937121 19834 net.cpp:122] Setting up inception_4c/pool_proj
I1130 04:00:07.937130 19834 net.cpp:129] Top shape: 32 64 14 14 (401408)
I1130 04:00:07.937135 19834 net.cpp:137] Memory required for data: 1400914304
I1130 04:00:07.937149 19834 layer_factory.hpp:77] Creating layer inception_4c/relu_pool_proj
I1130 04:00:07.937155 19834 net.cpp:84] Creating Layer inception_4c/relu_pool_proj
I1130 04:00:07.937160 19834 net.cpp:406] inception_4c/relu_pool_proj <- inception_4c/pool_proj
I1130 04:00:07.937165 19834 net.cpp:367] inception_4c/relu_pool_proj -> inception_4c/pool_proj (in-place)
I1130 04:00:07.937173 19834 net.cpp:122] Setting up inception_4c/relu_pool_proj
I1130 04:00:07.937180 19834 net.cpp:129] Top shape: 32 64 14 14 (401408)
I1130 04:00:07.937183 19834 net.cpp:137] Memory required for data: 1402519936
I1130 04:00:07.937187 19834 layer_factory.hpp:77] Creating layer inception_4c/output
I1130 04:00:07.937193 19834 net.cpp:84] Creating Layer inception_4c/output
I1130 04:00:07.937198 19834 net.cpp:406] inception_4c/output <- inception_4c/1x1
I1130 04:00:07.937203 19834 net.cpp:406] inception_4c/output <- inception_4c/3x3
I1130 04:00:07.937209 19834 net.cpp:406] inception_4c/output <- inception_4c/5x5
I1130 04:00:07.937214 19834 net.cpp:406] inception_4c/output <- inception_4c/pool_proj
I1130 04:00:07.937221 19834 net.cpp:380] inception_4c/output -> inception_4c/output
I1130 04:00:07.937247 19834 net.cpp:122] Setting up inception_4c/output
I1130 04:00:07.937255 19834 net.cpp:129] Top shape: 32 512 14 14 (3211264)
I1130 04:00:07.937259 19834 net.cpp:137] Memory required for data: 1415364992
I1130 04:00:07.937263 19834 layer_factory.hpp:77] Creating layer inception_4c/output_inception_4c/output_0_split
I1130 04:00:07.937269 19834 net.cpp:84] Creating Layer inception_4c/output_inception_4c/output_0_split
I1130 04:00:07.937275 19834 net.cpp:406] inception_4c/output_inception_4c/output_0_split <- inception_4c/output
I1130 04:00:07.937281 19834 net.cpp:380] inception_4c/output_inception_4c/output_0_split -> inception_4c/output_inception_4c/output_0_split_0
I1130 04:00:07.937289 19834 net.cpp:380] inception_4c/output_inception_4c/output_0_split -> inception_4c/output_inception_4c/output_0_split_1
I1130 04:00:07.937296 19834 net.cpp:380] inception_4c/output_inception_4c/output_0_split -> inception_4c/output_inception_4c/output_0_split_2
I1130 04:00:07.937304 19834 net.cpp:380] inception_4c/output_inception_4c/output_0_split -> inception_4c/output_inception_4c/output_0_split_3
I1130 04:00:07.937357 19834 net.cpp:122] Setting up inception_4c/output_inception_4c/output_0_split
I1130 04:00:07.937364 19834 net.cpp:129] Top shape: 32 512 14 14 (3211264)
I1130 04:00:07.937369 19834 net.cpp:129] Top shape: 32 512 14 14 (3211264)
I1130 04:00:07.937374 19834 net.cpp:129] Top shape: 32 512 14 14 (3211264)
I1130 04:00:07.937381 19834 net.cpp:129] Top shape: 32 512 14 14 (3211264)
I1130 04:00:07.937386 19834 net.cpp:137] Memory required for data: 1466745216
I1130 04:00:07.937391 19834 layer_factory.hpp:77] Creating layer inception_4d/1x1
I1130 04:00:07.937398 19834 net.cpp:84] Creating Layer inception_4d/1x1
I1130 04:00:07.937404 19834 net.cpp:406] inception_4d/1x1 <- inception_4c/output_inception_4c/output_0_split_0
I1130 04:00:07.937412 19834 net.cpp:380] inception_4d/1x1 -> inception_4d/1x1
I1130 04:00:07.938302 19834 net.cpp:122] Setting up inception_4d/1x1
I1130 04:00:07.938324 19834 net.cpp:129] Top shape: 32 112 14 14 (702464)
I1130 04:00:07.938329 19834 net.cpp:137] Memory required for data: 1469555072
I1130 04:00:07.938336 19834 layer_factory.hpp:77] Creating layer inception_4d/relu_1x1
I1130 04:00:07.938344 19834 net.cpp:84] Creating Layer inception_4d/relu_1x1
I1130 04:00:07.938349 19834 net.cpp:406] inception_4d/relu_1x1 <- inception_4d/1x1
I1130 04:00:07.938354 19834 net.cpp:367] inception_4d/relu_1x1 -> inception_4d/1x1 (in-place)
I1130 04:00:07.938362 19834 net.cpp:122] Setting up inception_4d/relu_1x1
I1130 04:00:07.938367 19834 net.cpp:129] Top shape: 32 112 14 14 (702464)
I1130 04:00:07.938372 19834 net.cpp:137] Memory required for data: 1472364928
I1130 04:00:07.938376 19834 layer_factory.hpp:77] Creating layer inception_4d/3x3_reduce
I1130 04:00:07.938383 19834 net.cpp:84] Creating Layer inception_4d/3x3_reduce
I1130 04:00:07.938388 19834 net.cpp:406] inception_4d/3x3_reduce <- inception_4c/output_inception_4c/output_0_split_1
I1130 04:00:07.938395 19834 net.cpp:380] inception_4d/3x3_reduce -> inception_4d/3x3_reduce
I1130 04:00:07.938998 19834 net.cpp:122] Setting up inception_4d/3x3_reduce
I1130 04:00:07.939007 19834 net.cpp:129] Top shape: 32 144 14 14 (903168)
I1130 04:00:07.939013 19834 net.cpp:137] Memory required for data: 1475977600
I1130 04:00:07.939018 19834 layer_factory.hpp:77] Creating layer inception_4d/relu_3x3_reduce
I1130 04:00:07.939024 19834 net.cpp:84] Creating Layer inception_4d/relu_3x3_reduce
I1130 04:00:07.939030 19834 net.cpp:406] inception_4d/relu_3x3_reduce <- inception_4d/3x3_reduce
I1130 04:00:07.939035 19834 net.cpp:367] inception_4d/relu_3x3_reduce -> inception_4d/3x3_reduce (in-place)
I1130 04:00:07.939043 19834 net.cpp:122] Setting up inception_4d/relu_3x3_reduce
I1130 04:00:07.939049 19834 net.cpp:129] Top shape: 32 144 14 14 (903168)
I1130 04:00:07.939052 19834 net.cpp:137] Memory required for data: 1479590272
I1130 04:00:07.939056 19834 layer_factory.hpp:77] Creating layer inception_4d/3x3
I1130 04:00:07.939064 19834 net.cpp:84] Creating Layer inception_4d/3x3
I1130 04:00:07.939069 19834 net.cpp:406] inception_4d/3x3 <- inception_4d/3x3_reduce
I1130 04:00:07.939076 19834 net.cpp:380] inception_4d/3x3 -> inception_4d/3x3
I1130 04:00:07.941748 19834 net.cpp:122] Setting up inception_4d/3x3
I1130 04:00:07.941761 19834 net.cpp:129] Top shape: 32 288 14 14 (1806336)
I1130 04:00:07.941764 19834 net.cpp:137] Memory required for data: 1486815616
I1130 04:00:07.941773 19834 layer_factory.hpp:77] Creating layer inception_4d/relu_3x3
I1130 04:00:07.941779 19834 net.cpp:84] Creating Layer inception_4d/relu_3x3
I1130 04:00:07.941785 19834 net.cpp:406] inception_4d/relu_3x3 <- inception_4d/3x3
I1130 04:00:07.941792 19834 net.cpp:367] inception_4d/relu_3x3 -> inception_4d/3x3 (in-place)
I1130 04:00:07.941810 19834 net.cpp:122] Setting up inception_4d/relu_3x3
I1130 04:00:07.941817 19834 net.cpp:129] Top shape: 32 288 14 14 (1806336)
I1130 04:00:07.941820 19834 net.cpp:137] Memory required for data: 1494040960
I1130 04:00:07.941824 19834 layer_factory.hpp:77] Creating layer inception_4d/5x5_reduce
I1130 04:00:07.941833 19834 net.cpp:84] Creating Layer inception_4d/5x5_reduce
I1130 04:00:07.941838 19834 net.cpp:406] inception_4d/5x5_reduce <- inception_4c/output_inception_4c/output_0_split_2
I1130 04:00:07.941845 19834 net.cpp:380] inception_4d/5x5_reduce -> inception_4d/5x5_reduce
I1130 04:00:07.942170 19834 net.cpp:122] Setting up inception_4d/5x5_reduce
I1130 04:00:07.942179 19834 net.cpp:129] Top shape: 32 32 14 14 (200704)
I1130 04:00:07.942184 19834 net.cpp:137] Memory required for data: 1494843776
I1130 04:00:07.942190 19834 layer_factory.hpp:77] Creating layer inception_4d/relu_5x5_reduce
I1130 04:00:07.942196 19834 net.cpp:84] Creating Layer inception_4d/relu_5x5_reduce
I1130 04:00:07.942203 19834 net.cpp:406] inception_4d/relu_5x5_reduce <- inception_4d/5x5_reduce
I1130 04:00:07.942209 19834 net.cpp:367] inception_4d/relu_5x5_reduce -> inception_4d/5x5_reduce (in-place)
I1130 04:00:07.942216 19834 net.cpp:122] Setting up inception_4d/relu_5x5_reduce
I1130 04:00:07.942222 19834 net.cpp:129] Top shape: 32 32 14 14 (200704)
I1130 04:00:07.942229 19834 net.cpp:137] Memory required for data: 1495646592
I1130 04:00:07.942232 19834 layer_factory.hpp:77] Creating layer inception_4d/5x5
I1130 04:00:07.942252 19834 net.cpp:84] Creating Layer inception_4d/5x5
I1130 04:00:07.942257 19834 net.cpp:406] inception_4d/5x5 <- inception_4d/5x5_reduce
I1130 04:00:07.942263 19834 net.cpp:380] inception_4d/5x5 -> inception_4d/5x5
I1130 04:00:07.942749 19834 net.cpp:122] Setting up inception_4d/5x5
I1130 04:00:07.942759 19834 net.cpp:129] Top shape: 32 64 14 14 (401408)
I1130 04:00:07.942764 19834 net.cpp:137] Memory required for data: 1497252224
I1130 04:00:07.942770 19834 layer_factory.hpp:77] Creating layer inception_4d/relu_5x5
I1130 04:00:07.942790 19834 net.cpp:84] Creating Layer inception_4d/relu_5x5
I1130 04:00:07.942795 19834 net.cpp:406] inception_4d/relu_5x5 <- inception_4d/5x5
I1130 04:00:07.942800 19834 net.cpp:367] inception_4d/relu_5x5 -> inception_4d/5x5 (in-place)
I1130 04:00:07.942807 19834 net.cpp:122] Setting up inception_4d/relu_5x5
I1130 04:00:07.942813 19834 net.cpp:129] Top shape: 32 64 14 14 (401408)
I1130 04:00:07.942817 19834 net.cpp:137] Memory required for data: 1498857856
I1130 04:00:07.942821 19834 layer_factory.hpp:77] Creating layer inception_4d/pool
I1130 04:00:07.942827 19834 net.cpp:84] Creating Layer inception_4d/pool
I1130 04:00:07.942832 19834 net.cpp:406] inception_4d/pool <- inception_4c/output_inception_4c/output_0_split_3
I1130 04:00:07.942838 19834 net.cpp:380] inception_4d/pool -> inception_4d/pool
I1130 04:00:07.942875 19834 net.cpp:122] Setting up inception_4d/pool
I1130 04:00:07.942883 19834 net.cpp:129] Top shape: 32 512 14 14 (3211264)
I1130 04:00:07.942888 19834 net.cpp:137] Memory required for data: 1511702912
I1130 04:00:07.942891 19834 layer_factory.hpp:77] Creating layer inception_4d/pool_proj
I1130 04:00:07.942900 19834 net.cpp:84] Creating Layer inception_4d/pool_proj
I1130 04:00:07.942905 19834 net.cpp:406] inception_4d/pool_proj <- inception_4d/pool
I1130 04:00:07.942912 19834 net.cpp:380] inception_4d/pool_proj -> inception_4d/pool_proj
I1130 04:00:07.943297 19834 net.cpp:122] Setting up inception_4d/pool_proj
I1130 04:00:07.943306 19834 net.cpp:129] Top shape: 32 64 14 14 (401408)
I1130 04:00:07.943310 19834 net.cpp:137] Memory required for data: 1513308544
I1130 04:00:07.943317 19834 layer_factory.hpp:77] Creating layer inception_4d/relu_pool_proj
I1130 04:00:07.943323 19834 net.cpp:84] Creating Layer inception_4d/relu_pool_proj
I1130 04:00:07.943328 19834 net.cpp:406] inception_4d/relu_pool_proj <- inception_4d/pool_proj
I1130 04:00:07.943334 19834 net.cpp:367] inception_4d/relu_pool_proj -> inception_4d/pool_proj (in-place)
I1130 04:00:07.943341 19834 net.cpp:122] Setting up inception_4d/relu_pool_proj
I1130 04:00:07.943346 19834 net.cpp:129] Top shape: 32 64 14 14 (401408)
I1130 04:00:07.943351 19834 net.cpp:137] Memory required for data: 1514914176
I1130 04:00:07.943356 19834 layer_factory.hpp:77] Creating layer inception_4d/output
I1130 04:00:07.943361 19834 net.cpp:84] Creating Layer inception_4d/output
I1130 04:00:07.943367 19834 net.cpp:406] inception_4d/output <- inception_4d/1x1
I1130 04:00:07.943370 19834 net.cpp:406] inception_4d/output <- inception_4d/3x3
I1130 04:00:07.943377 19834 net.cpp:406] inception_4d/output <- inception_4d/5x5
I1130 04:00:07.943382 19834 net.cpp:406] inception_4d/output <- inception_4d/pool_proj
I1130 04:00:07.943387 19834 net.cpp:380] inception_4d/output -> inception_4d/output
I1130 04:00:07.943411 19834 net.cpp:122] Setting up inception_4d/output
I1130 04:00:07.943419 19834 net.cpp:129] Top shape: 32 528 14 14 (3311616)
I1130 04:00:07.943423 19834 net.cpp:137] Memory required for data: 1528160640
I1130 04:00:07.943428 19834 layer_factory.hpp:77] Creating layer inception_4d/output_inception_4d/output_0_split
I1130 04:00:07.943434 19834 net.cpp:84] Creating Layer inception_4d/output_inception_4d/output_0_split
I1130 04:00:07.943439 19834 net.cpp:406] inception_4d/output_inception_4d/output_0_split <- inception_4d/output
I1130 04:00:07.943444 19834 net.cpp:380] inception_4d/output_inception_4d/output_0_split -> inception_4d/output_inception_4d/output_0_split_0
I1130 04:00:07.943452 19834 net.cpp:380] inception_4d/output_inception_4d/output_0_split -> inception_4d/output_inception_4d/output_0_split_1
I1130 04:00:07.943459 19834 net.cpp:380] inception_4d/output_inception_4d/output_0_split -> inception_4d/output_inception_4d/output_0_split_2
I1130 04:00:07.943466 19834 net.cpp:380] inception_4d/output_inception_4d/output_0_split -> inception_4d/output_inception_4d/output_0_split_3
I1130 04:00:07.943519 19834 net.cpp:122] Setting up inception_4d/output_inception_4d/output_0_split
I1130 04:00:07.943526 19834 net.cpp:129] Top shape: 32 528 14 14 (3311616)
I1130 04:00:07.943531 19834 net.cpp:129] Top shape: 32 528 14 14 (3311616)
I1130 04:00:07.943536 19834 net.cpp:129] Top shape: 32 528 14 14 (3311616)
I1130 04:00:07.943542 19834 net.cpp:129] Top shape: 32 528 14 14 (3311616)
I1130 04:00:07.943545 19834 net.cpp:137] Memory required for data: 1581146496
I1130 04:00:07.943549 19834 layer_factory.hpp:77] Creating layer inception_4e/1x1
I1130 04:00:07.943558 19834 net.cpp:84] Creating Layer inception_4e/1x1
I1130 04:00:07.943563 19834 net.cpp:406] inception_4e/1x1 <- inception_4d/output_inception_4d/output_0_split_0
I1130 04:00:07.943569 19834 net.cpp:380] inception_4e/1x1 -> inception_4e/1x1
I1130 04:00:07.944947 19834 net.cpp:122] Setting up inception_4e/1x1
I1130 04:00:07.944957 19834 net.cpp:129] Top shape: 32 256 14 14 (1605632)
I1130 04:00:07.944962 19834 net.cpp:137] Memory required for data: 1587569024
I1130 04:00:07.944970 19834 layer_factory.hpp:77] Creating layer inception_4e/relu_1x1
I1130 04:00:07.944977 19834 net.cpp:84] Creating Layer inception_4e/relu_1x1
I1130 04:00:07.944983 19834 net.cpp:406] inception_4e/relu_1x1 <- inception_4e/1x1
I1130 04:00:07.945001 19834 net.cpp:367] inception_4e/relu_1x1 -> inception_4e/1x1 (in-place)
I1130 04:00:07.945008 19834 net.cpp:122] Setting up inception_4e/relu_1x1
I1130 04:00:07.945014 19834 net.cpp:129] Top shape: 32 256 14 14 (1605632)
I1130 04:00:07.945019 19834 net.cpp:137] Memory required for data: 1593991552
I1130 04:00:07.945022 19834 layer_factory.hpp:77] Creating layer inception_4e/3x3_reduce
I1130 04:00:07.945029 19834 net.cpp:84] Creating Layer inception_4e/3x3_reduce
I1130 04:00:07.945035 19834 net.cpp:406] inception_4e/3x3_reduce <- inception_4d/output_inception_4d/output_0_split_1
I1130 04:00:07.945042 19834 net.cpp:380] inception_4e/3x3_reduce -> inception_4e/3x3_reduce
I1130 04:00:07.945719 19834 net.cpp:122] Setting up inception_4e/3x3_reduce
I1130 04:00:07.945729 19834 net.cpp:129] Top shape: 32 160 14 14 (1003520)
I1130 04:00:07.945732 19834 net.cpp:137] Memory required for data: 1598005632
I1130 04:00:07.945740 19834 layer_factory.hpp:77] Creating layer inception_4e/relu_3x3_reduce
I1130 04:00:07.945746 19834 net.cpp:84] Creating Layer inception_4e/relu_3x3_reduce
I1130 04:00:07.945751 19834 net.cpp:406] inception_4e/relu_3x3_reduce <- inception_4e/3x3_reduce
I1130 04:00:07.945757 19834 net.cpp:367] inception_4e/relu_3x3_reduce -> inception_4e/3x3_reduce (in-place)
I1130 04:00:07.945765 19834 net.cpp:122] Setting up inception_4e/relu_3x3_reduce
I1130 04:00:07.945770 19834 net.cpp:129] Top shape: 32 160 14 14 (1003520)
I1130 04:00:07.945775 19834 net.cpp:137] Memory required for data: 1602019712
I1130 04:00:07.945778 19834 layer_factory.hpp:77] Creating layer inception_4e/3x3
I1130 04:00:07.945785 19834 net.cpp:84] Creating Layer inception_4e/3x3
I1130 04:00:07.945791 19834 net.cpp:406] inception_4e/3x3 <- inception_4e/3x3_reduce
I1130 04:00:07.945797 19834 net.cpp:380] inception_4e/3x3 -> inception_4e/3x3
I1130 04:00:07.949074 19834 net.cpp:122] Setting up inception_4e/3x3
I1130 04:00:07.949086 19834 net.cpp:129] Top shape: 32 320 14 14 (2007040)
I1130 04:00:07.949090 19834 net.cpp:137] Memory required for data: 1610047872
I1130 04:00:07.949097 19834 layer_factory.hpp:77] Creating layer inception_4e/relu_3x3
I1130 04:00:07.949105 19834 net.cpp:84] Creating Layer inception_4e/relu_3x3
I1130 04:00:07.949110 19834 net.cpp:406] inception_4e/relu_3x3 <- inception_4e/3x3
I1130 04:00:07.949117 19834 net.cpp:367] inception_4e/relu_3x3 -> inception_4e/3x3 (in-place)
I1130 04:00:07.949126 19834 net.cpp:122] Setting up inception_4e/relu_3x3
I1130 04:00:07.949131 19834 net.cpp:129] Top shape: 32 320 14 14 (2007040)
I1130 04:00:07.949136 19834 net.cpp:137] Memory required for data: 1618076032
I1130 04:00:07.949139 19834 layer_factory.hpp:77] Creating layer inception_4e/5x5_reduce
I1130 04:00:07.949147 19834 net.cpp:84] Creating Layer inception_4e/5x5_reduce
I1130 04:00:07.949152 19834 net.cpp:406] inception_4e/5x5_reduce <- inception_4d/output_inception_4d/output_0_split_2
I1130 04:00:07.949158 19834 net.cpp:380] inception_4e/5x5_reduce -> inception_4e/5x5_reduce
I1130 04:00:07.949476 19834 net.cpp:122] Setting up inception_4e/5x5_reduce
I1130 04:00:07.949486 19834 net.cpp:129] Top shape: 32 32 14 14 (200704)
I1130 04:00:07.949491 19834 net.cpp:137] Memory required for data: 1618878848
I1130 04:00:07.949496 19834 layer_factory.hpp:77] Creating layer inception_4e/relu_5x5_reduce
I1130 04:00:07.949514 19834 net.cpp:84] Creating Layer inception_4e/relu_5x5_reduce
I1130 04:00:07.949520 19834 net.cpp:406] inception_4e/relu_5x5_reduce <- inception_4e/5x5_reduce
I1130 04:00:07.949525 19834 net.cpp:367] inception_4e/relu_5x5_reduce -> inception_4e/5x5_reduce (in-place)
I1130 04:00:07.949533 19834 net.cpp:122] Setting up inception_4e/relu_5x5_reduce
I1130 04:00:07.949539 19834 net.cpp:129] Top shape: 32 32 14 14 (200704)
I1130 04:00:07.949544 19834 net.cpp:137] Memory required for data: 1619681664
I1130 04:00:07.949548 19834 layer_factory.hpp:77] Creating layer inception_4e/5x5
I1130 04:00:07.949556 19834 net.cpp:84] Creating Layer inception_4e/5x5
I1130 04:00:07.949573 19834 net.cpp:406] inception_4e/5x5 <- inception_4e/5x5_reduce
I1130 04:00:07.949579 19834 net.cpp:380] inception_4e/5x5 -> inception_4e/5x5
I1130 04:00:07.950768 19834 net.cpp:122] Setting up inception_4e/5x5
I1130 04:00:07.950779 19834 net.cpp:129] Top shape: 32 128 14 14 (802816)
I1130 04:00:07.950783 19834 net.cpp:137] Memory required for data: 1622892928
I1130 04:00:07.950790 19834 layer_factory.hpp:77] Creating layer inception_4e/relu_5x5
I1130 04:00:07.950796 19834 net.cpp:84] Creating Layer inception_4e/relu_5x5
I1130 04:00:07.950800 19834 net.cpp:406] inception_4e/relu_5x5 <- inception_4e/5x5
I1130 04:00:07.950806 19834 net.cpp:367] inception_4e/relu_5x5 -> inception_4e/5x5 (in-place)
I1130 04:00:07.950812 19834 net.cpp:122] Setting up inception_4e/relu_5x5
I1130 04:00:07.950817 19834 net.cpp:129] Top shape: 32 128 14 14 (802816)
I1130 04:00:07.950821 19834 net.cpp:137] Memory required for data: 1626104192
I1130 04:00:07.950826 19834 layer_factory.hpp:77] Creating layer inception_4e/pool
I1130 04:00:07.950834 19834 net.cpp:84] Creating Layer inception_4e/pool
I1130 04:00:07.950839 19834 net.cpp:406] inception_4e/pool <- inception_4d/output_inception_4d/output_0_split_3
I1130 04:00:07.950845 19834 net.cpp:380] inception_4e/pool -> inception_4e/pool
I1130 04:00:07.950881 19834 net.cpp:122] Setting up inception_4e/pool
I1130 04:00:07.950889 19834 net.cpp:129] Top shape: 32 528 14 14 (3311616)
I1130 04:00:07.950893 19834 net.cpp:137] Memory required for data: 1639350656
I1130 04:00:07.950897 19834 layer_factory.hpp:77] Creating layer inception_4e/pool_proj
I1130 04:00:07.950906 19834 net.cpp:84] Creating Layer inception_4e/pool_proj
I1130 04:00:07.950911 19834 net.cpp:406] inception_4e/pool_proj <- inception_4e/pool
I1130 04:00:07.950918 19834 net.cpp:380] inception_4e/pool_proj -> inception_4e/pool_proj
I1130 04:00:07.951472 19834 net.cpp:122] Setting up inception_4e/pool_proj
I1130 04:00:07.951480 19834 net.cpp:129] Top shape: 32 128 14 14 (802816)
I1130 04:00:07.951484 19834 net.cpp:137] Memory required for data: 1642561920
I1130 04:00:07.951491 19834 layer_factory.hpp:77] Creating layer inception_4e/relu_pool_proj
I1130 04:00:07.951498 19834 net.cpp:84] Creating Layer inception_4e/relu_pool_proj
I1130 04:00:07.951501 19834 net.cpp:406] inception_4e/relu_pool_proj <- inception_4e/pool_proj
I1130 04:00:07.951506 19834 net.cpp:367] inception_4e/relu_pool_proj -> inception_4e/pool_proj (in-place)
I1130 04:00:07.951514 19834 net.cpp:122] Setting up inception_4e/relu_pool_proj
I1130 04:00:07.951520 19834 net.cpp:129] Top shape: 32 128 14 14 (802816)
I1130 04:00:07.951524 19834 net.cpp:137] Memory required for data: 1645773184
I1130 04:00:07.951529 19834 layer_factory.hpp:77] Creating layer inception_4e/output
I1130 04:00:07.951535 19834 net.cpp:84] Creating Layer inception_4e/output
I1130 04:00:07.951541 19834 net.cpp:406] inception_4e/output <- inception_4e/1x1
I1130 04:00:07.951545 19834 net.cpp:406] inception_4e/output <- inception_4e/3x3
I1130 04:00:07.951550 19834 net.cpp:406] inception_4e/output <- inception_4e/5x5
I1130 04:00:07.951555 19834 net.cpp:406] inception_4e/output <- inception_4e/pool_proj
I1130 04:00:07.951560 19834 net.cpp:380] inception_4e/output -> inception_4e/output
I1130 04:00:07.951583 19834 net.cpp:122] Setting up inception_4e/output
I1130 04:00:07.951589 19834 net.cpp:129] Top shape: 32 832 14 14 (5218304)
I1130 04:00:07.951593 19834 net.cpp:137] Memory required for data: 1666646400
I1130 04:00:07.951596 19834 layer_factory.hpp:77] Creating layer pool4/3x3_s2
I1130 04:00:07.951602 19834 net.cpp:84] Creating Layer pool4/3x3_s2
I1130 04:00:07.951606 19834 net.cpp:406] pool4/3x3_s2 <- inception_4e/output
I1130 04:00:07.951612 19834 net.cpp:380] pool4/3x3_s2 -> pool4/3x3_s2
I1130 04:00:07.951643 19834 net.cpp:122] Setting up pool4/3x3_s2
I1130 04:00:07.951649 19834 net.cpp:129] Top shape: 32 832 7 7 (1304576)
I1130 04:00:07.951653 19834 net.cpp:137] Memory required for data: 1671864704
I1130 04:00:07.951656 19834 layer_factory.hpp:77] Creating layer pool4/3x3_s2_pool4/3x3_s2_0_split
I1130 04:00:07.951666 19834 net.cpp:84] Creating Layer pool4/3x3_s2_pool4/3x3_s2_0_split
I1130 04:00:07.951670 19834 net.cpp:406] pool4/3x3_s2_pool4/3x3_s2_0_split <- pool4/3x3_s2
I1130 04:00:07.951675 19834 net.cpp:380] pool4/3x3_s2_pool4/3x3_s2_0_split -> pool4/3x3_s2_pool4/3x3_s2_0_split_0
I1130 04:00:07.951683 19834 net.cpp:380] pool4/3x3_s2_pool4/3x3_s2_0_split -> pool4/3x3_s2_pool4/3x3_s2_0_split_1
I1130 04:00:07.951689 19834 net.cpp:380] pool4/3x3_s2_pool4/3x3_s2_0_split -> pool4/3x3_s2_pool4/3x3_s2_0_split_2
I1130 04:00:07.951694 19834 net.cpp:380] pool4/3x3_s2_pool4/3x3_s2_0_split -> pool4/3x3_s2_pool4/3x3_s2_0_split_3
I1130 04:00:07.951746 19834 net.cpp:122] Setting up pool4/3x3_s2_pool4/3x3_s2_0_split
I1130 04:00:07.951752 19834 net.cpp:129] Top shape: 32 832 7 7 (1304576)
I1130 04:00:07.951757 19834 net.cpp:129] Top shape: 32 832 7 7 (1304576)
I1130 04:00:07.951761 19834 net.cpp:129] Top shape: 32 832 7 7 (1304576)
I1130 04:00:07.951766 19834 net.cpp:129] Top shape: 32 832 7 7 (1304576)
I1130 04:00:07.951769 19834 net.cpp:137] Memory required for data: 1692737920
I1130 04:00:07.951772 19834 layer_factory.hpp:77] Creating layer inception_5a/1x1
I1130 04:00:07.951781 19834 net.cpp:84] Creating Layer inception_5a/1x1
I1130 04:00:07.951784 19834 net.cpp:406] inception_5a/1x1 <- pool4/3x3_s2_pool4/3x3_s2_0_split_0
I1130 04:00:07.951792 19834 net.cpp:380] inception_5a/1x1 -> inception_5a/1x1
I1130 04:00:07.953483 19834 net.cpp:122] Setting up inception_5a/1x1
I1130 04:00:07.953495 19834 net.cpp:129] Top shape: 32 256 7 7 (401408)
I1130 04:00:07.953497 19834 net.cpp:137] Memory required for data: 1694343552
I1130 04:00:07.953505 19834 layer_factory.hpp:77] Creating layer inception_5a/relu_1x1
I1130 04:00:07.953512 19834 net.cpp:84] Creating Layer inception_5a/relu_1x1
I1130 04:00:07.953516 19834 net.cpp:406] inception_5a/relu_1x1 <- inception_5a/1x1
I1130 04:00:07.953522 19834 net.cpp:367] inception_5a/relu_1x1 -> inception_5a/1x1 (in-place)
I1130 04:00:07.953529 19834 net.cpp:122] Setting up inception_5a/relu_1x1
I1130 04:00:07.953533 19834 net.cpp:129] Top shape: 32 256 7 7 (401408)
I1130 04:00:07.953539 19834 net.cpp:137] Memory required for data: 1695949184
I1130 04:00:07.953542 19834 layer_factory.hpp:77] Creating layer inception_5a/3x3_reduce
I1130 04:00:07.953553 19834 net.cpp:84] Creating Layer inception_5a/3x3_reduce
I1130 04:00:07.953559 19834 net.cpp:406] inception_5a/3x3_reduce <- pool4/3x3_s2_pool4/3x3_s2_0_split_1
I1130 04:00:07.953565 19834 net.cpp:380] inception_5a/3x3_reduce -> inception_5a/3x3_reduce
I1130 04:00:07.954828 19834 net.cpp:122] Setting up inception_5a/3x3_reduce
I1130 04:00:07.954838 19834 net.cpp:129] Top shape: 32 160 7 7 (250880)
I1130 04:00:07.954843 19834 net.cpp:137] Memory required for data: 1696952704
I1130 04:00:07.954850 19834 layer_factory.hpp:77] Creating layer inception_5a/relu_3x3_reduce
I1130 04:00:07.954859 19834 net.cpp:84] Creating Layer inception_5a/relu_3x3_reduce
I1130 04:00:07.954864 19834 net.cpp:406] inception_5a/relu_3x3_reduce <- inception_5a/3x3_reduce
I1130 04:00:07.954870 19834 net.cpp:367] inception_5a/relu_3x3_reduce -> inception_5a/3x3_reduce (in-place)
I1130 04:00:07.954879 19834 net.cpp:122] Setting up inception_5a/relu_3x3_reduce
I1130 04:00:07.954883 19834 net.cpp:129] Top shape: 32 160 7 7 (250880)
I1130 04:00:07.954887 19834 net.cpp:137] Memory required for data: 1697956224
I1130 04:00:07.954891 19834 layer_factory.hpp:77] Creating layer inception_5a/3x3
I1130 04:00:07.954901 19834 net.cpp:84] Creating Layer inception_5a/3x3
I1130 04:00:07.954906 19834 net.cpp:406] inception_5a/3x3 <- inception_5a/3x3_reduce
I1130 04:00:07.954913 19834 net.cpp:380] inception_5a/3x3 -> inception_5a/3x3
I1130 04:00:07.958037 19834 net.cpp:122] Setting up inception_5a/3x3
I1130 04:00:07.958050 19834 net.cpp:129] Top shape: 32 320 7 7 (501760)
I1130 04:00:07.958053 19834 net.cpp:137] Memory required for data: 1699963264
I1130 04:00:07.958060 19834 layer_factory.hpp:77] Creating layer inception_5a/relu_3x3
I1130 04:00:07.958067 19834 net.cpp:84] Creating Layer inception_5a/relu_3x3
I1130 04:00:07.958073 19834 net.cpp:406] inception_5a/relu_3x3 <- inception_5a/3x3
I1130 04:00:07.958081 19834 net.cpp:367] inception_5a/relu_3x3 -> inception_5a/3x3 (in-place)
I1130 04:00:07.958088 19834 net.cpp:122] Setting up inception_5a/relu_3x3
I1130 04:00:07.958093 19834 net.cpp:129] Top shape: 32 320 7 7 (501760)
I1130 04:00:07.958098 19834 net.cpp:137] Memory required for data: 1701970304
I1130 04:00:07.958102 19834 layer_factory.hpp:77] Creating layer inception_5a/5x5_reduce
I1130 04:00:07.958112 19834 net.cpp:84] Creating Layer inception_5a/5x5_reduce
I1130 04:00:07.958118 19834 net.cpp:406] inception_5a/5x5_reduce <- pool4/3x3_s2_pool4/3x3_s2_0_split_2
I1130 04:00:07.958124 19834 net.cpp:380] inception_5a/5x5_reduce -> inception_5a/5x5_reduce
I1130 04:00:07.958503 19834 net.cpp:122] Setting up inception_5a/5x5_reduce
I1130 04:00:07.958513 19834 net.cpp:129] Top shape: 32 32 7 7 (50176)
I1130 04:00:07.958516 19834 net.cpp:137] Memory required for data: 1702171008
I1130 04:00:07.958523 19834 layer_factory.hpp:77] Creating layer inception_5a/relu_5x5_reduce
I1130 04:00:07.958530 19834 net.cpp:84] Creating Layer inception_5a/relu_5x5_reduce
I1130 04:00:07.958535 19834 net.cpp:406] inception_5a/relu_5x5_reduce <- inception_5a/5x5_reduce
I1130 04:00:07.958540 19834 net.cpp:367] inception_5a/relu_5x5_reduce -> inception_5a/5x5_reduce (in-place)
I1130 04:00:07.958549 19834 net.cpp:122] Setting up inception_5a/relu_5x5_reduce
I1130 04:00:07.958554 19834 net.cpp:129] Top shape: 32 32 7 7 (50176)
I1130 04:00:07.958557 19834 net.cpp:137] Memory required for data: 1702371712
I1130 04:00:07.958562 19834 layer_factory.hpp:77] Creating layer inception_5a/5x5
I1130 04:00:07.958585 19834 net.cpp:84] Creating Layer inception_5a/5x5
I1130 04:00:07.958590 19834 net.cpp:406] inception_5a/5x5 <- inception_5a/5x5_reduce
I1130 04:00:07.958597 19834 net.cpp:380] inception_5a/5x5 -> inception_5a/5x5
I1130 04:00:07.959688 19834 net.cpp:122] Setting up inception_5a/5x5
I1130 04:00:07.959698 19834 net.cpp:129] Top shape: 32 128 7 7 (200704)
I1130 04:00:07.959702 19834 net.cpp:137] Memory required for data: 1703174528
I1130 04:00:07.959709 19834 layer_factory.hpp:77] Creating layer inception_5a/relu_5x5
I1130 04:00:07.959717 19834 net.cpp:84] Creating Layer inception_5a/relu_5x5
I1130 04:00:07.959722 19834 net.cpp:406] inception_5a/relu_5x5 <- inception_5a/5x5
I1130 04:00:07.959729 19834 net.cpp:367] inception_5a/relu_5x5 -> inception_5a/5x5 (in-place)
I1130 04:00:07.959738 19834 net.cpp:122] Setting up inception_5a/relu_5x5
I1130 04:00:07.959743 19834 net.cpp:129] Top shape: 32 128 7 7 (200704)
I1130 04:00:07.959748 19834 net.cpp:137] Memory required for data: 1703977344
I1130 04:00:07.959750 19834 layer_factory.hpp:77] Creating layer inception_5a/pool
I1130 04:00:07.959756 19834 net.cpp:84] Creating Layer inception_5a/pool
I1130 04:00:07.959761 19834 net.cpp:406] inception_5a/pool <- pool4/3x3_s2_pool4/3x3_s2_0_split_3
I1130 04:00:07.959767 19834 net.cpp:380] inception_5a/pool -> inception_5a/pool
I1130 04:00:07.959803 19834 net.cpp:122] Setting up inception_5a/pool
I1130 04:00:07.959810 19834 net.cpp:129] Top shape: 32 832 7 7 (1304576)
I1130 04:00:07.959815 19834 net.cpp:137] Memory required for data: 1709195648
I1130 04:00:07.959818 19834 layer_factory.hpp:77] Creating layer inception_5a/pool_proj
I1130 04:00:07.959828 19834 net.cpp:84] Creating Layer inception_5a/pool_proj
I1130 04:00:07.959833 19834 net.cpp:406] inception_5a/pool_proj <- inception_5a/pool
I1130 04:00:07.959841 19834 net.cpp:380] inception_5a/pool_proj -> inception_5a/pool_proj
I1130 04:00:07.960906 19834 net.cpp:122] Setting up inception_5a/pool_proj
I1130 04:00:07.960916 19834 net.cpp:129] Top shape: 32 128 7 7 (200704)
I1130 04:00:07.960919 19834 net.cpp:137] Memory required for data: 1709998464
I1130 04:00:07.960927 19834 layer_factory.hpp:77] Creating layer inception_5a/relu_pool_proj
I1130 04:00:07.960934 19834 net.cpp:84] Creating Layer inception_5a/relu_pool_proj
I1130 04:00:07.960940 19834 net.cpp:406] inception_5a/relu_pool_proj <- inception_5a/pool_proj
I1130 04:00:07.960947 19834 net.cpp:367] inception_5a/relu_pool_proj -> inception_5a/pool_proj (in-place)
I1130 04:00:07.960954 19834 net.cpp:122] Setting up inception_5a/relu_pool_proj
I1130 04:00:07.960960 19834 net.cpp:129] Top shape: 32 128 7 7 (200704)
I1130 04:00:07.960964 19834 net.cpp:137] Memory required for data: 1710801280
I1130 04:00:07.960968 19834 layer_factory.hpp:77] Creating layer inception_5a/output
I1130 04:00:07.960975 19834 net.cpp:84] Creating Layer inception_5a/output
I1130 04:00:07.960980 19834 net.cpp:406] inception_5a/output <- inception_5a/1x1
I1130 04:00:07.960985 19834 net.cpp:406] inception_5a/output <- inception_5a/3x3
I1130 04:00:07.960991 19834 net.cpp:406] inception_5a/output <- inception_5a/5x5
I1130 04:00:07.960995 19834 net.cpp:406] inception_5a/output <- inception_5a/pool_proj
I1130 04:00:07.961000 19834 net.cpp:380] inception_5a/output -> inception_5a/output
I1130 04:00:07.961022 19834 net.cpp:122] Setting up inception_5a/output
I1130 04:00:07.961030 19834 net.cpp:129] Top shape: 32 832 7 7 (1304576)
I1130 04:00:07.961035 19834 net.cpp:137] Memory required for data: 1716019584
I1130 04:00:07.961037 19834 layer_factory.hpp:77] Creating layer inception_5a/output_inception_5a/output_0_split
I1130 04:00:07.961045 19834 net.cpp:84] Creating Layer inception_5a/output_inception_5a/output_0_split
I1130 04:00:07.961048 19834 net.cpp:406] inception_5a/output_inception_5a/output_0_split <- inception_5a/output
I1130 04:00:07.961055 19834 net.cpp:380] inception_5a/output_inception_5a/output_0_split -> inception_5a/output_inception_5a/output_0_split_0
I1130 04:00:07.961062 19834 net.cpp:380] inception_5a/output_inception_5a/output_0_split -> inception_5a/output_inception_5a/output_0_split_1
I1130 04:00:07.961069 19834 net.cpp:380] inception_5a/output_inception_5a/output_0_split -> inception_5a/output_inception_5a/output_0_split_2
I1130 04:00:07.961077 19834 net.cpp:380] inception_5a/output_inception_5a/output_0_split -> inception_5a/output_inception_5a/output_0_split_3
I1130 04:00:07.961124 19834 net.cpp:122] Setting up inception_5a/output_inception_5a/output_0_split
I1130 04:00:07.961133 19834 net.cpp:129] Top shape: 32 832 7 7 (1304576)
I1130 04:00:07.961138 19834 net.cpp:129] Top shape: 32 832 7 7 (1304576)
I1130 04:00:07.961143 19834 net.cpp:129] Top shape: 32 832 7 7 (1304576)
I1130 04:00:07.961148 19834 net.cpp:129] Top shape: 32 832 7 7 (1304576)
I1130 04:00:07.961151 19834 net.cpp:137] Memory required for data: 1736892800
I1130 04:00:07.961156 19834 layer_factory.hpp:77] Creating layer inception_5b/1x1
I1130 04:00:07.961165 19834 net.cpp:84] Creating Layer inception_5b/1x1
I1130 04:00:07.961170 19834 net.cpp:406] inception_5b/1x1 <- inception_5a/output_inception_5a/output_0_split_0
I1130 04:00:07.961179 19834 net.cpp:380] inception_5b/1x1 -> inception_5b/1x1
I1130 04:00:07.963455 19834 net.cpp:122] Setting up inception_5b/1x1
I1130 04:00:07.963466 19834 net.cpp:129] Top shape: 32 384 7 7 (602112)
I1130 04:00:07.963470 19834 net.cpp:137] Memory required for data: 1739301248
I1130 04:00:07.963477 19834 layer_factory.hpp:77] Creating layer inception_5b/relu_1x1
I1130 04:00:07.963486 19834 net.cpp:84] Creating Layer inception_5b/relu_1x1
I1130 04:00:07.963492 19834 net.cpp:406] inception_5b/relu_1x1 <- inception_5b/1x1
I1130 04:00:07.963498 19834 net.cpp:367] inception_5b/relu_1x1 -> inception_5b/1x1 (in-place)
I1130 04:00:07.963505 19834 net.cpp:122] Setting up inception_5b/relu_1x1
I1130 04:00:07.963511 19834 net.cpp:129] Top shape: 32 384 7 7 (602112)
I1130 04:00:07.963515 19834 net.cpp:137] Memory required for data: 1741709696
I1130 04:00:07.963518 19834 layer_factory.hpp:77] Creating layer inception_5b/3x3_reduce
I1130 04:00:07.963527 19834 net.cpp:84] Creating Layer inception_5b/3x3_reduce
I1130 04:00:07.963531 19834 net.cpp:406] inception_5b/3x3_reduce <- inception_5a/output_inception_5a/output_0_split_1
I1130 04:00:07.963538 19834 net.cpp:380] inception_5b/3x3_reduce -> inception_5b/3x3_reduce
I1130 04:00:07.964890 19834 net.cpp:122] Setting up inception_5b/3x3_reduce
I1130 04:00:07.964900 19834 net.cpp:129] Top shape: 32 192 7 7 (301056)
I1130 04:00:07.964905 19834 net.cpp:137] Memory required for data: 1742913920
I1130 04:00:07.964912 19834 layer_factory.hpp:77] Creating layer inception_5b/relu_3x3_reduce
I1130 04:00:07.964918 19834 net.cpp:84] Creating Layer inception_5b/relu_3x3_reduce
I1130 04:00:07.964923 19834 net.cpp:406] inception_5b/relu_3x3_reduce <- inception_5b/3x3_reduce
I1130 04:00:07.964929 19834 net.cpp:367] inception_5b/relu_3x3_reduce -> inception_5b/3x3_reduce (in-place)
I1130 04:00:07.964937 19834 net.cpp:122] Setting up inception_5b/relu_3x3_reduce
I1130 04:00:07.964944 19834 net.cpp:129] Top shape: 32 192 7 7 (301056)
I1130 04:00:07.964948 19834 net.cpp:137] Memory required for data: 1744118144
I1130 04:00:07.964952 19834 layer_factory.hpp:77] Creating layer inception_5b/3x3
I1130 04:00:07.964960 19834 net.cpp:84] Creating Layer inception_5b/3x3
I1130 04:00:07.964965 19834 net.cpp:406] inception_5b/3x3 <- inception_5b/3x3_reduce
I1130 04:00:07.964972 19834 net.cpp:380] inception_5b/3x3 -> inception_5b/3x3
I1130 04:00:07.969426 19834 net.cpp:122] Setting up inception_5b/3x3
I1130 04:00:07.969444 19834 net.cpp:129] Top shape: 32 384 7 7 (602112)
I1130 04:00:07.969447 19834 net.cpp:137] Memory required for data: 1746526592
I1130 04:00:07.969455 19834 layer_factory.hpp:77] Creating layer inception_5b/relu_3x3
I1130 04:00:07.969465 19834 net.cpp:84] Creating Layer inception_5b/relu_3x3
I1130 04:00:07.969472 19834 net.cpp:406] inception_5b/relu_3x3 <- inception_5b/3x3
I1130 04:00:07.969480 19834 net.cpp:367] inception_5b/relu_3x3 -> inception_5b/3x3 (in-place)
I1130 04:00:07.969488 19834 net.cpp:122] Setting up inception_5b/relu_3x3
I1130 04:00:07.969494 19834 net.cpp:129] Top shape: 32 384 7 7 (602112)
I1130 04:00:07.969499 19834 net.cpp:137] Memory required for data: 1748935040
I1130 04:00:07.969504 19834 layer_factory.hpp:77] Creating layer inception_5b/5x5_reduce
I1130 04:00:07.969514 19834 net.cpp:84] Creating Layer inception_5b/5x5_reduce
I1130 04:00:07.969519 19834 net.cpp:406] inception_5b/5x5_reduce <- inception_5a/output_inception_5a/output_0_split_2
I1130 04:00:07.969525 19834 net.cpp:380] inception_5b/5x5_reduce -> inception_5b/5x5_reduce
I1130 04:00:07.969940 19834 net.cpp:122] Setting up inception_5b/5x5_reduce
I1130 04:00:07.969952 19834 net.cpp:129] Top shape: 32 48 7 7 (75264)
I1130 04:00:07.969956 19834 net.cpp:137] Memory required for data: 1749236096
I1130 04:00:07.969962 19834 layer_factory.hpp:77] Creating layer inception_5b/relu_5x5_reduce
I1130 04:00:07.969969 19834 net.cpp:84] Creating Layer inception_5b/relu_5x5_reduce
I1130 04:00:07.969974 19834 net.cpp:406] inception_5b/relu_5x5_reduce <- inception_5b/5x5_reduce
I1130 04:00:07.969980 19834 net.cpp:367] inception_5b/relu_5x5_reduce -> inception_5b/5x5_reduce (in-place)
I1130 04:00:07.969987 19834 net.cpp:122] Setting up inception_5b/relu_5x5_reduce
I1130 04:00:07.969993 19834 net.cpp:129] Top shape: 32 48 7 7 (75264)
I1130 04:00:07.969997 19834 net.cpp:137] Memory required for data: 1749537152
I1130 04:00:07.970001 19834 layer_factory.hpp:77] Creating layer inception_5b/5x5
I1130 04:00:07.970016 19834 net.cpp:84] Creating Layer inception_5b/5x5
I1130 04:00:07.970021 19834 net.cpp:406] inception_5b/5x5 <- inception_5b/5x5_reduce
I1130 04:00:07.970028 19834 net.cpp:380] inception_5b/5x5 -> inception_5b/5x5
I1130 04:00:07.971060 19834 net.cpp:122] Setting up inception_5b/5x5
I1130 04:00:07.971071 19834 net.cpp:129] Top shape: 32 128 7 7 (200704)
I1130 04:00:07.971107 19834 net.cpp:137] Memory required for data: 1750339968
I1130 04:00:07.971113 19834 layer_factory.hpp:77] Creating layer inception_5b/relu_5x5
I1130 04:00:07.971120 19834 net.cpp:84] Creating Layer inception_5b/relu_5x5
I1130 04:00:07.971127 19834 net.cpp:406] inception_5b/relu_5x5 <- inception_5b/5x5
I1130 04:00:07.971133 19834 net.cpp:367] inception_5b/relu_5x5 -> inception_5b/5x5 (in-place)
I1130 04:00:07.971141 19834 net.cpp:122] Setting up inception_5b/relu_5x5
I1130 04:00:07.971148 19834 net.cpp:129] Top shape: 32 128 7 7 (200704)
I1130 04:00:07.971151 19834 net.cpp:137] Memory required for data: 1751142784
I1130 04:00:07.971155 19834 layer_factory.hpp:77] Creating layer inception_5b/pool
I1130 04:00:07.971163 19834 net.cpp:84] Creating Layer inception_5b/pool
I1130 04:00:07.971166 19834 net.cpp:406] inception_5b/pool <- inception_5a/output_inception_5a/output_0_split_3
I1130 04:00:07.971174 19834 net.cpp:380] inception_5b/pool -> inception_5b/pool
I1130 04:00:07.971211 19834 net.cpp:122] Setting up inception_5b/pool
I1130 04:00:07.971220 19834 net.cpp:129] Top shape: 32 832 7 7 (1304576)
I1130 04:00:07.971222 19834 net.cpp:137] Memory required for data: 1756361088
I1130 04:00:07.971227 19834 layer_factory.hpp:77] Creating layer inception_5b/pool_proj
I1130 04:00:07.971237 19834 net.cpp:84] Creating Layer inception_5b/pool_proj
I1130 04:00:07.971242 19834 net.cpp:406] inception_5b/pool_proj <- inception_5b/pool
I1130 04:00:07.971251 19834 net.cpp:380] inception_5b/pool_proj -> inception_5b/pool_proj
I1130 04:00:07.972451 19834 net.cpp:122] Setting up inception_5b/pool_proj
I1130 04:00:07.972462 19834 net.cpp:129] Top shape: 32 128 7 7 (200704)
I1130 04:00:07.972466 19834 net.cpp:137] Memory required for data: 1757163904
I1130 04:00:07.972472 19834 layer_factory.hpp:77] Creating layer inception_5b/relu_pool_proj
I1130 04:00:07.972481 19834 net.cpp:84] Creating Layer inception_5b/relu_pool_proj
I1130 04:00:07.972486 19834 net.cpp:406] inception_5b/relu_pool_proj <- inception_5b/pool_proj
I1130 04:00:07.972491 19834 net.cpp:367] inception_5b/relu_pool_proj -> inception_5b/pool_proj (in-place)
I1130 04:00:07.972498 19834 net.cpp:122] Setting up inception_5b/relu_pool_proj
I1130 04:00:07.972504 19834 net.cpp:129] Top shape: 32 128 7 7 (200704)
I1130 04:00:07.972508 19834 net.cpp:137] Memory required for data: 1757966720
I1130 04:00:07.972512 19834 layer_factory.hpp:77] Creating layer inception_5b/output
I1130 04:00:07.972519 19834 net.cpp:84] Creating Layer inception_5b/output
I1130 04:00:07.972524 19834 net.cpp:406] inception_5b/output <- inception_5b/1x1
I1130 04:00:07.972530 19834 net.cpp:406] inception_5b/output <- inception_5b/3x3
I1130 04:00:07.972537 19834 net.cpp:406] inception_5b/output <- inception_5b/5x5
I1130 04:00:07.972542 19834 net.cpp:406] inception_5b/output <- inception_5b/pool_proj
I1130 04:00:07.972548 19834 net.cpp:380] inception_5b/output -> inception_5b/output
I1130 04:00:07.972570 19834 net.cpp:122] Setting up inception_5b/output
I1130 04:00:07.972579 19834 net.cpp:129] Top shape: 32 1024 7 7 (1605632)
I1130 04:00:07.972584 19834 net.cpp:137] Memory required for data: 1764389248
I1130 04:00:07.972589 19834 layer_factory.hpp:77] Creating layer pool5/7x7_s1
I1130 04:00:07.972594 19834 net.cpp:84] Creating Layer pool5/7x7_s1
I1130 04:00:07.972599 19834 net.cpp:406] pool5/7x7_s1 <- inception_5b/output
I1130 04:00:07.972606 19834 net.cpp:380] pool5/7x7_s1 -> pool5/7x7_s1
I1130 04:00:07.972628 19834 net.cpp:122] Setting up pool5/7x7_s1
I1130 04:00:07.972635 19834 net.cpp:129] Top shape: 32 1024 1 1 (32768)
I1130 04:00:07.972640 19834 net.cpp:137] Memory required for data: 1764520320
I1130 04:00:07.972645 19834 layer_factory.hpp:77] Creating layer pool5/drop_7x7_s1
I1130 04:00:07.972651 19834 net.cpp:84] Creating Layer pool5/drop_7x7_s1
I1130 04:00:07.972656 19834 net.cpp:406] pool5/drop_7x7_s1 <- pool5/7x7_s1
I1130 04:00:07.972663 19834 net.cpp:367] pool5/drop_7x7_s1 -> pool5/7x7_s1 (in-place)
I1130 04:00:07.972685 19834 net.cpp:122] Setting up pool5/drop_7x7_s1
I1130 04:00:07.972692 19834 net.cpp:129] Top shape: 32 1024 1 1 (32768)
I1130 04:00:07.972697 19834 net.cpp:137] Memory required for data: 1764651392
I1130 04:00:07.972700 19834 layer_factory.hpp:77] Creating layer fc_scv_picturesque
I1130 04:00:07.972708 19834 net.cpp:84] Creating Layer fc_scv_picturesque
I1130 04:00:07.972713 19834 net.cpp:406] fc_scv_picturesque <- pool5/7x7_s1
I1130 04:00:07.972720 19834 net.cpp:380] fc_scv_picturesque -> fc_scv_picturesque
I1130 04:00:07.972815 19834 net.cpp:122] Setting up fc_scv_picturesque
I1130 04:00:07.972823 19834 net.cpp:129] Top shape: 32 1 (32)
I1130 04:00:07.972828 19834 net.cpp:137] Memory required for data: 1764651520
I1130 04:00:07.972836 19834 layer_factory.hpp:77] Creating layer fc_scv_picturesque_fc_scv_picturesque_0_split
I1130 04:00:07.972843 19834 net.cpp:84] Creating Layer fc_scv_picturesque_fc_scv_picturesque_0_split
I1130 04:00:07.972848 19834 net.cpp:406] fc_scv_picturesque_fc_scv_picturesque_0_split <- fc_scv_picturesque
I1130 04:00:07.972854 19834 net.cpp:380] fc_scv_picturesque_fc_scv_picturesque_0_split -> fc_scv_picturesque_fc_scv_picturesque_0_split_0
I1130 04:00:07.972862 19834 net.cpp:380] fc_scv_picturesque_fc_scv_picturesque_0_split -> fc_scv_picturesque_fc_scv_picturesque_0_split_1
I1130 04:00:07.972896 19834 net.cpp:122] Setting up fc_scv_picturesque_fc_scv_picturesque_0_split
I1130 04:00:07.972903 19834 net.cpp:129] Top shape: 32 1 (32)
I1130 04:00:07.972908 19834 net.cpp:129] Top shape: 32 1 (32)
I1130 04:00:07.972913 19834 net.cpp:137] Memory required for data: 1764651776
I1130 04:00:07.972916 19834 layer_factory.hpp:77] Creating layer loss
I1130 04:00:07.972923 19834 net.cpp:84] Creating Layer loss
I1130 04:00:07.972929 19834 net.cpp:406] loss <- fc_scv_picturesque_fc_scv_picturesque_0_split_0
I1130 04:00:07.972934 19834 net.cpp:406] loss <- label_data_1_split_0
I1130 04:00:07.972941 19834 net.cpp:380] loss -> loss
…
