…
I1130 01:52:52.671957 24969 net.cpp:51] Initializing net from parameters: 
name: "GoogleNet-Places365-SCV-Interesting"
state {
  phase: TRAIN
  level: 0
  stage: ""
}
layer {
  name: "data"
  type: "Data"
  top: "data"
  top: "label"
  include {
    phase: TRAIN
  }
  transform_param {
    mirror: true
    crop_size: 224
    mean_file: "/idiap/temp/lmedina/fine-tuning/googlenet_places365/places365CNN_mean.binaryproto"
  }
  data_param {
    source: "/idiap/temp/lmedina/fine-tuning/data/Interesting/train_lmdb"
    batch_size: 32
    backend: LMDB
  }
}
layer {
  name: "conv1/7x7_s2"
  type: "Convolution"
  bottom: "data"
  top: "conv1/7x7_s2"
  param {
    lr_mult: 1
    decay_mult: 1
  }
  param {
    lr_mult: 2
    decay_mult: 0
  }
  convolution_param {
    num_output: 64
    pad: 3
    kernel_size: 7
    stride: 2
    weight_filler {
      type: "xavier"
      std: 0.1
    }
    bias_filler {
      type: "constant"
      value: 0.2
    }
  }
}
layer {
  name: "conv1/relu_7x7"
  type: "ReLU"
  bottom: "conv1/7x7_s2"
  top: "conv1/7x7_s2"
}
layer {
  name: "pool1/3x3_s2"
  type: "Pooling"
  bottom: "conv1/7x7_s2"
  top: "pool1/3x3_s2"
  pooling_param {
    pool: MAX
    kernel_size: 3
    stride: 2
  }
}
layer {
  name: "pool1/norm1"
  type: "LRN"
  bottom: "pool1/3x3_s2"
  top: "pool1/norm1"
  lrn_param {
    local_size: 5
    alpha: 0.0001
    beta: 0.75
  }
}
layer {
  name: "conv2/3x3_reduce"
  type: "Convolution"
  bottom: "pool1/norm1"
  top: "conv2/3x3_reduce"
  param {
    lr_mult: 1
    decay_mult: 1
  }
  param {
    lr_mult: 2
    decay_mult: 0
  }
  convolution_param {
    num_output: 64
    kernel_size: 1
    weight_filler {
      type: "xavier"
      std: 0.1
    }
    bias_filler {
      type: "constant"
      value: 0.2
    }
  }
}
layer {
  name: "conv2/relu_3x3_reduce"
  type: "ReLU"
  bottom: "conv2/3x3_reduce"
  top: "conv2/3x3_reduce"
}
layer {
  name: "conv2/3x3"
  type: "Convolution"
  bottom: "conv2/3x3_reduce"
  top: "conv2/3x3"
  param {
    lr_mult: 1
    decay_mult: 1
  }
  param {
    lr_mult: 2
    decay_mult: 0
  }
  convolution_param {
    num_output: 192
    pad: 1
    kernel_size: 3
    weight_filler {
      type: "xavier"
      std: 0.03
    }
    bias_filler {
      type: "constant"
      value: 0.2
    }
  }
}
layer {
  name: "conv2/relu_3x3"
  type: "ReLU"
  bottom: "conv2/3x3"
  top: "conv2/3x3"
}
layer {
  name: "conv2/norm2"
  type: "LRN"
  bottom: "conv2/3x3"
  top: "conv2/norm2"
  lrn_param {
    local_size: 5
    alpha: 0.0001
    beta: 0.75
  }
}
layer {
  name: "pool2/3x3_s2"
  type: "Pooling"
  bottom: "conv2/norm2"
  top: "pool2/3x3_s2"
  pooling_param {
    pool: MAX
    kernel_size: 3
    stride: 2
  }
}
layer {
  name: "inception_3a/1x1"
  type: "Convolution"
  bottom: "pool2/3x3_s2"
  top: "inception_3a/1x1"
  param {
    lr_mult: 1
    decay_mult: 1
  }
  param {
    lr_mult: 2
    decay_mult: 0
  }
  convolution_param {
    num_output: 64
    kernel_size: 1
    weight_filler {
      type: "xavier"
      std: 0.03
    }
    bias_filler {
      type: "constant"
      value: 0.2
    }
  }
}
layer {
  name: "inception_3a/relu_1x1"
  type: "ReLU"
  bottom: "inception_3a/1x1"
  top: "inception_3a/1x1"
}
layer {
  name: "inception_3a/3x3_reduce"
  type: "Convolution"
  bottom: "pool2/3x3_s2"
  top: "inception_3a/3x3_reduce"
  param {
    lr_mult: 1
    decay_mult: 1
  }
  param {
    lr_mult: 2
    decay_mult: 0
  }
  convolution_param {
    num_output: 96
    kernel_size: 1
    weight_filler {
      type: "xavier"
      std: 0.09
    }
    bias_filler {
      type: "constant"
      value: 0.2
    }
  }
}
layer {
  name: "inception_3a/relu_3x3_reduce"
  type: "ReLU"
  bottom: "inception_3a/3x3_reduce"
  top: "inception_3a/3x3_reduce"
}
layer {
  name: "inception_3a/3x3"
  type: "Convolution"
  bottom: "inception_3a/3x3_reduce"
  top: "inception_3a/3x3"
  param {
    lr_mult: 1
    decay_mult: 1
  }
  param {
    lr_mult: 2
    decay_mult: 0
  }
  convolution_param {
    num_output: 128
    pad: 1
    kernel_size: 3
    weight_filler {
      type: "xavier"
      std: 0.03
    }
    bias_filler {
      type: "constant"
      value: 0.2
    }
  }
}
layer {
  name: "inception_3a/relu_3x3"
  type: "ReLU"
  bottom: "inception_3a/3x3"
  top: "inception_3a/3x3"
}
layer {
  name: "inception_3a/5x5_reduce"
  type: "Convolution"
  bottom: "pool2/3x3_s2"
  top: "inception_3a/5x5_reduce"
  param {
    lr_mult: 1
    decay_mult: 1
  }
  param {
    lr_mult: 2
    decay_mult: 0
  }
  convolution_param {
    num_output: 16
    kernel_size: 1
    weight_filler {
      type: "xavier"
      std: 0.2
    }
    bias_filler {
      type: "constant"
      value: 0.2
    }
  }
}
layer {
  name: "inception_3a/relu_5x5_reduce"
  type: "ReLU"
  bottom: "inception_3a/5x5_reduce"
  top: "inception_3a/5x5_reduce"
}
layer {
  name: "inception_3a/5x5"
  type: "Convolution"
  bottom: "inception_3a/5x5_reduce"
  top: "inception_3a/5x5"
  param {
    lr_mult: 1
    decay_mult: 1
  }
  param {
    lr_mult: 2
    decay_mult: 0
  }
  convolution_param {
    num_output: 32
    pad: 2
    kernel_size: 5
    weight_filler {
      type: "xavier"
      std: 0.03
    }
    bias_filler {
      type: "constant"
      value: 0.2
    }
  }
}
layer {
  name: "inception_3a/relu_5x5"
  type: "ReLU"
  bottom: "inception_3a/5x5"
  top: "inception_3a/5x5"
}
layer {
  name: "inception_3a/pool"
  type: "Pooling"
  bottom: "pool2/3x3_s2"
  top: "inception_3a/pool"
  pooling_param {
    pool: MAX
    kernel_size: 3
    stride: 1
    pad: 1
  }
}
layer {
  name: "inception_3a/pool_proj"
  type: "Convolution"
  bottom: "inception_3a/pool"
  top: "inception_3a/pool_proj"
  param {
    lr_mult: 1
    decay_mult: 1
  }
  param {
    lr_mult: 2
    decay_mult: 0
  }
  convolution_param {
    num_output: 32
    kernel_size: 1
    weight_filler {
      type: "xavier"
      std: 0.1
    }
    bias_filler {
      type: "constant"
      value: 0.2
    }
  }
}
layer {
  name: "inception_3a/relu_pool_proj"
  type: "ReLU"
  bottom: "inception_3a/pool_proj"
  top: "inception_3a/pool_proj"
}
layer {
  name: "inception_3a/output"
  type: "Concat"
  bottom: "inception_3a/1x1"
  bottom: "inception_3a/3x3"
  bottom: "inception_3a/5x5"
  bottom: "inception_3a/pool_proj"
  top: "inception_3a/output"
}
layer {
  name: "inception_3b/1x1"
  type: "Convolution"
  bottom: "inception_3a/output"
  top: "inception_3b/1x1"
  param {
    lr_mult: 1
    decay_mult: 1
  }
  param {
    lr_mult: 2
    decay_mult: 0
  }
  convolution_param {
    num_output: 128
    kernel_size: 1
    weight_filler {
      type: "xavier"
      std: 0.03
    }
    bias_filler {
      type: "constant"
      value: 0.2
    }
  }
}
layer {
  name: "inception_3b/relu_1x1"
  type: "ReLU"
  bottom: "inception_3b/1x1"
  top: "inception_3b/1x1"
}
layer {
  name: "inception_3b/3x3_reduce"
  type: "Convolution"
  bottom: "inception_3a/output"
  top: "inception_3b/3x3_reduce"
  param {
    lr_mult: 1
    decay_mult: 1
  }
  param {
    lr_mult: 2
    decay_mult: 0
  }
  convolution_param {
    num_output: 128
    kernel_size: 1
    weight_filler {
      type: "xavier"
      std: 0.09
    }
    bias_filler {
      type: "constant"
      value: 0.2
    }
  }
}
layer {
  name: "inception_3b/relu_3x3_reduce"
  type: "ReLU"
  bottom: "inception_3b/3x3_reduce"
  top: "inception_3b/3x3_reduce"
}
layer {
  name: "inception_3b/3x3"
  type: "Convolution"
  bottom: "inception_3b/3x3_reduce"
  top: "inception_3b/3x3"
  param {
    lr_mult: 1
    decay_mult: 1
  }
  param {
    lr_mult: 2
    decay_mult: 0
  }
  convolution_param {
    num_output: 192
    pad: 1
    kernel_size: 3
    weight_filler {
      type: "xavier"
      std: 0.03
    }
    bias_filler {
      type: "constant"
      value: 0.2
    }
  }
}
layer {
  name: "inception_3b/relu_3x3"
  type: "ReLU"
  bottom: "inception_3b/3x3"
  top: "inception_3b/3x3"
}
layer {
  name: "inception_3b/5x5_reduce"
  type: "Convolution"
  bottom: "inception_3a/output"
  top: "inception_3b/5x5_reduce"
  param {
    lr_mult: 1
    decay_mult: 1
  }
  param {
    lr_mult: 2
    decay_mult: 0
  }
  convolution_param {
    num_output: 32
    kernel_size: 1
    weight_filler {
      type: "xavier"
      std: 0.2
    }
    bias_filler {
      type: "constant"
      value: 0.2
    }
  }
}
layer {
  name: "inception_3b/relu_5x5_reduce"
  type: "ReLU"
  bottom: "inception_3b/5x5_reduce"
  top: "inception_3b/5x5_reduce"
}
layer {
  name: "inception_3b/5x5"
  type: "Convolution"
  bottom: "inception_3b/5x5_reduce"
  top: "inception_3b/5x5"
  param {
    lr_mult: 1
    decay_mult: 1
  }
  param {
    lr_mult: 2
    decay_mult: 0
  }
  convolution_param {
    num_output: 96
    pad: 2
    kernel_size: 5
    weight_filler {
      type: "xavier"
      std: 0.03
    }
    bias_filler {
      type: "constant"
      value: 0.2
    }
  }
}
layer {
  name: "inception_3b/relu_5x5"
  type: "ReLU"
  bottom: "inception_3b/5x5"
  top: "inception_3b/5x5"
}
layer {
  name: "inception_3b/pool"
  type: "Pooling"
  bottom: "inception_3a/output"
  top: "inception_3b/pool"
  pooling_param {
    pool: MAX
    kernel_size: 3
    stride: 1
    pad: 1
  }
}
layer {
  name: "inception_3b/pool_proj"
  type: "Convolution"
  bottom: "inception_3b/pool"
  top: "inception_3b/pool_proj"
  param {
    lr_mult: 1
    decay_mult: 1
  }
  param {
    lr_mult: 2
    decay_mult: 0
  }
  convolution_param {
    num_output: 64
    kernel_size: 1
    weight_filler {
      type: "xavier"
      std: 0.1
    }
    bias_filler {
      type: "constant"
      value: 0.2
    }
  }
}
layer {
  name: "inception_3b/relu_pool_proj"
  type: "ReLU"
  bottom: "inception_3b/pool_proj"
  top: "inception_3b/pool_proj"
}
layer {
  name: "inception_3b/output"
  type: "Concat"
  bottom: "inception_3b/1x1"
  bottom: "inception_3b/3x3"
  bottom: "inception_3b/5x5"
  bottom: "inception_3b/pool_proj"
  top: "inception_3b/output"
}
layer {
  name: "pool3/3x3_s2"
  type: "Pooling"
  bottom: "inception_3b/output"
  top: "pool3/3x3_s2"
  pooling_param {
    pool: MAX
    kernel_size: 3
    stride: 2
  }
}
layer {
  name: "inception_4a/1x1"
  type: "Convolution"
  bottom: "pool3/3x3_s2"
  top: "inception_4a/1x1"
  param {
    lr_mult: 1
    decay_mult: 1
  }
  param {
    lr_mult: 2
    decay_mult: 0
  }
  convolution_param {
    num_output: 192
    kernel_size: 1
    weight_filler {
      type: "xavier"
      std: 0.03
    }
    bias_filler {
      type: "constant"
      value: 0.2
    }
  }
}
layer {
  name: "inception_4a/relu_1x1"
  type: "ReLU"
  bottom: "inception_4a/1x1"
  top: "inception_4a/1x1"
}
layer {
  name: "inception_4a/3x3_reduce"
  type: "Convolution"
  bottom: "pool3/3x3_s2"
  top: "inception_4a/3x3_reduce"
  param {
    lr_mult: 1
    decay_mult: 1
  }
  param {
    lr_mult: 2
    decay_mult: 0
  }
  convolution_param {
    num_output: 96
    kernel_size: 1
    weight_filler {
      type: "xavier"
      std: 0.09
    }
    bias_filler {
      type: "constant"
      value: 0.2
    }
  }
}
layer {
  name: "inception_4a/relu_3x3_reduce"
  type: "ReLU"
  bottom: "inception_4a/3x3_reduce"
  top: "inception_4a/3x3_reduce"
}
layer {
  name: "inception_4a/3x3"
  type: "Convolution"
  bottom: "inception_4a/3x3_reduce"
  top: "inception_4a/3x3"
  param {
    lr_mult: 1
    decay_mult: 1
  }
  param {
    lr_mult: 2
    decay_mult: 0
  }
  convolution_param {
    num_output: 208
    pad: 1
    kernel_size: 3
    weight_filler {
      type: "xavier"
      std: 0.03
    }
    bias_filler {
      type: "constant"
      value: 0.2
    }
  }
}
layer {
  name: "inception_4a/relu_3x3"
  type: "ReLU"
  bottom: "inception_4a/3x3"
  top: "inception_4a/3x3"
}
layer {
  name: "inception_4a/5x5_reduce"
  type: "Convolution"
  bottom: "pool3/3x3_s2"
  top: "inception_4a/5x5_reduce"
  param {
    lr_mult: 1
    decay_mult: 1
  }
  param {
    lr_mult: 2
    decay_mult: 0
  }
  convolution_param {
    num_output: 16
    kernel_size: 1
    weight_filler {
      type: "xavier"
      std: 0.2
    }
    bias_filler {
      type: "constant"
      value: 0.2
    }
  }
}
layer {
  name: "inception_4a/relu_5x5_reduce"
  type: "ReLU"
  bottom: "inception_4a/5x5_reduce"
  top: "inception_4a/5x5_reduce"
}
layer {
  name: "inception_4a/5x5"
  type: "Convolution"
  bottom: "inception_4a/5x5_reduce"
  top: "inception_4a/5x5"
  param {
    lr_mult: 1
    decay_mult: 1
  }
  param {
    lr_mult: 2
    decay_mult: 0
  }
  convolution_param {
    num_output: 48
    pad: 2
    kernel_size: 5
    weight_filler {
      type: "xavier"
      std: 0.03
    }
    bias_filler {
      type: "constant"
      value: 0.2
    }
  }
}
layer {
  name: "inception_4a/relu_5x5"
  type: "ReLU"
  bottom: "inception_4a/5x5"
  top: "inception_4a/5x5"
}
layer {
  name: "inception_4a/pool"
  type: "Pooling"
  bottom: "pool3/3x3_s2"
  top: "inception_4a/pool"
  pooling_param {
    pool: MAX
    kernel_size: 3
    stride: 1
    pad: 1
  }
}
layer {
  name: "inception_4a/pool_proj"
  type: "Convolution"
  bottom: "inception_4a/pool"
  top: "inception_4a/pool_proj"
  param {
    lr_mult: 1
    decay_mult: 1
  }
  param {
    lr_mult: 2
    decay_mult: 0
  }
  convolution_param {
    num_output: 64
    kernel_size: 1
    weight_filler {
      type: "xavier"
      std: 0.1
    }
    bias_filler {
      type: "constant"
      value: 0.2
    }
  }
}
layer {
  name: "inception_4a/relu_pool_proj"
  type: "ReLU"
  bottom: "inception_4a/pool_proj"
  top: "inception_4a/pool_proj"
}
layer {
  name: "inception_4a/output"
  type: "Concat"
  bottom: "inception_4a/1x1"
  bottom: "inception_4a/3x3"
  bottom: "inception_4a/5x5"
  bottom: "inception_4a/pool_proj"
  top: "inception_4a/output"
}
layer {
  name: "inception_4b/1x1"
  type: "Convolution"
  bottom: "inception_4a/output"
  top: "inception_4b/1x1"
  param {
    lr_mult: 1
    decay_mult: 1
  }
  param {
    lr_mult: 2
    decay_mult: 0
  }
  convolution_param {
    num_output: 160
    kernel_size: 1
    weight_filler {
      type: "xavier"
      std: 0.03
    }
    bias_filler {
      type: "constant"
      value: 0.2
    }
  }
}
layer {
  name: "inception_4b/relu_1x1"
  type: "ReLU"
  bottom: "inception_4b/1x1"
  top: "inception_4b/1x1"
}
layer {
  name: "inception_4b/3x3_reduce"
  type: "Convolution"
  bottom: "inception_4a/output"
  top: "inception_4b/3x3_reduce"
  param {
    lr_mult: 1
    decay_mult: 1
  }
  param {
    lr_mult: 2
    decay_mult: 0
  }
  convolution_param {
    num_output: 112
    kernel_size: 1
    weight_filler {
      type: "xavier"
      std: 0.09
    }
    bias_filler {
      type: "constant"
      value: 0.2
    }
  }
}
layer {
  name: "inception_4b/relu_3x3_reduce"
  type: "ReLU"
  bottom: "inception_4b/3x3_reduce"
  top: "inception_4b/3x3_reduce"
}
layer {
  name: "inception_4b/3x3"
  type: "Convolution"
  bottom: "inception_4b/3x3_reduce"
  top: "inception_4b/3x3"
  param {
    lr_mult: 1
    decay_mult: 1
  }
  param {
    lr_mult: 2
    decay_mult: 0
  }
  convolution_param {
    num_output: 224
    pad: 1
    kernel_size: 3
    weight_filler {
      type: "xavier"
      std: 0.03
    }
    bias_filler {
      type: "constant"
      value: 0.2
    }
  }
}
layer {
  name: "inception_4b/relu_3x3"
  type: "ReLU"
  bottom: "inception_4b/3x3"
  top: "inception_4b/3x3"
}
layer {
  name: "inception_4b/5x5_reduce"
  type: "Convolution"
  bottom: "inception_4a/output"
  top: "inception_4b/5x5_reduce"
  param {
    lr_mult: 1
    decay_mult: 1
  }
  param {
    lr_mult: 2
    decay_mult: 0
  }
  convolution_param {
    num_output: 24
    kernel_size: 1
    weight_filler {
      type: "xavier"
      std: 0.2
    }
    bias_filler {
      type: "constant"
      value: 0.2
    }
  }
}
layer {
  name: "inception_4b/relu_5x5_reduce"
  type: "ReLU"
  bottom: "inception_4b/5x5_reduce"
  top: "inception_4b/5x5_reduce"
}
layer {
  name: "inception_4b/5x5"
  type: "Convolution"
  bottom: "inception_4b/5x5_reduce"
  top: "inception_4b/5x5"
  param {
    lr_mult: 1
    decay_mult: 1
  }
  param {
    lr_mult: 2
    decay_mult: 0
  }
  convolution_param {
    num_output: 64
    pad: 2
    kernel_size: 5
    weight_filler {
      type: "xavier"
      std: 0.03
    }
    bias_filler {
      type: "constant"
      value: 0.2
    }
  }
}
layer {
  name: "inception_4b/relu_5x5"
  type: "ReLU"
  bottom: "inception_4b/5x5"
  top: "inception_4b/5x5"
}
layer {
  name: "inception_4b/pool"
  type: "Pooling"
  bottom: "inception_4a/output"
  top: "inception_4b/pool"
  pooling_param {
    pool: MAX
    kernel_size: 3
    stride: 1
    pad: 1
  }
}
layer {
  name: "inception_4b/pool_proj"
  type: "Convolution"
  bottom: "inception_4b/pool"
  top: "inception_4b/pool_proj"
  param {
    lr_mult: 1
    decay_mult: 1
  }
  param {
    lr_mult: 2
    decay_mult: 0
  }
  convolution_param {
    num_output: 64
    kernel_size: 1
    weight_filler {
      type: "xavier"
      std: 0.1
    }
    bias_filler {
      type: "constant"
      value: 0.2
    }
  }
}
layer {
  name: "inception_4b/relu_pool_proj"
  type: "ReLU"
  bottom: "inception_4b/pool_proj"
  top: "inception_4b/pool_proj"
}
layer {
  name: "inception_4b/output"
  type: "Concat"
  bottom: "inception_4b/1x1"
  bottom: "inception_4b/3x3"
  bottom: "inception_4b/5x5"
  bottom: "inception_4b/pool_proj"
  top: "inception_4b/output"
}
layer {
  name: "inception_4c/1x1"
  type: "Convolution"
  bottom: "inception_4b/output"
  top: "inception_4c/1x1"
  param {
    lr_mult: 1
    decay_mult: 1
  }
  param {
    lr_mult: 2
    decay_mult: 0
  }
  convolution_param {
    num_output: 128
    kernel_size: 1
    weight_filler {
      type: "xavier"
      std: 0.03
    }
    bias_filler {
      type: "constant"
      value: 0.2
    }
  }
}
layer {
  name: "inception_4c/relu_1x1"
  type: "ReLU"
  bottom: "inception_4c/1x1"
  top: "inception_4c/1x1"
}
layer {
  name: "inception_4c/3x3_reduce"
  type: "Convolution"
  bottom: "inception_4b/output"
  top: "inception_4c/3x3_reduce"
  param {
    lr_mult: 1
    decay_mult: 1
  }
  param {
    lr_mult: 2
    decay_mult: 0
  }
  convolution_param {
    num_output: 128
    kernel_size: 1
    weight_filler {
      type: "xavier"
      std: 0.09
    }
    bias_filler {
      type: "constant"
      value: 0.2
    }
  }
}
layer {
  name: "inception_4c/relu_3x3_reduce"
  type: "ReLU"
  bottom: "inception_4c/3x3_reduce"
  top: "inception_4c/3x3_reduce"
}
layer {
  name: "inception_4c/3x3"
  type: "Convolution"
  bottom: "inception_4c/3x3_reduce"
  top: "inception_4c/3x3"
  param {
    lr_mult: 1
    decay_mult: 1
  }
  param {
    lr_mult: 2
    decay_mult: 0
  }
  convolution_param {
    num_output: 256
    pad: 1
    kernel_size: 3
    weight_filler {
      type: "xavier"
      std: 0.03
    }
    bias_filler {
      type: "constant"
      value: 0.2
    }
  }
}
layer {
  name: "inception_4c/relu_3x3"
  type: "ReLU"
  bottom: "inception_4c/3x3"
  top: "inception_4c/3x3"
}
layer {
  name: "inception_4c/5x5_reduce"
  type: "Convolution"
  bottom: "inception_4b/output"
  top: "inception_4c/5x5_reduce"
  param {
    lr_mult: 1
    decay_mult: 1
  }
  param {
    lr_mult: 2
    decay_mult: 0
  }
  convolution_param {
    num_output: 24
    kernel_size: 1
    weight_filler {
      type: "xavier"
      std: 0.2
    }
    bias_filler {
      type: "constant"
      value: 0.2
    }
  }
}
layer {
  name: "inception_4c/relu_5x5_reduce"
  type: "ReLU"
  bottom: "inception_4c/5x5_reduce"
  top: "inception_4c/5x5_reduce"
}
layer {
  name: "inception_4c/5x5"
  type: "Convolution"
  bottom: "inception_4c/5x5_reduce"
  top: "inception_4c/5x5"
  param {
    lr_mult: 1
    decay_mult: 1
  }
  param {
    lr_mult: 2
    decay_mult: 0
  }
  convolution_param {
    num_output: 64
    pad: 2
    kernel_size: 5
    weight_filler {
      type: "xavier"
      std: 0.03
    }
    bias_filler {
      type: "constant"
      value: 0.2
    }
  }
}
layer {
  name: "inception_4c/relu_5x5"
  type: "ReLU"
  bottom: "inception_4c/5x5"
  top: "inception_4c/5x5"
}
layer {
  name: "inception_4c/pool"
  type: "Pooling"
  bottom: "inception_4b/output"
  top: "inception_4c/pool"
  pooling_param {
    pool: MAX
    kernel_size: 3
    stride: 1
    pad: 1
  }
}
layer {
  name: "inception_4c/pool_proj"
  type: "Convolution"
  bottom: "inception_4c/pool"
  top: "inception_4c/pool_proj"
  param {
    lr_mult: 1
    decay_mult: 1
  }
  param {
    lr_mult: 2
    decay_mult: 0
  }
  convolution_param {
    num_output: 64
    kernel_size: 1
    weight_filler {
      type: "xavier"
      std: 0.1
    }
    bias_filler {
      type: "constant"
      value: 0.2
    }
  }
}
layer {
  name: "inception_4c/relu_pool_proj"
  type: "ReLU"
  bottom: "inception_4c/pool_proj"
  top: "inception_4c/pool_proj"
}
layer {
  name: "inception_4c/output"
  type: "Concat"
  bottom: "inception_4c/1x1"
  bottom: "inception_4c/3x3"
  bottom: "inception_4c/5x5"
  bottom: "inception_4c/pool_proj"
  top: "inception_4c/output"
}
layer {
  name: "inception_4d/1x1"
  type: "Convolution"
  bottom: "inception_4c/output"
  top: "inception_4d/1x1"
  param {
    lr_mult: 1
    decay_mult: 1
  }
  param {
    lr_mult: 2
    decay_mult: 0
  }
  convolution_param {
    num_output: 112
    kernel_size: 1
    weight_filler {
      type: "xavier"
      std: 0.03
    }
    bias_filler {
      type: "constant"
      value: 0.2
    }
  }
}
layer {
  name: "inception_4d/relu_1x1"
  type: "ReLU"
  bottom: "inception_4d/1x1"
  top: "inception_4d/1x1"
}
layer {
  name: "inception_4d/3x3_reduce"
  type: "Convolution"
  bottom: "inception_4c/output"
  top: "inception_4d/3x3_reduce"
  param {
    lr_mult: 1
    decay_mult: 1
  }
  param {
    lr_mult: 2
    decay_mult: 0
  }
  convolution_param {
    num_output: 144
    kernel_size: 1
    weight_filler {
      type: "xavier"
      std: 0.09
    }
    bias_filler {
      type: "constant"
      value: 0.2
    }
  }
}
layer {
  name: "inception_4d/relu_3x3_reduce"
  type: "ReLU"
  bottom: "inception_4d/3x3_reduce"
  top: "inception_4d/3x3_reduce"
}
layer {
  name: "inception_4d/3x3"
  type: "Convolution"
  bottom: "inception_4d/3x3_reduce"
  top: "inception_4d/3x3"
  param {
    lr_mult: 1
    decay_mult: 1
  }
  param {
    lr_mult: 2
    decay_mult: 0
  }
  convolution_param {
    num_output: 288
    pad: 1
    kernel_size: 3
    weight_filler {
      type: "xavier"
      std: 0.03
    }
    bias_filler {
      type: "constant"
      value: 0.2
    }
  }
}
layer {
  name: "inception_4d/relu_3x3"
  type: "ReLU"
  bottom: "inception_4d/3x3"
  top: "inception_4d/3x3"
}
layer {
  name: "inception_4d/5x5_reduce"
  type: "Convolution"
  bottom: "inception_4c/output"
  top: "inception_4d/5x5_reduce"
  param {
    lr_mult: 1
    decay_mult: 1
  }
  param {
    lr_mult: 2
    decay_mult: 0
  }
  convolution_param {
    num_output: 32
    kernel_size: 1
    weight_filler {
      type: "xavier"
      std: 0.2
    }
    bias_filler {
      type: "constant"
      value: 0.2
    }
  }
}
layer {
  name: "inception_4d/relu_5x5_reduce"
  type: "ReLU"
  bottom: "inception_4d/5x5_reduce"
  top: "inception_4d/5x5_reduce"
}
layer {
  name: "inception_4d/5x5"
  type: "Convolution"
  bottom: "inception_4d/5x5_reduce"
  top: "inception_4d/5x5"
  param {
    lr_mult: 1
    decay_mult: 1
  }
  param {
    lr_mult: 2
    decay_mult: 0
  }
  convolution_param {
    num_output: 64
    pad: 2
    kernel_size: 5
    weight_filler {
      type: "xavier"
      std: 0.03
    }
    bias_filler {
      type: "constant"
      value: 0.2
    }
  }
}
layer {
  name: "inception_4d/relu_5x5"
  type: "ReLU"
  bottom: "inception_4d/5x5"
  top: "inception_4d/5x5"
}
layer {
  name: "inception_4d/pool"
  type: "Pooling"
  bottom: "inception_4c/output"
  top: "inception_4d/pool"
  pooling_param {
    pool: MAX
    kernel_size: 3
    stride: 1
    pad: 1
  }
}
layer {
  name: "inception_4d/pool_proj"
  type: "Convolution"
  bottom: "inception_4d/pool"
  top: "inception_4d/pool_proj"
  param {
    lr_mult: 1
    decay_mult: 1
  }
  param {
    lr_mult: 2
    decay_mult: 0
  }
  convolution_param {
    num_output: 64
    kernel_size: 1
    weight_filler {
      type: "xavier"
      std: 0.1
    }
    bias_filler {
      type: "constant"
      value: 0.2
    }
  }
}
layer {
  name: "inception_4d/relu_pool_proj"
  type: "ReLU"
  bottom: "inception_4d/pool_proj"
  top: "inception_4d/pool_proj"
}
layer {
  name: "inception_4d/output"
  type: "Concat"
  bottom: "inception_4d/1x1"
  bottom: "inception_4d/3x3"
  bottom: "inception_4d/5x5"
  bottom: "inception_4d/pool_proj"
  top: "inception_4d/output"
}
layer {
  name: "inception_4e/1x1"
  type: "Convolution"
  bottom: "inception_4d/output"
  top: "inception_4e/1x1"
  param {
    lr_mult: 1
    decay_mult: 1
  }
  param {
    lr_mult: 2
    decay_mult: 0
  }
  convolution_param {
    num_output: 256
    kernel_size: 1
    weight_filler {
      type: "xavier"
      std: 0.03
    }
    bias_filler {
      type: "constant"
      value: 0.2
    }
  }
}
layer {
  name: "inception_4e/relu_1x1"
  type: "ReLU"
  bottom: "inception_4e/1x1"
  top: "inception_4e/1x1"
}
layer {
  name: "inception_4e/3x3_reduce"
  type: "Convolution"
  bottom: "inception_4d/output"
  top: "inception_4e/3x3_reduce"
  param {
    lr_mult: 1
    decay_mult: 1
  }
  param {
    lr_mult: 2
    decay_mult: 0
  }
  convolution_param {
    num_output: 160
    kernel_size: 1
    weight_filler {
      type: "xavier"
      std: 0.09
    }
    bias_filler {
      type: "constant"
      value: 0.2
    }
  }
}
layer {
  name: "inception_4e/relu_3x3_reduce"
  type: "ReLU"
  bottom: "inception_4e/3x3_reduce"
  top: "inception_4e/3x3_reduce"
}
layer {
  name: "inception_4e/3x3"
  type: "Convolution"
  bottom: "inception_4e/3x3_reduce"
  top: "inception_4e/3x3"
  param {
    lr_mult: 1
    decay_mult: 1
  }
  param {
    lr_mult: 2
    decay_mult: 0
  }
  convolution_param {
    num_output: 320
    pad: 1
    kernel_size: 3
    weight_filler {
      type: "xavier"
      std: 0.03
    }
    bias_filler {
      type: "constant"
      value: 0.2
    }
  }
}
layer {
  name: "inception_4e/relu_3x3"
  type: "ReLU"
  bottom: "inception_4e/3x3"
  top: "inception_4e/3x3"
}
layer {
  name: "inception_4e/5x5_reduce"
  type: "Convolution"
  bottom: "inception_4d/output"
  top: "inception_4e/5x5_reduce"
  param {
    lr_mult: 1
    decay_mult: 1
  }
  param {
    lr_mult: 2
    decay_mult: 0
  }
  convolution_param {
    num_output: 32
    kernel_size: 1
    weight_filler {
      type: "xavier"
      std: 0.2
    }
    bias_filler {
      type: "constant"
      value: 0.2
    }
  }
}
layer {
  name: "inception_4e/relu_5x5_reduce"
  type: "ReLU"
  bottom: "inception_4e/5x5_reduce"
  top: "inception_4e/5x5_reduce"
}
layer {
  name: "inception_4e/5x5"
  type: "Convolution"
  bottom: "inception_4e/5x5_reduce"
  top: "inception_4e/5x5"
  param {
    lr_mult: 1
    decay_mult: 1
  }
  param {
    lr_mult: 2
    decay_mult: 0
  }
  convolution_param {
    num_output: 128
    pad: 2
    kernel_size: 5
    weight_filler {
      type: "xavier"
      std: 0.03
    }
    bias_filler {
      type: "constant"
      value: 0.2
    }
  }
}
layer {
  name: "inception_4e/relu_5x5"
  type: "ReLU"
  bottom: "inception_4e/5x5"
  top: "inception_4e/5x5"
}
layer {
  name: "inception_4e/pool"
  type: "Pooling"
  bottom: "inception_4d/output"
  top: "inception_4e/pool"
  pooling_param {
    pool: MAX
    kernel_size: 3
    stride: 1
    pad: 1
  }
}
layer {
  name: "inception_4e/pool_proj"
  type: "Convolution"
  bottom: "inception_4e/pool"
  top: "inception_4e/pool_proj"
  param {
    lr_mult: 1
    decay_mult: 1
  }
  param {
    lr_mult: 2
    decay_mult: 0
  }
  convolution_param {
    num_output: 128
    kernel_size: 1
    weight_filler {
      type: "xavier"
      std: 0.1
    }
    bias_filler {
      type: "constant"
      value: 0.2
    }
  }
}
layer {
  name: "inception_4e/relu_pool_proj"
  type: "ReLU"
  bottom: "inception_4e/pool_proj"
  top: "inception_4e/pool_proj"
}
layer {
  name: "inception_4e/output"
  type: "Concat"
  bottom: "inception_4e/1x1"
  bottom: "inception_4e/3x3"
  bottom: "inception_4e/5x5"
  bottom: "inception_4e/pool_proj"
  top: "inception_4e/output"
}
layer {
  name: "pool4/3x3_s2"
  type: "Pooling"
  bottom: "inception_4e/output"
  top: "pool4/3x3_s2"
  pooling_param {
    pool: MAX
    kernel_size: 3
    stride: 2
  }
}
layer {
  name: "inception_5a/1x1"
  type: "Convolution"
  bottom: "pool4/3x3_s2"
  top: "inception_5a/1x1"
  param {
    lr_mult: 1
    decay_mult: 1
  }
  param {
    lr_mult: 2
    decay_mult: 0
  }
  convolution_param {
    num_output: 256
    kernel_size: 1
    weight_filler {
      type: "xavier"
      std: 0.03
    }
    bias_filler {
      type: "constant"
      value: 0.2
    }
  }
}
layer {
  name: "inception_5a/relu_1x1"
  type: "ReLU"
  bottom: "inception_5a/1x1"
  top: "inception_5a/1x1"
}
layer {
  name: "inception_5a/3x3_reduce"
  type: "Convolution"
  bottom: "pool4/3x3_s2"
  top: "inception_5a/3x3_reduce"
  param {
    lr_mult: 1
    decay_mult: 1
  }
  param {
    lr_mult: 2
    decay_mult: 0
  }
  convolution_param {
    num_output: 160
    kernel_size: 1
    weight_filler {
      type: "xavier"
      std: 0.09
    }
    bias_filler {
      type: "constant"
      value: 0.2
    }
  }
}
layer {
  name: "inception_5a/relu_3x3_reduce"
  type: "ReLU"
  bottom: "inception_5a/3x3_reduce"
  top: "inception_5a/3x3_reduce"
}
layer {
  name: "inception_5a/3x3"
  type: "Convolution"
  bottom: "inception_5a/3x3_reduce"
  top: "inception_5a/3x3"
  param {
    lr_mult: 1
    decay_mult: 1
  }
  param {
    lr_mult: 2
    decay_mult: 0
  }
  convolution_param {
    num_output: 320
    pad: 1
    kernel_size: 3
    weight_filler {
      type: "xavier"
      std: 0.03
    }
    bias_filler {
      type: "constant"
      value: 0.2
    }
  }
}
layer {
  name: "inception_5a/relu_3x3"
  type: "ReLU"
  bottom: "inception_5a/3x3"
  top: "inception_5a/3x3"
}
layer {
  name: "inception_5a/5x5_reduce"
  type: "Convolution"
  bottom: "pool4/3x3_s2"
  top: "inception_5a/5
I1130 01:52:52.672968 24969 layer_factory.hpp:77] Creating layer data
I1130 01:52:52.708425 24969 db_lmdb.cpp:35] Opened lmdb /idiap/temp/lmedina/fine-tuning/data/Interesting/train_lmdb
I1130 01:52:52.742007 24969 net.cpp:84] Creating Layer data
I1130 01:52:52.742040 24969 net.cpp:380] data -> data
I1130 01:52:52.742081 24969 net.cpp:380] data -> label
I1130 01:52:52.742110 24969 data_transformer.cpp:25] Loading mean file from: /idiap/temp/lmedina/fine-tuning/googlenet_places365/places365CNN_mean.binaryproto
I1130 01:52:52.754443 24969 data_layer.cpp:45] output data size: 32,3,224,224
I1130 01:52:52.805553 24969 net.cpp:122] Setting up data
I1130 01:52:52.805603 24969 net.cpp:129] Top shape: 32 3 224 224 (4816896)
I1130 01:52:52.805613 24969 net.cpp:129] Top shape: 32 (32)
I1130 01:52:52.805619 24969 net.cpp:137] Memory required for data: 19267712
I1130 01:52:52.805634 24969 layer_factory.hpp:77] Creating layer conv1/7x7_s2
I1130 01:52:52.805665 24969 net.cpp:84] Creating Layer conv1/7x7_s2
I1130 01:52:52.805676 24969 net.cpp:406] conv1/7x7_s2 <- data
I1130 01:52:52.805698 24969 net.cpp:380] conv1/7x7_s2 -> conv1/7x7_s2
I1130 01:52:52.806710 24969 net.cpp:122] Setting up conv1/7x7_s2
I1130 01:52:52.806728 24969 net.cpp:129] Top shape: 32 64 112 112 (25690112)
I1130 01:52:52.806735 24969 net.cpp:137] Memory required for data: 122028160
I1130 01:52:52.806753 24969 layer_factory.hpp:77] Creating layer conv1/relu_7x7
I1130 01:52:52.806766 24969 net.cpp:84] Creating Layer conv1/relu_7x7
I1130 01:52:52.806774 24969 net.cpp:406] conv1/relu_7x7 <- conv1/7x7_s2
I1130 01:52:52.806783 24969 net.cpp:367] conv1/relu_7x7 -> conv1/7x7_s2 (in-place)
I1130 01:52:52.806797 24969 net.cpp:122] Setting up conv1/relu_7x7
I1130 01:52:52.806809 24969 net.cpp:129] Top shape: 32 64 112 112 (25690112)
I1130 01:52:52.806815 24969 net.cpp:137] Memory required for data: 224788608
I1130 01:52:52.806821 24969 layer_factory.hpp:77] Creating layer pool1/3x3_s2
I1130 01:52:52.806833 24969 net.cpp:84] Creating Layer pool1/3x3_s2
I1130 01:52:52.806839 24969 net.cpp:406] pool1/3x3_s2 <- conv1/7x7_s2
I1130 01:52:52.806848 24969 net.cpp:380] pool1/3x3_s2 -> pool1/3x3_s2
I1130 01:52:52.806915 24969 net.cpp:122] Setting up pool1/3x3_s2
I1130 01:52:52.806926 24969 net.cpp:129] Top shape: 32 64 56 56 (6422528)
I1130 01:52:52.806932 24969 net.cpp:137] Memory required for data: 250478720
I1130 01:52:52.806939 24969 layer_factory.hpp:77] Creating layer pool1/norm1
I1130 01:52:52.806951 24969 net.cpp:84] Creating Layer pool1/norm1
I1130 01:52:52.806959 24969 net.cpp:406] pool1/norm1 <- pool1/3x3_s2
I1130 01:52:52.806968 24969 net.cpp:380] pool1/norm1 -> pool1/norm1
I1130 01:52:52.807020 24969 net.cpp:122] Setting up pool1/norm1
I1130 01:52:52.807031 24969 net.cpp:129] Top shape: 32 64 56 56 (6422528)
I1130 01:52:52.807039 24969 net.cpp:137] Memory required for data: 276168832
I1130 01:52:52.807044 24969 layer_factory.hpp:77] Creating layer conv2/3x3_reduce
I1130 01:52:52.807057 24969 net.cpp:84] Creating Layer conv2/3x3_reduce
I1130 01:52:52.807065 24969 net.cpp:406] conv2/3x3_reduce <- pool1/norm1
I1130 01:52:52.807073 24969 net.cpp:380] conv2/3x3_reduce -> conv2/3x3_reduce
I1130 01:52:52.809706 24969 net.cpp:122] Setting up conv2/3x3_reduce
I1130 01:52:52.809731 24969 net.cpp:129] Top shape: 32 64 56 56 (6422528)
I1130 01:52:52.809738 24969 net.cpp:137] Memory required for data: 301858944
I1130 01:52:52.809756 24969 layer_factory.hpp:77] Creating layer conv2/relu_3x3_reduce
I1130 01:52:52.809767 24969 net.cpp:84] Creating Layer conv2/relu_3x3_reduce
I1130 01:52:52.809775 24969 net.cpp:406] conv2/relu_3x3_reduce <- conv2/3x3_reduce
I1130 01:52:52.809785 24969 net.cpp:367] conv2/relu_3x3_reduce -> conv2/3x3_reduce (in-place)
I1130 01:52:52.809798 24969 net.cpp:122] Setting up conv2/relu_3x3_reduce
I1130 01:52:52.809806 24969 net.cpp:129] Top shape: 32 64 56 56 (6422528)
I1130 01:52:52.809811 24969 net.cpp:137] Memory required for data: 327549056
I1130 01:52:52.809818 24969 layer_factory.hpp:77] Creating layer conv2/3x3
I1130 01:52:52.809831 24969 net.cpp:84] Creating Layer conv2/3x3
I1130 01:52:52.809839 24969 net.cpp:406] conv2/3x3 <- conv2/3x3_reduce
I1130 01:52:52.809849 24969 net.cpp:380] conv2/3x3 -> conv2/3x3
I1130 01:52:52.811659 24969 net.cpp:122] Setting up conv2/3x3
I1130 01:52:52.811677 24969 net.cpp:129] Top shape: 32 192 56 56 (19267584)
I1130 01:52:52.811684 24969 net.cpp:137] Memory required for data: 404619392
I1130 01:52:52.811698 24969 layer_factory.hpp:77] Creating layer conv2/relu_3x3
I1130 01:52:52.811709 24969 net.cpp:84] Creating Layer conv2/relu_3x3
I1130 01:52:52.811717 24969 net.cpp:406] conv2/relu_3x3 <- conv2/3x3
I1130 01:52:52.811727 24969 net.cpp:367] conv2/relu_3x3 -> conv2/3x3 (in-place)
I1130 01:52:52.811738 24969 net.cpp:122] Setting up conv2/relu_3x3
I1130 01:52:52.811746 24969 net.cpp:129] Top shape: 32 192 56 56 (19267584)
I1130 01:52:52.811753 24969 net.cpp:137] Memory required for data: 481689728
I1130 01:52:52.811758 24969 layer_factory.hpp:77] Creating layer conv2/norm2
I1130 01:52:52.811767 24969 net.cpp:84] Creating Layer conv2/norm2
I1130 01:52:52.811774 24969 net.cpp:406] conv2/norm2 <- conv2/3x3
I1130 01:52:52.811782 24969 net.cpp:380] conv2/norm2 -> conv2/norm2
I1130 01:52:52.811830 24969 net.cpp:122] Setting up conv2/norm2
I1130 01:52:52.811839 24969 net.cpp:129] Top shape: 32 192 56 56 (19267584)
I1130 01:52:52.811846 24969 net.cpp:137] Memory required for data: 558760064
I1130 01:52:52.811851 24969 layer_factory.hpp:77] Creating layer pool2/3x3_s2
I1130 01:52:52.811861 24969 net.cpp:84] Creating Layer pool2/3x3_s2
I1130 01:52:52.811867 24969 net.cpp:406] pool2/3x3_s2 <- conv2/norm2
I1130 01:52:52.811877 24969 net.cpp:380] pool2/3x3_s2 -> pool2/3x3_s2
I1130 01:52:52.811920 24969 net.cpp:122] Setting up pool2/3x3_s2
I1130 01:52:52.811936 24969 net.cpp:129] Top shape: 32 192 28 28 (4816896)
I1130 01:52:52.811942 24969 net.cpp:137] Memory required for data: 578027648
I1130 01:52:52.811949 24969 layer_factory.hpp:77] Creating layer pool2/3x3_s2_pool2/3x3_s2_0_split
I1130 01:52:52.811959 24969 net.cpp:84] Creating Layer pool2/3x3_s2_pool2/3x3_s2_0_split
I1130 01:52:52.811965 24969 net.cpp:406] pool2/3x3_s2_pool2/3x3_s2_0_split <- pool2/3x3_s2
I1130 01:52:52.811974 24969 net.cpp:380] pool2/3x3_s2_pool2/3x3_s2_0_split -> pool2/3x3_s2_pool2/3x3_s2_0_split_0
I1130 01:52:52.811983 24969 net.cpp:380] pool2/3x3_s2_pool2/3x3_s2_0_split -> pool2/3x3_s2_pool2/3x3_s2_0_split_1
I1130 01:52:52.811995 24969 net.cpp:380] pool2/3x3_s2_pool2/3x3_s2_0_split -> pool2/3x3_s2_pool2/3x3_s2_0_split_2
I1130 01:52:52.812005 24969 net.cpp:380] pool2/3x3_s2_pool2/3x3_s2_0_split -> pool2/3x3_s2_pool2/3x3_s2_0_split_3
I1130 01:52:52.812067 24969 net.cpp:122] Setting up pool2/3x3_s2_pool2/3x3_s2_0_split
I1130 01:52:52.812077 24969 net.cpp:129] Top shape: 32 192 28 28 (4816896)
I1130 01:52:52.812085 24969 net.cpp:129] Top shape: 32 192 28 28 (4816896)
I1130 01:52:52.812093 24969 net.cpp:129] Top shape: 32 192 28 28 (4816896)
I1130 01:52:52.812099 24969 net.cpp:129] Top shape: 32 192 28 28 (4816896)
I1130 01:52:52.812104 24969 net.cpp:137] Memory required for data: 655097984
I1130 01:52:52.812111 24969 layer_factory.hpp:77] Creating layer inception_3a/1x1
I1130 01:52:52.812124 24969 net.cpp:84] Creating Layer inception_3a/1x1
I1130 01:52:52.812130 24969 net.cpp:406] inception_3a/1x1 <- pool2/3x3_s2_pool2/3x3_s2_0_split_0
I1130 01:52:52.812139 24969 net.cpp:380] inception_3a/1x1 -> inception_3a/1x1
I1130 01:52:52.813283 24969 net.cpp:122] Setting up inception_3a/1x1
I1130 01:52:52.813300 24969 net.cpp:129] Top shape: 32 64 28 28 (1605632)
I1130 01:52:52.813307 24969 net.cpp:137] Memory required for data: 661520512
I1130 01:52:52.813318 24969 layer_factory.hpp:77] Creating layer inception_3a/relu_1x1
I1130 01:52:52.813328 24969 net.cpp:84] Creating Layer inception_3a/relu_1x1
I1130 01:52:52.813334 24969 net.cpp:406] inception_3a/relu_1x1 <- inception_3a/1x1
I1130 01:52:52.813344 24969 net.cpp:367] inception_3a/relu_1x1 -> inception_3a/1x1 (in-place)
I1130 01:52:52.813355 24969 net.cpp:122] Setting up inception_3a/relu_1x1
I1130 01:52:52.813364 24969 net.cpp:129] Top shape: 32 64 28 28 (1605632)
I1130 01:52:52.813369 24969 net.cpp:137] Memory required for data: 667943040
I1130 01:52:52.813376 24969 layer_factory.hpp:77] Creating layer inception_3a/3x3_reduce
I1130 01:52:52.813388 24969 net.cpp:84] Creating Layer inception_3a/3x3_reduce
I1130 01:52:52.813395 24969 net.cpp:406] inception_3a/3x3_reduce <- pool2/3x3_s2_pool2/3x3_s2_0_split_1
I1130 01:52:52.813405 24969 net.cpp:380] inception_3a/3x3_reduce -> inception_3a/3x3_reduce
I1130 01:52:52.814348 24969 net.cpp:122] Setting up inception_3a/3x3_reduce
I1130 01:52:52.814365 24969 net.cpp:129] Top shape: 32 96 28 28 (2408448)
I1130 01:52:52.814373 24969 net.cpp:137] Memory required for data: 677576832
I1130 01:52:52.814386 24969 layer_factory.hpp:77] Creating layer inception_3a/relu_3x3_reduce
I1130 01:52:52.814396 24969 net.cpp:84] Creating Layer inception_3a/relu_3x3_reduce
I1130 01:52:52.814404 24969 net.cpp:406] inception_3a/relu_3x3_reduce <- inception_3a/3x3_reduce
I1130 01:52:52.814414 24969 net.cpp:367] inception_3a/relu_3x3_reduce -> inception_3a/3x3_reduce (in-place)
I1130 01:52:52.814424 24969 net.cpp:122] Setting up inception_3a/relu_3x3_reduce
I1130 01:52:52.814433 24969 net.cpp:129] Top shape: 32 96 28 28 (2408448)
I1130 01:52:52.814440 24969 net.cpp:137] Memory required for data: 687210624
I1130 01:52:52.814445 24969 layer_factory.hpp:77] Creating layer inception_3a/3x3
I1130 01:52:52.814458 24969 net.cpp:84] Creating Layer inception_3a/3x3
I1130 01:52:52.814466 24969 net.cpp:406] inception_3a/3x3 <- inception_3a/3x3_reduce
I1130 01:52:52.814476 24969 net.cpp:380] inception_3a/3x3 -> inception_3a/3x3
I1130 01:52:52.815699 24969 net.cpp:122] Setting up inception_3a/3x3
I1130 01:52:52.815713 24969 net.cpp:129] Top shape: 32 128 28 28 (3211264)
I1130 01:52:52.815726 24969 net.cpp:137] Memory required for data: 700055680
I1130 01:52:52.815737 24969 layer_factory.hpp:77] Creating layer inception_3a/relu_3x3
I1130 01:52:52.815747 24969 net.cpp:84] Creating Layer inception_3a/relu_3x3
I1130 01:52:52.815754 24969 net.cpp:406] inception_3a/relu_3x3 <- inception_3a/3x3
I1130 01:52:52.815762 24969 net.cpp:367] inception_3a/relu_3x3 -> inception_3a/3x3 (in-place)
I1130 01:52:52.815773 24969 net.cpp:122] Setting up inception_3a/relu_3x3
I1130 01:52:52.815780 24969 net.cpp:129] Top shape: 32 128 28 28 (3211264)
I1130 01:52:52.815786 24969 net.cpp:137] Memory required for data: 712900736
I1130 01:52:52.815793 24969 layer_factory.hpp:77] Creating layer inception_3a/5x5_reduce
I1130 01:52:52.815804 24969 net.cpp:84] Creating Layer inception_3a/5x5_reduce
I1130 01:52:52.815810 24969 net.cpp:406] inception_3a/5x5_reduce <- pool2/3x3_s2_pool2/3x3_s2_0_split_2
I1130 01:52:52.815819 24969 net.cpp:380] inception_3a/5x5_reduce -> inception_3a/5x5_reduce
I1130 01:52:52.816112 24969 net.cpp:122] Setting up inception_3a/5x5_reduce
I1130 01:52:52.816125 24969 net.cpp:129] Top shape: 32 16 28 28 (401408)
I1130 01:52:52.816133 24969 net.cpp:137] Memory required for data: 714506368
I1130 01:52:52.816143 24969 layer_factory.hpp:77] Creating layer inception_3a/relu_5x5_reduce
I1130 01:52:52.816151 24969 net.cpp:84] Creating Layer inception_3a/relu_5x5_reduce
I1130 01:52:52.816159 24969 net.cpp:406] inception_3a/relu_5x5_reduce <- inception_3a/5x5_reduce
I1130 01:52:52.816166 24969 net.cpp:367] inception_3a/relu_5x5_reduce -> inception_3a/5x5_reduce (in-place)
I1130 01:52:52.816176 24969 net.cpp:122] Setting up inception_3a/relu_5x5_reduce
I1130 01:52:52.816184 24969 net.cpp:129] Top shape: 32 16 28 28 (401408)
I1130 01:52:52.816190 24969 net.cpp:137] Memory required for data: 716112000
I1130 01:52:52.816196 24969 layer_factory.hpp:77] Creating layer inception_3a/5x5
I1130 01:52:52.816208 24969 net.cpp:84] Creating Layer inception_3a/5x5
I1130 01:52:52.816215 24969 net.cpp:406] inception_3a/5x5 <- inception_3a/5x5_reduce
I1130 01:52:52.816226 24969 net.cpp:380] inception_3a/5x5 -> inception_3a/5x5
I1130 01:52:52.816589 24969 net.cpp:122] Setting up inception_3a/5x5
I1130 01:52:52.816603 24969 net.cpp:129] Top shape: 32 32 28 28 (802816)
I1130 01:52:52.816609 24969 net.cpp:137] Memory required for data: 719323264
I1130 01:52:52.816619 24969 layer_factory.hpp:77] Creating layer inception_3a/relu_5x5
I1130 01:52:52.816628 24969 net.cpp:84] Creating Layer inception_3a/relu_5x5
I1130 01:52:52.816635 24969 net.cpp:406] inception_3a/relu_5x5 <- inception_3a/5x5
I1130 01:52:52.816643 24969 net.cpp:367] inception_3a/relu_5x5 -> inception_3a/5x5 (in-place)
I1130 01:52:52.816653 24969 net.cpp:122] Setting up inception_3a/relu_5x5
I1130 01:52:52.816661 24969 net.cpp:129] Top shape: 32 32 28 28 (802816)
I1130 01:52:52.816668 24969 net.cpp:137] Memory required for data: 722534528
I1130 01:52:52.816673 24969 layer_factory.hpp:77] Creating layer inception_3a/pool
I1130 01:52:52.816681 24969 net.cpp:84] Creating Layer inception_3a/pool
I1130 01:52:52.816689 24969 net.cpp:406] inception_3a/pool <- pool2/3x3_s2_pool2/3x3_s2_0_split_3
I1130 01:52:52.816696 24969 net.cpp:380] inception_3a/pool -> inception_3a/pool
I1130 01:52:52.816741 24969 net.cpp:122] Setting up inception_3a/pool
I1130 01:52:52.816752 24969 net.cpp:129] Top shape: 32 192 28 28 (4816896)
I1130 01:52:52.816759 24969 net.cpp:137] Memory required for data: 741802112
I1130 01:52:52.816764 24969 layer_factory.hpp:77] Creating layer inception_3a/pool_proj
I1130 01:52:52.816776 24969 net.cpp:84] Creating Layer inception_3a/pool_proj
I1130 01:52:52.816784 24969 net.cpp:406] inception_3a/pool_proj <- inception_3a/pool
I1130 01:52:52.816793 24969 net.cpp:380] inception_3a/pool_proj -> inception_3a/pool_proj
I1130 01:52:52.817101 24969 net.cpp:122] Setting up inception_3a/pool_proj
I1130 01:52:52.817113 24969 net.cpp:129] Top shape: 32 32 28 28 (802816)
I1130 01:52:52.817119 24969 net.cpp:137] Memory required for data: 745013376
I1130 01:52:52.817137 24969 layer_factory.hpp:77] Creating layer inception_3a/relu_pool_proj
I1130 01:52:52.817147 24969 net.cpp:84] Creating Layer inception_3a/relu_pool_proj
I1130 01:52:52.817153 24969 net.cpp:406] inception_3a/relu_pool_proj <- inception_3a/pool_proj
I1130 01:52:52.817162 24969 net.cpp:367] inception_3a/relu_pool_proj -> inception_3a/pool_proj (in-place)
I1130 01:52:52.817172 24969 net.cpp:122] Setting up inception_3a/relu_pool_proj
I1130 01:52:52.817179 24969 net.cpp:129] Top shape: 32 32 28 28 (802816)
I1130 01:52:52.817185 24969 net.cpp:137] Memory required for data: 748224640
I1130 01:52:52.817190 24969 layer_factory.hpp:77] Creating layer inception_3a/output
I1130 01:52:52.817199 24969 net.cpp:84] Creating Layer inception_3a/output
I1130 01:52:52.817205 24969 net.cpp:406] inception_3a/output <- inception_3a/1x1
I1130 01:52:52.817212 24969 net.cpp:406] inception_3a/output <- inception_3a/3x3
I1130 01:52:52.817220 24969 net.cpp:406] inception_3a/output <- inception_3a/5x5
I1130 01:52:52.817226 24969 net.cpp:406] inception_3a/output <- inception_3a/pool_proj
I1130 01:52:52.817234 24969 net.cpp:380] inception_3a/output -> inception_3a/output
I1130 01:52:52.817267 24969 net.cpp:122] Setting up inception_3a/output
I1130 01:52:52.817277 24969 net.cpp:129] Top shape: 32 256 28 28 (6422528)
I1130 01:52:52.817284 24969 net.cpp:137] Memory required for data: 773914752
I1130 01:52:52.817291 24969 layer_factory.hpp:77] Creating layer inception_3a/output_inception_3a/output_0_split
I1130 01:52:52.817299 24969 net.cpp:84] Creating Layer inception_3a/output_inception_3a/output_0_split
I1130 01:52:52.817306 24969 net.cpp:406] inception_3a/output_inception_3a/output_0_split <- inception_3a/output
I1130 01:52:52.817314 24969 net.cpp:380] inception_3a/output_inception_3a/output_0_split -> inception_3a/output_inception_3a/output_0_split_0
I1130 01:52:52.817325 24969 net.cpp:380] inception_3a/output_inception_3a/output_0_split -> inception_3a/output_inception_3a/output_0_split_1
I1130 01:52:52.817337 24969 net.cpp:380] inception_3a/output_inception_3a/output_0_split -> inception_3a/output_inception_3a/output_0_split_2
I1130 01:52:52.817347 24969 net.cpp:380] inception_3a/output_inception_3a/output_0_split -> inception_3a/output_inception_3a/output_0_split_3
I1130 01:52:52.817411 24969 net.cpp:122] Setting up inception_3a/output_inception_3a/output_0_split
I1130 01:52:52.817421 24969 net.cpp:129] Top shape: 32 256 28 28 (6422528)
I1130 01:52:52.817430 24969 net.cpp:129] Top shape: 32 256 28 28 (6422528)
I1130 01:52:52.817437 24969 net.cpp:129] Top shape: 32 256 28 28 (6422528)
I1130 01:52:52.817443 24969 net.cpp:129] Top shape: 32 256 28 28 (6422528)
I1130 01:52:52.817450 24969 net.cpp:137] Memory required for data: 876675200
I1130 01:52:52.817456 24969 layer_factory.hpp:77] Creating layer inception_3b/1x1
I1130 01:52:52.817467 24969 net.cpp:84] Creating Layer inception_3b/1x1
I1130 01:52:52.817473 24969 net.cpp:406] inception_3b/1x1 <- inception_3a/output_inception_3a/output_0_split_0
I1130 01:52:52.817483 24969 net.cpp:380] inception_3b/1x1 -> inception_3b/1x1
I1130 01:52:52.818018 24969 net.cpp:122] Setting up inception_3b/1x1
I1130 01:52:52.818032 24969 net.cpp:129] Top shape: 32 128 28 28 (3211264)
I1130 01:52:52.818038 24969 net.cpp:137] Memory required for data: 889520256
I1130 01:52:52.818048 24969 layer_factory.hpp:77] Creating layer inception_3b/relu_1x1
I1130 01:52:52.818056 24969 net.cpp:84] Creating Layer inception_3b/relu_1x1
I1130 01:52:52.818063 24969 net.cpp:406] inception_3b/relu_1x1 <- inception_3b/1x1
I1130 01:52:52.818071 24969 net.cpp:367] inception_3b/relu_1x1 -> inception_3b/1x1 (in-place)
I1130 01:52:52.818081 24969 net.cpp:122] Setting up inception_3b/relu_1x1
I1130 01:52:52.818089 24969 net.cpp:129] Top shape: 32 128 28 28 (3211264)
I1130 01:52:52.818095 24969 net.cpp:137] Memory required for data: 902365312
I1130 01:52:52.818100 24969 layer_factory.hpp:77] Creating layer inception_3b/3x3_reduce
I1130 01:52:52.818112 24969 net.cpp:84] Creating Layer inception_3b/3x3_reduce
I1130 01:52:52.818122 24969 net.cpp:406] inception_3b/3x3_reduce <- inception_3a/output_inception_3a/output_0_split_1
I1130 01:52:52.818131 24969 net.cpp:380] inception_3b/3x3_reduce -> inception_3b/3x3_reduce
I1130 01:52:52.818673 24969 net.cpp:122] Setting up inception_3b/3x3_reduce
I1130 01:52:52.818687 24969 net.cpp:129] Top shape: 32 128 28 28 (3211264)
I1130 01:52:52.818693 24969 net.cpp:137] Memory required for data: 915210368
I1130 01:52:52.818703 24969 layer_factory.hpp:77] Creating layer inception_3b/relu_3x3_reduce
I1130 01:52:52.818712 24969 net.cpp:84] Creating Layer inception_3b/relu_3x3_reduce
I1130 01:52:52.818720 24969 net.cpp:406] inception_3b/relu_3x3_reduce <- inception_3b/3x3_reduce
I1130 01:52:52.818728 24969 net.cpp:367] inception_3b/relu_3x3_reduce -> inception_3b/3x3_reduce (in-place)
I1130 01:52:52.818738 24969 net.cpp:122] Setting up inception_3b/relu_3x3_reduce
I1130 01:52:52.818747 24969 net.cpp:129] Top shape: 32 128 28 28 (3211264)
I1130 01:52:52.818753 24969 net.cpp:137] Memory required for data: 928055424
I1130 01:52:52.818758 24969 layer_factory.hpp:77] Creating layer inception_3b/3x3
I1130 01:52:52.818769 24969 net.cpp:84] Creating Layer inception_3b/3x3
I1130 01:52:52.818776 24969 net.cpp:406] inception_3b/3x3 <- inception_3b/3x3_reduce
I1130 01:52:52.818785 24969 net.cpp:380] inception_3b/3x3 -> inception_3b/3x3
I1130 01:52:52.821472 24969 net.cpp:122] Setting up inception_3b/3x3
I1130 01:52:52.821488 24969 net.cpp:129] Top shape: 32 192 28 28 (4816896)
I1130 01:52:52.821494 24969 net.cpp:137] Memory required for data: 947323008
I1130 01:52:52.821506 24969 layer_factory.hpp:77] Creating layer inception_3b/relu_3x3
I1130 01:52:52.821518 24969 net.cpp:84] Creating Layer inception_3b/relu_3x3
I1130 01:52:52.821527 24969 net.cpp:406] inception_3b/relu_3x3 <- inception_3b/3x3
I1130 01:52:52.821535 24969 net.cpp:367] inception_3b/relu_3x3 -> inception_3b/3x3 (in-place)
I1130 01:52:52.821545 24969 net.cpp:122] Setting up inception_3b/relu_3x3
I1130 01:52:52.821554 24969 net.cpp:129] Top shape: 32 192 28 28 (4816896)
I1130 01:52:52.821560 24969 net.cpp:137] Memory required for data: 966590592
I1130 01:52:52.821566 24969 layer_factory.hpp:77] Creating layer inception_3b/5x5_reduce
I1130 01:52:52.821578 24969 net.cpp:84] Creating Layer inception_3b/5x5_reduce
I1130 01:52:52.821584 24969 net.cpp:406] inception_3b/5x5_reduce <- inception_3a/output_inception_3a/output_0_split_2
I1130 01:52:52.821593 24969 net.cpp:380] inception_3b/5x5_reduce -> inception_3b/5x5_reduce
I1130 01:52:52.821924 24969 net.cpp:122] Setting up inception_3b/5x5_reduce
I1130 01:52:52.821938 24969 net.cpp:129] Top shape: 32 32 28 28 (802816)
I1130 01:52:52.821943 24969 net.cpp:137] Memory required for data: 969801856
I1130 01:52:52.821954 24969 layer_factory.hpp:77] Creating layer inception_3b/relu_5x5_reduce
I1130 01:52:52.821962 24969 net.cpp:84] Creating Layer inception_3b/relu_5x5_reduce
I1130 01:52:52.821969 24969 net.cpp:406] inception_3b/relu_5x5_reduce <- inception_3b/5x5_reduce
I1130 01:52:52.821977 24969 net.cpp:367] inception_3b/relu_5x5_reduce -> inception_3b/5x5_reduce (in-place)
I1130 01:52:52.821987 24969 net.cpp:122] Setting up inception_3b/relu_5x5_reduce
I1130 01:52:52.821995 24969 net.cpp:129] Top shape: 32 32 28 28 (802816)
I1130 01:52:52.822001 24969 net.cpp:137] Memory required for data: 973013120
I1130 01:52:52.822007 24969 layer_factory.hpp:77] Creating layer inception_3b/5x5
I1130 01:52:52.822019 24969 net.cpp:84] Creating Layer inception_3b/5x5
I1130 01:52:52.822026 24969 net.cpp:406] inception_3b/5x5 <- inception_3b/5x5_reduce
I1130 01:52:52.822036 24969 net.cpp:380] inception_3b/5x5 -> inception_3b/5x5
I1130 01:52:52.823442 24969 net.cpp:122] Setting up inception_3b/5x5
I1130 01:52:52.823458 24969 net.cpp:129] Top shape: 32 96 28 28 (2408448)
I1130 01:52:52.823464 24969 net.cpp:137] Memory required for data: 982646912
I1130 01:52:52.823474 24969 layer_factory.hpp:77] Creating layer inception_3b/relu_5x5
I1130 01:52:52.823483 24969 net.cpp:84] Creating Layer inception_3b/relu_5x5
I1130 01:52:52.823490 24969 net.cpp:406] inception_3b/relu_5x5 <- inception_3b/5x5
I1130 01:52:52.823503 24969 net.cpp:367] inception_3b/relu_5x5 -> inception_3b/5x5 (in-place)
I1130 01:52:52.823513 24969 net.cpp:122] Setting up inception_3b/relu_5x5
I1130 01:52:52.823521 24969 net.cpp:129] Top shape: 32 96 28 28 (2408448)
I1130 01:52:52.823527 24969 net.cpp:137] Memory required for data: 992280704
I1130 01:52:52.823534 24969 layer_factory.hpp:77] Creating layer inception_3b/pool
I1130 01:52:52.823542 24969 net.cpp:84] Creating Layer inception_3b/pool
I1130 01:52:52.823549 24969 net.cpp:406] inception_3b/pool <- inception_3a/output_inception_3a/output_0_split_3
I1130 01:52:52.823556 24969 net.cpp:380] inception_3b/pool -> inception_3b/pool
I1130 01:52:52.823601 24969 net.cpp:122] Setting up inception_3b/pool
I1130 01:52:52.823611 24969 net.cpp:129] Top shape: 32 256 28 28 (6422528)
I1130 01:52:52.823617 24969 net.cpp:137] Memory required for data: 1017970816
I1130 01:52:52.823622 24969 layer_factory.hpp:77] Creating layer inception_3b/pool_proj
I1130 01:52:52.823634 24969 net.cpp:84] Creating Layer inception_3b/pool_proj
I1130 01:52:52.823642 24969 net.cpp:406] inception_3b/pool_proj <- inception_3b/pool
I1130 01:52:52.823650 24969 net.cpp:380] inception_3b/pool_proj -> inception_3b/pool_proj
I1130 01:52:52.824028 24969 net.cpp:122] Setting up inception_3b/pool_proj
I1130 01:52:52.824040 24969 net.cpp:129] Top shape: 32 64 28 28 (1605632)
I1130 01:52:52.824045 24969 net.cpp:137] Memory required for data: 1024393344
I1130 01:52:52.824055 24969 layer_factory.hpp:77] Creating layer inception_3b/relu_pool_proj
I1130 01:52:52.824064 24969 net.cpp:84] Creating Layer inception_3b/relu_pool_proj
I1130 01:52:52.824071 24969 net.cpp:406] inception_3b/relu_pool_proj <- inception_3b/pool_proj
I1130 01:52:52.824079 24969 net.cpp:367] inception_3b/relu_pool_proj -> inception_3b/pool_proj (in-place)
I1130 01:52:52.824089 24969 net.cpp:122] Setting up inception_3b/relu_pool_proj
I1130 01:52:52.824096 24969 net.cpp:129] Top shape: 32 64 28 28 (1605632)
I1130 01:52:52.824102 24969 net.cpp:137] Memory required for data: 1030815872
I1130 01:52:52.824107 24969 layer_factory.hpp:77] Creating layer inception_3b/output
I1130 01:52:52.824115 24969 net.cpp:84] Creating Layer inception_3b/output
I1130 01:52:52.824122 24969 net.cpp:406] inception_3b/output <- inception_3b/1x1
I1130 01:52:52.824128 24969 net.cpp:406] inception_3b/output <- inception_3b/3x3
I1130 01:52:52.824136 24969 net.cpp:406] inception_3b/output <- inception_3b/5x5
I1130 01:52:52.824142 24969 net.cpp:406] inception_3b/output <- inception_3b/pool_proj
I1130 01:52:52.824149 24969 net.cpp:380] inception_3b/output -> inception_3b/output
I1130 01:52:52.824182 24969 net.cpp:122] Setting up inception_3b/output
I1130 01:52:52.824193 24969 net.cpp:129] Top shape: 32 480 28 28 (12042240)
I1130 01:52:52.824198 24969 net.cpp:137] Memory required for data: 1078984832
I1130 01:52:52.824203 24969 layer_factory.hpp:77] Creating layer pool3/3x3_s2
I1130 01:52:52.824213 24969 net.cpp:84] Creating Layer pool3/3x3_s2
I1130 01:52:52.824219 24969 net.cpp:406] pool3/3x3_s2 <- inception_3b/output
I1130 01:52:52.824228 24969 net.cpp:380] pool3/3x3_s2 -> pool3/3x3_s2
I1130 01:52:52.824268 24969 net.cpp:122] Setting up pool3/3x3_s2
I1130 01:52:52.824278 24969 net.cpp:129] Top shape: 32 480 14 14 (3010560)
I1130 01:52:52.824285 24969 net.cpp:137] Memory required for data: 1091027072
I1130 01:52:52.824290 24969 layer_factory.hpp:77] Creating layer pool3/3x3_s2_pool3/3x3_s2_0_split
I1130 01:52:52.824300 24969 net.cpp:84] Creating Layer pool3/3x3_s2_pool3/3x3_s2_0_split
I1130 01:52:52.824306 24969 net.cpp:406] pool3/3x3_s2_pool3/3x3_s2_0_split <- pool3/3x3_s2
I1130 01:52:52.824313 24969 net.cpp:380] pool3/3x3_s2_pool3/3x3_s2_0_split -> pool3/3x3_s2_pool3/3x3_s2_0_split_0
I1130 01:52:52.824323 24969 net.cpp:380] pool3/3x3_s2_pool3/3x3_s2_0_split -> pool3/3x3_s2_pool3/3x3_s2_0_split_1
I1130 01:52:52.824333 24969 net.cpp:380] pool3/3x3_s2_pool3/3x3_s2_0_split -> pool3/3x3_s2_pool3/3x3_s2_0_split_2
I1130 01:52:52.824343 24969 net.cpp:380] pool3/3x3_s2_pool3/3x3_s2_0_split -> pool3/3x3_s2_pool3/3x3_s2_0_split_3
I1130 01:52:52.824406 24969 net.cpp:122] Setting up pool3/3x3_s2_pool3/3x3_s2_0_split
I1130 01:52:52.824415 24969 net.cpp:129] Top shape: 32 480 14 14 (3010560)
I1130 01:52:52.824424 24969 net.cpp:129] Top shape: 32 480 14 14 (3010560)
I1130 01:52:52.824430 24969 net.cpp:129] Top shape: 32 480 14 14 (3010560)
I1130 01:52:52.824437 24969 net.cpp:129] Top shape: 32 480 14 14 (3010560)
I1130 01:52:52.824442 24969 net.cpp:137] Memory required for data: 1139196032
I1130 01:52:52.824448 24969 layer_factory.hpp:77] Creating layer inception_4a/1x1
I1130 01:52:52.824460 24969 net.cpp:84] Creating Layer inception_4a/1x1
I1130 01:52:52.824467 24969 net.cpp:406] inception_4a/1x1 <- pool3/3x3_s2_pool3/3x3_s2_0_split_0
I1130 01:52:52.824476 24969 net.cpp:380] inception_4a/1x1 -> inception_4a/1x1
I1130 01:52:52.825471 24969 net.cpp:122] Setting up inception_4a/1x1
I1130 01:52:52.825485 24969 net.cpp:129] Top shape: 32 192 14 14 (1204224)
I1130 01:52:52.825491 24969 net.cpp:137] Memory required for data: 1144012928
I1130 01:52:52.825500 24969 layer_factory.hpp:77] Creating layer inception_4a/relu_1x1
I1130 01:52:52.825510 24969 net.cpp:84] Creating Layer inception_4a/relu_1x1
I1130 01:52:52.825517 24969 net.cpp:406] inception_4a/relu_1x1 <- inception_4a/1x1
I1130 01:52:52.825525 24969 net.cpp:367] inception_4a/relu_1x1 -> inception_4a/1x1 (in-place)
I1130 01:52:52.825534 24969 net.cpp:122] Setting up inception_4a/relu_1x1
I1130 01:52:52.825542 24969 net.cpp:129] Top shape: 32 192 14 14 (1204224)
I1130 01:52:52.825548 24969 net.cpp:137] Memory required for data: 1148829824
I1130 01:52:52.825553 24969 layer_factory.hpp:77] Creating layer inception_4a/3x3_reduce
I1130 01:52:52.825564 24969 net.cpp:84] Creating Layer inception_4a/3x3_reduce
I1130 01:52:52.825572 24969 net.cpp:406] inception_4a/3x3_reduce <- pool3/3x3_s2_pool3/3x3_s2_0_split_1
I1130 01:52:52.825579 24969 net.cpp:380] inception_4a/3x3_reduce -> inception_4a/3x3_reduce
I1130 01:52:52.826220 24969 net.cpp:122] Setting up inception_4a/3x3_reduce
I1130 01:52:52.826233 24969 net.cpp:129] Top shape: 32 96 14 14 (602112)
I1130 01:52:52.826241 24969 net.cpp:137] Memory required for data: 1151238272
I1130 01:52:52.826256 24969 layer_factory.hpp:77] Creating layer inception_4a/relu_3x3_reduce
I1130 01:52:52.826264 24969 net.cpp:84] Creating Layer inception_4a/relu_3x3_reduce
I1130 01:52:52.826272 24969 net.cpp:406] inception_4a/relu_3x3_reduce <- inception_4a/3x3_reduce
I1130 01:52:52.826280 24969 net.cpp:367] inception_4a/relu_3x3_reduce -> inception_4a/3x3_reduce (in-place)
I1130 01:52:52.826290 24969 net.cpp:122] Setting up inception_4a/relu_3x3_reduce
I1130 01:52:52.826297 24969 net.cpp:129] Top shape: 32 96 14 14 (602112)
I1130 01:52:52.826303 24969 net.cpp:137] Memory required for data: 1153646720
I1130 01:52:52.826308 24969 layer_factory.hpp:77] Creating layer inception_4a/3x3
I1130 01:52:52.826320 24969 net.cpp:84] Creating Layer inception_4a/3x3
I1130 01:52:52.826326 24969 net.cpp:406] inception_4a/3x3 <- inception_4a/3x3_reduce
I1130 01:52:52.826335 24969 net.cpp:380] inception_4a/3x3 -> inception_4a/3x3
I1130 01:52:52.828560 24969 net.cpp:122] Setting up inception_4a/3x3
I1130 01:52:52.828577 24969 net.cpp:129] Top shape: 32 208 14 14 (1304576)
I1130 01:52:52.828583 24969 net.cpp:137] Memory required for data: 1158865024
I1130 01:52:52.828593 24969 layer_factory.hpp:77] Creating layer inception_4a/relu_3x3
I1130 01:52:52.828603 24969 net.cpp:84] Creating Layer inception_4a/relu_3x3
I1130 01:52:52.828609 24969 net.cpp:406] inception_4a/relu_3x3 <- inception_4a/3x3
I1130 01:52:52.828619 24969 net.cpp:367] inception_4a/relu_3x3 -> inception_4a/3x3 (in-place)
I1130 01:52:52.828629 24969 net.cpp:122] Setting up inception_4a/relu_3x3
I1130 01:52:52.828636 24969 net.cpp:129] Top shape: 32 208 14 14 (1304576)
I1130 01:52:52.828641 24969 net.cpp:137] Memory required for data: 1164083328
I1130 01:52:52.828646 24969 layer_factory.hpp:77] Creating layer inception_4a/5x5_reduce
I1130 01:52:52.828657 24969 net.cpp:84] Creating Layer inception_4a/5x5_reduce
I1130 01:52:52.828668 24969 net.cpp:406] inception_4a/5x5_reduce <- pool3/3x3_s2_pool3/3x3_s2_0_split_2
I1130 01:52:52.828677 24969 net.cpp:380] inception_4a/5x5_reduce -> inception_4a/5x5_reduce
I1130 01:52:52.828999 24969 net.cpp:122] Setting up inception_4a/5x5_reduce
I1130 01:52:52.829011 24969 net.cpp:129] Top shape: 32 16 14 14 (100352)
I1130 01:52:52.829017 24969 net.cpp:137] Memory required for data: 1164484736
I1130 01:52:52.829026 24969 layer_factory.hpp:77] Creating layer inception_4a/relu_5x5_reduce
I1130 01:52:52.829035 24969 net.cpp:84] Creating Layer inception_4a/relu_5x5_reduce
I1130 01:52:52.829042 24969 net.cpp:406] inception_4a/relu_5x5_reduce <- inception_4a/5x5_reduce
I1130 01:52:52.829051 24969 net.cpp:367] inception_4a/relu_5x5_reduce -> inception_4a/5x5_reduce (in-place)
I1130 01:52:52.829059 24969 net.cpp:122] Setting up inception_4a/relu_5x5_reduce
I1130 01:52:52.829067 24969 net.cpp:129] Top shape: 32 16 14 14 (100352)
I1130 01:52:52.829072 24969 net.cpp:137] Memory required for data: 1164886144
I1130 01:52:52.829079 24969 layer_factory.hpp:77] Creating layer inception_4a/5x5
I1130 01:52:52.829088 24969 net.cpp:84] Creating Layer inception_4a/5x5
I1130 01:52:52.829095 24969 net.cpp:406] inception_4a/5x5 <- inception_4a/5x5_reduce
I1130 01:52:52.829103 24969 net.cpp:380] inception_4a/5x5 -> inception_4a/5x5
I1130 01:52:52.829515 24969 net.cpp:122] Setting up inception_4a/5x5
I1130 01:52:52.829529 24969 net.cpp:129] Top shape: 32 48 14 14 (301056)
I1130 01:52:52.829533 24969 net.cpp:137] Memory required for data: 1166090368
I1130 01:52:52.829542 24969 layer_factory.hpp:77] Creating layer inception_4a/relu_5x5
I1130 01:52:52.829551 24969 net.cpp:84] Creating Layer inception_4a/relu_5x5
I1130 01:52:52.829558 24969 net.cpp:406] inception_4a/relu_5x5 <- inception_4a/5x5
I1130 01:52:52.829566 24969 net.cpp:367] inception_4a/relu_5x5 -> inception_4a/5x5 (in-place)
I1130 01:52:52.829576 24969 net.cpp:122] Setting up inception_4a/relu_5x5
I1130 01:52:52.829582 24969 net.cpp:129] Top shape: 32 48 14 14 (301056)
I1130 01:52:52.829588 24969 net.cpp:137] Memory required for data: 1167294592
I1130 01:52:52.829594 24969 layer_factory.hpp:77] Creating layer inception_4a/pool
I1130 01:52:52.829602 24969 net.cpp:84] Creating Layer inception_4a/pool
I1130 01:52:52.829608 24969 net.cpp:406] inception_4a/pool <- pool3/3x3_s2_pool3/3x3_s2_0_split_3
I1130 01:52:52.829615 24969 net.cpp:380] inception_4a/pool -> inception_4a/pool
I1130 01:52:52.829661 24969 net.cpp:122] Setting up inception_4a/pool
I1130 01:52:52.829671 24969 net.cpp:129] Top shape: 32 480 14 14 (3010560)
I1130 01:52:52.829679 24969 net.cpp:137] Memory required for data: 1179336832
I1130 01:52:52.829684 24969 layer_factory.hpp:77] Creating layer inception_4a/pool_proj
I1130 01:52:52.829694 24969 net.cpp:84] Creating Layer inception_4a/pool_proj
I1130 01:52:52.829701 24969 net.cpp:406] inception_4a/pool_proj <- inception_4a/pool
I1130 01:52:52.829710 24969 net.cpp:380] inception_4a/pool_proj -> inception_4a/pool_proj
I1130 01:52:52.830214 24969 net.cpp:122] Setting up inception_4a/pool_proj
I1130 01:52:52.830226 24969 net.cpp:129] Top shape: 32 64 14 14 (401408)
I1130 01:52:52.830232 24969 net.cpp:137] Memory required for data: 1180942464
I1130 01:52:52.830241 24969 layer_factory.hpp:77] Creating layer inception_4a/relu_pool_proj
I1130 01:52:52.830250 24969 net.cpp:84] Creating Layer inception_4a/relu_pool_proj
I1130 01:52:52.830257 24969 net.cpp:406] inception_4a/relu_pool_proj <- inception_4a/pool_proj
I1130 01:52:52.830265 24969 net.cpp:367] inception_4a/relu_pool_proj -> inception_4a/pool_proj (in-place)
I1130 01:52:52.830274 24969 net.cpp:122] Setting up inception_4a/relu_pool_proj
I1130 01:52:52.830282 24969 net.cpp:129] Top shape: 32 64 14 14 (401408)
I1130 01:52:52.830288 24969 net.cpp:137] Memory required for data: 1182548096
I1130 01:52:52.830293 24969 layer_factory.hpp:77] Creating layer inception_4a/output
I1130 01:52:52.830302 24969 net.cpp:84] Creating Layer inception_4a/output
I1130 01:52:52.830307 24969 net.cpp:406] inception_4a/output <- inception_4a/1x1
I1130 01:52:52.830356 24969 net.cpp:406] inception_4a/output <- inception_4a/3x3
I1130 01:52:52.830364 24969 net.cpp:406] inception_4a/output <- inception_4a/5x5
I1130 01:52:52.830373 24969 net.cpp:406] inception_4a/output <- inception_4a/pool_proj
I1130 01:52:52.830380 24969 net.cpp:380] inception_4a/output -> inception_4a/output
I1130 01:52:52.830413 24969 net.cpp:122] Setting up inception_4a/output
I1130 01:52:52.830423 24969 net.cpp:129] Top shape: 32 512 14 14 (3211264)
I1130 01:52:52.830428 24969 net.cpp:137] Memory required for data: 1195393152
I1130 01:52:52.830435 24969 layer_factory.hpp:77] Creating layer inception_4a/output_inception_4a/output_0_split
I1130 01:52:52.830443 24969 net.cpp:84] Creating Layer inception_4a/output_inception_4a/output_0_split
I1130 01:52:52.830451 24969 net.cpp:406] inception_4a/output_inception_4a/output_0_split <- inception_4a/output
I1130 01:52:52.830458 24969 net.cpp:380] inception_4a/output_inception_4a/output_0_split -> inception_4a/output_inception_4a/output_0_split_0
I1130 01:52:52.830468 24969 net.cpp:380] inception_4a/output_inception_4a/output_0_split -> inception_4a/output_inception_4a/output_0_split_1
I1130 01:52:52.830479 24969 net.cpp:380] inception_4a/output_inception_4a/output_0_split -> inception_4a/output_inception_4a/output_0_split_2
I1130 01:52:52.830499 24969 net.cpp:380] inception_4a/output_inception_4a/output_0_split -> inception_4a/output_inception_4a/output_0_split_3
I1130 01:52:52.830564 24969 net.cpp:122] Setting up inception_4a/output_inception_4a/output_0_split
I1130 01:52:52.830574 24969 net.cpp:129] Top shape: 32 512 14 14 (3211264)
I1130 01:52:52.830581 24969 net.cpp:129] Top shape: 32 512 14 14 (3211264)
I1130 01:52:52.830588 24969 net.cpp:129] Top shape: 32 512 14 14 (3211264)
I1130 01:52:52.830595 24969 net.cpp:129] Top shape: 32 512 14 14 (3211264)
I1130 01:52:52.830600 24969 net.cpp:137] Memory required for data: 1246773376
I1130 01:52:52.830606 24969 layer_factory.hpp:77] Creating layer inception_4b/1x1
I1130 01:52:52.830617 24969 net.cpp:84] Creating Layer inception_4b/1x1
I1130 01:52:52.830623 24969 net.cpp:406] inception_4b/1x1 <- inception_4a/output_inception_4a/output_0_split_0
I1130 01:52:52.830632 24969 net.cpp:380] inception_4b/1x1 -> inception_4b/1x1
I1130 01:52:52.831550 24969 net.cpp:122] Setting up inception_4b/1x1
I1130 01:52:52.831563 24969 net.cpp:129] Top shape: 32 160 14 14 (1003520)
I1130 01:52:52.831570 24969 net.cpp:137] Memory required for data: 1250787456
I1130 01:52:52.831579 24969 layer_factory.hpp:77] Creating layer inception_4b/relu_1x1
I1130 01:52:52.831588 24969 net.cpp:84] Creating Layer inception_4b/relu_1x1
I1130 01:52:52.831594 24969 net.cpp:406] inception_4b/relu_1x1 <- inception_4b/1x1
I1130 01:52:52.831603 24969 net.cpp:367] inception_4b/relu_1x1 -> inception_4b/1x1 (in-place)
I1130 01:52:52.831612 24969 net.cpp:122] Setting up inception_4b/relu_1x1
I1130 01:52:52.831620 24969 net.cpp:129] Top shape: 32 160 14 14 (1003520)
I1130 01:52:52.831625 24969 net.cpp:137] Memory required for data: 1254801536
I1130 01:52:52.831630 24969 layer_factory.hpp:77] Creating layer inception_4b/3x3_reduce
I1130 01:52:52.831640 24969 net.cpp:84] Creating Layer inception_4b/3x3_reduce
I1130 01:52:52.831647 24969 net.cpp:406] inception_4b/3x3_reduce <- inception_4a/output_inception_4a/output_0_split_1
I1130 01:52:52.831656 24969 net.cpp:380] inception_4b/3x3_reduce -> inception_4b/3x3_reduce
I1130 01:52:52.832391 24969 net.cpp:122] Setting up inception_4b/3x3_reduce
I1130 01:52:52.832403 24969 net.cpp:129] Top shape: 32 112 14 14 (702464)
I1130 01:52:52.832409 24969 net.cpp:137] Memory required for data: 1257611392
I1130 01:52:52.832419 24969 layer_factory.hpp:77] Creating layer inception_4b/relu_3x3_reduce
I1130 01:52:52.832428 24969 net.cpp:84] Creating Layer inception_4b/relu_3x3_reduce
I1130 01:52:52.832435 24969 net.cpp:406] inception_4b/relu_3x3_reduce <- inception_4b/3x3_reduce
I1130 01:52:52.832443 24969 net.cpp:367] inception_4b/relu_3x3_reduce -> inception_4b/3x3_reduce (in-place)
I1130 01:52:52.832453 24969 net.cpp:122] Setting up inception_4b/relu_3x3_reduce
I1130 01:52:52.832459 24969 net.cpp:129] Top shape: 32 112 14 14 (702464)
I1130 01:52:52.832464 24969 net.cpp:137] Memory required for data: 1260421248
I1130 01:52:52.832469 24969 layer_factory.hpp:77] Creating layer inception_4b/3x3
I1130 01:52:52.832480 24969 net.cpp:84] Creating Layer inception_4b/3x3
I1130 01:52:52.832487 24969 net.cpp:406] inception_4b/3x3 <- inception_4b/3x3_reduce
I1130 01:52:52.832495 24969 net.cpp:380] inception_4b/3x3 -> inception_4b/3x3
I1130 01:52:52.835067 24969 net.cpp:122] Setting up inception_4b/3x3
I1130 01:52:52.835080 24969 net.cpp:129] Top shape: 32 224 14 14 (1404928)
I1130 01:52:52.835086 24969 net.cpp:137] Memory required for data: 1266040960
I1130 01:52:52.835095 24969 layer_factory.hpp:77] Creating layer inception_4b/relu_3x3
I1130 01:52:52.835103 24969 net.cpp:84] Creating Layer inception_4b/relu_3x3
I1130 01:52:52.835110 24969 net.cpp:406] inception_4b/relu_3x3 <- inception_4b/3x3
I1130 01:52:52.835117 24969 net.cpp:367] inception_4b/relu_3x3 -> inception_4b/3x3 (in-place)
I1130 01:52:52.835126 24969 net.cpp:122] Setting up inception_4b/relu_3x3
I1130 01:52:52.835134 24969 net.cpp:129] Top shape: 32 224 14 14 (1404928)
I1130 01:52:52.835139 24969 net.cpp:137] Memory required for data: 1271660672
I1130 01:52:52.835144 24969 layer_factory.hpp:77] Creating layer inception_4b/5x5_reduce
I1130 01:52:52.835160 24969 net.cpp:84] Creating Layer inception_4b/5x5_reduce
I1130 01:52:52.835165 24969 net.cpp:406] inception_4b/5x5_reduce <- inception_4a/output_inception_4a/output_0_split_2
I1130 01:52:52.835175 24969 net.cpp:380] inception_4b/5x5_reduce -> inception_4b/5x5_reduce
I1130 01:52:52.835492 24969 net.cpp:122] Setting up inception_4b/5x5_reduce
I1130 01:52:52.835505 24969 net.cpp:129] Top shape: 32 24 14 14 (150528)
I1130 01:52:52.835510 24969 net.cpp:137] Memory required for data: 1272262784
I1130 01:52:52.835530 24969 layer_factory.hpp:77] Creating layer inception_4b/relu_5x5_reduce
I1130 01:52:52.835539 24969 net.cpp:84] Creating Layer inception_4b/relu_5x5_reduce
I1130 01:52:52.835546 24969 net.cpp:406] inception_4b/relu_5x5_reduce <- inception_4b/5x5_reduce
I1130 01:52:52.835553 24969 net.cpp:367] inception_4b/relu_5x5_reduce -> inception_4b/5x5_reduce (in-place)
I1130 01:52:52.835562 24969 net.cpp:122] Setting up inception_4b/relu_5x5_reduce
I1130 01:52:52.835569 24969 net.cpp:129] Top shape: 32 24 14 14 (150528)
I1130 01:52:52.835575 24969 net.cpp:137] Memory required for data: 1272864896
I1130 01:52:52.835580 24969 layer_factory.hpp:77] Creating layer inception_4b/5x5
I1130 01:52:52.835590 24969 net.cpp:84] Creating Layer inception_4b/5x5
I1130 01:52:52.835597 24969 net.cpp:406] inception_4b/5x5 <- inception_4b/5x5_reduce
I1130 01:52:52.835605 24969 net.cpp:380] inception_4b/5x5 -> inception_4b/5x5
I1130 01:52:52.836621 24969 net.cpp:122] Setting up inception_4b/5x5
I1130 01:52:52.836634 24969 net.cpp:129] Top shape: 32 64 14 14 (401408)
I1130 01:52:52.836640 24969 net.cpp:137] Memory required for data: 1274470528
I1130 01:52:52.836649 24969 layer_factory.hpp:77] Creating layer inception_4b/relu_5x5
I1130 01:52:52.836658 24969 net.cpp:84] Creating Layer inception_4b/relu_5x5
I1130 01:52:52.836666 24969 net.cpp:406] inception_4b/relu_5x5 <- inception_4b/5x5
I1130 01:52:52.836674 24969 net.cpp:367] inception_4b/relu_5x5 -> inception_4b/5x5 (in-place)
I1130 01:52:52.836684 24969 net.cpp:122] Setting up inception_4b/relu_5x5
I1130 01:52:52.836693 24969 net.cpp:129] Top shape: 32 64 14 14 (401408)
I1130 01:52:52.836699 24969 net.cpp:137] Memory required for data: 1276076160
I1130 01:52:52.836704 24969 layer_factory.hpp:77] Creating layer inception_4b/pool
I1130 01:52:52.836712 24969 net.cpp:84] Creating Layer inception_4b/pool
I1130 01:52:52.836719 24969 net.cpp:406] inception_4b/pool <- inception_4a/output_inception_4a/output_0_split_3
I1130 01:52:52.836727 24969 net.cpp:380] inception_4b/pool -> inception_4b/pool
I1130 01:52:52.836772 24969 net.cpp:122] Setting up inception_4b/pool
I1130 01:52:52.836782 24969 net.cpp:129] Top shape: 32 512 14 14 (3211264)
I1130 01:52:52.836787 24969 net.cpp:137] Memory required for data: 1288921216
I1130 01:52:52.836793 24969 layer_factory.hpp:77] Creating layer inception_4b/pool_proj
I1130 01:52:52.836804 24969 net.cpp:84] Creating Layer inception_4b/pool_proj
I1130 01:52:52.836810 24969 net.cpp:406] inception_4b/pool_proj <- inception_4b/pool
I1130 01:52:52.836819 24969 net.cpp:380] inception_4b/pool_proj -> inception_4b/pool_proj
I1130 01:52:52.837316 24969 net.cpp:122] Setting up inception_4b/pool_proj
I1130 01:52:52.837328 24969 net.cpp:129] Top shape: 32 64 14 14 (401408)
I1130 01:52:52.837333 24969 net.cpp:137] Memory required for data: 1290526848
I1130 01:52:52.837342 24969 layer_factory.hpp:77] Creating layer inception_4b/relu_pool_proj
I1130 01:52:52.837352 24969 net.cpp:84] Creating Layer inception_4b/relu_pool_proj
I1130 01:52:52.837358 24969 net.cpp:406] inception_4b/relu_pool_proj <- inception_4b/pool_proj
I1130 01:52:52.837366 24969 net.cpp:367] inception_4b/relu_pool_proj -> inception_4b/pool_proj (in-place)
I1130 01:52:52.837375 24969 net.cpp:122] Setting up inception_4b/relu_pool_proj
I1130 01:52:52.837383 24969 net.cpp:129] Top shape: 32 64 14 14 (401408)
I1130 01:52:52.837389 24969 net.cpp:137] Memory required for data: 1292132480
I1130 01:52:52.837394 24969 layer_factory.hpp:77] Creating layer inception_4b/output
I1130 01:52:52.837402 24969 net.cpp:84] Creating Layer inception_4b/output
I1130 01:52:52.837409 24969 net.cpp:406] inception_4b/output <- inception_4b/1x1
I1130 01:52:52.837414 24969 net.cpp:406] inception_4b/output <- inception_4b/3x3
I1130 01:52:52.837422 24969 net.cpp:406] inception_4b/output <- inception_4b/5x5
I1130 01:52:52.837427 24969 net.cpp:406] inception_4b/output <- inception_4b/pool_proj
I1130 01:52:52.837435 24969 net.cpp:380] inception_4b/output -> inception_4b/output
I1130 01:52:52.837466 24969 net.cpp:122] Setting up inception_4b/output
I1130 01:52:52.837476 24969 net.cpp:129] Top shape: 32 512 14 14 (3211264)
I1130 01:52:52.837481 24969 net.cpp:137] Memory required for data: 1304977536
I1130 01:52:52.837487 24969 layer_factory.hpp:77] Creating layer inception_4b/output_inception_4b/output_0_split
I1130 01:52:52.837496 24969 net.cpp:84] Creating Layer inception_4b/output_inception_4b/output_0_split
I1130 01:52:52.837502 24969 net.cpp:406] inception_4b/output_inception_4b/output_0_split <- inception_4b/output
I1130 01:52:52.837512 24969 net.cpp:380] inception_4b/output_inception_4b/output_0_split -> inception_4b/output_inception_4b/output_0_split_0
I1130 01:52:52.837532 24969 net.cpp:380] inception_4b/output_inception_4b/output_0_split -> inception_4b/output_inception_4b/output_0_split_1
I1130 01:52:52.837541 24969 net.cpp:380] inception_4b/output_inception_4b/output_0_split -> inception_4b/output_inception_4b/output_0_split_2
I1130 01:52:52.837550 24969 net.cpp:380] inception_4b/output_inception_4b/output_0_split -> inception_4b/output_inception_4b/output_0_split_3
I1130 01:52:52.837607 24969 net.cpp:122] Setting up inception_4b/output_inception_4b/output_0_split
I1130 01:52:52.837615 24969 net.cpp:129] Top shape: 32 512 14 14 (3211264)
I1130 01:52:52.837622 24969 net.cpp:129] Top shape: 32 512 14 14 (3211264)
I1130 01:52:52.837630 24969 net.cpp:129] Top shape: 32 512 14 14 (3211264)
I1130 01:52:52.837636 24969 net.cpp:129] Top shape: 32 512 14 14 (3211264)
I1130 01:52:52.837641 24969 net.cpp:137] Memory required for data: 1356357760
I1130 01:52:52.837646 24969 layer_factory.hpp:77] Creating layer inception_4c/1x1
I1130 01:52:52.837656 24969 net.cpp:84] Creating Layer inception_4c/1x1
I1130 01:52:52.837661 24969 net.cpp:406] inception_4c/1x1 <- inception_4b/output_inception_4b/output_0_split_0
I1130 01:52:52.837669 24969 net.cpp:380] inception_4c/1x1 -> inception_4c/1x1
I1130 01:52:52.838424 24969 net.cpp:122] Setting up inception_4c/1x1
I1130 01:52:52.838438 24969 net.cpp:129] Top shape: 32 128 14 14 (802816)
I1130 01:52:52.838443 24969 net.cpp:137] Memory required for data: 1359569024
I1130 01:52:52.838452 24969 layer_factory.hpp:77] Creating layer inception_4c/relu_1x1
I1130 01:52:52.838462 24969 net.cpp:84] Creating Layer inception_4c/relu_1x1
I1130 01:52:52.838469 24969 net.cpp:406] inception_4c/relu_1x1 <- inception_4c/1x1
I1130 01:52:52.838476 24969 net.cpp:367] inception_4c/relu_1x1 -> inception_4c/1x1 (in-place)
I1130 01:52:52.838495 24969 net.cpp:122] Setting up inception_4c/relu_1x1
I1130 01:52:52.838503 24969 net.cpp:129] Top shape: 32 128 14 14 (802816)
I1130 01:52:52.838510 24969 net.cpp:137] Memory required for data: 1362780288
I1130 01:52:52.838526 24969 layer_factory.hpp:77] Creating layer inception_4c/3x3_reduce
I1130 01:52:52.838536 24969 net.cpp:84] Creating Layer inception_4c/3x3_reduce
I1130 01:52:52.838541 24969 net.cpp:406] inception_4c/3x3_reduce <- inception_4b/output_inception_4b/output_0_split_1
I1130 01:52:52.838551 24969 net.cpp:380] inception_4c/3x3_reduce -> inception_4c/3x3_reduce
I1130 01:52:52.839148 24969 net.cpp:122] Setting up inception_4c/3x3_reduce
I1130 01:52:52.839159 24969 net.cpp:129] Top shape: 32 128 14 14 (802816)
I1130 01:52:52.839164 24969 net.cpp:137] Memory required for data: 1365991552
I1130 01:52:52.839170 24969 layer_factory.hpp:77] Creating layer inception_4c/relu_3x3_reduce
I1130 01:52:52.839179 24969 net.cpp:84] Creating Layer inception_4c/relu_3x3_reduce
I1130 01:52:52.839184 24969 net.cpp:406] inception_4c/relu_3x3_reduce <- inception_4c/3x3_reduce
I1130 01:52:52.839190 24969 net.cpp:367] inception_4c/relu_3x3_reduce -> inception_4c/3x3_reduce (in-place)
I1130 01:52:52.839200 24969 net.cpp:122] Setting up inception_4c/relu_3x3_reduce
I1130 01:52:52.839205 24969 net.cpp:129] Top shape: 32 128 14 14 (802816)
I1130 01:52:52.839208 24969 net.cpp:137] Memory required for data: 1369202816
I1130 01:52:52.839215 24969 layer_factory.hpp:77] Creating layer inception_4c/3x3
I1130 01:52:52.839222 24969 net.cpp:84] Creating Layer inception_4c/3x3
I1130 01:52:52.839227 24969 net.cpp:406] inception_4c/3x3 <- inception_4c/3x3_reduce
I1130 01:52:52.839234 24969 net.cpp:380] inception_4c/3x3 -> inception_4c/3x3
I1130 01:52:52.841684 24969 net.cpp:122] Setting up inception_4c/3x3
I1130 01:52:52.841696 24969 net.cpp:129] Top shape: 32 256 14 14 (1605632)
I1130 01:52:52.841701 24969 net.cpp:137] Memory required for data: 1375625344
I1130 01:52:52.841709 24969 layer_factory.hpp:77] Creating layer inception_4c/relu_3x3
I1130 01:52:52.841717 24969 net.cpp:84] Creating Layer inception_4c/relu_3x3
I1130 01:52:52.841723 24969 net.cpp:406] inception_4c/relu_3x3 <- inception_4c/3x3
I1130 01:52:52.841730 24969 net.cpp:367] inception_4c/relu_3x3 -> inception_4c/3x3 (in-place)
I1130 01:52:52.841738 24969 net.cpp:122] Setting up inception_4c/relu_3x3
I1130 01:52:52.841744 24969 net.cpp:129] Top shape: 32 256 14 14 (1605632)
I1130 01:52:52.841750 24969 net.cpp:137] Memory required for data: 1382047872
I1130 01:52:52.841754 24969 layer_factory.hpp:77] Creating layer inception_4c/5x5_reduce
I1130 01:52:52.841763 24969 net.cpp:84] Creating Layer inception_4c/5x5_reduce
I1130 01:52:52.841769 24969 net.cpp:406] inception_4c/5x5_reduce <- inception_4b/output_inception_4b/output_0_split_2
I1130 01:52:52.841776 24969 net.cpp:380] inception_4c/5x5_reduce -> inception_4c/5x5_reduce
I1130 01:52:52.842053 24969 net.cpp:122] Setting up inception_4c/5x5_reduce
I1130 01:52:52.842063 24969 net.cpp:129] Top shape: 32 24 14 14 (150528)
I1130 01:52:52.842067 24969 net.cpp:137] Memory required for data: 1382649984
I1130 01:52:52.842075 24969 layer_factory.hpp:77] Creating layer inception_4c/relu_5x5_reduce
I1130 01:52:52.842082 24969 net.cpp:84] Creating Layer inception_4c/relu_5x5_reduce
I1130 01:52:52.842087 24969 net.cpp:406] inception_4c/relu_5x5_reduce <- inception_4c/5x5_reduce
I1130 01:52:52.842094 24969 net.cpp:367] inception_4c/relu_5x5_reduce -> inception_4c/5x5_reduce (in-place)
I1130 01:52:52.842102 24969 net.cpp:122] Setting up inception_4c/relu_5x5_reduce
I1130 01:52:52.842108 24969 net.cpp:129] Top shape: 32 24 14 14 (150528)
I1130 01:52:52.842111 24969 net.cpp:137] Memory required for data: 1383252096
I1130 01:52:52.842118 24969 layer_factory.hpp:77] Creating layer inception_4c/5x5
I1130 01:52:52.842126 24969 net.cpp:84] Creating Layer inception_4c/5x5
I1130 01:52:52.842131 24969 net.cpp:406] inception_4c/5x5 <- inception_4c/5x5_reduce
I1130 01:52:52.842139 24969 net.cpp:380] inception_4c/5x5 -> inception_4c/5x5
I1130 01:52:52.842582 24969 net.cpp:122] Setting up inception_4c/5x5
I1130 01:52:52.842592 24969 net.cpp:129] Top shape: 32 64 14 14 (401408)
I1130 01:52:52.842597 24969 net.cpp:137] Memory required for data: 1384857728
I1130 01:52:52.842604 24969 layer_factory.hpp:77] Creating layer inception_4c/relu_5x5
I1130 01:52:52.842612 24969 net.cpp:84] Creating Layer inception_4c/relu_5x5
I1130 01:52:52.842618 24969 net.cpp:406] inception_4c/relu_5x5 <- inception_4c/5x5
I1130 01:52:52.842624 24969 net.cpp:367] inception_4c/relu_5x5 -> inception_4c/5x5 (in-place)
I1130 01:52:52.842633 24969 net.cpp:122] Setting up inception_4c/relu_5x5
I1130 01:52:52.842638 24969 net.cpp:129] Top shape: 32 64 14 14 (401408)
I1130 01:52:52.842643 24969 net.cpp:137] Memory required for data: 1386463360
I1130 01:52:52.842648 24969 layer_factory.hpp:77] Creating layer inception_4c/pool
I1130 01:52:52.842654 24969 net.cpp:84] Creating Layer inception_4c/pool
I1130 01:52:52.842659 24969 net.cpp:406] inception_4c/pool <- inception_4b/output_inception_4b/output_0_split_3
I1130 01:52:52.842666 24969 net.cpp:380] inception_4c/pool -> inception_4c/pool
I1130 01:52:52.842703 24969 net.cpp:122] Setting up inception_4c/pool
I1130 01:52:52.842711 24969 net.cpp:129] Top shape: 32 512 14 14 (3211264)
I1130 01:52:52.842715 24969 net.cpp:137] Memory required for data: 1399308416
I1130 01:52:52.842720 24969 layer_factory.hpp:77] Creating layer inception_4c/pool_proj
I1130 01:52:52.842728 24969 net.cpp:84] Creating Layer inception_4c/pool_proj
I1130 01:52:52.842734 24969 net.cpp:406] inception_4c/pool_proj <- inception_4c/pool
I1130 01:52:52.842741 24969 net.cpp:380] inception_4c/pool_proj -> inception_4c/pool_proj
I1130 01:52:52.843530 24969 net.cpp:122] Setting up inception_4c/pool_proj
I1130 01:52:52.843541 24969 net.cpp:129] Top shape: 32 64 14 14 (401408)
I1130 01:52:52.843546 24969 net.cpp:137] Memory required for data: 1400914048
I1130 01:52:52.843562 24969 layer_factory.hpp:77] Creating layer inception_4c/relu_pool_proj
I1130 01:52:52.843569 24969 net.cpp:84] Creating Layer inception_4c/relu_pool_proj
I1130 01:52:52.843575 24969 net.cpp:406] inception_4c/relu_pool_proj <- inception_4c/pool_proj
I1130 01:52:52.843581 24969 net.cpp:367] inception_4c/relu_pool_proj -> inception_4c/pool_proj (in-place)
I1130 01:52:52.843590 24969 net.cpp:122] Setting up inception_4c/relu_pool_proj
I1130 01:52:52.843596 24969 net.cpp:129] Top shape: 32 64 14 14 (401408)
I1130 01:52:52.843600 24969 net.cpp:137] Memory required for data: 1402519680
I1130 01:52:52.843605 24969 layer_factory.hpp:77] Creating layer inception_4c/output
I1130 01:52:52.843611 24969 net.cpp:84] Creating Layer inception_4c/output
I1130 01:52:52.843616 24969 net.cpp:406] inception_4c/output <- inception_4c/1x1
I1130 01:52:52.843622 24969 net.cpp:406] inception_4c/output <- inception_4c/3x3
I1130 01:52:52.843628 24969 net.cpp:406] inception_4c/output <- inception_4c/5x5
I1130 01:52:52.843633 24969 net.cpp:406] inception_4c/output <- inception_4c/pool_proj
I1130 01:52:52.843641 24969 net.cpp:380] inception_4c/output -> inception_4c/output
I1130 01:52:52.843665 24969 net.cpp:122] Setting up inception_4c/output
I1130 01:52:52.843673 24969 net.cpp:129] Top shape: 32 512 14 14 (3211264)
I1130 01:52:52.843678 24969 net.cpp:137] Memory required for data: 1415364736
I1130 01:52:52.843683 24969 layer_factory.hpp:77] Creating layer inception_4c/output_inception_4c/output_0_split
I1130 01:52:52.843690 24969 net.cpp:84] Creating Layer inception_4c/output_inception_4c/output_0_split
I1130 01:52:52.843696 24969 net.cpp:406] inception_4c/output_inception_4c/output_0_split <- inception_4c/output
I1130 01:52:52.843703 24969 net.cpp:380] inception_4c/output_inception_4c/output_0_split -> inception_4c/output_inception_4c/output_0_split_0
I1130 01:52:52.843710 24969 net.cpp:380] inception_4c/output_inception_4c/output_0_split -> inception_4c/output_inception_4c/output_0_split_1
I1130 01:52:52.843719 24969 net.cpp:380] inception_4c/output_inception_4c/output_0_split -> inception_4c/output_inception_4c/output_0_split_2
I1130 01:52:52.843726 24969 net.cpp:380] inception_4c/output_inception_4c/output_0_split -> inception_4c/output_inception_4c/output_0_split_3
I1130 01:52:52.843777 24969 net.cpp:122] Setting up inception_4c/output_inception_4c/output_0_split
I1130 01:52:52.843786 24969 net.cpp:129] Top shape: 32 512 14 14 (3211264)
I1130 01:52:52.843791 24969 net.cpp:129] Top shape: 32 512 14 14 (3211264)
I1130 01:52:52.843796 24969 net.cpp:129] Top shape: 32 512 14 14 (3211264)
I1130 01:52:52.843801 24969 net.cpp:129] Top shape: 32 512 14 14 (3211264)
I1130 01:52:52.843806 24969 net.cpp:137] Memory required for data: 1466744960
I1130 01:52:52.843811 24969 layer_factory.hpp:77] Creating layer inception_4d/1x1
I1130 01:52:52.843819 24969 net.cpp:84] Creating Layer inception_4d/1x1
I1130 01:52:52.843827 24969 net.cpp:406] inception_4d/1x1 <- inception_4c/output_inception_4c/output_0_split_0
I1130 01:52:52.843833 24969 net.cpp:380] inception_4d/1x1 -> inception_4d/1x1
I1130 01:52:52.844383 24969 net.cpp:122] Setting up inception_4d/1x1
I1130 01:52:52.844393 24969 net.cpp:129] Top shape: 32 112 14 14 (702464)
I1130 01:52:52.844398 24969 net.cpp:137] Memory required for data: 1469554816
I1130 01:52:52.844405 24969 layer_factory.hpp:77] Creating layer inception_4d/relu_1x1
I1130 01:52:52.844413 24969 net.cpp:84] Creating Layer inception_4d/relu_1x1
I1130 01:52:52.844419 24969 net.cpp:406] inception_4d/relu_1x1 <- inception_4d/1x1
I1130 01:52:52.844425 24969 net.cpp:367] inception_4d/relu_1x1 -> inception_4d/1x1 (in-place)
I1130 01:52:52.844432 24969 net.cpp:122] Setting up inception_4d/relu_1x1
I1130 01:52:52.844439 24969 net.cpp:129] Top shape: 32 112 14 14 (702464)
I1130 01:52:52.844444 24969 net.cpp:137] Memory required for data: 1472364672
I1130 01:52:52.844449 24969 layer_factory.hpp:77] Creating layer inception_4d/3x3_reduce
I1130 01:52:52.844456 24969 net.cpp:84] Creating Layer inception_4d/3x3_reduce
I1130 01:52:52.844462 24969 net.cpp:406] inception_4d/3x3_reduce <- inception_4c/output_inception_4c/output_0_split_1
I1130 01:52:52.844470 24969 net.cpp:380] inception_4d/3x3_reduce -> inception_4d/3x3_reduce
I1130 01:52:52.845142 24969 net.cpp:122] Setting up inception_4d/3x3_reduce
I1130 01:52:52.845152 24969 net.cpp:129] Top shape: 32 144 14 14 (903168)
I1130 01:52:52.845157 24969 net.cpp:137] Memory required for data: 1475977344
I1130 01:52:52.845165 24969 layer_factory.hpp:77] Creating layer inception_4d/relu_3x3_reduce
I1130 01:52:52.845171 24969 net.cpp:84] Creating Layer inception_4d/relu_3x3_reduce
I1130 01:52:52.845178 24969 net.cpp:406] inception_4d/relu_3x3_reduce <- inception_4d/3x3_reduce
I1130 01:52:52.845185 24969 net.cpp:367] inception_4d/relu_3x3_reduce -> inception_4d/3x3_reduce (in-place)
I1130 01:52:52.845192 24969 net.cpp:122] Setting up inception_4d/relu_3x3_reduce
I1130 01:52:52.845199 24969 net.cpp:129] Top shape: 32 144 14 14 (903168)
I1130 01:52:52.845203 24969 net.cpp:137] Memory required for data: 1479590016
I1130 01:52:52.845207 24969 layer_factory.hpp:77] Creating layer inception_4d/3x3
I1130 01:52:52.845216 24969 net.cpp:84] Creating Layer inception_4d/3x3
I1130 01:52:52.845222 24969 net.cpp:406] inception_4d/3x3 <- inception_4d/3x3_reduce
I1130 01:52:52.845229 24969 net.cpp:380] inception_4d/3x3 -> inception_4d/3x3
I1130 01:52:52.848264 24969 net.cpp:122] Setting up inception_4d/3x3
I1130 01:52:52.848278 24969 net.cpp:129] Top shape: 32 288 14 14 (1806336)
I1130 01:52:52.848281 24969 net.cpp:137] Memory required for data: 1486815360
I1130 01:52:52.848289 24969 layer_factory.hpp:77] Creating layer inception_4d/relu_3x3
I1130 01:52:52.848297 24969 net.cpp:84] Creating Layer inception_4d/relu_3x3
I1130 01:52:52.848304 24969 net.cpp:406] inception_4d/relu_3x3 <- inception_4d/3x3
I1130 01:52:52.848310 24969 net.cpp:367] inception_4d/relu_3x3 -> inception_4d/3x3 (in-place)
I1130 01:52:52.848318 24969 net.cpp:122] Setting up inception_4d/relu_3x3
I1130 01:52:52.848325 24969 net.cpp:129] Top shape: 32 288 14 14 (1806336)
I1130 01:52:52.848328 24969 net.cpp:137] Memory required for data: 1494040704
I1130 01:52:52.848333 24969 layer_factory.hpp:77] Creating layer inception_4d/5x5_reduce
I1130 01:52:52.848342 24969 net.cpp:84] Creating Layer inception_4d/5x5_reduce
I1130 01:52:52.848348 24969 net.cpp:406] inception_4d/5x5_reduce <- inception_4c/output_inception_4c/output_0_split_2
I1130 01:52:52.848356 24969 net.cpp:380] inception_4d/5x5_reduce -> inception_4d/5x5_reduce
I1130 01:52:52.848670 24969 net.cpp:122] Setting up inception_4d/5x5_reduce
I1130 01:52:52.848680 24969 net.cpp:129] Top shape: 32 32 14 14 (200704)
I1130 01:52:52.848685 24969 net.cpp:137] Memory required for data: 1494843520
I1130 01:52:52.848693 24969 layer_factory.hpp:77] Creating layer inception_4d/relu_5x5_reduce
I1130 01:52:52.848701 24969 net.cpp:84] Creating Layer inception_4d/relu_5x5_reduce
I1130 01:52:52.848707 24969 net.cpp:406] inception_4d/relu_5x5_reduce <- inception_4d/5x5_reduce
I1130 01:52:52.848713 24969 net.cpp:367] inception_4d/relu_5x5_reduce -> inception_4d/5x5_reduce (in-place)
I1130 01:52:52.848721 24969 net.cpp:122] Setting up inception_4d/relu_5x5_reduce
I1130 01:52:52.848728 24969 net.cpp:129] Top shape: 32 32 14 14 (200704)
I1130 01:52:52.848733 24969 net.cpp:137] Memory required for data: 1495646336
I1130 01:52:52.848737 24969 layer_factory.hpp:77] Creating layer inception_4d/5x5
I1130 01:52:52.848747 24969 net.cpp:84] Creating Layer inception_4d/5x5
I1130 01:52:52.848752 24969 net.cpp:406] inception_4d/5x5 <- inception_4d/5x5_reduce
I1130 01:52:52.848758 24969 net.cpp:380] inception_4d/5x5 -> inception_4d/5x5
I1130 01:52:52.849315 24969 net.cpp:122] Setting up inception_4d/5x5
I1130 01:52:52.849325 24969 net.cpp:129] Top shape: 32 64 14 14 (401408)
I1130 01:52:52.849330 24969 net.cpp:137] Memory required for data: 1497251968
I1130 01:52:52.849337 24969 layer_factory.hpp:77] Creating layer inception_4d/relu_5x5
I1130 01:52:52.849344 24969 net.cpp:84] Creating Layer inception_4d/relu_5x5
I1130 01:52:52.849349 24969 net.cpp:406] inception_4d/relu_5x5 <- inception_4d/5x5
I1130 01:52:52.849355 24969 net.cpp:367] inception_4d/relu_5x5 -> inception_4d/5x5 (in-place)
I1130 01:52:52.849362 24969 net.cpp:122] Setting up inception_4d/relu_5x5
I1130 01:52:52.849380 24969 net.cpp:129] Top shape: 32 64 14 14 (401408)
I1130 01:52:52.849385 24969 net.cpp:137] Memory required for data: 1498857600
I1130 01:52:52.849390 24969 layer_factory.hpp:77] Creating layer inception_4d/pool
I1130 01:52:52.849396 24969 net.cpp:84] Creating Layer inception_4d/pool
I1130 01:52:52.849401 24969 net.cpp:406] inception_4d/pool <- inception_4c/output_inception_4c/output_0_split_3
I1130 01:52:52.849408 24969 net.cpp:380] inception_4d/pool -> inception_4d/pool
I1130 01:52:52.849445 24969 net.cpp:122] Setting up inception_4d/pool
I1130 01:52:52.849453 24969 net.cpp:129] Top shape: 32 512 14 14 (3211264)
I1130 01:52:52.849457 24969 net.cpp:137] Memory required for data: 1511702656
I1130 01:52:52.849463 24969 layer_factory.hpp:77] Creating layer inception_4d/pool_proj
I1130 01:52:52.849472 24969 net.cpp:84] Creating Layer inception_4d/pool_proj
I1130 01:52:52.849478 24969 net.cpp:406] inception_4d/pool_proj <- inception_4d/pool
I1130 01:52:52.849485 24969 net.cpp:380] inception_4d/pool_proj -> inception_4d/pool_proj
I1130 01:52:52.849889 24969 net.cpp:122] Setting up inception_4d/pool_proj
I1130 01:52:52.849900 24969 net.cpp:129] Top shape: 32 64 14 14 (401408)
I1130 01:52:52.849905 24969 net.cpp:137] Memory required for data: 1513308288
I1130 01:52:52.849912 24969 layer_factory.hpp:77] Creating layer inception_4d/relu_pool_proj
I1130 01:52:52.849920 24969 net.cpp:84] Creating Layer inception_4d/relu_pool_proj
I1130 01:52:52.849925 24969 net.cpp:406] inception_4d/relu_pool_proj <- inception_4d/pool_proj
I1130 01:52:52.849932 24969 net.cpp:367] inception_4d/relu_pool_proj -> inception_4d/pool_proj (in-place)
I1130 01:52:52.849941 24969 net.cpp:122] Setting up inception_4d/relu_pool_proj
I1130 01:52:52.849947 24969 net.cpp:129] Top shape: 32 64 14 14 (401408)
I1130 01:52:52.849951 24969 net.cpp:137] Memory required for data: 1514913920
I1130 01:52:52.849956 24969 layer_factory.hpp:77] Creating layer inception_4d/output
I1130 01:52:52.849962 24969 net.cpp:84] Creating Layer inception_4d/output
I1130 01:52:52.849968 24969 net.cpp:406] inception_4d/output <- inception_4d/1x1
I1130 01:52:52.849973 24969 net.cpp:406] inception_4d/output <- inception_4d/3x3
I1130 01:52:52.849979 24969 net.cpp:406] inception_4d/output <- inception_4d/5x5
I1130 01:52:52.849984 24969 net.cpp:406] inception_4d/output <- inception_4d/pool_proj
I1130 01:52:52.849992 24969 net.cpp:380] inception_4d/output -> inception_4d/output
I1130 01:52:52.850018 24969 net.cpp:122] Setting up inception_4d/output
I1130 01:52:52.850025 24969 net.cpp:129] Top shape: 32 528 14 14 (3311616)
I1130 01:52:52.850030 24969 net.cpp:137] Memory required for data: 1528160384
I1130 01:52:52.850035 24969 layer_factory.hpp:77] Creating layer inception_4d/output_inception_4d/output_0_split
I1130 01:52:52.850042 24969 net.cpp:84] Creating Layer inception_4d/output_inception_4d/output_0_split
I1130 01:52:52.850049 24969 net.cpp:406] inception_4d/output_inception_4d/output_0_split <- inception_4d/output
I1130 01:52:52.850055 24969 net.cpp:380] inception_4d/output_inception_4d/output_0_split -> inception_4d/output_inception_4d/output_0_split_0
I1130 01:52:52.850064 24969 net.cpp:380] inception_4d/output_inception_4d/output_0_split -> inception_4d/output_inception_4d/output_0_split_1
I1130 01:52:52.850071 24969 net.cpp:380] inception_4d/output_inception_4d/output_0_split -> inception_4d/output_inception_4d/output_0_split_2
I1130 01:52:52.850080 24969 net.cpp:380] inception_4d/output_inception_4d/output_0_split -> inception_4d/output_inception_4d/output_0_split_3
I1130 01:52:52.850131 24969 net.cpp:122] Setting up inception_4d/output_inception_4d/output_0_split
I1130 01:52:52.850138 24969 net.cpp:129] Top shape: 32 528 14 14 (3311616)
I1130 01:52:52.850145 24969 net.cpp:129] Top shape: 32 528 14 14 (3311616)
I1130 01:52:52.850152 24969 net.cpp:129] Top shape: 32 528 14 14 (3311616)
I1130 01:52:52.850157 24969 net.cpp:129] Top shape: 32 528 14 14 (3311616)
I1130 01:52:52.850162 24969 net.cpp:137] Memory required for data: 1581146240
I1130 01:52:52.850165 24969 layer_factory.hpp:77] Creating layer inception_4e/1x1
I1130 01:52:52.850174 24969 net.cpp:84] Creating Layer inception_4e/1x1
I1130 01:52:52.850180 24969 net.cpp:406] inception_4e/1x1 <- inception_4d/output_inception_4d/output_0_split_0
I1130 01:52:52.850188 24969 net.cpp:380] inception_4e/1x1 -> inception_4e/1x1
I1130 01:52:52.851663 24969 net.cpp:122] Setting up inception_4e/1x1
I1130 01:52:52.851675 24969 net.cpp:129] Top shape: 32 256 14 14 (1605632)
I1130 01:52:52.851681 24969 net.cpp:137] Memory required for data: 1587568768
I1130 01:52:52.851689 24969 layer_factory.hpp:77] Creating layer inception_4e/relu_1x1
I1130 01:52:52.851697 24969 net.cpp:84] Creating Layer inception_4e/relu_1x1
I1130 01:52:52.851704 24969 net.cpp:406] inception_4e/relu_1x1 <- inception_4e/1x1
I1130 01:52:52.851711 24969 net.cpp:367] inception_4e/relu_1x1 -> inception_4e/1x1 (in-place)
I1130 01:52:52.851719 24969 net.cpp:122] Setting up inception_4e/relu_1x1
I1130 01:52:52.851727 24969 net.cpp:129] Top shape: 32 256 14 14 (1605632)
I1130 01:52:52.851732 24969 net.cpp:137] Memory required for data: 1593991296
I1130 01:52:52.851735 24969 layer_factory.hpp:77] Creating layer inception_4e/3x3_reduce
I1130 01:52:52.851744 24969 net.cpp:84] Creating Layer inception_4e/3x3_reduce
I1130 01:52:52.851750 24969 net.cpp:406] inception_4e/3x3_reduce <- inception_4d/output_inception_4d/output_0_split_1
I1130 01:52:52.851758 24969 net.cpp:380] inception_4e/3x3_reduce -> inception_4e/3x3_reduce
I1130 01:52:52.852483 24969 net.cpp:122] Setting up inception_4e/3x3_reduce
I1130 01:52:52.852494 24969 net.cpp:129] Top shape: 32 160 14 14 (1003520)
I1130 01:52:52.852499 24969 net.cpp:137] Memory required for data: 1598005376
I1130 01:52:52.852506 24969 layer_factory.hpp:77] Creating layer inception_4e/relu_3x3_reduce
I1130 01:52:52.852514 24969 net.cpp:84] Creating Layer inception_4e/relu_3x3_reduce
I1130 01:52:52.852519 24969 net.cpp:406] inception_4e/relu_3x3_reduce <- inception_4e/3x3_reduce
I1130 01:52:52.852525 24969 net.cpp:367] inception_4e/relu_3x3_reduce -> inception_4e/3x3_reduce (in-place)
I1130 01:52:52.852535 24969 net.cpp:122] Setting up inception_4e/relu_3x3_reduce
I1130 01:52:52.852540 24969 net.cpp:129] Top shape: 32 160 14 14 (1003520)
I1130 01:52:52.852545 24969 net.cpp:137] Memory required for data: 1602019456
I1130 01:52:52.852550 24969 layer_factory.hpp:77] Creating layer inception_4e/3x3
I1130 01:52:52.852558 24969 net.cpp:84] Creating Layer inception_4e/3x3
I1130 01:52:52.852565 24969 net.cpp:406] inception_4e/3x3 <- inception_4e/3x3_reduce
I1130 01:52:52.852571 24969 net.cpp:380] inception_4e/3x3 -> inception_4e/3x3
I1130 01:52:52.856222 24969 net.cpp:122] Setting up inception_4e/3x3
I1130 01:52:52.856235 24969 net.cpp:129] Top shape: 32 320 14 14 (2007040)
I1130 01:52:52.856238 24969 net.cpp:137] Memory required for data: 1610047616
I1130 01:52:52.856246 24969 layer_factory.hpp:77] Creating layer inception_4e/relu_3x3
I1130 01:52:52.856254 24969 net.cpp:84] Creating Layer inception_4e/relu_3x3
I1130 01:52:52.856261 24969 net.cpp:406] inception_4e/relu_3x3 <- inception_4e/3x3
I1130 01:52:52.856267 24969 net.cpp:367] inception_4e/relu_3x3 -> inception_4e/3x3 (in-place)
I1130 01:52:52.856274 24969 net.cpp:122] Setting up inception_4e/relu_3x3
I1130 01:52:52.856281 24969 net.cpp:129] Top shape: 32 320 14 14 (2007040)
I1130 01:52:52.856286 24969 net.cpp:137] Memory required for data: 1618075776
I1130 01:52:52.856289 24969 layer_factory.hpp:77] Creating layer inception_4e/5x5_reduce
I1130 01:52:52.856298 24969 net.cpp:84] Creating Layer inception_4e/5x5_reduce
I1130 01:52:52.856303 24969 net.cpp:406] inception_4e/5x5_reduce <- inception_4d/output_inception_4d/output_0_split_2
I1130 01:52:52.856312 24969 net.cpp:380] inception_4e/5x5_reduce -> inception_4e/5x5_reduce
I1130 01:52:52.856629 24969 net.cpp:122] Setting up inception_4e/5x5_reduce
I1130 01:52:52.856639 24969 net.cpp:129] Top shape: 32 32 14 14 (200704)
I1130 01:52:52.856644 24969 net.cpp:137] Memory required for data: 1618878592
I1130 01:52:52.856652 24969 layer_factory.hpp:77] Creating layer inception_4e/relu_5x5_reduce
I1130 01:52:52.856659 24969 net.cpp:84] Creating Layer inception_4e/relu_5x5_reduce
I1130 01:52:52.856664 24969 net.cpp:406] inception_4e/relu_5x5_reduce <- inception_4e/5x5_reduce
I1130 01:52:52.856672 24969 net.cpp:367] inception_4e/relu_5x5_reduce -> inception_4e/5x5_reduce (in-place)
I1130 01:52:52.856678 24969 net.cpp:122] Setting up inception_4e/relu_5x5_reduce
I1130 01:52:52.856685 24969 net.cpp:129] Top shape: 32 32 14 14 (200704)
I1130 01:52:52.856689 24969 net.cpp:137] Memory required for data: 1619681408
I1130 01:52:52.856694 24969 layer_factory.hpp:77] Creating layer inception_4e/5x5
I1130 01:52:52.856703 24969 net.cpp:84] Creating Layer inception_4e/5x5
I1130 01:52:52.856709 24969 net.cpp:406] inception_4e/5x5 <- inception_4e/5x5_reduce
I1130 01:52:52.856715 24969 net.cpp:380] inception_4e/5x5 -> inception_4e/5x5
I1130 01:52:52.857937 24969 net.cpp:122] Setting up inception_4e/5x5
I1130 01:52:52.857949 24969 net.cpp:129] Top shape: 32 128 14 14 (802816)
I1130 01:52:52.857954 24969 net.cpp:137] Memory required for data: 1622892672
I1130 01:52:52.857961 24969 layer_factory.hpp:77] Creating layer inception_4e/relu_5x5
I1130 01:52:52.857969 24969 net.cpp:84] Creating Layer inception_4e/relu_5x5
I1130 01:52:52.857975 24969 net.cpp:406] inception_4e/relu_5x5 <- inception_4e/5x5
I1130 01:52:52.857980 24969 net.cpp:367] inception_4e/relu_5x5 -> inception_4e/5x5 (in-place)
I1130 01:52:52.857988 24969 net.cpp:122] Setting up inception_4e/relu_5x5
I1130 01:52:52.857995 24969 net.cpp:129] Top shape: 32 128 14 14 (802816)
I1130 01:52:52.857998 24969 net.cpp:137] Memory required for data: 1626103936
I1130 01:52:52.858002 24969 layer_factory.hpp:77] Creating layer inception_4e/pool
I1130 01:52:52.858009 24969 net.cpp:84] Creating Layer inception_4e/pool
I1130 01:52:52.858016 24969 net.cpp:406] inception_4e/pool <- inception_4d/output_inception_4d/output_0_split_3
I1130 01:52:52.858021 24969 net.cpp:380] inception_4e/pool -> inception_4e/pool
I1130 01:52:52.858059 24969 net.cpp:122] Setting up inception_4e/pool
I1130 01:52:52.858067 24969 net.cpp:129] Top shape: 32 528 14 14 (3311616)
I1130 01:52:52.858072 24969 net.cpp:137] Memory required for data: 1639350400
I1130 01:52:52.858078 24969 layer_factory.hpp:77] Creating layer inception_4e/pool_proj
I1130 01:52:52.858086 24969 net.cpp:84] Creating Layer inception_4e/pool_proj
I1130 01:52:52.858091 24969 net.cpp:406] inception_4e/pool_proj <- inception_4e/pool
I1130 01:52:52.858099 24969 net.cpp:380] inception_4e/pool_proj -> inception_4e/pool_proj
I1130 01:52:52.858729 24969 net.cpp:122] Setting up inception_4e/pool_proj
I1130 01:52:52.858741 24969 net.cpp:129] Top shape: 32 128 14 14 (802816)
I1130 01:52:52.858745 24969 net.cpp:137] Memory required for data: 1642561664
I1130 01:52:52.858753 24969 layer_factory.hpp:77] Creating layer inception_4e/relu_pool_proj
I1130 01:52:52.858764 24969 net.cpp:84] Creating Layer inception_4e/relu_pool_proj
I1130 01:52:52.858770 24969 net.cpp:406] inception_4e/relu_pool_proj <- inception_4e/pool_proj
I1130 01:52:52.858777 24969 net.cpp:367] inception_4e/relu_pool_proj -> inception_4e/pool_proj (in-place)
I1130 01:52:52.858784 24969 net.cpp:122] Setting up inception_4e/relu_pool_proj
I1130 01:52:52.858790 24969 net.cpp:129] Top shape: 32 128 14 14 (802816)
I1130 01:52:52.858794 24969 net.cpp:137] Memory required for data: 1645772928
I1130 01:52:52.858798 24969 layer_factory.hpp:77] Creating layer inception_4e/output
I1130 01:52:52.858806 24969 net.cpp:84] Creating Layer inception_4e/output
I1130 01:52:52.858813 24969 net.cpp:406] inception_4e/output <- inception_4e/1x1
I1130 01:52:52.858817 24969 net.cpp:406] inception_4e/output <- inception_4e/3x3
I1130 01:52:52.858822 24969 net.cpp:406] inception_4e/output <- inception_4e/5x5
I1130 01:52:52.858829 24969 net.cpp:406] inception_4e/output <- inception_4e/pool_proj
I1130 01:52:52.858834 24969 net.cpp:380] inception_4e/output -> inception_4e/output
I1130 01:52:52.858860 24969 net.cpp:122] Setting up inception_4e/output
I1130 01:52:52.858870 24969 net.cpp:129] Top shape: 32 832 14 14 (5218304)
I1130 01:52:52.858875 24969 net.cpp:137] Memory required for data: 1666646144
I1130 01:52:52.858878 24969 layer_factory.hpp:77] Creating layer pool4/3x3_s2
I1130 01:52:52.858886 24969 net.cpp:84] Creating Layer pool4/3x3_s2
I1130 01:52:52.858891 24969 net.cpp:406] pool4/3x3_s2 <- inception_4e/output
I1130 01:52:52.858899 24969 net.cpp:380] pool4/3x3_s2 -> pool4/3x3_s2
I1130 01:52:52.858935 24969 net.cpp:122] Setting up pool4/3x3_s2
I1130 01:52:52.858943 24969 net.cpp:129] Top shape: 32 832 7 7 (1304576)
I1130 01:52:52.858948 24969 net.cpp:137] Memory required for data: 1671864448
I1130 01:52:52.858953 24969 layer_factory.hpp:77] Creating layer pool4/3x3_s2_pool4/3x3_s2_0_split
I1130 01:52:52.858960 24969 net.cpp:84] Creating Layer pool4/3x3_s2_pool4/3x3_s2_0_split
I1130 01:52:52.858966 24969 net.cpp:406] pool4/3x3_s2_pool4/3x3_s2_0_split <- pool4/3x3_s2
I1130 01:52:52.858973 24969 net.cpp:380] pool4/3x3_s2_pool4/3x3_s2_0_split -> pool4/3x3_s2_pool4/3x3_s2_0_split_0
I1130 01:52:52.858980 24969 net.cpp:380] pool4/3x3_s2_pool4/3x3_s2_0_split -> pool4/3x3_s2_pool4/3x3_s2_0_split_1
I1130 01:52:52.858989 24969 net.cpp:380] pool4/3x3_s2_pool4/3x3_s2_0_split -> pool4/3x3_s2_pool4/3x3_s2_0_split_2
I1130 01:52:52.858996 24969 net.cpp:380] pool4/3x3_s2_pool4/3x3_s2_0_split -> pool4/3x3_s2_pool4/3x3_s2_0_split_3
I1130 01:52:52.859050 24969 net.cpp:122] Setting up pool4/3x3_s2_pool4/3x3_s2_0_split
I1130 01:52:52.859057 24969 net.cpp:129] Top shape: 32 832 7 7 (1304576)
I1130 01:52:52.859063 24969 net.cpp:129] Top shape: 32 832 7 7 (1304576)
I1130 01:52:52.859068 24969 net.cpp:129] Top shape: 32 832 7 7 (1304576)
I1130 01:52:52.859073 24969 net.cpp:129] Top shape: 32 832 7 7 (1304576)
I1130 01:52:52.859078 24969 net.cpp:137] Memory required for data: 1692737664
I1130 01:52:52.859083 24969 layer_factory.hpp:77] Creating layer inception_5a/1x1
I1130 01:52:52.859092 24969 net.cpp:84] Creating Layer inception_5a/1x1
I1130 01:52:52.859098 24969 net.cpp:406] inception_5a/1x1 <- pool4/3x3_s2_pool4/3x3_s2_0_split_0
I1130 01:52:52.859107 24969 net.cpp:380] inception_5a/1x1 -> inception_5a/1x1
I1130 01:52:52.861027 24969 net.cpp:122] Setting up inception_5a/1x1
I1130 01:52:52.861038 24969 net.cpp:129] Top shape: 32 256 7 7 (401408)
I1130 01:52:52.861043 24969 net.cpp:137] Memory required for data: 1694343296
I1130 01:52:52.861052 24969 layer_factory.hpp:77] Creating layer inception_5a/relu_1x1
I1130 01:52:52.861059 24969 net.cpp:84] Creating Layer inception_5a/relu_1x1
I1130 01:52:52.861066 24969 net.cpp:406] inception_5a/relu_1x1 <- inception_5a/1x1
I1130 01:52:52.861073 24969 net.cpp:367] inception_5a/relu_1x1 -> inception_5a/1x1 (in-place)
I1130 01:52:52.861081 24969 net.cpp:122] Setting up inception_5a/relu_1x1
I1130 01:52:52.861088 24969 net.cpp:129] Top shape: 32 256 7 7 (401408)
I1130 01:52:52.861091 24969 net.cpp:137] Memory required for data: 1695948928
I1130 01:52:52.861097 24969 layer_factory.hpp:77] Creating layer inception_5a/3x3_reduce
I1130 01:52:52.861105 24969 net.cpp:84] Creating Layer inception_5a/3x3_reduce
I1130 01:52:52.861111 24969 net.cpp:406] inception_5a/3x3_reduce <- pool4/3x3_s2_pool4/3x3_s2_0_split_1
I1130 01:52:52.861119 24969 net.cpp:380] inception_5a/3x3_reduce -> inception_5a/3x3_reduce
I1130 01:52:52.862566 24969 net.cpp:122] Setting up inception_5a/3x3_reduce
I1130 01:52:52.862578 24969 net.cpp:129] Top shape: 32 160 7 7 (250880)
I1130 01:52:52.862583 24969 net.cpp:137] Memory required for data: 1696952448
I1130 01:52:52.862592 24969 layer_factory.hpp:77] Creating layer inception_5a/relu_3x3_reduce
I1130 01:52:52.862599 24969 net.cpp:84] Creating Layer inception_5a/relu_3x3_reduce
I1130 01:52:52.862607 24969 net.cpp:406] inception_5a/relu_3x3_reduce <- inception_5a/3x3_reduce
I1130 01:52:52.862614 24969 net.cpp:367] inception_5a/relu_3x3_reduce -> inception_5a/3x3_reduce (in-place)
I1130 01:52:52.862623 24969 net.cpp:122] Setting up inception_5a/relu_3x3_reduce
I1130 01:52:52.862629 24969 net.cpp:129] Top shape: 32 160 7 7 (250880)
I1130 01:52:52.862633 24969 net.cpp:137] Memory required for data: 1697955968
I1130 01:52:52.862639 24969 layer_factory.hpp:77] Creating layer inception_5a/3x3
I1130 01:52:52.862646 24969 net.cpp:84] Creating Layer inception_5a/3x3
I1130 01:52:52.862653 24969 net.cpp:406] inception_5a/3x3 <- inception_5a/3x3_reduce
I1130 01:52:52.862660 24969 net.cpp:380] inception_5a/3x3 -> inception_5a/3x3
I1130 01:52:52.866322 24969 net.cpp:122] Setting up inception_5a/3x3
I1130 01:52:52.866335 24969 net.cpp:129] Top shape: 32 320 7 7 (501760)
I1130 01:52:52.866339 24969 net.cpp:137] Memory required for data: 1699963008
I1130 01:52:52.866348 24969 layer_factory.hpp:77] Creating layer inception_5a/relu_3x3
I1130 01:52:52.866354 24969 net.cpp:84] Creating Layer inception_5a/relu_3x3
I1130 01:52:52.866361 24969 net.cpp:406] inception_5a/relu_3x3 <- inception_5a/3x3
I1130 01:52:52.866367 24969 net.cpp:367] inception_5a/relu_3x3 -> inception_5a/3x3 (in-place)
I1130 01:52:52.866377 24969 net.cpp:122] Setting up inception_5a/relu_3x3
I1130 01:52:52.866384 24969 net.cpp:129] Top shape: 32 320 7 7 (501760)
I1130 01:52:52.866389 24969 net.cpp:137] Memory required for data: 1701970048
I1130 01:52:52.866392 24969 layer_factory.hpp:77] Creating layer inception_5a/5x5_reduce
I1130 01:52:52.866402 24969 net.cpp:84] Creating Layer inception_5a/5x5_reduce
I1130 01:52:52.866408 24969 net.cpp:406] inception_5a/5x5_reduce <- pool4/3x3_s2_pool4/3x3_s2_0_split_2
I1130 01:52:52.866416 24969 net.cpp:380] inception_5a/5x5_reduce -> inception_5a/5x5_reduce
I1130 01:52:52.866818 24969 net.cpp:122] Setting up inception_5a/5x5_reduce
I1130 01:52:52.866829 24969 net.cpp:129] Top shape: 32 32 7 7 (50176)
I1130 01:52:52.866833 24969 net.cpp:137] Memory required for data: 1702170752
I1130 01:52:52.866842 24969 layer_factory.hpp:77] Creating layer inception_5a/relu_5x5_reduce
I1130 01:52:52.866848 24969 net.cpp:84] Creating Layer inception_5a/relu_5x5_reduce
I1130 01:52:52.866854 24969 net.cpp:406] inception_5a/relu_5x5_reduce <- inception_5a/5x5_reduce
I1130 01:52:52.866860 24969 net.cpp:367] inception_5a/relu_5x5_reduce -> inception_5a/5x5_reduce (in-place)
I1130 01:52:52.866868 24969 net.cpp:122] Setting up inception_5a/relu_5x5_reduce
I1130 01:52:52.866874 24969 net.cpp:129] Top shape: 32 32 7 7 (50176)
I1130 01:52:52.866878 24969 net.cpp:137] Memory required for data: 1702371456
I1130 01:52:52.866883 24969 layer_factory.hpp:77] Creating layer inception_5a/5x5
I1130 01:52:52.866894 24969 net.cpp:84] Creating Layer inception_5a/5x5
I1130 01:52:52.866899 24969 net.cpp:406] inception_5a/5x5 <- inception_5a/5x5_reduce
I1130 01:52:52.866909 24969 net.cpp:380] inception_5a/5x5 -> inception_5a/5x5
I1130 01:52:52.867763 24969 net.cpp:122] Setting up inception_5a/5x5
I1130 01:52:52.867774 24969 net.cpp:129] Top shape: 32 128 7 7 (200704)
I1130 01:52:52.867779 24969 net.cpp:137] Memory required for data: 1703174272
I1130 01:52:52.867786 24969 layer_factory.hpp:77] Creating layer inception_5a/relu_5x5
I1130 01:52:52.867811 24969 net.cpp:84] Creating Layer inception_5a/relu_5x5
I1130 01:52:52.867817 24969 net.cpp:406] inception_5a/relu_5x5 <- inception_5a/5x5
I1130 01:52:52.867825 24969 net.cpp:367] inception_5a/relu_5x5 -> inception_5a/5x5 (in-place)
I1130 01:52:52.867831 24969 net.cpp:122] Setting up inception_5a/relu_5x5
I1130 01:52:52.867838 24969 net.cpp:129] Top shape: 32 128 7 7 (200704)
I1130 01:52:52.867841 24969 net.cpp:137] Memory required for data: 1703977088
I1130 01:52:52.867846 24969 layer_factory.hpp:77] Creating layer inception_5a/pool
I1130 01:52:52.867853 24969 net.cpp:84] Creating Layer inception_5a/pool
I1130 01:52:52.867859 24969 net.cpp:406] inception_5a/pool <- pool4/3x3_s2_pool4/3x3_s2_0_split_3
I1130 01:52:52.867866 24969 net.cpp:380] inception_5a/pool -> inception_5a/pool
I1130 01:52:52.867908 24969 net.cpp:122] Setting up inception_5a/pool
I1130 01:52:52.867916 24969 net.cpp:129] Top shape: 32 832 7 7 (1304576)
I1130 01:52:52.867920 24969 net.cpp:137] Memory required for data: 1709195392
I1130 01:52:52.867925 24969 layer_factory.hpp:77] Creating layer inception_5a/pool_proj
I1130 01:52:52.867936 24969 net.cpp:84] Creating Layer inception_5a/pool_proj
I1130 01:52:52.867944 24969 net.cpp:406] inception_5a/pool_proj <- inception_5a/pool
I1130 01:52:52.867954 24969 net.cpp:380] inception_5a/pool_proj -> inception_5a/pool_proj
I1130 01:52:52.869240 24969 net.cpp:122] Setting up inception_5a/pool_proj
I1130 01:52:52.869251 24969 net.cpp:129] Top shape: 32 128 7 7 (200704)
I1130 01:52:52.869256 24969 net.cpp:137] Memory required for data: 1709998208
I1130 01:52:52.869264 24969 layer_factory.hpp:77] Creating layer inception_5a/relu_pool_proj
I1130 01:52:52.869273 24969 net.cpp:84] Creating Layer inception_5a/relu_pool_proj
I1130 01:52:52.869279 24969 net.cpp:406] inception_5a/relu_pool_proj <- inception_5a/pool_proj
I1130 01:52:52.869287 24969 net.cpp:367] inception_5a/relu_pool_proj -> inception_5a/pool_proj (in-place)
I1130 01:52:52.869295 24969 net.cpp:122] Setting up inception_5a/relu_pool_proj
I1130 01:52:52.869302 24969 net.cpp:129] Top shape: 32 128 7 7 (200704)
I1130 01:52:52.869307 24969 net.cpp:137] Memory required for data: 1710801024
I1130 01:52:52.869310 24969 layer_factory.hpp:77] Creating layer inception_5a/output
I1130 01:52:52.869318 24969 net.cpp:84] Creating Layer inception_5a/output
I1130 01:52:52.869323 24969 net.cpp:406] inception_5a/output <- inception_5a/1x1
I1130 01:52:52.869329 24969 net.cpp:406] inception_5a/output <- inception_5a/3x3
I1130 01:52:52.869335 24969 net.cpp:406] inception_5a/output <- inception_5a/5x5
I1130 01:52:52.869340 24969 net.cpp:406] inception_5a/output <- inception_5a/pool_proj
I1130 01:52:52.869349 24969 net.cpp:380] inception_5a/output -> inception_5a/output
I1130 01:52:52.869375 24969 net.cpp:122] Setting up inception_5a/output
I1130 01:52:52.869384 24969 net.cpp:129] Top shape: 32 832 7 7 (1304576)
I1130 01:52:52.869387 24969 net.cpp:137] Memory required for data: 1716019328
I1130 01:52:52.869393 24969 layer_factory.hpp:77] Creating layer inception_5a/output_inception_5a/output_0_split
I1130 01:52:52.869402 24969 net.cpp:84] Creating Layer inception_5a/output_inception_5a/output_0_split
I1130 01:52:52.869407 24969 net.cpp:406] inception_5a/output_inception_5a/output_0_split <- inception_5a/output
I1130 01:52:52.869415 24969 net.cpp:380] inception_5a/output_inception_5a/output_0_split -> inception_5a/output_inception_5a/output_0_split_0
I1130 01:52:52.869422 24969 net.cpp:380] inception_5a/output_inception_5a/output_0_split -> inception_5a/output_inception_5a/output_0_split_1
I1130 01:52:52.869431 24969 net.cpp:380] inception_5a/output_inception_5a/output_0_split -> inception_5a/output_inception_5a/output_0_split_2
I1130 01:52:52.869441 24969 net.cpp:380] inception_5a/output_inception_5a/output_0_split -> inception_5a/output_inception_5a/output_0_split_3
I1130 01:52:52.869498 24969 net.cpp:122] Setting up inception_5a/output_inception_5a/output_0_split
I1130 01:52:52.869506 24969 net.cpp:129] Top shape: 32 832 7 7 (1304576)
I1130 01:52:52.869513 24969 net.cpp:129] Top shape: 32 832 7 7 (1304576)
I1130 01:52:52.869518 24969 net.cpp:129] Top shape: 32 832 7 7 (1304576)
I1130 01:52:52.869524 24969 net.cpp:129] Top shape: 32 832 7 7 (1304576)
I1130 01:52:52.869529 24969 net.cpp:137] Memory required for data: 1736892544
I1130 01:52:52.869534 24969 layer_factory.hpp:77] Creating layer inception_5b/1x1
I1130 01:52:52.869544 24969 net.cpp:84] Creating Layer inception_5b/1x1
I1130 01:52:52.869550 24969 net.cpp:406] inception_5b/1x1 <- inception_5a/output_inception_5a/output_0_split_0
I1130 01:52:52.869557 24969 net.cpp:380] inception_5b/1x1 -> inception_5b/1x1
I1130 01:52:52.872167 24969 net.cpp:122] Setting up inception_5b/1x1
I1130 01:52:52.872179 24969 net.cpp:129] Top shape: 32 384 7 7 (602112)
I1130 01:52:52.872184 24969 net.cpp:137] Memory required for data: 1739300992
I1130 01:52:52.872191 24969 layer_factory.hpp:77] Creating layer inception_5b/relu_1x1
I1130 01:52:52.872200 24969 net.cpp:84] Creating Layer inception_5b/relu_1x1
I1130 01:52:52.872205 24969 net.cpp:406] inception_5b/relu_1x1 <- inception_5b/1x1
I1130 01:52:52.872212 24969 net.cpp:367] inception_5b/relu_1x1 -> inception_5b/1x1 (in-place)
I1130 01:52:52.872220 24969 net.cpp:122] Setting up inception_5b/relu_1x1
I1130 01:52:52.872226 24969 net.cpp:129] Top shape: 32 384 7 7 (602112)
I1130 01:52:52.872231 24969 net.cpp:137] Memory required for data: 1741709440
I1130 01:52:52.872236 24969 layer_factory.hpp:77] Creating layer inception_5b/3x3_reduce
I1130 01:52:52.872246 24969 net.cpp:84] Creating Layer inception_5b/3x3_reduce
I1130 01:52:52.872251 24969 net.cpp:406] inception_5b/3x3_reduce <- inception_5a/output_inception_5a/output_0_split_1
I1130 01:52:52.872258 24969 net.cpp:380] inception_5b/3x3_reduce -> inception_5b/3x3_reduce
I1130 01:52:52.873821 24969 net.cpp:122] Setting up inception_5b/3x3_reduce
I1130 01:52:52.873831 24969 net.cpp:129] Top shape: 32 192 7 7 (301056)
I1130 01:52:52.873837 24969 net.cpp:137] Memory required for data: 1742913664
I1130 01:52:52.873844 24969 layer_factory.hpp:77] Creating layer inception_5b/relu_3x3_reduce
I1130 01:52:52.873853 24969 net.cpp:84] Creating Layer inception_5b/relu_3x3_reduce
I1130 01:52:52.873859 24969 net.cpp:406] inception_5b/relu_3x3_reduce <- inception_5b/3x3_reduce
I1130 01:52:52.873867 24969 net.cpp:367] inception_5b/relu_3x3_reduce -> inception_5b/3x3_reduce (in-place)
I1130 01:52:52.873874 24969 net.cpp:122] Setting up inception_5b/relu_3x3_reduce
I1130 01:52:52.873880 24969 net.cpp:129] Top shape: 32 192 7 7 (301056)
I1130 01:52:52.873885 24969 net.cpp:137] Memory required for data: 1744117888
I1130 01:52:52.873890 24969 layer_factory.hpp:77] Creating layer inception_5b/3x3
I1130 01:52:52.873899 24969 net.cpp:84] Creating Layer inception_5b/3x3
I1130 01:52:52.873905 24969 net.cpp:406] inception_5b/3x3 <- inception_5b/3x3_reduce
I1130 01:52:52.873914 24969 net.cpp:380] inception_5b/3x3 -> inception_5b/3x3
I1130 01:52:52.878909 24969 net.cpp:122] Setting up inception_5b/3x3
I1130 01:52:52.878924 24969 net.cpp:129] Top shape: 32 384 7 7 (602112)
I1130 01:52:52.878929 24969 net.cpp:137] Memory required for data: 1746526336
I1130 01:52:52.878937 24969 layer_factory.hpp:77] Creating layer inception_5b/relu_3x3
I1130 01:52:52.878945 24969 net.cpp:84] Creating Layer inception_5b/relu_3x3
I1130 01:52:52.878950 24969 net.cpp:406] inception_5b/relu_3x3 <- inception_5b/3x3
I1130 01:52:52.878959 24969 net.cpp:367] inception_5b/relu_3x3 -> inception_5b/3x3 (in-place)
I1130 01:52:52.878973 24969 net.cpp:122] Setting up inception_5b/relu_3x3
I1130 01:52:52.878978 24969 net.cpp:129] Top shape: 32 384 7 7 (602112)
I1130 01:52:52.878983 24969 net.cpp:137] Memory required for data: 1748934784
I1130 01:52:52.878988 24969 layer_factory.hpp:77] Creating layer inception_5b/5x5_reduce
I1130 01:52:52.878998 24969 net.cpp:84] Creating Layer inception_5b/5x5_reduce
I1130 01:52:52.879004 24969 net.cpp:406] inception_5b/5x5_reduce <- inception_5a/output_inception_5a/output_0_split_2
I1130 01:52:52.879010 24969 net.cpp:380] inception_5b/5x5_reduce -> inception_5b/5x5_reduce
I1130 01:52:52.881130 24969 net.cpp:122] Setting up inception_5b/5x5_reduce
I1130 01:52:52.881147 24969 net.cpp:129] Top shape: 32 48 7 7 (75264)
I1130 01:52:52.881152 24969 net.cpp:137] Memory required for data: 1749235840
I1130 01:52:52.881162 24969 layer_factory.hpp:77] Creating layer inception_5b/relu_5x5_reduce
I1130 01:52:52.881171 24969 net.cpp:84] Creating Layer inception_5b/relu_5x5_reduce
I1130 01:52:52.881181 24969 net.cpp:406] inception_5b/relu_5x5_reduce <- inception_5b/5x5_reduce
I1130 01:52:52.881188 24969 net.cpp:367] inception_5b/relu_5x5_reduce -> inception_5b/5x5_reduce (in-place)
I1130 01:52:52.881197 24969 net.cpp:122] Setting up inception_5b/relu_5x5_reduce
I1130 01:52:52.881204 24969 net.cpp:129] Top shape: 32 48 7 7 (75264)
I1130 01:52:52.881208 24969 net.cpp:137] Memory required for data: 1749536896
I1130 01:52:52.881213 24969 layer_factory.hpp:77] Creating layer inception_5b/5x5
I1130 01:52:52.881224 24969 net.cpp:84] Creating Layer inception_5b/5x5
I1130 01:52:52.881230 24969 net.cpp:406] inception_5b/5x5 <- inception_5b/5x5_reduce
I1130 01:52:52.881237 24969 net.cpp:380] inception_5b/5x5 -> inception_5b/5x5
I1130 01:52:52.882426 24969 net.cpp:122] Setting up inception_5b/5x5
I1130 01:52:52.882436 24969 net.cpp:129] Top shape: 32 128 7 7 (200704)
I1130 01:52:52.882441 24969 net.cpp:137] Memory required for data: 1750339712
I1130 01:52:52.882449 24969 layer_factory.hpp:77] Creating layer inception_5b/relu_5x5
I1130 01:52:52.882457 24969 net.cpp:84] Creating Layer inception_5b/relu_5x5
I1130 01:52:52.882462 24969 net.cpp:406] inception_5b/relu_5x5 <- inception_5b/5x5
I1130 01:52:52.882467 24969 net.cpp:367] inception_5b/relu_5x5 -> inception_5b/5x5 (in-place)
I1130 01:52:52.882475 24969 net.cpp:122] Setting up inception_5b/relu_5x5
I1130 01:52:52.882481 24969 net.cpp:129] Top shape: 32 128 7 7 (200704)
I1130 01:52:52.882498 24969 net.cpp:137] Memory required for data: 1751142528
I1130 01:52:52.882504 24969 layer_factory.hpp:77] Creating layer inception_5b/pool
I1130 01:52:52.882513 24969 net.cpp:84] Creating Layer inception_5b/pool
I1130 01:52:52.882530 24969 net.cpp:406] inception_5b/pool <- inception_5a/output_inception_5a/output_0_split_3
I1130 01:52:52.882537 24969 net.cpp:380] inception_5b/pool -> inception_5b/pool
I1130 01:52:52.882578 24969 net.cpp:122] Setting up inception_5b/pool
I1130 01:52:52.882587 24969 net.cpp:129] Top shape: 32 832 7 7 (1304576)
I1130 01:52:52.882591 24969 net.cpp:137] Memory required for data: 1756360832
I1130 01:52:52.882596 24969 layer_factory.hpp:77] Creating layer inception_5b/pool_proj
I1130 01:52:52.882606 24969 net.cpp:84] Creating Layer inception_5b/pool_proj
I1130 01:52:52.882612 24969 net.cpp:406] inception_5b/pool_proj <- inception_5b/pool
I1130 01:52:52.882619 24969 net.cpp:380] inception_5b/pool_proj -> inception_5b/pool_proj
I1130 01:52:52.883885 24969 net.cpp:122] Setting up inception_5b/pool_proj
I1130 01:52:52.883896 24969 net.cpp:129] Top shape: 32 128 7 7 (200704)
I1130 01:52:52.883901 24969 net.cpp:137] Memory required for data: 1757163648
I1130 01:52:52.883908 24969 layer_factory.hpp:77] Creating layer inception_5b/relu_pool_proj
I1130 01:52:52.883918 24969 net.cpp:84] Creating Layer inception_5b/relu_pool_proj
I1130 01:52:52.883924 24969 net.cpp:406] inception_5b/relu_pool_proj <- inception_5b/pool_proj
I1130 01:52:52.883930 24969 net.cpp:367] inception_5b/relu_pool_proj -> inception_5b/pool_proj (in-place)
I1130 01:52:52.883939 24969 net.cpp:122] Setting up inception_5b/relu_pool_proj
I1130 01:52:52.883945 24969 net.cpp:129] Top shape: 32 128 7 7 (200704)
I1130 01:52:52.883949 24969 net.cpp:137] Memory required for data: 1757966464
I1130 01:52:52.883955 24969 layer_factory.hpp:77] Creating layer inception_5b/output
I1130 01:52:52.883961 24969 net.cpp:84] Creating Layer inception_5b/output
I1130 01:52:52.883966 24969 net.cpp:406] inception_5b/output <- inception_5b/1x1
I1130 01:52:52.883971 24969 net.cpp:406] inception_5b/output <- inception_5b/3x3
I1130 01:52:52.883977 24969 net.cpp:406] inception_5b/output <- inception_5b/5x5
I1130 01:52:52.883982 24969 net.cpp:406] inception_5b/output <- inception_5b/pool_proj
I1130 01:52:52.883991 24969 net.cpp:380] inception_5b/output -> inception_5b/output
I1130 01:52:52.884016 24969 net.cpp:122] Setting up inception_5b/output
I1130 01:52:52.884023 24969 net.cpp:129] Top shape: 32 1024 7 7 (1605632)
I1130 01:52:52.884028 24969 net.cpp:137] Memory required for data: 1764388992
I1130 01:52:52.884033 24969 layer_factory.hpp:77] Creating layer pool5/7x7_s1
I1130 01:52:52.884042 24969 net.cpp:84] Creating Layer pool5/7x7_s1
I1130 01:52:52.884047 24969 net.cpp:406] pool5/7x7_s1 <- inception_5b/output
I1130 01:52:52.884053 24969 net.cpp:380] pool5/7x7_s1 -> pool5/7x7_s1
I1130 01:52:52.884078 24969 net.cpp:122] Setting up pool5/7x7_s1
I1130 01:52:52.884086 24969 net.cpp:129] Top shape: 32 1024 1 1 (32768)
I1130 01:52:52.884090 24969 net.cpp:137] Memory required for data: 1764520064
I1130 01:52:52.884095 24969 layer_factory.hpp:77] Creating layer pool5/drop_7x7_s1
I1130 01:52:52.884104 24969 net.cpp:84] Creating Layer pool5/drop_7x7_s1
I1130 01:52:52.884110 24969 net.cpp:406] pool5/drop_7x7_s1 <- pool5/7x7_s1
I1130 01:52:52.884117 24969 net.cpp:367] pool5/drop_7x7_s1 -> pool5/7x7_s1 (in-place)
I1130 01:52:52.884145 24969 net.cpp:122] Setting up pool5/drop_7x7_s1
I1130 01:52:52.884153 24969 net.cpp:129] Top shape: 32 1024 1 1 (32768)
I1130 01:52:52.884158 24969 net.cpp:137] Memory required for data: 1764651136
I1130 01:52:52.884162 24969 layer_factory.hpp:77] Creating layer fc_scv_interesting
I1130 01:52:52.884172 24969 net.cpp:84] Creating Layer fc_scv_interesting
I1130 01:52:52.884177 24969 net.cpp:406] fc_scv_interesting <- pool5/7x7_s1
I1130 01:52:52.884186 24969 net.cpp:380] fc_scv_interesting -> fc_scv_interesting
I1130 01:52:52.884295 24969 net.cpp:122] Setting up fc_scv_interesting
I1130 01:52:52.884305 24969 net.cpp:129] Top shape: 32 1 (32)
I1130 01:52:52.884308 24969 net.cpp:137] Memory required for data: 1764651264
I1130 01:52:52.884316 24969 layer_factory.hpp:77] Creating layer loss
I1130 01:52:52.884325 24969 net.cpp:84] Creating Layer loss
I1130 01:52:52.884330 24969 net.cpp:406] loss <- fc_scv_interesting
I1130 01:52:52.884337 24969 net.cpp:406] loss <- label
I1130 01:52:52.884346 24969 net.cpp:380] loss -> loss
I1130 01:52:52.884385 24969 net.cpp:122] Setting up loss
…
I1130 01:52:52.888682 24969 net.cpp:294] The NetState phase (1) differed from the phase (0) specified by a rule in layer data
I1130 01:52:52.889686 24969 net.cpp:51] Initializing net from parameters: 
name: "GoogleNet-Places365-SCV-Interesting"
state {
  phase: TEST
}
layer {
  name: "data"
  type: "Data"
  top: "data"
  top: "label"
  include {
    phase: TEST
  }
  transform_param {
    mirror: false
    crop_size: 224
    mean_file: "/idiap/temp/lmedina/fine-tuning/googlenet_places365/places365CNN_mean.binaryproto"
  }
  data_param {
    source: "/idiap/temp/lmedina/fine-tuning/data/Interesting/validation_lmdb"
    batch_size: 32
    backend: LMDB
  }
}
layer {
  name: "conv1/7x7_s2"
  type: "Convolution"
  bottom: "data"
  top: "conv1/7x7_s2"
  param {
    lr_mult: 1
    decay_mult: 1
  }
  param {
    lr_mult: 2
    decay_mult: 0
  }
  convolution_param {
    num_output: 64
    pad: 3
    kernel_size: 7
    stride: 2
    weight_filler {
      type: "xavier"
      std: 0.1
    }
    bias_filler {
      type: "constant"
      value: 0.2
    }
  }
}
layer {
  name: "conv1/relu_7x7"
  type: "ReLU"
  bottom: "conv1/7x7_s2"
  top: "conv1/7x7_s2"
}
layer {
  name: "pool1/3x3_s2"
  type: "Pooling"
  bottom: "conv1/7x7_s2"
  top: "pool1/3x3_s2"
  pooling_param {
    pool: MAX
    kernel_size: 3
    stride: 2
  }
}
layer {
  name: "pool1/norm1"
  type: "LRN"
  bottom: "pool1/3x3_s2"
  top: "pool1/norm1"
  lrn_param {
    local_size: 5
    alpha: 0.0001
    beta: 0.75
  }
}
layer {
  name: "conv2/3x3_reduce"
  type: "Convolution"
  bottom: "pool1/norm1"
  top: "conv2/3x3_reduce"
  param {
    lr_mult: 1
    decay_mult: 1
  }
  param {
    lr_mult: 2
    decay_mult: 0
  }
  convolution_param {
    num_output: 64
    kernel_size: 1
    weight_filler {
      type: "xavier"
      std: 0.1
    }
    bias_filler {
      type: "constant"
      value: 0.2
    }
  }
}
layer {
  name: "conv2/relu_3x3_reduce"
  type: "ReLU"
  bottom: "conv2/3x3_reduce"
  top: "conv2/3x3_reduce"
}
layer {
  name: "conv2/3x3"
  type: "Convolution"
  bottom: "conv2/3x3_reduce"
  top: "conv2/3x3"
  param {
    lr_mult: 1
    decay_mult: 1
  }
  param {
    lr_mult: 2
    decay_mult: 0
  }
  convolution_param {
    num_output: 192
    pad: 1
    kernel_size: 3
    weight_filler {
      type: "xavier"
      std: 0.03
    }
    bias_filler {
      type: "constant"
      value: 0.2
    }
  }
}
layer {
  name: "conv2/relu_3x3"
  type: "ReLU"
  bottom: "conv2/3x3"
  top: "conv2/3x3"
}
layer {
  name: "conv2/norm2"
  type: "LRN"
  bottom: "conv2/3x3"
  top: "conv2/norm2"
  lrn_param {
    local_size: 5
    alpha: 0.0001
    beta: 0.75
  }
}
layer {
  name: "pool2/3x3_s2"
  type: "Pooling"
  bottom: "conv2/norm2"
  top: "pool2/3x3_s2"
  pooling_param {
    pool: MAX
    kernel_size: 3
    stride: 2
  }
}
layer {
  name: "inception_3a/1x1"
  type: "Convolution"
  bottom: "pool2/3x3_s2"
  top: "inception_3a/1x1"
  param {
    lr_mult: 1
    decay_mult: 1
  }
  param {
    lr_mult: 2
    decay_mult: 0
  }
  convolution_param {
    num_output: 64
    kernel_size: 1
    weight_filler {
      type: "xavier"
      std: 0.03
    }
    bias_filler {
      type: "constant"
      value: 0.2
    }
  }
}
layer {
  name: "inception_3a/relu_1x1"
  type: "ReLU"
  bottom: "inception_3a/1x1"
  top: "inception_3a/1x1"
}
layer {
  name: "inception_3a/3x3_reduce"
  type: "Convolution"
  bottom: "pool2/3x3_s2"
  top: "inception_3a/3x3_reduce"
  param {
    lr_mult: 1
    decay_mult: 1
  }
  param {
    lr_mult: 2
    decay_mult: 0
  }
  convolution_param {
    num_output: 96
    kernel_size: 1
    weight_filler {
      type: "xavier"
      std: 0.09
    }
    bias_filler {
      type: "constant"
      value: 0.2
    }
  }
}
layer {
  name: "inception_3a/relu_3x3_reduce"
  type: "ReLU"
  bottom: "inception_3a/3x3_reduce"
  top: "inception_3a/3x3_reduce"
}
layer {
  name: "inception_3a/3x3"
  type: "Convolution"
  bottom: "inception_3a/3x3_reduce"
  top: "inception_3a/3x3"
  param {
    lr_mult: 1
    decay_mult: 1
  }
  param {
    lr_mult: 2
    decay_mult: 0
  }
  convolution_param {
    num_output: 128
    pad: 1
    kernel_size: 3
    weight_filler {
      type: "xavier"
      std: 0.03
    }
    bias_filler {
      type: "constant"
      value: 0.2
    }
  }
}
layer {
  name: "inception_3a/relu_3x3"
  type: "ReLU"
  bottom: "inception_3a/3x3"
  top: "inception_3a/3x3"
}
layer {
  name: "inception_3a/5x5_reduce"
  type: "Convolution"
  bottom: "pool2/3x3_s2"
  top: "inception_3a/5x5_reduce"
  param {
    lr_mult: 1
    decay_mult: 1
  }
  param {
    lr_mult: 2
    decay_mult: 0
  }
  convolution_param {
    num_output: 16
    kernel_size: 1
    weight_filler {
      type: "xavier"
      std: 0.2
    }
    bias_filler {
      type: "constant"
      value: 0.2
    }
  }
}
layer {
  name: "inception_3a/relu_5x5_reduce"
  type: "ReLU"
  bottom: "inception_3a/5x5_reduce"
  top: "inception_3a/5x5_reduce"
}
layer {
  name: "inception_3a/5x5"
  type: "Convolution"
  bottom: "inception_3a/5x5_reduce"
  top: "inception_3a/5x5"
  param {
    lr_mult: 1
    decay_mult: 1
  }
  param {
    lr_mult: 2
    decay_mult: 0
  }
  convolution_param {
    num_output: 32
    pad: 2
    kernel_size: 5
    weight_filler {
      type: "xavier"
      std: 0.03
    }
    bias_filler {
      type: "constant"
      value: 0.2
    }
  }
}
layer {
  name: "inception_3a/relu_5x5"
  type: "ReLU"
  bottom: "inception_3a/5x5"
  top: "inception_3a/5x5"
}
layer {
  name: "inception_3a/pool"
  type: "Pooling"
  bottom: "pool2/3x3_s2"
  top: "inception_3a/pool"
  pooling_param {
    pool: MAX
    kernel_size: 3
    stride: 1
    pad: 1
  }
}
layer {
  name: "inception_3a/pool_proj"
  type: "Convolution"
  bottom: "inception_3a/pool"
  top: "inception_3a/pool_proj"
  param {
    lr_mult: 1
    decay_mult: 1
  }
  param {
    lr_mult: 2
    decay_mult: 0
  }
  convolution_param {
    num_output: 32
    kernel_size: 1
    weight_filler {
      type: "xavier"
      std: 0.1
    }
    bias_filler {
      type: "constant"
      value: 0.2
    }
  }
}
layer {
  name: "inception_3a/relu_pool_proj"
  type: "ReLU"
  bottom: "inception_3a/pool_proj"
  top: "inception_3a/pool_proj"
}
layer {
  name: "inception_3a/output"
  type: "Concat"
  bottom: "inception_3a/1x1"
  bottom: "inception_3a/3x3"
  bottom: "inception_3a/5x5"
  bottom: "inception_3a/pool_proj"
  top: "inception_3a/output"
}
layer {
  name: "inception_3b/1x1"
  type: "Convolution"
  bottom: "inception_3a/output"
  top: "inception_3b/1x1"
  param {
    lr_mult: 1
    decay_mult: 1
  }
  param {
    lr_mult: 2
    decay_mult: 0
  }
  convolution_param {
    num_output: 128
    kernel_size: 1
    weight_filler {
      type: "xavier"
      std: 0.03
    }
    bias_filler {
      type: "constant"
      value: 0.2
    }
  }
}
layer {
  name: "inception_3b/relu_1x1"
  type: "ReLU"
  bottom: "inception_3b/1x1"
  top: "inception_3b/1x1"
}
layer {
  name: "inception_3b/3x3_reduce"
  type: "Convolution"
  bottom: "inception_3a/output"
  top: "inception_3b/3x3_reduce"
  param {
    lr_mult: 1
    decay_mult: 1
  }
  param {
    lr_mult: 2
    decay_mult: 0
  }
  convolution_param {
    num_output: 128
    kernel_size: 1
    weight_filler {
      type: "xavier"
      std: 0.09
    }
    bias_filler {
      type: "constant"
      value: 0.2
    }
  }
}
layer {
  name: "inception_3b/relu_3x3_reduce"
  type: "ReLU"
  bottom: "inception_3b/3x3_reduce"
  top: "inception_3b/3x3_reduce"
}
layer {
  name: "inception_3b/3x3"
  type: "Convolution"
  bottom: "inception_3b/3x3_reduce"
  top: "inception_3b/3x3"
  param {
    lr_mult: 1
    decay_mult: 1
  }
  param {
    lr_mult: 2
    decay_mult: 0
  }
  convolution_param {
    num_output: 192
    pad: 1
    kernel_size: 3
    weight_filler {
      type: "xavier"
      std: 0.03
    }
    bias_filler {
      type: "constant"
      value: 0.2
    }
  }
}
layer {
  name: "inception_3b/relu_3x3"
  type: "ReLU"
  bottom: "inception_3b/3x3"
  top: "inception_3b/3x3"
}
layer {
  name: "inception_3b/5x5_reduce"
  type: "Convolution"
  bottom: "inception_3a/output"
  top: "inception_3b/5x5_reduce"
  param {
    lr_mult: 1
    decay_mult: 1
  }
  param {
    lr_mult: 2
    decay_mult: 0
  }
  convolution_param {
    num_output: 32
    kernel_size: 1
    weight_filler {
      type: "xavier"
      std: 0.2
    }
    bias_filler {
      type: "constant"
      value: 0.2
    }
  }
}
layer {
  name: "inception_3b/relu_5x5_reduce"
  type: "ReLU"
  bottom: "inception_3b/5x5_reduce"
  top: "inception_3b/5x5_reduce"
}
layer {
  name: "inception_3b/5x5"
  type: "Convolution"
  bottom: "inception_3b/5x5_reduce"
  top: "inception_3b/5x5"
  param {
    lr_mult: 1
    decay_mult: 1
  }
  param {
    lr_mult: 2
    decay_mult: 0
  }
  convolution_param {
    num_output: 96
    pad: 2
    kernel_size: 5
    weight_filler {
      type: "xavier"
      std: 0.03
    }
    bias_filler {
      type: "constant"
      value: 0.2
    }
  }
}
layer {
  name: "inception_3b/relu_5x5"
  type: "ReLU"
  bottom: "inception_3b/5x5"
  top: "inception_3b/5x5"
}
layer {
  name: "inception_3b/pool"
  type: "Pooling"
  bottom: "inception_3a/output"
  top: "inception_3b/pool"
  pooling_param {
    pool: MAX
    kernel_size: 3
    stride: 1
    pad: 1
  }
}
layer {
  name: "inception_3b/pool_proj"
  type: "Convolution"
  bottom: "inception_3b/pool"
  top: "inception_3b/pool_proj"
  param {
    lr_mult: 1
    decay_mult: 1
  }
  param {
    lr_mult: 2
    decay_mult: 0
  }
  convolution_param {
    num_output: 64
    kernel_size: 1
    weight_filler {
      type: "xavier"
      std: 0.1
    }
    bias_filler {
      type: "constant"
      value: 0.2
    }
  }
}
layer {
  name: "inception_3b/relu_pool_proj"
  type: "ReLU"
  bottom: "inception_3b/pool_proj"
  top: "inception_3b/pool_proj"
}
layer {
  name: "inception_3b/output"
  type: "Concat"
  bottom: "inception_3b/1x1"
  bottom: "inception_3b/3x3"
  bottom: "inception_3b/5x5"
  bottom: "inception_3b/pool_proj"
  top: "inception_3b/output"
}
layer {
  name: "pool3/3x3_s2"
  type: "Pooling"
  bottom: "inception_3b/output"
  top: "pool3/3x3_s2"
  pooling_param {
    pool: MAX
    kernel_size: 3
    stride: 2
  }
}
layer {
  name: "inception_4a/1x1"
  type: "Convolution"
  bottom: "pool3/3x3_s2"
  top: "inception_4a/1x1"
  param {
    lr_mult: 1
    decay_mult: 1
  }
  param {
    lr_mult: 2
    decay_mult: 0
  }
  convolution_param {
    num_output: 192
    kernel_size: 1
    weight_filler {
      type: "xavier"
      std: 0.03
    }
    bias_filler {
      type: "constant"
      value: 0.2
    }
  }
}
layer {
  name: "inception_4a/relu_1x1"
  type: "ReLU"
  bottom: "inception_4a/1x1"
  top: "inception_4a/1x1"
}
layer {
  name: "inception_4a/3x3_reduce"
  type: "Convolution"
  bottom: "pool3/3x3_s2"
  top: "inception_4a/3x3_reduce"
  param {
    lr_mult: 1
    decay_mult: 1
  }
  param {
    lr_mult: 2
    decay_mult: 0
  }
  convolution_param {
    num_output: 96
    kernel_size: 1
    weight_filler {
      type: "xavier"
      std: 0.09
    }
    bias_filler {
      type: "constant"
      value: 0.2
    }
  }
}
layer {
  name: "inception_4a/relu_3x3_reduce"
  type: "ReLU"
  bottom: "inception_4a/3x3_reduce"
  top: "inception_4a/3x3_reduce"
}
layer {
  name: "inception_4a/3x3"
  type: "Convolution"
  bottom: "inception_4a/3x3_reduce"
  top: "inception_4a/3x3"
  param {
    lr_mult: 1
    decay_mult: 1
  }
  param {
    lr_mult: 2
    decay_mult: 0
  }
  convolution_param {
    num_output: 208
    pad: 1
    kernel_size: 3
    weight_filler {
      type: "xavier"
      std: 0.03
    }
    bias_filler {
      type: "constant"
      value: 0.2
    }
  }
}
layer {
  name: "inception_4a/relu_3x3"
  type: "ReLU"
  bottom: "inception_4a/3x3"
  top: "inception_4a/3x3"
}
layer {
  name: "inception_4a/5x5_reduce"
  type: "Convolution"
  bottom: "pool3/3x3_s2"
  top: "inception_4a/5x5_reduce"
  param {
    lr_mult: 1
    decay_mult: 1
  }
  param {
    lr_mult: 2
    decay_mult: 0
  }
  convolution_param {
    num_output: 16
    kernel_size: 1
    weight_filler {
      type: "xavier"
      std: 0.2
    }
    bias_filler {
      type: "constant"
      value: 0.2
    }
  }
}
layer {
  name: "inception_4a/relu_5x5_reduce"
  type: "ReLU"
  bottom: "inception_4a/5x5_reduce"
  top: "inception_4a/5x5_reduce"
}
layer {
  name: "inception_4a/5x5"
  type: "Convolution"
  bottom: "inception_4a/5x5_reduce"
  top: "inception_4a/5x5"
  param {
    lr_mult: 1
    decay_mult: 1
  }
  param {
    lr_mult: 2
    decay_mult: 0
  }
  convolution_param {
    num_output: 48
    pad: 2
    kernel_size: 5
    weight_filler {
      type: "xavier"
      std: 0.03
    }
    bias_filler {
      type: "constant"
      value: 0.2
    }
  }
}
layer {
  name: "inception_4a/relu_5x5"
  type: "ReLU"
  bottom: "inception_4a/5x5"
  top: "inception_4a/5x5"
}
layer {
  name: "inception_4a/pool"
  type: "Pooling"
  bottom: "pool3/3x3_s2"
  top: "inception_4a/pool"
  pooling_param {
    pool: MAX
    kernel_size: 3
    stride: 1
    pad: 1
  }
}
layer {
  name: "inception_4a/pool_proj"
  type: "Convolution"
  bottom: "inception_4a/pool"
  top: "inception_4a/pool_proj"
  param {
    lr_mult: 1
    decay_mult: 1
  }
  param {
    lr_mult: 2
    decay_mult: 0
  }
  convolution_param {
    num_output: 64
    kernel_size: 1
    weight_filler {
      type: "xavier"
      std: 0.1
    }
    bias_filler {
      type: "constant"
      value: 0.2
    }
  }
}
layer {
  name: "inception_4a/relu_pool_proj"
  type: "ReLU"
  bottom: "inception_4a/pool_proj"
  top: "inception_4a/pool_proj"
}
layer {
  name: "inception_4a/output"
  type: "Concat"
  bottom: "inception_4a/1x1"
  bottom: "inception_4a/3x3"
  bottom: "inception_4a/5x5"
  bottom: "inception_4a/pool_proj"
  top: "inception_4a/output"
}
layer {
  name: "inception_4b/1x1"
  type: "Convolution"
  bottom: "inception_4a/output"
  top: "inception_4b/1x1"
  param {
    lr_mult: 1
    decay_mult: 1
  }
  param {
    lr_mult: 2
    decay_mult: 0
  }
  convolution_param {
    num_output: 160
    kernel_size: 1
    weight_filler {
      type: "xavier"
      std: 0.03
    }
    bias_filler {
      type: "constant"
      value: 0.2
    }
  }
}
layer {
  name: "inception_4b/relu_1x1"
  type: "ReLU"
  bottom: "inception_4b/1x1"
  top: "inception_4b/1x1"
}
layer {
  name: "inception_4b/3x3_reduce"
  type: "Convolution"
  bottom: "inception_4a/output"
  top: "inception_4b/3x3_reduce"
  param {
    lr_mult: 1
    decay_mult: 1
  }
  param {
    lr_mult: 2
    decay_mult: 0
  }
  convolution_param {
    num_output: 112
    kernel_size: 1
    weight_filler {
      type: "xavier"
      std: 0.09
    }
    bias_filler {
      type: "constant"
      value: 0.2
    }
  }
}
layer {
  name: "inception_4b/relu_3x3_reduce"
  type: "ReLU"
  bottom: "inception_4b/3x3_reduce"
  top: "inception_4b/3x3_reduce"
}
layer {
  name: "inception_4b/3x3"
  type: "Convolution"
  bottom: "inception_4b/3x3_reduce"
  top: "inception_4b/3x3"
  param {
    lr_mult: 1
    decay_mult: 1
  }
  param {
    lr_mult: 2
    decay_mult: 0
  }
  convolution_param {
    num_output: 224
    pad: 1
    kernel_size: 3
    weight_filler {
      type: "xavier"
      std: 0.03
    }
    bias_filler {
      type: "constant"
      value: 0.2
    }
  }
}
layer {
  name: "inception_4b/relu_3x3"
  type: "ReLU"
  bottom: "inception_4b/3x3"
  top: "inception_4b/3x3"
}
layer {
  name: "inception_4b/5x5_reduce"
  type: "Convolution"
  bottom: "inception_4a/output"
  top: "inception_4b/5x5_reduce"
  param {
    lr_mult: 1
    decay_mult: 1
  }
  param {
    lr_mult: 2
    decay_mult: 0
  }
  convolution_param {
    num_output: 24
    kernel_size: 1
    weight_filler {
      type: "xavier"
      std: 0.2
    }
    bias_filler {
      type: "constant"
      value: 0.2
    }
  }
}
layer {
  name: "inception_4b/relu_5x5_reduce"
  type: "ReLU"
  bottom: "inception_4b/5x5_reduce"
  top: "inception_4b/5x5_reduce"
}
layer {
  name: "inception_4b/5x5"
  type: "Convolution"
  bottom: "inception_4b/5x5_reduce"
  top: "inception_4b/5x5"
  param {
    lr_mult: 1
    decay_mult: 1
  }
  param {
    lr_mult: 2
    decay_mult: 0
  }
  convolution_param {
    num_output: 64
    pad: 2
    kernel_size: 5
    weight_filler {
      type: "xavier"
      std: 0.03
    }
    bias_filler {
      type: "constant"
      value: 0.2
    }
  }
}
layer {
  name: "inception_4b/relu_5x5"
  type: "ReLU"
  bottom: "inception_4b/5x5"
  top: "inception_4b/5x5"
}
layer {
  name: "inception_4b/pool"
  type: "Pooling"
  bottom: "inception_4a/output"
  top: "inception_4b/pool"
  pooling_param {
    pool: MAX
    kernel_size: 3
    stride: 1
    pad: 1
  }
}
layer {
  name: "inception_4b/pool_proj"
  type: "Convolution"
  bottom: "inception_4b/pool"
  top: "inception_4b/pool_proj"
  param {
    lr_mult: 1
    decay_mult: 1
  }
  param {
    lr_mult: 2
    decay_mult: 0
  }
  convolution_param {
    num_output: 64
    kernel_size: 1
    weight_filler {
      type: "xavier"
      std: 0.1
    }
    bias_filler {
      type: "constant"
      value: 0.2
    }
  }
}
layer {
  name: "inception_4b/relu_pool_proj"
  type: "ReLU"
  bottom: "inception_4b/pool_proj"
  top: "inception_4b/pool_proj"
}
layer {
  name: "inception_4b/output"
  type: "Concat"
  bottom: "inception_4b/1x1"
  bottom: "inception_4b/3x3"
  bottom: "inception_4b/5x5"
  bottom: "inception_4b/pool_proj"
  top: "inception_4b/output"
}
layer {
  name: "inception_4c/1x1"
  type: "Convolution"
  bottom: "inception_4b/output"
  top: "inception_4c/1x1"
  param {
    lr_mult: 1
    decay_mult: 1
  }
  param {
    lr_mult: 2
    decay_mult: 0
  }
  convolution_param {
    num_output: 128
    kernel_size: 1
    weight_filler {
      type: "xavier"
      std: 0.03
    }
    bias_filler {
      type: "constant"
      value: 0.2
    }
  }
}
layer {
  name: "inception_4c/relu_1x1"
  type: "ReLU"
  bottom: "inception_4c/1x1"
  top: "inception_4c/1x1"
}
layer {
  name: "inception_4c/3x3_reduce"
  type: "Convolution"
  bottom: "inception_4b/output"
  top: "inception_4c/3x3_reduce"
  param {
    lr_mult: 1
    decay_mult: 1
  }
  param {
    lr_mult: 2
    decay_mult: 0
  }
  convolution_param {
    num_output: 128
    kernel_size: 1
    weight_filler {
      type: "xavier"
      std: 0.09
    }
    bias_filler {
      type: "constant"
      value: 0.2
    }
  }
}
layer {
  name: "inception_4c/relu_3x3_reduce"
  type: "ReLU"
  bottom: "inception_4c/3x3_reduce"
  top: "inception_4c/3x3_reduce"
}
layer {
  name: "inception_4c/3x3"
  type: "Convolution"
  bottom: "inception_4c/3x3_reduce"
  top: "inception_4c/3x3"
  param {
    lr_mult: 1
    decay_mult: 1
  }
  param {
    lr_mult: 2
    decay_mult: 0
  }
  convolution_param {
    num_output: 256
    pad: 1
    kernel_size: 3
    weight_filler {
      type: "xavier"
      std: 0.03
    }
    bias_filler {
      type: "constant"
      value: 0.2
    }
  }
}
layer {
  name: "inception_4c/relu_3x3"
  type: "ReLU"
  bottom: "inception_4c/3x3"
  top: "inception_4c/3x3"
}
layer {
  name: "inception_4c/5x5_reduce"
  type: "Convolution"
  bottom: "inception_4b/output"
  top: "inception_4c/5x5_reduce"
  param {
    lr_mult: 1
    decay_mult: 1
  }
  param {
    lr_mult: 2
    decay_mult: 0
  }
  convolution_param {
    num_output: 24
    kernel_size: 1
    weight_filler {
      type: "xavier"
      std: 0.2
    }
    bias_filler {
      type: "constant"
      value: 0.2
    }
  }
}
layer {
  name: "inception_4c/relu_5x5_reduce"
  type: "ReLU"
  bottom: "inception_4c/5x5_reduce"
  top: "inception_4c/5x5_reduce"
}
layer {
  name: "inception_4c/5x5"
  type: "Convolution"
  bottom: "inception_4c/5x5_reduce"
  top: "inception_4c/5x5"
  param {
    lr_mult: 1
    decay_mult: 1
  }
  param {
    lr_mult: 2
    decay_mult: 0
  }
  convolution_param {
    num_output: 64
    pad: 2
    kernel_size: 5
    weight_filler {
      type: "xavier"
      std: 0.03
    }
    bias_filler {
      type: "constant"
      value: 0.2
    }
  }
}
layer {
  name: "inception_4c/relu_5x5"
  type: "ReLU"
  bottom: "inception_4c/5x5"
  top: "inception_4c/5x5"
}
layer {
  name: "inception_4c/pool"
  type: "Pooling"
  bottom: "inception_4b/output"
  top: "inception_4c/pool"
  pooling_param {
    pool: MAX
    kernel_size: 3
    stride: 1
    pad: 1
  }
}
layer {
  name: "inception_4c/pool_proj"
  type: "Convolution"
  bottom: "inception_4c/pool"
  top: "inception_4c/pool_proj"
  param {
    lr_mult: 1
    decay_mult: 1
  }
  param {
    lr_mult: 2
    decay_mult: 0
  }
  convolution_param {
    num_output: 64
    kernel_size: 1
    weight_filler {
      type: "xavier"
      std: 0.1
    }
    bias_filler {
      type: "constant"
      value: 0.2
    }
  }
}
layer {
  name: "inception_4c/relu_pool_proj"
  type: "ReLU"
  bottom: "inception_4c/pool_proj"
  top: "inception_4c/pool_proj"
}
layer {
  name: "inception_4c/output"
  type: "Concat"
  bottom: "inception_4c/1x1"
  bottom: "inception_4c/3x3"
  bottom: "inception_4c/5x5"
  bottom: "inception_4c/pool_proj"
  top: "inception_4c/output"
}
layer {
  name: "inception_4d/1x1"
  type: "Convolution"
  bottom: "inception_4c/output"
  top: "inception_4d/1x1"
  param {
    lr_mult: 1
    decay_mult: 1
  }
  param {
    lr_mult: 2
    decay_mult: 0
  }
  convolution_param {
    num_output: 112
    kernel_size: 1
    weight_filler {
      type: "xavier"
      std: 0.03
    }
    bias_filler {
      type: "constant"
      value: 0.2
    }
  }
}
layer {
  name: "inception_4d/relu_1x1"
  type: "ReLU"
  bottom: "inception_4d/1x1"
  top: "inception_4d/1x1"
}
layer {
  name: "inception_4d/3x3_reduce"
  type: "Convolution"
  bottom: "inception_4c/output"
  top: "inception_4d/3x3_reduce"
  param {
    lr_mult: 1
    decay_mult: 1
  }
  param {
    lr_mult: 2
    decay_mult: 0
  }
  convolution_param {
    num_output: 144
    kernel_size: 1
    weight_filler {
      type: "xavier"
      std: 0.09
    }
    bias_filler {
      type: "constant"
      value: 0.2
    }
  }
}
layer {
  name: "inception_4d/relu_3x3_reduce"
  type: "ReLU"
  bottom: "inception_4d/3x3_reduce"
  top: "inception_4d/3x3_reduce"
}
layer {
  name: "inception_4d/3x3"
  type: "Convolution"
  bottom: "inception_4d/3x3_reduce"
  top: "inception_4d/3x3"
  param {
    lr_mult: 1
    decay_mult: 1
  }
  param {
    lr_mult: 2
    decay_mult: 0
  }
  convolution_param {
    num_output: 288
    pad: 1
    kernel_size: 3
    weight_filler {
      type: "xavier"
      std: 0.03
    }
    bias_filler {
      type: "constant"
      value: 0.2
    }
  }
}
layer {
  name: "inception_4d/relu_3x3"
  type: "ReLU"
  bottom: "inception_4d/3x3"
  top: "inception_4d/3x3"
}
layer {
  name: "inception_4d/5x5_reduce"
  type: "Convolution"
  bottom: "inception_4c/output"
  top: "inception_4d/5x5_reduce"
  param {
    lr_mult: 1
    decay_mult: 1
  }
  param {
    lr_mult: 2
    decay_mult: 0
  }
  convolution_param {
    num_output: 32
    kernel_size: 1
    weight_filler {
      type: "xavier"
      std: 0.2
    }
    bias_filler {
      type: "constant"
      value: 0.2
    }
  }
}
layer {
  name: "inception_4d/relu_5x5_reduce"
  type: "ReLU"
  bottom: "inception_4d/5x5_reduce"
  top: "inception_4d/5x5_reduce"
}
layer {
  name: "inception_4d/5x5"
  type: "Convolution"
  bottom: "inception_4d/5x5_reduce"
  top: "inception_4d/5x5"
  param {
    lr_mult: 1
    decay_mult: 1
  }
  param {
    lr_mult: 2
    decay_mult: 0
  }
  convolution_param {
    num_output: 64
    pad: 2
    kernel_size: 5
    weight_filler {
      type: "xavier"
      std: 0.03
    }
    bias_filler {
      type: "constant"
      value: 0.2
    }
  }
}
layer {
  name: "inception_4d/relu_5x5"
  type: "ReLU"
  bottom: "inception_4d/5x5"
  top: "inception_4d/5x5"
}
layer {
  name: "inception_4d/pool"
  type: "Pooling"
  bottom: "inception_4c/output"
  top: "inception_4d/pool"
  pooling_param {
    pool: MAX
    kernel_size: 3
    stride: 1
    pad: 1
  }
}
layer {
  name: "inception_4d/pool_proj"
  type: "Convolution"
  bottom: "inception_4d/pool"
  top: "inception_4d/pool_proj"
  param {
    lr_mult: 1
    decay_mult: 1
  }
  param {
    lr_mult: 2
    decay_mult: 0
  }
  convolution_param {
    num_output: 64
    kernel_size: 1
    weight_filler {
      type: "xavier"
      std: 0.1
    }
    bias_filler {
      type: "constant"
      value: 0.2
    }
  }
}
layer {
  name: "inception_4d/relu_pool_proj"
  type: "ReLU"
  bottom: "inception_4d/pool_proj"
  top: "inception_4d/pool_proj"
}
layer {
  name: "inception_4d/output"
  type: "Concat"
  bottom: "inception_4d/1x1"
…
I1130 01:52:53.042557 24969 net.cpp:406] inception_4c/1x1 <- inception_4b/output_inception_4b/output_0_split_0
I1130 01:52:53.042564 24969 net.cpp:380] inception_4c/1x1 -> inception_4c/1x1
I1130 01:52:53.043368 24969 net.cpp:122] Setting up inception_4c/1x1
I1130 01:52:53.043416 24969 net.cpp:129] Top shape: 32 128 14 14 (802816)
I1130 01:52:53.043421 24969 net.cpp:137] Memory required for data: 1359569280
I1130 01:52:53.043442 24969 layer_factory.hpp:77] Creating layer inception_4c/relu_1x1
I1130 01:52:53.043450 24969 net.cpp:84] Creating Layer inception_4c/relu_1x1
I1130 01:52:53.043455 24969 net.cpp:406] inception_4c/relu_1x1 <- inception_4c/1x1
I1130 01:52:53.043460 24969 net.cpp:367] inception_4c/relu_1x1 -> inception_4c/1x1 (in-place)
I1130 01:52:53.043468 24969 net.cpp:122] Setting up inception_4c/relu_1x1
I1130 01:52:53.043473 24969 net.cpp:129] Top shape: 32 128 14 14 (802816)
I1130 01:52:53.043499 24969 net.cpp:137] Memory required for data: 1362780544
I1130 01:52:53.043503 24969 layer_factory.hpp:77] Creating layer inception_4c/3x3_reduce
I1130 01:52:53.043511 24969 net.cpp:84] Creating Layer inception_4c/3x3_reduce
I1130 01:52:53.043517 24969 net.cpp:406] inception_4c/3x3_reduce <- inception_4b/output_inception_4b/output_0_split_1
I1130 01:52:53.043524 24969 net.cpp:380] inception_4c/3x3_reduce -> inception_4c/3x3_reduce
I1130 01:52:53.044364 24969 net.cpp:122] Setting up inception_4c/3x3_reduce
I1130 01:52:53.044374 24969 net.cpp:129] Top shape: 32 128 14 14 (802816)
I1130 01:52:53.044399 24969 net.cpp:137] Memory required for data: 1365991808
I1130 01:52:53.044406 24969 layer_factory.hpp:77] Creating layer inception_4c/relu_3x3_reduce
I1130 01:52:53.044412 24969 net.cpp:84] Creating Layer inception_4c/relu_3x3_reduce
I1130 01:52:53.044419 24969 net.cpp:406] inception_4c/relu_3x3_reduce <- inception_4c/3x3_reduce
I1130 01:52:53.044423 24969 net.cpp:367] inception_4c/relu_3x3_reduce -> inception_4c/3x3_reduce (in-place)
I1130 01:52:53.044450 24969 net.cpp:122] Setting up inception_4c/relu_3x3_reduce
I1130 01:52:53.044457 24969 net.cpp:129] Top shape: 32 128 14 14 (802816)
I1130 01:52:53.044462 24969 net.cpp:137] Memory required for data: 1369203072
I1130 01:52:53.044467 24969 layer_factory.hpp:77] Creating layer inception_4c/3x3
I1130 01:52:53.044504 24969 net.cpp:84] Creating Layer inception_4c/3x3
I1130 01:52:53.044512 24969 net.cpp:406] inception_4c/3x3 <- inception_4c/3x3_reduce
I1130 01:52:53.044522 24969 net.cpp:380] inception_4c/3x3 -> inception_4c/3x3
I1130 01:52:53.047567 24969 net.cpp:122] Setting up inception_4c/3x3
I1130 01:52:53.047600 24969 net.cpp:129] Top shape: 32 256 14 14 (1605632)
I1130 01:52:53.047607 24969 net.cpp:137] Memory required for data: 1375625600
I1130 01:52:53.047614 24969 layer_factory.hpp:77] Creating layer inception_4c/relu_3x3
I1130 01:52:53.047621 24969 net.cpp:84] Creating Layer inception_4c/relu_3x3
I1130 01:52:53.047643 24969 net.cpp:406] inception_4c/relu_3x3 <- inception_4c/3x3
I1130 01:52:53.047652 24969 net.cpp:367] inception_4c/relu_3x3 -> inception_4c/3x3 (in-place)
I1130 01:52:53.047659 24969 net.cpp:122] Setting up inception_4c/relu_3x3
I1130 01:52:53.047665 24969 net.cpp:129] Top shape: 32 256 14 14 (1605632)
I1130 01:52:53.047668 24969 net.cpp:137] Memory required for data: 1382048128
I1130 01:52:53.047674 24969 layer_factory.hpp:77] Creating layer inception_4c/5x5_reduce
I1130 01:52:53.047699 24969 net.cpp:84] Creating Layer inception_4c/5x5_reduce
I1130 01:52:53.047705 24969 net.cpp:406] inception_4c/5x5_reduce <- inception_4b/output_inception_4b/output_0_split_2
I1130 01:52:53.047713 24969 net.cpp:380] inception_4c/5x5_reduce -> inception_4c/5x5_reduce
I1130 01:52:53.048202 24969 net.cpp:122] Setting up inception_4c/5x5_reduce
I1130 01:52:53.048213 24969 net.cpp:129] Top shape: 32 24 14 14 (150528)
I1130 01:52:53.048215 24969 net.cpp:137] Memory required for data: 1382650240
I1130 01:52:53.048223 24969 layer_factory.hpp:77] Creating layer inception_4c/relu_5x5_reduce
I1130 01:52:53.048249 24969 net.cpp:84] Creating Layer inception_4c/relu_5x5_reduce
I1130 01:52:53.048254 24969 net.cpp:406] inception_4c/relu_5x5_reduce <- inception_4c/5x5_reduce
I1130 01:52:53.048260 24969 net.cpp:367] inception_4c/relu_5x5_reduce -> inception_4c/5x5_reduce (in-place)
I1130 01:52:53.048267 24969 net.cpp:122] Setting up inception_4c/relu_5x5_reduce
I1130 01:52:53.048274 24969 net.cpp:129] Top shape: 32 24 14 14 (150528)
I1130 01:52:53.048295 24969 net.cpp:137] Memory required for data: 1383252352
I1130 01:52:53.048301 24969 layer_factory.hpp:77] Creating layer inception_4c/5x5
I1130 01:52:53.048310 24969 net.cpp:84] Creating Layer inception_4c/5x5
I1130 01:52:53.048316 24969 net.cpp:406] inception_4c/5x5 <- inception_4c/5x5_reduce
I1130 01:52:53.048322 24969 net.cpp:380] inception_4c/5x5 -> inception_4c/5x5
I1130 01:52:53.048974 24969 net.cpp:122] Setting up inception_4c/5x5
I1130 01:52:53.049015 24969 net.cpp:129] Top shape: 32 64 14 14 (401408)
I1130 01:52:53.049021 24969 net.cpp:137] Memory required for data: 1384857984
I1130 01:52:53.049028 24969 layer_factory.hpp:77] Creating layer inception_4c/relu_5x5
I1130 01:52:53.049054 24969 net.cpp:84] Creating Layer inception_4c/relu_5x5
I1130 01:52:53.049060 24969 net.cpp:406] inception_4c/relu_5x5 <- inception_4c/5x5
I1130 01:52:53.049067 24969 net.cpp:367] inception_4c/relu_5x5 -> inception_4c/5x5 (in-place)
I1130 01:52:53.049074 24969 net.cpp:122] Setting up inception_4c/relu_5x5
I1130 01:52:53.049096 24969 net.cpp:129] Top shape: 32 64 14 14 (401408)
I1130 01:52:53.049103 24969 net.cpp:137] Memory required for data: 1386463616
I1130 01:52:53.049106 24969 layer_factory.hpp:77] Creating layer inception_4c/pool
I1130 01:52:53.049113 24969 net.cpp:84] Creating Layer inception_4c/pool
I1130 01:52:53.049118 24969 net.cpp:406] inception_4c/pool <- inception_4b/output_inception_4b/output_0_split_3
I1130 01:52:53.049124 24969 net.cpp:380] inception_4c/pool -> inception_4c/pool
I1130 01:52:53.049194 24969 net.cpp:122] Setting up inception_4c/pool
I1130 01:52:53.049206 24969 net.cpp:129] Top shape: 32 512 14 14 (3211264)
I1130 01:52:53.049209 24969 net.cpp:137] Memory required for data: 1399308672
I1130 01:52:53.049214 24969 layer_factory.hpp:77] Creating layer inception_4c/pool_proj
I1130 01:52:53.049223 24969 net.cpp:84] Creating Layer inception_4c/pool_proj
I1130 01:52:53.049239 24969 net.cpp:406] inception_4c/pool_proj <- inception_4c/pool
I1130 01:52:53.049248 24969 net.cpp:380] inception_4c/pool_proj -> inception_4c/pool_proj
I1130 01:52:53.049860 24969 net.cpp:122] Setting up inception_4c/pool_proj
I1130 01:52:53.049870 24969 net.cpp:129] Top shape: 32 64 14 14 (401408)
I1130 01:52:53.049873 24969 net.cpp:137] Memory required for data: 1400914304
I1130 01:52:53.049909 24969 layer_factory.hpp:77] Creating layer inception_4c/relu_pool_proj
I1130 01:52:53.049917 24969 net.cpp:84] Creating Layer inception_4c/relu_pool_proj
I1130 01:52:53.049922 24969 net.cpp:406] inception_4c/relu_pool_proj <- inception_4c/pool_proj
I1130 01:52:53.049928 24969 net.cpp:367] inception_4c/relu_pool_proj -> inception_4c/pool_proj (in-place)
I1130 01:52:53.049957 24969 net.cpp:122] Setting up inception_4c/relu_pool_proj
I1130 01:52:53.049962 24969 net.cpp:129] Top shape: 32 64 14 14 (401408)
I1130 01:52:53.049967 24969 net.cpp:137] Memory required for data: 1402519936
I1130 01:52:53.049971 24969 layer_factory.hpp:77] Creating layer inception_4c/output
I1130 01:52:53.049978 24969 net.cpp:84] Creating Layer inception_4c/output
I1130 01:52:53.049998 24969 net.cpp:406] inception_4c/output <- inception_4c/1x1
I1130 01:52:53.050004 24969 net.cpp:406] inception_4c/output <- inception_4c/3x3
I1130 01:52:53.050009 24969 net.cpp:406] inception_4c/output <- inception_4c/5x5
I1130 01:52:53.050014 24969 net.cpp:406] inception_4c/output <- inception_4c/pool_proj
I1130 01:52:53.050020 24969 net.cpp:380] inception_4c/output -> inception_4c/output
I1130 01:52:53.050067 24969 net.cpp:122] Setting up inception_4c/output
I1130 01:52:53.050076 24969 net.cpp:129] Top shape: 32 512 14 14 (3211264)
I1130 01:52:53.050113 24969 net.cpp:137] Memory required for data: 1415364992
I1130 01:52:53.050120 24969 layer_factory.hpp:77] Creating layer inception_4c/output_inception_4c/output_0_split
I1130 01:52:53.050127 24969 net.cpp:84] Creating Layer inception_4c/output_inception_4c/output_0_split
I1130 01:52:53.050151 24969 net.cpp:406] inception_4c/output_inception_4c/output_0_split <- inception_4c/output
I1130 01:52:53.050158 24969 net.cpp:380] inception_4c/output_inception_4c/output_0_split -> inception_4c/output_inception_4c/output_0_split_0
I1130 01:52:53.050166 24969 net.cpp:380] inception_4c/output_inception_4c/output_0_split -> inception_4c/output_inception_4c/output_0_split_1
I1130 01:52:53.050173 24969 net.cpp:380] inception_4c/output_inception_4c/output_0_split -> inception_4c/output_inception_4c/output_0_split_2
I1130 01:52:53.050196 24969 net.cpp:380] inception_4c/output_inception_4c/output_0_split -> inception_4c/output_inception_4c/output_0_split_3
I1130 01:52:53.050276 24969 net.cpp:122] Setting up inception_4c/output_inception_4c/output_0_split
I1130 01:52:53.050299 24969 net.cpp:129] Top shape: 32 512 14 14 (3211264)
I1130 01:52:53.050305 24969 net.cpp:129] Top shape: 32 512 14 14 (3211264)
I1130 01:52:53.050310 24969 net.cpp:129] Top shape: 32 512 14 14 (3211264)
I1130 01:52:53.050315 24969 net.cpp:129] Top shape: 32 512 14 14 (3211264)
I1130 01:52:53.050319 24969 net.cpp:137] Memory required for data: 1466745216
I1130 01:52:53.050323 24969 layer_factory.hpp:77] Creating layer inception_4d/1x1
I1130 01:52:53.050353 24969 net.cpp:84] Creating Layer inception_4d/1x1
I1130 01:52:53.050359 24969 net.cpp:406] inception_4d/1x1 <- inception_4c/output_inception_4c/output_0_split_0
I1130 01:52:53.050365 24969 net.cpp:380] inception_4d/1x1 -> inception_4d/1x1
I1130 01:52:53.051728 24969 net.cpp:122] Setting up inception_4d/1x1
I1130 01:52:53.051795 24969 net.cpp:129] Top shape: 32 112 14 14 (702464)
I1130 01:52:53.051801 24969 net.cpp:137] Memory required for data: 1469555072
I1130 01:52:53.051808 24969 layer_factory.hpp:77] Creating layer inception_4d/relu_1x1
I1130 01:52:53.051815 24969 net.cpp:84] Creating Layer inception_4d/relu_1x1
I1130 01:52:53.051821 24969 net.cpp:406] inception_4d/relu_1x1 <- inception_4d/1x1
I1130 01:52:53.051827 24969 net.cpp:367] inception_4d/relu_1x1 -> inception_4d/1x1 (in-place)
I1130 01:52:53.051851 24969 net.cpp:122] Setting up inception_4d/relu_1x1
I1130 01:52:53.051857 24969 net.cpp:129] Top shape: 32 112 14 14 (702464)
I1130 01:52:53.051862 24969 net.cpp:137] Memory required for data: 1472364928
I1130 01:52:53.051867 24969 layer_factory.hpp:77] Creating layer inception_4d/3x3_reduce
I1130 01:52:53.051875 24969 net.cpp:84] Creating Layer inception_4d/3x3_reduce
I1130 01:52:53.051880 24969 net.cpp:406] inception_4d/3x3_reduce <- inception_4c/output_inception_4c/output_0_split_1
I1130 01:52:53.051904 24969 net.cpp:380] inception_4d/3x3_reduce -> inception_4d/3x3_reduce
I1130 01:52:53.052765 24969 net.cpp:122] Setting up inception_4d/3x3_reduce
I1130 01:52:53.052775 24969 net.cpp:129] Top shape: 32 144 14 14 (903168)
I1130 01:52:53.052778 24969 net.cpp:137] Memory required for data: 1475977600
I1130 01:52:53.052803 24969 layer_factory.hpp:77] Creating layer inception_4d/relu_3x3_reduce
I1130 01:52:53.052810 24969 net.cpp:84] Creating Layer inception_4d/relu_3x3_reduce
I1130 01:52:53.052816 24969 net.cpp:406] inception_4d/relu_3x3_reduce <- inception_4d/3x3_reduce
I1130 01:52:53.052821 24969 net.cpp:367] inception_4d/relu_3x3_reduce -> inception_4d/3x3_reduce (in-place)
I1130 01:52:53.052829 24969 net.cpp:122] Setting up inception_4d/relu_3x3_reduce
I1130 01:52:53.052850 24969 net.cpp:129] Top shape: 32 144 14 14 (903168)
I1130 01:52:53.052855 24969 net.cpp:137] Memory required for data: 1479590272
I1130 01:52:53.052860 24969 layer_factory.hpp:77] Creating layer inception_4d/3x3
I1130 01:52:53.052868 24969 net.cpp:84] Creating Layer inception_4d/3x3
I1130 01:52:53.052873 24969 net.cpp:406] inception_4d/3x3 <- inception_4d/3x3_reduce
I1130 01:52:53.052880 24969 net.cpp:380] inception_4d/3x3 -> inception_4d/3x3
I1130 01:52:53.056571 24969 net.cpp:122] Setting up inception_4d/3x3
I1130 01:52:53.056582 24969 net.cpp:129] Top shape: 32 288 14 14 (1806336)
I1130 01:52:53.056607 24969 net.cpp:137] Memory required for data: 1486815616
I1130 01:52:53.056615 24969 layer_factory.hpp:77] Creating layer inception_4d/relu_3x3
I1130 01:52:53.056622 24969 net.cpp:84] Creating Layer inception_4d/relu_3x3
I1130 01:52:53.056628 24969 net.cpp:406] inception_4d/relu_3x3 <- inception_4d/3x3
I1130 01:52:53.056649 24969 net.cpp:367] inception_4d/relu_3x3 -> inception_4d/3x3 (in-place)
I1130 01:52:53.056659 24969 net.cpp:122] Setting up inception_4d/relu_3x3
I1130 01:52:53.056665 24969 net.cpp:129] Top shape: 32 288 14 14 (1806336)
I1130 01:52:53.056669 24969 net.cpp:137] Memory required for data: 1494040960
I1130 01:52:53.056674 24969 layer_factory.hpp:77] Creating layer inception_4d/5x5_reduce
I1130 01:52:53.056681 24969 net.cpp:84] Creating Layer inception_4d/5x5_reduce
I1130 01:52:53.056704 24969 net.cpp:406] inception_4d/5x5_reduce <- inception_4c/output_inception_4c/output_0_split_2
I1130 01:52:53.056713 24969 net.cpp:380] inception_4d/5x5_reduce -> inception_4d/5x5_reduce
I1130 01:52:53.057222 24969 net.cpp:122] Setting up inception_4d/5x5_reduce
I1130 01:52:53.057231 24969 net.cpp:129] Top shape: 32 32 14 14 (200704)
I1130 01:52:53.057258 24969 net.cpp:137] Memory required for data: 1494843776
I1130 01:52:53.057266 24969 layer_factory.hpp:77] Creating layer inception_4d/relu_5x5_reduce
I1130 01:52:53.057272 24969 net.cpp:84] Creating Layer inception_4d/relu_5x5_reduce
I1130 01:52:53.057278 24969 net.cpp:406] inception_4d/relu_5x5_reduce <- inception_4d/5x5_reduce
I1130 01:52:53.057298 24969 net.cpp:367] inception_4d/relu_5x5_reduce -> inception_4d/5x5_reduce (in-place)
I1130 01:52:53.057307 24969 net.cpp:122] Setting up inception_4d/relu_5x5_reduce
I1130 01:52:53.057313 24969 net.cpp:129] Top shape: 32 32 14 14 (200704)
I1130 01:52:53.057317 24969 net.cpp:137] Memory required for data: 1495646592
I1130 01:52:53.057322 24969 layer_factory.hpp:77] Creating layer inception_4d/5x5
I1130 01:52:53.057330 24969 net.cpp:84] Creating Layer inception_4d/5x5
I1130 01:52:53.057369 24969 net.cpp:406] inception_4d/5x5 <- inception_4d/5x5_reduce
I1130 01:52:53.057379 24969 net.cpp:380] inception_4d/5x5 -> inception_4d/5x5
I1130 01:52:53.058097 24969 net.cpp:122] Setting up inception_4d/5x5
I1130 01:52:53.058107 24969 net.cpp:129] Top shape: 32 64 14 14 (401408)
I1130 01:52:53.058112 24969 net.cpp:137] Memory required for data: 1497252224
I1130 01:52:53.058118 24969 layer_factory.hpp:77] Creating layer inception_4d/relu_5x5
I1130 01:52:53.058125 24969 net.cpp:84] Creating Layer inception_4d/relu_5x5
I1130 01:52:53.058130 24969 net.cpp:406] inception_4d/relu_5x5 <- inception_4d/5x5
I1130 01:52:53.058152 24969 net.cpp:367] inception_4d/relu_5x5 -> inception_4d/5x5 (in-place)
I1130 01:52:53.058161 24969 net.cpp:122] Setting up inception_4d/relu_5x5
I1130 01:52:53.058166 24969 net.cpp:129] Top shape: 32 64 14 14 (401408)
I1130 01:52:53.058171 24969 net.cpp:137] Memory required for data: 1498857856
I1130 01:52:53.058176 24969 layer_factory.hpp:77] Creating layer inception_4d/pool
I1130 01:52:53.058182 24969 net.cpp:84] Creating Layer inception_4d/pool
I1130 01:52:53.058202 24969 net.cpp:406] inception_4d/pool <- inception_4c/output_inception_4c/output_0_split_3
I1130 01:52:53.058209 24969 net.cpp:380] inception_4d/pool -> inception_4d/pool
I1130 01:52:53.058267 24969 net.cpp:122] Setting up inception_4d/pool
I1130 01:52:53.058276 24969 net.cpp:129] Top shape: 32 512 14 14 (3211264)
I1130 01:52:53.058280 24969 net.cpp:137] Memory required for data: 1511702912
I1130 01:52:53.058300 24969 layer_factory.hpp:77] Creating layer inception_4d/pool_proj
I1130 01:52:53.058310 24969 net.cpp:84] Creating Layer inception_4d/pool_proj
I1130 01:52:53.058315 24969 net.cpp:406] inception_4d/pool_proj <- inception_4d/pool
I1130 01:52:53.058322 24969 net.cpp:380] inception_4d/pool_proj -> inception_4d/pool_proj
I1130 01:52:53.058918 24969 net.cpp:122] Setting up inception_4d/pool_proj
I1130 01:52:53.058928 24969 net.cpp:129] Top shape: 32 64 14 14 (401408)
I1130 01:52:53.058933 24969 net.cpp:137] Memory required for data: 1513308544
I1130 01:52:53.058957 24969 layer_factory.hpp:77] Creating layer inception_4d/relu_pool_proj
I1130 01:52:53.058965 24969 net.cpp:84] Creating Layer inception_4d/relu_pool_proj
I1130 01:52:53.058971 24969 net.cpp:406] inception_4d/relu_pool_proj <- inception_4d/pool_proj
I1130 01:52:53.058976 24969 net.cpp:367] inception_4d/relu_pool_proj -> inception_4d/pool_proj (in-place)
I1130 01:52:53.058984 24969 net.cpp:122] Setting up inception_4d/relu_pool_proj
I1130 01:52:53.059022 24969 net.cpp:129] Top shape: 32 64 14 14 (401408)
I1130 01:52:53.059028 24969 net.cpp:137] Memory required for data: 1514914176
I1130 01:52:53.059033 24969 layer_factory.hpp:77] Creating layer inception_4d/output
I1130 01:52:53.059054 24969 net.cpp:84] Creating Layer inception_4d/output
I1130 01:52:53.059061 24969 net.cpp:406] inception_4d/output <- inception_4d/1x1
I1130 01:52:53.059067 24969 net.cpp:406] inception_4d/output <- inception_4d/3x3
I1130 01:52:53.059072 24969 net.cpp:406] inception_4d/output <- inception_4d/5x5
I1130 01:52:53.059077 24969 net.cpp:406] inception_4d/output <- inception_4d/pool_proj
I1130 01:52:53.059082 24969 net.cpp:380] inception_4d/output -> inception_4d/output
I1130 01:52:53.059125 24969 net.cpp:122] Setting up inception_4d/output
I1130 01:52:53.059134 24969 net.cpp:129] Top shape: 32 528 14 14 (3311616)
I1130 01:52:53.059154 24969 net.cpp:137] Memory required for data: 1528160640
I1130 01:52:53.059160 24969 layer_factory.hpp:77] Creating layer inception_4d/output_inception_4d/output_0_split
I1130 01:52:53.059167 24969 net.cpp:84] Creating Layer inception_4d/output_inception_4d/output_0_split
I1130 01:52:53.059172 24969 net.cpp:406] inception_4d/output_inception_4d/output_0_split <- inception_4d/output
I1130 01:52:53.059180 24969 net.cpp:380] inception_4d/output_inception_4d/output_0_split -> inception_4d/output_inception_4d/output_0_split_0
I1130 01:52:53.059204 24969 net.cpp:380] inception_4d/output_inception_4d/output_0_split -> inception_4d/output_inception_4d/output_0_split_1
I1130 01:52:53.059214 24969 net.cpp:380] inception_4d/output_inception_4d/output_0_split -> inception_4d/output_inception_4d/output_0_split_2
I1130 01:52:53.059221 24969 net.cpp:380] inception_4d/output_inception_4d/output_0_split -> inception_4d/output_inception_4d/output_0_split_3
I1130 01:52:53.059310 24969 net.cpp:122] Setting up inception_4d/output_inception_4d/output_0_split
I1130 01:52:53.059319 24969 net.cpp:129] Top shape: 32 528 14 14 (3311616)
I1130 01:52:53.059324 24969 net.cpp:129] Top shape: 32 528 14 14 (3311616)
I1130 01:52:53.059329 24969 net.cpp:129] Top shape: 32 528 14 14 (3311616)
I1130 01:52:53.059334 24969 net.cpp:129] Top shape: 32 528 14 14 (3311616)
I1130 01:52:53.059358 24969 net.cpp:137] Memory required for data: 1581146496
I1130 01:52:53.059362 24969 layer_factory.hpp:77] Creating layer inception_4e/1x1
I1130 01:52:53.059372 24969 net.cpp:84] Creating Layer inception_4e/1x1
I1130 01:52:53.059377 24969 net.cpp:406] inception_4e/1x1 <- inception_4d/output_inception_4d/output_0_split_0
I1130 01:52:53.059386 24969 net.cpp:380] inception_4e/1x1 -> inception_4e/1x1
I1130 01:52:53.061285 24969 net.cpp:122] Setting up inception_4e/1x1
I1130 01:52:53.061316 24969 net.cpp:129] Top shape: 32 256 14 14 (1605632)
I1130 01:52:53.061319 24969 net.cpp:137] Memory required for data: 1587569024
I1130 01:52:53.061329 24969 layer_factory.hpp:77] Creating layer inception_4e/relu_1x1
I1130 01:52:53.061354 24969 net.cpp:84] Creating Layer inception_4e/relu_1x1
I1130 01:52:53.061363 24969 net.cpp:406] inception_4e/relu_1x1 <- inception_4e/1x1
I1130 01:52:53.061370 24969 net.cpp:367] inception_4e/relu_1x1 -> inception_4e/1x1 (in-place)
I1130 01:52:53.061379 24969 net.cpp:122] Setting up inception_4e/relu_1x1
I1130 01:52:53.061386 24969 net.cpp:129] Top shape: 32 256 14 14 (1605632)
I1130 01:52:53.061405 24969 net.cpp:137] Memory required for data: 1593991552
I1130 01:52:53.061411 24969 layer_factory.hpp:77] Creating layer inception_4e/3x3_reduce
I1130 01:52:53.061422 24969 net.cpp:84] Creating Layer inception_4e/3x3_reduce
I1130 01:52:53.061430 24969 net.cpp:406] inception_4e/3x3_reduce <- inception_4d/output_inception_4d/output_0_split_1
I1130 01:52:53.061457 24969 net.cpp:380] inception_4e/3x3_reduce -> inception_4e/3x3_reduce
I1130 01:52:53.063822 24969 net.cpp:122] Setting up inception_4e/3x3_reduce
I1130 01:52:53.063833 24969 net.cpp:129] Top shape: 32 160 14 14 (1003520)
I1130 01:52:53.063838 24969 net.cpp:137] Memory required for data: 1598005632
I1130 01:52:53.063865 24969 layer_factory.hpp:77] Creating layer inception_4e/relu_3x3_reduce
I1130 01:52:53.063872 24969 net.cpp:84] Creating Layer inception_4e/relu_3x3_reduce
I1130 01:52:53.063879 24969 net.cpp:406] inception_4e/relu_3x3_reduce <- inception_4e/3x3_reduce
I1130 01:52:53.063884 24969 net.cpp:367] inception_4e/relu_3x3_reduce -> inception_4e/3x3_reduce (in-place)
I1130 01:52:53.063905 24969 net.cpp:122] Setting up inception_4e/relu_3x3_reduce
I1130 01:52:53.063911 24969 net.cpp:129] Top shape: 32 160 14 14 (1003520)
I1130 01:52:53.063916 24969 net.cpp:137] Memory required for data: 1602019712
I1130 01:52:53.063920 24969 layer_factory.hpp:77] Creating layer inception_4e/3x3
I1130 01:52:53.063930 24969 net.cpp:84] Creating Layer inception_4e/3x3
I1130 01:52:53.063935 24969 net.cpp:406] inception_4e/3x3 <- inception_4e/3x3_reduce
I1130 01:52:53.063957 24969 net.cpp:380] inception_4e/3x3 -> inception_4e/3x3
I1130 01:52:53.068413 24969 net.cpp:122] Setting up inception_4e/3x3
I1130 01:52:53.068428 24969 net.cpp:129] Top shape: 32 320 14 14 (2007040)
I1130 01:52:53.068431 24969 net.cpp:137] Memory required for data: 1610047872
I1130 01:52:53.068439 24969 layer_factory.hpp:77] Creating layer inception_4e/relu_3x3
I1130 01:52:53.068464 24969 net.cpp:84] Creating Layer inception_4e/relu_3x3
I1130 01:52:53.068470 24969 net.cpp:406] inception_4e/relu_3x3 <- inception_4e/3x3
I1130 01:52:53.068478 24969 net.cpp:367] inception_4e/relu_3x3 -> inception_4e/3x3 (in-place)
I1130 01:52:53.068486 24969 net.cpp:122] Setting up inception_4e/relu_3x3
I1130 01:52:53.068491 24969 net.cpp:129] Top shape: 32 320 14 14 (2007040)
I1130 01:52:53.068531 24969 net.cpp:137] Memory required for data: 1618076032
I1130 01:52:53.068536 24969 layer_factory.hpp:77] Creating layer inception_4e/5x5_reduce
I1130 01:52:53.068563 24969 net.cpp:84] Creating Layer inception_4e/5x5_reduce
I1130 01:52:53.068570 24969 net.cpp:406] inception_4e/5x5_reduce <- inception_4d/output_inception_4d/output_0_split_2
I1130 01:52:53.068578 24969 net.cpp:380] inception_4e/5x5_reduce -> inception_4e/5x5_reduce
I1130 01:52:53.069123 24969 net.cpp:122] Setting up inception_4e/5x5_reduce
I1130 01:52:53.069133 24969 net.cpp:129] Top shape: 32 32 14 14 (200704)
I1130 01:52:53.069138 24969 net.cpp:137] Memory required for data: 1618878848
I1130 01:52:53.069161 24969 layer_factory.hpp:77] Creating layer inception_4e/relu_5x5_reduce
I1130 01:52:53.069169 24969 net.cpp:84] Creating Layer inception_4e/relu_5x5_reduce
I1130 01:52:53.069175 24969 net.cpp:406] inception_4e/relu_5x5_reduce <- inception_4e/5x5_reduce
I1130 01:52:53.069181 24969 net.cpp:367] inception_4e/relu_5x5_reduce -> inception_4e/5x5_reduce (in-place)
I1130 01:52:53.069188 24969 net.cpp:122] Setting up inception_4e/relu_5x5_reduce
I1130 01:52:53.069211 24969 net.cpp:129] Top shape: 32 32 14 14 (200704)
I1130 01:52:53.069216 24969 net.cpp:137] Memory required for data: 1619681664
I1130 01:52:53.069221 24969 layer_factory.hpp:77] Creating layer inception_4e/5x5
I1130 01:52:53.069229 24969 net.cpp:84] Creating Layer inception_4e/5x5
I1130 01:52:53.069236 24969 net.cpp:406] inception_4e/5x5 <- inception_4e/5x5_reduce
I1130 01:52:53.069242 24969 net.cpp:380] inception_4e/5x5 -> inception_4e/5x5
I1130 01:52:53.070878 24969 net.cpp:122] Setting up inception_4e/5x5
I1130 01:52:53.070888 24969 net.cpp:129] Top shape: 32 128 14 14 (802816)
I1130 01:52:53.070893 24969 net.cpp:137] Memory required for data: 1622892928
I1130 01:52:53.070920 24969 layer_factory.hpp:77] Creating layer inception_4e/relu_5x5
I1130 01:52:53.070929 24969 net.cpp:84] Creating Layer inception_4e/relu_5x5
I1130 01:52:53.070935 24969 net.cpp:406] inception_4e/relu_5x5 <- inception_4e/5x5
I1130 01:52:53.070940 24969 net.cpp:367] inception_4e/relu_5x5 -> inception_4e/5x5 (in-place)
I1130 01:52:53.070962 24969 net.cpp:122] Setting up inception_4e/relu_5x5
I1130 01:52:53.070969 24969 net.cpp:129] Top shape: 32 128 14 14 (802816)
I1130 01:52:53.070973 24969 net.cpp:137] Memory required for data: 1626104192
I1130 01:52:53.070978 24969 layer_factory.hpp:77] Creating layer inception_4e/pool
I1130 01:52:53.070986 24969 net.cpp:84] Creating Layer inception_4e/pool
I1130 01:52:53.070991 24969 net.cpp:406] inception_4e/pool <- inception_4d/output_inception_4d/output_0_split_3
I1130 01:52:53.071014 24969 net.cpp:380] inception_4e/pool -> inception_4e/pool
I1130 01:52:53.071074 24969 net.cpp:122] Setting up inception_4e/pool
I1130 01:52:53.071084 24969 net.cpp:129] Top shape: 32 528 14 14 (3311616)
I1130 01:52:53.071087 24969 net.cpp:137] Memory required for data: 1639350656
I1130 01:52:53.071091 24969 layer_factory.hpp:77] Creating layer inception_4e/pool_proj
I1130 01:52:53.071120 24969 net.cpp:84] Creating Layer inception_4e/pool_proj
I1130 01:52:53.071126 24969 net.cpp:406] inception_4e/pool_proj <- inception_4e/pool
I1130 01:52:53.071132 24969 net.cpp:380] inception_4e/pool_proj -> inception_4e/pool_proj
I1130 01:52:53.072069 24969 net.cpp:122] Setting up inception_4e/pool_proj
I1130 01:52:53.072079 24969 net.cpp:129] Top shape: 32 128 14 14 (802816)
I1130 01:52:53.072083 24969 net.cpp:137] Memory required for data: 1642561920
I1130 01:52:53.072090 24969 layer_factory.hpp:77] Creating layer inception_4e/relu_pool_proj
I1130 01:52:53.072115 24969 net.cpp:84] Creating Layer inception_4e/relu_pool_proj
I1130 01:52:53.072123 24969 net.cpp:406] inception_4e/relu_pool_proj <- inception_4e/pool_proj
I1130 01:52:53.072129 24969 net.cpp:367] inception_4e/relu_pool_proj -> inception_4e/pool_proj (in-place)
I1130 01:52:53.072136 24969 net.cpp:122] Setting up inception_4e/relu_pool_proj
I1130 01:52:53.072141 24969 net.cpp:129] Top shape: 32 128 14 14 (802816)
I1130 01:52:53.072161 24969 net.cpp:137] Memory required for data: 1645773184
I1130 01:52:53.072168 24969 layer_factory.hpp:77] Creating layer inception_4e/output
I1130 01:52:53.072175 24969 net.cpp:84] Creating Layer inception_4e/output
I1130 01:52:53.072180 24969 net.cpp:406] inception_4e/output <- inception_4e/1x1
I1130 01:52:53.072185 24969 net.cpp:406] inception_4e/output <- inception_4e/3x3
I1130 01:52:53.072190 24969 net.cpp:406] inception_4e/output <- inception_4e/5x5
I1130 01:52:53.072212 24969 net.cpp:406] inception_4e/output <- inception_4e/pool_proj
I1130 01:52:53.072221 24969 net.cpp:380] inception_4e/output -> inception_4e/output
I1130 01:52:53.072269 24969 net.cpp:122] Setting up inception_4e/output
I1130 01:52:53.072278 24969 net.cpp:129] Top shape: 32 832 14 14 (5218304)
I1130 01:52:53.072283 24969 net.cpp:137] Memory required for data: 1666646400
I1130 01:52:53.072288 24969 layer_factory.hpp:77] Creating layer pool4/3x3_s2
I1130 01:52:53.072293 24969 net.cpp:84] Creating Layer pool4/3x3_s2
I1130 01:52:53.072319 24969 net.cpp:406] pool4/3x3_s2 <- inception_4e/output
I1130 01:52:53.072325 24969 net.cpp:380] pool4/3x3_s2 -> pool4/3x3_s2
I1130 01:52:53.072383 24969 net.cpp:122] Setting up pool4/3x3_s2
I1130 01:52:53.072392 24969 net.cpp:129] Top shape: 32 832 7 7 (1304576)
I1130 01:52:53.072429 24969 net.cpp:137] Memory required for data: 1671864704
I1130 01:52:53.072435 24969 layer_factory.hpp:77] Creating layer pool4/3x3_s2_pool4/3x3_s2_0_split
I1130 01:52:53.072443 24969 net.cpp:84] Creating Layer pool4/3x3_s2_pool4/3x3_s2_0_split
I1130 01:52:53.072465 24969 net.cpp:406] pool4/3x3_s2_pool4/3x3_s2_0_split <- pool4/3x3_s2
I1130 01:52:53.072476 24969 net.cpp:380] pool4/3x3_s2_pool4/3x3_s2_0_split -> pool4/3x3_s2_pool4/3x3_s2_0_split_0
I1130 01:52:53.072484 24969 net.cpp:380] pool4/3x3_s2_pool4/3x3_s2_0_split -> pool4/3x3_s2_pool4/3x3_s2_0_split_1
I1130 01:52:53.072491 24969 net.cpp:380] pool4/3x3_s2_pool4/3x3_s2_0_split -> pool4/3x3_s2_pool4/3x3_s2_0_split_2
I1130 01:52:53.072513 24969 net.cpp:380] pool4/3x3_s2_pool4/3x3_s2_0_split -> pool4/3x3_s2_pool4/3x3_s2_0_split_3
I1130 01:52:53.072593 24969 net.cpp:122] Setting up pool4/3x3_s2_pool4/3x3_s2_0_split
I1130 01:52:53.072620 24969 net.cpp:129] Top shape: 32 832 7 7 (1304576)
I1130 01:52:53.072626 24969 net.cpp:129] Top shape: 32 832 7 7 (1304576)
I1130 01:52:53.072631 24969 net.cpp:129] Top shape: 32 832 7 7 (1304576)
I1130 01:52:53.072636 24969 net.cpp:129] Top shape: 32 832 7 7 (1304576)
I1130 01:52:53.072640 24969 net.cpp:137] Memory required for data: 1692737920
I1130 01:52:53.072645 24969 layer_factory.hpp:77] Creating layer inception_5a/1x1
I1130 01:52:53.072669 24969 net.cpp:84] Creating Layer inception_5a/1x1
I1130 01:52:53.072675 24969 net.cpp:406] inception_5a/1x1 <- pool4/3x3_s2_pool4/3x3_s2_0_split_0
I1130 01:52:53.072682 24969 net.cpp:380] inception_5a/1x1 -> inception_5a/1x1
I1130 01:52:53.075129 24969 net.cpp:122] Setting up inception_5a/1x1
I1130 01:52:53.075139 24969 net.cpp:129] Top shape: 32 256 7 7 (401408)
I1130 01:52:53.075143 24969 net.cpp:137] Memory required for data: 1694343552
I1130 01:52:53.075172 24969 layer_factory.hpp:77] Creating layer inception_5a/relu_1x1
I1130 01:52:53.075181 24969 net.cpp:84] Creating Layer inception_5a/relu_1x1
I1130 01:52:53.075186 24969 net.cpp:406] inception_5a/relu_1x1 <- inception_5a/1x1
I1130 01:52:53.075194 24969 net.cpp:367] inception_5a/relu_1x1 -> inception_5a/1x1 (in-place)
I1130 01:52:53.075234 24969 net.cpp:122] Setting up inception_5a/relu_1x1
I1130 01:52:53.075242 24969 net.cpp:129] Top shape: 32 256 7 7 (401408)
I1130 01:52:53.075245 24969 net.cpp:137] Memory required for data: 1695949184
I1130 01:52:53.075269 24969 layer_factory.hpp:77] Creating layer inception_5a/3x3_reduce
I1130 01:52:53.075280 24969 net.cpp:84] Creating Layer inception_5a/3x3_reduce
I1130 01:52:53.075285 24969 net.cpp:406] inception_5a/3x3_reduce <- pool4/3x3_s2_pool4/3x3_s2_0_split_1
I1130 01:52:53.075292 24969 net.cpp:380] inception_5a/3x3_reduce -> inception_5a/3x3_reduce
I1130 01:52:53.077131 24969 net.cpp:122] Setting up inception_5a/3x3_reduce
I1130 01:52:53.077142 24969 net.cpp:129] Top shape: 32 160 7 7 (250880)
I1130 01:52:53.077145 24969 net.cpp:137] Memory required for data: 1696952704
I1130 01:52:53.077173 24969 layer_factory.hpp:77] Creating layer inception_5a/relu_3x3_reduce
I1130 01:52:53.077183 24969 net.cpp:84] Creating Layer inception_5a/relu_3x3_reduce
I1130 01:52:53.077188 24969 net.cpp:406] inception_5a/relu_3x3_reduce <- inception_5a/3x3_reduce
I1130 01:52:53.077198 24969 net.cpp:367] inception_5a/relu_3x3_reduce -> inception_5a/3x3_reduce (in-place)
I1130 01:52:53.077220 24969 net.cpp:122] Setting up inception_5a/relu_3x3_reduce
I1130 01:52:53.077227 24969 net.cpp:129] Top shape: 32 160 7 7 (250880)
I1130 01:52:53.077232 24969 net.cpp:137] Memory required for data: 1697956224
I1130 01:52:53.077236 24969 layer_factory.hpp:77] Creating layer inception_5a/3x3
I1130 01:52:53.077246 24969 net.cpp:84] Creating Layer inception_5a/3x3
I1130 01:52:53.077270 24969 net.cpp:406] inception_5a/3x3 <- inception_5a/3x3_reduce
I1130 01:52:53.077277 24969 net.cpp:380] inception_5a/3x3 -> inception_5a/3x3
I1130 01:52:53.081984 24969 net.cpp:122] Setting up inception_5a/3x3
I1130 01:52:53.081997 24969 net.cpp:129] Top shape: 32 320 7 7 (501760)
I1130 01:52:53.082001 24969 net.cpp:137] Memory required for data: 1699963264
I1130 01:52:53.082032 24969 layer_factory.hpp:77] Creating layer inception_5a/relu_3x3
I1130 01:52:53.082041 24969 net.cpp:84] Creating Layer inception_5a/relu_3x3
I1130 01:52:53.082046 24969 net.cpp:406] inception_5a/relu_3x3 <- inception_5a/3x3
I1130 01:52:53.082069 24969 net.cpp:367] inception_5a/relu_3x3 -> inception_5a/3x3 (in-place)
I1130 01:52:53.082079 24969 net.cpp:122] Setting up inception_5a/relu_3x3
I1130 01:52:53.082085 24969 net.cpp:129] Top shape: 32 320 7 7 (501760)
I1130 01:52:53.082089 24969 net.cpp:137] Memory required for data: 1701970304
I1130 01:52:53.082093 24969 layer_factory.hpp:77] Creating layer inception_5a/5x5_reduce
I1130 01:52:53.082123 24969 net.cpp:84] Creating Layer inception_5a/5x5_reduce
I1130 01:52:53.082129 24969 net.cpp:406] inception_5a/5x5_reduce <- pool4/3x3_s2_pool4/3x3_s2_0_split_2
I1130 01:52:53.082137 24969 net.cpp:380] inception_5a/5x5_reduce -> inception_5a/5x5_reduce
I1130 01:52:53.082748 24969 net.cpp:122] Setting up inception_5a/5x5_reduce
I1130 01:52:53.082779 24969 net.cpp:129] Top shape: 32 32 7 7 (50176)
I1130 01:52:53.082785 24969 net.cpp:137] Memory required for data: 1702171008
I1130 01:52:53.082792 24969 layer_factory.hpp:77] Creating layer inception_5a/relu_5x5_reduce
I1130 01:52:53.082798 24969 net.cpp:84] Creating Layer inception_5a/relu_5x5_reduce
I1130 01:52:53.082816 24969 net.cpp:406] inception_5a/relu_5x5_reduce <- inception_5a/5x5_reduce
I1130 01:52:53.082825 24969 net.cpp:367] inception_5a/relu_5x5_reduce -> inception_5a/5x5_reduce (in-place)
I1130 01:52:53.082834 24969 net.cpp:122] Setting up inception_5a/relu_5x5_reduce
I1130 01:52:53.082839 24969 net.cpp:129] Top shape: 32 32 7 7 (50176)
I1130 01:52:53.082844 24969 net.cpp:137] Memory required for data: 1702371712
I1130 01:52:53.082847 24969 layer_factory.hpp:77] Creating layer inception_5a/5x5
I1130 01:52:53.082891 24969 net.cpp:84] Creating Layer inception_5a/5x5
I1130 01:52:53.082898 24969 net.cpp:406] inception_5a/5x5 <- inception_5a/5x5_reduce
I1130 01:52:53.082921 24969 net.cpp:380] inception_5a/5x5 -> inception_5a/5x5
I1130 01:52:53.084595 24969 net.cpp:122] Setting up inception_5a/5x5
I1130 01:52:53.084627 24969 net.cpp:129] Top shape: 32 128 7 7 (200704)
I1130 01:52:53.084633 24969 net.cpp:137] Memory required for data: 1703174528
I1130 01:52:53.084641 24969 layer_factory.hpp:77] Creating layer inception_5a/relu_5x5
I1130 01:52:53.084648 24969 net.cpp:84] Creating Layer inception_5a/relu_5x5
I1130 01:52:53.084653 24969 net.cpp:406] inception_5a/relu_5x5 <- inception_5a/5x5
I1130 01:52:53.084699 24969 net.cpp:367] inception_5a/relu_5x5 -> inception_5a/5x5 (in-place)
I1130 01:52:53.084728 24969 net.cpp:122] Setting up inception_5a/relu_5x5
I1130 01:52:53.084735 24969 net.cpp:129] Top shape: 32 128 7 7 (200704)
I1130 01:52:53.084739 24969 net.cpp:137] Memory required for data: 1703977344
I1130 01:52:53.084744 24969 layer_factory.hpp:77] Creating layer inception_5a/pool
I1130 01:52:53.084751 24969 net.cpp:84] Creating Layer inception_5a/pool
I1130 01:52:53.084777 24969 net.cpp:406] inception_5a/pool <- pool4/3x3_s2_pool4/3x3_s2_0_split_3
I1130 01:52:53.084784 24969 net.cpp:380] inception_5a/pool -> inception_5a/pool
I1130 01:52:53.084851 24969 net.cpp:122] Setting up inception_5a/pool
I1130 01:52:53.084875 24969 net.cpp:129] Top shape: 32 832 7 7 (1304576)
I1130 01:52:53.084882 24969 net.cpp:137] Memory required for data: 1709195648
I1130 01:52:53.084885 24969 layer_factory.hpp:77] Creating layer inception_5a/pool_proj
I1130 01:52:53.084897 24969 net.cpp:84] Creating Layer inception_5a/pool_proj
I1130 01:52:53.084902 24969 net.cpp:406] inception_5a/pool_proj <- inception_5a/pool
I1130 01:52:53.084930 24969 net.cpp:380] inception_5a/pool_proj -> inception_5a/pool_proj
I1130 01:52:53.086552 24969 net.cpp:122] Setting up inception_5a/pool_proj
I1130 01:52:53.086583 24969 net.cpp:129] Top shape: 32 128 7 7 (200704)
I1130 01:52:53.086588 24969 net.cpp:137] Memory required for data: 1709998464
I1130 01:52:53.086596 24969 layer_factory.hpp:77] Creating layer inception_5a/relu_pool_proj
I1130 01:52:53.086603 24969 net.cpp:84] Creating Layer inception_5a/relu_pool_proj
I1130 01:52:53.086628 24969 net.cpp:406] inception_5a/relu_pool_proj <- inception_5a/pool_proj
I1130 01:52:53.086637 24969 net.cpp:367] inception_5a/relu_pool_proj -> inception_5a/pool_proj (in-place)
I1130 01:52:53.086644 24969 net.cpp:122] Setting up inception_5a/relu_pool_proj
I1130 01:52:53.086650 24969 net.cpp:129] Top shape: 32 128 7 7 (200704)
I1130 01:52:53.086654 24969 net.cpp:137] Memory required for data: 1710801280
I1130 01:52:53.086673 24969 layer_factory.hpp:77] Creating layer inception_5a/output
I1130 01:52:53.086680 24969 net.cpp:84] Creating Layer inception_5a/output
I1130 01:52:53.086685 24969 net.cpp:406] inception_5a/output <- inception_5a/1x1
I1130 01:52:53.086690 24969 net.cpp:406] inception_5a/output <- inception_5a/3x3
I1130 01:52:53.086695 24969 net.cpp:406] inception_5a/output <- inception_5a/5x5
I1130 01:52:53.086700 24969 net.cpp:406] inception_5a/output <- inception_5a/pool_proj
I1130 01:52:53.086727 24969 net.cpp:380] inception_5a/output -> inception_5a/output
I1130 01:52:53.086755 24969 net.cpp:122] Setting up inception_5a/output
I1130 01:52:53.086784 24969 net.cpp:129] Top shape: 32 832 7 7 (1304576)
I1130 01:52:53.086789 24969 net.cpp:137] Memory required for data: 1716019584
I1130 01:52:53.086793 24969 layer_factory.hpp:77] Creating layer inception_5a/output_inception_5a/output_0_split
I1130 01:52:53.086803 24969 net.cpp:84] Creating Layer inception_5a/output_inception_5a/output_0_split
I1130 01:52:53.086828 24969 net.cpp:406] inception_5a/output_inception_5a/output_0_split <- inception_5a/output
I1130 01:52:53.086836 24969 net.cpp:380] inception_5a/output_inception_5a/output_0_split -> inception_5a/output_inception_5a/output_0_split_0
I1130 01:52:53.086843 24969 net.cpp:380] inception_5a/output_inception_5a/output_0_split -> inception_5a/output_inception_5a/output_0_split_1
I1130 01:52:53.086851 24969 net.cpp:380] inception_5a/output_inception_5a/output_0_split -> inception_5a/output_inception_5a/output_0_split_2
I1130 01:52:53.086880 24969 net.cpp:380] inception_5a/output_inception_5a/output_0_split -> inception_5a/output_inception_5a/output_0_split_3
I1130 01:52:53.086994 24969 net.cpp:122] Setting up inception_5a/output_inception_5a/output_0_split
I1130 01:52:53.087003 24969 net.cpp:129] Top shape: 32 832 7 7 (1304576)
I1130 01:52:53.087028 24969 net.cpp:129] Top shape: 32 832 7 7 (1304576)
I1130 01:52:53.087034 24969 net.cpp:129] Top shape: 32 832 7 7 (1304576)
I1130 01:52:53.087038 24969 net.cpp:129] Top shape: 32 832 7 7 (1304576)
I1130 01:52:53.087043 24969 net.cpp:137] Memory required for data: 1736892800
I1130 01:52:53.087046 24969 layer_factory.hpp:77] Creating layer inception_5b/1x1
I1130 01:52:53.087075 24969 net.cpp:84] Creating Layer inception_5b/1x1
I1130 01:52:53.087082 24969 net.cpp:406] inception_5b/1x1 <- inception_5a/output_inception_5a/output_0_split_0
I1130 01:52:53.087091 24969 net.cpp:380] inception_5b/1x1 -> inception_5b/1x1
I1130 01:52:53.090251 24969 net.cpp:122] Setting up inception_5b/1x1
I1130 01:52:53.090296 24969 net.cpp:129] Top shape: 32 384 7 7 (602112)
I1130 01:52:53.090302 24969 net.cpp:137] Memory required for data: 1739301248
I1130 01:52:53.090327 24969 layer_factory.hpp:77] Creating layer inception_5b/relu_1x1
I1130 01:52:53.090337 24969 net.cpp:84] Creating Layer inception_5b/relu_1x1
I1130 01:52:53.090343 24969 net.cpp:406] inception_5b/relu_1x1 <- inception_5b/1x1
I1130 01:52:53.090349 24969 net.cpp:367] inception_5b/relu_1x1 -> inception_5b/1x1 (in-place)
I1130 01:52:53.090358 24969 net.cpp:122] Setting up inception_5b/relu_1x1
I1130 01:52:53.090378 24969 net.cpp:129] Top shape: 32 384 7 7 (602112)
I1130 01:52:53.090382 24969 net.cpp:137] Memory required for data: 1741709696
I1130 01:52:53.090387 24969 layer_factory.hpp:77] Creating layer inception_5b/3x3_reduce
I1130 01:52:53.090397 24969 net.cpp:84] Creating Layer inception_5b/3x3_reduce
I1130 01:52:53.090402 24969 net.cpp:406] inception_5b/3x3_reduce <- inception_5a/output_inception_5a/output_0_split_1
I1130 01:52:53.090425 24969 net.cpp:380] inception_5b/3x3_reduce -> inception_5b/3x3_reduce
I1130 01:52:53.092404 24969 net.cpp:122] Setting up inception_5b/3x3_reduce
I1130 01:52:53.092433 24969 net.cpp:129] Top shape: 32 192 7 7 (301056)
I1130 01:52:53.092439 24969 net.cpp:137] Memory required for data: 1742913920
I1130 01:52:53.092447 24969 layer_factory.hpp:77] Creating layer inception_5b/relu_3x3_reduce
I1130 01:52:53.092454 24969 net.cpp:84] Creating Layer inception_5b/relu_3x3_reduce
I1130 01:52:53.092460 24969 net.cpp:406] inception_5b/relu_3x3_reduce <- inception_5b/3x3_reduce
I1130 01:52:53.092504 24969 net.cpp:367] inception_5b/relu_3x3_reduce -> inception_5b/3x3_reduce (in-place)
I1130 01:52:53.092531 24969 net.cpp:122] Setting up inception_5b/relu_3x3_reduce
I1130 01:52:53.092538 24969 net.cpp:129] Top shape: 32 192 7 7 (301056)
I1130 01:52:53.092542 24969 net.cpp:137] Memory required for data: 1744118144
I1130 01:52:53.092547 24969 layer_factory.hpp:77] Creating layer inception_5b/3x3
I1130 01:52:53.092557 24969 net.cpp:84] Creating Layer inception_5b/3x3
I1130 01:52:53.092582 24969 net.cpp:406] inception_5b/3x3 <- inception_5b/3x3_reduce
I1130 01:52:53.092593 24969 net.cpp:380] inception_5b/3x3 -> inception_5b/3x3
I1130 01:52:53.098733 24969 net.cpp:122] Setting up inception_5b/3x3
I1130 01:52:53.098747 24969 net.cpp:129] Top shape: 32 384 7 7 (602112)
I1130 01:52:53.098750 24969 net.cpp:137] Memory required for data: 1746526592
I1130 01:52:53.098757 24969 layer_factory.hpp:77] Creating layer inception_5b/relu_3x3
I1130 01:52:53.098783 24969 net.cpp:84] Creating Layer inception_5b/relu_3x3
I1130 01:52:53.098790 24969 net.cpp:406] inception_5b/relu_3x3 <- inception_5b/3x3
I1130 01:52:53.098800 24969 net.cpp:367] inception_5b/relu_3x3 -> inception_5b/3x3 (in-place)
I1130 01:52:53.098809 24969 net.cpp:122] Setting up inception_5b/relu_3x3
I1130 01:52:53.098814 24969 net.cpp:129] Top shape: 32 384 7 7 (602112)
I1130 01:52:53.098836 24969 net.cpp:137] Memory required for data: 1748935040
I1130 01:52:53.098840 24969 layer_factory.hpp:77] Creating layer inception_5b/5x5_reduce
I1130 01:52:53.098851 24969 net.cpp:84] Creating Layer inception_5b/5x5_reduce
I1130 01:52:53.098857 24969 net.cpp:406] inception_5b/5x5_reduce <- inception_5a/output_inception_5a/output_0_split_2
I1130 01:52:53.098863 24969 net.cpp:380] inception_5b/5x5_reduce -> inception_5b/5x5_reduce
I1130 01:52:53.099563 24969 net.cpp:122] Setting up inception_5b/5x5_reduce
I1130 01:52:53.099588 24969 net.cpp:129] Top shape: 32 48 7 7 (75264)
I1130 01:52:53.099593 24969 net.cpp:137] Memory required for data: 1749236096
I1130 01:52:53.099601 24969 layer_factory.hpp:77] Creating layer inception_5b/relu_5x5_reduce
I1130 01:52:53.099608 24969 net.cpp:84] Creating Layer inception_5b/relu_5x5_reduce
I1130 01:52:53.099637 24969 net.cpp:406] inception_5b/relu_5x5_reduce <- inception_5b/5x5_reduce
I1130 01:52:53.099647 24969 net.cpp:367] inception_5b/relu_5x5_reduce -> inception_5b/5x5_reduce (in-place)
I1130 01:52:53.099653 24969 net.cpp:122] Setting up inception_5b/relu_5x5_reduce
I1130 01:52:53.099660 24969 net.cpp:129] Top shape: 32 48 7 7 (75264)
I1130 01:52:53.099664 24969 net.cpp:137] Memory required for data: 1749537152
I1130 01:52:53.099690 24969 layer_factory.hpp:77] Creating layer inception_5b/5x5
I1130 01:52:53.099705 24969 net.cpp:84] Creating Layer inception_5b/5x5
I1130 01:52:53.099712 24969 net.cpp:406] inception_5b/5x5 <- inception_5b/5x5_reduce
I1130 01:52:53.099757 24969 net.cpp:380] inception_5b/5x5 -> inception_5b/5x5
I1130 01:52:53.101294 24969 net.cpp:122] Setting up inception_5b/5x5
I1130 01:52:53.101303 24969 net.cpp:129] Top shape: 32 128 7 7 (200704)
I1130 01:52:53.101359 24969 net.cpp:137] Memory required for data: 1750339968
I1130 01:52:53.101387 24969 layer_factory.hpp:77] Creating layer inception_5b/relu_5x5
I1130 01:52:53.101395 24969 net.cpp:84] Creating Layer inception_5b/relu_5x5
I1130 01:52:53.101402 24969 net.cpp:406] inception_5b/relu_5x5 <- inception_5b/5x5
I1130 01:52:53.101410 24969 net.cpp:367] inception_5b/relu_5x5 -> inception_5b/5x5 (in-place)
I1130 01:52:53.101454 24969 net.cpp:122] Setting up inception_5b/relu_5x5
I1130 01:52:53.101464 24969 net.cpp:129] Top shape: 32 128 7 7 (200704)
I1130 01:52:53.101486 24969 net.cpp:137] Memory required for data: 1751142784
I1130 01:52:53.101493 24969 layer_factory.hpp:77] Creating layer inception_5b/pool
I1130 01:52:53.101503 24969 net.cpp:84] Creating Layer inception_5b/pool
I1130 01:52:53.101510 24969 net.cpp:406] inception_5b/pool <- inception_5a/output_inception_5a/output_0_split_3
I1130 01:52:53.101516 24969 net.cpp:380] inception_5b/pool -> inception_5b/pool
I1130 01:52:53.103106 24969 net.cpp:122] Setting up inception_5b/pool
I1130 01:52:53.103117 24969 net.cpp:129] Top shape: 32 832 7 7 (1304576)
I1130 01:52:53.103138 24969 net.cpp:137] Memory required for data: 1756361088
I1130 01:52:53.103142 24969 layer_factory.hpp:77] Creating layer inception_5b/pool_proj
I1130 01:52:53.103154 24969 net.cpp:84] Creating Layer inception_5b/pool_proj
I1130 01:52:53.103162 24969 net.cpp:406] inception_5b/pool_proj <- inception_5b/pool
I1130 01:52:53.103183 24969 net.cpp:380] inception_5b/pool_proj -> inception_5b/pool_proj
I1130 01:52:53.104759 24969 net.cpp:122] Setting up inception_5b/pool_proj
I1130 01:52:53.104805 24969 net.cpp:129] Top shape: 32 128 7 7 (200704)
I1130 01:52:53.104812 24969 net.cpp:137] Memory required for data: 1757163904
I1130 01:52:53.104835 24969 layer_factory.hpp:77] Creating layer inception_5b/relu_pool_proj
I1130 01:52:53.104842 24969 net.cpp:84] Creating Layer inception_5b/relu_pool_proj
I1130 01:52:53.104849 24969 net.cpp:406] inception_5b/relu_pool_proj <- inception_5b/pool_proj
I1130 01:52:53.104857 24969 net.cpp:367] inception_5b/relu_pool_proj -> inception_5b/pool_proj (in-place)
I1130 01:52:53.104866 24969 net.cpp:122] Setting up inception_5b/relu_pool_proj
I1130 01:52:53.104885 24969 net.cpp:129] Top shape: 32 128 7 7 (200704)
I1130 01:52:53.104890 24969 net.cpp:137] Memory required for data: 1757966720
I1130 01:52:53.104895 24969 layer_factory.hpp:77] Creating layer inception_5b/output
I1130 01:52:53.104902 24969 net.cpp:84] Creating Layer inception_5b/output
I1130 01:52:53.104908 24969 net.cpp:406] inception_5b/output <- inception_5b/1x1
I1130 01:52:53.104913 24969 net.cpp:406] inception_5b/output <- inception_5b/3x3
I1130 01:52:53.104933 24969 net.cpp:406] inception_5b/output <- inception_5b/5x5
I1130 01:52:53.104940 24969 net.cpp:406] inception_5b/output <- inception_5b/pool_proj
I1130 01:52:53.104948 24969 net.cpp:380] inception_5b/output -> inception_5b/output
I1130 01:52:53.104993 24969 net.cpp:122] Setting up inception_5b/output
I1130 01:52:53.105001 24969 net.cpp:129] Top shape: 32 1024 7 7 (1605632)
I1130 01:52:53.105005 24969 net.cpp:137] Memory required for data: 1764389248
I1130 01:52:53.105010 24969 layer_factory.hpp:77] Creating layer pool5/7x7_s1
I1130 01:52:53.105020 24969 net.cpp:84] Creating Layer pool5/7x7_s1
I1130 01:52:53.105041 24969 net.cpp:406] pool5/7x7_s1 <- inception_5b/output
I1130 01:52:53.105047 24969 net.cpp:380] pool5/7x7_s1 -> pool5/7x7_s1
I1130 01:52:53.105090 24969 net.cpp:122] Setting up pool5/7x7_s1
I1130 01:52:53.105099 24969 net.cpp:129] Top shape: 32 1024 1 1 (32768)
I1130 01:52:53.105103 24969 net.cpp:137] Memory required for data: 1764520320
I1130 01:52:53.105108 24969 layer_factory.hpp:77] Creating layer pool5/drop_7x7_s1
I1130 01:52:53.105115 24969 net.cpp:84] Creating Layer pool5/drop_7x7_s1
I1130 01:52:53.105135 24969 net.cpp:406] pool5/drop_7x7_s1 <- pool5/7x7_s1
I1130 01:52:53.105144 24969 net.cpp:367] pool5/drop_7x7_s1 -> pool5/7x7_s1 (in-place)
I1130 01:52:53.105168 24969 net.cpp:122] Setting up pool5/drop_7x7_s1
I1130 01:52:53.105201 24969 net.cpp:129] Top shape: 32 1024 1 1 (32768)
I1130 01:52:53.105206 24969 net.cpp:137] Memory required for data: 1764651392
I1130 01:52:53.105211 24969 layer_factory.hpp:77] Creating layer fc_scv_interesting
I1130 01:52:53.105218 24969 net.cpp:84] Creating Layer fc_scv_interesting
I1130 01:52:53.105239 24969 net.cpp:406] fc_scv_interesting <- pool5/7x7_s1
I1130 01:52:53.105248 24969 net.cpp:380] fc_scv_interesting -> fc_scv_interesting
I1130 01:52:53.105442 24969 net.cpp:122] Setting up fc_scv_interesting
I1130 01:52:53.105451 24969 net.cpp:129] Top shape: 32 1 (32)
I1130 01:52:53.105455 24969 net.cpp:137] Memory required for data: 1764651520
I1130 01:52:53.105463 24969 layer_factory.hpp:77] Creating layer fc_scv_interesting_fc_scv_interesting_0_split
I1130 01:52:53.105482 24969 net.cpp:84] Creating Layer fc_scv_interesting_fc_scv_interesting_0_split
I1130 01:52:53.105489 24969 net.cpp:406] fc_scv_interesting_fc_scv_interesting_0_split <- fc_scv_interesting
I1130 01:52:53.105495 24969 net.cpp:380] fc_scv_interesting_fc_scv_interesting_0_split -> fc_scv_interesting_fc_scv_interesting_0_split_0
I1130 01:52:53.105504 24969 net.cpp:380] fc_scv_interesting_fc_scv_interesting_0_split -> fc_scv_interesting_fc_scv_interesting_0_split_1
I1130 01:52:53.105557 24969 net.cpp:122] Setting up fc_scv_interesting_fc_scv_interesting_0_split
I1130 01:52:53.105567 24969 net.cpp:129] Top shape: 32 1 (32)
I1130 01:52:53.105592 24969 net.cpp:129] Top shape: 32 1 (32)
I1130 01:52:53.105597 24969 net.cpp:137] Memory required for data: 1764651776
I1130 01:52:53.105600 24969 layer_factory.hpp:77] Creating layer loss
I1130 01:52:53.105608 24969 net.cpp:84] Creating Layer loss
I1130 01:52:53.105613 24969 net.cpp:406] loss <- fc_scv_interesting_fc_scv_interesting_0_split_0
I1130 01:52:53.105619 24969 net.cpp:406] loss <- label_data_1_split_0
I1130 01:52:53.105645 24969 net.cpp:380] loss -> loss
…
