…
I1130 19:16:21.724566 20614 net.cpp:294] The NetState phase (0) differed from the phase (1) specified by a rule in layer losttest
I1130 19:16:21.724721 20614 net.cpp:51] Initializing net from parameters: 
name: "CaffeNet-Places365-SCV-pleasant"
state {
  phase: TRAIN
  level: 0
  stage: ""
}
layer {
  name: "data"
  type: "Data"
  top: "data"
  top: "label"
  include {
    phase: TRAIN
  }
  transform_param {
    mirror: true
    crop_size: 227
    mean_file: "/idiap/temp/lmedina/fine-tuning/alexnet_places365/places365CNN_mean.binaryproto"
  }
  data_param {
    source: "/idiap/temp/lmedina/fine-tuning/data/Pleasant/train_lmdb"
    batch_size: 32
    backend: LMDB
  }
}
layer {
  name: "conv1"
  type: "Convolution"
  bottom: "data"
  top: "conv1"
  param {
    lr_mult: 1
    decay_mult: 1
  }
  param {
    lr_mult: 2
    decay_mult: 0
  }
  convolution_param {
    num_output: 96
    kernel_size: 11
    stride: 4
    weight_filler {
      type: "gaussian"
      std: 0.01
    }
    bias_filler {
      type: "constant"
      value: 0
    }
  }
}
layer {
  name: "relu1"
  type: "ReLU"
  bottom: "conv1"
  top: "conv1"
}
layer {
  name: "pool1"
  type: "Pooling"
  bottom: "conv1"
  top: "pool1"
  pooling_param {
    pool: MAX
    kernel_size: 3
    stride: 2
  }
}
layer {
  name: "norm1"
  type: "LRN"
  bottom: "pool1"
  top: "norm1"
  lrn_param {
    local_size: 5
    alpha: 0.0001
    beta: 0.75
  }
}
layer {
  name: "conv2"
  type: "Convolution"
  bottom: "norm1"
  top: "conv2"
  param {
    lr_mult: 1
    decay_mult: 1
  }
  param {
    lr_mult: 2
    decay_mult: 0
  }
  convolution_param {
    num_output: 256
    pad: 2
    kernel_size: 5
    group: 2
    weight_filler {
      type: "gaussian"
      std: 0.01
    }
    bias_filler {
      type: "constant"
      value: 1
    }
  }
}
layer {
  name: "relu2"
  type: "ReLU"
  bottom: "conv2"
  top: "conv2"
}
layer {
  name: "pool2"
  type: "Pooling"
  bottom: "conv2"
  top: "pool2"
  pooling_param {
    pool: MAX
    kernel_size: 3
    stride: 2
  }
}
layer {
  name: "norm2"
  type: "LRN"
  bottom: "pool2"
  top: "norm2"
  lrn_param {
    local_size: 5
    alpha: 0.0001
    beta: 0.75
  }
}
layer {
  name: "conv3"
  type: "Convolution"
  bottom: "norm2"
  top: "conv3"
  param {
    lr_mult: 1
    decay_mult: 1
  }
  param {
    lr_mult: 2
    decay_mult: 0
  }
  convolution_param {
    num_output: 384
    pad: 1
    kernel_size: 3
    weight_filler {
      type: "gaussian"
      std: 0.01
    }
    bias_filler {
      type: "constant"
      value: 0
    }
  }
}
layer {
  name: "relu3"
  type: "ReLU"
  bottom: "conv3"
  top: "conv3"
}
layer {
  name: "conv4"
  type: "Convolution"
  bottom: "conv3"
  top: "conv4"
  param {
    lr_mult: 1
    decay_mult: 1
  }
  param {
    lr_mult: 2
    decay_mult: 0
  }
  convolution_param {
    num_output: 384
    pad: 1
    kernel_size: 3
    group: 2
    weight_filler {
      type: "gaussian"
      std: 0.01
    }
    bias_filler {
      type: "constant"
      value: 1
    }
  }
}
layer {
  name: "relu4"
  type: "ReLU"
  bottom: "conv4"
  top: "conv4"
}
layer {
  name: "conv5"
  type: "Convolution"
  bottom: "conv4"
  top: "conv5"
  param {
    lr_mult: 1
    decay_mult: 1
  }
  param {
    lr_mult: 2
    decay_mult: 0
  }
  convolution_param {
    num_output: 256
    pad: 1
    kernel_size: 3
    group: 2
    weight_filler {
      type: "gaussian"
      std: 0.01
    }
    bias_filler {
      type: "constant"
      value: 1
    }
  }
}
layer {
  name: "relu5"
  type: "ReLU"
  bottom: "conv5"
  top: "conv5"
}
layer {
  name: "pool5"
  type: "Pooling"
  bottom: "conv5"
  top: "pool5"
  pooling_param {
    pool: MAX
    kernel_size: 3
    stride: 2
  }
}
layer {
  name: "fc6"
  type: "InnerProduct"
  bottom: "pool5"
  top: "fc6"
  param {
    lr_mult: 1
    decay_mult: 1
  }
  param {
    lr_mult: 2
    decay_mult: 0
  }
  inner_product_param {
    num_output: 4096
    weight_filler {
      type: "gaussian"
      std: 0.005
    }
    bias_filler {
      type: "constant"
      value: 1
    }
  }
}
layer {
  name: "relu6"
  type: "ReLU"
  bottom: "fc6"
  top: "fc6"
}
layer {
  name: "drop6"
  type: "Dropout"
  bottom: "fc6"
  top: "fc6"
  dropout_param {
    dropout_ratio: 0.5
  }
}
layer {
  name: "fc7"
  type: "InnerProduct"
  bottom: "fc6"
  top: "fc7"
  param {
    lr_mult: 1
    decay_mult: 1
  }
  param {
    lr_mult: 2
    decay_mult: 0
  }
  inner_product_param {
    num_output: 4096
    weight_filler {
      type: "gaussian"
      std: 0.005
    }
    bias_filler {
      type: "constant"
      value: 1
    }
  }
}
layer {
  name: "relu7"
  type: "ReLU"
  bottom: "fc7"
  top: "fc7"
}
layer {
  name: "drop7"
  type: "Dropout"
  bottom: "fc7"
  top: "fc7"
  dropout_param {
    dropout_ratio: 0.5
  }
}
layer {
  name: "fc_scv_pleasant"
  type: "InnerProduct"
  bottom: "fc7"
  top: "fc_scv_pleasant"
  param {
    lr_mult: 10
    decay_mult: 1
  }
  param {
    lr_mult: 20
    decay_mult: 0
  }
  inner_product_param {
    num_output: 1
    weight_filler {
      type: "xavier"
      std: 0.01
    }
    bias_filler {
      type: "constant"
      value: 0
    }
  }
}
layer {
  name: "loss"
  type: "EuclideanLoss"
  bottom: "fc_scv_pleasant"
  bottom: "label"
  top: "loss"
}
I1130 19:16:21.724817 20614 layer_factory.hpp:77] Creating layer data
I1130 19:16:21.727478 20614 db_lmdb.cpp:35] Opened lmdb /idiap/temp/lmedina/fine-tuning/data/Pleasant/train_lmdb
I1130 19:16:21.727869 20614 net.cpp:84] Creating Layer data
I1130 19:16:21.727881 20614 net.cpp:380] data -> data
I1130 19:16:21.727905 20614 net.cpp:380] data -> label
I1130 19:16:21.727918 20614 data_transformer.cpp:25] Loading mean file from: /idiap/temp/lmedina/fine-tuning/alexnet_places365/places365CNN_mean.binaryproto
I1130 19:16:21.737200 20614 data_layer.cpp:45] output data size: 32,3,227,227
I1130 19:16:21.783615 20614 net.cpp:122] Setting up data
I1130 19:16:21.783660 20614 net.cpp:129] Top shape: 32 3 227 227 (4946784)
I1130 19:16:21.783669 20614 net.cpp:129] Top shape: 32 (32)
I1130 19:16:21.783674 20614 net.cpp:137] Memory required for data: 19787264
I1130 19:16:21.783689 20614 layer_factory.hpp:77] Creating layer conv1
I1130 19:16:21.783717 20614 net.cpp:84] Creating Layer conv1
I1130 19:16:21.783727 20614 net.cpp:406] conv1 <- data
I1130 19:16:21.783746 20614 net.cpp:380] conv1 -> conv1
I1130 19:16:21.785475 20614 net.cpp:122] Setting up conv1
I1130 19:16:21.785490 20614 net.cpp:129] Top shape: 32 96 55 55 (9292800)
I1130 19:16:21.785495 20614 net.cpp:137] Memory required for data: 56958464
I1130 19:16:21.785514 20614 layer_factory.hpp:77] Creating layer relu1
I1130 19:16:21.785526 20614 net.cpp:84] Creating Layer relu1
I1130 19:16:21.785534 20614 net.cpp:406] relu1 <- conv1
I1130 19:16:21.785542 20614 net.cpp:367] relu1 -> conv1 (in-place)
I1130 19:16:21.785554 20614 net.cpp:122] Setting up relu1
I1130 19:16:21.785564 20614 net.cpp:129] Top shape: 32 96 55 55 (9292800)
I1130 19:16:21.785570 20614 net.cpp:137] Memory required for data: 94129664
I1130 19:16:21.785578 20614 layer_factory.hpp:77] Creating layer pool1
I1130 19:16:21.785588 20614 net.cpp:84] Creating Layer pool1
I1130 19:16:21.785595 20614 net.cpp:406] pool1 <- conv1
I1130 19:16:21.785601 20614 net.cpp:380] pool1 -> pool1
I1130 19:16:21.787266 20614 net.cpp:122] Setting up pool1
I1130 19:16:21.787294 20614 net.cpp:129] Top shape: 32 96 27 27 (2239488)
I1130 19:16:21.787302 20614 net.cpp:137] Memory required for data: 103087616
I1130 19:16:21.787307 20614 layer_factory.hpp:77] Creating layer norm1
I1130 19:16:21.787323 20614 net.cpp:84] Creating Layer norm1
I1130 19:16:21.787330 20614 net.cpp:406] norm1 <- pool1
I1130 19:16:21.787339 20614 net.cpp:380] norm1 -> norm1
I1130 19:16:21.787384 20614 net.cpp:122] Setting up norm1
I1130 19:16:21.787395 20614 net.cpp:129] Top shape: 32 96 27 27 (2239488)
I1130 19:16:21.787401 20614 net.cpp:137] Memory required for data: 112045568
I1130 19:16:21.787406 20614 layer_factory.hpp:77] Creating layer conv2
I1130 19:16:21.787420 20614 net.cpp:84] Creating Layer conv2
I1130 19:16:21.787426 20614 net.cpp:406] conv2 <- norm1
I1130 19:16:21.787436 20614 net.cpp:380] conv2 -> conv2
I1130 19:16:21.792414 20614 net.cpp:122] Setting up conv2
I1130 19:16:21.792438 20614 net.cpp:129] Top shape: 32 256 27 27 (5971968)
I1130 19:16:21.792443 20614 net.cpp:137] Memory required for data: 135933440
I1130 19:16:21.792459 20614 layer_factory.hpp:77] Creating layer relu2
I1130 19:16:21.792470 20614 net.cpp:84] Creating Layer relu2
I1130 19:16:21.792477 20614 net.cpp:406] relu2 <- conv2
I1130 19:16:21.792486 20614 net.cpp:367] relu2 -> conv2 (in-place)
I1130 19:16:21.792497 20614 net.cpp:122] Setting up relu2
I1130 19:16:21.792505 20614 net.cpp:129] Top shape: 32 256 27 27 (5971968)
I1130 19:16:21.792510 20614 net.cpp:137] Memory required for data: 159821312
I1130 19:16:21.792515 20614 layer_factory.hpp:77] Creating layer pool2
I1130 19:16:21.792524 20614 net.cpp:84] Creating Layer pool2
I1130 19:16:21.792531 20614 net.cpp:406] pool2 <- conv2
I1130 19:16:21.792536 20614 net.cpp:380] pool2 -> pool2
I1130 19:16:21.792580 20614 net.cpp:122] Setting up pool2
I1130 19:16:21.792590 20614 net.cpp:129] Top shape: 32 256 13 13 (1384448)
I1130 19:16:21.792596 20614 net.cpp:137] Memory required for data: 165359104
I1130 19:16:21.792601 20614 layer_factory.hpp:77] Creating layer norm2
I1130 19:16:21.792613 20614 net.cpp:84] Creating Layer norm2
I1130 19:16:21.792618 20614 net.cpp:406] norm2 <- pool2
I1130 19:16:21.792625 20614 net.cpp:380] norm2 -> norm2
I1130 19:16:21.792661 20614 net.cpp:122] Setting up norm2
I1130 19:16:21.792671 20614 net.cpp:129] Top shape: 32 256 13 13 (1384448)
I1130 19:16:21.792677 20614 net.cpp:137] Memory required for data: 170896896
I1130 19:16:21.792681 20614 layer_factory.hpp:77] Creating layer conv3
I1130 19:16:21.792695 20614 net.cpp:84] Creating Layer conv3
I1130 19:16:21.792701 20614 net.cpp:406] conv3 <- norm2
I1130 19:16:21.792708 20614 net.cpp:380] conv3 -> conv3
I1130 19:16:21.803113 20614 net.cpp:122] Setting up conv3
I1130 19:16:21.803139 20614 net.cpp:129] Top shape: 32 384 13 13 (2076672)
I1130 19:16:21.803144 20614 net.cpp:137] Memory required for data: 179203584
I1130 19:16:21.803159 20614 layer_factory.hpp:77] Creating layer relu3
I1130 19:16:21.803170 20614 net.cpp:84] Creating Layer relu3
I1130 19:16:21.803189 20614 net.cpp:406] relu3 <- conv3
I1130 19:16:21.803200 20614 net.cpp:367] relu3 -> conv3 (in-place)
I1130 19:16:21.803213 20614 net.cpp:122] Setting up relu3
I1130 19:16:21.803220 20614 net.cpp:129] Top shape: 32 384 13 13 (2076672)
I1130 19:16:21.803225 20614 net.cpp:137] Memory required for data: 187510272
I1130 19:16:21.803231 20614 layer_factory.hpp:77] Creating layer conv4
I1130 19:16:21.803241 20614 net.cpp:84] Creating Layer conv4
I1130 19:16:21.803246 20614 net.cpp:406] conv4 <- conv3
I1130 19:16:21.803252 20614 net.cpp:380] conv4 -> conv4
I1130 19:16:21.810303 20614 net.cpp:122] Setting up conv4
I1130 19:16:21.810326 20614 net.cpp:129] Top shape: 32 384 13 13 (2076672)
I1130 19:16:21.810331 20614 net.cpp:137] Memory required for data: 195816960
I1130 19:16:21.810339 20614 layer_factory.hpp:77] Creating layer relu4
I1130 19:16:21.810349 20614 net.cpp:84] Creating Layer relu4
I1130 19:16:21.810354 20614 net.cpp:406] relu4 <- conv4
I1130 19:16:21.810374 20614 net.cpp:367] relu4 -> conv4 (in-place)
I1130 19:16:21.810385 20614 net.cpp:122] Setting up relu4
I1130 19:16:21.810395 20614 net.cpp:129] Top shape: 32 384 13 13 (2076672)
I1130 19:16:21.810400 20614 net.cpp:137] Memory required for data: 204123648
I1130 19:16:21.810405 20614 layer_factory.hpp:77] Creating layer conv5
I1130 19:16:21.810415 20614 net.cpp:84] Creating Layer conv5
I1130 19:16:21.810420 20614 net.cpp:406] conv5 <- conv4
I1130 19:16:21.810426 20614 net.cpp:380] conv5 -> conv5
I1130 19:16:21.814976 20614 net.cpp:122] Setting up conv5
I1130 19:16:21.814998 20614 net.cpp:129] Top shape: 32 256 13 13 (1384448)
I1130 19:16:21.815002 20614 net.cpp:137] Memory required for data: 209661440
I1130 19:16:21.815016 20614 layer_factory.hpp:77] Creating layer relu5
I1130 19:16:21.815026 20614 net.cpp:84] Creating Layer relu5
I1130 19:16:21.815032 20614 net.cpp:406] relu5 <- conv5
I1130 19:16:21.815040 20614 net.cpp:367] relu5 -> conv5 (in-place)
I1130 19:16:21.815049 20614 net.cpp:122] Setting up relu5
I1130 19:16:21.815055 20614 net.cpp:129] Top shape: 32 256 13 13 (1384448)
I1130 19:16:21.815059 20614 net.cpp:137] Memory required for data: 215199232
I1130 19:16:21.815064 20614 layer_factory.hpp:77] Creating layer pool5
I1130 19:16:21.815071 20614 net.cpp:84] Creating Layer pool5
I1130 19:16:21.815075 20614 net.cpp:406] pool5 <- conv5
I1130 19:16:21.815080 20614 net.cpp:380] pool5 -> pool5
I1130 19:16:21.815115 20614 net.cpp:122] Setting up pool5
I1130 19:16:21.815122 20614 net.cpp:129] Top shape: 32 256 6 6 (294912)
I1130 19:16:21.815127 20614 net.cpp:137] Memory required for data: 216378880
I1130 19:16:21.815131 20614 layer_factory.hpp:77] Creating layer fc6
I1130 19:16:21.815145 20614 net.cpp:84] Creating Layer fc6
I1130 19:16:21.815150 20614 net.cpp:406] fc6 <- pool5
I1130 19:16:21.815158 20614 net.cpp:380] fc6 -> fc6
I1130 19:16:22.165904 20614 net.cpp:122] Setting up fc6
I1130 19:16:22.165932 20614 net.cpp:129] Top shape: 32 4096 (131072)
I1130 19:16:22.165936 20614 net.cpp:137] Memory required for data: 216903168
I1130 19:16:22.165947 20614 layer_factory.hpp:77] Creating layer relu6
I1130 19:16:22.165958 20614 net.cpp:84] Creating Layer relu6
I1130 19:16:22.165963 20614 net.cpp:406] relu6 <- fc6
I1130 19:16:22.165971 20614 net.cpp:367] relu6 -> fc6 (in-place)
I1130 19:16:22.165983 20614 net.cpp:122] Setting up relu6
I1130 19:16:22.165989 20614 net.cpp:129] Top shape: 32 4096 (131072)
I1130 19:16:22.165993 20614 net.cpp:137] Memory required for data: 217427456
I1130 19:16:22.165997 20614 layer_factory.hpp:77] Creating layer drop6
I1130 19:16:22.166007 20614 net.cpp:84] Creating Layer drop6
I1130 19:16:22.166013 20614 net.cpp:406] drop6 <- fc6
I1130 19:16:22.166018 20614 net.cpp:367] drop6 -> fc6 (in-place)
I1130 19:16:22.166044 20614 net.cpp:122] Setting up drop6
I1130 19:16:22.166051 20614 net.cpp:129] Top shape: 32 4096 (131072)
I1130 19:16:22.166055 20614 net.cpp:137] Memory required for data: 217951744
I1130 19:16:22.166060 20614 layer_factory.hpp:77] Creating layer fc7
I1130 19:16:22.166069 20614 net.cpp:84] Creating Layer fc7
I1130 19:16:22.166074 20614 net.cpp:406] fc7 <- fc6
I1130 19:16:22.166080 20614 net.cpp:380] fc7 -> fc7
I1130 19:16:22.321393 20614 net.cpp:122] Setting up fc7
I1130 19:16:22.321425 20614 net.cpp:129] Top shape: 32 4096 (131072)
I1130 19:16:22.321429 20614 net.cpp:137] Memory required for data: 218476032
I1130 19:16:22.321440 20614 layer_factory.hpp:77] Creating layer relu7
I1130 19:16:22.321451 20614 net.cpp:84] Creating Layer relu7
I1130 19:16:22.321456 20614 net.cpp:406] relu7 <- fc7
I1130 19:16:22.321465 20614 net.cpp:367] relu7 -> fc7 (in-place)
I1130 19:16:22.321480 20614 net.cpp:122] Setting up relu7
I1130 19:16:22.321485 20614 net.cpp:129] Top shape: 32 4096 (131072)
I1130 19:16:22.321490 20614 net.cpp:137] Memory required for data: 219000320
I1130 19:16:22.321493 20614 layer_factory.hpp:77] Creating layer drop7
I1130 19:16:22.321501 20614 net.cpp:84] Creating Layer drop7
I1130 19:16:22.321506 20614 net.cpp:406] drop7 <- fc7
I1130 19:16:22.321509 20614 net.cpp:367] drop7 -> fc7 (in-place)
I1130 19:16:22.321534 20614 net.cpp:122] Setting up drop7
I1130 19:16:22.321547 20614 net.cpp:129] Top shape: 32 4096 (131072)
I1130 19:16:22.321552 20614 net.cpp:137] Memory required for data: 219524608
I1130 19:16:22.321555 20614 layer_factory.hpp:77] Creating layer fc_scv_pleasant
I1130 19:16:22.321565 20614 net.cpp:84] Creating Layer fc_scv_pleasant
I1130 19:16:22.321570 20614 net.cpp:406] fc_scv_pleasant <- fc7
I1130 19:16:22.321576 20614 net.cpp:380] fc_scv_pleasant -> fc_scv_pleasant
I1130 19:16:22.321691 20614 net.cpp:122] Setting up fc_scv_pleasant
I1130 19:16:22.321698 20614 net.cpp:129] Top shape: 32 1 (32)
I1130 19:16:22.321703 20614 net.cpp:137] Memory required for data: 219524736
I1130 19:16:22.321709 20614 layer_factory.hpp:77] Creating layer loss
I1130 19:16:22.321717 20614 net.cpp:84] Creating Layer loss
I1130 19:16:22.321722 20614 net.cpp:406] loss <- fc_scv_pleasant
I1130 19:16:22.321725 20614 net.cpp:406] loss <- label
I1130 19:16:22.321733 20614 net.cpp:380] loss -> loss
I1130 19:16:22.321766 20614 net.cpp:122] Setting up loss
…
I1130 19:16:22.322736 20614 net.cpp:294] The NetState phase (1) differed from the phase (0) specified by a rule in layer data
I1130 19:16:22.322911 20614 net.cpp:51] Initializing net from parameters: 
name: "CaffeNet-Places365-SCV-pleasant"
state {
  phase: TEST
}
layer {
  name: "data"
  type: "Data"
  top: "data"
  top: "label"
  include {
    phase: TEST
  }
  transform_param {
    mirror: false
    crop_size: 227
    mean_file: "/idiap/temp/lmedina/fine-tuning/alexnet_places365/places365CNN_mean.binaryproto"
  }
  data_param {
    source: "/idiap/temp/lmedina/fine-tuning/data/Pleasant/validation_lmdb"
    batch_size: 32
    backend: LMDB
  }
}
layer {
  name: "conv1"
  type: "Convolution"
  bottom: "data"
  top: "conv1"
  param {
    lr_mult: 1
    decay_mult: 1
  }
  param {
    lr_mult: 2
    decay_mult: 0
  }
  convolution_param {
    num_output: 96
    kernel_size: 11
    stride: 4
    weight_filler {
      type: "gaussian"
      std: 0.01
    }
    bias_filler {
      type: "constant"
      value: 0
    }
  }
}
layer {
  name: "relu1"
  type: "ReLU"
  bottom: "conv1"
  top: "conv1"
}
layer {
  name: "pool1"
  type: "Pooling"
  bottom: "conv1"
  top: "pool1"
  pooling_param {
    pool: MAX
    kernel_size: 3
    stride: 2
  }
}
layer {
  name: "norm1"
  type: "LRN"
  bottom: "pool1"
  top: "norm1"
  lrn_param {
    local_size: 5
    alpha: 0.0001
    beta: 0.75
  }
}
layer {
  name: "conv2"
  type: "Convolution"
  bottom: "norm1"
  top: "conv2"
  param {
    lr_mult: 1
    decay_mult: 1
  }
  param {
    lr_mult: 2
    decay_mult: 0
  }
  convolution_param {
    num_output: 256
    pad: 2
    kernel_size: 5
    group: 2
    weight_filler {
      type: "gaussian"
      std: 0.01
    }
    bias_filler {
      type: "constant"
      value: 1
    }
  }
}
layer {
  name: "relu2"
  type: "ReLU"
  bottom: "conv2"
  top: "conv2"
}
layer {
  name: "pool2"
  type: "Pooling"
  bottom: "conv2"
  top: "pool2"
  pooling_param {
    pool: MAX
    kernel_size: 3
    stride: 2
  }
}
layer {
  name: "norm2"
  type: "LRN"
  bottom: "pool2"
  top: "norm2"
  lrn_param {
    local_size: 5
    alpha: 0.0001
    beta: 0.75
  }
}
layer {
  name: "conv3"
  type: "Convolution"
  bottom: "norm2"
  top: "conv3"
  param {
    lr_mult: 1
    decay_mult: 1
  }
  param {
    lr_mult: 2
    decay_mult: 0
  }
  convolution_param {
    num_output: 384
    pad: 1
    kernel_size: 3
    weight_filler {
      type: "gaussian"
      std: 0.01
    }
    bias_filler {
      type: "constant"
      value: 0
    }
  }
}
layer {
  name: "relu3"
  type: "ReLU"
  bottom: "conv3"
  top: "conv3"
}
layer {
  name: "conv4"
  type: "Convolution"
  bottom: "conv3"
  top: "conv4"
  param {
    lr_mult: 1
    decay_mult: 1
  }
  param {
    lr_mult: 2
    decay_mult: 0
  }
  convolution_param {
    num_output: 384
    pad: 1
    kernel_size: 3
    group: 2
    weight_filler {
      type: "gaussian"
      std: 0.01
    }
    bias_filler {
      type: "constant"
      value: 1
    }
  }
}
layer {
  name: "relu4"
  type: "ReLU"
  bottom: "conv4"
  top: "conv4"
}
layer {
  name: "conv5"
  type: "Convolution"
  bottom: "conv4"
  top: "conv5"
  param {
    lr_mult: 1
    decay_mult: 1
  }
  param {
    lr_mult: 2
    decay_mult: 0
  }
  convolution_param {
    num_output: 256
    pad: 1
    kernel_size: 3
    group: 2
    weight_filler {
      type: "gaussian"
      std: 0.01
    }
    bias_filler {
      type: "constant"
      value: 1
    }
  }
}
layer {
  name: "relu5"
  type: "ReLU"
  bottom: "conv5"
  top: "conv5"
}
layer {
  name: "pool5"
  type: "Pooling"
  bottom: "conv5"
  top: "pool5"
  pooling_param {
    pool: MAX
    kernel_size: 3
    stride: 2
  }
}
layer {
  name: "fc6"
  type: "InnerProduct"
  bottom: "pool5"
  top: "fc6"
  param {
    lr_mult: 1
    decay_mult: 1
  }
  param {
    lr_mult: 2
    decay_mult: 0
  }
  inner_product_param {
    num_output: 4096
    weight_filler {
      type: "gaussian"
      std: 0.005
    }
    bias_filler {
      type: "constant"
      value: 1
    }
  }
}
layer {
  name: "relu6"
  type: "ReLU"
  bottom: "fc6"
  top: "fc6"
}
layer {
  name: "drop6"
  type: "Dropout"
  bottom: "fc6"
  top: "fc6"
  dropout_param {
    dropout_ratio: 0.5
  }
}
layer {
  name: "fc7"
  type: "InnerProduct"
  bottom: "fc6"
  top: "fc7"
  param {
    lr_mult: 1
    decay_mult: 1
  }
  param {
    lr_mult: 2
    decay_mult: 0
  }
  inner_product_param {
    num_output: 4096
    weight_filler {
      type: "gaussian"
      std: 0.005
    }
    bias_filler {
      type: "constant"
      value: 1
    }
  }
}
layer {
  name: "relu7"
  type: "ReLU"
  bottom: "fc7"
  top: "fc7"
}
layer {
  name: "drop7"
  type: "Dropout"
  bottom: "fc7"
  top: "fc7"
  dropout_param {
    dropout_ratio: 0.5
  }
}
layer {
  name: "fc_scv_pleasant"
  type: "InnerProduct"
  bottom: "fc7"
  top: "fc_scv_pleasant"
  param {
    lr_mult: 10
    decay_mult: 1
  }
  param {
    lr_mult: 20
    decay_mult: 0
  }
  inner_product_param {
    num_output: 1
    weight_filler {
      type: "xavier"
      std: 0.01
    }
    bias_filler {
      type: "constant"
      value: 0
    }
  }
}
layer {
  name: "loss"
  type: "EuclideanLoss"
  bottom: "fc_scv_pleasant"
  bottom: "label"
  top: "loss"
}
layer {
  name: "losttest"
  type: "EuclideanLoss"
  bottom: "fc_scv_pleasant"
  bottom: "label"
  top: "losttest"
  include {
    phase: TEST
  }
}
I1130 19:16:22.323007 20614 layer_factory.hpp:77] Creating layer data
I1130 19:16:22.325276 20614 db_lmdb.cpp:35] Opened lmdb /idiap/temp/lmedina/fine-tuning/data/Pleasant/validation_lmdb
I1130 19:16:22.325680 20614 net.cpp:84] Creating Layer data
I1130 19:16:22.325701 20614 net.cpp:380] data -> data
I1130 19:16:22.325711 20614 net.cpp:380] data -> label
I1130 19:16:22.325718 20614 data_transformer.cpp:25] Loading mean file from: /idiap/temp/lmedina/fine-tuning/alexnet_places365/places365CNN_mean.binaryproto
I1130 19:16:22.327456 20614 data_layer.cpp:45] output data size: 32,3,227,227
I1130 19:16:22.362813 20614 net.cpp:122] Setting up data
I1130 19:16:22.362848 20614 net.cpp:129] Top shape: 32 3 227 227 (4946784)
I1130 19:16:22.362854 20614 net.cpp:129] Top shape: 32 (32)
I1130 19:16:22.362857 20614 net.cpp:137] Memory required for data: 19787264
I1130 19:16:22.362864 20614 layer_factory.hpp:77] Creating layer label_data_1_split
I1130 19:16:22.362879 20614 net.cpp:84] Creating Layer label_data_1_split
I1130 19:16:22.362887 20614 net.cpp:406] label_data_1_split <- label
I1130 19:16:22.362897 20614 net.cpp:380] label_data_1_split -> label_data_1_split_0
I1130 19:16:22.362910 20614 net.cpp:380] label_data_1_split -> label_data_1_split_1
I1130 19:16:22.362949 20614 net.cpp:122] Setting up label_data_1_split
I1130 19:16:22.362957 20614 net.cpp:129] Top shape: 32 (32)
I1130 19:16:22.362963 20614 net.cpp:129] Top shape: 32 (32)
I1130 19:16:22.362968 20614 net.cpp:137] Memory required for data: 19787520
I1130 19:16:22.362974 20614 layer_factory.hpp:77] Creating layer conv1
I1130 19:16:22.362987 20614 net.cpp:84] Creating Layer conv1
I1130 19:16:22.362992 20614 net.cpp:406] conv1 <- data
I1130 19:16:22.362998 20614 net.cpp:380] conv1 -> conv1
I1130 19:16:22.363483 20614 net.cpp:122] Setting up conv1
I1130 19:16:22.363492 20614 net.cpp:129] Top shape: 32 96 55 55 (9292800)
I1130 19:16:22.363497 20614 net.cpp:137] Memory required for data: 56958720
I1130 19:16:22.363507 20614 layer_factory.hpp:77] Creating layer relu1
I1130 19:16:22.363513 20614 net.cpp:84] Creating Layer relu1
I1130 19:16:22.363517 20614 net.cpp:406] relu1 <- conv1
I1130 19:16:22.363523 20614 net.cpp:367] relu1 -> conv1 (in-place)
I1130 19:16:22.363529 20614 net.cpp:122] Setting up relu1
I1130 19:16:22.363535 20614 net.cpp:129] Top shape: 32 96 55 55 (9292800)
I1130 19:16:22.363539 20614 net.cpp:137] Memory required for data: 94129920
I1130 19:16:22.363545 20614 layer_factory.hpp:77] Creating layer pool1
I1130 19:16:22.363554 20614 net.cpp:84] Creating Layer pool1
I1130 19:16:22.363559 20614 net.cpp:406] pool1 <- conv1
I1130 19:16:22.363564 20614 net.cpp:380] pool1 -> pool1
I1130 19:16:22.363626 20614 net.cpp:122] Setting up pool1
I1130 19:16:22.363634 20614 net.cpp:129] Top shape: 32 96 27 27 (2239488)
I1130 19:16:22.363638 20614 net.cpp:137] Memory required for data: 103087872
I1130 19:16:22.363642 20614 layer_factory.hpp:77] Creating layer norm1
I1130 19:16:22.363651 20614 net.cpp:84] Creating Layer norm1
I1130 19:16:22.363656 20614 net.cpp:406] norm1 <- pool1
I1130 19:16:22.363660 20614 net.cpp:380] norm1 -> norm1
I1130 19:16:22.363688 20614 net.cpp:122] Setting up norm1
I1130 19:16:22.363695 20614 net.cpp:129] Top shape: 32 96 27 27 (2239488)
I1130 19:16:22.363700 20614 net.cpp:137] Memory required for data: 112045824
I1130 19:16:22.363703 20614 layer_factory.hpp:77] Creating layer conv2
I1130 19:16:22.363713 20614 net.cpp:84] Creating Layer conv2
I1130 19:16:22.363718 20614 net.cpp:406] conv2 <- norm1
I1130 19:16:22.363723 20614 net.cpp:380] conv2 -> conv2
I1130 19:16:22.366821 20614 net.cpp:122] Setting up conv2
I1130 19:16:22.366833 20614 net.cpp:129] Top shape: 32 256 27 27 (5971968)
I1130 19:16:22.366838 20614 net.cpp:137] Memory required for data: 135933696
I1130 19:16:22.366848 20614 layer_factory.hpp:77] Creating layer relu2
I1130 19:16:22.366856 20614 net.cpp:84] Creating Layer relu2
I1130 19:16:22.366861 20614 net.cpp:406] relu2 <- conv2
I1130 19:16:22.366866 20614 net.cpp:367] relu2 -> conv2 (in-place)
I1130 19:16:22.366874 20614 net.cpp:122] Setting up relu2
I1130 19:16:22.366880 20614 net.cpp:129] Top shape: 32 256 27 27 (5971968)
I1130 19:16:22.366884 20614 net.cpp:137] Memory required for data: 159821568
I1130 19:16:22.366889 20614 layer_factory.hpp:77] Creating layer pool2
I1130 19:16:22.366896 20614 net.cpp:84] Creating Layer pool2
I1130 19:16:22.366900 20614 net.cpp:406] pool2 <- conv2
I1130 19:16:22.366905 20614 net.cpp:380] pool2 -> pool2
I1130 19:16:22.366937 20614 net.cpp:122] Setting up pool2
I1130 19:16:22.366945 20614 net.cpp:129] Top shape: 32 256 13 13 (1384448)
I1130 19:16:22.366950 20614 net.cpp:137] Memory required for data: 165359360
I1130 19:16:22.366953 20614 layer_factory.hpp:77] Creating layer norm2
I1130 19:16:22.366960 20614 net.cpp:84] Creating Layer norm2
I1130 19:16:22.366964 20614 net.cpp:406] norm2 <- pool2
I1130 19:16:22.366971 20614 net.cpp:380] norm2 -> norm2
I1130 19:16:22.366998 20614 net.cpp:122] Setting up norm2
I1130 19:16:22.367005 20614 net.cpp:129] Top shape: 32 256 13 13 (1384448)
I1130 19:16:22.367009 20614 net.cpp:137] Memory required for data: 170897152
I1130 19:16:22.367013 20614 layer_factory.hpp:77] Creating layer conv3
I1130 19:16:22.367022 20614 net.cpp:84] Creating Layer conv3
I1130 19:16:22.367027 20614 net.cpp:406] conv3 <- norm2
I1130 19:16:22.367033 20614 net.cpp:380] conv3 -> conv3
I1130 19:16:22.375450 20614 net.cpp:122] Setting up conv3
I1130 19:16:22.375476 20614 net.cpp:129] Top shape: 32 384 13 13 (2076672)
I1130 19:16:22.375480 20614 net.cpp:137] Memory required for data: 179203840
I1130 19:16:22.375494 20614 layer_factory.hpp:77] Creating layer relu3
I1130 19:16:22.375506 20614 net.cpp:84] Creating Layer relu3
I1130 19:16:22.375512 20614 net.cpp:406] relu3 <- conv3
I1130 19:16:22.375520 20614 net.cpp:367] relu3 -> conv3 (in-place)
I1130 19:16:22.375531 20614 net.cpp:122] Setting up relu3
I1130 19:16:22.375536 20614 net.cpp:129] Top shape: 32 384 13 13 (2076672)
I1130 19:16:22.375540 20614 net.cpp:137] Memory required for data: 187510528
I1130 19:16:22.375545 20614 layer_factory.hpp:77] Creating layer conv4
I1130 19:16:22.375555 20614 net.cpp:84] Creating Layer conv4
I1130 19:16:22.375561 20614 net.cpp:406] conv4 <- conv3
I1130 19:16:22.375567 20614 net.cpp:380] conv4 -> conv4
I1130 19:16:22.382081 20614 net.cpp:122] Setting up conv4
I1130 19:16:22.382100 20614 net.cpp:129] Top shape: 32 384 13 13 (2076672)
I1130 19:16:22.382104 20614 net.cpp:137] Memory required for data: 195817216
I1130 19:16:22.382112 20614 layer_factory.hpp:77] Creating layer relu4
I1130 19:16:22.382122 20614 net.cpp:84] Creating Layer relu4
I1130 19:16:22.382128 20614 net.cpp:406] relu4 <- conv4
I1130 19:16:22.382136 20614 net.cpp:367] relu4 -> conv4 (in-place)
I1130 19:16:22.382145 20614 net.cpp:122] Setting up relu4
I1130 19:16:22.382151 20614 net.cpp:129] Top shape: 32 384 13 13 (2076672)
I1130 19:16:22.382154 20614 net.cpp:137] Memory required for data: 204123904
I1130 19:16:22.382159 20614 layer_factory.hpp:77] Creating layer conv5
I1130 19:16:22.382167 20614 net.cpp:84] Creating Layer conv5
I1130 19:16:22.382172 20614 net.cpp:406] conv5 <- conv4
I1130 19:16:22.382179 20614 net.cpp:380] conv5 -> conv5
I1130 19:16:22.386585 20614 net.cpp:122] Setting up conv5
I1130 19:16:22.386606 20614 net.cpp:129] Top shape: 32 256 13 13 (1384448)
I1130 19:16:22.386611 20614 net.cpp:137] Memory required for data: 209661696
I1130 19:16:22.386624 20614 layer_factory.hpp:77] Creating layer relu5
I1130 19:16:22.386636 20614 net.cpp:84] Creating Layer relu5
I1130 19:16:22.386641 20614 net.cpp:406] relu5 <- conv5
I1130 19:16:22.386654 20614 net.cpp:367] relu5 -> conv5 (in-place)
I1130 19:16:22.386664 20614 net.cpp:122] Setting up relu5
I1130 19:16:22.386670 20614 net.cpp:129] Top shape: 32 256 13 13 (1384448)
I1130 19:16:22.386673 20614 net.cpp:137] Memory required for data: 215199488
I1130 19:16:22.386678 20614 layer_factory.hpp:77] Creating layer pool5
I1130 19:16:22.386687 20614 net.cpp:84] Creating Layer pool5
I1130 19:16:22.386692 20614 net.cpp:406] pool5 <- conv5
I1130 19:16:22.386698 20614 net.cpp:380] pool5 -> pool5
I1130 19:16:22.386734 20614 net.cpp:122] Setting up pool5
I1130 19:16:22.386742 20614 net.cpp:129] Top shape: 32 256 6 6 (294912)
I1130 19:16:22.386746 20614 net.cpp:137] Memory required for data: 216379136
I1130 19:16:22.386750 20614 layer_factory.hpp:77] Creating layer fc6
I1130 19:16:22.386759 20614 net.cpp:84] Creating Layer fc6
I1130 19:16:22.386765 20614 net.cpp:406] fc6 <- pool5
I1130 19:16:22.386781 20614 net.cpp:380] fc6 -> fc6
I1130 19:16:22.737713 20614 net.cpp:122] Setting up fc6
I1130 19:16:22.737742 20614 net.cpp:129] Top shape: 32 4096 (131072)
I1130 19:16:22.737746 20614 net.cpp:137] Memory required for data: 216903424
I1130 19:16:22.737757 20614 layer_factory.hpp:77] Creating layer relu6
I1130 19:16:22.737768 20614 net.cpp:84] Creating Layer relu6
I1130 19:16:22.737773 20614 net.cpp:406] relu6 <- fc6
I1130 19:16:22.737782 20614 net.cpp:367] relu6 -> fc6 (in-place)
I1130 19:16:22.737793 20614 net.cpp:122] Setting up relu6
I1130 19:16:22.737799 20614 net.cpp:129] Top shape: 32 4096 (131072)
I1130 19:16:22.737802 20614 net.cpp:137] Memory required for data: 217427712
I1130 19:16:22.737807 20614 layer_factory.hpp:77] Creating layer drop6
I1130 19:16:22.737813 20614 net.cpp:84] Creating Layer drop6
I1130 19:16:22.737818 20614 net.cpp:406] drop6 <- fc6
I1130 19:16:22.737823 20614 net.cpp:367] drop6 -> fc6 (in-place)
I1130 19:16:22.737848 20614 net.cpp:122] Setting up drop6
I1130 19:16:22.737854 20614 net.cpp:129] Top shape: 32 4096 (131072)
I1130 19:16:22.737859 20614 net.cpp:137] Memory required for data: 217952000
I1130 19:16:22.737864 20614 layer_factory.hpp:77] Creating layer fc7
I1130 19:16:22.737872 20614 net.cpp:84] Creating Layer fc7
I1130 19:16:22.737876 20614 net.cpp:406] fc7 <- fc6
I1130 19:16:22.737884 20614 net.cpp:380] fc7 -> fc7
I1130 19:16:22.892829 20614 net.cpp:122] Setting up fc7
I1130 19:16:22.892859 20614 net.cpp:129] Top shape: 32 4096 (131072)
I1130 19:16:22.892864 20614 net.cpp:137] Memory required for data: 218476288
I1130 19:16:22.892875 20614 layer_factory.hpp:77] Creating layer relu7
I1130 19:16:22.892886 20614 net.cpp:84] Creating Layer relu7
I1130 19:16:22.892891 20614 net.cpp:406] relu7 <- fc7
I1130 19:16:22.892900 20614 net.cpp:367] relu7 -> fc7 (in-place)
I1130 19:16:22.892910 20614 net.cpp:122] Setting up relu7
I1130 19:16:22.892916 20614 net.cpp:129] Top shape: 32 4096 (131072)
I1130 19:16:22.892920 20614 net.cpp:137] Memory required for data: 219000576
I1130 19:16:22.892923 20614 layer_factory.hpp:77] Creating layer drop7
I1130 19:16:22.892930 20614 net.cpp:84] Creating Layer drop7
I1130 19:16:22.892935 20614 net.cpp:406] drop7 <- fc7
I1130 19:16:22.892940 20614 net.cpp:367] drop7 -> fc7 (in-place)
I1130 19:16:22.892966 20614 net.cpp:122] Setting up drop7
I1130 19:16:22.892972 20614 net.cpp:129] Top shape: 32 4096 (131072)
I1130 19:16:22.892976 20614 net.cpp:137] Memory required for data: 219524864
I1130 19:16:22.892982 20614 layer_factory.hpp:77] Creating layer fc_scv_pleasant
I1130 19:16:22.892989 20614 net.cpp:84] Creating Layer fc_scv_pleasant
I1130 19:16:22.892994 20614 net.cpp:406] fc_scv_pleasant <- fc7
I1130 19:16:22.893000 20614 net.cpp:380] fc_scv_pleasant -> fc_scv_pleasant
I1130 19:16:22.893102 20614 net.cpp:122] Setting up fc_scv_pleasant
I1130 19:16:22.893111 20614 net.cpp:129] Top shape: 32 1 (32)
I1130 19:16:22.893115 20614 net.cpp:137] Memory required for data: 219524992
I1130 19:16:22.893121 20614 layer_factory.hpp:77] Creating layer fc_scv_pleasant_fc_scv_pleasant_0_split
I1130 19:16:22.893128 20614 net.cpp:84] Creating Layer fc_scv_pleasant_fc_scv_pleasant_0_split
I1130 19:16:22.893142 20614 net.cpp:406] fc_scv_pleasant_fc_scv_pleasant_0_split <- fc_scv_pleasant
I1130 19:16:22.893147 20614 net.cpp:380] fc_scv_pleasant_fc_scv_pleasant_0_split -> fc_scv_pleasant_fc_scv_pleasant_0_split_0
I1130 19:16:22.893154 20614 net.cpp:380] fc_scv_pleasant_fc_scv_pleasant_0_split -> fc_scv_pleasant_fc_scv_pleasant_0_split_1
I1130 19:16:22.893184 20614 net.cpp:122] Setting up fc_scv_pleasant_fc_scv_pleasant_0_split
I1130 19:16:22.893191 20614 net.cpp:129] Top shape: 32 1 (32)
I1130 19:16:22.893198 20614 net.cpp:129] Top shape: 32 1 (32)
I1130 19:16:22.893201 20614 net.cpp:137] Memory required for data: 219525248
I1130 19:16:22.893205 20614 layer_factory.hpp:77] Creating layer loss
I1130 19:16:22.893213 20614 net.cpp:84] Creating Layer loss
I1130 19:16:22.893216 20614 net.cpp:406] loss <- fc_scv_pleasant_fc_scv_pleasant_0_split_0
I1130 19:16:22.893221 20614 net.cpp:406] loss <- label_data_1_split_0
I1130 19:16:22.893227 20614 net.cpp:380] loss -> loss
…
