…
I1205 09:42:07.150596 24139 net.cpp:294] The NetState phase (0) differed from the phase (1) specified by a rule in layer losttest
I1205 09:42:07.150866 24139 net.cpp:51] Initializing net from parameters: 
name: "VGG-Places365-SCV-Dirty"
state {
  phase: TRAIN
  level: 0
  stage: ""
}
layer {
  name: "data"
  type: "Data"
  top: "data"
  top: "label"
  include {
    phase: TRAIN
  }
  transform_param {
    mirror: true
    crop_size: 224
    mean_file: "/idiap/temp/lmedina/fine-tuning/vgg16_places365/places365CNN_mean.binaryproto"
  }
  data_param {
    source: "/idiap/temp/lmedina/fine-tuning/data/Dirty/train_lmdb"
    batch_size: 16
    backend: LMDB
  }
}
layer {
  name: "conv1_1"
  type: "Convolution"
  bottom: "data"
  top: "conv1_1"
  param {
    lr_mult: 1
    decay_mult: 1
  }
  param {
    lr_mult: 2
    decay_mult: 0
  }
  convolution_param {
    num_output: 64
    pad: 1
    kernel_size: 3
    weight_filler {
      type: "gaussian"
      std: 0.01
    }
    bias_filler {
      type: "constant"
      value: 0
    }
  }
}
layer {
  name: "relu1_1"
  type: "ReLU"
  bottom: "conv1_1"
  top: "conv1_1"
}
layer {
  name: "conv1_2"
  type: "Convolution"
  bottom: "conv1_1"
  top: "conv1_2"
  param {
    lr_mult: 1
    decay_mult: 1
  }
  param {
    lr_mult: 2
    decay_mult: 0
  }
  convolution_param {
    num_output: 64
    pad: 1
    kernel_size: 3
    weight_filler {
      type: "gaussian"
      std: 0.01
    }
    bias_filler {
      type: "constant"
      value: 0
    }
  }
}
layer {
  name: "relu1_2"
  type: "ReLU"
  bottom: "conv1_2"
  top: "conv1_2"
}
layer {
  name: "pool1"
  type: "Pooling"
  bottom: "conv1_2"
  top: "pool1"
  pooling_param {
    pool: MAX
    kernel_size: 2
    stride: 2
  }
}
layer {
  name: "conv2_1"
  type: "Convolution"
  bottom: "pool1"
  top: "conv2_1"
  param {
    lr_mult: 1
    decay_mult: 1
  }
  param {
    lr_mult: 2
    decay_mult: 0
  }
  convolution_param {
    num_output: 128
    pad: 1
    kernel_size: 3
    weight_filler {
      type: "gaussian"
      std: 0.01
    }
    bias_filler {
      type: "constant"
      value: 0
    }
  }
}
layer {
  name: "relu2_1"
  type: "ReLU"
  bottom: "conv2_1"
  top: "conv2_1"
}
layer {
  name: "conv2_2"
  type: "Convolution"
  bottom: "conv2_1"
  top: "conv2_2"
  param {
    lr_mult: 1
    decay_mult: 1
  }
  param {
    lr_mult: 2
    decay_mult: 0
  }
  convolution_param {
    num_output: 128
    pad: 1
    kernel_size: 3
    weight_filler {
      type: "gaussian"
      std: 0.01
    }
    bias_filler {
      type: "constant"
      value: 0
    }
  }
}
layer {
  name: "relu2_2"
  type: "ReLU"
  bottom: "conv2_2"
  top: "conv2_2"
}
layer {
  name: "pool2"
  type: "Pooling"
  bottom: "conv2_2"
  top: "pool2"
  pooling_param {
    pool: MAX
    kernel_size: 2
    stride: 2
  }
}
layer {
  name: "conv3_1"
  type: "Convolution"
  bottom: "pool2"
  top: "conv3_1"
  param {
    lr_mult: 1
    decay_mult: 1
  }
  param {
    lr_mult: 2
    decay_mult: 0
  }
  convolution_param {
    num_output: 256
    pad: 1
    kernel_size: 3
    weight_filler {
      type: "gaussian"
      std: 0.01
    }
    bias_filler {
      type: "constant"
      value: 0
    }
  }
}
layer {
  name: "relu3_1"
  type: "ReLU"
  bottom: "conv3_1"
  top: "conv3_1"
}
layer {
  name: "conv3_2"
  type: "Convolution"
  bottom: "conv3_1"
  top: "conv3_2"
  param {
    lr_mult: 1
    decay_mult: 1
  }
  param {
    lr_mult: 2
    decay_mult: 0
  }
  convolution_param {
    num_output: 256
    pad: 1
    kernel_size: 3
    weight_filler {
      type: "gaussian"
      std: 0.01
    }
    bias_filler {
      type: "constant"
      value: 0
    }
  }
}
layer {
  name: "relu3_2"
  type: "ReLU"
  bottom: "conv3_2"
  top: "conv3_2"
}
layer {
  name: "conv3_3"
  type: "Convolution"
  bottom: "conv3_2"
  top: "conv3_3"
  param {
    lr_mult: 1
    decay_mult: 1
  }
  param {
    lr_mult: 2
    decay_mult: 0
  }
  convolution_param {
    num_output: 256
    pad: 1
    kernel_size: 3
    weight_filler {
      type: "gaussian"
      std: 0.01
    }
    bias_filler {
      type: "constant"
      value: 0
    }
  }
}
layer {
  name: "relu3_3"
  type: "ReLU"
  bottom: "conv3_3"
  top: "conv3_3"
}
layer {
  name: "pool3"
  type: "Pooling"
  bottom: "conv3_3"
  top: "pool3"
  pooling_param {
    pool: MAX
    kernel_size: 2
    stride: 2
  }
}
layer {
  name: "conv4_1"
  type: "Convolution"
  bottom: "pool3"
  top: "conv4_1"
  param {
    lr_mult: 1
    decay_mult: 1
  }
  param {
    lr_mult: 2
    decay_mult: 0
  }
  convolution_param {
    num_output: 512
    pad: 1
    kernel_size: 3
    weight_filler {
      type: "gaussian"
      std: 0.01
    }
    bias_filler {
      type: "constant"
      value: 0
    }
  }
}
layer {
  name: "relu4_1"
  type: "ReLU"
  bottom: "conv4_1"
  top: "conv4_1"
}
layer {
  name: "conv4_2"
  type: "Convolution"
  bottom: "conv4_1"
  top: "conv4_2"
  param {
    lr_mult: 1
    decay_mult: 1
  }
  param {
    lr_mult: 2
    decay_mult: 0
  }
  convolution_param {
    num_output: 512
    pad: 1
    kernel_size: 3
    weight_filler {
      type: "gaussian"
      std: 0.01
    }
    bias_filler {
      type: "constant"
      value: 0
    }
  }
}
layer {
  name: "relu4_2"
  type: "ReLU"
  bottom: "conv4_2"
  top: "conv4_2"
}
layer {
  name: "conv4_3"
  type: "Convolution"
  bottom: "conv4_2"
  top: "conv4_3"
  param {
    lr_mult: 1
    decay_mult: 1
  }
  param {
    lr_mult: 2
    decay_mult: 0
  }
  convolution_param {
    num_output: 512
    pad: 1
    kernel_size: 3
    weight_filler {
      type: "gaussian"
      std: 0.01
    }
    bias_filler {
      type: "constant"
      value: 0
    }
  }
}
layer {
  name: "relu4_3"
  type: "ReLU"
  bottom: "conv4_3"
  top: "conv4_3"
}
layer {
  name: "pool4"
  type: "Pooling"
  bottom: "conv4_3"
  top: "pool4"
  pooling_param {
    pool: MAX
    kernel_size: 2
    stride: 2
  }
}
layer {
  name: "conv5_1"
  type: "Convolution"
  bottom: "pool4"
  top: "conv5_1"
  param {
    lr_mult: 1
    decay_mult: 1
  }
  param {
    lr_mult: 2
    decay_mult: 0
  }
  convolution_param {
    num_output: 512
    pad: 1
    kernel_size: 3
    weight_filler {
      type: "gaussian"
      std: 0.01
    }
    bias_filler {
      type: "constant"
      value: 0
    }
  }
}
layer {
  name: "relu5_1"
  type: "ReLU"
  bottom: "conv5_1"
  top: "conv5_1"
}
layer {
  name: "conv5_2"
  type: "Convolution"
  bottom: "conv5_1"
  top: "conv5_2"
  param {
    lr_mult: 1
    decay_mult: 1
  }
  param {
    lr_mult: 2
    decay_mult: 0
  }
  convolution_param {
    num_output: 512
    pad: 1
    kernel_size: 3
    weight_filler {
      type: "gaussian"
      std: 0.01
    }
    bias_filler {
      type: "constant"
      value: 0
    }
  }
}
layer {
  name: "relu5_2"
  type: "ReLU"
  bottom: "conv5_2"
  top: "conv5_2"
}
layer {
  name: "conv5_3"
  type: "Convolution"
  bottom: "conv5_2"
  top: "conv5_3"
  param {
    lr_mult: 1
    decay_mult: 1
  }
  param {
    lr_mult: 2
    decay_mult: 0
  }
  convolution_param {
    num_output: 512
    pad: 1
    kernel_size: 3
    weight_filler {
      type: "gaussian"
      std: 0.01
    }
    bias_filler {
      type: "constant"
      value: 0
    }
  }
}
layer {
  name: "relu5_3"
  type: "ReLU"
  bottom: "conv5_3"
  top: "conv5_3"
}
layer {
  name: "pool5"
  type: "Pooling"
  bottom: "conv5_3"
  top: "pool5"
  pooling_param {
    pool: MAX
    kernel_size: 2
    stride: 2
  }
}
layer {
  name: "fc6"
  type: "InnerProduct"
  bottom: "pool5"
  top: "fc6"
  param {
    lr_mult: 1
    decay_mult: 1
  }
  param {
    lr_mult: 2
    decay_mult: 0
  }
  inner_product_param {
    num_output: 4096
    weight_filler {
      type: "gaussian"
      std: 0.01
    }
    bias_filler {
      type: "constant"
      value: 0
    }
  }
}
layer {
  name: "relu6"
  type: "ReLU"
  bottom: "fc6"
  top: "fc6"
}
layer {
  name: "drop6"
  type: "Dropout"
  bottom: "fc6"
  top: "fc6"
  dropout_param {
    dropout_ratio: 0.5
  }
}
layer {
  name: "fc7"
  type: "InnerProduct"
  bottom: "fc6"
  top: "fc7"
  param {
    lr_mult: 1
    decay_mult: 1
  }
  param {
    lr_mult: 2
    decay_mult: 0
  }
  inner_product_param {
    num_output: 4096
    weight_filler {
      type: "gaussian"
      std: 0.01
    }
    bias_filler {
      type: "constant"
      value: 0
    }
  }
}
layer {
  name: "relu7"
  type: "ReLU"
  bottom: "fc7"
  top: "fc7"
}
layer {
  name: "drop7"
  type: "Dropout"
  bottom: "fc7"
  top: "fc7"
  dropout_param {
    dropout_ratio: 0.5
  }
}
layer {
  name: "fc_scv_dirty"
  type: "InnerProduct"
  bottom: "fc7"
  top: "fc_scv_dirty"
  param {
    lr_mult: 10
    decay_mult: 1
  }
  param {
    lr_mult: 20
    decay_mult: 0
  }
  inner_product_param {
    num_output: 1
    weight_filler {
      type: "xavier"
      std: 0.01
    }
    bias_filler {
      type: "constant"
      value: 0
    }
  }
}
layer {
  name: "loss"
  type: "EuclideanLoss"
  bottom: "fc_scv_dirty"
  bottom: "label"
  top: "loss"
}
I1205 09:42:07.151103 24139 layer_factory.hpp:77] Creating layer data
I1205 09:42:07.161057 24139 db_lmdb.cpp:35] Opened lmdb /idiap/temp/lmedina/fine-tuning/data/Dirty/train_lmdb
I1205 09:42:07.176702 24139 net.cpp:84] Creating Layer data
I1205 09:42:07.177000 24139 net.cpp:380] data -> data
I1205 09:42:07.177342 24139 net.cpp:380] data -> label
I1205 09:42:07.177415 24139 data_transformer.cpp:25] Loading mean file from: /idiap/temp/lmedina/fine-tuning/vgg16_places365/places365CNN_mean.binaryproto
I1205 09:42:07.196969 24139 data_layer.cpp:45] output data size: 16,3,224,224
I1205 09:42:07.233249 24139 net.cpp:122] Setting up data
I1205 09:42:07.233304 24139 net.cpp:129] Top shape: 16 3 224 224 (2408448)
I1205 09:42:07.233320 24139 net.cpp:129] Top shape: 16 (16)
I1205 09:42:07.233332 24139 net.cpp:137] Memory required for data: 9633856
I1205 09:42:07.233355 24139 layer_factory.hpp:77] Creating layer conv1_1
I1205 09:42:07.233392 24139 net.cpp:84] Creating Layer conv1_1
I1205 09:42:07.233407 24139 net.cpp:406] conv1_1 <- data
I1205 09:42:07.233430 24139 net.cpp:380] conv1_1 -> conv1_1
I1205 09:42:07.235129 24139 net.cpp:122] Setting up conv1_1
I1205 09:42:07.235155 24139 net.cpp:129] Top shape: 16 64 224 224 (51380224)
I1205 09:42:07.235167 24139 net.cpp:137] Memory required for data: 215154752
I1205 09:42:07.235193 24139 layer_factory.hpp:77] Creating layer relu1_1
I1205 09:42:07.235213 24139 net.cpp:84] Creating Layer relu1_1
I1205 09:42:07.235224 24139 net.cpp:406] relu1_1 <- conv1_1
I1205 09:42:07.235291 24139 net.cpp:367] relu1_1 -> conv1_1 (in-place)
I1205 09:42:07.235311 24139 net.cpp:122] Setting up relu1_1
I1205 09:42:07.235325 24139 net.cpp:129] Top shape: 16 64 224 224 (51380224)
I1205 09:42:07.235337 24139 net.cpp:137] Memory required for data: 420675648
I1205 09:42:07.235348 24139 layer_factory.hpp:77] Creating layer conv1_2
I1205 09:42:07.235368 24139 net.cpp:84] Creating Layer conv1_2
I1205 09:42:07.235379 24139 net.cpp:406] conv1_2 <- conv1_1
I1205 09:42:07.235406 24139 net.cpp:380] conv1_2 -> conv1_2
I1205 09:42:07.236690 24139 net.cpp:122] Setting up conv1_2
I1205 09:42:07.236716 24139 net.cpp:129] Top shape: 16 64 224 224 (51380224)
I1205 09:42:07.236727 24139 net.cpp:137] Memory required for data: 626196544
I1205 09:42:07.236747 24139 layer_factory.hpp:77] Creating layer relu1_2
I1205 09:42:07.236765 24139 net.cpp:84] Creating Layer relu1_2
I1205 09:42:07.236778 24139 net.cpp:406] relu1_2 <- conv1_2
I1205 09:42:07.236798 24139 net.cpp:367] relu1_2 -> conv1_2 (in-place)
I1205 09:42:07.236814 24139 net.cpp:122] Setting up relu1_2
I1205 09:42:07.236827 24139 net.cpp:129] Top shape: 16 64 224 224 (51380224)
I1205 09:42:07.236838 24139 net.cpp:137] Memory required for data: 831717440
I1205 09:42:07.236850 24139 layer_factory.hpp:77] Creating layer pool1
I1205 09:42:07.236867 24139 net.cpp:84] Creating Layer pool1
I1205 09:42:07.236878 24139 net.cpp:406] pool1 <- conv1_2
I1205 09:42:07.236893 24139 net.cpp:380] pool1 -> pool1
I1205 09:42:07.236954 24139 net.cpp:122] Setting up pool1
I1205 09:42:07.236969 24139 net.cpp:129] Top shape: 16 64 112 112 (12845056)
I1205 09:42:07.236981 24139 net.cpp:137] Memory required for data: 883097664
I1205 09:42:07.236994 24139 layer_factory.hpp:77] Creating layer conv2_1
I1205 09:42:07.237018 24139 net.cpp:84] Creating Layer conv2_1
I1205 09:42:07.237030 24139 net.cpp:406] conv2_1 <- pool1
I1205 09:42:07.237046 24139 net.cpp:380] conv2_1 -> conv2_1
I1205 09:42:07.239830 24139 net.cpp:122] Setting up conv2_1
I1205 09:42:07.239856 24139 net.cpp:129] Top shape: 16 128 112 112 (25690112)
I1205 09:42:07.239868 24139 net.cpp:137] Memory required for data: 985858112
I1205 09:42:07.239888 24139 layer_factory.hpp:77] Creating layer relu2_1
I1205 09:42:07.239905 24139 net.cpp:84] Creating Layer relu2_1
I1205 09:42:07.239917 24139 net.cpp:406] relu2_1 <- conv2_1
I1205 09:42:07.239933 24139 net.cpp:367] relu2_1 -> conv2_1 (in-place)
I1205 09:42:07.239948 24139 net.cpp:122] Setting up relu2_1
I1205 09:42:07.239962 24139 net.cpp:129] Top shape: 16 128 112 112 (25690112)
I1205 09:42:07.239974 24139 net.cpp:137] Memory required for data: 1088618560
I1205 09:42:07.239985 24139 layer_factory.hpp:77] Creating layer conv2_2
I1205 09:42:07.240005 24139 net.cpp:84] Creating Layer conv2_2
I1205 09:42:07.240016 24139 net.cpp:406] conv2_2 <- conv2_1
I1205 09:42:07.240031 24139 net.cpp:380] conv2_2 -> conv2_2
I1205 09:42:07.241852 24139 net.cpp:122] Setting up conv2_2
I1205 09:42:07.241878 24139 net.cpp:129] Top shape: 16 128 112 112 (25690112)
I1205 09:42:07.241891 24139 net.cpp:137] Memory required for data: 1191379008
I1205 09:42:07.241909 24139 layer_factory.hpp:77] Creating layer relu2_2
I1205 09:42:07.241925 24139 net.cpp:84] Creating Layer relu2_2
I1205 09:42:07.241938 24139 net.cpp:406] relu2_2 <- conv2_2
I1205 09:42:07.241955 24139 net.cpp:367] relu2_2 -> conv2_2 (in-place)
I1205 09:42:07.242072 24139 net.cpp:122] Setting up relu2_2
I1205 09:42:07.242092 24139 net.cpp:129] Top shape: 16 128 112 112 (25690112)
I1205 09:42:07.242105 24139 net.cpp:137] Memory required for data: 1294139456
I1205 09:42:07.242117 24139 layer_factory.hpp:77] Creating layer pool2
I1205 09:42:07.242136 24139 net.cpp:84] Creating Layer pool2
I1205 09:42:07.242182 24139 net.cpp:406] pool2 <- conv2_2
I1205 09:42:07.242228 24139 net.cpp:380] pool2 -> pool2
I1205 09:42:07.242312 24139 net.cpp:122] Setting up pool2
I1205 09:42:07.242332 24139 net.cpp:129] Top shape: 16 128 56 56 (6422528)
I1205 09:42:07.242346 24139 net.cpp:137] Memory required for data: 1319829568
I1205 09:42:07.242358 24139 layer_factory.hpp:77] Creating layer conv3_1
I1205 09:42:07.242378 24139 net.cpp:84] Creating Layer conv3_1
I1205 09:42:07.242441 24139 net.cpp:406] conv3_1 <- pool2
I1205 09:42:07.242463 24139 net.cpp:380] conv3_1 -> conv3_1
I1205 09:42:07.249104 24139 net.cpp:122] Setting up conv3_1
I1205 09:42:07.249189 24139 net.cpp:129] Top shape: 16 256 56 56 (12845056)
I1205 09:42:07.249205 24139 net.cpp:137] Memory required for data: 1371209792
I1205 09:42:07.249228 24139 layer_factory.hpp:77] Creating layer relu3_1
I1205 09:42:07.249284 24139 net.cpp:84] Creating Layer relu3_1
I1205 09:42:07.249297 24139 net.cpp:406] relu3_1 <- conv3_1
I1205 09:42:07.249315 24139 net.cpp:367] relu3_1 -> conv3_1 (in-place)
I1205 09:42:07.249332 24139 net.cpp:122] Setting up relu3_1
I1205 09:42:07.249352 24139 net.cpp:129] Top shape: 16 256 56 56 (12845056)
I1205 09:42:07.249420 24139 net.cpp:137] Memory required for data: 1422590016
I1205 09:42:07.249434 24139 layer_factory.hpp:77] Creating layer conv3_2
I1205 09:42:07.249459 24139 net.cpp:84] Creating Layer conv3_2
I1205 09:42:07.249475 24139 net.cpp:406] conv3_2 <- conv3_1
I1205 09:42:07.249528 24139 net.cpp:380] conv3_2 -> conv3_2
I1205 09:42:07.263981 24139 net.cpp:122] Setting up conv3_2
I1205 09:42:07.264009 24139 net.cpp:129] Top shape: 16 256 56 56 (12845056)
I1205 09:42:07.264024 24139 net.cpp:137] Memory required for data: 1473970240
I1205 09:42:07.264039 24139 layer_factory.hpp:77] Creating layer relu3_2
I1205 09:42:07.264056 24139 net.cpp:84] Creating Layer relu3_2
I1205 09:42:07.264070 24139 net.cpp:406] relu3_2 <- conv3_2
I1205 09:42:07.264086 24139 net.cpp:367] relu3_2 -> conv3_2 (in-place)
I1205 09:42:07.264103 24139 net.cpp:122] Setting up relu3_2
I1205 09:42:07.264117 24139 net.cpp:129] Top shape: 16 256 56 56 (12845056)
I1205 09:42:07.264129 24139 net.cpp:137] Memory required for data: 1525350464
I1205 09:42:07.264142 24139 layer_factory.hpp:77] Creating layer conv3_3
I1205 09:42:07.264160 24139 net.cpp:84] Creating Layer conv3_3
I1205 09:42:07.264173 24139 net.cpp:406] conv3_3 <- conv3_2
I1205 09:42:07.264189 24139 net.cpp:380] conv3_3 -> conv3_3
I1205 09:42:07.281585 24139 net.cpp:122] Setting up conv3_3
I1205 09:42:07.281612 24139 net.cpp:129] Top shape: 16 256 56 56 (12845056)
I1205 09:42:07.281625 24139 net.cpp:137] Memory required for data: 1576730688
I1205 09:42:07.281641 24139 layer_factory.hpp:77] Creating layer relu3_3
I1205 09:42:07.281661 24139 net.cpp:84] Creating Layer relu3_3
I1205 09:42:07.281674 24139 net.cpp:406] relu3_3 <- conv3_3
I1205 09:42:07.281689 24139 net.cpp:367] relu3_3 -> conv3_3 (in-place)
I1205 09:42:07.281705 24139 net.cpp:122] Setting up relu3_3
I1205 09:42:07.281719 24139 net.cpp:129] Top shape: 16 256 56 56 (12845056)
I1205 09:42:07.281730 24139 net.cpp:137] Memory required for data: 1628110912
I1205 09:42:07.281741 24139 layer_factory.hpp:77] Creating layer pool3
I1205 09:42:07.281757 24139 net.cpp:84] Creating Layer pool3
I1205 09:42:07.281769 24139 net.cpp:406] pool3 <- conv3_3
I1205 09:42:07.281785 24139 net.cpp:380] pool3 -> pool3
I1205 09:42:07.281834 24139 net.cpp:122] Setting up pool3
I1205 09:42:07.281849 24139 net.cpp:129] Top shape: 16 256 28 28 (3211264)
I1205 09:42:07.281860 24139 net.cpp:137] Memory required for data: 1640955968
I1205 09:42:07.281872 24139 layer_factory.hpp:77] Creating layer conv4_1
I1205 09:42:07.281891 24139 net.cpp:84] Creating Layer conv4_1
I1205 09:42:07.281903 24139 net.cpp:406] conv4_1 <- pool3
I1205 09:42:07.281919 24139 net.cpp:380] conv4_1 -> conv4_1
I1205 09:42:07.310009 24139 net.cpp:122] Setting up conv4_1
I1205 09:42:07.310042 24139 net.cpp:129] Top shape: 16 512 28 28 (6422528)
I1205 09:42:07.310055 24139 net.cpp:137] Memory required for data: 1666646080
I1205 09:42:07.310073 24139 layer_factory.hpp:77] Creating layer relu4_1
I1205 09:42:07.310092 24139 net.cpp:84] Creating Layer relu4_1
I1205 09:42:07.310106 24139 net.cpp:406] relu4_1 <- conv4_1
I1205 09:42:07.310122 24139 net.cpp:367] relu4_1 -> conv4_1 (in-place)
I1205 09:42:07.310142 24139 net.cpp:122] Setting up relu4_1
I1205 09:42:07.310156 24139 net.cpp:129] Top shape: 16 512 28 28 (6422528)
I1205 09:42:07.310169 24139 net.cpp:137] Memory required for data: 1692336192
I1205 09:42:07.310181 24139 layer_factory.hpp:77] Creating layer conv4_2
I1205 09:42:07.310202 24139 net.cpp:84] Creating Layer conv4_2
I1205 09:42:07.310215 24139 net.cpp:406] conv4_2 <- conv4_1
I1205 09:42:07.310231 24139 net.cpp:380] conv4_2 -> conv4_2
I1205 09:42:07.354619 24139 net.cpp:122] Setting up conv4_2
I1205 09:42:07.354665 24139 net.cpp:129] Top shape: 16 512 28 28 (6422528)
I1205 09:42:07.354679 24139 net.cpp:137] Memory required for data: 1718026304
I1205 09:42:07.354707 24139 layer_factory.hpp:77] Creating layer relu4_2
I1205 09:42:07.354730 24139 net.cpp:84] Creating Layer relu4_2
I1205 09:42:07.354746 24139 net.cpp:406] relu4_2 <- conv4_2
I1205 09:42:07.354763 24139 net.cpp:367] relu4_2 -> conv4_2 (in-place)
I1205 09:42:07.354786 24139 net.cpp:122] Setting up relu4_2
I1205 09:42:07.354800 24139 net.cpp:129] Top shape: 16 512 28 28 (6422528)
I1205 09:42:07.354822 24139 net.cpp:137] Memory required for data: 1743716416
I1205 09:42:07.354835 24139 layer_factory.hpp:77] Creating layer conv4_3
I1205 09:42:07.354867 24139 net.cpp:84] Creating Layer conv4_3
I1205 09:42:07.354882 24139 net.cpp:406] conv4_3 <- conv4_2
I1205 09:42:07.354898 24139 net.cpp:380] conv4_3 -> conv4_3
I1205 09:42:07.385658 24139 net.cpp:122] Setting up conv4_3
I1205 09:42:07.385713 24139 net.cpp:129] Top shape: 16 512 28 28 (6422528)
I1205 09:42:07.385726 24139 net.cpp:137] Memory required for data: 1769406528
I1205 09:42:07.385756 24139 layer_factory.hpp:77] Creating layer relu4_3
I1205 09:42:07.385807 24139 net.cpp:84] Creating Layer relu4_3
I1205 09:42:07.385820 24139 net.cpp:406] relu4_3 <- conv4_3
I1205 09:42:07.385862 24139 net.cpp:367] relu4_3 -> conv4_3 (in-place)
I1205 09:42:07.385881 24139 net.cpp:122] Setting up relu4_3
I1205 09:42:07.385895 24139 net.cpp:129] Top shape: 16 512 28 28 (6422528)
I1205 09:42:07.385933 24139 net.cpp:137] Memory required for data: 1795096640
I1205 09:42:07.385946 24139 layer_factory.hpp:77] Creating layer pool4
I1205 09:42:07.385962 24139 net.cpp:84] Creating Layer pool4
I1205 09:42:07.385974 24139 net.cpp:406] pool4 <- conv4_3
I1205 09:42:07.386030 24139 net.cpp:380] pool4 -> pool4
I1205 09:42:07.386101 24139 net.cpp:122] Setting up pool4
I1205 09:42:07.386117 24139 net.cpp:129] Top shape: 16 512 14 14 (1605632)
I1205 09:42:07.386128 24139 net.cpp:137] Memory required for data: 1801519168
I1205 09:42:07.386140 24139 layer_factory.hpp:77] Creating layer conv5_1
I1205 09:42:07.386179 24139 net.cpp:84] Creating Layer conv5_1
I1205 09:42:07.386193 24139 net.cpp:406] conv5_1 <- pool4
I1205 09:42:07.386209 24139 net.cpp:380] conv5_1 -> conv5_1
I1205 09:42:07.436347 24139 net.cpp:122] Setting up conv5_1
I1205 09:42:07.436389 24139 net.cpp:129] Top shape: 16 512 14 14 (1605632)
I1205 09:42:07.436403 24139 net.cpp:137] Memory required for data: 1807941696
I1205 09:42:07.436420 24139 layer_factory.hpp:77] Creating layer relu5_1
I1205 09:42:07.436440 24139 net.cpp:84] Creating Layer relu5_1
I1205 09:42:07.436455 24139 net.cpp:406] relu5_1 <- conv5_1
I1205 09:42:07.436472 24139 net.cpp:367] relu5_1 -> conv5_1 (in-place)
I1205 09:42:07.436491 24139 net.cpp:122] Setting up relu5_1
I1205 09:42:07.436504 24139 net.cpp:129] Top shape: 16 512 14 14 (1605632)
I1205 09:42:07.436517 24139 net.cpp:137] Memory required for data: 1814364224
I1205 09:42:07.436528 24139 layer_factory.hpp:77] Creating layer conv5_2
I1205 09:42:07.436549 24139 net.cpp:84] Creating Layer conv5_2
I1205 09:42:07.436561 24139 net.cpp:406] conv5_2 <- conv5_1
I1205 09:42:07.436578 24139 net.cpp:380] conv5_2 -> conv5_2
I1205 09:42:07.465978 24139 net.cpp:122] Setting up conv5_2
I1205 09:42:07.466014 24139 net.cpp:129] Top shape: 16 512 14 14 (1605632)
I1205 09:42:07.466027 24139 net.cpp:137] Memory required for data: 1820786752
I1205 09:42:07.466045 24139 layer_factory.hpp:77] Creating layer relu5_2
I1205 09:42:07.466063 24139 net.cpp:84] Creating Layer relu5_2
I1205 09:42:07.466076 24139 net.cpp:406] relu5_2 <- conv5_2
I1205 09:42:07.466092 24139 net.cpp:367] relu5_2 -> conv5_2 (in-place)
I1205 09:42:07.466109 24139 net.cpp:122] Setting up relu5_2
I1205 09:42:07.466123 24139 net.cpp:129] Top shape: 16 512 14 14 (1605632)
I1205 09:42:07.466135 24139 net.cpp:137] Memory required for data: 1827209280
I1205 09:42:07.466148 24139 layer_factory.hpp:77] Creating layer conv5_3
I1205 09:42:07.466167 24139 net.cpp:84] Creating Layer conv5_3
I1205 09:42:07.466181 24139 net.cpp:406] conv5_3 <- conv5_2
I1205 09:42:07.466197 24139 net.cpp:380] conv5_3 -> conv5_3
I1205 09:42:07.495687 24139 net.cpp:122] Setting up conv5_3
I1205 09:42:07.495725 24139 net.cpp:129] Top shape: 16 512 14 14 (1605632)
I1205 09:42:07.495738 24139 net.cpp:137] Memory required for data: 1833631808
I1205 09:42:07.495755 24139 layer_factory.hpp:77] Creating layer relu5_3
I1205 09:42:07.495774 24139 net.cpp:84] Creating Layer relu5_3
I1205 09:42:07.495787 24139 net.cpp:406] relu5_3 <- conv5_3
I1205 09:42:07.495802 24139 net.cpp:367] relu5_3 -> conv5_3 (in-place)
I1205 09:42:07.495828 24139 net.cpp:122] Setting up relu5_3
I1205 09:42:07.495842 24139 net.cpp:129] Top shape: 16 512 14 14 (1605632)
I1205 09:42:07.495854 24139 net.cpp:137] Memory required for data: 1840054336
I1205 09:42:07.495867 24139 layer_factory.hpp:77] Creating layer pool5
I1205 09:42:07.495882 24139 net.cpp:84] Creating Layer pool5
I1205 09:42:07.495895 24139 net.cpp:406] pool5 <- conv5_3
I1205 09:42:07.495910 24139 net.cpp:380] pool5 -> pool5
I1205 09:42:07.495966 24139 net.cpp:122] Setting up pool5
I1205 09:42:07.495985 24139 net.cpp:129] Top shape: 16 512 7 7 (401408)
I1205 09:42:07.495997 24139 net.cpp:137] Memory required for data: 1841659968
I1205 09:42:07.496008 24139 layer_factory.hpp:77] Creating layer fc6
I1205 09:42:07.496037 24139 net.cpp:84] Creating Layer fc6
I1205 09:42:07.496050 24139 net.cpp:406] fc6 <- pool5
I1205 09:42:07.496067 24139 net.cpp:380] fc6 -> fc6
I1205 09:42:08.661515 24139 net.cpp:122] Setting up fc6
I1205 09:42:08.661576 24139 net.cpp:129] Top shape: 16 4096 (65536)
I1205 09:42:08.661588 24139 net.cpp:137] Memory required for data: 1841922112
I1205 09:42:08.661607 24139 layer_factory.hpp:77] Creating layer relu6
I1205 09:42:08.661625 24139 net.cpp:84] Creating Layer relu6
I1205 09:42:08.661638 24139 net.cpp:406] relu6 <- fc6
I1205 09:42:08.661653 24139 net.cpp:367] relu6 -> fc6 (in-place)
I1205 09:42:08.661671 24139 net.cpp:122] Setting up relu6
I1205 09:42:08.661682 24139 net.cpp:129] Top shape: 16 4096 (65536)
I1205 09:42:08.661692 24139 net.cpp:137] Memory required for data: 1842184256
I1205 09:42:08.661706 24139 layer_factory.hpp:77] Creating layer drop6
I1205 09:42:08.661722 24139 net.cpp:84] Creating Layer drop6
I1205 09:42:08.661732 24139 net.cpp:406] drop6 <- fc6
I1205 09:42:08.661744 24139 net.cpp:367] drop6 -> fc6 (in-place)
I1205 09:42:08.661784 24139 net.cpp:122] Setting up drop6
I1205 09:42:08.661803 24139 net.cpp:129] Top shape: 16 4096 (65536)
I1205 09:42:08.661813 24139 net.cpp:137] Memory required for data: 1842446400
I1205 09:42:08.661823 24139 layer_factory.hpp:77] Creating layer fc7
I1205 09:42:08.661839 24139 net.cpp:84] Creating Layer fc7
I1205 09:42:08.661849 24139 net.cpp:406] fc7 <- fc6
I1205 09:42:08.661862 24139 net.cpp:380] fc7 -> fc7
I1205 09:42:08.855252 24139 net.cpp:122] Setting up fc7
I1205 09:42:08.855293 24139 net.cpp:129] Top shape: 16 4096 (65536)
I1205 09:42:08.855304 24139 net.cpp:137] Memory required for data: 1842708544
I1205 09:42:08.855322 24139 layer_factory.hpp:77] Creating layer relu7
I1205 09:42:08.855341 24139 net.cpp:84] Creating Layer relu7
I1205 09:42:08.855353 24139 net.cpp:406] relu7 <- fc7
I1205 09:42:08.855367 24139 net.cpp:367] relu7 -> fc7 (in-place)
I1205 09:42:08.855384 24139 net.cpp:122] Setting up relu7
I1205 09:42:08.855396 24139 net.cpp:129] Top shape: 16 4096 (65536)
I1205 09:42:08.855406 24139 net.cpp:137] Memory required for data: 1842970688
I1205 09:42:08.855415 24139 layer_factory.hpp:77] Creating layer drop7
I1205 09:42:08.855429 24139 net.cpp:84] Creating Layer drop7
I1205 09:42:08.855438 24139 net.cpp:406] drop7 <- fc7
I1205 09:42:08.855450 24139 net.cpp:367] drop7 -> fc7 (in-place)
I1205 09:42:08.855486 24139 net.cpp:122] Setting up drop7
I1205 09:42:08.855499 24139 net.cpp:129] Top shape: 16 4096 (65536)
I1205 09:42:08.855509 24139 net.cpp:137] Memory required for data: 1843232832
I1205 09:42:08.855518 24139 layer_factory.hpp:77] Creating layer fc_scv_dirty
I1205 09:42:08.855535 24139 net.cpp:84] Creating Layer fc_scv_dirty
I1205 09:42:08.855545 24139 net.cpp:406] fc_scv_dirty <- fc7
I1205 09:42:08.855557 24139 net.cpp:380] fc_scv_dirty -> fc_scv_dirty
I1205 09:42:08.855710 24139 net.cpp:122] Setting up fc_scv_dirty
I1205 09:42:08.855722 24139 net.cpp:129] Top shape: 16 1 (16)
I1205 09:42:08.855732 24139 net.cpp:137] Memory required for data: 1843232896
I1205 09:42:08.855746 24139 layer_factory.hpp:77] Creating layer loss
I1205 09:42:08.855758 24139 net.cpp:84] Creating Layer loss
I1205 09:42:08.855768 24139 net.cpp:406] loss <- fc_scv_dirty
I1205 09:42:08.855787 24139 net.cpp:406] loss <- label
I1205 09:42:08.855800 24139 net.cpp:380] loss -> loss
I1205 09:42:08.855845 24139 net.cpp:122] Setting up loss
…
I1205 09:42:08.857779 24139 net.cpp:294] The NetState phase (1) differed from the phase (0) specified by a rule in layer data
I1205 09:42:08.858038 24139 net.cpp:51] Initializing net from parameters: 
name: "VGG-Places365-SCV-Dirty"
state {
  phase: TEST
}
layer {
  name: "data"
  type: "Data"
  top: "data"
  top: "label"
  include {
    phase: TEST
  }
  transform_param {
    mirror: false
    crop_size: 224
    mean_file: "/idiap/temp/lmedina/fine-tuning/vgg16_places365/places365CNN_mean.binaryproto"
  }
  data_param {
    source: "/idiap/temp/lmedina/fine-tuning/data/Dirty/validation_lmdb"
    batch_size: 16
    backend: LMDB
  }
}
layer {
  name: "conv1_1"
  type: "Convolution"
  bottom: "data"
  top: "conv1_1"
  param {
    lr_mult: 1
    decay_mult: 1
  }
  param {
    lr_mult: 2
    decay_mult: 0
  }
  convolution_param {
    num_output: 64
    pad: 1
    kernel_size: 3
    weight_filler {
      type: "gaussian"
      std: 0.01
    }
    bias_filler {
      type: "constant"
      value: 0
    }
  }
}
layer {
  name: "relu1_1"
  type: "ReLU"
  bottom: "conv1_1"
  top: "conv1_1"
}
layer {
  name: "conv1_2"
  type: "Convolution"
  bottom: "conv1_1"
  top: "conv1_2"
  param {
    lr_mult: 1
    decay_mult: 1
  }
  param {
    lr_mult: 2
    decay_mult: 0
  }
  convolution_param {
    num_output: 64
    pad: 1
    kernel_size: 3
    weight_filler {
      type: "gaussian"
      std: 0.01
    }
    bias_filler {
      type: "constant"
      value: 0
    }
  }
}
layer {
  name: "relu1_2"
  type: "ReLU"
  bottom: "conv1_2"
  top: "conv1_2"
}
layer {
  name: "pool1"
  type: "Pooling"
  bottom: "conv1_2"
  top: "pool1"
  pooling_param {
    pool: MAX
    kernel_size: 2
    stride: 2
  }
}
layer {
  name: "conv2_1"
  type: "Convolution"
  bottom: "pool1"
  top: "conv2_1"
  param {
    lr_mult: 1
    decay_mult: 1
  }
  param {
    lr_mult: 2
    decay_mult: 0
  }
  convolution_param {
    num_output: 128
    pad: 1
    kernel_size: 3
    weight_filler {
      type: "gaussian"
      std: 0.01
    }
    bias_filler {
      type: "constant"
      value: 0
    }
  }
}
layer {
  name: "relu2_1"
  type: "ReLU"
  bottom: "conv2_1"
  top: "conv2_1"
}
layer {
  name: "conv2_2"
  type: "Convolution"
  bottom: "conv2_1"
  top: "conv2_2"
  param {
    lr_mult: 1
    decay_mult: 1
  }
  param {
    lr_mult: 2
    decay_mult: 0
  }
  convolution_param {
    num_output: 128
    pad: 1
    kernel_size: 3
    weight_filler {
      type: "gaussian"
      std: 0.01
    }
    bias_filler {
      type: "constant"
      value: 0
    }
  }
}
layer {
  name: "relu2_2"
  type: "ReLU"
  bottom: "conv2_2"
  top: "conv2_2"
}
layer {
  name: "pool2"
  type: "Pooling"
  bottom: "conv2_2"
  top: "pool2"
  pooling_param {
    pool: MAX
    kernel_size: 2
    stride: 2
  }
}
layer {
  name: "conv3_1"
  type: "Convolution"
  bottom: "pool2"
  top: "conv3_1"
  param {
    lr_mult: 1
    decay_mult: 1
  }
  param {
    lr_mult: 2
    decay_mult: 0
  }
  convolution_param {
    num_output: 256
    pad: 1
    kernel_size: 3
    weight_filler {
      type: "gaussian"
      std: 0.01
    }
    bias_filler {
      type: "constant"
      value: 0
    }
  }
}
layer {
  name: "relu3_1"
  type: "ReLU"
  bottom: "conv3_1"
  top: "conv3_1"
}
layer {
  name: "conv3_2"
  type: "Convolution"
  bottom: "conv3_1"
  top: "conv3_2"
  param {
    lr_mult: 1
    decay_mult: 1
  }
  param {
    lr_mult: 2
    decay_mult: 0
  }
  convolution_param {
    num_output: 256
    pad: 1
    kernel_size: 3
    weight_filler {
      type: "gaussian"
      std: 0.01
    }
    bias_filler {
      type: "constant"
      value: 0
    }
  }
}
layer {
  name: "relu3_2"
  type: "ReLU"
  bottom: "conv3_2"
  top: "conv3_2"
}
layer {
  name: "conv3_3"
  type: "Convolution"
  bottom: "conv3_2"
  top: "conv3_3"
  param {
    lr_mult: 1
    decay_mult: 1
  }
  param {
    lr_mult: 2
    decay_mult: 0
  }
  convolution_param {
    num_output: 256
    pad: 1
    kernel_size: 3
    weight_filler {
      type: "gaussian"
      std: 0.01
    }
    bias_filler {
      type: "constant"
      value: 0
    }
  }
}
layer {
  name: "relu3_3"
  type: "ReLU"
  bottom: "conv3_3"
  top: "conv3_3"
}
layer {
  name: "pool3"
  type: "Pooling"
  bottom: "conv3_3"
  top: "pool3"
  pooling_param {
    pool: MAX
    kernel_size: 2
    stride: 2
  }
}
layer {
  name: "conv4_1"
  type: "Convolution"
  bottom: "pool3"
  top: "conv4_1"
  param {
    lr_mult: 1
    decay_mult: 1
  }
  param {
    lr_mult: 2
    decay_mult: 0
  }
  convolution_param {
    num_output: 512
    pad: 1
    kernel_size: 3
    weight_filler {
      type: "gaussian"
      std: 0.01
    }
    bias_filler {
      type: "constant"
      value: 0
    }
  }
}
layer {
  name: "relu4_1"
  type: "ReLU"
  bottom: "conv4_1"
  top: "conv4_1"
}
layer {
  name: "conv4_2"
  type: "Convolution"
  bottom: "conv4_1"
  top: "conv4_2"
  param {
    lr_mult: 1
    decay_mult: 1
  }
  param {
    lr_mult: 2
    decay_mult: 0
  }
  convolution_param {
    num_output: 512
    pad: 1
    kernel_size: 3
    weight_filler {
      type: "gaussian"
      std: 0.01
    }
    bias_filler {
      type: "constant"
      value: 0
    }
  }
}
layer {
  name: "relu4_2"
  type: "ReLU"
  bottom: "conv4_2"
  top: "conv4_2"
}
layer {
  name: "conv4_3"
  type: "Convolution"
  bottom: "conv4_2"
  top: "conv4_3"
  param {
    lr_mult: 1
    decay_mult: 1
  }
  param {
    lr_mult: 2
    decay_mult: 0
  }
  convolution_param {
    num_output: 512
    pad: 1
    kernel_size: 3
    weight_filler {
      type: "gaussian"
      std: 0.01
    }
    bias_filler {
      type: "constant"
      value: 0
    }
  }
}
layer {
  name: "relu4_3"
  type: "ReLU"
  bottom: "conv4_3"
  top: "conv4_3"
}
layer {
  name: "pool4"
  type: "Pooling"
  bottom: "conv4_3"
  top: "pool4"
  pooling_param {
    pool: MAX
    kernel_size: 2
    stride: 2
  }
}
layer {
  name: "conv5_1"
  type: "Convolution"
  bottom: "pool4"
  top: "conv5_1"
  param {
    lr_mult: 1
    decay_mult: 1
  }
  param {
    lr_mult: 2
    decay_mult: 0
  }
  convolution_param {
    num_output: 512
    pad: 1
    kernel_size: 3
    weight_filler {
      type: "gaussian"
      std: 0.01
    }
    bias_filler {
      type: "constant"
      value: 0
    }
  }
}
layer {
  name: "relu5_1"
  type: "ReLU"
  bottom: "conv5_1"
  top: "conv5_1"
}
layer {
  name: "conv5_2"
  type: "Convolution"
  bottom: "conv5_1"
  top: "conv5_2"
  param {
    lr_mult: 1
    decay_mult: 1
  }
  param {
    lr_mult: 2
    decay_mult: 0
  }
  convolution_param {
    num_output: 512
    pad: 1
    kernel_size: 3
    weight_filler {
      type: "gaussian"
      std: 0.01
    }
    bias_filler {
      type: "constant"
      value: 0
    }
  }
}
layer {
  name: "relu5_2"
  type: "ReLU"
  bottom: "conv5_2"
  top: "conv5_2"
}
layer {
  name: "conv5_3"
  type: "Convolution"
  bottom: "conv5_2"
  top: "conv5_3"
  param {
    lr_mult: 1
    decay_mult: 1
  }
  param {
    lr_mult: 2
    decay_mult: 0
  }
  convolution_param {
    num_output: 512
    pad: 1
    kernel_size: 3
    weight_filler {
      type: "gaussian"
      std: 0.01
    }
    bias_filler {
      type: "constant"
      value: 0
    }
  }
}
layer {
  name: "relu5_3"
  type: "ReLU"
  bottom: "conv5_3"
  top: "conv5_3"
}
layer {
  name: "pool5"
  type: "Pooling"
  bottom: "conv5_3"
  top: "pool5"
  pooling_param {
    pool: MAX
    kernel_size: 2
    stride: 2
  }
}
layer {
  name: "fc6"
  type: "InnerProduct"
  bottom: "pool5"
  top: "fc6"
  param {
    lr_mult: 1
    decay_mult: 1
  }
  param {
    lr_mult: 2
    decay_mult: 0
  }
  inner_product_param {
    num_output: 4096
    weight_filler {
      type: "gaussian"
      std: 0.01
    }
    bias_filler {
      type: "constant"
      value: 0
    }
  }
}
layer {
  name: "relu6"
  type: "ReLU"
  bottom: "fc6"
  top: "fc6"
}
layer {
  name: "drop6"
  type: "Dropout"
  bottom: "fc6"
  top: "fc6"
  dropout_param {
    dropout_ratio: 0.5
  }
}
layer {
  name: "fc7"
  type: "InnerProduct"
  bottom: "fc6"
  top: "fc7"
  param {
    lr_mult: 1
    decay_mult: 1
  }
  param {
    lr_mult: 2
    decay_mult: 0
  }
  inner_product_param {
    num_output: 4096
    weight_filler {
      type: "gaussian"
      std: 0.01
    }
    bias_filler {
      type: "constant"
      value: 0
    }
  }
}
layer {
  name: "relu7"
  type: "ReLU"
  bottom: "fc7"
  top: "fc7"
}
layer {
  name: "drop7"
  type: "Dropout"
  bottom: "fc7"
  top: "fc7"
  dropout_param {
    dropout_ratio: 0.5
  }
}
layer {
  name: "fc_scv_dirty"
  type: "InnerProduct"
  bottom: "fc7"
  top: "fc_scv_dirty"
  param {
    lr_mult: 10
    decay_mult: 1
  }
  param {
    lr_mult: 20
    decay_mult: 0
  }
  inner_product_param {
    num_output: 1
    weight_filler {
      type: "xavier"
      std: 0.01
    }
    bias_filler {
      type: "constant"
      value: 0
    }
  }
}
layer {
  name: "loss"
  type: "EuclideanLoss"
  bottom: "fc_scv_dirty"
  bottom: "label"
  top: "loss"
}
layer {
  name: "losttest"
  type: "EuclideanLoss"
  bottom: "fc_scv_dirty"
  bottom: "label"
  top: "losttest"
  include {
    phase: TEST
  }
}
I1205 09:42:08.858206 24139 layer_factory.hpp:77] Creating layer data
I1205 09:42:08.869429 24139 db_lmdb.cpp:35] Opened lmdb /idiap/temp/lmedina/fine-tuning/data/Dirty/validation_lmdb
I1205 09:42:08.876211 24139 net.cpp:84] Creating Layer data
I1205 09:42:08.880655 24139 net.cpp:380] data -> data
I1205 09:42:08.880686 24139 net.cpp:380] data -> label
I1205 09:42:08.880748 24139 data_transformer.cpp:25] Loading mean file from: /idiap/temp/lmedina/fine-tuning/vgg16_places365/places365CNN_mean.binaryproto
I1205 09:42:08.889508 24139 data_layer.cpp:45] output data size: 16,3,224,224
I1205 09:42:08.922320 24139 net.cpp:122] Setting up data
I1205 09:42:08.922364 24139 net.cpp:129] Top shape: 16 3 224 224 (2408448)
I1205 09:42:08.922379 24139 net.cpp:129] Top shape: 16 (16)
I1205 09:42:08.922389 24139 net.cpp:137] Memory required for data: 9633856
I1205 09:42:08.922403 24139 layer_factory.hpp:77] Creating layer label_data_1_split
I1205 09:42:08.922426 24139 net.cpp:84] Creating Layer label_data_1_split
I1205 09:42:08.922438 24139 net.cpp:406] label_data_1_split <- label
I1205 09:42:08.922453 24139 net.cpp:380] label_data_1_split -> label_data_1_split_0
I1205 09:42:08.922472 24139 net.cpp:380] label_data_1_split -> label_data_1_split_1
I1205 09:42:08.922530 24139 net.cpp:122] Setting up label_data_1_split
I1205 09:42:08.922544 24139 net.cpp:129] Top shape: 16 (16)
I1205 09:42:08.922556 24139 net.cpp:129] Top shape: 16 (16)
I1205 09:42:08.922566 24139 net.cpp:137] Memory required for data: 9633984
I1205 09:42:08.922577 24139 layer_factory.hpp:77] Creating layer conv1_1
I1205 09:42:08.922598 24139 net.cpp:84] Creating Layer conv1_1
I1205 09:42:08.922610 24139 net.cpp:406] conv1_1 <- data
I1205 09:42:08.922623 24139 net.cpp:380] conv1_1 -> conv1_1
I1205 09:42:08.922937 24139 net.cpp:122] Setting up conv1_1
I1205 09:42:08.922955 24139 net.cpp:129] Top shape: 16 64 224 224 (51380224)
I1205 09:42:08.922965 24139 net.cpp:137] Memory required for data: 215154880
I1205 09:42:08.922982 24139 layer_factory.hpp:77] Creating layer relu1_1
I1205 09:42:08.922997 24139 net.cpp:84] Creating Layer relu1_1
I1205 09:42:08.923007 24139 net.cpp:406] relu1_1 <- conv1_1
I1205 09:42:08.923020 24139 net.cpp:367] relu1_1 -> conv1_1 (in-place)
I1205 09:42:08.923033 24139 net.cpp:122] Setting up relu1_1
I1205 09:42:08.923045 24139 net.cpp:129] Top shape: 16 64 224 224 (51380224)
I1205 09:42:08.923055 24139 net.cpp:137] Memory required for data: 420675776
I1205 09:42:08.923065 24139 layer_factory.hpp:77] Creating layer conv1_2
I1205 09:42:08.923081 24139 net.cpp:84] Creating Layer conv1_2
I1205 09:42:08.923092 24139 net.cpp:406] conv1_2 <- conv1_1
I1205 09:42:08.923106 24139 net.cpp:380] conv1_2 -> conv1_2
I1205 09:42:08.925735 24139 net.cpp:122] Setting up conv1_2
I1205 09:42:08.925761 24139 net.cpp:129] Top shape: 16 64 224 224 (51380224)
I1205 09:42:08.925773 24139 net.cpp:137] Memory required for data: 626196672
I1205 09:42:08.925791 24139 layer_factory.hpp:77] Creating layer relu1_2
I1205 09:42:08.925807 24139 net.cpp:84] Creating Layer relu1_2
I1205 09:42:08.925818 24139 net.cpp:406] relu1_2 <- conv1_2
I1205 09:42:08.925832 24139 net.cpp:367] relu1_2 -> conv1_2 (in-place)
I1205 09:42:08.925845 24139 net.cpp:122] Setting up relu1_2
I1205 09:42:08.925858 24139 net.cpp:129] Top shape: 16 64 224 224 (51380224)
I1205 09:42:08.925868 24139 net.cpp:137] Memory required for data: 831717568
I1205 09:42:08.925879 24139 layer_factory.hpp:77] Creating layer pool1
I1205 09:42:08.925891 24139 net.cpp:84] Creating Layer pool1
I1205 09:42:08.925906 24139 net.cpp:406] pool1 <- conv1_2
I1205 09:42:08.925920 24139 net.cpp:380] pool1 -> pool1
I1205 09:42:08.925973 24139 net.cpp:122] Setting up pool1
I1205 09:42:08.925987 24139 net.cpp:129] Top shape: 16 64 112 112 (12845056)
I1205 09:42:08.925997 24139 net.cpp:137] Memory required for data: 883097792
I1205 09:42:08.926007 24139 layer_factory.hpp:77] Creating layer conv2_1
I1205 09:42:08.926024 24139 net.cpp:84] Creating Layer conv2_1
I1205 09:42:08.926035 24139 net.cpp:406] conv2_1 <- pool1
I1205 09:42:08.926049 24139 net.cpp:380] conv2_1 -> conv2_1
I1205 09:42:08.927573 24139 net.cpp:122] Setting up conv2_1
I1205 09:42:08.927597 24139 net.cpp:129] Top shape: 16 128 112 112 (25690112)
I1205 09:42:08.927630 24139 net.cpp:137] Memory required for data: 985858240
I1205 09:42:08.927649 24139 layer_factory.hpp:77] Creating layer relu2_1
I1205 09:42:08.927664 24139 net.cpp:84] Creating Layer relu2_1
I1205 09:42:08.927676 24139 net.cpp:406] relu2_1 <- conv2_1
I1205 09:42:08.927723 24139 net.cpp:367] relu2_1 -> conv2_1 (in-place)
I1205 09:42:08.927739 24139 net.cpp:122] Setting up relu2_1
I1205 09:42:08.927752 24139 net.cpp:129] Top shape: 16 128 112 112 (25690112)
I1205 09:42:08.927788 24139 net.cpp:137] Memory required for data: 1088618688
I1205 09:42:08.927799 24139 layer_factory.hpp:77] Creating layer conv2_2
I1205 09:42:08.927816 24139 net.cpp:84] Creating Layer conv2_2
I1205 09:42:08.927829 24139 net.cpp:406] conv2_2 <- conv2_1
I1205 09:42:08.927842 24139 net.cpp:380] conv2_2 -> conv2_2
I1205 09:42:08.930678 24139 net.cpp:122] Setting up conv2_2
I1205 09:42:08.930701 24139 net.cpp:129] Top shape: 16 128 112 112 (25690112)
I1205 09:42:08.930747 24139 net.cpp:137] Memory required for data: 1191379136
I1205 09:42:08.930761 24139 layer_factory.hpp:77] Creating layer relu2_2
I1205 09:42:08.930776 24139 net.cpp:84] Creating Layer relu2_2
I1205 09:42:08.930788 24139 net.cpp:406] relu2_2 <- conv2_2
I1205 09:42:08.930835 24139 net.cpp:367] relu2_2 -> conv2_2 (in-place)
I1205 09:42:08.930850 24139 net.cpp:122] Setting up relu2_2
I1205 09:42:08.930862 24139 net.cpp:129] Top shape: 16 128 112 112 (25690112)
I1205 09:42:08.930912 24139 net.cpp:137] Memory required for data: 1294139584
I1205 09:42:08.930925 24139 layer_factory.hpp:77] Creating layer pool2
I1205 09:42:08.930939 24139 net.cpp:84] Creating Layer pool2
I1205 09:42:08.930950 24139 net.cpp:406] pool2 <- conv2_2
I1205 09:42:08.931023 24139 net.cpp:380] pool2 -> pool2
I1205 09:42:08.931110 24139 net.cpp:122] Setting up pool2
I1205 09:42:08.931161 24139 net.cpp:129] Top shape: 16 128 56 56 (6422528)
I1205 09:42:08.931171 24139 net.cpp:137] Memory required for data: 1319829696
I1205 09:42:08.931182 24139 layer_factory.hpp:77] Creating layer conv3_1
I1205 09:42:08.931269 24139 net.cpp:84] Creating Layer conv3_1
I1205 09:42:08.931304 24139 net.cpp:406] conv3_1 <- pool2
I1205 09:42:08.931322 24139 net.cpp:380] conv3_1 -> conv3_1
I1205 09:42:08.936398 24139 net.cpp:122] Setting up conv3_1
I1205 09:42:08.936425 24139 net.cpp:129] Top shape: 16 256 56 56 (12845056)
I1205 09:42:08.936436 24139 net.cpp:137] Memory required for data: 1371209920
I1205 09:42:08.936455 24139 layer_factory.hpp:77] Creating layer relu3_1
I1205 09:42:08.936471 24139 net.cpp:84] Creating Layer relu3_1
I1205 09:42:08.936483 24139 net.cpp:406] relu3_1 <- conv3_1
I1205 09:42:08.936497 24139 net.cpp:367] relu3_1 -> conv3_1 (in-place)
I1205 09:42:08.936512 24139 net.cpp:122] Setting up relu3_1
I1205 09:42:08.936524 24139 net.cpp:129] Top shape: 16 256 56 56 (12845056)
I1205 09:42:08.936535 24139 net.cpp:137] Memory required for data: 1422590144
I1205 09:42:08.936547 24139 layer_factory.hpp:77] Creating layer conv3_2
I1205 09:42:08.936563 24139 net.cpp:84] Creating Layer conv3_2
I1205 09:42:08.936578 24139 net.cpp:406] conv3_2 <- conv3_1
I1205 09:42:08.936592 24139 net.cpp:380] conv3_2 -> conv3_2
I1205 09:42:08.945767 24139 net.cpp:122] Setting up conv3_2
I1205 09:42:08.945920 24139 net.cpp:129] Top shape: 16 256 56 56 (12845056)
I1205 09:42:08.945976 24139 net.cpp:137] Memory required for data: 1473970368
I1205 09:42:08.945998 24139 layer_factory.hpp:77] Creating layer relu3_2
I1205 09:42:08.946014 24139 net.cpp:84] Creating Layer relu3_2
I1205 09:42:08.946074 24139 net.cpp:406] relu3_2 <- conv3_2
I1205 09:42:08.946087 24139 net.cpp:367] relu3_2 -> conv3_2 (in-place)
I1205 09:42:08.946152 24139 net.cpp:122] Setting up relu3_2
I1205 09:42:08.946166 24139 net.cpp:129] Top shape: 16 256 56 56 (12845056)
I1205 09:42:08.946175 24139 net.cpp:137] Memory required for data: 1525350592
I1205 09:42:08.946239 24139 layer_factory.hpp:77] Creating layer conv3_3
I1205 09:42:08.946260 24139 net.cpp:84] Creating Layer conv3_3
I1205 09:42:08.946319 24139 net.cpp:406] conv3_3 <- conv3_2
I1205 09:42:08.946334 24139 net.cpp:380] conv3_3 -> conv3_3
I1205 09:42:08.962383 24139 net.cpp:122] Setting up conv3_3
I1205 09:42:08.962455 24139 net.cpp:129] Top shape: 16 256 56 56 (12845056)
I1205 09:42:08.962466 24139 net.cpp:137] Memory required for data: 1576730816
I1205 09:42:08.962529 24139 layer_factory.hpp:77] Creating layer relu3_3
I1205 09:42:08.962546 24139 net.cpp:84] Creating Layer relu3_3
I1205 09:42:08.962558 24139 net.cpp:406] relu3_3 <- conv3_3
I1205 09:42:08.962633 24139 net.cpp:367] relu3_3 -> conv3_3 (in-place)
I1205 09:42:08.962692 24139 net.cpp:122] Setting up relu3_3
I1205 09:42:08.962704 24139 net.cpp:129] Top shape: 16 256 56 56 (12845056)
I1205 09:42:08.962715 24139 net.cpp:137] Memory required for data: 1628111040
I1205 09:42:08.962726 24139 layer_factory.hpp:77] Creating layer pool3
I1205 09:42:08.962790 24139 net.cpp:84] Creating Layer pool3
I1205 09:42:08.962800 24139 net.cpp:406] pool3 <- conv3_3
I1205 09:42:08.962853 24139 net.cpp:380] pool3 -> pool3
I1205 09:42:08.962955 24139 net.cpp:122] Setting up pool3
I1205 09:42:08.962970 24139 net.cpp:129] Top shape: 16 256 28 28 (3211264)
I1205 09:42:08.963030 24139 net.cpp:137] Memory required for data: 1640956096
I1205 09:42:08.963040 24139 layer_factory.hpp:77] Creating layer conv4_1
I1205 09:42:08.963099 24139 net.cpp:84] Creating Layer conv4_1
I1205 09:42:08.963110 24139 net.cpp:406] conv4_1 <- pool3
I1205 09:42:08.963125 24139 net.cpp:380] conv4_1 -> conv4_1
I1205 09:42:08.985179 24139 net.cpp:122] Setting up conv4_1
I1205 09:42:08.985211 24139 net.cpp:129] Top shape: 16 512 28 28 (6422528)
I1205 09:42:08.985224 24139 net.cpp:137] Memory required for data: 1666646208
I1205 09:42:08.985239 24139 layer_factory.hpp:77] Creating layer relu4_1
I1205 09:42:08.985256 24139 net.cpp:84] Creating Layer relu4_1
I1205 09:42:08.985268 24139 net.cpp:406] relu4_1 <- conv4_1
I1205 09:42:08.985283 24139 net.cpp:367] relu4_1 -> conv4_1 (in-place)
I1205 09:42:08.985298 24139 net.cpp:122] Setting up relu4_1
I1205 09:42:08.985311 24139 net.cpp:129] Top shape: 16 512 28 28 (6422528)
I1205 09:42:08.985321 24139 net.cpp:137] Memory required for data: 1692336320
I1205 09:42:08.985332 24139 layer_factory.hpp:77] Creating layer conv4_2
I1205 09:42:08.985350 24139 net.cpp:84] Creating Layer conv4_2
I1205 09:42:08.985360 24139 net.cpp:406] conv4_2 <- conv4_1
I1205 09:42:08.985374 24139 net.cpp:380] conv4_2 -> conv4_2
I1205 09:42:09.028055 24139 net.cpp:122] Setting up conv4_2
I1205 09:42:09.028095 24139 net.cpp:129] Top shape: 16 512 28 28 (6422528)
I1205 09:42:09.028107 24139 net.cpp:137] Memory required for data: 1718026432
I1205 09:42:09.028162 24139 layer_factory.hpp:77] Creating layer relu4_2
I1205 09:42:09.028180 24139 net.cpp:84] Creating Layer relu4_2
I1205 09:42:09.028216 24139 net.cpp:406] relu4_2 <- conv4_2
I1205 09:42:09.028232 24139 net.cpp:367] relu4_2 -> conv4_2 (in-place)
I1205 09:42:09.028250 24139 net.cpp:122] Setting up relu4_2
I1205 09:42:09.028262 24139 net.cpp:129] Top shape: 16 512 28 28 (6422528)
I1205 09:42:09.028295 24139 net.cpp:137] Memory required for data: 1743716544
I1205 09:42:09.028306 24139 layer_factory.hpp:77] Creating layer conv4_3
I1205 09:42:09.028323 24139 net.cpp:84] Creating Layer conv4_3
I1205 09:42:09.028334 24139 net.cpp:406] conv4_3 <- conv4_2
I1205 09:42:09.028384 24139 net.cpp:380] conv4_3 -> conv4_3
I1205 09:42:09.066398 24139 net.cpp:122] Setting up conv4_3
I1205 09:42:09.066442 24139 net.cpp:129] Top shape: 16 512 28 28 (6422528)
I1205 09:42:09.066454 24139 net.cpp:137] Memory required for data: 1769406656
I1205 09:42:09.066470 24139 layer_factory.hpp:77] Creating layer relu4_3
I1205 09:42:09.066490 24139 net.cpp:84] Creating Layer relu4_3
I1205 09:42:09.066504 24139 net.cpp:406] relu4_3 <- conv4_3
I1205 09:42:09.066519 24139 net.cpp:367] relu4_3 -> conv4_3 (in-place)
I1205 09:42:09.066536 24139 net.cpp:122] Setting up relu4_3
I1205 09:42:09.066548 24139 net.cpp:129] Top shape: 16 512 28 28 (6422528)
I1205 09:42:09.066558 24139 net.cpp:137] Memory required for data: 1795096768
I1205 09:42:09.066570 24139 layer_factory.hpp:77] Creating layer pool4
I1205 09:42:09.066584 24139 net.cpp:84] Creating Layer pool4
I1205 09:42:09.066596 24139 net.cpp:406] pool4 <- conv4_3
I1205 09:42:09.066608 24139 net.cpp:380] pool4 -> pool4
I1205 09:42:09.066663 24139 net.cpp:122] Setting up pool4
I1205 09:42:09.066680 24139 net.cpp:129] Top shape: 16 512 14 14 (1605632)
I1205 09:42:09.066690 24139 net.cpp:137] Memory required for data: 1801519296
I1205 09:42:09.066701 24139 layer_factory.hpp:77] Creating layer conv5_1
I1205 09:42:09.066721 24139 net.cpp:84] Creating Layer conv5_1
I1205 09:42:09.066732 24139 net.cpp:406] conv5_1 <- pool4
I1205 09:42:09.066745 24139 net.cpp:380] conv5_1 -> conv5_1
I1205 09:42:09.092744 24139 net.cpp:122] Setting up conv5_1
I1205 09:42:09.092787 24139 net.cpp:129] Top shape: 16 512 14 14 (1605632)
I1205 09:42:09.092798 24139 net.cpp:137] Memory required for data: 1807941824
I1205 09:42:09.092815 24139 layer_factory.hpp:77] Creating layer relu5_1
I1205 09:42:09.092833 24139 net.cpp:84] Creating Layer relu5_1
I1205 09:42:09.092845 24139 net.cpp:406] relu5_1 <- conv5_1
I1205 09:42:09.092859 24139 net.cpp:367] relu5_1 -> conv5_1 (in-place)
I1205 09:42:09.092878 24139 net.cpp:122] Setting up relu5_1
I1205 09:42:09.092890 24139 net.cpp:129] Top shape: 16 512 14 14 (1605632)
I1205 09:42:09.092900 24139 net.cpp:137] Memory required for data: 1814364352
I1205 09:42:09.092909 24139 layer_factory.hpp:77] Creating layer conv5_2
I1205 09:42:09.092926 24139 net.cpp:84] Creating Layer conv5_2
I1205 09:42:09.092937 24139 net.cpp:406] conv5_2 <- conv5_1
I1205 09:42:09.092952 24139 net.cpp:380] conv5_2 -> conv5_2
I1205 09:42:09.119750 24139 net.cpp:122] Setting up conv5_2
I1205 09:42:09.119788 24139 net.cpp:129] Top shape: 16 512 14 14 (1605632)
I1205 09:42:09.119801 24139 net.cpp:137] Memory required for data: 1820786880
I1205 09:42:09.119817 24139 layer_factory.hpp:77] Creating layer relu5_2
I1205 09:42:09.119833 24139 net.cpp:84] Creating Layer relu5_2
I1205 09:42:09.119846 24139 net.cpp:406] relu5_2 <- conv5_2
I1205 09:42:09.119863 24139 net.cpp:367] relu5_2 -> conv5_2 (in-place)
I1205 09:42:09.119880 24139 net.cpp:122] Setting up relu5_2
I1205 09:42:09.119892 24139 net.cpp:129] Top shape: 16 512 14 14 (1605632)
I1205 09:42:09.119904 24139 net.cpp:137] Memory required for data: 1827209408
I1205 09:42:09.119915 24139 layer_factory.hpp:77] Creating layer conv5_3
I1205 09:42:09.119935 24139 net.cpp:84] Creating Layer conv5_3
I1205 09:42:09.119946 24139 net.cpp:406] conv5_3 <- conv5_2
I1205 09:42:09.119959 24139 net.cpp:380] conv5_3 -> conv5_3
I1205 09:42:09.146402 24139 net.cpp:122] Setting up conv5_3
I1205 09:42:09.146448 24139 net.cpp:129] Top shape: 16 512 14 14 (1605632)
I1205 09:42:09.146461 24139 net.cpp:137] Memory required for data: 1833631936
I1205 09:42:09.146476 24139 layer_factory.hpp:77] Creating layer relu5_3
I1205 09:42:09.146492 24139 net.cpp:84] Creating Layer relu5_3
I1205 09:42:09.146504 24139 net.cpp:406] relu5_3 <- conv5_3
I1205 09:42:09.146518 24139 net.cpp:367] relu5_3 -> conv5_3 (in-place)
I1205 09:42:09.146535 24139 net.cpp:122] Setting up relu5_3
I1205 09:42:09.146551 24139 net.cpp:129] Top shape: 16 512 14 14 (1605632)
I1205 09:42:09.146562 24139 net.cpp:137] Memory required for data: 1840054464
I1205 09:42:09.146574 24139 layer_factory.hpp:77] Creating layer pool5
I1205 09:42:09.146595 24139 net.cpp:84] Creating Layer pool5
I1205 09:42:09.146607 24139 net.cpp:406] pool5 <- conv5_3
I1205 09:42:09.146627 24139 net.cpp:380] pool5 -> pool5
I1205 09:42:09.146682 24139 net.cpp:122] Setting up pool5
I1205 09:42:09.146699 24139 net.cpp:129] Top shape: 16 512 7 7 (401408)
I1205 09:42:09.146710 24139 net.cpp:137] Memory required for data: 1841660096
I1205 09:42:09.146720 24139 layer_factory.hpp:77] Creating layer fc6
I1205 09:42:09.146739 24139 net.cpp:84] Creating Layer fc6
I1205 09:42:09.146750 24139 net.cpp:406] fc6 <- pool5
I1205 09:42:09.146764 24139 net.cpp:380] fc6 -> fc6
I1205 09:42:10.386644 24139 net.cpp:122] Setting up fc6
I1205 09:42:10.386694 24139 net.cpp:129] Top shape: 16 4096 (65536)
I1205 09:42:10.386708 24139 net.cpp:137] Memory required for data: 1841922240
I1205 09:42:10.386726 24139 layer_factory.hpp:77] Creating layer relu6
I1205 09:42:10.386754 24139 net.cpp:84] Creating Layer relu6
I1205 09:42:10.386767 24139 net.cpp:406] relu6 <- fc6
I1205 09:42:10.386782 24139 net.cpp:367] relu6 -> fc6 (in-place)
I1205 09:42:10.386801 24139 net.cpp:122] Setting up relu6
I1205 09:42:10.386812 24139 net.cpp:129] Top shape: 16 4096 (65536)
I1205 09:42:10.386822 24139 net.cpp:137] Memory required for data: 1842184384
I1205 09:42:10.386835 24139 layer_factory.hpp:77] Creating layer drop6
I1205 09:42:10.386852 24139 net.cpp:84] Creating Layer drop6
I1205 09:42:10.386862 24139 net.cpp:406] drop6 <- fc6
I1205 09:42:10.386875 24139 net.cpp:367] drop6 -> fc6 (in-place)
I1205 09:42:10.386914 24139 net.cpp:122] Setting up drop6
I1205 09:42:10.386934 24139 net.cpp:129] Top shape: 16 4096 (65536)
I1205 09:42:10.386946 24139 net.cpp:137] Memory required for data: 1842446528
I1205 09:42:10.386956 24139 layer_factory.hpp:77] Creating layer fc7
I1205 09:42:10.386973 24139 net.cpp:84] Creating Layer fc7
I1205 09:42:10.386984 24139 net.cpp:406] fc7 <- fc6
I1205 09:42:10.386998 24139 net.cpp:380] fc7 -> fc7
I1205 09:42:10.577461 24139 net.cpp:122] Setting up fc7
I1205 09:42:10.577512 24139 net.cpp:129] Top shape: 16 4096 (65536)
I1205 09:42:10.577524 24139 net.cpp:137] Memory required for data: 1842708672
I1205 09:42:10.577543 24139 layer_factory.hpp:77] Creating layer relu7
I1205 09:42:10.577564 24139 net.cpp:84] Creating Layer relu7
I1205 09:42:10.577579 24139 net.cpp:406] relu7 <- fc7
I1205 09:42:10.577592 24139 net.cpp:367] relu7 -> fc7 (in-place)
I1205 09:42:10.577612 24139 net.cpp:122] Setting up relu7
I1205 09:42:10.577623 24139 net.cpp:129] Top shape: 16 4096 (65536)
I1205 09:42:10.577635 24139 net.cpp:137] Memory required for data: 1842970816
I1205 09:42:10.577644 24139 layer_factory.hpp:77] Creating layer drop7
I1205 09:42:10.577661 24139 net.cpp:84] Creating Layer drop7
I1205 09:42:10.577675 24139 net.cpp:406] drop7 <- fc7
I1205 09:42:10.577688 24139 net.cpp:367] drop7 -> fc7 (in-place)
I1205 09:42:10.577730 24139 net.cpp:122] Setting up drop7
I1205 09:42:10.577749 24139 net.cpp:129] Top shape: 16 4096 (65536)
I1205 09:42:10.577759 24139 net.cpp:137] Memory required for data: 1843232960
I1205 09:42:10.577769 24139 layer_factory.hpp:77] Creating layer fc_scv_dirty
I1205 09:42:10.577785 24139 net.cpp:84] Creating Layer fc_scv_dirty
I1205 09:42:10.577796 24139 net.cpp:406] fc_scv_dirty <- fc7
I1205 09:42:10.577812 24139 net.cpp:380] fc_scv_dirty -> fc_scv_dirty
I1205 09:42:10.577952 24139 net.cpp:122] Setting up fc_scv_dirty
I1205 09:42:10.577970 24139 net.cpp:129] Top shape: 16 1 (16)
I1205 09:42:10.577981 24139 net.cpp:137] Memory required for data: 1843233024
I1205 09:42:10.577994 24139 layer_factory.hpp:77] Creating layer fc_scv_dirty_fc_scv_dirty_0_split
I1205 09:42:10.578011 24139 net.cpp:84] Creating Layer fc_scv_dirty_fc_scv_dirty_0_split
I1205 09:42:10.578022 24139 net.cpp:406] fc_scv_dirty_fc_scv_dirty_0_split <- fc_scv_dirty
I1205 09:42:10.578035 24139 net.cpp:380] fc_scv_dirty_fc_scv_dirty_0_split -> fc_scv_dirty_fc_scv_dirty_0_split_0
I1205 09:42:10.578049 24139 net.cpp:380] fc_scv_dirty_fc_scv_dirty_0_split -> fc_scv_dirty_fc_scv_dirty_0_split_1
I1205 09:42:10.578097 24139 net.cpp:122] Setting up fc_scv_dirty_fc_scv_dirty_0_split
I1205 09:42:10.578112 24139 net.cpp:129] Top shape: 16 1 (16)
I1205 09:42:10.578128 24139 net.cpp:129] Top shape: 16 1 (16)
I1205 09:42:10.578138 24139 net.cpp:137] Memory required for data: 1843233152
I1205 09:42:10.578150 24139 layer_factory.hpp:77] Creating layer loss
I1205 09:42:10.578163 24139 net.cpp:84] Creating Layer loss
I1205 09:42:10.578174 24139 net.cpp:406] loss <- fc_scv_dirty_fc_scv_dirty_0_split_0
I1205 09:42:10.578191 24139 net.cpp:406] loss <- label_data_1_split_0
I1205 09:42:10.578204 24139 net.cpp:380] loss -> loss
…
