…
I1130 21:12:36.752172   354 net.cpp:294] The NetState phase (0) differed from the phase (1) specified by a rule in layer losttest
I1130 21:12:36.752326   354 net.cpp:51] Initializing net from parameters: 
name: "CaffeNet-Places365-SCV-Polluted"
state {
  phase: TRAIN
  level: 0
  stage: ""
}
layer {
  name: "data"
  type: "Data"
  top: "data"
  top: "label"
  include {
    phase: TRAIN
  }
  transform_param {
    mirror: true
    crop_size: 227
    mean_file: "/idiap/temp/lmedina/fine-tuning/alexnet_places365/places365CNN_mean.binaryproto"
  }
  data_param {
    source: "/idiap/temp/lmedina/fine-tuning/data/Polluted/train_lmdb"
    batch_size: 32
    backend: LMDB
  }
}
layer {
  name: "conv1"
  type: "Convolution"
  bottom: "data"
  top: "conv1"
  param {
    lr_mult: 1
    decay_mult: 1
  }
  param {
    lr_mult: 2
    decay_mult: 0
  }
  convolution_param {
    num_output: 96
    kernel_size: 11
    stride: 4
    weight_filler {
      type: "gaussian"
      std: 0.01
    }
    bias_filler {
      type: "constant"
      value: 0
    }
  }
}
layer {
  name: "relu1"
  type: "ReLU"
  bottom: "conv1"
  top: "conv1"
}
layer {
  name: "pool1"
  type: "Pooling"
  bottom: "conv1"
  top: "pool1"
  pooling_param {
    pool: MAX
    kernel_size: 3
    stride: 2
  }
}
layer {
  name: "norm1"
  type: "LRN"
  bottom: "pool1"
  top: "norm1"
  lrn_param {
    local_size: 5
    alpha: 0.0001
    beta: 0.75
  }
}
layer {
  name: "conv2"
  type: "Convolution"
  bottom: "norm1"
  top: "conv2"
  param {
    lr_mult: 1
    decay_mult: 1
  }
  param {
    lr_mult: 2
    decay_mult: 0
  }
  convolution_param {
    num_output: 256
    pad: 2
    kernel_size: 5
    group: 2
    weight_filler {
      type: "gaussian"
      std: 0.01
    }
    bias_filler {
      type: "constant"
      value: 1
    }
  }
}
layer {
  name: "relu2"
  type: "ReLU"
  bottom: "conv2"
  top: "conv2"
}
layer {
  name: "pool2"
  type: "Pooling"
  bottom: "conv2"
  top: "pool2"
  pooling_param {
    pool: MAX
    kernel_size: 3
    stride: 2
  }
}
layer {
  name: "norm2"
  type: "LRN"
  bottom: "pool2"
  top: "norm2"
  lrn_param {
    local_size: 5
    alpha: 0.0001
    beta: 0.75
  }
}
layer {
  name: "conv3"
  type: "Convolution"
  bottom: "norm2"
  top: "conv3"
  param {
    lr_mult: 1
    decay_mult: 1
  }
  param {
    lr_mult: 2
    decay_mult: 0
  }
  convolution_param {
    num_output: 384
    pad: 1
    kernel_size: 3
    weight_filler {
      type: "gaussian"
      std: 0.01
    }
    bias_filler {
      type: "constant"
      value: 0
    }
  }
}
layer {
  name: "relu3"
  type: "ReLU"
  bottom: "conv3"
  top: "conv3"
}
layer {
  name: "conv4"
  type: "Convolution"
  bottom: "conv3"
  top: "conv4"
  param {
    lr_mult: 1
    decay_mult: 1
  }
  param {
    lr_mult: 2
    decay_mult: 0
  }
  convolution_param {
    num_output: 384
    pad: 1
    kernel_size: 3
    group: 2
    weight_filler {
      type: "gaussian"
      std: 0.01
    }
    bias_filler {
      type: "constant"
      value: 1
    }
  }
}
layer {
  name: "relu4"
  type: "ReLU"
  bottom: "conv4"
  top: "conv4"
}
layer {
  name: "conv5"
  type: "Convolution"
  bottom: "conv4"
  top: "conv5"
  param {
    lr_mult: 1
    decay_mult: 1
  }
  param {
    lr_mult: 2
    decay_mult: 0
  }
  convolution_param {
    num_output: 256
    pad: 1
    kernel_size: 3
    group: 2
    weight_filler {
      type: "gaussian"
      std: 0.01
    }
    bias_filler {
      type: "constant"
      value: 1
    }
  }
}
layer {
  name: "relu5"
  type: "ReLU"
  bottom: "conv5"
  top: "conv5"
}
layer {
  name: "pool5"
  type: "Pooling"
  bottom: "conv5"
  top: "pool5"
  pooling_param {
    pool: MAX
    kernel_size: 3
    stride: 2
  }
}
layer {
  name: "fc6"
  type: "InnerProduct"
  bottom: "pool5"
  top: "fc6"
  param {
    lr_mult: 1
    decay_mult: 1
  }
  param {
    lr_mult: 2
    decay_mult: 0
  }
  inner_product_param {
    num_output: 4096
    weight_filler {
      type: "gaussian"
      std: 0.005
    }
    bias_filler {
      type: "constant"
      value: 1
    }
  }
}
layer {
  name: "relu6"
  type: "ReLU"
  bottom: "fc6"
  top: "fc6"
}
layer {
  name: "drop6"
  type: "Dropout"
  bottom: "fc6"
  top: "fc6"
  dropout_param {
    dropout_ratio: 0.5
  }
}
layer {
  name: "fc7"
  type: "InnerProduct"
  bottom: "fc6"
  top: "fc7"
  param {
    lr_mult: 1
    decay_mult: 1
  }
  param {
    lr_mult: 2
    decay_mult: 0
  }
  inner_product_param {
    num_output: 4096
    weight_filler {
      type: "gaussian"
      std: 0.005
    }
    bias_filler {
      type: "constant"
      value: 1
    }
  }
}
layer {
  name: "relu7"
  type: "ReLU"
  bottom: "fc7"
  top: "fc7"
}
layer {
  name: "drop7"
  type: "Dropout"
  bottom: "fc7"
  top: "fc7"
  dropout_param {
    dropout_ratio: 0.5
  }
}
layer {
  name: "fc_scv_polluted"
  type: "InnerProduct"
  bottom: "fc7"
  top: "fc_scv_polluted"
  param {
    lr_mult: 10
    decay_mult: 1
  }
  param {
    lr_mult: 20
    decay_mult: 0
  }
  inner_product_param {
    num_output: 1
    weight_filler {
      type: "xavier"
      std: 0.01
    }
    bias_filler {
      type: "constant"
      value: 0
    }
  }
}
layer {
  name: "loss"
  type: "EuclideanLoss"
  bottom: "fc_scv_polluted"
  bottom: "label"
  top: "loss"
}
I1130 21:12:36.752414   354 layer_factory.hpp:77] Creating layer data
I1130 21:12:36.780253   354 db_lmdb.cpp:35] Opened lmdb /idiap/temp/lmedina/fine-tuning/data/Polluted/train_lmdb
I1130 21:12:36.791848   354 net.cpp:84] Creating Layer data
I1130 21:12:36.791867   354 net.cpp:380] data -> data
I1130 21:12:36.791889   354 net.cpp:380] data -> label
I1130 21:12:36.791904   354 data_transformer.cpp:25] Loading mean file from: /idiap/temp/lmedina/fine-tuning/alexnet_places365/places365CNN_mean.binaryproto
I1130 21:12:36.807826   354 data_layer.cpp:45] output data size: 32,3,227,227
I1130 21:12:36.846156   354 net.cpp:122] Setting up data
I1130 21:12:36.846192   354 net.cpp:129] Top shape: 32 3 227 227 (4946784)
I1130 21:12:36.846199   354 net.cpp:129] Top shape: 32 (32)
I1130 21:12:36.846204   354 net.cpp:137] Memory required for data: 19787264
I1130 21:12:36.846225   354 layer_factory.hpp:77] Creating layer conv1
I1130 21:12:36.846246   354 net.cpp:84] Creating Layer conv1
I1130 21:12:36.846253   354 net.cpp:406] conv1 <- data
I1130 21:12:36.846267   354 net.cpp:380] conv1 -> conv1
I1130 21:12:36.847596   354 net.cpp:122] Setting up conv1
I1130 21:12:36.847609   354 net.cpp:129] Top shape: 32 96 55 55 (9292800)
I1130 21:12:36.847612   354 net.cpp:137] Memory required for data: 56958464
I1130 21:12:36.847627   354 layer_factory.hpp:77] Creating layer relu1
I1130 21:12:36.847635   354 net.cpp:84] Creating Layer relu1
I1130 21:12:36.847643   354 net.cpp:406] relu1 <- conv1
I1130 21:12:36.847651   354 net.cpp:367] relu1 -> conv1 (in-place)
I1130 21:12:36.847671   354 net.cpp:122] Setting up relu1
I1130 21:12:36.847678   354 net.cpp:129] Top shape: 32 96 55 55 (9292800)
I1130 21:12:36.847683   354 net.cpp:137] Memory required for data: 94129664
I1130 21:12:36.847688   354 layer_factory.hpp:77] Creating layer pool1
I1130 21:12:36.847695   354 net.cpp:84] Creating Layer pool1
I1130 21:12:36.847702   354 net.cpp:406] pool1 <- conv1
I1130 21:12:36.847708   354 net.cpp:380] pool1 -> pool1
I1130 21:12:36.849483   354 net.cpp:122] Setting up pool1
I1130 21:12:36.849504   354 net.cpp:129] Top shape: 32 96 27 27 (2239488)
I1130 21:12:36.849509   354 net.cpp:137] Memory required for data: 103087616
I1130 21:12:36.849514   354 layer_factory.hpp:77] Creating layer norm1
I1130 21:12:36.849524   354 net.cpp:84] Creating Layer norm1
I1130 21:12:36.849529   354 net.cpp:406] norm1 <- pool1
I1130 21:12:36.849534   354 net.cpp:380] norm1 -> norm1
I1130 21:12:36.849578   354 net.cpp:122] Setting up norm1
I1130 21:12:36.849586   354 net.cpp:129] Top shape: 32 96 27 27 (2239488)
I1130 21:12:36.849591   354 net.cpp:137] Memory required for data: 112045568
I1130 21:12:36.849594   354 layer_factory.hpp:77] Creating layer conv2
I1130 21:12:36.849604   354 net.cpp:84] Creating Layer conv2
I1130 21:12:36.849608   354 net.cpp:406] conv2 <- norm1
I1130 21:12:36.849614   354 net.cpp:380] conv2 -> conv2
I1130 21:12:36.853080   354 net.cpp:122] Setting up conv2
I1130 21:12:36.853097   354 net.cpp:129] Top shape: 32 256 27 27 (5971968)
I1130 21:12:36.853104   354 net.cpp:137] Memory required for data: 135933440
I1130 21:12:36.853116   354 layer_factory.hpp:77] Creating layer relu2
I1130 21:12:36.853126   354 net.cpp:84] Creating Layer relu2
I1130 21:12:36.853130   354 net.cpp:406] relu2 <- conv2
I1130 21:12:36.853137   354 net.cpp:367] relu2 -> conv2 (in-place)
I1130 21:12:36.853147   354 net.cpp:122] Setting up relu2
I1130 21:12:36.853152   354 net.cpp:129] Top shape: 32 256 27 27 (5971968)
I1130 21:12:36.853157   354 net.cpp:137] Memory required for data: 159821312
I1130 21:12:36.853162   354 layer_factory.hpp:77] Creating layer pool2
I1130 21:12:36.853168   354 net.cpp:84] Creating Layer pool2
I1130 21:12:36.853173   354 net.cpp:406] pool2 <- conv2
I1130 21:12:36.853178   354 net.cpp:380] pool2 -> pool2
I1130 21:12:36.853210   354 net.cpp:122] Setting up pool2
I1130 21:12:36.853217   354 net.cpp:129] Top shape: 32 256 13 13 (1384448)
I1130 21:12:36.853221   354 net.cpp:137] Memory required for data: 165359104
I1130 21:12:36.853225   354 layer_factory.hpp:77] Creating layer norm2
I1130 21:12:36.853233   354 net.cpp:84] Creating Layer norm2
I1130 21:12:36.853238   354 net.cpp:406] norm2 <- pool2
I1130 21:12:36.853245   354 net.cpp:380] norm2 -> norm2
I1130 21:12:36.853271   354 net.cpp:122] Setting up norm2
I1130 21:12:36.853278   354 net.cpp:129] Top shape: 32 256 13 13 (1384448)
I1130 21:12:36.853282   354 net.cpp:137] Memory required for data: 170896896
I1130 21:12:36.853286   354 layer_factory.hpp:77] Creating layer conv3
I1130 21:12:36.853296   354 net.cpp:84] Creating Layer conv3
I1130 21:12:36.853302   354 net.cpp:406] conv3 <- norm2
I1130 21:12:36.853307   354 net.cpp:380] conv3 -> conv3
I1130 21:12:36.861690   354 net.cpp:122] Setting up conv3
I1130 21:12:36.861703   354 net.cpp:129] Top shape: 32 384 13 13 (2076672)
I1130 21:12:36.861707   354 net.cpp:137] Memory required for data: 179203584
I1130 21:12:36.861717   354 layer_factory.hpp:77] Creating layer relu3
I1130 21:12:36.861724   354 net.cpp:84] Creating Layer relu3
I1130 21:12:36.861729   354 net.cpp:406] relu3 <- conv3
I1130 21:12:36.861737   354 net.cpp:367] relu3 -> conv3 (in-place)
I1130 21:12:36.861744   354 net.cpp:122] Setting up relu3
I1130 21:12:36.861749   354 net.cpp:129] Top shape: 32 384 13 13 (2076672)
I1130 21:12:36.861754   354 net.cpp:137] Memory required for data: 187510272
I1130 21:12:36.861757   354 layer_factory.hpp:77] Creating layer conv4
I1130 21:12:36.861766   354 net.cpp:84] Creating Layer conv4
I1130 21:12:36.861770   354 net.cpp:406] conv4 <- conv3
I1130 21:12:36.861776   354 net.cpp:380] conv4 -> conv4
I1130 21:12:36.868043   354 net.cpp:122] Setting up conv4
I1130 21:12:36.868054   354 net.cpp:129] Top shape: 32 384 13 13 (2076672)
I1130 21:12:36.868058   354 net.cpp:137] Memory required for data: 195816960
I1130 21:12:36.868064   354 layer_factory.hpp:77] Creating layer relu4
I1130 21:12:36.868072   354 net.cpp:84] Creating Layer relu4
I1130 21:12:36.868077   354 net.cpp:406] relu4 <- conv4
I1130 21:12:36.868083   354 net.cpp:367] relu4 -> conv4 (in-place)
I1130 21:12:36.868091   354 net.cpp:122] Setting up relu4
I1130 21:12:36.868101   354 net.cpp:129] Top shape: 32 384 13 13 (2076672)
I1130 21:12:36.868106   354 net.cpp:137] Memory required for data: 204123648
I1130 21:12:36.868110   354 layer_factory.hpp:77] Creating layer conv5
I1130 21:12:36.868119   354 net.cpp:84] Creating Layer conv5
I1130 21:12:36.868124   354 net.cpp:406] conv5 <- conv4
I1130 21:12:36.868129   354 net.cpp:380] conv5 -> conv5
I1130 21:12:36.872391   354 net.cpp:122] Setting up conv5
I1130 21:12:36.872403   354 net.cpp:129] Top shape: 32 256 13 13 (1384448)
I1130 21:12:36.872407   354 net.cpp:137] Memory required for data: 209661440
I1130 21:12:36.872418   354 layer_factory.hpp:77] Creating layer relu5
I1130 21:12:36.872426   354 net.cpp:84] Creating Layer relu5
I1130 21:12:36.872431   354 net.cpp:406] relu5 <- conv5
I1130 21:12:36.872437   354 net.cpp:367] relu5 -> conv5 (in-place)
I1130 21:12:36.872444   354 net.cpp:122] Setting up relu5
I1130 21:12:36.872450   354 net.cpp:129] Top shape: 32 256 13 13 (1384448)
I1130 21:12:36.872454   354 net.cpp:137] Memory required for data: 215199232
I1130 21:12:36.872458   354 layer_factory.hpp:77] Creating layer pool5
I1130 21:12:36.872465   354 net.cpp:84] Creating Layer pool5
I1130 21:12:36.872469   354 net.cpp:406] pool5 <- conv5
I1130 21:12:36.872475   354 net.cpp:380] pool5 -> pool5
I1130 21:12:36.872506   354 net.cpp:122] Setting up pool5
I1130 21:12:36.872514   354 net.cpp:129] Top shape: 32 256 6 6 (294912)
I1130 21:12:36.872519   354 net.cpp:137] Memory required for data: 216378880
I1130 21:12:36.872521   354 layer_factory.hpp:77] Creating layer fc6
I1130 21:12:36.872534   354 net.cpp:84] Creating Layer fc6
I1130 21:12:36.872539   354 net.cpp:406] fc6 <- pool5
I1130 21:12:36.872545   354 net.cpp:380] fc6 -> fc6
I1130 21:12:37.221415   354 net.cpp:122] Setting up fc6
I1130 21:12:37.221441   354 net.cpp:129] Top shape: 32 4096 (131072)
I1130 21:12:37.221446   354 net.cpp:137] Memory required for data: 216903168
I1130 21:12:37.221455   354 layer_factory.hpp:77] Creating layer relu6
I1130 21:12:37.221467   354 net.cpp:84] Creating Layer relu6
I1130 21:12:37.221472   354 net.cpp:406] relu6 <- fc6
I1130 21:12:37.221479   354 net.cpp:367] relu6 -> fc6 (in-place)
I1130 21:12:37.221490   354 net.cpp:122] Setting up relu6
I1130 21:12:37.221496   354 net.cpp:129] Top shape: 32 4096 (131072)
I1130 21:12:37.221499   354 net.cpp:137] Memory required for data: 217427456
I1130 21:12:37.221503   354 layer_factory.hpp:77] Creating layer drop6
I1130 21:12:37.221513   354 net.cpp:84] Creating Layer drop6
I1130 21:12:37.221518   354 net.cpp:406] drop6 <- fc6
I1130 21:12:37.221523   354 net.cpp:367] drop6 -> fc6 (in-place)
I1130 21:12:37.221547   354 net.cpp:122] Setting up drop6
I1130 21:12:37.221554   354 net.cpp:129] Top shape: 32 4096 (131072)
I1130 21:12:37.221557   354 net.cpp:137] Memory required for data: 217951744
I1130 21:12:37.221562   354 layer_factory.hpp:77] Creating layer fc7
I1130 21:12:37.221570   354 net.cpp:84] Creating Layer fc7
I1130 21:12:37.221575   354 net.cpp:406] fc7 <- fc6
I1130 21:12:37.221581   354 net.cpp:380] fc7 -> fc7
I1130 21:12:37.376618   354 net.cpp:122] Setting up fc7
I1130 21:12:37.376646   354 net.cpp:129] Top shape: 32 4096 (131072)
I1130 21:12:37.376649   354 net.cpp:137] Memory required for data: 218476032
I1130 21:12:37.376659   354 layer_factory.hpp:77] Creating layer relu7
I1130 21:12:37.376670   354 net.cpp:84] Creating Layer relu7
I1130 21:12:37.376675   354 net.cpp:406] relu7 <- fc7
I1130 21:12:37.376685   354 net.cpp:367] relu7 -> fc7 (in-place)
I1130 21:12:37.376695   354 net.cpp:122] Setting up relu7
I1130 21:12:37.376701   354 net.cpp:129] Top shape: 32 4096 (131072)
I1130 21:12:37.376704   354 net.cpp:137] Memory required for data: 219000320
I1130 21:12:37.376708   354 layer_factory.hpp:77] Creating layer drop7
I1130 21:12:37.376714   354 net.cpp:84] Creating Layer drop7
I1130 21:12:37.376718   354 net.cpp:406] drop7 <- fc7
I1130 21:12:37.376724   354 net.cpp:367] drop7 -> fc7 (in-place)
I1130 21:12:37.376746   354 net.cpp:122] Setting up drop7
I1130 21:12:37.376760   354 net.cpp:129] Top shape: 32 4096 (131072)
I1130 21:12:37.376763   354 net.cpp:137] Memory required for data: 219524608
I1130 21:12:37.376767   354 layer_factory.hpp:77] Creating layer fc_scv_polluted
I1130 21:12:37.376775   354 net.cpp:84] Creating Layer fc_scv_polluted
I1130 21:12:37.376780   354 net.cpp:406] fc_scv_polluted <- fc7
I1130 21:12:37.376786   354 net.cpp:380] fc_scv_polluted -> fc_scv_polluted
I1130 21:12:37.376895   354 net.cpp:122] Setting up fc_scv_polluted
I1130 21:12:37.376904   354 net.cpp:129] Top shape: 32 1 (32)
I1130 21:12:37.376909   354 net.cpp:137] Memory required for data: 219524736
I1130 21:12:37.376914   354 layer_factory.hpp:77] Creating layer loss
I1130 21:12:37.376921   354 net.cpp:84] Creating Layer loss
I1130 21:12:37.376925   354 net.cpp:406] loss <- fc_scv_polluted
I1130 21:12:37.376931   354 net.cpp:406] loss <- label
I1130 21:12:37.376937   354 net.cpp:380] loss -> loss
I1130 21:12:37.376968   354 net.cpp:122] Setting up loss
…
I1130 21:12:37.377912   354 net.cpp:294] The NetState phase (1) differed from the phase (0) specified by a rule in layer data
I1130 21:12:37.378074   354 net.cpp:51] Initializing net from parameters: 
name: "CaffeNet-Places365-SCV-Polluted"
state {
  phase: TEST
}
layer {
  name: "data"
  type: "Data"
  top: "data"
  top: "label"
  include {
    phase: TEST
  }
  transform_param {
    mirror: false
    crop_size: 227
    mean_file: "/idiap/temp/lmedina/fine-tuning/alexnet_places365/places365CNN_mean.binaryproto"
  }
  data_param {
    source: "/idiap/temp/lmedina/fine-tuning/data/Polluted/validation_lmdb"
    batch_size: 32
    backend: LMDB
  }
}
layer {
  name: "conv1"
  type: "Convolution"
  bottom: "data"
  top: "conv1"
  param {
    lr_mult: 1
    decay_mult: 1
  }
  param {
    lr_mult: 2
    decay_mult: 0
  }
  convolution_param {
    num_output: 96
    kernel_size: 11
    stride: 4
    weight_filler {
      type: "gaussian"
      std: 0.01
    }
    bias_filler {
      type: "constant"
      value: 0
    }
  }
}
layer {
  name: "relu1"
  type: "ReLU"
  bottom: "conv1"
  top: "conv1"
}
layer {
  name: "pool1"
  type: "Pooling"
  bottom: "conv1"
  top: "pool1"
  pooling_param {
    pool: MAX
    kernel_size: 3
    stride: 2
  }
}
layer {
  name: "norm1"
  type: "LRN"
  bottom: "pool1"
  top: "norm1"
  lrn_param {
    local_size: 5
    alpha: 0.0001
    beta: 0.75
  }
}
layer {
  name: "conv2"
  type: "Convolution"
  bottom: "norm1"
  top: "conv2"
  param {
    lr_mult: 1
    decay_mult: 1
  }
  param {
    lr_mult: 2
    decay_mult: 0
  }
  convolution_param {
    num_output: 256
    pad: 2
    kernel_size: 5
    group: 2
    weight_filler {
      type: "gaussian"
      std: 0.01
    }
    bias_filler {
      type: "constant"
      value: 1
    }
  }
}
layer {
  name: "relu2"
  type: "ReLU"
  bottom: "conv2"
  top: "conv2"
}
layer {
  name: "pool2"
  type: "Pooling"
  bottom: "conv2"
  top: "pool2"
  pooling_param {
    pool: MAX
    kernel_size: 3
    stride: 2
  }
}
layer {
  name: "norm2"
  type: "LRN"
  bottom: "pool2"
  top: "norm2"
  lrn_param {
    local_size: 5
    alpha: 0.0001
    beta: 0.75
  }
}
layer {
  name: "conv3"
  type: "Convolution"
  bottom: "norm2"
  top: "conv3"
  param {
    lr_mult: 1
    decay_mult: 1
  }
  param {
    lr_mult: 2
    decay_mult: 0
  }
  convolution_param {
    num_output: 384
    pad: 1
    kernel_size: 3
    weight_filler {
      type: "gaussian"
      std: 0.01
    }
    bias_filler {
      type: "constant"
      value: 0
    }
  }
}
layer {
  name: "relu3"
  type: "ReLU"
  bottom: "conv3"
  top: "conv3"
}
layer {
  name: "conv4"
  type: "Convolution"
  bottom: "conv3"
  top: "conv4"
  param {
    lr_mult: 1
    decay_mult: 1
  }
  param {
    lr_mult: 2
    decay_mult: 0
  }
  convolution_param {
    num_output: 384
    pad: 1
    kernel_size: 3
    group: 2
    weight_filler {
      type: "gaussian"
      std: 0.01
    }
    bias_filler {
      type: "constant"
      value: 1
    }
  }
}
layer {
  name: "relu4"
  type: "ReLU"
  bottom: "conv4"
  top: "conv4"
}
layer {
  name: "conv5"
  type: "Convolution"
  bottom: "conv4"
  top: "conv5"
  param {
    lr_mult: 1
    decay_mult: 1
  }
  param {
    lr_mult: 2
    decay_mult: 0
  }
  convolution_param {
    num_output: 256
    pad: 1
    kernel_size: 3
    group: 2
    weight_filler {
      type: "gaussian"
      std: 0.01
    }
    bias_filler {
      type: "constant"
      value: 1
    }
  }
}
layer {
  name: "relu5"
  type: "ReLU"
  bottom: "conv5"
  top: "conv5"
}
layer {
  name: "pool5"
  type: "Pooling"
  bottom: "conv5"
  top: "pool5"
  pooling_param {
    pool: MAX
    kernel_size: 3
    stride: 2
  }
}
layer {
  name: "fc6"
  type: "InnerProduct"
  bottom: "pool5"
  top: "fc6"
  param {
    lr_mult: 1
    decay_mult: 1
  }
  param {
    lr_mult: 2
    decay_mult: 0
  }
  inner_product_param {
    num_output: 4096
    weight_filler {
      type: "gaussian"
      std: 0.005
    }
    bias_filler {
      type: "constant"
      value: 1
    }
  }
}
layer {
  name: "relu6"
  type: "ReLU"
  bottom: "fc6"
  top: "fc6"
}
layer {
  name: "drop6"
  type: "Dropout"
  bottom: "fc6"
  top: "fc6"
  dropout_param {
    dropout_ratio: 0.5
  }
}
layer {
  name: "fc7"
  type: "InnerProduct"
  bottom: "fc6"
  top: "fc7"
  param {
    lr_mult: 1
    decay_mult: 1
  }
  param {
    lr_mult: 2
    decay_mult: 0
  }
  inner_product_param {
    num_output: 4096
    weight_filler {
      type: "gaussian"
      std: 0.005
    }
    bias_filler {
      type: "constant"
      value: 1
    }
  }
}
layer {
  name: "relu7"
  type: "ReLU"
  bottom: "fc7"
  top: "fc7"
}
layer {
  name: "drop7"
  type: "Dropout"
  bottom: "fc7"
  top: "fc7"
  dropout_param {
    dropout_ratio: 0.5
  }
}
layer {
  name: "fc_scv_polluted"
  type: "InnerProduct"
  bottom: "fc7"
  top: "fc_scv_polluted"
  param {
    lr_mult: 10
    decay_mult: 1
  }
  param {
    lr_mult: 20
    decay_mult: 0
  }
  inner_product_param {
    num_output: 1
    weight_filler {
      type: "xavier"
      std: 0.01
    }
    bias_filler {
      type: "constant"
      value: 0
    }
  }
}
layer {
  name: "loss"
  type: "EuclideanLoss"
  bottom: "fc_scv_polluted"
  bottom: "label"
  top: "loss"
}
layer {
  name: "losttest"
  type: "EuclideanLoss"
  bottom: "fc_scv_polluted"
  bottom: "label"
  top: "losttest"
  include {
    phase: TEST
  }
}
I1130 21:12:37.378170   354 layer_factory.hpp:77] Creating layer data
I1130 21:12:37.393012   354 db_lmdb.cpp:35] Opened lmdb /idiap/temp/lmedina/fine-tuning/data/Polluted/validation_lmdb
I1130 21:12:37.397423   354 net.cpp:84] Creating Layer data
I1130 21:12:37.397439   354 net.cpp:380] data -> data
I1130 21:12:37.397449   354 net.cpp:380] data -> label
I1130 21:12:37.397457   354 data_transformer.cpp:25] Loading mean file from: /idiap/temp/lmedina/fine-tuning/alexnet_places365/places365CNN_mean.binaryproto
I1130 21:12:37.404479   354 data_layer.cpp:45] output data size: 32,3,227,227
I1130 21:12:37.437114   354 net.cpp:122] Setting up data
I1130 21:12:37.437144   354 net.cpp:129] Top shape: 32 3 227 227 (4946784)
I1130 21:12:37.437150   354 net.cpp:129] Top shape: 32 (32)
I1130 21:12:37.437153   354 net.cpp:137] Memory required for data: 19787264
I1130 21:12:37.437160   354 layer_factory.hpp:77] Creating layer label_data_1_split
I1130 21:12:37.437175   354 net.cpp:84] Creating Layer label_data_1_split
I1130 21:12:37.437180   354 net.cpp:406] label_data_1_split <- label
I1130 21:12:37.437187   354 net.cpp:380] label_data_1_split -> label_data_1_split_0
I1130 21:12:37.437199   354 net.cpp:380] label_data_1_split -> label_data_1_split_1
I1130 21:12:37.437281   354 net.cpp:122] Setting up label_data_1_split
I1130 21:12:37.437290   354 net.cpp:129] Top shape: 32 (32)
I1130 21:12:37.437296   354 net.cpp:129] Top shape: 32 (32)
I1130 21:12:37.437300   354 net.cpp:137] Memory required for data: 19787520
I1130 21:12:37.437305   354 layer_factory.hpp:77] Creating layer conv1
I1130 21:12:37.437319   354 net.cpp:84] Creating Layer conv1
I1130 21:12:37.437324   354 net.cpp:406] conv1 <- data
I1130 21:12:37.437330   354 net.cpp:380] conv1 -> conv1
I1130 21:12:37.437813   354 net.cpp:122] Setting up conv1
I1130 21:12:37.437821   354 net.cpp:129] Top shape: 32 96 55 55 (9292800)
I1130 21:12:37.437824   354 net.cpp:137] Memory required for data: 56958720
I1130 21:12:37.437835   354 layer_factory.hpp:77] Creating layer relu1
I1130 21:12:37.437841   354 net.cpp:84] Creating Layer relu1
I1130 21:12:37.437845   354 net.cpp:406] relu1 <- conv1
I1130 21:12:37.437852   354 net.cpp:367] relu1 -> conv1 (in-place)
I1130 21:12:37.437860   354 net.cpp:122] Setting up relu1
I1130 21:12:37.437865   354 net.cpp:129] Top shape: 32 96 55 55 (9292800)
I1130 21:12:37.437870   354 net.cpp:137] Memory required for data: 94129920
I1130 21:12:37.437875   354 layer_factory.hpp:77] Creating layer pool1
I1130 21:12:37.437881   354 net.cpp:84] Creating Layer pool1
I1130 21:12:37.437886   354 net.cpp:406] pool1 <- conv1
I1130 21:12:37.437891   354 net.cpp:380] pool1 -> pool1
I1130 21:12:37.437947   354 net.cpp:122] Setting up pool1
I1130 21:12:37.437955   354 net.cpp:129] Top shape: 32 96 27 27 (2239488)
I1130 21:12:37.437959   354 net.cpp:137] Memory required for data: 103087872
I1130 21:12:37.437963   354 layer_factory.hpp:77] Creating layer norm1
I1130 21:12:37.437970   354 net.cpp:84] Creating Layer norm1
I1130 21:12:37.437975   354 net.cpp:406] norm1 <- pool1
I1130 21:12:37.437981   354 net.cpp:380] norm1 -> norm1
I1130 21:12:37.438009   354 net.cpp:122] Setting up norm1
I1130 21:12:37.438016   354 net.cpp:129] Top shape: 32 96 27 27 (2239488)
I1130 21:12:37.438019   354 net.cpp:137] Memory required for data: 112045824
I1130 21:12:37.438024   354 layer_factory.hpp:77] Creating layer conv2
I1130 21:12:37.438032   354 net.cpp:84] Creating Layer conv2
I1130 21:12:37.438036   354 net.cpp:406] conv2 <- norm1
I1130 21:12:37.438042   354 net.cpp:380] conv2 -> conv2
I1130 21:12:37.441161   354 net.cpp:122] Setting up conv2
I1130 21:12:37.441174   354 net.cpp:129] Top shape: 32 256 27 27 (5971968)
I1130 21:12:37.441179   354 net.cpp:137] Memory required for data: 135933696
I1130 21:12:37.441189   354 layer_factory.hpp:77] Creating layer relu2
I1130 21:12:37.441196   354 net.cpp:84] Creating Layer relu2
I1130 21:12:37.441200   354 net.cpp:406] relu2 <- conv2
I1130 21:12:37.441207   354 net.cpp:367] relu2 -> conv2 (in-place)
I1130 21:12:37.441215   354 net.cpp:122] Setting up relu2
I1130 21:12:37.441220   354 net.cpp:129] Top shape: 32 256 27 27 (5971968)
I1130 21:12:37.441226   354 net.cpp:137] Memory required for data: 159821568
I1130 21:12:37.441229   354 layer_factory.hpp:77] Creating layer pool2
I1130 21:12:37.441236   354 net.cpp:84] Creating Layer pool2
I1130 21:12:37.441241   354 net.cpp:406] pool2 <- conv2
I1130 21:12:37.441246   354 net.cpp:380] pool2 -> pool2
I1130 21:12:37.441277   354 net.cpp:122] Setting up pool2
I1130 21:12:37.441284   354 net.cpp:129] Top shape: 32 256 13 13 (1384448)
I1130 21:12:37.441288   354 net.cpp:137] Memory required for data: 165359360
I1130 21:12:37.441293   354 layer_factory.hpp:77] Creating layer norm2
I1130 21:12:37.441298   354 net.cpp:84] Creating Layer norm2
I1130 21:12:37.441303   354 net.cpp:406] norm2 <- pool2
I1130 21:12:37.441308   354 net.cpp:380] norm2 -> norm2
I1130 21:12:37.441336   354 net.cpp:122] Setting up norm2
I1130 21:12:37.441342   354 net.cpp:129] Top shape: 32 256 13 13 (1384448)
I1130 21:12:37.441347   354 net.cpp:137] Memory required for data: 170897152
I1130 21:12:37.441350   354 layer_factory.hpp:77] Creating layer conv3
I1130 21:12:37.441359   354 net.cpp:84] Creating Layer conv3
I1130 21:12:37.441365   354 net.cpp:406] conv3 <- norm2
I1130 21:12:37.441370   354 net.cpp:380] conv3 -> conv3
I1130 21:12:37.449729   354 net.cpp:122] Setting up conv3
I1130 21:12:37.449750   354 net.cpp:129] Top shape: 32 384 13 13 (2076672)
I1130 21:12:37.449754   354 net.cpp:137] Memory required for data: 179203840
I1130 21:12:37.449766   354 layer_factory.hpp:77] Creating layer relu3
I1130 21:12:37.449775   354 net.cpp:84] Creating Layer relu3
I1130 21:12:37.449781   354 net.cpp:406] relu3 <- conv3
I1130 21:12:37.449789   354 net.cpp:367] relu3 -> conv3 (in-place)
I1130 21:12:37.449798   354 net.cpp:122] Setting up relu3
I1130 21:12:37.449805   354 net.cpp:129] Top shape: 32 384 13 13 (2076672)
I1130 21:12:37.449808   354 net.cpp:137] Memory required for data: 187510528
I1130 21:12:37.449813   354 layer_factory.hpp:77] Creating layer conv4
I1130 21:12:37.449822   354 net.cpp:84] Creating Layer conv4
I1130 21:12:37.449827   354 net.cpp:406] conv4 <- conv3
I1130 21:12:37.449833   354 net.cpp:380] conv4 -> conv4
I1130 21:12:37.456185   354 net.cpp:122] Setting up conv4
I1130 21:12:37.456197   354 net.cpp:129] Top shape: 32 384 13 13 (2076672)
I1130 21:12:37.456202   354 net.cpp:137] Memory required for data: 195817216
I1130 21:12:37.456209   354 layer_factory.hpp:77] Creating layer relu4
I1130 21:12:37.456218   354 net.cpp:84] Creating Layer relu4
I1130 21:12:37.456223   354 net.cpp:406] relu4 <- conv4
I1130 21:12:37.456229   354 net.cpp:367] relu4 -> conv4 (in-place)
I1130 21:12:37.456235   354 net.cpp:122] Setting up relu4
I1130 21:12:37.456241   354 net.cpp:129] Top shape: 32 384 13 13 (2076672)
I1130 21:12:37.456245   354 net.cpp:137] Memory required for data: 204123904
I1130 21:12:37.456250   354 layer_factory.hpp:77] Creating layer conv5
I1130 21:12:37.456259   354 net.cpp:84] Creating Layer conv5
I1130 21:12:37.456264   354 net.cpp:406] conv5 <- conv4
I1130 21:12:37.456269   354 net.cpp:380] conv5 -> conv5
I1130 21:12:37.460554   354 net.cpp:122] Setting up conv5
I1130 21:12:37.460566   354 net.cpp:129] Top shape: 32 256 13 13 (1384448)
I1130 21:12:37.460569   354 net.cpp:137] Memory required for data: 209661696
I1130 21:12:37.460579   354 layer_factory.hpp:77] Creating layer relu5
I1130 21:12:37.460587   354 net.cpp:84] Creating Layer relu5
I1130 21:12:37.460592   354 net.cpp:406] relu5 <- conv5
I1130 21:12:37.460602   354 net.cpp:367] relu5 -> conv5 (in-place)
I1130 21:12:37.460608   354 net.cpp:122] Setting up relu5
I1130 21:12:37.460614   354 net.cpp:129] Top shape: 32 256 13 13 (1384448)
I1130 21:12:37.460619   354 net.cpp:137] Memory required for data: 215199488
I1130 21:12:37.460623   354 layer_factory.hpp:77] Creating layer pool5
I1130 21:12:37.460631   354 net.cpp:84] Creating Layer pool5
I1130 21:12:37.460636   354 net.cpp:406] pool5 <- conv5
I1130 21:12:37.460641   354 net.cpp:380] pool5 -> pool5
I1130 21:12:37.460674   354 net.cpp:122] Setting up pool5
I1130 21:12:37.460681   354 net.cpp:129] Top shape: 32 256 6 6 (294912)
I1130 21:12:37.460685   354 net.cpp:137] Memory required for data: 216379136
I1130 21:12:37.460690   354 layer_factory.hpp:77] Creating layer fc6
I1130 21:12:37.460698   354 net.cpp:84] Creating Layer fc6
I1130 21:12:37.460703   354 net.cpp:406] fc6 <- pool5
I1130 21:12:37.460708   354 net.cpp:380] fc6 -> fc6
I1130 21:12:37.809268   354 net.cpp:122] Setting up fc6
I1130 21:12:37.809299   354 net.cpp:129] Top shape: 32 4096 (131072)
I1130 21:12:37.809303   354 net.cpp:137] Memory required for data: 216903424
I1130 21:12:37.809314   354 layer_factory.hpp:77] Creating layer relu6
I1130 21:12:37.809324   354 net.cpp:84] Creating Layer relu6
I1130 21:12:37.809329   354 net.cpp:406] relu6 <- fc6
I1130 21:12:37.809337   354 net.cpp:367] relu6 -> fc6 (in-place)
I1130 21:12:37.809350   354 net.cpp:122] Setting up relu6
I1130 21:12:37.809355   354 net.cpp:129] Top shape: 32 4096 (131072)
I1130 21:12:37.809360   354 net.cpp:137] Memory required for data: 217427712
I1130 21:12:37.809363   354 layer_factory.hpp:77] Creating layer drop6
I1130 21:12:37.809370   354 net.cpp:84] Creating Layer drop6
I1130 21:12:37.809375   354 net.cpp:406] drop6 <- fc6
I1130 21:12:37.809378   354 net.cpp:367] drop6 -> fc6 (in-place)
I1130 21:12:37.809404   354 net.cpp:122] Setting up drop6
I1130 21:12:37.809412   354 net.cpp:129] Top shape: 32 4096 (131072)
I1130 21:12:37.809414   354 net.cpp:137] Memory required for data: 217952000
I1130 21:12:37.809419   354 layer_factory.hpp:77] Creating layer fc7
I1130 21:12:37.809428   354 net.cpp:84] Creating Layer fc7
I1130 21:12:37.809433   354 net.cpp:406] fc7 <- fc6
I1130 21:12:37.809439   354 net.cpp:380] fc7 -> fc7
I1130 21:12:37.964432   354 net.cpp:122] Setting up fc7
I1130 21:12:37.964459   354 net.cpp:129] Top shape: 32 4096 (131072)
I1130 21:12:37.964464   354 net.cpp:137] Memory required for data: 218476288
I1130 21:12:37.964473   354 layer_factory.hpp:77] Creating layer relu7
I1130 21:12:37.964483   354 net.cpp:84] Creating Layer relu7
I1130 21:12:37.964489   354 net.cpp:406] relu7 <- fc7
I1130 21:12:37.964498   354 net.cpp:367] relu7 -> fc7 (in-place)
I1130 21:12:37.964507   354 net.cpp:122] Setting up relu7
I1130 21:12:37.964512   354 net.cpp:129] Top shape: 32 4096 (131072)
I1130 21:12:37.964516   354 net.cpp:137] Memory required for data: 219000576
I1130 21:12:37.964521   354 layer_factory.hpp:77] Creating layer drop7
I1130 21:12:37.964529   354 net.cpp:84] Creating Layer drop7
I1130 21:12:37.964534   354 net.cpp:406] drop7 <- fc7
I1130 21:12:37.964538   354 net.cpp:367] drop7 -> fc7 (in-place)
I1130 21:12:37.964563   354 net.cpp:122] Setting up drop7
I1130 21:12:37.964570   354 net.cpp:129] Top shape: 32 4096 (131072)
I1130 21:12:37.964574   354 net.cpp:137] Memory required for data: 219524864
I1130 21:12:37.964578   354 layer_factory.hpp:77] Creating layer fc_scv_polluted
I1130 21:12:37.964586   354 net.cpp:84] Creating Layer fc_scv_polluted
I1130 21:12:37.964591   354 net.cpp:406] fc_scv_polluted <- fc7
I1130 21:12:37.964597   354 net.cpp:380] fc_scv_polluted -> fc_scv_polluted
I1130 21:12:37.964701   354 net.cpp:122] Setting up fc_scv_polluted
I1130 21:12:37.964710   354 net.cpp:129] Top shape: 32 1 (32)
I1130 21:12:37.964715   354 net.cpp:137] Memory required for data: 219524992
I1130 21:12:37.964720   354 layer_factory.hpp:77] Creating layer fc_scv_polluted_fc_scv_polluted_0_split
I1130 21:12:37.964727   354 net.cpp:84] Creating Layer fc_scv_polluted_fc_scv_polluted_0_split
I1130 21:12:37.964738   354 net.cpp:406] fc_scv_polluted_fc_scv_polluted_0_split <- fc_scv_polluted
I1130 21:12:37.964745   354 net.cpp:380] fc_scv_polluted_fc_scv_polluted_0_split -> fc_scv_polluted_fc_scv_polluted_0_split_0
I1130 21:12:37.964751   354 net.cpp:380] fc_scv_polluted_fc_scv_polluted_0_split -> fc_scv_polluted_fc_scv_polluted_0_split_1
I1130 21:12:37.964781   354 net.cpp:122] Setting up fc_scv_polluted_fc_scv_polluted_0_split
I1130 21:12:37.964788   354 net.cpp:129] Top shape: 32 1 (32)
I1130 21:12:37.964793   354 net.cpp:129] Top shape: 32 1 (32)
I1130 21:12:37.964797   354 net.cpp:137] Memory required for data: 219525248
I1130 21:12:37.964802   354 layer_factory.hpp:77] Creating layer loss
I1130 21:12:37.964808   354 net.cpp:84] Creating Layer loss
I1130 21:12:37.964813   354 net.cpp:406] loss <- fc_scv_polluted_fc_scv_polluted_0_split_0
I1130 21:12:37.964818   354 net.cpp:406] loss <- label_data_1_split_0
I1130 21:12:37.964823   354 net.cpp:380] loss -> loss
…
