…
I1130 12:35:52.637801  7256 net.cpp:51] Initializing net from parameters: 
name: "GoogleNet-Places365-SCV-Preserved"
state {
  phase: TRAIN
  level: 0
  stage: ""
}
layer {
  name: "data"
  type: "Data"
  top: "data"
  top: "label"
  include {
    phase: TRAIN
  }
  transform_param {
    mirror: true
    crop_size: 224
    mean_file: "/idiap/temp/lmedina/fine-tuning/googlenet_places365/places365CNN_mean.binaryproto"
  }
  data_param {
    source: "/idiap/temp/lmedina/fine-tuning/data/Preserved/train_lmdb"
    batch_size: 32
    backend: LMDB
  }
}
layer {
  name: "conv1/7x7_s2"
  type: "Convolution"
  bottom: "data"
  top: "conv1/7x7_s2"
  param {
    lr_mult: 1
    decay_mult: 1
  }
  param {
    lr_mult: 2
    decay_mult: 0
  }
  convolution_param {
    num_output: 64
    pad: 3
    kernel_size: 7
    stride: 2
    weight_filler {
      type: "xavier"
      std: 0.1
    }
    bias_filler {
      type: "constant"
      value: 0.2
    }
  }
}
layer {
  name: "conv1/relu_7x7"
  type: "ReLU"
  bottom: "conv1/7x7_s2"
  top: "conv1/7x7_s2"
}
layer {
  name: "pool1/3x3_s2"
  type: "Pooling"
  bottom: "conv1/7x7_s2"
  top: "pool1/3x3_s2"
  pooling_param {
    pool: MAX
    kernel_size: 3
    stride: 2
  }
}
layer {
  name: "pool1/norm1"
  type: "LRN"
  bottom: "pool1/3x3_s2"
  top: "pool1/norm1"
  lrn_param {
    local_size: 5
    alpha: 0.0001
    beta: 0.75
  }
}
layer {
  name: "conv2/3x3_reduce"
  type: "Convolution"
  bottom: "pool1/norm1"
  top: "conv2/3x3_reduce"
  param {
    lr_mult: 1
    decay_mult: 1
  }
  param {
    lr_mult: 2
    decay_mult: 0
  }
  convolution_param {
    num_output: 64
    kernel_size: 1
    weight_filler {
      type: "xavier"
      std: 0.1
    }
    bias_filler {
      type: "constant"
      value: 0.2
    }
  }
}
layer {
  name: "conv2/relu_3x3_reduce"
  type: "ReLU"
  bottom: "conv2/3x3_reduce"
  top: "conv2/3x3_reduce"
}
layer {
  name: "conv2/3x3"
  type: "Convolution"
  bottom: "conv2/3x3_reduce"
  top: "conv2/3x3"
  param {
    lr_mult: 1
    decay_mult: 1
  }
  param {
    lr_mult: 2
    decay_mult: 0
  }
  convolution_param {
    num_output: 192
    pad: 1
    kernel_size: 3
    weight_filler {
      type: "xavier"
      std: 0.03
    }
    bias_filler {
      type: "constant"
      value: 0.2
    }
  }
}
layer {
  name: "conv2/relu_3x3"
  type: "ReLU"
  bottom: "conv2/3x3"
  top: "conv2/3x3"
}
layer {
  name: "conv2/norm2"
  type: "LRN"
  bottom: "conv2/3x3"
  top: "conv2/norm2"
  lrn_param {
    local_size: 5
    alpha: 0.0001
    beta: 0.75
  }
}
layer {
  name: "pool2/3x3_s2"
  type: "Pooling"
  bottom: "conv2/norm2"
  top: "pool2/3x3_s2"
  pooling_param {
    pool: MAX
    kernel_size: 3
    stride: 2
  }
}
layer {
  name: "inception_3a/1x1"
  type: "Convolution"
  bottom: "pool2/3x3_s2"
  top: "inception_3a/1x1"
  param {
    lr_mult: 1
    decay_mult: 1
  }
  param {
    lr_mult: 2
    decay_mult: 0
  }
  convolution_param {
    num_output: 64
    kernel_size: 1
    weight_filler {
      type: "xavier"
      std: 0.03
    }
    bias_filler {
      type: "constant"
      value: 0.2
    }
  }
}
layer {
  name: "inception_3a/relu_1x1"
  type: "ReLU"
  bottom: "inception_3a/1x1"
  top: "inception_3a/1x1"
}
layer {
  name: "inception_3a/3x3_reduce"
  type: "Convolution"
  bottom: "pool2/3x3_s2"
  top: "inception_3a/3x3_reduce"
  param {
    lr_mult: 1
    decay_mult: 1
  }
  param {
    lr_mult: 2
    decay_mult: 0
  }
  convolution_param {
    num_output: 96
    kernel_size: 1
    weight_filler {
      type: "xavier"
      std: 0.09
    }
    bias_filler {
      type: "constant"
      value: 0.2
    }
  }
}
layer {
  name: "inception_3a/relu_3x3_reduce"
  type: "ReLU"
  bottom: "inception_3a/3x3_reduce"
  top: "inception_3a/3x3_reduce"
}
layer {
  name: "inception_3a/3x3"
  type: "Convolution"
  bottom: "inception_3a/3x3_reduce"
  top: "inception_3a/3x3"
  param {
    lr_mult: 1
    decay_mult: 1
  }
  param {
    lr_mult: 2
    decay_mult: 0
  }
  convolution_param {
    num_output: 128
    pad: 1
    kernel_size: 3
    weight_filler {
      type: "xavier"
      std: 0.03
    }
    bias_filler {
      type: "constant"
      value: 0.2
    }
  }
}
layer {
  name: "inception_3a/relu_3x3"
  type: "ReLU"
  bottom: "inception_3a/3x3"
  top: "inception_3a/3x3"
}
layer {
  name: "inception_3a/5x5_reduce"
  type: "Convolution"
  bottom: "pool2/3x3_s2"
  top: "inception_3a/5x5_reduce"
  param {
    lr_mult: 1
    decay_mult: 1
  }
  param {
    lr_mult: 2
    decay_mult: 0
  }
  convolution_param {
    num_output: 16
    kernel_size: 1
    weight_filler {
      type: "xavier"
      std: 0.2
    }
    bias_filler {
      type: "constant"
      value: 0.2
    }
  }
}
layer {
  name: "inception_3a/relu_5x5_reduce"
  type: "ReLU"
  bottom: "inception_3a/5x5_reduce"
  top: "inception_3a/5x5_reduce"
}
layer {
  name: "inception_3a/5x5"
  type: "Convolution"
  bottom: "inception_3a/5x5_reduce"
  top: "inception_3a/5x5"
  param {
    lr_mult: 1
    decay_mult: 1
  }
  param {
    lr_mult: 2
    decay_mult: 0
  }
  convolution_param {
    num_output: 32
    pad: 2
    kernel_size: 5
    weight_filler {
      type: "xavier"
      std: 0.03
    }
    bias_filler {
      type: "constant"
      value: 0.2
    }
  }
}
layer {
  name: "inception_3a/relu_5x5"
  type: "ReLU"
  bottom: "inception_3a/5x5"
  top: "inception_3a/5x5"
}
layer {
  name: "inception_3a/pool"
  type: "Pooling"
  bottom: "pool2/3x3_s2"
  top: "inception_3a/pool"
  pooling_param {
    pool: MAX
    kernel_size: 3
    stride: 1
    pad: 1
  }
}
layer {
  name: "inception_3a/pool_proj"
  type: "Convolution"
  bottom: "inception_3a/pool"
  top: "inception_3a/pool_proj"
  param {
    lr_mult: 1
    decay_mult: 1
  }
  param {
    lr_mult: 2
    decay_mult: 0
  }
  convolution_param {
    num_output: 32
    kernel_size: 1
    weight_filler {
      type: "xavier"
      std: 0.1
    }
    bias_filler {
      type: "constant"
      value: 0.2
    }
  }
}
layer {
  name: "inception_3a/relu_pool_proj"
  type: "ReLU"
  bottom: "inception_3a/pool_proj"
  top: "inception_3a/pool_proj"
}
layer {
  name: "inception_3a/output"
  type: "Concat"
  bottom: "inception_3a/1x1"
  bottom: "inception_3a/3x3"
  bottom: "inception_3a/5x5"
  bottom: "inception_3a/pool_proj"
  top: "inception_3a/output"
}
layer {
  name: "inception_3b/1x1"
  type: "Convolution"
  bottom: "inception_3a/output"
  top: "inception_3b/1x1"
  param {
    lr_mult: 1
    decay_mult: 1
  }
  param {
    lr_mult: 2
    decay_mult: 0
  }
  convolution_param {
    num_output: 128
    kernel_size: 1
    weight_filler {
      type: "xavier"
      std: 0.03
    }
    bias_filler {
      type: "constant"
      value: 0.2
    }
  }
}
layer {
  name: "inception_3b/relu_1x1"
  type: "ReLU"
  bottom: "inception_3b/1x1"
  top: "inception_3b/1x1"
}
layer {
  name: "inception_3b/3x3_reduce"
  type: "Convolution"
  bottom: "inception_3a/output"
  top: "inception_3b/3x3_reduce"
  param {
    lr_mult: 1
    decay_mult: 1
  }
  param {
    lr_mult: 2
    decay_mult: 0
  }
  convolution_param {
    num_output: 128
    kernel_size: 1
    weight_filler {
      type: "xavier"
      std: 0.09
    }
    bias_filler {
      type: "constant"
      value: 0.2
    }
  }
}
layer {
  name: "inception_3b/relu_3x3_reduce"
  type: "ReLU"
  bottom: "inception_3b/3x3_reduce"
  top: "inception_3b/3x3_reduce"
}
layer {
  name: "inception_3b/3x3"
  type: "Convolution"
  bottom: "inception_3b/3x3_reduce"
  top: "inception_3b/3x3"
  param {
    lr_mult: 1
    decay_mult: 1
  }
  param {
    lr_mult: 2
    decay_mult: 0
  }
  convolution_param {
    num_output: 192
    pad: 1
    kernel_size: 3
    weight_filler {
      type: "xavier"
      std: 0.03
    }
    bias_filler {
      type: "constant"
      value: 0.2
    }
  }
}
layer {
  name: "inception_3b/relu_3x3"
  type: "ReLU"
  bottom: "inception_3b/3x3"
  top: "inception_3b/3x3"
}
layer {
  name: "inception_3b/5x5_reduce"
  type: "Convolution"
  bottom: "inception_3a/output"
  top: "inception_3b/5x5_reduce"
  param {
    lr_mult: 1
    decay_mult: 1
  }
  param {
    lr_mult: 2
    decay_mult: 0
  }
  convolution_param {
    num_output: 32
    kernel_size: 1
    weight_filler {
      type: "xavier"
      std: 0.2
    }
    bias_filler {
      type: "constant"
      value: 0.2
    }
  }
}
layer {
  name: "inception_3b/relu_5x5_reduce"
  type: "ReLU"
  bottom: "inception_3b/5x5_reduce"
  top: "inception_3b/5x5_reduce"
}
layer {
  name: "inception_3b/5x5"
  type: "Convolution"
  bottom: "inception_3b/5x5_reduce"
  top: "inception_3b/5x5"
  param {
    lr_mult: 1
    decay_mult: 1
  }
  param {
    lr_mult: 2
    decay_mult: 0
  }
  convolution_param {
    num_output: 96
    pad: 2
    kernel_size: 5
    weight_filler {
      type: "xavier"
      std: 0.03
    }
    bias_filler {
      type: "constant"
      value: 0.2
    }
  }
}
layer {
  name: "inception_3b/relu_5x5"
  type: "ReLU"
  bottom: "inception_3b/5x5"
  top: "inception_3b/5x5"
}
layer {
  name: "inception_3b/pool"
  type: "Pooling"
  bottom: "inception_3a/output"
  top: "inception_3b/pool"
  pooling_param {
    pool: MAX
    kernel_size: 3
    stride: 1
    pad: 1
  }
}
layer {
  name: "inception_3b/pool_proj"
  type: "Convolution"
  bottom: "inception_3b/pool"
  top: "inception_3b/pool_proj"
  param {
    lr_mult: 1
    decay_mult: 1
  }
  param {
    lr_mult: 2
    decay_mult: 0
  }
  convolution_param {
    num_output: 64
    kernel_size: 1
    weight_filler {
      type: "xavier"
      std: 0.1
    }
    bias_filler {
      type: "constant"
      value: 0.2
    }
  }
}
layer {
  name: "inception_3b/relu_pool_proj"
  type: "ReLU"
  bottom: "inception_3b/pool_proj"
  top: "inception_3b/pool_proj"
}
layer {
  name: "inception_3b/output"
  type: "Concat"
  bottom: "inception_3b/1x1"
  bottom: "inception_3b/3x3"
  bottom: "inception_3b/5x5"
  bottom: "inception_3b/pool_proj"
  top: "inception_3b/output"
}
layer {
  name: "pool3/3x3_s2"
  type: "Pooling"
  bottom: "inception_3b/output"
  top: "pool3/3x3_s2"
  pooling_param {
    pool: MAX
    kernel_size: 3
    stride: 2
  }
}
layer {
  name: "inception_4a/1x1"
  type: "Convolution"
  bottom: "pool3/3x3_s2"
  top: "inception_4a/1x1"
  param {
    lr_mult: 1
    decay_mult: 1
  }
  param {
    lr_mult: 2
    decay_mult: 0
  }
  convolution_param {
    num_output: 192
    kernel_size: 1
    weight_filler {
      type: "xavier"
      std: 0.03
    }
    bias_filler {
      type: "constant"
      value: 0.2
    }
  }
}
layer {
  name: "inception_4a/relu_1x1"
  type: "ReLU"
  bottom: "inception_4a/1x1"
  top: "inception_4a/1x1"
}
layer {
  name: "inception_4a/3x3_reduce"
  type: "Convolution"
  bottom: "pool3/3x3_s2"
  top: "inception_4a/3x3_reduce"
  param {
    lr_mult: 1
    decay_mult: 1
  }
  param {
    lr_mult: 2
    decay_mult: 0
  }
  convolution_param {
    num_output: 96
    kernel_size: 1
    weight_filler {
      type: "xavier"
      std: 0.09
    }
    bias_filler {
      type: "constant"
      value: 0.2
    }
  }
}
layer {
  name: "inception_4a/relu_3x3_reduce"
  type: "ReLU"
  bottom: "inception_4a/3x3_reduce"
  top: "inception_4a/3x3_reduce"
}
layer {
  name: "inception_4a/3x3"
  type: "Convolution"
  bottom: "inception_4a/3x3_reduce"
  top: "inception_4a/3x3"
  param {
    lr_mult: 1
    decay_mult: 1
  }
  param {
    lr_mult: 2
    decay_mult: 0
  }
  convolution_param {
    num_output: 208
    pad: 1
    kernel_size: 3
    weight_filler {
      type: "xavier"
      std: 0.03
    }
    bias_filler {
      type: "constant"
      value: 0.2
    }
  }
}
layer {
  name: "inception_4a/relu_3x3"
  type: "ReLU"
  bottom: "inception_4a/3x3"
  top: "inception_4a/3x3"
}
layer {
  name: "inception_4a/5x5_reduce"
  type: "Convolution"
  bottom: "pool3/3x3_s2"
  top: "inception_4a/5x5_reduce"
  param {
    lr_mult: 1
    decay_mult: 1
  }
  param {
    lr_mult: 2
    decay_mult: 0
  }
  convolution_param {
    num_output: 16
    kernel_size: 1
    weight_filler {
      type: "xavier"
      std: 0.2
    }
    bias_filler {
      type: "constant"
      value: 0.2
    }
  }
}
layer {
  name: "inception_4a/relu_5x5_reduce"
  type: "ReLU"
  bottom: "inception_4a/5x5_reduce"
  top: "inception_4a/5x5_reduce"
}
layer {
  name: "inception_4a/5x5"
  type: "Convolution"
  bottom: "inception_4a/5x5_reduce"
  top: "inception_4a/5x5"
  param {
    lr_mult: 1
    decay_mult: 1
  }
  param {
    lr_mult: 2
    decay_mult: 0
  }
  convolution_param {
    num_output: 48
    pad: 2
    kernel_size: 5
    weight_filler {
      type: "xavier"
      std: 0.03
    }
    bias_filler {
      type: "constant"
      value: 0.2
    }
  }
}
layer {
  name: "inception_4a/relu_5x5"
  type: "ReLU"
  bottom: "inception_4a/5x5"
  top: "inception_4a/5x5"
}
layer {
  name: "inception_4a/pool"
  type: "Pooling"
  bottom: "pool3/3x3_s2"
  top: "inception_4a/pool"
  pooling_param {
    pool: MAX
    kernel_size: 3
    stride: 1
    pad: 1
  }
}
layer {
  name: "inception_4a/pool_proj"
  type: "Convolution"
  bottom: "inception_4a/pool"
  top: "inception_4a/pool_proj"
  param {
    lr_mult: 1
    decay_mult: 1
  }
  param {
    lr_mult: 2
    decay_mult: 0
  }
  convolution_param {
    num_output: 64
    kernel_size: 1
    weight_filler {
      type: "xavier"
      std: 0.1
    }
    bias_filler {
      type: "constant"
      value: 0.2
    }
  }
}
layer {
  name: "inception_4a/relu_pool_proj"
  type: "ReLU"
  bottom: "inception_4a/pool_proj"
  top: "inception_4a/pool_proj"
}
layer {
  name: "inception_4a/output"
  type: "Concat"
  bottom: "inception_4a/1x1"
  bottom: "inception_4a/3x3"
  bottom: "inception_4a/5x5"
  bottom: "inception_4a/pool_proj"
  top: "inception_4a/output"
}
layer {
  name: "inception_4b/1x1"
  type: "Convolution"
  bottom: "inception_4a/output"
  top: "inception_4b/1x1"
  param {
    lr_mult: 1
    decay_mult: 1
  }
  param {
    lr_mult: 2
    decay_mult: 0
  }
  convolution_param {
    num_output: 160
    kernel_size: 1
    weight_filler {
      type: "xavier"
      std: 0.03
    }
    bias_filler {
      type: "constant"
      value: 0.2
    }
  }
}
layer {
  name: "inception_4b/relu_1x1"
  type: "ReLU"
  bottom: "inception_4b/1x1"
  top: "inception_4b/1x1"
}
layer {
  name: "inception_4b/3x3_reduce"
  type: "Convolution"
  bottom: "inception_4a/output"
  top: "inception_4b/3x3_reduce"
  param {
    lr_mult: 1
    decay_mult: 1
  }
  param {
    lr_mult: 2
    decay_mult: 0
  }
  convolution_param {
    num_output: 112
    kernel_size: 1
    weight_filler {
      type: "xavier"
      std: 0.09
    }
    bias_filler {
      type: "constant"
      value: 0.2
    }
  }
}
layer {
  name: "inception_4b/relu_3x3_reduce"
  type: "ReLU"
  bottom: "inception_4b/3x3_reduce"
  top: "inception_4b/3x3_reduce"
}
layer {
  name: "inception_4b/3x3"
  type: "Convolution"
  bottom: "inception_4b/3x3_reduce"
  top: "inception_4b/3x3"
  param {
    lr_mult: 1
    decay_mult: 1
  }
  param {
    lr_mult: 2
    decay_mult: 0
  }
  convolution_param {
    num_output: 224
    pad: 1
    kernel_size: 3
    weight_filler {
      type: "xavier"
      std: 0.03
    }
    bias_filler {
      type: "constant"
      value: 0.2
    }
  }
}
layer {
  name: "inception_4b/relu_3x3"
  type: "ReLU"
  bottom: "inception_4b/3x3"
  top: "inception_4b/3x3"
}
layer {
  name: "inception_4b/5x5_reduce"
  type: "Convolution"
  bottom: "inception_4a/output"
  top: "inception_4b/5x5_reduce"
  param {
    lr_mult: 1
    decay_mult: 1
  }
  param {
    lr_mult: 2
    decay_mult: 0
  }
  convolution_param {
    num_output: 24
    kernel_size: 1
    weight_filler {
      type: "xavier"
      std: 0.2
    }
    bias_filler {
      type: "constant"
      value: 0.2
    }
  }
}
layer {
  name: "inception_4b/relu_5x5_reduce"
  type: "ReLU"
  bottom: "inception_4b/5x5_reduce"
  top: "inception_4b/5x5_reduce"
}
layer {
  name: "inception_4b/5x5"
  type: "Convolution"
  bottom: "inception_4b/5x5_reduce"
  top: "inception_4b/5x5"
  param {
    lr_mult: 1
    decay_mult: 1
  }
  param {
    lr_mult: 2
    decay_mult: 0
  }
  convolution_param {
    num_output: 64
    pad: 2
    kernel_size: 5
    weight_filler {
      type: "xavier"
      std: 0.03
    }
    bias_filler {
      type: "constant"
      value: 0.2
    }
  }
}
layer {
  name: "inception_4b/relu_5x5"
  type: "ReLU"
  bottom: "inception_4b/5x5"
  top: "inception_4b/5x5"
}
layer {
  name: "inception_4b/pool"
  type: "Pooling"
  bottom: "inception_4a/output"
  top: "inception_4b/pool"
  pooling_param {
    pool: MAX
    kernel_size: 3
    stride: 1
    pad: 1
  }
}
layer {
  name: "inception_4b/pool_proj"
  type: "Convolution"
  bottom: "inception_4b/pool"
  top: "inception_4b/pool_proj"
  param {
    lr_mult: 1
    decay_mult: 1
  }
  param {
    lr_mult: 2
    decay_mult: 0
  }
  convolution_param {
    num_output: 64
    kernel_size: 1
    weight_filler {
      type: "xavier"
      std: 0.1
    }
    bias_filler {
      type: "constant"
      value: 0.2
    }
  }
}
layer {
  name: "inception_4b/relu_pool_proj"
  type: "ReLU"
  bottom: "inception_4b/pool_proj"
  top: "inception_4b/pool_proj"
}
layer {
  name: "inception_4b/output"
  type: "Concat"
  bottom: "inception_4b/1x1"
  bottom: "inception_4b/3x3"
  bottom: "inception_4b/5x5"
  bottom: "inception_4b/pool_proj"
  top: "inception_4b/output"
}
layer {
  name: "inception_4c/1x1"
  type: "Convolution"
  bottom: "inception_4b/output"
  top: "inception_4c/1x1"
  param {
    lr_mult: 1
    decay_mult: 1
  }
  param {
    lr_mult: 2
    decay_mult: 0
  }
  convolution_param {
    num_output: 128
    kernel_size: 1
    weight_filler {
      type: "xavier"
      std: 0.03
    }
    bias_filler {
      type: "constant"
      value: 0.2
    }
  }
}
layer {
  name: "inception_4c/relu_1x1"
  type: "ReLU"
  bottom: "inception_4c/1x1"
  top: "inception_4c/1x1"
}
layer {
  name: "inception_4c/3x3_reduce"
  type: "Convolution"
  bottom: "inception_4b/output"
  top: "inception_4c/3x3_reduce"
  param {
    lr_mult: 1
    decay_mult: 1
  }
  param {
    lr_mult: 2
    decay_mult: 0
  }
  convolution_param {
    num_output: 128
    kernel_size: 1
    weight_filler {
      type: "xavier"
      std: 0.09
    }
    bias_filler {
      type: "constant"
      value: 0.2
    }
  }
}
layer {
  name: "inception_4c/relu_3x3_reduce"
  type: "ReLU"
  bottom: "inception_4c/3x3_reduce"
  top: "inception_4c/3x3_reduce"
}
layer {
  name: "inception_4c/3x3"
  type: "Convolution"
  bottom: "inception_4c/3x3_reduce"
  top: "inception_4c/3x3"
  param {
    lr_mult: 1
    decay_mult: 1
  }
  param {
    lr_mult: 2
    decay_mult: 0
  }
  convolution_param {
    num_output: 256
    pad: 1
    kernel_size: 3
    weight_filler {
      type: "xavier"
      std: 0.03
    }
    bias_filler {
      type: "constant"
      value: 0.2
    }
  }
}
layer {
  name: "inception_4c/relu_3x3"
  type: "ReLU"
  bottom: "inception_4c/3x3"
  top: "inception_4c/3x3"
}
layer {
  name: "inception_4c/5x5_reduce"
  type: "Convolution"
  bottom: "inception_4b/output"
  top: "inception_4c/5x5_reduce"
  param {
    lr_mult: 1
    decay_mult: 1
  }
  param {
    lr_mult: 2
    decay_mult: 0
  }
  convolution_param {
    num_output: 24
    kernel_size: 1
    weight_filler {
      type: "xavier"
      std: 0.2
    }
    bias_filler {
      type: "constant"
      value: 0.2
    }
  }
}
layer {
  name: "inception_4c/relu_5x5_reduce"
  type: "ReLU"
  bottom: "inception_4c/5x5_reduce"
  top: "inception_4c/5x5_reduce"
}
layer {
  name: "inception_4c/5x5"
  type: "Convolution"
  bottom: "inception_4c/5x5_reduce"
  top: "inception_4c/5x5"
  param {
    lr_mult: 1
    decay_mult: 1
  }
  param {
    lr_mult: 2
    decay_mult: 0
  }
  convolution_param {
    num_output: 64
    pad: 2
    kernel_size: 5
    weight_filler {
      type: "xavier"
      std: 0.03
    }
    bias_filler {
      type: "constant"
      value: 0.2
    }
  }
}
layer {
  name: "inception_4c/relu_5x5"
  type: "ReLU"
  bottom: "inception_4c/5x5"
  top: "inception_4c/5x5"
}
layer {
  name: "inception_4c/pool"
  type: "Pooling"
  bottom: "inception_4b/output"
  top: "inception_4c/pool"
  pooling_param {
    pool: MAX
    kernel_size: 3
    stride: 1
    pad: 1
  }
}
layer {
  name: "inception_4c/pool_proj"
  type: "Convolution"
  bottom: "inception_4c/pool"
  top: "inception_4c/pool_proj"
  param {
    lr_mult: 1
    decay_mult: 1
  }
  param {
    lr_mult: 2
    decay_mult: 0
  }
  convolution_param {
    num_output: 64
    kernel_size: 1
    weight_filler {
      type: "xavier"
      std: 0.1
    }
    bias_filler {
      type: "constant"
      value: 0.2
    }
  }
}
layer {
  name: "inception_4c/relu_pool_proj"
  type: "ReLU"
  bottom: "inception_4c/pool_proj"
  top: "inception_4c/pool_proj"
}
layer {
  name: "inception_4c/output"
  type: "Concat"
  bottom: "inception_4c/1x1"
  bottom: "inception_4c/3x3"
  bottom: "inception_4c/5x5"
  bottom: "inception_4c/pool_proj"
  top: "inception_4c/output"
}
layer {
  name: "inception_4d/1x1"
  type: "Convolution"
  bottom: "inception_4c/output"
  top: "inception_4d/1x1"
  param {
    lr_mult: 1
    decay_mult: 1
  }
  param {
    lr_mult: 2
    decay_mult: 0
  }
  convolution_param {
    num_output: 112
    kernel_size: 1
    weight_filler {
      type: "xavier"
      std: 0.03
    }
    bias_filler {
      type: "constant"
      value: 0.2
    }
  }
}
layer {
  name: "inception_4d/relu_1x1"
  type: "ReLU"
  bottom: "inception_4d/1x1"
  top: "inception_4d/1x1"
}
layer {
  name: "inception_4d/3x3_reduce"
  type: "Convolution"
  bottom: "inception_4c/output"
  top: "inception_4d/3x3_reduce"
  param {
    lr_mult: 1
    decay_mult: 1
  }
  param {
    lr_mult: 2
    decay_mult: 0
  }
  convolution_param {
    num_output: 144
    kernel_size: 1
    weight_filler {
      type: "xavier"
      std: 0.09
    }
    bias_filler {
      type: "constant"
      value: 0.2
    }
  }
}
layer {
  name: "inception_4d/relu_3x3_reduce"
  type: "ReLU"
  bottom: "inception_4d/3x3_reduce"
  top: "inception_4d/3x3_reduce"
}
layer {
  name: "inception_4d/3x3"
  type: "Convolution"
  bottom: "inception_4d/3x3_reduce"
  top: "inception_4d/3x3"
  param {
    lr_mult: 1
    decay_mult: 1
  }
  param {
    lr_mult: 2
    decay_mult: 0
  }
  convolution_param {
    num_output: 288
    pad: 1
    kernel_size: 3
    weight_filler {
      type: "xavier"
      std: 0.03
    }
    bias_filler {
      type: "constant"
      value: 0.2
    }
  }
}
layer {
  name: "inception_4d/relu_3x3"
  type: "ReLU"
  bottom: "inception_4d/3x3"
  top: "inception_4d/3x3"
}
layer {
  name: "inception_4d/5x5_reduce"
  type: "Convolution"
  bottom: "inception_4c/output"
  top: "inception_4d/5x5_reduce"
  param {
    lr_mult: 1
    decay_mult: 1
  }
  param {
    lr_mult: 2
    decay_mult: 0
  }
  convolution_param {
    num_output: 32
    kernel_size: 1
    weight_filler {
      type: "xavier"
      std: 0.2
    }
    bias_filler {
      type: "constant"
      value: 0.2
    }
  }
}
layer {
  name: "inception_4d/relu_5x5_reduce"
  type: "ReLU"
  bottom: "inception_4d/5x5_reduce"
  top: "inception_4d/5x5_reduce"
}
layer {
  name: "inception_4d/5x5"
  type: "Convolution"
  bottom: "inception_4d/5x5_reduce"
  top: "inception_4d/5x5"
  param {
    lr_mult: 1
    decay_mult: 1
  }
  param {
    lr_mult: 2
    decay_mult: 0
  }
  convolution_param {
    num_output: 64
    pad: 2
    kernel_size: 5
    weight_filler {
      type: "xavier"
      std: 0.03
    }
    bias_filler {
      type: "constant"
      value: 0.2
    }
  }
}
layer {
  name: "inception_4d/relu_5x5"
  type: "ReLU"
  bottom: "inception_4d/5x5"
  top: "inception_4d/5x5"
}
layer {
  name: "inception_4d/pool"
  type: "Pooling"
  bottom: "inception_4c/output"
  top: "inception_4d/pool"
  pooling_param {
    pool: MAX
    kernel_size: 3
    stride: 1
    pad: 1
  }
}
layer {
  name: "inception_4d/pool_proj"
  type: "Convolution"
  bottom: "inception_4d/pool"
  top: "inception_4d/pool_proj"
  param {
    lr_mult: 1
    decay_mult: 1
  }
  param {
    lr_mult: 2
    decay_mult: 0
  }
  convolution_param {
    num_output: 64
    kernel_size: 1
    weight_filler {
      type: "xavier"
      std: 0.1
    }
    bias_filler {
      type: "constant"
      value: 0.2
    }
  }
}
layer {
  name: "inception_4d/relu_pool_proj"
  type: "ReLU"
  bottom: "inception_4d/pool_proj"
  top: "inception_4d/pool_proj"
}
layer {
  name: "inception_4d/output"
  type: "Concat"
  bottom: "inception_4d/1x1"
  bottom: "inception_4d/3x3"
  bottom: "inception_4d/5x5"
  bottom: "inception_4d/pool_proj"
  top: "inception_4d/output"
}
layer {
  name: "inception_4e/1x1"
  type: "Convolution"
  bottom: "inception_4d/output"
  top: "inception_4e/1x1"
  param {
    lr_mult: 1
    decay_mult: 1
  }
  param {
    lr_mult: 2
    decay_mult: 0
  }
  convolution_param {
    num_output: 256
    kernel_size: 1
    weight_filler {
      type: "xavier"
      std: 0.03
    }
    bias_filler {
      type: "constant"
      value: 0.2
    }
  }
}
layer {
  name: "inception_4e/relu_1x1"
  type: "ReLU"
  bottom: "inception_4e/1x1"
  top: "inception_4e/1x1"
}
layer {
  name: "inception_4e/3x3_reduce"
  type: "Convolution"
  bottom: "inception_4d/output"
  top: "inception_4e/3x3_reduce"
  param {
    lr_mult: 1
    decay_mult: 1
  }
  param {
    lr_mult: 2
    decay_mult: 0
  }
  convolution_param {
    num_output: 160
    kernel_size: 1
    weight_filler {
      type: "xavier"
      std: 0.09
    }
    bias_filler {
      type: "constant"
      value: 0.2
    }
  }
}
layer {
  name: "inception_4e/relu_3x3_reduce"
  type: "ReLU"
  bottom: "inception_4e/3x3_reduce"
  top: "inception_4e/3x3_reduce"
}
layer {
  name: "inception_4e/3x3"
  type: "Convolution"
  bottom: "inception_4e/3x3_reduce"
  top: "inception_4e/3x3"
  param {
    lr_mult: 1
    decay_mult: 1
  }
  param {
    lr_mult: 2
    decay_mult: 0
  }
  convolution_param {
    num_output: 320
    pad: 1
    kernel_size: 3
    weight_filler {
      type: "xavier"
      std: 0.03
    }
    bias_filler {
      type: "constant"
      value: 0.2
    }
  }
}
layer {
  name: "inception_4e/relu_3x3"
  type: "ReLU"
  bottom: "inception_4e/3x3"
  top: "inception_4e/3x3"
}
layer {
  name: "inception_4e/5x5_reduce"
  type: "Convolution"
  bottom: "inception_4d/output"
  top: "inception_4e/5x5_reduce"
  param {
    lr_mult: 1
    decay_mult: 1
  }
  param {
    lr_mult: 2
    decay_mult: 0
  }
  convolution_param {
    num_output: 32
    kernel_size: 1
    weight_filler {
      type: "xavier"
      std: 0.2
    }
    bias_filler {
      type: "constant"
      value: 0.2
    }
  }
}
layer {
  name: "inception_4e/relu_5x5_reduce"
  type: "ReLU"
  bottom: "inception_4e/5x5_reduce"
  top: "inception_4e/5x5_reduce"
}
layer {
  name: "inception_4e/5x5"
  type: "Convolution"
  bottom: "inception_4e/5x5_reduce"
  top: "inception_4e/5x5"
  param {
    lr_mult: 1
    decay_mult: 1
  }
  param {
    lr_mult: 2
    decay_mult: 0
  }
  convolution_param {
    num_output: 128
    pad: 2
    kernel_size: 5
    weight_filler {
      type: "xavier"
      std: 0.03
    }
    bias_filler {
      type: "constant"
      value: 0.2
    }
  }
}
layer {
  name: "inception_4e/relu_5x5"
  type: "ReLU"
  bottom: "inception_4e/5x5"
  top: "inception_4e/5x5"
}
layer {
  name: "inception_4e/pool"
  type: "Pooling"
  bottom: "inception_4d/output"
  top: "inception_4e/pool"
  pooling_param {
    pool: MAX
    kernel_size: 3
    stride: 1
    pad: 1
  }
}
layer {
  name: "inception_4e/pool_proj"
  type: "Convolution"
  bottom: "inception_4e/pool"
  top: "inception_4e/pool_proj"
  param {
    lr_mult: 1
    decay_mult: 1
  }
  param {
    lr_mult: 2
    decay_mult: 0
  }
  convolution_param {
    num_output: 128
    kernel_size: 1
    weight_filler {
      type: "xavier"
      std: 0.1
    }
    bias_filler {
      type: "constant"
      value: 0.2
    }
  }
}
layer {
  name: "inception_4e/relu_pool_proj"
  type: "ReLU"
  bottom: "inception_4e/pool_proj"
  top: "inception_4e/pool_proj"
}
layer {
  name: "inception_4e/output"
  type: "Concat"
  bottom: "inception_4e/1x1"
  bottom: "inception_4e/3x3"
  bottom: "inception_4e/5x5"
  bottom: "inception_4e/pool_proj"
  top: "inception_4e/output"
}
layer {
  name: "pool4/3x3_s2"
  type: "Pooling"
  bottom: "inception_4e/output"
  top: "pool4/3x3_s2"
  pooling_param {
    pool: MAX
    kernel_size: 3
    stride: 2
  }
}
layer {
  name: "inception_5a/1x1"
  type: "Convolution"
  bottom: "pool4/3x3_s2"
  top: "inception_5a/1x1"
  param {
    lr_mult: 1
    decay_mult: 1
  }
  param {
    lr_mult: 2
    decay_mult: 0
  }
  convolution_param {
    num_output: 256
    kernel_size: 1
    weight_filler {
      type: "xavier"
      std: 0.03
    }
    bias_filler {
      type: "constant"
      value: 0.2
    }
  }
}
layer {
  name: "inception_5a/relu_1x1"
  type: "ReLU"
  bottom: "inception_5a/1x1"
  top: "inception_5a/1x1"
}
layer {
  name: "inception_5a/3x3_reduce"
  type: "Convolution"
  bottom: "pool4/3x3_s2"
  top: "inception_5a/3x3_reduce"
  param {
    lr_mult: 1
    decay_mult: 1
  }
  param {
    lr_mult: 2
    decay_mult: 0
  }
  convolution_param {
    num_output: 160
    kernel_size: 1
    weight_filler {
      type: "xavier"
      std: 0.09
    }
    bias_filler {
      type: "constant"
      value: 0.2
    }
  }
}
layer {
  name: "inception_5a/relu_3x3_reduce"
  type: "ReLU"
  bottom: "inception_5a/3x3_reduce"
  top: "inception_5a/3x3_reduce"
}
layer {
  name: "inception_5a/3x3"
  type: "Convolution"
  bottom: "inception_5a/3x3_reduce"
  top: "inception_5a/3x3"
  param {
    lr_mult: 1
    decay_mult: 1
  }
  param {
    lr_mult: 2
    decay_mult: 0
  }
  convolution_param {
    num_output: 320
    pad: 1
    kernel_size: 3
    weight_filler {
      type: "xavier"
      std: 0.03
    }
    bias_filler {
      type: "constant"
      value: 0.2
    }
  }
}
layer {
  name: "inception_5a/relu_3x3"
  type: "ReLU"
  bottom: "inception_5a/3x3"
  top: "inception_5a/3x3"
}
layer {
  name: "inception_5a/5x5_reduce"
  type: "Convolution"
  bottom: "pool4/3x3_s2"
  top: "inception_5a/5x5_r
I1130 12:35:52.638329  7256 layer_factory.hpp:77] Creating layer data
I1130 12:35:52.672073  7256 db_lmdb.cpp:35] Opened lmdb /idiap/temp/lmedina/fine-tuning/data/Preserved/train_lmdb
I1130 12:35:52.684598  7256 net.cpp:84] Creating Layer data
I1130 12:35:52.684626  7256 net.cpp:380] data -> data
I1130 12:35:52.684648  7256 net.cpp:380] data -> label
I1130 12:35:52.684664  7256 data_transformer.cpp:25] Loading mean file from: /idiap/temp/lmedina/fine-tuning/googlenet_places365/places365CNN_mean.binaryproto
I1130 12:35:52.694710  7256 data_layer.cpp:45] output data size: 32,3,224,224
I1130 12:35:52.737866  7256 net.cpp:122] Setting up data
I1130 12:35:52.737907  7256 net.cpp:129] Top shape: 32 3 224 224 (4816896)
I1130 12:35:52.737916  7256 net.cpp:129] Top shape: 32 (32)
I1130 12:35:52.737922  7256 net.cpp:137] Memory required for data: 19267712
I1130 12:35:52.737934  7256 layer_factory.hpp:77] Creating layer conv1/7x7_s2
I1130 12:35:52.737962  7256 net.cpp:84] Creating Layer conv1/7x7_s2
I1130 12:35:52.737972  7256 net.cpp:406] conv1/7x7_s2 <- data
I1130 12:35:52.737990  7256 net.cpp:380] conv1/7x7_s2 -> conv1/7x7_s2
I1130 12:35:52.738900  7256 net.cpp:122] Setting up conv1/7x7_s2
I1130 12:35:52.738916  7256 net.cpp:129] Top shape: 32 64 112 112 (25690112)
I1130 12:35:52.738922  7256 net.cpp:137] Memory required for data: 122028160
I1130 12:35:52.738940  7256 layer_factory.hpp:77] Creating layer conv1/relu_7x7
I1130 12:35:52.738950  7256 net.cpp:84] Creating Layer conv1/relu_7x7
I1130 12:35:52.738960  7256 net.cpp:406] conv1/relu_7x7 <- conv1/7x7_s2
I1130 12:35:52.738967  7256 net.cpp:367] conv1/relu_7x7 -> conv1/7x7_s2 (in-place)
I1130 12:35:52.738979  7256 net.cpp:122] Setting up conv1/relu_7x7
I1130 12:35:52.738987  7256 net.cpp:129] Top shape: 32 64 112 112 (25690112)
I1130 12:35:52.738996  7256 net.cpp:137] Memory required for data: 224788608
I1130 12:35:52.739001  7256 layer_factory.hpp:77] Creating layer pool1/3x3_s2
I1130 12:35:52.739012  7256 net.cpp:84] Creating Layer pool1/3x3_s2
I1130 12:35:52.739019  7256 net.cpp:406] pool1/3x3_s2 <- conv1/7x7_s2
I1130 12:35:52.739028  7256 net.cpp:380] pool1/3x3_s2 -> pool1/3x3_s2
I1130 12:35:52.739133  7256 net.cpp:122] Setting up pool1/3x3_s2
I1130 12:35:52.739146  7256 net.cpp:129] Top shape: 32 64 56 56 (6422528)
I1130 12:35:52.739152  7256 net.cpp:137] Memory required for data: 250478720
I1130 12:35:52.739159  7256 layer_factory.hpp:77] Creating layer pool1/norm1
I1130 12:35:52.739171  7256 net.cpp:84] Creating Layer pool1/norm1
I1130 12:35:52.739178  7256 net.cpp:406] pool1/norm1 <- pool1/3x3_s2
I1130 12:35:52.739187  7256 net.cpp:380] pool1/norm1 -> pool1/norm1
I1130 12:35:52.739228  7256 net.cpp:122] Setting up pool1/norm1
I1130 12:35:52.739239  7256 net.cpp:129] Top shape: 32 64 56 56 (6422528)
I1130 12:35:52.739246  7256 net.cpp:137] Memory required for data: 276168832
I1130 12:35:52.739251  7256 layer_factory.hpp:77] Creating layer conv2/3x3_reduce
I1130 12:35:52.739264  7256 net.cpp:84] Creating Layer conv2/3x3_reduce
I1130 12:35:52.739271  7256 net.cpp:406] conv2/3x3_reduce <- pool1/norm1
I1130 12:35:52.739280  7256 net.cpp:380] conv2/3x3_reduce -> conv2/3x3_reduce
I1130 12:35:52.741843  7256 net.cpp:122] Setting up conv2/3x3_reduce
I1130 12:35:52.741865  7256 net.cpp:129] Top shape: 32 64 56 56 (6422528)
I1130 12:35:52.741873  7256 net.cpp:137] Memory required for data: 301858944
I1130 12:35:52.741886  7256 layer_factory.hpp:77] Creating layer conv2/relu_3x3_reduce
I1130 12:35:52.741897  7256 net.cpp:84] Creating Layer conv2/relu_3x3_reduce
I1130 12:35:52.741905  7256 net.cpp:406] conv2/relu_3x3_reduce <- conv2/3x3_reduce
I1130 12:35:52.741914  7256 net.cpp:367] conv2/relu_3x3_reduce -> conv2/3x3_reduce (in-place)
I1130 12:35:52.741925  7256 net.cpp:122] Setting up conv2/relu_3x3_reduce
I1130 12:35:52.741933  7256 net.cpp:129] Top shape: 32 64 56 56 (6422528)
I1130 12:35:52.741940  7256 net.cpp:137] Memory required for data: 327549056
I1130 12:35:52.741945  7256 layer_factory.hpp:77] Creating layer conv2/3x3
I1130 12:35:52.741958  7256 net.cpp:84] Creating Layer conv2/3x3
I1130 12:35:52.741966  7256 net.cpp:406] conv2/3x3 <- conv2/3x3_reduce
I1130 12:35:52.741973  7256 net.cpp:380] conv2/3x3 -> conv2/3x3
I1130 12:35:52.743588  7256 net.cpp:122] Setting up conv2/3x3
I1130 12:35:52.743604  7256 net.cpp:129] Top shape: 32 192 56 56 (19267584)
I1130 12:35:52.743611  7256 net.cpp:137] Memory required for data: 404619392
I1130 12:35:52.743624  7256 layer_factory.hpp:77] Creating layer conv2/relu_3x3
I1130 12:35:52.743635  7256 net.cpp:84] Creating Layer conv2/relu_3x3
I1130 12:35:52.743643  7256 net.cpp:406] conv2/relu_3x3 <- conv2/3x3
I1130 12:35:52.743649  7256 net.cpp:367] conv2/relu_3x3 -> conv2/3x3 (in-place)
I1130 12:35:52.743660  7256 net.cpp:122] Setting up conv2/relu_3x3
I1130 12:35:52.743669  7256 net.cpp:129] Top shape: 32 192 56 56 (19267584)
I1130 12:35:52.743674  7256 net.cpp:137] Memory required for data: 481689728
I1130 12:35:52.743681  7256 layer_factory.hpp:77] Creating layer conv2/norm2
I1130 12:35:52.743690  7256 net.cpp:84] Creating Layer conv2/norm2
I1130 12:35:52.743696  7256 net.cpp:406] conv2/norm2 <- conv2/3x3
I1130 12:35:52.743703  7256 net.cpp:380] conv2/norm2 -> conv2/norm2
I1130 12:35:52.743746  7256 net.cpp:122] Setting up conv2/norm2
I1130 12:35:52.743755  7256 net.cpp:129] Top shape: 32 192 56 56 (19267584)
I1130 12:35:52.743762  7256 net.cpp:137] Memory required for data: 558760064
I1130 12:35:52.743767  7256 layer_factory.hpp:77] Creating layer pool2/3x3_s2
I1130 12:35:52.743777  7256 net.cpp:84] Creating Layer pool2/3x3_s2
I1130 12:35:52.743783  7256 net.cpp:406] pool2/3x3_s2 <- conv2/norm2
I1130 12:35:52.743790  7256 net.cpp:380] pool2/3x3_s2 -> pool2/3x3_s2
I1130 12:35:52.743830  7256 net.cpp:122] Setting up pool2/3x3_s2
I1130 12:35:52.743845  7256 net.cpp:129] Top shape: 32 192 28 28 (4816896)
I1130 12:35:52.743850  7256 net.cpp:137] Memory required for data: 578027648
I1130 12:35:52.743857  7256 layer_factory.hpp:77] Creating layer pool2/3x3_s2_pool2/3x3_s2_0_split
I1130 12:35:52.743865  7256 net.cpp:84] Creating Layer pool2/3x3_s2_pool2/3x3_s2_0_split
I1130 12:35:52.743872  7256 net.cpp:406] pool2/3x3_s2_pool2/3x3_s2_0_split <- pool2/3x3_s2
I1130 12:35:52.743880  7256 net.cpp:380] pool2/3x3_s2_pool2/3x3_s2_0_split -> pool2/3x3_s2_pool2/3x3_s2_0_split_0
I1130 12:35:52.743891  7256 net.cpp:380] pool2/3x3_s2_pool2/3x3_s2_0_split -> pool2/3x3_s2_pool2/3x3_s2_0_split_1
I1130 12:35:52.743901  7256 net.cpp:380] pool2/3x3_s2_pool2/3x3_s2_0_split -> pool2/3x3_s2_pool2/3x3_s2_0_split_2
I1130 12:35:52.743909  7256 net.cpp:380] pool2/3x3_s2_pool2/3x3_s2_0_split -> pool2/3x3_s2_pool2/3x3_s2_0_split_3
I1130 12:35:52.743966  7256 net.cpp:122] Setting up pool2/3x3_s2_pool2/3x3_s2_0_split
I1130 12:35:52.743975  7256 net.cpp:129] Top shape: 32 192 28 28 (4816896)
I1130 12:35:52.743983  7256 net.cpp:129] Top shape: 32 192 28 28 (4816896)
I1130 12:35:52.743990  7256 net.cpp:129] Top shape: 32 192 28 28 (4816896)
I1130 12:35:52.743999  7256 net.cpp:129] Top shape: 32 192 28 28 (4816896)
I1130 12:35:52.744004  7256 net.cpp:137] Memory required for data: 655097984
I1130 12:35:52.744011  7256 layer_factory.hpp:77] Creating layer inception_3a/1x1
I1130 12:35:52.744024  7256 net.cpp:84] Creating Layer inception_3a/1x1
I1130 12:35:52.744030  7256 net.cpp:406] inception_3a/1x1 <- pool2/3x3_s2_pool2/3x3_s2_0_split_0
I1130 12:35:52.744040  7256 net.cpp:380] inception_3a/1x1 -> inception_3a/1x1
I1130 12:35:52.745004  7256 net.cpp:122] Setting up inception_3a/1x1
I1130 12:35:52.745020  7256 net.cpp:129] Top shape: 32 64 28 28 (1605632)
I1130 12:35:52.745026  7256 net.cpp:137] Memory required for data: 661520512
I1130 12:35:52.745038  7256 layer_factory.hpp:77] Creating layer inception_3a/relu_1x1
I1130 12:35:52.745048  7256 net.cpp:84] Creating Layer inception_3a/relu_1x1
I1130 12:35:52.745055  7256 net.cpp:406] inception_3a/relu_1x1 <- inception_3a/1x1
I1130 12:35:52.745064  7256 net.cpp:367] inception_3a/relu_1x1 -> inception_3a/1x1 (in-place)
I1130 12:35:52.745075  7256 net.cpp:122] Setting up inception_3a/relu_1x1
I1130 12:35:52.745084  7256 net.cpp:129] Top shape: 32 64 28 28 (1605632)
I1130 12:35:52.745090  7256 net.cpp:137] Memory required for data: 667943040
I1130 12:35:52.745095  7256 layer_factory.hpp:77] Creating layer inception_3a/3x3_reduce
I1130 12:35:52.745107  7256 net.cpp:84] Creating Layer inception_3a/3x3_reduce
I1130 12:35:52.745115  7256 net.cpp:406] inception_3a/3x3_reduce <- pool2/3x3_s2_pool2/3x3_s2_0_split_1
I1130 12:35:52.745123  7256 net.cpp:380] inception_3a/3x3_reduce -> inception_3a/3x3_reduce
I1130 12:35:52.745988  7256 net.cpp:122] Setting up inception_3a/3x3_reduce
I1130 12:35:52.746003  7256 net.cpp:129] Top shape: 32 96 28 28 (2408448)
I1130 12:35:52.746008  7256 net.cpp:137] Memory required for data: 677576832
I1130 12:35:52.746022  7256 layer_factory.hpp:77] Creating layer inception_3a/relu_3x3_reduce
I1130 12:35:52.746032  7256 net.cpp:84] Creating Layer inception_3a/relu_3x3_reduce
I1130 12:35:52.746039  7256 net.cpp:406] inception_3a/relu_3x3_reduce <- inception_3a/3x3_reduce
I1130 12:35:52.746048  7256 net.cpp:367] inception_3a/relu_3x3_reduce -> inception_3a/3x3_reduce (in-place)
I1130 12:35:52.746059  7256 net.cpp:122] Setting up inception_3a/relu_3x3_reduce
I1130 12:35:52.746068  7256 net.cpp:129] Top shape: 32 96 28 28 (2408448)
I1130 12:35:52.746073  7256 net.cpp:137] Memory required for data: 687210624
I1130 12:35:52.746078  7256 layer_factory.hpp:77] Creating layer inception_3a/3x3
I1130 12:35:52.746090  7256 net.cpp:84] Creating Layer inception_3a/3x3
I1130 12:35:52.746098  7256 net.cpp:406] inception_3a/3x3 <- inception_3a/3x3_reduce
I1130 12:35:52.746107  7256 net.cpp:380] inception_3a/3x3 -> inception_3a/3x3
I1130 12:35:52.747201  7256 net.cpp:122] Setting up inception_3a/3x3
I1130 12:35:52.747215  7256 net.cpp:129] Top shape: 32 128 28 28 (3211264)
I1130 12:35:52.747225  7256 net.cpp:137] Memory required for data: 700055680
I1130 12:35:52.747234  7256 layer_factory.hpp:77] Creating layer inception_3a/relu_3x3
I1130 12:35:52.747243  7256 net.cpp:84] Creating Layer inception_3a/relu_3x3
I1130 12:35:52.747251  7256 net.cpp:406] inception_3a/relu_3x3 <- inception_3a/3x3
I1130 12:35:52.747258  7256 net.cpp:367] inception_3a/relu_3x3 -> inception_3a/3x3 (in-place)
I1130 12:35:52.747267  7256 net.cpp:122] Setting up inception_3a/relu_3x3
I1130 12:35:52.747275  7256 net.cpp:129] Top shape: 32 128 28 28 (3211264)
I1130 12:35:52.747282  7256 net.cpp:137] Memory required for data: 712900736
I1130 12:35:52.747287  7256 layer_factory.hpp:77] Creating layer inception_3a/5x5_reduce
I1130 12:35:52.747298  7256 net.cpp:84] Creating Layer inception_3a/5x5_reduce
I1130 12:35:52.747305  7256 net.cpp:406] inception_3a/5x5_reduce <- pool2/3x3_s2_pool2/3x3_s2_0_split_2
I1130 12:35:52.747313  7256 net.cpp:380] inception_3a/5x5_reduce -> inception_3a/5x5_reduce
I1130 12:35:52.747570  7256 net.cpp:122] Setting up inception_3a/5x5_reduce
I1130 12:35:52.747581  7256 net.cpp:129] Top shape: 32 16 28 28 (401408)
I1130 12:35:52.747587  7256 net.cpp:137] Memory required for data: 714506368
I1130 12:35:52.747597  7256 layer_factory.hpp:77] Creating layer inception_3a/relu_5x5_reduce
I1130 12:35:52.747606  7256 net.cpp:84] Creating Layer inception_3a/relu_5x5_reduce
I1130 12:35:52.747613  7256 net.cpp:406] inception_3a/relu_5x5_reduce <- inception_3a/5x5_reduce
I1130 12:35:52.747622  7256 net.cpp:367] inception_3a/relu_5x5_reduce -> inception_3a/5x5_reduce (in-place)
I1130 12:35:52.747632  7256 net.cpp:122] Setting up inception_3a/relu_5x5_reduce
I1130 12:35:52.747639  7256 net.cpp:129] Top shape: 32 16 28 28 (401408)
I1130 12:35:52.747644  7256 net.cpp:137] Memory required for data: 716112000
I1130 12:35:52.747650  7256 layer_factory.hpp:77] Creating layer inception_3a/5x5
I1130 12:35:52.747661  7256 net.cpp:84] Creating Layer inception_3a/5x5
I1130 12:35:52.747668  7256 net.cpp:406] inception_3a/5x5 <- inception_3a/5x5_reduce
I1130 12:35:52.747676  7256 net.cpp:380] inception_3a/5x5 -> inception_3a/5x5
I1130 12:35:52.747995  7256 net.cpp:122] Setting up inception_3a/5x5
I1130 12:35:52.748008  7256 net.cpp:129] Top shape: 32 32 28 28 (802816)
I1130 12:35:52.748013  7256 net.cpp:137] Memory required for data: 719323264
I1130 12:35:52.748023  7256 layer_factory.hpp:77] Creating layer inception_3a/relu_5x5
I1130 12:35:52.748030  7256 net.cpp:84] Creating Layer inception_3a/relu_5x5
I1130 12:35:52.748037  7256 net.cpp:406] inception_3a/relu_5x5 <- inception_3a/5x5
I1130 12:35:52.748044  7256 net.cpp:367] inception_3a/relu_5x5 -> inception_3a/5x5 (in-place)
I1130 12:35:52.748054  7256 net.cpp:122] Setting up inception_3a/relu_5x5
I1130 12:35:52.748061  7256 net.cpp:129] Top shape: 32 32 28 28 (802816)
I1130 12:35:52.748067  7256 net.cpp:137] Memory required for data: 722534528
I1130 12:35:52.748073  7256 layer_factory.hpp:77] Creating layer inception_3a/pool
I1130 12:35:52.748082  7256 net.cpp:84] Creating Layer inception_3a/pool
I1130 12:35:52.748088  7256 net.cpp:406] inception_3a/pool <- pool2/3x3_s2_pool2/3x3_s2_0_split_3
I1130 12:35:52.748096  7256 net.cpp:380] inception_3a/pool -> inception_3a/pool
I1130 12:35:52.748137  7256 net.cpp:122] Setting up inception_3a/pool
I1130 12:35:52.748147  7256 net.cpp:129] Top shape: 32 192 28 28 (4816896)
I1130 12:35:52.748152  7256 net.cpp:137] Memory required for data: 741802112
I1130 12:35:52.748157  7256 layer_factory.hpp:77] Creating layer inception_3a/pool_proj
I1130 12:35:52.748168  7256 net.cpp:84] Creating Layer inception_3a/pool_proj
I1130 12:35:52.748175  7256 net.cpp:406] inception_3a/pool_proj <- inception_3a/pool
I1130 12:35:52.748183  7256 net.cpp:380] inception_3a/pool_proj -> inception_3a/pool_proj
I1130 12:35:52.748452  7256 net.cpp:122] Setting up inception_3a/pool_proj
I1130 12:35:52.748463  7256 net.cpp:129] Top shape: 32 32 28 28 (802816)
I1130 12:35:52.748469  7256 net.cpp:137] Memory required for data: 745013376
I1130 12:35:52.748486  7256 layer_factory.hpp:77] Creating layer inception_3a/relu_pool_proj
I1130 12:35:52.748494  7256 net.cpp:84] Creating Layer inception_3a/relu_pool_proj
I1130 12:35:52.748499  7256 net.cpp:406] inception_3a/relu_pool_proj <- inception_3a/pool_proj
I1130 12:35:52.748507  7256 net.cpp:367] inception_3a/relu_pool_proj -> inception_3a/pool_proj (in-place)
I1130 12:35:52.748517  7256 net.cpp:122] Setting up inception_3a/relu_pool_proj
I1130 12:35:52.748525  7256 net.cpp:129] Top shape: 32 32 28 28 (802816)
I1130 12:35:52.748531  7256 net.cpp:137] Memory required for data: 748224640
I1130 12:35:52.748538  7256 layer_factory.hpp:77] Creating layer inception_3a/output
I1130 12:35:52.748545  7256 net.cpp:84] Creating Layer inception_3a/output
I1130 12:35:52.748553  7256 net.cpp:406] inception_3a/output <- inception_3a/1x1
I1130 12:35:52.748558  7256 net.cpp:406] inception_3a/output <- inception_3a/3x3
I1130 12:35:52.748565  7256 net.cpp:406] inception_3a/output <- inception_3a/5x5
I1130 12:35:52.748572  7256 net.cpp:406] inception_3a/output <- inception_3a/pool_proj
I1130 12:35:52.748579  7256 net.cpp:380] inception_3a/output -> inception_3a/output
I1130 12:35:52.748610  7256 net.cpp:122] Setting up inception_3a/output
I1130 12:35:52.748618  7256 net.cpp:129] Top shape: 32 256 28 28 (6422528)
I1130 12:35:52.748623  7256 net.cpp:137] Memory required for data: 773914752
I1130 12:35:52.748631  7256 layer_factory.hpp:77] Creating layer inception_3a/output_inception_3a/output_0_split
I1130 12:35:52.748638  7256 net.cpp:84] Creating Layer inception_3a/output_inception_3a/output_0_split
I1130 12:35:52.748646  7256 net.cpp:406] inception_3a/output_inception_3a/output_0_split <- inception_3a/output
I1130 12:35:52.748652  7256 net.cpp:380] inception_3a/output_inception_3a/output_0_split -> inception_3a/output_inception_3a/output_0_split_0
I1130 12:35:52.748662  7256 net.cpp:380] inception_3a/output_inception_3a/output_0_split -> inception_3a/output_inception_3a/output_0_split_1
I1130 12:35:52.748672  7256 net.cpp:380] inception_3a/output_inception_3a/output_0_split -> inception_3a/output_inception_3a/output_0_split_2
I1130 12:35:52.748682  7256 net.cpp:380] inception_3a/output_inception_3a/output_0_split -> inception_3a/output_inception_3a/output_0_split_3
I1130 12:35:52.748739  7256 net.cpp:122] Setting up inception_3a/output_inception_3a/output_0_split
I1130 12:35:52.748747  7256 net.cpp:129] Top shape: 32 256 28 28 (6422528)
I1130 12:35:52.748754  7256 net.cpp:129] Top shape: 32 256 28 28 (6422528)
I1130 12:35:52.748761  7256 net.cpp:129] Top shape: 32 256 28 28 (6422528)
I1130 12:35:52.748769  7256 net.cpp:129] Top shape: 32 256 28 28 (6422528)
I1130 12:35:52.748775  7256 net.cpp:137] Memory required for data: 876675200
I1130 12:35:52.748780  7256 layer_factory.hpp:77] Creating layer inception_3b/1x1
I1130 12:35:52.748790  7256 net.cpp:84] Creating Layer inception_3b/1x1
I1130 12:35:52.748797  7256 net.cpp:406] inception_3b/1x1 <- inception_3a/output_inception_3a/output_0_split_0
I1130 12:35:52.748805  7256 net.cpp:380] inception_3b/1x1 -> inception_3b/1x1
I1130 12:35:52.749271  7256 net.cpp:122] Setting up inception_3b/1x1
I1130 12:35:52.749284  7256 net.cpp:129] Top shape: 32 128 28 28 (3211264)
I1130 12:35:52.749289  7256 net.cpp:137] Memory required for data: 889520256
I1130 12:35:52.749300  7256 layer_factory.hpp:77] Creating layer inception_3b/relu_1x1
I1130 12:35:52.749307  7256 net.cpp:84] Creating Layer inception_3b/relu_1x1
I1130 12:35:52.749315  7256 net.cpp:406] inception_3b/relu_1x1 <- inception_3b/1x1
I1130 12:35:52.749323  7256 net.cpp:367] inception_3b/relu_1x1 -> inception_3b/1x1 (in-place)
I1130 12:35:52.749332  7256 net.cpp:122] Setting up inception_3b/relu_1x1
I1130 12:35:52.749341  7256 net.cpp:129] Top shape: 32 128 28 28 (3211264)
I1130 12:35:52.749346  7256 net.cpp:137] Memory required for data: 902365312
I1130 12:35:52.749352  7256 layer_factory.hpp:77] Creating layer inception_3b/3x3_reduce
I1130 12:35:52.749363  7256 net.cpp:84] Creating Layer inception_3b/3x3_reduce
I1130 12:35:52.749369  7256 net.cpp:406] inception_3b/3x3_reduce <- inception_3a/output_inception_3a/output_0_split_1
I1130 12:35:52.749382  7256 net.cpp:380] inception_3b/3x3_reduce -> inception_3b/3x3_reduce
I1130 12:35:52.749842  7256 net.cpp:122] Setting up inception_3b/3x3_reduce
I1130 12:35:52.749855  7256 net.cpp:129] Top shape: 32 128 28 28 (3211264)
I1130 12:35:52.749861  7256 net.cpp:137] Memory required for data: 915210368
I1130 12:35:52.749869  7256 layer_factory.hpp:77] Creating layer inception_3b/relu_3x3_reduce
I1130 12:35:52.749878  7256 net.cpp:84] Creating Layer inception_3b/relu_3x3_reduce
I1130 12:35:52.749884  7256 net.cpp:406] inception_3b/relu_3x3_reduce <- inception_3b/3x3_reduce
I1130 12:35:52.749892  7256 net.cpp:367] inception_3b/relu_3x3_reduce -> inception_3b/3x3_reduce (in-place)
I1130 12:35:52.749902  7256 net.cpp:122] Setting up inception_3b/relu_3x3_reduce
I1130 12:35:52.749909  7256 net.cpp:129] Top shape: 32 128 28 28 (3211264)
I1130 12:35:52.749915  7256 net.cpp:137] Memory required for data: 928055424
I1130 12:35:52.749922  7256 layer_factory.hpp:77] Creating layer inception_3b/3x3
I1130 12:35:52.749933  7256 net.cpp:84] Creating Layer inception_3b/3x3
I1130 12:35:52.749939  7256 net.cpp:406] inception_3b/3x3 <- inception_3b/3x3_reduce
I1130 12:35:52.749948  7256 net.cpp:380] inception_3b/3x3 -> inception_3b/3x3
I1130 12:35:52.752312  7256 net.cpp:122] Setting up inception_3b/3x3
I1130 12:35:52.752327  7256 net.cpp:129] Top shape: 32 192 28 28 (4816896)
I1130 12:35:52.752334  7256 net.cpp:137] Memory required for data: 947323008
I1130 12:35:52.752344  7256 layer_factory.hpp:77] Creating layer inception_3b/relu_3x3
I1130 12:35:52.752357  7256 net.cpp:84] Creating Layer inception_3b/relu_3x3
I1130 12:35:52.752363  7256 net.cpp:406] inception_3b/relu_3x3 <- inception_3b/3x3
I1130 12:35:52.752372  7256 net.cpp:367] inception_3b/relu_3x3 -> inception_3b/3x3 (in-place)
I1130 12:35:52.752382  7256 net.cpp:122] Setting up inception_3b/relu_3x3
I1130 12:35:52.752389  7256 net.cpp:129] Top shape: 32 192 28 28 (4816896)
I1130 12:35:52.752394  7256 net.cpp:137] Memory required for data: 966590592
I1130 12:35:52.752399  7256 layer_factory.hpp:77] Creating layer inception_3b/5x5_reduce
I1130 12:35:52.752410  7256 net.cpp:84] Creating Layer inception_3b/5x5_reduce
I1130 12:35:52.752416  7256 net.cpp:406] inception_3b/5x5_reduce <- inception_3a/output_inception_3a/output_0_split_2
I1130 12:35:52.752424  7256 net.cpp:380] inception_3b/5x5_reduce -> inception_3b/5x5_reduce
I1130 12:35:52.752712  7256 net.cpp:122] Setting up inception_3b/5x5_reduce
I1130 12:35:52.752723  7256 net.cpp:129] Top shape: 32 32 28 28 (802816)
I1130 12:35:52.752729  7256 net.cpp:137] Memory required for data: 969801856
I1130 12:35:52.752739  7256 layer_factory.hpp:77] Creating layer inception_3b/relu_5x5_reduce
I1130 12:35:52.752748  7256 net.cpp:84] Creating Layer inception_3b/relu_5x5_reduce
I1130 12:35:52.752754  7256 net.cpp:406] inception_3b/relu_5x5_reduce <- inception_3b/5x5_reduce
I1130 12:35:52.752763  7256 net.cpp:367] inception_3b/relu_5x5_reduce -> inception_3b/5x5_reduce (in-place)
I1130 12:35:52.752771  7256 net.cpp:122] Setting up inception_3b/relu_5x5_reduce
I1130 12:35:52.752780  7256 net.cpp:129] Top shape: 32 32 28 28 (802816)
I1130 12:35:52.752786  7256 net.cpp:137] Memory required for data: 973013120
I1130 12:35:52.752792  7256 layer_factory.hpp:77] Creating layer inception_3b/5x5
I1130 12:35:52.752804  7256 net.cpp:84] Creating Layer inception_3b/5x5
I1130 12:35:52.752810  7256 net.cpp:406] inception_3b/5x5 <- inception_3b/5x5_reduce
I1130 12:35:52.752818  7256 net.cpp:380] inception_3b/5x5 -> inception_3b/5x5
I1130 12:35:52.754083  7256 net.cpp:122] Setting up inception_3b/5x5
I1130 12:35:52.754098  7256 net.cpp:129] Top shape: 32 96 28 28 (2408448)
I1130 12:35:52.754104  7256 net.cpp:137] Memory required for data: 982646912
I1130 12:35:52.754114  7256 layer_factory.hpp:77] Creating layer inception_3b/relu_5x5
I1130 12:35:52.754123  7256 net.cpp:84] Creating Layer inception_3b/relu_5x5
I1130 12:35:52.754130  7256 net.cpp:406] inception_3b/relu_5x5 <- inception_3b/5x5
I1130 12:35:52.754142  7256 net.cpp:367] inception_3b/relu_5x5 -> inception_3b/5x5 (in-place)
I1130 12:35:52.754153  7256 net.cpp:122] Setting up inception_3b/relu_5x5
I1130 12:35:52.754160  7256 net.cpp:129] Top shape: 32 96 28 28 (2408448)
I1130 12:35:52.754166  7256 net.cpp:137] Memory required for data: 992280704
I1130 12:35:52.754173  7256 layer_factory.hpp:77] Creating layer inception_3b/pool
I1130 12:35:52.754181  7256 net.cpp:84] Creating Layer inception_3b/pool
I1130 12:35:52.754187  7256 net.cpp:406] inception_3b/pool <- inception_3a/output_inception_3a/output_0_split_3
I1130 12:35:52.754195  7256 net.cpp:380] inception_3b/pool -> inception_3b/pool
I1130 12:35:52.754236  7256 net.cpp:122] Setting up inception_3b/pool
I1130 12:35:52.754246  7256 net.cpp:129] Top shape: 32 256 28 28 (6422528)
I1130 12:35:52.754252  7256 net.cpp:137] Memory required for data: 1017970816
I1130 12:35:52.754258  7256 layer_factory.hpp:77] Creating layer inception_3b/pool_proj
I1130 12:35:52.754269  7256 net.cpp:84] Creating Layer inception_3b/pool_proj
I1130 12:35:52.754276  7256 net.cpp:406] inception_3b/pool_proj <- inception_3b/pool
I1130 12:35:52.754297  7256 net.cpp:380] inception_3b/pool_proj -> inception_3b/pool_proj
I1130 12:35:52.754645  7256 net.cpp:122] Setting up inception_3b/pool_proj
I1130 12:35:52.754657  7256 net.cpp:129] Top shape: 32 64 28 28 (1605632)
I1130 12:35:52.754663  7256 net.cpp:137] Memory required for data: 1024393344
I1130 12:35:52.754673  7256 layer_factory.hpp:77] Creating layer inception_3b/relu_pool_proj
I1130 12:35:52.754681  7256 net.cpp:84] Creating Layer inception_3b/relu_pool_proj
I1130 12:35:52.754688  7256 net.cpp:406] inception_3b/relu_pool_proj <- inception_3b/pool_proj
I1130 12:35:52.754696  7256 net.cpp:367] inception_3b/relu_pool_proj -> inception_3b/pool_proj (in-place)
I1130 12:35:52.754706  7256 net.cpp:122] Setting up inception_3b/relu_pool_proj
I1130 12:35:52.754714  7256 net.cpp:129] Top shape: 32 64 28 28 (1605632)
I1130 12:35:52.754720  7256 net.cpp:137] Memory required for data: 1030815872
I1130 12:35:52.754726  7256 layer_factory.hpp:77] Creating layer inception_3b/output
I1130 12:35:52.754735  7256 net.cpp:84] Creating Layer inception_3b/output
I1130 12:35:52.754742  7256 net.cpp:406] inception_3b/output <- inception_3b/1x1
I1130 12:35:52.754748  7256 net.cpp:406] inception_3b/output <- inception_3b/3x3
I1130 12:35:52.754756  7256 net.cpp:406] inception_3b/output <- inception_3b/5x5
I1130 12:35:52.754762  7256 net.cpp:406] inception_3b/output <- inception_3b/pool_proj
I1130 12:35:52.754770  7256 net.cpp:380] inception_3b/output -> inception_3b/output
I1130 12:35:52.754801  7256 net.cpp:122] Setting up inception_3b/output
I1130 12:35:52.754811  7256 net.cpp:129] Top shape: 32 480 28 28 (12042240)
I1130 12:35:52.754817  7256 net.cpp:137] Memory required for data: 1078984832
I1130 12:35:52.754822  7256 layer_factory.hpp:77] Creating layer pool3/3x3_s2
I1130 12:35:52.754832  7256 net.cpp:84] Creating Layer pool3/3x3_s2
I1130 12:35:52.754838  7256 net.cpp:406] pool3/3x3_s2 <- inception_3b/output
I1130 12:35:52.754847  7256 net.cpp:380] pool3/3x3_s2 -> pool3/3x3_s2
I1130 12:35:52.754884  7256 net.cpp:122] Setting up pool3/3x3_s2
I1130 12:35:52.754894  7256 net.cpp:129] Top shape: 32 480 14 14 (3010560)
I1130 12:35:52.754900  7256 net.cpp:137] Memory required for data: 1091027072
I1130 12:35:52.754906  7256 layer_factory.hpp:77] Creating layer pool3/3x3_s2_pool3/3x3_s2_0_split
I1130 12:35:52.754914  7256 net.cpp:84] Creating Layer pool3/3x3_s2_pool3/3x3_s2_0_split
I1130 12:35:52.754921  7256 net.cpp:406] pool3/3x3_s2_pool3/3x3_s2_0_split <- pool3/3x3_s2
I1130 12:35:52.754930  7256 net.cpp:380] pool3/3x3_s2_pool3/3x3_s2_0_split -> pool3/3x3_s2_pool3/3x3_s2_0_split_0
I1130 12:35:52.754938  7256 net.cpp:380] pool3/3x3_s2_pool3/3x3_s2_0_split -> pool3/3x3_s2_pool3/3x3_s2_0_split_1
I1130 12:35:52.754948  7256 net.cpp:380] pool3/3x3_s2_pool3/3x3_s2_0_split -> pool3/3x3_s2_pool3/3x3_s2_0_split_2
I1130 12:35:52.754957  7256 net.cpp:380] pool3/3x3_s2_pool3/3x3_s2_0_split -> pool3/3x3_s2_pool3/3x3_s2_0_split_3
I1130 12:35:52.755017  7256 net.cpp:122] Setting up pool3/3x3_s2_pool3/3x3_s2_0_split
I1130 12:35:52.755026  7256 net.cpp:129] Top shape: 32 480 14 14 (3010560)
I1130 12:35:52.755033  7256 net.cpp:129] Top shape: 32 480 14 14 (3010560)
I1130 12:35:52.755040  7256 net.cpp:129] Top shape: 32 480 14 14 (3010560)
I1130 12:35:52.755048  7256 net.cpp:129] Top shape: 32 480 14 14 (3010560)
I1130 12:35:52.755053  7256 net.cpp:137] Memory required for data: 1139196032
I1130 12:35:52.755059  7256 layer_factory.hpp:77] Creating layer inception_4a/1x1
I1130 12:35:52.755069  7256 net.cpp:84] Creating Layer inception_4a/1x1
I1130 12:35:52.755076  7256 net.cpp:406] inception_4a/1x1 <- pool3/3x3_s2_pool3/3x3_s2_0_split_0
I1130 12:35:52.755085  7256 net.cpp:380] inception_4a/1x1 -> inception_4a/1x1
I1130 12:35:52.756000  7256 net.cpp:122] Setting up inception_4a/1x1
I1130 12:35:52.756011  7256 net.cpp:129] Top shape: 32 192 14 14 (1204224)
I1130 12:35:52.756017  7256 net.cpp:137] Memory required for data: 1144012928
I1130 12:35:52.756028  7256 layer_factory.hpp:77] Creating layer inception_4a/relu_1x1
I1130 12:35:52.756036  7256 net.cpp:84] Creating Layer inception_4a/relu_1x1
I1130 12:35:52.756043  7256 net.cpp:406] inception_4a/relu_1x1 <- inception_4a/1x1
I1130 12:35:52.756052  7256 net.cpp:367] inception_4a/relu_1x1 -> inception_4a/1x1 (in-place)
I1130 12:35:52.756060  7256 net.cpp:122] Setting up inception_4a/relu_1x1
I1130 12:35:52.756068  7256 net.cpp:129] Top shape: 32 192 14 14 (1204224)
I1130 12:35:52.756073  7256 net.cpp:137] Memory required for data: 1148829824
I1130 12:35:52.756078  7256 layer_factory.hpp:77] Creating layer inception_4a/3x3_reduce
I1130 12:35:52.756089  7256 net.cpp:84] Creating Layer inception_4a/3x3_reduce
I1130 12:35:52.756095  7256 net.cpp:406] inception_4a/3x3_reduce <- pool3/3x3_s2_pool3/3x3_s2_0_split_1
I1130 12:35:52.756103  7256 net.cpp:380] inception_4a/3x3_reduce -> inception_4a/3x3_reduce
I1130 12:35:52.756687  7256 net.cpp:122] Setting up inception_4a/3x3_reduce
I1130 12:35:52.756700  7256 net.cpp:129] Top shape: 32 96 14 14 (602112)
I1130 12:35:52.756705  7256 net.cpp:137] Memory required for data: 1151238272
I1130 12:35:52.756719  7256 layer_factory.hpp:77] Creating layer inception_4a/relu_3x3_reduce
I1130 12:35:52.756728  7256 net.cpp:84] Creating Layer inception_4a/relu_3x3_reduce
I1130 12:35:52.756736  7256 net.cpp:406] inception_4a/relu_3x3_reduce <- inception_4a/3x3_reduce
I1130 12:35:52.756744  7256 net.cpp:367] inception_4a/relu_3x3_reduce -> inception_4a/3x3_reduce (in-place)
I1130 12:35:52.756754  7256 net.cpp:122] Setting up inception_4a/relu_3x3_reduce
I1130 12:35:52.756762  7256 net.cpp:129] Top shape: 32 96 14 14 (602112)
I1130 12:35:52.756767  7256 net.cpp:137] Memory required for data: 1153646720
I1130 12:35:52.756773  7256 layer_factory.hpp:77] Creating layer inception_4a/3x3
I1130 12:35:52.756784  7256 net.cpp:84] Creating Layer inception_4a/3x3
I1130 12:35:52.756791  7256 net.cpp:406] inception_4a/3x3 <- inception_4a/3x3_reduce
I1130 12:35:52.756799  7256 net.cpp:380] inception_4a/3x3 -> inception_4a/3x3
I1130 12:35:52.758841  7256 net.cpp:122] Setting up inception_4a/3x3
I1130 12:35:52.758857  7256 net.cpp:129] Top shape: 32 208 14 14 (1304576)
I1130 12:35:52.758862  7256 net.cpp:137] Memory required for data: 1158865024
I1130 12:35:52.758872  7256 layer_factory.hpp:77] Creating layer inception_4a/relu_3x3
I1130 12:35:52.758880  7256 net.cpp:84] Creating Layer inception_4a/relu_3x3
I1130 12:35:52.758888  7256 net.cpp:406] inception_4a/relu_3x3 <- inception_4a/3x3
I1130 12:35:52.758895  7256 net.cpp:367] inception_4a/relu_3x3 -> inception_4a/3x3 (in-place)
I1130 12:35:52.758904  7256 net.cpp:122] Setting up inception_4a/relu_3x3
I1130 12:35:52.758913  7256 net.cpp:129] Top shape: 32 208 14 14 (1304576)
I1130 12:35:52.758918  7256 net.cpp:137] Memory required for data: 1164083328
I1130 12:35:52.758924  7256 layer_factory.hpp:77] Creating layer inception_4a/5x5_reduce
I1130 12:35:52.758932  7256 net.cpp:84] Creating Layer inception_4a/5x5_reduce
I1130 12:35:52.758942  7256 net.cpp:406] inception_4a/5x5_reduce <- pool3/3x3_s2_pool3/3x3_s2_0_split_2
I1130 12:35:52.758950  7256 net.cpp:380] inception_4a/5x5_reduce -> inception_4a/5x5_reduce
I1130 12:35:52.759230  7256 net.cpp:122] Setting up inception_4a/5x5_reduce
I1130 12:35:52.759241  7256 net.cpp:129] Top shape: 32 16 14 14 (100352)
I1130 12:35:52.759248  7256 net.cpp:137] Memory required for data: 1164484736
I1130 12:35:52.759256  7256 layer_factory.hpp:77] Creating layer inception_4a/relu_5x5_reduce
I1130 12:35:52.759265  7256 net.cpp:84] Creating Layer inception_4a/relu_5x5_reduce
I1130 12:35:52.759272  7256 net.cpp:406] inception_4a/relu_5x5_reduce <- inception_4a/5x5_reduce
I1130 12:35:52.759279  7256 net.cpp:367] inception_4a/relu_5x5_reduce -> inception_4a/5x5_reduce (in-place)
I1130 12:35:52.759289  7256 net.cpp:122] Setting up inception_4a/relu_5x5_reduce
I1130 12:35:52.759295  7256 net.cpp:129] Top shape: 32 16 14 14 (100352)
I1130 12:35:52.759301  7256 net.cpp:137] Memory required for data: 1164886144
I1130 12:35:52.759307  7256 layer_factory.hpp:77] Creating layer inception_4a/5x5
I1130 12:35:52.759317  7256 net.cpp:84] Creating Layer inception_4a/5x5
I1130 12:35:52.759323  7256 net.cpp:406] inception_4a/5x5 <- inception_4a/5x5_reduce
I1130 12:35:52.759331  7256 net.cpp:380] inception_4a/5x5 -> inception_4a/5x5
I1130 12:35:52.759694  7256 net.cpp:122] Setting up inception_4a/5x5
I1130 12:35:52.759706  7256 net.cpp:129] Top shape: 32 48 14 14 (301056)
I1130 12:35:52.759711  7256 net.cpp:137] Memory required for data: 1166090368
I1130 12:35:52.759721  7256 layer_factory.hpp:77] Creating layer inception_4a/relu_5x5
I1130 12:35:52.759729  7256 net.cpp:84] Creating Layer inception_4a/relu_5x5
I1130 12:35:52.759737  7256 net.cpp:406] inception_4a/relu_5x5 <- inception_4a/5x5
I1130 12:35:52.759744  7256 net.cpp:367] inception_4a/relu_5x5 -> inception_4a/5x5 (in-place)
I1130 12:35:52.759754  7256 net.cpp:122] Setting up inception_4a/relu_5x5
I1130 12:35:52.759762  7256 net.cpp:129] Top shape: 32 48 14 14 (301056)
I1130 12:35:52.759768  7256 net.cpp:137] Memory required for data: 1167294592
I1130 12:35:52.759773  7256 layer_factory.hpp:77] Creating layer inception_4a/pool
I1130 12:35:52.759781  7256 net.cpp:84] Creating Layer inception_4a/pool
I1130 12:35:52.759788  7256 net.cpp:406] inception_4a/pool <- pool3/3x3_s2_pool3/3x3_s2_0_split_3
I1130 12:35:52.759796  7256 net.cpp:380] inception_4a/pool -> inception_4a/pool
I1130 12:35:52.759836  7256 net.cpp:122] Setting up inception_4a/pool
I1130 12:35:52.759846  7256 net.cpp:129] Top shape: 32 480 14 14 (3010560)
I1130 12:35:52.759852  7256 net.cpp:137] Memory required for data: 1179336832
I1130 12:35:52.759858  7256 layer_factory.hpp:77] Creating layer inception_4a/pool_proj
I1130 12:35:52.759869  7256 net.cpp:84] Creating Layer inception_4a/pool_proj
I1130 12:35:52.759876  7256 net.cpp:406] inception_4a/pool_proj <- inception_4a/pool
I1130 12:35:52.759884  7256 net.cpp:380] inception_4a/pool_proj -> inception_4a/pool_proj
I1130 12:35:52.760331  7256 net.cpp:122] Setting up inception_4a/pool_proj
I1130 12:35:52.760342  7256 net.cpp:129] Top shape: 32 64 14 14 (401408)
I1130 12:35:52.760349  7256 net.cpp:137] Memory required for data: 1180942464
I1130 12:35:52.760357  7256 layer_factory.hpp:77] Creating layer inception_4a/relu_pool_proj
I1130 12:35:52.760366  7256 net.cpp:84] Creating Layer inception_4a/relu_pool_proj
I1130 12:35:52.760372  7256 net.cpp:406] inception_4a/relu_pool_proj <- inception_4a/pool_proj
I1130 12:35:52.760380  7256 net.cpp:367] inception_4a/relu_pool_proj -> inception_4a/pool_proj (in-place)
I1130 12:35:52.760390  7256 net.cpp:122] Setting up inception_4a/relu_pool_proj
I1130 12:35:52.760397  7256 net.cpp:129] Top shape: 32 64 14 14 (401408)
I1130 12:35:52.760403  7256 net.cpp:137] Memory required for data: 1182548096
I1130 12:35:52.760409  7256 layer_factory.hpp:77] Creating layer inception_4a/output
I1130 12:35:52.760416  7256 net.cpp:84] Creating Layer inception_4a/output
I1130 12:35:52.760422  7256 net.cpp:406] inception_4a/output <- inception_4a/1x1
I1130 12:35:52.760468  7256 net.cpp:406] inception_4a/output <- inception_4a/3x3
I1130 12:35:52.760478  7256 net.cpp:406] inception_4a/output <- inception_4a/5x5
I1130 12:35:52.760483  7256 net.cpp:406] inception_4a/output <- inception_4a/pool_proj
I1130 12:35:52.760491  7256 net.cpp:380] inception_4a/output -> inception_4a/output
I1130 12:35:52.760522  7256 net.cpp:122] Setting up inception_4a/output
I1130 12:35:52.760531  7256 net.cpp:129] Top shape: 32 512 14 14 (3211264)
I1130 12:35:52.760538  7256 net.cpp:137] Memory required for data: 1195393152
I1130 12:35:52.760543  7256 layer_factory.hpp:77] Creating layer inception_4a/output_inception_4a/output_0_split
I1130 12:35:52.760552  7256 net.cpp:84] Creating Layer inception_4a/output_inception_4a/output_0_split
I1130 12:35:52.760558  7256 net.cpp:406] inception_4a/output_inception_4a/output_0_split <- inception_4a/output
I1130 12:35:52.760566  7256 net.cpp:380] inception_4a/output_inception_4a/output_0_split -> inception_4a/output_inception_4a/output_0_split_0
I1130 12:35:52.760576  7256 net.cpp:380] inception_4a/output_inception_4a/output_0_split -> inception_4a/output_inception_4a/output_0_split_1
I1130 12:35:52.760586  7256 net.cpp:380] inception_4a/output_inception_4a/output_0_split -> inception_4a/output_inception_4a/output_0_split_2
I1130 12:35:52.760594  7256 net.cpp:380] inception_4a/output_inception_4a/output_0_split -> inception_4a/output_inception_4a/output_0_split_3
I1130 12:35:52.760651  7256 net.cpp:122] Setting up inception_4a/output_inception_4a/output_0_split
I1130 12:35:52.760660  7256 net.cpp:129] Top shape: 32 512 14 14 (3211264)
I1130 12:35:52.760668  7256 net.cpp:129] Top shape: 32 512 14 14 (3211264)
I1130 12:35:52.760674  7256 net.cpp:129] Top shape: 32 512 14 14 (3211264)
I1130 12:35:52.760681  7256 net.cpp:129] Top shape: 32 512 14 14 (3211264)
I1130 12:35:52.760687  7256 net.cpp:137] Memory required for data: 1246773376
I1130 12:35:52.760694  7256 layer_factory.hpp:77] Creating layer inception_4b/1x1
I1130 12:35:52.760704  7256 net.cpp:84] Creating Layer inception_4b/1x1
I1130 12:35:52.760710  7256 net.cpp:406] inception_4b/1x1 <- inception_4a/output_inception_4a/output_0_split_0
I1130 12:35:52.760718  7256 net.cpp:380] inception_4b/1x1 -> inception_4b/1x1
I1130 12:35:52.761524  7256 net.cpp:122] Setting up inception_4b/1x1
I1130 12:35:52.761536  7256 net.cpp:129] Top shape: 32 160 14 14 (1003520)
I1130 12:35:52.761543  7256 net.cpp:137] Memory required for data: 1250787456
I1130 12:35:52.761553  7256 layer_factory.hpp:77] Creating layer inception_4b/relu_1x1
I1130 12:35:52.761561  7256 net.cpp:84] Creating Layer inception_4b/relu_1x1
I1130 12:35:52.761567  7256 net.cpp:406] inception_4b/relu_1x1 <- inception_4b/1x1
I1130 12:35:52.761575  7256 net.cpp:367] inception_4b/relu_1x1 -> inception_4b/1x1 (in-place)
I1130 12:35:52.761584  7256 net.cpp:122] Setting up inception_4b/relu_1x1
I1130 12:35:52.761592  7256 net.cpp:129] Top shape: 32 160 14 14 (1003520)
I1130 12:35:52.761597  7256 net.cpp:137] Memory required for data: 1254801536
I1130 12:35:52.761602  7256 layer_factory.hpp:77] Creating layer inception_4b/3x3_reduce
I1130 12:35:52.761612  7256 net.cpp:84] Creating Layer inception_4b/3x3_reduce
I1130 12:35:52.761620  7256 net.cpp:406] inception_4b/3x3_reduce <- inception_4a/output_inception_4a/output_0_split_1
I1130 12:35:52.761626  7256 net.cpp:380] inception_4b/3x3_reduce -> inception_4b/3x3_reduce
I1130 12:35:52.762270  7256 net.cpp:122] Setting up inception_4b/3x3_reduce
I1130 12:35:52.762290  7256 net.cpp:129] Top shape: 32 112 14 14 (702464)
I1130 12:35:52.762296  7256 net.cpp:137] Memory required for data: 1257611392
I1130 12:35:52.762305  7256 layer_factory.hpp:77] Creating layer inception_4b/relu_3x3_reduce
I1130 12:35:52.762313  7256 net.cpp:84] Creating Layer inception_4b/relu_3x3_reduce
I1130 12:35:52.762320  7256 net.cpp:406] inception_4b/relu_3x3_reduce <- inception_4b/3x3_reduce
I1130 12:35:52.762327  7256 net.cpp:367] inception_4b/relu_3x3_reduce -> inception_4b/3x3_reduce (in-place)
I1130 12:35:52.762336  7256 net.cpp:122] Setting up inception_4b/relu_3x3_reduce
I1130 12:35:52.762343  7256 net.cpp:129] Top shape: 32 112 14 14 (702464)
I1130 12:35:52.762348  7256 net.cpp:137] Memory required for data: 1260421248
I1130 12:35:52.762354  7256 layer_factory.hpp:77] Creating layer inception_4b/3x3
I1130 12:35:52.762364  7256 net.cpp:84] Creating Layer inception_4b/3x3
I1130 12:35:52.762372  7256 net.cpp:406] inception_4b/3x3 <- inception_4b/3x3_reduce
I1130 12:35:52.762379  7256 net.cpp:380] inception_4b/3x3 -> inception_4b/3x3
I1130 12:35:52.764686  7256 net.cpp:122] Setting up inception_4b/3x3
I1130 12:35:52.764700  7256 net.cpp:129] Top shape: 32 224 14 14 (1404928)
I1130 12:35:52.764705  7256 net.cpp:137] Memory required for data: 1266040960
I1130 12:35:52.764715  7256 layer_factory.hpp:77] Creating layer inception_4b/relu_3x3
I1130 12:35:52.764724  7256 net.cpp:84] Creating Layer inception_4b/relu_3x3
I1130 12:35:52.764730  7256 net.cpp:406] inception_4b/relu_3x3 <- inception_4b/3x3
I1130 12:35:52.764739  7256 net.cpp:367] inception_4b/relu_3x3 -> inception_4b/3x3 (in-place)
I1130 12:35:52.764749  7256 net.cpp:122] Setting up inception_4b/relu_3x3
I1130 12:35:52.764756  7256 net.cpp:129] Top shape: 32 224 14 14 (1404928)
I1130 12:35:52.764761  7256 net.cpp:137] Memory required for data: 1271660672
I1130 12:35:52.764767  7256 layer_factory.hpp:77] Creating layer inception_4b/5x5_reduce
I1130 12:35:52.764781  7256 net.cpp:84] Creating Layer inception_4b/5x5_reduce
I1130 12:35:52.764788  7256 net.cpp:406] inception_4b/5x5_reduce <- inception_4a/output_inception_4a/output_0_split_2
I1130 12:35:52.764796  7256 net.cpp:380] inception_4b/5x5_reduce -> inception_4b/5x5_reduce
I1130 12:35:52.765111  7256 net.cpp:122] Setting up inception_4b/5x5_reduce
I1130 12:35:52.765122  7256 net.cpp:129] Top shape: 32 24 14 14 (150528)
I1130 12:35:52.765130  7256 net.cpp:137] Memory required for data: 1272262784
I1130 12:35:52.765138  7256 layer_factory.hpp:77] Creating layer inception_4b/relu_5x5_reduce
I1130 12:35:52.765146  7256 net.cpp:84] Creating Layer inception_4b/relu_5x5_reduce
I1130 12:35:52.765153  7256 net.cpp:406] inception_4b/relu_5x5_reduce <- inception_4b/5x5_reduce
I1130 12:35:52.765161  7256 net.cpp:367] inception_4b/relu_5x5_reduce -> inception_4b/5x5_reduce (in-place)
I1130 12:35:52.765170  7256 net.cpp:122] Setting up inception_4b/relu_5x5_reduce
I1130 12:35:52.765178  7256 net.cpp:129] Top shape: 32 24 14 14 (150528)
I1130 12:35:52.765183  7256 net.cpp:137] Memory required for data: 1272864896
I1130 12:35:52.765188  7256 layer_factory.hpp:77] Creating layer inception_4b/5x5
I1130 12:35:52.765198  7256 net.cpp:84] Creating Layer inception_4b/5x5
I1130 12:35:52.765204  7256 net.cpp:406] inception_4b/5x5 <- inception_4b/5x5_reduce
I1130 12:35:52.765213  7256 net.cpp:380] inception_4b/5x5 -> inception_4b/5x5
I1130 12:35:52.766149  7256 net.cpp:122] Setting up inception_4b/5x5
I1130 12:35:52.766162  7256 net.cpp:129] Top shape: 32 64 14 14 (401408)
I1130 12:35:52.766167  7256 net.cpp:137] Memory required for data: 1274470528
I1130 12:35:52.766177  7256 layer_factory.hpp:77] Creating layer inception_4b/relu_5x5
I1130 12:35:52.766186  7256 net.cpp:84] Creating Layer inception_4b/relu_5x5
I1130 12:35:52.766193  7256 net.cpp:406] inception_4b/relu_5x5 <- inception_4b/5x5
I1130 12:35:52.766201  7256 net.cpp:367] inception_4b/relu_5x5 -> inception_4b/5x5 (in-place)
I1130 12:35:52.766211  7256 net.cpp:122] Setting up inception_4b/relu_5x5
I1130 12:35:52.766218  7256 net.cpp:129] Top shape: 32 64 14 14 (401408)
I1130 12:35:52.766223  7256 net.cpp:137] Memory required for data: 1276076160
I1130 12:35:52.766229  7256 layer_factory.hpp:77] Creating layer inception_4b/pool
I1130 12:35:52.766238  7256 net.cpp:84] Creating Layer inception_4b/pool
I1130 12:35:52.766244  7256 net.cpp:406] inception_4b/pool <- inception_4a/output_inception_4a/output_0_split_3
I1130 12:35:52.766252  7256 net.cpp:380] inception_4b/pool -> inception_4b/pool
I1130 12:35:52.766301  7256 net.cpp:122] Setting up inception_4b/pool
I1130 12:35:52.766312  7256 net.cpp:129] Top shape: 32 512 14 14 (3211264)
I1130 12:35:52.766317  7256 net.cpp:137] Memory required for data: 1288921216
I1130 12:35:52.766324  7256 layer_factory.hpp:77] Creating layer inception_4b/pool_proj
I1130 12:35:52.766335  7256 net.cpp:84] Creating Layer inception_4b/pool_proj
I1130 12:35:52.766341  7256 net.cpp:406] inception_4b/pool_proj <- inception_4b/pool
I1130 12:35:52.766350  7256 net.cpp:380] inception_4b/pool_proj -> inception_4b/pool_proj
I1130 12:35:52.766804  7256 net.cpp:122] Setting up inception_4b/pool_proj
I1130 12:35:52.766816  7256 net.cpp:129] Top shape: 32 64 14 14 (401408)
I1130 12:35:52.766821  7256 net.cpp:137] Memory required for data: 1290526848
I1130 12:35:52.766830  7256 layer_factory.hpp:77] Creating layer inception_4b/relu_pool_proj
I1130 12:35:52.766839  7256 net.cpp:84] Creating Layer inception_4b/relu_pool_proj
I1130 12:35:52.766846  7256 net.cpp:406] inception_4b/relu_pool_proj <- inception_4b/pool_proj
I1130 12:35:52.766854  7256 net.cpp:367] inception_4b/relu_pool_proj -> inception_4b/pool_proj (in-place)
I1130 12:35:52.766862  7256 net.cpp:122] Setting up inception_4b/relu_pool_proj
I1130 12:35:52.766870  7256 net.cpp:129] Top shape: 32 64 14 14 (401408)
I1130 12:35:52.766876  7256 net.cpp:137] Memory required for data: 1292132480
I1130 12:35:52.766881  7256 layer_factory.hpp:77] Creating layer inception_4b/output
I1130 12:35:52.766891  7256 net.cpp:84] Creating Layer inception_4b/output
I1130 12:35:52.766896  7256 net.cpp:406] inception_4b/output <- inception_4b/1x1
I1130 12:35:52.766902  7256 net.cpp:406] inception_4b/output <- inception_4b/3x3
I1130 12:35:52.766909  7256 net.cpp:406] inception_4b/output <- inception_4b/5x5
I1130 12:35:52.766916  7256 net.cpp:406] inception_4b/output <- inception_4b/pool_proj
I1130 12:35:52.766924  7256 net.cpp:380] inception_4b/output -> inception_4b/output
I1130 12:35:52.766952  7256 net.cpp:122] Setting up inception_4b/output
I1130 12:35:52.766961  7256 net.cpp:129] Top shape: 32 512 14 14 (3211264)
I1130 12:35:52.766966  7256 net.cpp:137] Memory required for data: 1304977536
I1130 12:35:52.766973  7256 layer_factory.hpp:77] Creating layer inception_4b/output_inception_4b/output_0_split
I1130 12:35:52.766981  7256 net.cpp:84] Creating Layer inception_4b/output_inception_4b/output_0_split
I1130 12:35:52.766988  7256 net.cpp:406] inception_4b/output_inception_4b/output_0_split <- inception_4b/output
I1130 12:35:52.766995  7256 net.cpp:380] inception_4b/output_inception_4b/output_0_split -> inception_4b/output_inception_4b/output_0_split_0
I1130 12:35:52.767004  7256 net.cpp:380] inception_4b/output_inception_4b/output_0_split -> inception_4b/output_inception_4b/output_0_split_1
I1130 12:35:52.767014  7256 net.cpp:380] inception_4b/output_inception_4b/output_0_split -> inception_4b/output_inception_4b/output_0_split_2
I1130 12:35:52.767024  7256 net.cpp:380] inception_4b/output_inception_4b/output_0_split -> inception_4b/output_inception_4b/output_0_split_3
I1130 12:35:52.767081  7256 net.cpp:122] Setting up inception_4b/output_inception_4b/output_0_split
I1130 12:35:52.767091  7256 net.cpp:129] Top shape: 32 512 14 14 (3211264)
I1130 12:35:52.767097  7256 net.cpp:129] Top shape: 32 512 14 14 (3211264)
I1130 12:35:52.767104  7256 net.cpp:129] Top shape: 32 512 14 14 (3211264)
I1130 12:35:52.767112  7256 net.cpp:129] Top shape: 32 512 14 14 (3211264)
I1130 12:35:52.767117  7256 net.cpp:137] Memory required for data: 1356357760
I1130 12:35:52.767122  7256 layer_factory.hpp:77] Creating layer inception_4c/1x1
I1130 12:35:52.767133  7256 net.cpp:84] Creating Layer inception_4c/1x1
I1130 12:35:52.767140  7256 net.cpp:406] inception_4c/1x1 <- inception_4b/output_inception_4b/output_0_split_0
I1130 12:35:52.767148  7256 net.cpp:380] inception_4c/1x1 -> inception_4c/1x1
I1130 12:35:52.767837  7256 net.cpp:122] Setting up inception_4c/1x1
I1130 12:35:52.767848  7256 net.cpp:129] Top shape: 32 128 14 14 (802816)
I1130 12:35:52.767854  7256 net.cpp:137] Memory required for data: 1359569024
I1130 12:35:52.767863  7256 layer_factory.hpp:77] Creating layer inception_4c/relu_1x1
I1130 12:35:52.767871  7256 net.cpp:84] Creating Layer inception_4c/relu_1x1
I1130 12:35:52.767879  7256 net.cpp:406] inception_4c/relu_1x1 <- inception_4c/1x1
I1130 12:35:52.767885  7256 net.cpp:367] inception_4c/relu_1x1 -> inception_4c/1x1 (in-place)
I1130 12:35:52.767894  7256 net.cpp:122] Setting up inception_4c/relu_1x1
I1130 12:35:52.767901  7256 net.cpp:129] Top shape: 32 128 14 14 (802816)
I1130 12:35:52.767906  7256 net.cpp:137] Memory required for data: 1362780288
I1130 12:35:52.767913  7256 layer_factory.hpp:77] Creating layer inception_4c/3x3_reduce
I1130 12:35:52.767923  7256 net.cpp:84] Creating Layer inception_4c/3x3_reduce
I1130 12:35:52.767930  7256 net.cpp:406] inception_4c/3x3_reduce <- inception_4b/output_inception_4b/output_0_split_1
I1130 12:35:52.767937  7256 net.cpp:380] inception_4c/3x3_reduce -> inception_4c/3x3_reduce
I1130 12:35:52.768626  7256 net.cpp:122] Setting up inception_4c/3x3_reduce
I1130 12:35:52.768638  7256 net.cpp:129] Top shape: 32 128 14 14 (802816)
I1130 12:35:52.768645  7256 net.cpp:137] Memory required for data: 1365991552
I1130 12:35:52.768653  7256 layer_factory.hpp:77] Creating layer inception_4c/relu_3x3_reduce
I1130 12:35:52.768661  7256 net.cpp:84] Creating Layer inception_4c/relu_3x3_reduce
I1130 12:35:52.768668  7256 net.cpp:406] inception_4c/relu_3x3_reduce <- inception_4c/3x3_reduce
I1130 12:35:52.768676  7256 net.cpp:367] inception_4c/relu_3x3_reduce -> inception_4c/3x3_reduce (in-place)
I1130 12:35:52.768684  7256 net.cpp:122] Setting up inception_4c/relu_3x3_reduce
I1130 12:35:52.768692  7256 net.cpp:129] Top shape: 32 128 14 14 (802816)
I1130 12:35:52.768697  7256 net.cpp:137] Memory required for data: 1369202816
I1130 12:35:52.768703  7256 layer_factory.hpp:77] Creating layer inception_4c/3x3
I1130 12:35:52.768713  7256 net.cpp:84] Creating Layer inception_4c/3x3
I1130 12:35:52.768720  7256 net.cpp:406] inception_4c/3x3 <- inception_4c/3x3_reduce
I1130 12:35:52.768728  7256 net.cpp:380] inception_4c/3x3 -> inception_4c/3x3
I1130 12:35:52.771531  7256 net.cpp:122] Setting up inception_4c/3x3
I1130 12:35:52.771545  7256 net.cpp:129] Top shape: 32 256 14 14 (1605632)
I1130 12:35:52.771553  7256 net.cpp:137] Memory required for data: 1375625344
I1130 12:35:52.771560  7256 layer_factory.hpp:77] Creating layer inception_4c/relu_3x3
I1130 12:35:52.771569  7256 net.cpp:84] Creating Layer inception_4c/relu_3x3
I1130 12:35:52.771576  7256 net.cpp:406] inception_4c/relu_3x3 <- inception_4c/3x3
I1130 12:35:52.771584  7256 net.cpp:367] inception_4c/relu_3x3 -> inception_4c/3x3 (in-place)
I1130 12:35:52.771594  7256 net.cpp:122] Setting up inception_4c/relu_3x3
I1130 12:35:52.771600  7256 net.cpp:129] Top shape: 32 256 14 14 (1605632)
I1130 12:35:52.771606  7256 net.cpp:137] Memory required for data: 1382047872
I1130 12:35:52.771612  7256 layer_factory.hpp:77] Creating layer inception_4c/5x5_reduce
I1130 12:35:52.771622  7256 net.cpp:84] Creating Layer inception_4c/5x5_reduce
I1130 12:35:52.771631  7256 net.cpp:406] inception_4c/5x5_reduce <- inception_4b/output_inception_4b/output_0_split_2
I1130 12:35:52.771641  7256 net.cpp:380] inception_4c/5x5_reduce -> inception_4c/5x5_reduce
I1130 12:35:52.771950  7256 net.cpp:122] Setting up inception_4c/5x5_reduce
I1130 12:35:52.771960  7256 net.cpp:129] Top shape: 32 24 14 14 (150528)
I1130 12:35:52.771966  7256 net.cpp:137] Memory required for data: 1382649984
I1130 12:35:52.771975  7256 layer_factory.hpp:77] Creating layer inception_4c/relu_5x5_reduce
I1130 12:35:52.771983  7256 net.cpp:84] Creating Layer inception_4c/relu_5x5_reduce
I1130 12:35:52.771991  7256 net.cpp:406] inception_4c/relu_5x5_reduce <- inception_4c/5x5_reduce
I1130 12:35:52.771997  7256 net.cpp:367] inception_4c/relu_5x5_reduce -> inception_4c/5x5_reduce (in-place)
I1130 12:35:52.772007  7256 net.cpp:122] Setting up inception_4c/relu_5x5_reduce
I1130 12:35:52.772014  7256 net.cpp:129] Top shape: 32 24 14 14 (150528)
I1130 12:35:52.772020  7256 net.cpp:137] Memory required for data: 1383252096
I1130 12:35:52.772027  7256 layer_factory.hpp:77] Creating layer inception_4c/5x5
I1130 12:35:52.772035  7256 net.cpp:84] Creating Layer inception_4c/5x5
I1130 12:35:52.772043  7256 net.cpp:406] inception_4c/5x5 <- inception_4c/5x5_reduce
I1130 12:35:52.772050  7256 net.cpp:380] inception_4c/5x5 -> inception_4c/5x5
I1130 12:35:52.772536  7256 net.cpp:122] Setting up inception_4c/5x5
I1130 12:35:52.772547  7256 net.cpp:129] Top shape: 32 64 14 14 (401408)
I1130 12:35:52.772552  7256 net.cpp:137] Memory required for data: 1384857728
I1130 12:35:52.772562  7256 layer_factory.hpp:77] Creating layer inception_4c/relu_5x5
I1130 12:35:52.772569  7256 net.cpp:84] Creating Layer inception_4c/relu_5x5
I1130 12:35:52.772577  7256 net.cpp:406] inception_4c/relu_5x5 <- inception_4c/5x5
I1130 12:35:52.772583  7256 net.cpp:367] inception_4c/relu_5x5 -> inception_4c/5x5 (in-place)
I1130 12:35:52.772593  7256 net.cpp:122] Setting up inception_4c/relu_5x5
I1130 12:35:52.772599  7256 net.cpp:129] Top shape: 32 64 14 14 (401408)
I1130 12:35:52.772604  7256 net.cpp:137] Memory required for data: 1386463360
I1130 12:35:52.772610  7256 layer_factory.hpp:77] Creating layer inception_4c/pool
I1130 12:35:52.772619  7256 net.cpp:84] Creating Layer inception_4c/pool
I1130 12:35:52.772625  7256 net.cpp:406] inception_4c/pool <- inception_4b/output_inception_4b/output_0_split_3
I1130 12:35:52.772632  7256 net.cpp:380] inception_4c/pool -> inception_4c/pool
I1130 12:35:52.772672  7256 net.cpp:122] Setting up inception_4c/pool
I1130 12:35:52.772682  7256 net.cpp:129] Top shape: 32 512 14 14 (3211264)
I1130 12:35:52.772687  7256 net.cpp:137] Memory required for data: 1399308416
I1130 12:35:52.772693  7256 layer_factory.hpp:77] Creating layer inception_4c/pool_proj
I1130 12:35:52.772703  7256 net.cpp:84] Creating Layer inception_4c/pool_proj
I1130 12:35:52.772711  7256 net.cpp:406] inception_4c/pool_proj <- inception_4c/pool
I1130 12:35:52.772718  7256 net.cpp:380] inception_4c/pool_proj -> inception_4c/pool_proj
I1130 12:35:52.773598  7256 net.cpp:122] Setting up inception_4c/pool_proj
I1130 12:35:52.773612  7256 net.cpp:129] Top shape: 32 64 14 14 (401408)
I1130 12:35:52.773617  7256 net.cpp:137] Memory required for data: 1400914048
I1130 12:35:52.773635  7256 layer_factory.hpp:77] Creating layer inception_4c/relu_pool_proj
I1130 12:35:52.773644  7256 net.cpp:84] Creating Layer inception_4c/relu_pool_proj
I1130 12:35:52.773650  7256 net.cpp:406] inception_4c/relu_pool_proj <- inception_4c/pool_proj
I1130 12:35:52.773658  7256 net.cpp:367] inception_4c/relu_pool_proj -> inception_4c/pool_proj (in-place)
I1130 12:35:52.773669  7256 net.cpp:122] Setting up inception_4c/relu_pool_proj
I1130 12:35:52.773675  7256 net.cpp:129] Top shape: 32 64 14 14 (401408)
I1130 12:35:52.773680  7256 net.cpp:137] Memory required for data: 1402519680
I1130 12:35:52.773686  7256 layer_factory.hpp:77] Creating layer inception_4c/output
I1130 12:35:52.773694  7256 net.cpp:84] Creating Layer inception_4c/output
I1130 12:35:52.773699  7256 net.cpp:406] inception_4c/output <- inception_4c/1x1
I1130 12:35:52.773706  7256 net.cpp:406] inception_4c/output <- inception_4c/3x3
I1130 12:35:52.773712  7256 net.cpp:406] inception_4c/output <- inception_4c/5x5
I1130 12:35:52.773720  7256 net.cpp:406] inception_4c/output <- inception_4c/pool_proj
I1130 12:35:52.773726  7256 net.cpp:380] inception_4c/output -> inception_4c/output
I1130 12:35:52.773756  7256 net.cpp:122] Setting up inception_4c/output
I1130 12:35:52.773764  7256 net.cpp:129] Top shape: 32 512 14 14 (3211264)
I1130 12:35:52.773771  7256 net.cpp:137] Memory required for data: 1415364736
I1130 12:35:52.773775  7256 layer_factory.hpp:77] Creating layer inception_4c/output_inception_4c/output_0_split
I1130 12:35:52.773784  7256 net.cpp:84] Creating Layer inception_4c/output_inception_4c/output_0_split
I1130 12:35:52.773790  7256 net.cpp:406] inception_4c/output_inception_4c/output_0_split <- inception_4c/output
I1130 12:35:52.773797  7256 net.cpp:380] inception_4c/output_inception_4c/output_0_split -> inception_4c/output_inception_4c/output_0_split_0
I1130 12:35:52.773808  7256 net.cpp:380] inception_4c/output_inception_4c/output_0_split -> inception_4c/output_inception_4c/output_0_split_1
I1130 12:35:52.773816  7256 net.cpp:380] inception_4c/output_inception_4c/output_0_split -> inception_4c/output_inception_4c/output_0_split_2
I1130 12:35:52.773826  7256 net.cpp:380] inception_4c/output_inception_4c/output_0_split -> inception_4c/output_inception_4c/output_0_split_3
I1130 12:35:52.773881  7256 net.cpp:122] Setting up inception_4c/output_inception_4c/output_0_split
I1130 12:35:52.773890  7256 net.cpp:129] Top shape: 32 512 14 14 (3211264)
I1130 12:35:52.773897  7256 net.cpp:129] Top shape: 32 512 14 14 (3211264)
I1130 12:35:52.773905  7256 net.cpp:129] Top shape: 32 512 14 14 (3211264)
I1130 12:35:52.773911  7256 net.cpp:129] Top shape: 32 512 14 14 (3211264)
I1130 12:35:52.773916  7256 net.cpp:137] Memory required for data: 1466744960
I1130 12:35:52.773922  7256 layer_factory.hpp:77] Creating layer inception_4d/1x1
I1130 12:35:52.773932  7256 net.cpp:84] Creating Layer inception_4d/1x1
I1130 12:35:52.773938  7256 net.cpp:406] inception_4d/1x1 <- inception_4c/output_inception_4c/output_0_split_0
I1130 12:35:52.773947  7256 net.cpp:380] inception_4d/1x1 -> inception_4d/1x1
I1130 12:35:52.774572  7256 net.cpp:122] Setting up inception_4d/1x1
I1130 12:35:52.774583  7256 net.cpp:129] Top shape: 32 112 14 14 (702464)
I1130 12:35:52.774590  7256 net.cpp:137] Memory required for data: 1469554816
I1130 12:35:52.774598  7256 layer_factory.hpp:77] Creating layer inception_4d/relu_1x1
I1130 12:35:52.774607  7256 net.cpp:84] Creating Layer inception_4d/relu_1x1
I1130 12:35:52.774613  7256 net.cpp:406] inception_4d/relu_1x1 <- inception_4d/1x1
I1130 12:35:52.774621  7256 net.cpp:367] inception_4d/relu_1x1 -> inception_4d/1x1 (in-place)
I1130 12:35:52.774631  7256 net.cpp:122] Setting up inception_4d/relu_1x1
I1130 12:35:52.774637  7256 net.cpp:129] Top shape: 32 112 14 14 (702464)
I1130 12:35:52.774642  7256 net.cpp:137] Memory required for data: 1472364672
I1130 12:35:52.774647  7256 layer_factory.hpp:77] Creating layer inception_4d/3x3_reduce
I1130 12:35:52.774657  7256 net.cpp:84] Creating Layer inception_4d/3x3_reduce
I1130 12:35:52.774663  7256 net.cpp:406] inception_4d/3x3_reduce <- inception_4c/output_inception_4c/output_0_split_1
I1130 12:35:52.774672  7256 net.cpp:380] inception_4d/3x3_reduce -> inception_4d/3x3_reduce
I1130 12:35:52.775420  7256 net.cpp:122] Setting up inception_4d/3x3_reduce
I1130 12:35:52.775431  7256 net.cpp:129] Top shape: 32 144 14 14 (903168)
I1130 12:35:52.775436  7256 net.cpp:137] Memory required for data: 1475977344
I1130 12:35:52.775445  7256 layer_factory.hpp:77] Creating layer inception_4d/relu_3x3_reduce
I1130 12:35:52.775454  7256 net.cpp:84] Creating Layer inception_4d/relu_3x3_reduce
I1130 12:35:52.775460  7256 net.cpp:406] inception_4d/relu_3x3_reduce <- inception_4d/3x3_reduce
I1130 12:35:52.775468  7256 net.cpp:367] inception_4d/relu_3x3_reduce -> inception_4d/3x3_reduce (in-place)
I1130 12:35:52.775476  7256 net.cpp:122] Setting up inception_4d/relu_3x3_reduce
I1130 12:35:52.775485  7256 net.cpp:129] Top shape: 32 144 14 14 (903168)
I1130 12:35:52.775490  7256 net.cpp:137] Memory required for data: 1479590016
I1130 12:35:52.775494  7256 layer_factory.hpp:77] Creating layer inception_4d/3x3
I1130 12:35:52.775506  7256 net.cpp:84] Creating Layer inception_4d/3x3
I1130 12:35:52.775511  7256 net.cpp:406] inception_4d/3x3 <- inception_4d/3x3_reduce
I1130 12:35:52.775519  7256 net.cpp:380] inception_4d/3x3 -> inception_4d/3x3
I1130 12:35:52.778897  7256 net.cpp:122] Setting up inception_4d/3x3
I1130 12:35:52.778910  7256 net.cpp:129] Top shape: 32 288 14 14 (1806336)
I1130 12:35:52.778918  7256 net.cpp:137] Memory required for data: 1486815360
I1130 12:35:52.778926  7256 layer_factory.hpp:77] Creating layer inception_4d/relu_3x3
I1130 12:35:52.778934  7256 net.cpp:84] Creating Layer inception_4d/relu_3x3
I1130 12:35:52.778941  7256 net.cpp:406] inception_4d/relu_3x3 <- inception_4d/3x3
I1130 12:35:52.778949  7256 net.cpp:367] inception_4d/relu_3x3 -> inception_4d/3x3 (in-place)
I1130 12:35:52.778957  7256 net.cpp:122] Setting up inception_4d/relu_3x3
I1130 12:35:52.778965  7256 net.cpp:129] Top shape: 32 288 14 14 (1806336)
I1130 12:35:52.778970  7256 net.cpp:137] Memory required for data: 1494040704
I1130 12:35:52.778975  7256 layer_factory.hpp:77] Creating layer inception_4d/5x5_reduce
I1130 12:35:52.778985  7256 net.cpp:84] Creating Layer inception_4d/5x5_reduce
I1130 12:35:52.778991  7256 net.cpp:406] inception_4d/5x5_reduce <- inception_4c/output_inception_4c/output_0_split_2
I1130 12:35:52.779000  7256 net.cpp:380] inception_4d/5x5_reduce -> inception_4d/5x5_reduce
I1130 12:35:52.779347  7256 net.cpp:122] Setting up inception_4d/5x5_reduce
I1130 12:35:52.779358  7256 net.cpp:129] Top shape: 32 32 14 14 (200704)
I1130 12:35:52.779364  7256 net.cpp:137] Memory required for data: 1494843520
I1130 12:35:52.779373  7256 layer_factory.hpp:77] Creating layer inception_4d/relu_5x5_reduce
I1130 12:35:52.779381  7256 net.cpp:84] Creating Layer inception_4d/relu_5x5_reduce
I1130 12:35:52.779388  7256 net.cpp:406] inception_4d/relu_5x5_reduce <- inception_4d/5x5_reduce
I1130 12:35:52.779395  7256 net.cpp:367] inception_4d/relu_5x5_reduce -> inception_4d/5x5_reduce (in-place)
I1130 12:35:52.779403  7256 net.cpp:122] Setting up inception_4d/relu_5x5_reduce
I1130 12:35:52.779412  7256 net.cpp:129] Top shape: 32 32 14 14 (200704)
I1130 12:35:52.779417  7256 net.cpp:137] Memory required for data: 1495646336
I1130 12:35:52.779422  7256 layer_factory.hpp:77] Creating layer inception_4d/5x5
I1130 12:35:52.779433  7256 net.cpp:84] Creating Layer inception_4d/5x5
I1130 12:35:52.779439  7256 net.cpp:406] inception_4d/5x5 <- inception_4d/5x5_reduce
I1130 12:35:52.779448  7256 net.cpp:380] inception_4d/5x5 -> inception_4d/5x5
I1130 12:35:52.780030  7256 net.cpp:122] Setting up inception_4d/5x5
I1130 12:35:52.780042  7256 net.cpp:129] Top shape: 32 64 14 14 (401408)
I1130 12:35:52.780047  7256 net.cpp:137] Memory required for data: 1497251968
I1130 12:35:52.780056  7256 layer_factory.hpp:77] Creating layer inception_4d/relu_5x5
I1130 12:35:52.780064  7256 net.cpp:84] Creating Layer inception_4d/relu_5x5
I1130 12:35:52.780071  7256 net.cpp:406] inception_4d/relu_5x5 <- inception_4d/5x5
I1130 12:35:52.780078  7256 net.cpp:367] inception_4d/relu_5x5 -> inception_4d/5x5 (in-place)
I1130 12:35:52.780087  7256 net.cpp:122] Setting up inception_4d/relu_5x5
I1130 12:35:52.780095  7256 net.cpp:129] Top shape: 32 64 14 14 (401408)
I1130 12:35:52.780100  7256 net.cpp:137] Memory required for data: 1498857600
I1130 12:35:52.780107  7256 layer_factory.hpp:77] Creating layer inception_4d/pool
I1130 12:35:52.780114  7256 net.cpp:84] Creating Layer inception_4d/pool
I1130 12:35:52.780120  7256 net.cpp:406] inception_4d/pool <- inception_4c/output_inception_4c/output_0_split_3
I1130 12:35:52.780128  7256 net.cpp:380] inception_4d/pool -> inception_4d/pool
I1130 12:35:52.780169  7256 net.cpp:122] Setting up inception_4d/pool
I1130 12:35:52.780179  7256 net.cpp:129] Top shape: 32 512 14 14 (3211264)
I1130 12:35:52.780184  7256 net.cpp:137] Memory required for data: 1511702656
I1130 12:35:52.780190  7256 layer_factory.hpp:77] Creating layer inception_4d/pool_proj
I1130 12:35:52.780200  7256 net.cpp:84] Creating Layer inception_4d/pool_proj
I1130 12:35:52.780206  7256 net.cpp:406] inception_4d/pool_proj <- inception_4d/pool
I1130 12:35:52.780215  7256 net.cpp:380] inception_4d/pool_proj -> inception_4d/pool_proj
I1130 12:35:52.780663  7256 net.cpp:122] Setting up inception_4d/pool_proj
I1130 12:35:52.780674  7256 net.cpp:129] Top shape: 32 64 14 14 (401408)
I1130 12:35:52.780679  7256 net.cpp:137] Memory required for data: 1513308288
I1130 12:35:52.780689  7256 layer_factory.hpp:77] Creating layer inception_4d/relu_pool_proj
I1130 12:35:52.780696  7256 net.cpp:84] Creating Layer inception_4d/relu_pool_proj
I1130 12:35:52.780704  7256 net.cpp:406] inception_4d/relu_pool_proj <- inception_4d/pool_proj
I1130 12:35:52.780711  7256 net.cpp:367] inception_4d/relu_pool_proj -> inception_4d/pool_proj (in-place)
I1130 12:35:52.780719  7256 net.cpp:122] Setting up inception_4d/relu_pool_proj
I1130 12:35:52.780725  7256 net.cpp:129] Top shape: 32 64 14 14 (401408)
I1130 12:35:52.780731  7256 net.cpp:137] Memory required for data: 1514913920
I1130 12:35:52.780735  7256 layer_factory.hpp:77] Creating layer inception_4d/output
I1130 12:35:52.780743  7256 net.cpp:84] Creating Layer inception_4d/output
I1130 12:35:52.780750  7256 net.cpp:406] inception_4d/output <- inception_4d/1x1
I1130 12:35:52.780756  7256 net.cpp:406] inception_4d/output <- inception_4d/3x3
I1130 12:35:52.780762  7256 net.cpp:406] inception_4d/output <- inception_4d/5x5
I1130 12:35:52.780769  7256 net.cpp:406] inception_4d/output <- inception_4d/pool_proj
I1130 12:35:52.780777  7256 net.cpp:380] inception_4d/output -> inception_4d/output
I1130 12:35:52.780805  7256 net.cpp:122] Setting up inception_4d/output
I1130 12:35:52.780814  7256 net.cpp:129] Top shape: 32 528 14 14 (3311616)
I1130 12:35:52.780822  7256 net.cpp:137] Memory required for data: 1528160384
I1130 12:35:52.780827  7256 layer_factory.hpp:77] Creating layer inception_4d/output_inception_4d/output_0_split
I1130 12:35:52.780834  7256 net.cpp:84] Creating Layer inception_4d/output_inception_4d/output_0_split
I1130 12:35:52.780840  7256 net.cpp:406] inception_4d/output_inception_4d/output_0_split <- inception_4d/output
I1130 12:35:52.780848  7256 net.cpp:380] inception_4d/output_inception_4d/output_0_split -> inception_4d/output_inception_4d/output_0_split_0
I1130 12:35:52.780858  7256 net.cpp:380] inception_4d/output_inception_4d/output_0_split -> inception_4d/output_inception_4d/output_0_split_1
I1130 12:35:52.780866  7256 net.cpp:380] inception_4d/output_inception_4d/output_0_split -> inception_4d/output_inception_4d/output_0_split_2
I1130 12:35:52.780875  7256 net.cpp:380] inception_4d/output_inception_4d/output_0_split -> inception_4d/output_inception_4d/output_0_split_3
I1130 12:35:52.780932  7256 net.cpp:122] Setting up inception_4d/output_inception_4d/output_0_split
I1130 12:35:52.780941  7256 net.cpp:129] Top shape: 32 528 14 14 (3311616)
I1130 12:35:52.780948  7256 net.cpp:129] Top shape: 32 528 14 14 (3311616)
I1130 12:35:52.780956  7256 net.cpp:129] Top shape: 32 528 14 14 (3311616)
I1130 12:35:52.780961  7256 net.cpp:129] Top shape: 32 528 14 14 (3311616)
I1130 12:35:52.780967  7256 net.cpp:137] Memory required for data: 1581146240
I1130 12:35:52.780972  7256 layer_factory.hpp:77] Creating layer inception_4e/1x1
I1130 12:35:52.780982  7256 net.cpp:84] Creating Layer inception_4e/1x1
I1130 12:35:52.780989  7256 net.cpp:406] inception_4e/1x1 <- inception_4d/output_inception_4d/output_0_split_0
I1130 12:35:52.780998  7256 net.cpp:380] inception_4e/1x1 -> inception_4e/1x1
I1130 12:35:52.782599  7256 net.cpp:122] Setting up inception_4e/1x1
I1130 12:35:52.782613  7256 net.cpp:129] Top shape: 32 256 14 14 (1605632)
I1130 12:35:52.782618  7256 net.cpp:137] Memory required for data: 1587568768
I1130 12:35:52.782627  7256 layer_factory.hpp:77] Creating layer inception_4e/relu_1x1
I1130 12:35:52.782635  7256 net.cpp:84] Creating Layer inception_4e/relu_1x1
I1130 12:35:52.782642  7256 net.cpp:406] inception_4e/relu_1x1 <- inception_4e/1x1
I1130 12:35:52.782650  7256 net.cpp:367] inception_4e/relu_1x1 -> inception_4e/1x1 (in-place)
I1130 12:35:52.782660  7256 net.cpp:122] Setting up inception_4e/relu_1x1
I1130 12:35:52.782666  7256 net.cpp:129] Top shape: 32 256 14 14 (1605632)
I1130 12:35:52.782671  7256 net.cpp:137] Memory required for data: 1593991296
I1130 12:35:52.782675  7256 layer_factory.hpp:77] Creating layer inception_4e/3x3_reduce
I1130 12:35:52.782685  7256 net.cpp:84] Creating Layer inception_4e/3x3_reduce
I1130 12:35:52.782691  7256 net.cpp:406] inception_4e/3x3_reduce <- inception_4d/output_inception_4d/output_0_split_1
I1130 12:35:52.782699  7256 net.cpp:380] inception_4e/3x3_reduce -> inception_4e/3x3_reduce
I1130 12:35:52.783473  7256 net.cpp:122] Setting up inception_4e/3x3_reduce
I1130 12:35:52.783485  7256 net.cpp:129] Top shape: 32 160 14 14 (1003520)
I1130 12:35:52.783490  7256 net.cpp:137] Memory required for data: 1598005376
I1130 12:35:52.783499  7256 layer_factory.hpp:77] Creating layer inception_4e/relu_3x3_reduce
I1130 12:35:52.783506  7256 net.cpp:84] Creating Layer inception_4e/relu_3x3_reduce
I1130 12:35:52.783512  7256 net.cpp:406] inception_4e/relu_3x3_reduce <- inception_4e/3x3_reduce
I1130 12:35:52.783520  7256 net.cpp:367] inception_4e/relu_3x3_reduce -> inception_4e/3x3_reduce (in-place)
I1130 12:35:52.783529  7256 net.cpp:122] Setting up inception_4e/relu_3x3_reduce
I1130 12:35:52.783536  7256 net.cpp:129] Top shape: 32 160 14 14 (1003520)
I1130 12:35:52.783541  7256 net.cpp:137] Memory required for data: 1602019456
I1130 12:35:52.783545  7256 layer_factory.hpp:77] Creating layer inception_4e/3x3
I1130 12:35:52.783555  7256 net.cpp:84] Creating Layer inception_4e/3x3
I1130 12:35:52.783561  7256 net.cpp:406] inception_4e/3x3 <- inception_4e/3x3_reduce
I1130 12:35:52.783569  7256 net.cpp:380] inception_4e/3x3 -> inception_4e/3x3
I1130 12:35:52.787485  7256 net.cpp:122] Setting up inception_4e/3x3
I1130 12:35:52.787499  7256 net.cpp:129] Top shape: 32 320 14 14 (2007040)
I1130 12:35:52.787506  7256 net.cpp:137] Memory required for data: 1610047616
I1130 12:35:52.787516  7256 layer_factory.hpp:77] Creating layer inception_4e/relu_3x3
I1130 12:35:52.787524  7256 net.cpp:84] Creating Layer inception_4e/relu_3x3
I1130 12:35:52.787530  7256 net.cpp:406] inception_4e/relu_3x3 <- inception_4e/3x3
I1130 12:35:52.787539  7256 net.cpp:367] inception_4e/relu_3x3 -> inception_4e/3x3 (in-place)
I1130 12:35:52.787547  7256 net.cpp:122] Setting up inception_4e/relu_3x3
I1130 12:35:52.787554  7256 net.cpp:129] Top shape: 32 320 14 14 (2007040)
I1130 12:35:52.787559  7256 net.cpp:137] Memory required for data: 1618075776
I1130 12:35:52.787564  7256 layer_factory.hpp:77] Creating layer inception_4e/5x5_reduce
I1130 12:35:52.787572  7256 net.cpp:84] Creating Layer inception_4e/5x5_reduce
I1130 12:35:52.787580  7256 net.cpp:406] inception_4e/5x5_reduce <- inception_4d/output_inception_4d/output_0_split_2
I1130 12:35:52.787586  7256 net.cpp:380] inception_4e/5x5_reduce -> inception_4e/5x5_reduce
I1130 12:35:52.787925  7256 net.cpp:122] Setting up inception_4e/5x5_reduce
I1130 12:35:52.787936  7256 net.cpp:129] Top shape: 32 32 14 14 (200704)
I1130 12:35:52.787942  7256 net.cpp:137] Memory required for data: 1618878592
I1130 12:35:52.787950  7256 layer_factory.hpp:77] Creating layer inception_4e/relu_5x5_reduce
I1130 12:35:52.787958  7256 net.cpp:84] Creating Layer inception_4e/relu_5x5_reduce
I1130 12:35:52.787964  7256 net.cpp:406] inception_4e/relu_5x5_reduce <- inception_4e/5x5_reduce
I1130 12:35:52.787971  7256 net.cpp:367] inception_4e/relu_5x5_reduce -> inception_4e/5x5_reduce (in-place)
I1130 12:35:52.787981  7256 net.cpp:122] Setting up inception_4e/relu_5x5_reduce
I1130 12:35:52.787987  7256 net.cpp:129] Top shape: 32 32 14 14 (200704)
I1130 12:35:52.787992  7256 net.cpp:137] Memory required for data: 1619681408
I1130 12:35:52.787998  7256 layer_factory.hpp:77] Creating layer inception_4e/5x5
I1130 12:35:52.788007  7256 net.cpp:84] Creating Layer inception_4e/5x5
I1130 12:35:52.788014  7256 net.cpp:406] inception_4e/5x5 <- inception_4e/5x5_reduce
I1130 12:35:52.788022  7256 net.cpp:380] inception_4e/5x5 -> inception_4e/5x5
I1130 12:35:52.789335  7256 net.cpp:122] Setting up inception_4e/5x5
I1130 12:35:52.789347  7256 net.cpp:129] Top shape: 32 128 14 14 (802816)
I1130 12:35:52.789353  7256 net.cpp:137] Memory required for data: 1622892672
I1130 12:35:52.789362  7256 layer_factory.hpp:77] Creating layer inception_4e/relu_5x5
I1130 12:35:52.789369  7256 net.cpp:84] Creating Layer inception_4e/relu_5x5
I1130 12:35:52.789376  7256 net.cpp:406] inception_4e/relu_5x5 <- inception_4e/5x5
I1130 12:35:52.789383  7256 net.cpp:367] inception_4e/relu_5x5 -> inception_4e/5x5 (in-place)
I1130 12:35:52.789392  7256 net.cpp:122] Setting up inception_4e/relu_5x5
I1130 12:35:52.789399  7256 net.cpp:129] Top shape: 32 128 14 14 (802816)
I1130 12:35:52.789404  7256 net.cpp:137] Memory required for data: 1626103936
I1130 12:35:52.789409  7256 layer_factory.hpp:77] Creating layer inception_4e/pool
I1130 12:35:52.789417  7256 net.cpp:84] Creating Layer inception_4e/pool
I1130 12:35:52.789422  7256 net.cpp:406] inception_4e/pool <- inception_4d/output_inception_4d/output_0_split_3
I1130 12:35:52.789429  7256 net.cpp:380] inception_4e/pool -> inception_4e/pool
I1130 12:35:52.789469  7256 net.cpp:122] Setting up inception_4e/pool
I1130 12:35:52.789479  7256 net.cpp:129] Top shape: 32 528 14 14 (3311616)
I1130 12:35:52.789484  7256 net.cpp:137] Memory required for data: 1639350400
I1130 12:35:52.789489  7256 layer_factory.hpp:77] Creating layer inception_4e/pool_proj
I1130 12:35:52.789499  7256 net.cpp:84] Creating Layer inception_4e/pool_proj
I1130 12:35:52.789505  7256 net.cpp:406] inception_4e/pool_proj <- inception_4e/pool
I1130 12:35:52.789513  7256 net.cpp:380] inception_4e/pool_proj -> inception_4e/pool_proj
I1130 12:35:52.790181  7256 net.cpp:122] Setting up inception_4e/pool_proj
I1130 12:35:52.790192  7256 net.cpp:129] Top shape: 32 128 14 14 (802816)
I1130 12:35:52.790197  7256 net.cpp:137] Memory required for data: 1642561664
I1130 12:35:52.790206  7256 layer_factory.hpp:77] Creating layer inception_4e/relu_pool_proj
I1130 12:35:52.790215  7256 net.cpp:84] Creating Layer inception_4e/relu_pool_proj
I1130 12:35:52.790220  7256 net.cpp:406] inception_4e/relu_pool_proj <- inception_4e/pool_proj
I1130 12:35:52.790230  7256 net.cpp:367] inception_4e/relu_pool_proj -> inception_4e/pool_proj (in-place)
I1130 12:35:52.790238  7256 net.cpp:122] Setting up inception_4e/relu_pool_proj
I1130 12:35:52.790246  7256 net.cpp:129] Top shape: 32 128 14 14 (802816)
I1130 12:35:52.790251  7256 net.cpp:137] Memory required for data: 1645772928
I1130 12:35:52.790256  7256 layer_factory.hpp:77] Creating layer inception_4e/output
I1130 12:35:52.790263  7256 net.cpp:84] Creating Layer inception_4e/output
I1130 12:35:52.790269  7256 net.cpp:406] inception_4e/output <- inception_4e/1x1
I1130 12:35:52.790277  7256 net.cpp:406] inception_4e/output <- inception_4e/3x3
I1130 12:35:52.790289  7256 net.cpp:406] inception_4e/output <- inception_4e/5x5
I1130 12:35:52.790297  7256 net.cpp:406] inception_4e/output <- inception_4e/pool_proj
I1130 12:35:52.790304  7256 net.cpp:380] inception_4e/output -> inception_4e/output
I1130 12:35:52.790331  7256 net.cpp:122] Setting up inception_4e/output
I1130 12:35:52.790340  7256 net.cpp:129] Top shape: 32 832 14 14 (5218304)
I1130 12:35:52.790346  7256 net.cpp:137] Memory required for data: 1666646144
I1130 12:35:52.790352  7256 layer_factory.hpp:77] Creating layer pool4/3x3_s2
I1130 12:35:52.790359  7256 net.cpp:84] Creating Layer pool4/3x3_s2
I1130 12:35:52.790366  7256 net.cpp:406] pool4/3x3_s2 <- inception_4e/output
I1130 12:35:52.790375  7256 net.cpp:380] pool4/3x3_s2 -> pool4/3x3_s2
I1130 12:35:52.790412  7256 net.cpp:122] Setting up pool4/3x3_s2
I1130 12:35:52.790421  7256 net.cpp:129] Top shape: 32 832 7 7 (1304576)
I1130 12:35:52.790426  7256 net.cpp:137] Memory required for data: 1671864448
I1130 12:35:52.790431  7256 layer_factory.hpp:77] Creating layer pool4/3x3_s2_pool4/3x3_s2_0_split
I1130 12:35:52.790441  7256 net.cpp:84] Creating Layer pool4/3x3_s2_pool4/3x3_s2_0_split
I1130 12:35:52.790448  7256 net.cpp:406] pool4/3x3_s2_pool4/3x3_s2_0_split <- pool4/3x3_s2
I1130 12:35:52.790454  7256 net.cpp:380] pool4/3x3_s2_pool4/3x3_s2_0_split -> pool4/3x3_s2_pool4/3x3_s2_0_split_0
I1130 12:35:52.790463  7256 net.cpp:380] pool4/3x3_s2_pool4/3x3_s2_0_split -> pool4/3x3_s2_pool4/3x3_s2_0_split_1
I1130 12:35:52.790472  7256 net.cpp:380] pool4/3x3_s2_pool4/3x3_s2_0_split -> pool4/3x3_s2_pool4/3x3_s2_0_split_2
I1130 12:35:52.790480  7256 net.cpp:380] pool4/3x3_s2_pool4/3x3_s2_0_split -> pool4/3x3_s2_pool4/3x3_s2_0_split_3
I1130 12:35:52.790539  7256 net.cpp:122] Setting up pool4/3x3_s2_pool4/3x3_s2_0_split
I1130 12:35:52.790546  7256 net.cpp:129] Top shape: 32 832 7 7 (1304576)
I1130 12:35:52.790554  7256 net.cpp:129] Top shape: 32 832 7 7 (1304576)
I1130 12:35:52.790560  7256 net.cpp:129] Top shape: 32 832 7 7 (1304576)
I1130 12:35:52.790565  7256 net.cpp:129] Top shape: 32 832 7 7 (1304576)
I1130 12:35:52.790570  7256 net.cpp:137] Memory required for data: 1692737664
I1130 12:35:52.790575  7256 layer_factory.hpp:77] Creating layer inception_5a/1x1
I1130 12:35:52.790583  7256 net.cpp:84] Creating Layer inception_5a/1x1
I1130 12:35:52.790590  7256 net.cpp:406] inception_5a/1x1 <- pool4/3x3_s2_pool4/3x3_s2_0_split_0
I1130 12:35:52.790598  7256 net.cpp:380] inception_5a/1x1 -> inception_5a/1x1
I1130 12:35:52.792654  7256 net.cpp:122] Setting up inception_5a/1x1
I1130 12:35:52.792666  7256 net.cpp:129] Top shape: 32 256 7 7 (401408)
I1130 12:35:52.792673  7256 net.cpp:137] Memory required for data: 1694343296
I1130 12:35:52.792682  7256 layer_factory.hpp:77] Creating layer inception_5a/relu_1x1
I1130 12:35:52.792692  7256 net.cpp:84] Creating Layer inception_5a/relu_1x1
I1130 12:35:52.792698  7256 net.cpp:406] inception_5a/relu_1x1 <- inception_5a/1x1
I1130 12:35:52.792706  7256 net.cpp:367] inception_5a/relu_1x1 -> inception_5a/1x1 (in-place)
I1130 12:35:52.792716  7256 net.cpp:122] Setting up inception_5a/relu_1x1
I1130 12:35:52.792721  7256 net.cpp:129] Top shape: 32 256 7 7 (401408)
I1130 12:35:52.792727  7256 net.cpp:137] Memory required for data: 1695948928
I1130 12:35:52.792732  7256 layer_factory.hpp:77] Creating layer inception_5a/3x3_reduce
I1130 12:35:52.792742  7256 net.cpp:84] Creating Layer inception_5a/3x3_reduce
I1130 12:35:52.792749  7256 net.cpp:406] inception_5a/3x3_reduce <- pool4/3x3_s2_pool4/3x3_s2_0_split_1
I1130 12:35:52.792757  7256 net.cpp:380] inception_5a/3x3_reduce -> inception_5a/3x3_reduce
I1130 12:35:52.794301  7256 net.cpp:122] Setting up inception_5a/3x3_reduce
I1130 12:35:52.794324  7256 net.cpp:129] Top shape: 32 160 7 7 (250880)
I1130 12:35:52.794330  7256 net.cpp:137] Memory required for data: 1696952448
I1130 12:35:52.794339  7256 layer_factory.hpp:77] Creating layer inception_5a/relu_3x3_reduce
I1130 12:35:52.794348  7256 net.cpp:84] Creating Layer inception_5a/relu_3x3_reduce
I1130 12:35:52.794355  7256 net.cpp:406] inception_5a/relu_3x3_reduce <- inception_5a/3x3_reduce
I1130 12:35:52.794363  7256 net.cpp:367] inception_5a/relu_3x3_reduce -> inception_5a/3x3_reduce (in-place)
I1130 12:35:52.794371  7256 net.cpp:122] Setting up inception_5a/relu_3x3_reduce
I1130 12:35:52.794378  7256 net.cpp:129] Top shape: 32 160 7 7 (250880)
I1130 12:35:52.794384  7256 net.cpp:137] Memory required for data: 1697955968
I1130 12:35:52.794389  7256 layer_factory.hpp:77] Creating layer inception_5a/3x3
I1130 12:35:52.794400  7256 net.cpp:84] Creating Layer inception_5a/3x3
I1130 12:35:52.794406  7256 net.cpp:406] inception_5a/3x3 <- inception_5a/3x3_reduce
I1130 12:35:52.794416  7256 net.cpp:380] inception_5a/3x3 -> inception_5a/3x3
I1130 12:35:52.798223  7256 net.cpp:122] Setting up inception_5a/3x3
I1130 12:35:52.798238  7256 net.cpp:129] Top shape: 32 320 7 7 (501760)
I1130 12:35:52.798246  7256 net.cpp:137] Memory required for data: 1699963008
I1130 12:35:52.798255  7256 layer_factory.hpp:77] Creating layer inception_5a/relu_3x3
I1130 12:35:52.798267  7256 net.cpp:84] Creating Layer inception_5a/relu_3x3
I1130 12:35:52.798276  7256 net.cpp:406] inception_5a/relu_3x3 <- inception_5a/3x3
I1130 12:35:52.798295  7256 net.cpp:367] inception_5a/relu_3x3 -> inception_5a/3x3 (in-place)
I1130 12:35:52.798305  7256 net.cpp:122] Setting up inception_5a/relu_3x3
I1130 12:35:52.798312  7256 net.cpp:129] Top shape: 32 320 7 7 (501760)
I1130 12:35:52.798318  7256 net.cpp:137] Memory required for data: 1701970048
I1130 12:35:52.798326  7256 layer_factory.hpp:77] Creating layer inception_5a/5x5_reduce
I1130 12:35:52.798352  7256 net.cpp:84] Creating Layer inception_5a/5x5_reduce
I1130 12:35:52.798359  7256 net.cpp:406] inception_5a/5x5_reduce <- pool4/3x3_s2_pool4/3x3_s2_0_split_2
I1130 12:35:52.798370  7256 net.cpp:380] inception_5a/5x5_reduce -> inception_5a/5x5_reduce
I1130 12:35:52.798708  7256 net.cpp:122] Setting up inception_5a/5x5_reduce
I1130 12:35:52.798720  7256 net.cpp:129] Top shape: 32 32 7 7 (50176)
I1130 12:35:52.798727  7256 net.cpp:137] Memory required for data: 1702170752
I1130 12:35:52.798733  7256 layer_factory.hpp:77] Creating layer inception_5a/relu_5x5_reduce
I1130 12:35:52.798740  7256 net.cpp:84] Creating Layer inception_5a/relu_5x5_reduce
I1130 12:35:52.798748  7256 net.cpp:406] inception_5a/relu_5x5_reduce <- inception_5a/5x5_reduce
I1130 12:35:52.798754  7256 net.cpp:367] inception_5a/relu_5x5_reduce -> inception_5a/5x5_reduce (in-place)
I1130 12:35:52.798763  7256 net.cpp:122] Setting up inception_5a/relu_5x5_reduce
I1130 12:35:52.798769  7256 net.cpp:129] Top shape: 32 32 7 7 (50176)
I1130 12:35:52.798774  7256 net.cpp:137] Memory required for data: 1702371456
I1130 12:35:52.798779  7256 layer_factory.hpp:77] Creating layer inception_5a/5x5
I1130 12:35:52.798791  7256 net.cpp:84] Creating Layer inception_5a/5x5
I1130 12:35:52.798799  7256 net.cpp:406] inception_5a/5x5 <- inception_5a/5x5_reduce
I1130 12:35:52.798806  7256 net.cpp:380] inception_5a/5x5 -> inception_5a/5x5
I1130 12:35:52.800979  7256 net.cpp:122] Setting up inception_5a/5x5
I1130 12:35:52.800994  7256 net.cpp:129] Top shape: 32 128 7 7 (200704)
I1130 12:35:52.801000  7256 net.cpp:137] Memory required for data: 1703174272
I1130 12:35:52.801009  7256 layer_factory.hpp:77] Creating layer inception_5a/relu_5x5
I1130 12:35:52.801030  7256 net.cpp:84] Creating Layer inception_5a/relu_5x5
I1130 12:35:52.801038  7256 net.cpp:406] inception_5a/relu_5x5 <- inception_5a/5x5
I1130 12:35:52.801044  7256 net.cpp:367] inception_5a/relu_5x5 -> inception_5a/5x5 (in-place)
I1130 12:35:52.801053  7256 net.cpp:122] Setting up inception_5a/relu_5x5
I1130 12:35:52.801060  7256 net.cpp:129] Top shape: 32 128 7 7 (200704)
I1130 12:35:52.801065  7256 net.cpp:137] Memory required for data: 1703977088
I1130 12:35:52.801069  7256 layer_factory.hpp:77] Creating layer inception_5a/pool
I1130 12:35:52.801079  7256 net.cpp:84] Creating Layer inception_5a/pool
I1130 12:35:52.801084  7256 net.cpp:406] inception_5a/pool <- pool4/3x3_s2_pool4/3x3_s2_0_split_3
I1130 12:35:52.801090  7256 net.cpp:380] inception_5a/pool -> inception_5a/pool
I1130 12:35:52.801127  7256 net.cpp:122] Setting up inception_5a/pool
I1130 12:35:52.801136  7256 net.cpp:129] Top shape: 32 832 7 7 (1304576)
I1130 12:35:52.801139  7256 net.cpp:137] Memory required for data: 1709195392
I1130 12:35:52.801143  7256 layer_factory.hpp:77] Creating layer inception_5a/pool_proj
I1130 12:35:52.801156  7256 net.cpp:84] Creating Layer inception_5a/pool_proj
I1130 12:35:52.801162  7256 net.cpp:406] inception_5a/pool_proj <- inception_5a/pool
I1130 12:35:52.801169  7256 net.cpp:380] inception_5a/pool_proj -> inception_5a/pool_proj
I1130 12:35:52.802325  7256 net.cpp:122] Setting up inception_5a/pool_proj
I1130 12:35:52.802336  7256 net.cpp:129] Top shape: 32 128 7 7 (200704)
I1130 12:35:52.802340  7256 net.cpp:137] Memory required for data: 1709998208
I1130 12:35:52.802348  7256 layer_factory.hpp:77] Creating layer inception_5a/relu_pool_proj
I1130 12:35:52.802356  7256 net.cpp:84] Creating Layer inception_5a/relu_pool_proj
I1130 12:35:52.802361  7256 net.cpp:406] inception_5a/relu_pool_proj <- inception_5a/pool_proj
I1130 12:35:52.802369  7256 net.cpp:367] inception_5a/relu_pool_proj -> inception_5a/pool_proj (in-place)
I1130 12:35:52.802379  7256 net.cpp:122] Setting up inception_5a/relu_pool_proj
I1130 12:35:52.802384  7256 net.cpp:129] Top shape: 32 128 7 7 (200704)
I1130 12:35:52.802389  7256 net.cpp:137] Memory required for data: 1710801024
I1130 12:35:52.802393  7256 layer_factory.hpp:77] Creating layer inception_5a/output
I1130 12:35:52.802399  7256 net.cpp:84] Creating Layer inception_5a/output
I1130 12:35:52.802404  7256 net.cpp:406] inception_5a/output <- inception_5a/1x1
I1130 12:35:52.802410  7256 net.cpp:406] inception_5a/output <- inception_5a/3x3
I1130 12:35:52.802417  7256 net.cpp:406] inception_5a/output <- inception_5a/5x5
I1130 12:35:52.802423  7256 net.cpp:406] inception_5a/output <- inception_5a/pool_proj
I1130 12:35:52.802428  7256 net.cpp:380] inception_5a/output -> inception_5a/output
I1130 12:35:52.802454  7256 net.cpp:122] Setting up inception_5a/output
I1130 12:35:52.802461  7256 net.cpp:129] Top shape: 32 832 7 7 (1304576)
I1130 12:35:52.802465  7256 net.cpp:137] Memory required for data: 1716019328
I1130 12:35:52.802470  7256 layer_factory.hpp:77] Creating layer inception_5a/output_inception_5a/output_0_split
I1130 12:35:52.802476  7256 net.cpp:84] Creating Layer inception_5a/output_inception_5a/output_0_split
I1130 12:35:52.802484  7256 net.cpp:406] inception_5a/output_inception_5a/output_0_split <- inception_5a/output
I1130 12:35:52.802491  7256 net.cpp:380] inception_5a/output_inception_5a/output_0_split -> inception_5a/output_inception_5a/output_0_split_0
I1130 12:35:52.802500  7256 net.cpp:380] inception_5a/output_inception_5a/output_0_split -> inception_5a/output_inception_5a/output_0_split_1
I1130 12:35:52.802506  7256 net.cpp:380] inception_5a/output_inception_5a/output_0_split -> inception_5a/output_inception_5a/output_0_split_2
I1130 12:35:52.802515  7256 net.cpp:380] inception_5a/output_inception_5a/output_0_split -> inception_5a/output_inception_5a/output_0_split_3
I1130 12:35:52.802563  7256 net.cpp:122] Setting up inception_5a/output_inception_5a/output_0_split
I1130 12:35:52.802572  7256 net.cpp:129] Top shape: 32 832 7 7 (1304576)
I1130 12:35:52.802577  7256 net.cpp:129] Top shape: 32 832 7 7 (1304576)
I1130 12:35:52.802582  7256 net.cpp:129] Top shape: 32 832 7 7 (1304576)
I1130 12:35:52.802587  7256 net.cpp:129] Top shape: 32 832 7 7 (1304576)
I1130 12:35:52.802592  7256 net.cpp:137] Memory required for data: 1736892544
I1130 12:35:52.802597  7256 layer_factory.hpp:77] Creating layer inception_5b/1x1
I1130 12:35:52.802606  7256 net.cpp:84] Creating Layer inception_5b/1x1
I1130 12:35:52.802613  7256 net.cpp:406] inception_5b/1x1 <- inception_5a/output_inception_5a/output_0_split_0
I1130 12:35:52.802620  7256 net.cpp:380] inception_5b/1x1 -> inception_5b/1x1
I1130 12:35:52.805161  7256 net.cpp:122] Setting up inception_5b/1x1
I1130 12:35:52.805173  7256 net.cpp:129] Top shape: 32 384 7 7 (602112)
I1130 12:35:52.805179  7256 net.cpp:137] Memory required for data: 1739300992
I1130 12:35:52.805189  7256 layer_factory.hpp:77] Creating layer inception_5b/relu_1x1
I1130 12:35:52.805213  7256 net.cpp:84] Creating Layer inception_5b/relu_1x1
I1130 12:35:52.805219  7256 net.cpp:406] inception_5b/relu_1x1 <- inception_5b/1x1
I1130 12:35:52.805229  7256 net.cpp:367] inception_5b/relu_1x1 -> inception_5b/1x1 (in-place)
I1130 12:35:52.805238  7256 net.cpp:122] Setting up inception_5b/relu_1x1
I1130 12:35:52.805258  7256 net.cpp:129] Top shape: 32 384 7 7 (602112)
I1130 12:35:52.805263  7256 net.cpp:137] Memory required for data: 1741709440
I1130 12:35:52.805266  7256 layer_factory.hpp:77] Creating layer inception_5b/3x3_reduce
I1130 12:35:52.805276  7256 net.cpp:84] Creating Layer inception_5b/3x3_reduce
I1130 12:35:52.805282  7256 net.cpp:406] inception_5b/3x3_reduce <- inception_5a/output_inception_5a/output_0_split_1
I1130 12:35:52.805290  7256 net.cpp:380] inception_5b/3x3_reduce -> inception_5b/3x3_reduce
I1130 12:35:52.806910  7256 net.cpp:122] Setting up inception_5b/3x3_reduce
I1130 12:35:52.806921  7256 net.cpp:129] Top shape: 32 192 7 7 (301056)
I1130 12:35:52.806926  7256 net.cpp:137] Memory required for data: 1742913664
I1130 12:35:52.806936  7256 layer_factory.hpp:77] Creating layer inception_5b/relu_3x3_reduce
I1130 12:35:52.806943  7256 net.cpp:84] Creating Layer inception_5b/relu_3x3_reduce
I1130 12:35:52.806949  7256 net.cpp:406] inception_5b/relu_3x3_reduce <- inception_5b/3x3_reduce
I1130 12:35:52.806958  7256 net.cpp:367] inception_5b/relu_3x3_reduce -> inception_5b/3x3_reduce (in-place)
I1130 12:35:52.806967  7256 net.cpp:122] Setting up inception_5b/relu_3x3_reduce
I1130 12:35:52.806973  7256 net.cpp:129] Top shape: 32 192 7 7 (301056)
I1130 12:35:52.806978  7256 net.cpp:137] Memory required for data: 1744117888
I1130 12:35:52.806983  7256 layer_factory.hpp:77] Creating layer inception_5b/3x3
I1130 12:35:52.806993  7256 net.cpp:84] Creating Layer inception_5b/3x3
I1130 12:35:52.806999  7256 net.cpp:406] inception_5b/3x3 <- inception_5b/3x3_reduce
I1130 12:35:52.807006  7256 net.cpp:380] inception_5b/3x3 -> inception_5b/3x3
I1130 12:35:52.811959  7256 net.cpp:122] Setting up inception_5b/3x3
I1130 12:35:52.811971  7256 net.cpp:129] Top shape: 32 384 7 7 (602112)
I1130 12:35:52.811976  7256 net.cpp:137] Memory required for data: 1746526336
I1130 12:35:52.811985  7256 layer_factory.hpp:77] Creating layer inception_5b/relu_3x3
I1130 12:35:52.811992  7256 net.cpp:84] Creating Layer inception_5b/relu_3x3
I1130 12:35:52.811998  7256 net.cpp:406] inception_5b/relu_3x3 <- inception_5b/3x3
I1130 12:35:52.812007  7256 net.cpp:367] inception_5b/relu_3x3 -> inception_5b/3x3 (in-place)
I1130 12:35:52.812016  7256 net.cpp:122] Setting up inception_5b/relu_3x3
I1130 12:35:52.812022  7256 net.cpp:129] Top shape: 32 384 7 7 (602112)
I1130 12:35:52.812027  7256 net.cpp:137] Memory required for data: 1748934784
I1130 12:35:52.812032  7256 layer_factory.hpp:77] Creating layer inception_5b/5x5_reduce
I1130 12:35:52.812041  7256 net.cpp:84] Creating Layer inception_5b/5x5_reduce
I1130 12:35:52.812048  7256 net.cpp:406] inception_5b/5x5_reduce <- inception_5a/output_inception_5a/output_0_split_2
I1130 12:35:52.812057  7256 net.cpp:380] inception_5b/5x5_reduce -> inception_5b/5x5_reduce
I1130 12:35:52.812533  7256 net.cpp:122] Setting up inception_5b/5x5_reduce
I1130 12:35:52.812543  7256 net.cpp:129] Top shape: 32 48 7 7 (75264)
I1130 12:35:52.812549  7256 net.cpp:137] Memory required for data: 1749235840
I1130 12:35:52.812557  7256 layer_factory.hpp:77] Creating layer inception_5b/relu_5x5_reduce
I1130 12:35:52.812566  7256 net.cpp:84] Creating Layer inception_5b/relu_5x5_reduce
I1130 12:35:52.812572  7256 net.cpp:406] inception_5b/relu_5x5_reduce <- inception_5b/5x5_reduce
I1130 12:35:52.812580  7256 net.cpp:367] inception_5b/relu_5x5_reduce -> inception_5b/5x5_reduce (in-place)
I1130 12:35:52.812588  7256 net.cpp:122] Setting up inception_5b/relu_5x5_reduce
I1130 12:35:52.812595  7256 net.cpp:129] Top shape: 32 48 7 7 (75264)
I1130 12:35:52.812600  7256 net.cpp:137] Memory required for data: 1749536896
I1130 12:35:52.812604  7256 layer_factory.hpp:77] Creating layer inception_5b/5x5
I1130 12:35:52.812613  7256 net.cpp:84] Creating Layer inception_5b/5x5
I1130 12:35:52.812619  7256 net.cpp:406] inception_5b/5x5 <- inception_5b/5x5_reduce
I1130 12:35:52.812628  7256 net.cpp:380] inception_5b/5x5 -> inception_5b/5x5
I1130 12:35:52.813696  7256 net.cpp:122] Setting up inception_5b/5x5
I1130 12:35:52.813705  7256 net.cpp:129] Top shape: 32 128 7 7 (200704)
I1130 12:35:52.813709  7256 net.cpp:137] Memory required for data: 1750339712
I1130 12:35:52.813719  7256 layer_factory.hpp:77] Creating layer inception_5b/relu_5x5
I1130 12:35:52.813724  7256 net.cpp:84] Creating Layer inception_5b/relu_5x5
I1130 12:35:52.813730  7256 net.cpp:406] inception_5b/relu_5x5 <- inception_5b/5x5
I1130 12:35:52.813747  7256 net.cpp:367] inception_5b/relu_5x5 -> inception_5b/5x5 (in-place)
I1130 12:35:52.813755  7256 net.cpp:122] Setting up inception_5b/relu_5x5
I1130 12:35:52.813762  7256 net.cpp:129] Top shape: 32 128 7 7 (200704)
I1130 12:35:52.813766  7256 net.cpp:137] Memory required for data: 1751142528
I1130 12:35:52.813772  7256 layer_factory.hpp:77] Creating layer inception_5b/pool
I1130 12:35:52.813781  7256 net.cpp:84] Creating Layer inception_5b/pool
I1130 12:35:52.813787  7256 net.cpp:406] inception_5b/pool <- inception_5a/output_inception_5a/output_0_split_3
I1130 12:35:52.813796  7256 net.cpp:380] inception_5b/pool -> inception_5b/pool
I1130 12:35:52.813835  7256 net.cpp:122] Setting up inception_5b/pool
I1130 12:35:52.813844  7256 net.cpp:129] Top shape: 32 832 7 7 (1304576)
I1130 12:35:52.813849  7256 net.cpp:137] Memory required for data: 1756360832
I1130 12:35:52.813854  7256 layer_factory.hpp:77] Creating layer inception_5b/pool_proj
I1130 12:35:52.813866  7256 net.cpp:84] Creating Layer inception_5b/pool_proj
I1130 12:35:52.813874  7256 net.cpp:406] inception_5b/pool_proj <- inception_5b/pool
I1130 12:35:52.813881  7256 net.cpp:380] inception_5b/pool_proj -> inception_5b/pool_proj
I1130 12:35:52.815078  7256 net.cpp:122] Setting up inception_5b/pool_proj
I1130 12:35:52.815088  7256 net.cpp:129] Top shape: 32 128 7 7 (200704)
I1130 12:35:52.815093  7256 net.cpp:137] Memory required for data: 1757163648
I1130 12:35:52.815099  7256 layer_factory.hpp:77] Creating layer inception_5b/relu_pool_proj
I1130 12:35:52.815106  7256 net.cpp:84] Creating Layer inception_5b/relu_pool_proj
I1130 12:35:52.815112  7256 net.cpp:406] inception_5b/relu_pool_proj <- inception_5b/pool_proj
I1130 12:35:52.815124  7256 net.cpp:367] inception_5b/relu_pool_proj -> inception_5b/pool_proj (in-place)
I1130 12:35:52.815130  7256 net.cpp:122] Setting up inception_5b/relu_pool_proj
I1130 12:35:52.815136  7256 net.cpp:129] Top shape: 32 128 7 7 (200704)
I1130 12:35:52.815140  7256 net.cpp:137] Memory required for data: 1757966464
I1130 12:35:52.815145  7256 layer_factory.hpp:77] Creating layer inception_5b/output
I1130 12:35:52.815151  7256 net.cpp:84] Creating Layer inception_5b/output
I1130 12:35:52.815157  7256 net.cpp:406] inception_5b/output <- inception_5b/1x1
I1130 12:35:52.815162  7256 net.cpp:406] inception_5b/output <- inception_5b/3x3
I1130 12:35:52.815168  7256 net.cpp:406] inception_5b/output <- inception_5b/5x5
I1130 12:35:52.815172  7256 net.cpp:406] inception_5b/output <- inception_5b/pool_proj
I1130 12:35:52.815191  7256 net.cpp:380] inception_5b/output -> inception_5b/output
I1130 12:35:52.815219  7256 net.cpp:122] Setting up inception_5b/output
I1130 12:35:52.815227  7256 net.cpp:129] Top shape: 32 1024 7 7 (1605632)
I1130 12:35:52.815232  7256 net.cpp:137] Memory required for data: 1764388992
I1130 12:35:52.815237  7256 layer_factory.hpp:77] Creating layer pool5/7x7_s1
I1130 12:35:52.815245  7256 net.cpp:84] Creating Layer pool5/7x7_s1
I1130 12:35:52.815250  7256 net.cpp:406] pool5/7x7_s1 <- inception_5b/output
I1130 12:35:52.815259  7256 net.cpp:380] pool5/7x7_s1 -> pool5/7x7_s1
I1130 12:35:52.815285  7256 net.cpp:122] Setting up pool5/7x7_s1
I1130 12:35:52.815294  7256 net.cpp:129] Top shape: 32 1024 1 1 (32768)
I1130 12:35:52.815299  7256 net.cpp:137] Memory required for data: 1764520064
I1130 12:35:52.815304  7256 layer_factory.hpp:77] Creating layer pool5/drop_7x7_s1
I1130 12:35:52.815315  7256 net.cpp:84] Creating Layer pool5/drop_7x7_s1
I1130 12:35:52.815320  7256 net.cpp:406] pool5/drop_7x7_s1 <- pool5/7x7_s1
I1130 12:35:52.815325  7256 net.cpp:367] pool5/drop_7x7_s1 -> pool5/7x7_s1 (in-place)
I1130 12:35:52.815353  7256 net.cpp:122] Setting up pool5/drop_7x7_s1
I1130 12:35:52.815362  7256 net.cpp:129] Top shape: 32 1024 1 1 (32768)
I1130 12:35:52.815368  7256 net.cpp:137] Memory required for data: 1764651136
I1130 12:35:52.815373  7256 layer_factory.hpp:77] Creating layer fc_scv_preserved
I1130 12:35:52.815384  7256 net.cpp:84] Creating Layer fc_scv_preserved
I1130 12:35:52.815390  7256 net.cpp:406] fc_scv_preserved <- pool5/7x7_s1
I1130 12:35:52.815397  7256 net.cpp:380] fc_scv_preserved -> fc_scv_preserved
I1130 12:35:52.815505  7256 net.cpp:122] Setting up fc_scv_preserved
I1130 12:35:52.815515  7256 net.cpp:129] Top shape: 32 1 (32)
I1130 12:35:52.815520  7256 net.cpp:137] Memory required for data: 1764651264
I1130 12:35:52.815527  7256 layer_factory.hpp:77] Creating layer loss
I1130 12:35:52.815536  7256 net.cpp:84] Creating Layer loss
I1130 12:35:52.815541  7256 net.cpp:406] loss <- fc_scv_preserved
I1130 12:35:52.815547  7256 net.cpp:406] loss <- label
I1130 12:35:52.815557  7256 net.cpp:380] loss -> loss
I1130 12:35:52.815598  7256 net.cpp:122] Setting up loss
…
I1130 12:35:52.825583  7256 net.cpp:294] The NetState phase (1) differed from the phase (0) specified by a rule in layer data
I1130 12:35:52.826345  7256 net.cpp:51] Initializing net from parameters: 
name: "GoogleNet-Places365-SCV-Preserved"
state {
  phase: TEST
}
layer {
  name: "data"
  type: "Data"
  top: "data"
  top: "label"
  include {
    phase: TEST
  }
  transform_param {
    mirror: false
    crop_size: 224
    mean_file: "/idiap/temp/lmedina/fine-tuning/googlenet_places365/places365CNN_mean.binaryproto"
  }
  data_param {
    source: "/idiap/temp/lmedina/fine-tuning/data/Preserved/validation_lmdb"
    batch_size: 32
    backend: LMDB
  }
}
layer {
  name: "conv1/7x7_s2"
  type: "Convolution"
  bottom: "data"
  top: "conv1/7x7_s2"
  param {
    lr_mult: 1
    decay_mult: 1
  }
  param {
    lr_mult: 2
    decay_mult: 0
  }
  convolution_param {
    num_output: 64
    pad: 3
    kernel_size: 7
    stride: 2
    weight_filler {
      type: "xavier"
      std: 0.1
    }
    bias_filler {
      type: "constant"
      value: 0.2
    }
  }
}
layer {
  name: "conv1/relu_7x7"
  type: "ReLU"
  bottom: "conv1/7x7_s2"
  top: "conv1/7x7_s2"
}
layer {
  name: "pool1/3x3_s2"
  type: "Pooling"
  bottom: "conv1/7x7_s2"
  top: "pool1/3x3_s2"
  pooling_param {
    pool: MAX
    kernel_size: 3
    stride: 2
  }
}
layer {
  name: "pool1/norm1"
  type: "LRN"
  bottom: "pool1/3x3_s2"
  top: "pool1/norm1"
  lrn_param {
    local_size: 5
    alpha: 0.0001
    beta: 0.75
  }
}
layer {
  name: "conv2/3x3_reduce"
  type: "Convolution"
  bottom: "pool1/norm1"
  top: "conv2/3x3_reduce"
  param {
    lr_mult: 1
    decay_mult: 1
  }
  param {
    lr_mult: 2
    decay_mult: 0
  }
  convolution_param {
    num_output: 64
    kernel_size: 1
    weight_filler {
      type: "xavier"
      std: 0.1
    }
    bias_filler {
      type: "constant"
      value: 0.2
    }
  }
}
layer {
  name: "conv2/relu_3x3_reduce"
  type: "ReLU"
  bottom: "conv2/3x3_reduce"
  top: "conv2/3x3_reduce"
}
layer {
  name: "conv2/3x3"
  type: "Convolution"
  bottom: "conv2/3x3_reduce"
  top: "conv2/3x3"
  param {
    lr_mult: 1
    decay_mult: 1
  }
  param {
    lr_mult: 2
    decay_mult: 0
  }
  convolution_param {
    num_output: 192
    pad: 1
    kernel_size: 3
    weight_filler {
      type: "xavier"
      std: 0.03
    }
    bias_filler {
      type: "constant"
      value: 0.2
    }
  }
}
layer {
  name: "conv2/relu_3x3"
  type: "ReLU"
  bottom: "conv2/3x3"
  top: "conv2/3x3"
}
layer {
  name: "conv2/norm2"
  type: "LRN"
  bottom: "conv2/3x3"
  top: "conv2/norm2"
  lrn_param {
    local_size: 5
    alpha: 0.0001
    beta: 0.75
  }
}
layer {
  name: "pool2/3x3_s2"
  type: "Pooling"
  bottom: "conv2/norm2"
  top: "pool2/3x3_s2"
  pooling_param {
    pool: MAX
    kernel_size: 3
    stride: 2
  }
}
layer {
  name: "inception_3a/1x1"
  type: "Convolution"
  bottom: "pool2/3x3_s2"
  top: "inception_3a/1x1"
  param {
    lr_mult: 1
    decay_mult: 1
  }
  param {
    lr_mult: 2
    decay_mult: 0
  }
  convolution_param {
    num_output: 64
    kernel_size: 1
    weight_filler {
      type: "xavier"
      std: 0.03
    }
    bias_filler {
      type: "constant"
      value: 0.2
    }
  }
}
layer {
  name: "inception_3a/relu_1x1"
  type: "ReLU"
  bottom: "inception_3a/1x1"
  top: "inception_3a/1x1"
}
layer {
  name: "inception_3a/3x3_reduce"
  type: "Convolution"
  bottom: "pool2/3x3_s2"
  top: "inception_3a/3x3_reduce"
  param {
    lr_mult: 1
    decay_mult: 1
  }
  param {
    lr_mult: 2
    decay_mult: 0
  }
  convolution_param {
    num_output: 96
    kernel_size: 1
    weight_filler {
      type: "xavier"
      std: 0.09
    }
    bias_filler {
      type: "constant"
      value: 0.2
    }
  }
}
layer {
  name: "inception_3a/relu_3x3_reduce"
  type: "ReLU"
  bottom: "inception_3a/3x3_reduce"
  top: "inception_3a/3x3_reduce"
}
layer {
  name: "inception_3a/3x3"
  type: "Convolution"
  bottom: "inception_3a/3x3_reduce"
  top: "inception_3a/3x3"
  param {
    lr_mult: 1
    decay_mult: 1
  }
  param {
    lr_mult: 2
    decay_mult: 0
  }
  convolution_param {
    num_output: 128
    pad: 1
    kernel_size: 3
    weight_filler {
      type: "xavier"
      std: 0.03
    }
    bias_filler {
      type: "constant"
      value: 0.2
    }
  }
}
layer {
  name: "inception_3a/relu_3x3"
  type: "ReLU"
  bottom: "inception_3a/3x3"
  top: "inception_3a/3x3"
}
layer {
  name: "inception_3a/5x5_reduce"
  type: "Convolution"
  bottom: "pool2/3x3_s2"
  top: "inception_3a/5x5_reduce"
  param {
    lr_mult: 1
    decay_mult: 1
  }
  param {
    lr_mult: 2
    decay_mult: 0
  }
  convolution_param {
    num_output: 16
    kernel_size: 1
    weight_filler {
      type: "xavier"
      std: 0.2
    }
    bias_filler {
      type: "constant"
      value: 0.2
    }
  }
}
layer {
  name: "inception_3a/relu_5x5_reduce"
  type: "ReLU"
  bottom: "inception_3a/5x5_reduce"
  top: "inception_3a/5x5_reduce"
}
layer {
  name: "inception_3a/5x5"
  type: "Convolution"
  bottom: "inception_3a/5x5_reduce"
  top: "inception_3a/5x5"
  param {
    lr_mult: 1
    decay_mult: 1
  }
  param {
    lr_mult: 2
    decay_mult: 0
  }
  convolution_param {
    num_output: 32
    pad: 2
    kernel_size: 5
    weight_filler {
      type: "xavier"
      std: 0.03
    }
    bias_filler {
      type: "constant"
      value: 0.2
    }
  }
}
layer {
  name: "inception_3a/relu_5x5"
  type: "ReLU"
  bottom: "inception_3a/5x5"
  top: "inception_3a/5x5"
}
layer {
  name: "inception_3a/pool"
  type: "Pooling"
  bottom: "pool2/3x3_s2"
  top: "inception_3a/pool"
  pooling_param {
    pool: MAX
    kernel_size: 3
    stride: 1
    pad: 1
  }
}
layer {
  name: "inception_3a/pool_proj"
  type: "Convolution"
  bottom: "inception_3a/pool"
  top: "inception_3a/pool_proj"
  param {
    lr_mult: 1
    decay_mult: 1
  }
  param {
    lr_mult: 2
    decay_mult: 0
  }
  convolution_param {
    num_output: 32
    kernel_size: 1
    weight_filler {
      type: "xavier"
      std: 0.1
    }
    bias_filler {
      type: "constant"
      value: 0.2
    }
  }
}
layer {
  name: "inception_3a/relu_pool_proj"
  type: "ReLU"
  bottom: "inception_3a/pool_proj"
  top: "inception_3a/pool_proj"
}
layer {
  name: "inception_3a/output"
  type: "Concat"
  bottom: "inception_3a/1x1"
  bottom: "inception_3a/3x3"
  bottom: "inception_3a/5x5"
  bottom: "inception_3a/pool_proj"
  top: "inception_3a/output"
}
layer {
  name: "inception_3b/1x1"
  type: "Convolution"
  bottom: "inception_3a/output"
  top: "inception_3b/1x1"
  param {
    lr_mult: 1
    decay_mult: 1
  }
  param {
    lr_mult: 2
    decay_mult: 0
  }
  convolution_param {
    num_output: 128
    kernel_size: 1
    weight_filler {
      type: "xavier"
      std: 0.03
    }
    bias_filler {
      type: "constant"
      value: 0.2
    }
  }
}
layer {
  name: "inception_3b/relu_1x1"
  type: "ReLU"
  bottom: "inception_3b/1x1"
  top: "inception_3b/1x1"
}
layer {
  name: "inception_3b/3x3_reduce"
  type: "Convolution"
  bottom: "inception_3a/output"
  top: "inception_3b/3x3_reduce"
  param {
    lr_mult: 1
    decay_mult: 1
  }
  param {
    lr_mult: 2
    decay_mult: 0
  }
  convolution_param {
    num_output: 128
    kernel_size: 1
    weight_filler {
      type: "xavier"
      std: 0.09
    }
    bias_filler {
      type: "constant"
      value: 0.2
    }
  }
}
layer {
  name: "inception_3b/relu_3x3_reduce"
  type: "ReLU"
  bottom: "inception_3b/3x3_reduce"
  top: "inception_3b/3x3_reduce"
}
layer {
  name: "inception_3b/3x3"
  type: "Convolution"
  bottom: "inception_3b/3x3_reduce"
  top: "inception_3b/3x3"
  param {
    lr_mult: 1
    decay_mult: 1
  }
  param {
    lr_mult: 2
    decay_mult: 0
  }
  convolution_param {
    num_output: 192
    pad: 1
    kernel_size: 3
    weight_filler {
      type: "xavier"
      std: 0.03
    }
    bias_filler {
      type: "constant"
      value: 0.2
    }
  }
}
layer {
  name: "inception_3b/relu_3x3"
  type: "ReLU"
  bottom: "inception_3b/3x3"
  top: "inception_3b/3x3"
}
layer {
  name: "inception_3b/5x5_reduce"
  type: "Convolution"
  bottom: "inception_3a/output"
  top: "inception_3b/5x5_reduce"
  param {
    lr_mult: 1
    decay_mult: 1
  }
  param {
    lr_mult: 2
    decay_mult: 0
  }
  convolution_param {
    num_output: 32
    kernel_size: 1
    weight_filler {
      type: "xavier"
      std: 0.2
    }
    bias_filler {
      type: "constant"
      value: 0.2
    }
  }
}
layer {
  name: "inception_3b/relu_5x5_reduce"
  type: "ReLU"
  bottom: "inception_3b/5x5_reduce"
  top: "inception_3b/5x5_reduce"
}
layer {
  name: "inception_3b/5x5"
  type: "Convolution"
  bottom: "inception_3b/5x5_reduce"
  top: "inception_3b/5x5"
  param {
    lr_mult: 1
    decay_mult: 1
  }
  param {
    lr_mult: 2
    decay_mult: 0
  }
  convolution_param {
    num_output: 96
    pad: 2
    kernel_size: 5
    weight_filler {
      type: "xavier"
      std: 0.03
    }
    bias_filler {
      type: "constant"
      value: 0.2
    }
  }
}
layer {
  name: "inception_3b/relu_5x5"
  type: "ReLU"
  bottom: "inception_3b/5x5"
  top: "inception_3b/5x5"
}
layer {
  name: "inception_3b/pool"
  type: "Pooling"
  bottom: "inception_3a/output"
  top: "inception_3b/pool"
  pooling_param {
    pool: MAX
    kernel_size: 3
    stride: 1
    pad: 1
  }
}
layer {
  name: "inception_3b/pool_proj"
  type: "Convolution"
  bottom: "inception_3b/pool"
  top: "inception_3b/pool_proj"
  param {
    lr_mult: 1
    decay_mult: 1
  }
  param {
    lr_mult: 2
    decay_mult: 0
  }
  convolution_param {
    num_output: 64
    kernel_size: 1
    weight_filler {
      type: "xavier"
      std: 0.1
    }
    bias_filler {
      type: "constant"
      value: 0.2
    }
  }
}
layer {
  name: "inception_3b/relu_pool_proj"
  type: "ReLU"
  bottom: "inception_3b/pool_proj"
  top: "inception_3b/pool_proj"
}
layer {
  name: "inception_3b/output"
  type: "Concat"
  bottom: "inception_3b/1x1"
  bottom: "inception_3b/3x3"
  bottom: "inception_3b/5x5"
  bottom: "inception_3b/pool_proj"
  top: "inception_3b/output"
}
layer {
  name: "pool3/3x3_s2"
  type: "Pooling"
  bottom: "inception_3b/output"
  top: "pool3/3x3_s2"
  pooling_param {
    pool: MAX
    kernel_size: 3
    stride: 2
  }
}
layer {
  name: "inception_4a/1x1"
  type: "Convolution"
  bottom: "pool3/3x3_s2"
  top: "inception_4a/1x1"
  param {
    lr_mult: 1
    decay_mult: 1
  }
  param {
    lr_mult: 2
    decay_mult: 0
  }
  convolution_param {
    num_output: 192
    kernel_size: 1
    weight_filler {
      type: "xavier"
      std: 0.03
    }
    bias_filler {
      type: "constant"
      value: 0.2
    }
  }
}
layer {
  name: "inception_4a/relu_1x1"
  type: "ReLU"
  bottom: "inception_4a/1x1"
  top: "inception_4a/1x1"
}
layer {
  name: "inception_4a/3x3_reduce"
  type: "Convolution"
  bottom: "pool3/3x3_s2"
  top: "inception_4a/3x3_reduce"
  param {
    lr_mult: 1
    decay_mult: 1
  }
  param {
    lr_mult: 2
    decay_mult: 0
  }
  convolution_param {
    num_output: 96
    kernel_size: 1
    weight_filler {
      type: "xavier"
      std: 0.09
    }
    bias_filler {
      type: "constant"
      value: 0.2
    }
  }
}
layer {
  name: "inception_4a/relu_3x3_reduce"
  type: "ReLU"
  bottom: "inception_4a/3x3_reduce"
  top: "inception_4a/3x3_reduce"
}
layer {
  name: "inception_4a/3x3"
  type: "Convolution"
  bottom: "inception_4a/3x3_reduce"
  top: "inception_4a/3x3"
  param {
    lr_mult: 1
    decay_mult: 1
  }
  param {
    lr_mult: 2
    decay_mult: 0
  }
  convolution_param {
    num_output: 208
    pad: 1
    kernel_size: 3
    weight_filler {
      type: "xavier"
      std: 0.03
    }
    bias_filler {
      type: "constant"
      value: 0.2
    }
  }
}
layer {
  name: "inception_4a/relu_3x3"
  type: "ReLU"
  bottom: "inception_4a/3x3"
  top: "inception_4a/3x3"
}
layer {
  name: "inception_4a/5x5_reduce"
  type: "Convolution"
  bottom: "pool3/3x3_s2"
  top: "inception_4a/5x5_reduce"
  param {
    lr_mult: 1
    decay_mult: 1
  }
  param {
    lr_mult: 2
    decay_mult: 0
  }
  convolution_param {
    num_output: 16
    kernel_size: 1
    weight_filler {
      type: "xavier"
      std: 0.2
    }
    bias_filler {
      type: "constant"
      value: 0.2
    }
  }
}
layer {
  name: "inception_4a/relu_5x5_reduce"
  type: "ReLU"
  bottom: "inception_4a/5x5_reduce"
  top: "inception_4a/5x5_reduce"
}
layer {
  name: "inception_4a/5x5"
  type: "Convolution"
  bottom: "inception_4a/5x5_reduce"
  top: "inception_4a/5x5"
  param {
    lr_mult: 1
    decay_mult: 1
  }
  param {
    lr_mult: 2
    decay_mult: 0
  }
  convolution_param {
    num_output: 48
    pad: 2
    kernel_size: 5
    weight_filler {
      type: "xavier"
      std: 0.03
    }
    bias_filler {
      type: "constant"
      value: 0.2
    }
  }
}
layer {
  name: "inception_4a/relu_5x5"
  type: "ReLU"
  bottom: "inception_4a/5x5"
  top: "inception_4a/5x5"
}
layer {
  name: "inception_4a/pool"
  type: "Pooling"
  bottom: "pool3/3x3_s2"
  top: "inception_4a/pool"
  pooling_param {
    pool: MAX
    kernel_size: 3
    stride: 1
    pad: 1
  }
}
layer {
  name: "inception_4a/pool_proj"
  type: "Convolution"
  bottom: "inception_4a/pool"
  top: "inception_4a/pool_proj"
  param {
    lr_mult: 1
    decay_mult: 1
  }
  param {
    lr_mult: 2
    decay_mult: 0
  }
  convolution_param {
    num_output: 64
    kernel_size: 1
    weight_filler {
      type: "xavier"
      std: 0.1
    }
    bias_filler {
      type: "constant"
      value: 0.2
    }
  }
}
layer {
  name: "inception_4a/relu_pool_proj"
  type: "ReLU"
  bottom: "inception_4a/pool_proj"
  top: "inception_4a/pool_proj"
}
layer {
  name: "inception_4a/output"
  type: "Concat"
  bottom: "inception_4a/1x1"
  bottom: "inception_4a/3x3"
  bottom: "inception_4a/5x5"
  bottom: "inception_4a/pool_proj"
  top: "inception_4a/output"
}
layer {
  name: "inception_4b/1x1"
  type: "Convolution"
  bottom: "inception_4a/output"
  top: "inception_4b/1x1"
  param {
    lr_mult: 1
    decay_mult: 1
  }
  param {
    lr_mult: 2
    decay_mult: 0
  }
  convolution_param {
    num_output: 160
    kernel_size: 1
    weight_filler {
      type: "xavier"
      std: 0.03
    }
    bias_filler {
      type: "constant"
      value: 0.2
    }
  }
}
layer {
  name: "inception_4b/relu_1x1"
  type: "ReLU"
  bottom: "inception_4b/1x1"
  top: "inception_4b/1x1"
}
layer {
  name: "inception_4b/3x3_reduce"
  type: "Convolution"
  bottom: "inception_4a/output"
  top: "inception_4b/3x3_reduce"
  param {
    lr_mult: 1
    decay_mult: 1
  }
  param {
    lr_mult: 2
    decay_mult: 0
  }
  convolution_param {
    num_output: 112
    kernel_size: 1
    weight_filler {
      type: "xavier"
      std: 0.09
    }
    bias_filler {
      type: "constant"
      value: 0.2
    }
  }
}
layer {
  name: "inception_4b/relu_3x3_reduce"
  type: "ReLU"
  bottom: "inception_4b/3x3_reduce"
  top: "inception_4b/3x3_reduce"
}
layer {
  name: "inception_4b/3x3"
  type: "Convolution"
  bottom: "inception_4b/3x3_reduce"
  top: "inception_4b/3x3"
  param {
    lr_mult: 1
    decay_mult: 1
  }
  param {
    lr_mult: 2
    decay_mult: 0
  }
  convolution_param {
    num_output: 224
    pad: 1
    kernel_size: 3
    weight_filler {
      type: "xavier"
      std: 0.03
    }
    bias_filler {
      type: "constant"
      value: 0.2
    }
  }
}
layer {
  name: "inception_4b/relu_3x3"
  type: "ReLU"
  bottom: "inception_4b/3x3"
  top: "inception_4b/3x3"
}
layer {
  name: "inception_4b/5x5_reduce"
  type: "Convolution"
  bottom: "inception_4a/output"
  top: "inception_4b/5x5_reduce"
  param {
    lr_mult: 1
    decay_mult: 1
  }
  param {
    lr_mult: 2
    decay_mult: 0
  }
  convolution_param {
    num_output: 24
    kernel_size: 1
    weight_filler {
      type: "xavier"
      std: 0.2
    }
    bias_filler {
      type: "constant"
      value: 0.2
    }
  }
}
layer {
  name: "inception_4b/relu_5x5_reduce"
  type: "ReLU"
  bottom: "inception_4b/5x5_reduce"
  top: "inception_4b/5x5_reduce"
}
layer {
  name: "inception_4b/5x5"
  type: "Convolution"
  bottom: "inception_4b/5x5_reduce"
  top: "inception_4b/5x5"
  param {
    lr_mult: 1
    decay_mult: 1
  }
  param {
    lr_mult: 2
    decay_mult: 0
  }
  convolution_param {
    num_output: 64
    pad: 2
    kernel_size: 5
    weight_filler {
      type: "xavier"
      std: 0.03
    }
    bias_filler {
      type: "constant"
      value: 0.2
    }
  }
}
layer {
  name: "inception_4b/relu_5x5"
  type: "ReLU"
  bottom: "inception_4b/5x5"
  top: "inception_4b/5x5"
}
layer {
  name: "inception_4b/pool"
  type: "Pooling"
  bottom: "inception_4a/output"
  top: "inception_4b/pool"
  pooling_param {
    pool: MAX
    kernel_size: 3
    stride: 1
    pad: 1
  }
}
layer {
  name: "inception_4b/pool_proj"
  type: "Convolution"
  bottom: "inception_4b/pool"
  top: "inception_4b/pool_proj"
  param {
    lr_mult: 1
    decay_mult: 1
  }
  param {
    lr_mult: 2
    decay_mult: 0
  }
  convolution_param {
    num_output: 64
    kernel_size: 1
    weight_filler {
      type: "xavier"
      std: 0.1
    }
    bias_filler {
      type: "constant"
      value: 0.2
    }
  }
}
layer {
  name: "inception_4b/relu_pool_proj"
  type: "ReLU"
  bottom: "inception_4b/pool_proj"
  top: "inception_4b/pool_proj"
}
layer {
  name: "inception_4b/output"
  type: "Concat"
  bottom: "inception_4b/1x1"
  bottom: "inception_4b/3x3"
  bottom: "inception_4b/5x5"
  bottom: "inception_4b/pool_proj"
  top: "inception_4b/output"
}
layer {
  name: "inception_4c/1x1"
  type: "Convolution"
  bottom: "inception_4b/output"
  top: "inception_4c/1x1"
  param {
    lr_mult: 1
    decay_mult: 1
  }
  param {
    lr_mult: 2
    decay_mult: 0
  }
  convolution_param {
    num_output: 128
    kernel_size: 1
    weight_filler {
      type: "xavier"
      std: 0.03
    }
    bias_filler {
      type: "constant"
      value: 0.2
    }
  }
}
layer {
  name: "inception_4c/relu_1x1"
  type: "ReLU"
  bottom: "inception_4c/1x1"
  top: "inception_4c/1x1"
}
layer {
  name: "inception_4c/3x3_reduce"
  type: "Convolution"
  bottom: "inception_4b/output"
  top: "inception_4c/3x3_reduce"
  param {
    lr_mult: 1
    decay_mult: 1
  }
  param {
    lr_mult: 2
    decay_mult: 0
  }
  convolution_param {
    num_output: 128
    kernel_size: 1
    weight_filler {
      type: "xavier"
      std: 0.09
    }
    bias_filler {
      type: "constant"
      value: 0.2
    }
  }
}
layer {
  name: "inception_4c/relu_3x3_reduce"
  type: "ReLU"
  bottom: "inception_4c/3x3_reduce"
  top: "inception_4c/3x3_reduce"
}
layer {
  name: "inception_4c/3x3"
  type: "Convolution"
  bottom: "inception_4c/3x3_reduce"
  top: "inception_4c/3x3"
  param {
    lr_mult: 1
    decay_mult: 1
  }
  param {
    lr_mult: 2
    decay_mult: 0
  }
  convolution_param {
    num_output: 256
    pad: 1
    kernel_size: 3
    weight_filler {
      type: "xavier"
      std: 0.03
    }
    bias_filler {
      type: "constant"
      value: 0.2
    }
  }
}
layer {
  name: "inception_4c/relu_3x3"
  type: "ReLU"
  bottom: "inception_4c/3x3"
  top: "inception_4c/3x3"
}
layer {
  name: "inception_4c/5x5_reduce"
  type: "Convolution"
  bottom: "inception_4b/output"
  top: "inception_4c/5x5_reduce"
  param {
    lr_mult: 1
    decay_mult: 1
  }
  param {
    lr_mult: 2
    decay_mult: 0
  }
  convolution_param {
    num_output: 24
    kernel_size: 1
    weight_filler {
      type: "xavier"
      std: 0.2
    }
    bias_filler {
      type: "constant"
      value: 0.2
    }
  }
}
layer {
  name: "inception_4c/relu_5x5_reduce"
  type: "ReLU"
  bottom: "inception_4c/5x5_reduce"
  top: "inception_4c/5x5_reduce"
}
layer {
  name: "inception_4c/5x5"
  type: "Convolution"
  bottom: "inception_4c/5x5_reduce"
  top: "inception_4c/5x5"
  param {
    lr_mult: 1
    decay_mult: 1
  }
  param {
    lr_mult: 2
    decay_mult: 0
  }
  convolution_param {
    num_output: 64
    pad: 2
    kernel_size: 5
    weight_filler {
      type: "xavier"
      std: 0.03
    }
    bias_filler {
      type: "constant"
      value: 0.2
    }
  }
}
layer {
  name: "inception_4c/relu_5x5"
  type: "ReLU"
  bottom: "inception_4c/5x5"
  top: "inception_4c/5x5"
}
layer {
  name: "inception_4c/pool"
  type: "Pooling"
  bottom: "inception_4b/output"
  top: "inception_4c/pool"
  pooling_param {
    pool: MAX
    kernel_size: 3
    stride: 1
    pad: 1
  }
}
layer {
  name: "inception_4c/pool_proj"
  type: "Convolution"
  bottom: "inception_4c/pool"
  top: "inception_4c/pool_proj"
  param {
    lr_mult: 1
    decay_mult: 1
  }
  param {
    lr_mult: 2
    decay_mult: 0
  }
  convolution_param {
    num_output: 64
    kernel_size: 1
    weight_filler {
      type: "xavier"
      std: 0.1
    }
    bias_filler {
      type: "constant"
      value: 0.2
    }
  }
}
layer {
  name: "inception_4c/relu_pool_proj"
  type: "ReLU"
  bottom: "inception_4c/pool_proj"
  top: "inception_4c/pool_proj"
}
layer {
  name: "inception_4c/output"
  type: "Concat"
  bottom: "inception_4c/1x1"
  bottom: "inception_4c/3x3"
  bottom: "inception_4c/5x5"
  bottom: "inception_4c/pool_proj"
  top: "inception_4c/output"
}
layer {
  name: "inception_4d/1x1"
  type: "Convolution"
  bottom: "inception_4c/output"
  top: "inception_4d/1x1"
  param {
    lr_mult: 1
    decay_mult: 1
  }
  param {
    lr_mult: 2
    decay_mult: 0
  }
  convolution_param {
    num_output: 112
    kernel_size: 1
    weight_filler {
      type: "xavier"
      std: 0.03
    }
    bias_filler {
      type: "constant"
      value: 0.2
    }
  }
}
layer {
  name: "inception_4d/relu_1x1"
  type: "ReLU"
  bottom: "inception_4d/1x1"
  top: "inception_4d/1x1"
}
layer {
  name: "inception_4d/3x3_reduce"
  type: "Convolution"
  bottom: "inception_4c/output"
  top: "inception_4d/3x3_reduce"
  param {
    lr_mult: 1
    decay_mult: 1
  }
  param {
    lr_mult: 2
    decay_mult: 0
  }
  convolution_param {
    num_output: 144
    kernel_size: 1
    weight_filler {
      type: "xavier"
      std: 0.09
    }
    bias_filler {
      type: "constant"
      value: 0.2
    }
  }
}
layer {
  name: "inception_4d/relu_3x3_reduce"
  type: "ReLU"
  bottom: "inception_4d/3x3_reduce"
  top: "inception_4d/3x3_reduce"
}
layer {
  name: "inception_4d/3x3"
  type: "Convolution"
  bottom: "inception_4d/3x3_reduce"
  top: "inception_4d/3x3"
  param {
    lr_mult: 1
    decay_mult: 1
  }
  param {
    lr_mult: 2
    decay_mult: 0
  }
  convolution_param {
    num_output: 288
    pad: 1
    kernel_size: 3
    weight_filler {
      type: "xavier"
      std: 0.03
    }
    bias_filler {
      type: "constant"
      value: 0.2
    }
  }
}
layer {
  name: "inception_4d/relu_3x3"
  type: "ReLU"
  bottom: "inception_4d/3x3"
  top: "inception_4d/3x3"
}
layer {
  name: "inception_4d/5x5_reduce"
  type: "Convolution"
  bottom: "inception_4c/output"
  top: "inception_4d/5x5_reduce"
  param {
    lr_mult: 1
    decay_mult: 1
  }
  param {
    lr_mult: 2
    decay_mult: 0
  }
  convolution_param {
    num_output: 32
    kernel_size: 1
    weight_filler {
      type: "xavier"
      std: 0.2
    }
    bias_filler {
      type: "constant"
      value: 0.2
    }
  }
}
layer {
  name: "inception_4d/relu_5x5_reduce"
  type: "ReLU"
  bottom: "inception_4d/5x5_reduce"
  top: "inception_4d/5x5_reduce"
}
layer {
  name: "inception_4d/5x5"
  type: "Convolution"
  bottom: "inception_4d/5x5_reduce"
  top: "inception_4d/5x5"
  param {
    lr_mult: 1
    decay_mult: 1
  }
  param {
    lr_mult: 2
    decay_mult: 0
  }
  convolution_param {
    num_output: 64
    pad: 2
    kernel_size: 5
    weight_filler {
      type: "xavier"
      std: 0.03
    }
    bias_filler {
      type: "constant"
      value: 0.2
    }
  }
}
layer {
  name: "inception_4d/relu_5x5"
  type: "ReLU"
  bottom: "inception_4d/5x5"
  top: "inception_4d/5x5"
}
layer {
  name: "inception_4d/pool"
  type: "Pooling"
  bottom: "inception_4c/output"
  top: "inception_4d/pool"
  pooling_param {
    pool: MAX
    kernel_size: 3
    stride: 1
    pad: 1
  }
}
layer {
  name: "inception_4d/pool_proj"
  type: "Convolution"
  bottom: "inception_4d/pool"
  top: "inception_4d/pool_proj"
  param {
    lr_mult: 1
    decay_mult: 1
  }
  param {
    lr_mult: 2
    decay_mult: 0
  }
  convolution_param {
    num_output: 64
    kernel_size: 1
    weight_filler {
      type: "xavier"
      std: 0.1
    }
    bias_filler {
      type: "constant"
      value: 0.2
    }
  }
}
layer {
  name: "inception_4d/relu_pool_proj"
  type: "ReLU"
  bottom: "inception_4d/pool_proj"
  top: "inception_4d/pool_proj"
}
layer {
  name: "inception_4d/output"
  type: "Concat"
  bottom: "inception_4d/1x1"
  bottom: "inception_4d/3x3"
…
I1130 12:35:52.981199  7256 net.cpp:84] Creating Layer inception_4c/1x1
I1130 12:35:52.981206  7256 net.cpp:406] inception_4c/1x1 <- inception_4b/output_inception_4b/output_0_split_0
I1130 12:35:52.981215  7256 net.cpp:380] inception_4c/1x1 -> inception_4c/1x1
I1130 12:35:52.982008  7256 net.cpp:122] Setting up inception_4c/1x1
I1130 12:35:52.982023  7256 net.cpp:129] Top shape: 32 128 14 14 (802816)
I1130 12:35:52.982028  7256 net.cpp:137] Memory required for data: 1359569280
I1130 12:35:52.982036  7256 layer_factory.hpp:77] Creating layer inception_4c/relu_1x1
I1130 12:35:52.982045  7256 net.cpp:84] Creating Layer inception_4c/relu_1x1
I1130 12:35:52.982053  7256 net.cpp:406] inception_4c/relu_1x1 <- inception_4c/1x1
I1130 12:35:52.982061  7256 net.cpp:367] inception_4c/relu_1x1 -> inception_4c/1x1 (in-place)
I1130 12:35:52.982071  7256 net.cpp:122] Setting up inception_4c/relu_1x1
I1130 12:35:52.982079  7256 net.cpp:129] Top shape: 32 128 14 14 (802816)
I1130 12:35:52.982085  7256 net.cpp:137] Memory required for data: 1362780544
I1130 12:35:52.982090  7256 layer_factory.hpp:77] Creating layer inception_4c/3x3_reduce
I1130 12:35:52.982101  7256 net.cpp:84] Creating Layer inception_4c/3x3_reduce
I1130 12:35:52.982108  7256 net.cpp:406] inception_4c/3x3_reduce <- inception_4b/output_inception_4b/output_0_split_1
I1130 12:35:52.982117  7256 net.cpp:380] inception_4c/3x3_reduce -> inception_4c/3x3_reduce
I1130 12:35:52.982915  7256 net.cpp:122] Setting up inception_4c/3x3_reduce
I1130 12:35:52.982929  7256 net.cpp:129] Top shape: 32 128 14 14 (802816)
I1130 12:35:52.982934  7256 net.cpp:137] Memory required for data: 1365991808
I1130 12:35:52.982942  7256 layer_factory.hpp:77] Creating layer inception_4c/relu_3x3_reduce
I1130 12:35:52.982951  7256 net.cpp:84] Creating Layer inception_4c/relu_3x3_reduce
I1130 12:35:52.982959  7256 net.cpp:406] inception_4c/relu_3x3_reduce <- inception_4c/3x3_reduce
I1130 12:35:52.982967  7256 net.cpp:367] inception_4c/relu_3x3_reduce -> inception_4c/3x3_reduce (in-place)
I1130 12:35:52.982976  7256 net.cpp:122] Setting up inception_4c/relu_3x3_reduce
I1130 12:35:52.982985  7256 net.cpp:129] Top shape: 32 128 14 14 (802816)
I1130 12:35:52.982991  7256 net.cpp:137] Memory required for data: 1369203072
I1130 12:35:52.982996  7256 layer_factory.hpp:77] Creating layer inception_4c/3x3
I1130 12:35:52.983006  7256 net.cpp:84] Creating Layer inception_4c/3x3
I1130 12:35:52.983011  7256 net.cpp:406] inception_4c/3x3 <- inception_4c/3x3_reduce
I1130 12:35:52.983019  7256 net.cpp:380] inception_4c/3x3 -> inception_4c/3x3
I1130 12:35:52.986127  7256 net.cpp:122] Setting up inception_4c/3x3
I1130 12:35:52.986142  7256 net.cpp:129] Top shape: 32 256 14 14 (1605632)
I1130 12:35:52.986147  7256 net.cpp:137] Memory required for data: 1375625600
I1130 12:35:52.986158  7256 layer_factory.hpp:77] Creating layer inception_4c/relu_3x3
I1130 12:35:52.986167  7256 net.cpp:84] Creating Layer inception_4c/relu_3x3
I1130 12:35:52.986174  7256 net.cpp:406] inception_4c/relu_3x3 <- inception_4c/3x3
I1130 12:35:52.986182  7256 net.cpp:367] inception_4c/relu_3x3 -> inception_4c/3x3 (in-place)
I1130 12:35:52.986192  7256 net.cpp:122] Setting up inception_4c/relu_3x3
I1130 12:35:52.986199  7256 net.cpp:129] Top shape: 32 256 14 14 (1605632)
I1130 12:35:52.986205  7256 net.cpp:137] Memory required for data: 1382048128
I1130 12:35:52.986210  7256 layer_factory.hpp:77] Creating layer inception_4c/5x5_reduce
I1130 12:35:52.986222  7256 net.cpp:84] Creating Layer inception_4c/5x5_reduce
I1130 12:35:52.986229  7256 net.cpp:406] inception_4c/5x5_reduce <- inception_4b/output_inception_4b/output_0_split_2
I1130 12:35:52.986238  7256 net.cpp:380] inception_4c/5x5_reduce -> inception_4c/5x5_reduce
I1130 12:35:52.986644  7256 net.cpp:122] Setting up inception_4c/5x5_reduce
I1130 12:35:52.986656  7256 net.cpp:129] Top shape: 32 24 14 14 (150528)
I1130 12:35:52.986662  7256 net.cpp:137] Memory required for data: 1382650240
I1130 12:35:52.986672  7256 layer_factory.hpp:77] Creating layer inception_4c/relu_5x5_reduce
I1130 12:35:52.986681  7256 net.cpp:84] Creating Layer inception_4c/relu_5x5_reduce
I1130 12:35:52.986688  7256 net.cpp:406] inception_4c/relu_5x5_reduce <- inception_4c/5x5_reduce
I1130 12:35:52.986698  7256 net.cpp:367] inception_4c/relu_5x5_reduce -> inception_4c/5x5_reduce (in-place)
I1130 12:35:52.986707  7256 net.cpp:122] Setting up inception_4c/relu_5x5_reduce
I1130 12:35:52.986716  7256 net.cpp:129] Top shape: 32 24 14 14 (150528)
I1130 12:35:52.986722  7256 net.cpp:137] Memory required for data: 1383252352
I1130 12:35:52.986727  7256 layer_factory.hpp:77] Creating layer inception_4c/5x5
I1130 12:35:52.986738  7256 net.cpp:84] Creating Layer inception_4c/5x5
I1130 12:35:52.986744  7256 net.cpp:406] inception_4c/5x5 <- inception_4c/5x5_reduce
I1130 12:35:52.986753  7256 net.cpp:380] inception_4c/5x5 -> inception_4c/5x5
I1130 12:35:52.987341  7256 net.cpp:122] Setting up inception_4c/5x5
I1130 12:35:52.987354  7256 net.cpp:129] Top shape: 32 64 14 14 (401408)
I1130 12:35:52.987360  7256 net.cpp:137] Memory required for data: 1384857984
I1130 12:35:52.987370  7256 layer_factory.hpp:77] Creating layer inception_4c/relu_5x5
I1130 12:35:52.987378  7256 net.cpp:84] Creating Layer inception_4c/relu_5x5
I1130 12:35:52.987386  7256 net.cpp:406] inception_4c/relu_5x5 <- inception_4c/5x5
I1130 12:35:52.987396  7256 net.cpp:367] inception_4c/relu_5x5 -> inception_4c/5x5 (in-place)
I1130 12:35:52.987404  7256 net.cpp:122] Setting up inception_4c/relu_5x5
I1130 12:35:52.987412  7256 net.cpp:129] Top shape: 32 64 14 14 (401408)
I1130 12:35:52.987418  7256 net.cpp:137] Memory required for data: 1386463616
I1130 12:35:52.987423  7256 layer_factory.hpp:77] Creating layer inception_4c/pool
I1130 12:35:52.987432  7256 net.cpp:84] Creating Layer inception_4c/pool
I1130 12:35:52.987439  7256 net.cpp:406] inception_4c/pool <- inception_4b/output_inception_4b/output_0_split_3
I1130 12:35:52.987448  7256 net.cpp:380] inception_4c/pool -> inception_4c/pool
I1130 12:35:52.987500  7256 net.cpp:122] Setting up inception_4c/pool
I1130 12:35:52.987511  7256 net.cpp:129] Top shape: 32 512 14 14 (3211264)
I1130 12:35:52.987516  7256 net.cpp:137] Memory required for data: 1399308672
I1130 12:35:52.987521  7256 layer_factory.hpp:77] Creating layer inception_4c/pool_proj
I1130 12:35:52.987531  7256 net.cpp:84] Creating Layer inception_4c/pool_proj
I1130 12:35:52.987537  7256 net.cpp:406] inception_4c/pool_proj <- inception_4c/pool
I1130 12:35:52.987545  7256 net.cpp:380] inception_4c/pool_proj -> inception_4c/pool_proj
I1130 12:35:52.988088  7256 net.cpp:122] Setting up inception_4c/pool_proj
I1130 12:35:52.988101  7256 net.cpp:129] Top shape: 32 64 14 14 (401408)
I1130 12:35:52.988106  7256 net.cpp:137] Memory required for data: 1400914304
I1130 12:35:52.988126  7256 layer_factory.hpp:77] Creating layer inception_4c/relu_pool_proj
I1130 12:35:52.988134  7256 net.cpp:84] Creating Layer inception_4c/relu_pool_proj
I1130 12:35:52.988142  7256 net.cpp:406] inception_4c/relu_pool_proj <- inception_4c/pool_proj
I1130 12:35:52.988150  7256 net.cpp:367] inception_4c/relu_pool_proj -> inception_4c/pool_proj (in-place)
I1130 12:35:52.988160  7256 net.cpp:122] Setting up inception_4c/relu_pool_proj
I1130 12:35:52.988168  7256 net.cpp:129] Top shape: 32 64 14 14 (401408)
I1130 12:35:52.988173  7256 net.cpp:137] Memory required for data: 1402519936
I1130 12:35:52.988178  7256 layer_factory.hpp:77] Creating layer inception_4c/output
I1130 12:35:52.988185  7256 net.cpp:84] Creating Layer inception_4c/output
I1130 12:35:52.988193  7256 net.cpp:406] inception_4c/output <- inception_4c/1x1
I1130 12:35:52.988199  7256 net.cpp:406] inception_4c/output <- inception_4c/3x3
I1130 12:35:52.988206  7256 net.cpp:406] inception_4c/output <- inception_4c/5x5
I1130 12:35:52.988214  7256 net.cpp:406] inception_4c/output <- inception_4c/pool_proj
I1130 12:35:52.988222  7256 net.cpp:380] inception_4c/output -> inception_4c/output
I1130 12:35:52.988257  7256 net.cpp:122] Setting up inception_4c/output
I1130 12:35:52.988267  7256 net.cpp:129] Top shape: 32 512 14 14 (3211264)
I1130 12:35:52.988272  7256 net.cpp:137] Memory required for data: 1415364992
I1130 12:35:52.988277  7256 layer_factory.hpp:77] Creating layer inception_4c/output_inception_4c/output_0_split
I1130 12:35:52.988286  7256 net.cpp:84] Creating Layer inception_4c/output_inception_4c/output_0_split
I1130 12:35:52.988291  7256 net.cpp:406] inception_4c/output_inception_4c/output_0_split <- inception_4c/output
I1130 12:35:52.988298  7256 net.cpp:380] inception_4c/output_inception_4c/output_0_split -> inception_4c/output_inception_4c/output_0_split_0
I1130 12:35:52.988307  7256 net.cpp:380] inception_4c/output_inception_4c/output_0_split -> inception_4c/output_inception_4c/output_0_split_1
I1130 12:35:52.988317  7256 net.cpp:380] inception_4c/output_inception_4c/output_0_split -> inception_4c/output_inception_4c/output_0_split_2
I1130 12:35:52.988328  7256 net.cpp:380] inception_4c/output_inception_4c/output_0_split -> inception_4c/output_inception_4c/output_0_split_3
I1130 12:35:52.988404  7256 net.cpp:122] Setting up inception_4c/output_inception_4c/output_0_split
I1130 12:35:52.988415  7256 net.cpp:129] Top shape: 32 512 14 14 (3211264)
I1130 12:35:52.988421  7256 net.cpp:129] Top shape: 32 512 14 14 (3211264)
I1130 12:35:52.988430  7256 net.cpp:129] Top shape: 32 512 14 14 (3211264)
I1130 12:35:52.988435  7256 net.cpp:129] Top shape: 32 512 14 14 (3211264)
I1130 12:35:52.988440  7256 net.cpp:137] Memory required for data: 1466745216
I1130 12:35:52.988446  7256 layer_factory.hpp:77] Creating layer inception_4d/1x1
I1130 12:35:52.988458  7256 net.cpp:84] Creating Layer inception_4d/1x1
I1130 12:35:52.988466  7256 net.cpp:406] inception_4d/1x1 <- inception_4c/output_inception_4c/output_0_split_0
I1130 12:35:52.988476  7256 net.cpp:380] inception_4d/1x1 -> inception_4d/1x1
I1130 12:35:52.989706  7256 net.cpp:122] Setting up inception_4d/1x1
I1130 12:35:52.989722  7256 net.cpp:129] Top shape: 32 112 14 14 (702464)
I1130 12:35:52.989727  7256 net.cpp:137] Memory required for data: 1469555072
I1130 12:35:52.989738  7256 layer_factory.hpp:77] Creating layer inception_4d/relu_1x1
I1130 12:35:52.989748  7256 net.cpp:84] Creating Layer inception_4d/relu_1x1
I1130 12:35:52.989756  7256 net.cpp:406] inception_4d/relu_1x1 <- inception_4d/1x1
I1130 12:35:52.989764  7256 net.cpp:367] inception_4d/relu_1x1 -> inception_4d/1x1 (in-place)
I1130 12:35:52.989773  7256 net.cpp:122] Setting up inception_4d/relu_1x1
I1130 12:35:52.989779  7256 net.cpp:129] Top shape: 32 112 14 14 (702464)
I1130 12:35:52.989784  7256 net.cpp:137] Memory required for data: 1472364928
I1130 12:35:52.989789  7256 layer_factory.hpp:77] Creating layer inception_4d/3x3_reduce
I1130 12:35:52.989799  7256 net.cpp:84] Creating Layer inception_4d/3x3_reduce
I1130 12:35:52.989806  7256 net.cpp:406] inception_4d/3x3_reduce <- inception_4c/output_inception_4c/output_0_split_1
I1130 12:35:52.989816  7256 net.cpp:380] inception_4d/3x3_reduce -> inception_4d/3x3_reduce
I1130 12:35:52.990706  7256 net.cpp:122] Setting up inception_4d/3x3_reduce
I1130 12:35:52.990720  7256 net.cpp:129] Top shape: 32 144 14 14 (903168)
I1130 12:35:52.990725  7256 net.cpp:137] Memory required for data: 1475977600
I1130 12:35:52.990736  7256 layer_factory.hpp:77] Creating layer inception_4d/relu_3x3_reduce
I1130 12:35:52.990743  7256 net.cpp:84] Creating Layer inception_4d/relu_3x3_reduce
I1130 12:35:52.990751  7256 net.cpp:406] inception_4d/relu_3x3_reduce <- inception_4d/3x3_reduce
I1130 12:35:52.990759  7256 net.cpp:367] inception_4d/relu_3x3_reduce -> inception_4d/3x3_reduce (in-place)
I1130 12:35:52.990768  7256 net.cpp:122] Setting up inception_4d/relu_3x3_reduce
I1130 12:35:52.990774  7256 net.cpp:129] Top shape: 32 144 14 14 (903168)
I1130 12:35:52.990779  7256 net.cpp:137] Memory required for data: 1479590272
I1130 12:35:52.990783  7256 layer_factory.hpp:77] Creating layer inception_4d/3x3
I1130 12:35:52.990793  7256 net.cpp:84] Creating Layer inception_4d/3x3
I1130 12:35:52.990798  7256 net.cpp:406] inception_4d/3x3 <- inception_4d/3x3_reduce
I1130 12:35:52.990806  7256 net.cpp:380] inception_4d/3x3 -> inception_4d/3x3
I1130 12:35:52.994485  7256 net.cpp:122] Setting up inception_4d/3x3
I1130 12:35:52.994500  7256 net.cpp:129] Top shape: 32 288 14 14 (1806336)
I1130 12:35:52.994505  7256 net.cpp:137] Memory required for data: 1486815616
I1130 12:35:52.994515  7256 layer_factory.hpp:77] Creating layer inception_4d/relu_3x3
I1130 12:35:52.994524  7256 net.cpp:84] Creating Layer inception_4d/relu_3x3
I1130 12:35:52.994529  7256 net.cpp:406] inception_4d/relu_3x3 <- inception_4d/3x3
I1130 12:35:52.994537  7256 net.cpp:367] inception_4d/relu_3x3 -> inception_4d/3x3 (in-place)
I1130 12:35:52.994545  7256 net.cpp:122] Setting up inception_4d/relu_3x3
I1130 12:35:52.994552  7256 net.cpp:129] Top shape: 32 288 14 14 (1806336)
I1130 12:35:52.994556  7256 net.cpp:137] Memory required for data: 1494040960
I1130 12:35:52.994561  7256 layer_factory.hpp:77] Creating layer inception_4d/5x5_reduce
I1130 12:35:52.994570  7256 net.cpp:84] Creating Layer inception_4d/5x5_reduce
I1130 12:35:52.994577  7256 net.cpp:406] inception_4d/5x5_reduce <- inception_4c/output_inception_4c/output_0_split_2
I1130 12:35:52.994587  7256 net.cpp:380] inception_4d/5x5_reduce -> inception_4d/5x5_reduce
I1130 12:35:52.994999  7256 net.cpp:122] Setting up inception_4d/5x5_reduce
I1130 12:35:52.995012  7256 net.cpp:129] Top shape: 32 32 14 14 (200704)
I1130 12:35:52.995016  7256 net.cpp:137] Memory required for data: 1494843776
I1130 12:35:52.995024  7256 layer_factory.hpp:77] Creating layer inception_4d/relu_5x5_reduce
I1130 12:35:52.995033  7256 net.cpp:84] Creating Layer inception_4d/relu_5x5_reduce
I1130 12:35:52.995038  7256 net.cpp:406] inception_4d/relu_5x5_reduce <- inception_4d/5x5_reduce
I1130 12:35:52.995044  7256 net.cpp:367] inception_4d/relu_5x5_reduce -> inception_4d/5x5_reduce (in-place)
I1130 12:35:52.995052  7256 net.cpp:122] Setting up inception_4d/relu_5x5_reduce
I1130 12:35:52.995059  7256 net.cpp:129] Top shape: 32 32 14 14 (200704)
I1130 12:35:52.995064  7256 net.cpp:137] Memory required for data: 1495646592
I1130 12:35:52.995069  7256 layer_factory.hpp:77] Creating layer inception_4d/5x5
I1130 12:35:52.995080  7256 net.cpp:84] Creating Layer inception_4d/5x5
I1130 12:35:52.995087  7256 net.cpp:406] inception_4d/5x5 <- inception_4d/5x5_reduce
I1130 12:35:52.995095  7256 net.cpp:380] inception_4d/5x5 -> inception_4d/5x5
I1130 12:35:52.995766  7256 net.cpp:122] Setting up inception_4d/5x5
I1130 12:35:52.995779  7256 net.cpp:129] Top shape: 32 64 14 14 (401408)
I1130 12:35:52.995784  7256 net.cpp:137] Memory required for data: 1497252224
I1130 12:35:52.995792  7256 layer_factory.hpp:77] Creating layer inception_4d/relu_5x5
I1130 12:35:52.995800  7256 net.cpp:84] Creating Layer inception_4d/relu_5x5
I1130 12:35:52.995805  7256 net.cpp:406] inception_4d/relu_5x5 <- inception_4d/5x5
I1130 12:35:52.995813  7256 net.cpp:367] inception_4d/relu_5x5 -> inception_4d/5x5 (in-place)
I1130 12:35:52.995820  7256 net.cpp:122] Setting up inception_4d/relu_5x5
I1130 12:35:52.995826  7256 net.cpp:129] Top shape: 32 64 14 14 (401408)
I1130 12:35:52.995831  7256 net.cpp:137] Memory required for data: 1498857856
I1130 12:35:52.995836  7256 layer_factory.hpp:77] Creating layer inception_4d/pool
I1130 12:35:52.995843  7256 net.cpp:84] Creating Layer inception_4d/pool
I1130 12:35:52.995848  7256 net.cpp:406] inception_4d/pool <- inception_4c/output_inception_4c/output_0_split_3
I1130 12:35:52.995857  7256 net.cpp:380] inception_4d/pool -> inception_4d/pool
I1130 12:35:52.995908  7256 net.cpp:122] Setting up inception_4d/pool
I1130 12:35:52.995918  7256 net.cpp:129] Top shape: 32 512 14 14 (3211264)
I1130 12:35:52.995924  7256 net.cpp:137] Memory required for data: 1511702912
I1130 12:35:52.995929  7256 layer_factory.hpp:77] Creating layer inception_4d/pool_proj
I1130 12:35:52.995939  7256 net.cpp:84] Creating Layer inception_4d/pool_proj
I1130 12:35:52.995947  7256 net.cpp:406] inception_4d/pool_proj <- inception_4d/pool
I1130 12:35:52.995956  7256 net.cpp:380] inception_4d/pool_proj -> inception_4d/pool_proj
I1130 12:35:52.996476  7256 net.cpp:122] Setting up inception_4d/pool_proj
I1130 12:35:52.996489  7256 net.cpp:129] Top shape: 32 64 14 14 (401408)
I1130 12:35:52.996495  7256 net.cpp:137] Memory required for data: 1513308544
I1130 12:35:52.996503  7256 layer_factory.hpp:77] Creating layer inception_4d/relu_pool_proj
I1130 12:35:52.996512  7256 net.cpp:84] Creating Layer inception_4d/relu_pool_proj
I1130 12:35:52.996520  7256 net.cpp:406] inception_4d/relu_pool_proj <- inception_4d/pool_proj
I1130 12:35:52.996526  7256 net.cpp:367] inception_4d/relu_pool_proj -> inception_4d/pool_proj (in-place)
I1130 12:35:52.996534  7256 net.cpp:122] Setting up inception_4d/relu_pool_proj
I1130 12:35:52.996541  7256 net.cpp:129] Top shape: 32 64 14 14 (401408)
I1130 12:35:52.996546  7256 net.cpp:137] Memory required for data: 1514914176
I1130 12:35:52.996549  7256 layer_factory.hpp:77] Creating layer inception_4d/output
I1130 12:35:52.996557  7256 net.cpp:84] Creating Layer inception_4d/output
I1130 12:35:52.996564  7256 net.cpp:406] inception_4d/output <- inception_4d/1x1
I1130 12:35:52.996570  7256 net.cpp:406] inception_4d/output <- inception_4d/3x3
I1130 12:35:52.996577  7256 net.cpp:406] inception_4d/output <- inception_4d/5x5
I1130 12:35:52.996583  7256 net.cpp:406] inception_4d/output <- inception_4d/pool_proj
I1130 12:35:52.996592  7256 net.cpp:380] inception_4d/output -> inception_4d/output
I1130 12:35:52.996625  7256 net.cpp:122] Setting up inception_4d/output
I1130 12:35:52.996635  7256 net.cpp:129] Top shape: 32 528 14 14 (3311616)
I1130 12:35:52.996641  7256 net.cpp:137] Memory required for data: 1528160640
I1130 12:35:52.996649  7256 layer_factory.hpp:77] Creating layer inception_4d/output_inception_4d/output_0_split
I1130 12:35:52.996656  7256 net.cpp:84] Creating Layer inception_4d/output_inception_4d/output_0_split
I1130 12:35:52.996665  7256 net.cpp:406] inception_4d/output_inception_4d/output_0_split <- inception_4d/output
I1130 12:35:52.996673  7256 net.cpp:380] inception_4d/output_inception_4d/output_0_split -> inception_4d/output_inception_4d/output_0_split_0
I1130 12:35:52.996683  7256 net.cpp:380] inception_4d/output_inception_4d/output_0_split -> inception_4d/output_inception_4d/output_0_split_1
I1130 12:35:52.996692  7256 net.cpp:380] inception_4d/output_inception_4d/output_0_split -> inception_4d/output_inception_4d/output_0_split_2
I1130 12:35:52.996702  7256 net.cpp:380] inception_4d/output_inception_4d/output_0_split -> inception_4d/output_inception_4d/output_0_split_3
I1130 12:35:52.996773  7256 net.cpp:122] Setting up inception_4d/output_inception_4d/output_0_split
I1130 12:35:52.996783  7256 net.cpp:129] Top shape: 32 528 14 14 (3311616)
I1130 12:35:52.996789  7256 net.cpp:129] Top shape: 32 528 14 14 (3311616)
I1130 12:35:52.996794  7256 net.cpp:129] Top shape: 32 528 14 14 (3311616)
I1130 12:35:52.996800  7256 net.cpp:129] Top shape: 32 528 14 14 (3311616)
I1130 12:35:52.996804  7256 net.cpp:137] Memory required for data: 1581146496
I1130 12:35:52.996809  7256 layer_factory.hpp:77] Creating layer inception_4e/1x1
I1130 12:35:52.996819  7256 net.cpp:84] Creating Layer inception_4e/1x1
I1130 12:35:52.996824  7256 net.cpp:406] inception_4e/1x1 <- inception_4d/output_inception_4d/output_0_split_0
I1130 12:35:52.996834  7256 net.cpp:380] inception_4e/1x1 -> inception_4e/1x1
I1130 12:35:52.998620  7256 net.cpp:122] Setting up inception_4e/1x1
I1130 12:35:52.998636  7256 net.cpp:129] Top shape: 32 256 14 14 (1605632)
I1130 12:35:52.998641  7256 net.cpp:137] Memory required for data: 1587569024
I1130 12:35:52.998651  7256 layer_factory.hpp:77] Creating layer inception_4e/relu_1x1
I1130 12:35:52.998661  7256 net.cpp:84] Creating Layer inception_4e/relu_1x1
I1130 12:35:52.998667  7256 net.cpp:406] inception_4e/relu_1x1 <- inception_4e/1x1
I1130 12:35:52.998677  7256 net.cpp:367] inception_4e/relu_1x1 -> inception_4e/1x1 (in-place)
I1130 12:35:52.998685  7256 net.cpp:122] Setting up inception_4e/relu_1x1
I1130 12:35:52.998693  7256 net.cpp:129] Top shape: 32 256 14 14 (1605632)
I1130 12:35:52.998699  7256 net.cpp:137] Memory required for data: 1593991552
I1130 12:35:52.998704  7256 layer_factory.hpp:77] Creating layer inception_4e/3x3_reduce
I1130 12:35:52.998714  7256 net.cpp:84] Creating Layer inception_4e/3x3_reduce
I1130 12:35:52.998721  7256 net.cpp:406] inception_4e/3x3_reduce <- inception_4d/output_inception_4d/output_0_split_1
I1130 12:35:52.998730  7256 net.cpp:380] inception_4e/3x3_reduce -> inception_4e/3x3_reduce
I1130 12:35:52.999665  7256 net.cpp:122] Setting up inception_4e/3x3_reduce
I1130 12:35:52.999676  7256 net.cpp:129] Top shape: 32 160 14 14 (1003520)
I1130 12:35:52.999681  7256 net.cpp:137] Memory required for data: 1598005632
I1130 12:35:52.999691  7256 layer_factory.hpp:77] Creating layer inception_4e/relu_3x3_reduce
I1130 12:35:52.999701  7256 net.cpp:84] Creating Layer inception_4e/relu_3x3_reduce
I1130 12:35:52.999708  7256 net.cpp:406] inception_4e/relu_3x3_reduce <- inception_4e/3x3_reduce
I1130 12:35:52.999717  7256 net.cpp:367] inception_4e/relu_3x3_reduce -> inception_4e/3x3_reduce (in-place)
I1130 12:35:52.999727  7256 net.cpp:122] Setting up inception_4e/relu_3x3_reduce
I1130 12:35:52.999735  7256 net.cpp:129] Top shape: 32 160 14 14 (1003520)
I1130 12:35:52.999740  7256 net.cpp:137] Memory required for data: 1602019712
I1130 12:35:52.999745  7256 layer_factory.hpp:77] Creating layer inception_4e/3x3
I1130 12:35:52.999755  7256 net.cpp:84] Creating Layer inception_4e/3x3
I1130 12:35:52.999763  7256 net.cpp:406] inception_4e/3x3 <- inception_4e/3x3_reduce
I1130 12:35:52.999770  7256 net.cpp:380] inception_4e/3x3 -> inception_4e/3x3
I1130 12:35:53.004153  7256 net.cpp:122] Setting up inception_4e/3x3
I1130 12:35:53.004168  7256 net.cpp:129] Top shape: 32 320 14 14 (2007040)
I1130 12:35:53.004173  7256 net.cpp:137] Memory required for data: 1610047872
I1130 12:35:53.004184  7256 layer_factory.hpp:77] Creating layer inception_4e/relu_3x3
I1130 12:35:53.004192  7256 net.cpp:84] Creating Layer inception_4e/relu_3x3
I1130 12:35:53.004199  7256 net.cpp:406] inception_4e/relu_3x3 <- inception_4e/3x3
I1130 12:35:53.004207  7256 net.cpp:367] inception_4e/relu_3x3 -> inception_4e/3x3 (in-place)
I1130 12:35:53.004217  7256 net.cpp:122] Setting up inception_4e/relu_3x3
I1130 12:35:53.004225  7256 net.cpp:129] Top shape: 32 320 14 14 (2007040)
I1130 12:35:53.004230  7256 net.cpp:137] Memory required for data: 1618076032
I1130 12:35:53.004235  7256 layer_factory.hpp:77] Creating layer inception_4e/5x5_reduce
I1130 12:35:53.004245  7256 net.cpp:84] Creating Layer inception_4e/5x5_reduce
I1130 12:35:53.004251  7256 net.cpp:406] inception_4e/5x5_reduce <- inception_4d/output_inception_4d/output_0_split_2
I1130 12:35:53.004259  7256 net.cpp:380] inception_4e/5x5_reduce -> inception_4e/5x5_reduce
I1130 12:35:53.004652  7256 net.cpp:122] Setting up inception_4e/5x5_reduce
I1130 12:35:53.004664  7256 net.cpp:129] Top shape: 32 32 14 14 (200704)
I1130 12:35:53.004669  7256 net.cpp:137] Memory required for data: 1618878848
I1130 12:35:53.004679  7256 layer_factory.hpp:77] Creating layer inception_4e/relu_5x5_reduce
I1130 12:35:53.004688  7256 net.cpp:84] Creating Layer inception_4e/relu_5x5_reduce
I1130 12:35:53.004694  7256 net.cpp:406] inception_4e/relu_5x5_reduce <- inception_4e/5x5_reduce
I1130 12:35:53.004703  7256 net.cpp:367] inception_4e/relu_5x5_reduce -> inception_4e/5x5_reduce (in-place)
I1130 12:35:53.004711  7256 net.cpp:122] Setting up inception_4e/relu_5x5_reduce
I1130 12:35:53.004719  7256 net.cpp:129] Top shape: 32 32 14 14 (200704)
I1130 12:35:53.004724  7256 net.cpp:137] Memory required for data: 1619681664
I1130 12:35:53.004731  7256 layer_factory.hpp:77] Creating layer inception_4e/5x5
I1130 12:35:53.004741  7256 net.cpp:84] Creating Layer inception_4e/5x5
I1130 12:35:53.004748  7256 net.cpp:406] inception_4e/5x5 <- inception_4e/5x5_reduce
I1130 12:35:53.004755  7256 net.cpp:380] inception_4e/5x5 -> inception_4e/5x5
I1130 12:35:53.006316  7256 net.cpp:122] Setting up inception_4e/5x5
I1130 12:35:53.006330  7256 net.cpp:129] Top shape: 32 128 14 14 (802816)
I1130 12:35:53.006335  7256 net.cpp:137] Memory required for data: 1622892928
I1130 12:35:53.006345  7256 layer_factory.hpp:77] Creating layer inception_4e/relu_5x5
I1130 12:35:53.006352  7256 net.cpp:84] Creating Layer inception_4e/relu_5x5
I1130 12:35:53.006357  7256 net.cpp:406] inception_4e/relu_5x5 <- inception_4e/5x5
I1130 12:35:53.006366  7256 net.cpp:367] inception_4e/relu_5x5 -> inception_4e/5x5 (in-place)
I1130 12:35:53.006376  7256 net.cpp:122] Setting up inception_4e/relu_5x5
I1130 12:35:53.006383  7256 net.cpp:129] Top shape: 32 128 14 14 (802816)
I1130 12:35:53.006389  7256 net.cpp:137] Memory required for data: 1626104192
I1130 12:35:53.006394  7256 layer_factory.hpp:77] Creating layer inception_4e/pool
I1130 12:35:53.006402  7256 net.cpp:84] Creating Layer inception_4e/pool
I1130 12:35:53.006409  7256 net.cpp:406] inception_4e/pool <- inception_4d/output_inception_4d/output_0_split_3
I1130 12:35:53.006417  7256 net.cpp:380] inception_4e/pool -> inception_4e/pool
I1130 12:35:53.006467  7256 net.cpp:122] Setting up inception_4e/pool
I1130 12:35:53.006477  7256 net.cpp:129] Top shape: 32 528 14 14 (3311616)
I1130 12:35:53.006484  7256 net.cpp:137] Memory required for data: 1639350656
I1130 12:35:53.006489  7256 layer_factory.hpp:77] Creating layer inception_4e/pool_proj
I1130 12:35:53.006500  7256 net.cpp:84] Creating Layer inception_4e/pool_proj
I1130 12:35:53.006506  7256 net.cpp:406] inception_4e/pool_proj <- inception_4e/pool
I1130 12:35:53.006516  7256 net.cpp:380] inception_4e/pool_proj -> inception_4e/pool_proj
I1130 12:35:53.007257  7256 net.cpp:122] Setting up inception_4e/pool_proj
I1130 12:35:53.007269  7256 net.cpp:129] Top shape: 32 128 14 14 (802816)
I1130 12:35:53.007274  7256 net.cpp:137] Memory required for data: 1642561920
I1130 12:35:53.007282  7256 layer_factory.hpp:77] Creating layer inception_4e/relu_pool_proj
I1130 12:35:53.007290  7256 net.cpp:84] Creating Layer inception_4e/relu_pool_proj
I1130 12:35:53.007297  7256 net.cpp:406] inception_4e/relu_pool_proj <- inception_4e/pool_proj
I1130 12:35:53.007303  7256 net.cpp:367] inception_4e/relu_pool_proj -> inception_4e/pool_proj (in-place)
I1130 12:35:53.007311  7256 net.cpp:122] Setting up inception_4e/relu_pool_proj
I1130 12:35:53.007318  7256 net.cpp:129] Top shape: 32 128 14 14 (802816)
I1130 12:35:53.007321  7256 net.cpp:137] Memory required for data: 1645773184
I1130 12:35:53.007326  7256 layer_factory.hpp:77] Creating layer inception_4e/output
I1130 12:35:53.007333  7256 net.cpp:84] Creating Layer inception_4e/output
I1130 12:35:53.007339  7256 net.cpp:406] inception_4e/output <- inception_4e/1x1
I1130 12:35:53.007344  7256 net.cpp:406] inception_4e/output <- inception_4e/3x3
I1130 12:35:53.007352  7256 net.cpp:406] inception_4e/output <- inception_4e/5x5
I1130 12:35:53.007359  7256 net.cpp:406] inception_4e/output <- inception_4e/pool_proj
I1130 12:35:53.007365  7256 net.cpp:380] inception_4e/output -> inception_4e/output
I1130 12:35:53.007398  7256 net.cpp:122] Setting up inception_4e/output
I1130 12:35:53.007407  7256 net.cpp:129] Top shape: 32 832 14 14 (5218304)
I1130 12:35:53.007413  7256 net.cpp:137] Memory required for data: 1666646400
I1130 12:35:53.007418  7256 layer_factory.hpp:77] Creating layer pool4/3x3_s2
I1130 12:35:53.007426  7256 net.cpp:84] Creating Layer pool4/3x3_s2
I1130 12:35:53.007431  7256 net.cpp:406] pool4/3x3_s2 <- inception_4e/output
I1130 12:35:53.007441  7256 net.cpp:380] pool4/3x3_s2 -> pool4/3x3_s2
I1130 12:35:53.007484  7256 net.cpp:122] Setting up pool4/3x3_s2
I1130 12:35:53.007493  7256 net.cpp:129] Top shape: 32 832 7 7 (1304576)
I1130 12:35:53.007499  7256 net.cpp:137] Memory required for data: 1671864704
I1130 12:35:53.007505  7256 layer_factory.hpp:77] Creating layer pool4/3x3_s2_pool4/3x3_s2_0_split
I1130 12:35:53.007513  7256 net.cpp:84] Creating Layer pool4/3x3_s2_pool4/3x3_s2_0_split
I1130 12:35:53.007519  7256 net.cpp:406] pool4/3x3_s2_pool4/3x3_s2_0_split <- pool4/3x3_s2
I1130 12:35:53.007531  7256 net.cpp:380] pool4/3x3_s2_pool4/3x3_s2_0_split -> pool4/3x3_s2_pool4/3x3_s2_0_split_0
I1130 12:35:53.007542  7256 net.cpp:380] pool4/3x3_s2_pool4/3x3_s2_0_split -> pool4/3x3_s2_pool4/3x3_s2_0_split_1
I1130 12:35:53.007550  7256 net.cpp:380] pool4/3x3_s2_pool4/3x3_s2_0_split -> pool4/3x3_s2_pool4/3x3_s2_0_split_2
I1130 12:35:53.007558  7256 net.cpp:380] pool4/3x3_s2_pool4/3x3_s2_0_split -> pool4/3x3_s2_pool4/3x3_s2_0_split_3
I1130 12:35:53.007625  7256 net.cpp:122] Setting up pool4/3x3_s2_pool4/3x3_s2_0_split
I1130 12:35:53.007637  7256 net.cpp:129] Top shape: 32 832 7 7 (1304576)
I1130 12:35:53.007644  7256 net.cpp:129] Top shape: 32 832 7 7 (1304576)
I1130 12:35:53.007652  7256 net.cpp:129] Top shape: 32 832 7 7 (1304576)
I1130 12:35:53.007658  7256 net.cpp:129] Top shape: 32 832 7 7 (1304576)
I1130 12:35:53.007663  7256 net.cpp:137] Memory required for data: 1692737920
I1130 12:35:53.007668  7256 layer_factory.hpp:77] Creating layer inception_5a/1x1
I1130 12:35:53.007678  7256 net.cpp:84] Creating Layer inception_5a/1x1
I1130 12:35:53.007685  7256 net.cpp:406] inception_5a/1x1 <- pool4/3x3_s2_pool4/3x3_s2_0_split_0
I1130 12:35:53.007694  7256 net.cpp:380] inception_5a/1x1 -> inception_5a/1x1
I1130 12:35:53.009943  7256 net.cpp:122] Setting up inception_5a/1x1
I1130 12:35:53.009956  7256 net.cpp:129] Top shape: 32 256 7 7 (401408)
I1130 12:35:53.009961  7256 net.cpp:137] Memory required for data: 1694343552
I1130 12:35:53.009971  7256 layer_factory.hpp:77] Creating layer inception_5a/relu_1x1
I1130 12:35:53.009979  7256 net.cpp:84] Creating Layer inception_5a/relu_1x1
I1130 12:35:53.009986  7256 net.cpp:406] inception_5a/relu_1x1 <- inception_5a/1x1
I1130 12:35:53.009994  7256 net.cpp:367] inception_5a/relu_1x1 -> inception_5a/1x1 (in-place)
I1130 12:35:53.010004  7256 net.cpp:122] Setting up inception_5a/relu_1x1
I1130 12:35:53.010011  7256 net.cpp:129] Top shape: 32 256 7 7 (401408)
I1130 12:35:53.010017  7256 net.cpp:137] Memory required for data: 1695949184
I1130 12:35:53.010021  7256 layer_factory.hpp:77] Creating layer inception_5a/3x3_reduce
I1130 12:35:53.010035  7256 net.cpp:84] Creating Layer inception_5a/3x3_reduce
I1130 12:35:53.010040  7256 net.cpp:406] inception_5a/3x3_reduce <- pool4/3x3_s2_pool4/3x3_s2_0_split_1
I1130 12:35:53.010051  7256 net.cpp:380] inception_5a/3x3_reduce -> inception_5a/3x3_reduce
I1130 12:35:53.011749  7256 net.cpp:122] Setting up inception_5a/3x3_reduce
I1130 12:35:53.011762  7256 net.cpp:129] Top shape: 32 160 7 7 (250880)
I1130 12:35:53.011767  7256 net.cpp:137] Memory required for data: 1696952704
I1130 12:35:53.011776  7256 layer_factory.hpp:77] Creating layer inception_5a/relu_3x3_reduce
I1130 12:35:53.011785  7256 net.cpp:84] Creating Layer inception_5a/relu_3x3_reduce
I1130 12:35:53.011792  7256 net.cpp:406] inception_5a/relu_3x3_reduce <- inception_5a/3x3_reduce
I1130 12:35:53.011801  7256 net.cpp:367] inception_5a/relu_3x3_reduce -> inception_5a/3x3_reduce (in-place)
I1130 12:35:53.011808  7256 net.cpp:122] Setting up inception_5a/relu_3x3_reduce
I1130 12:35:53.011816  7256 net.cpp:129] Top shape: 32 160 7 7 (250880)
I1130 12:35:53.011819  7256 net.cpp:137] Memory required for data: 1697956224
I1130 12:35:53.011824  7256 layer_factory.hpp:77] Creating layer inception_5a/3x3
I1130 12:35:53.011835  7256 net.cpp:84] Creating Layer inception_5a/3x3
I1130 12:35:53.011842  7256 net.cpp:406] inception_5a/3x3 <- inception_5a/3x3_reduce
I1130 12:35:53.011850  7256 net.cpp:380] inception_5a/3x3 -> inception_5a/3x3
I1130 12:35:53.016080  7256 net.cpp:122] Setting up inception_5a/3x3
I1130 12:35:53.016098  7256 net.cpp:129] Top shape: 32 320 7 7 (501760)
I1130 12:35:53.016101  7256 net.cpp:137] Memory required for data: 1699963264
I1130 12:35:53.016110  7256 layer_factory.hpp:77] Creating layer inception_5a/relu_3x3
I1130 12:35:53.016119  7256 net.cpp:84] Creating Layer inception_5a/relu_3x3
I1130 12:35:53.016127  7256 net.cpp:406] inception_5a/relu_3x3 <- inception_5a/3x3
I1130 12:35:53.016134  7256 net.cpp:367] inception_5a/relu_3x3 -> inception_5a/3x3 (in-place)
I1130 12:35:53.016144  7256 net.cpp:122] Setting up inception_5a/relu_3x3
I1130 12:35:53.016151  7256 net.cpp:129] Top shape: 32 320 7 7 (501760)
I1130 12:35:53.016156  7256 net.cpp:137] Memory required for data: 1701970304
I1130 12:35:53.016161  7256 layer_factory.hpp:77] Creating layer inception_5a/5x5_reduce
I1130 12:35:53.016173  7256 net.cpp:84] Creating Layer inception_5a/5x5_reduce
I1130 12:35:53.016180  7256 net.cpp:406] inception_5a/5x5_reduce <- pool4/3x3_s2_pool4/3x3_s2_0_split_2
I1130 12:35:53.016189  7256 net.cpp:380] inception_5a/5x5_reduce -> inception_5a/5x5_reduce
I1130 12:35:53.016662  7256 net.cpp:122] Setting up inception_5a/5x5_reduce
I1130 12:35:53.016674  7256 net.cpp:129] Top shape: 32 32 7 7 (50176)
I1130 12:35:53.016679  7256 net.cpp:137] Memory required for data: 1702171008
I1130 12:35:53.016688  7256 layer_factory.hpp:77] Creating layer inception_5a/relu_5x5_reduce
I1130 12:35:53.016698  7256 net.cpp:84] Creating Layer inception_5a/relu_5x5_reduce
I1130 12:35:53.016705  7256 net.cpp:406] inception_5a/relu_5x5_reduce <- inception_5a/5x5_reduce
I1130 12:35:53.016712  7256 net.cpp:367] inception_5a/relu_5x5_reduce -> inception_5a/5x5_reduce (in-place)
I1130 12:35:53.016721  7256 net.cpp:122] Setting up inception_5a/relu_5x5_reduce
I1130 12:35:53.016728  7256 net.cpp:129] Top shape: 32 32 7 7 (50176)
I1130 12:35:53.016734  7256 net.cpp:137] Memory required for data: 1702371712
I1130 12:35:53.016739  7256 layer_factory.hpp:77] Creating layer inception_5a/5x5
I1130 12:35:53.016769  7256 net.cpp:84] Creating Layer inception_5a/5x5
I1130 12:35:53.016777  7256 net.cpp:406] inception_5a/5x5 <- inception_5a/5x5_reduce
I1130 12:35:53.016784  7256 net.cpp:380] inception_5a/5x5 -> inception_5a/5x5
I1130 12:35:53.018224  7256 net.cpp:122] Setting up inception_5a/5x5
I1130 12:35:53.018236  7256 net.cpp:129] Top shape: 32 128 7 7 (200704)
I1130 12:35:53.018241  7256 net.cpp:137] Memory required for data: 1703174528
I1130 12:35:53.018251  7256 layer_factory.hpp:77] Creating layer inception_5a/relu_5x5
I1130 12:35:53.018260  7256 net.cpp:84] Creating Layer inception_5a/relu_5x5
I1130 12:35:53.018267  7256 net.cpp:406] inception_5a/relu_5x5 <- inception_5a/5x5
I1130 12:35:53.018275  7256 net.cpp:367] inception_5a/relu_5x5 -> inception_5a/5x5 (in-place)
I1130 12:35:53.018290  7256 net.cpp:122] Setting up inception_5a/relu_5x5
I1130 12:35:53.018298  7256 net.cpp:129] Top shape: 32 128 7 7 (200704)
I1130 12:35:53.018304  7256 net.cpp:137] Memory required for data: 1703977344
I1130 12:35:53.018309  7256 layer_factory.hpp:77] Creating layer inception_5a/pool
I1130 12:35:53.018318  7256 net.cpp:84] Creating Layer inception_5a/pool
I1130 12:35:53.018323  7256 net.cpp:406] inception_5a/pool <- pool4/3x3_s2_pool4/3x3_s2_0_split_3
I1130 12:35:53.018330  7256 net.cpp:380] inception_5a/pool -> inception_5a/pool
I1130 12:35:53.018378  7256 net.cpp:122] Setting up inception_5a/pool
I1130 12:35:53.018388  7256 net.cpp:129] Top shape: 32 832 7 7 (1304576)
I1130 12:35:53.018393  7256 net.cpp:137] Memory required for data: 1709195648
I1130 12:35:53.018399  7256 layer_factory.hpp:77] Creating layer inception_5a/pool_proj
I1130 12:35:53.018411  7256 net.cpp:84] Creating Layer inception_5a/pool_proj
I1130 12:35:53.018419  7256 net.cpp:406] inception_5a/pool_proj <- inception_5a/pool
I1130 12:35:53.018426  7256 net.cpp:380] inception_5a/pool_proj -> inception_5a/pool_proj
I1130 12:35:53.019839  7256 net.cpp:122] Setting up inception_5a/pool_proj
I1130 12:35:53.019851  7256 net.cpp:129] Top shape: 32 128 7 7 (200704)
I1130 12:35:53.019857  7256 net.cpp:137] Memory required for data: 1709998464
I1130 12:35:53.019865  7256 layer_factory.hpp:77] Creating layer inception_5a/relu_pool_proj
I1130 12:35:53.019872  7256 net.cpp:84] Creating Layer inception_5a/relu_pool_proj
I1130 12:35:53.019878  7256 net.cpp:406] inception_5a/relu_pool_proj <- inception_5a/pool_proj
I1130 12:35:53.019886  7256 net.cpp:367] inception_5a/relu_pool_proj -> inception_5a/pool_proj (in-place)
I1130 12:35:53.019901  7256 net.cpp:122] Setting up inception_5a/relu_pool_proj
I1130 12:35:53.019907  7256 net.cpp:129] Top shape: 32 128 7 7 (200704)
I1130 12:35:53.019912  7256 net.cpp:137] Memory required for data: 1710801280
I1130 12:35:53.019917  7256 layer_factory.hpp:77] Creating layer inception_5a/output
I1130 12:35:53.019927  7256 net.cpp:84] Creating Layer inception_5a/output
I1130 12:35:53.019932  7256 net.cpp:406] inception_5a/output <- inception_5a/1x1
I1130 12:35:53.019938  7256 net.cpp:406] inception_5a/output <- inception_5a/3x3
I1130 12:35:53.019945  7256 net.cpp:406] inception_5a/output <- inception_5a/5x5
I1130 12:35:53.019951  7256 net.cpp:406] inception_5a/output <- inception_5a/pool_proj
I1130 12:35:53.019959  7256 net.cpp:380] inception_5a/output -> inception_5a/output
I1130 12:35:53.019991  7256 net.cpp:122] Setting up inception_5a/output
I1130 12:35:53.020000  7256 net.cpp:129] Top shape: 32 832 7 7 (1304576)
I1130 12:35:53.020005  7256 net.cpp:137] Memory required for data: 1716019584
I1130 12:35:53.020011  7256 layer_factory.hpp:77] Creating layer inception_5a/output_inception_5a/output_0_split
I1130 12:35:53.020020  7256 net.cpp:84] Creating Layer inception_5a/output_inception_5a/output_0_split
I1130 12:35:53.020026  7256 net.cpp:406] inception_5a/output_inception_5a/output_0_split <- inception_5a/output
I1130 12:35:53.020035  7256 net.cpp:380] inception_5a/output_inception_5a/output_0_split -> inception_5a/output_inception_5a/output_0_split_0
I1130 12:35:53.020045  7256 net.cpp:380] inception_5a/output_inception_5a/output_0_split -> inception_5a/output_inception_5a/output_0_split_1
I1130 12:35:53.020054  7256 net.cpp:380] inception_5a/output_inception_5a/output_0_split -> inception_5a/output_inception_5a/output_0_split_2
I1130 12:35:53.020063  7256 net.cpp:380] inception_5a/output_inception_5a/output_0_split -> inception_5a/output_inception_5a/output_0_split_3
I1130 12:35:53.020128  7256 net.cpp:122] Setting up inception_5a/output_inception_5a/output_0_split
I1130 12:35:53.020138  7256 net.cpp:129] Top shape: 32 832 7 7 (1304576)
I1130 12:35:53.020144  7256 net.cpp:129] Top shape: 32 832 7 7 (1304576)
I1130 12:35:53.020151  7256 net.cpp:129] Top shape: 32 832 7 7 (1304576)
I1130 12:35:53.020157  7256 net.cpp:129] Top shape: 32 832 7 7 (1304576)
I1130 12:35:53.020164  7256 net.cpp:137] Memory required for data: 1736892800
I1130 12:35:53.020169  7256 layer_factory.hpp:77] Creating layer inception_5b/1x1
I1130 12:35:53.020180  7256 net.cpp:84] Creating Layer inception_5b/1x1
I1130 12:35:53.020187  7256 net.cpp:406] inception_5b/1x1 <- inception_5a/output_inception_5a/output_0_split_0
I1130 12:35:53.020196  7256 net.cpp:380] inception_5b/1x1 -> inception_5b/1x1
I1130 12:35:53.022971  7256 net.cpp:122] Setting up inception_5b/1x1
I1130 12:35:53.022982  7256 net.cpp:129] Top shape: 32 384 7 7 (602112)
I1130 12:35:53.022986  7256 net.cpp:137] Memory required for data: 1739301248
I1130 12:35:53.022994  7256 layer_factory.hpp:77] Creating layer inception_5b/relu_1x1
I1130 12:35:53.023000  7256 net.cpp:84] Creating Layer inception_5b/relu_1x1
I1130 12:35:53.023005  7256 net.cpp:406] inception_5b/relu_1x1 <- inception_5b/1x1
I1130 12:35:53.023010  7256 net.cpp:367] inception_5b/relu_1x1 -> inception_5b/1x1 (in-place)
I1130 12:35:53.023021  7256 net.cpp:122] Setting up inception_5b/relu_1x1
I1130 12:35:53.023027  7256 net.cpp:129] Top shape: 32 384 7 7 (602112)
I1130 12:35:53.023030  7256 net.cpp:137] Memory required for data: 1741709696
I1130 12:35:53.023035  7256 layer_factory.hpp:77] Creating layer inception_5b/3x3_reduce
I1130 12:35:53.023044  7256 net.cpp:84] Creating Layer inception_5b/3x3_reduce
I1130 12:35:53.023051  7256 net.cpp:406] inception_5b/3x3_reduce <- inception_5a/output_inception_5a/output_0_split_1
I1130 12:35:53.023057  7256 net.cpp:380] inception_5b/3x3_reduce -> inception_5b/3x3_reduce
I1130 12:35:53.024446  7256 net.cpp:122] Setting up inception_5b/3x3_reduce
I1130 12:35:53.024456  7256 net.cpp:129] Top shape: 32 192 7 7 (301056)
I1130 12:35:53.024459  7256 net.cpp:137] Memory required for data: 1742913920
I1130 12:35:53.024466  7256 layer_factory.hpp:77] Creating layer inception_5b/relu_3x3_reduce
I1130 12:35:53.024472  7256 net.cpp:84] Creating Layer inception_5b/relu_3x3_reduce
I1130 12:35:53.024477  7256 net.cpp:406] inception_5b/relu_3x3_reduce <- inception_5b/3x3_reduce
I1130 12:35:53.024483  7256 net.cpp:367] inception_5b/relu_3x3_reduce -> inception_5b/3x3_reduce (in-place)
I1130 12:35:53.024492  7256 net.cpp:122] Setting up inception_5b/relu_3x3_reduce
I1130 12:35:53.024498  7256 net.cpp:129] Top shape: 32 192 7 7 (301056)
I1130 12:35:53.024502  7256 net.cpp:137] Memory required for data: 1744118144
I1130 12:35:53.024507  7256 layer_factory.hpp:77] Creating layer inception_5b/3x3
I1130 12:35:53.024515  7256 net.cpp:84] Creating Layer inception_5b/3x3
I1130 12:35:53.024520  7256 net.cpp:406] inception_5b/3x3 <- inception_5b/3x3_reduce
I1130 12:35:53.024526  7256 net.cpp:380] inception_5b/3x3 -> inception_5b/3x3
I1130 12:35:53.028983  7256 net.cpp:122] Setting up inception_5b/3x3
I1130 12:35:53.028996  7256 net.cpp:129] Top shape: 32 384 7 7 (602112)
I1130 12:35:53.029001  7256 net.cpp:137] Memory required for data: 1746526592
I1130 12:35:53.029009  7256 layer_factory.hpp:77] Creating layer inception_5b/relu_3x3
I1130 12:35:53.029016  7256 net.cpp:84] Creating Layer inception_5b/relu_3x3
I1130 12:35:53.029023  7256 net.cpp:406] inception_5b/relu_3x3 <- inception_5b/3x3
I1130 12:35:53.029031  7256 net.cpp:367] inception_5b/relu_3x3 -> inception_5b/3x3 (in-place)
I1130 12:35:53.029038  7256 net.cpp:122] Setting up inception_5b/relu_3x3
I1130 12:35:53.029045  7256 net.cpp:129] Top shape: 32 384 7 7 (602112)
I1130 12:35:53.029050  7256 net.cpp:137] Memory required for data: 1748935040
I1130 12:35:53.029054  7256 layer_factory.hpp:77] Creating layer inception_5b/5x5_reduce
I1130 12:35:53.029064  7256 net.cpp:84] Creating Layer inception_5b/5x5_reduce
I1130 12:35:53.029072  7256 net.cpp:406] inception_5b/5x5_reduce <- inception_5a/output_inception_5a/output_0_split_2
I1130 12:35:53.029079  7256 net.cpp:380] inception_5b/5x5_reduce -> inception_5b/5x5_reduce
I1130 12:35:53.031256  7256 net.cpp:122] Setting up inception_5b/5x5_reduce
I1130 12:35:53.031275  7256 net.cpp:129] Top shape: 32 48 7 7 (75264)
I1130 12:35:53.031278  7256 net.cpp:137] Memory required for data: 1749236096
I1130 12:35:53.031287  7256 layer_factory.hpp:77] Creating layer inception_5b/relu_5x5_reduce
I1130 12:35:53.031296  7256 net.cpp:84] Creating Layer inception_5b/relu_5x5_reduce
I1130 12:35:53.031301  7256 net.cpp:406] inception_5b/relu_5x5_reduce <- inception_5b/5x5_reduce
I1130 12:35:53.031307  7256 net.cpp:367] inception_5b/relu_5x5_reduce -> inception_5b/5x5_reduce (in-place)
I1130 12:35:53.031317  7256 net.cpp:122] Setting up inception_5b/relu_5x5_reduce
I1130 12:35:53.031337  7256 net.cpp:129] Top shape: 32 48 7 7 (75264)
I1130 12:35:53.031340  7256 net.cpp:137] Memory required for data: 1749537152
I1130 12:35:53.031345  7256 layer_factory.hpp:77] Creating layer inception_5b/5x5
I1130 12:35:53.031354  7256 net.cpp:84] Creating Layer inception_5b/5x5
I1130 12:35:53.031359  7256 net.cpp:406] inception_5b/5x5 <- inception_5b/5x5_reduce
I1130 12:35:53.031371  7256 net.cpp:380] inception_5b/5x5 -> inception_5b/5x5
I1130 12:35:53.032407  7256 net.cpp:122] Setting up inception_5b/5x5
I1130 12:35:53.032418  7256 net.cpp:129] Top shape: 32 128 7 7 (200704)
I1130 12:35:53.032421  7256 net.cpp:137] Memory required for data: 1750339968
I1130 12:35:53.032462  7256 layer_factory.hpp:77] Creating layer inception_5b/relu_5x5
I1130 12:35:53.032470  7256 net.cpp:84] Creating Layer inception_5b/relu_5x5
I1130 12:35:53.032475  7256 net.cpp:406] inception_5b/relu_5x5 <- inception_5b/5x5
I1130 12:35:53.032482  7256 net.cpp:367] inception_5b/relu_5x5 -> inception_5b/5x5 (in-place)
I1130 12:35:53.032490  7256 net.cpp:122] Setting up inception_5b/relu_5x5
I1130 12:35:53.032495  7256 net.cpp:129] Top shape: 32 128 7 7 (200704)
I1130 12:35:53.032500  7256 net.cpp:137] Memory required for data: 1751142784
I1130 12:35:53.032505  7256 layer_factory.hpp:77] Creating layer inception_5b/pool
I1130 12:35:53.032512  7256 net.cpp:84] Creating Layer inception_5b/pool
I1130 12:35:53.032518  7256 net.cpp:406] inception_5b/pool <- inception_5a/output_inception_5a/output_0_split_3
I1130 12:35:53.032524  7256 net.cpp:380] inception_5b/pool -> inception_5b/pool
I1130 12:35:53.032562  7256 net.cpp:122] Setting up inception_5b/pool
I1130 12:35:53.032568  7256 net.cpp:129] Top shape: 32 832 7 7 (1304576)
I1130 12:35:53.032573  7256 net.cpp:137] Memory required for data: 1756361088
I1130 12:35:53.032578  7256 layer_factory.hpp:77] Creating layer inception_5b/pool_proj
I1130 12:35:53.032589  7256 net.cpp:84] Creating Layer inception_5b/pool_proj
I1130 12:35:53.032595  7256 net.cpp:406] inception_5b/pool_proj <- inception_5b/pool
I1130 12:35:53.032603  7256 net.cpp:380] inception_5b/pool_proj -> inception_5b/pool_proj
I1130 12:35:53.033763  7256 net.cpp:122] Setting up inception_5b/pool_proj
I1130 12:35:53.033776  7256 net.cpp:129] Top shape: 32 128 7 7 (200704)
I1130 12:35:53.033780  7256 net.cpp:137] Memory required for data: 1757163904
I1130 12:35:53.033788  7256 layer_factory.hpp:77] Creating layer inception_5b/relu_pool_proj
I1130 12:35:53.033797  7256 net.cpp:84] Creating Layer inception_5b/relu_pool_proj
I1130 12:35:53.033803  7256 net.cpp:406] inception_5b/relu_pool_proj <- inception_5b/pool_proj
I1130 12:35:53.033812  7256 net.cpp:367] inception_5b/relu_pool_proj -> inception_5b/pool_proj (in-place)
I1130 12:35:53.033820  7256 net.cpp:122] Setting up inception_5b/relu_pool_proj
I1130 12:35:53.033828  7256 net.cpp:129] Top shape: 32 128 7 7 (200704)
I1130 12:35:53.033833  7256 net.cpp:137] Memory required for data: 1757966720
I1130 12:35:53.033838  7256 layer_factory.hpp:77] Creating layer inception_5b/output
I1130 12:35:53.033846  7256 net.cpp:84] Creating Layer inception_5b/output
I1130 12:35:53.033854  7256 net.cpp:406] inception_5b/output <- inception_5b/1x1
I1130 12:35:53.033859  7256 net.cpp:406] inception_5b/output <- inception_5b/3x3
I1130 12:35:53.033866  7256 net.cpp:406] inception_5b/output <- inception_5b/5x5
I1130 12:35:53.033874  7256 net.cpp:406] inception_5b/output <- inception_5b/pool_proj
I1130 12:35:53.033879  7256 net.cpp:380] inception_5b/output -> inception_5b/output
I1130 12:35:53.033905  7256 net.cpp:122] Setting up inception_5b/output
I1130 12:35:53.033915  7256 net.cpp:129] Top shape: 32 1024 7 7 (1605632)
I1130 12:35:53.033918  7256 net.cpp:137] Memory required for data: 1764389248
I1130 12:35:53.033924  7256 layer_factory.hpp:77] Creating layer pool5/7x7_s1
I1130 12:35:53.033932  7256 net.cpp:84] Creating Layer pool5/7x7_s1
I1130 12:35:53.033939  7256 net.cpp:406] pool5/7x7_s1 <- inception_5b/output
I1130 12:35:53.033947  7256 net.cpp:380] pool5/7x7_s1 -> pool5/7x7_s1
I1130 12:35:53.033970  7256 net.cpp:122] Setting up pool5/7x7_s1
I1130 12:35:53.033982  7256 net.cpp:129] Top shape: 32 1024 1 1 (32768)
I1130 12:35:53.033989  7256 net.cpp:137] Memory required for data: 1764520320
I1130 12:35:53.033995  7256 layer_factory.hpp:77] Creating layer pool5/drop_7x7_s1
I1130 12:35:53.034003  7256 net.cpp:84] Creating Layer pool5/drop_7x7_s1
I1130 12:35:53.034008  7256 net.cpp:406] pool5/drop_7x7_s1 <- pool5/7x7_s1
I1130 12:35:53.034015  7256 net.cpp:367] pool5/drop_7x7_s1 -> pool5/7x7_s1 (in-place)
I1130 12:35:53.034037  7256 net.cpp:122] Setting up pool5/drop_7x7_s1
I1130 12:35:53.034044  7256 net.cpp:129] Top shape: 32 1024 1 1 (32768)
I1130 12:35:53.034049  7256 net.cpp:137] Memory required for data: 1764651392
I1130 12:35:53.034052  7256 layer_factory.hpp:77] Creating layer fc_scv_preserved
I1130 12:35:53.034063  7256 net.cpp:84] Creating Layer fc_scv_preserved
I1130 12:35:53.034068  7256 net.cpp:406] fc_scv_preserved <- pool5/7x7_s1
I1130 12:35:53.034076  7256 net.cpp:380] fc_scv_preserved -> fc_scv_preserved
I1130 12:35:53.034171  7256 net.cpp:122] Setting up fc_scv_preserved
I1130 12:35:53.034180  7256 net.cpp:129] Top shape: 32 1 (32)
I1130 12:35:53.034184  7256 net.cpp:137] Memory required for data: 1764651520
I1130 12:35:53.034193  7256 layer_factory.hpp:77] Creating layer fc_scv_preserved_fc_scv_preserved_0_split
I1130 12:35:53.034202  7256 net.cpp:84] Creating Layer fc_scv_preserved_fc_scv_preserved_0_split
I1130 12:35:53.034207  7256 net.cpp:406] fc_scv_preserved_fc_scv_preserved_0_split <- fc_scv_preserved
I1130 12:35:53.034215  7256 net.cpp:380] fc_scv_preserved_fc_scv_preserved_0_split -> fc_scv_preserved_fc_scv_preserved_0_split_0
I1130 12:35:53.034225  7256 net.cpp:380] fc_scv_preserved_fc_scv_preserved_0_split -> fc_scv_preserved_fc_scv_preserved_0_split_1
I1130 12:35:53.034257  7256 net.cpp:122] Setting up fc_scv_preserved_fc_scv_preserved_0_split
I1130 12:35:53.034266  7256 net.cpp:129] Top shape: 32 1 (32)
I1130 12:35:53.034271  7256 net.cpp:129] Top shape: 32 1 (32)
I1130 12:35:53.034276  7256 net.cpp:137] Memory required for data: 1764651776
I1130 12:35:53.034288  7256 layer_factory.hpp:77] Creating layer loss
I1130 12:35:53.034298  7256 net.cpp:84] Creating Layer loss
I1130 12:35:53.034306  7256 net.cpp:406] loss <- fc_scv_preserved_fc_scv_preserved_0_split_0
I1130 12:35:53.034312  7256 net.cpp:406] loss <- label_data_1_split_0
I1130 12:35:53.034320  7256 net.cpp:380] loss -> loss
…
