…
I1206 04:46:52.059475 20967 net.cpp:294] The NetState phase (0) differed from the phase (1) specified by a rule in layer losttest
I1206 04:46:52.059731 20967 net.cpp:51] Initializing net from parameters: 
name: "VGG-Places365-SCV-Happy"
state {
  phase: TRAIN
  level: 0
  stage: ""
}
layer {
  name: "data"
  type: "Data"
  top: "data"
  top: "label"
  include {
    phase: TRAIN
  }
  transform_param {
    mirror: true
    crop_size: 224
    mean_file: "/idiap/temp/lmedina/fine-tuning/vgg16_places365/places365CNN_mean.binaryproto"
  }
  data_param {
    source: "/idiap/temp/lmedina/fine-tuning/data/Happy/train_lmdb"
    batch_size: 16
    backend: LMDB
  }
}
layer {
  name: "conv1_1"
  type: "Convolution"
  bottom: "data"
  top: "conv1_1"
  param {
    lr_mult: 1
    decay_mult: 1
  }
  param {
    lr_mult: 2
    decay_mult: 0
  }
  convolution_param {
    num_output: 64
    pad: 1
    kernel_size: 3
    weight_filler {
      type: "gaussian"
      std: 0.01
    }
    bias_filler {
      type: "constant"
      value: 0
    }
  }
}
layer {
  name: "relu1_1"
  type: "ReLU"
  bottom: "conv1_1"
  top: "conv1_1"
}
layer {
  name: "conv1_2"
  type: "Convolution"
  bottom: "conv1_1"
  top: "conv1_2"
  param {
    lr_mult: 1
    decay_mult: 1
  }
  param {
    lr_mult: 2
    decay_mult: 0
  }
  convolution_param {
    num_output: 64
    pad: 1
    kernel_size: 3
    weight_filler {
      type: "gaussian"
      std: 0.01
    }
    bias_filler {
      type: "constant"
      value: 0
    }
  }
}
layer {
  name: "relu1_2"
  type: "ReLU"
  bottom: "conv1_2"
  top: "conv1_2"
}
layer {
  name: "pool1"
  type: "Pooling"
  bottom: "conv1_2"
  top: "pool1"
  pooling_param {
    pool: MAX
    kernel_size: 2
    stride: 2
  }
}
layer {
  name: "conv2_1"
  type: "Convolution"
  bottom: "pool1"
  top: "conv2_1"
  param {
    lr_mult: 1
    decay_mult: 1
  }
  param {
    lr_mult: 2
    decay_mult: 0
  }
  convolution_param {
    num_output: 128
    pad: 1
    kernel_size: 3
    weight_filler {
      type: "gaussian"
      std: 0.01
    }
    bias_filler {
      type: "constant"
      value: 0
    }
  }
}
layer {
  name: "relu2_1"
  type: "ReLU"
  bottom: "conv2_1"
  top: "conv2_1"
}
layer {
  name: "conv2_2"
  type: "Convolution"
  bottom: "conv2_1"
  top: "conv2_2"
  param {
    lr_mult: 1
    decay_mult: 1
  }
  param {
    lr_mult: 2
    decay_mult: 0
  }
  convolution_param {
    num_output: 128
    pad: 1
    kernel_size: 3
    weight_filler {
      type: "gaussian"
      std: 0.01
    }
    bias_filler {
      type: "constant"
      value: 0
    }
  }
}
layer {
  name: "relu2_2"
  type: "ReLU"
  bottom: "conv2_2"
  top: "conv2_2"
}
layer {
  name: "pool2"
  type: "Pooling"
  bottom: "conv2_2"
  top: "pool2"
  pooling_param {
    pool: MAX
    kernel_size: 2
    stride: 2
  }
}
layer {
  name: "conv3_1"
  type: "Convolution"
  bottom: "pool2"
  top: "conv3_1"
  param {
    lr_mult: 1
    decay_mult: 1
  }
  param {
    lr_mult: 2
    decay_mult: 0
  }
  convolution_param {
    num_output: 256
    pad: 1
    kernel_size: 3
    weight_filler {
      type: "gaussian"
      std: 0.01
    }
    bias_filler {
      type: "constant"
      value: 0
    }
  }
}
layer {
  name: "relu3_1"
  type: "ReLU"
  bottom: "conv3_1"
  top: "conv3_1"
}
layer {
  name: "conv3_2"
  type: "Convolution"
  bottom: "conv3_1"
  top: "conv3_2"
  param {
    lr_mult: 1
    decay_mult: 1
  }
  param {
    lr_mult: 2
    decay_mult: 0
  }
  convolution_param {
    num_output: 256
    pad: 1
    kernel_size: 3
    weight_filler {
      type: "gaussian"
      std: 0.01
    }
    bias_filler {
      type: "constant"
      value: 0
    }
  }
}
layer {
  name: "relu3_2"
  type: "ReLU"
  bottom: "conv3_2"
  top: "conv3_2"
}
layer {
  name: "conv3_3"
  type: "Convolution"
  bottom: "conv3_2"
  top: "conv3_3"
  param {
    lr_mult: 1
    decay_mult: 1
  }
  param {
    lr_mult: 2
    decay_mult: 0
  }
  convolution_param {
    num_output: 256
    pad: 1
    kernel_size: 3
    weight_filler {
      type: "gaussian"
      std: 0.01
    }
    bias_filler {
      type: "constant"
      value: 0
    }
  }
}
layer {
  name: "relu3_3"
  type: "ReLU"
  bottom: "conv3_3"
  top: "conv3_3"
}
layer {
  name: "pool3"
  type: "Pooling"
  bottom: "conv3_3"
  top: "pool3"
  pooling_param {
    pool: MAX
    kernel_size: 2
    stride: 2
  }
}
layer {
  name: "conv4_1"
  type: "Convolution"
  bottom: "pool3"
  top: "conv4_1"
  param {
    lr_mult: 1
    decay_mult: 1
  }
  param {
    lr_mult: 2
    decay_mult: 0
  }
  convolution_param {
    num_output: 512
    pad: 1
    kernel_size: 3
    weight_filler {
      type: "gaussian"
      std: 0.01
    }
    bias_filler {
      type: "constant"
      value: 0
    }
  }
}
layer {
  name: "relu4_1"
  type: "ReLU"
  bottom: "conv4_1"
  top: "conv4_1"
}
layer {
  name: "conv4_2"
  type: "Convolution"
  bottom: "conv4_1"
  top: "conv4_2"
  param {
    lr_mult: 1
    decay_mult: 1
  }
  param {
    lr_mult: 2
    decay_mult: 0
  }
  convolution_param {
    num_output: 512
    pad: 1
    kernel_size: 3
    weight_filler {
      type: "gaussian"
      std: 0.01
    }
    bias_filler {
      type: "constant"
      value: 0
    }
  }
}
layer {
  name: "relu4_2"
  type: "ReLU"
  bottom: "conv4_2"
  top: "conv4_2"
}
layer {
  name: "conv4_3"
  type: "Convolution"
  bottom: "conv4_2"
  top: "conv4_3"
  param {
    lr_mult: 1
    decay_mult: 1
  }
  param {
    lr_mult: 2
    decay_mult: 0
  }
  convolution_param {
    num_output: 512
    pad: 1
    kernel_size: 3
    weight_filler {
      type: "gaussian"
      std: 0.01
    }
    bias_filler {
      type: "constant"
      value: 0
    }
  }
}
layer {
  name: "relu4_3"
  type: "ReLU"
  bottom: "conv4_3"
  top: "conv4_3"
}
layer {
  name: "pool4"
  type: "Pooling"
  bottom: "conv4_3"
  top: "pool4"
  pooling_param {
    pool: MAX
    kernel_size: 2
    stride: 2
  }
}
layer {
  name: "conv5_1"
  type: "Convolution"
  bottom: "pool4"
  top: "conv5_1"
  param {
    lr_mult: 1
    decay_mult: 1
  }
  param {
    lr_mult: 2
    decay_mult: 0
  }
  convolution_param {
    num_output: 512
    pad: 1
    kernel_size: 3
    weight_filler {
      type: "gaussian"
      std: 0.01
    }
    bias_filler {
      type: "constant"
      value: 0
    }
  }
}
layer {
  name: "relu5_1"
  type: "ReLU"
  bottom: "conv5_1"
  top: "conv5_1"
}
layer {
  name: "conv5_2"
  type: "Convolution"
  bottom: "conv5_1"
  top: "conv5_2"
  param {
    lr_mult: 1
    decay_mult: 1
  }
  param {
    lr_mult: 2
    decay_mult: 0
  }
  convolution_param {
    num_output: 512
    pad: 1
    kernel_size: 3
    weight_filler {
      type: "gaussian"
      std: 0.01
    }
    bias_filler {
      type: "constant"
      value: 0
    }
  }
}
layer {
  name: "relu5_2"
  type: "ReLU"
  bottom: "conv5_2"
  top: "conv5_2"
}
layer {
  name: "conv5_3"
  type: "Convolution"
  bottom: "conv5_2"
  top: "conv5_3"
  param {
    lr_mult: 1
    decay_mult: 1
  }
  param {
    lr_mult: 2
    decay_mult: 0
  }
  convolution_param {
    num_output: 512
    pad: 1
    kernel_size: 3
    weight_filler {
      type: "gaussian"
      std: 0.01
    }
    bias_filler {
      type: "constant"
      value: 0
    }
  }
}
layer {
  name: "relu5_3"
  type: "ReLU"
  bottom: "conv5_3"
  top: "conv5_3"
}
layer {
  name: "pool5"
  type: "Pooling"
  bottom: "conv5_3"
  top: "pool5"
  pooling_param {
    pool: MAX
    kernel_size: 2
    stride: 2
  }
}
layer {
  name: "fc6"
  type: "InnerProduct"
  bottom: "pool5"
  top: "fc6"
  param {
    lr_mult: 1
    decay_mult: 1
  }
  param {
    lr_mult: 2
    decay_mult: 0
  }
  inner_product_param {
    num_output: 4096
    weight_filler {
      type: "gaussian"
      std: 0.01
    }
    bias_filler {
      type: "constant"
      value: 0
    }
  }
}
layer {
  name: "relu6"
  type: "ReLU"
  bottom: "fc6"
  top: "fc6"
}
layer {
  name: "drop6"
  type: "Dropout"
  bottom: "fc6"
  top: "fc6"
  dropout_param {
    dropout_ratio: 0.5
  }
}
layer {
  name: "fc7"
  type: "InnerProduct"
  bottom: "fc6"
  top: "fc7"
  param {
    lr_mult: 1
    decay_mult: 1
  }
  param {
    lr_mult: 2
    decay_mult: 0
  }
  inner_product_param {
    num_output: 4096
    weight_filler {
      type: "gaussian"
      std: 0.01
    }
    bias_filler {
      type: "constant"
      value: 0
    }
  }
}
layer {
  name: "relu7"
  type: "ReLU"
  bottom: "fc7"
  top: "fc7"
}
layer {
  name: "drop7"
  type: "Dropout"
  bottom: "fc7"
  top: "fc7"
  dropout_param {
    dropout_ratio: 0.5
  }
}
layer {
  name: "fc_scv_happy"
  type: "InnerProduct"
  bottom: "fc7"
  top: "fc_scv_happy"
  param {
    lr_mult: 10
    decay_mult: 1
  }
  param {
    lr_mult: 20
    decay_mult: 0
  }
  inner_product_param {
    num_output: 1
    weight_filler {
      type: "xavier"
      std: 0.01
    }
    bias_filler {
      type: "constant"
      value: 0
    }
  }
}
layer {
  name: "loss"
  type: "EuclideanLoss"
  bottom: "fc_scv_happy"
  bottom: "label"
  top: "loss"
}
I1206 04:46:52.059901 20967 layer_factory.hpp:77] Creating layer data
I1206 04:46:52.091639 20967 db_lmdb.cpp:35] Opened lmdb /idiap/temp/lmedina/fine-tuning/data/Happy/train_lmdb
I1206 04:46:52.107647 20967 net.cpp:84] Creating Layer data
I1206 04:46:52.107673 20967 net.cpp:380] data -> data
I1206 04:46:52.107708 20967 net.cpp:380] data -> label
I1206 04:46:52.107734 20967 data_transformer.cpp:25] Loading mean file from: /idiap/temp/lmedina/fine-tuning/vgg16_places365/places365CNN_mean.binaryproto
I1206 04:46:52.126658 20967 data_layer.cpp:45] output data size: 16,3,224,224
I1206 04:46:52.150713 20967 net.cpp:122] Setting up data
I1206 04:46:52.150763 20967 net.cpp:129] Top shape: 16 3 224 224 (2408448)
I1206 04:46:52.150776 20967 net.cpp:129] Top shape: 16 (16)
I1206 04:46:52.150786 20967 net.cpp:137] Memory required for data: 9633856
I1206 04:46:52.150804 20967 layer_factory.hpp:77] Creating layer conv1_1
I1206 04:46:52.150846 20967 net.cpp:84] Creating Layer conv1_1
I1206 04:46:52.150858 20967 net.cpp:406] conv1_1 <- data
I1206 04:46:52.150878 20967 net.cpp:380] conv1_1 -> conv1_1
I1206 04:46:52.152336 20967 net.cpp:122] Setting up conv1_1
I1206 04:46:52.152359 20967 net.cpp:129] Top shape: 16 64 224 224 (51380224)
I1206 04:46:52.152369 20967 net.cpp:137] Memory required for data: 215154752
I1206 04:46:52.152391 20967 layer_factory.hpp:77] Creating layer relu1_1
I1206 04:46:52.152410 20967 net.cpp:84] Creating Layer relu1_1
I1206 04:46:52.152420 20967 net.cpp:406] relu1_1 <- conv1_1
I1206 04:46:52.152433 20967 net.cpp:367] relu1_1 -> conv1_1 (in-place)
I1206 04:46:52.152449 20967 net.cpp:122] Setting up relu1_1
I1206 04:46:52.152462 20967 net.cpp:129] Top shape: 16 64 224 224 (51380224)
I1206 04:46:52.152472 20967 net.cpp:137] Memory required for data: 420675648
I1206 04:46:52.152482 20967 layer_factory.hpp:77] Creating layer conv1_2
I1206 04:46:52.152498 20967 net.cpp:84] Creating Layer conv1_2
I1206 04:46:52.152509 20967 net.cpp:406] conv1_2 <- conv1_1
I1206 04:46:52.152523 20967 net.cpp:380] conv1_2 -> conv1_2
I1206 04:46:52.153705 20967 net.cpp:122] Setting up conv1_2
I1206 04:46:52.153730 20967 net.cpp:129] Top shape: 16 64 224 224 (51380224)
I1206 04:46:52.153741 20967 net.cpp:137] Memory required for data: 626196544
I1206 04:46:52.153759 20967 layer_factory.hpp:77] Creating layer relu1_2
I1206 04:46:52.153774 20967 net.cpp:84] Creating Layer relu1_2
I1206 04:46:52.153785 20967 net.cpp:406] relu1_2 <- conv1_2
I1206 04:46:52.153803 20967 net.cpp:367] relu1_2 -> conv1_2 (in-place)
I1206 04:46:52.153818 20967 net.cpp:122] Setting up relu1_2
I1206 04:46:52.153829 20967 net.cpp:129] Top shape: 16 64 224 224 (51380224)
I1206 04:46:52.153839 20967 net.cpp:137] Memory required for data: 831717440
I1206 04:46:52.153849 20967 layer_factory.hpp:77] Creating layer pool1
I1206 04:46:52.153865 20967 net.cpp:84] Creating Layer pool1
I1206 04:46:52.153875 20967 net.cpp:406] pool1 <- conv1_2
I1206 04:46:52.153888 20967 net.cpp:380] pool1 -> pool1
I1206 04:46:52.153942 20967 net.cpp:122] Setting up pool1
I1206 04:46:52.153956 20967 net.cpp:129] Top shape: 16 64 112 112 (12845056)
I1206 04:46:52.153966 20967 net.cpp:137] Memory required for data: 883097664
I1206 04:46:52.153976 20967 layer_factory.hpp:77] Creating layer conv2_1
I1206 04:46:52.153992 20967 net.cpp:84] Creating Layer conv2_1
I1206 04:46:52.154003 20967 net.cpp:406] conv2_1 <- pool1
I1206 04:46:52.154016 20967 net.cpp:380] conv2_1 -> conv2_1
I1206 04:46:52.156067 20967 net.cpp:122] Setting up conv2_1
I1206 04:46:52.156088 20967 net.cpp:129] Top shape: 16 128 112 112 (25690112)
I1206 04:46:52.156100 20967 net.cpp:137] Memory required for data: 985858112
I1206 04:46:52.156116 20967 layer_factory.hpp:77] Creating layer relu2_1
I1206 04:46:52.156131 20967 net.cpp:84] Creating Layer relu2_1
I1206 04:46:52.156142 20967 net.cpp:406] relu2_1 <- conv2_1
I1206 04:46:52.156155 20967 net.cpp:367] relu2_1 -> conv2_1 (in-place)
I1206 04:46:52.156169 20967 net.cpp:122] Setting up relu2_1
I1206 04:46:52.156182 20967 net.cpp:129] Top shape: 16 128 112 112 (25690112)
I1206 04:46:52.156191 20967 net.cpp:137] Memory required for data: 1088618560
I1206 04:46:52.156201 20967 layer_factory.hpp:77] Creating layer conv2_2
I1206 04:46:52.156219 20967 net.cpp:84] Creating Layer conv2_2
I1206 04:46:52.156230 20967 net.cpp:406] conv2_2 <- conv2_1
I1206 04:46:52.156244 20967 net.cpp:380] conv2_2 -> conv2_2
I1206 04:46:52.157881 20967 net.cpp:122] Setting up conv2_2
I1206 04:46:52.157901 20967 net.cpp:129] Top shape: 16 128 112 112 (25690112)
I1206 04:46:52.157912 20967 net.cpp:137] Memory required for data: 1191379008
I1206 04:46:52.157925 20967 layer_factory.hpp:77] Creating layer relu2_2
I1206 04:46:52.157938 20967 net.cpp:84] Creating Layer relu2_2
I1206 04:46:52.157949 20967 net.cpp:406] relu2_2 <- conv2_2
I1206 04:46:52.157963 20967 net.cpp:367] relu2_2 -> conv2_2 (in-place)
I1206 04:46:52.157975 20967 net.cpp:122] Setting up relu2_2
I1206 04:46:52.157987 20967 net.cpp:129] Top shape: 16 128 112 112 (25690112)
I1206 04:46:52.157997 20967 net.cpp:137] Memory required for data: 1294139456
I1206 04:46:52.158007 20967 layer_factory.hpp:77] Creating layer pool2
I1206 04:46:52.158020 20967 net.cpp:84] Creating Layer pool2
I1206 04:46:52.158030 20967 net.cpp:406] pool2 <- conv2_2
I1206 04:46:52.158042 20967 net.cpp:380] pool2 -> pool2
I1206 04:46:52.158087 20967 net.cpp:122] Setting up pool2
I1206 04:46:52.158099 20967 net.cpp:129] Top shape: 16 128 56 56 (6422528)
I1206 04:46:52.158109 20967 net.cpp:137] Memory required for data: 1319829568
I1206 04:46:52.158119 20967 layer_factory.hpp:77] Creating layer conv3_1
I1206 04:46:52.158135 20967 net.cpp:84] Creating Layer conv3_1
I1206 04:46:52.158145 20967 net.cpp:406] conv3_1 <- pool2
I1206 04:46:52.158160 20967 net.cpp:380] conv3_1 -> conv3_1
I1206 04:46:52.161773 20967 net.cpp:122] Setting up conv3_1
I1206 04:46:52.161794 20967 net.cpp:129] Top shape: 16 256 56 56 (12845056)
I1206 04:46:52.161805 20967 net.cpp:137] Memory required for data: 1371209792
I1206 04:46:52.161823 20967 layer_factory.hpp:77] Creating layer relu3_1
I1206 04:46:52.161837 20967 net.cpp:84] Creating Layer relu3_1
I1206 04:46:52.161849 20967 net.cpp:406] relu3_1 <- conv3_1
I1206 04:46:52.161862 20967 net.cpp:367] relu3_1 -> conv3_1 (in-place)
I1206 04:46:52.161876 20967 net.cpp:122] Setting up relu3_1
I1206 04:46:52.161887 20967 net.cpp:129] Top shape: 16 256 56 56 (12845056)
I1206 04:46:52.161897 20967 net.cpp:137] Memory required for data: 1422590016
I1206 04:46:52.161907 20967 layer_factory.hpp:77] Creating layer conv3_2
I1206 04:46:52.161927 20967 net.cpp:84] Creating Layer conv3_2
I1206 04:46:52.161937 20967 net.cpp:406] conv3_2 <- conv3_1
I1206 04:46:52.161952 20967 net.cpp:380] conv3_2 -> conv3_2
I1206 04:46:52.168772 20967 net.cpp:122] Setting up conv3_2
I1206 04:46:52.168793 20967 net.cpp:129] Top shape: 16 256 56 56 (12845056)
I1206 04:46:52.168804 20967 net.cpp:137] Memory required for data: 1473970240
I1206 04:46:52.168818 20967 layer_factory.hpp:77] Creating layer relu3_2
I1206 04:46:52.168833 20967 net.cpp:84] Creating Layer relu3_2
I1206 04:46:52.168844 20967 net.cpp:406] relu3_2 <- conv3_2
I1206 04:46:52.168857 20967 net.cpp:367] relu3_2 -> conv3_2 (in-place)
I1206 04:46:52.168871 20967 net.cpp:122] Setting up relu3_2
I1206 04:46:52.168884 20967 net.cpp:129] Top shape: 16 256 56 56 (12845056)
I1206 04:46:52.168893 20967 net.cpp:137] Memory required for data: 1525350464
I1206 04:46:52.168903 20967 layer_factory.hpp:77] Creating layer conv3_3
I1206 04:46:52.168920 20967 net.cpp:84] Creating Layer conv3_3
I1206 04:46:52.168929 20967 net.cpp:406] conv3_3 <- conv3_2
I1206 04:46:52.168943 20967 net.cpp:380] conv3_3 -> conv3_3
I1206 04:46:52.175853 20967 net.cpp:122] Setting up conv3_3
I1206 04:46:52.175875 20967 net.cpp:129] Top shape: 16 256 56 56 (12845056)
I1206 04:46:52.175886 20967 net.cpp:137] Memory required for data: 1576730688
I1206 04:46:52.175900 20967 layer_factory.hpp:77] Creating layer relu3_3
I1206 04:46:52.175918 20967 net.cpp:84] Creating Layer relu3_3
I1206 04:46:52.175930 20967 net.cpp:406] relu3_3 <- conv3_3
I1206 04:46:52.175945 20967 net.cpp:367] relu3_3 -> conv3_3 (in-place)
I1206 04:46:52.175958 20967 net.cpp:122] Setting up relu3_3
I1206 04:46:52.175971 20967 net.cpp:129] Top shape: 16 256 56 56 (12845056)
I1206 04:46:52.175981 20967 net.cpp:137] Memory required for data: 1628110912
I1206 04:46:52.175992 20967 layer_factory.hpp:77] Creating layer pool3
I1206 04:46:52.176005 20967 net.cpp:84] Creating Layer pool3
I1206 04:46:52.176015 20967 net.cpp:406] pool3 <- conv3_3
I1206 04:46:52.176028 20967 net.cpp:380] pool3 -> pool3
I1206 04:46:52.176072 20967 net.cpp:122] Setting up pool3
I1206 04:46:52.176085 20967 net.cpp:129] Top shape: 16 256 28 28 (3211264)
I1206 04:46:52.176095 20967 net.cpp:137] Memory required for data: 1640955968
I1206 04:46:52.176105 20967 layer_factory.hpp:77] Creating layer conv4_1
I1206 04:46:52.176121 20967 net.cpp:84] Creating Layer conv4_1
I1206 04:46:52.176132 20967 net.cpp:406] conv4_1 <- pool3
I1206 04:46:52.176146 20967 net.cpp:380] conv4_1 -> conv4_1
I1206 04:46:52.190073 20967 net.cpp:122] Setting up conv4_1
I1206 04:46:52.190096 20967 net.cpp:129] Top shape: 16 512 28 28 (6422528)
I1206 04:46:52.190107 20967 net.cpp:137] Memory required for data: 1666646080
I1206 04:46:52.190122 20967 layer_factory.hpp:77] Creating layer relu4_1
I1206 04:46:52.190137 20967 net.cpp:84] Creating Layer relu4_1
I1206 04:46:52.190150 20967 net.cpp:406] relu4_1 <- conv4_1
I1206 04:46:52.190162 20967 net.cpp:367] relu4_1 -> conv4_1 (in-place)
I1206 04:46:52.190176 20967 net.cpp:122] Setting up relu4_1
I1206 04:46:52.190189 20967 net.cpp:129] Top shape: 16 512 28 28 (6422528)
I1206 04:46:52.190201 20967 net.cpp:137] Memory required for data: 1692336192
I1206 04:46:52.190212 20967 layer_factory.hpp:77] Creating layer conv4_2
I1206 04:46:52.190229 20967 net.cpp:84] Creating Layer conv4_2
I1206 04:46:52.190240 20967 net.cpp:406] conv4_2 <- conv4_1
I1206 04:46:52.190253 20967 net.cpp:380] conv4_2 -> conv4_2
I1206 04:46:52.216812 20967 net.cpp:122] Setting up conv4_2
I1206 04:46:52.216861 20967 net.cpp:129] Top shape: 16 512 28 28 (6422528)
I1206 04:46:52.216871 20967 net.cpp:137] Memory required for data: 1718026304
I1206 04:46:52.216895 20967 layer_factory.hpp:77] Creating layer relu4_2
I1206 04:46:52.216917 20967 net.cpp:84] Creating Layer relu4_2
I1206 04:46:52.216929 20967 net.cpp:406] relu4_2 <- conv4_2
I1206 04:46:52.216944 20967 net.cpp:367] relu4_2 -> conv4_2 (in-place)
I1206 04:46:52.216962 20967 net.cpp:122] Setting up relu4_2
I1206 04:46:52.216975 20967 net.cpp:129] Top shape: 16 512 28 28 (6422528)
I1206 04:46:52.216991 20967 net.cpp:137] Memory required for data: 1743716416
I1206 04:46:52.217002 20967 layer_factory.hpp:77] Creating layer conv4_3
I1206 04:46:52.217021 20967 net.cpp:84] Creating Layer conv4_3
I1206 04:46:52.217032 20967 net.cpp:406] conv4_3 <- conv4_2
I1206 04:46:52.217046 20967 net.cpp:380] conv4_3 -> conv4_3
I1206 04:46:52.243592 20967 net.cpp:122] Setting up conv4_3
I1206 04:46:52.243626 20967 net.cpp:129] Top shape: 16 512 28 28 (6422528)
I1206 04:46:52.243638 20967 net.cpp:137] Memory required for data: 1769406528
I1206 04:46:52.243655 20967 layer_factory.hpp:77] Creating layer relu4_3
I1206 04:46:52.243672 20967 net.cpp:84] Creating Layer relu4_3
I1206 04:46:52.243685 20967 net.cpp:406] relu4_3 <- conv4_3
I1206 04:46:52.243700 20967 net.cpp:367] relu4_3 -> conv4_3 (in-place)
I1206 04:46:52.243717 20967 net.cpp:122] Setting up relu4_3
I1206 04:46:52.243731 20967 net.cpp:129] Top shape: 16 512 28 28 (6422528)
I1206 04:46:52.243741 20967 net.cpp:137] Memory required for data: 1795096640
I1206 04:46:52.243752 20967 layer_factory.hpp:77] Creating layer pool4
I1206 04:46:52.243765 20967 net.cpp:84] Creating Layer pool4
I1206 04:46:52.243775 20967 net.cpp:406] pool4 <- conv4_3
I1206 04:46:52.243791 20967 net.cpp:380] pool4 -> pool4
I1206 04:46:52.243840 20967 net.cpp:122] Setting up pool4
I1206 04:46:52.243854 20967 net.cpp:129] Top shape: 16 512 14 14 (1605632)
I1206 04:46:52.243863 20967 net.cpp:137] Memory required for data: 1801519168
I1206 04:46:52.243873 20967 layer_factory.hpp:77] Creating layer conv5_1
I1206 04:46:52.243891 20967 net.cpp:84] Creating Layer conv5_1
I1206 04:46:52.243902 20967 net.cpp:406] conv5_1 <- pool4
I1206 04:46:52.243916 20967 net.cpp:380] conv5_1 -> conv5_1
I1206 04:46:52.270560 20967 net.cpp:122] Setting up conv5_1
I1206 04:46:52.270593 20967 net.cpp:129] Top shape: 16 512 14 14 (1605632)
I1206 04:46:52.270606 20967 net.cpp:137] Memory required for data: 1807941696
I1206 04:46:52.270623 20967 layer_factory.hpp:77] Creating layer relu5_1
I1206 04:46:52.270642 20967 net.cpp:84] Creating Layer relu5_1
I1206 04:46:52.270654 20967 net.cpp:406] relu5_1 <- conv5_1
I1206 04:46:52.270670 20967 net.cpp:367] relu5_1 -> conv5_1 (in-place)
I1206 04:46:52.270689 20967 net.cpp:122] Setting up relu5_1
I1206 04:46:52.270700 20967 net.cpp:129] Top shape: 16 512 14 14 (1605632)
I1206 04:46:52.270711 20967 net.cpp:137] Memory required for data: 1814364224
I1206 04:46:52.270722 20967 layer_factory.hpp:77] Creating layer conv5_2
I1206 04:46:52.270740 20967 net.cpp:84] Creating Layer conv5_2
I1206 04:46:52.270752 20967 net.cpp:406] conv5_2 <- conv5_1
I1206 04:46:52.270766 20967 net.cpp:380] conv5_2 -> conv5_2
I1206 04:46:52.297369 20967 net.cpp:122] Setting up conv5_2
I1206 04:46:52.297401 20967 net.cpp:129] Top shape: 16 512 14 14 (1605632)
I1206 04:46:52.297415 20967 net.cpp:137] Memory required for data: 1820786752
I1206 04:46:52.297430 20967 layer_factory.hpp:77] Creating layer relu5_2
I1206 04:46:52.297449 20967 net.cpp:84] Creating Layer relu5_2
I1206 04:46:52.297462 20967 net.cpp:406] relu5_2 <- conv5_2
I1206 04:46:52.297479 20967 net.cpp:367] relu5_2 -> conv5_2 (in-place)
I1206 04:46:52.297497 20967 net.cpp:122] Setting up relu5_2
I1206 04:46:52.297509 20967 net.cpp:129] Top shape: 16 512 14 14 (1605632)
I1206 04:46:52.297519 20967 net.cpp:137] Memory required for data: 1827209280
I1206 04:46:52.297533 20967 layer_factory.hpp:77] Creating layer conv5_3
I1206 04:46:52.297550 20967 net.cpp:84] Creating Layer conv5_3
I1206 04:46:52.297562 20967 net.cpp:406] conv5_3 <- conv5_2
I1206 04:46:52.297577 20967 net.cpp:380] conv5_3 -> conv5_3
I1206 04:46:52.323952 20967 net.cpp:122] Setting up conv5_3
I1206 04:46:52.323981 20967 net.cpp:129] Top shape: 16 512 14 14 (1605632)
I1206 04:46:52.323992 20967 net.cpp:137] Memory required for data: 1833631808
I1206 04:46:52.324007 20967 layer_factory.hpp:77] Creating layer relu5_3
I1206 04:46:52.324023 20967 net.cpp:84] Creating Layer relu5_3
I1206 04:46:52.324034 20967 net.cpp:406] relu5_3 <- conv5_3
I1206 04:46:52.324048 20967 net.cpp:367] relu5_3 -> conv5_3 (in-place)
I1206 04:46:52.324071 20967 net.cpp:122] Setting up relu5_3
I1206 04:46:52.324084 20967 net.cpp:129] Top shape: 16 512 14 14 (1605632)
I1206 04:46:52.324095 20967 net.cpp:137] Memory required for data: 1840054336
I1206 04:46:52.324105 20967 layer_factory.hpp:77] Creating layer pool5
I1206 04:46:52.324120 20967 net.cpp:84] Creating Layer pool5
I1206 04:46:52.324131 20967 net.cpp:406] pool5 <- conv5_3
I1206 04:46:52.324144 20967 net.cpp:380] pool5 -> pool5
I1206 04:46:52.324198 20967 net.cpp:122] Setting up pool5
I1206 04:46:52.324214 20967 net.cpp:129] Top shape: 16 512 7 7 (401408)
I1206 04:46:52.324224 20967 net.cpp:137] Memory required for data: 1841659968
I1206 04:46:52.324235 20967 layer_factory.hpp:77] Creating layer fc6
I1206 04:46:52.324261 20967 net.cpp:84] Creating Layer fc6
I1206 04:46:52.324275 20967 net.cpp:406] fc6 <- pool5
I1206 04:46:52.324288 20967 net.cpp:380] fc6 -> fc6
I1206 04:46:53.561925 20967 net.cpp:122] Setting up fc6
I1206 04:46:53.561969 20967 net.cpp:129] Top shape: 16 4096 (65536)
I1206 04:46:53.561980 20967 net.cpp:137] Memory required for data: 1841922112
I1206 04:46:53.561998 20967 layer_factory.hpp:77] Creating layer relu6
I1206 04:46:53.562017 20967 net.cpp:84] Creating Layer relu6
I1206 04:46:53.562029 20967 net.cpp:406] relu6 <- fc6
I1206 04:46:53.562044 20967 net.cpp:367] relu6 -> fc6 (in-place)
I1206 04:46:53.562062 20967 net.cpp:122] Setting up relu6
I1206 04:46:53.562086 20967 net.cpp:129] Top shape: 16 4096 (65536)
I1206 04:46:53.562101 20967 net.cpp:137] Memory required for data: 1842184256
I1206 04:46:53.562111 20967 layer_factory.hpp:77] Creating layer drop6
I1206 04:46:53.562127 20967 net.cpp:84] Creating Layer drop6
I1206 04:46:53.562137 20967 net.cpp:406] drop6 <- fc6
I1206 04:46:53.562150 20967 net.cpp:367] drop6 -> fc6 (in-place)
I1206 04:46:53.562189 20967 net.cpp:122] Setting up drop6
I1206 04:46:53.562203 20967 net.cpp:129] Top shape: 16 4096 (65536)
I1206 04:46:53.562212 20967 net.cpp:137] Memory required for data: 1842446400
I1206 04:46:53.562222 20967 layer_factory.hpp:77] Creating layer fc7
I1206 04:46:53.562238 20967 net.cpp:84] Creating Layer fc7
I1206 04:46:53.562248 20967 net.cpp:406] fc7 <- fc6
I1206 04:46:53.562263 20967 net.cpp:380] fc7 -> fc7
I1206 04:46:53.754493 20967 net.cpp:122] Setting up fc7
I1206 04:46:53.754535 20967 net.cpp:129] Top shape: 16 4096 (65536)
I1206 04:46:53.754546 20967 net.cpp:137] Memory required for data: 1842708544
I1206 04:46:53.754565 20967 layer_factory.hpp:77] Creating layer relu7
I1206 04:46:53.754585 20967 net.cpp:84] Creating Layer relu7
I1206 04:46:53.754596 20967 net.cpp:406] relu7 <- fc7
I1206 04:46:53.754611 20967 net.cpp:367] relu7 -> fc7 (in-place)
I1206 04:46:53.754628 20967 net.cpp:122] Setting up relu7
I1206 04:46:53.754639 20967 net.cpp:129] Top shape: 16 4096 (65536)
I1206 04:46:53.754648 20967 net.cpp:137] Memory required for data: 1842970688
I1206 04:46:53.754658 20967 layer_factory.hpp:77] Creating layer drop7
I1206 04:46:53.754673 20967 net.cpp:84] Creating Layer drop7
I1206 04:46:53.754681 20967 net.cpp:406] drop7 <- fc7
I1206 04:46:53.754693 20967 net.cpp:367] drop7 -> fc7 (in-place)
I1206 04:46:53.754729 20967 net.cpp:122] Setting up drop7
I1206 04:46:53.754756 20967 net.cpp:129] Top shape: 16 4096 (65536)
I1206 04:46:53.754766 20967 net.cpp:137] Memory required for data: 1843232832
I1206 04:46:53.754776 20967 layer_factory.hpp:77] Creating layer fc_scv_happy
I1206 04:46:53.754792 20967 net.cpp:84] Creating Layer fc_scv_happy
I1206 04:46:53.754802 20967 net.cpp:406] fc_scv_happy <- fc7
I1206 04:46:53.754820 20967 net.cpp:380] fc_scv_happy -> fc_scv_happy
I1206 04:46:53.754981 20967 net.cpp:122] Setting up fc_scv_happy
I1206 04:46:53.754997 20967 net.cpp:129] Top shape: 16 1 (16)
I1206 04:46:53.755007 20967 net.cpp:137] Memory required for data: 1843232896
I1206 04:46:53.755019 20967 layer_factory.hpp:77] Creating layer loss
I1206 04:46:53.755033 20967 net.cpp:84] Creating Layer loss
I1206 04:46:53.755043 20967 net.cpp:406] loss <- fc_scv_happy
I1206 04:46:53.755072 20967 net.cpp:406] loss <- label
I1206 04:46:53.755087 20967 net.cpp:380] loss -> loss
I1206 04:46:53.755134 20967 net.cpp:122] Setting up loss
…
I1206 04:46:53.759495 20967 net.cpp:294] The NetState phase (1) differed from the phase (0) specified by a rule in layer data
I1206 04:46:53.759768 20967 net.cpp:51] Initializing net from parameters: 
name: "VGG-Places365-SCV-Happy"
state {
  phase: TEST
}
layer {
  name: "data"
  type: "Data"
  top: "data"
  top: "label"
  include {
    phase: TEST
  }
  transform_param {
    mirror: false
    crop_size: 224
    mean_file: "/idiap/temp/lmedina/fine-tuning/vgg16_places365/places365CNN_mean.binaryproto"
  }
  data_param {
    source: "/idiap/temp/lmedina/fine-tuning/data/Happy/validation_lmdb"
    batch_size: 16
    backend: LMDB
  }
}
layer {
  name: "conv1_1"
  type: "Convolution"
  bottom: "data"
  top: "conv1_1"
  param {
    lr_mult: 1
    decay_mult: 1
  }
  param {
    lr_mult: 2
    decay_mult: 0
  }
  convolution_param {
    num_output: 64
    pad: 1
    kernel_size: 3
    weight_filler {
      type: "gaussian"
      std: 0.01
    }
    bias_filler {
      type: "constant"
      value: 0
    }
  }
}
layer {
  name: "relu1_1"
  type: "ReLU"
  bottom: "conv1_1"
  top: "conv1_1"
}
layer {
  name: "conv1_2"
  type: "Convolution"
  bottom: "conv1_1"
  top: "conv1_2"
  param {
    lr_mult: 1
    decay_mult: 1
  }
  param {
    lr_mult: 2
    decay_mult: 0
  }
  convolution_param {
    num_output: 64
    pad: 1
    kernel_size: 3
    weight_filler {
      type: "gaussian"
      std: 0.01
    }
    bias_filler {
      type: "constant"
      value: 0
    }
  }
}
layer {
  name: "relu1_2"
  type: "ReLU"
  bottom: "conv1_2"
  top: "conv1_2"
}
layer {
  name: "pool1"
  type: "Pooling"
  bottom: "conv1_2"
  top: "pool1"
  pooling_param {
    pool: MAX
    kernel_size: 2
    stride: 2
  }
}
layer {
  name: "conv2_1"
  type: "Convolution"
  bottom: "pool1"
  top: "conv2_1"
  param {
    lr_mult: 1
    decay_mult: 1
  }
  param {
    lr_mult: 2
    decay_mult: 0
  }
  convolution_param {
    num_output: 128
    pad: 1
    kernel_size: 3
    weight_filler {
      type: "gaussian"
      std: 0.01
    }
    bias_filler {
      type: "constant"
      value: 0
    }
  }
}
layer {
  name: "relu2_1"
  type: "ReLU"
  bottom: "conv2_1"
  top: "conv2_1"
}
layer {
  name: "conv2_2"
  type: "Convolution"
  bottom: "conv2_1"
  top: "conv2_2"
  param {
    lr_mult: 1
    decay_mult: 1
  }
  param {
    lr_mult: 2
    decay_mult: 0
  }
  convolution_param {
    num_output: 128
    pad: 1
    kernel_size: 3
    weight_filler {
      type: "gaussian"
      std: 0.01
    }
    bias_filler {
      type: "constant"
      value: 0
    }
  }
}
layer {
  name: "relu2_2"
  type: "ReLU"
  bottom: "conv2_2"
  top: "conv2_2"
}
layer {
  name: "pool2"
  type: "Pooling"
  bottom: "conv2_2"
  top: "pool2"
  pooling_param {
    pool: MAX
    kernel_size: 2
    stride: 2
  }
}
layer {
  name: "conv3_1"
  type: "Convolution"
  bottom: "pool2"
  top: "conv3_1"
  param {
    lr_mult: 1
    decay_mult: 1
  }
  param {
    lr_mult: 2
    decay_mult: 0
  }
  convolution_param {
    num_output: 256
    pad: 1
    kernel_size: 3
    weight_filler {
      type: "gaussian"
      std: 0.01
    }
    bias_filler {
      type: "constant"
      value: 0
    }
  }
}
layer {
  name: "relu3_1"
  type: "ReLU"
  bottom: "conv3_1"
  top: "conv3_1"
}
layer {
  name: "conv3_2"
  type: "Convolution"
  bottom: "conv3_1"
  top: "conv3_2"
  param {
    lr_mult: 1
    decay_mult: 1
  }
  param {
    lr_mult: 2
    decay_mult: 0
  }
  convolution_param {
    num_output: 256
    pad: 1
    kernel_size: 3
    weight_filler {
      type: "gaussian"
      std: 0.01
    }
    bias_filler {
      type: "constant"
      value: 0
    }
  }
}
layer {
  name: "relu3_2"
  type: "ReLU"
  bottom: "conv3_2"
  top: "conv3_2"
}
layer {
  name: "conv3_3"
  type: "Convolution"
  bottom: "conv3_2"
  top: "conv3_3"
  param {
    lr_mult: 1
    decay_mult: 1
  }
  param {
    lr_mult: 2
    decay_mult: 0
  }
  convolution_param {
    num_output: 256
    pad: 1
    kernel_size: 3
    weight_filler {
      type: "gaussian"
      std: 0.01
    }
    bias_filler {
      type: "constant"
      value: 0
    }
  }
}
layer {
  name: "relu3_3"
  type: "ReLU"
  bottom: "conv3_3"
  top: "conv3_3"
}
layer {
  name: "pool3"
  type: "Pooling"
  bottom: "conv3_3"
  top: "pool3"
  pooling_param {
    pool: MAX
    kernel_size: 2
    stride: 2
  }
}
layer {
  name: "conv4_1"
  type: "Convolution"
  bottom: "pool3"
  top: "conv4_1"
  param {
    lr_mult: 1
    decay_mult: 1
  }
  param {
    lr_mult: 2
    decay_mult: 0
  }
  convolution_param {
    num_output: 512
    pad: 1
    kernel_size: 3
    weight_filler {
      type: "gaussian"
      std: 0.01
    }
    bias_filler {
      type: "constant"
      value: 0
    }
  }
}
layer {
  name: "relu4_1"
  type: "ReLU"
  bottom: "conv4_1"
  top: "conv4_1"
}
layer {
  name: "conv4_2"
  type: "Convolution"
  bottom: "conv4_1"
  top: "conv4_2"
  param {
    lr_mult: 1
    decay_mult: 1
  }
  param {
    lr_mult: 2
    decay_mult: 0
  }
  convolution_param {
    num_output: 512
    pad: 1
    kernel_size: 3
    weight_filler {
      type: "gaussian"
      std: 0.01
    }
    bias_filler {
      type: "constant"
      value: 0
    }
  }
}
layer {
  name: "relu4_2"
  type: "ReLU"
  bottom: "conv4_2"
  top: "conv4_2"
}
layer {
  name: "conv4_3"
  type: "Convolution"
  bottom: "conv4_2"
  top: "conv4_3"
  param {
    lr_mult: 1
    decay_mult: 1
  }
  param {
    lr_mult: 2
    decay_mult: 0
  }
  convolution_param {
    num_output: 512
    pad: 1
    kernel_size: 3
    weight_filler {
      type: "gaussian"
      std: 0.01
    }
    bias_filler {
      type: "constant"
      value: 0
    }
  }
}
layer {
  name: "relu4_3"
  type: "ReLU"
  bottom: "conv4_3"
  top: "conv4_3"
}
layer {
  name: "pool4"
  type: "Pooling"
  bottom: "conv4_3"
  top: "pool4"
  pooling_param {
    pool: MAX
    kernel_size: 2
    stride: 2
  }
}
layer {
  name: "conv5_1"
  type: "Convolution"
  bottom: "pool4"
  top: "conv5_1"
  param {
    lr_mult: 1
    decay_mult: 1
  }
  param {
    lr_mult: 2
    decay_mult: 0
  }
  convolution_param {
    num_output: 512
    pad: 1
    kernel_size: 3
    weight_filler {
      type: "gaussian"
      std: 0.01
    }
    bias_filler {
      type: "constant"
      value: 0
    }
  }
}
layer {
  name: "relu5_1"
  type: "ReLU"
  bottom: "conv5_1"
  top: "conv5_1"
}
layer {
  name: "conv5_2"
  type: "Convolution"
  bottom: "conv5_1"
  top: "conv5_2"
  param {
    lr_mult: 1
    decay_mult: 1
  }
  param {
    lr_mult: 2
    decay_mult: 0
  }
  convolution_param {
    num_output: 512
    pad: 1
    kernel_size: 3
    weight_filler {
      type: "gaussian"
      std: 0.01
    }
    bias_filler {
      type: "constant"
      value: 0
    }
  }
}
layer {
  name: "relu5_2"
  type: "ReLU"
  bottom: "conv5_2"
  top: "conv5_2"
}
layer {
  name: "conv5_3"
  type: "Convolution"
  bottom: "conv5_2"
  top: "conv5_3"
  param {
    lr_mult: 1
    decay_mult: 1
  }
  param {
    lr_mult: 2
    decay_mult: 0
  }
  convolution_param {
    num_output: 512
    pad: 1
    kernel_size: 3
    weight_filler {
      type: "gaussian"
      std: 0.01
    }
    bias_filler {
      type: "constant"
      value: 0
    }
  }
}
layer {
  name: "relu5_3"
  type: "ReLU"
  bottom: "conv5_3"
  top: "conv5_3"
}
layer {
  name: "pool5"
  type: "Pooling"
  bottom: "conv5_3"
  top: "pool5"
  pooling_param {
    pool: MAX
    kernel_size: 2
    stride: 2
  }
}
layer {
  name: "fc6"
  type: "InnerProduct"
  bottom: "pool5"
  top: "fc6"
  param {
    lr_mult: 1
    decay_mult: 1
  }
  param {
    lr_mult: 2
    decay_mult: 0
  }
  inner_product_param {
    num_output: 4096
    weight_filler {
      type: "gaussian"
      std: 0.01
    }
    bias_filler {
      type: "constant"
      value: 0
    }
  }
}
layer {
  name: "relu6"
  type: "ReLU"
  bottom: "fc6"
  top: "fc6"
}
layer {
  name: "drop6"
  type: "Dropout"
  bottom: "fc6"
  top: "fc6"
  dropout_param {
    dropout_ratio: 0.5
  }
}
layer {
  name: "fc7"
  type: "InnerProduct"
  bottom: "fc6"
  top: "fc7"
  param {
    lr_mult: 1
    decay_mult: 1
  }
  param {
    lr_mult: 2
    decay_mult: 0
  }
  inner_product_param {
    num_output: 4096
    weight_filler {
      type: "gaussian"
      std: 0.01
    }
    bias_filler {
      type: "constant"
      value: 0
    }
  }
}
layer {
  name: "relu7"
  type: "ReLU"
  bottom: "fc7"
  top: "fc7"
}
layer {
  name: "drop7"
  type: "Dropout"
  bottom: "fc7"
  top: "fc7"
  dropout_param {
    dropout_ratio: 0.5
  }
}
layer {
  name: "fc_scv_happy"
  type: "InnerProduct"
  bottom: "fc7"
  top: "fc_scv_happy"
  param {
    lr_mult: 10
    decay_mult: 1
  }
  param {
    lr_mult: 20
    decay_mult: 0
  }
  inner_product_param {
    num_output: 1
    weight_filler {
      type: "xavier"
      std: 0.01
    }
    bias_filler {
      type: "constant"
      value: 0
    }
  }
}
layer {
  name: "loss"
  type: "EuclideanLoss"
  bottom: "fc_scv_happy"
  bottom: "label"
  top: "loss"
}
layer {
  name: "losttest"
  type: "EuclideanLoss"
  bottom: "fc_scv_happy"
  bottom: "label"
  top: "losttest"
  include {
    phase: TEST
  }
}
I1206 04:46:53.759940 20967 layer_factory.hpp:77] Creating layer data
I1206 04:46:53.787585 20967 db_lmdb.cpp:35] Opened lmdb /idiap/temp/lmedina/fine-tuning/data/Happy/validation_lmdb
I1206 04:46:53.807055 20967 net.cpp:84] Creating Layer data
I1206 04:46:53.807088 20967 net.cpp:380] data -> data
I1206 04:46:53.807116 20967 net.cpp:380] data -> label
I1206 04:46:53.807199 20967 data_transformer.cpp:25] Loading mean file from: /idiap/temp/lmedina/fine-tuning/vgg16_places365/places365CNN_mean.binaryproto
I1206 04:46:53.824858 20967 data_layer.cpp:45] output data size: 16,3,224,224
I1206 04:46:53.866091 20967 net.cpp:122] Setting up data
I1206 04:46:53.866134 20967 net.cpp:129] Top shape: 16 3 224 224 (2408448)
I1206 04:46:53.866152 20967 net.cpp:129] Top shape: 16 (16)
I1206 04:46:53.866163 20967 net.cpp:137] Memory required for data: 9633856
I1206 04:46:53.866178 20967 layer_factory.hpp:77] Creating layer label_data_1_split
I1206 04:46:53.866204 20967 net.cpp:84] Creating Layer label_data_1_split
I1206 04:46:53.866216 20967 net.cpp:406] label_data_1_split <- label
I1206 04:46:53.866233 20967 net.cpp:380] label_data_1_split -> label_data_1_split_0
I1206 04:46:53.866255 20967 net.cpp:380] label_data_1_split -> label_data_1_split_1
I1206 04:46:53.866325 20967 net.cpp:122] Setting up label_data_1_split
I1206 04:46:53.866343 20967 net.cpp:129] Top shape: 16 (16)
I1206 04:46:53.866356 20967 net.cpp:129] Top shape: 16 (16)
I1206 04:46:53.866375 20967 net.cpp:137] Memory required for data: 9633984
I1206 04:46:53.866387 20967 layer_factory.hpp:77] Creating layer conv1_1
I1206 04:46:53.866410 20967 net.cpp:84] Creating Layer conv1_1
I1206 04:46:53.866423 20967 net.cpp:406] conv1_1 <- data
I1206 04:46:53.866438 20967 net.cpp:380] conv1_1 -> conv1_1
I1206 04:46:53.866804 20967 net.cpp:122] Setting up conv1_1
I1206 04:46:53.866829 20967 net.cpp:129] Top shape: 16 64 224 224 (51380224)
I1206 04:46:53.866842 20967 net.cpp:137] Memory required for data: 215154880
I1206 04:46:53.866863 20967 layer_factory.hpp:77] Creating layer relu1_1
I1206 04:46:53.866881 20967 net.cpp:84] Creating Layer relu1_1
I1206 04:46:53.866894 20967 net.cpp:406] relu1_1 <- conv1_1
I1206 04:46:53.866909 20967 net.cpp:367] relu1_1 -> conv1_1 (in-place)
I1206 04:46:53.866925 20967 net.cpp:122] Setting up relu1_1
I1206 04:46:53.866938 20967 net.cpp:129] Top shape: 16 64 224 224 (51380224)
I1206 04:46:53.866951 20967 net.cpp:137] Memory required for data: 420675776
I1206 04:46:53.866962 20967 layer_factory.hpp:77] Creating layer conv1_2
I1206 04:46:53.866981 20967 net.cpp:84] Creating Layer conv1_2
I1206 04:46:53.866993 20967 net.cpp:406] conv1_2 <- conv1_1
I1206 04:46:53.867009 20967 net.cpp:380] conv1_2 -> conv1_2
I1206 04:46:53.868365 20967 net.cpp:122] Setting up conv1_2
I1206 04:46:53.868388 20967 net.cpp:129] Top shape: 16 64 224 224 (51380224)
I1206 04:46:53.868401 20967 net.cpp:137] Memory required for data: 626196672
I1206 04:46:53.868420 20967 layer_factory.hpp:77] Creating layer relu1_2
I1206 04:46:53.868436 20967 net.cpp:84] Creating Layer relu1_2
I1206 04:46:53.868449 20967 net.cpp:406] relu1_2 <- conv1_2
I1206 04:46:53.868464 20967 net.cpp:367] relu1_2 -> conv1_2 (in-place)
I1206 04:46:53.868481 20967 net.cpp:122] Setting up relu1_2
I1206 04:46:53.868494 20967 net.cpp:129] Top shape: 16 64 224 224 (51380224)
I1206 04:46:53.868505 20967 net.cpp:137] Memory required for data: 831717568
I1206 04:46:53.868516 20967 layer_factory.hpp:77] Creating layer pool1
I1206 04:46:53.868532 20967 net.cpp:84] Creating Layer pool1
I1206 04:46:53.868548 20967 net.cpp:406] pool1 <- conv1_2
I1206 04:46:53.868561 20967 net.cpp:380] pool1 -> pool1
I1206 04:46:53.868623 20967 net.cpp:122] Setting up pool1
I1206 04:46:53.868638 20967 net.cpp:129] Top shape: 16 64 112 112 (12845056)
I1206 04:46:53.868661 20967 net.cpp:137] Memory required for data: 883097792
I1206 04:46:53.868674 20967 layer_factory.hpp:77] Creating layer conv2_1
I1206 04:46:53.868692 20967 net.cpp:84] Creating Layer conv2_1
I1206 04:46:53.868705 20967 net.cpp:406] conv2_1 <- pool1
I1206 04:46:53.868719 20967 net.cpp:380] conv2_1 -> conv2_1
I1206 04:46:53.871071 20967 net.cpp:122] Setting up conv2_1
I1206 04:46:53.871096 20967 net.cpp:129] Top shape: 16 128 112 112 (25690112)
I1206 04:46:53.871109 20967 net.cpp:137] Memory required for data: 985858240
I1206 04:46:53.871129 20967 layer_factory.hpp:77] Creating layer relu2_1
I1206 04:46:53.871146 20967 net.cpp:84] Creating Layer relu2_1
I1206 04:46:53.871158 20967 net.cpp:406] relu2_1 <- conv2_1
I1206 04:46:53.871173 20967 net.cpp:367] relu2_1 -> conv2_1 (in-place)
I1206 04:46:53.871189 20967 net.cpp:122] Setting up relu2_1
I1206 04:46:53.871202 20967 net.cpp:129] Top shape: 16 128 112 112 (25690112)
I1206 04:46:53.871213 20967 net.cpp:137] Memory required for data: 1088618688
I1206 04:46:53.871224 20967 layer_factory.hpp:77] Creating layer conv2_2
I1206 04:46:53.871243 20967 net.cpp:84] Creating Layer conv2_2
I1206 04:46:53.871253 20967 net.cpp:406] conv2_2 <- conv2_1
I1206 04:46:53.871268 20967 net.cpp:380] conv2_2 -> conv2_2
I1206 04:46:53.873126 20967 net.cpp:122] Setting up conv2_2
I1206 04:46:53.873144 20967 net.cpp:129] Top shape: 16 128 112 112 (25690112)
I1206 04:46:53.873157 20967 net.cpp:137] Memory required for data: 1191379136
I1206 04:46:53.873170 20967 layer_factory.hpp:77] Creating layer relu2_2
I1206 04:46:53.873185 20967 net.cpp:84] Creating Layer relu2_2
I1206 04:46:53.873198 20967 net.cpp:406] relu2_2 <- conv2_2
I1206 04:46:53.873211 20967 net.cpp:367] relu2_2 -> conv2_2 (in-place)
I1206 04:46:53.873237 20967 net.cpp:122] Setting up relu2_2
I1206 04:46:53.873250 20967 net.cpp:129] Top shape: 16 128 112 112 (25690112)
I1206 04:46:53.873261 20967 net.cpp:137] Memory required for data: 1294139584
I1206 04:46:53.873273 20967 layer_factory.hpp:77] Creating layer pool2
I1206 04:46:53.873287 20967 net.cpp:84] Creating Layer pool2
I1206 04:46:53.873298 20967 net.cpp:406] pool2 <- conv2_2
I1206 04:46:53.873348 20967 net.cpp:380] pool2 -> pool2
I1206 04:46:53.873401 20967 net.cpp:122] Setting up pool2
I1206 04:46:53.873420 20967 net.cpp:129] Top shape: 16 128 56 56 (6422528)
I1206 04:46:53.873430 20967 net.cpp:137] Memory required for data: 1319829696
I1206 04:46:53.873442 20967 layer_factory.hpp:77] Creating layer conv3_1
I1206 04:46:53.873459 20967 net.cpp:84] Creating Layer conv3_1
I1206 04:46:53.873471 20967 net.cpp:406] conv3_1 <- pool2
I1206 04:46:53.873487 20967 net.cpp:380] conv3_1 -> conv3_1
I1206 04:46:53.879237 20967 net.cpp:122] Setting up conv3_1
I1206 04:46:53.879276 20967 net.cpp:129] Top shape: 16 256 56 56 (12845056)
I1206 04:46:53.879289 20967 net.cpp:137] Memory required for data: 1371209920
I1206 04:46:53.879310 20967 layer_factory.hpp:77] Creating layer relu3_1
I1206 04:46:53.879326 20967 net.cpp:84] Creating Layer relu3_1
I1206 04:46:53.879339 20967 net.cpp:406] relu3_1 <- conv3_1
I1206 04:46:53.879354 20967 net.cpp:367] relu3_1 -> conv3_1 (in-place)
I1206 04:46:53.879370 20967 net.cpp:122] Setting up relu3_1
I1206 04:46:53.879384 20967 net.cpp:129] Top shape: 16 256 56 56 (12845056)
I1206 04:46:53.879395 20967 net.cpp:137] Memory required for data: 1422590144
I1206 04:46:53.879406 20967 layer_factory.hpp:77] Creating layer conv3_2
I1206 04:46:53.879425 20967 net.cpp:84] Creating Layer conv3_2
I1206 04:46:53.879436 20967 net.cpp:406] conv3_2 <- conv3_1
I1206 04:46:53.879451 20967 net.cpp:380] conv3_2 -> conv3_2
I1206 04:46:53.892662 20967 net.cpp:122] Setting up conv3_2
I1206 04:46:53.892688 20967 net.cpp:129] Top shape: 16 256 56 56 (12845056)
I1206 04:46:53.892699 20967 net.cpp:137] Memory required for data: 1473970368
I1206 04:46:53.892720 20967 layer_factory.hpp:77] Creating layer relu3_2
I1206 04:46:53.892737 20967 net.cpp:84] Creating Layer relu3_2
I1206 04:46:53.892750 20967 net.cpp:406] relu3_2 <- conv3_2
I1206 04:46:53.892765 20967 net.cpp:367] relu3_2 -> conv3_2 (in-place)
I1206 04:46:53.892781 20967 net.cpp:122] Setting up relu3_2
I1206 04:46:53.892796 20967 net.cpp:129] Top shape: 16 256 56 56 (12845056)
I1206 04:46:53.892807 20967 net.cpp:137] Memory required for data: 1525350592
I1206 04:46:53.892819 20967 layer_factory.hpp:77] Creating layer conv3_3
I1206 04:46:53.892840 20967 net.cpp:84] Creating Layer conv3_3
I1206 04:46:53.892853 20967 net.cpp:406] conv3_3 <- conv3_2
I1206 04:46:53.892868 20967 net.cpp:380] conv3_3 -> conv3_3
I1206 04:46:53.909695 20967 net.cpp:122] Setting up conv3_3
I1206 04:46:53.909852 20967 net.cpp:129] Top shape: 16 256 56 56 (12845056)
I1206 04:46:53.909865 20967 net.cpp:137] Memory required for data: 1576730816
I1206 04:46:53.910002 20967 layer_factory.hpp:77] Creating layer relu3_3
I1206 04:46:53.910020 20967 net.cpp:84] Creating Layer relu3_3
I1206 04:46:53.910033 20967 net.cpp:406] relu3_3 <- conv3_3
I1206 04:46:53.910090 20967 net.cpp:367] relu3_3 -> conv3_3 (in-place)
I1206 04:46:53.910107 20967 net.cpp:122] Setting up relu3_3
I1206 04:46:53.910161 20967 net.cpp:129] Top shape: 16 256 56 56 (12845056)
I1206 04:46:53.910172 20967 net.cpp:137] Memory required for data: 1628111040
I1206 04:46:53.910187 20967 layer_factory.hpp:77] Creating layer pool3
I1206 04:46:53.910360 20967 net.cpp:84] Creating Layer pool3
I1206 04:46:53.910429 20967 net.cpp:406] pool3 <- conv3_3
I1206 04:46:53.910444 20967 net.cpp:380] pool3 -> pool3
I1206 04:46:53.910681 20967 net.cpp:122] Setting up pool3
I1206 04:46:53.910745 20967 net.cpp:129] Top shape: 16 256 28 28 (3211264)
I1206 04:46:53.910758 20967 net.cpp:137] Memory required for data: 1640956096
I1206 04:46:53.910770 20967 layer_factory.hpp:77] Creating layer conv4_1
I1206 04:46:53.910930 20967 net.cpp:84] Creating Layer conv4_1
I1206 04:46:53.911006 20967 net.cpp:406] conv4_1 <- pool3
I1206 04:46:53.911082 20967 net.cpp:380] conv4_1 -> conv4_1
I1206 04:46:53.934803 20967 net.cpp:122] Setting up conv4_1
I1206 04:46:53.934837 20967 net.cpp:129] Top shape: 16 512 28 28 (6422528)
I1206 04:46:53.934851 20967 net.cpp:137] Memory required for data: 1666646208
I1206 04:46:53.934991 20967 layer_factory.hpp:77] Creating layer relu4_1
I1206 04:46:53.935058 20967 net.cpp:84] Creating Layer relu4_1
I1206 04:46:53.935072 20967 net.cpp:406] relu4_1 <- conv4_1
I1206 04:46:53.935194 20967 net.cpp:367] relu4_1 -> conv4_1 (in-place)
I1206 04:46:53.935214 20967 net.cpp:122] Setting up relu4_1
I1206 04:46:53.935230 20967 net.cpp:129] Top shape: 16 512 28 28 (6422528)
I1206 04:46:53.935286 20967 net.cpp:137] Memory required for data: 1692336320
I1206 04:46:53.935299 20967 layer_factory.hpp:77] Creating layer conv4_2
I1206 04:46:53.935370 20967 net.cpp:84] Creating Layer conv4_2
I1206 04:46:53.935387 20967 net.cpp:406] conv4_2 <- conv4_1
I1206 04:46:53.935544 20967 net.cpp:380] conv4_2 -> conv4_2
I1206 04:46:53.986138 20967 net.cpp:122] Setting up conv4_2
I1206 04:46:53.986208 20967 net.cpp:129] Top shape: 16 512 28 28 (6422528)
I1206 04:46:53.986223 20967 net.cpp:137] Memory required for data: 1718026432
I1206 04:46:53.986276 20967 layer_factory.hpp:77] Creating layer relu4_2
I1206 04:46:53.986300 20967 net.cpp:84] Creating Layer relu4_2
I1206 04:46:53.986315 20967 net.cpp:406] relu4_2 <- conv4_2
I1206 04:46:53.986358 20967 net.cpp:367] relu4_2 -> conv4_2 (in-place)
I1206 04:46:53.986378 20967 net.cpp:122] Setting up relu4_2
I1206 04:46:53.986392 20967 net.cpp:129] Top shape: 16 512 28 28 (6422528)
I1206 04:46:53.986443 20967 net.cpp:137] Memory required for data: 1743716544
I1206 04:46:53.986457 20967 layer_factory.hpp:77] Creating layer conv4_3
I1206 04:46:53.986479 20967 net.cpp:84] Creating Layer conv4_3
I1206 04:46:53.986515 20967 net.cpp:406] conv4_3 <- conv4_2
I1206 04:46:53.986531 20967 net.cpp:380] conv4_3 -> conv4_3
I1206 04:46:54.021176 20967 net.cpp:122] Setting up conv4_3
I1206 04:46:54.021214 20967 net.cpp:129] Top shape: 16 512 28 28 (6422528)
I1206 04:46:54.021227 20967 net.cpp:137] Memory required for data: 1769406656
I1206 04:46:54.021245 20967 layer_factory.hpp:77] Creating layer relu4_3
I1206 04:46:54.021261 20967 net.cpp:84] Creating Layer relu4_3
I1206 04:46:54.021275 20967 net.cpp:406] relu4_3 <- conv4_3
I1206 04:46:54.021291 20967 net.cpp:367] relu4_3 -> conv4_3 (in-place)
I1206 04:46:54.021337 20967 net.cpp:122] Setting up relu4_3
I1206 04:46:54.021351 20967 net.cpp:129] Top shape: 16 512 28 28 (6422528)
I1206 04:46:54.021363 20967 net.cpp:137] Memory required for data: 1795096768
I1206 04:46:54.021374 20967 layer_factory.hpp:77] Creating layer pool4
I1206 04:46:54.021390 20967 net.cpp:84] Creating Layer pool4
I1206 04:46:54.021404 20967 net.cpp:406] pool4 <- conv4_3
I1206 04:46:54.021417 20967 net.cpp:380] pool4 -> pool4
I1206 04:46:54.021478 20967 net.cpp:122] Setting up pool4
I1206 04:46:54.021498 20967 net.cpp:129] Top shape: 16 512 14 14 (1605632)
I1206 04:46:54.021510 20967 net.cpp:137] Memory required for data: 1801519296
I1206 04:46:54.021522 20967 layer_factory.hpp:77] Creating layer conv5_1
I1206 04:46:54.021543 20967 net.cpp:84] Creating Layer conv5_1
I1206 04:46:54.021555 20967 net.cpp:406] conv5_1 <- pool4
I1206 04:46:54.021574 20967 net.cpp:380] conv5_1 -> conv5_1
I1206 04:46:54.051225 20967 net.cpp:122] Setting up conv5_1
I1206 04:46:54.051254 20967 net.cpp:129] Top shape: 16 512 14 14 (1605632)
I1206 04:46:54.051275 20967 net.cpp:137] Memory required for data: 1807941824
I1206 04:46:54.051292 20967 layer_factory.hpp:77] Creating layer relu5_1
I1206 04:46:54.051308 20967 net.cpp:84] Creating Layer relu5_1
I1206 04:46:54.051321 20967 net.cpp:406] relu5_1 <- conv5_1
I1206 04:46:54.051338 20967 net.cpp:367] relu5_1 -> conv5_1 (in-place)
I1206 04:46:54.051355 20967 net.cpp:122] Setting up relu5_1
I1206 04:46:54.051368 20967 net.cpp:129] Top shape: 16 512 14 14 (1605632)
I1206 04:46:54.051380 20967 net.cpp:137] Memory required for data: 1814364352
I1206 04:46:54.051393 20967 layer_factory.hpp:77] Creating layer conv5_2
I1206 04:46:54.051412 20967 net.cpp:84] Creating Layer conv5_2
I1206 04:46:54.051425 20967 net.cpp:406] conv5_2 <- conv5_1
I1206 04:46:54.051440 20967 net.cpp:380] conv5_2 -> conv5_2
I1206 04:46:54.080832 20967 net.cpp:122] Setting up conv5_2
I1206 04:46:54.080862 20967 net.cpp:129] Top shape: 16 512 14 14 (1605632)
I1206 04:46:54.080883 20967 net.cpp:137] Memory required for data: 1820786880
I1206 04:46:54.080899 20967 layer_factory.hpp:77] Creating layer relu5_2
I1206 04:46:54.080915 20967 net.cpp:84] Creating Layer relu5_2
I1206 04:46:54.080927 20967 net.cpp:406] relu5_2 <- conv5_2
I1206 04:46:54.080942 20967 net.cpp:367] relu5_2 -> conv5_2 (in-place)
I1206 04:46:54.080958 20967 net.cpp:122] Setting up relu5_2
I1206 04:46:54.080971 20967 net.cpp:129] Top shape: 16 512 14 14 (1605632)
I1206 04:46:54.080983 20967 net.cpp:137] Memory required for data: 1827209408
I1206 04:46:54.080999 20967 layer_factory.hpp:77] Creating layer conv5_3
I1206 04:46:54.081022 20967 net.cpp:84] Creating Layer conv5_3
I1206 04:46:54.081034 20967 net.cpp:406] conv5_3 <- conv5_2
I1206 04:46:54.081051 20967 net.cpp:380] conv5_3 -> conv5_3
I1206 04:46:54.110466 20967 net.cpp:122] Setting up conv5_3
I1206 04:46:54.110494 20967 net.cpp:129] Top shape: 16 512 14 14 (1605632)
I1206 04:46:54.110507 20967 net.cpp:137] Memory required for data: 1833631936
I1206 04:46:54.110523 20967 layer_factory.hpp:77] Creating layer relu5_3
I1206 04:46:54.110539 20967 net.cpp:84] Creating Layer relu5_3
I1206 04:46:54.110551 20967 net.cpp:406] relu5_3 <- conv5_3
I1206 04:46:54.110569 20967 net.cpp:367] relu5_3 -> conv5_3 (in-place)
I1206 04:46:54.110585 20967 net.cpp:122] Setting up relu5_3
I1206 04:46:54.110599 20967 net.cpp:129] Top shape: 16 512 14 14 (1605632)
I1206 04:46:54.110610 20967 net.cpp:137] Memory required for data: 1840054464
I1206 04:46:54.110621 20967 layer_factory.hpp:77] Creating layer pool5
I1206 04:46:54.110646 20967 net.cpp:84] Creating Layer pool5
I1206 04:46:54.110657 20967 net.cpp:406] pool5 <- conv5_3
I1206 04:46:54.110680 20967 net.cpp:380] pool5 -> pool5
I1206 04:46:54.110739 20967 net.cpp:122] Setting up pool5
I1206 04:46:54.110759 20967 net.cpp:129] Top shape: 16 512 7 7 (401408)
I1206 04:46:54.110771 20967 net.cpp:137] Memory required for data: 1841660096
I1206 04:46:54.110782 20967 layer_factory.hpp:77] Creating layer fc6
I1206 04:46:54.110803 20967 net.cpp:84] Creating Layer fc6
I1206 04:46:54.110821 20967 net.cpp:406] fc6 <- pool5
I1206 04:46:54.110838 20967 net.cpp:380] fc6 -> fc6
I1206 04:46:55.382009 20967 net.cpp:122] Setting up fc6
I1206 04:46:55.382081 20967 net.cpp:129] Top shape: 16 4096 (65536)
I1206 04:46:55.382097 20967 net.cpp:137] Memory required for data: 1841922240
I1206 04:46:55.382124 20967 layer_factory.hpp:77] Creating layer relu6
I1206 04:46:55.382153 20967 net.cpp:84] Creating Layer relu6
I1206 04:46:55.382170 20967 net.cpp:406] relu6 <- fc6
I1206 04:46:55.382195 20967 net.cpp:367] relu6 -> fc6 (in-place)
I1206 04:46:55.382220 20967 net.cpp:122] Setting up relu6
I1206 04:46:55.382238 20967 net.cpp:129] Top shape: 16 4096 (65536)
I1206 04:46:55.382253 20967 net.cpp:137] Memory required for data: 1842184384
I1206 04:46:55.382268 20967 layer_factory.hpp:77] Creating layer drop6
I1206 04:46:55.382288 20967 net.cpp:84] Creating Layer drop6
I1206 04:46:55.382304 20967 net.cpp:406] drop6 <- fc6
I1206 04:46:55.382320 20967 net.cpp:367] drop6 -> fc6 (in-place)
I1206 04:46:55.382375 20967 net.cpp:122] Setting up drop6
I1206 04:46:55.382393 20967 net.cpp:129] Top shape: 16 4096 (65536)
I1206 04:46:55.382410 20967 net.cpp:137] Memory required for data: 1842446528
I1206 04:46:55.382426 20967 layer_factory.hpp:77] Creating layer fc7
I1206 04:46:55.382447 20967 net.cpp:84] Creating Layer fc7
I1206 04:46:55.382462 20967 net.cpp:406] fc7 <- fc6
I1206 04:46:55.382485 20967 net.cpp:380] fc7 -> fc7
I1206 04:46:55.587082 20967 net.cpp:122] Setting up fc7
I1206 04:46:55.587148 20967 net.cpp:129] Top shape: 16 4096 (65536)
I1206 04:46:55.587162 20967 net.cpp:137] Memory required for data: 1842708672
I1206 04:46:55.587186 20967 layer_factory.hpp:77] Creating layer relu7
I1206 04:46:55.587214 20967 net.cpp:84] Creating Layer relu7
I1206 04:46:55.587230 20967 net.cpp:406] relu7 <- fc7
I1206 04:46:55.587249 20967 net.cpp:367] relu7 -> fc7 (in-place)
I1206 04:46:55.587271 20967 net.cpp:122] Setting up relu7
I1206 04:46:55.587285 20967 net.cpp:129] Top shape: 16 4096 (65536)
I1206 04:46:55.587297 20967 net.cpp:137] Memory required for data: 1842970816
I1206 04:46:55.587309 20967 layer_factory.hpp:77] Creating layer drop7
I1206 04:46:55.587327 20967 net.cpp:84] Creating Layer drop7
I1206 04:46:55.587339 20967 net.cpp:406] drop7 <- fc7
I1206 04:46:55.587357 20967 net.cpp:367] drop7 -> fc7 (in-place)
I1206 04:46:55.587404 20967 net.cpp:122] Setting up drop7
I1206 04:46:55.587419 20967 net.cpp:129] Top shape: 16 4096 (65536)
I1206 04:46:55.587431 20967 net.cpp:137] Memory required for data: 1843232960
I1206 04:46:55.587443 20967 layer_factory.hpp:77] Creating layer fc_scv_happy
I1206 04:46:55.587466 20967 net.cpp:84] Creating Layer fc_scv_happy
I1206 04:46:55.587478 20967 net.cpp:406] fc_scv_happy <- fc7
I1206 04:46:55.587493 20967 net.cpp:380] fc_scv_happy -> fc_scv_happy
I1206 04:46:55.587647 20967 net.cpp:122] Setting up fc_scv_happy
I1206 04:46:55.587664 20967 net.cpp:129] Top shape: 16 1 (16)
I1206 04:46:55.587677 20967 net.cpp:137] Memory required for data: 1843233024
I1206 04:46:55.587692 20967 layer_factory.hpp:77] Creating layer fc_scv_happy_fc_scv_happy_0_split
I1206 04:46:55.587709 20967 net.cpp:84] Creating Layer fc_scv_happy_fc_scv_happy_0_split
I1206 04:46:55.587723 20967 net.cpp:406] fc_scv_happy_fc_scv_happy_0_split <- fc_scv_happy
I1206 04:46:55.587739 20967 net.cpp:380] fc_scv_happy_fc_scv_happy_0_split -> fc_scv_happy_fc_scv_happy_0_split_0
I1206 04:46:55.587756 20967 net.cpp:380] fc_scv_happy_fc_scv_happy_0_split -> fc_scv_happy_fc_scv_happy_0_split_1
I1206 04:46:55.587808 20967 net.cpp:122] Setting up fc_scv_happy_fc_scv_happy_0_split
I1206 04:46:55.587826 20967 net.cpp:129] Top shape: 16 1 (16)
I1206 04:46:55.587846 20967 net.cpp:129] Top shape: 16 1 (16)
I1206 04:46:55.587857 20967 net.cpp:137] Memory required for data: 1843233152
I1206 04:46:55.587869 20967 layer_factory.hpp:77] Creating layer loss
I1206 04:46:55.587887 20967 net.cpp:84] Creating Layer loss
I1206 04:46:55.587898 20967 net.cpp:406] loss <- fc_scv_happy_fc_scv_happy_0_split_0
I1206 04:46:55.587913 20967 net.cpp:406] loss <- label_data_1_split_0
I1206 04:46:55.587929 20967 net.cpp:380] loss -> loss
…
