…
I1130 19:54:21.605702 14704 net.cpp:294] The NetState phase (0) differed from the phase (1) specified by a rule in layer losttest
I1130 19:54:21.605861 14704 net.cpp:51] Initializing net from parameters: 
name: "CaffeNet-Places365-SCV-Quiet"
state {
  phase: TRAIN
  level: 0
  stage: ""
}
layer {
  name: "data"
  type: "Data"
  top: "data"
  top: "label"
  include {
    phase: TRAIN
  }
  transform_param {
    mirror: true
    crop_size: 227
    mean_file: "/idiap/temp/lmedina/fine-tuning/alexnet_places365/places365CNN_mean.binaryproto"
  }
  data_param {
    source: "/idiap/temp/lmedina/fine-tuning/data/Quiet/train_lmdb"
    batch_size: 32
    backend: LMDB
  }
}
layer {
  name: "conv1"
  type: "Convolution"
  bottom: "data"
  top: "conv1"
  param {
    lr_mult: 1
    decay_mult: 1
  }
  param {
    lr_mult: 2
    decay_mult: 0
  }
  convolution_param {
    num_output: 96
    kernel_size: 11
    stride: 4
    weight_filler {
      type: "gaussian"
      std: 0.01
    }
    bias_filler {
      type: "constant"
      value: 0
    }
  }
}
layer {
  name: "relu1"
  type: "ReLU"
  bottom: "conv1"
  top: "conv1"
}
layer {
  name: "pool1"
  type: "Pooling"
  bottom: "conv1"
  top: "pool1"
  pooling_param {
    pool: MAX
    kernel_size: 3
    stride: 2
  }
}
layer {
  name: "norm1"
  type: "LRN"
  bottom: "pool1"
  top: "norm1"
  lrn_param {
    local_size: 5
    alpha: 0.0001
    beta: 0.75
  }
}
layer {
  name: "conv2"
  type: "Convolution"
  bottom: "norm1"
  top: "conv2"
  param {
    lr_mult: 1
    decay_mult: 1
  }
  param {
    lr_mult: 2
    decay_mult: 0
  }
  convolution_param {
    num_output: 256
    pad: 2
    kernel_size: 5
    group: 2
    weight_filler {
      type: "gaussian"
      std: 0.01
    }
    bias_filler {
      type: "constant"
      value: 1
    }
  }
}
layer {
  name: "relu2"
  type: "ReLU"
  bottom: "conv2"
  top: "conv2"
}
layer {
  name: "pool2"
  type: "Pooling"
  bottom: "conv2"
  top: "pool2"
  pooling_param {
    pool: MAX
    kernel_size: 3
    stride: 2
  }
}
layer {
  name: "norm2"
  type: "LRN"
  bottom: "pool2"
  top: "norm2"
  lrn_param {
    local_size: 5
    alpha: 0.0001
    beta: 0.75
  }
}
layer {
  name: "conv3"
  type: "Convolution"
  bottom: "norm2"
  top: "conv3"
  param {
    lr_mult: 1
    decay_mult: 1
  }
  param {
    lr_mult: 2
    decay_mult: 0
  }
  convolution_param {
    num_output: 384
    pad: 1
    kernel_size: 3
    weight_filler {
      type: "gaussian"
      std: 0.01
    }
    bias_filler {
      type: "constant"
      value: 0
    }
  }
}
layer {
  name: "relu3"
  type: "ReLU"
  bottom: "conv3"
  top: "conv3"
}
layer {
  name: "conv4"
  type: "Convolution"
  bottom: "conv3"
  top: "conv4"
  param {
    lr_mult: 1
    decay_mult: 1
  }
  param {
    lr_mult: 2
    decay_mult: 0
  }
  convolution_param {
    num_output: 384
    pad: 1
    kernel_size: 3
    group: 2
    weight_filler {
      type: "gaussian"
      std: 0.01
    }
    bias_filler {
      type: "constant"
      value: 1
    }
  }
}
layer {
  name: "relu4"
  type: "ReLU"
  bottom: "conv4"
  top: "conv4"
}
layer {
  name: "conv5"
  type: "Convolution"
  bottom: "conv4"
  top: "conv5"
  param {
    lr_mult: 1
    decay_mult: 1
  }
  param {
    lr_mult: 2
    decay_mult: 0
  }
  convolution_param {
    num_output: 256
    pad: 1
    kernel_size: 3
    group: 2
    weight_filler {
      type: "gaussian"
      std: 0.01
    }
    bias_filler {
      type: "constant"
      value: 1
    }
  }
}
layer {
  name: "relu5"
  type: "ReLU"
  bottom: "conv5"
  top: "conv5"
}
layer {
  name: "pool5"
  type: "Pooling"
  bottom: "conv5"
  top: "pool5"
  pooling_param {
    pool: MAX
    kernel_size: 3
    stride: 2
  }
}
layer {
  name: "fc6"
  type: "InnerProduct"
  bottom: "pool5"
  top: "fc6"
  param {
    lr_mult: 1
    decay_mult: 1
  }
  param {
    lr_mult: 2
    decay_mult: 0
  }
  inner_product_param {
    num_output: 4096
    weight_filler {
      type: "gaussian"
      std: 0.005
    }
    bias_filler {
      type: "constant"
      value: 1
    }
  }
}
layer {
  name: "relu6"
  type: "ReLU"
  bottom: "fc6"
  top: "fc6"
}
layer {
  name: "drop6"
  type: "Dropout"
  bottom: "fc6"
  top: "fc6"
  dropout_param {
    dropout_ratio: 0.5
  }
}
layer {
  name: "fc7"
  type: "InnerProduct"
  bottom: "fc6"
  top: "fc7"
  param {
    lr_mult: 1
    decay_mult: 1
  }
  param {
    lr_mult: 2
    decay_mult: 0
  }
  inner_product_param {
    num_output: 4096
    weight_filler {
      type: "gaussian"
      std: 0.005
    }
    bias_filler {
      type: "constant"
      value: 1
    }
  }
}
layer {
  name: "relu7"
  type: "ReLU"
  bottom: "fc7"
  top: "fc7"
}
layer {
  name: "drop7"
  type: "Dropout"
  bottom: "fc7"
  top: "fc7"
  dropout_param {
    dropout_ratio: 0.5
  }
}
layer {
  name: "fc_scv_quiet"
  type: "InnerProduct"
  bottom: "fc7"
  top: "fc_scv_quiet"
  param {
    lr_mult: 10
    decay_mult: 1
  }
  param {
    lr_mult: 20
    decay_mult: 0
  }
  inner_product_param {
    num_output: 1
    weight_filler {
      type: "xavier"
      std: 0.01
    }
    bias_filler {
      type: "constant"
      value: 0
    }
  }
}
layer {
  name: "loss"
  type: "EuclideanLoss"
  bottom: "fc_scv_quiet"
  bottom: "label"
  top: "loss"
}
I1130 19:54:21.605950 14704 layer_factory.hpp:77] Creating layer data
I1130 19:54:21.613203 14704 db_lmdb.cpp:35] Opened lmdb /idiap/temp/lmedina/fine-tuning/data/Quiet/train_lmdb
I1130 19:54:21.613584 14704 net.cpp:84] Creating Layer data
I1130 19:54:21.613596 14704 net.cpp:380] data -> data
I1130 19:54:21.613620 14704 net.cpp:380] data -> label
I1130 19:54:21.613634 14704 data_transformer.cpp:25] Loading mean file from: /idiap/temp/lmedina/fine-tuning/alexnet_places365/places365CNN_mean.binaryproto
I1130 19:54:21.616273 14704 data_layer.cpp:45] output data size: 32,3,227,227
I1130 19:54:21.648208 14704 net.cpp:122] Setting up data
I1130 19:54:21.648246 14704 net.cpp:129] Top shape: 32 3 227 227 (4946784)
I1130 19:54:21.648252 14704 net.cpp:129] Top shape: 32 (32)
I1130 19:54:21.648255 14704 net.cpp:137] Memory required for data: 19787264
I1130 19:54:21.648267 14704 layer_factory.hpp:77] Creating layer conv1
I1130 19:54:21.648290 14704 net.cpp:84] Creating Layer conv1
I1130 19:54:21.648298 14704 net.cpp:406] conv1 <- data
I1130 19:54:21.648311 14704 net.cpp:380] conv1 -> conv1
I1130 19:54:21.649440 14704 net.cpp:122] Setting up conv1
I1130 19:54:21.649449 14704 net.cpp:129] Top shape: 32 96 55 55 (9292800)
I1130 19:54:21.649454 14704 net.cpp:137] Memory required for data: 56958464
I1130 19:54:21.649467 14704 layer_factory.hpp:77] Creating layer relu1
I1130 19:54:21.649477 14704 net.cpp:84] Creating Layer relu1
I1130 19:54:21.649482 14704 net.cpp:406] relu1 <- conv1
I1130 19:54:21.649488 14704 net.cpp:367] relu1 -> conv1 (in-place)
I1130 19:54:21.649497 14704 net.cpp:122] Setting up relu1
I1130 19:54:21.649505 14704 net.cpp:129] Top shape: 32 96 55 55 (9292800)
I1130 19:54:21.649509 14704 net.cpp:137] Memory required for data: 94129664
I1130 19:54:21.649514 14704 layer_factory.hpp:77] Creating layer pool1
I1130 19:54:21.649523 14704 net.cpp:84] Creating Layer pool1
I1130 19:54:21.649528 14704 net.cpp:406] pool1 <- conv1
I1130 19:54:21.649534 14704 net.cpp:380] pool1 -> pool1
I1130 19:54:21.651085 14704 net.cpp:122] Setting up pool1
I1130 19:54:21.651095 14704 net.cpp:129] Top shape: 32 96 27 27 (2239488)
I1130 19:54:21.651103 14704 net.cpp:137] Memory required for data: 103087616
I1130 19:54:21.651106 14704 layer_factory.hpp:77] Creating layer norm1
I1130 19:54:21.651115 14704 net.cpp:84] Creating Layer norm1
I1130 19:54:21.651119 14704 net.cpp:406] norm1 <- pool1
I1130 19:54:21.651125 14704 net.cpp:380] norm1 -> norm1
I1130 19:54:21.651154 14704 net.cpp:122] Setting up norm1
I1130 19:54:21.651162 14704 net.cpp:129] Top shape: 32 96 27 27 (2239488)
I1130 19:54:21.651166 14704 net.cpp:137] Memory required for data: 112045568
I1130 19:54:21.651170 14704 layer_factory.hpp:77] Creating layer conv2
I1130 19:54:21.651180 14704 net.cpp:84] Creating Layer conv2
I1130 19:54:21.651185 14704 net.cpp:406] conv2 <- norm1
I1130 19:54:21.651191 14704 net.cpp:380] conv2 -> conv2
I1130 19:54:21.654577 14704 net.cpp:122] Setting up conv2
I1130 19:54:21.654595 14704 net.cpp:129] Top shape: 32 256 27 27 (5971968)
I1130 19:54:21.654599 14704 net.cpp:137] Memory required for data: 135933440
I1130 19:54:21.654613 14704 layer_factory.hpp:77] Creating layer relu2
I1130 19:54:21.654623 14704 net.cpp:84] Creating Layer relu2
I1130 19:54:21.654628 14704 net.cpp:406] relu2 <- conv2
I1130 19:54:21.654635 14704 net.cpp:367] relu2 -> conv2 (in-place)
I1130 19:54:21.654644 14704 net.cpp:122] Setting up relu2
I1130 19:54:21.654650 14704 net.cpp:129] Top shape: 32 256 27 27 (5971968)
I1130 19:54:21.654654 14704 net.cpp:137] Memory required for data: 159821312
I1130 19:54:21.654659 14704 layer_factory.hpp:77] Creating layer pool2
I1130 19:54:21.654665 14704 net.cpp:84] Creating Layer pool2
I1130 19:54:21.654671 14704 net.cpp:406] pool2 <- conv2
I1130 19:54:21.654676 14704 net.cpp:380] pool2 -> pool2
I1130 19:54:21.654707 14704 net.cpp:122] Setting up pool2
I1130 19:54:21.654714 14704 net.cpp:129] Top shape: 32 256 13 13 (1384448)
I1130 19:54:21.654719 14704 net.cpp:137] Memory required for data: 165359104
I1130 19:54:21.654722 14704 layer_factory.hpp:77] Creating layer norm2
I1130 19:54:21.654731 14704 net.cpp:84] Creating Layer norm2
I1130 19:54:21.654736 14704 net.cpp:406] norm2 <- pool2
I1130 19:54:21.654742 14704 net.cpp:380] norm2 -> norm2
I1130 19:54:21.654767 14704 net.cpp:122] Setting up norm2
I1130 19:54:21.654773 14704 net.cpp:129] Top shape: 32 256 13 13 (1384448)
I1130 19:54:21.654778 14704 net.cpp:137] Memory required for data: 170896896
I1130 19:54:21.654781 14704 layer_factory.hpp:77] Creating layer conv3
I1130 19:54:21.654791 14704 net.cpp:84] Creating Layer conv3
I1130 19:54:21.654796 14704 net.cpp:406] conv3 <- norm2
I1130 19:54:21.654803 14704 net.cpp:380] conv3 -> conv3
I1130 19:54:21.662995 14704 net.cpp:122] Setting up conv3
I1130 19:54:21.663022 14704 net.cpp:129] Top shape: 32 384 13 13 (2076672)
I1130 19:54:21.663027 14704 net.cpp:137] Memory required for data: 179203584
I1130 19:54:21.663040 14704 layer_factory.hpp:77] Creating layer relu3
I1130 19:54:21.663053 14704 net.cpp:84] Creating Layer relu3
I1130 19:54:21.663060 14704 net.cpp:406] relu3 <- conv3
I1130 19:54:21.663069 14704 net.cpp:367] relu3 -> conv3 (in-place)
I1130 19:54:21.663079 14704 net.cpp:122] Setting up relu3
I1130 19:54:21.663086 14704 net.cpp:129] Top shape: 32 384 13 13 (2076672)
I1130 19:54:21.663090 14704 net.cpp:137] Memory required for data: 187510272
I1130 19:54:21.663096 14704 layer_factory.hpp:77] Creating layer conv4
I1130 19:54:21.663107 14704 net.cpp:84] Creating Layer conv4
I1130 19:54:21.663113 14704 net.cpp:406] conv4 <- conv3
I1130 19:54:21.663120 14704 net.cpp:380] conv4 -> conv4
I1130 19:54:21.670043 14704 net.cpp:122] Setting up conv4
I1130 19:54:21.670065 14704 net.cpp:129] Top shape: 32 384 13 13 (2076672)
I1130 19:54:21.670069 14704 net.cpp:137] Memory required for data: 195816960
I1130 19:54:21.670078 14704 layer_factory.hpp:77] Creating layer relu4
I1130 19:54:21.670089 14704 net.cpp:84] Creating Layer relu4
I1130 19:54:21.670094 14704 net.cpp:406] relu4 <- conv4
I1130 19:54:21.670102 14704 net.cpp:367] relu4 -> conv4 (in-place)
I1130 19:54:21.670112 14704 net.cpp:122] Setting up relu4
I1130 19:54:21.670122 14704 net.cpp:129] Top shape: 32 384 13 13 (2076672)
I1130 19:54:21.670125 14704 net.cpp:137] Memory required for data: 204123648
I1130 19:54:21.670130 14704 layer_factory.hpp:77] Creating layer conv5
I1130 19:54:21.670140 14704 net.cpp:84] Creating Layer conv5
I1130 19:54:21.670145 14704 net.cpp:406] conv5 <- conv4
I1130 19:54:21.670151 14704 net.cpp:380] conv5 -> conv5
I1130 19:54:21.674460 14704 net.cpp:122] Setting up conv5
I1130 19:54:21.674480 14704 net.cpp:129] Top shape: 32 256 13 13 (1384448)
I1130 19:54:21.674484 14704 net.cpp:137] Memory required for data: 209661440
I1130 19:54:21.674497 14704 layer_factory.hpp:77] Creating layer relu5
I1130 19:54:21.674506 14704 net.cpp:84] Creating Layer relu5
I1130 19:54:21.674512 14704 net.cpp:406] relu5 <- conv5
I1130 19:54:21.674520 14704 net.cpp:367] relu5 -> conv5 (in-place)
I1130 19:54:21.674530 14704 net.cpp:122] Setting up relu5
I1130 19:54:21.674535 14704 net.cpp:129] Top shape: 32 256 13 13 (1384448)
I1130 19:54:21.674538 14704 net.cpp:137] Memory required for data: 215199232
I1130 19:54:21.674542 14704 layer_factory.hpp:77] Creating layer pool5
I1130 19:54:21.674551 14704 net.cpp:84] Creating Layer pool5
I1130 19:54:21.674554 14704 net.cpp:406] pool5 <- conv5
I1130 19:54:21.674561 14704 net.cpp:380] pool5 -> pool5
I1130 19:54:21.674593 14704 net.cpp:122] Setting up pool5
I1130 19:54:21.674600 14704 net.cpp:129] Top shape: 32 256 6 6 (294912)
I1130 19:54:21.674605 14704 net.cpp:137] Memory required for data: 216378880
I1130 19:54:21.674609 14704 layer_factory.hpp:77] Creating layer fc6
I1130 19:54:21.674623 14704 net.cpp:84] Creating Layer fc6
I1130 19:54:21.674628 14704 net.cpp:406] fc6 <- pool5
I1130 19:54:21.674634 14704 net.cpp:380] fc6 -> fc6
I1130 19:54:22.020177 14704 net.cpp:122] Setting up fc6
I1130 19:54:22.020208 14704 net.cpp:129] Top shape: 32 4096 (131072)
I1130 19:54:22.020213 14704 net.cpp:137] Memory required for data: 216903168
I1130 19:54:22.020223 14704 layer_factory.hpp:77] Creating layer relu6
I1130 19:54:22.020234 14704 net.cpp:84] Creating Layer relu6
I1130 19:54:22.020241 14704 net.cpp:406] relu6 <- fc6
I1130 19:54:22.020248 14704 net.cpp:367] relu6 -> fc6 (in-place)
I1130 19:54:22.020261 14704 net.cpp:122] Setting up relu6
I1130 19:54:22.020265 14704 net.cpp:129] Top shape: 32 4096 (131072)
I1130 19:54:22.020270 14704 net.cpp:137] Memory required for data: 217427456
I1130 19:54:22.020274 14704 layer_factory.hpp:77] Creating layer drop6
I1130 19:54:22.020285 14704 net.cpp:84] Creating Layer drop6
I1130 19:54:22.020290 14704 net.cpp:406] drop6 <- fc6
I1130 19:54:22.020295 14704 net.cpp:367] drop6 -> fc6 (in-place)
I1130 19:54:22.020321 14704 net.cpp:122] Setting up drop6
I1130 19:54:22.020328 14704 net.cpp:129] Top shape: 32 4096 (131072)
I1130 19:54:22.020332 14704 net.cpp:137] Memory required for data: 217951744
I1130 19:54:22.020337 14704 layer_factory.hpp:77] Creating layer fc7
I1130 19:54:22.020346 14704 net.cpp:84] Creating Layer fc7
I1130 19:54:22.020351 14704 net.cpp:406] fc7 <- fc6
I1130 19:54:22.020357 14704 net.cpp:380] fc7 -> fc7
I1130 19:54:22.173594 14704 net.cpp:122] Setting up fc7
I1130 19:54:22.173624 14704 net.cpp:129] Top shape: 32 4096 (131072)
I1130 19:54:22.173627 14704 net.cpp:137] Memory required for data: 218476032
I1130 19:54:22.173637 14704 layer_factory.hpp:77] Creating layer relu7
I1130 19:54:22.173648 14704 net.cpp:84] Creating Layer relu7
I1130 19:54:22.173653 14704 net.cpp:406] relu7 <- fc7
I1130 19:54:22.173661 14704 net.cpp:367] relu7 -> fc7 (in-place)
I1130 19:54:22.173672 14704 net.cpp:122] Setting up relu7
I1130 19:54:22.173677 14704 net.cpp:129] Top shape: 32 4096 (131072)
I1130 19:54:22.173681 14704 net.cpp:137] Memory required for data: 219000320
I1130 19:54:22.173686 14704 layer_factory.hpp:77] Creating layer drop7
I1130 19:54:22.173691 14704 net.cpp:84] Creating Layer drop7
I1130 19:54:22.173696 14704 net.cpp:406] drop7 <- fc7
I1130 19:54:22.173702 14704 net.cpp:367] drop7 -> fc7 (in-place)
I1130 19:54:22.173725 14704 net.cpp:122] Setting up drop7
I1130 19:54:22.173732 14704 net.cpp:129] Top shape: 32 4096 (131072)
I1130 19:54:22.173741 14704 net.cpp:137] Memory required for data: 219524608
I1130 19:54:22.173746 14704 layer_factory.hpp:77] Creating layer fc_scv_quiet
I1130 19:54:22.173755 14704 net.cpp:84] Creating Layer fc_scv_quiet
I1130 19:54:22.173759 14704 net.cpp:406] fc_scv_quiet <- fc7
I1130 19:54:22.173765 14704 net.cpp:380] fc_scv_quiet -> fc_scv_quiet
I1130 19:54:22.173877 14704 net.cpp:122] Setting up fc_scv_quiet
I1130 19:54:22.173885 14704 net.cpp:129] Top shape: 32 1 (32)
I1130 19:54:22.173889 14704 net.cpp:137] Memory required for data: 219524736
I1130 19:54:22.173897 14704 layer_factory.hpp:77] Creating layer loss
I1130 19:54:22.173903 14704 net.cpp:84] Creating Layer loss
I1130 19:54:22.173907 14704 net.cpp:406] loss <- fc_scv_quiet
I1130 19:54:22.173913 14704 net.cpp:406] loss <- label
I1130 19:54:22.173920 14704 net.cpp:380] loss -> loss
I1130 19:54:22.173951 14704 net.cpp:122] Setting up loss
…
I1130 19:54:22.174954 14704 net.cpp:294] The NetState phase (1) differed from the phase (0) specified by a rule in layer data
I1130 19:54:22.175122 14704 net.cpp:51] Initializing net from parameters: 
name: "CaffeNet-Places365-SCV-Quiet"
state {
  phase: TEST
}
layer {
  name: "data"
  type: "Data"
  top: "data"
  top: "label"
  include {
    phase: TEST
  }
  transform_param {
    mirror: false
    crop_size: 227
    mean_file: "/idiap/temp/lmedina/fine-tuning/alexnet_places365/places365CNN_mean.binaryproto"
  }
  data_param {
    source: "/idiap/temp/lmedina/fine-tuning/data/Quiet/validation_lmdb"
    batch_size: 32
    backend: LMDB
  }
}
layer {
  name: "conv1"
  type: "Convolution"
  bottom: "data"
  top: "conv1"
  param {
    lr_mult: 1
    decay_mult: 1
  }
  param {
    lr_mult: 2
    decay_mult: 0
  }
  convolution_param {
    num_output: 96
    kernel_size: 11
    stride: 4
    weight_filler {
      type: "gaussian"
      std: 0.01
    }
    bias_filler {
      type: "constant"
      value: 0
    }
  }
}
layer {
  name: "relu1"
  type: "ReLU"
  bottom: "conv1"
  top: "conv1"
}
layer {
  name: "pool1"
  type: "Pooling"
  bottom: "conv1"
  top: "pool1"
  pooling_param {
    pool: MAX
    kernel_size: 3
    stride: 2
  }
}
layer {
  name: "norm1"
  type: "LRN"
  bottom: "pool1"
  top: "norm1"
  lrn_param {
    local_size: 5
    alpha: 0.0001
    beta: 0.75
  }
}
layer {
  name: "conv2"
  type: "Convolution"
  bottom: "norm1"
  top: "conv2"
  param {
    lr_mult: 1
    decay_mult: 1
  }
  param {
    lr_mult: 2
    decay_mult: 0
  }
  convolution_param {
    num_output: 256
    pad: 2
    kernel_size: 5
    group: 2
    weight_filler {
      type: "gaussian"
      std: 0.01
    }
    bias_filler {
      type: "constant"
      value: 1
    }
  }
}
layer {
  name: "relu2"
  type: "ReLU"
  bottom: "conv2"
  top: "conv2"
}
layer {
  name: "pool2"
  type: "Pooling"
  bottom: "conv2"
  top: "pool2"
  pooling_param {
    pool: MAX
    kernel_size: 3
    stride: 2
  }
}
layer {
  name: "norm2"
  type: "LRN"
  bottom: "pool2"
  top: "norm2"
  lrn_param {
    local_size: 5
    alpha: 0.0001
    beta: 0.75
  }
}
layer {
  name: "conv3"
  type: "Convolution"
  bottom: "norm2"
  top: "conv3"
  param {
    lr_mult: 1
    decay_mult: 1
  }
  param {
    lr_mult: 2
    decay_mult: 0
  }
  convolution_param {
    num_output: 384
    pad: 1
    kernel_size: 3
    weight_filler {
      type: "gaussian"
      std: 0.01
    }
    bias_filler {
      type: "constant"
      value: 0
    }
  }
}
layer {
  name: "relu3"
  type: "ReLU"
  bottom: "conv3"
  top: "conv3"
}
layer {
  name: "conv4"
  type: "Convolution"
  bottom: "conv3"
  top: "conv4"
  param {
    lr_mult: 1
    decay_mult: 1
  }
  param {
    lr_mult: 2
    decay_mult: 0
  }
  convolution_param {
    num_output: 384
    pad: 1
    kernel_size: 3
    group: 2
    weight_filler {
      type: "gaussian"
      std: 0.01
    }
    bias_filler {
      type: "constant"
      value: 1
    }
  }
}
layer {
  name: "relu4"
  type: "ReLU"
  bottom: "conv4"
  top: "conv4"
}
layer {
  name: "conv5"
  type: "Convolution"
  bottom: "conv4"
  top: "conv5"
  param {
    lr_mult: 1
    decay_mult: 1
  }
  param {
    lr_mult: 2
    decay_mult: 0
  }
  convolution_param {
    num_output: 256
    pad: 1
    kernel_size: 3
    group: 2
    weight_filler {
      type: "gaussian"
      std: 0.01
    }
    bias_filler {
      type: "constant"
      value: 1
    }
  }
}
layer {
  name: "relu5"
  type: "ReLU"
  bottom: "conv5"
  top: "conv5"
}
layer {
  name: "pool5"
  type: "Pooling"
  bottom: "conv5"
  top: "pool5"
  pooling_param {
    pool: MAX
    kernel_size: 3
    stride: 2
  }
}
layer {
  name: "fc6"
  type: "InnerProduct"
  bottom: "pool5"
  top: "fc6"
  param {
    lr_mult: 1
    decay_mult: 1
  }
  param {
    lr_mult: 2
    decay_mult: 0
  }
  inner_product_param {
    num_output: 4096
    weight_filler {
      type: "gaussian"
      std: 0.005
    }
    bias_filler {
      type: "constant"
      value: 1
    }
  }
}
layer {
  name: "relu6"
  type: "ReLU"
  bottom: "fc6"
  top: "fc6"
}
layer {
  name: "drop6"
  type: "Dropout"
  bottom: "fc6"
  top: "fc6"
  dropout_param {
    dropout_ratio: 0.5
  }
}
layer {
  name: "fc7"
  type: "InnerProduct"
  bottom: "fc6"
  top: "fc7"
  param {
    lr_mult: 1
    decay_mult: 1
  }
  param {
    lr_mult: 2
    decay_mult: 0
  }
  inner_product_param {
    num_output: 4096
    weight_filler {
      type: "gaussian"
      std: 0.005
    }
    bias_filler {
      type: "constant"
      value: 1
    }
  }
}
layer {
  name: "relu7"
  type: "ReLU"
  bottom: "fc7"
  top: "fc7"
}
layer {
  name: "drop7"
  type: "Dropout"
  bottom: "fc7"
  top: "fc7"
  dropout_param {
    dropout_ratio: 0.5
  }
}
layer {
  name: "fc_scv_quiet"
  type: "InnerProduct"
  bottom: "fc7"
  top: "fc_scv_quiet"
  param {
    lr_mult: 10
    decay_mult: 1
  }
  param {
    lr_mult: 20
    decay_mult: 0
  }
  inner_product_param {
    num_output: 1
    weight_filler {
      type: "xavier"
      std: 0.01
    }
    bias_filler {
      type: "constant"
      value: 0
    }
  }
}
layer {
  name: "loss"
  type: "EuclideanLoss"
  bottom: "fc_scv_quiet"
  bottom: "label"
  top: "loss"
}
layer {
  name: "losttest"
  type: "EuclideanLoss"
  bottom: "fc_scv_quiet"
  bottom: "label"
  top: "losttest"
  include {
    phase: TEST
  }
}
I1130 19:54:22.175216 14704 layer_factory.hpp:77] Creating layer data
I1130 19:54:22.177588 14704 db_lmdb.cpp:35] Opened lmdb /idiap/temp/lmedina/fine-tuning/data/Quiet/validation_lmdb
I1130 19:54:22.178000 14704 net.cpp:84] Creating Layer data
I1130 19:54:22.178009 14704 net.cpp:380] data -> data
I1130 19:54:22.178019 14704 net.cpp:380] data -> label
I1130 19:54:22.178026 14704 data_transformer.cpp:25] Loading mean file from: /idiap/temp/lmedina/fine-tuning/alexnet_places365/places365CNN_mean.binaryproto
I1130 19:54:22.179596 14704 data_layer.cpp:45] output data size: 32,3,227,227
I1130 19:54:22.211383 14704 net.cpp:122] Setting up data
I1130 19:54:22.211414 14704 net.cpp:129] Top shape: 32 3 227 227 (4946784)
I1130 19:54:22.211421 14704 net.cpp:129] Top shape: 32 (32)
I1130 19:54:22.211424 14704 net.cpp:137] Memory required for data: 19787264
I1130 19:54:22.211431 14704 layer_factory.hpp:77] Creating layer label_data_1_split
I1130 19:54:22.211444 14704 net.cpp:84] Creating Layer label_data_1_split
I1130 19:54:22.211449 14704 net.cpp:406] label_data_1_split <- label
I1130 19:54:22.211462 14704 net.cpp:380] label_data_1_split -> label_data_1_split_0
I1130 19:54:22.211474 14704 net.cpp:380] label_data_1_split -> label_data_1_split_1
I1130 19:54:22.211518 14704 net.cpp:122] Setting up label_data_1_split
I1130 19:54:22.211525 14704 net.cpp:129] Top shape: 32 (32)
I1130 19:54:22.211530 14704 net.cpp:129] Top shape: 32 (32)
I1130 19:54:22.211534 14704 net.cpp:137] Memory required for data: 19787520
I1130 19:54:22.211539 14704 layer_factory.hpp:77] Creating layer conv1
I1130 19:54:22.211551 14704 net.cpp:84] Creating Layer conv1
I1130 19:54:22.211556 14704 net.cpp:406] conv1 <- data
I1130 19:54:22.211562 14704 net.cpp:380] conv1 -> conv1
I1130 19:54:22.212059 14704 net.cpp:122] Setting up conv1
I1130 19:54:22.212069 14704 net.cpp:129] Top shape: 32 96 55 55 (9292800)
I1130 19:54:22.212072 14704 net.cpp:137] Memory required for data: 56958720
I1130 19:54:22.212082 14704 layer_factory.hpp:77] Creating layer relu1
I1130 19:54:22.212090 14704 net.cpp:84] Creating Layer relu1
I1130 19:54:22.212093 14704 net.cpp:406] relu1 <- conv1
I1130 19:54:22.212098 14704 net.cpp:367] relu1 -> conv1 (in-place)
I1130 19:54:22.212106 14704 net.cpp:122] Setting up relu1
I1130 19:54:22.212111 14704 net.cpp:129] Top shape: 32 96 55 55 (9292800)
I1130 19:54:22.212116 14704 net.cpp:137] Memory required for data: 94129920
I1130 19:54:22.212119 14704 layer_factory.hpp:77] Creating layer pool1
I1130 19:54:22.212127 14704 net.cpp:84] Creating Layer pool1
I1130 19:54:22.212132 14704 net.cpp:406] pool1 <- conv1
I1130 19:54:22.212136 14704 net.cpp:380] pool1 -> pool1
I1130 19:54:22.212168 14704 net.cpp:122] Setting up pool1
I1130 19:54:22.212177 14704 net.cpp:129] Top shape: 32 96 27 27 (2239488)
I1130 19:54:22.212182 14704 net.cpp:137] Memory required for data: 103087872
I1130 19:54:22.212186 14704 layer_factory.hpp:77] Creating layer norm1
I1130 19:54:22.212194 14704 net.cpp:84] Creating Layer norm1
I1130 19:54:22.212199 14704 net.cpp:406] norm1 <- pool1
I1130 19:54:22.212204 14704 net.cpp:380] norm1 -> norm1
I1130 19:54:22.212249 14704 net.cpp:122] Setting up norm1
I1130 19:54:22.212256 14704 net.cpp:129] Top shape: 32 96 27 27 (2239488)
I1130 19:54:22.212260 14704 net.cpp:137] Memory required for data: 112045824
I1130 19:54:22.212265 14704 layer_factory.hpp:77] Creating layer conv2
I1130 19:54:22.212275 14704 net.cpp:84] Creating Layer conv2
I1130 19:54:22.212280 14704 net.cpp:406] conv2 <- norm1
I1130 19:54:22.212285 14704 net.cpp:380] conv2 -> conv2
I1130 19:54:22.215327 14704 net.cpp:122] Setting up conv2
I1130 19:54:22.215342 14704 net.cpp:129] Top shape: 32 256 27 27 (5971968)
I1130 19:54:22.215346 14704 net.cpp:137] Memory required for data: 135933696
I1130 19:54:22.215356 14704 layer_factory.hpp:77] Creating layer relu2
I1130 19:54:22.215363 14704 net.cpp:84] Creating Layer relu2
I1130 19:54:22.215368 14704 net.cpp:406] relu2 <- conv2
I1130 19:54:22.215374 14704 net.cpp:367] relu2 -> conv2 (in-place)
I1130 19:54:22.215382 14704 net.cpp:122] Setting up relu2
I1130 19:54:22.215389 14704 net.cpp:129] Top shape: 32 256 27 27 (5971968)
I1130 19:54:22.215392 14704 net.cpp:137] Memory required for data: 159821568
I1130 19:54:22.215396 14704 layer_factory.hpp:77] Creating layer pool2
I1130 19:54:22.215404 14704 net.cpp:84] Creating Layer pool2
I1130 19:54:22.215409 14704 net.cpp:406] pool2 <- conv2
I1130 19:54:22.215415 14704 net.cpp:380] pool2 -> pool2
I1130 19:54:22.215446 14704 net.cpp:122] Setting up pool2
I1130 19:54:22.215453 14704 net.cpp:129] Top shape: 32 256 13 13 (1384448)
I1130 19:54:22.215457 14704 net.cpp:137] Memory required for data: 165359360
I1130 19:54:22.215461 14704 layer_factory.hpp:77] Creating layer norm2
I1130 19:54:22.215468 14704 net.cpp:84] Creating Layer norm2
I1130 19:54:22.215473 14704 net.cpp:406] norm2 <- pool2
I1130 19:54:22.215479 14704 net.cpp:380] norm2 -> norm2
I1130 19:54:22.215507 14704 net.cpp:122] Setting up norm2
I1130 19:54:22.215512 14704 net.cpp:129] Top shape: 32 256 13 13 (1384448)
I1130 19:54:22.215517 14704 net.cpp:137] Memory required for data: 170897152
I1130 19:54:22.215520 14704 layer_factory.hpp:77] Creating layer conv3
I1130 19:54:22.215529 14704 net.cpp:84] Creating Layer conv3
I1130 19:54:22.215534 14704 net.cpp:406] conv3 <- norm2
I1130 19:54:22.215540 14704 net.cpp:380] conv3 -> conv3
I1130 19:54:22.223829 14704 net.cpp:122] Setting up conv3
I1130 19:54:22.223855 14704 net.cpp:129] Top shape: 32 384 13 13 (2076672)
I1130 19:54:22.223858 14704 net.cpp:137] Memory required for data: 179203840
I1130 19:54:22.223873 14704 layer_factory.hpp:77] Creating layer relu3
I1130 19:54:22.223884 14704 net.cpp:84] Creating Layer relu3
I1130 19:54:22.223891 14704 net.cpp:406] relu3 <- conv3
I1130 19:54:22.223899 14704 net.cpp:367] relu3 -> conv3 (in-place)
I1130 19:54:22.223909 14704 net.cpp:122] Setting up relu3
I1130 19:54:22.223915 14704 net.cpp:129] Top shape: 32 384 13 13 (2076672)
I1130 19:54:22.223919 14704 net.cpp:137] Memory required for data: 187510528
I1130 19:54:22.223923 14704 layer_factory.hpp:77] Creating layer conv4
I1130 19:54:22.223933 14704 net.cpp:84] Creating Layer conv4
I1130 19:54:22.223938 14704 net.cpp:406] conv4 <- conv3
I1130 19:54:22.223945 14704 net.cpp:380] conv4 -> conv4
I1130 19:54:22.230265 14704 net.cpp:122] Setting up conv4
I1130 19:54:22.230285 14704 net.cpp:129] Top shape: 32 384 13 13 (2076672)
I1130 19:54:22.230289 14704 net.cpp:137] Memory required for data: 195817216
I1130 19:54:22.230298 14704 layer_factory.hpp:77] Creating layer relu4
I1130 19:54:22.230306 14704 net.cpp:84] Creating Layer relu4
I1130 19:54:22.230312 14704 net.cpp:406] relu4 <- conv4
I1130 19:54:22.230320 14704 net.cpp:367] relu4 -> conv4 (in-place)
I1130 19:54:22.230329 14704 net.cpp:122] Setting up relu4
I1130 19:54:22.230335 14704 net.cpp:129] Top shape: 32 384 13 13 (2076672)
I1130 19:54:22.230339 14704 net.cpp:137] Memory required for data: 204123904
I1130 19:54:22.230343 14704 layer_factory.hpp:77] Creating layer conv5
I1130 19:54:22.230352 14704 net.cpp:84] Creating Layer conv5
I1130 19:54:22.230357 14704 net.cpp:406] conv5 <- conv4
I1130 19:54:22.230363 14704 net.cpp:380] conv5 -> conv5
I1130 19:54:22.234678 14704 net.cpp:122] Setting up conv5
I1130 19:54:22.234699 14704 net.cpp:129] Top shape: 32 256 13 13 (1384448)
I1130 19:54:22.234704 14704 net.cpp:137] Memory required for data: 209661696
I1130 19:54:22.234717 14704 layer_factory.hpp:77] Creating layer relu5
I1130 19:54:22.234727 14704 net.cpp:84] Creating Layer relu5
I1130 19:54:22.234733 14704 net.cpp:406] relu5 <- conv5
I1130 19:54:22.234742 14704 net.cpp:367] relu5 -> conv5 (in-place)
I1130 19:54:22.234751 14704 net.cpp:122] Setting up relu5
I1130 19:54:22.234761 14704 net.cpp:129] Top shape: 32 256 13 13 (1384448)
I1130 19:54:22.234766 14704 net.cpp:137] Memory required for data: 215199488
I1130 19:54:22.234771 14704 layer_factory.hpp:77] Creating layer pool5
I1130 19:54:22.234778 14704 net.cpp:84] Creating Layer pool5
I1130 19:54:22.234783 14704 net.cpp:406] pool5 <- conv5
I1130 19:54:22.234789 14704 net.cpp:380] pool5 -> pool5
I1130 19:54:22.234825 14704 net.cpp:122] Setting up pool5
I1130 19:54:22.234833 14704 net.cpp:129] Top shape: 32 256 6 6 (294912)
I1130 19:54:22.234836 14704 net.cpp:137] Memory required for data: 216379136
I1130 19:54:22.234840 14704 layer_factory.hpp:77] Creating layer fc6
I1130 19:54:22.234849 14704 net.cpp:84] Creating Layer fc6
I1130 19:54:22.234854 14704 net.cpp:406] fc6 <- pool5
I1130 19:54:22.234860 14704 net.cpp:380] fc6 -> fc6
I1130 19:54:22.572314 14704 net.cpp:122] Setting up fc6
I1130 19:54:22.572356 14704 net.cpp:129] Top shape: 32 4096 (131072)
I1130 19:54:22.572360 14704 net.cpp:137] Memory required for data: 216903424
I1130 19:54:22.572371 14704 layer_factory.hpp:77] Creating layer relu6
I1130 19:54:22.572381 14704 net.cpp:84] Creating Layer relu6
I1130 19:54:22.572386 14704 net.cpp:406] relu6 <- fc6
I1130 19:54:22.572396 14704 net.cpp:367] relu6 -> fc6 (in-place)
I1130 19:54:22.572407 14704 net.cpp:122] Setting up relu6
I1130 19:54:22.572412 14704 net.cpp:129] Top shape: 32 4096 (131072)
I1130 19:54:22.572414 14704 net.cpp:137] Memory required for data: 217427712
I1130 19:54:22.572419 14704 layer_factory.hpp:77] Creating layer drop6
I1130 19:54:22.572427 14704 net.cpp:84] Creating Layer drop6
I1130 19:54:22.572432 14704 net.cpp:406] drop6 <- fc6
I1130 19:54:22.572437 14704 net.cpp:367] drop6 -> fc6 (in-place)
I1130 19:54:22.572460 14704 net.cpp:122] Setting up drop6
I1130 19:54:22.572466 14704 net.cpp:129] Top shape: 32 4096 (131072)
I1130 19:54:22.572471 14704 net.cpp:137] Memory required for data: 217952000
I1130 19:54:22.572475 14704 layer_factory.hpp:77] Creating layer fc7
I1130 19:54:22.572482 14704 net.cpp:84] Creating Layer fc7
I1130 19:54:22.572487 14704 net.cpp:406] fc7 <- fc6
I1130 19:54:22.572494 14704 net.cpp:380] fc7 -> fc7
I1130 19:54:22.710997 14704 net.cpp:122] Setting up fc7
I1130 19:54:22.711041 14704 net.cpp:129] Top shape: 32 4096 (131072)
I1130 19:54:22.711045 14704 net.cpp:137] Memory required for data: 218476288
I1130 19:54:22.711055 14704 layer_factory.hpp:77] Creating layer relu7
I1130 19:54:22.711066 14704 net.cpp:84] Creating Layer relu7
I1130 19:54:22.711071 14704 net.cpp:406] relu7 <- fc7
I1130 19:54:22.711078 14704 net.cpp:367] relu7 -> fc7 (in-place)
I1130 19:54:22.711091 14704 net.cpp:122] Setting up relu7
I1130 19:54:22.711097 14704 net.cpp:129] Top shape: 32 4096 (131072)
I1130 19:54:22.711100 14704 net.cpp:137] Memory required for data: 219000576
I1130 19:54:22.711103 14704 layer_factory.hpp:77] Creating layer drop7
I1130 19:54:22.711110 14704 net.cpp:84] Creating Layer drop7
I1130 19:54:22.711115 14704 net.cpp:406] drop7 <- fc7
I1130 19:54:22.711120 14704 net.cpp:367] drop7 -> fc7 (in-place)
I1130 19:54:22.711145 14704 net.cpp:122] Setting up drop7
I1130 19:54:22.711151 14704 net.cpp:129] Top shape: 32 4096 (131072)
I1130 19:54:22.711155 14704 net.cpp:137] Memory required for data: 219524864
I1130 19:54:22.711159 14704 layer_factory.hpp:77] Creating layer fc_scv_quiet
I1130 19:54:22.711168 14704 net.cpp:84] Creating Layer fc_scv_quiet
I1130 19:54:22.711172 14704 net.cpp:406] fc_scv_quiet <- fc7
I1130 19:54:22.711177 14704 net.cpp:380] fc_scv_quiet -> fc_scv_quiet
I1130 19:54:22.711275 14704 net.cpp:122] Setting up fc_scv_quiet
I1130 19:54:22.711283 14704 net.cpp:129] Top shape: 32 1 (32)
I1130 19:54:22.711287 14704 net.cpp:137] Memory required for data: 219524992
I1130 19:54:22.711293 14704 layer_factory.hpp:77] Creating layer fc_scv_quiet_fc_scv_quiet_0_split
I1130 19:54:22.711300 14704 net.cpp:84] Creating Layer fc_scv_quiet_fc_scv_quiet_0_split
I1130 19:54:22.711304 14704 net.cpp:406] fc_scv_quiet_fc_scv_quiet_0_split <- fc_scv_quiet
I1130 19:54:22.711316 14704 net.cpp:380] fc_scv_quiet_fc_scv_quiet_0_split -> fc_scv_quiet_fc_scv_quiet_0_split_0
I1130 19:54:22.711323 14704 net.cpp:380] fc_scv_quiet_fc_scv_quiet_0_split -> fc_scv_quiet_fc_scv_quiet_0_split_1
I1130 19:54:22.711350 14704 net.cpp:122] Setting up fc_scv_quiet_fc_scv_quiet_0_split
I1130 19:54:22.711356 14704 net.cpp:129] Top shape: 32 1 (32)
I1130 19:54:22.711361 14704 net.cpp:129] Top shape: 32 1 (32)
I1130 19:54:22.711365 14704 net.cpp:137] Memory required for data: 219525248
I1130 19:54:22.711369 14704 layer_factory.hpp:77] Creating layer loss
I1130 19:54:22.711375 14704 net.cpp:84] Creating Layer loss
I1130 19:54:22.711381 14704 net.cpp:406] loss <- fc_scv_quiet_fc_scv_quiet_0_split_0
I1130 19:54:22.711386 14704 net.cpp:406] loss <- label_data_1_split_0
I1130 19:54:22.711391 14704 net.cpp:380] loss -> loss
…
