…
I1130 06:15:07.542289 20300 net.cpp:51] Initializing net from parameters: 
name: "GoogleNet-Places365-SCV-Polluted"
state {
  phase: TRAIN
  level: 0
  stage: ""
}
layer {
  name: "data"
  type: "Data"
  top: "data"
  top: "label"
  include {
    phase: TRAIN
  }
  transform_param {
    mirror: true
    crop_size: 224
    mean_file: "/idiap/temp/lmedina/fine-tuning/googlenet_places365/places365CNN_mean.binaryproto"
  }
  data_param {
    source: "/idiap/temp/lmedina/fine-tuning/data/Polluted/train_lmdb"
    batch_size: 32
    backend: LMDB
  }
}
layer {
  name: "conv1/7x7_s2"
  type: "Convolution"
  bottom: "data"
  top: "conv1/7x7_s2"
  param {
    lr_mult: 1
    decay_mult: 1
  }
  param {
    lr_mult: 2
    decay_mult: 0
  }
  convolution_param {
    num_output: 64
    pad: 3
    kernel_size: 7
    stride: 2
    weight_filler {
      type: "xavier"
      std: 0.1
    }
    bias_filler {
      type: "constant"
      value: 0.2
    }
  }
}
layer {
  name: "conv1/relu_7x7"
  type: "ReLU"
  bottom: "conv1/7x7_s2"
  top: "conv1/7x7_s2"
}
layer {
  name: "pool1/3x3_s2"
  type: "Pooling"
  bottom: "conv1/7x7_s2"
  top: "pool1/3x3_s2"
  pooling_param {
    pool: MAX
    kernel_size: 3
    stride: 2
  }
}
layer {
  name: "pool1/norm1"
  type: "LRN"
  bottom: "pool1/3x3_s2"
  top: "pool1/norm1"
  lrn_param {
    local_size: 5
    alpha: 0.0001
    beta: 0.75
  }
}
layer {
  name: "conv2/3x3_reduce"
  type: "Convolution"
  bottom: "pool1/norm1"
  top: "conv2/3x3_reduce"
  param {
    lr_mult: 1
    decay_mult: 1
  }
  param {
    lr_mult: 2
    decay_mult: 0
  }
  convolution_param {
    num_output: 64
    kernel_size: 1
    weight_filler {
      type: "xavier"
      std: 0.1
    }
    bias_filler {
      type: "constant"
      value: 0.2
    }
  }
}
layer {
  name: "conv2/relu_3x3_reduce"
  type: "ReLU"
  bottom: "conv2/3x3_reduce"
  top: "conv2/3x3_reduce"
}
layer {
  name: "conv2/3x3"
  type: "Convolution"
  bottom: "conv2/3x3_reduce"
  top: "conv2/3x3"
  param {
    lr_mult: 1
    decay_mult: 1
  }
  param {
    lr_mult: 2
    decay_mult: 0
  }
  convolution_param {
    num_output: 192
    pad: 1
    kernel_size: 3
    weight_filler {
      type: "xavier"
      std: 0.03
    }
    bias_filler {
      type: "constant"
      value: 0.2
    }
  }
}
layer {
  name: "conv2/relu_3x3"
  type: "ReLU"
  bottom: "conv2/3x3"
  top: "conv2/3x3"
}
layer {
  name: "conv2/norm2"
  type: "LRN"
  bottom: "conv2/3x3"
  top: "conv2/norm2"
  lrn_param {
    local_size: 5
    alpha: 0.0001
    beta: 0.75
  }
}
layer {
  name: "pool2/3x3_s2"
  type: "Pooling"
  bottom: "conv2/norm2"
  top: "pool2/3x3_s2"
  pooling_param {
    pool: MAX
    kernel_size: 3
    stride: 2
  }
}
layer {
  name: "inception_3a/1x1"
  type: "Convolution"
  bottom: "pool2/3x3_s2"
  top: "inception_3a/1x1"
  param {
    lr_mult: 1
    decay_mult: 1
  }
  param {
    lr_mult: 2
    decay_mult: 0
  }
  convolution_param {
    num_output: 64
    kernel_size: 1
    weight_filler {
      type: "xavier"
      std: 0.03
    }
    bias_filler {
      type: "constant"
      value: 0.2
    }
  }
}
layer {
  name: "inception_3a/relu_1x1"
  type: "ReLU"
  bottom: "inception_3a/1x1"
  top: "inception_3a/1x1"
}
layer {
  name: "inception_3a/3x3_reduce"
  type: "Convolution"
  bottom: "pool2/3x3_s2"
  top: "inception_3a/3x3_reduce"
  param {
    lr_mult: 1
    decay_mult: 1
  }
  param {
    lr_mult: 2
    decay_mult: 0
  }
  convolution_param {
    num_output: 96
    kernel_size: 1
    weight_filler {
      type: "xavier"
      std: 0.09
    }
    bias_filler {
      type: "constant"
      value: 0.2
    }
  }
}
layer {
  name: "inception_3a/relu_3x3_reduce"
  type: "ReLU"
  bottom: "inception_3a/3x3_reduce"
  top: "inception_3a/3x3_reduce"
}
layer {
  name: "inception_3a/3x3"
  type: "Convolution"
  bottom: "inception_3a/3x3_reduce"
  top: "inception_3a/3x3"
  param {
    lr_mult: 1
    decay_mult: 1
  }
  param {
    lr_mult: 2
    decay_mult: 0
  }
  convolution_param {
    num_output: 128
    pad: 1
    kernel_size: 3
    weight_filler {
      type: "xavier"
      std: 0.03
    }
    bias_filler {
      type: "constant"
      value: 0.2
    }
  }
}
layer {
  name: "inception_3a/relu_3x3"
  type: "ReLU"
  bottom: "inception_3a/3x3"
  top: "inception_3a/3x3"
}
layer {
  name: "inception_3a/5x5_reduce"
  type: "Convolution"
  bottom: "pool2/3x3_s2"
  top: "inception_3a/5x5_reduce"
  param {
    lr_mult: 1
    decay_mult: 1
  }
  param {
    lr_mult: 2
    decay_mult: 0
  }
  convolution_param {
    num_output: 16
    kernel_size: 1
    weight_filler {
      type: "xavier"
      std: 0.2
    }
    bias_filler {
      type: "constant"
      value: 0.2
    }
  }
}
layer {
  name: "inception_3a/relu_5x5_reduce"
  type: "ReLU"
  bottom: "inception_3a/5x5_reduce"
  top: "inception_3a/5x5_reduce"
}
layer {
  name: "inception_3a/5x5"
  type: "Convolution"
  bottom: "inception_3a/5x5_reduce"
  top: "inception_3a/5x5"
  param {
    lr_mult: 1
    decay_mult: 1
  }
  param {
    lr_mult: 2
    decay_mult: 0
  }
  convolution_param {
    num_output: 32
    pad: 2
    kernel_size: 5
    weight_filler {
      type: "xavier"
      std: 0.03
    }
    bias_filler {
      type: "constant"
      value: 0.2
    }
  }
}
layer {
  name: "inception_3a/relu_5x5"
  type: "ReLU"
  bottom: "inception_3a/5x5"
  top: "inception_3a/5x5"
}
layer {
  name: "inception_3a/pool"
  type: "Pooling"
  bottom: "pool2/3x3_s2"
  top: "inception_3a/pool"
  pooling_param {
    pool: MAX
    kernel_size: 3
    stride: 1
    pad: 1
  }
}
layer {
  name: "inception_3a/pool_proj"
  type: "Convolution"
  bottom: "inception_3a/pool"
  top: "inception_3a/pool_proj"
  param {
    lr_mult: 1
    decay_mult: 1
  }
  param {
    lr_mult: 2
    decay_mult: 0
  }
  convolution_param {
    num_output: 32
    kernel_size: 1
    weight_filler {
      type: "xavier"
      std: 0.1
    }
    bias_filler {
      type: "constant"
      value: 0.2
    }
  }
}
layer {
  name: "inception_3a/relu_pool_proj"
  type: "ReLU"
  bottom: "inception_3a/pool_proj"
  top: "inception_3a/pool_proj"
}
layer {
  name: "inception_3a/output"
  type: "Concat"
  bottom: "inception_3a/1x1"
  bottom: "inception_3a/3x3"
  bottom: "inception_3a/5x5"
  bottom: "inception_3a/pool_proj"
  top: "inception_3a/output"
}
layer {
  name: "inception_3b/1x1"
  type: "Convolution"
  bottom: "inception_3a/output"
  top: "inception_3b/1x1"
  param {
    lr_mult: 1
    decay_mult: 1
  }
  param {
    lr_mult: 2
    decay_mult: 0
  }
  convolution_param {
    num_output: 128
    kernel_size: 1
    weight_filler {
      type: "xavier"
      std: 0.03
    }
    bias_filler {
      type: "constant"
      value: 0.2
    }
  }
}
layer {
  name: "inception_3b/relu_1x1"
  type: "ReLU"
  bottom: "inception_3b/1x1"
  top: "inception_3b/1x1"
}
layer {
  name: "inception_3b/3x3_reduce"
  type: "Convolution"
  bottom: "inception_3a/output"
  top: "inception_3b/3x3_reduce"
  param {
    lr_mult: 1
    decay_mult: 1
  }
  param {
    lr_mult: 2
    decay_mult: 0
  }
  convolution_param {
    num_output: 128
    kernel_size: 1
    weight_filler {
      type: "xavier"
      std: 0.09
    }
    bias_filler {
      type: "constant"
      value: 0.2
    }
  }
}
layer {
  name: "inception_3b/relu_3x3_reduce"
  type: "ReLU"
  bottom: "inception_3b/3x3_reduce"
  top: "inception_3b/3x3_reduce"
}
layer {
  name: "inception_3b/3x3"
  type: "Convolution"
  bottom: "inception_3b/3x3_reduce"
  top: "inception_3b/3x3"
  param {
    lr_mult: 1
    decay_mult: 1
  }
  param {
    lr_mult: 2
    decay_mult: 0
  }
  convolution_param {
    num_output: 192
    pad: 1
    kernel_size: 3
    weight_filler {
      type: "xavier"
      std: 0.03
    }
    bias_filler {
      type: "constant"
      value: 0.2
    }
  }
}
layer {
  name: "inception_3b/relu_3x3"
  type: "ReLU"
  bottom: "inception_3b/3x3"
  top: "inception_3b/3x3"
}
layer {
  name: "inception_3b/5x5_reduce"
  type: "Convolution"
  bottom: "inception_3a/output"
  top: "inception_3b/5x5_reduce"
  param {
    lr_mult: 1
    decay_mult: 1
  }
  param {
    lr_mult: 2
    decay_mult: 0
  }
  convolution_param {
    num_output: 32
    kernel_size: 1
    weight_filler {
      type: "xavier"
      std: 0.2
    }
    bias_filler {
      type: "constant"
      value: 0.2
    }
  }
}
layer {
  name: "inception_3b/relu_5x5_reduce"
  type: "ReLU"
  bottom: "inception_3b/5x5_reduce"
  top: "inception_3b/5x5_reduce"
}
layer {
  name: "inception_3b/5x5"
  type: "Convolution"
  bottom: "inception_3b/5x5_reduce"
  top: "inception_3b/5x5"
  param {
    lr_mult: 1
    decay_mult: 1
  }
  param {
    lr_mult: 2
    decay_mult: 0
  }
  convolution_param {
    num_output: 96
    pad: 2
    kernel_size: 5
    weight_filler {
      type: "xavier"
      std: 0.03
    }
    bias_filler {
      type: "constant"
      value: 0.2
    }
  }
}
layer {
  name: "inception_3b/relu_5x5"
  type: "ReLU"
  bottom: "inception_3b/5x5"
  top: "inception_3b/5x5"
}
layer {
  name: "inception_3b/pool"
  type: "Pooling"
  bottom: "inception_3a/output"
  top: "inception_3b/pool"
  pooling_param {
    pool: MAX
    kernel_size: 3
    stride: 1
    pad: 1
  }
}
layer {
  name: "inception_3b/pool_proj"
  type: "Convolution"
  bottom: "inception_3b/pool"
  top: "inception_3b/pool_proj"
  param {
    lr_mult: 1
    decay_mult: 1
  }
  param {
    lr_mult: 2
    decay_mult: 0
  }
  convolution_param {
    num_output: 64
    kernel_size: 1
    weight_filler {
      type: "xavier"
      std: 0.1
    }
    bias_filler {
      type: "constant"
      value: 0.2
    }
  }
}
layer {
  name: "inception_3b/relu_pool_proj"
  type: "ReLU"
  bottom: "inception_3b/pool_proj"
  top: "inception_3b/pool_proj"
}
layer {
  name: "inception_3b/output"
  type: "Concat"
  bottom: "inception_3b/1x1"
  bottom: "inception_3b/3x3"
  bottom: "inception_3b/5x5"
  bottom: "inception_3b/pool_proj"
  top: "inception_3b/output"
}
layer {
  name: "pool3/3x3_s2"
  type: "Pooling"
  bottom: "inception_3b/output"
  top: "pool3/3x3_s2"
  pooling_param {
    pool: MAX
    kernel_size: 3
    stride: 2
  }
}
layer {
  name: "inception_4a/1x1"
  type: "Convolution"
  bottom: "pool3/3x3_s2"
  top: "inception_4a/1x1"
  param {
    lr_mult: 1
    decay_mult: 1
  }
  param {
    lr_mult: 2
    decay_mult: 0
  }
  convolution_param {
    num_output: 192
    kernel_size: 1
    weight_filler {
      type: "xavier"
      std: 0.03
    }
    bias_filler {
      type: "constant"
      value: 0.2
    }
  }
}
layer {
  name: "inception_4a/relu_1x1"
  type: "ReLU"
  bottom: "inception_4a/1x1"
  top: "inception_4a/1x1"
}
layer {
  name: "inception_4a/3x3_reduce"
  type: "Convolution"
  bottom: "pool3/3x3_s2"
  top: "inception_4a/3x3_reduce"
  param {
    lr_mult: 1
    decay_mult: 1
  }
  param {
    lr_mult: 2
    decay_mult: 0
  }
  convolution_param {
    num_output: 96
    kernel_size: 1
    weight_filler {
      type: "xavier"
      std: 0.09
    }
    bias_filler {
      type: "constant"
      value: 0.2
    }
  }
}
layer {
  name: "inception_4a/relu_3x3_reduce"
  type: "ReLU"
  bottom: "inception_4a/3x3_reduce"
  top: "inception_4a/3x3_reduce"
}
layer {
  name: "inception_4a/3x3"
  type: "Convolution"
  bottom: "inception_4a/3x3_reduce"
  top: "inception_4a/3x3"
  param {
    lr_mult: 1
    decay_mult: 1
  }
  param {
    lr_mult: 2
    decay_mult: 0
  }
  convolution_param {
    num_output: 208
    pad: 1
    kernel_size: 3
    weight_filler {
      type: "xavier"
      std: 0.03
    }
    bias_filler {
      type: "constant"
      value: 0.2
    }
  }
}
layer {
  name: "inception_4a/relu_3x3"
  type: "ReLU"
  bottom: "inception_4a/3x3"
  top: "inception_4a/3x3"
}
layer {
  name: "inception_4a/5x5_reduce"
  type: "Convolution"
  bottom: "pool3/3x3_s2"
  top: "inception_4a/5x5_reduce"
  param {
    lr_mult: 1
    decay_mult: 1
  }
  param {
    lr_mult: 2
    decay_mult: 0
  }
  convolution_param {
    num_output: 16
    kernel_size: 1
    weight_filler {
      type: "xavier"
      std: 0.2
    }
    bias_filler {
      type: "constant"
      value: 0.2
    }
  }
}
layer {
  name: "inception_4a/relu_5x5_reduce"
  type: "ReLU"
  bottom: "inception_4a/5x5_reduce"
  top: "inception_4a/5x5_reduce"
}
layer {
  name: "inception_4a/5x5"
  type: "Convolution"
  bottom: "inception_4a/5x5_reduce"
  top: "inception_4a/5x5"
  param {
    lr_mult: 1
    decay_mult: 1
  }
  param {
    lr_mult: 2
    decay_mult: 0
  }
  convolution_param {
    num_output: 48
    pad: 2
    kernel_size: 5
    weight_filler {
      type: "xavier"
      std: 0.03
    }
    bias_filler {
      type: "constant"
      value: 0.2
    }
  }
}
layer {
  name: "inception_4a/relu_5x5"
  type: "ReLU"
  bottom: "inception_4a/5x5"
  top: "inception_4a/5x5"
}
layer {
  name: "inception_4a/pool"
  type: "Pooling"
  bottom: "pool3/3x3_s2"
  top: "inception_4a/pool"
  pooling_param {
    pool: MAX
    kernel_size: 3
    stride: 1
    pad: 1
  }
}
layer {
  name: "inception_4a/pool_proj"
  type: "Convolution"
  bottom: "inception_4a/pool"
  top: "inception_4a/pool_proj"
  param {
    lr_mult: 1
    decay_mult: 1
  }
  param {
    lr_mult: 2
    decay_mult: 0
  }
  convolution_param {
    num_output: 64
    kernel_size: 1
    weight_filler {
      type: "xavier"
      std: 0.1
    }
    bias_filler {
      type: "constant"
      value: 0.2
    }
  }
}
layer {
  name: "inception_4a/relu_pool_proj"
  type: "ReLU"
  bottom: "inception_4a/pool_proj"
  top: "inception_4a/pool_proj"
}
layer {
  name: "inception_4a/output"
  type: "Concat"
  bottom: "inception_4a/1x1"
  bottom: "inception_4a/3x3"
  bottom: "inception_4a/5x5"
  bottom: "inception_4a/pool_proj"
  top: "inception_4a/output"
}
layer {
  name: "inception_4b/1x1"
  type: "Convolution"
  bottom: "inception_4a/output"
  top: "inception_4b/1x1"
  param {
    lr_mult: 1
    decay_mult: 1
  }
  param {
    lr_mult: 2
    decay_mult: 0
  }
  convolution_param {
    num_output: 160
    kernel_size: 1
    weight_filler {
      type: "xavier"
      std: 0.03
    }
    bias_filler {
      type: "constant"
      value: 0.2
    }
  }
}
layer {
  name: "inception_4b/relu_1x1"
  type: "ReLU"
  bottom: "inception_4b/1x1"
  top: "inception_4b/1x1"
}
layer {
  name: "inception_4b/3x3_reduce"
  type: "Convolution"
  bottom: "inception_4a/output"
  top: "inception_4b/3x3_reduce"
  param {
    lr_mult: 1
    decay_mult: 1
  }
  param {
    lr_mult: 2
    decay_mult: 0
  }
  convolution_param {
    num_output: 112
    kernel_size: 1
    weight_filler {
      type: "xavier"
      std: 0.09
    }
    bias_filler {
      type: "constant"
      value: 0.2
    }
  }
}
layer {
  name: "inception_4b/relu_3x3_reduce"
  type: "ReLU"
  bottom: "inception_4b/3x3_reduce"
  top: "inception_4b/3x3_reduce"
}
layer {
  name: "inception_4b/3x3"
  type: "Convolution"
  bottom: "inception_4b/3x3_reduce"
  top: "inception_4b/3x3"
  param {
    lr_mult: 1
    decay_mult: 1
  }
  param {
    lr_mult: 2
    decay_mult: 0
  }
  convolution_param {
    num_output: 224
    pad: 1
    kernel_size: 3
    weight_filler {
      type: "xavier"
      std: 0.03
    }
    bias_filler {
      type: "constant"
      value: 0.2
    }
  }
}
layer {
  name: "inception_4b/relu_3x3"
  type: "ReLU"
  bottom: "inception_4b/3x3"
  top: "inception_4b/3x3"
}
layer {
  name: "inception_4b/5x5_reduce"
  type: "Convolution"
  bottom: "inception_4a/output"
  top: "inception_4b/5x5_reduce"
  param {
    lr_mult: 1
    decay_mult: 1
  }
  param {
    lr_mult: 2
    decay_mult: 0
  }
  convolution_param {
    num_output: 24
    kernel_size: 1
    weight_filler {
      type: "xavier"
      std: 0.2
    }
    bias_filler {
      type: "constant"
      value: 0.2
    }
  }
}
layer {
  name: "inception_4b/relu_5x5_reduce"
  type: "ReLU"
  bottom: "inception_4b/5x5_reduce"
  top: "inception_4b/5x5_reduce"
}
layer {
  name: "inception_4b/5x5"
  type: "Convolution"
  bottom: "inception_4b/5x5_reduce"
  top: "inception_4b/5x5"
  param {
    lr_mult: 1
    decay_mult: 1
  }
  param {
    lr_mult: 2
    decay_mult: 0
  }
  convolution_param {
    num_output: 64
    pad: 2
    kernel_size: 5
    weight_filler {
      type: "xavier"
      std: 0.03
    }
    bias_filler {
      type: "constant"
      value: 0.2
    }
  }
}
layer {
  name: "inception_4b/relu_5x5"
  type: "ReLU"
  bottom: "inception_4b/5x5"
  top: "inception_4b/5x5"
}
layer {
  name: "inception_4b/pool"
  type: "Pooling"
  bottom: "inception_4a/output"
  top: "inception_4b/pool"
  pooling_param {
    pool: MAX
    kernel_size: 3
    stride: 1
    pad: 1
  }
}
layer {
  name: "inception_4b/pool_proj"
  type: "Convolution"
  bottom: "inception_4b/pool"
  top: "inception_4b/pool_proj"
  param {
    lr_mult: 1
    decay_mult: 1
  }
  param {
    lr_mult: 2
    decay_mult: 0
  }
  convolution_param {
    num_output: 64
    kernel_size: 1
    weight_filler {
      type: "xavier"
      std: 0.1
    }
    bias_filler {
      type: "constant"
      value: 0.2
    }
  }
}
layer {
  name: "inception_4b/relu_pool_proj"
  type: "ReLU"
  bottom: "inception_4b/pool_proj"
  top: "inception_4b/pool_proj"
}
layer {
  name: "inception_4b/output"
  type: "Concat"
  bottom: "inception_4b/1x1"
  bottom: "inception_4b/3x3"
  bottom: "inception_4b/5x5"
  bottom: "inception_4b/pool_proj"
  top: "inception_4b/output"
}
layer {
  name: "inception_4c/1x1"
  type: "Convolution"
  bottom: "inception_4b/output"
  top: "inception_4c/1x1"
  param {
    lr_mult: 1
    decay_mult: 1
  }
  param {
    lr_mult: 2
    decay_mult: 0
  }
  convolution_param {
    num_output: 128
    kernel_size: 1
    weight_filler {
      type: "xavier"
      std: 0.03
    }
    bias_filler {
      type: "constant"
      value: 0.2
    }
  }
}
layer {
  name: "inception_4c/relu_1x1"
  type: "ReLU"
  bottom: "inception_4c/1x1"
  top: "inception_4c/1x1"
}
layer {
  name: "inception_4c/3x3_reduce"
  type: "Convolution"
  bottom: "inception_4b/output"
  top: "inception_4c/3x3_reduce"
  param {
    lr_mult: 1
    decay_mult: 1
  }
  param {
    lr_mult: 2
    decay_mult: 0
  }
  convolution_param {
    num_output: 128
    kernel_size: 1
    weight_filler {
      type: "xavier"
      std: 0.09
    }
    bias_filler {
      type: "constant"
      value: 0.2
    }
  }
}
layer {
  name: "inception_4c/relu_3x3_reduce"
  type: "ReLU"
  bottom: "inception_4c/3x3_reduce"
  top: "inception_4c/3x3_reduce"
}
layer {
  name: "inception_4c/3x3"
  type: "Convolution"
  bottom: "inception_4c/3x3_reduce"
  top: "inception_4c/3x3"
  param {
    lr_mult: 1
    decay_mult: 1
  }
  param {
    lr_mult: 2
    decay_mult: 0
  }
  convolution_param {
    num_output: 256
    pad: 1
    kernel_size: 3
    weight_filler {
      type: "xavier"
      std: 0.03
    }
    bias_filler {
      type: "constant"
      value: 0.2
    }
  }
}
layer {
  name: "inception_4c/relu_3x3"
  type: "ReLU"
  bottom: "inception_4c/3x3"
  top: "inception_4c/3x3"
}
layer {
  name: "inception_4c/5x5_reduce"
  type: "Convolution"
  bottom: "inception_4b/output"
  top: "inception_4c/5x5_reduce"
  param {
    lr_mult: 1
    decay_mult: 1
  }
  param {
    lr_mult: 2
    decay_mult: 0
  }
  convolution_param {
    num_output: 24
    kernel_size: 1
    weight_filler {
      type: "xavier"
      std: 0.2
    }
    bias_filler {
      type: "constant"
      value: 0.2
    }
  }
}
layer {
  name: "inception_4c/relu_5x5_reduce"
  type: "ReLU"
  bottom: "inception_4c/5x5_reduce"
  top: "inception_4c/5x5_reduce"
}
layer {
  name: "inception_4c/5x5"
  type: "Convolution"
  bottom: "inception_4c/5x5_reduce"
  top: "inception_4c/5x5"
  param {
    lr_mult: 1
    decay_mult: 1
  }
  param {
    lr_mult: 2
    decay_mult: 0
  }
  convolution_param {
    num_output: 64
    pad: 2
    kernel_size: 5
    weight_filler {
      type: "xavier"
      std: 0.03
    }
    bias_filler {
      type: "constant"
      value: 0.2
    }
  }
}
layer {
  name: "inception_4c/relu_5x5"
  type: "ReLU"
  bottom: "inception_4c/5x5"
  top: "inception_4c/5x5"
}
layer {
  name: "inception_4c/pool"
  type: "Pooling"
  bottom: "inception_4b/output"
  top: "inception_4c/pool"
  pooling_param {
    pool: MAX
    kernel_size: 3
    stride: 1
    pad: 1
  }
}
layer {
  name: "inception_4c/pool_proj"
  type: "Convolution"
  bottom: "inception_4c/pool"
  top: "inception_4c/pool_proj"
  param {
    lr_mult: 1
    decay_mult: 1
  }
  param {
    lr_mult: 2
    decay_mult: 0
  }
  convolution_param {
    num_output: 64
    kernel_size: 1
    weight_filler {
      type: "xavier"
      std: 0.1
    }
    bias_filler {
      type: "constant"
      value: 0.2
    }
  }
}
layer {
  name: "inception_4c/relu_pool_proj"
  type: "ReLU"
  bottom: "inception_4c/pool_proj"
  top: "inception_4c/pool_proj"
}
layer {
  name: "inception_4c/output"
  type: "Concat"
  bottom: "inception_4c/1x1"
  bottom: "inception_4c/3x3"
  bottom: "inception_4c/5x5"
  bottom: "inception_4c/pool_proj"
  top: "inception_4c/output"
}
layer {
  name: "inception_4d/1x1"
  type: "Convolution"
  bottom: "inception_4c/output"
  top: "inception_4d/1x1"
  param {
    lr_mult: 1
    decay_mult: 1
  }
  param {
    lr_mult: 2
    decay_mult: 0
  }
  convolution_param {
    num_output: 112
    kernel_size: 1
    weight_filler {
      type: "xavier"
      std: 0.03
    }
    bias_filler {
      type: "constant"
      value: 0.2
    }
  }
}
layer {
  name: "inception_4d/relu_1x1"
  type: "ReLU"
  bottom: "inception_4d/1x1"
  top: "inception_4d/1x1"
}
layer {
  name: "inception_4d/3x3_reduce"
  type: "Convolution"
  bottom: "inception_4c/output"
  top: "inception_4d/3x3_reduce"
  param {
    lr_mult: 1
    decay_mult: 1
  }
  param {
    lr_mult: 2
    decay_mult: 0
  }
  convolution_param {
    num_output: 144
    kernel_size: 1
    weight_filler {
      type: "xavier"
      std: 0.09
    }
    bias_filler {
      type: "constant"
      value: 0.2
    }
  }
}
layer {
  name: "inception_4d/relu_3x3_reduce"
  type: "ReLU"
  bottom: "inception_4d/3x3_reduce"
  top: "inception_4d/3x3_reduce"
}
layer {
  name: "inception_4d/3x3"
  type: "Convolution"
  bottom: "inception_4d/3x3_reduce"
  top: "inception_4d/3x3"
  param {
    lr_mult: 1
    decay_mult: 1
  }
  param {
    lr_mult: 2
    decay_mult: 0
  }
  convolution_param {
    num_output: 288
    pad: 1
    kernel_size: 3
    weight_filler {
      type: "xavier"
      std: 0.03
    }
    bias_filler {
      type: "constant"
      value: 0.2
    }
  }
}
layer {
  name: "inception_4d/relu_3x3"
  type: "ReLU"
  bottom: "inception_4d/3x3"
  top: "inception_4d/3x3"
}
layer {
  name: "inception_4d/5x5_reduce"
  type: "Convolution"
  bottom: "inception_4c/output"
  top: "inception_4d/5x5_reduce"
  param {
    lr_mult: 1
    decay_mult: 1
  }
  param {
    lr_mult: 2
    decay_mult: 0
  }
  convolution_param {
    num_output: 32
    kernel_size: 1
    weight_filler {
      type: "xavier"
      std: 0.2
    }
    bias_filler {
      type: "constant"
      value: 0.2
    }
  }
}
layer {
  name: "inception_4d/relu_5x5_reduce"
  type: "ReLU"
  bottom: "inception_4d/5x5_reduce"
  top: "inception_4d/5x5_reduce"
}
layer {
  name: "inception_4d/5x5"
  type: "Convolution"
  bottom: "inception_4d/5x5_reduce"
  top: "inception_4d/5x5"
  param {
    lr_mult: 1
    decay_mult: 1
  }
  param {
    lr_mult: 2
    decay_mult: 0
  }
  convolution_param {
    num_output: 64
    pad: 2
    kernel_size: 5
    weight_filler {
      type: "xavier"
      std: 0.03
    }
    bias_filler {
      type: "constant"
      value: 0.2
    }
  }
}
layer {
  name: "inception_4d/relu_5x5"
  type: "ReLU"
  bottom: "inception_4d/5x5"
  top: "inception_4d/5x5"
}
layer {
  name: "inception_4d/pool"
  type: "Pooling"
  bottom: "inception_4c/output"
  top: "inception_4d/pool"
  pooling_param {
    pool: MAX
    kernel_size: 3
    stride: 1
    pad: 1
  }
}
layer {
  name: "inception_4d/pool_proj"
  type: "Convolution"
  bottom: "inception_4d/pool"
  top: "inception_4d/pool_proj"
  param {
    lr_mult: 1
    decay_mult: 1
  }
  param {
    lr_mult: 2
    decay_mult: 0
  }
  convolution_param {
    num_output: 64
    kernel_size: 1
    weight_filler {
      type: "xavier"
      std: 0.1
    }
    bias_filler {
      type: "constant"
      value: 0.2
    }
  }
}
layer {
  name: "inception_4d/relu_pool_proj"
  type: "ReLU"
  bottom: "inception_4d/pool_proj"
  top: "inception_4d/pool_proj"
}
layer {
  name: "inception_4d/output"
  type: "Concat"
  bottom: "inception_4d/1x1"
  bottom: "inception_4d/3x3"
  bottom: "inception_4d/5x5"
  bottom: "inception_4d/pool_proj"
  top: "inception_4d/output"
}
layer {
  name: "inception_4e/1x1"
  type: "Convolution"
  bottom: "inception_4d/output"
  top: "inception_4e/1x1"
  param {
    lr_mult: 1
    decay_mult: 1
  }
  param {
    lr_mult: 2
    decay_mult: 0
  }
  convolution_param {
    num_output: 256
    kernel_size: 1
    weight_filler {
      type: "xavier"
      std: 0.03
    }
    bias_filler {
      type: "constant"
      value: 0.2
    }
  }
}
layer {
  name: "inception_4e/relu_1x1"
  type: "ReLU"
  bottom: "inception_4e/1x1"
  top: "inception_4e/1x1"
}
layer {
  name: "inception_4e/3x3_reduce"
  type: "Convolution"
  bottom: "inception_4d/output"
  top: "inception_4e/3x3_reduce"
  param {
    lr_mult: 1
    decay_mult: 1
  }
  param {
    lr_mult: 2
    decay_mult: 0
  }
  convolution_param {
    num_output: 160
    kernel_size: 1
    weight_filler {
      type: "xavier"
      std: 0.09
    }
    bias_filler {
      type: "constant"
      value: 0.2
    }
  }
}
layer {
  name: "inception_4e/relu_3x3_reduce"
  type: "ReLU"
  bottom: "inception_4e/3x3_reduce"
  top: "inception_4e/3x3_reduce"
}
layer {
  name: "inception_4e/3x3"
  type: "Convolution"
  bottom: "inception_4e/3x3_reduce"
  top: "inception_4e/3x3"
  param {
    lr_mult: 1
    decay_mult: 1
  }
  param {
    lr_mult: 2
    decay_mult: 0
  }
  convolution_param {
    num_output: 320
    pad: 1
    kernel_size: 3
    weight_filler {
      type: "xavier"
      std: 0.03
    }
    bias_filler {
      type: "constant"
      value: 0.2
    }
  }
}
layer {
  name: "inception_4e/relu_3x3"
  type: "ReLU"
  bottom: "inception_4e/3x3"
  top: "inception_4e/3x3"
}
layer {
  name: "inception_4e/5x5_reduce"
  type: "Convolution"
  bottom: "inception_4d/output"
  top: "inception_4e/5x5_reduce"
  param {
    lr_mult: 1
    decay_mult: 1
  }
  param {
    lr_mult: 2
    decay_mult: 0
  }
  convolution_param {
    num_output: 32
    kernel_size: 1
    weight_filler {
      type: "xavier"
      std: 0.2
    }
    bias_filler {
      type: "constant"
      value: 0.2
    }
  }
}
layer {
  name: "inception_4e/relu_5x5_reduce"
  type: "ReLU"
  bottom: "inception_4e/5x5_reduce"
  top: "inception_4e/5x5_reduce"
}
layer {
  name: "inception_4e/5x5"
  type: "Convolution"
  bottom: "inception_4e/5x5_reduce"
  top: "inception_4e/5x5"
  param {
    lr_mult: 1
    decay_mult: 1
  }
  param {
    lr_mult: 2
    decay_mult: 0
  }
  convolution_param {
    num_output: 128
    pad: 2
    kernel_size: 5
    weight_filler {
      type: "xavier"
      std: 0.03
    }
    bias_filler {
      type: "constant"
      value: 0.2
    }
  }
}
layer {
  name: "inception_4e/relu_5x5"
  type: "ReLU"
  bottom: "inception_4e/5x5"
  top: "inception_4e/5x5"
}
layer {
  name: "inception_4e/pool"
  type: "Pooling"
  bottom: "inception_4d/output"
  top: "inception_4e/pool"
  pooling_param {
    pool: MAX
    kernel_size: 3
    stride: 1
    pad: 1
  }
}
layer {
  name: "inception_4e/pool_proj"
  type: "Convolution"
  bottom: "inception_4e/pool"
  top: "inception_4e/pool_proj"
  param {
    lr_mult: 1
    decay_mult: 1
  }
  param {
    lr_mult: 2
    decay_mult: 0
  }
  convolution_param {
    num_output: 128
    kernel_size: 1
    weight_filler {
      type: "xavier"
      std: 0.1
    }
    bias_filler {
      type: "constant"
      value: 0.2
    }
  }
}
layer {
  name: "inception_4e/relu_pool_proj"
  type: "ReLU"
  bottom: "inception_4e/pool_proj"
  top: "inception_4e/pool_proj"
}
layer {
  name: "inception_4e/output"
  type: "Concat"
  bottom: "inception_4e/1x1"
  bottom: "inception_4e/3x3"
  bottom: "inception_4e/5x5"
  bottom: "inception_4e/pool_proj"
  top: "inception_4e/output"
}
layer {
  name: "pool4/3x3_s2"
  type: "Pooling"
  bottom: "inception_4e/output"
  top: "pool4/3x3_s2"
  pooling_param {
    pool: MAX
    kernel_size: 3
    stride: 2
  }
}
layer {
  name: "inception_5a/1x1"
  type: "Convolution"
  bottom: "pool4/3x3_s2"
  top: "inception_5a/1x1"
  param {
    lr_mult: 1
    decay_mult: 1
  }
  param {
    lr_mult: 2
    decay_mult: 0
  }
  convolution_param {
    num_output: 256
    kernel_size: 1
    weight_filler {
      type: "xavier"
      std: 0.03
    }
    bias_filler {
      type: "constant"
      value: 0.2
    }
  }
}
layer {
  name: "inception_5a/relu_1x1"
  type: "ReLU"
  bottom: "inception_5a/1x1"
  top: "inception_5a/1x1"
}
layer {
  name: "inception_5a/3x3_reduce"
  type: "Convolution"
  bottom: "pool4/3x3_s2"
  top: "inception_5a/3x3_reduce"
  param {
    lr_mult: 1
    decay_mult: 1
  }
  param {
    lr_mult: 2
    decay_mult: 0
  }
  convolution_param {
    num_output: 160
    kernel_size: 1
    weight_filler {
      type: "xavier"
      std: 0.09
    }
    bias_filler {
      type: "constant"
      value: 0.2
    }
  }
}
layer {
  name: "inception_5a/relu_3x3_reduce"
  type: "ReLU"
  bottom: "inception_5a/3x3_reduce"
  top: "inception_5a/3x3_reduce"
}
layer {
  name: "inception_5a/3x3"
  type: "Convolution"
  bottom: "inception_5a/3x3_reduce"
  top: "inception_5a/3x3"
  param {
    lr_mult: 1
    decay_mult: 1
  }
  param {
    lr_mult: 2
    decay_mult: 0
  }
  convolution_param {
    num_output: 320
    pad: 1
    kernel_size: 3
    weight_filler {
      type: "xavier"
      std: 0.03
    }
    bias_filler {
      type: "constant"
      value: 0.2
    }
  }
}
layer {
  name: "inception_5a/relu_3x3"
  type: "ReLU"
  bottom: "inception_5a/3x3"
  top: "inception_5a/3x3"
}
layer {
  name: "inception_5a/5x5_reduce"
  type: "Convolution"
  bottom: "pool4/3x3_s2"
  top: "inception_5a/5x5_red
I1130 06:15:07.542804 20300 layer_factory.hpp:77] Creating layer data
I1130 06:15:07.581533 20300 db_lmdb.cpp:35] Opened lmdb /idiap/temp/lmedina/fine-tuning/data/Polluted/train_lmdb
I1130 06:15:07.613787 20300 net.cpp:84] Creating Layer data
I1130 06:15:07.613806 20300 net.cpp:380] data -> data
I1130 06:15:07.613831 20300 net.cpp:380] data -> label
I1130 06:15:07.613847 20300 data_transformer.cpp:25] Loading mean file from: /idiap/temp/lmedina/fine-tuning/googlenet_places365/places365CNN_mean.binaryproto
I1130 06:15:07.620792 20300 data_layer.cpp:45] output data size: 32,3,224,224
I1130 06:15:07.656496 20300 net.cpp:122] Setting up data
I1130 06:15:07.656533 20300 net.cpp:129] Top shape: 32 3 224 224 (4816896)
I1130 06:15:07.656538 20300 net.cpp:129] Top shape: 32 (32)
I1130 06:15:07.656541 20300 net.cpp:137] Memory required for data: 19267712
I1130 06:15:07.656551 20300 layer_factory.hpp:77] Creating layer conv1/7x7_s2
I1130 06:15:07.656575 20300 net.cpp:84] Creating Layer conv1/7x7_s2
I1130 06:15:07.656582 20300 net.cpp:406] conv1/7x7_s2 <- data
I1130 06:15:07.656595 20300 net.cpp:380] conv1/7x7_s2 -> conv1/7x7_s2
I1130 06:15:07.657222 20300 net.cpp:122] Setting up conv1/7x7_s2
I1130 06:15:07.657232 20300 net.cpp:129] Top shape: 32 64 112 112 (25690112)
I1130 06:15:07.657235 20300 net.cpp:137] Memory required for data: 122028160
I1130 06:15:07.657248 20300 layer_factory.hpp:77] Creating layer conv1/relu_7x7
I1130 06:15:07.657254 20300 net.cpp:84] Creating Layer conv1/relu_7x7
I1130 06:15:07.657258 20300 net.cpp:406] conv1/relu_7x7 <- conv1/7x7_s2
I1130 06:15:07.657263 20300 net.cpp:367] conv1/relu_7x7 -> conv1/7x7_s2 (in-place)
I1130 06:15:07.657269 20300 net.cpp:122] Setting up conv1/relu_7x7
I1130 06:15:07.657274 20300 net.cpp:129] Top shape: 32 64 112 112 (25690112)
I1130 06:15:07.657279 20300 net.cpp:137] Memory required for data: 224788608
I1130 06:15:07.657282 20300 layer_factory.hpp:77] Creating layer pool1/3x3_s2
I1130 06:15:07.657289 20300 net.cpp:84] Creating Layer pool1/3x3_s2
I1130 06:15:07.657292 20300 net.cpp:406] pool1/3x3_s2 <- conv1/7x7_s2
I1130 06:15:07.657297 20300 net.cpp:380] pool1/3x3_s2 -> pool1/3x3_s2
I1130 06:15:07.657378 20300 net.cpp:122] Setting up pool1/3x3_s2
I1130 06:15:07.657387 20300 net.cpp:129] Top shape: 32 64 56 56 (6422528)
I1130 06:15:07.657389 20300 net.cpp:137] Memory required for data: 250478720
I1130 06:15:07.657392 20300 layer_factory.hpp:77] Creating layer pool1/norm1
I1130 06:15:07.657402 20300 net.cpp:84] Creating Layer pool1/norm1
I1130 06:15:07.657405 20300 net.cpp:406] pool1/norm1 <- pool1/3x3_s2
I1130 06:15:07.657409 20300 net.cpp:380] pool1/norm1 -> pool1/norm1
I1130 06:15:07.657438 20300 net.cpp:122] Setting up pool1/norm1
I1130 06:15:07.657444 20300 net.cpp:129] Top shape: 32 64 56 56 (6422528)
I1130 06:15:07.657447 20300 net.cpp:137] Memory required for data: 276168832
I1130 06:15:07.657449 20300 layer_factory.hpp:77] Creating layer conv2/3x3_reduce
I1130 06:15:07.657457 20300 net.cpp:84] Creating Layer conv2/3x3_reduce
I1130 06:15:07.657461 20300 net.cpp:406] conv2/3x3_reduce <- pool1/norm1
I1130 06:15:07.657466 20300 net.cpp:380] conv2/3x3_reduce -> conv2/3x3_reduce
I1130 06:15:07.659823 20300 net.cpp:122] Setting up conv2/3x3_reduce
I1130 06:15:07.659839 20300 net.cpp:129] Top shape: 32 64 56 56 (6422528)
I1130 06:15:07.659843 20300 net.cpp:137] Memory required for data: 301858944
I1130 06:15:07.659854 20300 layer_factory.hpp:77] Creating layer conv2/relu_3x3_reduce
I1130 06:15:07.659860 20300 net.cpp:84] Creating Layer conv2/relu_3x3_reduce
I1130 06:15:07.659865 20300 net.cpp:406] conv2/relu_3x3_reduce <- conv2/3x3_reduce
I1130 06:15:07.659870 20300 net.cpp:367] conv2/relu_3x3_reduce -> conv2/3x3_reduce (in-place)
I1130 06:15:07.659878 20300 net.cpp:122] Setting up conv2/relu_3x3_reduce
I1130 06:15:07.659883 20300 net.cpp:129] Top shape: 32 64 56 56 (6422528)
I1130 06:15:07.659885 20300 net.cpp:137] Memory required for data: 327549056
I1130 06:15:07.659888 20300 layer_factory.hpp:77] Creating layer conv2/3x3
I1130 06:15:07.659896 20300 net.cpp:84] Creating Layer conv2/3x3
I1130 06:15:07.659900 20300 net.cpp:406] conv2/3x3 <- conv2/3x3_reduce
I1130 06:15:07.659905 20300 net.cpp:380] conv2/3x3 -> conv2/3x3
I1130 06:15:07.661026 20300 net.cpp:122] Setting up conv2/3x3
I1130 06:15:07.661036 20300 net.cpp:129] Top shape: 32 192 56 56 (19267584)
I1130 06:15:07.661041 20300 net.cpp:137] Memory required for data: 404619392
I1130 06:15:07.661048 20300 layer_factory.hpp:77] Creating layer conv2/relu_3x3
I1130 06:15:07.661056 20300 net.cpp:84] Creating Layer conv2/relu_3x3
I1130 06:15:07.661059 20300 net.cpp:406] conv2/relu_3x3 <- conv2/3x3
I1130 06:15:07.661064 20300 net.cpp:367] conv2/relu_3x3 -> conv2/3x3 (in-place)
I1130 06:15:07.661072 20300 net.cpp:122] Setting up conv2/relu_3x3
I1130 06:15:07.661075 20300 net.cpp:129] Top shape: 32 192 56 56 (19267584)
I1130 06:15:07.661078 20300 net.cpp:137] Memory required for data: 481689728
I1130 06:15:07.661082 20300 layer_factory.hpp:77] Creating layer conv2/norm2
I1130 06:15:07.661087 20300 net.cpp:84] Creating Layer conv2/norm2
I1130 06:15:07.661090 20300 net.cpp:406] conv2/norm2 <- conv2/3x3
I1130 06:15:07.661094 20300 net.cpp:380] conv2/norm2 -> conv2/norm2
I1130 06:15:07.661123 20300 net.cpp:122] Setting up conv2/norm2
I1130 06:15:07.661128 20300 net.cpp:129] Top shape: 32 192 56 56 (19267584)
I1130 06:15:07.661131 20300 net.cpp:137] Memory required for data: 558760064
I1130 06:15:07.661134 20300 layer_factory.hpp:77] Creating layer pool2/3x3_s2
I1130 06:15:07.661140 20300 net.cpp:84] Creating Layer pool2/3x3_s2
I1130 06:15:07.661144 20300 net.cpp:406] pool2/3x3_s2 <- conv2/norm2
I1130 06:15:07.661149 20300 net.cpp:380] pool2/3x3_s2 -> pool2/3x3_s2
I1130 06:15:07.661175 20300 net.cpp:122] Setting up pool2/3x3_s2
I1130 06:15:07.661180 20300 net.cpp:129] Top shape: 32 192 28 28 (4816896)
I1130 06:15:07.661186 20300 net.cpp:137] Memory required for data: 578027648
I1130 06:15:07.661190 20300 layer_factory.hpp:77] Creating layer pool2/3x3_s2_pool2/3x3_s2_0_split
I1130 06:15:07.661196 20300 net.cpp:84] Creating Layer pool2/3x3_s2_pool2/3x3_s2_0_split
I1130 06:15:07.661200 20300 net.cpp:406] pool2/3x3_s2_pool2/3x3_s2_0_split <- pool2/3x3_s2
I1130 06:15:07.661204 20300 net.cpp:380] pool2/3x3_s2_pool2/3x3_s2_0_split -> pool2/3x3_s2_pool2/3x3_s2_0_split_0
I1130 06:15:07.661211 20300 net.cpp:380] pool2/3x3_s2_pool2/3x3_s2_0_split -> pool2/3x3_s2_pool2/3x3_s2_0_split_1
I1130 06:15:07.661216 20300 net.cpp:380] pool2/3x3_s2_pool2/3x3_s2_0_split -> pool2/3x3_s2_pool2/3x3_s2_0_split_2
I1130 06:15:07.661221 20300 net.cpp:380] pool2/3x3_s2_pool2/3x3_s2_0_split -> pool2/3x3_s2_pool2/3x3_s2_0_split_3
I1130 06:15:07.661258 20300 net.cpp:122] Setting up pool2/3x3_s2_pool2/3x3_s2_0_split
I1130 06:15:07.661264 20300 net.cpp:129] Top shape: 32 192 28 28 (4816896)
I1130 06:15:07.661268 20300 net.cpp:129] Top shape: 32 192 28 28 (4816896)
I1130 06:15:07.661273 20300 net.cpp:129] Top shape: 32 192 28 28 (4816896)
I1130 06:15:07.661275 20300 net.cpp:129] Top shape: 32 192 28 28 (4816896)
I1130 06:15:07.661279 20300 net.cpp:137] Memory required for data: 655097984
I1130 06:15:07.661281 20300 layer_factory.hpp:77] Creating layer inception_3a/1x1
I1130 06:15:07.661289 20300 net.cpp:84] Creating Layer inception_3a/1x1
I1130 06:15:07.661293 20300 net.cpp:406] inception_3a/1x1 <- pool2/3x3_s2_pool2/3x3_s2_0_split_0
I1130 06:15:07.661299 20300 net.cpp:380] inception_3a/1x1 -> inception_3a/1x1
I1130 06:15:07.662174 20300 net.cpp:122] Setting up inception_3a/1x1
I1130 06:15:07.662187 20300 net.cpp:129] Top shape: 32 64 28 28 (1605632)
I1130 06:15:07.662191 20300 net.cpp:137] Memory required for data: 661520512
I1130 06:15:07.662199 20300 layer_factory.hpp:77] Creating layer inception_3a/relu_1x1
I1130 06:15:07.662205 20300 net.cpp:84] Creating Layer inception_3a/relu_1x1
I1130 06:15:07.662209 20300 net.cpp:406] inception_3a/relu_1x1 <- inception_3a/1x1
I1130 06:15:07.662215 20300 net.cpp:367] inception_3a/relu_1x1 -> inception_3a/1x1 (in-place)
I1130 06:15:07.662222 20300 net.cpp:122] Setting up inception_3a/relu_1x1
I1130 06:15:07.662226 20300 net.cpp:129] Top shape: 32 64 28 28 (1605632)
I1130 06:15:07.662230 20300 net.cpp:137] Memory required for data: 667943040
I1130 06:15:07.662232 20300 layer_factory.hpp:77] Creating layer inception_3a/3x3_reduce
I1130 06:15:07.662240 20300 net.cpp:84] Creating Layer inception_3a/3x3_reduce
I1130 06:15:07.662243 20300 net.cpp:406] inception_3a/3x3_reduce <- pool2/3x3_s2_pool2/3x3_s2_0_split_1
I1130 06:15:07.662250 20300 net.cpp:380] inception_3a/3x3_reduce -> inception_3a/3x3_reduce
I1130 06:15:07.662868 20300 net.cpp:122] Setting up inception_3a/3x3_reduce
I1130 06:15:07.662878 20300 net.cpp:129] Top shape: 32 96 28 28 (2408448)
I1130 06:15:07.662880 20300 net.cpp:137] Memory required for data: 677576832
I1130 06:15:07.662889 20300 layer_factory.hpp:77] Creating layer inception_3a/relu_3x3_reduce
I1130 06:15:07.662895 20300 net.cpp:84] Creating Layer inception_3a/relu_3x3_reduce
I1130 06:15:07.662899 20300 net.cpp:406] inception_3a/relu_3x3_reduce <- inception_3a/3x3_reduce
I1130 06:15:07.662904 20300 net.cpp:367] inception_3a/relu_3x3_reduce -> inception_3a/3x3_reduce (in-place)
I1130 06:15:07.662911 20300 net.cpp:122] Setting up inception_3a/relu_3x3_reduce
I1130 06:15:07.662915 20300 net.cpp:129] Top shape: 32 96 28 28 (2408448)
I1130 06:15:07.662919 20300 net.cpp:137] Memory required for data: 687210624
I1130 06:15:07.662921 20300 layer_factory.hpp:77] Creating layer inception_3a/3x3
I1130 06:15:07.662930 20300 net.cpp:84] Creating Layer inception_3a/3x3
I1130 06:15:07.662935 20300 net.cpp:406] inception_3a/3x3 <- inception_3a/3x3_reduce
I1130 06:15:07.662940 20300 net.cpp:380] inception_3a/3x3 -> inception_3a/3x3
I1130 06:15:07.663694 20300 net.cpp:122] Setting up inception_3a/3x3
I1130 06:15:07.663702 20300 net.cpp:129] Top shape: 32 128 28 28 (3211264)
I1130 06:15:07.663717 20300 net.cpp:137] Memory required for data: 700055680
I1130 06:15:07.663722 20300 layer_factory.hpp:77] Creating layer inception_3a/relu_3x3
I1130 06:15:07.663727 20300 net.cpp:84] Creating Layer inception_3a/relu_3x3
I1130 06:15:07.663731 20300 net.cpp:406] inception_3a/relu_3x3 <- inception_3a/3x3
I1130 06:15:07.663736 20300 net.cpp:367] inception_3a/relu_3x3 -> inception_3a/3x3 (in-place)
I1130 06:15:07.663743 20300 net.cpp:122] Setting up inception_3a/relu_3x3
I1130 06:15:07.663746 20300 net.cpp:129] Top shape: 32 128 28 28 (3211264)
I1130 06:15:07.663749 20300 net.cpp:137] Memory required for data: 712900736
I1130 06:15:07.663753 20300 layer_factory.hpp:77] Creating layer inception_3a/5x5_reduce
I1130 06:15:07.663759 20300 net.cpp:84] Creating Layer inception_3a/5x5_reduce
I1130 06:15:07.663763 20300 net.cpp:406] inception_3a/5x5_reduce <- pool2/3x3_s2_pool2/3x3_s2_0_split_2
I1130 06:15:07.663769 20300 net.cpp:380] inception_3a/5x5_reduce -> inception_3a/5x5_reduce
I1130 06:15:07.663951 20300 net.cpp:122] Setting up inception_3a/5x5_reduce
I1130 06:15:07.663959 20300 net.cpp:129] Top shape: 32 16 28 28 (401408)
I1130 06:15:07.663962 20300 net.cpp:137] Memory required for data: 714506368
I1130 06:15:07.663967 20300 layer_factory.hpp:77] Creating layer inception_3a/relu_5x5_reduce
I1130 06:15:07.663972 20300 net.cpp:84] Creating Layer inception_3a/relu_5x5_reduce
I1130 06:15:07.663976 20300 net.cpp:406] inception_3a/relu_5x5_reduce <- inception_3a/5x5_reduce
I1130 06:15:07.663981 20300 net.cpp:367] inception_3a/relu_5x5_reduce -> inception_3a/5x5_reduce (in-place)
I1130 06:15:07.663986 20300 net.cpp:122] Setting up inception_3a/relu_5x5_reduce
I1130 06:15:07.663991 20300 net.cpp:129] Top shape: 32 16 28 28 (401408)
I1130 06:15:07.663995 20300 net.cpp:137] Memory required for data: 716112000
I1130 06:15:07.663997 20300 layer_factory.hpp:77] Creating layer inception_3a/5x5
I1130 06:15:07.664003 20300 net.cpp:84] Creating Layer inception_3a/5x5
I1130 06:15:07.664007 20300 net.cpp:406] inception_3a/5x5 <- inception_3a/5x5_reduce
I1130 06:15:07.664012 20300 net.cpp:380] inception_3a/5x5 -> inception_3a/5x5
I1130 06:15:07.664239 20300 net.cpp:122] Setting up inception_3a/5x5
I1130 06:15:07.664247 20300 net.cpp:129] Top shape: 32 32 28 28 (802816)
I1130 06:15:07.664250 20300 net.cpp:137] Memory required for data: 719323264
I1130 06:15:07.664255 20300 layer_factory.hpp:77] Creating layer inception_3a/relu_5x5
I1130 06:15:07.664260 20300 net.cpp:84] Creating Layer inception_3a/relu_5x5
I1130 06:15:07.664264 20300 net.cpp:406] inception_3a/relu_5x5 <- inception_3a/5x5
I1130 06:15:07.664269 20300 net.cpp:367] inception_3a/relu_5x5 -> inception_3a/5x5 (in-place)
I1130 06:15:07.664274 20300 net.cpp:122] Setting up inception_3a/relu_5x5
I1130 06:15:07.664279 20300 net.cpp:129] Top shape: 32 32 28 28 (802816)
I1130 06:15:07.664283 20300 net.cpp:137] Memory required for data: 722534528
I1130 06:15:07.664284 20300 layer_factory.hpp:77] Creating layer inception_3a/pool
I1130 06:15:07.664290 20300 net.cpp:84] Creating Layer inception_3a/pool
I1130 06:15:07.664294 20300 net.cpp:406] inception_3a/pool <- pool2/3x3_s2_pool2/3x3_s2_0_split_3
I1130 06:15:07.664299 20300 net.cpp:380] inception_3a/pool -> inception_3a/pool
I1130 06:15:07.664326 20300 net.cpp:122] Setting up inception_3a/pool
I1130 06:15:07.664332 20300 net.cpp:129] Top shape: 32 192 28 28 (4816896)
I1130 06:15:07.664335 20300 net.cpp:137] Memory required for data: 741802112
I1130 06:15:07.664338 20300 layer_factory.hpp:77] Creating layer inception_3a/pool_proj
I1130 06:15:07.664345 20300 net.cpp:84] Creating Layer inception_3a/pool_proj
I1130 06:15:07.664350 20300 net.cpp:406] inception_3a/pool_proj <- inception_3a/pool
I1130 06:15:07.664355 20300 net.cpp:380] inception_3a/pool_proj -> inception_3a/pool_proj
I1130 06:15:07.664544 20300 net.cpp:122] Setting up inception_3a/pool_proj
I1130 06:15:07.664552 20300 net.cpp:129] Top shape: 32 32 28 28 (802816)
I1130 06:15:07.664556 20300 net.cpp:137] Memory required for data: 745013376
I1130 06:15:07.664566 20300 layer_factory.hpp:77] Creating layer inception_3a/relu_pool_proj
I1130 06:15:07.664572 20300 net.cpp:84] Creating Layer inception_3a/relu_pool_proj
I1130 06:15:07.664575 20300 net.cpp:406] inception_3a/relu_pool_proj <- inception_3a/pool_proj
I1130 06:15:07.664580 20300 net.cpp:367] inception_3a/relu_pool_proj -> inception_3a/pool_proj (in-place)
I1130 06:15:07.664585 20300 net.cpp:122] Setting up inception_3a/relu_pool_proj
I1130 06:15:07.664590 20300 net.cpp:129] Top shape: 32 32 28 28 (802816)
I1130 06:15:07.664593 20300 net.cpp:137] Memory required for data: 748224640
I1130 06:15:07.664595 20300 layer_factory.hpp:77] Creating layer inception_3a/output
I1130 06:15:07.664602 20300 net.cpp:84] Creating Layer inception_3a/output
I1130 06:15:07.664604 20300 net.cpp:406] inception_3a/output <- inception_3a/1x1
I1130 06:15:07.664608 20300 net.cpp:406] inception_3a/output <- inception_3a/3x3
I1130 06:15:07.664613 20300 net.cpp:406] inception_3a/output <- inception_3a/5x5
I1130 06:15:07.664616 20300 net.cpp:406] inception_3a/output <- inception_3a/pool_proj
I1130 06:15:07.664620 20300 net.cpp:380] inception_3a/output -> inception_3a/output
I1130 06:15:07.664640 20300 net.cpp:122] Setting up inception_3a/output
I1130 06:15:07.664646 20300 net.cpp:129] Top shape: 32 256 28 28 (6422528)
I1130 06:15:07.664649 20300 net.cpp:137] Memory required for data: 773914752
I1130 06:15:07.664652 20300 layer_factory.hpp:77] Creating layer inception_3a/output_inception_3a/output_0_split
I1130 06:15:07.664657 20300 net.cpp:84] Creating Layer inception_3a/output_inception_3a/output_0_split
I1130 06:15:07.664661 20300 net.cpp:406] inception_3a/output_inception_3a/output_0_split <- inception_3a/output
I1130 06:15:07.664666 20300 net.cpp:380] inception_3a/output_inception_3a/output_0_split -> inception_3a/output_inception_3a/output_0_split_0
I1130 06:15:07.664672 20300 net.cpp:380] inception_3a/output_inception_3a/output_0_split -> inception_3a/output_inception_3a/output_0_split_1
I1130 06:15:07.664679 20300 net.cpp:380] inception_3a/output_inception_3a/output_0_split -> inception_3a/output_inception_3a/output_0_split_2
I1130 06:15:07.664683 20300 net.cpp:380] inception_3a/output_inception_3a/output_0_split -> inception_3a/output_inception_3a/output_0_split_3
I1130 06:15:07.664722 20300 net.cpp:122] Setting up inception_3a/output_inception_3a/output_0_split
I1130 06:15:07.664728 20300 net.cpp:129] Top shape: 32 256 28 28 (6422528)
I1130 06:15:07.664732 20300 net.cpp:129] Top shape: 32 256 28 28 (6422528)
I1130 06:15:07.664736 20300 net.cpp:129] Top shape: 32 256 28 28 (6422528)
I1130 06:15:07.664741 20300 net.cpp:129] Top shape: 32 256 28 28 (6422528)
I1130 06:15:07.664743 20300 net.cpp:137] Memory required for data: 876675200
I1130 06:15:07.664746 20300 layer_factory.hpp:77] Creating layer inception_3b/1x1
I1130 06:15:07.664753 20300 net.cpp:84] Creating Layer inception_3b/1x1
I1130 06:15:07.664757 20300 net.cpp:406] inception_3b/1x1 <- inception_3a/output_inception_3a/output_0_split_0
I1130 06:15:07.664763 20300 net.cpp:380] inception_3b/1x1 -> inception_3b/1x1
I1130 06:15:07.665091 20300 net.cpp:122] Setting up inception_3b/1x1
I1130 06:15:07.665098 20300 net.cpp:129] Top shape: 32 128 28 28 (3211264)
I1130 06:15:07.665102 20300 net.cpp:137] Memory required for data: 889520256
I1130 06:15:07.665107 20300 layer_factory.hpp:77] Creating layer inception_3b/relu_1x1
I1130 06:15:07.665112 20300 net.cpp:84] Creating Layer inception_3b/relu_1x1
I1130 06:15:07.665115 20300 net.cpp:406] inception_3b/relu_1x1 <- inception_3b/1x1
I1130 06:15:07.665120 20300 net.cpp:367] inception_3b/relu_1x1 -> inception_3b/1x1 (in-place)
I1130 06:15:07.665127 20300 net.cpp:122] Setting up inception_3b/relu_1x1
I1130 06:15:07.665130 20300 net.cpp:129] Top shape: 32 128 28 28 (3211264)
I1130 06:15:07.665133 20300 net.cpp:137] Memory required for data: 902365312
I1130 06:15:07.665136 20300 layer_factory.hpp:77] Creating layer inception_3b/3x3_reduce
I1130 06:15:07.665143 20300 net.cpp:84] Creating Layer inception_3b/3x3_reduce
I1130 06:15:07.665148 20300 net.cpp:406] inception_3b/3x3_reduce <- inception_3a/output_inception_3a/output_0_split_1
I1130 06:15:07.665155 20300 net.cpp:380] inception_3b/3x3_reduce -> inception_3b/3x3_reduce
I1130 06:15:07.665483 20300 net.cpp:122] Setting up inception_3b/3x3_reduce
I1130 06:15:07.665490 20300 net.cpp:129] Top shape: 32 128 28 28 (3211264)
I1130 06:15:07.665494 20300 net.cpp:137] Memory required for data: 915210368
I1130 06:15:07.665499 20300 layer_factory.hpp:77] Creating layer inception_3b/relu_3x3_reduce
I1130 06:15:07.665504 20300 net.cpp:84] Creating Layer inception_3b/relu_3x3_reduce
I1130 06:15:07.665508 20300 net.cpp:406] inception_3b/relu_3x3_reduce <- inception_3b/3x3_reduce
I1130 06:15:07.665513 20300 net.cpp:367] inception_3b/relu_3x3_reduce -> inception_3b/3x3_reduce (in-place)
I1130 06:15:07.665518 20300 net.cpp:122] Setting up inception_3b/relu_3x3_reduce
I1130 06:15:07.665524 20300 net.cpp:129] Top shape: 32 128 28 28 (3211264)
I1130 06:15:07.665526 20300 net.cpp:137] Memory required for data: 928055424
I1130 06:15:07.665529 20300 layer_factory.hpp:77] Creating layer inception_3b/3x3
I1130 06:15:07.665536 20300 net.cpp:84] Creating Layer inception_3b/3x3
I1130 06:15:07.665540 20300 net.cpp:406] inception_3b/3x3 <- inception_3b/3x3_reduce
I1130 06:15:07.665545 20300 net.cpp:380] inception_3b/3x3 -> inception_3b/3x3
I1130 06:15:07.667230 20300 net.cpp:122] Setting up inception_3b/3x3
I1130 06:15:07.667240 20300 net.cpp:129] Top shape: 32 192 28 28 (4816896)
I1130 06:15:07.667243 20300 net.cpp:137] Memory required for data: 947323008
I1130 06:15:07.667248 20300 layer_factory.hpp:77] Creating layer inception_3b/relu_3x3
I1130 06:15:07.667256 20300 net.cpp:84] Creating Layer inception_3b/relu_3x3
I1130 06:15:07.667260 20300 net.cpp:406] inception_3b/relu_3x3 <- inception_3b/3x3
I1130 06:15:07.667265 20300 net.cpp:367] inception_3b/relu_3x3 -> inception_3b/3x3 (in-place)
I1130 06:15:07.667271 20300 net.cpp:122] Setting up inception_3b/relu_3x3
I1130 06:15:07.667276 20300 net.cpp:129] Top shape: 32 192 28 28 (4816896)
I1130 06:15:07.667279 20300 net.cpp:137] Memory required for data: 966590592
I1130 06:15:07.667281 20300 layer_factory.hpp:77] Creating layer inception_3b/5x5_reduce
I1130 06:15:07.667289 20300 net.cpp:84] Creating Layer inception_3b/5x5_reduce
I1130 06:15:07.667292 20300 net.cpp:406] inception_3b/5x5_reduce <- inception_3a/output_inception_3a/output_0_split_2
I1130 06:15:07.667297 20300 net.cpp:380] inception_3b/5x5_reduce -> inception_3b/5x5_reduce
I1130 06:15:07.667501 20300 net.cpp:122] Setting up inception_3b/5x5_reduce
I1130 06:15:07.667510 20300 net.cpp:129] Top shape: 32 32 28 28 (802816)
I1130 06:15:07.667512 20300 net.cpp:137] Memory required for data: 969801856
I1130 06:15:07.667517 20300 layer_factory.hpp:77] Creating layer inception_3b/relu_5x5_reduce
I1130 06:15:07.667522 20300 net.cpp:84] Creating Layer inception_3b/relu_5x5_reduce
I1130 06:15:07.667526 20300 net.cpp:406] inception_3b/relu_5x5_reduce <- inception_3b/5x5_reduce
I1130 06:15:07.667532 20300 net.cpp:367] inception_3b/relu_5x5_reduce -> inception_3b/5x5_reduce (in-place)
I1130 06:15:07.667537 20300 net.cpp:122] Setting up inception_3b/relu_5x5_reduce
I1130 06:15:07.667541 20300 net.cpp:129] Top shape: 32 32 28 28 (802816)
I1130 06:15:07.667546 20300 net.cpp:137] Memory required for data: 973013120
I1130 06:15:07.667547 20300 layer_factory.hpp:77] Creating layer inception_3b/5x5
I1130 06:15:07.667554 20300 net.cpp:84] Creating Layer inception_3b/5x5
I1130 06:15:07.667557 20300 net.cpp:406] inception_3b/5x5 <- inception_3b/5x5_reduce
I1130 06:15:07.667562 20300 net.cpp:380] inception_3b/5x5 -> inception_3b/5x5
I1130 06:15:07.668485 20300 net.cpp:122] Setting up inception_3b/5x5
I1130 06:15:07.668495 20300 net.cpp:129] Top shape: 32 96 28 28 (2408448)
I1130 06:15:07.668498 20300 net.cpp:137] Memory required for data: 982646912
I1130 06:15:07.668504 20300 layer_factory.hpp:77] Creating layer inception_3b/relu_5x5
I1130 06:15:07.668509 20300 net.cpp:84] Creating Layer inception_3b/relu_5x5
I1130 06:15:07.668514 20300 net.cpp:406] inception_3b/relu_5x5 <- inception_3b/5x5
I1130 06:15:07.668520 20300 net.cpp:367] inception_3b/relu_5x5 -> inception_3b/5x5 (in-place)
I1130 06:15:07.668526 20300 net.cpp:122] Setting up inception_3b/relu_5x5
I1130 06:15:07.668531 20300 net.cpp:129] Top shape: 32 96 28 28 (2408448)
I1130 06:15:07.668534 20300 net.cpp:137] Memory required for data: 992280704
I1130 06:15:07.668536 20300 layer_factory.hpp:77] Creating layer inception_3b/pool
I1130 06:15:07.668541 20300 net.cpp:84] Creating Layer inception_3b/pool
I1130 06:15:07.668545 20300 net.cpp:406] inception_3b/pool <- inception_3a/output_inception_3a/output_0_split_3
I1130 06:15:07.668550 20300 net.cpp:380] inception_3b/pool -> inception_3b/pool
I1130 06:15:07.668579 20300 net.cpp:122] Setting up inception_3b/pool
I1130 06:15:07.668586 20300 net.cpp:129] Top shape: 32 256 28 28 (6422528)
I1130 06:15:07.668589 20300 net.cpp:137] Memory required for data: 1017970816
I1130 06:15:07.668591 20300 layer_factory.hpp:77] Creating layer inception_3b/pool_proj
I1130 06:15:07.668599 20300 net.cpp:84] Creating Layer inception_3b/pool_proj
I1130 06:15:07.668603 20300 net.cpp:406] inception_3b/pool_proj <- inception_3b/pool
I1130 06:15:07.668608 20300 net.cpp:380] inception_3b/pool_proj -> inception_3b/pool_proj
I1130 06:15:07.668855 20300 net.cpp:122] Setting up inception_3b/pool_proj
I1130 06:15:07.668862 20300 net.cpp:129] Top shape: 32 64 28 28 (1605632)
I1130 06:15:07.668865 20300 net.cpp:137] Memory required for data: 1024393344
I1130 06:15:07.668870 20300 layer_factory.hpp:77] Creating layer inception_3b/relu_pool_proj
I1130 06:15:07.668876 20300 net.cpp:84] Creating Layer inception_3b/relu_pool_proj
I1130 06:15:07.668879 20300 net.cpp:406] inception_3b/relu_pool_proj <- inception_3b/pool_proj
I1130 06:15:07.668884 20300 net.cpp:367] inception_3b/relu_pool_proj -> inception_3b/pool_proj (in-place)
I1130 06:15:07.668890 20300 net.cpp:122] Setting up inception_3b/relu_pool_proj
I1130 06:15:07.668895 20300 net.cpp:129] Top shape: 32 64 28 28 (1605632)
I1130 06:15:07.668898 20300 net.cpp:137] Memory required for data: 1030815872
I1130 06:15:07.668901 20300 layer_factory.hpp:77] Creating layer inception_3b/output
I1130 06:15:07.668906 20300 net.cpp:84] Creating Layer inception_3b/output
I1130 06:15:07.668910 20300 net.cpp:406] inception_3b/output <- inception_3b/1x1
I1130 06:15:07.668915 20300 net.cpp:406] inception_3b/output <- inception_3b/3x3
I1130 06:15:07.668917 20300 net.cpp:406] inception_3b/output <- inception_3b/5x5
I1130 06:15:07.668921 20300 net.cpp:406] inception_3b/output <- inception_3b/pool_proj
I1130 06:15:07.668926 20300 net.cpp:380] inception_3b/output -> inception_3b/output
I1130 06:15:07.668946 20300 net.cpp:122] Setting up inception_3b/output
I1130 06:15:07.668953 20300 net.cpp:129] Top shape: 32 480 28 28 (12042240)
I1130 06:15:07.668956 20300 net.cpp:137] Memory required for data: 1078984832
I1130 06:15:07.668959 20300 layer_factory.hpp:77] Creating layer pool3/3x3_s2
I1130 06:15:07.668964 20300 net.cpp:84] Creating Layer pool3/3x3_s2
I1130 06:15:07.668968 20300 net.cpp:406] pool3/3x3_s2 <- inception_3b/output
I1130 06:15:07.668973 20300 net.cpp:380] pool3/3x3_s2 -> pool3/3x3_s2
I1130 06:15:07.668999 20300 net.cpp:122] Setting up pool3/3x3_s2
I1130 06:15:07.669005 20300 net.cpp:129] Top shape: 32 480 14 14 (3010560)
I1130 06:15:07.669008 20300 net.cpp:137] Memory required for data: 1091027072
I1130 06:15:07.669011 20300 layer_factory.hpp:77] Creating layer pool3/3x3_s2_pool3/3x3_s2_0_split
I1130 06:15:07.669016 20300 net.cpp:84] Creating Layer pool3/3x3_s2_pool3/3x3_s2_0_split
I1130 06:15:07.669019 20300 net.cpp:406] pool3/3x3_s2_pool3/3x3_s2_0_split <- pool3/3x3_s2
I1130 06:15:07.669024 20300 net.cpp:380] pool3/3x3_s2_pool3/3x3_s2_0_split -> pool3/3x3_s2_pool3/3x3_s2_0_split_0
I1130 06:15:07.669030 20300 net.cpp:380] pool3/3x3_s2_pool3/3x3_s2_0_split -> pool3/3x3_s2_pool3/3x3_s2_0_split_1
I1130 06:15:07.669035 20300 net.cpp:380] pool3/3x3_s2_pool3/3x3_s2_0_split -> pool3/3x3_s2_pool3/3x3_s2_0_split_2
I1130 06:15:07.669041 20300 net.cpp:380] pool3/3x3_s2_pool3/3x3_s2_0_split -> pool3/3x3_s2_pool3/3x3_s2_0_split_3
I1130 06:15:07.669081 20300 net.cpp:122] Setting up pool3/3x3_s2_pool3/3x3_s2_0_split
I1130 06:15:07.669087 20300 net.cpp:129] Top shape: 32 480 14 14 (3010560)
I1130 06:15:07.669091 20300 net.cpp:129] Top shape: 32 480 14 14 (3010560)
I1130 06:15:07.669095 20300 net.cpp:129] Top shape: 32 480 14 14 (3010560)
I1130 06:15:07.669100 20300 net.cpp:129] Top shape: 32 480 14 14 (3010560)
I1130 06:15:07.669102 20300 net.cpp:137] Memory required for data: 1139196032
I1130 06:15:07.669106 20300 layer_factory.hpp:77] Creating layer inception_4a/1x1
I1130 06:15:07.669112 20300 net.cpp:84] Creating Layer inception_4a/1x1
I1130 06:15:07.669116 20300 net.cpp:406] inception_4a/1x1 <- pool3/3x3_s2_pool3/3x3_s2_0_split_0
I1130 06:15:07.669122 20300 net.cpp:380] inception_4a/1x1 -> inception_4a/1x1
I1130 06:15:07.669765 20300 net.cpp:122] Setting up inception_4a/1x1
I1130 06:15:07.669773 20300 net.cpp:129] Top shape: 32 192 14 14 (1204224)
I1130 06:15:07.669777 20300 net.cpp:137] Memory required for data: 1144012928
I1130 06:15:07.669782 20300 layer_factory.hpp:77] Creating layer inception_4a/relu_1x1
I1130 06:15:07.669787 20300 net.cpp:84] Creating Layer inception_4a/relu_1x1
I1130 06:15:07.669791 20300 net.cpp:406] inception_4a/relu_1x1 <- inception_4a/1x1
I1130 06:15:07.669796 20300 net.cpp:367] inception_4a/relu_1x1 -> inception_4a/1x1 (in-place)
I1130 06:15:07.669802 20300 net.cpp:122] Setting up inception_4a/relu_1x1
I1130 06:15:07.669806 20300 net.cpp:129] Top shape: 32 192 14 14 (1204224)
I1130 06:15:07.669809 20300 net.cpp:137] Memory required for data: 1148829824
I1130 06:15:07.669811 20300 layer_factory.hpp:77] Creating layer inception_4a/3x3_reduce
I1130 06:15:07.669818 20300 net.cpp:84] Creating Layer inception_4a/3x3_reduce
I1130 06:15:07.669822 20300 net.cpp:406] inception_4a/3x3_reduce <- pool3/3x3_s2_pool3/3x3_s2_0_split_1
I1130 06:15:07.669827 20300 net.cpp:380] inception_4a/3x3_reduce -> inception_4a/3x3_reduce
I1130 06:15:07.670243 20300 net.cpp:122] Setting up inception_4a/3x3_reduce
I1130 06:15:07.670251 20300 net.cpp:129] Top shape: 32 96 14 14 (602112)
I1130 06:15:07.670254 20300 net.cpp:137] Memory required for data: 1151238272
I1130 06:15:07.670264 20300 layer_factory.hpp:77] Creating layer inception_4a/relu_3x3_reduce
I1130 06:15:07.670269 20300 net.cpp:84] Creating Layer inception_4a/relu_3x3_reduce
I1130 06:15:07.670274 20300 net.cpp:406] inception_4a/relu_3x3_reduce <- inception_4a/3x3_reduce
I1130 06:15:07.670279 20300 net.cpp:367] inception_4a/relu_3x3_reduce -> inception_4a/3x3_reduce (in-place)
I1130 06:15:07.670284 20300 net.cpp:122] Setting up inception_4a/relu_3x3_reduce
I1130 06:15:07.670289 20300 net.cpp:129] Top shape: 32 96 14 14 (602112)
I1130 06:15:07.670291 20300 net.cpp:137] Memory required for data: 1153646720
I1130 06:15:07.670295 20300 layer_factory.hpp:77] Creating layer inception_4a/3x3
I1130 06:15:07.670302 20300 net.cpp:84] Creating Layer inception_4a/3x3
I1130 06:15:07.670305 20300 net.cpp:406] inception_4a/3x3 <- inception_4a/3x3_reduce
I1130 06:15:07.670311 20300 net.cpp:380] inception_4a/3x3 -> inception_4a/3x3
I1130 06:15:07.671771 20300 net.cpp:122] Setting up inception_4a/3x3
I1130 06:15:07.671779 20300 net.cpp:129] Top shape: 32 208 14 14 (1304576)
I1130 06:15:07.671783 20300 net.cpp:137] Memory required for data: 1158865024
I1130 06:15:07.671788 20300 layer_factory.hpp:77] Creating layer inception_4a/relu_3x3
I1130 06:15:07.671794 20300 net.cpp:84] Creating Layer inception_4a/relu_3x3
I1130 06:15:07.671798 20300 net.cpp:406] inception_4a/relu_3x3 <- inception_4a/3x3
I1130 06:15:07.671803 20300 net.cpp:367] inception_4a/relu_3x3 -> inception_4a/3x3 (in-place)
I1130 06:15:07.671809 20300 net.cpp:122] Setting up inception_4a/relu_3x3
I1130 06:15:07.671813 20300 net.cpp:129] Top shape: 32 208 14 14 (1304576)
I1130 06:15:07.671816 20300 net.cpp:137] Memory required for data: 1164083328
I1130 06:15:07.671819 20300 layer_factory.hpp:77] Creating layer inception_4a/5x5_reduce
I1130 06:15:07.671825 20300 net.cpp:84] Creating Layer inception_4a/5x5_reduce
I1130 06:15:07.671833 20300 net.cpp:406] inception_4a/5x5_reduce <- pool3/3x3_s2_pool3/3x3_s2_0_split_2
I1130 06:15:07.671838 20300 net.cpp:380] inception_4a/5x5_reduce -> inception_4a/5x5_reduce
I1130 06:15:07.672042 20300 net.cpp:122] Setting up inception_4a/5x5_reduce
I1130 06:15:07.672049 20300 net.cpp:129] Top shape: 32 16 14 14 (100352)
I1130 06:15:07.672053 20300 net.cpp:137] Memory required for data: 1164484736
I1130 06:15:07.672058 20300 layer_factory.hpp:77] Creating layer inception_4a/relu_5x5_reduce
I1130 06:15:07.672063 20300 net.cpp:84] Creating Layer inception_4a/relu_5x5_reduce
I1130 06:15:07.672067 20300 net.cpp:406] inception_4a/relu_5x5_reduce <- inception_4a/5x5_reduce
I1130 06:15:07.672072 20300 net.cpp:367] inception_4a/relu_5x5_reduce -> inception_4a/5x5_reduce (in-place)
I1130 06:15:07.672077 20300 net.cpp:122] Setting up inception_4a/relu_5x5_reduce
I1130 06:15:07.672082 20300 net.cpp:129] Top shape: 32 16 14 14 (100352)
I1130 06:15:07.672086 20300 net.cpp:137] Memory required for data: 1164886144
I1130 06:15:07.672088 20300 layer_factory.hpp:77] Creating layer inception_4a/5x5
I1130 06:15:07.672094 20300 net.cpp:84] Creating Layer inception_4a/5x5
I1130 06:15:07.672098 20300 net.cpp:406] inception_4a/5x5 <- inception_4a/5x5_reduce
I1130 06:15:07.672104 20300 net.cpp:380] inception_4a/5x5 -> inception_4a/5x5
I1130 06:15:07.672372 20300 net.cpp:122] Setting up inception_4a/5x5
I1130 06:15:07.672380 20300 net.cpp:129] Top shape: 32 48 14 14 (301056)
I1130 06:15:07.672384 20300 net.cpp:137] Memory required for data: 1166090368
I1130 06:15:07.672389 20300 layer_factory.hpp:77] Creating layer inception_4a/relu_5x5
I1130 06:15:07.672394 20300 net.cpp:84] Creating Layer inception_4a/relu_5x5
I1130 06:15:07.672397 20300 net.cpp:406] inception_4a/relu_5x5 <- inception_4a/5x5
I1130 06:15:07.672402 20300 net.cpp:367] inception_4a/relu_5x5 -> inception_4a/5x5 (in-place)
I1130 06:15:07.672407 20300 net.cpp:122] Setting up inception_4a/relu_5x5
I1130 06:15:07.672412 20300 net.cpp:129] Top shape: 32 48 14 14 (301056)
I1130 06:15:07.672415 20300 net.cpp:137] Memory required for data: 1167294592
I1130 06:15:07.672417 20300 layer_factory.hpp:77] Creating layer inception_4a/pool
I1130 06:15:07.672422 20300 net.cpp:84] Creating Layer inception_4a/pool
I1130 06:15:07.672426 20300 net.cpp:406] inception_4a/pool <- pool3/3x3_s2_pool3/3x3_s2_0_split_3
I1130 06:15:07.672430 20300 net.cpp:380] inception_4a/pool -> inception_4a/pool
I1130 06:15:07.672458 20300 net.cpp:122] Setting up inception_4a/pool
I1130 06:15:07.672466 20300 net.cpp:129] Top shape: 32 480 14 14 (3010560)
I1130 06:15:07.672468 20300 net.cpp:137] Memory required for data: 1179336832
I1130 06:15:07.672472 20300 layer_factory.hpp:77] Creating layer inception_4a/pool_proj
I1130 06:15:07.672478 20300 net.cpp:84] Creating Layer inception_4a/pool_proj
I1130 06:15:07.672482 20300 net.cpp:406] inception_4a/pool_proj <- inception_4a/pool
I1130 06:15:07.672487 20300 net.cpp:380] inception_4a/pool_proj -> inception_4a/pool_proj
I1130 06:15:07.672816 20300 net.cpp:122] Setting up inception_4a/pool_proj
I1130 06:15:07.672822 20300 net.cpp:129] Top shape: 32 64 14 14 (401408)
I1130 06:15:07.672827 20300 net.cpp:137] Memory required for data: 1180942464
I1130 06:15:07.672830 20300 layer_factory.hpp:77] Creating layer inception_4a/relu_pool_proj
I1130 06:15:07.672837 20300 net.cpp:84] Creating Layer inception_4a/relu_pool_proj
I1130 06:15:07.672840 20300 net.cpp:406] inception_4a/relu_pool_proj <- inception_4a/pool_proj
I1130 06:15:07.672845 20300 net.cpp:367] inception_4a/relu_pool_proj -> inception_4a/pool_proj (in-place)
I1130 06:15:07.672850 20300 net.cpp:122] Setting up inception_4a/relu_pool_proj
I1130 06:15:07.672855 20300 net.cpp:129] Top shape: 32 64 14 14 (401408)
I1130 06:15:07.672858 20300 net.cpp:137] Memory required for data: 1182548096
I1130 06:15:07.672860 20300 layer_factory.hpp:77] Creating layer inception_4a/output
I1130 06:15:07.672865 20300 net.cpp:84] Creating Layer inception_4a/output
I1130 06:15:07.672869 20300 net.cpp:406] inception_4a/output <- inception_4a/1x1
I1130 06:15:07.672907 20300 net.cpp:406] inception_4a/output <- inception_4a/3x3
I1130 06:15:07.672912 20300 net.cpp:406] inception_4a/output <- inception_4a/5x5
I1130 06:15:07.672916 20300 net.cpp:406] inception_4a/output <- inception_4a/pool_proj
I1130 06:15:07.672921 20300 net.cpp:380] inception_4a/output -> inception_4a/output
I1130 06:15:07.672941 20300 net.cpp:122] Setting up inception_4a/output
I1130 06:15:07.672947 20300 net.cpp:129] Top shape: 32 512 14 14 (3211264)
I1130 06:15:07.672951 20300 net.cpp:137] Memory required for data: 1195393152
I1130 06:15:07.672953 20300 layer_factory.hpp:77] Creating layer inception_4a/output_inception_4a/output_0_split
I1130 06:15:07.672960 20300 net.cpp:84] Creating Layer inception_4a/output_inception_4a/output_0_split
I1130 06:15:07.672962 20300 net.cpp:406] inception_4a/output_inception_4a/output_0_split <- inception_4a/output
I1130 06:15:07.672967 20300 net.cpp:380] inception_4a/output_inception_4a/output_0_split -> inception_4a/output_inception_4a/output_0_split_0
I1130 06:15:07.672974 20300 net.cpp:380] inception_4a/output_inception_4a/output_0_split -> inception_4a/output_inception_4a/output_0_split_1
I1130 06:15:07.672979 20300 net.cpp:380] inception_4a/output_inception_4a/output_0_split -> inception_4a/output_inception_4a/output_0_split_2
I1130 06:15:07.672986 20300 net.cpp:380] inception_4a/output_inception_4a/output_0_split -> inception_4a/output_inception_4a/output_0_split_3
I1130 06:15:07.673027 20300 net.cpp:122] Setting up inception_4a/output_inception_4a/output_0_split
I1130 06:15:07.673032 20300 net.cpp:129] Top shape: 32 512 14 14 (3211264)
I1130 06:15:07.673036 20300 net.cpp:129] Top shape: 32 512 14 14 (3211264)
I1130 06:15:07.673040 20300 net.cpp:129] Top shape: 32 512 14 14 (3211264)
I1130 06:15:07.673044 20300 net.cpp:129] Top shape: 32 512 14 14 (3211264)
I1130 06:15:07.673048 20300 net.cpp:137] Memory required for data: 1246773376
I1130 06:15:07.673049 20300 layer_factory.hpp:77] Creating layer inception_4b/1x1
I1130 06:15:07.673056 20300 net.cpp:84] Creating Layer inception_4b/1x1
I1130 06:15:07.673060 20300 net.cpp:406] inception_4b/1x1 <- inception_4a/output_inception_4a/output_0_split_0
I1130 06:15:07.673066 20300 net.cpp:380] inception_4b/1x1 -> inception_4b/1x1
I1130 06:15:07.673660 20300 net.cpp:122] Setting up inception_4b/1x1
I1130 06:15:07.673667 20300 net.cpp:129] Top shape: 32 160 14 14 (1003520)
I1130 06:15:07.673671 20300 net.cpp:137] Memory required for data: 1250787456
I1130 06:15:07.673676 20300 layer_factory.hpp:77] Creating layer inception_4b/relu_1x1
I1130 06:15:07.673681 20300 net.cpp:84] Creating Layer inception_4b/relu_1x1
I1130 06:15:07.673684 20300 net.cpp:406] inception_4b/relu_1x1 <- inception_4b/1x1
I1130 06:15:07.673689 20300 net.cpp:367] inception_4b/relu_1x1 -> inception_4b/1x1 (in-place)
I1130 06:15:07.673696 20300 net.cpp:122] Setting up inception_4b/relu_1x1
I1130 06:15:07.673699 20300 net.cpp:129] Top shape: 32 160 14 14 (1003520)
I1130 06:15:07.673702 20300 net.cpp:137] Memory required for data: 1254801536
I1130 06:15:07.673705 20300 layer_factory.hpp:77] Creating layer inception_4b/3x3_reduce
I1130 06:15:07.673712 20300 net.cpp:84] Creating Layer inception_4b/3x3_reduce
I1130 06:15:07.673715 20300 net.cpp:406] inception_4b/3x3_reduce <- inception_4a/output_inception_4a/output_0_split_1
I1130 06:15:07.673720 20300 net.cpp:380] inception_4b/3x3_reduce -> inception_4b/3x3_reduce
I1130 06:15:07.674197 20300 net.cpp:122] Setting up inception_4b/3x3_reduce
I1130 06:15:07.674206 20300 net.cpp:129] Top shape: 32 112 14 14 (702464)
I1130 06:15:07.674208 20300 net.cpp:137] Memory required for data: 1257611392
I1130 06:15:07.674213 20300 layer_factory.hpp:77] Creating layer inception_4b/relu_3x3_reduce
I1130 06:15:07.674218 20300 net.cpp:84] Creating Layer inception_4b/relu_3x3_reduce
I1130 06:15:07.674222 20300 net.cpp:406] inception_4b/relu_3x3_reduce <- inception_4b/3x3_reduce
I1130 06:15:07.674227 20300 net.cpp:367] inception_4b/relu_3x3_reduce -> inception_4b/3x3_reduce (in-place)
I1130 06:15:07.674233 20300 net.cpp:122] Setting up inception_4b/relu_3x3_reduce
I1130 06:15:07.674237 20300 net.cpp:129] Top shape: 32 112 14 14 (702464)
I1130 06:15:07.674240 20300 net.cpp:137] Memory required for data: 1260421248
I1130 06:15:07.674244 20300 layer_factory.hpp:77] Creating layer inception_4b/3x3
I1130 06:15:07.674252 20300 net.cpp:84] Creating Layer inception_4b/3x3
I1130 06:15:07.674255 20300 net.cpp:406] inception_4b/3x3 <- inception_4b/3x3_reduce
I1130 06:15:07.674260 20300 net.cpp:380] inception_4b/3x3 -> inception_4b/3x3
I1130 06:15:07.675954 20300 net.cpp:122] Setting up inception_4b/3x3
I1130 06:15:07.675964 20300 net.cpp:129] Top shape: 32 224 14 14 (1404928)
I1130 06:15:07.675967 20300 net.cpp:137] Memory required for data: 1266040960
I1130 06:15:07.675973 20300 layer_factory.hpp:77] Creating layer inception_4b/relu_3x3
I1130 06:15:07.675978 20300 net.cpp:84] Creating Layer inception_4b/relu_3x3
I1130 06:15:07.675982 20300 net.cpp:406] inception_4b/relu_3x3 <- inception_4b/3x3
I1130 06:15:07.675987 20300 net.cpp:367] inception_4b/relu_3x3 -> inception_4b/3x3 (in-place)
I1130 06:15:07.675993 20300 net.cpp:122] Setting up inception_4b/relu_3x3
I1130 06:15:07.675997 20300 net.cpp:129] Top shape: 32 224 14 14 (1404928)
I1130 06:15:07.676000 20300 net.cpp:137] Memory required for data: 1271660672
I1130 06:15:07.676003 20300 layer_factory.hpp:77] Creating layer inception_4b/5x5_reduce
I1130 06:15:07.676014 20300 net.cpp:84] Creating Layer inception_4b/5x5_reduce
I1130 06:15:07.676018 20300 net.cpp:406] inception_4b/5x5_reduce <- inception_4a/output_inception_4a/output_0_split_2
I1130 06:15:07.676024 20300 net.cpp:380] inception_4b/5x5_reduce -> inception_4b/5x5_reduce
I1130 06:15:07.676260 20300 net.cpp:122] Setting up inception_4b/5x5_reduce
I1130 06:15:07.676267 20300 net.cpp:129] Top shape: 32 24 14 14 (150528)
I1130 06:15:07.676271 20300 net.cpp:137] Memory required for data: 1272262784
I1130 06:15:07.676276 20300 layer_factory.hpp:77] Creating layer inception_4b/relu_5x5_reduce
I1130 06:15:07.676281 20300 net.cpp:84] Creating Layer inception_4b/relu_5x5_reduce
I1130 06:15:07.676285 20300 net.cpp:406] inception_4b/relu_5x5_reduce <- inception_4b/5x5_reduce
I1130 06:15:07.676290 20300 net.cpp:367] inception_4b/relu_5x5_reduce -> inception_4b/5x5_reduce (in-place)
I1130 06:15:07.676295 20300 net.cpp:122] Setting up inception_4b/relu_5x5_reduce
I1130 06:15:07.676301 20300 net.cpp:129] Top shape: 32 24 14 14 (150528)
I1130 06:15:07.676303 20300 net.cpp:137] Memory required for data: 1272864896
I1130 06:15:07.676306 20300 layer_factory.hpp:77] Creating layer inception_4b/5x5
I1130 06:15:07.676314 20300 net.cpp:84] Creating Layer inception_4b/5x5
I1130 06:15:07.676317 20300 net.cpp:406] inception_4b/5x5 <- inception_4b/5x5_reduce
I1130 06:15:07.676323 20300 net.cpp:380] inception_4b/5x5 -> inception_4b/5x5
I1130 06:15:07.677038 20300 net.cpp:122] Setting up inception_4b/5x5
I1130 06:15:07.677047 20300 net.cpp:129] Top shape: 32 64 14 14 (401408)
I1130 06:15:07.677050 20300 net.cpp:137] Memory required for data: 1274470528
I1130 06:15:07.677057 20300 layer_factory.hpp:77] Creating layer inception_4b/relu_5x5
I1130 06:15:07.677062 20300 net.cpp:84] Creating Layer inception_4b/relu_5x5
I1130 06:15:07.677065 20300 net.cpp:406] inception_4b/relu_5x5 <- inception_4b/5x5
I1130 06:15:07.677070 20300 net.cpp:367] inception_4b/relu_5x5 -> inception_4b/5x5 (in-place)
I1130 06:15:07.677076 20300 net.cpp:122] Setting up inception_4b/relu_5x5
I1130 06:15:07.677080 20300 net.cpp:129] Top shape: 32 64 14 14 (401408)
I1130 06:15:07.677083 20300 net.cpp:137] Memory required for data: 1276076160
I1130 06:15:07.677086 20300 layer_factory.hpp:77] Creating layer inception_4b/pool
I1130 06:15:07.677093 20300 net.cpp:84] Creating Layer inception_4b/pool
I1130 06:15:07.677096 20300 net.cpp:406] inception_4b/pool <- inception_4a/output_inception_4a/output_0_split_3
I1130 06:15:07.677101 20300 net.cpp:380] inception_4b/pool -> inception_4b/pool
I1130 06:15:07.677134 20300 net.cpp:122] Setting up inception_4b/pool
I1130 06:15:07.677140 20300 net.cpp:129] Top shape: 32 512 14 14 (3211264)
I1130 06:15:07.677145 20300 net.cpp:137] Memory required for data: 1288921216
I1130 06:15:07.677147 20300 layer_factory.hpp:77] Creating layer inception_4b/pool_proj
I1130 06:15:07.677156 20300 net.cpp:84] Creating Layer inception_4b/pool_proj
I1130 06:15:07.677160 20300 net.cpp:406] inception_4b/pool_proj <- inception_4b/pool
I1130 06:15:07.677165 20300 net.cpp:380] inception_4b/pool_proj -> inception_4b/pool_proj
I1130 06:15:07.677510 20300 net.cpp:122] Setting up inception_4b/pool_proj
I1130 06:15:07.677518 20300 net.cpp:129] Top shape: 32 64 14 14 (401408)
I1130 06:15:07.677521 20300 net.cpp:137] Memory required for data: 1290526848
I1130 06:15:07.677526 20300 layer_factory.hpp:77] Creating layer inception_4b/relu_pool_proj
I1130 06:15:07.677532 20300 net.cpp:84] Creating Layer inception_4b/relu_pool_proj
I1130 06:15:07.677536 20300 net.cpp:406] inception_4b/relu_pool_proj <- inception_4b/pool_proj
I1130 06:15:07.677541 20300 net.cpp:367] inception_4b/relu_pool_proj -> inception_4b/pool_proj (in-place)
I1130 06:15:07.677546 20300 net.cpp:122] Setting up inception_4b/relu_pool_proj
I1130 06:15:07.677551 20300 net.cpp:129] Top shape: 32 64 14 14 (401408)
I1130 06:15:07.677554 20300 net.cpp:137] Memory required for data: 1292132480
I1130 06:15:07.677556 20300 layer_factory.hpp:77] Creating layer inception_4b/output
I1130 06:15:07.677562 20300 net.cpp:84] Creating Layer inception_4b/output
I1130 06:15:07.677565 20300 net.cpp:406] inception_4b/output <- inception_4b/1x1
I1130 06:15:07.677568 20300 net.cpp:406] inception_4b/output <- inception_4b/3x3
I1130 06:15:07.677572 20300 net.cpp:406] inception_4b/output <- inception_4b/5x5
I1130 06:15:07.677577 20300 net.cpp:406] inception_4b/output <- inception_4b/pool_proj
I1130 06:15:07.677582 20300 net.cpp:380] inception_4b/output -> inception_4b/output
I1130 06:15:07.677603 20300 net.cpp:122] Setting up inception_4b/output
I1130 06:15:07.677608 20300 net.cpp:129] Top shape: 32 512 14 14 (3211264)
I1130 06:15:07.677611 20300 net.cpp:137] Memory required for data: 1304977536
I1130 06:15:07.677614 20300 layer_factory.hpp:77] Creating layer inception_4b/output_inception_4b/output_0_split
I1130 06:15:07.677620 20300 net.cpp:84] Creating Layer inception_4b/output_inception_4b/output_0_split
I1130 06:15:07.677624 20300 net.cpp:406] inception_4b/output_inception_4b/output_0_split <- inception_4b/output
I1130 06:15:07.677629 20300 net.cpp:380] inception_4b/output_inception_4b/output_0_split -> inception_4b/output_inception_4b/output_0_split_0
I1130 06:15:07.677635 20300 net.cpp:380] inception_4b/output_inception_4b/output_0_split -> inception_4b/output_inception_4b/output_0_split_1
I1130 06:15:07.677641 20300 net.cpp:380] inception_4b/output_inception_4b/output_0_split -> inception_4b/output_inception_4b/output_0_split_2
I1130 06:15:07.677646 20300 net.cpp:380] inception_4b/output_inception_4b/output_0_split -> inception_4b/output_inception_4b/output_0_split_3
I1130 06:15:07.677691 20300 net.cpp:122] Setting up inception_4b/output_inception_4b/output_0_split
I1130 06:15:07.677697 20300 net.cpp:129] Top shape: 32 512 14 14 (3211264)
I1130 06:15:07.677701 20300 net.cpp:129] Top shape: 32 512 14 14 (3211264)
I1130 06:15:07.677706 20300 net.cpp:129] Top shape: 32 512 14 14 (3211264)
I1130 06:15:07.677709 20300 net.cpp:129] Top shape: 32 512 14 14 (3211264)
I1130 06:15:07.677712 20300 net.cpp:137] Memory required for data: 1356357760
I1130 06:15:07.677716 20300 layer_factory.hpp:77] Creating layer inception_4c/1x1
I1130 06:15:07.677723 20300 net.cpp:84] Creating Layer inception_4c/1x1
I1130 06:15:07.677727 20300 net.cpp:406] inception_4c/1x1 <- inception_4b/output_inception_4b/output_0_split_0
I1130 06:15:07.677734 20300 net.cpp:380] inception_4c/1x1 -> inception_4c/1x1
I1130 06:15:07.678251 20300 net.cpp:122] Setting up inception_4c/1x1
I1130 06:15:07.678258 20300 net.cpp:129] Top shape: 32 128 14 14 (802816)
I1130 06:15:07.678262 20300 net.cpp:137] Memory required for data: 1359569024
I1130 06:15:07.678267 20300 layer_factory.hpp:77] Creating layer inception_4c/relu_1x1
I1130 06:15:07.678273 20300 net.cpp:84] Creating Layer inception_4c/relu_1x1
I1130 06:15:07.678277 20300 net.cpp:406] inception_4c/relu_1x1 <- inception_4c/1x1
I1130 06:15:07.678283 20300 net.cpp:367] inception_4c/relu_1x1 -> inception_4c/1x1 (in-place)
I1130 06:15:07.678289 20300 net.cpp:122] Setting up inception_4c/relu_1x1
I1130 06:15:07.678294 20300 net.cpp:129] Top shape: 32 128 14 14 (802816)
I1130 06:15:07.678297 20300 net.cpp:137] Memory required for data: 1362780288
I1130 06:15:07.678299 20300 layer_factory.hpp:77] Creating layer inception_4c/3x3_reduce
I1130 06:15:07.678308 20300 net.cpp:84] Creating Layer inception_4c/3x3_reduce
I1130 06:15:07.678311 20300 net.cpp:406] inception_4c/3x3_reduce <- inception_4b/output_inception_4b/output_0_split_1
I1130 06:15:07.678316 20300 net.cpp:380] inception_4c/3x3_reduce -> inception_4c/3x3_reduce
I1130 06:15:07.678831 20300 net.cpp:122] Setting up inception_4c/3x3_reduce
I1130 06:15:07.678839 20300 net.cpp:129] Top shape: 32 128 14 14 (802816)
I1130 06:15:07.678843 20300 net.cpp:137] Memory required for data: 1365991552
I1130 06:15:07.678848 20300 layer_factory.hpp:77] Creating layer inception_4c/relu_3x3_reduce
I1130 06:15:07.678854 20300 net.cpp:84] Creating Layer inception_4c/relu_3x3_reduce
I1130 06:15:07.678858 20300 net.cpp:406] inception_4c/relu_3x3_reduce <- inception_4c/3x3_reduce
I1130 06:15:07.678863 20300 net.cpp:367] inception_4c/relu_3x3_reduce -> inception_4c/3x3_reduce (in-place)
I1130 06:15:07.678869 20300 net.cpp:122] Setting up inception_4c/relu_3x3_reduce
I1130 06:15:07.678872 20300 net.cpp:129] Top shape: 32 128 14 14 (802816)
I1130 06:15:07.678875 20300 net.cpp:137] Memory required for data: 1369202816
I1130 06:15:07.678879 20300 layer_factory.hpp:77] Creating layer inception_4c/3x3
I1130 06:15:07.678886 20300 net.cpp:84] Creating Layer inception_4c/3x3
I1130 06:15:07.678890 20300 net.cpp:406] inception_4c/3x3 <- inception_4c/3x3_reduce
I1130 06:15:07.678896 20300 net.cpp:380] inception_4c/3x3 -> inception_4c/3x3
I1130 06:15:07.680997 20300 net.cpp:122] Setting up inception_4c/3x3
I1130 06:15:07.681007 20300 net.cpp:129] Top shape: 32 256 14 14 (1605632)
I1130 06:15:07.681011 20300 net.cpp:137] Memory required for data: 1375625344
I1130 06:15:07.681017 20300 layer_factory.hpp:77] Creating layer inception_4c/relu_3x3
I1130 06:15:07.681022 20300 net.cpp:84] Creating Layer inception_4c/relu_3x3
I1130 06:15:07.681026 20300 net.cpp:406] inception_4c/relu_3x3 <- inception_4c/3x3
I1130 06:15:07.681031 20300 net.cpp:367] inception_4c/relu_3x3 -> inception_4c/3x3 (in-place)
I1130 06:15:07.681037 20300 net.cpp:122] Setting up inception_4c/relu_3x3
I1130 06:15:07.681042 20300 net.cpp:129] Top shape: 32 256 14 14 (1605632)
I1130 06:15:07.681046 20300 net.cpp:137] Memory required for data: 1382047872
I1130 06:15:07.681047 20300 layer_factory.hpp:77] Creating layer inception_4c/5x5_reduce
I1130 06:15:07.681056 20300 net.cpp:84] Creating Layer inception_4c/5x5_reduce
I1130 06:15:07.681059 20300 net.cpp:406] inception_4c/5x5_reduce <- inception_4b/output_inception_4b/output_0_split_2
I1130 06:15:07.681066 20300 net.cpp:380] inception_4c/5x5_reduce -> inception_4c/5x5_reduce
I1130 06:15:07.681308 20300 net.cpp:122] Setting up inception_4c/5x5_reduce
I1130 06:15:07.681315 20300 net.cpp:129] Top shape: 32 24 14 14 (150528)
I1130 06:15:07.681318 20300 net.cpp:137] Memory required for data: 1382649984
I1130 06:15:07.681324 20300 layer_factory.hpp:77] Creating layer inception_4c/relu_5x5_reduce
I1130 06:15:07.681329 20300 net.cpp:84] Creating Layer inception_4c/relu_5x5_reduce
I1130 06:15:07.681332 20300 net.cpp:406] inception_4c/relu_5x5_reduce <- inception_4c/5x5_reduce
I1130 06:15:07.681339 20300 net.cpp:367] inception_4c/relu_5x5_reduce -> inception_4c/5x5_reduce (in-place)
I1130 06:15:07.681344 20300 net.cpp:122] Setting up inception_4c/relu_5x5_reduce
I1130 06:15:07.681349 20300 net.cpp:129] Top shape: 32 24 14 14 (150528)
I1130 06:15:07.681351 20300 net.cpp:137] Memory required for data: 1383252096
I1130 06:15:07.681354 20300 layer_factory.hpp:77] Creating layer inception_4c/5x5
I1130 06:15:07.681361 20300 net.cpp:84] Creating Layer inception_4c/5x5
I1130 06:15:07.681365 20300 net.cpp:406] inception_4c/5x5 <- inception_4c/5x5_reduce
I1130 06:15:07.681370 20300 net.cpp:380] inception_4c/5x5 -> inception_4c/5x5
I1130 06:15:07.681748 20300 net.cpp:122] Setting up inception_4c/5x5
I1130 06:15:07.681756 20300 net.cpp:129] Top shape: 32 64 14 14 (401408)
I1130 06:15:07.681759 20300 net.cpp:137] Memory required for data: 1384857728
I1130 06:15:07.681764 20300 layer_factory.hpp:77] Creating layer inception_4c/relu_5x5
I1130 06:15:07.681769 20300 net.cpp:84] Creating Layer inception_4c/relu_5x5
I1130 06:15:07.681773 20300 net.cpp:406] inception_4c/relu_5x5 <- inception_4c/5x5
I1130 06:15:07.681779 20300 net.cpp:367] inception_4c/relu_5x5 -> inception_4c/5x5 (in-place)
I1130 06:15:07.681785 20300 net.cpp:122] Setting up inception_4c/relu_5x5
I1130 06:15:07.681789 20300 net.cpp:129] Top shape: 32 64 14 14 (401408)
I1130 06:15:07.681792 20300 net.cpp:137] Memory required for data: 1386463360
I1130 06:15:07.681795 20300 layer_factory.hpp:77] Creating layer inception_4c/pool
I1130 06:15:07.681800 20300 net.cpp:84] Creating Layer inception_4c/pool
I1130 06:15:07.681804 20300 net.cpp:406] inception_4c/pool <- inception_4b/output_inception_4b/output_0_split_3
I1130 06:15:07.681808 20300 net.cpp:380] inception_4c/pool -> inception_4c/pool
I1130 06:15:07.681841 20300 net.cpp:122] Setting up inception_4c/pool
I1130 06:15:07.681849 20300 net.cpp:129] Top shape: 32 512 14 14 (3211264)
I1130 06:15:07.681851 20300 net.cpp:137] Memory required for data: 1399308416
I1130 06:15:07.681854 20300 layer_factory.hpp:77] Creating layer inception_4c/pool_proj
I1130 06:15:07.681862 20300 net.cpp:84] Creating Layer inception_4c/pool_proj
I1130 06:15:07.681866 20300 net.cpp:406] inception_4c/pool_proj <- inception_4c/pool
I1130 06:15:07.681874 20300 net.cpp:380] inception_4c/pool_proj -> inception_4c/pool_proj
I1130 06:15:07.682549 20300 net.cpp:122] Setting up inception_4c/pool_proj
I1130 06:15:07.682559 20300 net.cpp:129] Top shape: 32 64 14 14 (401408)
I1130 06:15:07.682564 20300 net.cpp:137] Memory required for data: 1400914048
I1130 06:15:07.682577 20300 layer_factory.hpp:77] Creating layer inception_4c/relu_pool_proj
I1130 06:15:07.682584 20300 net.cpp:84] Creating Layer inception_4c/relu_pool_proj
I1130 06:15:07.682587 20300 net.cpp:406] inception_4c/relu_pool_proj <- inception_4c/pool_proj
I1130 06:15:07.682592 20300 net.cpp:367] inception_4c/relu_pool_proj -> inception_4c/pool_proj (in-place)
I1130 06:15:07.682598 20300 net.cpp:122] Setting up inception_4c/relu_pool_proj
I1130 06:15:07.682602 20300 net.cpp:129] Top shape: 32 64 14 14 (401408)
I1130 06:15:07.682606 20300 net.cpp:137] Memory required for data: 1402519680
I1130 06:15:07.682608 20300 layer_factory.hpp:77] Creating layer inception_4c/output
I1130 06:15:07.682613 20300 net.cpp:84] Creating Layer inception_4c/output
I1130 06:15:07.682617 20300 net.cpp:406] inception_4c/output <- inception_4c/1x1
I1130 06:15:07.682621 20300 net.cpp:406] inception_4c/output <- inception_4c/3x3
I1130 06:15:07.682624 20300 net.cpp:406] inception_4c/output <- inception_4c/5x5
I1130 06:15:07.682628 20300 net.cpp:406] inception_4c/output <- inception_4c/pool_proj
I1130 06:15:07.682634 20300 net.cpp:380] inception_4c/output -> inception_4c/output
I1130 06:15:07.682656 20300 net.cpp:122] Setting up inception_4c/output
I1130 06:15:07.682662 20300 net.cpp:129] Top shape: 32 512 14 14 (3211264)
I1130 06:15:07.682664 20300 net.cpp:137] Memory required for data: 1415364736
I1130 06:15:07.682667 20300 layer_factory.hpp:77] Creating layer inception_4c/output_inception_4c/output_0_split
I1130 06:15:07.682674 20300 net.cpp:84] Creating Layer inception_4c/output_inception_4c/output_0_split
I1130 06:15:07.682677 20300 net.cpp:406] inception_4c/output_inception_4c/output_0_split <- inception_4c/output
I1130 06:15:07.682682 20300 net.cpp:380] inception_4c/output_inception_4c/output_0_split -> inception_4c/output_inception_4c/output_0_split_0
I1130 06:15:07.682689 20300 net.cpp:380] inception_4c/output_inception_4c/output_0_split -> inception_4c/output_inception_4c/output_0_split_1
I1130 06:15:07.682695 20300 net.cpp:380] inception_4c/output_inception_4c/output_0_split -> inception_4c/output_inception_4c/output_0_split_2
I1130 06:15:07.682700 20300 net.cpp:380] inception_4c/output_inception_4c/output_0_split -> inception_4c/output_inception_4c/output_0_split_3
I1130 06:15:07.682745 20300 net.cpp:122] Setting up inception_4c/output_inception_4c/output_0_split
I1130 06:15:07.682751 20300 net.cpp:129] Top shape: 32 512 14 14 (3211264)
I1130 06:15:07.682755 20300 net.cpp:129] Top shape: 32 512 14 14 (3211264)
I1130 06:15:07.682760 20300 net.cpp:129] Top shape: 32 512 14 14 (3211264)
I1130 06:15:07.682763 20300 net.cpp:129] Top shape: 32 512 14 14 (3211264)
I1130 06:15:07.682766 20300 net.cpp:137] Memory required for data: 1466744960
I1130 06:15:07.682770 20300 layer_factory.hpp:77] Creating layer inception_4d/1x1
I1130 06:15:07.682777 20300 net.cpp:84] Creating Layer inception_4d/1x1
I1130 06:15:07.682781 20300 net.cpp:406] inception_4d/1x1 <- inception_4c/output_inception_4c/output_0_split_0
I1130 06:15:07.682787 20300 net.cpp:380] inception_4d/1x1 -> inception_4d/1x1
I1130 06:15:07.683262 20300 net.cpp:122] Setting up inception_4d/1x1
I1130 06:15:07.683269 20300 net.cpp:129] Top shape: 32 112 14 14 (702464)
I1130 06:15:07.683274 20300 net.cpp:137] Memory required for data: 1469554816
I1130 06:15:07.683279 20300 layer_factory.hpp:77] Creating layer inception_4d/relu_1x1
I1130 06:15:07.683284 20300 net.cpp:84] Creating Layer inception_4d/relu_1x1
I1130 06:15:07.683287 20300 net.cpp:406] inception_4d/relu_1x1 <- inception_4d/1x1
I1130 06:15:07.683293 20300 net.cpp:367] inception_4d/relu_1x1 -> inception_4d/1x1 (in-place)
I1130 06:15:07.683300 20300 net.cpp:122] Setting up inception_4d/relu_1x1
I1130 06:15:07.683303 20300 net.cpp:129] Top shape: 32 112 14 14 (702464)
I1130 06:15:07.683306 20300 net.cpp:137] Memory required for data: 1472364672
I1130 06:15:07.683310 20300 layer_factory.hpp:77] Creating layer inception_4d/3x3_reduce
I1130 06:15:07.683316 20300 net.cpp:84] Creating Layer inception_4d/3x3_reduce
I1130 06:15:07.683320 20300 net.cpp:406] inception_4d/3x3_reduce <- inception_4c/output_inception_4c/output_0_split_1
I1130 06:15:07.683326 20300 net.cpp:380] inception_4d/3x3_reduce -> inception_4d/3x3_reduce
I1130 06:15:07.683912 20300 net.cpp:122] Setting up inception_4d/3x3_reduce
I1130 06:15:07.683920 20300 net.cpp:129] Top shape: 32 144 14 14 (903168)
I1130 06:15:07.683924 20300 net.cpp:137] Memory required for data: 1475977344
I1130 06:15:07.683929 20300 layer_factory.hpp:77] Creating layer inception_4d/relu_3x3_reduce
I1130 06:15:07.683934 20300 net.cpp:84] Creating Layer inception_4d/relu_3x3_reduce
I1130 06:15:07.683938 20300 net.cpp:406] inception_4d/relu_3x3_reduce <- inception_4d/3x3_reduce
I1130 06:15:07.683944 20300 net.cpp:367] inception_4d/relu_3x3_reduce -> inception_4d/3x3_reduce (in-place)
I1130 06:15:07.683950 20300 net.cpp:122] Setting up inception_4d/relu_3x3_reduce
I1130 06:15:07.683954 20300 net.cpp:129] Top shape: 32 144 14 14 (903168)
I1130 06:15:07.683957 20300 net.cpp:137] Memory required for data: 1479590016
I1130 06:15:07.683960 20300 layer_factory.hpp:77] Creating layer inception_4d/3x3
I1130 06:15:07.683969 20300 net.cpp:84] Creating Layer inception_4d/3x3
I1130 06:15:07.683972 20300 net.cpp:406] inception_4d/3x3 <- inception_4d/3x3_reduce
I1130 06:15:07.683977 20300 net.cpp:380] inception_4d/3x3 -> inception_4d/3x3
I1130 06:15:07.686575 20300 net.cpp:122] Setting up inception_4d/3x3
I1130 06:15:07.686585 20300 net.cpp:129] Top shape: 32 288 14 14 (1806336)
I1130 06:15:07.686589 20300 net.cpp:137] Memory required for data: 1486815360
I1130 06:15:07.686595 20300 layer_factory.hpp:77] Creating layer inception_4d/relu_3x3
I1130 06:15:07.686600 20300 net.cpp:84] Creating Layer inception_4d/relu_3x3
I1130 06:15:07.686606 20300 net.cpp:406] inception_4d/relu_3x3 <- inception_4d/3x3
I1130 06:15:07.686611 20300 net.cpp:367] inception_4d/relu_3x3 -> inception_4d/3x3 (in-place)
I1130 06:15:07.686616 20300 net.cpp:122] Setting up inception_4d/relu_3x3
I1130 06:15:07.686621 20300 net.cpp:129] Top shape: 32 288 14 14 (1806336)
I1130 06:15:07.686625 20300 net.cpp:137] Memory required for data: 1494040704
I1130 06:15:07.686626 20300 layer_factory.hpp:77] Creating layer inception_4d/5x5_reduce
I1130 06:15:07.686635 20300 net.cpp:84] Creating Layer inception_4d/5x5_reduce
I1130 06:15:07.686638 20300 net.cpp:406] inception_4d/5x5_reduce <- inception_4c/output_inception_4c/output_0_split_2
I1130 06:15:07.686645 20300 net.cpp:380] inception_4d/5x5_reduce -> inception_4d/5x5_reduce
I1130 06:15:07.686920 20300 net.cpp:122] Setting up inception_4d/5x5_reduce
I1130 06:15:07.686928 20300 net.cpp:129] Top shape: 32 32 14 14 (200704)
I1130 06:15:07.686931 20300 net.cpp:137] Memory required for data: 1494843520
I1130 06:15:07.686936 20300 layer_factory.hpp:77] Creating layer inception_4d/relu_5x5_reduce
I1130 06:15:07.686942 20300 net.cpp:84] Creating Layer inception_4d/relu_5x5_reduce
I1130 06:15:07.686946 20300 net.cpp:406] inception_4d/relu_5x5_reduce <- inception_4d/5x5_reduce
I1130 06:15:07.686952 20300 net.cpp:367] inception_4d/relu_5x5_reduce -> inception_4d/5x5_reduce (in-place)
I1130 06:15:07.686959 20300 net.cpp:122] Setting up inception_4d/relu_5x5_reduce
I1130 06:15:07.686962 20300 net.cpp:129] Top shape: 32 32 14 14 (200704)
I1130 06:15:07.686965 20300 net.cpp:137] Memory required for data: 1495646336
I1130 06:15:07.686967 20300 layer_factory.hpp:77] Creating layer inception_4d/5x5
I1130 06:15:07.686976 20300 net.cpp:84] Creating Layer inception_4d/5x5
I1130 06:15:07.686980 20300 net.cpp:406] inception_4d/5x5 <- inception_4d/5x5_reduce
I1130 06:15:07.686986 20300 net.cpp:380] inception_4d/5x5 -> inception_4d/5x5
I1130 06:15:07.687435 20300 net.cpp:122] Setting up inception_4d/5x5
I1130 06:15:07.687443 20300 net.cpp:129] Top shape: 32 64 14 14 (401408)
I1130 06:15:07.687446 20300 net.cpp:137] Memory required for data: 1497251968
I1130 06:15:07.687451 20300 layer_factory.hpp:77] Creating layer inception_4d/relu_5x5
I1130 06:15:07.687456 20300 net.cpp:84] Creating Layer inception_4d/relu_5x5
I1130 06:15:07.687460 20300 net.cpp:406] inception_4d/relu_5x5 <- inception_4d/5x5
I1130 06:15:07.687466 20300 net.cpp:367] inception_4d/relu_5x5 -> inception_4d/5x5 (in-place)
I1130 06:15:07.687472 20300 net.cpp:122] Setting up inception_4d/relu_5x5
I1130 06:15:07.687476 20300 net.cpp:129] Top shape: 32 64 14 14 (401408)
I1130 06:15:07.687479 20300 net.cpp:137] Memory required for data: 1498857600
I1130 06:15:07.687482 20300 layer_factory.hpp:77] Creating layer inception_4d/pool
I1130 06:15:07.687487 20300 net.cpp:84] Creating Layer inception_4d/pool
I1130 06:15:07.687491 20300 net.cpp:406] inception_4d/pool <- inception_4c/output_inception_4c/output_0_split_3
I1130 06:15:07.687496 20300 net.cpp:380] inception_4d/pool -> inception_4d/pool
I1130 06:15:07.687531 20300 net.cpp:122] Setting up inception_4d/pool
I1130 06:15:07.687538 20300 net.cpp:129] Top shape: 32 512 14 14 (3211264)
I1130 06:15:07.687541 20300 net.cpp:137] Memory required for data: 1511702656
I1130 06:15:07.687544 20300 layer_factory.hpp:77] Creating layer inception_4d/pool_proj
I1130 06:15:07.687552 20300 net.cpp:84] Creating Layer inception_4d/pool_proj
I1130 06:15:07.687556 20300 net.cpp:406] inception_4d/pool_proj <- inception_4d/pool
I1130 06:15:07.687562 20300 net.cpp:380] inception_4d/pool_proj -> inception_4d/pool_proj
I1130 06:15:07.687914 20300 net.cpp:122] Setting up inception_4d/pool_proj
I1130 06:15:07.687922 20300 net.cpp:129] Top shape: 32 64 14 14 (401408)
I1130 06:15:07.687925 20300 net.cpp:137] Memory required for data: 1513308288
I1130 06:15:07.687930 20300 layer_factory.hpp:77] Creating layer inception_4d/relu_pool_proj
I1130 06:15:07.687937 20300 net.cpp:84] Creating Layer inception_4d/relu_pool_proj
I1130 06:15:07.687942 20300 net.cpp:406] inception_4d/relu_pool_proj <- inception_4d/pool_proj
I1130 06:15:07.687947 20300 net.cpp:367] inception_4d/relu_pool_proj -> inception_4d/pool_proj (in-place)
I1130 06:15:07.687952 20300 net.cpp:122] Setting up inception_4d/relu_pool_proj
I1130 06:15:07.687957 20300 net.cpp:129] Top shape: 32 64 14 14 (401408)
I1130 06:15:07.687959 20300 net.cpp:137] Memory required for data: 1514913920
I1130 06:15:07.687963 20300 layer_factory.hpp:77] Creating layer inception_4d/output
I1130 06:15:07.687969 20300 net.cpp:84] Creating Layer inception_4d/output
I1130 06:15:07.687973 20300 net.cpp:406] inception_4d/output <- inception_4d/1x1
I1130 06:15:07.687978 20300 net.cpp:406] inception_4d/output <- inception_4d/3x3
I1130 06:15:07.687981 20300 net.cpp:406] inception_4d/output <- inception_4d/5x5
I1130 06:15:07.687985 20300 net.cpp:406] inception_4d/output <- inception_4d/pool_proj
I1130 06:15:07.687990 20300 net.cpp:380] inception_4d/output -> inception_4d/output
I1130 06:15:07.688010 20300 net.cpp:122] Setting up inception_4d/output
I1130 06:15:07.688017 20300 net.cpp:129] Top shape: 32 528 14 14 (3311616)
I1130 06:15:07.688020 20300 net.cpp:137] Memory required for data: 1528160384
I1130 06:15:07.688024 20300 layer_factory.hpp:77] Creating layer inception_4d/output_inception_4d/output_0_split
I1130 06:15:07.688028 20300 net.cpp:84] Creating Layer inception_4d/output_inception_4d/output_0_split
I1130 06:15:07.688032 20300 net.cpp:406] inception_4d/output_inception_4d/output_0_split <- inception_4d/output
I1130 06:15:07.688037 20300 net.cpp:380] inception_4d/output_inception_4d/output_0_split -> inception_4d/output_inception_4d/output_0_split_0
I1130 06:15:07.688045 20300 net.cpp:380] inception_4d/output_inception_4d/output_0_split -> inception_4d/output_inception_4d/output_0_split_1
I1130 06:15:07.688051 20300 net.cpp:380] inception_4d/output_inception_4d/output_0_split -> inception_4d/output_inception_4d/output_0_split_2
I1130 06:15:07.688056 20300 net.cpp:380] inception_4d/output_inception_4d/output_0_split -> inception_4d/output_inception_4d/output_0_split_3
I1130 06:15:07.688102 20300 net.cpp:122] Setting up inception_4d/output_inception_4d/output_0_split
I1130 06:15:07.688107 20300 net.cpp:129] Top shape: 32 528 14 14 (3311616)
I1130 06:15:07.688112 20300 net.cpp:129] Top shape: 32 528 14 14 (3311616)
I1130 06:15:07.688117 20300 net.cpp:129] Top shape: 32 528 14 14 (3311616)
I1130 06:15:07.688120 20300 net.cpp:129] Top shape: 32 528 14 14 (3311616)
I1130 06:15:07.688123 20300 net.cpp:137] Memory required for data: 1581146240
I1130 06:15:07.688127 20300 layer_factory.hpp:77] Creating layer inception_4e/1x1
I1130 06:15:07.688134 20300 net.cpp:84] Creating Layer inception_4e/1x1
I1130 06:15:07.688138 20300 net.cpp:406] inception_4e/1x1 <- inception_4d/output_inception_4d/output_0_split_0
I1130 06:15:07.688144 20300 net.cpp:380] inception_4e/1x1 -> inception_4e/1x1
I1130 06:15:07.689379 20300 net.cpp:122] Setting up inception_4e/1x1
I1130 06:15:07.689388 20300 net.cpp:129] Top shape: 32 256 14 14 (1605632)
I1130 06:15:07.689391 20300 net.cpp:137] Memory required for data: 1587568768
I1130 06:15:07.689398 20300 layer_factory.hpp:77] Creating layer inception_4e/relu_1x1
I1130 06:15:07.689404 20300 net.cpp:84] Creating Layer inception_4e/relu_1x1
I1130 06:15:07.689409 20300 net.cpp:406] inception_4e/relu_1x1 <- inception_4e/1x1
I1130 06:15:07.689414 20300 net.cpp:367] inception_4e/relu_1x1 -> inception_4e/1x1 (in-place)
I1130 06:15:07.689419 20300 net.cpp:122] Setting up inception_4e/relu_1x1
I1130 06:15:07.689424 20300 net.cpp:129] Top shape: 32 256 14 14 (1605632)
I1130 06:15:07.689426 20300 net.cpp:137] Memory required for data: 1593991296
I1130 06:15:07.689430 20300 layer_factory.hpp:77] Creating layer inception_4e/3x3_reduce
I1130 06:15:07.689438 20300 net.cpp:84] Creating Layer inception_4e/3x3_reduce
I1130 06:15:07.689442 20300 net.cpp:406] inception_4e/3x3_reduce <- inception_4d/output_inception_4d/output_0_split_1
I1130 06:15:07.689450 20300 net.cpp:380] inception_4e/3x3_reduce -> inception_4e/3x3_reduce
I1130 06:15:07.690078 20300 net.cpp:122] Setting up inception_4e/3x3_reduce
I1130 06:15:07.690086 20300 net.cpp:129] Top shape: 32 160 14 14 (1003520)
I1130 06:15:07.690089 20300 net.cpp:137] Memory required for data: 1598005376
I1130 06:15:07.690095 20300 layer_factory.hpp:77] Creating layer inception_4e/relu_3x3_reduce
I1130 06:15:07.690100 20300 net.cpp:84] Creating Layer inception_4e/relu_3x3_reduce
I1130 06:15:07.690104 20300 net.cpp:406] inception_4e/relu_3x3_reduce <- inception_4e/3x3_reduce
I1130 06:15:07.690109 20300 net.cpp:367] inception_4e/relu_3x3_reduce -> inception_4e/3x3_reduce (in-place)
I1130 06:15:07.690114 20300 net.cpp:122] Setting up inception_4e/relu_3x3_reduce
I1130 06:15:07.690119 20300 net.cpp:129] Top shape: 32 160 14 14 (1003520)
I1130 06:15:07.690122 20300 net.cpp:137] Memory required for data: 1602019456
I1130 06:15:07.690125 20300 layer_factory.hpp:77] Creating layer inception_4e/3x3
I1130 06:15:07.690134 20300 net.cpp:84] Creating Layer inception_4e/3x3
I1130 06:15:07.690137 20300 net.cpp:406] inception_4e/3x3 <- inception_4e/3x3_reduce
I1130 06:15:07.690145 20300 net.cpp:380] inception_4e/3x3 -> inception_4e/3x3
I1130 06:15:07.693295 20300 net.cpp:122] Setting up inception_4e/3x3
I1130 06:15:07.693307 20300 net.cpp:129] Top shape: 32 320 14 14 (2007040)
I1130 06:15:07.693310 20300 net.cpp:137] Memory required for data: 1610047616
I1130 06:15:07.693316 20300 layer_factory.hpp:77] Creating layer inception_4e/relu_3x3
I1130 06:15:07.693321 20300 net.cpp:84] Creating Layer inception_4e/relu_3x3
I1130 06:15:07.693325 20300 net.cpp:406] inception_4e/relu_3x3 <- inception_4e/3x3
I1130 06:15:07.693331 20300 net.cpp:367] inception_4e/relu_3x3 -> inception_4e/3x3 (in-place)
I1130 06:15:07.693337 20300 net.cpp:122] Setting up inception_4e/relu_3x3
I1130 06:15:07.693341 20300 net.cpp:129] Top shape: 32 320 14 14 (2007040)
I1130 06:15:07.693344 20300 net.cpp:137] Memory required for data: 1618075776
I1130 06:15:07.693347 20300 layer_factory.hpp:77] Creating layer inception_4e/5x5_reduce
I1130 06:15:07.693358 20300 net.cpp:84] Creating Layer inception_4e/5x5_reduce
I1130 06:15:07.693362 20300 net.cpp:406] inception_4e/5x5_reduce <- inception_4d/output_inception_4d/output_0_split_2
I1130 06:15:07.693369 20300 net.cpp:380] inception_4e/5x5_reduce -> inception_4e/5x5_reduce
I1130 06:15:07.693647 20300 net.cpp:122] Setting up inception_4e/5x5_reduce
I1130 06:15:07.693655 20300 net.cpp:129] Top shape: 32 32 14 14 (200704)
I1130 06:15:07.693657 20300 net.cpp:137] Memory required for data: 1618878592
I1130 06:15:07.693663 20300 layer_factory.hpp:77] Creating layer inception_4e/relu_5x5_reduce
I1130 06:15:07.693670 20300 net.cpp:84] Creating Layer inception_4e/relu_5x5_reduce
I1130 06:15:07.693675 20300 net.cpp:406] inception_4e/relu_5x5_reduce <- inception_4e/5x5_reduce
I1130 06:15:07.693680 20300 net.cpp:367] inception_4e/relu_5x5_reduce -> inception_4e/5x5_reduce (in-place)
I1130 06:15:07.693684 20300 net.cpp:122] Setting up inception_4e/relu_5x5_reduce
I1130 06:15:07.693688 20300 net.cpp:129] Top shape: 32 32 14 14 (200704)
I1130 06:15:07.693691 20300 net.cpp:137] Memory required for data: 1619681408
I1130 06:15:07.693694 20300 layer_factory.hpp:77] Creating layer inception_4e/5x5
I1130 06:15:07.693702 20300 net.cpp:84] Creating Layer inception_4e/5x5
I1130 06:15:07.693706 20300 net.cpp:406] inception_4e/5x5 <- inception_4e/5x5_reduce
I1130 06:15:07.693711 20300 net.cpp:380] inception_4e/5x5 -> inception_4e/5x5
I1130 06:15:07.694772 20300 net.cpp:122] Setting up inception_4e/5x5
I1130 06:15:07.694782 20300 net.cpp:129] Top shape: 32 128 14 14 (802816)
I1130 06:15:07.694785 20300 net.cpp:137] Memory required for data: 1622892672
I1130 06:15:07.694790 20300 layer_factory.hpp:77] Creating layer inception_4e/relu_5x5
I1130 06:15:07.694797 20300 net.cpp:84] Creating Layer inception_4e/relu_5x5
I1130 06:15:07.694800 20300 net.cpp:406] inception_4e/relu_5x5 <- inception_4e/5x5
I1130 06:15:07.694806 20300 net.cpp:367] inception_4e/relu_5x5 -> inception_4e/5x5 (in-place)
I1130 06:15:07.694813 20300 net.cpp:122] Setting up inception_4e/relu_5x5
I1130 06:15:07.694818 20300 net.cpp:129] Top shape: 32 128 14 14 (802816)
I1130 06:15:07.694820 20300 net.cpp:137] Memory required for data: 1626103936
I1130 06:15:07.694823 20300 layer_factory.hpp:77] Creating layer inception_4e/pool
I1130 06:15:07.694828 20300 net.cpp:84] Creating Layer inception_4e/pool
I1130 06:15:07.694833 20300 net.cpp:406] inception_4e/pool <- inception_4d/output_inception_4d/output_0_split_3
I1130 06:15:07.694839 20300 net.cpp:380] inception_4e/pool -> inception_4e/pool
I1130 06:15:07.694871 20300 net.cpp:122] Setting up inception_4e/pool
I1130 06:15:07.694877 20300 net.cpp:129] Top shape: 32 528 14 14 (3311616)
I1130 06:15:07.694881 20300 net.cpp:137] Memory required for data: 1639350400
I1130 06:15:07.694885 20300 layer_factory.hpp:77] Creating layer inception_4e/pool_proj
I1130 06:15:07.694892 20300 net.cpp:84] Creating Layer inception_4e/pool_proj
I1130 06:15:07.694896 20300 net.cpp:406] inception_4e/pool_proj <- inception_4e/pool
I1130 06:15:07.694903 20300 net.cpp:380] inception_4e/pool_proj -> inception_4e/pool_proj
I1130 06:15:07.695438 20300 net.cpp:122] Setting up inception_4e/pool_proj
I1130 06:15:07.695446 20300 net.cpp:129] Top shape: 32 128 14 14 (802816)
I1130 06:15:07.695449 20300 net.cpp:137] Memory required for data: 1642561664
I1130 06:15:07.695454 20300 layer_factory.hpp:77] Creating layer inception_4e/relu_pool_proj
I1130 06:15:07.695459 20300 net.cpp:84] Creating Layer inception_4e/relu_pool_proj
I1130 06:15:07.695463 20300 net.cpp:406] inception_4e/relu_pool_proj <- inception_4e/pool_proj
I1130 06:15:07.695468 20300 net.cpp:367] inception_4e/relu_pool_proj -> inception_4e/pool_proj (in-place)
I1130 06:15:07.695474 20300 net.cpp:122] Setting up inception_4e/relu_pool_proj
I1130 06:15:07.695478 20300 net.cpp:129] Top shape: 32 128 14 14 (802816)
I1130 06:15:07.695482 20300 net.cpp:137] Memory required for data: 1645772928
I1130 06:15:07.695484 20300 layer_factory.hpp:77] Creating layer inception_4e/output
I1130 06:15:07.695489 20300 net.cpp:84] Creating Layer inception_4e/output
I1130 06:15:07.695493 20300 net.cpp:406] inception_4e/output <- inception_4e/1x1
I1130 06:15:07.695497 20300 net.cpp:406] inception_4e/output <- inception_4e/3x3
I1130 06:15:07.695500 20300 net.cpp:406] inception_4e/output <- inception_4e/5x5
I1130 06:15:07.695504 20300 net.cpp:406] inception_4e/output <- inception_4e/pool_proj
I1130 06:15:07.695510 20300 net.cpp:380] inception_4e/output -> inception_4e/output
I1130 06:15:07.695531 20300 net.cpp:122] Setting up inception_4e/output
I1130 06:15:07.695538 20300 net.cpp:129] Top shape: 32 832 14 14 (5218304)
I1130 06:15:07.695543 20300 net.cpp:137] Memory required for data: 1666646144
I1130 06:15:07.695544 20300 layer_factory.hpp:77] Creating layer pool4/3x3_s2
I1130 06:15:07.695549 20300 net.cpp:84] Creating Layer pool4/3x3_s2
I1130 06:15:07.695554 20300 net.cpp:406] pool4/3x3_s2 <- inception_4e/output
I1130 06:15:07.695559 20300 net.cpp:380] pool4/3x3_s2 -> pool4/3x3_s2
I1130 06:15:07.695590 20300 net.cpp:122] Setting up pool4/3x3_s2
I1130 06:15:07.695595 20300 net.cpp:129] Top shape: 32 832 7 7 (1304576)
I1130 06:15:07.695598 20300 net.cpp:137] Memory required for data: 1671864448
I1130 06:15:07.695601 20300 layer_factory.hpp:77] Creating layer pool4/3x3_s2_pool4/3x3_s2_0_split
I1130 06:15:07.695607 20300 net.cpp:84] Creating Layer pool4/3x3_s2_pool4/3x3_s2_0_split
I1130 06:15:07.695611 20300 net.cpp:406] pool4/3x3_s2_pool4/3x3_s2_0_split <- pool4/3x3_s2
I1130 06:15:07.695616 20300 net.cpp:380] pool4/3x3_s2_pool4/3x3_s2_0_split -> pool4/3x3_s2_pool4/3x3_s2_0_split_0
I1130 06:15:07.695623 20300 net.cpp:380] pool4/3x3_s2_pool4/3x3_s2_0_split -> pool4/3x3_s2_pool4/3x3_s2_0_split_1
I1130 06:15:07.695628 20300 net.cpp:380] pool4/3x3_s2_pool4/3x3_s2_0_split -> pool4/3x3_s2_pool4/3x3_s2_0_split_2
I1130 06:15:07.695634 20300 net.cpp:380] pool4/3x3_s2_pool4/3x3_s2_0_split -> pool4/3x3_s2_pool4/3x3_s2_0_split_3
I1130 06:15:07.695682 20300 net.cpp:122] Setting up pool4/3x3_s2_pool4/3x3_s2_0_split
I1130 06:15:07.695688 20300 net.cpp:129] Top shape: 32 832 7 7 (1304576)
I1130 06:15:07.695693 20300 net.cpp:129] Top shape: 32 832 7 7 (1304576)
I1130 06:15:07.695696 20300 net.cpp:129] Top shape: 32 832 7 7 (1304576)
I1130 06:15:07.695700 20300 net.cpp:129] Top shape: 32 832 7 7 (1304576)
I1130 06:15:07.695703 20300 net.cpp:137] Memory required for data: 1692737664
I1130 06:15:07.695705 20300 layer_factory.hpp:77] Creating layer inception_5a/1x1
I1130 06:15:07.695719 20300 net.cpp:84] Creating Layer inception_5a/1x1
I1130 06:15:07.695724 20300 net.cpp:406] inception_5a/1x1 <- pool4/3x3_s2_pool4/3x3_s2_0_split_0
I1130 06:15:07.695729 20300 net.cpp:380] inception_5a/1x1 -> inception_5a/1x1
I1130 06:15:07.697371 20300 net.cpp:122] Setting up inception_5a/1x1
I1130 06:15:07.697379 20300 net.cpp:129] Top shape: 32 256 7 7 (401408)
I1130 06:15:07.697382 20300 net.cpp:137] Memory required for data: 1694343296
I1130 06:15:07.697388 20300 layer_factory.hpp:77] Creating layer inception_5a/relu_1x1
I1130 06:15:07.697393 20300 net.cpp:84] Creating Layer inception_5a/relu_1x1
I1130 06:15:07.697397 20300 net.cpp:406] inception_5a/relu_1x1 <- inception_5a/1x1
I1130 06:15:07.697402 20300 net.cpp:367] inception_5a/relu_1x1 -> inception_5a/1x1 (in-place)
I1130 06:15:07.697409 20300 net.cpp:122] Setting up inception_5a/relu_1x1
I1130 06:15:07.697414 20300 net.cpp:129] Top shape: 32 256 7 7 (401408)
I1130 06:15:07.697417 20300 net.cpp:137] Memory required for data: 1695948928
I1130 06:15:07.697419 20300 layer_factory.hpp:77] Creating layer inception_5a/3x3_reduce
I1130 06:15:07.697427 20300 net.cpp:84] Creating Layer inception_5a/3x3_reduce
I1130 06:15:07.697430 20300 net.cpp:406] inception_5a/3x3_reduce <- pool4/3x3_s2_pool4/3x3_s2_0_split_1
I1130 06:15:07.697438 20300 net.cpp:380] inception_5a/3x3_reduce -> inception_5a/3x3_reduce
I1130 06:15:07.698667 20300 net.cpp:122] Setting up inception_5a/3x3_reduce
I1130 06:15:07.698675 20300 net.cpp:129] Top shape: 32 160 7 7 (250880)
I1130 06:15:07.698679 20300 net.cpp:137] Memory required for data: 1696952448
I1130 06:15:07.698685 20300 layer_factory.hpp:77] Creating layer inception_5a/relu_3x3_reduce
I1130 06:15:07.698691 20300 net.cpp:84] Creating Layer inception_5a/relu_3x3_reduce
I1130 06:15:07.698695 20300 net.cpp:406] inception_5a/relu_3x3_reduce <- inception_5a/3x3_reduce
I1130 06:15:07.698700 20300 net.cpp:367] inception_5a/relu_3x3_reduce -> inception_5a/3x3_reduce (in-place)
I1130 06:15:07.698710 20300 net.cpp:122] Setting up inception_5a/relu_3x3_reduce
I1130 06:15:07.698715 20300 net.cpp:129] Top shape: 32 160 7 7 (250880)
I1130 06:15:07.698719 20300 net.cpp:137] Memory required for data: 1697955968
I1130 06:15:07.698720 20300 layer_factory.hpp:77] Creating layer inception_5a/3x3
I1130 06:15:07.698727 20300 net.cpp:84] Creating Layer inception_5a/3x3
I1130 06:15:07.698732 20300 net.cpp:406] inception_5a/3x3 <- inception_5a/3x3_reduce
I1130 06:15:07.698738 20300 net.cpp:380] inception_5a/3x3 -> inception_5a/3x3
I1130 06:15:07.701907 20300 net.cpp:122] Setting up inception_5a/3x3
I1130 06:15:07.701921 20300 net.cpp:129] Top shape: 32 320 7 7 (501760)
I1130 06:15:07.701923 20300 net.cpp:137] Memory required for data: 1699963008
I1130 06:15:07.701930 20300 layer_factory.hpp:77] Creating layer inception_5a/relu_3x3
I1130 06:15:07.701936 20300 net.cpp:84] Creating Layer inception_5a/relu_3x3
I1130 06:15:07.701941 20300 net.cpp:406] inception_5a/relu_3x3 <- inception_5a/3x3
I1130 06:15:07.701947 20300 net.cpp:367] inception_5a/relu_3x3 -> inception_5a/3x3 (in-place)
I1130 06:15:07.701954 20300 net.cpp:122] Setting up inception_5a/relu_3x3
I1130 06:15:07.701958 20300 net.cpp:129] Top shape: 32 320 7 7 (501760)
I1130 06:15:07.701961 20300 net.cpp:137] Memory required for data: 1701970048
I1130 06:15:07.701963 20300 layer_factory.hpp:77] Creating layer inception_5a/5x5_reduce
I1130 06:15:07.701972 20300 net.cpp:84] Creating Layer inception_5a/5x5_reduce
I1130 06:15:07.701977 20300 net.cpp:406] inception_5a/5x5_reduce <- pool4/3x3_s2_pool4/3x3_s2_0_split_2
I1130 06:15:07.701983 20300 net.cpp:380] inception_5a/5x5_reduce -> inception_5a/5x5_reduce
I1130 06:15:07.702322 20300 net.cpp:122] Setting up inception_5a/5x5_reduce
I1130 06:15:07.702330 20300 net.cpp:129] Top shape: 32 32 7 7 (50176)
I1130 06:15:07.702333 20300 net.cpp:137] Memory required for data: 1702170752
I1130 06:15:07.702338 20300 layer_factory.hpp:77] Creating layer inception_5a/relu_5x5_reduce
I1130 06:15:07.702344 20300 net.cpp:84] Creating Layer inception_5a/relu_5x5_reduce
I1130 06:15:07.702348 20300 net.cpp:406] inception_5a/relu_5x5_reduce <- inception_5a/5x5_reduce
I1130 06:15:07.702353 20300 net.cpp:367] inception_5a/relu_5x5_reduce -> inception_5a/5x5_reduce (in-place)
I1130 06:15:07.702361 20300 net.cpp:122] Setting up inception_5a/relu_5x5_reduce
I1130 06:15:07.702365 20300 net.cpp:129] Top shape: 32 32 7 7 (50176)
I1130 06:15:07.702368 20300 net.cpp:137] Memory required for data: 1702371456
I1130 06:15:07.702371 20300 layer_factory.hpp:77] Creating layer inception_5a/5x5
I1130 06:15:07.702378 20300 net.cpp:84] Creating Layer inception_5a/5x5
I1130 06:15:07.702381 20300 net.cpp:406] inception_5a/5x5 <- inception_5a/5x5_reduce
I1130 06:15:07.702388 20300 net.cpp:380] inception_5a/5x5 -> inception_5a/5x5
I1130 06:15:07.703124 20300 net.cpp:122] Setting up inception_5a/5x5
I1130 06:15:07.703131 20300 net.cpp:129] Top shape: 32 128 7 7 (200704)
I1130 06:15:07.703135 20300 net.cpp:137] Memory required for data: 1703174272
I1130 06:15:07.703140 20300 layer_factory.hpp:77] Creating layer inception_5a/relu_5x5
I1130 06:15:07.703160 20300 net.cpp:84] Creating Layer inception_5a/relu_5x5
I1130 06:15:07.703163 20300 net.cpp:406] inception_5a/relu_5x5 <- inception_5a/5x5
I1130 06:15:07.703168 20300 net.cpp:367] inception_5a/relu_5x5 -> inception_5a/5x5 (in-place)
I1130 06:15:07.703174 20300 net.cpp:122] Setting up inception_5a/relu_5x5
I1130 06:15:07.703178 20300 net.cpp:129] Top shape: 32 128 7 7 (200704)
I1130 06:15:07.703181 20300 net.cpp:137] Memory required for data: 1703977088
I1130 06:15:07.703184 20300 layer_factory.hpp:77] Creating layer inception_5a/pool
I1130 06:15:07.703191 20300 net.cpp:84] Creating Layer inception_5a/pool
I1130 06:15:07.703194 20300 net.cpp:406] inception_5a/pool <- pool4/3x3_s2_pool4/3x3_s2_0_split_3
I1130 06:15:07.703199 20300 net.cpp:380] inception_5a/pool -> inception_5a/pool
I1130 06:15:07.703234 20300 net.cpp:122] Setting up inception_5a/pool
I1130 06:15:07.703240 20300 net.cpp:129] Top shape: 32 832 7 7 (1304576)
I1130 06:15:07.703244 20300 net.cpp:137] Memory required for data: 1709195392
I1130 06:15:07.703246 20300 layer_factory.hpp:77] Creating layer inception_5a/pool_proj
I1130 06:15:07.703255 20300 net.cpp:84] Creating Layer inception_5a/pool_proj
I1130 06:15:07.703259 20300 net.cpp:406] inception_5a/pool_proj <- inception_5a/pool
I1130 06:15:07.703266 20300 net.cpp:380] inception_5a/pool_proj -> inception_5a/pool_proj
I1130 06:15:07.704375 20300 net.cpp:122] Setting up inception_5a/pool_proj
I1130 06:15:07.704385 20300 net.cpp:129] Top shape: 32 128 7 7 (200704)
I1130 06:15:07.704388 20300 net.cpp:137] Memory required for data: 1709998208
I1130 06:15:07.704394 20300 layer_factory.hpp:77] Creating layer inception_5a/relu_pool_proj
I1130 06:15:07.704399 20300 net.cpp:84] Creating Layer inception_5a/relu_pool_proj
I1130 06:15:07.704404 20300 net.cpp:406] inception_5a/relu_pool_proj <- inception_5a/pool_proj
I1130 06:15:07.704409 20300 net.cpp:367] inception_5a/relu_pool_proj -> inception_5a/pool_proj (in-place)
I1130 06:15:07.704416 20300 net.cpp:122] Setting up inception_5a/relu_pool_proj
I1130 06:15:07.704419 20300 net.cpp:129] Top shape: 32 128 7 7 (200704)
I1130 06:15:07.704422 20300 net.cpp:137] Memory required for data: 1710801024
I1130 06:15:07.704426 20300 layer_factory.hpp:77] Creating layer inception_5a/output
I1130 06:15:07.704430 20300 net.cpp:84] Creating Layer inception_5a/output
I1130 06:15:07.704433 20300 net.cpp:406] inception_5a/output <- inception_5a/1x1
I1130 06:15:07.704438 20300 net.cpp:406] inception_5a/output <- inception_5a/3x3
I1130 06:15:07.704442 20300 net.cpp:406] inception_5a/output <- inception_5a/5x5
I1130 06:15:07.704447 20300 net.cpp:406] inception_5a/output <- inception_5a/pool_proj
I1130 06:15:07.704452 20300 net.cpp:380] inception_5a/output -> inception_5a/output
I1130 06:15:07.704474 20300 net.cpp:122] Setting up inception_5a/output
I1130 06:15:07.704483 20300 net.cpp:129] Top shape: 32 832 7 7 (1304576)
I1130 06:15:07.704485 20300 net.cpp:137] Memory required for data: 1716019328
I1130 06:15:07.704488 20300 layer_factory.hpp:77] Creating layer inception_5a/output_inception_5a/output_0_split
I1130 06:15:07.704493 20300 net.cpp:84] Creating Layer inception_5a/output_inception_5a/output_0_split
I1130 06:15:07.704497 20300 net.cpp:406] inception_5a/output_inception_5a/output_0_split <- inception_5a/output
I1130 06:15:07.704502 20300 net.cpp:380] inception_5a/output_inception_5a/output_0_split -> inception_5a/output_inception_5a/output_0_split_0
I1130 06:15:07.704509 20300 net.cpp:380] inception_5a/output_inception_5a/output_0_split -> inception_5a/output_inception_5a/output_0_split_1
I1130 06:15:07.704514 20300 net.cpp:380] inception_5a/output_inception_5a/output_0_split -> inception_5a/output_inception_5a/output_0_split_2
I1130 06:15:07.704521 20300 net.cpp:380] inception_5a/output_inception_5a/output_0_split -> inception_5a/output_inception_5a/output_0_split_3
I1130 06:15:07.704571 20300 net.cpp:122] Setting up inception_5a/output_inception_5a/output_0_split
I1130 06:15:07.704576 20300 net.cpp:129] Top shape: 32 832 7 7 (1304576)
I1130 06:15:07.704581 20300 net.cpp:129] Top shape: 32 832 7 7 (1304576)
I1130 06:15:07.704584 20300 net.cpp:129] Top shape: 32 832 7 7 (1304576)
I1130 06:15:07.704588 20300 net.cpp:129] Top shape: 32 832 7 7 (1304576)
I1130 06:15:07.704591 20300 net.cpp:137] Memory required for data: 1736892544
I1130 06:15:07.704594 20300 layer_factory.hpp:77] Creating layer inception_5b/1x1
I1130 06:15:07.704602 20300 net.cpp:84] Creating Layer inception_5b/1x1
I1130 06:15:07.704607 20300 net.cpp:406] inception_5b/1x1 <- inception_5a/output_inception_5a/output_0_split_0
I1130 06:15:07.704613 20300 net.cpp:380] inception_5b/1x1 -> inception_5b/1x1
I1130 06:15:07.706881 20300 net.cpp:122] Setting up inception_5b/1x1
I1130 06:15:07.706892 20300 net.cpp:129] Top shape: 32 384 7 7 (602112)
I1130 06:15:07.706895 20300 net.cpp:137] Memory required for data: 1739300992
I1130 06:15:07.706902 20300 layer_factory.hpp:77] Creating layer inception_5b/relu_1x1
I1130 06:15:07.706907 20300 net.cpp:84] Creating Layer inception_5b/relu_1x1
I1130 06:15:07.706912 20300 net.cpp:406] inception_5b/relu_1x1 <- inception_5b/1x1
I1130 06:15:07.706917 20300 net.cpp:367] inception_5b/relu_1x1 -> inception_5b/1x1 (in-place)
I1130 06:15:07.706923 20300 net.cpp:122] Setting up inception_5b/relu_1x1
I1130 06:15:07.706926 20300 net.cpp:129] Top shape: 32 384 7 7 (602112)
I1130 06:15:07.706929 20300 net.cpp:137] Memory required for data: 1741709440
I1130 06:15:07.706933 20300 layer_factory.hpp:77] Creating layer inception_5b/3x3_reduce
I1130 06:15:07.706940 20300 net.cpp:84] Creating Layer inception_5b/3x3_reduce
I1130 06:15:07.706943 20300 net.cpp:406] inception_5b/3x3_reduce <- inception_5a/output_inception_5a/output_0_split_1
I1130 06:15:07.706950 20300 net.cpp:380] inception_5b/3x3_reduce -> inception_5b/3x3_reduce
I1130 06:15:07.708350 20300 net.cpp:122] Setting up inception_5b/3x3_reduce
I1130 06:15:07.708360 20300 net.cpp:129] Top shape: 32 192 7 7 (301056)
I1130 06:15:07.708364 20300 net.cpp:137] Memory required for data: 1742913664
I1130 06:15:07.708369 20300 layer_factory.hpp:77] Creating layer inception_5b/relu_3x3_reduce
I1130 06:15:07.708374 20300 net.cpp:84] Creating Layer inception_5b/relu_3x3_reduce
I1130 06:15:07.708379 20300 net.cpp:406] inception_5b/relu_3x3_reduce <- inception_5b/3x3_reduce
I1130 06:15:07.708384 20300 net.cpp:367] inception_5b/relu_3x3_reduce -> inception_5b/3x3_reduce (in-place)
I1130 06:15:07.708390 20300 net.cpp:122] Setting up inception_5b/relu_3x3_reduce
I1130 06:15:07.708395 20300 net.cpp:129] Top shape: 32 192 7 7 (301056)
I1130 06:15:07.708397 20300 net.cpp:137] Memory required for data: 1744117888
I1130 06:15:07.708400 20300 layer_factory.hpp:77] Creating layer inception_5b/3x3
I1130 06:15:07.708408 20300 net.cpp:84] Creating Layer inception_5b/3x3
I1130 06:15:07.708412 20300 net.cpp:406] inception_5b/3x3 <- inception_5b/3x3_reduce
I1130 06:15:07.708418 20300 net.cpp:380] inception_5b/3x3 -> inception_5b/3x3
I1130 06:15:07.712884 20300 net.cpp:122] Setting up inception_5b/3x3
I1130 06:15:07.712900 20300 net.cpp:129] Top shape: 32 384 7 7 (602112)
I1130 06:15:07.712903 20300 net.cpp:137] Memory required for data: 1746526336
I1130 06:15:07.712910 20300 layer_factory.hpp:77] Creating layer inception_5b/relu_3x3
I1130 06:15:07.712916 20300 net.cpp:84] Creating Layer inception_5b/relu_3x3
I1130 06:15:07.712921 20300 net.cpp:406] inception_5b/relu_3x3 <- inception_5b/3x3
I1130 06:15:07.712927 20300 net.cpp:367] inception_5b/relu_3x3 -> inception_5b/3x3 (in-place)
I1130 06:15:07.712934 20300 net.cpp:122] Setting up inception_5b/relu_3x3
I1130 06:15:07.712939 20300 net.cpp:129] Top shape: 32 384 7 7 (602112)
I1130 06:15:07.712941 20300 net.cpp:137] Memory required for data: 1748934784
I1130 06:15:07.712944 20300 layer_factory.hpp:77] Creating layer inception_5b/5x5_reduce
I1130 06:15:07.712952 20300 net.cpp:84] Creating Layer inception_5b/5x5_reduce
I1130 06:15:07.712956 20300 net.cpp:406] inception_5b/5x5_reduce <- inception_5a/output_inception_5a/output_0_split_2
I1130 06:15:07.712962 20300 net.cpp:380] inception_5b/5x5_reduce -> inception_5b/5x5_reduce
I1130 06:15:07.713382 20300 net.cpp:122] Setting up inception_5b/5x5_reduce
I1130 06:15:07.713389 20300 net.cpp:129] Top shape: 32 48 7 7 (75264)
I1130 06:15:07.713392 20300 net.cpp:137] Memory required for data: 1749235840
I1130 06:15:07.713398 20300 layer_factory.hpp:77] Creating layer inception_5b/relu_5x5_reduce
I1130 06:15:07.713403 20300 net.cpp:84] Creating Layer inception_5b/relu_5x5_reduce
I1130 06:15:07.713407 20300 net.cpp:406] inception_5b/relu_5x5_reduce <- inception_5b/5x5_reduce
I1130 06:15:07.713413 20300 net.cpp:367] inception_5b/relu_5x5_reduce -> inception_5b/5x5_reduce (in-place)
I1130 06:15:07.713419 20300 net.cpp:122] Setting up inception_5b/relu_5x5_reduce
I1130 06:15:07.713423 20300 net.cpp:129] Top shape: 32 48 7 7 (75264)
I1130 06:15:07.713428 20300 net.cpp:137] Memory required for data: 1749536896
I1130 06:15:07.713429 20300 layer_factory.hpp:77] Creating layer inception_5b/5x5
I1130 06:15:07.713438 20300 net.cpp:84] Creating Layer inception_5b/5x5
I1130 06:15:07.713441 20300 net.cpp:406] inception_5b/5x5 <- inception_5b/5x5_reduce
I1130 06:15:07.713446 20300 net.cpp:380] inception_5b/5x5 -> inception_5b/5x5
I1130 06:15:07.714481 20300 net.cpp:122] Setting up inception_5b/5x5
I1130 06:15:07.714489 20300 net.cpp:129] Top shape: 32 128 7 7 (200704)
I1130 06:15:07.714493 20300 net.cpp:137] Memory required for data: 1750339712
I1130 06:15:07.714498 20300 layer_factory.hpp:77] Creating layer inception_5b/relu_5x5
I1130 06:15:07.714504 20300 net.cpp:84] Creating Layer inception_5b/relu_5x5
I1130 06:15:07.714507 20300 net.cpp:406] inception_5b/relu_5x5 <- inception_5b/5x5
I1130 06:15:07.714514 20300 net.cpp:367] inception_5b/relu_5x5 -> inception_5b/5x5 (in-place)
I1130 06:15:07.714519 20300 net.cpp:122] Setting up inception_5b/relu_5x5
I1130 06:15:07.714524 20300 net.cpp:129] Top shape: 32 128 7 7 (200704)
I1130 06:15:07.714527 20300 net.cpp:137] Memory required for data: 1751142528
I1130 06:15:07.714529 20300 layer_factory.hpp:77] Creating layer inception_5b/pool
I1130 06:15:07.714535 20300 net.cpp:84] Creating Layer inception_5b/pool
I1130 06:15:07.714540 20300 net.cpp:406] inception_5b/pool <- inception_5a/output_inception_5a/output_0_split_3
I1130 06:15:07.714545 20300 net.cpp:380] inception_5b/pool -> inception_5b/pool
I1130 06:15:07.714581 20300 net.cpp:122] Setting up inception_5b/pool
I1130 06:15:07.714587 20300 net.cpp:129] Top shape: 32 832 7 7 (1304576)
I1130 06:15:07.714591 20300 net.cpp:137] Memory required for data: 1756360832
I1130 06:15:07.714593 20300 layer_factory.hpp:77] Creating layer inception_5b/pool_proj
I1130 06:15:07.714601 20300 net.cpp:84] Creating Layer inception_5b/pool_proj
I1130 06:15:07.714607 20300 net.cpp:406] inception_5b/pool_proj <- inception_5b/pool
I1130 06:15:07.714612 20300 net.cpp:380] inception_5b/pool_proj -> inception_5b/pool_proj
I1130 06:15:07.717836 20300 net.cpp:122] Setting up inception_5b/pool_proj
I1130 06:15:07.717854 20300 net.cpp:129] Top shape: 32 128 7 7 (200704)
I1130 06:15:07.717859 20300 net.cpp:137] Memory required for data: 1757163648
I1130 06:15:07.717865 20300 layer_factory.hpp:77] Creating layer inception_5b/relu_pool_proj
I1130 06:15:07.717872 20300 net.cpp:84] Creating Layer inception_5b/relu_pool_proj
I1130 06:15:07.717877 20300 net.cpp:406] inception_5b/relu_pool_proj <- inception_5b/pool_proj
I1130 06:15:07.717882 20300 net.cpp:367] inception_5b/relu_pool_proj -> inception_5b/pool_proj (in-place)
I1130 06:15:07.717890 20300 net.cpp:122] Setting up inception_5b/relu_pool_proj
I1130 06:15:07.717895 20300 net.cpp:129] Top shape: 32 128 7 7 (200704)
I1130 06:15:07.717897 20300 net.cpp:137] Memory required for data: 1757966464
I1130 06:15:07.717900 20300 layer_factory.hpp:77] Creating layer inception_5b/output
I1130 06:15:07.717906 20300 net.cpp:84] Creating Layer inception_5b/output
I1130 06:15:07.717911 20300 net.cpp:406] inception_5b/output <- inception_5b/1x1
I1130 06:15:07.717914 20300 net.cpp:406] inception_5b/output <- inception_5b/3x3
I1130 06:15:07.717918 20300 net.cpp:406] inception_5b/output <- inception_5b/5x5
I1130 06:15:07.717922 20300 net.cpp:406] inception_5b/output <- inception_5b/pool_proj
I1130 06:15:07.717928 20300 net.cpp:380] inception_5b/output -> inception_5b/output
I1130 06:15:07.717952 20300 net.cpp:122] Setting up inception_5b/output
I1130 06:15:07.717959 20300 net.cpp:129] Top shape: 32 1024 7 7 (1605632)
I1130 06:15:07.717962 20300 net.cpp:137] Memory required for data: 1764388992
I1130 06:15:07.717965 20300 layer_factory.hpp:77] Creating layer pool5/7x7_s1
I1130 06:15:07.717972 20300 net.cpp:84] Creating Layer pool5/7x7_s1
I1130 06:15:07.717974 20300 net.cpp:406] pool5/7x7_s1 <- inception_5b/output
I1130 06:15:07.717980 20300 net.cpp:380] pool5/7x7_s1 -> pool5/7x7_s1
I1130 06:15:07.718003 20300 net.cpp:122] Setting up pool5/7x7_s1
I1130 06:15:07.718008 20300 net.cpp:129] Top shape: 32 1024 1 1 (32768)
I1130 06:15:07.718011 20300 net.cpp:137] Memory required for data: 1764520064
I1130 06:15:07.718014 20300 layer_factory.hpp:77] Creating layer pool5/drop_7x7_s1
I1130 06:15:07.718021 20300 net.cpp:84] Creating Layer pool5/drop_7x7_s1
I1130 06:15:07.718025 20300 net.cpp:406] pool5/drop_7x7_s1 <- pool5/7x7_s1
I1130 06:15:07.718031 20300 net.cpp:367] pool5/drop_7x7_s1 -> pool5/7x7_s1 (in-place)
I1130 06:15:07.718055 20300 net.cpp:122] Setting up pool5/drop_7x7_s1
I1130 06:15:07.718061 20300 net.cpp:129] Top shape: 32 1024 1 1 (32768)
I1130 06:15:07.718065 20300 net.cpp:137] Memory required for data: 1764651136
I1130 06:15:07.718068 20300 layer_factory.hpp:77] Creating layer fc_scv_polluted
I1130 06:15:07.718076 20300 net.cpp:84] Creating Layer fc_scv_polluted
I1130 06:15:07.718080 20300 net.cpp:406] fc_scv_polluted <- pool5/7x7_s1
I1130 06:15:07.718087 20300 net.cpp:380] fc_scv_polluted -> fc_scv_polluted
I1130 06:15:07.718185 20300 net.cpp:122] Setting up fc_scv_polluted
I1130 06:15:07.718194 20300 net.cpp:129] Top shape: 32 1 (32)
I1130 06:15:07.718197 20300 net.cpp:137] Memory required for data: 1764651264
I1130 06:15:07.718202 20300 layer_factory.hpp:77] Creating layer loss
I1130 06:15:07.718209 20300 net.cpp:84] Creating Layer loss
I1130 06:15:07.718212 20300 net.cpp:406] loss <- fc_scv_polluted
I1130 06:15:07.718216 20300 net.cpp:406] loss <- label
I1130 06:15:07.718224 20300 net.cpp:380] loss -> loss
I1130 06:15:07.718263 20300 net.cpp:122] Setting up loss
…
I1130 06:15:07.727468 20300 net.cpp:294] The NetState phase (1) differed from the phase (0) specified by a rule in layer data
I1130 06:15:07.728224 20300 net.cpp:51] Initializing net from parameters: 
name: "GoogleNet-Places365-SCV-Polluted"
state {
  phase: TEST
}
layer {
  name: "data"
  type: "Data"
  top: "data"
  top: "label"
  include {
    phase: TEST
  }
  transform_param {
    mirror: false
    crop_size: 224
    mean_file: "/idiap/temp/lmedina/fine-tuning/googlenet_places365/places365CNN_mean.binaryproto"
  }
  data_param {
    source: "/idiap/temp/lmedina/fine-tuning/data/Polluted/validation_lmdb"
    batch_size: 32
    backend: LMDB
  }
}
layer {
  name: "conv1/7x7_s2"
  type: "Convolution"
  bottom: "data"
  top: "conv1/7x7_s2"
  param {
    lr_mult: 1
    decay_mult: 1
  }
  param {
    lr_mult: 2
    decay_mult: 0
  }
  convolution_param {
    num_output: 64
    pad: 3
    kernel_size: 7
    stride: 2
    weight_filler {
      type: "xavier"
      std: 0.1
    }
    bias_filler {
      type: "constant"
      value: 0.2
    }
  }
}
layer {
  name: "conv1/relu_7x7"
  type: "ReLU"
  bottom: "conv1/7x7_s2"
  top: "conv1/7x7_s2"
}
layer {
  name: "pool1/3x3_s2"
  type: "Pooling"
  bottom: "conv1/7x7_s2"
  top: "pool1/3x3_s2"
  pooling_param {
    pool: MAX
    kernel_size: 3
    stride: 2
  }
}
layer {
  name: "pool1/norm1"
  type: "LRN"
  bottom: "pool1/3x3_s2"
  top: "pool1/norm1"
  lrn_param {
    local_size: 5
    alpha: 0.0001
    beta: 0.75
  }
}
layer {
  name: "conv2/3x3_reduce"
  type: "Convolution"
  bottom: "pool1/norm1"
  top: "conv2/3x3_reduce"
  param {
    lr_mult: 1
    decay_mult: 1
  }
  param {
    lr_mult: 2
    decay_mult: 0
  }
  convolution_param {
    num_output: 64
    kernel_size: 1
    weight_filler {
      type: "xavier"
      std: 0.1
    }
    bias_filler {
      type: "constant"
      value: 0.2
    }
  }
}
layer {
  name: "conv2/relu_3x3_reduce"
  type: "ReLU"
  bottom: "conv2/3x3_reduce"
  top: "conv2/3x3_reduce"
}
layer {
  name: "conv2/3x3"
  type: "Convolution"
  bottom: "conv2/3x3_reduce"
  top: "conv2/3x3"
  param {
    lr_mult: 1
    decay_mult: 1
  }
  param {
    lr_mult: 2
    decay_mult: 0
  }
  convolution_param {
    num_output: 192
    pad: 1
    kernel_size: 3
    weight_filler {
      type: "xavier"
      std: 0.03
    }
    bias_filler {
      type: "constant"
      value: 0.2
    }
  }
}
layer {
  name: "conv2/relu_3x3"
  type: "ReLU"
  bottom: "conv2/3x3"
  top: "conv2/3x3"
}
layer {
  name: "conv2/norm2"
  type: "LRN"
  bottom: "conv2/3x3"
  top: "conv2/norm2"
  lrn_param {
    local_size: 5
    alpha: 0.0001
    beta: 0.75
  }
}
layer {
  name: "pool2/3x3_s2"
  type: "Pooling"
  bottom: "conv2/norm2"
  top: "pool2/3x3_s2"
  pooling_param {
    pool: MAX
    kernel_size: 3
    stride: 2
  }
}
layer {
  name: "inception_3a/1x1"
  type: "Convolution"
  bottom: "pool2/3x3_s2"
  top: "inception_3a/1x1"
  param {
    lr_mult: 1
    decay_mult: 1
  }
  param {
    lr_mult: 2
    decay_mult: 0
  }
  convolution_param {
    num_output: 64
    kernel_size: 1
    weight_filler {
      type: "xavier"
      std: 0.03
    }
    bias_filler {
      type: "constant"
      value: 0.2
    }
  }
}
layer {
  name: "inception_3a/relu_1x1"
  type: "ReLU"
  bottom: "inception_3a/1x1"
  top: "inception_3a/1x1"
}
layer {
  name: "inception_3a/3x3_reduce"
  type: "Convolution"
  bottom: "pool2/3x3_s2"
  top: "inception_3a/3x3_reduce"
  param {
    lr_mult: 1
    decay_mult: 1
  }
  param {
    lr_mult: 2
    decay_mult: 0
  }
  convolution_param {
    num_output: 96
    kernel_size: 1
    weight_filler {
      type: "xavier"
      std: 0.09
    }
    bias_filler {
      type: "constant"
      value: 0.2
    }
  }
}
layer {
  name: "inception_3a/relu_3x3_reduce"
  type: "ReLU"
  bottom: "inception_3a/3x3_reduce"
  top: "inception_3a/3x3_reduce"
}
layer {
  name: "inception_3a/3x3"
  type: "Convolution"
  bottom: "inception_3a/3x3_reduce"
  top: "inception_3a/3x3"
  param {
    lr_mult: 1
    decay_mult: 1
  }
  param {
    lr_mult: 2
    decay_mult: 0
  }
  convolution_param {
    num_output: 128
    pad: 1
    kernel_size: 3
    weight_filler {
      type: "xavier"
      std: 0.03
    }
    bias_filler {
      type: "constant"
      value: 0.2
    }
  }
}
layer {
  name: "inception_3a/relu_3x3"
  type: "ReLU"
  bottom: "inception_3a/3x3"
  top: "inception_3a/3x3"
}
layer {
  name: "inception_3a/5x5_reduce"
  type: "Convolution"
  bottom: "pool2/3x3_s2"
  top: "inception_3a/5x5_reduce"
  param {
    lr_mult: 1
    decay_mult: 1
  }
  param {
    lr_mult: 2
    decay_mult: 0
  }
  convolution_param {
    num_output: 16
    kernel_size: 1
    weight_filler {
      type: "xavier"
      std: 0.2
    }
    bias_filler {
      type: "constant"
      value: 0.2
    }
  }
}
layer {
  name: "inception_3a/relu_5x5_reduce"
  type: "ReLU"
  bottom: "inception_3a/5x5_reduce"
  top: "inception_3a/5x5_reduce"
}
layer {
  name: "inception_3a/5x5"
  type: "Convolution"
  bottom: "inception_3a/5x5_reduce"
  top: "inception_3a/5x5"
  param {
    lr_mult: 1
    decay_mult: 1
  }
  param {
    lr_mult: 2
    decay_mult: 0
  }
  convolution_param {
    num_output: 32
    pad: 2
    kernel_size: 5
    weight_filler {
      type: "xavier"
      std: 0.03
    }
    bias_filler {
      type: "constant"
      value: 0.2
    }
  }
}
layer {
  name: "inception_3a/relu_5x5"
  type: "ReLU"
  bottom: "inception_3a/5x5"
  top: "inception_3a/5x5"
}
layer {
  name: "inception_3a/pool"
  type: "Pooling"
  bottom: "pool2/3x3_s2"
  top: "inception_3a/pool"
  pooling_param {
    pool: MAX
    kernel_size: 3
    stride: 1
    pad: 1
  }
}
layer {
  name: "inception_3a/pool_proj"
  type: "Convolution"
  bottom: "inception_3a/pool"
  top: "inception_3a/pool_proj"
  param {
    lr_mult: 1
    decay_mult: 1
  }
  param {
    lr_mult: 2
    decay_mult: 0
  }
  convolution_param {
    num_output: 32
    kernel_size: 1
    weight_filler {
      type: "xavier"
      std: 0.1
    }
    bias_filler {
      type: "constant"
      value: 0.2
    }
  }
}
layer {
  name: "inception_3a/relu_pool_proj"
  type: "ReLU"
  bottom: "inception_3a/pool_proj"
  top: "inception_3a/pool_proj"
}
layer {
  name: "inception_3a/output"
  type: "Concat"
  bottom: "inception_3a/1x1"
  bottom: "inception_3a/3x3"
  bottom: "inception_3a/5x5"
  bottom: "inception_3a/pool_proj"
  top: "inception_3a/output"
}
layer {
  name: "inception_3b/1x1"
  type: "Convolution"
  bottom: "inception_3a/output"
  top: "inception_3b/1x1"
  param {
    lr_mult: 1
    decay_mult: 1
  }
  param {
    lr_mult: 2
    decay_mult: 0
  }
  convolution_param {
    num_output: 128
    kernel_size: 1
    weight_filler {
      type: "xavier"
      std: 0.03
    }
    bias_filler {
      type: "constant"
      value: 0.2
    }
  }
}
layer {
  name: "inception_3b/relu_1x1"
  type: "ReLU"
  bottom: "inception_3b/1x1"
  top: "inception_3b/1x1"
}
layer {
  name: "inception_3b/3x3_reduce"
  type: "Convolution"
  bottom: "inception_3a/output"
  top: "inception_3b/3x3_reduce"
  param {
    lr_mult: 1
    decay_mult: 1
  }
  param {
    lr_mult: 2
    decay_mult: 0
  }
  convolution_param {
    num_output: 128
    kernel_size: 1
    weight_filler {
      type: "xavier"
      std: 0.09
    }
    bias_filler {
      type: "constant"
      value: 0.2
    }
  }
}
layer {
  name: "inception_3b/relu_3x3_reduce"
  type: "ReLU"
  bottom: "inception_3b/3x3_reduce"
  top: "inception_3b/3x3_reduce"
}
layer {
  name: "inception_3b/3x3"
  type: "Convolution"
  bottom: "inception_3b/3x3_reduce"
  top: "inception_3b/3x3"
  param {
    lr_mult: 1
    decay_mult: 1
  }
  param {
    lr_mult: 2
    decay_mult: 0
  }
  convolution_param {
    num_output: 192
    pad: 1
    kernel_size: 3
    weight_filler {
      type: "xavier"
      std: 0.03
    }
    bias_filler {
      type: "constant"
      value: 0.2
    }
  }
}
layer {
  name: "inception_3b/relu_3x3"
  type: "ReLU"
  bottom: "inception_3b/3x3"
  top: "inception_3b/3x3"
}
layer {
  name: "inception_3b/5x5_reduce"
  type: "Convolution"
  bottom: "inception_3a/output"
  top: "inception_3b/5x5_reduce"
  param {
    lr_mult: 1
    decay_mult: 1
  }
  param {
    lr_mult: 2
    decay_mult: 0
  }
  convolution_param {
    num_output: 32
    kernel_size: 1
    weight_filler {
      type: "xavier"
      std: 0.2
    }
    bias_filler {
      type: "constant"
      value: 0.2
    }
  }
}
layer {
  name: "inception_3b/relu_5x5_reduce"
  type: "ReLU"
  bottom: "inception_3b/5x5_reduce"
  top: "inception_3b/5x5_reduce"
}
layer {
  name: "inception_3b/5x5"
  type: "Convolution"
  bottom: "inception_3b/5x5_reduce"
  top: "inception_3b/5x5"
  param {
    lr_mult: 1
    decay_mult: 1
  }
  param {
    lr_mult: 2
    decay_mult: 0
  }
  convolution_param {
    num_output: 96
    pad: 2
    kernel_size: 5
    weight_filler {
      type: "xavier"
      std: 0.03
    }
    bias_filler {
      type: "constant"
      value: 0.2
    }
  }
}
layer {
  name: "inception_3b/relu_5x5"
  type: "ReLU"
  bottom: "inception_3b/5x5"
  top: "inception_3b/5x5"
}
layer {
  name: "inception_3b/pool"
  type: "Pooling"
  bottom: "inception_3a/output"
  top: "inception_3b/pool"
  pooling_param {
    pool: MAX
    kernel_size: 3
    stride: 1
    pad: 1
  }
}
layer {
  name: "inception_3b/pool_proj"
  type: "Convolution"
  bottom: "inception_3b/pool"
  top: "inception_3b/pool_proj"
  param {
    lr_mult: 1
    decay_mult: 1
  }
  param {
    lr_mult: 2
    decay_mult: 0
  }
  convolution_param {
    num_output: 64
    kernel_size: 1
    weight_filler {
      type: "xavier"
      std: 0.1
    }
    bias_filler {
      type: "constant"
      value: 0.2
    }
  }
}
layer {
  name: "inception_3b/relu_pool_proj"
  type: "ReLU"
  bottom: "inception_3b/pool_proj"
  top: "inception_3b/pool_proj"
}
layer {
  name: "inception_3b/output"
  type: "Concat"
  bottom: "inception_3b/1x1"
  bottom: "inception_3b/3x3"
  bottom: "inception_3b/5x5"
  bottom: "inception_3b/pool_proj"
  top: "inception_3b/output"
}
layer {
  name: "pool3/3x3_s2"
  type: "Pooling"
  bottom: "inception_3b/output"
  top: "pool3/3x3_s2"
  pooling_param {
    pool: MAX
    kernel_size: 3
    stride: 2
  }
}
layer {
  name: "inception_4a/1x1"
  type: "Convolution"
  bottom: "pool3/3x3_s2"
  top: "inception_4a/1x1"
  param {
    lr_mult: 1
    decay_mult: 1
  }
  param {
    lr_mult: 2
    decay_mult: 0
  }
  convolution_param {
    num_output: 192
    kernel_size: 1
    weight_filler {
      type: "xavier"
      std: 0.03
    }
    bias_filler {
      type: "constant"
      value: 0.2
    }
  }
}
layer {
  name: "inception_4a/relu_1x1"
  type: "ReLU"
  bottom: "inception_4a/1x1"
  top: "inception_4a/1x1"
}
layer {
  name: "inception_4a/3x3_reduce"
  type: "Convolution"
  bottom: "pool3/3x3_s2"
  top: "inception_4a/3x3_reduce"
  param {
    lr_mult: 1
    decay_mult: 1
  }
  param {
    lr_mult: 2
    decay_mult: 0
  }
  convolution_param {
    num_output: 96
    kernel_size: 1
    weight_filler {
      type: "xavier"
      std: 0.09
    }
    bias_filler {
      type: "constant"
      value: 0.2
    }
  }
}
layer {
  name: "inception_4a/relu_3x3_reduce"
  type: "ReLU"
  bottom: "inception_4a/3x3_reduce"
  top: "inception_4a/3x3_reduce"
}
layer {
  name: "inception_4a/3x3"
  type: "Convolution"
  bottom: "inception_4a/3x3_reduce"
  top: "inception_4a/3x3"
  param {
    lr_mult: 1
    decay_mult: 1
  }
  param {
    lr_mult: 2
    decay_mult: 0
  }
  convolution_param {
    num_output: 208
    pad: 1
    kernel_size: 3
    weight_filler {
      type: "xavier"
      std: 0.03
    }
    bias_filler {
      type: "constant"
      value: 0.2
    }
  }
}
layer {
  name: "inception_4a/relu_3x3"
  type: "ReLU"
  bottom: "inception_4a/3x3"
  top: "inception_4a/3x3"
}
layer {
  name: "inception_4a/5x5_reduce"
  type: "Convolution"
  bottom: "pool3/3x3_s2"
  top: "inception_4a/5x5_reduce"
  param {
    lr_mult: 1
    decay_mult: 1
  }
  param {
    lr_mult: 2
    decay_mult: 0
  }
  convolution_param {
    num_output: 16
    kernel_size: 1
    weight_filler {
      type: "xavier"
      std: 0.2
    }
    bias_filler {
      type: "constant"
      value: 0.2
    }
  }
}
layer {
  name: "inception_4a/relu_5x5_reduce"
  type: "ReLU"
  bottom: "inception_4a/5x5_reduce"
  top: "inception_4a/5x5_reduce"
}
layer {
  name: "inception_4a/5x5"
  type: "Convolution"
  bottom: "inception_4a/5x5_reduce"
  top: "inception_4a/5x5"
  param {
    lr_mult: 1
    decay_mult: 1
  }
  param {
    lr_mult: 2
    decay_mult: 0
  }
  convolution_param {
    num_output: 48
    pad: 2
    kernel_size: 5
    weight_filler {
      type: "xavier"
      std: 0.03
    }
    bias_filler {
      type: "constant"
      value: 0.2
    }
  }
}
layer {
  name: "inception_4a/relu_5x5"
  type: "ReLU"
  bottom: "inception_4a/5x5"
  top: "inception_4a/5x5"
}
layer {
  name: "inception_4a/pool"
  type: "Pooling"
  bottom: "pool3/3x3_s2"
  top: "inception_4a/pool"
  pooling_param {
    pool: MAX
    kernel_size: 3
    stride: 1
    pad: 1
  }
}
layer {
  name: "inception_4a/pool_proj"
  type: "Convolution"
  bottom: "inception_4a/pool"
  top: "inception_4a/pool_proj"
  param {
    lr_mult: 1
    decay_mult: 1
  }
  param {
    lr_mult: 2
    decay_mult: 0
  }
  convolution_param {
    num_output: 64
    kernel_size: 1
    weight_filler {
      type: "xavier"
      std: 0.1
    }
    bias_filler {
      type: "constant"
      value: 0.2
    }
  }
}
layer {
  name: "inception_4a/relu_pool_proj"
  type: "ReLU"
  bottom: "inception_4a/pool_proj"
  top: "inception_4a/pool_proj"
}
layer {
  name: "inception_4a/output"
  type: "Concat"
  bottom: "inception_4a/1x1"
  bottom: "inception_4a/3x3"
  bottom: "inception_4a/5x5"
  bottom: "inception_4a/pool_proj"
  top: "inception_4a/output"
}
layer {
  name: "inception_4b/1x1"
  type: "Convolution"
  bottom: "inception_4a/output"
  top: "inception_4b/1x1"
  param {
    lr_mult: 1
    decay_mult: 1
  }
  param {
    lr_mult: 2
    decay_mult: 0
  }
  convolution_param {
    num_output: 160
    kernel_size: 1
    weight_filler {
      type: "xavier"
      std: 0.03
    }
    bias_filler {
      type: "constant"
      value: 0.2
    }
  }
}
layer {
  name: "inception_4b/relu_1x1"
  type: "ReLU"
  bottom: "inception_4b/1x1"
  top: "inception_4b/1x1"
}
layer {
  name: "inception_4b/3x3_reduce"
  type: "Convolution"
  bottom: "inception_4a/output"
  top: "inception_4b/3x3_reduce"
  param {
    lr_mult: 1
    decay_mult: 1
  }
  param {
    lr_mult: 2
    decay_mult: 0
  }
  convolution_param {
    num_output: 112
    kernel_size: 1
    weight_filler {
      type: "xavier"
      std: 0.09
    }
    bias_filler {
      type: "constant"
      value: 0.2
    }
  }
}
layer {
  name: "inception_4b/relu_3x3_reduce"
  type: "ReLU"
  bottom: "inception_4b/3x3_reduce"
  top: "inception_4b/3x3_reduce"
}
layer {
  name: "inception_4b/3x3"
  type: "Convolution"
  bottom: "inception_4b/3x3_reduce"
  top: "inception_4b/3x3"
  param {
    lr_mult: 1
    decay_mult: 1
  }
  param {
    lr_mult: 2
    decay_mult: 0
  }
  convolution_param {
    num_output: 224
    pad: 1
    kernel_size: 3
    weight_filler {
      type: "xavier"
      std: 0.03
    }
    bias_filler {
      type: "constant"
      value: 0.2
    }
  }
}
layer {
  name: "inception_4b/relu_3x3"
  type: "ReLU"
  bottom: "inception_4b/3x3"
  top: "inception_4b/3x3"
}
layer {
  name: "inception_4b/5x5_reduce"
  type: "Convolution"
  bottom: "inception_4a/output"
  top: "inception_4b/5x5_reduce"
  param {
    lr_mult: 1
    decay_mult: 1
  }
  param {
    lr_mult: 2
    decay_mult: 0
  }
  convolution_param {
    num_output: 24
    kernel_size: 1
    weight_filler {
      type: "xavier"
      std: 0.2
    }
    bias_filler {
      type: "constant"
      value: 0.2
    }
  }
}
layer {
  name: "inception_4b/relu_5x5_reduce"
  type: "ReLU"
  bottom: "inception_4b/5x5_reduce"
  top: "inception_4b/5x5_reduce"
}
layer {
  name: "inception_4b/5x5"
  type: "Convolution"
  bottom: "inception_4b/5x5_reduce"
  top: "inception_4b/5x5"
  param {
    lr_mult: 1
    decay_mult: 1
  }
  param {
    lr_mult: 2
    decay_mult: 0
  }
  convolution_param {
    num_output: 64
    pad: 2
    kernel_size: 5
    weight_filler {
      type: "xavier"
      std: 0.03
    }
    bias_filler {
      type: "constant"
      value: 0.2
    }
  }
}
layer {
  name: "inception_4b/relu_5x5"
  type: "ReLU"
  bottom: "inception_4b/5x5"
  top: "inception_4b/5x5"
}
layer {
  name: "inception_4b/pool"
  type: "Pooling"
  bottom: "inception_4a/output"
  top: "inception_4b/pool"
  pooling_param {
    pool: MAX
    kernel_size: 3
    stride: 1
    pad: 1
  }
}
layer {
  name: "inception_4b/pool_proj"
  type: "Convolution"
  bottom: "inception_4b/pool"
  top: "inception_4b/pool_proj"
  param {
    lr_mult: 1
    decay_mult: 1
  }
  param {
    lr_mult: 2
    decay_mult: 0
  }
  convolution_param {
    num_output: 64
    kernel_size: 1
    weight_filler {
      type: "xavier"
      std: 0.1
    }
    bias_filler {
      type: "constant"
      value: 0.2
    }
  }
}
layer {
  name: "inception_4b/relu_pool_proj"
  type: "ReLU"
  bottom: "inception_4b/pool_proj"
  top: "inception_4b/pool_proj"
}
layer {
  name: "inception_4b/output"
  type: "Concat"
  bottom: "inception_4b/1x1"
  bottom: "inception_4b/3x3"
  bottom: "inception_4b/5x5"
  bottom: "inception_4b/pool_proj"
  top: "inception_4b/output"
}
layer {
  name: "inception_4c/1x1"
  type: "Convolution"
  bottom: "inception_4b/output"
  top: "inception_4c/1x1"
  param {
    lr_mult: 1
    decay_mult: 1
  }
  param {
    lr_mult: 2
    decay_mult: 0
  }
  convolution_param {
    num_output: 128
    kernel_size: 1
    weight_filler {
      type: "xavier"
      std: 0.03
    }
    bias_filler {
      type: "constant"
      value: 0.2
    }
  }
}
layer {
  name: "inception_4c/relu_1x1"
  type: "ReLU"
  bottom: "inception_4c/1x1"
  top: "inception_4c/1x1"
}
layer {
  name: "inception_4c/3x3_reduce"
  type: "Convolution"
  bottom: "inception_4b/output"
  top: "inception_4c/3x3_reduce"
  param {
    lr_mult: 1
    decay_mult: 1
  }
  param {
    lr_mult: 2
    decay_mult: 0
  }
  convolution_param {
    num_output: 128
    kernel_size: 1
    weight_filler {
      type: "xavier"
      std: 0.09
    }
    bias_filler {
      type: "constant"
      value: 0.2
    }
  }
}
layer {
  name: "inception_4c/relu_3x3_reduce"
  type: "ReLU"
  bottom: "inception_4c/3x3_reduce"
  top: "inception_4c/3x3_reduce"
}
layer {
  name: "inception_4c/3x3"
  type: "Convolution"
  bottom: "inception_4c/3x3_reduce"
  top: "inception_4c/3x3"
  param {
    lr_mult: 1
    decay_mult: 1
  }
  param {
    lr_mult: 2
    decay_mult: 0
  }
  convolution_param {
    num_output: 256
    pad: 1
    kernel_size: 3
    weight_filler {
      type: "xavier"
      std: 0.03
    }
    bias_filler {
      type: "constant"
      value: 0.2
    }
  }
}
layer {
  name: "inception_4c/relu_3x3"
  type: "ReLU"
  bottom: "inception_4c/3x3"
  top: "inception_4c/3x3"
}
layer {
  name: "inception_4c/5x5_reduce"
  type: "Convolution"
  bottom: "inception_4b/output"
  top: "inception_4c/5x5_reduce"
  param {
    lr_mult: 1
    decay_mult: 1
  }
  param {
    lr_mult: 2
    decay_mult: 0
  }
  convolution_param {
    num_output: 24
    kernel_size: 1
    weight_filler {
      type: "xavier"
      std: 0.2
    }
    bias_filler {
      type: "constant"
      value: 0.2
    }
  }
}
layer {
  name: "inception_4c/relu_5x5_reduce"
  type: "ReLU"
  bottom: "inception_4c/5x5_reduce"
  top: "inception_4c/5x5_reduce"
}
layer {
  name: "inception_4c/5x5"
  type: "Convolution"
  bottom: "inception_4c/5x5_reduce"
  top: "inception_4c/5x5"
  param {
    lr_mult: 1
    decay_mult: 1
  }
  param {
    lr_mult: 2
    decay_mult: 0
  }
  convolution_param {
    num_output: 64
    pad: 2
    kernel_size: 5
    weight_filler {
      type: "xavier"
      std: 0.03
    }
    bias_filler {
      type: "constant"
      value: 0.2
    }
  }
}
layer {
  name: "inception_4c/relu_5x5"
  type: "ReLU"
  bottom: "inception_4c/5x5"
  top: "inception_4c/5x5"
}
layer {
  name: "inception_4c/pool"
  type: "Pooling"
  bottom: "inception_4b/output"
  top: "inception_4c/pool"
  pooling_param {
    pool: MAX
    kernel_size: 3
    stride: 1
    pad: 1
  }
}
layer {
  name: "inception_4c/pool_proj"
  type: "Convolution"
  bottom: "inception_4c/pool"
  top: "inception_4c/pool_proj"
  param {
    lr_mult: 1
    decay_mult: 1
  }
  param {
    lr_mult: 2
    decay_mult: 0
  }
  convolution_param {
    num_output: 64
    kernel_size: 1
    weight_filler {
      type: "xavier"
      std: 0.1
    }
    bias_filler {
      type: "constant"
      value: 0.2
    }
  }
}
layer {
  name: "inception_4c/relu_pool_proj"
  type: "ReLU"
  bottom: "inception_4c/pool_proj"
  top: "inception_4c/pool_proj"
}
layer {
  name: "inception_4c/output"
  type: "Concat"
  bottom: "inception_4c/1x1"
  bottom: "inception_4c/3x3"
  bottom: "inception_4c/5x5"
  bottom: "inception_4c/pool_proj"
  top: "inception_4c/output"
}
layer {
  name: "inception_4d/1x1"
  type: "Convolution"
  bottom: "inception_4c/output"
  top: "inception_4d/1x1"
  param {
    lr_mult: 1
    decay_mult: 1
  }
  param {
    lr_mult: 2
    decay_mult: 0
  }
  convolution_param {
    num_output: 112
    kernel_size: 1
    weight_filler {
      type: "xavier"
      std: 0.03
    }
    bias_filler {
      type: "constant"
      value: 0.2
    }
  }
}
layer {
  name: "inception_4d/relu_1x1"
  type: "ReLU"
  bottom: "inception_4d/1x1"
  top: "inception_4d/1x1"
}
layer {
  name: "inception_4d/3x3_reduce"
  type: "Convolution"
  bottom: "inception_4c/output"
  top: "inception_4d/3x3_reduce"
  param {
    lr_mult: 1
    decay_mult: 1
  }
  param {
    lr_mult: 2
    decay_mult: 0
  }
  convolution_param {
    num_output: 144
    kernel_size: 1
    weight_filler {
      type: "xavier"
      std: 0.09
    }
    bias_filler {
      type: "constant"
      value: 0.2
    }
  }
}
layer {
  name: "inception_4d/relu_3x3_reduce"
  type: "ReLU"
  bottom: "inception_4d/3x3_reduce"
  top: "inception_4d/3x3_reduce"
}
layer {
  name: "inception_4d/3x3"
  type: "Convolution"
  bottom: "inception_4d/3x3_reduce"
  top: "inception_4d/3x3"
  param {
    lr_mult: 1
    decay_mult: 1
  }
  param {
    lr_mult: 2
    decay_mult: 0
  }
  convolution_param {
    num_output: 288
    pad: 1
    kernel_size: 3
    weight_filler {
      type: "xavier"
      std: 0.03
    }
    bias_filler {
      type: "constant"
      value: 0.2
    }
  }
}
layer {
  name: "inception_4d/relu_3x3"
  type: "ReLU"
  bottom: "inception_4d/3x3"
  top: "inception_4d/3x3"
}
layer {
  name: "inception_4d/5x5_reduce"
  type: "Convolution"
  bottom: "inception_4c/output"
  top: "inception_4d/5x5_reduce"
  param {
    lr_mult: 1
    decay_mult: 1
  }
  param {
    lr_mult: 2
    decay_mult: 0
  }
  convolution_param {
    num_output: 32
    kernel_size: 1
    weight_filler {
      type: "xavier"
      std: 0.2
    }
    bias_filler {
      type: "constant"
      value: 0.2
    }
  }
}
layer {
  name: "inception_4d/relu_5x5_reduce"
  type: "ReLU"
  bottom: "inception_4d/5x5_reduce"
  top: "inception_4d/5x5_reduce"
}
layer {
  name: "inception_4d/5x5"
  type: "Convolution"
  bottom: "inception_4d/5x5_reduce"
  top: "inception_4d/5x5"
  param {
    lr_mult: 1
    decay_mult: 1
  }
  param {
    lr_mult: 2
    decay_mult: 0
  }
  convolution_param {
    num_output: 64
    pad: 2
    kernel_size: 5
    weight_filler {
      type: "xavier"
      std: 0.03
    }
    bias_filler {
      type: "constant"
      value: 0.2
    }
  }
}
layer {
  name: "inception_4d/relu_5x5"
  type: "ReLU"
  bottom: "inception_4d/5x5"
  top: "inception_4d/5x5"
}
layer {
  name: "inception_4d/pool"
  type: "Pooling"
  bottom: "inception_4c/output"
  top: "inception_4d/pool"
  pooling_param {
    pool: MAX
    kernel_size: 3
    stride: 1
    pad: 1
  }
}
layer {
  name: "inception_4d/pool_proj"
  type: "Convolution"
  bottom: "inception_4d/pool"
  top: "inception_4d/pool_proj"
  param {
    lr_mult: 1
    decay_mult: 1
  }
  param {
    lr_mult: 2
    decay_mult: 0
  }
  convolution_param {
    num_output: 64
    kernel_size: 1
    weight_filler {
      type: "xavier"
      std: 0.1
    }
    bias_filler {
      type: "constant"
      value: 0.2
    }
  }
}
layer {
  name: "inception_4d/relu_pool_proj"
  type: "ReLU"
  bottom: "inception_4d/pool_proj"
  top: "inception_4d/pool_proj"
}
layer {
  name: "inception_4d/output"
  type: "Concat"
  bottom: "inception_4d/1x1"
  bottom: "inception_4d/3x3"
…
I1130 06:15:07.867336 20300 net.cpp:84] Creating Layer inception_4c/1x1
I1130 06:15:07.867341 20300 net.cpp:406] inception_4c/1x1 <- inception_4b/output_inception_4b/output_0_split_0
I1130 06:15:07.867350 20300 net.cpp:380] inception_4c/1x1 -> inception_4c/1x1
I1130 06:15:07.868067 20300 net.cpp:122] Setting up inception_4c/1x1
I1130 06:15:07.868078 20300 net.cpp:129] Top shape: 32 128 14 14 (802816)
I1130 06:15:07.868083 20300 net.cpp:137] Memory required for data: 1359569280
I1130 06:15:07.868089 20300 layer_factory.hpp:77] Creating layer inception_4c/relu_1x1
I1130 06:15:07.868096 20300 net.cpp:84] Creating Layer inception_4c/relu_1x1
I1130 06:15:07.868101 20300 net.cpp:406] inception_4c/relu_1x1 <- inception_4c/1x1
I1130 06:15:07.868110 20300 net.cpp:367] inception_4c/relu_1x1 -> inception_4c/1x1 (in-place)
I1130 06:15:07.868119 20300 net.cpp:122] Setting up inception_4c/relu_1x1
I1130 06:15:07.868124 20300 net.cpp:129] Top shape: 32 128 14 14 (802816)
I1130 06:15:07.868129 20300 net.cpp:137] Memory required for data: 1362780544
I1130 06:15:07.868132 20300 layer_factory.hpp:77] Creating layer inception_4c/3x3_reduce
I1130 06:15:07.868144 20300 net.cpp:84] Creating Layer inception_4c/3x3_reduce
I1130 06:15:07.868149 20300 net.cpp:406] inception_4c/3x3_reduce <- inception_4b/output_inception_4b/output_0_split_1
I1130 06:15:07.868155 20300 net.cpp:380] inception_4c/3x3_reduce -> inception_4c/3x3_reduce
I1130 06:15:07.868861 20300 net.cpp:122] Setting up inception_4c/3x3_reduce
I1130 06:15:07.868871 20300 net.cpp:129] Top shape: 32 128 14 14 (802816)
I1130 06:15:07.868875 20300 net.cpp:137] Memory required for data: 1365991808
I1130 06:15:07.868882 20300 layer_factory.hpp:77] Creating layer inception_4c/relu_3x3_reduce
I1130 06:15:07.868890 20300 net.cpp:84] Creating Layer inception_4c/relu_3x3_reduce
I1130 06:15:07.868894 20300 net.cpp:406] inception_4c/relu_3x3_reduce <- inception_4c/3x3_reduce
I1130 06:15:07.868901 20300 net.cpp:367] inception_4c/relu_3x3_reduce -> inception_4c/3x3_reduce (in-place)
I1130 06:15:07.868908 20300 net.cpp:122] Setting up inception_4c/relu_3x3_reduce
I1130 06:15:07.868913 20300 net.cpp:129] Top shape: 32 128 14 14 (802816)
I1130 06:15:07.868917 20300 net.cpp:137] Memory required for data: 1369203072
I1130 06:15:07.868921 20300 layer_factory.hpp:77] Creating layer inception_4c/3x3
I1130 06:15:07.868932 20300 net.cpp:84] Creating Layer inception_4c/3x3
I1130 06:15:07.868937 20300 net.cpp:406] inception_4c/3x3 <- inception_4c/3x3_reduce
I1130 06:15:07.868944 20300 net.cpp:380] inception_4c/3x3 -> inception_4c/3x3
I1130 06:15:07.871664 20300 net.cpp:122] Setting up inception_4c/3x3
I1130 06:15:07.871677 20300 net.cpp:129] Top shape: 32 256 14 14 (1605632)
I1130 06:15:07.871681 20300 net.cpp:137] Memory required for data: 1375625600
I1130 06:15:07.871688 20300 layer_factory.hpp:77] Creating layer inception_4c/relu_3x3
I1130 06:15:07.871697 20300 net.cpp:84] Creating Layer inception_4c/relu_3x3
I1130 06:15:07.871703 20300 net.cpp:406] inception_4c/relu_3x3 <- inception_4c/3x3
I1130 06:15:07.871717 20300 net.cpp:367] inception_4c/relu_3x3 -> inception_4c/3x3 (in-place)
I1130 06:15:07.871726 20300 net.cpp:122] Setting up inception_4c/relu_3x3
I1130 06:15:07.871733 20300 net.cpp:129] Top shape: 32 256 14 14 (1605632)
I1130 06:15:07.871737 20300 net.cpp:137] Memory required for data: 1382048128
I1130 06:15:07.871740 20300 layer_factory.hpp:77] Creating layer inception_4c/5x5_reduce
I1130 06:15:07.871762 20300 net.cpp:84] Creating Layer inception_4c/5x5_reduce
I1130 06:15:07.871767 20300 net.cpp:406] inception_4c/5x5_reduce <- inception_4b/output_inception_4b/output_0_split_2
I1130 06:15:07.871771 20300 net.cpp:380] inception_4c/5x5_reduce -> inception_4c/5x5_reduce
I1130 06:15:07.872056 20300 net.cpp:122] Setting up inception_4c/5x5_reduce
I1130 06:15:07.872064 20300 net.cpp:129] Top shape: 32 24 14 14 (150528)
I1130 06:15:07.872067 20300 net.cpp:137] Memory required for data: 1382650240
I1130 06:15:07.872072 20300 layer_factory.hpp:77] Creating layer inception_4c/relu_5x5_reduce
I1130 06:15:07.872078 20300 net.cpp:84] Creating Layer inception_4c/relu_5x5_reduce
I1130 06:15:07.872082 20300 net.cpp:406] inception_4c/relu_5x5_reduce <- inception_4c/5x5_reduce
I1130 06:15:07.872087 20300 net.cpp:367] inception_4c/relu_5x5_reduce -> inception_4c/5x5_reduce (in-place)
I1130 06:15:07.872092 20300 net.cpp:122] Setting up inception_4c/relu_5x5_reduce
I1130 06:15:07.872097 20300 net.cpp:129] Top shape: 32 24 14 14 (150528)
I1130 06:15:07.872100 20300 net.cpp:137] Memory required for data: 1383252352
I1130 06:15:07.872102 20300 layer_factory.hpp:77] Creating layer inception_4c/5x5
I1130 06:15:07.872110 20300 net.cpp:84] Creating Layer inception_4c/5x5
I1130 06:15:07.872114 20300 net.cpp:406] inception_4c/5x5 <- inception_4c/5x5_reduce
I1130 06:15:07.872120 20300 net.cpp:380] inception_4c/5x5 -> inception_4c/5x5
I1130 06:15:07.872534 20300 net.cpp:122] Setting up inception_4c/5x5
I1130 06:15:07.872542 20300 net.cpp:129] Top shape: 32 64 14 14 (401408)
I1130 06:15:07.872546 20300 net.cpp:137] Memory required for data: 1384857984
I1130 06:15:07.872551 20300 layer_factory.hpp:77] Creating layer inception_4c/relu_5x5
I1130 06:15:07.872556 20300 net.cpp:84] Creating Layer inception_4c/relu_5x5
I1130 06:15:07.872560 20300 net.cpp:406] inception_4c/relu_5x5 <- inception_4c/5x5
I1130 06:15:07.872566 20300 net.cpp:367] inception_4c/relu_5x5 -> inception_4c/5x5 (in-place)
I1130 06:15:07.872571 20300 net.cpp:122] Setting up inception_4c/relu_5x5
I1130 06:15:07.872576 20300 net.cpp:129] Top shape: 32 64 14 14 (401408)
I1130 06:15:07.872579 20300 net.cpp:137] Memory required for data: 1386463616
I1130 06:15:07.872582 20300 layer_factory.hpp:77] Creating layer inception_4c/pool
I1130 06:15:07.872587 20300 net.cpp:84] Creating Layer inception_4c/pool
I1130 06:15:07.872591 20300 net.cpp:406] inception_4c/pool <- inception_4b/output_inception_4b/output_0_split_3
I1130 06:15:07.872597 20300 net.cpp:380] inception_4c/pool -> inception_4c/pool
I1130 06:15:07.872633 20300 net.cpp:122] Setting up inception_4c/pool
I1130 06:15:07.872640 20300 net.cpp:129] Top shape: 32 512 14 14 (3211264)
I1130 06:15:07.872643 20300 net.cpp:137] Memory required for data: 1399308672
I1130 06:15:07.872647 20300 layer_factory.hpp:77] Creating layer inception_4c/pool_proj
I1130 06:15:07.872654 20300 net.cpp:84] Creating Layer inception_4c/pool_proj
I1130 06:15:07.872658 20300 net.cpp:406] inception_4c/pool_proj <- inception_4c/pool
I1130 06:15:07.872665 20300 net.cpp:380] inception_4c/pool_proj -> inception_4c/pool_proj
I1130 06:15:07.873100 20300 net.cpp:122] Setting up inception_4c/pool_proj
I1130 06:15:07.873108 20300 net.cpp:129] Top shape: 32 64 14 14 (401408)
I1130 06:15:07.873111 20300 net.cpp:137] Memory required for data: 1400914304
I1130 06:15:07.873128 20300 layer_factory.hpp:77] Creating layer inception_4c/relu_pool_proj
I1130 06:15:07.873134 20300 net.cpp:84] Creating Layer inception_4c/relu_pool_proj
I1130 06:15:07.873138 20300 net.cpp:406] inception_4c/relu_pool_proj <- inception_4c/pool_proj
I1130 06:15:07.873144 20300 net.cpp:367] inception_4c/relu_pool_proj -> inception_4c/pool_proj (in-place)
I1130 06:15:07.873150 20300 net.cpp:122] Setting up inception_4c/relu_pool_proj
I1130 06:15:07.873155 20300 net.cpp:129] Top shape: 32 64 14 14 (401408)
I1130 06:15:07.873157 20300 net.cpp:137] Memory required for data: 1402519936
I1130 06:15:07.873160 20300 layer_factory.hpp:77] Creating layer inception_4c/output
I1130 06:15:07.873165 20300 net.cpp:84] Creating Layer inception_4c/output
I1130 06:15:07.873169 20300 net.cpp:406] inception_4c/output <- inception_4c/1x1
I1130 06:15:07.873173 20300 net.cpp:406] inception_4c/output <- inception_4c/3x3
I1130 06:15:07.873176 20300 net.cpp:406] inception_4c/output <- inception_4c/5x5
I1130 06:15:07.873181 20300 net.cpp:406] inception_4c/output <- inception_4c/pool_proj
I1130 06:15:07.873185 20300 net.cpp:380] inception_4c/output -> inception_4c/output
I1130 06:15:07.873209 20300 net.cpp:122] Setting up inception_4c/output
I1130 06:15:07.873217 20300 net.cpp:129] Top shape: 32 512 14 14 (3211264)
I1130 06:15:07.873220 20300 net.cpp:137] Memory required for data: 1415364992
I1130 06:15:07.873222 20300 layer_factory.hpp:77] Creating layer inception_4c/output_inception_4c/output_0_split
I1130 06:15:07.873227 20300 net.cpp:84] Creating Layer inception_4c/output_inception_4c/output_0_split
I1130 06:15:07.873230 20300 net.cpp:406] inception_4c/output_inception_4c/output_0_split <- inception_4c/output
I1130 06:15:07.873234 20300 net.cpp:380] inception_4c/output_inception_4c/output_0_split -> inception_4c/output_inception_4c/output_0_split_0
I1130 06:15:07.873240 20300 net.cpp:380] inception_4c/output_inception_4c/output_0_split -> inception_4c/output_inception_4c/output_0_split_1
I1130 06:15:07.873246 20300 net.cpp:380] inception_4c/output_inception_4c/output_0_split -> inception_4c/output_inception_4c/output_0_split_2
I1130 06:15:07.873251 20300 net.cpp:380] inception_4c/output_inception_4c/output_0_split -> inception_4c/output_inception_4c/output_0_split_3
I1130 06:15:07.873306 20300 net.cpp:122] Setting up inception_4c/output_inception_4c/output_0_split
I1130 06:15:07.873312 20300 net.cpp:129] Top shape: 32 512 14 14 (3211264)
I1130 06:15:07.873317 20300 net.cpp:129] Top shape: 32 512 14 14 (3211264)
I1130 06:15:07.873320 20300 net.cpp:129] Top shape: 32 512 14 14 (3211264)
I1130 06:15:07.873324 20300 net.cpp:129] Top shape: 32 512 14 14 (3211264)
I1130 06:15:07.873327 20300 net.cpp:137] Memory required for data: 1466745216
I1130 06:15:07.873330 20300 layer_factory.hpp:77] Creating layer inception_4d/1x1
I1130 06:15:07.873338 20300 net.cpp:84] Creating Layer inception_4d/1x1
I1130 06:15:07.873343 20300 net.cpp:406] inception_4d/1x1 <- inception_4c/output_inception_4c/output_0_split_0
I1130 06:15:07.873352 20300 net.cpp:380] inception_4d/1x1 -> inception_4d/1x1
I1130 06:15:07.876502 20300 net.cpp:122] Setting up inception_4d/1x1
I1130 06:15:07.876519 20300 net.cpp:129] Top shape: 32 112 14 14 (702464)
I1130 06:15:07.876523 20300 net.cpp:137] Memory required for data: 1469555072
I1130 06:15:07.876531 20300 layer_factory.hpp:77] Creating layer inception_4d/relu_1x1
I1130 06:15:07.876538 20300 net.cpp:84] Creating Layer inception_4d/relu_1x1
I1130 06:15:07.876543 20300 net.cpp:406] inception_4d/relu_1x1 <- inception_4d/1x1
I1130 06:15:07.876549 20300 net.cpp:367] inception_4d/relu_1x1 -> inception_4d/1x1 (in-place)
I1130 06:15:07.876556 20300 net.cpp:122] Setting up inception_4d/relu_1x1
I1130 06:15:07.876560 20300 net.cpp:129] Top shape: 32 112 14 14 (702464)
I1130 06:15:07.876564 20300 net.cpp:137] Memory required for data: 1472364928
I1130 06:15:07.876566 20300 layer_factory.hpp:77] Creating layer inception_4d/3x3_reduce
I1130 06:15:07.876575 20300 net.cpp:84] Creating Layer inception_4d/3x3_reduce
I1130 06:15:07.876580 20300 net.cpp:406] inception_4d/3x3_reduce <- inception_4c/output_inception_4c/output_0_split_1
I1130 06:15:07.876587 20300 net.cpp:380] inception_4d/3x3_reduce -> inception_4d/3x3_reduce
I1130 06:15:07.877252 20300 net.cpp:122] Setting up inception_4d/3x3_reduce
I1130 06:15:07.877262 20300 net.cpp:129] Top shape: 32 144 14 14 (903168)
I1130 06:15:07.877265 20300 net.cpp:137] Memory required for data: 1475977600
I1130 06:15:07.877270 20300 layer_factory.hpp:77] Creating layer inception_4d/relu_3x3_reduce
I1130 06:15:07.877279 20300 net.cpp:84] Creating Layer inception_4d/relu_3x3_reduce
I1130 06:15:07.877282 20300 net.cpp:406] inception_4d/relu_3x3_reduce <- inception_4d/3x3_reduce
I1130 06:15:07.877287 20300 net.cpp:367] inception_4d/relu_3x3_reduce -> inception_4d/3x3_reduce (in-place)
I1130 06:15:07.877295 20300 net.cpp:122] Setting up inception_4d/relu_3x3_reduce
I1130 06:15:07.877298 20300 net.cpp:129] Top shape: 32 144 14 14 (903168)
I1130 06:15:07.877301 20300 net.cpp:137] Memory required for data: 1479590272
I1130 06:15:07.877305 20300 layer_factory.hpp:77] Creating layer inception_4d/3x3
I1130 06:15:07.877312 20300 net.cpp:84] Creating Layer inception_4d/3x3
I1130 06:15:07.877316 20300 net.cpp:406] inception_4d/3x3 <- inception_4d/3x3_reduce
I1130 06:15:07.877321 20300 net.cpp:380] inception_4d/3x3 -> inception_4d/3x3
I1130 06:15:07.879977 20300 net.cpp:122] Setting up inception_4d/3x3
I1130 06:15:07.879990 20300 net.cpp:129] Top shape: 32 288 14 14 (1806336)
I1130 06:15:07.879993 20300 net.cpp:137] Memory required for data: 1486815616
I1130 06:15:07.879999 20300 layer_factory.hpp:77] Creating layer inception_4d/relu_3x3
I1130 06:15:07.880007 20300 net.cpp:84] Creating Layer inception_4d/relu_3x3
I1130 06:15:07.880012 20300 net.cpp:406] inception_4d/relu_3x3 <- inception_4d/3x3
I1130 06:15:07.880017 20300 net.cpp:367] inception_4d/relu_3x3 -> inception_4d/3x3 (in-place)
I1130 06:15:07.880024 20300 net.cpp:122] Setting up inception_4d/relu_3x3
I1130 06:15:07.880029 20300 net.cpp:129] Top shape: 32 288 14 14 (1806336)
I1130 06:15:07.880033 20300 net.cpp:137] Memory required for data: 1494040960
I1130 06:15:07.880034 20300 layer_factory.hpp:77] Creating layer inception_4d/5x5_reduce
I1130 06:15:07.880043 20300 net.cpp:84] Creating Layer inception_4d/5x5_reduce
I1130 06:15:07.880048 20300 net.cpp:406] inception_4d/5x5_reduce <- inception_4c/output_inception_4c/output_0_split_2
I1130 06:15:07.880053 20300 net.cpp:380] inception_4d/5x5_reduce -> inception_4d/5x5_reduce
I1130 06:15:07.880358 20300 net.cpp:122] Setting up inception_4d/5x5_reduce
I1130 06:15:07.880367 20300 net.cpp:129] Top shape: 32 32 14 14 (200704)
I1130 06:15:07.880369 20300 net.cpp:137] Memory required for data: 1494843776
I1130 06:15:07.880375 20300 layer_factory.hpp:77] Creating layer inception_4d/relu_5x5_reduce
I1130 06:15:07.880381 20300 net.cpp:84] Creating Layer inception_4d/relu_5x5_reduce
I1130 06:15:07.880386 20300 net.cpp:406] inception_4d/relu_5x5_reduce <- inception_4d/5x5_reduce
I1130 06:15:07.880390 20300 net.cpp:367] inception_4d/relu_5x5_reduce -> inception_4d/5x5_reduce (in-place)
I1130 06:15:07.880396 20300 net.cpp:122] Setting up inception_4d/relu_5x5_reduce
I1130 06:15:07.880401 20300 net.cpp:129] Top shape: 32 32 14 14 (200704)
I1130 06:15:07.880404 20300 net.cpp:137] Memory required for data: 1495646592
I1130 06:15:07.880406 20300 layer_factory.hpp:77] Creating layer inception_4d/5x5
I1130 06:15:07.880416 20300 net.cpp:84] Creating Layer inception_4d/5x5
I1130 06:15:07.880420 20300 net.cpp:406] inception_4d/5x5 <- inception_4d/5x5_reduce
I1130 06:15:07.880426 20300 net.cpp:380] inception_4d/5x5 -> inception_4d/5x5
I1130 06:15:07.880923 20300 net.cpp:122] Setting up inception_4d/5x5
I1130 06:15:07.880931 20300 net.cpp:129] Top shape: 32 64 14 14 (401408)
I1130 06:15:07.880934 20300 net.cpp:137] Memory required for data: 1497252224
I1130 06:15:07.880940 20300 layer_factory.hpp:77] Creating layer inception_4d/relu_5x5
I1130 06:15:07.880946 20300 net.cpp:84] Creating Layer inception_4d/relu_5x5
I1130 06:15:07.880950 20300 net.cpp:406] inception_4d/relu_5x5 <- inception_4d/5x5
I1130 06:15:07.880956 20300 net.cpp:367] inception_4d/relu_5x5 -> inception_4d/5x5 (in-place)
I1130 06:15:07.880961 20300 net.cpp:122] Setting up inception_4d/relu_5x5
I1130 06:15:07.880966 20300 net.cpp:129] Top shape: 32 64 14 14 (401408)
I1130 06:15:07.880970 20300 net.cpp:137] Memory required for data: 1498857856
I1130 06:15:07.880972 20300 layer_factory.hpp:77] Creating layer inception_4d/pool
I1130 06:15:07.880978 20300 net.cpp:84] Creating Layer inception_4d/pool
I1130 06:15:07.880982 20300 net.cpp:406] inception_4d/pool <- inception_4c/output_inception_4c/output_0_split_3
I1130 06:15:07.880988 20300 net.cpp:380] inception_4d/pool -> inception_4d/pool
I1130 06:15:07.881026 20300 net.cpp:122] Setting up inception_4d/pool
I1130 06:15:07.881032 20300 net.cpp:129] Top shape: 32 512 14 14 (3211264)
I1130 06:15:07.881036 20300 net.cpp:137] Memory required for data: 1511702912
I1130 06:15:07.881038 20300 layer_factory.hpp:77] Creating layer inception_4d/pool_proj
I1130 06:15:07.881047 20300 net.cpp:84] Creating Layer inception_4d/pool_proj
I1130 06:15:07.881050 20300 net.cpp:406] inception_4d/pool_proj <- inception_4d/pool
I1130 06:15:07.881057 20300 net.cpp:380] inception_4d/pool_proj -> inception_4d/pool_proj
I1130 06:15:07.881444 20300 net.cpp:122] Setting up inception_4d/pool_proj
I1130 06:15:07.881453 20300 net.cpp:129] Top shape: 32 64 14 14 (401408)
I1130 06:15:07.881454 20300 net.cpp:137] Memory required for data: 1513308544
I1130 06:15:07.881460 20300 layer_factory.hpp:77] Creating layer inception_4d/relu_pool_proj
I1130 06:15:07.881466 20300 net.cpp:84] Creating Layer inception_4d/relu_pool_proj
I1130 06:15:07.881470 20300 net.cpp:406] inception_4d/relu_pool_proj <- inception_4d/pool_proj
I1130 06:15:07.881475 20300 net.cpp:367] inception_4d/relu_pool_proj -> inception_4d/pool_proj (in-place)
I1130 06:15:07.881480 20300 net.cpp:122] Setting up inception_4d/relu_pool_proj
I1130 06:15:07.881485 20300 net.cpp:129] Top shape: 32 64 14 14 (401408)
I1130 06:15:07.881489 20300 net.cpp:137] Memory required for data: 1514914176
I1130 06:15:07.881491 20300 layer_factory.hpp:77] Creating layer inception_4d/output
I1130 06:15:07.881497 20300 net.cpp:84] Creating Layer inception_4d/output
I1130 06:15:07.881501 20300 net.cpp:406] inception_4d/output <- inception_4d/1x1
I1130 06:15:07.881505 20300 net.cpp:406] inception_4d/output <- inception_4d/3x3
I1130 06:15:07.881510 20300 net.cpp:406] inception_4d/output <- inception_4d/5x5
I1130 06:15:07.881513 20300 net.cpp:406] inception_4d/output <- inception_4d/pool_proj
I1130 06:15:07.881518 20300 net.cpp:380] inception_4d/output -> inception_4d/output
I1130 06:15:07.881544 20300 net.cpp:122] Setting up inception_4d/output
I1130 06:15:07.881551 20300 net.cpp:129] Top shape: 32 528 14 14 (3311616)
I1130 06:15:07.881553 20300 net.cpp:137] Memory required for data: 1528160640
I1130 06:15:07.881556 20300 layer_factory.hpp:77] Creating layer inception_4d/output_inception_4d/output_0_split
I1130 06:15:07.881561 20300 net.cpp:84] Creating Layer inception_4d/output_inception_4d/output_0_split
I1130 06:15:07.881566 20300 net.cpp:406] inception_4d/output_inception_4d/output_0_split <- inception_4d/output
I1130 06:15:07.881570 20300 net.cpp:380] inception_4d/output_inception_4d/output_0_split -> inception_4d/output_inception_4d/output_0_split_0
I1130 06:15:07.881578 20300 net.cpp:380] inception_4d/output_inception_4d/output_0_split -> inception_4d/output_inception_4d/output_0_split_1
I1130 06:15:07.881584 20300 net.cpp:380] inception_4d/output_inception_4d/output_0_split -> inception_4d/output_inception_4d/output_0_split_2
I1130 06:15:07.881590 20300 net.cpp:380] inception_4d/output_inception_4d/output_0_split -> inception_4d/output_inception_4d/output_0_split_3
I1130 06:15:07.881644 20300 net.cpp:122] Setting up inception_4d/output_inception_4d/output_0_split
I1130 06:15:07.881650 20300 net.cpp:129] Top shape: 32 528 14 14 (3311616)
I1130 06:15:07.881654 20300 net.cpp:129] Top shape: 32 528 14 14 (3311616)
I1130 06:15:07.881659 20300 net.cpp:129] Top shape: 32 528 14 14 (3311616)
I1130 06:15:07.881662 20300 net.cpp:129] Top shape: 32 528 14 14 (3311616)
I1130 06:15:07.881665 20300 net.cpp:137] Memory required for data: 1581146496
I1130 06:15:07.881669 20300 layer_factory.hpp:77] Creating layer inception_4e/1x1
I1130 06:15:07.881676 20300 net.cpp:84] Creating Layer inception_4e/1x1
I1130 06:15:07.881680 20300 net.cpp:406] inception_4e/1x1 <- inception_4d/output_inception_4d/output_0_split_0
I1130 06:15:07.881687 20300 net.cpp:380] inception_4e/1x1 -> inception_4e/1x1
I1130 06:15:07.882947 20300 net.cpp:122] Setting up inception_4e/1x1
I1130 06:15:07.882957 20300 net.cpp:129] Top shape: 32 256 14 14 (1605632)
I1130 06:15:07.882961 20300 net.cpp:137] Memory required for data: 1587569024
I1130 06:15:07.882966 20300 layer_factory.hpp:77] Creating layer inception_4e/relu_1x1
I1130 06:15:07.882972 20300 net.cpp:84] Creating Layer inception_4e/relu_1x1
I1130 06:15:07.882977 20300 net.cpp:406] inception_4e/relu_1x1 <- inception_4e/1x1
I1130 06:15:07.882982 20300 net.cpp:367] inception_4e/relu_1x1 -> inception_4e/1x1 (in-place)
I1130 06:15:07.882987 20300 net.cpp:122] Setting up inception_4e/relu_1x1
I1130 06:15:07.882992 20300 net.cpp:129] Top shape: 32 256 14 14 (1605632)
I1130 06:15:07.882993 20300 net.cpp:137] Memory required for data: 1593991552
I1130 06:15:07.882997 20300 layer_factory.hpp:77] Creating layer inception_4e/3x3_reduce
I1130 06:15:07.883004 20300 net.cpp:84] Creating Layer inception_4e/3x3_reduce
I1130 06:15:07.883008 20300 net.cpp:406] inception_4e/3x3_reduce <- inception_4d/output_inception_4d/output_0_split_1
I1130 06:15:07.883015 20300 net.cpp:380] inception_4e/3x3_reduce -> inception_4e/3x3_reduce
I1130 06:15:07.883669 20300 net.cpp:122] Setting up inception_4e/3x3_reduce
I1130 06:15:07.883677 20300 net.cpp:129] Top shape: 32 160 14 14 (1003520)
I1130 06:15:07.883680 20300 net.cpp:137] Memory required for data: 1598005632
I1130 06:15:07.883685 20300 layer_factory.hpp:77] Creating layer inception_4e/relu_3x3_reduce
I1130 06:15:07.883692 20300 net.cpp:84] Creating Layer inception_4e/relu_3x3_reduce
I1130 06:15:07.883697 20300 net.cpp:406] inception_4e/relu_3x3_reduce <- inception_4e/3x3_reduce
I1130 06:15:07.883702 20300 net.cpp:367] inception_4e/relu_3x3_reduce -> inception_4e/3x3_reduce (in-place)
I1130 06:15:07.883713 20300 net.cpp:122] Setting up inception_4e/relu_3x3_reduce
I1130 06:15:07.883719 20300 net.cpp:129] Top shape: 32 160 14 14 (1003520)
I1130 06:15:07.883723 20300 net.cpp:137] Memory required for data: 1602019712
I1130 06:15:07.883725 20300 layer_factory.hpp:77] Creating layer inception_4e/3x3
I1130 06:15:07.883734 20300 net.cpp:84] Creating Layer inception_4e/3x3
I1130 06:15:07.883738 20300 net.cpp:406] inception_4e/3x3 <- inception_4e/3x3_reduce
I1130 06:15:07.883744 20300 net.cpp:380] inception_4e/3x3 -> inception_4e/3x3
I1130 06:15:07.886970 20300 net.cpp:122] Setting up inception_4e/3x3
I1130 06:15:07.886981 20300 net.cpp:129] Top shape: 32 320 14 14 (2007040)
I1130 06:15:07.886983 20300 net.cpp:137] Memory required for data: 1610047872
I1130 06:15:07.886989 20300 layer_factory.hpp:77] Creating layer inception_4e/relu_3x3
I1130 06:15:07.886997 20300 net.cpp:84] Creating Layer inception_4e/relu_3x3
I1130 06:15:07.887013 20300 net.cpp:406] inception_4e/relu_3x3 <- inception_4e/3x3
I1130 06:15:07.887018 20300 net.cpp:367] inception_4e/relu_3x3 -> inception_4e/3x3 (in-place)
I1130 06:15:07.887024 20300 net.cpp:122] Setting up inception_4e/relu_3x3
I1130 06:15:07.887028 20300 net.cpp:129] Top shape: 32 320 14 14 (2007040)
I1130 06:15:07.887032 20300 net.cpp:137] Memory required for data: 1618076032
I1130 06:15:07.887034 20300 layer_factory.hpp:77] Creating layer inception_4e/5x5_reduce
I1130 06:15:07.887042 20300 net.cpp:84] Creating Layer inception_4e/5x5_reduce
I1130 06:15:07.887046 20300 net.cpp:406] inception_4e/5x5_reduce <- inception_4d/output_inception_4d/output_0_split_2
I1130 06:15:07.887053 20300 net.cpp:380] inception_4e/5x5_reduce -> inception_4e/5x5_reduce
I1130 06:15:07.887361 20300 net.cpp:122] Setting up inception_4e/5x5_reduce
I1130 06:15:07.887367 20300 net.cpp:129] Top shape: 32 32 14 14 (200704)
I1130 06:15:07.887370 20300 net.cpp:137] Memory required for data: 1618878848
I1130 06:15:07.887377 20300 layer_factory.hpp:77] Creating layer inception_4e/relu_5x5_reduce
I1130 06:15:07.887382 20300 net.cpp:84] Creating Layer inception_4e/relu_5x5_reduce
I1130 06:15:07.887385 20300 net.cpp:406] inception_4e/relu_5x5_reduce <- inception_4e/5x5_reduce
I1130 06:15:07.887390 20300 net.cpp:367] inception_4e/relu_5x5_reduce -> inception_4e/5x5_reduce (in-place)
I1130 06:15:07.887396 20300 net.cpp:122] Setting up inception_4e/relu_5x5_reduce
I1130 06:15:07.887400 20300 net.cpp:129] Top shape: 32 32 14 14 (200704)
I1130 06:15:07.887403 20300 net.cpp:137] Memory required for data: 1619681664
I1130 06:15:07.887408 20300 layer_factory.hpp:77] Creating layer inception_4e/5x5
I1130 06:15:07.887415 20300 net.cpp:84] Creating Layer inception_4e/5x5
I1130 06:15:07.887419 20300 net.cpp:406] inception_4e/5x5 <- inception_4e/5x5_reduce
I1130 06:15:07.887426 20300 net.cpp:380] inception_4e/5x5 -> inception_4e/5x5
I1130 06:15:07.888494 20300 net.cpp:122] Setting up inception_4e/5x5
I1130 06:15:07.888504 20300 net.cpp:129] Top shape: 32 128 14 14 (802816)
I1130 06:15:07.888509 20300 net.cpp:137] Memory required for data: 1622892928
I1130 06:15:07.888514 20300 layer_factory.hpp:77] Creating layer inception_4e/relu_5x5
I1130 06:15:07.888520 20300 net.cpp:84] Creating Layer inception_4e/relu_5x5
I1130 06:15:07.888523 20300 net.cpp:406] inception_4e/relu_5x5 <- inception_4e/5x5
I1130 06:15:07.888528 20300 net.cpp:367] inception_4e/relu_5x5 -> inception_4e/5x5 (in-place)
I1130 06:15:07.888535 20300 net.cpp:122] Setting up inception_4e/relu_5x5
I1130 06:15:07.888538 20300 net.cpp:129] Top shape: 32 128 14 14 (802816)
I1130 06:15:07.888541 20300 net.cpp:137] Memory required for data: 1626104192
I1130 06:15:07.888545 20300 layer_factory.hpp:77] Creating layer inception_4e/pool
I1130 06:15:07.888550 20300 net.cpp:84] Creating Layer inception_4e/pool
I1130 06:15:07.888553 20300 net.cpp:406] inception_4e/pool <- inception_4d/output_inception_4d/output_0_split_3
I1130 06:15:07.888561 20300 net.cpp:380] inception_4e/pool -> inception_4e/pool
I1130 06:15:07.888597 20300 net.cpp:122] Setting up inception_4e/pool
I1130 06:15:07.888604 20300 net.cpp:129] Top shape: 32 528 14 14 (3311616)
I1130 06:15:07.888607 20300 net.cpp:137] Memory required for data: 1639350656
I1130 06:15:07.888610 20300 layer_factory.hpp:77] Creating layer inception_4e/pool_proj
I1130 06:15:07.888619 20300 net.cpp:84] Creating Layer inception_4e/pool_proj
I1130 06:15:07.888624 20300 net.cpp:406] inception_4e/pool_proj <- inception_4e/pool
I1130 06:15:07.888629 20300 net.cpp:380] inception_4e/pool_proj -> inception_4e/pool_proj
I1130 06:15:07.889186 20300 net.cpp:122] Setting up inception_4e/pool_proj
I1130 06:15:07.889194 20300 net.cpp:129] Top shape: 32 128 14 14 (802816)
I1130 06:15:07.889196 20300 net.cpp:137] Memory required for data: 1642561920
I1130 06:15:07.889202 20300 layer_factory.hpp:77] Creating layer inception_4e/relu_pool_proj
I1130 06:15:07.889207 20300 net.cpp:84] Creating Layer inception_4e/relu_pool_proj
I1130 06:15:07.889211 20300 net.cpp:406] inception_4e/relu_pool_proj <- inception_4e/pool_proj
I1130 06:15:07.889216 20300 net.cpp:367] inception_4e/relu_pool_proj -> inception_4e/pool_proj (in-place)
I1130 06:15:07.889222 20300 net.cpp:122] Setting up inception_4e/relu_pool_proj
I1130 06:15:07.889226 20300 net.cpp:129] Top shape: 32 128 14 14 (802816)
I1130 06:15:07.889230 20300 net.cpp:137] Memory required for data: 1645773184
I1130 06:15:07.889232 20300 layer_factory.hpp:77] Creating layer inception_4e/output
I1130 06:15:07.889238 20300 net.cpp:84] Creating Layer inception_4e/output
I1130 06:15:07.889242 20300 net.cpp:406] inception_4e/output <- inception_4e/1x1
I1130 06:15:07.889247 20300 net.cpp:406] inception_4e/output <- inception_4e/3x3
I1130 06:15:07.889251 20300 net.cpp:406] inception_4e/output <- inception_4e/5x5
I1130 06:15:07.889256 20300 net.cpp:406] inception_4e/output <- inception_4e/pool_proj
I1130 06:15:07.889261 20300 net.cpp:380] inception_4e/output -> inception_4e/output
I1130 06:15:07.889283 20300 net.cpp:122] Setting up inception_4e/output
I1130 06:15:07.889292 20300 net.cpp:129] Top shape: 32 832 14 14 (5218304)
I1130 06:15:07.889294 20300 net.cpp:137] Memory required for data: 1666646400
I1130 06:15:07.889297 20300 layer_factory.hpp:77] Creating layer pool4/3x3_s2
I1130 06:15:07.889302 20300 net.cpp:84] Creating Layer pool4/3x3_s2
I1130 06:15:07.889307 20300 net.cpp:406] pool4/3x3_s2 <- inception_4e/output
I1130 06:15:07.889315 20300 net.cpp:380] pool4/3x3_s2 -> pool4/3x3_s2
I1130 06:15:07.889349 20300 net.cpp:122] Setting up pool4/3x3_s2
I1130 06:15:07.889355 20300 net.cpp:129] Top shape: 32 832 7 7 (1304576)
I1130 06:15:07.889358 20300 net.cpp:137] Memory required for data: 1671864704
I1130 06:15:07.889361 20300 layer_factory.hpp:77] Creating layer pool4/3x3_s2_pool4/3x3_s2_0_split
I1130 06:15:07.889369 20300 net.cpp:84] Creating Layer pool4/3x3_s2_pool4/3x3_s2_0_split
I1130 06:15:07.889372 20300 net.cpp:406] pool4/3x3_s2_pool4/3x3_s2_0_split <- pool4/3x3_s2
I1130 06:15:07.889377 20300 net.cpp:380] pool4/3x3_s2_pool4/3x3_s2_0_split -> pool4/3x3_s2_pool4/3x3_s2_0_split_0
I1130 06:15:07.889384 20300 net.cpp:380] pool4/3x3_s2_pool4/3x3_s2_0_split -> pool4/3x3_s2_pool4/3x3_s2_0_split_1
I1130 06:15:07.889389 20300 net.cpp:380] pool4/3x3_s2_pool4/3x3_s2_0_split -> pool4/3x3_s2_pool4/3x3_s2_0_split_2
I1130 06:15:07.889394 20300 net.cpp:380] pool4/3x3_s2_pool4/3x3_s2_0_split -> pool4/3x3_s2_pool4/3x3_s2_0_split_3
I1130 06:15:07.889446 20300 net.cpp:122] Setting up pool4/3x3_s2_pool4/3x3_s2_0_split
I1130 06:15:07.889453 20300 net.cpp:129] Top shape: 32 832 7 7 (1304576)
I1130 06:15:07.889457 20300 net.cpp:129] Top shape: 32 832 7 7 (1304576)
I1130 06:15:07.889461 20300 net.cpp:129] Top shape: 32 832 7 7 (1304576)
I1130 06:15:07.889466 20300 net.cpp:129] Top shape: 32 832 7 7 (1304576)
I1130 06:15:07.889468 20300 net.cpp:137] Memory required for data: 1692737920
I1130 06:15:07.889472 20300 layer_factory.hpp:77] Creating layer inception_5a/1x1
I1130 06:15:07.889479 20300 net.cpp:84] Creating Layer inception_5a/1x1
I1130 06:15:07.889483 20300 net.cpp:406] inception_5a/1x1 <- pool4/3x3_s2_pool4/3x3_s2_0_split_0
I1130 06:15:07.889489 20300 net.cpp:380] inception_5a/1x1 -> inception_5a/1x1
I1130 06:15:07.891144 20300 net.cpp:122] Setting up inception_5a/1x1
I1130 06:15:07.891153 20300 net.cpp:129] Top shape: 32 256 7 7 (401408)
I1130 06:15:07.891156 20300 net.cpp:137] Memory required for data: 1694343552
I1130 06:15:07.891162 20300 layer_factory.hpp:77] Creating layer inception_5a/relu_1x1
I1130 06:15:07.891167 20300 net.cpp:84] Creating Layer inception_5a/relu_1x1
I1130 06:15:07.891171 20300 net.cpp:406] inception_5a/relu_1x1 <- inception_5a/1x1
I1130 06:15:07.891178 20300 net.cpp:367] inception_5a/relu_1x1 -> inception_5a/1x1 (in-place)
I1130 06:15:07.891185 20300 net.cpp:122] Setting up inception_5a/relu_1x1
I1130 06:15:07.891188 20300 net.cpp:129] Top shape: 32 256 7 7 (401408)
I1130 06:15:07.891191 20300 net.cpp:137] Memory required for data: 1695949184
I1130 06:15:07.891194 20300 layer_factory.hpp:77] Creating layer inception_5a/3x3_reduce
I1130 06:15:07.891203 20300 net.cpp:84] Creating Layer inception_5a/3x3_reduce
I1130 06:15:07.891208 20300 net.cpp:406] inception_5a/3x3_reduce <- pool4/3x3_s2_pool4/3x3_s2_0_split_1
I1130 06:15:07.891216 20300 net.cpp:380] inception_5a/3x3_reduce -> inception_5a/3x3_reduce
I1130 06:15:07.892455 20300 net.cpp:122] Setting up inception_5a/3x3_reduce
I1130 06:15:07.892464 20300 net.cpp:129] Top shape: 32 160 7 7 (250880)
I1130 06:15:07.892468 20300 net.cpp:137] Memory required for data: 1696952704
I1130 06:15:07.892473 20300 layer_factory.hpp:77] Creating layer inception_5a/relu_3x3_reduce
I1130 06:15:07.892479 20300 net.cpp:84] Creating Layer inception_5a/relu_3x3_reduce
I1130 06:15:07.892483 20300 net.cpp:406] inception_5a/relu_3x3_reduce <- inception_5a/3x3_reduce
I1130 06:15:07.892490 20300 net.cpp:367] inception_5a/relu_3x3_reduce -> inception_5a/3x3_reduce (in-place)
I1130 06:15:07.892496 20300 net.cpp:122] Setting up inception_5a/relu_3x3_reduce
I1130 06:15:07.892501 20300 net.cpp:129] Top shape: 32 160 7 7 (250880)
I1130 06:15:07.892504 20300 net.cpp:137] Memory required for data: 1697956224
I1130 06:15:07.892506 20300 layer_factory.hpp:77] Creating layer inception_5a/3x3
I1130 06:15:07.892515 20300 net.cpp:84] Creating Layer inception_5a/3x3
I1130 06:15:07.892519 20300 net.cpp:406] inception_5a/3x3 <- inception_5a/3x3_reduce
I1130 06:15:07.892524 20300 net.cpp:380] inception_5a/3x3 -> inception_5a/3x3
I1130 06:15:07.895640 20300 net.cpp:122] Setting up inception_5a/3x3
I1130 06:15:07.895649 20300 net.cpp:129] Top shape: 32 320 7 7 (501760)
I1130 06:15:07.895653 20300 net.cpp:137] Memory required for data: 1699963264
I1130 06:15:07.895658 20300 layer_factory.hpp:77] Creating layer inception_5a/relu_3x3
I1130 06:15:07.895664 20300 net.cpp:84] Creating Layer inception_5a/relu_3x3
I1130 06:15:07.895668 20300 net.cpp:406] inception_5a/relu_3x3 <- inception_5a/3x3
I1130 06:15:07.895675 20300 net.cpp:367] inception_5a/relu_3x3 -> inception_5a/3x3 (in-place)
I1130 06:15:07.895681 20300 net.cpp:122] Setting up inception_5a/relu_3x3
I1130 06:15:07.895686 20300 net.cpp:129] Top shape: 32 320 7 7 (501760)
I1130 06:15:07.895689 20300 net.cpp:137] Memory required for data: 1701970304
I1130 06:15:07.895691 20300 layer_factory.hpp:77] Creating layer inception_5a/5x5_reduce
I1130 06:15:07.895699 20300 net.cpp:84] Creating Layer inception_5a/5x5_reduce
I1130 06:15:07.895704 20300 net.cpp:406] inception_5a/5x5_reduce <- pool4/3x3_s2_pool4/3x3_s2_0_split_2
I1130 06:15:07.895716 20300 net.cpp:380] inception_5a/5x5_reduce -> inception_5a/5x5_reduce
I1130 06:15:07.896086 20300 net.cpp:122] Setting up inception_5a/5x5_reduce
I1130 06:15:07.896095 20300 net.cpp:129] Top shape: 32 32 7 7 (50176)
I1130 06:15:07.896097 20300 net.cpp:137] Memory required for data: 1702171008
I1130 06:15:07.896102 20300 layer_factory.hpp:77] Creating layer inception_5a/relu_5x5_reduce
I1130 06:15:07.896108 20300 net.cpp:84] Creating Layer inception_5a/relu_5x5_reduce
I1130 06:15:07.896112 20300 net.cpp:406] inception_5a/relu_5x5_reduce <- inception_5a/5x5_reduce
I1130 06:15:07.896119 20300 net.cpp:367] inception_5a/relu_5x5_reduce -> inception_5a/5x5_reduce (in-place)
I1130 06:15:07.896126 20300 net.cpp:122] Setting up inception_5a/relu_5x5_reduce
I1130 06:15:07.896129 20300 net.cpp:129] Top shape: 32 32 7 7 (50176)
I1130 06:15:07.896132 20300 net.cpp:137] Memory required for data: 1702371712
I1130 06:15:07.896136 20300 layer_factory.hpp:77] Creating layer inception_5a/5x5
I1130 06:15:07.896158 20300 net.cpp:84] Creating Layer inception_5a/5x5
I1130 06:15:07.896163 20300 net.cpp:406] inception_5a/5x5 <- inception_5a/5x5_reduce
I1130 06:15:07.896169 20300 net.cpp:380] inception_5a/5x5 -> inception_5a/5x5
I1130 06:15:07.897250 20300 net.cpp:122] Setting up inception_5a/5x5
I1130 06:15:07.897259 20300 net.cpp:129] Top shape: 32 128 7 7 (200704)
I1130 06:15:07.897263 20300 net.cpp:137] Memory required for data: 1703174528
I1130 06:15:07.897269 20300 layer_factory.hpp:77] Creating layer inception_5a/relu_5x5
I1130 06:15:07.897274 20300 net.cpp:84] Creating Layer inception_5a/relu_5x5
I1130 06:15:07.897279 20300 net.cpp:406] inception_5a/relu_5x5 <- inception_5a/5x5
I1130 06:15:07.897285 20300 net.cpp:367] inception_5a/relu_5x5 -> inception_5a/5x5 (in-place)
I1130 06:15:07.897291 20300 net.cpp:122] Setting up inception_5a/relu_5x5
I1130 06:15:07.897296 20300 net.cpp:129] Top shape: 32 128 7 7 (200704)
I1130 06:15:07.897300 20300 net.cpp:137] Memory required for data: 1703977344
I1130 06:15:07.897302 20300 layer_factory.hpp:77] Creating layer inception_5a/pool
I1130 06:15:07.897308 20300 net.cpp:84] Creating Layer inception_5a/pool
I1130 06:15:07.897312 20300 net.cpp:406] inception_5a/pool <- pool4/3x3_s2_pool4/3x3_s2_0_split_3
I1130 06:15:07.897317 20300 net.cpp:380] inception_5a/pool -> inception_5a/pool
I1130 06:15:07.897353 20300 net.cpp:122] Setting up inception_5a/pool
I1130 06:15:07.897359 20300 net.cpp:129] Top shape: 32 832 7 7 (1304576)
I1130 06:15:07.897362 20300 net.cpp:137] Memory required for data: 1709195648
I1130 06:15:07.897366 20300 layer_factory.hpp:77] Creating layer inception_5a/pool_proj
I1130 06:15:07.897374 20300 net.cpp:84] Creating Layer inception_5a/pool_proj
I1130 06:15:07.897378 20300 net.cpp:406] inception_5a/pool_proj <- inception_5a/pool
I1130 06:15:07.897385 20300 net.cpp:380] inception_5a/pool_proj -> inception_5a/pool_proj
I1130 06:15:07.898445 20300 net.cpp:122] Setting up inception_5a/pool_proj
I1130 06:15:07.898455 20300 net.cpp:129] Top shape: 32 128 7 7 (200704)
I1130 06:15:07.898458 20300 net.cpp:137] Memory required for data: 1709998464
I1130 06:15:07.898464 20300 layer_factory.hpp:77] Creating layer inception_5a/relu_pool_proj
I1130 06:15:07.898470 20300 net.cpp:84] Creating Layer inception_5a/relu_pool_proj
I1130 06:15:07.898474 20300 net.cpp:406] inception_5a/relu_pool_proj <- inception_5a/pool_proj
I1130 06:15:07.898479 20300 net.cpp:367] inception_5a/relu_pool_proj -> inception_5a/pool_proj (in-place)
I1130 06:15:07.898486 20300 net.cpp:122] Setting up inception_5a/relu_pool_proj
I1130 06:15:07.898490 20300 net.cpp:129] Top shape: 32 128 7 7 (200704)
I1130 06:15:07.898494 20300 net.cpp:137] Memory required for data: 1710801280
I1130 06:15:07.898495 20300 layer_factory.hpp:77] Creating layer inception_5a/output
I1130 06:15:07.898501 20300 net.cpp:84] Creating Layer inception_5a/output
I1130 06:15:07.898505 20300 net.cpp:406] inception_5a/output <- inception_5a/1x1
I1130 06:15:07.898509 20300 net.cpp:406] inception_5a/output <- inception_5a/3x3
I1130 06:15:07.898514 20300 net.cpp:406] inception_5a/output <- inception_5a/5x5
I1130 06:15:07.898519 20300 net.cpp:406] inception_5a/output <- inception_5a/pool_proj
I1130 06:15:07.898524 20300 net.cpp:380] inception_5a/output -> inception_5a/output
I1130 06:15:07.898546 20300 net.cpp:122] Setting up inception_5a/output
I1130 06:15:07.898553 20300 net.cpp:129] Top shape: 32 832 7 7 (1304576)
I1130 06:15:07.898557 20300 net.cpp:137] Memory required for data: 1716019584
I1130 06:15:07.898561 20300 layer_factory.hpp:77] Creating layer inception_5a/output_inception_5a/output_0_split
I1130 06:15:07.898566 20300 net.cpp:84] Creating Layer inception_5a/output_inception_5a/output_0_split
I1130 06:15:07.898569 20300 net.cpp:406] inception_5a/output_inception_5a/output_0_split <- inception_5a/output
I1130 06:15:07.898574 20300 net.cpp:380] inception_5a/output_inception_5a/output_0_split -> inception_5a/output_inception_5a/output_0_split_0
I1130 06:15:07.898581 20300 net.cpp:380] inception_5a/output_inception_5a/output_0_split -> inception_5a/output_inception_5a/output_0_split_1
I1130 06:15:07.898586 20300 net.cpp:380] inception_5a/output_inception_5a/output_0_split -> inception_5a/output_inception_5a/output_0_split_2
I1130 06:15:07.898592 20300 net.cpp:380] inception_5a/output_inception_5a/output_0_split -> inception_5a/output_inception_5a/output_0_split_3
I1130 06:15:07.898639 20300 net.cpp:122] Setting up inception_5a/output_inception_5a/output_0_split
I1130 06:15:07.898646 20300 net.cpp:129] Top shape: 32 832 7 7 (1304576)
I1130 06:15:07.898650 20300 net.cpp:129] Top shape: 32 832 7 7 (1304576)
I1130 06:15:07.898654 20300 net.cpp:129] Top shape: 32 832 7 7 (1304576)
I1130 06:15:07.898658 20300 net.cpp:129] Top shape: 32 832 7 7 (1304576)
I1130 06:15:07.898661 20300 net.cpp:137] Memory required for data: 1736892800
I1130 06:15:07.898664 20300 layer_factory.hpp:77] Creating layer inception_5b/1x1
I1130 06:15:07.898672 20300 net.cpp:84] Creating Layer inception_5b/1x1
I1130 06:15:07.898676 20300 net.cpp:406] inception_5b/1x1 <- inception_5a/output_inception_5a/output_0_split_0
I1130 06:15:07.898684 20300 net.cpp:380] inception_5b/1x1 -> inception_5b/1x1
I1130 06:15:07.900923 20300 net.cpp:122] Setting up inception_5b/1x1
I1130 06:15:07.900933 20300 net.cpp:129] Top shape: 32 384 7 7 (602112)
I1130 06:15:07.900936 20300 net.cpp:137] Memory required for data: 1739301248
I1130 06:15:07.900943 20300 layer_factory.hpp:77] Creating layer inception_5b/relu_1x1
I1130 06:15:07.900949 20300 net.cpp:84] Creating Layer inception_5b/relu_1x1
I1130 06:15:07.900952 20300 net.cpp:406] inception_5b/relu_1x1 <- inception_5b/1x1
I1130 06:15:07.900957 20300 net.cpp:367] inception_5b/relu_1x1 -> inception_5b/1x1 (in-place)
I1130 06:15:07.900964 20300 net.cpp:122] Setting up inception_5b/relu_1x1
I1130 06:15:07.900969 20300 net.cpp:129] Top shape: 32 384 7 7 (602112)
I1130 06:15:07.900971 20300 net.cpp:137] Memory required for data: 1741709696
I1130 06:15:07.900974 20300 layer_factory.hpp:77] Creating layer inception_5b/3x3_reduce
I1130 06:15:07.900981 20300 net.cpp:84] Creating Layer inception_5b/3x3_reduce
I1130 06:15:07.900985 20300 net.cpp:406] inception_5b/3x3_reduce <- inception_5a/output_inception_5a/output_0_split_1
I1130 06:15:07.900992 20300 net.cpp:380] inception_5b/3x3_reduce -> inception_5b/3x3_reduce
I1130 06:15:07.902331 20300 net.cpp:122] Setting up inception_5b/3x3_reduce
I1130 06:15:07.902341 20300 net.cpp:129] Top shape: 32 192 7 7 (301056)
I1130 06:15:07.902344 20300 net.cpp:137] Memory required for data: 1742913920
I1130 06:15:07.902350 20300 layer_factory.hpp:77] Creating layer inception_5b/relu_3x3_reduce
I1130 06:15:07.902355 20300 net.cpp:84] Creating Layer inception_5b/relu_3x3_reduce
I1130 06:15:07.902360 20300 net.cpp:406] inception_5b/relu_3x3_reduce <- inception_5b/3x3_reduce
I1130 06:15:07.902365 20300 net.cpp:367] inception_5b/relu_3x3_reduce -> inception_5b/3x3_reduce (in-place)
I1130 06:15:07.902371 20300 net.cpp:122] Setting up inception_5b/relu_3x3_reduce
I1130 06:15:07.902375 20300 net.cpp:129] Top shape: 32 192 7 7 (301056)
I1130 06:15:07.902379 20300 net.cpp:137] Memory required for data: 1744118144
I1130 06:15:07.902381 20300 layer_factory.hpp:77] Creating layer inception_5b/3x3
I1130 06:15:07.902390 20300 net.cpp:84] Creating Layer inception_5b/3x3
I1130 06:15:07.902395 20300 net.cpp:406] inception_5b/3x3 <- inception_5b/3x3_reduce
I1130 06:15:07.902400 20300 net.cpp:380] inception_5b/3x3 -> inception_5b/3x3
I1130 06:15:07.906760 20300 net.cpp:122] Setting up inception_5b/3x3
I1130 06:15:07.906774 20300 net.cpp:129] Top shape: 32 384 7 7 (602112)
I1130 06:15:07.906776 20300 net.cpp:137] Memory required for data: 1746526592
I1130 06:15:07.906782 20300 layer_factory.hpp:77] Creating layer inception_5b/relu_3x3
I1130 06:15:07.906790 20300 net.cpp:84] Creating Layer inception_5b/relu_3x3
I1130 06:15:07.906796 20300 net.cpp:406] inception_5b/relu_3x3 <- inception_5b/3x3
I1130 06:15:07.906802 20300 net.cpp:367] inception_5b/relu_3x3 -> inception_5b/3x3 (in-place)
I1130 06:15:07.906808 20300 net.cpp:122] Setting up inception_5b/relu_3x3
I1130 06:15:07.906813 20300 net.cpp:129] Top shape: 32 384 7 7 (602112)
I1130 06:15:07.906816 20300 net.cpp:137] Memory required for data: 1748935040
I1130 06:15:07.906819 20300 layer_factory.hpp:77] Creating layer inception_5b/5x5_reduce
I1130 06:15:07.906828 20300 net.cpp:84] Creating Layer inception_5b/5x5_reduce
I1130 06:15:07.906832 20300 net.cpp:406] inception_5b/5x5_reduce <- inception_5a/output_inception_5a/output_0_split_2
I1130 06:15:07.906838 20300 net.cpp:380] inception_5b/5x5_reduce -> inception_5b/5x5_reduce
I1130 06:15:07.907251 20300 net.cpp:122] Setting up inception_5b/5x5_reduce
I1130 06:15:07.907259 20300 net.cpp:129] Top shape: 32 48 7 7 (75264)
I1130 06:15:07.907263 20300 net.cpp:137] Memory required for data: 1749236096
I1130 06:15:07.907268 20300 layer_factory.hpp:77] Creating layer inception_5b/relu_5x5_reduce
I1130 06:15:07.907274 20300 net.cpp:84] Creating Layer inception_5b/relu_5x5_reduce
I1130 06:15:07.907277 20300 net.cpp:406] inception_5b/relu_5x5_reduce <- inception_5b/5x5_reduce
I1130 06:15:07.907284 20300 net.cpp:367] inception_5b/relu_5x5_reduce -> inception_5b/5x5_reduce (in-place)
I1130 06:15:07.907290 20300 net.cpp:122] Setting up inception_5b/relu_5x5_reduce
I1130 06:15:07.907294 20300 net.cpp:129] Top shape: 32 48 7 7 (75264)
I1130 06:15:07.907297 20300 net.cpp:137] Memory required for data: 1749537152
I1130 06:15:07.907300 20300 layer_factory.hpp:77] Creating layer inception_5b/5x5
I1130 06:15:07.907310 20300 net.cpp:84] Creating Layer inception_5b/5x5
I1130 06:15:07.907312 20300 net.cpp:406] inception_5b/5x5 <- inception_5b/5x5_reduce
I1130 06:15:07.907318 20300 net.cpp:380] inception_5b/5x5 -> inception_5b/5x5
I1130 06:15:07.908340 20300 net.cpp:122] Setting up inception_5b/5x5
I1130 06:15:07.908349 20300 net.cpp:129] Top shape: 32 128 7 7 (200704)
I1130 06:15:07.908351 20300 net.cpp:137] Memory required for data: 1750339968
I1130 06:15:07.908390 20300 layer_factory.hpp:77] Creating layer inception_5b/relu_5x5
I1130 06:15:07.908396 20300 net.cpp:84] Creating Layer inception_5b/relu_5x5
I1130 06:15:07.908401 20300 net.cpp:406] inception_5b/relu_5x5 <- inception_5b/5x5
I1130 06:15:07.908406 20300 net.cpp:367] inception_5b/relu_5x5 -> inception_5b/5x5 (in-place)
I1130 06:15:07.908412 20300 net.cpp:122] Setting up inception_5b/relu_5x5
I1130 06:15:07.908417 20300 net.cpp:129] Top shape: 32 128 7 7 (200704)
I1130 06:15:07.908421 20300 net.cpp:137] Memory required for data: 1751142784
I1130 06:15:07.908423 20300 layer_factory.hpp:77] Creating layer inception_5b/pool
I1130 06:15:07.908428 20300 net.cpp:84] Creating Layer inception_5b/pool
I1130 06:15:07.908432 20300 net.cpp:406] inception_5b/pool <- inception_5a/output_inception_5a/output_0_split_3
I1130 06:15:07.908437 20300 net.cpp:380] inception_5b/pool -> inception_5b/pool
I1130 06:15:07.908473 20300 net.cpp:122] Setting up inception_5b/pool
I1130 06:15:07.908479 20300 net.cpp:129] Top shape: 32 832 7 7 (1304576)
I1130 06:15:07.908483 20300 net.cpp:137] Memory required for data: 1756361088
I1130 06:15:07.908485 20300 layer_factory.hpp:77] Creating layer inception_5b/pool_proj
I1130 06:15:07.908493 20300 net.cpp:84] Creating Layer inception_5b/pool_proj
I1130 06:15:07.908499 20300 net.cpp:406] inception_5b/pool_proj <- inception_5b/pool
I1130 06:15:07.908504 20300 net.cpp:380] inception_5b/pool_proj -> inception_5b/pool_proj
I1130 06:15:07.909587 20300 net.cpp:122] Setting up inception_5b/pool_proj
I1130 06:15:07.909596 20300 net.cpp:129] Top shape: 32 128 7 7 (200704)
I1130 06:15:07.909600 20300 net.cpp:137] Memory required for data: 1757163904
I1130 06:15:07.909605 20300 layer_factory.hpp:77] Creating layer inception_5b/relu_pool_proj
I1130 06:15:07.909612 20300 net.cpp:84] Creating Layer inception_5b/relu_pool_proj
I1130 06:15:07.909617 20300 net.cpp:406] inception_5b/relu_pool_proj <- inception_5b/pool_proj
I1130 06:15:07.909622 20300 net.cpp:367] inception_5b/relu_pool_proj -> inception_5b/pool_proj (in-place)
I1130 06:15:07.909628 20300 net.cpp:122] Setting up inception_5b/relu_pool_proj
I1130 06:15:07.909633 20300 net.cpp:129] Top shape: 32 128 7 7 (200704)
I1130 06:15:07.909636 20300 net.cpp:137] Memory required for data: 1757966720
I1130 06:15:07.909639 20300 layer_factory.hpp:77] Creating layer inception_5b/output
I1130 06:15:07.909646 20300 net.cpp:84] Creating Layer inception_5b/output
I1130 06:15:07.909648 20300 net.cpp:406] inception_5b/output <- inception_5b/1x1
I1130 06:15:07.909653 20300 net.cpp:406] inception_5b/output <- inception_5b/3x3
I1130 06:15:07.909657 20300 net.cpp:406] inception_5b/output <- inception_5b/5x5
I1130 06:15:07.909662 20300 net.cpp:406] inception_5b/output <- inception_5b/pool_proj
I1130 06:15:07.909667 20300 net.cpp:380] inception_5b/output -> inception_5b/output
I1130 06:15:07.909688 20300 net.cpp:122] Setting up inception_5b/output
I1130 06:15:07.909694 20300 net.cpp:129] Top shape: 32 1024 7 7 (1605632)
I1130 06:15:07.909698 20300 net.cpp:137] Memory required for data: 1764389248
I1130 06:15:07.909700 20300 layer_factory.hpp:77] Creating layer pool5/7x7_s1
I1130 06:15:07.909706 20300 net.cpp:84] Creating Layer pool5/7x7_s1
I1130 06:15:07.909710 20300 net.cpp:406] pool5/7x7_s1 <- inception_5b/output
I1130 06:15:07.909716 20300 net.cpp:380] pool5/7x7_s1 -> pool5/7x7_s1
I1130 06:15:07.909736 20300 net.cpp:122] Setting up pool5/7x7_s1
I1130 06:15:07.909742 20300 net.cpp:129] Top shape: 32 1024 1 1 (32768)
I1130 06:15:07.909745 20300 net.cpp:137] Memory required for data: 1764520320
I1130 06:15:07.909749 20300 layer_factory.hpp:77] Creating layer pool5/drop_7x7_s1
I1130 06:15:07.909754 20300 net.cpp:84] Creating Layer pool5/drop_7x7_s1
I1130 06:15:07.909759 20300 net.cpp:406] pool5/drop_7x7_s1 <- pool5/7x7_s1
I1130 06:15:07.909765 20300 net.cpp:367] pool5/drop_7x7_s1 -> pool5/7x7_s1 (in-place)
I1130 06:15:07.909785 20300 net.cpp:122] Setting up pool5/drop_7x7_s1
I1130 06:15:07.909790 20300 net.cpp:129] Top shape: 32 1024 1 1 (32768)
I1130 06:15:07.909793 20300 net.cpp:137] Memory required for data: 1764651392
I1130 06:15:07.909796 20300 layer_factory.hpp:77] Creating layer fc_scv_polluted
I1130 06:15:07.909803 20300 net.cpp:84] Creating Layer fc_scv_polluted
I1130 06:15:07.909807 20300 net.cpp:406] fc_scv_polluted <- pool5/7x7_s1
I1130 06:15:07.909816 20300 net.cpp:380] fc_scv_polluted -> fc_scv_polluted
I1130 06:15:07.909909 20300 net.cpp:122] Setting up fc_scv_polluted
I1130 06:15:07.909917 20300 net.cpp:129] Top shape: 32 1 (32)
I1130 06:15:07.909920 20300 net.cpp:137] Memory required for data: 1764651520
I1130 06:15:07.909925 20300 layer_factory.hpp:77] Creating layer fc_scv_polluted_fc_scv_polluted_0_split
I1130 06:15:07.909931 20300 net.cpp:84] Creating Layer fc_scv_polluted_fc_scv_polluted_0_split
I1130 06:15:07.909937 20300 net.cpp:406] fc_scv_polluted_fc_scv_polluted_0_split <- fc_scv_polluted
I1130 06:15:07.909941 20300 net.cpp:380] fc_scv_polluted_fc_scv_polluted_0_split -> fc_scv_polluted_fc_scv_polluted_0_split_0
I1130 06:15:07.909947 20300 net.cpp:380] fc_scv_polluted_fc_scv_polluted_0_split -> fc_scv_polluted_fc_scv_polluted_0_split_1
I1130 06:15:07.909982 20300 net.cpp:122] Setting up fc_scv_polluted_fc_scv_polluted_0_split
I1130 06:15:07.909988 20300 net.cpp:129] Top shape: 32 1 (32)
I1130 06:15:07.909992 20300 net.cpp:129] Top shape: 32 1 (32)
I1130 06:15:07.909996 20300 net.cpp:137] Memory required for data: 1764651776
I1130 06:15:07.909998 20300 layer_factory.hpp:77] Creating layer loss
I1130 06:15:07.910003 20300 net.cpp:84] Creating Layer loss
I1130 06:15:07.910007 20300 net.cpp:406] loss <- fc_scv_polluted_fc_scv_polluted_0_split_0
I1130 06:15:07.910012 20300 net.cpp:406] loss <- label_data_1_split_0
I1130 06:15:07.910017 20300 net.cpp:380] loss -> loss
…
