…
I1130 19:12:51.567325 18021 net.cpp:51] Initializing net from parameters: 
name: "CaffeNet-Places365-SCV-Interesting"
state {
  phase: TRAIN
  level: 0
  stage: ""
}
layer {
  name: "data"
  type: "Data"
  top: "data"
  top: "label"
  include {
    phase: TRAIN
  }
  transform_param {
    mirror: true
    crop_size: 227
    mean_file: "/idiap/temp/lmedina/fine-tuning/alexnet_places365/places365CNN_mean.binaryproto"
  }
  data_param {
    source: "/idiap/temp/lmedina/fine-tuning/data/Interesting/train_lmdb"
    batch_size: 32
    backend: LMDB
  }
}
layer {
  name: "conv1"
  type: "Convolution"
  bottom: "data"
  top: "conv1"
  param {
    lr_mult: 1
    decay_mult: 1
  }
  param {
    lr_mult: 2
    decay_mult: 0
  }
  convolution_param {
    num_output: 96
    kernel_size: 11
    stride: 4
    weight_filler {
      type: "gaussian"
      std: 0.01
    }
    bias_filler {
      type: "constant"
      value: 0
    }
  }
}
layer {
  name: "relu1"
  type: "ReLU"
  bottom: "conv1"
  top: "conv1"
}
layer {
  name: "pool1"
  type: "Pooling"
  bottom: "conv1"
  top: "pool1"
  pooling_param {
    pool: MAX
    kernel_size: 3
    stride: 2
  }
}
layer {
  name: "norm1"
  type: "LRN"
  bottom: "pool1"
  top: "norm1"
  lrn_param {
    local_size: 5
    alpha: 0.0001
    beta: 0.75
  }
}
layer {
  name: "conv2"
  type: "Convolution"
  bottom: "norm1"
  top: "conv2"
  param {
    lr_mult: 1
    decay_mult: 1
  }
  param {
    lr_mult: 2
    decay_mult: 0
  }
  convolution_param {
    num_output: 256
    pad: 2
    kernel_size: 5
    group: 2
    weight_filler {
      type: "gaussian"
      std: 0.01
    }
    bias_filler {
      type: "constant"
      value: 1
    }
  }
}
layer {
  name: "relu2"
  type: "ReLU"
  bottom: "conv2"
  top: "conv2"
}
layer {
  name: "pool2"
  type: "Pooling"
  bottom: "conv2"
  top: "pool2"
  pooling_param {
    pool: MAX
    kernel_size: 3
    stride: 2
  }
}
layer {
  name: "norm2"
  type: "LRN"
  bottom: "pool2"
  top: "norm2"
  lrn_param {
    local_size: 5
    alpha: 0.0001
    beta: 0.75
  }
}
layer {
  name: "conv3"
  type: "Convolution"
  bottom: "norm2"
  top: "conv3"
  param {
    lr_mult: 1
    decay_mult: 1
  }
  param {
    lr_mult: 2
    decay_mult: 0
  }
  convolution_param {
    num_output: 384
    pad: 1
    kernel_size: 3
    weight_filler {
      type: "gaussian"
      std: 0.01
    }
    bias_filler {
      type: "constant"
      value: 0
    }
  }
}
layer {
  name: "relu3"
  type: "ReLU"
  bottom: "conv3"
  top: "conv3"
}
layer {
  name: "conv4"
  type: "Convolution"
  bottom: "conv3"
  top: "conv4"
  param {
    lr_mult: 1
    decay_mult: 1
  }
  param {
    lr_mult: 2
    decay_mult: 0
  }
  convolution_param {
    num_output: 384
    pad: 1
    kernel_size: 3
    group: 2
    weight_filler {
      type: "gaussian"
      std: 0.01
    }
    bias_filler {
      type: "constant"
      value: 1
    }
  }
}
layer {
  name: "relu4"
  type: "ReLU"
  bottom: "conv4"
  top: "conv4"
}
layer {
  name: "conv5"
  type: "Convolution"
  bottom: "conv4"
  top: "conv5"
  param {
    lr_mult: 1
    decay_mult: 1
  }
  param {
    lr_mult: 2
    decay_mult: 0
  }
  convolution_param {
    num_output: 256
    pad: 1
    kernel_size: 3
    group: 2
    weight_filler {
      type: "gaussian"
      std: 0.01
    }
    bias_filler {
      type: "constant"
      value: 1
    }
  }
}
layer {
  name: "relu5"
  type: "ReLU"
  bottom: "conv5"
  top: "conv5"
}
layer {
  name: "pool5"
  type: "Pooling"
  bottom: "conv5"
  top: "pool5"
  pooling_param {
    pool: MAX
    kernel_size: 3
    stride: 2
  }
}
layer {
  name: "fc6"
  type: "InnerProduct"
  bottom: "pool5"
  top: "fc6"
  param {
    lr_mult: 1
    decay_mult: 1
  }
  param {
    lr_mult: 2
    decay_mult: 0
  }
  inner_product_param {
    num_output: 4096
    weight_filler {
      type: "gaussian"
      std: 0.005
    }
    bias_filler {
      type: "constant"
      value: 1
    }
  }
}
layer {
  name: "relu6"
  type: "ReLU"
  bottom: "fc6"
  top: "fc6"
}
layer {
  name: "drop6"
  type: "Dropout"
  bottom: "fc6"
  top: "fc6"
  dropout_param {
    dropout_ratio: 0.5
  }
}
layer {
  name: "fc7"
  type: "InnerProduct"
  bottom: "fc6"
  top: "fc7"
  param {
    lr_mult: 1
    decay_mult: 1
  }
  param {
    lr_mult: 2
    decay_mult: 0
  }
  inner_product_param {
    num_output: 4096
    weight_filler {
      type: "gaussian"
      std: 0.005
    }
    bias_filler {
      type: "constant"
      value: 1
    }
  }
}
layer {
  name: "relu7"
  type: "ReLU"
  bottom: "fc7"
  top: "fc7"
}
layer {
  name: "drop7"
  type: "Dropout"
  bottom: "fc7"
  top: "fc7"
  dropout_param {
    dropout_ratio: 0.5
  }
}
layer {
  name: "fc_scv_interesting"
  type: "InnerProduct"
  bottom: "fc7"
  top: "fc_scv_interesting"
  param {
    lr_mult: 10
    decay_mult: 1
  }
  param {
    lr_mult: 20
    decay_mult: 0
  }
  inner_product_param {
    num_output: 1
    weight_filler {
      type: "xavier"
      std: 0.01
    }
    bias_filler {
      type: "constant"
      value: 0
    }
  }
}
layer {
  name: "loss"
  type: "EuclideanLoss"
  bottom: "fc_scv_interesting"
  bottom: "label"
  top: "loss"
}
I1130 19:12:51.567417 18021 layer_factory.hpp:77] Creating layer data
I1130 19:12:51.599036 18021 db_lmdb.cpp:35] Opened lmdb /idiap/temp/lmedina/fine-tuning/data/Interesting/train_lmdb
I1130 19:12:51.614801 18021 net.cpp:84] Creating Layer data
I1130 19:12:51.614830 18021 net.cpp:380] data -> data
I1130 19:12:51.614861 18021 net.cpp:380] data -> label
I1130 19:12:51.614895 18021 data_transformer.cpp:25] Loading mean file from: /idiap/temp/lmedina/fine-tuning/alexnet_places365/places365CNN_mean.binaryproto
I1130 19:12:52.125294 18021 data_layer.cpp:45] output data size: 32,3,227,227
I1130 19:12:52.186354 18021 net.cpp:122] Setting up data
I1130 19:12:52.186405 18021 net.cpp:129] Top shape: 32 3 227 227 (4946784)
I1130 19:12:52.186417 18021 net.cpp:129] Top shape: 32 (32)
I1130 19:12:52.186424 18021 net.cpp:137] Memory required for data: 19787264
I1130 19:12:52.186439 18021 layer_factory.hpp:77] Creating layer conv1
I1130 19:12:52.186473 18021 net.cpp:84] Creating Layer conv1
I1130 19:12:52.186486 18021 net.cpp:406] conv1 <- data
I1130 19:12:52.186507 18021 net.cpp:380] conv1 -> conv1
I1130 19:12:52.188582 18021 net.cpp:122] Setting up conv1
I1130 19:12:52.188601 18021 net.cpp:129] Top shape: 32 96 55 55 (9292800)
I1130 19:12:52.188608 18021 net.cpp:137] Memory required for data: 56958464
I1130 19:12:52.188630 18021 layer_factory.hpp:77] Creating layer relu1
I1130 19:12:52.188644 18021 net.cpp:84] Creating Layer relu1
I1130 19:12:52.188654 18021 net.cpp:406] relu1 <- conv1
I1130 19:12:52.188665 18021 net.cpp:367] relu1 -> conv1 (in-place)
I1130 19:12:52.188680 18021 net.cpp:122] Setting up relu1
I1130 19:12:52.188691 18021 net.cpp:129] Top shape: 32 96 55 55 (9292800)
I1130 19:12:52.188697 18021 net.cpp:137] Memory required for data: 94129664
I1130 19:12:52.188706 18021 layer_factory.hpp:77] Creating layer pool1
I1130 19:12:52.188719 18021 net.cpp:84] Creating Layer pool1
I1130 19:12:52.188729 18021 net.cpp:406] pool1 <- conv1
I1130 19:12:52.188737 18021 net.cpp:380] pool1 -> pool1
I1130 19:12:52.190335 18021 net.cpp:122] Setting up pool1
I1130 19:12:52.190363 18021 net.cpp:129] Top shape: 32 96 27 27 (2239488)
I1130 19:12:52.190371 18021 net.cpp:137] Memory required for data: 103087616
I1130 19:12:52.190379 18021 layer_factory.hpp:77] Creating layer norm1
I1130 19:12:52.190397 18021 net.cpp:84] Creating Layer norm1
I1130 19:12:52.190409 18021 net.cpp:406] norm1 <- pool1
I1130 19:12:52.190421 18021 net.cpp:380] norm1 -> norm1
I1130 19:12:52.190479 18021 net.cpp:122] Setting up norm1
I1130 19:12:52.190491 18021 net.cpp:129] Top shape: 32 96 27 27 (2239488)
I1130 19:12:52.190498 18021 net.cpp:137] Memory required for data: 112045568
I1130 19:12:52.190505 18021 layer_factory.hpp:77] Creating layer conv2
I1130 19:12:52.190521 18021 net.cpp:84] Creating Layer conv2
I1130 19:12:52.190529 18021 net.cpp:406] conv2 <- norm1
I1130 19:12:52.190539 18021 net.cpp:380] conv2 -> conv2
I1130 19:12:52.196492 18021 net.cpp:122] Setting up conv2
I1130 19:12:52.196521 18021 net.cpp:129] Top shape: 32 256 27 27 (5971968)
I1130 19:12:52.196528 18021 net.cpp:137] Memory required for data: 135933440
I1130 19:12:52.196548 18021 layer_factory.hpp:77] Creating layer relu2
I1130 19:12:52.196563 18021 net.cpp:84] Creating Layer relu2
I1130 19:12:52.196570 18021 net.cpp:406] relu2 <- conv2
I1130 19:12:52.196583 18021 net.cpp:367] relu2 -> conv2 (in-place)
I1130 19:12:52.196596 18021 net.cpp:122] Setting up relu2
I1130 19:12:52.196605 18021 net.cpp:129] Top shape: 32 256 27 27 (5971968)
I1130 19:12:52.196610 18021 net.cpp:137] Memory required for data: 159821312
I1130 19:12:52.196617 18021 layer_factory.hpp:77] Creating layer pool2
I1130 19:12:52.196629 18021 net.cpp:84] Creating Layer pool2
I1130 19:12:52.196636 18021 net.cpp:406] pool2 <- conv2
I1130 19:12:52.196645 18021 net.cpp:380] pool2 -> pool2
I1130 19:12:52.196698 18021 net.cpp:122] Setting up pool2
I1130 19:12:52.196710 18021 net.cpp:129] Top shape: 32 256 13 13 (1384448)
I1130 19:12:52.196717 18021 net.cpp:137] Memory required for data: 165359104
I1130 19:12:52.196723 18021 layer_factory.hpp:77] Creating layer norm2
I1130 19:12:52.196738 18021 net.cpp:84] Creating Layer norm2
I1130 19:12:52.196745 18021 net.cpp:406] norm2 <- pool2
I1130 19:12:52.196754 18021 net.cpp:380] norm2 -> norm2
I1130 19:12:52.196799 18021 net.cpp:122] Setting up norm2
I1130 19:12:52.196810 18021 net.cpp:129] Top shape: 32 256 13 13 (1384448)
I1130 19:12:52.196817 18021 net.cpp:137] Memory required for data: 170896896
I1130 19:12:52.196823 18021 layer_factory.hpp:77] Creating layer conv3
I1130 19:12:52.196840 18021 net.cpp:84] Creating Layer conv3
I1130 19:12:52.196847 18021 net.cpp:406] conv3 <- norm2
I1130 19:12:52.196856 18021 net.cpp:380] conv3 -> conv3
I1130 19:12:52.211557 18021 net.cpp:122] Setting up conv3
I1130 19:12:52.211588 18021 net.cpp:129] Top shape: 32 384 13 13 (2076672)
I1130 19:12:52.211596 18021 net.cpp:137] Memory required for data: 179203584
I1130 19:12:52.211616 18021 layer_factory.hpp:77] Creating layer relu3
I1130 19:12:52.211630 18021 net.cpp:84] Creating Layer relu3
I1130 19:12:52.211640 18021 net.cpp:406] relu3 <- conv3
I1130 19:12:52.211652 18021 net.cpp:367] relu3 -> conv3 (in-place)
I1130 19:12:52.211665 18021 net.cpp:122] Setting up relu3
I1130 19:12:52.211675 18021 net.cpp:129] Top shape: 32 384 13 13 (2076672)
I1130 19:12:52.211681 18021 net.cpp:137] Memory required for data: 187510272
I1130 19:12:52.211688 18021 layer_factory.hpp:77] Creating layer conv4
I1130 19:12:52.211701 18021 net.cpp:84] Creating Layer conv4
I1130 19:12:52.211709 18021 net.cpp:406] conv4 <- conv3
I1130 19:12:52.211719 18021 net.cpp:380] conv4 -> conv4
I1130 19:12:52.222263 18021 net.cpp:122] Setting up conv4
I1130 19:12:52.222290 18021 net.cpp:129] Top shape: 32 384 13 13 (2076672)
I1130 19:12:52.222296 18021 net.cpp:137] Memory required for data: 195816960
I1130 19:12:52.222312 18021 layer_factory.hpp:77] Creating layer relu4
I1130 19:12:52.222326 18021 net.cpp:84] Creating Layer relu4
I1130 19:12:52.222334 18021 net.cpp:406] relu4 <- conv4
I1130 19:12:52.222345 18021 net.cpp:367] relu4 -> conv4 (in-place)
I1130 19:12:52.222364 18021 net.cpp:122] Setting up relu4
I1130 19:12:52.222374 18021 net.cpp:129] Top shape: 32 384 13 13 (2076672)
I1130 19:12:52.222383 18021 net.cpp:137] Memory required for data: 204123648
I1130 19:12:52.222389 18021 layer_factory.hpp:77] Creating layer conv5
I1130 19:12:52.222404 18021 net.cpp:84] Creating Layer conv5
I1130 19:12:52.222410 18021 net.cpp:406] conv5 <- conv4
I1130 19:12:52.222420 18021 net.cpp:380] conv5 -> conv5
I1130 19:12:52.229324 18021 net.cpp:122] Setting up conv5
I1130 19:12:52.229348 18021 net.cpp:129] Top shape: 32 256 13 13 (1384448)
I1130 19:12:52.229354 18021 net.cpp:137] Memory required for data: 209661440
I1130 19:12:52.229373 18021 layer_factory.hpp:77] Creating layer relu5
I1130 19:12:52.229387 18021 net.cpp:84] Creating Layer relu5
I1130 19:12:52.229393 18021 net.cpp:406] relu5 <- conv5
I1130 19:12:52.229404 18021 net.cpp:367] relu5 -> conv5 (in-place)
I1130 19:12:52.229416 18021 net.cpp:122] Setting up relu5
I1130 19:12:52.229425 18021 net.cpp:129] Top shape: 32 256 13 13 (1384448)
I1130 19:12:52.229431 18021 net.cpp:137] Memory required for data: 215199232
I1130 19:12:52.229436 18021 layer_factory.hpp:77] Creating layer pool5
I1130 19:12:52.229446 18021 net.cpp:84] Creating Layer pool5
I1130 19:12:52.229454 18021 net.cpp:406] pool5 <- conv5
I1130 19:12:52.229461 18021 net.cpp:380] pool5 -> pool5
I1130 19:12:52.229511 18021 net.cpp:122] Setting up pool5
I1130 19:12:52.229522 18021 net.cpp:129] Top shape: 32 256 6 6 (294912)
I1130 19:12:52.229529 18021 net.cpp:137] Memory required for data: 216378880
I1130 19:12:52.229534 18021 layer_factory.hpp:77] Creating layer fc6
I1130 19:12:52.229553 18021 net.cpp:84] Creating Layer fc6
I1130 19:12:52.229560 18021 net.cpp:406] fc6 <- pool5
I1130 19:12:52.229569 18021 net.cpp:380] fc6 -> fc6
I1130 19:12:52.601680 18021 net.cpp:122] Setting up fc6
I1130 19:12:52.601709 18021 net.cpp:129] Top shape: 32 4096 (131072)
I1130 19:12:52.601713 18021 net.cpp:137] Memory required for data: 216903168
I1130 19:12:52.601725 18021 layer_factory.hpp:77] Creating layer relu6
I1130 19:12:52.601737 18021 net.cpp:84] Creating Layer relu6
I1130 19:12:52.601742 18021 net.cpp:406] relu6 <- fc6
I1130 19:12:52.601750 18021 net.cpp:367] relu6 -> fc6 (in-place)
I1130 19:12:52.601763 18021 net.cpp:122] Setting up relu6
I1130 19:12:52.601768 18021 net.cpp:129] Top shape: 32 4096 (131072)
I1130 19:12:52.601771 18021 net.cpp:137] Memory required for data: 217427456
I1130 19:12:52.601776 18021 layer_factory.hpp:77] Creating layer drop6
I1130 19:12:52.601788 18021 net.cpp:84] Creating Layer drop6
I1130 19:12:52.601793 18021 net.cpp:406] drop6 <- fc6
I1130 19:12:52.601797 18021 net.cpp:367] drop6 -> fc6 (in-place)
I1130 19:12:52.601824 18021 net.cpp:122] Setting up drop6
I1130 19:12:52.601831 18021 net.cpp:129] Top shape: 32 4096 (131072)
I1130 19:12:52.601835 18021 net.cpp:137] Memory required for data: 217951744
I1130 19:12:52.601840 18021 layer_factory.hpp:77] Creating layer fc7
I1130 19:12:52.601850 18021 net.cpp:84] Creating Layer fc7
I1130 19:12:52.601855 18021 net.cpp:406] fc7 <- fc6
I1130 19:12:52.601861 18021 net.cpp:380] fc7 -> fc7
I1130 19:12:52.755043 18021 net.cpp:122] Setting up fc7
I1130 19:12:52.755074 18021 net.cpp:129] Top shape: 32 4096 (131072)
I1130 19:12:52.755079 18021 net.cpp:137] Memory required for data: 218476032
I1130 19:12:52.755089 18021 layer_factory.hpp:77] Creating layer relu7
I1130 19:12:52.755101 18021 net.cpp:84] Creating Layer relu7
I1130 19:12:52.755106 18021 net.cpp:406] relu7 <- fc7
I1130 19:12:52.755115 18021 net.cpp:367] relu7 -> fc7 (in-place)
I1130 19:12:52.755126 18021 net.cpp:122] Setting up relu7
I1130 19:12:52.755132 18021 net.cpp:129] Top shape: 32 4096 (131072)
I1130 19:12:52.755136 18021 net.cpp:137] Memory required for data: 219000320
I1130 19:12:52.755141 18021 layer_factory.hpp:77] Creating layer drop7
I1130 19:12:52.755147 18021 net.cpp:84] Creating Layer drop7
I1130 19:12:52.755151 18021 net.cpp:406] drop7 <- fc7
I1130 19:12:52.755156 18021 net.cpp:367] drop7 -> fc7 (in-place)
I1130 19:12:52.755189 18021 net.cpp:122] Setting up drop7
I1130 19:12:52.755197 18021 net.cpp:129] Top shape: 32 4096 (131072)
I1130 19:12:52.755201 18021 net.cpp:137] Memory required for data: 219524608
I1130 19:12:52.755205 18021 layer_factory.hpp:77] Creating layer fc_scv_interesting
I1130 19:12:52.755214 18021 net.cpp:84] Creating Layer fc_scv_interesting
I1130 19:12:52.755219 18021 net.cpp:406] fc_scv_interesting <- fc7
I1130 19:12:52.755225 18021 net.cpp:380] fc_scv_interesting -> fc_scv_interesting
I1130 19:12:52.755337 18021 net.cpp:122] Setting up fc_scv_interesting
I1130 19:12:52.755345 18021 net.cpp:129] Top shape: 32 1 (32)
I1130 19:12:52.755350 18021 net.cpp:137] Memory required for data: 219524736
I1130 19:12:52.755357 18021 layer_factory.hpp:77] Creating layer loss
I1130 19:12:52.755363 18021 net.cpp:84] Creating Layer loss
I1130 19:12:52.755368 18021 net.cpp:406] loss <- fc_scv_interesting
I1130 19:12:52.755373 18021 net.cpp:406] loss <- label
I1130 19:12:52.755381 18021 net.cpp:380] loss -> loss
I1130 19:12:52.755412 18021 net.cpp:122] Setting up loss
…
I1130 19:12:52.757197 18021 net.cpp:294] The NetState phase (1) differed from the phase (0) specified by a rule in layer data
I1130 19:12:52.757634 18021 net.cpp:51] Initializing net from parameters: 
name: "CaffeNet-Places365-SCV-Interesting"
state {
  phase: TEST
}
layer {
  name: "data"
  type: "Data"
  top: "data"
  top: "label"
  include {
    phase: TEST
  }
  transform_param {
    mirror: false
    crop_size: 227
    mean_file: "/idiap/temp/lmedina/fine-tuning/alexnet_places365/places365CNN_mean.binaryproto"
  }
  data_param {
    source: "/idiap/temp/lmedina/fine-tuning/data/Interesting/validation_lmdb"
    batch_size: 32
    backend: LMDB
  }
}
layer {
  name: "conv1"
  type: "Convolution"
  bottom: "data"
  top: "conv1"
  param {
    lr_mult: 1
    decay_mult: 1
  }
  param {
    lr_mult: 2
    decay_mult: 0
  }
  convolution_param {
    num_output: 96
    kernel_size: 11
    stride: 4
    weight_filler {
      type: "gaussian"
      std: 0.01
    }
    bias_filler {
      type: "constant"
      value: 0
    }
  }
}
layer {
  name: "relu1"
  type: "ReLU"
  bottom: "conv1"
  top: "conv1"
}
layer {
  name: "pool1"
  type: "Pooling"
  bottom: "conv1"
  top: "pool1"
  pooling_param {
    pool: MAX
    kernel_size: 3
    stride: 2
  }
}
layer {
  name: "norm1"
  type: "LRN"
  bottom: "pool1"
  top: "norm1"
  lrn_param {
    local_size: 5
    alpha: 0.0001
    beta: 0.75
  }
}
layer {
  name: "conv2"
  type: "Convolution"
  bottom: "norm1"
  top: "conv2"
  param {
    lr_mult: 1
    decay_mult: 1
  }
  param {
    lr_mult: 2
    decay_mult: 0
  }
  convolution_param {
    num_output: 256
    pad: 2
    kernel_size: 5
    group: 2
    weight_filler {
      type: "gaussian"
      std: 0.01
    }
    bias_filler {
      type: "constant"
      value: 1
    }
  }
}
layer {
  name: "relu2"
  type: "ReLU"
  bottom: "conv2"
  top: "conv2"
}
layer {
  name: "pool2"
  type: "Pooling"
  bottom: "conv2"
  top: "pool2"
  pooling_param {
    pool: MAX
    kernel_size: 3
    stride: 2
  }
}
layer {
  name: "norm2"
  type: "LRN"
  bottom: "pool2"
  top: "norm2"
  lrn_param {
    local_size: 5
    alpha: 0.0001
    beta: 0.75
  }
}
layer {
  name: "conv3"
  type: "Convolution"
  bottom: "norm2"
  top: "conv3"
  param {
    lr_mult: 1
    decay_mult: 1
  }
  param {
    lr_mult: 2
    decay_mult: 0
  }
  convolution_param {
    num_output: 384
    pad: 1
    kernel_size: 3
    weight_filler {
      type: "gaussian"
      std: 0.01
    }
    bias_filler {
      type: "constant"
      value: 0
    }
  }
}
layer {
  name: "relu3"
  type: "ReLU"
  bottom: "conv3"
  top: "conv3"
}
layer {
  name: "conv4"
  type: "Convolution"
  bottom: "conv3"
  top: "conv4"
  param {
    lr_mult: 1
    decay_mult: 1
  }
  param {
    lr_mult: 2
    decay_mult: 0
  }
  convolution_param {
    num_output: 384
    pad: 1
    kernel_size: 3
    group: 2
    weight_filler {
      type: "gaussian"
      std: 0.01
    }
    bias_filler {
      type: "constant"
      value: 1
    }
  }
}
layer {
  name: "relu4"
  type: "ReLU"
  bottom: "conv4"
  top: "conv4"
}
layer {
  name: "conv5"
  type: "Convolution"
  bottom: "conv4"
  top: "conv5"
  param {
    lr_mult: 1
    decay_mult: 1
  }
  param {
    lr_mult: 2
    decay_mult: 0
  }
  convolution_param {
    num_output: 256
    pad: 1
    kernel_size: 3
    group: 2
    weight_filler {
      type: "gaussian"
      std: 0.01
    }
    bias_filler {
      type: "constant"
      value: 1
    }
  }
}
layer {
  name: "relu5"
  type: "ReLU"
  bottom: "conv5"
  top: "conv5"
}
layer {
  name: "pool5"
  type: "Pooling"
  bottom: "conv5"
  top: "pool5"
  pooling_param {
    pool: MAX
    kernel_size: 3
    stride: 2
  }
}
layer {
  name: "fc6"
  type: "InnerProduct"
  bottom: "pool5"
  top: "fc6"
  param {
    lr_mult: 1
    decay_mult: 1
  }
  param {
    lr_mult: 2
    decay_mult: 0
  }
  inner_product_param {
    num_output: 4096
    weight_filler {
      type: "gaussian"
      std: 0.005
    }
    bias_filler {
      type: "constant"
      value: 1
    }
  }
}
layer {
  name: "relu6"
  type: "ReLU"
  bottom: "fc6"
  top: "fc6"
}
layer {
  name: "drop6"
  type: "Dropout"
  bottom: "fc6"
  top: "fc6"
  dropout_param {
    dropout_ratio: 0.5
  }
}
layer {
  name: "fc7"
  type: "InnerProduct"
  bottom: "fc6"
  top: "fc7"
  param {
    lr_mult: 1
    decay_mult: 1
  }
  param {
    lr_mult: 2
    decay_mult: 0
  }
  inner_product_param {
    num_output: 4096
    weight_filler {
      type: "gaussian"
      std: 0.005
    }
    bias_filler {
      type: "constant"
      value: 1
    }
  }
}
layer {
  name: "relu7"
  type: "ReLU"
  bottom: "fc7"
  top: "fc7"
}
layer {
  name: "drop7"
  type: "Dropout"
  bottom: "fc7"
  top: "fc7"
  dropout_param {
    dropout_ratio: 0.5
  }
}
layer {
  name: "fc_scv_interesting"
  type: "InnerProduct"
  bottom: "fc7"
  top: "fc_scv_interesting"
  param {
    lr_mult: 10
    decay_mult: 1
  }
  param {
    lr_mult: 20
    decay_mult: 0
  }
  inner_product_param {
    num_output: 1
    weight_filler {
      type: "xavier"
      std: 0.01
    }
    bias_filler {
      type: "constant"
      value: 0
    }
  }
}
layer {
  name: "loss"
  type: "EuclideanLoss"
  bottom: "fc_scv_interesting"
  bottom: "label"
  top: "loss"
}
layer {
  name: "losttest"
  type: "EuclideanLoss"
  bottom: "fc_scv_interesting"
  bottom: "label"
  top: "losttest"
  include {
    phase: TEST
  }
}
I1130 19:12:52.757889 18021 layer_factory.hpp:77] Creating layer data
I1130 19:12:52.776458 18021 db_lmdb.cpp:35] Opened lmdb /idiap/temp/lmedina/fine-tuning/data/Interesting/validation_lmdb
I1130 19:12:52.781822 18021 net.cpp:84] Creating Layer data
I1130 19:12:52.781838 18021 net.cpp:380] data -> data
I1130 19:12:52.781849 18021 net.cpp:380] data -> label
I1130 19:12:52.781857 18021 data_transformer.cpp:25] Loading mean file from: /idiap/temp/lmedina/fine-tuning/alexnet_places365/places365CNN_mean.binaryproto
I1130 19:12:52.787590 18021 data_layer.cpp:45] output data size: 32,3,227,227
I1130 19:12:52.829483 18021 net.cpp:122] Setting up data
I1130 19:12:52.829519 18021 net.cpp:129] Top shape: 32 3 227 227 (4946784)
I1130 19:12:52.829538 18021 net.cpp:129] Top shape: 32 (32)
I1130 19:12:52.829542 18021 net.cpp:137] Memory required for data: 19787264
I1130 19:12:52.829550 18021 layer_factory.hpp:77] Creating layer label_data_1_split
I1130 19:12:52.829566 18021 net.cpp:84] Creating Layer label_data_1_split
I1130 19:12:52.829571 18021 net.cpp:406] label_data_1_split <- label
I1130 19:12:52.829582 18021 net.cpp:380] label_data_1_split -> label_data_1_split_0
I1130 19:12:52.829594 18021 net.cpp:380] label_data_1_split -> label_data_1_split_1
I1130 19:12:52.829638 18021 net.cpp:122] Setting up label_data_1_split
I1130 19:12:52.829645 18021 net.cpp:129] Top shape: 32 (32)
I1130 19:12:52.829650 18021 net.cpp:129] Top shape: 32 (32)
I1130 19:12:52.829655 18021 net.cpp:137] Memory required for data: 19787520
I1130 19:12:52.829659 18021 layer_factory.hpp:77] Creating layer conv1
I1130 19:12:52.829671 18021 net.cpp:84] Creating Layer conv1
I1130 19:12:52.829676 18021 net.cpp:406] conv1 <- data
I1130 19:12:52.829682 18021 net.cpp:380] conv1 -> conv1
I1130 19:12:52.830171 18021 net.cpp:122] Setting up conv1
I1130 19:12:52.830180 18021 net.cpp:129] Top shape: 32 96 55 55 (9292800)
I1130 19:12:52.830184 18021 net.cpp:137] Memory required for data: 56958720
I1130 19:12:52.830195 18021 layer_factory.hpp:77] Creating layer relu1
I1130 19:12:52.830201 18021 net.cpp:84] Creating Layer relu1
I1130 19:12:52.830205 18021 net.cpp:406] relu1 <- conv1
I1130 19:12:52.830212 18021 net.cpp:367] relu1 -> conv1 (in-place)
I1130 19:12:52.830219 18021 net.cpp:122] Setting up relu1
I1130 19:12:52.830225 18021 net.cpp:129] Top shape: 32 96 55 55 (9292800)
I1130 19:12:52.830229 18021 net.cpp:137] Memory required for data: 94129920
I1130 19:12:52.830234 18021 layer_factory.hpp:77] Creating layer pool1
I1130 19:12:52.830240 18021 net.cpp:84] Creating Layer pool1
I1130 19:12:52.830245 18021 net.cpp:406] pool1 <- conv1
I1130 19:12:52.830250 18021 net.cpp:380] pool1 -> pool1
I1130 19:12:52.830282 18021 net.cpp:122] Setting up pool1
I1130 19:12:52.830289 18021 net.cpp:129] Top shape: 32 96 27 27 (2239488)
I1130 19:12:52.830296 18021 net.cpp:137] Memory required for data: 103087872
I1130 19:12:52.830301 18021 layer_factory.hpp:77] Creating layer norm1
I1130 19:12:52.830307 18021 net.cpp:84] Creating Layer norm1
I1130 19:12:52.830312 18021 net.cpp:406] norm1 <- pool1
I1130 19:12:52.830317 18021 net.cpp:380] norm1 -> norm1
I1130 19:12:52.830374 18021 net.cpp:122] Setting up norm1
I1130 19:12:52.830381 18021 net.cpp:129] Top shape: 32 96 27 27 (2239488)
I1130 19:12:52.830385 18021 net.cpp:137] Memory required for data: 112045824
I1130 19:12:52.830389 18021 layer_factory.hpp:77] Creating layer conv2
I1130 19:12:52.830399 18021 net.cpp:84] Creating Layer conv2
I1130 19:12:52.830406 18021 net.cpp:406] conv2 <- norm1
I1130 19:12:52.830412 18021 net.cpp:380] conv2 -> conv2
I1130 19:12:52.834221 18021 net.cpp:122] Setting up conv2
I1130 19:12:52.834237 18021 net.cpp:129] Top shape: 32 256 27 27 (5971968)
I1130 19:12:52.834245 18021 net.cpp:137] Memory required for data: 135933696
I1130 19:12:52.834259 18021 layer_factory.hpp:77] Creating layer relu2
I1130 19:12:52.834267 18021 net.cpp:84] Creating Layer relu2
I1130 19:12:52.834275 18021 net.cpp:406] relu2 <- conv2
I1130 19:12:52.834281 18021 net.cpp:367] relu2 -> conv2 (in-place)
I1130 19:12:52.834291 18021 net.cpp:122] Setting up relu2
I1130 19:12:52.834298 18021 net.cpp:129] Top shape: 32 256 27 27 (5971968)
I1130 19:12:52.834305 18021 net.cpp:137] Memory required for data: 159821568
I1130 19:12:52.834309 18021 layer_factory.hpp:77] Creating layer pool2
I1130 19:12:52.834319 18021 net.cpp:84] Creating Layer pool2
I1130 19:12:52.834326 18021 net.cpp:406] pool2 <- conv2
I1130 19:12:52.834332 18021 net.cpp:380] pool2 -> pool2
I1130 19:12:52.834377 18021 net.cpp:122] Setting up pool2
I1130 19:12:52.834388 18021 net.cpp:129] Top shape: 32 256 13 13 (1384448)
I1130 19:12:52.834393 18021 net.cpp:137] Memory required for data: 165359360
I1130 19:12:52.834398 18021 layer_factory.hpp:77] Creating layer norm2
I1130 19:12:52.834408 18021 net.cpp:84] Creating Layer norm2
I1130 19:12:52.834414 18021 net.cpp:406] norm2 <- pool2
I1130 19:12:52.834421 18021 net.cpp:380] norm2 -> norm2
I1130 19:12:52.834458 18021 net.cpp:122] Setting up norm2
I1130 19:12:52.834468 18021 net.cpp:129] Top shape: 32 256 13 13 (1384448)
I1130 19:12:52.834473 18021 net.cpp:137] Memory required for data: 170897152
I1130 19:12:52.834481 18021 layer_factory.hpp:77] Creating layer conv3
I1130 19:12:52.834491 18021 net.cpp:84] Creating Layer conv3
I1130 19:12:52.834498 18021 net.cpp:406] conv3 <- norm2
I1130 19:12:52.834506 18021 net.cpp:380] conv3 -> conv3
I1130 19:12:52.845613 18021 net.cpp:122] Setting up conv3
I1130 19:12:52.845641 18021 net.cpp:129] Top shape: 32 384 13 13 (2076672)
I1130 19:12:52.845648 18021 net.cpp:137] Memory required for data: 179203840
I1130 19:12:52.845665 18021 layer_factory.hpp:77] Creating layer relu3
I1130 19:12:52.845679 18021 net.cpp:84] Creating Layer relu3
I1130 19:12:52.845685 18021 net.cpp:406] relu3 <- conv3
I1130 19:12:52.845695 18021 net.cpp:367] relu3 -> conv3 (in-place)
I1130 19:12:52.845708 18021 net.cpp:122] Setting up relu3
I1130 19:12:52.845715 18021 net.cpp:129] Top shape: 32 384 13 13 (2076672)
I1130 19:12:52.845721 18021 net.cpp:137] Memory required for data: 187510528
I1130 19:12:52.845726 18021 layer_factory.hpp:77] Creating layer conv4
I1130 19:12:52.845737 18021 net.cpp:84] Creating Layer conv4
I1130 19:12:52.845743 18021 net.cpp:406] conv4 <- conv3
I1130 19:12:52.845752 18021 net.cpp:380] conv4 -> conv4
I1130 19:12:52.853612 18021 net.cpp:122] Setting up conv4
I1130 19:12:52.853627 18021 net.cpp:129] Top shape: 32 384 13 13 (2076672)
I1130 19:12:52.853632 18021 net.cpp:137] Memory required for data: 195817216
I1130 19:12:52.853642 18021 layer_factory.hpp:77] Creating layer relu4
I1130 19:12:52.853652 18021 net.cpp:84] Creating Layer relu4
I1130 19:12:52.853657 18021 net.cpp:406] relu4 <- conv4
I1130 19:12:52.853665 18021 net.cpp:367] relu4 -> conv4 (in-place)
I1130 19:12:52.853675 18021 net.cpp:122] Setting up relu4
I1130 19:12:52.853683 18021 net.cpp:129] Top shape: 32 384 13 13 (2076672)
I1130 19:12:52.853688 18021 net.cpp:137] Memory required for data: 204123904
I1130 19:12:52.853693 18021 layer_factory.hpp:77] Creating layer conv5
I1130 19:12:52.853703 18021 net.cpp:84] Creating Layer conv5
I1130 19:12:52.853708 18021 net.cpp:406] conv5 <- conv4
I1130 19:12:52.853715 18021 net.cpp:380] conv5 -> conv5
I1130 19:12:52.858917 18021 net.cpp:122] Setting up conv5
I1130 19:12:52.858939 18021 net.cpp:129] Top shape: 32 256 13 13 (1384448)
I1130 19:12:52.858943 18021 net.cpp:137] Memory required for data: 209661696
I1130 19:12:52.858959 18021 layer_factory.hpp:77] Creating layer relu5
I1130 19:12:52.858970 18021 net.cpp:84] Creating Layer relu5
I1130 19:12:52.858981 18021 net.cpp:406] relu5 <- conv5
I1130 19:12:52.858991 18021 net.cpp:367] relu5 -> conv5 (in-place)
I1130 19:12:52.859001 18021 net.cpp:122] Setting up relu5
I1130 19:12:52.859009 18021 net.cpp:129] Top shape: 32 256 13 13 (1384448)
I1130 19:12:52.859014 18021 net.cpp:137] Memory required for data: 215199488
I1130 19:12:52.859019 18021 layer_factory.hpp:77] Creating layer pool5
I1130 19:12:52.859028 18021 net.cpp:84] Creating Layer pool5
I1130 19:12:52.859033 18021 net.cpp:406] pool5 <- conv5
I1130 19:12:52.859040 18021 net.cpp:380] pool5 -> pool5
I1130 19:12:52.859096 18021 net.cpp:122] Setting up pool5
I1130 19:12:52.859104 18021 net.cpp:129] Top shape: 32 256 6 6 (294912)
I1130 19:12:52.859109 18021 net.cpp:137] Memory required for data: 216379136
I1130 19:12:52.859115 18021 layer_factory.hpp:77] Creating layer fc6
I1130 19:12:52.859125 18021 net.cpp:84] Creating Layer fc6
I1130 19:12:52.859131 18021 net.cpp:406] fc6 <- pool5
I1130 19:12:52.859138 18021 net.cpp:380] fc6 -> fc6
I1130 19:12:53.210650 18021 net.cpp:122] Setting up fc6
I1130 19:12:53.210680 18021 net.cpp:129] Top shape: 32 4096 (131072)
I1130 19:12:53.210683 18021 net.cpp:137] Memory required for data: 216903424
I1130 19:12:53.210695 18021 layer_factory.hpp:77] Creating layer relu6
I1130 19:12:53.210706 18021 net.cpp:84] Creating Layer relu6
I1130 19:12:53.210711 18021 net.cpp:406] relu6 <- fc6
I1130 19:12:53.210721 18021 net.cpp:367] relu6 -> fc6 (in-place)
I1130 19:12:53.210731 18021 net.cpp:122] Setting up relu6
I1130 19:12:53.210737 18021 net.cpp:129] Top shape: 32 4096 (131072)
I1130 19:12:53.210741 18021 net.cpp:137] Memory required for data: 217427712
I1130 19:12:53.210746 18021 layer_factory.hpp:77] Creating layer drop6
I1130 19:12:53.210753 18021 net.cpp:84] Creating Layer drop6
I1130 19:12:53.210757 18021 net.cpp:406] drop6 <- fc6
I1130 19:12:53.210762 18021 net.cpp:367] drop6 -> fc6 (in-place)
I1130 19:12:53.210788 18021 net.cpp:122] Setting up drop6
I1130 19:12:53.210793 18021 net.cpp:129] Top shape: 32 4096 (131072)
I1130 19:12:53.210798 18021 net.cpp:137] Memory required for data: 217952000
I1130 19:12:53.210803 18021 layer_factory.hpp:77] Creating layer fc7
I1130 19:12:53.210811 18021 net.cpp:84] Creating Layer fc7
I1130 19:12:53.210816 18021 net.cpp:406] fc7 <- fc6
I1130 19:12:53.210822 18021 net.cpp:380] fc7 -> fc7
I1130 19:12:53.364120 18021 net.cpp:122] Setting up fc7
I1130 19:12:53.364151 18021 net.cpp:129] Top shape: 32 4096 (131072)
I1130 19:12:53.364156 18021 net.cpp:137] Memory required for data: 218476288
I1130 19:12:53.364166 18021 layer_factory.hpp:77] Creating layer relu7
I1130 19:12:53.364178 18021 net.cpp:84] Creating Layer relu7
I1130 19:12:53.364184 18021 net.cpp:406] relu7 <- fc7
I1130 19:12:53.364194 18021 net.cpp:367] relu7 -> fc7 (in-place)
I1130 19:12:53.364205 18021 net.cpp:122] Setting up relu7
I1130 19:12:53.364210 18021 net.cpp:129] Top shape: 32 4096 (131072)
I1130 19:12:53.364215 18021 net.cpp:137] Memory required for data: 219000576
I1130 19:12:53.364220 18021 layer_factory.hpp:77] Creating layer drop7
I1130 19:12:53.364228 18021 net.cpp:84] Creating Layer drop7
I1130 19:12:53.364233 18021 net.cpp:406] drop7 <- fc7
I1130 19:12:53.364238 18021 net.cpp:367] drop7 -> fc7 (in-place)
I1130 19:12:53.364264 18021 net.cpp:122] Setting up drop7
I1130 19:12:53.364270 18021 net.cpp:129] Top shape: 32 4096 (131072)
I1130 19:12:53.364274 18021 net.cpp:137] Memory required for data: 219524864
I1130 19:12:53.364279 18021 layer_factory.hpp:77] Creating layer fc_scv_interesting
I1130 19:12:53.364289 18021 net.cpp:84] Creating Layer fc_scv_interesting
I1130 19:12:53.364292 18021 net.cpp:406] fc_scv_interesting <- fc7
I1130 19:12:53.364298 18021 net.cpp:380] fc_scv_interesting -> fc_scv_interesting
I1130 19:12:53.364403 18021 net.cpp:122] Setting up fc_scv_interesting
I1130 19:12:53.364411 18021 net.cpp:129] Top shape: 32 1 (32)
I1130 19:12:53.364416 18021 net.cpp:137] Memory required for data: 219524992
I1130 19:12:53.364423 18021 layer_factory.hpp:77] Creating layer fc_scv_interesting_fc_scv_interesting_0_split
I1130 19:12:53.364437 18021 net.cpp:84] Creating Layer fc_scv_interesting_fc_scv_interesting_0_split
I1130 19:12:53.364442 18021 net.cpp:406] fc_scv_interesting_fc_scv_interesting_0_split <- fc_scv_interesting
I1130 19:12:53.364447 18021 net.cpp:380] fc_scv_interesting_fc_scv_interesting_0_split -> fc_scv_interesting_fc_scv_interesting_0_split_0
I1130 19:12:53.364455 18021 net.cpp:380] fc_scv_interesting_fc_scv_interesting_0_split -> fc_scv_interesting_fc_scv_interesting_0_split_1
I1130 19:12:53.364485 18021 net.cpp:122] Setting up fc_scv_interesting_fc_scv_interesting_0_split
I1130 19:12:53.364492 18021 net.cpp:129] Top shape: 32 1 (32)
I1130 19:12:53.364498 18021 net.cpp:129] Top shape: 32 1 (32)
I1130 19:12:53.364502 18021 net.cpp:137] Memory required for data: 219525248
I1130 19:12:53.364506 18021 layer_factory.hpp:77] Creating layer loss
I1130 19:12:53.364514 18021 net.cpp:84] Creating Layer loss
I1130 19:12:53.364518 18021 net.cpp:406] loss <- fc_scv_interesting_fc_scv_interesting_0_split_0
I1130 19:12:53.364523 18021 net.cpp:406] loss <- label_data_1_split_0
I1130 19:12:53.364531 18021 net.cpp:380] loss -> loss
…
