…
I1130 08:17:07.550194 27091 net.cpp:51] Initializing net from parameters: 
name: "GoogleNet-Places365-SCV-Pleasant"
state {
  phase: TRAIN
  level: 0
  stage: ""
}
layer {
  name: "data"
  type: "Data"
  top: "data"
  top: "label"
  include {
    phase: TRAIN
  }
  transform_param {
    mirror: true
    crop_size: 224
    mean_file: "/idiap/temp/lmedina/fine-tuning/googlenet_places365/places365CNN_mean.binaryproto"
  }
  data_param {
    source: "/idiap/temp/lmedina/fine-tuning/data/Pleasant/train_lmdb"
    batch_size: 32
    backend: LMDB
  }
}
layer {
  name: "conv1/7x7_s2"
  type: "Convolution"
  bottom: "data"
  top: "conv1/7x7_s2"
  param {
    lr_mult: 1
    decay_mult: 1
  }
  param {
    lr_mult: 2
    decay_mult: 0
  }
  convolution_param {
    num_output: 64
    pad: 3
    kernel_size: 7
    stride: 2
    weight_filler {
      type: "xavier"
      std: 0.1
    }
    bias_filler {
      type: "constant"
      value: 0.2
    }
  }
}
layer {
  name: "conv1/relu_7x7"
  type: "ReLU"
  bottom: "conv1/7x7_s2"
  top: "conv1/7x7_s2"
}
layer {
  name: "pool1/3x3_s2"
  type: "Pooling"
  bottom: "conv1/7x7_s2"
  top: "pool1/3x3_s2"
  pooling_param {
    pool: MAX
    kernel_size: 3
    stride: 2
  }
}
layer {
  name: "pool1/norm1"
  type: "LRN"
  bottom: "pool1/3x3_s2"
  top: "pool1/norm1"
  lrn_param {
    local_size: 5
    alpha: 0.0001
    beta: 0.75
  }
}
layer {
  name: "conv2/3x3_reduce"
  type: "Convolution"
  bottom: "pool1/norm1"
  top: "conv2/3x3_reduce"
  param {
    lr_mult: 1
    decay_mult: 1
  }
  param {
    lr_mult: 2
    decay_mult: 0
  }
  convolution_param {
    num_output: 64
    kernel_size: 1
    weight_filler {
      type: "xavier"
      std: 0.1
    }
    bias_filler {
      type: "constant"
      value: 0.2
    }
  }
}
layer {
  name: "conv2/relu_3x3_reduce"
  type: "ReLU"
  bottom: "conv2/3x3_reduce"
  top: "conv2/3x3_reduce"
}
layer {
  name: "conv2/3x3"
  type: "Convolution"
  bottom: "conv2/3x3_reduce"
  top: "conv2/3x3"
  param {
    lr_mult: 1
    decay_mult: 1
  }
  param {
    lr_mult: 2
    decay_mult: 0
  }
  convolution_param {
    num_output: 192
    pad: 1
    kernel_size: 3
    weight_filler {
      type: "xavier"
      std: 0.03
    }
    bias_filler {
      type: "constant"
      value: 0.2
    }
  }
}
layer {
  name: "conv2/relu_3x3"
  type: "ReLU"
  bottom: "conv2/3x3"
  top: "conv2/3x3"
}
layer {
  name: "conv2/norm2"
  type: "LRN"
  bottom: "conv2/3x3"
  top: "conv2/norm2"
  lrn_param {
    local_size: 5
    alpha: 0.0001
    beta: 0.75
  }
}
layer {
  name: "pool2/3x3_s2"
  type: "Pooling"
  bottom: "conv2/norm2"
  top: "pool2/3x3_s2"
  pooling_param {
    pool: MAX
    kernel_size: 3
    stride: 2
  }
}
layer {
  name: "inception_3a/1x1"
  type: "Convolution"
  bottom: "pool2/3x3_s2"
  top: "inception_3a/1x1"
  param {
    lr_mult: 1
    decay_mult: 1
  }
  param {
    lr_mult: 2
    decay_mult: 0
  }
  convolution_param {
    num_output: 64
    kernel_size: 1
    weight_filler {
      type: "xavier"
      std: 0.03
    }
    bias_filler {
      type: "constant"
      value: 0.2
    }
  }
}
layer {
  name: "inception_3a/relu_1x1"
  type: "ReLU"
  bottom: "inception_3a/1x1"
  top: "inception_3a/1x1"
}
layer {
  name: "inception_3a/3x3_reduce"
  type: "Convolution"
  bottom: "pool2/3x3_s2"
  top: "inception_3a/3x3_reduce"
  param {
    lr_mult: 1
    decay_mult: 1
  }
  param {
    lr_mult: 2
    decay_mult: 0
  }
  convolution_param {
    num_output: 96
    kernel_size: 1
    weight_filler {
      type: "xavier"
      std: 0.09
    }
    bias_filler {
      type: "constant"
      value: 0.2
    }
  }
}
layer {
  name: "inception_3a/relu_3x3_reduce"
  type: "ReLU"
  bottom: "inception_3a/3x3_reduce"
  top: "inception_3a/3x3_reduce"
}
layer {
  name: "inception_3a/3x3"
  type: "Convolution"
  bottom: "inception_3a/3x3_reduce"
  top: "inception_3a/3x3"
  param {
    lr_mult: 1
    decay_mult: 1
  }
  param {
    lr_mult: 2
    decay_mult: 0
  }
  convolution_param {
    num_output: 128
    pad: 1
    kernel_size: 3
    weight_filler {
      type: "xavier"
      std: 0.03
    }
    bias_filler {
      type: "constant"
      value: 0.2
    }
  }
}
layer {
  name: "inception_3a/relu_3x3"
  type: "ReLU"
  bottom: "inception_3a/3x3"
  top: "inception_3a/3x3"
}
layer {
  name: "inception_3a/5x5_reduce"
  type: "Convolution"
  bottom: "pool2/3x3_s2"
  top: "inception_3a/5x5_reduce"
  param {
    lr_mult: 1
    decay_mult: 1
  }
  param {
    lr_mult: 2
    decay_mult: 0
  }
  convolution_param {
    num_output: 16
    kernel_size: 1
    weight_filler {
      type: "xavier"
      std: 0.2
    }
    bias_filler {
      type: "constant"
      value: 0.2
    }
  }
}
layer {
  name: "inception_3a/relu_5x5_reduce"
  type: "ReLU"
  bottom: "inception_3a/5x5_reduce"
  top: "inception_3a/5x5_reduce"
}
layer {
  name: "inception_3a/5x5"
  type: "Convolution"
  bottom: "inception_3a/5x5_reduce"
  top: "inception_3a/5x5"
  param {
    lr_mult: 1
    decay_mult: 1
  }
  param {
    lr_mult: 2
    decay_mult: 0
  }
  convolution_param {
    num_output: 32
    pad: 2
    kernel_size: 5
    weight_filler {
      type: "xavier"
      std: 0.03
    }
    bias_filler {
      type: "constant"
      value: 0.2
    }
  }
}
layer {
  name: "inception_3a/relu_5x5"
  type: "ReLU"
  bottom: "inception_3a/5x5"
  top: "inception_3a/5x5"
}
layer {
  name: "inception_3a/pool"
  type: "Pooling"
  bottom: "pool2/3x3_s2"
  top: "inception_3a/pool"
  pooling_param {
    pool: MAX
    kernel_size: 3
    stride: 1
    pad: 1
  }
}
layer {
  name: "inception_3a/pool_proj"
  type: "Convolution"
  bottom: "inception_3a/pool"
  top: "inception_3a/pool_proj"
  param {
    lr_mult: 1
    decay_mult: 1
  }
  param {
    lr_mult: 2
    decay_mult: 0
  }
  convolution_param {
    num_output: 32
    kernel_size: 1
    weight_filler {
      type: "xavier"
      std: 0.1
    }
    bias_filler {
      type: "constant"
      value: 0.2
    }
  }
}
layer {
  name: "inception_3a/relu_pool_proj"
  type: "ReLU"
  bottom: "inception_3a/pool_proj"
  top: "inception_3a/pool_proj"
}
layer {
  name: "inception_3a/output"
  type: "Concat"
  bottom: "inception_3a/1x1"
  bottom: "inception_3a/3x3"
  bottom: "inception_3a/5x5"
  bottom: "inception_3a/pool_proj"
  top: "inception_3a/output"
}
layer {
  name: "inception_3b/1x1"
  type: "Convolution"
  bottom: "inception_3a/output"
  top: "inception_3b/1x1"
  param {
    lr_mult: 1
    decay_mult: 1
  }
  param {
    lr_mult: 2
    decay_mult: 0
  }
  convolution_param {
    num_output: 128
    kernel_size: 1
    weight_filler {
      type: "xavier"
      std: 0.03
    }
    bias_filler {
      type: "constant"
      value: 0.2
    }
  }
}
layer {
  name: "inception_3b/relu_1x1"
  type: "ReLU"
  bottom: "inception_3b/1x1"
  top: "inception_3b/1x1"
}
layer {
  name: "inception_3b/3x3_reduce"
  type: "Convolution"
  bottom: "inception_3a/output"
  top: "inception_3b/3x3_reduce"
  param {
    lr_mult: 1
    decay_mult: 1
  }
  param {
    lr_mult: 2
    decay_mult: 0
  }
  convolution_param {
    num_output: 128
    kernel_size: 1
    weight_filler {
      type: "xavier"
      std: 0.09
    }
    bias_filler {
      type: "constant"
      value: 0.2
    }
  }
}
layer {
  name: "inception_3b/relu_3x3_reduce"
  type: "ReLU"
  bottom: "inception_3b/3x3_reduce"
  top: "inception_3b/3x3_reduce"
}
layer {
  name: "inception_3b/3x3"
  type: "Convolution"
  bottom: "inception_3b/3x3_reduce"
  top: "inception_3b/3x3"
  param {
    lr_mult: 1
    decay_mult: 1
  }
  param {
    lr_mult: 2
    decay_mult: 0
  }
  convolution_param {
    num_output: 192
    pad: 1
    kernel_size: 3
    weight_filler {
      type: "xavier"
      std: 0.03
    }
    bias_filler {
      type: "constant"
      value: 0.2
    }
  }
}
layer {
  name: "inception_3b/relu_3x3"
  type: "ReLU"
  bottom: "inception_3b/3x3"
  top: "inception_3b/3x3"
}
layer {
  name: "inception_3b/5x5_reduce"
  type: "Convolution"
  bottom: "inception_3a/output"
  top: "inception_3b/5x5_reduce"
  param {
    lr_mult: 1
    decay_mult: 1
  }
  param {
    lr_mult: 2
    decay_mult: 0
  }
  convolution_param {
    num_output: 32
    kernel_size: 1
    weight_filler {
      type: "xavier"
      std: 0.2
    }
    bias_filler {
      type: "constant"
      value: 0.2
    }
  }
}
layer {
  name: "inception_3b/relu_5x5_reduce"
  type: "ReLU"
  bottom: "inception_3b/5x5_reduce"
  top: "inception_3b/5x5_reduce"
}
layer {
  name: "inception_3b/5x5"
  type: "Convolution"
  bottom: "inception_3b/5x5_reduce"
  top: "inception_3b/5x5"
  param {
    lr_mult: 1
    decay_mult: 1
  }
  param {
    lr_mult: 2
    decay_mult: 0
  }
  convolution_param {
    num_output: 96
    pad: 2
    kernel_size: 5
    weight_filler {
      type: "xavier"
      std: 0.03
    }
    bias_filler {
      type: "constant"
      value: 0.2
    }
  }
}
layer {
  name: "inception_3b/relu_5x5"
  type: "ReLU"
  bottom: "inception_3b/5x5"
  top: "inception_3b/5x5"
}
layer {
  name: "inception_3b/pool"
  type: "Pooling"
  bottom: "inception_3a/output"
  top: "inception_3b/pool"
  pooling_param {
    pool: MAX
    kernel_size: 3
    stride: 1
    pad: 1
  }
}
layer {
  name: "inception_3b/pool_proj"
  type: "Convolution"
  bottom: "inception_3b/pool"
  top: "inception_3b/pool_proj"
  param {
    lr_mult: 1
    decay_mult: 1
  }
  param {
    lr_mult: 2
    decay_mult: 0
  }
  convolution_param {
    num_output: 64
    kernel_size: 1
    weight_filler {
      type: "xavier"
      std: 0.1
    }
    bias_filler {
      type: "constant"
      value: 0.2
    }
  }
}
layer {
  name: "inception_3b/relu_pool_proj"
  type: "ReLU"
  bottom: "inception_3b/pool_proj"
  top: "inception_3b/pool_proj"
}
layer {
  name: "inception_3b/output"
  type: "Concat"
  bottom: "inception_3b/1x1"
  bottom: "inception_3b/3x3"
  bottom: "inception_3b/5x5"
  bottom: "inception_3b/pool_proj"
  top: "inception_3b/output"
}
layer {
  name: "pool3/3x3_s2"
  type: "Pooling"
  bottom: "inception_3b/output"
  top: "pool3/3x3_s2"
  pooling_param {
    pool: MAX
    kernel_size: 3
    stride: 2
  }
}
layer {
  name: "inception_4a/1x1"
  type: "Convolution"
  bottom: "pool3/3x3_s2"
  top: "inception_4a/1x1"
  param {
    lr_mult: 1
    decay_mult: 1
  }
  param {
    lr_mult: 2
    decay_mult: 0
  }
  convolution_param {
    num_output: 192
    kernel_size: 1
    weight_filler {
      type: "xavier"
      std: 0.03
    }
    bias_filler {
      type: "constant"
      value: 0.2
    }
  }
}
layer {
  name: "inception_4a/relu_1x1"
  type: "ReLU"
  bottom: "inception_4a/1x1"
  top: "inception_4a/1x1"
}
layer {
  name: "inception_4a/3x3_reduce"
  type: "Convolution"
  bottom: "pool3/3x3_s2"
  top: "inception_4a/3x3_reduce"
  param {
    lr_mult: 1
    decay_mult: 1
  }
  param {
    lr_mult: 2
    decay_mult: 0
  }
  convolution_param {
    num_output: 96
    kernel_size: 1
    weight_filler {
      type: "xavier"
      std: 0.09
    }
    bias_filler {
      type: "constant"
      value: 0.2
    }
  }
}
layer {
  name: "inception_4a/relu_3x3_reduce"
  type: "ReLU"
  bottom: "inception_4a/3x3_reduce"
  top: "inception_4a/3x3_reduce"
}
layer {
  name: "inception_4a/3x3"
  type: "Convolution"
  bottom: "inception_4a/3x3_reduce"
  top: "inception_4a/3x3"
  param {
    lr_mult: 1
    decay_mult: 1
  }
  param {
    lr_mult: 2
    decay_mult: 0
  }
  convolution_param {
    num_output: 208
    pad: 1
    kernel_size: 3
    weight_filler {
      type: "xavier"
      std: 0.03
    }
    bias_filler {
      type: "constant"
      value: 0.2
    }
  }
}
layer {
  name: "inception_4a/relu_3x3"
  type: "ReLU"
  bottom: "inception_4a/3x3"
  top: "inception_4a/3x3"
}
layer {
  name: "inception_4a/5x5_reduce"
  type: "Convolution"
  bottom: "pool3/3x3_s2"
  top: "inception_4a/5x5_reduce"
  param {
    lr_mult: 1
    decay_mult: 1
  }
  param {
    lr_mult: 2
    decay_mult: 0
  }
  convolution_param {
    num_output: 16
    kernel_size: 1
    weight_filler {
      type: "xavier"
      std: 0.2
    }
    bias_filler {
      type: "constant"
      value: 0.2
    }
  }
}
layer {
  name: "inception_4a/relu_5x5_reduce"
  type: "ReLU"
  bottom: "inception_4a/5x5_reduce"
  top: "inception_4a/5x5_reduce"
}
layer {
  name: "inception_4a/5x5"
  type: "Convolution"
  bottom: "inception_4a/5x5_reduce"
  top: "inception_4a/5x5"
  param {
    lr_mult: 1
    decay_mult: 1
  }
  param {
    lr_mult: 2
    decay_mult: 0
  }
  convolution_param {
    num_output: 48
    pad: 2
    kernel_size: 5
    weight_filler {
      type: "xavier"
      std: 0.03
    }
    bias_filler {
      type: "constant"
      value: 0.2
    }
  }
}
layer {
  name: "inception_4a/relu_5x5"
  type: "ReLU"
  bottom: "inception_4a/5x5"
  top: "inception_4a/5x5"
}
layer {
  name: "inception_4a/pool"
  type: "Pooling"
  bottom: "pool3/3x3_s2"
  top: "inception_4a/pool"
  pooling_param {
    pool: MAX
    kernel_size: 3
    stride: 1
    pad: 1
  }
}
layer {
  name: "inception_4a/pool_proj"
  type: "Convolution"
  bottom: "inception_4a/pool"
  top: "inception_4a/pool_proj"
  param {
    lr_mult: 1
    decay_mult: 1
  }
  param {
    lr_mult: 2
    decay_mult: 0
  }
  convolution_param {
    num_output: 64
    kernel_size: 1
    weight_filler {
      type: "xavier"
      std: 0.1
    }
    bias_filler {
      type: "constant"
      value: 0.2
    }
  }
}
layer {
  name: "inception_4a/relu_pool_proj"
  type: "ReLU"
  bottom: "inception_4a/pool_proj"
  top: "inception_4a/pool_proj"
}
layer {
  name: "inception_4a/output"
  type: "Concat"
  bottom: "inception_4a/1x1"
  bottom: "inception_4a/3x3"
  bottom: "inception_4a/5x5"
  bottom: "inception_4a/pool_proj"
  top: "inception_4a/output"
}
layer {
  name: "inception_4b/1x1"
  type: "Convolution"
  bottom: "inception_4a/output"
  top: "inception_4b/1x1"
  param {
    lr_mult: 1
    decay_mult: 1
  }
  param {
    lr_mult: 2
    decay_mult: 0
  }
  convolution_param {
    num_output: 160
    kernel_size: 1
    weight_filler {
      type: "xavier"
      std: 0.03
    }
    bias_filler {
      type: "constant"
      value: 0.2
    }
  }
}
layer {
  name: "inception_4b/relu_1x1"
  type: "ReLU"
  bottom: "inception_4b/1x1"
  top: "inception_4b/1x1"
}
layer {
  name: "inception_4b/3x3_reduce"
  type: "Convolution"
  bottom: "inception_4a/output"
  top: "inception_4b/3x3_reduce"
  param {
    lr_mult: 1
    decay_mult: 1
  }
  param {
    lr_mult: 2
    decay_mult: 0
  }
  convolution_param {
    num_output: 112
    kernel_size: 1
    weight_filler {
      type: "xavier"
      std: 0.09
    }
    bias_filler {
      type: "constant"
      value: 0.2
    }
  }
}
layer {
  name: "inception_4b/relu_3x3_reduce"
  type: "ReLU"
  bottom: "inception_4b/3x3_reduce"
  top: "inception_4b/3x3_reduce"
}
layer {
  name: "inception_4b/3x3"
  type: "Convolution"
  bottom: "inception_4b/3x3_reduce"
  top: "inception_4b/3x3"
  param {
    lr_mult: 1
    decay_mult: 1
  }
  param {
    lr_mult: 2
    decay_mult: 0
  }
  convolution_param {
    num_output: 224
    pad: 1
    kernel_size: 3
    weight_filler {
      type: "xavier"
      std: 0.03
    }
    bias_filler {
      type: "constant"
      value: 0.2
    }
  }
}
layer {
  name: "inception_4b/relu_3x3"
  type: "ReLU"
  bottom: "inception_4b/3x3"
  top: "inception_4b/3x3"
}
layer {
  name: "inception_4b/5x5_reduce"
  type: "Convolution"
  bottom: "inception_4a/output"
  top: "inception_4b/5x5_reduce"
  param {
    lr_mult: 1
    decay_mult: 1
  }
  param {
    lr_mult: 2
    decay_mult: 0
  }
  convolution_param {
    num_output: 24
    kernel_size: 1
    weight_filler {
      type: "xavier"
      std: 0.2
    }
    bias_filler {
      type: "constant"
      value: 0.2
    }
  }
}
layer {
  name: "inception_4b/relu_5x5_reduce"
  type: "ReLU"
  bottom: "inception_4b/5x5_reduce"
  top: "inception_4b/5x5_reduce"
}
layer {
  name: "inception_4b/5x5"
  type: "Convolution"
  bottom: "inception_4b/5x5_reduce"
  top: "inception_4b/5x5"
  param {
    lr_mult: 1
    decay_mult: 1
  }
  param {
    lr_mult: 2
    decay_mult: 0
  }
  convolution_param {
    num_output: 64
    pad: 2
    kernel_size: 5
    weight_filler {
      type: "xavier"
      std: 0.03
    }
    bias_filler {
      type: "constant"
      value: 0.2
    }
  }
}
layer {
  name: "inception_4b/relu_5x5"
  type: "ReLU"
  bottom: "inception_4b/5x5"
  top: "inception_4b/5x5"
}
layer {
  name: "inception_4b/pool"
  type: "Pooling"
  bottom: "inception_4a/output"
  top: "inception_4b/pool"
  pooling_param {
    pool: MAX
    kernel_size: 3
    stride: 1
    pad: 1
  }
}
layer {
  name: "inception_4b/pool_proj"
  type: "Convolution"
  bottom: "inception_4b/pool"
  top: "inception_4b/pool_proj"
  param {
    lr_mult: 1
    decay_mult: 1
  }
  param {
    lr_mult: 2
    decay_mult: 0
  }
  convolution_param {
    num_output: 64
    kernel_size: 1
    weight_filler {
      type: "xavier"
      std: 0.1
    }
    bias_filler {
      type: "constant"
      value: 0.2
    }
  }
}
layer {
  name: "inception_4b/relu_pool_proj"
  type: "ReLU"
  bottom: "inception_4b/pool_proj"
  top: "inception_4b/pool_proj"
}
layer {
  name: "inception_4b/output"
  type: "Concat"
  bottom: "inception_4b/1x1"
  bottom: "inception_4b/3x3"
  bottom: "inception_4b/5x5"
  bottom: "inception_4b/pool_proj"
  top: "inception_4b/output"
}
layer {
  name: "inception_4c/1x1"
  type: "Convolution"
  bottom: "inception_4b/output"
  top: "inception_4c/1x1"
  param {
    lr_mult: 1
    decay_mult: 1
  }
  param {
    lr_mult: 2
    decay_mult: 0
  }
  convolution_param {
    num_output: 128
    kernel_size: 1
    weight_filler {
      type: "xavier"
      std: 0.03
    }
    bias_filler {
      type: "constant"
      value: 0.2
    }
  }
}
layer {
  name: "inception_4c/relu_1x1"
  type: "ReLU"
  bottom: "inception_4c/1x1"
  top: "inception_4c/1x1"
}
layer {
  name: "inception_4c/3x3_reduce"
  type: "Convolution"
  bottom: "inception_4b/output"
  top: "inception_4c/3x3_reduce"
  param {
    lr_mult: 1
    decay_mult: 1
  }
  param {
    lr_mult: 2
    decay_mult: 0
  }
  convolution_param {
    num_output: 128
    kernel_size: 1
    weight_filler {
      type: "xavier"
      std: 0.09
    }
    bias_filler {
      type: "constant"
      value: 0.2
    }
  }
}
layer {
  name: "inception_4c/relu_3x3_reduce"
  type: "ReLU"
  bottom: "inception_4c/3x3_reduce"
  top: "inception_4c/3x3_reduce"
}
layer {
  name: "inception_4c/3x3"
  type: "Convolution"
  bottom: "inception_4c/3x3_reduce"
  top: "inception_4c/3x3"
  param {
    lr_mult: 1
    decay_mult: 1
  }
  param {
    lr_mult: 2
    decay_mult: 0
  }
  convolution_param {
    num_output: 256
    pad: 1
    kernel_size: 3
    weight_filler {
      type: "xavier"
      std: 0.03
    }
    bias_filler {
      type: "constant"
      value: 0.2
    }
  }
}
layer {
  name: "inception_4c/relu_3x3"
  type: "ReLU"
  bottom: "inception_4c/3x3"
  top: "inception_4c/3x3"
}
layer {
  name: "inception_4c/5x5_reduce"
  type: "Convolution"
  bottom: "inception_4b/output"
  top: "inception_4c/5x5_reduce"
  param {
    lr_mult: 1
    decay_mult: 1
  }
  param {
    lr_mult: 2
    decay_mult: 0
  }
  convolution_param {
    num_output: 24
    kernel_size: 1
    weight_filler {
      type: "xavier"
      std: 0.2
    }
    bias_filler {
      type: "constant"
      value: 0.2
    }
  }
}
layer {
  name: "inception_4c/relu_5x5_reduce"
  type: "ReLU"
  bottom: "inception_4c/5x5_reduce"
  top: "inception_4c/5x5_reduce"
}
layer {
  name: "inception_4c/5x5"
  type: "Convolution"
  bottom: "inception_4c/5x5_reduce"
  top: "inception_4c/5x5"
  param {
    lr_mult: 1
    decay_mult: 1
  }
  param {
    lr_mult: 2
    decay_mult: 0
  }
  convolution_param {
    num_output: 64
    pad: 2
    kernel_size: 5
    weight_filler {
      type: "xavier"
      std: 0.03
    }
    bias_filler {
      type: "constant"
      value: 0.2
    }
  }
}
layer {
  name: "inception_4c/relu_5x5"
  type: "ReLU"
  bottom: "inception_4c/5x5"
  top: "inception_4c/5x5"
}
layer {
  name: "inception_4c/pool"
  type: "Pooling"
  bottom: "inception_4b/output"
  top: "inception_4c/pool"
  pooling_param {
    pool: MAX
    kernel_size: 3
    stride: 1
    pad: 1
  }
}
layer {
  name: "inception_4c/pool_proj"
  type: "Convolution"
  bottom: "inception_4c/pool"
  top: "inception_4c/pool_proj"
  param {
    lr_mult: 1
    decay_mult: 1
  }
  param {
    lr_mult: 2
    decay_mult: 0
  }
  convolution_param {
    num_output: 64
    kernel_size: 1
    weight_filler {
      type: "xavier"
      std: 0.1
    }
    bias_filler {
      type: "constant"
      value: 0.2
    }
  }
}
layer {
  name: "inception_4c/relu_pool_proj"
  type: "ReLU"
  bottom: "inception_4c/pool_proj"
  top: "inception_4c/pool_proj"
}
layer {
  name: "inception_4c/output"
  type: "Concat"
  bottom: "inception_4c/1x1"
  bottom: "inception_4c/3x3"
  bottom: "inception_4c/5x5"
  bottom: "inception_4c/pool_proj"
  top: "inception_4c/output"
}
layer {
  name: "inception_4d/1x1"
  type: "Convolution"
  bottom: "inception_4c/output"
  top: "inception_4d/1x1"
  param {
    lr_mult: 1
    decay_mult: 1
  }
  param {
    lr_mult: 2
    decay_mult: 0
  }
  convolution_param {
    num_output: 112
    kernel_size: 1
    weight_filler {
      type: "xavier"
      std: 0.03
    }
    bias_filler {
      type: "constant"
      value: 0.2
    }
  }
}
layer {
  name: "inception_4d/relu_1x1"
  type: "ReLU"
  bottom: "inception_4d/1x1"
  top: "inception_4d/1x1"
}
layer {
  name: "inception_4d/3x3_reduce"
  type: "Convolution"
  bottom: "inception_4c/output"
  top: "inception_4d/3x3_reduce"
  param {
    lr_mult: 1
    decay_mult: 1
  }
  param {
    lr_mult: 2
    decay_mult: 0
  }
  convolution_param {
    num_output: 144
    kernel_size: 1
    weight_filler {
      type: "xavier"
      std: 0.09
    }
    bias_filler {
      type: "constant"
      value: 0.2
    }
  }
}
layer {
  name: "inception_4d/relu_3x3_reduce"
  type: "ReLU"
  bottom: "inception_4d/3x3_reduce"
  top: "inception_4d/3x3_reduce"
}
layer {
  name: "inception_4d/3x3"
  type: "Convolution"
  bottom: "inception_4d/3x3_reduce"
  top: "inception_4d/3x3"
  param {
    lr_mult: 1
    decay_mult: 1
  }
  param {
    lr_mult: 2
    decay_mult: 0
  }
  convolution_param {
    num_output: 288
    pad: 1
    kernel_size: 3
    weight_filler {
      type: "xavier"
      std: 0.03
    }
    bias_filler {
      type: "constant"
      value: 0.2
    }
  }
}
layer {
  name: "inception_4d/relu_3x3"
  type: "ReLU"
  bottom: "inception_4d/3x3"
  top: "inception_4d/3x3"
}
layer {
  name: "inception_4d/5x5_reduce"
  type: "Convolution"
  bottom: "inception_4c/output"
  top: "inception_4d/5x5_reduce"
  param {
    lr_mult: 1
    decay_mult: 1
  }
  param {
    lr_mult: 2
    decay_mult: 0
  }
  convolution_param {
    num_output: 32
    kernel_size: 1
    weight_filler {
      type: "xavier"
      std: 0.2
    }
    bias_filler {
      type: "constant"
      value: 0.2
    }
  }
}
layer {
  name: "inception_4d/relu_5x5_reduce"
  type: "ReLU"
  bottom: "inception_4d/5x5_reduce"
  top: "inception_4d/5x5_reduce"
}
layer {
  name: "inception_4d/5x5"
  type: "Convolution"
  bottom: "inception_4d/5x5_reduce"
  top: "inception_4d/5x5"
  param {
    lr_mult: 1
    decay_mult: 1
  }
  param {
    lr_mult: 2
    decay_mult: 0
  }
  convolution_param {
    num_output: 64
    pad: 2
    kernel_size: 5
    weight_filler {
      type: "xavier"
      std: 0.03
    }
    bias_filler {
      type: "constant"
      value: 0.2
    }
  }
}
layer {
  name: "inception_4d/relu_5x5"
  type: "ReLU"
  bottom: "inception_4d/5x5"
  top: "inception_4d/5x5"
}
layer {
  name: "inception_4d/pool"
  type: "Pooling"
  bottom: "inception_4c/output"
  top: "inception_4d/pool"
  pooling_param {
    pool: MAX
    kernel_size: 3
    stride: 1
    pad: 1
  }
}
layer {
  name: "inception_4d/pool_proj"
  type: "Convolution"
  bottom: "inception_4d/pool"
  top: "inception_4d/pool_proj"
  param {
    lr_mult: 1
    decay_mult: 1
  }
  param {
    lr_mult: 2
    decay_mult: 0
  }
  convolution_param {
    num_output: 64
    kernel_size: 1
    weight_filler {
      type: "xavier"
      std: 0.1
    }
    bias_filler {
      type: "constant"
      value: 0.2
    }
  }
}
layer {
  name: "inception_4d/relu_pool_proj"
  type: "ReLU"
  bottom: "inception_4d/pool_proj"
  top: "inception_4d/pool_proj"
}
layer {
  name: "inception_4d/output"
  type: "Concat"
  bottom: "inception_4d/1x1"
  bottom: "inception_4d/3x3"
  bottom: "inception_4d/5x5"
  bottom: "inception_4d/pool_proj"
  top: "inception_4d/output"
}
layer {
  name: "inception_4e/1x1"
  type: "Convolution"
  bottom: "inception_4d/output"
  top: "inception_4e/1x1"
  param {
    lr_mult: 1
    decay_mult: 1
  }
  param {
    lr_mult: 2
    decay_mult: 0
  }
  convolution_param {
    num_output: 256
    kernel_size: 1
    weight_filler {
      type: "xavier"
      std: 0.03
    }
    bias_filler {
      type: "constant"
      value: 0.2
    }
  }
}
layer {
  name: "inception_4e/relu_1x1"
  type: "ReLU"
  bottom: "inception_4e/1x1"
  top: "inception_4e/1x1"
}
layer {
  name: "inception_4e/3x3_reduce"
  type: "Convolution"
  bottom: "inception_4d/output"
  top: "inception_4e/3x3_reduce"
  param {
    lr_mult: 1
    decay_mult: 1
  }
  param {
    lr_mult: 2
    decay_mult: 0
  }
  convolution_param {
    num_output: 160
    kernel_size: 1
    weight_filler {
      type: "xavier"
      std: 0.09
    }
    bias_filler {
      type: "constant"
      value: 0.2
    }
  }
}
layer {
  name: "inception_4e/relu_3x3_reduce"
  type: "ReLU"
  bottom: "inception_4e/3x3_reduce"
  top: "inception_4e/3x3_reduce"
}
layer {
  name: "inception_4e/3x3"
  type: "Convolution"
  bottom: "inception_4e/3x3_reduce"
  top: "inception_4e/3x3"
  param {
    lr_mult: 1
    decay_mult: 1
  }
  param {
    lr_mult: 2
    decay_mult: 0
  }
  convolution_param {
    num_output: 320
    pad: 1
    kernel_size: 3
    weight_filler {
      type: "xavier"
      std: 0.03
    }
    bias_filler {
      type: "constant"
      value: 0.2
    }
  }
}
layer {
  name: "inception_4e/relu_3x3"
  type: "ReLU"
  bottom: "inception_4e/3x3"
  top: "inception_4e/3x3"
}
layer {
  name: "inception_4e/5x5_reduce"
  type: "Convolution"
  bottom: "inception_4d/output"
  top: "inception_4e/5x5_reduce"
  param {
    lr_mult: 1
    decay_mult: 1
  }
  param {
    lr_mult: 2
    decay_mult: 0
  }
  convolution_param {
    num_output: 32
    kernel_size: 1
    weight_filler {
      type: "xavier"
      std: 0.2
    }
    bias_filler {
      type: "constant"
      value: 0.2
    }
  }
}
layer {
  name: "inception_4e/relu_5x5_reduce"
  type: "ReLU"
  bottom: "inception_4e/5x5_reduce"
  top: "inception_4e/5x5_reduce"
}
layer {
  name: "inception_4e/5x5"
  type: "Convolution"
  bottom: "inception_4e/5x5_reduce"
  top: "inception_4e/5x5"
  param {
    lr_mult: 1
    decay_mult: 1
  }
  param {
    lr_mult: 2
    decay_mult: 0
  }
  convolution_param {
    num_output: 128
    pad: 2
    kernel_size: 5
    weight_filler {
      type: "xavier"
      std: 0.03
    }
    bias_filler {
      type: "constant"
      value: 0.2
    }
  }
}
layer {
  name: "inception_4e/relu_5x5"
  type: "ReLU"
  bottom: "inception_4e/5x5"
  top: "inception_4e/5x5"
}
layer {
  name: "inception_4e/pool"
  type: "Pooling"
  bottom: "inception_4d/output"
  top: "inception_4e/pool"
  pooling_param {
    pool: MAX
    kernel_size: 3
    stride: 1
    pad: 1
  }
}
layer {
  name: "inception_4e/pool_proj"
  type: "Convolution"
  bottom: "inception_4e/pool"
  top: "inception_4e/pool_proj"
  param {
    lr_mult: 1
    decay_mult: 1
  }
  param {
    lr_mult: 2
    decay_mult: 0
  }
  convolution_param {
    num_output: 128
    kernel_size: 1
    weight_filler {
      type: "xavier"
      std: 0.1
    }
    bias_filler {
      type: "constant"
      value: 0.2
    }
  }
}
layer {
  name: "inception_4e/relu_pool_proj"
  type: "ReLU"
  bottom: "inception_4e/pool_proj"
  top: "inception_4e/pool_proj"
}
layer {
  name: "inception_4e/output"
  type: "Concat"
  bottom: "inception_4e/1x1"
  bottom: "inception_4e/3x3"
  bottom: "inception_4e/5x5"
  bottom: "inception_4e/pool_proj"
  top: "inception_4e/output"
}
layer {
  name: "pool4/3x3_s2"
  type: "Pooling"
  bottom: "inception_4e/output"
  top: "pool4/3x3_s2"
  pooling_param {
    pool: MAX
    kernel_size: 3
    stride: 2
  }
}
layer {
  name: "inception_5a/1x1"
  type: "Convolution"
  bottom: "pool4/3x3_s2"
  top: "inception_5a/1x1"
  param {
    lr_mult: 1
    decay_mult: 1
  }
  param {
    lr_mult: 2
    decay_mult: 0
  }
  convolution_param {
    num_output: 256
    kernel_size: 1
    weight_filler {
      type: "xavier"
      std: 0.03
    }
    bias_filler {
      type: "constant"
      value: 0.2
    }
  }
}
layer {
  name: "inception_5a/relu_1x1"
  type: "ReLU"
  bottom: "inception_5a/1x1"
  top: "inception_5a/1x1"
}
layer {
  name: "inception_5a/3x3_reduce"
  type: "Convolution"
  bottom: "pool4/3x3_s2"
  top: "inception_5a/3x3_reduce"
  param {
    lr_mult: 1
    decay_mult: 1
  }
  param {
    lr_mult: 2
    decay_mult: 0
  }
  convolution_param {
    num_output: 160
    kernel_size: 1
    weight_filler {
      type: "xavier"
      std: 0.09
    }
    bias_filler {
      type: "constant"
      value: 0.2
    }
  }
}
layer {
  name: "inception_5a/relu_3x3_reduce"
  type: "ReLU"
  bottom: "inception_5a/3x3_reduce"
  top: "inception_5a/3x3_reduce"
}
layer {
  name: "inception_5a/3x3"
  type: "Convolution"
  bottom: "inception_5a/3x3_reduce"
  top: "inception_5a/3x3"
  param {
    lr_mult: 1
    decay_mult: 1
  }
  param {
    lr_mult: 2
    decay_mult: 0
  }
  convolution_param {
    num_output: 320
    pad: 1
    kernel_size: 3
    weight_filler {
      type: "xavier"
      std: 0.03
    }
    bias_filler {
      type: "constant"
      value: 0.2
    }
  }
}
layer {
  name: "inception_5a/relu_3x3"
  type: "ReLU"
  bottom: "inception_5a/3x3"
  top: "inception_5a/3x3"
}
layer {
  name: "inception_5a/5x5_reduce"
  type: "Convolution"
  bottom: "pool4/3x3_s2"
  top: "inception_5a/5x5_red
I1130 08:17:07.550710 27091 layer_factory.hpp:77] Creating layer data
I1130 08:17:07.575834 27091 db_lmdb.cpp:35] Opened lmdb /idiap/temp/lmedina/fine-tuning/data/Pleasant/train_lmdb
I1130 08:17:07.629374 27091 net.cpp:84] Creating Layer data
I1130 08:17:07.629395 27091 net.cpp:380] data -> data
I1130 08:17:07.629421 27091 net.cpp:380] data -> label
I1130 08:17:07.629439 27091 data_transformer.cpp:25] Loading mean file from: /idiap/temp/lmedina/fine-tuning/googlenet_places365/places365CNN_mean.binaryproto
I1130 08:17:07.636593 27091 data_layer.cpp:45] output data size: 32,3,224,224
I1130 08:17:07.675441 27091 net.cpp:122] Setting up data
I1130 08:17:07.675482 27091 net.cpp:129] Top shape: 32 3 224 224 (4816896)
I1130 08:17:07.675489 27091 net.cpp:129] Top shape: 32 (32)
I1130 08:17:07.675494 27091 net.cpp:137] Memory required for data: 19267712
I1130 08:17:07.675506 27091 layer_factory.hpp:77] Creating layer conv1/7x7_s2
I1130 08:17:07.675532 27091 net.cpp:84] Creating Layer conv1/7x7_s2
I1130 08:17:07.675540 27091 net.cpp:406] conv1/7x7_s2 <- data
I1130 08:17:07.675555 27091 net.cpp:380] conv1/7x7_s2 -> conv1/7x7_s2
I1130 08:17:07.676244 27091 net.cpp:122] Setting up conv1/7x7_s2
I1130 08:17:07.676255 27091 net.cpp:129] Top shape: 32 64 112 112 (25690112)
I1130 08:17:07.676260 27091 net.cpp:137] Memory required for data: 122028160
I1130 08:17:07.676275 27091 layer_factory.hpp:77] Creating layer conv1/relu_7x7
I1130 08:17:07.676283 27091 net.cpp:84] Creating Layer conv1/relu_7x7
I1130 08:17:07.676287 27091 net.cpp:406] conv1/relu_7x7 <- conv1/7x7_s2
I1130 08:17:07.676296 27091 net.cpp:367] conv1/relu_7x7 -> conv1/7x7_s2 (in-place)
I1130 08:17:07.676306 27091 net.cpp:122] Setting up conv1/relu_7x7
I1130 08:17:07.676313 27091 net.cpp:129] Top shape: 32 64 112 112 (25690112)
I1130 08:17:07.676321 27091 net.cpp:137] Memory required for data: 224788608
I1130 08:17:07.676324 27091 layer_factory.hpp:77] Creating layer pool1/3x3_s2
I1130 08:17:07.676333 27091 net.cpp:84] Creating Layer pool1/3x3_s2
I1130 08:17:07.676340 27091 net.cpp:406] pool1/3x3_s2 <- conv1/7x7_s2
I1130 08:17:07.676347 27091 net.cpp:380] pool1/3x3_s2 -> pool1/3x3_s2
I1130 08:17:07.676434 27091 net.cpp:122] Setting up pool1/3x3_s2
I1130 08:17:07.676443 27091 net.cpp:129] Top shape: 32 64 56 56 (6422528)
I1130 08:17:07.676448 27091 net.cpp:137] Memory required for data: 250478720
I1130 08:17:07.676453 27091 layer_factory.hpp:77] Creating layer pool1/norm1
I1130 08:17:07.676465 27091 net.cpp:84] Creating Layer pool1/norm1
I1130 08:17:07.676470 27091 net.cpp:406] pool1/norm1 <- pool1/3x3_s2
I1130 08:17:07.676476 27091 net.cpp:380] pool1/norm1 -> pool1/norm1
I1130 08:17:07.676511 27091 net.cpp:122] Setting up pool1/norm1
I1130 08:17:07.676518 27091 net.cpp:129] Top shape: 32 64 56 56 (6422528)
I1130 08:17:07.676524 27091 net.cpp:137] Memory required for data: 276168832
I1130 08:17:07.676529 27091 layer_factory.hpp:77] Creating layer conv2/3x3_reduce
I1130 08:17:07.676538 27091 net.cpp:84] Creating Layer conv2/3x3_reduce
I1130 08:17:07.676543 27091 net.cpp:406] conv2/3x3_reduce <- pool1/norm1
I1130 08:17:07.676550 27091 net.cpp:380] conv2/3x3_reduce -> conv2/3x3_reduce
I1130 08:17:07.678840 27091 net.cpp:122] Setting up conv2/3x3_reduce
I1130 08:17:07.678858 27091 net.cpp:129] Top shape: 32 64 56 56 (6422528)
I1130 08:17:07.678864 27091 net.cpp:137] Memory required for data: 301858944
I1130 08:17:07.678876 27091 layer_factory.hpp:77] Creating layer conv2/relu_3x3_reduce
I1130 08:17:07.678885 27091 net.cpp:84] Creating Layer conv2/relu_3x3_reduce
I1130 08:17:07.678891 27091 net.cpp:406] conv2/relu_3x3_reduce <- conv2/3x3_reduce
I1130 08:17:07.678899 27091 net.cpp:367] conv2/relu_3x3_reduce -> conv2/3x3_reduce (in-place)
I1130 08:17:07.678907 27091 net.cpp:122] Setting up conv2/relu_3x3_reduce
I1130 08:17:07.678913 27091 net.cpp:129] Top shape: 32 64 56 56 (6422528)
I1130 08:17:07.678918 27091 net.cpp:137] Memory required for data: 327549056
I1130 08:17:07.678923 27091 layer_factory.hpp:77] Creating layer conv2/3x3
I1130 08:17:07.678933 27091 net.cpp:84] Creating Layer conv2/3x3
I1130 08:17:07.678938 27091 net.cpp:406] conv2/3x3 <- conv2/3x3_reduce
I1130 08:17:07.678946 27091 net.cpp:380] conv2/3x3 -> conv2/3x3
I1130 08:17:07.680217 27091 net.cpp:122] Setting up conv2/3x3
I1130 08:17:07.680228 27091 net.cpp:129] Top shape: 32 192 56 56 (19267584)
I1130 08:17:07.680234 27091 net.cpp:137] Memory required for data: 404619392
I1130 08:17:07.680244 27091 layer_factory.hpp:77] Creating layer conv2/relu_3x3
I1130 08:17:07.680253 27091 net.cpp:84] Creating Layer conv2/relu_3x3
I1130 08:17:07.680259 27091 net.cpp:406] conv2/relu_3x3 <- conv2/3x3
I1130 08:17:07.680266 27091 net.cpp:367] conv2/relu_3x3 -> conv2/3x3 (in-place)
I1130 08:17:07.680274 27091 net.cpp:122] Setting up conv2/relu_3x3
I1130 08:17:07.680281 27091 net.cpp:129] Top shape: 32 192 56 56 (19267584)
I1130 08:17:07.680286 27091 net.cpp:137] Memory required for data: 481689728
I1130 08:17:07.680290 27091 layer_factory.hpp:77] Creating layer conv2/norm2
I1130 08:17:07.680297 27091 net.cpp:84] Creating Layer conv2/norm2
I1130 08:17:07.680302 27091 net.cpp:406] conv2/norm2 <- conv2/3x3
I1130 08:17:07.680308 27091 net.cpp:380] conv2/norm2 -> conv2/norm2
I1130 08:17:07.680342 27091 net.cpp:122] Setting up conv2/norm2
I1130 08:17:07.680351 27091 net.cpp:129] Top shape: 32 192 56 56 (19267584)
I1130 08:17:07.680356 27091 net.cpp:137] Memory required for data: 558760064
I1130 08:17:07.680361 27091 layer_factory.hpp:77] Creating layer pool2/3x3_s2
I1130 08:17:07.680368 27091 net.cpp:84] Creating Layer pool2/3x3_s2
I1130 08:17:07.680374 27091 net.cpp:406] pool2/3x3_s2 <- conv2/norm2
I1130 08:17:07.680380 27091 net.cpp:380] pool2/3x3_s2 -> pool2/3x3_s2
I1130 08:17:07.680413 27091 net.cpp:122] Setting up pool2/3x3_s2
I1130 08:17:07.680421 27091 net.cpp:129] Top shape: 32 192 28 28 (4816896)
I1130 08:17:07.680429 27091 net.cpp:137] Memory required for data: 578027648
I1130 08:17:07.680434 27091 layer_factory.hpp:77] Creating layer pool2/3x3_s2_pool2/3x3_s2_0_split
I1130 08:17:07.680441 27091 net.cpp:84] Creating Layer pool2/3x3_s2_pool2/3x3_s2_0_split
I1130 08:17:07.680447 27091 net.cpp:406] pool2/3x3_s2_pool2/3x3_s2_0_split <- pool2/3x3_s2
I1130 08:17:07.680454 27091 net.cpp:380] pool2/3x3_s2_pool2/3x3_s2_0_split -> pool2/3x3_s2_pool2/3x3_s2_0_split_0
I1130 08:17:07.680461 27091 net.cpp:380] pool2/3x3_s2_pool2/3x3_s2_0_split -> pool2/3x3_s2_pool2/3x3_s2_0_split_1
I1130 08:17:07.680469 27091 net.cpp:380] pool2/3x3_s2_pool2/3x3_s2_0_split -> pool2/3x3_s2_pool2/3x3_s2_0_split_2
I1130 08:17:07.680476 27091 net.cpp:380] pool2/3x3_s2_pool2/3x3_s2_0_split -> pool2/3x3_s2_pool2/3x3_s2_0_split_3
I1130 08:17:07.680521 27091 net.cpp:122] Setting up pool2/3x3_s2_pool2/3x3_s2_0_split
I1130 08:17:07.680528 27091 net.cpp:129] Top shape: 32 192 28 28 (4816896)
I1130 08:17:07.680534 27091 net.cpp:129] Top shape: 32 192 28 28 (4816896)
I1130 08:17:07.680541 27091 net.cpp:129] Top shape: 32 192 28 28 (4816896)
I1130 08:17:07.680546 27091 net.cpp:129] Top shape: 32 192 28 28 (4816896)
I1130 08:17:07.680552 27091 net.cpp:137] Memory required for data: 655097984
I1130 08:17:07.680557 27091 layer_factory.hpp:77] Creating layer inception_3a/1x1
I1130 08:17:07.680567 27091 net.cpp:84] Creating Layer inception_3a/1x1
I1130 08:17:07.680572 27091 net.cpp:406] inception_3a/1x1 <- pool2/3x3_s2_pool2/3x3_s2_0_split_0
I1130 08:17:07.680582 27091 net.cpp:380] inception_3a/1x1 -> inception_3a/1x1
I1130 08:17:07.681406 27091 net.cpp:122] Setting up inception_3a/1x1
I1130 08:17:07.681418 27091 net.cpp:129] Top shape: 32 64 28 28 (1605632)
I1130 08:17:07.681423 27091 net.cpp:137] Memory required for data: 661520512
I1130 08:17:07.681432 27091 layer_factory.hpp:77] Creating layer inception_3a/relu_1x1
I1130 08:17:07.681439 27091 net.cpp:84] Creating Layer inception_3a/relu_1x1
I1130 08:17:07.681444 27091 net.cpp:406] inception_3a/relu_1x1 <- inception_3a/1x1
I1130 08:17:07.681452 27091 net.cpp:367] inception_3a/relu_1x1 -> inception_3a/1x1 (in-place)
I1130 08:17:07.681462 27091 net.cpp:122] Setting up inception_3a/relu_1x1
I1130 08:17:07.681468 27091 net.cpp:129] Top shape: 32 64 28 28 (1605632)
I1130 08:17:07.681471 27091 net.cpp:137] Memory required for data: 667943040
I1130 08:17:07.681476 27091 layer_factory.hpp:77] Creating layer inception_3a/3x3_reduce
I1130 08:17:07.681486 27091 net.cpp:84] Creating Layer inception_3a/3x3_reduce
I1130 08:17:07.681493 27091 net.cpp:406] inception_3a/3x3_reduce <- pool2/3x3_s2_pool2/3x3_s2_0_split_1
I1130 08:17:07.681500 27091 net.cpp:380] inception_3a/3x3_reduce -> inception_3a/3x3_reduce
I1130 08:17:07.682189 27091 net.cpp:122] Setting up inception_3a/3x3_reduce
I1130 08:17:07.682202 27091 net.cpp:129] Top shape: 32 96 28 28 (2408448)
I1130 08:17:07.682207 27091 net.cpp:137] Memory required for data: 677576832
I1130 08:17:07.682221 27091 layer_factory.hpp:77] Creating layer inception_3a/relu_3x3_reduce
I1130 08:17:07.682229 27091 net.cpp:84] Creating Layer inception_3a/relu_3x3_reduce
I1130 08:17:07.682235 27091 net.cpp:406] inception_3a/relu_3x3_reduce <- inception_3a/3x3_reduce
I1130 08:17:07.682243 27091 net.cpp:367] inception_3a/relu_3x3_reduce -> inception_3a/3x3_reduce (in-place)
I1130 08:17:07.682252 27091 net.cpp:122] Setting up inception_3a/relu_3x3_reduce
I1130 08:17:07.682258 27091 net.cpp:129] Top shape: 32 96 28 28 (2408448)
I1130 08:17:07.682262 27091 net.cpp:137] Memory required for data: 687210624
I1130 08:17:07.682267 27091 layer_factory.hpp:77] Creating layer inception_3a/3x3
I1130 08:17:07.682277 27091 net.cpp:84] Creating Layer inception_3a/3x3
I1130 08:17:07.682282 27091 net.cpp:406] inception_3a/3x3 <- inception_3a/3x3_reduce
I1130 08:17:07.682289 27091 net.cpp:380] inception_3a/3x3 -> inception_3a/3x3
I1130 08:17:07.683157 27091 net.cpp:122] Setting up inception_3a/3x3
I1130 08:17:07.683168 27091 net.cpp:129] Top shape: 32 128 28 28 (3211264)
I1130 08:17:07.683177 27091 net.cpp:137] Memory required for data: 700055680
I1130 08:17:07.683184 27091 layer_factory.hpp:77] Creating layer inception_3a/relu_3x3
I1130 08:17:07.683193 27091 net.cpp:84] Creating Layer inception_3a/relu_3x3
I1130 08:17:07.683198 27091 net.cpp:406] inception_3a/relu_3x3 <- inception_3a/3x3
I1130 08:17:07.683205 27091 net.cpp:367] inception_3a/relu_3x3 -> inception_3a/3x3 (in-place)
I1130 08:17:07.683212 27091 net.cpp:122] Setting up inception_3a/relu_3x3
I1130 08:17:07.683219 27091 net.cpp:129] Top shape: 32 128 28 28 (3211264)
I1130 08:17:07.683225 27091 net.cpp:137] Memory required for data: 712900736
I1130 08:17:07.683229 27091 layer_factory.hpp:77] Creating layer inception_3a/5x5_reduce
I1130 08:17:07.683239 27091 net.cpp:84] Creating Layer inception_3a/5x5_reduce
I1130 08:17:07.683245 27091 net.cpp:406] inception_3a/5x5_reduce <- pool2/3x3_s2_pool2/3x3_s2_0_split_2
I1130 08:17:07.683253 27091 net.cpp:380] inception_3a/5x5_reduce -> inception_3a/5x5_reduce
I1130 08:17:07.683461 27091 net.cpp:122] Setting up inception_3a/5x5_reduce
I1130 08:17:07.683471 27091 net.cpp:129] Top shape: 32 16 28 28 (401408)
I1130 08:17:07.683476 27091 net.cpp:137] Memory required for data: 714506368
I1130 08:17:07.683485 27091 layer_factory.hpp:77] Creating layer inception_3a/relu_5x5_reduce
I1130 08:17:07.683492 27091 net.cpp:84] Creating Layer inception_3a/relu_5x5_reduce
I1130 08:17:07.683498 27091 net.cpp:406] inception_3a/relu_5x5_reduce <- inception_3a/5x5_reduce
I1130 08:17:07.683506 27091 net.cpp:367] inception_3a/relu_5x5_reduce -> inception_3a/5x5_reduce (in-place)
I1130 08:17:07.683513 27091 net.cpp:122] Setting up inception_3a/relu_5x5_reduce
I1130 08:17:07.683519 27091 net.cpp:129] Top shape: 32 16 28 28 (401408)
I1130 08:17:07.683524 27091 net.cpp:137] Memory required for data: 716112000
I1130 08:17:07.683528 27091 layer_factory.hpp:77] Creating layer inception_3a/5x5
I1130 08:17:07.683537 27091 net.cpp:84] Creating Layer inception_3a/5x5
I1130 08:17:07.683542 27091 net.cpp:406] inception_3a/5x5 <- inception_3a/5x5_reduce
I1130 08:17:07.683550 27091 net.cpp:380] inception_3a/5x5 -> inception_3a/5x5
I1130 08:17:07.683809 27091 net.cpp:122] Setting up inception_3a/5x5
I1130 08:17:07.683818 27091 net.cpp:129] Top shape: 32 32 28 28 (802816)
I1130 08:17:07.683823 27091 net.cpp:137] Memory required for data: 719323264
I1130 08:17:07.683831 27091 layer_factory.hpp:77] Creating layer inception_3a/relu_5x5
I1130 08:17:07.683838 27091 net.cpp:84] Creating Layer inception_3a/relu_5x5
I1130 08:17:07.683845 27091 net.cpp:406] inception_3a/relu_5x5 <- inception_3a/5x5
I1130 08:17:07.683851 27091 net.cpp:367] inception_3a/relu_5x5 -> inception_3a/5x5 (in-place)
I1130 08:17:07.683859 27091 net.cpp:122] Setting up inception_3a/relu_5x5
I1130 08:17:07.683866 27091 net.cpp:129] Top shape: 32 32 28 28 (802816)
I1130 08:17:07.683871 27091 net.cpp:137] Memory required for data: 722534528
I1130 08:17:07.683876 27091 layer_factory.hpp:77] Creating layer inception_3a/pool
I1130 08:17:07.683882 27091 net.cpp:84] Creating Layer inception_3a/pool
I1130 08:17:07.683889 27091 net.cpp:406] inception_3a/pool <- pool2/3x3_s2_pool2/3x3_s2_0_split_3
I1130 08:17:07.683895 27091 net.cpp:380] inception_3a/pool -> inception_3a/pool
I1130 08:17:07.683928 27091 net.cpp:122] Setting up inception_3a/pool
I1130 08:17:07.683936 27091 net.cpp:129] Top shape: 32 192 28 28 (4816896)
I1130 08:17:07.683941 27091 net.cpp:137] Memory required for data: 741802112
I1130 08:17:07.683948 27091 layer_factory.hpp:77] Creating layer inception_3a/pool_proj
I1130 08:17:07.683956 27091 net.cpp:84] Creating Layer inception_3a/pool_proj
I1130 08:17:07.683962 27091 net.cpp:406] inception_3a/pool_proj <- inception_3a/pool
I1130 08:17:07.683970 27091 net.cpp:380] inception_3a/pool_proj -> inception_3a/pool_proj
I1130 08:17:07.684187 27091 net.cpp:122] Setting up inception_3a/pool_proj
I1130 08:17:07.684196 27091 net.cpp:129] Top shape: 32 32 28 28 (802816)
I1130 08:17:07.684202 27091 net.cpp:137] Memory required for data: 745013376
I1130 08:17:07.684216 27091 layer_factory.hpp:77] Creating layer inception_3a/relu_pool_proj
I1130 08:17:07.684223 27091 net.cpp:84] Creating Layer inception_3a/relu_pool_proj
I1130 08:17:07.684228 27091 net.cpp:406] inception_3a/relu_pool_proj <- inception_3a/pool_proj
I1130 08:17:07.684236 27091 net.cpp:367] inception_3a/relu_pool_proj -> inception_3a/pool_proj (in-place)
I1130 08:17:07.684243 27091 net.cpp:122] Setting up inception_3a/relu_pool_proj
I1130 08:17:07.684249 27091 net.cpp:129] Top shape: 32 32 28 28 (802816)
I1130 08:17:07.684254 27091 net.cpp:137] Memory required for data: 748224640
I1130 08:17:07.684258 27091 layer_factory.hpp:77] Creating layer inception_3a/output
I1130 08:17:07.684265 27091 net.cpp:84] Creating Layer inception_3a/output
I1130 08:17:07.684271 27091 net.cpp:406] inception_3a/output <- inception_3a/1x1
I1130 08:17:07.684276 27091 net.cpp:406] inception_3a/output <- inception_3a/3x3
I1130 08:17:07.684283 27091 net.cpp:406] inception_3a/output <- inception_3a/5x5
I1130 08:17:07.684288 27091 net.cpp:406] inception_3a/output <- inception_3a/pool_proj
I1130 08:17:07.684293 27091 net.cpp:380] inception_3a/output -> inception_3a/output
I1130 08:17:07.684319 27091 net.cpp:122] Setting up inception_3a/output
I1130 08:17:07.684326 27091 net.cpp:129] Top shape: 32 256 28 28 (6422528)
I1130 08:17:07.684331 27091 net.cpp:137] Memory required for data: 773914752
I1130 08:17:07.684336 27091 layer_factory.hpp:77] Creating layer inception_3a/output_inception_3a/output_0_split
I1130 08:17:07.684345 27091 net.cpp:84] Creating Layer inception_3a/output_inception_3a/output_0_split
I1130 08:17:07.684350 27091 net.cpp:406] inception_3a/output_inception_3a/output_0_split <- inception_3a/output
I1130 08:17:07.684356 27091 net.cpp:380] inception_3a/output_inception_3a/output_0_split -> inception_3a/output_inception_3a/output_0_split_0
I1130 08:17:07.684365 27091 net.cpp:380] inception_3a/output_inception_3a/output_0_split -> inception_3a/output_inception_3a/output_0_split_1
I1130 08:17:07.684372 27091 net.cpp:380] inception_3a/output_inception_3a/output_0_split -> inception_3a/output_inception_3a/output_0_split_2
I1130 08:17:07.684381 27091 net.cpp:380] inception_3a/output_inception_3a/output_0_split -> inception_3a/output_inception_3a/output_0_split_3
I1130 08:17:07.684427 27091 net.cpp:122] Setting up inception_3a/output_inception_3a/output_0_split
I1130 08:17:07.684434 27091 net.cpp:129] Top shape: 32 256 28 28 (6422528)
I1130 08:17:07.684440 27091 net.cpp:129] Top shape: 32 256 28 28 (6422528)
I1130 08:17:07.684447 27091 net.cpp:129] Top shape: 32 256 28 28 (6422528)
I1130 08:17:07.684453 27091 net.cpp:129] Top shape: 32 256 28 28 (6422528)
I1130 08:17:07.684458 27091 net.cpp:137] Memory required for data: 876675200
I1130 08:17:07.684463 27091 layer_factory.hpp:77] Creating layer inception_3b/1x1
I1130 08:17:07.684473 27091 net.cpp:84] Creating Layer inception_3b/1x1
I1130 08:17:07.684478 27091 net.cpp:406] inception_3b/1x1 <- inception_3a/output_inception_3a/output_0_split_0
I1130 08:17:07.684484 27091 net.cpp:380] inception_3b/1x1 -> inception_3b/1x1
I1130 08:17:07.684859 27091 net.cpp:122] Setting up inception_3b/1x1
I1130 08:17:07.684868 27091 net.cpp:129] Top shape: 32 128 28 28 (3211264)
I1130 08:17:07.684875 27091 net.cpp:137] Memory required for data: 889520256
I1130 08:17:07.684882 27091 layer_factory.hpp:77] Creating layer inception_3b/relu_1x1
I1130 08:17:07.684890 27091 net.cpp:84] Creating Layer inception_3b/relu_1x1
I1130 08:17:07.684895 27091 net.cpp:406] inception_3b/relu_1x1 <- inception_3b/1x1
I1130 08:17:07.684901 27091 net.cpp:367] inception_3b/relu_1x1 -> inception_3b/1x1 (in-place)
I1130 08:17:07.684909 27091 net.cpp:122] Setting up inception_3b/relu_1x1
I1130 08:17:07.684916 27091 net.cpp:129] Top shape: 32 128 28 28 (3211264)
I1130 08:17:07.684919 27091 net.cpp:137] Memory required for data: 902365312
I1130 08:17:07.684926 27091 layer_factory.hpp:77] Creating layer inception_3b/3x3_reduce
I1130 08:17:07.684933 27091 net.cpp:84] Creating Layer inception_3b/3x3_reduce
I1130 08:17:07.684939 27091 net.cpp:406] inception_3b/3x3_reduce <- inception_3a/output_inception_3a/output_0_split_1
I1130 08:17:07.684949 27091 net.cpp:380] inception_3b/3x3_reduce -> inception_3b/3x3_reduce
I1130 08:17:07.685322 27091 net.cpp:122] Setting up inception_3b/3x3_reduce
I1130 08:17:07.685333 27091 net.cpp:129] Top shape: 32 128 28 28 (3211264)
I1130 08:17:07.685338 27091 net.cpp:137] Memory required for data: 915210368
I1130 08:17:07.685345 27091 layer_factory.hpp:77] Creating layer inception_3b/relu_3x3_reduce
I1130 08:17:07.685353 27091 net.cpp:84] Creating Layer inception_3b/relu_3x3_reduce
I1130 08:17:07.685359 27091 net.cpp:406] inception_3b/relu_3x3_reduce <- inception_3b/3x3_reduce
I1130 08:17:07.685365 27091 net.cpp:367] inception_3b/relu_3x3_reduce -> inception_3b/3x3_reduce (in-place)
I1130 08:17:07.685372 27091 net.cpp:122] Setting up inception_3b/relu_3x3_reduce
I1130 08:17:07.685379 27091 net.cpp:129] Top shape: 32 128 28 28 (3211264)
I1130 08:17:07.685384 27091 net.cpp:137] Memory required for data: 928055424
I1130 08:17:07.685389 27091 layer_factory.hpp:77] Creating layer inception_3b/3x3
I1130 08:17:07.685398 27091 net.cpp:84] Creating Layer inception_3b/3x3
I1130 08:17:07.685403 27091 net.cpp:406] inception_3b/3x3 <- inception_3b/3x3_reduce
I1130 08:17:07.685410 27091 net.cpp:380] inception_3b/3x3 -> inception_3b/3x3
I1130 08:17:07.687328 27091 net.cpp:122] Setting up inception_3b/3x3
I1130 08:17:07.687340 27091 net.cpp:129] Top shape: 32 192 28 28 (4816896)
I1130 08:17:07.687345 27091 net.cpp:137] Memory required for data: 947323008
I1130 08:17:07.687353 27091 layer_factory.hpp:77] Creating layer inception_3b/relu_3x3
I1130 08:17:07.687363 27091 net.cpp:84] Creating Layer inception_3b/relu_3x3
I1130 08:17:07.687368 27091 net.cpp:406] inception_3b/relu_3x3 <- inception_3b/3x3
I1130 08:17:07.687376 27091 net.cpp:367] inception_3b/relu_3x3 -> inception_3b/3x3 (in-place)
I1130 08:17:07.687384 27091 net.cpp:122] Setting up inception_3b/relu_3x3
I1130 08:17:07.687391 27091 net.cpp:129] Top shape: 32 192 28 28 (4816896)
I1130 08:17:07.687394 27091 net.cpp:137] Memory required for data: 966590592
I1130 08:17:07.687399 27091 layer_factory.hpp:77] Creating layer inception_3b/5x5_reduce
I1130 08:17:07.687408 27091 net.cpp:84] Creating Layer inception_3b/5x5_reduce
I1130 08:17:07.687414 27091 net.cpp:406] inception_3b/5x5_reduce <- inception_3a/output_inception_3a/output_0_split_2
I1130 08:17:07.687422 27091 net.cpp:380] inception_3b/5x5_reduce -> inception_3b/5x5_reduce
I1130 08:17:07.687647 27091 net.cpp:122] Setting up inception_3b/5x5_reduce
I1130 08:17:07.687657 27091 net.cpp:129] Top shape: 32 32 28 28 (802816)
I1130 08:17:07.687662 27091 net.cpp:137] Memory required for data: 969801856
I1130 08:17:07.687669 27091 layer_factory.hpp:77] Creating layer inception_3b/relu_5x5_reduce
I1130 08:17:07.687677 27091 net.cpp:84] Creating Layer inception_3b/relu_5x5_reduce
I1130 08:17:07.687683 27091 net.cpp:406] inception_3b/relu_5x5_reduce <- inception_3b/5x5_reduce
I1130 08:17:07.687690 27091 net.cpp:367] inception_3b/relu_5x5_reduce -> inception_3b/5x5_reduce (in-place)
I1130 08:17:07.687698 27091 net.cpp:122] Setting up inception_3b/relu_5x5_reduce
I1130 08:17:07.687705 27091 net.cpp:129] Top shape: 32 32 28 28 (802816)
I1130 08:17:07.687710 27091 net.cpp:137] Memory required for data: 973013120
I1130 08:17:07.687714 27091 layer_factory.hpp:77] Creating layer inception_3b/5x5
I1130 08:17:07.687723 27091 net.cpp:84] Creating Layer inception_3b/5x5
I1130 08:17:07.687729 27091 net.cpp:406] inception_3b/5x5 <- inception_3b/5x5_reduce
I1130 08:17:07.687736 27091 net.cpp:380] inception_3b/5x5 -> inception_3b/5x5
I1130 08:17:07.688750 27091 net.cpp:122] Setting up inception_3b/5x5
I1130 08:17:07.688760 27091 net.cpp:129] Top shape: 32 96 28 28 (2408448)
I1130 08:17:07.688766 27091 net.cpp:137] Memory required for data: 982646912
I1130 08:17:07.688773 27091 layer_factory.hpp:77] Creating layer inception_3b/relu_5x5
I1130 08:17:07.688781 27091 net.cpp:84] Creating Layer inception_3b/relu_5x5
I1130 08:17:07.688786 27091 net.cpp:406] inception_3b/relu_5x5 <- inception_3b/5x5
I1130 08:17:07.688796 27091 net.cpp:367] inception_3b/relu_5x5 -> inception_3b/5x5 (in-place)
I1130 08:17:07.688804 27091 net.cpp:122] Setting up inception_3b/relu_5x5
I1130 08:17:07.688810 27091 net.cpp:129] Top shape: 32 96 28 28 (2408448)
I1130 08:17:07.688815 27091 net.cpp:137] Memory required for data: 992280704
I1130 08:17:07.688820 27091 layer_factory.hpp:77] Creating layer inception_3b/pool
I1130 08:17:07.688827 27091 net.cpp:84] Creating Layer inception_3b/pool
I1130 08:17:07.688832 27091 net.cpp:406] inception_3b/pool <- inception_3a/output_inception_3a/output_0_split_3
I1130 08:17:07.688838 27091 net.cpp:380] inception_3b/pool -> inception_3b/pool
I1130 08:17:07.688870 27091 net.cpp:122] Setting up inception_3b/pool
I1130 08:17:07.688879 27091 net.cpp:129] Top shape: 32 256 28 28 (6422528)
I1130 08:17:07.688884 27091 net.cpp:137] Memory required for data: 1017970816
I1130 08:17:07.688889 27091 layer_factory.hpp:77] Creating layer inception_3b/pool_proj
I1130 08:17:07.688897 27091 net.cpp:84] Creating Layer inception_3b/pool_proj
I1130 08:17:07.688904 27091 net.cpp:406] inception_3b/pool_proj <- inception_3b/pool
I1130 08:17:07.688911 27091 net.cpp:380] inception_3b/pool_proj -> inception_3b/pool_proj
I1130 08:17:07.689182 27091 net.cpp:122] Setting up inception_3b/pool_proj
I1130 08:17:07.689190 27091 net.cpp:129] Top shape: 32 64 28 28 (1605632)
I1130 08:17:07.689196 27091 net.cpp:137] Memory required for data: 1024393344
I1130 08:17:07.689203 27091 layer_factory.hpp:77] Creating layer inception_3b/relu_pool_proj
I1130 08:17:07.689210 27091 net.cpp:84] Creating Layer inception_3b/relu_pool_proj
I1130 08:17:07.689216 27091 net.cpp:406] inception_3b/relu_pool_proj <- inception_3b/pool_proj
I1130 08:17:07.689222 27091 net.cpp:367] inception_3b/relu_pool_proj -> inception_3b/pool_proj (in-place)
I1130 08:17:07.689229 27091 net.cpp:122] Setting up inception_3b/relu_pool_proj
I1130 08:17:07.689235 27091 net.cpp:129] Top shape: 32 64 28 28 (1605632)
I1130 08:17:07.689240 27091 net.cpp:137] Memory required for data: 1030815872
I1130 08:17:07.689244 27091 layer_factory.hpp:77] Creating layer inception_3b/output
I1130 08:17:07.689250 27091 net.cpp:84] Creating Layer inception_3b/output
I1130 08:17:07.689256 27091 net.cpp:406] inception_3b/output <- inception_3b/1x1
I1130 08:17:07.689261 27091 net.cpp:406] inception_3b/output <- inception_3b/3x3
I1130 08:17:07.689266 27091 net.cpp:406] inception_3b/output <- inception_3b/5x5
I1130 08:17:07.689272 27091 net.cpp:406] inception_3b/output <- inception_3b/pool_proj
I1130 08:17:07.689278 27091 net.cpp:380] inception_3b/output -> inception_3b/output
I1130 08:17:07.689302 27091 net.cpp:122] Setting up inception_3b/output
I1130 08:17:07.689311 27091 net.cpp:129] Top shape: 32 480 28 28 (12042240)
I1130 08:17:07.689316 27091 net.cpp:137] Memory required for data: 1078984832
I1130 08:17:07.689321 27091 layer_factory.hpp:77] Creating layer pool3/3x3_s2
I1130 08:17:07.689327 27091 net.cpp:84] Creating Layer pool3/3x3_s2
I1130 08:17:07.689332 27091 net.cpp:406] pool3/3x3_s2 <- inception_3b/output
I1130 08:17:07.689338 27091 net.cpp:380] pool3/3x3_s2 -> pool3/3x3_s2
I1130 08:17:07.689368 27091 net.cpp:122] Setting up pool3/3x3_s2
I1130 08:17:07.689376 27091 net.cpp:129] Top shape: 32 480 14 14 (3010560)
I1130 08:17:07.689381 27091 net.cpp:137] Memory required for data: 1091027072
I1130 08:17:07.689386 27091 layer_factory.hpp:77] Creating layer pool3/3x3_s2_pool3/3x3_s2_0_split
I1130 08:17:07.689393 27091 net.cpp:84] Creating Layer pool3/3x3_s2_pool3/3x3_s2_0_split
I1130 08:17:07.689399 27091 net.cpp:406] pool3/3x3_s2_pool3/3x3_s2_0_split <- pool3/3x3_s2
I1130 08:17:07.689404 27091 net.cpp:380] pool3/3x3_s2_pool3/3x3_s2_0_split -> pool3/3x3_s2_pool3/3x3_s2_0_split_0
I1130 08:17:07.689412 27091 net.cpp:380] pool3/3x3_s2_pool3/3x3_s2_0_split -> pool3/3x3_s2_pool3/3x3_s2_0_split_1
I1130 08:17:07.689420 27091 net.cpp:380] pool3/3x3_s2_pool3/3x3_s2_0_split -> pool3/3x3_s2_pool3/3x3_s2_0_split_2
I1130 08:17:07.689427 27091 net.cpp:380] pool3/3x3_s2_pool3/3x3_s2_0_split -> pool3/3x3_s2_pool3/3x3_s2_0_split_3
I1130 08:17:07.689472 27091 net.cpp:122] Setting up pool3/3x3_s2_pool3/3x3_s2_0_split
I1130 08:17:07.689481 27091 net.cpp:129] Top shape: 32 480 14 14 (3010560)
I1130 08:17:07.689486 27091 net.cpp:129] Top shape: 32 480 14 14 (3010560)
I1130 08:17:07.689491 27091 net.cpp:129] Top shape: 32 480 14 14 (3010560)
I1130 08:17:07.689496 27091 net.cpp:129] Top shape: 32 480 14 14 (3010560)
I1130 08:17:07.689502 27091 net.cpp:137] Memory required for data: 1139196032
I1130 08:17:07.689505 27091 layer_factory.hpp:77] Creating layer inception_4a/1x1
I1130 08:17:07.689514 27091 net.cpp:84] Creating Layer inception_4a/1x1
I1130 08:17:07.689520 27091 net.cpp:406] inception_4a/1x1 <- pool3/3x3_s2_pool3/3x3_s2_0_split_0
I1130 08:17:07.689527 27091 net.cpp:380] inception_4a/1x1 -> inception_4a/1x1
I1130 08:17:07.690237 27091 net.cpp:122] Setting up inception_4a/1x1
I1130 08:17:07.690246 27091 net.cpp:129] Top shape: 32 192 14 14 (1204224)
I1130 08:17:07.690251 27091 net.cpp:137] Memory required for data: 1144012928
I1130 08:17:07.690259 27091 layer_factory.hpp:77] Creating layer inception_4a/relu_1x1
I1130 08:17:07.690266 27091 net.cpp:84] Creating Layer inception_4a/relu_1x1
I1130 08:17:07.690273 27091 net.cpp:406] inception_4a/relu_1x1 <- inception_4a/1x1
I1130 08:17:07.690279 27091 net.cpp:367] inception_4a/relu_1x1 -> inception_4a/1x1 (in-place)
I1130 08:17:07.690285 27091 net.cpp:122] Setting up inception_4a/relu_1x1
I1130 08:17:07.690291 27091 net.cpp:129] Top shape: 32 192 14 14 (1204224)
I1130 08:17:07.690296 27091 net.cpp:137] Memory required for data: 1148829824
I1130 08:17:07.690301 27091 layer_factory.hpp:77] Creating layer inception_4a/3x3_reduce
I1130 08:17:07.690309 27091 net.cpp:84] Creating Layer inception_4a/3x3_reduce
I1130 08:17:07.690315 27091 net.cpp:406] inception_4a/3x3_reduce <- pool3/3x3_s2_pool3/3x3_s2_0_split_1
I1130 08:17:07.690321 27091 net.cpp:380] inception_4a/3x3_reduce -> inception_4a/3x3_reduce
I1130 08:17:07.690786 27091 net.cpp:122] Setting up inception_4a/3x3_reduce
I1130 08:17:07.690795 27091 net.cpp:129] Top shape: 32 96 14 14 (602112)
I1130 08:17:07.690801 27091 net.cpp:137] Memory required for data: 1151238272
I1130 08:17:07.690812 27091 layer_factory.hpp:77] Creating layer inception_4a/relu_3x3_reduce
I1130 08:17:07.690819 27091 net.cpp:84] Creating Layer inception_4a/relu_3x3_reduce
I1130 08:17:07.690824 27091 net.cpp:406] inception_4a/relu_3x3_reduce <- inception_4a/3x3_reduce
I1130 08:17:07.690830 27091 net.cpp:367] inception_4a/relu_3x3_reduce -> inception_4a/3x3_reduce (in-place)
I1130 08:17:07.690838 27091 net.cpp:122] Setting up inception_4a/relu_3x3_reduce
I1130 08:17:07.690845 27091 net.cpp:129] Top shape: 32 96 14 14 (602112)
I1130 08:17:07.690850 27091 net.cpp:137] Memory required for data: 1153646720
I1130 08:17:07.690855 27091 layer_factory.hpp:77] Creating layer inception_4a/3x3
I1130 08:17:07.690863 27091 net.cpp:84] Creating Layer inception_4a/3x3
I1130 08:17:07.690868 27091 net.cpp:406] inception_4a/3x3 <- inception_4a/3x3_reduce
I1130 08:17:07.690876 27091 net.cpp:380] inception_4a/3x3 -> inception_4a/3x3
I1130 08:17:07.692479 27091 net.cpp:122] Setting up inception_4a/3x3
I1130 08:17:07.692492 27091 net.cpp:129] Top shape: 32 208 14 14 (1304576)
I1130 08:17:07.692497 27091 net.cpp:137] Memory required for data: 1158865024
I1130 08:17:07.692504 27091 layer_factory.hpp:77] Creating layer inception_4a/relu_3x3
I1130 08:17:07.692512 27091 net.cpp:84] Creating Layer inception_4a/relu_3x3
I1130 08:17:07.692518 27091 net.cpp:406] inception_4a/relu_3x3 <- inception_4a/3x3
I1130 08:17:07.692524 27091 net.cpp:367] inception_4a/relu_3x3 -> inception_4a/3x3 (in-place)
I1130 08:17:07.692533 27091 net.cpp:122] Setting up inception_4a/relu_3x3
I1130 08:17:07.692538 27091 net.cpp:129] Top shape: 32 208 14 14 (1304576)
I1130 08:17:07.692543 27091 net.cpp:137] Memory required for data: 1164083328
I1130 08:17:07.692548 27091 layer_factory.hpp:77] Creating layer inception_4a/5x5_reduce
I1130 08:17:07.692558 27091 net.cpp:84] Creating Layer inception_4a/5x5_reduce
I1130 08:17:07.692565 27091 net.cpp:406] inception_4a/5x5_reduce <- pool3/3x3_s2_pool3/3x3_s2_0_split_2
I1130 08:17:07.692574 27091 net.cpp:380] inception_4a/5x5_reduce -> inception_4a/5x5_reduce
I1130 08:17:07.692797 27091 net.cpp:122] Setting up inception_4a/5x5_reduce
I1130 08:17:07.692806 27091 net.cpp:129] Top shape: 32 16 14 14 (100352)
I1130 08:17:07.692812 27091 net.cpp:137] Memory required for data: 1164484736
I1130 08:17:07.692821 27091 layer_factory.hpp:77] Creating layer inception_4a/relu_5x5_reduce
I1130 08:17:07.692827 27091 net.cpp:84] Creating Layer inception_4a/relu_5x5_reduce
I1130 08:17:07.692832 27091 net.cpp:406] inception_4a/relu_5x5_reduce <- inception_4a/5x5_reduce
I1130 08:17:07.692839 27091 net.cpp:367] inception_4a/relu_5x5_reduce -> inception_4a/5x5_reduce (in-place)
I1130 08:17:07.692847 27091 net.cpp:122] Setting up inception_4a/relu_5x5_reduce
I1130 08:17:07.692853 27091 net.cpp:129] Top shape: 32 16 14 14 (100352)
I1130 08:17:07.692858 27091 net.cpp:137] Memory required for data: 1164886144
I1130 08:17:07.692863 27091 layer_factory.hpp:77] Creating layer inception_4a/5x5
I1130 08:17:07.692873 27091 net.cpp:84] Creating Layer inception_4a/5x5
I1130 08:17:07.692878 27091 net.cpp:406] inception_4a/5x5 <- inception_4a/5x5_reduce
I1130 08:17:07.692885 27091 net.cpp:380] inception_4a/5x5 -> inception_4a/5x5
I1130 08:17:07.693179 27091 net.cpp:122] Setting up inception_4a/5x5
I1130 08:17:07.693188 27091 net.cpp:129] Top shape: 32 48 14 14 (301056)
I1130 08:17:07.693193 27091 net.cpp:137] Memory required for data: 1166090368
I1130 08:17:07.693202 27091 layer_factory.hpp:77] Creating layer inception_4a/relu_5x5
I1130 08:17:07.693208 27091 net.cpp:84] Creating Layer inception_4a/relu_5x5
I1130 08:17:07.693213 27091 net.cpp:406] inception_4a/relu_5x5 <- inception_4a/5x5
I1130 08:17:07.693220 27091 net.cpp:367] inception_4a/relu_5x5 -> inception_4a/5x5 (in-place)
I1130 08:17:07.693228 27091 net.cpp:122] Setting up inception_4a/relu_5x5
I1130 08:17:07.693234 27091 net.cpp:129] Top shape: 32 48 14 14 (301056)
I1130 08:17:07.693239 27091 net.cpp:137] Memory required for data: 1167294592
I1130 08:17:07.693244 27091 layer_factory.hpp:77] Creating layer inception_4a/pool
I1130 08:17:07.693251 27091 net.cpp:84] Creating Layer inception_4a/pool
I1130 08:17:07.693258 27091 net.cpp:406] inception_4a/pool <- pool3/3x3_s2_pool3/3x3_s2_0_split_3
I1130 08:17:07.693264 27091 net.cpp:380] inception_4a/pool -> inception_4a/pool
I1130 08:17:07.693296 27091 net.cpp:122] Setting up inception_4a/pool
I1130 08:17:07.693305 27091 net.cpp:129] Top shape: 32 480 14 14 (3010560)
I1130 08:17:07.693310 27091 net.cpp:137] Memory required for data: 1179336832
I1130 08:17:07.693315 27091 layer_factory.hpp:77] Creating layer inception_4a/pool_proj
I1130 08:17:07.693325 27091 net.cpp:84] Creating Layer inception_4a/pool_proj
I1130 08:17:07.693331 27091 net.cpp:406] inception_4a/pool_proj <- inception_4a/pool
I1130 08:17:07.693336 27091 net.cpp:380] inception_4a/pool_proj -> inception_4a/pool_proj
I1130 08:17:07.693696 27091 net.cpp:122] Setting up inception_4a/pool_proj
I1130 08:17:07.693704 27091 net.cpp:129] Top shape: 32 64 14 14 (401408)
I1130 08:17:07.693709 27091 net.cpp:137] Memory required for data: 1180942464
I1130 08:17:07.693717 27091 layer_factory.hpp:77] Creating layer inception_4a/relu_pool_proj
I1130 08:17:07.693724 27091 net.cpp:84] Creating Layer inception_4a/relu_pool_proj
I1130 08:17:07.693730 27091 net.cpp:406] inception_4a/relu_pool_proj <- inception_4a/pool_proj
I1130 08:17:07.693737 27091 net.cpp:367] inception_4a/relu_pool_proj -> inception_4a/pool_proj (in-place)
I1130 08:17:07.693744 27091 net.cpp:122] Setting up inception_4a/relu_pool_proj
I1130 08:17:07.693750 27091 net.cpp:129] Top shape: 32 64 14 14 (401408)
I1130 08:17:07.693755 27091 net.cpp:137] Memory required for data: 1182548096
I1130 08:17:07.693760 27091 layer_factory.hpp:77] Creating layer inception_4a/output
I1130 08:17:07.693768 27091 net.cpp:84] Creating Layer inception_4a/output
I1130 08:17:07.693773 27091 net.cpp:406] inception_4a/output <- inception_4a/1x1
I1130 08:17:07.693814 27091 net.cpp:406] inception_4a/output <- inception_4a/3x3
I1130 08:17:07.693822 27091 net.cpp:406] inception_4a/output <- inception_4a/5x5
I1130 08:17:07.693828 27091 net.cpp:406] inception_4a/output <- inception_4a/pool_proj
I1130 08:17:07.693835 27091 net.cpp:380] inception_4a/output -> inception_4a/output
I1130 08:17:07.693859 27091 net.cpp:122] Setting up inception_4a/output
I1130 08:17:07.693867 27091 net.cpp:129] Top shape: 32 512 14 14 (3211264)
I1130 08:17:07.693874 27091 net.cpp:137] Memory required for data: 1195393152
I1130 08:17:07.693879 27091 layer_factory.hpp:77] Creating layer inception_4a/output_inception_4a/output_0_split
I1130 08:17:07.693886 27091 net.cpp:84] Creating Layer inception_4a/output_inception_4a/output_0_split
I1130 08:17:07.693892 27091 net.cpp:406] inception_4a/output_inception_4a/output_0_split <- inception_4a/output
I1130 08:17:07.693897 27091 net.cpp:380] inception_4a/output_inception_4a/output_0_split -> inception_4a/output_inception_4a/output_0_split_0
I1130 08:17:07.693905 27091 net.cpp:380] inception_4a/output_inception_4a/output_0_split -> inception_4a/output_inception_4a/output_0_split_1
I1130 08:17:07.693913 27091 net.cpp:380] inception_4a/output_inception_4a/output_0_split -> inception_4a/output_inception_4a/output_0_split_2
I1130 08:17:07.693922 27091 net.cpp:380] inception_4a/output_inception_4a/output_0_split -> inception_4a/output_inception_4a/output_0_split_3
I1130 08:17:07.693967 27091 net.cpp:122] Setting up inception_4a/output_inception_4a/output_0_split
I1130 08:17:07.693975 27091 net.cpp:129] Top shape: 32 512 14 14 (3211264)
I1130 08:17:07.693981 27091 net.cpp:129] Top shape: 32 512 14 14 (3211264)
I1130 08:17:07.693986 27091 net.cpp:129] Top shape: 32 512 14 14 (3211264)
I1130 08:17:07.693991 27091 net.cpp:129] Top shape: 32 512 14 14 (3211264)
I1130 08:17:07.693995 27091 net.cpp:137] Memory required for data: 1246773376
I1130 08:17:07.694000 27091 layer_factory.hpp:77] Creating layer inception_4b/1x1
I1130 08:17:07.694010 27091 net.cpp:84] Creating Layer inception_4b/1x1
I1130 08:17:07.694015 27091 net.cpp:406] inception_4b/1x1 <- inception_4a/output_inception_4a/output_0_split_0
I1130 08:17:07.694023 27091 net.cpp:380] inception_4b/1x1 -> inception_4b/1x1
I1130 08:17:07.694674 27091 net.cpp:122] Setting up inception_4b/1x1
I1130 08:17:07.694684 27091 net.cpp:129] Top shape: 32 160 14 14 (1003520)
I1130 08:17:07.694689 27091 net.cpp:137] Memory required for data: 1250787456
I1130 08:17:07.694696 27091 layer_factory.hpp:77] Creating layer inception_4b/relu_1x1
I1130 08:17:07.694703 27091 net.cpp:84] Creating Layer inception_4b/relu_1x1
I1130 08:17:07.694710 27091 net.cpp:406] inception_4b/relu_1x1 <- inception_4b/1x1
I1130 08:17:07.694715 27091 net.cpp:367] inception_4b/relu_1x1 -> inception_4b/1x1 (in-place)
I1130 08:17:07.694723 27091 net.cpp:122] Setting up inception_4b/relu_1x1
I1130 08:17:07.694730 27091 net.cpp:129] Top shape: 32 160 14 14 (1003520)
I1130 08:17:07.694736 27091 net.cpp:137] Memory required for data: 1254801536
I1130 08:17:07.694741 27091 layer_factory.hpp:77] Creating layer inception_4b/3x3_reduce
I1130 08:17:07.694747 27091 net.cpp:84] Creating Layer inception_4b/3x3_reduce
I1130 08:17:07.694753 27091 net.cpp:406] inception_4b/3x3_reduce <- inception_4a/output_inception_4a/output_0_split_1
I1130 08:17:07.694759 27091 net.cpp:380] inception_4b/3x3_reduce -> inception_4b/3x3_reduce
I1130 08:17:07.695291 27091 net.cpp:122] Setting up inception_4b/3x3_reduce
I1130 08:17:07.695300 27091 net.cpp:129] Top shape: 32 112 14 14 (702464)
I1130 08:17:07.695307 27091 net.cpp:137] Memory required for data: 1257611392
I1130 08:17:07.695314 27091 layer_factory.hpp:77] Creating layer inception_4b/relu_3x3_reduce
I1130 08:17:07.695322 27091 net.cpp:84] Creating Layer inception_4b/relu_3x3_reduce
I1130 08:17:07.695327 27091 net.cpp:406] inception_4b/relu_3x3_reduce <- inception_4b/3x3_reduce
I1130 08:17:07.695333 27091 net.cpp:367] inception_4b/relu_3x3_reduce -> inception_4b/3x3_reduce (in-place)
I1130 08:17:07.695340 27091 net.cpp:122] Setting up inception_4b/relu_3x3_reduce
I1130 08:17:07.695345 27091 net.cpp:129] Top shape: 32 112 14 14 (702464)
I1130 08:17:07.695350 27091 net.cpp:137] Memory required for data: 1260421248
I1130 08:17:07.695354 27091 layer_factory.hpp:77] Creating layer inception_4b/3x3
I1130 08:17:07.695363 27091 net.cpp:84] Creating Layer inception_4b/3x3
I1130 08:17:07.695369 27091 net.cpp:406] inception_4b/3x3 <- inception_4b/3x3_reduce
I1130 08:17:07.695376 27091 net.cpp:380] inception_4b/3x3 -> inception_4b/3x3
I1130 08:17:07.697252 27091 net.cpp:122] Setting up inception_4b/3x3
I1130 08:17:07.697263 27091 net.cpp:129] Top shape: 32 224 14 14 (1404928)
I1130 08:17:07.697268 27091 net.cpp:137] Memory required for data: 1266040960
I1130 08:17:07.697275 27091 layer_factory.hpp:77] Creating layer inception_4b/relu_3x3
I1130 08:17:07.697283 27091 net.cpp:84] Creating Layer inception_4b/relu_3x3
I1130 08:17:07.697288 27091 net.cpp:406] inception_4b/relu_3x3 <- inception_4b/3x3
I1130 08:17:07.697294 27091 net.cpp:367] inception_4b/relu_3x3 -> inception_4b/3x3 (in-place)
I1130 08:17:07.697301 27091 net.cpp:122] Setting up inception_4b/relu_3x3
I1130 08:17:07.697306 27091 net.cpp:129] Top shape: 32 224 14 14 (1404928)
I1130 08:17:07.697311 27091 net.cpp:137] Memory required for data: 1271660672
I1130 08:17:07.697315 27091 layer_factory.hpp:77] Creating layer inception_4b/5x5_reduce
I1130 08:17:07.697326 27091 net.cpp:84] Creating Layer inception_4b/5x5_reduce
I1130 08:17:07.697332 27091 net.cpp:406] inception_4b/5x5_reduce <- inception_4a/output_inception_4a/output_0_split_2
I1130 08:17:07.697338 27091 net.cpp:380] inception_4b/5x5_reduce -> inception_4b/5x5_reduce
I1130 08:17:07.697605 27091 net.cpp:122] Setting up inception_4b/5x5_reduce
I1130 08:17:07.697615 27091 net.cpp:129] Top shape: 32 24 14 14 (150528)
I1130 08:17:07.697620 27091 net.cpp:137] Memory required for data: 1272262784
I1130 08:17:07.697628 27091 layer_factory.hpp:77] Creating layer inception_4b/relu_5x5_reduce
I1130 08:17:07.697636 27091 net.cpp:84] Creating Layer inception_4b/relu_5x5_reduce
I1130 08:17:07.697641 27091 net.cpp:406] inception_4b/relu_5x5_reduce <- inception_4b/5x5_reduce
I1130 08:17:07.697649 27091 net.cpp:367] inception_4b/relu_5x5_reduce -> inception_4b/5x5_reduce (in-place)
I1130 08:17:07.697655 27091 net.cpp:122] Setting up inception_4b/relu_5x5_reduce
I1130 08:17:07.697662 27091 net.cpp:129] Top shape: 32 24 14 14 (150528)
I1130 08:17:07.697666 27091 net.cpp:137] Memory required for data: 1272864896
I1130 08:17:07.697671 27091 layer_factory.hpp:77] Creating layer inception_4b/5x5
I1130 08:17:07.697679 27091 net.cpp:84] Creating Layer inception_4b/5x5
I1130 08:17:07.697685 27091 net.cpp:406] inception_4b/5x5 <- inception_4b/5x5_reduce
I1130 08:17:07.697692 27091 net.cpp:380] inception_4b/5x5 -> inception_4b/5x5
I1130 08:17:07.698487 27091 net.cpp:122] Setting up inception_4b/5x5
I1130 08:17:07.698498 27091 net.cpp:129] Top shape: 32 64 14 14 (401408)
I1130 08:17:07.698503 27091 net.cpp:137] Memory required for data: 1274470528
I1130 08:17:07.698510 27091 layer_factory.hpp:77] Creating layer inception_4b/relu_5x5
I1130 08:17:07.698518 27091 net.cpp:84] Creating Layer inception_4b/relu_5x5
I1130 08:17:07.698523 27091 net.cpp:406] inception_4b/relu_5x5 <- inception_4b/5x5
I1130 08:17:07.698530 27091 net.cpp:367] inception_4b/relu_5x5 -> inception_4b/5x5 (in-place)
I1130 08:17:07.698539 27091 net.cpp:122] Setting up inception_4b/relu_5x5
I1130 08:17:07.698545 27091 net.cpp:129] Top shape: 32 64 14 14 (401408)
I1130 08:17:07.698550 27091 net.cpp:137] Memory required for data: 1276076160
I1130 08:17:07.698555 27091 layer_factory.hpp:77] Creating layer inception_4b/pool
I1130 08:17:07.698562 27091 net.cpp:84] Creating Layer inception_4b/pool
I1130 08:17:07.698568 27091 net.cpp:406] inception_4b/pool <- inception_4a/output_inception_4a/output_0_split_3
I1130 08:17:07.698575 27091 net.cpp:380] inception_4b/pool -> inception_4b/pool
I1130 08:17:07.698608 27091 net.cpp:122] Setting up inception_4b/pool
I1130 08:17:07.698616 27091 net.cpp:129] Top shape: 32 512 14 14 (3211264)
I1130 08:17:07.698621 27091 net.cpp:137] Memory required for data: 1288921216
I1130 08:17:07.698626 27091 layer_factory.hpp:77] Creating layer inception_4b/pool_proj
I1130 08:17:07.698634 27091 net.cpp:84] Creating Layer inception_4b/pool_proj
I1130 08:17:07.698640 27091 net.cpp:406] inception_4b/pool_proj <- inception_4b/pool
I1130 08:17:07.698648 27091 net.cpp:380] inception_4b/pool_proj -> inception_4b/pool_proj
I1130 08:17:07.699033 27091 net.cpp:122] Setting up inception_4b/pool_proj
I1130 08:17:07.699043 27091 net.cpp:129] Top shape: 32 64 14 14 (401408)
I1130 08:17:07.699048 27091 net.cpp:137] Memory required for data: 1290526848
I1130 08:17:07.699055 27091 layer_factory.hpp:77] Creating layer inception_4b/relu_pool_proj
I1130 08:17:07.699062 27091 net.cpp:84] Creating Layer inception_4b/relu_pool_proj
I1130 08:17:07.699067 27091 net.cpp:406] inception_4b/relu_pool_proj <- inception_4b/pool_proj
I1130 08:17:07.699074 27091 net.cpp:367] inception_4b/relu_pool_proj -> inception_4b/pool_proj (in-place)
I1130 08:17:07.699081 27091 net.cpp:122] Setting up inception_4b/relu_pool_proj
I1130 08:17:07.699086 27091 net.cpp:129] Top shape: 32 64 14 14 (401408)
I1130 08:17:07.699091 27091 net.cpp:137] Memory required for data: 1292132480
I1130 08:17:07.699096 27091 layer_factory.hpp:77] Creating layer inception_4b/output
I1130 08:17:07.699102 27091 net.cpp:84] Creating Layer inception_4b/output
I1130 08:17:07.699107 27091 net.cpp:406] inception_4b/output <- inception_4b/1x1
I1130 08:17:07.699113 27091 net.cpp:406] inception_4b/output <- inception_4b/3x3
I1130 08:17:07.699118 27091 net.cpp:406] inception_4b/output <- inception_4b/5x5
I1130 08:17:07.699123 27091 net.cpp:406] inception_4b/output <- inception_4b/pool_proj
I1130 08:17:07.699129 27091 net.cpp:380] inception_4b/output -> inception_4b/output
I1130 08:17:07.699152 27091 net.cpp:122] Setting up inception_4b/output
I1130 08:17:07.699159 27091 net.cpp:129] Top shape: 32 512 14 14 (3211264)
I1130 08:17:07.699164 27091 net.cpp:137] Memory required for data: 1304977536
I1130 08:17:07.699168 27091 layer_factory.hpp:77] Creating layer inception_4b/output_inception_4b/output_0_split
I1130 08:17:07.699174 27091 net.cpp:84] Creating Layer inception_4b/output_inception_4b/output_0_split
I1130 08:17:07.699180 27091 net.cpp:406] inception_4b/output_inception_4b/output_0_split <- inception_4b/output
I1130 08:17:07.699187 27091 net.cpp:380] inception_4b/output_inception_4b/output_0_split -> inception_4b/output_inception_4b/output_0_split_0
I1130 08:17:07.699194 27091 net.cpp:380] inception_4b/output_inception_4b/output_0_split -> inception_4b/output_inception_4b/output_0_split_1
I1130 08:17:07.699203 27091 net.cpp:380] inception_4b/output_inception_4b/output_0_split -> inception_4b/output_inception_4b/output_0_split_2
I1130 08:17:07.699209 27091 net.cpp:380] inception_4b/output_inception_4b/output_0_split -> inception_4b/output_inception_4b/output_0_split_3
I1130 08:17:07.699255 27091 net.cpp:122] Setting up inception_4b/output_inception_4b/output_0_split
I1130 08:17:07.699262 27091 net.cpp:129] Top shape: 32 512 14 14 (3211264)
I1130 08:17:07.699268 27091 net.cpp:129] Top shape: 32 512 14 14 (3211264)
I1130 08:17:07.699273 27091 net.cpp:129] Top shape: 32 512 14 14 (3211264)
I1130 08:17:07.699278 27091 net.cpp:129] Top shape: 32 512 14 14 (3211264)
I1130 08:17:07.699283 27091 net.cpp:137] Memory required for data: 1356357760
I1130 08:17:07.699287 27091 layer_factory.hpp:77] Creating layer inception_4c/1x1
I1130 08:17:07.699295 27091 net.cpp:84] Creating Layer inception_4c/1x1
I1130 08:17:07.699301 27091 net.cpp:406] inception_4c/1x1 <- inception_4b/output_inception_4b/output_0_split_0
I1130 08:17:07.699309 27091 net.cpp:380] inception_4c/1x1 -> inception_4c/1x1
I1130 08:17:07.699846 27091 net.cpp:122] Setting up inception_4c/1x1
I1130 08:17:07.699856 27091 net.cpp:129] Top shape: 32 128 14 14 (802816)
I1130 08:17:07.699862 27091 net.cpp:137] Memory required for data: 1359569024
I1130 08:17:07.699868 27091 layer_factory.hpp:77] Creating layer inception_4c/relu_1x1
I1130 08:17:07.699875 27091 net.cpp:84] Creating Layer inception_4c/relu_1x1
I1130 08:17:07.699880 27091 net.cpp:406] inception_4c/relu_1x1 <- inception_4c/1x1
I1130 08:17:07.699887 27091 net.cpp:367] inception_4c/relu_1x1 -> inception_4c/1x1 (in-place)
I1130 08:17:07.699893 27091 net.cpp:122] Setting up inception_4c/relu_1x1
I1130 08:17:07.699899 27091 net.cpp:129] Top shape: 32 128 14 14 (802816)
I1130 08:17:07.699904 27091 net.cpp:137] Memory required for data: 1362780288
I1130 08:17:07.699909 27091 layer_factory.hpp:77] Creating layer inception_4c/3x3_reduce
I1130 08:17:07.699918 27091 net.cpp:84] Creating Layer inception_4c/3x3_reduce
I1130 08:17:07.699923 27091 net.cpp:406] inception_4c/3x3_reduce <- inception_4b/output_inception_4b/output_0_split_1
I1130 08:17:07.699929 27091 net.cpp:380] inception_4c/3x3_reduce -> inception_4c/3x3_reduce
I1130 08:17:07.700467 27091 net.cpp:122] Setting up inception_4c/3x3_reduce
I1130 08:17:07.700477 27091 net.cpp:129] Top shape: 32 128 14 14 (802816)
I1130 08:17:07.700482 27091 net.cpp:137] Memory required for data: 1365991552
I1130 08:17:07.700489 27091 layer_factory.hpp:77] Creating layer inception_4c/relu_3x3_reduce
I1130 08:17:07.700496 27091 net.cpp:84] Creating Layer inception_4c/relu_3x3_reduce
I1130 08:17:07.700502 27091 net.cpp:406] inception_4c/relu_3x3_reduce <- inception_4c/3x3_reduce
I1130 08:17:07.700508 27091 net.cpp:367] inception_4c/relu_3x3_reduce -> inception_4c/3x3_reduce (in-place)
I1130 08:17:07.700515 27091 net.cpp:122] Setting up inception_4c/relu_3x3_reduce
I1130 08:17:07.700521 27091 net.cpp:129] Top shape: 32 128 14 14 (802816)
I1130 08:17:07.700525 27091 net.cpp:137] Memory required for data: 1369202816
I1130 08:17:07.700529 27091 layer_factory.hpp:77] Creating layer inception_4c/3x3
I1130 08:17:07.700538 27091 net.cpp:84] Creating Layer inception_4c/3x3
I1130 08:17:07.700543 27091 net.cpp:406] inception_4c/3x3 <- inception_4c/3x3_reduce
I1130 08:17:07.700549 27091 net.cpp:380] inception_4c/3x3 -> inception_4c/3x3
I1130 08:17:07.702797 27091 net.cpp:122] Setting up inception_4c/3x3
I1130 08:17:07.702810 27091 net.cpp:129] Top shape: 32 256 14 14 (1605632)
I1130 08:17:07.702814 27091 net.cpp:137] Memory required for data: 1375625344
I1130 08:17:07.702821 27091 layer_factory.hpp:77] Creating layer inception_4c/relu_3x3
I1130 08:17:07.702829 27091 net.cpp:84] Creating Layer inception_4c/relu_3x3
I1130 08:17:07.702834 27091 net.cpp:406] inception_4c/relu_3x3 <- inception_4c/3x3
I1130 08:17:07.702841 27091 net.cpp:367] inception_4c/relu_3x3 -> inception_4c/3x3 (in-place)
I1130 08:17:07.702849 27091 net.cpp:122] Setting up inception_4c/relu_3x3
I1130 08:17:07.702855 27091 net.cpp:129] Top shape: 32 256 14 14 (1605632)
I1130 08:17:07.702860 27091 net.cpp:137] Memory required for data: 1382047872
I1130 08:17:07.702865 27091 layer_factory.hpp:77] Creating layer inception_4c/5x5_reduce
I1130 08:17:07.702873 27091 net.cpp:84] Creating Layer inception_4c/5x5_reduce
I1130 08:17:07.702879 27091 net.cpp:406] inception_4c/5x5_reduce <- inception_4b/output_inception_4b/output_0_split_2
I1130 08:17:07.702886 27091 net.cpp:380] inception_4c/5x5_reduce -> inception_4c/5x5_reduce
I1130 08:17:07.703137 27091 net.cpp:122] Setting up inception_4c/5x5_reduce
I1130 08:17:07.703146 27091 net.cpp:129] Top shape: 32 24 14 14 (150528)
I1130 08:17:07.703151 27091 net.cpp:137] Memory required for data: 1382649984
I1130 08:17:07.703160 27091 layer_factory.hpp:77] Creating layer inception_4c/relu_5x5_reduce
I1130 08:17:07.703166 27091 net.cpp:84] Creating Layer inception_4c/relu_5x5_reduce
I1130 08:17:07.703171 27091 net.cpp:406] inception_4c/relu_5x5_reduce <- inception_4c/5x5_reduce
I1130 08:17:07.703177 27091 net.cpp:367] inception_4c/relu_5x5_reduce -> inception_4c/5x5_reduce (in-place)
I1130 08:17:07.703184 27091 net.cpp:122] Setting up inception_4c/relu_5x5_reduce
I1130 08:17:07.703191 27091 net.cpp:129] Top shape: 32 24 14 14 (150528)
I1130 08:17:07.703194 27091 net.cpp:137] Memory required for data: 1383252096
I1130 08:17:07.703199 27091 layer_factory.hpp:77] Creating layer inception_4c/5x5
I1130 08:17:07.703207 27091 net.cpp:84] Creating Layer inception_4c/5x5
I1130 08:17:07.703212 27091 net.cpp:406] inception_4c/5x5 <- inception_4c/5x5_reduce
I1130 08:17:07.703219 27091 net.cpp:380] inception_4c/5x5 -> inception_4c/5x5
I1130 08:17:07.703614 27091 net.cpp:122] Setting up inception_4c/5x5
I1130 08:17:07.703624 27091 net.cpp:129] Top shape: 32 64 14 14 (401408)
I1130 08:17:07.703629 27091 net.cpp:137] Memory required for data: 1384857728
I1130 08:17:07.703636 27091 layer_factory.hpp:77] Creating layer inception_4c/relu_5x5
I1130 08:17:07.703644 27091 net.cpp:84] Creating Layer inception_4c/relu_5x5
I1130 08:17:07.703649 27091 net.cpp:406] inception_4c/relu_5x5 <- inception_4c/5x5
I1130 08:17:07.703655 27091 net.cpp:367] inception_4c/relu_5x5 -> inception_4c/5x5 (in-place)
I1130 08:17:07.703662 27091 net.cpp:122] Setting up inception_4c/relu_5x5
I1130 08:17:07.703667 27091 net.cpp:129] Top shape: 32 64 14 14 (401408)
I1130 08:17:07.703672 27091 net.cpp:137] Memory required for data: 1386463360
I1130 08:17:07.703677 27091 layer_factory.hpp:77] Creating layer inception_4c/pool
I1130 08:17:07.703685 27091 net.cpp:84] Creating Layer inception_4c/pool
I1130 08:17:07.703689 27091 net.cpp:406] inception_4c/pool <- inception_4b/output_inception_4b/output_0_split_3
I1130 08:17:07.703696 27091 net.cpp:380] inception_4c/pool -> inception_4c/pool
I1130 08:17:07.703728 27091 net.cpp:122] Setting up inception_4c/pool
I1130 08:17:07.703737 27091 net.cpp:129] Top shape: 32 512 14 14 (3211264)
I1130 08:17:07.703742 27091 net.cpp:137] Memory required for data: 1399308416
I1130 08:17:07.703747 27091 layer_factory.hpp:77] Creating layer inception_4c/pool_proj
I1130 08:17:07.703755 27091 net.cpp:84] Creating Layer inception_4c/pool_proj
I1130 08:17:07.703761 27091 net.cpp:406] inception_4c/pool_proj <- inception_4c/pool
I1130 08:17:07.703768 27091 net.cpp:380] inception_4c/pool_proj -> inception_4c/pool_proj
I1130 08:17:07.704501 27091 net.cpp:122] Setting up inception_4c/pool_proj
I1130 08:17:07.704512 27091 net.cpp:129] Top shape: 32 64 14 14 (401408)
I1130 08:17:07.704519 27091 net.cpp:137] Memory required for data: 1400914048
I1130 08:17:07.704532 27091 layer_factory.hpp:77] Creating layer inception_4c/relu_pool_proj
I1130 08:17:07.704540 27091 net.cpp:84] Creating Layer inception_4c/relu_pool_proj
I1130 08:17:07.704546 27091 net.cpp:406] inception_4c/relu_pool_proj <- inception_4c/pool_proj
I1130 08:17:07.704552 27091 net.cpp:367] inception_4c/relu_pool_proj -> inception_4c/pool_proj (in-place)
I1130 08:17:07.704560 27091 net.cpp:122] Setting up inception_4c/relu_pool_proj
I1130 08:17:07.704566 27091 net.cpp:129] Top shape: 32 64 14 14 (401408)
I1130 08:17:07.704571 27091 net.cpp:137] Memory required for data: 1402519680
I1130 08:17:07.704576 27091 layer_factory.hpp:77] Creating layer inception_4c/output
I1130 08:17:07.704582 27091 net.cpp:84] Creating Layer inception_4c/output
I1130 08:17:07.704587 27091 net.cpp:406] inception_4c/output <- inception_4c/1x1
I1130 08:17:07.704593 27091 net.cpp:406] inception_4c/output <- inception_4c/3x3
I1130 08:17:07.704598 27091 net.cpp:406] inception_4c/output <- inception_4c/5x5
I1130 08:17:07.704603 27091 net.cpp:406] inception_4c/output <- inception_4c/pool_proj
I1130 08:17:07.704609 27091 net.cpp:380] inception_4c/output -> inception_4c/output
I1130 08:17:07.704633 27091 net.cpp:122] Setting up inception_4c/output
I1130 08:17:07.704640 27091 net.cpp:129] Top shape: 32 512 14 14 (3211264)
I1130 08:17:07.704645 27091 net.cpp:137] Memory required for data: 1415364736
I1130 08:17:07.704649 27091 layer_factory.hpp:77] Creating layer inception_4c/output_inception_4c/output_0_split
I1130 08:17:07.704655 27091 net.cpp:84] Creating Layer inception_4c/output_inception_4c/output_0_split
I1130 08:17:07.704660 27091 net.cpp:406] inception_4c/output_inception_4c/output_0_split <- inception_4c/output
I1130 08:17:07.704666 27091 net.cpp:380] inception_4c/output_inception_4c/output_0_split -> inception_4c/output_inception_4c/output_0_split_0
I1130 08:17:07.704674 27091 net.cpp:380] inception_4c/output_inception_4c/output_0_split -> inception_4c/output_inception_4c/output_0_split_1
I1130 08:17:07.704682 27091 net.cpp:380] inception_4c/output_inception_4c/output_0_split -> inception_4c/output_inception_4c/output_0_split_2
I1130 08:17:07.704689 27091 net.cpp:380] inception_4c/output_inception_4c/output_0_split -> inception_4c/output_inception_4c/output_0_split_3
I1130 08:17:07.704735 27091 net.cpp:122] Setting up inception_4c/output_inception_4c/output_0_split
I1130 08:17:07.704742 27091 net.cpp:129] Top shape: 32 512 14 14 (3211264)
I1130 08:17:07.704747 27091 net.cpp:129] Top shape: 32 512 14 14 (3211264)
I1130 08:17:07.704753 27091 net.cpp:129] Top shape: 32 512 14 14 (3211264)
I1130 08:17:07.704758 27091 net.cpp:129] Top shape: 32 512 14 14 (3211264)
I1130 08:17:07.704762 27091 net.cpp:137] Memory required for data: 1466744960
I1130 08:17:07.704767 27091 layer_factory.hpp:77] Creating layer inception_4d/1x1
I1130 08:17:07.704777 27091 net.cpp:84] Creating Layer inception_4d/1x1
I1130 08:17:07.704782 27091 net.cpp:406] inception_4d/1x1 <- inception_4c/output_inception_4c/output_0_split_0
I1130 08:17:07.704789 27091 net.cpp:380] inception_4d/1x1 -> inception_4d/1x1
I1130 08:17:07.705287 27091 net.cpp:122] Setting up inception_4d/1x1
I1130 08:17:07.705297 27091 net.cpp:129] Top shape: 32 112 14 14 (702464)
I1130 08:17:07.705302 27091 net.cpp:137] Memory required for data: 1469554816
I1130 08:17:07.705309 27091 layer_factory.hpp:77] Creating layer inception_4d/relu_1x1
I1130 08:17:07.705317 27091 net.cpp:84] Creating Layer inception_4d/relu_1x1
I1130 08:17:07.705322 27091 net.cpp:406] inception_4d/relu_1x1 <- inception_4d/1x1
I1130 08:17:07.705327 27091 net.cpp:367] inception_4d/relu_1x1 -> inception_4d/1x1 (in-place)
I1130 08:17:07.705334 27091 net.cpp:122] Setting up inception_4d/relu_1x1
I1130 08:17:07.705340 27091 net.cpp:129] Top shape: 32 112 14 14 (702464)
I1130 08:17:07.705345 27091 net.cpp:137] Memory required for data: 1472364672
I1130 08:17:07.705350 27091 layer_factory.hpp:77] Creating layer inception_4d/3x3_reduce
I1130 08:17:07.705358 27091 net.cpp:84] Creating Layer inception_4d/3x3_reduce
I1130 08:17:07.705364 27091 net.cpp:406] inception_4d/3x3_reduce <- inception_4c/output_inception_4c/output_0_split_1
I1130 08:17:07.705370 27091 net.cpp:380] inception_4d/3x3_reduce -> inception_4d/3x3_reduce
I1130 08:17:07.705982 27091 net.cpp:122] Setting up inception_4d/3x3_reduce
I1130 08:17:07.705991 27091 net.cpp:129] Top shape: 32 144 14 14 (903168)
I1130 08:17:07.705997 27091 net.cpp:137] Memory required for data: 1475977344
I1130 08:17:07.706004 27091 layer_factory.hpp:77] Creating layer inception_4d/relu_3x3_reduce
I1130 08:17:07.706012 27091 net.cpp:84] Creating Layer inception_4d/relu_3x3_reduce
I1130 08:17:07.706017 27091 net.cpp:406] inception_4d/relu_3x3_reduce <- inception_4d/3x3_reduce
I1130 08:17:07.706023 27091 net.cpp:367] inception_4d/relu_3x3_reduce -> inception_4d/3x3_reduce (in-place)
I1130 08:17:07.706030 27091 net.cpp:122] Setting up inception_4d/relu_3x3_reduce
I1130 08:17:07.706037 27091 net.cpp:129] Top shape: 32 144 14 14 (903168)
I1130 08:17:07.706040 27091 net.cpp:137] Memory required for data: 1479590016
I1130 08:17:07.706045 27091 layer_factory.hpp:77] Creating layer inception_4d/3x3
I1130 08:17:07.706054 27091 net.cpp:84] Creating Layer inception_4d/3x3
I1130 08:17:07.706059 27091 net.cpp:406] inception_4d/3x3 <- inception_4d/3x3_reduce
I1130 08:17:07.706066 27091 net.cpp:380] inception_4d/3x3 -> inception_4d/3x3
I1130 08:17:07.708812 27091 net.cpp:122] Setting up inception_4d/3x3
I1130 08:17:07.708824 27091 net.cpp:129] Top shape: 32 288 14 14 (1806336)
I1130 08:17:07.708830 27091 net.cpp:137] Memory required for data: 1486815360
I1130 08:17:07.708837 27091 layer_factory.hpp:77] Creating layer inception_4d/relu_3x3
I1130 08:17:07.708847 27091 net.cpp:84] Creating Layer inception_4d/relu_3x3
I1130 08:17:07.708853 27091 net.cpp:406] inception_4d/relu_3x3 <- inception_4d/3x3
I1130 08:17:07.708858 27091 net.cpp:367] inception_4d/relu_3x3 -> inception_4d/3x3 (in-place)
I1130 08:17:07.708866 27091 net.cpp:122] Setting up inception_4d/relu_3x3
I1130 08:17:07.708873 27091 net.cpp:129] Top shape: 32 288 14 14 (1806336)
I1130 08:17:07.708876 27091 net.cpp:137] Memory required for data: 1494040704
I1130 08:17:07.708883 27091 layer_factory.hpp:77] Creating layer inception_4d/5x5_reduce
I1130 08:17:07.708891 27091 net.cpp:84] Creating Layer inception_4d/5x5_reduce
I1130 08:17:07.708896 27091 net.cpp:406] inception_4d/5x5_reduce <- inception_4c/output_inception_4c/output_0_split_2
I1130 08:17:07.708904 27091 net.cpp:380] inception_4d/5x5_reduce -> inception_4d/5x5_reduce
I1130 08:17:07.709189 27091 net.cpp:122] Setting up inception_4d/5x5_reduce
I1130 08:17:07.709198 27091 net.cpp:129] Top shape: 32 32 14 14 (200704)
I1130 08:17:07.709203 27091 net.cpp:137] Memory required for data: 1494843520
I1130 08:17:07.709210 27091 layer_factory.hpp:77] Creating layer inception_4d/relu_5x5_reduce
I1130 08:17:07.709218 27091 net.cpp:84] Creating Layer inception_4d/relu_5x5_reduce
I1130 08:17:07.709223 27091 net.cpp:406] inception_4d/relu_5x5_reduce <- inception_4d/5x5_reduce
I1130 08:17:07.709230 27091 net.cpp:367] inception_4d/relu_5x5_reduce -> inception_4d/5x5_reduce (in-place)
I1130 08:17:07.709237 27091 net.cpp:122] Setting up inception_4d/relu_5x5_reduce
I1130 08:17:07.709244 27091 net.cpp:129] Top shape: 32 32 14 14 (200704)
I1130 08:17:07.709249 27091 net.cpp:137] Memory required for data: 1495646336
I1130 08:17:07.709254 27091 layer_factory.hpp:77] Creating layer inception_4d/5x5
I1130 08:17:07.709262 27091 net.cpp:84] Creating Layer inception_4d/5x5
I1130 08:17:07.709267 27091 net.cpp:406] inception_4d/5x5 <- inception_4d/5x5_reduce
I1130 08:17:07.709273 27091 net.cpp:380] inception_4d/5x5 -> inception_4d/5x5
I1130 08:17:07.709744 27091 net.cpp:122] Setting up inception_4d/5x5
I1130 08:17:07.709753 27091 net.cpp:129] Top shape: 32 64 14 14 (401408)
I1130 08:17:07.709758 27091 net.cpp:137] Memory required for data: 1497251968
I1130 08:17:07.709764 27091 layer_factory.hpp:77] Creating layer inception_4d/relu_5x5
I1130 08:17:07.709771 27091 net.cpp:84] Creating Layer inception_4d/relu_5x5
I1130 08:17:07.709777 27091 net.cpp:406] inception_4d/relu_5x5 <- inception_4d/5x5
I1130 08:17:07.709784 27091 net.cpp:367] inception_4d/relu_5x5 -> inception_4d/5x5 (in-place)
I1130 08:17:07.709791 27091 net.cpp:122] Setting up inception_4d/relu_5x5
I1130 08:17:07.709797 27091 net.cpp:129] Top shape: 32 64 14 14 (401408)
I1130 08:17:07.709801 27091 net.cpp:137] Memory required for data: 1498857600
I1130 08:17:07.709805 27091 layer_factory.hpp:77] Creating layer inception_4d/pool
I1130 08:17:07.709812 27091 net.cpp:84] Creating Layer inception_4d/pool
I1130 08:17:07.709817 27091 net.cpp:406] inception_4d/pool <- inception_4c/output_inception_4c/output_0_split_3
I1130 08:17:07.709825 27091 net.cpp:380] inception_4d/pool -> inception_4d/pool
I1130 08:17:07.709857 27091 net.cpp:122] Setting up inception_4d/pool
I1130 08:17:07.709866 27091 net.cpp:129] Top shape: 32 512 14 14 (3211264)
I1130 08:17:07.709869 27091 net.cpp:137] Memory required for data: 1511702656
I1130 08:17:07.709873 27091 layer_factory.hpp:77] Creating layer inception_4d/pool_proj
I1130 08:17:07.709883 27091 net.cpp:84] Creating Layer inception_4d/pool_proj
I1130 08:17:07.709890 27091 net.cpp:406] inception_4d/pool_proj <- inception_4d/pool
I1130 08:17:07.709897 27091 net.cpp:380] inception_4d/pool_proj -> inception_4d/pool_proj
I1130 08:17:07.710258 27091 net.cpp:122] Setting up inception_4d/pool_proj
I1130 08:17:07.710268 27091 net.cpp:129] Top shape: 32 64 14 14 (401408)
I1130 08:17:07.710273 27091 net.cpp:137] Memory required for data: 1513308288
I1130 08:17:07.710279 27091 layer_factory.hpp:77] Creating layer inception_4d/relu_pool_proj
I1130 08:17:07.710288 27091 net.cpp:84] Creating Layer inception_4d/relu_pool_proj
I1130 08:17:07.710294 27091 net.cpp:406] inception_4d/relu_pool_proj <- inception_4d/pool_proj
I1130 08:17:07.710299 27091 net.cpp:367] inception_4d/relu_pool_proj -> inception_4d/pool_proj (in-place)
I1130 08:17:07.710306 27091 net.cpp:122] Setting up inception_4d/relu_pool_proj
I1130 08:17:07.710314 27091 net.cpp:129] Top shape: 32 64 14 14 (401408)
I1130 08:17:07.710317 27091 net.cpp:137] Memory required for data: 1514913920
I1130 08:17:07.710321 27091 layer_factory.hpp:77] Creating layer inception_4d/output
I1130 08:17:07.710328 27091 net.cpp:84] Creating Layer inception_4d/output
I1130 08:17:07.710335 27091 net.cpp:406] inception_4d/output <- inception_4d/1x1
I1130 08:17:07.710340 27091 net.cpp:406] inception_4d/output <- inception_4d/3x3
I1130 08:17:07.710345 27091 net.cpp:406] inception_4d/output <- inception_4d/5x5
I1130 08:17:07.710350 27091 net.cpp:406] inception_4d/output <- inception_4d/pool_proj
I1130 08:17:07.710356 27091 net.cpp:380] inception_4d/output -> inception_4d/output
I1130 08:17:07.710379 27091 net.cpp:122] Setting up inception_4d/output
I1130 08:17:07.710387 27091 net.cpp:129] Top shape: 32 528 14 14 (3311616)
I1130 08:17:07.710392 27091 net.cpp:137] Memory required for data: 1528160384
I1130 08:17:07.710397 27091 layer_factory.hpp:77] Creating layer inception_4d/output_inception_4d/output_0_split
I1130 08:17:07.710403 27091 net.cpp:84] Creating Layer inception_4d/output_inception_4d/output_0_split
I1130 08:17:07.710408 27091 net.cpp:406] inception_4d/output_inception_4d/output_0_split <- inception_4d/output
I1130 08:17:07.710415 27091 net.cpp:380] inception_4d/output_inception_4d/output_0_split -> inception_4d/output_inception_4d/output_0_split_0
I1130 08:17:07.710423 27091 net.cpp:380] inception_4d/output_inception_4d/output_0_split -> inception_4d/output_inception_4d/output_0_split_1
I1130 08:17:07.710431 27091 net.cpp:380] inception_4d/output_inception_4d/output_0_split -> inception_4d/output_inception_4d/output_0_split_2
I1130 08:17:07.710438 27091 net.cpp:380] inception_4d/output_inception_4d/output_0_split -> inception_4d/output_inception_4d/output_0_split_3
I1130 08:17:07.710484 27091 net.cpp:122] Setting up inception_4d/output_inception_4d/output_0_split
I1130 08:17:07.710491 27091 net.cpp:129] Top shape: 32 528 14 14 (3311616)
I1130 08:17:07.710496 27091 net.cpp:129] Top shape: 32 528 14 14 (3311616)
I1130 08:17:07.710502 27091 net.cpp:129] Top shape: 32 528 14 14 (3311616)
I1130 08:17:07.710507 27091 net.cpp:129] Top shape: 32 528 14 14 (3311616)
I1130 08:17:07.710511 27091 net.cpp:137] Memory required for data: 1581146240
I1130 08:17:07.710515 27091 layer_factory.hpp:77] Creating layer inception_4e/1x1
I1130 08:17:07.710525 27091 net.cpp:84] Creating Layer inception_4e/1x1
I1130 08:17:07.710530 27091 net.cpp:406] inception_4e/1x1 <- inception_4d/output_inception_4d/output_0_split_0
I1130 08:17:07.710537 27091 net.cpp:380] inception_4e/1x1 -> inception_4e/1x1
I1130 08:17:07.711851 27091 net.cpp:122] Setting up inception_4e/1x1
I1130 08:17:07.711863 27091 net.cpp:129] Top shape: 32 256 14 14 (1605632)
I1130 08:17:07.711869 27091 net.cpp:137] Memory required for data: 1587568768
I1130 08:17:07.711875 27091 layer_factory.hpp:77] Creating layer inception_4e/relu_1x1
I1130 08:17:07.711882 27091 net.cpp:84] Creating Layer inception_4e/relu_1x1
I1130 08:17:07.711889 27091 net.cpp:406] inception_4e/relu_1x1 <- inception_4e/1x1
I1130 08:17:07.711894 27091 net.cpp:367] inception_4e/relu_1x1 -> inception_4e/1x1 (in-place)
I1130 08:17:07.711904 27091 net.cpp:122] Setting up inception_4e/relu_1x1
I1130 08:17:07.711910 27091 net.cpp:129] Top shape: 32 256 14 14 (1605632)
I1130 08:17:07.711915 27091 net.cpp:137] Memory required for data: 1593991296
I1130 08:17:07.711917 27091 layer_factory.hpp:77] Creating layer inception_4e/3x3_reduce
I1130 08:17:07.711926 27091 net.cpp:84] Creating Layer inception_4e/3x3_reduce
I1130 08:17:07.711932 27091 net.cpp:406] inception_4e/3x3_reduce <- inception_4d/output_inception_4d/output_0_split_1
I1130 08:17:07.711938 27091 net.cpp:380] inception_4e/3x3_reduce -> inception_4e/3x3_reduce
I1130 08:17:07.712574 27091 net.cpp:122] Setting up inception_4e/3x3_reduce
I1130 08:17:07.712584 27091 net.cpp:129] Top shape: 32 160 14 14 (1003520)
I1130 08:17:07.712587 27091 net.cpp:137] Memory required for data: 1598005376
I1130 08:17:07.712594 27091 layer_factory.hpp:77] Creating layer inception_4e/relu_3x3_reduce
I1130 08:17:07.712600 27091 net.cpp:84] Creating Layer inception_4e/relu_3x3_reduce
I1130 08:17:07.712605 27091 net.cpp:406] inception_4e/relu_3x3_reduce <- inception_4e/3x3_reduce
I1130 08:17:07.712611 27091 net.cpp:367] inception_4e/relu_3x3_reduce -> inception_4e/3x3_reduce (in-place)
I1130 08:17:07.712620 27091 net.cpp:122] Setting up inception_4e/relu_3x3_reduce
I1130 08:17:07.712625 27091 net.cpp:129] Top shape: 32 160 14 14 (1003520)
I1130 08:17:07.712630 27091 net.cpp:137] Memory required for data: 1602019456
I1130 08:17:07.712635 27091 layer_factory.hpp:77] Creating layer inception_4e/3x3
I1130 08:17:07.712643 27091 net.cpp:84] Creating Layer inception_4e/3x3
I1130 08:17:07.712648 27091 net.cpp:406] inception_4e/3x3 <- inception_4e/3x3_reduce
I1130 08:17:07.712654 27091 net.cpp:380] inception_4e/3x3 -> inception_4e/3x3
I1130 08:17:07.715898 27091 net.cpp:122] Setting up inception_4e/3x3
I1130 08:17:07.715910 27091 net.cpp:129] Top shape: 32 320 14 14 (2007040)
I1130 08:17:07.715914 27091 net.cpp:137] Memory required for data: 1610047616
I1130 08:17:07.715921 27091 layer_factory.hpp:77] Creating layer inception_4e/relu_3x3
I1130 08:17:07.715929 27091 net.cpp:84] Creating Layer inception_4e/relu_3x3
I1130 08:17:07.715935 27091 net.cpp:406] inception_4e/relu_3x3 <- inception_4e/3x3
I1130 08:17:07.715942 27091 net.cpp:367] inception_4e/relu_3x3 -> inception_4e/3x3 (in-place)
I1130 08:17:07.715950 27091 net.cpp:122] Setting up inception_4e/relu_3x3
I1130 08:17:07.715956 27091 net.cpp:129] Top shape: 32 320 14 14 (2007040)
I1130 08:17:07.715960 27091 net.cpp:137] Memory required for data: 1618075776
I1130 08:17:07.715965 27091 layer_factory.hpp:77] Creating layer inception_4e/5x5_reduce
I1130 08:17:07.715972 27091 net.cpp:84] Creating Layer inception_4e/5x5_reduce
I1130 08:17:07.715978 27091 net.cpp:406] inception_4e/5x5_reduce <- inception_4d/output_inception_4d/output_0_split_2
I1130 08:17:07.715986 27091 net.cpp:380] inception_4e/5x5_reduce -> inception_4e/5x5_reduce
I1130 08:17:07.716264 27091 net.cpp:122] Setting up inception_4e/5x5_reduce
I1130 08:17:07.716272 27091 net.cpp:129] Top shape: 32 32 14 14 (200704)
I1130 08:17:07.716276 27091 net.cpp:137] Memory required for data: 1618878592
I1130 08:17:07.716284 27091 layer_factory.hpp:77] Creating layer inception_4e/relu_5x5_reduce
I1130 08:17:07.716290 27091 net.cpp:84] Creating Layer inception_4e/relu_5x5_reduce
I1130 08:17:07.716296 27091 net.cpp:406] inception_4e/relu_5x5_reduce <- inception_4e/5x5_reduce
I1130 08:17:07.716302 27091 net.cpp:367] inception_4e/relu_5x5_reduce -> inception_4e/5x5_reduce (in-place)
I1130 08:17:07.716310 27091 net.cpp:122] Setting up inception_4e/relu_5x5_reduce
I1130 08:17:07.716315 27091 net.cpp:129] Top shape: 32 32 14 14 (200704)
I1130 08:17:07.716321 27091 net.cpp:137] Memory required for data: 1619681408
I1130 08:17:07.716325 27091 layer_factory.hpp:77] Creating layer inception_4e/5x5
I1130 08:17:07.716333 27091 net.cpp:84] Creating Layer inception_4e/5x5
I1130 08:17:07.716338 27091 net.cpp:406] inception_4e/5x5 <- inception_4e/5x5_reduce
I1130 08:17:07.716346 27091 net.cpp:380] inception_4e/5x5 -> inception_4e/5x5
I1130 08:17:07.717453 27091 net.cpp:122] Setting up inception_4e/5x5
I1130 08:17:07.717463 27091 net.cpp:129] Top shape: 32 128 14 14 (802816)
I1130 08:17:07.717468 27091 net.cpp:137] Memory required for data: 1622892672
I1130 08:17:07.717474 27091 layer_factory.hpp:77] Creating layer inception_4e/relu_5x5
I1130 08:17:07.717481 27091 net.cpp:84] Creating Layer inception_4e/relu_5x5
I1130 08:17:07.717489 27091 net.cpp:406] inception_4e/relu_5x5 <- inception_4e/5x5
I1130 08:17:07.717495 27091 net.cpp:367] inception_4e/relu_5x5 -> inception_4e/5x5 (in-place)
I1130 08:17:07.717502 27091 net.cpp:122] Setting up inception_4e/relu_5x5
I1130 08:17:07.717509 27091 net.cpp:129] Top shape: 32 128 14 14 (802816)
I1130 08:17:07.717514 27091 net.cpp:137] Memory required for data: 1626103936
I1130 08:17:07.717517 27091 layer_factory.hpp:77] Creating layer inception_4e/pool
I1130 08:17:07.717523 27091 net.cpp:84] Creating Layer inception_4e/pool
I1130 08:17:07.717528 27091 net.cpp:406] inception_4e/pool <- inception_4d/output_inception_4d/output_0_split_3
I1130 08:17:07.717535 27091 net.cpp:380] inception_4e/pool -> inception_4e/pool
I1130 08:17:07.717571 27091 net.cpp:122] Setting up inception_4e/pool
I1130 08:17:07.717577 27091 net.cpp:129] Top shape: 32 528 14 14 (3311616)
I1130 08:17:07.717582 27091 net.cpp:137] Memory required for data: 1639350400
I1130 08:17:07.717586 27091 layer_factory.hpp:77] Creating layer inception_4e/pool_proj
I1130 08:17:07.717595 27091 net.cpp:84] Creating Layer inception_4e/pool_proj
I1130 08:17:07.717602 27091 net.cpp:406] inception_4e/pool_proj <- inception_4e/pool
I1130 08:17:07.717609 27091 net.cpp:380] inception_4e/pool_proj -> inception_4e/pool_proj
I1130 08:17:07.718154 27091 net.cpp:122] Setting up inception_4e/pool_proj
I1130 08:17:07.718163 27091 net.cpp:129] Top shape: 32 128 14 14 (802816)
I1130 08:17:07.718168 27091 net.cpp:137] Memory required for data: 1642561664
I1130 08:17:07.718175 27091 layer_factory.hpp:77] Creating layer inception_4e/relu_pool_proj
I1130 08:17:07.718183 27091 net.cpp:84] Creating Layer inception_4e/relu_pool_proj
I1130 08:17:07.718188 27091 net.cpp:406] inception_4e/relu_pool_proj <- inception_4e/pool_proj
I1130 08:17:07.718194 27091 net.cpp:367] inception_4e/relu_pool_proj -> inception_4e/pool_proj (in-place)
I1130 08:17:07.718201 27091 net.cpp:122] Setting up inception_4e/relu_pool_proj
I1130 08:17:07.718207 27091 net.cpp:129] Top shape: 32 128 14 14 (802816)
I1130 08:17:07.718212 27091 net.cpp:137] Memory required for data: 1645772928
I1130 08:17:07.718216 27091 layer_factory.hpp:77] Creating layer inception_4e/output
I1130 08:17:07.718224 27091 net.cpp:84] Creating Layer inception_4e/output
I1130 08:17:07.718228 27091 net.cpp:406] inception_4e/output <- inception_4e/1x1
I1130 08:17:07.718235 27091 net.cpp:406] inception_4e/output <- inception_4e/3x3
I1130 08:17:07.718240 27091 net.cpp:406] inception_4e/output <- inception_4e/5x5
I1130 08:17:07.718245 27091 net.cpp:406] inception_4e/output <- inception_4e/pool_proj
I1130 08:17:07.718251 27091 net.cpp:380] inception_4e/output -> inception_4e/output
I1130 08:17:07.718276 27091 net.cpp:122] Setting up inception_4e/output
I1130 08:17:07.718283 27091 net.cpp:129] Top shape: 32 832 14 14 (5218304)
I1130 08:17:07.718288 27091 net.cpp:137] Memory required for data: 1666646144
I1130 08:17:07.718292 27091 layer_factory.hpp:77] Creating layer pool4/3x3_s2
I1130 08:17:07.718300 27091 net.cpp:84] Creating Layer pool4/3x3_s2
I1130 08:17:07.718305 27091 net.cpp:406] pool4/3x3_s2 <- inception_4e/output
I1130 08:17:07.718312 27091 net.cpp:380] pool4/3x3_s2 -> pool4/3x3_s2
I1130 08:17:07.718344 27091 net.cpp:122] Setting up pool4/3x3_s2
I1130 08:17:07.718353 27091 net.cpp:129] Top shape: 32 832 7 7 (1304576)
I1130 08:17:07.718356 27091 net.cpp:137] Memory required for data: 1671864448
I1130 08:17:07.718360 27091 layer_factory.hpp:77] Creating layer pool4/3x3_s2_pool4/3x3_s2_0_split
I1130 08:17:07.718367 27091 net.cpp:84] Creating Layer pool4/3x3_s2_pool4/3x3_s2_0_split
I1130 08:17:07.718374 27091 net.cpp:406] pool4/3x3_s2_pool4/3x3_s2_0_split <- pool4/3x3_s2
I1130 08:17:07.718379 27091 net.cpp:380] pool4/3x3_s2_pool4/3x3_s2_0_split -> pool4/3x3_s2_pool4/3x3_s2_0_split_0
I1130 08:17:07.718389 27091 net.cpp:380] pool4/3x3_s2_pool4/3x3_s2_0_split -> pool4/3x3_s2_pool4/3x3_s2_0_split_1
I1130 08:17:07.718396 27091 net.cpp:380] pool4/3x3_s2_pool4/3x3_s2_0_split -> pool4/3x3_s2_pool4/3x3_s2_0_split_2
I1130 08:17:07.718402 27091 net.cpp:380] pool4/3x3_s2_pool4/3x3_s2_0_split -> pool4/3x3_s2_pool4/3x3_s2_0_split_3
I1130 08:17:07.718449 27091 net.cpp:122] Setting up pool4/3x3_s2_pool4/3x3_s2_0_split
I1130 08:17:07.718457 27091 net.cpp:129] Top shape: 32 832 7 7 (1304576)
I1130 08:17:07.718462 27091 net.cpp:129] Top shape: 32 832 7 7 (1304576)
I1130 08:17:07.718468 27091 net.cpp:129] Top shape: 32 832 7 7 (1304576)
I1130 08:17:07.718472 27091 net.cpp:129] Top shape: 32 832 7 7 (1304576)
I1130 08:17:07.718477 27091 net.cpp:137] Memory required for data: 1692737664
I1130 08:17:07.718482 27091 layer_factory.hpp:77] Creating layer inception_5a/1x1
I1130 08:17:07.718492 27091 net.cpp:84] Creating Layer inception_5a/1x1
I1130 08:17:07.718497 27091 net.cpp:406] inception_5a/1x1 <- pool4/3x3_s2_pool4/3x3_s2_0_split_0
I1130 08:17:07.718504 27091 net.cpp:380] inception_5a/1x1 -> inception_5a/1x1
I1130 08:17:07.720217 27091 net.cpp:122] Setting up inception_5a/1x1
I1130 08:17:07.720228 27091 net.cpp:129] Top shape: 32 256 7 7 (401408)
I1130 08:17:07.720233 27091 net.cpp:137] Memory required for data: 1694343296
I1130 08:17:07.720242 27091 layer_factory.hpp:77] Creating layer inception_5a/relu_1x1
I1130 08:17:07.720248 27091 net.cpp:84] Creating Layer inception_5a/relu_1x1
I1130 08:17:07.720253 27091 net.cpp:406] inception_5a/relu_1x1 <- inception_5a/1x1
I1130 08:17:07.720260 27091 net.cpp:367] inception_5a/relu_1x1 -> inception_5a/1x1 (in-place)
I1130 08:17:07.720268 27091 net.cpp:122] Setting up inception_5a/relu_1x1
I1130 08:17:07.720274 27091 net.cpp:129] Top shape: 32 256 7 7 (401408)
I1130 08:17:07.720278 27091 net.cpp:137] Memory required for data: 1695948928
I1130 08:17:07.720283 27091 layer_factory.hpp:77] Creating layer inception_5a/3x3_reduce
I1130 08:17:07.720293 27091 net.cpp:84] Creating Layer inception_5a/3x3_reduce
I1130 08:17:07.720300 27091 net.cpp:406] inception_5a/3x3_reduce <- pool4/3x3_s2_pool4/3x3_s2_0_split_1
I1130 08:17:07.720309 27091 net.cpp:380] inception_5a/3x3_reduce -> inception_5a/3x3_reduce
I1130 08:17:07.721591 27091 net.cpp:122] Setting up inception_5a/3x3_reduce
I1130 08:17:07.721601 27091 net.cpp:129] Top shape: 32 160 7 7 (250880)
I1130 08:17:07.721606 27091 net.cpp:137] Memory required for data: 1696952448
I1130 08:17:07.721613 27091 layer_factory.hpp:77] Creating layer inception_5a/relu_3x3_reduce
I1130 08:17:07.721621 27091 net.cpp:84] Creating Layer inception_5a/relu_3x3_reduce
I1130 08:17:07.721626 27091 net.cpp:406] inception_5a/relu_3x3_reduce <- inception_5a/3x3_reduce
I1130 08:17:07.721632 27091 net.cpp:367] inception_5a/relu_3x3_reduce -> inception_5a/3x3_reduce (in-place)
I1130 08:17:07.721640 27091 net.cpp:122] Setting up inception_5a/relu_3x3_reduce
I1130 08:17:07.721647 27091 net.cpp:129] Top shape: 32 160 7 7 (250880)
I1130 08:17:07.721650 27091 net.cpp:137] Memory required for data: 1697955968
I1130 08:17:07.721654 27091 layer_factory.hpp:77] Creating layer inception_5a/3x3
I1130 08:17:07.721664 27091 net.cpp:84] Creating Layer inception_5a/3x3
I1130 08:17:07.721669 27091 net.cpp:406] inception_5a/3x3 <- inception_5a/3x3_reduce
I1130 08:17:07.721676 27091 net.cpp:380] inception_5a/3x3 -> inception_5a/3x3
I1130 08:17:07.724918 27091 net.cpp:122] Setting up inception_5a/3x3
I1130 08:17:07.724936 27091 net.cpp:129] Top shape: 32 320 7 7 (501760)
I1130 08:17:07.724941 27091 net.cpp:137] Memory required for data: 1699963008
I1130 08:17:07.724948 27091 layer_factory.hpp:77] Creating layer inception_5a/relu_3x3
I1130 08:17:07.724958 27091 net.cpp:84] Creating Layer inception_5a/relu_3x3
I1130 08:17:07.724966 27091 net.cpp:406] inception_5a/relu_3x3 <- inception_5a/3x3
I1130 08:17:07.724973 27091 net.cpp:367] inception_5a/relu_3x3 -> inception_5a/3x3 (in-place)
I1130 08:17:07.724982 27091 net.cpp:122] Setting up inception_5a/relu_3x3
I1130 08:17:07.724987 27091 net.cpp:129] Top shape: 32 320 7 7 (501760)
I1130 08:17:07.724992 27091 net.cpp:137] Memory required for data: 1701970048
I1130 08:17:07.724997 27091 layer_factory.hpp:77] Creating layer inception_5a/5x5_reduce
I1130 08:17:07.725008 27091 net.cpp:84] Creating Layer inception_5a/5x5_reduce
I1130 08:17:07.725013 27091 net.cpp:406] inception_5a/5x5_reduce <- pool4/3x3_s2_pool4/3x3_s2_0_split_2
I1130 08:17:07.725023 27091 net.cpp:380] inception_5a/5x5_reduce -> inception_5a/5x5_reduce
I1130 08:17:07.725363 27091 net.cpp:122] Setting up inception_5a/5x5_reduce
I1130 08:17:07.725373 27091 net.cpp:129] Top shape: 32 32 7 7 (50176)
I1130 08:17:07.725378 27091 net.cpp:137] Memory required for data: 1702170752
I1130 08:17:07.725384 27091 layer_factory.hpp:77] Creating layer inception_5a/relu_5x5_reduce
I1130 08:17:07.725394 27091 net.cpp:84] Creating Layer inception_5a/relu_5x5_reduce
I1130 08:17:07.725399 27091 net.cpp:406] inception_5a/relu_5x5_reduce <- inception_5a/5x5_reduce
I1130 08:17:07.725404 27091 net.cpp:367] inception_5a/relu_5x5_reduce -> inception_5a/5x5_reduce (in-place)
I1130 08:17:07.725411 27091 net.cpp:122] Setting up inception_5a/relu_5x5_reduce
I1130 08:17:07.725417 27091 net.cpp:129] Top shape: 32 32 7 7 (50176)
I1130 08:17:07.725423 27091 net.cpp:137] Memory required for data: 1702371456
I1130 08:17:07.725427 27091 layer_factory.hpp:77] Creating layer inception_5a/5x5
I1130 08:17:07.725437 27091 net.cpp:84] Creating Layer inception_5a/5x5
I1130 08:17:07.725442 27091 net.cpp:406] inception_5a/5x5 <- inception_5a/5x5_reduce
I1130 08:17:07.725450 27091 net.cpp:380] inception_5a/5x5 -> inception_5a/5x5
I1130 08:17:07.726188 27091 net.cpp:122] Setting up inception_5a/5x5
I1130 08:17:07.726197 27091 net.cpp:129] Top shape: 32 128 7 7 (200704)
I1130 08:17:07.726202 27091 net.cpp:137] Memory required for data: 1703174272
I1130 08:17:07.726208 27091 layer_factory.hpp:77] Creating layer inception_5a/relu_5x5
I1130 08:17:07.726227 27091 net.cpp:84] Creating Layer inception_5a/relu_5x5
I1130 08:17:07.726233 27091 net.cpp:406] inception_5a/relu_5x5 <- inception_5a/5x5
I1130 08:17:07.726239 27091 net.cpp:367] inception_5a/relu_5x5 -> inception_5a/5x5 (in-place)
I1130 08:17:07.726246 27091 net.cpp:122] Setting up inception_5a/relu_5x5
I1130 08:17:07.726253 27091 net.cpp:129] Top shape: 32 128 7 7 (200704)
I1130 08:17:07.726256 27091 net.cpp:137] Memory required for data: 1703977088
I1130 08:17:07.726263 27091 layer_factory.hpp:77] Creating layer inception_5a/pool
I1130 08:17:07.726270 27091 net.cpp:84] Creating Layer inception_5a/pool
I1130 08:17:07.726275 27091 net.cpp:406] inception_5a/pool <- pool4/3x3_s2_pool4/3x3_s2_0_split_3
I1130 08:17:07.726281 27091 net.cpp:380] inception_5a/pool -> inception_5a/pool
I1130 08:17:07.726317 27091 net.cpp:122] Setting up inception_5a/pool
I1130 08:17:07.726325 27091 net.cpp:129] Top shape: 32 832 7 7 (1304576)
I1130 08:17:07.726330 27091 net.cpp:137] Memory required for data: 1709195392
I1130 08:17:07.726335 27091 layer_factory.hpp:77] Creating layer inception_5a/pool_proj
I1130 08:17:07.726344 27091 net.cpp:84] Creating Layer inception_5a/pool_proj
I1130 08:17:07.726349 27091 net.cpp:406] inception_5a/pool_proj <- inception_5a/pool
I1130 08:17:07.726356 27091 net.cpp:380] inception_5a/pool_proj -> inception_5a/pool_proj
I1130 08:17:07.727509 27091 net.cpp:122] Setting up inception_5a/pool_proj
I1130 08:17:07.727519 27091 net.cpp:129] Top shape: 32 128 7 7 (200704)
I1130 08:17:07.727524 27091 net.cpp:137] Memory required for data: 1709998208
I1130 08:17:07.727530 27091 layer_factory.hpp:77] Creating layer inception_5a/relu_pool_proj
I1130 08:17:07.727537 27091 net.cpp:84] Creating Layer inception_5a/relu_pool_proj
I1130 08:17:07.727545 27091 net.cpp:406] inception_5a/relu_pool_proj <- inception_5a/pool_proj
I1130 08:17:07.727551 27091 net.cpp:367] inception_5a/relu_pool_proj -> inception_5a/pool_proj (in-place)
I1130 08:17:07.727560 27091 net.cpp:122] Setting up inception_5a/relu_pool_proj
I1130 08:17:07.727566 27091 net.cpp:129] Top shape: 32 128 7 7 (200704)
I1130 08:17:07.727571 27091 net.cpp:137] Memory required for data: 1710801024
I1130 08:17:07.727576 27091 layer_factory.hpp:77] Creating layer inception_5a/output
I1130 08:17:07.727583 27091 net.cpp:84] Creating Layer inception_5a/output
I1130 08:17:07.727587 27091 net.cpp:406] inception_5a/output <- inception_5a/1x1
I1130 08:17:07.727593 27091 net.cpp:406] inception_5a/output <- inception_5a/3x3
I1130 08:17:07.727598 27091 net.cpp:406] inception_5a/output <- inception_5a/5x5
I1130 08:17:07.727603 27091 net.cpp:406] inception_5a/output <- inception_5a/pool_proj
I1130 08:17:07.727609 27091 net.cpp:380] inception_5a/output -> inception_5a/output
I1130 08:17:07.727636 27091 net.cpp:122] Setting up inception_5a/output
I1130 08:17:07.727644 27091 net.cpp:129] Top shape: 32 832 7 7 (1304576)
I1130 08:17:07.727648 27091 net.cpp:137] Memory required for data: 1716019328
I1130 08:17:07.727653 27091 layer_factory.hpp:77] Creating layer inception_5a/output_inception_5a/output_0_split
I1130 08:17:07.727660 27091 net.cpp:84] Creating Layer inception_5a/output_inception_5a/output_0_split
I1130 08:17:07.727666 27091 net.cpp:406] inception_5a/output_inception_5a/output_0_split <- inception_5a/output
I1130 08:17:07.727674 27091 net.cpp:380] inception_5a/output_inception_5a/output_0_split -> inception_5a/output_inception_5a/output_0_split_0
I1130 08:17:07.727680 27091 net.cpp:380] inception_5a/output_inception_5a/output_0_split -> inception_5a/output_inception_5a/output_0_split_1
I1130 08:17:07.727689 27091 net.cpp:380] inception_5a/output_inception_5a/output_0_split -> inception_5a/output_inception_5a/output_0_split_2
I1130 08:17:07.727695 27091 net.cpp:380] inception_5a/output_inception_5a/output_0_split -> inception_5a/output_inception_5a/output_0_split_3
I1130 08:17:07.727746 27091 net.cpp:122] Setting up inception_5a/output_inception_5a/output_0_split
I1130 08:17:07.727753 27091 net.cpp:129] Top shape: 32 832 7 7 (1304576)
I1130 08:17:07.727758 27091 net.cpp:129] Top shape: 32 832 7 7 (1304576)
I1130 08:17:07.727764 27091 net.cpp:129] Top shape: 32 832 7 7 (1304576)
I1130 08:17:07.727769 27091 net.cpp:129] Top shape: 32 832 7 7 (1304576)
I1130 08:17:07.727774 27091 net.cpp:137] Memory required for data: 1736892544
I1130 08:17:07.727778 27091 layer_factory.hpp:77] Creating layer inception_5b/1x1
I1130 08:17:07.727787 27091 net.cpp:84] Creating Layer inception_5b/1x1
I1130 08:17:07.727792 27091 net.cpp:406] inception_5b/1x1 <- inception_5a/output_inception_5a/output_0_split_0
I1130 08:17:07.727799 27091 net.cpp:380] inception_5b/1x1 -> inception_5b/1x1
I1130 08:17:07.730085 27091 net.cpp:122] Setting up inception_5b/1x1
I1130 08:17:07.730096 27091 net.cpp:129] Top shape: 32 384 7 7 (602112)
I1130 08:17:07.730101 27091 net.cpp:137] Memory required for data: 1739300992
I1130 08:17:07.730109 27091 layer_factory.hpp:77] Creating layer inception_5b/relu_1x1
I1130 08:17:07.730119 27091 net.cpp:84] Creating Layer inception_5b/relu_1x1
I1130 08:17:07.730124 27091 net.cpp:406] inception_5b/relu_1x1 <- inception_5b/1x1
I1130 08:17:07.730132 27091 net.cpp:367] inception_5b/relu_1x1 -> inception_5b/1x1 (in-place)
I1130 08:17:07.730140 27091 net.cpp:122] Setting up inception_5b/relu_1x1
I1130 08:17:07.730146 27091 net.cpp:129] Top shape: 32 384 7 7 (602112)
I1130 08:17:07.730150 27091 net.cpp:137] Memory required for data: 1741709440
I1130 08:17:07.730154 27091 layer_factory.hpp:77] Creating layer inception_5b/3x3_reduce
I1130 08:17:07.730165 27091 net.cpp:84] Creating Layer inception_5b/3x3_reduce
I1130 08:17:07.730170 27091 net.cpp:406] inception_5b/3x3_reduce <- inception_5a/output_inception_5a/output_0_split_1
I1130 08:17:07.730177 27091 net.cpp:380] inception_5b/3x3_reduce -> inception_5b/3x3_reduce
I1130 08:17:07.731552 27091 net.cpp:122] Setting up inception_5b/3x3_reduce
I1130 08:17:07.731564 27091 net.cpp:129] Top shape: 32 192 7 7 (301056)
I1130 08:17:07.731570 27091 net.cpp:137] Memory required for data: 1742913664
I1130 08:17:07.731578 27091 layer_factory.hpp:77] Creating layer inception_5b/relu_3x3_reduce
I1130 08:17:07.731585 27091 net.cpp:84] Creating Layer inception_5b/relu_3x3_reduce
I1130 08:17:07.731590 27091 net.cpp:406] inception_5b/relu_3x3_reduce <- inception_5b/3x3_reduce
I1130 08:17:07.731596 27091 net.cpp:367] inception_5b/relu_3x3_reduce -> inception_5b/3x3_reduce (in-place)
I1130 08:17:07.731603 27091 net.cpp:122] Setting up inception_5b/relu_3x3_reduce
I1130 08:17:07.731609 27091 net.cpp:129] Top shape: 32 192 7 7 (301056)
I1130 08:17:07.731613 27091 net.cpp:137] Memory required for data: 1744117888
I1130 08:17:07.731618 27091 layer_factory.hpp:77] Creating layer inception_5b/3x3
I1130 08:17:07.731627 27091 net.cpp:84] Creating Layer inception_5b/3x3
I1130 08:17:07.731633 27091 net.cpp:406] inception_5b/3x3 <- inception_5b/3x3_reduce
I1130 08:17:07.731640 27091 net.cpp:380] inception_5b/3x3 -> inception_5b/3x3
I1130 08:17:07.736075 27091 net.cpp:122] Setting up inception_5b/3x3
I1130 08:17:07.736090 27091 net.cpp:129] Top shape: 32 384 7 7 (602112)
I1130 08:17:07.736094 27091 net.cpp:137] Memory required for data: 1746526336
I1130 08:17:07.736104 27091 layer_factory.hpp:77] Creating layer inception_5b/relu_3x3
I1130 08:17:07.736111 27091 net.cpp:84] Creating Layer inception_5b/relu_3x3
I1130 08:17:07.736117 27091 net.cpp:406] inception_5b/relu_3x3 <- inception_5b/3x3
I1130 08:17:07.736126 27091 net.cpp:367] inception_5b/relu_3x3 -> inception_5b/3x3 (in-place)
I1130 08:17:07.736135 27091 net.cpp:122] Setting up inception_5b/relu_3x3
I1130 08:17:07.736141 27091 net.cpp:129] Top shape: 32 384 7 7 (602112)
I1130 08:17:07.736145 27091 net.cpp:137] Memory required for data: 1748934784
I1130 08:17:07.736150 27091 layer_factory.hpp:77] Creating layer inception_5b/5x5_reduce
I1130 08:17:07.736157 27091 net.cpp:84] Creating Layer inception_5b/5x5_reduce
I1130 08:17:07.736162 27091 net.cpp:406] inception_5b/5x5_reduce <- inception_5a/output_inception_5a/output_0_split_2
I1130 08:17:07.736169 27091 net.cpp:380] inception_5b/5x5_reduce -> inception_5b/5x5_reduce
I1130 08:17:07.736598 27091 net.cpp:122] Setting up inception_5b/5x5_reduce
I1130 08:17:07.736606 27091 net.cpp:129] Top shape: 32 48 7 7 (75264)
I1130 08:17:07.736610 27091 net.cpp:137] Memory required for data: 1749235840
I1130 08:17:07.736618 27091 layer_factory.hpp:77] Creating layer inception_5b/relu_5x5_reduce
I1130 08:17:07.736624 27091 net.cpp:84] Creating Layer inception_5b/relu_5x5_reduce
I1130 08:17:07.736629 27091 net.cpp:406] inception_5b/relu_5x5_reduce <- inception_5b/5x5_reduce
I1130 08:17:07.736636 27091 net.cpp:367] inception_5b/relu_5x5_reduce -> inception_5b/5x5_reduce (in-place)
I1130 08:17:07.736644 27091 net.cpp:122] Setting up inception_5b/relu_5x5_reduce
I1130 08:17:07.736649 27091 net.cpp:129] Top shape: 32 48 7 7 (75264)
I1130 08:17:07.736654 27091 net.cpp:137] Memory required for data: 1749536896
I1130 08:17:07.736659 27091 layer_factory.hpp:77] Creating layer inception_5b/5x5
I1130 08:17:07.736668 27091 net.cpp:84] Creating Layer inception_5b/5x5
I1130 08:17:07.736673 27091 net.cpp:406] inception_5b/5x5 <- inception_5b/5x5_reduce
I1130 08:17:07.736680 27091 net.cpp:380] inception_5b/5x5 -> inception_5b/5x5
I1130 08:17:07.737711 27091 net.cpp:122] Setting up inception_5b/5x5
I1130 08:17:07.737720 27091 net.cpp:129] Top shape: 32 128 7 7 (200704)
I1130 08:17:07.737725 27091 net.cpp:137] Memory required for data: 1750339712
I1130 08:17:07.737730 27091 layer_factory.hpp:77] Creating layer inception_5b/relu_5x5
I1130 08:17:07.737738 27091 net.cpp:84] Creating Layer inception_5b/relu_5x5
I1130 08:17:07.737745 27091 net.cpp:406] inception_5b/relu_5x5 <- inception_5b/5x5
I1130 08:17:07.737751 27091 net.cpp:367] inception_5b/relu_5x5 -> inception_5b/5x5 (in-place)
I1130 08:17:07.737757 27091 net.cpp:122] Setting up inception_5b/relu_5x5
I1130 08:17:07.737763 27091 net.cpp:129] Top shape: 32 128 7 7 (200704)
I1130 08:17:07.737767 27091 net.cpp:137] Memory required for data: 1751142528
I1130 08:17:07.737771 27091 layer_factory.hpp:77] Creating layer inception_5b/pool
I1130 08:17:07.737782 27091 net.cpp:84] Creating Layer inception_5b/pool
I1130 08:17:07.737787 27091 net.cpp:406] inception_5b/pool <- inception_5a/output_inception_5a/output_0_split_3
I1130 08:17:07.737794 27091 net.cpp:380] inception_5b/pool -> inception_5b/pool
I1130 08:17:07.737833 27091 net.cpp:122] Setting up inception_5b/pool
I1130 08:17:07.737840 27091 net.cpp:129] Top shape: 32 832 7 7 (1304576)
I1130 08:17:07.737845 27091 net.cpp:137] Memory required for data: 1756360832
I1130 08:17:07.737850 27091 layer_factory.hpp:77] Creating layer inception_5b/pool_proj
I1130 08:17:07.737860 27091 net.cpp:84] Creating Layer inception_5b/pool_proj
I1130 08:17:07.737866 27091 net.cpp:406] inception_5b/pool_proj <- inception_5b/pool
I1130 08:17:07.737874 27091 net.cpp:380] inception_5b/pool_proj -> inception_5b/pool_proj
I1130 08:17:07.739014 27091 net.cpp:122] Setting up inception_5b/pool_proj
I1130 08:17:07.739025 27091 net.cpp:129] Top shape: 32 128 7 7 (200704)
I1130 08:17:07.739030 27091 net.cpp:137] Memory required for data: 1757163648
I1130 08:17:07.739037 27091 layer_factory.hpp:77] Creating layer inception_5b/relu_pool_proj
I1130 08:17:07.739044 27091 net.cpp:84] Creating Layer inception_5b/relu_pool_proj
I1130 08:17:07.739050 27091 net.cpp:406] inception_5b/relu_pool_proj <- inception_5b/pool_proj
I1130 08:17:07.739058 27091 net.cpp:367] inception_5b/relu_pool_proj -> inception_5b/pool_proj (in-place)
I1130 08:17:07.739066 27091 net.cpp:122] Setting up inception_5b/relu_pool_proj
I1130 08:17:07.739073 27091 net.cpp:129] Top shape: 32 128 7 7 (200704)
I1130 08:17:07.739076 27091 net.cpp:137] Memory required for data: 1757966464
I1130 08:17:07.739080 27091 layer_factory.hpp:77] Creating layer inception_5b/output
I1130 08:17:07.739087 27091 net.cpp:84] Creating Layer inception_5b/output
I1130 08:17:07.739092 27091 net.cpp:406] inception_5b/output <- inception_5b/1x1
I1130 08:17:07.739097 27091 net.cpp:406] inception_5b/output <- inception_5b/3x3
I1130 08:17:07.739104 27091 net.cpp:406] inception_5b/output <- inception_5b/5x5
I1130 08:17:07.739107 27091 net.cpp:406] inception_5b/output <- inception_5b/pool_proj
I1130 08:17:07.739114 27091 net.cpp:380] inception_5b/output -> inception_5b/output
I1130 08:17:07.739140 27091 net.cpp:122] Setting up inception_5b/output
I1130 08:17:07.739147 27091 net.cpp:129] Top shape: 32 1024 7 7 (1605632)
I1130 08:17:07.739151 27091 net.cpp:137] Memory required for data: 1764388992
I1130 08:17:07.739156 27091 layer_factory.hpp:77] Creating layer pool5/7x7_s1
I1130 08:17:07.739163 27091 net.cpp:84] Creating Layer pool5/7x7_s1
I1130 08:17:07.739169 27091 net.cpp:406] pool5/7x7_s1 <- inception_5b/output
I1130 08:17:07.739176 27091 net.cpp:380] pool5/7x7_s1 -> pool5/7x7_s1
I1130 08:17:07.739199 27091 net.cpp:122] Setting up pool5/7x7_s1
I1130 08:17:07.739207 27091 net.cpp:129] Top shape: 32 1024 1 1 (32768)
I1130 08:17:07.739212 27091 net.cpp:137] Memory required for data: 1764520064
I1130 08:17:07.739215 27091 layer_factory.hpp:77] Creating layer pool5/drop_7x7_s1
I1130 08:17:07.739226 27091 net.cpp:84] Creating Layer pool5/drop_7x7_s1
I1130 08:17:07.739231 27091 net.cpp:406] pool5/drop_7x7_s1 <- pool5/7x7_s1
I1130 08:17:07.739238 27091 net.cpp:367] pool5/drop_7x7_s1 -> pool5/7x7_s1 (in-place)
I1130 08:17:07.739262 27091 net.cpp:122] Setting up pool5/drop_7x7_s1
I1130 08:17:07.739270 27091 net.cpp:129] Top shape: 32 1024 1 1 (32768)
I1130 08:17:07.739275 27091 net.cpp:137] Memory required for data: 1764651136
I1130 08:17:07.739279 27091 layer_factory.hpp:77] Creating layer fc_scv_pleasant
I1130 08:17:07.739289 27091 net.cpp:84] Creating Layer fc_scv_pleasant
I1130 08:17:07.739295 27091 net.cpp:406] fc_scv_pleasant <- pool5/7x7_s1
I1130 08:17:07.739301 27091 net.cpp:380] fc_scv_pleasant -> fc_scv_pleasant
I1130 08:17:07.739398 27091 net.cpp:122] Setting up fc_scv_pleasant
I1130 08:17:07.739405 27091 net.cpp:129] Top shape: 32 1 (32)
I1130 08:17:07.739410 27091 net.cpp:137] Memory required for data: 1764651264
I1130 08:17:07.739418 27091 layer_factory.hpp:77] Creating layer loss
I1130 08:17:07.739425 27091 net.cpp:84] Creating Layer loss
I1130 08:17:07.739430 27091 net.cpp:406] loss <- fc_scv_pleasant
I1130 08:17:07.739435 27091 net.cpp:406] loss <- label
I1130 08:17:07.739444 27091 net.cpp:380] loss -> loss
I1130 08:17:07.739485 27091 net.cpp:122] Setting up loss
…
I1130 08:17:07.750495 27091 net.cpp:294] The NetState phase (1) differed from the phase (0) specified by a rule in layer data
I1130 08:17:07.751262 27091 net.cpp:51] Initializing net from parameters: 
name: "GoogleNet-Places365-SCV-Pleasant"
state {
  phase: TEST
}
layer {
  name: "data"
  type: "Data"
  top: "data"
  top: "label"
  include {
    phase: TEST
  }
  transform_param {
    mirror: false
    crop_size: 224
    mean_file: "/idiap/temp/lmedina/fine-tuning/googlenet_places365/places365CNN_mean.binaryproto"
  }
  data_param {
    source: "/idiap/temp/lmedina/fine-tuning/data/Pleasant/validation_lmdb"
    batch_size: 32
    backend: LMDB
  }
}
layer {
  name: "conv1/7x7_s2"
  type: "Convolution"
  bottom: "data"
  top: "conv1/7x7_s2"
  param {
    lr_mult: 1
    decay_mult: 1
  }
  param {
    lr_mult: 2
    decay_mult: 0
  }
  convolution_param {
    num_output: 64
    pad: 3
    kernel_size: 7
    stride: 2
    weight_filler {
      type: "xavier"
      std: 0.1
    }
    bias_filler {
      type: "constant"
      value: 0.2
    }
  }
}
layer {
  name: "conv1/relu_7x7"
  type: "ReLU"
  bottom: "conv1/7x7_s2"
  top: "conv1/7x7_s2"
}
layer {
  name: "pool1/3x3_s2"
  type: "Pooling"
  bottom: "conv1/7x7_s2"
  top: "pool1/3x3_s2"
  pooling_param {
    pool: MAX
    kernel_size: 3
    stride: 2
  }
}
layer {
  name: "pool1/norm1"
  type: "LRN"
  bottom: "pool1/3x3_s2"
  top: "pool1/norm1"
  lrn_param {
    local_size: 5
    alpha: 0.0001
    beta: 0.75
  }
}
layer {
  name: "conv2/3x3_reduce"
  type: "Convolution"
  bottom: "pool1/norm1"
  top: "conv2/3x3_reduce"
  param {
    lr_mult: 1
    decay_mult: 1
  }
  param {
    lr_mult: 2
    decay_mult: 0
  }
  convolution_param {
    num_output: 64
    kernel_size: 1
    weight_filler {
      type: "xavier"
      std: 0.1
    }
    bias_filler {
      type: "constant"
      value: 0.2
    }
  }
}
layer {
  name: "conv2/relu_3x3_reduce"
  type: "ReLU"
  bottom: "conv2/3x3_reduce"
  top: "conv2/3x3_reduce"
}
layer {
  name: "conv2/3x3"
  type: "Convolution"
  bottom: "conv2/3x3_reduce"
  top: "conv2/3x3"
  param {
    lr_mult: 1
    decay_mult: 1
  }
  param {
    lr_mult: 2
    decay_mult: 0
  }
  convolution_param {
    num_output: 192
    pad: 1
    kernel_size: 3
    weight_filler {
      type: "xavier"
      std: 0.03
    }
    bias_filler {
      type: "constant"
      value: 0.2
    }
  }
}
layer {
  name: "conv2/relu_3x3"
  type: "ReLU"
  bottom: "conv2/3x3"
  top: "conv2/3x3"
}
layer {
  name: "conv2/norm2"
  type: "LRN"
  bottom: "conv2/3x3"
  top: "conv2/norm2"
  lrn_param {
    local_size: 5
    alpha: 0.0001
    beta: 0.75
  }
}
layer {
  name: "pool2/3x3_s2"
  type: "Pooling"
  bottom: "conv2/norm2"
  top: "pool2/3x3_s2"
  pooling_param {
    pool: MAX
    kernel_size: 3
    stride: 2
  }
}
layer {
  name: "inception_3a/1x1"
  type: "Convolution"
  bottom: "pool2/3x3_s2"
  top: "inception_3a/1x1"
  param {
    lr_mult: 1
    decay_mult: 1
  }
  param {
    lr_mult: 2
    decay_mult: 0
  }
  convolution_param {
    num_output: 64
    kernel_size: 1
    weight_filler {
      type: "xavier"
      std: 0.03
    }
    bias_filler {
      type: "constant"
      value: 0.2
    }
  }
}
layer {
  name: "inception_3a/relu_1x1"
  type: "ReLU"
  bottom: "inception_3a/1x1"
  top: "inception_3a/1x1"
}
layer {
  name: "inception_3a/3x3_reduce"
  type: "Convolution"
  bottom: "pool2/3x3_s2"
  top: "inception_3a/3x3_reduce"
  param {
    lr_mult: 1
    decay_mult: 1
  }
  param {
    lr_mult: 2
    decay_mult: 0
  }
  convolution_param {
    num_output: 96
    kernel_size: 1
    weight_filler {
      type: "xavier"
      std: 0.09
    }
    bias_filler {
      type: "constant"
      value: 0.2
    }
  }
}
layer {
  name: "inception_3a/relu_3x3_reduce"
  type: "ReLU"
  bottom: "inception_3a/3x3_reduce"
  top: "inception_3a/3x3_reduce"
}
layer {
  name: "inception_3a/3x3"
  type: "Convolution"
  bottom: "inception_3a/3x3_reduce"
  top: "inception_3a/3x3"
  param {
    lr_mult: 1
    decay_mult: 1
  }
  param {
    lr_mult: 2
    decay_mult: 0
  }
  convolution_param {
    num_output: 128
    pad: 1
    kernel_size: 3
    weight_filler {
      type: "xavier"
      std: 0.03
    }
    bias_filler {
      type: "constant"
      value: 0.2
    }
  }
}
layer {
  name: "inception_3a/relu_3x3"
  type: "ReLU"
  bottom: "inception_3a/3x3"
  top: "inception_3a/3x3"
}
layer {
  name: "inception_3a/5x5_reduce"
  type: "Convolution"
  bottom: "pool2/3x3_s2"
  top: "inception_3a/5x5_reduce"
  param {
    lr_mult: 1
    decay_mult: 1
  }
  param {
    lr_mult: 2
    decay_mult: 0
  }
  convolution_param {
    num_output: 16
    kernel_size: 1
    weight_filler {
      type: "xavier"
      std: 0.2
    }
    bias_filler {
      type: "constant"
      value: 0.2
    }
  }
}
layer {
  name: "inception_3a/relu_5x5_reduce"
  type: "ReLU"
  bottom: "inception_3a/5x5_reduce"
  top: "inception_3a/5x5_reduce"
}
layer {
  name: "inception_3a/5x5"
  type: "Convolution"
  bottom: "inception_3a/5x5_reduce"
  top: "inception_3a/5x5"
  param {
    lr_mult: 1
    decay_mult: 1
  }
  param {
    lr_mult: 2
    decay_mult: 0
  }
  convolution_param {
    num_output: 32
    pad: 2
    kernel_size: 5
    weight_filler {
      type: "xavier"
      std: 0.03
    }
    bias_filler {
      type: "constant"
      value: 0.2
    }
  }
}
layer {
  name: "inception_3a/relu_5x5"
  type: "ReLU"
  bottom: "inception_3a/5x5"
  top: "inception_3a/5x5"
}
layer {
  name: "inception_3a/pool"
  type: "Pooling"
  bottom: "pool2/3x3_s2"
  top: "inception_3a/pool"
  pooling_param {
    pool: MAX
    kernel_size: 3
    stride: 1
    pad: 1
  }
}
layer {
  name: "inception_3a/pool_proj"
  type: "Convolution"
  bottom: "inception_3a/pool"
  top: "inception_3a/pool_proj"
  param {
    lr_mult: 1
    decay_mult: 1
  }
  param {
    lr_mult: 2
    decay_mult: 0
  }
  convolution_param {
    num_output: 32
    kernel_size: 1
    weight_filler {
      type: "xavier"
      std: 0.1
    }
    bias_filler {
      type: "constant"
      value: 0.2
    }
  }
}
layer {
  name: "inception_3a/relu_pool_proj"
  type: "ReLU"
  bottom: "inception_3a/pool_proj"
  top: "inception_3a/pool_proj"
}
layer {
  name: "inception_3a/output"
  type: "Concat"
  bottom: "inception_3a/1x1"
  bottom: "inception_3a/3x3"
  bottom: "inception_3a/5x5"
  bottom: "inception_3a/pool_proj"
  top: "inception_3a/output"
}
layer {
  name: "inception_3b/1x1"
  type: "Convolution"
  bottom: "inception_3a/output"
  top: "inception_3b/1x1"
  param {
    lr_mult: 1
    decay_mult: 1
  }
  param {
    lr_mult: 2
    decay_mult: 0
  }
  convolution_param {
    num_output: 128
    kernel_size: 1
    weight_filler {
      type: "xavier"
      std: 0.03
    }
    bias_filler {
      type: "constant"
      value: 0.2
    }
  }
}
layer {
  name: "inception_3b/relu_1x1"
  type: "ReLU"
  bottom: "inception_3b/1x1"
  top: "inception_3b/1x1"
}
layer {
  name: "inception_3b/3x3_reduce"
  type: "Convolution"
  bottom: "inception_3a/output"
  top: "inception_3b/3x3_reduce"
  param {
    lr_mult: 1
    decay_mult: 1
  }
  param {
    lr_mult: 2
    decay_mult: 0
  }
  convolution_param {
    num_output: 128
    kernel_size: 1
    weight_filler {
      type: "xavier"
      std: 0.09
    }
    bias_filler {
      type: "constant"
      value: 0.2
    }
  }
}
layer {
  name: "inception_3b/relu_3x3_reduce"
  type: "ReLU"
  bottom: "inception_3b/3x3_reduce"
  top: "inception_3b/3x3_reduce"
}
layer {
  name: "inception_3b/3x3"
  type: "Convolution"
  bottom: "inception_3b/3x3_reduce"
  top: "inception_3b/3x3"
  param {
    lr_mult: 1
    decay_mult: 1
  }
  param {
    lr_mult: 2
    decay_mult: 0
  }
  convolution_param {
    num_output: 192
    pad: 1
    kernel_size: 3
    weight_filler {
      type: "xavier"
      std: 0.03
    }
    bias_filler {
      type: "constant"
      value: 0.2
    }
  }
}
layer {
  name: "inception_3b/relu_3x3"
  type: "ReLU"
  bottom: "inception_3b/3x3"
  top: "inception_3b/3x3"
}
layer {
  name: "inception_3b/5x5_reduce"
  type: "Convolution"
  bottom: "inception_3a/output"
  top: "inception_3b/5x5_reduce"
  param {
    lr_mult: 1
    decay_mult: 1
  }
  param {
    lr_mult: 2
    decay_mult: 0
  }
  convolution_param {
    num_output: 32
    kernel_size: 1
    weight_filler {
      type: "xavier"
      std: 0.2
    }
    bias_filler {
      type: "constant"
      value: 0.2
    }
  }
}
layer {
  name: "inception_3b/relu_5x5_reduce"
  type: "ReLU"
  bottom: "inception_3b/5x5_reduce"
  top: "inception_3b/5x5_reduce"
}
layer {
  name: "inception_3b/5x5"
  type: "Convolution"
  bottom: "inception_3b/5x5_reduce"
  top: "inception_3b/5x5"
  param {
    lr_mult: 1
    decay_mult: 1
  }
  param {
    lr_mult: 2
    decay_mult: 0
  }
  convolution_param {
    num_output: 96
    pad: 2
    kernel_size: 5
    weight_filler {
      type: "xavier"
      std: 0.03
    }
    bias_filler {
      type: "constant"
      value: 0.2
    }
  }
}
layer {
  name: "inception_3b/relu_5x5"
  type: "ReLU"
  bottom: "inception_3b/5x5"
  top: "inception_3b/5x5"
}
layer {
  name: "inception_3b/pool"
  type: "Pooling"
  bottom: "inception_3a/output"
  top: "inception_3b/pool"
  pooling_param {
    pool: MAX
    kernel_size: 3
    stride: 1
    pad: 1
  }
}
layer {
  name: "inception_3b/pool_proj"
  type: "Convolution"
  bottom: "inception_3b/pool"
  top: "inception_3b/pool_proj"
  param {
    lr_mult: 1
    decay_mult: 1
  }
  param {
    lr_mult: 2
    decay_mult: 0
  }
  convolution_param {
    num_output: 64
    kernel_size: 1
    weight_filler {
      type: "xavier"
      std: 0.1
    }
    bias_filler {
      type: "constant"
      value: 0.2
    }
  }
}
layer {
  name: "inception_3b/relu_pool_proj"
  type: "ReLU"
  bottom: "inception_3b/pool_proj"
  top: "inception_3b/pool_proj"
}
layer {
  name: "inception_3b/output"
  type: "Concat"
  bottom: "inception_3b/1x1"
  bottom: "inception_3b/3x3"
  bottom: "inception_3b/5x5"
  bottom: "inception_3b/pool_proj"
  top: "inception_3b/output"
}
layer {
  name: "pool3/3x3_s2"
  type: "Pooling"
  bottom: "inception_3b/output"
  top: "pool3/3x3_s2"
  pooling_param {
    pool: MAX
    kernel_size: 3
    stride: 2
  }
}
layer {
  name: "inception_4a/1x1"
  type: "Convolution"
  bottom: "pool3/3x3_s2"
  top: "inception_4a/1x1"
  param {
    lr_mult: 1
    decay_mult: 1
  }
  param {
    lr_mult: 2
    decay_mult: 0
  }
  convolution_param {
    num_output: 192
    kernel_size: 1
    weight_filler {
      type: "xavier"
      std: 0.03
    }
    bias_filler {
      type: "constant"
      value: 0.2
    }
  }
}
layer {
  name: "inception_4a/relu_1x1"
  type: "ReLU"
  bottom: "inception_4a/1x1"
  top: "inception_4a/1x1"
}
layer {
  name: "inception_4a/3x3_reduce"
  type: "Convolution"
  bottom: "pool3/3x3_s2"
  top: "inception_4a/3x3_reduce"
  param {
    lr_mult: 1
    decay_mult: 1
  }
  param {
    lr_mult: 2
    decay_mult: 0
  }
  convolution_param {
    num_output: 96
    kernel_size: 1
    weight_filler {
      type: "xavier"
      std: 0.09
    }
    bias_filler {
      type: "constant"
      value: 0.2
    }
  }
}
layer {
  name: "inception_4a/relu_3x3_reduce"
  type: "ReLU"
  bottom: "inception_4a/3x3_reduce"
  top: "inception_4a/3x3_reduce"
}
layer {
  name: "inception_4a/3x3"
  type: "Convolution"
  bottom: "inception_4a/3x3_reduce"
  top: "inception_4a/3x3"
  param {
    lr_mult: 1
    decay_mult: 1
  }
  param {
    lr_mult: 2
    decay_mult: 0
  }
  convolution_param {
    num_output: 208
    pad: 1
    kernel_size: 3
    weight_filler {
      type: "xavier"
      std: 0.03
    }
    bias_filler {
      type: "constant"
      value: 0.2
    }
  }
}
layer {
  name: "inception_4a/relu_3x3"
  type: "ReLU"
  bottom: "inception_4a/3x3"
  top: "inception_4a/3x3"
}
layer {
  name: "inception_4a/5x5_reduce"
  type: "Convolution"
  bottom: "pool3/3x3_s2"
  top: "inception_4a/5x5_reduce"
  param {
    lr_mult: 1
    decay_mult: 1
  }
  param {
    lr_mult: 2
    decay_mult: 0
  }
  convolution_param {
    num_output: 16
    kernel_size: 1
    weight_filler {
      type: "xavier"
      std: 0.2
    }
    bias_filler {
      type: "constant"
      value: 0.2
    }
  }
}
layer {
  name: "inception_4a/relu_5x5_reduce"
  type: "ReLU"
  bottom: "inception_4a/5x5_reduce"
  top: "inception_4a/5x5_reduce"
}
layer {
  name: "inception_4a/5x5"
  type: "Convolution"
  bottom: "inception_4a/5x5_reduce"
  top: "inception_4a/5x5"
  param {
    lr_mult: 1
    decay_mult: 1
  }
  param {
    lr_mult: 2
    decay_mult: 0
  }
  convolution_param {
    num_output: 48
    pad: 2
    kernel_size: 5
    weight_filler {
      type: "xavier"
      std: 0.03
    }
    bias_filler {
      type: "constant"
      value: 0.2
    }
  }
}
layer {
  name: "inception_4a/relu_5x5"
  type: "ReLU"
  bottom: "inception_4a/5x5"
  top: "inception_4a/5x5"
}
layer {
  name: "inception_4a/pool"
  type: "Pooling"
  bottom: "pool3/3x3_s2"
  top: "inception_4a/pool"
  pooling_param {
    pool: MAX
    kernel_size: 3
    stride: 1
    pad: 1
  }
}
layer {
  name: "inception_4a/pool_proj"
  type: "Convolution"
  bottom: "inception_4a/pool"
  top: "inception_4a/pool_proj"
  param {
    lr_mult: 1
    decay_mult: 1
  }
  param {
    lr_mult: 2
    decay_mult: 0
  }
  convolution_param {
    num_output: 64
    kernel_size: 1
    weight_filler {
      type: "xavier"
      std: 0.1
    }
    bias_filler {
      type: "constant"
      value: 0.2
    }
  }
}
layer {
  name: "inception_4a/relu_pool_proj"
  type: "ReLU"
  bottom: "inception_4a/pool_proj"
  top: "inception_4a/pool_proj"
}
layer {
  name: "inception_4a/output"
  type: "Concat"
  bottom: "inception_4a/1x1"
  bottom: "inception_4a/3x3"
  bottom: "inception_4a/5x5"
  bottom: "inception_4a/pool_proj"
  top: "inception_4a/output"
}
layer {
  name: "inception_4b/1x1"
  type: "Convolution"
  bottom: "inception_4a/output"
  top: "inception_4b/1x1"
  param {
    lr_mult: 1
    decay_mult: 1
  }
  param {
    lr_mult: 2
    decay_mult: 0
  }
  convolution_param {
    num_output: 160
    kernel_size: 1
    weight_filler {
      type: "xavier"
      std: 0.03
    }
    bias_filler {
      type: "constant"
      value: 0.2
    }
  }
}
layer {
  name: "inception_4b/relu_1x1"
  type: "ReLU"
  bottom: "inception_4b/1x1"
  top: "inception_4b/1x1"
}
layer {
  name: "inception_4b/3x3_reduce"
  type: "Convolution"
  bottom: "inception_4a/output"
  top: "inception_4b/3x3_reduce"
  param {
    lr_mult: 1
    decay_mult: 1
  }
  param {
    lr_mult: 2
    decay_mult: 0
  }
  convolution_param {
    num_output: 112
    kernel_size: 1
    weight_filler {
      type: "xavier"
      std: 0.09
    }
    bias_filler {
      type: "constant"
      value: 0.2
    }
  }
}
layer {
  name: "inception_4b/relu_3x3_reduce"
  type: "ReLU"
  bottom: "inception_4b/3x3_reduce"
  top: "inception_4b/3x3_reduce"
}
layer {
  name: "inception_4b/3x3"
  type: "Convolution"
  bottom: "inception_4b/3x3_reduce"
  top: "inception_4b/3x3"
  param {
    lr_mult: 1
    decay_mult: 1
  }
  param {
    lr_mult: 2
    decay_mult: 0
  }
  convolution_param {
    num_output: 224
    pad: 1
    kernel_size: 3
    weight_filler {
      type: "xavier"
      std: 0.03
    }
    bias_filler {
      type: "constant"
      value: 0.2
    }
  }
}
layer {
  name: "inception_4b/relu_3x3"
  type: "ReLU"
  bottom: "inception_4b/3x3"
  top: "inception_4b/3x3"
}
layer {
  name: "inception_4b/5x5_reduce"
  type: "Convolution"
  bottom: "inception_4a/output"
  top: "inception_4b/5x5_reduce"
  param {
    lr_mult: 1
    decay_mult: 1
  }
  param {
    lr_mult: 2
    decay_mult: 0
  }
  convolution_param {
    num_output: 24
    kernel_size: 1
    weight_filler {
      type: "xavier"
      std: 0.2
    }
    bias_filler {
      type: "constant"
      value: 0.2
    }
  }
}
layer {
  name: "inception_4b/relu_5x5_reduce"
  type: "ReLU"
  bottom: "inception_4b/5x5_reduce"
  top: "inception_4b/5x5_reduce"
}
layer {
  name: "inception_4b/5x5"
  type: "Convolution"
  bottom: "inception_4b/5x5_reduce"
  top: "inception_4b/5x5"
  param {
    lr_mult: 1
    decay_mult: 1
  }
  param {
    lr_mult: 2
    decay_mult: 0
  }
  convolution_param {
    num_output: 64
    pad: 2
    kernel_size: 5
    weight_filler {
      type: "xavier"
      std: 0.03
    }
    bias_filler {
      type: "constant"
      value: 0.2
    }
  }
}
layer {
  name: "inception_4b/relu_5x5"
  type: "ReLU"
  bottom: "inception_4b/5x5"
  top: "inception_4b/5x5"
}
layer {
  name: "inception_4b/pool"
  type: "Pooling"
  bottom: "inception_4a/output"
  top: "inception_4b/pool"
  pooling_param {
    pool: MAX
    kernel_size: 3
    stride: 1
    pad: 1
  }
}
layer {
  name: "inception_4b/pool_proj"
  type: "Convolution"
  bottom: "inception_4b/pool"
  top: "inception_4b/pool_proj"
  param {
    lr_mult: 1
    decay_mult: 1
  }
  param {
    lr_mult: 2
    decay_mult: 0
  }
  convolution_param {
    num_output: 64
    kernel_size: 1
    weight_filler {
      type: "xavier"
      std: 0.1
    }
    bias_filler {
      type: "constant"
      value: 0.2
    }
  }
}
layer {
  name: "inception_4b/relu_pool_proj"
  type: "ReLU"
  bottom: "inception_4b/pool_proj"
  top: "inception_4b/pool_proj"
}
layer {
  name: "inception_4b/output"
  type: "Concat"
  bottom: "inception_4b/1x1"
  bottom: "inception_4b/3x3"
  bottom: "inception_4b/5x5"
  bottom: "inception_4b/pool_proj"
  top: "inception_4b/output"
}
layer {
  name: "inception_4c/1x1"
  type: "Convolution"
  bottom: "inception_4b/output"
  top: "inception_4c/1x1"
  param {
    lr_mult: 1
    decay_mult: 1
  }
  param {
    lr_mult: 2
    decay_mult: 0
  }
  convolution_param {
    num_output: 128
    kernel_size: 1
    weight_filler {
      type: "xavier"
      std: 0.03
    }
    bias_filler {
      type: "constant"
      value: 0.2
    }
  }
}
layer {
  name: "inception_4c/relu_1x1"
  type: "ReLU"
  bottom: "inception_4c/1x1"
  top: "inception_4c/1x1"
}
layer {
  name: "inception_4c/3x3_reduce"
  type: "Convolution"
  bottom: "inception_4b/output"
  top: "inception_4c/3x3_reduce"
  param {
    lr_mult: 1
    decay_mult: 1
  }
  param {
    lr_mult: 2
    decay_mult: 0
  }
  convolution_param {
    num_output: 128
    kernel_size: 1
    weight_filler {
      type: "xavier"
      std: 0.09
    }
    bias_filler {
      type: "constant"
      value: 0.2
    }
  }
}
layer {
  name: "inception_4c/relu_3x3_reduce"
  type: "ReLU"
  bottom: "inception_4c/3x3_reduce"
  top: "inception_4c/3x3_reduce"
}
layer {
  name: "inception_4c/3x3"
  type: "Convolution"
  bottom: "inception_4c/3x3_reduce"
  top: "inception_4c/3x3"
  param {
    lr_mult: 1
    decay_mult: 1
  }
  param {
    lr_mult: 2
    decay_mult: 0
  }
  convolution_param {
    num_output: 256
    pad: 1
    kernel_size: 3
    weight_filler {
      type: "xavier"
      std: 0.03
    }
    bias_filler {
      type: "constant"
      value: 0.2
    }
  }
}
layer {
  name: "inception_4c/relu_3x3"
  type: "ReLU"
  bottom: "inception_4c/3x3"
  top: "inception_4c/3x3"
}
layer {
  name: "inception_4c/5x5_reduce"
  type: "Convolution"
  bottom: "inception_4b/output"
  top: "inception_4c/5x5_reduce"
  param {
    lr_mult: 1
    decay_mult: 1
  }
  param {
    lr_mult: 2
    decay_mult: 0
  }
  convolution_param {
    num_output: 24
    kernel_size: 1
    weight_filler {
      type: "xavier"
      std: 0.2
    }
    bias_filler {
      type: "constant"
      value: 0.2
    }
  }
}
layer {
  name: "inception_4c/relu_5x5_reduce"
  type: "ReLU"
  bottom: "inception_4c/5x5_reduce"
  top: "inception_4c/5x5_reduce"
}
layer {
  name: "inception_4c/5x5"
  type: "Convolution"
  bottom: "inception_4c/5x5_reduce"
  top: "inception_4c/5x5"
  param {
    lr_mult: 1
    decay_mult: 1
  }
  param {
    lr_mult: 2
    decay_mult: 0
  }
  convolution_param {
    num_output: 64
    pad: 2
    kernel_size: 5
    weight_filler {
      type: "xavier"
      std: 0.03
    }
    bias_filler {
      type: "constant"
      value: 0.2
    }
  }
}
layer {
  name: "inception_4c/relu_5x5"
  type: "ReLU"
  bottom: "inception_4c/5x5"
  top: "inception_4c/5x5"
}
layer {
  name: "inception_4c/pool"
  type: "Pooling"
  bottom: "inception_4b/output"
  top: "inception_4c/pool"
  pooling_param {
    pool: MAX
    kernel_size: 3
    stride: 1
    pad: 1
  }
}
layer {
  name: "inception_4c/pool_proj"
  type: "Convolution"
  bottom: "inception_4c/pool"
  top: "inception_4c/pool_proj"
  param {
    lr_mult: 1
    decay_mult: 1
  }
  param {
    lr_mult: 2
    decay_mult: 0
  }
  convolution_param {
    num_output: 64
    kernel_size: 1
    weight_filler {
      type: "xavier"
      std: 0.1
    }
    bias_filler {
      type: "constant"
      value: 0.2
    }
  }
}
layer {
  name: "inception_4c/relu_pool_proj"
  type: "ReLU"
  bottom: "inception_4c/pool_proj"
  top: "inception_4c/pool_proj"
}
layer {
  name: "inception_4c/output"
  type: "Concat"
  bottom: "inception_4c/1x1"
  bottom: "inception_4c/3x3"
  bottom: "inception_4c/5x5"
  bottom: "inception_4c/pool_proj"
  top: "inception_4c/output"
}
layer {
  name: "inception_4d/1x1"
  type: "Convolution"
  bottom: "inception_4c/output"
  top: "inception_4d/1x1"
  param {
    lr_mult: 1
    decay_mult: 1
  }
  param {
    lr_mult: 2
    decay_mult: 0
  }
  convolution_param {
    num_output: 112
    kernel_size: 1
    weight_filler {
      type: "xavier"
      std: 0.03
    }
    bias_filler {
      type: "constant"
      value: 0.2
    }
  }
}
layer {
  name: "inception_4d/relu_1x1"
  type: "ReLU"
  bottom: "inception_4d/1x1"
  top: "inception_4d/1x1"
}
layer {
  name: "inception_4d/3x3_reduce"
  type: "Convolution"
  bottom: "inception_4c/output"
  top: "inception_4d/3x3_reduce"
  param {
    lr_mult: 1
    decay_mult: 1
  }
  param {
    lr_mult: 2
    decay_mult: 0
  }
  convolution_param {
    num_output: 144
    kernel_size: 1
    weight_filler {
      type: "xavier"
      std: 0.09
    }
    bias_filler {
      type: "constant"
      value: 0.2
    }
  }
}
layer {
  name: "inception_4d/relu_3x3_reduce"
  type: "ReLU"
  bottom: "inception_4d/3x3_reduce"
  top: "inception_4d/3x3_reduce"
}
layer {
  name: "inception_4d/3x3"
  type: "Convolution"
  bottom: "inception_4d/3x3_reduce"
  top: "inception_4d/3x3"
  param {
    lr_mult: 1
    decay_mult: 1
  }
  param {
    lr_mult: 2
    decay_mult: 0
  }
  convolution_param {
    num_output: 288
    pad: 1
    kernel_size: 3
    weight_filler {
      type: "xavier"
      std: 0.03
    }
    bias_filler {
      type: "constant"
      value: 0.2
    }
  }
}
layer {
  name: "inception_4d/relu_3x3"
  type: "ReLU"
  bottom: "inception_4d/3x3"
  top: "inception_4d/3x3"
}
layer {
  name: "inception_4d/5x5_reduce"
  type: "Convolution"
  bottom: "inception_4c/output"
  top: "inception_4d/5x5_reduce"
  param {
    lr_mult: 1
    decay_mult: 1
  }
  param {
    lr_mult: 2
    decay_mult: 0
  }
  convolution_param {
    num_output: 32
    kernel_size: 1
    weight_filler {
      type: "xavier"
      std: 0.2
    }
    bias_filler {
      type: "constant"
      value: 0.2
    }
  }
}
layer {
  name: "inception_4d/relu_5x5_reduce"
  type: "ReLU"
  bottom: "inception_4d/5x5_reduce"
  top: "inception_4d/5x5_reduce"
}
layer {
  name: "inception_4d/5x5"
  type: "Convolution"
  bottom: "inception_4d/5x5_reduce"
  top: "inception_4d/5x5"
  param {
    lr_mult: 1
    decay_mult: 1
  }
  param {
    lr_mult: 2
    decay_mult: 0
  }
  convolution_param {
    num_output: 64
    pad: 2
    kernel_size: 5
    weight_filler {
      type: "xavier"
      std: 0.03
    }
    bias_filler {
      type: "constant"
      value: 0.2
    }
  }
}
layer {
  name: "inception_4d/relu_5x5"
  type: "ReLU"
  bottom: "inception_4d/5x5"
  top: "inception_4d/5x5"
}
layer {
  name: "inception_4d/pool"
  type: "Pooling"
  bottom: "inception_4c/output"
  top: "inception_4d/pool"
  pooling_param {
    pool: MAX
    kernel_size: 3
    stride: 1
    pad: 1
  }
}
layer {
  name: "inception_4d/pool_proj"
  type: "Convolution"
  bottom: "inception_4d/pool"
  top: "inception_4d/pool_proj"
  param {
    lr_mult: 1
    decay_mult: 1
  }
  param {
    lr_mult: 2
    decay_mult: 0
  }
  convolution_param {
    num_output: 64
    kernel_size: 1
    weight_filler {
      type: "xavier"
      std: 0.1
    }
    bias_filler {
      type: "constant"
      value: 0.2
    }
  }
}
layer {
  name: "inception_4d/relu_pool_proj"
  type: "ReLU"
  bottom: "inception_4d/pool_proj"
  top: "inception_4d/pool_proj"
}
layer {
  name: "inception_4d/output"
  type: "Concat"
  bottom: "inception_4d/1x1"
  bottom: "inception_4d/3x3"
…
I1130 08:17:07.899911 27091 net.cpp:84] Creating Layer inception_4c/1x1
I1130 08:17:07.899916 27091 net.cpp:406] inception_4c/1x1 <- inception_4b/output_inception_4b/output_0_split_0
I1130 08:17:07.899924 27091 net.cpp:380] inception_4c/1x1 -> inception_4c/1x1
I1130 08:17:07.900461 27091 net.cpp:122] Setting up inception_4c/1x1
I1130 08:17:07.900471 27091 net.cpp:129] Top shape: 32 128 14 14 (802816)
I1130 08:17:07.900476 27091 net.cpp:137] Memory required for data: 1359569280
I1130 08:17:07.900483 27091 layer_factory.hpp:77] Creating layer inception_4c/relu_1x1
I1130 08:17:07.900491 27091 net.cpp:84] Creating Layer inception_4c/relu_1x1
I1130 08:17:07.900496 27091 net.cpp:406] inception_4c/relu_1x1 <- inception_4c/1x1
I1130 08:17:07.900502 27091 net.cpp:367] inception_4c/relu_1x1 -> inception_4c/1x1 (in-place)
I1130 08:17:07.900509 27091 net.cpp:122] Setting up inception_4c/relu_1x1
I1130 08:17:07.900514 27091 net.cpp:129] Top shape: 32 128 14 14 (802816)
I1130 08:17:07.900518 27091 net.cpp:137] Memory required for data: 1362780544
I1130 08:17:07.900523 27091 layer_factory.hpp:77] Creating layer inception_4c/3x3_reduce
I1130 08:17:07.900532 27091 net.cpp:84] Creating Layer inception_4c/3x3_reduce
I1130 08:17:07.900537 27091 net.cpp:406] inception_4c/3x3_reduce <- inception_4b/output_inception_4b/output_0_split_1
I1130 08:17:07.900542 27091 net.cpp:380] inception_4c/3x3_reduce -> inception_4c/3x3_reduce
I1130 08:17:07.901077 27091 net.cpp:122] Setting up inception_4c/3x3_reduce
I1130 08:17:07.901085 27091 net.cpp:129] Top shape: 32 128 14 14 (802816)
I1130 08:17:07.901090 27091 net.cpp:137] Memory required for data: 1365991808
I1130 08:17:07.901098 27091 layer_factory.hpp:77] Creating layer inception_4c/relu_3x3_reduce
I1130 08:17:07.901104 27091 net.cpp:84] Creating Layer inception_4c/relu_3x3_reduce
I1130 08:17:07.901109 27091 net.cpp:406] inception_4c/relu_3x3_reduce <- inception_4c/3x3_reduce
I1130 08:17:07.901114 27091 net.cpp:367] inception_4c/relu_3x3_reduce -> inception_4c/3x3_reduce (in-place)
I1130 08:17:07.901121 27091 net.cpp:122] Setting up inception_4c/relu_3x3_reduce
I1130 08:17:07.901129 27091 net.cpp:129] Top shape: 32 128 14 14 (802816)
I1130 08:17:07.901132 27091 net.cpp:137] Memory required for data: 1369203072
I1130 08:17:07.901137 27091 layer_factory.hpp:77] Creating layer inception_4c/3x3
I1130 08:17:07.901146 27091 net.cpp:84] Creating Layer inception_4c/3x3
I1130 08:17:07.901151 27091 net.cpp:406] inception_4c/3x3 <- inception_4c/3x3_reduce
I1130 08:17:07.901157 27091 net.cpp:380] inception_4c/3x3 -> inception_4c/3x3
I1130 08:17:07.903251 27091 net.cpp:122] Setting up inception_4c/3x3
I1130 08:17:07.903262 27091 net.cpp:129] Top shape: 32 256 14 14 (1605632)
I1130 08:17:07.903266 27091 net.cpp:137] Memory required for data: 1375625600
I1130 08:17:07.903273 27091 layer_factory.hpp:77] Creating layer inception_4c/relu_3x3
I1130 08:17:07.903280 27091 net.cpp:84] Creating Layer inception_4c/relu_3x3
I1130 08:17:07.903286 27091 net.cpp:406] inception_4c/relu_3x3 <- inception_4c/3x3
I1130 08:17:07.903295 27091 net.cpp:367] inception_4c/relu_3x3 -> inception_4c/3x3 (in-place)
I1130 08:17:07.903301 27091 net.cpp:122] Setting up inception_4c/relu_3x3
I1130 08:17:07.903307 27091 net.cpp:129] Top shape: 32 256 14 14 (1605632)
I1130 08:17:07.903312 27091 net.cpp:137] Memory required for data: 1382048128
I1130 08:17:07.903316 27091 layer_factory.hpp:77] Creating layer inception_4c/5x5_reduce
I1130 08:17:07.903323 27091 net.cpp:84] Creating Layer inception_4c/5x5_reduce
I1130 08:17:07.903331 27091 net.cpp:406] inception_4c/5x5_reduce <- inception_4b/output_inception_4b/output_0_split_2
I1130 08:17:07.903338 27091 net.cpp:380] inception_4c/5x5_reduce -> inception_4c/5x5_reduce
I1130 08:17:07.903607 27091 net.cpp:122] Setting up inception_4c/5x5_reduce
I1130 08:17:07.903616 27091 net.cpp:129] Top shape: 32 24 14 14 (150528)
I1130 08:17:07.903621 27091 net.cpp:137] Memory required for data: 1382650240
I1130 08:17:07.903627 27091 layer_factory.hpp:77] Creating layer inception_4c/relu_5x5_reduce
I1130 08:17:07.903635 27091 net.cpp:84] Creating Layer inception_4c/relu_5x5_reduce
I1130 08:17:07.903640 27091 net.cpp:406] inception_4c/relu_5x5_reduce <- inception_4c/5x5_reduce
I1130 08:17:07.903645 27091 net.cpp:367] inception_4c/relu_5x5_reduce -> inception_4c/5x5_reduce (in-place)
I1130 08:17:07.903651 27091 net.cpp:122] Setting up inception_4c/relu_5x5_reduce
I1130 08:17:07.903656 27091 net.cpp:129] Top shape: 32 24 14 14 (150528)
I1130 08:17:07.903661 27091 net.cpp:137] Memory required for data: 1383252352
I1130 08:17:07.903666 27091 layer_factory.hpp:77] Creating layer inception_4c/5x5
I1130 08:17:07.903674 27091 net.cpp:84] Creating Layer inception_4c/5x5
I1130 08:17:07.903679 27091 net.cpp:406] inception_4c/5x5 <- inception_4c/5x5_reduce
I1130 08:17:07.903686 27091 net.cpp:380] inception_4c/5x5 -> inception_4c/5x5
I1130 08:17:07.904086 27091 net.cpp:122] Setting up inception_4c/5x5
I1130 08:17:07.904096 27091 net.cpp:129] Top shape: 32 64 14 14 (401408)
I1130 08:17:07.904101 27091 net.cpp:137] Memory required for data: 1384857984
I1130 08:17:07.904109 27091 layer_factory.hpp:77] Creating layer inception_4c/relu_5x5
I1130 08:17:07.904115 27091 net.cpp:84] Creating Layer inception_4c/relu_5x5
I1130 08:17:07.904120 27091 net.cpp:406] inception_4c/relu_5x5 <- inception_4c/5x5
I1130 08:17:07.904126 27091 net.cpp:367] inception_4c/relu_5x5 -> inception_4c/5x5 (in-place)
I1130 08:17:07.904134 27091 net.cpp:122] Setting up inception_4c/relu_5x5
I1130 08:17:07.904139 27091 net.cpp:129] Top shape: 32 64 14 14 (401408)
I1130 08:17:07.904145 27091 net.cpp:137] Memory required for data: 1386463616
I1130 08:17:07.904148 27091 layer_factory.hpp:77] Creating layer inception_4c/pool
I1130 08:17:07.904155 27091 net.cpp:84] Creating Layer inception_4c/pool
I1130 08:17:07.904160 27091 net.cpp:406] inception_4c/pool <- inception_4b/output_inception_4b/output_0_split_3
I1130 08:17:07.904166 27091 net.cpp:380] inception_4c/pool -> inception_4c/pool
I1130 08:17:07.904201 27091 net.cpp:122] Setting up inception_4c/pool
I1130 08:17:07.904208 27091 net.cpp:129] Top shape: 32 512 14 14 (3211264)
I1130 08:17:07.904213 27091 net.cpp:137] Memory required for data: 1399308672
I1130 08:17:07.904217 27091 layer_factory.hpp:77] Creating layer inception_4c/pool_proj
I1130 08:17:07.904225 27091 net.cpp:84] Creating Layer inception_4c/pool_proj
I1130 08:17:07.904230 27091 net.cpp:406] inception_4c/pool_proj <- inception_4c/pool
I1130 08:17:07.904237 27091 net.cpp:380] inception_4c/pool_proj -> inception_4c/pool_proj
I1130 08:17:07.904605 27091 net.cpp:122] Setting up inception_4c/pool_proj
I1130 08:17:07.904614 27091 net.cpp:129] Top shape: 32 64 14 14 (401408)
I1130 08:17:07.904619 27091 net.cpp:137] Memory required for data: 1400914304
I1130 08:17:07.904633 27091 layer_factory.hpp:77] Creating layer inception_4c/relu_pool_proj
I1130 08:17:07.904639 27091 net.cpp:84] Creating Layer inception_4c/relu_pool_proj
I1130 08:17:07.904645 27091 net.cpp:406] inception_4c/relu_pool_proj <- inception_4c/pool_proj
I1130 08:17:07.904651 27091 net.cpp:367] inception_4c/relu_pool_proj -> inception_4c/pool_proj (in-place)
I1130 08:17:07.904659 27091 net.cpp:122] Setting up inception_4c/relu_pool_proj
I1130 08:17:07.904664 27091 net.cpp:129] Top shape: 32 64 14 14 (401408)
I1130 08:17:07.904669 27091 net.cpp:137] Memory required for data: 1402519936
I1130 08:17:07.904672 27091 layer_factory.hpp:77] Creating layer inception_4c/output
I1130 08:17:07.904680 27091 net.cpp:84] Creating Layer inception_4c/output
I1130 08:17:07.904685 27091 net.cpp:406] inception_4c/output <- inception_4c/1x1
I1130 08:17:07.904690 27091 net.cpp:406] inception_4c/output <- inception_4c/3x3
I1130 08:17:07.904695 27091 net.cpp:406] inception_4c/output <- inception_4c/5x5
I1130 08:17:07.904700 27091 net.cpp:406] inception_4c/output <- inception_4c/pool_proj
I1130 08:17:07.904706 27091 net.cpp:380] inception_4c/output -> inception_4c/output
I1130 08:17:07.904731 27091 net.cpp:122] Setting up inception_4c/output
I1130 08:17:07.904737 27091 net.cpp:129] Top shape: 32 512 14 14 (3211264)
I1130 08:17:07.904742 27091 net.cpp:137] Memory required for data: 1415364992
I1130 08:17:07.904747 27091 layer_factory.hpp:77] Creating layer inception_4c/output_inception_4c/output_0_split
I1130 08:17:07.904753 27091 net.cpp:84] Creating Layer inception_4c/output_inception_4c/output_0_split
I1130 08:17:07.904758 27091 net.cpp:406] inception_4c/output_inception_4c/output_0_split <- inception_4c/output
I1130 08:17:07.904764 27091 net.cpp:380] inception_4c/output_inception_4c/output_0_split -> inception_4c/output_inception_4c/output_0_split_0
I1130 08:17:07.904772 27091 net.cpp:380] inception_4c/output_inception_4c/output_0_split -> inception_4c/output_inception_4c/output_0_split_1
I1130 08:17:07.904779 27091 net.cpp:380] inception_4c/output_inception_4c/output_0_split -> inception_4c/output_inception_4c/output_0_split_2
I1130 08:17:07.904786 27091 net.cpp:380] inception_4c/output_inception_4c/output_0_split -> inception_4c/output_inception_4c/output_0_split_3
I1130 08:17:07.904837 27091 net.cpp:122] Setting up inception_4c/output_inception_4c/output_0_split
I1130 08:17:07.904845 27091 net.cpp:129] Top shape: 32 512 14 14 (3211264)
I1130 08:17:07.904850 27091 net.cpp:129] Top shape: 32 512 14 14 (3211264)
I1130 08:17:07.904855 27091 net.cpp:129] Top shape: 32 512 14 14 (3211264)
I1130 08:17:07.904860 27091 net.cpp:129] Top shape: 32 512 14 14 (3211264)
I1130 08:17:07.904865 27091 net.cpp:137] Memory required for data: 1466745216
I1130 08:17:07.904870 27091 layer_factory.hpp:77] Creating layer inception_4d/1x1
I1130 08:17:07.904877 27091 net.cpp:84] Creating Layer inception_4d/1x1
I1130 08:17:07.904882 27091 net.cpp:406] inception_4d/1x1 <- inception_4c/output_inception_4c/output_0_split_0
I1130 08:17:07.904889 27091 net.cpp:380] inception_4d/1x1 -> inception_4d/1x1
I1130 08:17:07.905707 27091 net.cpp:122] Setting up inception_4d/1x1
I1130 08:17:07.905719 27091 net.cpp:129] Top shape: 32 112 14 14 (702464)
I1130 08:17:07.905724 27091 net.cpp:137] Memory required for data: 1469555072
I1130 08:17:07.905730 27091 layer_factory.hpp:77] Creating layer inception_4d/relu_1x1
I1130 08:17:07.905737 27091 net.cpp:84] Creating Layer inception_4d/relu_1x1
I1130 08:17:07.905743 27091 net.cpp:406] inception_4d/relu_1x1 <- inception_4d/1x1
I1130 08:17:07.905750 27091 net.cpp:367] inception_4d/relu_1x1 -> inception_4d/1x1 (in-place)
I1130 08:17:07.905756 27091 net.cpp:122] Setting up inception_4d/relu_1x1
I1130 08:17:07.905763 27091 net.cpp:129] Top shape: 32 112 14 14 (702464)
I1130 08:17:07.905767 27091 net.cpp:137] Memory required for data: 1472364928
I1130 08:17:07.905772 27091 layer_factory.hpp:77] Creating layer inception_4d/3x3_reduce
I1130 08:17:07.905781 27091 net.cpp:84] Creating Layer inception_4d/3x3_reduce
I1130 08:17:07.905786 27091 net.cpp:406] inception_4d/3x3_reduce <- inception_4c/output_inception_4c/output_0_split_1
I1130 08:17:07.905793 27091 net.cpp:380] inception_4d/3x3_reduce -> inception_4d/3x3_reduce
I1130 08:17:07.906401 27091 net.cpp:122] Setting up inception_4d/3x3_reduce
I1130 08:17:07.906410 27091 net.cpp:129] Top shape: 32 144 14 14 (903168)
I1130 08:17:07.906414 27091 net.cpp:137] Memory required for data: 1475977600
I1130 08:17:07.906421 27091 layer_factory.hpp:77] Creating layer inception_4d/relu_3x3_reduce
I1130 08:17:07.906427 27091 net.cpp:84] Creating Layer inception_4d/relu_3x3_reduce
I1130 08:17:07.906433 27091 net.cpp:406] inception_4d/relu_3x3_reduce <- inception_4d/3x3_reduce
I1130 08:17:07.906438 27091 net.cpp:367] inception_4d/relu_3x3_reduce -> inception_4d/3x3_reduce (in-place)
I1130 08:17:07.906445 27091 net.cpp:122] Setting up inception_4d/relu_3x3_reduce
I1130 08:17:07.906451 27091 net.cpp:129] Top shape: 32 144 14 14 (903168)
I1130 08:17:07.906455 27091 net.cpp:137] Memory required for data: 1479590272
I1130 08:17:07.906460 27091 layer_factory.hpp:77] Creating layer inception_4d/3x3
I1130 08:17:07.906468 27091 net.cpp:84] Creating Layer inception_4d/3x3
I1130 08:17:07.906473 27091 net.cpp:406] inception_4d/3x3 <- inception_4d/3x3_reduce
I1130 08:17:07.906481 27091 net.cpp:380] inception_4d/3x3 -> inception_4d/3x3
I1130 08:17:07.909062 27091 net.cpp:122] Setting up inception_4d/3x3
I1130 08:17:07.909075 27091 net.cpp:129] Top shape: 32 288 14 14 (1806336)
I1130 08:17:07.909078 27091 net.cpp:137] Memory required for data: 1486815616
I1130 08:17:07.909086 27091 layer_factory.hpp:77] Creating layer inception_4d/relu_3x3
I1130 08:17:07.909093 27091 net.cpp:84] Creating Layer inception_4d/relu_3x3
I1130 08:17:07.909099 27091 net.cpp:406] inception_4d/relu_3x3 <- inception_4d/3x3
I1130 08:17:07.909104 27091 net.cpp:367] inception_4d/relu_3x3 -> inception_4d/3x3 (in-place)
I1130 08:17:07.909112 27091 net.cpp:122] Setting up inception_4d/relu_3x3
I1130 08:17:07.909117 27091 net.cpp:129] Top shape: 32 288 14 14 (1806336)
I1130 08:17:07.909122 27091 net.cpp:137] Memory required for data: 1494040960
I1130 08:17:07.909126 27091 layer_factory.hpp:77] Creating layer inception_4d/5x5_reduce
I1130 08:17:07.909133 27091 net.cpp:84] Creating Layer inception_4d/5x5_reduce
I1130 08:17:07.909139 27091 net.cpp:406] inception_4d/5x5_reduce <- inception_4c/output_inception_4c/output_0_split_2
I1130 08:17:07.909147 27091 net.cpp:380] inception_4d/5x5_reduce -> inception_4d/5x5_reduce
I1130 08:17:07.909441 27091 net.cpp:122] Setting up inception_4d/5x5_reduce
I1130 08:17:07.909451 27091 net.cpp:129] Top shape: 32 32 14 14 (200704)
I1130 08:17:07.909454 27091 net.cpp:137] Memory required for data: 1494843776
I1130 08:17:07.909462 27091 layer_factory.hpp:77] Creating layer inception_4d/relu_5x5_reduce
I1130 08:17:07.909469 27091 net.cpp:84] Creating Layer inception_4d/relu_5x5_reduce
I1130 08:17:07.909476 27091 net.cpp:406] inception_4d/relu_5x5_reduce <- inception_4d/5x5_reduce
I1130 08:17:07.909481 27091 net.cpp:367] inception_4d/relu_5x5_reduce -> inception_4d/5x5_reduce (in-place)
I1130 08:17:07.909487 27091 net.cpp:122] Setting up inception_4d/relu_5x5_reduce
I1130 08:17:07.909493 27091 net.cpp:129] Top shape: 32 32 14 14 (200704)
I1130 08:17:07.909497 27091 net.cpp:137] Memory required for data: 1495646592
I1130 08:17:07.909502 27091 layer_factory.hpp:77] Creating layer inception_4d/5x5
I1130 08:17:07.909510 27091 net.cpp:84] Creating Layer inception_4d/5x5
I1130 08:17:07.909514 27091 net.cpp:406] inception_4d/5x5 <- inception_4d/5x5_reduce
I1130 08:17:07.909521 27091 net.cpp:380] inception_4d/5x5 -> inception_4d/5x5
I1130 08:17:07.909999 27091 net.cpp:122] Setting up inception_4d/5x5
I1130 08:17:07.910008 27091 net.cpp:129] Top shape: 32 64 14 14 (401408)
I1130 08:17:07.910013 27091 net.cpp:137] Memory required for data: 1497252224
I1130 08:17:07.910020 27091 layer_factory.hpp:77] Creating layer inception_4d/relu_5x5
I1130 08:17:07.910027 27091 net.cpp:84] Creating Layer inception_4d/relu_5x5
I1130 08:17:07.910032 27091 net.cpp:406] inception_4d/relu_5x5 <- inception_4d/5x5
I1130 08:17:07.910038 27091 net.cpp:367] inception_4d/relu_5x5 -> inception_4d/5x5 (in-place)
I1130 08:17:07.910045 27091 net.cpp:122] Setting up inception_4d/relu_5x5
I1130 08:17:07.910051 27091 net.cpp:129] Top shape: 32 64 14 14 (401408)
I1130 08:17:07.910055 27091 net.cpp:137] Memory required for data: 1498857856
I1130 08:17:07.910059 27091 layer_factory.hpp:77] Creating layer inception_4d/pool
I1130 08:17:07.910066 27091 net.cpp:84] Creating Layer inception_4d/pool
I1130 08:17:07.910070 27091 net.cpp:406] inception_4d/pool <- inception_4c/output_inception_4c/output_0_split_3
I1130 08:17:07.910076 27091 net.cpp:380] inception_4d/pool -> inception_4d/pool
I1130 08:17:07.910112 27091 net.cpp:122] Setting up inception_4d/pool
I1130 08:17:07.910120 27091 net.cpp:129] Top shape: 32 512 14 14 (3211264)
I1130 08:17:07.910125 27091 net.cpp:137] Memory required for data: 1511702912
I1130 08:17:07.910128 27091 layer_factory.hpp:77] Creating layer inception_4d/pool_proj
I1130 08:17:07.910137 27091 net.cpp:84] Creating Layer inception_4d/pool_proj
I1130 08:17:07.910142 27091 net.cpp:406] inception_4d/pool_proj <- inception_4d/pool
I1130 08:17:07.910149 27091 net.cpp:380] inception_4d/pool_proj -> inception_4d/pool_proj
I1130 08:17:07.910521 27091 net.cpp:122] Setting up inception_4d/pool_proj
I1130 08:17:07.910531 27091 net.cpp:129] Top shape: 32 64 14 14 (401408)
I1130 08:17:07.910534 27091 net.cpp:137] Memory required for data: 1513308544
I1130 08:17:07.910542 27091 layer_factory.hpp:77] Creating layer inception_4d/relu_pool_proj
I1130 08:17:07.910549 27091 net.cpp:84] Creating Layer inception_4d/relu_pool_proj
I1130 08:17:07.910555 27091 net.cpp:406] inception_4d/relu_pool_proj <- inception_4d/pool_proj
I1130 08:17:07.910560 27091 net.cpp:367] inception_4d/relu_pool_proj -> inception_4d/pool_proj (in-place)
I1130 08:17:07.910567 27091 net.cpp:122] Setting up inception_4d/relu_pool_proj
I1130 08:17:07.910573 27091 net.cpp:129] Top shape: 32 64 14 14 (401408)
I1130 08:17:07.910578 27091 net.cpp:137] Memory required for data: 1514914176
I1130 08:17:07.910581 27091 layer_factory.hpp:77] Creating layer inception_4d/output
I1130 08:17:07.910588 27091 net.cpp:84] Creating Layer inception_4d/output
I1130 08:17:07.910593 27091 net.cpp:406] inception_4d/output <- inception_4d/1x1
I1130 08:17:07.910598 27091 net.cpp:406] inception_4d/output <- inception_4d/3x3
I1130 08:17:07.910604 27091 net.cpp:406] inception_4d/output <- inception_4d/5x5
I1130 08:17:07.910607 27091 net.cpp:406] inception_4d/output <- inception_4d/pool_proj
I1130 08:17:07.910614 27091 net.cpp:380] inception_4d/output -> inception_4d/output
I1130 08:17:07.910639 27091 net.cpp:122] Setting up inception_4d/output
I1130 08:17:07.910646 27091 net.cpp:129] Top shape: 32 528 14 14 (3311616)
I1130 08:17:07.910650 27091 net.cpp:137] Memory required for data: 1528160640
I1130 08:17:07.910655 27091 layer_factory.hpp:77] Creating layer inception_4d/output_inception_4d/output_0_split
I1130 08:17:07.910661 27091 net.cpp:84] Creating Layer inception_4d/output_inception_4d/output_0_split
I1130 08:17:07.910667 27091 net.cpp:406] inception_4d/output_inception_4d/output_0_split <- inception_4d/output
I1130 08:17:07.910672 27091 net.cpp:380] inception_4d/output_inception_4d/output_0_split -> inception_4d/output_inception_4d/output_0_split_0
I1130 08:17:07.910681 27091 net.cpp:380] inception_4d/output_inception_4d/output_0_split -> inception_4d/output_inception_4d/output_0_split_1
I1130 08:17:07.910687 27091 net.cpp:380] inception_4d/output_inception_4d/output_0_split -> inception_4d/output_inception_4d/output_0_split_2
I1130 08:17:07.910694 27091 net.cpp:380] inception_4d/output_inception_4d/output_0_split -> inception_4d/output_inception_4d/output_0_split_3
I1130 08:17:07.910746 27091 net.cpp:122] Setting up inception_4d/output_inception_4d/output_0_split
I1130 08:17:07.910753 27091 net.cpp:129] Top shape: 32 528 14 14 (3311616)
I1130 08:17:07.910759 27091 net.cpp:129] Top shape: 32 528 14 14 (3311616)
I1130 08:17:07.910765 27091 net.cpp:129] Top shape: 32 528 14 14 (3311616)
I1130 08:17:07.910778 27091 net.cpp:129] Top shape: 32 528 14 14 (3311616)
I1130 08:17:07.910782 27091 net.cpp:137] Memory required for data: 1581146496
I1130 08:17:07.910786 27091 layer_factory.hpp:77] Creating layer inception_4e/1x1
I1130 08:17:07.910795 27091 net.cpp:84] Creating Layer inception_4e/1x1
I1130 08:17:07.910802 27091 net.cpp:406] inception_4e/1x1 <- inception_4d/output_inception_4d/output_0_split_0
I1130 08:17:07.910809 27091 net.cpp:380] inception_4e/1x1 -> inception_4e/1x1
I1130 08:17:07.912055 27091 net.cpp:122] Setting up inception_4e/1x1
I1130 08:17:07.912066 27091 net.cpp:129] Top shape: 32 256 14 14 (1605632)
I1130 08:17:07.912071 27091 net.cpp:137] Memory required for data: 1587569024
I1130 08:17:07.912078 27091 layer_factory.hpp:77] Creating layer inception_4e/relu_1x1
I1130 08:17:07.912086 27091 net.cpp:84] Creating Layer inception_4e/relu_1x1
I1130 08:17:07.912091 27091 net.cpp:406] inception_4e/relu_1x1 <- inception_4e/1x1
I1130 08:17:07.912097 27091 net.cpp:367] inception_4e/relu_1x1 -> inception_4e/1x1 (in-place)
I1130 08:17:07.912106 27091 net.cpp:122] Setting up inception_4e/relu_1x1
I1130 08:17:07.912111 27091 net.cpp:129] Top shape: 32 256 14 14 (1605632)
I1130 08:17:07.912114 27091 net.cpp:137] Memory required for data: 1593991552
I1130 08:17:07.912119 27091 layer_factory.hpp:77] Creating layer inception_4e/3x3_reduce
I1130 08:17:07.912127 27091 net.cpp:84] Creating Layer inception_4e/3x3_reduce
I1130 08:17:07.912132 27091 net.cpp:406] inception_4e/3x3_reduce <- inception_4d/output_inception_4d/output_0_split_1
I1130 08:17:07.912139 27091 net.cpp:380] inception_4e/3x3_reduce -> inception_4e/3x3_reduce
I1130 08:17:07.912786 27091 net.cpp:122] Setting up inception_4e/3x3_reduce
I1130 08:17:07.912796 27091 net.cpp:129] Top shape: 32 160 14 14 (1003520)
I1130 08:17:07.912801 27091 net.cpp:137] Memory required for data: 1598005632
I1130 08:17:07.912808 27091 layer_factory.hpp:77] Creating layer inception_4e/relu_3x3_reduce
I1130 08:17:07.912814 27091 net.cpp:84] Creating Layer inception_4e/relu_3x3_reduce
I1130 08:17:07.912819 27091 net.cpp:406] inception_4e/relu_3x3_reduce <- inception_4e/3x3_reduce
I1130 08:17:07.912825 27091 net.cpp:367] inception_4e/relu_3x3_reduce -> inception_4e/3x3_reduce (in-place)
I1130 08:17:07.912832 27091 net.cpp:122] Setting up inception_4e/relu_3x3_reduce
I1130 08:17:07.912839 27091 net.cpp:129] Top shape: 32 160 14 14 (1003520)
I1130 08:17:07.912842 27091 net.cpp:137] Memory required for data: 1602019712
I1130 08:17:07.912847 27091 layer_factory.hpp:77] Creating layer inception_4e/3x3
I1130 08:17:07.912855 27091 net.cpp:84] Creating Layer inception_4e/3x3
I1130 08:17:07.912860 27091 net.cpp:406] inception_4e/3x3 <- inception_4e/3x3_reduce
I1130 08:17:07.912866 27091 net.cpp:380] inception_4e/3x3 -> inception_4e/3x3
I1130 08:17:07.915977 27091 net.cpp:122] Setting up inception_4e/3x3
I1130 08:17:07.915990 27091 net.cpp:129] Top shape: 32 320 14 14 (2007040)
I1130 08:17:07.915994 27091 net.cpp:137] Memory required for data: 1610047872
I1130 08:17:07.916002 27091 layer_factory.hpp:77] Creating layer inception_4e/relu_3x3
I1130 08:17:07.916009 27091 net.cpp:84] Creating Layer inception_4e/relu_3x3
I1130 08:17:07.916015 27091 net.cpp:406] inception_4e/relu_3x3 <- inception_4e/3x3
I1130 08:17:07.916021 27091 net.cpp:367] inception_4e/relu_3x3 -> inception_4e/3x3 (in-place)
I1130 08:17:07.916029 27091 net.cpp:122] Setting up inception_4e/relu_3x3
I1130 08:17:07.916035 27091 net.cpp:129] Top shape: 32 320 14 14 (2007040)
I1130 08:17:07.916041 27091 net.cpp:137] Memory required for data: 1618076032
I1130 08:17:07.916045 27091 layer_factory.hpp:77] Creating layer inception_4e/5x5_reduce
I1130 08:17:07.916054 27091 net.cpp:84] Creating Layer inception_4e/5x5_reduce
I1130 08:17:07.916059 27091 net.cpp:406] inception_4e/5x5_reduce <- inception_4d/output_inception_4d/output_0_split_2
I1130 08:17:07.916065 27091 net.cpp:380] inception_4e/5x5_reduce -> inception_4e/5x5_reduce
I1130 08:17:07.916363 27091 net.cpp:122] Setting up inception_4e/5x5_reduce
I1130 08:17:07.916373 27091 net.cpp:129] Top shape: 32 32 14 14 (200704)
I1130 08:17:07.916378 27091 net.cpp:137] Memory required for data: 1618878848
I1130 08:17:07.916383 27091 layer_factory.hpp:77] Creating layer inception_4e/relu_5x5_reduce
I1130 08:17:07.916391 27091 net.cpp:84] Creating Layer inception_4e/relu_5x5_reduce
I1130 08:17:07.916395 27091 net.cpp:406] inception_4e/relu_5x5_reduce <- inception_4e/5x5_reduce
I1130 08:17:07.916401 27091 net.cpp:367] inception_4e/relu_5x5_reduce -> inception_4e/5x5_reduce (in-place)
I1130 08:17:07.916409 27091 net.cpp:122] Setting up inception_4e/relu_5x5_reduce
I1130 08:17:07.916414 27091 net.cpp:129] Top shape: 32 32 14 14 (200704)
I1130 08:17:07.916417 27091 net.cpp:137] Memory required for data: 1619681664
I1130 08:17:07.916422 27091 layer_factory.hpp:77] Creating layer inception_4e/5x5
I1130 08:17:07.916431 27091 net.cpp:84] Creating Layer inception_4e/5x5
I1130 08:17:07.916436 27091 net.cpp:406] inception_4e/5x5 <- inception_4e/5x5_reduce
I1130 08:17:07.916443 27091 net.cpp:380] inception_4e/5x5 -> inception_4e/5x5
I1130 08:17:07.917505 27091 net.cpp:122] Setting up inception_4e/5x5
I1130 08:17:07.917515 27091 net.cpp:129] Top shape: 32 128 14 14 (802816)
I1130 08:17:07.917520 27091 net.cpp:137] Memory required for data: 1622892928
I1130 08:17:07.917526 27091 layer_factory.hpp:77] Creating layer inception_4e/relu_5x5
I1130 08:17:07.917533 27091 net.cpp:84] Creating Layer inception_4e/relu_5x5
I1130 08:17:07.917539 27091 net.cpp:406] inception_4e/relu_5x5 <- inception_4e/5x5
I1130 08:17:07.917546 27091 net.cpp:367] inception_4e/relu_5x5 -> inception_4e/5x5 (in-place)
I1130 08:17:07.917553 27091 net.cpp:122] Setting up inception_4e/relu_5x5
I1130 08:17:07.917559 27091 net.cpp:129] Top shape: 32 128 14 14 (802816)
I1130 08:17:07.917563 27091 net.cpp:137] Memory required for data: 1626104192
I1130 08:17:07.917568 27091 layer_factory.hpp:77] Creating layer inception_4e/pool
I1130 08:17:07.917574 27091 net.cpp:84] Creating Layer inception_4e/pool
I1130 08:17:07.917579 27091 net.cpp:406] inception_4e/pool <- inception_4d/output_inception_4d/output_0_split_3
I1130 08:17:07.917585 27091 net.cpp:380] inception_4e/pool -> inception_4e/pool
I1130 08:17:07.917623 27091 net.cpp:122] Setting up inception_4e/pool
I1130 08:17:07.917630 27091 net.cpp:129] Top shape: 32 528 14 14 (3311616)
I1130 08:17:07.917635 27091 net.cpp:137] Memory required for data: 1639350656
I1130 08:17:07.917640 27091 layer_factory.hpp:77] Creating layer inception_4e/pool_proj
I1130 08:17:07.917649 27091 net.cpp:84] Creating Layer inception_4e/pool_proj
I1130 08:17:07.917655 27091 net.cpp:406] inception_4e/pool_proj <- inception_4e/pool
I1130 08:17:07.917662 27091 net.cpp:380] inception_4e/pool_proj -> inception_4e/pool_proj
I1130 08:17:07.918215 27091 net.cpp:122] Setting up inception_4e/pool_proj
I1130 08:17:07.918223 27091 net.cpp:129] Top shape: 32 128 14 14 (802816)
I1130 08:17:07.918228 27091 net.cpp:137] Memory required for data: 1642561920
I1130 08:17:07.918236 27091 layer_factory.hpp:77] Creating layer inception_4e/relu_pool_proj
I1130 08:17:07.918242 27091 net.cpp:84] Creating Layer inception_4e/relu_pool_proj
I1130 08:17:07.918247 27091 net.cpp:406] inception_4e/relu_pool_proj <- inception_4e/pool_proj
I1130 08:17:07.918254 27091 net.cpp:367] inception_4e/relu_pool_proj -> inception_4e/pool_proj (in-place)
I1130 08:17:07.918262 27091 net.cpp:122] Setting up inception_4e/relu_pool_proj
I1130 08:17:07.918267 27091 net.cpp:129] Top shape: 32 128 14 14 (802816)
I1130 08:17:07.918272 27091 net.cpp:137] Memory required for data: 1645773184
I1130 08:17:07.918275 27091 layer_factory.hpp:77] Creating layer inception_4e/output
I1130 08:17:07.918282 27091 net.cpp:84] Creating Layer inception_4e/output
I1130 08:17:07.918287 27091 net.cpp:406] inception_4e/output <- inception_4e/1x1
I1130 08:17:07.918292 27091 net.cpp:406] inception_4e/output <- inception_4e/3x3
I1130 08:17:07.918298 27091 net.cpp:406] inception_4e/output <- inception_4e/5x5
I1130 08:17:07.918304 27091 net.cpp:406] inception_4e/output <- inception_4e/pool_proj
I1130 08:17:07.918309 27091 net.cpp:380] inception_4e/output -> inception_4e/output
I1130 08:17:07.918334 27091 net.cpp:122] Setting up inception_4e/output
I1130 08:17:07.918342 27091 net.cpp:129] Top shape: 32 832 14 14 (5218304)
I1130 08:17:07.918346 27091 net.cpp:137] Memory required for data: 1666646400
I1130 08:17:07.918350 27091 layer_factory.hpp:77] Creating layer pool4/3x3_s2
I1130 08:17:07.918357 27091 net.cpp:84] Creating Layer pool4/3x3_s2
I1130 08:17:07.918362 27091 net.cpp:406] pool4/3x3_s2 <- inception_4e/output
I1130 08:17:07.918368 27091 net.cpp:380] pool4/3x3_s2 -> pool4/3x3_s2
I1130 08:17:07.918406 27091 net.cpp:122] Setting up pool4/3x3_s2
I1130 08:17:07.918413 27091 net.cpp:129] Top shape: 32 832 7 7 (1304576)
I1130 08:17:07.918417 27091 net.cpp:137] Memory required for data: 1671864704
I1130 08:17:07.918422 27091 layer_factory.hpp:77] Creating layer pool4/3x3_s2_pool4/3x3_s2_0_split
I1130 08:17:07.918428 27091 net.cpp:84] Creating Layer pool4/3x3_s2_pool4/3x3_s2_0_split
I1130 08:17:07.918433 27091 net.cpp:406] pool4/3x3_s2_pool4/3x3_s2_0_split <- pool4/3x3_s2
I1130 08:17:07.918439 27091 net.cpp:380] pool4/3x3_s2_pool4/3x3_s2_0_split -> pool4/3x3_s2_pool4/3x3_s2_0_split_0
I1130 08:17:07.918447 27091 net.cpp:380] pool4/3x3_s2_pool4/3x3_s2_0_split -> pool4/3x3_s2_pool4/3x3_s2_0_split_1
I1130 08:17:07.918453 27091 net.cpp:380] pool4/3x3_s2_pool4/3x3_s2_0_split -> pool4/3x3_s2_pool4/3x3_s2_0_split_2
I1130 08:17:07.918460 27091 net.cpp:380] pool4/3x3_s2_pool4/3x3_s2_0_split -> pool4/3x3_s2_pool4/3x3_s2_0_split_3
I1130 08:17:07.918514 27091 net.cpp:122] Setting up pool4/3x3_s2_pool4/3x3_s2_0_split
I1130 08:17:07.918520 27091 net.cpp:129] Top shape: 32 832 7 7 (1304576)
I1130 08:17:07.918526 27091 net.cpp:129] Top shape: 32 832 7 7 (1304576)
I1130 08:17:07.918531 27091 net.cpp:129] Top shape: 32 832 7 7 (1304576)
I1130 08:17:07.918536 27091 net.cpp:129] Top shape: 32 832 7 7 (1304576)
I1130 08:17:07.918540 27091 net.cpp:137] Memory required for data: 1692737920
I1130 08:17:07.918545 27091 layer_factory.hpp:77] Creating layer inception_5a/1x1
I1130 08:17:07.918555 27091 net.cpp:84] Creating Layer inception_5a/1x1
I1130 08:17:07.918560 27091 net.cpp:406] inception_5a/1x1 <- pool4/3x3_s2_pool4/3x3_s2_0_split_0
I1130 08:17:07.918567 27091 net.cpp:380] inception_5a/1x1 -> inception_5a/1x1
I1130 08:17:07.920222 27091 net.cpp:122] Setting up inception_5a/1x1
I1130 08:17:07.920233 27091 net.cpp:129] Top shape: 32 256 7 7 (401408)
I1130 08:17:07.920238 27091 net.cpp:137] Memory required for data: 1694343552
I1130 08:17:07.920246 27091 layer_factory.hpp:77] Creating layer inception_5a/relu_1x1
I1130 08:17:07.920253 27091 net.cpp:84] Creating Layer inception_5a/relu_1x1
I1130 08:17:07.920258 27091 net.cpp:406] inception_5a/relu_1x1 <- inception_5a/1x1
I1130 08:17:07.920266 27091 net.cpp:367] inception_5a/relu_1x1 -> inception_5a/1x1 (in-place)
I1130 08:17:07.920274 27091 net.cpp:122] Setting up inception_5a/relu_1x1
I1130 08:17:07.920280 27091 net.cpp:129] Top shape: 32 256 7 7 (401408)
I1130 08:17:07.920285 27091 net.cpp:137] Memory required for data: 1695949184
I1130 08:17:07.920289 27091 layer_factory.hpp:77] Creating layer inception_5a/3x3_reduce
I1130 08:17:07.920297 27091 net.cpp:84] Creating Layer inception_5a/3x3_reduce
I1130 08:17:07.920303 27091 net.cpp:406] inception_5a/3x3_reduce <- pool4/3x3_s2_pool4/3x3_s2_0_split_1
I1130 08:17:07.920311 27091 net.cpp:380] inception_5a/3x3_reduce -> inception_5a/3x3_reduce
I1130 08:17:07.921545 27091 net.cpp:122] Setting up inception_5a/3x3_reduce
I1130 08:17:07.921555 27091 net.cpp:129] Top shape: 32 160 7 7 (250880)
I1130 08:17:07.921561 27091 net.cpp:137] Memory required for data: 1696952704
I1130 08:17:07.921566 27091 layer_factory.hpp:77] Creating layer inception_5a/relu_3x3_reduce
I1130 08:17:07.921574 27091 net.cpp:84] Creating Layer inception_5a/relu_3x3_reduce
I1130 08:17:07.921581 27091 net.cpp:406] inception_5a/relu_3x3_reduce <- inception_5a/3x3_reduce
I1130 08:17:07.921586 27091 net.cpp:367] inception_5a/relu_3x3_reduce -> inception_5a/3x3_reduce (in-place)
I1130 08:17:07.921594 27091 net.cpp:122] Setting up inception_5a/relu_3x3_reduce
I1130 08:17:07.921600 27091 net.cpp:129] Top shape: 32 160 7 7 (250880)
I1130 08:17:07.921603 27091 net.cpp:137] Memory required for data: 1697956224
I1130 08:17:07.921610 27091 layer_factory.hpp:77] Creating layer inception_5a/3x3
I1130 08:17:07.921618 27091 net.cpp:84] Creating Layer inception_5a/3x3
I1130 08:17:07.921623 27091 net.cpp:406] inception_5a/3x3 <- inception_5a/3x3_reduce
I1130 08:17:07.921630 27091 net.cpp:380] inception_5a/3x3 -> inception_5a/3x3
I1130 08:17:07.924764 27091 net.cpp:122] Setting up inception_5a/3x3
I1130 08:17:07.924779 27091 net.cpp:129] Top shape: 32 320 7 7 (501760)
I1130 08:17:07.924783 27091 net.cpp:137] Memory required for data: 1699963264
I1130 08:17:07.924791 27091 layer_factory.hpp:77] Creating layer inception_5a/relu_3x3
I1130 08:17:07.924799 27091 net.cpp:84] Creating Layer inception_5a/relu_3x3
I1130 08:17:07.924806 27091 net.cpp:406] inception_5a/relu_3x3 <- inception_5a/3x3
I1130 08:17:07.924814 27091 net.cpp:367] inception_5a/relu_3x3 -> inception_5a/3x3 (in-place)
I1130 08:17:07.924823 27091 net.cpp:122] Setting up inception_5a/relu_3x3
I1130 08:17:07.924829 27091 net.cpp:129] Top shape: 32 320 7 7 (501760)
I1130 08:17:07.924834 27091 net.cpp:137] Memory required for data: 1701970304
I1130 08:17:07.924837 27091 layer_factory.hpp:77] Creating layer inception_5a/5x5_reduce
I1130 08:17:07.924846 27091 net.cpp:84] Creating Layer inception_5a/5x5_reduce
I1130 08:17:07.924854 27091 net.cpp:406] inception_5a/5x5_reduce <- pool4/3x3_s2_pool4/3x3_s2_0_split_2
I1130 08:17:07.924861 27091 net.cpp:380] inception_5a/5x5_reduce -> inception_5a/5x5_reduce
I1130 08:17:07.925235 27091 net.cpp:122] Setting up inception_5a/5x5_reduce
I1130 08:17:07.925245 27091 net.cpp:129] Top shape: 32 32 7 7 (50176)
I1130 08:17:07.925248 27091 net.cpp:137] Memory required for data: 1702171008
I1130 08:17:07.925256 27091 layer_factory.hpp:77] Creating layer inception_5a/relu_5x5_reduce
I1130 08:17:07.925263 27091 net.cpp:84] Creating Layer inception_5a/relu_5x5_reduce
I1130 08:17:07.925269 27091 net.cpp:406] inception_5a/relu_5x5_reduce <- inception_5a/5x5_reduce
I1130 08:17:07.925274 27091 net.cpp:367] inception_5a/relu_5x5_reduce -> inception_5a/5x5_reduce (in-place)
I1130 08:17:07.925282 27091 net.cpp:122] Setting up inception_5a/relu_5x5_reduce
I1130 08:17:07.925287 27091 net.cpp:129] Top shape: 32 32 7 7 (50176)
I1130 08:17:07.925292 27091 net.cpp:137] Memory required for data: 1702371712
I1130 08:17:07.925297 27091 layer_factory.hpp:77] Creating layer inception_5a/5x5
I1130 08:17:07.925323 27091 net.cpp:84] Creating Layer inception_5a/5x5
I1130 08:17:07.925328 27091 net.cpp:406] inception_5a/5x5 <- inception_5a/5x5_reduce
I1130 08:17:07.925335 27091 net.cpp:380] inception_5a/5x5 -> inception_5a/5x5
I1130 08:17:07.926441 27091 net.cpp:122] Setting up inception_5a/5x5
I1130 08:17:07.926452 27091 net.cpp:129] Top shape: 32 128 7 7 (200704)
I1130 08:17:07.926456 27091 net.cpp:137] Memory required for data: 1703174528
I1130 08:17:07.926465 27091 layer_factory.hpp:77] Creating layer inception_5a/relu_5x5
I1130 08:17:07.926472 27091 net.cpp:84] Creating Layer inception_5a/relu_5x5
I1130 08:17:07.926478 27091 net.cpp:406] inception_5a/relu_5x5 <- inception_5a/5x5
I1130 08:17:07.926484 27091 net.cpp:367] inception_5a/relu_5x5 -> inception_5a/5x5 (in-place)
I1130 08:17:07.926493 27091 net.cpp:122] Setting up inception_5a/relu_5x5
I1130 08:17:07.926501 27091 net.cpp:129] Top shape: 32 128 7 7 (200704)
I1130 08:17:07.926504 27091 net.cpp:137] Memory required for data: 1703977344
I1130 08:17:07.926509 27091 layer_factory.hpp:77] Creating layer inception_5a/pool
I1130 08:17:07.926517 27091 net.cpp:84] Creating Layer inception_5a/pool
I1130 08:17:07.926522 27091 net.cpp:406] inception_5a/pool <- pool4/3x3_s2_pool4/3x3_s2_0_split_3
I1130 08:17:07.926528 27091 net.cpp:380] inception_5a/pool -> inception_5a/pool
I1130 08:17:07.926565 27091 net.cpp:122] Setting up inception_5a/pool
I1130 08:17:07.926573 27091 net.cpp:129] Top shape: 32 832 7 7 (1304576)
I1130 08:17:07.926578 27091 net.cpp:137] Memory required for data: 1709195648
I1130 08:17:07.926584 27091 layer_factory.hpp:77] Creating layer inception_5a/pool_proj
I1130 08:17:07.926592 27091 net.cpp:84] Creating Layer inception_5a/pool_proj
I1130 08:17:07.926599 27091 net.cpp:406] inception_5a/pool_proj <- inception_5a/pool
I1130 08:17:07.926605 27091 net.cpp:380] inception_5a/pool_proj -> inception_5a/pool_proj
I1130 08:17:07.927676 27091 net.cpp:122] Setting up inception_5a/pool_proj
I1130 08:17:07.927686 27091 net.cpp:129] Top shape: 32 128 7 7 (200704)
I1130 08:17:07.927690 27091 net.cpp:137] Memory required for data: 1709998464
I1130 08:17:07.927698 27091 layer_factory.hpp:77] Creating layer inception_5a/relu_pool_proj
I1130 08:17:07.927706 27091 net.cpp:84] Creating Layer inception_5a/relu_pool_proj
I1130 08:17:07.927712 27091 net.cpp:406] inception_5a/relu_pool_proj <- inception_5a/pool_proj
I1130 08:17:07.927719 27091 net.cpp:367] inception_5a/relu_pool_proj -> inception_5a/pool_proj (in-place)
I1130 08:17:07.927726 27091 net.cpp:122] Setting up inception_5a/relu_pool_proj
I1130 08:17:07.927732 27091 net.cpp:129] Top shape: 32 128 7 7 (200704)
I1130 08:17:07.927737 27091 net.cpp:137] Memory required for data: 1710801280
I1130 08:17:07.927742 27091 layer_factory.hpp:77] Creating layer inception_5a/output
I1130 08:17:07.927748 27091 net.cpp:84] Creating Layer inception_5a/output
I1130 08:17:07.927753 27091 net.cpp:406] inception_5a/output <- inception_5a/1x1
I1130 08:17:07.927758 27091 net.cpp:406] inception_5a/output <- inception_5a/3x3
I1130 08:17:07.927763 27091 net.cpp:406] inception_5a/output <- inception_5a/5x5
I1130 08:17:07.927769 27091 net.cpp:406] inception_5a/output <- inception_5a/pool_proj
I1130 08:17:07.927774 27091 net.cpp:380] inception_5a/output -> inception_5a/output
I1130 08:17:07.927798 27091 net.cpp:122] Setting up inception_5a/output
I1130 08:17:07.927805 27091 net.cpp:129] Top shape: 32 832 7 7 (1304576)
I1130 08:17:07.927809 27091 net.cpp:137] Memory required for data: 1716019584
I1130 08:17:07.927815 27091 layer_factory.hpp:77] Creating layer inception_5a/output_inception_5a/output_0_split
I1130 08:17:07.927822 27091 net.cpp:84] Creating Layer inception_5a/output_inception_5a/output_0_split
I1130 08:17:07.927827 27091 net.cpp:406] inception_5a/output_inception_5a/output_0_split <- inception_5a/output
I1130 08:17:07.927834 27091 net.cpp:380] inception_5a/output_inception_5a/output_0_split -> inception_5a/output_inception_5a/output_0_split_0
I1130 08:17:07.927841 27091 net.cpp:380] inception_5a/output_inception_5a/output_0_split -> inception_5a/output_inception_5a/output_0_split_1
I1130 08:17:07.927848 27091 net.cpp:380] inception_5a/output_inception_5a/output_0_split -> inception_5a/output_inception_5a/output_0_split_2
I1130 08:17:07.927856 27091 net.cpp:380] inception_5a/output_inception_5a/output_0_split -> inception_5a/output_inception_5a/output_0_split_3
I1130 08:17:07.927904 27091 net.cpp:122] Setting up inception_5a/output_inception_5a/output_0_split
I1130 08:17:07.927911 27091 net.cpp:129] Top shape: 32 832 7 7 (1304576)
I1130 08:17:07.927917 27091 net.cpp:129] Top shape: 32 832 7 7 (1304576)
I1130 08:17:07.927922 27091 net.cpp:129] Top shape: 32 832 7 7 (1304576)
I1130 08:17:07.927927 27091 net.cpp:129] Top shape: 32 832 7 7 (1304576)
I1130 08:17:07.927932 27091 net.cpp:137] Memory required for data: 1736892800
I1130 08:17:07.927935 27091 layer_factory.hpp:77] Creating layer inception_5b/1x1
I1130 08:17:07.927945 27091 net.cpp:84] Creating Layer inception_5b/1x1
I1130 08:17:07.927951 27091 net.cpp:406] inception_5b/1x1 <- inception_5a/output_inception_5a/output_0_split_0
I1130 08:17:07.927958 27091 net.cpp:380] inception_5b/1x1 -> inception_5b/1x1
I1130 08:17:07.930199 27091 net.cpp:122] Setting up inception_5b/1x1
I1130 08:17:07.930210 27091 net.cpp:129] Top shape: 32 384 7 7 (602112)
I1130 08:17:07.930214 27091 net.cpp:137] Memory required for data: 1739301248
I1130 08:17:07.930222 27091 layer_factory.hpp:77] Creating layer inception_5b/relu_1x1
I1130 08:17:07.930229 27091 net.cpp:84] Creating Layer inception_5b/relu_1x1
I1130 08:17:07.930236 27091 net.cpp:406] inception_5b/relu_1x1 <- inception_5b/1x1
I1130 08:17:07.930243 27091 net.cpp:367] inception_5b/relu_1x1 -> inception_5b/1x1 (in-place)
I1130 08:17:07.930249 27091 net.cpp:122] Setting up inception_5b/relu_1x1
I1130 08:17:07.930255 27091 net.cpp:129] Top shape: 32 384 7 7 (602112)
I1130 08:17:07.930259 27091 net.cpp:137] Memory required for data: 1741709696
I1130 08:17:07.930263 27091 layer_factory.hpp:77] Creating layer inception_5b/3x3_reduce
I1130 08:17:07.930274 27091 net.cpp:84] Creating Layer inception_5b/3x3_reduce
I1130 08:17:07.930279 27091 net.cpp:406] inception_5b/3x3_reduce <- inception_5a/output_inception_5a/output_0_split_1
I1130 08:17:07.930285 27091 net.cpp:380] inception_5b/3x3_reduce -> inception_5b/3x3_reduce
I1130 08:17:07.931637 27091 net.cpp:122] Setting up inception_5b/3x3_reduce
I1130 08:17:07.931648 27091 net.cpp:129] Top shape: 32 192 7 7 (301056)
I1130 08:17:07.931653 27091 net.cpp:137] Memory required for data: 1742913920
I1130 08:17:07.931660 27091 layer_factory.hpp:77] Creating layer inception_5b/relu_3x3_reduce
I1130 08:17:07.931668 27091 net.cpp:84] Creating Layer inception_5b/relu_3x3_reduce
I1130 08:17:07.931674 27091 net.cpp:406] inception_5b/relu_3x3_reduce <- inception_5b/3x3_reduce
I1130 08:17:07.931680 27091 net.cpp:367] inception_5b/relu_3x3_reduce -> inception_5b/3x3_reduce (in-place)
I1130 08:17:07.931689 27091 net.cpp:122] Setting up inception_5b/relu_3x3_reduce
I1130 08:17:07.931694 27091 net.cpp:129] Top shape: 32 192 7 7 (301056)
I1130 08:17:07.931699 27091 net.cpp:137] Memory required for data: 1744118144
I1130 08:17:07.931702 27091 layer_factory.hpp:77] Creating layer inception_5b/3x3
I1130 08:17:07.931712 27091 net.cpp:84] Creating Layer inception_5b/3x3
I1130 08:17:07.931720 27091 net.cpp:406] inception_5b/3x3 <- inception_5b/3x3_reduce
I1130 08:17:07.931725 27091 net.cpp:380] inception_5b/3x3 -> inception_5b/3x3
I1130 08:17:07.936076 27091 net.cpp:122] Setting up inception_5b/3x3
I1130 08:17:07.936089 27091 net.cpp:129] Top shape: 32 384 7 7 (602112)
I1130 08:17:07.936092 27091 net.cpp:137] Memory required for data: 1746526592
I1130 08:17:07.936100 27091 layer_factory.hpp:77] Creating layer inception_5b/relu_3x3
I1130 08:17:07.936108 27091 net.cpp:84] Creating Layer inception_5b/relu_3x3
I1130 08:17:07.936113 27091 net.cpp:406] inception_5b/relu_3x3 <- inception_5b/3x3
I1130 08:17:07.936121 27091 net.cpp:367] inception_5b/relu_3x3 -> inception_5b/3x3 (in-place)
I1130 08:17:07.936131 27091 net.cpp:122] Setting up inception_5b/relu_3x3
I1130 08:17:07.936136 27091 net.cpp:129] Top shape: 32 384 7 7 (602112)
I1130 08:17:07.936141 27091 net.cpp:137] Memory required for data: 1748935040
I1130 08:17:07.936143 27091 layer_factory.hpp:77] Creating layer inception_5b/5x5_reduce
I1130 08:17:07.936153 27091 net.cpp:84] Creating Layer inception_5b/5x5_reduce
I1130 08:17:07.936159 27091 net.cpp:406] inception_5b/5x5_reduce <- inception_5a/output_inception_5a/output_0_split_2
I1130 08:17:07.936167 27091 net.cpp:380] inception_5b/5x5_reduce -> inception_5b/5x5_reduce
I1130 08:17:07.936583 27091 net.cpp:122] Setting up inception_5b/5x5_reduce
I1130 08:17:07.936591 27091 net.cpp:129] Top shape: 32 48 7 7 (75264)
I1130 08:17:07.936596 27091 net.cpp:137] Memory required for data: 1749236096
I1130 08:17:07.936604 27091 layer_factory.hpp:77] Creating layer inception_5b/relu_5x5_reduce
I1130 08:17:07.936611 27091 net.cpp:84] Creating Layer inception_5b/relu_5x5_reduce
I1130 08:17:07.936616 27091 net.cpp:406] inception_5b/relu_5x5_reduce <- inception_5b/5x5_reduce
I1130 08:17:07.936622 27091 net.cpp:367] inception_5b/relu_5x5_reduce -> inception_5b/5x5_reduce (in-place)
I1130 08:17:07.936754 27091 net.cpp:122] Setting up inception_5b/relu_5x5_reduce
I1130 08:17:07.936763 27091 net.cpp:129] Top shape: 32 48 7 7 (75264)
I1130 08:17:07.936766 27091 net.cpp:137] Memory required for data: 1749537152
I1130 08:17:07.936772 27091 layer_factory.hpp:77] Creating layer inception_5b/5x5
I1130 08:17:07.936781 27091 net.cpp:84] Creating Layer inception_5b/5x5
I1130 08:17:07.936789 27091 net.cpp:406] inception_5b/5x5 <- inception_5b/5x5_reduce
I1130 08:17:07.936795 27091 net.cpp:380] inception_5b/5x5 -> inception_5b/5x5
I1130 08:17:07.937826 27091 net.cpp:122] Setting up inception_5b/5x5
I1130 08:17:07.937835 27091 net.cpp:129] Top shape: 32 128 7 7 (200704)
I1130 08:17:07.937839 27091 net.cpp:137] Memory required for data: 1750339968
I1130 08:17:07.937877 27091 layer_factory.hpp:77] Creating layer inception_5b/relu_5x5
I1130 08:17:07.937886 27091 net.cpp:84] Creating Layer inception_5b/relu_5x5
I1130 08:17:07.937893 27091 net.cpp:406] inception_5b/relu_5x5 <- inception_5b/5x5
I1130 08:17:07.937898 27091 net.cpp:367] inception_5b/relu_5x5 -> inception_5b/5x5 (in-place)
I1130 08:17:07.937906 27091 net.cpp:122] Setting up inception_5b/relu_5x5
I1130 08:17:07.937912 27091 net.cpp:129] Top shape: 32 128 7 7 (200704)
I1130 08:17:07.937916 27091 net.cpp:137] Memory required for data: 1751142784
I1130 08:17:07.937922 27091 layer_factory.hpp:77] Creating layer inception_5b/pool
I1130 08:17:07.937929 27091 net.cpp:84] Creating Layer inception_5b/pool
I1130 08:17:07.937935 27091 net.cpp:406] inception_5b/pool <- inception_5a/output_inception_5a/output_0_split_3
I1130 08:17:07.937940 27091 net.cpp:380] inception_5b/pool -> inception_5b/pool
I1130 08:17:07.937978 27091 net.cpp:122] Setting up inception_5b/pool
I1130 08:17:07.937985 27091 net.cpp:129] Top shape: 32 832 7 7 (1304576)
I1130 08:17:07.937990 27091 net.cpp:137] Memory required for data: 1756361088
I1130 08:17:07.937994 27091 layer_factory.hpp:77] Creating layer inception_5b/pool_proj
I1130 08:17:07.938004 27091 net.cpp:84] Creating Layer inception_5b/pool_proj
I1130 08:17:07.938010 27091 net.cpp:406] inception_5b/pool_proj <- inception_5b/pool
I1130 08:17:07.938019 27091 net.cpp:380] inception_5b/pool_proj -> inception_5b/pool_proj
I1130 08:17:07.939117 27091 net.cpp:122] Setting up inception_5b/pool_proj
I1130 08:17:07.939128 27091 net.cpp:129] Top shape: 32 128 7 7 (200704)
I1130 08:17:07.939133 27091 net.cpp:137] Memory required for data: 1757163904
I1130 08:17:07.939141 27091 layer_factory.hpp:77] Creating layer inception_5b/relu_pool_proj
I1130 08:17:07.939147 27091 net.cpp:84] Creating Layer inception_5b/relu_pool_proj
I1130 08:17:07.939153 27091 net.cpp:406] inception_5b/relu_pool_proj <- inception_5b/pool_proj
I1130 08:17:07.939162 27091 net.cpp:367] inception_5b/relu_pool_proj -> inception_5b/pool_proj (in-place)
I1130 08:17:07.939170 27091 net.cpp:122] Setting up inception_5b/relu_pool_proj
I1130 08:17:07.939177 27091 net.cpp:129] Top shape: 32 128 7 7 (200704)
I1130 08:17:07.939180 27091 net.cpp:137] Memory required for data: 1757966720
I1130 08:17:07.939185 27091 layer_factory.hpp:77] Creating layer inception_5b/output
I1130 08:17:07.939191 27091 net.cpp:84] Creating Layer inception_5b/output
I1130 08:17:07.939196 27091 net.cpp:406] inception_5b/output <- inception_5b/1x1
I1130 08:17:07.939201 27091 net.cpp:406] inception_5b/output <- inception_5b/3x3
I1130 08:17:07.939208 27091 net.cpp:406] inception_5b/output <- inception_5b/5x5
I1130 08:17:07.939213 27091 net.cpp:406] inception_5b/output <- inception_5b/pool_proj
I1130 08:17:07.939219 27091 net.cpp:380] inception_5b/output -> inception_5b/output
I1130 08:17:07.939242 27091 net.cpp:122] Setting up inception_5b/output
I1130 08:17:07.939250 27091 net.cpp:129] Top shape: 32 1024 7 7 (1605632)
I1130 08:17:07.939254 27091 net.cpp:137] Memory required for data: 1764389248
I1130 08:17:07.939260 27091 layer_factory.hpp:77] Creating layer pool5/7x7_s1
I1130 08:17:07.939266 27091 net.cpp:84] Creating Layer pool5/7x7_s1
I1130 08:17:07.939275 27091 net.cpp:406] pool5/7x7_s1 <- inception_5b/output
I1130 08:17:07.939280 27091 net.cpp:380] pool5/7x7_s1 -> pool5/7x7_s1
I1130 08:17:07.939302 27091 net.cpp:122] Setting up pool5/7x7_s1
I1130 08:17:07.939309 27091 net.cpp:129] Top shape: 32 1024 1 1 (32768)
I1130 08:17:07.939314 27091 net.cpp:137] Memory required for data: 1764520320
I1130 08:17:07.939319 27091 layer_factory.hpp:77] Creating layer pool5/drop_7x7_s1
I1130 08:17:07.939327 27091 net.cpp:84] Creating Layer pool5/drop_7x7_s1
I1130 08:17:07.939333 27091 net.cpp:406] pool5/drop_7x7_s1 <- pool5/7x7_s1
I1130 08:17:07.939339 27091 net.cpp:367] pool5/drop_7x7_s1 -> pool5/7x7_s1 (in-place)
I1130 08:17:07.939360 27091 net.cpp:122] Setting up pool5/drop_7x7_s1
I1130 08:17:07.939368 27091 net.cpp:129] Top shape: 32 1024 1 1 (32768)
I1130 08:17:07.939373 27091 net.cpp:137] Memory required for data: 1764651392
I1130 08:17:07.939376 27091 layer_factory.hpp:77] Creating layer fc_scv_pleasant
I1130 08:17:07.939385 27091 net.cpp:84] Creating Layer fc_scv_pleasant
I1130 08:17:07.939390 27091 net.cpp:406] fc_scv_pleasant <- pool5/7x7_s1
I1130 08:17:07.939398 27091 net.cpp:380] fc_scv_pleasant -> fc_scv_pleasant
I1130 08:17:07.939492 27091 net.cpp:122] Setting up fc_scv_pleasant
I1130 08:17:07.939501 27091 net.cpp:129] Top shape: 32 1 (32)
I1130 08:17:07.939505 27091 net.cpp:137] Memory required for data: 1764651520
I1130 08:17:07.939513 27091 layer_factory.hpp:77] Creating layer fc_scv_pleasant_fc_scv_pleasant_0_split
I1130 08:17:07.939520 27091 net.cpp:84] Creating Layer fc_scv_pleasant_fc_scv_pleasant_0_split
I1130 08:17:07.939527 27091 net.cpp:406] fc_scv_pleasant_fc_scv_pleasant_0_split <- fc_scv_pleasant
I1130 08:17:07.939533 27091 net.cpp:380] fc_scv_pleasant_fc_scv_pleasant_0_split -> fc_scv_pleasant_fc_scv_pleasant_0_split_0
I1130 08:17:07.939540 27091 net.cpp:380] fc_scv_pleasant_fc_scv_pleasant_0_split -> fc_scv_pleasant_fc_scv_pleasant_0_split_1
I1130 08:17:07.939576 27091 net.cpp:122] Setting up fc_scv_pleasant_fc_scv_pleasant_0_split
I1130 08:17:07.939584 27091 net.cpp:129] Top shape: 32 1 (32)
I1130 08:17:07.939589 27091 net.cpp:129] Top shape: 32 1 (32)
I1130 08:17:07.939594 27091 net.cpp:137] Memory required for data: 1764651776
I1130 08:17:07.939597 27091 layer_factory.hpp:77] Creating layer loss
I1130 08:17:07.939604 27091 net.cpp:84] Creating Layer loss
I1130 08:17:07.939611 27091 net.cpp:406] loss <- fc_scv_pleasant_fc_scv_pleasant_0_split_0
I1130 08:17:07.939616 27091 net.cpp:406] loss <- label_data_1_split_0
I1130 08:17:07.939623 27091 net.cpp:380] loss -> loss
…
