…
I1206 17:23:48.304318 27155 net.cpp:294] The NetState phase (0) differed from the phase (1) specified by a rule in layer losttest
I1206 17:23:48.304818 27155 net.cpp:51] Initializing net from parameters: 
name: "VGG-Places365-SCV-Wealthy"
state {
  phase: TRAIN
  level: 0
  stage: ""
}
layer {
  name: "data"
  type: "Data"
  top: "data"
  top: "label"
  include {
    phase: TRAIN
  }
  transform_param {
    mirror: true
    crop_size: 224
    mean_file: "/idiap/temp/lmedina/fine-tuning/vgg16_places365/places365CNN_mean.binaryproto"
  }
  data_param {
    source: "/idiap/temp/lmedina/fine-tuning/data/Wealthy/train_lmdb"
    batch_size: 16
    backend: LMDB
  }
}
layer {
  name: "conv1_1"
  type: "Convolution"
  bottom: "data"
  top: "conv1_1"
  param {
    lr_mult: 1
    decay_mult: 1
  }
  param {
    lr_mult: 2
    decay_mult: 0
  }
  convolution_param {
    num_output: 64
    pad: 1
    kernel_size: 3
    weight_filler {
      type: "gaussian"
      std: 0.01
    }
    bias_filler {
      type: "constant"
      value: 0
    }
  }
}
layer {
  name: "relu1_1"
  type: "ReLU"
  bottom: "conv1_1"
  top: "conv1_1"
}
layer {
  name: "conv1_2"
  type: "Convolution"
  bottom: "conv1_1"
  top: "conv1_2"
  param {
    lr_mult: 1
    decay_mult: 1
  }
  param {
    lr_mult: 2
    decay_mult: 0
  }
  convolution_param {
    num_output: 64
    pad: 1
    kernel_size: 3
    weight_filler {
      type: "gaussian"
      std: 0.01
    }
    bias_filler {
      type: "constant"
      value: 0
    }
  }
}
layer {
  name: "relu1_2"
  type: "ReLU"
  bottom: "conv1_2"
  top: "conv1_2"
}
layer {
  name: "pool1"
  type: "Pooling"
  bottom: "conv1_2"
  top: "pool1"
  pooling_param {
    pool: MAX
    kernel_size: 2
    stride: 2
  }
}
layer {
  name: "conv2_1"
  type: "Convolution"
  bottom: "pool1"
  top: "conv2_1"
  param {
    lr_mult: 1
    decay_mult: 1
  }
  param {
    lr_mult: 2
    decay_mult: 0
  }
  convolution_param {
    num_output: 128
    pad: 1
    kernel_size: 3
    weight_filler {
      type: "gaussian"
      std: 0.01
    }
    bias_filler {
      type: "constant"
      value: 0
    }
  }
}
layer {
  name: "relu2_1"
  type: "ReLU"
  bottom: "conv2_1"
  top: "conv2_1"
}
layer {
  name: "conv2_2"
  type: "Convolution"
  bottom: "conv2_1"
  top: "conv2_2"
  param {
    lr_mult: 1
    decay_mult: 1
  }
  param {
    lr_mult: 2
    decay_mult: 0
  }
  convolution_param {
    num_output: 128
    pad: 1
    kernel_size: 3
    weight_filler {
      type: "gaussian"
      std: 0.01
    }
    bias_filler {
      type: "constant"
      value: 0
    }
  }
}
layer {
  name: "relu2_2"
  type: "ReLU"
  bottom: "conv2_2"
  top: "conv2_2"
}
layer {
  name: "pool2"
  type: "Pooling"
  bottom: "conv2_2"
  top: "pool2"
  pooling_param {
    pool: MAX
    kernel_size: 2
    stride: 2
  }
}
layer {
  name: "conv3_1"
  type: "Convolution"
  bottom: "pool2"
  top: "conv3_1"
  param {
    lr_mult: 1
    decay_mult: 1
  }
  param {
    lr_mult: 2
    decay_mult: 0
  }
  convolution_param {
    num_output: 256
    pad: 1
    kernel_size: 3
    weight_filler {
      type: "gaussian"
      std: 0.01
    }
    bias_filler {
      type: "constant"
      value: 0
    }
  }
}
layer {
  name: "relu3_1"
  type: "ReLU"
  bottom: "conv3_1"
  top: "conv3_1"
}
layer {
  name: "conv3_2"
  type: "Convolution"
  bottom: "conv3_1"
  top: "conv3_2"
  param {
    lr_mult: 1
    decay_mult: 1
  }
  param {
    lr_mult: 2
    decay_mult: 0
  }
  convolution_param {
    num_output: 256
    pad: 1
    kernel_size: 3
    weight_filler {
      type: "gaussian"
      std: 0.01
    }
    bias_filler {
      type: "constant"
      value: 0
    }
  }
}
layer {
  name: "relu3_2"
  type: "ReLU"
  bottom: "conv3_2"
  top: "conv3_2"
}
layer {
  name: "conv3_3"
  type: "Convolution"
  bottom: "conv3_2"
  top: "conv3_3"
  param {
    lr_mult: 1
    decay_mult: 1
  }
  param {
    lr_mult: 2
    decay_mult: 0
  }
  convolution_param {
    num_output: 256
    pad: 1
    kernel_size: 3
    weight_filler {
      type: "gaussian"
      std: 0.01
    }
    bias_filler {
      type: "constant"
      value: 0
    }
  }
}
layer {
  name: "relu3_3"
  type: "ReLU"
  bottom: "conv3_3"
  top: "conv3_3"
}
layer {
  name: "pool3"
  type: "Pooling"
  bottom: "conv3_3"
  top: "pool3"
  pooling_param {
    pool: MAX
    kernel_size: 2
    stride: 2
  }
}
layer {
  name: "conv4_1"
  type: "Convolution"
  bottom: "pool3"
  top: "conv4_1"
  param {
    lr_mult: 1
    decay_mult: 1
  }
  param {
    lr_mult: 2
    decay_mult: 0
  }
  convolution_param {
    num_output: 512
    pad: 1
    kernel_size: 3
    weight_filler {
      type: "gaussian"
      std: 0.01
    }
    bias_filler {
      type: "constant"
      value: 0
    }
  }
}
layer {
  name: "relu4_1"
  type: "ReLU"
  bottom: "conv4_1"
  top: "conv4_1"
}
layer {
  name: "conv4_2"
  type: "Convolution"
  bottom: "conv4_1"
  top: "conv4_2"
  param {
    lr_mult: 1
    decay_mult: 1
  }
  param {
    lr_mult: 2
    decay_mult: 0
  }
  convolution_param {
    num_output: 512
    pad: 1
    kernel_size: 3
    weight_filler {
      type: "gaussian"
      std: 0.01
    }
    bias_filler {
      type: "constant"
      value: 0
    }
  }
}
layer {
  name: "relu4_2"
  type: "ReLU"
  bottom: "conv4_2"
  top: "conv4_2"
}
layer {
  name: "conv4_3"
  type: "Convolution"
  bottom: "conv4_2"
  top: "conv4_3"
  param {
    lr_mult: 1
    decay_mult: 1
  }
  param {
    lr_mult: 2
    decay_mult: 0
  }
  convolution_param {
    num_output: 512
    pad: 1
    kernel_size: 3
    weight_filler {
      type: "gaussian"
      std: 0.01
    }
    bias_filler {
      type: "constant"
      value: 0
    }
  }
}
layer {
  name: "relu4_3"
  type: "ReLU"
  bottom: "conv4_3"
  top: "conv4_3"
}
layer {
  name: "pool4"
  type: "Pooling"
  bottom: "conv4_3"
  top: "pool4"
  pooling_param {
    pool: MAX
    kernel_size: 2
    stride: 2
  }
}
layer {
  name: "conv5_1"
  type: "Convolution"
  bottom: "pool4"
  top: "conv5_1"
  param {
    lr_mult: 1
    decay_mult: 1
  }
  param {
    lr_mult: 2
    decay_mult: 0
  }
  convolution_param {
    num_output: 512
    pad: 1
    kernel_size: 3
    weight_filler {
      type: "gaussian"
      std: 0.01
    }
    bias_filler {
      type: "constant"
      value: 0
    }
  }
}
layer {
  name: "relu5_1"
  type: "ReLU"
  bottom: "conv5_1"
  top: "conv5_1"
}
layer {
  name: "conv5_2"
  type: "Convolution"
  bottom: "conv5_1"
  top: "conv5_2"
  param {
    lr_mult: 1
    decay_mult: 1
  }
  param {
    lr_mult: 2
    decay_mult: 0
  }
  convolution_param {
    num_output: 512
    pad: 1
    kernel_size: 3
    weight_filler {
      type: "gaussian"
      std: 0.01
    }
    bias_filler {
      type: "constant"
      value: 0
    }
  }
}
layer {
  name: "relu5_2"
  type: "ReLU"
  bottom: "conv5_2"
  top: "conv5_2"
}
layer {
  name: "conv5_3"
  type: "Convolution"
  bottom: "conv5_2"
  top: "conv5_3"
  param {
    lr_mult: 1
    decay_mult: 1
  }
  param {
    lr_mult: 2
    decay_mult: 0
  }
  convolution_param {
    num_output: 512
    pad: 1
    kernel_size: 3
    weight_filler {
      type: "gaussian"
      std: 0.01
    }
    bias_filler {
      type: "constant"
      value: 0
    }
  }
}
layer {
  name: "relu5_3"
  type: "ReLU"
  bottom: "conv5_3"
  top: "conv5_3"
}
layer {
  name: "pool5"
  type: "Pooling"
  bottom: "conv5_3"
  top: "pool5"
  pooling_param {
    pool: MAX
    kernel_size: 2
    stride: 2
  }
}
layer {
  name: "fc6"
  type: "InnerProduct"
  bottom: "pool5"
  top: "fc6"
  param {
    lr_mult: 1
    decay_mult: 1
  }
  param {
    lr_mult: 2
    decay_mult: 0
  }
  inner_product_param {
    num_output: 4096
    weight_filler {
      type: "gaussian"
      std: 0.01
    }
    bias_filler {
      type: "constant"
      value: 0
    }
  }
}
layer {
  name: "relu6"
  type: "ReLU"
  bottom: "fc6"
  top: "fc6"
}
layer {
  name: "drop6"
  type: "Dropout"
  bottom: "fc6"
  top: "fc6"
  dropout_param {
    dropout_ratio: 0.5
  }
}
layer {
  name: "fc7"
  type: "InnerProduct"
  bottom: "fc6"
  top: "fc7"
  param {
    lr_mult: 1
    decay_mult: 1
  }
  param {
    lr_mult: 2
    decay_mult: 0
  }
  inner_product_param {
    num_output: 4096
    weight_filler {
      type: "gaussian"
      std: 0.01
    }
    bias_filler {
      type: "constant"
      value: 0
    }
  }
}
layer {
  name: "relu7"
  type: "ReLU"
  bottom: "fc7"
  top: "fc7"
}
layer {
  name: "drop7"
  type: "Dropout"
  bottom: "fc7"
  top: "fc7"
  dropout_param {
    dropout_ratio: 0.5
  }
}
layer {
  name: "fc_scv_wealthy"
  type: "InnerProduct"
  bottom: "fc7"
  top: "fc_scv_wealthy"
  param {
    lr_mult: 10
    decay_mult: 1
  }
  param {
    lr_mult: 20
    decay_mult: 0
  }
  inner_product_param {
    num_output: 1
    weight_filler {
      type: "xavier"
      std: 0.01
    }
    bias_filler {
      type: "constant"
      value: 0
    }
  }
}
layer {
  name: "loss"
  type: "EuclideanLoss"
  bottom: "fc_scv_wealthy"
  bottom: "label"
  top: "loss"
}
I1206 17:23:48.305128 27155 layer_factory.hpp:77] Creating layer data
I1206 17:23:48.322926 27155 db_lmdb.cpp:35] Opened lmdb /idiap/temp/lmedina/fine-tuning/data/Wealthy/train_lmdb
I1206 17:23:48.338325 27155 net.cpp:84] Creating Layer data
I1206 17:23:48.338358 27155 net.cpp:380] data -> data
I1206 17:23:48.338430 27155 net.cpp:380] data -> label
I1206 17:23:48.338492 27155 data_transformer.cpp:25] Loading mean file from: /idiap/temp/lmedina/fine-tuning/vgg16_places365/places365CNN_mean.binaryproto
I1206 17:23:48.358726 27155 data_layer.cpp:45] output data size: 16,3,224,224
I1206 17:23:48.401558 27155 net.cpp:122] Setting up data
I1206 17:23:48.401607 27155 net.cpp:129] Top shape: 16 3 224 224 (2408448)
I1206 17:23:48.401679 27155 net.cpp:129] Top shape: 16 (16)
I1206 17:23:48.401693 27155 net.cpp:137] Memory required for data: 9633856
I1206 17:23:48.401715 27155 layer_factory.hpp:77] Creating layer conv1_1
I1206 17:23:48.401747 27155 net.cpp:84] Creating Layer conv1_1
I1206 17:23:48.401760 27155 net.cpp:406] conv1_1 <- data
I1206 17:23:48.401782 27155 net.cpp:380] conv1_1 -> conv1_1
I1206 17:23:48.403481 27155 net.cpp:122] Setting up conv1_1
I1206 17:23:48.403502 27155 net.cpp:129] Top shape: 16 64 224 224 (51380224)
I1206 17:23:48.403512 27155 net.cpp:137] Memory required for data: 215154752
I1206 17:23:48.403534 27155 layer_factory.hpp:77] Creating layer relu1_1
I1206 17:23:48.403551 27155 net.cpp:84] Creating Layer relu1_1
I1206 17:23:48.403561 27155 net.cpp:406] relu1_1 <- conv1_1
I1206 17:23:48.403573 27155 net.cpp:367] relu1_1 -> conv1_1 (in-place)
I1206 17:23:48.403589 27155 net.cpp:122] Setting up relu1_1
I1206 17:23:48.403599 27155 net.cpp:129] Top shape: 16 64 224 224 (51380224)
I1206 17:23:48.403630 27155 net.cpp:137] Memory required for data: 420675648
I1206 17:23:48.403640 27155 layer_factory.hpp:77] Creating layer conv1_2
I1206 17:23:48.403656 27155 net.cpp:84] Creating Layer conv1_2
I1206 17:23:48.403666 27155 net.cpp:406] conv1_2 <- conv1_1
I1206 17:23:48.403679 27155 net.cpp:380] conv1_2 -> conv1_2
I1206 17:23:48.405303 27155 net.cpp:122] Setting up conv1_2
I1206 17:23:48.405323 27155 net.cpp:129] Top shape: 16 64 224 224 (51380224)
I1206 17:23:48.405333 27155 net.cpp:137] Memory required for data: 626196544
I1206 17:23:48.405349 27155 layer_factory.hpp:77] Creating layer relu1_2
I1206 17:23:48.405364 27155 net.cpp:84] Creating Layer relu1_2
I1206 17:23:48.405374 27155 net.cpp:406] relu1_2 <- conv1_2
I1206 17:23:48.405390 27155 net.cpp:367] relu1_2 -> conv1_2 (in-place)
I1206 17:23:48.405403 27155 net.cpp:122] Setting up relu1_2
I1206 17:23:48.405414 27155 net.cpp:129] Top shape: 16 64 224 224 (51380224)
I1206 17:23:48.405423 27155 net.cpp:137] Memory required for data: 831717440
I1206 17:23:48.405432 27155 layer_factory.hpp:77] Creating layer pool1
I1206 17:23:48.405447 27155 net.cpp:84] Creating Layer pool1
I1206 17:23:48.405457 27155 net.cpp:406] pool1 <- conv1_2
I1206 17:23:48.405468 27155 net.cpp:380] pool1 -> pool1
I1206 17:23:48.405521 27155 net.cpp:122] Setting up pool1
I1206 17:23:48.405534 27155 net.cpp:129] Top shape: 16 64 112 112 (12845056)
I1206 17:23:48.405545 27155 net.cpp:137] Memory required for data: 883097664
I1206 17:23:48.405556 27155 layer_factory.hpp:77] Creating layer conv2_1
I1206 17:23:48.405572 27155 net.cpp:84] Creating Layer conv2_1
I1206 17:23:48.405582 27155 net.cpp:406] conv2_1 <- pool1
I1206 17:23:48.405594 27155 net.cpp:380] conv2_1 -> conv2_1
I1206 17:23:48.408025 27155 net.cpp:122] Setting up conv2_1
I1206 17:23:48.408047 27155 net.cpp:129] Top shape: 16 128 112 112 (25690112)
I1206 17:23:48.408056 27155 net.cpp:137] Memory required for data: 985858112
I1206 17:23:48.408102 27155 layer_factory.hpp:77] Creating layer relu2_1
I1206 17:23:48.408118 27155 net.cpp:84] Creating Layer relu2_1
I1206 17:23:48.408128 27155 net.cpp:406] relu2_1 <- conv2_1
I1206 17:23:48.408140 27155 net.cpp:367] relu2_1 -> conv2_1 (in-place)
I1206 17:23:48.408191 27155 net.cpp:122] Setting up relu2_1
I1206 17:23:48.408205 27155 net.cpp:129] Top shape: 16 128 112 112 (25690112)
I1206 17:23:48.408213 27155 net.cpp:137] Memory required for data: 1088618560
I1206 17:23:48.408223 27155 layer_factory.hpp:77] Creating layer conv2_2
I1206 17:23:48.408524 27155 net.cpp:84] Creating Layer conv2_2
I1206 17:23:48.408540 27155 net.cpp:406] conv2_2 <- conv2_1
I1206 17:23:48.408555 27155 net.cpp:380] conv2_2 -> conv2_2
I1206 17:23:48.411981 27155 net.cpp:122] Setting up conv2_2
I1206 17:23:48.412003 27155 net.cpp:129] Top shape: 16 128 112 112 (25690112)
I1206 17:23:48.412014 27155 net.cpp:137] Memory required for data: 1191379008
I1206 17:23:48.412027 27155 layer_factory.hpp:77] Creating layer relu2_2
I1206 17:23:48.412040 27155 net.cpp:84] Creating Layer relu2_2
I1206 17:23:48.412051 27155 net.cpp:406] relu2_2 <- conv2_2
I1206 17:23:48.412063 27155 net.cpp:367] relu2_2 -> conv2_2 (in-place)
I1206 17:23:48.412076 27155 net.cpp:122] Setting up relu2_2
I1206 17:23:48.412087 27155 net.cpp:129] Top shape: 16 128 112 112 (25690112)
I1206 17:23:48.412096 27155 net.cpp:137] Memory required for data: 1294139456
I1206 17:23:48.412106 27155 layer_factory.hpp:77] Creating layer pool2
I1206 17:23:48.412119 27155 net.cpp:84] Creating Layer pool2
I1206 17:23:48.412128 27155 net.cpp:406] pool2 <- conv2_2
I1206 17:23:48.412140 27155 net.cpp:380] pool2 -> pool2
I1206 17:23:48.412184 27155 net.cpp:122] Setting up pool2
I1206 17:23:48.412197 27155 net.cpp:129] Top shape: 16 128 56 56 (6422528)
I1206 17:23:48.412206 27155 net.cpp:137] Memory required for data: 1319829568
I1206 17:23:48.412216 27155 layer_factory.hpp:77] Creating layer conv3_1
I1206 17:23:48.412231 27155 net.cpp:84] Creating Layer conv3_1
I1206 17:23:48.412241 27155 net.cpp:406] conv3_1 <- pool2
I1206 17:23:48.412255 27155 net.cpp:380] conv3_1 -> conv3_1
I1206 17:23:48.416193 27155 net.cpp:122] Setting up conv3_1
I1206 17:23:48.416218 27155 net.cpp:129] Top shape: 16 256 56 56 (12845056)
I1206 17:23:48.416227 27155 net.cpp:137] Memory required for data: 1371209792
I1206 17:23:48.416245 27155 layer_factory.hpp:77] Creating layer relu3_1
I1206 17:23:48.416260 27155 net.cpp:84] Creating Layer relu3_1
I1206 17:23:48.416270 27155 net.cpp:406] relu3_1 <- conv3_1
I1206 17:23:48.416281 27155 net.cpp:367] relu3_1 -> conv3_1 (in-place)
I1206 17:23:48.416296 27155 net.cpp:122] Setting up relu3_1
I1206 17:23:48.416306 27155 net.cpp:129] Top shape: 16 256 56 56 (12845056)
I1206 17:23:48.416316 27155 net.cpp:137] Memory required for data: 1422590016
I1206 17:23:48.416324 27155 layer_factory.hpp:77] Creating layer conv3_2
I1206 17:23:48.416347 27155 net.cpp:84] Creating Layer conv3_2
I1206 17:23:48.416357 27155 net.cpp:406] conv3_2 <- conv3_1
I1206 17:23:48.416368 27155 net.cpp:380] conv3_2 -> conv3_2
I1206 17:23:48.426606 27155 net.cpp:122] Setting up conv3_2
I1206 17:23:48.426630 27155 net.cpp:129] Top shape: 16 256 56 56 (12845056)
I1206 17:23:48.426640 27155 net.cpp:137] Memory required for data: 1473970240
I1206 17:23:48.426653 27155 layer_factory.hpp:77] Creating layer relu3_2
I1206 17:23:48.426666 27155 net.cpp:84] Creating Layer relu3_2
I1206 17:23:48.426676 27155 net.cpp:406] relu3_2 <- conv3_2
I1206 17:23:48.426689 27155 net.cpp:367] relu3_2 -> conv3_2 (in-place)
I1206 17:23:48.426702 27155 net.cpp:122] Setting up relu3_2
I1206 17:23:48.426713 27155 net.cpp:129] Top shape: 16 256 56 56 (12845056)
I1206 17:23:48.426723 27155 net.cpp:137] Memory required for data: 1525350464
I1206 17:23:48.426731 27155 layer_factory.hpp:77] Creating layer conv3_3
I1206 17:23:48.426746 27155 net.cpp:84] Creating Layer conv3_3
I1206 17:23:48.426756 27155 net.cpp:406] conv3_3 <- conv3_2
I1206 17:23:48.426769 27155 net.cpp:380] conv3_3 -> conv3_3
I1206 17:23:48.435539 27155 net.cpp:122] Setting up conv3_3
I1206 17:23:48.435837 27155 net.cpp:129] Top shape: 16 256 56 56 (12845056)
I1206 17:23:48.435850 27155 net.cpp:137] Memory required for data: 1576730688
I1206 17:23:48.435864 27155 layer_factory.hpp:77] Creating layer relu3_3
I1206 17:23:48.435937 27155 net.cpp:84] Creating Layer relu3_3
I1206 17:23:48.435994 27155 net.cpp:406] relu3_3 <- conv3_3
I1206 17:23:48.436008 27155 net.cpp:367] relu3_3 -> conv3_3 (in-place)
I1206 17:23:48.436022 27155 net.cpp:122] Setting up relu3_3
I1206 17:23:48.436074 27155 net.cpp:129] Top shape: 16 256 56 56 (12845056)
I1206 17:23:48.436084 27155 net.cpp:137] Memory required for data: 1628110912
I1206 17:23:48.436094 27155 layer_factory.hpp:77] Creating layer pool3
I1206 17:23:48.436106 27155 net.cpp:84] Creating Layer pool3
I1206 17:23:48.436161 27155 net.cpp:406] pool3 <- conv3_3
I1206 17:23:48.436174 27155 net.cpp:380] pool3 -> pool3
I1206 17:23:48.436410 27155 net.cpp:122] Setting up pool3
I1206 17:23:48.436426 27155 net.cpp:129] Top shape: 16 256 28 28 (3211264)
I1206 17:23:48.436436 27155 net.cpp:137] Memory required for data: 1640955968
I1206 17:23:48.436501 27155 layer_factory.hpp:77] Creating layer conv4_1
I1206 17:23:48.436518 27155 net.cpp:84] Creating Layer conv4_1
I1206 17:23:48.436578 27155 net.cpp:406] conv4_1 <- pool3
I1206 17:23:48.436591 27155 net.cpp:380] conv4_1 -> conv4_1
I1206 17:23:48.459990 27155 net.cpp:122] Setting up conv4_1
I1206 17:23:48.460011 27155 net.cpp:129] Top shape: 16 512 28 28 (6422528)
I1206 17:23:48.460021 27155 net.cpp:137] Memory required for data: 1666646080
I1206 17:23:48.460034 27155 layer_factory.hpp:77] Creating layer relu4_1
I1206 17:23:48.460048 27155 net.cpp:84] Creating Layer relu4_1
I1206 17:23:48.460058 27155 net.cpp:406] relu4_1 <- conv4_1
I1206 17:23:48.460070 27155 net.cpp:367] relu4_1 -> conv4_1 (in-place)
I1206 17:23:48.460084 27155 net.cpp:122] Setting up relu4_1
I1206 17:23:48.460095 27155 net.cpp:129] Top shape: 16 512 28 28 (6422528)
I1206 17:23:48.460104 27155 net.cpp:137] Memory required for data: 1692336192
I1206 17:23:48.460114 27155 layer_factory.hpp:77] Creating layer conv4_2
I1206 17:23:48.460129 27155 net.cpp:84] Creating Layer conv4_2
I1206 17:23:48.460139 27155 net.cpp:406] conv4_2 <- conv4_1
I1206 17:23:48.460151 27155 net.cpp:380] conv4_2 -> conv4_2
I1206 17:23:48.499990 27155 net.cpp:122] Setting up conv4_2
I1206 17:23:48.500016 27155 net.cpp:129] Top shape: 16 512 28 28 (6422528)
I1206 17:23:48.500058 27155 net.cpp:137] Memory required for data: 1718026304
I1206 17:23:48.500080 27155 layer_factory.hpp:77] Creating layer relu4_2
I1206 17:23:48.500095 27155 net.cpp:84] Creating Layer relu4_2
I1206 17:23:48.500150 27155 net.cpp:406] relu4_2 <- conv4_2
I1206 17:23:48.500169 27155 net.cpp:367] relu4_2 -> conv4_2 (in-place)
I1206 17:23:48.500185 27155 net.cpp:122] Setting up relu4_2
I1206 17:23:48.500243 27155 net.cpp:129] Top shape: 16 512 28 28 (6422528)
I1206 17:23:48.500263 27155 net.cpp:137] Memory required for data: 1743716416
I1206 17:23:48.500311 27155 layer_factory.hpp:77] Creating layer conv4_3
I1206 17:23:48.500329 27155 net.cpp:84] Creating Layer conv4_3
I1206 17:23:48.500339 27155 net.cpp:406] conv4_3 <- conv4_2
I1206 17:23:48.500406 27155 net.cpp:380] conv4_3 -> conv4_3
I1206 17:23:48.540683 27155 net.cpp:122] Setting up conv4_3
I1206 17:23:48.540710 27155 net.cpp:129] Top shape: 16 512 28 28 (6422528)
I1206 17:23:48.540745 27155 net.cpp:137] Memory required for data: 1769406528
I1206 17:23:48.540761 27155 layer_factory.hpp:77] Creating layer relu4_3
I1206 17:23:48.540776 27155 net.cpp:84] Creating Layer relu4_3
I1206 17:23:48.540789 27155 net.cpp:406] relu4_3 <- conv4_3
I1206 17:23:48.540804 27155 net.cpp:367] relu4_3 -> conv4_3 (in-place)
I1206 17:23:48.540822 27155 net.cpp:122] Setting up relu4_3
I1206 17:23:48.540833 27155 net.cpp:129] Top shape: 16 512 28 28 (6422528)
I1206 17:23:48.540845 27155 net.cpp:137] Memory required for data: 1795096640
I1206 17:23:48.540855 27155 layer_factory.hpp:77] Creating layer pool4
I1206 17:23:48.540871 27155 net.cpp:84] Creating Layer pool4
I1206 17:23:48.540882 27155 net.cpp:406] pool4 <- conv4_3
I1206 17:23:48.540897 27155 net.cpp:380] pool4 -> pool4
I1206 17:23:48.540946 27155 net.cpp:122] Setting up pool4
I1206 17:23:48.540962 27155 net.cpp:129] Top shape: 16 512 14 14 (1605632)
I1206 17:23:48.540973 27155 net.cpp:137] Memory required for data: 1801519168
I1206 17:23:48.540984 27155 layer_factory.hpp:77] Creating layer conv5_1
I1206 17:23:48.541003 27155 net.cpp:84] Creating Layer conv5_1
I1206 17:23:48.541015 27155 net.cpp:406] conv5_1 <- pool4
I1206 17:23:48.541030 27155 net.cpp:380] conv5_1 -> conv5_1
I1206 17:23:48.570533 27155 net.cpp:122] Setting up conv5_1
I1206 17:23:48.570571 27155 net.cpp:129] Top shape: 16 512 14 14 (1605632)
I1206 17:23:48.570582 27155 net.cpp:137] Memory required for data: 1807941696
I1206 17:23:48.570600 27155 layer_factory.hpp:77] Creating layer relu5_1
I1206 17:23:48.570617 27155 net.cpp:84] Creating Layer relu5_1
I1206 17:23:48.570644 27155 net.cpp:406] relu5_1 <- conv5_1
I1206 17:23:48.570660 27155 net.cpp:367] relu5_1 -> conv5_1 (in-place)
I1206 17:23:48.570677 27155 net.cpp:122] Setting up relu5_1
I1206 17:23:48.570689 27155 net.cpp:129] Top shape: 16 512 14 14 (1605632)
I1206 17:23:48.570705 27155 net.cpp:137] Memory required for data: 1814364224
I1206 17:23:48.570716 27155 layer_factory.hpp:77] Creating layer conv5_2
I1206 17:23:48.570734 27155 net.cpp:84] Creating Layer conv5_2
I1206 17:23:48.570758 27155 net.cpp:406] conv5_2 <- conv5_1
I1206 17:23:48.570773 27155 net.cpp:380] conv5_2 -> conv5_2
I1206 17:23:48.597091 27155 net.cpp:122] Setting up conv5_2
I1206 17:23:48.597118 27155 net.cpp:129] Top shape: 16 512 14 14 (1605632)
I1206 17:23:48.597129 27155 net.cpp:137] Memory required for data: 1820786752
I1206 17:23:48.597143 27155 layer_factory.hpp:77] Creating layer relu5_2
I1206 17:23:48.597159 27155 net.cpp:84] Creating Layer relu5_2
I1206 17:23:48.597172 27155 net.cpp:406] relu5_2 <- conv5_2
I1206 17:23:48.597187 27155 net.cpp:367] relu5_2 -> conv5_2 (in-place)
I1206 17:23:48.597203 27155 net.cpp:122] Setting up relu5_2
I1206 17:23:48.597214 27155 net.cpp:129] Top shape: 16 512 14 14 (1605632)
I1206 17:23:48.597224 27155 net.cpp:137] Memory required for data: 1827209280
I1206 17:23:48.597234 27155 layer_factory.hpp:77] Creating layer conv5_3
I1206 17:23:48.597254 27155 net.cpp:84] Creating Layer conv5_3
I1206 17:23:48.597265 27155 net.cpp:406] conv5_3 <- conv5_2
I1206 17:23:48.597278 27155 net.cpp:380] conv5_3 -> conv5_3
I1206 17:23:48.622544 27155 net.cpp:122] Setting up conv5_3
I1206 17:23:48.622568 27155 net.cpp:129] Top shape: 16 512 14 14 (1605632)
I1206 17:23:48.622578 27155 net.cpp:137] Memory required for data: 1833631808
I1206 17:23:48.622592 27155 layer_factory.hpp:77] Creating layer relu5_3
I1206 17:23:48.622606 27155 net.cpp:84] Creating Layer relu5_3
I1206 17:23:48.622618 27155 net.cpp:406] relu5_3 <- conv5_3
I1206 17:23:48.622637 27155 net.cpp:367] relu5_3 -> conv5_3 (in-place)
I1206 17:23:48.622653 27155 net.cpp:122] Setting up relu5_3
I1206 17:23:48.622664 27155 net.cpp:129] Top shape: 16 512 14 14 (1605632)
I1206 17:23:48.622674 27155 net.cpp:137] Memory required for data: 1840054336
I1206 17:23:48.622684 27155 layer_factory.hpp:77] Creating layer pool5
I1206 17:23:48.622702 27155 net.cpp:84] Creating Layer pool5
I1206 17:23:48.622712 27155 net.cpp:406] pool5 <- conv5_3
I1206 17:23:48.622725 27155 net.cpp:380] pool5 -> pool5
I1206 17:23:48.622774 27155 net.cpp:122] Setting up pool5
I1206 17:23:48.622792 27155 net.cpp:129] Top shape: 16 512 7 7 (401408)
I1206 17:23:48.622802 27155 net.cpp:137] Memory required for data: 1841659968
I1206 17:23:48.622812 27155 layer_factory.hpp:77] Creating layer fc6
I1206 17:23:48.622838 27155 net.cpp:84] Creating Layer fc6
I1206 17:23:48.622849 27155 net.cpp:406] fc6 <- pool5
I1206 17:23:48.622864 27155 net.cpp:380] fc6 -> fc6
I1206 17:23:49.938129 27155 net.cpp:122] Setting up fc6
I1206 17:23:49.938199 27155 net.cpp:129] Top shape: 16 4096 (65536)
I1206 17:23:49.938211 27155 net.cpp:137] Memory required for data: 1841922112
I1206 17:23:49.938230 27155 layer_factory.hpp:77] Creating layer relu6
I1206 17:23:49.938249 27155 net.cpp:84] Creating Layer relu6
I1206 17:23:49.938262 27155 net.cpp:406] relu6 <- fc6
I1206 17:23:49.938277 27155 net.cpp:367] relu6 -> fc6 (in-place)
I1206 17:23:49.938295 27155 net.cpp:122] Setting up relu6
I1206 17:23:49.938308 27155 net.cpp:129] Top shape: 16 4096 (65536)
I1206 17:23:49.938316 27155 net.cpp:137] Memory required for data: 1842184256
I1206 17:23:49.938326 27155 layer_factory.hpp:77] Creating layer drop6
I1206 17:23:49.938341 27155 net.cpp:84] Creating Layer drop6
I1206 17:23:49.938369 27155 net.cpp:406] drop6 <- fc6
I1206 17:23:49.938382 27155 net.cpp:367] drop6 -> fc6 (in-place)
I1206 17:23:49.938419 27155 net.cpp:122] Setting up drop6
I1206 17:23:49.938436 27155 net.cpp:129] Top shape: 16 4096 (65536)
I1206 17:23:49.938446 27155 net.cpp:137] Memory required for data: 1842446400
I1206 17:23:49.938457 27155 layer_factory.hpp:77] Creating layer fc7
I1206 17:23:49.938477 27155 net.cpp:84] Creating Layer fc7
I1206 17:23:49.938498 27155 net.cpp:406] fc7 <- fc6
I1206 17:23:49.938515 27155 net.cpp:380] fc7 -> fc7
I1206 17:23:50.127456 27155 net.cpp:122] Setting up fc7
I1206 17:23:50.127513 27155 net.cpp:129] Top shape: 16 4096 (65536)
I1206 17:23:50.127524 27155 net.cpp:137] Memory required for data: 1842708544
I1206 17:23:50.127543 27155 layer_factory.hpp:77] Creating layer relu7
I1206 17:23:50.127562 27155 net.cpp:84] Creating Layer relu7
I1206 17:23:50.127575 27155 net.cpp:406] relu7 <- fc7
I1206 17:23:50.127591 27155 net.cpp:367] relu7 -> fc7 (in-place)
I1206 17:23:50.127609 27155 net.cpp:122] Setting up relu7
I1206 17:23:50.127622 27155 net.cpp:129] Top shape: 16 4096 (65536)
I1206 17:23:50.127632 27155 net.cpp:137] Memory required for data: 1842970688
I1206 17:23:50.127643 27155 layer_factory.hpp:77] Creating layer drop7
I1206 17:23:50.127656 27155 net.cpp:84] Creating Layer drop7
I1206 17:23:50.127667 27155 net.cpp:406] drop7 <- fc7
I1206 17:23:50.127678 27155 net.cpp:367] drop7 -> fc7 (in-place)
I1206 17:23:50.127722 27155 net.cpp:122] Setting up drop7
I1206 17:23:50.127738 27155 net.cpp:129] Top shape: 16 4096 (65536)
I1206 17:23:50.127749 27155 net.cpp:137] Memory required for data: 1843232832
I1206 17:23:50.127761 27155 layer_factory.hpp:77] Creating layer fc_scv_wealthy
I1206 17:23:50.127777 27155 net.cpp:84] Creating Layer fc_scv_wealthy
I1206 17:23:50.127789 27155 net.cpp:406] fc_scv_wealthy <- fc7
I1206 17:23:50.127804 27155 net.cpp:380] fc_scv_wealthy -> fc_scv_wealthy
I1206 17:23:50.127949 27155 net.cpp:122] Setting up fc_scv_wealthy
I1206 17:23:50.127969 27155 net.cpp:129] Top shape: 16 1 (16)
I1206 17:23:50.127979 27155 net.cpp:137] Memory required for data: 1843232896
I1206 17:23:50.127991 27155 layer_factory.hpp:77] Creating layer loss
I1206 17:23:50.128015 27155 net.cpp:84] Creating Layer loss
I1206 17:23:50.128027 27155 net.cpp:406] loss <- fc_scv_wealthy
I1206 17:23:50.128051 27155 net.cpp:406] loss <- label
I1206 17:23:50.128067 27155 net.cpp:380] loss -> loss
I1206 17:23:50.128114 27155 net.cpp:122] Setting up loss
…
I1206 17:23:50.133991 27155 net.cpp:294] The NetState phase (1) differed from the phase (0) specified by a rule in layer data
I1206 17:23:50.134660 27155 net.cpp:51] Initializing net from parameters: 
name: "VGG-Places365-SCV-Wealthy"
state {
  phase: TEST
}
layer {
  name: "data"
  type: "Data"
  top: "data"
  top: "label"
  include {
    phase: TEST
  }
  transform_param {
    mirror: false
    crop_size: 224
    mean_file: "/idiap/temp/lmedina/fine-tuning/vgg16_places365/places365CNN_mean.binaryproto"
  }
  data_param {
    source: "/idiap/temp/lmedina/fine-tuning/data/Wealthy/validation_lmdb"
    batch_size: 16
    backend: LMDB
  }
}
layer {
  name: "conv1_1"
  type: "Convolution"
  bottom: "data"
  top: "conv1_1"
  param {
    lr_mult: 1
    decay_mult: 1
  }
  param {
    lr_mult: 2
    decay_mult: 0
  }
  convolution_param {
    num_output: 64
    pad: 1
    kernel_size: 3
    weight_filler {
      type: "gaussian"
      std: 0.01
    }
    bias_filler {
      type: "constant"
      value: 0
    }
  }
}
layer {
  name: "relu1_1"
  type: "ReLU"
  bottom: "conv1_1"
  top: "conv1_1"
}
layer {
  name: "conv1_2"
  type: "Convolution"
  bottom: "conv1_1"
  top: "conv1_2"
  param {
    lr_mult: 1
    decay_mult: 1
  }
  param {
    lr_mult: 2
    decay_mult: 0
  }
  convolution_param {
    num_output: 64
    pad: 1
    kernel_size: 3
    weight_filler {
      type: "gaussian"
      std: 0.01
    }
    bias_filler {
      type: "constant"
      value: 0
    }
  }
}
layer {
  name: "relu1_2"
  type: "ReLU"
  bottom: "conv1_2"
  top: "conv1_2"
}
layer {
  name: "pool1"
  type: "Pooling"
  bottom: "conv1_2"
  top: "pool1"
  pooling_param {
    pool: MAX
    kernel_size: 2
    stride: 2
  }
}
layer {
  name: "conv2_1"
  type: "Convolution"
  bottom: "pool1"
  top: "conv2_1"
  param {
    lr_mult: 1
    decay_mult: 1
  }
  param {
    lr_mult: 2
    decay_mult: 0
  }
  convolution_param {
    num_output: 128
    pad: 1
    kernel_size: 3
    weight_filler {
      type: "gaussian"
      std: 0.01
    }
    bias_filler {
      type: "constant"
      value: 0
    }
  }
}
layer {
  name: "relu2_1"
  type: "ReLU"
  bottom: "conv2_1"
  top: "conv2_1"
}
layer {
  name: "conv2_2"
  type: "Convolution"
  bottom: "conv2_1"
  top: "conv2_2"
  param {
    lr_mult: 1
    decay_mult: 1
  }
  param {
    lr_mult: 2
    decay_mult: 0
  }
  convolution_param {
    num_output: 128
    pad: 1
    kernel_size: 3
    weight_filler {
      type: "gaussian"
      std: 0.01
    }
    bias_filler {
      type: "constant"
      value: 0
    }
  }
}
layer {
  name: "relu2_2"
  type: "ReLU"
  bottom: "conv2_2"
  top: "conv2_2"
}
layer {
  name: "pool2"
  type: "Pooling"
  bottom: "conv2_2"
  top: "pool2"
  pooling_param {
    pool: MAX
    kernel_size: 2
    stride: 2
  }
}
layer {
  name: "conv3_1"
  type: "Convolution"
  bottom: "pool2"
  top: "conv3_1"
  param {
    lr_mult: 1
    decay_mult: 1
  }
  param {
    lr_mult: 2
    decay_mult: 0
  }
  convolution_param {
    num_output: 256
    pad: 1
    kernel_size: 3
    weight_filler {
      type: "gaussian"
      std: 0.01
    }
    bias_filler {
      type: "constant"
      value: 0
    }
  }
}
layer {
  name: "relu3_1"
  type: "ReLU"
  bottom: "conv3_1"
  top: "conv3_1"
}
layer {
  name: "conv3_2"
  type: "Convolution"
  bottom: "conv3_1"
  top: "conv3_2"
  param {
    lr_mult: 1
    decay_mult: 1
  }
  param {
    lr_mult: 2
    decay_mult: 0
  }
  convolution_param {
    num_output: 256
    pad: 1
    kernel_size: 3
    weight_filler {
      type: "gaussian"
      std: 0.01
    }
    bias_filler {
      type: "constant"
      value: 0
    }
  }
}
layer {
  name: "relu3_2"
  type: "ReLU"
  bottom: "conv3_2"
  top: "conv3_2"
}
layer {
  name: "conv3_3"
  type: "Convolution"
  bottom: "conv3_2"
  top: "conv3_3"
  param {
    lr_mult: 1
    decay_mult: 1
  }
  param {
    lr_mult: 2
    decay_mult: 0
  }
  convolution_param {
    num_output: 256
    pad: 1
    kernel_size: 3
    weight_filler {
      type: "gaussian"
      std: 0.01
    }
    bias_filler {
      type: "constant"
      value: 0
    }
  }
}
layer {
  name: "relu3_3"
  type: "ReLU"
  bottom: "conv3_3"
  top: "conv3_3"
}
layer {
  name: "pool3"
  type: "Pooling"
  bottom: "conv3_3"
  top: "pool3"
  pooling_param {
    pool: MAX
    kernel_size: 2
    stride: 2
  }
}
layer {
  name: "conv4_1"
  type: "Convolution"
  bottom: "pool3"
  top: "conv4_1"
  param {
    lr_mult: 1
    decay_mult: 1
  }
  param {
    lr_mult: 2
    decay_mult: 0
  }
  convolution_param {
    num_output: 512
    pad: 1
    kernel_size: 3
    weight_filler {
      type: "gaussian"
      std: 0.01
    }
    bias_filler {
      type: "constant"
      value: 0
    }
  }
}
layer {
  name: "relu4_1"
  type: "ReLU"
  bottom: "conv4_1"
  top: "conv4_1"
}
layer {
  name: "conv4_2"
  type: "Convolution"
  bottom: "conv4_1"
  top: "conv4_2"
  param {
    lr_mult: 1
    decay_mult: 1
  }
  param {
    lr_mult: 2
    decay_mult: 0
  }
  convolution_param {
    num_output: 512
    pad: 1
    kernel_size: 3
    weight_filler {
      type: "gaussian"
      std: 0.01
    }
    bias_filler {
      type: "constant"
      value: 0
    }
  }
}
layer {
  name: "relu4_2"
  type: "ReLU"
  bottom: "conv4_2"
  top: "conv4_2"
}
layer {
  name: "conv4_3"
  type: "Convolution"
  bottom: "conv4_2"
  top: "conv4_3"
  param {
    lr_mult: 1
    decay_mult: 1
  }
  param {
    lr_mult: 2
    decay_mult: 0
  }
  convolution_param {
    num_output: 512
    pad: 1
    kernel_size: 3
    weight_filler {
      type: "gaussian"
      std: 0.01
    }
    bias_filler {
      type: "constant"
      value: 0
    }
  }
}
layer {
  name: "relu4_3"
  type: "ReLU"
  bottom: "conv4_3"
  top: "conv4_3"
}
layer {
  name: "pool4"
  type: "Pooling"
  bottom: "conv4_3"
  top: "pool4"
  pooling_param {
    pool: MAX
    kernel_size: 2
    stride: 2
  }
}
layer {
  name: "conv5_1"
  type: "Convolution"
  bottom: "pool4"
  top: "conv5_1"
  param {
    lr_mult: 1
    decay_mult: 1
  }
  param {
    lr_mult: 2
    decay_mult: 0
  }
  convolution_param {
    num_output: 512
    pad: 1
    kernel_size: 3
    weight_filler {
      type: "gaussian"
      std: 0.01
    }
    bias_filler {
      type: "constant"
      value: 0
    }
  }
}
layer {
  name: "relu5_1"
  type: "ReLU"
  bottom: "conv5_1"
  top: "conv5_1"
}
layer {
  name: "conv5_2"
  type: "Convolution"
  bottom: "conv5_1"
  top: "conv5_2"
  param {
    lr_mult: 1
    decay_mult: 1
  }
  param {
    lr_mult: 2
    decay_mult: 0
  }
  convolution_param {
    num_output: 512
    pad: 1
    kernel_size: 3
    weight_filler {
      type: "gaussian"
      std: 0.01
    }
    bias_filler {
      type: "constant"
      value: 0
    }
  }
}
layer {
  name: "relu5_2"
  type: "ReLU"
  bottom: "conv5_2"
  top: "conv5_2"
}
layer {
  name: "conv5_3"
  type: "Convolution"
  bottom: "conv5_2"
  top: "conv5_3"
  param {
    lr_mult: 1
    decay_mult: 1
  }
  param {
    lr_mult: 2
    decay_mult: 0
  }
  convolution_param {
    num_output: 512
    pad: 1
    kernel_size: 3
    weight_filler {
      type: "gaussian"
      std: 0.01
    }
    bias_filler {
      type: "constant"
      value: 0
    }
  }
}
layer {
  name: "relu5_3"
  type: "ReLU"
  bottom: "conv5_3"
  top: "conv5_3"
}
layer {
  name: "pool5"
  type: "Pooling"
  bottom: "conv5_3"
  top: "pool5"
  pooling_param {
    pool: MAX
    kernel_size: 2
    stride: 2
  }
}
layer {
  name: "fc6"
  type: "InnerProduct"
  bottom: "pool5"
  top: "fc6"
  param {
    lr_mult: 1
    decay_mult: 1
  }
  param {
    lr_mult: 2
    decay_mult: 0
  }
  inner_product_param {
    num_output: 4096
    weight_filler {
      type: "gaussian"
      std: 0.01
    }
    bias_filler {
      type: "constant"
      value: 0
    }
  }
}
layer {
  name: "relu6"
  type: "ReLU"
  bottom: "fc6"
  top: "fc6"
}
layer {
  name: "drop6"
  type: "Dropout"
  bottom: "fc6"
  top: "fc6"
  dropout_param {
    dropout_ratio: 0.5
  }
}
layer {
  name: "fc7"
  type: "InnerProduct"
  bottom: "fc6"
  top: "fc7"
  param {
    lr_mult: 1
    decay_mult: 1
  }
  param {
    lr_mult: 2
    decay_mult: 0
  }
  inner_product_param {
    num_output: 4096
    weight_filler {
      type: "gaussian"
      std: 0.01
    }
    bias_filler {
      type: "constant"
      value: 0
    }
  }
}
layer {
  name: "relu7"
  type: "ReLU"
  bottom: "fc7"
  top: "fc7"
}
layer {
  name: "drop7"
  type: "Dropout"
  bottom: "fc7"
  top: "fc7"
  dropout_param {
    dropout_ratio: 0.5
  }
}
layer {
  name: "fc_scv_wealthy"
  type: "InnerProduct"
  bottom: "fc7"
  top: "fc_scv_wealthy"
  param {
    lr_mult: 10
    decay_mult: 1
  }
  param {
    lr_mult: 20
    decay_mult: 0
  }
  inner_product_param {
    num_output: 1
    weight_filler {
      type: "xavier"
      std: 0.01
    }
    bias_filler {
      type: "constant"
      value: 0
    }
  }
}
layer {
  name: "loss"
  type: "EuclideanLoss"
  bottom: "fc_scv_wealthy"
  bottom: "label"
  top: "loss"
}
layer {
  name: "losttest"
  type: "EuclideanLoss"
  bottom: "fc_scv_wealthy"
  bottom: "label"
  top: "losttest"
  include {
    phase: TEST
  }
}
I1206 17:23:50.135316 27155 layer_factory.hpp:77] Creating layer data
I1206 17:23:50.207675 27155 db_lmdb.cpp:35] Opened lmdb /idiap/temp/lmedina/fine-tuning/data/Wealthy/validation_lmdb
I1206 17:23:50.232897 27155 net.cpp:84] Creating Layer data
I1206 17:23:50.245062 27155 net.cpp:380] data -> data
I1206 17:23:50.245118 27155 net.cpp:380] data -> label
I1206 17:23:50.245149 27155 data_transformer.cpp:25] Loading mean file from: /idiap/temp/lmedina/fine-tuning/vgg16_places365/places365CNN_mean.binaryproto
I1206 17:23:50.277632 27155 data_layer.cpp:45] output data size: 16,3,224,224
I1206 17:23:50.309638 27155 net.cpp:122] Setting up data
I1206 17:23:50.309691 27155 net.cpp:129] Top shape: 16 3 224 224 (2408448)
I1206 17:23:50.309707 27155 net.cpp:129] Top shape: 16 (16)
I1206 17:23:50.309720 27155 net.cpp:137] Memory required for data: 9633856
I1206 17:23:50.309736 27155 layer_factory.hpp:77] Creating layer label_data_1_split
I1206 17:23:50.309765 27155 net.cpp:84] Creating Layer label_data_1_split
I1206 17:23:50.309779 27155 net.cpp:406] label_data_1_split <- label
I1206 17:23:50.309797 27155 net.cpp:380] label_data_1_split -> label_data_1_split_0
I1206 17:23:50.309819 27155 net.cpp:380] label_data_1_split -> label_data_1_split_1
I1206 17:23:50.309967 27155 net.cpp:122] Setting up label_data_1_split
I1206 17:23:50.309988 27155 net.cpp:129] Top shape: 16 (16)
I1206 17:23:50.310001 27155 net.cpp:129] Top shape: 16 (16)
I1206 17:23:50.310012 27155 net.cpp:137] Memory required for data: 9633984
I1206 17:23:50.310024 27155 layer_factory.hpp:77] Creating layer conv1_1
I1206 17:23:50.310052 27155 net.cpp:84] Creating Layer conv1_1
I1206 17:23:50.310065 27155 net.cpp:406] conv1_1 <- data
I1206 17:23:50.310081 27155 net.cpp:380] conv1_1 -> conv1_1
I1206 17:23:50.310505 27155 net.cpp:122] Setting up conv1_1
I1206 17:23:50.310524 27155 net.cpp:129] Top shape: 16 64 224 224 (51380224)
I1206 17:23:50.310535 27155 net.cpp:137] Memory required for data: 215154880
I1206 17:23:50.310557 27155 layer_factory.hpp:77] Creating layer relu1_1
I1206 17:23:50.310577 27155 net.cpp:84] Creating Layer relu1_1
I1206 17:23:50.310590 27155 net.cpp:406] relu1_1 <- conv1_1
I1206 17:23:50.310605 27155 net.cpp:367] relu1_1 -> conv1_1 (in-place)
I1206 17:23:50.310621 27155 net.cpp:122] Setting up relu1_1
I1206 17:23:50.310636 27155 net.cpp:129] Top shape: 16 64 224 224 (51380224)
I1206 17:23:50.310647 27155 net.cpp:137] Memory required for data: 420675776
I1206 17:23:50.310658 27155 layer_factory.hpp:77] Creating layer conv1_2
I1206 17:23:50.310678 27155 net.cpp:84] Creating Layer conv1_2
I1206 17:23:50.310690 27155 net.cpp:406] conv1_2 <- conv1_1
I1206 17:23:50.310705 27155 net.cpp:380] conv1_2 -> conv1_2
I1206 17:23:50.312155 27155 net.cpp:122] Setting up conv1_2
I1206 17:23:50.312178 27155 net.cpp:129] Top shape: 16 64 224 224 (51380224)
I1206 17:23:50.312191 27155 net.cpp:137] Memory required for data: 626196672
I1206 17:23:50.312211 27155 layer_factory.hpp:77] Creating layer relu1_2
I1206 17:23:50.312227 27155 net.cpp:84] Creating Layer relu1_2
I1206 17:23:50.312239 27155 net.cpp:406] relu1_2 <- conv1_2
I1206 17:23:50.312254 27155 net.cpp:367] relu1_2 -> conv1_2 (in-place)
I1206 17:23:50.312270 27155 net.cpp:122] Setting up relu1_2
I1206 17:23:50.312285 27155 net.cpp:129] Top shape: 16 64 224 224 (51380224)
I1206 17:23:50.312297 27155 net.cpp:137] Memory required for data: 831717568
I1206 17:23:50.312309 27155 layer_factory.hpp:77] Creating layer pool1
I1206 17:23:50.312325 27155 net.cpp:84] Creating Layer pool1
I1206 17:23:50.312341 27155 net.cpp:406] pool1 <- conv1_2
I1206 17:23:50.312355 27155 net.cpp:380] pool1 -> pool1
I1206 17:23:50.312417 27155 net.cpp:122] Setting up pool1
I1206 17:23:50.312433 27155 net.cpp:129] Top shape: 16 64 112 112 (12845056)
I1206 17:23:50.312444 27155 net.cpp:137] Memory required for data: 883097792
I1206 17:23:50.312455 27155 layer_factory.hpp:77] Creating layer conv2_1
I1206 17:23:50.312484 27155 net.cpp:84] Creating Layer conv2_1
I1206 17:23:50.312496 27155 net.cpp:406] conv2_1 <- pool1
I1206 17:23:50.312512 27155 net.cpp:380] conv2_1 -> conv2_1
I1206 17:23:50.314908 27155 net.cpp:122] Setting up conv2_1
I1206 17:23:50.314937 27155 net.cpp:129] Top shape: 16 128 112 112 (25690112)
I1206 17:23:50.314950 27155 net.cpp:137] Memory required for data: 985858240
I1206 17:23:50.314970 27155 layer_factory.hpp:77] Creating layer relu2_1
I1206 17:23:50.314990 27155 net.cpp:84] Creating Layer relu2_1
I1206 17:23:50.315002 27155 net.cpp:406] relu2_1 <- conv2_1
I1206 17:23:50.315017 27155 net.cpp:367] relu2_1 -> conv2_1 (in-place)
I1206 17:23:50.315034 27155 net.cpp:122] Setting up relu2_1
I1206 17:23:50.315047 27155 net.cpp:129] Top shape: 16 128 112 112 (25690112)
I1206 17:23:50.315058 27155 net.cpp:137] Memory required for data: 1088618688
I1206 17:23:50.315069 27155 layer_factory.hpp:77] Creating layer conv2_2
I1206 17:23:50.315088 27155 net.cpp:84] Creating Layer conv2_2
I1206 17:23:50.315100 27155 net.cpp:406] conv2_2 <- conv2_1
I1206 17:23:50.315115 27155 net.cpp:380] conv2_2 -> conv2_2
I1206 17:23:50.316967 27155 net.cpp:122] Setting up conv2_2
I1206 17:23:50.316985 27155 net.cpp:129] Top shape: 16 128 112 112 (25690112)
I1206 17:23:50.316998 27155 net.cpp:137] Memory required for data: 1191379136
I1206 17:23:50.317011 27155 layer_factory.hpp:77] Creating layer relu2_2
I1206 17:23:50.317028 27155 net.cpp:84] Creating Layer relu2_2
I1206 17:23:50.317039 27155 net.cpp:406] relu2_2 <- conv2_2
I1206 17:23:50.317054 27155 net.cpp:367] relu2_2 -> conv2_2 (in-place)
I1206 17:23:50.317068 27155 net.cpp:122] Setting up relu2_2
I1206 17:23:50.317082 27155 net.cpp:129] Top shape: 16 128 112 112 (25690112)
I1206 17:23:50.317093 27155 net.cpp:137] Memory required for data: 1294139584
I1206 17:23:50.317104 27155 layer_factory.hpp:77] Creating layer pool2
I1206 17:23:50.317119 27155 net.cpp:84] Creating Layer pool2
I1206 17:23:50.317131 27155 net.cpp:406] pool2 <- conv2_2
I1206 17:23:50.317144 27155 net.cpp:380] pool2 -> pool2
I1206 17:23:50.317198 27155 net.cpp:122] Setting up pool2
I1206 17:23:50.317211 27155 net.cpp:129] Top shape: 16 128 56 56 (6422528)
I1206 17:23:50.317222 27155 net.cpp:137] Memory required for data: 1319829696
I1206 17:23:50.317234 27155 layer_factory.hpp:77] Creating layer conv3_1
I1206 17:23:50.317252 27155 net.cpp:84] Creating Layer conv3_1
I1206 17:23:50.317265 27155 net.cpp:406] conv3_1 <- pool2
I1206 17:23:50.317281 27155 net.cpp:380] conv3_1 -> conv3_1
I1206 17:23:50.323345 27155 net.cpp:122] Setting up conv3_1
I1206 17:23:50.323371 27155 net.cpp:129] Top shape: 16 256 56 56 (12845056)
I1206 17:23:50.323385 27155 net.cpp:137] Memory required for data: 1371209920
I1206 17:23:50.323405 27155 layer_factory.hpp:77] Creating layer relu3_1
I1206 17:23:50.323423 27155 net.cpp:84] Creating Layer relu3_1
I1206 17:23:50.323436 27155 net.cpp:406] relu3_1 <- conv3_1
I1206 17:23:50.323451 27155 net.cpp:367] relu3_1 -> conv3_1 (in-place)
I1206 17:23:50.323467 27155 net.cpp:122] Setting up relu3_1
I1206 17:23:50.323480 27155 net.cpp:129] Top shape: 16 256 56 56 (12845056)
I1206 17:23:50.323492 27155 net.cpp:137] Memory required for data: 1422590144
I1206 17:23:50.323503 27155 layer_factory.hpp:77] Creating layer conv3_2
I1206 17:23:50.323523 27155 net.cpp:84] Creating Layer conv3_2
I1206 17:23:50.323534 27155 net.cpp:406] conv3_2 <- conv3_1
I1206 17:23:50.323549 27155 net.cpp:380] conv3_2 -> conv3_2
I1206 17:23:50.331496 27155 net.cpp:122] Setting up conv3_2
I1206 17:23:50.331521 27155 net.cpp:129] Top shape: 16 256 56 56 (12845056)
I1206 17:23:50.331533 27155 net.cpp:137] Memory required for data: 1473970368
I1206 17:23:50.331554 27155 layer_factory.hpp:77] Creating layer relu3_2
I1206 17:23:50.331571 27155 net.cpp:84] Creating Layer relu3_2
I1206 17:23:50.331583 27155 net.cpp:406] relu3_2 <- conv3_2
I1206 17:23:50.331599 27155 net.cpp:367] relu3_2 -> conv3_2 (in-place)
I1206 17:23:50.331616 27155 net.cpp:122] Setting up relu3_2
I1206 17:23:50.331629 27155 net.cpp:129] Top shape: 16 256 56 56 (12845056)
I1206 17:23:50.331640 27155 net.cpp:137] Memory required for data: 1525350592
I1206 17:23:50.331652 27155 layer_factory.hpp:77] Creating layer conv3_3
I1206 17:23:50.331674 27155 net.cpp:84] Creating Layer conv3_3
I1206 17:23:50.331686 27155 net.cpp:406] conv3_3 <- conv3_2
I1206 17:23:50.331702 27155 net.cpp:380] conv3_3 -> conv3_3
I1206 17:23:50.339699 27155 net.cpp:122] Setting up conv3_3
I1206 17:23:50.339727 27155 net.cpp:129] Top shape: 16 256 56 56 (12845056)
I1206 17:23:50.339740 27155 net.cpp:137] Memory required for data: 1576730816
I1206 17:23:50.339756 27155 layer_factory.hpp:77] Creating layer relu3_3
I1206 17:23:50.339774 27155 net.cpp:84] Creating Layer relu3_3
I1206 17:23:50.339787 27155 net.cpp:406] relu3_3 <- conv3_3
I1206 17:23:50.339803 27155 net.cpp:367] relu3_3 -> conv3_3 (in-place)
I1206 17:23:50.339819 27155 net.cpp:122] Setting up relu3_3
I1206 17:23:50.339833 27155 net.cpp:129] Top shape: 16 256 56 56 (12845056)
I1206 17:23:50.339844 27155 net.cpp:137] Memory required for data: 1628111040
I1206 17:23:50.339855 27155 layer_factory.hpp:77] Creating layer pool3
I1206 17:23:50.339871 27155 net.cpp:84] Creating Layer pool3
I1206 17:23:50.339882 27155 net.cpp:406] pool3 <- conv3_3
I1206 17:23:50.339897 27155 net.cpp:380] pool3 -> pool3
I1206 17:23:50.339953 27155 net.cpp:122] Setting up pool3
I1206 17:23:50.339968 27155 net.cpp:129] Top shape: 16 256 28 28 (3211264)
I1206 17:23:50.339979 27155 net.cpp:137] Memory required for data: 1640956096
I1206 17:23:50.339990 27155 layer_factory.hpp:77] Creating layer conv4_1
I1206 17:23:50.340009 27155 net.cpp:84] Creating Layer conv4_1
I1206 17:23:50.340021 27155 net.cpp:406] conv4_1 <- pool3
I1206 17:23:50.340037 27155 net.cpp:380] conv4_1 -> conv4_1
I1206 17:23:50.355546 27155 net.cpp:122] Setting up conv4_1
I1206 17:23:50.355577 27155 net.cpp:129] Top shape: 16 512 28 28 (6422528)
I1206 17:23:50.355590 27155 net.cpp:137] Memory required for data: 1666646208
I1206 17:23:50.355607 27155 layer_factory.hpp:77] Creating layer relu4_1
I1206 17:23:50.355626 27155 net.cpp:84] Creating Layer relu4_1
I1206 17:23:50.355640 27155 net.cpp:406] relu4_1 <- conv4_1
I1206 17:23:50.355656 27155 net.cpp:367] relu4_1 -> conv4_1 (in-place)
I1206 17:23:50.355675 27155 net.cpp:122] Setting up relu4_1
I1206 17:23:50.355689 27155 net.cpp:129] Top shape: 16 512 28 28 (6422528)
I1206 17:23:50.355700 27155 net.cpp:137] Memory required for data: 1692336320
I1206 17:23:50.355711 27155 layer_factory.hpp:77] Creating layer conv4_2
I1206 17:23:50.355731 27155 net.cpp:84] Creating Layer conv4_2
I1206 17:23:50.355743 27155 net.cpp:406] conv4_2 <- conv4_1
I1206 17:23:50.355758 27155 net.cpp:380] conv4_2 -> conv4_2
I1206 17:23:50.387111 27155 net.cpp:122] Setting up conv4_2
I1206 17:23:50.387157 27155 net.cpp:129] Top shape: 16 512 28 28 (6422528)
I1206 17:23:50.387169 27155 net.cpp:137] Memory required for data: 1718026432
I1206 17:23:50.387202 27155 layer_factory.hpp:77] Creating layer relu4_2
I1206 17:23:50.387223 27155 net.cpp:84] Creating Layer relu4_2
I1206 17:23:50.387238 27155 net.cpp:406] relu4_2 <- conv4_2
I1206 17:23:50.387254 27155 net.cpp:367] relu4_2 -> conv4_2 (in-place)
I1206 17:23:50.387274 27155 net.cpp:122] Setting up relu4_2
I1206 17:23:50.387289 27155 net.cpp:129] Top shape: 16 512 28 28 (6422528)
I1206 17:23:50.387300 27155 net.cpp:137] Memory required for data: 1743716544
I1206 17:23:50.387311 27155 layer_factory.hpp:77] Creating layer conv4_3
I1206 17:23:50.387342 27155 net.cpp:84] Creating Layer conv4_3
I1206 17:23:50.387354 27155 net.cpp:406] conv4_3 <- conv4_2
I1206 17:23:50.387372 27155 net.cpp:380] conv4_3 -> conv4_3
I1206 17:23:50.418998 27155 net.cpp:122] Setting up conv4_3
I1206 17:23:50.419052 27155 net.cpp:129] Top shape: 16 512 28 28 (6422528)
I1206 17:23:50.419065 27155 net.cpp:137] Memory required for data: 1769406656
I1206 17:23:50.419085 27155 layer_factory.hpp:77] Creating layer relu4_3
I1206 17:23:50.419109 27155 net.cpp:84] Creating Layer relu4_3
I1206 17:23:50.419124 27155 net.cpp:406] relu4_3 <- conv4_3
I1206 17:23:50.419142 27155 net.cpp:367] relu4_3 -> conv4_3 (in-place)
I1206 17:23:50.419162 27155 net.cpp:122] Setting up relu4_3
I1206 17:23:50.419176 27155 net.cpp:129] Top shape: 16 512 28 28 (6422528)
I1206 17:23:50.419188 27155 net.cpp:137] Memory required for data: 1795096768
I1206 17:23:50.419199 27155 layer_factory.hpp:77] Creating layer pool4
I1206 17:23:50.419219 27155 net.cpp:84] Creating Layer pool4
I1206 17:23:50.419230 27155 net.cpp:406] pool4 <- conv4_3
I1206 17:23:50.419245 27155 net.cpp:380] pool4 -> pool4
I1206 17:23:50.419312 27155 net.cpp:122] Setting up pool4
I1206 17:23:50.419332 27155 net.cpp:129] Top shape: 16 512 14 14 (1605632)
I1206 17:23:50.419348 27155 net.cpp:137] Memory required for data: 1801519296
I1206 17:23:50.419359 27155 layer_factory.hpp:77] Creating layer conv5_1
I1206 17:23:50.419379 27155 net.cpp:84] Creating Layer conv5_1
I1206 17:23:50.419391 27155 net.cpp:406] conv5_1 <- pool4
I1206 17:23:50.419409 27155 net.cpp:380] conv5_1 -> conv5_1
I1206 17:23:50.450690 27155 net.cpp:122] Setting up conv5_1
I1206 17:23:50.450737 27155 net.cpp:129] Top shape: 16 512 14 14 (1605632)
I1206 17:23:50.450750 27155 net.cpp:137] Memory required for data: 1807941824
I1206 17:23:50.450770 27155 layer_factory.hpp:77] Creating layer relu5_1
I1206 17:23:50.450793 27155 net.cpp:84] Creating Layer relu5_1
I1206 17:23:50.450808 27155 net.cpp:406] relu5_1 <- conv5_1
I1206 17:23:50.450824 27155 net.cpp:367] relu5_1 -> conv5_1 (in-place)
I1206 17:23:50.450845 27155 net.cpp:122] Setting up relu5_1
I1206 17:23:50.450858 27155 net.cpp:129] Top shape: 16 512 14 14 (1605632)
I1206 17:23:50.450870 27155 net.cpp:137] Memory required for data: 1814364352
I1206 17:23:50.450881 27155 layer_factory.hpp:77] Creating layer conv5_2
I1206 17:23:50.450904 27155 net.cpp:84] Creating Layer conv5_2
I1206 17:23:50.450917 27155 net.cpp:406] conv5_2 <- conv5_1
I1206 17:23:50.450933 27155 net.cpp:380] conv5_2 -> conv5_2
I1206 17:23:50.481983 27155 net.cpp:122] Setting up conv5_2
I1206 17:23:50.482030 27155 net.cpp:129] Top shape: 16 512 14 14 (1605632)
I1206 17:23:50.482043 27155 net.cpp:137] Memory required for data: 1820786880
I1206 17:23:50.482064 27155 layer_factory.hpp:77] Creating layer relu5_2
I1206 17:23:50.482086 27155 net.cpp:84] Creating Layer relu5_2
I1206 17:23:50.482102 27155 net.cpp:406] relu5_2 <- conv5_2
I1206 17:23:50.482125 27155 net.cpp:367] relu5_2 -> conv5_2 (in-place)
I1206 17:23:50.482148 27155 net.cpp:122] Setting up relu5_2
I1206 17:23:50.482161 27155 net.cpp:129] Top shape: 16 512 14 14 (1605632)
I1206 17:23:50.482204 27155 net.cpp:137] Memory required for data: 1827209408
I1206 17:23:50.482219 27155 layer_factory.hpp:77] Creating layer conv5_3
I1206 17:23:50.482244 27155 net.cpp:84] Creating Layer conv5_3
I1206 17:23:50.482259 27155 net.cpp:406] conv5_3 <- conv5_2
I1206 17:23:50.482273 27155 net.cpp:380] conv5_3 -> conv5_3
I1206 17:23:50.513080 27155 net.cpp:122] Setting up conv5_3
I1206 17:23:50.513137 27155 net.cpp:129] Top shape: 16 512 14 14 (1605632)
I1206 17:23:50.513151 27155 net.cpp:137] Memory required for data: 1833631936
I1206 17:23:50.513171 27155 layer_factory.hpp:77] Creating layer relu5_3
I1206 17:23:50.513193 27155 net.cpp:84] Creating Layer relu5_3
I1206 17:23:50.513208 27155 net.cpp:406] relu5_3 <- conv5_3
I1206 17:23:50.513226 27155 net.cpp:367] relu5_3 -> conv5_3 (in-place)
I1206 17:23:50.513252 27155 net.cpp:122] Setting up relu5_3
I1206 17:23:50.513274 27155 net.cpp:129] Top shape: 16 512 14 14 (1605632)
I1206 17:23:50.513285 27155 net.cpp:137] Memory required for data: 1840054464
I1206 17:23:50.513299 27155 layer_factory.hpp:77] Creating layer pool5
I1206 17:23:50.513327 27155 net.cpp:84] Creating Layer pool5
I1206 17:23:50.513356 27155 net.cpp:406] pool5 <- conv5_3
I1206 17:23:50.513372 27155 net.cpp:380] pool5 -> pool5
I1206 17:23:50.513447 27155 net.cpp:122] Setting up pool5
I1206 17:23:50.513465 27155 net.cpp:129] Top shape: 16 512 7 7 (401408)
I1206 17:23:50.513478 27155 net.cpp:137] Memory required for data: 1841660096
I1206 17:23:50.513491 27155 layer_factory.hpp:77] Creating layer fc6
I1206 17:23:50.513514 27155 net.cpp:84] Creating Layer fc6
I1206 17:23:50.513527 27155 net.cpp:406] fc6 <- pool5
I1206 17:23:50.513541 27155 net.cpp:380] fc6 -> fc6
I1206 17:23:51.787470 27155 net.cpp:122] Setting up fc6
I1206 17:23:51.787524 27155 net.cpp:129] Top shape: 16 4096 (65536)
I1206 17:23:51.787539 27155 net.cpp:137] Memory required for data: 1841922240
I1206 17:23:51.787562 27155 layer_factory.hpp:77] Creating layer relu6
I1206 17:23:51.787586 27155 net.cpp:84] Creating Layer relu6
I1206 17:23:51.787606 27155 net.cpp:406] relu6 <- fc6
I1206 17:23:51.787623 27155 net.cpp:367] relu6 -> fc6 (in-place)
I1206 17:23:51.787648 27155 net.cpp:122] Setting up relu6
I1206 17:23:51.787662 27155 net.cpp:129] Top shape: 16 4096 (65536)
I1206 17:23:51.787674 27155 net.cpp:137] Memory required for data: 1842184384
I1206 17:23:51.787686 27155 layer_factory.hpp:77] Creating layer drop6
I1206 17:23:51.787705 27155 net.cpp:84] Creating Layer drop6
I1206 17:23:51.787721 27155 net.cpp:406] drop6 <- fc6
I1206 17:23:51.787735 27155 net.cpp:367] drop6 -> fc6 (in-place)
I1206 17:23:51.787777 27155 net.cpp:122] Setting up drop6
I1206 17:23:51.787796 27155 net.cpp:129] Top shape: 16 4096 (65536)
I1206 17:23:51.787809 27155 net.cpp:137] Memory required for data: 1842446528
I1206 17:23:51.787822 27155 layer_factory.hpp:77] Creating layer fc7
I1206 17:23:51.787844 27155 net.cpp:84] Creating Layer fc7
I1206 17:23:51.787858 27155 net.cpp:406] fc7 <- fc6
I1206 17:23:51.787873 27155 net.cpp:380] fc7 -> fc7
I1206 17:23:52.001391 27155 net.cpp:122] Setting up fc7
I1206 17:23:52.001444 27155 net.cpp:129] Top shape: 16 4096 (65536)
I1206 17:23:52.001457 27155 net.cpp:137] Memory required for data: 1842708672
I1206 17:23:52.003643 27155 layer_factory.hpp:77] Creating layer relu7
I1206 17:23:52.003675 27155 net.cpp:84] Creating Layer relu7
I1206 17:23:52.003691 27155 net.cpp:406] relu7 <- fc7
I1206 17:23:52.003710 27155 net.cpp:367] relu7 -> fc7 (in-place)
I1206 17:23:52.003731 27155 net.cpp:122] Setting up relu7
I1206 17:23:52.003748 27155 net.cpp:129] Top shape: 16 4096 (65536)
I1206 17:23:52.003762 27155 net.cpp:137] Memory required for data: 1842970816
I1206 17:23:52.003773 27155 layer_factory.hpp:77] Creating layer drop7
I1206 17:23:52.003794 27155 net.cpp:84] Creating Layer drop7
I1206 17:23:52.003808 27155 net.cpp:406] drop7 <- fc7
I1206 17:23:52.003821 27155 net.cpp:367] drop7 -> fc7 (in-place)
I1206 17:23:52.003882 27155 net.cpp:122] Setting up drop7
I1206 17:23:52.003902 27155 net.cpp:129] Top shape: 16 4096 (65536)
I1206 17:23:52.003916 27155 net.cpp:137] Memory required for data: 1843232960
I1206 17:23:52.003929 27155 layer_factory.hpp:77] Creating layer fc_scv_wealthy
I1206 17:23:52.003947 27155 net.cpp:84] Creating Layer fc_scv_wealthy
I1206 17:23:52.003962 27155 net.cpp:406] fc_scv_wealthy <- fc7
I1206 17:23:52.003979 27155 net.cpp:380] fc_scv_wealthy -> fc_scv_wealthy
I1206 17:23:52.004143 27155 net.cpp:122] Setting up fc_scv_wealthy
I1206 17:23:52.004164 27155 net.cpp:129] Top shape: 16 1 (16)
I1206 17:23:52.004176 27155 net.cpp:137] Memory required for data: 1843233024
I1206 17:23:52.004192 27155 layer_factory.hpp:77] Creating layer fc_scv_wealthy_fc_scv_wealthy_0_split
I1206 17:23:52.004211 27155 net.cpp:84] Creating Layer fc_scv_wealthy_fc_scv_wealthy_0_split
I1206 17:23:52.004225 27155 net.cpp:406] fc_scv_wealthy_fc_scv_wealthy_0_split <- fc_scv_wealthy
I1206 17:23:52.004240 27155 net.cpp:380] fc_scv_wealthy_fc_scv_wealthy_0_split -> fc_scv_wealthy_fc_scv_wealthy_0_split_0
I1206 17:23:52.004256 27155 net.cpp:380] fc_scv_wealthy_fc_scv_wealthy_0_split -> fc_scv_wealthy_fc_scv_wealthy_0_split_1
I1206 17:23:52.004310 27155 net.cpp:122] Setting up fc_scv_wealthy_fc_scv_wealthy_0_split
I1206 17:23:52.004333 27155 net.cpp:129] Top shape: 16 1 (16)
I1206 17:23:52.004346 27155 net.cpp:129] Top shape: 16 1 (16)
I1206 17:23:52.004359 27155 net.cpp:137] Memory required for data: 1843233152
I1206 17:23:52.004372 27155 layer_factory.hpp:77] Creating layer loss
I1206 17:23:52.004387 27155 net.cpp:84] Creating Layer loss
I1206 17:23:52.004401 27155 net.cpp:406] loss <- fc_scv_wealthy_fc_scv_wealthy_0_split_0
I1206 17:23:52.004415 27155 net.cpp:406] loss <- label_data_1_split_0
I1206 17:23:52.004434 27155 net.cpp:380] loss -> loss
…
