…
I1130 21:48:51.542650 26703 net.cpp:294] The NetState phase (0) differed from the phase (1) specified by a rule in layer losttest
I1130 21:48:51.542816 26703 net.cpp:51] Initializing net from parameters: 
name: "CaffeNet-Places365-SCV-Pretty"
state {
  phase: TRAIN
  level: 0
  stage: ""
}
layer {
  name: "data"
  type: "Data"
  top: "data"
  top: "label"
  include {
    phase: TRAIN
  }
  transform_param {
    mirror: true
    crop_size: 227
    mean_file: "/idiap/temp/lmedina/fine-tuning/alexnet_places365/places365CNN_mean.binaryproto"
  }
  data_param {
    source: "/idiap/temp/lmedina/fine-tuning/data/Pretty/train_lmdb"
    batch_size: 32
    backend: LMDB
  }
}
layer {
  name: "conv1"
  type: "Convolution"
  bottom: "data"
  top: "conv1"
  param {
    lr_mult: 1
    decay_mult: 1
  }
  param {
    lr_mult: 2
    decay_mult: 0
  }
  convolution_param {
    num_output: 96
    kernel_size: 11
    stride: 4
    weight_filler {
      type: "gaussian"
      std: 0.01
    }
    bias_filler {
      type: "constant"
      value: 0
    }
  }
}
layer {
  name: "relu1"
  type: "ReLU"
  bottom: "conv1"
  top: "conv1"
}
layer {
  name: "pool1"
  type: "Pooling"
  bottom: "conv1"
  top: "pool1"
  pooling_param {
    pool: MAX
    kernel_size: 3
    stride: 2
  }
}
layer {
  name: "norm1"
  type: "LRN"
  bottom: "pool1"
  top: "norm1"
  lrn_param {
    local_size: 5
    alpha: 0.0001
    beta: 0.75
  }
}
layer {
  name: "conv2"
  type: "Convolution"
  bottom: "norm1"
  top: "conv2"
  param {
    lr_mult: 1
    decay_mult: 1
  }
  param {
    lr_mult: 2
    decay_mult: 0
  }
  convolution_param {
    num_output: 256
    pad: 2
    kernel_size: 5
    group: 2
    weight_filler {
      type: "gaussian"
      std: 0.01
    }
    bias_filler {
      type: "constant"
      value: 1
    }
  }
}
layer {
  name: "relu2"
  type: "ReLU"
  bottom: "conv2"
  top: "conv2"
}
layer {
  name: "pool2"
  type: "Pooling"
  bottom: "conv2"
  top: "pool2"
  pooling_param {
    pool: MAX
    kernel_size: 3
    stride: 2
  }
}
layer {
  name: "norm2"
  type: "LRN"
  bottom: "pool2"
  top: "norm2"
  lrn_param {
    local_size: 5
    alpha: 0.0001
    beta: 0.75
  }
}
layer {
  name: "conv3"
  type: "Convolution"
  bottom: "norm2"
  top: "conv3"
  param {
    lr_mult: 1
    decay_mult: 1
  }
  param {
    lr_mult: 2
    decay_mult: 0
  }
  convolution_param {
    num_output: 384
    pad: 1
    kernel_size: 3
    weight_filler {
      type: "gaussian"
      std: 0.01
    }
    bias_filler {
      type: "constant"
      value: 0
    }
  }
}
layer {
  name: "relu3"
  type: "ReLU"
  bottom: "conv3"
  top: "conv3"
}
layer {
  name: "conv4"
  type: "Convolution"
  bottom: "conv3"
  top: "conv4"
  param {
    lr_mult: 1
    decay_mult: 1
  }
  param {
    lr_mult: 2
    decay_mult: 0
  }
  convolution_param {
    num_output: 384
    pad: 1
    kernel_size: 3
    group: 2
    weight_filler {
      type: "gaussian"
      std: 0.01
    }
    bias_filler {
      type: "constant"
      value: 1
    }
  }
}
layer {
  name: "relu4"
  type: "ReLU"
  bottom: "conv4"
  top: "conv4"
}
layer {
  name: "conv5"
  type: "Convolution"
  bottom: "conv4"
  top: "conv5"
  param {
    lr_mult: 1
    decay_mult: 1
  }
  param {
    lr_mult: 2
    decay_mult: 0
  }
  convolution_param {
    num_output: 256
    pad: 1
    kernel_size: 3
    group: 2
    weight_filler {
      type: "gaussian"
      std: 0.01
    }
    bias_filler {
      type: "constant"
      value: 1
    }
  }
}
layer {
  name: "relu5"
  type: "ReLU"
  bottom: "conv5"
  top: "conv5"
}
layer {
  name: "pool5"
  type: "Pooling"
  bottom: "conv5"
  top: "pool5"
  pooling_param {
    pool: MAX
    kernel_size: 3
    stride: 2
  }
}
layer {
  name: "fc6"
  type: "InnerProduct"
  bottom: "pool5"
  top: "fc6"
  param {
    lr_mult: 1
    decay_mult: 1
  }
  param {
    lr_mult: 2
    decay_mult: 0
  }
  inner_product_param {
    num_output: 4096
    weight_filler {
      type: "gaussian"
      std: 0.005
    }
    bias_filler {
      type: "constant"
      value: 1
    }
  }
}
layer {
  name: "relu6"
  type: "ReLU"
  bottom: "fc6"
  top: "fc6"
}
layer {
  name: "drop6"
  type: "Dropout"
  bottom: "fc6"
  top: "fc6"
  dropout_param {
    dropout_ratio: 0.5
  }
}
layer {
  name: "fc7"
  type: "InnerProduct"
  bottom: "fc6"
  top: "fc7"
  param {
    lr_mult: 1
    decay_mult: 1
  }
  param {
    lr_mult: 2
    decay_mult: 0
  }
  inner_product_param {
    num_output: 4096
    weight_filler {
      type: "gaussian"
      std: 0.005
    }
    bias_filler {
      type: "constant"
      value: 1
    }
  }
}
layer {
  name: "relu7"
  type: "ReLU"
  bottom: "fc7"
  top: "fc7"
}
layer {
  name: "drop7"
  type: "Dropout"
  bottom: "fc7"
  top: "fc7"
  dropout_param {
    dropout_ratio: 0.5
  }
}
layer {
  name: "fc_scv_pretty"
  type: "InnerProduct"
  bottom: "fc7"
  top: "fc_scv_pretty"
  param {
    lr_mult: 10
    decay_mult: 1
  }
  param {
    lr_mult: 20
    decay_mult: 0
  }
  inner_product_param {
    num_output: 1
    weight_filler {
      type: "xavier"
      std: 0.01
    }
    bias_filler {
      type: "constant"
      value: 0
    }
  }
}
layer {
  name: "loss"
  type: "EuclideanLoss"
  bottom: "fc_scv_pretty"
  bottom: "label"
  top: "loss"
}
I1130 21:48:51.542906 26703 layer_factory.hpp:77] Creating layer data
I1130 21:48:51.559831 26703 db_lmdb.cpp:35] Opened lmdb /idiap/temp/lmedina/fine-tuning/data/Pretty/train_lmdb
I1130 21:48:51.560240 26703 net.cpp:84] Creating Layer data
I1130 21:48:51.560252 26703 net.cpp:380] data -> data
I1130 21:48:51.560276 26703 net.cpp:380] data -> label
I1130 21:48:51.560288 26703 data_transformer.cpp:25] Loading mean file from: /idiap/temp/lmedina/fine-tuning/alexnet_places365/places365CNN_mean.binaryproto
I1130 21:48:51.563102 26703 data_layer.cpp:45] output data size: 32,3,227,227
I1130 21:48:51.598574 26703 net.cpp:122] Setting up data
I1130 21:48:51.598611 26703 net.cpp:129] Top shape: 32 3 227 227 (4946784)
I1130 21:48:51.598618 26703 net.cpp:129] Top shape: 32 (32)
I1130 21:48:51.598621 26703 net.cpp:137] Memory required for data: 19787264
I1130 21:48:51.598632 26703 layer_factory.hpp:77] Creating layer conv1
I1130 21:48:51.598656 26703 net.cpp:84] Creating Layer conv1
I1130 21:48:51.598664 26703 net.cpp:406] conv1 <- data
I1130 21:48:51.598677 26703 net.cpp:380] conv1 -> conv1
I1130 21:48:51.599925 26703 net.cpp:122] Setting up conv1
I1130 21:48:51.599936 26703 net.cpp:129] Top shape: 32 96 55 55 (9292800)
I1130 21:48:51.599941 26703 net.cpp:137] Memory required for data: 56958464
I1130 21:48:51.599953 26703 layer_factory.hpp:77] Creating layer relu1
I1130 21:48:51.599962 26703 net.cpp:84] Creating Layer relu1
I1130 21:48:51.599967 26703 net.cpp:406] relu1 <- conv1
I1130 21:48:51.599974 26703 net.cpp:367] relu1 -> conv1 (in-place)
I1130 21:48:51.599983 26703 net.cpp:122] Setting up relu1
I1130 21:48:51.599989 26703 net.cpp:129] Top shape: 32 96 55 55 (9292800)
I1130 21:48:51.599994 26703 net.cpp:137] Memory required for data: 94129664
I1130 21:48:51.599998 26703 layer_factory.hpp:77] Creating layer pool1
I1130 21:48:51.600008 26703 net.cpp:84] Creating Layer pool1
I1130 21:48:51.600014 26703 net.cpp:406] pool1 <- conv1
I1130 21:48:51.600019 26703 net.cpp:380] pool1 -> pool1
I1130 21:48:51.601740 26703 net.cpp:122] Setting up pool1
I1130 21:48:51.601760 26703 net.cpp:129] Top shape: 32 96 27 27 (2239488)
I1130 21:48:51.601765 26703 net.cpp:137] Memory required for data: 103087616
I1130 21:48:51.601769 26703 layer_factory.hpp:77] Creating layer norm1
I1130 21:48:51.601780 26703 net.cpp:84] Creating Layer norm1
I1130 21:48:51.601785 26703 net.cpp:406] norm1 <- pool1
I1130 21:48:51.601791 26703 net.cpp:380] norm1 -> norm1
I1130 21:48:51.601824 26703 net.cpp:122] Setting up norm1
I1130 21:48:51.601831 26703 net.cpp:129] Top shape: 32 96 27 27 (2239488)
I1130 21:48:51.601837 26703 net.cpp:137] Memory required for data: 112045568
I1130 21:48:51.601841 26703 layer_factory.hpp:77] Creating layer conv2
I1130 21:48:51.601851 26703 net.cpp:84] Creating Layer conv2
I1130 21:48:51.601855 26703 net.cpp:406] conv2 <- norm1
I1130 21:48:51.601862 26703 net.cpp:380] conv2 -> conv2
I1130 21:48:51.605351 26703 net.cpp:122] Setting up conv2
I1130 21:48:51.605370 26703 net.cpp:129] Top shape: 32 256 27 27 (5971968)
I1130 21:48:51.605373 26703 net.cpp:137] Memory required for data: 135933440
I1130 21:48:51.605386 26703 layer_factory.hpp:77] Creating layer relu2
I1130 21:48:51.605394 26703 net.cpp:84] Creating Layer relu2
I1130 21:48:51.605399 26703 net.cpp:406] relu2 <- conv2
I1130 21:48:51.605406 26703 net.cpp:367] relu2 -> conv2 (in-place)
I1130 21:48:51.605415 26703 net.cpp:122] Setting up relu2
I1130 21:48:51.605422 26703 net.cpp:129] Top shape: 32 256 27 27 (5971968)
I1130 21:48:51.605425 26703 net.cpp:137] Memory required for data: 159821312
I1130 21:48:51.605429 26703 layer_factory.hpp:77] Creating layer pool2
I1130 21:48:51.605437 26703 net.cpp:84] Creating Layer pool2
I1130 21:48:51.605440 26703 net.cpp:406] pool2 <- conv2
I1130 21:48:51.605446 26703 net.cpp:380] pool2 -> pool2
I1130 21:48:51.605479 26703 net.cpp:122] Setting up pool2
I1130 21:48:51.605485 26703 net.cpp:129] Top shape: 32 256 13 13 (1384448)
I1130 21:48:51.605490 26703 net.cpp:137] Memory required for data: 165359104
I1130 21:48:51.605495 26703 layer_factory.hpp:77] Creating layer norm2
I1130 21:48:51.605504 26703 net.cpp:84] Creating Layer norm2
I1130 21:48:51.605507 26703 net.cpp:406] norm2 <- pool2
I1130 21:48:51.605515 26703 net.cpp:380] norm2 -> norm2
I1130 21:48:51.605540 26703 net.cpp:122] Setting up norm2
I1130 21:48:51.605547 26703 net.cpp:129] Top shape: 32 256 13 13 (1384448)
I1130 21:48:51.605552 26703 net.cpp:137] Memory required for data: 170896896
I1130 21:48:51.605556 26703 layer_factory.hpp:77] Creating layer conv3
I1130 21:48:51.605566 26703 net.cpp:84] Creating Layer conv3
I1130 21:48:51.605571 26703 net.cpp:406] conv3 <- norm2
I1130 21:48:51.605577 26703 net.cpp:380] conv3 -> conv3
I1130 21:48:51.613982 26703 net.cpp:122] Setting up conv3
I1130 21:48:51.614011 26703 net.cpp:129] Top shape: 32 384 13 13 (2076672)
I1130 21:48:51.614014 26703 net.cpp:137] Memory required for data: 179203584
I1130 21:48:51.614028 26703 layer_factory.hpp:77] Creating layer relu3
I1130 21:48:51.614040 26703 net.cpp:84] Creating Layer relu3
I1130 21:48:51.614047 26703 net.cpp:406] relu3 <- conv3
I1130 21:48:51.614058 26703 net.cpp:367] relu3 -> conv3 (in-place)
I1130 21:48:51.614068 26703 net.cpp:122] Setting up relu3
I1130 21:48:51.614074 26703 net.cpp:129] Top shape: 32 384 13 13 (2076672)
I1130 21:48:51.614079 26703 net.cpp:137] Memory required for data: 187510272
I1130 21:48:51.614085 26703 layer_factory.hpp:77] Creating layer conv4
I1130 21:48:51.614095 26703 net.cpp:84] Creating Layer conv4
I1130 21:48:51.614101 26703 net.cpp:406] conv4 <- conv3
I1130 21:48:51.614109 26703 net.cpp:380] conv4 -> conv4
I1130 21:48:51.620872 26703 net.cpp:122] Setting up conv4
I1130 21:48:51.620895 26703 net.cpp:129] Top shape: 32 384 13 13 (2076672)
I1130 21:48:51.620899 26703 net.cpp:137] Memory required for data: 195816960
I1130 21:48:51.620908 26703 layer_factory.hpp:77] Creating layer relu4
I1130 21:48:51.620918 26703 net.cpp:84] Creating Layer relu4
I1130 21:48:51.620924 26703 net.cpp:406] relu4 <- conv4
I1130 21:48:51.620932 26703 net.cpp:367] relu4 -> conv4 (in-place)
I1130 21:48:51.620942 26703 net.cpp:122] Setting up relu4
I1130 21:48:51.620951 26703 net.cpp:129] Top shape: 32 384 13 13 (2076672)
I1130 21:48:51.620955 26703 net.cpp:137] Memory required for data: 204123648
I1130 21:48:51.620960 26703 layer_factory.hpp:77] Creating layer conv5
I1130 21:48:51.620970 26703 net.cpp:84] Creating Layer conv5
I1130 21:48:51.620975 26703 net.cpp:406] conv5 <- conv4
I1130 21:48:51.620981 26703 net.cpp:380] conv5 -> conv5
I1130 21:48:51.625380 26703 net.cpp:122] Setting up conv5
I1130 21:48:51.625403 26703 net.cpp:129] Top shape: 32 256 13 13 (1384448)
I1130 21:48:51.625407 26703 net.cpp:137] Memory required for data: 209661440
I1130 21:48:51.625421 26703 layer_factory.hpp:77] Creating layer relu5
I1130 21:48:51.625430 26703 net.cpp:84] Creating Layer relu5
I1130 21:48:51.625437 26703 net.cpp:406] relu5 <- conv5
I1130 21:48:51.625444 26703 net.cpp:367] relu5 -> conv5 (in-place)
I1130 21:48:51.625454 26703 net.cpp:122] Setting up relu5
I1130 21:48:51.625459 26703 net.cpp:129] Top shape: 32 256 13 13 (1384448)
I1130 21:48:51.625463 26703 net.cpp:137] Memory required for data: 215199232
I1130 21:48:51.625468 26703 layer_factory.hpp:77] Creating layer pool5
I1130 21:48:51.625473 26703 net.cpp:84] Creating Layer pool5
I1130 21:48:51.625478 26703 net.cpp:406] pool5 <- conv5
I1130 21:48:51.625484 26703 net.cpp:380] pool5 -> pool5
I1130 21:48:51.625516 26703 net.cpp:122] Setting up pool5
I1130 21:48:51.625524 26703 net.cpp:129] Top shape: 32 256 6 6 (294912)
I1130 21:48:51.625528 26703 net.cpp:137] Memory required for data: 216378880
I1130 21:48:51.625533 26703 layer_factory.hpp:77] Creating layer fc6
I1130 21:48:51.625547 26703 net.cpp:84] Creating Layer fc6
I1130 21:48:51.625552 26703 net.cpp:406] fc6 <- pool5
I1130 21:48:51.625560 26703 net.cpp:380] fc6 -> fc6
I1130 21:48:51.977041 26703 net.cpp:122] Setting up fc6
I1130 21:48:51.977071 26703 net.cpp:129] Top shape: 32 4096 (131072)
I1130 21:48:51.977074 26703 net.cpp:137] Memory required for data: 216903168
I1130 21:48:51.977085 26703 layer_factory.hpp:77] Creating layer relu6
I1130 21:48:51.977097 26703 net.cpp:84] Creating Layer relu6
I1130 21:48:51.977103 26703 net.cpp:406] relu6 <- fc6
I1130 21:48:51.977113 26703 net.cpp:367] relu6 -> fc6 (in-place)
I1130 21:48:51.977123 26703 net.cpp:122] Setting up relu6
I1130 21:48:51.977128 26703 net.cpp:129] Top shape: 32 4096 (131072)
I1130 21:48:51.977133 26703 net.cpp:137] Memory required for data: 217427456
I1130 21:48:51.977138 26703 layer_factory.hpp:77] Creating layer drop6
I1130 21:48:51.977147 26703 net.cpp:84] Creating Layer drop6
I1130 21:48:51.977151 26703 net.cpp:406] drop6 <- fc6
I1130 21:48:51.977156 26703 net.cpp:367] drop6 -> fc6 (in-place)
I1130 21:48:51.977183 26703 net.cpp:122] Setting up drop6
I1130 21:48:51.977190 26703 net.cpp:129] Top shape: 32 4096 (131072)
I1130 21:48:51.977195 26703 net.cpp:137] Memory required for data: 217951744
I1130 21:48:51.977198 26703 layer_factory.hpp:77] Creating layer fc7
I1130 21:48:51.977207 26703 net.cpp:84] Creating Layer fc7
I1130 21:48:51.977212 26703 net.cpp:406] fc7 <- fc6
I1130 21:48:51.977218 26703 net.cpp:380] fc7 -> fc7
I1130 21:48:52.133244 26703 net.cpp:122] Setting up fc7
I1130 21:48:52.133270 26703 net.cpp:129] Top shape: 32 4096 (131072)
I1130 21:48:52.133275 26703 net.cpp:137] Memory required for data: 218476032
I1130 21:48:52.133285 26703 layer_factory.hpp:77] Creating layer relu7
I1130 21:48:52.133296 26703 net.cpp:84] Creating Layer relu7
I1130 21:48:52.133301 26703 net.cpp:406] relu7 <- fc7
I1130 21:48:52.133311 26703 net.cpp:367] relu7 -> fc7 (in-place)
I1130 21:48:52.133322 26703 net.cpp:122] Setting up relu7
I1130 21:48:52.133327 26703 net.cpp:129] Top shape: 32 4096 (131072)
I1130 21:48:52.133330 26703 net.cpp:137] Memory required for data: 219000320
I1130 21:48:52.133335 26703 layer_factory.hpp:77] Creating layer drop7
I1130 21:48:52.133342 26703 net.cpp:84] Creating Layer drop7
I1130 21:48:52.133347 26703 net.cpp:406] drop7 <- fc7
I1130 21:48:52.133352 26703 net.cpp:367] drop7 -> fc7 (in-place)
I1130 21:48:52.133375 26703 net.cpp:122] Setting up drop7
I1130 21:48:52.133383 26703 net.cpp:129] Top shape: 32 4096 (131072)
I1130 21:48:52.133391 26703 net.cpp:137] Memory required for data: 219524608
I1130 21:48:52.133394 26703 layer_factory.hpp:77] Creating layer fc_scv_pretty
I1130 21:48:52.133404 26703 net.cpp:84] Creating Layer fc_scv_pretty
I1130 21:48:52.133409 26703 net.cpp:406] fc_scv_pretty <- fc7
I1130 21:48:52.133416 26703 net.cpp:380] fc_scv_pretty -> fc_scv_pretty
I1130 21:48:52.133535 26703 net.cpp:122] Setting up fc_scv_pretty
I1130 21:48:52.133544 26703 net.cpp:129] Top shape: 32 1 (32)
I1130 21:48:52.133549 26703 net.cpp:137] Memory required for data: 219524736
I1130 21:48:52.133555 26703 layer_factory.hpp:77] Creating layer loss
I1130 21:48:52.133563 26703 net.cpp:84] Creating Layer loss
I1130 21:48:52.133569 26703 net.cpp:406] loss <- fc_scv_pretty
I1130 21:48:52.133572 26703 net.cpp:406] loss <- label
I1130 21:48:52.133580 26703 net.cpp:380] loss -> loss
I1130 21:48:52.133611 26703 net.cpp:122] Setting up loss
…
I1130 21:48:52.134574 26703 net.cpp:294] The NetState phase (1) differed from the phase (0) specified by a rule in layer data
I1130 21:48:52.134742 26703 net.cpp:51] Initializing net from parameters: 
name: "CaffeNet-Places365-SCV-Pretty"
state {
  phase: TEST
}
layer {
  name: "data"
  type: "Data"
  top: "data"
  top: "label"
  include {
    phase: TEST
  }
  transform_param {
    mirror: false
    crop_size: 227
    mean_file: "/idiap/temp/lmedina/fine-tuning/alexnet_places365/places365CNN_mean.binaryproto"
  }
  data_param {
    source: "/idiap/temp/lmedina/fine-tuning/data/Pretty/validation_lmdb"
    batch_size: 32
    backend: LMDB
  }
}
layer {
  name: "conv1"
  type: "Convolution"
  bottom: "data"
  top: "conv1"
  param {
    lr_mult: 1
    decay_mult: 1
  }
  param {
    lr_mult: 2
    decay_mult: 0
  }
  convolution_param {
    num_output: 96
    kernel_size: 11
    stride: 4
    weight_filler {
      type: "gaussian"
      std: 0.01
    }
    bias_filler {
      type: "constant"
      value: 0
    }
  }
}
layer {
  name: "relu1"
  type: "ReLU"
  bottom: "conv1"
  top: "conv1"
}
layer {
  name: "pool1"
  type: "Pooling"
  bottom: "conv1"
  top: "pool1"
  pooling_param {
    pool: MAX
    kernel_size: 3
    stride: 2
  }
}
layer {
  name: "norm1"
  type: "LRN"
  bottom: "pool1"
  top: "norm1"
  lrn_param {
    local_size: 5
    alpha: 0.0001
    beta: 0.75
  }
}
layer {
  name: "conv2"
  type: "Convolution"
  bottom: "norm1"
  top: "conv2"
  param {
    lr_mult: 1
    decay_mult: 1
  }
  param {
    lr_mult: 2
    decay_mult: 0
  }
  convolution_param {
    num_output: 256
    pad: 2
    kernel_size: 5
    group: 2
    weight_filler {
      type: "gaussian"
      std: 0.01
    }
    bias_filler {
      type: "constant"
      value: 1
    }
  }
}
layer {
  name: "relu2"
  type: "ReLU"
  bottom: "conv2"
  top: "conv2"
}
layer {
  name: "pool2"
  type: "Pooling"
  bottom: "conv2"
  top: "pool2"
  pooling_param {
    pool: MAX
    kernel_size: 3
    stride: 2
  }
}
layer {
  name: "norm2"
  type: "LRN"
  bottom: "pool2"
  top: "norm2"
  lrn_param {
    local_size: 5
    alpha: 0.0001
    beta: 0.75
  }
}
layer {
  name: "conv3"
  type: "Convolution"
  bottom: "norm2"
  top: "conv3"
  param {
    lr_mult: 1
    decay_mult: 1
  }
  param {
    lr_mult: 2
    decay_mult: 0
  }
  convolution_param {
    num_output: 384
    pad: 1
    kernel_size: 3
    weight_filler {
      type: "gaussian"
      std: 0.01
    }
    bias_filler {
      type: "constant"
      value: 0
    }
  }
}
layer {
  name: "relu3"
  type: "ReLU"
  bottom: "conv3"
  top: "conv3"
}
layer {
  name: "conv4"
  type: "Convolution"
  bottom: "conv3"
  top: "conv4"
  param {
    lr_mult: 1
    decay_mult: 1
  }
  param {
    lr_mult: 2
    decay_mult: 0
  }
  convolution_param {
    num_output: 384
    pad: 1
    kernel_size: 3
    group: 2
    weight_filler {
      type: "gaussian"
      std: 0.01
    }
    bias_filler {
      type: "constant"
      value: 1
    }
  }
}
layer {
  name: "relu4"
  type: "ReLU"
  bottom: "conv4"
  top: "conv4"
}
layer {
  name: "conv5"
  type: "Convolution"
  bottom: "conv4"
  top: "conv5"
  param {
    lr_mult: 1
    decay_mult: 1
  }
  param {
    lr_mult: 2
    decay_mult: 0
  }
  convolution_param {
    num_output: 256
    pad: 1
    kernel_size: 3
    group: 2
    weight_filler {
      type: "gaussian"
      std: 0.01
    }
    bias_filler {
      type: "constant"
      value: 1
    }
  }
}
layer {
  name: "relu5"
  type: "ReLU"
  bottom: "conv5"
  top: "conv5"
}
layer {
  name: "pool5"
  type: "Pooling"
  bottom: "conv5"
  top: "pool5"
  pooling_param {
    pool: MAX
    kernel_size: 3
    stride: 2
  }
}
layer {
  name: "fc6"
  type: "InnerProduct"
  bottom: "pool5"
  top: "fc6"
  param {
    lr_mult: 1
    decay_mult: 1
  }
  param {
    lr_mult: 2
    decay_mult: 0
  }
  inner_product_param {
    num_output: 4096
    weight_filler {
      type: "gaussian"
      std: 0.005
    }
    bias_filler {
      type: "constant"
      value: 1
    }
  }
}
layer {
  name: "relu6"
  type: "ReLU"
  bottom: "fc6"
  top: "fc6"
}
layer {
  name: "drop6"
  type: "Dropout"
  bottom: "fc6"
  top: "fc6"
  dropout_param {
    dropout_ratio: 0.5
  }
}
layer {
  name: "fc7"
  type: "InnerProduct"
  bottom: "fc6"
  top: "fc7"
  param {
    lr_mult: 1
    decay_mult: 1
  }
  param {
    lr_mult: 2
    decay_mult: 0
  }
  inner_product_param {
    num_output: 4096
    weight_filler {
      type: "gaussian"
      std: 0.005
    }
    bias_filler {
      type: "constant"
      value: 1
    }
  }
}
layer {
  name: "relu7"
  type: "ReLU"
  bottom: "fc7"
  top: "fc7"
}
layer {
  name: "drop7"
  type: "Dropout"
  bottom: "fc7"
  top: "fc7"
  dropout_param {
    dropout_ratio: 0.5
  }
}
layer {
  name: "fc_scv_pretty"
  type: "InnerProduct"
  bottom: "fc7"
  top: "fc_scv_pretty"
  param {
    lr_mult: 10
    decay_mult: 1
  }
  param {
    lr_mult: 20
    decay_mult: 0
  }
  inner_product_param {
    num_output: 1
    weight_filler {
      type: "xavier"
      std: 0.01
    }
    bias_filler {
      type: "constant"
      value: 0
    }
  }
}
layer {
  name: "loss"
  type: "EuclideanLoss"
  bottom: "fc_scv_pretty"
  bottom: "label"
  top: "loss"
}
layer {
  name: "losttest"
  type: "EuclideanLoss"
  bottom: "fc_scv_pretty"
  bottom: "label"
  top: "losttest"
  include {
    phase: TEST
  }
}
I1130 21:48:52.134846 26703 layer_factory.hpp:77] Creating layer data
I1130 21:48:52.137143 26703 db_lmdb.cpp:35] Opened lmdb /idiap/temp/lmedina/fine-tuning/data/Pretty/validation_lmdb
I1130 21:48:52.137673 26703 net.cpp:84] Creating Layer data
I1130 21:48:52.137684 26703 net.cpp:380] data -> data
I1130 21:48:52.137694 26703 net.cpp:380] data -> label
I1130 21:48:52.137702 26703 data_transformer.cpp:25] Loading mean file from: /idiap/temp/lmedina/fine-tuning/alexnet_places365/places365CNN_mean.binaryproto
I1130 21:48:52.139433 26703 data_layer.cpp:45] output data size: 32,3,227,227
I1130 21:48:52.174355 26703 net.cpp:122] Setting up data
I1130 21:48:52.174383 26703 net.cpp:129] Top shape: 32 3 227 227 (4946784)
I1130 21:48:52.174389 26703 net.cpp:129] Top shape: 32 (32)
I1130 21:48:52.174393 26703 net.cpp:137] Memory required for data: 19787264
I1130 21:48:52.174401 26703 layer_factory.hpp:77] Creating layer label_data_1_split
I1130 21:48:52.174414 26703 net.cpp:84] Creating Layer label_data_1_split
I1130 21:48:52.174419 26703 net.cpp:406] label_data_1_split <- label
I1130 21:48:52.174427 26703 net.cpp:380] label_data_1_split -> label_data_1_split_0
I1130 21:48:52.174440 26703 net.cpp:380] label_data_1_split -> label_data_1_split_1
I1130 21:48:52.174485 26703 net.cpp:122] Setting up label_data_1_split
I1130 21:48:52.174494 26703 net.cpp:129] Top shape: 32 (32)
I1130 21:48:52.174497 26703 net.cpp:129] Top shape: 32 (32)
I1130 21:48:52.174502 26703 net.cpp:137] Memory required for data: 19787520
I1130 21:48:52.174506 26703 layer_factory.hpp:77] Creating layer conv1
I1130 21:48:52.174520 26703 net.cpp:84] Creating Layer conv1
I1130 21:48:52.174525 26703 net.cpp:406] conv1 <- data
I1130 21:48:52.174532 26703 net.cpp:380] conv1 -> conv1
I1130 21:48:52.175031 26703 net.cpp:122] Setting up conv1
I1130 21:48:52.175040 26703 net.cpp:129] Top shape: 32 96 55 55 (9292800)
I1130 21:48:52.175045 26703 net.cpp:137] Memory required for data: 56958720
I1130 21:48:52.175055 26703 layer_factory.hpp:77] Creating layer relu1
I1130 21:48:52.175062 26703 net.cpp:84] Creating Layer relu1
I1130 21:48:52.175066 26703 net.cpp:406] relu1 <- conv1
I1130 21:48:52.175071 26703 net.cpp:367] relu1 -> conv1 (in-place)
I1130 21:48:52.175078 26703 net.cpp:122] Setting up relu1
I1130 21:48:52.175083 26703 net.cpp:129] Top shape: 32 96 55 55 (9292800)
I1130 21:48:52.175088 26703 net.cpp:137] Memory required for data: 94129920
I1130 21:48:52.175092 26703 layer_factory.hpp:77] Creating layer pool1
I1130 21:48:52.175099 26703 net.cpp:84] Creating Layer pool1
I1130 21:48:52.175104 26703 net.cpp:406] pool1 <- conv1
I1130 21:48:52.175109 26703 net.cpp:380] pool1 -> pool1
I1130 21:48:52.175143 26703 net.cpp:122] Setting up pool1
I1130 21:48:52.175150 26703 net.cpp:129] Top shape: 32 96 27 27 (2239488)
I1130 21:48:52.175154 26703 net.cpp:137] Memory required for data: 103087872
I1130 21:48:52.175159 26703 layer_factory.hpp:77] Creating layer norm1
I1130 21:48:52.175166 26703 net.cpp:84] Creating Layer norm1
I1130 21:48:52.175171 26703 net.cpp:406] norm1 <- pool1
I1130 21:48:52.175176 26703 net.cpp:380] norm1 -> norm1
I1130 21:48:52.175209 26703 net.cpp:122] Setting up norm1
I1130 21:48:52.175216 26703 net.cpp:129] Top shape: 32 96 27 27 (2239488)
I1130 21:48:52.175220 26703 net.cpp:137] Memory required for data: 112045824
I1130 21:48:52.175225 26703 layer_factory.hpp:77] Creating layer conv2
I1130 21:48:52.175231 26703 net.cpp:84] Creating Layer conv2
I1130 21:48:52.175236 26703 net.cpp:406] conv2 <- norm1
I1130 21:48:52.175242 26703 net.cpp:380] conv2 -> conv2
I1130 21:48:52.178354 26703 net.cpp:122] Setting up conv2
I1130 21:48:52.178372 26703 net.cpp:129] Top shape: 32 256 27 27 (5971968)
I1130 21:48:52.178376 26703 net.cpp:137] Memory required for data: 135933696
I1130 21:48:52.178386 26703 layer_factory.hpp:77] Creating layer relu2
I1130 21:48:52.178393 26703 net.cpp:84] Creating Layer relu2
I1130 21:48:52.178397 26703 net.cpp:406] relu2 <- conv2
I1130 21:48:52.178403 26703 net.cpp:367] relu2 -> conv2 (in-place)
I1130 21:48:52.178411 26703 net.cpp:122] Setting up relu2
I1130 21:48:52.178417 26703 net.cpp:129] Top shape: 32 256 27 27 (5971968)
I1130 21:48:52.178422 26703 net.cpp:137] Memory required for data: 159821568
I1130 21:48:52.178426 26703 layer_factory.hpp:77] Creating layer pool2
I1130 21:48:52.178434 26703 net.cpp:84] Creating Layer pool2
I1130 21:48:52.178438 26703 net.cpp:406] pool2 <- conv2
I1130 21:48:52.178445 26703 net.cpp:380] pool2 -> pool2
I1130 21:48:52.178478 26703 net.cpp:122] Setting up pool2
I1130 21:48:52.178486 26703 net.cpp:129] Top shape: 32 256 13 13 (1384448)
I1130 21:48:52.178490 26703 net.cpp:137] Memory required for data: 165359360
I1130 21:48:52.178493 26703 layer_factory.hpp:77] Creating layer norm2
I1130 21:48:52.178500 26703 net.cpp:84] Creating Layer norm2
I1130 21:48:52.178505 26703 net.cpp:406] norm2 <- pool2
I1130 21:48:52.178513 26703 net.cpp:380] norm2 -> norm2
I1130 21:48:52.178539 26703 net.cpp:122] Setting up norm2
I1130 21:48:52.178546 26703 net.cpp:129] Top shape: 32 256 13 13 (1384448)
I1130 21:48:52.178551 26703 net.cpp:137] Memory required for data: 170897152
I1130 21:48:52.178555 26703 layer_factory.hpp:77] Creating layer conv3
I1130 21:48:52.178565 26703 net.cpp:84] Creating Layer conv3
I1130 21:48:52.178570 26703 net.cpp:406] conv3 <- norm2
I1130 21:48:52.178576 26703 net.cpp:380] conv3 -> conv3
I1130 21:48:52.187120 26703 net.cpp:122] Setting up conv3
I1130 21:48:52.187145 26703 net.cpp:129] Top shape: 32 384 13 13 (2076672)
I1130 21:48:52.187150 26703 net.cpp:137] Memory required for data: 179203840
I1130 21:48:52.187163 26703 layer_factory.hpp:77] Creating layer relu3
I1130 21:48:52.187175 26703 net.cpp:84] Creating Layer relu3
I1130 21:48:52.187180 26703 net.cpp:406] relu3 <- conv3
I1130 21:48:52.187187 26703 net.cpp:367] relu3 -> conv3 (in-place)
I1130 21:48:52.187197 26703 net.cpp:122] Setting up relu3
I1130 21:48:52.187202 26703 net.cpp:129] Top shape: 32 384 13 13 (2076672)
I1130 21:48:52.187207 26703 net.cpp:137] Memory required for data: 187510528
I1130 21:48:52.187212 26703 layer_factory.hpp:77] Creating layer conv4
I1130 21:48:52.187222 26703 net.cpp:84] Creating Layer conv4
I1130 21:48:52.187227 26703 net.cpp:406] conv4 <- conv3
I1130 21:48:52.187233 26703 net.cpp:380] conv4 -> conv4
I1130 21:48:52.193840 26703 net.cpp:122] Setting up conv4
I1130 21:48:52.193857 26703 net.cpp:129] Top shape: 32 384 13 13 (2076672)
I1130 21:48:52.193861 26703 net.cpp:137] Memory required for data: 195817216
I1130 21:48:52.193869 26703 layer_factory.hpp:77] Creating layer relu4
I1130 21:48:52.193878 26703 net.cpp:84] Creating Layer relu4
I1130 21:48:52.193883 26703 net.cpp:406] relu4 <- conv4
I1130 21:48:52.193889 26703 net.cpp:367] relu4 -> conv4 (in-place)
I1130 21:48:52.193903 26703 net.cpp:122] Setting up relu4
I1130 21:48:52.193909 26703 net.cpp:129] Top shape: 32 384 13 13 (2076672)
I1130 21:48:52.193914 26703 net.cpp:137] Memory required for data: 204123904
I1130 21:48:52.193919 26703 layer_factory.hpp:77] Creating layer conv5
I1130 21:48:52.193929 26703 net.cpp:84] Creating Layer conv5
I1130 21:48:52.193933 26703 net.cpp:406] conv5 <- conv4
I1130 21:48:52.193940 26703 net.cpp:380] conv5 -> conv5
I1130 21:48:52.198359 26703 net.cpp:122] Setting up conv5
I1130 21:48:52.198379 26703 net.cpp:129] Top shape: 32 256 13 13 (1384448)
I1130 21:48:52.198384 26703 net.cpp:137] Memory required for data: 209661696
I1130 21:48:52.198395 26703 layer_factory.hpp:77] Creating layer relu5
I1130 21:48:52.198405 26703 net.cpp:84] Creating Layer relu5
I1130 21:48:52.198410 26703 net.cpp:406] relu5 <- conv5
I1130 21:48:52.198417 26703 net.cpp:367] relu5 -> conv5 (in-place)
I1130 21:48:52.198431 26703 net.cpp:122] Setting up relu5
I1130 21:48:52.198436 26703 net.cpp:129] Top shape: 32 256 13 13 (1384448)
I1130 21:48:52.198441 26703 net.cpp:137] Memory required for data: 215199488
I1130 21:48:52.198444 26703 layer_factory.hpp:77] Creating layer pool5
I1130 21:48:52.198453 26703 net.cpp:84] Creating Layer pool5
I1130 21:48:52.198458 26703 net.cpp:406] pool5 <- conv5
I1130 21:48:52.198463 26703 net.cpp:380] pool5 -> pool5
I1130 21:48:52.198498 26703 net.cpp:122] Setting up pool5
I1130 21:48:52.198505 26703 net.cpp:129] Top shape: 32 256 6 6 (294912)
I1130 21:48:52.198509 26703 net.cpp:137] Memory required for data: 216379136
I1130 21:48:52.198513 26703 layer_factory.hpp:77] Creating layer fc6
I1130 21:48:52.198521 26703 net.cpp:84] Creating Layer fc6
I1130 21:48:52.198526 26703 net.cpp:406] fc6 <- pool5
I1130 21:48:52.198532 26703 net.cpp:380] fc6 -> fc6
I1130 21:48:52.547778 26703 net.cpp:122] Setting up fc6
I1130 21:48:52.547811 26703 net.cpp:129] Top shape: 32 4096 (131072)
I1130 21:48:52.547816 26703 net.cpp:137] Memory required for data: 216903424
I1130 21:48:52.547825 26703 layer_factory.hpp:77] Creating layer relu6
I1130 21:48:52.547837 26703 net.cpp:84] Creating Layer relu6
I1130 21:48:52.547842 26703 net.cpp:406] relu6 <- fc6
I1130 21:48:52.547850 26703 net.cpp:367] relu6 -> fc6 (in-place)
I1130 21:48:52.547860 26703 net.cpp:122] Setting up relu6
I1130 21:48:52.547866 26703 net.cpp:129] Top shape: 32 4096 (131072)
I1130 21:48:52.547869 26703 net.cpp:137] Memory required for data: 217427712
I1130 21:48:52.547873 26703 layer_factory.hpp:77] Creating layer drop6
I1130 21:48:52.547881 26703 net.cpp:84] Creating Layer drop6
I1130 21:48:52.547885 26703 net.cpp:406] drop6 <- fc6
I1130 21:48:52.547891 26703 net.cpp:367] drop6 -> fc6 (in-place)
I1130 21:48:52.547916 26703 net.cpp:122] Setting up drop6
I1130 21:48:52.547924 26703 net.cpp:129] Top shape: 32 4096 (131072)
I1130 21:48:52.547927 26703 net.cpp:137] Memory required for data: 217952000
I1130 21:48:52.547932 26703 layer_factory.hpp:77] Creating layer fc7
I1130 21:48:52.547941 26703 net.cpp:84] Creating Layer fc7
I1130 21:48:52.547946 26703 net.cpp:406] fc7 <- fc6
I1130 21:48:52.547952 26703 net.cpp:380] fc7 -> fc7
I1130 21:48:52.698173 26703 net.cpp:122] Setting up fc7
I1130 21:48:52.698213 26703 net.cpp:129] Top shape: 32 4096 (131072)
I1130 21:48:52.698217 26703 net.cpp:137] Memory required for data: 218476288
I1130 21:48:52.698227 26703 layer_factory.hpp:77] Creating layer relu7
I1130 21:48:52.698237 26703 net.cpp:84] Creating Layer relu7
I1130 21:48:52.698243 26703 net.cpp:406] relu7 <- fc7
I1130 21:48:52.698251 26703 net.cpp:367] relu7 -> fc7 (in-place)
I1130 21:48:52.698261 26703 net.cpp:122] Setting up relu7
I1130 21:48:52.698266 26703 net.cpp:129] Top shape: 32 4096 (131072)
I1130 21:48:52.698269 26703 net.cpp:137] Memory required for data: 219000576
I1130 21:48:52.698273 26703 layer_factory.hpp:77] Creating layer drop7
I1130 21:48:52.698279 26703 net.cpp:84] Creating Layer drop7
I1130 21:48:52.698284 26703 net.cpp:406] drop7 <- fc7
I1130 21:48:52.698288 26703 net.cpp:367] drop7 -> fc7 (in-place)
I1130 21:48:52.698313 26703 net.cpp:122] Setting up drop7
I1130 21:48:52.698320 26703 net.cpp:129] Top shape: 32 4096 (131072)
I1130 21:48:52.698324 26703 net.cpp:137] Memory required for data: 219524864
I1130 21:48:52.698328 26703 layer_factory.hpp:77] Creating layer fc_scv_pretty
I1130 21:48:52.698336 26703 net.cpp:84] Creating Layer fc_scv_pretty
I1130 21:48:52.698340 26703 net.cpp:406] fc_scv_pretty <- fc7
I1130 21:48:52.698346 26703 net.cpp:380] fc_scv_pretty -> fc_scv_pretty
I1130 21:48:52.698443 26703 net.cpp:122] Setting up fc_scv_pretty
I1130 21:48:52.698451 26703 net.cpp:129] Top shape: 32 1 (32)
I1130 21:48:52.698456 26703 net.cpp:137] Memory required for data: 219524992
I1130 21:48:52.698462 26703 layer_factory.hpp:77] Creating layer fc_scv_pretty_fc_scv_pretty_0_split
I1130 21:48:52.698468 26703 net.cpp:84] Creating Layer fc_scv_pretty_fc_scv_pretty_0_split
I1130 21:48:52.698472 26703 net.cpp:406] fc_scv_pretty_fc_scv_pretty_0_split <- fc_scv_pretty
I1130 21:48:52.698485 26703 net.cpp:380] fc_scv_pretty_fc_scv_pretty_0_split -> fc_scv_pretty_fc_scv_pretty_0_split_0
I1130 21:48:52.698492 26703 net.cpp:380] fc_scv_pretty_fc_scv_pretty_0_split -> fc_scv_pretty_fc_scv_pretty_0_split_1
I1130 21:48:52.698519 26703 net.cpp:122] Setting up fc_scv_pretty_fc_scv_pretty_0_split
I1130 21:48:52.698525 26703 net.cpp:129] Top shape: 32 1 (32)
I1130 21:48:52.698530 26703 net.cpp:129] Top shape: 32 1 (32)
I1130 21:48:52.698534 26703 net.cpp:137] Memory required for data: 219525248
I1130 21:48:52.698539 26703 layer_factory.hpp:77] Creating layer loss
I1130 21:48:52.698544 26703 net.cpp:84] Creating Layer loss
I1130 21:48:52.698549 26703 net.cpp:406] loss <- fc_scv_pretty_fc_scv_pretty_0_split_0
I1130 21:48:52.698554 26703 net.cpp:406] loss <- label_data_1_split_0
I1130 21:48:52.698559 26703 net.cpp:380] loss -> loss
…
