…
I1130 20:30:51.627966 23587 net.cpp:294] The NetState phase (0) differed from the phase (1) specified by a rule in layer losttest
I1130 20:30:51.628123 23587 net.cpp:51] Initializing net from parameters: 
name: "CaffeNet-Places365-SCV-Dangerous"
state {
  phase: TRAIN
  level: 0
  stage: ""
}
layer {
  name: "data"
  type: "Data"
  top: "data"
  top: "label"
  include {
    phase: TRAIN
  }
  transform_param {
    mirror: true
    crop_size: 227
    mean_file: "/idiap/temp/lmedina/fine-tuning/alexnet_places365/places365CNN_mean.binaryproto"
  }
  data_param {
    source: "/idiap/temp/lmedina/fine-tuning/data/Dangerous/train_lmdb"
    batch_size: 32
    backend: LMDB
  }
}
layer {
  name: "conv1"
  type: "Convolution"
  bottom: "data"
  top: "conv1"
  param {
    lr_mult: 1
    decay_mult: 1
  }
  param {
    lr_mult: 2
    decay_mult: 0
  }
  convolution_param {
    num_output: 96
    kernel_size: 11
    stride: 4
    weight_filler {
      type: "gaussian"
      std: 0.01
    }
    bias_filler {
      type: "constant"
      value: 0
    }
  }
}
layer {
  name: "relu1"
  type: "ReLU"
  bottom: "conv1"
  top: "conv1"
}
layer {
  name: "pool1"
  type: "Pooling"
  bottom: "conv1"
  top: "pool1"
  pooling_param {
    pool: MAX
    kernel_size: 3
    stride: 2
  }
}
layer {
  name: "norm1"
  type: "LRN"
  bottom: "pool1"
  top: "norm1"
  lrn_param {
    local_size: 5
    alpha: 0.0001
    beta: 0.75
  }
}
layer {
  name: "conv2"
  type: "Convolution"
  bottom: "norm1"
  top: "conv2"
  param {
    lr_mult: 1
    decay_mult: 1
  }
  param {
    lr_mult: 2
    decay_mult: 0
  }
  convolution_param {
    num_output: 256
    pad: 2
    kernel_size: 5
    group: 2
    weight_filler {
      type: "gaussian"
      std: 0.01
    }
    bias_filler {
      type: "constant"
      value: 1
    }
  }
}
layer {
  name: "relu2"
  type: "ReLU"
  bottom: "conv2"
  top: "conv2"
}
layer {
  name: "pool2"
  type: "Pooling"
  bottom: "conv2"
  top: "pool2"
  pooling_param {
    pool: MAX
    kernel_size: 3
    stride: 2
  }
}
layer {
  name: "norm2"
  type: "LRN"
  bottom: "pool2"
  top: "norm2"
  lrn_param {
    local_size: 5
    alpha: 0.0001
    beta: 0.75
  }
}
layer {
  name: "conv3"
  type: "Convolution"
  bottom: "norm2"
  top: "conv3"
  param {
    lr_mult: 1
    decay_mult: 1
  }
  param {
    lr_mult: 2
    decay_mult: 0
  }
  convolution_param {
    num_output: 384
    pad: 1
    kernel_size: 3
    weight_filler {
      type: "gaussian"
      std: 0.01
    }
    bias_filler {
      type: "constant"
      value: 0
    }
  }
}
layer {
  name: "relu3"
  type: "ReLU"
  bottom: "conv3"
  top: "conv3"
}
layer {
  name: "conv4"
  type: "Convolution"
  bottom: "conv3"
  top: "conv4"
  param {
    lr_mult: 1
    decay_mult: 1
  }
  param {
    lr_mult: 2
    decay_mult: 0
  }
  convolution_param {
    num_output: 384
    pad: 1
    kernel_size: 3
    group: 2
    weight_filler {
      type: "gaussian"
      std: 0.01
    }
    bias_filler {
      type: "constant"
      value: 1
    }
  }
}
layer {
  name: "relu4"
  type: "ReLU"
  bottom: "conv4"
  top: "conv4"
}
layer {
  name: "conv5"
  type: "Convolution"
  bottom: "conv4"
  top: "conv5"
  param {
    lr_mult: 1
    decay_mult: 1
  }
  param {
    lr_mult: 2
    decay_mult: 0
  }
  convolution_param {
    num_output: 256
    pad: 1
    kernel_size: 3
    group: 2
    weight_filler {
      type: "gaussian"
      std: 0.01
    }
    bias_filler {
      type: "constant"
      value: 1
    }
  }
}
layer {
  name: "relu5"
  type: "ReLU"
  bottom: "conv5"
  top: "conv5"
}
layer {
  name: "pool5"
  type: "Pooling"
  bottom: "conv5"
  top: "pool5"
  pooling_param {
    pool: MAX
    kernel_size: 3
    stride: 2
  }
}
layer {
  name: "fc6"
  type: "InnerProduct"
  bottom: "pool5"
  top: "fc6"
  param {
    lr_mult: 1
    decay_mult: 1
  }
  param {
    lr_mult: 2
    decay_mult: 0
  }
  inner_product_param {
    num_output: 4096
    weight_filler {
      type: "gaussian"
      std: 0.005
    }
    bias_filler {
      type: "constant"
      value: 1
    }
  }
}
layer {
  name: "relu6"
  type: "ReLU"
  bottom: "fc6"
  top: "fc6"
}
layer {
  name: "drop6"
  type: "Dropout"
  bottom: "fc6"
  top: "fc6"
  dropout_param {
    dropout_ratio: 0.5
  }
}
layer {
  name: "fc7"
  type: "InnerProduct"
  bottom: "fc6"
  top: "fc7"
  param {
    lr_mult: 1
    decay_mult: 1
  }
  param {
    lr_mult: 2
    decay_mult: 0
  }
  inner_product_param {
    num_output: 4096
    weight_filler {
      type: "gaussian"
      std: 0.005
    }
    bias_filler {
      type: "constant"
      value: 1
    }
  }
}
layer {
  name: "relu7"
  type: "ReLU"
  bottom: "fc7"
  top: "fc7"
}
layer {
  name: "drop7"
  type: "Dropout"
  bottom: "fc7"
  top: "fc7"
  dropout_param {
    dropout_ratio: 0.5
  }
}
layer {
  name: "fc_scv_dangerous"
  type: "InnerProduct"
  bottom: "fc7"
  top: "fc_scv_dangerous"
  param {
    lr_mult: 10
    decay_mult: 1
  }
  param {
    lr_mult: 20
    decay_mult: 0
  }
  inner_product_param {
    num_output: 1
    weight_filler {
      type: "xavier"
      std: 0.01
    }
    bias_filler {
      type: "constant"
      value: 0
    }
  }
}
layer {
  name: "loss"
  type: "EuclideanLoss"
  bottom: "fc_scv_dangerous"
  bottom: "label"
  top: "loss"
}
I1130 20:30:51.628214 23587 layer_factory.hpp:77] Creating layer data
I1130 20:30:51.645437 23587 db_lmdb.cpp:35] Opened lmdb /idiap/temp/lmedina/fine-tuning/data/Dangerous/train_lmdb
I1130 20:30:51.645853 23587 net.cpp:84] Creating Layer data
I1130 20:30:51.645866 23587 net.cpp:380] data -> data
I1130 20:30:51.645889 23587 net.cpp:380] data -> label
I1130 20:30:51.645902 23587 data_transformer.cpp:25] Loading mean file from: /idiap/temp/lmedina/fine-tuning/alexnet_places365/places365CNN_mean.binaryproto
I1130 20:30:51.649945 23587 data_layer.cpp:45] output data size: 32,3,227,227
I1130 20:30:51.696831 23587 net.cpp:122] Setting up data
I1130 20:30:51.696874 23587 net.cpp:129] Top shape: 32 3 227 227 (4946784)
I1130 20:30:51.696884 23587 net.cpp:129] Top shape: 32 (32)
I1130 20:30:51.696889 23587 net.cpp:137] Memory required for data: 19787264
I1130 20:30:51.696902 23587 layer_factory.hpp:77] Creating layer conv1
I1130 20:30:51.696938 23587 net.cpp:84] Creating Layer conv1
I1130 20:30:51.696945 23587 net.cpp:406] conv1 <- data
I1130 20:30:51.696959 23587 net.cpp:380] conv1 -> conv1
I1130 20:30:51.698511 23587 net.cpp:122] Setting up conv1
I1130 20:30:51.698526 23587 net.cpp:129] Top shape: 32 96 55 55 (9292800)
I1130 20:30:51.698531 23587 net.cpp:137] Memory required for data: 56958464
I1130 20:30:51.698549 23587 layer_factory.hpp:77] Creating layer relu1
I1130 20:30:51.698561 23587 net.cpp:84] Creating Layer relu1
I1130 20:30:51.698585 23587 net.cpp:406] relu1 <- conv1
I1130 20:30:51.698591 23587 net.cpp:367] relu1 -> conv1 (in-place)
I1130 20:30:51.698601 23587 net.cpp:122] Setting up relu1
I1130 20:30:51.698609 23587 net.cpp:129] Top shape: 32 96 55 55 (9292800)
I1130 20:30:51.698612 23587 net.cpp:137] Memory required for data: 94129664
I1130 20:30:51.698618 23587 layer_factory.hpp:77] Creating layer pool1
I1130 20:30:51.698627 23587 net.cpp:84] Creating Layer pool1
I1130 20:30:51.698633 23587 net.cpp:406] pool1 <- conv1
I1130 20:30:51.698642 23587 net.cpp:380] pool1 -> pool1
I1130 20:30:51.700290 23587 net.cpp:122] Setting up pool1
I1130 20:30:51.700310 23587 net.cpp:129] Top shape: 32 96 27 27 (2239488)
I1130 20:30:51.700314 23587 net.cpp:137] Memory required for data: 103087616
I1130 20:30:51.700320 23587 layer_factory.hpp:77] Creating layer norm1
I1130 20:30:51.700330 23587 net.cpp:84] Creating Layer norm1
I1130 20:30:51.700333 23587 net.cpp:406] norm1 <- pool1
I1130 20:30:51.700340 23587 net.cpp:380] norm1 -> norm1
I1130 20:30:51.700372 23587 net.cpp:122] Setting up norm1
I1130 20:30:51.700381 23587 net.cpp:129] Top shape: 32 96 27 27 (2239488)
I1130 20:30:51.700384 23587 net.cpp:137] Memory required for data: 112045568
I1130 20:30:51.700389 23587 layer_factory.hpp:77] Creating layer conv2
I1130 20:30:51.700398 23587 net.cpp:84] Creating Layer conv2
I1130 20:30:51.700403 23587 net.cpp:406] conv2 <- norm1
I1130 20:30:51.700410 23587 net.cpp:380] conv2 -> conv2
I1130 20:30:51.703910 23587 net.cpp:122] Setting up conv2
I1130 20:30:51.703928 23587 net.cpp:129] Top shape: 32 256 27 27 (5971968)
I1130 20:30:51.703933 23587 net.cpp:137] Memory required for data: 135933440
I1130 20:30:51.703944 23587 layer_factory.hpp:77] Creating layer relu2
I1130 20:30:51.703955 23587 net.cpp:84] Creating Layer relu2
I1130 20:30:51.703960 23587 net.cpp:406] relu2 <- conv2
I1130 20:30:51.703968 23587 net.cpp:367] relu2 -> conv2 (in-place)
I1130 20:30:51.703976 23587 net.cpp:122] Setting up relu2
I1130 20:30:51.703982 23587 net.cpp:129] Top shape: 32 256 27 27 (5971968)
I1130 20:30:51.703986 23587 net.cpp:137] Memory required for data: 159821312
I1130 20:30:51.703990 23587 layer_factory.hpp:77] Creating layer pool2
I1130 20:30:51.703997 23587 net.cpp:84] Creating Layer pool2
I1130 20:30:51.704002 23587 net.cpp:406] pool2 <- conv2
I1130 20:30:51.704008 23587 net.cpp:380] pool2 -> pool2
I1130 20:30:51.704041 23587 net.cpp:122] Setting up pool2
I1130 20:30:51.704049 23587 net.cpp:129] Top shape: 32 256 13 13 (1384448)
I1130 20:30:51.704053 23587 net.cpp:137] Memory required for data: 165359104
I1130 20:30:51.704057 23587 layer_factory.hpp:77] Creating layer norm2
I1130 20:30:51.704066 23587 net.cpp:84] Creating Layer norm2
I1130 20:30:51.704071 23587 net.cpp:406] norm2 <- pool2
I1130 20:30:51.704075 23587 net.cpp:380] norm2 -> norm2
I1130 20:30:51.704102 23587 net.cpp:122] Setting up norm2
I1130 20:30:51.704108 23587 net.cpp:129] Top shape: 32 256 13 13 (1384448)
I1130 20:30:51.704113 23587 net.cpp:137] Memory required for data: 170896896
I1130 20:30:51.704118 23587 layer_factory.hpp:77] Creating layer conv3
I1130 20:30:51.704128 23587 net.cpp:84] Creating Layer conv3
I1130 20:30:51.704133 23587 net.cpp:406] conv3 <- norm2
I1130 20:30:51.704140 23587 net.cpp:380] conv3 -> conv3
I1130 20:30:51.712558 23587 net.cpp:122] Setting up conv3
I1130 20:30:51.712586 23587 net.cpp:129] Top shape: 32 384 13 13 (2076672)
I1130 20:30:51.712590 23587 net.cpp:137] Memory required for data: 179203584
I1130 20:30:51.712605 23587 layer_factory.hpp:77] Creating layer relu3
I1130 20:30:51.712617 23587 net.cpp:84] Creating Layer relu3
I1130 20:30:51.712625 23587 net.cpp:406] relu3 <- conv3
I1130 20:30:51.712635 23587 net.cpp:367] relu3 -> conv3 (in-place)
I1130 20:30:51.712646 23587 net.cpp:122] Setting up relu3
I1130 20:30:51.712652 23587 net.cpp:129] Top shape: 32 384 13 13 (2076672)
I1130 20:30:51.712657 23587 net.cpp:137] Memory required for data: 187510272
I1130 20:30:51.712662 23587 layer_factory.hpp:77] Creating layer conv4
I1130 20:30:51.712676 23587 net.cpp:84] Creating Layer conv4
I1130 20:30:51.712680 23587 net.cpp:406] conv4 <- conv3
I1130 20:30:51.712687 23587 net.cpp:380] conv4 -> conv4
I1130 20:30:51.719554 23587 net.cpp:122] Setting up conv4
I1130 20:30:51.719575 23587 net.cpp:129] Top shape: 32 384 13 13 (2076672)
I1130 20:30:51.719580 23587 net.cpp:137] Memory required for data: 195816960
I1130 20:30:51.719588 23587 layer_factory.hpp:77] Creating layer relu4
I1130 20:30:51.719599 23587 net.cpp:84] Creating Layer relu4
I1130 20:30:51.719604 23587 net.cpp:406] relu4 <- conv4
I1130 20:30:51.719610 23587 net.cpp:367] relu4 -> conv4 (in-place)
I1130 20:30:51.719624 23587 net.cpp:122] Setting up relu4
I1130 20:30:51.719630 23587 net.cpp:129] Top shape: 32 384 13 13 (2076672)
I1130 20:30:51.719635 23587 net.cpp:137] Memory required for data: 204123648
I1130 20:30:51.719640 23587 layer_factory.hpp:77] Creating layer conv5
I1130 20:30:51.719650 23587 net.cpp:84] Creating Layer conv5
I1130 20:30:51.719655 23587 net.cpp:406] conv5 <- conv4
I1130 20:30:51.719661 23587 net.cpp:380] conv5 -> conv5
I1130 20:30:51.724102 23587 net.cpp:122] Setting up conv5
I1130 20:30:51.724123 23587 net.cpp:129] Top shape: 32 256 13 13 (1384448)
I1130 20:30:51.724128 23587 net.cpp:137] Memory required for data: 209661440
I1130 20:30:51.724141 23587 layer_factory.hpp:77] Creating layer relu5
I1130 20:30:51.724151 23587 net.cpp:84] Creating Layer relu5
I1130 20:30:51.724156 23587 net.cpp:406] relu5 <- conv5
I1130 20:30:51.724164 23587 net.cpp:367] relu5 -> conv5 (in-place)
I1130 20:30:51.724176 23587 net.cpp:122] Setting up relu5
I1130 20:30:51.724181 23587 net.cpp:129] Top shape: 32 256 13 13 (1384448)
I1130 20:30:51.724185 23587 net.cpp:137] Memory required for data: 215199232
I1130 20:30:51.724189 23587 layer_factory.hpp:77] Creating layer pool5
I1130 20:30:51.724195 23587 net.cpp:84] Creating Layer pool5
I1130 20:30:51.724200 23587 net.cpp:406] pool5 <- conv5
I1130 20:30:51.724206 23587 net.cpp:380] pool5 -> pool5
I1130 20:30:51.724241 23587 net.cpp:122] Setting up pool5
I1130 20:30:51.724247 23587 net.cpp:129] Top shape: 32 256 6 6 (294912)
I1130 20:30:51.724252 23587 net.cpp:137] Memory required for data: 216378880
I1130 20:30:51.724256 23587 layer_factory.hpp:77] Creating layer fc6
I1130 20:30:51.724270 23587 net.cpp:84] Creating Layer fc6
I1130 20:30:51.724275 23587 net.cpp:406] fc6 <- pool5
I1130 20:30:51.724282 23587 net.cpp:380] fc6 -> fc6
I1130 20:30:52.076439 23587 net.cpp:122] Setting up fc6
I1130 20:30:52.076472 23587 net.cpp:129] Top shape: 32 4096 (131072)
I1130 20:30:52.076477 23587 net.cpp:137] Memory required for data: 216903168
I1130 20:30:52.076488 23587 layer_factory.hpp:77] Creating layer relu6
I1130 20:30:52.076500 23587 net.cpp:84] Creating Layer relu6
I1130 20:30:52.076505 23587 net.cpp:406] relu6 <- fc6
I1130 20:30:52.076514 23587 net.cpp:367] relu6 -> fc6 (in-place)
I1130 20:30:52.076524 23587 net.cpp:122] Setting up relu6
I1130 20:30:52.076529 23587 net.cpp:129] Top shape: 32 4096 (131072)
I1130 20:30:52.076534 23587 net.cpp:137] Memory required for data: 217427456
I1130 20:30:52.076537 23587 layer_factory.hpp:77] Creating layer drop6
I1130 20:30:52.076548 23587 net.cpp:84] Creating Layer drop6
I1130 20:30:52.076552 23587 net.cpp:406] drop6 <- fc6
I1130 20:30:52.076557 23587 net.cpp:367] drop6 -> fc6 (in-place)
I1130 20:30:52.076584 23587 net.cpp:122] Setting up drop6
I1130 20:30:52.076591 23587 net.cpp:129] Top shape: 32 4096 (131072)
I1130 20:30:52.076596 23587 net.cpp:137] Memory required for data: 217951744
I1130 20:30:52.076601 23587 layer_factory.hpp:77] Creating layer fc7
I1130 20:30:52.076609 23587 net.cpp:84] Creating Layer fc7
I1130 20:30:52.076614 23587 net.cpp:406] fc7 <- fc6
I1130 20:30:52.076620 23587 net.cpp:380] fc7 -> fc7
I1130 20:30:52.232995 23587 net.cpp:122] Setting up fc7
I1130 20:30:52.233026 23587 net.cpp:129] Top shape: 32 4096 (131072)
I1130 20:30:52.233029 23587 net.cpp:137] Memory required for data: 218476032
I1130 20:30:52.233041 23587 layer_factory.hpp:77] Creating layer relu7
I1130 20:30:52.233052 23587 net.cpp:84] Creating Layer relu7
I1130 20:30:52.233057 23587 net.cpp:406] relu7 <- fc7
I1130 20:30:52.233065 23587 net.cpp:367] relu7 -> fc7 (in-place)
I1130 20:30:52.233075 23587 net.cpp:122] Setting up relu7
I1130 20:30:52.233081 23587 net.cpp:129] Top shape: 32 4096 (131072)
I1130 20:30:52.233084 23587 net.cpp:137] Memory required for data: 219000320
I1130 20:30:52.233088 23587 layer_factory.hpp:77] Creating layer drop7
I1130 20:30:52.233095 23587 net.cpp:84] Creating Layer drop7
I1130 20:30:52.233100 23587 net.cpp:406] drop7 <- fc7
I1130 20:30:52.233105 23587 net.cpp:367] drop7 -> fc7 (in-place)
I1130 20:30:52.233130 23587 net.cpp:122] Setting up drop7
I1130 20:30:52.233144 23587 net.cpp:129] Top shape: 32 4096 (131072)
I1130 20:30:52.233147 23587 net.cpp:137] Memory required for data: 219524608
I1130 20:30:52.233151 23587 layer_factory.hpp:77] Creating layer fc_scv_dangerous
I1130 20:30:52.233160 23587 net.cpp:84] Creating Layer fc_scv_dangerous
I1130 20:30:52.233165 23587 net.cpp:406] fc_scv_dangerous <- fc7
I1130 20:30:52.233171 23587 net.cpp:380] fc_scv_dangerous -> fc_scv_dangerous
I1130 20:30:52.233292 23587 net.cpp:122] Setting up fc_scv_dangerous
I1130 20:30:52.233301 23587 net.cpp:129] Top shape: 32 1 (32)
I1130 20:30:52.233305 23587 net.cpp:137] Memory required for data: 219524736
I1130 20:30:52.233312 23587 layer_factory.hpp:77] Creating layer loss
I1130 20:30:52.233320 23587 net.cpp:84] Creating Layer loss
I1130 20:30:52.233325 23587 net.cpp:406] loss <- fc_scv_dangerous
I1130 20:30:52.233330 23587 net.cpp:406] loss <- label
I1130 20:30:52.233338 23587 net.cpp:380] loss -> loss
I1130 20:30:52.233371 23587 net.cpp:122] Setting up loss
…
I1130 20:30:52.234347 23587 net.cpp:294] The NetState phase (1) differed from the phase (0) specified by a rule in layer data
I1130 20:30:52.234513 23587 net.cpp:51] Initializing net from parameters: 
name: "CaffeNet-Places365-SCV-Dangerous"
state {
  phase: TEST
}
layer {
  name: "data"
  type: "Data"
  top: "data"
  top: "label"
  include {
    phase: TEST
  }
  transform_param {
    mirror: false
    crop_size: 227
    mean_file: "/idiap/temp/lmedina/fine-tuning/alexnet_places365/places365CNN_mean.binaryproto"
  }
  data_param {
    source: "/idiap/temp/lmedina/fine-tuning/data/Dangerous/validation_lmdb"
    batch_size: 32
    backend: LMDB
  }
}
layer {
  name: "conv1"
  type: "Convolution"
  bottom: "data"
  top: "conv1"
  param {
    lr_mult: 1
    decay_mult: 1
  }
  param {
    lr_mult: 2
    decay_mult: 0
  }
  convolution_param {
    num_output: 96
    kernel_size: 11
    stride: 4
    weight_filler {
      type: "gaussian"
      std: 0.01
    }
    bias_filler {
      type: "constant"
      value: 0
    }
  }
}
layer {
  name: "relu1"
  type: "ReLU"
  bottom: "conv1"
  top: "conv1"
}
layer {
  name: "pool1"
  type: "Pooling"
  bottom: "conv1"
  top: "pool1"
  pooling_param {
    pool: MAX
    kernel_size: 3
    stride: 2
  }
}
layer {
  name: "norm1"
  type: "LRN"
  bottom: "pool1"
  top: "norm1"
  lrn_param {
    local_size: 5
    alpha: 0.0001
    beta: 0.75
  }
}
layer {
  name: "conv2"
  type: "Convolution"
  bottom: "norm1"
  top: "conv2"
  param {
    lr_mult: 1
    decay_mult: 1
  }
  param {
    lr_mult: 2
    decay_mult: 0
  }
  convolution_param {
    num_output: 256
    pad: 2
    kernel_size: 5
    group: 2
    weight_filler {
      type: "gaussian"
      std: 0.01
    }
    bias_filler {
      type: "constant"
      value: 1
    }
  }
}
layer {
  name: "relu2"
  type: "ReLU"
  bottom: "conv2"
  top: "conv2"
}
layer {
  name: "pool2"
  type: "Pooling"
  bottom: "conv2"
  top: "pool2"
  pooling_param {
    pool: MAX
    kernel_size: 3
    stride: 2
  }
}
layer {
  name: "norm2"
  type: "LRN"
  bottom: "pool2"
  top: "norm2"
  lrn_param {
    local_size: 5
    alpha: 0.0001
    beta: 0.75
  }
}
layer {
  name: "conv3"
  type: "Convolution"
  bottom: "norm2"
  top: "conv3"
  param {
    lr_mult: 1
    decay_mult: 1
  }
  param {
    lr_mult: 2
    decay_mult: 0
  }
  convolution_param {
    num_output: 384
    pad: 1
    kernel_size: 3
    weight_filler {
      type: "gaussian"
      std: 0.01
    }
    bias_filler {
      type: "constant"
      value: 0
    }
  }
}
layer {
  name: "relu3"
  type: "ReLU"
  bottom: "conv3"
  top: "conv3"
}
layer {
  name: "conv4"
  type: "Convolution"
  bottom: "conv3"
  top: "conv4"
  param {
    lr_mult: 1
    decay_mult: 1
  }
  param {
    lr_mult: 2
    decay_mult: 0
  }
  convolution_param {
    num_output: 384
    pad: 1
    kernel_size: 3
    group: 2
    weight_filler {
      type: "gaussian"
      std: 0.01
    }
    bias_filler {
      type: "constant"
      value: 1
    }
  }
}
layer {
  name: "relu4"
  type: "ReLU"
  bottom: "conv4"
  top: "conv4"
}
layer {
  name: "conv5"
  type: "Convolution"
  bottom: "conv4"
  top: "conv5"
  param {
    lr_mult: 1
    decay_mult: 1
  }
  param {
    lr_mult: 2
    decay_mult: 0
  }
  convolution_param {
    num_output: 256
    pad: 1
    kernel_size: 3
    group: 2
    weight_filler {
      type: "gaussian"
      std: 0.01
    }
    bias_filler {
      type: "constant"
      value: 1
    }
  }
}
layer {
  name: "relu5"
  type: "ReLU"
  bottom: "conv5"
  top: "conv5"
}
layer {
  name: "pool5"
  type: "Pooling"
  bottom: "conv5"
  top: "pool5"
  pooling_param {
    pool: MAX
    kernel_size: 3
    stride: 2
  }
}
layer {
  name: "fc6"
  type: "InnerProduct"
  bottom: "pool5"
  top: "fc6"
  param {
    lr_mult: 1
    decay_mult: 1
  }
  param {
    lr_mult: 2
    decay_mult: 0
  }
  inner_product_param {
    num_output: 4096
    weight_filler {
      type: "gaussian"
      std: 0.005
    }
    bias_filler {
      type: "constant"
      value: 1
    }
  }
}
layer {
  name: "relu6"
  type: "ReLU"
  bottom: "fc6"
  top: "fc6"
}
layer {
  name: "drop6"
  type: "Dropout"
  bottom: "fc6"
  top: "fc6"
  dropout_param {
    dropout_ratio: 0.5
  }
}
layer {
  name: "fc7"
  type: "InnerProduct"
  bottom: "fc6"
  top: "fc7"
  param {
    lr_mult: 1
    decay_mult: 1
  }
  param {
    lr_mult: 2
    decay_mult: 0
  }
  inner_product_param {
    num_output: 4096
    weight_filler {
      type: "gaussian"
      std: 0.005
    }
    bias_filler {
      type: "constant"
      value: 1
    }
  }
}
layer {
  name: "relu7"
  type: "ReLU"
  bottom: "fc7"
  top: "fc7"
}
layer {
  name: "drop7"
  type: "Dropout"
  bottom: "fc7"
  top: "fc7"
  dropout_param {
    dropout_ratio: 0.5
  }
}
layer {
  name: "fc_scv_dangerous"
  type: "InnerProduct"
  bottom: "fc7"
  top: "fc_scv_dangerous"
  param {
    lr_mult: 10
    decay_mult: 1
  }
  param {
    lr_mult: 20
    decay_mult: 0
  }
  inner_product_param {
    num_output: 1
    weight_filler {
      type: "xavier"
      std: 0.01
    }
    bias_filler {
      type: "constant"
      value: 0
    }
  }
}
layer {
  name: "loss"
  type: "EuclideanLoss"
  bottom: "fc_scv_dangerous"
  bottom: "label"
  top: "loss"
}
layer {
  name: "losttest"
  type: "EuclideanLoss"
  bottom: "fc_scv_dangerous"
  bottom: "label"
  top: "losttest"
  include {
    phase: TEST
  }
}
I1130 20:30:52.234608 23587 layer_factory.hpp:77] Creating layer data
I1130 20:30:52.236882 23587 db_lmdb.cpp:35] Opened lmdb /idiap/temp/lmedina/fine-tuning/data/Dangerous/validation_lmdb
I1130 20:30:52.237295 23587 net.cpp:84] Creating Layer data
I1130 20:30:52.237305 23587 net.cpp:380] data -> data
I1130 20:30:52.237315 23587 net.cpp:380] data -> label
I1130 20:30:52.237324 23587 data_transformer.cpp:25] Loading mean file from: /idiap/temp/lmedina/fine-tuning/alexnet_places365/places365CNN_mean.binaryproto
I1130 20:30:52.239056 23587 data_layer.cpp:45] output data size: 32,3,227,227
I1130 20:30:52.274329 23587 net.cpp:122] Setting up data
I1130 20:30:52.274361 23587 net.cpp:129] Top shape: 32 3 227 227 (4946784)
I1130 20:30:52.274368 23587 net.cpp:129] Top shape: 32 (32)
I1130 20:30:52.274371 23587 net.cpp:137] Memory required for data: 19787264
I1130 20:30:52.274379 23587 layer_factory.hpp:77] Creating layer label_data_1_split
I1130 20:30:52.274394 23587 net.cpp:84] Creating Layer label_data_1_split
I1130 20:30:52.274399 23587 net.cpp:406] label_data_1_split <- label
I1130 20:30:52.274410 23587 net.cpp:380] label_data_1_split -> label_data_1_split_0
I1130 20:30:52.274422 23587 net.cpp:380] label_data_1_split -> label_data_1_split_1
I1130 20:30:52.274466 23587 net.cpp:122] Setting up label_data_1_split
I1130 20:30:52.274472 23587 net.cpp:129] Top shape: 32 (32)
I1130 20:30:52.274477 23587 net.cpp:129] Top shape: 32 (32)
I1130 20:30:52.274480 23587 net.cpp:137] Memory required for data: 19787520
I1130 20:30:52.274485 23587 layer_factory.hpp:77] Creating layer conv1
I1130 20:30:52.274500 23587 net.cpp:84] Creating Layer conv1
I1130 20:30:52.274505 23587 net.cpp:406] conv1 <- data
I1130 20:30:52.274513 23587 net.cpp:380] conv1 -> conv1
I1130 20:30:52.275015 23587 net.cpp:122] Setting up conv1
I1130 20:30:52.275025 23587 net.cpp:129] Top shape: 32 96 55 55 (9292800)
I1130 20:30:52.275029 23587 net.cpp:137] Memory required for data: 56958720
I1130 20:30:52.275040 23587 layer_factory.hpp:77] Creating layer relu1
I1130 20:30:52.275048 23587 net.cpp:84] Creating Layer relu1
I1130 20:30:52.275051 23587 net.cpp:406] relu1 <- conv1
I1130 20:30:52.275056 23587 net.cpp:367] relu1 -> conv1 (in-place)
I1130 20:30:52.275065 23587 net.cpp:122] Setting up relu1
I1130 20:30:52.275070 23587 net.cpp:129] Top shape: 32 96 55 55 (9292800)
I1130 20:30:52.275074 23587 net.cpp:137] Memory required for data: 94129920
I1130 20:30:52.275079 23587 layer_factory.hpp:77] Creating layer pool1
I1130 20:30:52.275086 23587 net.cpp:84] Creating Layer pool1
I1130 20:30:52.275092 23587 net.cpp:406] pool1 <- conv1
I1130 20:30:52.275097 23587 net.cpp:380] pool1 -> pool1
I1130 20:30:52.275128 23587 net.cpp:122] Setting up pool1
I1130 20:30:52.275136 23587 net.cpp:129] Top shape: 32 96 27 27 (2239488)
I1130 20:30:52.275141 23587 net.cpp:137] Memory required for data: 103087872
I1130 20:30:52.275144 23587 layer_factory.hpp:77] Creating layer norm1
I1130 20:30:52.275152 23587 net.cpp:84] Creating Layer norm1
I1130 20:30:52.275157 23587 net.cpp:406] norm1 <- pool1
I1130 20:30:52.275164 23587 net.cpp:380] norm1 -> norm1
I1130 20:30:52.275234 23587 net.cpp:122] Setting up norm1
I1130 20:30:52.275243 23587 net.cpp:129] Top shape: 32 96 27 27 (2239488)
I1130 20:30:52.275248 23587 net.cpp:137] Memory required for data: 112045824
I1130 20:30:52.275251 23587 layer_factory.hpp:77] Creating layer conv2
I1130 20:30:52.275261 23587 net.cpp:84] Creating Layer conv2
I1130 20:30:52.275266 23587 net.cpp:406] conv2 <- norm1
I1130 20:30:52.275274 23587 net.cpp:380] conv2 -> conv2
I1130 20:30:52.278396 23587 net.cpp:122] Setting up conv2
I1130 20:30:52.278409 23587 net.cpp:129] Top shape: 32 256 27 27 (5971968)
I1130 20:30:52.278414 23587 net.cpp:137] Memory required for data: 135933696
I1130 20:30:52.278424 23587 layer_factory.hpp:77] Creating layer relu2
I1130 20:30:52.278430 23587 net.cpp:84] Creating Layer relu2
I1130 20:30:52.278435 23587 net.cpp:406] relu2 <- conv2
I1130 20:30:52.278441 23587 net.cpp:367] relu2 -> conv2 (in-place)
I1130 20:30:52.278450 23587 net.cpp:122] Setting up relu2
I1130 20:30:52.278455 23587 net.cpp:129] Top shape: 32 256 27 27 (5971968)
I1130 20:30:52.278460 23587 net.cpp:137] Memory required for data: 159821568
I1130 20:30:52.278463 23587 layer_factory.hpp:77] Creating layer pool2
I1130 20:30:52.278470 23587 net.cpp:84] Creating Layer pool2
I1130 20:30:52.278475 23587 net.cpp:406] pool2 <- conv2
I1130 20:30:52.278481 23587 net.cpp:380] pool2 -> pool2
I1130 20:30:52.278512 23587 net.cpp:122] Setting up pool2
I1130 20:30:52.278519 23587 net.cpp:129] Top shape: 32 256 13 13 (1384448)
I1130 20:30:52.278525 23587 net.cpp:137] Memory required for data: 165359360
I1130 20:30:52.278529 23587 layer_factory.hpp:77] Creating layer norm2
I1130 20:30:52.278537 23587 net.cpp:84] Creating Layer norm2
I1130 20:30:52.278542 23587 net.cpp:406] norm2 <- pool2
I1130 20:30:52.278548 23587 net.cpp:380] norm2 -> norm2
I1130 20:30:52.278574 23587 net.cpp:122] Setting up norm2
I1130 20:30:52.278581 23587 net.cpp:129] Top shape: 32 256 13 13 (1384448)
I1130 20:30:52.278585 23587 net.cpp:137] Memory required for data: 170897152
I1130 20:30:52.278589 23587 layer_factory.hpp:77] Creating layer conv3
I1130 20:30:52.278599 23587 net.cpp:84] Creating Layer conv3
I1130 20:30:52.278604 23587 net.cpp:406] conv3 <- norm2
I1130 20:30:52.278610 23587 net.cpp:380] conv3 -> conv3
I1130 20:30:52.287127 23587 net.cpp:122] Setting up conv3
I1130 20:30:52.287154 23587 net.cpp:129] Top shape: 32 384 13 13 (2076672)
I1130 20:30:52.287158 23587 net.cpp:137] Memory required for data: 179203840
I1130 20:30:52.287173 23587 layer_factory.hpp:77] Creating layer relu3
I1130 20:30:52.287185 23587 net.cpp:84] Creating Layer relu3
I1130 20:30:52.287191 23587 net.cpp:406] relu3 <- conv3
I1130 20:30:52.287200 23587 net.cpp:367] relu3 -> conv3 (in-place)
I1130 20:30:52.287210 23587 net.cpp:122] Setting up relu3
I1130 20:30:52.287216 23587 net.cpp:129] Top shape: 32 384 13 13 (2076672)
I1130 20:30:52.287221 23587 net.cpp:137] Memory required for data: 187510528
I1130 20:30:52.287225 23587 layer_factory.hpp:77] Creating layer conv4
I1130 20:30:52.287236 23587 net.cpp:84] Creating Layer conv4
I1130 20:30:52.287241 23587 net.cpp:406] conv4 <- conv3
I1130 20:30:52.287247 23587 net.cpp:380] conv4 -> conv4
I1130 20:30:52.293695 23587 net.cpp:122] Setting up conv4
I1130 20:30:52.293715 23587 net.cpp:129] Top shape: 32 384 13 13 (2076672)
I1130 20:30:52.293720 23587 net.cpp:137] Memory required for data: 195817216
I1130 20:30:52.293727 23587 layer_factory.hpp:77] Creating layer relu4
I1130 20:30:52.293736 23587 net.cpp:84] Creating Layer relu4
I1130 20:30:52.293742 23587 net.cpp:406] relu4 <- conv4
I1130 20:30:52.293750 23587 net.cpp:367] relu4 -> conv4 (in-place)
I1130 20:30:52.293758 23587 net.cpp:122] Setting up relu4
I1130 20:30:52.293764 23587 net.cpp:129] Top shape: 32 384 13 13 (2076672)
I1130 20:30:52.293768 23587 net.cpp:137] Memory required for data: 204123904
I1130 20:30:52.293772 23587 layer_factory.hpp:77] Creating layer conv5
I1130 20:30:52.293782 23587 net.cpp:84] Creating Layer conv5
I1130 20:30:52.293787 23587 net.cpp:406] conv5 <- conv4
I1130 20:30:52.293794 23587 net.cpp:380] conv5 -> conv5
I1130 20:30:52.298211 23587 net.cpp:122] Setting up conv5
I1130 20:30:52.298233 23587 net.cpp:129] Top shape: 32 256 13 13 (1384448)
I1130 20:30:52.298238 23587 net.cpp:137] Memory required for data: 209661696
I1130 20:30:52.298251 23587 layer_factory.hpp:77] Creating layer relu5
I1130 20:30:52.298261 23587 net.cpp:84] Creating Layer relu5
I1130 20:30:52.298267 23587 net.cpp:406] relu5 <- conv5
I1130 20:30:52.298280 23587 net.cpp:367] relu5 -> conv5 (in-place)
I1130 20:30:52.298290 23587 net.cpp:122] Setting up relu5
I1130 20:30:52.298296 23587 net.cpp:129] Top shape: 32 256 13 13 (1384448)
I1130 20:30:52.298300 23587 net.cpp:137] Memory required for data: 215199488
I1130 20:30:52.298305 23587 layer_factory.hpp:77] Creating layer pool5
I1130 20:30:52.298313 23587 net.cpp:84] Creating Layer pool5
I1130 20:30:52.298318 23587 net.cpp:406] pool5 <- conv5
I1130 20:30:52.298323 23587 net.cpp:380] pool5 -> pool5
I1130 20:30:52.298360 23587 net.cpp:122] Setting up pool5
I1130 20:30:52.298368 23587 net.cpp:129] Top shape: 32 256 6 6 (294912)
I1130 20:30:52.298372 23587 net.cpp:137] Memory required for data: 216379136
I1130 20:30:52.298377 23587 layer_factory.hpp:77] Creating layer fc6
I1130 20:30:52.298385 23587 net.cpp:84] Creating Layer fc6
I1130 20:30:52.298389 23587 net.cpp:406] fc6 <- pool5
I1130 20:30:52.298395 23587 net.cpp:380] fc6 -> fc6
I1130 20:30:52.647567 23587 net.cpp:122] Setting up fc6
I1130 20:30:52.647598 23587 net.cpp:129] Top shape: 32 4096 (131072)
I1130 20:30:52.647603 23587 net.cpp:137] Memory required for data: 216903424
I1130 20:30:52.647614 23587 layer_factory.hpp:77] Creating layer relu6
I1130 20:30:52.647624 23587 net.cpp:84] Creating Layer relu6
I1130 20:30:52.647629 23587 net.cpp:406] relu6 <- fc6
I1130 20:30:52.647637 23587 net.cpp:367] relu6 -> fc6 (in-place)
I1130 20:30:52.647649 23587 net.cpp:122] Setting up relu6
I1130 20:30:52.647655 23587 net.cpp:129] Top shape: 32 4096 (131072)
I1130 20:30:52.647657 23587 net.cpp:137] Memory required for data: 217427712
I1130 20:30:52.647661 23587 layer_factory.hpp:77] Creating layer drop6
I1130 20:30:52.647668 23587 net.cpp:84] Creating Layer drop6
I1130 20:30:52.647672 23587 net.cpp:406] drop6 <- fc6
I1130 20:30:52.647678 23587 net.cpp:367] drop6 -> fc6 (in-place)
I1130 20:30:52.647703 23587 net.cpp:122] Setting up drop6
I1130 20:30:52.647711 23587 net.cpp:129] Top shape: 32 4096 (131072)
I1130 20:30:52.647714 23587 net.cpp:137] Memory required for data: 217952000
I1130 20:30:52.647718 23587 layer_factory.hpp:77] Creating layer fc7
I1130 20:30:52.647728 23587 net.cpp:84] Creating Layer fc7
I1130 20:30:52.647732 23587 net.cpp:406] fc7 <- fc6
I1130 20:30:52.647739 23587 net.cpp:380] fc7 -> fc7
I1130 20:30:52.802605 23587 net.cpp:122] Setting up fc7
I1130 20:30:52.802637 23587 net.cpp:129] Top shape: 32 4096 (131072)
I1130 20:30:52.802641 23587 net.cpp:137] Memory required for data: 218476288
I1130 20:30:52.802654 23587 layer_factory.hpp:77] Creating layer relu7
I1130 20:30:52.802664 23587 net.cpp:84] Creating Layer relu7
I1130 20:30:52.802670 23587 net.cpp:406] relu7 <- fc7
I1130 20:30:52.802678 23587 net.cpp:367] relu7 -> fc7 (in-place)
I1130 20:30:52.802691 23587 net.cpp:122] Setting up relu7
I1130 20:30:52.802696 23587 net.cpp:129] Top shape: 32 4096 (131072)
I1130 20:30:52.802700 23587 net.cpp:137] Memory required for data: 219000576
I1130 20:30:52.802705 23587 layer_factory.hpp:77] Creating layer drop7
I1130 20:30:52.802711 23587 net.cpp:84] Creating Layer drop7
I1130 20:30:52.802716 23587 net.cpp:406] drop7 <- fc7
I1130 20:30:52.802721 23587 net.cpp:367] drop7 -> fc7 (in-place)
I1130 20:30:52.802747 23587 net.cpp:122] Setting up drop7
I1130 20:30:52.802754 23587 net.cpp:129] Top shape: 32 4096 (131072)
I1130 20:30:52.802758 23587 net.cpp:137] Memory required for data: 219524864
I1130 20:30:52.802762 23587 layer_factory.hpp:77] Creating layer fc_scv_dangerous
I1130 20:30:52.802779 23587 net.cpp:84] Creating Layer fc_scv_dangerous
I1130 20:30:52.802784 23587 net.cpp:406] fc_scv_dangerous <- fc7
I1130 20:30:52.802791 23587 net.cpp:380] fc_scv_dangerous -> fc_scv_dangerous
I1130 20:30:52.802896 23587 net.cpp:122] Setting up fc_scv_dangerous
I1130 20:30:52.802904 23587 net.cpp:129] Top shape: 32 1 (32)
I1130 20:30:52.802909 23587 net.cpp:137] Memory required for data: 219524992
I1130 20:30:52.802917 23587 layer_factory.hpp:77] Creating layer fc_scv_dangerous_fc_scv_dangerous_0_split
I1130 20:30:52.802924 23587 net.cpp:84] Creating Layer fc_scv_dangerous_fc_scv_dangerous_0_split
I1130 20:30:52.802937 23587 net.cpp:406] fc_scv_dangerous_fc_scv_dangerous_0_split <- fc_scv_dangerous
I1130 20:30:52.802943 23587 net.cpp:380] fc_scv_dangerous_fc_scv_dangerous_0_split -> fc_scv_dangerous_fc_scv_dangerous_0_split_0
I1130 20:30:52.802950 23587 net.cpp:380] fc_scv_dangerous_fc_scv_dangerous_0_split -> fc_scv_dangerous_fc_scv_dangerous_0_split_1
I1130 20:30:52.802979 23587 net.cpp:122] Setting up fc_scv_dangerous_fc_scv_dangerous_0_split
I1130 20:30:52.802987 23587 net.cpp:129] Top shape: 32 1 (32)
I1130 20:30:52.802992 23587 net.cpp:129] Top shape: 32 1 (32)
I1130 20:30:52.802996 23587 net.cpp:137] Memory required for data: 219525248
I1130 20:30:52.803001 23587 layer_factory.hpp:77] Creating layer loss
I1130 20:30:52.803007 23587 net.cpp:84] Creating Layer loss
I1130 20:30:52.803012 23587 net.cpp:406] loss <- fc_scv_dangerous_fc_scv_dangerous_0_split_0
I1130 20:30:52.803017 23587 net.cpp:406] loss <- label_data_1_split_0
I1130 20:30:52.803023 23587 net.cpp:380] loss -> loss
…
