…
I1206 01:23:07.423504 12084 net.cpp:294] The NetState phase (0) differed from the phase (1) specified by a rule in layer losttest
I1206 01:23:07.423970 12084 net.cpp:51] Initializing net from parameters: 
name: "VGG-Places365-SCV-Quiet"
state {
  phase: TRAIN
  level: 0
  stage: ""
}
layer {
  name: "data"
  type: "Data"
  top: "data"
  top: "label"
  include {
    phase: TRAIN
  }
  transform_param {
    mirror: true
    crop_size: 224
    mean_file: "/idiap/temp/lmedina/fine-tuning/vgg16_places365/places365CNN_mean.binaryproto"
  }
  data_param {
    source: "/idiap/temp/lmedina/fine-tuning/data/Quiet/train_lmdb"
    batch_size: 16
    backend: LMDB
  }
}
layer {
  name: "conv1_1"
  type: "Convolution"
  bottom: "data"
  top: "conv1_1"
  param {
    lr_mult: 1
    decay_mult: 1
  }
  param {
    lr_mult: 2
    decay_mult: 0
  }
  convolution_param {
    num_output: 64
    pad: 1
    kernel_size: 3
    weight_filler {
      type: "gaussian"
      std: 0.01
    }
    bias_filler {
      type: "constant"
      value: 0
    }
  }
}
layer {
  name: "relu1_1"
  type: "ReLU"
  bottom: "conv1_1"
  top: "conv1_1"
}
layer {
  name: "conv1_2"
  type: "Convolution"
  bottom: "conv1_1"
  top: "conv1_2"
  param {
    lr_mult: 1
    decay_mult: 1
  }
  param {
    lr_mult: 2
    decay_mult: 0
  }
  convolution_param {
    num_output: 64
    pad: 1
    kernel_size: 3
    weight_filler {
      type: "gaussian"
      std: 0.01
    }
    bias_filler {
      type: "constant"
      value: 0
    }
  }
}
layer {
  name: "relu1_2"
  type: "ReLU"
  bottom: "conv1_2"
  top: "conv1_2"
}
layer {
  name: "pool1"
  type: "Pooling"
  bottom: "conv1_2"
  top: "pool1"
  pooling_param {
    pool: MAX
    kernel_size: 2
    stride: 2
  }
}
layer {
  name: "conv2_1"
  type: "Convolution"
  bottom: "pool1"
  top: "conv2_1"
  param {
    lr_mult: 1
    decay_mult: 1
  }
  param {
    lr_mult: 2
    decay_mult: 0
  }
  convolution_param {
    num_output: 128
    pad: 1
    kernel_size: 3
    weight_filler {
      type: "gaussian"
      std: 0.01
    }
    bias_filler {
      type: "constant"
      value: 0
    }
  }
}
layer {
  name: "relu2_1"
  type: "ReLU"
  bottom: "conv2_1"
  top: "conv2_1"
}
layer {
  name: "conv2_2"
  type: "Convolution"
  bottom: "conv2_1"
  top: "conv2_2"
  param {
    lr_mult: 1
    decay_mult: 1
  }
  param {
    lr_mult: 2
    decay_mult: 0
  }
  convolution_param {
    num_output: 128
    pad: 1
    kernel_size: 3
    weight_filler {
      type: "gaussian"
      std: 0.01
    }
    bias_filler {
      type: "constant"
      value: 0
    }
  }
}
layer {
  name: "relu2_2"
  type: "ReLU"
  bottom: "conv2_2"
  top: "conv2_2"
}
layer {
  name: "pool2"
  type: "Pooling"
  bottom: "conv2_2"
  top: "pool2"
  pooling_param {
    pool: MAX
    kernel_size: 2
    stride: 2
  }
}
layer {
  name: "conv3_1"
  type: "Convolution"
  bottom: "pool2"
  top: "conv3_1"
  param {
    lr_mult: 1
    decay_mult: 1
  }
  param {
    lr_mult: 2
    decay_mult: 0
  }
  convolution_param {
    num_output: 256
    pad: 1
    kernel_size: 3
    weight_filler {
      type: "gaussian"
      std: 0.01
    }
    bias_filler {
      type: "constant"
      value: 0
    }
  }
}
layer {
  name: "relu3_1"
  type: "ReLU"
  bottom: "conv3_1"
  top: "conv3_1"
}
layer {
  name: "conv3_2"
  type: "Convolution"
  bottom: "conv3_1"
  top: "conv3_2"
  param {
    lr_mult: 1
    decay_mult: 1
  }
  param {
    lr_mult: 2
    decay_mult: 0
  }
  convolution_param {
    num_output: 256
    pad: 1
    kernel_size: 3
    weight_filler {
      type: "gaussian"
      std: 0.01
    }
    bias_filler {
      type: "constant"
      value: 0
    }
  }
}
layer {
  name: "relu3_2"
  type: "ReLU"
  bottom: "conv3_2"
  top: "conv3_2"
}
layer {
  name: "conv3_3"
  type: "Convolution"
  bottom: "conv3_2"
  top: "conv3_3"
  param {
    lr_mult: 1
    decay_mult: 1
  }
  param {
    lr_mult: 2
    decay_mult: 0
  }
  convolution_param {
    num_output: 256
    pad: 1
    kernel_size: 3
    weight_filler {
      type: "gaussian"
      std: 0.01
    }
    bias_filler {
      type: "constant"
      value: 0
    }
  }
}
layer {
  name: "relu3_3"
  type: "ReLU"
  bottom: "conv3_3"
  top: "conv3_3"
}
layer {
  name: "pool3"
  type: "Pooling"
  bottom: "conv3_3"
  top: "pool3"
  pooling_param {
    pool: MAX
    kernel_size: 2
    stride: 2
  }
}
layer {
  name: "conv4_1"
  type: "Convolution"
  bottom: "pool3"
  top: "conv4_1"
  param {
    lr_mult: 1
    decay_mult: 1
  }
  param {
    lr_mult: 2
    decay_mult: 0
  }
  convolution_param {
    num_output: 512
    pad: 1
    kernel_size: 3
    weight_filler {
      type: "gaussian"
      std: 0.01
    }
    bias_filler {
      type: "constant"
      value: 0
    }
  }
}
layer {
  name: "relu4_1"
  type: "ReLU"
  bottom: "conv4_1"
  top: "conv4_1"
}
layer {
  name: "conv4_2"
  type: "Convolution"
  bottom: "conv4_1"
  top: "conv4_2"
  param {
    lr_mult: 1
    decay_mult: 1
  }
  param {
    lr_mult: 2
    decay_mult: 0
  }
  convolution_param {
    num_output: 512
    pad: 1
    kernel_size: 3
    weight_filler {
      type: "gaussian"
      std: 0.01
    }
    bias_filler {
      type: "constant"
      value: 0
    }
  }
}
layer {
  name: "relu4_2"
  type: "ReLU"
  bottom: "conv4_2"
  top: "conv4_2"
}
layer {
  name: "conv4_3"
  type: "Convolution"
  bottom: "conv4_2"
  top: "conv4_3"
  param {
    lr_mult: 1
    decay_mult: 1
  }
  param {
    lr_mult: 2
    decay_mult: 0
  }
  convolution_param {
    num_output: 512
    pad: 1
    kernel_size: 3
    weight_filler {
      type: "gaussian"
      std: 0.01
    }
    bias_filler {
      type: "constant"
      value: 0
    }
  }
}
layer {
  name: "relu4_3"
  type: "ReLU"
  bottom: "conv4_3"
  top: "conv4_3"
}
layer {
  name: "pool4"
  type: "Pooling"
  bottom: "conv4_3"
  top: "pool4"
  pooling_param {
    pool: MAX
    kernel_size: 2
    stride: 2
  }
}
layer {
  name: "conv5_1"
  type: "Convolution"
  bottom: "pool4"
  top: "conv5_1"
  param {
    lr_mult: 1
    decay_mult: 1
  }
  param {
    lr_mult: 2
    decay_mult: 0
  }
  convolution_param {
    num_output: 512
    pad: 1
    kernel_size: 3
    weight_filler {
      type: "gaussian"
      std: 0.01
    }
    bias_filler {
      type: "constant"
      value: 0
    }
  }
}
layer {
  name: "relu5_1"
  type: "ReLU"
  bottom: "conv5_1"
  top: "conv5_1"
}
layer {
  name: "conv5_2"
  type: "Convolution"
  bottom: "conv5_1"
  top: "conv5_2"
  param {
    lr_mult: 1
    decay_mult: 1
  }
  param {
    lr_mult: 2
    decay_mult: 0
  }
  convolution_param {
    num_output: 512
    pad: 1
    kernel_size: 3
    weight_filler {
      type: "gaussian"
      std: 0.01
    }
    bias_filler {
      type: "constant"
      value: 0
    }
  }
}
layer {
  name: "relu5_2"
  type: "ReLU"
  bottom: "conv5_2"
  top: "conv5_2"
}
layer {
  name: "conv5_3"
  type: "Convolution"
  bottom: "conv5_2"
  top: "conv5_3"
  param {
    lr_mult: 1
    decay_mult: 1
  }
  param {
    lr_mult: 2
    decay_mult: 0
  }
  convolution_param {
    num_output: 512
    pad: 1
    kernel_size: 3
    weight_filler {
      type: "gaussian"
      std: 0.01
    }
    bias_filler {
      type: "constant"
      value: 0
    }
  }
}
layer {
  name: "relu5_3"
  type: "ReLU"
  bottom: "conv5_3"
  top: "conv5_3"
}
layer {
  name: "pool5"
  type: "Pooling"
  bottom: "conv5_3"
  top: "pool5"
  pooling_param {
    pool: MAX
    kernel_size: 2
    stride: 2
  }
}
layer {
  name: "fc6"
  type: "InnerProduct"
  bottom: "pool5"
  top: "fc6"
  param {
    lr_mult: 1
    decay_mult: 1
  }
  param {
    lr_mult: 2
    decay_mult: 0
  }
  inner_product_param {
    num_output: 4096
    weight_filler {
      type: "gaussian"
      std: 0.01
    }
    bias_filler {
      type: "constant"
      value: 0
    }
  }
}
layer {
  name: "relu6"
  type: "ReLU"
  bottom: "fc6"
  top: "fc6"
}
layer {
  name: "drop6"
  type: "Dropout"
  bottom: "fc6"
  top: "fc6"
  dropout_param {
    dropout_ratio: 0.5
  }
}
layer {
  name: "fc7"
  type: "InnerProduct"
  bottom: "fc6"
  top: "fc7"
  param {
    lr_mult: 1
    decay_mult: 1
  }
  param {
    lr_mult: 2
    decay_mult: 0
  }
  inner_product_param {
    num_output: 4096
    weight_filler {
      type: "gaussian"
      std: 0.01
    }
    bias_filler {
      type: "constant"
      value: 0
    }
  }
}
layer {
  name: "relu7"
  type: "ReLU"
  bottom: "fc7"
  top: "fc7"
}
layer {
  name: "drop7"
  type: "Dropout"
  bottom: "fc7"
  top: "fc7"
  dropout_param {
    dropout_ratio: 0.5
  }
}
layer {
  name: "fc_scv_quiet"
  type: "InnerProduct"
  bottom: "fc7"
  top: "fc_scv_quiet"
  param {
    lr_mult: 10
    decay_mult: 1
  }
  param {
    lr_mult: 20
    decay_mult: 0
  }
  inner_product_param {
    num_output: 1
    weight_filler {
      type: "xavier"
      std: 0.01
    }
    bias_filler {
      type: "constant"
      value: 0
    }
  }
}
layer {
  name: "loss"
  type: "EuclideanLoss"
  bottom: "fc_scv_quiet"
  bottom: "label"
  top: "loss"
}
I1206 01:23:07.424265 12084 layer_factory.hpp:77] Creating layer data
I1206 01:23:07.456832 12084 db_lmdb.cpp:35] Opened lmdb /idiap/temp/lmedina/fine-tuning/data/Quiet/train_lmdb
I1206 01:23:07.474669 12084 net.cpp:84] Creating Layer data
I1206 01:23:07.474771 12084 net.cpp:380] data -> data
I1206 01:23:07.474898 12084 net.cpp:380] data -> label
I1206 01:23:07.474936 12084 data_transformer.cpp:25] Loading mean file from: /idiap/temp/lmedina/fine-tuning/vgg16_places365/places365CNN_mean.binaryproto
I1206 01:23:07.496388 12084 data_layer.cpp:45] output data size: 16,3,224,224
I1206 01:23:07.529403 12084 net.cpp:122] Setting up data
I1206 01:23:07.529489 12084 net.cpp:129] Top shape: 16 3 224 224 (2408448)
I1206 01:23:07.529505 12084 net.cpp:129] Top shape: 16 (16)
I1206 01:23:07.529517 12084 net.cpp:137] Memory required for data: 9633856
I1206 01:23:07.529539 12084 layer_factory.hpp:77] Creating layer conv1_1
I1206 01:23:07.529577 12084 net.cpp:84] Creating Layer conv1_1
I1206 01:23:07.529592 12084 net.cpp:406] conv1_1 <- data
I1206 01:23:07.529618 12084 net.cpp:380] conv1_1 -> conv1_1
I1206 01:23:07.531217 12084 net.cpp:122] Setting up conv1_1
I1206 01:23:07.531244 12084 net.cpp:129] Top shape: 16 64 224 224 (51380224)
I1206 01:23:07.531256 12084 net.cpp:137] Memory required for data: 215154752
I1206 01:23:07.531283 12084 layer_factory.hpp:77] Creating layer relu1_1
I1206 01:23:07.531303 12084 net.cpp:84] Creating Layer relu1_1
I1206 01:23:07.531317 12084 net.cpp:406] relu1_1 <- conv1_1
I1206 01:23:07.531332 12084 net.cpp:367] relu1_1 -> conv1_1 (in-place)
I1206 01:23:07.531352 12084 net.cpp:122] Setting up relu1_1
I1206 01:23:07.531365 12084 net.cpp:129] Top shape: 16 64 224 224 (51380224)
I1206 01:23:07.531378 12084 net.cpp:137] Memory required for data: 420675648
I1206 01:23:07.531389 12084 layer_factory.hpp:77] Creating layer conv1_2
I1206 01:23:07.531409 12084 net.cpp:84] Creating Layer conv1_2
I1206 01:23:07.531421 12084 net.cpp:406] conv1_2 <- conv1_1
I1206 01:23:07.531436 12084 net.cpp:380] conv1_2 -> conv1_2
I1206 01:23:07.532685 12084 net.cpp:122] Setting up conv1_2
I1206 01:23:07.532716 12084 net.cpp:129] Top shape: 16 64 224 224 (51380224)
I1206 01:23:07.532729 12084 net.cpp:137] Memory required for data: 626196544
I1206 01:23:07.532750 12084 layer_factory.hpp:77] Creating layer relu1_2
I1206 01:23:07.532768 12084 net.cpp:84] Creating Layer relu1_2
I1206 01:23:07.532781 12084 net.cpp:406] relu1_2 <- conv1_2
I1206 01:23:07.532802 12084 net.cpp:367] relu1_2 -> conv1_2 (in-place)
I1206 01:23:07.532819 12084 net.cpp:122] Setting up relu1_2
I1206 01:23:07.532833 12084 net.cpp:129] Top shape: 16 64 224 224 (51380224)
I1206 01:23:07.532845 12084 net.cpp:137] Memory required for data: 831717440
I1206 01:23:07.532857 12084 layer_factory.hpp:77] Creating layer pool1
I1206 01:23:07.532876 12084 net.cpp:84] Creating Layer pool1
I1206 01:23:07.532889 12084 net.cpp:406] pool1 <- conv1_2
I1206 01:23:07.532904 12084 net.cpp:380] pool1 -> pool1
I1206 01:23:07.532966 12084 net.cpp:122] Setting up pool1
I1206 01:23:07.532984 12084 net.cpp:129] Top shape: 16 64 112 112 (12845056)
I1206 01:23:07.532995 12084 net.cpp:137] Memory required for data: 883097664
I1206 01:23:07.533007 12084 layer_factory.hpp:77] Creating layer conv2_1
I1206 01:23:07.533026 12084 net.cpp:84] Creating Layer conv2_1
I1206 01:23:07.533038 12084 net.cpp:406] conv2_1 <- pool1
I1206 01:23:07.533054 12084 net.cpp:380] conv2_1 -> conv2_1
I1206 01:23:07.536651 12084 net.cpp:122] Setting up conv2_1
I1206 01:23:07.536705 12084 net.cpp:129] Top shape: 16 128 112 112 (25690112)
I1206 01:23:07.536717 12084 net.cpp:137] Memory required for data: 985858112
I1206 01:23:07.536811 12084 layer_factory.hpp:77] Creating layer relu2_1
I1206 01:23:07.536855 12084 net.cpp:84] Creating Layer relu2_1
I1206 01:23:07.536870 12084 net.cpp:406] relu2_1 <- conv2_1
I1206 01:23:07.536885 12084 net.cpp:367] relu2_1 -> conv2_1 (in-place)
I1206 01:23:07.536928 12084 net.cpp:122] Setting up relu2_1
I1206 01:23:07.536943 12084 net.cpp:129] Top shape: 16 128 112 112 (25690112)
I1206 01:23:07.536955 12084 net.cpp:137] Memory required for data: 1088618560
I1206 01:23:07.536967 12084 layer_factory.hpp:77] Creating layer conv2_2
I1206 01:23:07.537014 12084 net.cpp:84] Creating Layer conv2_2
I1206 01:23:07.537027 12084 net.cpp:406] conv2_2 <- conv2_1
I1206 01:23:07.537045 12084 net.cpp:380] conv2_2 -> conv2_2
I1206 01:23:07.539508 12084 net.cpp:122] Setting up conv2_2
I1206 01:23:07.539533 12084 net.cpp:129] Top shape: 16 128 112 112 (25690112)
I1206 01:23:07.539546 12084 net.cpp:137] Memory required for data: 1191379008
I1206 01:23:07.539561 12084 layer_factory.hpp:77] Creating layer relu2_2
I1206 01:23:07.539579 12084 net.cpp:84] Creating Layer relu2_2
I1206 01:23:07.539592 12084 net.cpp:406] relu2_2 <- conv2_2
I1206 01:23:07.539607 12084 net.cpp:367] relu2_2 -> conv2_2 (in-place)
I1206 01:23:07.539623 12084 net.cpp:122] Setting up relu2_2
I1206 01:23:07.539638 12084 net.cpp:129] Top shape: 16 128 112 112 (25690112)
I1206 01:23:07.539649 12084 net.cpp:137] Memory required for data: 1294139456
I1206 01:23:07.539660 12084 layer_factory.hpp:77] Creating layer pool2
I1206 01:23:07.539675 12084 net.cpp:84] Creating Layer pool2
I1206 01:23:07.539690 12084 net.cpp:406] pool2 <- conv2_2
I1206 01:23:07.539703 12084 net.cpp:380] pool2 -> pool2
I1206 01:23:07.539752 12084 net.cpp:122] Setting up pool2
I1206 01:23:07.539767 12084 net.cpp:129] Top shape: 16 128 56 56 (6422528)
I1206 01:23:07.539778 12084 net.cpp:137] Memory required for data: 1319829568
I1206 01:23:07.539789 12084 layer_factory.hpp:77] Creating layer conv3_1
I1206 01:23:07.539809 12084 net.cpp:84] Creating Layer conv3_1
I1206 01:23:07.539820 12084 net.cpp:406] conv3_1 <- pool2
I1206 01:23:07.539835 12084 net.cpp:380] conv3_1 -> conv3_1
I1206 01:23:07.543897 12084 net.cpp:122] Setting up conv3_1
I1206 01:23:07.543928 12084 net.cpp:129] Top shape: 16 256 56 56 (12845056)
I1206 01:23:07.543941 12084 net.cpp:137] Memory required for data: 1371209792
I1206 01:23:07.543961 12084 layer_factory.hpp:77] Creating layer relu3_1
I1206 01:23:07.543978 12084 net.cpp:84] Creating Layer relu3_1
I1206 01:23:07.543992 12084 net.cpp:406] relu3_1 <- conv3_1
I1206 01:23:07.544006 12084 net.cpp:367] relu3_1 -> conv3_1 (in-place)
I1206 01:23:07.544023 12084 net.cpp:122] Setting up relu3_1
I1206 01:23:07.544037 12084 net.cpp:129] Top shape: 16 256 56 56 (12845056)
I1206 01:23:07.544049 12084 net.cpp:137] Memory required for data: 1422590016
I1206 01:23:07.544061 12084 layer_factory.hpp:77] Creating layer conv3_2
I1206 01:23:07.544085 12084 net.cpp:84] Creating Layer conv3_2
I1206 01:23:07.544097 12084 net.cpp:406] conv3_2 <- conv3_1
I1206 01:23:07.544113 12084 net.cpp:380] conv3_2 -> conv3_2
I1206 01:23:07.554139 12084 net.cpp:122] Setting up conv3_2
I1206 01:23:07.554167 12084 net.cpp:129] Top shape: 16 256 56 56 (12845056)
I1206 01:23:07.554180 12084 net.cpp:137] Memory required for data: 1473970240
I1206 01:23:07.554253 12084 layer_factory.hpp:77] Creating layer relu3_2
I1206 01:23:07.554277 12084 net.cpp:84] Creating Layer relu3_2
I1206 01:23:07.554316 12084 net.cpp:406] relu3_2 <- conv3_2
I1206 01:23:07.554332 12084 net.cpp:367] relu3_2 -> conv3_2 (in-place)
I1206 01:23:07.554350 12084 net.cpp:122] Setting up relu3_2
I1206 01:23:07.554389 12084 net.cpp:129] Top shape: 16 256 56 56 (12845056)
I1206 01:23:07.554402 12084 net.cpp:137] Memory required for data: 1525350464
I1206 01:23:07.554414 12084 layer_factory.hpp:77] Creating layer conv3_3
I1206 01:23:07.554435 12084 net.cpp:84] Creating Layer conv3_3
I1206 01:23:07.554472 12084 net.cpp:406] conv3_3 <- conv3_2
I1206 01:23:07.554491 12084 net.cpp:380] conv3_3 -> conv3_3
I1206 01:23:07.565958 12084 net.cpp:122] Setting up conv3_3
I1206 01:23:07.566010 12084 net.cpp:129] Top shape: 16 256 56 56 (12845056)
I1206 01:23:07.566023 12084 net.cpp:137] Memory required for data: 1576730688
I1206 01:23:07.566040 12084 layer_factory.hpp:77] Creating layer relu3_3
I1206 01:23:07.566059 12084 net.cpp:84] Creating Layer relu3_3
I1206 01:23:07.566112 12084 net.cpp:406] relu3_3 <- conv3_3
I1206 01:23:07.566128 12084 net.cpp:367] relu3_3 -> conv3_3 (in-place)
I1206 01:23:07.566169 12084 net.cpp:122] Setting up relu3_3
I1206 01:23:07.566184 12084 net.cpp:129] Top shape: 16 256 56 56 (12845056)
I1206 01:23:07.566195 12084 net.cpp:137] Memory required for data: 1628110912
I1206 01:23:07.566206 12084 layer_factory.hpp:77] Creating layer pool3
I1206 01:23:07.566222 12084 net.cpp:84] Creating Layer pool3
I1206 01:23:07.566299 12084 net.cpp:406] pool3 <- conv3_3
I1206 01:23:07.566339 12084 net.cpp:380] pool3 -> pool3
I1206 01:23:07.566421 12084 net.cpp:122] Setting up pool3
I1206 01:23:07.566437 12084 net.cpp:129] Top shape: 16 256 28 28 (3211264)
I1206 01:23:07.566448 12084 net.cpp:137] Memory required for data: 1640955968
I1206 01:23:07.566460 12084 layer_factory.hpp:77] Creating layer conv4_1
I1206 01:23:07.566503 12084 net.cpp:84] Creating Layer conv4_1
I1206 01:23:07.566516 12084 net.cpp:406] conv4_1 <- pool3
I1206 01:23:07.566532 12084 net.cpp:380] conv4_1 -> conv4_1
I1206 01:23:07.588471 12084 net.cpp:122] Setting up conv4_1
I1206 01:23:07.588557 12084 net.cpp:129] Top shape: 16 512 28 28 (6422528)
I1206 01:23:07.588606 12084 net.cpp:137] Memory required for data: 1666646080
I1206 01:23:07.588626 12084 layer_factory.hpp:77] Creating layer relu4_1
I1206 01:23:07.588646 12084 net.cpp:84] Creating Layer relu4_1
I1206 01:23:07.588714 12084 net.cpp:406] relu4_1 <- conv4_1
I1206 01:23:07.588732 12084 net.cpp:367] relu4_1 -> conv4_1 (in-place)
I1206 01:23:07.588778 12084 net.cpp:122] Setting up relu4_1
I1206 01:23:07.588793 12084 net.cpp:129] Top shape: 16 512 28 28 (6422528)
I1206 01:23:07.588804 12084 net.cpp:137] Memory required for data: 1692336192
I1206 01:23:07.588817 12084 layer_factory.hpp:77] Creating layer conv4_2
I1206 01:23:07.588872 12084 net.cpp:84] Creating Layer conv4_2
I1206 01:23:07.588886 12084 net.cpp:406] conv4_2 <- conv4_1
I1206 01:23:07.588939 12084 net.cpp:380] conv4_2 -> conv4_2
I1206 01:23:07.635870 12084 net.cpp:122] Setting up conv4_2
I1206 01:23:07.635910 12084 net.cpp:129] Top shape: 16 512 28 28 (6422528)
I1206 01:23:07.635923 12084 net.cpp:137] Memory required for data: 1718026304
I1206 01:23:07.635951 12084 layer_factory.hpp:77] Creating layer relu4_2
I1206 01:23:07.635972 12084 net.cpp:84] Creating Layer relu4_2
I1206 01:23:07.635984 12084 net.cpp:406] relu4_2 <- conv4_2
I1206 01:23:07.636000 12084 net.cpp:367] relu4_2 -> conv4_2 (in-place)
I1206 01:23:07.636019 12084 net.cpp:122] Setting up relu4_2
I1206 01:23:07.636032 12084 net.cpp:129] Top shape: 16 512 28 28 (6422528)
I1206 01:23:07.636051 12084 net.cpp:137] Memory required for data: 1743716416
I1206 01:23:07.636063 12084 layer_factory.hpp:77] Creating layer conv4_3
I1206 01:23:07.636083 12084 net.cpp:84] Creating Layer conv4_3
I1206 01:23:07.636095 12084 net.cpp:406] conv4_3 <- conv4_2
I1206 01:23:07.636111 12084 net.cpp:380] conv4_3 -> conv4_3
I1206 01:23:07.676419 12084 net.cpp:122] Setting up conv4_3
I1206 01:23:07.676452 12084 net.cpp:129] Top shape: 16 512 28 28 (6422528)
I1206 01:23:07.676465 12084 net.cpp:137] Memory required for data: 1769406528
I1206 01:23:07.676535 12084 layer_factory.hpp:77] Creating layer relu4_3
I1206 01:23:07.676554 12084 net.cpp:84] Creating Layer relu4_3
I1206 01:23:07.676573 12084 net.cpp:406] relu4_3 <- conv4_3
I1206 01:23:07.676590 12084 net.cpp:367] relu4_3 -> conv4_3 (in-place)
I1206 01:23:07.676609 12084 net.cpp:122] Setting up relu4_3
I1206 01:23:07.676622 12084 net.cpp:129] Top shape: 16 512 28 28 (6422528)
I1206 01:23:07.676635 12084 net.cpp:137] Memory required for data: 1795096640
I1206 01:23:07.676646 12084 layer_factory.hpp:77] Creating layer pool4
I1206 01:23:07.676663 12084 net.cpp:84] Creating Layer pool4
I1206 01:23:07.676676 12084 net.cpp:406] pool4 <- conv4_3
I1206 01:23:07.676690 12084 net.cpp:380] pool4 -> pool4
I1206 01:23:07.676745 12084 net.cpp:122] Setting up pool4
I1206 01:23:07.676765 12084 net.cpp:129] Top shape: 16 512 14 14 (1605632)
I1206 01:23:07.676776 12084 net.cpp:137] Memory required for data: 1801519168
I1206 01:23:07.676789 12084 layer_factory.hpp:77] Creating layer conv5_1
I1206 01:23:07.676810 12084 net.cpp:84] Creating Layer conv5_1
I1206 01:23:07.676822 12084 net.cpp:406] conv5_1 <- pool4
I1206 01:23:07.676839 12084 net.cpp:380] conv5_1 -> conv5_1
I1206 01:23:07.706390 12084 net.cpp:122] Setting up conv5_1
I1206 01:23:07.706423 12084 net.cpp:129] Top shape: 16 512 14 14 (1605632)
I1206 01:23:07.706435 12084 net.cpp:137] Memory required for data: 1807941696
I1206 01:23:07.706454 12084 layer_factory.hpp:77] Creating layer relu5_1
I1206 01:23:07.706470 12084 net.cpp:84] Creating Layer relu5_1
I1206 01:23:07.706485 12084 net.cpp:406] relu5_1 <- conv5_1
I1206 01:23:07.706501 12084 net.cpp:367] relu5_1 -> conv5_1 (in-place)
I1206 01:23:07.706517 12084 net.cpp:122] Setting up relu5_1
I1206 01:23:07.706532 12084 net.cpp:129] Top shape: 16 512 14 14 (1605632)
I1206 01:23:07.706547 12084 net.cpp:137] Memory required for data: 1814364224
I1206 01:23:07.706558 12084 layer_factory.hpp:77] Creating layer conv5_2
I1206 01:23:07.706578 12084 net.cpp:84] Creating Layer conv5_2
I1206 01:23:07.706593 12084 net.cpp:406] conv5_2 <- conv5_1
I1206 01:23:07.706609 12084 net.cpp:380] conv5_2 -> conv5_2
I1206 01:23:07.736011 12084 net.cpp:122] Setting up conv5_2
I1206 01:23:07.736049 12084 net.cpp:129] Top shape: 16 512 14 14 (1605632)
I1206 01:23:07.736063 12084 net.cpp:137] Memory required for data: 1820786752
I1206 01:23:07.736079 12084 layer_factory.hpp:77] Creating layer relu5_2
I1206 01:23:07.736099 12084 net.cpp:84] Creating Layer relu5_2
I1206 01:23:07.736111 12084 net.cpp:406] relu5_2 <- conv5_2
I1206 01:23:07.736129 12084 net.cpp:367] relu5_2 -> conv5_2 (in-place)
I1206 01:23:07.736146 12084 net.cpp:122] Setting up relu5_2
I1206 01:23:07.736160 12084 net.cpp:129] Top shape: 16 512 14 14 (1605632)
I1206 01:23:07.736172 12084 net.cpp:137] Memory required for data: 1827209280
I1206 01:23:07.736183 12084 layer_factory.hpp:77] Creating layer conv5_3
I1206 01:23:07.736205 12084 net.cpp:84] Creating Layer conv5_3
I1206 01:23:07.736218 12084 net.cpp:406] conv5_3 <- conv5_2
I1206 01:23:07.736234 12084 net.cpp:380] conv5_3 -> conv5_3
I1206 01:23:07.765682 12084 net.cpp:122] Setting up conv5_3
I1206 01:23:07.765712 12084 net.cpp:129] Top shape: 16 512 14 14 (1605632)
I1206 01:23:07.765725 12084 net.cpp:137] Memory required for data: 1833631808
I1206 01:23:07.765743 12084 layer_factory.hpp:77] Creating layer relu5_3
I1206 01:23:07.765759 12084 net.cpp:84] Creating Layer relu5_3
I1206 01:23:07.765772 12084 net.cpp:406] relu5_3 <- conv5_3
I1206 01:23:07.765789 12084 net.cpp:367] relu5_3 -> conv5_3 (in-place)
I1206 01:23:07.765812 12084 net.cpp:122] Setting up relu5_3
I1206 01:23:07.765825 12084 net.cpp:129] Top shape: 16 512 14 14 (1605632)
I1206 01:23:07.765837 12084 net.cpp:137] Memory required for data: 1840054336
I1206 01:23:07.765848 12084 layer_factory.hpp:77] Creating layer pool5
I1206 01:23:07.765866 12084 net.cpp:84] Creating Layer pool5
I1206 01:23:07.765878 12084 net.cpp:406] pool5 <- conv5_3
I1206 01:23:07.765893 12084 net.cpp:380] pool5 -> pool5
I1206 01:23:07.765950 12084 net.cpp:122] Setting up pool5
I1206 01:23:07.765967 12084 net.cpp:129] Top shape: 16 512 7 7 (401408)
I1206 01:23:07.765980 12084 net.cpp:137] Memory required for data: 1841659968
I1206 01:23:07.765991 12084 layer_factory.hpp:77] Creating layer fc6
I1206 01:23:07.766019 12084 net.cpp:84] Creating Layer fc6
I1206 01:23:07.766032 12084 net.cpp:406] fc6 <- pool5
I1206 01:23:07.766048 12084 net.cpp:380] fc6 -> fc6
I1206 01:23:08.936597 12084 net.cpp:122] Setting up fc6
I1206 01:23:08.937770 12084 net.cpp:129] Top shape: 16 4096 (65536)
I1206 01:23:08.937815 12084 net.cpp:137] Memory required for data: 1841922112
I1206 01:23:08.937850 12084 layer_factory.hpp:77] Creating layer relu6
I1206 01:23:08.937886 12084 net.cpp:84] Creating Layer relu6
I1206 01:23:08.937922 12084 net.cpp:406] relu6 <- fc6
I1206 01:23:08.937944 12084 net.cpp:367] relu6 -> fc6 (in-place)
I1206 01:23:08.937973 12084 net.cpp:122] Setting up relu6
I1206 01:23:08.937991 12084 net.cpp:129] Top shape: 16 4096 (65536)
I1206 01:23:08.938007 12084 net.cpp:137] Memory required for data: 1842184256
I1206 01:23:08.938022 12084 layer_factory.hpp:77] Creating layer drop6
I1206 01:23:08.938047 12084 net.cpp:84] Creating Layer drop6
I1206 01:23:08.938063 12084 net.cpp:406] drop6 <- fc6
I1206 01:23:08.938082 12084 net.cpp:367] drop6 -> fc6 (in-place)
I1206 01:23:08.938202 12084 net.cpp:122] Setting up drop6
I1206 01:23:08.938225 12084 net.cpp:129] Top shape: 16 4096 (65536)
I1206 01:23:08.938241 12084 net.cpp:137] Memory required for data: 1842446400
I1206 01:23:08.938256 12084 layer_factory.hpp:77] Creating layer fc7
I1206 01:23:08.938282 12084 net.cpp:84] Creating Layer fc7
I1206 01:23:08.938298 12084 net.cpp:406] fc7 <- fc6
I1206 01:23:08.938319 12084 net.cpp:380] fc7 -> fc7
I1206 01:23:09.163143 12084 net.cpp:122] Setting up fc7
I1206 01:23:09.163203 12084 net.cpp:129] Top shape: 16 4096 (65536)
I1206 01:23:09.163218 12084 net.cpp:137] Memory required for data: 1842708544
I1206 01:23:09.163240 12084 layer_factory.hpp:77] Creating layer relu7
I1206 01:23:09.163277 12084 net.cpp:84] Creating Layer relu7
I1206 01:23:09.163293 12084 net.cpp:406] relu7 <- fc7
I1206 01:23:09.163313 12084 net.cpp:367] relu7 -> fc7 (in-place)
I1206 01:23:09.163334 12084 net.cpp:122] Setting up relu7
I1206 01:23:09.163348 12084 net.cpp:129] Top shape: 16 4096 (65536)
I1206 01:23:09.163362 12084 net.cpp:137] Memory required for data: 1842970688
I1206 01:23:09.163373 12084 layer_factory.hpp:77] Creating layer drop7
I1206 01:23:09.163391 12084 net.cpp:84] Creating Layer drop7
I1206 01:23:09.163405 12084 net.cpp:406] drop7 <- fc7
I1206 01:23:09.163420 12084 net.cpp:367] drop7 -> fc7 (in-place)
I1206 01:23:09.163466 12084 net.cpp:122] Setting up drop7
I1206 01:23:09.163486 12084 net.cpp:129] Top shape: 16 4096 (65536)
I1206 01:23:09.163498 12084 net.cpp:137] Memory required for data: 1843232832
I1206 01:23:09.163511 12084 layer_factory.hpp:77] Creating layer fc_scv_quiet
I1206 01:23:09.163532 12084 net.cpp:84] Creating Layer fc_scv_quiet
I1206 01:23:09.163545 12084 net.cpp:406] fc_scv_quiet <- fc7
I1206 01:23:09.163563 12084 net.cpp:380] fc_scv_quiet -> fc_scv_quiet
I1206 01:23:09.163738 12084 net.cpp:122] Setting up fc_scv_quiet
I1206 01:23:09.163758 12084 net.cpp:129] Top shape: 16 1 (16)
I1206 01:23:09.163770 12084 net.cpp:137] Memory required for data: 1843232896
I1206 01:23:09.163785 12084 layer_factory.hpp:77] Creating layer loss
I1206 01:23:09.163802 12084 net.cpp:84] Creating Layer loss
I1206 01:23:09.163816 12084 net.cpp:406] loss <- fc_scv_quiet
I1206 01:23:09.163844 12084 net.cpp:406] loss <- label
I1206 01:23:09.163862 12084 net.cpp:380] loss -> loss
I1206 01:23:09.163918 12084 net.cpp:122] Setting up loss
…
I1206 01:23:09.167373 12084 net.cpp:294] The NetState phase (1) differed from the phase (0) specified by a rule in layer data
I1206 01:23:09.167922 12084 net.cpp:51] Initializing net from parameters: 
name: "VGG-Places365-SCV-Quiet"
state {
  phase: TEST
}
layer {
  name: "data"
  type: "Data"
  top: "data"
  top: "label"
  include {
    phase: TEST
  }
  transform_param {
    mirror: false
    crop_size: 224
    mean_file: "/idiap/temp/lmedina/fine-tuning/vgg16_places365/places365CNN_mean.binaryproto"
  }
  data_param {
    source: "/idiap/temp/lmedina/fine-tuning/data/Quiet/validation_lmdb"
    batch_size: 16
    backend: LMDB
  }
}
layer {
  name: "conv1_1"
  type: "Convolution"
  bottom: "data"
  top: "conv1_1"
  param {
    lr_mult: 1
    decay_mult: 1
  }
  param {
    lr_mult: 2
    decay_mult: 0
  }
  convolution_param {
    num_output: 64
    pad: 1
    kernel_size: 3
    weight_filler {
      type: "gaussian"
      std: 0.01
    }
    bias_filler {
      type: "constant"
      value: 0
    }
  }
}
layer {
  name: "relu1_1"
  type: "ReLU"
  bottom: "conv1_1"
  top: "conv1_1"
}
layer {
  name: "conv1_2"
  type: "Convolution"
  bottom: "conv1_1"
  top: "conv1_2"
  param {
    lr_mult: 1
    decay_mult: 1
  }
  param {
    lr_mult: 2
    decay_mult: 0
  }
  convolution_param {
    num_output: 64
    pad: 1
    kernel_size: 3
    weight_filler {
      type: "gaussian"
      std: 0.01
    }
    bias_filler {
      type: "constant"
      value: 0
    }
  }
}
layer {
  name: "relu1_2"
  type: "ReLU"
  bottom: "conv1_2"
  top: "conv1_2"
}
layer {
  name: "pool1"
  type: "Pooling"
  bottom: "conv1_2"
  top: "pool1"
  pooling_param {
    pool: MAX
    kernel_size: 2
    stride: 2
  }
}
layer {
  name: "conv2_1"
  type: "Convolution"
  bottom: "pool1"
  top: "conv2_1"
  param {
    lr_mult: 1
    decay_mult: 1
  }
  param {
    lr_mult: 2
    decay_mult: 0
  }
  convolution_param {
    num_output: 128
    pad: 1
    kernel_size: 3
    weight_filler {
      type: "gaussian"
      std: 0.01
    }
    bias_filler {
      type: "constant"
      value: 0
    }
  }
}
layer {
  name: "relu2_1"
  type: "ReLU"
  bottom: "conv2_1"
  top: "conv2_1"
}
layer {
  name: "conv2_2"
  type: "Convolution"
  bottom: "conv2_1"
  top: "conv2_2"
  param {
    lr_mult: 1
    decay_mult: 1
  }
  param {
    lr_mult: 2
    decay_mult: 0
  }
  convolution_param {
    num_output: 128
    pad: 1
    kernel_size: 3
    weight_filler {
      type: "gaussian"
      std: 0.01
    }
    bias_filler {
      type: "constant"
      value: 0
    }
  }
}
layer {
  name: "relu2_2"
  type: "ReLU"
  bottom: "conv2_2"
  top: "conv2_2"
}
layer {
  name: "pool2"
  type: "Pooling"
  bottom: "conv2_2"
  top: "pool2"
  pooling_param {
    pool: MAX
    kernel_size: 2
    stride: 2
  }
}
layer {
  name: "conv3_1"
  type: "Convolution"
  bottom: "pool2"
  top: "conv3_1"
  param {
    lr_mult: 1
    decay_mult: 1
  }
  param {
    lr_mult: 2
    decay_mult: 0
  }
  convolution_param {
    num_output: 256
    pad: 1
    kernel_size: 3
    weight_filler {
      type: "gaussian"
      std: 0.01
    }
    bias_filler {
      type: "constant"
      value: 0
    }
  }
}
layer {
  name: "relu3_1"
  type: "ReLU"
  bottom: "conv3_1"
  top: "conv3_1"
}
layer {
  name: "conv3_2"
  type: "Convolution"
  bottom: "conv3_1"
  top: "conv3_2"
  param {
    lr_mult: 1
    decay_mult: 1
  }
  param {
    lr_mult: 2
    decay_mult: 0
  }
  convolution_param {
    num_output: 256
    pad: 1
    kernel_size: 3
    weight_filler {
      type: "gaussian"
      std: 0.01
    }
    bias_filler {
      type: "constant"
      value: 0
    }
  }
}
layer {
  name: "relu3_2"
  type: "ReLU"
  bottom: "conv3_2"
  top: "conv3_2"
}
layer {
  name: "conv3_3"
  type: "Convolution"
  bottom: "conv3_2"
  top: "conv3_3"
  param {
    lr_mult: 1
    decay_mult: 1
  }
  param {
    lr_mult: 2
    decay_mult: 0
  }
  convolution_param {
    num_output: 256
    pad: 1
    kernel_size: 3
    weight_filler {
      type: "gaussian"
      std: 0.01
    }
    bias_filler {
      type: "constant"
      value: 0
    }
  }
}
layer {
  name: "relu3_3"
  type: "ReLU"
  bottom: "conv3_3"
  top: "conv3_3"
}
layer {
  name: "pool3"
  type: "Pooling"
  bottom: "conv3_3"
  top: "pool3"
  pooling_param {
    pool: MAX
    kernel_size: 2
    stride: 2
  }
}
layer {
  name: "conv4_1"
  type: "Convolution"
  bottom: "pool3"
  top: "conv4_1"
  param {
    lr_mult: 1
    decay_mult: 1
  }
  param {
    lr_mult: 2
    decay_mult: 0
  }
  convolution_param {
    num_output: 512
    pad: 1
    kernel_size: 3
    weight_filler {
      type: "gaussian"
      std: 0.01
    }
    bias_filler {
      type: "constant"
      value: 0
    }
  }
}
layer {
  name: "relu4_1"
  type: "ReLU"
  bottom: "conv4_1"
  top: "conv4_1"
}
layer {
  name: "conv4_2"
  type: "Convolution"
  bottom: "conv4_1"
  top: "conv4_2"
  param {
    lr_mult: 1
    decay_mult: 1
  }
  param {
    lr_mult: 2
    decay_mult: 0
  }
  convolution_param {
    num_output: 512
    pad: 1
    kernel_size: 3
    weight_filler {
      type: "gaussian"
      std: 0.01
    }
    bias_filler {
      type: "constant"
      value: 0
    }
  }
}
layer {
  name: "relu4_2"
  type: "ReLU"
  bottom: "conv4_2"
  top: "conv4_2"
}
layer {
  name: "conv4_3"
  type: "Convolution"
  bottom: "conv4_2"
  top: "conv4_3"
  param {
    lr_mult: 1
    decay_mult: 1
  }
  param {
    lr_mult: 2
    decay_mult: 0
  }
  convolution_param {
    num_output: 512
    pad: 1
    kernel_size: 3
    weight_filler {
      type: "gaussian"
      std: 0.01
    }
    bias_filler {
      type: "constant"
      value: 0
    }
  }
}
layer {
  name: "relu4_3"
  type: "ReLU"
  bottom: "conv4_3"
  top: "conv4_3"
}
layer {
  name: "pool4"
  type: "Pooling"
  bottom: "conv4_3"
  top: "pool4"
  pooling_param {
    pool: MAX
    kernel_size: 2
    stride: 2
  }
}
layer {
  name: "conv5_1"
  type: "Convolution"
  bottom: "pool4"
  top: "conv5_1"
  param {
    lr_mult: 1
    decay_mult: 1
  }
  param {
    lr_mult: 2
    decay_mult: 0
  }
  convolution_param {
    num_output: 512
    pad: 1
    kernel_size: 3
    weight_filler {
      type: "gaussian"
      std: 0.01
    }
    bias_filler {
      type: "constant"
      value: 0
    }
  }
}
layer {
  name: "relu5_1"
  type: "ReLU"
  bottom: "conv5_1"
  top: "conv5_1"
}
layer {
  name: "conv5_2"
  type: "Convolution"
  bottom: "conv5_1"
  top: "conv5_2"
  param {
    lr_mult: 1
    decay_mult: 1
  }
  param {
    lr_mult: 2
    decay_mult: 0
  }
  convolution_param {
    num_output: 512
    pad: 1
    kernel_size: 3
    weight_filler {
      type: "gaussian"
      std: 0.01
    }
    bias_filler {
      type: "constant"
      value: 0
    }
  }
}
layer {
  name: "relu5_2"
  type: "ReLU"
  bottom: "conv5_2"
  top: "conv5_2"
}
layer {
  name: "conv5_3"
  type: "Convolution"
  bottom: "conv5_2"
  top: "conv5_3"
  param {
    lr_mult: 1
    decay_mult: 1
  }
  param {
    lr_mult: 2
    decay_mult: 0
  }
  convolution_param {
    num_output: 512
    pad: 1
    kernel_size: 3
    weight_filler {
      type: "gaussian"
      std: 0.01
    }
    bias_filler {
      type: "constant"
      value: 0
    }
  }
}
layer {
  name: "relu5_3"
  type: "ReLU"
  bottom: "conv5_3"
  top: "conv5_3"
}
layer {
  name: "pool5"
  type: "Pooling"
  bottom: "conv5_3"
  top: "pool5"
  pooling_param {
    pool: MAX
    kernel_size: 2
    stride: 2
  }
}
layer {
  name: "fc6"
  type: "InnerProduct"
  bottom: "pool5"
  top: "fc6"
  param {
    lr_mult: 1
    decay_mult: 1
  }
  param {
    lr_mult: 2
    decay_mult: 0
  }
  inner_product_param {
    num_output: 4096
    weight_filler {
      type: "gaussian"
      std: 0.01
    }
    bias_filler {
      type: "constant"
      value: 0
    }
  }
}
layer {
  name: "relu6"
  type: "ReLU"
  bottom: "fc6"
  top: "fc6"
}
layer {
  name: "drop6"
  type: "Dropout"
  bottom: "fc6"
  top: "fc6"
  dropout_param {
    dropout_ratio: 0.5
  }
}
layer {
  name: "fc7"
  type: "InnerProduct"
  bottom: "fc6"
  top: "fc7"
  param {
    lr_mult: 1
    decay_mult: 1
  }
  param {
    lr_mult: 2
    decay_mult: 0
  }
  inner_product_param {
    num_output: 4096
    weight_filler {
      type: "gaussian"
      std: 0.01
    }
    bias_filler {
      type: "constant"
      value: 0
    }
  }
}
layer {
  name: "relu7"
  type: "ReLU"
  bottom: "fc7"
  top: "fc7"
}
layer {
  name: "drop7"
  type: "Dropout"
  bottom: "fc7"
  top: "fc7"
  dropout_param {
    dropout_ratio: 0.5
  }
}
layer {
  name: "fc_scv_quiet"
  type: "InnerProduct"
  bottom: "fc7"
  top: "fc_scv_quiet"
  param {
    lr_mult: 10
    decay_mult: 1
  }
  param {
    lr_mult: 20
    decay_mult: 0
  }
  inner_product_param {
    num_output: 1
    weight_filler {
      type: "xavier"
      std: 0.01
    }
    bias_filler {
      type: "constant"
      value: 0
    }
  }
}
layer {
  name: "loss"
  type: "EuclideanLoss"
  bottom: "fc_scv_quiet"
  bottom: "label"
  top: "loss"
}
layer {
  name: "losttest"
  type: "EuclideanLoss"
  bottom: "fc_scv_quiet"
  bottom: "label"
  top: "losttest"
  include {
    phase: TEST
  }
}
I1206 01:23:09.168277 12084 layer_factory.hpp:77] Creating layer data
I1206 01:23:09.187114 12084 db_lmdb.cpp:35] Opened lmdb /idiap/temp/lmedina/fine-tuning/data/Quiet/validation_lmdb
I1206 01:23:09.198343 12084 net.cpp:84] Creating Layer data
I1206 01:23:09.198390 12084 net.cpp:380] data -> data
I1206 01:23:09.198427 12084 net.cpp:380] data -> label
I1206 01:23:09.198457 12084 data_transformer.cpp:25] Loading mean file from: /idiap/temp/lmedina/fine-tuning/vgg16_places365/places365CNN_mean.binaryproto
I1206 01:23:09.212198 12084 data_layer.cpp:45] output data size: 16,3,224,224
I1206 01:23:09.251790 12084 net.cpp:122] Setting up data
I1206 01:23:09.251852 12084 net.cpp:129] Top shape: 16 3 224 224 (2408448)
I1206 01:23:09.251878 12084 net.cpp:129] Top shape: 16 (16)
I1206 01:23:09.251896 12084 net.cpp:137] Memory required for data: 9633856
I1206 01:23:09.251921 12084 layer_factory.hpp:77] Creating layer label_data_1_split
I1206 01:23:09.251957 12084 net.cpp:84] Creating Layer label_data_1_split
I1206 01:23:09.251979 12084 net.cpp:406] label_data_1_split <- label
I1206 01:23:09.252007 12084 net.cpp:380] label_data_1_split -> label_data_1_split_0
I1206 01:23:09.252038 12084 net.cpp:380] label_data_1_split -> label_data_1_split_1
I1206 01:23:09.252140 12084 net.cpp:122] Setting up label_data_1_split
I1206 01:23:09.252182 12084 net.cpp:129] Top shape: 16 (16)
I1206 01:23:09.252202 12084 net.cpp:129] Top shape: 16 (16)
I1206 01:23:09.252223 12084 net.cpp:137] Memory required for data: 9633984
I1206 01:23:09.252241 12084 layer_factory.hpp:77] Creating layer conv1_1
I1206 01:23:09.252276 12084 net.cpp:84] Creating Layer conv1_1
I1206 01:23:09.252297 12084 net.cpp:406] conv1_1 <- data
I1206 01:23:09.252324 12084 net.cpp:380] conv1_1 -> conv1_1
I1206 01:23:09.252882 12084 net.cpp:122] Setting up conv1_1
I1206 01:23:09.252910 12084 net.cpp:129] Top shape: 16 64 224 224 (51380224)
I1206 01:23:09.252930 12084 net.cpp:137] Memory required for data: 215154880
I1206 01:23:09.252964 12084 layer_factory.hpp:77] Creating layer relu1_1
I1206 01:23:09.252990 12084 net.cpp:84] Creating Layer relu1_1
I1206 01:23:09.253008 12084 net.cpp:406] relu1_1 <- conv1_1
I1206 01:23:09.253031 12084 net.cpp:367] relu1_1 -> conv1_1 (in-place)
I1206 01:23:09.253057 12084 net.cpp:122] Setting up relu1_1
I1206 01:23:09.253078 12084 net.cpp:129] Top shape: 16 64 224 224 (51380224)
I1206 01:23:09.253105 12084 net.cpp:137] Memory required for data: 420675776
I1206 01:23:09.253126 12084 layer_factory.hpp:77] Creating layer conv1_2
I1206 01:23:09.253157 12084 net.cpp:84] Creating Layer conv1_2
I1206 01:23:09.253176 12084 net.cpp:406] conv1_2 <- conv1_1
I1206 01:23:09.253201 12084 net.cpp:380] conv1_2 -> conv1_2
I1206 01:23:09.256182 12084 net.cpp:122] Setting up conv1_2
I1206 01:23:09.256227 12084 net.cpp:129] Top shape: 16 64 224 224 (51380224)
I1206 01:23:09.256247 12084 net.cpp:137] Memory required for data: 626196672
I1206 01:23:09.256281 12084 layer_factory.hpp:77] Creating layer relu1_2
I1206 01:23:09.256309 12084 net.cpp:84] Creating Layer relu1_2
I1206 01:23:09.256330 12084 net.cpp:406] relu1_2 <- conv1_2
I1206 01:23:09.256353 12084 net.cpp:367] relu1_2 -> conv1_2 (in-place)
I1206 01:23:09.256381 12084 net.cpp:122] Setting up relu1_2
I1206 01:23:09.256403 12084 net.cpp:129] Top shape: 16 64 224 224 (51380224)
I1206 01:23:09.256422 12084 net.cpp:137] Memory required for data: 831717568
I1206 01:23:09.256441 12084 layer_factory.hpp:77] Creating layer pool1
I1206 01:23:09.256465 12084 net.cpp:84] Creating Layer pool1
I1206 01:23:09.256491 12084 net.cpp:406] pool1 <- conv1_2
I1206 01:23:09.256513 12084 net.cpp:380] pool1 -> pool1
I1206 01:23:09.256608 12084 net.cpp:122] Setting up pool1
I1206 01:23:09.256633 12084 net.cpp:129] Top shape: 16 64 112 112 (12845056)
I1206 01:23:09.256651 12084 net.cpp:137] Memory required for data: 883097792
I1206 01:23:09.256670 12084 layer_factory.hpp:77] Creating layer conv2_1
I1206 01:23:09.256700 12084 net.cpp:84] Creating Layer conv2_1
I1206 01:23:09.256719 12084 net.cpp:406] conv2_1 <- pool1
I1206 01:23:09.256755 12084 net.cpp:380] conv2_1 -> conv2_1
I1206 01:23:09.259486 12084 net.cpp:122] Setting up conv2_1
I1206 01:23:09.259527 12084 net.cpp:129] Top shape: 16 128 112 112 (25690112)
I1206 01:23:09.259547 12084 net.cpp:137] Memory required for data: 985858240
I1206 01:23:09.259580 12084 layer_factory.hpp:77] Creating layer relu2_1
I1206 01:23:09.259609 12084 net.cpp:84] Creating Layer relu2_1
I1206 01:23:09.259630 12084 net.cpp:406] relu2_1 <- conv2_1
I1206 01:23:09.259654 12084 net.cpp:367] relu2_1 -> conv2_1 (in-place)
I1206 01:23:09.259681 12084 net.cpp:122] Setting up relu2_1
I1206 01:23:09.259703 12084 net.cpp:129] Top shape: 16 128 112 112 (25690112)
I1206 01:23:09.259722 12084 net.cpp:137] Memory required for data: 1088618688
I1206 01:23:09.259742 12084 layer_factory.hpp:77] Creating layer conv2_2
I1206 01:23:09.259780 12084 net.cpp:84] Creating Layer conv2_2
I1206 01:23:09.259799 12084 net.cpp:406] conv2_2 <- conv2_1
I1206 01:23:09.259824 12084 net.cpp:380] conv2_2 -> conv2_2
I1206 01:23:09.263036 12084 net.cpp:122] Setting up conv2_2
I1206 01:23:09.263072 12084 net.cpp:129] Top shape: 16 128 112 112 (25690112)
I1206 01:23:09.263101 12084 net.cpp:137] Memory required for data: 1191379136
I1206 01:23:09.263125 12084 layer_factory.hpp:77] Creating layer relu2_2
I1206 01:23:09.263149 12084 net.cpp:84] Creating Layer relu2_2
I1206 01:23:09.263167 12084 net.cpp:406] relu2_2 <- conv2_2
I1206 01:23:09.263190 12084 net.cpp:367] relu2_2 -> conv2_2 (in-place)
I1206 01:23:09.263212 12084 net.cpp:122] Setting up relu2_2
I1206 01:23:09.263232 12084 net.cpp:129] Top shape: 16 128 112 112 (25690112)
I1206 01:23:09.263249 12084 net.cpp:137] Memory required for data: 1294139584
I1206 01:23:09.263267 12084 layer_factory.hpp:77] Creating layer pool2
I1206 01:23:09.263289 12084 net.cpp:84] Creating Layer pool2
I1206 01:23:09.263308 12084 net.cpp:406] pool2 <- conv2_2
I1206 01:23:09.263329 12084 net.cpp:380] pool2 -> pool2
I1206 01:23:09.263406 12084 net.cpp:122] Setting up pool2
I1206 01:23:09.263428 12084 net.cpp:129] Top shape: 16 128 56 56 (6422528)
I1206 01:23:09.263447 12084 net.cpp:137] Memory required for data: 1319829696
I1206 01:23:09.263463 12084 layer_factory.hpp:77] Creating layer conv3_1
I1206 01:23:09.263490 12084 net.cpp:84] Creating Layer conv3_1
I1206 01:23:09.263509 12084 net.cpp:406] conv3_1 <- pool2
I1206 01:23:09.263531 12084 net.cpp:380] conv3_1 -> conv3_1
I1206 01:23:09.269910 12084 net.cpp:122] Setting up conv3_1
I1206 01:23:09.269948 12084 net.cpp:129] Top shape: 16 256 56 56 (12845056)
I1206 01:23:09.269966 12084 net.cpp:137] Memory required for data: 1371209920
I1206 01:23:09.269997 12084 layer_factory.hpp:77] Creating layer relu3_1
I1206 01:23:09.270022 12084 net.cpp:84] Creating Layer relu3_1
I1206 01:23:09.270041 12084 net.cpp:406] relu3_1 <- conv3_1
I1206 01:23:09.270076 12084 net.cpp:367] relu3_1 -> conv3_1 (in-place)
I1206 01:23:09.270102 12084 net.cpp:122] Setting up relu3_1
I1206 01:23:09.270123 12084 net.cpp:129] Top shape: 16 256 56 56 (12845056)
I1206 01:23:09.270139 12084 net.cpp:137] Memory required for data: 1422590144
I1206 01:23:09.270159 12084 layer_factory.hpp:77] Creating layer conv3_2
I1206 01:23:09.270184 12084 net.cpp:84] Creating Layer conv3_2
I1206 01:23:09.270203 12084 net.cpp:406] conv3_2 <- conv3_1
I1206 01:23:09.270226 12084 net.cpp:380] conv3_2 -> conv3_2
I1206 01:23:09.281772 12084 net.cpp:122] Setting up conv3_2
I1206 01:23:09.281817 12084 net.cpp:129] Top shape: 16 256 56 56 (12845056)
I1206 01:23:09.281836 12084 net.cpp:137] Memory required for data: 1473970368
I1206 01:23:09.281869 12084 layer_factory.hpp:77] Creating layer relu3_2
I1206 01:23:09.281895 12084 net.cpp:84] Creating Layer relu3_2
I1206 01:23:09.281919 12084 net.cpp:406] relu3_2 <- conv3_2
I1206 01:23:09.281941 12084 net.cpp:367] relu3_2 -> conv3_2 (in-place)
I1206 01:23:09.281968 12084 net.cpp:122] Setting up relu3_2
I1206 01:23:09.281988 12084 net.cpp:129] Top shape: 16 256 56 56 (12845056)
I1206 01:23:09.282006 12084 net.cpp:137] Memory required for data: 1525350592
I1206 01:23:09.282022 12084 layer_factory.hpp:77] Creating layer conv3_3
I1206 01:23:09.282054 12084 net.cpp:84] Creating Layer conv3_3
I1206 01:23:09.282073 12084 net.cpp:406] conv3_3 <- conv3_2
I1206 01:23:09.282095 12084 net.cpp:380] conv3_3 -> conv3_3
I1206 01:23:09.292989 12084 net.cpp:122] Setting up conv3_3
I1206 01:23:09.293025 12084 net.cpp:129] Top shape: 16 256 56 56 (12845056)
I1206 01:23:09.293042 12084 net.cpp:137] Memory required for data: 1576730816
I1206 01:23:09.293066 12084 layer_factory.hpp:77] Creating layer relu3_3
I1206 01:23:09.293090 12084 net.cpp:84] Creating Layer relu3_3
I1206 01:23:09.293109 12084 net.cpp:406] relu3_3 <- conv3_3
I1206 01:23:09.293129 12084 net.cpp:367] relu3_3 -> conv3_3 (in-place)
I1206 01:23:09.293164 12084 net.cpp:122] Setting up relu3_3
I1206 01:23:09.293182 12084 net.cpp:129] Top shape: 16 256 56 56 (12845056)
I1206 01:23:09.293197 12084 net.cpp:137] Memory required for data: 1628111040
I1206 01:23:09.293213 12084 layer_factory.hpp:77] Creating layer pool3
I1206 01:23:09.293236 12084 net.cpp:84] Creating Layer pool3
I1206 01:23:09.293252 12084 net.cpp:406] pool3 <- conv3_3
I1206 01:23:09.293272 12084 net.cpp:380] pool3 -> pool3
I1206 01:23:09.293342 12084 net.cpp:122] Setting up pool3
I1206 01:23:09.293362 12084 net.cpp:129] Top shape: 16 256 28 28 (3211264)
I1206 01:23:09.293378 12084 net.cpp:137] Memory required for data: 1640956096
I1206 01:23:09.293395 12084 layer_factory.hpp:77] Creating layer conv4_1
I1206 01:23:09.293418 12084 net.cpp:84] Creating Layer conv4_1
I1206 01:23:09.293479 12084 net.cpp:406] conv4_1 <- pool3
I1206 01:23:09.293511 12084 net.cpp:380] conv4_1 -> conv4_1
I1206 01:23:09.312976 12084 net.cpp:122] Setting up conv4_1
I1206 01:23:09.313022 12084 net.cpp:129] Top shape: 16 512 28 28 (6422528)
I1206 01:23:09.313038 12084 net.cpp:137] Memory required for data: 1666646208
I1206 01:23:09.313061 12084 layer_factory.hpp:77] Creating layer relu4_1
I1206 01:23:09.313087 12084 net.cpp:84] Creating Layer relu4_1
I1206 01:23:09.313104 12084 net.cpp:406] relu4_1 <- conv4_1
I1206 01:23:09.313125 12084 net.cpp:367] relu4_1 -> conv4_1 (in-place)
I1206 01:23:09.313148 12084 net.cpp:122] Setting up relu4_1
I1206 01:23:09.313164 12084 net.cpp:129] Top shape: 16 512 28 28 (6422528)
I1206 01:23:09.313179 12084 net.cpp:137] Memory required for data: 1692336320
I1206 01:23:09.313194 12084 layer_factory.hpp:77] Creating layer conv4_2
I1206 01:23:09.313217 12084 net.cpp:84] Creating Layer conv4_2
I1206 01:23:09.313235 12084 net.cpp:406] conv4_2 <- conv4_1
I1206 01:23:09.313253 12084 net.cpp:380] conv4_2 -> conv4_2
I1206 01:23:09.347220 12084 net.cpp:122] Setting up conv4_2
I1206 01:23:09.347262 12084 net.cpp:129] Top shape: 16 512 28 28 (6422528)
I1206 01:23:09.347276 12084 net.cpp:137] Memory required for data: 1718026432
I1206 01:23:09.347306 12084 layer_factory.hpp:77] Creating layer relu4_2
I1206 01:23:09.347328 12084 net.cpp:84] Creating Layer relu4_2
I1206 01:23:09.347343 12084 net.cpp:406] relu4_2 <- conv4_2
I1206 01:23:09.347360 12084 net.cpp:367] relu4_2 -> conv4_2 (in-place)
I1206 01:23:09.347380 12084 net.cpp:122] Setting up relu4_2
I1206 01:23:09.347394 12084 net.cpp:129] Top shape: 16 512 28 28 (6422528)
I1206 01:23:09.347406 12084 net.cpp:137] Memory required for data: 1743716544
I1206 01:23:09.347419 12084 layer_factory.hpp:77] Creating layer conv4_3
I1206 01:23:09.347441 12084 net.cpp:84] Creating Layer conv4_3
I1206 01:23:09.347456 12084 net.cpp:406] conv4_3 <- conv4_2
I1206 01:23:09.347474 12084 net.cpp:380] conv4_3 -> conv4_3
I1206 01:23:09.377362 12084 net.cpp:122] Setting up conv4_3
I1206 01:23:09.377410 12084 net.cpp:129] Top shape: 16 512 28 28 (6422528)
I1206 01:23:09.377423 12084 net.cpp:137] Memory required for data: 1769406656
I1206 01:23:09.377468 12084 layer_factory.hpp:77] Creating layer relu4_3
I1206 01:23:09.377490 12084 net.cpp:84] Creating Layer relu4_3
I1206 01:23:09.377504 12084 net.cpp:406] relu4_3 <- conv4_3
I1206 01:23:09.377519 12084 net.cpp:367] relu4_3 -> conv4_3 (in-place)
I1206 01:23:09.377537 12084 net.cpp:122] Setting up relu4_3
I1206 01:23:09.377549 12084 net.cpp:129] Top shape: 16 512 28 28 (6422528)
I1206 01:23:09.377559 12084 net.cpp:137] Memory required for data: 1795096768
I1206 01:23:09.377569 12084 layer_factory.hpp:77] Creating layer pool4
I1206 01:23:09.377583 12084 net.cpp:84] Creating Layer pool4
I1206 01:23:09.377594 12084 net.cpp:406] pool4 <- conv4_3
I1206 01:23:09.377609 12084 net.cpp:380] pool4 -> pool4
I1206 01:23:09.377660 12084 net.cpp:122] Setting up pool4
I1206 01:23:09.377677 12084 net.cpp:129] Top shape: 16 512 14 14 (1605632)
I1206 01:23:09.377688 12084 net.cpp:137] Memory required for data: 1801519296
I1206 01:23:09.377698 12084 layer_factory.hpp:77] Creating layer conv5_1
I1206 01:23:09.377719 12084 net.cpp:84] Creating Layer conv5_1
I1206 01:23:09.377730 12084 net.cpp:406] conv5_1 <- pool4
I1206 01:23:09.377745 12084 net.cpp:380] conv5_1 -> conv5_1
I1206 01:23:09.404259 12084 net.cpp:122] Setting up conv5_1
I1206 01:23:09.404307 12084 net.cpp:129] Top shape: 16 512 14 14 (1605632)
I1206 01:23:09.404320 12084 net.cpp:137] Memory required for data: 1807941824
I1206 01:23:09.404338 12084 layer_factory.hpp:77] Creating layer relu5_1
I1206 01:23:09.404359 12084 net.cpp:84] Creating Layer relu5_1
I1206 01:23:09.404372 12084 net.cpp:406] relu5_1 <- conv5_1
I1206 01:23:09.404387 12084 net.cpp:367] relu5_1 -> conv5_1 (in-place)
I1206 01:23:09.404407 12084 net.cpp:122] Setting up relu5_1
I1206 01:23:09.404419 12084 net.cpp:129] Top shape: 16 512 14 14 (1605632)
I1206 01:23:09.404430 12084 net.cpp:137] Memory required for data: 1814364352
I1206 01:23:09.404441 12084 layer_factory.hpp:77] Creating layer conv5_2
I1206 01:23:09.404461 12084 net.cpp:84] Creating Layer conv5_2
I1206 01:23:09.404474 12084 net.cpp:406] conv5_2 <- conv5_1
I1206 01:23:09.404489 12084 net.cpp:380] conv5_2 -> conv5_2
I1206 01:23:09.431197 12084 net.cpp:122] Setting up conv5_2
I1206 01:23:09.431257 12084 net.cpp:129] Top shape: 16 512 14 14 (1605632)
I1206 01:23:09.431268 12084 net.cpp:137] Memory required for data: 1820786880
I1206 01:23:09.431287 12084 layer_factory.hpp:77] Creating layer relu5_2
I1206 01:23:09.431305 12084 net.cpp:84] Creating Layer relu5_2
I1206 01:23:09.431318 12084 net.cpp:406] relu5_2 <- conv5_2
I1206 01:23:09.431336 12084 net.cpp:367] relu5_2 -> conv5_2 (in-place)
I1206 01:23:09.431355 12084 net.cpp:122] Setting up relu5_2
I1206 01:23:09.431375 12084 net.cpp:129] Top shape: 16 512 14 14 (1605632)
I1206 01:23:09.431385 12084 net.cpp:137] Memory required for data: 1827209408
I1206 01:23:09.431397 12084 layer_factory.hpp:77] Creating layer conv5_3
I1206 01:23:09.431414 12084 net.cpp:84] Creating Layer conv5_3
I1206 01:23:09.431427 12084 net.cpp:406] conv5_3 <- conv5_2
I1206 01:23:09.431442 12084 net.cpp:380] conv5_3 -> conv5_3
I1206 01:23:09.458045 12084 net.cpp:122] Setting up conv5_3
I1206 01:23:09.458096 12084 net.cpp:129] Top shape: 16 512 14 14 (1605632)
I1206 01:23:09.458107 12084 net.cpp:137] Memory required for data: 1833631936
I1206 01:23:09.458123 12084 layer_factory.hpp:77] Creating layer relu5_3
I1206 01:23:09.458142 12084 net.cpp:84] Creating Layer relu5_3
I1206 01:23:09.458153 12084 net.cpp:406] relu5_3 <- conv5_3
I1206 01:23:09.458169 12084 net.cpp:367] relu5_3 -> conv5_3 (in-place)
I1206 01:23:09.458186 12084 net.cpp:122] Setting up relu5_3
I1206 01:23:09.458199 12084 net.cpp:129] Top shape: 16 512 14 14 (1605632)
I1206 01:23:09.458210 12084 net.cpp:137] Memory required for data: 1840054464
I1206 01:23:09.458221 12084 layer_factory.hpp:77] Creating layer pool5
I1206 01:23:09.458243 12084 net.cpp:84] Creating Layer pool5
I1206 01:23:09.458256 12084 net.cpp:406] pool5 <- conv5_3
I1206 01:23:09.458274 12084 net.cpp:380] pool5 -> pool5
I1206 01:23:09.458334 12084 net.cpp:122] Setting up pool5
I1206 01:23:09.458353 12084 net.cpp:129] Top shape: 16 512 7 7 (401408)
I1206 01:23:09.458362 12084 net.cpp:137] Memory required for data: 1841660096
I1206 01:23:09.458374 12084 layer_factory.hpp:77] Creating layer fc6
I1206 01:23:09.458389 12084 net.cpp:84] Creating Layer fc6
I1206 01:23:09.458401 12084 net.cpp:406] fc6 <- pool5
I1206 01:23:09.458417 12084 net.cpp:380] fc6 -> fc6
I1206 01:23:10.674513 12084 net.cpp:122] Setting up fc6
I1206 01:23:10.674569 12084 net.cpp:129] Top shape: 16 4096 (65536)
I1206 01:23:10.674582 12084 net.cpp:137] Memory required for data: 1841922240
I1206 01:23:10.674603 12084 layer_factory.hpp:77] Creating layer relu6
I1206 01:23:10.674628 12084 net.cpp:84] Creating Layer relu6
I1206 01:23:10.674643 12084 net.cpp:406] relu6 <- fc6
I1206 01:23:10.674657 12084 net.cpp:367] relu6 -> fc6 (in-place)
I1206 01:23:10.674676 12084 net.cpp:122] Setting up relu6
I1206 01:23:10.674688 12084 net.cpp:129] Top shape: 16 4096 (65536)
I1206 01:23:10.674698 12084 net.cpp:137] Memory required for data: 1842184384
I1206 01:23:10.674727 12084 layer_factory.hpp:77] Creating layer drop6
I1206 01:23:10.674743 12084 net.cpp:84] Creating Layer drop6
I1206 01:23:10.674753 12084 net.cpp:406] drop6 <- fc6
I1206 01:23:10.674768 12084 net.cpp:367] drop6 -> fc6 (in-place)
I1206 01:23:10.674809 12084 net.cpp:122] Setting up drop6
I1206 01:23:10.674823 12084 net.cpp:129] Top shape: 16 4096 (65536)
I1206 01:23:10.674834 12084 net.cpp:137] Memory required for data: 1842446528
I1206 01:23:10.674844 12084 layer_factory.hpp:77] Creating layer fc7
I1206 01:23:10.674862 12084 net.cpp:84] Creating Layer fc7
I1206 01:23:10.674872 12084 net.cpp:406] fc7 <- fc6
I1206 01:23:10.674887 12084 net.cpp:380] fc7 -> fc7
I1206 01:23:10.910720 12084 net.cpp:122] Setting up fc7
I1206 01:23:10.910769 12084 net.cpp:129] Top shape: 16 4096 (65536)
I1206 01:23:10.910784 12084 net.cpp:137] Memory required for data: 1842708672
I1206 01:23:10.910805 12084 layer_factory.hpp:77] Creating layer relu7
I1206 01:23:10.910831 12084 net.cpp:84] Creating Layer relu7
I1206 01:23:10.910845 12084 net.cpp:406] relu7 <- fc7
I1206 01:23:10.910862 12084 net.cpp:367] relu7 -> fc7 (in-place)
I1206 01:23:10.910882 12084 net.cpp:122] Setting up relu7
I1206 01:23:10.910897 12084 net.cpp:129] Top shape: 16 4096 (65536)
I1206 01:23:10.910907 12084 net.cpp:137] Memory required for data: 1842970816
I1206 01:23:10.910918 12084 layer_factory.hpp:77] Creating layer drop7
I1206 01:23:10.910938 12084 net.cpp:84] Creating Layer drop7
I1206 01:23:10.910948 12084 net.cpp:406] drop7 <- fc7
I1206 01:23:10.910961 12084 net.cpp:367] drop7 -> fc7 (in-place)
I1206 01:23:10.911006 12084 net.cpp:122] Setting up drop7
I1206 01:23:10.911023 12084 net.cpp:129] Top shape: 16 4096 (65536)
I1206 01:23:10.911036 12084 net.cpp:137] Memory required for data: 1843232960
I1206 01:23:10.911046 12084 layer_factory.hpp:77] Creating layer fc_scv_quiet
I1206 01:23:10.911064 12084 net.cpp:84] Creating Layer fc_scv_quiet
I1206 01:23:10.911077 12084 net.cpp:406] fc_scv_quiet <- fc7
I1206 01:23:10.911093 12084 net.cpp:380] fc_scv_quiet -> fc_scv_quiet
I1206 01:23:10.911249 12084 net.cpp:122] Setting up fc_scv_quiet
I1206 01:23:10.911265 12084 net.cpp:129] Top shape: 16 1 (16)
I1206 01:23:10.911276 12084 net.cpp:137] Memory required for data: 1843233024
I1206 01:23:10.911291 12084 layer_factory.hpp:77] Creating layer fc_scv_quiet_fc_scv_quiet_0_split
I1206 01:23:10.911309 12084 net.cpp:84] Creating Layer fc_scv_quiet_fc_scv_quiet_0_split
I1206 01:23:10.911321 12084 net.cpp:406] fc_scv_quiet_fc_scv_quiet_0_split <- fc_scv_quiet
I1206 01:23:10.911335 12084 net.cpp:380] fc_scv_quiet_fc_scv_quiet_0_split -> fc_scv_quiet_fc_scv_quiet_0_split_0
I1206 01:23:10.911350 12084 net.cpp:380] fc_scv_quiet_fc_scv_quiet_0_split -> fc_scv_quiet_fc_scv_quiet_0_split_1
I1206 01:23:10.911404 12084 net.cpp:122] Setting up fc_scv_quiet_fc_scv_quiet_0_split
I1206 01:23:10.911419 12084 net.cpp:129] Top shape: 16 1 (16)
I1206 01:23:10.911437 12084 net.cpp:129] Top shape: 16 1 (16)
I1206 01:23:10.911448 12084 net.cpp:137] Memory required for data: 1843233152
I1206 01:23:10.911459 12084 layer_factory.hpp:77] Creating layer loss
I1206 01:23:10.911475 12084 net.cpp:84] Creating Layer loss
I1206 01:23:10.911487 12084 net.cpp:406] loss <- fc_scv_quiet_fc_scv_quiet_0_split_0
I1206 01:23:10.911500 12084 net.cpp:406] loss <- label_data_1_split_0
I1206 01:23:10.911514 12084 net.cpp:380] loss -> loss
…
