…
I1206 04:04:37.487330 30105 net.cpp:294] The NetState phase (0) differed from the phase (1) specified by a rule in layer losttest
I1206 04:04:37.487643 30105 net.cpp:51] Initializing net from parameters: 
name: "VGG-Places365-SCV-Dangerous"
state {
  phase: TRAIN
  level: 0
  stage: ""
}
layer {
  name: "data"
  type: "Data"
  top: "data"
  top: "label"
  include {
    phase: TRAIN
  }
  transform_param {
    mirror: true
    crop_size: 224
    mean_file: "/idiap/temp/lmedina/fine-tuning/vgg16_places365/places365CNN_mean.binaryproto"
  }
  data_param {
    source: "/idiap/temp/lmedina/fine-tuning/data/Dangerous/train_lmdb"
    batch_size: 16
    backend: LMDB
  }
}
layer {
  name: "conv1_1"
  type: "Convolution"
  bottom: "data"
  top: "conv1_1"
  param {
    lr_mult: 1
    decay_mult: 1
  }
  param {
    lr_mult: 2
    decay_mult: 0
  }
  convolution_param {
    num_output: 64
    pad: 1
    kernel_size: 3
    weight_filler {
      type: "gaussian"
      std: 0.01
    }
    bias_filler {
      type: "constant"
      value: 0
    }
  }
}
layer {
  name: "relu1_1"
  type: "ReLU"
  bottom: "conv1_1"
  top: "conv1_1"
}
layer {
  name: "conv1_2"
  type: "Convolution"
  bottom: "conv1_1"
  top: "conv1_2"
  param {
    lr_mult: 1
    decay_mult: 1
  }
  param {
    lr_mult: 2
    decay_mult: 0
  }
  convolution_param {
    num_output: 64
    pad: 1
    kernel_size: 3
    weight_filler {
      type: "gaussian"
      std: 0.01
    }
    bias_filler {
      type: "constant"
      value: 0
    }
  }
}
layer {
  name: "relu1_2"
  type: "ReLU"
  bottom: "conv1_2"
  top: "conv1_2"
}
layer {
  name: "pool1"
  type: "Pooling"
  bottom: "conv1_2"
  top: "pool1"
  pooling_param {
    pool: MAX
    kernel_size: 2
    stride: 2
  }
}
layer {
  name: "conv2_1"
  type: "Convolution"
  bottom: "pool1"
  top: "conv2_1"
  param {
    lr_mult: 1
    decay_mult: 1
  }
  param {
    lr_mult: 2
    decay_mult: 0
  }
  convolution_param {
    num_output: 128
    pad: 1
    kernel_size: 3
    weight_filler {
      type: "gaussian"
      std: 0.01
    }
    bias_filler {
      type: "constant"
      value: 0
    }
  }
}
layer {
  name: "relu2_1"
  type: "ReLU"
  bottom: "conv2_1"
  top: "conv2_1"
}
layer {
  name: "conv2_2"
  type: "Convolution"
  bottom: "conv2_1"
  top: "conv2_2"
  param {
    lr_mult: 1
    decay_mult: 1
  }
  param {
    lr_mult: 2
    decay_mult: 0
  }
  convolution_param {
    num_output: 128
    pad: 1
    kernel_size: 3
    weight_filler {
      type: "gaussian"
      std: 0.01
    }
    bias_filler {
      type: "constant"
      value: 0
    }
  }
}
layer {
  name: "relu2_2"
  type: "ReLU"
  bottom: "conv2_2"
  top: "conv2_2"
}
layer {
  name: "pool2"
  type: "Pooling"
  bottom: "conv2_2"
  top: "pool2"
  pooling_param {
    pool: MAX
    kernel_size: 2
    stride: 2
  }
}
layer {
  name: "conv3_1"
  type: "Convolution"
  bottom: "pool2"
  top: "conv3_1"
  param {
    lr_mult: 1
    decay_mult: 1
  }
  param {
    lr_mult: 2
    decay_mult: 0
  }
  convolution_param {
    num_output: 256
    pad: 1
    kernel_size: 3
    weight_filler {
      type: "gaussian"
      std: 0.01
    }
    bias_filler {
      type: "constant"
      value: 0
    }
  }
}
layer {
  name: "relu3_1"
  type: "ReLU"
  bottom: "conv3_1"
  top: "conv3_1"
}
layer {
  name: "conv3_2"
  type: "Convolution"
  bottom: "conv3_1"
  top: "conv3_2"
  param {
    lr_mult: 1
    decay_mult: 1
  }
  param {
    lr_mult: 2
    decay_mult: 0
  }
  convolution_param {
    num_output: 256
    pad: 1
    kernel_size: 3
    weight_filler {
      type: "gaussian"
      std: 0.01
    }
    bias_filler {
      type: "constant"
      value: 0
    }
  }
}
layer {
  name: "relu3_2"
  type: "ReLU"
  bottom: "conv3_2"
  top: "conv3_2"
}
layer {
  name: "conv3_3"
  type: "Convolution"
  bottom: "conv3_2"
  top: "conv3_3"
  param {
    lr_mult: 1
    decay_mult: 1
  }
  param {
    lr_mult: 2
    decay_mult: 0
  }
  convolution_param {
    num_output: 256
    pad: 1
    kernel_size: 3
    weight_filler {
      type: "gaussian"
      std: 0.01
    }
    bias_filler {
      type: "constant"
      value: 0
    }
  }
}
layer {
  name: "relu3_3"
  type: "ReLU"
  bottom: "conv3_3"
  top: "conv3_3"
}
layer {
  name: "pool3"
  type: "Pooling"
  bottom: "conv3_3"
  top: "pool3"
  pooling_param {
    pool: MAX
    kernel_size: 2
    stride: 2
  }
}
layer {
  name: "conv4_1"
  type: "Convolution"
  bottom: "pool3"
  top: "conv4_1"
  param {
    lr_mult: 1
    decay_mult: 1
  }
  param {
    lr_mult: 2
    decay_mult: 0
  }
  convolution_param {
    num_output: 512
    pad: 1
    kernel_size: 3
    weight_filler {
      type: "gaussian"
      std: 0.01
    }
    bias_filler {
      type: "constant"
      value: 0
    }
  }
}
layer {
  name: "relu4_1"
  type: "ReLU"
  bottom: "conv4_1"
  top: "conv4_1"
}
layer {
  name: "conv4_2"
  type: "Convolution"
  bottom: "conv4_1"
  top: "conv4_2"
  param {
    lr_mult: 1
    decay_mult: 1
  }
  param {
    lr_mult: 2
    decay_mult: 0
  }
  convolution_param {
    num_output: 512
    pad: 1
    kernel_size: 3
    weight_filler {
      type: "gaussian"
      std: 0.01
    }
    bias_filler {
      type: "constant"
      value: 0
    }
  }
}
layer {
  name: "relu4_2"
  type: "ReLU"
  bottom: "conv4_2"
  top: "conv4_2"
}
layer {
  name: "conv4_3"
  type: "Convolution"
  bottom: "conv4_2"
  top: "conv4_3"
  param {
    lr_mult: 1
    decay_mult: 1
  }
  param {
    lr_mult: 2
    decay_mult: 0
  }
  convolution_param {
    num_output: 512
    pad: 1
    kernel_size: 3
    weight_filler {
      type: "gaussian"
      std: 0.01
    }
    bias_filler {
      type: "constant"
      value: 0
    }
  }
}
layer {
  name: "relu4_3"
  type: "ReLU"
  bottom: "conv4_3"
  top: "conv4_3"
}
layer {
  name: "pool4"
  type: "Pooling"
  bottom: "conv4_3"
  top: "pool4"
  pooling_param {
    pool: MAX
    kernel_size: 2
    stride: 2
  }
}
layer {
  name: "conv5_1"
  type: "Convolution"
  bottom: "pool4"
  top: "conv5_1"
  param {
    lr_mult: 1
    decay_mult: 1
  }
  param {
    lr_mult: 2
    decay_mult: 0
  }
  convolution_param {
    num_output: 512
    pad: 1
    kernel_size: 3
    weight_filler {
      type: "gaussian"
      std: 0.01
    }
    bias_filler {
      type: "constant"
      value: 0
    }
  }
}
layer {
  name: "relu5_1"
  type: "ReLU"
  bottom: "conv5_1"
  top: "conv5_1"
}
layer {
  name: "conv5_2"
  type: "Convolution"
  bottom: "conv5_1"
  top: "conv5_2"
  param {
    lr_mult: 1
    decay_mult: 1
  }
  param {
    lr_mult: 2
    decay_mult: 0
  }
  convolution_param {
    num_output: 512
    pad: 1
    kernel_size: 3
    weight_filler {
      type: "gaussian"
      std: 0.01
    }
    bias_filler {
      type: "constant"
      value: 0
    }
  }
}
layer {
  name: "relu5_2"
  type: "ReLU"
  bottom: "conv5_2"
  top: "conv5_2"
}
layer {
  name: "conv5_3"
  type: "Convolution"
  bottom: "conv5_2"
  top: "conv5_3"
  param {
    lr_mult: 1
    decay_mult: 1
  }
  param {
    lr_mult: 2
    decay_mult: 0
  }
  convolution_param {
    num_output: 512
    pad: 1
    kernel_size: 3
    weight_filler {
      type: "gaussian"
      std: 0.01
    }
    bias_filler {
      type: "constant"
      value: 0
    }
  }
}
layer {
  name: "relu5_3"
  type: "ReLU"
  bottom: "conv5_3"
  top: "conv5_3"
}
layer {
  name: "pool5"
  type: "Pooling"
  bottom: "conv5_3"
  top: "pool5"
  pooling_param {
    pool: MAX
    kernel_size: 2
    stride: 2
  }
}
layer {
  name: "fc6"
  type: "InnerProduct"
  bottom: "pool5"
  top: "fc6"
  param {
    lr_mult: 1
    decay_mult: 1
  }
  param {
    lr_mult: 2
    decay_mult: 0
  }
  inner_product_param {
    num_output: 4096
    weight_filler {
      type: "gaussian"
      std: 0.01
    }
    bias_filler {
      type: "constant"
      value: 0
    }
  }
}
layer {
  name: "relu6"
  type: "ReLU"
  bottom: "fc6"
  top: "fc6"
}
layer {
  name: "drop6"
  type: "Dropout"
  bottom: "fc6"
  top: "fc6"
  dropout_param {
    dropout_ratio: 0.5
  }
}
layer {
  name: "fc7"
  type: "InnerProduct"
  bottom: "fc6"
  top: "fc7"
  param {
    lr_mult: 1
    decay_mult: 1
  }
  param {
    lr_mult: 2
    decay_mult: 0
  }
  inner_product_param {
    num_output: 4096
    weight_filler {
      type: "gaussian"
      std: 0.01
    }
    bias_filler {
      type: "constant"
      value: 0
    }
  }
}
layer {
  name: "relu7"
  type: "ReLU"
  bottom: "fc7"
  top: "fc7"
}
layer {
  name: "drop7"
  type: "Dropout"
  bottom: "fc7"
  top: "fc7"
  dropout_param {
    dropout_ratio: 0.5
  }
}
layer {
  name: "fc_scv_dangerous"
  type: "InnerProduct"
  bottom: "fc7"
  top: "fc_scv_dangerous"
  param {
    lr_mult: 10
    decay_mult: 1
  }
  param {
    lr_mult: 20
    decay_mult: 0
  }
  inner_product_param {
    num_output: 1
    weight_filler {
      type: "xavier"
      std: 0.01
    }
    bias_filler {
      type: "constant"
      value: 0
    }
  }
}
layer {
  name: "loss"
  type: "EuclideanLoss"
  bottom: "fc_scv_dangerous"
  bottom: "label"
  top: "loss"
}
I1206 04:04:37.487860 30105 layer_factory.hpp:77] Creating layer data
I1206 04:04:37.582221 30105 db_lmdb.cpp:35] Opened lmdb /idiap/temp/lmedina/fine-tuning/data/Dangerous/train_lmdb
I1206 04:04:37.603022 30105 net.cpp:84] Creating Layer data
I1206 04:04:37.603076 30105 net.cpp:380] data -> data
I1206 04:04:37.603154 30105 net.cpp:380] data -> label
I1206 04:04:37.603293 30105 data_transformer.cpp:25] Loading mean file from: /idiap/temp/lmedina/fine-tuning/vgg16_places365/places365CNN_mean.binaryproto
I1206 04:04:37.621551 30105 data_layer.cpp:45] output data size: 16,3,224,224
I1206 04:04:37.655833 30105 net.cpp:122] Setting up data
I1206 04:04:37.655894 30105 net.cpp:129] Top shape: 16 3 224 224 (2408448)
I1206 04:04:37.655915 30105 net.cpp:129] Top shape: 16 (16)
I1206 04:04:37.655927 30105 net.cpp:137] Memory required for data: 9633856
I1206 04:04:37.655952 30105 layer_factory.hpp:77] Creating layer conv1_1
I1206 04:04:37.655994 30105 net.cpp:84] Creating Layer conv1_1
I1206 04:04:37.656011 30105 net.cpp:406] conv1_1 <- data
I1206 04:04:37.656038 30105 net.cpp:380] conv1_1 -> conv1_1
I1206 04:04:37.657874 30105 net.cpp:122] Setting up conv1_1
I1206 04:04:37.657902 30105 net.cpp:129] Top shape: 16 64 224 224 (51380224)
I1206 04:04:37.657914 30105 net.cpp:137] Memory required for data: 215154752
I1206 04:04:37.657940 30105 layer_factory.hpp:77] Creating layer relu1_1
I1206 04:04:37.657964 30105 net.cpp:84] Creating Layer relu1_1
I1206 04:04:37.657977 30105 net.cpp:406] relu1_1 <- conv1_1
I1206 04:04:37.657994 30105 net.cpp:367] relu1_1 -> conv1_1 (in-place)
I1206 04:04:37.658012 30105 net.cpp:122] Setting up relu1_1
I1206 04:04:37.658027 30105 net.cpp:129] Top shape: 16 64 224 224 (51380224)
I1206 04:04:37.658040 30105 net.cpp:137] Memory required for data: 420675648
I1206 04:04:37.658051 30105 layer_factory.hpp:77] Creating layer conv1_2
I1206 04:04:37.658072 30105 net.cpp:84] Creating Layer conv1_2
I1206 04:04:37.658084 30105 net.cpp:406] conv1_2 <- conv1_1
I1206 04:04:37.658102 30105 net.cpp:380] conv1_2 -> conv1_2
I1206 04:04:37.659263 30105 net.cpp:122] Setting up conv1_2
I1206 04:04:37.659287 30105 net.cpp:129] Top shape: 16 64 224 224 (51380224)
I1206 04:04:37.659301 30105 net.cpp:137] Memory required for data: 626196544
I1206 04:04:37.659320 30105 layer_factory.hpp:77] Creating layer relu1_2
I1206 04:04:37.659338 30105 net.cpp:84] Creating Layer relu1_2
I1206 04:04:37.659350 30105 net.cpp:406] relu1_2 <- conv1_2
I1206 04:04:37.659373 30105 net.cpp:367] relu1_2 -> conv1_2 (in-place)
I1206 04:04:37.659389 30105 net.cpp:122] Setting up relu1_2
I1206 04:04:37.659402 30105 net.cpp:129] Top shape: 16 64 224 224 (51380224)
I1206 04:04:37.659415 30105 net.cpp:137] Memory required for data: 831717440
I1206 04:04:37.659426 30105 layer_factory.hpp:77] Creating layer pool1
I1206 04:04:37.659446 30105 net.cpp:84] Creating Layer pool1
I1206 04:04:37.659457 30105 net.cpp:406] pool1 <- conv1_2
I1206 04:04:37.659473 30105 net.cpp:380] pool1 -> pool1
I1206 04:04:37.659536 30105 net.cpp:122] Setting up pool1
I1206 04:04:37.659554 30105 net.cpp:129] Top shape: 16 64 112 112 (12845056)
I1206 04:04:37.659565 30105 net.cpp:137] Memory required for data: 883097664
I1206 04:04:37.659577 30105 layer_factory.hpp:77] Creating layer conv2_1
I1206 04:04:37.659598 30105 net.cpp:84] Creating Layer conv2_1
I1206 04:04:37.659610 30105 net.cpp:406] conv2_1 <- pool1
I1206 04:04:37.659627 30105 net.cpp:380] conv2_1 -> conv2_1
I1206 04:04:37.662619 30105 net.cpp:122] Setting up conv2_1
I1206 04:04:37.662645 30105 net.cpp:129] Top shape: 16 128 112 112 (25690112)
I1206 04:04:37.662659 30105 net.cpp:137] Memory required for data: 985858112
I1206 04:04:37.662680 30105 layer_factory.hpp:77] Creating layer relu2_1
I1206 04:04:37.662714 30105 net.cpp:84] Creating Layer relu2_1
I1206 04:04:37.662726 30105 net.cpp:406] relu2_1 <- conv2_1
I1206 04:04:37.662742 30105 net.cpp:367] relu2_1 -> conv2_1 (in-place)
I1206 04:04:37.662760 30105 net.cpp:122] Setting up relu2_1
I1206 04:04:37.662773 30105 net.cpp:129] Top shape: 16 128 112 112 (25690112)
I1206 04:04:37.662786 30105 net.cpp:137] Memory required for data: 1088618560
I1206 04:04:37.662797 30105 layer_factory.hpp:77] Creating layer conv2_2
I1206 04:04:37.662820 30105 net.cpp:84] Creating Layer conv2_2
I1206 04:04:37.662832 30105 net.cpp:406] conv2_2 <- conv2_1
I1206 04:04:37.662849 30105 net.cpp:380] conv2_2 -> conv2_2
I1206 04:04:37.664827 30105 net.cpp:122] Setting up conv2_2
I1206 04:04:37.664849 30105 net.cpp:129] Top shape: 16 128 112 112 (25690112)
I1206 04:04:37.664860 30105 net.cpp:137] Memory required for data: 1191379008
I1206 04:04:37.664876 30105 layer_factory.hpp:77] Creating layer relu2_2
I1206 04:04:37.664892 30105 net.cpp:84] Creating Layer relu2_2
I1206 04:04:37.664906 30105 net.cpp:406] relu2_2 <- conv2_2
I1206 04:04:37.664921 30105 net.cpp:367] relu2_2 -> conv2_2 (in-place)
I1206 04:04:37.664937 30105 net.cpp:122] Setting up relu2_2
I1206 04:04:37.664950 30105 net.cpp:129] Top shape: 16 128 112 112 (25690112)
I1206 04:04:37.664963 30105 net.cpp:137] Memory required for data: 1294139456
I1206 04:04:37.664974 30105 layer_factory.hpp:77] Creating layer pool2
I1206 04:04:37.664990 30105 net.cpp:84] Creating Layer pool2
I1206 04:04:37.665002 30105 net.cpp:406] pool2 <- conv2_2
I1206 04:04:37.665016 30105 net.cpp:380] pool2 -> pool2
I1206 04:04:37.665067 30105 net.cpp:122] Setting up pool2
I1206 04:04:37.665082 30105 net.cpp:129] Top shape: 16 128 56 56 (6422528)
I1206 04:04:37.665094 30105 net.cpp:137] Memory required for data: 1319829568
I1206 04:04:37.665107 30105 layer_factory.hpp:77] Creating layer conv3_1
I1206 04:04:37.665127 30105 net.cpp:84] Creating Layer conv3_1
I1206 04:04:37.665139 30105 net.cpp:406] conv3_1 <- pool2
I1206 04:04:37.665156 30105 net.cpp:380] conv3_1 -> conv3_1
I1206 04:04:37.669569 30105 net.cpp:122] Setting up conv3_1
I1206 04:04:37.669595 30105 net.cpp:129] Top shape: 16 256 56 56 (12845056)
I1206 04:04:37.669607 30105 net.cpp:137] Memory required for data: 1371209792
I1206 04:04:37.669628 30105 layer_factory.hpp:77] Creating layer relu3_1
I1206 04:04:37.669646 30105 net.cpp:84] Creating Layer relu3_1
I1206 04:04:37.669658 30105 net.cpp:406] relu3_1 <- conv3_1
I1206 04:04:37.669673 30105 net.cpp:367] relu3_1 -> conv3_1 (in-place)
I1206 04:04:37.669692 30105 net.cpp:122] Setting up relu3_1
I1206 04:04:37.669706 30105 net.cpp:129] Top shape: 16 256 56 56 (12845056)
I1206 04:04:37.669718 30105 net.cpp:137] Memory required for data: 1422590016
I1206 04:04:37.669736 30105 layer_factory.hpp:77] Creating layer conv3_2
I1206 04:04:37.669755 30105 net.cpp:84] Creating Layer conv3_2
I1206 04:04:37.669770 30105 net.cpp:406] conv3_2 <- conv3_1
I1206 04:04:37.669790 30105 net.cpp:380] conv3_2 -> conv3_2
I1206 04:04:37.677950 30105 net.cpp:122] Setting up conv3_2
I1206 04:04:37.677976 30105 net.cpp:129] Top shape: 16 256 56 56 (12845056)
I1206 04:04:37.677989 30105 net.cpp:137] Memory required for data: 1473970240
I1206 04:04:37.678004 30105 layer_factory.hpp:77] Creating layer relu3_2
I1206 04:04:37.678025 30105 net.cpp:84] Creating Layer relu3_2
I1206 04:04:37.678037 30105 net.cpp:406] relu3_2 <- conv3_2
I1206 04:04:37.678053 30105 net.cpp:367] relu3_2 -> conv3_2 (in-place)
I1206 04:04:37.678069 30105 net.cpp:122] Setting up relu3_2
I1206 04:04:37.678082 30105 net.cpp:129] Top shape: 16 256 56 56 (12845056)
I1206 04:04:37.678094 30105 net.cpp:137] Memory required for data: 1525350464
I1206 04:04:37.678107 30105 layer_factory.hpp:77] Creating layer conv3_3
I1206 04:04:37.678129 30105 net.cpp:84] Creating Layer conv3_3
I1206 04:04:37.678141 30105 net.cpp:406] conv3_3 <- conv3_2
I1206 04:04:37.678156 30105 net.cpp:380] conv3_3 -> conv3_3
I1206 04:04:37.686087 30105 net.cpp:122] Setting up conv3_3
I1206 04:04:37.686115 30105 net.cpp:129] Top shape: 16 256 56 56 (12845056)
I1206 04:04:37.686126 30105 net.cpp:137] Memory required for data: 1576730688
I1206 04:04:37.686144 30105 layer_factory.hpp:77] Creating layer relu3_3
I1206 04:04:37.686167 30105 net.cpp:84] Creating Layer relu3_3
I1206 04:04:37.686182 30105 net.cpp:406] relu3_3 <- conv3_3
I1206 04:04:37.686198 30105 net.cpp:367] relu3_3 -> conv3_3 (in-place)
I1206 04:04:37.686215 30105 net.cpp:122] Setting up relu3_3
I1206 04:04:37.686230 30105 net.cpp:129] Top shape: 16 256 56 56 (12845056)
I1206 04:04:37.686242 30105 net.cpp:137] Memory required for data: 1628110912
I1206 04:04:37.686254 30105 layer_factory.hpp:77] Creating layer pool3
I1206 04:04:37.686271 30105 net.cpp:84] Creating Layer pool3
I1206 04:04:37.686285 30105 net.cpp:406] pool3 <- conv3_3
I1206 04:04:37.686300 30105 net.cpp:380] pool3 -> pool3
I1206 04:04:37.686353 30105 net.cpp:122] Setting up pool3
I1206 04:04:37.686370 30105 net.cpp:129] Top shape: 16 256 28 28 (3211264)
I1206 04:04:37.686381 30105 net.cpp:137] Memory required for data: 1640955968
I1206 04:04:37.686393 30105 layer_factory.hpp:77] Creating layer conv4_1
I1206 04:04:37.686413 30105 net.cpp:84] Creating Layer conv4_1
I1206 04:04:37.686426 30105 net.cpp:406] conv4_1 <- pool3
I1206 04:04:37.686442 30105 net.cpp:380] conv4_1 -> conv4_1
I1206 04:04:37.703388 30105 net.cpp:122] Setting up conv4_1
I1206 04:04:37.703436 30105 net.cpp:129] Top shape: 16 512 28 28 (6422528)
I1206 04:04:37.703449 30105 net.cpp:137] Memory required for data: 1666646080
I1206 04:04:37.703469 30105 layer_factory.hpp:77] Creating layer relu4_1
I1206 04:04:37.703493 30105 net.cpp:84] Creating Layer relu4_1
I1206 04:04:37.703508 30105 net.cpp:406] relu4_1 <- conv4_1
I1206 04:04:37.703527 30105 net.cpp:367] relu4_1 -> conv4_1 (in-place)
I1206 04:04:37.703548 30105 net.cpp:122] Setting up relu4_1
I1206 04:04:37.703562 30105 net.cpp:129] Top shape: 16 512 28 28 (6422528)
I1206 04:04:37.703572 30105 net.cpp:137] Memory required for data: 1692336192
I1206 04:04:37.703584 30105 layer_factory.hpp:77] Creating layer conv4_2
I1206 04:04:37.703605 30105 net.cpp:84] Creating Layer conv4_2
I1206 04:04:37.703616 30105 net.cpp:406] conv4_2 <- conv4_1
I1206 04:04:37.703631 30105 net.cpp:380] conv4_2 -> conv4_2
I1206 04:04:37.734612 30105 net.cpp:122] Setting up conv4_2
I1206 04:04:37.734658 30105 net.cpp:129] Top shape: 16 512 28 28 (6422528)
I1206 04:04:37.734670 30105 net.cpp:137] Memory required for data: 1718026304
I1206 04:04:37.734706 30105 layer_factory.hpp:77] Creating layer relu4_2
I1206 04:04:37.734730 30105 net.cpp:84] Creating Layer relu4_2
I1206 04:04:37.734745 30105 net.cpp:406] relu4_2 <- conv4_2
I1206 04:04:37.734761 30105 net.cpp:367] relu4_2 -> conv4_2 (in-place)
I1206 04:04:37.734781 30105 net.cpp:122] Setting up relu4_2
I1206 04:04:37.734802 30105 net.cpp:129] Top shape: 16 512 28 28 (6422528)
I1206 04:04:37.734813 30105 net.cpp:137] Memory required for data: 1743716416
I1206 04:04:37.734824 30105 layer_factory.hpp:77] Creating layer conv4_3
I1206 04:04:37.734845 30105 net.cpp:84] Creating Layer conv4_3
I1206 04:04:37.734856 30105 net.cpp:406] conv4_3 <- conv4_2
I1206 04:04:37.734874 30105 net.cpp:380] conv4_3 -> conv4_3
I1206 04:04:37.766316 30105 net.cpp:122] Setting up conv4_3
I1206 04:04:37.766364 30105 net.cpp:129] Top shape: 16 512 28 28 (6422528)
I1206 04:04:37.766377 30105 net.cpp:137] Memory required for data: 1769406528
I1206 04:04:37.766397 30105 layer_factory.hpp:77] Creating layer relu4_3
I1206 04:04:37.766418 30105 net.cpp:84] Creating Layer relu4_3
I1206 04:04:37.766433 30105 net.cpp:406] relu4_3 <- conv4_3
I1206 04:04:37.766451 30105 net.cpp:367] relu4_3 -> conv4_3 (in-place)
I1206 04:04:37.766504 30105 net.cpp:122] Setting up relu4_3
I1206 04:04:37.766516 30105 net.cpp:129] Top shape: 16 512 28 28 (6422528)
I1206 04:04:37.766527 30105 net.cpp:137] Memory required for data: 1795096640
I1206 04:04:37.766540 30105 layer_factory.hpp:77] Creating layer pool4
I1206 04:04:37.766556 30105 net.cpp:84] Creating Layer pool4
I1206 04:04:37.766567 30105 net.cpp:406] pool4 <- conv4_3
I1206 04:04:37.766585 30105 net.cpp:380] pool4 -> pool4
I1206 04:04:37.766639 30105 net.cpp:122] Setting up pool4
I1206 04:04:37.766654 30105 net.cpp:129] Top shape: 16 512 14 14 (1605632)
I1206 04:04:37.766664 30105 net.cpp:137] Memory required for data: 1801519168
I1206 04:04:37.766675 30105 layer_factory.hpp:77] Creating layer conv5_1
I1206 04:04:37.766702 30105 net.cpp:84] Creating Layer conv5_1
I1206 04:04:37.766715 30105 net.cpp:406] conv5_1 <- pool4
I1206 04:04:37.766729 30105 net.cpp:380] conv5_1 -> conv5_1
I1206 04:04:37.797345 30105 net.cpp:122] Setting up conv5_1
I1206 04:04:37.797399 30105 net.cpp:129] Top shape: 16 512 14 14 (1605632)
I1206 04:04:37.797411 30105 net.cpp:137] Memory required for data: 1807941696
I1206 04:04:37.797431 30105 layer_factory.hpp:77] Creating layer relu5_1
I1206 04:04:37.797454 30105 net.cpp:84] Creating Layer relu5_1
I1206 04:04:37.797468 30105 net.cpp:406] relu5_1 <- conv5_1
I1206 04:04:37.797485 30105 net.cpp:367] relu5_1 -> conv5_1 (in-place)
I1206 04:04:37.797507 30105 net.cpp:122] Setting up relu5_1
I1206 04:04:37.797519 30105 net.cpp:129] Top shape: 16 512 14 14 (1605632)
I1206 04:04:37.797531 30105 net.cpp:137] Memory required for data: 1814364224
I1206 04:04:37.797544 30105 layer_factory.hpp:77] Creating layer conv5_2
I1206 04:04:37.797565 30105 net.cpp:84] Creating Layer conv5_2
I1206 04:04:37.797579 30105 net.cpp:406] conv5_2 <- conv5_1
I1206 04:04:37.797595 30105 net.cpp:380] conv5_2 -> conv5_2
I1206 04:04:37.828107 30105 net.cpp:122] Setting up conv5_2
I1206 04:04:37.828160 30105 net.cpp:129] Top shape: 16 512 14 14 (1605632)
I1206 04:04:37.828171 30105 net.cpp:137] Memory required for data: 1820786752
I1206 04:04:37.828191 30105 layer_factory.hpp:77] Creating layer relu5_2
I1206 04:04:37.828212 30105 net.cpp:84] Creating Layer relu5_2
I1206 04:04:37.828227 30105 net.cpp:406] relu5_2 <- conv5_2
I1206 04:04:37.828244 30105 net.cpp:367] relu5_2 -> conv5_2 (in-place)
I1206 04:04:37.828263 30105 net.cpp:122] Setting up relu5_2
I1206 04:04:37.828276 30105 net.cpp:129] Top shape: 16 512 14 14 (1605632)
I1206 04:04:37.828287 30105 net.cpp:137] Memory required for data: 1827209280
I1206 04:04:37.828302 30105 layer_factory.hpp:77] Creating layer conv5_3
I1206 04:04:37.828323 30105 net.cpp:84] Creating Layer conv5_3
I1206 04:04:37.828337 30105 net.cpp:406] conv5_3 <- conv5_2
I1206 04:04:37.828353 30105 net.cpp:380] conv5_3 -> conv5_3
I1206 04:04:37.858726 30105 net.cpp:122] Setting up conv5_3
I1206 04:04:37.858770 30105 net.cpp:129] Top shape: 16 512 14 14 (1605632)
I1206 04:04:37.858783 30105 net.cpp:137] Memory required for data: 1833631808
I1206 04:04:37.858803 30105 layer_factory.hpp:77] Creating layer relu5_3
I1206 04:04:37.858822 30105 net.cpp:84] Creating Layer relu5_3
I1206 04:04:37.858836 30105 net.cpp:406] relu5_3 <- conv5_3
I1206 04:04:37.858862 30105 net.cpp:367] relu5_3 -> conv5_3 (in-place)
I1206 04:04:37.858883 30105 net.cpp:122] Setting up relu5_3
I1206 04:04:37.858897 30105 net.cpp:129] Top shape: 16 512 14 14 (1605632)
I1206 04:04:37.858909 30105 net.cpp:137] Memory required for data: 1840054336
I1206 04:04:37.858920 30105 layer_factory.hpp:77] Creating layer pool5
I1206 04:04:37.858937 30105 net.cpp:84] Creating Layer pool5
I1206 04:04:37.858950 30105 net.cpp:406] pool5 <- conv5_3
I1206 04:04:37.858964 30105 net.cpp:380] pool5 -> pool5
I1206 04:04:37.859025 30105 net.cpp:122] Setting up pool5
I1206 04:04:37.859043 30105 net.cpp:129] Top shape: 16 512 7 7 (401408)
I1206 04:04:37.859062 30105 net.cpp:137] Memory required for data: 1841659968
I1206 04:04:37.859073 30105 layer_factory.hpp:77] Creating layer fc6
I1206 04:04:37.859104 30105 net.cpp:84] Creating Layer fc6
I1206 04:04:37.859118 30105 net.cpp:406] fc6 <- pool5
I1206 04:04:37.859134 30105 net.cpp:380] fc6 -> fc6
I1206 04:04:39.096014 30105 net.cpp:122] Setting up fc6
I1206 04:04:39.096063 30105 net.cpp:129] Top shape: 16 4096 (65536)
I1206 04:04:39.096076 30105 net.cpp:137] Memory required for data: 1841922112
I1206 04:04:39.096096 30105 layer_factory.hpp:77] Creating layer relu6
I1206 04:04:39.096118 30105 net.cpp:84] Creating Layer relu6
I1206 04:04:39.096132 30105 net.cpp:406] relu6 <- fc6
I1206 04:04:39.096166 30105 net.cpp:367] relu6 -> fc6 (in-place)
I1206 04:04:39.096184 30105 net.cpp:122] Setting up relu6
I1206 04:04:39.096195 30105 net.cpp:129] Top shape: 16 4096 (65536)
I1206 04:04:39.096205 30105 net.cpp:137] Memory required for data: 1842184256
I1206 04:04:39.096215 30105 layer_factory.hpp:77] Creating layer drop6
I1206 04:04:39.096233 30105 net.cpp:84] Creating Layer drop6
I1206 04:04:39.096243 30105 net.cpp:406] drop6 <- fc6
I1206 04:04:39.096256 30105 net.cpp:367] drop6 -> fc6 (in-place)
I1206 04:04:39.096297 30105 net.cpp:122] Setting up drop6
I1206 04:04:39.096310 30105 net.cpp:129] Top shape: 16 4096 (65536)
I1206 04:04:39.096319 30105 net.cpp:137] Memory required for data: 1842446400
I1206 04:04:39.096329 30105 layer_factory.hpp:77] Creating layer fc7
I1206 04:04:39.096348 30105 net.cpp:84] Creating Layer fc7
I1206 04:04:39.096357 30105 net.cpp:406] fc7 <- fc6
I1206 04:04:39.096371 30105 net.cpp:380] fc7 -> fc7
I1206 04:04:39.296243 30105 net.cpp:122] Setting up fc7
I1206 04:04:39.296293 30105 net.cpp:129] Top shape: 16 4096 (65536)
I1206 04:04:39.296304 30105 net.cpp:137] Memory required for data: 1842708544
I1206 04:04:39.296324 30105 layer_factory.hpp:77] Creating layer relu7
I1206 04:04:39.296347 30105 net.cpp:84] Creating Layer relu7
I1206 04:04:39.296360 30105 net.cpp:406] relu7 <- fc7
I1206 04:04:39.296377 30105 net.cpp:367] relu7 -> fc7 (in-place)
I1206 04:04:39.296396 30105 net.cpp:122] Setting up relu7
I1206 04:04:39.296407 30105 net.cpp:129] Top shape: 16 4096 (65536)
I1206 04:04:39.296417 30105 net.cpp:137] Memory required for data: 1842970688
I1206 04:04:39.296427 30105 layer_factory.hpp:77] Creating layer drop7
I1206 04:04:39.296442 30105 net.cpp:84] Creating Layer drop7
I1206 04:04:39.296452 30105 net.cpp:406] drop7 <- fc7
I1206 04:04:39.296465 30105 net.cpp:367] drop7 -> fc7 (in-place)
I1206 04:04:39.296505 30105 net.cpp:122] Setting up drop7
I1206 04:04:39.296519 30105 net.cpp:129] Top shape: 16 4096 (65536)
I1206 04:04:39.296528 30105 net.cpp:137] Memory required for data: 1843232832
I1206 04:04:39.296540 30105 layer_factory.hpp:77] Creating layer fc_scv_dangerous
I1206 04:04:39.296557 30105 net.cpp:84] Creating Layer fc_scv_dangerous
I1206 04:04:39.296568 30105 net.cpp:406] fc_scv_dangerous <- fc7
I1206 04:04:39.296582 30105 net.cpp:380] fc_scv_dangerous -> fc_scv_dangerous
I1206 04:04:39.296749 30105 net.cpp:122] Setting up fc_scv_dangerous
I1206 04:04:39.296763 30105 net.cpp:129] Top shape: 16 1 (16)
I1206 04:04:39.296773 30105 net.cpp:137] Memory required for data: 1843232896
I1206 04:04:39.296787 30105 layer_factory.hpp:77] Creating layer loss
I1206 04:04:39.296802 30105 net.cpp:84] Creating Layer loss
I1206 04:04:39.296820 30105 net.cpp:406] loss <- fc_scv_dangerous
I1206 04:04:39.296831 30105 net.cpp:406] loss <- label
I1206 04:04:39.296846 30105 net.cpp:380] loss -> loss
I1206 04:04:39.296895 30105 net.cpp:122] Setting up loss
…
I1206 04:04:39.299104 30105 net.cpp:294] The NetState phase (1) differed from the phase (0) specified by a rule in layer data
I1206 04:04:39.299417 30105 net.cpp:51] Initializing net from parameters: 
name: "VGG-Places365-SCV-Dangerous"
state {
  phase: TEST
}
layer {
  name: "data"
  type: "Data"
  top: "data"
  top: "label"
  include {
    phase: TEST
  }
  transform_param {
    mirror: false
    crop_size: 224
    mean_file: "/idiap/temp/lmedina/fine-tuning/vgg16_places365/places365CNN_mean.binaryproto"
  }
  data_param {
    source: "/idiap/temp/lmedina/fine-tuning/data/Dangerous/validation_lmdb"
    batch_size: 16
    backend: LMDB
  }
}
layer {
  name: "conv1_1"
  type: "Convolution"
  bottom: "data"
  top: "conv1_1"
  param {
    lr_mult: 1
    decay_mult: 1
  }
  param {
    lr_mult: 2
    decay_mult: 0
  }
  convolution_param {
    num_output: 64
    pad: 1
    kernel_size: 3
    weight_filler {
      type: "gaussian"
      std: 0.01
    }
    bias_filler {
      type: "constant"
      value: 0
    }
  }
}
layer {
  name: "relu1_1"
  type: "ReLU"
  bottom: "conv1_1"
  top: "conv1_1"
}
layer {
  name: "conv1_2"
  type: "Convolution"
  bottom: "conv1_1"
  top: "conv1_2"
  param {
    lr_mult: 1
    decay_mult: 1
  }
  param {
    lr_mult: 2
    decay_mult: 0
  }
  convolution_param {
    num_output: 64
    pad: 1
    kernel_size: 3
    weight_filler {
      type: "gaussian"
      std: 0.01
    }
    bias_filler {
      type: "constant"
      value: 0
    }
  }
}
layer {
  name: "relu1_2"
  type: "ReLU"
  bottom: "conv1_2"
  top: "conv1_2"
}
layer {
  name: "pool1"
  type: "Pooling"
  bottom: "conv1_2"
  top: "pool1"
  pooling_param {
    pool: MAX
    kernel_size: 2
    stride: 2
  }
}
layer {
  name: "conv2_1"
  type: "Convolution"
  bottom: "pool1"
  top: "conv2_1"
  param {
    lr_mult: 1
    decay_mult: 1
  }
  param {
    lr_mult: 2
    decay_mult: 0
  }
  convolution_param {
    num_output: 128
    pad: 1
    kernel_size: 3
    weight_filler {
      type: "gaussian"
      std: 0.01
    }
    bias_filler {
      type: "constant"
      value: 0
    }
  }
}
layer {
  name: "relu2_1"
  type: "ReLU"
  bottom: "conv2_1"
  top: "conv2_1"
}
layer {
  name: "conv2_2"
  type: "Convolution"
  bottom: "conv2_1"
  top: "conv2_2"
  param {
    lr_mult: 1
    decay_mult: 1
  }
  param {
    lr_mult: 2
    decay_mult: 0
  }
  convolution_param {
    num_output: 128
    pad: 1
    kernel_size: 3
    weight_filler {
      type: "gaussian"
      std: 0.01
    }
    bias_filler {
      type: "constant"
      value: 0
    }
  }
}
layer {
  name: "relu2_2"
  type: "ReLU"
  bottom: "conv2_2"
  top: "conv2_2"
}
layer {
  name: "pool2"
  type: "Pooling"
  bottom: "conv2_2"
  top: "pool2"
  pooling_param {
    pool: MAX
    kernel_size: 2
    stride: 2
  }
}
layer {
  name: "conv3_1"
  type: "Convolution"
  bottom: "pool2"
  top: "conv3_1"
  param {
    lr_mult: 1
    decay_mult: 1
  }
  param {
    lr_mult: 2
    decay_mult: 0
  }
  convolution_param {
    num_output: 256
    pad: 1
    kernel_size: 3
    weight_filler {
      type: "gaussian"
      std: 0.01
    }
    bias_filler {
      type: "constant"
      value: 0
    }
  }
}
layer {
  name: "relu3_1"
  type: "ReLU"
  bottom: "conv3_1"
  top: "conv3_1"
}
layer {
  name: "conv3_2"
  type: "Convolution"
  bottom: "conv3_1"
  top: "conv3_2"
  param {
    lr_mult: 1
    decay_mult: 1
  }
  param {
    lr_mult: 2
    decay_mult: 0
  }
  convolution_param {
    num_output: 256
    pad: 1
    kernel_size: 3
    weight_filler {
      type: "gaussian"
      std: 0.01
    }
    bias_filler {
      type: "constant"
      value: 0
    }
  }
}
layer {
  name: "relu3_2"
  type: "ReLU"
  bottom: "conv3_2"
  top: "conv3_2"
}
layer {
  name: "conv3_3"
  type: "Convolution"
  bottom: "conv3_2"
  top: "conv3_3"
  param {
    lr_mult: 1
    decay_mult: 1
  }
  param {
    lr_mult: 2
    decay_mult: 0
  }
  convolution_param {
    num_output: 256
    pad: 1
    kernel_size: 3
    weight_filler {
      type: "gaussian"
      std: 0.01
    }
    bias_filler {
      type: "constant"
      value: 0
    }
  }
}
layer {
  name: "relu3_3"
  type: "ReLU"
  bottom: "conv3_3"
  top: "conv3_3"
}
layer {
  name: "pool3"
  type: "Pooling"
  bottom: "conv3_3"
  top: "pool3"
  pooling_param {
    pool: MAX
    kernel_size: 2
    stride: 2
  }
}
layer {
  name: "conv4_1"
  type: "Convolution"
  bottom: "pool3"
  top: "conv4_1"
  param {
    lr_mult: 1
    decay_mult: 1
  }
  param {
    lr_mult: 2
    decay_mult: 0
  }
  convolution_param {
    num_output: 512
    pad: 1
    kernel_size: 3
    weight_filler {
      type: "gaussian"
      std: 0.01
    }
    bias_filler {
      type: "constant"
      value: 0
    }
  }
}
layer {
  name: "relu4_1"
  type: "ReLU"
  bottom: "conv4_1"
  top: "conv4_1"
}
layer {
  name: "conv4_2"
  type: "Convolution"
  bottom: "conv4_1"
  top: "conv4_2"
  param {
    lr_mult: 1
    decay_mult: 1
  }
  param {
    lr_mult: 2
    decay_mult: 0
  }
  convolution_param {
    num_output: 512
    pad: 1
    kernel_size: 3
    weight_filler {
      type: "gaussian"
      std: 0.01
    }
    bias_filler {
      type: "constant"
      value: 0
    }
  }
}
layer {
  name: "relu4_2"
  type: "ReLU"
  bottom: "conv4_2"
  top: "conv4_2"
}
layer {
  name: "conv4_3"
  type: "Convolution"
  bottom: "conv4_2"
  top: "conv4_3"
  param {
    lr_mult: 1
    decay_mult: 1
  }
  param {
    lr_mult: 2
    decay_mult: 0
  }
  convolution_param {
    num_output: 512
    pad: 1
    kernel_size: 3
    weight_filler {
      type: "gaussian"
      std: 0.01
    }
    bias_filler {
      type: "constant"
      value: 0
    }
  }
}
layer {
  name: "relu4_3"
  type: "ReLU"
  bottom: "conv4_3"
  top: "conv4_3"
}
layer {
  name: "pool4"
  type: "Pooling"
  bottom: "conv4_3"
  top: "pool4"
  pooling_param {
    pool: MAX
    kernel_size: 2
    stride: 2
  }
}
layer {
  name: "conv5_1"
  type: "Convolution"
  bottom: "pool4"
  top: "conv5_1"
  param {
    lr_mult: 1
    decay_mult: 1
  }
  param {
    lr_mult: 2
    decay_mult: 0
  }
  convolution_param {
    num_output: 512
    pad: 1
    kernel_size: 3
    weight_filler {
      type: "gaussian"
      std: 0.01
    }
    bias_filler {
      type: "constant"
      value: 0
    }
  }
}
layer {
  name: "relu5_1"
  type: "ReLU"
  bottom: "conv5_1"
  top: "conv5_1"
}
layer {
  name: "conv5_2"
  type: "Convolution"
  bottom: "conv5_1"
  top: "conv5_2"
  param {
    lr_mult: 1
    decay_mult: 1
  }
  param {
    lr_mult: 2
    decay_mult: 0
  }
  convolution_param {
    num_output: 512
    pad: 1
    kernel_size: 3
    weight_filler {
      type: "gaussian"
      std: 0.01
    }
    bias_filler {
      type: "constant"
      value: 0
    }
  }
}
layer {
  name: "relu5_2"
  type: "ReLU"
  bottom: "conv5_2"
  top: "conv5_2"
}
layer {
  name: "conv5_3"
  type: "Convolution"
  bottom: "conv5_2"
  top: "conv5_3"
  param {
    lr_mult: 1
    decay_mult: 1
  }
  param {
    lr_mult: 2
    decay_mult: 0
  }
  convolution_param {
    num_output: 512
    pad: 1
    kernel_size: 3
    weight_filler {
      type: "gaussian"
      std: 0.01
    }
    bias_filler {
      type: "constant"
      value: 0
    }
  }
}
layer {
  name: "relu5_3"
  type: "ReLU"
  bottom: "conv5_3"
  top: "conv5_3"
}
layer {
  name: "pool5"
  type: "Pooling"
  bottom: "conv5_3"
  top: "pool5"
  pooling_param {
    pool: MAX
    kernel_size: 2
    stride: 2
  }
}
layer {
  name: "fc6"
  type: "InnerProduct"
  bottom: "pool5"
  top: "fc6"
  param {
    lr_mult: 1
    decay_mult: 1
  }
  param {
    lr_mult: 2
    decay_mult: 0
  }
  inner_product_param {
    num_output: 4096
    weight_filler {
      type: "gaussian"
      std: 0.01
    }
    bias_filler {
      type: "constant"
      value: 0
    }
  }
}
layer {
  name: "relu6"
  type: "ReLU"
  bottom: "fc6"
  top: "fc6"
}
layer {
  name: "drop6"
  type: "Dropout"
  bottom: "fc6"
  top: "fc6"
  dropout_param {
    dropout_ratio: 0.5
  }
}
layer {
  name: "fc7"
  type: "InnerProduct"
  bottom: "fc6"
  top: "fc7"
  param {
    lr_mult: 1
    decay_mult: 1
  }
  param {
    lr_mult: 2
    decay_mult: 0
  }
  inner_product_param {
    num_output: 4096
    weight_filler {
      type: "gaussian"
      std: 0.01
    }
    bias_filler {
      type: "constant"
      value: 0
    }
  }
}
layer {
  name: "relu7"
  type: "ReLU"
  bottom: "fc7"
  top: "fc7"
}
layer {
  name: "drop7"
  type: "Dropout"
  bottom: "fc7"
  top: "fc7"
  dropout_param {
    dropout_ratio: 0.5
  }
}
layer {
  name: "fc_scv_dangerous"
  type: "InnerProduct"
  bottom: "fc7"
  top: "fc_scv_dangerous"
  param {
    lr_mult: 10
    decay_mult: 1
  }
  param {
    lr_mult: 20
    decay_mult: 0
  }
  inner_product_param {
    num_output: 1
    weight_filler {
      type: "xavier"
      std: 0.01
    }
    bias_filler {
      type: "constant"
      value: 0
    }
  }
}
layer {
  name: "loss"
  type: "EuclideanLoss"
  bottom: "fc_scv_dangerous"
  bottom: "label"
  top: "loss"
}
layer {
  name: "losttest"
  type: "EuclideanLoss"
  bottom: "fc_scv_dangerous"
  bottom: "label"
  top: "losttest"
  include {
    phase: TEST
  }
}
I1206 04:04:39.299597 30105 layer_factory.hpp:77] Creating layer data
I1206 04:04:39.325348 30105 db_lmdb.cpp:35] Opened lmdb /idiap/temp/lmedina/fine-tuning/data/Dangerous/validation_lmdb
I1206 04:04:39.332890 30105 net.cpp:84] Creating Layer data
I1206 04:04:39.332911 30105 net.cpp:380] data -> data
I1206 04:04:39.332929 30105 net.cpp:380] data -> label
I1206 04:04:39.332998 30105 data_transformer.cpp:25] Loading mean file from: /idiap/temp/lmedina/fine-tuning/vgg16_places365/places365CNN_mean.binaryproto
I1206 04:04:39.342985 30105 data_layer.cpp:45] output data size: 16,3,224,224
I1206 04:04:39.375573 30105 net.cpp:122] Setting up data
I1206 04:04:39.375697 30105 net.cpp:129] Top shape: 16 3 224 224 (2408448)
I1206 04:04:39.375712 30105 net.cpp:129] Top shape: 16 (16)
I1206 04:04:39.375722 30105 net.cpp:137] Memory required for data: 9633856
I1206 04:04:39.375737 30105 layer_factory.hpp:77] Creating layer label_data_1_split
I1206 04:04:39.375787 30105 net.cpp:84] Creating Layer label_data_1_split
I1206 04:04:39.375798 30105 net.cpp:406] label_data_1_split <- label
I1206 04:04:39.375816 30105 net.cpp:380] label_data_1_split -> label_data_1_split_0
I1206 04:04:39.375860 30105 net.cpp:380] label_data_1_split -> label_data_1_split_1
I1206 04:04:39.376013 30105 net.cpp:122] Setting up label_data_1_split
I1206 04:04:39.376032 30105 net.cpp:129] Top shape: 16 (16)
I1206 04:04:39.376044 30105 net.cpp:129] Top shape: 16 (16)
I1206 04:04:39.376055 30105 net.cpp:137] Memory required for data: 9633984
I1206 04:04:39.376088 30105 layer_factory.hpp:77] Creating layer conv1_1
I1206 04:04:39.376114 30105 net.cpp:84] Creating Layer conv1_1
I1206 04:04:39.376127 30105 net.cpp:406] conv1_1 <- data
I1206 04:04:39.376140 30105 net.cpp:380] conv1_1 -> conv1_1
I1206 04:04:39.376826 30105 net.cpp:122] Setting up conv1_1
I1206 04:04:39.376843 30105 net.cpp:129] Top shape: 16 64 224 224 (51380224)
I1206 04:04:39.376854 30105 net.cpp:137] Memory required for data: 215154880
I1206 04:04:39.376874 30105 layer_factory.hpp:77] Creating layer relu1_1
I1206 04:04:39.376890 30105 net.cpp:84] Creating Layer relu1_1
I1206 04:04:39.376901 30105 net.cpp:406] relu1_1 <- conv1_1
I1206 04:04:39.376914 30105 net.cpp:367] relu1_1 -> conv1_1 (in-place)
I1206 04:04:39.376927 30105 net.cpp:122] Setting up relu1_1
I1206 04:04:39.376938 30105 net.cpp:129] Top shape: 16 64 224 224 (51380224)
I1206 04:04:39.376947 30105 net.cpp:137] Memory required for data: 420675776
I1206 04:04:39.376957 30105 layer_factory.hpp:77] Creating layer conv1_2
I1206 04:04:39.376976 30105 net.cpp:84] Creating Layer conv1_2
I1206 04:04:39.376986 30105 net.cpp:406] conv1_2 <- conv1_1
I1206 04:04:39.376998 30105 net.cpp:380] conv1_2 -> conv1_2
I1206 04:04:39.378412 30105 net.cpp:122] Setting up conv1_2
I1206 04:04:39.378433 30105 net.cpp:129] Top shape: 16 64 224 224 (51380224)
I1206 04:04:39.378444 30105 net.cpp:137] Memory required for data: 626196672
I1206 04:04:39.378489 30105 layer_factory.hpp:77] Creating layer relu1_2
I1206 04:04:39.378504 30105 net.cpp:84] Creating Layer relu1_2
I1206 04:04:39.378516 30105 net.cpp:406] relu1_2 <- conv1_2
I1206 04:04:39.378530 30105 net.cpp:367] relu1_2 -> conv1_2 (in-place)
I1206 04:04:39.378545 30105 net.cpp:122] Setting up relu1_2
I1206 04:04:39.378556 30105 net.cpp:129] Top shape: 16 64 224 224 (51380224)
I1206 04:04:39.378566 30105 net.cpp:137] Memory required for data: 831717568
I1206 04:04:39.378576 30105 layer_factory.hpp:77] Creating layer pool1
I1206 04:04:39.378594 30105 net.cpp:84] Creating Layer pool1
I1206 04:04:39.378604 30105 net.cpp:406] pool1 <- conv1_2
I1206 04:04:39.378618 30105 net.cpp:380] pool1 -> pool1
I1206 04:04:39.378674 30105 net.cpp:122] Setting up pool1
I1206 04:04:39.378692 30105 net.cpp:129] Top shape: 16 64 112 112 (12845056)
I1206 04:04:39.378702 30105 net.cpp:137] Memory required for data: 883097792
I1206 04:04:39.378712 30105 layer_factory.hpp:77] Creating layer conv2_1
I1206 04:04:39.378731 30105 net.cpp:84] Creating Layer conv2_1
I1206 04:04:39.378741 30105 net.cpp:406] conv2_1 <- pool1
I1206 04:04:39.378754 30105 net.cpp:380] conv2_1 -> conv2_1
I1206 04:04:39.381039 30105 net.cpp:122] Setting up conv2_1
I1206 04:04:39.381060 30105 net.cpp:129] Top shape: 16 128 112 112 (25690112)
I1206 04:04:39.381070 30105 net.cpp:137] Memory required for data: 985858240
I1206 04:04:39.381088 30105 layer_factory.hpp:77] Creating layer relu2_1
I1206 04:04:39.381103 30105 net.cpp:84] Creating Layer relu2_1
I1206 04:04:39.381114 30105 net.cpp:406] relu2_1 <- conv2_1
I1206 04:04:39.381127 30105 net.cpp:367] relu2_1 -> conv2_1 (in-place)
I1206 04:04:39.381141 30105 net.cpp:122] Setting up relu2_1
I1206 04:04:39.381152 30105 net.cpp:129] Top shape: 16 128 112 112 (25690112)
I1206 04:04:39.381162 30105 net.cpp:137] Memory required for data: 1088618688
I1206 04:04:39.381171 30105 layer_factory.hpp:77] Creating layer conv2_2
I1206 04:04:39.381188 30105 net.cpp:84] Creating Layer conv2_2
I1206 04:04:39.381198 30105 net.cpp:406] conv2_2 <- conv2_1
I1206 04:04:39.381212 30105 net.cpp:380] conv2_2 -> conv2_2
I1206 04:04:39.382880 30105 net.cpp:122] Setting up conv2_2
I1206 04:04:39.382899 30105 net.cpp:129] Top shape: 16 128 112 112 (25690112)
I1206 04:04:39.382910 30105 net.cpp:137] Memory required for data: 1191379136
I1206 04:04:39.382922 30105 layer_factory.hpp:77] Creating layer relu2_2
I1206 04:04:39.382936 30105 net.cpp:84] Creating Layer relu2_2
I1206 04:04:39.382947 30105 net.cpp:406] relu2_2 <- conv2_2
I1206 04:04:39.382959 30105 net.cpp:367] relu2_2 -> conv2_2 (in-place)
I1206 04:04:39.382973 30105 net.cpp:122] Setting up relu2_2
I1206 04:04:39.382985 30105 net.cpp:129] Top shape: 16 128 112 112 (25690112)
I1206 04:04:39.382994 30105 net.cpp:137] Memory required for data: 1294139584
I1206 04:04:39.383004 30105 layer_factory.hpp:77] Creating layer pool2
I1206 04:04:39.383018 30105 net.cpp:84] Creating Layer pool2
I1206 04:04:39.383028 30105 net.cpp:406] pool2 <- conv2_2
I1206 04:04:39.383039 30105 net.cpp:380] pool2 -> pool2
I1206 04:04:39.383087 30105 net.cpp:122] Setting up pool2
I1206 04:04:39.383100 30105 net.cpp:129] Top shape: 16 128 56 56 (6422528)
I1206 04:04:39.383110 30105 net.cpp:137] Memory required for data: 1319829696
I1206 04:04:39.383119 30105 layer_factory.hpp:77] Creating layer conv3_1
I1206 04:04:39.383136 30105 net.cpp:84] Creating Layer conv3_1
I1206 04:04:39.383147 30105 net.cpp:406] conv3_1 <- pool2
I1206 04:04:39.383160 30105 net.cpp:380] conv3_1 -> conv3_1
I1206 04:04:39.388000 30105 net.cpp:122] Setting up conv3_1
I1206 04:04:39.388022 30105 net.cpp:129] Top shape: 16 256 56 56 (12845056)
I1206 04:04:39.388070 30105 net.cpp:137] Memory required for data: 1371209920
I1206 04:04:39.388090 30105 layer_factory.hpp:77] Creating layer relu3_1
I1206 04:04:39.388106 30105 net.cpp:84] Creating Layer relu3_1
I1206 04:04:39.388160 30105 net.cpp:406] relu3_1 <- conv3_1
I1206 04:04:39.388175 30105 net.cpp:367] relu3_1 -> conv3_1 (in-place)
I1206 04:04:39.388188 30105 net.cpp:122] Setting up relu3_1
I1206 04:04:39.388236 30105 net.cpp:129] Top shape: 16 256 56 56 (12845056)
I1206 04:04:39.388247 30105 net.cpp:137] Memory required for data: 1422590144
I1206 04:04:39.388257 30105 layer_factory.hpp:77] Creating layer conv3_2
I1206 04:04:39.388274 30105 net.cpp:84] Creating Layer conv3_2
I1206 04:04:39.388331 30105 net.cpp:406] conv3_2 <- conv3_1
I1206 04:04:39.388346 30105 net.cpp:380] conv3_2 -> conv3_2
I1206 04:04:39.395733 30105 net.cpp:122] Setting up conv3_2
I1206 04:04:39.395781 30105 net.cpp:129] Top shape: 16 256 56 56 (12845056)
I1206 04:04:39.395795 30105 net.cpp:137] Memory required for data: 1473970368
I1206 04:04:39.395809 30105 layer_factory.hpp:77] Creating layer relu3_2
I1206 04:04:39.395850 30105 net.cpp:84] Creating Layer relu3_2
I1206 04:04:39.395864 30105 net.cpp:406] relu3_2 <- conv3_2
I1206 04:04:39.395877 30105 net.cpp:367] relu3_2 -> conv3_2 (in-place)
I1206 04:04:39.395891 30105 net.cpp:122] Setting up relu3_2
I1206 04:04:39.395927 30105 net.cpp:129] Top shape: 16 256 56 56 (12845056)
I1206 04:04:39.395939 30105 net.cpp:137] Memory required for data: 1525350592
I1206 04:04:39.395951 30105 layer_factory.hpp:77] Creating layer conv3_3
I1206 04:04:39.395972 30105 net.cpp:84] Creating Layer conv3_3
I1206 04:04:39.396011 30105 net.cpp:406] conv3_3 <- conv3_2
I1206 04:04:39.396031 30105 net.cpp:380] conv3_3 -> conv3_3
I1206 04:04:39.406646 30105 net.cpp:122] Setting up conv3_3
I1206 04:04:39.406718 30105 net.cpp:129] Top shape: 16 256 56 56 (12845056)
I1206 04:04:39.406730 30105 net.cpp:137] Memory required for data: 1576730816
I1206 04:04:39.406791 30105 layer_factory.hpp:77] Creating layer relu3_3
I1206 04:04:39.406812 30105 net.cpp:84] Creating Layer relu3_3
I1206 04:04:39.406824 30105 net.cpp:406] relu3_3 <- conv3_3
I1206 04:04:39.406878 30105 net.cpp:367] relu3_3 -> conv3_3 (in-place)
I1206 04:04:39.406895 30105 net.cpp:122] Setting up relu3_3
I1206 04:04:39.406908 30105 net.cpp:129] Top shape: 16 256 56 56 (12845056)
I1206 04:04:39.406957 30105 net.cpp:137] Memory required for data: 1628111040
I1206 04:04:39.406970 30105 layer_factory.hpp:77] Creating layer pool3
I1206 04:04:39.406985 30105 net.cpp:84] Creating Layer pool3
I1206 04:04:39.406996 30105 net.cpp:406] pool3 <- conv3_3
I1206 04:04:39.407129 30105 net.cpp:380] pool3 -> pool3
I1206 04:04:39.407227 30105 net.cpp:122] Setting up pool3
I1206 04:04:39.407281 30105 net.cpp:129] Top shape: 16 256 28 28 (3211264)
I1206 04:04:39.407294 30105 net.cpp:137] Memory required for data: 1640956096
I1206 04:04:39.407306 30105 layer_factory.hpp:77] Creating layer conv4_1
I1206 04:04:39.407373 30105 net.cpp:84] Creating Layer conv4_1
I1206 04:04:39.407387 30105 net.cpp:406] conv4_1 <- pool3
I1206 04:04:39.407402 30105 net.cpp:380] conv4_1 -> conv4_1
I1206 04:04:39.427588 30105 net.cpp:122] Setting up conv4_1
I1206 04:04:39.427618 30105 net.cpp:129] Top shape: 16 512 28 28 (6422528)
I1206 04:04:39.427628 30105 net.cpp:137] Memory required for data: 1666646208
I1206 04:04:39.427666 30105 layer_factory.hpp:77] Creating layer relu4_1
I1206 04:04:39.427683 30105 net.cpp:84] Creating Layer relu4_1
I1206 04:04:39.427695 30105 net.cpp:406] relu4_1 <- conv4_1
I1206 04:04:39.427709 30105 net.cpp:367] relu4_1 -> conv4_1 (in-place)
I1206 04:04:39.427747 30105 net.cpp:122] Setting up relu4_1
I1206 04:04:39.427763 30105 net.cpp:129] Top shape: 16 512 28 28 (6422528)
I1206 04:04:39.427773 30105 net.cpp:137] Memory required for data: 1692336320
I1206 04:04:39.427784 30105 layer_factory.hpp:77] Creating layer conv4_2
I1206 04:04:39.427825 30105 net.cpp:84] Creating Layer conv4_2
I1206 04:04:39.427840 30105 net.cpp:406] conv4_2 <- conv4_1
I1206 04:04:39.427855 30105 net.cpp:380] conv4_2 -> conv4_2
I1206 04:04:39.465354 30105 net.cpp:122] Setting up conv4_2
I1206 04:04:39.465397 30105 net.cpp:129] Top shape: 16 512 28 28 (6422528)
I1206 04:04:39.465409 30105 net.cpp:137] Memory required for data: 1718026432
I1206 04:04:39.465473 30105 layer_factory.hpp:77] Creating layer relu4_2
I1206 04:04:39.465521 30105 net.cpp:84] Creating Layer relu4_2
I1206 04:04:39.465535 30105 net.cpp:406] relu4_2 <- conv4_2
I1206 04:04:39.465551 30105 net.cpp:367] relu4_2 -> conv4_2 (in-place)
I1206 04:04:39.465570 30105 net.cpp:122] Setting up relu4_2
I1206 04:04:39.465647 30105 net.cpp:129] Top shape: 16 512 28 28 (6422528)
I1206 04:04:39.465682 30105 net.cpp:137] Memory required for data: 1743716544
I1206 04:04:39.465694 30105 layer_factory.hpp:77] Creating layer conv4_3
I1206 04:04:39.465716 30105 net.cpp:84] Creating Layer conv4_3
I1206 04:04:39.465728 30105 net.cpp:406] conv4_3 <- conv4_2
I1206 04:04:39.465785 30105 net.cpp:380] conv4_3 -> conv4_3
I1206 04:04:39.500996 30105 net.cpp:122] Setting up conv4_3
I1206 04:04:39.501035 30105 net.cpp:129] Top shape: 16 512 28 28 (6422528)
I1206 04:04:39.501046 30105 net.cpp:137] Memory required for data: 1769406656
I1206 04:04:39.501062 30105 layer_factory.hpp:77] Creating layer relu4_3
I1206 04:04:39.501081 30105 net.cpp:84] Creating Layer relu4_3
I1206 04:04:39.501093 30105 net.cpp:406] relu4_3 <- conv4_3
I1206 04:04:39.501111 30105 net.cpp:367] relu4_3 -> conv4_3 (in-place)
I1206 04:04:39.501130 30105 net.cpp:122] Setting up relu4_3
I1206 04:04:39.501142 30105 net.cpp:129] Top shape: 16 512 28 28 (6422528)
I1206 04:04:39.501153 30105 net.cpp:137] Memory required for data: 1795096768
I1206 04:04:39.501163 30105 layer_factory.hpp:77] Creating layer pool4
I1206 04:04:39.501179 30105 net.cpp:84] Creating Layer pool4
I1206 04:04:39.501204 30105 net.cpp:406] pool4 <- conv4_3
I1206 04:04:39.501217 30105 net.cpp:380] pool4 -> pool4
I1206 04:04:39.501271 30105 net.cpp:122] Setting up pool4
I1206 04:04:39.501287 30105 net.cpp:129] Top shape: 16 512 14 14 (1605632)
I1206 04:04:39.501297 30105 net.cpp:137] Memory required for data: 1801519296
I1206 04:04:39.501308 30105 layer_factory.hpp:77] Creating layer conv5_1
I1206 04:04:39.501330 30105 net.cpp:84] Creating Layer conv5_1
I1206 04:04:39.501341 30105 net.cpp:406] conv5_1 <- pool4
I1206 04:04:39.501358 30105 net.cpp:380] conv5_1 -> conv5_1
I1206 04:04:39.533495 30105 net.cpp:122] Setting up conv5_1
I1206 04:04:39.533545 30105 net.cpp:129] Top shape: 16 512 14 14 (1605632)
I1206 04:04:39.533557 30105 net.cpp:137] Memory required for data: 1807941824
I1206 04:04:39.533584 30105 layer_factory.hpp:77] Creating layer relu5_1
I1206 04:04:39.533607 30105 net.cpp:84] Creating Layer relu5_1
I1206 04:04:39.533620 30105 net.cpp:406] relu5_1 <- conv5_1
I1206 04:04:39.533635 30105 net.cpp:367] relu5_1 -> conv5_1 (in-place)
I1206 04:04:39.533656 30105 net.cpp:122] Setting up relu5_1
I1206 04:04:39.533669 30105 net.cpp:129] Top shape: 16 512 14 14 (1605632)
I1206 04:04:39.533679 30105 net.cpp:137] Memory required for data: 1814364352
I1206 04:04:39.533690 30105 layer_factory.hpp:77] Creating layer conv5_2
I1206 04:04:39.533712 30105 net.cpp:84] Creating Layer conv5_2
I1206 04:04:39.533725 30105 net.cpp:406] conv5_2 <- conv5_1
I1206 04:04:39.533737 30105 net.cpp:380] conv5_2 -> conv5_2
I1206 04:04:39.562206 30105 net.cpp:122] Setting up conv5_2
I1206 04:04:39.562232 30105 net.cpp:129] Top shape: 16 512 14 14 (1605632)
I1206 04:04:39.562243 30105 net.cpp:137] Memory required for data: 1820786880
I1206 04:04:39.562258 30105 layer_factory.hpp:77] Creating layer relu5_2
I1206 04:04:39.562273 30105 net.cpp:84] Creating Layer relu5_2
I1206 04:04:39.562284 30105 net.cpp:406] relu5_2 <- conv5_2
I1206 04:04:39.562296 30105 net.cpp:367] relu5_2 -> conv5_2 (in-place)
I1206 04:04:39.562311 30105 net.cpp:122] Setting up relu5_2
I1206 04:04:39.562324 30105 net.cpp:129] Top shape: 16 512 14 14 (1605632)
I1206 04:04:39.562335 30105 net.cpp:137] Memory required for data: 1827209408
I1206 04:04:39.562345 30105 layer_factory.hpp:77] Creating layer conv5_3
I1206 04:04:39.562363 30105 net.cpp:84] Creating Layer conv5_3
I1206 04:04:39.562377 30105 net.cpp:406] conv5_3 <- conv5_2
I1206 04:04:39.562393 30105 net.cpp:380] conv5_3 -> conv5_3
I1206 04:04:39.589164 30105 net.cpp:122] Setting up conv5_3
I1206 04:04:39.589192 30105 net.cpp:129] Top shape: 16 512 14 14 (1605632)
I1206 04:04:39.589203 30105 net.cpp:137] Memory required for data: 1833631936
I1206 04:04:39.589218 30105 layer_factory.hpp:77] Creating layer relu5_3
I1206 04:04:39.589233 30105 net.cpp:84] Creating Layer relu5_3
I1206 04:04:39.589246 30105 net.cpp:406] relu5_3 <- conv5_3
I1206 04:04:39.589259 30105 net.cpp:367] relu5_3 -> conv5_3 (in-place)
I1206 04:04:39.589274 30105 net.cpp:122] Setting up relu5_3
I1206 04:04:39.589288 30105 net.cpp:129] Top shape: 16 512 14 14 (1605632)
I1206 04:04:39.589298 30105 net.cpp:137] Memory required for data: 1840054464
I1206 04:04:39.589309 30105 layer_factory.hpp:77] Creating layer pool5
I1206 04:04:39.589339 30105 net.cpp:84] Creating Layer pool5
I1206 04:04:39.589351 30105 net.cpp:406] pool5 <- conv5_3
I1206 04:04:39.589365 30105 net.cpp:380] pool5 -> pool5
I1206 04:04:39.589418 30105 net.cpp:122] Setting up pool5
I1206 04:04:39.589439 30105 net.cpp:129] Top shape: 16 512 7 7 (401408)
I1206 04:04:39.589450 30105 net.cpp:137] Memory required for data: 1841660096
I1206 04:04:39.589460 30105 layer_factory.hpp:77] Creating layer fc6
I1206 04:04:39.589478 30105 net.cpp:84] Creating Layer fc6
I1206 04:04:39.589489 30105 net.cpp:406] fc6 <- pool5
I1206 04:04:39.589505 30105 net.cpp:380] fc6 -> fc6
I1206 04:04:40.797530 30105 net.cpp:122] Setting up fc6
I1206 04:04:40.797586 30105 net.cpp:129] Top shape: 16 4096 (65536)
I1206 04:04:40.797598 30105 net.cpp:137] Memory required for data: 1841922240
I1206 04:04:40.797619 30105 layer_factory.hpp:77] Creating layer relu6
I1206 04:04:40.797643 30105 net.cpp:84] Creating Layer relu6
I1206 04:04:40.797657 30105 net.cpp:406] relu6 <- fc6
I1206 04:04:40.797675 30105 net.cpp:367] relu6 -> fc6 (in-place)
I1206 04:04:40.797694 30105 net.cpp:122] Setting up relu6
I1206 04:04:40.797706 30105 net.cpp:129] Top shape: 16 4096 (65536)
I1206 04:04:40.797716 30105 net.cpp:137] Memory required for data: 1842184384
I1206 04:04:40.797726 30105 layer_factory.hpp:77] Creating layer drop6
I1206 04:04:40.797741 30105 net.cpp:84] Creating Layer drop6
I1206 04:04:40.797752 30105 net.cpp:406] drop6 <- fc6
I1206 04:04:40.797765 30105 net.cpp:367] drop6 -> fc6 (in-place)
I1206 04:04:40.797807 30105 net.cpp:122] Setting up drop6
I1206 04:04:40.797834 30105 net.cpp:129] Top shape: 16 4096 (65536)
I1206 04:04:40.797844 30105 net.cpp:137] Memory required for data: 1842446528
I1206 04:04:40.797855 30105 layer_factory.hpp:77] Creating layer fc7
I1206 04:04:40.797873 30105 net.cpp:84] Creating Layer fc7
I1206 04:04:40.797885 30105 net.cpp:406] fc7 <- fc6
I1206 04:04:40.797899 30105 net.cpp:380] fc7 -> fc7
I1206 04:04:40.995952 30105 net.cpp:122] Setting up fc7
I1206 04:04:40.996008 30105 net.cpp:129] Top shape: 16 4096 (65536)
I1206 04:04:40.996021 30105 net.cpp:137] Memory required for data: 1842708672
I1206 04:04:40.996040 30105 layer_factory.hpp:77] Creating layer relu7
I1206 04:04:40.996065 30105 net.cpp:84] Creating Layer relu7
I1206 04:04:40.996079 30105 net.cpp:406] relu7 <- fc7
I1206 04:04:40.996095 30105 net.cpp:367] relu7 -> fc7 (in-place)
I1206 04:04:40.996114 30105 net.cpp:122] Setting up relu7
I1206 04:04:40.996125 30105 net.cpp:129] Top shape: 16 4096 (65536)
I1206 04:04:40.996135 30105 net.cpp:137] Memory required for data: 1842970816
I1206 04:04:40.996145 30105 layer_factory.hpp:77] Creating layer drop7
I1206 04:04:40.996160 30105 net.cpp:84] Creating Layer drop7
I1206 04:04:40.996181 30105 net.cpp:406] drop7 <- fc7
I1206 04:04:40.996193 30105 net.cpp:367] drop7 -> fc7 (in-place)
I1206 04:04:40.996238 30105 net.cpp:122] Setting up drop7
I1206 04:04:40.996253 30105 net.cpp:129] Top shape: 16 4096 (65536)
I1206 04:04:40.996263 30105 net.cpp:137] Memory required for data: 1843232960
I1206 04:04:40.996274 30105 layer_factory.hpp:77] Creating layer fc_scv_dangerous
I1206 04:04:40.996294 30105 net.cpp:84] Creating Layer fc_scv_dangerous
I1206 04:04:40.996307 30105 net.cpp:406] fc_scv_dangerous <- fc7
I1206 04:04:40.996322 30105 net.cpp:380] fc_scv_dangerous -> fc_scv_dangerous
I1206 04:04:40.996462 30105 net.cpp:122] Setting up fc_scv_dangerous
I1206 04:04:40.996480 30105 net.cpp:129] Top shape: 16 1 (16)
I1206 04:04:40.996490 30105 net.cpp:137] Memory required for data: 1843233024
I1206 04:04:40.996505 30105 layer_factory.hpp:77] Creating layer fc_scv_dangerous_fc_scv_dangerous_0_split
I1206 04:04:40.996520 30105 net.cpp:84] Creating Layer fc_scv_dangerous_fc_scv_dangerous_0_split
I1206 04:04:40.996531 30105 net.cpp:406] fc_scv_dangerous_fc_scv_dangerous_0_split <- fc_scv_dangerous
I1206 04:04:40.996546 30105 net.cpp:380] fc_scv_dangerous_fc_scv_dangerous_0_split -> fc_scv_dangerous_fc_scv_dangerous_0_split_0
I1206 04:04:40.996559 30105 net.cpp:380] fc_scv_dangerous_fc_scv_dangerous_0_split -> fc_scv_dangerous_fc_scv_dangerous_0_split_1
I1206 04:04:40.996610 30105 net.cpp:122] Setting up fc_scv_dangerous_fc_scv_dangerous_0_split
I1206 04:04:40.996629 30105 net.cpp:129] Top shape: 16 1 (16)
I1206 04:04:40.996640 30105 net.cpp:129] Top shape: 16 1 (16)
I1206 04:04:40.996650 30105 net.cpp:137] Memory required for data: 1843233152
I1206 04:04:40.996660 30105 layer_factory.hpp:77] Creating layer loss
I1206 04:04:40.996675 30105 net.cpp:84] Creating Layer loss
I1206 04:04:40.996685 30105 net.cpp:406] loss <- fc_scv_dangerous_fc_scv_dangerous_0_split_0
I1206 04:04:40.996697 30105 net.cpp:406] loss <- label_data_1_split_0
I1206 04:04:40.996711 30105 net.cpp:380] loss -> loss
…
