…
I1206 11:10:49.398964  2523 net.cpp:294] The NetState phase (0) differed from the phase (1) specified by a rule in layer losttest
I1206 11:10:49.399372  2523 net.cpp:51] Initializing net from parameters: 
name: "VGG-Places365-SCV-Polluted"
state {
  phase: TRAIN
  level: 0
  stage: ""
}
layer {
  name: "data"
  type: "Data"
  top: "data"
  top: "label"
  include {
    phase: TRAIN
  }
  transform_param {
    mirror: true
    crop_size: 224
    mean_file: "/idiap/temp/lmedina/fine-tuning/vgg16_places365/places365CNN_mean.binaryproto"
  }
  data_param {
    source: "/idiap/temp/lmedina/fine-tuning/data/Polluted/train_lmdb"
    batch_size: 16
    backend: LMDB
  }
}
layer {
  name: "conv1_1"
  type: "Convolution"
  bottom: "data"
  top: "conv1_1"
  param {
    lr_mult: 1
    decay_mult: 1
  }
  param {
    lr_mult: 2
    decay_mult: 0
  }
  convolution_param {
    num_output: 64
    pad: 1
    kernel_size: 3
    weight_filler {
      type: "gaussian"
      std: 0.01
    }
    bias_filler {
      type: "constant"
      value: 0
    }
  }
}
layer {
  name: "relu1_1"
  type: "ReLU"
  bottom: "conv1_1"
  top: "conv1_1"
}
layer {
  name: "conv1_2"
  type: "Convolution"
  bottom: "conv1_1"
  top: "conv1_2"
  param {
    lr_mult: 1
    decay_mult: 1
  }
  param {
    lr_mult: 2
    decay_mult: 0
  }
  convolution_param {
    num_output: 64
    pad: 1
    kernel_size: 3
    weight_filler {
      type: "gaussian"
      std: 0.01
    }
    bias_filler {
      type: "constant"
      value: 0
    }
  }
}
layer {
  name: "relu1_2"
  type: "ReLU"
  bottom: "conv1_2"
  top: "conv1_2"
}
layer {
  name: "pool1"
  type: "Pooling"
  bottom: "conv1_2"
  top: "pool1"
  pooling_param {
    pool: MAX
    kernel_size: 2
    stride: 2
  }
}
layer {
  name: "conv2_1"
  type: "Convolution"
  bottom: "pool1"
  top: "conv2_1"
  param {
    lr_mult: 1
    decay_mult: 1
  }
  param {
    lr_mult: 2
    decay_mult: 0
  }
  convolution_param {
    num_output: 128
    pad: 1
    kernel_size: 3
    weight_filler {
      type: "gaussian"
      std: 0.01
    }
    bias_filler {
      type: "constant"
      value: 0
    }
  }
}
layer {
  name: "relu2_1"
  type: "ReLU"
  bottom: "conv2_1"
  top: "conv2_1"
}
layer {
  name: "conv2_2"
  type: "Convolution"
  bottom: "conv2_1"
  top: "conv2_2"
  param {
    lr_mult: 1
    decay_mult: 1
  }
  param {
    lr_mult: 2
    decay_mult: 0
  }
  convolution_param {
    num_output: 128
    pad: 1
    kernel_size: 3
    weight_filler {
      type: "gaussian"
      std: 0.01
    }
    bias_filler {
      type: "constant"
      value: 0
    }
  }
}
layer {
  name: "relu2_2"
  type: "ReLU"
  bottom: "conv2_2"
  top: "conv2_2"
}
layer {
  name: "pool2"
  type: "Pooling"
  bottom: "conv2_2"
  top: "pool2"
  pooling_param {
    pool: MAX
    kernel_size: 2
    stride: 2
  }
}
layer {
  name: "conv3_1"
  type: "Convolution"
  bottom: "pool2"
  top: "conv3_1"
  param {
    lr_mult: 1
    decay_mult: 1
  }
  param {
    lr_mult: 2
    decay_mult: 0
  }
  convolution_param {
    num_output: 256
    pad: 1
    kernel_size: 3
    weight_filler {
      type: "gaussian"
      std: 0.01
    }
    bias_filler {
      type: "constant"
      value: 0
    }
  }
}
layer {
  name: "relu3_1"
  type: "ReLU"
  bottom: "conv3_1"
  top: "conv3_1"
}
layer {
  name: "conv3_2"
  type: "Convolution"
  bottom: "conv3_1"
  top: "conv3_2"
  param {
    lr_mult: 1
    decay_mult: 1
  }
  param {
    lr_mult: 2
    decay_mult: 0
  }
  convolution_param {
    num_output: 256
    pad: 1
    kernel_size: 3
    weight_filler {
      type: "gaussian"
      std: 0.01
    }
    bias_filler {
      type: "constant"
      value: 0
    }
  }
}
layer {
  name: "relu3_2"
  type: "ReLU"
  bottom: "conv3_2"
  top: "conv3_2"
}
layer {
  name: "conv3_3"
  type: "Convolution"
  bottom: "conv3_2"
  top: "conv3_3"
  param {
    lr_mult: 1
    decay_mult: 1
  }
  param {
    lr_mult: 2
    decay_mult: 0
  }
  convolution_param {
    num_output: 256
    pad: 1
    kernel_size: 3
    weight_filler {
      type: "gaussian"
      std: 0.01
    }
    bias_filler {
      type: "constant"
      value: 0
    }
  }
}
layer {
  name: "relu3_3"
  type: "ReLU"
  bottom: "conv3_3"
  top: "conv3_3"
}
layer {
  name: "pool3"
  type: "Pooling"
  bottom: "conv3_3"
  top: "pool3"
  pooling_param {
    pool: MAX
    kernel_size: 2
    stride: 2
  }
}
layer {
  name: "conv4_1"
  type: "Convolution"
  bottom: "pool3"
  top: "conv4_1"
  param {
    lr_mult: 1
    decay_mult: 1
  }
  param {
    lr_mult: 2
    decay_mult: 0
  }
  convolution_param {
    num_output: 512
    pad: 1
    kernel_size: 3
    weight_filler {
      type: "gaussian"
      std: 0.01
    }
    bias_filler {
      type: "constant"
      value: 0
    }
  }
}
layer {
  name: "relu4_1"
  type: "ReLU"
  bottom: "conv4_1"
  top: "conv4_1"
}
layer {
  name: "conv4_2"
  type: "Convolution"
  bottom: "conv4_1"
  top: "conv4_2"
  param {
    lr_mult: 1
    decay_mult: 1
  }
  param {
    lr_mult: 2
    decay_mult: 0
  }
  convolution_param {
    num_output: 512
    pad: 1
    kernel_size: 3
    weight_filler {
      type: "gaussian"
      std: 0.01
    }
    bias_filler {
      type: "constant"
      value: 0
    }
  }
}
layer {
  name: "relu4_2"
  type: "ReLU"
  bottom: "conv4_2"
  top: "conv4_2"
}
layer {
  name: "conv4_3"
  type: "Convolution"
  bottom: "conv4_2"
  top: "conv4_3"
  param {
    lr_mult: 1
    decay_mult: 1
  }
  param {
    lr_mult: 2
    decay_mult: 0
  }
  convolution_param {
    num_output: 512
    pad: 1
    kernel_size: 3
    weight_filler {
      type: "gaussian"
      std: 0.01
    }
    bias_filler {
      type: "constant"
      value: 0
    }
  }
}
layer {
  name: "relu4_3"
  type: "ReLU"
  bottom: "conv4_3"
  top: "conv4_3"
}
layer {
  name: "pool4"
  type: "Pooling"
  bottom: "conv4_3"
  top: "pool4"
  pooling_param {
    pool: MAX
    kernel_size: 2
    stride: 2
  }
}
layer {
  name: "conv5_1"
  type: "Convolution"
  bottom: "pool4"
  top: "conv5_1"
  param {
    lr_mult: 1
    decay_mult: 1
  }
  param {
    lr_mult: 2
    decay_mult: 0
  }
  convolution_param {
    num_output: 512
    pad: 1
    kernel_size: 3
    weight_filler {
      type: "gaussian"
      std: 0.01
    }
    bias_filler {
      type: "constant"
      value: 0
    }
  }
}
layer {
  name: "relu5_1"
  type: "ReLU"
  bottom: "conv5_1"
  top: "conv5_1"
}
layer {
  name: "conv5_2"
  type: "Convolution"
  bottom: "conv5_1"
  top: "conv5_2"
  param {
    lr_mult: 1
    decay_mult: 1
  }
  param {
    lr_mult: 2
    decay_mult: 0
  }
  convolution_param {
    num_output: 512
    pad: 1
    kernel_size: 3
    weight_filler {
      type: "gaussian"
      std: 0.01
    }
    bias_filler {
      type: "constant"
      value: 0
    }
  }
}
layer {
  name: "relu5_2"
  type: "ReLU"
  bottom: "conv5_2"
  top: "conv5_2"
}
layer {
  name: "conv5_3"
  type: "Convolution"
  bottom: "conv5_2"
  top: "conv5_3"
  param {
    lr_mult: 1
    decay_mult: 1
  }
  param {
    lr_mult: 2
    decay_mult: 0
  }
  convolution_param {
    num_output: 512
    pad: 1
    kernel_size: 3
    weight_filler {
      type: "gaussian"
      std: 0.01
    }
    bias_filler {
      type: "constant"
      value: 0
    }
  }
}
layer {
  name: "relu5_3"
  type: "ReLU"
  bottom: "conv5_3"
  top: "conv5_3"
}
layer {
  name: "pool5"
  type: "Pooling"
  bottom: "conv5_3"
  top: "pool5"
  pooling_param {
    pool: MAX
    kernel_size: 2
    stride: 2
  }
}
layer {
  name: "fc6"
  type: "InnerProduct"
  bottom: "pool5"
  top: "fc6"
  param {
    lr_mult: 1
    decay_mult: 1
  }
  param {
    lr_mult: 2
    decay_mult: 0
  }
  inner_product_param {
    num_output: 4096
    weight_filler {
      type: "gaussian"
      std: 0.01
    }
    bias_filler {
      type: "constant"
      value: 0
    }
  }
}
layer {
  name: "relu6"
  type: "ReLU"
  bottom: "fc6"
  top: "fc6"
}
layer {
  name: "drop6"
  type: "Dropout"
  bottom: "fc6"
  top: "fc6"
  dropout_param {
    dropout_ratio: 0.5
  }
}
layer {
  name: "fc7"
  type: "InnerProduct"
  bottom: "fc6"
  top: "fc7"
  param {
    lr_mult: 1
    decay_mult: 1
  }
  param {
    lr_mult: 2
    decay_mult: 0
  }
  inner_product_param {
    num_output: 4096
    weight_filler {
      type: "gaussian"
      std: 0.01
    }
    bias_filler {
      type: "constant"
      value: 0
    }
  }
}
layer {
  name: "relu7"
  type: "ReLU"
  bottom: "fc7"
  top: "fc7"
}
layer {
  name: "drop7"
  type: "Dropout"
  bottom: "fc7"
  top: "fc7"
  dropout_param {
    dropout_ratio: 0.5
  }
}
layer {
  name: "fc_scv_polluted"
  type: "InnerProduct"
  bottom: "fc7"
  top: "fc_scv_polluted"
  param {
    lr_mult: 10
    decay_mult: 1
  }
  param {
    lr_mult: 20
    decay_mult: 0
  }
  inner_product_param {
    num_output: 1
    weight_filler {
      type: "xavier"
      std: 0.01
    }
    bias_filler {
      type: "constant"
      value: 0
    }
  }
}
layer {
  name: "loss"
  type: "EuclideanLoss"
  bottom: "fc_scv_polluted"
  bottom: "label"
  top: "loss"
}
I1206 11:10:49.399633  2523 layer_factory.hpp:77] Creating layer data
I1206 11:10:49.490962  2523 db_lmdb.cpp:35] Opened lmdb /idiap/temp/lmedina/fine-tuning/data/Polluted/train_lmdb
I1206 11:10:49.506767  2523 net.cpp:84] Creating Layer data
I1206 11:10:49.518389  2523 net.cpp:380] data -> data
I1206 11:10:49.518528  2523 net.cpp:380] data -> label
I1206 11:10:49.518597  2523 data_transformer.cpp:25] Loading mean file from: /idiap/temp/lmedina/fine-tuning/vgg16_places365/places365CNN_mean.binaryproto
I1206 11:10:49.539674  2523 data_layer.cpp:45] output data size: 16,3,224,224
I1206 11:10:49.578981  2523 net.cpp:122] Setting up data
I1206 11:10:49.579028  2523 net.cpp:129] Top shape: 16 3 224 224 (2408448)
I1206 11:10:49.579046  2523 net.cpp:129] Top shape: 16 (16)
I1206 11:10:49.579058  2523 net.cpp:137] Memory required for data: 9633856
I1206 11:10:49.579082  2523 layer_factory.hpp:77] Creating layer conv1_1
I1206 11:10:49.579116  2523 net.cpp:84] Creating Layer conv1_1
I1206 11:10:49.579135  2523 net.cpp:406] conv1_1 <- data
I1206 11:10:49.579161  2523 net.cpp:380] conv1_1 -> conv1_1
I1206 11:10:49.581195  2523 net.cpp:122] Setting up conv1_1
I1206 11:10:49.581221  2523 net.cpp:129] Top shape: 16 64 224 224 (51380224)
I1206 11:10:49.581233  2523 net.cpp:137] Memory required for data: 215154752
I1206 11:10:49.581259  2523 layer_factory.hpp:77] Creating layer relu1_1
I1206 11:10:49.581277  2523 net.cpp:84] Creating Layer relu1_1
I1206 11:10:49.581290  2523 net.cpp:406] relu1_1 <- conv1_1
I1206 11:10:49.581305  2523 net.cpp:367] relu1_1 -> conv1_1 (in-place)
I1206 11:10:49.581323  2523 net.cpp:122] Setting up relu1_1
I1206 11:10:49.581337  2523 net.cpp:129] Top shape: 16 64 224 224 (51380224)
I1206 11:10:49.581348  2523 net.cpp:137] Memory required for data: 420675648
I1206 11:10:49.581360  2523 layer_factory.hpp:77] Creating layer conv1_2
I1206 11:10:49.581379  2523 net.cpp:84] Creating Layer conv1_2
I1206 11:10:49.581392  2523 net.cpp:406] conv1_2 <- conv1_1
I1206 11:10:49.581408  2523 net.cpp:380] conv1_2 -> conv1_2
I1206 11:10:49.582104  2523 net.cpp:122] Setting up conv1_2
I1206 11:10:49.582128  2523 net.cpp:129] Top shape: 16 64 224 224 (51380224)
I1206 11:10:49.582165  2523 net.cpp:137] Memory required for data: 626196544
I1206 11:10:49.582185  2523 layer_factory.hpp:77] Creating layer relu1_2
I1206 11:10:49.582201  2523 net.cpp:84] Creating Layer relu1_2
I1206 11:10:49.582213  2523 net.cpp:406] relu1_2 <- conv1_2
I1206 11:10:49.582233  2523 net.cpp:367] relu1_2 -> conv1_2 (in-place)
I1206 11:10:49.582248  2523 net.cpp:122] Setting up relu1_2
I1206 11:10:49.582262  2523 net.cpp:129] Top shape: 16 64 224 224 (51380224)
I1206 11:10:49.582273  2523 net.cpp:137] Memory required for data: 831717440
I1206 11:10:49.582285  2523 layer_factory.hpp:77] Creating layer pool1
I1206 11:10:49.582303  2523 net.cpp:84] Creating Layer pool1
I1206 11:10:49.582314  2523 net.cpp:406] pool1 <- conv1_2
I1206 11:10:49.582329  2523 net.cpp:380] pool1 -> pool1
I1206 11:10:49.582423  2523 net.cpp:122] Setting up pool1
I1206 11:10:49.582442  2523 net.cpp:129] Top shape: 16 64 112 112 (12845056)
I1206 11:10:49.582461  2523 net.cpp:137] Memory required for data: 883097664
I1206 11:10:49.582474  2523 layer_factory.hpp:77] Creating layer conv2_1
I1206 11:10:49.582499  2523 net.cpp:84] Creating Layer conv2_1
I1206 11:10:49.582511  2523 net.cpp:406] conv2_1 <- pool1
I1206 11:10:49.582526  2523 net.cpp:380] conv2_1 -> conv2_1
I1206 11:10:49.585052  2523 net.cpp:122] Setting up conv2_1
I1206 11:10:49.585078  2523 net.cpp:129] Top shape: 16 128 112 112 (25690112)
I1206 11:10:49.585090  2523 net.cpp:137] Memory required for data: 985858112
I1206 11:10:49.585111  2523 layer_factory.hpp:77] Creating layer relu2_1
I1206 11:10:49.585129  2523 net.cpp:84] Creating Layer relu2_1
I1206 11:10:49.585142  2523 net.cpp:406] relu2_1 <- conv2_1
I1206 11:10:49.585156  2523 net.cpp:367] relu2_1 -> conv2_1 (in-place)
I1206 11:10:49.585173  2523 net.cpp:122] Setting up relu2_1
I1206 11:10:49.585186  2523 net.cpp:129] Top shape: 16 128 112 112 (25690112)
I1206 11:10:49.585198  2523 net.cpp:137] Memory required for data: 1088618560
I1206 11:10:49.585211  2523 layer_factory.hpp:77] Creating layer conv2_2
I1206 11:10:49.585229  2523 net.cpp:84] Creating Layer conv2_2
I1206 11:10:49.585242  2523 net.cpp:406] conv2_2 <- conv2_1
I1206 11:10:49.585258  2523 net.cpp:380] conv2_2 -> conv2_2
I1206 11:10:49.587108  2523 net.cpp:122] Setting up conv2_2
I1206 11:10:49.587131  2523 net.cpp:129] Top shape: 16 128 112 112 (25690112)
I1206 11:10:49.587142  2523 net.cpp:137] Memory required for data: 1191379008
I1206 11:10:49.587157  2523 layer_factory.hpp:77] Creating layer relu2_2
I1206 11:10:49.587173  2523 net.cpp:84] Creating Layer relu2_2
I1206 11:10:49.587185  2523 net.cpp:406] relu2_2 <- conv2_2
I1206 11:10:49.587199  2523 net.cpp:367] relu2_2 -> conv2_2 (in-place)
I1206 11:10:49.587214  2523 net.cpp:122] Setting up relu2_2
I1206 11:10:49.587227  2523 net.cpp:129] Top shape: 16 128 112 112 (25690112)
I1206 11:10:49.587239  2523 net.cpp:137] Memory required for data: 1294139456
I1206 11:10:49.587250  2523 layer_factory.hpp:77] Creating layer pool2
I1206 11:10:49.587266  2523 net.cpp:84] Creating Layer pool2
I1206 11:10:49.587277  2523 net.cpp:406] pool2 <- conv2_2
I1206 11:10:49.587291  2523 net.cpp:380] pool2 -> pool2
I1206 11:10:49.587339  2523 net.cpp:122] Setting up pool2
I1206 11:10:49.587354  2523 net.cpp:129] Top shape: 16 128 56 56 (6422528)
I1206 11:10:49.587366  2523 net.cpp:137] Memory required for data: 1319829568
I1206 11:10:49.587378  2523 layer_factory.hpp:77] Creating layer conv3_1
I1206 11:10:49.587396  2523 net.cpp:84] Creating Layer conv3_1
I1206 11:10:49.587409  2523 net.cpp:406] conv3_1 <- pool2
I1206 11:10:49.587424  2523 net.cpp:380] conv3_1 -> conv3_1
I1206 11:10:49.592695  2523 net.cpp:122] Setting up conv3_1
I1206 11:10:49.592722  2523 net.cpp:129] Top shape: 16 256 56 56 (12845056)
I1206 11:10:49.592741  2523 net.cpp:137] Memory required for data: 1371209792
I1206 11:10:49.592762  2523 layer_factory.hpp:77] Creating layer relu3_1
I1206 11:10:49.592779  2523 net.cpp:84] Creating Layer relu3_1
I1206 11:10:49.592793  2523 net.cpp:406] relu3_1 <- conv3_1
I1206 11:10:49.592809  2523 net.cpp:367] relu3_1 -> conv3_1 (in-place)
I1206 11:10:49.592833  2523 net.cpp:122] Setting up relu3_1
I1206 11:10:49.592846  2523 net.cpp:129] Top shape: 16 256 56 56 (12845056)
I1206 11:10:49.592857  2523 net.cpp:137] Memory required for data: 1422590016
I1206 11:10:49.592875  2523 layer_factory.hpp:77] Creating layer conv3_2
I1206 11:10:49.592893  2523 net.cpp:84] Creating Layer conv3_2
I1206 11:10:49.592905  2523 net.cpp:406] conv3_2 <- conv3_1
I1206 11:10:49.592921  2523 net.cpp:380] conv3_2 -> conv3_2
I1206 11:10:49.601481  2523 net.cpp:122] Setting up conv3_2
I1206 11:10:49.601511  2523 net.cpp:129] Top shape: 16 256 56 56 (12845056)
I1206 11:10:49.601526  2523 net.cpp:137] Memory required for data: 1473970240
I1206 11:10:49.601543  2523 layer_factory.hpp:77] Creating layer relu3_2
I1206 11:10:49.601559  2523 net.cpp:84] Creating Layer relu3_2
I1206 11:10:49.601572  2523 net.cpp:406] relu3_2 <- conv3_2
I1206 11:10:49.601588  2523 net.cpp:367] relu3_2 -> conv3_2 (in-place)
I1206 11:10:49.601604  2523 net.cpp:122] Setting up relu3_2
I1206 11:10:49.601619  2523 net.cpp:129] Top shape: 16 256 56 56 (12845056)
I1206 11:10:49.601630  2523 net.cpp:137] Memory required for data: 1525350464
I1206 11:10:49.601644  2523 layer_factory.hpp:77] Creating layer conv3_3
I1206 11:10:49.601662  2523 net.cpp:84] Creating Layer conv3_3
I1206 11:10:49.601677  2523 net.cpp:406] conv3_3 <- conv3_2
I1206 11:10:49.601694  2523 net.cpp:380] conv3_3 -> conv3_3
I1206 11:10:49.612608  2523 net.cpp:122] Setting up conv3_3
I1206 11:10:49.612637  2523 net.cpp:129] Top shape: 16 256 56 56 (12845056)
I1206 11:10:49.612649  2523 net.cpp:137] Memory required for data: 1576730688
I1206 11:10:49.612668  2523 layer_factory.hpp:77] Creating layer relu3_3
I1206 11:10:49.612686  2523 net.cpp:84] Creating Layer relu3_3
I1206 11:10:49.612700  2523 net.cpp:406] relu3_3 <- conv3_3
I1206 11:10:49.612716  2523 net.cpp:367] relu3_3 -> conv3_3 (in-place)
I1206 11:10:49.612741  2523 net.cpp:122] Setting up relu3_3
I1206 11:10:49.612757  2523 net.cpp:129] Top shape: 16 256 56 56 (12845056)
I1206 11:10:49.612769  2523 net.cpp:137] Memory required for data: 1628110912
I1206 11:10:49.612782  2523 layer_factory.hpp:77] Creating layer pool3
I1206 11:10:49.612798  2523 net.cpp:84] Creating Layer pool3
I1206 11:10:49.612812  2523 net.cpp:406] pool3 <- conv3_3
I1206 11:10:49.612828  2523 net.cpp:380] pool3 -> pool3
I1206 11:10:49.612890  2523 net.cpp:122] Setting up pool3
I1206 11:10:49.612910  2523 net.cpp:129] Top shape: 16 256 28 28 (3211264)
I1206 11:10:49.612921  2523 net.cpp:137] Memory required for data: 1640955968
I1206 11:10:49.612964  2523 layer_factory.hpp:77] Creating layer conv4_1
I1206 11:10:49.612987  2523 net.cpp:84] Creating Layer conv4_1
I1206 11:10:49.613003  2523 net.cpp:406] conv4_1 <- pool3
I1206 11:10:49.613020  2523 net.cpp:380] conv4_1 -> conv4_1
I1206 11:10:49.634959  2523 net.cpp:122] Setting up conv4_1
I1206 11:10:49.634989  2523 net.cpp:129] Top shape: 16 512 28 28 (6422528)
I1206 11:10:49.635004  2523 net.cpp:137] Memory required for data: 1666646080
I1206 11:10:49.635023  2523 layer_factory.hpp:77] Creating layer relu4_1
I1206 11:10:49.638339  2523 net.cpp:84] Creating Layer relu4_1
I1206 11:10:49.638381  2523 net.cpp:406] relu4_1 <- conv4_1
I1206 11:10:49.638461  2523 net.cpp:367] relu4_1 -> conv4_1 (in-place)
I1206 11:10:49.638480  2523 net.cpp:122] Setting up relu4_1
I1206 11:10:49.638495  2523 net.cpp:129] Top shape: 16 512 28 28 (6422528)
I1206 11:10:49.638507  2523 net.cpp:137] Memory required for data: 1692336192
I1206 11:10:49.638545  2523 layer_factory.hpp:77] Creating layer conv4_2
I1206 11:10:49.638566  2523 net.cpp:84] Creating Layer conv4_2
I1206 11:10:49.638577  2523 net.cpp:406] conv4_2 <- conv4_1
I1206 11:10:49.638617  2523 net.cpp:380] conv4_2 -> conv4_2
I1206 11:10:49.680250  2523 net.cpp:122] Setting up conv4_2
I1206 11:10:49.680281  2523 net.cpp:129] Top shape: 16 512 28 28 (6422528)
I1206 11:10:49.680299  2523 net.cpp:137] Memory required for data: 1718026304
I1206 11:10:49.680322  2523 layer_factory.hpp:77] Creating layer relu4_2
I1206 11:10:49.680341  2523 net.cpp:84] Creating Layer relu4_2
I1206 11:10:49.680356  2523 net.cpp:406] relu4_2 <- conv4_2
I1206 11:10:49.680372  2523 net.cpp:367] relu4_2 -> conv4_2 (in-place)
I1206 11:10:49.680392  2523 net.cpp:122] Setting up relu4_2
I1206 11:10:49.680411  2523 net.cpp:129] Top shape: 16 512 28 28 (6422528)
I1206 11:10:49.680425  2523 net.cpp:137] Memory required for data: 1743716416
I1206 11:10:49.680438  2523 layer_factory.hpp:77] Creating layer conv4_3
I1206 11:10:49.680457  2523 net.cpp:84] Creating Layer conv4_3
I1206 11:10:49.680471  2523 net.cpp:406] conv4_3 <- conv4_2
I1206 11:10:49.680488  2523 net.cpp:380] conv4_3 -> conv4_3
I1206 11:10:49.734150  2523 net.cpp:122] Setting up conv4_3
I1206 11:10:49.734186  2523 net.cpp:129] Top shape: 16 512 28 28 (6422528)
I1206 11:10:49.734200  2523 net.cpp:137] Memory required for data: 1769406528
I1206 11:10:49.734217  2523 layer_factory.hpp:77] Creating layer relu4_3
I1206 11:10:49.734236  2523 net.cpp:84] Creating Layer relu4_3
I1206 11:10:49.734248  2523 net.cpp:406] relu4_3 <- conv4_3
I1206 11:10:49.734264  2523 net.cpp:367] relu4_3 -> conv4_3 (in-place)
I1206 11:10:49.734282  2523 net.cpp:122] Setting up relu4_3
I1206 11:10:49.734294  2523 net.cpp:129] Top shape: 16 512 28 28 (6422528)
I1206 11:10:49.734305  2523 net.cpp:137] Memory required for data: 1795096640
I1206 11:10:49.734318  2523 layer_factory.hpp:77] Creating layer pool4
I1206 11:10:49.734352  2523 net.cpp:84] Creating Layer pool4
I1206 11:10:49.734364  2523 net.cpp:406] pool4 <- conv4_3
I1206 11:10:49.734380  2523 net.cpp:380] pool4 -> pool4
I1206 11:10:49.734521  2523 net.cpp:122] Setting up pool4
I1206 11:10:49.734539  2523 net.cpp:129] Top shape: 16 512 14 14 (1605632)
I1206 11:10:49.734550  2523 net.cpp:137] Memory required for data: 1801519168
I1206 11:10:49.734586  2523 layer_factory.hpp:77] Creating layer conv5_1
I1206 11:10:49.734607  2523 net.cpp:84] Creating Layer conv5_1
I1206 11:10:49.734621  2523 net.cpp:406] conv5_1 <- pool4
I1206 11:10:49.734637  2523 net.cpp:380] conv5_1 -> conv5_1
I1206 11:10:49.768541  2523 net.cpp:122] Setting up conv5_1
I1206 11:10:49.768576  2523 net.cpp:129] Top shape: 16 512 14 14 (1605632)
I1206 11:10:49.768589  2523 net.cpp:137] Memory required for data: 1807941696
I1206 11:10:49.768606  2523 layer_factory.hpp:77] Creating layer relu5_1
I1206 11:10:49.768625  2523 net.cpp:84] Creating Layer relu5_1
I1206 11:10:49.768638  2523 net.cpp:406] relu5_1 <- conv5_1
I1206 11:10:49.768654  2523 net.cpp:367] relu5_1 -> conv5_1 (in-place)
I1206 11:10:49.768671  2523 net.cpp:122] Setting up relu5_1
I1206 11:10:49.768687  2523 net.cpp:129] Top shape: 16 512 14 14 (1605632)
I1206 11:10:49.768698  2523 net.cpp:137] Memory required for data: 1814364224
I1206 11:10:49.768712  2523 layer_factory.hpp:77] Creating layer conv5_2
I1206 11:10:49.768734  2523 net.cpp:84] Creating Layer conv5_2
I1206 11:10:49.768748  2523 net.cpp:406] conv5_2 <- conv5_1
I1206 11:10:49.768771  2523 net.cpp:380] conv5_2 -> conv5_2
I1206 11:10:49.798249  2523 net.cpp:122] Setting up conv5_2
I1206 11:10:49.798295  2523 net.cpp:129] Top shape: 16 512 14 14 (1605632)
I1206 11:10:49.798307  2523 net.cpp:137] Memory required for data: 1820786752
I1206 11:10:49.798326  2523 layer_factory.hpp:77] Creating layer relu5_2
I1206 11:10:49.798347  2523 net.cpp:84] Creating Layer relu5_2
I1206 11:10:49.798362  2523 net.cpp:406] relu5_2 <- conv5_2
I1206 11:10:49.798378  2523 net.cpp:367] relu5_2 -> conv5_2 (in-place)
I1206 11:10:49.798429  2523 net.cpp:122] Setting up relu5_2
I1206 11:10:49.798444  2523 net.cpp:129] Top shape: 16 512 14 14 (1605632)
I1206 11:10:49.798455  2523 net.cpp:137] Memory required for data: 1827209280
I1206 11:10:49.798470  2523 layer_factory.hpp:77] Creating layer conv5_3
I1206 11:10:49.798490  2523 net.cpp:84] Creating Layer conv5_3
I1206 11:10:49.798502  2523 net.cpp:406] conv5_3 <- conv5_2
I1206 11:10:49.798519  2523 net.cpp:380] conv5_3 -> conv5_3
I1206 11:10:49.828068  2523 net.cpp:122] Setting up conv5_3
I1206 11:10:49.828110  2523 net.cpp:129] Top shape: 16 512 14 14 (1605632)
I1206 11:10:49.828124  2523 net.cpp:137] Memory required for data: 1833631808
I1206 11:10:49.828141  2523 layer_factory.hpp:77] Creating layer relu5_3
I1206 11:10:49.828162  2523 net.cpp:84] Creating Layer relu5_3
I1206 11:10:49.828177  2523 net.cpp:406] relu5_3 <- conv5_3
I1206 11:10:49.828203  2523 net.cpp:367] relu5_3 -> conv5_3 (in-place)
I1206 11:10:49.828222  2523 net.cpp:122] Setting up relu5_3
I1206 11:10:49.828235  2523 net.cpp:129] Top shape: 16 512 14 14 (1605632)
I1206 11:10:49.828248  2523 net.cpp:137] Memory required for data: 1840054336
I1206 11:10:49.828260  2523 layer_factory.hpp:77] Creating layer pool5
I1206 11:10:49.828276  2523 net.cpp:84] Creating Layer pool5
I1206 11:10:49.828289  2523 net.cpp:406] pool5 <- conv5_3
I1206 11:10:49.828305  2523 net.cpp:380] pool5 -> pool5
I1206 11:10:49.828362  2523 net.cpp:122] Setting up pool5
I1206 11:10:49.828382  2523 net.cpp:129] Top shape: 16 512 7 7 (401408)
I1206 11:10:49.828394  2523 net.cpp:137] Memory required for data: 1841659968
I1206 11:10:49.828407  2523 layer_factory.hpp:77] Creating layer fc6
I1206 11:10:49.828434  2523 net.cpp:84] Creating Layer fc6
I1206 11:10:49.828449  2523 net.cpp:406] fc6 <- pool5
I1206 11:10:49.828465  2523 net.cpp:380] fc6 -> fc6
I1206 11:10:50.980016  2523 net.cpp:122] Setting up fc6
I1206 11:10:50.980077  2523 net.cpp:129] Top shape: 16 4096 (65536)
I1206 11:10:50.980090  2523 net.cpp:137] Memory required for data: 1841922112
I1206 11:10:50.980113  2523 layer_factory.hpp:77] Creating layer relu6
I1206 11:10:50.980137  2523 net.cpp:84] Creating Layer relu6
I1206 11:10:50.980152  2523 net.cpp:406] relu6 <- fc6
I1206 11:10:50.980172  2523 net.cpp:367] relu6 -> fc6 (in-place)
I1206 11:10:50.980195  2523 net.cpp:122] Setting up relu6
I1206 11:10:50.980209  2523 net.cpp:129] Top shape: 16 4096 (65536)
I1206 11:10:50.980222  2523 net.cpp:137] Memory required for data: 1842184256
I1206 11:10:50.980235  2523 layer_factory.hpp:77] Creating layer drop6
I1206 11:10:50.980257  2523 net.cpp:84] Creating Layer drop6
I1206 11:10:50.980270  2523 net.cpp:406] drop6 <- fc6
I1206 11:10:50.980285  2523 net.cpp:367] drop6 -> fc6 (in-place)
I1206 11:10:50.980350  2523 net.cpp:122] Setting up drop6
I1206 11:10:50.980370  2523 net.cpp:129] Top shape: 16 4096 (65536)
I1206 11:10:50.980382  2523 net.cpp:137] Memory required for data: 1842446400
I1206 11:10:50.980396  2523 layer_factory.hpp:77] Creating layer fc7
I1206 11:10:50.980419  2523 net.cpp:84] Creating Layer fc7
I1206 11:10:50.980433  2523 net.cpp:406] fc7 <- fc6
I1206 11:10:50.980450  2523 net.cpp:380] fc7 -> fc7
I1206 11:10:51.204362  2523 net.cpp:122] Setting up fc7
I1206 11:10:51.204432  2523 net.cpp:129] Top shape: 16 4096 (65536)
I1206 11:10:51.204444  2523 net.cpp:137] Memory required for data: 1842708544
I1206 11:10:51.204468  2523 layer_factory.hpp:77] Creating layer relu7
I1206 11:10:51.204490  2523 net.cpp:84] Creating Layer relu7
I1206 11:10:51.204507  2523 net.cpp:406] relu7 <- fc7
I1206 11:10:51.204526  2523 net.cpp:367] relu7 -> fc7 (in-place)
I1206 11:10:51.204547  2523 net.cpp:122] Setting up relu7
I1206 11:10:51.204576  2523 net.cpp:129] Top shape: 16 4096 (65536)
I1206 11:10:51.204587  2523 net.cpp:137] Memory required for data: 1842970688
I1206 11:10:51.204601  2523 layer_factory.hpp:77] Creating layer drop7
I1206 11:10:51.204620  2523 net.cpp:84] Creating Layer drop7
I1206 11:10:51.204633  2523 net.cpp:406] drop7 <- fc7
I1206 11:10:51.204649  2523 net.cpp:367] drop7 -> fc7 (in-place)
I1206 11:10:51.204694  2523 net.cpp:122] Setting up drop7
I1206 11:10:51.204713  2523 net.cpp:129] Top shape: 16 4096 (65536)
I1206 11:10:51.204726  2523 net.cpp:137] Memory required for data: 1843232832
I1206 11:10:51.204744  2523 layer_factory.hpp:77] Creating layer fc_scv_polluted
I1206 11:10:51.204766  2523 net.cpp:84] Creating Layer fc_scv_polluted
I1206 11:10:51.204779  2523 net.cpp:406] fc_scv_polluted <- fc7
I1206 11:10:51.204797  2523 net.cpp:380] fc_scv_polluted -> fc_scv_polluted
I1206 11:10:51.204965  2523 net.cpp:122] Setting up fc_scv_polluted
I1206 11:10:51.204985  2523 net.cpp:129] Top shape: 16 1 (16)
I1206 11:10:51.204998  2523 net.cpp:137] Memory required for data: 1843232896
I1206 11:10:51.205014  2523 layer_factory.hpp:77] Creating layer loss
I1206 11:10:51.205031  2523 net.cpp:84] Creating Layer loss
I1206 11:10:51.205045  2523 net.cpp:406] loss <- fc_scv_polluted
I1206 11:10:51.205072  2523 net.cpp:406] loss <- label
I1206 11:10:51.205091  2523 net.cpp:380] loss -> loss
I1206 11:10:51.205147  2523 net.cpp:122] Setting up loss
…
I1206 11:10:51.207540  2523 net.cpp:294] The NetState phase (1) differed from the phase (0) specified by a rule in layer data
I1206 11:10:51.207850  2523 net.cpp:51] Initializing net from parameters: 
name: "VGG-Places365-SCV-Polluted"
state {
  phase: TEST
}
layer {
  name: "data"
  type: "Data"
  top: "data"
  top: "label"
  include {
    phase: TEST
  }
  transform_param {
    mirror: false
    crop_size: 224
    mean_file: "/idiap/temp/lmedina/fine-tuning/vgg16_places365/places365CNN_mean.binaryproto"
  }
  data_param {
    source: "/idiap/temp/lmedina/fine-tuning/data/Polluted/validation_lmdb"
    batch_size: 16
    backend: LMDB
  }
}
layer {
  name: "conv1_1"
  type: "Convolution"
  bottom: "data"
  top: "conv1_1"
  param {
    lr_mult: 1
    decay_mult: 1
  }
  param {
    lr_mult: 2
    decay_mult: 0
  }
  convolution_param {
    num_output: 64
    pad: 1
    kernel_size: 3
    weight_filler {
      type: "gaussian"
      std: 0.01
    }
    bias_filler {
      type: "constant"
      value: 0
    }
  }
}
layer {
  name: "relu1_1"
  type: "ReLU"
  bottom: "conv1_1"
  top: "conv1_1"
}
layer {
  name: "conv1_2"
  type: "Convolution"
  bottom: "conv1_1"
  top: "conv1_2"
  param {
    lr_mult: 1
    decay_mult: 1
  }
  param {
    lr_mult: 2
    decay_mult: 0
  }
  convolution_param {
    num_output: 64
    pad: 1
    kernel_size: 3
    weight_filler {
      type: "gaussian"
      std: 0.01
    }
    bias_filler {
      type: "constant"
      value: 0
    }
  }
}
layer {
  name: "relu1_2"
  type: "ReLU"
  bottom: "conv1_2"
  top: "conv1_2"
}
layer {
  name: "pool1"
  type: "Pooling"
  bottom: "conv1_2"
  top: "pool1"
  pooling_param {
    pool: MAX
    kernel_size: 2
    stride: 2
  }
}
layer {
  name: "conv2_1"
  type: "Convolution"
  bottom: "pool1"
  top: "conv2_1"
  param {
    lr_mult: 1
    decay_mult: 1
  }
  param {
    lr_mult: 2
    decay_mult: 0
  }
  convolution_param {
    num_output: 128
    pad: 1
    kernel_size: 3
    weight_filler {
      type: "gaussian"
      std: 0.01
    }
    bias_filler {
      type: "constant"
      value: 0
    }
  }
}
layer {
  name: "relu2_1"
  type: "ReLU"
  bottom: "conv2_1"
  top: "conv2_1"
}
layer {
  name: "conv2_2"
  type: "Convolution"
  bottom: "conv2_1"
  top: "conv2_2"
  param {
    lr_mult: 1
    decay_mult: 1
  }
  param {
    lr_mult: 2
    decay_mult: 0
  }
  convolution_param {
    num_output: 128
    pad: 1
    kernel_size: 3
    weight_filler {
      type: "gaussian"
      std: 0.01
    }
    bias_filler {
      type: "constant"
      value: 0
    }
  }
}
layer {
  name: "relu2_2"
  type: "ReLU"
  bottom: "conv2_2"
  top: "conv2_2"
}
layer {
  name: "pool2"
  type: "Pooling"
  bottom: "conv2_2"
  top: "pool2"
  pooling_param {
    pool: MAX
    kernel_size: 2
    stride: 2
  }
}
layer {
  name: "conv3_1"
  type: "Convolution"
  bottom: "pool2"
  top: "conv3_1"
  param {
    lr_mult: 1
    decay_mult: 1
  }
  param {
    lr_mult: 2
    decay_mult: 0
  }
  convolution_param {
    num_output: 256
    pad: 1
    kernel_size: 3
    weight_filler {
      type: "gaussian"
      std: 0.01
    }
    bias_filler {
      type: "constant"
      value: 0
    }
  }
}
layer {
  name: "relu3_1"
  type: "ReLU"
  bottom: "conv3_1"
  top: "conv3_1"
}
layer {
  name: "conv3_2"
  type: "Convolution"
  bottom: "conv3_1"
  top: "conv3_2"
  param {
    lr_mult: 1
    decay_mult: 1
  }
  param {
    lr_mult: 2
    decay_mult: 0
  }
  convolution_param {
    num_output: 256
    pad: 1
    kernel_size: 3
    weight_filler {
      type: "gaussian"
      std: 0.01
    }
    bias_filler {
      type: "constant"
      value: 0
    }
  }
}
layer {
  name: "relu3_2"
  type: "ReLU"
  bottom: "conv3_2"
  top: "conv3_2"
}
layer {
  name: "conv3_3"
  type: "Convolution"
  bottom: "conv3_2"
  top: "conv3_3"
  param {
    lr_mult: 1
    decay_mult: 1
  }
  param {
    lr_mult: 2
    decay_mult: 0
  }
  convolution_param {
    num_output: 256
    pad: 1
    kernel_size: 3
    weight_filler {
      type: "gaussian"
      std: 0.01
    }
    bias_filler {
      type: "constant"
      value: 0
    }
  }
}
layer {
  name: "relu3_3"
  type: "ReLU"
  bottom: "conv3_3"
  top: "conv3_3"
}
layer {
  name: "pool3"
  type: "Pooling"
  bottom: "conv3_3"
  top: "pool3"
  pooling_param {
    pool: MAX
    kernel_size: 2
    stride: 2
  }
}
layer {
  name: "conv4_1"
  type: "Convolution"
  bottom: "pool3"
  top: "conv4_1"
  param {
    lr_mult: 1
    decay_mult: 1
  }
  param {
    lr_mult: 2
    decay_mult: 0
  }
  convolution_param {
    num_output: 512
    pad: 1
    kernel_size: 3
    weight_filler {
      type: "gaussian"
      std: 0.01
    }
    bias_filler {
      type: "constant"
      value: 0
    }
  }
}
layer {
  name: "relu4_1"
  type: "ReLU"
  bottom: "conv4_1"
  top: "conv4_1"
}
layer {
  name: "conv4_2"
  type: "Convolution"
  bottom: "conv4_1"
  top: "conv4_2"
  param {
    lr_mult: 1
    decay_mult: 1
  }
  param {
    lr_mult: 2
    decay_mult: 0
  }
  convolution_param {
    num_output: 512
    pad: 1
    kernel_size: 3
    weight_filler {
      type: "gaussian"
      std: 0.01
    }
    bias_filler {
      type: "constant"
      value: 0
    }
  }
}
layer {
  name: "relu4_2"
  type: "ReLU"
  bottom: "conv4_2"
  top: "conv4_2"
}
layer {
  name: "conv4_3"
  type: "Convolution"
  bottom: "conv4_2"
  top: "conv4_3"
  param {
    lr_mult: 1
    decay_mult: 1
  }
  param {
    lr_mult: 2
    decay_mult: 0
  }
  convolution_param {
    num_output: 512
    pad: 1
    kernel_size: 3
    weight_filler {
      type: "gaussian"
      std: 0.01
    }
    bias_filler {
      type: "constant"
      value: 0
    }
  }
}
layer {
  name: "relu4_3"
  type: "ReLU"
  bottom: "conv4_3"
  top: "conv4_3"
}
layer {
  name: "pool4"
  type: "Pooling"
  bottom: "conv4_3"
  top: "pool4"
  pooling_param {
    pool: MAX
    kernel_size: 2
    stride: 2
  }
}
layer {
  name: "conv5_1"
  type: "Convolution"
  bottom: "pool4"
  top: "conv5_1"
  param {
    lr_mult: 1
    decay_mult: 1
  }
  param {
    lr_mult: 2
    decay_mult: 0
  }
  convolution_param {
    num_output: 512
    pad: 1
    kernel_size: 3
    weight_filler {
      type: "gaussian"
      std: 0.01
    }
    bias_filler {
      type: "constant"
      value: 0
    }
  }
}
layer {
  name: "relu5_1"
  type: "ReLU"
  bottom: "conv5_1"
  top: "conv5_1"
}
layer {
  name: "conv5_2"
  type: "Convolution"
  bottom: "conv5_1"
  top: "conv5_2"
  param {
    lr_mult: 1
    decay_mult: 1
  }
  param {
    lr_mult: 2
    decay_mult: 0
  }
  convolution_param {
    num_output: 512
    pad: 1
    kernel_size: 3
    weight_filler {
      type: "gaussian"
      std: 0.01
    }
    bias_filler {
      type: "constant"
      value: 0
    }
  }
}
layer {
  name: "relu5_2"
  type: "ReLU"
  bottom: "conv5_2"
  top: "conv5_2"
}
layer {
  name: "conv5_3"
  type: "Convolution"
  bottom: "conv5_2"
  top: "conv5_3"
  param {
    lr_mult: 1
    decay_mult: 1
  }
  param {
    lr_mult: 2
    decay_mult: 0
  }
  convolution_param {
    num_output: 512
    pad: 1
    kernel_size: 3
    weight_filler {
      type: "gaussian"
      std: 0.01
    }
    bias_filler {
      type: "constant"
      value: 0
    }
  }
}
layer {
  name: "relu5_3"
  type: "ReLU"
  bottom: "conv5_3"
  top: "conv5_3"
}
layer {
  name: "pool5"
  type: "Pooling"
  bottom: "conv5_3"
  top: "pool5"
  pooling_param {
    pool: MAX
    kernel_size: 2
    stride: 2
  }
}
layer {
  name: "fc6"
  type: "InnerProduct"
  bottom: "pool5"
  top: "fc6"
  param {
    lr_mult: 1
    decay_mult: 1
  }
  param {
    lr_mult: 2
    decay_mult: 0
  }
  inner_product_param {
    num_output: 4096
    weight_filler {
      type: "gaussian"
      std: 0.01
    }
    bias_filler {
      type: "constant"
      value: 0
    }
  }
}
layer {
  name: "relu6"
  type: "ReLU"
  bottom: "fc6"
  top: "fc6"
}
layer {
  name: "drop6"
  type: "Dropout"
  bottom: "fc6"
  top: "fc6"
  dropout_param {
    dropout_ratio: 0.5
  }
}
layer {
  name: "fc7"
  type: "InnerProduct"
  bottom: "fc6"
  top: "fc7"
  param {
    lr_mult: 1
    decay_mult: 1
  }
  param {
    lr_mult: 2
    decay_mult: 0
  }
  inner_product_param {
    num_output: 4096
    weight_filler {
      type: "gaussian"
      std: 0.01
    }
    bias_filler {
      type: "constant"
      value: 0
    }
  }
}
layer {
  name: "relu7"
  type: "ReLU"
  bottom: "fc7"
  top: "fc7"
}
layer {
  name: "drop7"
  type: "Dropout"
  bottom: "fc7"
  top: "fc7"
  dropout_param {
    dropout_ratio: 0.5
  }
}
layer {
  name: "fc_scv_polluted"
  type: "InnerProduct"
  bottom: "fc7"
  top: "fc_scv_polluted"
  param {
    lr_mult: 10
    decay_mult: 1
  }
  param {
    lr_mult: 20
    decay_mult: 0
  }
  inner_product_param {
    num_output: 1
    weight_filler {
      type: "xavier"
      std: 0.01
    }
    bias_filler {
      type: "constant"
      value: 0
    }
  }
}
layer {
  name: "loss"
  type: "EuclideanLoss"
  bottom: "fc_scv_polluted"
  bottom: "label"
  top: "loss"
}
layer {
  name: "losttest"
  type: "EuclideanLoss"
  bottom: "fc_scv_polluted"
  bottom: "label"
  top: "losttest"
  include {
    phase: TEST
  }
}
I1206 11:10:51.208065  2523 layer_factory.hpp:77] Creating layer data
I1206 11:10:51.226871  2523 db_lmdb.cpp:35] Opened lmdb /idiap/temp/lmedina/fine-tuning/data/Polluted/validation_lmdb
I1206 11:10:51.236876  2523 net.cpp:84] Creating Layer data
I1206 11:10:51.236928  2523 net.cpp:380] data -> data
I1206 11:10:51.236966  2523 net.cpp:380] data -> label
I1206 11:10:51.236996  2523 data_transformer.cpp:25] Loading mean file from: /idiap/temp/lmedina/fine-tuning/vgg16_places365/places365CNN_mean.binaryproto
I1206 11:10:51.253347  2523 data_layer.cpp:45] output data size: 16,3,224,224
I1206 11:10:51.299806  2523 net.cpp:122] Setting up data
I1206 11:10:51.299896  2523 net.cpp:129] Top shape: 16 3 224 224 (2408448)
I1206 11:10:51.299919  2523 net.cpp:129] Top shape: 16 (16)
I1206 11:10:51.299937  2523 net.cpp:137] Memory required for data: 9633856
I1206 11:10:51.299968  2523 layer_factory.hpp:77] Creating layer label_data_1_split
I1206 11:10:51.299998  2523 net.cpp:84] Creating Layer label_data_1_split
I1206 11:10:51.300017  2523 net.cpp:406] label_data_1_split <- label
I1206 11:10:51.300040  2523 net.cpp:380] label_data_1_split -> label_data_1_split_0
I1206 11:10:51.300066  2523 net.cpp:380] label_data_1_split -> label_data_1_split_1
I1206 11:10:51.300182  2523 net.cpp:122] Setting up label_data_1_split
I1206 11:10:51.300209  2523 net.cpp:129] Top shape: 16 (16)
I1206 11:10:51.300226  2523 net.cpp:129] Top shape: 16 (16)
I1206 11:10:51.300245  2523 net.cpp:137] Memory required for data: 9633984
I1206 11:10:51.300261  2523 layer_factory.hpp:77] Creating layer conv1_1
I1206 11:10:51.300292  2523 net.cpp:84] Creating Layer conv1_1
I1206 11:10:51.300308  2523 net.cpp:406] conv1_1 <- data
I1206 11:10:51.300330  2523 net.cpp:380] conv1_1 -> conv1_1
I1206 11:10:51.300802  2523 net.cpp:122] Setting up conv1_1
I1206 11:10:51.300827  2523 net.cpp:129] Top shape: 16 64 224 224 (51380224)
I1206 11:10:51.300844  2523 net.cpp:137] Memory required for data: 215154880
I1206 11:10:51.300874  2523 layer_factory.hpp:77] Creating layer relu1_1
I1206 11:10:51.300896  2523 net.cpp:84] Creating Layer relu1_1
I1206 11:10:51.300914  2523 net.cpp:406] relu1_1 <- conv1_1
I1206 11:10:51.300933  2523 net.cpp:367] relu1_1 -> conv1_1 (in-place)
I1206 11:10:51.300954  2523 net.cpp:122] Setting up relu1_1
I1206 11:10:51.300973  2523 net.cpp:129] Top shape: 16 64 224 224 (51380224)
I1206 11:10:51.300989  2523 net.cpp:137] Memory required for data: 420675776
I1206 11:10:51.301005  2523 layer_factory.hpp:77] Creating layer conv1_2
I1206 11:10:51.301030  2523 net.cpp:84] Creating Layer conv1_2
I1206 11:10:51.301046  2523 net.cpp:406] conv1_2 <- conv1_1
I1206 11:10:51.301067  2523 net.cpp:380] conv1_2 -> conv1_2
I1206 11:10:51.302932  2523 net.cpp:122] Setting up conv1_2
I1206 11:10:51.302965  2523 net.cpp:129] Top shape: 16 64 224 224 (51380224)
I1206 11:10:51.302983  2523 net.cpp:137] Memory required for data: 626196672
I1206 11:10:51.303009  2523 layer_factory.hpp:77] Creating layer relu1_2
I1206 11:10:51.303032  2523 net.cpp:84] Creating Layer relu1_2
I1206 11:10:51.303050  2523 net.cpp:406] relu1_2 <- conv1_2
I1206 11:10:51.303069  2523 net.cpp:367] relu1_2 -> conv1_2 (in-place)
I1206 11:10:51.303092  2523 net.cpp:122] Setting up relu1_2
I1206 11:10:51.303110  2523 net.cpp:129] Top shape: 16 64 224 224 (51380224)
I1206 11:10:51.303127  2523 net.cpp:137] Memory required for data: 831717568
I1206 11:10:51.303143  2523 layer_factory.hpp:77] Creating layer pool1
I1206 11:10:51.303169  2523 net.cpp:84] Creating Layer pool1
I1206 11:10:51.303185  2523 net.cpp:406] pool1 <- conv1_2
I1206 11:10:51.303205  2523 net.cpp:380] pool1 -> pool1
I1206 11:10:51.303278  2523 net.cpp:122] Setting up pool1
I1206 11:10:51.303299  2523 net.cpp:129] Top shape: 16 64 112 112 (12845056)
I1206 11:10:51.303315  2523 net.cpp:137] Memory required for data: 883097792
I1206 11:10:51.303331  2523 layer_factory.hpp:77] Creating layer conv2_1
I1206 11:10:51.303357  2523 net.cpp:84] Creating Layer conv2_1
I1206 11:10:51.303375  2523 net.cpp:406] conv2_1 <- pool1
I1206 11:10:51.303395  2523 net.cpp:380] conv2_1 -> conv2_1
I1206 11:10:51.305930  2523 net.cpp:122] Setting up conv2_1
I1206 11:10:51.305964  2523 net.cpp:129] Top shape: 16 128 112 112 (25690112)
I1206 11:10:51.305981  2523 net.cpp:137] Memory required for data: 985858240
I1206 11:10:51.306007  2523 layer_factory.hpp:77] Creating layer relu2_1
I1206 11:10:51.306031  2523 net.cpp:84] Creating Layer relu2_1
I1206 11:10:51.306048  2523 net.cpp:406] relu2_1 <- conv2_1
I1206 11:10:51.306068  2523 net.cpp:367] relu2_1 -> conv2_1 (in-place)
I1206 11:10:51.306090  2523 net.cpp:122] Setting up relu2_1
I1206 11:10:51.306109  2523 net.cpp:129] Top shape: 16 128 112 112 (25690112)
I1206 11:10:51.306125  2523 net.cpp:137] Memory required for data: 1088618688
I1206 11:10:51.306141  2523 layer_factory.hpp:77] Creating layer conv2_2
I1206 11:10:51.306165  2523 net.cpp:84] Creating Layer conv2_2
I1206 11:10:51.306182  2523 net.cpp:406] conv2_2 <- conv2_1
I1206 11:10:51.306202  2523 net.cpp:380] conv2_2 -> conv2_2
I1206 11:10:51.308776  2523 net.cpp:122] Setting up conv2_2
I1206 11:10:51.308801  2523 net.cpp:129] Top shape: 16 128 112 112 (25690112)
I1206 11:10:51.308817  2523 net.cpp:137] Memory required for data: 1191379136
I1206 11:10:51.308836  2523 layer_factory.hpp:77] Creating layer relu2_2
I1206 11:10:51.308856  2523 net.cpp:84] Creating Layer relu2_2
I1206 11:10:51.308871  2523 net.cpp:406] relu2_2 <- conv2_2
I1206 11:10:51.308890  2523 net.cpp:367] relu2_2 -> conv2_2 (in-place)
I1206 11:10:51.308909  2523 net.cpp:122] Setting up relu2_2
I1206 11:10:51.308926  2523 net.cpp:129] Top shape: 16 128 112 112 (25690112)
I1206 11:10:51.308941  2523 net.cpp:137] Memory required for data: 1294139584
I1206 11:10:51.308956  2523 layer_factory.hpp:77] Creating layer pool2
I1206 11:10:51.308977  2523 net.cpp:84] Creating Layer pool2
I1206 11:10:51.308992  2523 net.cpp:406] pool2 <- conv2_2
I1206 11:10:51.309010  2523 net.cpp:380] pool2 -> pool2
I1206 11:10:51.309074  2523 net.cpp:122] Setting up pool2
I1206 11:10:51.309093  2523 net.cpp:129] Top shape: 16 128 56 56 (6422528)
I1206 11:10:51.309108  2523 net.cpp:137] Memory required for data: 1319829696
I1206 11:10:51.309123  2523 layer_factory.hpp:77] Creating layer conv3_1
I1206 11:10:51.309146  2523 net.cpp:84] Creating Layer conv3_1
I1206 11:10:51.309162  2523 net.cpp:406] conv3_1 <- pool2
I1206 11:10:51.309182  2523 net.cpp:380] conv3_1 -> conv3_1
I1206 11:10:51.318539  2523 net.cpp:122] Setting up conv3_1
I1206 11:10:51.318572  2523 net.cpp:129] Top shape: 16 256 56 56 (12845056)
I1206 11:10:51.318589  2523 net.cpp:137] Memory required for data: 1371209920
I1206 11:10:51.318616  2523 layer_factory.hpp:77] Creating layer relu3_1
I1206 11:10:51.318637  2523 net.cpp:84] Creating Layer relu3_1
I1206 11:10:51.318653  2523 net.cpp:406] relu3_1 <- conv3_1
I1206 11:10:51.318673  2523 net.cpp:367] relu3_1 -> conv3_1 (in-place)
I1206 11:10:51.318694  2523 net.cpp:122] Setting up relu3_1
I1206 11:10:51.318711  2523 net.cpp:129] Top shape: 16 256 56 56 (12845056)
I1206 11:10:51.318727  2523 net.cpp:137] Memory required for data: 1422590144
I1206 11:10:51.318742  2523 layer_factory.hpp:77] Creating layer conv3_2
I1206 11:10:51.318763  2523 net.cpp:84] Creating Layer conv3_2
I1206 11:10:51.318779  2523 net.cpp:406] conv3_2 <- conv3_1
I1206 11:10:51.318799  2523 net.cpp:380] conv3_2 -> conv3_2
I1206 11:10:51.328156  2523 net.cpp:122] Setting up conv3_2
I1206 11:10:51.328186  2523 net.cpp:129] Top shape: 16 256 56 56 (12845056)
I1206 11:10:51.328207  2523 net.cpp:137] Memory required for data: 1473970368
I1206 11:10:51.328227  2523 layer_factory.hpp:77] Creating layer relu3_2
I1206 11:10:51.328246  2523 net.cpp:84] Creating Layer relu3_2
I1206 11:10:51.328263  2523 net.cpp:406] relu3_2 <- conv3_2
I1206 11:10:51.328281  2523 net.cpp:367] relu3_2 -> conv3_2 (in-place)
I1206 11:10:51.328300  2523 net.cpp:122] Setting up relu3_2
I1206 11:10:51.328317  2523 net.cpp:129] Top shape: 16 256 56 56 (12845056)
I1206 11:10:51.328331  2523 net.cpp:137] Memory required for data: 1525350592
I1206 11:10:51.328346  2523 layer_factory.hpp:77] Creating layer conv3_3
I1206 11:10:51.328371  2523 net.cpp:84] Creating Layer conv3_3
I1206 11:10:51.328385  2523 net.cpp:406] conv3_3 <- conv3_2
I1206 11:10:51.328405  2523 net.cpp:380] conv3_3 -> conv3_3
I1206 11:10:51.337553  2523 net.cpp:122] Setting up conv3_3
I1206 11:10:51.337580  2523 net.cpp:129] Top shape: 16 256 56 56 (12845056)
I1206 11:10:51.337595  2523 net.cpp:137] Memory required for data: 1576730816
I1206 11:10:51.337615  2523 layer_factory.hpp:77] Creating layer relu3_3
I1206 11:10:51.337632  2523 net.cpp:84] Creating Layer relu3_3
I1206 11:10:51.337648  2523 net.cpp:406] relu3_3 <- conv3_3
I1206 11:10:51.337666  2523 net.cpp:367] relu3_3 -> conv3_3 (in-place)
I1206 11:10:51.337685  2523 net.cpp:122] Setting up relu3_3
I1206 11:10:51.337702  2523 net.cpp:129] Top shape: 16 256 56 56 (12845056)
I1206 11:10:51.337715  2523 net.cpp:137] Memory required for data: 1628111040
I1206 11:10:51.337728  2523 layer_factory.hpp:77] Creating layer pool3
I1206 11:10:51.337745  2523 net.cpp:84] Creating Layer pool3
I1206 11:10:51.337759  2523 net.cpp:406] pool3 <- conv3_3
I1206 11:10:51.337775  2523 net.cpp:380] pool3 -> pool3
I1206 11:10:51.337836  2523 net.cpp:122] Setting up pool3
I1206 11:10:51.337853  2523 net.cpp:129] Top shape: 16 256 28 28 (3211264)
I1206 11:10:51.337867  2523 net.cpp:137] Memory required for data: 1640956096
I1206 11:10:51.337880  2523 layer_factory.hpp:77] Creating layer conv4_1
I1206 11:10:51.337903  2523 net.cpp:84] Creating Layer conv4_1
I1206 11:10:51.337916  2523 net.cpp:406] conv4_1 <- pool3
I1206 11:10:51.337934  2523 net.cpp:380] conv4_1 -> conv4_1
I1206 11:10:51.354563  2523 net.cpp:122] Setting up conv4_1
I1206 11:10:51.354591  2523 net.cpp:129] Top shape: 16 512 28 28 (6422528)
I1206 11:10:51.354605  2523 net.cpp:137] Memory required for data: 1666646208
I1206 11:10:51.354624  2523 layer_factory.hpp:77] Creating layer relu4_1
I1206 11:10:51.354641  2523 net.cpp:84] Creating Layer relu4_1
I1206 11:10:51.354655  2523 net.cpp:406] relu4_1 <- conv4_1
I1206 11:10:51.354672  2523 net.cpp:367] relu4_1 -> conv4_1 (in-place)
I1206 11:10:51.354691  2523 net.cpp:122] Setting up relu4_1
I1206 11:10:51.354706  2523 net.cpp:129] Top shape: 16 512 28 28 (6422528)
I1206 11:10:51.354718  2523 net.cpp:137] Memory required for data: 1692336320
I1206 11:10:51.354730  2523 layer_factory.hpp:77] Creating layer conv4_2
I1206 11:10:51.354751  2523 net.cpp:84] Creating Layer conv4_2
I1206 11:10:51.354764  2523 net.cpp:406] conv4_2 <- conv4_1
I1206 11:10:51.354781  2523 net.cpp:380] conv4_2 -> conv4_2
I1206 11:10:51.384738  2523 net.cpp:122] Setting up conv4_2
I1206 11:10:51.384783  2523 net.cpp:129] Top shape: 16 512 28 28 (6422528)
I1206 11:10:51.384794  2523 net.cpp:137] Memory required for data: 1718026432
I1206 11:10:51.384817  2523 layer_factory.hpp:77] Creating layer relu4_2
I1206 11:10:51.384835  2523 net.cpp:84] Creating Layer relu4_2
I1206 11:10:51.384847  2523 net.cpp:406] relu4_2 <- conv4_2
I1206 11:10:51.384863  2523 net.cpp:367] relu4_2 -> conv4_2 (in-place)
I1206 11:10:51.384881  2523 net.cpp:122] Setting up relu4_2
I1206 11:10:51.384892  2523 net.cpp:129] Top shape: 16 512 28 28 (6422528)
I1206 11:10:51.384902  2523 net.cpp:137] Memory required for data: 1743716544
I1206 11:10:51.384913  2523 layer_factory.hpp:77] Creating layer conv4_3
I1206 11:10:51.384930  2523 net.cpp:84] Creating Layer conv4_3
I1206 11:10:51.384943  2523 net.cpp:406] conv4_3 <- conv4_2
I1206 11:10:51.384958  2523 net.cpp:380] conv4_3 -> conv4_3
I1206 11:10:51.411479  2523 net.cpp:122] Setting up conv4_3
I1206 11:10:51.411517  2523 net.cpp:129] Top shape: 16 512 28 28 (6422528)
I1206 11:10:51.411530  2523 net.cpp:137] Memory required for data: 1769406656
I1206 11:10:51.411547  2523 layer_factory.hpp:77] Creating layer relu4_3
I1206 11:10:51.411566  2523 net.cpp:84] Creating Layer relu4_3
I1206 11:10:51.411579  2523 net.cpp:406] relu4_3 <- conv4_3
I1206 11:10:51.411594  2523 net.cpp:367] relu4_3 -> conv4_3 (in-place)
I1206 11:10:51.411612  2523 net.cpp:122] Setting up relu4_3
I1206 11:10:51.411623  2523 net.cpp:129] Top shape: 16 512 28 28 (6422528)
I1206 11:10:51.411634  2523 net.cpp:137] Memory required for data: 1795096768
I1206 11:10:51.411644  2523 layer_factory.hpp:77] Creating layer pool4
I1206 11:10:51.411660  2523 net.cpp:84] Creating Layer pool4
I1206 11:10:51.411671  2523 net.cpp:406] pool4 <- conv4_3
I1206 11:10:51.411684  2523 net.cpp:380] pool4 -> pool4
I1206 11:10:51.411736  2523 net.cpp:122] Setting up pool4
I1206 11:10:51.411751  2523 net.cpp:129] Top shape: 16 512 14 14 (1605632)
I1206 11:10:51.411761  2523 net.cpp:137] Memory required for data: 1801519296
I1206 11:10:51.411772  2523 layer_factory.hpp:77] Creating layer conv5_1
I1206 11:10:51.411793  2523 net.cpp:84] Creating Layer conv5_1
I1206 11:10:51.411804  2523 net.cpp:406] conv5_1 <- pool4
I1206 11:10:51.411818  2523 net.cpp:380] conv5_1 -> conv5_1
I1206 11:10:51.438269  2523 net.cpp:122] Setting up conv5_1
I1206 11:10:51.438305  2523 net.cpp:129] Top shape: 16 512 14 14 (1605632)
I1206 11:10:51.438318  2523 net.cpp:137] Memory required for data: 1807941824
I1206 11:10:51.438333  2523 layer_factory.hpp:77] Creating layer relu5_1
I1206 11:10:51.438350  2523 net.cpp:84] Creating Layer relu5_1
I1206 11:10:51.438364  2523 net.cpp:406] relu5_1 <- conv5_1
I1206 11:10:51.438379  2523 net.cpp:367] relu5_1 -> conv5_1 (in-place)
I1206 11:10:51.438421  2523 net.cpp:122] Setting up relu5_1
I1206 11:10:51.438433  2523 net.cpp:129] Top shape: 16 512 14 14 (1605632)
I1206 11:10:51.438444  2523 net.cpp:137] Memory required for data: 1814364352
I1206 11:10:51.438455  2523 layer_factory.hpp:77] Creating layer conv5_2
I1206 11:10:51.438475  2523 net.cpp:84] Creating Layer conv5_2
I1206 11:10:51.438550  2523 net.cpp:406] conv5_2 <- conv5_1
I1206 11:10:51.438568  2523 net.cpp:380] conv5_2 -> conv5_2
I1206 11:10:51.464881  2523 net.cpp:122] Setting up conv5_2
I1206 11:10:51.464915  2523 net.cpp:129] Top shape: 16 512 14 14 (1605632)
I1206 11:10:51.464927  2523 net.cpp:137] Memory required for data: 1820786880
I1206 11:10:51.464944  2523 layer_factory.hpp:77] Creating layer relu5_2
I1206 11:10:51.464962  2523 net.cpp:84] Creating Layer relu5_2
I1206 11:10:51.464977  2523 net.cpp:406] relu5_2 <- conv5_2
I1206 11:10:51.464993  2523 net.cpp:367] relu5_2 -> conv5_2 (in-place)
I1206 11:10:51.465009  2523 net.cpp:122] Setting up relu5_2
I1206 11:10:51.465021  2523 net.cpp:129] Top shape: 16 512 14 14 (1605632)
I1206 11:10:51.465032  2523 net.cpp:137] Memory required for data: 1827209408
I1206 11:10:51.465044  2523 layer_factory.hpp:77] Creating layer conv5_3
I1206 11:10:51.465065  2523 net.cpp:84] Creating Layer conv5_3
I1206 11:10:51.465075  2523 net.cpp:406] conv5_3 <- conv5_2
I1206 11:10:51.465090  2523 net.cpp:380] conv5_3 -> conv5_3
I1206 11:10:51.491034  2523 net.cpp:122] Setting up conv5_3
I1206 11:10:51.491080  2523 net.cpp:129] Top shape: 16 512 14 14 (1605632)
I1206 11:10:51.491091  2523 net.cpp:137] Memory required for data: 1833631936
I1206 11:10:51.491107  2523 layer_factory.hpp:77] Creating layer relu5_3
I1206 11:10:51.491127  2523 net.cpp:84] Creating Layer relu5_3
I1206 11:10:51.491138  2523 net.cpp:406] relu5_3 <- conv5_3
I1206 11:10:51.491153  2523 net.cpp:367] relu5_3 -> conv5_3 (in-place)
I1206 11:10:51.491170  2523 net.cpp:122] Setting up relu5_3
I1206 11:10:51.491183  2523 net.cpp:129] Top shape: 16 512 14 14 (1605632)
I1206 11:10:51.491194  2523 net.cpp:137] Memory required for data: 1840054464
I1206 11:10:51.491205  2523 layer_factory.hpp:77] Creating layer pool5
I1206 11:10:51.491231  2523 net.cpp:84] Creating Layer pool5
I1206 11:10:51.491243  2523 net.cpp:406] pool5 <- conv5_3
I1206 11:10:51.491257  2523 net.cpp:380] pool5 -> pool5
I1206 11:10:51.491315  2523 net.cpp:122] Setting up pool5
I1206 11:10:51.491333  2523 net.cpp:129] Top shape: 16 512 7 7 (401408)
I1206 11:10:51.491344  2523 net.cpp:137] Memory required for data: 1841660096
I1206 11:10:51.491355  2523 layer_factory.hpp:77] Creating layer fc6
I1206 11:10:51.491374  2523 net.cpp:84] Creating Layer fc6
I1206 11:10:51.491384  2523 net.cpp:406] fc6 <- pool5
I1206 11:10:51.491400  2523 net.cpp:380] fc6 -> fc6
I1206 11:10:52.632231  2523 net.cpp:122] Setting up fc6
I1206 11:10:52.632272  2523 net.cpp:129] Top shape: 16 4096 (65536)
I1206 11:10:52.632284  2523 net.cpp:137] Memory required for data: 1841922240
I1206 11:10:52.632303  2523 layer_factory.hpp:77] Creating layer relu6
I1206 11:10:52.632323  2523 net.cpp:84] Creating Layer relu6
I1206 11:10:52.632335  2523 net.cpp:406] relu6 <- fc6
I1206 11:10:52.632350  2523 net.cpp:367] relu6 -> fc6 (in-place)
I1206 11:10:52.632367  2523 net.cpp:122] Setting up relu6
I1206 11:10:52.632380  2523 net.cpp:129] Top shape: 16 4096 (65536)
I1206 11:10:52.632390  2523 net.cpp:137] Memory required for data: 1842184384
I1206 11:10:52.632400  2523 layer_factory.hpp:77] Creating layer drop6
I1206 11:10:52.632416  2523 net.cpp:84] Creating Layer drop6
I1206 11:10:52.632426  2523 net.cpp:406] drop6 <- fc6
I1206 11:10:52.632437  2523 net.cpp:367] drop6 -> fc6 (in-place)
I1206 11:10:52.632473  2523 net.cpp:122] Setting up drop6
I1206 11:10:52.632486  2523 net.cpp:129] Top shape: 16 4096 (65536)
I1206 11:10:52.632498  2523 net.cpp:137] Memory required for data: 1842446528
I1206 11:10:52.632508  2523 layer_factory.hpp:77] Creating layer fc7
I1206 11:10:52.632524  2523 net.cpp:84] Creating Layer fc7
I1206 11:10:52.632534  2523 net.cpp:406] fc7 <- fc6
I1206 11:10:52.632550  2523 net.cpp:380] fc7 -> fc7
I1206 11:10:52.821432  2523 net.cpp:122] Setting up fc7
I1206 11:10:52.821475  2523 net.cpp:129] Top shape: 16 4096 (65536)
I1206 11:10:52.821486  2523 net.cpp:137] Memory required for data: 1842708672
I1206 11:10:52.821504  2523 layer_factory.hpp:77] Creating layer relu7
I1206 11:10:52.821523  2523 net.cpp:84] Creating Layer relu7
I1206 11:10:52.821537  2523 net.cpp:406] relu7 <- fc7
I1206 11:10:52.821552  2523 net.cpp:367] relu7 -> fc7 (in-place)
I1206 11:10:52.821570  2523 net.cpp:122] Setting up relu7
I1206 11:10:52.821583  2523 net.cpp:129] Top shape: 16 4096 (65536)
I1206 11:10:52.821593  2523 net.cpp:137] Memory required for data: 1842970816
I1206 11:10:52.821602  2523 layer_factory.hpp:77] Creating layer drop7
I1206 11:10:52.821616  2523 net.cpp:84] Creating Layer drop7
I1206 11:10:52.821626  2523 net.cpp:406] drop7 <- fc7
I1206 11:10:52.821638  2523 net.cpp:367] drop7 -> fc7 (in-place)
I1206 11:10:52.821677  2523 net.cpp:122] Setting up drop7
I1206 11:10:52.821691  2523 net.cpp:129] Top shape: 16 4096 (65536)
I1206 11:10:52.821702  2523 net.cpp:137] Memory required for data: 1843232960
I1206 11:10:52.821712  2523 layer_factory.hpp:77] Creating layer fc_scv_polluted
I1206 11:10:52.821727  2523 net.cpp:84] Creating Layer fc_scv_polluted
I1206 11:10:52.821738  2523 net.cpp:406] fc_scv_polluted <- fc7
I1206 11:10:52.821753  2523 net.cpp:380] fc_scv_polluted -> fc_scv_polluted
I1206 11:10:52.821883  2523 net.cpp:122] Setting up fc_scv_polluted
I1206 11:10:52.821898  2523 net.cpp:129] Top shape: 16 1 (16)
I1206 11:10:52.821908  2523 net.cpp:137] Memory required for data: 1843233024
I1206 11:10:52.821921  2523 layer_factory.hpp:77] Creating layer fc_scv_polluted_fc_scv_polluted_0_split
I1206 11:10:52.821935  2523 net.cpp:84] Creating Layer fc_scv_polluted_fc_scv_polluted_0_split
I1206 11:10:52.821945  2523 net.cpp:406] fc_scv_polluted_fc_scv_polluted_0_split <- fc_scv_polluted
I1206 11:10:52.821959  2523 net.cpp:380] fc_scv_polluted_fc_scv_polluted_0_split -> fc_scv_polluted_fc_scv_polluted_0_split_0
I1206 11:10:52.821971  2523 net.cpp:380] fc_scv_polluted_fc_scv_polluted_0_split -> fc_scv_polluted_fc_scv_polluted_0_split_1
I1206 11:10:52.822026  2523 net.cpp:122] Setting up fc_scv_polluted_fc_scv_polluted_0_split
I1206 11:10:52.822038  2523 net.cpp:129] Top shape: 16 1 (16)
I1206 11:10:52.822049  2523 net.cpp:129] Top shape: 16 1 (16)
I1206 11:10:52.822059  2523 net.cpp:137] Memory required for data: 1843233152
I1206 11:10:52.822069  2523 layer_factory.hpp:77] Creating layer loss
I1206 11:10:52.822083  2523 net.cpp:84] Creating Layer loss
I1206 11:10:52.822094  2523 net.cpp:406] loss <- fc_scv_polluted_fc_scv_polluted_0_split_0
I1206 11:10:52.822105  2523 net.cpp:406] loss <- label_data_1_split_0
I1206 11:10:52.822119  2523 net.cpp:380] loss -> loss
…
