…
I1205 00:33:37.210325 22338 net.cpp:294] The NetState phase (0) differed from the phase (1) specified by a rule in layer losttest
I1205 00:33:37.210619 22338 net.cpp:51] Initializing net from parameters: 
name: "VGG-Places365-SCV-Accessible"
state {
  phase: TRAIN
  level: 0
  stage: ""
}
layer {
  name: "data"
  type: "Data"
  top: "data"
  top: "label"
  include {
    phase: TRAIN
  }
  transform_param {
    mirror: true
    crop_size: 224
    mean_file: "/idiap/temp/lmedina/fine-tuning/vgg16_places365/places365CNN_mean.binaryproto"
  }
  data_param {
    source: "/idiap/temp/lmedina/fine-tuning/data/Accessible/train_lmdb"
    batch_size: 16
    backend: LMDB
  }
}
layer {
  name: "conv1_1"
  type: "Convolution"
  bottom: "data"
  top: "conv1_1"
  param {
    lr_mult: 1
    decay_mult: 1
  }
  param {
    lr_mult: 2
    decay_mult: 0
  }
  convolution_param {
    num_output: 64
    pad: 1
    kernel_size: 3
    weight_filler {
      type: "gaussian"
      std: 0.01
    }
    bias_filler {
      type: "constant"
      value: 0
    }
  }
}
layer {
  name: "relu1_1"
  type: "ReLU"
  bottom: "conv1_1"
  top: "conv1_1"
}
layer {
  name: "conv1_2"
  type: "Convolution"
  bottom: "conv1_1"
  top: "conv1_2"
  param {
    lr_mult: 1
    decay_mult: 1
  }
  param {
    lr_mult: 2
    decay_mult: 0
  }
  convolution_param {
    num_output: 64
    pad: 1
    kernel_size: 3
    weight_filler {
      type: "gaussian"
      std: 0.01
    }
    bias_filler {
      type: "constant"
      value: 0
    }
  }
}
layer {
  name: "relu1_2"
  type: "ReLU"
  bottom: "conv1_2"
  top: "conv1_2"
}
layer {
  name: "pool1"
  type: "Pooling"
  bottom: "conv1_2"
  top: "pool1"
  pooling_param {
    pool: MAX
    kernel_size: 2
    stride: 2
  }
}
layer {
  name: "conv2_1"
  type: "Convolution"
  bottom: "pool1"
  top: "conv2_1"
  param {
    lr_mult: 1
    decay_mult: 1
  }
  param {
    lr_mult: 2
    decay_mult: 0
  }
  convolution_param {
    num_output: 128
    pad: 1
    kernel_size: 3
    weight_filler {
      type: "gaussian"
      std: 0.01
    }
    bias_filler {
      type: "constant"
      value: 0
    }
  }
}
layer {
  name: "relu2_1"
  type: "ReLU"
  bottom: "conv2_1"
  top: "conv2_1"
}
layer {
  name: "conv2_2"
  type: "Convolution"
  bottom: "conv2_1"
  top: "conv2_2"
  param {
    lr_mult: 1
    decay_mult: 1
  }
  param {
    lr_mult: 2
    decay_mult: 0
  }
  convolution_param {
    num_output: 128
    pad: 1
    kernel_size: 3
    weight_filler {
      type: "gaussian"
      std: 0.01
    }
    bias_filler {
      type: "constant"
      value: 0
    }
  }
}
layer {
  name: "relu2_2"
  type: "ReLU"
  bottom: "conv2_2"
  top: "conv2_2"
}
layer {
  name: "pool2"
  type: "Pooling"
  bottom: "conv2_2"
  top: "pool2"
  pooling_param {
    pool: MAX
    kernel_size: 2
    stride: 2
  }
}
layer {
  name: "conv3_1"
  type: "Convolution"
  bottom: "pool2"
  top: "conv3_1"
  param {
    lr_mult: 1
    decay_mult: 1
  }
  param {
    lr_mult: 2
    decay_mult: 0
  }
  convolution_param {
    num_output: 256
    pad: 1
    kernel_size: 3
    weight_filler {
      type: "gaussian"
      std: 0.01
    }
    bias_filler {
      type: "constant"
      value: 0
    }
  }
}
layer {
  name: "relu3_1"
  type: "ReLU"
  bottom: "conv3_1"
  top: "conv3_1"
}
layer {
  name: "conv3_2"
  type: "Convolution"
  bottom: "conv3_1"
  top: "conv3_2"
  param {
    lr_mult: 1
    decay_mult: 1
  }
  param {
    lr_mult: 2
    decay_mult: 0
  }
  convolution_param {
    num_output: 256
    pad: 1
    kernel_size: 3
    weight_filler {
      type: "gaussian"
      std: 0.01
    }
    bias_filler {
      type: "constant"
      value: 0
    }
  }
}
layer {
  name: "relu3_2"
  type: "ReLU"
  bottom: "conv3_2"
  top: "conv3_2"
}
layer {
  name: "conv3_3"
  type: "Convolution"
  bottom: "conv3_2"
  top: "conv3_3"
  param {
    lr_mult: 1
    decay_mult: 1
  }
  param {
    lr_mult: 2
    decay_mult: 0
  }
  convolution_param {
    num_output: 256
    pad: 1
    kernel_size: 3
    weight_filler {
      type: "gaussian"
      std: 0.01
    }
    bias_filler {
      type: "constant"
      value: 0
    }
  }
}
layer {
  name: "relu3_3"
  type: "ReLU"
  bottom: "conv3_3"
  top: "conv3_3"
}
layer {
  name: "pool3"
  type: "Pooling"
  bottom: "conv3_3"
  top: "pool3"
  pooling_param {
    pool: MAX
    kernel_size: 2
    stride: 2
  }
}
layer {
  name: "conv4_1"
  type: "Convolution"
  bottom: "pool3"
  top: "conv4_1"
  param {
    lr_mult: 1
    decay_mult: 1
  }
  param {
    lr_mult: 2
    decay_mult: 0
  }
  convolution_param {
    num_output: 512
    pad: 1
    kernel_size: 3
    weight_filler {
      type: "gaussian"
      std: 0.01
    }
    bias_filler {
      type: "constant"
      value: 0
    }
  }
}
layer {
  name: "relu4_1"
  type: "ReLU"
  bottom: "conv4_1"
  top: "conv4_1"
}
layer {
  name: "conv4_2"
  type: "Convolution"
  bottom: "conv4_1"
  top: "conv4_2"
  param {
    lr_mult: 1
    decay_mult: 1
  }
  param {
    lr_mult: 2
    decay_mult: 0
  }
  convolution_param {
    num_output: 512
    pad: 1
    kernel_size: 3
    weight_filler {
      type: "gaussian"
      std: 0.01
    }
    bias_filler {
      type: "constant"
      value: 0
    }
  }
}
layer {
  name: "relu4_2"
  type: "ReLU"
  bottom: "conv4_2"
  top: "conv4_2"
}
layer {
  name: "conv4_3"
  type: "Convolution"
  bottom: "conv4_2"
  top: "conv4_3"
  param {
    lr_mult: 1
    decay_mult: 1
  }
  param {
    lr_mult: 2
    decay_mult: 0
  }
  convolution_param {
    num_output: 512
    pad: 1
    kernel_size: 3
    weight_filler {
      type: "gaussian"
      std: 0.01
    }
    bias_filler {
      type: "constant"
      value: 0
    }
  }
}
layer {
  name: "relu4_3"
  type: "ReLU"
  bottom: "conv4_3"
  top: "conv4_3"
}
layer {
  name: "pool4"
  type: "Pooling"
  bottom: "conv4_3"
  top: "pool4"
  pooling_param {
    pool: MAX
    kernel_size: 2
    stride: 2
  }
}
layer {
  name: "conv5_1"
  type: "Convolution"
  bottom: "pool4"
  top: "conv5_1"
  param {
    lr_mult: 1
    decay_mult: 1
  }
  param {
    lr_mult: 2
    decay_mult: 0
  }
  convolution_param {
    num_output: 512
    pad: 1
    kernel_size: 3
    weight_filler {
      type: "gaussian"
      std: 0.01
    }
    bias_filler {
      type: "constant"
      value: 0
    }
  }
}
layer {
  name: "relu5_1"
  type: "ReLU"
  bottom: "conv5_1"
  top: "conv5_1"
}
layer {
  name: "conv5_2"
  type: "Convolution"
  bottom: "conv5_1"
  top: "conv5_2"
  param {
    lr_mult: 1
    decay_mult: 1
  }
  param {
    lr_mult: 2
    decay_mult: 0
  }
  convolution_param {
    num_output: 512
    pad: 1
    kernel_size: 3
    weight_filler {
      type: "gaussian"
      std: 0.01
    }
    bias_filler {
      type: "constant"
      value: 0
    }
  }
}
layer {
  name: "relu5_2"
  type: "ReLU"
  bottom: "conv5_2"
  top: "conv5_2"
}
layer {
  name: "conv5_3"
  type: "Convolution"
  bottom: "conv5_2"
  top: "conv5_3"
  param {
    lr_mult: 1
    decay_mult: 1
  }
  param {
    lr_mult: 2
    decay_mult: 0
  }
  convolution_param {
    num_output: 512
    pad: 1
    kernel_size: 3
    weight_filler {
      type: "gaussian"
      std: 0.01
    }
    bias_filler {
      type: "constant"
      value: 0
    }
  }
}
layer {
  name: "relu5_3"
  type: "ReLU"
  bottom: "conv5_3"
  top: "conv5_3"
}
layer {
  name: "pool5"
  type: "Pooling"
  bottom: "conv5_3"
  top: "pool5"
  pooling_param {
    pool: MAX
    kernel_size: 2
    stride: 2
  }
}
layer {
  name: "fc6"
  type: "InnerProduct"
  bottom: "pool5"
  top: "fc6"
  param {
    lr_mult: 1
    decay_mult: 1
  }
  param {
    lr_mult: 2
    decay_mult: 0
  }
  inner_product_param {
    num_output: 4096
    weight_filler {
      type: "gaussian"
      std: 0.01
    }
    bias_filler {
      type: "constant"
      value: 0
    }
  }
}
layer {
  name: "relu6"
  type: "ReLU"
  bottom: "fc6"
  top: "fc6"
}
layer {
  name: "drop6"
  type: "Dropout"
  bottom: "fc6"
  top: "fc6"
  dropout_param {
    dropout_ratio: 0.5
  }
}
layer {
  name: "fc7"
  type: "InnerProduct"
  bottom: "fc6"
  top: "fc7"
  param {
    lr_mult: 1
    decay_mult: 1
  }
  param {
    lr_mult: 2
    decay_mult: 0
  }
  inner_product_param {
    num_output: 4096
    weight_filler {
      type: "gaussian"
      std: 0.01
    }
    bias_filler {
      type: "constant"
      value: 0
    }
  }
}
layer {
  name: "relu7"
  type: "ReLU"
  bottom: "fc7"
  top: "fc7"
}
layer {
  name: "drop7"
  type: "Dropout"
  bottom: "fc7"
  top: "fc7"
  dropout_param {
    dropout_ratio: 0.5
  }
}
layer {
  name: "fc_scv_accessible"
  type: "InnerProduct"
  bottom: "fc7"
  top: "fc_scv_accessible"
  param {
    lr_mult: 10
    decay_mult: 1
  }
  param {
    lr_mult: 20
    decay_mult: 0
  }
  inner_product_param {
    num_output: 1
    weight_filler {
      type: "xavier"
      std: 0.01
    }
    bias_filler {
      type: "constant"
      value: 0
    }
  }
}
layer {
  name: "loss"
  type: "EuclideanLoss"
  bottom: "fc_scv_accessible"
  bottom: "label"
  top: "loss"
}
I1205 00:33:37.210808 22338 layer_factory.hpp:77] Creating layer data
I1205 00:33:37.335063 22338 db_lmdb.cpp:35] Opened lmdb /idiap/temp/lmedina/fine-tuning/data/Accessible/train_lmdb
I1205 00:33:37.353920 22338 net.cpp:84] Creating Layer data
I1205 00:33:37.354499 22338 net.cpp:380] data -> data
I1205 00:33:37.355156 22338 net.cpp:380] data -> label
I1205 00:33:37.355916 22338 data_transformer.cpp:25] Loading mean file from: /idiap/temp/lmedina/fine-tuning/vgg16_places365/places365CNN_mean.binaryproto
I1205 00:33:37.373915 22338 data_layer.cpp:45] output data size: 16,3,224,224
I1205 00:33:37.417006 22338 net.cpp:122] Setting up data
I1205 00:33:37.417068 22338 net.cpp:129] Top shape: 16 3 224 224 (2408448)
I1205 00:33:37.417084 22338 net.cpp:129] Top shape: 16 (16)
I1205 00:33:37.417095 22338 net.cpp:137] Memory required for data: 9633856
I1205 00:33:37.417119 22338 layer_factory.hpp:77] Creating layer conv1_1
I1205 00:33:37.417160 22338 net.cpp:84] Creating Layer conv1_1
I1205 00:33:37.417176 22338 net.cpp:406] conv1_1 <- data
I1205 00:33:37.417201 22338 net.cpp:380] conv1_1 -> conv1_1
I1205 00:33:37.418905 22338 net.cpp:122] Setting up conv1_1
I1205 00:33:37.418929 22338 net.cpp:129] Top shape: 16 64 224 224 (51380224)
I1205 00:33:37.418941 22338 net.cpp:137] Memory required for data: 215154752
I1205 00:33:37.418965 22338 layer_factory.hpp:77] Creating layer relu1_1
I1205 00:33:37.418985 22338 net.cpp:84] Creating Layer relu1_1
I1205 00:33:37.418997 22338 net.cpp:406] relu1_1 <- conv1_1
I1205 00:33:37.419011 22338 net.cpp:367] relu1_1 -> conv1_1 (in-place)
I1205 00:33:37.419029 22338 net.cpp:122] Setting up relu1_1
I1205 00:33:37.419042 22338 net.cpp:129] Top shape: 16 64 224 224 (51380224)
I1205 00:33:37.419052 22338 net.cpp:137] Memory required for data: 420675648
I1205 00:33:37.419064 22338 layer_factory.hpp:77] Creating layer conv1_2
I1205 00:33:37.419081 22338 net.cpp:84] Creating Layer conv1_2
I1205 00:33:37.419092 22338 net.cpp:406] conv1_2 <- conv1_1
I1205 00:33:37.419107 22338 net.cpp:380] conv1_2 -> conv1_2
I1205 00:33:37.420382 22338 net.cpp:122] Setting up conv1_2
I1205 00:33:37.420405 22338 net.cpp:129] Top shape: 16 64 224 224 (51380224)
I1205 00:33:37.420416 22338 net.cpp:137] Memory required for data: 626196544
I1205 00:33:37.420434 22338 layer_factory.hpp:77] Creating layer relu1_2
I1205 00:33:37.420450 22338 net.cpp:84] Creating Layer relu1_2
I1205 00:33:37.420467 22338 net.cpp:406] relu1_2 <- conv1_2
I1205 00:33:37.420481 22338 net.cpp:367] relu1_2 -> conv1_2 (in-place)
I1205 00:33:37.420496 22338 net.cpp:122] Setting up relu1_2
I1205 00:33:37.420509 22338 net.cpp:129] Top shape: 16 64 224 224 (51380224)
I1205 00:33:37.420519 22338 net.cpp:137] Memory required for data: 831717440
I1205 00:33:37.420529 22338 layer_factory.hpp:77] Creating layer pool1
I1205 00:33:37.420547 22338 net.cpp:84] Creating Layer pool1
I1205 00:33:37.420557 22338 net.cpp:406] pool1 <- conv1_2
I1205 00:33:37.420572 22338 net.cpp:380] pool1 -> pool1
I1205 00:33:37.420780 22338 net.cpp:122] Setting up pool1
I1205 00:33:37.420799 22338 net.cpp:129] Top shape: 16 64 112 112 (12845056)
I1205 00:33:37.420809 22338 net.cpp:137] Memory required for data: 883097664
I1205 00:33:37.420821 22338 layer_factory.hpp:77] Creating layer conv2_1
I1205 00:33:37.420840 22338 net.cpp:84] Creating Layer conv2_1
I1205 00:33:37.420851 22338 net.cpp:406] conv2_1 <- pool1
I1205 00:33:37.420867 22338 net.cpp:380] conv2_1 -> conv2_1
I1205 00:33:37.425077 22338 net.cpp:122] Setting up conv2_1
I1205 00:33:37.425112 22338 net.cpp:129] Top shape: 16 128 112 112 (25690112)
I1205 00:33:37.425149 22338 net.cpp:137] Memory required for data: 985858112
I1205 00:33:37.425173 22338 layer_factory.hpp:77] Creating layer relu2_1
I1205 00:33:37.425215 22338 net.cpp:84] Creating Layer relu2_1
I1205 00:33:37.425228 22338 net.cpp:406] relu2_1 <- conv2_1
I1205 00:33:37.425243 22338 net.cpp:367] relu2_1 -> conv2_1 (in-place)
I1205 00:33:37.425262 22338 net.cpp:122] Setting up relu2_1
I1205 00:33:37.425312 22338 net.cpp:129] Top shape: 16 128 112 112 (25690112)
I1205 00:33:37.425324 22338 net.cpp:137] Memory required for data: 1088618560
I1205 00:33:37.425335 22338 layer_factory.hpp:77] Creating layer conv2_2
I1205 00:33:37.425357 22338 net.cpp:84] Creating Layer conv2_2
I1205 00:33:37.425391 22338 net.cpp:406] conv2_2 <- conv2_1
I1205 00:33:37.425407 22338 net.cpp:380] conv2_2 -> conv2_2
I1205 00:33:37.428225 22338 net.cpp:122] Setting up conv2_2
I1205 00:33:37.428308 22338 net.cpp:129] Top shape: 16 128 112 112 (25690112)
I1205 00:33:37.428323 22338 net.cpp:137] Memory required for data: 1191379008
I1205 00:33:37.428339 22338 layer_factory.hpp:77] Creating layer relu2_2
I1205 00:33:37.428356 22338 net.cpp:84] Creating Layer relu2_2
I1205 00:33:37.428369 22338 net.cpp:406] relu2_2 <- conv2_2
I1205 00:33:37.428382 22338 net.cpp:367] relu2_2 -> conv2_2 (in-place)
I1205 00:33:37.428398 22338 net.cpp:122] Setting up relu2_2
I1205 00:33:37.428411 22338 net.cpp:129] Top shape: 16 128 112 112 (25690112)
I1205 00:33:37.428421 22338 net.cpp:137] Memory required for data: 1294139456
I1205 00:33:37.428431 22338 layer_factory.hpp:77] Creating layer pool2
I1205 00:33:37.428447 22338 net.cpp:84] Creating Layer pool2
I1205 00:33:37.428457 22338 net.cpp:406] pool2 <- conv2_2
I1205 00:33:37.428470 22338 net.cpp:380] pool2 -> pool2
I1205 00:33:37.428517 22338 net.cpp:122] Setting up pool2
I1205 00:33:37.428531 22338 net.cpp:129] Top shape: 16 128 56 56 (6422528)
I1205 00:33:37.428541 22338 net.cpp:137] Memory required for data: 1319829568
I1205 00:33:37.428552 22338 layer_factory.hpp:77] Creating layer conv3_1
I1205 00:33:37.428570 22338 net.cpp:84] Creating Layer conv3_1
I1205 00:33:37.428586 22338 net.cpp:406] conv3_1 <- pool2
I1205 00:33:37.428601 22338 net.cpp:380] conv3_1 -> conv3_1
I1205 00:33:37.432840 22338 net.cpp:122] Setting up conv3_1
I1205 00:33:37.432884 22338 net.cpp:129] Top shape: 16 256 56 56 (12845056)
I1205 00:33:37.432895 22338 net.cpp:137] Memory required for data: 1371209792
I1205 00:33:37.432915 22338 layer_factory.hpp:77] Creating layer relu3_1
I1205 00:33:37.432931 22338 net.cpp:84] Creating Layer relu3_1
I1205 00:33:37.432942 22338 net.cpp:406] relu3_1 <- conv3_1
I1205 00:33:37.432956 22338 net.cpp:367] relu3_1 -> conv3_1 (in-place)
I1205 00:33:37.432972 22338 net.cpp:122] Setting up relu3_1
I1205 00:33:37.432984 22338 net.cpp:129] Top shape: 16 256 56 56 (12845056)
I1205 00:33:37.432996 22338 net.cpp:137] Memory required for data: 1422590016
I1205 00:33:37.433012 22338 layer_factory.hpp:77] Creating layer conv3_2
I1205 00:33:37.433029 22338 net.cpp:84] Creating Layer conv3_2
I1205 00:33:37.433042 22338 net.cpp:406] conv3_2 <- conv3_1
I1205 00:33:37.433069 22338 net.cpp:380] conv3_2 -> conv3_2
I1205 00:33:37.443404 22338 net.cpp:122] Setting up conv3_2
I1205 00:33:37.443437 22338 net.cpp:129] Top shape: 16 256 56 56 (12845056)
I1205 00:33:37.443508 22338 net.cpp:137] Memory required for data: 1473970240
I1205 00:33:37.443560 22338 layer_factory.hpp:77] Creating layer relu3_2
I1205 00:33:37.443581 22338 net.cpp:84] Creating Layer relu3_2
I1205 00:33:37.443594 22338 net.cpp:406] relu3_2 <- conv3_2
I1205 00:33:37.443634 22338 net.cpp:367] relu3_2 -> conv3_2 (in-place)
I1205 00:33:37.443652 22338 net.cpp:122] Setting up relu3_2
I1205 00:33:37.443665 22338 net.cpp:129] Top shape: 16 256 56 56 (12845056)
I1205 00:33:37.443677 22338 net.cpp:137] Memory required for data: 1525350464
I1205 00:33:37.443711 22338 layer_factory.hpp:77] Creating layer conv3_3
I1205 00:33:37.443735 22338 net.cpp:84] Creating Layer conv3_3
I1205 00:33:37.443747 22338 net.cpp:406] conv3_3 <- conv3_2
I1205 00:33:37.443763 22338 net.cpp:380] conv3_3 -> conv3_3
I1205 00:33:37.457976 22338 net.cpp:122] Setting up conv3_3
I1205 00:33:37.458012 22338 net.cpp:129] Top shape: 16 256 56 56 (12845056)
I1205 00:33:37.458024 22338 net.cpp:137] Memory required for data: 1576730688
I1205 00:33:37.458043 22338 layer_factory.hpp:77] Creating layer relu3_3
I1205 00:33:37.458068 22338 net.cpp:84] Creating Layer relu3_3
I1205 00:33:37.458083 22338 net.cpp:406] relu3_3 <- conv3_3
I1205 00:33:37.458099 22338 net.cpp:367] relu3_3 -> conv3_3 (in-place)
I1205 00:33:37.458117 22338 net.cpp:122] Setting up relu3_3
I1205 00:33:37.458130 22338 net.cpp:129] Top shape: 16 256 56 56 (12845056)
I1205 00:33:37.458142 22338 net.cpp:137] Memory required for data: 1628110912
I1205 00:33:37.458153 22338 layer_factory.hpp:77] Creating layer pool3
I1205 00:33:37.458168 22338 net.cpp:84] Creating Layer pool3
I1205 00:33:37.458179 22338 net.cpp:406] pool3 <- conv3_3
I1205 00:33:37.458194 22338 net.cpp:380] pool3 -> pool3
I1205 00:33:37.458242 22338 net.cpp:122] Setting up pool3
I1205 00:33:37.458257 22338 net.cpp:129] Top shape: 16 256 28 28 (3211264)
I1205 00:33:37.458271 22338 net.cpp:137] Memory required for data: 1640955968
I1205 00:33:37.458281 22338 layer_factory.hpp:77] Creating layer conv4_1
I1205 00:33:37.458300 22338 net.cpp:84] Creating Layer conv4_1
I1205 00:33:37.458312 22338 net.cpp:406] conv4_1 <- pool3
I1205 00:33:37.458328 22338 net.cpp:380] conv4_1 -> conv4_1
I1205 00:33:37.478052 22338 net.cpp:122] Setting up conv4_1
I1205 00:33:37.478121 22338 net.cpp:129] Top shape: 16 512 28 28 (6422528)
I1205 00:33:37.478134 22338 net.cpp:137] Memory required for data: 1666646080
I1205 00:33:37.478154 22338 layer_factory.hpp:77] Creating layer relu4_1
I1205 00:33:37.478200 22338 net.cpp:84] Creating Layer relu4_1
I1205 00:33:37.478215 22338 net.cpp:406] relu4_1 <- conv4_1
I1205 00:33:37.478233 22338 net.cpp:367] relu4_1 -> conv4_1 (in-place)
I1205 00:33:37.478276 22338 net.cpp:122] Setting up relu4_1
I1205 00:33:37.478291 22338 net.cpp:129] Top shape: 16 512 28 28 (6422528)
I1205 00:33:37.478301 22338 net.cpp:137] Memory required for data: 1692336192
I1205 00:33:37.478312 22338 layer_factory.hpp:77] Creating layer conv4_2
I1205 00:33:37.478387 22338 net.cpp:84] Creating Layer conv4_2
I1205 00:33:37.478401 22338 net.cpp:406] conv4_2 <- conv4_1
I1205 00:33:37.478539 22338 net.cpp:380] conv4_2 -> conv4_2
I1205 00:33:37.516891 22338 net.cpp:122] Setting up conv4_2
I1205 00:33:37.516983 22338 net.cpp:129] Top shape: 16 512 28 28 (6422528)
I1205 00:33:37.517032 22338 net.cpp:137] Memory required for data: 1718026304
I1205 00:33:37.517063 22338 layer_factory.hpp:77] Creating layer relu4_2
I1205 00:33:37.517138 22338 net.cpp:84] Creating Layer relu4_2
I1205 00:33:37.517156 22338 net.cpp:406] relu4_2 <- conv4_2
I1205 00:33:37.517211 22338 net.cpp:367] relu4_2 -> conv4_2 (in-place)
I1205 00:33:37.517231 22338 net.cpp:122] Setting up relu4_2
I1205 00:33:37.517288 22338 net.cpp:129] Top shape: 16 512 28 28 (6422528)
I1205 00:33:37.517300 22338 net.cpp:137] Memory required for data: 1743716416
I1205 00:33:37.517312 22338 layer_factory.hpp:77] Creating layer conv4_3
I1205 00:33:37.517359 22338 net.cpp:84] Creating Layer conv4_3
I1205 00:33:37.517374 22338 net.cpp:406] conv4_3 <- conv4_2
I1205 00:33:37.517390 22338 net.cpp:380] conv4_3 -> conv4_3
I1205 00:33:37.562908 22338 net.cpp:122] Setting up conv4_3
I1205 00:33:37.563052 22338 net.cpp:129] Top shape: 16 512 28 28 (6422528)
I1205 00:33:37.563066 22338 net.cpp:137] Memory required for data: 1769406528
I1205 00:33:37.563130 22338 layer_factory.hpp:77] Creating layer relu4_3
I1205 00:33:37.563156 22338 net.cpp:84] Creating Layer relu4_3
I1205 00:33:37.563315 22338 net.cpp:406] relu4_3 <- conv4_3
I1205 00:33:37.563379 22338 net.cpp:367] relu4_3 -> conv4_3 (in-place)
I1205 00:33:37.563400 22338 net.cpp:122] Setting up relu4_3
I1205 00:33:37.563412 22338 net.cpp:129] Top shape: 16 512 28 28 (6422528)
I1205 00:33:37.563475 22338 net.cpp:137] Memory required for data: 1795096640
I1205 00:33:37.563486 22338 layer_factory.hpp:77] Creating layer pool4
I1205 00:33:37.563549 22338 net.cpp:84] Creating Layer pool4
I1205 00:33:37.563563 22338 net.cpp:406] pool4 <- conv4_3
I1205 00:33:37.563617 22338 net.cpp:380] pool4 -> pool4
I1205 00:33:37.563760 22338 net.cpp:122] Setting up pool4
I1205 00:33:37.563781 22338 net.cpp:129] Top shape: 16 512 14 14 (1605632)
I1205 00:33:37.563791 22338 net.cpp:137] Memory required for data: 1801519168
I1205 00:33:37.563802 22338 layer_factory.hpp:77] Creating layer conv5_1
I1205 00:33:37.563822 22338 net.cpp:84] Creating Layer conv5_1
I1205 00:33:37.563833 22338 net.cpp:406] conv5_1 <- pool4
I1205 00:33:37.563849 22338 net.cpp:380] conv5_1 -> conv5_1
I1205 00:33:37.590523 22338 net.cpp:122] Setting up conv5_1
I1205 00:33:37.590569 22338 net.cpp:129] Top shape: 16 512 14 14 (1605632)
I1205 00:33:37.590584 22338 net.cpp:137] Memory required for data: 1807941696
I1205 00:33:37.590600 22338 layer_factory.hpp:77] Creating layer relu5_1
I1205 00:33:37.590618 22338 net.cpp:84] Creating Layer relu5_1
I1205 00:33:37.590636 22338 net.cpp:406] relu5_1 <- conv5_1
I1205 00:33:37.590652 22338 net.cpp:367] relu5_1 -> conv5_1 (in-place)
I1205 00:33:37.590670 22338 net.cpp:122] Setting up relu5_1
I1205 00:33:37.590683 22338 net.cpp:129] Top shape: 16 512 14 14 (1605632)
I1205 00:33:37.590694 22338 net.cpp:137] Memory required for data: 1814364224
I1205 00:33:37.590705 22338 layer_factory.hpp:77] Creating layer conv5_2
I1205 00:33:37.590725 22338 net.cpp:84] Creating Layer conv5_2
I1205 00:33:37.590739 22338 net.cpp:406] conv5_2 <- conv5_1
I1205 00:33:37.590754 22338 net.cpp:380] conv5_2 -> conv5_2
I1205 00:33:37.617061 22338 net.cpp:122] Setting up conv5_2
I1205 00:33:37.617113 22338 net.cpp:129] Top shape: 16 512 14 14 (1605632)
I1205 00:33:37.617125 22338 net.cpp:137] Memory required for data: 1820786752
I1205 00:33:37.617141 22338 layer_factory.hpp:77] Creating layer relu5_2
I1205 00:33:37.617159 22338 net.cpp:84] Creating Layer relu5_2
I1205 00:33:37.617172 22338 net.cpp:406] relu5_2 <- conv5_2
I1205 00:33:37.617185 22338 net.cpp:367] relu5_2 -> conv5_2 (in-place)
I1205 00:33:37.617202 22338 net.cpp:122] Setting up relu5_2
I1205 00:33:37.617214 22338 net.cpp:129] Top shape: 16 512 14 14 (1605632)
I1205 00:33:37.617224 22338 net.cpp:137] Memory required for data: 1827209280
I1205 00:33:37.617235 22338 layer_factory.hpp:77] Creating layer conv5_3
I1205 00:33:37.617254 22338 net.cpp:84] Creating Layer conv5_3
I1205 00:33:37.617266 22338 net.cpp:406] conv5_3 <- conv5_2
I1205 00:33:37.617281 22338 net.cpp:380] conv5_3 -> conv5_3
I1205 00:33:37.643158 22338 net.cpp:122] Setting up conv5_3
I1205 00:33:37.643251 22338 net.cpp:129] Top shape: 16 512 14 14 (1605632)
I1205 00:33:37.643265 22338 net.cpp:137] Memory required for data: 1833631808
I1205 00:33:37.643285 22338 layer_factory.hpp:77] Creating layer relu5_3
I1205 00:33:37.643304 22338 net.cpp:84] Creating Layer relu5_3
I1205 00:33:37.643318 22338 net.cpp:406] relu5_3 <- conv5_3
I1205 00:33:37.643345 22338 net.cpp:367] relu5_3 -> conv5_3 (in-place)
I1205 00:33:37.643363 22338 net.cpp:122] Setting up relu5_3
I1205 00:33:37.643376 22338 net.cpp:129] Top shape: 16 512 14 14 (1605632)
I1205 00:33:37.643386 22338 net.cpp:137] Memory required for data: 1840054336
I1205 00:33:37.643398 22338 layer_factory.hpp:77] Creating layer pool5
I1205 00:33:37.643414 22338 net.cpp:84] Creating Layer pool5
I1205 00:33:37.643430 22338 net.cpp:406] pool5 <- conv5_3
I1205 00:33:37.643443 22338 net.cpp:380] pool5 -> pool5
I1205 00:33:37.643501 22338 net.cpp:122] Setting up pool5
I1205 00:33:37.643518 22338 net.cpp:129] Top shape: 16 512 7 7 (401408)
I1205 00:33:37.643528 22338 net.cpp:137] Memory required for data: 1841659968
I1205 00:33:37.643538 22338 layer_factory.hpp:77] Creating layer fc6
I1205 00:33:37.643570 22338 net.cpp:84] Creating Layer fc6
I1205 00:33:37.643584 22338 net.cpp:406] fc6 <- pool5
I1205 00:33:37.643597 22338 net.cpp:380] fc6 -> fc6
I1205 00:33:38.853775 22338 net.cpp:122] Setting up fc6
I1205 00:33:38.853824 22338 net.cpp:129] Top shape: 16 4096 (65536)
I1205 00:33:38.853837 22338 net.cpp:137] Memory required for data: 1841922112
I1205 00:33:38.853857 22338 layer_factory.hpp:77] Creating layer relu6
I1205 00:33:38.853881 22338 net.cpp:84] Creating Layer relu6
I1205 00:33:38.853896 22338 net.cpp:406] relu6 <- fc6
I1205 00:33:38.853911 22338 net.cpp:367] relu6 -> fc6 (in-place)
I1205 00:33:38.853930 22338 net.cpp:122] Setting up relu6
I1205 00:33:38.853945 22338 net.cpp:129] Top shape: 16 4096 (65536)
I1205 00:33:38.853955 22338 net.cpp:137] Memory required for data: 1842184256
I1205 00:33:38.853967 22338 layer_factory.hpp:77] Creating layer drop6
I1205 00:33:38.853986 22338 net.cpp:84] Creating Layer drop6
I1205 00:33:38.854010 22338 net.cpp:406] drop6 <- fc6
I1205 00:33:38.854023 22338 net.cpp:367] drop6 -> fc6 (in-place)
I1205 00:33:38.854065 22338 net.cpp:122] Setting up drop6
I1205 00:33:38.854084 22338 net.cpp:129] Top shape: 16 4096 (65536)
I1205 00:33:38.854094 22338 net.cpp:137] Memory required for data: 1842446400
I1205 00:33:38.854106 22338 layer_factory.hpp:77] Creating layer fc7
I1205 00:33:38.854125 22338 net.cpp:84] Creating Layer fc7
I1205 00:33:38.854135 22338 net.cpp:406] fc7 <- fc6
I1205 00:33:38.854151 22338 net.cpp:380] fc7 -> fc7
I1205 00:33:39.042265 22338 net.cpp:122] Setting up fc7
I1205 00:33:39.042316 22338 net.cpp:129] Top shape: 16 4096 (65536)
I1205 00:33:39.042328 22338 net.cpp:137] Memory required for data: 1842708544
I1205 00:33:39.042373 22338 layer_factory.hpp:77] Creating layer relu7
I1205 00:33:39.042395 22338 net.cpp:84] Creating Layer relu7
I1205 00:33:39.042409 22338 net.cpp:406] relu7 <- fc7
I1205 00:33:39.042425 22338 net.cpp:367] relu7 -> fc7 (in-place)
I1205 00:33:39.042445 22338 net.cpp:122] Setting up relu7
I1205 00:33:39.042459 22338 net.cpp:129] Top shape: 16 4096 (65536)
I1205 00:33:39.042470 22338 net.cpp:137] Memory required for data: 1842970688
I1205 00:33:39.042481 22338 layer_factory.hpp:77] Creating layer drop7
I1205 00:33:39.042497 22338 net.cpp:84] Creating Layer drop7
I1205 00:33:39.042510 22338 net.cpp:406] drop7 <- fc7
I1205 00:33:39.042524 22338 net.cpp:367] drop7 -> fc7 (in-place)
I1205 00:33:39.042563 22338 net.cpp:122] Setting up drop7
I1205 00:33:39.042582 22338 net.cpp:129] Top shape: 16 4096 (65536)
I1205 00:33:39.042593 22338 net.cpp:137] Memory required for data: 1843232832
I1205 00:33:39.042604 22338 layer_factory.hpp:77] Creating layer fc_scv_accessible
I1205 00:33:39.042623 22338 net.cpp:84] Creating Layer fc_scv_accessible
I1205 00:33:39.042634 22338 net.cpp:406] fc_scv_accessible <- fc7
I1205 00:33:39.042649 22338 net.cpp:380] fc_scv_accessible -> fc_scv_accessible
I1205 00:33:39.042814 22338 net.cpp:122] Setting up fc_scv_accessible
I1205 00:33:39.042832 22338 net.cpp:129] Top shape: 16 1 (16)
I1205 00:33:39.042845 22338 net.cpp:137] Memory required for data: 1843232896
I1205 00:33:39.042860 22338 layer_factory.hpp:77] Creating layer loss
I1205 00:33:39.042874 22338 net.cpp:84] Creating Layer loss
I1205 00:33:39.042893 22338 net.cpp:406] loss <- fc_scv_accessible
I1205 00:33:39.042906 22338 net.cpp:406] loss <- label
I1205 00:33:39.042922 22338 net.cpp:380] loss -> loss
I1205 00:33:39.042970 22338 net.cpp:122] Setting up loss
…
I1205 00:33:39.045105 22338 net.cpp:294] The NetState phase (1) differed from the phase (0) specified by a rule in layer data
I1205 00:33:39.045380 22338 net.cpp:51] Initializing net from parameters: 
name: "VGG-Places365-SCV-Accessible"
state {
  phase: TEST
}
layer {
  name: "data"
  type: "Data"
  top: "data"
  top: "label"
  include {
    phase: TEST
  }
  transform_param {
    mirror: false
    crop_size: 224
    mean_file: "/idiap/temp/lmedina/fine-tuning/vgg16_places365/places365CNN_mean.binaryproto"
  }
  data_param {
    source: "/idiap/temp/lmedina/fine-tuning/data/Accessible/validation_lmdb"
    batch_size: 16
    backend: LMDB
  }
}
layer {
  name: "conv1_1"
  type: "Convolution"
  bottom: "data"
  top: "conv1_1"
  param {
    lr_mult: 1
    decay_mult: 1
  }
  param {
    lr_mult: 2
    decay_mult: 0
  }
  convolution_param {
    num_output: 64
    pad: 1
    kernel_size: 3
    weight_filler {
      type: "gaussian"
      std: 0.01
    }
    bias_filler {
      type: "constant"
      value: 0
    }
  }
}
layer {
  name: "relu1_1"
  type: "ReLU"
  bottom: "conv1_1"
  top: "conv1_1"
}
layer {
  name: "conv1_2"
  type: "Convolution"
  bottom: "conv1_1"
  top: "conv1_2"
  param {
    lr_mult: 1
    decay_mult: 1
  }
  param {
    lr_mult: 2
    decay_mult: 0
  }
  convolution_param {
    num_output: 64
    pad: 1
    kernel_size: 3
    weight_filler {
      type: "gaussian"
      std: 0.01
    }
    bias_filler {
      type: "constant"
      value: 0
    }
  }
}
layer {
  name: "relu1_2"
  type: "ReLU"
  bottom: "conv1_2"
  top: "conv1_2"
}
layer {
  name: "pool1"
  type: "Pooling"
  bottom: "conv1_2"
  top: "pool1"
  pooling_param {
    pool: MAX
    kernel_size: 2
    stride: 2
  }
}
layer {
  name: "conv2_1"
  type: "Convolution"
  bottom: "pool1"
  top: "conv2_1"
  param {
    lr_mult: 1
    decay_mult: 1
  }
  param {
    lr_mult: 2
    decay_mult: 0
  }
  convolution_param {
    num_output: 128
    pad: 1
    kernel_size: 3
    weight_filler {
      type: "gaussian"
      std: 0.01
    }
    bias_filler {
      type: "constant"
      value: 0
    }
  }
}
layer {
  name: "relu2_1"
  type: "ReLU"
  bottom: "conv2_1"
  top: "conv2_1"
}
layer {
  name: "conv2_2"
  type: "Convolution"
  bottom: "conv2_1"
  top: "conv2_2"
  param {
    lr_mult: 1
    decay_mult: 1
  }
  param {
    lr_mult: 2
    decay_mult: 0
  }
  convolution_param {
    num_output: 128
    pad: 1
    kernel_size: 3
    weight_filler {
      type: "gaussian"
      std: 0.01
    }
    bias_filler {
      type: "constant"
      value: 0
    }
  }
}
layer {
  name: "relu2_2"
  type: "ReLU"
  bottom: "conv2_2"
  top: "conv2_2"
}
layer {
  name: "pool2"
  type: "Pooling"
  bottom: "conv2_2"
  top: "pool2"
  pooling_param {
    pool: MAX
    kernel_size: 2
    stride: 2
  }
}
layer {
  name: "conv3_1"
  type: "Convolution"
  bottom: "pool2"
  top: "conv3_1"
  param {
    lr_mult: 1
    decay_mult: 1
  }
  param {
    lr_mult: 2
    decay_mult: 0
  }
  convolution_param {
    num_output: 256
    pad: 1
    kernel_size: 3
    weight_filler {
      type: "gaussian"
      std: 0.01
    }
    bias_filler {
      type: "constant"
      value: 0
    }
  }
}
layer {
  name: "relu3_1"
  type: "ReLU"
  bottom: "conv3_1"
  top: "conv3_1"
}
layer {
  name: "conv3_2"
  type: "Convolution"
  bottom: "conv3_1"
  top: "conv3_2"
  param {
    lr_mult: 1
    decay_mult: 1
  }
  param {
    lr_mult: 2
    decay_mult: 0
  }
  convolution_param {
    num_output: 256
    pad: 1
    kernel_size: 3
    weight_filler {
      type: "gaussian"
      std: 0.01
    }
    bias_filler {
      type: "constant"
      value: 0
    }
  }
}
layer {
  name: "relu3_2"
  type: "ReLU"
  bottom: "conv3_2"
  top: "conv3_2"
}
layer {
  name: "conv3_3"
  type: "Convolution"
  bottom: "conv3_2"
  top: "conv3_3"
  param {
    lr_mult: 1
    decay_mult: 1
  }
  param {
    lr_mult: 2
    decay_mult: 0
  }
  convolution_param {
    num_output: 256
    pad: 1
    kernel_size: 3
    weight_filler {
      type: "gaussian"
      std: 0.01
    }
    bias_filler {
      type: "constant"
      value: 0
    }
  }
}
layer {
  name: "relu3_3"
  type: "ReLU"
  bottom: "conv3_3"
  top: "conv3_3"
}
layer {
  name: "pool3"
  type: "Pooling"
  bottom: "conv3_3"
  top: "pool3"
  pooling_param {
    pool: MAX
    kernel_size: 2
    stride: 2
  }
}
layer {
  name: "conv4_1"
  type: "Convolution"
  bottom: "pool3"
  top: "conv4_1"
  param {
    lr_mult: 1
    decay_mult: 1
  }
  param {
    lr_mult: 2
    decay_mult: 0
  }
  convolution_param {
    num_output: 512
    pad: 1
    kernel_size: 3
    weight_filler {
      type: "gaussian"
      std: 0.01
    }
    bias_filler {
      type: "constant"
      value: 0
    }
  }
}
layer {
  name: "relu4_1"
  type: "ReLU"
  bottom: "conv4_1"
  top: "conv4_1"
}
layer {
  name: "conv4_2"
  type: "Convolution"
  bottom: "conv4_1"
  top: "conv4_2"
  param {
    lr_mult: 1
    decay_mult: 1
  }
  param {
    lr_mult: 2
    decay_mult: 0
  }
  convolution_param {
    num_output: 512
    pad: 1
    kernel_size: 3
    weight_filler {
      type: "gaussian"
      std: 0.01
    }
    bias_filler {
      type: "constant"
      value: 0
    }
  }
}
layer {
  name: "relu4_2"
  type: "ReLU"
  bottom: "conv4_2"
  top: "conv4_2"
}
layer {
  name: "conv4_3"
  type: "Convolution"
  bottom: "conv4_2"
  top: "conv4_3"
  param {
    lr_mult: 1
    decay_mult: 1
  }
  param {
    lr_mult: 2
    decay_mult: 0
  }
  convolution_param {
    num_output: 512
    pad: 1
    kernel_size: 3
    weight_filler {
      type: "gaussian"
      std: 0.01
    }
    bias_filler {
      type: "constant"
      value: 0
    }
  }
}
layer {
  name: "relu4_3"
  type: "ReLU"
  bottom: "conv4_3"
  top: "conv4_3"
}
layer {
  name: "pool4"
  type: "Pooling"
  bottom: "conv4_3"
  top: "pool4"
  pooling_param {
    pool: MAX
    kernel_size: 2
    stride: 2
  }
}
layer {
  name: "conv5_1"
  type: "Convolution"
  bottom: "pool4"
  top: "conv5_1"
  param {
    lr_mult: 1
    decay_mult: 1
  }
  param {
    lr_mult: 2
    decay_mult: 0
  }
  convolution_param {
    num_output: 512
    pad: 1
    kernel_size: 3
    weight_filler {
      type: "gaussian"
      std: 0.01
    }
    bias_filler {
      type: "constant"
      value: 0
    }
  }
}
layer {
  name: "relu5_1"
  type: "ReLU"
  bottom: "conv5_1"
  top: "conv5_1"
}
layer {
  name: "conv5_2"
  type: "Convolution"
  bottom: "conv5_1"
  top: "conv5_2"
  param {
    lr_mult: 1
    decay_mult: 1
  }
  param {
    lr_mult: 2
    decay_mult: 0
  }
  convolution_param {
    num_output: 512
    pad: 1
    kernel_size: 3
    weight_filler {
      type: "gaussian"
      std: 0.01
    }
    bias_filler {
      type: "constant"
      value: 0
    }
  }
}
layer {
  name: "relu5_2"
  type: "ReLU"
  bottom: "conv5_2"
  top: "conv5_2"
}
layer {
  name: "conv5_3"
  type: "Convolution"
  bottom: "conv5_2"
  top: "conv5_3"
  param {
    lr_mult: 1
    decay_mult: 1
  }
  param {
    lr_mult: 2
    decay_mult: 0
  }
  convolution_param {
    num_output: 512
    pad: 1
    kernel_size: 3
    weight_filler {
      type: "gaussian"
      std: 0.01
    }
    bias_filler {
      type: "constant"
      value: 0
    }
  }
}
layer {
  name: "relu5_3"
  type: "ReLU"
  bottom: "conv5_3"
  top: "conv5_3"
}
layer {
  name: "pool5"
  type: "Pooling"
  bottom: "conv5_3"
  top: "pool5"
  pooling_param {
    pool: MAX
    kernel_size: 2
    stride: 2
  }
}
layer {
  name: "fc6"
  type: "InnerProduct"
  bottom: "pool5"
  top: "fc6"
  param {
    lr_mult: 1
    decay_mult: 1
  }
  param {
    lr_mult: 2
    decay_mult: 0
  }
  inner_product_param {
    num_output: 4096
    weight_filler {
      type: "gaussian"
      std: 0.01
    }
    bias_filler {
      type: "constant"
      value: 0
    }
  }
}
layer {
  name: "relu6"
  type: "ReLU"
  bottom: "fc6"
  top: "fc6"
}
layer {
  name: "drop6"
  type: "Dropout"
  bottom: "fc6"
  top: "fc6"
  dropout_param {
    dropout_ratio: 0.5
  }
}
layer {
  name: "fc7"
  type: "InnerProduct"
  bottom: "fc6"
  top: "fc7"
  param {
    lr_mult: 1
    decay_mult: 1
  }
  param {
    lr_mult: 2
    decay_mult: 0
  }
  inner_product_param {
    num_output: 4096
    weight_filler {
      type: "gaussian"
      std: 0.01
    }
    bias_filler {
      type: "constant"
      value: 0
    }
  }
}
layer {
  name: "relu7"
  type: "ReLU"
  bottom: "fc7"
  top: "fc7"
}
layer {
  name: "drop7"
  type: "Dropout"
  bottom: "fc7"
  top: "fc7"
  dropout_param {
    dropout_ratio: 0.5
  }
}
layer {
  name: "fc_scv_accessible"
  type: "InnerProduct"
  bottom: "fc7"
  top: "fc_scv_accessible"
  param {
    lr_mult: 10
    decay_mult: 1
  }
  param {
    lr_mult: 20
    decay_mult: 0
  }
  inner_product_param {
    num_output: 1
    weight_filler {
      type: "xavier"
      std: 0.01
    }
    bias_filler {
      type: "constant"
      value: 0
    }
  }
}
layer {
  name: "loss"
  type: "EuclideanLoss"
  bottom: "fc_scv_accessible"
  bottom: "label"
  top: "loss"
}
layer {
  name: "losttest"
  type: "EuclideanLoss"
  bottom: "fc_scv_accessible"
  bottom: "label"
  top: "losttest"
  include {
    phase: TEST
  }
}
I1205 00:33:39.045560 22338 layer_factory.hpp:77] Creating layer data
I1205 00:33:39.145529 22338 db_lmdb.cpp:35] Opened lmdb /idiap/temp/lmedina/fine-tuning/data/Accessible/validation_lmdb
I1205 00:33:39.167090 22338 net.cpp:84] Creating Layer data
I1205 00:33:39.172663 22338 net.cpp:380] data -> data
I1205 00:33:39.173244 22338 net.cpp:380] data -> label
I1205 00:33:39.173300 22338 data_transformer.cpp:25] Loading mean file from: /idiap/temp/lmedina/fine-tuning/vgg16_places365/places365CNN_mean.binaryproto
I1205 00:33:39.184463 22338 data_layer.cpp:45] output data size: 16,3,224,224
I1205 00:33:39.219892 22338 net.cpp:122] Setting up data
I1205 00:33:39.219941 22338 net.cpp:129] Top shape: 16 3 224 224 (2408448)
I1205 00:33:39.219960 22338 net.cpp:129] Top shape: 16 (16)
I1205 00:33:39.219975 22338 net.cpp:137] Memory required for data: 9633856
I1205 00:33:39.219995 22338 layer_factory.hpp:77] Creating layer label_data_1_split
I1205 00:33:39.220023 22338 net.cpp:84] Creating Layer label_data_1_split
I1205 00:33:39.220039 22338 net.cpp:406] label_data_1_split <- label
I1205 00:33:39.220059 22338 net.cpp:380] label_data_1_split -> label_data_1_split_0
I1205 00:33:39.220083 22338 net.cpp:380] label_data_1_split -> label_data_1_split_1
I1205 00:33:39.220157 22338 net.cpp:122] Setting up label_data_1_split
I1205 00:33:39.220180 22338 net.cpp:129] Top shape: 16 (16)
I1205 00:33:39.220196 22338 net.cpp:129] Top shape: 16 (16)
I1205 00:33:39.220209 22338 net.cpp:137] Memory required for data: 9633984
I1205 00:33:39.220226 22338 layer_factory.hpp:77] Creating layer conv1_1
I1205 00:33:39.220252 22338 net.cpp:84] Creating Layer conv1_1
I1205 00:33:39.220268 22338 net.cpp:406] conv1_1 <- data
I1205 00:33:39.220288 22338 net.cpp:380] conv1_1 -> conv1_1
I1205 00:33:39.220715 22338 net.cpp:122] Setting up conv1_1
I1205 00:33:39.220737 22338 net.cpp:129] Top shape: 16 64 224 224 (51380224)
I1205 00:33:39.220752 22338 net.cpp:137] Memory required for data: 215154880
I1205 00:33:39.220777 22338 layer_factory.hpp:77] Creating layer relu1_1
I1205 00:33:39.220798 22338 net.cpp:84] Creating Layer relu1_1
I1205 00:33:39.220813 22338 net.cpp:406] relu1_1 <- conv1_1
I1205 00:33:39.220830 22338 net.cpp:367] relu1_1 -> conv1_1 (in-place)
I1205 00:33:39.220849 22338 net.cpp:122] Setting up relu1_1
I1205 00:33:39.220865 22338 net.cpp:129] Top shape: 16 64 224 224 (51380224)
I1205 00:33:39.220880 22338 net.cpp:137] Memory required for data: 420675776
I1205 00:33:39.220894 22338 layer_factory.hpp:77] Creating layer conv1_2
I1205 00:33:39.220916 22338 net.cpp:84] Creating Layer conv1_2
I1205 00:33:39.220932 22338 net.cpp:406] conv1_2 <- conv1_1
I1205 00:33:39.220957 22338 net.cpp:380] conv1_2 -> conv1_2
I1205 00:33:39.223574 22338 net.cpp:122] Setting up conv1_2
I1205 00:33:39.223610 22338 net.cpp:129] Top shape: 16 64 224 224 (51380224)
I1205 00:33:39.223626 22338 net.cpp:137] Memory required for data: 626196672
I1205 00:33:39.223652 22338 layer_factory.hpp:77] Creating layer relu1_2
I1205 00:33:39.223675 22338 net.cpp:84] Creating Layer relu1_2
I1205 00:33:39.223690 22338 net.cpp:406] relu1_2 <- conv1_2
I1205 00:33:39.223708 22338 net.cpp:367] relu1_2 -> conv1_2 (in-place)
I1205 00:33:39.223729 22338 net.cpp:122] Setting up relu1_2
I1205 00:33:39.223747 22338 net.cpp:129] Top shape: 16 64 224 224 (51380224)
I1205 00:33:39.223760 22338 net.cpp:137] Memory required for data: 831717568
I1205 00:33:39.223780 22338 layer_factory.hpp:77] Creating layer pool1
I1205 00:33:39.223799 22338 net.cpp:84] Creating Layer pool1
I1205 00:33:39.223814 22338 net.cpp:406] pool1 <- conv1_2
I1205 00:33:39.223831 22338 net.cpp:380] pool1 -> pool1
I1205 00:33:39.223901 22338 net.cpp:122] Setting up pool1
I1205 00:33:39.223920 22338 net.cpp:129] Top shape: 16 64 112 112 (12845056)
I1205 00:33:39.223934 22338 net.cpp:137] Memory required for data: 883097792
I1205 00:33:39.223949 22338 layer_factory.hpp:77] Creating layer conv2_1
I1205 00:33:39.223971 22338 net.cpp:84] Creating Layer conv2_1
I1205 00:33:39.223986 22338 net.cpp:406] conv2_1 <- pool1
I1205 00:33:39.224005 22338 net.cpp:380] conv2_1 -> conv2_1
I1205 00:33:39.226020 22338 net.cpp:122] Setting up conv2_1
I1205 00:33:39.226049 22338 net.cpp:129] Top shape: 16 128 112 112 (25690112)
I1205 00:33:39.226064 22338 net.cpp:137] Memory required for data: 985858240
I1205 00:33:39.226089 22338 layer_factory.hpp:77] Creating layer relu2_1
I1205 00:33:39.226110 22338 net.cpp:84] Creating Layer relu2_1
I1205 00:33:39.226126 22338 net.cpp:406] relu2_1 <- conv2_1
I1205 00:33:39.226145 22338 net.cpp:367] relu2_1 -> conv2_1 (in-place)
I1205 00:33:39.226164 22338 net.cpp:122] Setting up relu2_1
I1205 00:33:39.226181 22338 net.cpp:129] Top shape: 16 128 112 112 (25690112)
I1205 00:33:39.226194 22338 net.cpp:137] Memory required for data: 1088618688
I1205 00:33:39.226208 22338 layer_factory.hpp:77] Creating layer conv2_2
I1205 00:33:39.226233 22338 net.cpp:84] Creating Layer conv2_2
I1205 00:33:39.226248 22338 net.cpp:406] conv2_2 <- conv2_1
I1205 00:33:39.226266 22338 net.cpp:380] conv2_2 -> conv2_2
I1205 00:33:39.228559 22338 net.cpp:122] Setting up conv2_2
I1205 00:33:39.228595 22338 net.cpp:129] Top shape: 16 128 112 112 (25690112)
I1205 00:33:39.228610 22338 net.cpp:137] Memory required for data: 1191379136
I1205 00:33:39.228639 22338 layer_factory.hpp:77] Creating layer relu2_2
I1205 00:33:39.228657 22338 net.cpp:84] Creating Layer relu2_2
I1205 00:33:39.228672 22338 net.cpp:406] relu2_2 <- conv2_2
I1205 00:33:39.228689 22338 net.cpp:367] relu2_2 -> conv2_2 (in-place)
I1205 00:33:39.228708 22338 net.cpp:122] Setting up relu2_2
I1205 00:33:39.228723 22338 net.cpp:129] Top shape: 16 128 112 112 (25690112)
I1205 00:33:39.228736 22338 net.cpp:137] Memory required for data: 1294139584
I1205 00:33:39.228749 22338 layer_factory.hpp:77] Creating layer pool2
I1205 00:33:39.228766 22338 net.cpp:84] Creating Layer pool2
I1205 00:33:39.228780 22338 net.cpp:406] pool2 <- conv2_2
I1205 00:33:39.228796 22338 net.cpp:380] pool2 -> pool2
I1205 00:33:39.228857 22338 net.cpp:122] Setting up pool2
I1205 00:33:39.228874 22338 net.cpp:129] Top shape: 16 128 56 56 (6422528)
I1205 00:33:39.228888 22338 net.cpp:137] Memory required for data: 1319829696
I1205 00:33:39.228901 22338 layer_factory.hpp:77] Creating layer conv3_1
I1205 00:33:39.228922 22338 net.cpp:84] Creating Layer conv3_1
I1205 00:33:39.228936 22338 net.cpp:406] conv3_1 <- pool2
I1205 00:33:39.228955 22338 net.cpp:380] conv3_1 -> conv3_1
I1205 00:33:39.233636 22338 net.cpp:122] Setting up conv3_1
I1205 00:33:39.233664 22338 net.cpp:129] Top shape: 16 256 56 56 (12845056)
I1205 00:33:39.233677 22338 net.cpp:137] Memory required for data: 1371209920
I1205 00:33:39.233701 22338 layer_factory.hpp:77] Creating layer relu3_1
I1205 00:33:39.233721 22338 net.cpp:84] Creating Layer relu3_1
I1205 00:33:39.233736 22338 net.cpp:406] relu3_1 <- conv3_1
I1205 00:33:39.233752 22338 net.cpp:367] relu3_1 -> conv3_1 (in-place)
I1205 00:33:39.233772 22338 net.cpp:122] Setting up relu3_1
I1205 00:33:39.233786 22338 net.cpp:129] Top shape: 16 256 56 56 (12845056)
I1205 00:33:39.233799 22338 net.cpp:137] Memory required for data: 1422590144
I1205 00:33:39.233813 22338 layer_factory.hpp:77] Creating layer conv3_2
I1205 00:33:39.233834 22338 net.cpp:84] Creating Layer conv3_2
I1205 00:33:39.233847 22338 net.cpp:406] conv3_2 <- conv3_1
I1205 00:33:39.233865 22338 net.cpp:380] conv3_2 -> conv3_2
I1205 00:33:39.242652 22338 net.cpp:122] Setting up conv3_2
I1205 00:33:39.242684 22338 net.cpp:129] Top shape: 16 256 56 56 (12845056)
I1205 00:33:39.242699 22338 net.cpp:137] Memory required for data: 1473970368
I1205 00:33:39.242717 22338 layer_factory.hpp:77] Creating layer relu3_2
I1205 00:33:39.242735 22338 net.cpp:84] Creating Layer relu3_2
I1205 00:33:39.242749 22338 net.cpp:406] relu3_2 <- conv3_2
I1205 00:33:39.242766 22338 net.cpp:367] relu3_2 -> conv3_2 (in-place)
I1205 00:33:39.242785 22338 net.cpp:122] Setting up relu3_2
I1205 00:33:39.242800 22338 net.cpp:129] Top shape: 16 256 56 56 (12845056)
I1205 00:33:39.242813 22338 net.cpp:137] Memory required for data: 1525350592
I1205 00:33:39.242826 22338 layer_factory.hpp:77] Creating layer conv3_3
I1205 00:33:39.242849 22338 net.cpp:84] Creating Layer conv3_3
I1205 00:33:39.242862 22338 net.cpp:406] conv3_3 <- conv3_2
I1205 00:33:39.242879 22338 net.cpp:380] conv3_3 -> conv3_3
I1205 00:33:39.252159 22338 net.cpp:122] Setting up conv3_3
I1205 00:33:39.252192 22338 net.cpp:129] Top shape: 16 256 56 56 (12845056)
I1205 00:33:39.252205 22338 net.cpp:137] Memory required for data: 1576730816
I1205 00:33:39.252224 22338 layer_factory.hpp:77] Creating layer relu3_3
I1205 00:33:39.252243 22338 net.cpp:84] Creating Layer relu3_3
I1205 00:33:39.252257 22338 net.cpp:406] relu3_3 <- conv3_3
I1205 00:33:39.252274 22338 net.cpp:367] relu3_3 -> conv3_3 (in-place)
I1205 00:33:39.252292 22338 net.cpp:122] Setting up relu3_3
I1205 00:33:39.252308 22338 net.cpp:129] Top shape: 16 256 56 56 (12845056)
I1205 00:33:39.252321 22338 net.cpp:137] Memory required for data: 1628111040
I1205 00:33:39.252333 22338 layer_factory.hpp:77] Creating layer pool3
I1205 00:33:39.252351 22338 net.cpp:84] Creating Layer pool3
I1205 00:33:39.252363 22338 net.cpp:406] pool3 <- conv3_3
I1205 00:33:39.252379 22338 net.cpp:380] pool3 -> pool3
I1205 00:33:39.252439 22338 net.cpp:122] Setting up pool3
I1205 00:33:39.252455 22338 net.cpp:129] Top shape: 16 256 28 28 (3211264)
I1205 00:33:39.252470 22338 net.cpp:137] Memory required for data: 1640956096
I1205 00:33:39.252482 22338 layer_factory.hpp:77] Creating layer conv4_1
I1205 00:33:39.252503 22338 net.cpp:84] Creating Layer conv4_1
I1205 00:33:39.252516 22338 net.cpp:406] conv4_1 <- pool3
I1205 00:33:39.252534 22338 net.cpp:380] conv4_1 -> conv4_1
I1205 00:33:39.268795 22338 net.cpp:122] Setting up conv4_1
I1205 00:33:39.268826 22338 net.cpp:129] Top shape: 16 512 28 28 (6422528)
I1205 00:33:39.268838 22338 net.cpp:137] Memory required for data: 1666646208
I1205 00:33:39.268857 22338 layer_factory.hpp:77] Creating layer relu4_1
I1205 00:33:39.268874 22338 net.cpp:84] Creating Layer relu4_1
I1205 00:33:39.268888 22338 net.cpp:406] relu4_1 <- conv4_1
I1205 00:33:39.268904 22338 net.cpp:367] relu4_1 -> conv4_1 (in-place)
I1205 00:33:39.268923 22338 net.cpp:122] Setting up relu4_1
I1205 00:33:39.268936 22338 net.cpp:129] Top shape: 16 512 28 28 (6422528)
I1205 00:33:39.268947 22338 net.cpp:137] Memory required for data: 1692336320
I1205 00:33:39.268960 22338 layer_factory.hpp:77] Creating layer conv4_2
I1205 00:33:39.268980 22338 net.cpp:84] Creating Layer conv4_2
I1205 00:33:39.268992 22338 net.cpp:406] conv4_2 <- conv4_1
I1205 00:33:39.269008 22338 net.cpp:380] conv4_2 -> conv4_2
I1205 00:33:39.296015 22338 net.cpp:122] Setting up conv4_2
I1205 00:33:39.296049 22338 net.cpp:129] Top shape: 16 512 28 28 (6422528)
I1205 00:33:39.296062 22338 net.cpp:137] Memory required for data: 1718026432
I1205 00:33:39.296088 22338 layer_factory.hpp:77] Creating layer relu4_2
I1205 00:33:39.296106 22338 net.cpp:84] Creating Layer relu4_2
I1205 00:33:39.296119 22338 net.cpp:406] relu4_2 <- conv4_2
I1205 00:33:39.296134 22338 net.cpp:367] relu4_2 -> conv4_2 (in-place)
I1205 00:33:39.296151 22338 net.cpp:122] Setting up relu4_2
I1205 00:33:39.296164 22338 net.cpp:129] Top shape: 16 512 28 28 (6422528)
I1205 00:33:39.296174 22338 net.cpp:137] Memory required for data: 1743716544
I1205 00:33:39.296186 22338 layer_factory.hpp:77] Creating layer conv4_3
I1205 00:33:39.296203 22338 net.cpp:84] Creating Layer conv4_3
I1205 00:33:39.296214 22338 net.cpp:406] conv4_3 <- conv4_2
I1205 00:33:39.296234 22338 net.cpp:380] conv4_3 -> conv4_3
I1205 00:33:39.322595 22338 net.cpp:122] Setting up conv4_3
I1205 00:33:39.322628 22338 net.cpp:129] Top shape: 16 512 28 28 (6422528)
I1205 00:33:39.322639 22338 net.cpp:137] Memory required for data: 1769406656
I1205 00:33:39.322657 22338 layer_factory.hpp:77] Creating layer relu4_3
I1205 00:33:39.322675 22338 net.cpp:84] Creating Layer relu4_3
I1205 00:33:39.322688 22338 net.cpp:406] relu4_3 <- conv4_3
I1205 00:33:39.322705 22338 net.cpp:367] relu4_3 -> conv4_3 (in-place)
I1205 00:33:39.322722 22338 net.cpp:122] Setting up relu4_3
I1205 00:33:39.322734 22338 net.cpp:129] Top shape: 16 512 28 28 (6422528)
I1205 00:33:39.322744 22338 net.cpp:137] Memory required for data: 1795096768
I1205 00:33:39.322755 22338 layer_factory.hpp:77] Creating layer pool4
I1205 00:33:39.322769 22338 net.cpp:84] Creating Layer pool4
I1205 00:33:39.322780 22338 net.cpp:406] pool4 <- conv4_3
I1205 00:33:39.322795 22338 net.cpp:380] pool4 -> pool4
I1205 00:33:39.322847 22338 net.cpp:122] Setting up pool4
I1205 00:33:39.322862 22338 net.cpp:129] Top shape: 16 512 14 14 (1605632)
I1205 00:33:39.322872 22338 net.cpp:137] Memory required for data: 1801519296
I1205 00:33:39.322883 22338 layer_factory.hpp:77] Creating layer conv5_1
I1205 00:33:39.322904 22338 net.cpp:84] Creating Layer conv5_1
I1205 00:33:39.322916 22338 net.cpp:406] conv5_1 <- pool4
I1205 00:33:39.322932 22338 net.cpp:380] conv5_1 -> conv5_1
I1205 00:33:39.349385 22338 net.cpp:122] Setting up conv5_1
I1205 00:33:39.349412 22338 net.cpp:129] Top shape: 16 512 14 14 (1605632)
I1205 00:33:39.349424 22338 net.cpp:137] Memory required for data: 1807941824
I1205 00:33:39.349442 22338 layer_factory.hpp:77] Creating layer relu5_1
I1205 00:33:39.349460 22338 net.cpp:84] Creating Layer relu5_1
I1205 00:33:39.349472 22338 net.cpp:406] relu5_1 <- conv5_1
I1205 00:33:39.349486 22338 net.cpp:367] relu5_1 -> conv5_1 (in-place)
I1205 00:33:39.349503 22338 net.cpp:122] Setting up relu5_1
I1205 00:33:39.349514 22338 net.cpp:129] Top shape: 16 512 14 14 (1605632)
I1205 00:33:39.349524 22338 net.cpp:137] Memory required for data: 1814364352
I1205 00:33:39.349535 22338 layer_factory.hpp:77] Creating layer conv5_2
I1205 00:33:39.349553 22338 net.cpp:84] Creating Layer conv5_2
I1205 00:33:39.349565 22338 net.cpp:406] conv5_2 <- conv5_1
I1205 00:33:39.349580 22338 net.cpp:380] conv5_2 -> conv5_2
I1205 00:33:39.375823 22338 net.cpp:122] Setting up conv5_2
I1205 00:33:39.375847 22338 net.cpp:129] Top shape: 16 512 14 14 (1605632)
I1205 00:33:39.375859 22338 net.cpp:137] Memory required for data: 1820786880
I1205 00:33:39.375874 22338 layer_factory.hpp:77] Creating layer relu5_2
I1205 00:33:39.375890 22338 net.cpp:84] Creating Layer relu5_2
I1205 00:33:39.375901 22338 net.cpp:406] relu5_2 <- conv5_2
I1205 00:33:39.375915 22338 net.cpp:367] relu5_2 -> conv5_2 (in-place)
I1205 00:33:39.375931 22338 net.cpp:122] Setting up relu5_2
I1205 00:33:39.375943 22338 net.cpp:129] Top shape: 16 512 14 14 (1605632)
I1205 00:33:39.375954 22338 net.cpp:137] Memory required for data: 1827209408
I1205 00:33:39.375964 22338 layer_factory.hpp:77] Creating layer conv5_3
I1205 00:33:39.375980 22338 net.cpp:84] Creating Layer conv5_3
I1205 00:33:39.375993 22338 net.cpp:406] conv5_3 <- conv5_2
I1205 00:33:39.376006 22338 net.cpp:380] conv5_3 -> conv5_3
I1205 00:33:39.402078 22338 net.cpp:122] Setting up conv5_3
I1205 00:33:39.402106 22338 net.cpp:129] Top shape: 16 512 14 14 (1605632)
I1205 00:33:39.402117 22338 net.cpp:137] Memory required for data: 1833631936
I1205 00:33:39.402132 22338 layer_factory.hpp:77] Creating layer relu5_3
I1205 00:33:39.402146 22338 net.cpp:84] Creating Layer relu5_3
I1205 00:33:39.402158 22338 net.cpp:406] relu5_3 <- conv5_3
I1205 00:33:39.402171 22338 net.cpp:367] relu5_3 -> conv5_3 (in-place)
I1205 00:33:39.402185 22338 net.cpp:122] Setting up relu5_3
I1205 00:33:39.402197 22338 net.cpp:129] Top shape: 16 512 14 14 (1605632)
I1205 00:33:39.402207 22338 net.cpp:137] Memory required for data: 1840054464
I1205 00:33:39.402221 22338 layer_factory.hpp:77] Creating layer pool5
I1205 00:33:39.402241 22338 net.cpp:84] Creating Layer pool5
I1205 00:33:39.402252 22338 net.cpp:406] pool5 <- conv5_3
I1205 00:33:39.402266 22338 net.cpp:380] pool5 -> pool5
I1205 00:33:39.402319 22338 net.cpp:122] Setting up pool5
I1205 00:33:39.402335 22338 net.cpp:129] Top shape: 16 512 7 7 (401408)
I1205 00:33:39.402346 22338 net.cpp:137] Memory required for data: 1841660096
I1205 00:33:39.402356 22338 layer_factory.hpp:77] Creating layer fc6
I1205 00:33:39.402371 22338 net.cpp:84] Creating Layer fc6
I1205 00:33:39.402382 22338 net.cpp:406] fc6 <- pool5
I1205 00:33:39.402397 22338 net.cpp:380] fc6 -> fc6
I1205 00:33:40.551035 22338 net.cpp:122] Setting up fc6
I1205 00:33:40.551082 22338 net.cpp:129] Top shape: 16 4096 (65536)
I1205 00:33:40.551095 22338 net.cpp:137] Memory required for data: 1841922240
I1205 00:33:40.551113 22338 layer_factory.hpp:77] Creating layer relu6
I1205 00:33:40.551133 22338 net.cpp:84] Creating Layer relu6
I1205 00:33:40.551146 22338 net.cpp:406] relu6 <- fc6
I1205 00:33:40.551164 22338 net.cpp:367] relu6 -> fc6 (in-place)
I1205 00:33:40.551182 22338 net.cpp:122] Setting up relu6
I1205 00:33:40.551194 22338 net.cpp:129] Top shape: 16 4096 (65536)
I1205 00:33:40.551204 22338 net.cpp:137] Memory required for data: 1842184384
I1205 00:33:40.551215 22338 layer_factory.hpp:77] Creating layer drop6
I1205 00:33:40.551286 22338 net.cpp:84] Creating Layer drop6
I1205 00:33:40.551301 22338 net.cpp:406] drop6 <- fc6
I1205 00:33:40.551317 22338 net.cpp:367] drop6 -> fc6 (in-place)
I1205 00:33:40.551362 22338 net.cpp:122] Setting up drop6
I1205 00:33:40.551376 22338 net.cpp:129] Top shape: 16 4096 (65536)
I1205 00:33:40.551388 22338 net.cpp:137] Memory required for data: 1842446528
I1205 00:33:40.551398 22338 layer_factory.hpp:77] Creating layer fc7
I1205 00:33:40.551416 22338 net.cpp:84] Creating Layer fc7
I1205 00:33:40.551427 22338 net.cpp:406] fc7 <- fc6
I1205 00:33:40.551440 22338 net.cpp:380] fc7 -> fc7
I1205 00:33:40.739928 22338 net.cpp:122] Setting up fc7
I1205 00:33:40.739974 22338 net.cpp:129] Top shape: 16 4096 (65536)
I1205 00:33:40.739985 22338 net.cpp:137] Memory required for data: 1842708672
I1205 00:33:40.740005 22338 layer_factory.hpp:77] Creating layer relu7
I1205 00:33:40.740025 22338 net.cpp:84] Creating Layer relu7
I1205 00:33:40.740038 22338 net.cpp:406] relu7 <- fc7
I1205 00:33:40.740052 22338 net.cpp:367] relu7 -> fc7 (in-place)
I1205 00:33:40.740070 22338 net.cpp:122] Setting up relu7
I1205 00:33:40.740082 22338 net.cpp:129] Top shape: 16 4096 (65536)
I1205 00:33:40.740092 22338 net.cpp:137] Memory required for data: 1842970816
I1205 00:33:40.740103 22338 layer_factory.hpp:77] Creating layer drop7
I1205 00:33:40.740118 22338 net.cpp:84] Creating Layer drop7
I1205 00:33:40.740129 22338 net.cpp:406] drop7 <- fc7
I1205 00:33:40.740141 22338 net.cpp:367] drop7 -> fc7 (in-place)
I1205 00:33:40.740181 22338 net.cpp:122] Setting up drop7
I1205 00:33:40.740197 22338 net.cpp:129] Top shape: 16 4096 (65536)
I1205 00:33:40.740207 22338 net.cpp:137] Memory required for data: 1843232960
I1205 00:33:40.740218 22338 layer_factory.hpp:77] Creating layer fc_scv_accessible
I1205 00:33:40.740234 22338 net.cpp:84] Creating Layer fc_scv_accessible
I1205 00:33:40.740244 22338 net.cpp:406] fc_scv_accessible <- fc7
I1205 00:33:40.740259 22338 net.cpp:380] fc_scv_accessible -> fc_scv_accessible
I1205 00:33:40.740401 22338 net.cpp:122] Setting up fc_scv_accessible
I1205 00:33:40.740416 22338 net.cpp:129] Top shape: 16 1 (16)
I1205 00:33:40.740425 22338 net.cpp:137] Memory required for data: 1843233024
I1205 00:33:40.740439 22338 layer_factory.hpp:77] Creating layer fc_scv_accessible_fc_scv_accessible_0_split
I1205 00:33:40.740453 22338 net.cpp:84] Creating Layer fc_scv_accessible_fc_scv_accessible_0_split
I1205 00:33:40.740464 22338 net.cpp:406] fc_scv_accessible_fc_scv_accessible_0_split <- fc_scv_accessible
I1205 00:33:40.740478 22338 net.cpp:380] fc_scv_accessible_fc_scv_accessible_0_split -> fc_scv_accessible_fc_scv_accessible_0_split_0
I1205 00:33:40.740497 22338 net.cpp:380] fc_scv_accessible_fc_scv_accessible_0_split -> fc_scv_accessible_fc_scv_accessible_0_split_1
I1205 00:33:40.740548 22338 net.cpp:122] Setting up fc_scv_accessible_fc_scv_accessible_0_split
I1205 00:33:40.740562 22338 net.cpp:129] Top shape: 16 1 (16)
I1205 00:33:40.740573 22338 net.cpp:129] Top shape: 16 1 (16)
I1205 00:33:40.740589 22338 net.cpp:137] Memory required for data: 1843233152
I1205 00:33:40.740600 22338 layer_factory.hpp:77] Creating layer loss
I1205 00:33:40.740614 22338 net.cpp:84] Creating Layer loss
I1205 00:33:40.740625 22338 net.cpp:406] loss <- fc_scv_accessible_fc_scv_accessible_0_split_0
I1205 00:33:40.740638 22338 net.cpp:406] loss <- label_data_1_split_0
I1205 00:33:40.740653 22338 net.cpp:380] loss -> loss
…
